…
I1214 21:00:41.866396 20057 net.cpp:257] The NetState phase (0) differed from the phase (1) specified by a rule in layer loss3/top-5
I1214 21:00:41.867840 20057 net.cpp:42] Initializing net from parameters: 
name: "GoogleNet"
state {
  phase: TRAIN
}
layer {
  name: "data"
  type: "Data"
  top: "data"
  top: "label"
  include {
    phase: TRAIN
  }
  transform_param {
    mirror: true
    crop_size: 224
    mean_value: 104
    mean_value: 117
    mean_value: 123
  }
  data_param {
    source: "/home/coldmanck/kaggle/kaggle2_train_lmdb"
    batch_size: 32
    backend: LMDB
  }
}
layer {
  name: "conv1/7x7_s2"
  type: "Convolution"
  bottom: "data"
  top: "conv1/7x7_s2"
  param {
    lr_mult: 1
    decay_mult: 1
  }
  param {
    lr_mult: 2
    decay_mult: 0
  }
  convolution_param {
    num_output: 64
    pad: 3
    kernel_size: 7
    stride: 2
    weight_filler {
      type: "xavier"
      std: 0.1
    }
    bias_filler {
      type: "constant"
      value: 0.2
    }
  }
}
layer {
  name: "conv1/relu_7x7"
  type: "ReLU"
  bottom: "conv1/7x7_s2"
  top: "conv1/7x7_s2"
}
layer {
  name: "pool1/3x3_s2"
  type: "Pooling"
  bottom: "conv1/7x7_s2"
  top: "pool1/3x3_s2"
  pooling_param {
    pool: MAX
    kernel_size: 3
    stride: 2
  }
}
layer {
  name: "pool1/norm1"
  type: "LRN"
  bottom: "pool1/3x3_s2"
  top: "pool1/norm1"
  lrn_param {
    local_size: 5
    alpha: 0.0001
    beta: 0.75
  }
}
layer {
  name: "conv2/3x3_reduce"
  type: "Convolution"
  bottom: "pool1/norm1"
  top: "conv2/3x3_reduce"
  param {
    lr_mult: 1
    decay_mult: 1
  }
  param {
    lr_mult: 2
    decay_mult: 0
  }
  convolution_param {
    num_output: 64
    kernel_size: 1
    weight_filler {
      type: "xavier"
      std: 0.1
    }
    bias_filler {
      type: "constant"
      value: 0.2
    }
  }
}
layer {
  name: "conv2/relu_3x3_reduce"
  type: "ReLU"
  bottom: "conv2/3x3_reduce"
  top: "conv2/3x3_reduce"
}
layer {
  name: "conv2/3x3"
  type: "Convolution"
  bottom: "conv2/3x3_reduce"
  top: "conv2/3x3"
  param {
    lr_mult: 1
    decay_mult: 1
  }
  param {
    lr_mult: 2
    decay_mult: 0
  }
  convolution_param {
    num_output: 192
    pad: 1
    kernel_size: 3
    weight_filler {
      type: "xavier"
      std: 0.03
    }
    bias_filler {
      type: "constant"
      value: 0.2
    }
  }
}
layer {
  name: "conv2/relu_3x3"
  type: "ReLU"
  bottom: "conv2/3x3"
  top: "conv2/3x3"
}
layer {
  name: "conv2/norm2"
  type: "LRN"
  bottom: "conv2/3x3"
  top: "conv2/norm2"
  lrn_param {
    local_size: 5
    alpha: 0.0001
    beta: 0.75
  }
}
layer {
  name: "pool2/3x3_s2"
  type: "Pooling"
  bottom: "conv2/norm2"
  top: "pool2/3x3_s2"
  pooling_param {
    pool: MAX
    kernel_size: 3
    stride: 2
  }
}
layer {
  name: "inception_3a/1x1"
  type: "Convolution"
  bottom: "pool2/3x3_s2"
  top: "inception_3a/1x1"
  param {
    lr_mult: 1
    decay_mult: 1
  }
  param {
    lr_mult: 2
    decay_mult: 0
  }
  convolution_param {
    num_output: 64
    kernel_size: 1
    weight_filler {
      type: "xavier"
      std: 0.03
    }
    bias_filler {
      type: "constant"
      value: 0.2
    }
  }
}
layer {
  name: "inception_3a/relu_1x1"
  type: "ReLU"
  bottom: "inception_3a/1x1"
  top: "inception_3a/1x1"
}
layer {
  name: "inception_3a/3x3_reduce"
  type: "Convolution"
  bottom: "pool2/3x3_s2"
  top: "inception_3a/3x3_reduce"
  param {
    lr_mult: 1
    decay_mult: 1
  }
  param {
    lr_mult: 2
    decay_mult: 0
  }
  convolution_param {
    num_output: 96
    kernel_size: 1
    weight_filler {
      type: "xavier"
      std: 0.09
    }
    bias_filler {
      type: "constant"
      value: 0.2
    }
  }
}
layer {
  name: "inception_3a/relu_3x3_reduce"
  type: "ReLU"
  bottom: "inception_3a/3x3_reduce"
  top: "inception_3a/3x3_reduce"
}
layer {
  name: "inception_3a/3x3"
  type: "Convolution"
  bottom: "inception_3a/3x3_reduce"
  top: "inception_3a/3x3"
  param {
    lr_mult: 1
    decay_mult: 1
  }
  param {
    lr_mult: 2
    decay_mult: 0
  }
  convolution_param {
    num_output: 128
    pad: 1
    kernel_size: 3
    weight_filler {
      type: "xavier"
      std: 0.03
    }
    bias_filler {
      type: "constant"
      value: 0.2
    }
  }
}
layer {
  name: "inception_3a/relu_3x3"
  type: "ReLU"
  bottom: "inception_3a/3x3"
  top: "inception_3a/3x3"
}
layer {
  name: "inception_3a/5x5_reduce"
  type: "Convolution"
  bottom: "pool2/3x3_s2"
  top: "inception_3a/5x5_reduce"
  param {
    lr_mult: 1
    decay_mult: 1
  }
  param {
    lr_mult: 2
    decay_mult: 0
  }
  convolution_param {
    num_output: 16
    kernel_size: 1
    weight_filler {
      type: "xavier"
      std: 0.2
    }
    bias_filler {
      type: "constant"
      value: 0.2
    }
  }
}
layer {
  name: "inception_3a/relu_5x5_reduce"
  type: "ReLU"
  bottom: "inception_3a/5x5_reduce"
  top: "inception_3a/5x5_reduce"
}
layer {
  name: "inception_3a/5x5"
  type: "Convolution"
  bottom: "inception_3a/5x5_reduce"
  top: "inception_3a/5x5"
  param {
    lr_mult: 1
    decay_mult: 1
  }
  param {
    lr_mult: 2
    decay_mult: 0
  }
  convolution_param {
    num_output: 32
    pad: 2
    kernel_size: 5
    weight_filler {
      type: "xavier"
      std: 0.03
    }
    bias_filler {
      type: "constant"
      value: 0.2
    }
  }
}
layer {
  name: "inception_3a/relu_5x5"
  type: "ReLU"
  bottom: "inception_3a/5x5"
  top: "inception_3a/5x5"
}
layer {
  name: "inception_3a/pool"
  type: "Pooling"
  bottom: "pool2/3x3_s2"
  top: "inception_3a/pool"
  pooling_param {
    pool: MAX
    kernel_size: 3
    stride: 1
    pad: 1
  }
}
layer {
  name: "inception_3a/pool_proj"
  type: "Convolution"
  bottom: "inception_3a/pool"
  top: "inception_3a/pool_proj"
  param {
    lr_mult: 1
    decay_mult: 1
  }
  param {
    lr_mult: 2
    decay_mult: 0
  }
  convolution_param {
    num_output: 32
    kernel_size: 1
    weight_filler {
      type: "xavier"
      std: 0.1
    }
    bias_filler {
      type: "constant"
      value: 0.2
    }
  }
}
layer {
  name: "inception_3a/relu_pool_proj"
  type: "ReLU"
  bottom: "inception_3a/pool_proj"
  top: "inception_3a/pool_proj"
}
layer {
  name: "inception_3a/output"
  type: "Concat"
  bottom: "inception_3a/1x1"
  bottom: "inception_3a/3x3"
  bottom: "inception_3a/5x5"
  bottom: "inception_3a/pool_proj"
  top: "inception_3a/output"
}
layer {
  name: "inception_3b/1x1"
  type: "Convolution"
  bottom: "inception_3a/output"
  top: "inception_3b/1x1"
  param {
    lr_mult: 1
    decay_mult: 1
  }
  param {
    lr_mult: 2
    decay_mult: 0
  }
  convolution_param {
    num_output: 128
    kernel_size: 1
    weight_filler {
      type: "xavier"
      std: 0.03
    }
    bias_filler {
      type: "constant"
      value: 0.2
    }
  }
}
layer {
  name: "inception_3b/relu_1x1"
  type: "ReLU"
  bottom: "inception_3b/1x1"
  top: "inception_3b/1x1"
}
layer {
  name: "inception_3b/3x3_reduce"
  type: "Convolution"
  bottom: "inception_3a/output"
  top: "inception_3b/3x3_reduce"
  param {
    lr_mult: 1
    decay_mult: 1
  }
  param {
    lr_mult: 2
    decay_mult: 0
  }
  convolution_param {
    num_output: 128
    kernel_size: 1
    weight_filler {
      type: "xavier"
      std: 0.09
    }
    bias_filler {
      type: "constant"
      value: 0.2
    }
  }
}
layer {
  name: "inception_3b/relu_3x3_reduce"
  type: "ReLU"
  bottom: "inception_3b/3x3_reduce"
  top: "inception_3b/3x3_reduce"
}
layer {
  name: "inception_3b/3x3"
  type: "Convolution"
  bottom: "inception_3b/3x3_reduce"
  top: "inception_3b/3x3"
  param {
    lr_mult: 1
    decay_mult: 1
  }
  param {
    lr_mult: 2
    decay_mult: 0
  }
  convolution_param {
    num_output: 192
    pad: 1
    kernel_size: 3
    weight_filler {
      type: "xavier"
      std: 0.03
    }
    bias_filler {
      type: "constant"
      value: 0.2
    }
  }
}
layer {
  name: "inception_3b/relu_3x3"
  type: "ReLU"
  bottom: "inception_3b/3x3"
  top: "inception_3b/3x3"
}
layer {
  name: "inception_3b/5x5_reduce"
  type: "Convolution"
  bottom: "inception_3a/output"
  top: "inception_3b/5x5_reduce"
  param {
    lr_mult: 1
    decay_mult: 1
  }
  param {
    lr_mult: 2
    decay_mult: 0
  }
  convolution_param {
    num_output: 32
    kernel_size: 1
    weight_filler {
      type: "xavier"
      std: 0.2
    }
    bias_filler {
      type: "constant"
      value: 0.2
    }
  }
}
layer {
  name: "inception_3b/relu_5x5_reduce"
  type: "ReLU"
  bottom: "inception_3b/5x5_reduce"
  top: "inception_3b/5x5_reduce"
}
layer {
  name: "inception_3b/5x5"
  type: "Convolution"
  bottom: "inception_3b/5x5_reduce"
  top: "inception_3b/5x5"
  param {
    lr_mult: 1
    decay_mult: 1
  }
  param {
    lr_mult: 2
    decay_mult: 0
  }
  convolution_param {
    num_output: 96
    pad: 2
    kernel_size: 5
    weight_filler {
      type: "xavier"
      std: 0.03
    }
    bias_filler {
      type: "constant"
      value: 0.2
    }
  }
}
layer {
  name: "inception_3b/relu_5x5"
  type: "ReLU"
  bottom: "inception_3b/5x5"
  top: "inception_3b/5x5"
}
layer {
  name: "inception_3b/pool"
  type: "Pooling"
  bottom: "inception_3a/output"
  top: "inception_3b/pool"
  pooling_param {
    pool: MAX
    kernel_size: 3
    stride: 1
    pad: 1
  }
}
layer {
  name: "inception_3b/pool_proj"
  type: "Convolution"
  bottom: "inception_3b/pool"
  top: "inception_3b/pool_proj"
  param {
    lr_mult: 1
    decay_mult: 1
  }
  param {
    lr_mult: 2
    decay_mult: 0
  }
  convolution_param {
    num_output: 64
    kernel_size: 1
    weight_filler {
      type: "xavier"
      std: 0.1
    }
    bias_filler {
      type: "constant"
      value: 0.2
    }
  }
}
layer {
  name: "inception_3b/relu_pool_proj"
  type: "ReLU"
  bottom: "inception_3b/pool_proj"
  top: "inception_3b/pool_proj"
}
layer {
  name: "inception_3b/output"
  type: "Concat"
  bottom: "inception_3b/1x1"
  bottom: "inception_3b/3x3"
  bottom: "inception_3b/5x5"
  bottom: "inception_3b/pool_proj"
  top: "inception_3b/output"
}
layer {
  name: "pool3/3x3_s2"
  type: "Pooling"
  bottom: "inception_3b/output"
  top: "pool3/3x3_s2"
  pooling_param {
    pool: MAX
    kernel_size: 3
    stride: 2
  }
}
layer {
  name: "inception_4a/1x1"
  type: "Convolution"
  bottom: "pool3/3x3_s2"
  top: "inception_4a/1x1"
  param {
    lr_mult: 1
    decay_mult: 1
  }
  param {
    lr_mult: 2
    decay_mult: 0
  }
  convolution_param {
    num_output: 192
    kernel_size: 1
    weight_filler {
      type: "xavier"
      std: 0.03
    }
    bias_filler {
      type: "constant"
      value: 0.2
    }
  }
}
layer {
  name: "inception_4a/relu_1x1"
  type: "ReLU"
  bottom: "inception_4a/1x1"
  top: "inception_4a/1x1"
}
layer {
  name: "inception_4a/3x3_reduce"
  type: "Convolution"
  bottom: "pool3/3x3_s2"
  top: "inception_4a/3x3_reduce"
  param {
    lr_mult: 1
    decay_mult: 1
  }
  param {
    lr_mult: 2
    decay_mult: 0
  }
  convolution_param {
    num_output: 96
    kernel_size: 1
    weight_filler {
      type: "xavier"
      std: 0.09
    }
    bias_filler {
      type: "constant"
      value: 0.2
    }
  }
}
layer {
  name: "inception_4a/relu_3x3_reduce"
  type: "ReLU"
  bottom: "inception_4a/3x3_reduce"
  top: "inception_4a/3x3_reduce"
}
layer {
  name: "inception_4a/3x3"
  type: "Convolution"
  bottom: "inception_4a/3x3_reduce"
  top: "inception_4a/3x3"
  param {
    lr_mult: 1
    decay_mult: 1
  }
  param {
    lr_mult: 2
    decay_mult: 0
  }
  convolution_param {
    num_output: 208
    pad: 1
    kernel_size: 3
    weight_filler {
      type: "xavier"
      std: 0.03
    }
    bias_filler {
      type: "constant"
      value: 0.2
    }
  }
}
layer {
  name: "inception_4a/relu_3x3"
  type: "ReLU"
  bottom: "inception_4a/3x3"
  top: "inception_4a/3x3"
}
layer {
  name: "inception_4a/5x5_reduce"
  type: "Convolution"
  bottom: "pool3/3x3_s2"
  top: "inception_4a/5x5_reduce"
  param {
    lr_mult: 1
    decay_mult: 1
  }
  param {
    lr_mult: 2
    decay_mult: 0
  }
  convolution_param {
    num_output: 16
    kernel_size: 1
    weight_filler {
      type: "xavier"
      std: 0.2
    }
    bias_filler {
      type: "constant"
      value: 0.2
    }
  }
}
layer {
  name: "inception_4a/relu_5x5_reduce"
  type: "ReLU"
  bottom: "inception_4a/5x5_reduce"
  top: "inception_4a/5x5_reduce"
}
layer {
  name: "inception_4a/5x5"
  type: "Convolution"
  bottom: "inception_4a/5x5_reduce"
  top: "inception_4a/5x5"
  param {
    lr_mult: 1
    decay_mult: 1
  }
  param {
    lr_mult: 2
    decay_mult: 0
  }
  convolution_param {
    num_output: 48
    pad: 2
    kernel_size: 5
    weight_filler {
      type: "xavier"
      std: 0.03
    }
    bias_filler {
      type: "constant"
      value: 0.2
    }
  }
}
layer {
  name: "inception_4a/relu_5x5"
  type: "ReLU"
  bottom: "inception_4a/5x5"
  top: "inception_4a/5x5"
}
layer {
  name: "inception_4a/pool"
  type: "Pooling"
  bottom: "pool3/3x3_s2"
  top: "inception_4a/pool"
  pooling_param {
    pool: MAX
    kernel_size: 3
    stride: 1
    pad: 1
  }
}
layer {
  name: "inception_4a/pool_proj"
  type: "Convolution"
  bottom: "inception_4a/pool"
  top: "inception_4a/pool_proj"
  param {
    lr_mult: 1
    decay_mult: 1
  }
  param {
    lr_mult: 2
    decay_mult: 0
  }
  convolution_param {
    num_output: 64
    kernel_size: 1
    weight_filler {
      type: "xavier"
      std: 0.1
    }
    bias_filler {
      type: "constant"
      value: 0.2
    }
  }
}
layer {
  name: "inception_4a/relu_pool_proj"
  type: "ReLU"
  bottom: "inception_4a/pool_proj"
  top: "inception_4a/pool_proj"
}
layer {
  name: "inception_4a/output"
  type: "Concat"
  bottom: "inception_4a/1x1"
  bottom: "inception_4a/3x3"
  bottom: "inception_4a/5x5"
  bottom: "inception_4a/pool_proj"
  top: "inception_4a/output"
}
layer {
  name: "loss1/ave_pool"
  type: "Pooling"
  bottom: "inception_4a/output"
  top: "loss1/ave_pool"
  pooling_param {
    pool: AVE
    kernel_size: 5
    stride: 3
  }
}
layer {
  name: "loss1/conv"
  type: "Convolution"
  bottom: "loss1/ave_pool"
  top: "loss1/conv"
  param {
    lr_mult: 1
    decay_mult: 1
  }
  param {
    lr_mult: 2
    decay_mult: 0
  }
  convolution_param {
    num_output: 128
    kernel_size: 1
    weight_filler {
      type: "xavier"
      std: 0.08
    }
    bias_filler {
      type: "constant"
      value: 0.2
    }
  }
}
layer {
  name: "loss1/relu_conv"
  type: "ReLU"
  bottom: "loss1/conv"
  top: "loss1/conv"
}
layer {
  name: "loss1/fc"
  type: "InnerProduct"
  bottom: "loss1/conv"
  top: "loss1/fc"
  param {
    lr_mult: 1
    decay_mult: 1
  }
  param {
    lr_mult: 2
    decay_mult: 0
  }
  inner_product_param {
    num_output: 1024
    weight_filler {
      type: "xavier"
      std: 0.02
    }
    bias_filler {
      type: "constant"
      value: 0.2
    }
  }
}
layer {
  name: "loss1/relu_fc"
  type: "ReLU"
  bottom: "loss1/fc"
  top: "loss1/fc"
}
layer {
  name: "loss1/drop_fc"
  type: "Dropout"
  bottom: "loss1/fc"
  top: "loss1/fc"
  dropout_param {
    dropout_ratio: 0.7
  }
}
layer {
  name: "loss1/classifier_kaggle"
  type: "InnerProduct"
  bottom: "loss1/fc"
  top: "loss1/classifier_kaggle"
  param {
    lr_mult: 1
    decay_mult: 1
  }
  param {
    lr_mult: 2
    decay_mult: 0
  }
  inner_product_param {
    num_output: 447
    weight_filler {
      type: "xavier"
      std: 0.0009765625
    }
    bias_filler {
      type: "constant"
      value: 0
    }
  }
}
layer {
  name: "loss1/loss"
  type: "SoftmaxWithLoss"
  bottom: "loss1/classifier_kaggle"
  bottom: "label"
  top: "loss1/loss1"
  loss_weight: 0.3
}
layer {
  name: "inception_4b/1x1"
  type: "Convolution"
  bottom: "inception_4a/output"
  top: "inception_4b/1x1"
  param {
    lr_mult: 1
    decay_mult: 1
  }
  param {
    lr_mult: 2
    decay_mult: 0
  }
  convolution_param {
    num_output: 160
    kernel_size: 1
    weight_filler {
      type: "xavier"
      std: 0.03
    }
    bias_filler {
      type: "constant"
      value: 0.2
    }
  }
}
layer {
  name: "inception_4b/relu_1x1"
  type: "ReLU"
  bottom: "inception_4b/1x1"
  top: "inception_4b/1x1"
}
layer {
  name: "inception_4b/3x3_reduce"
  type: "Convolution"
  bottom: "inception_4a/output"
  top: "inception_4b/3x3_reduce"
  param {
    lr_mult: 1
    decay_mult: 1
  }
  param {
    lr_mult: 2
    decay_mult: 0
  }
  convolution_param {
    num_output: 112
    kernel_size: 1
    weight_filler {
      type: "xavier"
      std: 0.09
    }
    bias_filler {
      type: "constant"
      value: 0.2
    }
  }
}
layer {
  name: "inception_4b/relu_3x3_reduce"
  type: "ReLU"
  bottom: "inception_4b/3x3_reduce"
  top: "inception_4b/3x3_reduce"
}
layer {
  name: "inception_4b/3x3"
  type: "Convolution"
  bottom: "inception_4b/3x3_reduce"
  top: "inception_4b/3x3"
  param {
    lr_mult: 1
    decay_mult: 1
  }
  param {
    lr_mult: 2
    decay_mult: 0
  }
  convolution_param {
    num_output: 224
    pad: 1
    kernel_size: 3
    weight_filler {
      type: "xavier"
      std: 0.03
    }
    bias_filler {
      type: "constant"
      value: 0.2
    }
  }
}
layer {
  name: "inception_4b/relu_3x3"
  type: "ReLU"
  bottom: "inception_4b/3x3"
  top: "inception_4b/3x3"
}
layer {
  name: "inception_4b/5x5_reduce"
  type: "Convolution"
  bottom: "inception_4a/output"
  top: "inception_4b/5x5_reduce"
  param {
    lr_mult: 1
    decay_mult: 1
  }
  param {
    lr_mult: 2
    decay_mult: 0
  }
  convolution_param {
    num_output: 24
    kernel_size: 1
    weight_filler {
      type: "xavier"
      std: 0.2
    }
    bias_filler {
      type: "constant"
      value: 0.2
    }
  }
}
layer {
  name: "inception_4b/relu_5x5_reduce"
  type: "ReLU"
  bottom: "inception_4b/5x5_reduce"
  top: "inception_4b/5x5_reduce"
}
layer {
  name: "inception_4b/5x5"
  type: "Convolution"
  bottom: "inception_4b/5x5_reduce"
  top: "inception_4b/5x5"
  param {
    lr_mult: 1
    decay_mult: 1
  }
  param {
    lr_mult: 2
    decay_mult: 0
  }
  convolution_param {
    num_output: 64
    pad: 2
    kernel_size: 5
    weight_filler {
      type: "xavier"
      std: 0.03
    }
    bias_filler {
      type: "constant"
      value: 0.2
    }
  }
}
layer {
  name: "inception_4b/relu_5x5"
  type: "ReLU"
  bottom: "inception_4b/5x5"
  top: "inception_4b/5x5"
}
layer {
  name: "inception_4b/pool"
  type: "Pooling"
  bottom: "inception_4a/output"
  top: "inception_4b/pool"
  pooling_param {
    pool: MAX
    kernel_size: 3
    stride: 1
    pad: 1
  }
}
layer {
  name: "inception_4b/pool_proj"
  type: "Convolution"
  bottom: "inception_4b/pool"
  top: "inception_4b/pool_proj"
  param {
    lr_mult: 1
    decay_mult: 1
  }
  param {
    lr_mult: 2
    decay_mult: 0
  }
  convolution_param {
    num_output: 64
    kernel_size: 1
    weight_filler {
      type: "xavier"
      std: 0.1
    }
    bias_filler {
      type: "constant"
      value: 0.2
    }
  }
}
layer {
  name: "inception_4b/relu_pool_proj"
  type: "ReLU"
  bottom: "inception_4b/pool_proj"
  top: "inception_4b/pool_proj"
}
layer {
  name: "inception_4b/output"
  type: "Concat"
  bottom: "inception_4b/1x1"
  bottom: "inception_4b/3x3"
  bottom: "inception_4b/5x5"
  bottom: "inception_4b/pool_proj"
  top: "inception_4b/output"
}
layer {
  name: "inception_4c/1x1"
  type: "Convolution"
  bottom: "inception_4b/output"
  top: "inception_4c/1x1"
  param {
    lr_mult: 1
    decay_mult: 1
  }
  param {
    lr_mult: 2
    decay_mult: 0
  }
  convolution_param {
    num_output: 128
    kernel_size: 1
    weight_filler {
      type: "xavier"
      std: 0.03
    }
    bias_filler {
      type: "constant"
      value: 0.2
    }
  }
}
layer {
  name: "inception_4c/relu_1x1"
  type: "ReLU"
  bottom: "inception_4c/1x1"
  top: "inception_4c/1x1"
}
layer {
  name: "inception_4c/3x3_reduce"
  type: "Convolution"
  bottom: "inception_4b/output"
  top: "inception_4c/3x3_reduce"
  param {
    lr_mult: 1
    decay_mult: 1
  }
  param {
    lr_mult: 2
    decay_mult: 0
  }
  convolution_param {
    num_output: 128
    kernel_size: 1
    weight_filler {
      type: "xavier"
      std: 0.09
    }
    bias_filler {
      type: "constant"
      value: 0.2
    }
  }
}
layer {
  name: "inception_4c/relu_3x3_reduce"
  type: "ReLU"
  bottom: "inception_4c/3x3_reduce"
  top: "inception_4c/3x3_reduce"
}
layer {
  name: "inception_4c/3x3"
  type: "Convolution"
  bottom: "inception_4c/3x3_reduce"
  top: "inception_4c/3x3"
  param {
    lr_mult: 1
    decay_mult: 1
  }
  param {
    lr_mult: 2
    decay_mult: 0
  }
  convolution_param {
    num_output: 256
    pad: 1
    kernel_size: 3
    weight_filler {
      type: "xavier"
      std: 0.03
    }
    bias_filler {
      type: "constant"
      value: 0.2
    }
  }
}
layer {
  name: "inception_4c/relu_3x3"
  type: "ReLU"
  bottom: "inception_4c/3x3"
  top: "inception_4c/3x3"
}
layer {
  name: "inception_4c/5x5_reduce"
  type: "Convolution"
  bottom: "inception_4b/output"
  top: "inception_4c/5x5_reduce"
  param {
    lr_mult: 1
    decay_mult: 1
  }
  param {
    lr_mult: 2
    decay_mult: 0
  }
  convolution_param {
    num_output: 24
    kernel_size: 1
    weight_filler {
      type: "xavier"
      std: 0.2
    }
    bias_filler {
      type: "constant"
      value: 0.2
    }
  }
}
layer {
  name: "inception_4c/relu_5x5_reduce"
  type: "ReLU"
  bottom: "inception_4c/5x5_reduce"
  top: "inception_4c/5x5_reduce"
}
layer {
  name: "inception_4c/5x5"
  type: "Convolution"
  bottom: "inception_4c/5x5_reduce"
  top: "inception_4c/5x5"
  param {
    lr_mult: 1
    decay_mult: 1
  }
  param {
    lr_mult: 2
    decay_mult: 0
  }
  convolution_param {
    num_output: 64
    pad: 2
    kernel_size: 5
    weight_filler {
      type: "xavier"
      std: 0.03
    }
    bias_filler {
      type: "constant"
      value: 0.2
    }
  }
}
layer {
  name: "inception_4c/relu_5x5"
  type: "ReLU"
  bottom: "inception_4c/5x5"
  top: "inception_4c/5x5"
}
layer {
  name: "inception_4c/pool"
  type: "Pooling"
  bottom: "inception_4b/output"
  top: "inception_4c/pool"
  pooling_param {
    pool: MAX
    kernel_size: 3
    stride: 1
    pad: 1
  }
}
layer {
  name: "inception_4c/pool_proj"
  type: "Convolution"
  bottom: "inception_4c/pool"
  top: "inception_4c/pool_proj"
  param {
    lr_mult: 1
    decay_mult: 1
  }
  param {
    lr_mult: 2
    decay_mult: 0
  }
  convolution_param {
    num_output: 64
    kernel_size: 1
    weight_filler {
      type: "xavier"
      std: 0.1
    }
    bias_filler {
      type: "constant"
      value: 0.2
    }
  }
}
layer {
  name: "inception_4c/relu_pool_proj"
  type: "ReLU"
  bottom: "inception_4c/pool_proj"
  top: "inception_4c/pool_proj"
}
layer {
  name: "inception_4c/output"
  type: "Concat"
  bottom: "inception_4c/1x1"
  bottom: "inception_4c/3x3"
  bottom: "inception_4c/5x5"
  bottom: "inception_4c/pool_proj"
  top: "inception_4c/output"
}
layer {
  name: "inception_4d/1x1"
  type: "Convolution"
  bottom: "inception_4c/output"
  top: "inception_4d/1x1"
  param {
    lr_mult: 1
    decay_mult: 1
  }
  param {
    lr_mult: 2
    decay_mult: 0
  }
  convolution_param {
    num_output: 112
    kernel_size: 1
    weight_filler {
      type: "xavier"
      std: 0.03
    }
    bias_filler {
      type: "constant"
      value: 0.2
    }
  }
}
layer {
  name: "inception_4d/relu_1x1"
  type: "ReLU"
  bottom: "inception_4d/1x1"
  top: "inception_4d/1x1"
}
layer {
  name: "inception_4d/3x3_reduce"
  type: "Convolution"
  bottom: "inception_4c/output"
  top: "inception_4d/3x3_reduce"
  param {
    lr_mult: 1
    decay_mult: 1
  }
  param {
    lr_mult: 2
    decay_mult: 0
  }
  convolution_param {
    num_output: 144
    kernel_size: 1
    weight_filler {
      type: "xavier"
      std: 0.09
    }
    bias_filler {
      type: "constant"
      value: 0.2
    }
  }
}
layer {
  name: "inception_4d/relu_3x3_reduce"
  type: "ReLU"
  bottom: "inception_4d/3x3_reduce"
  top: "inception_4d/3x3_reduce"
}
layer {
  name: "inception_4d/3x3"
  type: "Convolution"
  bottom: "inception_4d/3x3_reduce"
  top: "inception_4d/3x3"
  param {
    lr_mult: 1
    decay_mult: 1
  }
  param {
    lr_mult: 2
    decay_mult: 0
  }
  convolution_param {
    num_output: 288
    pad: 1
    kernel_size: 3
    weight_filler {
      type: "xavier"
      std: 0.03
    }
    bias_filler {
      type: "constant"
      value: 0.2
    }
  }
}
layer {
  name: "inception_4d/relu_3x3"
  type: "ReLU"
  bottom: "inception_4d/3x3"
  top: "inception_4d/3x3"
}
layer {
  name: "inception_4d/5x5_reduce"
  type: "Convolution"
  bottom: "inception_4c/output"
  top: "inception_4d/5x5_reduce"
  param {
    lr_mult: 1
    decay_mult: 1
  }
  param {
    lr_mult: 2
    decay_mult: 0
  }
  convolution_param {
    num_output: 32
    kernel_size: 1
    weight_filler {
      type: "xavier"
      std: 0.2
    }
    bias_filler {
      type: "constant"
      value: 0.2
    }
  }
}
layer {
  name: "inception_4d/relu_5x5_reduce"
  type: "ReLU"
  bottom: "inception_4d/5x5_reduce"
  top: "inception_4d/5x5_reduce"
}
layer {
  name: "inception_4d/5x5"
  type: "Convolution"
  bottom: "inception_4d/5x5_reduce"
  top: "inception_4d/5x5"
  param {
    lr_mult: 1
    decay_mult: 1
  }
  param {
    lr_mult: 2
    decay_mult: 0
  }
  convolution_param {
    num_output: 64
    pad: 2
    kernel_size: 5
    weight_filler {
      type: "xavier"
      std: 0.03
    }
    bias_filler {
      type: "constant"
      value: 0.2
    }
  }
}
layer {
  name: "inception_4d/relu_5x5"
  type: "ReLU"
  bottom: "inception_4d/5x5"
  top: "inception_4d/5x5"
}
layer {
  name: "inception_4d/pool"
  type: "Pooling"
  bottom: "inception_4c/output"
  top: "inception_4d/pool"
  pooling_param {
    pool: MAX
    kernel_size: 3
    stride: 1
    pad: 1
  }
}
layer {
  name: "inception_4d/pool_proj"
  type: "Convolution"
  bottom: "inception_4d/pool"
  top: "inception_4d/pool_proj"
  param {
    lr_mult: 1
    decay_mult: 1
  }
  param {
    lr_mult: 2
    decay_mult: 0
  }
  convolution_param {
    num_output: 64
    kernel_size: 1
    weight_filler {
      type: "xavier"
      std: 0.1
    }
    bias_filler {
      type: "constant"
      value: 0.2
    }
  }
}
layer {
  name: "inception_4d/relu_pool_proj"
  type: "ReLU"
  bottom: "inception_4d/pool_proj"
  top: "inception_4d/pool_proj"
}
layer {
  name: "inception_4d/output"
  type: "Concat"
  bottom: "inception_4d/1x1"
  bottom: "inception_4d/3x3"
  bottom: "inception_4d/5x5"
  bottom: "inception_4d/pool_proj"
  top: "inception_4d/output"
}
layer {
  name: "loss2/ave_pool"
  type: "Pooling"
  bottom: "inception_4d/output"
  top: "loss2/ave_pool"
  pooling_param {
    pool: AVE
    kernel_size: 5
    stride: 3
  }
}
layer {
  name: "loss2/conv"
  type: "Convolution"
  bottom: "loss2/ave_pool"
  top: "loss2/conv"
  param {
    lr_mult: 1
    decay_mult: 1
  }
  param {
    lr_mult: 2
    decay_mult: 0
  }
  convolution_param {
    num_output: 128
    kernel_size: 1
    weight_filler {
      type: "xavier"
      std: 0.08
    }
    bias_filler {
      type: "constant"
      value: 0.2
    }
  }
}
layer {
  name: "loss2/relu_conv"
  type: "ReLU"
  bottom: "loss2/conv"
  top: "loss2/conv"
}
layer {
  name: "loss2/fc"
  type: "InnerProduct"
  bottom: "loss2/conv"
  top: "loss2/fc"
  param {
    lr_mult: 1
    decay_mult: 1
  }
  param {
    lr_mult: 2
    decay_mult: 0
  }
  inner_product_param {
    num_output: 1024
    weight_filler {
      type: "xavier"
      std: 0.02
    }
    bias_filler {
      type: "constant"
      value: 0.2
    }
  }
}
layer {
  name: "loss2/relu_fc"
  type: "ReLU"
  bottom: "loss2/fc"
  top: "loss2/fc"
}
layer {
  name: "loss2/drop_fc"
  type: "Dropout"
  bottom: "loss2/fc"
  top: "loss2/fc"
  dropout_param {
    dropout_ratio: 0.7
  }
}
layer {
  name: "loss2/classifier_kaggle"
  type: "InnerProduct"
  bottom: "loss2/fc"
  top: "loss2/classifier_kaggle"
  param {
    lr_mult: 1
    decay_mult: 1
  }
  param {
    lr_mult: 2
    decay_mult: 0
  }
  inner_product_param {
    num_output: 447
    weight_filler {
      type: "xavier"
      std: 0.0009765625
    }
    bias_filler {
      type: "constant"
      value: 0
    }
  }
}
layer {
  name: "loss2/loss"
  type: "SoftmaxWithLoss"
  bottom: "loss2/classifier_kaggle"
  bottom: "label"
  top: "loss2/loss1"
  loss_weight: 0.3
}
layer {
  name: "inception_4e/1x1"
  type: "Convolution"
  bottom: "inception_4d/output"
  top: "inception_4e/1x1"
  param {
    lr_mult: 1
    decay_mult: 1
  }
  param {
    lr_mult: 2
    decay_mult: 0
  }
  convolution_param {
    num_output: 256
    kernel_size: 1
    weight_filler {
      type: "xavier"
      std: 0.03
    }
    bias_filler {
      type: "constant"
      value: 0.2
    }
  }
}
layer {
  name: "inception_4e/relu_1x1"
  type: "ReLU"
  bottom: "inception_4e/1x1"
  top: "inception_4e/1x1"
}
layer {
  name: "inception_4e/3x3_reduce"
  type: "Convolution"
  bottom: "inception_4d/output"
  top: "inception_4e/3x3_reduce"
  param {
    lr_mult: 1
    decay_mult: 1
  }
  param {
    lr_mult: 2
    decay_mult: 0
  }
  convolution_param {
    num_output: 160
    kernel_size: 1
    weight_filler {
      type: "xavier"
      std: 0.09
    }
    bias_filler {
      type: "constant"
      value: 0.2
    }
  }
}
layer {
  name: "inception_4e/relu_3x3_reduce"
  type: "ReLU"
  bottom: "inception_4e/3x3_reduce"
  top: "inception_4e/3x3_reduce"
}
layer {
  name: "inception_4e/3x3"
  type: "Convolution"
  bottom: "inception_4e/3x3_reduce"
  top: "inception_4e/3x3"
  param {
    lr_mult: 1
    decay_mult: 1
  }
  param {
    lr_mult: 2
    decay_mult: 0
  }
  convolution_param {
    num_output: 320
    pad: 1
    kernel_size: 3
    weight_filler {
      type: "xavier"
      std: 0.03
    }
    bias_filler {
      type: "constant"
      value: 0.2
    }
  }
}
layer {
  name: "inception_4e/relu_3x3"
  type: "ReLU"
  bottom: "inception_4e/3x3"
  top: "inception_4e/3x3"
}
layer {
  name: "inception_4e/5x5_reduce"
  type: "Convolution"
  bottom: "inception_4d/output"
  top: "inception_4e/5x5_reduce"
  param {
    lr_mult: 1
    decay_mult: 1
  }
  param {
    lr_mult: 2
    decay_mult: 0
  }
  convolution_param {
    num_output: 32
    kernel_size: 1
    weight_filler {
      type: "xavier"
      std: 0.2
    }
    bias_filler {
      type: "constant"
      value: 0.2
    }
  
I1214 21:00:41.868619 20057 layer_factory.hpp:74] Creating layer data
I1214 21:00:41.868649 20057 net.cpp:84] Creating Layer data
I1214 21:00:41.868657 20057 net.cpp:338] data -> data
I1214 21:00:41.868700 20057 net.cpp:338] data -> label
I1214 21:00:41.868710 20057 net.cpp:113] Setting up data
I1214 21:00:41.868808 20057 db.cpp:34] Opened lmdb /home/coldmanck/kaggle/kaggle2_train_lmdb
I1214 21:00:41.869035 20057 data_layer.cpp:67] output data size: 32,3,224,224
I1214 21:00:41.874243 20057 net.cpp:120] Top shape: 32 3 224 224 (4816896)
I1214 21:00:41.874263 20057 net.cpp:120] Top shape: 32 (32)
I1214 21:00:41.874271 20057 layer_factory.hpp:74] Creating layer label_data_1_split
I1214 21:00:41.874291 20057 net.cpp:84] Creating Layer label_data_1_split
I1214 21:00:41.874299 20057 net.cpp:380] label_data_1_split <- label
I1214 21:00:41.874315 20057 net.cpp:338] label_data_1_split -> label_data_1_split_0
I1214 21:00:41.874326 20057 net.cpp:338] label_data_1_split -> label_data_1_split_1
I1214 21:00:41.874336 20057 net.cpp:338] label_data_1_split -> label_data_1_split_2
I1214 21:00:41.874342 20057 net.cpp:113] Setting up label_data_1_split
I1214 21:00:41.874351 20057 net.cpp:120] Top shape: 32 (32)
I1214 21:00:41.874366 20057 net.cpp:120] Top shape: 32 (32)
I1214 21:00:41.874382 20057 net.cpp:120] Top shape: 32 (32)
I1214 21:00:41.874387 20057 layer_factory.hpp:74] Creating layer conv1/7x7_s2
I1214 21:00:41.874398 20057 net.cpp:84] Creating Layer conv1/7x7_s2
I1214 21:00:41.874403 20057 net.cpp:380] conv1/7x7_s2 <- data
I1214 21:00:41.874410 20057 net.cpp:338] conv1/7x7_s2 -> conv1/7x7_s2
I1214 21:00:41.874421 20057 net.cpp:113] Setting up conv1/7x7_s2
I1214 21:00:42.439188 20057 net.cpp:120] Top shape: 32 64 112 112 (25690112)
I1214 21:00:42.439318 20057 layer_factory.hpp:74] Creating layer conv1/relu_7x7
I1214 21:00:42.439385 20057 net.cpp:84] Creating Layer conv1/relu_7x7
I1214 21:00:42.439422 20057 net.cpp:380] conv1/relu_7x7 <- conv1/7x7_s2
I1214 21:00:42.439453 20057 net.cpp:327] conv1/relu_7x7 -> conv1/7x7_s2 (in-place)
I1214 21:00:42.439471 20057 net.cpp:113] Setting up conv1/relu_7x7
I1214 21:00:42.440295 20057 net.cpp:120] Top shape: 32 64 112 112 (25690112)
I1214 21:00:42.440311 20057 layer_factory.hpp:74] Creating layer pool1/3x3_s2
I1214 21:00:42.440349 20057 net.cpp:84] Creating Layer pool1/3x3_s2
I1214 21:00:42.440357 20057 net.cpp:380] pool1/3x3_s2 <- conv1/7x7_s2
I1214 21:00:42.440367 20057 net.cpp:338] pool1/3x3_s2 -> pool1/3x3_s2
I1214 21:00:42.440378 20057 net.cpp:113] Setting up pool1/3x3_s2
I1214 21:00:42.440485 20057 net.cpp:120] Top shape: 32 64 56 56 (6422528)
I1214 21:00:42.440505 20057 layer_factory.hpp:74] Creating layer pool1/norm1
I1214 21:00:42.440524 20057 net.cpp:84] Creating Layer pool1/norm1
I1214 21:00:42.440531 20057 net.cpp:380] pool1/norm1 <- pool1/3x3_s2
I1214 21:00:42.440539 20057 net.cpp:338] pool1/norm1 -> pool1/norm1
I1214 21:00:42.440551 20057 net.cpp:113] Setting up pool1/norm1
I1214 21:00:42.440562 20057 net.cpp:120] Top shape: 32 64 56 56 (6422528)
I1214 21:00:42.440577 20057 layer_factory.hpp:74] Creating layer conv2/3x3_reduce
I1214 21:00:42.440589 20057 net.cpp:84] Creating Layer conv2/3x3_reduce
I1214 21:00:42.440595 20057 net.cpp:380] conv2/3x3_reduce <- pool1/norm1
I1214 21:00:42.440613 20057 net.cpp:338] conv2/3x3_reduce -> conv2/3x3_reduce
I1214 21:00:42.440626 20057 net.cpp:113] Setting up conv2/3x3_reduce
I1214 21:00:42.442972 20057 net.cpp:120] Top shape: 32 64 56 56 (6422528)
I1214 21:00:42.443012 20057 layer_factory.hpp:74] Creating layer conv2/relu_3x3_reduce
I1214 21:00:42.443042 20057 net.cpp:84] Creating Layer conv2/relu_3x3_reduce
I1214 21:00:42.443049 20057 net.cpp:380] conv2/relu_3x3_reduce <- conv2/3x3_reduce
I1214 21:00:42.443058 20057 net.cpp:327] conv2/relu_3x3_reduce -> conv2/3x3_reduce (in-place)
I1214 21:00:42.443069 20057 net.cpp:113] Setting up conv2/relu_3x3_reduce
I1214 21:00:42.443148 20057 net.cpp:120] Top shape: 32 64 56 56 (6422528)
I1214 21:00:42.443156 20057 layer_factory.hpp:74] Creating layer conv2/3x3
I1214 21:00:42.443167 20057 net.cpp:84] Creating Layer conv2/3x3
I1214 21:00:42.443174 20057 net.cpp:380] conv2/3x3 <- conv2/3x3_reduce
I1214 21:00:42.443194 20057 net.cpp:338] conv2/3x3 -> conv2/3x3
I1214 21:00:42.443205 20057 net.cpp:113] Setting up conv2/3x3
I1214 21:00:42.446331 20057 net.cpp:120] Top shape: 32 192 56 56 (19267584)
I1214 21:00:42.446360 20057 layer_factory.hpp:74] Creating layer conv2/relu_3x3
I1214 21:00:42.446370 20057 net.cpp:84] Creating Layer conv2/relu_3x3
I1214 21:00:42.446377 20057 net.cpp:380] conv2/relu_3x3 <- conv2/3x3
I1214 21:00:42.446387 20057 net.cpp:327] conv2/relu_3x3 -> conv2/3x3 (in-place)
I1214 21:00:42.446398 20057 net.cpp:113] Setting up conv2/relu_3x3
I1214 21:00:42.447304 20057 net.cpp:120] Top shape: 32 192 56 56 (19267584)
I1214 21:00:42.447332 20057 layer_factory.hpp:74] Creating layer conv2/norm2
I1214 21:00:42.447343 20057 net.cpp:84] Creating Layer conv2/norm2
I1214 21:00:42.447350 20057 net.cpp:380] conv2/norm2 <- conv2/3x3
I1214 21:00:42.447366 20057 net.cpp:338] conv2/norm2 -> conv2/norm2
I1214 21:00:42.447378 20057 net.cpp:113] Setting up conv2/norm2
I1214 21:00:42.447391 20057 net.cpp:120] Top shape: 32 192 56 56 (19267584)
I1214 21:00:42.447397 20057 layer_factory.hpp:74] Creating layer pool2/3x3_s2
I1214 21:00:42.447415 20057 net.cpp:84] Creating Layer pool2/3x3_s2
I1214 21:00:42.447437 20057 net.cpp:380] pool2/3x3_s2 <- conv2/norm2
I1214 21:00:42.447445 20057 net.cpp:338] pool2/3x3_s2 -> pool2/3x3_s2
I1214 21:00:42.447454 20057 net.cpp:113] Setting up pool2/3x3_s2
I1214 21:00:42.447538 20057 net.cpp:120] Top shape: 32 192 28 28 (4816896)
I1214 21:00:42.447546 20057 layer_factory.hpp:74] Creating layer pool2/3x3_s2_pool2/3x3_s2_0_split
I1214 21:00:42.447554 20057 net.cpp:84] Creating Layer pool2/3x3_s2_pool2/3x3_s2_0_split
I1214 21:00:42.447561 20057 net.cpp:380] pool2/3x3_s2_pool2/3x3_s2_0_split <- pool2/3x3_s2
I1214 21:00:42.447577 20057 net.cpp:338] pool2/3x3_s2_pool2/3x3_s2_0_split -> pool2/3x3_s2_pool2/3x3_s2_0_split_0
I1214 21:00:42.447588 20057 net.cpp:338] pool2/3x3_s2_pool2/3x3_s2_0_split -> pool2/3x3_s2_pool2/3x3_s2_0_split_1
I1214 21:00:42.447598 20057 net.cpp:338] pool2/3x3_s2_pool2/3x3_s2_0_split -> pool2/3x3_s2_pool2/3x3_s2_0_split_2
I1214 21:00:42.447607 20057 net.cpp:338] pool2/3x3_s2_pool2/3x3_s2_0_split -> pool2/3x3_s2_pool2/3x3_s2_0_split_3
I1214 21:00:42.447614 20057 net.cpp:113] Setting up pool2/3x3_s2_pool2/3x3_s2_0_split
I1214 21:00:42.447625 20057 net.cpp:120] Top shape: 32 192 28 28 (4816896)
I1214 21:00:42.447631 20057 net.cpp:120] Top shape: 32 192 28 28 (4816896)
I1214 21:00:42.447638 20057 net.cpp:120] Top shape: 32 192 28 28 (4816896)
I1214 21:00:42.447644 20057 net.cpp:120] Top shape: 32 192 28 28 (4816896)
I1214 21:00:42.447650 20057 layer_factory.hpp:74] Creating layer inception_3a/1x1
I1214 21:00:42.447665 20057 net.cpp:84] Creating Layer inception_3a/1x1
I1214 21:00:42.447671 20057 net.cpp:380] inception_3a/1x1 <- pool2/3x3_s2_pool2/3x3_s2_0_split_0
I1214 21:00:42.447680 20057 net.cpp:338] inception_3a/1x1 -> inception_3a/1x1
I1214 21:00:42.447692 20057 net.cpp:113] Setting up inception_3a/1x1
I1214 21:00:42.449539 20057 net.cpp:120] Top shape: 32 64 28 28 (1605632)
I1214 21:00:42.449566 20057 layer_factory.hpp:74] Creating layer inception_3a/relu_1x1
I1214 21:00:42.449576 20057 net.cpp:84] Creating Layer inception_3a/relu_1x1
I1214 21:00:42.449584 20057 net.cpp:380] inception_3a/relu_1x1 <- inception_3a/1x1
I1214 21:00:42.449592 20057 net.cpp:327] inception_3a/relu_1x1 -> inception_3a/1x1 (in-place)
I1214 21:00:42.449601 20057 net.cpp:113] Setting up inception_3a/relu_1x1
I1214 21:00:42.449681 20057 net.cpp:120] Top shape: 32 64 28 28 (1605632)
I1214 21:00:42.449689 20057 layer_factory.hpp:74] Creating layer inception_3a/3x3_reduce
I1214 21:00:42.449698 20057 net.cpp:84] Creating Layer inception_3a/3x3_reduce
I1214 21:00:42.449704 20057 net.cpp:380] inception_3a/3x3_reduce <- pool2/3x3_s2_pool2/3x3_s2_0_split_1
I1214 21:00:42.449713 20057 net.cpp:338] inception_3a/3x3_reduce -> inception_3a/3x3_reduce
I1214 21:00:42.449724 20057 net.cpp:113] Setting up inception_3a/3x3_reduce
I1214 21:00:42.451696 20057 net.cpp:120] Top shape: 32 96 28 28 (2408448)
I1214 21:00:42.451740 20057 layer_factory.hpp:74] Creating layer inception_3a/relu_3x3_reduce
I1214 21:00:42.451758 20057 net.cpp:84] Creating Layer inception_3a/relu_3x3_reduce
I1214 21:00:42.451766 20057 net.cpp:380] inception_3a/relu_3x3_reduce <- inception_3a/3x3_reduce
I1214 21:00:42.451789 20057 net.cpp:327] inception_3a/relu_3x3_reduce -> inception_3a/3x3_reduce (in-place)
I1214 21:00:42.451800 20057 net.cpp:113] Setting up inception_3a/relu_3x3_reduce
I1214 21:00:42.451879 20057 net.cpp:120] Top shape: 32 96 28 28 (2408448)
I1214 21:00:42.451886 20057 layer_factory.hpp:74] Creating layer inception_3a/3x3
I1214 21:00:42.451895 20057 net.cpp:84] Creating Layer inception_3a/3x3
I1214 21:00:42.451901 20057 net.cpp:380] inception_3a/3x3 <- inception_3a/3x3_reduce
I1214 21:00:42.451910 20057 net.cpp:338] inception_3a/3x3 -> inception_3a/3x3
I1214 21:00:42.451921 20057 net.cpp:113] Setting up inception_3a/3x3
I1214 21:00:42.454484 20057 net.cpp:120] Top shape: 32 128 28 28 (3211264)
I1214 21:00:42.454506 20057 layer_factory.hpp:74] Creating layer inception_3a/relu_3x3
I1214 21:00:42.454514 20057 net.cpp:84] Creating Layer inception_3a/relu_3x3
I1214 21:00:42.454527 20057 net.cpp:380] inception_3a/relu_3x3 <- inception_3a/3x3
I1214 21:00:42.454546 20057 net.cpp:327] inception_3a/relu_3x3 -> inception_3a/3x3 (in-place)
I1214 21:00:42.454556 20057 net.cpp:113] Setting up inception_3a/relu_3x3
I1214 21:00:42.457705 20057 net.cpp:120] Top shape: 32 128 28 28 (3211264)
I1214 21:00:42.457728 20057 layer_factory.hpp:74] Creating layer inception_3a/5x5_reduce
I1214 21:00:42.457751 20057 net.cpp:84] Creating Layer inception_3a/5x5_reduce
I1214 21:00:42.457758 20057 net.cpp:380] inception_3a/5x5_reduce <- pool2/3x3_s2_pool2/3x3_s2_0_split_2
I1214 21:00:42.457769 20057 net.cpp:338] inception_3a/5x5_reduce -> inception_3a/5x5_reduce
I1214 21:00:42.457783 20057 net.cpp:113] Setting up inception_3a/5x5_reduce
I1214 21:00:42.459223 20057 net.cpp:120] Top shape: 32 16 28 28 (401408)
I1214 21:00:42.459249 20057 layer_factory.hpp:74] Creating layer inception_3a/relu_5x5_reduce
I1214 21:00:42.459257 20057 net.cpp:84] Creating Layer inception_3a/relu_5x5_reduce
I1214 21:00:42.459264 20057 net.cpp:380] inception_3a/relu_5x5_reduce <- inception_3a/5x5_reduce
I1214 21:00:42.459274 20057 net.cpp:327] inception_3a/relu_5x5_reduce -> inception_3a/5x5_reduce (in-place)
I1214 21:00:42.459283 20057 net.cpp:113] Setting up inception_3a/relu_5x5_reduce
I1214 21:00:42.459411 20057 net.cpp:120] Top shape: 32 16 28 28 (401408)
I1214 21:00:42.459436 20057 layer_factory.hpp:74] Creating layer inception_3a/5x5
I1214 21:00:42.459455 20057 net.cpp:84] Creating Layer inception_3a/5x5
I1214 21:00:42.459461 20057 net.cpp:380] inception_3a/5x5 <- inception_3a/5x5_reduce
I1214 21:00:42.459470 20057 net.cpp:338] inception_3a/5x5 -> inception_3a/5x5
I1214 21:00:42.459481 20057 net.cpp:113] Setting up inception_3a/5x5
I1214 21:00:42.460624 20057 net.cpp:120] Top shape: 32 32 28 28 (802816)
I1214 21:00:42.460644 20057 layer_factory.hpp:74] Creating layer inception_3a/relu_5x5
I1214 21:00:42.460666 20057 net.cpp:84] Creating Layer inception_3a/relu_5x5
I1214 21:00:42.460674 20057 net.cpp:380] inception_3a/relu_5x5 <- inception_3a/5x5
I1214 21:00:42.460682 20057 net.cpp:327] inception_3a/relu_5x5 -> inception_3a/5x5 (in-place)
I1214 21:00:42.460691 20057 net.cpp:113] Setting up inception_3a/relu_5x5
I1214 21:00:42.460784 20057 net.cpp:120] Top shape: 32 32 28 28 (802816)
I1214 21:00:42.460793 20057 layer_factory.hpp:74] Creating layer inception_3a/pool
I1214 21:00:42.460799 20057 layer_factory.cpp:56] CUDNN does not support padding or multiple tops. Using Caffe's own pooling layer.
I1214 21:00:42.460810 20057 net.cpp:84] Creating Layer inception_3a/pool
I1214 21:00:42.460816 20057 net.cpp:380] inception_3a/pool <- pool2/3x3_s2_pool2/3x3_s2_0_split_3
I1214 21:00:42.460825 20057 net.cpp:338] inception_3a/pool -> inception_3a/pool
I1214 21:00:42.460835 20057 net.cpp:113] Setting up inception_3a/pool
I1214 21:00:42.460845 20057 net.cpp:120] Top shape: 32 192 28 28 (4816896)
I1214 21:00:42.460851 20057 layer_factory.hpp:74] Creating layer inception_3a/pool_proj
I1214 21:00:42.460865 20057 net.cpp:84] Creating Layer inception_3a/pool_proj
I1214 21:00:42.460870 20057 net.cpp:380] inception_3a/pool_proj <- inception_3a/pool
I1214 21:00:42.460880 20057 net.cpp:338] inception_3a/pool_proj -> inception_3a/pool_proj
I1214 21:00:42.460889 20057 net.cpp:113] Setting up inception_3a/pool_proj
I1214 21:00:42.461807 20057 net.cpp:120] Top shape: 32 32 28 28 (802816)
I1214 21:00:42.461833 20057 layer_factory.hpp:74] Creating layer inception_3a/relu_pool_proj
I1214 21:00:42.461853 20057 net.cpp:84] Creating Layer inception_3a/relu_pool_proj
I1214 21:00:42.461860 20057 net.cpp:380] inception_3a/relu_pool_proj <- inception_3a/pool_proj
I1214 21:00:42.461876 20057 net.cpp:327] inception_3a/relu_pool_proj -> inception_3a/pool_proj (in-place)
I1214 21:00:42.461886 20057 net.cpp:113] Setting up inception_3a/relu_pool_proj
I1214 21:00:42.461969 20057 net.cpp:120] Top shape: 32 32 28 28 (802816)
I1214 21:00:42.461977 20057 layer_factory.hpp:74] Creating layer inception_3a/output
I1214 21:00:42.461992 20057 net.cpp:84] Creating Layer inception_3a/output
I1214 21:00:42.462004 20057 net.cpp:380] inception_3a/output <- inception_3a/1x1
I1214 21:00:42.462023 20057 net.cpp:380] inception_3a/output <- inception_3a/3x3
I1214 21:00:42.462029 20057 net.cpp:380] inception_3a/output <- inception_3a/5x5
I1214 21:00:42.462035 20057 net.cpp:380] inception_3a/output <- inception_3a/pool_proj
I1214 21:00:42.462045 20057 net.cpp:338] inception_3a/output -> inception_3a/output
I1214 21:00:42.462056 20057 net.cpp:113] Setting up inception_3a/output
I1214 21:00:42.462074 20057 net.cpp:120] Top shape: 32 256 28 28 (6422528)
I1214 21:00:42.462080 20057 layer_factory.hpp:74] Creating layer inception_3a/output_inception_3a/output_0_split
I1214 21:00:42.462086 20057 net.cpp:84] Creating Layer inception_3a/output_inception_3a/output_0_split
I1214 21:00:42.462091 20057 net.cpp:380] inception_3a/output_inception_3a/output_0_split <- inception_3a/output
I1214 21:00:42.462100 20057 net.cpp:338] inception_3a/output_inception_3a/output_0_split -> inception_3a/output_inception_3a/output_0_split_0
I1214 21:00:42.462108 20057 net.cpp:338] inception_3a/output_inception_3a/output_0_split -> inception_3a/output_inception_3a/output_0_split_1
I1214 21:00:42.462117 20057 net.cpp:338] inception_3a/output_inception_3a/output_0_split -> inception_3a/output_inception_3a/output_0_split_2
I1214 21:00:42.462128 20057 net.cpp:338] inception_3a/output_inception_3a/output_0_split -> inception_3a/output_inception_3a/output_0_split_3
I1214 21:00:42.462136 20057 net.cpp:113] Setting up inception_3a/output_inception_3a/output_0_split
I1214 21:00:42.462146 20057 net.cpp:120] Top shape: 32 256 28 28 (6422528)
I1214 21:00:42.462152 20057 net.cpp:120] Top shape: 32 256 28 28 (6422528)
I1214 21:00:42.462157 20057 net.cpp:120] Top shape: 32 256 28 28 (6422528)
I1214 21:00:42.462163 20057 net.cpp:120] Top shape: 32 256 28 28 (6422528)
I1214 21:00:42.462169 20057 layer_factory.hpp:74] Creating layer inception_3b/1x1
I1214 21:00:42.462179 20057 net.cpp:84] Creating Layer inception_3b/1x1
I1214 21:00:42.462187 20057 net.cpp:380] inception_3b/1x1 <- inception_3a/output_inception_3a/output_0_split_0
I1214 21:00:42.462194 20057 net.cpp:338] inception_3b/1x1 -> inception_3b/1x1
I1214 21:00:42.462203 20057 net.cpp:113] Setting up inception_3b/1x1
I1214 21:00:42.463552 20057 net.cpp:120] Top shape: 32 128 28 28 (3211264)
I1214 21:00:42.463572 20057 layer_factory.hpp:74] Creating layer inception_3b/relu_1x1
I1214 21:00:42.463583 20057 net.cpp:84] Creating Layer inception_3b/relu_1x1
I1214 21:00:42.463589 20057 net.cpp:380] inception_3b/relu_1x1 <- inception_3b/1x1
I1214 21:00:42.463598 20057 net.cpp:327] inception_3b/relu_1x1 -> inception_3b/1x1 (in-place)
I1214 21:00:42.463608 20057 net.cpp:113] Setting up inception_3b/relu_1x1
I1214 21:00:42.464166 20057 net.cpp:120] Top shape: 32 128 28 28 (3211264)
I1214 21:00:42.464192 20057 layer_factory.hpp:74] Creating layer inception_3b/3x3_reduce
I1214 21:00:42.464215 20057 net.cpp:84] Creating Layer inception_3b/3x3_reduce
I1214 21:00:42.464222 20057 net.cpp:380] inception_3b/3x3_reduce <- inception_3a/output_inception_3a/output_0_split_1
I1214 21:00:42.464232 20057 net.cpp:338] inception_3b/3x3_reduce -> inception_3b/3x3_reduce
I1214 21:00:42.464244 20057 net.cpp:113] Setting up inception_3b/3x3_reduce
I1214 21:00:42.465636 20057 net.cpp:120] Top shape: 32 128 28 28 (3211264)
I1214 21:00:42.465657 20057 layer_factory.hpp:74] Creating layer inception_3b/relu_3x3_reduce
I1214 21:00:42.465667 20057 net.cpp:84] Creating Layer inception_3b/relu_3x3_reduce
I1214 21:00:42.465673 20057 net.cpp:380] inception_3b/relu_3x3_reduce <- inception_3b/3x3_reduce
I1214 21:00:42.465683 20057 net.cpp:327] inception_3b/relu_3x3_reduce -> inception_3b/3x3_reduce (in-place)
I1214 21:00:42.465693 20057 net.cpp:113] Setting up inception_3b/relu_3x3_reduce
I1214 21:00:42.465787 20057 net.cpp:120] Top shape: 32 128 28 28 (3211264)
I1214 21:00:42.465796 20057 layer_factory.hpp:74] Creating layer inception_3b/3x3
I1214 21:00:42.465811 20057 net.cpp:84] Creating Layer inception_3b/3x3
I1214 21:00:42.465824 20057 net.cpp:380] inception_3b/3x3 <- inception_3b/3x3_reduce
I1214 21:00:42.465852 20057 net.cpp:338] inception_3b/3x3 -> inception_3b/3x3
I1214 21:00:42.465863 20057 net.cpp:113] Setting up inception_3b/3x3
I1214 21:00:42.469867 20057 net.cpp:120] Top shape: 32 192 28 28 (4816896)
I1214 21:00:42.469890 20057 layer_factory.hpp:74] Creating layer inception_3b/relu_3x3
I1214 21:00:42.469915 20057 net.cpp:84] Creating Layer inception_3b/relu_3x3
I1214 21:00:42.469923 20057 net.cpp:380] inception_3b/relu_3x3 <- inception_3b/3x3
I1214 21:00:42.469931 20057 net.cpp:327] inception_3b/relu_3x3 -> inception_3b/3x3 (in-place)
I1214 21:00:42.469941 20057 net.cpp:113] Setting up inception_3b/relu_3x3
I1214 21:00:42.470024 20057 net.cpp:120] Top shape: 32 192 28 28 (4816896)
I1214 21:00:42.470039 20057 layer_factory.hpp:74] Creating layer inception_3b/5x5_reduce
I1214 21:00:42.470052 20057 net.cpp:84] Creating Layer inception_3b/5x5_reduce
I1214 21:00:42.470057 20057 net.cpp:380] inception_3b/5x5_reduce <- inception_3a/output_inception_3a/output_0_split_2
I1214 21:00:42.470067 20057 net.cpp:338] inception_3b/5x5_reduce -> inception_3b/5x5_reduce
I1214 21:00:42.470077 20057 net.cpp:113] Setting up inception_3b/5x5_reduce
I1214 21:00:42.471099 20057 net.cpp:120] Top shape: 32 32 28 28 (802816)
I1214 21:00:42.471119 20057 layer_factory.hpp:74] Creating layer inception_3b/relu_5x5_reduce
I1214 21:00:42.471129 20057 net.cpp:84] Creating Layer inception_3b/relu_5x5_reduce
I1214 21:00:42.471137 20057 net.cpp:380] inception_3b/relu_5x5_reduce <- inception_3b/5x5_reduce
I1214 21:00:42.471145 20057 net.cpp:327] inception_3b/relu_5x5_reduce -> inception_3b/5x5_reduce (in-place)
I1214 21:00:42.471154 20057 net.cpp:113] Setting up inception_3b/relu_5x5_reduce
I1214 21:00:42.471236 20057 net.cpp:120] Top shape: 32 32 28 28 (802816)
I1214 21:00:42.471245 20057 layer_factory.hpp:74] Creating layer inception_3b/5x5
I1214 21:00:42.471264 20057 net.cpp:84] Creating Layer inception_3b/5x5
I1214 21:00:42.471271 20057 net.cpp:380] inception_3b/5x5 <- inception_3b/5x5_reduce
I1214 21:00:42.471288 20057 net.cpp:338] inception_3b/5x5 -> inception_3b/5x5
I1214 21:00:42.471304 20057 net.cpp:113] Setting up inception_3b/5x5
I1214 21:00:42.472945 20057 net.cpp:120] Top shape: 32 96 28 28 (2408448)
I1214 21:00:42.472965 20057 layer_factory.hpp:74] Creating layer inception_3b/relu_5x5
I1214 21:00:42.472975 20057 net.cpp:84] Creating Layer inception_3b/relu_5x5
I1214 21:00:42.472980 20057 net.cpp:380] inception_3b/relu_5x5 <- inception_3b/5x5
I1214 21:00:42.472988 20057 net.cpp:327] inception_3b/relu_5x5 -> inception_3b/5x5 (in-place)
I1214 21:00:42.472997 20057 net.cpp:113] Setting up inception_3b/relu_5x5
I1214 21:00:42.473657 20057 net.cpp:120] Top shape: 32 96 28 28 (2408448)
I1214 21:00:42.473671 20057 layer_factory.hpp:74] Creating layer inception_3b/pool
I1214 21:00:42.473680 20057 layer_factory.cpp:56] CUDNN does not support padding or multiple tops. Using Caffe's own pooling layer.
I1214 21:00:42.473690 20057 net.cpp:84] Creating Layer inception_3b/pool
I1214 21:00:42.473696 20057 net.cpp:380] inception_3b/pool <- inception_3a/output_inception_3a/output_0_split_3
I1214 21:00:42.473716 20057 net.cpp:338] inception_3b/pool -> inception_3b/pool
I1214 21:00:42.473727 20057 net.cpp:113] Setting up inception_3b/pool
I1214 21:00:42.473742 20057 net.cpp:120] Top shape: 32 256 28 28 (6422528)
I1214 21:00:42.473755 20057 layer_factory.hpp:74] Creating layer inception_3b/pool_proj
I1214 21:00:42.473765 20057 net.cpp:84] Creating Layer inception_3b/pool_proj
I1214 21:00:42.473772 20057 net.cpp:380] inception_3b/pool_proj <- inception_3b/pool
I1214 21:00:42.473781 20057 net.cpp:338] inception_3b/pool_proj -> inception_3b/pool_proj
I1214 21:00:42.473791 20057 net.cpp:113] Setting up inception_3b/pool_proj
I1214 21:00:42.475003 20057 net.cpp:120] Top shape: 32 64 28 28 (1605632)
I1214 21:00:42.475021 20057 layer_factory.hpp:74] Creating layer inception_3b/relu_pool_proj
I1214 21:00:42.475044 20057 net.cpp:84] Creating Layer inception_3b/relu_pool_proj
I1214 21:00:42.475059 20057 net.cpp:380] inception_3b/relu_pool_proj <- inception_3b/pool_proj
I1214 21:00:42.475078 20057 net.cpp:327] inception_3b/relu_pool_proj -> inception_3b/pool_proj (in-place)
I1214 21:00:42.475088 20057 net.cpp:113] Setting up inception_3b/relu_pool_proj
I1214 21:00:42.475178 20057 net.cpp:120] Top shape: 32 64 28 28 (1605632)
I1214 21:00:42.475185 20057 layer_factory.hpp:74] Creating layer inception_3b/output
I1214 21:00:42.475193 20057 net.cpp:84] Creating Layer inception_3b/output
I1214 21:00:42.475198 20057 net.cpp:380] inception_3b/output <- inception_3b/1x1
I1214 21:00:42.475205 20057 net.cpp:380] inception_3b/output <- inception_3b/3x3
I1214 21:00:42.475213 20057 net.cpp:380] inception_3b/output <- inception_3b/5x5
I1214 21:00:42.475219 20057 net.cpp:380] inception_3b/output <- inception_3b/pool_proj
I1214 21:00:42.475227 20057 net.cpp:338] inception_3b/output -> inception_3b/output
I1214 21:00:42.475237 20057 net.cpp:113] Setting up inception_3b/output
I1214 21:00:42.475249 20057 net.cpp:120] Top shape: 32 480 28 28 (12042240)
I1214 21:00:42.475256 20057 layer_factory.hpp:74] Creating layer pool3/3x3_s2
I1214 21:00:42.475265 20057 net.cpp:84] Creating Layer pool3/3x3_s2
I1214 21:00:42.475271 20057 net.cpp:380] pool3/3x3_s2 <- inception_3b/output
I1214 21:00:42.475291 20057 net.cpp:338] pool3/3x3_s2 -> pool3/3x3_s2
I1214 21:00:42.475301 20057 net.cpp:113] Setting up pool3/3x3_s2
I1214 21:00:42.475386 20057 net.cpp:120] Top shape: 32 480 14 14 (3010560)
I1214 21:00:42.475401 20057 layer_factory.hpp:74] Creating layer pool3/3x3_s2_pool3/3x3_s2_0_split
I1214 21:00:42.475410 20057 net.cpp:84] Creating Layer pool3/3x3_s2_pool3/3x3_s2_0_split
I1214 21:00:42.475415 20057 net.cpp:380] pool3/3x3_s2_pool3/3x3_s2_0_split <- pool3/3x3_s2
I1214 21:00:42.475424 20057 net.cpp:338] pool3/3x3_s2_pool3/3x3_s2_0_split -> pool3/3x3_s2_pool3/3x3_s2_0_split_0
I1214 21:00:42.475433 20057 net.cpp:338] pool3/3x3_s2_pool3/3x3_s2_0_split -> pool3/3x3_s2_pool3/3x3_s2_0_split_1
I1214 21:00:42.475442 20057 net.cpp:338] pool3/3x3_s2_pool3/3x3_s2_0_split -> pool3/3x3_s2_pool3/3x3_s2_0_split_2
I1214 21:00:42.475450 20057 net.cpp:338] pool3/3x3_s2_pool3/3x3_s2_0_split -> pool3/3x3_s2_pool3/3x3_s2_0_split_3
I1214 21:00:42.475457 20057 net.cpp:113] Setting up pool3/3x3_s2_pool3/3x3_s2_0_split
I1214 21:00:42.475467 20057 net.cpp:120] Top shape: 32 480 14 14 (3010560)
I1214 21:00:42.475473 20057 net.cpp:120] Top shape: 32 480 14 14 (3010560)
I1214 21:00:42.475479 20057 net.cpp:120] Top shape: 32 480 14 14 (3010560)
I1214 21:00:42.475486 20057 net.cpp:120] Top shape: 32 480 14 14 (3010560)
I1214 21:00:42.475492 20057 layer_factory.hpp:74] Creating layer inception_4a/1x1
I1214 21:00:42.475517 20057 net.cpp:84] Creating Layer inception_4a/1x1
I1214 21:00:42.475524 20057 net.cpp:380] inception_4a/1x1 <- pool3/3x3_s2_pool3/3x3_s2_0_split_0
I1214 21:00:42.475535 20057 net.cpp:338] inception_4a/1x1 -> inception_4a/1x1
I1214 21:00:42.475544 20057 net.cpp:113] Setting up inception_4a/1x1
I1214 21:00:42.477668 20057 net.cpp:120] Top shape: 32 192 14 14 (1204224)
I1214 21:00:42.477689 20057 layer_factory.hpp:74] Creating layer inception_4a/relu_1x1
I1214 21:00:42.477699 20057 net.cpp:84] Creating Layer inception_4a/relu_1x1
I1214 21:00:42.477706 20057 net.cpp:380] inception_4a/relu_1x1 <- inception_4a/1x1
I1214 21:00:42.477715 20057 net.cpp:327] inception_4a/relu_1x1 -> inception_4a/1x1 (in-place)
I1214 21:00:42.477723 20057 net.cpp:113] Setting up inception_4a/relu_1x1
I1214 21:00:42.478369 20057 net.cpp:120] Top shape: 32 192 14 14 (1204224)
I1214 21:00:42.478385 20057 layer_factory.hpp:74] Creating layer inception_4a/3x3_reduce
I1214 21:00:42.478397 20057 net.cpp:84] Creating Layer inception_4a/3x3_reduce
I1214 21:00:42.478404 20057 net.cpp:380] inception_4a/3x3_reduce <- pool3/3x3_s2_pool3/3x3_s2_0_split_1
I1214 21:00:42.478413 20057 net.cpp:338] inception_4a/3x3_reduce -> inception_4a/3x3_reduce
I1214 21:00:42.478425 20057 net.cpp:113] Setting up inception_4a/3x3_reduce
I1214 21:00:42.479949 20057 net.cpp:120] Top shape: 32 96 14 14 (602112)
I1214 21:00:42.479984 20057 layer_factory.hpp:74] Creating layer inception_4a/relu_3x3_reduce
I1214 21:00:42.480016 20057 net.cpp:84] Creating Layer inception_4a/relu_3x3_reduce
I1214 21:00:42.480025 20057 net.cpp:380] inception_4a/relu_3x3_reduce <- inception_4a/3x3_reduce
I1214 21:00:42.480032 20057 net.cpp:327] inception_4a/relu_3x3_reduce -> inception_4a/3x3_reduce (in-place)
I1214 21:00:42.480042 20057 net.cpp:113] Setting up inception_4a/relu_3x3_reduce
I1214 21:00:42.480130 20057 net.cpp:120] Top shape: 32 96 14 14 (602112)
I1214 21:00:42.480139 20057 layer_factory.hpp:74] Creating layer inception_4a/3x3
I1214 21:00:42.480155 20057 net.cpp:84] Creating Layer inception_4a/3x3
I1214 21:00:42.480162 20057 net.cpp:380] inception_4a/3x3 <- inception_4a/3x3_reduce
I1214 21:00:42.480172 20057 net.cpp:338] inception_4a/3x3 -> inception_4a/3x3
I1214 21:00:42.480183 20057 net.cpp:113] Setting up inception_4a/3x3
I1214 21:00:42.484002 20057 net.cpp:120] Top shape: 32 208 14 14 (1304576)
I1214 21:00:42.484030 20057 layer_factory.hpp:74] Creating layer inception_4a/relu_3x3
I1214 21:00:42.484040 20057 net.cpp:84] Creating Layer inception_4a/relu_3x3
I1214 21:00:42.484047 20057 net.cpp:380] inception_4a/relu_3x3 <- inception_4a/3x3
I1214 21:00:42.484056 20057 net.cpp:327] inception_4a/relu_3x3 -> inception_4a/3x3 (in-place)
I1214 21:00:42.484066 20057 net.cpp:113] Setting up inception_4a/relu_3x3
I1214 21:00:42.484153 20057 net.cpp:120] Top shape: 32 208 14 14 (1304576)
I1214 21:00:42.484159 20057 layer_factory.hpp:74] Creating layer inception_4a/5x5_reduce
I1214 21:00:42.484171 20057 net.cpp:84] Creating Layer inception_4a/5x5_reduce
I1214 21:00:42.484177 20057 net.cpp:380] inception_4a/5x5_reduce <- pool3/3x3_s2_pool3/3x3_s2_0_split_2
I1214 21:00:42.484189 20057 net.cpp:338] inception_4a/5x5_reduce -> inception_4a/5x5_reduce
I1214 21:00:42.484200 20057 net.cpp:113] Setting up inception_4a/5x5_reduce
I1214 21:00:42.485077 20057 net.cpp:120] Top shape: 32 16 14 14 (100352)
I1214 21:00:42.485097 20057 layer_factory.hpp:74] Creating layer inception_4a/relu_5x5_reduce
I1214 21:00:42.485117 20057 net.cpp:84] Creating Layer inception_4a/relu_5x5_reduce
I1214 21:00:42.485124 20057 net.cpp:380] inception_4a/relu_5x5_reduce <- inception_4a/5x5_reduce
I1214 21:00:42.485132 20057 net.cpp:327] inception_4a/relu_5x5_reduce -> inception_4a/5x5_reduce (in-place)
I1214 21:00:42.485142 20057 net.cpp:113] Setting up inception_4a/relu_5x5_reduce
I1214 21:00:42.485224 20057 net.cpp:120] Top shape: 32 16 14 14 (100352)
I1214 21:00:42.485240 20057 layer_factory.hpp:74] Creating layer inception_4a/5x5
I1214 21:00:42.485252 20057 net.cpp:84] Creating Layer inception_4a/5x5
I1214 21:00:42.485258 20057 net.cpp:380] inception_4a/5x5 <- inception_4a/5x5_reduce
I1214 21:00:42.485266 20057 net.cpp:338] inception_4a/5x5 -> inception_4a/5x5
I1214 21:00:42.485276 20057 net.cpp:113] Setting up inception_4a/5x5
I1214 21:00:42.486114 20057 net.cpp:120] Top shape: 32 48 14 14 (301056)
I1214 21:00:42.486131 20057 layer_factory.hpp:74] Creating layer inception_4a/relu_5x5
I1214 21:00:42.486141 20057 net.cpp:84] Creating Layer inception_4a/relu_5x5
I1214 21:00:42.486148 20057 net.cpp:380] inception_4a/relu_5x5 <- inception_4a/5x5
I1214 21:00:42.486155 20057 net.cpp:327] inception_4a/relu_5x5 -> inception_4a/5x5 (in-place)
I1214 21:00:42.486165 20057 net.cpp:113] Setting up inception_4a/relu_5x5
I1214 21:00:42.486708 20057 net.cpp:120] Top shape: 32 48 14 14 (301056)
I1214 21:00:42.486721 20057 layer_factory.hpp:74] Creating layer inception_4a/pool
I1214 21:00:42.486728 20057 layer_factory.cpp:56] CUDNN does not support padding or multiple tops. Using Caffe's own pooling layer.
I1214 21:00:42.486738 20057 net.cpp:84] Creating Layer inception_4a/pool
I1214 21:00:42.486745 20057 net.cpp:380] inception_4a/pool <- pool3/3x3_s2_pool3/3x3_s2_0_split_3
I1214 21:00:42.486754 20057 net.cpp:338] inception_4a/pool -> inception_4a/pool
I1214 21:00:42.486764 20057 net.cpp:113] Setting up inception_4a/pool
I1214 21:00:42.486775 20057 net.cpp:120] Top shape: 32 480 14 14 (3010560)
I1214 21:00:42.486788 20057 layer_factory.hpp:74] Creating layer inception_4a/pool_proj
I1214 21:00:42.486824 20057 net.cpp:84] Creating Layer inception_4a/pool_proj
I1214 21:00:42.486829 20057 net.cpp:380] inception_4a/pool_proj <- inception_4a/pool
I1214 21:00:42.486850 20057 net.cpp:338] inception_4a/pool_proj -> inception_4a/pool_proj
I1214 21:00:42.486861 20057 net.cpp:113] Setting up inception_4a/pool_proj
I1214 21:00:42.488137 20057 net.cpp:120] Top shape: 32 64 14 14 (401408)
I1214 21:00:42.488157 20057 layer_factory.hpp:74] Creating layer inception_4a/relu_pool_proj
I1214 21:00:42.488164 20057 net.cpp:84] Creating Layer inception_4a/relu_pool_proj
I1214 21:00:42.488170 20057 net.cpp:380] inception_4a/relu_pool_proj <- inception_4a/pool_proj
I1214 21:00:42.488178 20057 net.cpp:327] inception_4a/relu_pool_proj -> inception_4a/pool_proj (in-place)
I1214 21:00:42.488188 20057 net.cpp:113] Setting up inception_4a/relu_pool_proj
I1214 21:00:42.488270 20057 net.cpp:120] Top shape: 32 64 14 14 (401408)
I1214 21:00:42.488288 20057 layer_factory.hpp:74] Creating layer inception_4a/output
I1214 21:00:42.488297 20057 net.cpp:84] Creating Layer inception_4a/output
I1214 21:00:42.488303 20057 net.cpp:380] inception_4a/output <- inception_4a/1x1
I1214 21:00:42.488311 20057 net.cpp:380] inception_4a/output <- inception_4a/3x3
I1214 21:00:42.488317 20057 net.cpp:380] inception_4a/output <- inception_4a/5x5
I1214 21:00:42.488322 20057 net.cpp:380] inception_4a/output <- inception_4a/pool_proj
I1214 21:00:42.488329 20057 net.cpp:338] inception_4a/output -> inception_4a/output
I1214 21:00:42.488338 20057 net.cpp:113] Setting up inception_4a/output
I1214 21:00:42.488349 20057 net.cpp:120] Top shape: 32 512 14 14 (3211264)
I1214 21:00:42.488354 20057 layer_factory.hpp:74] Creating layer inception_4a/output_inception_4a/output_0_split
I1214 21:00:42.488363 20057 net.cpp:84] Creating Layer inception_4a/output_inception_4a/output_0_split
I1214 21:00:42.488368 20057 net.cpp:380] inception_4a/output_inception_4a/output_0_split <- inception_4a/output
I1214 21:00:42.488378 20057 net.cpp:338] inception_4a/output_inception_4a/output_0_split -> inception_4a/output_inception_4a/output_0_split_0
I1214 21:00:42.488389 20057 net.cpp:338] inception_4a/output_inception_4a/output_0_split -> inception_4a/output_inception_4a/output_0_split_1
I1214 21:00:42.488397 20057 net.cpp:338] inception_4a/output_inception_4a/output_0_split -> inception_4a/output_inception_4a/output_0_split_2
I1214 21:00:42.488405 20057 net.cpp:338] inception_4a/output_inception_4a/output_0_split -> inception_4a/output_inception_4a/output_0_split_3
I1214 21:00:42.488414 20057 net.cpp:338] inception_4a/output_inception_4a/output_0_split -> inception_4a/output_inception_4a/output_0_split_4
I1214 21:00:42.488421 20057 net.cpp:113] Setting up inception_4a/output_inception_4a/output_0_split
I1214 21:00:42.488432 20057 net.cpp:120] Top shape: 32 512 14 14 (3211264)
I1214 21:00:42.488438 20057 net.cpp:120] Top shape: 32 512 14 14 (3211264)
I1214 21:00:42.488445 20057 net.cpp:120] Top shape: 32 512 14 14 (3211264)
I1214 21:00:42.488451 20057 net.cpp:120] Top shape: 32 512 14 14 (3211264)
I1214 21:00:42.488456 20057 net.cpp:120] Top shape: 32 512 14 14 (3211264)
I1214 21:00:42.488461 20057 layer_factory.hpp:74] Creating layer loss1/ave_pool
I1214 21:00:42.488476 20057 net.cpp:84] Creating Layer loss1/ave_pool
I1214 21:00:42.488482 20057 net.cpp:380] loss1/ave_pool <- inception_4a/output_inception_4a/output_0_split_0
I1214 21:00:42.488489 20057 net.cpp:338] loss1/ave_pool -> loss1/ave_pool
I1214 21:00:42.488497 20057 net.cpp:113] Setting up loss1/ave_pool
I1214 21:00:42.488581 20057 net.cpp:120] Top shape: 32 512 4 4 (262144)
I1214 21:00:42.488589 20057 layer_factory.hpp:74] Creating layer loss1/conv
I1214 21:00:42.488598 20057 net.cpp:84] Creating Layer loss1/conv
I1214 21:00:42.488605 20057 net.cpp:380] loss1/conv <- loss1/ave_pool
I1214 21:00:42.488612 20057 net.cpp:338] loss1/conv -> loss1/conv
I1214 21:00:42.488621 20057 net.cpp:113] Setting up loss1/conv
I1214 21:00:42.490169 20057 net.cpp:120] Top shape: 32 128 4 4 (65536)
I1214 21:00:42.490216 20057 layer_factory.hpp:74] Creating layer loss1/relu_conv
I1214 21:00:42.490226 20057 net.cpp:84] Creating Layer loss1/relu_conv
I1214 21:00:42.490233 20057 net.cpp:380] loss1/relu_conv <- loss1/conv
I1214 21:00:42.490242 20057 net.cpp:327] loss1/relu_conv -> loss1/conv (in-place)
I1214 21:00:42.490252 20057 net.cpp:113] Setting up loss1/relu_conv
I1214 21:00:42.490334 20057 net.cpp:120] Top shape: 32 128 4 4 (65536)
I1214 21:00:42.490341 20057 layer_factory.hpp:74] Creating layer loss1/fc
I1214 21:00:42.490352 20057 net.cpp:84] Creating Layer loss1/fc
I1214 21:00:42.490357 20057 net.cpp:380] loss1/fc <- loss1/conv
I1214 21:00:42.490367 20057 net.cpp:338] loss1/fc -> loss1/fc
I1214 21:00:42.490384 20057 net.cpp:113] Setting up loss1/fc
I1214 21:00:42.515204 20057 net.cpp:120] Top shape: 32 1024 (32768)
I1214 21:00:42.515239 20057 layer_factory.hpp:74] Creating layer loss1/relu_fc
I1214 21:00:42.515265 20057 net.cpp:84] Creating Layer loss1/relu_fc
I1214 21:00:42.515274 20057 net.cpp:380] loss1/relu_fc <- loss1/fc
I1214 21:00:42.515285 20057 net.cpp:327] loss1/relu_fc -> loss1/fc (in-place)
I1214 21:00:42.515295 20057 net.cpp:113] Setting up loss1/relu_fc
I1214 21:00:42.516052 20057 net.cpp:120] Top shape: 32 1024 (32768)
I1214 21:00:42.516067 20057 layer_factory.hpp:74] Creating layer loss1/drop_fc
I1214 21:00:42.516088 20057 net.cpp:84] Creating Layer loss1/drop_fc
I1214 21:00:42.516094 20057 net.cpp:380] loss1/drop_fc <- loss1/fc
I1214 21:00:42.516104 20057 net.cpp:327] loss1/drop_fc -> loss1/fc (in-place)
I1214 21:00:42.516115 20057 net.cpp:113] Setting up loss1/drop_fc
I1214 21:00:42.516126 20057 net.cpp:120] Top shape: 32 1024 (32768)
I1214 21:00:42.516134 20057 layer_factory.hpp:74] Creating layer loss1/classifier_kaggle
I1214 21:00:42.516152 20057 net.cpp:84] Creating Layer loss1/classifier_kaggle
I1214 21:00:42.516158 20057 net.cpp:380] loss1/classifier_kaggle <- loss1/fc
I1214 21:00:42.516166 20057 net.cpp:338] loss1/classifier_kaggle -> loss1/classifier_kaggle
I1214 21:00:42.516176 20057 net.cpp:113] Setting up loss1/classifier_kaggle
I1214 21:00:42.521561 20057 net.cpp:120] Top shape: 32 447 (14304)
I1214 21:00:42.521575 20057 layer_factory.hpp:74] Creating layer loss1/loss
I1214 21:00:42.521595 20057 net.cpp:84] Creating Layer loss1/loss
I1214 21:00:42.521600 20057 net.cpp:380] loss1/loss <- loss1/classifier_kaggle
I1214 21:00:42.521606 20057 net.cpp:380] loss1/loss <- label_data_1_split_0
I1214 21:00:42.521613 20057 net.cpp:338] loss1/loss -> loss1/loss1
I1214 21:00:42.521622 20057 net.cpp:113] Setting up loss1/loss
I1214 21:00:42.521631 20057 layer_factory.hpp:74] Creating layer loss1/loss
I1214 21:00:42.521754 20057 net.cpp:120] Top shape: (1)
I1214 21:00:42.521762 20057 net.cpp:122]     with loss weight 0.3
I1214 21:00:42.521782 20057 layer_factory.hpp:74] Creating layer inception_4b/1x1
I1214 21:00:42.521800 20057 net.cpp:84] Creating Layer inception_4b/1x1
I1214 21:00:42.521806 20057 net.cpp:380] inception_4b/1x1 <- inception_4a/output_inception_4a/output_0_split_1
I1214 21:00:42.521814 20057 net.cpp:338] inception_4b/1x1 -> inception_4b/1x1
I1214 21:00:42.521823 20057 net.cpp:113] Setting up inception_4b/1x1
I1214 21:00:42.523669 20057 net.cpp:120] Top shape: 32 160 14 14 (1003520)
I1214 21:00:42.523685 20057 layer_factory.hpp:74] Creating layer inception_4b/relu_1x1
I1214 21:00:42.523695 20057 net.cpp:84] Creating Layer inception_4b/relu_1x1
I1214 21:00:42.523700 20057 net.cpp:380] inception_4b/relu_1x1 <- inception_4b/1x1
I1214 21:00:42.523708 20057 net.cpp:327] inception_4b/relu_1x1 -> inception_4b/1x1 (in-place)
I1214 21:00:42.523715 20057 net.cpp:113] Setting up inception_4b/relu_1x1
I1214 21:00:42.523788 20057 net.cpp:120] Top shape: 32 160 14 14 (1003520)
I1214 21:00:42.523795 20057 layer_factory.hpp:74] Creating layer inception_4b/3x3_reduce
I1214 21:00:42.523805 20057 net.cpp:84] Creating Layer inception_4b/3x3_reduce
I1214 21:00:42.523810 20057 net.cpp:380] inception_4b/3x3_reduce <- inception_4a/output_inception_4a/output_0_split_2
I1214 21:00:42.523831 20057 net.cpp:338] inception_4b/3x3_reduce -> inception_4b/3x3_reduce
I1214 21:00:42.523851 20057 net.cpp:113] Setting up inception_4b/3x3_reduce
I1214 21:00:42.525219 20057 net.cpp:120] Top shape: 32 112 14 14 (702464)
I1214 21:00:42.525244 20057 layer_factory.hpp:74] Creating layer inception_4b/relu_3x3_reduce
I1214 21:00:42.525261 20057 net.cpp:84] Creating Layer inception_4b/relu_3x3_reduce
I1214 21:00:42.525267 20057 net.cpp:380] inception_4b/relu_3x3_reduce <- inception_4b/3x3_reduce
I1214 21:00:42.525274 20057 net.cpp:327] inception_4b/relu_3x3_reduce -> inception_4b/3x3_reduce (in-place)
I1214 21:00:42.525285 20057 net.cpp:113] Setting up inception_4b/relu_3x3_reduce
I1214 21:00:42.525352 20057 net.cpp:120] Top shape: 32 112 14 14 (702464)
I1214 21:00:42.525359 20057 layer_factory.hpp:74] Creating layer inception_4b/3x3
I1214 21:00:42.525367 20057 net.cpp:84] Creating Layer inception_4b/3x3
I1214 21:00:42.525374 20057 net.cpp:380] inception_4b/3x3 <- inception_4b/3x3_reduce
I1214 21:00:42.525382 20057 net.cpp:338] inception_4b/3x3 -> inception_4b/3x3
I1214 21:00:42.525390 20057 net.cpp:113] Setting up inception_4b/3x3
I1214 21:00:42.528724 20057 net.cpp:120] Top shape: 32 224 14 14 (1404928)
I1214 21:00:42.528741 20057 layer_factory.hpp:74] Creating layer inception_4b/relu_3x3
I1214 21:00:42.528749 20057 net.cpp:84] Creating Layer inception_4b/relu_3x3
I1214 21:00:42.528755 20057 net.cpp:380] inception_4b/relu_3x3 <- inception_4b/3x3
I1214 21:00:42.528764 20057 net.cpp:327] inception_4b/relu_3x3 -> inception_4b/3x3 (in-place)
I1214 21:00:42.528772 20057 net.cpp:113] Setting up inception_4b/relu_3x3
I1214 21:00:42.529436 20057 net.cpp:120] Top shape: 32 224 14 14 (1404928)
I1214 21:00:42.529449 20057 layer_factory.hpp:74] Creating layer inception_4b/5x5_reduce
I1214 21:00:42.529459 20057 net.cpp:84] Creating Layer inception_4b/5x5_reduce
I1214 21:00:42.529465 20057 net.cpp:380] inception_4b/5x5_reduce <- inception_4a/output_inception_4a/output_0_split_3
I1214 21:00:42.529474 20057 net.cpp:338] inception_4b/5x5_reduce -> inception_4b/5x5_reduce
I1214 21:00:42.529484 20057 net.cpp:113] Setting up inception_4b/5x5_reduce
I1214 21:00:42.530504 20057 net.cpp:120] Top shape: 32 24 14 14 (150528)
I1214 21:00:42.530520 20057 layer_factory.hpp:74] Creating layer inception_4b/relu_5x5_reduce
I1214 21:00:42.530544 20057 net.cpp:84] Creating Layer inception_4b/relu_5x5_reduce
I1214 21:00:42.530551 20057 net.cpp:380] inception_4b/relu_5x5_reduce <- inception_4b/5x5_reduce
I1214 21:00:42.530558 20057 net.cpp:327] inception_4b/relu_5x5_reduce -> inception_4b/5x5_reduce (in-place)
I1214 21:00:42.530565 20057 net.cpp:113] Setting up inception_4b/relu_5x5_reduce
I1214 21:00:42.530640 20057 net.cpp:120] Top shape: 32 24 14 14 (150528)
I1214 21:00:42.530647 20057 layer_factory.hpp:74] Creating layer inception_4b/5x5
I1214 21:00:42.530657 20057 net.cpp:84] Creating Layer inception_4b/5x5
I1214 21:00:42.530661 20057 net.cpp:380] inception_4b/5x5 <- inception_4b/5x5_reduce
I1214 21:00:42.530668 20057 net.cpp:338] inception_4b/5x5 -> inception_4b/5x5
I1214 21:00:42.530676 20057 net.cpp:113] Setting up inception_4b/5x5
I1214 21:00:42.531898 20057 net.cpp:120] Top shape: 32 64 14 14 (401408)
I1214 21:00:42.531914 20057 layer_factory.hpp:74] Creating layer inception_4b/relu_5x5
I1214 21:00:42.531921 20057 net.cpp:84] Creating Layer inception_4b/relu_5x5
I1214 21:00:42.531926 20057 net.cpp:380] inception_4b/relu_5x5 <- inception_4b/5x5
I1214 21:00:42.531935 20057 net.cpp:327] inception_4b/relu_5x5 -> inception_4b/5x5 (in-place)
I1214 21:00:42.531944 20057 net.cpp:113] Setting up inception_4b/relu_5x5
I1214 21:00:42.532009 20057 net.cpp:120] Top shape: 32 64 14 14 (401408)
I1214 21:00:42.532016 20057 layer_factory.hpp:74] Creating layer inception_4b/pool
I1214 21:00:42.532021 20057 layer_factory.cpp:56] CUDNN does not support padding or multiple tops. Using Caffe's own pooling layer.
I1214 21:00:42.532035 20057 net.cpp:84] Creating Layer inception_4b/pool
I1214 21:00:42.532042 20057 net.cpp:380] inception_4b/pool <- inception_4a/output_inception_4a/output_0_split_4
I1214 21:00:42.532063 20057 net.cpp:338] inception_4b/pool -> inception_4b/pool
I1214 21:00:42.532080 20057 net.cpp:113] Setting up inception_4b/pool
I1214 21:00:42.532094 20057 net.cpp:120] Top shape: 32 512 14 14 (3211264)
I1214 21:00:42.532099 20057 layer_factory.hpp:74] Creating layer inception_4b/pool_proj
I1214 21:00:42.532106 20057 net.cpp:84] Creating Layer inception_4b/pool_proj
I1214 21:00:42.532114 20057 net.cpp:380] inception_4b/pool_proj <- inception_4b/pool
I1214 21:00:42.532120 20057 net.cpp:338] inception_4b/pool_proj -> inception_4b/pool_proj
I1214 21:00:42.532129 20057 net.cpp:113] Setting up inception_4b/pool_proj
I1214 21:00:42.533263 20057 net.cpp:120] Top shape: 32 64 14 14 (401408)
I1214 21:00:42.533288 20057 layer_factory.hpp:74] Creating layer inception_4b/relu_pool_proj
I1214 21:00:42.533298 20057 net.cpp:84] Creating Layer inception_4b/relu_pool_proj
I1214 21:00:42.533303 20057 net.cpp:380] inception_4b/relu_pool_proj <- inception_4b/pool_proj
I1214 21:00:42.533310 20057 net.cpp:327] inception_4b/relu_pool_proj -> inception_4b/pool_proj (in-place)
I1214 21:00:42.533318 20057 net.cpp:113] Setting up inception_4b/relu_pool_proj
I1214 21:00:42.533972 20057 net.cpp:120] Top shape: 32 64 14 14 (401408)
I1214 21:00:42.533987 20057 layer_factory.hpp:74] Creating layer inception_4b/output
I1214 21:00:42.533993 20057 net.cpp:84] Creating Layer inception_4b/output
I1214 21:00:42.533999 20057 net.cpp:380] inception_4b/output <- inception_4b/1x1
I1214 21:00:42.534005 20057 net.cpp:380] inception_4b/output <- inception_4b/3x3
I1214 21:00:42.534010 20057 net.cpp:380] inception_4b/output <- inception_4b/5x5
I1214 21:00:42.534016 20057 net.cpp:380] inception_4b/output <- inception_4b/pool_proj
I1214 21:00:42.534024 20057 net.cpp:338] inception_4b/output -> inception_4b/output
I1214 21:00:42.534032 20057 net.cpp:113] Setting up inception_4b/output
I1214 21:00:42.534041 20057 net.cpp:120] Top shape: 32 512 14 14 (3211264)
I1214 21:00:42.534046 20057 layer_factory.hpp:74] Creating layer inception_4b/output_inception_4b/output_0_split
I1214 21:00:42.534054 20057 net.cpp:84] Creating Layer inception_4b/output_inception_4b/output_0_split
I1214 21:00:42.534057 20057 net.cpp:380] inception_4b/output_inception_4b/output_0_split <- inception_4b/output
I1214 21:00:42.534065 20057 net.cpp:338] inception_4b/output_inception_4b/output_0_split -> inception_4b/output_inception_4b/output_0_split_0
I1214 21:00:42.534072 20057 net.cpp:338] inception_4b/output_inception_4b/output_0_split -> inception_4b/output_inception_4b/output_0_split_1
I1214 21:00:42.534080 20057 net.cpp:338] inception_4b/output_inception_4b/output_0_split -> inception_4b/output_inception_4b/output_0_split_2
I1214 21:00:42.534087 20057 net.cpp:338] inception_4b/output_inception_4b/output_0_split -> inception_4b/output_inception_4b/output_0_split_3
I1214 21:00:42.534095 20057 net.cpp:113] Setting up inception_4b/output_inception_4b/output_0_split
I1214 21:00:42.534103 20057 net.cpp:120] Top shape: 32 512 14 14 (3211264)
I1214 21:00:42.534109 20057 net.cpp:120] Top shape: 32 512 14 14 (3211264)
I1214 21:00:42.534114 20057 net.cpp:120] Top shape: 32 512 14 14 (3211264)
I1214 21:00:42.534119 20057 net.cpp:120] Top shape: 32 512 14 14 (3211264)
I1214 21:00:42.534123 20057 layer_factory.hpp:74] Creating layer inception_4c/1x1
I1214 21:00:42.534139 20057 net.cpp:84] Creating Layer inception_4c/1x1
I1214 21:00:42.534144 20057 net.cpp:380] inception_4c/1x1 <- inception_4b/output_inception_4b/output_0_split_0
I1214 21:00:42.534152 20057 net.cpp:338] inception_4c/1x1 -> inception_4c/1x1
I1214 21:00:42.534159 20057 net.cpp:113] Setting up inception_4c/1x1
I1214 21:00:42.535717 20057 net.cpp:120] Top shape: 32 128 14 14 (802816)
I1214 21:00:42.535739 20057 layer_factory.hpp:74] Creating layer inception_4c/relu_1x1
I1214 21:00:42.535748 20057 net.cpp:84] Creating Layer inception_4c/relu_1x1
I1214 21:00:42.535753 20057 net.cpp:380] inception_4c/relu_1x1 <- inception_4c/1x1
I1214 21:00:42.535761 20057 net.cpp:327] inception_4c/relu_1x1 -> inception_4c/1x1 (in-place)
I1214 21:00:42.535784 20057 net.cpp:113] Setting up inception_4c/relu_1x1
I1214 21:00:42.535852 20057 net.cpp:120] Top shape: 32 128 14 14 (802816)
I1214 21:00:42.535861 20057 layer_factory.hpp:74] Creating layer inception_4c/3x3_reduce
I1214 21:00:42.535871 20057 net.cpp:84] Creating Layer inception_4c/3x3_reduce
I1214 21:00:42.535876 20057 net.cpp:380] inception_4c/3x3_reduce <- inception_4b/output_inception_4b/output_0_split_1
I1214 21:00:42.535882 20057 net.cpp:338] inception_4c/3x3_reduce -> inception_4c/3x3_reduce
I1214 21:00:42.535892 20057 net.cpp:113] Setting up inception_4c/3x3_reduce
I1214 21:00:42.537520 20057 net.cpp:120] Top shape: 32 128 14 14 (802816)
I1214 21:00:42.537538 20057 layer_factory.hpp:74] Creating layer inception_4c/relu_3x3_reduce
I1214 21:00:42.537554 20057 net.cpp:84] Creating Layer inception_4c/relu_3x3_reduce
I1214 21:00:42.537559 20057 net.cpp:380] inception_4c/relu_3x3_reduce <- inception_4c/3x3_reduce
I1214 21:00:42.537567 20057 net.cpp:327] inception_4c/relu_3x3_reduce -> inception_4c/3x3_reduce (in-place)
I1214 21:00:42.537575 20057 net.cpp:113] Setting up inception_4c/relu_3x3_reduce
I1214 21:00:42.537647 20057 net.cpp:120] Top shape: 32 128 14 14 (802816)
I1214 21:00:42.537652 20057 layer_factory.hpp:74] Creating layer inception_4c/3x3
I1214 21:00:42.537663 20057 net.cpp:84] Creating Layer inception_4c/3x3
I1214 21:00:42.537668 20057 net.cpp:380] inception_4c/3x3 <- inception_4c/3x3_reduce
I1214 21:00:42.537675 20057 net.cpp:338] inception_4c/3x3 -> inception_4c/3x3
I1214 21:00:42.537683 20057 net.cpp:113] Setting up inception_4c/3x3
I1214 21:00:42.542042 20057 net.cpp:120] Top shape: 32 256 14 14 (1605632)
I1214 21:00:42.542076 20057 layer_factory.hpp:74] Creating layer inception_4c/relu_3x3
I1214 21:00:42.542086 20057 net.cpp:84] Creating Layer inception_4c/relu_3x3
I1214 21:00:42.542093 20057 net.cpp:380] inception_4c/relu_3x3 <- inception_4c/3x3
I1214 21:00:42.542099 20057 net.cpp:327] inception_4c/relu_3x3 -> inception_4c/3x3 (in-place)
I1214 21:00:42.542109 20057 net.cpp:113] Setting up inception_4c/relu_3x3
I1214 21:00:42.542183 20057 net.cpp:120] Top shape: 32 256 14 14 (1605632)
I1214 21:00:42.542197 20057 layer_factory.hpp:74] Creating layer inception_4c/5x5_reduce
I1214 21:00:42.542218 20057 net.cpp:84] Creating Layer inception_4c/5x5_reduce
I1214 21:00:42.542224 20057 net.cpp:380] inception_4c/5x5_reduce <- inception_4b/output_inception_4b/output_0_split_2
I1214 21:00:42.542234 20057 net.cpp:338] inception_4c/5x5_reduce -> inception_4c/5x5_reduce
I1214 21:00:42.542243 20057 net.cpp:113] Setting up inception_4c/5x5_reduce
I1214 21:00:42.543071 20057 net.cpp:120] Top shape: 32 24 14 14 (150528)
I1214 21:00:42.543087 20057 layer_factory.hpp:74] Creating layer inception_4c/relu_5x5_reduce
I1214 21:00:42.543095 20057 net.cpp:84] Creating Layer inception_4c/relu_5x5_reduce
I1214 21:00:42.543100 20057 net.cpp:380] inception_4c/relu_5x5_reduce <- inception_4c/5x5_reduce
I1214 21:00:42.543107 20057 net.cpp:327] inception_4c/relu_5x5_reduce -> inception_4c/5x5_reduce (in-place)
I1214 21:00:42.543115 20057 net.cpp:113] Setting up inception_4c/relu_5x5_reduce
I1214 21:00:42.543766 20057 net.cpp:120] Top shape: 32 24 14 14 (150528)
I1214 21:00:42.543778 20057 layer_factory.hpp:74] Creating layer inception_4c/5x5
I1214 21:00:42.543788 20057 net.cpp:84] Creating Layer inception_4c/5x5
I1214 21:00:42.543794 20057 net.cpp:380] inception_4c/5x5 <- inception_4c/5x5_reduce
I1214 21:00:42.543804 20057 net.cpp:338] inception_4c/5x5 -> inception_4c/5x5
I1214 21:00:42.543813 20057 net.cpp:113] Setting up inception_4c/5x5
I1214 21:00:42.545083 20057 net.cpp:120] Top shape: 32 64 14 14 (401408)
I1214 21:00:42.545100 20057 layer_factory.hpp:74] Creating layer inception_4c/relu_5x5
I1214 21:00:42.545116 20057 net.cpp:84] Creating Layer inception_4c/relu_5x5
I1214 21:00:42.545123 20057 net.cpp:380] inception_4c/relu_5x5 <- inception_4c/5x5
I1214 21:00:42.545130 20057 net.cpp:327] inception_4c/relu_5x5 -> inception_4c/5x5 (in-place)
I1214 21:00:42.545145 20057 net.cpp:113] Setting up inception_4c/relu_5x5
I1214 21:00:42.545227 20057 net.cpp:120] Top shape: 32 64 14 14 (401408)
I1214 21:00:42.545234 20057 layer_factory.hpp:74] Creating layer inception_4c/pool
I1214 21:00:42.545245 20057 layer_factory.cpp:56] CUDNN does not support padding or multiple tops. Using Caffe's own pooling layer.
I1214 21:00:42.545251 20057 net.cpp:84] Creating Layer inception_4c/pool
I1214 21:00:42.545258 20057 net.cpp:380] inception_4c/pool <- inception_4b/output_inception_4b/output_0_split_3
I1214 21:00:42.545266 20057 net.cpp:338] inception_4c/pool -> inception_4c/pool
I1214 21:00:42.545274 20057 net.cpp:113] Setting up inception_4c/pool
I1214 21:00:42.545284 20057 net.cpp:120] Top shape: 32 512 14 14 (3211264)
I1214 21:00:42.545289 20057 layer_factory.hpp:74] Creating layer inception_4c/pool_proj
I1214 21:00:42.545296 20057 net.cpp:84] Creating Layer inception_4c/pool_proj
I1214 21:00:42.545301 20057 net.cpp:380] inception_4c/pool_proj <- inception_4c/pool
I1214 21:00:42.545310 20057 net.cpp:338] inception_4c/pool_proj -> inception_4c/pool_proj
I1214 21:00:42.545318 20057 net.cpp:113] Setting up inception_4c/pool_proj
I1214 21:00:42.546473 20057 net.cpp:120] Top shape: 32 64 14 14 (401408)
I1214 21:00:42.546489 20057 layer_factory.hpp:74] Creating layer inception_4c/relu_pool_proj
I1214 21:00:42.546496 20057 net.cpp:84] Creating Layer inception_4c/relu_pool_proj
I1214 21:00:42.546501 20057 net.cpp:380] inception_4c/relu_pool_proj <- inception_4c/pool_proj
I1214 21:00:42.546510 20057 net.cpp:327] inception_4c/relu_pool_proj -> inception_4c/pool_proj (in-place)
I1214 21:00:42.546519 20057 net.cpp:113] Setting up inception_4c/relu_pool_proj
I1214 21:00:42.546591 20057 net.cpp:120] Top shape: 32 64 14 14 (401408)
I1214 21:00:42.546597 20057 layer_factory.hpp:74] Creating layer inception_4c/output
I1214 21:00:42.546610 20057 net.cpp:84] Creating Layer inception_4c/output
I1214 21:00:42.546615 20057 net.cpp:380] inception_4c/output <- inception_4c/1x1
I1214 21:00:42.546622 20057 net.cpp:380] inception_4c/output <- inception_4c/3x3
I1214 21:00:42.546627 20057 net.cpp:380] inception_4c/output <- inception_4c/5x5
I1214 21:00:42.546633 20057 net.cpp:380] inception_4c/output <- inception_4c/pool_proj
I1214 21:00:42.546638 20057 net.cpp:338] inception_4c/output -> inception_4c/output
I1214 21:00:42.546646 20057 net.cpp:113] Setting up inception_4c/output
I1214 21:00:42.546654 20057 net.cpp:120] Top shape: 32 512 14 14 (3211264)
I1214 21:00:42.546659 20057 layer_factory.hpp:74] Creating layer inception_4c/output_inception_4c/output_0_split
I1214 21:00:42.546668 20057 net.cpp:84] Creating Layer inception_4c/output_inception_4c/output_0_split
I1214 21:00:42.546672 20057 net.cpp:380] inception_4c/output_inception_4c/output_0_split <- inception_4c/output
I1214 21:00:42.546679 20057 net.cpp:338] inception_4c/output_inception_4c/output_0_split -> inception_4c/output_inception_4c/output_0_split_0
I1214 21:00:42.546687 20057 net.cpp:338] inception_4c/output_inception_4c/output_0_split -> inception_4c/output_inception_4c/output_0_split_1
I1214 21:00:42.546694 20057 net.cpp:338] inception_4c/output_inception_4c/output_0_split -> inception_4c/output_inception_4c/output_0_split_2
I1214 21:00:42.546703 20057 net.cpp:338] inception_4c/output_inception_4c/output_0_split -> inception_4c/output_inception_4c/output_0_split_3
I1214 21:00:42.546710 20057 net.cpp:113] Setting up inception_4c/output_inception_4c/output_0_split
I1214 21:00:42.546718 20057 net.cpp:120] Top shape: 32 512 14 14 (3211264)
I1214 21:00:42.546723 20057 net.cpp:120] Top shape: 32 512 14 14 (3211264)
I1214 21:00:42.546728 20057 net.cpp:120] Top shape: 32 512 14 14 (3211264)
I1214 21:00:42.546735 20057 net.cpp:120] Top shape: 32 512 14 14 (3211264)
I1214 21:00:42.546744 20057 layer_factory.hpp:74] Creating layer inception_4d/1x1
I1214 21:00:42.546752 20057 net.cpp:84] Creating Layer inception_4d/1x1
I1214 21:00:42.546756 20057 net.cpp:380] inception_4d/1x1 <- inception_4c/output_inception_4c/output_0_split_0
I1214 21:00:42.546766 20057 net.cpp:338] inception_4d/1x1 -> inception_4d/1x1
I1214 21:00:42.546784 20057 net.cpp:113] Setting up inception_4d/1x1
I1214 21:00:42.548223 20057 net.cpp:120] Top shape: 32 112 14 14 (702464)
I1214 21:00:42.548243 20057 layer_factory.hpp:74] Creating layer inception_4d/relu_1x1
I1214 21:00:42.548251 20057 net.cpp:84] Creating Layer inception_4d/relu_1x1
I1214 21:00:42.548257 20057 net.cpp:380] inception_4d/relu_1x1 <- inception_4d/1x1
I1214 21:00:42.548265 20057 net.cpp:327] inception_4d/relu_1x1 -> inception_4d/1x1 (in-place)
I1214 21:00:42.548274 20057 net.cpp:113] Setting up inception_4d/relu_1x1
I1214 21:00:42.548347 20057 net.cpp:120] Top shape: 32 112 14 14 (702464)
I1214 21:00:42.548354 20057 layer_factory.hpp:74] Creating layer inception_4d/3x3_reduce
I1214 21:00:42.548370 20057 net.cpp:84] Creating Layer inception_4d/3x3_reduce
I1214 21:00:42.548377 20057 net.cpp:380] inception_4d/3x3_reduce <- inception_4c/output_inception_4c/output_0_split_1
I1214 21:00:42.548387 20057 net.cpp:338] inception_4d/3x3_reduce -> inception_4d/3x3_reduce
I1214 21:00:42.548396 20057 net.cpp:113] Setting up inception_4d/3x3_reduce
I1214 21:00:42.550046 20057 net.cpp:120] Top shape: 32 144 14 14 (903168)
I1214 21:00:42.550065 20057 layer_factory.hpp:74] Creating layer inception_4d/relu_3x3_reduce
I1214 21:00:42.550072 20057 net.cpp:84] Creating Layer inception_4d/relu_3x3_reduce
I1214 21:00:42.550077 20057 net.cpp:380] inception_4d/relu_3x3_reduce <- inception_4d/3x3_reduce
I1214 21:00:42.550086 20057 net.cpp:327] inception_4d/relu_3x3_reduce -> inception_4d/3x3_reduce (in-place)
I1214 21:00:42.550093 20057 net.cpp:113] Setting up inception_4d/relu_3x3_reduce
I1214 21:00:42.550742 20057 net.cpp:120] Top shape: 32 144 14 14 (903168)
I1214 21:00:42.550761 20057 layer_factory.hpp:74] Creating layer inception_4d/3x3
I1214 21:00:42.550771 20057 net.cpp:84] Creating Layer inception_4d/3x3
I1214 21:00:42.550777 20057 net.cpp:380] inception_4d/3x3 <- inception_4d/3x3_reduce
I1214 21:00:42.550786 20057 net.cpp:338] inception_4d/3x3 -> inception_4d/3x3
I1214 21:00:42.550796 20057 net.cpp:113] Setting up inception_4d/3x3
I1214 21:00:42.555922 20057 net.cpp:120] Top shape: 32 288 14 14 (1806336)
I1214 21:00:42.555940 20057 layer_factory.hpp:74] Creating layer inception_4d/relu_3x3
I1214 21:00:42.555949 20057 net.cpp:84] Creating Layer inception_4d/relu_3x3
I1214 21:00:42.555955 20057 net.cpp:380] inception_4d/relu_3x3 <- inception_4d/3x3
I1214 21:00:42.555963 20057 net.cpp:327] inception_4d/relu_3x3 -> inception_4d/3x3 (in-place)
I1214 21:00:42.555970 20057 net.cpp:113] Setting up inception_4d/relu_3x3
I1214 21:00:42.556041 20057 net.cpp:120] Top shape: 32 288 14 14 (1806336)
I1214 21:00:42.556047 20057 layer_factory.hpp:74] Creating layer inception_4d/5x5_reduce
I1214 21:00:42.556064 20057 net.cpp:84] Creating Layer inception_4d/5x5_reduce
I1214 21:00:42.556069 20057 net.cpp:380] inception_4d/5x5_reduce <- inception_4c/output_inception_4c/output_0_split_2
I1214 21:00:42.556079 20057 net.cpp:338] inception_4d/5x5_reduce -> inception_4d/5x5_reduce
I1214 21:00:42.556088 20057 net.cpp:113] Setting up inception_4d/5x5_reduce
I1214 21:00:42.557137 20057 net.cpp:120] Top shape: 32 32 14 14 (200704)
I1214 21:00:42.557155 20057 layer_factory.hpp:74] Creating layer inception_4d/relu_5x5_reduce
I1214 21:00:42.557164 20057 net.cpp:84] Creating Layer inception_4d/relu_5x5_reduce
I1214 21:00:42.557170 20057 net.cpp:380] inception_4d/relu_5x5_reduce <- inception_4d/5x5_reduce
I1214 21:00:42.557178 20057 net.cpp:327] inception_4d/relu_5x5_reduce -> inception_4d/5x5_reduce (in-place)
I1214 21:00:42.557185 20057 net.cpp:113] Setting up inception_4d/relu_5x5_reduce
I1214 21:00:42.557256 20057 net.cpp:120] Top shape: 32 32 14 14 (200704)
I1214 21:00:42.557262 20057 layer_factory.hpp:74] Creating layer inception_4d/5x5
I1214 21:00:42.557279 20057 net.cpp:84] Creating Layer inception_4d/5x5
I1214 21:00:42.557286 20057 net.cpp:380] inception_4d/5x5 <- inception_4d/5x5_reduce
I1214 21:00:42.557292 20057 net.cpp:338] inception_4d/5x5 -> inception_4d/5x5
I1214 21:00:42.557307 20057 net.cpp:113] Setting up inception_4d/5x5
I1214 21:00:42.558580 20057 net.cpp:120] Top shape: 32 64 14 14 (401408)
I1214 21:00:42.558598 20057 layer_factory.hpp:74] Creating layer inception_4d/relu_5x5
I1214 21:00:42.558614 20057 net.cpp:84] Creating Layer inception_4d/relu_5x5
I1214 21:00:42.558620 20057 net.cpp:380] inception_4d/relu_5x5 <- inception_4d/5x5
I1214 21:00:42.558627 20057 net.cpp:327] inception_4d/relu_5x5 -> inception_4d/5x5 (in-place)
I1214 21:00:42.558635 20057 net.cpp:113] Setting up inception_4d/relu_5x5
I1214 21:00:42.558707 20057 net.cpp:120] Top shape: 32 64 14 14 (401408)
I1214 21:00:42.558714 20057 layer_factory.hpp:74] Creating layer inception_4d/pool
I1214 21:00:42.558719 20057 layer_factory.cpp:56] CUDNN does not support padding or multiple tops. Using Caffe's own pooling layer.
I1214 21:00:42.558727 20057 net.cpp:84] Creating Layer inception_4d/pool
I1214 21:00:42.558732 20057 net.cpp:380] inception_4d/pool <- inception_4c/output_inception_4c/output_0_split_3
I1214 21:00:42.558742 20057 net.cpp:338] inception_4d/pool -> inception_4d/pool
I1214 21:00:42.558749 20057 net.cpp:113] Setting up inception_4d/pool
I1214 21:00:42.558758 20057 net.cpp:120] Top shape: 32 512 14 14 (3211264)
I1214 21:00:42.558763 20057 layer_factory.hpp:74] Creating layer inception_4d/pool_proj
I1214 21:00:42.558770 20057 net.cpp:84] Creating Layer inception_4d/pool_proj
I1214 21:00:42.558775 20057 net.cpp:380] inception_4d/pool_proj <- inception_4d/pool
I1214 21:00:42.558784 20057 net.cpp:338] inception_4d/pool_proj -> inception_4d/pool_proj
I1214 21:00:42.558792 20057 net.cpp:113] Setting up inception_4d/pool_proj
I1214 21:00:42.560061 20057 net.cpp:120] Top shape: 32 64 14 14 (401408)
I1214 21:00:42.560077 20057 layer_factory.hpp:74] Creating layer inception_4d/relu_pool_proj
I1214 21:00:42.560091 20057 net.cpp:84] Creating Layer inception_4d/relu_pool_proj
I1214 21:00:42.560097 20057 net.cpp:380] inception_4d/relu_pool_proj <- inception_4d/pool_proj
I1214 21:00:42.560104 20057 net.cpp:327] inception_4d/relu_pool_proj -> inception_4d/pool_proj (in-place)
I1214 21:00:42.560112 20057 net.cpp:113] Setting up inception_4d/relu_pool_proj
I1214 21:00:42.560796 20057 net.cpp:120] Top shape: 32 64 14 14 (401408)
I1214 21:00:42.560809 20057 layer_factory.hpp:74] Creating layer inception_4d/output
I1214 21:00:42.560823 20057 net.cpp:84] Creating Layer inception_4d/output
I1214 21:00:42.560828 20057 net.cpp:380] inception_4d/output <- inception_4d/1x1
I1214 21:00:42.560835 20057 net.cpp:380] inception_4d/output <- inception_4d/3x3
I1214 21:00:42.560842 20057 net.cpp:380] inception_4d/output <- inception_4d/5x5
I1214 21:00:42.560847 20057 net.cpp:380] inception_4d/output <- inception_4d/pool_proj
I1214 21:00:42.560854 20057 net.cpp:338] inception_4d/output -> inception_4d/output
I1214 21:00:42.560863 20057 net.cpp:113] Setting up inception_4d/output
I1214 21:00:42.560873 20057 net.cpp:120] Top shape: 32 528 14 14 (3311616)
I1214 21:00:42.560878 20057 layer_factory.hpp:74] Creating layer inception_4d/output_inception_4d/output_0_split
I1214 21:00:42.560883 20057 net.cpp:84] Creating Layer inception_4d/output_inception_4d/output_0_split
I1214 21:00:42.560889 20057 net.cpp:380] inception_4d/output_inception_4d/output_0_split <- inception_4d/output
I1214 21:00:42.560899 20057 net.cpp:338] inception_4d/output_inception_4d/output_0_split -> inception_4d/output_inception_4d/output_0_split_0
I1214 21:00:42.560909 20057 net.cpp:338] inception_4d/output_inception_4d/output_0_split -> inception_4d/output_inception_4d/output_0_split_1
I1214 21:00:42.560916 20057 net.cpp:338] inception_4d/output_inception_4d/output_0_split -> inception_4d/output_inception_4d/output_0_split_2
I1214 21:00:42.560925 20057 net.cpp:338] inception_4d/output_inception_4d/output_0_split -> inception_4d/output_inception_4d/output_0_split_3
I1214 21:00:42.560930 20057 net.cpp:338] inception_4d/output_inception_4d/output_0_split -> inception_4d/output_inception_4d/output_0_split_4
I1214 21:00:42.560937 20057 net.cpp:113] Setting up inception_4d/output_inception_4d/output_0_split
I1214 21:00:42.560951 20057 net.cpp:120] Top shape: 32 528 14 14 (3311616)
I1214 21:00:42.560963 20057 net.cpp:120] Top shape: 32 528 14 14 (3311616)
I1214 21:00:42.560968 20057 net.cpp:120] Top shape: 32 528 14 14 (3311616)
I1214 21:00:42.560973 20057 net.cpp:120] Top shape: 32 528 14 14 (3311616)
I1214 21:00:42.560978 20057 net.cpp:120] Top shape: 32 528 14 14 (3311616)
I1214 21:00:42.560983 20057 layer_factory.hpp:74] Creating layer loss2/ave_pool
I1214 21:00:42.560992 20057 net.cpp:84] Creating Layer loss2/ave_pool
I1214 21:00:42.560997 20057 net.cpp:380] loss2/ave_pool <- inception_4d/output_inception_4d/output_0_split_0
I1214 21:00:42.561003 20057 net.cpp:338] loss2/ave_pool -> loss2/ave_pool
I1214 21:00:42.561012 20057 net.cpp:113] Setting up loss2/ave_pool
I1214 21:00:42.561100 20057 net.cpp:120] Top shape: 32 528 4 4 (270336)
I1214 21:00:42.561108 20057 layer_factory.hpp:74] Creating layer loss2/conv
I1214 21:00:42.561117 20057 net.cpp:84] Creating Layer loss2/conv
I1214 21:00:42.561122 20057 net.cpp:380] loss2/conv <- loss2/ave_pool
I1214 21:00:42.561131 20057 net.cpp:338] loss2/conv -> loss2/conv
I1214 21:00:42.561139 20057 net.cpp:113] Setting up loss2/conv
I1214 21:00:42.562750 20057 net.cpp:120] Top shape: 32 128 4 4 (65536)
I1214 21:00:42.562767 20057 layer_factory.hpp:74] Creating layer loss2/relu_conv
I1214 21:00:42.562783 20057 net.cpp:84] Creating Layer loss2/relu_conv
I1214 21:00:42.562789 20057 net.cpp:380] loss2/relu_conv <- loss2/conv
I1214 21:00:42.562798 20057 net.cpp:327] loss2/relu_conv -> loss2/conv (in-place)
I1214 21:00:42.562806 20057 net.cpp:113] Setting up loss2/relu_conv
I1214 21:00:42.562876 20057 net.cpp:120] Top shape: 32 128 4 4 (65536)
I1214 21:00:42.562888 20057 layer_factory.hpp:74] Creating layer loss2/fc
I1214 21:00:42.562896 20057 net.cpp:84] Creating Layer loss2/fc
I1214 21:00:42.562901 20057 net.cpp:380] loss2/fc <- loss2/conv
I1214 21:00:42.562911 20057 net.cpp:338] loss2/fc -> loss2/fc
I1214 21:00:42.562918 20057 net.cpp:113] Setting up loss2/fc
I1214 21:00:42.585489 20057 net.cpp:120] Top shape: 32 1024 (32768)
I1214 21:00:42.585505 20057 layer_factory.hpp:74] Creating layer loss2/relu_fc
I1214 21:00:42.585511 20057 net.cpp:84] Creating Layer loss2/relu_fc
I1214 21:00:42.585516 20057 net.cpp:380] loss2/relu_fc <- loss2/fc
I1214 21:00:42.585523 20057 net.cpp:327] loss2/relu_fc -> loss2/fc (in-place)
I1214 21:00:42.585530 20057 net.cpp:113] Setting up loss2/relu_fc
I1214 21:00:42.586613 20057 net.cpp:120] Top shape: 32 1024 (32768)
I1214 21:00:42.586659 20057 layer_factory.hpp:74] Creating layer loss2/drop_fc
I1214 21:00:42.586679 20057 net.cpp:84] Creating Layer loss2/drop_fc
I1214 21:00:42.586694 20057 net.cpp:380] loss2/drop_fc <- loss2/fc
I1214 21:00:42.586709 20057 net.cpp:327] loss2/drop_fc -> loss2/fc (in-place)
I1214 21:00:42.586730 20057 net.cpp:113] Setting up loss2/drop_fc
I1214 21:00:42.586746 20057 net.cpp:120] Top shape: 32 1024 (32768)
I1214 21:00:42.586755 20057 layer_factory.hpp:74] Creating layer loss2/classifier_kaggle
I1214 21:00:42.586779 20057 net.cpp:84] Creating Layer loss2/classifier_kaggle
I1214 21:00:42.586789 20057 net.cpp:380] loss2/classifier_kaggle <- loss2/fc
I1214 21:00:42.586803 20057 net.cpp:338] loss2/classifier_kaggle -> loss2/classifier_kaggle
I1214 21:00:42.586822 20057 net.cpp:113] Setting up loss2/classifier_kaggle
I1214 21:00:42.596607 20057 net.cpp:120] Top shape: 32 447 (14304)
I1214 21:00:42.596635 20057 layer_factory.hpp:74] Creating layer loss2/loss
I1214 21:00:42.596652 20057 net.cpp:84] Creating Layer loss2/loss
I1214 21:00:42.596662 20057 net.cpp:380] loss2/loss <- loss2/classifier_kaggle
I1214 21:00:42.596674 20057 net.cpp:380] loss2/loss <- label_data_1_split_1
I1214 21:00:42.596688 20057 net.cpp:338] loss2/loss -> loss2/loss1
I1214 21:00:42.596706 20057 net.cpp:113] Setting up loss2/loss
I1214 21:00:42.596719 20057 layer_factory.hpp:74] Creating layer loss2/loss
I1214 21:00:42.596940 20057 net.cpp:120] Top shape: (1)
I1214 21:00:42.596953 20057 net.cpp:122]     with loss weight 0.3
I1214 21:00:42.596982 20057 layer_factory.hpp:74] Creating layer inception_4e/1x1
I1214 21:00:42.597019 20057 net.cpp:84] Creating Layer inception_4e/1x1
I1214 21:00:42.597030 20057 net.cpp:380] inception_4e/1x1 <- inception_4d/output_inception_4d/output_0_split_1
I1214 21:00:42.597048 20057 net.cpp:338] inception_4e/1x1 -> inception_4e/1x1
I1214 21:00:42.597074 20057 net.cpp:113] Setting up inception_4e/1x1
I1214 21:00:42.613536 20057 net.cpp:120] Top shape: 32 256 14 14 (1605632)
I1214 21:00:42.613566 20057 layer_factory.hpp:74] Creating layer inception_4e/relu_1x1
I1214 21:00:42.613581 20057 net.cpp:84] Creating Layer inception_4e/relu_1x1
I1214 21:00:42.613591 20057 net.cpp:380] inception_4e/relu_1x1 <- inception_4e/1x1
I1214 21:00:42.613607 20057 net.cpp:327] inception_4e/relu_1x1 -> inception_4e/1x1 (in-place)
I1214 21:00:42.613621 20057 net.cpp:113] Setting up inception_4e/relu_1x1
I1214 21:00:42.613730 20057 net.cpp:120] Top shape: 32 256 14 14 (1605632)
I1214 21:00:42.613744 20057 layer_factory.hpp:74] Creating layer inception_4e/3x3_reduce
I1214 21:00:42.613765 20057 net.cpp:84] Creating Layer inception_4e/3x3_reduce
I1214 21:00:42.613777 20057 net.cpp:380] inception_4e/3x3_reduce <- inception_4d/output_inception_4d/output_0_split_2
I1214 21:00:42.613790 20057 net.cpp:338] inception_4e/3x3_reduce -> inception_4e/3x3_reduce
I1214 21:00:42.613806 20057 net.cpp:113] Setting up inception_4e/3x3_reduce
I1214 21:00:42.627965 20057 net.cpp:120] Top shape: 32 160 14 14 (1003520)
I1214 21:00:42.627990 20057 layer_factory.hpp:74] Creating layer inception_4e/relu_3x3_reduce
I1214 21:00:42.628001 20057 net.cpp:84] Creating Layer inception_4e/relu_3x3_reduce
I1214 21:00:42.628007 20057 net.cpp:380] inception_4e/relu_3x3_reduce <- inception_4e/3x3_reduce
I1214 21:00:42.628017 20057 net.cpp:327] inception_4e/relu_3x3_reduce -> inception_4e/3x3_reduce (in-place)
I1214 21:00:42.628026 20057 net.cpp:113] Setting up inception_4e/relu_3x3_reduce
I1214 21:00:42.628135 20057 net.cpp:120] Top shape: 32 160 14 14 (1003520)
I1214 21:00:42.628149 20057 layer_factory.hpp:74] Creating layer inception_4e/3x3
I1214 21:00:42.628162 20057 net.cpp:84] Creating Layer inception_4e/3x3
I1214 21:00:42.628171 20057 net.cpp:380] inception_4e/3x3 <- inception_4e/3x3_reduce
I1214 21:00:42.628186 20057 net.cpp:338] inception_4e/3x3 -> inception_4e/3x3
I1214 21:00:42.628201 20057 net.cpp:113] Setting up inception_4e/3x3
I1214 21:00:42.637857 20057 net.cpp:120] Top shape: 32 320 14 14 (2007040)
I1214 21:00:42.637902 20057 layer_factory.hpp:74] Creating layer inception_4e/relu_3x3
I1214 21:00:42.637918 20057 net.cpp:84] Creating Layer inception_4e/relu_3x3
I1214 21:00:42.637931 20057 net.cpp:380] inception_4e/relu_3x3 <- inception_4e/3x3
I1214 21:00:42.637950 20057 net.cpp:327] inception_4e/relu_3x3 -> inception_4e/3x3 (in-place)
I1214 21:00:42.637967 20057 net.cpp:113] Setting up inception_4e/relu_3x3
I1214 21:00:42.650027 20057 net.cpp:120] Top shape: 32 320 14 14 (2007040)
I1214 21:00:42.650045 20057 layer_factory.hpp:74] Creating layer inception_4e/5x5_reduce
I1214 21:00:42.650068 20057 net.cpp:84] Creating Layer inception_4e/5x5_reduce
I1214 21:00:42.650076 20057 net.cpp:380] inception_4e/5x5_reduce <- inception_4d/output_inception_4d/output_0_split_3
I1214 21:00:42.650089 20057 net.cpp:338] inception_4e/5x5_reduce -> inception_4e/5x5_reduce
I1214 21:00:42.650101 20057 net.cpp:113] Setting up inception_4e/5x5_reduce
I1214 21:00:42.659983 20057 net.cpp:120] Top shape: 32 32 14 14 (200704)
I1214 21:00:42.660023 20057 layer_factory.hpp:74] Creating layer inception_4e/relu_5x5_reduce
I1214 21:00:42.660040 20057 net.cpp:84] Creating Layer inception_4e/relu_5x5_reduce
I1214 21:00:42.660053 20057 net.cpp:380] inception_4e/relu_5x5_reduce <- inception_4e/5x5_reduce
I1214 21:00:42.660068 20057 net.cpp:327] inception_4e/relu_5x5_reduce -> inception_4e/5x5_reduce (in-place)
I1214 21:00:42.660084 20057 net.cpp:113] Setting up inception_4e/relu_5x5_reduce
I1214 21:00:42.660238 20057 net.cpp:120] Top shape: 32 32 14 14 (200704)
I1214 21:00:42.660262 20057 layer_factory.hpp:74] Creating layer inception_4e/5x5
I1214 21:00:42.660318 20057 net.cpp:84] Creating Layer inception_4e/5x5
I1214 21:00:42.660348 20057 net.cpp:380] inception_4e/5x5 <- inception_4e/5x5_reduce
I1214 21:00:42.660365 20057 net.cpp:338] inception_4e/5x5 -> inception_4e/5x5
I1214 21:00:42.660383 20057 net.cpp:113] Setting up inception_4e/5x5
I1214 21:00:42.676384 20057 net.cpp:120] Top shape: 32 128 14 14 (802816)
I1214 21:00:42.676425 20057 layer_factory.hpp:74] Creating layer inception_4e/relu_5x5
I1214 21:00:42.676462 20057 net.cpp:84] Creating Layer inception_4e/relu_5x5
I1214 21:00:42.676470 20057 net.cpp:380] inception_4e/relu_5x5 <- inception_4e/5x5
I1214 21:00:42.676476 20057 net.cpp:327] inception_4e/relu_5x5 -> inception_4e/5x5 (in-place)
I1214 21:00:42.676486 20057 net.cpp:113] Setting up inception_4e/relu_5x5
I1214 21:00:42.676561 20057 net.cpp:120] Top shape: 32 128 14 14 (802816)
I1214 21:00:42.676568 20057 layer_factory.hpp:74] Creating layer inception_4e/pool
I1214 21:00:42.676574 20057 layer_factory.cpp:56] CUDNN does not support padding or multiple tops. Using Caffe's own pooling layer.
I1214 21:00:42.676583 20057 net.cpp:84] Creating Layer inception_4e/pool
I1214 21:00:42.676587 20057 net.cpp:380] inception_4e/pool <- inception_4d/output_inception_4d/output_0_split_4
I1214 21:00:42.676594 20057 net.cpp:338] inception_4e/pool -> inception_4e/pool
I1214 21:00:42.676604 20057 net.cpp:113] Setting up inception_4e/pool
I1214 21:00:42.676614 20057 net.cpp:120] Top shape: 32 528 14 14 (3311616)
I1214 21:00:42.676619 20057 layer_factory.hpp:74] Creating layer inception_4e/pool_proj
I1214 21:00:42.676626 20057 net.cpp:84] Creating Layer inception_4e/pool_proj
I1214 21:00:42.676631 20057 net.cpp:380] inception_4e/pool_proj <- inception_4e/pool
I1214 21:00:42.676640 20057 net.cpp:338] inception_4e/pool_proj -> inception_4e/pool_proj
I1214 21:00:42.676648 20057 net.cpp:113] Setting up inception_4e/pool_proj
I1214 21:00:42.689630 20057 net.cpp:120] Top shape: 32 128 14 14 (802816)
I1214 21:00:42.689669 20057 layer_factory.hpp:74] Creating layer inception_4e/relu_pool_proj
I1214 21:00:42.689708 20057 net.cpp:84] Creating Layer inception_4e/relu_pool_proj
I1214 21:00:42.689721 20057 net.cpp:380] inception_4e/relu_pool_proj <- inception_4e/pool_proj
I1214 21:00:42.689736 20057 net.cpp:327] inception_4e/relu_pool_proj -> inception_4e/pool_proj (in-place)
I1214 21:00:42.689752 20057 net.cpp:113] Setting up inception_4e/relu_pool_proj
I1214 21:00:42.689894 20057 net.cpp:120] Top shape: 32 128 14 14 (802816)
I1214 21:00:42.689908 20057 layer_factory.hpp:74] Creating layer inception_4e/output
I1214 21:00:42.689920 20057 net.cpp:84] Creating Layer inception_4e/output
I1214 21:00:42.689930 20057 net.cpp:380] inception_4e/output <- inception_4e/1x1
I1214 21:00:42.689944 20057 net.cpp:380] inception_4e/output <- inception_4e/3x3
I1214 21:00:42.689954 20057 net.cpp:380] inception_4e/output <- inception_4e/5x5
I1214 21:00:42.689965 20057 net.cpp:380] inception_4e/output <- inception_4e/pool_proj
I1214 21:00:42.689977 20057 net.cpp:338] inception_4e/output -> inception_4e/output
I1214 21:00:42.689992 20057 net.cpp:113] Setting up inception_4e/output
I1214 21:00:42.690008 20057 net.cpp:120] Top shape: 32 832 14 14 (5218304)
I1214 21:00:42.690017 20057 layer_factory.hpp:74] Creating layer pool4/3x3_s2
I1214 21:00:42.690033 20057 net.cpp:84] Creating Layer pool4/3x3_s2
I1214 21:00:42.690043 20057 net.cpp:380] pool4/3x3_s2 <- inception_4e/output
I1214 21:00:42.690057 20057 net.cpp:338] pool4/3x3_s2 -> pool4/3x3_s2
I1214 21:00:42.690070 20057 net.cpp:113] Setting up pool4/3x3_s2
I1214 21:00:42.699187 20057 net.cpp:120] Top shape: 32 832 7 7 (1304576)
I1214 21:00:42.699206 20057 layer_factory.hpp:74] Creating layer pool4/3x3_s2_pool4/3x3_s2_0_split
I1214 21:00:42.699214 20057 net.cpp:84] Creating Layer pool4/3x3_s2_pool4/3x3_s2_0_split
I1214 21:00:42.699219 20057 net.cpp:380] pool4/3x3_s2_pool4/3x3_s2_0_split <- pool4/3x3_s2
I1214 21:00:42.699229 20057 net.cpp:338] pool4/3x3_s2_pool4/3x3_s2_0_split -> pool4/3x3_s2_pool4/3x3_s2_0_split_0
I1214 21:00:42.699241 20057 net.cpp:338] pool4/3x3_s2_pool4/3x3_s2_0_split -> pool4/3x3_s2_pool4/3x3_s2_0_split_1
I1214 21:00:42.699255 20057 net.cpp:338] pool4/3x3_s2_pool4/3x3_s2_0_split -> pool4/3x3_s2_pool4/3x3_s2_0_split_2
I1214 21:00:42.699261 20057 net.cpp:338] pool4/3x3_s2_pool4/3x3_s2_0_split -> pool4/3x3_s2_pool4/3x3_s2_0_split_3
I1214 21:00:42.699267 20057 net.cpp:113] Setting up pool4/3x3_s2_pool4/3x3_s2_0_split
I1214 21:00:42.699275 20057 net.cpp:120] Top shape: 32 832 7 7 (1304576)
I1214 21:00:42.699280 20057 net.cpp:120] Top shape: 32 832 7 7 (1304576)
I1214 21:00:42.699283 20057 net.cpp:120] Top shape: 32 832 7 7 (1304576)
I1214 21:00:42.699287 20057 net.cpp:120] Top shape: 32 832 7 7 (1304576)
I1214 21:00:42.699291 20057 layer_factory.hpp:74] Creating layer inception_5a/1x1
I1214 21:00:42.699309 20057 net.cpp:84] Creating Layer inception_5a/1x1
I1214 21:00:42.699314 20057 net.cpp:380] inception_5a/1x1 <- pool4/3x3_s2_pool4/3x3_s2_0_split_0
I1214 21:00:42.699322 20057 net.cpp:338] inception_5a/1x1 -> inception_5a/1x1
I1214 21:00:42.699329 20057 net.cpp:113] Setting up inception_5a/1x1
I1214 21:00:42.712216 20057 net.cpp:120] Top shape: 32 256 7 7 (401408)
I1214 21:00:42.712260 20057 layer_factory.hpp:74] Creating layer inception_5a/relu_1x1
I1214 21:00:42.712273 20057 net.cpp:84] Creating Layer inception_5a/relu_1x1
I1214 21:00:42.712282 20057 net.cpp:380] inception_5a/relu_1x1 <- inception_5a/1x1
I1214 21:00:42.712296 20057 net.cpp:327] inception_5a/relu_1x1 -> inception_5a/1x1 (in-place)
I1214 21:00:42.712311 20057 net.cpp:113] Setting up inception_5a/relu_1x1
I1214 21:00:42.712429 20057 net.cpp:120] Top shape: 32 256 7 7 (401408)
I1214 21:00:42.712438 20057 layer_factory.hpp:74] Creating layer inception_5a/3x3_reduce
I1214 21:00:42.712453 20057 net.cpp:84] Creating Layer inception_5a/3x3_reduce
I1214 21:00:42.712461 20057 net.cpp:380] inception_5a/3x3_reduce <- pool4/3x3_s2_pool4/3x3_s2_0_split_1
I1214 21:00:42.712476 20057 net.cpp:338] inception_5a/3x3_reduce -> inception_5a/3x3_reduce
I1214 21:00:42.712491 20057 net.cpp:113] Setting up inception_5a/3x3_reduce
I1214 21:00:42.729164 20057 net.cpp:120] Top shape: 32 160 7 7 (250880)
I1214 21:00:42.729187 20057 layer_factory.hpp:74] Creating layer inception_5a/relu_3x3_reduce
I1214 21:00:42.729197 20057 net.cpp:84] Creating Layer inception_5a/relu_3x3_reduce
I1214 21:00:42.729202 20057 net.cpp:380] inception_5a/relu_3x3_reduce <- inception_5a/3x3_reduce
I1214 21:00:42.729212 20057 net.cpp:327] inception_5a/relu_3x3_reduce -> inception_5a/3x3_reduce (in-place)
I1214 21:00:42.729223 20057 net.cpp:113] Setting up inception_5a/relu_3x3_reduce
I1214 21:00:42.730856 20057 net.cpp:120] Top shape: 32 160 7 7 (250880)
I1214 21:00:42.730867 20057 layer_factory.hpp:74] Creating layer inception_5a/3x3
I1214 21:00:42.730885 20057 net.cpp:84] Creating Layer inception_5a/3x3
I1214 21:00:42.730890 20057 net.cpp:380] inception_5a/3x3 <- inception_5a/3x3_reduce
I1214 21:00:42.730901 20057 net.cpp:338] inception_5a/3x3 -> inception_5a/3x3
I1214 21:00:42.730911 20057 net.cpp:113] Setting up inception_5a/3x3
I1214 21:00:42.744848 20057 net.cpp:120] Top shape: 32 320 7 7 (501760)
I1214 21:00:42.744868 20057 layer_factory.hpp:74] Creating layer inception_5a/relu_3x3
I1214 21:00:42.744894 20057 net.cpp:84] Creating Layer inception_5a/relu_3x3
I1214 21:00:42.744899 20057 net.cpp:380] inception_5a/relu_3x3 <- inception_5a/3x3
I1214 21:00:42.744905 20057 net.cpp:327] inception_5a/relu_3x3 -> inception_5a/3x3 (in-place)
I1214 21:00:42.744913 20057 net.cpp:113] Setting up inception_5a/relu_3x3
I1214 21:00:42.744974 20057 net.cpp:120] Top shape: 32 320 7 7 (501760)
I1214 21:00:42.744981 20057 layer_factory.hpp:74] Creating layer inception_5a/5x5_reduce
I1214 21:00:42.744987 20057 net.cpp:84] Creating Layer inception_5a/5x5_reduce
I1214 21:00:42.744992 20057 net.cpp:380] inception_5a/5x5_reduce <- pool4/3x3_s2_pool4/3x3_s2_0_split_2
I1214 21:00:42.744999 20057 net.cpp:338] inception_5a/5x5_reduce -> inception_5a/5x5_reduce
I1214 21:00:42.745007 20057 net.cpp:113] Setting up inception_5a/5x5_reduce
I1214 21:00:42.761322 20057 net.cpp:120] Top shape: 32 32 7 7 (50176)
I1214 21:00:42.761355 20057 layer_factory.hpp:74] Creating layer inception_5a/relu_5x5_reduce
I1214 21:00:42.761374 20057 net.cpp:84] Creating Layer inception_5a/relu_5x5_reduce
I1214 21:00:42.761380 20057 net.cpp:380] inception_5a/relu_5x5_reduce <- inception_5a/5x5_reduce
I1214 21:00:42.761389 20057 net.cpp:327] inception_5a/relu_5x5_reduce -> inception_5a/5x5_reduce (in-place)
I1214 21:00:42.761397 20057 net.cpp:113] Setting up inception_5a/relu_5x5_reduce
I1214 21:00:42.767462 20057 net.cpp:120] Top shape: 32 32 7 7 (50176)
I1214 21:00:42.767496 20057 layer_factory.hpp:74] Creating layer inception_5a/5x5
I1214 21:00:42.767518 20057 net.cpp:84] Creating Layer inception_5a/5x5
I1214 21:00:42.767530 20057 net.cpp:380] inception_5a/5x5 <- inception_5a/5x5_reduce
I1214 21:00:42.767546 20057 net.cpp:338] inception_5a/5x5 -> inception_5a/5x5
I1214 21:00:42.767567 20057 net.cpp:113] Setting up inception_5a/5x5
I1214 21:00:42.780272 20057 net.cpp:120] Top shape: 32 128 7 7 (200704)
I1214 21:00:42.780313 20057 layer_factory.hpp:74] Creating layer inception_5a/relu_5x5
I1214 21:00:42.780328 20057 net.cpp:84] Creating Layer inception_5a/relu_5x5
I1214 21:00:42.780339 20057 net.cpp:380] inception_5a/relu_5x5 <- inception_5a/5x5
I1214 21:00:42.780359 20057 net.cpp:327] inception_5a/relu_5x5 -> inception_5a/5x5 (in-place)
I1214 21:00:42.780376 20057 net.cpp:113] Setting up inception_5a/relu_5x5
I1214 21:00:42.780534 20057 net.cpp:120] Top shape: 32 128 7 7 (200704)
I1214 21:00:42.780562 20057 layer_factory.hpp:74] Creating layer inception_5a/pool
I1214 21:00:42.780573 20057 layer_factory.cpp:56] CUDNN does not support padding or multiple tops. Using Caffe's own pooling layer.
I1214 21:00:42.780589 20057 net.cpp:84] Creating Layer inception_5a/pool
I1214 21:00:42.780601 20057 net.cpp:380] inception_5a/pool <- pool4/3x3_s2_pool4/3x3_s2_0_split_3
I1214 21:00:42.780624 20057 net.cpp:338] inception_5a/pool -> inception_5a/pool
I1214 21:00:42.780643 20057 net.cpp:113] Setting up inception_5a/pool
I1214 21:00:42.780661 20057 net.cpp:120] Top shape: 32 832 7 7 (1304576)
I1214 21:00:42.780670 20057 layer_factory.hpp:74] Creating layer inception_5a/pool_proj
I1214 21:00:42.780695 20057 net.cpp:84] Creating Layer inception_5a/pool_proj
I1214 21:00:42.780706 20057 net.cpp:380] inception_5a/pool_proj <- inception_5a/pool
I1214 21:00:42.780720 20057 net.cpp:338] inception_5a/pool_proj -> inception_5a/pool_proj
I1214 21:00:42.780740 20057 net.cpp:113] Setting up inception_5a/pool_proj
I1214 21:00:42.795559 20057 net.cpp:120] Top shape: 32 128 7 7 (200704)
I1214 21:00:42.795603 20057 layer_factory.hpp:74] Creating layer inception_5a/relu_pool_proj
I1214 21:00:42.795614 20057 net.cpp:84] Creating Layer inception_5a/relu_pool_proj
I1214 21:00:42.795620 20057 net.cpp:380] inception_5a/relu_pool_proj <- inception_5a/pool_proj
I1214 21:00:42.795629 20057 net.cpp:327] inception_5a/relu_pool_proj -> inception_5a/pool_proj (in-place)
I1214 21:00:42.795637 20057 net.cpp:113] Setting up inception_5a/relu_pool_proj
I1214 21:00:42.795698 20057 net.cpp:120] Top shape: 32 128 7 7 (200704)
I1214 21:00:42.795704 20057 layer_factory.hpp:74] Creating layer inception_5a/output
I1214 21:00:42.795711 20057 net.cpp:84] Creating Layer inception_5a/output
I1214 21:00:42.795716 20057 net.cpp:380] inception_5a/output <- inception_5a/1x1
I1214 21:00:42.795722 20057 net.cpp:380] inception_5a/output <- inception_5a/3x3
I1214 21:00:42.795727 20057 net.cpp:380] inception_5a/output <- inception_5a/5x5
I1214 21:00:42.795730 20057 net.cpp:380] inception_5a/output <- inception_5a/pool_proj
I1214 21:00:42.795737 20057 net.cpp:338] inception_5a/output -> inception_5a/output
I1214 21:00:42.795744 20057 net.cpp:113] Setting up inception_5a/output
I1214 21:00:42.795753 20057 net.cpp:120] Top shape: 32 832 7 7 (1304576)
I1214 21:00:42.795764 20057 layer_factory.hpp:74] Creating layer inception_5a/output_inception_5a/output_0_split
I1214 21:00:42.795770 20057 net.cpp:84] Creating Layer inception_5a/output_inception_5a/output_0_split
I1214 21:00:42.795783 20057 net.cpp:380] inception_5a/output_inception_5a/output_0_split <- inception_5a/output
I1214 21:00:42.795800 20057 net.cpp:338] inception_5a/output_inception_5a/output_0_split -> inception_5a/output_inception_5a/output_0_split_0
I1214 21:00:42.795809 20057 net.cpp:338] inception_5a/output_inception_5a/output_0_split -> inception_5a/output_inception_5a/output_0_split_1
I1214 21:00:42.795815 20057 net.cpp:338] inception_5a/output_inception_5a/output_0_split -> inception_5a/output_inception_5a/output_0_split_2
I1214 21:00:42.795822 20057 net.cpp:338] inception_5a/output_inception_5a/output_0_split -> inception_5a/output_inception_5a/output_0_split_3
I1214 21:00:42.795827 20057 net.cpp:113] Setting up inception_5a/output_inception_5a/output_0_split
I1214 21:00:42.795835 20057 net.cpp:120] Top shape: 32 832 7 7 (1304576)
I1214 21:00:42.795838 20057 net.cpp:120] Top shape: 32 832 7 7 (1304576)
I1214 21:00:42.795843 20057 net.cpp:120] Top shape: 32 832 7 7 (1304576)
I1214 21:00:42.795847 20057 net.cpp:120] Top shape: 32 832 7 7 (1304576)
I1214 21:00:42.795850 20057 layer_factory.hpp:74] Creating layer inception_5b/1x1
I1214 21:00:42.795866 20057 net.cpp:84] Creating Layer inception_5b/1x1
I1214 21:00:42.795869 20057 net.cpp:380] inception_5b/1x1 <- inception_5a/output_inception_5a/output_0_split_0
I1214 21:00:42.795876 20057 net.cpp:338] inception_5b/1x1 -> inception_5b/1x1
I1214 21:00:42.795884 20057 net.cpp:113] Setting up inception_5b/1x1
I1214 21:00:42.810052 20057 net.cpp:120] Top shape: 32 384 7 7 (602112)
I1214 21:00:42.810101 20057 layer_factory.hpp:74] Creating layer inception_5b/relu_1x1
I1214 21:00:42.810116 20057 net.cpp:84] Creating Layer inception_5b/relu_1x1
I1214 21:00:42.810123 20057 net.cpp:380] inception_5b/relu_1x1 <- inception_5b/1x1
I1214 21:00:42.810137 20057 net.cpp:327] inception_5b/relu_1x1 -> inception_5b/1x1 (in-place)
I1214 21:00:42.810148 20057 net.cpp:113] Setting up inception_5b/relu_1x1
I1214 21:00:42.821452 20057 net.cpp:120] Top shape: 32 384 7 7 (602112)
I1214 21:00:42.821472 20057 layer_factory.hpp:74] Creating layer inception_5b/3x3_reduce
I1214 21:00:42.821488 20057 net.cpp:84] Creating Layer inception_5b/3x3_reduce
I1214 21:00:42.821494 20057 net.cpp:380] inception_5b/3x3_reduce <- inception_5a/output_inception_5a/output_0_split_1
I1214 21:00:42.821503 20057 net.cpp:338] inception_5b/3x3_reduce -> inception_5b/3x3_reduce
I1214 21:00:42.821516 20057 net.cpp:113] Setting up inception_5b/3x3_reduce
I1214 21:00:42.824093 20057 net.cpp:120] Top shape: 32 192 7 7 (301056)
I1214 21:00:42.824113 20057 layer_factory.hpp:74] Creating layer inception_5b/relu_3x3_reduce
I1214 21:00:42.824133 20057 net.cpp:84] Creating Layer inception_5b/relu_3x3_reduce
I1214 21:00:42.824141 20057 net.cpp:380] inception_5b/relu_3x3_reduce <- inception_5b/3x3_reduce
I1214 21:00:42.824149 20057 net.cpp:327] inception_5b/relu_3x3_reduce -> inception_5b/3x3_reduce (in-place)
I1214 21:00:42.824158 20057 net.cpp:113] Setting up inception_5b/relu_3x3_reduce
I1214 21:00:42.824234 20057 net.cpp:120] Top shape: 32 192 7 7 (301056)
I1214 21:00:42.824241 20057 layer_factory.hpp:74] Creating layer inception_5b/3x3
I1214 21:00:42.824251 20057 net.cpp:84] Creating Layer inception_5b/3x3
I1214 21:00:42.824256 20057 net.cpp:380] inception_5b/3x3 <- inception_5b/3x3_reduce
I1214 21:00:42.824265 20057 net.cpp:338] inception_5b/3x3 -> inception_5b/3x3
I1214 21:00:42.824303 20057 net.cpp:113] Setting up inception_5b/3x3
I1214 21:00:42.836521 20057 net.cpp:120] Top shape: 32 384 7 7 (602112)
I1214 21:00:42.836557 20057 layer_factory.hpp:74] Creating layer inception_5b/relu_3x3
I1214 21:00:42.836568 20057 net.cpp:84] Creating Layer inception_5b/relu_3x3
I1214 21:00:42.836575 20057 net.cpp:380] inception_5b/relu_3x3 <- inception_5b/3x3
I1214 21:00:42.836582 20057 net.cpp:327] inception_5b/relu_3x3 -> inception_5b/3x3 (in-place)
I1214 21:00:42.836591 20057 net.cpp:113] Setting up inception_5b/relu_3x3
I1214 21:00:42.836676 20057 net.cpp:120] Top shape: 32 384 7 7 (602112)
I1214 21:00:42.836683 20057 layer_factory.hpp:74] Creating layer inception_5b/5x5_reduce
I1214 21:00:42.836719 20057 net.cpp:84] Creating Layer inception_5b/5x5_reduce
I1214 21:00:42.836726 20057 net.cpp:380] inception_5b/5x5_reduce <- inception_5a/output_inception_5a/output_0_split_2
I1214 21:00:42.836736 20057 net.cpp:338] inception_5b/5x5_reduce -> inception_5b/5x5_reduce
I1214 21:00:42.836746 20057 net.cpp:113] Setting up inception_5b/5x5_reduce
I1214 21:00:42.838132 20057 net.cpp:120] Top shape: 32 48 7 7 (75264)
I1214 21:00:42.838155 20057 layer_factory.hpp:74] Creating layer inception_5b/relu_5x5_reduce
I1214 21:00:42.838162 20057 net.cpp:84] Creating Layer inception_5b/relu_5x5_reduce
I1214 21:00:42.838170 20057 net.cpp:380] inception_5b/relu_5x5_reduce <- inception_5b/5x5_reduce
I1214 21:00:42.838176 20057 net.cpp:327] inception_5b/relu_5x5_reduce -> inception_5b/5x5_reduce (in-place)
I1214 21:00:42.838186 20057 net.cpp:113] Setting up inception_5b/relu_5x5_reduce
I1214 21:00:42.838263 20057 net.cpp:120] Top shape: 32 48 7 7 (75264)
I1214 21:00:42.838270 20057 layer_factory.hpp:74] Creating layer inception_5b/5x5
I1214 21:00:42.838279 20057 net.cpp:84] Creating Layer inception_5b/5x5
I1214 21:00:42.838284 20057 net.cpp:380] inception_5b/5x5 <- inception_5b/5x5_reduce
I1214 21:00:42.838294 20057 net.cpp:338] inception_5b/5x5 -> inception_5b/5x5
I1214 21:00:42.838302 20057 net.cpp:113] Setting up inception_5b/5x5
I1214 21:00:42.840862 20057 net.cpp:120] Top shape: 32 128 7 7 (200704)
I1214 21:00:42.840883 20057 layer_factory.hpp:74] Creating layer inception_5b/relu_5x5
I1214 21:00:42.840893 20057 net.cpp:84] Creating Layer inception_5b/relu_5x5
I1214 21:00:42.840898 20057 net.cpp:380] inception_5b/relu_5x5 <- inception_5b/5x5
I1214 21:00:42.840905 20057 net.cpp:327] inception_5b/relu_5x5 -> inception_5b/5x5 (in-place)
I1214 21:00:42.840914 20057 net.cpp:113] Setting up inception_5b/relu_5x5
I1214 21:00:42.842030 20057 net.cpp:120] Top shape: 32 128 7 7 (200704)
I1214 21:00:42.842049 20057 layer_factory.hpp:74] Creating layer inception_5b/pool
I1214 21:00:42.842066 20057 layer_factory.cpp:56] CUDNN does not support padding or multiple tops. Using Caffe's own pooling layer.
I1214 21:00:42.842074 20057 net.cpp:84] Creating Layer inception_5b/pool
I1214 21:00:42.842089 20057 net.cpp:380] inception_5b/pool <- inception_5a/output_inception_5a/output_0_split_3
I1214 21:00:42.842100 20057 net.cpp:338] inception_5b/pool -> inception_5b/pool
I1214 21:00:42.842110 20057 net.cpp:113] Setting up inception_5b/pool
I1214 21:00:42.842121 20057 net.cpp:120] Top shape: 32 832 7 7 (1304576)
I1214 21:00:42.842126 20057 layer_factory.hpp:74] Creating layer inception_5b/pool_proj
I1214 21:00:42.842134 20057 net.cpp:84] Creating Layer inception_5b/pool_proj
I1214 21:00:42.842141 20057 net.cpp:380] inception_5b/pool_proj <- inception_5b/pool
I1214 21:00:42.842149 20057 net.cpp:338] inception_5b/pool_proj -> inception_5b/pool_proj
I1214 21:00:42.842157 20057 net.cpp:113] Setting up inception_5b/pool_proj
I1214 21:00:42.844656 20057 net.cpp:120] Top shape: 32 128 7 7 (200704)
I1214 21:00:42.844677 20057 layer_factory.hpp:74] Creating layer inception_5b/relu_pool_proj
I1214 21:00:42.844687 20057 net.cpp:84] Creating Layer inception_5b/relu_pool_proj
I1214 21:00:42.844694 20057 net.cpp:380] inception_5b/relu_pool_proj <- inception_5b/pool_proj
I1214 21:00:42.844702 20057 net.cpp:327] inception_5b/relu_pool_proj -> inception_5b/pool_proj (in-place)
I1214 21:00:42.844712 20057 net.cpp:113] Setting up inception_5b/relu_pool_proj
I1214 21:00:42.844787 20057 net.cpp:120] Top shape: 32 128 7 7 (200704)
I1214 21:00:42.844794 20057 layer_factory.hpp:74] Creating layer inception_5b/output
I1214 21:00:42.844813 20057 net.cpp:84] Creating Layer inception_5b/output
I1214 21:00:42.844820 20057 net.cpp:380] inception_5b/output <- inception_5b/1x1
I1214 21:00:42.844826 20057 net.cpp:380] inception_5b/output <- inception_5b/3x3
I1214 21:00:42.844831 20057 net.cpp:380] inception_5b/output <- inception_5b/5x5
I1214 21:00:42.844837 20057 net.cpp:380] inception_5b/output <- inception_5b/pool_proj
I1214 21:00:42.844849 20057 net.cpp:338] inception_5b/output -> inception_5b/output
I1214 21:00:42.844864 20057 net.cpp:113] Setting up inception_5b/output
I1214 21:00:42.844874 20057 net.cpp:120] Top shape: 32 1024 7 7 (1605632)
I1214 21:00:42.844879 20057 layer_factory.hpp:74] Creating layer pool5/7x7_s1
I1214 21:00:42.844888 20057 net.cpp:84] Creating Layer pool5/7x7_s1
I1214 21:00:42.844893 20057 net.cpp:380] pool5/7x7_s1 <- inception_5b/output
I1214 21:00:42.844902 20057 net.cpp:338] pool5/7x7_s1 -> pool5/7x7_s1
I1214 21:00:42.844908 20057 net.cpp:113] Setting up pool5/7x7_s1
I1214 21:00:42.844986 20057 net.cpp:120] Top shape: 32 1024 1 1 (32768)
I1214 21:00:42.844992 20057 layer_factory.hpp:74] Creating layer pool5/drop_7x7_s1
I1214 21:00:42.845000 20057 net.cpp:84] Creating Layer pool5/drop_7x7_s1
I1214 21:00:42.845005 20057 net.cpp:380] pool5/drop_7x7_s1 <- pool5/7x7_s1
I1214 21:00:42.845011 20057 net.cpp:327] pool5/drop_7x7_s1 -> pool5/7x7_s1 (in-place)
I1214 21:00:42.845018 20057 net.cpp:113] Setting up pool5/drop_7x7_s1
I1214 21:00:42.845026 20057 net.cpp:120] Top shape: 32 1024 1 1 (32768)
I1214 21:00:42.845031 20057 layer_factory.hpp:74] Creating layer loss3/classifier_kaggle
I1214 21:00:42.845038 20057 net.cpp:84] Creating Layer loss3/classifier_kaggle
I1214 21:00:42.845043 20057 net.cpp:380] loss3/classifier_kaggle <- pool5/7x7_s1
I1214 21:00:42.845052 20057 net.cpp:338] loss3/classifier_kaggle -> loss3/classifier_kaggle
I1214 21:00:42.845074 20057 net.cpp:113] Setting up loss3/classifier_kaggle
I1214 21:00:42.850371 20057 net.cpp:120] Top shape: 32 447 (14304)
I1214 21:00:42.850385 20057 layer_factory.hpp:74] Creating layer loss3/loss3
I1214 21:00:42.850399 20057 net.cpp:84] Creating Layer loss3/loss3
I1214 21:00:42.850405 20057 net.cpp:380] loss3/loss3 <- loss3/classifier_kaggle
I1214 21:00:42.850412 20057 net.cpp:380] loss3/loss3 <- label_data_1_split_2
I1214 21:00:42.850420 20057 net.cpp:338] loss3/loss3 -> loss3/loss3
I1214 21:00:42.850428 20057 net.cpp:113] Setting up loss3/loss3
…
I1214 21:00:42.856169 20057 net.cpp:257] The NetState phase (1) differed from the phase (0) specified by a rule in layer data
I1214 21:00:42.857729 20057 net.cpp:42] Initializing net from parameters: 
name: "GoogleNet"
state {
  phase: TEST
}
layer {
  name: "data"
  type: "Data"
  top: "data"
  top: "label"
  include {
    phase: TEST
  }
  transform_param {
    mirror: false
    crop_size: 224
    mean_value: 104
    mean_value: 117
    mean_value: 123
  }
  data_param {
    source: "/home/coldmanck/kaggle/kaggle2_val_lmdb"
    batch_size: 50
    backend: LMDB
  }
}
layer {
  name: "conv1/7x7_s2"
  type: "Convolution"
  bottom: "data"
  top: "conv1/7x7_s2"
  param {
    lr_mult: 1
    decay_mult: 1
  }
  param {
    lr_mult: 2
    decay_mult: 0
  }
  convolution_param {
    num_output: 64
    pad: 3
    kernel_size: 7
    stride: 2
    weight_filler {
      type: "xavier"
      std: 0.1
    }
    bias_filler {
      type: "constant"
      value: 0.2
    }
  }
}
layer {
  name: "conv1/relu_7x7"
  type: "ReLU"
  bottom: "conv1/7x7_s2"
  top: "conv1/7x7_s2"
}
layer {
  name: "pool1/3x3_s2"
  type: "Pooling"
  bottom: "conv1/7x7_s2"
  top: "pool1/3x3_s2"
  pooling_param {
    pool: MAX
    kernel_size: 3
    stride: 2
  }
}
layer {
  name: "pool1/norm1"
  type: "LRN"
  bottom: "pool1/3x3_s2"
  top: "pool1/norm1"
  lrn_param {
    local_size: 5
    alpha: 0.0001
    beta: 0.75
  }
}
layer {
  name: "conv2/3x3_reduce"
  type: "Convolution"
  bottom: "pool1/norm1"
  top: "conv2/3x3_reduce"
  param {
    lr_mult: 1
    decay_mult: 1
  }
  param {
    lr_mult: 2
    decay_mult: 0
  }
  convolution_param {
    num_output: 64
    kernel_size: 1
    weight_filler {
      type: "xavier"
      std: 0.1
    }
    bias_filler {
      type: "constant"
      value: 0.2
    }
  }
}
layer {
  name: "conv2/relu_3x3_reduce"
  type: "ReLU"
  bottom: "conv2/3x3_reduce"
  top: "conv2/3x3_reduce"
}
layer {
  name: "conv2/3x3"
  type: "Convolution"
  bottom: "conv2/3x3_reduce"
  top: "conv2/3x3"
  param {
    lr_mult: 1
    decay_mult: 1
  }
  param {
    lr_mult: 2
    decay_mult: 0
  }
  convolution_param {
    num_output: 192
    pad: 1
    kernel_size: 3
    weight_filler {
      type: "xavier"
      std: 0.03
    }
    bias_filler {
      type: "constant"
      value: 0.2
    }
  }
}
layer {
  name: "conv2/relu_3x3"
  type: "ReLU"
  bottom: "conv2/3x3"
  top: "conv2/3x3"
}
layer {
  name: "conv2/norm2"
  type: "LRN"
  bottom: "conv2/3x3"
  top: "conv2/norm2"
  lrn_param {
    local_size: 5
    alpha: 0.0001
    beta: 0.75
  }
}
layer {
  name: "pool2/3x3_s2"
  type: "Pooling"
  bottom: "conv2/norm2"
  top: "pool2/3x3_s2"
  pooling_param {
    pool: MAX
    kernel_size: 3
    stride: 2
  }
}
layer {
  name: "inception_3a/1x1"
  type: "Convolution"
  bottom: "pool2/3x3_s2"
  top: "inception_3a/1x1"
  param {
    lr_mult: 1
    decay_mult: 1
  }
  param {
    lr_mult: 2
    decay_mult: 0
  }
  convolution_param {
    num_output: 64
    kernel_size: 1
    weight_filler {
      type: "xavier"
      std: 0.03
    }
    bias_filler {
      type: "constant"
      value: 0.2
    }
  }
}
layer {
  name: "inception_3a/relu_1x1"
  type: "ReLU"
  bottom: "inception_3a/1x1"
  top: "inception_3a/1x1"
}
layer {
  name: "inception_3a/3x3_reduce"
  type: "Convolution"
  bottom: "pool2/3x3_s2"
  top: "inception_3a/3x3_reduce"
  param {
    lr_mult: 1
    decay_mult: 1
  }
  param {
    lr_mult: 2
    decay_mult: 0
  }
  convolution_param {
    num_output: 96
    kernel_size: 1
    weight_filler {
      type: "xavier"
      std: 0.09
    }
    bias_filler {
      type: "constant"
      value: 0.2
    }
  }
}
layer {
  name: "inception_3a/relu_3x3_reduce"
  type: "ReLU"
  bottom: "inception_3a/3x3_reduce"
  top: "inception_3a/3x3_reduce"
}
layer {
  name: "inception_3a/3x3"
  type: "Convolution"
  bottom: "inception_3a/3x3_reduce"
  top: "inception_3a/3x3"
  param {
    lr_mult: 1
    decay_mult: 1
  }
  param {
    lr_mult: 2
    decay_mult: 0
  }
  convolution_param {
    num_output: 128
    pad: 1
    kernel_size: 3
    weight_filler {
      type: "xavier"
      std: 0.03
    }
    bias_filler {
      type: "constant"
      value: 0.2
    }
  }
}
layer {
  name: "inception_3a/relu_3x3"
  type: "ReLU"
  bottom: "inception_3a/3x3"
  top: "inception_3a/3x3"
}
layer {
  name: "inception_3a/5x5_reduce"
  type: "Convolution"
  bottom: "pool2/3x3_s2"
  top: "inception_3a/5x5_reduce"
  param {
    lr_mult: 1
    decay_mult: 1
  }
  param {
    lr_mult: 2
    decay_mult: 0
  }
  convolution_param {
    num_output: 16
    kernel_size: 1
    weight_filler {
      type: "xavier"
      std: 0.2
    }
    bias_filler {
      type: "constant"
      value: 0.2
    }
  }
}
layer {
  name: "inception_3a/relu_5x5_reduce"
  type: "ReLU"
  bottom: "inception_3a/5x5_reduce"
  top: "inception_3a/5x5_reduce"
}
layer {
  name: "inception_3a/5x5"
  type: "Convolution"
  bottom: "inception_3a/5x5_reduce"
  top: "inception_3a/5x5"
  param {
    lr_mult: 1
    decay_mult: 1
  }
  param {
    lr_mult: 2
    decay_mult: 0
  }
  convolution_param {
    num_output: 32
    pad: 2
    kernel_size: 5
    weight_filler {
      type: "xavier"
      std: 0.03
    }
    bias_filler {
      type: "constant"
      value: 0.2
    }
  }
}
layer {
  name: "inception_3a/relu_5x5"
  type: "ReLU"
  bottom: "inception_3a/5x5"
  top: "inception_3a/5x5"
}
layer {
  name: "inception_3a/pool"
  type: "Pooling"
  bottom: "pool2/3x3_s2"
  top: "inception_3a/pool"
  pooling_param {
    pool: MAX
    kernel_size: 3
    stride: 1
    pad: 1
  }
}
layer {
  name: "inception_3a/pool_proj"
  type: "Convolution"
  bottom: "inception_3a/pool"
  top: "inception_3a/pool_proj"
  param {
    lr_mult: 1
    decay_mult: 1
  }
  param {
    lr_mult: 2
    decay_mult: 0
  }
  convolution_param {
    num_output: 32
    kernel_size: 1
    weight_filler {
      type: "xavier"
      std: 0.1
    }
    bias_filler {
      type: "constant"
      value: 0.2
    }
  }
}
layer {
  name: "inception_3a/relu_pool_proj"
  type: "ReLU"
  bottom: "inception_3a/pool_proj"
  top: "inception_3a/pool_proj"
}
layer {
  name: "inception_3a/output"
  type: "Concat"
  bottom: "inception_3a/1x1"
  bottom: "inception_3a/3x3"
  bottom: "inception_3a/5x5"
  bottom: "inception_3a/pool_proj"
  top: "inception_3a/output"
}
layer {
  name: "inception_3b/1x1"
  type: "Convolution"
  bottom: "inception_3a/output"
  top: "inception_3b/1x1"
  param {
    lr_mult: 1
    decay_mult: 1
  }
  param {
    lr_mult: 2
    decay_mult: 0
  }
  convolution_param {
    num_output: 128
    kernel_size: 1
    weight_filler {
      type: "xavier"
      std: 0.03
    }
    bias_filler {
      type: "constant"
      value: 0.2
    }
  }
}
layer {
  name: "inception_3b/relu_1x1"
  type: "ReLU"
  bottom: "inception_3b/1x1"
  top: "inception_3b/1x1"
}
layer {
  name: "inception_3b/3x3_reduce"
  type: "Convolution"
  bottom: "inception_3a/output"
  top: "inception_3b/3x3_reduce"
  param {
    lr_mult: 1
    decay_mult: 1
  }
  param {
    lr_mult: 2
    decay_mult: 0
  }
  convolution_param {
    num_output: 128
    kernel_size: 1
    weight_filler {
      type: "xavier"
      std: 0.09
    }
    bias_filler {
      type: "constant"
      value: 0.2
    }
  }
}
layer {
  name: "inception_3b/relu_3x3_reduce"
  type: "ReLU"
  bottom: "inception_3b/3x3_reduce"
  top: "inception_3b/3x3_reduce"
}
layer {
  name: "inception_3b/3x3"
  type: "Convolution"
  bottom: "inception_3b/3x3_reduce"
  top: "inception_3b/3x3"
  param {
    lr_mult: 1
    decay_mult: 1
  }
  param {
    lr_mult: 2
    decay_mult: 0
  }
  convolution_param {
    num_output: 192
    pad: 1
    kernel_size: 3
    weight_filler {
      type: "xavier"
      std: 0.03
    }
    bias_filler {
      type: "constant"
      value: 0.2
    }
  }
}
layer {
  name: "inception_3b/relu_3x3"
  type: "ReLU"
  bottom: "inception_3b/3x3"
  top: "inception_3b/3x3"
}
layer {
  name: "inception_3b/5x5_reduce"
  type: "Convolution"
  bottom: "inception_3a/output"
  top: "inception_3b/5x5_reduce"
  param {
    lr_mult: 1
    decay_mult: 1
  }
  param {
    lr_mult: 2
    decay_mult: 0
  }
  convolution_param {
    num_output: 32
    kernel_size: 1
    weight_filler {
      type: "xavier"
      std: 0.2
    }
    bias_filler {
      type: "constant"
      value: 0.2
    }
  }
}
layer {
  name: "inception_3b/relu_5x5_reduce"
  type: "ReLU"
  bottom: "inception_3b/5x5_reduce"
  top: "inception_3b/5x5_reduce"
}
layer {
  name: "inception_3b/5x5"
  type: "Convolution"
  bottom: "inception_3b/5x5_reduce"
  top: "inception_3b/5x5"
  param {
    lr_mult: 1
    decay_mult: 1
  }
  param {
    lr_mult: 2
    decay_mult: 0
  }
  convolution_param {
    num_output: 96
    pad: 2
    kernel_size: 5
    weight_filler {
      type: "xavier"
      std: 0.03
    }
    bias_filler {
      type: "constant"
      value: 0.2
    }
  }
}
layer {
  name: "inception_3b/relu_5x5"
  type: "ReLU"
  bottom: "inception_3b/5x5"
  top: "inception_3b/5x5"
}
layer {
  name: "inception_3b/pool"
  type: "Pooling"
  bottom: "inception_3a/output"
  top: "inception_3b/pool"
  pooling_param {
    pool: MAX
    kernel_size: 3
    stride: 1
    pad: 1
  }
}
layer {
  name: "inception_3b/pool_proj"
  type: "Convolution"
  bottom: "inception_3b/pool"
  top: "inception_3b/pool_proj"
  param {
    lr_mult: 1
    decay_mult: 1
  }
  param {
    lr_mult: 2
    decay_mult: 0
  }
  convolution_param {
    num_output: 64
    kernel_size: 1
    weight_filler {
      type: "xavier"
      std: 0.1
    }
    bias_filler {
      type: "constant"
      value: 0.2
    }
  }
}
layer {
  name: "inception_3b/relu_pool_proj"
  type: "ReLU"
  bottom: "inception_3b/pool_proj"
  top: "inception_3b/pool_proj"
}
layer {
  name: "inception_3b/output"
  type: "Concat"
  bottom: "inception_3b/1x1"
  bottom: "inception_3b/3x3"
  bottom: "inception_3b/5x5"
  bottom: "inception_3b/pool_proj"
  top: "inception_3b/output"
}
layer {
  name: "pool3/3x3_s2"
  type: "Pooling"
  bottom: "inception_3b/output"
  top: "pool3/3x3_s2"
  pooling_param {
    pool: MAX
    kernel_size: 3
    stride: 2
  }
}
layer {
  name: "inception_4a/1x1"
  type: "Convolution"
  bottom: "pool3/3x3_s2"
  top: "inception_4a/1x1"
  param {
    lr_mult: 1
    decay_mult: 1
  }
  param {
    lr_mult: 2
    decay_mult: 0
  }
  convolution_param {
    num_output: 192
    kernel_size: 1
    weight_filler {
      type: "xavier"
      std: 0.03
    }
    bias_filler {
      type: "constant"
      value: 0.2
    }
  }
}
layer {
  name: "inception_4a/relu_1x1"
  type: "ReLU"
  bottom: "inception_4a/1x1"
  top: "inception_4a/1x1"
}
layer {
  name: "inception_4a/3x3_reduce"
  type: "Convolution"
  bottom: "pool3/3x3_s2"
  top: "inception_4a/3x3_reduce"
  param {
    lr_mult: 1
    decay_mult: 1
  }
  param {
    lr_mult: 2
    decay_mult: 0
  }
  convolution_param {
    num_output: 96
    kernel_size: 1
    weight_filler {
      type: "xavier"
      std: 0.09
    }
    bias_filler {
      type: "constant"
      value: 0.2
    }
  }
}
layer {
  name: "inception_4a/relu_3x3_reduce"
  type: "ReLU"
  bottom: "inception_4a/3x3_reduce"
  top: "inception_4a/3x3_reduce"
}
layer {
  name: "inception_4a/3x3"
  type: "Convolution"
  bottom: "inception_4a/3x3_reduce"
  top: "inception_4a/3x3"
  param {
    lr_mult: 1
    decay_mult: 1
  }
  param {
    lr_mult: 2
    decay_mult: 0
  }
  convolution_param {
    num_output: 208
    pad: 1
    kernel_size: 3
    weight_filler {
      type: "xavier"
      std: 0.03
    }
    bias_filler {
      type: "constant"
      value: 0.2
    }
  }
}
layer {
  name: "inception_4a/relu_3x3"
  type: "ReLU"
  bottom: "inception_4a/3x3"
  top: "inception_4a/3x3"
}
layer {
  name: "inception_4a/5x5_reduce"
  type: "Convolution"
  bottom: "pool3/3x3_s2"
  top: "inception_4a/5x5_reduce"
  param {
    lr_mult: 1
    decay_mult: 1
  }
  param {
    lr_mult: 2
    decay_mult: 0
  }
  convolution_param {
    num_output: 16
    kernel_size: 1
    weight_filler {
      type: "xavier"
      std: 0.2
    }
    bias_filler {
      type: "constant"
      value: 0.2
    }
  }
}
layer {
  name: "inception_4a/relu_5x5_reduce"
  type: "ReLU"
  bottom: "inception_4a/5x5_reduce"
  top: "inception_4a/5x5_reduce"
}
layer {
  name: "inception_4a/5x5"
  type: "Convolution"
  bottom: "inception_4a/5x5_reduce"
  top: "inception_4a/5x5"
  param {
    lr_mult: 1
    decay_mult: 1
  }
  param {
    lr_mult: 2
    decay_mult: 0
  }
  convolution_param {
    num_output: 48
    pad: 2
    kernel_size: 5
    weight_filler {
      type: "xavier"
      std: 0.03
    }
    bias_filler {
      type: "constant"
      value: 0.2
    }
  }
}
layer {
  name: "inception_4a/relu_5x5"
  type: "ReLU"
  bottom: "inception_4a/5x5"
  top: "inception_4a/5x5"
}
layer {
  name: "inception_4a/pool"
  type: "Pooling"
  bottom: "pool3/3x3_s2"
  top: "inception_4a/pool"
  pooling_param {
    pool: MAX
    kernel_size: 3
    stride: 1
    pad: 1
  }
}
layer {
  name: "inception_4a/pool_proj"
  type: "Convolution"
  bottom: "inception_4a/pool"
  top: "inception_4a/pool_proj"
  param {
    lr_mult: 1
    decay_mult: 1
  }
  param {
    lr_mult: 2
    decay_mult: 0
  }
  convolution_param {
    num_output: 64
    kernel_size: 1
    weight_filler {
      type: "xavier"
      std: 0.1
    }
    bias_filler {
      type: "constant"
      value: 0.2
    }
  }
}
layer {
  name: "inception_4a/relu_pool_proj"
  type: "ReLU"
  bottom: "inception_4a/pool_proj"
  top: "inception_4a/pool_proj"
}
layer {
  name: "inception_4a/output"
  type: "Concat"
  bottom: "inception_4a/1x1"
  bottom: "inception_4a/3x3"
  bottom: "inception_4a/5x5"
  bottom: "inception_4a/pool_proj"
  top: "inception_4a/output"
}
layer {
  name: "loss1/ave_pool"
  type: "Pooling"
  bottom: "inception_4a/output"
  top: "loss1/ave_pool"
  pooling_param {
    pool: AVE
    kernel_size: 5
    stride: 3
  }
}
layer {
  name: "loss1/conv"
  type: "Convolution"
  bottom: "loss1/ave_pool"
  top: "loss1/conv"
  param {
    lr_mult: 1
    decay_mult: 1
  }
  param {
    lr_mult: 2
    decay_mult: 0
  }
  convolution_param {
    num_output: 128
    kernel_size: 1
    weight_filler {
      type: "xavier"
      std: 0.08
    }
    bias_filler {
      type: "constant"
      value: 0.2
    }
  }
}
layer {
  name: "loss1/relu_conv"
  type: "ReLU"
  bottom: "loss1/conv"
  top: "loss1/conv"
}
layer {
  name: "loss1/fc"
  type: "InnerProduct"
  bottom: "loss1/conv"
  top: "loss1/fc"
  param {
    lr_mult: 1
    decay_mult: 1
  }
  param {
    lr_mult: 2
    decay_mult: 0
  }
  inner_product_param {
    num_output: 1024
    weight_filler {
      type: "xavier"
      std: 0.02
    }
    bias_filler {
      type: "constant"
      value: 0.2
    }
  }
}
layer {
  name: "loss1/relu_fc"
  type: "ReLU"
  bottom: "loss1/fc"
  top: "loss1/fc"
}
layer {
  name: "loss1/drop_fc"
  type: "Dropout"
  bottom: "loss1/fc"
  top: "loss1/fc"
  dropout_param {
    dropout_ratio: 0.7
  }
}
layer {
  name: "loss1/classifier_kaggle"
  type: "InnerProduct"
  bottom: "loss1/fc"
  top: "loss1/classifier_kaggle"
  param {
    lr_mult: 1
    decay_mult: 1
  }
  param {
    lr_mult: 2
    decay_mult: 0
  }
  inner_product_param {
    num_output: 447
    weight_filler {
      type: "xavier"
      std: 0.0009765625
    }
    bias_filler {
      type: "constant"
      value: 0
    }
  }
}
layer {
  name: "loss1/loss"
  type: "SoftmaxWithLoss"
  bottom: "loss1/classifier_kaggle"
  bottom: "label"
  top: "loss1/loss1"
  loss_weight: 0.3
}
layer {
  name: "loss1/top-1"
  type: "Accuracy"
  bottom: "loss1/classifier_kaggle"
  bottom: "label"
  top: "loss1/top-1"
  include {
    phase: TEST
  }
}
layer {
  name: "loss1/top-5"
  type: "Accuracy"
  bottom: "loss1/classifier_kaggle"
  bottom: "label"
  top: "loss1/top-5"
  include {
    phase: TEST
  }
  accuracy_param {
    top_k: 5
  }
}
layer {
  name: "inception_4b/1x1"
  type: "Convolution"
  bottom: "inception_4a/output"
  top: "inception_4b/1x1"
  param {
    lr_mult: 1
    decay_mult: 1
  }
  param {
    lr_mult: 2
    decay_mult: 0
  }
  convolution_param {
    num_output: 160
    kernel_size: 1
    weight_filler {
      type: "xavier"
      std: 0.03
    }
    bias_filler {
      type: "constant"
      value: 0.2
    }
  }
}
layer {
  name: "inception_4b/relu_1x1"
  type: "ReLU"
  bottom: "inception_4b/1x1"
  top: "inception_4b/1x1"
}
layer {
  name: "inception_4b/3x3_reduce"
  type: "Convolution"
  bottom: "inception_4a/output"
  top: "inception_4b/3x3_reduce"
  param {
    lr_mult: 1
    decay_mult: 1
  }
  param {
    lr_mult: 2
    decay_mult: 0
  }
  convolution_param {
    num_output: 112
    kernel_size: 1
    weight_filler {
      type: "xavier"
      std: 0.09
    }
    bias_filler {
      type: "constant"
      value: 0.2
    }
  }
}
layer {
  name: "inception_4b/relu_3x3_reduce"
  type: "ReLU"
  bottom: "inception_4b/3x3_reduce"
  top: "inception_4b/3x3_reduce"
}
layer {
  name: "inception_4b/3x3"
  type: "Convolution"
  bottom: "inception_4b/3x3_reduce"
  top: "inception_4b/3x3"
  param {
    lr_mult: 1
    decay_mult: 1
  }
  param {
    lr_mult: 2
    decay_mult: 0
  }
  convolution_param {
    num_output: 224
    pad: 1
    kernel_size: 3
    weight_filler {
      type: "xavier"
      std: 0.03
    }
    bias_filler {
      type: "constant"
      value: 0.2
    }
  }
}
layer {
  name: "inception_4b/relu_3x3"
  type: "ReLU"
  bottom: "inception_4b/3x3"
  top: "inception_4b/3x3"
}
layer {
  name: "inception_4b/5x5_reduce"
  type: "Convolution"
  bottom: "inception_4a/output"
  top: "inception_4b/5x5_reduce"
  param {
    lr_mult: 1
    decay_mult: 1
  }
  param {
    lr_mult: 2
    decay_mult: 0
  }
  convolution_param {
    num_output: 24
    kernel_size: 1
    weight_filler {
      type: "xavier"
      std: 0.2
    }
    bias_filler {
      type: "constant"
      value: 0.2
    }
  }
}
layer {
  name: "inception_4b/relu_5x5_reduce"
  type: "ReLU"
  bottom: "inception_4b/5x5_reduce"
  top: "inception_4b/5x5_reduce"
}
layer {
  name: "inception_4b/5x5"
  type: "Convolution"
  bottom: "inception_4b/5x5_reduce"
  top: "inception_4b/5x5"
  param {
    lr_mult: 1
    decay_mult: 1
  }
  param {
    lr_mult: 2
    decay_mult: 0
  }
  convolution_param {
    num_output: 64
    pad: 2
    kernel_size: 5
    weight_filler {
      type: "xavier"
      std: 0.03
    }
    bias_filler {
      type: "constant"
      value: 0.2
    }
  }
}
layer {
  name: "inception_4b/relu_5x5"
  type: "ReLU"
  bottom: "inception_4b/5x5"
  top: "inception_4b/5x5"
}
layer {
  name: "inception_4b/pool"
  type: "Pooling"
  bottom: "inception_4a/output"
  top: "inception_4b/pool"
  pooling_param {
    pool: MAX
    kernel_size: 3
    stride: 1
    pad: 1
  }
}
layer {
  name: "inception_4b/pool_proj"
  type: "Convolution"
  bottom: "inception_4b/pool"
  top: "inception_4b/pool_proj"
  param {
    lr_mult: 1
    decay_mult: 1
  }
  param {
    lr_mult: 2
    decay_mult: 0
  }
  convolution_param {
    num_output: 64
    kernel_size: 1
    weight_filler {
      type: "xavier"
      std: 0.1
    }
    bias_filler {
      type: "constant"
      value: 0.2
    }
  }
}
layer {
  name: "inception_4b/relu_pool_proj"
  type: "ReLU"
  bottom: "inception_4b/pool_proj"
  top: "inception_4b/pool_proj"
}
layer {
  name: "inception_4b/output"
  type: "Concat"
  bottom: "inception_4b/1x1"
  bottom: "inception_4b/3x3"
  bottom: "inception_4b/5x5"
  bottom: "inception_4b/pool_proj"
  top: "inception_4b/output"
}
layer {
  name: "inception_4c/1x1"
  type: "Convolution"
  bottom: "inception_4b/output"
  top: "inception_4c/1x1"
  param {
    lr_mult: 1
    decay_mult: 1
  }
  param {
    lr_mult: 2
    decay_mult: 0
  }
  convolution_param {
    num_output: 128
    kernel_size: 1
    weight_filler {
      type: "xavier"
      std: 0.03
    }
    bias_filler {
      type: "constant"
      value: 0.2
    }
  }
}
layer {
  name: "inception_4c/relu_1x1"
  type: "ReLU"
  bottom: "inception_4c/1x1"
  top: "inception_4c/1x1"
}
layer {
  name: "inception_4c/3x3_reduce"
  type: "Convolution"
  bottom: "inception_4b/output"
  top: "inception_4c/3x3_reduce"
  param {
    lr_mult: 1
    decay_mult: 1
  }
  param {
    lr_mult: 2
    decay_mult: 0
  }
  convolution_param {
    num_output: 128
    kernel_size: 1
    weight_filler {
      type: "xavier"
      std: 0.09
    }
    bias_filler {
      type: "constant"
      value: 0.2
    }
  }
}
layer {
  name: "inception_4c/relu_3x3_reduce"
  type: "ReLU"
  bottom: "inception_4c/3x3_reduce"
  top: "inception_4c/3x3_reduce"
}
layer {
  name: "inception_4c/3x3"
  type: "Convolution"
  bottom: "inception_4c/3x3_reduce"
  top: "inception_4c/3x3"
  param {
    lr_mult: 1
    decay_mult: 1
  }
  param {
    lr_mult: 2
    decay_mult: 0
  }
  convolution_param {
    num_output: 256
    pad: 1
    kernel_size: 3
    weight_filler {
      type: "xavier"
      std: 0.03
    }
    bias_filler {
      type: "constant"
      value: 0.2
    }
  }
}
layer {
  name: "inception_4c/relu_3x3"
  type: "ReLU"
  bottom: "inception_4c/3x3"
  top: "inception_4c/3x3"
}
layer {
  name: "inception_4c/5x5_reduce"
  type: "Convolution"
  bottom: "inception_4b/output"
  top: "inception_4c/5x5_reduce"
  param {
    lr_mult: 1
    decay_mult: 1
  }
  param {
    lr_mult: 2
    decay_mult: 0
  }
  convolution_param {
    num_output: 24
    kernel_size: 1
    weight_filler {
      type: "xavier"
      std: 0.2
    }
    bias_filler {
      type: "constant"
      value: 0.2
    }
  }
}
layer {
  name: "inception_4c/relu_5x5_reduce"
  type: "ReLU"
  bottom: "inception_4c/5x5_reduce"
  top: "inception_4c/5x5_reduce"
}
layer {
  name: "inception_4c/5x5"
  type: "Convolution"
  bottom: "inception_4c/5x5_reduce"
  top: "inception_4c/5x5"
  param {
    lr_mult: 1
    decay_mult: 1
  }
  param {
    lr_mult: 2
    decay_mult: 0
  }
  convolution_param {
    num_output: 64
    pad: 2
    kernel_size: 5
    weight_filler {
      type: "xavier"
      std: 0.03
    }
    bias_filler {
      type: "constant"
      value: 0.2
    }
  }
}
layer {
  name: "inception_4c/relu_5x5"
  type: "ReLU"
  bottom: "inception_4c/5x5"
  top: "inception_4c/5x5"
}
layer {
  name: "inception_4c/pool"
  type: "Pooling"
  bottom: "inception_4b/output"
  top: "inception_4c/pool"
  pooling_param {
    pool: MAX
    kernel_size: 3
    stride: 1
    pad: 1
  }
}
layer {
  name: "inception_4c/pool_proj"
  type: "Convolution"
  bottom: "inception_4c/pool"
  top: "inception_4c/pool_proj"
  param {
    lr_mult: 1
    decay_mult: 1
  }
  param {
    lr_mult: 2
    decay_mult: 0
  }
  convolution_param {
    num_output: 64
    kernel_size: 1
    weight_filler {
      type: "xavier"
      std: 0.1
    }
    bias_filler {
      type: "constant"
      value: 0.2
    }
  }
}
layer {
  name: "inception_4c/relu_pool_proj"
  type: "ReLU"
  bottom: "inception_4c/pool_proj"
  top: "inception_4c/pool_proj"
}
layer {
  name: "inception_4c/output"
  type: "Concat"
  bottom: "inception_4c/1x1"
  bottom: "inception_4c/3x3"
  bottom: "inception_4c/5x5"
  bottom: "inception_4c/pool_proj"
  top: "inception_4c/output"
}
layer {
  name: "inception_4d/1x1"
  type: "Convolution"
  bottom: "inception_4c/output"
  top: "inception_4d/1x1"
  param {
    lr_mult: 1
    decay_mult: 1
  }
  param {
    lr_mult: 2
    decay_mult: 0
  }
  convolution_param {
    num_output: 112
    kernel_size: 1
    weight_filler {
      type: "xavier"
      std: 0.03
    }
    bias_filler {
      type: "constant"
      value: 0.2
    }
  }
}
layer {
  name: "inception_4d/relu_1x1"
  type: "ReLU"
  bottom: "inception_4d/1x1"
  top: "inception_4d/1x1"
}
layer {
  name: "inception_4d/3x3_reduce"
  type: "Convolution"
  bottom: "inception_4c/output"
  top: "inception_4d/3x3_reduce"
  param {
    lr_mult: 1
    decay_mult: 1
  }
  param {
    lr_mult: 2
    decay_mult: 0
  }
  convolution_param {
    num_output: 144
    kernel_size: 1
    weight_filler {
      type: "xavier"
      std: 0.09
    }
    bias_filler {
      type: "constant"
      value: 0.2
    }
  }
}
layer {
  name: "inception_4d/relu_3x3_reduce"
  type: "ReLU"
  bottom: "inception_4d/3x3_reduce"
  top: "inception_4d/3x3_reduce"
}
layer {
  name: "inception_4d/3x3"
  type: "Convolution"
  bottom: "inception_4d/3x3_reduce"
  top: "inception_4d/3x3"
  param {
    lr_mult: 1
    decay_mult: 1
  }
  param {
    lr_mult: 2
    decay_mult: 0
  }
  convolution_param {
    num_output: 288
    pad: 1
    kernel_size: 3
    weight_filler {
      type: "xavier"
      std: 0.03
    }
    bias_filler {
      type: "constant"
      value: 0.2
    }
  }
}
layer {
  name: "inception_4d/relu_3x3"
  type: "ReLU"
  bottom: "inception_4d/3x3"
  top: "inception_4d/3x3"
}
layer {
  name: "inception_4d/5x5_reduce"
  type: "Convolution"
  bottom: "inception_4c/output"
  top: "inception_4d/5x5_reduce"
  param {
    lr_mult: 1
    decay_mult: 1
  }
  param {
    lr_mult: 2
    decay_mult: 0
  }
  convolution_param {
    num_output: 32
    kernel_size: 1
    weight_filler {
      type: "xavier"
      std: 0.2
    }
    bias_filler {
      type: "constant"
      value: 0.2
    }
  }
}
layer {
  name: "inception_4d/relu_5x5_reduce"
  type: "ReLU"
  bottom: "inception_4d/5x5_reduce"
  top: "inception_4d/5x5_reduce"
}
layer {
  name: "inception_4d/5x5"
  type: "Convolution"
  bottom: "inception_4d/5x5_reduce"
  top: "inception_4d/5x5"
  param {
    lr_mult: 1
    decay_mult: 1
  }
  param {
    lr_mult: 2
    decay_mult: 0
  }
  convolution_param {
    num_output: 64
    pad: 2
    kernel_size: 5
    weight_filler {
      type: "xavier"
      std: 0.03
    }
    bias_filler {
      type: "constant"
      value: 0.2
    }
  }
}
layer {
  name: "inception_4d/relu_5x5"
  type: "ReLU"
  bottom: "inception_4d/5x5"
  top: "inception_4d/5x5"
}
layer {
  name: "inception_4d/pool"
  type: "Pooling"
  bottom: "inception_4c/output"
  top: "inception_4d/pool"
  pooling_param {
    pool: MAX
    kernel_size: 3
    stride: 1
    pad: 1
  }
}
layer {
  name: "inception_4d/pool_proj"
  type: "Convolution"
  bottom: "inception_4d/pool"
  top: "inception_4d/pool_proj"
  param {
    lr_mult: 1
    decay_mult: 1
  }
  param {
    lr_mult: 2
    decay_mult: 0
  }
  convolution_param {
    num_output: 64
    kernel_size: 1
    weight_filler {
      type: "xavier"
      std: 0.1
    }
    bias_filler {
      type: "constant"
      value: 0.2
    }
  }
}
layer {
  name: "inception_4d/relu_pool_proj"
  type: "ReLU"
  bottom: "inception_4d/pool_proj"
  top: "inception_4d/pool_proj"
}
layer {
…
I1214 21:00:42.938591 20057 net.cpp:84] Creating Layer inception_4c/1x1
I1214 21:00:42.938596 20057 net.cpp:380] inception_4c/1x1 <- inception_4b/output_inception_4b/output_0_split_0
I1214 21:00:42.938602 20057 net.cpp:338] inception_4c/1x1 -> inception_4c/1x1
I1214 21:00:42.938611 20057 net.cpp:113] Setting up inception_4c/1x1
I1214 21:00:42.939781 20057 net.cpp:120] Top shape: 50 128 14 14 (1254400)
I1214 21:00:42.939798 20057 layer_factory.hpp:74] Creating layer inception_4c/relu_1x1
I1214 21:00:42.939805 20057 net.cpp:84] Creating Layer inception_4c/relu_1x1
I1214 21:00:42.939811 20057 net.cpp:380] inception_4c/relu_1x1 <- inception_4c/1x1
I1214 21:00:42.939821 20057 net.cpp:327] inception_4c/relu_1x1 -> inception_4c/1x1 (in-place)
I1214 21:00:42.939829 20057 net.cpp:113] Setting up inception_4c/relu_1x1
I1214 21:00:42.940083 20057 net.cpp:120] Top shape: 50 128 14 14 (1254400)
I1214 21:00:42.940096 20057 layer_factory.hpp:74] Creating layer inception_4c/3x3_reduce
I1214 21:00:42.940106 20057 net.cpp:84] Creating Layer inception_4c/3x3_reduce
I1214 21:00:42.940112 20057 net.cpp:380] inception_4c/3x3_reduce <- inception_4b/output_inception_4b/output_0_split_1
I1214 21:00:42.940119 20057 net.cpp:338] inception_4c/3x3_reduce -> inception_4c/3x3_reduce
I1214 21:00:42.940134 20057 net.cpp:113] Setting up inception_4c/3x3_reduce
I1214 21:00:42.941325 20057 net.cpp:120] Top shape: 50 128 14 14 (1254400)
I1214 21:00:42.941342 20057 layer_factory.hpp:74] Creating layer inception_4c/relu_3x3_reduce
I1214 21:00:42.941349 20057 net.cpp:84] Creating Layer inception_4c/relu_3x3_reduce
I1214 21:00:42.941355 20057 net.cpp:380] inception_4c/relu_3x3_reduce <- inception_4c/3x3_reduce
I1214 21:00:42.941365 20057 net.cpp:327] inception_4c/relu_3x3_reduce -> inception_4c/3x3_reduce (in-place)
I1214 21:00:42.941372 20057 net.cpp:113] Setting up inception_4c/relu_3x3_reduce
I1214 21:00:42.941447 20057 net.cpp:120] Top shape: 50 128 14 14 (1254400)
I1214 21:00:42.941452 20057 layer_factory.hpp:74] Creating layer inception_4c/3x3
I1214 21:00:42.941462 20057 net.cpp:84] Creating Layer inception_4c/3x3
I1214 21:00:42.941468 20057 net.cpp:380] inception_4c/3x3 <- inception_4c/3x3_reduce
I1214 21:00:42.941476 20057 net.cpp:338] inception_4c/3x3 -> inception_4c/3x3
I1214 21:00:42.941484 20057 net.cpp:113] Setting up inception_4c/3x3
I1214 21:00:42.945302 20057 net.cpp:120] Top shape: 50 256 14 14 (2508800)
I1214 21:00:42.945332 20057 layer_factory.hpp:74] Creating layer inception_4c/relu_3x3
I1214 21:00:42.945339 20057 net.cpp:84] Creating Layer inception_4c/relu_3x3
I1214 21:00:42.945345 20057 net.cpp:380] inception_4c/relu_3x3 <- inception_4c/3x3
I1214 21:00:42.945353 20057 net.cpp:327] inception_4c/relu_3x3 -> inception_4c/3x3 (in-place)
I1214 21:00:42.945360 20057 net.cpp:113] Setting up inception_4c/relu_3x3
I1214 21:00:42.945435 20057 net.cpp:120] Top shape: 50 256 14 14 (2508800)
I1214 21:00:42.945441 20057 layer_factory.hpp:74] Creating layer inception_4c/5x5_reduce
I1214 21:00:42.945449 20057 net.cpp:84] Creating Layer inception_4c/5x5_reduce
I1214 21:00:42.945454 20057 net.cpp:380] inception_4c/5x5_reduce <- inception_4b/output_inception_4b/output_0_split_2
I1214 21:00:42.945464 20057 net.cpp:338] inception_4c/5x5_reduce -> inception_4c/5x5_reduce
I1214 21:00:42.945473 20057 net.cpp:113] Setting up inception_4c/5x5_reduce
I1214 21:00:42.946039 20057 net.cpp:120] Top shape: 50 24 14 14 (235200)
I1214 21:00:42.946055 20057 layer_factory.hpp:74] Creating layer inception_4c/relu_5x5_reduce
I1214 21:00:42.946063 20057 net.cpp:84] Creating Layer inception_4c/relu_5x5_reduce
I1214 21:00:42.946069 20057 net.cpp:380] inception_4c/relu_5x5_reduce <- inception_4c/5x5_reduce
I1214 21:00:42.946075 20057 net.cpp:327] inception_4c/relu_5x5_reduce -> inception_4c/5x5_reduce (in-place)
I1214 21:00:42.946082 20057 net.cpp:113] Setting up inception_4c/relu_5x5_reduce
I1214 21:00:42.946414 20057 net.cpp:120] Top shape: 50 24 14 14 (235200)
I1214 21:00:42.946426 20057 layer_factory.hpp:74] Creating layer inception_4c/5x5
I1214 21:00:42.946436 20057 net.cpp:84] Creating Layer inception_4c/5x5
I1214 21:00:42.946442 20057 net.cpp:380] inception_4c/5x5 <- inception_4c/5x5_reduce
I1214 21:00:42.946454 20057 net.cpp:338] inception_4c/5x5 -> inception_4c/5x5
I1214 21:00:42.946462 20057 net.cpp:113] Setting up inception_4c/5x5
I1214 21:00:42.947342 20057 net.cpp:120] Top shape: 50 64 14 14 (627200)
I1214 21:00:42.947360 20057 layer_factory.hpp:74] Creating layer inception_4c/relu_5x5
I1214 21:00:42.947366 20057 net.cpp:84] Creating Layer inception_4c/relu_5x5
I1214 21:00:42.947372 20057 net.cpp:380] inception_4c/relu_5x5 <- inception_4c/5x5
I1214 21:00:42.947379 20057 net.cpp:327] inception_4c/relu_5x5 -> inception_4c/5x5 (in-place)
I1214 21:00:42.947386 20057 net.cpp:113] Setting up inception_4c/relu_5x5
I1214 21:00:42.947461 20057 net.cpp:120] Top shape: 50 64 14 14 (627200)
I1214 21:00:42.947469 20057 layer_factory.hpp:74] Creating layer inception_4c/pool
I1214 21:00:42.947475 20057 layer_factory.cpp:56] CUDNN does not support padding or multiple tops. Using Caffe's own pooling layer.
I1214 21:00:42.947481 20057 net.cpp:84] Creating Layer inception_4c/pool
I1214 21:00:42.947486 20057 net.cpp:380] inception_4c/pool <- inception_4b/output_inception_4b/output_0_split_3
I1214 21:00:42.947495 20057 net.cpp:338] inception_4c/pool -> inception_4c/pool
I1214 21:00:42.947510 20057 net.cpp:113] Setting up inception_4c/pool
I1214 21:00:42.947526 20057 net.cpp:120] Top shape: 50 512 14 14 (5017600)
I1214 21:00:42.947531 20057 layer_factory.hpp:74] Creating layer inception_4c/pool_proj
I1214 21:00:42.947540 20057 net.cpp:84] Creating Layer inception_4c/pool_proj
I1214 21:00:42.947545 20057 net.cpp:380] inception_4c/pool_proj <- inception_4c/pool
I1214 21:00:42.947553 20057 net.cpp:338] inception_4c/pool_proj -> inception_4c/pool_proj
I1214 21:00:42.947561 20057 net.cpp:113] Setting up inception_4c/pool_proj
I1214 21:00:42.948366 20057 net.cpp:120] Top shape: 50 64 14 14 (627200)
I1214 21:00:42.948382 20057 layer_factory.hpp:74] Creating layer inception_4c/relu_pool_proj
I1214 21:00:42.948390 20057 net.cpp:84] Creating Layer inception_4c/relu_pool_proj
I1214 21:00:42.948395 20057 net.cpp:380] inception_4c/relu_pool_proj <- inception_4c/pool_proj
I1214 21:00:42.948402 20057 net.cpp:327] inception_4c/relu_pool_proj -> inception_4c/pool_proj (in-place)
I1214 21:00:42.948410 20057 net.cpp:113] Setting up inception_4c/relu_pool_proj
I1214 21:00:42.948483 20057 net.cpp:120] Top shape: 50 64 14 14 (627200)
I1214 21:00:42.948489 20057 layer_factory.hpp:74] Creating layer inception_4c/output
I1214 21:00:42.948496 20057 net.cpp:84] Creating Layer inception_4c/output
I1214 21:00:42.948501 20057 net.cpp:380] inception_4c/output <- inception_4c/1x1
I1214 21:00:42.948508 20057 net.cpp:380] inception_4c/output <- inception_4c/3x3
I1214 21:00:42.948513 20057 net.cpp:380] inception_4c/output <- inception_4c/5x5
I1214 21:00:42.948518 20057 net.cpp:380] inception_4c/output <- inception_4c/pool_proj
I1214 21:00:42.948525 20057 net.cpp:338] inception_4c/output -> inception_4c/output
I1214 21:00:42.948532 20057 net.cpp:113] Setting up inception_4c/output
I1214 21:00:42.948540 20057 net.cpp:120] Top shape: 50 512 14 14 (5017600)
I1214 21:00:42.948546 20057 layer_factory.hpp:74] Creating layer inception_4c/output_inception_4c/output_0_split
I1214 21:00:42.948554 20057 net.cpp:84] Creating Layer inception_4c/output_inception_4c/output_0_split
I1214 21:00:42.948559 20057 net.cpp:380] inception_4c/output_inception_4c/output_0_split <- inception_4c/output
I1214 21:00:42.948565 20057 net.cpp:338] inception_4c/output_inception_4c/output_0_split -> inception_4c/output_inception_4c/output_0_split_0
I1214 21:00:42.948573 20057 net.cpp:338] inception_4c/output_inception_4c/output_0_split -> inception_4c/output_inception_4c/output_0_split_1
I1214 21:00:42.948581 20057 net.cpp:338] inception_4c/output_inception_4c/output_0_split -> inception_4c/output_inception_4c/output_0_split_2
I1214 21:00:42.948590 20057 net.cpp:338] inception_4c/output_inception_4c/output_0_split -> inception_4c/output_inception_4c/output_0_split_3
I1214 21:00:42.948596 20057 net.cpp:113] Setting up inception_4c/output_inception_4c/output_0_split
I1214 21:00:42.948604 20057 net.cpp:120] Top shape: 50 512 14 14 (5017600)
I1214 21:00:42.948609 20057 net.cpp:120] Top shape: 50 512 14 14 (5017600)
I1214 21:00:42.948614 20057 net.cpp:120] Top shape: 50 512 14 14 (5017600)
I1214 21:00:42.948621 20057 net.cpp:120] Top shape: 50 512 14 14 (5017600)
I1214 21:00:42.948624 20057 layer_factory.hpp:74] Creating layer inception_4d/1x1
I1214 21:00:42.948632 20057 net.cpp:84] Creating Layer inception_4d/1x1
I1214 21:00:42.948637 20057 net.cpp:380] inception_4d/1x1 <- inception_4c/output_inception_4c/output_0_split_0
I1214 21:00:42.948647 20057 net.cpp:338] inception_4d/1x1 -> inception_4d/1x1
I1214 21:00:42.948654 20057 net.cpp:113] Setting up inception_4d/1x1
I1214 21:00:42.949751 20057 net.cpp:120] Top shape: 50 112 14 14 (1097600)
I1214 21:00:42.949769 20057 layer_factory.hpp:74] Creating layer inception_4d/relu_1x1
I1214 21:00:42.949776 20057 net.cpp:84] Creating Layer inception_4d/relu_1x1
I1214 21:00:42.949781 20057 net.cpp:380] inception_4d/relu_1x1 <- inception_4d/1x1
I1214 21:00:42.949789 20057 net.cpp:327] inception_4d/relu_1x1 -> inception_4d/1x1 (in-place)
I1214 21:00:42.949795 20057 net.cpp:113] Setting up inception_4d/relu_1x1
I1214 21:00:42.949873 20057 net.cpp:120] Top shape: 50 112 14 14 (1097600)
I1214 21:00:42.949887 20057 layer_factory.hpp:74] Creating layer inception_4d/3x3_reduce
I1214 21:00:42.949895 20057 net.cpp:84] Creating Layer inception_4d/3x3_reduce
I1214 21:00:42.949900 20057 net.cpp:380] inception_4d/3x3_reduce <- inception_4c/output_inception_4c/output_0_split_1
I1214 21:00:42.949910 20057 net.cpp:338] inception_4d/3x3_reduce -> inception_4d/3x3_reduce
I1214 21:00:42.949918 20057 net.cpp:113] Setting up inception_4d/3x3_reduce
I1214 21:00:42.951195 20057 net.cpp:120] Top shape: 50 144 14 14 (1411200)
I1214 21:00:42.951210 20057 layer_factory.hpp:74] Creating layer inception_4d/relu_3x3_reduce
I1214 21:00:42.951218 20057 net.cpp:84] Creating Layer inception_4d/relu_3x3_reduce
I1214 21:00:42.951223 20057 net.cpp:380] inception_4d/relu_3x3_reduce <- inception_4d/3x3_reduce
I1214 21:00:42.951231 20057 net.cpp:327] inception_4d/relu_3x3_reduce -> inception_4d/3x3_reduce (in-place)
I1214 21:00:42.951238 20057 net.cpp:113] Setting up inception_4d/relu_3x3_reduce
I1214 21:00:42.951498 20057 net.cpp:120] Top shape: 50 144 14 14 (1411200)
I1214 21:00:42.951510 20057 layer_factory.hpp:74] Creating layer inception_4d/3x3
I1214 21:00:42.951520 20057 net.cpp:84] Creating Layer inception_4d/3x3
I1214 21:00:42.951525 20057 net.cpp:380] inception_4d/3x3 <- inception_4d/3x3_reduce
I1214 21:00:42.951534 20057 net.cpp:338] inception_4d/3x3 -> inception_4d/3x3
I1214 21:00:42.951542 20057 net.cpp:113] Setting up inception_4d/3x3
I1214 21:00:42.956259 20057 net.cpp:120] Top shape: 50 288 14 14 (2822400)
I1214 21:00:42.956275 20057 layer_factory.hpp:74] Creating layer inception_4d/relu_3x3
I1214 21:00:42.956286 20057 net.cpp:84] Creating Layer inception_4d/relu_3x3
I1214 21:00:42.956292 20057 net.cpp:380] inception_4d/relu_3x3 <- inception_4d/3x3
I1214 21:00:42.956298 20057 net.cpp:327] inception_4d/relu_3x3 -> inception_4d/3x3 (in-place)
I1214 21:00:42.956306 20057 net.cpp:113] Setting up inception_4d/relu_3x3
I1214 21:00:42.956379 20057 net.cpp:120] Top shape: 50 288 14 14 (2822400)
I1214 21:00:42.956385 20057 layer_factory.hpp:74] Creating layer inception_4d/5x5_reduce
I1214 21:00:42.956393 20057 net.cpp:84] Creating Layer inception_4d/5x5_reduce
I1214 21:00:42.956398 20057 net.cpp:380] inception_4d/5x5_reduce <- inception_4c/output_inception_4c/output_0_split_2
I1214 21:00:42.956408 20057 net.cpp:338] inception_4d/5x5_reduce -> inception_4d/5x5_reduce
I1214 21:00:42.956416 20057 net.cpp:113] Setting up inception_4d/5x5_reduce
I1214 21:00:42.957083 20057 net.cpp:120] Top shape: 50 32 14 14 (313600)
I1214 21:00:42.957101 20057 layer_factory.hpp:74] Creating layer inception_4d/relu_5x5_reduce
I1214 21:00:42.957110 20057 net.cpp:84] Creating Layer inception_4d/relu_5x5_reduce
I1214 21:00:42.957118 20057 net.cpp:380] inception_4d/relu_5x5_reduce <- inception_4d/5x5_reduce
I1214 21:00:42.957123 20057 net.cpp:327] inception_4d/relu_5x5_reduce -> inception_4d/5x5_reduce (in-place)
I1214 21:00:42.957131 20057 net.cpp:113] Setting up inception_4d/relu_5x5_reduce
I1214 21:00:42.957204 20057 net.cpp:120] Top shape: 50 32 14 14 (313600)
I1214 21:00:42.957213 20057 layer_factory.hpp:74] Creating layer inception_4d/5x5
I1214 21:00:42.957221 20057 net.cpp:84] Creating Layer inception_4d/5x5
I1214 21:00:42.957226 20057 net.cpp:380] inception_4d/5x5 <- inception_4d/5x5_reduce
I1214 21:00:42.957236 20057 net.cpp:338] inception_4d/5x5 -> inception_4d/5x5
I1214 21:00:42.957243 20057 net.cpp:113] Setting up inception_4d/5x5
I1214 21:00:42.958258 20057 net.cpp:120] Top shape: 50 64 14 14 (627200)
I1214 21:00:42.958274 20057 layer_factory.hpp:74] Creating layer inception_4d/relu_5x5
I1214 21:00:42.958284 20057 net.cpp:84] Creating Layer inception_4d/relu_5x5
I1214 21:00:42.958290 20057 net.cpp:380] inception_4d/relu_5x5 <- inception_4d/5x5
I1214 21:00:42.958297 20057 net.cpp:327] inception_4d/relu_5x5 -> inception_4d/5x5 (in-place)
I1214 21:00:42.958305 20057 net.cpp:113] Setting up inception_4d/relu_5x5
I1214 21:00:42.958377 20057 net.cpp:120] Top shape: 50 64 14 14 (627200)
I1214 21:00:42.958389 20057 layer_factory.hpp:74] Creating layer inception_4d/pool
I1214 21:00:42.958401 20057 layer_factory.cpp:56] CUDNN does not support padding or multiple tops. Using Caffe's own pooling layer.
I1214 21:00:42.958410 20057 net.cpp:84] Creating Layer inception_4d/pool
I1214 21:00:42.958415 20057 net.cpp:380] inception_4d/pool <- inception_4c/output_inception_4c/output_0_split_3
I1214 21:00:42.958425 20057 net.cpp:338] inception_4d/pool -> inception_4d/pool
I1214 21:00:42.958432 20057 net.cpp:113] Setting up inception_4d/pool
I1214 21:00:42.958441 20057 net.cpp:120] Top shape: 50 512 14 14 (5017600)
I1214 21:00:42.958446 20057 layer_factory.hpp:74] Creating layer inception_4d/pool_proj
I1214 21:00:42.958454 20057 net.cpp:84] Creating Layer inception_4d/pool_proj
I1214 21:00:42.958459 20057 net.cpp:380] inception_4d/pool_proj <- inception_4d/pool
I1214 21:00:42.958467 20057 net.cpp:338] inception_4d/pool_proj -> inception_4d/pool_proj
I1214 21:00:42.958475 20057 net.cpp:113] Setting up inception_4d/pool_proj
I1214 21:00:42.959280 20057 net.cpp:120] Top shape: 50 64 14 14 (627200)
I1214 21:00:42.959296 20057 layer_factory.hpp:74] Creating layer inception_4d/relu_pool_proj
I1214 21:00:42.959303 20057 net.cpp:84] Creating Layer inception_4d/relu_pool_proj
I1214 21:00:42.959309 20057 net.cpp:380] inception_4d/relu_pool_proj <- inception_4d/pool_proj
I1214 21:00:42.959316 20057 net.cpp:327] inception_4d/relu_pool_proj -> inception_4d/pool_proj (in-place)
I1214 21:00:42.959324 20057 net.cpp:113] Setting up inception_4d/relu_pool_proj
I1214 21:00:42.959579 20057 net.cpp:120] Top shape: 50 64 14 14 (627200)
I1214 21:00:42.959591 20057 layer_factory.hpp:74] Creating layer inception_4d/output
I1214 21:00:42.959599 20057 net.cpp:84] Creating Layer inception_4d/output
I1214 21:00:42.959604 20057 net.cpp:380] inception_4d/output <- inception_4d/1x1
I1214 21:00:42.959611 20057 net.cpp:380] inception_4d/output <- inception_4d/3x3
I1214 21:00:42.959617 20057 net.cpp:380] inception_4d/output <- inception_4d/5x5
I1214 21:00:42.959622 20057 net.cpp:380] inception_4d/output <- inception_4d/pool_proj
I1214 21:00:42.959631 20057 net.cpp:338] inception_4d/output -> inception_4d/output
I1214 21:00:42.959640 20057 net.cpp:113] Setting up inception_4d/output
I1214 21:00:42.959648 20057 net.cpp:120] Top shape: 50 528 14 14 (5174400)
I1214 21:00:42.959652 20057 layer_factory.hpp:74] Creating layer inception_4d/output_inception_4d/output_0_split
I1214 21:00:42.959660 20057 net.cpp:84] Creating Layer inception_4d/output_inception_4d/output_0_split
I1214 21:00:42.959664 20057 net.cpp:380] inception_4d/output_inception_4d/output_0_split <- inception_4d/output
I1214 21:00:42.959672 20057 net.cpp:338] inception_4d/output_inception_4d/output_0_split -> inception_4d/output_inception_4d/output_0_split_0
I1214 21:00:42.959681 20057 net.cpp:338] inception_4d/output_inception_4d/output_0_split -> inception_4d/output_inception_4d/output_0_split_1
I1214 21:00:42.959689 20057 net.cpp:338] inception_4d/output_inception_4d/output_0_split -> inception_4d/output_inception_4d/output_0_split_2
I1214 21:00:42.959697 20057 net.cpp:338] inception_4d/output_inception_4d/output_0_split -> inception_4d/output_inception_4d/output_0_split_3
I1214 21:00:42.959703 20057 net.cpp:338] inception_4d/output_inception_4d/output_0_split -> inception_4d/output_inception_4d/output_0_split_4
I1214 21:00:42.959710 20057 net.cpp:113] Setting up inception_4d/output_inception_4d/output_0_split
I1214 21:00:42.959718 20057 net.cpp:120] Top shape: 50 528 14 14 (5174400)
I1214 21:00:42.959723 20057 net.cpp:120] Top shape: 50 528 14 14 (5174400)
I1214 21:00:42.959728 20057 net.cpp:120] Top shape: 50 528 14 14 (5174400)
I1214 21:00:42.959733 20057 net.cpp:120] Top shape: 50 528 14 14 (5174400)
I1214 21:00:42.959738 20057 net.cpp:120] Top shape: 50 528 14 14 (5174400)
I1214 21:00:42.959743 20057 layer_factory.hpp:74] Creating layer loss2/ave_pool
I1214 21:00:42.959753 20057 net.cpp:84] Creating Layer loss2/ave_pool
I1214 21:00:42.959758 20057 net.cpp:380] loss2/ave_pool <- inception_4d/output_inception_4d/output_0_split_0
I1214 21:00:42.959774 20057 net.cpp:338] loss2/ave_pool -> loss2/ave_pool
I1214 21:00:42.959782 20057 net.cpp:113] Setting up loss2/ave_pool
I1214 21:00:42.959859 20057 net.cpp:120] Top shape: 50 528 4 4 (422400)
I1214 21:00:42.959867 20057 layer_factory.hpp:74] Creating layer loss2/conv
I1214 21:00:42.959875 20057 net.cpp:84] Creating Layer loss2/conv
I1214 21:00:42.959882 20057 net.cpp:380] loss2/conv <- loss2/ave_pool
I1214 21:00:42.959889 20057 net.cpp:338] loss2/conv -> loss2/conv
I1214 21:00:42.959897 20057 net.cpp:113] Setting up loss2/conv
I1214 21:00:42.961108 20057 net.cpp:120] Top shape: 50 128 4 4 (102400)
I1214 21:00:42.961124 20057 layer_factory.hpp:74] Creating layer loss2/relu_conv
I1214 21:00:42.961133 20057 net.cpp:84] Creating Layer loss2/relu_conv
I1214 21:00:42.961138 20057 net.cpp:380] loss2/relu_conv <- loss2/conv
I1214 21:00:42.961148 20057 net.cpp:327] loss2/relu_conv -> loss2/conv (in-place)
I1214 21:00:42.961154 20057 net.cpp:113] Setting up loss2/relu_conv
I1214 21:00:42.961228 20057 net.cpp:120] Top shape: 50 128 4 4 (102400)
I1214 21:00:42.961235 20057 layer_factory.hpp:74] Creating layer loss2/fc
I1214 21:00:42.961242 20057 net.cpp:84] Creating Layer loss2/fc
I1214 21:00:42.961247 20057 net.cpp:380] loss2/fc <- loss2/conv
I1214 21:00:42.961256 20057 net.cpp:338] loss2/fc -> loss2/fc
I1214 21:00:42.961264 20057 net.cpp:113] Setting up loss2/fc
I1214 21:00:42.984158 20057 net.cpp:120] Top shape: 50 1024 (51200)
I1214 21:00:42.984174 20057 layer_factory.hpp:74] Creating layer loss2/relu_fc
I1214 21:00:42.984181 20057 net.cpp:84] Creating Layer loss2/relu_fc
I1214 21:00:42.984186 20057 net.cpp:380] loss2/relu_fc <- loss2/fc
I1214 21:00:42.984194 20057 net.cpp:327] loss2/relu_fc -> loss2/fc (in-place)
I1214 21:00:42.984200 20057 net.cpp:113] Setting up loss2/relu_fc
I1214 21:00:42.984279 20057 net.cpp:120] Top shape: 50 1024 (51200)
I1214 21:00:42.984287 20057 layer_factory.hpp:74] Creating layer loss2/drop_fc
I1214 21:00:42.984293 20057 net.cpp:84] Creating Layer loss2/drop_fc
I1214 21:00:42.984298 20057 net.cpp:380] loss2/drop_fc <- loss2/fc
I1214 21:00:42.984307 20057 net.cpp:327] loss2/drop_fc -> loss2/fc (in-place)
I1214 21:00:42.984313 20057 net.cpp:113] Setting up loss2/drop_fc
I1214 21:00:42.984320 20057 net.cpp:120] Top shape: 50 1024 (51200)
I1214 21:00:42.984325 20057 layer_factory.hpp:74] Creating layer loss2/classifier_kaggle
I1214 21:00:42.984333 20057 net.cpp:84] Creating Layer loss2/classifier_kaggle
I1214 21:00:42.984338 20057 net.cpp:380] loss2/classifier_kaggle <- loss2/fc
I1214 21:00:42.984349 20057 net.cpp:338] loss2/classifier_kaggle -> loss2/classifier_kaggle
I1214 21:00:42.984356 20057 net.cpp:113] Setting up loss2/classifier_kaggle
I1214 21:00:42.989616 20057 net.cpp:120] Top shape: 50 447 (22350)
I1214 21:00:42.989629 20057 layer_factory.hpp:74] Creating layer loss2/classifier_kaggle_loss2/classifier_kaggle_0_split
I1214 21:00:42.989636 20057 net.cpp:84] Creating Layer loss2/classifier_kaggle_loss2/classifier_kaggle_0_split
I1214 21:00:42.989641 20057 net.cpp:380] loss2/classifier_kaggle_loss2/classifier_kaggle_0_split <- loss2/classifier_kaggle
I1214 21:00:42.989650 20057 net.cpp:338] loss2/classifier_kaggle_loss2/classifier_kaggle_0_split -> loss2/classifier_kaggle_loss2/classifier_kaggle_0_split_0
I1214 21:00:42.989658 20057 net.cpp:338] loss2/classifier_kaggle_loss2/classifier_kaggle_0_split -> loss2/classifier_kaggle_loss2/classifier_kaggle_0_split_1
I1214 21:00:42.989666 20057 net.cpp:338] loss2/classifier_kaggle_loss2/classifier_kaggle_0_split -> loss2/classifier_kaggle_loss2/classifier_kaggle_0_split_2
I1214 21:00:42.989675 20057 net.cpp:113] Setting up loss2/classifier_kaggle_loss2/classifier_kaggle_0_split
I1214 21:00:42.989681 20057 net.cpp:120] Top shape: 50 447 (22350)
I1214 21:00:42.989686 20057 net.cpp:120] Top shape: 50 447 (22350)
I1214 21:00:42.989691 20057 net.cpp:120] Top shape: 50 447 (22350)
I1214 21:00:42.989696 20057 layer_factory.hpp:74] Creating layer loss2/loss
I1214 21:00:42.989711 20057 net.cpp:84] Creating Layer loss2/loss
I1214 21:00:42.989722 20057 net.cpp:380] loss2/loss <- loss2/classifier_kaggle_loss2/classifier_kaggle_0_split_0
I1214 21:00:42.989729 20057 net.cpp:380] loss2/loss <- label_data_1_split_3
I1214 21:00:42.989735 20057 net.cpp:338] loss2/loss -> loss2/loss1
…
I1214 21:00:42.990187 20057 net.cpp:338] loss2/top-5 -> loss2/top-5
I1214 21:00:42.990195 20057 net.cpp:113] Setting up loss2/top-5
I1214 21:00:42.990201 20057 net.cpp:120] Top shape: (1)
I1214 21:00:42.990206 20057 layer_factory.hpp:74] Creating layer inception_4e/1x1
I1214 21:00:42.990216 20057 net.cpp:84] Creating Layer inception_4e/1x1
I1214 21:00:42.990221 20057 net.cpp:380] inception_4e/1x1 <- inception_4d/output_inception_4d/output_0_split_1
I1214 21:00:42.990228 20057 net.cpp:338] inception_4e/1x1 -> inception_4e/1x1
I1214 21:00:42.990236 20057 net.cpp:113] Setting up inception_4e/1x1
I1214 21:00:42.992218 20057 net.cpp:120] Top shape: 50 256 14 14 (2508800)
I1214 21:00:42.992235 20057 layer_factory.hpp:74] Creating layer inception_4e/relu_1x1
I1214 21:00:42.992245 20057 net.cpp:84] Creating Layer inception_4e/relu_1x1
I1214 21:00:42.992251 20057 net.cpp:380] inception_4e/relu_1x1 <- inception_4e/1x1
I1214 21:00:42.992259 20057 net.cpp:327] inception_4e/relu_1x1 -> inception_4e/1x1 (in-place)
I1214 21:00:42.992266 20057 net.cpp:113] Setting up inception_4e/relu_1x1
I1214 21:00:42.992341 20057 net.cpp:120] Top shape: 50 256 14 14 (2508800)
I1214 21:00:42.992349 20057 layer_factory.hpp:74] Creating layer inception_4e/3x3_reduce
I1214 21:00:42.992374 20057 net.cpp:84] Creating Layer inception_4e/3x3_reduce
I1214 21:00:42.992380 20057 net.cpp:380] inception_4e/3x3_reduce <- inception_4d/output_inception_4d/output_0_split_2
I1214 21:00:42.992390 20057 net.cpp:338] inception_4e/3x3_reduce -> inception_4e/3x3_reduce
I1214 21:00:42.992398 20057 net.cpp:113] Setting up inception_4e/3x3_reduce
I1214 21:00:42.993798 20057 net.cpp:120] Top shape: 50 160 14 14 (1568000)
I1214 21:00:42.993814 20057 layer_factory.hpp:74] Creating layer inception_4e/relu_3x3_reduce
I1214 21:00:42.993821 20057 net.cpp:84] Creating Layer inception_4e/relu_3x3_reduce
I1214 21:00:42.993827 20057 net.cpp:380] inception_4e/relu_3x3_reduce <- inception_4e/3x3_reduce
I1214 21:00:42.993835 20057 net.cpp:327] inception_4e/relu_3x3_reduce -> inception_4e/3x3_reduce (in-place)
I1214 21:00:42.993844 20057 net.cpp:113] Setting up inception_4e/relu_3x3_reduce
I1214 21:00:42.993916 20057 net.cpp:120] Top shape: 50 160 14 14 (1568000)
I1214 21:00:42.993922 20057 layer_factory.hpp:74] Creating layer inception_4e/3x3
I1214 21:00:42.993930 20057 net.cpp:84] Creating Layer inception_4e/3x3
I1214 21:00:42.993935 20057 net.cpp:380] inception_4e/3x3 <- inception_4e/3x3_reduce
I1214 21:00:42.993943 20057 net.cpp:338] inception_4e/3x3 -> inception_4e/3x3
I1214 21:00:42.993952 20057 net.cpp:113] Setting up inception_4e/3x3
I1214 21:00:42.999737 20057 net.cpp:120] Top shape: 50 320 14 14 (3136000)
I1214 21:00:42.999760 20057 layer_factory.hpp:74] Creating layer inception_4e/relu_3x3
I1214 21:00:42.999775 20057 net.cpp:84] Creating Layer inception_4e/relu_3x3
I1214 21:00:42.999781 20057 net.cpp:380] inception_4e/relu_3x3 <- inception_4e/3x3
I1214 21:00:42.999789 20057 net.cpp:327] inception_4e/relu_3x3 -> inception_4e/3x3 (in-place)
I1214 21:00:42.999796 20057 net.cpp:113] Setting up inception_4e/relu_3x3
I1214 21:00:43.000046 20057 net.cpp:120] Top shape: 50 320 14 14 (3136000)
I1214 21:00:43.000059 20057 layer_factory.hpp:74] Creating layer inception_4e/5x5_reduce
I1214 21:00:43.000068 20057 net.cpp:84] Creating Layer inception_4e/5x5_reduce
I1214 21:00:43.000073 20057 net.cpp:380] inception_4e/5x5_reduce <- inception_4d/output_inception_4d/output_0_split_3
I1214 21:00:43.000082 20057 net.cpp:338] inception_4e/5x5_reduce -> inception_4e/5x5_reduce
I1214 21:00:43.000090 20057 net.cpp:113] Setting up inception_4e/5x5_reduce
I1214 21:00:43.006872 20057 net.cpp:120] Top shape: 50 32 14 14 (313600)
I1214 21:00:43.006918 20057 layer_factory.hpp:74] Creating layer inception_4e/relu_5x5_reduce
I1214 21:00:43.006934 20057 net.cpp:84] Creating Layer inception_4e/relu_5x5_reduce
I1214 21:00:43.006945 20057 net.cpp:380] inception_4e/relu_5x5_reduce <- inception_4e/5x5_reduce
I1214 21:00:43.006971 20057 net.cpp:327] inception_4e/relu_5x5_reduce -> inception_4e/5x5_reduce (in-place)
I1214 21:00:43.006989 20057 net.cpp:113] Setting up inception_4e/relu_5x5_reduce
I1214 21:00:43.007148 20057 net.cpp:120] Top shape: 50 32 14 14 (313600)
I1214 21:00:43.007163 20057 layer_factory.hpp:74] Creating layer inception_4e/5x5
I1214 21:00:43.007187 20057 net.cpp:84] Creating Layer inception_4e/5x5
I1214 21:00:43.007197 20057 net.cpp:380] inception_4e/5x5 <- inception_4e/5x5_reduce
I1214 21:00:43.007210 20057 net.cpp:338] inception_4e/5x5 -> inception_4e/5x5
I1214 21:00:43.007227 20057 net.cpp:113] Setting up inception_4e/5x5
I1214 21:00:43.010263 20057 net.cpp:120] Top shape: 50 128 14 14 (1254400)
I1214 21:00:43.010295 20057 layer_factory.hpp:74] Creating layer inception_4e/relu_5x5
I1214 21:00:43.010311 20057 net.cpp:84] Creating Layer inception_4e/relu_5x5
I1214 21:00:43.010323 20057 net.cpp:380] inception_4e/relu_5x5 <- inception_4e/5x5
I1214 21:00:43.010339 20057 net.cpp:327] inception_4e/relu_5x5 -> inception_4e/5x5 (in-place)
I1214 21:00:43.010355 20057 net.cpp:113] Setting up inception_4e/relu_5x5
I1214 21:00:43.010498 20057 net.cpp:120] Top shape: 50 128 14 14 (1254400)
I1214 21:00:43.010510 20057 layer_factory.hpp:74] Creating layer inception_4e/pool
I1214 21:00:43.010521 20057 layer_factory.cpp:56] CUDNN does not support padding or multiple tops. Using Caffe's own pooling layer.
I1214 21:00:43.010535 20057 net.cpp:84] Creating Layer inception_4e/pool
I1214 21:00:43.010545 20057 net.cpp:380] inception_4e/pool <- inception_4d/output_inception_4d/output_0_split_4
I1214 21:00:43.010561 20057 net.cpp:338] inception_4e/pool -> inception_4e/pool
I1214 21:00:43.010577 20057 net.cpp:113] Setting up inception_4e/pool
I1214 21:00:43.010596 20057 net.cpp:120] Top shape: 50 528 14 14 (5174400)
I1214 21:00:43.010604 20057 layer_factory.hpp:74] Creating layer inception_4e/pool_proj
I1214 21:00:43.010620 20057 net.cpp:84] Creating Layer inception_4e/pool_proj
I1214 21:00:43.010630 20057 net.cpp:380] inception_4e/pool_proj <- inception_4e/pool
I1214 21:00:43.010646 20057 net.cpp:338] inception_4e/pool_proj -> inception_4e/pool_proj
I1214 21:00:43.010663 20057 net.cpp:113] Setting up inception_4e/pool_proj
I1214 21:00:43.012965 20057 net.cpp:120] Top shape: 50 128 14 14 (1254400)
I1214 21:00:43.012995 20057 layer_factory.hpp:74] Creating layer inception_4e/relu_pool_proj
I1214 21:00:43.013010 20057 net.cpp:84] Creating Layer inception_4e/relu_pool_proj
I1214 21:00:43.013020 20057 net.cpp:380] inception_4e/relu_pool_proj <- inception_4e/pool_proj
I1214 21:00:43.013033 20057 net.cpp:327] inception_4e/relu_pool_proj -> inception_4e/pool_proj (in-place)
I1214 21:00:43.013048 20057 net.cpp:113] Setting up inception_4e/relu_pool_proj
I1214 21:00:43.013217 20057 net.cpp:120] Top shape: 50 128 14 14 (1254400)
I1214 21:00:43.013247 20057 layer_factory.hpp:74] Creating layer inception_4e/output
I1214 21:00:43.013262 20057 net.cpp:84] Creating Layer inception_4e/output
I1214 21:00:43.013272 20057 net.cpp:380] inception_4e/output <- inception_4e/1x1
I1214 21:00:43.013284 20057 net.cpp:380] inception_4e/output <- inception_4e/3x3
I1214 21:00:43.013296 20057 net.cpp:380] inception_4e/output <- inception_4e/5x5
I1214 21:00:43.013308 20057 net.cpp:380] inception_4e/output <- inception_4e/pool_proj
I1214 21:00:43.013324 20057 net.cpp:338] inception_4e/output -> inception_4e/output
I1214 21:00:43.013339 20057 net.cpp:113] Setting up inception_4e/output
I1214 21:00:43.013356 20057 net.cpp:120] Top shape: 50 832 14 14 (8153600)
I1214 21:00:43.013365 20057 layer_factory.hpp:74] Creating layer pool4/3x3_s2
I1214 21:00:43.013380 20057 net.cpp:84] Creating Layer pool4/3x3_s2
I1214 21:00:43.013389 20057 net.cpp:380] pool4/3x3_s2 <- inception_4e/output
I1214 21:00:43.013403 20057 net.cpp:338] pool4/3x3_s2 -> pool4/3x3_s2
I1214 21:00:43.013422 20057 net.cpp:113] Setting up pool4/3x3_s2
I1214 21:00:43.013856 20057 net.cpp:120] Top shape: 50 832 7 7 (2038400)
I1214 21:00:43.013877 20057 layer_factory.hpp:74] Creating layer pool4/3x3_s2_pool4/3x3_s2_0_split
I1214 21:00:43.013895 20057 net.cpp:84] Creating Layer pool4/3x3_s2_pool4/3x3_s2_0_split
I1214 21:00:43.013906 20057 net.cpp:380] pool4/3x3_s2_pool4/3x3_s2_0_split <- pool4/3x3_s2
I1214 21:00:43.013921 20057 net.cpp:338] pool4/3x3_s2_pool4/3x3_s2_0_split -> pool4/3x3_s2_pool4/3x3_s2_0_split_0
I1214 21:00:43.013937 20057 net.cpp:338] pool4/3x3_s2_pool4/3x3_s2_0_split -> pool4/3x3_s2_pool4/3x3_s2_0_split_1
I1214 21:00:43.013953 20057 net.cpp:338] pool4/3x3_s2_pool4/3x3_s2_0_split -> pool4/3x3_s2_pool4/3x3_s2_0_split_2
I1214 21:00:43.014001 20057 net.cpp:338] pool4/3x3_s2_pool4/3x3_s2_0_split -> pool4/3x3_s2_pool4/3x3_s2_0_split_3
I1214 21:00:43.014019 20057 net.cpp:113] Setting up pool4/3x3_s2_pool4/3x3_s2_0_split
I1214 21:00:43.014035 20057 net.cpp:120] Top shape: 50 832 7 7 (2038400)
I1214 21:00:43.014046 20057 net.cpp:120] Top shape: 50 832 7 7 (2038400)
I1214 21:00:43.014058 20057 net.cpp:120] Top shape: 50 832 7 7 (2038400)
I1214 21:00:43.014070 20057 net.cpp:120] Top shape: 50 832 7 7 (2038400)
I1214 21:00:43.014078 20057 layer_factory.hpp:74] Creating layer inception_5a/1x1
I1214 21:00:43.014097 20057 net.cpp:84] Creating Layer inception_5a/1x1
I1214 21:00:43.014108 20057 net.cpp:380] inception_5a/1x1 <- pool4/3x3_s2_pool4/3x3_s2_0_split_0
I1214 21:00:43.014122 20057 net.cpp:338] inception_5a/1x1 -> inception_5a/1x1
I1214 21:00:43.014138 20057 net.cpp:113] Setting up inception_5a/1x1
I1214 21:00:43.019703 20057 net.cpp:120] Top shape: 50 256 7 7 (627200)
I1214 21:00:43.019734 20057 layer_factory.hpp:74] Creating layer inception_5a/relu_1x1
I1214 21:00:43.019752 20057 net.cpp:84] Creating Layer inception_5a/relu_1x1
I1214 21:00:43.019762 20057 net.cpp:380] inception_5a/relu_1x1 <- inception_5a/1x1
I1214 21:00:43.019776 20057 net.cpp:327] inception_5a/relu_1x1 -> inception_5a/1x1 (in-place)
I1214 21:00:43.019791 20057 net.cpp:113] Setting up inception_5a/relu_1x1
I1214 21:00:43.019932 20057 net.cpp:120] Top shape: 50 256 7 7 (627200)
I1214 21:00:43.019943 20057 layer_factory.hpp:74] Creating layer inception_5a/3x3_reduce
I1214 21:00:43.019963 20057 net.cpp:84] Creating Layer inception_5a/3x3_reduce
I1214 21:00:43.019973 20057 net.cpp:380] inception_5a/3x3_reduce <- pool4/3x3_s2_pool4/3x3_s2_0_split_1
I1214 21:00:43.019990 20057 net.cpp:338] inception_5a/3x3_reduce -> inception_5a/3x3_reduce
I1214 21:00:43.020007 20057 net.cpp:113] Setting up inception_5a/3x3_reduce
I1214 21:00:43.023639 20057 net.cpp:120] Top shape: 50 160 7 7 (392000)
I1214 21:00:43.023668 20057 layer_factory.hpp:74] Creating layer inception_5a/relu_3x3_reduce
I1214 21:00:43.023680 20057 net.cpp:84] Creating Layer inception_5a/relu_3x3_reduce
I1214 21:00:43.023691 20057 net.cpp:380] inception_5a/relu_3x3_reduce <- inception_5a/3x3_reduce
I1214 21:00:43.023715 20057 net.cpp:327] inception_5a/relu_3x3_reduce -> inception_5a/3x3_reduce (in-place)
I1214 21:00:43.023741 20057 net.cpp:113] Setting up inception_5a/relu_3x3_reduce
I1214 21:00:43.023880 20057 net.cpp:120] Top shape: 50 160 7 7 (392000)
I1214 21:00:43.023891 20057 layer_factory.hpp:74] Creating layer inception_5a/3x3
I1214 21:00:43.023905 20057 net.cpp:84] Creating Layer inception_5a/3x3
I1214 21:00:43.023915 20057 net.cpp:380] inception_5a/3x3 <- inception_5a/3x3_reduce
I1214 21:00:43.023931 20057 net.cpp:338] inception_5a/3x3 -> inception_5a/3x3
I1214 21:00:43.023946 20057 net.cpp:113] Setting up inception_5a/3x3
I1214 21:00:43.034265 20057 net.cpp:120] Top shape: 50 320 7 7 (784000)
I1214 21:00:43.034292 20057 layer_factory.hpp:74] Creating layer inception_5a/relu_3x3
I1214 21:00:43.034306 20057 net.cpp:84] Creating Layer inception_5a/relu_3x3
I1214 21:00:43.034314 20057 net.cpp:380] inception_5a/relu_3x3 <- inception_5a/3x3
I1214 21:00:43.034327 20057 net.cpp:327] inception_5a/relu_3x3 -> inception_5a/3x3 (in-place)
I1214 21:00:43.034339 20057 net.cpp:113] Setting up inception_5a/relu_3x3
I1214 21:00:43.034458 20057 net.cpp:120] Top shape: 50 320 7 7 (784000)
I1214 21:00:43.034469 20057 layer_factory.hpp:74] Creating layer inception_5a/5x5_reduce
I1214 21:00:43.034483 20057 net.cpp:84] Creating Layer inception_5a/5x5_reduce
I1214 21:00:43.034492 20057 net.cpp:380] inception_5a/5x5_reduce <- pool4/3x3_s2_pool4/3x3_s2_0_split_2
I1214 21:00:43.034507 20057 net.cpp:338] inception_5a/5x5_reduce -> inception_5a/5x5_reduce
I1214 21:00:43.034521 20057 net.cpp:113] Setting up inception_5a/5x5_reduce
I1214 21:00:43.035707 20057 net.cpp:120] Top shape: 50 32 7 7 (78400)
I1214 21:00:43.035735 20057 layer_factory.hpp:74] Creating layer inception_5a/relu_5x5_reduce
I1214 21:00:43.035748 20057 net.cpp:84] Creating Layer inception_5a/relu_5x5_reduce
I1214 21:00:43.035758 20057 net.cpp:380] inception_5a/relu_5x5_reduce <- inception_5a/5x5_reduce
I1214 21:00:43.035768 20057 net.cpp:327] inception_5a/relu_5x5_reduce -> inception_5a/5x5_reduce (in-place)
I1214 21:00:43.035781 20057 net.cpp:113] Setting up inception_5a/relu_5x5_reduce
I1214 21:00:43.036159 20057 net.cpp:120] Top shape: 50 32 7 7 (78400)
I1214 21:00:43.036176 20057 layer_factory.hpp:74] Creating layer inception_5a/5x5
I1214 21:00:43.036193 20057 net.cpp:84] Creating Layer inception_5a/5x5
I1214 21:00:43.036202 20057 net.cpp:380] inception_5a/5x5 <- inception_5a/5x5_reduce
I1214 21:00:43.036216 20057 net.cpp:338] inception_5a/5x5 -> inception_5a/5x5
I1214 21:00:43.036231 20057 net.cpp:113] Setting up inception_5a/5x5
I1214 21:00:43.038903 20057 net.cpp:120] Top shape: 50 128 7 7 (313600)
I1214 21:00:43.038929 20057 layer_factory.hpp:74] Creating layer inception_5a/relu_5x5
I1214 21:00:43.038943 20057 net.cpp:84] Creating Layer inception_5a/relu_5x5
I1214 21:00:43.038951 20057 net.cpp:380] inception_5a/relu_5x5 <- inception_5a/5x5
I1214 21:00:43.038964 20057 net.cpp:327] inception_5a/relu_5x5 -> inception_5a/5x5 (in-place)
I1214 21:00:43.038976 20057 net.cpp:113] Setting up inception_5a/relu_5x5
I1214 21:00:43.039100 20057 net.cpp:120] Top shape: 50 128 7 7 (313600)
I1214 21:00:43.039113 20057 layer_factory.hpp:74] Creating layer inception_5a/pool
I1214 21:00:43.039122 20057 layer_factory.cpp:56] CUDNN does not support padding or multiple tops. Using Caffe's own pooling layer.
I1214 21:00:43.039132 20057 net.cpp:84] Creating Layer inception_5a/pool
I1214 21:00:43.039141 20057 net.cpp:380] inception_5a/pool <- pool4/3x3_s2_pool4/3x3_s2_0_split_3
I1214 21:00:43.039154 20057 net.cpp:338] inception_5a/pool -> inception_5a/pool
I1214 21:00:43.039167 20057 net.cpp:113] Setting up inception_5a/pool
I1214 21:00:43.039181 20057 net.cpp:120] Top shape: 50 832 7 7 (2038400)
I1214 21:00:43.039189 20057 layer_factory.hpp:74] Creating layer inception_5a/pool_proj
I1214 21:00:43.039206 20057 net.cpp:84] Creating Layer inception_5a/pool_proj
I1214 21:00:43.039214 20057 net.cpp:380] inception_5a/pool_proj <- inception_5a/pool
I1214 21:00:43.039230 20057 net.cpp:338] inception_5a/pool_proj -> inception_5a/pool_proj
I1214 21:00:43.039252 20057 net.cpp:113] Setting up inception_5a/pool_proj
I1214 21:00:43.042022 20057 net.cpp:120] Top shape: 50 128 7 7 (313600)
I1214 21:00:43.042049 20057 layer_factory.hpp:74] Creating layer inception_5a/relu_pool_proj
I1214 21:00:43.042062 20057 net.cpp:84] Creating Layer inception_5a/relu_pool_proj
I1214 21:00:43.042073 20057 net.cpp:380] inception_5a/relu_pool_proj <- inception_5a/pool_proj
I1214 21:00:43.042086 20057 net.cpp:327] inception_5a/relu_pool_proj -> inception_5a/pool_proj (in-place)
I1214 21:00:43.042099 20057 net.cpp:113] Setting up inception_5a/relu_pool_proj
I1214 21:00:43.042218 20057 net.cpp:120] Top shape: 50 128 7 7 (313600)
I1214 21:00:43.042228 20057 layer_factory.hpp:74] Creating layer inception_5a/output
I1214 21:00:43.042242 20057 net.cpp:84] Creating Layer inception_5a/output
I1214 21:00:43.042249 20057 net.cpp:380] inception_5a/output <- inception_5a/1x1
I1214 21:00:43.042259 20057 net.cpp:380] inception_5a/output <- inception_5a/3x3
I1214 21:00:43.042269 20057 net.cpp:380] inception_5a/output <- inception_5a/5x5
I1214 21:00:43.042279 20057 net.cpp:380] inception_5a/output <- inception_5a/pool_proj
I1214 21:00:43.042292 20057 net.cpp:338] inception_5a/output -> inception_5a/output
I1214 21:00:43.042305 20057 net.cpp:113] Setting up inception_5a/output
I1214 21:00:43.042318 20057 net.cpp:120] Top shape: 50 832 7 7 (2038400)
I1214 21:00:43.042326 20057 layer_factory.hpp:74] Creating layer inception_5a/output_inception_5a/output_0_split
I1214 21:00:43.042337 20057 net.cpp:84] Creating Layer inception_5a/output_inception_5a/output_0_split
I1214 21:00:43.042346 20057 net.cpp:380] inception_5a/output_inception_5a/output_0_split <- inception_5a/output
I1214 21:00:43.042356 20057 net.cpp:338] inception_5a/output_inception_5a/output_0_split -> inception_5a/output_inception_5a/output_0_split_0
I1214 21:00:43.042373 20057 net.cpp:338] inception_5a/output_inception_5a/output_0_split -> inception_5a/output_inception_5a/output_0_split_1
I1214 21:00:43.042387 20057 net.cpp:338] inception_5a/output_inception_5a/output_0_split -> inception_5a/output_inception_5a/output_0_split_2
I1214 21:00:43.042399 20057 net.cpp:338] inception_5a/output_inception_5a/output_0_split -> inception_5a/output_inception_5a/output_0_split_3
I1214 21:00:43.042410 20057 net.cpp:113] Setting up inception_5a/output_inception_5a/output_0_split
I1214 21:00:43.042423 20057 net.cpp:120] Top shape: 50 832 7 7 (2038400)
I1214 21:00:43.042431 20057 net.cpp:120] Top shape: 50 832 7 7 (2038400)
I1214 21:00:43.042440 20057 net.cpp:120] Top shape: 50 832 7 7 (2038400)
I1214 21:00:43.042449 20057 net.cpp:120] Top shape: 50 832 7 7 (2038400)
I1214 21:00:43.042456 20057 layer_factory.hpp:74] Creating layer inception_5b/1x1
I1214 21:00:43.042472 20057 net.cpp:84] Creating Layer inception_5b/1x1
I1214 21:00:43.042480 20057 net.cpp:380] inception_5b/1x1 <- inception_5a/output_inception_5a/output_0_split_0
I1214 21:00:43.042492 20057 net.cpp:338] inception_5b/1x1 -> inception_5b/1x1
I1214 21:00:43.042505 20057 net.cpp:113] Setting up inception_5b/1x1
I1214 21:00:43.049144 20057 net.cpp:120] Top shape: 50 384 7 7 (940800)
I1214 21:00:43.049168 20057 layer_factory.hpp:74] Creating layer inception_5b/relu_1x1
I1214 21:00:43.049182 20057 net.cpp:84] Creating Layer inception_5b/relu_1x1
I1214 21:00:43.049191 20057 net.cpp:380] inception_5b/relu_1x1 <- inception_5b/1x1
I1214 21:00:43.049202 20057 net.cpp:327] inception_5b/relu_1x1 -> inception_5b/1x1 (in-place)
I1214 21:00:43.049214 20057 net.cpp:113] Setting up inception_5b/relu_1x1
I1214 21:00:43.049334 20057 net.cpp:120] Top shape: 50 384 7 7 (940800)
I1214 21:00:43.049342 20057 layer_factory.hpp:74] Creating layer inception_5b/3x3_reduce
I1214 21:00:43.049355 20057 net.cpp:84] Creating Layer inception_5b/3x3_reduce
I1214 21:00:43.049363 20057 net.cpp:380] inception_5b/3x3_reduce <- inception_5a/output_inception_5a/output_0_split_1
I1214 21:00:43.049377 20057 net.cpp:338] inception_5b/3x3_reduce -> inception_5b/3x3_reduce
I1214 21:00:43.049391 20057 net.cpp:113] Setting up inception_5b/3x3_reduce
I1214 21:00:43.052937 20057 net.cpp:120] Top shape: 50 192 7 7 (470400)
I1214 21:00:43.052963 20057 layer_factory.hpp:74] Creating layer inception_5b/relu_3x3_reduce
I1214 21:00:43.052974 20057 net.cpp:84] Creating Layer inception_5b/relu_3x3_reduce
I1214 21:00:43.052983 20057 net.cpp:380] inception_5b/relu_3x3_reduce <- inception_5b/3x3_reduce
I1214 21:00:43.052996 20057 net.cpp:327] inception_5b/relu_3x3_reduce -> inception_5b/3x3_reduce (in-place)
I1214 21:00:43.053009 20057 net.cpp:113] Setting up inception_5b/relu_3x3_reduce
I1214 21:00:43.053380 20057 net.cpp:120] Top shape: 50 192 7 7 (470400)
I1214 21:00:43.053398 20057 layer_factory.hpp:74] Creating layer inception_5b/3x3
I1214 21:00:43.053416 20057 net.cpp:84] Creating Layer inception_5b/3x3
I1214 21:00:43.053424 20057 net.cpp:380] inception_5b/3x3 <- inception_5b/3x3_reduce
I1214 21:00:43.053438 20057 net.cpp:338] inception_5b/3x3 -> inception_5b/3x3
I1214 21:00:43.053452 20057 net.cpp:113] Setting up inception_5b/3x3
I1214 21:00:43.064965 20057 net.cpp:120] Top shape: 50 384 7 7 (940800)
I1214 21:00:43.064990 20057 layer_factory.hpp:74] Creating layer inception_5b/relu_3x3
I1214 21:00:43.065003 20057 net.cpp:84] Creating Layer inception_5b/relu_3x3
I1214 21:00:43.065012 20057 net.cpp:380] inception_5b/relu_3x3 <- inception_5b/3x3
I1214 21:00:43.065022 20057 net.cpp:327] inception_5b/relu_3x3 -> inception_5b/3x3 (in-place)
I1214 21:00:43.065033 20057 net.cpp:113] Setting up inception_5b/relu_3x3
I1214 21:00:43.065150 20057 net.cpp:120] Top shape: 50 384 7 7 (940800)
I1214 21:00:43.065161 20057 layer_factory.hpp:74] Creating layer inception_5b/5x5_reduce
I1214 21:00:43.065179 20057 net.cpp:84] Creating Layer inception_5b/5x5_reduce
I1214 21:00:43.065189 20057 net.cpp:380] inception_5b/5x5_reduce <- inception_5a/output_inception_5a/output_0_split_2
I1214 21:00:43.065202 20057 net.cpp:338] inception_5b/5x5_reduce -> inception_5b/5x5_reduce
I1214 21:00:43.065214 20057 net.cpp:113] Setting up inception_5b/5x5_reduce
I1214 21:00:43.066494 20057 net.cpp:120] Top shape: 50 48 7 7 (117600)
I1214 21:00:43.066516 20057 layer_factory.hpp:74] Creating layer inception_5b/relu_5x5_reduce
I1214 21:00:43.066527 20057 net.cpp:84] Creating Layer inception_5b/relu_5x5_reduce
I1214 21:00:43.066535 20057 net.cpp:380] inception_5b/relu_5x5_reduce <- inception_5b/5x5_reduce
I1214 21:00:43.066548 20057 net.cpp:327] inception_5b/relu_5x5_reduce -> inception_5b/5x5_reduce (in-place)
I1214 21:00:43.066560 20057 net.cpp:113] Setting up inception_5b/relu_5x5_reduce
I1214 21:00:43.066668 20057 net.cpp:120] Top shape: 50 48 7 7 (117600)
I1214 21:00:43.066678 20057 layer_factory.hpp:74] Creating layer inception_5b/5x5
I1214 21:00:43.066689 20057 net.cpp:84] Creating Layer inception_5b/5x5
I1214 21:00:43.066696 20057 net.cpp:380] inception_5b/5x5 <- inception_5b/5x5_reduce
I1214 21:00:43.066709 20057 net.cpp:338] inception_5b/5x5 -> inception_5b/5x5
I1214 21:00:43.066722 20057 net.cpp:113] Setting up inception_5b/5x5
I1214 21:00:43.069942 20057 net.cpp:120] Top shape: 50 128 7 7 (313600)
I1214 21:00:43.069964 20057 layer_factory.hpp:74] Creating layer inception_5b/relu_5x5
I1214 21:00:43.069974 20057 net.cpp:84] Creating Layer inception_5b/relu_5x5
I1214 21:00:43.069983 20057 net.cpp:380] inception_5b/relu_5x5 <- inception_5b/5x5
I1214 21:00:43.069993 20057 net.cpp:327] inception_5b/relu_5x5 -> inception_5b/5x5 (in-place)
I1214 21:00:43.070003 20057 net.cpp:113] Setting up inception_5b/relu_5x5
I1214 21:00:43.070332 20057 net.cpp:120] Top shape: 50 128 7 7 (313600)
I1214 21:00:43.070346 20057 layer_factory.hpp:74] Creating layer inception_5b/pool
I1214 21:00:43.070354 20057 layer_factory.cpp:56] CUDNN does not support padding or multiple tops. Using Caffe's own pooling layer.
I1214 21:00:43.070363 20057 net.cpp:84] Creating Layer inception_5b/pool
I1214 21:00:43.070371 20057 net.cpp:380] inception_5b/pool <- inception_5a/output_inception_5a/output_0_split_3
I1214 21:00:43.070384 20057 net.cpp:338] inception_5b/pool -> inception_5b/pool
I1214 21:00:43.070404 20057 net.cpp:113] Setting up inception_5b/pool
I1214 21:00:43.070425 20057 net.cpp:120] Top shape: 50 832 7 7 (2038400)
I1214 21:00:43.070432 20057 layer_factory.hpp:74] Creating layer inception_5b/pool_proj
I1214 21:00:43.070446 20057 net.cpp:84] Creating Layer inception_5b/pool_proj
I1214 21:00:43.070453 20057 net.cpp:380] inception_5b/pool_proj <- inception_5b/pool
I1214 21:00:43.070463 20057 net.cpp:338] inception_5b/pool_proj -> inception_5b/pool_proj
I1214 21:00:43.070474 20057 net.cpp:113] Setting up inception_5b/pool_proj
I1214 21:00:43.072765 20057 net.cpp:120] Top shape: 50 128 7 7 (313600)
I1214 21:00:43.072787 20057 layer_factory.hpp:74] Creating layer inception_5b/relu_pool_proj
I1214 21:00:43.072798 20057 net.cpp:84] Creating Layer inception_5b/relu_pool_proj
I1214 21:00:43.072804 20057 net.cpp:380] inception_5b/relu_pool_proj <- inception_5b/pool_proj
I1214 21:00:43.072816 20057 net.cpp:327] inception_5b/relu_pool_proj -> inception_5b/pool_proj (in-place)
I1214 21:00:43.072827 20057 net.cpp:113] Setting up inception_5b/relu_pool_proj
I1214 21:00:43.072933 20057 net.cpp:120] Top shape: 50 128 7 7 (313600)
I1214 21:00:43.072944 20057 layer_factory.hpp:74] Creating layer inception_5b/output
I1214 21:00:43.072954 20057 net.cpp:84] Creating Layer inception_5b/output
I1214 21:00:43.072962 20057 net.cpp:380] inception_5b/output <- inception_5b/1x1
I1214 21:00:43.072970 20057 net.cpp:380] inception_5b/output <- inception_5b/3x3
I1214 21:00:43.072978 20057 net.cpp:380] inception_5b/output <- inception_5b/5x5
I1214 21:00:43.072985 20057 net.cpp:380] inception_5b/output <- inception_5b/pool_proj
I1214 21:00:43.072996 20057 net.cpp:338] inception_5b/output -> inception_5b/output
I1214 21:00:43.073007 20057 net.cpp:113] Setting up inception_5b/output
I1214 21:00:43.073019 20057 net.cpp:120] Top shape: 50 1024 7 7 (2508800)
I1214 21:00:43.073024 20057 layer_factory.hpp:74] Creating layer pool5/7x7_s1
I1214 21:00:43.073035 20057 net.cpp:84] Creating Layer pool5/7x7_s1
I1214 21:00:43.073041 20057 net.cpp:380] pool5/7x7_s1 <- inception_5b/output
I1214 21:00:43.073050 20057 net.cpp:338] pool5/7x7_s1 -> pool5/7x7_s1
I1214 21:00:43.073071 20057 net.cpp:113] Setting up pool5/7x7_s1
I1214 21:00:43.073176 20057 net.cpp:120] Top shape: 50 1024 1 1 (51200)
I1214 21:00:43.073185 20057 layer_factory.hpp:74] Creating layer pool5/drop_7x7_s1
I1214 21:00:43.073195 20057 net.cpp:84] Creating Layer pool5/drop_7x7_s1
I1214 21:00:43.073202 20057 net.cpp:380] pool5/drop_7x7_s1 <- pool5/7x7_s1
I1214 21:00:43.073211 20057 net.cpp:327] pool5/drop_7x7_s1 -> pool5/7x7_s1 (in-place)
I1214 21:00:43.073221 20057 net.cpp:113] Setting up pool5/drop_7x7_s1
I1214 21:00:43.073231 20057 net.cpp:120] Top shape: 50 1024 1 1 (51200)
I1214 21:00:43.073238 20057 layer_factory.hpp:74] Creating layer loss3/classifier_kaggle
I1214 21:00:43.073249 20057 net.cpp:84] Creating Layer loss3/classifier_kaggle
I1214 21:00:43.073256 20057 net.cpp:380] loss3/classifier_kaggle <- pool5/7x7_s1
I1214 21:00:43.073268 20057 net.cpp:338] loss3/classifier_kaggle -> loss3/classifier_kaggle
I1214 21:00:43.073279 20057 net.cpp:113] Setting up loss3/classifier_kaggle
I1214 21:00:43.080662 20057 net.cpp:120] Top shape: 50 447 (22350)
I1214 21:00:43.080680 20057 layer_factory.hpp:74] Creating layer loss3/classifier_kaggle_loss3/classifier_kaggle_0_split
I1214 21:00:43.080693 20057 net.cpp:84] Creating Layer loss3/classifier_kaggle_loss3/classifier_kaggle_0_split
I1214 21:00:43.080700 20057 net.cpp:380] loss3/classifier_kaggle_loss3/classifier_kaggle_0_split <- loss3/classifier_kaggle
I1214 21:00:43.080710 20057 net.cpp:338] loss3/classifier_kaggle_loss3/classifier_kaggle_0_split -> loss3/classifier_kaggle_loss3/classifier_kaggle_0_split_0
I1214 21:00:43.080723 20057 net.cpp:338] loss3/classifier_kaggle_loss3/classifier_kaggle_0_split -> loss3/classifier_kaggle_loss3/classifier_kaggle_0_split_1
I1214 21:00:43.080734 20057 net.cpp:338] loss3/classifier_kaggle_loss3/classifier_kaggle_0_split -> loss3/classifier_kaggle_loss3/classifier_kaggle_0_split_2
I1214 21:00:43.080749 20057 net.cpp:113] Setting up loss3/classifier_kaggle_loss3/classifier_kaggle_0_split
I1214 21:00:43.080772 20057 net.cpp:120] Top shape: 50 447 (22350)
I1214 21:00:43.080780 20057 net.cpp:120] Top shape: 50 447 (22350)
I1214 21:00:43.080787 20057 net.cpp:120] Top shape: 50 447 (22350)
I1214 21:00:43.080793 20057 layer_factory.hpp:74] Creating layer loss3/loss3
I1214 21:00:43.080804 20057 net.cpp:84] Creating Layer loss3/loss3
I1214 21:00:43.080811 20057 net.cpp:380] loss3/loss3 <- loss3/classifier_kaggle_loss3/classifier_kaggle_0_split_0
I1214 21:00:43.080819 20057 net.cpp:380] loss3/loss3 <- label_data_1_split_6
I1214 21:00:43.080829 20057 net.cpp:338] loss3/loss3 -> loss3/loss3
…
