…
I1217 10:25:31.800854  8744 net.cpp:257] The NetState phase (0) differed from the phase (1) specified by a rule in layer loss3/top-5
I1217 10:25:31.802242  8744 net.cpp:42] Initializing net from parameters: 
name: "GoogleNet"
state {
  phase: TRAIN
}
layer {
  name: "data"
  type: "Data"
  top: "data"
  top: "label"
  include {
    phase: TRAIN
  }
  transform_param {
    mirror: true
    crop_size: 224
    mean_value: 129
    mean_value: 129
    mean_value: 129
  }
  data_param {
    source: "/home/coldmanck/kaggle/kaggle2_train_lmdb"
    batch_size: 80
    backend: LMDB
  }
}
layer {
  name: "conv1/7x7_s2"
  type: "Convolution"
  bottom: "data"
  top: "conv1/7x7_s2"
  param {
    lr_mult: 1
    decay_mult: 1
  }
  param {
    lr_mult: 2
    decay_mult: 0
  }
  convolution_param {
    num_output: 64
    pad: 3
    kernel_size: 7
    stride: 2
    weight_filler {
      type: "xavier"
    }
    bias_filler {
      type: "constant"
      value: 0.2
    }
  }
}
layer {
  name: "conv1/relu_7x7"
  type: "ReLU"
  bottom: "conv1/7x7_s2"
  top: "conv1/7x7_s2"
}
layer {
  name: "pool1/3x3_s2"
  type: "Pooling"
  bottom: "conv1/7x7_s2"
  top: "pool1/3x3_s2"
  pooling_param {
    pool: MAX
    kernel_size: 3
    stride: 2
  }
}
layer {
  name: "pool1/norm1"
  type: "LRN"
  bottom: "pool1/3x3_s2"
  top: "pool1/norm1"
  lrn_param {
    local_size: 5
    alpha: 0.0001
    beta: 0.75
  }
}
layer {
  name: "conv2/3x3_reduce"
  type: "Convolution"
  bottom: "pool1/norm1"
  top: "conv2/3x3_reduce"
  param {
    lr_mult: 1
    decay_mult: 1
  }
  param {
    lr_mult: 2
    decay_mult: 0
  }
  convolution_param {
    num_output: 64
    kernel_size: 1
    weight_filler {
      type: "xavier"
    }
    bias_filler {
      type: "constant"
      value: 0.2
    }
  }
}
layer {
  name: "conv2/relu_3x3_reduce"
  type: "ReLU"
  bottom: "conv2/3x3_reduce"
  top: "conv2/3x3_reduce"
}
layer {
  name: "conv2/3x3"
  type: "Convolution"
  bottom: "conv2/3x3_reduce"
  top: "conv2/3x3"
  param {
    lr_mult: 1
    decay_mult: 1
  }
  param {
    lr_mult: 2
    decay_mult: 0
  }
  convolution_param {
    num_output: 192
    pad: 1
    kernel_size: 3
    weight_filler {
      type: "xavier"
    }
    bias_filler {
      type: "constant"
      value: 0.2
    }
  }
}
layer {
  name: "conv2/relu_3x3"
  type: "ReLU"
  bottom: "conv2/3x3"
  top: "conv2/3x3"
}
layer {
  name: "conv2/norm2"
  type: "LRN"
  bottom: "conv2/3x3"
  top: "conv2/norm2"
  lrn_param {
    local_size: 5
    alpha: 0.0001
    beta: 0.75
  }
}
layer {
  name: "pool2/3x3_s2"
  type: "Pooling"
  bottom: "conv2/norm2"
  top: "pool2/3x3_s2"
  pooling_param {
    pool: MAX
    kernel_size: 3
    stride: 2
  }
}
layer {
  name: "inception_3a/1x1"
  type: "Convolution"
  bottom: "pool2/3x3_s2"
  top: "inception_3a/1x1"
  param {
    lr_mult: 1
    decay_mult: 1
  }
  param {
    lr_mult: 2
    decay_mult: 0
  }
  convolution_param {
    num_output: 64
    kernel_size: 1
    weight_filler {
      type: "xavier"
    }
    bias_filler {
      type: "constant"
      value: 0.2
    }
  }
}
layer {
  name: "inception_3a/relu_1x1"
  type: "ReLU"
  bottom: "inception_3a/1x1"
  top: "inception_3a/1x1"
}
layer {
  name: "inception_3a/3x3_reduce"
  type: "Convolution"
  bottom: "pool2/3x3_s2"
  top: "inception_3a/3x3_reduce"
  param {
    lr_mult: 1
    decay_mult: 1
  }
  param {
    lr_mult: 2
    decay_mult: 0
  }
  convolution_param {
    num_output: 96
    kernel_size: 1
    weight_filler {
      type: "xavier"
    }
    bias_filler {
      type: "constant"
      value: 0.2
    }
  }
}
layer {
  name: "inception_3a/relu_3x3_reduce"
  type: "ReLU"
  bottom: "inception_3a/3x3_reduce"
  top: "inception_3a/3x3_reduce"
}
layer {
  name: "inception_3a/3x3"
  type: "Convolution"
  bottom: "inception_3a/3x3_reduce"
  top: "inception_3a/3x3"
  param {
    lr_mult: 1
    decay_mult: 1
  }
  param {
    lr_mult: 2
    decay_mult: 0
  }
  convolution_param {
    num_output: 128
    pad: 1
    kernel_size: 3
    weight_filler {
      type: "xavier"
    }
    bias_filler {
      type: "constant"
      value: 0.2
    }
  }
}
layer {
  name: "inception_3a/relu_3x3"
  type: "ReLU"
  bottom: "inception_3a/3x3"
  top: "inception_3a/3x3"
}
layer {
  name: "inception_3a/5x5_reduce"
  type: "Convolution"
  bottom: "pool2/3x3_s2"
  top: "inception_3a/5x5_reduce"
  param {
    lr_mult: 1
    decay_mult: 1
  }
  param {
    lr_mult: 2
    decay_mult: 0
  }
  convolution_param {
    num_output: 16
    kernel_size: 1
    weight_filler {
      type: "xavier"
    }
    bias_filler {
      type: "constant"
      value: 0.2
    }
  }
}
layer {
  name: "inception_3a/relu_5x5_reduce"
  type: "ReLU"
  bottom: "inception_3a/5x5_reduce"
  top: "inception_3a/5x5_reduce"
}
layer {
  name: "inception_3a/5x5"
  type: "Convolution"
  bottom: "inception_3a/5x5_reduce"
  top: "inception_3a/5x5"
  param {
    lr_mult: 1
    decay_mult: 1
  }
  param {
    lr_mult: 2
    decay_mult: 0
  }
  convolution_param {
    num_output: 32
    pad: 2
    kernel_size: 5
    weight_filler {
      type: "xavier"
    }
    bias_filler {
      type: "constant"
      value: 0.2
    }
  }
}
layer {
  name: "inception_3a/relu_5x5"
  type: "ReLU"
  bottom: "inception_3a/5x5"
  top: "inception_3a/5x5"
}
layer {
  name: "inception_3a/pool"
  type: "Pooling"
  bottom: "pool2/3x3_s2"
  top: "inception_3a/pool"
  pooling_param {
    pool: MAX
    kernel_size: 3
    stride: 1
    pad: 1
  }
}
layer {
  name: "inception_3a/pool_proj"
  type: "Convolution"
  bottom: "inception_3a/pool"
  top: "inception_3a/pool_proj"
  param {
    lr_mult: 1
    decay_mult: 1
  }
  param {
    lr_mult: 2
    decay_mult: 0
  }
  convolution_param {
    num_output: 32
    kernel_size: 1
    weight_filler {
      type: "xavier"
    }
    bias_filler {
      type: "constant"
      value: 0.2
    }
  }
}
layer {
  name: "inception_3a/relu_pool_proj"
  type: "ReLU"
  bottom: "inception_3a/pool_proj"
  top: "inception_3a/pool_proj"
}
layer {
  name: "inception_3a/output"
  type: "Concat"
  bottom: "inception_3a/1x1"
  bottom: "inception_3a/3x3"
  bottom: "inception_3a/5x5"
  bottom: "inception_3a/pool_proj"
  top: "inception_3a/output"
}
layer {
  name: "inception_3b/1x1"
  type: "Convolution"
  bottom: "inception_3a/output"
  top: "inception_3b/1x1"
  param {
    lr_mult: 1
    decay_mult: 1
  }
  param {
    lr_mult: 2
    decay_mult: 0
  }
  convolution_param {
    num_output: 128
    kernel_size: 1
    weight_filler {
      type: "xavier"
    }
    bias_filler {
      type: "constant"
      value: 0.2
    }
  }
}
layer {
  name: "inception_3b/relu_1x1"
  type: "ReLU"
  bottom: "inception_3b/1x1"
  top: "inception_3b/1x1"
}
layer {
  name: "inception_3b/3x3_reduce"
  type: "Convolution"
  bottom: "inception_3a/output"
  top: "inception_3b/3x3_reduce"
  param {
    lr_mult: 1
    decay_mult: 1
  }
  param {
    lr_mult: 2
    decay_mult: 0
  }
  convolution_param {
    num_output: 128
    kernel_size: 1
    weight_filler {
      type: "xavier"
    }
    bias_filler {
      type: "constant"
      value: 0.2
    }
  }
}
layer {
  name: "inception_3b/relu_3x3_reduce"
  type: "ReLU"
  bottom: "inception_3b/3x3_reduce"
  top: "inception_3b/3x3_reduce"
}
layer {
  name: "inception_3b/3x3"
  type: "Convolution"
  bottom: "inception_3b/3x3_reduce"
  top: "inception_3b/3x3"
  param {
    lr_mult: 1
    decay_mult: 1
  }
  param {
    lr_mult: 2
    decay_mult: 0
  }
  convolution_param {
    num_output: 192
    pad: 1
    kernel_size: 3
    weight_filler {
      type: "xavier"
    }
    bias_filler {
      type: "constant"
      value: 0.2
    }
  }
}
layer {
  name: "inception_3b/relu_3x3"
  type: "ReLU"
  bottom: "inception_3b/3x3"
  top: "inception_3b/3x3"
}
layer {
  name: "inception_3b/5x5_reduce"
  type: "Convolution"
  bottom: "inception_3a/output"
  top: "inception_3b/5x5_reduce"
  param {
    lr_mult: 1
    decay_mult: 1
  }
  param {
    lr_mult: 2
    decay_mult: 0
  }
  convolution_param {
    num_output: 32
    kernel_size: 1
    weight_filler {
      type: "xavier"
    }
    bias_filler {
      type: "constant"
      value: 0.2
    }
  }
}
layer {
  name: "inception_3b/relu_5x5_reduce"
  type: "ReLU"
  bottom: "inception_3b/5x5_reduce"
  top: "inception_3b/5x5_reduce"
}
layer {
  name: "inception_3b/5x5"
  type: "Convolution"
  bottom: "inception_3b/5x5_reduce"
  top: "inception_3b/5x5"
  param {
    lr_mult: 1
    decay_mult: 1
  }
  param {
    lr_mult: 2
    decay_mult: 0
  }
  convolution_param {
    num_output: 96
    pad: 2
    kernel_size: 5
    weight_filler {
      type: "xavier"
    }
    bias_filler {
      type: "constant"
      value: 0.2
    }
  }
}
layer {
  name: "inception_3b/relu_5x5"
  type: "ReLU"
  bottom: "inception_3b/5x5"
  top: "inception_3b/5x5"
}
layer {
  name: "inception_3b/pool"
  type: "Pooling"
  bottom: "inception_3a/output"
  top: "inception_3b/pool"
  pooling_param {
    pool: MAX
    kernel_size: 3
    stride: 1
    pad: 1
  }
}
layer {
  name: "inception_3b/pool_proj"
  type: "Convolution"
  bottom: "inception_3b/pool"
  top: "inception_3b/pool_proj"
  param {
    lr_mult: 1
    decay_mult: 1
  }
  param {
    lr_mult: 2
    decay_mult: 0
  }
  convolution_param {
    num_output: 64
    kernel_size: 1
    weight_filler {
      type: "xavier"
    }
    bias_filler {
      type: "constant"
      value: 0.2
    }
  }
}
layer {
  name: "inception_3b/relu_pool_proj"
  type: "ReLU"
  bottom: "inception_3b/pool_proj"
  top: "inception_3b/pool_proj"
}
layer {
  name: "inception_3b/output"
  type: "Concat"
  bottom: "inception_3b/1x1"
  bottom: "inception_3b/3x3"
  bottom: "inception_3b/5x5"
  bottom: "inception_3b/pool_proj"
  top: "inception_3b/output"
}
layer {
  name: "pool3/3x3_s2"
  type: "Pooling"
  bottom: "inception_3b/output"
  top: "pool3/3x3_s2"
  pooling_param {
    pool: MAX
    kernel_size: 3
    stride: 2
  }
}
layer {
  name: "inception_4a/1x1"
  type: "Convolution"
  bottom: "pool3/3x3_s2"
  top: "inception_4a/1x1"
  param {
    lr_mult: 1
    decay_mult: 1
  }
  param {
    lr_mult: 2
    decay_mult: 0
  }
  convolution_param {
    num_output: 192
    kernel_size: 1
    weight_filler {
      type: "xavier"
    }
    bias_filler {
      type: "constant"
      value: 0.2
    }
  }
}
layer {
  name: "inception_4a/relu_1x1"
  type: "ReLU"
  bottom: "inception_4a/1x1"
  top: "inception_4a/1x1"
}
layer {
  name: "inception_4a/3x3_reduce"
  type: "Convolution"
  bottom: "pool3/3x3_s2"
  top: "inception_4a/3x3_reduce"
  param {
    lr_mult: 1
    decay_mult: 1
  }
  param {
    lr_mult: 2
    decay_mult: 0
  }
  convolution_param {
    num_output: 96
    kernel_size: 1
    weight_filler {
      type: "xavier"
    }
    bias_filler {
      type: "constant"
      value: 0.2
    }
  }
}
layer {
  name: "inception_4a/relu_3x3_reduce"
  type: "ReLU"
  bottom: "inception_4a/3x3_reduce"
  top: "inception_4a/3x3_reduce"
}
layer {
  name: "inception_4a/3x3"
  type: "Convolution"
  bottom: "inception_4a/3x3_reduce"
  top: "inception_4a/3x3"
  param {
    lr_mult: 1
    decay_mult: 1
  }
  param {
    lr_mult: 2
    decay_mult: 0
  }
  convolution_param {
    num_output: 208
    pad: 1
    kernel_size: 3
    weight_filler {
      type: "xavier"
    }
    bias_filler {
      type: "constant"
      value: 0.2
    }
  }
}
layer {
  name: "inception_4a/relu_3x3"
  type: "ReLU"
  bottom: "inception_4a/3x3"
  top: "inception_4a/3x3"
}
layer {
  name: "inception_4a/5x5_reduce"
  type: "Convolution"
  bottom: "pool3/3x3_s2"
  top: "inception_4a/5x5_reduce"
  param {
    lr_mult: 1
    decay_mult: 1
  }
  param {
    lr_mult: 2
    decay_mult: 0
  }
  convolution_param {
    num_output: 16
    kernel_size: 1
    weight_filler {
      type: "xavier"
    }
    bias_filler {
      type: "constant"
      value: 0.2
    }
  }
}
layer {
  name: "inception_4a/relu_5x5_reduce"
  type: "ReLU"
  bottom: "inception_4a/5x5_reduce"
  top: "inception_4a/5x5_reduce"
}
layer {
  name: "inception_4a/5x5"
  type: "Convolution"
  bottom: "inception_4a/5x5_reduce"
  top: "inception_4a/5x5"
  param {
    lr_mult: 1
    decay_mult: 1
  }
  param {
    lr_mult: 2
    decay_mult: 0
  }
  convolution_param {
    num_output: 48
    pad: 2
    kernel_size: 5
    weight_filler {
      type: "xavier"
    }
    bias_filler {
      type: "constant"
      value: 0.2
    }
  }
}
layer {
  name: "inception_4a/relu_5x5"
  type: "ReLU"
  bottom: "inception_4a/5x5"
  top: "inception_4a/5x5"
}
layer {
  name: "inception_4a/pool"
  type: "Pooling"
  bottom: "pool3/3x3_s2"
  top: "inception_4a/pool"
  pooling_param {
    pool: MAX
    kernel_size: 3
    stride: 1
    pad: 1
  }
}
layer {
  name: "inception_4a/pool_proj"
  type: "Convolution"
  bottom: "inception_4a/pool"
  top: "inception_4a/pool_proj"
  param {
    lr_mult: 1
    decay_mult: 1
  }
  param {
    lr_mult: 2
    decay_mult: 0
  }
  convolution_param {
    num_output: 64
    kernel_size: 1
    weight_filler {
      type: "xavier"
    }
    bias_filler {
      type: "constant"
      value: 0.2
    }
  }
}
layer {
  name: "inception_4a/relu_pool_proj"
  type: "ReLU"
  bottom: "inception_4a/pool_proj"
  top: "inception_4a/pool_proj"
}
layer {
  name: "inception_4a/output"
  type: "Concat"
  bottom: "inception_4a/1x1"
  bottom: "inception_4a/3x3"
  bottom: "inception_4a/5x5"
  bottom: "inception_4a/pool_proj"
  top: "inception_4a/output"
}
layer {
  name: "loss1/ave_pool"
  type: "Pooling"
  bottom: "inception_4a/output"
  top: "loss1/ave_pool"
  pooling_param {
    pool: AVE
    kernel_size: 5
    stride: 3
  }
}
layer {
  name: "loss1/conv"
  type: "Convolution"
  bottom: "loss1/ave_pool"
  top: "loss1/conv"
  param {
    lr_mult: 1
    decay_mult: 1
  }
  param {
    lr_mult: 2
    decay_mult: 0
  }
  convolution_param {
    num_output: 128
    kernel_size: 1
    weight_filler {
      type: "xavier"
    }
    bias_filler {
      type: "constant"
      value: 0.2
    }
  }
}
layer {
  name: "loss1/relu_conv"
  type: "ReLU"
  bottom: "loss1/conv"
  top: "loss1/conv"
}
layer {
  name: "loss1/fc"
  type: "InnerProduct"
  bottom: "loss1/conv"
  top: "loss1/fc"
  param {
    lr_mult: 1
    decay_mult: 1
  }
  param {
    lr_mult: 2
    decay_mult: 0
  }
  inner_product_param {
    num_output: 1024
    weight_filler {
      type: "xavier"
    }
    bias_filler {
      type: "constant"
      value: 0.2
    }
  }
}
layer {
  name: "loss1/relu_fc"
  type: "ReLU"
  bottom: "loss1/fc"
  top: "loss1/fc"
}
layer {
  name: "loss1/drop_fc"
  type: "Dropout"
  bottom: "loss1/fc"
  top: "loss1/fc"
  dropout_param {
    dropout_ratio: 0.7
  }
}
layer {
  name: "loss1/classifier_kaggle"
  type: "InnerProduct"
  bottom: "loss1/fc"
  top: "loss1/classifier_kaggle"
  param {
    lr_mult: 1
    decay_mult: 1
  }
  param {
    lr_mult: 2
    decay_mult: 0
  }
  inner_product_param {
    num_output: 447
    weight_filler {
      type: "xavier"
    }
    bias_filler {
      type: "constant"
      value: 0
    }
  }
}
layer {
  name: "loss1/loss"
  type: "SoftmaxWithLoss"
  bottom: "loss1/classifier_kaggle"
  bottom: "label"
  top: "loss1/loss1"
  loss_weight: 0.3
}
layer {
  name: "inception_4b/1x1"
  type: "Convolution"
  bottom: "inception_4a/output"
  top: "inception_4b/1x1"
  param {
    lr_mult: 1
    decay_mult: 1
  }
  param {
    lr_mult: 2
    decay_mult: 0
  }
  convolution_param {
    num_output: 160
    kernel_size: 1
    weight_filler {
      type: "xavier"
    }
    bias_filler {
      type: "constant"
      value: 0.2
    }
  }
}
layer {
  name: "inception_4b/relu_1x1"
  type: "ReLU"
  bottom: "inception_4b/1x1"
  top: "inception_4b/1x1"
}
layer {
  name: "inception_4b/3x3_reduce"
  type: "Convolution"
  bottom: "inception_4a/output"
  top: "inception_4b/3x3_reduce"
  param {
    lr_mult: 1
    decay_mult: 1
  }
  param {
    lr_mult: 2
    decay_mult: 0
  }
  convolution_param {
    num_output: 112
    kernel_size: 1
    weight_filler {
      type: "xavier"
    }
    bias_filler {
      type: "constant"
      value: 0.2
    }
  }
}
layer {
  name: "inception_4b/relu_3x3_reduce"
  type: "ReLU"
  bottom: "inception_4b/3x3_reduce"
  top: "inception_4b/3x3_reduce"
}
layer {
  name: "inception_4b/3x3"
  type: "Convolution"
  bottom: "inception_4b/3x3_reduce"
  top: "inception_4b/3x3"
  param {
    lr_mult: 1
    decay_mult: 1
  }
  param {
    lr_mult: 2
    decay_mult: 0
  }
  convolution_param {
    num_output: 224
    pad: 1
    kernel_size: 3
    weight_filler {
      type: "xavier"
    }
    bias_filler {
      type: "constant"
      value: 0.2
    }
  }
}
layer {
  name: "inception_4b/relu_3x3"
  type: "ReLU"
  bottom: "inception_4b/3x3"
  top: "inception_4b/3x3"
}
layer {
  name: "inception_4b/5x5_reduce"
  type: "Convolution"
  bottom: "inception_4a/output"
  top: "inception_4b/5x5_reduce"
  param {
    lr_mult: 1
    decay_mult: 1
  }
  param {
    lr_mult: 2
    decay_mult: 0
  }
  convolution_param {
    num_output: 24
    kernel_size: 1
    weight_filler {
      type: "xavier"
    }
    bias_filler {
      type: "constant"
      value: 0.2
    }
  }
}
layer {
  name: "inception_4b/relu_5x5_reduce"
  type: "ReLU"
  bottom: "inception_4b/5x5_reduce"
  top: "inception_4b/5x5_reduce"
}
layer {
  name: "inception_4b/5x5"
  type: "Convolution"
  bottom: "inception_4b/5x5_reduce"
  top: "inception_4b/5x5"
  param {
    lr_mult: 1
    decay_mult: 1
  }
  param {
    lr_mult: 2
    decay_mult: 0
  }
  convolution_param {
    num_output: 64
    pad: 2
    kernel_size: 5
    weight_filler {
      type: "xavier"
    }
    bias_filler {
      type: "constant"
      value: 0.2
    }
  }
}
layer {
  name: "inception_4b/relu_5x5"
  type: "ReLU"
  bottom: "inception_4b/5x5"
  top: "inception_4b/5x5"
}
layer {
  name: "inception_4b/pool"
  type: "Pooling"
  bottom: "inception_4a/output"
  top: "inception_4b/pool"
  pooling_param {
    pool: MAX
    kernel_size: 3
    stride: 1
    pad: 1
  }
}
layer {
  name: "inception_4b/pool_proj"
  type: "Convolution"
  bottom: "inception_4b/pool"
  top: "inception_4b/pool_proj"
  param {
    lr_mult: 1
    decay_mult: 1
  }
  param {
    lr_mult: 2
    decay_mult: 0
  }
  convolution_param {
    num_output: 64
    kernel_size: 1
    weight_filler {
      type: "xavier"
    }
    bias_filler {
      type: "constant"
      value: 0.2
    }
  }
}
layer {
  name: "inception_4b/relu_pool_proj"
  type: "ReLU"
  bottom: "inception_4b/pool_proj"
  top: "inception_4b/pool_proj"
}
layer {
  name: "inception_4b/output"
  type: "Concat"
  bottom: "inception_4b/1x1"
  bottom: "inception_4b/3x3"
  bottom: "inception_4b/5x5"
  bottom: "inception_4b/pool_proj"
  top: "inception_4b/output"
}
layer {
  name: "inception_4c/1x1"
  type: "Convolution"
  bottom: "inception_4b/output"
  top: "inception_4c/1x1"
  param {
    lr_mult: 1
    decay_mult: 1
  }
  param {
    lr_mult: 2
    decay_mult: 0
  }
  convolution_param {
    num_output: 128
    kernel_size: 1
    weight_filler {
      type: "xavier"
    }
    bias_filler {
      type: "constant"
      value: 0.2
    }
  }
}
layer {
  name: "inception_4c/relu_1x1"
  type: "ReLU"
  bottom: "inception_4c/1x1"
  top: "inception_4c/1x1"
}
layer {
  name: "inception_4c/3x3_reduce"
  type: "Convolution"
  bottom: "inception_4b/output"
  top: "inception_4c/3x3_reduce"
  param {
    lr_mult: 1
    decay_mult: 1
  }
  param {
    lr_mult: 2
    decay_mult: 0
  }
  convolution_param {
    num_output: 128
    kernel_size: 1
    weight_filler {
      type: "xavier"
    }
    bias_filler {
      type: "constant"
      value: 0.2
    }
  }
}
layer {
  name: "inception_4c/relu_3x3_reduce"
  type: "ReLU"
  bottom: "inception_4c/3x3_reduce"
  top: "inception_4c/3x3_reduce"
}
layer {
  name: "inception_4c/3x3"
  type: "Convolution"
  bottom: "inception_4c/3x3_reduce"
  top: "inception_4c/3x3"
  param {
    lr_mult: 1
    decay_mult: 1
  }
  param {
    lr_mult: 2
    decay_mult: 0
  }
  convolution_param {
    num_output: 256
    pad: 1
    kernel_size: 3
    weight_filler {
      type: "xavier"
    }
    bias_filler {
      type: "constant"
      value: 0.2
    }
  }
}
layer {
  name: "inception_4c/relu_3x3"
  type: "ReLU"
  bottom: "inception_4c/3x3"
  top: "inception_4c/3x3"
}
layer {
  name: "inception_4c/5x5_reduce"
  type: "Convolution"
  bottom: "inception_4b/output"
  top: "inception_4c/5x5_reduce"
  param {
    lr_mult: 1
    decay_mult: 1
  }
  param {
    lr_mult: 2
    decay_mult: 0
  }
  convolution_param {
    num_output: 24
    kernel_size: 1
    weight_filler {
      type: "xavier"
    }
    bias_filler {
      type: "constant"
      value: 0.2
    }
  }
}
layer {
  name: "inception_4c/relu_5x5_reduce"
  type: "ReLU"
  bottom: "inception_4c/5x5_reduce"
  top: "inception_4c/5x5_reduce"
}
layer {
  name: "inception_4c/5x5"
  type: "Convolution"
  bottom: "inception_4c/5x5_reduce"
  top: "inception_4c/5x5"
  param {
    lr_mult: 1
    decay_mult: 1
  }
  param {
    lr_mult: 2
    decay_mult: 0
  }
  convolution_param {
    num_output: 64
    pad: 2
    kernel_size: 5
    weight_filler {
      type: "xavier"
    }
    bias_filler {
      type: "constant"
      value: 0.2
    }
  }
}
layer {
  name: "inception_4c/relu_5x5"
  type: "ReLU"
  bottom: "inception_4c/5x5"
  top: "inception_4c/5x5"
}
layer {
  name: "inception_4c/pool"
  type: "Pooling"
  bottom: "inception_4b/output"
  top: "inception_4c/pool"
  pooling_param {
    pool: MAX
    kernel_size: 3
    stride: 1
    pad: 1
  }
}
layer {
  name: "inception_4c/pool_proj"
  type: "Convolution"
  bottom: "inception_4c/pool"
  top: "inception_4c/pool_proj"
  param {
    lr_mult: 1
    decay_mult: 1
  }
  param {
    lr_mult: 2
    decay_mult: 0
  }
  convolution_param {
    num_output: 64
    kernel_size: 1
    weight_filler {
      type: "xavier"
    }
    bias_filler {
      type: "constant"
      value: 0.2
    }
  }
}
layer {
  name: "inception_4c/relu_pool_proj"
  type: "ReLU"
  bottom: "inception_4c/pool_proj"
  top: "inception_4c/pool_proj"
}
layer {
  name: "inception_4c/output"
  type: "Concat"
  bottom: "inception_4c/1x1"
  bottom: "inception_4c/3x3"
  bottom: "inception_4c/5x5"
  bottom: "inception_4c/pool_proj"
  top: "inception_4c/output"
}
layer {
  name: "inception_4d/1x1"
  type: "Convolution"
  bottom: "inception_4c/output"
  top: "inception_4d/1x1"
  param {
    lr_mult: 1
    decay_mult: 1
  }
  param {
    lr_mult: 2
    decay_mult: 0
  }
  convolution_param {
    num_output: 112
    kernel_size: 1
    weight_filler {
      type: "xavier"
    }
    bias_filler {
      type: "constant"
      value: 0.2
    }
  }
}
layer {
  name: "inception_4d/relu_1x1"
  type: "ReLU"
  bottom: "inception_4d/1x1"
  top: "inception_4d/1x1"
}
layer {
  name: "inception_4d/3x3_reduce"
  type: "Convolution"
  bottom: "inception_4c/output"
  top: "inception_4d/3x3_reduce"
  param {
    lr_mult: 1
    decay_mult: 1
  }
  param {
    lr_mult: 2
    decay_mult: 0
  }
  convolution_param {
    num_output: 144
    kernel_size: 1
    weight_filler {
      type: "xavier"
    }
    bias_filler {
      type: "constant"
      value: 0.2
    }
  }
}
layer {
  name: "inception_4d/relu_3x3_reduce"
  type: "ReLU"
  bottom: "inception_4d/3x3_reduce"
  top: "inception_4d/3x3_reduce"
}
layer {
  name: "inception_4d/3x3"
  type: "Convolution"
  bottom: "inception_4d/3x3_reduce"
  top: "inception_4d/3x3"
  param {
    lr_mult: 1
    decay_mult: 1
  }
  param {
    lr_mult: 2
    decay_mult: 0
  }
  convolution_param {
    num_output: 288
    pad: 1
    kernel_size: 3
    weight_filler {
      type: "xavier"
    }
    bias_filler {
      type: "constant"
      value: 0.2
    }
  }
}
layer {
  name: "inception_4d/relu_3x3"
  type: "ReLU"
  bottom: "inception_4d/3x3"
  top: "inception_4d/3x3"
}
layer {
  name: "inception_4d/5x5_reduce"
  type: "Convolution"
  bottom: "inception_4c/output"
  top: "inception_4d/5x5_reduce"
  param {
    lr_mult: 1
    decay_mult: 1
  }
  param {
    lr_mult: 2
    decay_mult: 0
  }
  convolution_param {
    num_output: 32
    kernel_size: 1
    weight_filler {
      type: "xavier"
    }
    bias_filler {
      type: "constant"
      value: 0.2
    }
  }
}
layer {
  name: "inception_4d/relu_5x5_reduce"
  type: "ReLU"
  bottom: "inception_4d/5x5_reduce"
  top: "inception_4d/5x5_reduce"
}
layer {
  name: "inception_4d/5x5"
  type: "Convolution"
  bottom: "inception_4d/5x5_reduce"
  top: "inception_4d/5x5"
  param {
    lr_mult: 1
    decay_mult: 1
  }
  param {
    lr_mult: 2
    decay_mult: 0
  }
  convolution_param {
    num_output: 64
    pad: 2
    kernel_size: 5
    weight_filler {
      type: "xavier"
    }
    bias_filler {
      type: "constant"
      value: 0.2
    }
  }
}
layer {
  name: "inception_4d/relu_5x5"
  type: "ReLU"
  bottom: "inception_4d/5x5"
  top: "inception_4d/5x5"
}
layer {
  name: "inception_4d/pool"
  type: "Pooling"
  bottom: "inception_4c/output"
  top: "inception_4d/pool"
  pooling_param {
    pool: MAX
    kernel_size: 3
    stride: 1
    pad: 1
  }
}
layer {
  name: "inception_4d/pool_proj"
  type: "Convolution"
  bottom: "inception_4d/pool"
  top: "inception_4d/pool_proj"
  param {
    lr_mult: 1
    decay_mult: 1
  }
  param {
    lr_mult: 2
    decay_mult: 0
  }
  convolution_param {
    num_output: 64
    kernel_size: 1
    weight_filler {
      type: "xavier"
    }
    bias_filler {
      type: "constant"
      value: 0.2
    }
  }
}
layer {
  name: "inception_4d/relu_pool_proj"
  type: "ReLU"
  bottom: "inception_4d/pool_proj"
  top: "inception_4d/pool_proj"
}
layer {
  name: "inception_4d/output"
  type: "Concat"
  bottom: "inception_4d/1x1"
  bottom: "inception_4d/3x3"
  bottom: "inception_4d/5x5"
  bottom: "inception_4d/pool_proj"
  top: "inception_4d/output"
}
layer {
  name: "loss2/ave_pool"
  type: "Pooling"
  bottom: "inception_4d/output"
  top: "loss2/ave_pool"
  pooling_param {
    pool: AVE
    kernel_size: 5
    stride: 3
  }
}
layer {
  name: "loss2/conv"
  type: "Convolution"
  bottom: "loss2/ave_pool"
  top: "loss2/conv"
  param {
    lr_mult: 1
    decay_mult: 1
  }
  param {
    lr_mult: 2
    decay_mult: 0
  }
  convolution_param {
    num_output: 128
    kernel_size: 1
    weight_filler {
      type: "xavier"
    }
    bias_filler {
      type: "constant"
      value: 0.2
    }
  }
}
layer {
  name: "loss2/relu_conv"
  type: "ReLU"
  bottom: "loss2/conv"
  top: "loss2/conv"
}
layer {
  name: "loss2/fc"
  type: "InnerProduct"
  bottom: "loss2/conv"
  top: "loss2/fc"
  param {
    lr_mult: 1
    decay_mult: 1
  }
  param {
    lr_mult: 2
    decay_mult: 0
  }
  inner_product_param {
    num_output: 1024
    weight_filler {
      type: "xavier"
    }
    bias_filler {
      type: "constant"
      value: 0.2
    }
  }
}
layer {
  name: "loss2/relu_fc"
  type: "ReLU"
  bottom: "loss2/fc"
  top: "loss2/fc"
}
layer {
  name: "loss2/drop_fc"
  type: "Dropout"
  bottom: "loss2/fc"
  top: "loss2/fc"
  dropout_param {
    dropout_ratio: 0.7
  }
}
layer {
  name: "loss2/classifier_kaggle"
  type: "InnerProduct"
  bottom: "loss2/fc"
  top: "loss2/classifier_kaggle"
  param {
    lr_mult: 1
    decay_mult: 1
  }
  param {
    lr_mult: 2
    decay_mult: 0
  }
  inner_product_param {
    num_output: 447
    weight_filler {
      type: "xavier"
    }
    bias_filler {
      type: "constant"
      value: 0
    }
  }
}
layer {
  name: "loss2/loss"
  type: "SoftmaxWithLoss"
  bottom: "loss2/classifier_kaggle"
  bottom: "label"
  top: "loss2/loss1"
  loss_weight: 0.3
}
layer {
  name: "inception_4e/1x1"
  type: "Convolution"
  bottom: "inception_4d/output"
  top: "inception_4e/1x1"
  param {
    lr_mult: 1
    decay_mult: 1
  }
  param {
    lr_mult: 2
    decay_mult: 0
  }
  convolution_param {
    num_output: 256
    kernel_size: 1
    weight_filler {
      type: "xavier"
    }
    bias_filler {
      type: "constant"
      value: 0.2
    }
  }
}
layer {
  name: "inception_4e/relu_1x1"
  type: "ReLU"
  bottom: "inception_4e/1x1"
  top: "inception_4e/1x1"
}
layer {
  name: "inception_4e/3x3_reduce"
  type: "Convolution"
  bottom: "inception_4d/output"
  top: "inception_4e/3x3_reduce"
  param {
    lr_mult: 1
    decay_mult: 1
  }
  param {
    lr_mult: 2
    decay_mult: 0
  }
  convolution_param {
    num_output: 160
    kernel_size: 1
    weight_filler {
      type: "xavier"
    }
    bias_filler {
      type: "constant"
      value: 0.2
    }
  }
}
layer {
  name: "inception_4e/relu_3x3_reduce"
  type: "ReLU"
  bottom: "inception_4e/3x3_reduce"
  top: "inception_4e/3x3_reduce"
}
layer {
  name: "inception_4e/3x3"
  type: "Convolution"
  bottom: "inception_4e/3x3_reduce"
  top: "inception_4e/3x3"
  param {
    lr_mult: 1
    decay_mult: 1
  }
  param {
    lr_mult: 2
    decay_mult: 0
  }
  convolution_param {
    num_output: 320
    pad: 1
    kernel_size: 3
    weight_filler {
      type: "xavier"
    }
    bias_filler {
      type: "constant"
      value: 0.2
    }
  }
}
layer {
  name: "inception_4e/relu_3x3"
  type: "ReLU"
  bottom: "inception_4e/3x3"
  top: "inception_4e/3x3"
}
layer {
  name: "inception_4e/5x5_reduce"
  type: "Convolution"
  bottom: "inception_4d/output"
  top: "inception_4e/5x5_reduce"
  param {
    lr_mult: 1
    decay_mult: 1
  }
  param {
    lr_mult: 2
    decay_mult: 0
  }
  convolution_param {
    num_output: 32
    kernel_size: 1
    weight_filler {
      type: "xavier"
    }
    bias_filler {
      type: "constant"
      value: 0.2
    }
  }
}
layer {
  name: "inception_4e/relu_5x5_reduce"
  type: "ReLU"
  bottom: "inception_4e/5x5_reduce"
  top: "inception_4e/5x5_reduce"
}
layer {
  name: "inception_4e/5x5"
  type: "Convolution"
  bottom: "inception_4e/5x5_reduce"
  top: "inception_4e/5x5"
  param {
    lr_mult: 1
    decay_mult: 1
  }
  param {
    lr_mult: 2
    decay_mult: 0
  }
  convolution_param {
    num_output: 128
    pad: 2
    kernel_size: 5
    weight_filler {
      type: "xavier"
    }
    bias_filler {
      type: "constant"
      value: 0.2
    }
  }
}
layer {
  name: "inception_4e/relu_5x5"
  type: "ReLU"
  bottom: "inception_4e/5x5"
  top: "inception_4e/5x5"
}
layer {
  name: "inception_4e/pool"
  type: "Pooling"
  bottom: "inception_4d/output"
  top: "inception_4e/pool"
  pooling_param {
   
I1217 10:25:31.803015  8744 layer_factory.hpp:74] Creating layer data
I1217 10:25:31.803045  8744 net.cpp:84] Creating Layer data
I1217 10:25:31.803055  8744 net.cpp:338] data -> data
I1217 10:25:31.803093  8744 net.cpp:338] data -> label
I1217 10:25:31.803104  8744 net.cpp:113] Setting up data
I1217 10:25:31.803181  8744 db.cpp:34] Opened lmdb /home/coldmanck/kaggle/kaggle2_train_lmdb
I1217 10:25:31.803416  8744 data_layer.cpp:67] output data size: 80,3,224,224
I1217 10:25:31.967408  8744 net.cpp:120] Top shape: 80 3 224 224 (12042240)
I1217 10:25:31.967453  8744 net.cpp:120] Top shape: 80 (80)
I1217 10:25:31.967473  8744 layer_factory.hpp:74] Creating layer label_data_1_split
I1217 10:25:31.967571  8744 net.cpp:84] Creating Layer label_data_1_split
I1217 10:25:31.967588  8744 net.cpp:380] label_data_1_split <- label
I1217 10:25:31.967614  8744 net.cpp:338] label_data_1_split -> label_data_1_split_0
I1217 10:25:31.967631  8744 net.cpp:338] label_data_1_split -> label_data_1_split_1
I1217 10:25:31.967641  8744 net.cpp:338] label_data_1_split -> label_data_1_split_2
I1217 10:25:31.967650  8744 net.cpp:113] Setting up label_data_1_split
I1217 10:25:31.967663  8744 net.cpp:120] Top shape: 80 (80)
I1217 10:25:31.967681  8744 net.cpp:120] Top shape: 80 (80)
I1217 10:25:31.967699  8744 net.cpp:120] Top shape: 80 (80)
I1217 10:25:31.967705  8744 layer_factory.hpp:74] Creating layer conv1/7x7_s2
I1217 10:25:31.967720  8744 net.cpp:84] Creating Layer conv1/7x7_s2
I1217 10:25:31.967727  8744 net.cpp:380] conv1/7x7_s2 <- data
I1217 10:25:31.967737  8744 net.cpp:338] conv1/7x7_s2 -> conv1/7x7_s2
I1217 10:25:31.967749  8744 net.cpp:113] Setting up conv1/7x7_s2
I1217 10:25:32.329309  8744 net.cpp:120] Top shape: 80 64 112 112 (64225280)
I1217 10:25:32.329396  8744 layer_factory.hpp:74] Creating layer conv1/relu_7x7
I1217 10:25:32.329419  8744 net.cpp:84] Creating Layer conv1/relu_7x7
I1217 10:25:32.329430  8744 net.cpp:380] conv1/relu_7x7 <- conv1/7x7_s2
I1217 10:25:32.329445  8744 net.cpp:327] conv1/relu_7x7 -> conv1/7x7_s2 (in-place)
I1217 10:25:32.329463  8744 net.cpp:113] Setting up conv1/relu_7x7
I1217 10:25:32.333761  8744 net.cpp:120] Top shape: 80 64 112 112 (64225280)
I1217 10:25:32.333776  8744 layer_factory.hpp:74] Creating layer pool1/3x3_s2
I1217 10:25:32.333794  8744 net.cpp:84] Creating Layer pool1/3x3_s2
I1217 10:25:32.333804  8744 net.cpp:380] pool1/3x3_s2 <- conv1/7x7_s2
I1217 10:25:32.333817  8744 net.cpp:338] pool1/3x3_s2 -> pool1/3x3_s2
I1217 10:25:32.333830  8744 net.cpp:113] Setting up pool1/3x3_s2
I1217 10:25:32.333955  8744 net.cpp:120] Top shape: 80 64 56 56 (16056320)
I1217 10:25:32.334211  8744 layer_factory.hpp:74] Creating layer pool1/norm1
I1217 10:25:32.334234  8744 net.cpp:84] Creating Layer pool1/norm1
I1217 10:25:32.334244  8744 net.cpp:380] pool1/norm1 <- pool1/3x3_s2
I1217 10:25:32.334255  8744 net.cpp:338] pool1/norm1 -> pool1/norm1
I1217 10:25:32.334270  8744 net.cpp:113] Setting up pool1/norm1
I1217 10:25:32.334285  8744 net.cpp:120] Top shape: 80 64 56 56 (16056320)
I1217 10:25:32.334306  8744 layer_factory.hpp:74] Creating layer conv2/3x3_reduce
I1217 10:25:32.334341  8744 net.cpp:84] Creating Layer conv2/3x3_reduce
I1217 10:25:32.334352  8744 net.cpp:380] conv2/3x3_reduce <- pool1/norm1
I1217 10:25:32.334372  8744 net.cpp:338] conv2/3x3_reduce -> conv2/3x3_reduce
I1217 10:25:32.334391  8744 net.cpp:113] Setting up conv2/3x3_reduce
I1217 10:25:32.334969  8744 net.cpp:120] Top shape: 80 64 56 56 (16056320)
I1217 10:25:32.334990  8744 layer_factory.hpp:74] Creating layer conv2/relu_3x3_reduce
I1217 10:25:32.335000  8744 net.cpp:84] Creating Layer conv2/relu_3x3_reduce
I1217 10:25:32.335005  8744 net.cpp:380] conv2/relu_3x3_reduce <- conv2/3x3_reduce
I1217 10:25:32.335012  8744 net.cpp:327] conv2/relu_3x3_reduce -> conv2/3x3_reduce (in-place)
I1217 10:25:32.335021  8744 net.cpp:113] Setting up conv2/relu_3x3_reduce
I1217 10:25:32.335105  8744 net.cpp:120] Top shape: 80 64 56 56 (16056320)
I1217 10:25:32.335119  8744 layer_factory.hpp:74] Creating layer conv2/3x3
I1217 10:25:32.335134  8744 net.cpp:84] Creating Layer conv2/3x3
I1217 10:25:32.335144  8744 net.cpp:380] conv2/3x3 <- conv2/3x3_reduce
I1217 10:25:32.335156  8744 net.cpp:338] conv2/3x3 -> conv2/3x3
I1217 10:25:32.335170  8744 net.cpp:113] Setting up conv2/3x3
I1217 10:25:32.337471  8744 net.cpp:120] Top shape: 80 192 56 56 (48168960)
I1217 10:25:32.337492  8744 layer_factory.hpp:74] Creating layer conv2/relu_3x3
I1217 10:25:32.337613  8744 net.cpp:84] Creating Layer conv2/relu_3x3
I1217 10:25:32.337623  8744 net.cpp:380] conv2/relu_3x3 <- conv2/3x3
I1217 10:25:32.337635  8744 net.cpp:327] conv2/relu_3x3 -> conv2/3x3 (in-place)
I1217 10:25:32.337647  8744 net.cpp:113] Setting up conv2/relu_3x3
I1217 10:25:32.338695  8744 net.cpp:120] Top shape: 80 192 56 56 (48168960)
I1217 10:25:32.338724  8744 layer_factory.hpp:74] Creating layer conv2/norm2
I1217 10:25:32.338737  8744 net.cpp:84] Creating Layer conv2/norm2
I1217 10:25:32.338745  8744 net.cpp:380] conv2/norm2 <- conv2/3x3
I1217 10:25:32.338767  8744 net.cpp:338] conv2/norm2 -> conv2/norm2
I1217 10:25:32.338781  8744 net.cpp:113] Setting up conv2/norm2
I1217 10:25:32.338796  8744 net.cpp:120] Top shape: 80 192 56 56 (48168960)
I1217 10:25:32.338851  8744 layer_factory.hpp:74] Creating layer pool2/3x3_s2
I1217 10:25:32.338891  8744 net.cpp:84] Creating Layer pool2/3x3_s2
I1217 10:25:32.338901  8744 net.cpp:380] pool2/3x3_s2 <- conv2/norm2
I1217 10:25:32.338913  8744 net.cpp:338] pool2/3x3_s2 -> pool2/3x3_s2
I1217 10:25:32.338927  8744 net.cpp:113] Setting up pool2/3x3_s2
I1217 10:25:32.339673  8744 net.cpp:120] Top shape: 80 192 28 28 (12042240)
I1217 10:25:32.339689  8744 layer_factory.hpp:74] Creating layer pool2/3x3_s2_pool2/3x3_s2_0_split
I1217 10:25:32.339725  8744 net.cpp:84] Creating Layer pool2/3x3_s2_pool2/3x3_s2_0_split
I1217 10:25:32.339733  8744 net.cpp:380] pool2/3x3_s2_pool2/3x3_s2_0_split <- pool2/3x3_s2
I1217 10:25:32.339745  8744 net.cpp:338] pool2/3x3_s2_pool2/3x3_s2_0_split -> pool2/3x3_s2_pool2/3x3_s2_0_split_0
I1217 10:25:32.339759  8744 net.cpp:338] pool2/3x3_s2_pool2/3x3_s2_0_split -> pool2/3x3_s2_pool2/3x3_s2_0_split_1
I1217 10:25:32.339771  8744 net.cpp:338] pool2/3x3_s2_pool2/3x3_s2_0_split -> pool2/3x3_s2_pool2/3x3_s2_0_split_2
I1217 10:25:32.339783  8744 net.cpp:338] pool2/3x3_s2_pool2/3x3_s2_0_split -> pool2/3x3_s2_pool2/3x3_s2_0_split_3
I1217 10:25:32.339794  8744 net.cpp:113] Setting up pool2/3x3_s2_pool2/3x3_s2_0_split
I1217 10:25:32.339809  8744 net.cpp:120] Top shape: 80 192 28 28 (12042240)
I1217 10:25:32.339819  8744 net.cpp:120] Top shape: 80 192 28 28 (12042240)
I1217 10:25:32.339828  8744 net.cpp:120] Top shape: 80 192 28 28 (12042240)
I1217 10:25:32.339838  8744 net.cpp:120] Top shape: 80 192 28 28 (12042240)
I1217 10:25:32.339845  8744 layer_factory.hpp:74] Creating layer inception_3a/1x1
I1217 10:25:32.339867  8744 net.cpp:84] Creating Layer inception_3a/1x1
I1217 10:25:32.339877  8744 net.cpp:380] inception_3a/1x1 <- pool2/3x3_s2_pool2/3x3_s2_0_split_0
I1217 10:25:32.339890  8744 net.cpp:338] inception_3a/1x1 -> inception_3a/1x1
I1217 10:25:32.339905  8744 net.cpp:113] Setting up inception_3a/1x1
I1217 10:25:32.340623  8744 net.cpp:120] Top shape: 80 64 28 28 (4014080)
I1217 10:25:32.340646  8744 layer_factory.hpp:74] Creating layer inception_3a/relu_1x1
I1217 10:25:32.340658  8744 net.cpp:84] Creating Layer inception_3a/relu_1x1
I1217 10:25:32.340667  8744 net.cpp:380] inception_3a/relu_1x1 <- inception_3a/1x1
I1217 10:25:32.340688  8744 net.cpp:327] inception_3a/relu_1x1 -> inception_3a/1x1 (in-place)
I1217 10:25:32.340703  8744 net.cpp:113] Setting up inception_3a/relu_1x1
I1217 10:25:32.340821  8744 net.cpp:120] Top shape: 80 64 28 28 (4014080)
I1217 10:25:32.340834  8744 layer_factory.hpp:74] Creating layer inception_3a/3x3_reduce
I1217 10:25:32.340847  8744 net.cpp:84] Creating Layer inception_3a/3x3_reduce
I1217 10:25:32.340857  8744 net.cpp:380] inception_3a/3x3_reduce <- pool2/3x3_s2_pool2/3x3_s2_0_split_1
I1217 10:25:32.340868  8744 net.cpp:338] inception_3a/3x3_reduce -> inception_3a/3x3_reduce
I1217 10:25:32.340883  8744 net.cpp:113] Setting up inception_3a/3x3_reduce
I1217 10:25:32.341645  8744 net.cpp:120] Top shape: 80 96 28 28 (6021120)
I1217 10:25:32.341665  8744 layer_factory.hpp:74] Creating layer inception_3a/relu_3x3_reduce
I1217 10:25:32.341673  8744 net.cpp:84] Creating Layer inception_3a/relu_3x3_reduce
I1217 10:25:32.341678  8744 net.cpp:380] inception_3a/relu_3x3_reduce <- inception_3a/3x3_reduce
I1217 10:25:32.341701  8744 net.cpp:327] inception_3a/relu_3x3_reduce -> inception_3a/3x3_reduce (in-place)
I1217 10:25:32.341716  8744 net.cpp:113] Setting up inception_3a/relu_3x3_reduce
I1217 10:25:32.341827  8744 net.cpp:120] Top shape: 80 96 28 28 (6021120)
I1217 10:25:32.341840  8744 layer_factory.hpp:74] Creating layer inception_3a/3x3
I1217 10:25:32.341868  8744 net.cpp:84] Creating Layer inception_3a/3x3
I1217 10:25:32.341878  8744 net.cpp:380] inception_3a/3x3 <- inception_3a/3x3_reduce
I1217 10:25:32.341889  8744 net.cpp:338] inception_3a/3x3 -> inception_3a/3x3
I1217 10:25:32.341898  8744 net.cpp:113] Setting up inception_3a/3x3
I1217 10:25:32.343926  8744 net.cpp:120] Top shape: 80 128 28 28 (8028160)
I1217 10:25:32.343951  8744 layer_factory.hpp:74] Creating layer inception_3a/relu_3x3
I1217 10:25:32.343971  8744 net.cpp:84] Creating Layer inception_3a/relu_3x3
I1217 10:25:32.343988  8744 net.cpp:380] inception_3a/relu_3x3 <- inception_3a/3x3
I1217 10:25:32.344000  8744 net.cpp:327] inception_3a/relu_3x3 -> inception_3a/3x3 (in-place)
I1217 10:25:32.344012  8744 net.cpp:113] Setting up inception_3a/relu_3x3
I1217 10:25:32.344364  8744 net.cpp:120] Top shape: 80 128 28 28 (8028160)
I1217 10:25:32.344382  8744 layer_factory.hpp:74] Creating layer inception_3a/5x5_reduce
I1217 10:25:32.344398  8744 net.cpp:84] Creating Layer inception_3a/5x5_reduce
I1217 10:25:32.344408  8744 net.cpp:380] inception_3a/5x5_reduce <- pool2/3x3_s2_pool2/3x3_s2_0_split_2
I1217 10:25:32.344419  8744 net.cpp:338] inception_3a/5x5_reduce -> inception_3a/5x5_reduce
I1217 10:25:32.344439  8744 net.cpp:113] Setting up inception_3a/5x5_reduce
I1217 10:25:32.345089  8744 net.cpp:120] Top shape: 80 16 28 28 (1003520)
I1217 10:25:32.345113  8744 layer_factory.hpp:74] Creating layer inception_3a/relu_5x5_reduce
I1217 10:25:32.345139  8744 net.cpp:84] Creating Layer inception_3a/relu_5x5_reduce
I1217 10:25:32.345150  8744 net.cpp:380] inception_3a/relu_5x5_reduce <- inception_3a/5x5_reduce
I1217 10:25:32.345161  8744 net.cpp:327] inception_3a/relu_5x5_reduce -> inception_3a/5x5_reduce (in-place)
I1217 10:25:32.345175  8744 net.cpp:113] Setting up inception_3a/relu_5x5_reduce
I1217 10:25:32.345283  8744 net.cpp:120] Top shape: 80 16 28 28 (1003520)
I1217 10:25:32.345296  8744 layer_factory.hpp:74] Creating layer inception_3a/5x5
I1217 10:25:32.345312  8744 net.cpp:84] Creating Layer inception_3a/5x5
I1217 10:25:32.345320  8744 net.cpp:380] inception_3a/5x5 <- inception_3a/5x5_reduce
I1217 10:25:32.345335  8744 net.cpp:338] inception_3a/5x5 -> inception_3a/5x5
I1217 10:25:32.345350  8744 net.cpp:113] Setting up inception_3a/5x5
I1217 10:25:32.346124  8744 net.cpp:120] Top shape: 80 32 28 28 (2007040)
I1217 10:25:32.346146  8744 layer_factory.hpp:74] Creating layer inception_3a/relu_5x5
I1217 10:25:32.346179  8744 net.cpp:84] Creating Layer inception_3a/relu_5x5
I1217 10:25:32.346189  8744 net.cpp:380] inception_3a/relu_5x5 <- inception_3a/5x5
I1217 10:25:32.346201  8744 net.cpp:327] inception_3a/relu_5x5 -> inception_3a/5x5 (in-place)
I1217 10:25:32.346213  8744 net.cpp:113] Setting up inception_3a/relu_5x5
I1217 10:25:32.346315  8744 net.cpp:120] Top shape: 80 32 28 28 (2007040)
I1217 10:25:32.346328  8744 layer_factory.hpp:74] Creating layer inception_3a/pool
I1217 10:25:32.346338  8744 layer_factory.cpp:56] CUDNN does not support padding or multiple tops. Using Caffe's own pooling layer.
I1217 10:25:32.346364  8744 net.cpp:84] Creating Layer inception_3a/pool
I1217 10:25:32.346374  8744 net.cpp:380] inception_3a/pool <- pool2/3x3_s2_pool2/3x3_s2_0_split_3
I1217 10:25:32.346386  8744 net.cpp:338] inception_3a/pool -> inception_3a/pool
I1217 10:25:32.346403  8744 net.cpp:113] Setting up inception_3a/pool
I1217 10:25:32.346418  8744 net.cpp:120] Top shape: 80 192 28 28 (12042240)
I1217 10:25:32.346427  8744 layer_factory.hpp:74] Creating layer inception_3a/pool_proj
I1217 10:25:32.346441  8744 net.cpp:84] Creating Layer inception_3a/pool_proj
I1217 10:25:32.346449  8744 net.cpp:380] inception_3a/pool_proj <- inception_3a/pool
I1217 10:25:32.346463  8744 net.cpp:338] inception_3a/pool_proj -> inception_3a/pool_proj
I1217 10:25:32.346477  8744 net.cpp:113] Setting up inception_3a/pool_proj
I1217 10:25:32.347110  8744 net.cpp:120] Top shape: 80 32 28 28 (2007040)
I1217 10:25:32.347138  8744 layer_factory.hpp:74] Creating layer inception_3a/relu_pool_proj
I1217 10:25:32.347151  8744 net.cpp:84] Creating Layer inception_3a/relu_pool_proj
I1217 10:25:32.347162  8744 net.cpp:380] inception_3a/relu_pool_proj <- inception_3a/pool_proj
I1217 10:25:32.347174  8744 net.cpp:327] inception_3a/relu_pool_proj -> inception_3a/pool_proj (in-place)
I1217 10:25:32.347185  8744 net.cpp:113] Setting up inception_3a/relu_pool_proj
I1217 10:25:32.347287  8744 net.cpp:120] Top shape: 80 32 28 28 (2007040)
I1217 10:25:32.347301  8744 layer_factory.hpp:74] Creating layer inception_3a/output
I1217 10:25:32.347326  8744 net.cpp:84] Creating Layer inception_3a/output
I1217 10:25:32.347355  8744 net.cpp:380] inception_3a/output <- inception_3a/1x1
I1217 10:25:32.347368  8744 net.cpp:380] inception_3a/output <- inception_3a/3x3
I1217 10:25:32.347376  8744 net.cpp:380] inception_3a/output <- inception_3a/5x5
I1217 10:25:32.347384  8744 net.cpp:380] inception_3a/output <- inception_3a/pool_proj
I1217 10:25:32.347395  8744 net.cpp:338] inception_3a/output -> inception_3a/output
I1217 10:25:32.347409  8744 net.cpp:113] Setting up inception_3a/output
I1217 10:25:32.347429  8744 net.cpp:120] Top shape: 80 256 28 28 (16056320)
I1217 10:25:32.347447  8744 layer_factory.hpp:74] Creating layer inception_3a/output_inception_3a/output_0_split
I1217 10:25:32.347460  8744 net.cpp:84] Creating Layer inception_3a/output_inception_3a/output_0_split
I1217 10:25:32.347467  8744 net.cpp:380] inception_3a/output_inception_3a/output_0_split <- inception_3a/output
I1217 10:25:32.347481  8744 net.cpp:338] inception_3a/output_inception_3a/output_0_split -> inception_3a/output_inception_3a/output_0_split_0
I1217 10:25:32.347494  8744 net.cpp:338] inception_3a/output_inception_3a/output_0_split -> inception_3a/output_inception_3a/output_0_split_1
I1217 10:25:32.347506  8744 net.cpp:338] inception_3a/output_inception_3a/output_0_split -> inception_3a/output_inception_3a/output_0_split_2
I1217 10:25:32.347518  8744 net.cpp:338] inception_3a/output_inception_3a/output_0_split -> inception_3a/output_inception_3a/output_0_split_3
I1217 10:25:32.347528  8744 net.cpp:113] Setting up inception_3a/output_inception_3a/output_0_split
I1217 10:25:32.347542  8744 net.cpp:120] Top shape: 80 256 28 28 (16056320)
I1217 10:25:32.347553  8744 net.cpp:120] Top shape: 80 256 28 28 (16056320)
I1217 10:25:32.347561  8744 net.cpp:120] Top shape: 80 256 28 28 (16056320)
I1217 10:25:32.347570  8744 net.cpp:120] Top shape: 80 256 28 28 (16056320)
I1217 10:25:32.347578  8744 layer_factory.hpp:74] Creating layer inception_3b/1x1
I1217 10:25:32.347604  8744 net.cpp:84] Creating Layer inception_3b/1x1
I1217 10:25:32.347615  8744 net.cpp:380] inception_3b/1x1 <- inception_3a/output_inception_3a/output_0_split_0
I1217 10:25:32.347637  8744 net.cpp:338] inception_3b/1x1 -> inception_3b/1x1
I1217 10:25:32.347652  8744 net.cpp:113] Setting up inception_3b/1x1
I1217 10:25:32.348722  8744 net.cpp:120] Top shape: 80 128 28 28 (8028160)
I1217 10:25:32.348744  8744 layer_factory.hpp:74] Creating layer inception_3b/relu_1x1
I1217 10:25:32.348757  8744 net.cpp:84] Creating Layer inception_3b/relu_1x1
I1217 10:25:32.348765  8744 net.cpp:380] inception_3b/relu_1x1 <- inception_3b/1x1
I1217 10:25:32.348779  8744 net.cpp:327] inception_3b/relu_1x1 -> inception_3b/1x1 (in-place)
I1217 10:25:32.348793  8744 net.cpp:113] Setting up inception_3b/relu_1x1
I1217 10:25:32.349169  8744 net.cpp:120] Top shape: 80 128 28 28 (8028160)
I1217 10:25:32.349186  8744 layer_factory.hpp:74] Creating layer inception_3b/3x3_reduce
I1217 10:25:32.349203  8744 net.cpp:84] Creating Layer inception_3b/3x3_reduce
I1217 10:25:32.349213  8744 net.cpp:380] inception_3b/3x3_reduce <- inception_3a/output_inception_3a/output_0_split_1
I1217 10:25:32.349231  8744 net.cpp:338] inception_3b/3x3_reduce -> inception_3b/3x3_reduce
I1217 10:25:32.349247  8744 net.cpp:113] Setting up inception_3b/3x3_reduce
I1217 10:25:32.350286  8744 net.cpp:120] Top shape: 80 128 28 28 (8028160)
I1217 10:25:32.350311  8744 layer_factory.hpp:74] Creating layer inception_3b/relu_3x3_reduce
I1217 10:25:32.350342  8744 net.cpp:84] Creating Layer inception_3b/relu_3x3_reduce
I1217 10:25:32.350353  8744 net.cpp:380] inception_3b/relu_3x3_reduce <- inception_3b/3x3_reduce
I1217 10:25:32.350363  8744 net.cpp:327] inception_3b/relu_3x3_reduce -> inception_3b/3x3_reduce (in-place)
I1217 10:25:32.350375  8744 net.cpp:113] Setting up inception_3b/relu_3x3_reduce
I1217 10:25:32.350492  8744 net.cpp:120] Top shape: 80 128 28 28 (8028160)
I1217 10:25:32.350507  8744 layer_factory.hpp:74] Creating layer inception_3b/3x3
I1217 10:25:32.350530  8744 net.cpp:84] Creating Layer inception_3b/3x3
I1217 10:25:32.350556  8744 net.cpp:380] inception_3b/3x3 <- inception_3b/3x3_reduce
I1217 10:25:32.350572  8744 net.cpp:338] inception_3b/3x3 -> inception_3b/3x3
I1217 10:25:32.350587  8744 net.cpp:113] Setting up inception_3b/3x3
I1217 10:25:32.354135  8744 net.cpp:120] Top shape: 80 192 28 28 (12042240)
I1217 10:25:32.354161  8744 layer_factory.hpp:74] Creating layer inception_3b/relu_3x3
I1217 10:25:32.354177  8744 net.cpp:84] Creating Layer inception_3b/relu_3x3
I1217 10:25:32.354187  8744 net.cpp:380] inception_3b/relu_3x3 <- inception_3b/3x3
I1217 10:25:32.354199  8744 net.cpp:327] inception_3b/relu_3x3 -> inception_3b/3x3 (in-place)
I1217 10:25:32.354212  8744 net.cpp:113] Setting up inception_3b/relu_3x3
I1217 10:25:32.354306  8744 net.cpp:120] Top shape: 80 192 28 28 (12042240)
I1217 10:25:32.354320  8744 layer_factory.hpp:74] Creating layer inception_3b/5x5_reduce
I1217 10:25:32.354346  8744 net.cpp:84] Creating Layer inception_3b/5x5_reduce
I1217 10:25:32.354358  8744 net.cpp:380] inception_3b/5x5_reduce <- inception_3a/output_inception_3a/output_0_split_2
I1217 10:25:32.354375  8744 net.cpp:338] inception_3b/5x5_reduce -> inception_3b/5x5_reduce
I1217 10:25:32.354389  8744 net.cpp:113] Setting up inception_3b/5x5_reduce
I1217 10:25:32.355118  8744 net.cpp:120] Top shape: 80 32 28 28 (2007040)
I1217 10:25:32.355137  8744 layer_factory.hpp:74] Creating layer inception_3b/relu_5x5_reduce
I1217 10:25:32.355147  8744 net.cpp:84] Creating Layer inception_3b/relu_5x5_reduce
I1217 10:25:32.355159  8744 net.cpp:380] inception_3b/relu_5x5_reduce <- inception_3b/5x5_reduce
I1217 10:25:32.355170  8744 net.cpp:327] inception_3b/relu_5x5_reduce -> inception_3b/5x5_reduce (in-place)
I1217 10:25:32.355182  8744 net.cpp:113] Setting up inception_3b/relu_5x5_reduce
I1217 10:25:32.355288  8744 net.cpp:120] Top shape: 80 32 28 28 (2007040)
I1217 10:25:32.355311  8744 layer_factory.hpp:74] Creating layer inception_3b/5x5
I1217 10:25:32.355329  8744 net.cpp:84] Creating Layer inception_3b/5x5
I1217 10:25:32.355336  8744 net.cpp:380] inception_3b/5x5 <- inception_3b/5x5_reduce
I1217 10:25:32.355352  8744 net.cpp:338] inception_3b/5x5 -> inception_3b/5x5
I1217 10:25:32.355367  8744 net.cpp:113] Setting up inception_3b/5x5
I1217 10:25:32.356943  8744 net.cpp:120] Top shape: 80 96 28 28 (6021120)
I1217 10:25:32.356966  8744 layer_factory.hpp:74] Creating layer inception_3b/relu_5x5
I1217 10:25:32.356991  8744 net.cpp:84] Creating Layer inception_3b/relu_5x5
I1217 10:25:32.357002  8744 net.cpp:380] inception_3b/relu_5x5 <- inception_3b/5x5
I1217 10:25:32.357015  8744 net.cpp:327] inception_3b/relu_5x5 -> inception_3b/5x5 (in-place)
I1217 10:25:32.357028  8744 net.cpp:113] Setting up inception_3b/relu_5x5
I1217 10:25:32.357386  8744 net.cpp:120] Top shape: 80 96 28 28 (6021120)
I1217 10:25:32.357403  8744 layer_factory.hpp:74] Creating layer inception_3b/pool
I1217 10:25:32.357411  8744 layer_factory.cpp:56] CUDNN does not support padding or multiple tops. Using Caffe's own pooling layer.
I1217 10:25:32.357422  8744 net.cpp:84] Creating Layer inception_3b/pool
I1217 10:25:32.357432  8744 net.cpp:380] inception_3b/pool <- inception_3a/output_inception_3a/output_0_split_3
I1217 10:25:32.357450  8744 net.cpp:338] inception_3b/pool -> inception_3b/pool
I1217 10:25:32.357463  8744 net.cpp:113] Setting up inception_3b/pool
I1217 10:25:32.357481  8744 net.cpp:120] Top shape: 80 256 28 28 (16056320)
I1217 10:25:32.357491  8744 layer_factory.hpp:74] Creating layer inception_3b/pool_proj
I1217 10:25:32.357507  8744 net.cpp:84] Creating Layer inception_3b/pool_proj
I1217 10:25:32.357517  8744 net.cpp:380] inception_3b/pool_proj <- inception_3b/pool
I1217 10:25:32.357528  8744 net.cpp:338] inception_3b/pool_proj -> inception_3b/pool_proj
I1217 10:25:32.357543  8744 net.cpp:113] Setting up inception_3b/pool_proj
I1217 10:25:32.358366  8744 net.cpp:120] Top shape: 80 64 28 28 (4014080)
I1217 10:25:32.358386  8744 layer_factory.hpp:74] Creating layer inception_3b/relu_pool_proj
I1217 10:25:32.358412  8744 net.cpp:84] Creating Layer inception_3b/relu_pool_proj
I1217 10:25:32.358433  8744 net.cpp:380] inception_3b/relu_pool_proj <- inception_3b/pool_proj
I1217 10:25:32.358446  8744 net.cpp:327] inception_3b/relu_pool_proj -> inception_3b/pool_proj (in-place)
I1217 10:25:32.358459  8744 net.cpp:113] Setting up inception_3b/relu_pool_proj
I1217 10:25:32.358568  8744 net.cpp:120] Top shape: 80 64 28 28 (4014080)
I1217 10:25:32.358588  8744 layer_factory.hpp:74] Creating layer inception_3b/output
I1217 10:25:32.358611  8744 net.cpp:84] Creating Layer inception_3b/output
I1217 10:25:32.358620  8744 net.cpp:380] inception_3b/output <- inception_3b/1x1
I1217 10:25:32.358631  8744 net.cpp:380] inception_3b/output <- inception_3b/3x3
I1217 10:25:32.358642  8744 net.cpp:380] inception_3b/output <- inception_3b/5x5
I1217 10:25:32.358651  8744 net.cpp:380] inception_3b/output <- inception_3b/pool_proj
I1217 10:25:32.358661  8744 net.cpp:338] inception_3b/output -> inception_3b/output
I1217 10:25:32.358674  8744 net.cpp:113] Setting up inception_3b/output
I1217 10:25:32.358683  8744 net.cpp:120] Top shape: 80 480 28 28 (30105600)
I1217 10:25:32.358688  8744 layer_factory.hpp:74] Creating layer pool3/3x3_s2
I1217 10:25:32.358700  8744 net.cpp:84] Creating Layer pool3/3x3_s2
I1217 10:25:32.358710  8744 net.cpp:380] pool3/3x3_s2 <- inception_3b/output
I1217 10:25:32.358723  8744 net.cpp:338] pool3/3x3_s2 -> pool3/3x3_s2
I1217 10:25:32.358737  8744 net.cpp:113] Setting up pool3/3x3_s2
I1217 10:25:32.358847  8744 net.cpp:120] Top shape: 80 480 14 14 (7526400)
I1217 10:25:32.358860  8744 layer_factory.hpp:74] Creating layer pool3/3x3_s2_pool3/3x3_s2_0_split
I1217 10:25:32.358875  8744 net.cpp:84] Creating Layer pool3/3x3_s2_pool3/3x3_s2_0_split
I1217 10:25:32.358885  8744 net.cpp:380] pool3/3x3_s2_pool3/3x3_s2_0_split <- pool3/3x3_s2
I1217 10:25:32.358894  8744 net.cpp:338] pool3/3x3_s2_pool3/3x3_s2_0_split -> pool3/3x3_s2_pool3/3x3_s2_0_split_0
I1217 10:25:32.358902  8744 net.cpp:338] pool3/3x3_s2_pool3/3x3_s2_0_split -> pool3/3x3_s2_pool3/3x3_s2_0_split_1
I1217 10:25:32.358912  8744 net.cpp:338] pool3/3x3_s2_pool3/3x3_s2_0_split -> pool3/3x3_s2_pool3/3x3_s2_0_split_2
I1217 10:25:32.358921  8744 net.cpp:338] pool3/3x3_s2_pool3/3x3_s2_0_split -> pool3/3x3_s2_pool3/3x3_s2_0_split_3
I1217 10:25:32.358927  8744 net.cpp:113] Setting up pool3/3x3_s2_pool3/3x3_s2_0_split
I1217 10:25:32.358940  8744 net.cpp:120] Top shape: 80 480 14 14 (7526400)
I1217 10:25:32.358950  8744 net.cpp:120] Top shape: 80 480 14 14 (7526400)
I1217 10:25:32.358960  8744 net.cpp:120] Top shape: 80 480 14 14 (7526400)
I1217 10:25:32.358969  8744 net.cpp:120] Top shape: 80 480 14 14 (7526400)
I1217 10:25:32.358978  8744 layer_factory.hpp:74] Creating layer inception_4a/1x1
I1217 10:25:32.358999  8744 net.cpp:84] Creating Layer inception_4a/1x1
I1217 10:25:32.359009  8744 net.cpp:380] inception_4a/1x1 <- pool3/3x3_s2_pool3/3x3_s2_0_split_0
I1217 10:25:32.359026  8744 net.cpp:338] inception_4a/1x1 -> inception_4a/1x1
I1217 10:25:32.359040  8744 net.cpp:113] Setting up inception_4a/1x1
I1217 10:25:32.360844  8744 net.cpp:120] Top shape: 80 192 14 14 (3010560)
I1217 10:25:32.360869  8744 layer_factory.hpp:74] Creating layer inception_4a/relu_1x1
I1217 10:25:32.360891  8744 net.cpp:84] Creating Layer inception_4a/relu_1x1
I1217 10:25:32.360903  8744 net.cpp:380] inception_4a/relu_1x1 <- inception_4a/1x1
I1217 10:25:32.360918  8744 net.cpp:327] inception_4a/relu_1x1 -> inception_4a/1x1 (in-place)
I1217 10:25:32.360929  8744 net.cpp:113] Setting up inception_4a/relu_1x1
I1217 10:25:32.361294  8744 net.cpp:120] Top shape: 80 192 14 14 (3010560)
I1217 10:25:32.361313  8744 layer_factory.hpp:74] Creating layer inception_4a/3x3_reduce
I1217 10:25:32.361330  8744 net.cpp:84] Creating Layer inception_4a/3x3_reduce
I1217 10:25:32.361340  8744 net.cpp:380] inception_4a/3x3_reduce <- pool3/3x3_s2_pool3/3x3_s2_0_split_1
I1217 10:25:32.361356  8744 net.cpp:338] inception_4a/3x3_reduce -> inception_4a/3x3_reduce
I1217 10:25:32.361373  8744 net.cpp:113] Setting up inception_4a/3x3_reduce
I1217 10:25:32.362552  8744 net.cpp:120] Top shape: 80 96 14 14 (1505280)
I1217 10:25:32.362593  8744 layer_factory.hpp:74] Creating layer inception_4a/relu_3x3_reduce
I1217 10:25:32.362604  8744 net.cpp:84] Creating Layer inception_4a/relu_3x3_reduce
I1217 10:25:32.362614  8744 net.cpp:380] inception_4a/relu_3x3_reduce <- inception_4a/3x3_reduce
I1217 10:25:32.362627  8744 net.cpp:327] inception_4a/relu_3x3_reduce -> inception_4a/3x3_reduce (in-place)
I1217 10:25:32.362638  8744 net.cpp:113] Setting up inception_4a/relu_3x3_reduce
I1217 10:25:32.362753  8744 net.cpp:120] Top shape: 80 96 14 14 (1505280)
I1217 10:25:32.362779  8744 layer_factory.hpp:74] Creating layer inception_4a/3x3
I1217 10:25:32.362794  8744 net.cpp:84] Creating Layer inception_4a/3x3
I1217 10:25:32.362807  8744 net.cpp:380] inception_4a/3x3 <- inception_4a/3x3_reduce
I1217 10:25:32.362821  8744 net.cpp:338] inception_4a/3x3 -> inception_4a/3x3
I1217 10:25:32.362836  8744 net.cpp:113] Setting up inception_4a/3x3
I1217 10:25:32.365733  8744 net.cpp:120] Top shape: 80 208 14 14 (3261440)
I1217 10:25:32.365769  8744 layer_factory.hpp:74] Creating layer inception_4a/relu_3x3
I1217 10:25:32.365792  8744 net.cpp:84] Creating Layer inception_4a/relu_3x3
I1217 10:25:32.365804  8744 net.cpp:380] inception_4a/relu_3x3 <- inception_4a/3x3
I1217 10:25:32.365818  8744 net.cpp:327] inception_4a/relu_3x3 -> inception_4a/3x3 (in-place)
I1217 10:25:32.365828  8744 net.cpp:113] Setting up inception_4a/relu_3x3
I1217 10:25:32.365921  8744 net.cpp:120] Top shape: 80 208 14 14 (3261440)
I1217 10:25:32.365934  8744 layer_factory.hpp:74] Creating layer inception_4a/5x5_reduce
I1217 10:25:32.365950  8744 net.cpp:84] Creating Layer inception_4a/5x5_reduce
I1217 10:25:32.365960  8744 net.cpp:380] inception_4a/5x5_reduce <- pool3/3x3_s2_pool3/3x3_s2_0_split_2
I1217 10:25:32.365972  8744 net.cpp:338] inception_4a/5x5_reduce -> inception_4a/5x5_reduce
I1217 10:25:32.365986  8744 net.cpp:113] Setting up inception_4a/5x5_reduce
I1217 10:25:32.366669  8744 net.cpp:120] Top shape: 80 16 14 14 (250880)
I1217 10:25:32.366693  8744 layer_factory.hpp:74] Creating layer inception_4a/relu_5x5_reduce
I1217 10:25:32.366705  8744 net.cpp:84] Creating Layer inception_4a/relu_5x5_reduce
I1217 10:25:32.366715  8744 net.cpp:380] inception_4a/relu_5x5_reduce <- inception_4a/5x5_reduce
I1217 10:25:32.366730  8744 net.cpp:327] inception_4a/relu_5x5_reduce -> inception_4a/5x5_reduce (in-place)
I1217 10:25:32.366744  8744 net.cpp:113] Setting up inception_4a/relu_5x5_reduce
I1217 10:25:32.366844  8744 net.cpp:120] Top shape: 80 16 14 14 (250880)
I1217 10:25:32.366859  8744 layer_factory.hpp:74] Creating layer inception_4a/5x5
I1217 10:25:32.366885  8744 net.cpp:84] Creating Layer inception_4a/5x5
I1217 10:25:32.366896  8744 net.cpp:380] inception_4a/5x5 <- inception_4a/5x5_reduce
I1217 10:25:32.366911  8744 net.cpp:338] inception_4a/5x5 -> inception_4a/5x5
I1217 10:25:32.366925  8744 net.cpp:113] Setting up inception_4a/5x5
I1217 10:25:32.367786  8744 net.cpp:120] Top shape: 80 48 14 14 (752640)
I1217 10:25:32.367810  8744 layer_factory.hpp:74] Creating layer inception_4a/relu_5x5
I1217 10:25:32.367822  8744 net.cpp:84] Creating Layer inception_4a/relu_5x5
I1217 10:25:32.367831  8744 net.cpp:380] inception_4a/relu_5x5 <- inception_4a/5x5
I1217 10:25:32.367843  8744 net.cpp:327] inception_4a/relu_5x5 -> inception_4a/5x5 (in-place)
I1217 10:25:32.367857  8744 net.cpp:113] Setting up inception_4a/relu_5x5
I1217 10:25:32.368219  8744 net.cpp:120] Top shape: 80 48 14 14 (752640)
I1217 10:25:32.368248  8744 layer_factory.hpp:74] Creating layer inception_4a/pool
I1217 10:25:32.368259  8744 layer_factory.cpp:56] CUDNN does not support padding or multiple tops. Using Caffe's own pooling layer.
I1217 10:25:32.368275  8744 net.cpp:84] Creating Layer inception_4a/pool
I1217 10:25:32.368286  8744 net.cpp:380] inception_4a/pool <- pool3/3x3_s2_pool3/3x3_s2_0_split_3
I1217 10:25:32.368299  8744 net.cpp:338] inception_4a/pool -> inception_4a/pool
I1217 10:25:32.368312  8744 net.cpp:113] Setting up inception_4a/pool
I1217 10:25:32.368337  8744 net.cpp:120] Top shape: 80 480 14 14 (7526400)
I1217 10:25:32.368355  8744 layer_factory.hpp:74] Creating layer inception_4a/pool_proj
I1217 10:25:32.368362  8744 net.cpp:84] Creating Layer inception_4a/pool_proj
I1217 10:25:32.368368  8744 net.cpp:380] inception_4a/pool_proj <- inception_4a/pool
I1217 10:25:32.368388  8744 net.cpp:338] inception_4a/pool_proj -> inception_4a/pool_proj
I1217 10:25:32.368403  8744 net.cpp:113] Setting up inception_4a/pool_proj
I1217 10:25:32.369421  8744 net.cpp:120] Top shape: 80 64 14 14 (1003520)
I1217 10:25:32.369446  8744 layer_factory.hpp:74] Creating layer inception_4a/relu_pool_proj
I1217 10:25:32.369472  8744 net.cpp:84] Creating Layer inception_4a/relu_pool_proj
I1217 10:25:32.369483  8744 net.cpp:380] inception_4a/relu_pool_proj <- inception_4a/pool_proj
I1217 10:25:32.369496  8744 net.cpp:327] inception_4a/relu_pool_proj -> inception_4a/pool_proj (in-place)
I1217 10:25:32.369510  8744 net.cpp:113] Setting up inception_4a/relu_pool_proj
I1217 10:25:32.369604  8744 net.cpp:120] Top shape: 80 64 14 14 (1003520)
I1217 10:25:32.369617  8744 layer_factory.hpp:74] Creating layer inception_4a/output
I1217 10:25:32.369634  8744 net.cpp:84] Creating Layer inception_4a/output
I1217 10:25:32.369643  8744 net.cpp:380] inception_4a/output <- inception_4a/1x1
I1217 10:25:32.369654  8744 net.cpp:380] inception_4a/output <- inception_4a/3x3
I1217 10:25:32.369663  8744 net.cpp:380] inception_4a/output <- inception_4a/5x5
I1217 10:25:32.369671  8744 net.cpp:380] inception_4a/output <- inception_4a/pool_proj
I1217 10:25:32.369683  8744 net.cpp:338] inception_4a/output -> inception_4a/output
I1217 10:25:32.369696  8744 net.cpp:113] Setting up inception_4a/output
I1217 10:25:32.369715  8744 net.cpp:120] Top shape: 80 512 14 14 (8028160)
I1217 10:25:32.369734  8744 layer_factory.hpp:74] Creating layer inception_4a/output_inception_4a/output_0_split
I1217 10:25:32.369748  8744 net.cpp:84] Creating Layer inception_4a/output_inception_4a/output_0_split
I1217 10:25:32.369757  8744 net.cpp:380] inception_4a/output_inception_4a/output_0_split <- inception_4a/output
I1217 10:25:32.369765  8744 net.cpp:338] inception_4a/output_inception_4a/output_0_split -> inception_4a/output_inception_4a/output_0_split_0
I1217 10:25:32.369774  8744 net.cpp:338] inception_4a/output_inception_4a/output_0_split -> inception_4a/output_inception_4a/output_0_split_1
I1217 10:25:32.369782  8744 net.cpp:338] inception_4a/output_inception_4a/output_0_split -> inception_4a/output_inception_4a/output_0_split_2
I1217 10:25:32.369791  8744 net.cpp:338] inception_4a/output_inception_4a/output_0_split -> inception_4a/output_inception_4a/output_0_split_3
I1217 10:25:32.369797  8744 net.cpp:338] inception_4a/output_inception_4a/output_0_split -> inception_4a/output_inception_4a/output_0_split_4
I1217 10:25:32.369806  8744 net.cpp:113] Setting up inception_4a/output_inception_4a/output_0_split
I1217 10:25:32.369822  8744 net.cpp:120] Top shape: 80 512 14 14 (8028160)
I1217 10:25:32.369834  8744 net.cpp:120] Top shape: 80 512 14 14 (8028160)
I1217 10:25:32.369843  8744 net.cpp:120] Top shape: 80 512 14 14 (8028160)
I1217 10:25:32.369854  8744 net.cpp:120] Top shape: 80 512 14 14 (8028160)
I1217 10:25:32.369863  8744 net.cpp:120] Top shape: 80 512 14 14 (8028160)
I1217 10:25:32.369873  8744 layer_factory.hpp:74] Creating layer loss1/ave_pool
I1217 10:25:32.369884  8744 net.cpp:84] Creating Layer loss1/ave_pool
I1217 10:25:32.369894  8744 net.cpp:380] loss1/ave_pool <- inception_4a/output_inception_4a/output_0_split_0
I1217 10:25:32.369906  8744 net.cpp:338] loss1/ave_pool -> loss1/ave_pool
I1217 10:25:32.369920  8744 net.cpp:113] Setting up loss1/ave_pool
I1217 10:25:32.370026  8744 net.cpp:120] Top shape: 80 512 4 4 (655360)
I1217 10:25:32.370036  8744 layer_factory.hpp:74] Creating layer loss1/conv
I1217 10:25:32.370059  8744 net.cpp:84] Creating Layer loss1/conv
I1217 10:25:32.370070  8744 net.cpp:380] loss1/conv <- loss1/ave_pool
I1217 10:25:32.370084  8744 net.cpp:338] loss1/conv -> loss1/conv
I1217 10:25:32.370102  8744 net.cpp:113] Setting up loss1/conv
I1217 10:25:32.371558  8744 net.cpp:120] Top shape: 80 128 4 4 (163840)
I1217 10:25:32.371577  8744 layer_factory.hpp:74] Creating layer loss1/relu_conv
I1217 10:25:32.371585  8744 net.cpp:84] Creating Layer loss1/relu_conv
I1217 10:25:32.371592  8744 net.cpp:380] loss1/relu_conv <- loss1/conv
I1217 10:25:32.371601  8744 net.cpp:327] loss1/relu_conv -> loss1/conv (in-place)
I1217 10:25:32.371615  8744 net.cpp:113] Setting up loss1/relu_conv
I1217 10:25:32.371722  8744 net.cpp:120] Top shape: 80 128 4 4 (163840)
I1217 10:25:32.371736  8744 layer_factory.hpp:74] Creating layer loss1/fc
I1217 10:25:32.371753  8744 net.cpp:84] Creating Layer loss1/fc
I1217 10:25:32.371763  8744 net.cpp:380] loss1/fc <- loss1/conv
I1217 10:25:32.371776  8744 net.cpp:338] loss1/fc -> loss1/fc
I1217 10:25:32.371790  8744 net.cpp:113] Setting up loss1/fc
I1217 10:25:32.430227  8744 net.cpp:120] Top shape: 80 1024 (81920)
I1217 10:25:32.430277  8744 layer_factory.hpp:74] Creating layer loss1/relu_fc
I1217 10:25:32.430294  8744 net.cpp:84] Creating Layer loss1/relu_fc
I1217 10:25:32.430301  8744 net.cpp:380] loss1/relu_fc <- loss1/fc
I1217 10:25:32.430311  8744 net.cpp:327] loss1/relu_fc -> loss1/fc (in-place)
I1217 10:25:32.430322  8744 net.cpp:113] Setting up loss1/relu_fc
I1217 10:25:32.430861  8744 net.cpp:120] Top shape: 80 1024 (81920)
I1217 10:25:32.430876  8744 layer_factory.hpp:74] Creating layer loss1/drop_fc
I1217 10:25:32.430904  8744 net.cpp:84] Creating Layer loss1/drop_fc
I1217 10:25:32.430912  8744 net.cpp:380] loss1/drop_fc <- loss1/fc
I1217 10:25:32.430918  8744 net.cpp:327] loss1/drop_fc -> loss1/fc (in-place)
I1217 10:25:32.430928  8744 net.cpp:113] Setting up loss1/drop_fc
I1217 10:25:32.430938  8744 net.cpp:120] Top shape: 80 1024 (81920)
I1217 10:25:32.430943  8744 layer_factory.hpp:74] Creating layer loss1/classifier_kaggle
I1217 10:25:32.430955  8744 net.cpp:84] Creating Layer loss1/classifier_kaggle
I1217 10:25:32.430960  8744 net.cpp:380] loss1/classifier_kaggle <- loss1/fc
I1217 10:25:32.430968  8744 net.cpp:338] loss1/classifier_kaggle -> loss1/classifier_kaggle
I1217 10:25:32.430975  8744 net.cpp:113] Setting up loss1/classifier_kaggle
I1217 10:25:32.435870  8744 net.cpp:120] Top shape: 80 447 (35760)
I1217 10:25:32.435885  8744 layer_factory.hpp:74] Creating layer loss1/loss
I1217 10:25:32.435894  8744 net.cpp:84] Creating Layer loss1/loss
I1217 10:25:32.435900  8744 net.cpp:380] loss1/loss <- loss1/classifier_kaggle
I1217 10:25:32.435906  8744 net.cpp:380] loss1/loss <- label_data_1_split_0
I1217 10:25:32.435914  8744 net.cpp:338] loss1/loss -> loss1/loss1
I1217 10:25:32.435924  8744 net.cpp:113] Setting up loss1/loss
I1217 10:25:32.435933  8744 layer_factory.hpp:74] Creating layer loss1/loss
I1217 10:25:32.436094  8744 net.cpp:120] Top shape: (1)
I1217 10:25:32.436102  8744 net.cpp:122]     with loss weight 0.3
I1217 10:25:32.436130  8744 layer_factory.hpp:74] Creating layer inception_4b/1x1
I1217 10:25:32.436151  8744 net.cpp:84] Creating Layer inception_4b/1x1
I1217 10:25:32.436157  8744 net.cpp:380] inception_4b/1x1 <- inception_4a/output_inception_4a/output_0_split_1
I1217 10:25:32.436167  8744 net.cpp:338] inception_4b/1x1 -> inception_4b/1x1
I1217 10:25:32.436175  8744 net.cpp:113] Setting up inception_4b/1x1
I1217 10:25:32.437592  8744 net.cpp:120] Top shape: 80 160 14 14 (2508800)
I1217 10:25:32.437608  8744 layer_factory.hpp:74] Creating layer inception_4b/relu_1x1
I1217 10:25:32.437626  8744 net.cpp:84] Creating Layer inception_4b/relu_1x1
I1217 10:25:32.437633  8744 net.cpp:380] inception_4b/relu_1x1 <- inception_4b/1x1
I1217 10:25:32.437639  8744 net.cpp:327] inception_4b/relu_1x1 -> inception_4b/1x1 (in-place)
I1217 10:25:32.437647  8744 net.cpp:113] Setting up inception_4b/relu_1x1
I1217 10:25:32.437716  8744 net.cpp:120] Top shape: 80 160 14 14 (2508800)
I1217 10:25:32.437723  8744 layer_factory.hpp:74] Creating layer inception_4b/3x3_reduce
I1217 10:25:32.437732  8744 net.cpp:84] Creating Layer inception_4b/3x3_reduce
I1217 10:25:32.437737  8744 net.cpp:380] inception_4b/3x3_reduce <- inception_4a/output_inception_4a/output_0_split_2
I1217 10:25:32.437763  8744 net.cpp:338] inception_4b/3x3_reduce -> inception_4b/3x3_reduce
I1217 10:25:32.437773  8744 net.cpp:113] Setting up inception_4b/3x3_reduce
I1217 10:25:32.438809  8744 net.cpp:120] Top shape: 80 112 14 14 (1756160)
I1217 10:25:32.438824  8744 layer_factory.hpp:74] Creating layer inception_4b/relu_3x3_reduce
I1217 10:25:32.438832  8744 net.cpp:84] Creating Layer inception_4b/relu_3x3_reduce
I1217 10:25:32.438838  8744 net.cpp:380] inception_4b/relu_3x3_reduce <- inception_4b/3x3_reduce
I1217 10:25:32.438845  8744 net.cpp:327] inception_4b/relu_3x3_reduce -> inception_4b/3x3_reduce (in-place)
I1217 10:25:32.438853  8744 net.cpp:113] Setting up inception_4b/relu_3x3_reduce
I1217 10:25:32.438916  8744 net.cpp:120] Top shape: 80 112 14 14 (1756160)
I1217 10:25:32.438922  8744 layer_factory.hpp:74] Creating layer inception_4b/3x3
I1217 10:25:32.438940  8744 net.cpp:84] Creating Layer inception_4b/3x3
I1217 10:25:32.438946  8744 net.cpp:380] inception_4b/3x3 <- inception_4b/3x3_reduce
I1217 10:25:32.438953  8744 net.cpp:338] inception_4b/3x3 -> inception_4b/3x3
I1217 10:25:32.438961  8744 net.cpp:113] Setting up inception_4b/3x3
I1217 10:25:32.441840  8744 net.cpp:120] Top shape: 80 224 14 14 (3512320)
I1217 10:25:32.441860  8744 layer_factory.hpp:74] Creating layer inception_4b/relu_3x3
I1217 10:25:32.441876  8744 net.cpp:84] Creating Layer inception_4b/relu_3x3
I1217 10:25:32.441882  8744 net.cpp:380] inception_4b/relu_3x3 <- inception_4b/3x3
I1217 10:25:32.441890  8744 net.cpp:327] inception_4b/relu_3x3 -> inception_4b/3x3 (in-place)
I1217 10:25:32.441897  8744 net.cpp:113] Setting up inception_4b/relu_3x3
I1217 10:25:32.442168  8744 net.cpp:120] Top shape: 80 224 14 14 (3512320)
I1217 10:25:32.442179  8744 layer_factory.hpp:74] Creating layer inception_4b/5x5_reduce
I1217 10:25:32.442188  8744 net.cpp:84] Creating Layer inception_4b/5x5_reduce
I1217 10:25:32.442193  8744 net.cpp:380] inception_4b/5x5_reduce <- inception_4a/output_inception_4a/output_0_split_3
I1217 10:25:32.442201  8744 net.cpp:338] inception_4b/5x5_reduce -> inception_4b/5x5_reduce
I1217 10:25:32.442210  8744 net.cpp:113] Setting up inception_4b/5x5_reduce
I1217 10:25:32.442782  8744 net.cpp:120] Top shape: 80 24 14 14 (376320)
I1217 10:25:32.442798  8744 layer_factory.hpp:74] Creating layer inception_4b/relu_5x5_reduce
I1217 10:25:32.442806  8744 net.cpp:84] Creating Layer inception_4b/relu_5x5_reduce
I1217 10:25:32.442811  8744 net.cpp:380] inception_4b/relu_5x5_reduce <- inception_4b/5x5_reduce
I1217 10:25:32.442819  8744 net.cpp:327] inception_4b/relu_5x5_reduce -> inception_4b/5x5_reduce (in-place)
I1217 10:25:32.442826  8744 net.cpp:113] Setting up inception_4b/relu_5x5_reduce
I1217 10:25:32.442893  8744 net.cpp:120] Top shape: 80 24 14 14 (376320)
I1217 10:25:32.442900  8744 layer_factory.hpp:74] Creating layer inception_4b/5x5
I1217 10:25:32.442916  8744 net.cpp:84] Creating Layer inception_4b/5x5
I1217 10:25:32.442921  8744 net.cpp:380] inception_4b/5x5 <- inception_4b/5x5_reduce
I1217 10:25:32.442930  8744 net.cpp:338] inception_4b/5x5 -> inception_4b/5x5
I1217 10:25:32.442939  8744 net.cpp:113] Setting up inception_4b/5x5
I1217 10:25:32.443773  8744 net.cpp:120] Top shape: 80 64 14 14 (1003520)
I1217 10:25:32.443795  8744 layer_factory.hpp:74] Creating layer inception_4b/relu_5x5
I1217 10:25:32.443805  8744 net.cpp:84] Creating Layer inception_4b/relu_5x5
I1217 10:25:32.443811  8744 net.cpp:380] inception_4b/relu_5x5 <- inception_4b/5x5
I1217 10:25:32.443817  8744 net.cpp:327] inception_4b/relu_5x5 -> inception_4b/5x5 (in-place)
I1217 10:25:32.443825  8744 net.cpp:113] Setting up inception_4b/relu_5x5
I1217 10:25:32.443891  8744 net.cpp:120] Top shape: 80 64 14 14 (1003520)
I1217 10:25:32.443897  8744 layer_factory.hpp:74] Creating layer inception_4b/pool
I1217 10:25:32.443902  8744 layer_factory.cpp:56] CUDNN does not support padding or multiple tops. Using Caffe's own pooling layer.
I1217 10:25:32.443912  8744 net.cpp:84] Creating Layer inception_4b/pool
I1217 10:25:32.443925  8744 net.cpp:380] inception_4b/pool <- inception_4a/output_inception_4a/output_0_split_4
I1217 10:25:32.443940  8744 net.cpp:338] inception_4b/pool -> inception_4b/pool
I1217 10:25:32.443959  8744 net.cpp:113] Setting up inception_4b/pool
I1217 10:25:32.443969  8744 net.cpp:120] Top shape: 80 512 14 14 (8028160)
I1217 10:25:32.443974  8744 layer_factory.hpp:74] Creating layer inception_4b/pool_proj
I1217 10:25:32.443990  8744 net.cpp:84] Creating Layer inception_4b/pool_proj
I1217 10:25:32.443996  8744 net.cpp:380] inception_4b/pool_proj <- inception_4b/pool
I1217 10:25:32.444005  8744 net.cpp:338] inception_4b/pool_proj -> inception_4b/pool_proj
I1217 10:25:32.444012  8744 net.cpp:113] Setting up inception_4b/pool_proj
I1217 10:25:32.444773  8744 net.cpp:120] Top shape: 80 64 14 14 (1003520)
I1217 10:25:32.444788  8744 layer_factory.hpp:74] Creating layer inception_4b/relu_pool_proj
I1217 10:25:32.444795  8744 net.cpp:84] Creating Layer inception_4b/relu_pool_proj
I1217 10:25:32.444802  8744 net.cpp:380] inception_4b/relu_pool_proj <- inception_4b/pool_proj
I1217 10:25:32.444809  8744 net.cpp:327] inception_4b/relu_pool_proj -> inception_4b/pool_proj (in-place)
I1217 10:25:32.444816  8744 net.cpp:113] Setting up inception_4b/relu_pool_proj
I1217 10:25:32.445089  8744 net.cpp:120] Top shape: 80 64 14 14 (1003520)
I1217 10:25:32.445101  8744 layer_factory.hpp:74] Creating layer inception_4b/output
I1217 10:25:32.445116  8744 net.cpp:84] Creating Layer inception_4b/output
I1217 10:25:32.445122  8744 net.cpp:380] inception_4b/output <- inception_4b/1x1
I1217 10:25:32.445130  8744 net.cpp:380] inception_4b/output <- inception_4b/3x3
I1217 10:25:32.445135  8744 net.cpp:380] inception_4b/output <- inception_4b/5x5
I1217 10:25:32.445140  8744 net.cpp:380] inception_4b/output <- inception_4b/pool_proj
I1217 10:25:32.445147  8744 net.cpp:338] inception_4b/output -> inception_4b/output
I1217 10:25:32.445154  8744 net.cpp:113] Setting up inception_4b/output
I1217 10:25:32.445163  8744 net.cpp:120] Top shape: 80 512 14 14 (8028160)
I1217 10:25:32.445168  8744 layer_factory.hpp:74] Creating layer inception_4b/output_inception_4b/output_0_split
I1217 10:25:32.445174  8744 net.cpp:84] Creating Layer inception_4b/output_inception_4b/output_0_split
I1217 10:25:32.445179  8744 net.cpp:380] inception_4b/output_inception_4b/output_0_split <- inception_4b/output
I1217 10:25:32.445188  8744 net.cpp:338] inception_4b/output_inception_4b/output_0_split -> inception_4b/output_inception_4b/output_0_split_0
I1217 10:25:32.445194  8744 net.cpp:338] inception_4b/output_inception_4b/output_0_split -> inception_4b/output_inception_4b/output_0_split_1
I1217 10:25:32.445201  8744 net.cpp:338] inception_4b/output_inception_4b/output_0_split -> inception_4b/output_inception_4b/output_0_split_2
I1217 10:25:32.445209  8744 net.cpp:338] inception_4b/output_inception_4b/output_0_split -> inception_4b/output_inception_4b/output_0_split_3
I1217 10:25:32.445215  8744 net.cpp:113] Setting up inception_4b/output_inception_4b/output_0_split
I1217 10:25:32.445224  8744 net.cpp:120] Top shape: 80 512 14 14 (8028160)
I1217 10:25:32.445229  8744 net.cpp:120] Top shape: 80 512 14 14 (8028160)
I1217 10:25:32.445233  8744 net.cpp:120] Top shape: 80 512 14 14 (8028160)
I1217 10:25:32.445238  8744 net.cpp:120] Top shape: 80 512 14 14 (8028160)
I1217 10:25:32.445242  8744 layer_factory.hpp:74] Creating layer inception_4c/1x1
I1217 10:25:32.445250  8744 net.cpp:84] Creating Layer inception_4c/1x1
I1217 10:25:32.445255  8744 net.cpp:380] inception_4c/1x1 <- inception_4b/output_inception_4b/output_0_split_0
I1217 10:25:32.445263  8744 net.cpp:338] inception_4c/1x1 -> inception_4c/1x1
I1217 10:25:32.445271  8744 net.cpp:113] Setting up inception_4c/1x1
I1217 10:25:32.446389  8744 net.cpp:120] Top shape: 80 128 14 14 (2007040)
I1217 10:25:32.446404  8744 layer_factory.hpp:74] Creating layer inception_4c/relu_1x1
I1217 10:25:32.446421  8744 net.cpp:84] Creating Layer inception_4c/relu_1x1
I1217 10:25:32.446427  8744 net.cpp:380] inception_4c/relu_1x1 <- inception_4c/1x1
I1217 10:25:32.446439  8744 net.cpp:327] inception_4c/relu_1x1 -> inception_4c/1x1 (in-place)
I1217 10:25:32.446455  8744 net.cpp:113] Setting up inception_4c/relu_1x1
I1217 10:25:32.446521  8744 net.cpp:120] Top shape: 80 128 14 14 (2007040)
I1217 10:25:32.446528  8744 layer_factory.hpp:74] Creating layer inception_4c/3x3_reduce
I1217 10:25:32.446542  8744 net.cpp:84] Creating Layer inception_4c/3x3_reduce
I1217 10:25:32.446548  8744 net.cpp:380] inception_4c/3x3_reduce <- inception_4b/output_inception_4b/output_0_split_1
I1217 10:25:32.446557  8744 net.cpp:338] inception_4c/3x3_reduce -> inception_4c/3x3_reduce
I1217 10:25:32.446565  8744 net.cpp:113] Setting up inception_4c/3x3_reduce
I1217 10:25:32.447685  8744 net.cpp:120] Top shape: 80 128 14 14 (2007040)
I1217 10:25:32.447701  8744 layer_factory.hpp:74] Creating layer inception_4c/relu_3x3_reduce
I1217 10:25:32.447710  8744 net.cpp:84] Creating Layer inception_4c/relu_3x3_reduce
I1217 10:25:32.447715  8744 net.cpp:380] inception_4c/relu_3x3_reduce <- inception_4c/3x3_reduce
I1217 10:25:32.447722  8744 net.cpp:327] inception_4c/relu_3x3_reduce -> inception_4c/3x3_reduce (in-place)
I1217 10:25:32.447729  8744 net.cpp:113] Setting up inception_4c/relu_3x3_reduce
I1217 10:25:32.447794  8744 net.cpp:120] Top shape: 80 128 14 14 (2007040)
I1217 10:25:32.447800  8744 layer_factory.hpp:74] Creating layer inception_4c/3x3
I1217 10:25:32.447818  8744 net.cpp:84] Creating Layer inception_4c/3x3
I1217 10:25:32.447823  8744 net.cpp:380] inception_4c/3x3 <- inception_4c/3x3_reduce
I1217 10:25:32.447830  8744 net.cpp:338] inception_4c/3x3 -> inception_4c/3x3
I1217 10:25:32.447839  8744 net.cpp:113] Setting up inception_4c/3x3
I1217 10:25:32.451671  8744 net.cpp:120] Top shape: 80 256 14 14 (4014080)
I1217 10:25:32.451700  8744 layer_factory.hpp:74] Creating layer inception_4c/relu_3x3
I1217 10:25:32.451709  8744 net.cpp:84] Creating Layer inception_4c/relu_3x3
I1217 10:25:32.451714  8744 net.cpp:380] inception_4c/relu_3x3 <- inception_4c/3x3
I1217 10:25:32.451720  8744 net.cpp:327] inception_4c/relu_3x3 -> inception_4c/3x3 (in-place)
I1217 10:25:32.451728  8744 net.cpp:113] Setting up inception_4c/relu_3x3
I1217 10:25:32.451810  8744 net.cpp:120] Top shape: 80 256 14 14 (4014080)
I1217 10:25:32.451817  8744 layer_factory.hpp:74] Creating layer inception_4c/5x5_reduce
I1217 10:25:32.451828  8744 net.cpp:84] Creating Layer inception_4c/5x5_reduce
I1217 10:25:32.451833  8744 net.cpp:380] inception_4c/5x5_reduce <- inception_4b/output_inception_4b/output_0_split_2
I1217 10:25:32.451843  8744 net.cpp:338] inception_4c/5x5_reduce -> inception_4c/5x5_reduce
I1217 10:25:32.451851  8744 net.cpp:113] Setting up inception_4c/5x5_reduce
I1217 10:25:32.452463  8744 net.cpp:120] Top shape: 80 24 14 14 (376320)
I1217 10:25:32.452481  8744 layer_factory.hpp:74] Creating layer inception_4c/relu_5x5_reduce
I1217 10:25:32.452504  8744 net.cpp:84] Creating Layer inception_4c/relu_5x5_reduce
I1217 10:25:32.452510  8744 net.cpp:380] inception_4c/relu_5x5_reduce <- inception_4c/5x5_reduce
I1217 10:25:32.452518  8744 net.cpp:327] inception_4c/relu_5x5_reduce -> inception_4c/5x5_reduce (in-place)
I1217 10:25:32.452527  8744 net.cpp:113] Setting up inception_4c/relu_5x5_reduce
I1217 10:25:32.452817  8744 net.cpp:120] Top shape: 80 24 14 14 (376320)
I1217 10:25:32.452831  8744 layer_factory.hpp:74] Creating layer inception_4c/5x5
I1217 10:25:32.452838  8744 net.cpp:84] Creating Layer inception_4c/5x5
I1217 10:25:32.452844  8744 net.cpp:380] inception_4c/5x5 <- inception_4c/5x5_reduce
I1217 10:25:32.452854  8744 net.cpp:338] inception_4c/5x5 -> inception_4c/5x5
I1217 10:25:32.452863  8744 net.cpp:113] Setting up inception_4c/5x5
I1217 10:25:32.453740  8744 net.cpp:120] Top shape: 80 64 14 14 (1003520)
I1217 10:25:32.453757  8744 layer_factory.hpp:74] Creating layer inception_4c/relu_5x5
I1217 10:25:32.453763  8744 net.cpp:84] Creating Layer inception_4c/relu_5x5
I1217 10:25:32.453768  8744 net.cpp:380] inception_4c/relu_5x5 <- inception_4c/5x5
I1217 10:25:32.453776  8744 net.cpp:327] inception_4c/relu_5x5 -> inception_4c/5x5 (in-place)
I1217 10:25:32.453795  8744 net.cpp:113] Setting up inception_4c/relu_5x5
I1217 10:25:32.453887  8744 net.cpp:120] Top shape: 80 64 14 14 (1003520)
I1217 10:25:32.453893  8744 layer_factory.hpp:74] Creating layer inception_4c/pool
I1217 10:25:32.453899  8744 layer_factory.cpp:56] CUDNN does not support padding or multiple tops. Using Caffe's own pooling layer.
I1217 10:25:32.453907  8744 net.cpp:84] Creating Layer inception_4c/pool
I1217 10:25:32.453912  8744 net.cpp:380] inception_4c/pool <- inception_4b/output_inception_4b/output_0_split_3
I1217 10:25:32.453919  8744 net.cpp:338] inception_4c/pool -> inception_4c/pool
I1217 10:25:32.453927  8744 net.cpp:113] Setting up inception_4c/pool
I1217 10:25:32.453936  8744 net.cpp:120] Top shape: 80 512 14 14 (8028160)
I1217 10:25:32.453940  8744 layer_factory.hpp:74] Creating layer inception_4c/pool_proj
I1217 10:25:32.453958  8744 net.cpp:84] Creating Layer inception_4c/pool_proj
I1217 10:25:32.453963  8744 net.cpp:380] inception_4c/pool_proj <- inception_4c/pool
I1217 10:25:32.453969  8744 net.cpp:338] inception_4c/pool_proj -> inception_4c/pool_proj
I1217 10:25:32.453976  8744 net.cpp:113] Setting up inception_4c/pool_proj
I1217 10:25:32.454749  8744 net.cpp:120] Top shape: 80 64 14 14 (1003520)
I1217 10:25:32.454772  8744 layer_factory.hpp:74] Creating layer inception_4c/relu_pool_proj
I1217 10:25:32.454780  8744 net.cpp:84] Creating Layer inception_4c/relu_pool_proj
I1217 10:25:32.454785  8744 net.cpp:380] inception_4c/relu_pool_proj <- inception_4c/pool_proj
I1217 10:25:32.454792  8744 net.cpp:327] inception_4c/relu_pool_proj -> inception_4c/pool_proj (in-place)
I1217 10:25:32.454799  8744 net.cpp:113] Setting up inception_4c/relu_pool_proj
I1217 10:25:32.454864  8744 net.cpp:120] Top shape: 80 64 14 14 (1003520)
I1217 10:25:32.454871  8744 layer_factory.hpp:74] Creating layer inception_4c/output
I1217 10:25:32.454880  8744 net.cpp:84] Creating Layer inception_4c/output
I1217 10:25:32.454885  8744 net.cpp:380] inception_4c/output <- inception_4c/1x1
I1217 10:25:32.454891  8744 net.cpp:380] inception_4c/output <- inception_4c/3x3
I1217 10:25:32.454896  8744 net.cpp:380] inception_4c/output <- inception_4c/5x5
I1217 10:25:32.454901  8744 net.cpp:380] inception_4c/output <- inception_4c/pool_proj
I1217 10:25:32.454907  8744 net.cpp:338] inception_4c/output -> inception_4c/output
I1217 10:25:32.454915  8744 net.cpp:113] Setting up inception_4c/output
I1217 10:25:32.454921  8744 net.cpp:120] Top shape: 80 512 14 14 (8028160)
I1217 10:25:32.454929  8744 layer_factory.hpp:74] Creating layer inception_4c/output_inception_4c/output_0_split
I1217 10:25:32.454947  8744 net.cpp:84] Creating Layer inception_4c/output_inception_4c/output_0_split
I1217 10:25:32.454952  8744 net.cpp:380] inception_4c/output_inception_4c/output_0_split <- inception_4c/output
I1217 10:25:32.454958  8744 net.cpp:338] inception_4c/output_inception_4c/output_0_split -> inception_4c/output_inception_4c/output_0_split_0
I1217 10:25:32.454968  8744 net.cpp:338] inception_4c/output_inception_4c/output_0_split -> inception_4c/output_inception_4c/output_0_split_1
I1217 10:25:32.454977  8744 net.cpp:338] inception_4c/output_inception_4c/output_0_split -> inception_4c/output_inception_4c/output_0_split_2
I1217 10:25:32.454983  8744 net.cpp:338] inception_4c/output_inception_4c/output_0_split -> inception_4c/output_inception_4c/output_0_split_3
I1217 10:25:32.454989  8744 net.cpp:113] Setting up inception_4c/output_inception_4c/output_0_split
I1217 10:25:32.454998  8744 net.cpp:120] Top shape: 80 512 14 14 (8028160)
I1217 10:25:32.455003  8744 net.cpp:120] Top shape: 80 512 14 14 (8028160)
I1217 10:25:32.455008  8744 net.cpp:120] Top shape: 80 512 14 14 (8028160)
I1217 10:25:32.455013  8744 net.cpp:120] Top shape: 80 512 14 14 (8028160)
I1217 10:25:32.455016  8744 layer_factory.hpp:74] Creating layer inception_4d/1x1
I1217 10:25:32.455031  8744 net.cpp:84] Creating Layer inception_4d/1x1
I1217 10:25:32.455037  8744 net.cpp:380] inception_4d/1x1 <- inception_4c/output_inception_4c/output_0_split_0
I1217 10:25:32.455054  8744 net.cpp:338] inception_4d/1x1 -> inception_4d/1x1
I1217 10:25:32.455062  8744 net.cpp:113] Setting up inception_4d/1x1
I1217 10:25:32.456099  8744 net.cpp:120] Top shape: 80 112 14 14 (1756160)
I1217 10:25:32.456125  8744 layer_factory.hpp:74] Creating layer inception_4d/relu_1x1
I1217 10:25:32.456133  8744 net.cpp:84] Creating Layer inception_4d/relu_1x1
I1217 10:25:32.456138  8744 net.cpp:380] inception_4d/relu_1x1 <- inception_4d/1x1
I1217 10:25:32.456146  8744 net.cpp:327] inception_4d/relu_1x1 -> inception_4d/1x1 (in-place)
I1217 10:25:32.456152  8744 net.cpp:113] Setting up inception_4d/relu_1x1
I1217 10:25:32.456218  8744 net.cpp:120] Top shape: 80 112 14 14 (1756160)
I1217 10:25:32.456223  8744 layer_factory.hpp:74] Creating layer inception_4d/3x3_reduce
I1217 10:25:32.456233  8744 net.cpp:84] Creating Layer inception_4d/3x3_reduce
I1217 10:25:32.456238  8744 net.cpp:380] inception_4d/3x3_reduce <- inception_4c/output_inception_4c/output_0_split_1
I1217 10:25:32.456244  8744 net.cpp:338] inception_4d/3x3_reduce -> inception_4d/3x3_reduce
I1217 10:25:32.456254  8744 net.cpp:113] Setting up inception_4d/3x3_reduce
I1217 10:25:32.457468  8744 net.cpp:120] Top shape: 80 144 14 14 (2257920)
I1217 10:25:32.457485  8744 layer_factory.hpp:74] Creating layer inception_4d/relu_3x3_reduce
I1217 10:25:32.457501  8744 net.cpp:84] Creating Layer inception_4d/relu_3x3_reduce
I1217 10:25:32.457507  8744 net.cpp:380] inception_4d/relu_3x3_reduce <- inception_4d/3x3_reduce
I1217 10:25:32.457515  8744 net.cpp:327] inception_4d/relu_3x3_reduce -> inception_4d/3x3_reduce (in-place)
I1217 10:25:32.457522  8744 net.cpp:113] Setting up inception_4d/relu_3x3_reduce
I1217 10:25:32.457778  8744 net.cpp:120] Top shape: 80 144 14 14 (2257920)
I1217 10:25:32.457788  8744 layer_factory.hpp:74] Creating layer inception_4d/3x3
I1217 10:25:32.457797  8744 net.cpp:84] Creating Layer inception_4d/3x3
I1217 10:25:32.457803  8744 net.cpp:380] inception_4d/3x3 <- inception_4d/3x3_reduce
I1217 10:25:32.457810  8744 net.cpp:338] inception_4d/3x3 -> inception_4d/3x3
I1217 10:25:32.457819  8744 net.cpp:113] Setting up inception_4d/3x3
I1217 10:25:32.462210  8744 net.cpp:120] Top shape: 80 288 14 14 (4515840)
I1217 10:25:32.462227  8744 layer_factory.hpp:74] Creating layer inception_4d/relu_3x3
I1217 10:25:32.462244  8744 net.cpp:84] Creating Layer inception_4d/relu_3x3
I1217 10:25:32.462249  8744 net.cpp:380] inception_4d/relu_3x3 <- inception_4d/3x3
I1217 10:25:32.462258  8744 net.cpp:327] inception_4d/relu_3x3 -> inception_4d/3x3 (in-place)
I1217 10:25:32.462266  8744 net.cpp:113] Setting up inception_4d/relu_3x3
I1217 10:25:32.462332  8744 net.cpp:120] Top shape: 80 288 14 14 (4515840)
I1217 10:25:32.462340  8744 layer_factory.hpp:74] Creating layer inception_4d/5x5_reduce
I1217 10:25:32.462350  8744 net.cpp:84] Creating Layer inception_4d/5x5_reduce
I1217 10:25:32.462355  8744 net.cpp:380] inception_4d/5x5_reduce <- inception_4c/output_inception_4c/output_0_split_2
I1217 10:25:32.462363  8744 net.cpp:338] inception_4d/5x5_reduce -> inception_4d/5x5_reduce
I1217 10:25:32.462370  8744 net.cpp:113] Setting up inception_4d/5x5_reduce
I1217 10:25:32.462962  8744 net.cpp:120] Top shape: 80 32 14 14 (501760)
I1217 10:25:32.462977  8744 layer_factory.hpp:74] Creating layer inception_4d/relu_5x5_reduce
I1217 10:25:32.462992  8744 net.cpp:84] Creating Layer inception_4d/relu_5x5_reduce
I1217 10:25:32.462998  8744 net.cpp:380] inception_4d/relu_5x5_reduce <- inception_4d/5x5_reduce
I1217 10:25:32.463006  8744 net.cpp:327] inception_4d/relu_5x5_reduce -> inception_4d/5x5_reduce (in-place)
I1217 10:25:32.463012  8744 net.cpp:113] Setting up inception_4d/relu_5x5_reduce
I1217 10:25:32.463080  8744 net.cpp:120] Top shape: 80 32 14 14 (501760)
I1217 10:25:32.463089  8744 layer_factory.hpp:74] Creating layer inception_4d/5x5
I1217 10:25:32.463098  8744 net.cpp:84] Creating Layer inception_4d/5x5
I1217 10:25:32.463102  8744 net.cpp:380] inception_4d/5x5 <- inception_4d/5x5_reduce
I1217 10:25:32.463116  8744 net.cpp:338] inception_4d/5x5 -> inception_4d/5x5
I1217 10:25:32.463132  8744 net.cpp:113] Setting up inception_4d/5x5
I1217 10:25:32.464085  8744 net.cpp:120] Top shape: 80 64 14 14 (1003520)
I1217 10:25:32.464100  8744 layer_factory.hpp:74] Creating layer inception_4d/relu_5x5
I1217 10:25:32.464108  8744 net.cpp:84] Creating Layer inception_4d/relu_5x5
I1217 10:25:32.464114  8744 net.cpp:380] inception_4d/relu_5x5 <- inception_4d/5x5
I1217 10:25:32.464120  8744 net.cpp:327] inception_4d/relu_5x5 -> inception_4d/5x5 (in-place)
I1217 10:25:32.464128  8744 net.cpp:113] Setting up inception_4d/relu_5x5
I1217 10:25:32.464195  8744 net.cpp:120] Top shape: 80 64 14 14 (1003520)
I1217 10:25:32.464201  8744 layer_factory.hpp:74] Creating layer inception_4d/pool
I1217 10:25:32.464213  8744 layer_factory.cpp:56] CUDNN does not support padding or multiple tops. Using Caffe's own pooling layer.
I1217 10:25:32.464226  8744 net.cpp:84] Creating Layer inception_4d/pool
I1217 10:25:32.464231  8744 net.cpp:380] inception_4d/pool <- inception_4c/output_inception_4c/output_0_split_3
I1217 10:25:32.464239  8744 net.cpp:338] inception_4d/pool -> inception_4d/pool
I1217 10:25:32.464246  8744 net.cpp:113] Setting up inception_4d/pool
I1217 10:25:32.464257  8744 net.cpp:120] Top shape: 80 512 14 14 (8028160)
I1217 10:25:32.464262  8744 layer_factory.hpp:74] Creating layer inception_4d/pool_proj
I1217 10:25:32.464270  8744 net.cpp:84] Creating Layer inception_4d/pool_proj
I1217 10:25:32.464275  8744 net.cpp:380] inception_4d/pool_proj <- inception_4d/pool
I1217 10:25:32.464282  8744 net.cpp:338] inception_4d/pool_proj -> inception_4d/pool_proj
I1217 10:25:32.464288  8744 net.cpp:113] Setting up inception_4d/pool_proj
I1217 10:25:32.465733  8744 net.cpp:120] Top shape: 80 64 14 14 (1003520)
I1217 10:25:32.465793  8744 layer_factory.hpp:74] Creating layer inception_4d/relu_pool_proj
I1217 10:25:32.465814  8744 net.cpp:84] Creating Layer inception_4d/relu_pool_proj
I1217 10:25:32.465831  8744 net.cpp:380] inception_4d/relu_pool_proj <- inception_4d/pool_proj
I1217 10:25:32.465852  8744 net.cpp:327] inception_4d/relu_pool_proj -> inception_4d/pool_proj (in-place)
I1217 10:25:32.465873  8744 net.cpp:113] Setting up inception_4d/relu_pool_proj
I1217 10:25:32.466374  8744 net.cpp:120] Top shape: 80 64 14 14 (1003520)
I1217 10:25:32.466398  8744 layer_factory.hpp:74] Creating layer inception_4d/output
I1217 10:25:32.466414  8744 net.cpp:84] Creating Layer inception_4d/output
I1217 10:25:32.466426  8744 net.cpp:380] inception_4d/output <- inception_4d/1x1
I1217 10:25:32.466441  8744 net.cpp:380] inception_4d/output <- inception_4d/3x3
I1217 10:25:32.466454  8744 net.cpp:380] inception_4d/output <- inception_4d/5x5
I1217 10:25:32.466466  8744 net.cpp:380] inception_4d/output <- inception_4d/pool_proj
I1217 10:25:32.466480  8744 net.cpp:338] inception_4d/output -> inception_4d/output
I1217 10:25:32.466498  8744 net.cpp:113] Setting up inception_4d/output
I1217 10:25:32.466516  8744 net.cpp:120] Top shape: 80 528 14 14 (8279040)
I1217 10:25:32.466526  8744 layer_factory.hpp:74] Creating layer inception_4d/output_inception_4d/output_0_split
I1217 10:25:32.466544  8744 net.cpp:84] Creating Layer inception_4d/output_inception_4d/output_0_split
I1217 10:25:32.466554  8744 net.cpp:380] inception_4d/output_inception_4d/output_0_split <- inception_4d/output
I1217 10:25:32.466569  8744 net.cpp:338] inception_4d/output_inception_4d/output_0_split -> inception_4d/output_inception_4d/output_0_split_0
I1217 10:25:32.466586  8744 net.cpp:338] inception_4d/output_inception_4d/output_0_split -> inception_4d/output_inception_4d/output_0_split_1
I1217 10:25:32.466603  8744 net.cpp:338] inception_4d/output_inception_4d/output_0_split -> inception_4d/output_inception_4d/output_0_split_2
I1217 10:25:32.466624  8744 net.cpp:338] inception_4d/output_inception_4d/output_0_split -> inception_4d/output_inception_4d/output_0_split_3
I1217 10:25:32.466639  8744 net.cpp:338] inception_4d/output_inception_4d/output_0_split -> inception_4d/output_inception_4d/output_0_split_4
I1217 10:25:32.466667  8744 net.cpp:113] Setting up inception_4d/output_inception_4d/output_0_split
I1217 10:25:32.466702  8744 net.cpp:120] Top shape: 80 528 14 14 (8279040)
I1217 10:25:32.466716  8744 net.cpp:120] Top shape: 80 528 14 14 (8279040)
I1217 10:25:32.466727  8744 net.cpp:120] Top shape: 80 528 14 14 (8279040)
I1217 10:25:32.466737  8744 net.cpp:120] Top shape: 80 528 14 14 (8279040)
I1217 10:25:32.466747  8744 net.cpp:120] Top shape: 80 528 14 14 (8279040)
I1217 10:25:32.466760  8744 layer_factory.hpp:74] Creating layer loss2/ave_pool
I1217 10:25:32.466778  8744 net.cpp:84] Creating Layer loss2/ave_pool
I1217 10:25:32.466789  8744 net.cpp:380] loss2/ave_pool <- inception_4d/output_inception_4d/output_0_split_0
I1217 10:25:32.466806  8744 net.cpp:338] loss2/ave_pool -> loss2/ave_pool
I1217 10:25:32.466822  8744 net.cpp:113] Setting up loss2/ave_pool
I1217 10:25:32.466970  8744 net.cpp:120] Top shape: 80 528 4 4 (675840)
I1217 10:25:32.466986  8744 layer_factory.hpp:74] Creating layer loss2/conv
I1217 10:25:32.467005  8744 net.cpp:84] Creating Layer loss2/conv
I1217 10:25:32.467015  8744 net.cpp:380] loss2/conv <- loss2/ave_pool
I1217 10:25:32.467033  8744 net.cpp:338] loss2/conv -> loss2/conv
I1217 10:25:32.467051  8744 net.cpp:113] Setting up loss2/conv
I1217 10:25:32.469377  8744 net.cpp:120] Top shape: 80 128 4 4 (163840)
I1217 10:25:32.469414  8744 layer_factory.hpp:74] Creating layer loss2/relu_conv
I1217 10:25:32.469430  8744 net.cpp:84] Creating Layer loss2/relu_conv
I1217 10:25:32.469442  8744 net.cpp:380] loss2/relu_conv <- loss2/conv
I1217 10:25:32.469457  8744 net.cpp:327] loss2/relu_conv -> loss2/conv (in-place)
I1217 10:25:32.469473  8744 net.cpp:113] Setting up loss2/relu_conv
I1217 10:25:32.469610  8744 net.cpp:120] Top shape: 80 128 4 4 (163840)
I1217 10:25:32.469624  8744 layer_factory.hpp:74] Creating layer loss2/fc
I1217 10:25:32.469643  8744 net.cpp:84] Creating Layer loss2/fc
I1217 10:25:32.469653  8744 net.cpp:380] loss2/fc <- loss2/conv
I1217 10:25:32.469668  8744 net.cpp:338] loss2/fc -> loss2/fc
I1217 10:25:32.469687  8744 net.cpp:113] Setting up loss2/fc
I1217 10:25:32.549377  8744 net.cpp:120] Top shape: 80 1024 (81920)
I1217 10:25:32.549420  8744 layer_factory.hpp:74] Creating layer loss2/relu_fc
I1217 10:25:32.549438  8744 net.cpp:84] Creating Layer loss2/relu_fc
I1217 10:25:32.549453  8744 net.cpp:380] loss2/relu_fc <- loss2/fc
I1217 10:25:32.549465  8744 net.cpp:327] loss2/relu_fc -> loss2/fc (in-place)
I1217 10:25:32.549479  8744 net.cpp:113] Setting up loss2/relu_fc
I1217 10:25:32.550369  8744 net.cpp:120] Top shape: 80 1024 (81920)
I1217 10:25:32.550386  8744 layer_factory.hpp:74] Creating layer loss2/drop_fc
I1217 10:25:32.550400  8744 net.cpp:84] Creating Layer loss2/drop_fc
I1217 10:25:32.550407  8744 net.cpp:380] loss2/drop_fc <- loss2/fc
I1217 10:25:32.550416  8744 net.cpp:327] loss2/drop_fc -> loss2/fc (in-place)
I1217 10:25:32.550427  8744 net.cpp:113] Setting up loss2/drop_fc
I1217 10:25:32.550438  8744 net.cpp:120] Top shape: 80 1024 (81920)
I1217 10:25:32.550446  8744 layer_factory.hpp:74] Creating layer loss2/classifier_kaggle
I1217 10:25:32.550457  8744 net.cpp:84] Creating Layer loss2/classifier_kaggle
I1217 10:25:32.550464  8744 net.cpp:380] loss2/classifier_kaggle <- loss2/fc
I1217 10:25:32.550477  8744 net.cpp:338] loss2/classifier_kaggle -> loss2/classifier_kaggle
I1217 10:25:32.550489  8744 net.cpp:113] Setting up loss2/classifier_kaggle
I1217 10:25:32.557186  8744 net.cpp:120] Top shape: 80 447 (35760)
I1217 10:25:32.557205  8744 layer_factory.hpp:74] Creating layer loss2/loss
I1217 10:25:32.557220  8744 net.cpp:84] Creating Layer loss2/loss
I1217 10:25:32.557229  8744 net.cpp:380] loss2/loss <- loss2/classifier_kaggle
I1217 10:25:32.557238  8744 net.cpp:380] loss2/loss <- label_data_1_split_1
I1217 10:25:32.557247  8744 net.cpp:338] loss2/loss -> loss2/loss1
I1217 10:25:32.557258  8744 net.cpp:113] Setting up loss2/loss
I1217 10:25:32.557268  8744 layer_factory.hpp:74] Creating layer loss2/loss
I1217 10:25:32.557505  8744 net.cpp:120] Top shape: (1)
I1217 10:25:32.557533  8744 net.cpp:122]     with loss weight 0.3
I1217 10:25:32.557560  8744 layer_factory.hpp:74] Creating layer inception_4e/1x1
I1217 10:25:32.557579  8744 net.cpp:84] Creating Layer inception_4e/1x1
I1217 10:25:32.557586  8744 net.cpp:380] inception_4e/1x1 <- inception_4d/output_inception_4d/output_0_split_1
I1217 10:25:32.557600  8744 net.cpp:338] inception_4e/1x1 -> inception_4e/1x1
I1217 10:25:32.557611  8744 net.cpp:113] Setting up inception_4e/1x1
I1217 10:25:32.560438  8744 net.cpp:120] Top shape: 80 256 14 14 (4014080)
I1217 10:25:32.560461  8744 layer_factory.hpp:74] Creating layer inception_4e/relu_1x1
I1217 10:25:32.560474  8744 net.cpp:84] Creating Layer inception_4e/relu_1x1
I1217 10:25:32.560482  8744 net.cpp:380] inception_4e/relu_1x1 <- inception_4e/1x1
I1217 10:25:32.560492  8744 net.cpp:327] inception_4e/relu_1x1 -> inception_4e/1x1 (in-place)
I1217 10:25:32.560503  8744 net.cpp:113] Setting up inception_4e/relu_1x1
I1217 10:25:32.560593  8744 net.cpp:120] Top shape: 80 256 14 14 (4014080)
I1217 10:25:32.560603  8744 layer_factory.hpp:74] Creating layer inception_4e/3x3_reduce
I1217 10:25:32.560616  8744 net.cpp:84] Creating Layer inception_4e/3x3_reduce
I1217 10:25:32.560624  8744 net.cpp:380] inception_4e/3x3_reduce <- inception_4d/output_inception_4d/output_0_split_2
I1217 10:25:32.560636  8744 net.cpp:338] inception_4e/3x3_reduce -> inception_4e/3x3_reduce
I1217 10:25:32.560648  8744 net.cpp:113] Setting up inception_4e/3x3_reduce
I1217 10:25:32.562760  8744 net.cpp:120] Top shape: 80 160 14 14 (2508800)
I1217 10:25:32.562783  8744 layer_factory.hpp:74] Creating layer inception_4e/relu_3x3_reduce
I1217 10:25:32.562793  8744 net.cpp:84] Creating Layer inception_4e/relu_3x3_reduce
I1217 10:25:32.562800  8744 net.cpp:380] inception_4e/relu_3x3_reduce <- inception_4e/3x3_reduce
I1217 10:25:32.562809  8744 net.cpp:327] inception_4e/relu_3x3_reduce -> inception_4e/3x3_reduce (in-place)
I1217 10:25:32.562819  8744 net.cpp:113] Setting up inception_4e/relu_3x3_reduce
I1217 10:25:32.562909  8744 net.cpp:120] Top shape: 80 160 14 14 (2508800)
I1217 10:25:32.562918  8744 layer_factory.hpp:74] Creating layer inception_4e/3x3
I1217 10:25:32.562932  8744 net.cpp:84] Creating Layer inception_4e/3x3
I1217 10:25:32.562939  8744 net.cpp:380] inception_4e/3x3 <- inception_4e/3x3_reduce
I1217 10:25:32.562948  8744 net.cpp:338] inception_4e/3x3 -> inception_4e/3x3
I1217 10:25:32.562959  8744 net.cpp:113] Setting up inception_4e/3x3
I1217 10:25:32.570264  8744 net.cpp:120] Top shape: 80 320 14 14 (5017600)
I1217 10:25:32.570288  8744 layer_factory.hpp:74] Creating layer inception_4e/relu_3x3
I1217 10:25:32.570298  8744 net.cpp:84] Creating Layer inception_4e/relu_3x3
I1217 10:25:32.570305  8744 net.cpp:380] inception_4e/relu_3x3 <- inception_4e/3x3
I1217 10:25:32.570314  8744 net.cpp:327] inception_4e/relu_3x3 -> inception_4e/3x3 (in-place)
I1217 10:25:32.570324  8744 net.cpp:113] Setting up inception_4e/relu_3x3
I1217 10:25:32.570899  8744 net.cpp:120] Top shape: 80 320 14 14 (5017600)
I1217 10:25:32.570915  8744 layer_factory.hpp:74] Creating layer inception_4e/5x5_reduce
I1217 10:25:32.570930  8744 net.cpp:84] Creating Layer inception_4e/5x5_reduce
I1217 10:25:32.570937  8744 net.cpp:380] inception_4e/5x5_reduce <- inception_4d/output_inception_4d/output_0_split_3
I1217 10:25:32.570950  8744 net.cpp:338] inception_4e/5x5_reduce -> inception_4e/5x5_reduce
I1217 10:25:32.570961  8744 net.cpp:113] Setting up inception_4e/5x5_reduce
I1217 10:25:32.572115  8744 net.cpp:120] Top shape: 80 32 14 14 (501760)
I1217 10:25:32.572136  8744 layer_factory.hpp:74] Creating layer inception_4e/relu_5x5_reduce
I1217 10:25:32.572149  8744 net.cpp:84] Creating Layer inception_4e/relu_5x5_reduce
I1217 10:25:32.572157  8744 net.cpp:380] inception_4e/relu_5x5_reduce <- inception_4e/5x5_reduce
I1217 10:25:32.572166  8744 net.cpp:327] inception_4e/relu_5x5_reduce -> inception_4e/5x5_reduce (in-place)
I1217 10:25:32.572175  8744 net.cpp:113] Setting up inception_4e/relu_5x5_reduce
I1217 10:25:32.572264  8744 net.cpp:120] Top shape: 80 32 14 14 (501760)
I1217 10:25:32.572283  8744 layer_factory.hpp:74] Creating layer inception_4e/5x5
I1217 10:25:32.572331  8744 net.cpp:84] Creating Layer inception_4e/5x5
I1217 10:25:32.572340  8744 net.cpp:380] inception_4e/5x5 <- inception_4e/5x5_reduce
I1217 10:25:32.572351  8744 net.cpp:338] inception_4e/5x5 -> inception_4e/5x5
I1217 10:25:32.572362  8744 net.cpp:113] Setting up inception_4e/5x5
I1217 10:25:32.574633  8744 net.cpp:120] Top shape: 80 128 14 14 (2007040)
I1217 10:25:32.574657  8744 layer_factory.hpp:74] Creating layer inception_4e/relu_5x5
I1217 10:25:32.574667  8744 net.cpp:84] Creating Layer inception_4e/relu_5x5
I1217 10:25:32.574676  8744 net.cpp:380] inception_4e/relu_5x5 <- inception_4e/5x5
I1217 10:25:32.574683  8744 net.cpp:327] inception_4e/relu_5x5 -> inception_4e/5x5 (in-place)
I1217 10:25:32.574692  8744 net.cpp:113] Setting up inception_4e/relu_5x5
I1217 10:25:32.574779  8744 net.cpp:120] Top shape: 80 128 14 14 (2007040)
I1217 10:25:32.574789  8744 layer_factory.hpp:74] Creating layer inception_4e/pool
I1217 10:25:32.574796  8744 layer_factory.cpp:56] CUDNN does not support padding or multiple tops. Using Caffe's own pooling layer.
I1217 10:25:32.574805  8744 net.cpp:84] Creating Layer inception_4e/pool
I1217 10:25:32.574811  8744 net.cpp:380] inception_4e/pool <- inception_4d/output_inception_4d/output_0_split_4
I1217 10:25:32.574822  8744 net.cpp:338] inception_4e/pool -> inception_4e/pool
I1217 10:25:32.574832  8744 net.cpp:113] Setting up inception_4e/pool
I1217 10:25:32.574844  8744 net.cpp:120] Top shape: 80 528 14 14 (8279040)
I1217 10:25:32.574851  8744 layer_factory.hpp:74] Creating layer inception_4e/pool_proj
I1217 10:25:32.574862  8744 net.cpp:84] Creating Layer inception_4e/pool_proj
I1217 10:25:32.574868  8744 net.cpp:380] inception_4e/pool_proj <- inception_4e/pool
I1217 10:25:32.574877  8744 net.cpp:338] inception_4e/pool_proj -> inception_4e/pool_proj
I1217 10:25:32.574888  8744 net.cpp:113] Setting up inception_4e/pool_proj
I1217 10:25:32.576652  8744 net.cpp:120] Top shape: 80 128 14 14 (2007040)
I1217 10:25:32.576673  8744 layer_factory.hpp:74] Creating layer inception_4e/relu_pool_proj
I1217 10:25:32.576684  8744 net.cpp:84] Creating Layer inception_4e/relu_pool_proj
I1217 10:25:32.576691  8744 net.cpp:380] inception_4e/relu_pool_proj <- inception_4e/pool_proj
I1217 10:25:32.576700  8744 net.cpp:327] inception_4e/relu_pool_proj -> inception_4e/pool_proj (in-place)
I1217 10:25:32.576709  8744 net.cpp:113] Setting up inception_4e/relu_pool_proj
I1217 10:25:32.576793  8744 net.cpp:120] Top shape: 80 128 14 14 (2007040)
I1217 10:25:32.576802  8744 layer_factory.hpp:74] Creating layer inception_4e/output
I1217 10:25:32.576813  8744 net.cpp:84] Creating Layer inception_4e/output
I1217 10:25:32.576820  8744 net.cpp:380] inception_4e/output <- inception_4e/1x1
I1217 10:25:32.576828  8744 net.cpp:380] inception_4e/output <- inception_4e/3x3
I1217 10:25:32.576834  8744 net.cpp:380] inception_4e/output <- inception_4e/5x5
I1217 10:25:32.576841  8744 net.cpp:380] inception_4e/output <- inception_4e/pool_proj
I1217 10:25:32.576848  8744 net.cpp:338] inception_4e/output -> inception_4e/output
I1217 10:25:32.576858  8744 net.cpp:113] Setting up inception_4e/output
I1217 10:25:32.576869  8744 net.cpp:120] Top shape: 80 832 14 14 (13045760)
I1217 10:25:32.576875  8744 layer_factory.hpp:74] Creating layer pool4/3x3_s2
I1217 10:25:32.576884  8744 net.cpp:84] Creating Layer pool4/3x3_s2
I1217 10:25:32.576890  8744 net.cpp:380] pool4/3x3_s2 <- inception_4e/output
I1217 10:25:32.576901  8744 net.cpp:338] pool4/3x3_s2 -> pool4/3x3_s2
I1217 10:25:32.576910  8744 net.cpp:113] Setting up pool4/3x3_s2
I1217 10:25:32.579355  8744 net.cpp:120] Top shape: 80 832 7 7 (3261440)
I1217 10:25:32.579375  8744 layer_factory.hpp:74] Creating layer pool4/3x3_s2_pool4/3x3_s2_0_split
I1217 10:25:32.579391  8744 net.cpp:84] Creating Layer pool4/3x3_s2_pool4/3x3_s2_0_split
I1217 10:25:32.579397  8744 net.cpp:380] pool4/3x3_s2_pool4/3x3_s2_0_split <- pool4/3x3_s2
I1217 10:25:32.579406  8744 net.cpp:338] pool4/3x3_s2_pool4/3x3_s2_0_split -> pool4/3x3_s2_pool4/3x3_s2_0_split_0
I1217 10:25:32.579432  8744 net.cpp:338] pool4/3x3_s2_pool4/3x3_s2_0_split -> pool4/3x3_s2_pool4/3x3_s2_0_split_1
I1217 10:25:32.579443  8744 net.cpp:338] pool4/3x3_s2_pool4/3x3_s2_0_split -> pool4/3x3_s2_pool4/3x3_s2_0_split_2
I1217 10:25:32.579455  8744 net.cpp:338] pool4/3x3_s2_pool4/3x3_s2_0_split -> pool4/3x3_s2_pool4/3x3_s2_0_split_3
I1217 10:25:32.579463  8744 net.cpp:113] Setting up pool4/3x3_s2_pool4/3x3_s2_0_split
I1217 10:25:32.579473  8744 net.cpp:120] Top shape: 80 832 7 7 (3261440)
I1217 10:25:32.579480  8744 net.cpp:120] Top shape: 80 832 7 7 (3261440)
I1217 10:25:32.579486  8744 net.cpp:120] Top shape: 80 832 7 7 (3261440)
I1217 10:25:32.579493  8744 net.cpp:120] Top shape: 80 832 7 7 (3261440)
I1217 10:25:32.579499  8744 layer_factory.hpp:74] Creating layer inception_5a/1x1
I1217 10:25:32.579509  8744 net.cpp:84] Creating Layer inception_5a/1x1
I1217 10:25:32.579515  8744 net.cpp:380] inception_5a/1x1 <- pool4/3x3_s2_pool4/3x3_s2_0_split_0
I1217 10:25:32.579527  8744 net.cpp:338] inception_5a/1x1 -> inception_5a/1x1
I1217 10:25:32.579538  8744 net.cpp:113] Setting up inception_5a/1x1
I1217 10:25:32.584736  8744 net.cpp:120] Top shape: 80 256 7 7 (1003520)
I1217 10:25:32.584759  8744 layer_factory.hpp:74] Creating layer inception_5a/relu_1x1
I1217 10:25:32.584772  8744 net.cpp:84] Creating Layer inception_5a/relu_1x1
I1217 10:25:32.584779  8744 net.cpp:380] inception_5a/relu_1x1 <- inception_5a/1x1
I1217 10:25:32.584789  8744 net.cpp:327] inception_5a/relu_1x1 -> inception_5a/1x1 (in-place)
I1217 10:25:32.584797  8744 net.cpp:113] Setting up inception_5a/relu_1x1
I1217 10:25:32.584882  8744 net.cpp:120] Top shape: 80 256 7 7 (1003520)
I1217 10:25:32.584892  8744 layer_factory.hpp:74] Creating layer inception_5a/3x3_reduce
I1217 10:25:32.584903  8744 net.cpp:84] Creating Layer inception_5a/3x3_reduce
I1217 10:25:32.584909  8744 net.cpp:380] inception_5a/3x3_reduce <- pool4/3x3_s2_pool4/3x3_s2_0_split_1
I1217 10:25:32.584921  8744 net.cpp:338] inception_5a/3x3_reduce -> inception_5a/3x3_reduce
I1217 10:25:32.584933  8744 net.cpp:113] Setting up inception_5a/3x3_reduce
I1217 10:25:32.587393  8744 net.cpp:120] Top shape: 80 160 7 7 (627200)
I1217 10:25:32.587414  8744 layer_factory.hpp:74] Creating layer inception_5a/relu_3x3_reduce
I1217 10:25:32.587422  8744 net.cpp:84] Creating Layer inception_5a/relu_3x3_reduce
I1217 10:25:32.587430  8744 net.cpp:380] inception_5a/relu_3x3_reduce <- inception_5a/3x3_reduce
I1217 10:25:32.587438  8744 net.cpp:327] inception_5a/relu_3x3_reduce -> inception_5a/3x3_reduce (in-place)
I1217 10:25:32.587447  8744 net.cpp:113] Setting up inception_5a/relu_3x3_reduce
I1217 10:25:32.587528  8744 net.cpp:120] Top shape: 80 160 7 7 (627200)
I1217 10:25:32.587538  8744 layer_factory.hpp:74] Creating layer inception_5a/3x3
I1217 10:25:32.587549  8744 net.cpp:84] Creating Layer inception_5a/3x3
I1217 10:25:32.587555  8744 net.cpp:380] inception_5a/3x3 <- inception_5a/3x3_reduce
I1217 10:25:32.587563  8744 net.cpp:338] inception_5a/3x3 -> inception_5a/3x3
I1217 10:25:32.587574  8744 net.cpp:113] Setting up inception_5a/3x3
I1217 10:25:32.594282  8744 net.cpp:120] Top shape: 80 320 7 7 (1254400)
I1217 10:25:32.594303  8744 layer_factory.hpp:74] Creating layer inception_5a/relu_3x3
I1217 10:25:32.594315  8744 net.cpp:84] Creating Layer inception_5a/relu_3x3
I1217 10:25:32.594321  8744 net.cpp:380] inception_5a/relu_3x3 <- inception_5a/3x3
I1217 10:25:32.594329  8744 net.cpp:327] inception_5a/relu_3x3 -> inception_5a/3x3 (in-place)
I1217 10:25:32.594338  8744 net.cpp:113] Setting up inception_5a/relu_3x3
I1217 10:25:32.594419  8744 net.cpp:120] Top shape: 80 320 7 7 (1254400)
I1217 10:25:32.594426  8744 layer_factory.hpp:74] Creating layer inception_5a/5x5_reduce
I1217 10:25:32.594439  8744 net.cpp:84] Creating Layer inception_5a/5x5_reduce
I1217 10:25:32.594445  8744 net.cpp:380] inception_5a/5x5_reduce <- pool4/3x3_s2_pool4/3x3_s2_0_split_2
I1217 10:25:32.594455  8744 net.cpp:338] inception_5a/5x5_reduce -> inception_5a/5x5_reduce
I1217 10:25:32.594471  8744 net.cpp:113] Setting up inception_5a/5x5_reduce
I1217 10:25:32.595618  8744 net.cpp:120] Top shape: 80 32 7 7 (125440)
I1217 10:25:32.595639  8744 layer_factory.hpp:74] Creating layer inception_5a/relu_5x5_reduce
I1217 10:25:32.595649  8744 net.cpp:84] Creating Layer inception_5a/relu_5x5_reduce
I1217 10:25:32.595655  8744 net.cpp:380] inception_5a/relu_5x5_reduce <- inception_5a/5x5_reduce
I1217 10:25:32.595665  8744 net.cpp:327] inception_5a/relu_5x5_reduce -> inception_5a/5x5_reduce (in-place)
I1217 10:25:32.595675  8744 net.cpp:113] Setting up inception_5a/relu_5x5_reduce
I1217 10:25:32.596323  8744 net.cpp:120] Top shape: 80 32 7 7 (125440)
I1217 10:25:32.596338  8744 layer_factory.hpp:74] Creating layer inception_5a/5x5
I1217 10:25:32.596349  8744 net.cpp:84] Creating Layer inception_5a/5x5
I1217 10:25:32.596356  8744 net.cpp:380] inception_5a/5x5 <- inception_5a/5x5_reduce
I1217 10:25:32.596371  8744 net.cpp:338] inception_5a/5x5 -> inception_5a/5x5
I1217 10:25:32.596382  8744 net.cpp:113] Setting up inception_5a/5x5
I1217 10:25:32.598507  8744 net.cpp:120] Top shape: 80 128 7 7 (501760)
I1217 10:25:32.598527  8744 layer_factory.hpp:74] Creating layer inception_5a/relu_5x5
I1217 10:25:32.598538  8744 net.cpp:84] Creating Layer inception_5a/relu_5x5
I1217 10:25:32.598546  8744 net.cpp:380] inception_5a/relu_5x5 <- inception_5a/5x5
I1217 10:25:32.598553  8744 net.cpp:327] inception_5a/relu_5x5 -> inception_5a/5x5 (in-place)
I1217 10:25:32.598562  8744 net.cpp:113] Setting up inception_5a/relu_5x5
I1217 10:25:32.598639  8744 net.cpp:120] Top shape: 80 128 7 7 (501760)
I1217 10:25:32.598652  8744 layer_factory.hpp:74] Creating layer inception_5a/pool
I1217 10:25:32.598659  8744 layer_factory.cpp:56] CUDNN does not support padding or multiple tops. Using Caffe's own pooling layer.
I1217 10:25:32.598666  8744 net.cpp:84] Creating Layer inception_5a/pool
I1217 10:25:32.598673  8744 net.cpp:380] inception_5a/pool <- pool4/3x3_s2_pool4/3x3_s2_0_split_3
I1217 10:25:32.598683  8744 net.cpp:338] inception_5a/pool -> inception_5a/pool
I1217 10:25:32.598692  8744 net.cpp:113] Setting up inception_5a/pool
I1217 10:25:32.598702  8744 net.cpp:120] Top shape: 80 832 7 7 (3261440)
I1217 10:25:32.598708  8744 layer_factory.hpp:74] Creating layer inception_5a/pool_proj
I1217 10:25:32.598718  8744 net.cpp:84] Creating Layer inception_5a/pool_proj
I1217 10:25:32.598724  8744 net.cpp:380] inception_5a/pool_proj <- inception_5a/pool
I1217 10:25:32.598737  8744 net.cpp:338] inception_5a/pool_proj -> inception_5a/pool_proj
I1217 10:25:32.598747  8744 net.cpp:113] Setting up inception_5a/pool_proj
I1217 10:25:32.600742  8744 net.cpp:120] Top shape: 80 128 7 7 (501760)
I1217 10:25:32.600764  8744 layer_factory.hpp:74] Creating layer inception_5a/relu_pool_proj
I1217 10:25:32.600774  8744 net.cpp:84] Creating Layer inception_5a/relu_pool_proj
I1217 10:25:32.600780  8744 net.cpp:380] inception_5a/relu_pool_proj <- inception_5a/pool_proj
I1217 10:25:32.600788  8744 net.cpp:327] inception_5a/relu_pool_proj -> inception_5a/pool_proj (in-place)
I1217 10:25:32.600797  8744 net.cpp:113] Setting up inception_5a/relu_pool_proj
I1217 10:25:32.600873  8744 net.cpp:120] Top shape: 80 128 7 7 (501760)
I1217 10:25:32.600882  8744 layer_factory.hpp:74] Creating layer inception_5a/output
I1217 10:25:32.600890  8744 net.cpp:84] Creating Layer inception_5a/output
I1217 10:25:32.600895  8744 net.cpp:380] inception_5a/output <- inception_5a/1x1
I1217 10:25:32.600903  8744 net.cpp:380] inception_5a/output <- inception_5a/3x3
I1217 10:25:32.600909  8744 net.cpp:380] inception_5a/output <- inception_5a/5x5
I1217 10:25:32.600914  8744 net.cpp:380] inception_5a/output <- inception_5a/pool_proj
I1217 10:25:32.600922  8744 net.cpp:338] inception_5a/output -> inception_5a/output
I1217 10:25:32.600930  8744 net.cpp:113] Setting up inception_5a/output
I1217 10:25:32.600940  8744 net.cpp:120] Top shape: 80 832 7 7 (3261440)
I1217 10:25:32.600945  8744 layer_factory.hpp:74] Creating layer inception_5a/output_inception_5a/output_0_split
I1217 10:25:32.600960  8744 net.cpp:84] Creating Layer inception_5a/output_inception_5a/output_0_split
I1217 10:25:32.600973  8744 net.cpp:380] inception_5a/output_inception_5a/output_0_split <- inception_5a/output
I1217 10:25:32.600982  8744 net.cpp:338] inception_5a/output_inception_5a/output_0_split -> inception_5a/output_inception_5a/output_0_split_0
I1217 10:25:32.600992  8744 net.cpp:338] inception_5a/output_inception_5a/output_0_split -> inception_5a/output_inception_5a/output_0_split_1
I1217 10:25:32.601001  8744 net.cpp:338] inception_5a/output_inception_5a/output_0_split -> inception_5a/output_inception_5a/output_0_split_2
I1217 10:25:32.601009  8744 net.cpp:338] inception_5a/output_inception_5a/output_0_split -> inception_5a/output_inception_5a/output_0_split_3
I1217 10:25:32.601016  8744 net.cpp:113] Setting up inception_5a/output_inception_5a/output_0_split
I1217 10:25:32.601027  8744 net.cpp:120] Top shape: 80 832 7 7 (3261440)
I1217 10:25:32.601033  8744 net.cpp:120] Top shape: 80 832 7 7 (3261440)
I1217 10:25:32.601039  8744 net.cpp:120] Top shape: 80 832 7 7 (3261440)
I1217 10:25:32.601044  8744 net.cpp:120] Top shape: 80 832 7 7 (3261440)
I1217 10:25:32.601049  8744 layer_factory.hpp:74] Creating layer inception_5b/1x1
I1217 10:25:32.601065  8744 net.cpp:84] Creating Layer inception_5b/1x1
I1217 10:25:32.601073  8744 net.cpp:380] inception_5b/1x1 <- inception_5a/output_inception_5a/output_0_split_0
I1217 10:25:32.601083  8744 net.cpp:338] inception_5b/1x1 -> inception_5b/1x1
I1217 10:25:32.601092  8744 net.cpp:113] Setting up inception_5b/1x1
I1217 10:25:32.605770  8744 net.cpp:120] Top shape: 80 384 7 7 (1505280)
I1217 10:25:32.605792  8744 layer_factory.hpp:74] Creating layer inception_5b/relu_1x1
I1217 10:25:32.605803  8744 net.cpp:84] Creating Layer inception_5b/relu_1x1
I1217 10:25:32.605809  8744 net.cpp:380] inception_5b/relu_1x1 <- inception_5b/1x1
I1217 10:25:32.605818  8744 net.cpp:327] inception_5b/relu_1x1 -> inception_5b/1x1 (in-place)
I1217 10:25:32.605826  8744 net.cpp:113] Setting up inception_5b/relu_1x1
I1217 10:25:32.606468  8744 net.cpp:120] Top shape: 80 384 7 7 (1505280)
I1217 10:25:32.606482  8744 layer_factory.hpp:74] Creating layer inception_5b/3x3_reduce
I1217 10:25:32.606495  8744 net.cpp:84] Creating Layer inception_5b/3x3_reduce
I1217 10:25:32.606501  8744 net.cpp:380] inception_5b/3x3_reduce <- inception_5a/output_inception_5a/output_0_split_1
I1217 10:25:32.606513  8744 net.cpp:338] inception_5b/3x3_reduce -> inception_5b/3x3_reduce
I1217 10:25:32.606524  8744 net.cpp:113] Setting up inception_5b/3x3_reduce
I1217 10:25:32.612980  8744 net.cpp:120] Top shape: 80 192 7 7 (752640)
I1217 10:25:32.613004  8744 layer_factory.hpp:74] Creating layer inception_5b/relu_3x3_reduce
I1217 10:25:32.613019  8744 net.cpp:84] Creating Layer inception_5b/relu_3x3_reduce
I1217 10:25:32.613028  8744 net.cpp:380] inception_5b/relu_3x3_reduce <- inception_5b/3x3_reduce
I1217 10:25:32.613035  8744 net.cpp:327] inception_5b/relu_3x3_reduce -> inception_5b/3x3_reduce (in-place)
I1217 10:25:32.613045  8744 net.cpp:113] Setting up inception_5b/relu_3x3_reduce
I1217 10:25:32.613664  8744 net.cpp:120] Top shape: 80 192 7 7 (752640)
I1217 10:25:32.613678  8744 layer_factory.hpp:74] Creating layer inception_5b/3x3
I1217 10:25:32.613690  8744 net.cpp:84] Creating Layer inception_5b/3x3
I1217 10:25:32.613697  8744 net.cpp:380] inception_5b/3x3 <- inception_5b/3x3_reduce
I1217 10:25:32.613706  8744 net.cpp:338] inception_5b/3x3 -> inception_5b/3x3
I1217 10:25:32.613741  8744 net.cpp:113] Setting up inception_5b/3x3
I1217 10:25:32.654155  8744 net.cpp:120] Top shape: 80 384 7 7 (1505280)
I1217 10:25:32.654213  8744 layer_factory.hpp:74] Creating layer inception_5b/relu_3x3
I1217 10:25:32.654237  8744 net.cpp:84] Creating Layer inception_5b/relu_3x3
I1217 10:25:32.654253  8744 net.cpp:380] inception_5b/relu_3x3 <- inception_5b/3x3
I1217 10:25:32.654273  8744 net.cpp:327] inception_5b/relu_3x3 -> inception_5b/3x3 (in-place)
I1217 10:25:32.654294  8744 net.cpp:113] Setting up inception_5b/relu_3x3
I1217 10:25:32.654445  8744 net.cpp:120] Top shape: 80 384 7 7 (1505280)
I1217 10:25:32.654481  8744 layer_factory.hpp:74] Creating layer inception_5b/5x5_reduce
I1217 10:25:32.654503  8744 net.cpp:84] Creating Layer inception_5b/5x5_reduce
I1217 10:25:32.654516  8744 net.cpp:380] inception_5b/5x5_reduce <- inception_5a/output_inception_5a/output_0_split_2
I1217 10:25:32.654536  8744 net.cpp:338] inception_5b/5x5_reduce -> inception_5b/5x5_reduce
I1217 10:25:32.654558  8744 net.cpp:113] Setting up inception_5b/5x5_reduce
I1217 10:25:32.656997  8744 net.cpp:120] Top shape: 80 48 7 7 (188160)
I1217 10:25:32.657029  8744 layer_factory.hpp:74] Creating layer inception_5b/relu_5x5_reduce
I1217 10:25:32.657047  8744 net.cpp:84] Creating Layer inception_5b/relu_5x5_reduce
I1217 10:25:32.657074  8744 net.cpp:380] inception_5b/relu_5x5_reduce <- inception_5b/5x5_reduce
I1217 10:25:32.657094  8744 net.cpp:327] inception_5b/relu_5x5_reduce -> inception_5b/5x5_reduce (in-place)
I1217 10:25:32.657112  8744 net.cpp:113] Setting up inception_5b/relu_5x5_reduce
I1217 10:25:32.657258  8744 net.cpp:120] Top shape: 80 48 7 7 (188160)
I1217 10:25:32.657276  8744 layer_factory.hpp:74] Creating layer inception_5b/5x5
I1217 10:25:32.657312  8744 net.cpp:84] Creating Layer inception_5b/5x5
I1217 10:25:32.657325  8744 net.cpp:380] inception_5b/5x5 <- inception_5b/5x5_reduce
I1217 10:25:32.657341  8744 net.cpp:338] inception_5b/5x5 -> inception_5b/5x5
I1217 10:25:32.657359  8744 net.cpp:113] Setting up inception_5b/5x5
I1217 10:25:32.664710  8744 net.cpp:120] Top shape: 80 128 7 7 (501760)
I1217 10:25:32.664743  8744 layer_factory.hpp:74] Creating layer inception_5b/relu_5x5
I1217 10:25:32.664762  8744 net.cpp:84] Creating Layer inception_5b/relu_5x5
I1217 10:25:32.664774  8744 net.cpp:380] inception_5b/relu_5x5 <- inception_5b/5x5
I1217 10:25:32.664790  8744 net.cpp:327] inception_5b/relu_5x5 -> inception_5b/5x5 (in-place)
I1217 10:25:32.664806  8744 net.cpp:113] Setting up inception_5b/relu_5x5
I1217 10:25:32.665644  8744 net.cpp:120] Top shape: 80 128 7 7 (501760)
I1217 10:25:32.665674  8744 layer_factory.hpp:74] Creating layer inception_5b/pool
I1217 10:25:32.665684  8744 layer_factory.cpp:56] CUDNN does not support padding or multiple tops. Using Caffe's own pooling layer.
I1217 10:25:32.665695  8744 net.cpp:84] Creating Layer inception_5b/pool
I1217 10:25:32.665704  8744 net.cpp:380] inception_5b/pool <- inception_5a/output_inception_5a/output_0_split_3
I1217 10:25:32.665714  8744 net.cpp:338] inception_5b/pool -> inception_5b/pool
I1217 10:25:32.665727  8744 net.cpp:113] Setting up inception_5b/pool
I1217 10:25:32.665750  8744 net.cpp:120] Top shape: 80 832 7 7 (3261440)
I1217 10:25:32.665761  8744 layer_factory.hpp:74] Creating layer inception_5b/pool_proj
I1217 10:25:32.665793  8744 net.cpp:84] Creating Layer inception_5b/pool_proj
I1217 10:25:32.665807  8744 net.cpp:380] inception_5b/pool_proj <- inception_5b/pool
I1217 10:25:32.665824  8744 net.cpp:338] inception_5b/pool_proj -> inception_5b/pool_proj
I1217 10:25:32.665844  8744 net.cpp:113] Setting up inception_5b/pool_proj
I1217 10:25:32.668658  8744 net.cpp:120] Top shape: 80 128 7 7 (501760)
I1217 10:25:32.668687  8744 layer_factory.hpp:74] Creating layer inception_5b/relu_pool_proj
I1217 10:25:32.668704  8744 net.cpp:84] Creating Layer inception_5b/relu_pool_proj
I1217 10:25:32.668716  8744 net.cpp:380] inception_5b/relu_pool_proj <- inception_5b/pool_proj
I1217 10:25:32.668735  8744 net.cpp:327] inception_5b/relu_pool_proj -> inception_5b/pool_proj (in-place)
I1217 10:25:32.668751  8744 net.cpp:113] Setting up inception_5b/relu_pool_proj
I1217 10:25:32.668882  8744 net.cpp:120] Top shape: 80 128 7 7 (501760)
I1217 10:25:32.668897  8744 layer_factory.hpp:74] Creating layer inception_5b/output
I1217 10:25:32.668908  8744 net.cpp:84] Creating Layer inception_5b/output
I1217 10:25:32.668916  8744 net.cpp:380] inception_5b/output <- inception_5b/1x1
I1217 10:25:32.668926  8744 net.cpp:380] inception_5b/output <- inception_5b/3x3
I1217 10:25:32.668932  8744 net.cpp:380] inception_5b/output <- inception_5b/5x5
I1217 10:25:32.668951  8744 net.cpp:380] inception_5b/output <- inception_5b/pool_proj
I1217 10:25:32.668982  8744 net.cpp:338] inception_5b/output -> inception_5b/output
I1217 10:25:32.668999  8744 net.cpp:113] Setting up inception_5b/output
I1217 10:25:32.669018  8744 net.cpp:120] Top shape: 80 1024 7 7 (4014080)
I1217 10:25:32.669028  8744 layer_factory.hpp:74] Creating layer pool5/7x7_s1
I1217 10:25:32.669044  8744 net.cpp:84] Creating Layer pool5/7x7_s1
I1217 10:25:32.669067  8744 net.cpp:380] pool5/7x7_s1 <- inception_5b/output
I1217 10:25:32.669091  8744 net.cpp:338] pool5/7x7_s1 -> pool5/7x7_s1
I1217 10:25:32.669108  8744 net.cpp:113] Setting up pool5/7x7_s1
I1217 10:25:32.669235  8744 net.cpp:120] Top shape: 80 1024 1 1 (81920)
I1217 10:25:32.669251  8744 layer_factory.hpp:74] Creating layer pool5/drop_7x7_s1
I1217 10:25:32.669281  8744 net.cpp:84] Creating Layer pool5/drop_7x7_s1
I1217 10:25:32.669292  8744 net.cpp:380] pool5/drop_7x7_s1 <- pool5/7x7_s1
I1217 10:25:32.669317  8744 net.cpp:327] pool5/drop_7x7_s1 -> pool5/7x7_s1 (in-place)
I1217 10:25:32.669330  8744 net.cpp:113] Setting up pool5/drop_7x7_s1
I1217 10:25:32.669347  8744 net.cpp:120] Top shape: 80 1024 1 1 (81920)
I1217 10:25:32.669358  8744 layer_factory.hpp:74] Creating layer loss3/classifier_kaggle
I1217 10:25:32.669373  8744 net.cpp:84] Creating Layer loss3/classifier_kaggle
I1217 10:25:32.669384  8744 net.cpp:380] loss3/classifier_kaggle <- pool5/7x7_s1
I1217 10:25:32.669395  8744 net.cpp:338] loss3/classifier_kaggle -> loss3/classifier_kaggle
I1217 10:25:32.669406  8744 net.cpp:113] Setting up loss3/classifier_kaggle
I1217 10:25:32.676750  8744 net.cpp:120] Top shape: 80 447 (35760)
I1217 10:25:32.676777  8744 layer_factory.hpp:74] Creating layer loss3/loss3
I1217 10:25:32.676795  8744 net.cpp:84] Creating Layer loss3/loss3
I1217 10:25:32.676806  8744 net.cpp:380] loss3/loss3 <- loss3/classifier_kaggle
I1217 10:25:32.676820  8744 net.cpp:380] loss3/loss3 <- label_data_1_split_2
I1217 10:25:32.676833  8744 net.cpp:338] loss3/loss3 -> loss3/loss3
I1217 10:25:32.676849  8744 net.cpp:113] Setting up loss3/loss3
…
I1217 10:25:32.686594  8744 net.cpp:257] The NetState phase (1) differed from the phase (0) specified by a rule in layer data
I1217 10:25:32.689363  8744 net.cpp:42] Initializing net from parameters: 
name: "GoogleNet"
state {
  phase: TEST
}
layer {
  name: "data"
  type: "Data"
  top: "data"
  top: "label"
  include {
    phase: TEST
  }
  transform_param {
    mirror: false
    crop_size: 224
    mean_value: 129
    mean_value: 129
    mean_value: 129
  }
  data_param {
    source: "/home/coldmanck/kaggle/kaggle2_val_lmdb"
    batch_size: 50
    backend: LMDB
  }
}
layer {
  name: "conv1/7x7_s2"
  type: "Convolution"
  bottom: "data"
  top: "conv1/7x7_s2"
  param {
    lr_mult: 1
    decay_mult: 1
  }
  param {
    lr_mult: 2
    decay_mult: 0
  }
  convolution_param {
    num_output: 64
    pad: 3
    kernel_size: 7
    stride: 2
    weight_filler {
      type: "xavier"
    }
    bias_filler {
      type: "constant"
      value: 0.2
    }
  }
}
layer {
  name: "conv1/relu_7x7"
  type: "ReLU"
  bottom: "conv1/7x7_s2"
  top: "conv1/7x7_s2"
}
layer {
  name: "pool1/3x3_s2"
  type: "Pooling"
  bottom: "conv1/7x7_s2"
  top: "pool1/3x3_s2"
  pooling_param {
    pool: MAX
    kernel_size: 3
    stride: 2
  }
}
layer {
  name: "pool1/norm1"
  type: "LRN"
  bottom: "pool1/3x3_s2"
  top: "pool1/norm1"
  lrn_param {
    local_size: 5
    alpha: 0.0001
    beta: 0.75
  }
}
layer {
  name: "conv2/3x3_reduce"
  type: "Convolution"
  bottom: "pool1/norm1"
  top: "conv2/3x3_reduce"
  param {
    lr_mult: 1
    decay_mult: 1
  }
  param {
    lr_mult: 2
    decay_mult: 0
  }
  convolution_param {
    num_output: 64
    kernel_size: 1
    weight_filler {
      type: "xavier"
    }
    bias_filler {
      type: "constant"
      value: 0.2
    }
  }
}
layer {
  name: "conv2/relu_3x3_reduce"
  type: "ReLU"
  bottom: "conv2/3x3_reduce"
  top: "conv2/3x3_reduce"
}
layer {
  name: "conv2/3x3"
  type: "Convolution"
  bottom: "conv2/3x3_reduce"
  top: "conv2/3x3"
  param {
    lr_mult: 1
    decay_mult: 1
  }
  param {
    lr_mult: 2
    decay_mult: 0
  }
  convolution_param {
    num_output: 192
    pad: 1
    kernel_size: 3
    weight_filler {
      type: "xavier"
    }
    bias_filler {
      type: "constant"
      value: 0.2
    }
  }
}
layer {
  name: "conv2/relu_3x3"
  type: "ReLU"
  bottom: "conv2/3x3"
  top: "conv2/3x3"
}
layer {
  name: "conv2/norm2"
  type: "LRN"
  bottom: "conv2/3x3"
  top: "conv2/norm2"
  lrn_param {
    local_size: 5
    alpha: 0.0001
    beta: 0.75
  }
}
layer {
  name: "pool2/3x3_s2"
  type: "Pooling"
  bottom: "conv2/norm2"
  top: "pool2/3x3_s2"
  pooling_param {
    pool: MAX
    kernel_size: 3
    stride: 2
  }
}
layer {
  name: "inception_3a/1x1"
  type: "Convolution"
  bottom: "pool2/3x3_s2"
  top: "inception_3a/1x1"
  param {
    lr_mult: 1
    decay_mult: 1
  }
  param {
    lr_mult: 2
    decay_mult: 0
  }
  convolution_param {
    num_output: 64
    kernel_size: 1
    weight_filler {
      type: "xavier"
    }
    bias_filler {
      type: "constant"
      value: 0.2
    }
  }
}
layer {
  name: "inception_3a/relu_1x1"
  type: "ReLU"
  bottom: "inception_3a/1x1"
  top: "inception_3a/1x1"
}
layer {
  name: "inception_3a/3x3_reduce"
  type: "Convolution"
  bottom: "pool2/3x3_s2"
  top: "inception_3a/3x3_reduce"
  param {
    lr_mult: 1
    decay_mult: 1
  }
  param {
    lr_mult: 2
    decay_mult: 0
  }
  convolution_param {
    num_output: 96
    kernel_size: 1
    weight_filler {
      type: "xavier"
    }
    bias_filler {
      type: "constant"
      value: 0.2
    }
  }
}
layer {
  name: "inception_3a/relu_3x3_reduce"
  type: "ReLU"
  bottom: "inception_3a/3x3_reduce"
  top: "inception_3a/3x3_reduce"
}
layer {
  name: "inception_3a/3x3"
  type: "Convolution"
  bottom: "inception_3a/3x3_reduce"
  top: "inception_3a/3x3"
  param {
    lr_mult: 1
    decay_mult: 1
  }
  param {
    lr_mult: 2
    decay_mult: 0
  }
  convolution_param {
    num_output: 128
    pad: 1
    kernel_size: 3
    weight_filler {
      type: "xavier"
    }
    bias_filler {
      type: "constant"
      value: 0.2
    }
  }
}
layer {
  name: "inception_3a/relu_3x3"
  type: "ReLU"
  bottom: "inception_3a/3x3"
  top: "inception_3a/3x3"
}
layer {
  name: "inception_3a/5x5_reduce"
  type: "Convolution"
  bottom: "pool2/3x3_s2"
  top: "inception_3a/5x5_reduce"
  param {
    lr_mult: 1
    decay_mult: 1
  }
  param {
    lr_mult: 2
    decay_mult: 0
  }
  convolution_param {
    num_output: 16
    kernel_size: 1
    weight_filler {
      type: "xavier"
    }
    bias_filler {
      type: "constant"
      value: 0.2
    }
  }
}
layer {
  name: "inception_3a/relu_5x5_reduce"
  type: "ReLU"
  bottom: "inception_3a/5x5_reduce"
  top: "inception_3a/5x5_reduce"
}
layer {
  name: "inception_3a/5x5"
  type: "Convolution"
  bottom: "inception_3a/5x5_reduce"
  top: "inception_3a/5x5"
  param {
    lr_mult: 1
    decay_mult: 1
  }
  param {
    lr_mult: 2
    decay_mult: 0
  }
  convolution_param {
    num_output: 32
    pad: 2
    kernel_size: 5
    weight_filler {
      type: "xavier"
    }
    bias_filler {
      type: "constant"
      value: 0.2
    }
  }
}
layer {
  name: "inception_3a/relu_5x5"
  type: "ReLU"
  bottom: "inception_3a/5x5"
  top: "inception_3a/5x5"
}
layer {
  name: "inception_3a/pool"
  type: "Pooling"
  bottom: "pool2/3x3_s2"
  top: "inception_3a/pool"
  pooling_param {
    pool: MAX
    kernel_size: 3
    stride: 1
    pad: 1
  }
}
layer {
  name: "inception_3a/pool_proj"
  type: "Convolution"
  bottom: "inception_3a/pool"
  top: "inception_3a/pool_proj"
  param {
    lr_mult: 1
    decay_mult: 1
  }
  param {
    lr_mult: 2
    decay_mult: 0
  }
  convolution_param {
    num_output: 32
    kernel_size: 1
    weight_filler {
      type: "xavier"
    }
    bias_filler {
      type: "constant"
      value: 0.2
    }
  }
}
layer {
  name: "inception_3a/relu_pool_proj"
  type: "ReLU"
  bottom: "inception_3a/pool_proj"
  top: "inception_3a/pool_proj"
}
layer {
  name: "inception_3a/output"
  type: "Concat"
  bottom: "inception_3a/1x1"
  bottom: "inception_3a/3x3"
  bottom: "inception_3a/5x5"
  bottom: "inception_3a/pool_proj"
  top: "inception_3a/output"
}
layer {
  name: "inception_3b/1x1"
  type: "Convolution"
  bottom: "inception_3a/output"
  top: "inception_3b/1x1"
  param {
    lr_mult: 1
    decay_mult: 1
  }
  param {
    lr_mult: 2
    decay_mult: 0
  }
  convolution_param {
    num_output: 128
    kernel_size: 1
    weight_filler {
      type: "xavier"
    }
    bias_filler {
      type: "constant"
      value: 0.2
    }
  }
}
layer {
  name: "inception_3b/relu_1x1"
  type: "ReLU"
  bottom: "inception_3b/1x1"
  top: "inception_3b/1x1"
}
layer {
  name: "inception_3b/3x3_reduce"
  type: "Convolution"
  bottom: "inception_3a/output"
  top: "inception_3b/3x3_reduce"
  param {
    lr_mult: 1
    decay_mult: 1
  }
  param {
    lr_mult: 2
    decay_mult: 0
  }
  convolution_param {
    num_output: 128
    kernel_size: 1
    weight_filler {
      type: "xavier"
    }
    bias_filler {
      type: "constant"
      value: 0.2
    }
  }
}
layer {
  name: "inception_3b/relu_3x3_reduce"
  type: "ReLU"
  bottom: "inception_3b/3x3_reduce"
  top: "inception_3b/3x3_reduce"
}
layer {
  name: "inception_3b/3x3"
  type: "Convolution"
  bottom: "inception_3b/3x3_reduce"
  top: "inception_3b/3x3"
  param {
    lr_mult: 1
    decay_mult: 1
  }
  param {
    lr_mult: 2
    decay_mult: 0
  }
  convolution_param {
    num_output: 192
    pad: 1
    kernel_size: 3
    weight_filler {
      type: "xavier"
    }
    bias_filler {
      type: "constant"
      value: 0.2
    }
  }
}
layer {
  name: "inception_3b/relu_3x3"
  type: "ReLU"
  bottom: "inception_3b/3x3"
  top: "inception_3b/3x3"
}
layer {
  name: "inception_3b/5x5_reduce"
  type: "Convolution"
  bottom: "inception_3a/output"
  top: "inception_3b/5x5_reduce"
  param {
    lr_mult: 1
    decay_mult: 1
  }
  param {
    lr_mult: 2
    decay_mult: 0
  }
  convolution_param {
    num_output: 32
    kernel_size: 1
    weight_filler {
      type: "xavier"
    }
    bias_filler {
      type: "constant"
      value: 0.2
    }
  }
}
layer {
  name: "inception_3b/relu_5x5_reduce"
  type: "ReLU"
  bottom: "inception_3b/5x5_reduce"
  top: "inception_3b/5x5_reduce"
}
layer {
  name: "inception_3b/5x5"
  type: "Convolution"
  bottom: "inception_3b/5x5_reduce"
  top: "inception_3b/5x5"
  param {
    lr_mult: 1
    decay_mult: 1
  }
  param {
    lr_mult: 2
    decay_mult: 0
  }
  convolution_param {
    num_output: 96
    pad: 2
    kernel_size: 5
    weight_filler {
      type: "xavier"
    }
    bias_filler {
      type: "constant"
      value: 0.2
    }
  }
}
layer {
  name: "inception_3b/relu_5x5"
  type: "ReLU"
  bottom: "inception_3b/5x5"
  top: "inception_3b/5x5"
}
layer {
  name: "inception_3b/pool"
  type: "Pooling"
  bottom: "inception_3a/output"
  top: "inception_3b/pool"
  pooling_param {
    pool: MAX
    kernel_size: 3
    stride: 1
    pad: 1
  }
}
layer {
  name: "inception_3b/pool_proj"
  type: "Convolution"
  bottom: "inception_3b/pool"
  top: "inception_3b/pool_proj"
  param {
    lr_mult: 1
    decay_mult: 1
  }
  param {
    lr_mult: 2
    decay_mult: 0
  }
  convolution_param {
    num_output: 64
    kernel_size: 1
    weight_filler {
      type: "xavier"
    }
    bias_filler {
      type: "constant"
      value: 0.2
    }
  }
}
layer {
  name: "inception_3b/relu_pool_proj"
  type: "ReLU"
  bottom: "inception_3b/pool_proj"
  top: "inception_3b/pool_proj"
}
layer {
  name: "inception_3b/output"
  type: "Concat"
  bottom: "inception_3b/1x1"
  bottom: "inception_3b/3x3"
  bottom: "inception_3b/5x5"
  bottom: "inception_3b/pool_proj"
  top: "inception_3b/output"
}
layer {
  name: "pool3/3x3_s2"
  type: "Pooling"
  bottom: "inception_3b/output"
  top: "pool3/3x3_s2"
  pooling_param {
    pool: MAX
    kernel_size: 3
    stride: 2
  }
}
layer {
  name: "inception_4a/1x1"
  type: "Convolution"
  bottom: "pool3/3x3_s2"
  top: "inception_4a/1x1"
  param {
    lr_mult: 1
    decay_mult: 1
  }
  param {
    lr_mult: 2
    decay_mult: 0
  }
  convolution_param {
    num_output: 192
    kernel_size: 1
    weight_filler {
      type: "xavier"
    }
    bias_filler {
      type: "constant"
      value: 0.2
    }
  }
}
layer {
  name: "inception_4a/relu_1x1"
  type: "ReLU"
  bottom: "inception_4a/1x1"
  top: "inception_4a/1x1"
}
layer {
  name: "inception_4a/3x3_reduce"
  type: "Convolution"
  bottom: "pool3/3x3_s2"
  top: "inception_4a/3x3_reduce"
  param {
    lr_mult: 1
    decay_mult: 1
  }
  param {
    lr_mult: 2
    decay_mult: 0
  }
  convolution_param {
    num_output: 96
    kernel_size: 1
    weight_filler {
      type: "xavier"
    }
    bias_filler {
      type: "constant"
      value: 0.2
    }
  }
}
layer {
  name: "inception_4a/relu_3x3_reduce"
  type: "ReLU"
  bottom: "inception_4a/3x3_reduce"
  top: "inception_4a/3x3_reduce"
}
layer {
  name: "inception_4a/3x3"
  type: "Convolution"
  bottom: "inception_4a/3x3_reduce"
  top: "inception_4a/3x3"
  param {
    lr_mult: 1
    decay_mult: 1
  }
  param {
    lr_mult: 2
    decay_mult: 0
  }
  convolution_param {
    num_output: 208
    pad: 1
    kernel_size: 3
    weight_filler {
      type: "xavier"
    }
    bias_filler {
      type: "constant"
      value: 0.2
    }
  }
}
layer {
  name: "inception_4a/relu_3x3"
  type: "ReLU"
  bottom: "inception_4a/3x3"
  top: "inception_4a/3x3"
}
layer {
  name: "inception_4a/5x5_reduce"
  type: "Convolution"
  bottom: "pool3/3x3_s2"
  top: "inception_4a/5x5_reduce"
  param {
    lr_mult: 1
    decay_mult: 1
  }
  param {
    lr_mult: 2
    decay_mult: 0
  }
  convolution_param {
    num_output: 16
    kernel_size: 1
    weight_filler {
      type: "xavier"
    }
    bias_filler {
      type: "constant"
      value: 0.2
    }
  }
}
layer {
  name: "inception_4a/relu_5x5_reduce"
  type: "ReLU"
  bottom: "inception_4a/5x5_reduce"
  top: "inception_4a/5x5_reduce"
}
layer {
  name: "inception_4a/5x5"
  type: "Convolution"
  bottom: "inception_4a/5x5_reduce"
  top: "inception_4a/5x5"
  param {
    lr_mult: 1
    decay_mult: 1
  }
  param {
    lr_mult: 2
    decay_mult: 0
  }
  convolution_param {
    num_output: 48
    pad: 2
    kernel_size: 5
    weight_filler {
      type: "xavier"
    }
    bias_filler {
      type: "constant"
      value: 0.2
    }
  }
}
layer {
  name: "inception_4a/relu_5x5"
  type: "ReLU"
  bottom: "inception_4a/5x5"
  top: "inception_4a/5x5"
}
layer {
  name: "inception_4a/pool"
  type: "Pooling"
  bottom: "pool3/3x3_s2"
  top: "inception_4a/pool"
  pooling_param {
    pool: MAX
    kernel_size: 3
    stride: 1
    pad: 1
  }
}
layer {
  name: "inception_4a/pool_proj"
  type: "Convolution"
  bottom: "inception_4a/pool"
  top: "inception_4a/pool_proj"
  param {
    lr_mult: 1
    decay_mult: 1
  }
  param {
    lr_mult: 2
    decay_mult: 0
  }
  convolution_param {
    num_output: 64
    kernel_size: 1
    weight_filler {
      type: "xavier"
    }
    bias_filler {
      type: "constant"
      value: 0.2
    }
  }
}
layer {
  name: "inception_4a/relu_pool_proj"
  type: "ReLU"
  bottom: "inception_4a/pool_proj"
  top: "inception_4a/pool_proj"
}
layer {
  name: "inception_4a/output"
  type: "Concat"
  bottom: "inception_4a/1x1"
  bottom: "inception_4a/3x3"
  bottom: "inception_4a/5x5"
  bottom: "inception_4a/pool_proj"
  top: "inception_4a/output"
}
layer {
  name: "loss1/ave_pool"
  type: "Pooling"
  bottom: "inception_4a/output"
  top: "loss1/ave_pool"
  pooling_param {
    pool: AVE
    kernel_size: 5
    stride: 3
  }
}
layer {
  name: "loss1/conv"
  type: "Convolution"
  bottom: "loss1/ave_pool"
  top: "loss1/conv"
  param {
    lr_mult: 1
    decay_mult: 1
  }
  param {
    lr_mult: 2
    decay_mult: 0
  }
  convolution_param {
    num_output: 128
    kernel_size: 1
    weight_filler {
      type: "xavier"
    }
    bias_filler {
      type: "constant"
      value: 0.2
    }
  }
}
layer {
  name: "loss1/relu_conv"
  type: "ReLU"
  bottom: "loss1/conv"
  top: "loss1/conv"
}
layer {
  name: "loss1/fc"
  type: "InnerProduct"
  bottom: "loss1/conv"
  top: "loss1/fc"
  param {
    lr_mult: 1
    decay_mult: 1
  }
  param {
    lr_mult: 2
    decay_mult: 0
  }
  inner_product_param {
    num_output: 1024
    weight_filler {
      type: "xavier"
    }
    bias_filler {
      type: "constant"
      value: 0.2
    }
  }
}
layer {
  name: "loss1/relu_fc"
  type: "ReLU"
  bottom: "loss1/fc"
  top: "loss1/fc"
}
layer {
  name: "loss1/drop_fc"
  type: "Dropout"
  bottom: "loss1/fc"
  top: "loss1/fc"
  dropout_param {
    dropout_ratio: 0.7
  }
}
layer {
  name: "loss1/classifier_kaggle"
  type: "InnerProduct"
  bottom: "loss1/fc"
  top: "loss1/classifier_kaggle"
  param {
    lr_mult: 1
    decay_mult: 1
  }
  param {
    lr_mult: 2
    decay_mult: 0
  }
  inner_product_param {
    num_output: 447
    weight_filler {
      type: "xavier"
    }
    bias_filler {
      type: "constant"
      value: 0
    }
  }
}
layer {
  name: "loss1/loss"
  type: "SoftmaxWithLoss"
  bottom: "loss1/classifier_kaggle"
  bottom: "label"
  top: "loss1/loss1"
  loss_weight: 0.3
}
layer {
  name: "loss1/top-1"
  type: "Accuracy"
  bottom: "loss1/classifier_kaggle"
  bottom: "label"
  top: "loss1/top-1"
  include {
    phase: TEST
  }
}
layer {
  name: "loss1/top-5"
  type: "Accuracy"
  bottom: "loss1/classifier_kaggle"
  bottom: "label"
  top: "loss1/top-5"
  include {
    phase: TEST
  }
  accuracy_param {
    top_k: 5
  }
}
layer {
  name: "inception_4b/1x1"
  type: "Convolution"
  bottom: "inception_4a/output"
  top: "inception_4b/1x1"
  param {
    lr_mult: 1
    decay_mult: 1
  }
  param {
    lr_mult: 2
    decay_mult: 0
  }
  convolution_param {
    num_output: 160
    kernel_size: 1
    weight_filler {
      type: "xavier"
    }
    bias_filler {
      type: "constant"
      value: 0.2
    }
  }
}
layer {
  name: "inception_4b/relu_1x1"
  type: "ReLU"
  bottom: "inception_4b/1x1"
  top: "inception_4b/1x1"
}
layer {
  name: "inception_4b/3x3_reduce"
  type: "Convolution"
  bottom: "inception_4a/output"
  top: "inception_4b/3x3_reduce"
  param {
    lr_mult: 1
    decay_mult: 1
  }
  param {
    lr_mult: 2
    decay_mult: 0
  }
  convolution_param {
    num_output: 112
    kernel_size: 1
    weight_filler {
      type: "xavier"
    }
    bias_filler {
      type: "constant"
      value: 0.2
    }
  }
}
layer {
  name: "inception_4b/relu_3x3_reduce"
  type: "ReLU"
  bottom: "inception_4b/3x3_reduce"
  top: "inception_4b/3x3_reduce"
}
layer {
  name: "inception_4b/3x3"
  type: "Convolution"
  bottom: "inception_4b/3x3_reduce"
  top: "inception_4b/3x3"
  param {
    lr_mult: 1
    decay_mult: 1
  }
  param {
    lr_mult: 2
    decay_mult: 0
  }
  convolution_param {
    num_output: 224
    pad: 1
    kernel_size: 3
    weight_filler {
      type: "xavier"
    }
    bias_filler {
      type: "constant"
      value: 0.2
    }
  }
}
layer {
  name: "inception_4b/relu_3x3"
  type: "ReLU"
  bottom: "inception_4b/3x3"
  top: "inception_4b/3x3"
}
layer {
  name: "inception_4b/5x5_reduce"
  type: "Convolution"
  bottom: "inception_4a/output"
  top: "inception_4b/5x5_reduce"
  param {
    lr_mult: 1
    decay_mult: 1
  }
  param {
    lr_mult: 2
    decay_mult: 0
  }
  convolution_param {
    num_output: 24
    kernel_size: 1
    weight_filler {
      type: "xavier"
    }
    bias_filler {
      type: "constant"
      value: 0.2
    }
  }
}
layer {
  name: "inception_4b/relu_5x5_reduce"
  type: "ReLU"
  bottom: "inception_4b/5x5_reduce"
  top: "inception_4b/5x5_reduce"
}
layer {
  name: "inception_4b/5x5"
  type: "Convolution"
  bottom: "inception_4b/5x5_reduce"
  top: "inception_4b/5x5"
  param {
    lr_mult: 1
    decay_mult: 1
  }
  param {
    lr_mult: 2
    decay_mult: 0
  }
  convolution_param {
    num_output: 64
    pad: 2
    kernel_size: 5
    weight_filler {
      type: "xavier"
    }
    bias_filler {
      type: "constant"
      value: 0.2
    }
  }
}
layer {
  name: "inception_4b/relu_5x5"
  type: "ReLU"
  bottom: "inception_4b/5x5"
  top: "inception_4b/5x5"
}
layer {
  name: "inception_4b/pool"
  type: "Pooling"
  bottom: "inception_4a/output"
  top: "inception_4b/pool"
  pooling_param {
    pool: MAX
    kernel_size: 3
    stride: 1
    pad: 1
  }
}
layer {
  name: "inception_4b/pool_proj"
  type: "Convolution"
  bottom: "inception_4b/pool"
  top: "inception_4b/pool_proj"
  param {
    lr_mult: 1
    decay_mult: 1
  }
  param {
    lr_mult: 2
    decay_mult: 0
  }
  convolution_param {
    num_output: 64
    kernel_size: 1
    weight_filler {
      type: "xavier"
    }
    bias_filler {
      type: "constant"
      value: 0.2
    }
  }
}
layer {
  name: "inception_4b/relu_pool_proj"
  type: "ReLU"
  bottom: "inception_4b/pool_proj"
  top: "inception_4b/pool_proj"
}
layer {
  name: "inception_4b/output"
  type: "Concat"
  bottom: "inception_4b/1x1"
  bottom: "inception_4b/3x3"
  bottom: "inception_4b/5x5"
  bottom: "inception_4b/pool_proj"
  top: "inception_4b/output"
}
layer {
  name: "inception_4c/1x1"
  type: "Convolution"
  bottom: "inception_4b/output"
  top: "inception_4c/1x1"
  param {
    lr_mult: 1
    decay_mult: 1
  }
  param {
    lr_mult: 2
    decay_mult: 0
  }
  convolution_param {
    num_output: 128
    kernel_size: 1
    weight_filler {
      type: "xavier"
    }
    bias_filler {
      type: "constant"
      value: 0.2
    }
  }
}
layer {
  name: "inception_4c/relu_1x1"
  type: "ReLU"
  bottom: "inception_4c/1x1"
  top: "inception_4c/1x1"
}
layer {
  name: "inception_4c/3x3_reduce"
  type: "Convolution"
  bottom: "inception_4b/output"
  top: "inception_4c/3x3_reduce"
  param {
    lr_mult: 1
    decay_mult: 1
  }
  param {
    lr_mult: 2
    decay_mult: 0
  }
  convolution_param {
    num_output: 128
    kernel_size: 1
    weight_filler {
      type: "xavier"
    }
    bias_filler {
      type: "constant"
      value: 0.2
    }
  }
}
layer {
  name: "inception_4c/relu_3x3_reduce"
  type: "ReLU"
  bottom: "inception_4c/3x3_reduce"
  top: "inception_4c/3x3_reduce"
}
layer {
  name: "inception_4c/3x3"
  type: "Convolution"
  bottom: "inception_4c/3x3_reduce"
  top: "inception_4c/3x3"
  param {
    lr_mult: 1
    decay_mult: 1
  }
  param {
    lr_mult: 2
    decay_mult: 0
  }
  convolution_param {
    num_output: 256
    pad: 1
    kernel_size: 3
    weight_filler {
      type: "xavier"
    }
    bias_filler {
      type: "constant"
      value: 0.2
    }
  }
}
layer {
  name: "inception_4c/relu_3x3"
  type: "ReLU"
  bottom: "inception_4c/3x3"
  top: "inception_4c/3x3"
}
layer {
  name: "inception_4c/5x5_reduce"
  type: "Convolution"
  bottom: "inception_4b/output"
  top: "inception_4c/5x5_reduce"
  param {
    lr_mult: 1
    decay_mult: 1
  }
  param {
    lr_mult: 2
    decay_mult: 0
  }
  convolution_param {
    num_output: 24
    kernel_size: 1
    weight_filler {
      type: "xavier"
    }
    bias_filler {
      type: "constant"
      value: 0.2
    }
  }
}
layer {
  name: "inception_4c/relu_5x5_reduce"
  type: "ReLU"
  bottom: "inception_4c/5x5_reduce"
  top: "inception_4c/5x5_reduce"
}
layer {
  name: "inception_4c/5x5"
  type: "Convolution"
  bottom: "inception_4c/5x5_reduce"
  top: "inception_4c/5x5"
  param {
    lr_mult: 1
    decay_mult: 1
  }
  param {
    lr_mult: 2
    decay_mult: 0
  }
  convolution_param {
    num_output: 64
    pad: 2
    kernel_size: 5
    weight_filler {
      type: "xavier"
    }
    bias_filler {
      type: "constant"
      value: 0.2
    }
  }
}
layer {
  name: "inception_4c/relu_5x5"
  type: "ReLU"
  bottom: "inception_4c/5x5"
  top: "inception_4c/5x5"
}
layer {
  name: "inception_4c/pool"
  type: "Pooling"
  bottom: "inception_4b/output"
  top: "inception_4c/pool"
  pooling_param {
    pool: MAX
    kernel_size: 3
    stride: 1
    pad: 1
  }
}
layer {
  name: "inception_4c/pool_proj"
  type: "Convolution"
  bottom: "inception_4c/pool"
  top: "inception_4c/pool_proj"
  param {
    lr_mult: 1
    decay_mult: 1
  }
  param {
    lr_mult: 2
    decay_mult: 0
  }
  convolution_param {
    num_output: 64
    kernel_size: 1
    weight_filler {
      type: "xavier"
    }
    bias_filler {
      type: "constant"
      value: 0.2
    }
  }
}
layer {
  name: "inception_4c/relu_pool_proj"
  type: "ReLU"
  bottom: "inception_4c/pool_proj"
  top: "inception_4c/pool_proj"
}
layer {
  name: "inception_4c/output"
  type: "Concat"
  bottom: "inception_4c/1x1"
  bottom: "inception_4c/3x3"
  bottom: "inception_4c/5x5"
  bottom: "inception_4c/pool_proj"
  top: "inception_4c/output"
}
layer {
  name: "inception_4d/1x1"
  type: "Convolution"
  bottom: "inception_4c/output"
  top: "inception_4d/1x1"
  param {
    lr_mult: 1
    decay_mult: 1
  }
  param {
    lr_mult: 2
    decay_mult: 0
  }
  convolution_param {
    num_output: 112
    kernel_size: 1
    weight_filler {
      type: "xavier"
    }
    bias_filler {
      type: "constant"
      value: 0.2
    }
  }
}
layer {
  name: "inception_4d/relu_1x1"
  type: "ReLU"
  bottom: "inception_4d/1x1"
  top: "inception_4d/1x1"
}
layer {
  name: "inception_4d/3x3_reduce"
  type: "Convolution"
  bottom: "inception_4c/output"
  top: "inception_4d/3x3_reduce"
  param {
    lr_mult: 1
    decay_mult: 1
  }
  param {
    lr_mult: 2
    decay_mult: 0
  }
  convolution_param {
    num_output: 144
    kernel_size: 1
    weight_filler {
      type: "xavier"
    }
    bias_filler {
      type: "constant"
      value: 0.2
    }
  }
}
layer {
  name: "inception_4d/relu_3x3_reduce"
  type: "ReLU"
  bottom: "inception_4d/3x3_reduce"
  top: "inception_4d/3x3_reduce"
}
layer {
  name: "inception_4d/3x3"
  type: "Convolution"
  bottom: "inception_4d/3x3_reduce"
  top: "inception_4d/3x3"
  param {
    lr_mult: 1
    decay_mult: 1
  }
  param {
    lr_mult: 2
    decay_mult: 0
  }
  convolution_param {
    num_output: 288
    pad: 1
    kernel_size: 3
    weight_filler {
      type: "xavier"
    }
    bias_filler {
      type: "constant"
      value: 0.2
    }
  }
}
layer {
  name: "inception_4d/relu_3x3"
  type: "ReLU"
  bottom: "inception_4d/3x3"
  top: "inception_4d/3x3"
}
layer {
  name: "inception_4d/5x5_reduce"
  type: "Convolution"
  bottom: "inception_4c/output"
  top: "inception_4d/5x5_reduce"
  param {
    lr_mult: 1
    decay_mult: 1
  }
  param {
    lr_mult: 2
    decay_mult: 0
  }
  convolution_param {
    num_output: 32
    kernel_size: 1
    weight_filler {
      type: "xavier"
    }
    bias_filler {
      type: "constant"
      value: 0.2
    }
  }
}
layer {
  name: "inception_4d/relu_5x5_reduce"
  type: "ReLU"
  bottom: "inception_4d/5x5_reduce"
  top: "inception_4d/5x5_reduce"
}
layer {
  name: "inception_4d/5x5"
  type: "Convolution"
  bottom: "inception_4d/5x5_reduce"
  top: "inception_4d/5x5"
  param {
    lr_mult: 1
    decay_mult: 1
  }
  param {
    lr_mult: 2
    decay_mult: 0
  }
  convolution_param {
    num_output: 64
    pad: 2
    kernel_size: 5
    weight_filler {
      type: "xavier"
    }
    bias_filler {
      type: "constant"
      value: 0.2
    }
  }
}
layer {
  name: "inception_4d/relu_5x5"
  type: "ReLU"
  bottom: "inception_4d/5x5"
  top: "inception_4d/5x5"
}
layer {
  name: "inception_4d/pool"
  type: "Pooling"
  bottom: "inception_4c/output"
  top: "inception_4d/pool"
  pooling_param {
    pool: MAX
    kernel_size: 3
    stride: 1
    pad: 1
  }
}
layer {
  name: "inception_4d/pool_proj"
  type: "Convolution"
  bottom: "inception_4d/pool"
  top: "inception_4d/pool_proj"
  param {
    lr_mult: 1
    decay_mult: 1
  }
  param {
    lr_mult: 2
    decay_mult: 0
  }
  convolution_param {
    num_output: 64
    kernel_size: 1
    weight_filler {
      type: "xavier"
    }
    bias_filler {
      type: "constant"
      value: 0.2
    }
  }
}
layer {
  name: "inception_4d/relu_pool_proj"
  type: "ReLU"
  bottom: "inception_4d/pool_proj"
  top: "inception_4d/pool_proj"
}
layer {
  name: "inception_4d/output"
  type: "Concat"
  bottom: "inception_4d/1x1"
  bottom: "inception_4d/3x3"
  bottom: "inception_4d/5x5"
  bottom: "inception_4d/pool_proj"
  top: "inception_4d/output"
}
layer {
  name: "loss2/ave_pool"
  type: "Pooling"
  bottom: "inception_4d/output"
  top: "loss2/ave_pool"
  pooling_param {
    pool: AVE
    kernel_size: 5
    stride: 3
  }
}
layer {
  name: "loss2/conv"
  type: "Convolution"
  bottom: "loss2/ave_pool"
  top: "loss2/conv"
  param {
    lr_mult: 1
    decay_mult: 1
  }
  param {
    lr_mult: 2
    decay_mult: 0
  }
  convolution_param {
…
I1217 10:25:33.062088  8744 net.cpp:84] Creating Layer inception_4c/1x1
I1217 10:25:33.062093  8744 net.cpp:380] inception_4c/1x1 <- inception_4b/output_inception_4b/output_0_split_0
I1217 10:25:33.062106  8744 net.cpp:338] inception_4c/1x1 -> inception_4c/1x1
I1217 10:25:33.062115  8744 net.cpp:113] Setting up inception_4c/1x1
I1217 10:25:33.063326  8744 net.cpp:120] Top shape: 50 128 14 14 (1254400)
I1217 10:25:33.063344  8744 layer_factory.hpp:74] Creating layer inception_4c/relu_1x1
I1217 10:25:33.063352  8744 net.cpp:84] Creating Layer inception_4c/relu_1x1
I1217 10:25:33.063359  8744 net.cpp:380] inception_4c/relu_1x1 <- inception_4c/1x1
I1217 10:25:33.063366  8744 net.cpp:327] inception_4c/relu_1x1 -> inception_4c/1x1 (in-place)
I1217 10:25:33.063374  8744 net.cpp:113] Setting up inception_4c/relu_1x1
I1217 10:25:33.063652  8744 net.cpp:120] Top shape: 50 128 14 14 (1254400)
I1217 10:25:33.063665  8744 layer_factory.hpp:74] Creating layer inception_4c/3x3_reduce
I1217 10:25:33.063678  8744 net.cpp:84] Creating Layer inception_4c/3x3_reduce
I1217 10:25:33.063684  8744 net.cpp:380] inception_4c/3x3_reduce <- inception_4b/output_inception_4b/output_0_split_1
I1217 10:25:33.063700  8744 net.cpp:338] inception_4c/3x3_reduce -> inception_4c/3x3_reduce
I1217 10:25:33.063719  8744 net.cpp:113] Setting up inception_4c/3x3_reduce
I1217 10:25:33.069468  8744 net.cpp:120] Top shape: 50 128 14 14 (1254400)
I1217 10:25:33.069490  8744 layer_factory.hpp:74] Creating layer inception_4c/relu_3x3_reduce
I1217 10:25:33.069502  8744 net.cpp:84] Creating Layer inception_4c/relu_3x3_reduce
I1217 10:25:33.069509  8744 net.cpp:380] inception_4c/relu_3x3_reduce <- inception_4c/3x3_reduce
I1217 10:25:33.069517  8744 net.cpp:327] inception_4c/relu_3x3_reduce -> inception_4c/3x3_reduce (in-place)
I1217 10:25:33.069526  8744 net.cpp:113] Setting up inception_4c/relu_3x3_reduce
I1217 10:25:33.069604  8744 net.cpp:120] Top shape: 50 128 14 14 (1254400)
I1217 10:25:33.069612  8744 layer_factory.hpp:74] Creating layer inception_4c/3x3
I1217 10:25:33.069623  8744 net.cpp:84] Creating Layer inception_4c/3x3
I1217 10:25:33.069628  8744 net.cpp:380] inception_4c/3x3 <- inception_4c/3x3_reduce
I1217 10:25:33.069638  8744 net.cpp:338] inception_4c/3x3 -> inception_4c/3x3
I1217 10:25:33.069648  8744 net.cpp:113] Setting up inception_4c/3x3
I1217 10:25:33.074504  8744 net.cpp:120] Top shape: 50 256 14 14 (2508800)
I1217 10:25:33.074537  8744 layer_factory.hpp:74] Creating layer inception_4c/relu_3x3
I1217 10:25:33.074548  8744 net.cpp:84] Creating Layer inception_4c/relu_3x3
I1217 10:25:33.074554  8744 net.cpp:380] inception_4c/relu_3x3 <- inception_4c/3x3
I1217 10:25:33.074563  8744 net.cpp:327] inception_4c/relu_3x3 -> inception_4c/3x3 (in-place)
I1217 10:25:33.074571  8744 net.cpp:113] Setting up inception_4c/relu_3x3
I1217 10:25:33.074654  8744 net.cpp:120] Top shape: 50 256 14 14 (2508800)
I1217 10:25:33.074663  8744 layer_factory.hpp:74] Creating layer inception_4c/5x5_reduce
I1217 10:25:33.074674  8744 net.cpp:84] Creating Layer inception_4c/5x5_reduce
I1217 10:25:33.074681  8744 net.cpp:380] inception_4c/5x5_reduce <- inception_4b/output_inception_4b/output_0_split_2
I1217 10:25:33.074690  8744 net.cpp:338] inception_4c/5x5_reduce -> inception_4c/5x5_reduce
I1217 10:25:33.074700  8744 net.cpp:113] Setting up inception_4c/5x5_reduce
I1217 10:25:33.075307  8744 net.cpp:120] Top shape: 50 24 14 14 (235200)
I1217 10:25:33.075325  8744 layer_factory.hpp:74] Creating layer inception_4c/relu_5x5_reduce
I1217 10:25:33.075335  8744 net.cpp:84] Creating Layer inception_4c/relu_5x5_reduce
I1217 10:25:33.075343  8744 net.cpp:380] inception_4c/relu_5x5_reduce <- inception_4c/5x5_reduce
I1217 10:25:33.075350  8744 net.cpp:327] inception_4c/relu_5x5_reduce -> inception_4c/5x5_reduce (in-place)
I1217 10:25:33.075359  8744 net.cpp:113] Setting up inception_4c/relu_5x5_reduce
I1217 10:25:33.075654  8744 net.cpp:120] Top shape: 50 24 14 14 (235200)
I1217 10:25:33.075666  8744 layer_factory.hpp:74] Creating layer inception_4c/5x5
I1217 10:25:33.075677  8744 net.cpp:84] Creating Layer inception_4c/5x5
I1217 10:25:33.075683  8744 net.cpp:380] inception_4c/5x5 <- inception_4c/5x5_reduce
I1217 10:25:33.075693  8744 net.cpp:338] inception_4c/5x5 -> inception_4c/5x5
I1217 10:25:33.075705  8744 net.cpp:113] Setting up inception_4c/5x5
I1217 10:25:33.076639  8744 net.cpp:120] Top shape: 50 64 14 14 (627200)
I1217 10:25:33.076658  8744 layer_factory.hpp:74] Creating layer inception_4c/relu_5x5
I1217 10:25:33.076668  8744 net.cpp:84] Creating Layer inception_4c/relu_5x5
I1217 10:25:33.076674  8744 net.cpp:380] inception_4c/relu_5x5 <- inception_4c/5x5
I1217 10:25:33.076683  8744 net.cpp:327] inception_4c/relu_5x5 -> inception_4c/5x5 (in-place)
I1217 10:25:33.076690  8744 net.cpp:113] Setting up inception_4c/relu_5x5
I1217 10:25:33.076771  8744 net.cpp:120] Top shape: 50 64 14 14 (627200)
I1217 10:25:33.076778  8744 layer_factory.hpp:74] Creating layer inception_4c/pool
I1217 10:25:33.076784  8744 layer_factory.cpp:56] CUDNN does not support padding or multiple tops. Using Caffe's own pooling layer.
I1217 10:25:33.076792  8744 net.cpp:84] Creating Layer inception_4c/pool
I1217 10:25:33.076798  8744 net.cpp:380] inception_4c/pool <- inception_4b/output_inception_4b/output_0_split_3
I1217 10:25:33.076822  8744 net.cpp:338] inception_4c/pool -> inception_4c/pool
I1217 10:25:33.076831  8744 net.cpp:113] Setting up inception_4c/pool
I1217 10:25:33.076841  8744 net.cpp:120] Top shape: 50 512 14 14 (5017600)
I1217 10:25:33.076848  8744 layer_factory.hpp:74] Creating layer inception_4c/pool_proj
I1217 10:25:33.076860  8744 net.cpp:84] Creating Layer inception_4c/pool_proj
I1217 10:25:33.076866  8744 net.cpp:380] inception_4c/pool_proj <- inception_4c/pool
I1217 10:25:33.076874  8744 net.cpp:338] inception_4c/pool_proj -> inception_4c/pool_proj
I1217 10:25:33.076884  8744 net.cpp:113] Setting up inception_4c/pool_proj
I1217 10:25:33.077764  8744 net.cpp:120] Top shape: 50 64 14 14 (627200)
I1217 10:25:33.077785  8744 layer_factory.hpp:74] Creating layer inception_4c/relu_pool_proj
I1217 10:25:33.077792  8744 net.cpp:84] Creating Layer inception_4c/relu_pool_proj
I1217 10:25:33.077800  8744 net.cpp:380] inception_4c/relu_pool_proj <- inception_4c/pool_proj
I1217 10:25:33.077811  8744 net.cpp:327] inception_4c/relu_pool_proj -> inception_4c/pool_proj (in-place)
I1217 10:25:33.077819  8744 net.cpp:113] Setting up inception_4c/relu_pool_proj
I1217 10:25:33.077895  8744 net.cpp:120] Top shape: 50 64 14 14 (627200)
I1217 10:25:33.077903  8744 layer_factory.hpp:74] Creating layer inception_4c/output
I1217 10:25:33.077913  8744 net.cpp:84] Creating Layer inception_4c/output
I1217 10:25:33.077918  8744 net.cpp:380] inception_4c/output <- inception_4c/1x1
I1217 10:25:33.077924  8744 net.cpp:380] inception_4c/output <- inception_4c/3x3
I1217 10:25:33.077930  8744 net.cpp:380] inception_4c/output <- inception_4c/5x5
I1217 10:25:33.077936  8744 net.cpp:380] inception_4c/output <- inception_4c/pool_proj
I1217 10:25:33.077945  8744 net.cpp:338] inception_4c/output -> inception_4c/output
I1217 10:25:33.077955  8744 net.cpp:113] Setting up inception_4c/output
I1217 10:25:33.077963  8744 net.cpp:120] Top shape: 50 512 14 14 (5017600)
I1217 10:25:33.077968  8744 layer_factory.hpp:74] Creating layer inception_4c/output_inception_4c/output_0_split
I1217 10:25:33.077976  8744 net.cpp:84] Creating Layer inception_4c/output_inception_4c/output_0_split
I1217 10:25:33.077981  8744 net.cpp:380] inception_4c/output_inception_4c/output_0_split <- inception_4c/output
I1217 10:25:33.077989  8744 net.cpp:338] inception_4c/output_inception_4c/output_0_split -> inception_4c/output_inception_4c/output_0_split_0
I1217 10:25:33.077998  8744 net.cpp:338] inception_4c/output_inception_4c/output_0_split -> inception_4c/output_inception_4c/output_0_split_1
I1217 10:25:33.078008  8744 net.cpp:338] inception_4c/output_inception_4c/output_0_split -> inception_4c/output_inception_4c/output_0_split_2
I1217 10:25:33.078017  8744 net.cpp:338] inception_4c/output_inception_4c/output_0_split -> inception_4c/output_inception_4c/output_0_split_3
I1217 10:25:33.078024  8744 net.cpp:113] Setting up inception_4c/output_inception_4c/output_0_split
I1217 10:25:33.078032  8744 net.cpp:120] Top shape: 50 512 14 14 (5017600)
I1217 10:25:33.078038  8744 net.cpp:120] Top shape: 50 512 14 14 (5017600)
I1217 10:25:33.078044  8744 net.cpp:120] Top shape: 50 512 14 14 (5017600)
I1217 10:25:33.078049  8744 net.cpp:120] Top shape: 50 512 14 14 (5017600)
I1217 10:25:33.078054  8744 layer_factory.hpp:74] Creating layer inception_4d/1x1
I1217 10:25:33.078065  8744 net.cpp:84] Creating Layer inception_4d/1x1
I1217 10:25:33.078070  8744 net.cpp:380] inception_4d/1x1 <- inception_4c/output_inception_4c/output_0_split_0
I1217 10:25:33.078078  8744 net.cpp:338] inception_4d/1x1 -> inception_4d/1x1
I1217 10:25:33.078086  8744 net.cpp:113] Setting up inception_4d/1x1
I1217 10:25:33.079264  8744 net.cpp:120] Top shape: 50 112 14 14 (1097600)
I1217 10:25:33.079282  8744 layer_factory.hpp:74] Creating layer inception_4d/relu_1x1
I1217 10:25:33.079290  8744 net.cpp:84] Creating Layer inception_4d/relu_1x1
I1217 10:25:33.079296  8744 net.cpp:380] inception_4d/relu_1x1 <- inception_4d/1x1
I1217 10:25:33.079306  8744 net.cpp:327] inception_4d/relu_1x1 -> inception_4d/1x1 (in-place)
I1217 10:25:33.079327  8744 net.cpp:113] Setting up inception_4d/relu_1x1
I1217 10:25:33.079402  8744 net.cpp:120] Top shape: 50 112 14 14 (1097600)
I1217 10:25:33.079411  8744 layer_factory.hpp:74] Creating layer inception_4d/3x3_reduce
I1217 10:25:33.079422  8744 net.cpp:84] Creating Layer inception_4d/3x3_reduce
I1217 10:25:33.079428  8744 net.cpp:380] inception_4d/3x3_reduce <- inception_4c/output_inception_4c/output_0_split_1
I1217 10:25:33.079437  8744 net.cpp:338] inception_4d/3x3_reduce -> inception_4d/3x3_reduce
I1217 10:25:33.079447  8744 net.cpp:113] Setting up inception_4d/3x3_reduce
I1217 10:25:33.080816  8744 net.cpp:120] Top shape: 50 144 14 14 (1411200)
I1217 10:25:33.080833  8744 layer_factory.hpp:74] Creating layer inception_4d/relu_3x3_reduce
I1217 10:25:33.080843  8744 net.cpp:84] Creating Layer inception_4d/relu_3x3_reduce
I1217 10:25:33.080850  8744 net.cpp:380] inception_4d/relu_3x3_reduce <- inception_4d/3x3_reduce
I1217 10:25:33.080858  8744 net.cpp:327] inception_4d/relu_3x3_reduce -> inception_4d/3x3_reduce (in-place)
I1217 10:25:33.080867  8744 net.cpp:113] Setting up inception_4d/relu_3x3_reduce
I1217 10:25:33.081161  8744 net.cpp:120] Top shape: 50 144 14 14 (1411200)
I1217 10:25:33.081176  8744 layer_factory.hpp:74] Creating layer inception_4d/3x3
I1217 10:25:33.081189  8744 net.cpp:84] Creating Layer inception_4d/3x3
I1217 10:25:33.081195  8744 net.cpp:380] inception_4d/3x3 <- inception_4d/3x3_reduce
I1217 10:25:33.081204  8744 net.cpp:338] inception_4d/3x3 -> inception_4d/3x3
I1217 10:25:33.081214  8744 net.cpp:113] Setting up inception_4d/3x3
I1217 10:25:33.086340  8744 net.cpp:120] Top shape: 50 288 14 14 (2822400)
I1217 10:25:33.086360  8744 layer_factory.hpp:74] Creating layer inception_4d/relu_3x3
I1217 10:25:33.086375  8744 net.cpp:84] Creating Layer inception_4d/relu_3x3
I1217 10:25:33.086381  8744 net.cpp:380] inception_4d/relu_3x3 <- inception_4d/3x3
I1217 10:25:33.086390  8744 net.cpp:327] inception_4d/relu_3x3 -> inception_4d/3x3 (in-place)
I1217 10:25:33.086398  8744 net.cpp:113] Setting up inception_4d/relu_3x3
I1217 10:25:33.086474  8744 net.cpp:120] Top shape: 50 288 14 14 (2822400)
I1217 10:25:33.086483  8744 layer_factory.hpp:74] Creating layer inception_4d/5x5_reduce
I1217 10:25:33.086493  8744 net.cpp:84] Creating Layer inception_4d/5x5_reduce
I1217 10:25:33.086499  8744 net.cpp:380] inception_4d/5x5_reduce <- inception_4c/output_inception_4c/output_0_split_2
I1217 10:25:33.086509  8744 net.cpp:338] inception_4d/5x5_reduce -> inception_4d/5x5_reduce
I1217 10:25:33.086519  8744 net.cpp:113] Setting up inception_4d/5x5_reduce
I1217 10:25:33.087224  8744 net.cpp:120] Top shape: 50 32 14 14 (313600)
I1217 10:25:33.087242  8744 layer_factory.hpp:74] Creating layer inception_4d/relu_5x5_reduce
I1217 10:25:33.087254  8744 net.cpp:84] Creating Layer inception_4d/relu_5x5_reduce
I1217 10:25:33.087260  8744 net.cpp:380] inception_4d/relu_5x5_reduce <- inception_4d/5x5_reduce
I1217 10:25:33.087268  8744 net.cpp:327] inception_4d/relu_5x5_reduce -> inception_4d/5x5_reduce (in-place)
I1217 10:25:33.087276  8744 net.cpp:113] Setting up inception_4d/relu_5x5_reduce
I1217 10:25:33.087352  8744 net.cpp:120] Top shape: 50 32 14 14 (313600)
I1217 10:25:33.087359  8744 layer_factory.hpp:74] Creating layer inception_4d/5x5
I1217 10:25:33.087371  8744 net.cpp:84] Creating Layer inception_4d/5x5
I1217 10:25:33.087378  8744 net.cpp:380] inception_4d/5x5 <- inception_4d/5x5_reduce
I1217 10:25:33.087386  8744 net.cpp:338] inception_4d/5x5 -> inception_4d/5x5
I1217 10:25:33.087395  8744 net.cpp:113] Setting up inception_4d/5x5
I1217 10:25:33.088449  8744 net.cpp:120] Top shape: 50 64 14 14 (627200)
I1217 10:25:33.088466  8744 layer_factory.hpp:74] Creating layer inception_4d/relu_5x5
I1217 10:25:33.088476  8744 net.cpp:84] Creating Layer inception_4d/relu_5x5
I1217 10:25:33.088484  8744 net.cpp:380] inception_4d/relu_5x5 <- inception_4d/5x5
I1217 10:25:33.088491  8744 net.cpp:327] inception_4d/relu_5x5 -> inception_4d/5x5 (in-place)
I1217 10:25:33.088510  8744 net.cpp:113] Setting up inception_4d/relu_5x5
I1217 10:25:33.088596  8744 net.cpp:120] Top shape: 50 64 14 14 (627200)
I1217 10:25:33.088605  8744 layer_factory.hpp:74] Creating layer inception_4d/pool
I1217 10:25:33.088611  8744 layer_factory.cpp:56] CUDNN does not support padding or multiple tops. Using Caffe's own pooling layer.
I1217 10:25:33.088619  8744 net.cpp:84] Creating Layer inception_4d/pool
I1217 10:25:33.088625  8744 net.cpp:380] inception_4d/pool <- inception_4c/output_inception_4c/output_0_split_3
I1217 10:25:33.088635  8744 net.cpp:338] inception_4d/pool -> inception_4d/pool
I1217 10:25:33.088644  8744 net.cpp:113] Setting up inception_4d/pool
I1217 10:25:33.088654  8744 net.cpp:120] Top shape: 50 512 14 14 (5017600)
I1217 10:25:33.088660  8744 layer_factory.hpp:74] Creating layer inception_4d/pool_proj
I1217 10:25:33.088671  8744 net.cpp:84] Creating Layer inception_4d/pool_proj
I1217 10:25:33.088676  8744 net.cpp:380] inception_4d/pool_proj <- inception_4d/pool
I1217 10:25:33.088685  8744 net.cpp:338] inception_4d/pool_proj -> inception_4d/pool_proj
I1217 10:25:33.088693  8744 net.cpp:113] Setting up inception_4d/pool_proj
I1217 10:25:33.089551  8744 net.cpp:120] Top shape: 50 64 14 14 (627200)
I1217 10:25:33.089570  8744 layer_factory.hpp:74] Creating layer inception_4d/relu_pool_proj
I1217 10:25:33.089579  8744 net.cpp:84] Creating Layer inception_4d/relu_pool_proj
I1217 10:25:33.089586  8744 net.cpp:380] inception_4d/relu_pool_proj <- inception_4d/pool_proj
I1217 10:25:33.089596  8744 net.cpp:327] inception_4d/relu_pool_proj -> inception_4d/pool_proj (in-place)
I1217 10:25:33.089604  8744 net.cpp:113] Setting up inception_4d/relu_pool_proj
I1217 10:25:33.089886  8744 net.cpp:120] Top shape: 50 64 14 14 (627200)
I1217 10:25:33.089898  8744 layer_factory.hpp:74] Creating layer inception_4d/output
I1217 10:25:33.089907  8744 net.cpp:84] Creating Layer inception_4d/output
I1217 10:25:33.089913  8744 net.cpp:380] inception_4d/output <- inception_4d/1x1
I1217 10:25:33.089920  8744 net.cpp:380] inception_4d/output <- inception_4d/3x3
I1217 10:25:33.089926  8744 net.cpp:380] inception_4d/output <- inception_4d/5x5
I1217 10:25:33.089932  8744 net.cpp:380] inception_4d/output <- inception_4d/pool_proj
I1217 10:25:33.089939  8744 net.cpp:338] inception_4d/output -> inception_4d/output
I1217 10:25:33.089947  8744 net.cpp:113] Setting up inception_4d/output
I1217 10:25:33.089957  8744 net.cpp:120] Top shape: 50 528 14 14 (5174400)
I1217 10:25:33.089962  8744 layer_factory.hpp:74] Creating layer inception_4d/output_inception_4d/output_0_split
I1217 10:25:33.089972  8744 net.cpp:84] Creating Layer inception_4d/output_inception_4d/output_0_split
I1217 10:25:33.089977  8744 net.cpp:380] inception_4d/output_inception_4d/output_0_split <- inception_4d/output
I1217 10:25:33.089985  8744 net.cpp:338] inception_4d/output_inception_4d/output_0_split -> inception_4d/output_inception_4d/output_0_split_0
I1217 10:25:33.089994  8744 net.cpp:338] inception_4d/output_inception_4d/output_0_split -> inception_4d/output_inception_4d/output_0_split_1
I1217 10:25:33.090003  8744 net.cpp:338] inception_4d/output_inception_4d/output_0_split -> inception_4d/output_inception_4d/output_0_split_2
I1217 10:25:33.090011  8744 net.cpp:338] inception_4d/output_inception_4d/output_0_split -> inception_4d/output_inception_4d/output_0_split_3
I1217 10:25:33.090018  8744 net.cpp:338] inception_4d/output_inception_4d/output_0_split -> inception_4d/output_inception_4d/output_0_split_4
I1217 10:25:33.090032  8744 net.cpp:113] Setting up inception_4d/output_inception_4d/output_0_split
I1217 10:25:33.090041  8744 net.cpp:120] Top shape: 50 528 14 14 (5174400)
I1217 10:25:33.090047  8744 net.cpp:120] Top shape: 50 528 14 14 (5174400)
I1217 10:25:33.090052  8744 net.cpp:120] Top shape: 50 528 14 14 (5174400)
I1217 10:25:33.090057  8744 net.cpp:120] Top shape: 50 528 14 14 (5174400)
I1217 10:25:33.090064  8744 net.cpp:120] Top shape: 50 528 14 14 (5174400)
I1217 10:25:33.090067  8744 layer_factory.hpp:74] Creating layer loss2/ave_pool
I1217 10:25:33.090080  8744 net.cpp:84] Creating Layer loss2/ave_pool
I1217 10:25:33.090093  8744 net.cpp:380] loss2/ave_pool <- inception_4d/output_inception_4d/output_0_split_0
I1217 10:25:33.090104  8744 net.cpp:338] loss2/ave_pool -> loss2/ave_pool
I1217 10:25:33.090112  8744 net.cpp:113] Setting up loss2/ave_pool
I1217 10:25:33.090193  8744 net.cpp:120] Top shape: 50 528 4 4 (422400)
I1217 10:25:33.090201  8744 layer_factory.hpp:74] Creating layer loss2/conv
I1217 10:25:33.090210  8744 net.cpp:84] Creating Layer loss2/conv
I1217 10:25:33.090215  8744 net.cpp:380] loss2/conv <- loss2/ave_pool
I1217 10:25:33.090225  8744 net.cpp:338] loss2/conv -> loss2/conv
I1217 10:25:33.090234  8744 net.cpp:113] Setting up loss2/conv
I1217 10:25:33.091492  8744 net.cpp:120] Top shape: 50 128 4 4 (102400)
I1217 10:25:33.091511  8744 layer_factory.hpp:74] Creating layer loss2/relu_conv
I1217 10:25:33.091521  8744 net.cpp:84] Creating Layer loss2/relu_conv
I1217 10:25:33.091526  8744 net.cpp:380] loss2/relu_conv <- loss2/conv
I1217 10:25:33.091533  8744 net.cpp:327] loss2/relu_conv -> loss2/conv (in-place)
I1217 10:25:33.091542  8744 net.cpp:113] Setting up loss2/relu_conv
I1217 10:25:33.091616  8744 net.cpp:120] Top shape: 50 128 4 4 (102400)
I1217 10:25:33.091624  8744 layer_factory.hpp:74] Creating layer loss2/fc
I1217 10:25:33.091637  8744 net.cpp:84] Creating Layer loss2/fc
I1217 10:25:33.091644  8744 net.cpp:380] loss2/fc <- loss2/conv
I1217 10:25:33.091650  8744 net.cpp:338] loss2/fc -> loss2/fc
I1217 10:25:33.091660  8744 net.cpp:113] Setting up loss2/fc
I1217 10:25:33.160964  8744 net.cpp:120] Top shape: 50 1024 (51200)
I1217 10:25:33.161005  8744 layer_factory.hpp:74] Creating layer loss2/relu_fc
I1217 10:25:33.161018  8744 net.cpp:84] Creating Layer loss2/relu_fc
I1217 10:25:33.161026  8744 net.cpp:380] loss2/relu_fc <- loss2/fc
I1217 10:25:33.161038  8744 net.cpp:327] loss2/relu_fc -> loss2/fc (in-place)
I1217 10:25:33.161049  8744 net.cpp:113] Setting up loss2/relu_fc
I1217 10:25:33.161186  8744 net.cpp:120] Top shape: 50 1024 (51200)
I1217 10:25:33.161196  8744 layer_factory.hpp:74] Creating layer loss2/drop_fc
I1217 10:25:33.161206  8744 net.cpp:84] Creating Layer loss2/drop_fc
I1217 10:25:33.161212  8744 net.cpp:380] loss2/drop_fc <- loss2/fc
I1217 10:25:33.161219  8744 net.cpp:327] loss2/drop_fc -> loss2/fc (in-place)
I1217 10:25:33.161227  8744 net.cpp:113] Setting up loss2/drop_fc
I1217 10:25:33.161237  8744 net.cpp:120] Top shape: 50 1024 (51200)
I1217 10:25:33.161242  8744 layer_factory.hpp:74] Creating layer loss2/classifier_kaggle
I1217 10:25:33.161252  8744 net.cpp:84] Creating Layer loss2/classifier_kaggle
I1217 10:25:33.161258  8744 net.cpp:380] loss2/classifier_kaggle <- loss2/fc
I1217 10:25:33.161267  8744 net.cpp:338] loss2/classifier_kaggle -> loss2/classifier_kaggle
I1217 10:25:33.161276  8744 net.cpp:113] Setting up loss2/classifier_kaggle
I1217 10:25:33.166648  8744 net.cpp:120] Top shape: 50 447 (22350)
I1217 10:25:33.166662  8744 layer_factory.hpp:74] Creating layer loss2/classifier_kaggle_loss2/classifier_kaggle_0_split
I1217 10:25:33.166671  8744 net.cpp:84] Creating Layer loss2/classifier_kaggle_loss2/classifier_kaggle_0_split
I1217 10:25:33.166678  8744 net.cpp:380] loss2/classifier_kaggle_loss2/classifier_kaggle_0_split <- loss2/classifier_kaggle
I1217 10:25:33.166685  8744 net.cpp:338] loss2/classifier_kaggle_loss2/classifier_kaggle_0_split -> loss2/classifier_kaggle_loss2/classifier_kaggle_0_split_0
I1217 10:25:33.166695  8744 net.cpp:338] loss2/classifier_kaggle_loss2/classifier_kaggle_0_split -> loss2/classifier_kaggle_loss2/classifier_kaggle_0_split_1
I1217 10:25:33.166704  8744 net.cpp:338] loss2/classifier_kaggle_loss2/classifier_kaggle_0_split -> loss2/classifier_kaggle_loss2/classifier_kaggle_0_split_2
I1217 10:25:33.166712  8744 net.cpp:113] Setting up loss2/classifier_kaggle_loss2/classifier_kaggle_0_split
I1217 10:25:33.166720  8744 net.cpp:120] Top shape: 50 447 (22350)
I1217 10:25:33.166726  8744 net.cpp:120] Top shape: 50 447 (22350)
I1217 10:25:33.166733  8744 net.cpp:120] Top shape: 50 447 (22350)
I1217 10:25:33.166749  8744 layer_factory.hpp:74] Creating layer loss2/loss
I1217 10:25:33.166769  8744 net.cpp:84] Creating Layer loss2/loss
I1217 10:25:33.166775  8744 net.cpp:380] loss2/loss <- loss2/classifier_kaggle_loss2/classifier_kaggle_0_split_0
I1217 10:25:33.166784  8744 net.cpp:380] loss2/loss <- label_data_1_split_3
I1217 10:25:33.166790  8744 net.cpp:338] loss2/loss -> loss2/loss1
…
I1217 10:25:33.169664  8744 net.cpp:338] loss2/top-5 -> loss2/top-5
I1217 10:25:33.169672  8744 net.cpp:113] Setting up loss2/top-5
I1217 10:25:33.169678  8744 net.cpp:120] Top shape: (1)
I1217 10:25:33.169683  8744 layer_factory.hpp:74] Creating layer inception_4e/1x1
I1217 10:25:33.169697  8744 net.cpp:84] Creating Layer inception_4e/1x1
I1217 10:25:33.169703  8744 net.cpp:380] inception_4e/1x1 <- inception_4d/output_inception_4d/output_0_split_1
I1217 10:25:33.169713  8744 net.cpp:338] inception_4e/1x1 -> inception_4e/1x1
I1217 10:25:33.169721  8744 net.cpp:113] Setting up inception_4e/1x1
I1217 10:25:33.171797  8744 net.cpp:120] Top shape: 50 256 14 14 (2508800)
I1217 10:25:33.171815  8744 layer_factory.hpp:74] Creating layer inception_4e/relu_1x1
I1217 10:25:33.171828  8744 net.cpp:84] Creating Layer inception_4e/relu_1x1
I1217 10:25:33.171834  8744 net.cpp:380] inception_4e/relu_1x1 <- inception_4e/1x1
I1217 10:25:33.171843  8744 net.cpp:327] inception_4e/relu_1x1 -> inception_4e/1x1 (in-place)
I1217 10:25:33.171850  8744 net.cpp:113] Setting up inception_4e/relu_1x1
I1217 10:25:33.171929  8744 net.cpp:120] Top shape: 50 256 14 14 (2508800)
I1217 10:25:33.171937  8744 layer_factory.hpp:74] Creating layer inception_4e/3x3_reduce
I1217 10:25:33.171968  8744 net.cpp:84] Creating Layer inception_4e/3x3_reduce
I1217 10:25:33.171975  8744 net.cpp:380] inception_4e/3x3_reduce <- inception_4d/output_inception_4d/output_0_split_2
I1217 10:25:33.171986  8744 net.cpp:338] inception_4e/3x3_reduce -> inception_4e/3x3_reduce
I1217 10:25:33.171996  8744 net.cpp:113] Setting up inception_4e/3x3_reduce
I1217 10:25:33.173455  8744 net.cpp:120] Top shape: 50 160 14 14 (1568000)
I1217 10:25:33.173475  8744 layer_factory.hpp:74] Creating layer inception_4e/relu_3x3_reduce
I1217 10:25:33.173485  8744 net.cpp:84] Creating Layer inception_4e/relu_3x3_reduce
I1217 10:25:33.173492  8744 net.cpp:380] inception_4e/relu_3x3_reduce <- inception_4e/3x3_reduce
I1217 10:25:33.173499  8744 net.cpp:327] inception_4e/relu_3x3_reduce -> inception_4e/3x3_reduce (in-place)
I1217 10:25:33.173508  8744 net.cpp:113] Setting up inception_4e/relu_3x3_reduce
I1217 10:25:33.173584  8744 net.cpp:120] Top shape: 50 160 14 14 (1568000)
I1217 10:25:33.173593  8744 layer_factory.hpp:74] Creating layer inception_4e/3x3
I1217 10:25:33.173604  8744 net.cpp:84] Creating Layer inception_4e/3x3
I1217 10:25:33.173610  8744 net.cpp:380] inception_4e/3x3 <- inception_4e/3x3_reduce
I1217 10:25:33.173619  8744 net.cpp:338] inception_4e/3x3 -> inception_4e/3x3
I1217 10:25:33.173636  8744 net.cpp:113] Setting up inception_4e/3x3
I1217 10:25:33.179600  8744 net.cpp:120] Top shape: 50 320 14 14 (3136000)
I1217 10:25:33.179621  8744 layer_factory.hpp:74] Creating layer inception_4e/relu_3x3
I1217 10:25:33.179631  8744 net.cpp:84] Creating Layer inception_4e/relu_3x3
I1217 10:25:33.179637  8744 net.cpp:380] inception_4e/relu_3x3 <- inception_4e/3x3
I1217 10:25:33.179646  8744 net.cpp:327] inception_4e/relu_3x3 -> inception_4e/3x3 (in-place)
I1217 10:25:33.179654  8744 net.cpp:113] Setting up inception_4e/relu_3x3
I1217 10:25:33.179929  8744 net.cpp:120] Top shape: 50 320 14 14 (3136000)
I1217 10:25:33.179942  8744 layer_factory.hpp:74] Creating layer inception_4e/5x5_reduce
I1217 10:25:33.179954  8744 net.cpp:84] Creating Layer inception_4e/5x5_reduce
I1217 10:25:33.179960  8744 net.cpp:380] inception_4e/5x5_reduce <- inception_4d/output_inception_4d/output_0_split_3
I1217 10:25:33.179968  8744 net.cpp:338] inception_4e/5x5_reduce -> inception_4e/5x5_reduce
I1217 10:25:33.179978  8744 net.cpp:113] Setting up inception_4e/5x5_reduce
I1217 10:25:33.181857  8744 net.cpp:120] Top shape: 50 32 14 14 (313600)
I1217 10:25:33.181880  8744 layer_factory.hpp:74] Creating layer inception_4e/relu_5x5_reduce
I1217 10:25:33.181892  8744 net.cpp:84] Creating Layer inception_4e/relu_5x5_reduce
I1217 10:25:33.181898  8744 net.cpp:380] inception_4e/relu_5x5_reduce <- inception_4e/5x5_reduce
I1217 10:25:33.181907  8744 net.cpp:327] inception_4e/relu_5x5_reduce -> inception_4e/5x5_reduce (in-place)
I1217 10:25:33.181918  8744 net.cpp:113] Setting up inception_4e/relu_5x5_reduce
I1217 10:25:33.182001  8744 net.cpp:120] Top shape: 50 32 14 14 (313600)
I1217 10:25:33.182009  8744 layer_factory.hpp:74] Creating layer inception_4e/5x5
I1217 10:25:33.182021  8744 net.cpp:84] Creating Layer inception_4e/5x5
I1217 10:25:33.182027  8744 net.cpp:380] inception_4e/5x5 <- inception_4e/5x5_reduce
I1217 10:25:33.182037  8744 net.cpp:338] inception_4e/5x5 -> inception_4e/5x5
I1217 10:25:33.182047  8744 net.cpp:113] Setting up inception_4e/5x5
I1217 10:25:33.184625  8744 net.cpp:120] Top shape: 50 128 14 14 (1254400)
I1217 10:25:33.184645  8744 layer_factory.hpp:74] Creating layer inception_4e/relu_5x5
I1217 10:25:33.184653  8744 net.cpp:84] Creating Layer inception_4e/relu_5x5
I1217 10:25:33.184660  8744 net.cpp:380] inception_4e/relu_5x5 <- inception_4e/5x5
I1217 10:25:33.184669  8744 net.cpp:327] inception_4e/relu_5x5 -> inception_4e/5x5 (in-place)
I1217 10:25:33.184679  8744 net.cpp:113] Setting up inception_4e/relu_5x5
I1217 10:25:33.184754  8744 net.cpp:120] Top shape: 50 128 14 14 (1254400)
I1217 10:25:33.184762  8744 layer_factory.hpp:74] Creating layer inception_4e/pool
I1217 10:25:33.184768  8744 layer_factory.cpp:56] CUDNN does not support padding or multiple tops. Using Caffe's own pooling layer.
I1217 10:25:33.184782  8744 net.cpp:84] Creating Layer inception_4e/pool
I1217 10:25:33.184787  8744 net.cpp:380] inception_4e/pool <- inception_4d/output_inception_4d/output_0_split_4
I1217 10:25:33.184797  8744 net.cpp:338] inception_4e/pool -> inception_4e/pool
I1217 10:25:33.184804  8744 net.cpp:113] Setting up inception_4e/pool
I1217 10:25:33.184815  8744 net.cpp:120] Top shape: 50 528 14 14 (5174400)
I1217 10:25:33.184820  8744 layer_factory.hpp:74] Creating layer inception_4e/pool_proj
I1217 10:25:33.184831  8744 net.cpp:84] Creating Layer inception_4e/pool_proj
I1217 10:25:33.184836  8744 net.cpp:380] inception_4e/pool_proj <- inception_4e/pool
I1217 10:25:33.184844  8744 net.cpp:338] inception_4e/pool_proj -> inception_4e/pool_proj
I1217 10:25:33.184854  8744 net.cpp:113] Setting up inception_4e/pool_proj
I1217 10:25:33.186116  8744 net.cpp:120] Top shape: 50 128 14 14 (1254400)
I1217 10:25:33.186136  8744 layer_factory.hpp:74] Creating layer inception_4e/relu_pool_proj
I1217 10:25:33.186146  8744 net.cpp:84] Creating Layer inception_4e/relu_pool_proj
I1217 10:25:33.186152  8744 net.cpp:380] inception_4e/relu_pool_proj <- inception_4e/pool_proj
I1217 10:25:33.186161  8744 net.cpp:327] inception_4e/relu_pool_proj -> inception_4e/pool_proj (in-place)
I1217 10:25:33.186177  8744 net.cpp:113] Setting up inception_4e/relu_pool_proj
I1217 10:25:33.186259  8744 net.cpp:120] Top shape: 50 128 14 14 (1254400)
I1217 10:25:33.186267  8744 layer_factory.hpp:74] Creating layer inception_4e/output
I1217 10:25:33.186278  8744 net.cpp:84] Creating Layer inception_4e/output
I1217 10:25:33.186283  8744 net.cpp:380] inception_4e/output <- inception_4e/1x1
I1217 10:25:33.186290  8744 net.cpp:380] inception_4e/output <- inception_4e/3x3
I1217 10:25:33.186297  8744 net.cpp:380] inception_4e/output <- inception_4e/5x5
I1217 10:25:33.186302  8744 net.cpp:380] inception_4e/output <- inception_4e/pool_proj
I1217 10:25:33.186310  8744 net.cpp:338] inception_4e/output -> inception_4e/output
I1217 10:25:33.186318  8744 net.cpp:113] Setting up inception_4e/output
I1217 10:25:33.186327  8744 net.cpp:120] Top shape: 50 832 14 14 (8153600)
I1217 10:25:33.186332  8744 layer_factory.hpp:74] Creating layer pool4/3x3_s2
I1217 10:25:33.186341  8744 net.cpp:84] Creating Layer pool4/3x3_s2
I1217 10:25:33.186345  8744 net.cpp:380] pool4/3x3_s2 <- inception_4e/output
I1217 10:25:33.186355  8744 net.cpp:338] pool4/3x3_s2 -> pool4/3x3_s2
I1217 10:25:33.186363  8744 net.cpp:113] Setting up pool4/3x3_s2
I1217 10:25:33.186656  8744 net.cpp:120] Top shape: 50 832 7 7 (2038400)
I1217 10:25:33.186669  8744 layer_factory.hpp:74] Creating layer pool4/3x3_s2_pool4/3x3_s2_0_split
I1217 10:25:33.186681  8744 net.cpp:84] Creating Layer pool4/3x3_s2_pool4/3x3_s2_0_split
I1217 10:25:33.186686  8744 net.cpp:380] pool4/3x3_s2_pool4/3x3_s2_0_split <- pool4/3x3_s2
I1217 10:25:33.186694  8744 net.cpp:338] pool4/3x3_s2_pool4/3x3_s2_0_split -> pool4/3x3_s2_pool4/3x3_s2_0_split_0
I1217 10:25:33.186703  8744 net.cpp:338] pool4/3x3_s2_pool4/3x3_s2_0_split -> pool4/3x3_s2_pool4/3x3_s2_0_split_1
I1217 10:25:33.186714  8744 net.cpp:338] pool4/3x3_s2_pool4/3x3_s2_0_split -> pool4/3x3_s2_pool4/3x3_s2_0_split_2
I1217 10:25:33.186741  8744 net.cpp:338] pool4/3x3_s2_pool4/3x3_s2_0_split -> pool4/3x3_s2_pool4/3x3_s2_0_split_3
I1217 10:25:33.186751  8744 net.cpp:113] Setting up pool4/3x3_s2_pool4/3x3_s2_0_split
I1217 10:25:33.186760  8744 net.cpp:120] Top shape: 50 832 7 7 (2038400)
I1217 10:25:33.186766  8744 net.cpp:120] Top shape: 50 832 7 7 (2038400)
I1217 10:25:33.186772  8744 net.cpp:120] Top shape: 50 832 7 7 (2038400)
I1217 10:25:33.186779  8744 net.cpp:120] Top shape: 50 832 7 7 (2038400)
I1217 10:25:33.186784  8744 layer_factory.hpp:74] Creating layer inception_5a/1x1
I1217 10:25:33.186792  8744 net.cpp:84] Creating Layer inception_5a/1x1
I1217 10:25:33.186799  8744 net.cpp:380] inception_5a/1x1 <- pool4/3x3_s2_pool4/3x3_s2_0_split_0
I1217 10:25:33.186811  8744 net.cpp:338] inception_5a/1x1 -> inception_5a/1x1
I1217 10:25:33.186820  8744 net.cpp:113] Setting up inception_5a/1x1
I1217 10:25:33.189785  8744 net.cpp:120] Top shape: 50 256 7 7 (627200)
I1217 10:25:33.189805  8744 layer_factory.hpp:74] Creating layer inception_5a/relu_1x1
I1217 10:25:33.189813  8744 net.cpp:84] Creating Layer inception_5a/relu_1x1
I1217 10:25:33.189820  8744 net.cpp:380] inception_5a/relu_1x1 <- inception_5a/1x1
I1217 10:25:33.189827  8744 net.cpp:327] inception_5a/relu_1x1 -> inception_5a/1x1 (in-place)
I1217 10:25:33.189836  8744 net.cpp:113] Setting up inception_5a/relu_1x1
I1217 10:25:33.189915  8744 net.cpp:120] Top shape: 50 256 7 7 (627200)
I1217 10:25:33.189924  8744 layer_factory.hpp:74] Creating layer inception_5a/3x3_reduce
I1217 10:25:33.189932  8744 net.cpp:84] Creating Layer inception_5a/3x3_reduce
I1217 10:25:33.189939  8744 net.cpp:380] inception_5a/3x3_reduce <- pool4/3x3_s2_pool4/3x3_s2_0_split_1
I1217 10:25:33.189949  8744 net.cpp:338] inception_5a/3x3_reduce -> inception_5a/3x3_reduce
I1217 10:25:33.189959  8744 net.cpp:113] Setting up inception_5a/3x3_reduce
I1217 10:25:33.191980  8744 net.cpp:120] Top shape: 50 160 7 7 (392000)
I1217 10:25:33.191998  8744 layer_factory.hpp:74] Creating layer inception_5a/relu_3x3_reduce
I1217 10:25:33.192005  8744 net.cpp:84] Creating Layer inception_5a/relu_3x3_reduce
I1217 10:25:33.192020  8744 net.cpp:380] inception_5a/relu_3x3_reduce <- inception_5a/3x3_reduce
I1217 10:25:33.192036  8744 net.cpp:327] inception_5a/relu_3x3_reduce -> inception_5a/3x3_reduce (in-place)
I1217 10:25:33.192045  8744 net.cpp:113] Setting up inception_5a/relu_3x3_reduce
I1217 10:25:33.192122  8744 net.cpp:120] Top shape: 50 160 7 7 (392000)
I1217 10:25:33.192129  8744 layer_factory.hpp:74] Creating layer inception_5a/3x3
I1217 10:25:33.192140  8744 net.cpp:84] Creating Layer inception_5a/3x3
I1217 10:25:33.192147  8744 net.cpp:380] inception_5a/3x3 <- inception_5a/3x3_reduce
I1217 10:25:33.192154  8744 net.cpp:338] inception_5a/3x3 -> inception_5a/3x3
I1217 10:25:33.192163  8744 net.cpp:113] Setting up inception_5a/3x3
I1217 10:25:33.198035  8744 net.cpp:120] Top shape: 50 320 7 7 (784000)
I1217 10:25:33.198055  8744 layer_factory.hpp:74] Creating layer inception_5a/relu_3x3
I1217 10:25:33.198062  8744 net.cpp:84] Creating Layer inception_5a/relu_3x3
I1217 10:25:33.198070  8744 net.cpp:380] inception_5a/relu_3x3 <- inception_5a/3x3
I1217 10:25:33.198077  8744 net.cpp:327] inception_5a/relu_3x3 -> inception_5a/3x3 (in-place)
I1217 10:25:33.198086  8744 net.cpp:113] Setting up inception_5a/relu_3x3
I1217 10:25:33.198158  8744 net.cpp:120] Top shape: 50 320 7 7 (784000)
I1217 10:25:33.198166  8744 layer_factory.hpp:74] Creating layer inception_5a/5x5_reduce
I1217 10:25:33.198178  8744 net.cpp:84] Creating Layer inception_5a/5x5_reduce
I1217 10:25:33.198182  8744 net.cpp:380] inception_5a/5x5_reduce <- pool4/3x3_s2_pool4/3x3_s2_0_split_2
I1217 10:25:33.198190  8744 net.cpp:338] inception_5a/5x5_reduce -> inception_5a/5x5_reduce
I1217 10:25:33.198199  8744 net.cpp:113] Setting up inception_5a/5x5_reduce
I1217 10:25:33.198966  8744 net.cpp:120] Top shape: 50 32 7 7 (78400)
I1217 10:25:33.198982  8744 layer_factory.hpp:74] Creating layer inception_5a/relu_5x5_reduce
I1217 10:25:33.198992  8744 net.cpp:84] Creating Layer inception_5a/relu_5x5_reduce
I1217 10:25:33.198999  8744 net.cpp:380] inception_5a/relu_5x5_reduce <- inception_5a/5x5_reduce
I1217 10:25:33.199007  8744 net.cpp:327] inception_5a/relu_5x5_reduce -> inception_5a/5x5_reduce (in-place)
I1217 10:25:33.199014  8744 net.cpp:113] Setting up inception_5a/relu_5x5_reduce
I1217 10:25:33.199302  8744 net.cpp:120] Top shape: 50 32 7 7 (78400)
I1217 10:25:33.199314  8744 layer_factory.hpp:74] Creating layer inception_5a/5x5
I1217 10:25:33.199326  8744 net.cpp:84] Creating Layer inception_5a/5x5
I1217 10:25:33.199331  8744 net.cpp:380] inception_5a/5x5 <- inception_5a/5x5_reduce
I1217 10:25:33.199340  8744 net.cpp:338] inception_5a/5x5 -> inception_5a/5x5
I1217 10:25:33.199350  8744 net.cpp:113] Setting up inception_5a/5x5
I1217 10:25:33.200994  8744 net.cpp:120] Top shape: 50 128 7 7 (313600)
I1217 10:25:33.201011  8744 layer_factory.hpp:74] Creating layer inception_5a/relu_5x5
I1217 10:25:33.201021  8744 net.cpp:84] Creating Layer inception_5a/relu_5x5
I1217 10:25:33.201027  8744 net.cpp:380] inception_5a/relu_5x5 <- inception_5a/5x5
I1217 10:25:33.201035  8744 net.cpp:327] inception_5a/relu_5x5 -> inception_5a/5x5 (in-place)
I1217 10:25:33.201043  8744 net.cpp:113] Setting up inception_5a/relu_5x5
I1217 10:25:33.201138  8744 net.cpp:120] Top shape: 50 128 7 7 (313600)
I1217 10:25:33.201151  8744 layer_factory.hpp:74] Creating layer inception_5a/pool
I1217 10:25:33.201163  8744 layer_factory.cpp:56] CUDNN does not support padding or multiple tops. Using Caffe's own pooling layer.
I1217 10:25:33.201177  8744 net.cpp:84] Creating Layer inception_5a/pool
I1217 10:25:33.201187  8744 net.cpp:380] inception_5a/pool <- pool4/3x3_s2_pool4/3x3_s2_0_split_3
I1217 10:25:33.201201  8744 net.cpp:338] inception_5a/pool -> inception_5a/pool
I1217 10:25:33.201220  8744 net.cpp:113] Setting up inception_5a/pool
I1217 10:25:33.201236  8744 net.cpp:120] Top shape: 50 832 7 7 (2038400)
I1217 10:25:33.201247  8744 layer_factory.hpp:74] Creating layer inception_5a/pool_proj
I1217 10:25:33.201261  8744 net.cpp:84] Creating Layer inception_5a/pool_proj
I1217 10:25:33.201279  8744 net.cpp:380] inception_5a/pool_proj <- inception_5a/pool
I1217 10:25:33.201305  8744 net.cpp:338] inception_5a/pool_proj -> inception_5a/pool_proj
I1217 10:25:33.201323  8744 net.cpp:113] Setting up inception_5a/pool_proj
I1217 10:25:33.206883  8744 net.cpp:120] Top shape: 50 128 7 7 (313600)
I1217 10:25:33.206904  8744 layer_factory.hpp:74] Creating layer inception_5a/relu_pool_proj
I1217 10:25:33.206917  8744 net.cpp:84] Creating Layer inception_5a/relu_pool_proj
I1217 10:25:33.206923  8744 net.cpp:380] inception_5a/relu_pool_proj <- inception_5a/pool_proj
I1217 10:25:33.206931  8744 net.cpp:327] inception_5a/relu_pool_proj -> inception_5a/pool_proj (in-place)
I1217 10:25:33.206940  8744 net.cpp:113] Setting up inception_5a/relu_pool_proj
I1217 10:25:33.207017  8744 net.cpp:120] Top shape: 50 128 7 7 (313600)
I1217 10:25:33.207025  8744 layer_factory.hpp:74] Creating layer inception_5a/output
I1217 10:25:33.207036  8744 net.cpp:84] Creating Layer inception_5a/output
I1217 10:25:33.207041  8744 net.cpp:380] inception_5a/output <- inception_5a/1x1
I1217 10:25:33.207047  8744 net.cpp:380] inception_5a/output <- inception_5a/3x3
I1217 10:25:33.207053  8744 net.cpp:380] inception_5a/output <- inception_5a/5x5
I1217 10:25:33.207059  8744 net.cpp:380] inception_5a/output <- inception_5a/pool_proj
I1217 10:25:33.207067  8744 net.cpp:338] inception_5a/output -> inception_5a/output
I1217 10:25:33.207074  8744 net.cpp:113] Setting up inception_5a/output
I1217 10:25:33.207083  8744 net.cpp:120] Top shape: 50 832 7 7 (2038400)
I1217 10:25:33.207088  8744 layer_factory.hpp:74] Creating layer inception_5a/output_inception_5a/output_0_split
I1217 10:25:33.207097  8744 net.cpp:84] Creating Layer inception_5a/output_inception_5a/output_0_split
I1217 10:25:33.207101  8744 net.cpp:380] inception_5a/output_inception_5a/output_0_split <- inception_5a/output
I1217 10:25:33.207111  8744 net.cpp:338] inception_5a/output_inception_5a/output_0_split -> inception_5a/output_inception_5a/output_0_split_0
I1217 10:25:33.207120  8744 net.cpp:338] inception_5a/output_inception_5a/output_0_split -> inception_5a/output_inception_5a/output_0_split_1
I1217 10:25:33.207129  8744 net.cpp:338] inception_5a/output_inception_5a/output_0_split -> inception_5a/output_inception_5a/output_0_split_2
I1217 10:25:33.207136  8744 net.cpp:338] inception_5a/output_inception_5a/output_0_split -> inception_5a/output_inception_5a/output_0_split_3
I1217 10:25:33.207144  8744 net.cpp:113] Setting up inception_5a/output_inception_5a/output_0_split
I1217 10:25:33.207151  8744 net.cpp:120] Top shape: 50 832 7 7 (2038400)
I1217 10:25:33.207157  8744 net.cpp:120] Top shape: 50 832 7 7 (2038400)
I1217 10:25:33.207162  8744 net.cpp:120] Top shape: 50 832 7 7 (2038400)
I1217 10:25:33.207167  8744 net.cpp:120] Top shape: 50 832 7 7 (2038400)
I1217 10:25:33.207172  8744 layer_factory.hpp:74] Creating layer inception_5b/1x1
I1217 10:25:33.207185  8744 net.cpp:84] Creating Layer inception_5b/1x1
I1217 10:25:33.207190  8744 net.cpp:380] inception_5b/1x1 <- inception_5a/output_inception_5a/output_0_split_0
I1217 10:25:33.207197  8744 net.cpp:338] inception_5b/1x1 -> inception_5b/1x1
I1217 10:25:33.207206  8744 net.cpp:113] Setting up inception_5b/1x1
I1217 10:25:33.211418  8744 net.cpp:120] Top shape: 50 384 7 7 (940800)
I1217 10:25:33.211437  8744 layer_factory.hpp:74] Creating layer inception_5b/relu_1x1
I1217 10:25:33.211447  8744 net.cpp:84] Creating Layer inception_5b/relu_1x1
I1217 10:25:33.211453  8744 net.cpp:380] inception_5b/relu_1x1 <- inception_5b/1x1
I1217 10:25:33.211462  8744 net.cpp:327] inception_5b/relu_1x1 -> inception_5b/1x1 (in-place)
I1217 10:25:33.211469  8744 net.cpp:113] Setting up inception_5b/relu_1x1
I1217 10:25:33.211546  8744 net.cpp:120] Top shape: 50 384 7 7 (940800)
I1217 10:25:33.211555  8744 layer_factory.hpp:74] Creating layer inception_5b/3x3_reduce
I1217 10:25:33.211566  8744 net.cpp:84] Creating Layer inception_5b/3x3_reduce
I1217 10:25:33.211571  8744 net.cpp:380] inception_5b/3x3_reduce <- inception_5a/output_inception_5a/output_0_split_1
I1217 10:25:33.211587  8744 net.cpp:338] inception_5b/3x3_reduce -> inception_5b/3x3_reduce
I1217 10:25:33.211604  8744 net.cpp:113] Setting up inception_5b/3x3_reduce
I1217 10:25:33.213940  8744 net.cpp:120] Top shape: 50 192 7 7 (470400)
I1217 10:25:33.213958  8744 layer_factory.hpp:74] Creating layer inception_5b/relu_3x3_reduce
I1217 10:25:33.213968  8744 net.cpp:84] Creating Layer inception_5b/relu_3x3_reduce
I1217 10:25:33.213974  8744 net.cpp:380] inception_5b/relu_3x3_reduce <- inception_5b/3x3_reduce
I1217 10:25:33.213982  8744 net.cpp:327] inception_5b/relu_3x3_reduce -> inception_5b/3x3_reduce (in-place)
I1217 10:25:33.213990  8744 net.cpp:113] Setting up inception_5b/relu_3x3_reduce
I1217 10:25:33.214277  8744 net.cpp:120] Top shape: 50 192 7 7 (470400)
I1217 10:25:33.214293  8744 layer_factory.hpp:74] Creating layer inception_5b/3x3
I1217 10:25:33.214303  8744 net.cpp:84] Creating Layer inception_5b/3x3
I1217 10:25:33.214309  8744 net.cpp:380] inception_5b/3x3 <- inception_5b/3x3_reduce
I1217 10:25:33.214319  8744 net.cpp:338] inception_5b/3x3 -> inception_5b/3x3
I1217 10:25:33.214329  8744 net.cpp:113] Setting up inception_5b/3x3
I1217 10:25:33.222540  8744 net.cpp:120] Top shape: 50 384 7 7 (940800)
I1217 10:25:33.222559  8744 layer_factory.hpp:74] Creating layer inception_5b/relu_3x3
I1217 10:25:33.222568  8744 net.cpp:84] Creating Layer inception_5b/relu_3x3
I1217 10:25:33.222574  8744 net.cpp:380] inception_5b/relu_3x3 <- inception_5b/3x3
I1217 10:25:33.222581  8744 net.cpp:327] inception_5b/relu_3x3 -> inception_5b/3x3 (in-place)
I1217 10:25:33.222590  8744 net.cpp:113] Setting up inception_5b/relu_3x3
I1217 10:25:33.222666  8744 net.cpp:120] Top shape: 50 384 7 7 (940800)
I1217 10:25:33.222672  8744 layer_factory.hpp:74] Creating layer inception_5b/5x5_reduce
I1217 10:25:33.222683  8744 net.cpp:84] Creating Layer inception_5b/5x5_reduce
I1217 10:25:33.222688  8744 net.cpp:380] inception_5b/5x5_reduce <- inception_5a/output_inception_5a/output_0_split_2
I1217 10:25:33.222699  8744 net.cpp:338] inception_5b/5x5_reduce -> inception_5b/5x5_reduce
I1217 10:25:33.222708  8744 net.cpp:113] Setting up inception_5b/5x5_reduce
I1217 10:25:33.223639  8744 net.cpp:120] Top shape: 50 48 7 7 (117600)
I1217 10:25:33.223656  8744 layer_factory.hpp:74] Creating layer inception_5b/relu_5x5_reduce
I1217 10:25:33.223664  8744 net.cpp:84] Creating Layer inception_5b/relu_5x5_reduce
I1217 10:25:33.223670  8744 net.cpp:380] inception_5b/relu_5x5_reduce <- inception_5b/5x5_reduce
I1217 10:25:33.223677  8744 net.cpp:327] inception_5b/relu_5x5_reduce -> inception_5b/5x5_reduce (in-place)
I1217 10:25:33.223686  8744 net.cpp:113] Setting up inception_5b/relu_5x5_reduce
I1217 10:25:33.223765  8744 net.cpp:120] Top shape: 50 48 7 7 (117600)
I1217 10:25:33.223773  8744 layer_factory.hpp:74] Creating layer inception_5b/5x5
I1217 10:25:33.223785  8744 net.cpp:84] Creating Layer inception_5b/5x5
I1217 10:25:33.223791  8744 net.cpp:380] inception_5b/5x5 <- inception_5b/5x5_reduce
I1217 10:25:33.223799  8744 net.cpp:338] inception_5b/5x5 -> inception_5b/5x5
I1217 10:25:33.223809  8744 net.cpp:113] Setting up inception_5b/5x5
I1217 10:25:33.226070  8744 net.cpp:120] Top shape: 50 128 7 7 (313600)
I1217 10:25:33.226091  8744 layer_factory.hpp:74] Creating layer inception_5b/relu_5x5
I1217 10:25:33.226099  8744 net.cpp:84] Creating Layer inception_5b/relu_5x5
I1217 10:25:33.226105  8744 net.cpp:380] inception_5b/relu_5x5 <- inception_5b/5x5
I1217 10:25:33.226115  8744 net.cpp:327] inception_5b/relu_5x5 -> inception_5b/5x5 (in-place)
I1217 10:25:33.226124  8744 net.cpp:113] Setting up inception_5b/relu_5x5
I1217 10:25:33.226420  8744 net.cpp:120] Top shape: 50 128 7 7 (313600)
I1217 10:25:33.226433  8744 layer_factory.hpp:74] Creating layer inception_5b/pool
I1217 10:25:33.226439  8744 layer_factory.cpp:56] CUDNN does not support padding or multiple tops. Using Caffe's own pooling layer.
I1217 10:25:33.226447  8744 net.cpp:84] Creating Layer inception_5b/pool
I1217 10:25:33.226454  8744 net.cpp:380] inception_5b/pool <- inception_5a/output_inception_5a/output_0_split_3
I1217 10:25:33.226467  8744 net.cpp:338] inception_5b/pool -> inception_5b/pool
I1217 10:25:33.226485  8744 net.cpp:113] Setting up inception_5b/pool
I1217 10:25:33.226495  8744 net.cpp:120] Top shape: 50 832 7 7 (2038400)
I1217 10:25:33.226501  8744 layer_factory.hpp:74] Creating layer inception_5b/pool_proj
I1217 10:25:33.226512  8744 net.cpp:84] Creating Layer inception_5b/pool_proj
I1217 10:25:33.226518  8744 net.cpp:380] inception_5b/pool_proj <- inception_5b/pool
I1217 10:25:33.226527  8744 net.cpp:338] inception_5b/pool_proj -> inception_5b/pool_proj
I1217 10:25:33.226536  8744 net.cpp:113] Setting up inception_5b/pool_proj
I1217 10:25:33.228241  8744 net.cpp:120] Top shape: 50 128 7 7 (313600)
I1217 10:25:33.228258  8744 layer_factory.hpp:74] Creating layer inception_5b/relu_pool_proj
I1217 10:25:33.228267  8744 net.cpp:84] Creating Layer inception_5b/relu_pool_proj
I1217 10:25:33.228273  8744 net.cpp:380] inception_5b/relu_pool_proj <- inception_5b/pool_proj
I1217 10:25:33.228284  8744 net.cpp:327] inception_5b/relu_pool_proj -> inception_5b/pool_proj (in-place)
I1217 10:25:33.228292  8744 net.cpp:113] Setting up inception_5b/relu_pool_proj
I1217 10:25:33.228373  8744 net.cpp:120] Top shape: 50 128 7 7 (313600)
I1217 10:25:33.228379  8744 layer_factory.hpp:74] Creating layer inception_5b/output
I1217 10:25:33.228389  8744 net.cpp:84] Creating Layer inception_5b/output
I1217 10:25:33.228394  8744 net.cpp:380] inception_5b/output <- inception_5b/1x1
I1217 10:25:33.228400  8744 net.cpp:380] inception_5b/output <- inception_5b/3x3
I1217 10:25:33.228406  8744 net.cpp:380] inception_5b/output <- inception_5b/5x5
I1217 10:25:33.228412  8744 net.cpp:380] inception_5b/output <- inception_5b/pool_proj
I1217 10:25:33.228421  8744 net.cpp:338] inception_5b/output -> inception_5b/output
I1217 10:25:33.228430  8744 net.cpp:113] Setting up inception_5b/output
I1217 10:25:33.228438  8744 net.cpp:120] Top shape: 50 1024 7 7 (2508800)
I1217 10:25:33.228443  8744 layer_factory.hpp:74] Creating layer pool5/7x7_s1
I1217 10:25:33.228451  8744 net.cpp:84] Creating Layer pool5/7x7_s1
I1217 10:25:33.228456  8744 net.cpp:380] pool5/7x7_s1 <- inception_5b/output
I1217 10:25:33.228466  8744 net.cpp:338] pool5/7x7_s1 -> pool5/7x7_s1
I1217 10:25:33.228474  8744 net.cpp:113] Setting up pool5/7x7_s1
I1217 10:25:33.228550  8744 net.cpp:120] Top shape: 50 1024 1 1 (51200)
I1217 10:25:33.228557  8744 layer_factory.hpp:74] Creating layer pool5/drop_7x7_s1
I1217 10:25:33.228567  8744 net.cpp:84] Creating Layer pool5/drop_7x7_s1
I1217 10:25:33.228574  8744 net.cpp:380] pool5/drop_7x7_s1 <- pool5/7x7_s1
I1217 10:25:33.228579  8744 net.cpp:327] pool5/drop_7x7_s1 -> pool5/7x7_s1 (in-place)
I1217 10:25:33.228587  8744 net.cpp:113] Setting up pool5/drop_7x7_s1
I1217 10:25:33.228595  8744 net.cpp:120] Top shape: 50 1024 1 1 (51200)
I1217 10:25:33.228601  8744 layer_factory.hpp:74] Creating layer loss3/classifier_kaggle
I1217 10:25:33.228610  8744 net.cpp:84] Creating Layer loss3/classifier_kaggle
I1217 10:25:33.228615  8744 net.cpp:380] loss3/classifier_kaggle <- pool5/7x7_s1
I1217 10:25:33.228622  8744 net.cpp:338] loss3/classifier_kaggle -> loss3/classifier_kaggle
I1217 10:25:33.228631  8744 net.cpp:113] Setting up loss3/classifier_kaggle
I1217 10:25:33.233994  8744 net.cpp:120] Top shape: 50 447 (22350)
I1217 10:25:33.234007  8744 layer_factory.hpp:74] Creating layer loss3/classifier_kaggle_loss3/classifier_kaggle_0_split
I1217 10:25:33.234016  8744 net.cpp:84] Creating Layer loss3/classifier_kaggle_loss3/classifier_kaggle_0_split
I1217 10:25:33.234022  8744 net.cpp:380] loss3/classifier_kaggle_loss3/classifier_kaggle_0_split <- loss3/classifier_kaggle
I1217 10:25:33.234030  8744 net.cpp:338] loss3/classifier_kaggle_loss3/classifier_kaggle_0_split -> loss3/classifier_kaggle_loss3/classifier_kaggle_0_split_0
I1217 10:25:33.234040  8744 net.cpp:338] loss3/classifier_kaggle_loss3/classifier_kaggle_0_split -> loss3/classifier_kaggle_loss3/classifier_kaggle_0_split_1
I1217 10:25:33.234050  8744 net.cpp:338] loss3/classifier_kaggle_loss3/classifier_kaggle_0_split -> loss3/classifier_kaggle_loss3/classifier_kaggle_0_split_2
I1217 10:25:33.234071  8744 net.cpp:113] Setting up loss3/classifier_kaggle_loss3/classifier_kaggle_0_split
I1217 10:25:33.234079  8744 net.cpp:120] Top shape: 50 447 (22350)
I1217 10:25:33.234086  8744 net.cpp:120] Top shape: 50 447 (22350)
I1217 10:25:33.234091  8744 net.cpp:120] Top shape: 50 447 (22350)
I1217 10:25:33.234096  8744 layer_factory.hpp:74] Creating layer loss3/loss3
I1217 10:25:33.234103  8744 net.cpp:84] Creating Layer loss3/loss3
I1217 10:25:33.234108  8744 net.cpp:380] loss3/loss3 <- loss3/classifier_kaggle_loss3/classifier_kaggle_0_split_0
I1217 10:25:33.234115  8744 net.cpp:380] loss3/loss3 <- label_data_1_split_6
I1217 10:25:33.234124  8744 net.cpp:338] loss3/loss3 -> loss3/loss3
…
