…
I1216 21:14:20.336879 25246 net.cpp:257] The NetState phase (0) differed from the phase (1) specified by a rule in layer loss3/top-5
I1216 21:14:20.339454 25246 net.cpp:42] Initializing net from parameters: 
name: "GoogleNet"
state {
  phase: TRAIN
}
layer {
  name: "data"
  type: "Data"
  top: "data"
  top: "label"
  include {
    phase: TRAIN
  }
  transform_param {
    mirror: true
    crop_size: 224
    mean_value: 129
    mean_value: 129
    mean_value: 129
  }
  data_param {
    source: "/home/coldmanck/kaggle/kaggle2_train_lmdb"
    batch_size: 80
    backend: LMDB
  }
}
layer {
  name: "conv1/7x7_s2"
  type: "Convolution"
  bottom: "data"
  top: "conv1/7x7_s2"
  param {
    lr_mult: 1
    decay_mult: 1
  }
  param {
    lr_mult: 2
    decay_mult: 0
  }
  convolution_param {
    num_output: 64
    pad: 3
    kernel_size: 7
    stride: 2
    weight_filler {
      type: "xavier"
    }
    bias_filler {
      type: "constant"
      value: 0.2
    }
  }
}
layer {
  name: "conv1/relu_7x7"
  type: "ReLU"
  bottom: "conv1/7x7_s2"
  top: "conv1/7x7_s2"
}
layer {
  name: "pool1/3x3_s2"
  type: "Pooling"
  bottom: "conv1/7x7_s2"
  top: "pool1/3x3_s2"
  pooling_param {
    pool: MAX
    kernel_size: 3
    stride: 2
  }
}
layer {
  name: "pool1/norm1"
  type: "LRN"
  bottom: "pool1/3x3_s2"
  top: "pool1/norm1"
  lrn_param {
    local_size: 5
    alpha: 0.0001
    beta: 0.75
  }
}
layer {
  name: "conv2/3x3_reduce"
  type: "Convolution"
  bottom: "pool1/norm1"
  top: "conv2/3x3_reduce"
  param {
    lr_mult: 1
    decay_mult: 1
  }
  param {
    lr_mult: 2
    decay_mult: 0
  }
  convolution_param {
    num_output: 64
    kernel_size: 1
    weight_filler {
      type: "xavier"
    }
    bias_filler {
      type: "constant"
      value: 0.2
    }
  }
}
layer {
  name: "conv2/relu_3x3_reduce"
  type: "ReLU"
  bottom: "conv2/3x3_reduce"
  top: "conv2/3x3_reduce"
}
layer {
  name: "conv2/3x3"
  type: "Convolution"
  bottom: "conv2/3x3_reduce"
  top: "conv2/3x3"
  param {
    lr_mult: 1
    decay_mult: 1
  }
  param {
    lr_mult: 2
    decay_mult: 0
  }
  convolution_param {
    num_output: 192
    pad: 1
    kernel_size: 3
    weight_filler {
      type: "xavier"
    }
    bias_filler {
      type: "constant"
      value: 0.2
    }
  }
}
layer {
  name: "conv2/relu_3x3"
  type: "ReLU"
  bottom: "conv2/3x3"
  top: "conv2/3x3"
}
layer {
  name: "conv2/norm2"
  type: "LRN"
  bottom: "conv2/3x3"
  top: "conv2/norm2"
  lrn_param {
    local_size: 5
    alpha: 0.0001
    beta: 0.75
  }
}
layer {
  name: "pool2/3x3_s2"
  type: "Pooling"
  bottom: "conv2/norm2"
  top: "pool2/3x3_s2"
  pooling_param {
    pool: MAX
    kernel_size: 3
    stride: 2
  }
}
layer {
  name: "inception_3a/1x1"
  type: "Convolution"
  bottom: "pool2/3x3_s2"
  top: "inception_3a/1x1"
  param {
    lr_mult: 1
    decay_mult: 1
  }
  param {
    lr_mult: 2
    decay_mult: 0
  }
  convolution_param {
    num_output: 64
    kernel_size: 1
    weight_filler {
      type: "xavier"
    }
    bias_filler {
      type: "constant"
      value: 0.2
    }
  }
}
layer {
  name: "inception_3a/relu_1x1"
  type: "ReLU"
  bottom: "inception_3a/1x1"
  top: "inception_3a/1x1"
}
layer {
  name: "inception_3a/3x3_reduce"
  type: "Convolution"
  bottom: "pool2/3x3_s2"
  top: "inception_3a/3x3_reduce"
  param {
    lr_mult: 1
    decay_mult: 1
  }
  param {
    lr_mult: 2
    decay_mult: 0
  }
  convolution_param {
    num_output: 96
    kernel_size: 1
    weight_filler {
      type: "xavier"
    }
    bias_filler {
      type: "constant"
      value: 0.2
    }
  }
}
layer {
  name: "inception_3a/relu_3x3_reduce"
  type: "ReLU"
  bottom: "inception_3a/3x3_reduce"
  top: "inception_3a/3x3_reduce"
}
layer {
  name: "inception_3a/3x3"
  type: "Convolution"
  bottom: "inception_3a/3x3_reduce"
  top: "inception_3a/3x3"
  param {
    lr_mult: 1
    decay_mult: 1
  }
  param {
    lr_mult: 2
    decay_mult: 0
  }
  convolution_param {
    num_output: 128
    pad: 1
    kernel_size: 3
    weight_filler {
      type: "xavier"
    }
    bias_filler {
      type: "constant"
      value: 0.2
    }
  }
}
layer {
  name: "inception_3a/relu_3x3"
  type: "ReLU"
  bottom: "inception_3a/3x3"
  top: "inception_3a/3x3"
}
layer {
  name: "inception_3a/5x5_reduce"
  type: "Convolution"
  bottom: "pool2/3x3_s2"
  top: "inception_3a/5x5_reduce"
  param {
    lr_mult: 1
    decay_mult: 1
  }
  param {
    lr_mult: 2
    decay_mult: 0
  }
  convolution_param {
    num_output: 16
    kernel_size: 1
    weight_filler {
      type: "xavier"
    }
    bias_filler {
      type: "constant"
      value: 0.2
    }
  }
}
layer {
  name: "inception_3a/relu_5x5_reduce"
  type: "ReLU"
  bottom: "inception_3a/5x5_reduce"
  top: "inception_3a/5x5_reduce"
}
layer {
  name: "inception_3a/5x5"
  type: "Convolution"
  bottom: "inception_3a/5x5_reduce"
  top: "inception_3a/5x5"
  param {
    lr_mult: 1
    decay_mult: 1
  }
  param {
    lr_mult: 2
    decay_mult: 0
  }
  convolution_param {
    num_output: 32
    pad: 2
    kernel_size: 5
    weight_filler {
      type: "xavier"
    }
    bias_filler {
      type: "constant"
      value: 0.2
    }
  }
}
layer {
  name: "inception_3a/relu_5x5"
  type: "ReLU"
  bottom: "inception_3a/5x5"
  top: "inception_3a/5x5"
}
layer {
  name: "inception_3a/pool"
  type: "Pooling"
  bottom: "pool2/3x3_s2"
  top: "inception_3a/pool"
  pooling_param {
    pool: MAX
    kernel_size: 3
    stride: 1
    pad: 1
  }
}
layer {
  name: "inception_3a/pool_proj"
  type: "Convolution"
  bottom: "inception_3a/pool"
  top: "inception_3a/pool_proj"
  param {
    lr_mult: 1
    decay_mult: 1
  }
  param {
    lr_mult: 2
    decay_mult: 0
  }
  convolution_param {
    num_output: 32
    kernel_size: 1
    weight_filler {
      type: "xavier"
    }
    bias_filler {
      type: "constant"
      value: 0.2
    }
  }
}
layer {
  name: "inception_3a/relu_pool_proj"
  type: "ReLU"
  bottom: "inception_3a/pool_proj"
  top: "inception_3a/pool_proj"
}
layer {
  name: "inception_3a/output"
  type: "Concat"
  bottom: "inception_3a/1x1"
  bottom: "inception_3a/3x3"
  bottom: "inception_3a/5x5"
  bottom: "inception_3a/pool_proj"
  top: "inception_3a/output"
}
layer {
  name: "inception_3b/1x1"
  type: "Convolution"
  bottom: "inception_3a/output"
  top: "inception_3b/1x1"
  param {
    lr_mult: 1
    decay_mult: 1
  }
  param {
    lr_mult: 2
    decay_mult: 0
  }
  convolution_param {
    num_output: 128
    kernel_size: 1
    weight_filler {
      type: "xavier"
    }
    bias_filler {
      type: "constant"
      value: 0.2
    }
  }
}
layer {
  name: "inception_3b/relu_1x1"
  type: "ReLU"
  bottom: "inception_3b/1x1"
  top: "inception_3b/1x1"
}
layer {
  name: "inception_3b/3x3_reduce"
  type: "Convolution"
  bottom: "inception_3a/output"
  top: "inception_3b/3x3_reduce"
  param {
    lr_mult: 1
    decay_mult: 1
  }
  param {
    lr_mult: 2
    decay_mult: 0
  }
  convolution_param {
    num_output: 128
    kernel_size: 1
    weight_filler {
      type: "xavier"
    }
    bias_filler {
      type: "constant"
      value: 0.2
    }
  }
}
layer {
  name: "inception_3b/relu_3x3_reduce"
  type: "ReLU"
  bottom: "inception_3b/3x3_reduce"
  top: "inception_3b/3x3_reduce"
}
layer {
  name: "inception_3b/3x3"
  type: "Convolution"
  bottom: "inception_3b/3x3_reduce"
  top: "inception_3b/3x3"
  param {
    lr_mult: 1
    decay_mult: 1
  }
  param {
    lr_mult: 2
    decay_mult: 0
  }
  convolution_param {
    num_output: 192
    pad: 1
    kernel_size: 3
    weight_filler {
      type: "xavier"
    }
    bias_filler {
      type: "constant"
      value: 0.2
    }
  }
}
layer {
  name: "inception_3b/relu_3x3"
  type: "ReLU"
  bottom: "inception_3b/3x3"
  top: "inception_3b/3x3"
}
layer {
  name: "inception_3b/5x5_reduce"
  type: "Convolution"
  bottom: "inception_3a/output"
  top: "inception_3b/5x5_reduce"
  param {
    lr_mult: 1
    decay_mult: 1
  }
  param {
    lr_mult: 2
    decay_mult: 0
  }
  convolution_param {
    num_output: 32
    kernel_size: 1
    weight_filler {
      type: "xavier"
    }
    bias_filler {
      type: "constant"
      value: 0.2
    }
  }
}
layer {
  name: "inception_3b/relu_5x5_reduce"
  type: "ReLU"
  bottom: "inception_3b/5x5_reduce"
  top: "inception_3b/5x5_reduce"
}
layer {
  name: "inception_3b/5x5"
  type: "Convolution"
  bottom: "inception_3b/5x5_reduce"
  top: "inception_3b/5x5"
  param {
    lr_mult: 1
    decay_mult: 1
  }
  param {
    lr_mult: 2
    decay_mult: 0
  }
  convolution_param {
    num_output: 96
    pad: 2
    kernel_size: 5
    weight_filler {
      type: "xavier"
    }
    bias_filler {
      type: "constant"
      value: 0.2
    }
  }
}
layer {
  name: "inception_3b/relu_5x5"
  type: "ReLU"
  bottom: "inception_3b/5x5"
  top: "inception_3b/5x5"
}
layer {
  name: "inception_3b/pool"
  type: "Pooling"
  bottom: "inception_3a/output"
  top: "inception_3b/pool"
  pooling_param {
    pool: MAX
    kernel_size: 3
    stride: 1
    pad: 1
  }
}
layer {
  name: "inception_3b/pool_proj"
  type: "Convolution"
  bottom: "inception_3b/pool"
  top: "inception_3b/pool_proj"
  param {
    lr_mult: 1
    decay_mult: 1
  }
  param {
    lr_mult: 2
    decay_mult: 0
  }
  convolution_param {
    num_output: 64
    kernel_size: 1
    weight_filler {
      type: "xavier"
    }
    bias_filler {
      type: "constant"
      value: 0.2
    }
  }
}
layer {
  name: "inception_3b/relu_pool_proj"
  type: "ReLU"
  bottom: "inception_3b/pool_proj"
  top: "inception_3b/pool_proj"
}
layer {
  name: "inception_3b/output"
  type: "Concat"
  bottom: "inception_3b/1x1"
  bottom: "inception_3b/3x3"
  bottom: "inception_3b/5x5"
  bottom: "inception_3b/pool_proj"
  top: "inception_3b/output"
}
layer {
  name: "pool3/3x3_s2"
  type: "Pooling"
  bottom: "inception_3b/output"
  top: "pool3/3x3_s2"
  pooling_param {
    pool: MAX
    kernel_size: 3
    stride: 2
  }
}
layer {
  name: "inception_4a/1x1"
  type: "Convolution"
  bottom: "pool3/3x3_s2"
  top: "inception_4a/1x1"
  param {
    lr_mult: 1
    decay_mult: 1
  }
  param {
    lr_mult: 2
    decay_mult: 0
  }
  convolution_param {
    num_output: 192
    kernel_size: 1
    weight_filler {
      type: "xavier"
    }
    bias_filler {
      type: "constant"
      value: 0.2
    }
  }
}
layer {
  name: "inception_4a/relu_1x1"
  type: "ReLU"
  bottom: "inception_4a/1x1"
  top: "inception_4a/1x1"
}
layer {
  name: "inception_4a/3x3_reduce"
  type: "Convolution"
  bottom: "pool3/3x3_s2"
  top: "inception_4a/3x3_reduce"
  param {
    lr_mult: 1
    decay_mult: 1
  }
  param {
    lr_mult: 2
    decay_mult: 0
  }
  convolution_param {
    num_output: 96
    kernel_size: 1
    weight_filler {
      type: "xavier"
    }
    bias_filler {
      type: "constant"
      value: 0.2
    }
  }
}
layer {
  name: "inception_4a/relu_3x3_reduce"
  type: "ReLU"
  bottom: "inception_4a/3x3_reduce"
  top: "inception_4a/3x3_reduce"
}
layer {
  name: "inception_4a/3x3"
  type: "Convolution"
  bottom: "inception_4a/3x3_reduce"
  top: "inception_4a/3x3"
  param {
    lr_mult: 1
    decay_mult: 1
  }
  param {
    lr_mult: 2
    decay_mult: 0
  }
  convolution_param {
    num_output: 208
    pad: 1
    kernel_size: 3
    weight_filler {
      type: "xavier"
    }
    bias_filler {
      type: "constant"
      value: 0.2
    }
  }
}
layer {
  name: "inception_4a/relu_3x3"
  type: "ReLU"
  bottom: "inception_4a/3x3"
  top: "inception_4a/3x3"
}
layer {
  name: "inception_4a/5x5_reduce"
  type: "Convolution"
  bottom: "pool3/3x3_s2"
  top: "inception_4a/5x5_reduce"
  param {
    lr_mult: 1
    decay_mult: 1
  }
  param {
    lr_mult: 2
    decay_mult: 0
  }
  convolution_param {
    num_output: 16
    kernel_size: 1
    weight_filler {
      type: "xavier"
    }
    bias_filler {
      type: "constant"
      value: 0.2
    }
  }
}
layer {
  name: "inception_4a/relu_5x5_reduce"
  type: "ReLU"
  bottom: "inception_4a/5x5_reduce"
  top: "inception_4a/5x5_reduce"
}
layer {
  name: "inception_4a/5x5"
  type: "Convolution"
  bottom: "inception_4a/5x5_reduce"
  top: "inception_4a/5x5"
  param {
    lr_mult: 1
    decay_mult: 1
  }
  param {
    lr_mult: 2
    decay_mult: 0
  }
  convolution_param {
    num_output: 48
    pad: 2
    kernel_size: 5
    weight_filler {
      type: "xavier"
    }
    bias_filler {
      type: "constant"
      value: 0.2
    }
  }
}
layer {
  name: "inception_4a/relu_5x5"
  type: "ReLU"
  bottom: "inception_4a/5x5"
  top: "inception_4a/5x5"
}
layer {
  name: "inception_4a/pool"
  type: "Pooling"
  bottom: "pool3/3x3_s2"
  top: "inception_4a/pool"
  pooling_param {
    pool: MAX
    kernel_size: 3
    stride: 1
    pad: 1
  }
}
layer {
  name: "inception_4a/pool_proj"
  type: "Convolution"
  bottom: "inception_4a/pool"
  top: "inception_4a/pool_proj"
  param {
    lr_mult: 1
    decay_mult: 1
  }
  param {
    lr_mult: 2
    decay_mult: 0
  }
  convolution_param {
    num_output: 64
    kernel_size: 1
    weight_filler {
      type: "xavier"
    }
    bias_filler {
      type: "constant"
      value: 0.2
    }
  }
}
layer {
  name: "inception_4a/relu_pool_proj"
  type: "ReLU"
  bottom: "inception_4a/pool_proj"
  top: "inception_4a/pool_proj"
}
layer {
  name: "inception_4a/output"
  type: "Concat"
  bottom: "inception_4a/1x1"
  bottom: "inception_4a/3x3"
  bottom: "inception_4a/5x5"
  bottom: "inception_4a/pool_proj"
  top: "inception_4a/output"
}
layer {
  name: "loss1/ave_pool"
  type: "Pooling"
  bottom: "inception_4a/output"
  top: "loss1/ave_pool"
  pooling_param {
    pool: AVE
    kernel_size: 5
    stride: 3
  }
}
layer {
  name: "loss1/conv"
  type: "Convolution"
  bottom: "loss1/ave_pool"
  top: "loss1/conv"
  param {
    lr_mult: 1
    decay_mult: 1
  }
  param {
    lr_mult: 2
    decay_mult: 0
  }
  convolution_param {
    num_output: 128
    kernel_size: 1
    weight_filler {
      type: "xavier"
    }
    bias_filler {
      type: "constant"
      value: 0.2
    }
  }
}
layer {
  name: "loss1/relu_conv"
  type: "ReLU"
  bottom: "loss1/conv"
  top: "loss1/conv"
}
layer {
  name: "loss1/fc"
  type: "InnerProduct"
  bottom: "loss1/conv"
  top: "loss1/fc"
  param {
    lr_mult: 1
    decay_mult: 1
  }
  param {
    lr_mult: 2
    decay_mult: 0
  }
  inner_product_param {
    num_output: 1024
    weight_filler {
      type: "xavier"
    }
    bias_filler {
      type: "constant"
      value: 0.2
    }
  }
}
layer {
  name: "loss1/relu_fc"
  type: "ReLU"
  bottom: "loss1/fc"
  top: "loss1/fc"
}
layer {
  name: "loss1/drop_fc"
  type: "Dropout"
  bottom: "loss1/fc"
  top: "loss1/fc"
  dropout_param {
    dropout_ratio: 0.7
  }
}
layer {
  name: "loss1/classifier_kaggle"
  type: "InnerProduct"
  bottom: "loss1/fc"
  top: "loss1/classifier_kaggle"
  param {
    lr_mult: 1
    decay_mult: 1
  }
  param {
    lr_mult: 2
    decay_mult: 0
  }
  inner_product_param {
    num_output: 447
    weight_filler {
      type: "xavier"
    }
    bias_filler {
      type: "constant"
      value: 0
    }
  }
}
layer {
  name: "loss1/loss"
  type: "SoftmaxWithLoss"
  bottom: "loss1/classifier_kaggle"
  bottom: "label"
  top: "loss1/loss1"
  loss_weight: 0.3
}
layer {
  name: "inception_4b/1x1"
  type: "Convolution"
  bottom: "inception_4a/output"
  top: "inception_4b/1x1"
  param {
    lr_mult: 1
    decay_mult: 1
  }
  param {
    lr_mult: 2
    decay_mult: 0
  }
  convolution_param {
    num_output: 160
    kernel_size: 1
    weight_filler {
      type: "xavier"
    }
    bias_filler {
      type: "constant"
      value: 0.2
    }
  }
}
layer {
  name: "inception_4b/relu_1x1"
  type: "ReLU"
  bottom: "inception_4b/1x1"
  top: "inception_4b/1x1"
}
layer {
  name: "inception_4b/3x3_reduce"
  type: "Convolution"
  bottom: "inception_4a/output"
  top: "inception_4b/3x3_reduce"
  param {
    lr_mult: 1
    decay_mult: 1
  }
  param {
    lr_mult: 2
    decay_mult: 0
  }
  convolution_param {
    num_output: 112
    kernel_size: 1
    weight_filler {
      type: "xavier"
    }
    bias_filler {
      type: "constant"
      value: 0.2
    }
  }
}
layer {
  name: "inception_4b/relu_3x3_reduce"
  type: "ReLU"
  bottom: "inception_4b/3x3_reduce"
  top: "inception_4b/3x3_reduce"
}
layer {
  name: "inception_4b/3x3"
  type: "Convolution"
  bottom: "inception_4b/3x3_reduce"
  top: "inception_4b/3x3"
  param {
    lr_mult: 1
    decay_mult: 1
  }
  param {
    lr_mult: 2
    decay_mult: 0
  }
  convolution_param {
    num_output: 224
    pad: 1
    kernel_size: 3
    weight_filler {
      type: "xavier"
    }
    bias_filler {
      type: "constant"
      value: 0.2
    }
  }
}
layer {
  name: "inception_4b/relu_3x3"
  type: "ReLU"
  bottom: "inception_4b/3x3"
  top: "inception_4b/3x3"
}
layer {
  name: "inception_4b/5x5_reduce"
  type: "Convolution"
  bottom: "inception_4a/output"
  top: "inception_4b/5x5_reduce"
  param {
    lr_mult: 1
    decay_mult: 1
  }
  param {
    lr_mult: 2
    decay_mult: 0
  }
  convolution_param {
    num_output: 24
    kernel_size: 1
    weight_filler {
      type: "xavier"
    }
    bias_filler {
      type: "constant"
      value: 0.2
    }
  }
}
layer {
  name: "inception_4b/relu_5x5_reduce"
  type: "ReLU"
  bottom: "inception_4b/5x5_reduce"
  top: "inception_4b/5x5_reduce"
}
layer {
  name: "inception_4b/5x5"
  type: "Convolution"
  bottom: "inception_4b/5x5_reduce"
  top: "inception_4b/5x5"
  param {
    lr_mult: 1
    decay_mult: 1
  }
  param {
    lr_mult: 2
    decay_mult: 0
  }
  convolution_param {
    num_output: 64
    pad: 2
    kernel_size: 5
    weight_filler {
      type: "xavier"
    }
    bias_filler {
      type: "constant"
      value: 0.2
    }
  }
}
layer {
  name: "inception_4b/relu_5x5"
  type: "ReLU"
  bottom: "inception_4b/5x5"
  top: "inception_4b/5x5"
}
layer {
  name: "inception_4b/pool"
  type: "Pooling"
  bottom: "inception_4a/output"
  top: "inception_4b/pool"
  pooling_param {
    pool: MAX
    kernel_size: 3
    stride: 1
    pad: 1
  }
}
layer {
  name: "inception_4b/pool_proj"
  type: "Convolution"
  bottom: "inception_4b/pool"
  top: "inception_4b/pool_proj"
  param {
    lr_mult: 1
    decay_mult: 1
  }
  param {
    lr_mult: 2
    decay_mult: 0
  }
  convolution_param {
    num_output: 64
    kernel_size: 1
    weight_filler {
      type: "xavier"
    }
    bias_filler {
      type: "constant"
      value: 0.2
    }
  }
}
layer {
  name: "inception_4b/relu_pool_proj"
  type: "ReLU"
  bottom: "inception_4b/pool_proj"
  top: "inception_4b/pool_proj"
}
layer {
  name: "inception_4b/output"
  type: "Concat"
  bottom: "inception_4b/1x1"
  bottom: "inception_4b/3x3"
  bottom: "inception_4b/5x5"
  bottom: "inception_4b/pool_proj"
  top: "inception_4b/output"
}
layer {
  name: "inception_4c/1x1"
  type: "Convolution"
  bottom: "inception_4b/output"
  top: "inception_4c/1x1"
  param {
    lr_mult: 1
    decay_mult: 1
  }
  param {
    lr_mult: 2
    decay_mult: 0
  }
  convolution_param {
    num_output: 128
    kernel_size: 1
    weight_filler {
      type: "xavier"
    }
    bias_filler {
      type: "constant"
      value: 0.2
    }
  }
}
layer {
  name: "inception_4c/relu_1x1"
  type: "ReLU"
  bottom: "inception_4c/1x1"
  top: "inception_4c/1x1"
}
layer {
  name: "inception_4c/3x3_reduce"
  type: "Convolution"
  bottom: "inception_4b/output"
  top: "inception_4c/3x3_reduce"
  param {
    lr_mult: 1
    decay_mult: 1
  }
  param {
    lr_mult: 2
    decay_mult: 0
  }
  convolution_param {
    num_output: 128
    kernel_size: 1
    weight_filler {
      type: "xavier"
    }
    bias_filler {
      type: "constant"
      value: 0.2
    }
  }
}
layer {
  name: "inception_4c/relu_3x3_reduce"
  type: "ReLU"
  bottom: "inception_4c/3x3_reduce"
  top: "inception_4c/3x3_reduce"
}
layer {
  name: "inception_4c/3x3"
  type: "Convolution"
  bottom: "inception_4c/3x3_reduce"
  top: "inception_4c/3x3"
  param {
    lr_mult: 1
    decay_mult: 1
  }
  param {
    lr_mult: 2
    decay_mult: 0
  }
  convolution_param {
    num_output: 256
    pad: 1
    kernel_size: 3
    weight_filler {
      type: "xavier"
    }
    bias_filler {
      type: "constant"
      value: 0.2
    }
  }
}
layer {
  name: "inception_4c/relu_3x3"
  type: "ReLU"
  bottom: "inception_4c/3x3"
  top: "inception_4c/3x3"
}
layer {
  name: "inception_4c/5x5_reduce"
  type: "Convolution"
  bottom: "inception_4b/output"
  top: "inception_4c/5x5_reduce"
  param {
    lr_mult: 1
    decay_mult: 1
  }
  param {
    lr_mult: 2
    decay_mult: 0
  }
  convolution_param {
    num_output: 24
    kernel_size: 1
    weight_filler {
      type: "xavier"
    }
    bias_filler {
      type: "constant"
      value: 0.2
    }
  }
}
layer {
  name: "inception_4c/relu_5x5_reduce"
  type: "ReLU"
  bottom: "inception_4c/5x5_reduce"
  top: "inception_4c/5x5_reduce"
}
layer {
  name: "inception_4c/5x5"
  type: "Convolution"
  bottom: "inception_4c/5x5_reduce"
  top: "inception_4c/5x5"
  param {
    lr_mult: 1
    decay_mult: 1
  }
  param {
    lr_mult: 2
    decay_mult: 0
  }
  convolution_param {
    num_output: 64
    pad: 2
    kernel_size: 5
    weight_filler {
      type: "xavier"
    }
    bias_filler {
      type: "constant"
      value: 0.2
    }
  }
}
layer {
  name: "inception_4c/relu_5x5"
  type: "ReLU"
  bottom: "inception_4c/5x5"
  top: "inception_4c/5x5"
}
layer {
  name: "inception_4c/pool"
  type: "Pooling"
  bottom: "inception_4b/output"
  top: "inception_4c/pool"
  pooling_param {
    pool: MAX
    kernel_size: 3
    stride: 1
    pad: 1
  }
}
layer {
  name: "inception_4c/pool_proj"
  type: "Convolution"
  bottom: "inception_4c/pool"
  top: "inception_4c/pool_proj"
  param {
    lr_mult: 1
    decay_mult: 1
  }
  param {
    lr_mult: 2
    decay_mult: 0
  }
  convolution_param {
    num_output: 64
    kernel_size: 1
    weight_filler {
      type: "xavier"
    }
    bias_filler {
      type: "constant"
      value: 0.2
    }
  }
}
layer {
  name: "inception_4c/relu_pool_proj"
  type: "ReLU"
  bottom: "inception_4c/pool_proj"
  top: "inception_4c/pool_proj"
}
layer {
  name: "inception_4c/output"
  type: "Concat"
  bottom: "inception_4c/1x1"
  bottom: "inception_4c/3x3"
  bottom: "inception_4c/5x5"
  bottom: "inception_4c/pool_proj"
  top: "inception_4c/output"
}
layer {
  name: "inception_4d/1x1"
  type: "Convolution"
  bottom: "inception_4c/output"
  top: "inception_4d/1x1"
  param {
    lr_mult: 1
    decay_mult: 1
  }
  param {
    lr_mult: 2
    decay_mult: 0
  }
  convolution_param {
    num_output: 112
    kernel_size: 1
    weight_filler {
      type: "xavier"
    }
    bias_filler {
      type: "constant"
      value: 0.2
    }
  }
}
layer {
  name: "inception_4d/relu_1x1"
  type: "ReLU"
  bottom: "inception_4d/1x1"
  top: "inception_4d/1x1"
}
layer {
  name: "inception_4d/3x3_reduce"
  type: "Convolution"
  bottom: "inception_4c/output"
  top: "inception_4d/3x3_reduce"
  param {
    lr_mult: 1
    decay_mult: 1
  }
  param {
    lr_mult: 2
    decay_mult: 0
  }
  convolution_param {
    num_output: 144
    kernel_size: 1
    weight_filler {
      type: "xavier"
    }
    bias_filler {
      type: "constant"
      value: 0.2
    }
  }
}
layer {
  name: "inception_4d/relu_3x3_reduce"
  type: "ReLU"
  bottom: "inception_4d/3x3_reduce"
  top: "inception_4d/3x3_reduce"
}
layer {
  name: "inception_4d/3x3"
  type: "Convolution"
  bottom: "inception_4d/3x3_reduce"
  top: "inception_4d/3x3"
  param {
    lr_mult: 1
    decay_mult: 1
  }
  param {
    lr_mult: 2
    decay_mult: 0
  }
  convolution_param {
    num_output: 288
    pad: 1
    kernel_size: 3
    weight_filler {
      type: "xavier"
    }
    bias_filler {
      type: "constant"
      value: 0.2
    }
  }
}
layer {
  name: "inception_4d/relu_3x3"
  type: "ReLU"
  bottom: "inception_4d/3x3"
  top: "inception_4d/3x3"
}
layer {
  name: "inception_4d/5x5_reduce"
  type: "Convolution"
  bottom: "inception_4c/output"
  top: "inception_4d/5x5_reduce"
  param {
    lr_mult: 1
    decay_mult: 1
  }
  param {
    lr_mult: 2
    decay_mult: 0
  }
  convolution_param {
    num_output: 32
    kernel_size: 1
    weight_filler {
      type: "xavier"
    }
    bias_filler {
      type: "constant"
      value: 0.2
    }
  }
}
layer {
  name: "inception_4d/relu_5x5_reduce"
  type: "ReLU"
  bottom: "inception_4d/5x5_reduce"
  top: "inception_4d/5x5_reduce"
}
layer {
  name: "inception_4d/5x5"
  type: "Convolution"
  bottom: "inception_4d/5x5_reduce"
  top: "inception_4d/5x5"
  param {
    lr_mult: 1
    decay_mult: 1
  }
  param {
    lr_mult: 2
    decay_mult: 0
  }
  convolution_param {
    num_output: 64
    pad: 2
    kernel_size: 5
    weight_filler {
      type: "xavier"
    }
    bias_filler {
      type: "constant"
      value: 0.2
    }
  }
}
layer {
  name: "inception_4d/relu_5x5"
  type: "ReLU"
  bottom: "inception_4d/5x5"
  top: "inception_4d/5x5"
}
layer {
  name: "inception_4d/pool"
  type: "Pooling"
  bottom: "inception_4c/output"
  top: "inception_4d/pool"
  pooling_param {
    pool: MAX
    kernel_size: 3
    stride: 1
    pad: 1
  }
}
layer {
  name: "inception_4d/pool_proj"
  type: "Convolution"
  bottom: "inception_4d/pool"
  top: "inception_4d/pool_proj"
  param {
    lr_mult: 1
    decay_mult: 1
  }
  param {
    lr_mult: 2
    decay_mult: 0
  }
  convolution_param {
    num_output: 64
    kernel_size: 1
    weight_filler {
      type: "xavier"
    }
    bias_filler {
      type: "constant"
      value: 0.2
    }
  }
}
layer {
  name: "inception_4d/relu_pool_proj"
  type: "ReLU"
  bottom: "inception_4d/pool_proj"
  top: "inception_4d/pool_proj"
}
layer {
  name: "inception_4d/output"
  type: "Concat"
  bottom: "inception_4d/1x1"
  bottom: "inception_4d/3x3"
  bottom: "inception_4d/5x5"
  bottom: "inception_4d/pool_proj"
  top: "inception_4d/output"
}
layer {
  name: "loss2/ave_pool"
  type: "Pooling"
  bottom: "inception_4d/output"
  top: "loss2/ave_pool"
  pooling_param {
    pool: AVE
    kernel_size: 5
    stride: 3
  }
}
layer {
  name: "loss2/conv"
  type: "Convolution"
  bottom: "loss2/ave_pool"
  top: "loss2/conv"
  param {
    lr_mult: 1
    decay_mult: 1
  }
  param {
    lr_mult: 2
    decay_mult: 0
  }
  convolution_param {
    num_output: 128
    kernel_size: 1
    weight_filler {
      type: "xavier"
    }
    bias_filler {
      type: "constant"
      value: 0.2
    }
  }
}
layer {
  name: "loss2/relu_conv"
  type: "ReLU"
  bottom: "loss2/conv"
  top: "loss2/conv"
}
layer {
  name: "loss2/fc"
  type: "InnerProduct"
  bottom: "loss2/conv"
  top: "loss2/fc"
  param {
    lr_mult: 1
    decay_mult: 1
  }
  param {
    lr_mult: 2
    decay_mult: 0
  }
  inner_product_param {
    num_output: 1024
    weight_filler {
      type: "xavier"
    }
    bias_filler {
      type: "constant"
      value: 0.2
    }
  }
}
layer {
  name: "loss2/relu_fc"
  type: "ReLU"
  bottom: "loss2/fc"
  top: "loss2/fc"
}
layer {
  name: "loss2/drop_fc"
  type: "Dropout"
  bottom: "loss2/fc"
  top: "loss2/fc"
  dropout_param {
    dropout_ratio: 0.7
  }
}
layer {
  name: "loss2/classifier_kaggle"
  type: "InnerProduct"
  bottom: "loss2/fc"
  top: "loss2/classifier_kaggle"
  param {
    lr_mult: 1
    decay_mult: 1
  }
  param {
    lr_mult: 2
    decay_mult: 0
  }
  inner_product_param {
    num_output: 447
    weight_filler {
      type: "xavier"
    }
    bias_filler {
      type: "constant"
      value: 0
    }
  }
}
layer {
  name: "loss2/loss"
  type: "SoftmaxWithLoss"
  bottom: "loss2/classifier_kaggle"
  bottom: "label"
  top: "loss2/loss1"
  loss_weight: 0.3
}
layer {
  name: "inception_4e/1x1"
  type: "Convolution"
  bottom: "inception_4d/output"
  top: "inception_4e/1x1"
  param {
    lr_mult: 1
    decay_mult: 1
  }
  param {
    lr_mult: 2
    decay_mult: 0
  }
  convolution_param {
    num_output: 256
    kernel_size: 1
    weight_filler {
      type: "xavier"
    }
    bias_filler {
      type: "constant"
      value: 0.2
    }
  }
}
layer {
  name: "inception_4e/relu_1x1"
  type: "ReLU"
  bottom: "inception_4e/1x1"
  top: "inception_4e/1x1"
}
layer {
  name: "inception_4e/3x3_reduce"
  type: "Convolution"
  bottom: "inception_4d/output"
  top: "inception_4e/3x3_reduce"
  param {
    lr_mult: 1
    decay_mult: 1
  }
  param {
    lr_mult: 2
    decay_mult: 0
  }
  convolution_param {
    num_output: 160
    kernel_size: 1
    weight_filler {
      type: "xavier"
    }
    bias_filler {
      type: "constant"
      value: 0.2
    }
  }
}
layer {
  name: "inception_4e/relu_3x3_reduce"
  type: "ReLU"
  bottom: "inception_4e/3x3_reduce"
  top: "inception_4e/3x3_reduce"
}
layer {
  name: "inception_4e/3x3"
  type: "Convolution"
  bottom: "inception_4e/3x3_reduce"
  top: "inception_4e/3x3"
  param {
    lr_mult: 1
    decay_mult: 1
  }
  param {
    lr_mult: 2
    decay_mult: 0
  }
  convolution_param {
    num_output: 320
    pad: 1
    kernel_size: 3
    weight_filler {
      type: "xavier"
    }
    bias_filler {
      type: "constant"
      value: 0.2
    }
  }
}
layer {
  name: "inception_4e/relu_3x3"
  type: "ReLU"
  bottom: "inception_4e/3x3"
  top: "inception_4e/3x3"
}
layer {
  name: "inception_4e/5x5_reduce"
  type: "Convolution"
  bottom: "inception_4d/output"
  top: "inception_4e/5x5_reduce"
  param {
    lr_mult: 1
    decay_mult: 1
  }
  param {
    lr_mult: 2
    decay_mult: 0
  }
  convolution_param {
    num_output: 32
    kernel_size: 1
    weight_filler {
      type: "xavier"
    }
    bias_filler {
      type: "constant"
      value: 0.2
    }
  }
}
layer {
  name: "inception_4e/relu_5x5_reduce"
  type: "ReLU"
  bottom: "inception_4e/5x5_reduce"
  top: "inception_4e/5x5_reduce"
}
layer {
  name: "inception_4e/5x5"
  type: "Convolution"
  bottom: "inception_4e/5x5_reduce"
  top: "inception_4e/5x5"
  param {
    lr_mult: 1
    decay_mult: 1
  }
  param {
    lr_mult: 2
    decay_mult: 0
  }
  convolution_param {
    num_output: 128
    pad: 2
    kernel_size: 5
    weight_filler {
      type: "xavier"
    }
    bias_filler {
      type: "constant"
      value: 0.2
    }
  }
}
layer {
  name: "inception_4e/relu_5x5"
  type: "ReLU"
  bottom: "inception_4e/5x5"
  top: "inception_4e/5x5"
}
layer {
  name: "inception_4e/pool"
  type: "Pooling"
  bottom: "inception_4d/output"
  top: "inception_4e/pool"
  pooling_param {
   
I1216 21:14:20.340765 25246 layer_factory.hpp:74] Creating layer data
I1216 21:14:20.340809 25246 net.cpp:84] Creating Layer data
I1216 21:14:20.340826 25246 net.cpp:338] data -> data
I1216 21:14:20.340881 25246 net.cpp:338] data -> label
I1216 21:14:20.340898 25246 net.cpp:113] Setting up data
I1216 21:14:20.341033 25246 db.cpp:34] Opened lmdb /home/coldmanck/kaggle/kaggle2_train_lmdb
I1216 21:14:20.341347 25246 data_layer.cpp:67] output data size: 80,3,224,224
I1216 21:14:21.010874 25246 net.cpp:120] Top shape: 80 3 224 224 (12042240)
I1216 21:14:21.010941 25246 net.cpp:120] Top shape: 80 (80)
I1216 21:14:21.010957 25246 layer_factory.hpp:74] Creating layer label_data_1_split
I1216 21:14:21.011036 25246 net.cpp:84] Creating Layer label_data_1_split
I1216 21:14:21.011046 25246 net.cpp:380] label_data_1_split <- label
I1216 21:14:21.011066 25246 net.cpp:338] label_data_1_split -> label_data_1_split_0
I1216 21:14:21.011080 25246 net.cpp:338] label_data_1_split -> label_data_1_split_1
I1216 21:14:21.011088 25246 net.cpp:338] label_data_1_split -> label_data_1_split_2
I1216 21:14:21.011096 25246 net.cpp:113] Setting up label_data_1_split
I1216 21:14:21.011119 25246 net.cpp:120] Top shape: 80 (80)
I1216 21:14:21.011126 25246 net.cpp:120] Top shape: 80 (80)
I1216 21:14:21.011142 25246 net.cpp:120] Top shape: 80 (80)
I1216 21:14:21.011147 25246 layer_factory.hpp:74] Creating layer conv1/7x7_s2
I1216 21:14:21.011167 25246 net.cpp:84] Creating Layer conv1/7x7_s2
I1216 21:14:21.011173 25246 net.cpp:380] conv1/7x7_s2 <- data
I1216 21:14:21.011181 25246 net.cpp:338] conv1/7x7_s2 -> conv1/7x7_s2
I1216 21:14:21.011193 25246 net.cpp:113] Setting up conv1/7x7_s2
I1216 21:14:21.422215 25246 net.cpp:120] Top shape: 80 64 112 112 (64225280)
I1216 21:14:21.422291 25246 layer_factory.hpp:74] Creating layer conv1/relu_7x7
I1216 21:14:21.422334 25246 net.cpp:84] Creating Layer conv1/relu_7x7
I1216 21:14:21.422343 25246 net.cpp:380] conv1/relu_7x7 <- conv1/7x7_s2
I1216 21:14:21.422355 25246 net.cpp:327] conv1/relu_7x7 -> conv1/7x7_s2 (in-place)
I1216 21:14:21.422371 25246 net.cpp:113] Setting up conv1/relu_7x7
I1216 21:14:21.422960 25246 net.cpp:120] Top shape: 80 64 112 112 (64225280)
I1216 21:14:21.422976 25246 layer_factory.hpp:74] Creating layer pool1/3x3_s2
I1216 21:14:21.422994 25246 net.cpp:84] Creating Layer pool1/3x3_s2
I1216 21:14:21.423002 25246 net.cpp:380] pool1/3x3_s2 <- conv1/7x7_s2
I1216 21:14:21.423014 25246 net.cpp:338] pool1/3x3_s2 -> pool1/3x3_s2
I1216 21:14:21.423027 25246 net.cpp:113] Setting up pool1/3x3_s2
I1216 21:14:21.423133 25246 net.cpp:120] Top shape: 80 64 56 56 (16056320)
I1216 21:14:21.423146 25246 layer_factory.hpp:74] Creating layer pool1/norm1
I1216 21:14:21.423159 25246 net.cpp:84] Creating Layer pool1/norm1
I1216 21:14:21.423166 25246 net.cpp:380] pool1/norm1 <- pool1/3x3_s2
I1216 21:14:21.423176 25246 net.cpp:338] pool1/norm1 -> pool1/norm1
I1216 21:14:21.423187 25246 net.cpp:113] Setting up pool1/norm1
I1216 21:14:21.423198 25246 net.cpp:120] Top shape: 80 64 56 56 (16056320)
I1216 21:14:21.423207 25246 layer_factory.hpp:74] Creating layer conv2/3x3_reduce
I1216 21:14:21.423218 25246 net.cpp:84] Creating Layer conv2/3x3_reduce
I1216 21:14:21.423225 25246 net.cpp:380] conv2/3x3_reduce <- pool1/norm1
I1216 21:14:21.423234 25246 net.cpp:338] conv2/3x3_reduce -> conv2/3x3_reduce
I1216 21:14:21.423249 25246 net.cpp:113] Setting up conv2/3x3_reduce
I1216 21:14:21.425079 25246 net.cpp:120] Top shape: 80 64 56 56 (16056320)
I1216 21:14:21.425104 25246 layer_factory.hpp:74] Creating layer conv2/relu_3x3_reduce
I1216 21:14:21.425124 25246 net.cpp:84] Creating Layer conv2/relu_3x3_reduce
I1216 21:14:21.425132 25246 net.cpp:380] conv2/relu_3x3_reduce <- conv2/3x3_reduce
I1216 21:14:21.425143 25246 net.cpp:327] conv2/relu_3x3_reduce -> conv2/3x3_reduce (in-place)
I1216 21:14:21.425151 25246 net.cpp:113] Setting up conv2/relu_3x3_reduce
I1216 21:14:21.425230 25246 net.cpp:120] Top shape: 80 64 56 56 (16056320)
I1216 21:14:21.425238 25246 layer_factory.hpp:74] Creating layer conv2/3x3
I1216 21:14:21.425251 25246 net.cpp:84] Creating Layer conv2/3x3
I1216 21:14:21.425257 25246 net.cpp:380] conv2/3x3 <- conv2/3x3_reduce
I1216 21:14:21.425269 25246 net.cpp:338] conv2/3x3 -> conv2/3x3
I1216 21:14:21.425281 25246 net.cpp:113] Setting up conv2/3x3
I1216 21:14:21.427814 25246 net.cpp:120] Top shape: 80 192 56 56 (48168960)
I1216 21:14:21.427837 25246 layer_factory.hpp:74] Creating layer conv2/relu_3x3
I1216 21:14:21.427848 25246 net.cpp:84] Creating Layer conv2/relu_3x3
I1216 21:14:21.427855 25246 net.cpp:380] conv2/relu_3x3 <- conv2/3x3
I1216 21:14:21.427865 25246 net.cpp:327] conv2/relu_3x3 -> conv2/3x3 (in-place)
I1216 21:14:21.427876 25246 net.cpp:113] Setting up conv2/relu_3x3
I1216 21:14:21.429376 25246 net.cpp:120] Top shape: 80 192 56 56 (48168960)
I1216 21:14:21.429401 25246 layer_factory.hpp:74] Creating layer conv2/norm2
I1216 21:14:21.429414 25246 net.cpp:84] Creating Layer conv2/norm2
I1216 21:14:21.429421 25246 net.cpp:380] conv2/norm2 <- conv2/3x3
I1216 21:14:21.429431 25246 net.cpp:338] conv2/norm2 -> conv2/norm2
I1216 21:14:21.429442 25246 net.cpp:113] Setting up conv2/norm2
I1216 21:14:21.429455 25246 net.cpp:120] Top shape: 80 192 56 56 (48168960)
I1216 21:14:21.429471 25246 layer_factory.hpp:74] Creating layer pool2/3x3_s2
I1216 21:14:21.429494 25246 net.cpp:84] Creating Layer pool2/3x3_s2
I1216 21:14:21.429502 25246 net.cpp:380] pool2/3x3_s2 <- conv2/norm2
I1216 21:14:21.429509 25246 net.cpp:338] pool2/3x3_s2 -> pool2/3x3_s2
I1216 21:14:21.429518 25246 net.cpp:113] Setting up pool2/3x3_s2
I1216 21:14:21.429606 25246 net.cpp:120] Top shape: 80 192 28 28 (12042240)
I1216 21:14:21.429617 25246 layer_factory.hpp:74] Creating layer pool2/3x3_s2_pool2/3x3_s2_0_split
I1216 21:14:21.429625 25246 net.cpp:84] Creating Layer pool2/3x3_s2_pool2/3x3_s2_0_split
I1216 21:14:21.429631 25246 net.cpp:380] pool2/3x3_s2_pool2/3x3_s2_0_split <- pool2/3x3_s2
I1216 21:14:21.429641 25246 net.cpp:338] pool2/3x3_s2_pool2/3x3_s2_0_split -> pool2/3x3_s2_pool2/3x3_s2_0_split_0
I1216 21:14:21.429651 25246 net.cpp:338] pool2/3x3_s2_pool2/3x3_s2_0_split -> pool2/3x3_s2_pool2/3x3_s2_0_split_1
I1216 21:14:21.429661 25246 net.cpp:338] pool2/3x3_s2_pool2/3x3_s2_0_split -> pool2/3x3_s2_pool2/3x3_s2_0_split_2
I1216 21:14:21.429671 25246 net.cpp:338] pool2/3x3_s2_pool2/3x3_s2_0_split -> pool2/3x3_s2_pool2/3x3_s2_0_split_3
I1216 21:14:21.429678 25246 net.cpp:113] Setting up pool2/3x3_s2_pool2/3x3_s2_0_split
I1216 21:14:21.429688 25246 net.cpp:120] Top shape: 80 192 28 28 (12042240)
I1216 21:14:21.429695 25246 net.cpp:120] Top shape: 80 192 28 28 (12042240)
I1216 21:14:21.429702 25246 net.cpp:120] Top shape: 80 192 28 28 (12042240)
I1216 21:14:21.429708 25246 net.cpp:120] Top shape: 80 192 28 28 (12042240)
I1216 21:14:21.429713 25246 layer_factory.hpp:74] Creating layer inception_3a/1x1
I1216 21:14:21.429787 25246 net.cpp:84] Creating Layer inception_3a/1x1
I1216 21:14:21.429795 25246 net.cpp:380] inception_3a/1x1 <- pool2/3x3_s2_pool2/3x3_s2_0_split_0
I1216 21:14:21.429803 25246 net.cpp:338] inception_3a/1x1 -> inception_3a/1x1
I1216 21:14:21.429816 25246 net.cpp:113] Setting up inception_3a/1x1
I1216 21:14:21.431110 25246 net.cpp:120] Top shape: 80 64 28 28 (4014080)
I1216 21:14:21.431133 25246 layer_factory.hpp:74] Creating layer inception_3a/relu_1x1
I1216 21:14:21.431143 25246 net.cpp:84] Creating Layer inception_3a/relu_1x1
I1216 21:14:21.431149 25246 net.cpp:380] inception_3a/relu_1x1 <- inception_3a/1x1
I1216 21:14:21.431160 25246 net.cpp:327] inception_3a/relu_1x1 -> inception_3a/1x1 (in-place)
I1216 21:14:21.431170 25246 net.cpp:113] Setting up inception_3a/relu_1x1
I1216 21:14:21.431246 25246 net.cpp:120] Top shape: 80 64 28 28 (4014080)
I1216 21:14:21.431255 25246 layer_factory.hpp:74] Creating layer inception_3a/3x3_reduce
I1216 21:14:21.431277 25246 net.cpp:84] Creating Layer inception_3a/3x3_reduce
I1216 21:14:21.431283 25246 net.cpp:380] inception_3a/3x3_reduce <- pool2/3x3_s2_pool2/3x3_s2_0_split_1
I1216 21:14:21.431293 25246 net.cpp:338] inception_3a/3x3_reduce -> inception_3a/3x3_reduce
I1216 21:14:21.431303 25246 net.cpp:113] Setting up inception_3a/3x3_reduce
I1216 21:14:21.434902 25246 net.cpp:120] Top shape: 80 96 28 28 (6021120)
I1216 21:14:21.434927 25246 layer_factory.hpp:74] Creating layer inception_3a/relu_3x3_reduce
I1216 21:14:21.434939 25246 net.cpp:84] Creating Layer inception_3a/relu_3x3_reduce
I1216 21:14:21.434945 25246 net.cpp:380] inception_3a/relu_3x3_reduce <- inception_3a/3x3_reduce
I1216 21:14:21.434955 25246 net.cpp:327] inception_3a/relu_3x3_reduce -> inception_3a/3x3_reduce (in-place)
I1216 21:14:21.434964 25246 net.cpp:113] Setting up inception_3a/relu_3x3_reduce
I1216 21:14:21.435051 25246 net.cpp:120] Top shape: 80 96 28 28 (6021120)
I1216 21:14:21.435060 25246 layer_factory.hpp:74] Creating layer inception_3a/3x3
I1216 21:14:21.435070 25246 net.cpp:84] Creating Layer inception_3a/3x3
I1216 21:14:21.435076 25246 net.cpp:380] inception_3a/3x3 <- inception_3a/3x3_reduce
I1216 21:14:21.435086 25246 net.cpp:338] inception_3a/3x3 -> inception_3a/3x3
I1216 21:14:21.435096 25246 net.cpp:113] Setting up inception_3a/3x3
I1216 21:14:21.438040 25246 net.cpp:120] Top shape: 80 128 28 28 (8028160)
I1216 21:14:21.438062 25246 layer_factory.hpp:74] Creating layer inception_3a/relu_3x3
I1216 21:14:21.438104 25246 net.cpp:84] Creating Layer inception_3a/relu_3x3
I1216 21:14:21.438125 25246 net.cpp:380] inception_3a/relu_3x3 <- inception_3a/3x3
I1216 21:14:21.438135 25246 net.cpp:327] inception_3a/relu_3x3 -> inception_3a/3x3 (in-place)
I1216 21:14:21.438146 25246 net.cpp:113] Setting up inception_3a/relu_3x3
I1216 21:14:21.438688 25246 net.cpp:120] Top shape: 80 128 28 28 (8028160)
I1216 21:14:21.438704 25246 layer_factory.hpp:74] Creating layer inception_3a/5x5_reduce
I1216 21:14:21.438715 25246 net.cpp:84] Creating Layer inception_3a/5x5_reduce
I1216 21:14:21.438722 25246 net.cpp:380] inception_3a/5x5_reduce <- pool2/3x3_s2_pool2/3x3_s2_0_split_2
I1216 21:14:21.438732 25246 net.cpp:338] inception_3a/5x5_reduce -> inception_3a/5x5_reduce
I1216 21:14:21.438750 25246 net.cpp:113] Setting up inception_3a/5x5_reduce
I1216 21:14:21.439522 25246 net.cpp:120] Top shape: 80 16 28 28 (1003520)
I1216 21:14:21.439543 25246 layer_factory.hpp:74] Creating layer inception_3a/relu_5x5_reduce
I1216 21:14:21.439553 25246 net.cpp:84] Creating Layer inception_3a/relu_5x5_reduce
I1216 21:14:21.439559 25246 net.cpp:380] inception_3a/relu_5x5_reduce <- inception_3a/5x5_reduce
I1216 21:14:21.439568 25246 net.cpp:327] inception_3a/relu_5x5_reduce -> inception_3a/5x5_reduce (in-place)
I1216 21:14:21.439579 25246 net.cpp:113] Setting up inception_3a/relu_5x5_reduce
I1216 21:14:21.439656 25246 net.cpp:120] Top shape: 80 16 28 28 (1003520)
I1216 21:14:21.439664 25246 layer_factory.hpp:74] Creating layer inception_3a/5x5
I1216 21:14:21.439674 25246 net.cpp:84] Creating Layer inception_3a/5x5
I1216 21:14:21.439681 25246 net.cpp:380] inception_3a/5x5 <- inception_3a/5x5_reduce
I1216 21:14:21.439690 25246 net.cpp:338] inception_3a/5x5 -> inception_3a/5x5
I1216 21:14:21.439700 25246 net.cpp:113] Setting up inception_3a/5x5
I1216 21:14:21.440615 25246 net.cpp:120] Top shape: 80 32 28 28 (2007040)
I1216 21:14:21.440636 25246 layer_factory.hpp:74] Creating layer inception_3a/relu_5x5
I1216 21:14:21.440659 25246 net.cpp:84] Creating Layer inception_3a/relu_5x5
I1216 21:14:21.440665 25246 net.cpp:380] inception_3a/relu_5x5 <- inception_3a/5x5
I1216 21:14:21.440675 25246 net.cpp:327] inception_3a/relu_5x5 -> inception_3a/5x5 (in-place)
I1216 21:14:21.440685 25246 net.cpp:113] Setting up inception_3a/relu_5x5
I1216 21:14:21.440759 25246 net.cpp:120] Top shape: 80 32 28 28 (2007040)
I1216 21:14:21.440769 25246 layer_factory.hpp:74] Creating layer inception_3a/pool
I1216 21:14:21.440776 25246 layer_factory.cpp:56] CUDNN does not support padding or multiple tops. Using Caffe's own pooling layer.
I1216 21:14:21.440785 25246 net.cpp:84] Creating Layer inception_3a/pool
I1216 21:14:21.440793 25246 net.cpp:380] inception_3a/pool <- pool2/3x3_s2_pool2/3x3_s2_0_split_3
I1216 21:14:21.440801 25246 net.cpp:338] inception_3a/pool -> inception_3a/pool
I1216 21:14:21.440810 25246 net.cpp:113] Setting up inception_3a/pool
I1216 21:14:21.440822 25246 net.cpp:120] Top shape: 80 192 28 28 (12042240)
I1216 21:14:21.440829 25246 layer_factory.hpp:74] Creating layer inception_3a/pool_proj
I1216 21:14:21.440837 25246 net.cpp:84] Creating Layer inception_3a/pool_proj
I1216 21:14:21.440843 25246 net.cpp:380] inception_3a/pool_proj <- inception_3a/pool
I1216 21:14:21.440852 25246 net.cpp:338] inception_3a/pool_proj -> inception_3a/pool_proj
I1216 21:14:21.440862 25246 net.cpp:113] Setting up inception_3a/pool_proj
I1216 21:14:21.441759 25246 net.cpp:120] Top shape: 80 32 28 28 (2007040)
I1216 21:14:21.441784 25246 layer_factory.hpp:74] Creating layer inception_3a/relu_pool_proj
I1216 21:14:21.441807 25246 net.cpp:84] Creating Layer inception_3a/relu_pool_proj
I1216 21:14:21.441813 25246 net.cpp:380] inception_3a/relu_pool_proj <- inception_3a/pool_proj
I1216 21:14:21.441823 25246 net.cpp:327] inception_3a/relu_pool_proj -> inception_3a/pool_proj (in-place)
I1216 21:14:21.441831 25246 net.cpp:113] Setting up inception_3a/relu_pool_proj
I1216 21:14:21.441937 25246 net.cpp:120] Top shape: 80 32 28 28 (2007040)
I1216 21:14:21.441948 25246 layer_factory.hpp:74] Creating layer inception_3a/output
I1216 21:14:21.441978 25246 net.cpp:84] Creating Layer inception_3a/output
I1216 21:14:21.441994 25246 net.cpp:380] inception_3a/output <- inception_3a/1x1
I1216 21:14:21.442003 25246 net.cpp:380] inception_3a/output <- inception_3a/3x3
I1216 21:14:21.442010 25246 net.cpp:380] inception_3a/output <- inception_3a/5x5
I1216 21:14:21.442018 25246 net.cpp:380] inception_3a/output <- inception_3a/pool_proj
I1216 21:14:21.442025 25246 net.cpp:338] inception_3a/output -> inception_3a/output
I1216 21:14:21.442035 25246 net.cpp:113] Setting up inception_3a/output
I1216 21:14:21.442046 25246 net.cpp:120] Top shape: 80 256 28 28 (16056320)
I1216 21:14:21.442052 25246 layer_factory.hpp:74] Creating layer inception_3a/output_inception_3a/output_0_split
I1216 21:14:21.442062 25246 net.cpp:84] Creating Layer inception_3a/output_inception_3a/output_0_split
I1216 21:14:21.442068 25246 net.cpp:380] inception_3a/output_inception_3a/output_0_split <- inception_3a/output
I1216 21:14:21.442077 25246 net.cpp:338] inception_3a/output_inception_3a/output_0_split -> inception_3a/output_inception_3a/output_0_split_0
I1216 21:14:21.442087 25246 net.cpp:338] inception_3a/output_inception_3a/output_0_split -> inception_3a/output_inception_3a/output_0_split_1
I1216 21:14:21.442097 25246 net.cpp:338] inception_3a/output_inception_3a/output_0_split -> inception_3a/output_inception_3a/output_0_split_2
I1216 21:14:21.442107 25246 net.cpp:338] inception_3a/output_inception_3a/output_0_split -> inception_3a/output_inception_3a/output_0_split_3
I1216 21:14:21.442116 25246 net.cpp:113] Setting up inception_3a/output_inception_3a/output_0_split
I1216 21:14:21.442124 25246 net.cpp:120] Top shape: 80 256 28 28 (16056320)
I1216 21:14:21.442131 25246 net.cpp:120] Top shape: 80 256 28 28 (16056320)
I1216 21:14:21.442138 25246 net.cpp:120] Top shape: 80 256 28 28 (16056320)
I1216 21:14:21.442144 25246 net.cpp:120] Top shape: 80 256 28 28 (16056320)
I1216 21:14:21.442150 25246 layer_factory.hpp:74] Creating layer inception_3b/1x1
I1216 21:14:21.442160 25246 net.cpp:84] Creating Layer inception_3b/1x1
I1216 21:14:21.442167 25246 net.cpp:380] inception_3b/1x1 <- inception_3a/output_inception_3a/output_0_split_0
I1216 21:14:21.442175 25246 net.cpp:338] inception_3b/1x1 -> inception_3b/1x1
I1216 21:14:21.442185 25246 net.cpp:113] Setting up inception_3b/1x1
I1216 21:14:21.443472 25246 net.cpp:120] Top shape: 80 128 28 28 (8028160)
I1216 21:14:21.443493 25246 layer_factory.hpp:74] Creating layer inception_3b/relu_1x1
I1216 21:14:21.443502 25246 net.cpp:84] Creating Layer inception_3b/relu_1x1
I1216 21:14:21.443509 25246 net.cpp:380] inception_3b/relu_1x1 <- inception_3b/1x1
I1216 21:14:21.443518 25246 net.cpp:327] inception_3b/relu_1x1 -> inception_3b/1x1 (in-place)
I1216 21:14:21.443528 25246 net.cpp:113] Setting up inception_3b/relu_1x1
I1216 21:14:21.444142 25246 net.cpp:120] Top shape: 80 128 28 28 (8028160)
I1216 21:14:21.444157 25246 layer_factory.hpp:74] Creating layer inception_3b/3x3_reduce
I1216 21:14:21.444180 25246 net.cpp:84] Creating Layer inception_3b/3x3_reduce
I1216 21:14:21.444188 25246 net.cpp:380] inception_3b/3x3_reduce <- inception_3a/output_inception_3a/output_0_split_1
I1216 21:14:21.444198 25246 net.cpp:338] inception_3b/3x3_reduce -> inception_3b/3x3_reduce
I1216 21:14:21.444211 25246 net.cpp:113] Setting up inception_3b/3x3_reduce
I1216 21:14:21.445407 25246 net.cpp:120] Top shape: 80 128 28 28 (8028160)
I1216 21:14:21.445430 25246 layer_factory.hpp:74] Creating layer inception_3b/relu_3x3_reduce
I1216 21:14:21.445439 25246 net.cpp:84] Creating Layer inception_3b/relu_3x3_reduce
I1216 21:14:21.445446 25246 net.cpp:380] inception_3b/relu_3x3_reduce <- inception_3b/3x3_reduce
I1216 21:14:21.445457 25246 net.cpp:327] inception_3b/relu_3x3_reduce -> inception_3b/3x3_reduce (in-place)
I1216 21:14:21.445467 25246 net.cpp:113] Setting up inception_3b/relu_3x3_reduce
I1216 21:14:21.445551 25246 net.cpp:120] Top shape: 80 128 28 28 (8028160)
I1216 21:14:21.445562 25246 layer_factory.hpp:74] Creating layer inception_3b/3x3
I1216 21:14:21.445585 25246 net.cpp:84] Creating Layer inception_3b/3x3
I1216 21:14:21.445600 25246 net.cpp:380] inception_3b/3x3 <- inception_3b/3x3_reduce
I1216 21:14:21.445611 25246 net.cpp:338] inception_3b/3x3 -> inception_3b/3x3
I1216 21:14:21.445621 25246 net.cpp:113] Setting up inception_3b/3x3
I1216 21:14:21.450358 25246 net.cpp:120] Top shape: 80 192 28 28 (12042240)
I1216 21:14:21.450381 25246 layer_factory.hpp:74] Creating layer inception_3b/relu_3x3
I1216 21:14:21.450414 25246 net.cpp:84] Creating Layer inception_3b/relu_3x3
I1216 21:14:21.450423 25246 net.cpp:380] inception_3b/relu_3x3 <- inception_3b/3x3
I1216 21:14:21.450431 25246 net.cpp:327] inception_3b/relu_3x3 -> inception_3b/3x3 (in-place)
I1216 21:14:21.450441 25246 net.cpp:113] Setting up inception_3b/relu_3x3
I1216 21:14:21.450528 25246 net.cpp:120] Top shape: 80 192 28 28 (12042240)
I1216 21:14:21.450536 25246 layer_factory.hpp:74] Creating layer inception_3b/5x5_reduce
I1216 21:14:21.450548 25246 net.cpp:84] Creating Layer inception_3b/5x5_reduce
I1216 21:14:21.450554 25246 net.cpp:380] inception_3b/5x5_reduce <- inception_3a/output_inception_3a/output_0_split_2
I1216 21:14:21.450564 25246 net.cpp:338] inception_3b/5x5_reduce -> inception_3b/5x5_reduce
I1216 21:14:21.450574 25246 net.cpp:113] Setting up inception_3b/5x5_reduce
I1216 21:14:21.451452 25246 net.cpp:120] Top shape: 80 32 28 28 (2007040)
I1216 21:14:21.451472 25246 layer_factory.hpp:74] Creating layer inception_3b/relu_5x5_reduce
I1216 21:14:21.451480 25246 net.cpp:84] Creating Layer inception_3b/relu_5x5_reduce
I1216 21:14:21.451486 25246 net.cpp:380] inception_3b/relu_5x5_reduce <- inception_3b/5x5_reduce
I1216 21:14:21.451498 25246 net.cpp:327] inception_3b/relu_5x5_reduce -> inception_3b/5x5_reduce (in-place)
I1216 21:14:21.451506 25246 net.cpp:113] Setting up inception_3b/relu_5x5_reduce
I1216 21:14:21.451591 25246 net.cpp:120] Top shape: 80 32 28 28 (2007040)
I1216 21:14:21.451599 25246 layer_factory.hpp:74] Creating layer inception_3b/5x5
I1216 21:14:21.451622 25246 net.cpp:84] Creating Layer inception_3b/5x5
I1216 21:14:21.451628 25246 net.cpp:380] inception_3b/5x5 <- inception_3b/5x5_reduce
I1216 21:14:21.451637 25246 net.cpp:338] inception_3b/5x5 -> inception_3b/5x5
I1216 21:14:21.451653 25246 net.cpp:113] Setting up inception_3b/5x5
I1216 21:14:21.457329 25246 net.cpp:120] Top shape: 80 96 28 28 (6021120)
I1216 21:14:21.457361 25246 layer_factory.hpp:74] Creating layer inception_3b/relu_5x5
I1216 21:14:21.457378 25246 net.cpp:84] Creating Layer inception_3b/relu_5x5
I1216 21:14:21.457388 25246 net.cpp:380] inception_3b/relu_5x5 <- inception_3b/5x5
I1216 21:14:21.457401 25246 net.cpp:327] inception_3b/relu_5x5 -> inception_3b/5x5 (in-place)
I1216 21:14:21.457415 25246 net.cpp:113] Setting up inception_3b/relu_5x5
I1216 21:14:21.458070 25246 net.cpp:120] Top shape: 80 96 28 28 (6021120)
I1216 21:14:21.458091 25246 layer_factory.hpp:74] Creating layer inception_3b/pool
I1216 21:14:21.458101 25246 layer_factory.cpp:56] CUDNN does not support padding or multiple tops. Using Caffe's own pooling layer.
I1216 21:14:21.458115 25246 net.cpp:84] Creating Layer inception_3b/pool
I1216 21:14:21.458124 25246 net.cpp:380] inception_3b/pool <- inception_3a/output_inception_3a/output_0_split_3
I1216 21:14:21.458138 25246 net.cpp:338] inception_3b/pool -> inception_3b/pool
I1216 21:14:21.458153 25246 net.cpp:113] Setting up inception_3b/pool
I1216 21:14:21.458170 25246 net.cpp:120] Top shape: 80 256 28 28 (16056320)
I1216 21:14:21.458179 25246 layer_factory.hpp:74] Creating layer inception_3b/pool_proj
I1216 21:14:21.458195 25246 net.cpp:84] Creating Layer inception_3b/pool_proj
I1216 21:14:21.458204 25246 net.cpp:380] inception_3b/pool_proj <- inception_3b/pool
I1216 21:14:21.458220 25246 net.cpp:338] inception_3b/pool_proj -> inception_3b/pool_proj
I1216 21:14:21.458236 25246 net.cpp:113] Setting up inception_3b/pool_proj
I1216 21:14:21.459437 25246 net.cpp:120] Top shape: 80 64 28 28 (4014080)
I1216 21:14:21.459468 25246 layer_factory.hpp:74] Creating layer inception_3b/relu_pool_proj
I1216 21:14:21.459493 25246 net.cpp:84] Creating Layer inception_3b/relu_pool_proj
I1216 21:14:21.459517 25246 net.cpp:380] inception_3b/relu_pool_proj <- inception_3b/pool_proj
I1216 21:14:21.459530 25246 net.cpp:327] inception_3b/relu_pool_proj -> inception_3b/pool_proj (in-place)
I1216 21:14:21.459543 25246 net.cpp:113] Setting up inception_3b/relu_pool_proj
I1216 21:14:21.459664 25246 net.cpp:120] Top shape: 80 64 28 28 (4014080)
I1216 21:14:21.459678 25246 layer_factory.hpp:74] Creating layer inception_3b/output
I1216 21:14:21.459687 25246 net.cpp:84] Creating Layer inception_3b/output
I1216 21:14:21.459697 25246 net.cpp:380] inception_3b/output <- inception_3b/1x1
I1216 21:14:21.459708 25246 net.cpp:380] inception_3b/output <- inception_3b/3x3
I1216 21:14:21.459718 25246 net.cpp:380] inception_3b/output <- inception_3b/5x5
I1216 21:14:21.459728 25246 net.cpp:380] inception_3b/output <- inception_3b/pool_proj
I1216 21:14:21.459743 25246 net.cpp:338] inception_3b/output -> inception_3b/output
I1216 21:14:21.459756 25246 net.cpp:113] Setting up inception_3b/output
I1216 21:14:21.459771 25246 net.cpp:120] Top shape: 80 480 28 28 (30105600)
I1216 21:14:21.459780 25246 layer_factory.hpp:74] Creating layer pool3/3x3_s2
I1216 21:14:21.459795 25246 net.cpp:84] Creating Layer pool3/3x3_s2
I1216 21:14:21.459805 25246 net.cpp:380] pool3/3x3_s2 <- inception_3b/output
I1216 21:14:21.459817 25246 net.cpp:338] pool3/3x3_s2 -> pool3/3x3_s2
I1216 21:14:21.459830 25246 net.cpp:113] Setting up pool3/3x3_s2
I1216 21:14:21.459942 25246 net.cpp:120] Top shape: 80 480 14 14 (7526400)
I1216 21:14:21.459954 25246 layer_factory.hpp:74] Creating layer pool3/3x3_s2_pool3/3x3_s2_0_split
I1216 21:14:21.459966 25246 net.cpp:84] Creating Layer pool3/3x3_s2_pool3/3x3_s2_0_split
I1216 21:14:21.459975 25246 net.cpp:380] pool3/3x3_s2_pool3/3x3_s2_0_split <- pool3/3x3_s2
I1216 21:14:21.459990 25246 net.cpp:338] pool3/3x3_s2_pool3/3x3_s2_0_split -> pool3/3x3_s2_pool3/3x3_s2_0_split_0
I1216 21:14:21.460005 25246 net.cpp:338] pool3/3x3_s2_pool3/3x3_s2_0_split -> pool3/3x3_s2_pool3/3x3_s2_0_split_1
I1216 21:14:21.460019 25246 net.cpp:338] pool3/3x3_s2_pool3/3x3_s2_0_split -> pool3/3x3_s2_pool3/3x3_s2_0_split_2
I1216 21:14:21.460032 25246 net.cpp:338] pool3/3x3_s2_pool3/3x3_s2_0_split -> pool3/3x3_s2_pool3/3x3_s2_0_split_3
I1216 21:14:21.460043 25246 net.cpp:113] Setting up pool3/3x3_s2_pool3/3x3_s2_0_split
I1216 21:14:21.460058 25246 net.cpp:120] Top shape: 80 480 14 14 (7526400)
I1216 21:14:21.460068 25246 net.cpp:120] Top shape: 80 480 14 14 (7526400)
I1216 21:14:21.460078 25246 net.cpp:120] Top shape: 80 480 14 14 (7526400)
I1216 21:14:21.460088 25246 net.cpp:120] Top shape: 80 480 14 14 (7526400)
I1216 21:14:21.460093 25246 layer_factory.hpp:74] Creating layer inception_4a/1x1
I1216 21:14:21.460104 25246 net.cpp:84] Creating Layer inception_4a/1x1
I1216 21:14:21.460109 25246 net.cpp:380] inception_4a/1x1 <- pool3/3x3_s2_pool3/3x3_s2_0_split_0
I1216 21:14:21.460119 25246 net.cpp:338] inception_4a/1x1 -> inception_4a/1x1
I1216 21:14:21.460134 25246 net.cpp:113] Setting up inception_4a/1x1
I1216 21:14:21.462352 25246 net.cpp:120] Top shape: 80 192 14 14 (3010560)
I1216 21:14:21.462380 25246 layer_factory.hpp:74] Creating layer inception_4a/relu_1x1
I1216 21:14:21.462393 25246 net.cpp:84] Creating Layer inception_4a/relu_1x1
I1216 21:14:21.462404 25246 net.cpp:380] inception_4a/relu_1x1 <- inception_4a/1x1
I1216 21:14:21.462415 25246 net.cpp:327] inception_4a/relu_1x1 -> inception_4a/1x1 (in-place)
I1216 21:14:21.462429 25246 net.cpp:113] Setting up inception_4a/relu_1x1
I1216 21:14:21.463203 25246 net.cpp:120] Top shape: 80 192 14 14 (3010560)
I1216 21:14:21.463222 25246 layer_factory.hpp:74] Creating layer inception_4a/3x3_reduce
I1216 21:14:21.463240 25246 net.cpp:84] Creating Layer inception_4a/3x3_reduce
I1216 21:14:21.463250 25246 net.cpp:380] inception_4a/3x3_reduce <- pool3/3x3_s2_pool3/3x3_s2_0_split_1
I1216 21:14:21.463266 25246 net.cpp:338] inception_4a/3x3_reduce -> inception_4a/3x3_reduce
I1216 21:14:21.463282 25246 net.cpp:113] Setting up inception_4a/3x3_reduce
I1216 21:14:21.464977 25246 net.cpp:120] Top shape: 80 96 14 14 (1505280)
I1216 21:14:21.465023 25246 layer_factory.hpp:74] Creating layer inception_4a/relu_3x3_reduce
I1216 21:14:21.465039 25246 net.cpp:84] Creating Layer inception_4a/relu_3x3_reduce
I1216 21:14:21.465049 25246 net.cpp:380] inception_4a/relu_3x3_reduce <- inception_4a/3x3_reduce
I1216 21:14:21.465076 25246 net.cpp:327] inception_4a/relu_3x3_reduce -> inception_4a/3x3_reduce (in-place)
I1216 21:14:21.465092 25246 net.cpp:113] Setting up inception_4a/relu_3x3_reduce
I1216 21:14:21.465211 25246 net.cpp:120] Top shape: 80 96 14 14 (1505280)
I1216 21:14:21.465224 25246 layer_factory.hpp:74] Creating layer inception_4a/3x3
I1216 21:14:21.465242 25246 net.cpp:84] Creating Layer inception_4a/3x3
I1216 21:14:21.465253 25246 net.cpp:380] inception_4a/3x3 <- inception_4a/3x3_reduce
I1216 21:14:21.465270 25246 net.cpp:338] inception_4a/3x3 -> inception_4a/3x3
I1216 21:14:21.465286 25246 net.cpp:113] Setting up inception_4a/3x3
I1216 21:14:21.468869 25246 net.cpp:120] Top shape: 80 208 14 14 (3261440)
I1216 21:14:21.468889 25246 layer_factory.hpp:74] Creating layer inception_4a/relu_3x3
I1216 21:14:21.468906 25246 net.cpp:84] Creating Layer inception_4a/relu_3x3
I1216 21:14:21.468916 25246 net.cpp:380] inception_4a/relu_3x3 <- inception_4a/3x3
I1216 21:14:21.468929 25246 net.cpp:327] inception_4a/relu_3x3 -> inception_4a/3x3 (in-place)
I1216 21:14:21.468941 25246 net.cpp:113] Setting up inception_4a/relu_3x3
I1216 21:14:21.469049 25246 net.cpp:120] Top shape: 80 208 14 14 (3261440)
I1216 21:14:21.469090 25246 layer_factory.hpp:74] Creating layer inception_4a/5x5_reduce
I1216 21:14:21.469105 25246 net.cpp:84] Creating Layer inception_4a/5x5_reduce
I1216 21:14:21.469115 25246 net.cpp:380] inception_4a/5x5_reduce <- pool3/3x3_s2_pool3/3x3_s2_0_split_2
I1216 21:14:21.469130 25246 net.cpp:338] inception_4a/5x5_reduce -> inception_4a/5x5_reduce
I1216 21:14:21.469146 25246 net.cpp:113] Setting up inception_4a/5x5_reduce
I1216 21:14:21.469852 25246 net.cpp:120] Top shape: 80 16 14 14 (250880)
I1216 21:14:21.469876 25246 layer_factory.hpp:74] Creating layer inception_4a/relu_5x5_reduce
I1216 21:14:21.469887 25246 net.cpp:84] Creating Layer inception_4a/relu_5x5_reduce
I1216 21:14:21.469897 25246 net.cpp:380] inception_4a/relu_5x5_reduce <- inception_4a/5x5_reduce
I1216 21:14:21.469910 25246 net.cpp:327] inception_4a/relu_5x5_reduce -> inception_4a/5x5_reduce (in-place)
I1216 21:14:21.469923 25246 net.cpp:113] Setting up inception_4a/relu_5x5_reduce
I1216 21:14:21.470026 25246 net.cpp:120] Top shape: 80 16 14 14 (250880)
I1216 21:14:21.470041 25246 layer_factory.hpp:74] Creating layer inception_4a/5x5
I1216 21:14:21.470062 25246 net.cpp:84] Creating Layer inception_4a/5x5
I1216 21:14:21.470070 25246 net.cpp:380] inception_4a/5x5 <- inception_4a/5x5_reduce
I1216 21:14:21.470084 25246 net.cpp:338] inception_4a/5x5 -> inception_4a/5x5
I1216 21:14:21.470098 25246 net.cpp:113] Setting up inception_4a/5x5
I1216 21:14:21.471305 25246 net.cpp:120] Top shape: 80 48 14 14 (752640)
I1216 21:14:21.471324 25246 layer_factory.hpp:74] Creating layer inception_4a/relu_5x5
I1216 21:14:21.471336 25246 net.cpp:84] Creating Layer inception_4a/relu_5x5
I1216 21:14:21.471343 25246 net.cpp:380] inception_4a/relu_5x5 <- inception_4a/5x5
I1216 21:14:21.471352 25246 net.cpp:327] inception_4a/relu_5x5 -> inception_4a/5x5 (in-place)
I1216 21:14:21.471365 25246 net.cpp:113] Setting up inception_4a/relu_5x5
I1216 21:14:21.472121 25246 net.cpp:120] Top shape: 80 48 14 14 (752640)
I1216 21:14:21.472138 25246 layer_factory.hpp:74] Creating layer inception_4a/pool
I1216 21:14:21.472149 25246 layer_factory.cpp:56] CUDNN does not support padding or multiple tops. Using Caffe's own pooling layer.
I1216 21:14:21.472160 25246 net.cpp:84] Creating Layer inception_4a/pool
I1216 21:14:21.472169 25246 net.cpp:380] inception_4a/pool <- pool3/3x3_s2_pool3/3x3_s2_0_split_3
I1216 21:14:21.472184 25246 net.cpp:338] inception_4a/pool -> inception_4a/pool
I1216 21:14:21.472198 25246 net.cpp:113] Setting up inception_4a/pool
I1216 21:14:21.472220 25246 net.cpp:120] Top shape: 80 480 14 14 (7526400)
I1216 21:14:21.472239 25246 layer_factory.hpp:74] Creating layer inception_4a/pool_proj
I1216 21:14:21.472252 25246 net.cpp:84] Creating Layer inception_4a/pool_proj
I1216 21:14:21.472260 25246 net.cpp:380] inception_4a/pool_proj <- inception_4a/pool
I1216 21:14:21.472275 25246 net.cpp:338] inception_4a/pool_proj -> inception_4a/pool_proj
I1216 21:14:21.472287 25246 net.cpp:113] Setting up inception_4a/pool_proj
I1216 21:14:21.473779 25246 net.cpp:120] Top shape: 80 64 14 14 (1003520)
I1216 21:14:21.473803 25246 layer_factory.hpp:74] Creating layer inception_4a/relu_pool_proj
I1216 21:14:21.473819 25246 net.cpp:84] Creating Layer inception_4a/relu_pool_proj
I1216 21:14:21.473829 25246 net.cpp:380] inception_4a/relu_pool_proj <- inception_4a/pool_proj
I1216 21:14:21.473840 25246 net.cpp:327] inception_4a/relu_pool_proj -> inception_4a/pool_proj (in-place)
I1216 21:14:21.473855 25246 net.cpp:113] Setting up inception_4a/relu_pool_proj
I1216 21:14:21.473956 25246 net.cpp:120] Top shape: 80 64 14 14 (1003520)
I1216 21:14:21.473965 25246 layer_factory.hpp:74] Creating layer inception_4a/output
I1216 21:14:21.473974 25246 net.cpp:84] Creating Layer inception_4a/output
I1216 21:14:21.473983 25246 net.cpp:380] inception_4a/output <- inception_4a/1x1
I1216 21:14:21.473992 25246 net.cpp:380] inception_4a/output <- inception_4a/3x3
I1216 21:14:21.474001 25246 net.cpp:380] inception_4a/output <- inception_4a/5x5
I1216 21:14:21.474010 25246 net.cpp:380] inception_4a/output <- inception_4a/pool_proj
I1216 21:14:21.474022 25246 net.cpp:338] inception_4a/output -> inception_4a/output
I1216 21:14:21.474035 25246 net.cpp:113] Setting up inception_4a/output
I1216 21:14:21.474051 25246 net.cpp:120] Top shape: 80 512 14 14 (8028160)
I1216 21:14:21.474061 25246 layer_factory.hpp:74] Creating layer inception_4a/output_inception_4a/output_0_split
I1216 21:14:21.474072 25246 net.cpp:84] Creating Layer inception_4a/output_inception_4a/output_0_split
I1216 21:14:21.474081 25246 net.cpp:380] inception_4a/output_inception_4a/output_0_split <- inception_4a/output
I1216 21:14:21.474095 25246 net.cpp:338] inception_4a/output_inception_4a/output_0_split -> inception_4a/output_inception_4a/output_0_split_0
I1216 21:14:21.474109 25246 net.cpp:338] inception_4a/output_inception_4a/output_0_split -> inception_4a/output_inception_4a/output_0_split_1
I1216 21:14:21.474122 25246 net.cpp:338] inception_4a/output_inception_4a/output_0_split -> inception_4a/output_inception_4a/output_0_split_2
I1216 21:14:21.474133 25246 net.cpp:338] inception_4a/output_inception_4a/output_0_split -> inception_4a/output_inception_4a/output_0_split_3
I1216 21:14:21.474144 25246 net.cpp:338] inception_4a/output_inception_4a/output_0_split -> inception_4a/output_inception_4a/output_0_split_4
I1216 21:14:21.474155 25246 net.cpp:113] Setting up inception_4a/output_inception_4a/output_0_split
I1216 21:14:21.474169 25246 net.cpp:120] Top shape: 80 512 14 14 (8028160)
I1216 21:14:21.474179 25246 net.cpp:120] Top shape: 80 512 14 14 (8028160)
I1216 21:14:21.474189 25246 net.cpp:120] Top shape: 80 512 14 14 (8028160)
I1216 21:14:21.474197 25246 net.cpp:120] Top shape: 80 512 14 14 (8028160)
I1216 21:14:21.474206 25246 net.cpp:120] Top shape: 80 512 14 14 (8028160)
I1216 21:14:21.474215 25246 layer_factory.hpp:74] Creating layer loss1/ave_pool
I1216 21:14:21.474228 25246 net.cpp:84] Creating Layer loss1/ave_pool
I1216 21:14:21.474237 25246 net.cpp:380] loss1/ave_pool <- inception_4a/output_inception_4a/output_0_split_0
I1216 21:14:21.474248 25246 net.cpp:338] loss1/ave_pool -> loss1/ave_pool
I1216 21:14:21.474261 25246 net.cpp:113] Setting up loss1/ave_pool
I1216 21:14:21.474359 25246 net.cpp:120] Top shape: 80 512 4 4 (655360)
I1216 21:14:21.474370 25246 layer_factory.hpp:74] Creating layer loss1/conv
I1216 21:14:21.474378 25246 net.cpp:84] Creating Layer loss1/conv
I1216 21:14:21.474390 25246 net.cpp:380] loss1/conv <- loss1/ave_pool
I1216 21:14:21.474401 25246 net.cpp:338] loss1/conv -> loss1/conv
I1216 21:14:21.474421 25246 net.cpp:113] Setting up loss1/conv
I1216 21:14:21.476444 25246 net.cpp:120] Top shape: 80 128 4 4 (163840)
I1216 21:14:21.476469 25246 layer_factory.hpp:74] Creating layer loss1/relu_conv
I1216 21:14:21.476483 25246 net.cpp:84] Creating Layer loss1/relu_conv
I1216 21:14:21.476492 25246 net.cpp:380] loss1/relu_conv <- loss1/conv
I1216 21:14:21.476503 25246 net.cpp:327] loss1/relu_conv -> loss1/conv (in-place)
I1216 21:14:21.476516 25246 net.cpp:113] Setting up loss1/relu_conv
I1216 21:14:21.476624 25246 net.cpp:120] Top shape: 80 128 4 4 (163840)
I1216 21:14:21.476635 25246 layer_factory.hpp:74] Creating layer loss1/fc
I1216 21:14:21.476647 25246 net.cpp:84] Creating Layer loss1/fc
I1216 21:14:21.476652 25246 net.cpp:380] loss1/fc <- loss1/conv
I1216 21:14:21.476661 25246 net.cpp:338] loss1/fc -> loss1/fc
I1216 21:14:21.476675 25246 net.cpp:113] Setting up loss1/fc
I1216 21:14:21.604204 25246 net.cpp:120] Top shape: 80 1024 (81920)
I1216 21:14:21.604243 25246 layer_factory.hpp:74] Creating layer loss1/relu_fc
I1216 21:14:21.604257 25246 net.cpp:84] Creating Layer loss1/relu_fc
I1216 21:14:21.604264 25246 net.cpp:380] loss1/relu_fc <- loss1/fc
I1216 21:14:21.604275 25246 net.cpp:327] loss1/relu_fc -> loss1/fc (in-place)
I1216 21:14:21.604286 25246 net.cpp:113] Setting up loss1/relu_fc
I1216 21:14:21.605161 25246 net.cpp:120] Top shape: 80 1024 (81920)
I1216 21:14:21.605193 25246 layer_factory.hpp:74] Creating layer loss1/drop_fc
I1216 21:14:21.605237 25246 net.cpp:84] Creating Layer loss1/drop_fc
I1216 21:14:21.605248 25246 net.cpp:380] loss1/drop_fc <- loss1/fc
I1216 21:14:21.605260 25246 net.cpp:327] loss1/drop_fc -> loss1/fc (in-place)
I1216 21:14:21.605275 25246 net.cpp:113] Setting up loss1/drop_fc
I1216 21:14:21.605293 25246 net.cpp:120] Top shape: 80 1024 (81920)
I1216 21:14:21.605301 25246 layer_factory.hpp:74] Creating layer loss1/classifier_kaggle
I1216 21:14:21.605335 25246 net.cpp:84] Creating Layer loss1/classifier_kaggle
I1216 21:14:21.605345 25246 net.cpp:380] loss1/classifier_kaggle <- loss1/fc
I1216 21:14:21.605360 25246 net.cpp:338] loss1/classifier_kaggle -> loss1/classifier_kaggle
I1216 21:14:21.605377 25246 net.cpp:113] Setting up loss1/classifier_kaggle
I1216 21:14:21.610950 25246 net.cpp:120] Top shape: 80 447 (35760)
I1216 21:14:21.610975 25246 layer_factory.hpp:74] Creating layer loss1/loss
I1216 21:14:21.610991 25246 net.cpp:84] Creating Layer loss1/loss
I1216 21:14:21.610998 25246 net.cpp:380] loss1/loss <- loss1/classifier_kaggle
I1216 21:14:21.611009 25246 net.cpp:380] loss1/loss <- label_data_1_split_0
I1216 21:14:21.611023 25246 net.cpp:338] loss1/loss -> loss1/loss1
I1216 21:14:21.611034 25246 net.cpp:113] Setting up loss1/loss
I1216 21:14:21.611047 25246 layer_factory.hpp:74] Creating layer loss1/loss
I1216 21:14:21.611296 25246 net.cpp:120] Top shape: (1)
I1216 21:14:21.611310 25246 net.cpp:122]     with loss weight 0.3
I1216 21:14:21.611335 25246 layer_factory.hpp:74] Creating layer inception_4b/1x1
I1216 21:14:21.611366 25246 net.cpp:84] Creating Layer inception_4b/1x1
I1216 21:14:21.611377 25246 net.cpp:380] inception_4b/1x1 <- inception_4a/output_inception_4a/output_0_split_1
I1216 21:14:21.611390 25246 net.cpp:338] inception_4b/1x1 -> inception_4b/1x1
I1216 21:14:21.611404 25246 net.cpp:113] Setting up inception_4b/1x1
I1216 21:14:21.613333 25246 net.cpp:120] Top shape: 80 160 14 14 (2508800)
I1216 21:14:21.613364 25246 layer_factory.hpp:74] Creating layer inception_4b/relu_1x1
I1216 21:14:21.613379 25246 net.cpp:84] Creating Layer inception_4b/relu_1x1
I1216 21:14:21.613387 25246 net.cpp:380] inception_4b/relu_1x1 <- inception_4b/1x1
I1216 21:14:21.613401 25246 net.cpp:327] inception_4b/relu_1x1 -> inception_4b/1x1 (in-place)
I1216 21:14:21.613414 25246 net.cpp:113] Setting up inception_4b/relu_1x1
I1216 21:14:21.613517 25246 net.cpp:120] Top shape: 80 160 14 14 (2508800)
I1216 21:14:21.613528 25246 layer_factory.hpp:74] Creating layer inception_4b/3x3_reduce
I1216 21:14:21.613551 25246 net.cpp:84] Creating Layer inception_4b/3x3_reduce
I1216 21:14:21.613572 25246 net.cpp:380] inception_4b/3x3_reduce <- inception_4a/output_inception_4a/output_0_split_2
I1216 21:14:21.613605 25246 net.cpp:338] inception_4b/3x3_reduce -> inception_4b/3x3_reduce
I1216 21:14:21.613621 25246 net.cpp:113] Setting up inception_4b/3x3_reduce
I1216 21:14:21.615121 25246 net.cpp:120] Top shape: 80 112 14 14 (1756160)
I1216 21:14:21.615144 25246 layer_factory.hpp:74] Creating layer inception_4b/relu_3x3_reduce
I1216 21:14:21.615155 25246 net.cpp:84] Creating Layer inception_4b/relu_3x3_reduce
I1216 21:14:21.615164 25246 net.cpp:380] inception_4b/relu_3x3_reduce <- inception_4b/3x3_reduce
I1216 21:14:21.615175 25246 net.cpp:327] inception_4b/relu_3x3_reduce -> inception_4b/3x3_reduce (in-place)
I1216 21:14:21.615186 25246 net.cpp:113] Setting up inception_4b/relu_3x3_reduce
I1216 21:14:21.615284 25246 net.cpp:120] Top shape: 80 112 14 14 (1756160)
I1216 21:14:21.615295 25246 layer_factory.hpp:74] Creating layer inception_4b/3x3
I1216 21:14:21.615308 25246 net.cpp:84] Creating Layer inception_4b/3x3
I1216 21:14:21.615315 25246 net.cpp:380] inception_4b/3x3 <- inception_4b/3x3_reduce
I1216 21:14:21.615329 25246 net.cpp:338] inception_4b/3x3 -> inception_4b/3x3
I1216 21:14:21.615344 25246 net.cpp:113] Setting up inception_4b/3x3
I1216 21:14:21.618988 25246 net.cpp:120] Top shape: 80 224 14 14 (3512320)
I1216 21:14:21.619016 25246 layer_factory.hpp:74] Creating layer inception_4b/relu_3x3
I1216 21:14:21.619035 25246 net.cpp:84] Creating Layer inception_4b/relu_3x3
I1216 21:14:21.619043 25246 net.cpp:380] inception_4b/relu_3x3 <- inception_4b/3x3
I1216 21:14:21.619056 25246 net.cpp:327] inception_4b/relu_3x3 -> inception_4b/3x3 (in-place)
I1216 21:14:21.619070 25246 net.cpp:113] Setting up inception_4b/relu_3x3
I1216 21:14:21.619735 25246 net.cpp:120] Top shape: 80 224 14 14 (3512320)
I1216 21:14:21.619751 25246 layer_factory.hpp:74] Creating layer inception_4b/5x5_reduce
I1216 21:14:21.619766 25246 net.cpp:84] Creating Layer inception_4b/5x5_reduce
I1216 21:14:21.619776 25246 net.cpp:380] inception_4b/5x5_reduce <- inception_4a/output_inception_4a/output_0_split_3
I1216 21:14:21.619786 25246 net.cpp:338] inception_4b/5x5_reduce -> inception_4b/5x5_reduce
I1216 21:14:21.619801 25246 net.cpp:113] Setting up inception_4b/5x5_reduce
I1216 21:14:21.620846 25246 net.cpp:120] Top shape: 80 24 14 14 (376320)
I1216 21:14:21.620868 25246 layer_factory.hpp:74] Creating layer inception_4b/relu_5x5_reduce
I1216 21:14:21.620880 25246 net.cpp:84] Creating Layer inception_4b/relu_5x5_reduce
I1216 21:14:21.620888 25246 net.cpp:380] inception_4b/relu_5x5_reduce <- inception_4b/5x5_reduce
I1216 21:14:21.620899 25246 net.cpp:327] inception_4b/relu_5x5_reduce -> inception_4b/5x5_reduce (in-place)
I1216 21:14:21.620911 25246 net.cpp:113] Setting up inception_4b/relu_5x5_reduce
I1216 21:14:21.621016 25246 net.cpp:120] Top shape: 80 24 14 14 (376320)
I1216 21:14:21.621031 25246 layer_factory.hpp:74] Creating layer inception_4b/5x5
I1216 21:14:21.621063 25246 net.cpp:84] Creating Layer inception_4b/5x5
I1216 21:14:21.621078 25246 net.cpp:380] inception_4b/5x5 <- inception_4b/5x5_reduce
I1216 21:14:21.621091 25246 net.cpp:338] inception_4b/5x5 -> inception_4b/5x5
I1216 21:14:21.621104 25246 net.cpp:113] Setting up inception_4b/5x5
I1216 21:14:21.622536 25246 net.cpp:120] Top shape: 80 64 14 14 (1003520)
I1216 21:14:21.622557 25246 layer_factory.hpp:74] Creating layer inception_4b/relu_5x5
I1216 21:14:21.622570 25246 net.cpp:84] Creating Layer inception_4b/relu_5x5
I1216 21:14:21.622575 25246 net.cpp:380] inception_4b/relu_5x5 <- inception_4b/5x5
I1216 21:14:21.622581 25246 net.cpp:327] inception_4b/relu_5x5 -> inception_4b/5x5 (in-place)
I1216 21:14:21.622589 25246 net.cpp:113] Setting up inception_4b/relu_5x5
I1216 21:14:21.622686 25246 net.cpp:120] Top shape: 80 64 14 14 (1003520)
I1216 21:14:21.622705 25246 layer_factory.hpp:74] Creating layer inception_4b/pool
I1216 21:14:21.622715 25246 layer_factory.cpp:56] CUDNN does not support padding or multiple tops. Using Caffe's own pooling layer.
I1216 21:14:21.622726 25246 net.cpp:84] Creating Layer inception_4b/pool
I1216 21:14:21.622758 25246 net.cpp:380] inception_4b/pool <- inception_4a/output_inception_4a/output_0_split_4
I1216 21:14:21.622774 25246 net.cpp:338] inception_4b/pool -> inception_4b/pool
I1216 21:14:21.622803 25246 net.cpp:113] Setting up inception_4b/pool
I1216 21:14:21.622822 25246 net.cpp:120] Top shape: 80 512 14 14 (8028160)
I1216 21:14:21.622830 25246 layer_factory.hpp:74] Creating layer inception_4b/pool_proj
I1216 21:14:21.622841 25246 net.cpp:84] Creating Layer inception_4b/pool_proj
I1216 21:14:21.622849 25246 net.cpp:380] inception_4b/pool_proj <- inception_4b/pool
I1216 21:14:21.622866 25246 net.cpp:338] inception_4b/pool_proj -> inception_4b/pool_proj
I1216 21:14:21.622879 25246 net.cpp:113] Setting up inception_4b/pool_proj
I1216 21:14:21.624171 25246 net.cpp:120] Top shape: 80 64 14 14 (1003520)
I1216 21:14:21.624191 25246 layer_factory.hpp:74] Creating layer inception_4b/relu_pool_proj
I1216 21:14:21.624210 25246 net.cpp:84] Creating Layer inception_4b/relu_pool_proj
I1216 21:14:21.624219 25246 net.cpp:380] inception_4b/relu_pool_proj <- inception_4b/pool_proj
I1216 21:14:21.624230 25246 net.cpp:327] inception_4b/relu_pool_proj -> inception_4b/pool_proj (in-place)
I1216 21:14:21.624243 25246 net.cpp:113] Setting up inception_4b/relu_pool_proj
I1216 21:14:21.624832 25246 net.cpp:120] Top shape: 80 64 14 14 (1003520)
I1216 21:14:21.624845 25246 layer_factory.hpp:74] Creating layer inception_4b/output
I1216 21:14:21.624851 25246 net.cpp:84] Creating Layer inception_4b/output
I1216 21:14:21.624856 25246 net.cpp:380] inception_4b/output <- inception_4b/1x1
I1216 21:14:21.624863 25246 net.cpp:380] inception_4b/output <- inception_4b/3x3
I1216 21:14:21.624868 25246 net.cpp:380] inception_4b/output <- inception_4b/5x5
I1216 21:14:21.624873 25246 net.cpp:380] inception_4b/output <- inception_4b/pool_proj
I1216 21:14:21.624878 25246 net.cpp:338] inception_4b/output -> inception_4b/output
I1216 21:14:21.624886 25246 net.cpp:113] Setting up inception_4b/output
I1216 21:14:21.624896 25246 net.cpp:120] Top shape: 80 512 14 14 (8028160)
I1216 21:14:21.624905 25246 layer_factory.hpp:74] Creating layer inception_4b/output_inception_4b/output_0_split
I1216 21:14:21.624917 25246 net.cpp:84] Creating Layer inception_4b/output_inception_4b/output_0_split
I1216 21:14:21.624922 25246 net.cpp:380] inception_4b/output_inception_4b/output_0_split <- inception_4b/output
I1216 21:14:21.624927 25246 net.cpp:338] inception_4b/output_inception_4b/output_0_split -> inception_4b/output_inception_4b/output_0_split_0
I1216 21:14:21.624934 25246 net.cpp:338] inception_4b/output_inception_4b/output_0_split -> inception_4b/output_inception_4b/output_0_split_1
I1216 21:14:21.624941 25246 net.cpp:338] inception_4b/output_inception_4b/output_0_split -> inception_4b/output_inception_4b/output_0_split_2
I1216 21:14:21.624949 25246 net.cpp:338] inception_4b/output_inception_4b/output_0_split -> inception_4b/output_inception_4b/output_0_split_3
I1216 21:14:21.624955 25246 net.cpp:113] Setting up inception_4b/output_inception_4b/output_0_split
I1216 21:14:21.624963 25246 net.cpp:120] Top shape: 80 512 14 14 (8028160)
I1216 21:14:21.624968 25246 net.cpp:120] Top shape: 80 512 14 14 (8028160)
I1216 21:14:21.624972 25246 net.cpp:120] Top shape: 80 512 14 14 (8028160)
I1216 21:14:21.624977 25246 net.cpp:120] Top shape: 80 512 14 14 (8028160)
I1216 21:14:21.624981 25246 layer_factory.hpp:74] Creating layer inception_4c/1x1
I1216 21:14:21.624987 25246 net.cpp:84] Creating Layer inception_4c/1x1
I1216 21:14:21.624992 25246 net.cpp:380] inception_4c/1x1 <- inception_4b/output_inception_4b/output_0_split_0
I1216 21:14:21.625000 25246 net.cpp:338] inception_4c/1x1 -> inception_4c/1x1
I1216 21:14:21.625006 25246 net.cpp:113] Setting up inception_4c/1x1
I1216 21:14:21.626559 25246 net.cpp:120] Top shape: 80 128 14 14 (2007040)
I1216 21:14:21.626581 25246 layer_factory.hpp:74] Creating layer inception_4c/relu_1x1
I1216 21:14:21.626601 25246 net.cpp:84] Creating Layer inception_4c/relu_1x1
I1216 21:14:21.626611 25246 net.cpp:380] inception_4c/relu_1x1 <- inception_4c/1x1
I1216 21:14:21.626636 25246 net.cpp:327] inception_4c/relu_1x1 -> inception_4c/1x1 (in-place)
I1216 21:14:21.626648 25246 net.cpp:113] Setting up inception_4c/relu_1x1
I1216 21:14:21.626752 25246 net.cpp:120] Top shape: 80 128 14 14 (2007040)
I1216 21:14:21.626765 25246 layer_factory.hpp:74] Creating layer inception_4c/3x3_reduce
I1216 21:14:21.626775 25246 net.cpp:84] Creating Layer inception_4c/3x3_reduce
I1216 21:14:21.626785 25246 net.cpp:380] inception_4c/3x3_reduce <- inception_4b/output_inception_4b/output_0_split_1
I1216 21:14:21.626797 25246 net.cpp:338] inception_4c/3x3_reduce -> inception_4c/3x3_reduce
I1216 21:14:21.626811 25246 net.cpp:113] Setting up inception_4c/3x3_reduce
I1216 21:14:21.628378 25246 net.cpp:120] Top shape: 80 128 14 14 (2007040)
I1216 21:14:21.628394 25246 layer_factory.hpp:74] Creating layer inception_4c/relu_3x3_reduce
I1216 21:14:21.628413 25246 net.cpp:84] Creating Layer inception_4c/relu_3x3_reduce
I1216 21:14:21.628423 25246 net.cpp:380] inception_4c/relu_3x3_reduce <- inception_4c/3x3_reduce
I1216 21:14:21.628433 25246 net.cpp:327] inception_4c/relu_3x3_reduce -> inception_4c/3x3_reduce (in-place)
I1216 21:14:21.628445 25246 net.cpp:113] Setting up inception_4c/relu_3x3_reduce
I1216 21:14:21.628543 25246 net.cpp:120] Top shape: 80 128 14 14 (2007040)
I1216 21:14:21.628554 25246 layer_factory.hpp:74] Creating layer inception_4c/3x3
I1216 21:14:21.628566 25246 net.cpp:84] Creating Layer inception_4c/3x3
I1216 21:14:21.628574 25246 net.cpp:380] inception_4c/3x3 <- inception_4c/3x3_reduce
I1216 21:14:21.628589 25246 net.cpp:338] inception_4c/3x3 -> inception_4c/3x3
I1216 21:14:21.628602 25246 net.cpp:113] Setting up inception_4c/3x3
I1216 21:14:21.632619 25246 net.cpp:120] Top shape: 80 256 14 14 (4014080)
I1216 21:14:21.632652 25246 layer_factory.hpp:74] Creating layer inception_4c/relu_3x3
I1216 21:14:21.632668 25246 net.cpp:84] Creating Layer inception_4c/relu_3x3
I1216 21:14:21.632673 25246 net.cpp:380] inception_4c/relu_3x3 <- inception_4c/3x3
I1216 21:14:21.632679 25246 net.cpp:327] inception_4c/relu_3x3 -> inception_4c/3x3 (in-place)
I1216 21:14:21.632688 25246 net.cpp:113] Setting up inception_4c/relu_3x3
I1216 21:14:21.632752 25246 net.cpp:120] Top shape: 80 256 14 14 (4014080)
I1216 21:14:21.632760 25246 layer_factory.hpp:74] Creating layer inception_4c/5x5_reduce
I1216 21:14:21.632767 25246 net.cpp:84] Creating Layer inception_4c/5x5_reduce
I1216 21:14:21.632776 25246 net.cpp:380] inception_4c/5x5_reduce <- inception_4b/output_inception_4b/output_0_split_2
I1216 21:14:21.632782 25246 net.cpp:338] inception_4c/5x5_reduce -> inception_4c/5x5_reduce
I1216 21:14:21.632791 25246 net.cpp:113] Setting up inception_4c/5x5_reduce
I1216 21:14:21.633561 25246 net.cpp:120] Top shape: 80 24 14 14 (376320)
I1216 21:14:21.633577 25246 layer_factory.hpp:74] Creating layer inception_4c/relu_5x5_reduce
I1216 21:14:21.633585 25246 net.cpp:84] Creating Layer inception_4c/relu_5x5_reduce
I1216 21:14:21.633591 25246 net.cpp:380] inception_4c/relu_5x5_reduce <- inception_4c/5x5_reduce
I1216 21:14:21.633597 25246 net.cpp:327] inception_4c/relu_5x5_reduce -> inception_4c/5x5_reduce (in-place)
I1216 21:14:21.633605 25246 net.cpp:113] Setting up inception_4c/relu_5x5_reduce
I1216 21:14:21.634116 25246 net.cpp:120] Top shape: 80 24 14 14 (376320)
I1216 21:14:21.634135 25246 layer_factory.hpp:74] Creating layer inception_4c/5x5
I1216 21:14:21.634150 25246 net.cpp:84] Creating Layer inception_4c/5x5
I1216 21:14:21.634155 25246 net.cpp:380] inception_4c/5x5 <- inception_4c/5x5_reduce
I1216 21:14:21.634161 25246 net.cpp:338] inception_4c/5x5 -> inception_4c/5x5
I1216 21:14:21.634171 25246 net.cpp:113] Setting up inception_4c/5x5
I1216 21:14:21.635176 25246 net.cpp:120] Top shape: 80 64 14 14 (1003520)
I1216 21:14:21.635191 25246 layer_factory.hpp:74] Creating layer inception_4c/relu_5x5
I1216 21:14:21.635197 25246 net.cpp:84] Creating Layer inception_4c/relu_5x5
I1216 21:14:21.635203 25246 net.cpp:380] inception_4c/relu_5x5 <- inception_4c/5x5
I1216 21:14:21.635216 25246 net.cpp:327] inception_4c/relu_5x5 -> inception_4c/5x5 (in-place)
I1216 21:14:21.635231 25246 net.cpp:113] Setting up inception_4c/relu_5x5
I1216 21:14:21.635299 25246 net.cpp:120] Top shape: 80 64 14 14 (1003520)
I1216 21:14:21.635305 25246 layer_factory.hpp:74] Creating layer inception_4c/pool
I1216 21:14:21.635310 25246 layer_factory.cpp:56] CUDNN does not support padding or multiple tops. Using Caffe's own pooling layer.
I1216 21:14:21.635316 25246 net.cpp:84] Creating Layer inception_4c/pool
I1216 21:14:21.635321 25246 net.cpp:380] inception_4c/pool <- inception_4b/output_inception_4b/output_0_split_3
I1216 21:14:21.635329 25246 net.cpp:338] inception_4c/pool -> inception_4c/pool
I1216 21:14:21.635335 25246 net.cpp:113] Setting up inception_4c/pool
I1216 21:14:21.635344 25246 net.cpp:120] Top shape: 80 512 14 14 (8028160)
I1216 21:14:21.635347 25246 layer_factory.hpp:74] Creating layer inception_4c/pool_proj
I1216 21:14:21.635361 25246 net.cpp:84] Creating Layer inception_4c/pool_proj
I1216 21:14:21.635366 25246 net.cpp:380] inception_4c/pool_proj <- inception_4c/pool
I1216 21:14:21.635375 25246 net.cpp:338] inception_4c/pool_proj -> inception_4c/pool_proj
I1216 21:14:21.635382 25246 net.cpp:113] Setting up inception_4c/pool_proj
I1216 21:14:21.636389 25246 net.cpp:120] Top shape: 80 64 14 14 (1003520)
I1216 21:14:21.636404 25246 layer_factory.hpp:74] Creating layer inception_4c/relu_pool_proj
I1216 21:14:21.636418 25246 net.cpp:84] Creating Layer inception_4c/relu_pool_proj
I1216 21:14:21.636425 25246 net.cpp:380] inception_4c/relu_pool_proj <- inception_4c/pool_proj
I1216 21:14:21.636430 25246 net.cpp:327] inception_4c/relu_pool_proj -> inception_4c/pool_proj (in-place)
I1216 21:14:21.636438 25246 net.cpp:113] Setting up inception_4c/relu_pool_proj
I1216 21:14:21.636502 25246 net.cpp:120] Top shape: 80 64 14 14 (1003520)
I1216 21:14:21.636508 25246 layer_factory.hpp:74] Creating layer inception_4c/output
I1216 21:14:21.636515 25246 net.cpp:84] Creating Layer inception_4c/output
I1216 21:14:21.636520 25246 net.cpp:380] inception_4c/output <- inception_4c/1x1
I1216 21:14:21.636526 25246 net.cpp:380] inception_4c/output <- inception_4c/3x3
I1216 21:14:21.636531 25246 net.cpp:380] inception_4c/output <- inception_4c/5x5
I1216 21:14:21.636536 25246 net.cpp:380] inception_4c/output <- inception_4c/pool_proj
I1216 21:14:21.636541 25246 net.cpp:338] inception_4c/output -> inception_4c/output
I1216 21:14:21.636548 25246 net.cpp:113] Setting up inception_4c/output
I1216 21:14:21.636555 25246 net.cpp:120] Top shape: 80 512 14 14 (8028160)
I1216 21:14:21.636559 25246 layer_factory.hpp:74] Creating layer inception_4c/output_inception_4c/output_0_split
I1216 21:14:21.636569 25246 net.cpp:84] Creating Layer inception_4c/output_inception_4c/output_0_split
I1216 21:14:21.636574 25246 net.cpp:380] inception_4c/output_inception_4c/output_0_split <- inception_4c/output
I1216 21:14:21.636580 25246 net.cpp:338] inception_4c/output_inception_4c/output_0_split -> inception_4c/output_inception_4c/output_0_split_0
I1216 21:14:21.636586 25246 net.cpp:338] inception_4c/output_inception_4c/output_0_split -> inception_4c/output_inception_4c/output_0_split_1
I1216 21:14:21.636593 25246 net.cpp:338] inception_4c/output_inception_4c/output_0_split -> inception_4c/output_inception_4c/output_0_split_2
I1216 21:14:21.636600 25246 net.cpp:338] inception_4c/output_inception_4c/output_0_split -> inception_4c/output_inception_4c/output_0_split_3
I1216 21:14:21.636605 25246 net.cpp:113] Setting up inception_4c/output_inception_4c/output_0_split
I1216 21:14:21.636612 25246 net.cpp:120] Top shape: 80 512 14 14 (8028160)
I1216 21:14:21.636617 25246 net.cpp:120] Top shape: 80 512 14 14 (8028160)
I1216 21:14:21.636622 25246 net.cpp:120] Top shape: 80 512 14 14 (8028160)
I1216 21:14:21.636627 25246 net.cpp:120] Top shape: 80 512 14 14 (8028160)
I1216 21:14:21.636631 25246 layer_factory.hpp:74] Creating layer inception_4d/1x1
I1216 21:14:21.636639 25246 net.cpp:84] Creating Layer inception_4d/1x1
I1216 21:14:21.636643 25246 net.cpp:380] inception_4d/1x1 <- inception_4c/output_inception_4c/output_0_split_0
I1216 21:14:21.636662 25246 net.cpp:338] inception_4d/1x1 -> inception_4d/1x1
I1216 21:14:21.636669 25246 net.cpp:113] Setting up inception_4d/1x1
I1216 21:14:21.638031 25246 net.cpp:120] Top shape: 80 112 14 14 (1756160)
I1216 21:14:21.638048 25246 layer_factory.hpp:74] Creating layer inception_4d/relu_1x1
I1216 21:14:21.638064 25246 net.cpp:84] Creating Layer inception_4d/relu_1x1
I1216 21:14:21.638070 25246 net.cpp:380] inception_4d/relu_1x1 <- inception_4d/1x1
I1216 21:14:21.638077 25246 net.cpp:327] inception_4d/relu_1x1 -> inception_4d/1x1 (in-place)
I1216 21:14:21.638084 25246 net.cpp:113] Setting up inception_4d/relu_1x1
I1216 21:14:21.638149 25246 net.cpp:120] Top shape: 80 112 14 14 (1756160)
I1216 21:14:21.638159 25246 layer_factory.hpp:74] Creating layer inception_4d/3x3_reduce
I1216 21:14:21.638170 25246 net.cpp:84] Creating Layer inception_4d/3x3_reduce
I1216 21:14:21.638175 25246 net.cpp:380] inception_4d/3x3_reduce <- inception_4c/output_inception_4c/output_0_split_1
I1216 21:14:21.638182 25246 net.cpp:338] inception_4d/3x3_reduce -> inception_4d/3x3_reduce
I1216 21:14:21.638190 25246 net.cpp:113] Setting up inception_4d/3x3_reduce
I1216 21:14:21.639745 25246 net.cpp:120] Top shape: 80 144 14 14 (2257920)
I1216 21:14:21.639761 25246 layer_factory.hpp:74] Creating layer inception_4d/relu_3x3_reduce
I1216 21:14:21.639770 25246 net.cpp:84] Creating Layer inception_4d/relu_3x3_reduce
I1216 21:14:21.639775 25246 net.cpp:380] inception_4d/relu_3x3_reduce <- inception_4d/3x3_reduce
I1216 21:14:21.639782 25246 net.cpp:327] inception_4d/relu_3x3_reduce -> inception_4d/3x3_reduce (in-place)
I1216 21:14:21.639789 25246 net.cpp:113] Setting up inception_4d/relu_3x3_reduce
I1216 21:14:21.640383 25246 net.cpp:120] Top shape: 80 144 14 14 (2257920)
I1216 21:14:21.640396 25246 layer_factory.hpp:74] Creating layer inception_4d/3x3
I1216 21:14:21.640413 25246 net.cpp:84] Creating Layer inception_4d/3x3
I1216 21:14:21.640418 25246 net.cpp:380] inception_4d/3x3 <- inception_4d/3x3_reduce
I1216 21:14:21.640424 25246 net.cpp:338] inception_4d/3x3 -> inception_4d/3x3
I1216 21:14:21.640434 25246 net.cpp:113] Setting up inception_4d/3x3
I1216 21:14:21.645287 25246 net.cpp:120] Top shape: 80 288 14 14 (4515840)
I1216 21:14:21.645310 25246 layer_factory.hpp:74] Creating layer inception_4d/relu_3x3
I1216 21:14:21.645319 25246 net.cpp:84] Creating Layer inception_4d/relu_3x3
I1216 21:14:21.645325 25246 net.cpp:380] inception_4d/relu_3x3 <- inception_4d/3x3
I1216 21:14:21.645334 25246 net.cpp:327] inception_4d/relu_3x3 -> inception_4d/3x3 (in-place)
I1216 21:14:21.645342 25246 net.cpp:113] Setting up inception_4d/relu_3x3
I1216 21:14:21.645424 25246 net.cpp:120] Top shape: 80 288 14 14 (4515840)
I1216 21:14:21.645433 25246 layer_factory.hpp:74] Creating layer inception_4d/5x5_reduce
I1216 21:14:21.645449 25246 net.cpp:84] Creating Layer inception_4d/5x5_reduce
I1216 21:14:21.645454 25246 net.cpp:380] inception_4d/5x5_reduce <- inception_4c/output_inception_4c/output_0_split_2
I1216 21:14:21.645463 25246 net.cpp:338] inception_4d/5x5_reduce -> inception_4d/5x5_reduce
I1216 21:14:21.645472 25246 net.cpp:113] Setting up inception_4d/5x5_reduce
I1216 21:14:21.646579 25246 net.cpp:120] Top shape: 80 32 14 14 (501760)
I1216 21:14:21.646600 25246 layer_factory.hpp:74] Creating layer inception_4d/relu_5x5_reduce
I1216 21:14:21.646620 25246 net.cpp:84] Creating Layer inception_4d/relu_5x5_reduce
I1216 21:14:21.646628 25246 net.cpp:380] inception_4d/relu_5x5_reduce <- inception_4d/5x5_reduce
I1216 21:14:21.646637 25246 net.cpp:327] inception_4d/relu_5x5_reduce -> inception_4d/5x5_reduce (in-place)
I1216 21:14:21.646646 25246 net.cpp:113] Setting up inception_4d/relu_5x5_reduce
I1216 21:14:21.646714 25246 net.cpp:120] Top shape: 80 32 14 14 (501760)
I1216 21:14:21.646724 25246 layer_factory.hpp:74] Creating layer inception_4d/5x5
I1216 21:14:21.646739 25246 net.cpp:84] Creating Layer inception_4d/5x5
I1216 21:14:21.646746 25246 net.cpp:380] inception_4d/5x5 <- inception_4d/5x5_reduce
I1216 21:14:21.646766 25246 net.cpp:338] inception_4d/5x5 -> inception_4d/5x5
I1216 21:14:21.646792 25246 net.cpp:113] Setting up inception_4d/5x5
I1216 21:14:21.648967 25246 net.cpp:120] Top shape: 80 64 14 14 (1003520)
I1216 21:14:21.648984 25246 layer_factory.hpp:74] Creating layer inception_4d/relu_5x5
I1216 21:14:21.648991 25246 net.cpp:84] Creating Layer inception_4d/relu_5x5
I1216 21:14:21.648998 25246 net.cpp:380] inception_4d/relu_5x5 <- inception_4d/5x5
I1216 21:14:21.649005 25246 net.cpp:327] inception_4d/relu_5x5 -> inception_4d/5x5 (in-place)
I1216 21:14:21.649013 25246 net.cpp:113] Setting up inception_4d/relu_5x5
I1216 21:14:21.649104 25246 net.cpp:120] Top shape: 80 64 14 14 (1003520)
I1216 21:14:21.649114 25246 layer_factory.hpp:74] Creating layer inception_4d/pool
I1216 21:14:21.649119 25246 layer_factory.cpp:56] CUDNN does not support padding or multiple tops. Using Caffe's own pooling layer.
I1216 21:14:21.649126 25246 net.cpp:84] Creating Layer inception_4d/pool
I1216 21:14:21.649130 25246 net.cpp:380] inception_4d/pool <- inception_4c/output_inception_4c/output_0_split_3
I1216 21:14:21.649137 25246 net.cpp:338] inception_4d/pool -> inception_4d/pool
I1216 21:14:21.649145 25246 net.cpp:113] Setting up inception_4d/pool
I1216 21:14:21.649153 25246 net.cpp:120] Top shape: 80 512 14 14 (8028160)
I1216 21:14:21.649164 25246 layer_factory.hpp:74] Creating layer inception_4d/pool_proj
I1216 21:14:21.649178 25246 net.cpp:84] Creating Layer inception_4d/pool_proj
I1216 21:14:21.649183 25246 net.cpp:380] inception_4d/pool_proj <- inception_4d/pool
I1216 21:14:21.649193 25246 net.cpp:338] inception_4d/pool_proj -> inception_4d/pool_proj
I1216 21:14:21.649199 25246 net.cpp:113] Setting up inception_4d/pool_proj
I1216 21:14:21.650234 25246 net.cpp:120] Top shape: 80 64 14 14 (1003520)
I1216 21:14:21.650250 25246 layer_factory.hpp:74] Creating layer inception_4d/relu_pool_proj
I1216 21:14:21.650259 25246 net.cpp:84] Creating Layer inception_4d/relu_pool_proj
I1216 21:14:21.650265 25246 net.cpp:380] inception_4d/relu_pool_proj <- inception_4d/pool_proj
I1216 21:14:21.650271 25246 net.cpp:327] inception_4d/relu_pool_proj -> inception_4d/pool_proj (in-place)
I1216 21:14:21.650279 25246 net.cpp:113] Setting up inception_4d/relu_pool_proj
I1216 21:14:21.656318 25246 net.cpp:120] Top shape: 80 64 14 14 (1003520)
I1216 21:14:21.656345 25246 layer_factory.hpp:74] Creating layer inception_4d/output
I1216 21:14:21.656358 25246 net.cpp:84] Creating Layer inception_4d/output
I1216 21:14:21.656368 25246 net.cpp:380] inception_4d/output <- inception_4d/1x1
I1216 21:14:21.656378 25246 net.cpp:380] inception_4d/output <- inception_4d/3x3
I1216 21:14:21.656388 25246 net.cpp:380] inception_4d/output <- inception_4d/5x5
I1216 21:14:21.656396 25246 net.cpp:380] inception_4d/output <- inception_4d/pool_proj
I1216 21:14:21.656404 25246 net.cpp:338] inception_4d/output -> inception_4d/output
I1216 21:14:21.656419 25246 net.cpp:113] Setting up inception_4d/output
I1216 21:14:21.656430 25246 net.cpp:120] Top shape: 80 528 14 14 (8279040)
I1216 21:14:21.656436 25246 layer_factory.hpp:74] Creating layer inception_4d/output_inception_4d/output_0_split
I1216 21:14:21.656446 25246 net.cpp:84] Creating Layer inception_4d/output_inception_4d/output_0_split
I1216 21:14:21.656451 25246 net.cpp:380] inception_4d/output_inception_4d/output_0_split <- inception_4d/output
I1216 21:14:21.656461 25246 net.cpp:338] inception_4d/output_inception_4d/output_0_split -> inception_4d/output_inception_4d/output_0_split_0
I1216 21:14:21.656471 25246 net.cpp:338] inception_4d/output_inception_4d/output_0_split -> inception_4d/output_inception_4d/output_0_split_1
I1216 21:14:21.656482 25246 net.cpp:338] inception_4d/output_inception_4d/output_0_split -> inception_4d/output_inception_4d/output_0_split_2
I1216 21:14:21.656492 25246 net.cpp:338] inception_4d/output_inception_4d/output_0_split -> inception_4d/output_inception_4d/output_0_split_3
I1216 21:14:21.656502 25246 net.cpp:338] inception_4d/output_inception_4d/output_0_split -> inception_4d/output_inception_4d/output_0_split_4
I1216 21:14:21.656520 25246 net.cpp:113] Setting up inception_4d/output_inception_4d/output_0_split
I1216 21:14:21.656543 25246 net.cpp:120] Top shape: 80 528 14 14 (8279040)
I1216 21:14:21.656549 25246 net.cpp:120] Top shape: 80 528 14 14 (8279040)
I1216 21:14:21.656555 25246 net.cpp:120] Top shape: 80 528 14 14 (8279040)
I1216 21:14:21.656563 25246 net.cpp:120] Top shape: 80 528 14 14 (8279040)
I1216 21:14:21.656569 25246 net.cpp:120] Top shape: 80 528 14 14 (8279040)
I1216 21:14:21.656574 25246 layer_factory.hpp:74] Creating layer loss2/ave_pool
I1216 21:14:21.656587 25246 net.cpp:84] Creating Layer loss2/ave_pool
I1216 21:14:21.656594 25246 net.cpp:380] loss2/ave_pool <- inception_4d/output_inception_4d/output_0_split_0
I1216 21:14:21.656602 25246 net.cpp:338] loss2/ave_pool -> loss2/ave_pool
I1216 21:14:21.656611 25246 net.cpp:113] Setting up loss2/ave_pool
I1216 21:14:21.656705 25246 net.cpp:120] Top shape: 80 528 4 4 (675840)
I1216 21:14:21.656714 25246 layer_factory.hpp:74] Creating layer loss2/conv
I1216 21:14:21.656728 25246 net.cpp:84] Creating Layer loss2/conv
I1216 21:14:21.656734 25246 net.cpp:380] loss2/conv <- loss2/ave_pool
I1216 21:14:21.656744 25246 net.cpp:338] loss2/conv -> loss2/conv
I1216 21:14:21.656754 25246 net.cpp:113] Setting up loss2/conv
I1216 21:14:21.659904 25246 net.cpp:120] Top shape: 80 128 4 4 (163840)
I1216 21:14:21.659926 25246 layer_factory.hpp:74] Creating layer loss2/relu_conv
I1216 21:14:21.659936 25246 net.cpp:84] Creating Layer loss2/relu_conv
I1216 21:14:21.659943 25246 net.cpp:380] loss2/relu_conv <- loss2/conv
I1216 21:14:21.659953 25246 net.cpp:327] loss2/relu_conv -> loss2/conv (in-place)
I1216 21:14:21.659962 25246 net.cpp:113] Setting up loss2/relu_conv
I1216 21:14:21.660042 25246 net.cpp:120] Top shape: 80 128 4 4 (163840)
I1216 21:14:21.660050 25246 layer_factory.hpp:74] Creating layer loss2/fc
I1216 21:14:21.660061 25246 net.cpp:84] Creating Layer loss2/fc
I1216 21:14:21.660066 25246 net.cpp:380] loss2/fc <- loss2/conv
I1216 21:14:21.660076 25246 net.cpp:338] loss2/fc -> loss2/fc
I1216 21:14:21.660087 25246 net.cpp:113] Setting up loss2/fc
I1216 21:14:21.789476 25246 net.cpp:120] Top shape: 80 1024 (81920)
I1216 21:14:21.789533 25246 layer_factory.hpp:74] Creating layer loss2/relu_fc
I1216 21:14:21.789546 25246 net.cpp:84] Creating Layer loss2/relu_fc
I1216 21:14:21.789554 25246 net.cpp:380] loss2/relu_fc <- loss2/fc
I1216 21:14:21.789562 25246 net.cpp:327] loss2/relu_fc -> loss2/fc (in-place)
I1216 21:14:21.789572 25246 net.cpp:113] Setting up loss2/relu_fc
I1216 21:14:21.790025 25246 net.cpp:120] Top shape: 80 1024 (81920)
I1216 21:14:21.790040 25246 layer_factory.hpp:74] Creating layer loss2/drop_fc
I1216 21:14:21.790050 25246 net.cpp:84] Creating Layer loss2/drop_fc
I1216 21:14:21.790055 25246 net.cpp:380] loss2/drop_fc <- loss2/fc
I1216 21:14:21.790062 25246 net.cpp:327] loss2/drop_fc -> loss2/fc (in-place)
I1216 21:14:21.790071 25246 net.cpp:113] Setting up loss2/drop_fc
I1216 21:14:21.790079 25246 net.cpp:120] Top shape: 80 1024 (81920)
I1216 21:14:21.790083 25246 layer_factory.hpp:74] Creating layer loss2/classifier_kaggle
I1216 21:14:21.790093 25246 net.cpp:84] Creating Layer loss2/classifier_kaggle
I1216 21:14:21.790097 25246 net.cpp:380] loss2/classifier_kaggle <- loss2/fc
I1216 21:14:21.790105 25246 net.cpp:338] loss2/classifier_kaggle -> loss2/classifier_kaggle
I1216 21:14:21.790115 25246 net.cpp:113] Setting up loss2/classifier_kaggle
I1216 21:14:21.795399 25246 net.cpp:120] Top shape: 80 447 (35760)
I1216 21:14:21.795413 25246 layer_factory.hpp:74] Creating layer loss2/loss
I1216 21:14:21.795423 25246 net.cpp:84] Creating Layer loss2/loss
I1216 21:14:21.795429 25246 net.cpp:380] loss2/loss <- loss2/classifier_kaggle
I1216 21:14:21.795436 25246 net.cpp:380] loss2/loss <- label_data_1_split_1
I1216 21:14:21.795444 25246 net.cpp:338] loss2/loss -> loss2/loss1
I1216 21:14:21.795451 25246 net.cpp:113] Setting up loss2/loss
I1216 21:14:21.795459 25246 layer_factory.hpp:74] Creating layer loss2/loss
I1216 21:14:21.795630 25246 net.cpp:120] Top shape: (1)
I1216 21:14:21.795650 25246 net.cpp:122]     with loss weight 0.3
I1216 21:14:21.795672 25246 layer_factory.hpp:74] Creating layer inception_4e/1x1
I1216 21:14:21.795683 25246 net.cpp:84] Creating Layer inception_4e/1x1
I1216 21:14:21.795689 25246 net.cpp:380] inception_4e/1x1 <- inception_4d/output_inception_4d/output_0_split_1
I1216 21:14:21.795699 25246 net.cpp:338] inception_4e/1x1 -> inception_4e/1x1
I1216 21:14:21.795709 25246 net.cpp:113] Setting up inception_4e/1x1
I1216 21:14:21.797755 25246 net.cpp:120] Top shape: 80 256 14 14 (4014080)
I1216 21:14:21.797773 25246 layer_factory.hpp:74] Creating layer inception_4e/relu_1x1
I1216 21:14:21.797782 25246 net.cpp:84] Creating Layer inception_4e/relu_1x1
I1216 21:14:21.797788 25246 net.cpp:380] inception_4e/relu_1x1 <- inception_4e/1x1
I1216 21:14:21.797796 25246 net.cpp:327] inception_4e/relu_1x1 -> inception_4e/1x1 (in-place)
I1216 21:14:21.797803 25246 net.cpp:113] Setting up inception_4e/relu_1x1
I1216 21:14:21.797874 25246 net.cpp:120] Top shape: 80 256 14 14 (4014080)
I1216 21:14:21.797881 25246 layer_factory.hpp:74] Creating layer inception_4e/3x3_reduce
I1216 21:14:21.797889 25246 net.cpp:84] Creating Layer inception_4e/3x3_reduce
I1216 21:14:21.797895 25246 net.cpp:380] inception_4e/3x3_reduce <- inception_4d/output_inception_4d/output_0_split_2
I1216 21:14:21.797904 25246 net.cpp:338] inception_4e/3x3_reduce -> inception_4e/3x3_reduce
I1216 21:14:21.797914 25246 net.cpp:113] Setting up inception_4e/3x3_reduce
I1216 21:14:21.799300 25246 net.cpp:120] Top shape: 80 160 14 14 (2508800)
I1216 21:14:21.799316 25246 layer_factory.hpp:74] Creating layer inception_4e/relu_3x3_reduce
I1216 21:14:21.799324 25246 net.cpp:84] Creating Layer inception_4e/relu_3x3_reduce
I1216 21:14:21.799330 25246 net.cpp:380] inception_4e/relu_3x3_reduce <- inception_4e/3x3_reduce
I1216 21:14:21.799340 25246 net.cpp:327] inception_4e/relu_3x3_reduce -> inception_4e/3x3_reduce (in-place)
I1216 21:14:21.799348 25246 net.cpp:113] Setting up inception_4e/relu_3x3_reduce
I1216 21:14:21.799420 25246 net.cpp:120] Top shape: 80 160 14 14 (2508800)
I1216 21:14:21.799427 25246 layer_factory.hpp:74] Creating layer inception_4e/3x3
I1216 21:14:21.799439 25246 net.cpp:84] Creating Layer inception_4e/3x3
I1216 21:14:21.799444 25246 net.cpp:380] inception_4e/3x3 <- inception_4e/3x3_reduce
I1216 21:14:21.799455 25246 net.cpp:338] inception_4e/3x3 -> inception_4e/3x3
I1216 21:14:21.799464 25246 net.cpp:113] Setting up inception_4e/3x3
I1216 21:14:21.805178 25246 net.cpp:120] Top shape: 80 320 14 14 (5017600)
I1216 21:14:21.805197 25246 layer_factory.hpp:74] Creating layer inception_4e/relu_3x3
I1216 21:14:21.805203 25246 net.cpp:84] Creating Layer inception_4e/relu_3x3
I1216 21:14:21.805209 25246 net.cpp:380] inception_4e/relu_3x3 <- inception_4e/3x3
I1216 21:14:21.805218 25246 net.cpp:327] inception_4e/relu_3x3 -> inception_4e/3x3 (in-place)
I1216 21:14:21.805227 25246 net.cpp:113] Setting up inception_4e/relu_3x3
I1216 21:14:21.805475 25246 net.cpp:120] Top shape: 80 320 14 14 (5017600)
I1216 21:14:21.805490 25246 layer_factory.hpp:74] Creating layer inception_4e/5x5_reduce
I1216 21:14:21.805498 25246 net.cpp:84] Creating Layer inception_4e/5x5_reduce
I1216 21:14:21.805503 25246 net.cpp:380] inception_4e/5x5_reduce <- inception_4d/output_inception_4d/output_0_split_3
I1216 21:14:21.805513 25246 net.cpp:338] inception_4e/5x5_reduce -> inception_4e/5x5_reduce
I1216 21:14:21.805523 25246 net.cpp:113] Setting up inception_4e/5x5_reduce
I1216 21:14:21.806133 25246 net.cpp:120] Top shape: 80 32 14 14 (501760)
I1216 21:14:21.806149 25246 layer_factory.hpp:74] Creating layer inception_4e/relu_5x5_reduce
I1216 21:14:21.806160 25246 net.cpp:84] Creating Layer inception_4e/relu_5x5_reduce
I1216 21:14:21.806165 25246 net.cpp:380] inception_4e/relu_5x5_reduce <- inception_4e/5x5_reduce
I1216 21:14:21.806172 25246 net.cpp:327] inception_4e/relu_5x5_reduce -> inception_4e/5x5_reduce (in-place)
I1216 21:14:21.806180 25246 net.cpp:113] Setting up inception_4e/relu_5x5_reduce
I1216 21:14:21.806264 25246 net.cpp:120] Top shape: 80 32 14 14 (501760)
I1216 21:14:21.806278 25246 layer_factory.hpp:74] Creating layer inception_4e/5x5
I1216 21:14:21.806308 25246 net.cpp:84] Creating Layer inception_4e/5x5
I1216 21:14:21.806314 25246 net.cpp:380] inception_4e/5x5 <- inception_4e/5x5_reduce
I1216 21:14:21.806324 25246 net.cpp:338] inception_4e/5x5 -> inception_4e/5x5
I1216 21:14:21.806334 25246 net.cpp:113] Setting up inception_4e/5x5
I1216 21:14:21.807924 25246 net.cpp:120] Top shape: 80 128 14 14 (2007040)
I1216 21:14:21.807940 25246 layer_factory.hpp:74] Creating layer inception_4e/relu_5x5
I1216 21:14:21.807947 25246 net.cpp:84] Creating Layer inception_4e/relu_5x5
I1216 21:14:21.807953 25246 net.cpp:380] inception_4e/relu_5x5 <- inception_4e/5x5
I1216 21:14:21.807961 25246 net.cpp:327] inception_4e/relu_5x5 -> inception_4e/5x5 (in-place)
I1216 21:14:21.807970 25246 net.cpp:113] Setting up inception_4e/relu_5x5
I1216 21:14:21.808040 25246 net.cpp:120] Top shape: 80 128 14 14 (2007040)
I1216 21:14:21.808048 25246 layer_factory.hpp:74] Creating layer inception_4e/pool
I1216 21:14:21.808055 25246 layer_factory.cpp:56] CUDNN does not support padding or multiple tops. Using Caffe's own pooling layer.
I1216 21:14:21.808061 25246 net.cpp:84] Creating Layer inception_4e/pool
I1216 21:14:21.808068 25246 net.cpp:380] inception_4e/pool <- inception_4d/output_inception_4d/output_0_split_4
I1216 21:14:21.808074 25246 net.cpp:338] inception_4e/pool -> inception_4e/pool
I1216 21:14:21.808082 25246 net.cpp:113] Setting up inception_4e/pool
I1216 21:14:21.808092 25246 net.cpp:120] Top shape: 80 528 14 14 (8279040)
I1216 21:14:21.808097 25246 layer_factory.hpp:74] Creating layer inception_4e/pool_proj
I1216 21:14:21.808107 25246 net.cpp:84] Creating Layer inception_4e/pool_proj
I1216 21:14:21.808112 25246 net.cpp:380] inception_4e/pool_proj <- inception_4e/pool
I1216 21:14:21.808125 25246 net.cpp:338] inception_4e/pool_proj -> inception_4e/pool_proj
I1216 21:14:21.808133 25246 net.cpp:113] Setting up inception_4e/pool_proj
I1216 21:14:21.809329 25246 net.cpp:120] Top shape: 80 128 14 14 (2007040)
I1216 21:14:21.809346 25246 layer_factory.hpp:74] Creating layer inception_4e/relu_pool_proj
I1216 21:14:21.809356 25246 net.cpp:84] Creating Layer inception_4e/relu_pool_proj
I1216 21:14:21.809362 25246 net.cpp:380] inception_4e/relu_pool_proj <- inception_4e/pool_proj
I1216 21:14:21.809370 25246 net.cpp:327] inception_4e/relu_pool_proj -> inception_4e/pool_proj (in-place)
I1216 21:14:21.809377 25246 net.cpp:113] Setting up inception_4e/relu_pool_proj
I1216 21:14:21.809448 25246 net.cpp:120] Top shape: 80 128 14 14 (2007040)
I1216 21:14:21.809454 25246 layer_factory.hpp:74] Creating layer inception_4e/output
I1216 21:14:21.809464 25246 net.cpp:84] Creating Layer inception_4e/output
I1216 21:14:21.809469 25246 net.cpp:380] inception_4e/output <- inception_4e/1x1
I1216 21:14:21.809475 25246 net.cpp:380] inception_4e/output <- inception_4e/3x3
I1216 21:14:21.809481 25246 net.cpp:380] inception_4e/output <- inception_4e/5x5
I1216 21:14:21.809486 25246 net.cpp:380] inception_4e/output <- inception_4e/pool_proj
I1216 21:14:21.809494 25246 net.cpp:338] inception_4e/output -> inception_4e/output
I1216 21:14:21.809501 25246 net.cpp:113] Setting up inception_4e/output
I1216 21:14:21.809509 25246 net.cpp:120] Top shape: 80 832 14 14 (13045760)
I1216 21:14:21.809514 25246 layer_factory.hpp:74] Creating layer pool4/3x3_s2
I1216 21:14:21.809523 25246 net.cpp:84] Creating Layer pool4/3x3_s2
I1216 21:14:21.809528 25246 net.cpp:380] pool4/3x3_s2 <- inception_4e/output
I1216 21:14:21.809535 25246 net.cpp:338] pool4/3x3_s2 -> pool4/3x3_s2
I1216 21:14:21.809542 25246 net.cpp:113] Setting up pool4/3x3_s2
I1216 21:14:21.809797 25246 net.cpp:120] Top shape: 80 832 7 7 (3261440)
I1216 21:14:21.809808 25246 layer_factory.hpp:74] Creating layer pool4/3x3_s2_pool4/3x3_s2_0_split
I1216 21:14:21.809816 25246 net.cpp:84] Creating Layer pool4/3x3_s2_pool4/3x3_s2_0_split
I1216 21:14:21.809823 25246 net.cpp:380] pool4/3x3_s2_pool4/3x3_s2_0_split <- pool4/3x3_s2
I1216 21:14:21.809834 25246 net.cpp:338] pool4/3x3_s2_pool4/3x3_s2_0_split -> pool4/3x3_s2_pool4/3x3_s2_0_split_0
I1216 21:14:21.809854 25246 net.cpp:338] pool4/3x3_s2_pool4/3x3_s2_0_split -> pool4/3x3_s2_pool4/3x3_s2_0_split_1
I1216 21:14:21.809861 25246 net.cpp:338] pool4/3x3_s2_pool4/3x3_s2_0_split -> pool4/3x3_s2_pool4/3x3_s2_0_split_2
I1216 21:14:21.809870 25246 net.cpp:338] pool4/3x3_s2_pool4/3x3_s2_0_split -> pool4/3x3_s2_pool4/3x3_s2_0_split_3
I1216 21:14:21.809875 25246 net.cpp:113] Setting up pool4/3x3_s2_pool4/3x3_s2_0_split
I1216 21:14:21.809883 25246 net.cpp:120] Top shape: 80 832 7 7 (3261440)
I1216 21:14:21.809890 25246 net.cpp:120] Top shape: 80 832 7 7 (3261440)
I1216 21:14:21.809895 25246 net.cpp:120] Top shape: 80 832 7 7 (3261440)
I1216 21:14:21.809900 25246 net.cpp:120] Top shape: 80 832 7 7 (3261440)
I1216 21:14:21.809903 25246 layer_factory.hpp:74] Creating layer inception_5a/1x1
I1216 21:14:21.809913 25246 net.cpp:84] Creating Layer inception_5a/1x1
I1216 21:14:21.809919 25246 net.cpp:380] inception_5a/1x1 <- pool4/3x3_s2_pool4/3x3_s2_0_split_0
I1216 21:14:21.809926 25246 net.cpp:338] inception_5a/1x1 -> inception_5a/1x1
I1216 21:14:21.809934 25246 net.cpp:113] Setting up inception_5a/1x1
I1216 21:14:21.812803 25246 net.cpp:120] Top shape: 80 256 7 7 (1003520)
I1216 21:14:21.812820 25246 layer_factory.hpp:74] Creating layer inception_5a/relu_1x1
I1216 21:14:21.812830 25246 net.cpp:84] Creating Layer inception_5a/relu_1x1
I1216 21:14:21.812836 25246 net.cpp:380] inception_5a/relu_1x1 <- inception_5a/1x1
I1216 21:14:21.812844 25246 net.cpp:327] inception_5a/relu_1x1 -> inception_5a/1x1 (in-place)
I1216 21:14:21.812851 25246 net.cpp:113] Setting up inception_5a/relu_1x1
I1216 21:14:21.812922 25246 net.cpp:120] Top shape: 80 256 7 7 (1003520)
I1216 21:14:21.812929 25246 layer_factory.hpp:74] Creating layer inception_5a/3x3_reduce
I1216 21:14:21.812940 25246 net.cpp:84] Creating Layer inception_5a/3x3_reduce
I1216 21:14:21.812947 25246 net.cpp:380] inception_5a/3x3_reduce <- pool4/3x3_s2_pool4/3x3_s2_0_split_1
I1216 21:14:21.812954 25246 net.cpp:338] inception_5a/3x3_reduce -> inception_5a/3x3_reduce
I1216 21:14:21.812963 25246 net.cpp:113] Setting up inception_5a/3x3_reduce
I1216 21:14:21.817330 25246 net.cpp:120] Top shape: 80 160 7 7 (627200)
I1216 21:14:21.817399 25246 layer_factory.hpp:74] Creating layer inception_5a/relu_3x3_reduce
I1216 21:14:21.817426 25246 net.cpp:84] Creating Layer inception_5a/relu_3x3_reduce
I1216 21:14:21.817436 25246 net.cpp:380] inception_5a/relu_3x3_reduce <- inception_5a/3x3_reduce
I1216 21:14:21.817452 25246 net.cpp:327] inception_5a/relu_3x3_reduce -> inception_5a/3x3_reduce (in-place)
I1216 21:14:21.817467 25246 net.cpp:113] Setting up inception_5a/relu_3x3_reduce
I1216 21:14:21.817551 25246 net.cpp:120] Top shape: 80 160 7 7 (627200)
I1216 21:14:21.817562 25246 layer_factory.hpp:74] Creating layer inception_5a/3x3
I1216 21:14:21.817579 25246 net.cpp:84] Creating Layer inception_5a/3x3
I1216 21:14:21.817586 25246 net.cpp:380] inception_5a/3x3 <- inception_5a/3x3_reduce
I1216 21:14:21.817600 25246 net.cpp:338] inception_5a/3x3 -> inception_5a/3x3
I1216 21:14:21.817610 25246 net.cpp:113] Setting up inception_5a/3x3
I1216 21:14:21.823323 25246 net.cpp:120] Top shape: 80 320 7 7 (1254400)
I1216 21:14:21.823345 25246 layer_factory.hpp:74] Creating layer inception_5a/relu_3x3
I1216 21:14:21.823366 25246 net.cpp:84] Creating Layer inception_5a/relu_3x3
I1216 21:14:21.823374 25246 net.cpp:380] inception_5a/relu_3x3 <- inception_5a/3x3
I1216 21:14:21.823379 25246 net.cpp:327] inception_5a/relu_3x3 -> inception_5a/3x3 (in-place)
I1216 21:14:21.823387 25246 net.cpp:113] Setting up inception_5a/relu_3x3
I1216 21:14:21.823467 25246 net.cpp:120] Top shape: 80 320 7 7 (1254400)
I1216 21:14:21.823478 25246 layer_factory.hpp:74] Creating layer inception_5a/5x5_reduce
I1216 21:14:21.823493 25246 net.cpp:84] Creating Layer inception_5a/5x5_reduce
I1216 21:14:21.823503 25246 net.cpp:380] inception_5a/5x5_reduce <- pool4/3x3_s2_pool4/3x3_s2_0_split_2
I1216 21:14:21.823515 25246 net.cpp:338] inception_5a/5x5_reduce -> inception_5a/5x5_reduce
I1216 21:14:21.823549 25246 net.cpp:113] Setting up inception_5a/5x5_reduce
I1216 21:14:21.824329 25246 net.cpp:120] Top shape: 80 32 7 7 (125440)
I1216 21:14:21.824348 25246 layer_factory.hpp:74] Creating layer inception_5a/relu_5x5_reduce
I1216 21:14:21.824358 25246 net.cpp:84] Creating Layer inception_5a/relu_5x5_reduce
I1216 21:14:21.824367 25246 net.cpp:380] inception_5a/relu_5x5_reduce <- inception_5a/5x5_reduce
I1216 21:14:21.824378 25246 net.cpp:327] inception_5a/relu_5x5_reduce -> inception_5a/5x5_reduce (in-place)
I1216 21:14:21.824388 25246 net.cpp:113] Setting up inception_5a/relu_5x5_reduce
I1216 21:14:21.824643 25246 net.cpp:120] Top shape: 80 32 7 7 (125440)
I1216 21:14:21.824671 25246 layer_factory.hpp:74] Creating layer inception_5a/5x5
I1216 21:14:21.824687 25246 net.cpp:84] Creating Layer inception_5a/5x5
I1216 21:14:21.824694 25246 net.cpp:380] inception_5a/5x5 <- inception_5a/5x5_reduce
I1216 21:14:21.824705 25246 net.cpp:338] inception_5a/5x5 -> inception_5a/5x5
I1216 21:14:21.824717 25246 net.cpp:113] Setting up inception_5a/5x5
I1216 21:14:21.826383 25246 net.cpp:120] Top shape: 80 128 7 7 (501760)
I1216 21:14:21.826414 25246 layer_factory.hpp:74] Creating layer inception_5a/relu_5x5
I1216 21:14:21.826444 25246 net.cpp:84] Creating Layer inception_5a/relu_5x5
I1216 21:14:21.826453 25246 net.cpp:380] inception_5a/relu_5x5 <- inception_5a/5x5
I1216 21:14:21.826462 25246 net.cpp:327] inception_5a/relu_5x5 -> inception_5a/5x5 (in-place)
I1216 21:14:21.826473 25246 net.cpp:113] Setting up inception_5a/relu_5x5
I1216 21:14:21.826558 25246 net.cpp:120] Top shape: 80 128 7 7 (501760)
I1216 21:14:21.826565 25246 layer_factory.hpp:74] Creating layer inception_5a/pool
I1216 21:14:21.826571 25246 layer_factory.cpp:56] CUDNN does not support padding or multiple tops. Using Caffe's own pooling layer.
I1216 21:14:21.826576 25246 net.cpp:84] Creating Layer inception_5a/pool
I1216 21:14:21.826581 25246 net.cpp:380] inception_5a/pool <- pool4/3x3_s2_pool4/3x3_s2_0_split_3
I1216 21:14:21.826591 25246 net.cpp:338] inception_5a/pool -> inception_5a/pool
I1216 21:14:21.826602 25246 net.cpp:113] Setting up inception_5a/pool
I1216 21:14:21.826614 25246 net.cpp:120] Top shape: 80 832 7 7 (3261440)
I1216 21:14:21.826619 25246 layer_factory.hpp:74] Creating layer inception_5a/pool_proj
I1216 21:14:21.826627 25246 net.cpp:84] Creating Layer inception_5a/pool_proj
I1216 21:14:21.826632 25246 net.cpp:380] inception_5a/pool_proj <- inception_5a/pool
I1216 21:14:21.826637 25246 net.cpp:338] inception_5a/pool_proj -> inception_5a/pool_proj
I1216 21:14:21.826644 25246 net.cpp:113] Setting up inception_5a/pool_proj
I1216 21:14:21.828215 25246 net.cpp:120] Top shape: 80 128 7 7 (501760)
I1216 21:14:21.828238 25246 layer_factory.hpp:74] Creating layer inception_5a/relu_pool_proj
I1216 21:14:21.828248 25246 net.cpp:84] Creating Layer inception_5a/relu_pool_proj
I1216 21:14:21.828253 25246 net.cpp:380] inception_5a/relu_pool_proj <- inception_5a/pool_proj
I1216 21:14:21.828263 25246 net.cpp:327] inception_5a/relu_pool_proj -> inception_5a/pool_proj (in-place)
I1216 21:14:21.828269 25246 net.cpp:113] Setting up inception_5a/relu_pool_proj
I1216 21:14:21.828340 25246 net.cpp:120] Top shape: 80 128 7 7 (501760)
I1216 21:14:21.828349 25246 layer_factory.hpp:74] Creating layer inception_5a/output
I1216 21:14:21.828359 25246 net.cpp:84] Creating Layer inception_5a/output
I1216 21:14:21.828366 25246 net.cpp:380] inception_5a/output <- inception_5a/1x1
I1216 21:14:21.828374 25246 net.cpp:380] inception_5a/output <- inception_5a/3x3
I1216 21:14:21.828382 25246 net.cpp:380] inception_5a/output <- inception_5a/5x5
I1216 21:14:21.828390 25246 net.cpp:380] inception_5a/output <- inception_5a/pool_proj
I1216 21:14:21.828405 25246 net.cpp:338] inception_5a/output -> inception_5a/output
I1216 21:14:21.828415 25246 net.cpp:113] Setting up inception_5a/output
I1216 21:14:21.828428 25246 net.cpp:120] Top shape: 80 832 7 7 (3261440)
I1216 21:14:21.828433 25246 layer_factory.hpp:74] Creating layer inception_5a/output_inception_5a/output_0_split
I1216 21:14:21.828450 25246 net.cpp:84] Creating Layer inception_5a/output_inception_5a/output_0_split
I1216 21:14:21.828469 25246 net.cpp:380] inception_5a/output_inception_5a/output_0_split <- inception_5a/output
I1216 21:14:21.828479 25246 net.cpp:338] inception_5a/output_inception_5a/output_0_split -> inception_5a/output_inception_5a/output_0_split_0
I1216 21:14:21.828486 25246 net.cpp:338] inception_5a/output_inception_5a/output_0_split -> inception_5a/output_inception_5a/output_0_split_1
I1216 21:14:21.828492 25246 net.cpp:338] inception_5a/output_inception_5a/output_0_split -> inception_5a/output_inception_5a/output_0_split_2
I1216 21:14:21.828500 25246 net.cpp:338] inception_5a/output_inception_5a/output_0_split -> inception_5a/output_inception_5a/output_0_split_3
I1216 21:14:21.828505 25246 net.cpp:113] Setting up inception_5a/output_inception_5a/output_0_split
I1216 21:14:21.828512 25246 net.cpp:120] Top shape: 80 832 7 7 (3261440)
I1216 21:14:21.828517 25246 net.cpp:120] Top shape: 80 832 7 7 (3261440)
I1216 21:14:21.828521 25246 net.cpp:120] Top shape: 80 832 7 7 (3261440)
I1216 21:14:21.828526 25246 net.cpp:120] Top shape: 80 832 7 7 (3261440)
I1216 21:14:21.828529 25246 layer_factory.hpp:74] Creating layer inception_5b/1x1
I1216 21:14:21.828541 25246 net.cpp:84] Creating Layer inception_5b/1x1
I1216 21:14:21.828547 25246 net.cpp:380] inception_5b/1x1 <- inception_5a/output_inception_5a/output_0_split_0
I1216 21:14:21.828557 25246 net.cpp:338] inception_5b/1x1 -> inception_5b/1x1
I1216 21:14:21.828565 25246 net.cpp:113] Setting up inception_5b/1x1
I1216 21:14:21.832484 25246 net.cpp:120] Top shape: 80 384 7 7 (1505280)
I1216 21:14:21.832502 25246 layer_factory.hpp:74] Creating layer inception_5b/relu_1x1
I1216 21:14:21.832522 25246 net.cpp:84] Creating Layer inception_5b/relu_1x1
I1216 21:14:21.832530 25246 net.cpp:380] inception_5b/relu_1x1 <- inception_5b/1x1
I1216 21:14:21.832540 25246 net.cpp:327] inception_5b/relu_1x1 -> inception_5b/1x1 (in-place)
I1216 21:14:21.832551 25246 net.cpp:113] Setting up inception_5b/relu_1x1
I1216 21:14:21.832818 25246 net.cpp:120] Top shape: 80 384 7 7 (1505280)
I1216 21:14:21.832840 25246 layer_factory.hpp:74] Creating layer inception_5b/3x3_reduce
I1216 21:14:21.832854 25246 net.cpp:84] Creating Layer inception_5b/3x3_reduce
I1216 21:14:21.832861 25246 net.cpp:380] inception_5b/3x3_reduce <- inception_5a/output_inception_5a/output_0_split_1
I1216 21:14:21.832875 25246 net.cpp:338] inception_5b/3x3_reduce -> inception_5b/3x3_reduce
I1216 21:14:21.832885 25246 net.cpp:113] Setting up inception_5b/3x3_reduce
I1216 21:14:21.835168 25246 net.cpp:120] Top shape: 80 192 7 7 (752640)
I1216 21:14:21.835186 25246 layer_factory.hpp:74] Creating layer inception_5b/relu_3x3_reduce
I1216 21:14:21.835193 25246 net.cpp:84] Creating Layer inception_5b/relu_3x3_reduce
I1216 21:14:21.835198 25246 net.cpp:380] inception_5b/relu_3x3_reduce <- inception_5b/3x3_reduce
I1216 21:14:21.835204 25246 net.cpp:327] inception_5b/relu_3x3_reduce -> inception_5b/3x3_reduce (in-place)
I1216 21:14:21.835211 25246 net.cpp:113] Setting up inception_5b/relu_3x3_reduce
I1216 21:14:21.835299 25246 net.cpp:120] Top shape: 80 192 7 7 (752640)
I1216 21:14:21.835309 25246 layer_factory.hpp:74] Creating layer inception_5b/3x3
I1216 21:14:21.835322 25246 net.cpp:84] Creating Layer inception_5b/3x3
I1216 21:14:21.835330 25246 net.cpp:380] inception_5b/3x3 <- inception_5b/3x3_reduce
I1216 21:14:21.835341 25246 net.cpp:338] inception_5b/3x3 -> inception_5b/3x3
I1216 21:14:21.835377 25246 net.cpp:113] Setting up inception_5b/3x3
I1216 21:14:21.884212 25246 net.cpp:120] Top shape: 80 384 7 7 (1505280)
I1216 21:14:21.884248 25246 layer_factory.hpp:74] Creating layer inception_5b/relu_3x3
I1216 21:14:21.884275 25246 net.cpp:84] Creating Layer inception_5b/relu_3x3
I1216 21:14:21.884287 25246 net.cpp:380] inception_5b/relu_3x3 <- inception_5b/3x3
I1216 21:14:21.884300 25246 net.cpp:327] inception_5b/relu_3x3 -> inception_5b/3x3 (in-place)
I1216 21:14:21.884315 25246 net.cpp:113] Setting up inception_5b/relu_3x3
I1216 21:14:21.884397 25246 net.cpp:120] Top shape: 80 384 7 7 (1505280)
I1216 21:14:21.884418 25246 layer_factory.hpp:74] Creating layer inception_5b/5x5_reduce
I1216 21:14:21.884433 25246 net.cpp:84] Creating Layer inception_5b/5x5_reduce
I1216 21:14:21.884441 25246 net.cpp:380] inception_5b/5x5_reduce <- inception_5a/output_inception_5a/output_0_split_2
I1216 21:14:21.884449 25246 net.cpp:338] inception_5b/5x5_reduce -> inception_5b/5x5_reduce
I1216 21:14:21.884456 25246 net.cpp:113] Setting up inception_5b/5x5_reduce
I1216 21:14:21.885404 25246 net.cpp:120] Top shape: 80 48 7 7 (188160)
I1216 21:14:21.885421 25246 layer_factory.hpp:74] Creating layer inception_5b/relu_5x5_reduce
I1216 21:14:21.885427 25246 net.cpp:84] Creating Layer inception_5b/relu_5x5_reduce
I1216 21:14:21.885432 25246 net.cpp:380] inception_5b/relu_5x5_reduce <- inception_5b/5x5_reduce
I1216 21:14:21.885440 25246 net.cpp:327] inception_5b/relu_5x5_reduce -> inception_5b/5x5_reduce (in-place)
I1216 21:14:21.885449 25246 net.cpp:113] Setting up inception_5b/relu_5x5_reduce
I1216 21:14:21.885530 25246 net.cpp:120] Top shape: 80 48 7 7 (188160)
I1216 21:14:21.885542 25246 layer_factory.hpp:74] Creating layer inception_5b/5x5
I1216 21:14:21.885571 25246 net.cpp:84] Creating Layer inception_5b/5x5
I1216 21:14:21.885581 25246 net.cpp:380] inception_5b/5x5 <- inception_5b/5x5_reduce
I1216 21:14:21.885593 25246 net.cpp:338] inception_5b/5x5 -> inception_5b/5x5
I1216 21:14:21.885607 25246 net.cpp:113] Setting up inception_5b/5x5
I1216 21:14:21.887809 25246 net.cpp:120] Top shape: 80 128 7 7 (501760)
I1216 21:14:21.887830 25246 layer_factory.hpp:74] Creating layer inception_5b/relu_5x5
I1216 21:14:21.887845 25246 net.cpp:84] Creating Layer inception_5b/relu_5x5
I1216 21:14:21.887852 25246 net.cpp:380] inception_5b/relu_5x5 <- inception_5b/5x5
I1216 21:14:21.887862 25246 net.cpp:327] inception_5b/relu_5x5 -> inception_5b/5x5 (in-place)
I1216 21:14:21.887873 25246 net.cpp:113] Setting up inception_5b/relu_5x5
I1216 21:14:21.888144 25246 net.cpp:120] Top shape: 80 128 7 7 (501760)
I1216 21:14:21.888159 25246 layer_factory.hpp:74] Creating layer inception_5b/pool
I1216 21:14:21.888169 25246 layer_factory.cpp:56] CUDNN does not support padding or multiple tops. Using Caffe's own pooling layer.
I1216 21:14:21.888177 25246 net.cpp:84] Creating Layer inception_5b/pool
I1216 21:14:21.888185 25246 net.cpp:380] inception_5b/pool <- inception_5a/output_inception_5a/output_0_split_3
I1216 21:14:21.888197 25246 net.cpp:338] inception_5b/pool -> inception_5b/pool
I1216 21:14:21.888211 25246 net.cpp:113] Setting up inception_5b/pool
I1216 21:14:21.888221 25246 net.cpp:120] Top shape: 80 832 7 7 (3261440)
I1216 21:14:21.888226 25246 layer_factory.hpp:74] Creating layer inception_5b/pool_proj
I1216 21:14:21.888238 25246 net.cpp:84] Creating Layer inception_5b/pool_proj
I1216 21:14:21.888245 25246 net.cpp:380] inception_5b/pool_proj <- inception_5b/pool
I1216 21:14:21.888257 25246 net.cpp:338] inception_5b/pool_proj -> inception_5b/pool_proj
I1216 21:14:21.888269 25246 net.cpp:113] Setting up inception_5b/pool_proj
I1216 21:14:21.890004 25246 net.cpp:120] Top shape: 80 128 7 7 (501760)
I1216 21:14:21.890030 25246 layer_factory.hpp:74] Creating layer inception_5b/relu_pool_proj
I1216 21:14:21.890061 25246 net.cpp:84] Creating Layer inception_5b/relu_pool_proj
I1216 21:14:21.890070 25246 net.cpp:380] inception_5b/relu_pool_proj <- inception_5b/pool_proj
I1216 21:14:21.890079 25246 net.cpp:327] inception_5b/relu_pool_proj -> inception_5b/pool_proj (in-place)
I1216 21:14:21.890085 25246 net.cpp:113] Setting up inception_5b/relu_pool_proj
I1216 21:14:21.890152 25246 net.cpp:120] Top shape: 80 128 7 7 (501760)
I1216 21:14:21.890162 25246 layer_factory.hpp:74] Creating layer inception_5b/output
I1216 21:14:21.890172 25246 net.cpp:84] Creating Layer inception_5b/output
I1216 21:14:21.890179 25246 net.cpp:380] inception_5b/output <- inception_5b/1x1
I1216 21:14:21.890187 25246 net.cpp:380] inception_5b/output <- inception_5b/3x3
I1216 21:14:21.890195 25246 net.cpp:380] inception_5b/output <- inception_5b/5x5
I1216 21:14:21.890210 25246 net.cpp:380] inception_5b/output <- inception_5b/pool_proj
I1216 21:14:21.890228 25246 net.cpp:338] inception_5b/output -> inception_5b/output
I1216 21:14:21.890239 25246 net.cpp:113] Setting up inception_5b/output
I1216 21:14:21.890251 25246 net.cpp:120] Top shape: 80 1024 7 7 (4014080)
I1216 21:14:21.890259 25246 layer_factory.hpp:74] Creating layer pool5/7x7_s1
I1216 21:14:21.890269 25246 net.cpp:84] Creating Layer pool5/7x7_s1
I1216 21:14:21.890276 25246 net.cpp:380] pool5/7x7_s1 <- inception_5b/output
I1216 21:14:21.890290 25246 net.cpp:338] pool5/7x7_s1 -> pool5/7x7_s1
I1216 21:14:21.890300 25246 net.cpp:113] Setting up pool5/7x7_s1
I1216 21:14:21.890385 25246 net.cpp:120] Top shape: 80 1024 1 1 (81920)
I1216 21:14:21.890395 25246 layer_factory.hpp:74] Creating layer pool5/drop_7x7_s1
I1216 21:14:21.890405 25246 net.cpp:84] Creating Layer pool5/drop_7x7_s1
I1216 21:14:21.890410 25246 net.cpp:380] pool5/drop_7x7_s1 <- pool5/7x7_s1
I1216 21:14:21.890419 25246 net.cpp:327] pool5/drop_7x7_s1 -> pool5/7x7_s1 (in-place)
I1216 21:14:21.890425 25246 net.cpp:113] Setting up pool5/drop_7x7_s1
I1216 21:14:21.890436 25246 net.cpp:120] Top shape: 80 1024 1 1 (81920)
I1216 21:14:21.890444 25246 layer_factory.hpp:74] Creating layer loss3/classifier_kaggle
I1216 21:14:21.890462 25246 net.cpp:84] Creating Layer loss3/classifier_kaggle
I1216 21:14:21.890470 25246 net.cpp:380] loss3/classifier_kaggle <- pool5/7x7_s1
I1216 21:14:21.890482 25246 net.cpp:338] loss3/classifier_kaggle -> loss3/classifier_kaggle
I1216 21:14:21.890494 25246 net.cpp:113] Setting up loss3/classifier_kaggle
I1216 21:14:21.895637 25246 net.cpp:120] Top shape: 80 447 (35760)
I1216 21:14:21.895655 25246 layer_factory.hpp:74] Creating layer loss3/loss3
I1216 21:14:21.895670 25246 net.cpp:84] Creating Layer loss3/loss3
I1216 21:14:21.895678 25246 net.cpp:380] loss3/loss3 <- loss3/classifier_kaggle
I1216 21:14:21.895687 25246 net.cpp:380] loss3/loss3 <- label_data_1_split_2
I1216 21:14:21.895697 25246 net.cpp:338] loss3/loss3 -> loss3/loss3
I1216 21:14:21.895709 25246 net.cpp:113] Setting up loss3/loss3
…
I1216 21:14:21.901857 25246 net.cpp:257] The NetState phase (1) differed from the phase (0) specified by a rule in layer data
I1216 21:14:21.903802 25246 net.cpp:42] Initializing net from parameters: 
name: "GoogleNet"
state {
  phase: TEST
}
layer {
  name: "data"
  type: "Data"
  top: "data"
  top: "label"
  include {
    phase: TEST
  }
  transform_param {
    mirror: false
    crop_size: 224
    mean_value: 129
    mean_value: 129
    mean_value: 129
  }
  data_param {
    source: "/home/coldmanck/kaggle/kaggle2_val_lmdb"
    batch_size: 50
    backend: LMDB
  }
}
layer {
  name: "conv1/7x7_s2"
  type: "Convolution"
  bottom: "data"
  top: "conv1/7x7_s2"
  param {
    lr_mult: 1
    decay_mult: 1
  }
  param {
    lr_mult: 2
    decay_mult: 0
  }
  convolution_param {
    num_output: 64
    pad: 3
    kernel_size: 7
    stride: 2
    weight_filler {
      type: "xavier"
    }
    bias_filler {
      type: "constant"
      value: 0.2
    }
  }
}
layer {
  name: "conv1/relu_7x7"
  type: "ReLU"
  bottom: "conv1/7x7_s2"
  top: "conv1/7x7_s2"
}
layer {
  name: "pool1/3x3_s2"
  type: "Pooling"
  bottom: "conv1/7x7_s2"
  top: "pool1/3x3_s2"
  pooling_param {
    pool: MAX
    kernel_size: 3
    stride: 2
  }
}
layer {
  name: "pool1/norm1"
  type: "LRN"
  bottom: "pool1/3x3_s2"
  top: "pool1/norm1"
  lrn_param {
    local_size: 5
    alpha: 0.0001
    beta: 0.75
  }
}
layer {
  name: "conv2/3x3_reduce"
  type: "Convolution"
  bottom: "pool1/norm1"
  top: "conv2/3x3_reduce"
  param {
    lr_mult: 1
    decay_mult: 1
  }
  param {
    lr_mult: 2
    decay_mult: 0
  }
  convolution_param {
    num_output: 64
    kernel_size: 1
    weight_filler {
      type: "xavier"
    }
    bias_filler {
      type: "constant"
      value: 0.2
    }
  }
}
layer {
  name: "conv2/relu_3x3_reduce"
  type: "ReLU"
  bottom: "conv2/3x3_reduce"
  top: "conv2/3x3_reduce"
}
layer {
  name: "conv2/3x3"
  type: "Convolution"
  bottom: "conv2/3x3_reduce"
  top: "conv2/3x3"
  param {
    lr_mult: 1
    decay_mult: 1
  }
  param {
    lr_mult: 2
    decay_mult: 0
  }
  convolution_param {
    num_output: 192
    pad: 1
    kernel_size: 3
    weight_filler {
      type: "xavier"
    }
    bias_filler {
      type: "constant"
      value: 0.2
    }
  }
}
layer {
  name: "conv2/relu_3x3"
  type: "ReLU"
  bottom: "conv2/3x3"
  top: "conv2/3x3"
}
layer {
  name: "conv2/norm2"
  type: "LRN"
  bottom: "conv2/3x3"
  top: "conv2/norm2"
  lrn_param {
    local_size: 5
    alpha: 0.0001
    beta: 0.75
  }
}
layer {
  name: "pool2/3x3_s2"
  type: "Pooling"
  bottom: "conv2/norm2"
  top: "pool2/3x3_s2"
  pooling_param {
    pool: MAX
    kernel_size: 3
    stride: 2
  }
}
layer {
  name: "inception_3a/1x1"
  type: "Convolution"
  bottom: "pool2/3x3_s2"
  top: "inception_3a/1x1"
  param {
    lr_mult: 1
    decay_mult: 1
  }
  param {
    lr_mult: 2
    decay_mult: 0
  }
  convolution_param {
    num_output: 64
    kernel_size: 1
    weight_filler {
      type: "xavier"
    }
    bias_filler {
      type: "constant"
      value: 0.2
    }
  }
}
layer {
  name: "inception_3a/relu_1x1"
  type: "ReLU"
  bottom: "inception_3a/1x1"
  top: "inception_3a/1x1"
}
layer {
  name: "inception_3a/3x3_reduce"
  type: "Convolution"
  bottom: "pool2/3x3_s2"
  top: "inception_3a/3x3_reduce"
  param {
    lr_mult: 1
    decay_mult: 1
  }
  param {
    lr_mult: 2
    decay_mult: 0
  }
  convolution_param {
    num_output: 96
    kernel_size: 1
    weight_filler {
      type: "xavier"
    }
    bias_filler {
      type: "constant"
      value: 0.2
    }
  }
}
layer {
  name: "inception_3a/relu_3x3_reduce"
  type: "ReLU"
  bottom: "inception_3a/3x3_reduce"
  top: "inception_3a/3x3_reduce"
}
layer {
  name: "inception_3a/3x3"
  type: "Convolution"
  bottom: "inception_3a/3x3_reduce"
  top: "inception_3a/3x3"
  param {
    lr_mult: 1
    decay_mult: 1
  }
  param {
    lr_mult: 2
    decay_mult: 0
  }
  convolution_param {
    num_output: 128
    pad: 1
    kernel_size: 3
    weight_filler {
      type: "xavier"
    }
    bias_filler {
      type: "constant"
      value: 0.2
    }
  }
}
layer {
  name: "inception_3a/relu_3x3"
  type: "ReLU"
  bottom: "inception_3a/3x3"
  top: "inception_3a/3x3"
}
layer {
  name: "inception_3a/5x5_reduce"
  type: "Convolution"
  bottom: "pool2/3x3_s2"
  top: "inception_3a/5x5_reduce"
  param {
    lr_mult: 1
    decay_mult: 1
  }
  param {
    lr_mult: 2
    decay_mult: 0
  }
  convolution_param {
    num_output: 16
    kernel_size: 1
    weight_filler {
      type: "xavier"
    }
    bias_filler {
      type: "constant"
      value: 0.2
    }
  }
}
layer {
  name: "inception_3a/relu_5x5_reduce"
  type: "ReLU"
  bottom: "inception_3a/5x5_reduce"
  top: "inception_3a/5x5_reduce"
}
layer {
  name: "inception_3a/5x5"
  type: "Convolution"
  bottom: "inception_3a/5x5_reduce"
  top: "inception_3a/5x5"
  param {
    lr_mult: 1
    decay_mult: 1
  }
  param {
    lr_mult: 2
    decay_mult: 0
  }
  convolution_param {
    num_output: 32
    pad: 2
    kernel_size: 5
    weight_filler {
      type: "xavier"
    }
    bias_filler {
      type: "constant"
      value: 0.2
    }
  }
}
layer {
  name: "inception_3a/relu_5x5"
  type: "ReLU"
  bottom: "inception_3a/5x5"
  top: "inception_3a/5x5"
}
layer {
  name: "inception_3a/pool"
  type: "Pooling"
  bottom: "pool2/3x3_s2"
  top: "inception_3a/pool"
  pooling_param {
    pool: MAX
    kernel_size: 3
    stride: 1
    pad: 1
  }
}
layer {
  name: "inception_3a/pool_proj"
  type: "Convolution"
  bottom: "inception_3a/pool"
  top: "inception_3a/pool_proj"
  param {
    lr_mult: 1
    decay_mult: 1
  }
  param {
    lr_mult: 2
    decay_mult: 0
  }
  convolution_param {
    num_output: 32
    kernel_size: 1
    weight_filler {
      type: "xavier"
    }
    bias_filler {
      type: "constant"
      value: 0.2
    }
  }
}
layer {
  name: "inception_3a/relu_pool_proj"
  type: "ReLU"
  bottom: "inception_3a/pool_proj"
  top: "inception_3a/pool_proj"
}
layer {
  name: "inception_3a/output"
  type: "Concat"
  bottom: "inception_3a/1x1"
  bottom: "inception_3a/3x3"
  bottom: "inception_3a/5x5"
  bottom: "inception_3a/pool_proj"
  top: "inception_3a/output"
}
layer {
  name: "inception_3b/1x1"
  type: "Convolution"
  bottom: "inception_3a/output"
  top: "inception_3b/1x1"
  param {
    lr_mult: 1
    decay_mult: 1
  }
  param {
    lr_mult: 2
    decay_mult: 0
  }
  convolution_param {
    num_output: 128
    kernel_size: 1
    weight_filler {
      type: "xavier"
    }
    bias_filler {
      type: "constant"
      value: 0.2
    }
  }
}
layer {
  name: "inception_3b/relu_1x1"
  type: "ReLU"
  bottom: "inception_3b/1x1"
  top: "inception_3b/1x1"
}
layer {
  name: "inception_3b/3x3_reduce"
  type: "Convolution"
  bottom: "inception_3a/output"
  top: "inception_3b/3x3_reduce"
  param {
    lr_mult: 1
    decay_mult: 1
  }
  param {
    lr_mult: 2
    decay_mult: 0
  }
  convolution_param {
    num_output: 128
    kernel_size: 1
    weight_filler {
      type: "xavier"
    }
    bias_filler {
      type: "constant"
      value: 0.2
    }
  }
}
layer {
  name: "inception_3b/relu_3x3_reduce"
  type: "ReLU"
  bottom: "inception_3b/3x3_reduce"
  top: "inception_3b/3x3_reduce"
}
layer {
  name: "inception_3b/3x3"
  type: "Convolution"
  bottom: "inception_3b/3x3_reduce"
  top: "inception_3b/3x3"
  param {
    lr_mult: 1
    decay_mult: 1
  }
  param {
    lr_mult: 2
    decay_mult: 0
  }
  convolution_param {
    num_output: 192
    pad: 1
    kernel_size: 3
    weight_filler {
      type: "xavier"
    }
    bias_filler {
      type: "constant"
      value: 0.2
    }
  }
}
layer {
  name: "inception_3b/relu_3x3"
  type: "ReLU"
  bottom: "inception_3b/3x3"
  top: "inception_3b/3x3"
}
layer {
  name: "inception_3b/5x5_reduce"
  type: "Convolution"
  bottom: "inception_3a/output"
  top: "inception_3b/5x5_reduce"
  param {
    lr_mult: 1
    decay_mult: 1
  }
  param {
    lr_mult: 2
    decay_mult: 0
  }
  convolution_param {
    num_output: 32
    kernel_size: 1
    weight_filler {
      type: "xavier"
    }
    bias_filler {
      type: "constant"
      value: 0.2
    }
  }
}
layer {
  name: "inception_3b/relu_5x5_reduce"
  type: "ReLU"
  bottom: "inception_3b/5x5_reduce"
  top: "inception_3b/5x5_reduce"
}
layer {
  name: "inception_3b/5x5"
  type: "Convolution"
  bottom: "inception_3b/5x5_reduce"
  top: "inception_3b/5x5"
  param {
    lr_mult: 1
    decay_mult: 1
  }
  param {
    lr_mult: 2
    decay_mult: 0
  }
  convolution_param {
    num_output: 96
    pad: 2
    kernel_size: 5
    weight_filler {
      type: "xavier"
    }
    bias_filler {
      type: "constant"
      value: 0.2
    }
  }
}
layer {
  name: "inception_3b/relu_5x5"
  type: "ReLU"
  bottom: "inception_3b/5x5"
  top: "inception_3b/5x5"
}
layer {
  name: "inception_3b/pool"
  type: "Pooling"
  bottom: "inception_3a/output"
  top: "inception_3b/pool"
  pooling_param {
    pool: MAX
    kernel_size: 3
    stride: 1
    pad: 1
  }
}
layer {
  name: "inception_3b/pool_proj"
  type: "Convolution"
  bottom: "inception_3b/pool"
  top: "inception_3b/pool_proj"
  param {
    lr_mult: 1
    decay_mult: 1
  }
  param {
    lr_mult: 2
    decay_mult: 0
  }
  convolution_param {
    num_output: 64
    kernel_size: 1
    weight_filler {
      type: "xavier"
    }
    bias_filler {
      type: "constant"
      value: 0.2
    }
  }
}
layer {
  name: "inception_3b/relu_pool_proj"
  type: "ReLU"
  bottom: "inception_3b/pool_proj"
  top: "inception_3b/pool_proj"
}
layer {
  name: "inception_3b/output"
  type: "Concat"
  bottom: "inception_3b/1x1"
  bottom: "inception_3b/3x3"
  bottom: "inception_3b/5x5"
  bottom: "inception_3b/pool_proj"
  top: "inception_3b/output"
}
layer {
  name: "pool3/3x3_s2"
  type: "Pooling"
  bottom: "inception_3b/output"
  top: "pool3/3x3_s2"
  pooling_param {
    pool: MAX
    kernel_size: 3
    stride: 2
  }
}
layer {
  name: "inception_4a/1x1"
  type: "Convolution"
  bottom: "pool3/3x3_s2"
  top: "inception_4a/1x1"
  param {
    lr_mult: 1
    decay_mult: 1
  }
  param {
    lr_mult: 2
    decay_mult: 0
  }
  convolution_param {
    num_output: 192
    kernel_size: 1
    weight_filler {
      type: "xavier"
    }
    bias_filler {
      type: "constant"
      value: 0.2
    }
  }
}
layer {
  name: "inception_4a/relu_1x1"
  type: "ReLU"
  bottom: "inception_4a/1x1"
  top: "inception_4a/1x1"
}
layer {
  name: "inception_4a/3x3_reduce"
  type: "Convolution"
  bottom: "pool3/3x3_s2"
  top: "inception_4a/3x3_reduce"
  param {
    lr_mult: 1
    decay_mult: 1
  }
  param {
    lr_mult: 2
    decay_mult: 0
  }
  convolution_param {
    num_output: 96
    kernel_size: 1
    weight_filler {
      type: "xavier"
    }
    bias_filler {
      type: "constant"
      value: 0.2
    }
  }
}
layer {
  name: "inception_4a/relu_3x3_reduce"
  type: "ReLU"
  bottom: "inception_4a/3x3_reduce"
  top: "inception_4a/3x3_reduce"
}
layer {
  name: "inception_4a/3x3"
  type: "Convolution"
  bottom: "inception_4a/3x3_reduce"
  top: "inception_4a/3x3"
  param {
    lr_mult: 1
    decay_mult: 1
  }
  param {
    lr_mult: 2
    decay_mult: 0
  }
  convolution_param {
    num_output: 208
    pad: 1
    kernel_size: 3
    weight_filler {
      type: "xavier"
    }
    bias_filler {
      type: "constant"
      value: 0.2
    }
  }
}
layer {
  name: "inception_4a/relu_3x3"
  type: "ReLU"
  bottom: "inception_4a/3x3"
  top: "inception_4a/3x3"
}
layer {
  name: "inception_4a/5x5_reduce"
  type: "Convolution"
  bottom: "pool3/3x3_s2"
  top: "inception_4a/5x5_reduce"
  param {
    lr_mult: 1
    decay_mult: 1
  }
  param {
    lr_mult: 2
    decay_mult: 0
  }
  convolution_param {
    num_output: 16
    kernel_size: 1
    weight_filler {
      type: "xavier"
    }
    bias_filler {
      type: "constant"
      value: 0.2
    }
  }
}
layer {
  name: "inception_4a/relu_5x5_reduce"
  type: "ReLU"
  bottom: "inception_4a/5x5_reduce"
  top: "inception_4a/5x5_reduce"
}
layer {
  name: "inception_4a/5x5"
  type: "Convolution"
  bottom: "inception_4a/5x5_reduce"
  top: "inception_4a/5x5"
  param {
    lr_mult: 1
    decay_mult: 1
  }
  param {
    lr_mult: 2
    decay_mult: 0
  }
  convolution_param {
    num_output: 48
    pad: 2
    kernel_size: 5
    weight_filler {
      type: "xavier"
    }
    bias_filler {
      type: "constant"
      value: 0.2
    }
  }
}
layer {
  name: "inception_4a/relu_5x5"
  type: "ReLU"
  bottom: "inception_4a/5x5"
  top: "inception_4a/5x5"
}
layer {
  name: "inception_4a/pool"
  type: "Pooling"
  bottom: "pool3/3x3_s2"
  top: "inception_4a/pool"
  pooling_param {
    pool: MAX
    kernel_size: 3
    stride: 1
    pad: 1
  }
}
layer {
  name: "inception_4a/pool_proj"
  type: "Convolution"
  bottom: "inception_4a/pool"
  top: "inception_4a/pool_proj"
  param {
    lr_mult: 1
    decay_mult: 1
  }
  param {
    lr_mult: 2
    decay_mult: 0
  }
  convolution_param {
    num_output: 64
    kernel_size: 1
    weight_filler {
      type: "xavier"
    }
    bias_filler {
      type: "constant"
      value: 0.2
    }
  }
}
layer {
  name: "inception_4a/relu_pool_proj"
  type: "ReLU"
  bottom: "inception_4a/pool_proj"
  top: "inception_4a/pool_proj"
}
layer {
  name: "inception_4a/output"
  type: "Concat"
  bottom: "inception_4a/1x1"
  bottom: "inception_4a/3x3"
  bottom: "inception_4a/5x5"
  bottom: "inception_4a/pool_proj"
  top: "inception_4a/output"
}
layer {
  name: "loss1/ave_pool"
  type: "Pooling"
  bottom: "inception_4a/output"
  top: "loss1/ave_pool"
  pooling_param {
    pool: AVE
    kernel_size: 5
    stride: 3
  }
}
layer {
  name: "loss1/conv"
  type: "Convolution"
  bottom: "loss1/ave_pool"
  top: "loss1/conv"
  param {
    lr_mult: 1
    decay_mult: 1
  }
  param {
    lr_mult: 2
    decay_mult: 0
  }
  convolution_param {
    num_output: 128
    kernel_size: 1
    weight_filler {
      type: "xavier"
    }
    bias_filler {
      type: "constant"
      value: 0.2
    }
  }
}
layer {
  name: "loss1/relu_conv"
  type: "ReLU"
  bottom: "loss1/conv"
  top: "loss1/conv"
}
layer {
  name: "loss1/fc"
  type: "InnerProduct"
  bottom: "loss1/conv"
  top: "loss1/fc"
  param {
    lr_mult: 1
    decay_mult: 1
  }
  param {
    lr_mult: 2
    decay_mult: 0
  }
  inner_product_param {
    num_output: 1024
    weight_filler {
      type: "xavier"
    }
    bias_filler {
      type: "constant"
      value: 0.2
    }
  }
}
layer {
  name: "loss1/relu_fc"
  type: "ReLU"
  bottom: "loss1/fc"
  top: "loss1/fc"
}
layer {
  name: "loss1/drop_fc"
  type: "Dropout"
  bottom: "loss1/fc"
  top: "loss1/fc"
  dropout_param {
    dropout_ratio: 0.7
  }
}
layer {
  name: "loss1/classifier_kaggle"
  type: "InnerProduct"
  bottom: "loss1/fc"
  top: "loss1/classifier_kaggle"
  param {
    lr_mult: 1
    decay_mult: 1
  }
  param {
    lr_mult: 2
    decay_mult: 0
  }
  inner_product_param {
    num_output: 447
    weight_filler {
      type: "xavier"
    }
    bias_filler {
      type: "constant"
      value: 0
    }
  }
}
layer {
  name: "loss1/loss"
  type: "SoftmaxWithLoss"
  bottom: "loss1/classifier_kaggle"
  bottom: "label"
  top: "loss1/loss1"
  loss_weight: 0.3
}
layer {
  name: "loss1/top-1"
  type: "Accuracy"
  bottom: "loss1/classifier_kaggle"
  bottom: "label"
  top: "loss1/top-1"
  include {
    phase: TEST
  }
}
layer {
  name: "loss1/top-5"
  type: "Accuracy"
  bottom: "loss1/classifier_kaggle"
  bottom: "label"
  top: "loss1/top-5"
  include {
    phase: TEST
  }
  accuracy_param {
    top_k: 5
  }
}
layer {
  name: "inception_4b/1x1"
  type: "Convolution"
  bottom: "inception_4a/output"
  top: "inception_4b/1x1"
  param {
    lr_mult: 1
    decay_mult: 1
  }
  param {
    lr_mult: 2
    decay_mult: 0
  }
  convolution_param {
    num_output: 160
    kernel_size: 1
    weight_filler {
      type: "xavier"
    }
    bias_filler {
      type: "constant"
      value: 0.2
    }
  }
}
layer {
  name: "inception_4b/relu_1x1"
  type: "ReLU"
  bottom: "inception_4b/1x1"
  top: "inception_4b/1x1"
}
layer {
  name: "inception_4b/3x3_reduce"
  type: "Convolution"
  bottom: "inception_4a/output"
  top: "inception_4b/3x3_reduce"
  param {
    lr_mult: 1
    decay_mult: 1
  }
  param {
    lr_mult: 2
    decay_mult: 0
  }
  convolution_param {
    num_output: 112
    kernel_size: 1
    weight_filler {
      type: "xavier"
    }
    bias_filler {
      type: "constant"
      value: 0.2
    }
  }
}
layer {
  name: "inception_4b/relu_3x3_reduce"
  type: "ReLU"
  bottom: "inception_4b/3x3_reduce"
  top: "inception_4b/3x3_reduce"
}
layer {
  name: "inception_4b/3x3"
  type: "Convolution"
  bottom: "inception_4b/3x3_reduce"
  top: "inception_4b/3x3"
  param {
    lr_mult: 1
    decay_mult: 1
  }
  param {
    lr_mult: 2
    decay_mult: 0
  }
  convolution_param {
    num_output: 224
    pad: 1
    kernel_size: 3
    weight_filler {
      type: "xavier"
    }
    bias_filler {
      type: "constant"
      value: 0.2
    }
  }
}
layer {
  name: "inception_4b/relu_3x3"
  type: "ReLU"
  bottom: "inception_4b/3x3"
  top: "inception_4b/3x3"
}
layer {
  name: "inception_4b/5x5_reduce"
  type: "Convolution"
  bottom: "inception_4a/output"
  top: "inception_4b/5x5_reduce"
  param {
    lr_mult: 1
    decay_mult: 1
  }
  param {
    lr_mult: 2
    decay_mult: 0
  }
  convolution_param {
    num_output: 24
    kernel_size: 1
    weight_filler {
      type: "xavier"
    }
    bias_filler {
      type: "constant"
      value: 0.2
    }
  }
}
layer {
  name: "inception_4b/relu_5x5_reduce"
  type: "ReLU"
  bottom: "inception_4b/5x5_reduce"
  top: "inception_4b/5x5_reduce"
}
layer {
  name: "inception_4b/5x5"
  type: "Convolution"
  bottom: "inception_4b/5x5_reduce"
  top: "inception_4b/5x5"
  param {
    lr_mult: 1
    decay_mult: 1
  }
  param {
    lr_mult: 2
    decay_mult: 0
  }
  convolution_param {
    num_output: 64
    pad: 2
    kernel_size: 5
    weight_filler {
      type: "xavier"
    }
    bias_filler {
      type: "constant"
      value: 0.2
    }
  }
}
layer {
  name: "inception_4b/relu_5x5"
  type: "ReLU"
  bottom: "inception_4b/5x5"
  top: "inception_4b/5x5"
}
layer {
  name: "inception_4b/pool"
  type: "Pooling"
  bottom: "inception_4a/output"
  top: "inception_4b/pool"
  pooling_param {
    pool: MAX
    kernel_size: 3
    stride: 1
    pad: 1
  }
}
layer {
  name: "inception_4b/pool_proj"
  type: "Convolution"
  bottom: "inception_4b/pool"
  top: "inception_4b/pool_proj"
  param {
    lr_mult: 1
    decay_mult: 1
  }
  param {
    lr_mult: 2
    decay_mult: 0
  }
  convolution_param {
    num_output: 64
    kernel_size: 1
    weight_filler {
      type: "xavier"
    }
    bias_filler {
      type: "constant"
      value: 0.2
    }
  }
}
layer {
  name: "inception_4b/relu_pool_proj"
  type: "ReLU"
  bottom: "inception_4b/pool_proj"
  top: "inception_4b/pool_proj"
}
layer {
  name: "inception_4b/output"
  type: "Concat"
  bottom: "inception_4b/1x1"
  bottom: "inception_4b/3x3"
  bottom: "inception_4b/5x5"
  bottom: "inception_4b/pool_proj"
  top: "inception_4b/output"
}
layer {
  name: "inception_4c/1x1"
  type: "Convolution"
  bottom: "inception_4b/output"
  top: "inception_4c/1x1"
  param {
    lr_mult: 1
    decay_mult: 1
  }
  param {
    lr_mult: 2
    decay_mult: 0
  }
  convolution_param {
    num_output: 128
    kernel_size: 1
    weight_filler {
      type: "xavier"
    }
    bias_filler {
      type: "constant"
      value: 0.2
    }
  }
}
layer {
  name: "inception_4c/relu_1x1"
  type: "ReLU"
  bottom: "inception_4c/1x1"
  top: "inception_4c/1x1"
}
layer {
  name: "inception_4c/3x3_reduce"
  type: "Convolution"
  bottom: "inception_4b/output"
  top: "inception_4c/3x3_reduce"
  param {
    lr_mult: 1
    decay_mult: 1
  }
  param {
    lr_mult: 2
    decay_mult: 0
  }
  convolution_param {
    num_output: 128
    kernel_size: 1
    weight_filler {
      type: "xavier"
    }
    bias_filler {
      type: "constant"
      value: 0.2
    }
  }
}
layer {
  name: "inception_4c/relu_3x3_reduce"
  type: "ReLU"
  bottom: "inception_4c/3x3_reduce"
  top: "inception_4c/3x3_reduce"
}
layer {
  name: "inception_4c/3x3"
  type: "Convolution"
  bottom: "inception_4c/3x3_reduce"
  top: "inception_4c/3x3"
  param {
    lr_mult: 1
    decay_mult: 1
  }
  param {
    lr_mult: 2
    decay_mult: 0
  }
  convolution_param {
    num_output: 256
    pad: 1
    kernel_size: 3
    weight_filler {
      type: "xavier"
    }
    bias_filler {
      type: "constant"
      value: 0.2
    }
  }
}
layer {
  name: "inception_4c/relu_3x3"
  type: "ReLU"
  bottom: "inception_4c/3x3"
  top: "inception_4c/3x3"
}
layer {
  name: "inception_4c/5x5_reduce"
  type: "Convolution"
  bottom: "inception_4b/output"
  top: "inception_4c/5x5_reduce"
  param {
    lr_mult: 1
    decay_mult: 1
  }
  param {
    lr_mult: 2
    decay_mult: 0
  }
  convolution_param {
    num_output: 24
    kernel_size: 1
    weight_filler {
      type: "xavier"
    }
    bias_filler {
      type: "constant"
      value: 0.2
    }
  }
}
layer {
  name: "inception_4c/relu_5x5_reduce"
  type: "ReLU"
  bottom: "inception_4c/5x5_reduce"
  top: "inception_4c/5x5_reduce"
}
layer {
  name: "inception_4c/5x5"
  type: "Convolution"
  bottom: "inception_4c/5x5_reduce"
  top: "inception_4c/5x5"
  param {
    lr_mult: 1
    decay_mult: 1
  }
  param {
    lr_mult: 2
    decay_mult: 0
  }
  convolution_param {
    num_output: 64
    pad: 2
    kernel_size: 5
    weight_filler {
      type: "xavier"
    }
    bias_filler {
      type: "constant"
      value: 0.2
    }
  }
}
layer {
  name: "inception_4c/relu_5x5"
  type: "ReLU"
  bottom: "inception_4c/5x5"
  top: "inception_4c/5x5"
}
layer {
  name: "inception_4c/pool"
  type: "Pooling"
  bottom: "inception_4b/output"
  top: "inception_4c/pool"
  pooling_param {
    pool: MAX
    kernel_size: 3
    stride: 1
    pad: 1
  }
}
layer {
  name: "inception_4c/pool_proj"
  type: "Convolution"
  bottom: "inception_4c/pool"
  top: "inception_4c/pool_proj"
  param {
    lr_mult: 1
    decay_mult: 1
  }
  param {
    lr_mult: 2
    decay_mult: 0
  }
  convolution_param {
    num_output: 64
    kernel_size: 1
    weight_filler {
      type: "xavier"
    }
    bias_filler {
      type: "constant"
      value: 0.2
    }
  }
}
layer {
  name: "inception_4c/relu_pool_proj"
  type: "ReLU"
  bottom: "inception_4c/pool_proj"
  top: "inception_4c/pool_proj"
}
layer {
  name: "inception_4c/output"
  type: "Concat"
  bottom: "inception_4c/1x1"
  bottom: "inception_4c/3x3"
  bottom: "inception_4c/5x5"
  bottom: "inception_4c/pool_proj"
  top: "inception_4c/output"
}
layer {
  name: "inception_4d/1x1"
  type: "Convolution"
  bottom: "inception_4c/output"
  top: "inception_4d/1x1"
  param {
    lr_mult: 1
    decay_mult: 1
  }
  param {
    lr_mult: 2
    decay_mult: 0
  }
  convolution_param {
    num_output: 112
    kernel_size: 1
    weight_filler {
      type: "xavier"
    }
    bias_filler {
      type: "constant"
      value: 0.2
    }
  }
}
layer {
  name: "inception_4d/relu_1x1"
  type: "ReLU"
  bottom: "inception_4d/1x1"
  top: "inception_4d/1x1"
}
layer {
  name: "inception_4d/3x3_reduce"
  type: "Convolution"
  bottom: "inception_4c/output"
  top: "inception_4d/3x3_reduce"
  param {
    lr_mult: 1
    decay_mult: 1
  }
  param {
    lr_mult: 2
    decay_mult: 0
  }
  convolution_param {
    num_output: 144
    kernel_size: 1
    weight_filler {
      type: "xavier"
    }
    bias_filler {
      type: "constant"
      value: 0.2
    }
  }
}
layer {
  name: "inception_4d/relu_3x3_reduce"
  type: "ReLU"
  bottom: "inception_4d/3x3_reduce"
  top: "inception_4d/3x3_reduce"
}
layer {
  name: "inception_4d/3x3"
  type: "Convolution"
  bottom: "inception_4d/3x3_reduce"
  top: "inception_4d/3x3"
  param {
    lr_mult: 1
    decay_mult: 1
  }
  param {
    lr_mult: 2
    decay_mult: 0
  }
  convolution_param {
    num_output: 288
    pad: 1
    kernel_size: 3
    weight_filler {
      type: "xavier"
    }
    bias_filler {
      type: "constant"
      value: 0.2
    }
  }
}
layer {
  name: "inception_4d/relu_3x3"
  type: "ReLU"
  bottom: "inception_4d/3x3"
  top: "inception_4d/3x3"
}
layer {
  name: "inception_4d/5x5_reduce"
  type: "Convolution"
  bottom: "inception_4c/output"
  top: "inception_4d/5x5_reduce"
  param {
    lr_mult: 1
    decay_mult: 1
  }
  param {
    lr_mult: 2
    decay_mult: 0
  }
  convolution_param {
    num_output: 32
    kernel_size: 1
    weight_filler {
      type: "xavier"
    }
    bias_filler {
      type: "constant"
      value: 0.2
    }
  }
}
layer {
  name: "inception_4d/relu_5x5_reduce"
  type: "ReLU"
  bottom: "inception_4d/5x5_reduce"
  top: "inception_4d/5x5_reduce"
}
layer {
  name: "inception_4d/5x5"
  type: "Convolution"
  bottom: "inception_4d/5x5_reduce"
  top: "inception_4d/5x5"
  param {
    lr_mult: 1
    decay_mult: 1
  }
  param {
    lr_mult: 2
    decay_mult: 0
  }
  convolution_param {
    num_output: 64
    pad: 2
    kernel_size: 5
    weight_filler {
      type: "xavier"
    }
    bias_filler {
      type: "constant"
      value: 0.2
    }
  }
}
layer {
  name: "inception_4d/relu_5x5"
  type: "ReLU"
  bottom: "inception_4d/5x5"
  top: "inception_4d/5x5"
}
layer {
  name: "inception_4d/pool"
  type: "Pooling"
  bottom: "inception_4c/output"
  top: "inception_4d/pool"
  pooling_param {
    pool: MAX
    kernel_size: 3
    stride: 1
    pad: 1
  }
}
layer {
  name: "inception_4d/pool_proj"
  type: "Convolution"
  bottom: "inception_4d/pool"
  top: "inception_4d/pool_proj"
  param {
    lr_mult: 1
    decay_mult: 1
  }
  param {
    lr_mult: 2
    decay_mult: 0
  }
  convolution_param {
    num_output: 64
    kernel_size: 1
    weight_filler {
      type: "xavier"
    }
    bias_filler {
      type: "constant"
      value: 0.2
    }
  }
}
layer {
  name: "inception_4d/relu_pool_proj"
  type: "ReLU"
  bottom: "inception_4d/pool_proj"
  top: "inception_4d/pool_proj"
}
layer {
  name: "inception_4d/output"
  type: "Concat"
  bottom: "inception_4d/1x1"
  bottom: "inception_4d/3x3"
  bottom: "inception_4d/5x5"
  bottom: "inception_4d/pool_proj"
  top: "inception_4d/output"
}
layer {
  name: "loss2/ave_pool"
  type: "Pooling"
  bottom: "inception_4d/output"
  top: "loss2/ave_pool"
  pooling_param {
    pool: AVE
    kernel_size: 5
    stride: 3
  }
}
layer {
  name: "loss2/conv"
  type: "Convolution"
  bottom: "loss2/ave_pool"
  top: "loss2/conv"
  param {
    lr_mult: 1
    decay_mult: 1
  }
  param {
    lr_mult: 2
    decay_mult: 0
  }
  convolution_param {
…
I1216 21:14:22.492878 25246 net.cpp:84] Creating Layer inception_4c/1x1
I1216 21:14:22.492888 25246 net.cpp:380] inception_4c/1x1 <- inception_4b/output_inception_4b/output_0_split_0
I1216 21:14:22.492902 25246 net.cpp:338] inception_4c/1x1 -> inception_4c/1x1
I1216 21:14:22.492915 25246 net.cpp:113] Setting up inception_4c/1x1
I1216 21:14:22.495183 25246 net.cpp:120] Top shape: 50 128 14 14 (1254400)
I1216 21:14:22.495213 25246 layer_factory.hpp:74] Creating layer inception_4c/relu_1x1
I1216 21:14:22.495228 25246 net.cpp:84] Creating Layer inception_4c/relu_1x1
I1216 21:14:22.495239 25246 net.cpp:380] inception_4c/relu_1x1 <- inception_4c/1x1
I1216 21:14:22.495256 25246 net.cpp:327] inception_4c/relu_1x1 -> inception_4c/1x1 (in-place)
I1216 21:14:22.495271 25246 net.cpp:113] Setting up inception_4c/relu_1x1
I1216 21:14:22.495666 25246 net.cpp:120] Top shape: 50 128 14 14 (1254400)
I1216 21:14:22.495684 25246 layer_factory.hpp:74] Creating layer inception_4c/3x3_reduce
I1216 21:14:22.495700 25246 net.cpp:84] Creating Layer inception_4c/3x3_reduce
I1216 21:14:22.495712 25246 net.cpp:380] inception_4c/3x3_reduce <- inception_4b/output_inception_4b/output_0_split_1
I1216 21:14:22.495738 25246 net.cpp:338] inception_4c/3x3_reduce -> inception_4c/3x3_reduce
I1216 21:14:22.495769 25246 net.cpp:113] Setting up inception_4c/3x3_reduce
I1216 21:14:22.497967 25246 net.cpp:120] Top shape: 50 128 14 14 (1254400)
I1216 21:14:22.497997 25246 layer_factory.hpp:74] Creating layer inception_4c/relu_3x3_reduce
I1216 21:14:22.498011 25246 net.cpp:84] Creating Layer inception_4c/relu_3x3_reduce
I1216 21:14:22.498021 25246 net.cpp:380] inception_4c/relu_3x3_reduce <- inception_4c/3x3_reduce
I1216 21:14:22.498035 25246 net.cpp:327] inception_4c/relu_3x3_reduce -> inception_4c/3x3_reduce (in-place)
I1216 21:14:22.498050 25246 net.cpp:113] Setting up inception_4c/relu_3x3_reduce
I1216 21:14:22.498186 25246 net.cpp:120] Top shape: 50 128 14 14 (1254400)
I1216 21:14:22.498198 25246 layer_factory.hpp:74] Creating layer inception_4c/3x3
I1216 21:14:22.498215 25246 net.cpp:84] Creating Layer inception_4c/3x3
I1216 21:14:22.498225 25246 net.cpp:380] inception_4c/3x3 <- inception_4c/3x3_reduce
I1216 21:14:22.498239 25246 net.cpp:338] inception_4c/3x3 -> inception_4c/3x3
I1216 21:14:22.498253 25246 net.cpp:113] Setting up inception_4c/3x3
I1216 21:14:22.510087 25246 net.cpp:120] Top shape: 50 256 14 14 (2508800)
I1216 21:14:22.510138 25246 layer_factory.hpp:74] Creating layer inception_4c/relu_3x3
I1216 21:14:22.510154 25246 net.cpp:84] Creating Layer inception_4c/relu_3x3
I1216 21:14:22.510164 25246 net.cpp:380] inception_4c/relu_3x3 <- inception_4c/3x3
I1216 21:14:22.510176 25246 net.cpp:327] inception_4c/relu_3x3 -> inception_4c/3x3 (in-place)
I1216 21:14:22.510190 25246 net.cpp:113] Setting up inception_4c/relu_3x3
I1216 21:14:22.510332 25246 net.cpp:120] Top shape: 50 256 14 14 (2508800)
I1216 21:14:22.510344 25246 layer_factory.hpp:74] Creating layer inception_4c/5x5_reduce
I1216 21:14:22.510360 25246 net.cpp:84] Creating Layer inception_4c/5x5_reduce
I1216 21:14:22.510370 25246 net.cpp:380] inception_4c/5x5_reduce <- inception_4b/output_inception_4b/output_0_split_2
I1216 21:14:22.510385 25246 net.cpp:338] inception_4c/5x5_reduce -> inception_4c/5x5_reduce
I1216 21:14:22.510401 25246 net.cpp:113] Setting up inception_4c/5x5_reduce
I1216 21:14:22.511334 25246 net.cpp:120] Top shape: 50 24 14 14 (235200)
I1216 21:14:22.511360 25246 layer_factory.hpp:74] Creating layer inception_4c/relu_5x5_reduce
I1216 21:14:22.511375 25246 net.cpp:84] Creating Layer inception_4c/relu_5x5_reduce
I1216 21:14:22.511386 25246 net.cpp:380] inception_4c/relu_5x5_reduce <- inception_4c/5x5_reduce
I1216 21:14:22.511399 25246 net.cpp:327] inception_4c/relu_5x5_reduce -> inception_4c/5x5_reduce (in-place)
I1216 21:14:22.511412 25246 net.cpp:113] Setting up inception_4c/relu_5x5_reduce
I1216 21:14:22.511790 25246 net.cpp:120] Top shape: 50 24 14 14 (235200)
I1216 21:14:22.511808 25246 layer_factory.hpp:74] Creating layer inception_4c/5x5
I1216 21:14:22.511828 25246 net.cpp:84] Creating Layer inception_4c/5x5
I1216 21:14:22.511838 25246 net.cpp:380] inception_4c/5x5 <- inception_4c/5x5_reduce
I1216 21:14:22.511852 25246 net.cpp:338] inception_4c/5x5 -> inception_4c/5x5
I1216 21:14:22.511868 25246 net.cpp:113] Setting up inception_4c/5x5
I1216 21:14:22.513360 25246 net.cpp:120] Top shape: 50 64 14 14 (627200)
I1216 21:14:22.513386 25246 layer_factory.hpp:74] Creating layer inception_4c/relu_5x5
I1216 21:14:22.513398 25246 net.cpp:84] Creating Layer inception_4c/relu_5x5
I1216 21:14:22.513408 25246 net.cpp:380] inception_4c/relu_5x5 <- inception_4c/5x5
I1216 21:14:22.513423 25246 net.cpp:327] inception_4c/relu_5x5 -> inception_4c/5x5 (in-place)
I1216 21:14:22.513437 25246 net.cpp:113] Setting up inception_4c/relu_5x5
I1216 21:14:22.513566 25246 net.cpp:120] Top shape: 50 64 14 14 (627200)
I1216 21:14:22.513576 25246 layer_factory.hpp:74] Creating layer inception_4c/pool
I1216 21:14:22.513586 25246 layer_factory.cpp:56] CUDNN does not support padding or multiple tops. Using Caffe's own pooling layer.
I1216 21:14:22.513604 25246 net.cpp:84] Creating Layer inception_4c/pool
I1216 21:14:22.513612 25246 net.cpp:380] inception_4c/pool <- inception_4b/output_inception_4b/output_0_split_3
I1216 21:14:22.513648 25246 net.cpp:338] inception_4c/pool -> inception_4c/pool
I1216 21:14:22.513664 25246 net.cpp:113] Setting up inception_4c/pool
I1216 21:14:22.513679 25246 net.cpp:120] Top shape: 50 512 14 14 (5017600)
I1216 21:14:22.513687 25246 layer_factory.hpp:74] Creating layer inception_4c/pool_proj
I1216 21:14:22.513705 25246 net.cpp:84] Creating Layer inception_4c/pool_proj
I1216 21:14:22.513713 25246 net.cpp:380] inception_4c/pool_proj <- inception_4c/pool
I1216 21:14:22.513728 25246 net.cpp:338] inception_4c/pool_proj -> inception_4c/pool_proj
I1216 21:14:22.513742 25246 net.cpp:113] Setting up inception_4c/pool_proj
I1216 21:14:22.518118 25246 net.cpp:120] Top shape: 50 64 14 14 (627200)
I1216 21:14:22.518154 25246 layer_factory.hpp:74] Creating layer inception_4c/relu_pool_proj
I1216 21:14:22.518172 25246 net.cpp:84] Creating Layer inception_4c/relu_pool_proj
I1216 21:14:22.518183 25246 net.cpp:380] inception_4c/relu_pool_proj <- inception_4c/pool_proj
I1216 21:14:22.518196 25246 net.cpp:327] inception_4c/relu_pool_proj -> inception_4c/pool_proj (in-place)
I1216 21:14:22.518218 25246 net.cpp:113] Setting up inception_4c/relu_pool_proj
I1216 21:14:22.518347 25246 net.cpp:120] Top shape: 50 64 14 14 (627200)
I1216 21:14:22.518358 25246 layer_factory.hpp:74] Creating layer inception_4c/output
I1216 21:14:22.518373 25246 net.cpp:84] Creating Layer inception_4c/output
I1216 21:14:22.518381 25246 net.cpp:380] inception_4c/output <- inception_4c/1x1
I1216 21:14:22.518393 25246 net.cpp:380] inception_4c/output <- inception_4c/3x3
I1216 21:14:22.518404 25246 net.cpp:380] inception_4c/output <- inception_4c/5x5
I1216 21:14:22.518412 25246 net.cpp:380] inception_4c/output <- inception_4c/pool_proj
I1216 21:14:22.518424 25246 net.cpp:338] inception_4c/output -> inception_4c/output
I1216 21:14:22.518436 25246 net.cpp:113] Setting up inception_4c/output
I1216 21:14:22.518451 25246 net.cpp:120] Top shape: 50 512 14 14 (5017600)
I1216 21:14:22.518460 25246 layer_factory.hpp:74] Creating layer inception_4c/output_inception_4c/output_0_split
I1216 21:14:22.518471 25246 net.cpp:84] Creating Layer inception_4c/output_inception_4c/output_0_split
I1216 21:14:22.518479 25246 net.cpp:380] inception_4c/output_inception_4c/output_0_split <- inception_4c/output
I1216 21:14:22.518493 25246 net.cpp:338] inception_4c/output_inception_4c/output_0_split -> inception_4c/output_inception_4c/output_0_split_0
I1216 21:14:22.518507 25246 net.cpp:338] inception_4c/output_inception_4c/output_0_split -> inception_4c/output_inception_4c/output_0_split_1
I1216 21:14:22.518520 25246 net.cpp:338] inception_4c/output_inception_4c/output_0_split -> inception_4c/output_inception_4c/output_0_split_2
I1216 21:14:22.518533 25246 net.cpp:338] inception_4c/output_inception_4c/output_0_split -> inception_4c/output_inception_4c/output_0_split_3
I1216 21:14:22.518544 25246 net.cpp:113] Setting up inception_4c/output_inception_4c/output_0_split
I1216 21:14:22.518558 25246 net.cpp:120] Top shape: 50 512 14 14 (5017600)
I1216 21:14:22.518568 25246 net.cpp:120] Top shape: 50 512 14 14 (5017600)
I1216 21:14:22.518578 25246 net.cpp:120] Top shape: 50 512 14 14 (5017600)
I1216 21:14:22.518586 25246 net.cpp:120] Top shape: 50 512 14 14 (5017600)
I1216 21:14:22.518594 25246 layer_factory.hpp:74] Creating layer inception_4d/1x1
I1216 21:14:22.518611 25246 net.cpp:84] Creating Layer inception_4d/1x1
I1216 21:14:22.518620 25246 net.cpp:380] inception_4d/1x1 <- inception_4c/output_inception_4c/output_0_split_0
I1216 21:14:22.518635 25246 net.cpp:338] inception_4d/1x1 -> inception_4d/1x1
I1216 21:14:22.518648 25246 net.cpp:113] Setting up inception_4d/1x1
I1216 21:14:22.520526 25246 net.cpp:120] Top shape: 50 112 14 14 (1097600)
I1216 21:14:22.520553 25246 layer_factory.hpp:74] Creating layer inception_4d/relu_1x1
I1216 21:14:22.520568 25246 net.cpp:84] Creating Layer inception_4d/relu_1x1
I1216 21:14:22.520578 25246 net.cpp:380] inception_4d/relu_1x1 <- inception_4d/1x1
I1216 21:14:22.520599 25246 net.cpp:327] inception_4d/relu_1x1 -> inception_4d/1x1 (in-place)
I1216 21:14:22.520627 25246 net.cpp:113] Setting up inception_4d/relu_1x1
I1216 21:14:22.520751 25246 net.cpp:120] Top shape: 50 112 14 14 (1097600)
I1216 21:14:22.520762 25246 layer_factory.hpp:74] Creating layer inception_4d/3x3_reduce
I1216 21:14:22.520778 25246 net.cpp:84] Creating Layer inception_4d/3x3_reduce
I1216 21:14:22.520787 25246 net.cpp:380] inception_4d/3x3_reduce <- inception_4c/output_inception_4c/output_0_split_1
I1216 21:14:22.520804 25246 net.cpp:338] inception_4d/3x3_reduce -> inception_4d/3x3_reduce
I1216 21:14:22.520819 25246 net.cpp:113] Setting up inception_4d/3x3_reduce
I1216 21:14:22.522979 25246 net.cpp:120] Top shape: 50 144 14 14 (1411200)
I1216 21:14:22.523003 25246 layer_factory.hpp:74] Creating layer inception_4d/relu_3x3_reduce
I1216 21:14:22.523018 25246 net.cpp:84] Creating Layer inception_4d/relu_3x3_reduce
I1216 21:14:22.523028 25246 net.cpp:380] inception_4d/relu_3x3_reduce <- inception_4d/3x3_reduce
I1216 21:14:22.523039 25246 net.cpp:327] inception_4d/relu_3x3_reduce -> inception_4d/3x3_reduce (in-place)
I1216 21:14:22.523052 25246 net.cpp:113] Setting up inception_4d/relu_3x3_reduce
I1216 21:14:22.523412 25246 net.cpp:120] Top shape: 50 144 14 14 (1411200)
I1216 21:14:22.523430 25246 layer_factory.hpp:74] Creating layer inception_4d/3x3
I1216 21:14:22.523447 25246 net.cpp:84] Creating Layer inception_4d/3x3
I1216 21:14:22.523457 25246 net.cpp:380] inception_4d/3x3 <- inception_4d/3x3_reduce
I1216 21:14:22.523470 25246 net.cpp:338] inception_4d/3x3 -> inception_4d/3x3
I1216 21:14:22.523485 25246 net.cpp:113] Setting up inception_4d/3x3
I1216 21:14:22.531380 25246 net.cpp:120] Top shape: 50 288 14 14 (2822400)
I1216 21:14:22.531409 25246 layer_factory.hpp:74] Creating layer inception_4d/relu_3x3
I1216 21:14:22.531421 25246 net.cpp:84] Creating Layer inception_4d/relu_3x3
I1216 21:14:22.531430 25246 net.cpp:380] inception_4d/relu_3x3 <- inception_4d/3x3
I1216 21:14:22.531445 25246 net.cpp:327] inception_4d/relu_3x3 -> inception_4d/3x3 (in-place)
I1216 21:14:22.531457 25246 net.cpp:113] Setting up inception_4d/relu_3x3
I1216 21:14:22.531574 25246 net.cpp:120] Top shape: 50 288 14 14 (2822400)
I1216 21:14:22.531584 25246 layer_factory.hpp:74] Creating layer inception_4d/5x5_reduce
I1216 21:14:22.531599 25246 net.cpp:84] Creating Layer inception_4d/5x5_reduce
I1216 21:14:22.531608 25246 net.cpp:380] inception_4d/5x5_reduce <- inception_4c/output_inception_4c/output_0_split_2
I1216 21:14:22.531620 25246 net.cpp:338] inception_4d/5x5_reduce -> inception_4d/5x5_reduce
I1216 21:14:22.531633 25246 net.cpp:113] Setting up inception_4d/5x5_reduce
I1216 21:14:22.532637 25246 net.cpp:120] Top shape: 50 32 14 14 (313600)
I1216 21:14:22.532663 25246 layer_factory.hpp:74] Creating layer inception_4d/relu_5x5_reduce
I1216 21:14:22.532675 25246 net.cpp:84] Creating Layer inception_4d/relu_5x5_reduce
I1216 21:14:22.532685 25246 net.cpp:380] inception_4d/relu_5x5_reduce <- inception_4d/5x5_reduce
I1216 21:14:22.532696 25246 net.cpp:327] inception_4d/relu_5x5_reduce -> inception_4d/5x5_reduce (in-place)
I1216 21:14:22.532708 25246 net.cpp:113] Setting up inception_4d/relu_5x5_reduce
I1216 21:14:22.532824 25246 net.cpp:120] Top shape: 50 32 14 14 (313600)
I1216 21:14:22.532835 25246 layer_factory.hpp:74] Creating layer inception_4d/5x5
I1216 21:14:22.532848 25246 net.cpp:84] Creating Layer inception_4d/5x5
I1216 21:14:22.532856 25246 net.cpp:380] inception_4d/5x5 <- inception_4d/5x5_reduce
I1216 21:14:22.532871 25246 net.cpp:338] inception_4d/5x5 -> inception_4d/5x5
I1216 21:14:22.532884 25246 net.cpp:113] Setting up inception_4d/5x5
I1216 21:14:22.534533 25246 net.cpp:120] Top shape: 50 64 14 14 (627200)
I1216 21:14:22.534557 25246 layer_factory.hpp:74] Creating layer inception_4d/relu_5x5
I1216 21:14:22.534569 25246 net.cpp:84] Creating Layer inception_4d/relu_5x5
I1216 21:14:22.534579 25246 net.cpp:380] inception_4d/relu_5x5 <- inception_4d/5x5
I1216 21:14:22.534590 25246 net.cpp:327] inception_4d/relu_5x5 -> inception_4d/5x5 (in-place)
I1216 21:14:22.534610 25246 net.cpp:113] Setting up inception_4d/relu_5x5
I1216 21:14:22.534745 25246 net.cpp:120] Top shape: 50 64 14 14 (627200)
I1216 21:14:22.534755 25246 layer_factory.hpp:74] Creating layer inception_4d/pool
I1216 21:14:22.534765 25246 layer_factory.cpp:56] CUDNN does not support padding or multiple tops. Using Caffe's own pooling layer.
I1216 21:14:22.534777 25246 net.cpp:84] Creating Layer inception_4d/pool
I1216 21:14:22.534786 25246 net.cpp:380] inception_4d/pool <- inception_4c/output_inception_4c/output_0_split_3
I1216 21:14:22.534798 25246 net.cpp:338] inception_4d/pool -> inception_4d/pool
I1216 21:14:22.534811 25246 net.cpp:113] Setting up inception_4d/pool
I1216 21:14:22.534826 25246 net.cpp:120] Top shape: 50 512 14 14 (5017600)
I1216 21:14:22.534833 25246 layer_factory.hpp:74] Creating layer inception_4d/pool_proj
I1216 21:14:22.534848 25246 net.cpp:84] Creating Layer inception_4d/pool_proj
I1216 21:14:22.534857 25246 net.cpp:380] inception_4d/pool_proj <- inception_4d/pool
I1216 21:14:22.534870 25246 net.cpp:338] inception_4d/pool_proj -> inception_4d/pool_proj
I1216 21:14:22.534883 25246 net.cpp:113] Setting up inception_4d/pool_proj
I1216 21:14:22.536154 25246 net.cpp:120] Top shape: 50 64 14 14 (627200)
I1216 21:14:22.536177 25246 layer_factory.hpp:74] Creating layer inception_4d/relu_pool_proj
I1216 21:14:22.536190 25246 net.cpp:84] Creating Layer inception_4d/relu_pool_proj
I1216 21:14:22.536198 25246 net.cpp:380] inception_4d/relu_pool_proj <- inception_4d/pool_proj
I1216 21:14:22.536212 25246 net.cpp:327] inception_4d/relu_pool_proj -> inception_4d/pool_proj (in-place)
I1216 21:14:22.536226 25246 net.cpp:113] Setting up inception_4d/relu_pool_proj
I1216 21:14:22.536576 25246 net.cpp:120] Top shape: 50 64 14 14 (627200)
I1216 21:14:22.536595 25246 layer_factory.hpp:74] Creating layer inception_4d/output
I1216 21:14:22.536607 25246 net.cpp:84] Creating Layer inception_4d/output
I1216 21:14:22.536617 25246 net.cpp:380] inception_4d/output <- inception_4d/1x1
I1216 21:14:22.536628 25246 net.cpp:380] inception_4d/output <- inception_4d/3x3
I1216 21:14:22.536638 25246 net.cpp:380] inception_4d/output <- inception_4d/5x5
I1216 21:14:22.536646 25246 net.cpp:380] inception_4d/output <- inception_4d/pool_proj
I1216 21:14:22.536659 25246 net.cpp:338] inception_4d/output -> inception_4d/output
I1216 21:14:22.536672 25246 net.cpp:113] Setting up inception_4d/output
I1216 21:14:22.536686 25246 net.cpp:120] Top shape: 50 528 14 14 (5174400)
I1216 21:14:22.536694 25246 layer_factory.hpp:74] Creating layer inception_4d/output_inception_4d/output_0_split
I1216 21:14:22.536705 25246 net.cpp:84] Creating Layer inception_4d/output_inception_4d/output_0_split
I1216 21:14:22.536712 25246 net.cpp:380] inception_4d/output_inception_4d/output_0_split <- inception_4d/output
I1216 21:14:22.536723 25246 net.cpp:338] inception_4d/output_inception_4d/output_0_split -> inception_4d/output_inception_4d/output_0_split_0
I1216 21:14:22.536736 25246 net.cpp:338] inception_4d/output_inception_4d/output_0_split -> inception_4d/output_inception_4d/output_0_split_1
I1216 21:14:22.536748 25246 net.cpp:338] inception_4d/output_inception_4d/output_0_split -> inception_4d/output_inception_4d/output_0_split_2
I1216 21:14:22.536763 25246 net.cpp:338] inception_4d/output_inception_4d/output_0_split -> inception_4d/output_inception_4d/output_0_split_3
I1216 21:14:22.536774 25246 net.cpp:338] inception_4d/output_inception_4d/output_0_split -> inception_4d/output_inception_4d/output_0_split_4
I1216 21:14:22.536785 25246 net.cpp:113] Setting up inception_4d/output_inception_4d/output_0_split
I1216 21:14:22.536798 25246 net.cpp:120] Top shape: 50 528 14 14 (5174400)
I1216 21:14:22.536808 25246 net.cpp:120] Top shape: 50 528 14 14 (5174400)
I1216 21:14:22.536816 25246 net.cpp:120] Top shape: 50 528 14 14 (5174400)
I1216 21:14:22.536825 25246 net.cpp:120] Top shape: 50 528 14 14 (5174400)
I1216 21:14:22.536834 25246 net.cpp:120] Top shape: 50 528 14 14 (5174400)
I1216 21:14:22.536840 25246 layer_factory.hpp:74] Creating layer loss2/ave_pool
I1216 21:14:22.536861 25246 net.cpp:84] Creating Layer loss2/ave_pool
I1216 21:14:22.536880 25246 net.cpp:380] loss2/ave_pool <- inception_4d/output_inception_4d/output_0_split_0
I1216 21:14:22.536892 25246 net.cpp:338] loss2/ave_pool -> loss2/ave_pool
I1216 21:14:22.536905 25246 net.cpp:113] Setting up loss2/ave_pool
I1216 21:14:22.537022 25246 net.cpp:120] Top shape: 50 528 4 4 (422400)
I1216 21:14:22.537039 25246 layer_factory.hpp:74] Creating layer loss2/conv
I1216 21:14:22.537065 25246 net.cpp:84] Creating Layer loss2/conv
I1216 21:14:22.537075 25246 net.cpp:380] loss2/conv <- loss2/ave_pool
I1216 21:14:22.537087 25246 net.cpp:338] loss2/conv -> loss2/conv
I1216 21:14:22.537101 25246 net.cpp:113] Setting up loss2/conv
I1216 21:14:22.539049 25246 net.cpp:120] Top shape: 50 128 4 4 (102400)
I1216 21:14:22.539073 25246 layer_factory.hpp:74] Creating layer loss2/relu_conv
I1216 21:14:22.539088 25246 net.cpp:84] Creating Layer loss2/relu_conv
I1216 21:14:22.539098 25246 net.cpp:380] loss2/relu_conv <- loss2/conv
I1216 21:14:22.539108 25246 net.cpp:327] loss2/relu_conv -> loss2/conv (in-place)
I1216 21:14:22.539120 25246 net.cpp:113] Setting up loss2/relu_conv
I1216 21:14:22.539237 25246 net.cpp:120] Top shape: 50 128 4 4 (102400)
I1216 21:14:22.539247 25246 layer_factory.hpp:74] Creating layer loss2/fc
I1216 21:14:22.539263 25246 net.cpp:84] Creating Layer loss2/fc
I1216 21:14:22.539270 25246 net.cpp:380] loss2/fc <- loss2/conv
I1216 21:14:22.539284 25246 net.cpp:338] loss2/fc -> loss2/fc
I1216 21:14:22.539299 25246 net.cpp:113] Setting up loss2/fc
I1216 21:14:22.667194 25246 net.cpp:120] Top shape: 50 1024 (51200)
I1216 21:14:22.667237 25246 layer_factory.hpp:74] Creating layer loss2/relu_fc
I1216 21:14:22.667250 25246 net.cpp:84] Creating Layer loss2/relu_fc
I1216 21:14:22.667258 25246 net.cpp:380] loss2/relu_fc <- loss2/fc
I1216 21:14:22.667269 25246 net.cpp:327] loss2/relu_fc -> loss2/fc (in-place)
I1216 21:14:22.667280 25246 net.cpp:113] Setting up loss2/relu_fc
I1216 21:14:22.667408 25246 net.cpp:120] Top shape: 50 1024 (51200)
I1216 21:14:22.667415 25246 layer_factory.hpp:74] Creating layer loss2/drop_fc
I1216 21:14:22.667424 25246 net.cpp:84] Creating Layer loss2/drop_fc
I1216 21:14:22.667429 25246 net.cpp:380] loss2/drop_fc <- loss2/fc
I1216 21:14:22.667434 25246 net.cpp:327] loss2/drop_fc -> loss2/fc (in-place)
I1216 21:14:22.667441 25246 net.cpp:113] Setting up loss2/drop_fc
I1216 21:14:22.667449 25246 net.cpp:120] Top shape: 50 1024 (51200)
I1216 21:14:22.667454 25246 layer_factory.hpp:74] Creating layer loss2/classifier_kaggle
I1216 21:14:22.667465 25246 net.cpp:84] Creating Layer loss2/classifier_kaggle
I1216 21:14:22.667469 25246 net.cpp:380] loss2/classifier_kaggle <- loss2/fc
I1216 21:14:22.667476 25246 net.cpp:338] loss2/classifier_kaggle -> loss2/classifier_kaggle
I1216 21:14:22.667485 25246 net.cpp:113] Setting up loss2/classifier_kaggle
I1216 21:14:22.672298 25246 net.cpp:120] Top shape: 50 447 (22350)
I1216 21:14:22.672312 25246 layer_factory.hpp:74] Creating layer loss2/classifier_kaggle_loss2/classifier_kaggle_0_split
I1216 21:14:22.672319 25246 net.cpp:84] Creating Layer loss2/classifier_kaggle_loss2/classifier_kaggle_0_split
I1216 21:14:22.672324 25246 net.cpp:380] loss2/classifier_kaggle_loss2/classifier_kaggle_0_split <- loss2/classifier_kaggle
I1216 21:14:22.672330 25246 net.cpp:338] loss2/classifier_kaggle_loss2/classifier_kaggle_0_split -> loss2/classifier_kaggle_loss2/classifier_kaggle_0_split_0
I1216 21:14:22.672340 25246 net.cpp:338] loss2/classifier_kaggle_loss2/classifier_kaggle_0_split -> loss2/classifier_kaggle_loss2/classifier_kaggle_0_split_1
I1216 21:14:22.672348 25246 net.cpp:338] loss2/classifier_kaggle_loss2/classifier_kaggle_0_split -> loss2/classifier_kaggle_loss2/classifier_kaggle_0_split_2
I1216 21:14:22.672354 25246 net.cpp:113] Setting up loss2/classifier_kaggle_loss2/classifier_kaggle_0_split
I1216 21:14:22.672360 25246 net.cpp:120] Top shape: 50 447 (22350)
I1216 21:14:22.672365 25246 net.cpp:120] Top shape: 50 447 (22350)
I1216 21:14:22.672370 25246 net.cpp:120] Top shape: 50 447 (22350)
I1216 21:14:22.672384 25246 layer_factory.hpp:74] Creating layer loss2/loss
I1216 21:14:22.672400 25246 net.cpp:84] Creating Layer loss2/loss
I1216 21:14:22.672405 25246 net.cpp:380] loss2/loss <- loss2/classifier_kaggle_loss2/classifier_kaggle_0_split_0
I1216 21:14:22.672411 25246 net.cpp:380] loss2/loss <- label_data_1_split_3
I1216 21:14:22.672417 25246 net.cpp:338] loss2/loss -> loss2/loss1
…
I1216 21:14:22.672993 25246 net.cpp:338] loss2/top-5 -> loss2/top-5
I1216 21:14:22.672999 25246 net.cpp:113] Setting up loss2/top-5
I1216 21:14:22.673004 25246 net.cpp:120] Top shape: (1)
I1216 21:14:22.673009 25246 layer_factory.hpp:74] Creating layer inception_4e/1x1
I1216 21:14:22.673017 25246 net.cpp:84] Creating Layer inception_4e/1x1
I1216 21:14:22.673022 25246 net.cpp:380] inception_4e/1x1 <- inception_4d/output_inception_4d/output_0_split_1
I1216 21:14:22.673030 25246 net.cpp:338] inception_4e/1x1 -> inception_4e/1x1
I1216 21:14:22.673038 25246 net.cpp:113] Setting up inception_4e/1x1
I1216 21:14:22.674885 25246 net.cpp:120] Top shape: 50 256 14 14 (2508800)
I1216 21:14:22.674901 25246 layer_factory.hpp:74] Creating layer inception_4e/relu_1x1
I1216 21:14:22.674909 25246 net.cpp:84] Creating Layer inception_4e/relu_1x1
I1216 21:14:22.674914 25246 net.cpp:380] inception_4e/relu_1x1 <- inception_4e/1x1
I1216 21:14:22.674921 25246 net.cpp:327] inception_4e/relu_1x1 -> inception_4e/1x1 (in-place)
I1216 21:14:22.674929 25246 net.cpp:113] Setting up inception_4e/relu_1x1
I1216 21:14:22.674998 25246 net.cpp:120] Top shape: 50 256 14 14 (2508800)
I1216 21:14:22.675004 25246 layer_factory.hpp:74] Creating layer inception_4e/3x3_reduce
I1216 21:14:22.675032 25246 net.cpp:84] Creating Layer inception_4e/3x3_reduce
I1216 21:14:22.675039 25246 net.cpp:380] inception_4e/3x3_reduce <- inception_4d/output_inception_4d/output_0_split_2
I1216 21:14:22.675045 25246 net.cpp:338] inception_4e/3x3_reduce -> inception_4e/3x3_reduce
I1216 21:14:22.675052 25246 net.cpp:113] Setting up inception_4e/3x3_reduce
I1216 21:14:22.676314 25246 net.cpp:120] Top shape: 50 160 14 14 (1568000)
I1216 21:14:22.676331 25246 layer_factory.hpp:74] Creating layer inception_4e/relu_3x3_reduce
I1216 21:14:22.676338 25246 net.cpp:84] Creating Layer inception_4e/relu_3x3_reduce
I1216 21:14:22.676343 25246 net.cpp:380] inception_4e/relu_3x3_reduce <- inception_4e/3x3_reduce
I1216 21:14:22.676348 25246 net.cpp:327] inception_4e/relu_3x3_reduce -> inception_4e/3x3_reduce (in-place)
I1216 21:14:22.676355 25246 net.cpp:113] Setting up inception_4e/relu_3x3_reduce
I1216 21:14:22.676420 25246 net.cpp:120] Top shape: 50 160 14 14 (1568000)
I1216 21:14:22.676426 25246 layer_factory.hpp:74] Creating layer inception_4e/3x3
I1216 21:14:22.676435 25246 net.cpp:84] Creating Layer inception_4e/3x3
I1216 21:14:22.676440 25246 net.cpp:380] inception_4e/3x3 <- inception_4e/3x3_reduce
I1216 21:14:22.676446 25246 net.cpp:338] inception_4e/3x3 -> inception_4e/3x3
I1216 21:14:22.676458 25246 net.cpp:113] Setting up inception_4e/3x3
I1216 21:14:22.681777 25246 net.cpp:120] Top shape: 50 320 14 14 (3136000)
I1216 21:14:22.681792 25246 layer_factory.hpp:74] Creating layer inception_4e/relu_3x3
I1216 21:14:22.681800 25246 net.cpp:84] Creating Layer inception_4e/relu_3x3
I1216 21:14:22.681805 25246 net.cpp:380] inception_4e/relu_3x3 <- inception_4e/3x3
I1216 21:14:22.681812 25246 net.cpp:327] inception_4e/relu_3x3 -> inception_4e/3x3 (in-place)
I1216 21:14:22.681818 25246 net.cpp:113] Setting up inception_4e/relu_3x3
I1216 21:14:22.682050 25246 net.cpp:120] Top shape: 50 320 14 14 (3136000)
I1216 21:14:22.682060 25246 layer_factory.hpp:74] Creating layer inception_4e/5x5_reduce
I1216 21:14:22.682068 25246 net.cpp:84] Creating Layer inception_4e/5x5_reduce
I1216 21:14:22.682073 25246 net.cpp:380] inception_4e/5x5_reduce <- inception_4d/output_inception_4d/output_0_split_3
I1216 21:14:22.682080 25246 net.cpp:338] inception_4e/5x5_reduce -> inception_4e/5x5_reduce
I1216 21:14:22.682088 25246 net.cpp:113] Setting up inception_4e/5x5_reduce
I1216 21:14:22.682632 25246 net.cpp:120] Top shape: 50 32 14 14 (313600)
I1216 21:14:22.682646 25246 layer_factory.hpp:74] Creating layer inception_4e/relu_5x5_reduce
I1216 21:14:22.682653 25246 net.cpp:84] Creating Layer inception_4e/relu_5x5_reduce
I1216 21:14:22.682658 25246 net.cpp:380] inception_4e/relu_5x5_reduce <- inception_4e/5x5_reduce
I1216 21:14:22.682667 25246 net.cpp:327] inception_4e/relu_5x5_reduce -> inception_4e/5x5_reduce (in-place)
I1216 21:14:22.682672 25246 net.cpp:113] Setting up inception_4e/relu_5x5_reduce
I1216 21:14:22.682739 25246 net.cpp:120] Top shape: 50 32 14 14 (313600)
I1216 21:14:22.682744 25246 layer_factory.hpp:74] Creating layer inception_4e/5x5
I1216 21:14:22.682752 25246 net.cpp:84] Creating Layer inception_4e/5x5
I1216 21:14:22.682756 25246 net.cpp:380] inception_4e/5x5 <- inception_4e/5x5_reduce
I1216 21:14:22.682765 25246 net.cpp:338] inception_4e/5x5 -> inception_4e/5x5
I1216 21:14:22.682771 25246 net.cpp:113] Setting up inception_4e/5x5
I1216 21:14:22.684216 25246 net.cpp:120] Top shape: 50 128 14 14 (1254400)
I1216 21:14:22.684228 25246 layer_factory.hpp:74] Creating layer inception_4e/relu_5x5
I1216 21:14:22.684236 25246 net.cpp:84] Creating Layer inception_4e/relu_5x5
I1216 21:14:22.684240 25246 net.cpp:380] inception_4e/relu_5x5 <- inception_4e/5x5
I1216 21:14:22.684247 25246 net.cpp:327] inception_4e/relu_5x5 -> inception_4e/5x5 (in-place)
I1216 21:14:22.684252 25246 net.cpp:113] Setting up inception_4e/relu_5x5
I1216 21:14:22.684315 25246 net.cpp:120] Top shape: 50 128 14 14 (1254400)
I1216 21:14:22.684321 25246 layer_factory.hpp:74] Creating layer inception_4e/pool
I1216 21:14:22.684327 25246 layer_factory.cpp:56] CUDNN does not support padding or multiple tops. Using Caffe's own pooling layer.
I1216 21:14:22.684334 25246 net.cpp:84] Creating Layer inception_4e/pool
I1216 21:14:22.684337 25246 net.cpp:380] inception_4e/pool <- inception_4d/output_inception_4d/output_0_split_4
I1216 21:14:22.684345 25246 net.cpp:338] inception_4e/pool -> inception_4e/pool
I1216 21:14:22.684350 25246 net.cpp:113] Setting up inception_4e/pool
I1216 21:14:22.684360 25246 net.cpp:120] Top shape: 50 528 14 14 (5174400)
I1216 21:14:22.684363 25246 layer_factory.hpp:74] Creating layer inception_4e/pool_proj
I1216 21:14:22.684372 25246 net.cpp:84] Creating Layer inception_4e/pool_proj
I1216 21:14:22.684376 25246 net.cpp:380] inception_4e/pool_proj <- inception_4e/pool
I1216 21:14:22.684386 25246 net.cpp:338] inception_4e/pool_proj -> inception_4e/pool_proj
I1216 21:14:22.684393 25246 net.cpp:113] Setting up inception_4e/pool_proj
I1216 21:14:22.685528 25246 net.cpp:120] Top shape: 50 128 14 14 (1254400)
I1216 21:14:22.685542 25246 layer_factory.hpp:74] Creating layer inception_4e/relu_pool_proj
I1216 21:14:22.685551 25246 net.cpp:84] Creating Layer inception_4e/relu_pool_proj
I1216 21:14:22.685556 25246 net.cpp:380] inception_4e/relu_pool_proj <- inception_4e/pool_proj
I1216 21:14:22.685562 25246 net.cpp:327] inception_4e/relu_pool_proj -> inception_4e/pool_proj (in-place)
I1216 21:14:22.685581 25246 net.cpp:113] Setting up inception_4e/relu_pool_proj
I1216 21:14:22.685645 25246 net.cpp:120] Top shape: 50 128 14 14 (1254400)
I1216 21:14:22.685650 25246 layer_factory.hpp:74] Creating layer inception_4e/output
I1216 21:14:22.685659 25246 net.cpp:84] Creating Layer inception_4e/output
I1216 21:14:22.685663 25246 net.cpp:380] inception_4e/output <- inception_4e/1x1
I1216 21:14:22.685669 25246 net.cpp:380] inception_4e/output <- inception_4e/3x3
I1216 21:14:22.685674 25246 net.cpp:380] inception_4e/output <- inception_4e/5x5
I1216 21:14:22.685679 25246 net.cpp:380] inception_4e/output <- inception_4e/pool_proj
I1216 21:14:22.685684 25246 net.cpp:338] inception_4e/output -> inception_4e/output
I1216 21:14:22.685691 25246 net.cpp:113] Setting up inception_4e/output
I1216 21:14:22.685698 25246 net.cpp:120] Top shape: 50 832 14 14 (8153600)
I1216 21:14:22.685703 25246 layer_factory.hpp:74] Creating layer pool4/3x3_s2
I1216 21:14:22.685710 25246 net.cpp:84] Creating Layer pool4/3x3_s2
I1216 21:14:22.685715 25246 net.cpp:380] pool4/3x3_s2 <- inception_4e/output
I1216 21:14:22.685721 25246 net.cpp:338] pool4/3x3_s2 -> pool4/3x3_s2
I1216 21:14:22.685727 25246 net.cpp:113] Setting up pool4/3x3_s2
I1216 21:14:22.685979 25246 net.cpp:120] Top shape: 50 832 7 7 (2038400)
I1216 21:14:22.685989 25246 layer_factory.hpp:74] Creating layer pool4/3x3_s2_pool4/3x3_s2_0_split
I1216 21:14:22.685997 25246 net.cpp:84] Creating Layer pool4/3x3_s2_pool4/3x3_s2_0_split
I1216 21:14:22.686002 25246 net.cpp:380] pool4/3x3_s2_pool4/3x3_s2_0_split <- pool4/3x3_s2
I1216 21:14:22.686008 25246 net.cpp:338] pool4/3x3_s2_pool4/3x3_s2_0_split -> pool4/3x3_s2_pool4/3x3_s2_0_split_0
I1216 21:14:22.686017 25246 net.cpp:338] pool4/3x3_s2_pool4/3x3_s2_0_split -> pool4/3x3_s2_pool4/3x3_s2_0_split_1
I1216 21:14:22.686025 25246 net.cpp:338] pool4/3x3_s2_pool4/3x3_s2_0_split -> pool4/3x3_s2_pool4/3x3_s2_0_split_2
I1216 21:14:22.686050 25246 net.cpp:338] pool4/3x3_s2_pool4/3x3_s2_0_split -> pool4/3x3_s2_pool4/3x3_s2_0_split_3
I1216 21:14:22.686058 25246 net.cpp:113] Setting up pool4/3x3_s2_pool4/3x3_s2_0_split
I1216 21:14:22.686064 25246 net.cpp:120] Top shape: 50 832 7 7 (2038400)
I1216 21:14:22.686069 25246 net.cpp:120] Top shape: 50 832 7 7 (2038400)
I1216 21:14:22.686081 25246 net.cpp:120] Top shape: 50 832 7 7 (2038400)
I1216 21:14:22.686086 25246 net.cpp:120] Top shape: 50 832 7 7 (2038400)
I1216 21:14:22.686090 25246 layer_factory.hpp:74] Creating layer inception_5a/1x1
I1216 21:14:22.686099 25246 net.cpp:84] Creating Layer inception_5a/1x1
I1216 21:14:22.686103 25246 net.cpp:380] inception_5a/1x1 <- pool4/3x3_s2_pool4/3x3_s2_0_split_0
I1216 21:14:22.686110 25246 net.cpp:338] inception_5a/1x1 -> inception_5a/1x1
I1216 21:14:22.686116 25246 net.cpp:113] Setting up inception_5a/1x1
I1216 21:14:22.688730 25246 net.cpp:120] Top shape: 50 256 7 7 (627200)
I1216 21:14:22.688745 25246 layer_factory.hpp:74] Creating layer inception_5a/relu_1x1
I1216 21:14:22.688751 25246 net.cpp:84] Creating Layer inception_5a/relu_1x1
I1216 21:14:22.688756 25246 net.cpp:380] inception_5a/relu_1x1 <- inception_5a/1x1
I1216 21:14:22.688765 25246 net.cpp:327] inception_5a/relu_1x1 -> inception_5a/1x1 (in-place)
I1216 21:14:22.688771 25246 net.cpp:113] Setting up inception_5a/relu_1x1
I1216 21:14:22.688835 25246 net.cpp:120] Top shape: 50 256 7 7 (627200)
I1216 21:14:22.688841 25246 layer_factory.hpp:74] Creating layer inception_5a/3x3_reduce
I1216 21:14:22.688855 25246 net.cpp:84] Creating Layer inception_5a/3x3_reduce
I1216 21:14:22.688860 25246 net.cpp:380] inception_5a/3x3_reduce <- pool4/3x3_s2_pool4/3x3_s2_0_split_1
I1216 21:14:22.688868 25246 net.cpp:338] inception_5a/3x3_reduce -> inception_5a/3x3_reduce
I1216 21:14:22.688874 25246 net.cpp:113] Setting up inception_5a/3x3_reduce
I1216 21:14:22.690698 25246 net.cpp:120] Top shape: 50 160 7 7 (392000)
I1216 21:14:22.690713 25246 layer_factory.hpp:74] Creating layer inception_5a/relu_3x3_reduce
I1216 21:14:22.690721 25246 net.cpp:84] Creating Layer inception_5a/relu_3x3_reduce
I1216 21:14:22.690731 25246 net.cpp:380] inception_5a/relu_3x3_reduce <- inception_5a/3x3_reduce
I1216 21:14:22.690745 25246 net.cpp:327] inception_5a/relu_3x3_reduce -> inception_5a/3x3_reduce (in-place)
I1216 21:14:22.690753 25246 net.cpp:113] Setting up inception_5a/relu_3x3_reduce
I1216 21:14:22.690819 25246 net.cpp:120] Top shape: 50 160 7 7 (392000)
I1216 21:14:22.690825 25246 layer_factory.hpp:74] Creating layer inception_5a/3x3
I1216 21:14:22.690835 25246 net.cpp:84] Creating Layer inception_5a/3x3
I1216 21:14:22.690842 25246 net.cpp:380] inception_5a/3x3 <- inception_5a/3x3_reduce
I1216 21:14:22.690850 25246 net.cpp:338] inception_5a/3x3 -> inception_5a/3x3
I1216 21:14:22.690857 25246 net.cpp:113] Setting up inception_5a/3x3
I1216 21:14:22.696231 25246 net.cpp:120] Top shape: 50 320 7 7 (784000)
I1216 21:14:22.696251 25246 layer_factory.hpp:74] Creating layer inception_5a/relu_3x3
I1216 21:14:22.696260 25246 net.cpp:84] Creating Layer inception_5a/relu_3x3
I1216 21:14:22.696266 25246 net.cpp:380] inception_5a/relu_3x3 <- inception_5a/3x3
I1216 21:14:22.696274 25246 net.cpp:327] inception_5a/relu_3x3 -> inception_5a/3x3 (in-place)
I1216 21:14:22.696280 25246 net.cpp:113] Setting up inception_5a/relu_3x3
I1216 21:14:22.696346 25246 net.cpp:120] Top shape: 50 320 7 7 (784000)
I1216 21:14:22.696352 25246 layer_factory.hpp:74] Creating layer inception_5a/5x5_reduce
I1216 21:14:22.696363 25246 net.cpp:84] Creating Layer inception_5a/5x5_reduce
I1216 21:14:22.696368 25246 net.cpp:380] inception_5a/5x5_reduce <- pool4/3x3_s2_pool4/3x3_s2_0_split_2
I1216 21:14:22.696380 25246 net.cpp:338] inception_5a/5x5_reduce -> inception_5a/5x5_reduce
I1216 21:14:22.696388 25246 net.cpp:113] Setting up inception_5a/5x5_reduce
I1216 21:14:22.697089 25246 net.cpp:120] Top shape: 50 32 7 7 (78400)
I1216 21:14:22.697105 25246 layer_factory.hpp:74] Creating layer inception_5a/relu_5x5_reduce
I1216 21:14:22.697113 25246 net.cpp:84] Creating Layer inception_5a/relu_5x5_reduce
I1216 21:14:22.697119 25246 net.cpp:380] inception_5a/relu_5x5_reduce <- inception_5a/5x5_reduce
I1216 21:14:22.697127 25246 net.cpp:327] inception_5a/relu_5x5_reduce -> inception_5a/5x5_reduce (in-place)
I1216 21:14:22.697134 25246 net.cpp:113] Setting up inception_5a/relu_5x5_reduce
I1216 21:14:22.697372 25246 net.cpp:120] Top shape: 50 32 7 7 (78400)
I1216 21:14:22.697382 25246 layer_factory.hpp:74] Creating layer inception_5a/5x5
I1216 21:14:22.697393 25246 net.cpp:84] Creating Layer inception_5a/5x5
I1216 21:14:22.697398 25246 net.cpp:380] inception_5a/5x5 <- inception_5a/5x5_reduce
I1216 21:14:22.697407 25246 net.cpp:338] inception_5a/5x5 -> inception_5a/5x5
I1216 21:14:22.697415 25246 net.cpp:113] Setting up inception_5a/5x5
I1216 21:14:22.699201 25246 net.cpp:120] Top shape: 50 128 7 7 (313600)
I1216 21:14:22.699226 25246 layer_factory.hpp:74] Creating layer inception_5a/relu_5x5
I1216 21:14:22.699241 25246 net.cpp:84] Creating Layer inception_5a/relu_5x5
I1216 21:14:22.699250 25246 net.cpp:380] inception_5a/relu_5x5 <- inception_5a/5x5
I1216 21:14:22.699261 25246 net.cpp:327] inception_5a/relu_5x5 -> inception_5a/5x5 (in-place)
I1216 21:14:22.699273 25246 net.cpp:113] Setting up inception_5a/relu_5x5
I1216 21:14:22.699388 25246 net.cpp:120] Top shape: 50 128 7 7 (313600)
I1216 21:14:22.699399 25246 layer_factory.hpp:74] Creating layer inception_5a/pool
I1216 21:14:22.699407 25246 layer_factory.cpp:56] CUDNN does not support padding or multiple tops. Using Caffe's own pooling layer.
I1216 21:14:22.699417 25246 net.cpp:84] Creating Layer inception_5a/pool
I1216 21:14:22.699426 25246 net.cpp:380] inception_5a/pool <- pool4/3x3_s2_pool4/3x3_s2_0_split_3
I1216 21:14:22.699440 25246 net.cpp:338] inception_5a/pool -> inception_5a/pool
I1216 21:14:22.699452 25246 net.cpp:113] Setting up inception_5a/pool
I1216 21:14:22.699467 25246 net.cpp:120] Top shape: 50 832 7 7 (2038400)
I1216 21:14:22.699475 25246 layer_factory.hpp:74] Creating layer inception_5a/pool_proj
I1216 21:14:22.699489 25246 net.cpp:84] Creating Layer inception_5a/pool_proj
I1216 21:14:22.699506 25246 net.cpp:380] inception_5a/pool_proj <- inception_5a/pool
I1216 21:14:22.699527 25246 net.cpp:338] inception_5a/pool_proj -> inception_5a/pool_proj
I1216 21:14:22.699542 25246 net.cpp:113] Setting up inception_5a/pool_proj
I1216 21:14:22.701114 25246 net.cpp:120] Top shape: 50 128 7 7 (313600)
I1216 21:14:22.701131 25246 layer_factory.hpp:74] Creating layer inception_5a/relu_pool_proj
I1216 21:14:22.701140 25246 net.cpp:84] Creating Layer inception_5a/relu_pool_proj
I1216 21:14:22.701146 25246 net.cpp:380] inception_5a/relu_pool_proj <- inception_5a/pool_proj
I1216 21:14:22.701153 25246 net.cpp:327] inception_5a/relu_pool_proj -> inception_5a/pool_proj (in-place)
I1216 21:14:22.701159 25246 net.cpp:113] Setting up inception_5a/relu_pool_proj
I1216 21:14:22.701228 25246 net.cpp:120] Top shape: 50 128 7 7 (313600)
I1216 21:14:22.701234 25246 layer_factory.hpp:74] Creating layer inception_5a/output
I1216 21:14:22.701242 25246 net.cpp:84] Creating Layer inception_5a/output
I1216 21:14:22.701247 25246 net.cpp:380] inception_5a/output <- inception_5a/1x1
I1216 21:14:22.701253 25246 net.cpp:380] inception_5a/output <- inception_5a/3x3
I1216 21:14:22.701258 25246 net.cpp:380] inception_5a/output <- inception_5a/5x5
I1216 21:14:22.701263 25246 net.cpp:380] inception_5a/output <- inception_5a/pool_proj
I1216 21:14:22.701268 25246 net.cpp:338] inception_5a/output -> inception_5a/output
I1216 21:14:22.701275 25246 net.cpp:113] Setting up inception_5a/output
I1216 21:14:22.701282 25246 net.cpp:120] Top shape: 50 832 7 7 (2038400)
I1216 21:14:22.701287 25246 layer_factory.hpp:74] Creating layer inception_5a/output_inception_5a/output_0_split
I1216 21:14:22.701294 25246 net.cpp:84] Creating Layer inception_5a/output_inception_5a/output_0_split
I1216 21:14:22.701299 25246 net.cpp:380] inception_5a/output_inception_5a/output_0_split <- inception_5a/output
I1216 21:14:22.701304 25246 net.cpp:338] inception_5a/output_inception_5a/output_0_split -> inception_5a/output_inception_5a/output_0_split_0
I1216 21:14:22.701313 25246 net.cpp:338] inception_5a/output_inception_5a/output_0_split -> inception_5a/output_inception_5a/output_0_split_1
I1216 21:14:22.701318 25246 net.cpp:338] inception_5a/output_inception_5a/output_0_split -> inception_5a/output_inception_5a/output_0_split_2
I1216 21:14:22.701325 25246 net.cpp:338] inception_5a/output_inception_5a/output_0_split -> inception_5a/output_inception_5a/output_0_split_3
I1216 21:14:22.701331 25246 net.cpp:113] Setting up inception_5a/output_inception_5a/output_0_split
I1216 21:14:22.701338 25246 net.cpp:120] Top shape: 50 832 7 7 (2038400)
I1216 21:14:22.701342 25246 net.cpp:120] Top shape: 50 832 7 7 (2038400)
I1216 21:14:22.701347 25246 net.cpp:120] Top shape: 50 832 7 7 (2038400)
I1216 21:14:22.701352 25246 net.cpp:120] Top shape: 50 832 7 7 (2038400)
I1216 21:14:22.701356 25246 layer_factory.hpp:74] Creating layer inception_5b/1x1
I1216 21:14:22.701366 25246 net.cpp:84] Creating Layer inception_5b/1x1
I1216 21:14:22.701370 25246 net.cpp:380] inception_5b/1x1 <- inception_5a/output_inception_5a/output_0_split_0
I1216 21:14:22.701378 25246 net.cpp:338] inception_5b/1x1 -> inception_5b/1x1
I1216 21:14:22.701385 25246 net.cpp:113] Setting up inception_5b/1x1
I1216 21:14:22.705202 25246 net.cpp:120] Top shape: 50 384 7 7 (940800)
I1216 21:14:22.705219 25246 layer_factory.hpp:74] Creating layer inception_5b/relu_1x1
I1216 21:14:22.705225 25246 net.cpp:84] Creating Layer inception_5b/relu_1x1
I1216 21:14:22.705230 25246 net.cpp:380] inception_5b/relu_1x1 <- inception_5b/1x1
I1216 21:14:22.705240 25246 net.cpp:327] inception_5b/relu_1x1 -> inception_5b/1x1 (in-place)
I1216 21:14:22.705246 25246 net.cpp:113] Setting up inception_5b/relu_1x1
I1216 21:14:22.705313 25246 net.cpp:120] Top shape: 50 384 7 7 (940800)
I1216 21:14:22.705319 25246 layer_factory.hpp:74] Creating layer inception_5b/3x3_reduce
I1216 21:14:22.705328 25246 net.cpp:84] Creating Layer inception_5b/3x3_reduce
I1216 21:14:22.705333 25246 net.cpp:380] inception_5b/3x3_reduce <- inception_5a/output_inception_5a/output_0_split_1
I1216 21:14:22.705348 25246 net.cpp:338] inception_5b/3x3_reduce -> inception_5b/3x3_reduce
I1216 21:14:22.705363 25246 net.cpp:113] Setting up inception_5b/3x3_reduce
I1216 21:14:22.707489 25246 net.cpp:120] Top shape: 50 192 7 7 (470400)
I1216 21:14:22.707504 25246 layer_factory.hpp:74] Creating layer inception_5b/relu_3x3_reduce
I1216 21:14:22.707510 25246 net.cpp:84] Creating Layer inception_5b/relu_3x3_reduce
I1216 21:14:22.707515 25246 net.cpp:380] inception_5b/relu_3x3_reduce <- inception_5b/3x3_reduce
I1216 21:14:22.707523 25246 net.cpp:327] inception_5b/relu_3x3_reduce -> inception_5b/3x3_reduce (in-place)
I1216 21:14:22.707530 25246 net.cpp:113] Setting up inception_5b/relu_3x3_reduce
I1216 21:14:22.707768 25246 net.cpp:120] Top shape: 50 192 7 7 (470400)
I1216 21:14:22.707778 25246 layer_factory.hpp:74] Creating layer inception_5b/3x3
I1216 21:14:22.707789 25246 net.cpp:84] Creating Layer inception_5b/3x3
I1216 21:14:22.707795 25246 net.cpp:380] inception_5b/3x3 <- inception_5b/3x3_reduce
I1216 21:14:22.707804 25246 net.cpp:338] inception_5b/3x3 -> inception_5b/3x3
I1216 21:14:22.707813 25246 net.cpp:113] Setting up inception_5b/3x3
I1216 21:14:22.718343 25246 net.cpp:120] Top shape: 50 384 7 7 (940800)
I1216 21:14:22.718368 25246 layer_factory.hpp:74] Creating layer inception_5b/relu_3x3
I1216 21:14:22.718379 25246 net.cpp:84] Creating Layer inception_5b/relu_3x3
I1216 21:14:22.718386 25246 net.cpp:380] inception_5b/relu_3x3 <- inception_5b/3x3
I1216 21:14:22.718394 25246 net.cpp:327] inception_5b/relu_3x3 -> inception_5b/3x3 (in-place)
I1216 21:14:22.718401 25246 net.cpp:113] Setting up inception_5b/relu_3x3
I1216 21:14:22.718472 25246 net.cpp:120] Top shape: 50 384 7 7 (940800)
I1216 21:14:22.718478 25246 layer_factory.hpp:74] Creating layer inception_5b/5x5_reduce
I1216 21:14:22.718488 25246 net.cpp:84] Creating Layer inception_5b/5x5_reduce
I1216 21:14:22.718494 25246 net.cpp:380] inception_5b/5x5_reduce <- inception_5a/output_inception_5a/output_0_split_2
I1216 21:14:22.718502 25246 net.cpp:338] inception_5b/5x5_reduce -> inception_5b/5x5_reduce
I1216 21:14:22.718509 25246 net.cpp:113] Setting up inception_5b/5x5_reduce
I1216 21:14:22.719341 25246 net.cpp:120] Top shape: 50 48 7 7 (117600)
I1216 21:14:22.719355 25246 layer_factory.hpp:74] Creating layer inception_5b/relu_5x5_reduce
I1216 21:14:22.719362 25246 net.cpp:84] Creating Layer inception_5b/relu_5x5_reduce
I1216 21:14:22.719367 25246 net.cpp:380] inception_5b/relu_5x5_reduce <- inception_5b/5x5_reduce
I1216 21:14:22.719375 25246 net.cpp:327] inception_5b/relu_5x5_reduce -> inception_5b/5x5_reduce (in-place)
I1216 21:14:22.719383 25246 net.cpp:113] Setting up inception_5b/relu_5x5_reduce
I1216 21:14:22.719452 25246 net.cpp:120] Top shape: 50 48 7 7 (117600)
I1216 21:14:22.719458 25246 layer_factory.hpp:74] Creating layer inception_5b/5x5
I1216 21:14:22.719468 25246 net.cpp:84] Creating Layer inception_5b/5x5
I1216 21:14:22.719473 25246 net.cpp:380] inception_5b/5x5 <- inception_5b/5x5_reduce
I1216 21:14:22.719480 25246 net.cpp:338] inception_5b/5x5 -> inception_5b/5x5
I1216 21:14:22.719488 25246 net.cpp:113] Setting up inception_5b/5x5
I1216 21:14:22.721542 25246 net.cpp:120] Top shape: 50 128 7 7 (313600)
I1216 21:14:22.721557 25246 layer_factory.hpp:74] Creating layer inception_5b/relu_5x5
I1216 21:14:22.721565 25246 net.cpp:84] Creating Layer inception_5b/relu_5x5
I1216 21:14:22.721570 25246 net.cpp:380] inception_5b/relu_5x5 <- inception_5b/5x5
I1216 21:14:22.721578 25246 net.cpp:327] inception_5b/relu_5x5 -> inception_5b/5x5 (in-place)
I1216 21:14:22.721585 25246 net.cpp:113] Setting up inception_5b/relu_5x5
I1216 21:14:22.721823 25246 net.cpp:120] Top shape: 50 128 7 7 (313600)
I1216 21:14:22.721835 25246 layer_factory.hpp:74] Creating layer inception_5b/pool
I1216 21:14:22.721842 25246 layer_factory.cpp:56] CUDNN does not support padding or multiple tops. Using Caffe's own pooling layer.
I1216 21:14:22.721848 25246 net.cpp:84] Creating Layer inception_5b/pool
I1216 21:14:22.721853 25246 net.cpp:380] inception_5b/pool <- inception_5a/output_inception_5a/output_0_split_3
I1216 21:14:22.721879 25246 net.cpp:338] inception_5b/pool -> inception_5b/pool
I1216 21:14:22.721889 25246 net.cpp:113] Setting up inception_5b/pool
I1216 21:14:22.721896 25246 net.cpp:120] Top shape: 50 832 7 7 (2038400)
I1216 21:14:22.721901 25246 layer_factory.hpp:74] Creating layer inception_5b/pool_proj
I1216 21:14:22.721909 25246 net.cpp:84] Creating Layer inception_5b/pool_proj
I1216 21:14:22.721914 25246 net.cpp:380] inception_5b/pool_proj <- inception_5b/pool
I1216 21:14:22.721921 25246 net.cpp:338] inception_5b/pool_proj -> inception_5b/pool_proj
I1216 21:14:22.721928 25246 net.cpp:113] Setting up inception_5b/pool_proj
I1216 21:14:22.723469 25246 net.cpp:120] Top shape: 50 128 7 7 (313600)
I1216 21:14:22.723484 25246 layer_factory.hpp:74] Creating layer inception_5b/relu_pool_proj
I1216 21:14:22.723490 25246 net.cpp:84] Creating Layer inception_5b/relu_pool_proj
I1216 21:14:22.723495 25246 net.cpp:380] inception_5b/relu_pool_proj <- inception_5b/pool_proj
I1216 21:14:22.723501 25246 net.cpp:327] inception_5b/relu_pool_proj -> inception_5b/pool_proj (in-place)
I1216 21:14:22.723508 25246 net.cpp:113] Setting up inception_5b/relu_pool_proj
I1216 21:14:22.723575 25246 net.cpp:120] Top shape: 50 128 7 7 (313600)
I1216 21:14:22.723580 25246 layer_factory.hpp:74] Creating layer inception_5b/output
I1216 21:14:22.723587 25246 net.cpp:84] Creating Layer inception_5b/output
I1216 21:14:22.723592 25246 net.cpp:380] inception_5b/output <- inception_5b/1x1
I1216 21:14:22.723598 25246 net.cpp:380] inception_5b/output <- inception_5b/3x3
I1216 21:14:22.723603 25246 net.cpp:380] inception_5b/output <- inception_5b/5x5
I1216 21:14:22.723608 25246 net.cpp:380] inception_5b/output <- inception_5b/pool_proj
I1216 21:14:22.723614 25246 net.cpp:338] inception_5b/output -> inception_5b/output
I1216 21:14:22.723621 25246 net.cpp:113] Setting up inception_5b/output
I1216 21:14:22.723629 25246 net.cpp:120] Top shape: 50 1024 7 7 (2508800)
I1216 21:14:22.723634 25246 layer_factory.hpp:74] Creating layer pool5/7x7_s1
I1216 21:14:22.723641 25246 net.cpp:84] Creating Layer pool5/7x7_s1
I1216 21:14:22.723646 25246 net.cpp:380] pool5/7x7_s1 <- inception_5b/output
I1216 21:14:22.723654 25246 net.cpp:338] pool5/7x7_s1 -> pool5/7x7_s1
I1216 21:14:22.723659 25246 net.cpp:113] Setting up pool5/7x7_s1
I1216 21:14:22.723728 25246 net.cpp:120] Top shape: 50 1024 1 1 (51200)
I1216 21:14:22.723734 25246 layer_factory.hpp:74] Creating layer pool5/drop_7x7_s1
I1216 21:14:22.723742 25246 net.cpp:84] Creating Layer pool5/drop_7x7_s1
I1216 21:14:22.723747 25246 net.cpp:380] pool5/drop_7x7_s1 <- pool5/7x7_s1
I1216 21:14:22.723753 25246 net.cpp:327] pool5/drop_7x7_s1 -> pool5/7x7_s1 (in-place)
I1216 21:14:22.723759 25246 net.cpp:113] Setting up pool5/drop_7x7_s1
I1216 21:14:22.723767 25246 net.cpp:120] Top shape: 50 1024 1 1 (51200)
I1216 21:14:22.723772 25246 layer_factory.hpp:74] Creating layer loss3/classifier_kaggle
I1216 21:14:22.723780 25246 net.cpp:84] Creating Layer loss3/classifier_kaggle
I1216 21:14:22.723784 25246 net.cpp:380] loss3/classifier_kaggle <- pool5/7x7_s1
I1216 21:14:22.723793 25246 net.cpp:338] loss3/classifier_kaggle -> loss3/classifier_kaggle
I1216 21:14:22.723800 25246 net.cpp:113] Setting up loss3/classifier_kaggle
I1216 21:14:22.728757 25246 net.cpp:120] Top shape: 50 447 (22350)
I1216 21:14:22.728770 25246 layer_factory.hpp:74] Creating layer loss3/classifier_kaggle_loss3/classifier_kaggle_0_split
I1216 21:14:22.728776 25246 net.cpp:84] Creating Layer loss3/classifier_kaggle_loss3/classifier_kaggle_0_split
I1216 21:14:22.728783 25246 net.cpp:380] loss3/classifier_kaggle_loss3/classifier_kaggle_0_split <- loss3/classifier_kaggle
I1216 21:14:22.728790 25246 net.cpp:338] loss3/classifier_kaggle_loss3/classifier_kaggle_0_split -> loss3/classifier_kaggle_loss3/classifier_kaggle_0_split_0
I1216 21:14:22.728797 25246 net.cpp:338] loss3/classifier_kaggle_loss3/classifier_kaggle_0_split -> loss3/classifier_kaggle_loss3/classifier_kaggle_0_split_1
I1216 21:14:22.728804 25246 net.cpp:338] loss3/classifier_kaggle_loss3/classifier_kaggle_0_split -> loss3/classifier_kaggle_loss3/classifier_kaggle_0_split_2
I1216 21:14:22.728826 25246 net.cpp:113] Setting up loss3/classifier_kaggle_loss3/classifier_kaggle_0_split
I1216 21:14:22.728833 25246 net.cpp:120] Top shape: 50 447 (22350)
I1216 21:14:22.728838 25246 net.cpp:120] Top shape: 50 447 (22350)
I1216 21:14:22.728843 25246 net.cpp:120] Top shape: 50 447 (22350)
I1216 21:14:22.728847 25246 layer_factory.hpp:74] Creating layer loss3/loss3
I1216 21:14:22.728854 25246 net.cpp:84] Creating Layer loss3/loss3
I1216 21:14:22.728858 25246 net.cpp:380] loss3/loss3 <- loss3/classifier_kaggle_loss3/classifier_kaggle_0_split_0
I1216 21:14:22.728864 25246 net.cpp:380] loss3/loss3 <- label_data_1_split_6
I1216 21:14:22.728873 25246 net.cpp:338] loss3/loss3 -> loss3/loss3
…
