…
I1216 23:01:43.798708 18570 net.cpp:257] The NetState phase (0) differed from the phase (1) specified by a rule in layer loss3/top-5
I1216 23:01:43.800338 18570 net.cpp:42] Initializing net from parameters: 
name: "GoogleNet"
state {
  phase: TRAIN
}
layer {
  name: "data"
  type: "Data"
  top: "data"
  top: "label"
  include {
    phase: TRAIN
  }
  transform_param {
    mirror: true
    crop_size: 224
    mean_value: 129
    mean_value: 129
    mean_value: 129
  }
  data_param {
    source: "/home/coldmanck/kaggle/kaggle2_train_lmdb"
    batch_size: 80
    backend: LMDB
  }
}
layer {
  name: "conv1/7x7_s2"
  type: "Convolution"
  bottom: "data"
  top: "conv1/7x7_s2"
  param {
    lr_mult: 1
    decay_mult: 1
  }
  param {
    lr_mult: 2
    decay_mult: 0
  }
  convolution_param {
    num_output: 64
    pad: 3
    kernel_size: 7
    stride: 2
    weight_filler {
      type: "xavier"
    }
    bias_filler {
      type: "constant"
      value: 0.2
    }
  }
}
layer {
  name: "conv1/relu_7x7"
  type: "ReLU"
  bottom: "conv1/7x7_s2"
  top: "conv1/7x7_s2"
}
layer {
  name: "pool1/3x3_s2"
  type: "Pooling"
  bottom: "conv1/7x7_s2"
  top: "pool1/3x3_s2"
  pooling_param {
    pool: MAX
    kernel_size: 3
    stride: 2
  }
}
layer {
  name: "pool1/norm1"
  type: "LRN"
  bottom: "pool1/3x3_s2"
  top: "pool1/norm1"
  lrn_param {
    local_size: 5
    alpha: 0.0001
    beta: 0.75
  }
}
layer {
  name: "conv2/3x3_reduce"
  type: "Convolution"
  bottom: "pool1/norm1"
  top: "conv2/3x3_reduce"
  param {
    lr_mult: 1
    decay_mult: 1
  }
  param {
    lr_mult: 2
    decay_mult: 0
  }
  convolution_param {
    num_output: 64
    kernel_size: 1
    weight_filler {
      type: "xavier"
    }
    bias_filler {
      type: "constant"
      value: 0.2
    }
  }
}
layer {
  name: "conv2/relu_3x3_reduce"
  type: "ReLU"
  bottom: "conv2/3x3_reduce"
  top: "conv2/3x3_reduce"
}
layer {
  name: "conv2/3x3"
  type: "Convolution"
  bottom: "conv2/3x3_reduce"
  top: "conv2/3x3"
  param {
    lr_mult: 1
    decay_mult: 1
  }
  param {
    lr_mult: 2
    decay_mult: 0
  }
  convolution_param {
    num_output: 192
    pad: 1
    kernel_size: 3
    weight_filler {
      type: "xavier"
    }
    bias_filler {
      type: "constant"
      value: 0.2
    }
  }
}
layer {
  name: "conv2/relu_3x3"
  type: "ReLU"
  bottom: "conv2/3x3"
  top: "conv2/3x3"
}
layer {
  name: "conv2/norm2"
  type: "LRN"
  bottom: "conv2/3x3"
  top: "conv2/norm2"
  lrn_param {
    local_size: 5
    alpha: 0.0001
    beta: 0.75
  }
}
layer {
  name: "pool2/3x3_s2"
  type: "Pooling"
  bottom: "conv2/norm2"
  top: "pool2/3x3_s2"
  pooling_param {
    pool: MAX
    kernel_size: 3
    stride: 2
  }
}
layer {
  name: "inception_3a/1x1"
  type: "Convolution"
  bottom: "pool2/3x3_s2"
  top: "inception_3a/1x1"
  param {
    lr_mult: 1
    decay_mult: 1
  }
  param {
    lr_mult: 2
    decay_mult: 0
  }
  convolution_param {
    num_output: 64
    kernel_size: 1
    weight_filler {
      type: "xavier"
    }
    bias_filler {
      type: "constant"
      value: 0.2
    }
  }
}
layer {
  name: "inception_3a/relu_1x1"
  type: "ReLU"
  bottom: "inception_3a/1x1"
  top: "inception_3a/1x1"
}
layer {
  name: "inception_3a/3x3_reduce"
  type: "Convolution"
  bottom: "pool2/3x3_s2"
  top: "inception_3a/3x3_reduce"
  param {
    lr_mult: 1
    decay_mult: 1
  }
  param {
    lr_mult: 2
    decay_mult: 0
  }
  convolution_param {
    num_output: 96
    kernel_size: 1
    weight_filler {
      type: "xavier"
    }
    bias_filler {
      type: "constant"
      value: 0.2
    }
  }
}
layer {
  name: "inception_3a/relu_3x3_reduce"
  type: "ReLU"
  bottom: "inception_3a/3x3_reduce"
  top: "inception_3a/3x3_reduce"
}
layer {
  name: "inception_3a/3x3"
  type: "Convolution"
  bottom: "inception_3a/3x3_reduce"
  top: "inception_3a/3x3"
  param {
    lr_mult: 1
    decay_mult: 1
  }
  param {
    lr_mult: 2
    decay_mult: 0
  }
  convolution_param {
    num_output: 128
    pad: 1
    kernel_size: 3
    weight_filler {
      type: "xavier"
    }
    bias_filler {
      type: "constant"
      value: 0.2
    }
  }
}
layer {
  name: "inception_3a/relu_3x3"
  type: "ReLU"
  bottom: "inception_3a/3x3"
  top: "inception_3a/3x3"
}
layer {
  name: "inception_3a/5x5_reduce"
  type: "Convolution"
  bottom: "pool2/3x3_s2"
  top: "inception_3a/5x5_reduce"
  param {
    lr_mult: 1
    decay_mult: 1
  }
  param {
    lr_mult: 2
    decay_mult: 0
  }
  convolution_param {
    num_output: 16
    kernel_size: 1
    weight_filler {
      type: "xavier"
    }
    bias_filler {
      type: "constant"
      value: 0.2
    }
  }
}
layer {
  name: "inception_3a/relu_5x5_reduce"
  type: "ReLU"
  bottom: "inception_3a/5x5_reduce"
  top: "inception_3a/5x5_reduce"
}
layer {
  name: "inception_3a/5x5"
  type: "Convolution"
  bottom: "inception_3a/5x5_reduce"
  top: "inception_3a/5x5"
  param {
    lr_mult: 1
    decay_mult: 1
  }
  param {
    lr_mult: 2
    decay_mult: 0
  }
  convolution_param {
    num_output: 32
    pad: 2
    kernel_size: 5
    weight_filler {
      type: "xavier"
    }
    bias_filler {
      type: "constant"
      value: 0.2
    }
  }
}
layer {
  name: "inception_3a/relu_5x5"
  type: "ReLU"
  bottom: "inception_3a/5x5"
  top: "inception_3a/5x5"
}
layer {
  name: "inception_3a/pool"
  type: "Pooling"
  bottom: "pool2/3x3_s2"
  top: "inception_3a/pool"
  pooling_param {
    pool: MAX
    kernel_size: 3
    stride: 1
    pad: 1
  }
}
layer {
  name: "inception_3a/pool_proj"
  type: "Convolution"
  bottom: "inception_3a/pool"
  top: "inception_3a/pool_proj"
  param {
    lr_mult: 1
    decay_mult: 1
  }
  param {
    lr_mult: 2
    decay_mult: 0
  }
  convolution_param {
    num_output: 32
    kernel_size: 1
    weight_filler {
      type: "xavier"
    }
    bias_filler {
      type: "constant"
      value: 0.2
    }
  }
}
layer {
  name: "inception_3a/relu_pool_proj"
  type: "ReLU"
  bottom: "inception_3a/pool_proj"
  top: "inception_3a/pool_proj"
}
layer {
  name: "inception_3a/output"
  type: "Concat"
  bottom: "inception_3a/1x1"
  bottom: "inception_3a/3x3"
  bottom: "inception_3a/5x5"
  bottom: "inception_3a/pool_proj"
  top: "inception_3a/output"
}
layer {
  name: "inception_3b/1x1"
  type: "Convolution"
  bottom: "inception_3a/output"
  top: "inception_3b/1x1"
  param {
    lr_mult: 1
    decay_mult: 1
  }
  param {
    lr_mult: 2
    decay_mult: 0
  }
  convolution_param {
    num_output: 128
    kernel_size: 1
    weight_filler {
      type: "xavier"
    }
    bias_filler {
      type: "constant"
      value: 0.2
    }
  }
}
layer {
  name: "inception_3b/relu_1x1"
  type: "ReLU"
  bottom: "inception_3b/1x1"
  top: "inception_3b/1x1"
}
layer {
  name: "inception_3b/3x3_reduce"
  type: "Convolution"
  bottom: "inception_3a/output"
  top: "inception_3b/3x3_reduce"
  param {
    lr_mult: 1
    decay_mult: 1
  }
  param {
    lr_mult: 2
    decay_mult: 0
  }
  convolution_param {
    num_output: 128
    kernel_size: 1
    weight_filler {
      type: "xavier"
    }
    bias_filler {
      type: "constant"
      value: 0.2
    }
  }
}
layer {
  name: "inception_3b/relu_3x3_reduce"
  type: "ReLU"
  bottom: "inception_3b/3x3_reduce"
  top: "inception_3b/3x3_reduce"
}
layer {
  name: "inception_3b/3x3"
  type: "Convolution"
  bottom: "inception_3b/3x3_reduce"
  top: "inception_3b/3x3"
  param {
    lr_mult: 1
    decay_mult: 1
  }
  param {
    lr_mult: 2
    decay_mult: 0
  }
  convolution_param {
    num_output: 192
    pad: 1
    kernel_size: 3
    weight_filler {
      type: "xavier"
    }
    bias_filler {
      type: "constant"
      value: 0.2
    }
  }
}
layer {
  name: "inception_3b/relu_3x3"
  type: "ReLU"
  bottom: "inception_3b/3x3"
  top: "inception_3b/3x3"
}
layer {
  name: "inception_3b/5x5_reduce"
  type: "Convolution"
  bottom: "inception_3a/output"
  top: "inception_3b/5x5_reduce"
  param {
    lr_mult: 1
    decay_mult: 1
  }
  param {
    lr_mult: 2
    decay_mult: 0
  }
  convolution_param {
    num_output: 32
    kernel_size: 1
    weight_filler {
      type: "xavier"
    }
    bias_filler {
      type: "constant"
      value: 0.2
    }
  }
}
layer {
  name: "inception_3b/relu_5x5_reduce"
  type: "ReLU"
  bottom: "inception_3b/5x5_reduce"
  top: "inception_3b/5x5_reduce"
}
layer {
  name: "inception_3b/5x5"
  type: "Convolution"
  bottom: "inception_3b/5x5_reduce"
  top: "inception_3b/5x5"
  param {
    lr_mult: 1
    decay_mult: 1
  }
  param {
    lr_mult: 2
    decay_mult: 0
  }
  convolution_param {
    num_output: 96
    pad: 2
    kernel_size: 5
    weight_filler {
      type: "xavier"
    }
    bias_filler {
      type: "constant"
      value: 0.2
    }
  }
}
layer {
  name: "inception_3b/relu_5x5"
  type: "ReLU"
  bottom: "inception_3b/5x5"
  top: "inception_3b/5x5"
}
layer {
  name: "inception_3b/pool"
  type: "Pooling"
  bottom: "inception_3a/output"
  top: "inception_3b/pool"
  pooling_param {
    pool: MAX
    kernel_size: 3
    stride: 1
    pad: 1
  }
}
layer {
  name: "inception_3b/pool_proj"
  type: "Convolution"
  bottom: "inception_3b/pool"
  top: "inception_3b/pool_proj"
  param {
    lr_mult: 1
    decay_mult: 1
  }
  param {
    lr_mult: 2
    decay_mult: 0
  }
  convolution_param {
    num_output: 64
    kernel_size: 1
    weight_filler {
      type: "xavier"
    }
    bias_filler {
      type: "constant"
      value: 0.2
    }
  }
}
layer {
  name: "inception_3b/relu_pool_proj"
  type: "ReLU"
  bottom: "inception_3b/pool_proj"
  top: "inception_3b/pool_proj"
}
layer {
  name: "inception_3b/output"
  type: "Concat"
  bottom: "inception_3b/1x1"
  bottom: "inception_3b/3x3"
  bottom: "inception_3b/5x5"
  bottom: "inception_3b/pool_proj"
  top: "inception_3b/output"
}
layer {
  name: "pool3/3x3_s2"
  type: "Pooling"
  bottom: "inception_3b/output"
  top: "pool3/3x3_s2"
  pooling_param {
    pool: MAX
    kernel_size: 3
    stride: 2
  }
}
layer {
  name: "inception_4a/1x1"
  type: "Convolution"
  bottom: "pool3/3x3_s2"
  top: "inception_4a/1x1"
  param {
    lr_mult: 1
    decay_mult: 1
  }
  param {
    lr_mult: 2
    decay_mult: 0
  }
  convolution_param {
    num_output: 192
    kernel_size: 1
    weight_filler {
      type: "xavier"
    }
    bias_filler {
      type: "constant"
      value: 0.2
    }
  }
}
layer {
  name: "inception_4a/relu_1x1"
  type: "ReLU"
  bottom: "inception_4a/1x1"
  top: "inception_4a/1x1"
}
layer {
  name: "inception_4a/3x3_reduce"
  type: "Convolution"
  bottom: "pool3/3x3_s2"
  top: "inception_4a/3x3_reduce"
  param {
    lr_mult: 1
    decay_mult: 1
  }
  param {
    lr_mult: 2
    decay_mult: 0
  }
  convolution_param {
    num_output: 96
    kernel_size: 1
    weight_filler {
      type: "xavier"
    }
    bias_filler {
      type: "constant"
      value: 0.2
    }
  }
}
layer {
  name: "inception_4a/relu_3x3_reduce"
  type: "ReLU"
  bottom: "inception_4a/3x3_reduce"
  top: "inception_4a/3x3_reduce"
}
layer {
  name: "inception_4a/3x3"
  type: "Convolution"
  bottom: "inception_4a/3x3_reduce"
  top: "inception_4a/3x3"
  param {
    lr_mult: 1
    decay_mult: 1
  }
  param {
    lr_mult: 2
    decay_mult: 0
  }
  convolution_param {
    num_output: 208
    pad: 1
    kernel_size: 3
    weight_filler {
      type: "xavier"
    }
    bias_filler {
      type: "constant"
      value: 0.2
    }
  }
}
layer {
  name: "inception_4a/relu_3x3"
  type: "ReLU"
  bottom: "inception_4a/3x3"
  top: "inception_4a/3x3"
}
layer {
  name: "inception_4a/5x5_reduce"
  type: "Convolution"
  bottom: "pool3/3x3_s2"
  top: "inception_4a/5x5_reduce"
  param {
    lr_mult: 1
    decay_mult: 1
  }
  param {
    lr_mult: 2
    decay_mult: 0
  }
  convolution_param {
    num_output: 16
    kernel_size: 1
    weight_filler {
      type: "xavier"
    }
    bias_filler {
      type: "constant"
      value: 0.2
    }
  }
}
layer {
  name: "inception_4a/relu_5x5_reduce"
  type: "ReLU"
  bottom: "inception_4a/5x5_reduce"
  top: "inception_4a/5x5_reduce"
}
layer {
  name: "inception_4a/5x5"
  type: "Convolution"
  bottom: "inception_4a/5x5_reduce"
  top: "inception_4a/5x5"
  param {
    lr_mult: 1
    decay_mult: 1
  }
  param {
    lr_mult: 2
    decay_mult: 0
  }
  convolution_param {
    num_output: 48
    pad: 2
    kernel_size: 5
    weight_filler {
      type: "xavier"
    }
    bias_filler {
      type: "constant"
      value: 0.2
    }
  }
}
layer {
  name: "inception_4a/relu_5x5"
  type: "ReLU"
  bottom: "inception_4a/5x5"
  top: "inception_4a/5x5"
}
layer {
  name: "inception_4a/pool"
  type: "Pooling"
  bottom: "pool3/3x3_s2"
  top: "inception_4a/pool"
  pooling_param {
    pool: MAX
    kernel_size: 3
    stride: 1
    pad: 1
  }
}
layer {
  name: "inception_4a/pool_proj"
  type: "Convolution"
  bottom: "inception_4a/pool"
  top: "inception_4a/pool_proj"
  param {
    lr_mult: 1
    decay_mult: 1
  }
  param {
    lr_mult: 2
    decay_mult: 0
  }
  convolution_param {
    num_output: 64
    kernel_size: 1
    weight_filler {
      type: "xavier"
    }
    bias_filler {
      type: "constant"
      value: 0.2
    }
  }
}
layer {
  name: "inception_4a/relu_pool_proj"
  type: "ReLU"
  bottom: "inception_4a/pool_proj"
  top: "inception_4a/pool_proj"
}
layer {
  name: "inception_4a/output"
  type: "Concat"
  bottom: "inception_4a/1x1"
  bottom: "inception_4a/3x3"
  bottom: "inception_4a/5x5"
  bottom: "inception_4a/pool_proj"
  top: "inception_4a/output"
}
layer {
  name: "loss1/ave_pool"
  type: "Pooling"
  bottom: "inception_4a/output"
  top: "loss1/ave_pool"
  pooling_param {
    pool: AVE
    kernel_size: 5
    stride: 3
  }
}
layer {
  name: "loss1/conv"
  type: "Convolution"
  bottom: "loss1/ave_pool"
  top: "loss1/conv"
  param {
    lr_mult: 1
    decay_mult: 1
  }
  param {
    lr_mult: 2
    decay_mult: 0
  }
  convolution_param {
    num_output: 128
    kernel_size: 1
    weight_filler {
      type: "xavier"
    }
    bias_filler {
      type: "constant"
      value: 0.2
    }
  }
}
layer {
  name: "loss1/relu_conv"
  type: "ReLU"
  bottom: "loss1/conv"
  top: "loss1/conv"
}
layer {
  name: "loss1/fc"
  type: "InnerProduct"
  bottom: "loss1/conv"
  top: "loss1/fc"
  param {
    lr_mult: 1
    decay_mult: 1
  }
  param {
    lr_mult: 2
    decay_mult: 0
  }
  inner_product_param {
    num_output: 1024
    weight_filler {
      type: "xavier"
    }
    bias_filler {
      type: "constant"
      value: 0.2
    }
  }
}
layer {
  name: "loss1/relu_fc"
  type: "ReLU"
  bottom: "loss1/fc"
  top: "loss1/fc"
}
layer {
  name: "loss1/drop_fc"
  type: "Dropout"
  bottom: "loss1/fc"
  top: "loss1/fc"
  dropout_param {
    dropout_ratio: 0.7
  }
}
layer {
  name: "loss1/classifier_kaggle"
  type: "InnerProduct"
  bottom: "loss1/fc"
  top: "loss1/classifier_kaggle"
  param {
    lr_mult: 1
    decay_mult: 1
  }
  param {
    lr_mult: 2
    decay_mult: 0
  }
  inner_product_param {
    num_output: 447
    weight_filler {
      type: "xavier"
    }
    bias_filler {
      type: "constant"
      value: 0
    }
  }
}
layer {
  name: "loss1/loss"
  type: "SoftmaxWithLoss"
  bottom: "loss1/classifier_kaggle"
  bottom: "label"
  top: "loss1/loss1"
  loss_weight: 0.3
}
layer {
  name: "inception_4b/1x1"
  type: "Convolution"
  bottom: "inception_4a/output"
  top: "inception_4b/1x1"
  param {
    lr_mult: 1
    decay_mult: 1
  }
  param {
    lr_mult: 2
    decay_mult: 0
  }
  convolution_param {
    num_output: 160
    kernel_size: 1
    weight_filler {
      type: "xavier"
    }
    bias_filler {
      type: "constant"
      value: 0.2
    }
  }
}
layer {
  name: "inception_4b/relu_1x1"
  type: "ReLU"
  bottom: "inception_4b/1x1"
  top: "inception_4b/1x1"
}
layer {
  name: "inception_4b/3x3_reduce"
  type: "Convolution"
  bottom: "inception_4a/output"
  top: "inception_4b/3x3_reduce"
  param {
    lr_mult: 1
    decay_mult: 1
  }
  param {
    lr_mult: 2
    decay_mult: 0
  }
  convolution_param {
    num_output: 112
    kernel_size: 1
    weight_filler {
      type: "xavier"
    }
    bias_filler {
      type: "constant"
      value: 0.2
    }
  }
}
layer {
  name: "inception_4b/relu_3x3_reduce"
  type: "ReLU"
  bottom: "inception_4b/3x3_reduce"
  top: "inception_4b/3x3_reduce"
}
layer {
  name: "inception_4b/3x3"
  type: "Convolution"
  bottom: "inception_4b/3x3_reduce"
  top: "inception_4b/3x3"
  param {
    lr_mult: 1
    decay_mult: 1
  }
  param {
    lr_mult: 2
    decay_mult: 0
  }
  convolution_param {
    num_output: 224
    pad: 1
    kernel_size: 3
    weight_filler {
      type: "xavier"
    }
    bias_filler {
      type: "constant"
      value: 0.2
    }
  }
}
layer {
  name: "inception_4b/relu_3x3"
  type: "ReLU"
  bottom: "inception_4b/3x3"
  top: "inception_4b/3x3"
}
layer {
  name: "inception_4b/5x5_reduce"
  type: "Convolution"
  bottom: "inception_4a/output"
  top: "inception_4b/5x5_reduce"
  param {
    lr_mult: 1
    decay_mult: 1
  }
  param {
    lr_mult: 2
    decay_mult: 0
  }
  convolution_param {
    num_output: 24
    kernel_size: 1
    weight_filler {
      type: "xavier"
    }
    bias_filler {
      type: "constant"
      value: 0.2
    }
  }
}
layer {
  name: "inception_4b/relu_5x5_reduce"
  type: "ReLU"
  bottom: "inception_4b/5x5_reduce"
  top: "inception_4b/5x5_reduce"
}
layer {
  name: "inception_4b/5x5"
  type: "Convolution"
  bottom: "inception_4b/5x5_reduce"
  top: "inception_4b/5x5"
  param {
    lr_mult: 1
    decay_mult: 1
  }
  param {
    lr_mult: 2
    decay_mult: 0
  }
  convolution_param {
    num_output: 64
    pad: 2
    kernel_size: 5
    weight_filler {
      type: "xavier"
    }
    bias_filler {
      type: "constant"
      value: 0.2
    }
  }
}
layer {
  name: "inception_4b/relu_5x5"
  type: "ReLU"
  bottom: "inception_4b/5x5"
  top: "inception_4b/5x5"
}
layer {
  name: "inception_4b/pool"
  type: "Pooling"
  bottom: "inception_4a/output"
  top: "inception_4b/pool"
  pooling_param {
    pool: MAX
    kernel_size: 3
    stride: 1
    pad: 1
  }
}
layer {
  name: "inception_4b/pool_proj"
  type: "Convolution"
  bottom: "inception_4b/pool"
  top: "inception_4b/pool_proj"
  param {
    lr_mult: 1
    decay_mult: 1
  }
  param {
    lr_mult: 2
    decay_mult: 0
  }
  convolution_param {
    num_output: 64
    kernel_size: 1
    weight_filler {
      type: "xavier"
    }
    bias_filler {
      type: "constant"
      value: 0.2
    }
  }
}
layer {
  name: "inception_4b/relu_pool_proj"
  type: "ReLU"
  bottom: "inception_4b/pool_proj"
  top: "inception_4b/pool_proj"
}
layer {
  name: "inception_4b/output"
  type: "Concat"
  bottom: "inception_4b/1x1"
  bottom: "inception_4b/3x3"
  bottom: "inception_4b/5x5"
  bottom: "inception_4b/pool_proj"
  top: "inception_4b/output"
}
layer {
  name: "inception_4c/1x1"
  type: "Convolution"
  bottom: "inception_4b/output"
  top: "inception_4c/1x1"
  param {
    lr_mult: 1
    decay_mult: 1
  }
  param {
    lr_mult: 2
    decay_mult: 0
  }
  convolution_param {
    num_output: 128
    kernel_size: 1
    weight_filler {
      type: "xavier"
    }
    bias_filler {
      type: "constant"
      value: 0.2
    }
  }
}
layer {
  name: "inception_4c/relu_1x1"
  type: "ReLU"
  bottom: "inception_4c/1x1"
  top: "inception_4c/1x1"
}
layer {
  name: "inception_4c/3x3_reduce"
  type: "Convolution"
  bottom: "inception_4b/output"
  top: "inception_4c/3x3_reduce"
  param {
    lr_mult: 1
    decay_mult: 1
  }
  param {
    lr_mult: 2
    decay_mult: 0
  }
  convolution_param {
    num_output: 128
    kernel_size: 1
    weight_filler {
      type: "xavier"
    }
    bias_filler {
      type: "constant"
      value: 0.2
    }
  }
}
layer {
  name: "inception_4c/relu_3x3_reduce"
  type: "ReLU"
  bottom: "inception_4c/3x3_reduce"
  top: "inception_4c/3x3_reduce"
}
layer {
  name: "inception_4c/3x3"
  type: "Convolution"
  bottom: "inception_4c/3x3_reduce"
  top: "inception_4c/3x3"
  param {
    lr_mult: 1
    decay_mult: 1
  }
  param {
    lr_mult: 2
    decay_mult: 0
  }
  convolution_param {
    num_output: 256
    pad: 1
    kernel_size: 3
    weight_filler {
      type: "xavier"
    }
    bias_filler {
      type: "constant"
      value: 0.2
    }
  }
}
layer {
  name: "inception_4c/relu_3x3"
  type: "ReLU"
  bottom: "inception_4c/3x3"
  top: "inception_4c/3x3"
}
layer {
  name: "inception_4c/5x5_reduce"
  type: "Convolution"
  bottom: "inception_4b/output"
  top: "inception_4c/5x5_reduce"
  param {
    lr_mult: 1
    decay_mult: 1
  }
  param {
    lr_mult: 2
    decay_mult: 0
  }
  convolution_param {
    num_output: 24
    kernel_size: 1
    weight_filler {
      type: "xavier"
    }
    bias_filler {
      type: "constant"
      value: 0.2
    }
  }
}
layer {
  name: "inception_4c/relu_5x5_reduce"
  type: "ReLU"
  bottom: "inception_4c/5x5_reduce"
  top: "inception_4c/5x5_reduce"
}
layer {
  name: "inception_4c/5x5"
  type: "Convolution"
  bottom: "inception_4c/5x5_reduce"
  top: "inception_4c/5x5"
  param {
    lr_mult: 1
    decay_mult: 1
  }
  param {
    lr_mult: 2
    decay_mult: 0
  }
  convolution_param {
    num_output: 64
    pad: 2
    kernel_size: 5
    weight_filler {
      type: "xavier"
    }
    bias_filler {
      type: "constant"
      value: 0.2
    }
  }
}
layer {
  name: "inception_4c/relu_5x5"
  type: "ReLU"
  bottom: "inception_4c/5x5"
  top: "inception_4c/5x5"
}
layer {
  name: "inception_4c/pool"
  type: "Pooling"
  bottom: "inception_4b/output"
  top: "inception_4c/pool"
  pooling_param {
    pool: MAX
    kernel_size: 3
    stride: 1
    pad: 1
  }
}
layer {
  name: "inception_4c/pool_proj"
  type: "Convolution"
  bottom: "inception_4c/pool"
  top: "inception_4c/pool_proj"
  param {
    lr_mult: 1
    decay_mult: 1
  }
  param {
    lr_mult: 2
    decay_mult: 0
  }
  convolution_param {
    num_output: 64
    kernel_size: 1
    weight_filler {
      type: "xavier"
    }
    bias_filler {
      type: "constant"
      value: 0.2
    }
  }
}
layer {
  name: "inception_4c/relu_pool_proj"
  type: "ReLU"
  bottom: "inception_4c/pool_proj"
  top: "inception_4c/pool_proj"
}
layer {
  name: "inception_4c/output"
  type: "Concat"
  bottom: "inception_4c/1x1"
  bottom: "inception_4c/3x3"
  bottom: "inception_4c/5x5"
  bottom: "inception_4c/pool_proj"
  top: "inception_4c/output"
}
layer {
  name: "inception_4d/1x1"
  type: "Convolution"
  bottom: "inception_4c/output"
  top: "inception_4d/1x1"
  param {
    lr_mult: 1
    decay_mult: 1
  }
  param {
    lr_mult: 2
    decay_mult: 0
  }
  convolution_param {
    num_output: 112
    kernel_size: 1
    weight_filler {
      type: "xavier"
    }
    bias_filler {
      type: "constant"
      value: 0.2
    }
  }
}
layer {
  name: "inception_4d/relu_1x1"
  type: "ReLU"
  bottom: "inception_4d/1x1"
  top: "inception_4d/1x1"
}
layer {
  name: "inception_4d/3x3_reduce"
  type: "Convolution"
  bottom: "inception_4c/output"
  top: "inception_4d/3x3_reduce"
  param {
    lr_mult: 1
    decay_mult: 1
  }
  param {
    lr_mult: 2
    decay_mult: 0
  }
  convolution_param {
    num_output: 144
    kernel_size: 1
    weight_filler {
      type: "xavier"
    }
    bias_filler {
      type: "constant"
      value: 0.2
    }
  }
}
layer {
  name: "inception_4d/relu_3x3_reduce"
  type: "ReLU"
  bottom: "inception_4d/3x3_reduce"
  top: "inception_4d/3x3_reduce"
}
layer {
  name: "inception_4d/3x3"
  type: "Convolution"
  bottom: "inception_4d/3x3_reduce"
  top: "inception_4d/3x3"
  param {
    lr_mult: 1
    decay_mult: 1
  }
  param {
    lr_mult: 2
    decay_mult: 0
  }
  convolution_param {
    num_output: 288
    pad: 1
    kernel_size: 3
    weight_filler {
      type: "xavier"
    }
    bias_filler {
      type: "constant"
      value: 0.2
    }
  }
}
layer {
  name: "inception_4d/relu_3x3"
  type: "ReLU"
  bottom: "inception_4d/3x3"
  top: "inception_4d/3x3"
}
layer {
  name: "inception_4d/5x5_reduce"
  type: "Convolution"
  bottom: "inception_4c/output"
  top: "inception_4d/5x5_reduce"
  param {
    lr_mult: 1
    decay_mult: 1
  }
  param {
    lr_mult: 2
    decay_mult: 0
  }
  convolution_param {
    num_output: 32
    kernel_size: 1
    weight_filler {
      type: "xavier"
    }
    bias_filler {
      type: "constant"
      value: 0.2
    }
  }
}
layer {
  name: "inception_4d/relu_5x5_reduce"
  type: "ReLU"
  bottom: "inception_4d/5x5_reduce"
  top: "inception_4d/5x5_reduce"
}
layer {
  name: "inception_4d/5x5"
  type: "Convolution"
  bottom: "inception_4d/5x5_reduce"
  top: "inception_4d/5x5"
  param {
    lr_mult: 1
    decay_mult: 1
  }
  param {
    lr_mult: 2
    decay_mult: 0
  }
  convolution_param {
    num_output: 64
    pad: 2
    kernel_size: 5
    weight_filler {
      type: "xavier"
    }
    bias_filler {
      type: "constant"
      value: 0.2
    }
  }
}
layer {
  name: "inception_4d/relu_5x5"
  type: "ReLU"
  bottom: "inception_4d/5x5"
  top: "inception_4d/5x5"
}
layer {
  name: "inception_4d/pool"
  type: "Pooling"
  bottom: "inception_4c/output"
  top: "inception_4d/pool"
  pooling_param {
    pool: MAX
    kernel_size: 3
    stride: 1
    pad: 1
  }
}
layer {
  name: "inception_4d/pool_proj"
  type: "Convolution"
  bottom: "inception_4d/pool"
  top: "inception_4d/pool_proj"
  param {
    lr_mult: 1
    decay_mult: 1
  }
  param {
    lr_mult: 2
    decay_mult: 0
  }
  convolution_param {
    num_output: 64
    kernel_size: 1
    weight_filler {
      type: "xavier"
    }
    bias_filler {
      type: "constant"
      value: 0.2
    }
  }
}
layer {
  name: "inception_4d/relu_pool_proj"
  type: "ReLU"
  bottom: "inception_4d/pool_proj"
  top: "inception_4d/pool_proj"
}
layer {
  name: "inception_4d/output"
  type: "Concat"
  bottom: "inception_4d/1x1"
  bottom: "inception_4d/3x3"
  bottom: "inception_4d/5x5"
  bottom: "inception_4d/pool_proj"
  top: "inception_4d/output"
}
layer {
  name: "loss2/ave_pool"
  type: "Pooling"
  bottom: "inception_4d/output"
  top: "loss2/ave_pool"
  pooling_param {
    pool: AVE
    kernel_size: 5
    stride: 3
  }
}
layer {
  name: "loss2/conv"
  type: "Convolution"
  bottom: "loss2/ave_pool"
  top: "loss2/conv"
  param {
    lr_mult: 1
    decay_mult: 1
  }
  param {
    lr_mult: 2
    decay_mult: 0
  }
  convolution_param {
    num_output: 128
    kernel_size: 1
    weight_filler {
      type: "xavier"
    }
    bias_filler {
      type: "constant"
      value: 0.2
    }
  }
}
layer {
  name: "loss2/relu_conv"
  type: "ReLU"
  bottom: "loss2/conv"
  top: "loss2/conv"
}
layer {
  name: "loss2/fc"
  type: "InnerProduct"
  bottom: "loss2/conv"
  top: "loss2/fc"
  param {
    lr_mult: 1
    decay_mult: 1
  }
  param {
    lr_mult: 2
    decay_mult: 0
  }
  inner_product_param {
    num_output: 1024
    weight_filler {
      type: "xavier"
    }
    bias_filler {
      type: "constant"
      value: 0.2
    }
  }
}
layer {
  name: "loss2/relu_fc"
  type: "ReLU"
  bottom: "loss2/fc"
  top: "loss2/fc"
}
layer {
  name: "loss2/drop_fc"
  type: "Dropout"
  bottom: "loss2/fc"
  top: "loss2/fc"
  dropout_param {
    dropout_ratio: 0.7
  }
}
layer {
  name: "loss2/classifier_kaggle"
  type: "InnerProduct"
  bottom: "loss2/fc"
  top: "loss2/classifier_kaggle"
  param {
    lr_mult: 1
    decay_mult: 1
  }
  param {
    lr_mult: 2
    decay_mult: 0
  }
  inner_product_param {
    num_output: 447
    weight_filler {
      type: "xavier"
    }
    bias_filler {
      type: "constant"
      value: 0
    }
  }
}
layer {
  name: "loss2/loss"
  type: "SoftmaxWithLoss"
  bottom: "loss2/classifier_kaggle"
  bottom: "label"
  top: "loss2/loss1"
  loss_weight: 0.3
}
layer {
  name: "inception_4e/1x1"
  type: "Convolution"
  bottom: "inception_4d/output"
  top: "inception_4e/1x1"
  param {
    lr_mult: 1
    decay_mult: 1
  }
  param {
    lr_mult: 2
    decay_mult: 0
  }
  convolution_param {
    num_output: 256
    kernel_size: 1
    weight_filler {
      type: "xavier"
    }
    bias_filler {
      type: "constant"
      value: 0.2
    }
  }
}
layer {
  name: "inception_4e/relu_1x1"
  type: "ReLU"
  bottom: "inception_4e/1x1"
  top: "inception_4e/1x1"
}
layer {
  name: "inception_4e/3x3_reduce"
  type: "Convolution"
  bottom: "inception_4d/output"
  top: "inception_4e/3x3_reduce"
  param {
    lr_mult: 1
    decay_mult: 1
  }
  param {
    lr_mult: 2
    decay_mult: 0
  }
  convolution_param {
    num_output: 160
    kernel_size: 1
    weight_filler {
      type: "xavier"
    }
    bias_filler {
      type: "constant"
      value: 0.2
    }
  }
}
layer {
  name: "inception_4e/relu_3x3_reduce"
  type: "ReLU"
  bottom: "inception_4e/3x3_reduce"
  top: "inception_4e/3x3_reduce"
}
layer {
  name: "inception_4e/3x3"
  type: "Convolution"
  bottom: "inception_4e/3x3_reduce"
  top: "inception_4e/3x3"
  param {
    lr_mult: 1
    decay_mult: 1
  }
  param {
    lr_mult: 2
    decay_mult: 0
  }
  convolution_param {
    num_output: 320
    pad: 1
    kernel_size: 3
    weight_filler {
      type: "xavier"
    }
    bias_filler {
      type: "constant"
      value: 0.2
    }
  }
}
layer {
  name: "inception_4e/relu_3x3"
  type: "ReLU"
  bottom: "inception_4e/3x3"
  top: "inception_4e/3x3"
}
layer {
  name: "inception_4e/5x5_reduce"
  type: "Convolution"
  bottom: "inception_4d/output"
  top: "inception_4e/5x5_reduce"
  param {
    lr_mult: 1
    decay_mult: 1
  }
  param {
    lr_mult: 2
    decay_mult: 0
  }
  convolution_param {
    num_output: 32
    kernel_size: 1
    weight_filler {
      type: "xavier"
    }
    bias_filler {
      type: "constant"
      value: 0.2
    }
  }
}
layer {
  name: "inception_4e/relu_5x5_reduce"
  type: "ReLU"
  bottom: "inception_4e/5x5_reduce"
  top: "inception_4e/5x5_reduce"
}
layer {
  name: "inception_4e/5x5"
  type: "Convolution"
  bottom: "inception_4e/5x5_reduce"
  top: "inception_4e/5x5"
  param {
    lr_mult: 1
    decay_mult: 1
  }
  param {
    lr_mult: 2
    decay_mult: 0
  }
  convolution_param {
    num_output: 128
    pad: 2
    kernel_size: 5
    weight_filler {
      type: "xavier"
    }
    bias_filler {
      type: "constant"
      value: 0.2
    }
  }
}
layer {
  name: "inception_4e/relu_5x5"
  type: "ReLU"
  bottom: "inception_4e/5x5"
  top: "inception_4e/5x5"
}
layer {
  name: "inception_4e/pool"
  type: "Pooling"
  bottom: "inception_4d/output"
  top: "inception_4e/pool"
  pooling_param {
   
I1216 23:01:43.801252 18570 layer_factory.hpp:74] Creating layer data
I1216 23:01:43.801290 18570 net.cpp:84] Creating Layer data
I1216 23:01:43.801301 18570 net.cpp:338] data -> data
I1216 23:01:43.801342 18570 net.cpp:338] data -> label
I1216 23:01:43.801372 18570 net.cpp:113] Setting up data
I1216 23:01:43.801484 18570 db.cpp:34] Opened lmdb /home/coldmanck/kaggle/kaggle2_train_lmdb
I1216 23:01:43.801718 18570 data_layer.cpp:67] output data size: 80,3,224,224
I1216 23:01:44.116219 18570 net.cpp:120] Top shape: 80 3 224 224 (12042240)
I1216 23:01:44.116250 18570 net.cpp:120] Top shape: 80 (80)
I1216 23:01:44.116266 18570 layer_factory.hpp:74] Creating layer label_data_1_split
I1216 23:01:44.116302 18570 net.cpp:84] Creating Layer label_data_1_split
I1216 23:01:44.116310 18570 net.cpp:380] label_data_1_split <- label
I1216 23:01:44.116348 18570 net.cpp:338] label_data_1_split -> label_data_1_split_0
I1216 23:01:44.116361 18570 net.cpp:338] label_data_1_split -> label_data_1_split_1
I1216 23:01:44.116370 18570 net.cpp:338] label_data_1_split -> label_data_1_split_2
I1216 23:01:44.116377 18570 net.cpp:113] Setting up label_data_1_split
I1216 23:01:44.116389 18570 net.cpp:120] Top shape: 80 (80)
I1216 23:01:44.116402 18570 net.cpp:120] Top shape: 80 (80)
I1216 23:01:44.116417 18570 net.cpp:120] Top shape: 80 (80)
I1216 23:01:44.116422 18570 layer_factory.hpp:74] Creating layer conv1/7x7_s2
I1216 23:01:44.116437 18570 net.cpp:84] Creating Layer conv1/7x7_s2
I1216 23:01:44.116443 18570 net.cpp:380] conv1/7x7_s2 <- data
I1216 23:01:44.116452 18570 net.cpp:338] conv1/7x7_s2 -> conv1/7x7_s2
I1216 23:01:44.116463 18570 net.cpp:113] Setting up conv1/7x7_s2
I1216 23:01:44.440536 18570 net.cpp:120] Top shape: 80 64 112 112 (64225280)
I1216 23:01:44.440611 18570 layer_factory.hpp:74] Creating layer conv1/relu_7x7
I1216 23:01:44.440626 18570 net.cpp:84] Creating Layer conv1/relu_7x7
I1216 23:01:44.440634 18570 net.cpp:380] conv1/relu_7x7 <- conv1/7x7_s2
I1216 23:01:44.440642 18570 net.cpp:327] conv1/relu_7x7 -> conv1/7x7_s2 (in-place)
I1216 23:01:44.440654 18570 net.cpp:113] Setting up conv1/relu_7x7
I1216 23:01:44.440910 18570 net.cpp:120] Top shape: 80 64 112 112 (64225280)
I1216 23:01:44.440922 18570 layer_factory.hpp:74] Creating layer pool1/3x3_s2
I1216 23:01:44.440937 18570 net.cpp:84] Creating Layer pool1/3x3_s2
I1216 23:01:44.440943 18570 net.cpp:380] pool1/3x3_s2 <- conv1/7x7_s2
I1216 23:01:44.440950 18570 net.cpp:338] pool1/3x3_s2 -> pool1/3x3_s2
I1216 23:01:44.440958 18570 net.cpp:113] Setting up pool1/3x3_s2
I1216 23:01:44.441030 18570 net.cpp:120] Top shape: 80 64 56 56 (16056320)
I1216 23:01:44.441046 18570 layer_factory.hpp:74] Creating layer pool1/norm1
I1216 23:01:44.441064 18570 net.cpp:84] Creating Layer pool1/norm1
I1216 23:01:44.441071 18570 net.cpp:380] pool1/norm1 <- pool1/3x3_s2
I1216 23:01:44.441077 18570 net.cpp:338] pool1/norm1 -> pool1/norm1
I1216 23:01:44.441087 18570 net.cpp:113] Setting up pool1/norm1
I1216 23:01:44.441098 18570 net.cpp:120] Top shape: 80 64 56 56 (16056320)
I1216 23:01:44.441109 18570 layer_factory.hpp:74] Creating layer conv2/3x3_reduce
I1216 23:01:44.441125 18570 net.cpp:84] Creating Layer conv2/3x3_reduce
I1216 23:01:44.441130 18570 net.cpp:380] conv2/3x3_reduce <- pool1/norm1
I1216 23:01:44.441143 18570 net.cpp:338] conv2/3x3_reduce -> conv2/3x3_reduce
I1216 23:01:44.441154 18570 net.cpp:113] Setting up conv2/3x3_reduce
I1216 23:01:44.441846 18570 net.cpp:120] Top shape: 80 64 56 56 (16056320)
I1216 23:01:44.441866 18570 layer_factory.hpp:74] Creating layer conv2/relu_3x3_reduce
I1216 23:01:44.441884 18570 net.cpp:84] Creating Layer conv2/relu_3x3_reduce
I1216 23:01:44.441890 18570 net.cpp:380] conv2/relu_3x3_reduce <- conv2/3x3_reduce
I1216 23:01:44.441896 18570 net.cpp:327] conv2/relu_3x3_reduce -> conv2/3x3_reduce (in-place)
I1216 23:01:44.441903 18570 net.cpp:113] Setting up conv2/relu_3x3_reduce
I1216 23:01:44.441962 18570 net.cpp:120] Top shape: 80 64 56 56 (16056320)
I1216 23:01:44.441967 18570 layer_factory.hpp:74] Creating layer conv2/3x3
I1216 23:01:44.441978 18570 net.cpp:84] Creating Layer conv2/3x3
I1216 23:01:44.441983 18570 net.cpp:380] conv2/3x3 <- conv2/3x3_reduce
I1216 23:01:44.441997 18570 net.cpp:338] conv2/3x3 -> conv2/3x3
I1216 23:01:44.442005 18570 net.cpp:113] Setting up conv2/3x3
I1216 23:01:44.443955 18570 net.cpp:120] Top shape: 80 192 56 56 (48168960)
I1216 23:01:44.443977 18570 layer_factory.hpp:74] Creating layer conv2/relu_3x3
I1216 23:01:44.443996 18570 net.cpp:84] Creating Layer conv2/relu_3x3
I1216 23:01:44.444001 18570 net.cpp:380] conv2/relu_3x3 <- conv2/3x3
I1216 23:01:44.444008 18570 net.cpp:327] conv2/relu_3x3 -> conv2/3x3 (in-place)
I1216 23:01:44.444016 18570 net.cpp:113] Setting up conv2/relu_3x3
I1216 23:01:44.444538 18570 net.cpp:120] Top shape: 80 192 56 56 (48168960)
I1216 23:01:44.444599 18570 layer_factory.hpp:74] Creating layer conv2/norm2
I1216 23:01:44.444607 18570 net.cpp:84] Creating Layer conv2/norm2
I1216 23:01:44.444612 18570 net.cpp:380] conv2/norm2 <- conv2/3x3
I1216 23:01:44.444627 18570 net.cpp:338] conv2/norm2 -> conv2/norm2
I1216 23:01:44.444634 18570 net.cpp:113] Setting up conv2/norm2
I1216 23:01:44.444643 18570 net.cpp:120] Top shape: 80 192 56 56 (48168960)
I1216 23:01:44.444648 18570 layer_factory.hpp:74] Creating layer pool2/3x3_s2
I1216 23:01:44.444674 18570 net.cpp:84] Creating Layer pool2/3x3_s2
I1216 23:01:44.444680 18570 net.cpp:380] pool2/3x3_s2 <- conv2/norm2
I1216 23:01:44.444686 18570 net.cpp:338] pool2/3x3_s2 -> pool2/3x3_s2
I1216 23:01:44.444692 18570 net.cpp:113] Setting up pool2/3x3_s2
I1216 23:01:44.444766 18570 net.cpp:120] Top shape: 80 192 28 28 (12042240)
I1216 23:01:44.444772 18570 layer_factory.hpp:74] Creating layer pool2/3x3_s2_pool2/3x3_s2_0_split
I1216 23:01:44.444779 18570 net.cpp:84] Creating Layer pool2/3x3_s2_pool2/3x3_s2_0_split
I1216 23:01:44.444784 18570 net.cpp:380] pool2/3x3_s2_pool2/3x3_s2_0_split <- pool2/3x3_s2
I1216 23:01:44.444790 18570 net.cpp:338] pool2/3x3_s2_pool2/3x3_s2_0_split -> pool2/3x3_s2_pool2/3x3_s2_0_split_0
I1216 23:01:44.444797 18570 net.cpp:338] pool2/3x3_s2_pool2/3x3_s2_0_split -> pool2/3x3_s2_pool2/3x3_s2_0_split_1
I1216 23:01:44.444804 18570 net.cpp:338] pool2/3x3_s2_pool2/3x3_s2_0_split -> pool2/3x3_s2_pool2/3x3_s2_0_split_2
I1216 23:01:44.444813 18570 net.cpp:338] pool2/3x3_s2_pool2/3x3_s2_0_split -> pool2/3x3_s2_pool2/3x3_s2_0_split_3
I1216 23:01:44.444818 18570 net.cpp:113] Setting up pool2/3x3_s2_pool2/3x3_s2_0_split
I1216 23:01:44.444825 18570 net.cpp:120] Top shape: 80 192 28 28 (12042240)
I1216 23:01:44.444830 18570 net.cpp:120] Top shape: 80 192 28 28 (12042240)
I1216 23:01:44.444834 18570 net.cpp:120] Top shape: 80 192 28 28 (12042240)
I1216 23:01:44.444839 18570 net.cpp:120] Top shape: 80 192 28 28 (12042240)
I1216 23:01:44.444844 18570 layer_factory.hpp:74] Creating layer inception_3a/1x1
I1216 23:01:44.444854 18570 net.cpp:84] Creating Layer inception_3a/1x1
I1216 23:01:44.444857 18570 net.cpp:380] inception_3a/1x1 <- pool2/3x3_s2_pool2/3x3_s2_0_split_0
I1216 23:01:44.444864 18570 net.cpp:338] inception_3a/1x1 -> inception_3a/1x1
I1216 23:01:44.444872 18570 net.cpp:113] Setting up inception_3a/1x1
I1216 23:01:44.446408 18570 net.cpp:120] Top shape: 80 64 28 28 (4014080)
I1216 23:01:44.446429 18570 layer_factory.hpp:74] Creating layer inception_3a/relu_1x1
I1216 23:01:44.446445 18570 net.cpp:84] Creating Layer inception_3a/relu_1x1
I1216 23:01:44.446451 18570 net.cpp:380] inception_3a/relu_1x1 <- inception_3a/1x1
I1216 23:01:44.446467 18570 net.cpp:327] inception_3a/relu_1x1 -> inception_3a/1x1 (in-place)
I1216 23:01:44.446475 18570 net.cpp:113] Setting up inception_3a/relu_1x1
I1216 23:01:44.446573 18570 net.cpp:120] Top shape: 80 64 28 28 (4014080)
I1216 23:01:44.446583 18570 layer_factory.hpp:74] Creating layer inception_3a/3x3_reduce
I1216 23:01:44.446590 18570 net.cpp:84] Creating Layer inception_3a/3x3_reduce
I1216 23:01:44.446595 18570 net.cpp:380] inception_3a/3x3_reduce <- pool2/3x3_s2_pool2/3x3_s2_0_split_1
I1216 23:01:44.446604 18570 net.cpp:338] inception_3a/3x3_reduce -> inception_3a/3x3_reduce
I1216 23:01:44.446614 18570 net.cpp:113] Setting up inception_3a/3x3_reduce
I1216 23:01:44.447252 18570 net.cpp:120] Top shape: 80 96 28 28 (6021120)
I1216 23:01:44.447274 18570 layer_factory.hpp:74] Creating layer inception_3a/relu_3x3_reduce
I1216 23:01:44.447288 18570 net.cpp:84] Creating Layer inception_3a/relu_3x3_reduce
I1216 23:01:44.447293 18570 net.cpp:380] inception_3a/relu_3x3_reduce <- inception_3a/3x3_reduce
I1216 23:01:44.447309 18570 net.cpp:327] inception_3a/relu_3x3_reduce -> inception_3a/3x3_reduce (in-place)
I1216 23:01:44.447317 18570 net.cpp:113] Setting up inception_3a/relu_3x3_reduce
I1216 23:01:44.447382 18570 net.cpp:120] Top shape: 80 96 28 28 (6021120)
I1216 23:01:44.447397 18570 layer_factory.hpp:74] Creating layer inception_3a/3x3
I1216 23:01:44.447420 18570 net.cpp:84] Creating Layer inception_3a/3x3
I1216 23:01:44.447427 18570 net.cpp:380] inception_3a/3x3 <- inception_3a/3x3_reduce
I1216 23:01:44.447433 18570 net.cpp:338] inception_3a/3x3 -> inception_3a/3x3
I1216 23:01:44.447441 18570 net.cpp:113] Setting up inception_3a/3x3
I1216 23:01:44.449236 18570 net.cpp:120] Top shape: 80 128 28 28 (8028160)
I1216 23:01:44.449252 18570 layer_factory.hpp:74] Creating layer inception_3a/relu_3x3
I1216 23:01:44.449266 18570 net.cpp:84] Creating Layer inception_3a/relu_3x3
I1216 23:01:44.449278 18570 net.cpp:380] inception_3a/relu_3x3 <- inception_3a/3x3
I1216 23:01:44.449285 18570 net.cpp:327] inception_3a/relu_3x3 -> inception_3a/3x3 (in-place)
I1216 23:01:44.449293 18570 net.cpp:113] Setting up inception_3a/relu_3x3
I1216 23:01:44.449563 18570 net.cpp:120] Top shape: 80 128 28 28 (8028160)
I1216 23:01:44.449574 18570 layer_factory.hpp:74] Creating layer inception_3a/5x5_reduce
I1216 23:01:44.449584 18570 net.cpp:84] Creating Layer inception_3a/5x5_reduce
I1216 23:01:44.449589 18570 net.cpp:380] inception_3a/5x5_reduce <- pool2/3x3_s2_pool2/3x3_s2_0_split_2
I1216 23:01:44.449596 18570 net.cpp:338] inception_3a/5x5_reduce -> inception_3a/5x5_reduce
I1216 23:01:44.449606 18570 net.cpp:113] Setting up inception_3a/5x5_reduce
I1216 23:01:44.453404 18570 net.cpp:120] Top shape: 80 16 28 28 (1003520)
I1216 23:01:44.453420 18570 layer_factory.hpp:74] Creating layer inception_3a/relu_5x5_reduce
I1216 23:01:44.453436 18570 net.cpp:84] Creating Layer inception_3a/relu_5x5_reduce
I1216 23:01:44.453441 18570 net.cpp:380] inception_3a/relu_5x5_reduce <- inception_3a/5x5_reduce
I1216 23:01:44.453449 18570 net.cpp:327] inception_3a/relu_5x5_reduce -> inception_3a/5x5_reduce (in-place)
I1216 23:01:44.453457 18570 net.cpp:113] Setting up inception_3a/relu_5x5_reduce
I1216 23:01:44.453526 18570 net.cpp:120] Top shape: 80 16 28 28 (1003520)
I1216 23:01:44.453538 18570 layer_factory.hpp:74] Creating layer inception_3a/5x5
I1216 23:01:44.453547 18570 net.cpp:84] Creating Layer inception_3a/5x5
I1216 23:01:44.453550 18570 net.cpp:380] inception_3a/5x5 <- inception_3a/5x5_reduce
I1216 23:01:44.453559 18570 net.cpp:338] inception_3a/5x5 -> inception_3a/5x5
I1216 23:01:44.453567 18570 net.cpp:113] Setting up inception_3a/5x5
I1216 23:01:44.454129 18570 net.cpp:120] Top shape: 80 32 28 28 (2007040)
I1216 23:01:44.454145 18570 layer_factory.hpp:74] Creating layer inception_3a/relu_5x5
I1216 23:01:44.454152 18570 net.cpp:84] Creating Layer inception_3a/relu_5x5
I1216 23:01:44.454159 18570 net.cpp:380] inception_3a/relu_5x5 <- inception_3a/5x5
I1216 23:01:44.454164 18570 net.cpp:327] inception_3a/relu_5x5 -> inception_3a/5x5 (in-place)
I1216 23:01:44.454172 18570 net.cpp:113] Setting up inception_3a/relu_5x5
I1216 23:01:44.454241 18570 net.cpp:120] Top shape: 80 32 28 28 (2007040)
I1216 23:01:44.454246 18570 layer_factory.hpp:74] Creating layer inception_3a/pool
I1216 23:01:44.454252 18570 layer_factory.cpp:56] CUDNN does not support padding or multiple tops. Using Caffe's own pooling layer.
I1216 23:01:44.454259 18570 net.cpp:84] Creating Layer inception_3a/pool
I1216 23:01:44.454265 18570 net.cpp:380] inception_3a/pool <- pool2/3x3_s2_pool2/3x3_s2_0_split_3
I1216 23:01:44.454272 18570 net.cpp:338] inception_3a/pool -> inception_3a/pool
I1216 23:01:44.454279 18570 net.cpp:113] Setting up inception_3a/pool
I1216 23:01:44.454288 18570 net.cpp:120] Top shape: 80 192 28 28 (12042240)
I1216 23:01:44.454293 18570 layer_factory.hpp:74] Creating layer inception_3a/pool_proj
I1216 23:01:44.454313 18570 net.cpp:84] Creating Layer inception_3a/pool_proj
I1216 23:01:44.454318 18570 net.cpp:380] inception_3a/pool_proj <- inception_3a/pool
I1216 23:01:44.454326 18570 net.cpp:338] inception_3a/pool_proj -> inception_3a/pool_proj
I1216 23:01:44.454334 18570 net.cpp:113] Setting up inception_3a/pool_proj
I1216 23:01:44.454821 18570 net.cpp:120] Top shape: 80 32 28 28 (2007040)
I1216 23:01:44.454841 18570 layer_factory.hpp:74] Creating layer inception_3a/relu_pool_proj
I1216 23:01:44.454849 18570 net.cpp:84] Creating Layer inception_3a/relu_pool_proj
I1216 23:01:44.454854 18570 net.cpp:380] inception_3a/relu_pool_proj <- inception_3a/pool_proj
I1216 23:01:44.454860 18570 net.cpp:327] inception_3a/relu_pool_proj -> inception_3a/pool_proj (in-place)
I1216 23:01:44.454869 18570 net.cpp:113] Setting up inception_3a/relu_pool_proj
I1216 23:01:44.454936 18570 net.cpp:120] Top shape: 80 32 28 28 (2007040)
I1216 23:01:44.454952 18570 layer_factory.hpp:74] Creating layer inception_3a/output
I1216 23:01:44.454982 18570 net.cpp:84] Creating Layer inception_3a/output
I1216 23:01:44.454996 18570 net.cpp:380] inception_3a/output <- inception_3a/1x1
I1216 23:01:44.455003 18570 net.cpp:380] inception_3a/output <- inception_3a/3x3
I1216 23:01:44.455008 18570 net.cpp:380] inception_3a/output <- inception_3a/5x5
I1216 23:01:44.455014 18570 net.cpp:380] inception_3a/output <- inception_3a/pool_proj
I1216 23:01:44.455019 18570 net.cpp:338] inception_3a/output -> inception_3a/output
I1216 23:01:44.455027 18570 net.cpp:113] Setting up inception_3a/output
I1216 23:01:44.455036 18570 net.cpp:120] Top shape: 80 256 28 28 (16056320)
I1216 23:01:44.455041 18570 layer_factory.hpp:74] Creating layer inception_3a/output_inception_3a/output_0_split
I1216 23:01:44.455049 18570 net.cpp:84] Creating Layer inception_3a/output_inception_3a/output_0_split
I1216 23:01:44.455054 18570 net.cpp:380] inception_3a/output_inception_3a/output_0_split <- inception_3a/output
I1216 23:01:44.455060 18570 net.cpp:338] inception_3a/output_inception_3a/output_0_split -> inception_3a/output_inception_3a/output_0_split_0
I1216 23:01:44.455068 18570 net.cpp:338] inception_3a/output_inception_3a/output_0_split -> inception_3a/output_inception_3a/output_0_split_1
I1216 23:01:44.455075 18570 net.cpp:338] inception_3a/output_inception_3a/output_0_split -> inception_3a/output_inception_3a/output_0_split_2
I1216 23:01:44.455082 18570 net.cpp:338] inception_3a/output_inception_3a/output_0_split -> inception_3a/output_inception_3a/output_0_split_3
I1216 23:01:44.455088 18570 net.cpp:113] Setting up inception_3a/output_inception_3a/output_0_split
I1216 23:01:44.455096 18570 net.cpp:120] Top shape: 80 256 28 28 (16056320)
I1216 23:01:44.455101 18570 net.cpp:120] Top shape: 80 256 28 28 (16056320)
I1216 23:01:44.455106 18570 net.cpp:120] Top shape: 80 256 28 28 (16056320)
I1216 23:01:44.455111 18570 net.cpp:120] Top shape: 80 256 28 28 (16056320)
I1216 23:01:44.455116 18570 layer_factory.hpp:74] Creating layer inception_3b/1x1
I1216 23:01:44.455132 18570 net.cpp:84] Creating Layer inception_3b/1x1
I1216 23:01:44.455138 18570 net.cpp:380] inception_3b/1x1 <- inception_3a/output_inception_3a/output_0_split_0
I1216 23:01:44.455145 18570 net.cpp:338] inception_3b/1x1 -> inception_3b/1x1
I1216 23:01:44.455152 18570 net.cpp:113] Setting up inception_3b/1x1
I1216 23:01:44.455946 18570 net.cpp:120] Top shape: 80 128 28 28 (8028160)
I1216 23:01:44.455963 18570 layer_factory.hpp:74] Creating layer inception_3b/relu_1x1
I1216 23:01:44.455971 18570 net.cpp:84] Creating Layer inception_3b/relu_1x1
I1216 23:01:44.455976 18570 net.cpp:380] inception_3b/relu_1x1 <- inception_3b/1x1
I1216 23:01:44.455984 18570 net.cpp:327] inception_3b/relu_1x1 -> inception_3b/1x1 (in-place)
I1216 23:01:44.455992 18570 net.cpp:113] Setting up inception_3b/relu_1x1
I1216 23:01:44.456241 18570 net.cpp:120] Top shape: 80 128 28 28 (8028160)
I1216 23:01:44.456261 18570 layer_factory.hpp:74] Creating layer inception_3b/3x3_reduce
I1216 23:01:44.456272 18570 net.cpp:84] Creating Layer inception_3b/3x3_reduce
I1216 23:01:44.456277 18570 net.cpp:380] inception_3b/3x3_reduce <- inception_3a/output_inception_3a/output_0_split_1
I1216 23:01:44.456285 18570 net.cpp:338] inception_3b/3x3_reduce -> inception_3b/3x3_reduce
I1216 23:01:44.456295 18570 net.cpp:113] Setting up inception_3b/3x3_reduce
I1216 23:01:44.457098 18570 net.cpp:120] Top shape: 80 128 28 28 (8028160)
I1216 23:01:44.457123 18570 layer_factory.hpp:74] Creating layer inception_3b/relu_3x3_reduce
I1216 23:01:44.457139 18570 net.cpp:84] Creating Layer inception_3b/relu_3x3_reduce
I1216 23:01:44.457145 18570 net.cpp:380] inception_3b/relu_3x3_reduce <- inception_3b/3x3_reduce
I1216 23:01:44.457154 18570 net.cpp:327] inception_3b/relu_3x3_reduce -> inception_3b/3x3_reduce (in-place)
I1216 23:01:44.457160 18570 net.cpp:113] Setting up inception_3b/relu_3x3_reduce
I1216 23:01:44.457229 18570 net.cpp:120] Top shape: 80 128 28 28 (8028160)
I1216 23:01:44.457237 18570 layer_factory.hpp:74] Creating layer inception_3b/3x3
I1216 23:01:44.457255 18570 net.cpp:84] Creating Layer inception_3b/3x3
I1216 23:01:44.457268 18570 net.cpp:380] inception_3b/3x3 <- inception_3b/3x3_reduce
I1216 23:01:44.457280 18570 net.cpp:338] inception_3b/3x3 -> inception_3b/3x3
I1216 23:01:44.457288 18570 net.cpp:113] Setting up inception_3b/3x3
I1216 23:01:44.460242 18570 net.cpp:120] Top shape: 80 192 28 28 (12042240)
I1216 23:01:44.460258 18570 layer_factory.hpp:74] Creating layer inception_3b/relu_3x3
I1216 23:01:44.460264 18570 net.cpp:84] Creating Layer inception_3b/relu_3x3
I1216 23:01:44.460270 18570 net.cpp:380] inception_3b/relu_3x3 <- inception_3b/3x3
I1216 23:01:44.460279 18570 net.cpp:327] inception_3b/relu_3x3 -> inception_3b/3x3 (in-place)
I1216 23:01:44.460288 18570 net.cpp:113] Setting up inception_3b/relu_3x3
I1216 23:01:44.460358 18570 net.cpp:120] Top shape: 80 192 28 28 (12042240)
I1216 23:01:44.460372 18570 layer_factory.hpp:74] Creating layer inception_3b/5x5_reduce
I1216 23:01:44.460381 18570 net.cpp:84] Creating Layer inception_3b/5x5_reduce
I1216 23:01:44.460387 18570 net.cpp:380] inception_3b/5x5_reduce <- inception_3a/output_inception_3a/output_0_split_2
I1216 23:01:44.460397 18570 net.cpp:338] inception_3b/5x5_reduce -> inception_3b/5x5_reduce
I1216 23:01:44.460407 18570 net.cpp:113] Setting up inception_3b/5x5_reduce
I1216 23:01:44.460927 18570 net.cpp:120] Top shape: 80 32 28 28 (2007040)
I1216 23:01:44.460942 18570 layer_factory.hpp:74] Creating layer inception_3b/relu_5x5_reduce
I1216 23:01:44.460960 18570 net.cpp:84] Creating Layer inception_3b/relu_5x5_reduce
I1216 23:01:44.460965 18570 net.cpp:380] inception_3b/relu_5x5_reduce <- inception_3b/5x5_reduce
I1216 23:01:44.460973 18570 net.cpp:327] inception_3b/relu_5x5_reduce -> inception_3b/5x5_reduce (in-place)
I1216 23:01:44.460980 18570 net.cpp:113] Setting up inception_3b/relu_5x5_reduce
I1216 23:01:44.461048 18570 net.cpp:120] Top shape: 80 32 28 28 (2007040)
I1216 23:01:44.461066 18570 layer_factory.hpp:74] Creating layer inception_3b/5x5
I1216 23:01:44.461079 18570 net.cpp:84] Creating Layer inception_3b/5x5
I1216 23:01:44.461086 18570 net.cpp:380] inception_3b/5x5 <- inception_3b/5x5_reduce
I1216 23:01:44.461093 18570 net.cpp:338] inception_3b/5x5 -> inception_3b/5x5
I1216 23:01:44.461107 18570 net.cpp:113] Setting up inception_3b/5x5
I1216 23:01:44.462394 18570 net.cpp:120] Top shape: 80 96 28 28 (6021120)
I1216 23:01:44.462410 18570 layer_factory.hpp:74] Creating layer inception_3b/relu_5x5
I1216 23:01:44.462417 18570 net.cpp:84] Creating Layer inception_3b/relu_5x5
I1216 23:01:44.462421 18570 net.cpp:380] inception_3b/relu_5x5 <- inception_3b/5x5
I1216 23:01:44.462430 18570 net.cpp:327] inception_3b/relu_5x5 -> inception_3b/5x5 (in-place)
I1216 23:01:44.462438 18570 net.cpp:113] Setting up inception_3b/relu_5x5
I1216 23:01:44.462685 18570 net.cpp:120] Top shape: 80 96 28 28 (6021120)
I1216 23:01:44.462698 18570 layer_factory.hpp:74] Creating layer inception_3b/pool
I1216 23:01:44.462703 18570 layer_factory.cpp:56] CUDNN does not support padding or multiple tops. Using Caffe's own pooling layer.
I1216 23:01:44.462710 18570 net.cpp:84] Creating Layer inception_3b/pool
I1216 23:01:44.462716 18570 net.cpp:380] inception_3b/pool <- inception_3a/output_inception_3a/output_0_split_3
I1216 23:01:44.462725 18570 net.cpp:338] inception_3b/pool -> inception_3b/pool
I1216 23:01:44.462733 18570 net.cpp:113] Setting up inception_3b/pool
I1216 23:01:44.462743 18570 net.cpp:120] Top shape: 80 256 28 28 (16056320)
I1216 23:01:44.462755 18570 layer_factory.hpp:74] Creating layer inception_3b/pool_proj
I1216 23:01:44.462764 18570 net.cpp:84] Creating Layer inception_3b/pool_proj
I1216 23:01:44.462769 18570 net.cpp:380] inception_3b/pool_proj <- inception_3b/pool
I1216 23:01:44.462779 18570 net.cpp:338] inception_3b/pool_proj -> inception_3b/pool_proj
I1216 23:01:44.462786 18570 net.cpp:113] Setting up inception_3b/pool_proj
I1216 23:01:44.463384 18570 net.cpp:120] Top shape: 80 64 28 28 (4014080)
I1216 23:01:44.463402 18570 layer_factory.hpp:74] Creating layer inception_3b/relu_pool_proj
I1216 23:01:44.463414 18570 net.cpp:84] Creating Layer inception_3b/relu_pool_proj
I1216 23:01:44.463428 18570 net.cpp:380] inception_3b/relu_pool_proj <- inception_3b/pool_proj
I1216 23:01:44.463436 18570 net.cpp:327] inception_3b/relu_pool_proj -> inception_3b/pool_proj (in-place)
I1216 23:01:44.463443 18570 net.cpp:113] Setting up inception_3b/relu_pool_proj
I1216 23:01:44.463515 18570 net.cpp:120] Top shape: 80 64 28 28 (4014080)
I1216 23:01:44.463521 18570 layer_factory.hpp:74] Creating layer inception_3b/output
I1216 23:01:44.463529 18570 net.cpp:84] Creating Layer inception_3b/output
I1216 23:01:44.463534 18570 net.cpp:380] inception_3b/output <- inception_3b/1x1
I1216 23:01:44.463541 18570 net.cpp:380] inception_3b/output <- inception_3b/3x3
I1216 23:01:44.463546 18570 net.cpp:380] inception_3b/output <- inception_3b/5x5
I1216 23:01:44.463551 18570 net.cpp:380] inception_3b/output <- inception_3b/pool_proj
I1216 23:01:44.463558 18570 net.cpp:338] inception_3b/output -> inception_3b/output
I1216 23:01:44.463567 18570 net.cpp:113] Setting up inception_3b/output
I1216 23:01:44.463574 18570 net.cpp:120] Top shape: 80 480 28 28 (30105600)
I1216 23:01:44.463578 18570 layer_factory.hpp:74] Creating layer pool3/3x3_s2
I1216 23:01:44.463587 18570 net.cpp:84] Creating Layer pool3/3x3_s2
I1216 23:01:44.463592 18570 net.cpp:380] pool3/3x3_s2 <- inception_3b/output
I1216 23:01:44.463599 18570 net.cpp:338] pool3/3x3_s2 -> pool3/3x3_s2
I1216 23:01:44.463605 18570 net.cpp:113] Setting up pool3/3x3_s2
I1216 23:01:44.463672 18570 net.cpp:120] Top shape: 80 480 14 14 (7526400)
I1216 23:01:44.463678 18570 layer_factory.hpp:74] Creating layer pool3/3x3_s2_pool3/3x3_s2_0_split
I1216 23:01:44.463693 18570 net.cpp:84] Creating Layer pool3/3x3_s2_pool3/3x3_s2_0_split
I1216 23:01:44.463698 18570 net.cpp:380] pool3/3x3_s2_pool3/3x3_s2_0_split <- pool3/3x3_s2
I1216 23:01:44.463704 18570 net.cpp:338] pool3/3x3_s2_pool3/3x3_s2_0_split -> pool3/3x3_s2_pool3/3x3_s2_0_split_0
I1216 23:01:44.463712 18570 net.cpp:338] pool3/3x3_s2_pool3/3x3_s2_0_split -> pool3/3x3_s2_pool3/3x3_s2_0_split_1
I1216 23:01:44.463719 18570 net.cpp:338] pool3/3x3_s2_pool3/3x3_s2_0_split -> pool3/3x3_s2_pool3/3x3_s2_0_split_2
I1216 23:01:44.463726 18570 net.cpp:338] pool3/3x3_s2_pool3/3x3_s2_0_split -> pool3/3x3_s2_pool3/3x3_s2_0_split_3
I1216 23:01:44.463732 18570 net.cpp:113] Setting up pool3/3x3_s2_pool3/3x3_s2_0_split
I1216 23:01:44.463739 18570 net.cpp:120] Top shape: 80 480 14 14 (7526400)
I1216 23:01:44.463744 18570 net.cpp:120] Top shape: 80 480 14 14 (7526400)
I1216 23:01:44.463749 18570 net.cpp:120] Top shape: 80 480 14 14 (7526400)
I1216 23:01:44.463755 18570 net.cpp:120] Top shape: 80 480 14 14 (7526400)
I1216 23:01:44.463759 18570 layer_factory.hpp:74] Creating layer inception_4a/1x1
I1216 23:01:44.463769 18570 net.cpp:84] Creating Layer inception_4a/1x1
I1216 23:01:44.463774 18570 net.cpp:380] inception_4a/1x1 <- pool3/3x3_s2_pool3/3x3_s2_0_split_0
I1216 23:01:44.463786 18570 net.cpp:338] inception_4a/1x1 -> inception_4a/1x1
I1216 23:01:44.463794 18570 net.cpp:113] Setting up inception_4a/1x1
I1216 23:01:44.465288 18570 net.cpp:120] Top shape: 80 192 14 14 (3010560)
I1216 23:01:44.465306 18570 layer_factory.hpp:74] Creating layer inception_4a/relu_1x1
I1216 23:01:44.465327 18570 net.cpp:84] Creating Layer inception_4a/relu_1x1
I1216 23:01:44.465333 18570 net.cpp:380] inception_4a/relu_1x1 <- inception_4a/1x1
I1216 23:01:44.465342 18570 net.cpp:327] inception_4a/relu_1x1 -> inception_4a/1x1 (in-place)
I1216 23:01:44.465350 18570 net.cpp:113] Setting up inception_4a/relu_1x1
I1216 23:01:44.465608 18570 net.cpp:120] Top shape: 80 192 14 14 (3010560)
I1216 23:01:44.465620 18570 layer_factory.hpp:74] Creating layer inception_4a/3x3_reduce
I1216 23:01:44.465631 18570 net.cpp:84] Creating Layer inception_4a/3x3_reduce
I1216 23:01:44.465636 18570 net.cpp:380] inception_4a/3x3_reduce <- pool3/3x3_s2_pool3/3x3_s2_0_split_1
I1216 23:01:44.465644 18570 net.cpp:338] inception_4a/3x3_reduce -> inception_4a/3x3_reduce
I1216 23:01:44.465653 18570 net.cpp:113] Setting up inception_4a/3x3_reduce
I1216 23:01:44.466599 18570 net.cpp:120] Top shape: 80 96 14 14 (1505280)
I1216 23:01:44.466630 18570 layer_factory.hpp:74] Creating layer inception_4a/relu_3x3_reduce
I1216 23:01:44.466639 18570 net.cpp:84] Creating Layer inception_4a/relu_3x3_reduce
I1216 23:01:44.466645 18570 net.cpp:380] inception_4a/relu_3x3_reduce <- inception_4a/3x3_reduce
I1216 23:01:44.466651 18570 net.cpp:327] inception_4a/relu_3x3_reduce -> inception_4a/3x3_reduce (in-place)
I1216 23:01:44.466660 18570 net.cpp:113] Setting up inception_4a/relu_3x3_reduce
I1216 23:01:44.466730 18570 net.cpp:120] Top shape: 80 96 14 14 (1505280)
I1216 23:01:44.466745 18570 layer_factory.hpp:74] Creating layer inception_4a/3x3
I1216 23:01:44.466759 18570 net.cpp:84] Creating Layer inception_4a/3x3
I1216 23:01:44.466764 18570 net.cpp:380] inception_4a/3x3 <- inception_4a/3x3_reduce
I1216 23:01:44.466773 18570 net.cpp:338] inception_4a/3x3 -> inception_4a/3x3
I1216 23:01:44.466783 18570 net.cpp:113] Setting up inception_4a/3x3
I1216 23:01:44.469285 18570 net.cpp:120] Top shape: 80 208 14 14 (3261440)
I1216 23:01:44.469302 18570 layer_factory.hpp:74] Creating layer inception_4a/relu_3x3
I1216 23:01:44.469310 18570 net.cpp:84] Creating Layer inception_4a/relu_3x3
I1216 23:01:44.469317 18570 net.cpp:380] inception_4a/relu_3x3 <- inception_4a/3x3
I1216 23:01:44.469333 18570 net.cpp:327] inception_4a/relu_3x3 -> inception_4a/3x3 (in-place)
I1216 23:01:44.469343 18570 net.cpp:113] Setting up inception_4a/relu_3x3
I1216 23:01:44.469413 18570 net.cpp:120] Top shape: 80 208 14 14 (3261440)
I1216 23:01:44.469421 18570 layer_factory.hpp:74] Creating layer inception_4a/5x5_reduce
I1216 23:01:44.469430 18570 net.cpp:84] Creating Layer inception_4a/5x5_reduce
I1216 23:01:44.469436 18570 net.cpp:380] inception_4a/5x5_reduce <- pool3/3x3_s2_pool3/3x3_s2_0_split_2
I1216 23:01:44.469444 18570 net.cpp:338] inception_4a/5x5_reduce -> inception_4a/5x5_reduce
I1216 23:01:44.469452 18570 net.cpp:113] Setting up inception_4a/5x5_reduce
I1216 23:01:44.469961 18570 net.cpp:120] Top shape: 80 16 14 14 (250880)
I1216 23:01:44.469977 18570 layer_factory.hpp:74] Creating layer inception_4a/relu_5x5_reduce
I1216 23:01:44.469992 18570 net.cpp:84] Creating Layer inception_4a/relu_5x5_reduce
I1216 23:01:44.469998 18570 net.cpp:380] inception_4a/relu_5x5_reduce <- inception_4a/5x5_reduce
I1216 23:01:44.470005 18570 net.cpp:327] inception_4a/relu_5x5_reduce -> inception_4a/5x5_reduce (in-place)
I1216 23:01:44.470013 18570 net.cpp:113] Setting up inception_4a/relu_5x5_reduce
I1216 23:01:44.470083 18570 net.cpp:120] Top shape: 80 16 14 14 (250880)
I1216 23:01:44.470098 18570 layer_factory.hpp:74] Creating layer inception_4a/5x5
I1216 23:01:44.470108 18570 net.cpp:84] Creating Layer inception_4a/5x5
I1216 23:01:44.470113 18570 net.cpp:380] inception_4a/5x5 <- inception_4a/5x5_reduce
I1216 23:01:44.470120 18570 net.cpp:338] inception_4a/5x5 -> inception_4a/5x5
I1216 23:01:44.470129 18570 net.cpp:113] Setting up inception_4a/5x5
I1216 23:01:44.470775 18570 net.cpp:120] Top shape: 80 48 14 14 (752640)
I1216 23:01:44.470790 18570 layer_factory.hpp:74] Creating layer inception_4a/relu_5x5
I1216 23:01:44.470799 18570 net.cpp:84] Creating Layer inception_4a/relu_5x5
I1216 23:01:44.470805 18570 net.cpp:380] inception_4a/relu_5x5 <- inception_4a/5x5
I1216 23:01:44.470813 18570 net.cpp:327] inception_4a/relu_5x5 -> inception_4a/5x5 (in-place)
I1216 23:01:44.470820 18570 net.cpp:113] Setting up inception_4a/relu_5x5
I1216 23:01:44.471071 18570 net.cpp:120] Top shape: 80 48 14 14 (752640)
I1216 23:01:44.471082 18570 layer_factory.hpp:74] Creating layer inception_4a/pool
I1216 23:01:44.471087 18570 layer_factory.cpp:56] CUDNN does not support padding or multiple tops. Using Caffe's own pooling layer.
I1216 23:01:44.471096 18570 net.cpp:84] Creating Layer inception_4a/pool
I1216 23:01:44.471102 18570 net.cpp:380] inception_4a/pool <- pool3/3x3_s2_pool3/3x3_s2_0_split_3
I1216 23:01:44.471109 18570 net.cpp:338] inception_4a/pool -> inception_4a/pool
I1216 23:01:44.471118 18570 net.cpp:113] Setting up inception_4a/pool
I1216 23:01:44.471132 18570 net.cpp:120] Top shape: 80 480 14 14 (7526400)
I1216 23:01:44.471145 18570 layer_factory.hpp:74] Creating layer inception_4a/pool_proj
I1216 23:01:44.471164 18570 net.cpp:84] Creating Layer inception_4a/pool_proj
I1216 23:01:44.471170 18570 net.cpp:380] inception_4a/pool_proj <- inception_4a/pool
I1216 23:01:44.471179 18570 net.cpp:338] inception_4a/pool_proj -> inception_4a/pool_proj
I1216 23:01:44.471187 18570 net.cpp:113] Setting up inception_4a/pool_proj
I1216 23:01:44.471959 18570 net.cpp:120] Top shape: 80 64 14 14 (1003520)
I1216 23:01:44.471974 18570 layer_factory.hpp:74] Creating layer inception_4a/relu_pool_proj
I1216 23:01:44.471982 18570 net.cpp:84] Creating Layer inception_4a/relu_pool_proj
I1216 23:01:44.471988 18570 net.cpp:380] inception_4a/relu_pool_proj <- inception_4a/pool_proj
I1216 23:01:44.471997 18570 net.cpp:327] inception_4a/relu_pool_proj -> inception_4a/pool_proj (in-place)
I1216 23:01:44.472005 18570 net.cpp:113] Setting up inception_4a/relu_pool_proj
I1216 23:01:44.472082 18570 net.cpp:120] Top shape: 80 64 14 14 (1003520)
I1216 23:01:44.472097 18570 layer_factory.hpp:74] Creating layer inception_4a/output
I1216 23:01:44.472105 18570 net.cpp:84] Creating Layer inception_4a/output
I1216 23:01:44.472110 18570 net.cpp:380] inception_4a/output <- inception_4a/1x1
I1216 23:01:44.472116 18570 net.cpp:380] inception_4a/output <- inception_4a/3x3
I1216 23:01:44.472122 18570 net.cpp:380] inception_4a/output <- inception_4a/5x5
I1216 23:01:44.472126 18570 net.cpp:380] inception_4a/output <- inception_4a/pool_proj
I1216 23:01:44.472133 18570 net.cpp:338] inception_4a/output -> inception_4a/output
I1216 23:01:44.472141 18570 net.cpp:113] Setting up inception_4a/output
I1216 23:01:44.472148 18570 net.cpp:120] Top shape: 80 512 14 14 (8028160)
I1216 23:01:44.472154 18570 layer_factory.hpp:74] Creating layer inception_4a/output_inception_4a/output_0_split
I1216 23:01:44.472162 18570 net.cpp:84] Creating Layer inception_4a/output_inception_4a/output_0_split
I1216 23:01:44.472167 18570 net.cpp:380] inception_4a/output_inception_4a/output_0_split <- inception_4a/output
I1216 23:01:44.472175 18570 net.cpp:338] inception_4a/output_inception_4a/output_0_split -> inception_4a/output_inception_4a/output_0_split_0
I1216 23:01:44.472182 18570 net.cpp:338] inception_4a/output_inception_4a/output_0_split -> inception_4a/output_inception_4a/output_0_split_1
I1216 23:01:44.472189 18570 net.cpp:338] inception_4a/output_inception_4a/output_0_split -> inception_4a/output_inception_4a/output_0_split_2
I1216 23:01:44.472195 18570 net.cpp:338] inception_4a/output_inception_4a/output_0_split -> inception_4a/output_inception_4a/output_0_split_3
I1216 23:01:44.472203 18570 net.cpp:338] inception_4a/output_inception_4a/output_0_split -> inception_4a/output_inception_4a/output_0_split_4
I1216 23:01:44.472209 18570 net.cpp:113] Setting up inception_4a/output_inception_4a/output_0_split
I1216 23:01:44.472216 18570 net.cpp:120] Top shape: 80 512 14 14 (8028160)
I1216 23:01:44.472221 18570 net.cpp:120] Top shape: 80 512 14 14 (8028160)
I1216 23:01:44.472226 18570 net.cpp:120] Top shape: 80 512 14 14 (8028160)
I1216 23:01:44.472231 18570 net.cpp:120] Top shape: 80 512 14 14 (8028160)
I1216 23:01:44.472236 18570 net.cpp:120] Top shape: 80 512 14 14 (8028160)
I1216 23:01:44.472240 18570 layer_factory.hpp:74] Creating layer loss1/ave_pool
I1216 23:01:44.472252 18570 net.cpp:84] Creating Layer loss1/ave_pool
I1216 23:01:44.472257 18570 net.cpp:380] loss1/ave_pool <- inception_4a/output_inception_4a/output_0_split_0
I1216 23:01:44.472266 18570 net.cpp:338] loss1/ave_pool -> loss1/ave_pool
I1216 23:01:44.472272 18570 net.cpp:113] Setting up loss1/ave_pool
I1216 23:01:44.472343 18570 net.cpp:120] Top shape: 80 512 4 4 (655360)
I1216 23:01:44.472349 18570 layer_factory.hpp:74] Creating layer loss1/conv
I1216 23:01:44.472362 18570 net.cpp:84] Creating Layer loss1/conv
I1216 23:01:44.472367 18570 net.cpp:380] loss1/conv <- loss1/ave_pool
I1216 23:01:44.472374 18570 net.cpp:338] loss1/conv -> loss1/conv
I1216 23:01:44.472388 18570 net.cpp:113] Setting up loss1/conv
I1216 23:01:44.473579 18570 net.cpp:120] Top shape: 80 128 4 4 (163840)
I1216 23:01:44.473597 18570 layer_factory.hpp:74] Creating layer loss1/relu_conv
I1216 23:01:44.473611 18570 net.cpp:84] Creating Layer loss1/relu_conv
I1216 23:01:44.473618 18570 net.cpp:380] loss1/relu_conv <- loss1/conv
I1216 23:01:44.473624 18570 net.cpp:327] loss1/relu_conv -> loss1/conv (in-place)
I1216 23:01:44.473633 18570 net.cpp:113] Setting up loss1/relu_conv
I1216 23:01:44.473705 18570 net.cpp:120] Top shape: 80 128 4 4 (163840)
I1216 23:01:44.473716 18570 layer_factory.hpp:74] Creating layer loss1/fc
I1216 23:01:44.473726 18570 net.cpp:84] Creating Layer loss1/fc
I1216 23:01:44.473729 18570 net.cpp:380] loss1/fc <- loss1/conv
I1216 23:01:44.473740 18570 net.cpp:338] loss1/fc -> loss1/fc
I1216 23:01:44.473752 18570 net.cpp:113] Setting up loss1/fc
I1216 23:01:44.518152 18570 net.cpp:120] Top shape: 80 1024 (81920)
I1216 23:01:44.518190 18570 layer_factory.hpp:74] Creating layer loss1/relu_fc
I1216 23:01:44.518218 18570 net.cpp:84] Creating Layer loss1/relu_fc
I1216 23:01:44.518227 18570 net.cpp:380] loss1/relu_fc <- loss1/fc
I1216 23:01:44.518235 18570 net.cpp:327] loss1/relu_fc -> loss1/fc (in-place)
I1216 23:01:44.518245 18570 net.cpp:113] Setting up loss1/relu_fc
I1216 23:01:44.518682 18570 net.cpp:120] Top shape: 80 1024 (81920)
I1216 23:01:44.518694 18570 layer_factory.hpp:74] Creating layer loss1/drop_fc
I1216 23:01:44.518713 18570 net.cpp:84] Creating Layer loss1/drop_fc
I1216 23:01:44.518719 18570 net.cpp:380] loss1/drop_fc <- loss1/fc
I1216 23:01:44.518726 18570 net.cpp:327] loss1/drop_fc -> loss1/fc (in-place)
I1216 23:01:44.518735 18570 net.cpp:113] Setting up loss1/drop_fc
I1216 23:01:44.518745 18570 net.cpp:120] Top shape: 80 1024 (81920)
I1216 23:01:44.518750 18570 layer_factory.hpp:74] Creating layer loss1/classifier_kaggle
I1216 23:01:44.518760 18570 net.cpp:84] Creating Layer loss1/classifier_kaggle
I1216 23:01:44.518764 18570 net.cpp:380] loss1/classifier_kaggle <- loss1/fc
I1216 23:01:44.518772 18570 net.cpp:338] loss1/classifier_kaggle -> loss1/classifier_kaggle
I1216 23:01:44.518781 18570 net.cpp:113] Setting up loss1/classifier_kaggle
I1216 23:01:44.523680 18570 net.cpp:120] Top shape: 80 447 (35760)
I1216 23:01:44.523707 18570 layer_factory.hpp:74] Creating layer loss1/loss
I1216 23:01:44.523722 18570 net.cpp:84] Creating Layer loss1/loss
I1216 23:01:44.523728 18570 net.cpp:380] loss1/loss <- loss1/classifier_kaggle
I1216 23:01:44.523735 18570 net.cpp:380] loss1/loss <- label_data_1_split_0
I1216 23:01:44.523741 18570 net.cpp:338] loss1/loss -> loss1/loss1
I1216 23:01:44.523749 18570 net.cpp:113] Setting up loss1/loss
I1216 23:01:44.523758 18570 layer_factory.hpp:74] Creating layer loss1/loss
I1216 23:01:44.523924 18570 net.cpp:120] Top shape: (1)
I1216 23:01:44.523932 18570 net.cpp:122]     with loss weight 0.3
I1216 23:01:44.523953 18570 layer_factory.hpp:74] Creating layer inception_4b/1x1
I1216 23:01:44.523969 18570 net.cpp:84] Creating Layer inception_4b/1x1
I1216 23:01:44.523977 18570 net.cpp:380] inception_4b/1x1 <- inception_4a/output_inception_4a/output_0_split_1
I1216 23:01:44.523985 18570 net.cpp:338] inception_4b/1x1 -> inception_4b/1x1
I1216 23:01:44.523993 18570 net.cpp:113] Setting up inception_4b/1x1
I1216 23:01:44.525344 18570 net.cpp:120] Top shape: 80 160 14 14 (2508800)
I1216 23:01:44.525362 18570 layer_factory.hpp:74] Creating layer inception_4b/relu_1x1
I1216 23:01:44.525368 18570 net.cpp:84] Creating Layer inception_4b/relu_1x1
I1216 23:01:44.525373 18570 net.cpp:380] inception_4b/relu_1x1 <- inception_4b/1x1
I1216 23:01:44.525380 18570 net.cpp:327] inception_4b/relu_1x1 -> inception_4b/1x1 (in-place)
I1216 23:01:44.525388 18570 net.cpp:113] Setting up inception_4b/relu_1x1
I1216 23:01:44.525452 18570 net.cpp:120] Top shape: 80 160 14 14 (2508800)
I1216 23:01:44.525459 18570 layer_factory.hpp:74] Creating layer inception_4b/3x3_reduce
I1216 23:01:44.525467 18570 net.cpp:84] Creating Layer inception_4b/3x3_reduce
I1216 23:01:44.525472 18570 net.cpp:380] inception_4b/3x3_reduce <- inception_4a/output_inception_4a/output_0_split_2
I1216 23:01:44.525501 18570 net.cpp:338] inception_4b/3x3_reduce -> inception_4b/3x3_reduce
I1216 23:01:44.525508 18570 net.cpp:113] Setting up inception_4b/3x3_reduce
I1216 23:01:44.526527 18570 net.cpp:120] Top shape: 80 112 14 14 (1756160)
I1216 23:01:44.526542 18570 layer_factory.hpp:74] Creating layer inception_4b/relu_3x3_reduce
I1216 23:01:44.526558 18570 net.cpp:84] Creating Layer inception_4b/relu_3x3_reduce
I1216 23:01:44.526566 18570 net.cpp:380] inception_4b/relu_3x3_reduce <- inception_4b/3x3_reduce
I1216 23:01:44.526573 18570 net.cpp:327] inception_4b/relu_3x3_reduce -> inception_4b/3x3_reduce (in-place)
I1216 23:01:44.526581 18570 net.cpp:113] Setting up inception_4b/relu_3x3_reduce
I1216 23:01:44.526648 18570 net.cpp:120] Top shape: 80 112 14 14 (1756160)
I1216 23:01:44.526654 18570 layer_factory.hpp:74] Creating layer inception_4b/3x3
I1216 23:01:44.526669 18570 net.cpp:84] Creating Layer inception_4b/3x3
I1216 23:01:44.526676 18570 net.cpp:380] inception_4b/3x3 <- inception_4b/3x3_reduce
I1216 23:01:44.526685 18570 net.cpp:338] inception_4b/3x3 -> inception_4b/3x3
I1216 23:01:44.526692 18570 net.cpp:113] Setting up inception_4b/3x3
I1216 23:01:44.529518 18570 net.cpp:120] Top shape: 80 224 14 14 (3512320)
I1216 23:01:44.529534 18570 layer_factory.hpp:74] Creating layer inception_4b/relu_3x3
I1216 23:01:44.529544 18570 net.cpp:84] Creating Layer inception_4b/relu_3x3
I1216 23:01:44.529549 18570 net.cpp:380] inception_4b/relu_3x3 <- inception_4b/3x3
I1216 23:01:44.529556 18570 net.cpp:327] inception_4b/relu_3x3 -> inception_4b/3x3 (in-place)
I1216 23:01:44.529563 18570 net.cpp:113] Setting up inception_4b/relu_3x3
I1216 23:01:44.529800 18570 net.cpp:120] Top shape: 80 224 14 14 (3512320)
I1216 23:01:44.529810 18570 layer_factory.hpp:74] Creating layer inception_4b/5x5_reduce
I1216 23:01:44.529819 18570 net.cpp:84] Creating Layer inception_4b/5x5_reduce
I1216 23:01:44.529824 18570 net.cpp:380] inception_4b/5x5_reduce <- inception_4a/output_inception_4a/output_0_split_3
I1216 23:01:44.529834 18570 net.cpp:338] inception_4b/5x5_reduce -> inception_4b/5x5_reduce
I1216 23:01:44.529841 18570 net.cpp:113] Setting up inception_4b/5x5_reduce
I1216 23:01:44.530624 18570 net.cpp:120] Top shape: 80 24 14 14 (376320)
I1216 23:01:44.530640 18570 layer_factory.hpp:74] Creating layer inception_4b/relu_5x5_reduce
I1216 23:01:44.530658 18570 net.cpp:84] Creating Layer inception_4b/relu_5x5_reduce
I1216 23:01:44.530663 18570 net.cpp:380] inception_4b/relu_5x5_reduce <- inception_4b/5x5_reduce
I1216 23:01:44.530671 18570 net.cpp:327] inception_4b/relu_5x5_reduce -> inception_4b/5x5_reduce (in-place)
I1216 23:01:44.530679 18570 net.cpp:113] Setting up inception_4b/relu_5x5_reduce
I1216 23:01:44.530751 18570 net.cpp:120] Top shape: 80 24 14 14 (376320)
I1216 23:01:44.530764 18570 layer_factory.hpp:74] Creating layer inception_4b/5x5
I1216 23:01:44.530773 18570 net.cpp:84] Creating Layer inception_4b/5x5
I1216 23:01:44.530778 18570 net.cpp:380] inception_4b/5x5 <- inception_4b/5x5_reduce
I1216 23:01:44.530788 18570 net.cpp:338] inception_4b/5x5 -> inception_4b/5x5
I1216 23:01:44.530797 18570 net.cpp:113] Setting up inception_4b/5x5
I1216 23:01:44.531610 18570 net.cpp:120] Top shape: 80 64 14 14 (1003520)
I1216 23:01:44.531625 18570 layer_factory.hpp:74] Creating layer inception_4b/relu_5x5
I1216 23:01:44.531632 18570 net.cpp:84] Creating Layer inception_4b/relu_5x5
I1216 23:01:44.531637 18570 net.cpp:380] inception_4b/relu_5x5 <- inception_4b/5x5
I1216 23:01:44.531644 18570 net.cpp:327] inception_4b/relu_5x5 -> inception_4b/5x5 (in-place)
I1216 23:01:44.531651 18570 net.cpp:113] Setting up inception_4b/relu_5x5
I1216 23:01:44.531711 18570 net.cpp:120] Top shape: 80 64 14 14 (1003520)
I1216 23:01:44.531718 18570 layer_factory.hpp:74] Creating layer inception_4b/pool
I1216 23:01:44.531723 18570 layer_factory.cpp:56] CUDNN does not support padding or multiple tops. Using Caffe's own pooling layer.
I1216 23:01:44.531729 18570 net.cpp:84] Creating Layer inception_4b/pool
I1216 23:01:44.531744 18570 net.cpp:380] inception_4b/pool <- inception_4a/output_inception_4a/output_0_split_4
I1216 23:01:44.531759 18570 net.cpp:338] inception_4b/pool -> inception_4b/pool
I1216 23:01:44.531776 18570 net.cpp:113] Setting up inception_4b/pool
I1216 23:01:44.531786 18570 net.cpp:120] Top shape: 80 512 14 14 (8028160)
I1216 23:01:44.531791 18570 layer_factory.hpp:74] Creating layer inception_4b/pool_proj
I1216 23:01:44.531808 18570 net.cpp:84] Creating Layer inception_4b/pool_proj
I1216 23:01:44.531815 18570 net.cpp:380] inception_4b/pool_proj <- inception_4b/pool
I1216 23:01:44.531821 18570 net.cpp:338] inception_4b/pool_proj -> inception_4b/pool_proj
I1216 23:01:44.531827 18570 net.cpp:113] Setting up inception_4b/pool_proj
I1216 23:01:44.532572 18570 net.cpp:120] Top shape: 80 64 14 14 (1003520)
I1216 23:01:44.532593 18570 layer_factory.hpp:74] Creating layer inception_4b/relu_pool_proj
I1216 23:01:44.532599 18570 net.cpp:84] Creating Layer inception_4b/relu_pool_proj
I1216 23:01:44.532605 18570 net.cpp:380] inception_4b/relu_pool_proj <- inception_4b/pool_proj
I1216 23:01:44.532613 18570 net.cpp:327] inception_4b/relu_pool_proj -> inception_4b/pool_proj (in-place)
I1216 23:01:44.532620 18570 net.cpp:113] Setting up inception_4b/relu_pool_proj
I1216 23:01:44.532857 18570 net.cpp:120] Top shape: 80 64 14 14 (1003520)
I1216 23:01:44.532867 18570 layer_factory.hpp:74] Creating layer inception_4b/output
I1216 23:01:44.532876 18570 net.cpp:84] Creating Layer inception_4b/output
I1216 23:01:44.532881 18570 net.cpp:380] inception_4b/output <- inception_4b/1x1
I1216 23:01:44.532886 18570 net.cpp:380] inception_4b/output <- inception_4b/3x3
I1216 23:01:44.532892 18570 net.cpp:380] inception_4b/output <- inception_4b/5x5
I1216 23:01:44.532896 18570 net.cpp:380] inception_4b/output <- inception_4b/pool_proj
I1216 23:01:44.532902 18570 net.cpp:338] inception_4b/output -> inception_4b/output
I1216 23:01:44.532910 18570 net.cpp:113] Setting up inception_4b/output
I1216 23:01:44.532918 18570 net.cpp:120] Top shape: 80 512 14 14 (8028160)
I1216 23:01:44.532922 18570 layer_factory.hpp:74] Creating layer inception_4b/output_inception_4b/output_0_split
I1216 23:01:44.532928 18570 net.cpp:84] Creating Layer inception_4b/output_inception_4b/output_0_split
I1216 23:01:44.532933 18570 net.cpp:380] inception_4b/output_inception_4b/output_0_split <- inception_4b/output
I1216 23:01:44.532939 18570 net.cpp:338] inception_4b/output_inception_4b/output_0_split -> inception_4b/output_inception_4b/output_0_split_0
I1216 23:01:44.532948 18570 net.cpp:338] inception_4b/output_inception_4b/output_0_split -> inception_4b/output_inception_4b/output_0_split_1
I1216 23:01:44.532954 18570 net.cpp:338] inception_4b/output_inception_4b/output_0_split -> inception_4b/output_inception_4b/output_0_split_2
I1216 23:01:44.532961 18570 net.cpp:338] inception_4b/output_inception_4b/output_0_split -> inception_4b/output_inception_4b/output_0_split_3
I1216 23:01:44.532966 18570 net.cpp:113] Setting up inception_4b/output_inception_4b/output_0_split
I1216 23:01:44.532974 18570 net.cpp:120] Top shape: 80 512 14 14 (8028160)
I1216 23:01:44.532979 18570 net.cpp:120] Top shape: 80 512 14 14 (8028160)
I1216 23:01:44.532984 18570 net.cpp:120] Top shape: 80 512 14 14 (8028160)
I1216 23:01:44.532989 18570 net.cpp:120] Top shape: 80 512 14 14 (8028160)
I1216 23:01:44.532992 18570 layer_factory.hpp:74] Creating layer inception_4c/1x1
I1216 23:01:44.533010 18570 net.cpp:84] Creating Layer inception_4c/1x1
I1216 23:01:44.533015 18570 net.cpp:380] inception_4c/1x1 <- inception_4b/output_inception_4b/output_0_split_0
I1216 23:01:44.533021 18570 net.cpp:338] inception_4c/1x1 -> inception_4c/1x1
I1216 23:01:44.533028 18570 net.cpp:113] Setting up inception_4c/1x1
I1216 23:01:44.534142 18570 net.cpp:120] Top shape: 80 128 14 14 (2007040)
I1216 23:01:44.534157 18570 layer_factory.hpp:74] Creating layer inception_4c/relu_1x1
I1216 23:01:44.534174 18570 net.cpp:84] Creating Layer inception_4c/relu_1x1
I1216 23:01:44.534180 18570 net.cpp:380] inception_4c/relu_1x1 <- inception_4c/1x1
I1216 23:01:44.534193 18570 net.cpp:327] inception_4c/relu_1x1 -> inception_4c/1x1 (in-place)
I1216 23:01:44.534207 18570 net.cpp:113] Setting up inception_4c/relu_1x1
I1216 23:01:44.534273 18570 net.cpp:120] Top shape: 80 128 14 14 (2007040)
I1216 23:01:44.534281 18570 layer_factory.hpp:74] Creating layer inception_4c/3x3_reduce
I1216 23:01:44.534289 18570 net.cpp:84] Creating Layer inception_4c/3x3_reduce
I1216 23:01:44.534294 18570 net.cpp:380] inception_4c/3x3_reduce <- inception_4b/output_inception_4b/output_0_split_1
I1216 23:01:44.534301 18570 net.cpp:338] inception_4c/3x3_reduce -> inception_4c/3x3_reduce
I1216 23:01:44.534308 18570 net.cpp:113] Setting up inception_4c/3x3_reduce
I1216 23:01:44.535403 18570 net.cpp:120] Top shape: 80 128 14 14 (2007040)
I1216 23:01:44.535418 18570 layer_factory.hpp:74] Creating layer inception_4c/relu_3x3_reduce
I1216 23:01:44.535434 18570 net.cpp:84] Creating Layer inception_4c/relu_3x3_reduce
I1216 23:01:44.535439 18570 net.cpp:380] inception_4c/relu_3x3_reduce <- inception_4c/3x3_reduce
I1216 23:01:44.535445 18570 net.cpp:327] inception_4c/relu_3x3_reduce -> inception_4c/3x3_reduce (in-place)
I1216 23:01:44.535454 18570 net.cpp:113] Setting up inception_4c/relu_3x3_reduce
I1216 23:01:44.535516 18570 net.cpp:120] Top shape: 80 128 14 14 (2007040)
I1216 23:01:44.535522 18570 layer_factory.hpp:74] Creating layer inception_4c/3x3
I1216 23:01:44.535531 18570 net.cpp:84] Creating Layer inception_4c/3x3
I1216 23:01:44.535536 18570 net.cpp:380] inception_4c/3x3 <- inception_4c/3x3_reduce
I1216 23:01:44.535542 18570 net.cpp:338] inception_4c/3x3 -> inception_4c/3x3
I1216 23:01:44.535549 18570 net.cpp:113] Setting up inception_4c/3x3
I1216 23:01:44.539099 18570 net.cpp:120] Top shape: 80 256 14 14 (4014080)
I1216 23:01:44.539126 18570 layer_factory.hpp:74] Creating layer inception_4c/relu_3x3
I1216 23:01:44.539135 18570 net.cpp:84] Creating Layer inception_4c/relu_3x3
I1216 23:01:44.539141 18570 net.cpp:380] inception_4c/relu_3x3 <- inception_4c/3x3
I1216 23:01:44.539147 18570 net.cpp:327] inception_4c/relu_3x3 -> inception_4c/3x3 (in-place)
I1216 23:01:44.539155 18570 net.cpp:113] Setting up inception_4c/relu_3x3
I1216 23:01:44.539219 18570 net.cpp:120] Top shape: 80 256 14 14 (4014080)
I1216 23:01:44.539234 18570 layer_factory.hpp:74] Creating layer inception_4c/5x5_reduce
I1216 23:01:44.539252 18570 net.cpp:84] Creating Layer inception_4c/5x5_reduce
I1216 23:01:44.539258 18570 net.cpp:380] inception_4c/5x5_reduce <- inception_4b/output_inception_4b/output_0_split_2
I1216 23:01:44.539266 18570 net.cpp:338] inception_4c/5x5_reduce -> inception_4c/5x5_reduce
I1216 23:01:44.539274 18570 net.cpp:113] Setting up inception_4c/5x5_reduce
I1216 23:01:44.539793 18570 net.cpp:120] Top shape: 80 24 14 14 (376320)
I1216 23:01:44.539808 18570 layer_factory.hpp:74] Creating layer inception_4c/relu_5x5_reduce
I1216 23:01:44.539814 18570 net.cpp:84] Creating Layer inception_4c/relu_5x5_reduce
I1216 23:01:44.539819 18570 net.cpp:380] inception_4c/relu_5x5_reduce <- inception_4c/5x5_reduce
I1216 23:01:44.539827 18570 net.cpp:327] inception_4c/relu_5x5_reduce -> inception_4c/5x5_reduce (in-place)
I1216 23:01:44.539834 18570 net.cpp:113] Setting up inception_4c/relu_5x5_reduce
I1216 23:01:44.540074 18570 net.cpp:120] Top shape: 80 24 14 14 (376320)
I1216 23:01:44.540087 18570 layer_factory.hpp:74] Creating layer inception_4c/5x5
I1216 23:01:44.540096 18570 net.cpp:84] Creating Layer inception_4c/5x5
I1216 23:01:44.540102 18570 net.cpp:380] inception_4c/5x5 <- inception_4c/5x5_reduce
I1216 23:01:44.540108 18570 net.cpp:338] inception_4c/5x5 -> inception_4c/5x5
I1216 23:01:44.540117 18570 net.cpp:113] Setting up inception_4c/5x5
I1216 23:01:44.541821 18570 net.cpp:120] Top shape: 80 64 14 14 (1003520)
I1216 23:01:44.541841 18570 layer_factory.hpp:74] Creating layer inception_4c/relu_5x5
I1216 23:01:44.541848 18570 net.cpp:84] Creating Layer inception_4c/relu_5x5
I1216 23:01:44.541854 18570 net.cpp:380] inception_4c/relu_5x5 <- inception_4c/5x5
I1216 23:01:44.541862 18570 net.cpp:327] inception_4c/relu_5x5 -> inception_4c/5x5 (in-place)
I1216 23:01:44.541882 18570 net.cpp:113] Setting up inception_4c/relu_5x5
I1216 23:01:44.541956 18570 net.cpp:120] Top shape: 80 64 14 14 (1003520)
I1216 23:01:44.541963 18570 layer_factory.hpp:74] Creating layer inception_4c/pool
I1216 23:01:44.541977 18570 layer_factory.cpp:56] CUDNN does not support padding or multiple tops. Using Caffe's own pooling layer.
I1216 23:01:44.541986 18570 net.cpp:84] Creating Layer inception_4c/pool
I1216 23:01:44.541991 18570 net.cpp:380] inception_4c/pool <- inception_4b/output_inception_4b/output_0_split_3
I1216 23:01:44.541998 18570 net.cpp:338] inception_4c/pool -> inception_4c/pool
I1216 23:01:44.542006 18570 net.cpp:113] Setting up inception_4c/pool
I1216 23:01:44.542016 18570 net.cpp:120] Top shape: 80 512 14 14 (8028160)
I1216 23:01:44.542024 18570 layer_factory.hpp:74] Creating layer inception_4c/pool_proj
I1216 23:01:44.542034 18570 net.cpp:84] Creating Layer inception_4c/pool_proj
I1216 23:01:44.542039 18570 net.cpp:380] inception_4c/pool_proj <- inception_4c/pool
I1216 23:01:44.542045 18570 net.cpp:338] inception_4c/pool_proj -> inception_4c/pool_proj
I1216 23:01:44.542053 18570 net.cpp:113] Setting up inception_4c/pool_proj
I1216 23:01:44.542803 18570 net.cpp:120] Top shape: 80 64 14 14 (1003520)
I1216 23:01:44.542817 18570 layer_factory.hpp:74] Creating layer inception_4c/relu_pool_proj
I1216 23:01:44.542825 18570 net.cpp:84] Creating Layer inception_4c/relu_pool_proj
I1216 23:01:44.542831 18570 net.cpp:380] inception_4c/relu_pool_proj <- inception_4c/pool_proj
I1216 23:01:44.542839 18570 net.cpp:327] inception_4c/relu_pool_proj -> inception_4c/pool_proj (in-place)
I1216 23:01:44.542845 18570 net.cpp:113] Setting up inception_4c/relu_pool_proj
I1216 23:01:44.542912 18570 net.cpp:120] Top shape: 80 64 14 14 (1003520)
I1216 23:01:44.542918 18570 layer_factory.hpp:74] Creating layer inception_4c/output
I1216 23:01:44.542930 18570 net.cpp:84] Creating Layer inception_4c/output
I1216 23:01:44.542935 18570 net.cpp:380] inception_4c/output <- inception_4c/1x1
I1216 23:01:44.542942 18570 net.cpp:380] inception_4c/output <- inception_4c/3x3
I1216 23:01:44.542946 18570 net.cpp:380] inception_4c/output <- inception_4c/5x5
I1216 23:01:44.542951 18570 net.cpp:380] inception_4c/output <- inception_4c/pool_proj
I1216 23:01:44.542958 18570 net.cpp:338] inception_4c/output -> inception_4c/output
I1216 23:01:44.542966 18570 net.cpp:113] Setting up inception_4c/output
I1216 23:01:44.542973 18570 net.cpp:120] Top shape: 80 512 14 14 (8028160)
I1216 23:01:44.542978 18570 layer_factory.hpp:74] Creating layer inception_4c/output_inception_4c/output_0_split
I1216 23:01:44.542984 18570 net.cpp:84] Creating Layer inception_4c/output_inception_4c/output_0_split
I1216 23:01:44.542989 18570 net.cpp:380] inception_4c/output_inception_4c/output_0_split <- inception_4c/output
I1216 23:01:44.542994 18570 net.cpp:338] inception_4c/output_inception_4c/output_0_split -> inception_4c/output_inception_4c/output_0_split_0
I1216 23:01:44.543004 18570 net.cpp:338] inception_4c/output_inception_4c/output_0_split -> inception_4c/output_inception_4c/output_0_split_1
I1216 23:01:44.543011 18570 net.cpp:338] inception_4c/output_inception_4c/output_0_split -> inception_4c/output_inception_4c/output_0_split_2
I1216 23:01:44.543017 18570 net.cpp:338] inception_4c/output_inception_4c/output_0_split -> inception_4c/output_inception_4c/output_0_split_3
I1216 23:01:44.543023 18570 net.cpp:113] Setting up inception_4c/output_inception_4c/output_0_split
I1216 23:01:44.543030 18570 net.cpp:120] Top shape: 80 512 14 14 (8028160)
I1216 23:01:44.543035 18570 net.cpp:120] Top shape: 80 512 14 14 (8028160)
I1216 23:01:44.543040 18570 net.cpp:120] Top shape: 80 512 14 14 (8028160)
I1216 23:01:44.543045 18570 net.cpp:120] Top shape: 80 512 14 14 (8028160)
I1216 23:01:44.543052 18570 layer_factory.hpp:74] Creating layer inception_4d/1x1
I1216 23:01:44.543061 18570 net.cpp:84] Creating Layer inception_4d/1x1
I1216 23:01:44.543066 18570 net.cpp:380] inception_4d/1x1 <- inception_4c/output_inception_4c/output_0_split_0
I1216 23:01:44.543082 18570 net.cpp:338] inception_4d/1x1 -> inception_4d/1x1
I1216 23:01:44.543090 18570 net.cpp:113] Setting up inception_4d/1x1
I1216 23:01:44.544097 18570 net.cpp:120] Top shape: 80 112 14 14 (1756160)
I1216 23:01:44.544112 18570 layer_factory.hpp:74] Creating layer inception_4d/relu_1x1
I1216 23:01:44.544119 18570 net.cpp:84] Creating Layer inception_4d/relu_1x1
I1216 23:01:44.544124 18570 net.cpp:380] inception_4d/relu_1x1 <- inception_4d/1x1
I1216 23:01:44.544132 18570 net.cpp:327] inception_4d/relu_1x1 -> inception_4d/1x1 (in-place)
I1216 23:01:44.544140 18570 net.cpp:113] Setting up inception_4d/relu_1x1
I1216 23:01:44.544204 18570 net.cpp:120] Top shape: 80 112 14 14 (1756160)
I1216 23:01:44.544210 18570 layer_factory.hpp:74] Creating layer inception_4d/3x3_reduce
I1216 23:01:44.544219 18570 net.cpp:84] Creating Layer inception_4d/3x3_reduce
I1216 23:01:44.544224 18570 net.cpp:380] inception_4d/3x3_reduce <- inception_4c/output_inception_4c/output_0_split_1
I1216 23:01:44.544230 18570 net.cpp:338] inception_4d/3x3_reduce -> inception_4d/3x3_reduce
I1216 23:01:44.544239 18570 net.cpp:113] Setting up inception_4d/3x3_reduce
I1216 23:01:44.545424 18570 net.cpp:120] Top shape: 80 144 14 14 (2257920)
I1216 23:01:44.545439 18570 layer_factory.hpp:74] Creating layer inception_4d/relu_3x3_reduce
I1216 23:01:44.545455 18570 net.cpp:84] Creating Layer inception_4d/relu_3x3_reduce
I1216 23:01:44.545462 18570 net.cpp:380] inception_4d/relu_3x3_reduce <- inception_4d/3x3_reduce
I1216 23:01:44.545470 18570 net.cpp:327] inception_4d/relu_3x3_reduce -> inception_4d/3x3_reduce (in-place)
I1216 23:01:44.545478 18570 net.cpp:113] Setting up inception_4d/relu_3x3_reduce
I1216 23:01:44.545725 18570 net.cpp:120] Top shape: 80 144 14 14 (2257920)
I1216 23:01:44.545737 18570 layer_factory.hpp:74] Creating layer inception_4d/3x3
I1216 23:01:44.545753 18570 net.cpp:84] Creating Layer inception_4d/3x3
I1216 23:01:44.545758 18570 net.cpp:380] inception_4d/3x3 <- inception_4d/3x3_reduce
I1216 23:01:44.545766 18570 net.cpp:338] inception_4d/3x3 -> inception_4d/3x3
I1216 23:01:44.545774 18570 net.cpp:113] Setting up inception_4d/3x3
I1216 23:01:44.553620 18570 net.cpp:120] Top shape: 80 288 14 14 (4515840)
I1216 23:01:44.553673 18570 layer_factory.hpp:74] Creating layer inception_4d/relu_3x3
I1216 23:01:44.553690 18570 net.cpp:84] Creating Layer inception_4d/relu_3x3
I1216 23:01:44.553701 18570 net.cpp:380] inception_4d/relu_3x3 <- inception_4d/3x3
I1216 23:01:44.553715 18570 net.cpp:327] inception_4d/relu_3x3 -> inception_4d/3x3 (in-place)
I1216 23:01:44.553732 18570 net.cpp:113] Setting up inception_4d/relu_3x3
I1216 23:01:44.553856 18570 net.cpp:120] Top shape: 80 288 14 14 (4515840)
I1216 23:01:44.553866 18570 layer_factory.hpp:74] Creating layer inception_4d/5x5_reduce
I1216 23:01:44.553884 18570 net.cpp:84] Creating Layer inception_4d/5x5_reduce
I1216 23:01:44.553894 18570 net.cpp:380] inception_4d/5x5_reduce <- inception_4c/output_inception_4c/output_0_split_2
I1216 23:01:44.553908 18570 net.cpp:338] inception_4d/5x5_reduce -> inception_4d/5x5_reduce
I1216 23:01:44.553923 18570 net.cpp:113] Setting up inception_4d/5x5_reduce
I1216 23:01:44.554883 18570 net.cpp:120] Top shape: 80 32 14 14 (501760)
I1216 23:01:44.554906 18570 layer_factory.hpp:74] Creating layer inception_4d/relu_5x5_reduce
I1216 23:01:44.554919 18570 net.cpp:84] Creating Layer inception_4d/relu_5x5_reduce
I1216 23:01:44.554927 18570 net.cpp:380] inception_4d/relu_5x5_reduce <- inception_4d/5x5_reduce
I1216 23:01:44.554939 18570 net.cpp:327] inception_4d/relu_5x5_reduce -> inception_4d/5x5_reduce (in-place)
I1216 23:01:44.554951 18570 net.cpp:113] Setting up inception_4d/relu_5x5_reduce
I1216 23:01:44.555059 18570 net.cpp:120] Top shape: 80 32 14 14 (501760)
I1216 23:01:44.555069 18570 layer_factory.hpp:74] Creating layer inception_4d/5x5
I1216 23:01:44.555081 18570 net.cpp:84] Creating Layer inception_4d/5x5
I1216 23:01:44.555089 18570 net.cpp:380] inception_4d/5x5 <- inception_4d/5x5_reduce
I1216 23:01:44.555114 18570 net.cpp:338] inception_4d/5x5 -> inception_4d/5x5
I1216 23:01:44.555141 18570 net.cpp:113] Setting up inception_4d/5x5
I1216 23:01:44.556701 18570 net.cpp:120] Top shape: 80 64 14 14 (1003520)
I1216 23:01:44.556726 18570 layer_factory.hpp:74] Creating layer inception_4d/relu_5x5
I1216 23:01:44.556740 18570 net.cpp:84] Creating Layer inception_4d/relu_5x5
I1216 23:01:44.556748 18570 net.cpp:380] inception_4d/relu_5x5 <- inception_4d/5x5
I1216 23:01:44.556759 18570 net.cpp:327] inception_4d/relu_5x5 -> inception_4d/5x5 (in-place)
I1216 23:01:44.556771 18570 net.cpp:113] Setting up inception_4d/relu_5x5
I1216 23:01:44.556882 18570 net.cpp:120] Top shape: 80 64 14 14 (1003520)
I1216 23:01:44.556891 18570 layer_factory.hpp:74] Creating layer inception_4d/pool
I1216 23:01:44.556900 18570 layer_factory.cpp:56] CUDNN does not support padding or multiple tops. Using Caffe's own pooling layer.
I1216 23:01:44.556910 18570 net.cpp:84] Creating Layer inception_4d/pool
I1216 23:01:44.556918 18570 net.cpp:380] inception_4d/pool <- inception_4c/output_inception_4c/output_0_split_3
I1216 23:01:44.556931 18570 net.cpp:338] inception_4d/pool -> inception_4d/pool
I1216 23:01:44.556944 18570 net.cpp:113] Setting up inception_4d/pool
I1216 23:01:44.556958 18570 net.cpp:120] Top shape: 80 512 14 14 (8028160)
I1216 23:01:44.556965 18570 layer_factory.hpp:74] Creating layer inception_4d/pool_proj
I1216 23:01:44.556978 18570 net.cpp:84] Creating Layer inception_4d/pool_proj
I1216 23:01:44.556987 18570 net.cpp:380] inception_4d/pool_proj <- inception_4d/pool
I1216 23:01:44.556999 18570 net.cpp:338] inception_4d/pool_proj -> inception_4d/pool_proj
I1216 23:01:44.557013 18570 net.cpp:113] Setting up inception_4d/pool_proj
I1216 23:01:44.558480 18570 net.cpp:120] Top shape: 80 64 14 14 (1003520)
I1216 23:01:44.558509 18570 layer_factory.hpp:74] Creating layer inception_4d/relu_pool_proj
I1216 23:01:44.558523 18570 net.cpp:84] Creating Layer inception_4d/relu_pool_proj
I1216 23:01:44.558534 18570 net.cpp:380] inception_4d/relu_pool_proj <- inception_4d/pool_proj
I1216 23:01:44.558547 18570 net.cpp:327] inception_4d/relu_pool_proj -> inception_4d/pool_proj (in-place)
I1216 23:01:44.558563 18570 net.cpp:113] Setting up inception_4d/relu_pool_proj
I1216 23:01:44.558972 18570 net.cpp:120] Top shape: 80 64 14 14 (1003520)
I1216 23:01:44.558992 18570 layer_factory.hpp:74] Creating layer inception_4d/output
I1216 23:01:44.559011 18570 net.cpp:84] Creating Layer inception_4d/output
I1216 23:01:44.559022 18570 net.cpp:380] inception_4d/output <- inception_4d/1x1
I1216 23:01:44.559036 18570 net.cpp:380] inception_4d/output <- inception_4d/3x3
I1216 23:01:44.559046 18570 net.cpp:380] inception_4d/output <- inception_4d/5x5
I1216 23:01:44.559056 18570 net.cpp:380] inception_4d/output <- inception_4d/pool_proj
I1216 23:01:44.559068 18570 net.cpp:338] inception_4d/output -> inception_4d/output
I1216 23:01:44.559084 18570 net.cpp:113] Setting up inception_4d/output
I1216 23:01:44.559100 18570 net.cpp:120] Top shape: 80 528 14 14 (8279040)
I1216 23:01:44.559111 18570 layer_factory.hpp:74] Creating layer inception_4d/output_inception_4d/output_0_split
I1216 23:01:44.559128 18570 net.cpp:84] Creating Layer inception_4d/output_inception_4d/output_0_split
I1216 23:01:44.559137 18570 net.cpp:380] inception_4d/output_inception_4d/output_0_split <- inception_4d/output
I1216 23:01:44.559149 18570 net.cpp:338] inception_4d/output_inception_4d/output_0_split -> inception_4d/output_inception_4d/output_0_split_0
I1216 23:01:44.559165 18570 net.cpp:338] inception_4d/output_inception_4d/output_0_split -> inception_4d/output_inception_4d/output_0_split_1
I1216 23:01:44.559180 18570 net.cpp:338] inception_4d/output_inception_4d/output_0_split -> inception_4d/output_inception_4d/output_0_split_2
I1216 23:01:44.559193 18570 net.cpp:338] inception_4d/output_inception_4d/output_0_split -> inception_4d/output_inception_4d/output_0_split_3
I1216 23:01:44.559206 18570 net.cpp:338] inception_4d/output_inception_4d/output_0_split -> inception_4d/output_inception_4d/output_0_split_4
I1216 23:01:44.559231 18570 net.cpp:113] Setting up inception_4d/output_inception_4d/output_0_split
I1216 23:01:44.559263 18570 net.cpp:120] Top shape: 80 528 14 14 (8279040)
I1216 23:01:44.559275 18570 net.cpp:120] Top shape: 80 528 14 14 (8279040)
I1216 23:01:44.559286 18570 net.cpp:120] Top shape: 80 528 14 14 (8279040)
I1216 23:01:44.559296 18570 net.cpp:120] Top shape: 80 528 14 14 (8279040)
I1216 23:01:44.559306 18570 net.cpp:120] Top shape: 80 528 14 14 (8279040)
I1216 23:01:44.559315 18570 layer_factory.hpp:74] Creating layer loss2/ave_pool
I1216 23:01:44.559329 18570 net.cpp:84] Creating Layer loss2/ave_pool
I1216 23:01:44.559339 18570 net.cpp:380] loss2/ave_pool <- inception_4d/output_inception_4d/output_0_split_0
I1216 23:01:44.559355 18570 net.cpp:338] loss2/ave_pool -> loss2/ave_pool
I1216 23:01:44.559370 18570 net.cpp:113] Setting up loss2/ave_pool
I1216 23:01:44.559511 18570 net.cpp:120] Top shape: 80 528 4 4 (675840)
I1216 23:01:44.559525 18570 layer_factory.hpp:74] Creating layer loss2/conv
I1216 23:01:44.559542 18570 net.cpp:84] Creating Layer loss2/conv
I1216 23:01:44.559552 18570 net.cpp:380] loss2/conv <- loss2/ave_pool
I1216 23:01:44.559569 18570 net.cpp:338] loss2/conv -> loss2/conv
I1216 23:01:44.559584 18570 net.cpp:113] Setting up loss2/conv
I1216 23:01:44.561868 18570 net.cpp:120] Top shape: 80 128 4 4 (163840)
I1216 23:01:44.561898 18570 layer_factory.hpp:74] Creating layer loss2/relu_conv
I1216 23:01:44.561918 18570 net.cpp:84] Creating Layer loss2/relu_conv
I1216 23:01:44.561929 18570 net.cpp:380] loss2/relu_conv <- loss2/conv
I1216 23:01:44.561944 18570 net.cpp:327] loss2/relu_conv -> loss2/conv (in-place)
I1216 23:01:44.561957 18570 net.cpp:113] Setting up loss2/relu_conv
I1216 23:01:44.562095 18570 net.cpp:120] Top shape: 80 128 4 4 (163840)
I1216 23:01:44.562108 18570 layer_factory.hpp:74] Creating layer loss2/fc
I1216 23:01:44.562132 18570 net.cpp:84] Creating Layer loss2/fc
I1216 23:01:44.562142 18570 net.cpp:380] loss2/fc <- loss2/conv
I1216 23:01:44.562155 18570 net.cpp:338] loss2/fc -> loss2/fc
I1216 23:01:44.562175 18570 net.cpp:113] Setting up loss2/fc
I1216 23:01:44.643483 18570 net.cpp:120] Top shape: 80 1024 (81920)
I1216 23:01:44.643522 18570 layer_factory.hpp:74] Creating layer loss2/relu_fc
I1216 23:01:44.643535 18570 net.cpp:84] Creating Layer loss2/relu_fc
I1216 23:01:44.643545 18570 net.cpp:380] loss2/relu_fc <- loss2/fc
I1216 23:01:44.643560 18570 net.cpp:327] loss2/relu_fc -> loss2/fc (in-place)
I1216 23:01:44.643573 18570 net.cpp:113] Setting up loss2/relu_fc
I1216 23:01:44.644076 18570 net.cpp:120] Top shape: 80 1024 (81920)
I1216 23:01:44.644091 18570 layer_factory.hpp:74] Creating layer loss2/drop_fc
I1216 23:01:44.644101 18570 net.cpp:84] Creating Layer loss2/drop_fc
I1216 23:01:44.644109 18570 net.cpp:380] loss2/drop_fc <- loss2/fc
I1216 23:01:44.644119 18570 net.cpp:327] loss2/drop_fc -> loss2/fc (in-place)
I1216 23:01:44.644129 18570 net.cpp:113] Setting up loss2/drop_fc
I1216 23:01:44.644140 18570 net.cpp:120] Top shape: 80 1024 (81920)
I1216 23:01:44.644145 18570 layer_factory.hpp:74] Creating layer loss2/classifier_kaggle
I1216 23:01:44.644160 18570 net.cpp:84] Creating Layer loss2/classifier_kaggle
I1216 23:01:44.644165 18570 net.cpp:380] loss2/classifier_kaggle <- loss2/fc
I1216 23:01:44.644175 18570 net.cpp:338] loss2/classifier_kaggle -> loss2/classifier_kaggle
I1216 23:01:44.644186 18570 net.cpp:113] Setting up loss2/classifier_kaggle
I1216 23:01:44.650838 18570 net.cpp:120] Top shape: 80 447 (35760)
I1216 23:01:44.650856 18570 layer_factory.hpp:74] Creating layer loss2/loss
I1216 23:01:44.650868 18570 net.cpp:84] Creating Layer loss2/loss
I1216 23:01:44.650876 18570 net.cpp:380] loss2/loss <- loss2/classifier_kaggle
I1216 23:01:44.650884 18570 net.cpp:380] loss2/loss <- label_data_1_split_1
I1216 23:01:44.650892 18570 net.cpp:338] loss2/loss -> loss2/loss1
I1216 23:01:44.650902 18570 net.cpp:113] Setting up loss2/loss
I1216 23:01:44.650912 18570 layer_factory.hpp:74] Creating layer loss2/loss
I1216 23:01:44.651119 18570 net.cpp:120] Top shape: (1)
I1216 23:01:44.651139 18570 net.cpp:122]     with loss weight 0.3
I1216 23:01:44.651167 18570 layer_factory.hpp:74] Creating layer inception_4e/1x1
I1216 23:01:44.651183 18570 net.cpp:84] Creating Layer inception_4e/1x1
I1216 23:01:44.651191 18570 net.cpp:380] inception_4e/1x1 <- inception_4d/output_inception_4d/output_0_split_1
I1216 23:01:44.651201 18570 net.cpp:338] inception_4e/1x1 -> inception_4e/1x1
I1216 23:01:44.651211 18570 net.cpp:113] Setting up inception_4e/1x1
I1216 23:01:44.658504 18570 net.cpp:120] Top shape: 80 256 14 14 (4014080)
I1216 23:01:44.658529 18570 layer_factory.hpp:74] Creating layer inception_4e/relu_1x1
I1216 23:01:44.658542 18570 net.cpp:84] Creating Layer inception_4e/relu_1x1
I1216 23:01:44.658550 18570 net.cpp:380] inception_4e/relu_1x1 <- inception_4e/1x1
I1216 23:01:44.658560 18570 net.cpp:327] inception_4e/relu_1x1 -> inception_4e/1x1 (in-place)
I1216 23:01:44.658570 18570 net.cpp:113] Setting up inception_4e/relu_1x1
I1216 23:01:44.658658 18570 net.cpp:120] Top shape: 80 256 14 14 (4014080)
I1216 23:01:44.658665 18570 layer_factory.hpp:74] Creating layer inception_4e/3x3_reduce
I1216 23:01:44.658676 18570 net.cpp:84] Creating Layer inception_4e/3x3_reduce
I1216 23:01:44.658682 18570 net.cpp:380] inception_4e/3x3_reduce <- inception_4d/output_inception_4d/output_0_split_2
I1216 23:01:44.658694 18570 net.cpp:338] inception_4e/3x3_reduce -> inception_4e/3x3_reduce
I1216 23:01:44.658704 18570 net.cpp:113] Setting up inception_4e/3x3_reduce
I1216 23:01:44.660378 18570 net.cpp:120] Top shape: 80 160 14 14 (2508800)
I1216 23:01:44.660398 18570 layer_factory.hpp:74] Creating layer inception_4e/relu_3x3_reduce
I1216 23:01:44.660411 18570 net.cpp:84] Creating Layer inception_4e/relu_3x3_reduce
I1216 23:01:44.660418 18570 net.cpp:380] inception_4e/relu_3x3_reduce <- inception_4e/3x3_reduce
I1216 23:01:44.660428 18570 net.cpp:327] inception_4e/relu_3x3_reduce -> inception_4e/3x3_reduce (in-place)
I1216 23:01:44.660436 18570 net.cpp:113] Setting up inception_4e/relu_3x3_reduce
I1216 23:01:44.660526 18570 net.cpp:120] Top shape: 80 160 14 14 (2508800)
I1216 23:01:44.660536 18570 layer_factory.hpp:74] Creating layer inception_4e/3x3
I1216 23:01:44.660548 18570 net.cpp:84] Creating Layer inception_4e/3x3
I1216 23:01:44.660555 18570 net.cpp:380] inception_4e/3x3 <- inception_4e/3x3_reduce
I1216 23:01:44.660563 18570 net.cpp:338] inception_4e/3x3 -> inception_4e/3x3
I1216 23:01:44.660574 18570 net.cpp:113] Setting up inception_4e/3x3
I1216 23:01:44.667440 18570 net.cpp:120] Top shape: 80 320 14 14 (5017600)
I1216 23:01:44.667460 18570 layer_factory.hpp:74] Creating layer inception_4e/relu_3x3
I1216 23:01:44.667471 18570 net.cpp:84] Creating Layer inception_4e/relu_3x3
I1216 23:01:44.667479 18570 net.cpp:380] inception_4e/relu_3x3 <- inception_4e/3x3
I1216 23:01:44.667486 18570 net.cpp:327] inception_4e/relu_3x3 -> inception_4e/3x3 (in-place)
I1216 23:01:44.667496 18570 net.cpp:113] Setting up inception_4e/relu_3x3
I1216 23:01:44.667788 18570 net.cpp:120] Top shape: 80 320 14 14 (5017600)
I1216 23:01:44.667800 18570 layer_factory.hpp:74] Creating layer inception_4e/5x5_reduce
I1216 23:01:44.667814 18570 net.cpp:84] Creating Layer inception_4e/5x5_reduce
I1216 23:01:44.667820 18570 net.cpp:380] inception_4e/5x5_reduce <- inception_4d/output_inception_4d/output_0_split_3
I1216 23:01:44.667830 18570 net.cpp:338] inception_4e/5x5_reduce -> inception_4e/5x5_reduce
I1216 23:01:44.667841 18570 net.cpp:113] Setting up inception_4e/5x5_reduce
I1216 23:01:44.668563 18570 net.cpp:120] Top shape: 80 32 14 14 (501760)
I1216 23:01:44.668581 18570 layer_factory.hpp:74] Creating layer inception_4e/relu_5x5_reduce
I1216 23:01:44.668589 18570 net.cpp:84] Creating Layer inception_4e/relu_5x5_reduce
I1216 23:01:44.668596 18570 net.cpp:380] inception_4e/relu_5x5_reduce <- inception_4e/5x5_reduce
I1216 23:01:44.668606 18570 net.cpp:327] inception_4e/relu_5x5_reduce -> inception_4e/5x5_reduce (in-place)
I1216 23:01:44.668615 18570 net.cpp:113] Setting up inception_4e/relu_5x5_reduce
I1216 23:01:44.668704 18570 net.cpp:120] Top shape: 80 32 14 14 (501760)
I1216 23:01:44.668720 18570 layer_factory.hpp:74] Creating layer inception_4e/5x5
I1216 23:01:44.668763 18570 net.cpp:84] Creating Layer inception_4e/5x5
I1216 23:01:44.668771 18570 net.cpp:380] inception_4e/5x5 <- inception_4e/5x5_reduce
I1216 23:01:44.668781 18570 net.cpp:338] inception_4e/5x5 -> inception_4e/5x5
I1216 23:01:44.668792 18570 net.cpp:113] Setting up inception_4e/5x5
I1216 23:01:44.670761 18570 net.cpp:120] Top shape: 80 128 14 14 (2007040)
I1216 23:01:44.670785 18570 layer_factory.hpp:74] Creating layer inception_4e/relu_5x5
I1216 23:01:44.670796 18570 net.cpp:84] Creating Layer inception_4e/relu_5x5
I1216 23:01:44.670804 18570 net.cpp:380] inception_4e/relu_5x5 <- inception_4e/5x5
I1216 23:01:44.670812 18570 net.cpp:327] inception_4e/relu_5x5 -> inception_4e/5x5 (in-place)
I1216 23:01:44.670822 18570 net.cpp:113] Setting up inception_4e/relu_5x5
I1216 23:01:44.670910 18570 net.cpp:120] Top shape: 80 128 14 14 (2007040)
I1216 23:01:44.670918 18570 layer_factory.hpp:74] Creating layer inception_4e/pool
I1216 23:01:44.670925 18570 layer_factory.cpp:56] CUDNN does not support padding or multiple tops. Using Caffe's own pooling layer.
I1216 23:01:44.670934 18570 net.cpp:84] Creating Layer inception_4e/pool
I1216 23:01:44.670945 18570 net.cpp:380] inception_4e/pool <- inception_4d/output_inception_4d/output_0_split_4
I1216 23:01:44.670954 18570 net.cpp:338] inception_4e/pool -> inception_4e/pool
I1216 23:01:44.670964 18570 net.cpp:113] Setting up inception_4e/pool
I1216 23:01:44.670974 18570 net.cpp:120] Top shape: 80 528 14 14 (8279040)
I1216 23:01:44.670980 18570 layer_factory.hpp:74] Creating layer inception_4e/pool_proj
I1216 23:01:44.670992 18570 net.cpp:84] Creating Layer inception_4e/pool_proj
I1216 23:01:44.670999 18570 net.cpp:380] inception_4e/pool_proj <- inception_4e/pool
I1216 23:01:44.671006 18570 net.cpp:338] inception_4e/pool_proj -> inception_4e/pool_proj
I1216 23:01:44.671015 18570 net.cpp:113] Setting up inception_4e/pool_proj
I1216 23:01:44.672444 18570 net.cpp:120] Top shape: 80 128 14 14 (2007040)
I1216 23:01:44.672463 18570 layer_factory.hpp:74] Creating layer inception_4e/relu_pool_proj
I1216 23:01:44.672473 18570 net.cpp:84] Creating Layer inception_4e/relu_pool_proj
I1216 23:01:44.672480 18570 net.cpp:380] inception_4e/relu_pool_proj <- inception_4e/pool_proj
I1216 23:01:44.672490 18570 net.cpp:327] inception_4e/relu_pool_proj -> inception_4e/pool_proj (in-place)
I1216 23:01:44.672499 18570 net.cpp:113] Setting up inception_4e/relu_pool_proj
I1216 23:01:44.672585 18570 net.cpp:120] Top shape: 80 128 14 14 (2007040)
I1216 23:01:44.672593 18570 layer_factory.hpp:74] Creating layer inception_4e/output
I1216 23:01:44.672602 18570 net.cpp:84] Creating Layer inception_4e/output
I1216 23:01:44.672608 18570 net.cpp:380] inception_4e/output <- inception_4e/1x1
I1216 23:01:44.672616 18570 net.cpp:380] inception_4e/output <- inception_4e/3x3
I1216 23:01:44.672621 18570 net.cpp:380] inception_4e/output <- inception_4e/5x5
I1216 23:01:44.672628 18570 net.cpp:380] inception_4e/output <- inception_4e/pool_proj
I1216 23:01:44.672637 18570 net.cpp:338] inception_4e/output -> inception_4e/output
I1216 23:01:44.672647 18570 net.cpp:113] Setting up inception_4e/output
I1216 23:01:44.672657 18570 net.cpp:120] Top shape: 80 832 14 14 (13045760)
I1216 23:01:44.672662 18570 layer_factory.hpp:74] Creating layer pool4/3x3_s2
I1216 23:01:44.672672 18570 net.cpp:84] Creating Layer pool4/3x3_s2
I1216 23:01:44.672677 18570 net.cpp:380] pool4/3x3_s2 <- inception_4e/output
I1216 23:01:44.672688 18570 net.cpp:338] pool4/3x3_s2 -> pool4/3x3_s2
I1216 23:01:44.672696 18570 net.cpp:113] Setting up pool4/3x3_s2
I1216 23:01:44.672992 18570 net.cpp:120] Top shape: 80 832 7 7 (3261440)
I1216 23:01:44.673004 18570 layer_factory.hpp:74] Creating layer pool4/3x3_s2_pool4/3x3_s2_0_split
I1216 23:01:44.673014 18570 net.cpp:84] Creating Layer pool4/3x3_s2_pool4/3x3_s2_0_split
I1216 23:01:44.673020 18570 net.cpp:380] pool4/3x3_s2_pool4/3x3_s2_0_split <- pool4/3x3_s2
I1216 23:01:44.673028 18570 net.cpp:338] pool4/3x3_s2_pool4/3x3_s2_0_split -> pool4/3x3_s2_pool4/3x3_s2_0_split_0
I1216 23:01:44.673053 18570 net.cpp:338] pool4/3x3_s2_pool4/3x3_s2_0_split -> pool4/3x3_s2_pool4/3x3_s2_0_split_1
I1216 23:01:44.673073 18570 net.cpp:338] pool4/3x3_s2_pool4/3x3_s2_0_split -> pool4/3x3_s2_pool4/3x3_s2_0_split_2
I1216 23:01:44.673080 18570 net.cpp:338] pool4/3x3_s2_pool4/3x3_s2_0_split -> pool4/3x3_s2_pool4/3x3_s2_0_split_3
I1216 23:01:44.673087 18570 net.cpp:113] Setting up pool4/3x3_s2_pool4/3x3_s2_0_split
I1216 23:01:44.673097 18570 net.cpp:120] Top shape: 80 832 7 7 (3261440)
I1216 23:01:44.673104 18570 net.cpp:120] Top shape: 80 832 7 7 (3261440)
I1216 23:01:44.673110 18570 net.cpp:120] Top shape: 80 832 7 7 (3261440)
I1216 23:01:44.673115 18570 net.cpp:120] Top shape: 80 832 7 7 (3261440)
I1216 23:01:44.673121 18570 layer_factory.hpp:74] Creating layer inception_5a/1x1
I1216 23:01:44.673133 18570 net.cpp:84] Creating Layer inception_5a/1x1
I1216 23:01:44.673140 18570 net.cpp:380] inception_5a/1x1 <- pool4/3x3_s2_pool4/3x3_s2_0_split_0
I1216 23:01:44.673151 18570 net.cpp:338] inception_5a/1x1 -> inception_5a/1x1
I1216 23:01:44.673159 18570 net.cpp:113] Setting up inception_5a/1x1
I1216 23:01:44.676591 18570 net.cpp:120] Top shape: 80 256 7 7 (1003520)
I1216 23:01:44.676609 18570 layer_factory.hpp:74] Creating layer inception_5a/relu_1x1
I1216 23:01:44.676625 18570 net.cpp:84] Creating Layer inception_5a/relu_1x1
I1216 23:01:44.676632 18570 net.cpp:380] inception_5a/relu_1x1 <- inception_5a/1x1
I1216 23:01:44.676640 18570 net.cpp:327] inception_5a/relu_1x1 -> inception_5a/1x1 (in-place)
I1216 23:01:44.676650 18570 net.cpp:113] Setting up inception_5a/relu_1x1
I1216 23:01:44.676734 18570 net.cpp:120] Top shape: 80 256 7 7 (1003520)
I1216 23:01:44.676741 18570 layer_factory.hpp:74] Creating layer inception_5a/3x3_reduce
I1216 23:01:44.676753 18570 net.cpp:84] Creating Layer inception_5a/3x3_reduce
I1216 23:01:44.676759 18570 net.cpp:380] inception_5a/3x3_reduce <- pool4/3x3_s2_pool4/3x3_s2_0_split_1
I1216 23:01:44.676769 18570 net.cpp:338] inception_5a/3x3_reduce -> inception_5a/3x3_reduce
I1216 23:01:44.676779 18570 net.cpp:113] Setting up inception_5a/3x3_reduce
I1216 23:01:44.679047 18570 net.cpp:120] Top shape: 80 160 7 7 (627200)
I1216 23:01:44.679066 18570 layer_factory.hpp:74] Creating layer inception_5a/relu_3x3_reduce
I1216 23:01:44.679076 18570 net.cpp:84] Creating Layer inception_5a/relu_3x3_reduce
I1216 23:01:44.679083 18570 net.cpp:380] inception_5a/relu_3x3_reduce <- inception_5a/3x3_reduce
I1216 23:01:44.679091 18570 net.cpp:327] inception_5a/relu_3x3_reduce -> inception_5a/3x3_reduce (in-place)
I1216 23:01:44.679100 18570 net.cpp:113] Setting up inception_5a/relu_3x3_reduce
I1216 23:01:44.679184 18570 net.cpp:120] Top shape: 80 160 7 7 (627200)
I1216 23:01:44.679191 18570 layer_factory.hpp:74] Creating layer inception_5a/3x3
I1216 23:01:44.679203 18570 net.cpp:84] Creating Layer inception_5a/3x3
I1216 23:01:44.679209 18570 net.cpp:380] inception_5a/3x3 <- inception_5a/3x3_reduce
I1216 23:01:44.679217 18570 net.cpp:338] inception_5a/3x3 -> inception_5a/3x3
I1216 23:01:44.679227 18570 net.cpp:113] Setting up inception_5a/3x3
I1216 23:01:44.685793 18570 net.cpp:120] Top shape: 80 320 7 7 (1254400)
I1216 23:01:44.685812 18570 layer_factory.hpp:74] Creating layer inception_5a/relu_3x3
I1216 23:01:44.685822 18570 net.cpp:84] Creating Layer inception_5a/relu_3x3
I1216 23:01:44.685829 18570 net.cpp:380] inception_5a/relu_3x3 <- inception_5a/3x3
I1216 23:01:44.685837 18570 net.cpp:327] inception_5a/relu_3x3 -> inception_5a/3x3 (in-place)
I1216 23:01:44.685847 18570 net.cpp:113] Setting up inception_5a/relu_3x3
I1216 23:01:44.685928 18570 net.cpp:120] Top shape: 80 320 7 7 (1254400)
I1216 23:01:44.685937 18570 layer_factory.hpp:74] Creating layer inception_5a/5x5_reduce
I1216 23:01:44.685948 18570 net.cpp:84] Creating Layer inception_5a/5x5_reduce
I1216 23:01:44.685956 18570 net.cpp:380] inception_5a/5x5_reduce <- pool4/3x3_s2_pool4/3x3_s2_0_split_2
I1216 23:01:44.685963 18570 net.cpp:338] inception_5a/5x5_reduce -> inception_5a/5x5_reduce
I1216 23:01:44.685981 18570 net.cpp:113] Setting up inception_5a/5x5_reduce
I1216 23:01:44.686811 18570 net.cpp:120] Top shape: 80 32 7 7 (125440)
I1216 23:01:44.686828 18570 layer_factory.hpp:74] Creating layer inception_5a/relu_5x5_reduce
I1216 23:01:44.686838 18570 net.cpp:84] Creating Layer inception_5a/relu_5x5_reduce
I1216 23:01:44.686846 18570 net.cpp:380] inception_5a/relu_5x5_reduce <- inception_5a/5x5_reduce
I1216 23:01:44.686852 18570 net.cpp:327] inception_5a/relu_5x5_reduce -> inception_5a/5x5_reduce (in-place)
I1216 23:01:44.686861 18570 net.cpp:113] Setting up inception_5a/relu_5x5_reduce
I1216 23:01:44.687139 18570 net.cpp:120] Top shape: 80 32 7 7 (125440)
I1216 23:01:44.687150 18570 layer_factory.hpp:74] Creating layer inception_5a/5x5
I1216 23:01:44.687162 18570 net.cpp:84] Creating Layer inception_5a/5x5
I1216 23:01:44.687168 18570 net.cpp:380] inception_5a/5x5 <- inception_5a/5x5_reduce
I1216 23:01:44.687180 18570 net.cpp:338] inception_5a/5x5 -> inception_5a/5x5
I1216 23:01:44.687189 18570 net.cpp:113] Setting up inception_5a/5x5
I1216 23:01:44.689050 18570 net.cpp:120] Top shape: 80 128 7 7 (501760)
I1216 23:01:44.689081 18570 layer_factory.hpp:74] Creating layer inception_5a/relu_5x5
I1216 23:01:44.689090 18570 net.cpp:84] Creating Layer inception_5a/relu_5x5
I1216 23:01:44.689096 18570 net.cpp:380] inception_5a/relu_5x5 <- inception_5a/5x5
I1216 23:01:44.689108 18570 net.cpp:327] inception_5a/relu_5x5 -> inception_5a/5x5 (in-place)
I1216 23:01:44.689117 18570 net.cpp:113] Setting up inception_5a/relu_5x5
I1216 23:01:44.689201 18570 net.cpp:120] Top shape: 80 128 7 7 (501760)
I1216 23:01:44.689221 18570 layer_factory.hpp:74] Creating layer inception_5a/pool
I1216 23:01:44.689229 18570 layer_factory.cpp:56] CUDNN does not support padding or multiple tops. Using Caffe's own pooling layer.
I1216 23:01:44.689235 18570 net.cpp:84] Creating Layer inception_5a/pool
I1216 23:01:44.689241 18570 net.cpp:380] inception_5a/pool <- pool4/3x3_s2_pool4/3x3_s2_0_split_3
I1216 23:01:44.689249 18570 net.cpp:338] inception_5a/pool -> inception_5a/pool
I1216 23:01:44.689257 18570 net.cpp:113] Setting up inception_5a/pool
I1216 23:01:44.689266 18570 net.cpp:120] Top shape: 80 832 7 7 (3261440)
I1216 23:01:44.689271 18570 layer_factory.hpp:74] Creating layer inception_5a/pool_proj
I1216 23:01:44.689283 18570 net.cpp:84] Creating Layer inception_5a/pool_proj
I1216 23:01:44.689288 18570 net.cpp:380] inception_5a/pool_proj <- inception_5a/pool
I1216 23:01:44.689298 18570 net.cpp:338] inception_5a/pool_proj -> inception_5a/pool_proj
I1216 23:01:44.689307 18570 net.cpp:113] Setting up inception_5a/pool_proj
I1216 23:01:44.691108 18570 net.cpp:120] Top shape: 80 128 7 7 (501760)
I1216 23:01:44.691125 18570 layer_factory.hpp:74] Creating layer inception_5a/relu_pool_proj
I1216 23:01:44.691135 18570 net.cpp:84] Creating Layer inception_5a/relu_pool_proj
I1216 23:01:44.691143 18570 net.cpp:380] inception_5a/relu_pool_proj <- inception_5a/pool_proj
I1216 23:01:44.691149 18570 net.cpp:327] inception_5a/relu_pool_proj -> inception_5a/pool_proj (in-place)
I1216 23:01:44.691159 18570 net.cpp:113] Setting up inception_5a/relu_pool_proj
I1216 23:01:44.691234 18570 net.cpp:120] Top shape: 80 128 7 7 (501760)
I1216 23:01:44.691241 18570 layer_factory.hpp:74] Creating layer inception_5a/output
I1216 23:01:44.691251 18570 net.cpp:84] Creating Layer inception_5a/output
I1216 23:01:44.691256 18570 net.cpp:380] inception_5a/output <- inception_5a/1x1
I1216 23:01:44.691263 18570 net.cpp:380] inception_5a/output <- inception_5a/3x3
I1216 23:01:44.691269 18570 net.cpp:380] inception_5a/output <- inception_5a/5x5
I1216 23:01:44.691275 18570 net.cpp:380] inception_5a/output <- inception_5a/pool_proj
I1216 23:01:44.691282 18570 net.cpp:338] inception_5a/output -> inception_5a/output
I1216 23:01:44.691289 18570 net.cpp:113] Setting up inception_5a/output
I1216 23:01:44.691298 18570 net.cpp:120] Top shape: 80 832 7 7 (3261440)
I1216 23:01:44.691303 18570 layer_factory.hpp:74] Creating layer inception_5a/output_inception_5a/output_0_split
I1216 23:01:44.691318 18570 net.cpp:84] Creating Layer inception_5a/output_inception_5a/output_0_split
I1216 23:01:44.691330 18570 net.cpp:380] inception_5a/output_inception_5a/output_0_split <- inception_5a/output
I1216 23:01:44.691340 18570 net.cpp:338] inception_5a/output_inception_5a/output_0_split -> inception_5a/output_inception_5a/output_0_split_0
I1216 23:01:44.691349 18570 net.cpp:338] inception_5a/output_inception_5a/output_0_split -> inception_5a/output_inception_5a/output_0_split_1
I1216 23:01:44.691356 18570 net.cpp:338] inception_5a/output_inception_5a/output_0_split -> inception_5a/output_inception_5a/output_0_split_2
I1216 23:01:44.691365 18570 net.cpp:338] inception_5a/output_inception_5a/output_0_split -> inception_5a/output_inception_5a/output_0_split_3
I1216 23:01:44.691370 18570 net.cpp:113] Setting up inception_5a/output_inception_5a/output_0_split
I1216 23:01:44.691380 18570 net.cpp:120] Top shape: 80 832 7 7 (3261440)
I1216 23:01:44.691385 18570 net.cpp:120] Top shape: 80 832 7 7 (3261440)
I1216 23:01:44.691390 18570 net.cpp:120] Top shape: 80 832 7 7 (3261440)
I1216 23:01:44.691396 18570 net.cpp:120] Top shape: 80 832 7 7 (3261440)
I1216 23:01:44.691401 18570 layer_factory.hpp:74] Creating layer inception_5b/1x1
I1216 23:01:44.691412 18570 net.cpp:84] Creating Layer inception_5b/1x1
I1216 23:01:44.691417 18570 net.cpp:380] inception_5b/1x1 <- inception_5a/output_inception_5a/output_0_split_0
I1216 23:01:44.691426 18570 net.cpp:338] inception_5b/1x1 -> inception_5b/1x1
I1216 23:01:44.691436 18570 net.cpp:113] Setting up inception_5b/1x1
I1216 23:01:44.695950 18570 net.cpp:120] Top shape: 80 384 7 7 (1505280)
I1216 23:01:44.695967 18570 layer_factory.hpp:74] Creating layer inception_5b/relu_1x1
I1216 23:01:44.695977 18570 net.cpp:84] Creating Layer inception_5b/relu_1x1
I1216 23:01:44.695984 18570 net.cpp:380] inception_5b/relu_1x1 <- inception_5b/1x1
I1216 23:01:44.695991 18570 net.cpp:327] inception_5b/relu_1x1 -> inception_5b/1x1 (in-place)
I1216 23:01:44.696001 18570 net.cpp:113] Setting up inception_5b/relu_1x1
I1216 23:01:44.696269 18570 net.cpp:120] Top shape: 80 384 7 7 (1505280)
I1216 23:01:44.696281 18570 layer_factory.hpp:74] Creating layer inception_5b/3x3_reduce
I1216 23:01:44.696292 18570 net.cpp:84] Creating Layer inception_5b/3x3_reduce
I1216 23:01:44.696298 18570 net.cpp:380] inception_5b/3x3_reduce <- inception_5a/output_inception_5a/output_0_split_1
I1216 23:01:44.696307 18570 net.cpp:338] inception_5b/3x3_reduce -> inception_5b/3x3_reduce
I1216 23:01:44.696317 18570 net.cpp:113] Setting up inception_5b/3x3_reduce
I1216 23:01:44.698792 18570 net.cpp:120] Top shape: 80 192 7 7 (752640)
I1216 23:01:44.698810 18570 layer_factory.hpp:74] Creating layer inception_5b/relu_3x3_reduce
I1216 23:01:44.698822 18570 net.cpp:84] Creating Layer inception_5b/relu_3x3_reduce
I1216 23:01:44.698827 18570 net.cpp:380] inception_5b/relu_3x3_reduce <- inception_5b/3x3_reduce
I1216 23:01:44.698835 18570 net.cpp:327] inception_5b/relu_3x3_reduce -> inception_5b/3x3_reduce (in-place)
I1216 23:01:44.698844 18570 net.cpp:113] Setting up inception_5b/relu_3x3_reduce
I1216 23:01:44.698923 18570 net.cpp:120] Top shape: 80 192 7 7 (752640)
I1216 23:01:44.698930 18570 layer_factory.hpp:74] Creating layer inception_5b/3x3
I1216 23:01:44.698940 18570 net.cpp:84] Creating Layer inception_5b/3x3
I1216 23:01:44.698946 18570 net.cpp:380] inception_5b/3x3 <- inception_5b/3x3_reduce
I1216 23:01:44.698956 18570 net.cpp:338] inception_5b/3x3 -> inception_5b/3x3
I1216 23:01:44.698992 18570 net.cpp:113] Setting up inception_5b/3x3
I1216 23:01:44.707526 18570 net.cpp:120] Top shape: 80 384 7 7 (1505280)
I1216 23:01:44.707545 18570 layer_factory.hpp:74] Creating layer inception_5b/relu_3x3
I1216 23:01:44.707554 18570 net.cpp:84] Creating Layer inception_5b/relu_3x3
I1216 23:01:44.707561 18570 net.cpp:380] inception_5b/relu_3x3 <- inception_5b/3x3
I1216 23:01:44.707568 18570 net.cpp:327] inception_5b/relu_3x3 -> inception_5b/3x3 (in-place)
I1216 23:01:44.707576 18570 net.cpp:113] Setting up inception_5b/relu_3x3
I1216 23:01:44.707659 18570 net.cpp:120] Top shape: 80 384 7 7 (1505280)
I1216 23:01:44.707674 18570 layer_factory.hpp:74] Creating layer inception_5b/5x5_reduce
I1216 23:01:44.707685 18570 net.cpp:84] Creating Layer inception_5b/5x5_reduce
I1216 23:01:44.707690 18570 net.cpp:380] inception_5b/5x5_reduce <- inception_5a/output_inception_5a/output_0_split_2
I1216 23:01:44.707700 18570 net.cpp:338] inception_5b/5x5_reduce -> inception_5b/5x5_reduce
I1216 23:01:44.707710 18570 net.cpp:113] Setting up inception_5b/5x5_reduce
I1216 23:01:44.708632 18570 net.cpp:120] Top shape: 80 48 7 7 (188160)
I1216 23:01:44.708648 18570 layer_factory.hpp:74] Creating layer inception_5b/relu_5x5_reduce
I1216 23:01:44.708659 18570 net.cpp:84] Creating Layer inception_5b/relu_5x5_reduce
I1216 23:01:44.708667 18570 net.cpp:380] inception_5b/relu_5x5_reduce <- inception_5b/5x5_reduce
I1216 23:01:44.708673 18570 net.cpp:327] inception_5b/relu_5x5_reduce -> inception_5b/5x5_reduce (in-place)
I1216 23:01:44.708681 18570 net.cpp:113] Setting up inception_5b/relu_5x5_reduce
I1216 23:01:44.708757 18570 net.cpp:120] Top shape: 80 48 7 7 (188160)
I1216 23:01:44.708765 18570 layer_factory.hpp:74] Creating layer inception_5b/5x5
I1216 23:01:44.708772 18570 net.cpp:84] Creating Layer inception_5b/5x5
I1216 23:01:44.708777 18570 net.cpp:380] inception_5b/5x5 <- inception_5b/5x5_reduce
I1216 23:01:44.708786 18570 net.cpp:338] inception_5b/5x5 -> inception_5b/5x5
I1216 23:01:44.708794 18570 net.cpp:113] Setting up inception_5b/5x5
I1216 23:01:44.711107 18570 net.cpp:120] Top shape: 80 128 7 7 (501760)
I1216 23:01:44.711123 18570 layer_factory.hpp:74] Creating layer inception_5b/relu_5x5
I1216 23:01:44.711132 18570 net.cpp:84] Creating Layer inception_5b/relu_5x5
I1216 23:01:44.711136 18570 net.cpp:380] inception_5b/relu_5x5 <- inception_5b/5x5
I1216 23:01:44.711145 18570 net.cpp:327] inception_5b/relu_5x5 -> inception_5b/5x5 (in-place)
I1216 23:01:44.711154 18570 net.cpp:113] Setting up inception_5b/relu_5x5
I1216 23:01:44.711421 18570 net.cpp:120] Top shape: 80 128 7 7 (501760)
I1216 23:01:44.711431 18570 layer_factory.hpp:74] Creating layer inception_5b/pool
I1216 23:01:44.711438 18570 layer_factory.cpp:56] CUDNN does not support padding or multiple tops. Using Caffe's own pooling layer.
I1216 23:01:44.711447 18570 net.cpp:84] Creating Layer inception_5b/pool
I1216 23:01:44.711452 18570 net.cpp:380] inception_5b/pool <- inception_5a/output_inception_5a/output_0_split_3
I1216 23:01:44.711460 18570 net.cpp:338] inception_5b/pool -> inception_5b/pool
I1216 23:01:44.711469 18570 net.cpp:113] Setting up inception_5b/pool
I1216 23:01:44.711478 18570 net.cpp:120] Top shape: 80 832 7 7 (3261440)
I1216 23:01:44.711483 18570 layer_factory.hpp:74] Creating layer inception_5b/pool_proj
I1216 23:01:44.711493 18570 net.cpp:84] Creating Layer inception_5b/pool_proj
I1216 23:01:44.711499 18570 net.cpp:380] inception_5b/pool_proj <- inception_5b/pool
I1216 23:01:44.711505 18570 net.cpp:338] inception_5b/pool_proj -> inception_5b/pool_proj
I1216 23:01:44.711514 18570 net.cpp:113] Setting up inception_5b/pool_proj
I1216 23:01:44.713248 18570 net.cpp:120] Top shape: 80 128 7 7 (501760)
I1216 23:01:44.713264 18570 layer_factory.hpp:74] Creating layer inception_5b/relu_pool_proj
I1216 23:01:44.713273 18570 net.cpp:84] Creating Layer inception_5b/relu_pool_proj
I1216 23:01:44.713279 18570 net.cpp:380] inception_5b/relu_pool_proj <- inception_5b/pool_proj
I1216 23:01:44.713289 18570 net.cpp:327] inception_5b/relu_pool_proj -> inception_5b/pool_proj (in-place)
I1216 23:01:44.713296 18570 net.cpp:113] Setting up inception_5b/relu_pool_proj
I1216 23:01:44.713395 18570 net.cpp:120] Top shape: 80 128 7 7 (501760)
I1216 23:01:44.713403 18570 layer_factory.hpp:74] Creating layer inception_5b/output
I1216 23:01:44.713412 18570 net.cpp:84] Creating Layer inception_5b/output
I1216 23:01:44.713417 18570 net.cpp:380] inception_5b/output <- inception_5b/1x1
I1216 23:01:44.713423 18570 net.cpp:380] inception_5b/output <- inception_5b/3x3
I1216 23:01:44.713428 18570 net.cpp:380] inception_5b/output <- inception_5b/5x5
I1216 23:01:44.713438 18570 net.cpp:380] inception_5b/output <- inception_5b/pool_proj
I1216 23:01:44.713454 18570 net.cpp:338] inception_5b/output -> inception_5b/output
I1216 23:01:44.713462 18570 net.cpp:113] Setting up inception_5b/output
I1216 23:01:44.713470 18570 net.cpp:120] Top shape: 80 1024 7 7 (4014080)
I1216 23:01:44.713475 18570 layer_factory.hpp:74] Creating layer pool5/7x7_s1
I1216 23:01:44.713484 18570 net.cpp:84] Creating Layer pool5/7x7_s1
I1216 23:01:44.713488 18570 net.cpp:380] pool5/7x7_s1 <- inception_5b/output
I1216 23:01:44.713495 18570 net.cpp:338] pool5/7x7_s1 -> pool5/7x7_s1
I1216 23:01:44.713501 18570 net.cpp:113] Setting up pool5/7x7_s1
I1216 23:01:44.713577 18570 net.cpp:120] Top shape: 80 1024 1 1 (81920)
I1216 23:01:44.713583 18570 layer_factory.hpp:74] Creating layer pool5/drop_7x7_s1
I1216 23:01:44.713592 18570 net.cpp:84] Creating Layer pool5/drop_7x7_s1
I1216 23:01:44.713595 18570 net.cpp:380] pool5/drop_7x7_s1 <- pool5/7x7_s1
I1216 23:01:44.713603 18570 net.cpp:327] pool5/drop_7x7_s1 -> pool5/7x7_s1 (in-place)
I1216 23:01:44.713608 18570 net.cpp:113] Setting up pool5/drop_7x7_s1
I1216 23:01:44.713616 18570 net.cpp:120] Top shape: 80 1024 1 1 (81920)
I1216 23:01:44.713621 18570 layer_factory.hpp:74] Creating layer loss3/classifier_kaggle
I1216 23:01:44.713629 18570 net.cpp:84] Creating Layer loss3/classifier_kaggle
I1216 23:01:44.713634 18570 net.cpp:380] loss3/classifier_kaggle <- pool5/7x7_s1
I1216 23:01:44.713644 18570 net.cpp:338] loss3/classifier_kaggle -> loss3/classifier_kaggle
I1216 23:01:44.713651 18570 net.cpp:113] Setting up loss3/classifier_kaggle
I1216 23:01:44.719635 18570 net.cpp:120] Top shape: 80 447 (35760)
I1216 23:01:44.719650 18570 layer_factory.hpp:74] Creating layer loss3/loss3
I1216 23:01:44.719661 18570 net.cpp:84] Creating Layer loss3/loss3
I1216 23:01:44.719667 18570 net.cpp:380] loss3/loss3 <- loss3/classifier_kaggle
I1216 23:01:44.719674 18570 net.cpp:380] loss3/loss3 <- label_data_1_split_2
I1216 23:01:44.719681 18570 net.cpp:338] loss3/loss3 -> loss3/loss3
I1216 23:01:44.719689 18570 net.cpp:113] Setting up loss3/loss3
…
I1216 23:01:44.725011 18570 net.cpp:257] The NetState phase (1) differed from the phase (0) specified by a rule in layer data
I1216 23:01:44.726523 18570 net.cpp:42] Initializing net from parameters: 
name: "GoogleNet"
state {
  phase: TEST
}
layer {
  name: "data"
  type: "Data"
  top: "data"
  top: "label"
  include {
    phase: TEST
  }
  transform_param {
    mirror: false
    crop_size: 224
    mean_value: 129
    mean_value: 129
    mean_value: 129
  }
  data_param {
    source: "/home/coldmanck/kaggle/kaggle2_val_lmdb"
    batch_size: 50
    backend: LMDB
  }
}
layer {
  name: "conv1/7x7_s2"
  type: "Convolution"
  bottom: "data"
  top: "conv1/7x7_s2"
  param {
    lr_mult: 1
    decay_mult: 1
  }
  param {
    lr_mult: 2
    decay_mult: 0
  }
  convolution_param {
    num_output: 64
    pad: 3
    kernel_size: 7
    stride: 2
    weight_filler {
      type: "xavier"
    }
    bias_filler {
      type: "constant"
      value: 0.2
    }
  }
}
layer {
  name: "conv1/relu_7x7"
  type: "ReLU"
  bottom: "conv1/7x7_s2"
  top: "conv1/7x7_s2"
}
layer {
  name: "pool1/3x3_s2"
  type: "Pooling"
  bottom: "conv1/7x7_s2"
  top: "pool1/3x3_s2"
  pooling_param {
    pool: MAX
    kernel_size: 3
    stride: 2
  }
}
layer {
  name: "pool1/norm1"
  type: "LRN"
  bottom: "pool1/3x3_s2"
  top: "pool1/norm1"
  lrn_param {
    local_size: 5
    alpha: 0.0001
    beta: 0.75
  }
}
layer {
  name: "conv2/3x3_reduce"
  type: "Convolution"
  bottom: "pool1/norm1"
  top: "conv2/3x3_reduce"
  param {
    lr_mult: 1
    decay_mult: 1
  }
  param {
    lr_mult: 2
    decay_mult: 0
  }
  convolution_param {
    num_output: 64
    kernel_size: 1
    weight_filler {
      type: "xavier"
    }
    bias_filler {
      type: "constant"
      value: 0.2
    }
  }
}
layer {
  name: "conv2/relu_3x3_reduce"
  type: "ReLU"
  bottom: "conv2/3x3_reduce"
  top: "conv2/3x3_reduce"
}
layer {
  name: "conv2/3x3"
  type: "Convolution"
  bottom: "conv2/3x3_reduce"
  top: "conv2/3x3"
  param {
    lr_mult: 1
    decay_mult: 1
  }
  param {
    lr_mult: 2
    decay_mult: 0
  }
  convolution_param {
    num_output: 192
    pad: 1
    kernel_size: 3
    weight_filler {
      type: "xavier"
    }
    bias_filler {
      type: "constant"
      value: 0.2
    }
  }
}
layer {
  name: "conv2/relu_3x3"
  type: "ReLU"
  bottom: "conv2/3x3"
  top: "conv2/3x3"
}
layer {
  name: "conv2/norm2"
  type: "LRN"
  bottom: "conv2/3x3"
  top: "conv2/norm2"
  lrn_param {
    local_size: 5
    alpha: 0.0001
    beta: 0.75
  }
}
layer {
  name: "pool2/3x3_s2"
  type: "Pooling"
  bottom: "conv2/norm2"
  top: "pool2/3x3_s2"
  pooling_param {
    pool: MAX
    kernel_size: 3
    stride: 2
  }
}
layer {
  name: "inception_3a/1x1"
  type: "Convolution"
  bottom: "pool2/3x3_s2"
  top: "inception_3a/1x1"
  param {
    lr_mult: 1
    decay_mult: 1
  }
  param {
    lr_mult: 2
    decay_mult: 0
  }
  convolution_param {
    num_output: 64
    kernel_size: 1
    weight_filler {
      type: "xavier"
    }
    bias_filler {
      type: "constant"
      value: 0.2
    }
  }
}
layer {
  name: "inception_3a/relu_1x1"
  type: "ReLU"
  bottom: "inception_3a/1x1"
  top: "inception_3a/1x1"
}
layer {
  name: "inception_3a/3x3_reduce"
  type: "Convolution"
  bottom: "pool2/3x3_s2"
  top: "inception_3a/3x3_reduce"
  param {
    lr_mult: 1
    decay_mult: 1
  }
  param {
    lr_mult: 2
    decay_mult: 0
  }
  convolution_param {
    num_output: 96
    kernel_size: 1
    weight_filler {
      type: "xavier"
    }
    bias_filler {
      type: "constant"
      value: 0.2
    }
  }
}
layer {
  name: "inception_3a/relu_3x3_reduce"
  type: "ReLU"
  bottom: "inception_3a/3x3_reduce"
  top: "inception_3a/3x3_reduce"
}
layer {
  name: "inception_3a/3x3"
  type: "Convolution"
  bottom: "inception_3a/3x3_reduce"
  top: "inception_3a/3x3"
  param {
    lr_mult: 1
    decay_mult: 1
  }
  param {
    lr_mult: 2
    decay_mult: 0
  }
  convolution_param {
    num_output: 128
    pad: 1
    kernel_size: 3
    weight_filler {
      type: "xavier"
    }
    bias_filler {
      type: "constant"
      value: 0.2
    }
  }
}
layer {
  name: "inception_3a/relu_3x3"
  type: "ReLU"
  bottom: "inception_3a/3x3"
  top: "inception_3a/3x3"
}
layer {
  name: "inception_3a/5x5_reduce"
  type: "Convolution"
  bottom: "pool2/3x3_s2"
  top: "inception_3a/5x5_reduce"
  param {
    lr_mult: 1
    decay_mult: 1
  }
  param {
    lr_mult: 2
    decay_mult: 0
  }
  convolution_param {
    num_output: 16
    kernel_size: 1
    weight_filler {
      type: "xavier"
    }
    bias_filler {
      type: "constant"
      value: 0.2
    }
  }
}
layer {
  name: "inception_3a/relu_5x5_reduce"
  type: "ReLU"
  bottom: "inception_3a/5x5_reduce"
  top: "inception_3a/5x5_reduce"
}
layer {
  name: "inception_3a/5x5"
  type: "Convolution"
  bottom: "inception_3a/5x5_reduce"
  top: "inception_3a/5x5"
  param {
    lr_mult: 1
    decay_mult: 1
  }
  param {
    lr_mult: 2
    decay_mult: 0
  }
  convolution_param {
    num_output: 32
    pad: 2
    kernel_size: 5
    weight_filler {
      type: "xavier"
    }
    bias_filler {
      type: "constant"
      value: 0.2
    }
  }
}
layer {
  name: "inception_3a/relu_5x5"
  type: "ReLU"
  bottom: "inception_3a/5x5"
  top: "inception_3a/5x5"
}
layer {
  name: "inception_3a/pool"
  type: "Pooling"
  bottom: "pool2/3x3_s2"
  top: "inception_3a/pool"
  pooling_param {
    pool: MAX
    kernel_size: 3
    stride: 1
    pad: 1
  }
}
layer {
  name: "inception_3a/pool_proj"
  type: "Convolution"
  bottom: "inception_3a/pool"
  top: "inception_3a/pool_proj"
  param {
    lr_mult: 1
    decay_mult: 1
  }
  param {
    lr_mult: 2
    decay_mult: 0
  }
  convolution_param {
    num_output: 32
    kernel_size: 1
    weight_filler {
      type: "xavier"
    }
    bias_filler {
      type: "constant"
      value: 0.2
    }
  }
}
layer {
  name: "inception_3a/relu_pool_proj"
  type: "ReLU"
  bottom: "inception_3a/pool_proj"
  top: "inception_3a/pool_proj"
}
layer {
  name: "inception_3a/output"
  type: "Concat"
  bottom: "inception_3a/1x1"
  bottom: "inception_3a/3x3"
  bottom: "inception_3a/5x5"
  bottom: "inception_3a/pool_proj"
  top: "inception_3a/output"
}
layer {
  name: "inception_3b/1x1"
  type: "Convolution"
  bottom: "inception_3a/output"
  top: "inception_3b/1x1"
  param {
    lr_mult: 1
    decay_mult: 1
  }
  param {
    lr_mult: 2
    decay_mult: 0
  }
  convolution_param {
    num_output: 128
    kernel_size: 1
    weight_filler {
      type: "xavier"
    }
    bias_filler {
      type: "constant"
      value: 0.2
    }
  }
}
layer {
  name: "inception_3b/relu_1x1"
  type: "ReLU"
  bottom: "inception_3b/1x1"
  top: "inception_3b/1x1"
}
layer {
  name: "inception_3b/3x3_reduce"
  type: "Convolution"
  bottom: "inception_3a/output"
  top: "inception_3b/3x3_reduce"
  param {
    lr_mult: 1
    decay_mult: 1
  }
  param {
    lr_mult: 2
    decay_mult: 0
  }
  convolution_param {
    num_output: 128
    kernel_size: 1
    weight_filler {
      type: "xavier"
    }
    bias_filler {
      type: "constant"
      value: 0.2
    }
  }
}
layer {
  name: "inception_3b/relu_3x3_reduce"
  type: "ReLU"
  bottom: "inception_3b/3x3_reduce"
  top: "inception_3b/3x3_reduce"
}
layer {
  name: "inception_3b/3x3"
  type: "Convolution"
  bottom: "inception_3b/3x3_reduce"
  top: "inception_3b/3x3"
  param {
    lr_mult: 1
    decay_mult: 1
  }
  param {
    lr_mult: 2
    decay_mult: 0
  }
  convolution_param {
    num_output: 192
    pad: 1
    kernel_size: 3
    weight_filler {
      type: "xavier"
    }
    bias_filler {
      type: "constant"
      value: 0.2
    }
  }
}
layer {
  name: "inception_3b/relu_3x3"
  type: "ReLU"
  bottom: "inception_3b/3x3"
  top: "inception_3b/3x3"
}
layer {
  name: "inception_3b/5x5_reduce"
  type: "Convolution"
  bottom: "inception_3a/output"
  top: "inception_3b/5x5_reduce"
  param {
    lr_mult: 1
    decay_mult: 1
  }
  param {
    lr_mult: 2
    decay_mult: 0
  }
  convolution_param {
    num_output: 32
    kernel_size: 1
    weight_filler {
      type: "xavier"
    }
    bias_filler {
      type: "constant"
      value: 0.2
    }
  }
}
layer {
  name: "inception_3b/relu_5x5_reduce"
  type: "ReLU"
  bottom: "inception_3b/5x5_reduce"
  top: "inception_3b/5x5_reduce"
}
layer {
  name: "inception_3b/5x5"
  type: "Convolution"
  bottom: "inception_3b/5x5_reduce"
  top: "inception_3b/5x5"
  param {
    lr_mult: 1
    decay_mult: 1
  }
  param {
    lr_mult: 2
    decay_mult: 0
  }
  convolution_param {
    num_output: 96
    pad: 2
    kernel_size: 5
    weight_filler {
      type: "xavier"
    }
    bias_filler {
      type: "constant"
      value: 0.2
    }
  }
}
layer {
  name: "inception_3b/relu_5x5"
  type: "ReLU"
  bottom: "inception_3b/5x5"
  top: "inception_3b/5x5"
}
layer {
  name: "inception_3b/pool"
  type: "Pooling"
  bottom: "inception_3a/output"
  top: "inception_3b/pool"
  pooling_param {
    pool: MAX
    kernel_size: 3
    stride: 1
    pad: 1
  }
}
layer {
  name: "inception_3b/pool_proj"
  type: "Convolution"
  bottom: "inception_3b/pool"
  top: "inception_3b/pool_proj"
  param {
    lr_mult: 1
    decay_mult: 1
  }
  param {
    lr_mult: 2
    decay_mult: 0
  }
  convolution_param {
    num_output: 64
    kernel_size: 1
    weight_filler {
      type: "xavier"
    }
    bias_filler {
      type: "constant"
      value: 0.2
    }
  }
}
layer {
  name: "inception_3b/relu_pool_proj"
  type: "ReLU"
  bottom: "inception_3b/pool_proj"
  top: "inception_3b/pool_proj"
}
layer {
  name: "inception_3b/output"
  type: "Concat"
  bottom: "inception_3b/1x1"
  bottom: "inception_3b/3x3"
  bottom: "inception_3b/5x5"
  bottom: "inception_3b/pool_proj"
  top: "inception_3b/output"
}
layer {
  name: "pool3/3x3_s2"
  type: "Pooling"
  bottom: "inception_3b/output"
  top: "pool3/3x3_s2"
  pooling_param {
    pool: MAX
    kernel_size: 3
    stride: 2
  }
}
layer {
  name: "inception_4a/1x1"
  type: "Convolution"
  bottom: "pool3/3x3_s2"
  top: "inception_4a/1x1"
  param {
    lr_mult: 1
    decay_mult: 1
  }
  param {
    lr_mult: 2
    decay_mult: 0
  }
  convolution_param {
    num_output: 192
    kernel_size: 1
    weight_filler {
      type: "xavier"
    }
    bias_filler {
      type: "constant"
      value: 0.2
    }
  }
}
layer {
  name: "inception_4a/relu_1x1"
  type: "ReLU"
  bottom: "inception_4a/1x1"
  top: "inception_4a/1x1"
}
layer {
  name: "inception_4a/3x3_reduce"
  type: "Convolution"
  bottom: "pool3/3x3_s2"
  top: "inception_4a/3x3_reduce"
  param {
    lr_mult: 1
    decay_mult: 1
  }
  param {
    lr_mult: 2
    decay_mult: 0
  }
  convolution_param {
    num_output: 96
    kernel_size: 1
    weight_filler {
      type: "xavier"
    }
    bias_filler {
      type: "constant"
      value: 0.2
    }
  }
}
layer {
  name: "inception_4a/relu_3x3_reduce"
  type: "ReLU"
  bottom: "inception_4a/3x3_reduce"
  top: "inception_4a/3x3_reduce"
}
layer {
  name: "inception_4a/3x3"
  type: "Convolution"
  bottom: "inception_4a/3x3_reduce"
  top: "inception_4a/3x3"
  param {
    lr_mult: 1
    decay_mult: 1
  }
  param {
    lr_mult: 2
    decay_mult: 0
  }
  convolution_param {
    num_output: 208
    pad: 1
    kernel_size: 3
    weight_filler {
      type: "xavier"
    }
    bias_filler {
      type: "constant"
      value: 0.2
    }
  }
}
layer {
  name: "inception_4a/relu_3x3"
  type: "ReLU"
  bottom: "inception_4a/3x3"
  top: "inception_4a/3x3"
}
layer {
  name: "inception_4a/5x5_reduce"
  type: "Convolution"
  bottom: "pool3/3x3_s2"
  top: "inception_4a/5x5_reduce"
  param {
    lr_mult: 1
    decay_mult: 1
  }
  param {
    lr_mult: 2
    decay_mult: 0
  }
  convolution_param {
    num_output: 16
    kernel_size: 1
    weight_filler {
      type: "xavier"
    }
    bias_filler {
      type: "constant"
      value: 0.2
    }
  }
}
layer {
  name: "inception_4a/relu_5x5_reduce"
  type: "ReLU"
  bottom: "inception_4a/5x5_reduce"
  top: "inception_4a/5x5_reduce"
}
layer {
  name: "inception_4a/5x5"
  type: "Convolution"
  bottom: "inception_4a/5x5_reduce"
  top: "inception_4a/5x5"
  param {
    lr_mult: 1
    decay_mult: 1
  }
  param {
    lr_mult: 2
    decay_mult: 0
  }
  convolution_param {
    num_output: 48
    pad: 2
    kernel_size: 5
    weight_filler {
      type: "xavier"
    }
    bias_filler {
      type: "constant"
      value: 0.2
    }
  }
}
layer {
  name: "inception_4a/relu_5x5"
  type: "ReLU"
  bottom: "inception_4a/5x5"
  top: "inception_4a/5x5"
}
layer {
  name: "inception_4a/pool"
  type: "Pooling"
  bottom: "pool3/3x3_s2"
  top: "inception_4a/pool"
  pooling_param {
    pool: MAX
    kernel_size: 3
    stride: 1
    pad: 1
  }
}
layer {
  name: "inception_4a/pool_proj"
  type: "Convolution"
  bottom: "inception_4a/pool"
  top: "inception_4a/pool_proj"
  param {
    lr_mult: 1
    decay_mult: 1
  }
  param {
    lr_mult: 2
    decay_mult: 0
  }
  convolution_param {
    num_output: 64
    kernel_size: 1
    weight_filler {
      type: "xavier"
    }
    bias_filler {
      type: "constant"
      value: 0.2
    }
  }
}
layer {
  name: "inception_4a/relu_pool_proj"
  type: "ReLU"
  bottom: "inception_4a/pool_proj"
  top: "inception_4a/pool_proj"
}
layer {
  name: "inception_4a/output"
  type: "Concat"
  bottom: "inception_4a/1x1"
  bottom: "inception_4a/3x3"
  bottom: "inception_4a/5x5"
  bottom: "inception_4a/pool_proj"
  top: "inception_4a/output"
}
layer {
  name: "loss1/ave_pool"
  type: "Pooling"
  bottom: "inception_4a/output"
  top: "loss1/ave_pool"
  pooling_param {
    pool: AVE
    kernel_size: 5
    stride: 3
  }
}
layer {
  name: "loss1/conv"
  type: "Convolution"
  bottom: "loss1/ave_pool"
  top: "loss1/conv"
  param {
    lr_mult: 1
    decay_mult: 1
  }
  param {
    lr_mult: 2
    decay_mult: 0
  }
  convolution_param {
    num_output: 128
    kernel_size: 1
    weight_filler {
      type: "xavier"
    }
    bias_filler {
      type: "constant"
      value: 0.2
    }
  }
}
layer {
  name: "loss1/relu_conv"
  type: "ReLU"
  bottom: "loss1/conv"
  top: "loss1/conv"
}
layer {
  name: "loss1/fc"
  type: "InnerProduct"
  bottom: "loss1/conv"
  top: "loss1/fc"
  param {
    lr_mult: 1
    decay_mult: 1
  }
  param {
    lr_mult: 2
    decay_mult: 0
  }
  inner_product_param {
    num_output: 1024
    weight_filler {
      type: "xavier"
    }
    bias_filler {
      type: "constant"
      value: 0.2
    }
  }
}
layer {
  name: "loss1/relu_fc"
  type: "ReLU"
  bottom: "loss1/fc"
  top: "loss1/fc"
}
layer {
  name: "loss1/drop_fc"
  type: "Dropout"
  bottom: "loss1/fc"
  top: "loss1/fc"
  dropout_param {
    dropout_ratio: 0.7
  }
}
layer {
  name: "loss1/classifier_kaggle"
  type: "InnerProduct"
  bottom: "loss1/fc"
  top: "loss1/classifier_kaggle"
  param {
    lr_mult: 1
    decay_mult: 1
  }
  param {
    lr_mult: 2
    decay_mult: 0
  }
  inner_product_param {
    num_output: 447
    weight_filler {
      type: "xavier"
    }
    bias_filler {
      type: "constant"
      value: 0
    }
  }
}
layer {
  name: "loss1/loss"
  type: "SoftmaxWithLoss"
  bottom: "loss1/classifier_kaggle"
  bottom: "label"
  top: "loss1/loss1"
  loss_weight: 0.3
}
layer {
  name: "loss1/top-1"
  type: "Accuracy"
  bottom: "loss1/classifier_kaggle"
  bottom: "label"
  top: "loss1/top-1"
  include {
    phase: TEST
  }
}
layer {
  name: "loss1/top-5"
  type: "Accuracy"
  bottom: "loss1/classifier_kaggle"
  bottom: "label"
  top: "loss1/top-5"
  include {
    phase: TEST
  }
  accuracy_param {
    top_k: 5
  }
}
layer {
  name: "inception_4b/1x1"
  type: "Convolution"
  bottom: "inception_4a/output"
  top: "inception_4b/1x1"
  param {
    lr_mult: 1
    decay_mult: 1
  }
  param {
    lr_mult: 2
    decay_mult: 0
  }
  convolution_param {
    num_output: 160
    kernel_size: 1
    weight_filler {
      type: "xavier"
    }
    bias_filler {
      type: "constant"
      value: 0.2
    }
  }
}
layer {
  name: "inception_4b/relu_1x1"
  type: "ReLU"
  bottom: "inception_4b/1x1"
  top: "inception_4b/1x1"
}
layer {
  name: "inception_4b/3x3_reduce"
  type: "Convolution"
  bottom: "inception_4a/output"
  top: "inception_4b/3x3_reduce"
  param {
    lr_mult: 1
    decay_mult: 1
  }
  param {
    lr_mult: 2
    decay_mult: 0
  }
  convolution_param {
    num_output: 112
    kernel_size: 1
    weight_filler {
      type: "xavier"
    }
    bias_filler {
      type: "constant"
      value: 0.2
    }
  }
}
layer {
  name: "inception_4b/relu_3x3_reduce"
  type: "ReLU"
  bottom: "inception_4b/3x3_reduce"
  top: "inception_4b/3x3_reduce"
}
layer {
  name: "inception_4b/3x3"
  type: "Convolution"
  bottom: "inception_4b/3x3_reduce"
  top: "inception_4b/3x3"
  param {
    lr_mult: 1
    decay_mult: 1
  }
  param {
    lr_mult: 2
    decay_mult: 0
  }
  convolution_param {
    num_output: 224
    pad: 1
    kernel_size: 3
    weight_filler {
      type: "xavier"
    }
    bias_filler {
      type: "constant"
      value: 0.2
    }
  }
}
layer {
  name: "inception_4b/relu_3x3"
  type: "ReLU"
  bottom: "inception_4b/3x3"
  top: "inception_4b/3x3"
}
layer {
  name: "inception_4b/5x5_reduce"
  type: "Convolution"
  bottom: "inception_4a/output"
  top: "inception_4b/5x5_reduce"
  param {
    lr_mult: 1
    decay_mult: 1
  }
  param {
    lr_mult: 2
    decay_mult: 0
  }
  convolution_param {
    num_output: 24
    kernel_size: 1
    weight_filler {
      type: "xavier"
    }
    bias_filler {
      type: "constant"
      value: 0.2
    }
  }
}
layer {
  name: "inception_4b/relu_5x5_reduce"
  type: "ReLU"
  bottom: "inception_4b/5x5_reduce"
  top: "inception_4b/5x5_reduce"
}
layer {
  name: "inception_4b/5x5"
  type: "Convolution"
  bottom: "inception_4b/5x5_reduce"
  top: "inception_4b/5x5"
  param {
    lr_mult: 1
    decay_mult: 1
  }
  param {
    lr_mult: 2
    decay_mult: 0
  }
  convolution_param {
    num_output: 64
    pad: 2
    kernel_size: 5
    weight_filler {
      type: "xavier"
    }
    bias_filler {
      type: "constant"
      value: 0.2
    }
  }
}
layer {
  name: "inception_4b/relu_5x5"
  type: "ReLU"
  bottom: "inception_4b/5x5"
  top: "inception_4b/5x5"
}
layer {
  name: "inception_4b/pool"
  type: "Pooling"
  bottom: "inception_4a/output"
  top: "inception_4b/pool"
  pooling_param {
    pool: MAX
    kernel_size: 3
    stride: 1
    pad: 1
  }
}
layer {
  name: "inception_4b/pool_proj"
  type: "Convolution"
  bottom: "inception_4b/pool"
  top: "inception_4b/pool_proj"
  param {
    lr_mult: 1
    decay_mult: 1
  }
  param {
    lr_mult: 2
    decay_mult: 0
  }
  convolution_param {
    num_output: 64
    kernel_size: 1
    weight_filler {
      type: "xavier"
    }
    bias_filler {
      type: "constant"
      value: 0.2
    }
  }
}
layer {
  name: "inception_4b/relu_pool_proj"
  type: "ReLU"
  bottom: "inception_4b/pool_proj"
  top: "inception_4b/pool_proj"
}
layer {
  name: "inception_4b/output"
  type: "Concat"
  bottom: "inception_4b/1x1"
  bottom: "inception_4b/3x3"
  bottom: "inception_4b/5x5"
  bottom: "inception_4b/pool_proj"
  top: "inception_4b/output"
}
layer {
  name: "inception_4c/1x1"
  type: "Convolution"
  bottom: "inception_4b/output"
  top: "inception_4c/1x1"
  param {
    lr_mult: 1
    decay_mult: 1
  }
  param {
    lr_mult: 2
    decay_mult: 0
  }
  convolution_param {
    num_output: 128
    kernel_size: 1
    weight_filler {
      type: "xavier"
    }
    bias_filler {
      type: "constant"
      value: 0.2
    }
  }
}
layer {
  name: "inception_4c/relu_1x1"
  type: "ReLU"
  bottom: "inception_4c/1x1"
  top: "inception_4c/1x1"
}
layer {
  name: "inception_4c/3x3_reduce"
  type: "Convolution"
  bottom: "inception_4b/output"
  top: "inception_4c/3x3_reduce"
  param {
    lr_mult: 1
    decay_mult: 1
  }
  param {
    lr_mult: 2
    decay_mult: 0
  }
  convolution_param {
    num_output: 128
    kernel_size: 1
    weight_filler {
      type: "xavier"
    }
    bias_filler {
      type: "constant"
      value: 0.2
    }
  }
}
layer {
  name: "inception_4c/relu_3x3_reduce"
  type: "ReLU"
  bottom: "inception_4c/3x3_reduce"
  top: "inception_4c/3x3_reduce"
}
layer {
  name: "inception_4c/3x3"
  type: "Convolution"
  bottom: "inception_4c/3x3_reduce"
  top: "inception_4c/3x3"
  param {
    lr_mult: 1
    decay_mult: 1
  }
  param {
    lr_mult: 2
    decay_mult: 0
  }
  convolution_param {
    num_output: 256
    pad: 1
    kernel_size: 3
    weight_filler {
      type: "xavier"
    }
    bias_filler {
      type: "constant"
      value: 0.2
    }
  }
}
layer {
  name: "inception_4c/relu_3x3"
  type: "ReLU"
  bottom: "inception_4c/3x3"
  top: "inception_4c/3x3"
}
layer {
  name: "inception_4c/5x5_reduce"
  type: "Convolution"
  bottom: "inception_4b/output"
  top: "inception_4c/5x5_reduce"
  param {
    lr_mult: 1
    decay_mult: 1
  }
  param {
    lr_mult: 2
    decay_mult: 0
  }
  convolution_param {
    num_output: 24
    kernel_size: 1
    weight_filler {
      type: "xavier"
    }
    bias_filler {
      type: "constant"
      value: 0.2
    }
  }
}
layer {
  name: "inception_4c/relu_5x5_reduce"
  type: "ReLU"
  bottom: "inception_4c/5x5_reduce"
  top: "inception_4c/5x5_reduce"
}
layer {
  name: "inception_4c/5x5"
  type: "Convolution"
  bottom: "inception_4c/5x5_reduce"
  top: "inception_4c/5x5"
  param {
    lr_mult: 1
    decay_mult: 1
  }
  param {
    lr_mult: 2
    decay_mult: 0
  }
  convolution_param {
    num_output: 64
    pad: 2
    kernel_size: 5
    weight_filler {
      type: "xavier"
    }
    bias_filler {
      type: "constant"
      value: 0.2
    }
  }
}
layer {
  name: "inception_4c/relu_5x5"
  type: "ReLU"
  bottom: "inception_4c/5x5"
  top: "inception_4c/5x5"
}
layer {
  name: "inception_4c/pool"
  type: "Pooling"
  bottom: "inception_4b/output"
  top: "inception_4c/pool"
  pooling_param {
    pool: MAX
    kernel_size: 3
    stride: 1
    pad: 1
  }
}
layer {
  name: "inception_4c/pool_proj"
  type: "Convolution"
  bottom: "inception_4c/pool"
  top: "inception_4c/pool_proj"
  param {
    lr_mult: 1
    decay_mult: 1
  }
  param {
    lr_mult: 2
    decay_mult: 0
  }
  convolution_param {
    num_output: 64
    kernel_size: 1
    weight_filler {
      type: "xavier"
    }
    bias_filler {
      type: "constant"
      value: 0.2
    }
  }
}
layer {
  name: "inception_4c/relu_pool_proj"
  type: "ReLU"
  bottom: "inception_4c/pool_proj"
  top: "inception_4c/pool_proj"
}
layer {
  name: "inception_4c/output"
  type: "Concat"
  bottom: "inception_4c/1x1"
  bottom: "inception_4c/3x3"
  bottom: "inception_4c/5x5"
  bottom: "inception_4c/pool_proj"
  top: "inception_4c/output"
}
layer {
  name: "inception_4d/1x1"
  type: "Convolution"
  bottom: "inception_4c/output"
  top: "inception_4d/1x1"
  param {
    lr_mult: 1
    decay_mult: 1
  }
  param {
    lr_mult: 2
    decay_mult: 0
  }
  convolution_param {
    num_output: 112
    kernel_size: 1
    weight_filler {
      type: "xavier"
    }
    bias_filler {
      type: "constant"
      value: 0.2
    }
  }
}
layer {
  name: "inception_4d/relu_1x1"
  type: "ReLU"
  bottom: "inception_4d/1x1"
  top: "inception_4d/1x1"
}
layer {
  name: "inception_4d/3x3_reduce"
  type: "Convolution"
  bottom: "inception_4c/output"
  top: "inception_4d/3x3_reduce"
  param {
    lr_mult: 1
    decay_mult: 1
  }
  param {
    lr_mult: 2
    decay_mult: 0
  }
  convolution_param {
    num_output: 144
    kernel_size: 1
    weight_filler {
      type: "xavier"
    }
    bias_filler {
      type: "constant"
      value: 0.2
    }
  }
}
layer {
  name: "inception_4d/relu_3x3_reduce"
  type: "ReLU"
  bottom: "inception_4d/3x3_reduce"
  top: "inception_4d/3x3_reduce"
}
layer {
  name: "inception_4d/3x3"
  type: "Convolution"
  bottom: "inception_4d/3x3_reduce"
  top: "inception_4d/3x3"
  param {
    lr_mult: 1
    decay_mult: 1
  }
  param {
    lr_mult: 2
    decay_mult: 0
  }
  convolution_param {
    num_output: 288
    pad: 1
    kernel_size: 3
    weight_filler {
      type: "xavier"
    }
    bias_filler {
      type: "constant"
      value: 0.2
    }
  }
}
layer {
  name: "inception_4d/relu_3x3"
  type: "ReLU"
  bottom: "inception_4d/3x3"
  top: "inception_4d/3x3"
}
layer {
  name: "inception_4d/5x5_reduce"
  type: "Convolution"
  bottom: "inception_4c/output"
  top: "inception_4d/5x5_reduce"
  param {
    lr_mult: 1
    decay_mult: 1
  }
  param {
    lr_mult: 2
    decay_mult: 0
  }
  convolution_param {
    num_output: 32
    kernel_size: 1
    weight_filler {
      type: "xavier"
    }
    bias_filler {
      type: "constant"
      value: 0.2
    }
  }
}
layer {
  name: "inception_4d/relu_5x5_reduce"
  type: "ReLU"
  bottom: "inception_4d/5x5_reduce"
  top: "inception_4d/5x5_reduce"
}
layer {
  name: "inception_4d/5x5"
  type: "Convolution"
  bottom: "inception_4d/5x5_reduce"
  top: "inception_4d/5x5"
  param {
    lr_mult: 1
    decay_mult: 1
  }
  param {
    lr_mult: 2
    decay_mult: 0
  }
  convolution_param {
    num_output: 64
    pad: 2
    kernel_size: 5
    weight_filler {
      type: "xavier"
    }
    bias_filler {
      type: "constant"
      value: 0.2
    }
  }
}
layer {
  name: "inception_4d/relu_5x5"
  type: "ReLU"
  bottom: "inception_4d/5x5"
  top: "inception_4d/5x5"
}
layer {
  name: "inception_4d/pool"
  type: "Pooling"
  bottom: "inception_4c/output"
  top: "inception_4d/pool"
  pooling_param {
    pool: MAX
    kernel_size: 3
    stride: 1
    pad: 1
  }
}
layer {
  name: "inception_4d/pool_proj"
  type: "Convolution"
  bottom: "inception_4d/pool"
  top: "inception_4d/pool_proj"
  param {
    lr_mult: 1
    decay_mult: 1
  }
  param {
    lr_mult: 2
    decay_mult: 0
  }
  convolution_param {
    num_output: 64
    kernel_size: 1
    weight_filler {
      type: "xavier"
    }
    bias_filler {
      type: "constant"
      value: 0.2
    }
  }
}
layer {
  name: "inception_4d/relu_pool_proj"
  type: "ReLU"
  bottom: "inception_4d/pool_proj"
  top: "inception_4d/pool_proj"
}
layer {
  name: "inception_4d/output"
  type: "Concat"
  bottom: "inception_4d/1x1"
  bottom: "inception_4d/3x3"
  bottom: "inception_4d/5x5"
  bottom: "inception_4d/pool_proj"
  top: "inception_4d/output"
}
layer {
  name: "loss2/ave_pool"
  type: "Pooling"
  bottom: "inception_4d/output"
  top: "loss2/ave_pool"
  pooling_param {
    pool: AVE
    kernel_size: 5
    stride: 3
  }
}
layer {
  name: "loss2/conv"
  type: "Convolution"
  bottom: "loss2/ave_pool"
  top: "loss2/conv"
  param {
    lr_mult: 1
    decay_mult: 1
  }
  param {
    lr_mult: 2
    decay_mult: 0
  }
  convolution_param {
…
I1216 23:01:45.025956 18570 net.cpp:84] Creating Layer inception_4c/1x1
I1216 23:01:45.025961 18570 net.cpp:380] inception_4c/1x1 <- inception_4b/output_inception_4b/output_0_split_0
I1216 23:01:45.025969 18570 net.cpp:338] inception_4c/1x1 -> inception_4c/1x1
I1216 23:01:45.025977 18570 net.cpp:113] Setting up inception_4c/1x1
I1216 23:01:45.027171 18570 net.cpp:120] Top shape: 50 128 14 14 (1254400)
I1216 23:01:45.027186 18570 layer_factory.hpp:74] Creating layer inception_4c/relu_1x1
I1216 23:01:45.027196 18570 net.cpp:84] Creating Layer inception_4c/relu_1x1
I1216 23:01:45.027202 18570 net.cpp:380] inception_4c/relu_1x1 <- inception_4c/1x1
I1216 23:01:45.027209 18570 net.cpp:327] inception_4c/relu_1x1 -> inception_4c/1x1 (in-place)
I1216 23:01:45.027216 18570 net.cpp:113] Setting up inception_4c/relu_1x1
I1216 23:01:45.027480 18570 net.cpp:120] Top shape: 50 128 14 14 (1254400)
I1216 23:01:45.027492 18570 layer_factory.hpp:74] Creating layer inception_4c/3x3_reduce
I1216 23:01:45.027503 18570 net.cpp:84] Creating Layer inception_4c/3x3_reduce
I1216 23:01:45.027508 18570 net.cpp:380] inception_4c/3x3_reduce <- inception_4b/output_inception_4b/output_0_split_1
I1216 23:01:45.027521 18570 net.cpp:338] inception_4c/3x3_reduce -> inception_4c/3x3_reduce
I1216 23:01:45.027537 18570 net.cpp:113] Setting up inception_4c/3x3_reduce
I1216 23:01:45.028734 18570 net.cpp:120] Top shape: 50 128 14 14 (1254400)
I1216 23:01:45.028750 18570 layer_factory.hpp:74] Creating layer inception_4c/relu_3x3_reduce
I1216 23:01:45.028758 18570 net.cpp:84] Creating Layer inception_4c/relu_3x3_reduce
I1216 23:01:45.028765 18570 net.cpp:380] inception_4c/relu_3x3_reduce <- inception_4c/3x3_reduce
I1216 23:01:45.028772 18570 net.cpp:327] inception_4c/relu_3x3_reduce -> inception_4c/3x3_reduce (in-place)
I1216 23:01:45.028780 18570 net.cpp:113] Setting up inception_4c/relu_3x3_reduce
I1216 23:01:45.028851 18570 net.cpp:120] Top shape: 50 128 14 14 (1254400)
I1216 23:01:45.028858 18570 layer_factory.hpp:74] Creating layer inception_4c/3x3
I1216 23:01:45.028870 18570 net.cpp:84] Creating Layer inception_4c/3x3
I1216 23:01:45.028875 18570 net.cpp:380] inception_4c/3x3 <- inception_4c/3x3_reduce
I1216 23:01:45.028884 18570 net.cpp:338] inception_4c/3x3 -> inception_4c/3x3
I1216 23:01:45.028892 18570 net.cpp:113] Setting up inception_4c/3x3
I1216 23:01:45.032768 18570 net.cpp:120] Top shape: 50 256 14 14 (2508800)
I1216 23:01:45.032799 18570 layer_factory.hpp:74] Creating layer inception_4c/relu_3x3
I1216 23:01:45.032807 18570 net.cpp:84] Creating Layer inception_4c/relu_3x3
I1216 23:01:45.032814 18570 net.cpp:380] inception_4c/relu_3x3 <- inception_4c/3x3
I1216 23:01:45.032820 18570 net.cpp:327] inception_4c/relu_3x3 -> inception_4c/3x3 (in-place)
I1216 23:01:45.032829 18570 net.cpp:113] Setting up inception_4c/relu_3x3
I1216 23:01:45.032902 18570 net.cpp:120] Top shape: 50 256 14 14 (2508800)
I1216 23:01:45.032909 18570 layer_factory.hpp:74] Creating layer inception_4c/5x5_reduce
I1216 23:01:45.032919 18570 net.cpp:84] Creating Layer inception_4c/5x5_reduce
I1216 23:01:45.032925 18570 net.cpp:380] inception_4c/5x5_reduce <- inception_4b/output_inception_4b/output_0_split_2
I1216 23:01:45.032932 18570 net.cpp:338] inception_4c/5x5_reduce -> inception_4c/5x5_reduce
I1216 23:01:45.032940 18570 net.cpp:113] Setting up inception_4c/5x5_reduce
I1216 23:01:45.033545 18570 net.cpp:120] Top shape: 50 24 14 14 (235200)
I1216 23:01:45.033561 18570 layer_factory.hpp:74] Creating layer inception_4c/relu_5x5_reduce
I1216 23:01:45.033570 18570 net.cpp:84] Creating Layer inception_4c/relu_5x5_reduce
I1216 23:01:45.033576 18570 net.cpp:380] inception_4c/relu_5x5_reduce <- inception_4c/5x5_reduce
I1216 23:01:45.033582 18570 net.cpp:327] inception_4c/relu_5x5_reduce -> inception_4c/5x5_reduce (in-place)
I1216 23:01:45.033591 18570 net.cpp:113] Setting up inception_4c/relu_5x5_reduce
I1216 23:01:45.033854 18570 net.cpp:120] Top shape: 50 24 14 14 (235200)
I1216 23:01:45.033865 18570 layer_factory.hpp:74] Creating layer inception_4c/5x5
I1216 23:01:45.033876 18570 net.cpp:84] Creating Layer inception_4c/5x5
I1216 23:01:45.033882 18570 net.cpp:380] inception_4c/5x5 <- inception_4c/5x5_reduce
I1216 23:01:45.033891 18570 net.cpp:338] inception_4c/5x5 -> inception_4c/5x5
I1216 23:01:45.033900 18570 net.cpp:113] Setting up inception_4c/5x5
I1216 23:01:45.034780 18570 net.cpp:120] Top shape: 50 64 14 14 (627200)
I1216 23:01:45.034795 18570 layer_factory.hpp:74] Creating layer inception_4c/relu_5x5
I1216 23:01:45.034803 18570 net.cpp:84] Creating Layer inception_4c/relu_5x5
I1216 23:01:45.034808 18570 net.cpp:380] inception_4c/relu_5x5 <- inception_4c/5x5
I1216 23:01:45.034816 18570 net.cpp:327] inception_4c/relu_5x5 -> inception_4c/5x5 (in-place)
I1216 23:01:45.034823 18570 net.cpp:113] Setting up inception_4c/relu_5x5
I1216 23:01:45.034896 18570 net.cpp:120] Top shape: 50 64 14 14 (627200)
I1216 23:01:45.034904 18570 layer_factory.hpp:74] Creating layer inception_4c/pool
I1216 23:01:45.034909 18570 layer_factory.cpp:56] CUDNN does not support padding or multiple tops. Using Caffe's own pooling layer.
I1216 23:01:45.034915 18570 net.cpp:84] Creating Layer inception_4c/pool
I1216 23:01:45.034920 18570 net.cpp:380] inception_4c/pool <- inception_4b/output_inception_4b/output_0_split_3
I1216 23:01:45.034941 18570 net.cpp:338] inception_4c/pool -> inception_4c/pool
I1216 23:01:45.034950 18570 net.cpp:113] Setting up inception_4c/pool
I1216 23:01:45.034958 18570 net.cpp:120] Top shape: 50 512 14 14 (5017600)
I1216 23:01:45.034963 18570 layer_factory.hpp:74] Creating layer inception_4c/pool_proj
I1216 23:01:45.034971 18570 net.cpp:84] Creating Layer inception_4c/pool_proj
I1216 23:01:45.034976 18570 net.cpp:380] inception_4c/pool_proj <- inception_4c/pool
I1216 23:01:45.034986 18570 net.cpp:338] inception_4c/pool_proj -> inception_4c/pool_proj
I1216 23:01:45.034993 18570 net.cpp:113] Setting up inception_4c/pool_proj
I1216 23:01:45.035811 18570 net.cpp:120] Top shape: 50 64 14 14 (627200)
I1216 23:01:45.035826 18570 layer_factory.hpp:74] Creating layer inception_4c/relu_pool_proj
I1216 23:01:45.035835 18570 net.cpp:84] Creating Layer inception_4c/relu_pool_proj
I1216 23:01:45.035840 18570 net.cpp:380] inception_4c/relu_pool_proj <- inception_4c/pool_proj
I1216 23:01:45.035846 18570 net.cpp:327] inception_4c/relu_pool_proj -> inception_4c/pool_proj (in-place)
I1216 23:01:45.035854 18570 net.cpp:113] Setting up inception_4c/relu_pool_proj
I1216 23:01:45.035928 18570 net.cpp:120] Top shape: 50 64 14 14 (627200)
I1216 23:01:45.035933 18570 layer_factory.hpp:74] Creating layer inception_4c/output
I1216 23:01:45.035940 18570 net.cpp:84] Creating Layer inception_4c/output
I1216 23:01:45.035945 18570 net.cpp:380] inception_4c/output <- inception_4c/1x1
I1216 23:01:45.035953 18570 net.cpp:380] inception_4c/output <- inception_4c/3x3
I1216 23:01:45.035958 18570 net.cpp:380] inception_4c/output <- inception_4c/5x5
I1216 23:01:45.035964 18570 net.cpp:380] inception_4c/output <- inception_4c/pool_proj
I1216 23:01:45.035969 18570 net.cpp:338] inception_4c/output -> inception_4c/output
I1216 23:01:45.035976 18570 net.cpp:113] Setting up inception_4c/output
I1216 23:01:45.035984 18570 net.cpp:120] Top shape: 50 512 14 14 (5017600)
I1216 23:01:45.035989 18570 layer_factory.hpp:74] Creating layer inception_4c/output_inception_4c/output_0_split
I1216 23:01:45.035997 18570 net.cpp:84] Creating Layer inception_4c/output_inception_4c/output_0_split
I1216 23:01:45.036002 18570 net.cpp:380] inception_4c/output_inception_4c/output_0_split <- inception_4c/output
I1216 23:01:45.036008 18570 net.cpp:338] inception_4c/output_inception_4c/output_0_split -> inception_4c/output_inception_4c/output_0_split_0
I1216 23:01:45.036015 18570 net.cpp:338] inception_4c/output_inception_4c/output_0_split -> inception_4c/output_inception_4c/output_0_split_1
I1216 23:01:45.036025 18570 net.cpp:338] inception_4c/output_inception_4c/output_0_split -> inception_4c/output_inception_4c/output_0_split_2
I1216 23:01:45.036031 18570 net.cpp:338] inception_4c/output_inception_4c/output_0_split -> inception_4c/output_inception_4c/output_0_split_3
I1216 23:01:45.036037 18570 net.cpp:113] Setting up inception_4c/output_inception_4c/output_0_split
I1216 23:01:45.036044 18570 net.cpp:120] Top shape: 50 512 14 14 (5017600)
I1216 23:01:45.036049 18570 net.cpp:120] Top shape: 50 512 14 14 (5017600)
I1216 23:01:45.036056 18570 net.cpp:120] Top shape: 50 512 14 14 (5017600)
I1216 23:01:45.036061 18570 net.cpp:120] Top shape: 50 512 14 14 (5017600)
I1216 23:01:45.036064 18570 layer_factory.hpp:74] Creating layer inception_4d/1x1
I1216 23:01:45.036072 18570 net.cpp:84] Creating Layer inception_4d/1x1
I1216 23:01:45.036077 18570 net.cpp:380] inception_4d/1x1 <- inception_4c/output_inception_4c/output_0_split_0
I1216 23:01:45.036085 18570 net.cpp:338] inception_4d/1x1 -> inception_4d/1x1
I1216 23:01:45.036092 18570 net.cpp:113] Setting up inception_4d/1x1
I1216 23:01:45.037214 18570 net.cpp:120] Top shape: 50 112 14 14 (1097600)
I1216 23:01:45.037230 18570 layer_factory.hpp:74] Creating layer inception_4d/relu_1x1
I1216 23:01:45.037237 18570 net.cpp:84] Creating Layer inception_4d/relu_1x1
I1216 23:01:45.037242 18570 net.cpp:380] inception_4d/relu_1x1 <- inception_4d/1x1
I1216 23:01:45.037250 18570 net.cpp:327] inception_4d/relu_1x1 -> inception_4d/1x1 (in-place)
I1216 23:01:45.037269 18570 net.cpp:113] Setting up inception_4d/relu_1x1
I1216 23:01:45.037340 18570 net.cpp:120] Top shape: 50 112 14 14 (1097600)
I1216 23:01:45.037348 18570 layer_factory.hpp:74] Creating layer inception_4d/3x3_reduce
I1216 23:01:45.037355 18570 net.cpp:84] Creating Layer inception_4d/3x3_reduce
I1216 23:01:45.037361 18570 net.cpp:380] inception_4d/3x3_reduce <- inception_4c/output_inception_4c/output_0_split_1
I1216 23:01:45.037370 18570 net.cpp:338] inception_4d/3x3_reduce -> inception_4d/3x3_reduce
I1216 23:01:45.037379 18570 net.cpp:113] Setting up inception_4d/3x3_reduce
I1216 23:01:45.038682 18570 net.cpp:120] Top shape: 50 144 14 14 (1411200)
I1216 23:01:45.038697 18570 layer_factory.hpp:74] Creating layer inception_4d/relu_3x3_reduce
I1216 23:01:45.038705 18570 net.cpp:84] Creating Layer inception_4d/relu_3x3_reduce
I1216 23:01:45.038710 18570 net.cpp:380] inception_4d/relu_3x3_reduce <- inception_4d/3x3_reduce
I1216 23:01:45.038719 18570 net.cpp:327] inception_4d/relu_3x3_reduce -> inception_4d/3x3_reduce (in-place)
I1216 23:01:45.038727 18570 net.cpp:113] Setting up inception_4d/relu_3x3_reduce
I1216 23:01:45.038998 18570 net.cpp:120] Top shape: 50 144 14 14 (1411200)
I1216 23:01:45.039010 18570 layer_factory.hpp:74] Creating layer inception_4d/3x3
I1216 23:01:45.039021 18570 net.cpp:84] Creating Layer inception_4d/3x3
I1216 23:01:45.039026 18570 net.cpp:380] inception_4d/3x3 <- inception_4d/3x3_reduce
I1216 23:01:45.039033 18570 net.cpp:338] inception_4d/3x3 -> inception_4d/3x3
I1216 23:01:45.039042 18570 net.cpp:113] Setting up inception_4d/3x3
I1216 23:01:45.043805 18570 net.cpp:120] Top shape: 50 288 14 14 (2822400)
I1216 23:01:45.043822 18570 layer_factory.hpp:74] Creating layer inception_4d/relu_3x3
I1216 23:01:45.043829 18570 net.cpp:84] Creating Layer inception_4d/relu_3x3
I1216 23:01:45.043834 18570 net.cpp:380] inception_4d/relu_3x3 <- inception_4d/3x3
I1216 23:01:45.043841 18570 net.cpp:327] inception_4d/relu_3x3 -> inception_4d/3x3 (in-place)
I1216 23:01:45.043849 18570 net.cpp:113] Setting up inception_4d/relu_3x3
I1216 23:01:45.043923 18570 net.cpp:120] Top shape: 50 288 14 14 (2822400)
I1216 23:01:45.043931 18570 layer_factory.hpp:74] Creating layer inception_4d/5x5_reduce
I1216 23:01:45.043939 18570 net.cpp:84] Creating Layer inception_4d/5x5_reduce
I1216 23:01:45.043944 18570 net.cpp:380] inception_4d/5x5_reduce <- inception_4c/output_inception_4c/output_0_split_2
I1216 23:01:45.043953 18570 net.cpp:338] inception_4d/5x5_reduce -> inception_4d/5x5_reduce
I1216 23:01:45.043962 18570 net.cpp:113] Setting up inception_4d/5x5_reduce
I1216 23:01:45.044620 18570 net.cpp:120] Top shape: 50 32 14 14 (313600)
I1216 23:01:45.044636 18570 layer_factory.hpp:74] Creating layer inception_4d/relu_5x5_reduce
I1216 23:01:45.044646 18570 net.cpp:84] Creating Layer inception_4d/relu_5x5_reduce
I1216 23:01:45.044651 18570 net.cpp:380] inception_4d/relu_5x5_reduce <- inception_4d/5x5_reduce
I1216 23:01:45.044657 18570 net.cpp:327] inception_4d/relu_5x5_reduce -> inception_4d/5x5_reduce (in-place)
I1216 23:01:45.044666 18570 net.cpp:113] Setting up inception_4d/relu_5x5_reduce
I1216 23:01:45.044740 18570 net.cpp:120] Top shape: 50 32 14 14 (313600)
I1216 23:01:45.044749 18570 layer_factory.hpp:74] Creating layer inception_4d/5x5
I1216 23:01:45.044759 18570 net.cpp:84] Creating Layer inception_4d/5x5
I1216 23:01:45.044764 18570 net.cpp:380] inception_4d/5x5 <- inception_4d/5x5_reduce
I1216 23:01:45.044771 18570 net.cpp:338] inception_4d/5x5 -> inception_4d/5x5
I1216 23:01:45.044780 18570 net.cpp:113] Setting up inception_4d/5x5
I1216 23:01:45.045815 18570 net.cpp:120] Top shape: 50 64 14 14 (627200)
I1216 23:01:45.045831 18570 layer_factory.hpp:74] Creating layer inception_4d/relu_5x5
I1216 23:01:45.045840 18570 net.cpp:84] Creating Layer inception_4d/relu_5x5
I1216 23:01:45.045846 18570 net.cpp:380] inception_4d/relu_5x5 <- inception_4d/5x5
I1216 23:01:45.045853 18570 net.cpp:327] inception_4d/relu_5x5 -> inception_4d/5x5 (in-place)
I1216 23:01:45.045866 18570 net.cpp:113] Setting up inception_4d/relu_5x5
I1216 23:01:45.045948 18570 net.cpp:120] Top shape: 50 64 14 14 (627200)
I1216 23:01:45.045956 18570 layer_factory.hpp:74] Creating layer inception_4d/pool
I1216 23:01:45.045963 18570 layer_factory.cpp:56] CUDNN does not support padding or multiple tops. Using Caffe's own pooling layer.
I1216 23:01:45.045969 18570 net.cpp:84] Creating Layer inception_4d/pool
I1216 23:01:45.045974 18570 net.cpp:380] inception_4d/pool <- inception_4c/output_inception_4c/output_0_split_3
I1216 23:01:45.045982 18570 net.cpp:338] inception_4d/pool -> inception_4d/pool
I1216 23:01:45.045990 18570 net.cpp:113] Setting up inception_4d/pool
I1216 23:01:45.046000 18570 net.cpp:120] Top shape: 50 512 14 14 (5017600)
I1216 23:01:45.046003 18570 layer_factory.hpp:74] Creating layer inception_4d/pool_proj
I1216 23:01:45.046012 18570 net.cpp:84] Creating Layer inception_4d/pool_proj
I1216 23:01:45.046017 18570 net.cpp:380] inception_4d/pool_proj <- inception_4d/pool
I1216 23:01:45.046025 18570 net.cpp:338] inception_4d/pool_proj -> inception_4d/pool_proj
I1216 23:01:45.046036 18570 net.cpp:113] Setting up inception_4d/pool_proj
I1216 23:01:45.046861 18570 net.cpp:120] Top shape: 50 64 14 14 (627200)
I1216 23:01:45.046876 18570 layer_factory.hpp:74] Creating layer inception_4d/relu_pool_proj
I1216 23:01:45.046883 18570 net.cpp:84] Creating Layer inception_4d/relu_pool_proj
I1216 23:01:45.046890 18570 net.cpp:380] inception_4d/relu_pool_proj <- inception_4d/pool_proj
I1216 23:01:45.046896 18570 net.cpp:327] inception_4d/relu_pool_proj -> inception_4d/pool_proj (in-place)
I1216 23:01:45.046905 18570 net.cpp:113] Setting up inception_4d/relu_pool_proj
I1216 23:01:45.047169 18570 net.cpp:120] Top shape: 50 64 14 14 (627200)
I1216 23:01:45.047180 18570 layer_factory.hpp:74] Creating layer inception_4d/output
I1216 23:01:45.047189 18570 net.cpp:84] Creating Layer inception_4d/output
I1216 23:01:45.047195 18570 net.cpp:380] inception_4d/output <- inception_4d/1x1
I1216 23:01:45.047201 18570 net.cpp:380] inception_4d/output <- inception_4d/3x3
I1216 23:01:45.047207 18570 net.cpp:380] inception_4d/output <- inception_4d/5x5
I1216 23:01:45.047214 18570 net.cpp:380] inception_4d/output <- inception_4d/pool_proj
I1216 23:01:45.047219 18570 net.cpp:338] inception_4d/output -> inception_4d/output
I1216 23:01:45.047227 18570 net.cpp:113] Setting up inception_4d/output
I1216 23:01:45.047235 18570 net.cpp:120] Top shape: 50 528 14 14 (5174400)
I1216 23:01:45.047240 18570 layer_factory.hpp:74] Creating layer inception_4d/output_inception_4d/output_0_split
I1216 23:01:45.047246 18570 net.cpp:84] Creating Layer inception_4d/output_inception_4d/output_0_split
I1216 23:01:45.047251 18570 net.cpp:380] inception_4d/output_inception_4d/output_0_split <- inception_4d/output
I1216 23:01:45.047260 18570 net.cpp:338] inception_4d/output_inception_4d/output_0_split -> inception_4d/output_inception_4d/output_0_split_0
I1216 23:01:45.047267 18570 net.cpp:338] inception_4d/output_inception_4d/output_0_split -> inception_4d/output_inception_4d/output_0_split_1
I1216 23:01:45.047274 18570 net.cpp:338] inception_4d/output_inception_4d/output_0_split -> inception_4d/output_inception_4d/output_0_split_2
I1216 23:01:45.047281 18570 net.cpp:338] inception_4d/output_inception_4d/output_0_split -> inception_4d/output_inception_4d/output_0_split_3
I1216 23:01:45.047287 18570 net.cpp:338] inception_4d/output_inception_4d/output_0_split -> inception_4d/output_inception_4d/output_0_split_4
I1216 23:01:45.047294 18570 net.cpp:113] Setting up inception_4d/output_inception_4d/output_0_split
I1216 23:01:45.047302 18570 net.cpp:120] Top shape: 50 528 14 14 (5174400)
I1216 23:01:45.047307 18570 net.cpp:120] Top shape: 50 528 14 14 (5174400)
I1216 23:01:45.047312 18570 net.cpp:120] Top shape: 50 528 14 14 (5174400)
I1216 23:01:45.047317 18570 net.cpp:120] Top shape: 50 528 14 14 (5174400)
I1216 23:01:45.047322 18570 net.cpp:120] Top shape: 50 528 14 14 (5174400)
I1216 23:01:45.047327 18570 layer_factory.hpp:74] Creating layer loss2/ave_pool
I1216 23:01:45.047341 18570 net.cpp:84] Creating Layer loss2/ave_pool
I1216 23:01:45.047355 18570 net.cpp:380] loss2/ave_pool <- inception_4d/output_inception_4d/output_0_split_0
I1216 23:01:45.047363 18570 net.cpp:338] loss2/ave_pool -> loss2/ave_pool
I1216 23:01:45.047370 18570 net.cpp:113] Setting up loss2/ave_pool
I1216 23:01:45.047447 18570 net.cpp:120] Top shape: 50 528 4 4 (422400)
I1216 23:01:45.047453 18570 layer_factory.hpp:74] Creating layer loss2/conv
I1216 23:01:45.047463 18570 net.cpp:84] Creating Layer loss2/conv
I1216 23:01:45.047468 18570 net.cpp:380] loss2/conv <- loss2/ave_pool
I1216 23:01:45.047477 18570 net.cpp:338] loss2/conv -> loss2/conv
I1216 23:01:45.047487 18570 net.cpp:113] Setting up loss2/conv
I1216 23:01:45.048707 18570 net.cpp:120] Top shape: 50 128 4 4 (102400)
I1216 23:01:45.048722 18570 layer_factory.hpp:74] Creating layer loss2/relu_conv
I1216 23:01:45.048729 18570 net.cpp:84] Creating Layer loss2/relu_conv
I1216 23:01:45.048734 18570 net.cpp:380] loss2/relu_conv <- loss2/conv
I1216 23:01:45.048743 18570 net.cpp:327] loss2/relu_conv -> loss2/conv (in-place)
I1216 23:01:45.048751 18570 net.cpp:113] Setting up loss2/relu_conv
I1216 23:01:45.048823 18570 net.cpp:120] Top shape: 50 128 4 4 (102400)
I1216 23:01:45.048830 18570 layer_factory.hpp:74] Creating layer loss2/fc
I1216 23:01:45.048840 18570 net.cpp:84] Creating Layer loss2/fc
I1216 23:01:45.048846 18570 net.cpp:380] loss2/fc <- loss2/conv
I1216 23:01:45.048852 18570 net.cpp:338] loss2/fc -> loss2/fc
I1216 23:01:45.048861 18570 net.cpp:113] Setting up loss2/fc
I1216 23:01:45.113554 18570 net.cpp:120] Top shape: 50 1024 (51200)
I1216 23:01:45.113586 18570 layer_factory.hpp:74] Creating layer loss2/relu_fc
I1216 23:01:45.113600 18570 net.cpp:84] Creating Layer loss2/relu_fc
I1216 23:01:45.113607 18570 net.cpp:380] loss2/relu_fc <- loss2/fc
I1216 23:01:45.113617 18570 net.cpp:327] loss2/relu_fc -> loss2/fc (in-place)
I1216 23:01:45.113627 18570 net.cpp:113] Setting up loss2/relu_fc
I1216 23:01:45.113749 18570 net.cpp:120] Top shape: 50 1024 (51200)
I1216 23:01:45.113756 18570 layer_factory.hpp:74] Creating layer loss2/drop_fc
I1216 23:01:45.113766 18570 net.cpp:84] Creating Layer loss2/drop_fc
I1216 23:01:45.113771 18570 net.cpp:380] loss2/drop_fc <- loss2/fc
I1216 23:01:45.113778 18570 net.cpp:327] loss2/drop_fc -> loss2/fc (in-place)
I1216 23:01:45.113785 18570 net.cpp:113] Setting up loss2/drop_fc
I1216 23:01:45.113793 18570 net.cpp:120] Top shape: 50 1024 (51200)
I1216 23:01:45.113797 18570 layer_factory.hpp:74] Creating layer loss2/classifier_kaggle
I1216 23:01:45.113807 18570 net.cpp:84] Creating Layer loss2/classifier_kaggle
I1216 23:01:45.113811 18570 net.cpp:380] loss2/classifier_kaggle <- loss2/fc
I1216 23:01:45.113821 18570 net.cpp:338] loss2/classifier_kaggle -> loss2/classifier_kaggle
I1216 23:01:45.113831 18570 net.cpp:113] Setting up loss2/classifier_kaggle
I1216 23:01:45.119135 18570 net.cpp:120] Top shape: 50 447 (22350)
I1216 23:01:45.119148 18570 layer_factory.hpp:74] Creating layer loss2/classifier_kaggle_loss2/classifier_kaggle_0_split
I1216 23:01:45.119155 18570 net.cpp:84] Creating Layer loss2/classifier_kaggle_loss2/classifier_kaggle_0_split
I1216 23:01:45.119161 18570 net.cpp:380] loss2/classifier_kaggle_loss2/classifier_kaggle_0_split <- loss2/classifier_kaggle
I1216 23:01:45.119170 18570 net.cpp:338] loss2/classifier_kaggle_loss2/classifier_kaggle_0_split -> loss2/classifier_kaggle_loss2/classifier_kaggle_0_split_0
I1216 23:01:45.119179 18570 net.cpp:338] loss2/classifier_kaggle_loss2/classifier_kaggle_0_split -> loss2/classifier_kaggle_loss2/classifier_kaggle_0_split_1
I1216 23:01:45.119186 18570 net.cpp:338] loss2/classifier_kaggle_loss2/classifier_kaggle_0_split -> loss2/classifier_kaggle_loss2/classifier_kaggle_0_split_2
I1216 23:01:45.119192 18570 net.cpp:113] Setting up loss2/classifier_kaggle_loss2/classifier_kaggle_0_split
I1216 23:01:45.119200 18570 net.cpp:120] Top shape: 50 447 (22350)
I1216 23:01:45.119205 18570 net.cpp:120] Top shape: 50 447 (22350)
I1216 23:01:45.119211 18570 net.cpp:120] Top shape: 50 447 (22350)
I1216 23:01:45.119223 18570 layer_factory.hpp:74] Creating layer loss2/loss
I1216 23:01:45.119243 18570 net.cpp:84] Creating Layer loss2/loss
I1216 23:01:45.119248 18570 net.cpp:380] loss2/loss <- loss2/classifier_kaggle_loss2/classifier_kaggle_0_split_0
I1216 23:01:45.119256 18570 net.cpp:380] loss2/loss <- label_data_1_split_3
I1216 23:01:45.119261 18570 net.cpp:338] loss2/loss -> loss2/loss1
…
I1216 23:01:45.119907 18570 net.cpp:338] loss2/top-5 -> loss2/top-5
I1216 23:01:45.119915 18570 net.cpp:113] Setting up loss2/top-5
I1216 23:01:45.119920 18570 net.cpp:120] Top shape: (1)
I1216 23:01:45.119925 18570 layer_factory.hpp:74] Creating layer inception_4e/1x1
I1216 23:01:45.119936 18570 net.cpp:84] Creating Layer inception_4e/1x1
I1216 23:01:45.119942 18570 net.cpp:380] inception_4e/1x1 <- inception_4d/output_inception_4d/output_0_split_1
I1216 23:01:45.119949 18570 net.cpp:338] inception_4e/1x1 -> inception_4e/1x1
I1216 23:01:45.119957 18570 net.cpp:113] Setting up inception_4e/1x1
I1216 23:01:45.121994 18570 net.cpp:120] Top shape: 50 256 14 14 (2508800)
I1216 23:01:45.122014 18570 layer_factory.hpp:74] Creating layer inception_4e/relu_1x1
I1216 23:01:45.122020 18570 net.cpp:84] Creating Layer inception_4e/relu_1x1
I1216 23:01:45.122026 18570 net.cpp:380] inception_4e/relu_1x1 <- inception_4e/1x1
I1216 23:01:45.122033 18570 net.cpp:327] inception_4e/relu_1x1 -> inception_4e/1x1 (in-place)
I1216 23:01:45.122041 18570 net.cpp:113] Setting up inception_4e/relu_1x1
I1216 23:01:45.122115 18570 net.cpp:120] Top shape: 50 256 14 14 (2508800)
I1216 23:01:45.122123 18570 layer_factory.hpp:74] Creating layer inception_4e/3x3_reduce
I1216 23:01:45.122155 18570 net.cpp:84] Creating Layer inception_4e/3x3_reduce
I1216 23:01:45.122161 18570 net.cpp:380] inception_4e/3x3_reduce <- inception_4d/output_inception_4d/output_0_split_2
I1216 23:01:45.122169 18570 net.cpp:338] inception_4e/3x3_reduce -> inception_4e/3x3_reduce
I1216 23:01:45.122177 18570 net.cpp:113] Setting up inception_4e/3x3_reduce
I1216 23:01:45.123596 18570 net.cpp:120] Top shape: 50 160 14 14 (1568000)
I1216 23:01:45.123612 18570 layer_factory.hpp:74] Creating layer inception_4e/relu_3x3_reduce
I1216 23:01:45.123620 18570 net.cpp:84] Creating Layer inception_4e/relu_3x3_reduce
I1216 23:01:45.123625 18570 net.cpp:380] inception_4e/relu_3x3_reduce <- inception_4e/3x3_reduce
I1216 23:01:45.123634 18570 net.cpp:327] inception_4e/relu_3x3_reduce -> inception_4e/3x3_reduce (in-place)
I1216 23:01:45.123642 18570 net.cpp:113] Setting up inception_4e/relu_3x3_reduce
I1216 23:01:45.123716 18570 net.cpp:120] Top shape: 50 160 14 14 (1568000)
I1216 23:01:45.123723 18570 layer_factory.hpp:74] Creating layer inception_4e/3x3
I1216 23:01:45.123731 18570 net.cpp:84] Creating Layer inception_4e/3x3
I1216 23:01:45.123736 18570 net.cpp:380] inception_4e/3x3 <- inception_4e/3x3_reduce
I1216 23:01:45.123745 18570 net.cpp:338] inception_4e/3x3 -> inception_4e/3x3
I1216 23:01:45.123759 18570 net.cpp:113] Setting up inception_4e/3x3
I1216 23:01:45.129951 18570 net.cpp:120] Top shape: 50 320 14 14 (3136000)
I1216 23:01:45.129971 18570 layer_factory.hpp:74] Creating layer inception_4e/relu_3x3
I1216 23:01:45.129981 18570 net.cpp:84] Creating Layer inception_4e/relu_3x3
I1216 23:01:45.129987 18570 net.cpp:380] inception_4e/relu_3x3 <- inception_4e/3x3
I1216 23:01:45.129993 18570 net.cpp:327] inception_4e/relu_3x3 -> inception_4e/3x3 (in-place)
I1216 23:01:45.130002 18570 net.cpp:113] Setting up inception_4e/relu_3x3
I1216 23:01:45.130419 18570 net.cpp:120] Top shape: 50 320 14 14 (3136000)
I1216 23:01:45.130431 18570 layer_factory.hpp:74] Creating layer inception_4e/5x5_reduce
I1216 23:01:45.130440 18570 net.cpp:84] Creating Layer inception_4e/5x5_reduce
I1216 23:01:45.130446 18570 net.cpp:380] inception_4e/5x5_reduce <- inception_4d/output_inception_4d/output_0_split_3
I1216 23:01:45.130455 18570 net.cpp:338] inception_4e/5x5_reduce -> inception_4e/5x5_reduce
I1216 23:01:45.130465 18570 net.cpp:113] Setting up inception_4e/5x5_reduce
I1216 23:01:45.131093 18570 net.cpp:120] Top shape: 50 32 14 14 (313600)
I1216 23:01:45.131108 18570 layer_factory.hpp:74] Creating layer inception_4e/relu_5x5_reduce
I1216 23:01:45.131115 18570 net.cpp:84] Creating Layer inception_4e/relu_5x5_reduce
I1216 23:01:45.131121 18570 net.cpp:380] inception_4e/relu_5x5_reduce <- inception_4e/5x5_reduce
I1216 23:01:45.131129 18570 net.cpp:327] inception_4e/relu_5x5_reduce -> inception_4e/5x5_reduce (in-place)
I1216 23:01:45.131136 18570 net.cpp:113] Setting up inception_4e/relu_5x5_reduce
I1216 23:01:45.131211 18570 net.cpp:120] Top shape: 50 32 14 14 (313600)
I1216 23:01:45.131217 18570 layer_factory.hpp:74] Creating layer inception_4e/5x5
I1216 23:01:45.131227 18570 net.cpp:84] Creating Layer inception_4e/5x5
I1216 23:01:45.131232 18570 net.cpp:380] inception_4e/5x5 <- inception_4e/5x5_reduce
I1216 23:01:45.131240 18570 net.cpp:338] inception_4e/5x5 -> inception_4e/5x5
I1216 23:01:45.131248 18570 net.cpp:113] Setting up inception_4e/5x5
I1216 23:01:45.132869 18570 net.cpp:120] Top shape: 50 128 14 14 (1254400)
I1216 23:01:45.132885 18570 layer_factory.hpp:74] Creating layer inception_4e/relu_5x5
I1216 23:01:45.132892 18570 net.cpp:84] Creating Layer inception_4e/relu_5x5
I1216 23:01:45.132899 18570 net.cpp:380] inception_4e/relu_5x5 <- inception_4e/5x5
I1216 23:01:45.132907 18570 net.cpp:327] inception_4e/relu_5x5 -> inception_4e/5x5 (in-place)
I1216 23:01:45.132915 18570 net.cpp:113] Setting up inception_4e/relu_5x5
I1216 23:01:45.132987 18570 net.cpp:120] Top shape: 50 128 14 14 (1254400)
I1216 23:01:45.132993 18570 layer_factory.hpp:74] Creating layer inception_4e/pool
I1216 23:01:45.132999 18570 layer_factory.cpp:56] CUDNN does not support padding or multiple tops. Using Caffe's own pooling layer.
I1216 23:01:45.133007 18570 net.cpp:84] Creating Layer inception_4e/pool
I1216 23:01:45.133013 18570 net.cpp:380] inception_4e/pool <- inception_4d/output_inception_4d/output_0_split_4
I1216 23:01:45.133020 18570 net.cpp:338] inception_4e/pool -> inception_4e/pool
I1216 23:01:45.133028 18570 net.cpp:113] Setting up inception_4e/pool
I1216 23:01:45.133038 18570 net.cpp:120] Top shape: 50 528 14 14 (5174400)
I1216 23:01:45.133041 18570 layer_factory.hpp:74] Creating layer inception_4e/pool_proj
I1216 23:01:45.133051 18570 net.cpp:84] Creating Layer inception_4e/pool_proj
I1216 23:01:45.133064 18570 net.cpp:380] inception_4e/pool_proj <- inception_4e/pool
I1216 23:01:45.133080 18570 net.cpp:338] inception_4e/pool_proj -> inception_4e/pool_proj
I1216 23:01:45.133087 18570 net.cpp:113] Setting up inception_4e/pool_proj
I1216 23:01:45.134312 18570 net.cpp:120] Top shape: 50 128 14 14 (1254400)
I1216 23:01:45.134328 18570 layer_factory.hpp:74] Creating layer inception_4e/relu_pool_proj
I1216 23:01:45.134335 18570 net.cpp:84] Creating Layer inception_4e/relu_pool_proj
I1216 23:01:45.134341 18570 net.cpp:380] inception_4e/relu_pool_proj <- inception_4e/pool_proj
I1216 23:01:45.134349 18570 net.cpp:327] inception_4e/relu_pool_proj -> inception_4e/pool_proj (in-place)
I1216 23:01:45.134363 18570 net.cpp:113] Setting up inception_4e/relu_pool_proj
I1216 23:01:45.134444 18570 net.cpp:120] Top shape: 50 128 14 14 (1254400)
I1216 23:01:45.134450 18570 layer_factory.hpp:74] Creating layer inception_4e/output
I1216 23:01:45.134459 18570 net.cpp:84] Creating Layer inception_4e/output
I1216 23:01:45.134464 18570 net.cpp:380] inception_4e/output <- inception_4e/1x1
I1216 23:01:45.134469 18570 net.cpp:380] inception_4e/output <- inception_4e/3x3
I1216 23:01:45.134475 18570 net.cpp:380] inception_4e/output <- inception_4e/5x5
I1216 23:01:45.134480 18570 net.cpp:380] inception_4e/output <- inception_4e/pool_proj
I1216 23:01:45.134488 18570 net.cpp:338] inception_4e/output -> inception_4e/output
I1216 23:01:45.134496 18570 net.cpp:113] Setting up inception_4e/output
I1216 23:01:45.134505 18570 net.cpp:120] Top shape: 50 832 14 14 (8153600)
I1216 23:01:45.134510 18570 layer_factory.hpp:74] Creating layer pool4/3x3_s2
I1216 23:01:45.134516 18570 net.cpp:84] Creating Layer pool4/3x3_s2
I1216 23:01:45.134521 18570 net.cpp:380] pool4/3x3_s2 <- inception_4e/output
I1216 23:01:45.134531 18570 net.cpp:338] pool4/3x3_s2 -> pool4/3x3_s2
I1216 23:01:45.134537 18570 net.cpp:113] Setting up pool4/3x3_s2
I1216 23:01:45.134810 18570 net.cpp:120] Top shape: 50 832 7 7 (2038400)
I1216 23:01:45.134821 18570 layer_factory.hpp:74] Creating layer pool4/3x3_s2_pool4/3x3_s2_0_split
I1216 23:01:45.134829 18570 net.cpp:84] Creating Layer pool4/3x3_s2_pool4/3x3_s2_0_split
I1216 23:01:45.134835 18570 net.cpp:380] pool4/3x3_s2_pool4/3x3_s2_0_split <- pool4/3x3_s2
I1216 23:01:45.134841 18570 net.cpp:338] pool4/3x3_s2_pool4/3x3_s2_0_split -> pool4/3x3_s2_pool4/3x3_s2_0_split_0
I1216 23:01:45.134850 18570 net.cpp:338] pool4/3x3_s2_pool4/3x3_s2_0_split -> pool4/3x3_s2_pool4/3x3_s2_0_split_1
I1216 23:01:45.134861 18570 net.cpp:338] pool4/3x3_s2_pool4/3x3_s2_0_split -> pool4/3x3_s2_pool4/3x3_s2_0_split_2
I1216 23:01:45.134891 18570 net.cpp:338] pool4/3x3_s2_pool4/3x3_s2_0_split -> pool4/3x3_s2_pool4/3x3_s2_0_split_3
I1216 23:01:45.134898 18570 net.cpp:113] Setting up pool4/3x3_s2_pool4/3x3_s2_0_split
I1216 23:01:45.134907 18570 net.cpp:120] Top shape: 50 832 7 7 (2038400)
I1216 23:01:45.134912 18570 net.cpp:120] Top shape: 50 832 7 7 (2038400)
I1216 23:01:45.134917 18570 net.cpp:120] Top shape: 50 832 7 7 (2038400)
I1216 23:01:45.134923 18570 net.cpp:120] Top shape: 50 832 7 7 (2038400)
I1216 23:01:45.134927 18570 layer_factory.hpp:74] Creating layer inception_5a/1x1
I1216 23:01:45.134938 18570 net.cpp:84] Creating Layer inception_5a/1x1
I1216 23:01:45.134943 18570 net.cpp:380] inception_5a/1x1 <- pool4/3x3_s2_pool4/3x3_s2_0_split_0
I1216 23:01:45.134951 18570 net.cpp:338] inception_5a/1x1 -> inception_5a/1x1
I1216 23:01:45.134959 18570 net.cpp:113] Setting up inception_5a/1x1
I1216 23:01:45.137897 18570 net.cpp:120] Top shape: 50 256 7 7 (627200)
I1216 23:01:45.137913 18570 layer_factory.hpp:74] Creating layer inception_5a/relu_1x1
I1216 23:01:45.137923 18570 net.cpp:84] Creating Layer inception_5a/relu_1x1
I1216 23:01:45.137928 18570 net.cpp:380] inception_5a/relu_1x1 <- inception_5a/1x1
I1216 23:01:45.137935 18570 net.cpp:327] inception_5a/relu_1x1 -> inception_5a/1x1 (in-place)
I1216 23:01:45.137943 18570 net.cpp:113] Setting up inception_5a/relu_1x1
I1216 23:01:45.138017 18570 net.cpp:120] Top shape: 50 256 7 7 (627200)
I1216 23:01:45.138025 18570 layer_factory.hpp:74] Creating layer inception_5a/3x3_reduce
I1216 23:01:45.138034 18570 net.cpp:84] Creating Layer inception_5a/3x3_reduce
I1216 23:01:45.138039 18570 net.cpp:380] inception_5a/3x3_reduce <- pool4/3x3_s2_pool4/3x3_s2_0_split_1
I1216 23:01:45.138049 18570 net.cpp:338] inception_5a/3x3_reduce -> inception_5a/3x3_reduce
I1216 23:01:45.138057 18570 net.cpp:113] Setting up inception_5a/3x3_reduce
I1216 23:01:45.140038 18570 net.cpp:120] Top shape: 50 160 7 7 (392000)
I1216 23:01:45.140054 18570 layer_factory.hpp:74] Creating layer inception_5a/relu_3x3_reduce
I1216 23:01:45.140064 18570 net.cpp:84] Creating Layer inception_5a/relu_3x3_reduce
I1216 23:01:45.140074 18570 net.cpp:380] inception_5a/relu_3x3_reduce <- inception_5a/3x3_reduce
I1216 23:01:45.140089 18570 net.cpp:327] inception_5a/relu_3x3_reduce -> inception_5a/3x3_reduce (in-place)
I1216 23:01:45.140097 18570 net.cpp:113] Setting up inception_5a/relu_3x3_reduce
I1216 23:01:45.140174 18570 net.cpp:120] Top shape: 50 160 7 7 (392000)
I1216 23:01:45.140182 18570 layer_factory.hpp:74] Creating layer inception_5a/3x3
I1216 23:01:45.140189 18570 net.cpp:84] Creating Layer inception_5a/3x3
I1216 23:01:45.140194 18570 net.cpp:380] inception_5a/3x3 <- inception_5a/3x3_reduce
I1216 23:01:45.140203 18570 net.cpp:338] inception_5a/3x3 -> inception_5a/3x3
I1216 23:01:45.140211 18570 net.cpp:113] Setting up inception_5a/3x3
I1216 23:01:45.146021 18570 net.cpp:120] Top shape: 50 320 7 7 (784000)
I1216 23:01:45.146037 18570 layer_factory.hpp:74] Creating layer inception_5a/relu_3x3
I1216 23:01:45.146045 18570 net.cpp:84] Creating Layer inception_5a/relu_3x3
I1216 23:01:45.146051 18570 net.cpp:380] inception_5a/relu_3x3 <- inception_5a/3x3
I1216 23:01:45.146057 18570 net.cpp:327] inception_5a/relu_3x3 -> inception_5a/3x3 (in-place)
I1216 23:01:45.146065 18570 net.cpp:113] Setting up inception_5a/relu_3x3
I1216 23:01:45.146141 18570 net.cpp:120] Top shape: 50 320 7 7 (784000)
I1216 23:01:45.146147 18570 layer_factory.hpp:74] Creating layer inception_5a/5x5_reduce
I1216 23:01:45.146155 18570 net.cpp:84] Creating Layer inception_5a/5x5_reduce
I1216 23:01:45.146162 18570 net.cpp:380] inception_5a/5x5_reduce <- pool4/3x3_s2_pool4/3x3_s2_0_split_2
I1216 23:01:45.146170 18570 net.cpp:338] inception_5a/5x5_reduce -> inception_5a/5x5_reduce
I1216 23:01:45.146178 18570 net.cpp:113] Setting up inception_5a/5x5_reduce
I1216 23:01:45.146937 18570 net.cpp:120] Top shape: 50 32 7 7 (78400)
I1216 23:01:45.146952 18570 layer_factory.hpp:74] Creating layer inception_5a/relu_5x5_reduce
I1216 23:01:45.146960 18570 net.cpp:84] Creating Layer inception_5a/relu_5x5_reduce
I1216 23:01:45.146966 18570 net.cpp:380] inception_5a/relu_5x5_reduce <- inception_5a/5x5_reduce
I1216 23:01:45.146973 18570 net.cpp:327] inception_5a/relu_5x5_reduce -> inception_5a/5x5_reduce (in-place)
I1216 23:01:45.146981 18570 net.cpp:113] Setting up inception_5a/relu_5x5_reduce
I1216 23:01:45.147248 18570 net.cpp:120] Top shape: 50 32 7 7 (78400)
I1216 23:01:45.147259 18570 layer_factory.hpp:74] Creating layer inception_5a/5x5
I1216 23:01:45.147269 18570 net.cpp:84] Creating Layer inception_5a/5x5
I1216 23:01:45.147275 18570 net.cpp:380] inception_5a/5x5 <- inception_5a/5x5_reduce
I1216 23:01:45.147285 18570 net.cpp:338] inception_5a/5x5 -> inception_5a/5x5
I1216 23:01:45.147294 18570 net.cpp:113] Setting up inception_5a/5x5
I1216 23:01:45.148918 18570 net.cpp:120] Top shape: 50 128 7 7 (313600)
I1216 23:01:45.148933 18570 layer_factory.hpp:74] Creating layer inception_5a/relu_5x5
I1216 23:01:45.148941 18570 net.cpp:84] Creating Layer inception_5a/relu_5x5
I1216 23:01:45.148947 18570 net.cpp:380] inception_5a/relu_5x5 <- inception_5a/5x5
I1216 23:01:45.148957 18570 net.cpp:327] inception_5a/relu_5x5 -> inception_5a/5x5 (in-place)
I1216 23:01:45.148965 18570 net.cpp:113] Setting up inception_5a/relu_5x5
I1216 23:01:45.149039 18570 net.cpp:120] Top shape: 50 128 7 7 (313600)
I1216 23:01:45.149046 18570 layer_factory.hpp:74] Creating layer inception_5a/pool
I1216 23:01:45.149051 18570 layer_factory.cpp:56] CUDNN does not support padding or multiple tops. Using Caffe's own pooling layer.
I1216 23:01:45.149073 18570 net.cpp:84] Creating Layer inception_5a/pool
I1216 23:01:45.149080 18570 net.cpp:380] inception_5a/pool <- pool4/3x3_s2_pool4/3x3_s2_0_split_3
I1216 23:01:45.149086 18570 net.cpp:338] inception_5a/pool -> inception_5a/pool
I1216 23:01:45.149094 18570 net.cpp:113] Setting up inception_5a/pool
I1216 23:01:45.149103 18570 net.cpp:120] Top shape: 50 832 7 7 (2038400)
I1216 23:01:45.149107 18570 layer_factory.hpp:74] Creating layer inception_5a/pool_proj
I1216 23:01:45.149118 18570 net.cpp:84] Creating Layer inception_5a/pool_proj
I1216 23:01:45.149128 18570 net.cpp:380] inception_5a/pool_proj <- inception_5a/pool
I1216 23:01:45.149144 18570 net.cpp:338] inception_5a/pool_proj -> inception_5a/pool_proj
I1216 23:01:45.149153 18570 net.cpp:113] Setting up inception_5a/pool_proj
I1216 23:01:45.150836 18570 net.cpp:120] Top shape: 50 128 7 7 (313600)
I1216 23:01:45.150851 18570 layer_factory.hpp:74] Creating layer inception_5a/relu_pool_proj
I1216 23:01:45.150859 18570 net.cpp:84] Creating Layer inception_5a/relu_pool_proj
I1216 23:01:45.150866 18570 net.cpp:380] inception_5a/relu_pool_proj <- inception_5a/pool_proj
I1216 23:01:45.150874 18570 net.cpp:327] inception_5a/relu_pool_proj -> inception_5a/pool_proj (in-place)
I1216 23:01:45.150882 18570 net.cpp:113] Setting up inception_5a/relu_pool_proj
I1216 23:01:45.150956 18570 net.cpp:120] Top shape: 50 128 7 7 (313600)
I1216 23:01:45.150962 18570 layer_factory.hpp:74] Creating layer inception_5a/output
I1216 23:01:45.150970 18570 net.cpp:84] Creating Layer inception_5a/output
I1216 23:01:45.150975 18570 net.cpp:380] inception_5a/output <- inception_5a/1x1
I1216 23:01:45.150981 18570 net.cpp:380] inception_5a/output <- inception_5a/3x3
I1216 23:01:45.150987 18570 net.cpp:380] inception_5a/output <- inception_5a/5x5
I1216 23:01:45.150992 18570 net.cpp:380] inception_5a/output <- inception_5a/pool_proj
I1216 23:01:45.151000 18570 net.cpp:338] inception_5a/output -> inception_5a/output
I1216 23:01:45.151008 18570 net.cpp:113] Setting up inception_5a/output
I1216 23:01:45.151015 18570 net.cpp:120] Top shape: 50 832 7 7 (2038400)
I1216 23:01:45.151021 18570 layer_factory.hpp:74] Creating layer inception_5a/output_inception_5a/output_0_split
I1216 23:01:45.151027 18570 net.cpp:84] Creating Layer inception_5a/output_inception_5a/output_0_split
I1216 23:01:45.151031 18570 net.cpp:380] inception_5a/output_inception_5a/output_0_split <- inception_5a/output
I1216 23:01:45.151041 18570 net.cpp:338] inception_5a/output_inception_5a/output_0_split -> inception_5a/output_inception_5a/output_0_split_0
I1216 23:01:45.151047 18570 net.cpp:338] inception_5a/output_inception_5a/output_0_split -> inception_5a/output_inception_5a/output_0_split_1
I1216 23:01:45.151054 18570 net.cpp:338] inception_5a/output_inception_5a/output_0_split -> inception_5a/output_inception_5a/output_0_split_2
I1216 23:01:45.151062 18570 net.cpp:338] inception_5a/output_inception_5a/output_0_split -> inception_5a/output_inception_5a/output_0_split_3
I1216 23:01:45.151068 18570 net.cpp:113] Setting up inception_5a/output_inception_5a/output_0_split
I1216 23:01:45.151075 18570 net.cpp:120] Top shape: 50 832 7 7 (2038400)
I1216 23:01:45.151080 18570 net.cpp:120] Top shape: 50 832 7 7 (2038400)
I1216 23:01:45.151085 18570 net.cpp:120] Top shape: 50 832 7 7 (2038400)
I1216 23:01:45.151090 18570 net.cpp:120] Top shape: 50 832 7 7 (2038400)
I1216 23:01:45.151095 18570 layer_factory.hpp:74] Creating layer inception_5b/1x1
I1216 23:01:45.151105 18570 net.cpp:84] Creating Layer inception_5b/1x1
I1216 23:01:45.151110 18570 net.cpp:380] inception_5b/1x1 <- inception_5a/output_inception_5a/output_0_split_0
I1216 23:01:45.151118 18570 net.cpp:338] inception_5b/1x1 -> inception_5b/1x1
I1216 23:01:45.151124 18570 net.cpp:113] Setting up inception_5b/1x1
I1216 23:01:45.155277 18570 net.cpp:120] Top shape: 50 384 7 7 (940800)
I1216 23:01:45.155293 18570 layer_factory.hpp:74] Creating layer inception_5b/relu_1x1
I1216 23:01:45.155303 18570 net.cpp:84] Creating Layer inception_5b/relu_1x1
I1216 23:01:45.155308 18570 net.cpp:380] inception_5b/relu_1x1 <- inception_5b/1x1
I1216 23:01:45.155315 18570 net.cpp:327] inception_5b/relu_1x1 -> inception_5b/1x1 (in-place)
I1216 23:01:45.155323 18570 net.cpp:113] Setting up inception_5b/relu_1x1
I1216 23:01:45.155398 18570 net.cpp:120] Top shape: 50 384 7 7 (940800)
I1216 23:01:45.155405 18570 layer_factory.hpp:74] Creating layer inception_5b/3x3_reduce
I1216 23:01:45.155413 18570 net.cpp:84] Creating Layer inception_5b/3x3_reduce
I1216 23:01:45.155418 18570 net.cpp:380] inception_5b/3x3_reduce <- inception_5a/output_inception_5a/output_0_split_1
I1216 23:01:45.155433 18570 net.cpp:338] inception_5b/3x3_reduce -> inception_5b/3x3_reduce
I1216 23:01:45.155452 18570 net.cpp:113] Setting up inception_5b/3x3_reduce
I1216 23:01:45.157752 18570 net.cpp:120] Top shape: 50 192 7 7 (470400)
I1216 23:01:45.157768 18570 layer_factory.hpp:74] Creating layer inception_5b/relu_3x3_reduce
I1216 23:01:45.157778 18570 net.cpp:84] Creating Layer inception_5b/relu_3x3_reduce
I1216 23:01:45.157783 18570 net.cpp:380] inception_5b/relu_3x3_reduce <- inception_5b/3x3_reduce
I1216 23:01:45.157791 18570 net.cpp:327] inception_5b/relu_3x3_reduce -> inception_5b/3x3_reduce (in-place)
I1216 23:01:45.157799 18570 net.cpp:113] Setting up inception_5b/relu_3x3_reduce
I1216 23:01:45.158066 18570 net.cpp:120] Top shape: 50 192 7 7 (470400)
I1216 23:01:45.158077 18570 layer_factory.hpp:74] Creating layer inception_5b/3x3
I1216 23:01:45.158088 18570 net.cpp:84] Creating Layer inception_5b/3x3
I1216 23:01:45.158094 18570 net.cpp:380] inception_5b/3x3 <- inception_5b/3x3_reduce
I1216 23:01:45.158103 18570 net.cpp:338] inception_5b/3x3 -> inception_5b/3x3
I1216 23:01:45.158113 18570 net.cpp:113] Setting up inception_5b/3x3
I1216 23:01:45.166262 18570 net.cpp:120] Top shape: 50 384 7 7 (940800)
I1216 23:01:45.166280 18570 layer_factory.hpp:74] Creating layer inception_5b/relu_3x3
I1216 23:01:45.166290 18570 net.cpp:84] Creating Layer inception_5b/relu_3x3
I1216 23:01:45.166296 18570 net.cpp:380] inception_5b/relu_3x3 <- inception_5b/3x3
I1216 23:01:45.166303 18570 net.cpp:327] inception_5b/relu_3x3 -> inception_5b/3x3 (in-place)
I1216 23:01:45.166311 18570 net.cpp:113] Setting up inception_5b/relu_3x3
I1216 23:01:45.166386 18570 net.cpp:120] Top shape: 50 384 7 7 (940800)
I1216 23:01:45.166393 18570 layer_factory.hpp:74] Creating layer inception_5b/5x5_reduce
I1216 23:01:45.166404 18570 net.cpp:84] Creating Layer inception_5b/5x5_reduce
I1216 23:01:45.166409 18570 net.cpp:380] inception_5b/5x5_reduce <- inception_5a/output_inception_5a/output_0_split_2
I1216 23:01:45.166419 18570 net.cpp:338] inception_5b/5x5_reduce -> inception_5b/5x5_reduce
I1216 23:01:45.166427 18570 net.cpp:113] Setting up inception_5b/5x5_reduce
I1216 23:01:45.167332 18570 net.cpp:120] Top shape: 50 48 7 7 (117600)
I1216 23:01:45.167347 18570 layer_factory.hpp:74] Creating layer inception_5b/relu_5x5_reduce
I1216 23:01:45.167357 18570 net.cpp:84] Creating Layer inception_5b/relu_5x5_reduce
I1216 23:01:45.167363 18570 net.cpp:380] inception_5b/relu_5x5_reduce <- inception_5b/5x5_reduce
I1216 23:01:45.167371 18570 net.cpp:327] inception_5b/relu_5x5_reduce -> inception_5b/5x5_reduce (in-place)
I1216 23:01:45.167378 18570 net.cpp:113] Setting up inception_5b/relu_5x5_reduce
I1216 23:01:45.167454 18570 net.cpp:120] Top shape: 50 48 7 7 (117600)
I1216 23:01:45.167460 18570 layer_factory.hpp:74] Creating layer inception_5b/5x5
I1216 23:01:45.167469 18570 net.cpp:84] Creating Layer inception_5b/5x5
I1216 23:01:45.167474 18570 net.cpp:380] inception_5b/5x5 <- inception_5b/5x5_reduce
I1216 23:01:45.167482 18570 net.cpp:338] inception_5b/5x5 -> inception_5b/5x5
I1216 23:01:45.167491 18570 net.cpp:113] Setting up inception_5b/5x5
I1216 23:01:45.169721 18570 net.cpp:120] Top shape: 50 128 7 7 (313600)
I1216 23:01:45.169737 18570 layer_factory.hpp:74] Creating layer inception_5b/relu_5x5
I1216 23:01:45.169744 18570 net.cpp:84] Creating Layer inception_5b/relu_5x5
I1216 23:01:45.169750 18570 net.cpp:380] inception_5b/relu_5x5 <- inception_5b/5x5
I1216 23:01:45.169757 18570 net.cpp:327] inception_5b/relu_5x5 -> inception_5b/5x5 (in-place)
I1216 23:01:45.169764 18570 net.cpp:113] Setting up inception_5b/relu_5x5
I1216 23:01:45.170030 18570 net.cpp:120] Top shape: 50 128 7 7 (313600)
I1216 23:01:45.170042 18570 layer_factory.hpp:74] Creating layer inception_5b/pool
I1216 23:01:45.170047 18570 layer_factory.cpp:56] CUDNN does not support padding or multiple tops. Using Caffe's own pooling layer.
I1216 23:01:45.170055 18570 net.cpp:84] Creating Layer inception_5b/pool
I1216 23:01:45.170061 18570 net.cpp:380] inception_5b/pool <- inception_5a/output_inception_5a/output_0_split_3
I1216 23:01:45.170078 18570 net.cpp:338] inception_5b/pool -> inception_5b/pool
I1216 23:01:45.170094 18570 net.cpp:113] Setting up inception_5b/pool
I1216 23:01:45.170104 18570 net.cpp:120] Top shape: 50 832 7 7 (2038400)
I1216 23:01:45.170107 18570 layer_factory.hpp:74] Creating layer inception_5b/pool_proj
I1216 23:01:45.170119 18570 net.cpp:84] Creating Layer inception_5b/pool_proj
I1216 23:01:45.170123 18570 net.cpp:380] inception_5b/pool_proj <- inception_5b/pool
I1216 23:01:45.170130 18570 net.cpp:338] inception_5b/pool_proj -> inception_5b/pool_proj
I1216 23:01:45.170138 18570 net.cpp:113] Setting up inception_5b/pool_proj
I1216 23:01:45.175670 18570 net.cpp:120] Top shape: 50 128 7 7 (313600)
I1216 23:01:45.175693 18570 layer_factory.hpp:74] Creating layer inception_5b/relu_pool_proj
I1216 23:01:45.175701 18570 net.cpp:84] Creating Layer inception_5b/relu_pool_proj
I1216 23:01:45.175709 18570 net.cpp:380] inception_5b/relu_pool_proj <- inception_5b/pool_proj
I1216 23:01:45.175719 18570 net.cpp:327] inception_5b/relu_pool_proj -> inception_5b/pool_proj (in-place)
I1216 23:01:45.175729 18570 net.cpp:113] Setting up inception_5b/relu_pool_proj
I1216 23:01:45.175811 18570 net.cpp:120] Top shape: 50 128 7 7 (313600)
I1216 23:01:45.175817 18570 layer_factory.hpp:74] Creating layer inception_5b/output
I1216 23:01:45.175824 18570 net.cpp:84] Creating Layer inception_5b/output
I1216 23:01:45.175830 18570 net.cpp:380] inception_5b/output <- inception_5b/1x1
I1216 23:01:45.175837 18570 net.cpp:380] inception_5b/output <- inception_5b/3x3
I1216 23:01:45.175843 18570 net.cpp:380] inception_5b/output <- inception_5b/5x5
I1216 23:01:45.175848 18570 net.cpp:380] inception_5b/output <- inception_5b/pool_proj
I1216 23:01:45.175856 18570 net.cpp:338] inception_5b/output -> inception_5b/output
I1216 23:01:45.175863 18570 net.cpp:113] Setting up inception_5b/output
I1216 23:01:45.175873 18570 net.cpp:120] Top shape: 50 1024 7 7 (2508800)
I1216 23:01:45.175878 18570 layer_factory.hpp:74] Creating layer pool5/7x7_s1
I1216 23:01:45.175884 18570 net.cpp:84] Creating Layer pool5/7x7_s1
I1216 23:01:45.175889 18570 net.cpp:380] pool5/7x7_s1 <- inception_5b/output
I1216 23:01:45.175896 18570 net.cpp:338] pool5/7x7_s1 -> pool5/7x7_s1
I1216 23:01:45.175904 18570 net.cpp:113] Setting up pool5/7x7_s1
I1216 23:01:45.175984 18570 net.cpp:120] Top shape: 50 1024 1 1 (51200)
I1216 23:01:45.175992 18570 layer_factory.hpp:74] Creating layer pool5/drop_7x7_s1
I1216 23:01:45.175998 18570 net.cpp:84] Creating Layer pool5/drop_7x7_s1
I1216 23:01:45.176003 18570 net.cpp:380] pool5/drop_7x7_s1 <- pool5/7x7_s1
I1216 23:01:45.176010 18570 net.cpp:327] pool5/drop_7x7_s1 -> pool5/7x7_s1 (in-place)
I1216 23:01:45.176017 18570 net.cpp:113] Setting up pool5/drop_7x7_s1
I1216 23:01:45.176024 18570 net.cpp:120] Top shape: 50 1024 1 1 (51200)
I1216 23:01:45.176029 18570 layer_factory.hpp:74] Creating layer loss3/classifier_kaggle
I1216 23:01:45.176038 18570 net.cpp:84] Creating Layer loss3/classifier_kaggle
I1216 23:01:45.176043 18570 net.cpp:380] loss3/classifier_kaggle <- pool5/7x7_s1
I1216 23:01:45.176051 18570 net.cpp:338] loss3/classifier_kaggle -> loss3/classifier_kaggle
I1216 23:01:45.176059 18570 net.cpp:113] Setting up loss3/classifier_kaggle
I1216 23:01:45.181392 18570 net.cpp:120] Top shape: 50 447 (22350)
I1216 23:01:45.181406 18570 layer_factory.hpp:74] Creating layer loss3/classifier_kaggle_loss3/classifier_kaggle_0_split
I1216 23:01:45.181416 18570 net.cpp:84] Creating Layer loss3/classifier_kaggle_loss3/classifier_kaggle_0_split
I1216 23:01:45.181422 18570 net.cpp:380] loss3/classifier_kaggle_loss3/classifier_kaggle_0_split <- loss3/classifier_kaggle
I1216 23:01:45.181429 18570 net.cpp:338] loss3/classifier_kaggle_loss3/classifier_kaggle_0_split -> loss3/classifier_kaggle_loss3/classifier_kaggle_0_split_0
I1216 23:01:45.181438 18570 net.cpp:338] loss3/classifier_kaggle_loss3/classifier_kaggle_0_split -> loss3/classifier_kaggle_loss3/classifier_kaggle_0_split_1
I1216 23:01:45.181445 18570 net.cpp:338] loss3/classifier_kaggle_loss3/classifier_kaggle_0_split -> loss3/classifier_kaggle_loss3/classifier_kaggle_0_split_2
I1216 23:01:45.181466 18570 net.cpp:113] Setting up loss3/classifier_kaggle_loss3/classifier_kaggle_0_split
I1216 23:01:45.181475 18570 net.cpp:120] Top shape: 50 447 (22350)
I1216 23:01:45.181480 18570 net.cpp:120] Top shape: 50 447 (22350)
I1216 23:01:45.181485 18570 net.cpp:120] Top shape: 50 447 (22350)
I1216 23:01:45.181490 18570 layer_factory.hpp:74] Creating layer loss3/loss3
I1216 23:01:45.181498 18570 net.cpp:84] Creating Layer loss3/loss3
I1216 23:01:45.181502 18570 net.cpp:380] loss3/loss3 <- loss3/classifier_kaggle_loss3/classifier_kaggle_0_split_0
I1216 23:01:45.181509 18570 net.cpp:380] loss3/loss3 <- label_data_1_split_6
I1216 23:01:45.181515 18570 net.cpp:338] loss3/loss3 -> loss3/loss3
…
