…
I1216 23:02:14.735502 18693 net.cpp:257] The NetState phase (0) differed from the phase (1) specified by a rule in layer loss3/top-5
I1216 23:02:14.737696 18693 net.cpp:42] Initializing net from parameters: 
name: "GoogleNet"
state {
  phase: TRAIN
}
layer {
  name: "data"
  type: "Data"
  top: "data"
  top: "label"
  include {
    phase: TRAIN
  }
  transform_param {
    mirror: true
    crop_size: 224
    mean_value: 129
    mean_value: 129
    mean_value: 129
  }
  data_param {
    source: "/home/coldmanck/kaggle/kaggle2_train_lmdb"
    batch_size: 80
    backend: LMDB
  }
}
layer {
  name: "conv1/7x7_s2"
  type: "Convolution"
  bottom: "data"
  top: "conv1/7x7_s2"
  param {
    lr_mult: 1
    decay_mult: 1
  }
  param {
    lr_mult: 2
    decay_mult: 0
  }
  convolution_param {
    num_output: 64
    pad: 3
    kernel_size: 7
    stride: 2
    weight_filler {
      type: "xavier"
    }
    bias_filler {
      type: "constant"
      value: 0.2
    }
  }
}
layer {
  name: "conv1/relu_7x7"
  type: "ReLU"
  bottom: "conv1/7x7_s2"
  top: "conv1/7x7_s2"
}
layer {
  name: "pool1/3x3_s2"
  type: "Pooling"
  bottom: "conv1/7x7_s2"
  top: "pool1/3x3_s2"
  pooling_param {
    pool: MAX
    kernel_size: 3
    stride: 2
  }
}
layer {
  name: "pool1/norm1"
  type: "LRN"
  bottom: "pool1/3x3_s2"
  top: "pool1/norm1"
  lrn_param {
    local_size: 5
    alpha: 0.0001
    beta: 0.75
  }
}
layer {
  name: "conv2/3x3_reduce"
  type: "Convolution"
  bottom: "pool1/norm1"
  top: "conv2/3x3_reduce"
  param {
    lr_mult: 1
    decay_mult: 1
  }
  param {
    lr_mult: 2
    decay_mult: 0
  }
  convolution_param {
    num_output: 64
    kernel_size: 1
    weight_filler {
      type: "xavier"
    }
    bias_filler {
      type: "constant"
      value: 0.2
    }
  }
}
layer {
  name: "conv2/relu_3x3_reduce"
  type: "ReLU"
  bottom: "conv2/3x3_reduce"
  top: "conv2/3x3_reduce"
}
layer {
  name: "conv2/3x3"
  type: "Convolution"
  bottom: "conv2/3x3_reduce"
  top: "conv2/3x3"
  param {
    lr_mult: 1
    decay_mult: 1
  }
  param {
    lr_mult: 2
    decay_mult: 0
  }
  convolution_param {
    num_output: 192
    pad: 1
    kernel_size: 3
    weight_filler {
      type: "xavier"
    }
    bias_filler {
      type: "constant"
      value: 0.2
    }
  }
}
layer {
  name: "conv2/relu_3x3"
  type: "ReLU"
  bottom: "conv2/3x3"
  top: "conv2/3x3"
}
layer {
  name: "conv2/norm2"
  type: "LRN"
  bottom: "conv2/3x3"
  top: "conv2/norm2"
  lrn_param {
    local_size: 5
    alpha: 0.0001
    beta: 0.75
  }
}
layer {
  name: "pool2/3x3_s2"
  type: "Pooling"
  bottom: "conv2/norm2"
  top: "pool2/3x3_s2"
  pooling_param {
    pool: MAX
    kernel_size: 3
    stride: 2
  }
}
layer {
  name: "inception_3a/1x1"
  type: "Convolution"
  bottom: "pool2/3x3_s2"
  top: "inception_3a/1x1"
  param {
    lr_mult: 1
    decay_mult: 1
  }
  param {
    lr_mult: 2
    decay_mult: 0
  }
  convolution_param {
    num_output: 64
    kernel_size: 1
    weight_filler {
      type: "xavier"
    }
    bias_filler {
      type: "constant"
      value: 0.2
    }
  }
}
layer {
  name: "inception_3a/relu_1x1"
  type: "ReLU"
  bottom: "inception_3a/1x1"
  top: "inception_3a/1x1"
}
layer {
  name: "inception_3a/3x3_reduce"
  type: "Convolution"
  bottom: "pool2/3x3_s2"
  top: "inception_3a/3x3_reduce"
  param {
    lr_mult: 1
    decay_mult: 1
  }
  param {
    lr_mult: 2
    decay_mult: 0
  }
  convolution_param {
    num_output: 96
    kernel_size: 1
    weight_filler {
      type: "xavier"
    }
    bias_filler {
      type: "constant"
      value: 0.2
    }
  }
}
layer {
  name: "inception_3a/relu_3x3_reduce"
  type: "ReLU"
  bottom: "inception_3a/3x3_reduce"
  top: "inception_3a/3x3_reduce"
}
layer {
  name: "inception_3a/3x3"
  type: "Convolution"
  bottom: "inception_3a/3x3_reduce"
  top: "inception_3a/3x3"
  param {
    lr_mult: 1
    decay_mult: 1
  }
  param {
    lr_mult: 2
    decay_mult: 0
  }
  convolution_param {
    num_output: 128
    pad: 1
    kernel_size: 3
    weight_filler {
      type: "xavier"
    }
    bias_filler {
      type: "constant"
      value: 0.2
    }
  }
}
layer {
  name: "inception_3a/relu_3x3"
  type: "ReLU"
  bottom: "inception_3a/3x3"
  top: "inception_3a/3x3"
}
layer {
  name: "inception_3a/5x5_reduce"
  type: "Convolution"
  bottom: "pool2/3x3_s2"
  top: "inception_3a/5x5_reduce"
  param {
    lr_mult: 1
    decay_mult: 1
  }
  param {
    lr_mult: 2
    decay_mult: 0
  }
  convolution_param {
    num_output: 16
    kernel_size: 1
    weight_filler {
      type: "xavier"
    }
    bias_filler {
      type: "constant"
      value: 0.2
    }
  }
}
layer {
  name: "inception_3a/relu_5x5_reduce"
  type: "ReLU"
  bottom: "inception_3a/5x5_reduce"
  top: "inception_3a/5x5_reduce"
}
layer {
  name: "inception_3a/5x5"
  type: "Convolution"
  bottom: "inception_3a/5x5_reduce"
  top: "inception_3a/5x5"
  param {
    lr_mult: 1
    decay_mult: 1
  }
  param {
    lr_mult: 2
    decay_mult: 0
  }
  convolution_param {
    num_output: 32
    pad: 2
    kernel_size: 5
    weight_filler {
      type: "xavier"
    }
    bias_filler {
      type: "constant"
      value: 0.2
    }
  }
}
layer {
  name: "inception_3a/relu_5x5"
  type: "ReLU"
  bottom: "inception_3a/5x5"
  top: "inception_3a/5x5"
}
layer {
  name: "inception_3a/pool"
  type: "Pooling"
  bottom: "pool2/3x3_s2"
  top: "inception_3a/pool"
  pooling_param {
    pool: MAX
    kernel_size: 3
    stride: 1
    pad: 1
  }
}
layer {
  name: "inception_3a/pool_proj"
  type: "Convolution"
  bottom: "inception_3a/pool"
  top: "inception_3a/pool_proj"
  param {
    lr_mult: 1
    decay_mult: 1
  }
  param {
    lr_mult: 2
    decay_mult: 0
  }
  convolution_param {
    num_output: 32
    kernel_size: 1
    weight_filler {
      type: "xavier"
    }
    bias_filler {
      type: "constant"
      value: 0.2
    }
  }
}
layer {
  name: "inception_3a/relu_pool_proj"
  type: "ReLU"
  bottom: "inception_3a/pool_proj"
  top: "inception_3a/pool_proj"
}
layer {
  name: "inception_3a/output"
  type: "Concat"
  bottom: "inception_3a/1x1"
  bottom: "inception_3a/3x3"
  bottom: "inception_3a/5x5"
  bottom: "inception_3a/pool_proj"
  top: "inception_3a/output"
}
layer {
  name: "inception_3b/1x1"
  type: "Convolution"
  bottom: "inception_3a/output"
  top: "inception_3b/1x1"
  param {
    lr_mult: 1
    decay_mult: 1
  }
  param {
    lr_mult: 2
    decay_mult: 0
  }
  convolution_param {
    num_output: 128
    kernel_size: 1
    weight_filler {
      type: "xavier"
    }
    bias_filler {
      type: "constant"
      value: 0.2
    }
  }
}
layer {
  name: "inception_3b/relu_1x1"
  type: "ReLU"
  bottom: "inception_3b/1x1"
  top: "inception_3b/1x1"
}
layer {
  name: "inception_3b/3x3_reduce"
  type: "Convolution"
  bottom: "inception_3a/output"
  top: "inception_3b/3x3_reduce"
  param {
    lr_mult: 1
    decay_mult: 1
  }
  param {
    lr_mult: 2
    decay_mult: 0
  }
  convolution_param {
    num_output: 128
    kernel_size: 1
    weight_filler {
      type: "xavier"
    }
    bias_filler {
      type: "constant"
      value: 0.2
    }
  }
}
layer {
  name: "inception_3b/relu_3x3_reduce"
  type: "ReLU"
  bottom: "inception_3b/3x3_reduce"
  top: "inception_3b/3x3_reduce"
}
layer {
  name: "inception_3b/3x3"
  type: "Convolution"
  bottom: "inception_3b/3x3_reduce"
  top: "inception_3b/3x3"
  param {
    lr_mult: 1
    decay_mult: 1
  }
  param {
    lr_mult: 2
    decay_mult: 0
  }
  convolution_param {
    num_output: 192
    pad: 1
    kernel_size: 3
    weight_filler {
      type: "xavier"
    }
    bias_filler {
      type: "constant"
      value: 0.2
    }
  }
}
layer {
  name: "inception_3b/relu_3x3"
  type: "ReLU"
  bottom: "inception_3b/3x3"
  top: "inception_3b/3x3"
}
layer {
  name: "inception_3b/5x5_reduce"
  type: "Convolution"
  bottom: "inception_3a/output"
  top: "inception_3b/5x5_reduce"
  param {
    lr_mult: 1
    decay_mult: 1
  }
  param {
    lr_mult: 2
    decay_mult: 0
  }
  convolution_param {
    num_output: 32
    kernel_size: 1
    weight_filler {
      type: "xavier"
    }
    bias_filler {
      type: "constant"
      value: 0.2
    }
  }
}
layer {
  name: "inception_3b/relu_5x5_reduce"
  type: "ReLU"
  bottom: "inception_3b/5x5_reduce"
  top: "inception_3b/5x5_reduce"
}
layer {
  name: "inception_3b/5x5"
  type: "Convolution"
  bottom: "inception_3b/5x5_reduce"
  top: "inception_3b/5x5"
  param {
    lr_mult: 1
    decay_mult: 1
  }
  param {
    lr_mult: 2
    decay_mult: 0
  }
  convolution_param {
    num_output: 96
    pad: 2
    kernel_size: 5
    weight_filler {
      type: "xavier"
    }
    bias_filler {
      type: "constant"
      value: 0.2
    }
  }
}
layer {
  name: "inception_3b/relu_5x5"
  type: "ReLU"
  bottom: "inception_3b/5x5"
  top: "inception_3b/5x5"
}
layer {
  name: "inception_3b/pool"
  type: "Pooling"
  bottom: "inception_3a/output"
  top: "inception_3b/pool"
  pooling_param {
    pool: MAX
    kernel_size: 3
    stride: 1
    pad: 1
  }
}
layer {
  name: "inception_3b/pool_proj"
  type: "Convolution"
  bottom: "inception_3b/pool"
  top: "inception_3b/pool_proj"
  param {
    lr_mult: 1
    decay_mult: 1
  }
  param {
    lr_mult: 2
    decay_mult: 0
  }
  convolution_param {
    num_output: 64
    kernel_size: 1
    weight_filler {
      type: "xavier"
    }
    bias_filler {
      type: "constant"
      value: 0.2
    }
  }
}
layer {
  name: "inception_3b/relu_pool_proj"
  type: "ReLU"
  bottom: "inception_3b/pool_proj"
  top: "inception_3b/pool_proj"
}
layer {
  name: "inception_3b/output"
  type: "Concat"
  bottom: "inception_3b/1x1"
  bottom: "inception_3b/3x3"
  bottom: "inception_3b/5x5"
  bottom: "inception_3b/pool_proj"
  top: "inception_3b/output"
}
layer {
  name: "pool3/3x3_s2"
  type: "Pooling"
  bottom: "inception_3b/output"
  top: "pool3/3x3_s2"
  pooling_param {
    pool: MAX
    kernel_size: 3
    stride: 2
  }
}
layer {
  name: "inception_4a/1x1"
  type: "Convolution"
  bottom: "pool3/3x3_s2"
  top: "inception_4a/1x1"
  param {
    lr_mult: 1
    decay_mult: 1
  }
  param {
    lr_mult: 2
    decay_mult: 0
  }
  convolution_param {
    num_output: 192
    kernel_size: 1
    weight_filler {
      type: "xavier"
    }
    bias_filler {
      type: "constant"
      value: 0.2
    }
  }
}
layer {
  name: "inception_4a/relu_1x1"
  type: "ReLU"
  bottom: "inception_4a/1x1"
  top: "inception_4a/1x1"
}
layer {
  name: "inception_4a/3x3_reduce"
  type: "Convolution"
  bottom: "pool3/3x3_s2"
  top: "inception_4a/3x3_reduce"
  param {
    lr_mult: 1
    decay_mult: 1
  }
  param {
    lr_mult: 2
    decay_mult: 0
  }
  convolution_param {
    num_output: 96
    kernel_size: 1
    weight_filler {
      type: "xavier"
    }
    bias_filler {
      type: "constant"
      value: 0.2
    }
  }
}
layer {
  name: "inception_4a/relu_3x3_reduce"
  type: "ReLU"
  bottom: "inception_4a/3x3_reduce"
  top: "inception_4a/3x3_reduce"
}
layer {
  name: "inception_4a/3x3"
  type: "Convolution"
  bottom: "inception_4a/3x3_reduce"
  top: "inception_4a/3x3"
  param {
    lr_mult: 1
    decay_mult: 1
  }
  param {
    lr_mult: 2
    decay_mult: 0
  }
  convolution_param {
    num_output: 208
    pad: 1
    kernel_size: 3
    weight_filler {
      type: "xavier"
    }
    bias_filler {
      type: "constant"
      value: 0.2
    }
  }
}
layer {
  name: "inception_4a/relu_3x3"
  type: "ReLU"
  bottom: "inception_4a/3x3"
  top: "inception_4a/3x3"
}
layer {
  name: "inception_4a/5x5_reduce"
  type: "Convolution"
  bottom: "pool3/3x3_s2"
  top: "inception_4a/5x5_reduce"
  param {
    lr_mult: 1
    decay_mult: 1
  }
  param {
    lr_mult: 2
    decay_mult: 0
  }
  convolution_param {
    num_output: 16
    kernel_size: 1
    weight_filler {
      type: "xavier"
    }
    bias_filler {
      type: "constant"
      value: 0.2
    }
  }
}
layer {
  name: "inception_4a/relu_5x5_reduce"
  type: "ReLU"
  bottom: "inception_4a/5x5_reduce"
  top: "inception_4a/5x5_reduce"
}
layer {
  name: "inception_4a/5x5"
  type: "Convolution"
  bottom: "inception_4a/5x5_reduce"
  top: "inception_4a/5x5"
  param {
    lr_mult: 1
    decay_mult: 1
  }
  param {
    lr_mult: 2
    decay_mult: 0
  }
  convolution_param {
    num_output: 48
    pad: 2
    kernel_size: 5
    weight_filler {
      type: "xavier"
    }
    bias_filler {
      type: "constant"
      value: 0.2
    }
  }
}
layer {
  name: "inception_4a/relu_5x5"
  type: "ReLU"
  bottom: "inception_4a/5x5"
  top: "inception_4a/5x5"
}
layer {
  name: "inception_4a/pool"
  type: "Pooling"
  bottom: "pool3/3x3_s2"
  top: "inception_4a/pool"
  pooling_param {
    pool: MAX
    kernel_size: 3
    stride: 1
    pad: 1
  }
}
layer {
  name: "inception_4a/pool_proj"
  type: "Convolution"
  bottom: "inception_4a/pool"
  top: "inception_4a/pool_proj"
  param {
    lr_mult: 1
    decay_mult: 1
  }
  param {
    lr_mult: 2
    decay_mult: 0
  }
  convolution_param {
    num_output: 64
    kernel_size: 1
    weight_filler {
      type: "xavier"
    }
    bias_filler {
      type: "constant"
      value: 0.2
    }
  }
}
layer {
  name: "inception_4a/relu_pool_proj"
  type: "ReLU"
  bottom: "inception_4a/pool_proj"
  top: "inception_4a/pool_proj"
}
layer {
  name: "inception_4a/output"
  type: "Concat"
  bottom: "inception_4a/1x1"
  bottom: "inception_4a/3x3"
  bottom: "inception_4a/5x5"
  bottom: "inception_4a/pool_proj"
  top: "inception_4a/output"
}
layer {
  name: "loss1/ave_pool"
  type: "Pooling"
  bottom: "inception_4a/output"
  top: "loss1/ave_pool"
  pooling_param {
    pool: AVE
    kernel_size: 5
    stride: 3
  }
}
layer {
  name: "loss1/conv"
  type: "Convolution"
  bottom: "loss1/ave_pool"
  top: "loss1/conv"
  param {
    lr_mult: 1
    decay_mult: 1
  }
  param {
    lr_mult: 2
    decay_mult: 0
  }
  convolution_param {
    num_output: 128
    kernel_size: 1
    weight_filler {
      type: "xavier"
    }
    bias_filler {
      type: "constant"
      value: 0.2
    }
  }
}
layer {
  name: "loss1/relu_conv"
  type: "ReLU"
  bottom: "loss1/conv"
  top: "loss1/conv"
}
layer {
  name: "loss1/fc"
  type: "InnerProduct"
  bottom: "loss1/conv"
  top: "loss1/fc"
  param {
    lr_mult: 1
    decay_mult: 1
  }
  param {
    lr_mult: 2
    decay_mult: 0
  }
  inner_product_param {
    num_output: 1024
    weight_filler {
      type: "xavier"
    }
    bias_filler {
      type: "constant"
      value: 0.2
    }
  }
}
layer {
  name: "loss1/relu_fc"
  type: "ReLU"
  bottom: "loss1/fc"
  top: "loss1/fc"
}
layer {
  name: "loss1/drop_fc"
  type: "Dropout"
  bottom: "loss1/fc"
  top: "loss1/fc"
  dropout_param {
    dropout_ratio: 0.7
  }
}
layer {
  name: "loss1/classifier_kaggle"
  type: "InnerProduct"
  bottom: "loss1/fc"
  top: "loss1/classifier_kaggle"
  param {
    lr_mult: 1
    decay_mult: 1
  }
  param {
    lr_mult: 2
    decay_mult: 0
  }
  inner_product_param {
    num_output: 447
    weight_filler {
      type: "xavier"
    }
    bias_filler {
      type: "constant"
      value: 0
    }
  }
}
layer {
  name: "loss1/loss"
  type: "SoftmaxWithLoss"
  bottom: "loss1/classifier_kaggle"
  bottom: "label"
  top: "loss1/loss1"
  loss_weight: 0.3
}
layer {
  name: "inception_4b/1x1"
  type: "Convolution"
  bottom: "inception_4a/output"
  top: "inception_4b/1x1"
  param {
    lr_mult: 1
    decay_mult: 1
  }
  param {
    lr_mult: 2
    decay_mult: 0
  }
  convolution_param {
    num_output: 160
    kernel_size: 1
    weight_filler {
      type: "xavier"
    }
    bias_filler {
      type: "constant"
      value: 0.2
    }
  }
}
layer {
  name: "inception_4b/relu_1x1"
  type: "ReLU"
  bottom: "inception_4b/1x1"
  top: "inception_4b/1x1"
}
layer {
  name: "inception_4b/3x3_reduce"
  type: "Convolution"
  bottom: "inception_4a/output"
  top: "inception_4b/3x3_reduce"
  param {
    lr_mult: 1
    decay_mult: 1
  }
  param {
    lr_mult: 2
    decay_mult: 0
  }
  convolution_param {
    num_output: 112
    kernel_size: 1
    weight_filler {
      type: "xavier"
    }
    bias_filler {
      type: "constant"
      value: 0.2
    }
  }
}
layer {
  name: "inception_4b/relu_3x3_reduce"
  type: "ReLU"
  bottom: "inception_4b/3x3_reduce"
  top: "inception_4b/3x3_reduce"
}
layer {
  name: "inception_4b/3x3"
  type: "Convolution"
  bottom: "inception_4b/3x3_reduce"
  top: "inception_4b/3x3"
  param {
    lr_mult: 1
    decay_mult: 1
  }
  param {
    lr_mult: 2
    decay_mult: 0
  }
  convolution_param {
    num_output: 224
    pad: 1
    kernel_size: 3
    weight_filler {
      type: "xavier"
    }
    bias_filler {
      type: "constant"
      value: 0.2
    }
  }
}
layer {
  name: "inception_4b/relu_3x3"
  type: "ReLU"
  bottom: "inception_4b/3x3"
  top: "inception_4b/3x3"
}
layer {
  name: "inception_4b/5x5_reduce"
  type: "Convolution"
  bottom: "inception_4a/output"
  top: "inception_4b/5x5_reduce"
  param {
    lr_mult: 1
    decay_mult: 1
  }
  param {
    lr_mult: 2
    decay_mult: 0
  }
  convolution_param {
    num_output: 24
    kernel_size: 1
    weight_filler {
      type: "xavier"
    }
    bias_filler {
      type: "constant"
      value: 0.2
    }
  }
}
layer {
  name: "inception_4b/relu_5x5_reduce"
  type: "ReLU"
  bottom: "inception_4b/5x5_reduce"
  top: "inception_4b/5x5_reduce"
}
layer {
  name: "inception_4b/5x5"
  type: "Convolution"
  bottom: "inception_4b/5x5_reduce"
  top: "inception_4b/5x5"
  param {
    lr_mult: 1
    decay_mult: 1
  }
  param {
    lr_mult: 2
    decay_mult: 0
  }
  convolution_param {
    num_output: 64
    pad: 2
    kernel_size: 5
    weight_filler {
      type: "xavier"
    }
    bias_filler {
      type: "constant"
      value: 0.2
    }
  }
}
layer {
  name: "inception_4b/relu_5x5"
  type: "ReLU"
  bottom: "inception_4b/5x5"
  top: "inception_4b/5x5"
}
layer {
  name: "inception_4b/pool"
  type: "Pooling"
  bottom: "inception_4a/output"
  top: "inception_4b/pool"
  pooling_param {
    pool: MAX
    kernel_size: 3
    stride: 1
    pad: 1
  }
}
layer {
  name: "inception_4b/pool_proj"
  type: "Convolution"
  bottom: "inception_4b/pool"
  top: "inception_4b/pool_proj"
  param {
    lr_mult: 1
    decay_mult: 1
  }
  param {
    lr_mult: 2
    decay_mult: 0
  }
  convolution_param {
    num_output: 64
    kernel_size: 1
    weight_filler {
      type: "xavier"
    }
    bias_filler {
      type: "constant"
      value: 0.2
    }
  }
}
layer {
  name: "inception_4b/relu_pool_proj"
  type: "ReLU"
  bottom: "inception_4b/pool_proj"
  top: "inception_4b/pool_proj"
}
layer {
  name: "inception_4b/output"
  type: "Concat"
  bottom: "inception_4b/1x1"
  bottom: "inception_4b/3x3"
  bottom: "inception_4b/5x5"
  bottom: "inception_4b/pool_proj"
  top: "inception_4b/output"
}
layer {
  name: "inception_4c/1x1"
  type: "Convolution"
  bottom: "inception_4b/output"
  top: "inception_4c/1x1"
  param {
    lr_mult: 1
    decay_mult: 1
  }
  param {
    lr_mult: 2
    decay_mult: 0
  }
  convolution_param {
    num_output: 128
    kernel_size: 1
    weight_filler {
      type: "xavier"
    }
    bias_filler {
      type: "constant"
      value: 0.2
    }
  }
}
layer {
  name: "inception_4c/relu_1x1"
  type: "ReLU"
  bottom: "inception_4c/1x1"
  top: "inception_4c/1x1"
}
layer {
  name: "inception_4c/3x3_reduce"
  type: "Convolution"
  bottom: "inception_4b/output"
  top: "inception_4c/3x3_reduce"
  param {
    lr_mult: 1
    decay_mult: 1
  }
  param {
    lr_mult: 2
    decay_mult: 0
  }
  convolution_param {
    num_output: 128
    kernel_size: 1
    weight_filler {
      type: "xavier"
    }
    bias_filler {
      type: "constant"
      value: 0.2
    }
  }
}
layer {
  name: "inception_4c/relu_3x3_reduce"
  type: "ReLU"
  bottom: "inception_4c/3x3_reduce"
  top: "inception_4c/3x3_reduce"
}
layer {
  name: "inception_4c/3x3"
  type: "Convolution"
  bottom: "inception_4c/3x3_reduce"
  top: "inception_4c/3x3"
  param {
    lr_mult: 1
    decay_mult: 1
  }
  param {
    lr_mult: 2
    decay_mult: 0
  }
  convolution_param {
    num_output: 256
    pad: 1
    kernel_size: 3
    weight_filler {
      type: "xavier"
    }
    bias_filler {
      type: "constant"
      value: 0.2
    }
  }
}
layer {
  name: "inception_4c/relu_3x3"
  type: "ReLU"
  bottom: "inception_4c/3x3"
  top: "inception_4c/3x3"
}
layer {
  name: "inception_4c/5x5_reduce"
  type: "Convolution"
  bottom: "inception_4b/output"
  top: "inception_4c/5x5_reduce"
  param {
    lr_mult: 1
    decay_mult: 1
  }
  param {
    lr_mult: 2
    decay_mult: 0
  }
  convolution_param {
    num_output: 24
    kernel_size: 1
    weight_filler {
      type: "xavier"
    }
    bias_filler {
      type: "constant"
      value: 0.2
    }
  }
}
layer {
  name: "inception_4c/relu_5x5_reduce"
  type: "ReLU"
  bottom: "inception_4c/5x5_reduce"
  top: "inception_4c/5x5_reduce"
}
layer {
  name: "inception_4c/5x5"
  type: "Convolution"
  bottom: "inception_4c/5x5_reduce"
  top: "inception_4c/5x5"
  param {
    lr_mult: 1
    decay_mult: 1
  }
  param {
    lr_mult: 2
    decay_mult: 0
  }
  convolution_param {
    num_output: 64
    pad: 2
    kernel_size: 5
    weight_filler {
      type: "xavier"
    }
    bias_filler {
      type: "constant"
      value: 0.2
    }
  }
}
layer {
  name: "inception_4c/relu_5x5"
  type: "ReLU"
  bottom: "inception_4c/5x5"
  top: "inception_4c/5x5"
}
layer {
  name: "inception_4c/pool"
  type: "Pooling"
  bottom: "inception_4b/output"
  top: "inception_4c/pool"
  pooling_param {
    pool: MAX
    kernel_size: 3
    stride: 1
    pad: 1
  }
}
layer {
  name: "inception_4c/pool_proj"
  type: "Convolution"
  bottom: "inception_4c/pool"
  top: "inception_4c/pool_proj"
  param {
    lr_mult: 1
    decay_mult: 1
  }
  param {
    lr_mult: 2
    decay_mult: 0
  }
  convolution_param {
    num_output: 64
    kernel_size: 1
    weight_filler {
      type: "xavier"
    }
    bias_filler {
      type: "constant"
      value: 0.2
    }
  }
}
layer {
  name: "inception_4c/relu_pool_proj"
  type: "ReLU"
  bottom: "inception_4c/pool_proj"
  top: "inception_4c/pool_proj"
}
layer {
  name: "inception_4c/output"
  type: "Concat"
  bottom: "inception_4c/1x1"
  bottom: "inception_4c/3x3"
  bottom: "inception_4c/5x5"
  bottom: "inception_4c/pool_proj"
  top: "inception_4c/output"
}
layer {
  name: "inception_4d/1x1"
  type: "Convolution"
  bottom: "inception_4c/output"
  top: "inception_4d/1x1"
  param {
    lr_mult: 1
    decay_mult: 1
  }
  param {
    lr_mult: 2
    decay_mult: 0
  }
  convolution_param {
    num_output: 112
    kernel_size: 1
    weight_filler {
      type: "xavier"
    }
    bias_filler {
      type: "constant"
      value: 0.2
    }
  }
}
layer {
  name: "inception_4d/relu_1x1"
  type: "ReLU"
  bottom: "inception_4d/1x1"
  top: "inception_4d/1x1"
}
layer {
  name: "inception_4d/3x3_reduce"
  type: "Convolution"
  bottom: "inception_4c/output"
  top: "inception_4d/3x3_reduce"
  param {
    lr_mult: 1
    decay_mult: 1
  }
  param {
    lr_mult: 2
    decay_mult: 0
  }
  convolution_param {
    num_output: 144
    kernel_size: 1
    weight_filler {
      type: "xavier"
    }
    bias_filler {
      type: "constant"
      value: 0.2
    }
  }
}
layer {
  name: "inception_4d/relu_3x3_reduce"
  type: "ReLU"
  bottom: "inception_4d/3x3_reduce"
  top: "inception_4d/3x3_reduce"
}
layer {
  name: "inception_4d/3x3"
  type: "Convolution"
  bottom: "inception_4d/3x3_reduce"
  top: "inception_4d/3x3"
  param {
    lr_mult: 1
    decay_mult: 1
  }
  param {
    lr_mult: 2
    decay_mult: 0
  }
  convolution_param {
    num_output: 288
    pad: 1
    kernel_size: 3
    weight_filler {
      type: "xavier"
    }
    bias_filler {
      type: "constant"
      value: 0.2
    }
  }
}
layer {
  name: "inception_4d/relu_3x3"
  type: "ReLU"
  bottom: "inception_4d/3x3"
  top: "inception_4d/3x3"
}
layer {
  name: "inception_4d/5x5_reduce"
  type: "Convolution"
  bottom: "inception_4c/output"
  top: "inception_4d/5x5_reduce"
  param {
    lr_mult: 1
    decay_mult: 1
  }
  param {
    lr_mult: 2
    decay_mult: 0
  }
  convolution_param {
    num_output: 32
    kernel_size: 1
    weight_filler {
      type: "xavier"
    }
    bias_filler {
      type: "constant"
      value: 0.2
    }
  }
}
layer {
  name: "inception_4d/relu_5x5_reduce"
  type: "ReLU"
  bottom: "inception_4d/5x5_reduce"
  top: "inception_4d/5x5_reduce"
}
layer {
  name: "inception_4d/5x5"
  type: "Convolution"
  bottom: "inception_4d/5x5_reduce"
  top: "inception_4d/5x5"
  param {
    lr_mult: 1
    decay_mult: 1
  }
  param {
    lr_mult: 2
    decay_mult: 0
  }
  convolution_param {
    num_output: 64
    pad: 2
    kernel_size: 5
    weight_filler {
      type: "xavier"
    }
    bias_filler {
      type: "constant"
      value: 0.2
    }
  }
}
layer {
  name: "inception_4d/relu_5x5"
  type: "ReLU"
  bottom: "inception_4d/5x5"
  top: "inception_4d/5x5"
}
layer {
  name: "inception_4d/pool"
  type: "Pooling"
  bottom: "inception_4c/output"
  top: "inception_4d/pool"
  pooling_param {
    pool: MAX
    kernel_size: 3
    stride: 1
    pad: 1
  }
}
layer {
  name: "inception_4d/pool_proj"
  type: "Convolution"
  bottom: "inception_4d/pool"
  top: "inception_4d/pool_proj"
  param {
    lr_mult: 1
    decay_mult: 1
  }
  param {
    lr_mult: 2
    decay_mult: 0
  }
  convolution_param {
    num_output: 64
    kernel_size: 1
    weight_filler {
      type: "xavier"
    }
    bias_filler {
      type: "constant"
      value: 0.2
    }
  }
}
layer {
  name: "inception_4d/relu_pool_proj"
  type: "ReLU"
  bottom: "inception_4d/pool_proj"
  top: "inception_4d/pool_proj"
}
layer {
  name: "inception_4d/output"
  type: "Concat"
  bottom: "inception_4d/1x1"
  bottom: "inception_4d/3x3"
  bottom: "inception_4d/5x5"
  bottom: "inception_4d/pool_proj"
  top: "inception_4d/output"
}
layer {
  name: "loss2/ave_pool"
  type: "Pooling"
  bottom: "inception_4d/output"
  top: "loss2/ave_pool"
  pooling_param {
    pool: AVE
    kernel_size: 5
    stride: 3
  }
}
layer {
  name: "loss2/conv"
  type: "Convolution"
  bottom: "loss2/ave_pool"
  top: "loss2/conv"
  param {
    lr_mult: 1
    decay_mult: 1
  }
  param {
    lr_mult: 2
    decay_mult: 0
  }
  convolution_param {
    num_output: 128
    kernel_size: 1
    weight_filler {
      type: "xavier"
    }
    bias_filler {
      type: "constant"
      value: 0.2
    }
  }
}
layer {
  name: "loss2/relu_conv"
  type: "ReLU"
  bottom: "loss2/conv"
  top: "loss2/conv"
}
layer {
  name: "loss2/fc"
  type: "InnerProduct"
  bottom: "loss2/conv"
  top: "loss2/fc"
  param {
    lr_mult: 1
    decay_mult: 1
  }
  param {
    lr_mult: 2
    decay_mult: 0
  }
  inner_product_param {
    num_output: 1024
    weight_filler {
      type: "xavier"
    }
    bias_filler {
      type: "constant"
      value: 0.2
    }
  }
}
layer {
  name: "loss2/relu_fc"
  type: "ReLU"
  bottom: "loss2/fc"
  top: "loss2/fc"
}
layer {
  name: "loss2/drop_fc"
  type: "Dropout"
  bottom: "loss2/fc"
  top: "loss2/fc"
  dropout_param {
    dropout_ratio: 0.7
  }
}
layer {
  name: "loss2/classifier_kaggle"
  type: "InnerProduct"
  bottom: "loss2/fc"
  top: "loss2/classifier_kaggle"
  param {
    lr_mult: 1
    decay_mult: 1
  }
  param {
    lr_mult: 2
    decay_mult: 0
  }
  inner_product_param {
    num_output: 447
    weight_filler {
      type: "xavier"
    }
    bias_filler {
      type: "constant"
      value: 0
    }
  }
}
layer {
  name: "loss2/loss"
  type: "SoftmaxWithLoss"
  bottom: "loss2/classifier_kaggle"
  bottom: "label"
  top: "loss2/loss1"
  loss_weight: 0.3
}
layer {
  name: "inception_4e/1x1"
  type: "Convolution"
  bottom: "inception_4d/output"
  top: "inception_4e/1x1"
  param {
    lr_mult: 1
    decay_mult: 1
  }
  param {
    lr_mult: 2
    decay_mult: 0
  }
  convolution_param {
    num_output: 256
    kernel_size: 1
    weight_filler {
      type: "xavier"
    }
    bias_filler {
      type: "constant"
      value: 0.2
    }
  }
}
layer {
  name: "inception_4e/relu_1x1"
  type: "ReLU"
  bottom: "inception_4e/1x1"
  top: "inception_4e/1x1"
}
layer {
  name: "inception_4e/3x3_reduce"
  type: "Convolution"
  bottom: "inception_4d/output"
  top: "inception_4e/3x3_reduce"
  param {
    lr_mult: 1
    decay_mult: 1
  }
  param {
    lr_mult: 2
    decay_mult: 0
  }
  convolution_param {
    num_output: 160
    kernel_size: 1
    weight_filler {
      type: "xavier"
    }
    bias_filler {
      type: "constant"
      value: 0.2
    }
  }
}
layer {
  name: "inception_4e/relu_3x3_reduce"
  type: "ReLU"
  bottom: "inception_4e/3x3_reduce"
  top: "inception_4e/3x3_reduce"
}
layer {
  name: "inception_4e/3x3"
  type: "Convolution"
  bottom: "inception_4e/3x3_reduce"
  top: "inception_4e/3x3"
  param {
    lr_mult: 1
    decay_mult: 1
  }
  param {
    lr_mult: 2
    decay_mult: 0
  }
  convolution_param {
    num_output: 320
    pad: 1
    kernel_size: 3
    weight_filler {
      type: "xavier"
    }
    bias_filler {
      type: "constant"
      value: 0.2
    }
  }
}
layer {
  name: "inception_4e/relu_3x3"
  type: "ReLU"
  bottom: "inception_4e/3x3"
  top: "inception_4e/3x3"
}
layer {
  name: "inception_4e/5x5_reduce"
  type: "Convolution"
  bottom: "inception_4d/output"
  top: "inception_4e/5x5_reduce"
  param {
    lr_mult: 1
    decay_mult: 1
  }
  param {
    lr_mult: 2
    decay_mult: 0
  }
  convolution_param {
    num_output: 32
    kernel_size: 1
    weight_filler {
      type: "xavier"
    }
    bias_filler {
      type: "constant"
      value: 0.2
    }
  }
}
layer {
  name: "inception_4e/relu_5x5_reduce"
  type: "ReLU"
  bottom: "inception_4e/5x5_reduce"
  top: "inception_4e/5x5_reduce"
}
layer {
  name: "inception_4e/5x5"
  type: "Convolution"
  bottom: "inception_4e/5x5_reduce"
  top: "inception_4e/5x5"
  param {
    lr_mult: 1
    decay_mult: 1
  }
  param {
    lr_mult: 2
    decay_mult: 0
  }
  convolution_param {
    num_output: 128
    pad: 2
    kernel_size: 5
    weight_filler {
      type: "xavier"
    }
    bias_filler {
      type: "constant"
      value: 0.2
    }
  }
}
layer {
  name: "inception_4e/relu_5x5"
  type: "ReLU"
  bottom: "inception_4e/5x5"
  top: "inception_4e/5x5"
}
layer {
  name: "inception_4e/pool"
  type: "Pooling"
  bottom: "inception_4d/output"
  top: "inception_4e/pool"
  pooling_param {
   
I1216 23:02:14.738864 18693 layer_factory.hpp:74] Creating layer data
I1216 23:02:14.738910 18693 net.cpp:84] Creating Layer data
I1216 23:02:14.738924 18693 net.cpp:338] data -> data
I1216 23:02:14.738968 18693 net.cpp:338] data -> label
I1216 23:02:14.738983 18693 net.cpp:113] Setting up data
I1216 23:02:14.739079 18693 db.cpp:34] Opened lmdb /home/coldmanck/kaggle/kaggle2_train_lmdb
I1216 23:02:14.739375 18693 data_layer.cpp:67] output data size: 80,3,224,224
I1216 23:02:15.074373 18693 net.cpp:120] Top shape: 80 3 224 224 (12042240)
I1216 23:02:15.074414 18693 net.cpp:120] Top shape: 80 (80)
I1216 23:02:15.074437 18693 layer_factory.hpp:74] Creating layer label_data_1_split
I1216 23:02:15.074535 18693 net.cpp:84] Creating Layer label_data_1_split
I1216 23:02:15.074553 18693 net.cpp:380] label_data_1_split <- label
I1216 23:02:15.074576 18693 net.cpp:338] label_data_1_split -> label_data_1_split_0
I1216 23:02:15.074597 18693 net.cpp:338] label_data_1_split -> label_data_1_split_1
I1216 23:02:15.074609 18693 net.cpp:338] label_data_1_split -> label_data_1_split_2
I1216 23:02:15.074620 18693 net.cpp:113] Setting up label_data_1_split
I1216 23:02:15.074645 18693 net.cpp:120] Top shape: 80 (80)
I1216 23:02:15.074656 18693 net.cpp:120] Top shape: 80 (80)
I1216 23:02:15.074678 18693 net.cpp:120] Top shape: 80 (80)
I1216 23:02:15.074688 18693 layer_factory.hpp:74] Creating layer conv1/7x7_s2
I1216 23:02:15.074710 18693 net.cpp:84] Creating Layer conv1/7x7_s2
I1216 23:02:15.074722 18693 net.cpp:380] conv1/7x7_s2 <- data
I1216 23:02:15.074735 18693 net.cpp:338] conv1/7x7_s2 -> conv1/7x7_s2
I1216 23:02:15.074751 18693 net.cpp:113] Setting up conv1/7x7_s2
I1216 23:02:15.366885 18693 net.cpp:120] Top shape: 80 64 112 112 (64225280)
I1216 23:02:15.366966 18693 layer_factory.hpp:74] Creating layer conv1/relu_7x7
I1216 23:02:15.366981 18693 net.cpp:84] Creating Layer conv1/relu_7x7
I1216 23:02:15.366988 18693 net.cpp:380] conv1/relu_7x7 <- conv1/7x7_s2
I1216 23:02:15.366997 18693 net.cpp:327] conv1/relu_7x7 -> conv1/7x7_s2 (in-place)
I1216 23:02:15.367010 18693 net.cpp:113] Setting up conv1/relu_7x7
I1216 23:02:15.367302 18693 net.cpp:120] Top shape: 80 64 112 112 (64225280)
I1216 23:02:15.367316 18693 layer_factory.hpp:74] Creating layer pool1/3x3_s2
I1216 23:02:15.367331 18693 net.cpp:84] Creating Layer pool1/3x3_s2
I1216 23:02:15.367337 18693 net.cpp:380] pool1/3x3_s2 <- conv1/7x7_s2
I1216 23:02:15.367347 18693 net.cpp:338] pool1/3x3_s2 -> pool1/3x3_s2
I1216 23:02:15.367354 18693 net.cpp:113] Setting up pool1/3x3_s2
I1216 23:02:15.367434 18693 net.cpp:120] Top shape: 80 64 56 56 (16056320)
I1216 23:02:15.367450 18693 layer_factory.hpp:74] Creating layer pool1/norm1
I1216 23:02:15.367472 18693 net.cpp:84] Creating Layer pool1/norm1
I1216 23:02:15.367478 18693 net.cpp:380] pool1/norm1 <- pool1/3x3_s2
I1216 23:02:15.367486 18693 net.cpp:338] pool1/norm1 -> pool1/norm1
I1216 23:02:15.367496 18693 net.cpp:113] Setting up pool1/norm1
I1216 23:02:15.367503 18693 net.cpp:120] Top shape: 80 64 56 56 (16056320)
I1216 23:02:15.367518 18693 layer_factory.hpp:74] Creating layer conv2/3x3_reduce
I1216 23:02:15.367537 18693 net.cpp:84] Creating Layer conv2/3x3_reduce
I1216 23:02:15.367543 18693 net.cpp:380] conv2/3x3_reduce <- pool1/norm1
I1216 23:02:15.367558 18693 net.cpp:338] conv2/3x3_reduce -> conv2/3x3_reduce
I1216 23:02:15.367569 18693 net.cpp:113] Setting up conv2/3x3_reduce
I1216 23:02:15.368003 18693 net.cpp:120] Top shape: 80 64 56 56 (16056320)
I1216 23:02:15.368033 18693 layer_factory.hpp:74] Creating layer conv2/relu_3x3_reduce
I1216 23:02:15.368043 18693 net.cpp:84] Creating Layer conv2/relu_3x3_reduce
I1216 23:02:15.368048 18693 net.cpp:380] conv2/relu_3x3_reduce <- conv2/3x3_reduce
I1216 23:02:15.368057 18693 net.cpp:327] conv2/relu_3x3_reduce -> conv2/3x3_reduce (in-place)
I1216 23:02:15.368063 18693 net.cpp:113] Setting up conv2/relu_3x3_reduce
I1216 23:02:15.368125 18693 net.cpp:120] Top shape: 80 64 56 56 (16056320)
I1216 23:02:15.368131 18693 layer_factory.hpp:74] Creating layer conv2/3x3
I1216 23:02:15.368141 18693 net.cpp:84] Creating Layer conv2/3x3
I1216 23:02:15.368146 18693 net.cpp:380] conv2/3x3 <- conv2/3x3_reduce
I1216 23:02:15.368165 18693 net.cpp:338] conv2/3x3 -> conv2/3x3
I1216 23:02:15.368175 18693 net.cpp:113] Setting up conv2/3x3
I1216 23:02:15.369704 18693 net.cpp:120] Top shape: 80 192 56 56 (48168960)
I1216 23:02:15.369722 18693 layer_factory.hpp:74] Creating layer conv2/relu_3x3
I1216 23:02:15.369742 18693 net.cpp:84] Creating Layer conv2/relu_3x3
I1216 23:02:15.369748 18693 net.cpp:380] conv2/relu_3x3 <- conv2/3x3
I1216 23:02:15.369755 18693 net.cpp:327] conv2/relu_3x3 -> conv2/3x3 (in-place)
I1216 23:02:15.369763 18693 net.cpp:113] Setting up conv2/relu_3x3
I1216 23:02:15.370046 18693 net.cpp:120] Top shape: 80 192 56 56 (48168960)
I1216 23:02:15.370067 18693 layer_factory.hpp:74] Creating layer conv2/norm2
I1216 23:02:15.370077 18693 net.cpp:84] Creating Layer conv2/norm2
I1216 23:02:15.370084 18693 net.cpp:380] conv2/norm2 <- conv2/3x3
I1216 23:02:15.370096 18693 net.cpp:338] conv2/norm2 -> conv2/norm2
I1216 23:02:15.370105 18693 net.cpp:113] Setting up conv2/norm2
I1216 23:02:15.370115 18693 net.cpp:120] Top shape: 80 192 56 56 (48168960)
I1216 23:02:15.370128 18693 layer_factory.hpp:74] Creating layer pool2/3x3_s2
I1216 23:02:15.370147 18693 net.cpp:84] Creating Layer pool2/3x3_s2
I1216 23:02:15.370152 18693 net.cpp:380] pool2/3x3_s2 <- conv2/norm2
I1216 23:02:15.370159 18693 net.cpp:338] pool2/3x3_s2 -> pool2/3x3_s2
I1216 23:02:15.370167 18693 net.cpp:113] Setting up pool2/3x3_s2
I1216 23:02:15.370234 18693 net.cpp:120] Top shape: 80 192 28 28 (12042240)
I1216 23:02:15.370241 18693 layer_factory.hpp:74] Creating layer pool2/3x3_s2_pool2/3x3_s2_0_split
I1216 23:02:15.370249 18693 net.cpp:84] Creating Layer pool2/3x3_s2_pool2/3x3_s2_0_split
I1216 23:02:15.370254 18693 net.cpp:380] pool2/3x3_s2_pool2/3x3_s2_0_split <- pool2/3x3_s2
I1216 23:02:15.370260 18693 net.cpp:338] pool2/3x3_s2_pool2/3x3_s2_0_split -> pool2/3x3_s2_pool2/3x3_s2_0_split_0
I1216 23:02:15.370268 18693 net.cpp:338] pool2/3x3_s2_pool2/3x3_s2_0_split -> pool2/3x3_s2_pool2/3x3_s2_0_split_1
I1216 23:02:15.370275 18693 net.cpp:338] pool2/3x3_s2_pool2/3x3_s2_0_split -> pool2/3x3_s2_pool2/3x3_s2_0_split_2
I1216 23:02:15.370282 18693 net.cpp:338] pool2/3x3_s2_pool2/3x3_s2_0_split -> pool2/3x3_s2_pool2/3x3_s2_0_split_3
I1216 23:02:15.370288 18693 net.cpp:113] Setting up pool2/3x3_s2_pool2/3x3_s2_0_split
I1216 23:02:15.370296 18693 net.cpp:120] Top shape: 80 192 28 28 (12042240)
I1216 23:02:15.370301 18693 net.cpp:120] Top shape: 80 192 28 28 (12042240)
I1216 23:02:15.370306 18693 net.cpp:120] Top shape: 80 192 28 28 (12042240)
I1216 23:02:15.370311 18693 net.cpp:120] Top shape: 80 192 28 28 (12042240)
I1216 23:02:15.370316 18693 layer_factory.hpp:74] Creating layer inception_3a/1x1
I1216 23:02:15.370323 18693 net.cpp:84] Creating Layer inception_3a/1x1
I1216 23:02:15.370327 18693 net.cpp:380] inception_3a/1x1 <- pool2/3x3_s2_pool2/3x3_s2_0_split_0
I1216 23:02:15.370334 18693 net.cpp:338] inception_3a/1x1 -> inception_3a/1x1
I1216 23:02:15.370343 18693 net.cpp:113] Setting up inception_3a/1x1
I1216 23:02:15.371182 18693 net.cpp:120] Top shape: 80 64 28 28 (4014080)
I1216 23:02:15.371197 18693 layer_factory.hpp:74] Creating layer inception_3a/relu_1x1
I1216 23:02:15.371215 18693 net.cpp:84] Creating Layer inception_3a/relu_1x1
I1216 23:02:15.371222 18693 net.cpp:380] inception_3a/relu_1x1 <- inception_3a/1x1
I1216 23:02:15.371240 18693 net.cpp:327] inception_3a/relu_1x1 -> inception_3a/1x1 (in-place)
I1216 23:02:15.371249 18693 net.cpp:113] Setting up inception_3a/relu_1x1
I1216 23:02:15.371312 18693 net.cpp:120] Top shape: 80 64 28 28 (4014080)
I1216 23:02:15.371318 18693 layer_factory.hpp:74] Creating layer inception_3a/3x3_reduce
I1216 23:02:15.371327 18693 net.cpp:84] Creating Layer inception_3a/3x3_reduce
I1216 23:02:15.371332 18693 net.cpp:380] inception_3a/3x3_reduce <- pool2/3x3_s2_pool2/3x3_s2_0_split_1
I1216 23:02:15.371340 18693 net.cpp:338] inception_3a/3x3_reduce -> inception_3a/3x3_reduce
I1216 23:02:15.371348 18693 net.cpp:113] Setting up inception_3a/3x3_reduce
I1216 23:02:15.372074 18693 net.cpp:120] Top shape: 80 96 28 28 (6021120)
I1216 23:02:15.372102 18693 layer_factory.hpp:74] Creating layer inception_3a/relu_3x3_reduce
I1216 23:02:15.372112 18693 net.cpp:84] Creating Layer inception_3a/relu_3x3_reduce
I1216 23:02:15.372117 18693 net.cpp:380] inception_3a/relu_3x3_reduce <- inception_3a/3x3_reduce
I1216 23:02:15.372124 18693 net.cpp:327] inception_3a/relu_3x3_reduce -> inception_3a/3x3_reduce (in-place)
I1216 23:02:15.372133 18693 net.cpp:113] Setting up inception_3a/relu_3x3_reduce
I1216 23:02:15.372192 18693 net.cpp:120] Top shape: 80 96 28 28 (6021120)
I1216 23:02:15.372200 18693 layer_factory.hpp:74] Creating layer inception_3a/3x3
I1216 23:02:15.372213 18693 net.cpp:84] Creating Layer inception_3a/3x3
I1216 23:02:15.372218 18693 net.cpp:380] inception_3a/3x3 <- inception_3a/3x3_reduce
I1216 23:02:15.372225 18693 net.cpp:338] inception_3a/3x3 -> inception_3a/3x3
I1216 23:02:15.372233 18693 net.cpp:113] Setting up inception_3a/3x3
I1216 23:02:15.374061 18693 net.cpp:120] Top shape: 80 128 28 28 (8028160)
I1216 23:02:15.374078 18693 layer_factory.hpp:74] Creating layer inception_3a/relu_3x3
I1216 23:02:15.374092 18693 net.cpp:84] Creating Layer inception_3a/relu_3x3
I1216 23:02:15.374104 18693 net.cpp:380] inception_3a/relu_3x3 <- inception_3a/3x3
I1216 23:02:15.374112 18693 net.cpp:327] inception_3a/relu_3x3 -> inception_3a/3x3 (in-place)
I1216 23:02:15.374120 18693 net.cpp:113] Setting up inception_3a/relu_3x3
I1216 23:02:15.375924 18693 net.cpp:120] Top shape: 80 128 28 28 (8028160)
I1216 23:02:15.375937 18693 layer_factory.hpp:74] Creating layer inception_3a/5x5_reduce
I1216 23:02:15.375946 18693 net.cpp:84] Creating Layer inception_3a/5x5_reduce
I1216 23:02:15.375952 18693 net.cpp:380] inception_3a/5x5_reduce <- pool2/3x3_s2_pool2/3x3_s2_0_split_2
I1216 23:02:15.375962 18693 net.cpp:338] inception_3a/5x5_reduce -> inception_3a/5x5_reduce
I1216 23:02:15.375974 18693 net.cpp:113] Setting up inception_3a/5x5_reduce
I1216 23:02:15.376474 18693 net.cpp:120] Top shape: 80 16 28 28 (1003520)
I1216 23:02:15.376492 18693 layer_factory.hpp:74] Creating layer inception_3a/relu_5x5_reduce
I1216 23:02:15.376533 18693 net.cpp:84] Creating Layer inception_3a/relu_5x5_reduce
I1216 23:02:15.376540 18693 net.cpp:380] inception_3a/relu_5x5_reduce <- inception_3a/5x5_reduce
I1216 23:02:15.376549 18693 net.cpp:327] inception_3a/relu_5x5_reduce -> inception_3a/5x5_reduce (in-place)
I1216 23:02:15.376556 18693 net.cpp:113] Setting up inception_3a/relu_5x5_reduce
I1216 23:02:15.376641 18693 net.cpp:120] Top shape: 80 16 28 28 (1003520)
I1216 23:02:15.376649 18693 layer_factory.hpp:74] Creating layer inception_3a/5x5
I1216 23:02:15.376657 18693 net.cpp:84] Creating Layer inception_3a/5x5
I1216 23:02:15.376662 18693 net.cpp:380] inception_3a/5x5 <- inception_3a/5x5_reduce
I1216 23:02:15.376668 18693 net.cpp:338] inception_3a/5x5 -> inception_3a/5x5
I1216 23:02:15.376677 18693 net.cpp:113] Setting up inception_3a/5x5
I1216 23:02:15.377296 18693 net.cpp:120] Top shape: 80 32 28 28 (2007040)
I1216 23:02:15.377315 18693 layer_factory.hpp:74] Creating layer inception_3a/relu_5x5
I1216 23:02:15.377321 18693 net.cpp:84] Creating Layer inception_3a/relu_5x5
I1216 23:02:15.377327 18693 net.cpp:380] inception_3a/relu_5x5 <- inception_3a/5x5
I1216 23:02:15.377334 18693 net.cpp:327] inception_3a/relu_5x5 -> inception_3a/5x5 (in-place)
I1216 23:02:15.377342 18693 net.cpp:113] Setting up inception_3a/relu_5x5
I1216 23:02:15.377404 18693 net.cpp:120] Top shape: 80 32 28 28 (2007040)
I1216 23:02:15.377410 18693 layer_factory.hpp:74] Creating layer inception_3a/pool
I1216 23:02:15.377415 18693 layer_factory.cpp:56] CUDNN does not support padding or multiple tops. Using Caffe's own pooling layer.
I1216 23:02:15.377424 18693 net.cpp:84] Creating Layer inception_3a/pool
I1216 23:02:15.377429 18693 net.cpp:380] inception_3a/pool <- pool2/3x3_s2_pool2/3x3_s2_0_split_3
I1216 23:02:15.377434 18693 net.cpp:338] inception_3a/pool -> inception_3a/pool
I1216 23:02:15.377442 18693 net.cpp:113] Setting up inception_3a/pool
I1216 23:02:15.377450 18693 net.cpp:120] Top shape: 80 192 28 28 (12042240)
I1216 23:02:15.377454 18693 layer_factory.hpp:74] Creating layer inception_3a/pool_proj
I1216 23:02:15.377476 18693 net.cpp:84] Creating Layer inception_3a/pool_proj
I1216 23:02:15.377483 18693 net.cpp:380] inception_3a/pool_proj <- inception_3a/pool
I1216 23:02:15.377495 18693 net.cpp:338] inception_3a/pool_proj -> inception_3a/pool_proj
I1216 23:02:15.377502 18693 net.cpp:113] Setting up inception_3a/pool_proj
I1216 23:02:15.378010 18693 net.cpp:120] Top shape: 80 32 28 28 (2007040)
I1216 23:02:15.378029 18693 layer_factory.hpp:74] Creating layer inception_3a/relu_pool_proj
I1216 23:02:15.378051 18693 net.cpp:84] Creating Layer inception_3a/relu_pool_proj
I1216 23:02:15.378057 18693 net.cpp:380] inception_3a/relu_pool_proj <- inception_3a/pool_proj
I1216 23:02:15.378064 18693 net.cpp:327] inception_3a/relu_pool_proj -> inception_3a/pool_proj (in-place)
I1216 23:02:15.378072 18693 net.cpp:113] Setting up inception_3a/relu_pool_proj
I1216 23:02:15.378145 18693 net.cpp:120] Top shape: 80 32 28 28 (2007040)
I1216 23:02:15.378152 18693 layer_factory.hpp:74] Creating layer inception_3a/output
I1216 23:02:15.378172 18693 net.cpp:84] Creating Layer inception_3a/output
I1216 23:02:15.378185 18693 net.cpp:380] inception_3a/output <- inception_3a/1x1
I1216 23:02:15.378191 18693 net.cpp:380] inception_3a/output <- inception_3a/3x3
I1216 23:02:15.378197 18693 net.cpp:380] inception_3a/output <- inception_3a/5x5
I1216 23:02:15.378202 18693 net.cpp:380] inception_3a/output <- inception_3a/pool_proj
I1216 23:02:15.378208 18693 net.cpp:338] inception_3a/output -> inception_3a/output
I1216 23:02:15.378216 18693 net.cpp:113] Setting up inception_3a/output
I1216 23:02:15.378226 18693 net.cpp:120] Top shape: 80 256 28 28 (16056320)
I1216 23:02:15.378231 18693 layer_factory.hpp:74] Creating layer inception_3a/output_inception_3a/output_0_split
I1216 23:02:15.378237 18693 net.cpp:84] Creating Layer inception_3a/output_inception_3a/output_0_split
I1216 23:02:15.378242 18693 net.cpp:380] inception_3a/output_inception_3a/output_0_split <- inception_3a/output
I1216 23:02:15.378248 18693 net.cpp:338] inception_3a/output_inception_3a/output_0_split -> inception_3a/output_inception_3a/output_0_split_0
I1216 23:02:15.378257 18693 net.cpp:338] inception_3a/output_inception_3a/output_0_split -> inception_3a/output_inception_3a/output_0_split_1
I1216 23:02:15.378264 18693 net.cpp:338] inception_3a/output_inception_3a/output_0_split -> inception_3a/output_inception_3a/output_0_split_2
I1216 23:02:15.378271 18693 net.cpp:338] inception_3a/output_inception_3a/output_0_split -> inception_3a/output_inception_3a/output_0_split_3
I1216 23:02:15.378278 18693 net.cpp:113] Setting up inception_3a/output_inception_3a/output_0_split
I1216 23:02:15.378286 18693 net.cpp:120] Top shape: 80 256 28 28 (16056320)
I1216 23:02:15.378291 18693 net.cpp:120] Top shape: 80 256 28 28 (16056320)
I1216 23:02:15.378296 18693 net.cpp:120] Top shape: 80 256 28 28 (16056320)
I1216 23:02:15.378301 18693 net.cpp:120] Top shape: 80 256 28 28 (16056320)
I1216 23:02:15.378305 18693 layer_factory.hpp:74] Creating layer inception_3b/1x1
I1216 23:02:15.378325 18693 net.cpp:84] Creating Layer inception_3b/1x1
I1216 23:02:15.378330 18693 net.cpp:380] inception_3b/1x1 <- inception_3a/output_inception_3a/output_0_split_0
I1216 23:02:15.378339 18693 net.cpp:338] inception_3b/1x1 -> inception_3b/1x1
I1216 23:02:15.378347 18693 net.cpp:113] Setting up inception_3b/1x1
I1216 23:02:15.379109 18693 net.cpp:120] Top shape: 80 128 28 28 (8028160)
I1216 23:02:15.379127 18693 layer_factory.hpp:74] Creating layer inception_3b/relu_1x1
I1216 23:02:15.379133 18693 net.cpp:84] Creating Layer inception_3b/relu_1x1
I1216 23:02:15.379138 18693 net.cpp:380] inception_3b/relu_1x1 <- inception_3b/1x1
I1216 23:02:15.379145 18693 net.cpp:327] inception_3b/relu_1x1 -> inception_3b/1x1 (in-place)
I1216 23:02:15.379153 18693 net.cpp:113] Setting up inception_3b/relu_1x1
I1216 23:02:15.379402 18693 net.cpp:120] Top shape: 80 128 28 28 (8028160)
I1216 23:02:15.379426 18693 layer_factory.hpp:74] Creating layer inception_3b/3x3_reduce
I1216 23:02:15.379437 18693 net.cpp:84] Creating Layer inception_3b/3x3_reduce
I1216 23:02:15.379442 18693 net.cpp:380] inception_3b/3x3_reduce <- inception_3a/output_inception_3a/output_0_split_1
I1216 23:02:15.379451 18693 net.cpp:338] inception_3b/3x3_reduce -> inception_3b/3x3_reduce
I1216 23:02:15.379462 18693 net.cpp:113] Setting up inception_3b/3x3_reduce
I1216 23:02:15.380270 18693 net.cpp:120] Top shape: 80 128 28 28 (8028160)
I1216 23:02:15.380285 18693 layer_factory.hpp:74] Creating layer inception_3b/relu_3x3_reduce
I1216 23:02:15.380303 18693 net.cpp:84] Creating Layer inception_3b/relu_3x3_reduce
I1216 23:02:15.380309 18693 net.cpp:380] inception_3b/relu_3x3_reduce <- inception_3b/3x3_reduce
I1216 23:02:15.380317 18693 net.cpp:327] inception_3b/relu_3x3_reduce -> inception_3b/3x3_reduce (in-place)
I1216 23:02:15.380326 18693 net.cpp:113] Setting up inception_3b/relu_3x3_reduce
I1216 23:02:15.380419 18693 net.cpp:120] Top shape: 80 128 28 28 (8028160)
I1216 23:02:15.380426 18693 layer_factory.hpp:74] Creating layer inception_3b/3x3
I1216 23:02:15.380444 18693 net.cpp:84] Creating Layer inception_3b/3x3
I1216 23:02:15.380455 18693 net.cpp:380] inception_3b/3x3 <- inception_3b/3x3_reduce
I1216 23:02:15.380465 18693 net.cpp:338] inception_3b/3x3 -> inception_3b/3x3
I1216 23:02:15.380475 18693 net.cpp:113] Setting up inception_3b/3x3
I1216 23:02:15.383498 18693 net.cpp:120] Top shape: 80 192 28 28 (12042240)
I1216 23:02:15.383517 18693 layer_factory.hpp:74] Creating layer inception_3b/relu_3x3
I1216 23:02:15.383524 18693 net.cpp:84] Creating Layer inception_3b/relu_3x3
I1216 23:02:15.383530 18693 net.cpp:380] inception_3b/relu_3x3 <- inception_3b/3x3
I1216 23:02:15.383538 18693 net.cpp:327] inception_3b/relu_3x3 -> inception_3b/3x3 (in-place)
I1216 23:02:15.383546 18693 net.cpp:113] Setting up inception_3b/relu_3x3
I1216 23:02:15.383618 18693 net.cpp:120] Top shape: 80 192 28 28 (12042240)
I1216 23:02:15.383635 18693 layer_factory.hpp:74] Creating layer inception_3b/5x5_reduce
I1216 23:02:15.383651 18693 net.cpp:84] Creating Layer inception_3b/5x5_reduce
I1216 23:02:15.383656 18693 net.cpp:380] inception_3b/5x5_reduce <- inception_3a/output_inception_3a/output_0_split_2
I1216 23:02:15.383663 18693 net.cpp:338] inception_3b/5x5_reduce -> inception_3b/5x5_reduce
I1216 23:02:15.383672 18693 net.cpp:113] Setting up inception_3b/5x5_reduce
I1216 23:02:15.384188 18693 net.cpp:120] Top shape: 80 32 28 28 (2007040)
I1216 23:02:15.384203 18693 layer_factory.hpp:74] Creating layer inception_3b/relu_5x5_reduce
I1216 23:02:15.384210 18693 net.cpp:84] Creating Layer inception_3b/relu_5x5_reduce
I1216 23:02:15.384217 18693 net.cpp:380] inception_3b/relu_5x5_reduce <- inception_3b/5x5_reduce
I1216 23:02:15.384224 18693 net.cpp:327] inception_3b/relu_5x5_reduce -> inception_3b/5x5_reduce (in-place)
I1216 23:02:15.384232 18693 net.cpp:113] Setting up inception_3b/relu_5x5_reduce
I1216 23:02:15.384301 18693 net.cpp:120] Top shape: 80 32 28 28 (2007040)
I1216 23:02:15.384307 18693 layer_factory.hpp:74] Creating layer inception_3b/5x5
I1216 23:02:15.384316 18693 net.cpp:84] Creating Layer inception_3b/5x5
I1216 23:02:15.384321 18693 net.cpp:380] inception_3b/5x5 <- inception_3b/5x5_reduce
I1216 23:02:15.384328 18693 net.cpp:338] inception_3b/5x5 -> inception_3b/5x5
I1216 23:02:15.384342 18693 net.cpp:113] Setting up inception_3b/5x5
I1216 23:02:15.385751 18693 net.cpp:120] Top shape: 80 96 28 28 (6021120)
I1216 23:02:15.385768 18693 layer_factory.hpp:74] Creating layer inception_3b/relu_5x5
I1216 23:02:15.385776 18693 net.cpp:84] Creating Layer inception_3b/relu_5x5
I1216 23:02:15.385781 18693 net.cpp:380] inception_3b/relu_5x5 <- inception_3b/5x5
I1216 23:02:15.385787 18693 net.cpp:327] inception_3b/relu_5x5 -> inception_3b/5x5 (in-place)
I1216 23:02:15.385794 18693 net.cpp:113] Setting up inception_3b/relu_5x5
I1216 23:02:15.386042 18693 net.cpp:120] Top shape: 80 96 28 28 (6021120)
I1216 23:02:15.386054 18693 layer_factory.hpp:74] Creating layer inception_3b/pool
I1216 23:02:15.386072 18693 layer_factory.cpp:56] CUDNN does not support padding or multiple tops. Using Caffe's own pooling layer.
I1216 23:02:15.386081 18693 net.cpp:84] Creating Layer inception_3b/pool
I1216 23:02:15.386087 18693 net.cpp:380] inception_3b/pool <- inception_3a/output_inception_3a/output_0_split_3
I1216 23:02:15.386096 18693 net.cpp:338] inception_3b/pool -> inception_3b/pool
I1216 23:02:15.386103 18693 net.cpp:113] Setting up inception_3b/pool
I1216 23:02:15.386113 18693 net.cpp:120] Top shape: 80 256 28 28 (16056320)
I1216 23:02:15.386118 18693 layer_factory.hpp:74] Creating layer inception_3b/pool_proj
I1216 23:02:15.386129 18693 net.cpp:84] Creating Layer inception_3b/pool_proj
I1216 23:02:15.386134 18693 net.cpp:380] inception_3b/pool_proj <- inception_3b/pool
I1216 23:02:15.386142 18693 net.cpp:338] inception_3b/pool_proj -> inception_3b/pool_proj
I1216 23:02:15.386148 18693 net.cpp:113] Setting up inception_3b/pool_proj
I1216 23:02:15.386826 18693 net.cpp:120] Top shape: 80 64 28 28 (4014080)
I1216 23:02:15.386842 18693 layer_factory.hpp:74] Creating layer inception_3b/relu_pool_proj
I1216 23:02:15.386854 18693 net.cpp:84] Creating Layer inception_3b/relu_pool_proj
I1216 23:02:15.386868 18693 net.cpp:380] inception_3b/relu_pool_proj <- inception_3b/pool_proj
I1216 23:02:15.386886 18693 net.cpp:327] inception_3b/relu_pool_proj -> inception_3b/pool_proj (in-place)
I1216 23:02:15.386894 18693 net.cpp:113] Setting up inception_3b/relu_pool_proj
I1216 23:02:15.386968 18693 net.cpp:120] Top shape: 80 64 28 28 (4014080)
I1216 23:02:15.386976 18693 layer_factory.hpp:74] Creating layer inception_3b/output
I1216 23:02:15.386982 18693 net.cpp:84] Creating Layer inception_3b/output
I1216 23:02:15.386987 18693 net.cpp:380] inception_3b/output <- inception_3b/1x1
I1216 23:02:15.386993 18693 net.cpp:380] inception_3b/output <- inception_3b/3x3
I1216 23:02:15.386998 18693 net.cpp:380] inception_3b/output <- inception_3b/5x5
I1216 23:02:15.387003 18693 net.cpp:380] inception_3b/output <- inception_3b/pool_proj
I1216 23:02:15.387009 18693 net.cpp:338] inception_3b/output -> inception_3b/output
I1216 23:02:15.387017 18693 net.cpp:113] Setting up inception_3b/output
I1216 23:02:15.387024 18693 net.cpp:120] Top shape: 80 480 28 28 (30105600)
I1216 23:02:15.387029 18693 layer_factory.hpp:74] Creating layer pool3/3x3_s2
I1216 23:02:15.387037 18693 net.cpp:84] Creating Layer pool3/3x3_s2
I1216 23:02:15.387042 18693 net.cpp:380] pool3/3x3_s2 <- inception_3b/output
I1216 23:02:15.387048 18693 net.cpp:338] pool3/3x3_s2 -> pool3/3x3_s2
I1216 23:02:15.387055 18693 net.cpp:113] Setting up pool3/3x3_s2
I1216 23:02:15.387143 18693 net.cpp:120] Top shape: 80 480 14 14 (7526400)
I1216 23:02:15.387173 18693 layer_factory.hpp:74] Creating layer pool3/3x3_s2_pool3/3x3_s2_0_split
I1216 23:02:15.387182 18693 net.cpp:84] Creating Layer pool3/3x3_s2_pool3/3x3_s2_0_split
I1216 23:02:15.387187 18693 net.cpp:380] pool3/3x3_s2_pool3/3x3_s2_0_split <- pool3/3x3_s2
I1216 23:02:15.387194 18693 net.cpp:338] pool3/3x3_s2_pool3/3x3_s2_0_split -> pool3/3x3_s2_pool3/3x3_s2_0_split_0
I1216 23:02:15.387202 18693 net.cpp:338] pool3/3x3_s2_pool3/3x3_s2_0_split -> pool3/3x3_s2_pool3/3x3_s2_0_split_1
I1216 23:02:15.387210 18693 net.cpp:338] pool3/3x3_s2_pool3/3x3_s2_0_split -> pool3/3x3_s2_pool3/3x3_s2_0_split_2
I1216 23:02:15.387217 18693 net.cpp:338] pool3/3x3_s2_pool3/3x3_s2_0_split -> pool3/3x3_s2_pool3/3x3_s2_0_split_3
I1216 23:02:15.387223 18693 net.cpp:113] Setting up pool3/3x3_s2_pool3/3x3_s2_0_split
I1216 23:02:15.387231 18693 net.cpp:120] Top shape: 80 480 14 14 (7526400)
I1216 23:02:15.387238 18693 net.cpp:120] Top shape: 80 480 14 14 (7526400)
I1216 23:02:15.387243 18693 net.cpp:120] Top shape: 80 480 14 14 (7526400)
I1216 23:02:15.387248 18693 net.cpp:120] Top shape: 80 480 14 14 (7526400)
I1216 23:02:15.387251 18693 layer_factory.hpp:74] Creating layer inception_4a/1x1
I1216 23:02:15.387270 18693 net.cpp:84] Creating Layer inception_4a/1x1
I1216 23:02:15.387275 18693 net.cpp:380] inception_4a/1x1 <- pool3/3x3_s2_pool3/3x3_s2_0_split_0
I1216 23:02:15.387284 18693 net.cpp:338] inception_4a/1x1 -> inception_4a/1x1
I1216 23:02:15.387293 18693 net.cpp:113] Setting up inception_4a/1x1
I1216 23:02:15.389005 18693 net.cpp:120] Top shape: 80 192 14 14 (3010560)
I1216 23:02:15.389022 18693 layer_factory.hpp:74] Creating layer inception_4a/relu_1x1
I1216 23:02:15.389032 18693 net.cpp:84] Creating Layer inception_4a/relu_1x1
I1216 23:02:15.389039 18693 net.cpp:380] inception_4a/relu_1x1 <- inception_4a/1x1
I1216 23:02:15.389047 18693 net.cpp:327] inception_4a/relu_1x1 -> inception_4a/1x1 (in-place)
I1216 23:02:15.389062 18693 net.cpp:113] Setting up inception_4a/relu_1x1
I1216 23:02:15.389328 18693 net.cpp:120] Top shape: 80 192 14 14 (3010560)
I1216 23:02:15.389339 18693 layer_factory.hpp:74] Creating layer inception_4a/3x3_reduce
I1216 23:02:15.389348 18693 net.cpp:84] Creating Layer inception_4a/3x3_reduce
I1216 23:02:15.389354 18693 net.cpp:380] inception_4a/3x3_reduce <- pool3/3x3_s2_pool3/3x3_s2_0_split_1
I1216 23:02:15.389364 18693 net.cpp:338] inception_4a/3x3_reduce -> inception_4a/3x3_reduce
I1216 23:02:15.389372 18693 net.cpp:113] Setting up inception_4a/3x3_reduce
I1216 23:02:15.394320 18693 net.cpp:120] Top shape: 80 96 14 14 (1505280)
I1216 23:02:15.394351 18693 layer_factory.hpp:74] Creating layer inception_4a/relu_3x3_reduce
I1216 23:02:15.394373 18693 net.cpp:84] Creating Layer inception_4a/relu_3x3_reduce
I1216 23:02:15.394381 18693 net.cpp:380] inception_4a/relu_3x3_reduce <- inception_4a/3x3_reduce
I1216 23:02:15.394387 18693 net.cpp:327] inception_4a/relu_3x3_reduce -> inception_4a/3x3_reduce (in-place)
I1216 23:02:15.394395 18693 net.cpp:113] Setting up inception_4a/relu_3x3_reduce
I1216 23:02:15.394469 18693 net.cpp:120] Top shape: 80 96 14 14 (1505280)
I1216 23:02:15.394475 18693 layer_factory.hpp:74] Creating layer inception_4a/3x3
I1216 23:02:15.394492 18693 net.cpp:84] Creating Layer inception_4a/3x3
I1216 23:02:15.394497 18693 net.cpp:380] inception_4a/3x3 <- inception_4a/3x3_reduce
I1216 23:02:15.394505 18693 net.cpp:338] inception_4a/3x3 -> inception_4a/3x3
I1216 23:02:15.394513 18693 net.cpp:113] Setting up inception_4a/3x3
I1216 23:02:15.397029 18693 net.cpp:120] Top shape: 80 208 14 14 (3261440)
I1216 23:02:15.397047 18693 layer_factory.hpp:74] Creating layer inception_4a/relu_3x3
I1216 23:02:15.397066 18693 net.cpp:84] Creating Layer inception_4a/relu_3x3
I1216 23:02:15.397073 18693 net.cpp:380] inception_4a/relu_3x3 <- inception_4a/3x3
I1216 23:02:15.397081 18693 net.cpp:327] inception_4a/relu_3x3 -> inception_4a/3x3 (in-place)
I1216 23:02:15.397090 18693 net.cpp:113] Setting up inception_4a/relu_3x3
I1216 23:02:15.397161 18693 net.cpp:120] Top shape: 80 208 14 14 (3261440)
I1216 23:02:15.397168 18693 layer_factory.hpp:74] Creating layer inception_4a/5x5_reduce
I1216 23:02:15.397177 18693 net.cpp:84] Creating Layer inception_4a/5x5_reduce
I1216 23:02:15.397182 18693 net.cpp:380] inception_4a/5x5_reduce <- pool3/3x3_s2_pool3/3x3_s2_0_split_2
I1216 23:02:15.397192 18693 net.cpp:338] inception_4a/5x5_reduce -> inception_4a/5x5_reduce
I1216 23:02:15.397200 18693 net.cpp:113] Setting up inception_4a/5x5_reduce
I1216 23:02:15.397694 18693 net.cpp:120] Top shape: 80 16 14 14 (250880)
I1216 23:02:15.397709 18693 layer_factory.hpp:74] Creating layer inception_4a/relu_5x5_reduce
I1216 23:02:15.397732 18693 net.cpp:84] Creating Layer inception_4a/relu_5x5_reduce
I1216 23:02:15.397737 18693 net.cpp:380] inception_4a/relu_5x5_reduce <- inception_4a/5x5_reduce
I1216 23:02:15.397744 18693 net.cpp:327] inception_4a/relu_5x5_reduce -> inception_4a/5x5_reduce (in-place)
I1216 23:02:15.397753 18693 net.cpp:113] Setting up inception_4a/relu_5x5_reduce
I1216 23:02:15.397830 18693 net.cpp:120] Top shape: 80 16 14 14 (250880)
I1216 23:02:15.397845 18693 layer_factory.hpp:74] Creating layer inception_4a/5x5
I1216 23:02:15.397855 18693 net.cpp:84] Creating Layer inception_4a/5x5
I1216 23:02:15.397860 18693 net.cpp:380] inception_4a/5x5 <- inception_4a/5x5_reduce
I1216 23:02:15.397868 18693 net.cpp:338] inception_4a/5x5 -> inception_4a/5x5
I1216 23:02:15.397876 18693 net.cpp:113] Setting up inception_4a/5x5
I1216 23:02:15.398512 18693 net.cpp:120] Top shape: 80 48 14 14 (752640)
I1216 23:02:15.398527 18693 layer_factory.hpp:74] Creating layer inception_4a/relu_5x5
I1216 23:02:15.398535 18693 net.cpp:84] Creating Layer inception_4a/relu_5x5
I1216 23:02:15.398540 18693 net.cpp:380] inception_4a/relu_5x5 <- inception_4a/5x5
I1216 23:02:15.398548 18693 net.cpp:327] inception_4a/relu_5x5 -> inception_4a/5x5 (in-place)
I1216 23:02:15.398555 18693 net.cpp:113] Setting up inception_4a/relu_5x5
I1216 23:02:15.398800 18693 net.cpp:120] Top shape: 80 48 14 14 (752640)
I1216 23:02:15.398813 18693 layer_factory.hpp:74] Creating layer inception_4a/pool
I1216 23:02:15.398819 18693 layer_factory.cpp:56] CUDNN does not support padding or multiple tops. Using Caffe's own pooling layer.
I1216 23:02:15.398825 18693 net.cpp:84] Creating Layer inception_4a/pool
I1216 23:02:15.398830 18693 net.cpp:380] inception_4a/pool <- pool3/3x3_s2_pool3/3x3_s2_0_split_3
I1216 23:02:15.398839 18693 net.cpp:338] inception_4a/pool -> inception_4a/pool
I1216 23:02:15.398847 18693 net.cpp:113] Setting up inception_4a/pool
I1216 23:02:15.398861 18693 net.cpp:120] Top shape: 80 480 14 14 (7526400)
I1216 23:02:15.398874 18693 layer_factory.hpp:74] Creating layer inception_4a/pool_proj
I1216 23:02:15.398891 18693 net.cpp:84] Creating Layer inception_4a/pool_proj
I1216 23:02:15.398897 18693 net.cpp:380] inception_4a/pool_proj <- inception_4a/pool
I1216 23:02:15.398906 18693 net.cpp:338] inception_4a/pool_proj -> inception_4a/pool_proj
I1216 23:02:15.398915 18693 net.cpp:113] Setting up inception_4a/pool_proj
I1216 23:02:15.399688 18693 net.cpp:120] Top shape: 80 64 14 14 (1003520)
I1216 23:02:15.399704 18693 layer_factory.hpp:74] Creating layer inception_4a/relu_pool_proj
I1216 23:02:15.399720 18693 net.cpp:84] Creating Layer inception_4a/relu_pool_proj
I1216 23:02:15.399726 18693 net.cpp:380] inception_4a/relu_pool_proj <- inception_4a/pool_proj
I1216 23:02:15.399734 18693 net.cpp:327] inception_4a/relu_pool_proj -> inception_4a/pool_proj (in-place)
I1216 23:02:15.399741 18693 net.cpp:113] Setting up inception_4a/relu_pool_proj
I1216 23:02:15.399812 18693 net.cpp:120] Top shape: 80 64 14 14 (1003520)
I1216 23:02:15.399819 18693 layer_factory.hpp:74] Creating layer inception_4a/output
I1216 23:02:15.399827 18693 net.cpp:84] Creating Layer inception_4a/output
I1216 23:02:15.399830 18693 net.cpp:380] inception_4a/output <- inception_4a/1x1
I1216 23:02:15.399837 18693 net.cpp:380] inception_4a/output <- inception_4a/3x3
I1216 23:02:15.399844 18693 net.cpp:380] inception_4a/output <- inception_4a/5x5
I1216 23:02:15.399849 18693 net.cpp:380] inception_4a/output <- inception_4a/pool_proj
I1216 23:02:15.399855 18693 net.cpp:338] inception_4a/output -> inception_4a/output
I1216 23:02:15.399863 18693 net.cpp:113] Setting up inception_4a/output
I1216 23:02:15.399869 18693 net.cpp:120] Top shape: 80 512 14 14 (8028160)
I1216 23:02:15.399874 18693 layer_factory.hpp:74] Creating layer inception_4a/output_inception_4a/output_0_split
I1216 23:02:15.399880 18693 net.cpp:84] Creating Layer inception_4a/output_inception_4a/output_0_split
I1216 23:02:15.399884 18693 net.cpp:380] inception_4a/output_inception_4a/output_0_split <- inception_4a/output
I1216 23:02:15.399890 18693 net.cpp:338] inception_4a/output_inception_4a/output_0_split -> inception_4a/output_inception_4a/output_0_split_0
I1216 23:02:15.399899 18693 net.cpp:338] inception_4a/output_inception_4a/output_0_split -> inception_4a/output_inception_4a/output_0_split_1
I1216 23:02:15.399907 18693 net.cpp:338] inception_4a/output_inception_4a/output_0_split -> inception_4a/output_inception_4a/output_0_split_2
I1216 23:02:15.399914 18693 net.cpp:338] inception_4a/output_inception_4a/output_0_split -> inception_4a/output_inception_4a/output_0_split_3
I1216 23:02:15.399920 18693 net.cpp:338] inception_4a/output_inception_4a/output_0_split -> inception_4a/output_inception_4a/output_0_split_4
I1216 23:02:15.399927 18693 net.cpp:113] Setting up inception_4a/output_inception_4a/output_0_split
I1216 23:02:15.399935 18693 net.cpp:120] Top shape: 80 512 14 14 (8028160)
I1216 23:02:15.399940 18693 net.cpp:120] Top shape: 80 512 14 14 (8028160)
I1216 23:02:15.399945 18693 net.cpp:120] Top shape: 80 512 14 14 (8028160)
I1216 23:02:15.399950 18693 net.cpp:120] Top shape: 80 512 14 14 (8028160)
I1216 23:02:15.399955 18693 net.cpp:120] Top shape: 80 512 14 14 (8028160)
I1216 23:02:15.399958 18693 layer_factory.hpp:74] Creating layer loss1/ave_pool
I1216 23:02:15.399976 18693 net.cpp:84] Creating Layer loss1/ave_pool
I1216 23:02:15.399981 18693 net.cpp:380] loss1/ave_pool <- inception_4a/output_inception_4a/output_0_split_0
I1216 23:02:15.399987 18693 net.cpp:338] loss1/ave_pool -> loss1/ave_pool
I1216 23:02:15.399994 18693 net.cpp:113] Setting up loss1/ave_pool
I1216 23:02:15.400064 18693 net.cpp:120] Top shape: 80 512 4 4 (655360)
I1216 23:02:15.400070 18693 layer_factory.hpp:74] Creating layer loss1/conv
I1216 23:02:15.400077 18693 net.cpp:84] Creating Layer loss1/conv
I1216 23:02:15.400082 18693 net.cpp:380] loss1/conv <- loss1/ave_pool
I1216 23:02:15.400090 18693 net.cpp:338] loss1/conv -> loss1/conv
I1216 23:02:15.400104 18693 net.cpp:113] Setting up loss1/conv
I1216 23:02:15.401298 18693 net.cpp:120] Top shape: 80 128 4 4 (163840)
I1216 23:02:15.401326 18693 layer_factory.hpp:74] Creating layer loss1/relu_conv
I1216 23:02:15.401335 18693 net.cpp:84] Creating Layer loss1/relu_conv
I1216 23:02:15.401340 18693 net.cpp:380] loss1/relu_conv <- loss1/conv
I1216 23:02:15.401346 18693 net.cpp:327] loss1/relu_conv -> loss1/conv (in-place)
I1216 23:02:15.401355 18693 net.cpp:113] Setting up loss1/relu_conv
I1216 23:02:15.401423 18693 net.cpp:120] Top shape: 80 128 4 4 (163840)
I1216 23:02:15.401430 18693 layer_factory.hpp:74] Creating layer loss1/fc
I1216 23:02:15.401438 18693 net.cpp:84] Creating Layer loss1/fc
I1216 23:02:15.401443 18693 net.cpp:380] loss1/fc <- loss1/conv
I1216 23:02:15.401449 18693 net.cpp:338] loss1/fc -> loss1/fc
I1216 23:02:15.401460 18693 net.cpp:113] Setting up loss1/fc
I1216 23:02:15.478046 18693 net.cpp:120] Top shape: 80 1024 (81920)
I1216 23:02:15.478081 18693 layer_factory.hpp:74] Creating layer loss1/relu_fc
I1216 23:02:15.478111 18693 net.cpp:84] Creating Layer loss1/relu_fc
I1216 23:02:15.478121 18693 net.cpp:380] loss1/relu_fc <- loss1/fc
I1216 23:02:15.478132 18693 net.cpp:327] loss1/relu_fc -> loss1/fc (in-place)
I1216 23:02:15.478142 18693 net.cpp:113] Setting up loss1/relu_fc
I1216 23:02:15.478572 18693 net.cpp:120] Top shape: 80 1024 (81920)
I1216 23:02:15.478585 18693 layer_factory.hpp:74] Creating layer loss1/drop_fc
I1216 23:02:15.478603 18693 net.cpp:84] Creating Layer loss1/drop_fc
I1216 23:02:15.478610 18693 net.cpp:380] loss1/drop_fc <- loss1/fc
I1216 23:02:15.478618 18693 net.cpp:327] loss1/drop_fc -> loss1/fc (in-place)
I1216 23:02:15.478628 18693 net.cpp:113] Setting up loss1/drop_fc
I1216 23:02:15.478639 18693 net.cpp:120] Top shape: 80 1024 (81920)
I1216 23:02:15.478644 18693 layer_factory.hpp:74] Creating layer loss1/classifier_kaggle
I1216 23:02:15.478665 18693 net.cpp:84] Creating Layer loss1/classifier_kaggle
I1216 23:02:15.478670 18693 net.cpp:380] loss1/classifier_kaggle <- loss1/fc
I1216 23:02:15.478679 18693 net.cpp:338] loss1/classifier_kaggle -> loss1/classifier_kaggle
I1216 23:02:15.478693 18693 net.cpp:113] Setting up loss1/classifier_kaggle
I1216 23:02:15.483971 18693 net.cpp:120] Top shape: 80 447 (35760)
I1216 23:02:15.483985 18693 layer_factory.hpp:74] Creating layer loss1/loss
I1216 23:02:15.484005 18693 net.cpp:84] Creating Layer loss1/loss
I1216 23:02:15.484014 18693 net.cpp:380] loss1/loss <- loss1/classifier_kaggle
I1216 23:02:15.484020 18693 net.cpp:380] loss1/loss <- label_data_1_split_0
I1216 23:02:15.484027 18693 net.cpp:338] loss1/loss -> loss1/loss1
I1216 23:02:15.484035 18693 net.cpp:113] Setting up loss1/loss
I1216 23:02:15.484045 18693 layer_factory.hpp:74] Creating layer loss1/loss
I1216 23:02:15.484215 18693 net.cpp:120] Top shape: (1)
I1216 23:02:15.484222 18693 net.cpp:122]     with loss weight 0.3
I1216 23:02:15.484243 18693 layer_factory.hpp:74] Creating layer inception_4b/1x1
I1216 23:02:15.484264 18693 net.cpp:84] Creating Layer inception_4b/1x1
I1216 23:02:15.484271 18693 net.cpp:380] inception_4b/1x1 <- inception_4a/output_inception_4a/output_0_split_1
I1216 23:02:15.484277 18693 net.cpp:338] inception_4b/1x1 -> inception_4b/1x1
I1216 23:02:15.484287 18693 net.cpp:113] Setting up inception_4b/1x1
I1216 23:02:15.485692 18693 net.cpp:120] Top shape: 80 160 14 14 (2508800)
I1216 23:02:15.485709 18693 layer_factory.hpp:74] Creating layer inception_4b/relu_1x1
I1216 23:02:15.485718 18693 net.cpp:84] Creating Layer inception_4b/relu_1x1
I1216 23:02:15.485723 18693 net.cpp:380] inception_4b/relu_1x1 <- inception_4b/1x1
I1216 23:02:15.485733 18693 net.cpp:327] inception_4b/relu_1x1 -> inception_4b/1x1 (in-place)
I1216 23:02:15.485740 18693 net.cpp:113] Setting up inception_4b/relu_1x1
I1216 23:02:15.485817 18693 net.cpp:120] Top shape: 80 160 14 14 (2508800)
I1216 23:02:15.485826 18693 layer_factory.hpp:74] Creating layer inception_4b/3x3_reduce
I1216 23:02:15.485836 18693 net.cpp:84] Creating Layer inception_4b/3x3_reduce
I1216 23:02:15.485852 18693 net.cpp:380] inception_4b/3x3_reduce <- inception_4a/output_inception_4a/output_0_split_2
I1216 23:02:15.485872 18693 net.cpp:338] inception_4b/3x3_reduce -> inception_4b/3x3_reduce
I1216 23:02:15.485882 18693 net.cpp:113] Setting up inception_4b/3x3_reduce
I1216 23:02:15.486956 18693 net.cpp:120] Top shape: 80 112 14 14 (1756160)
I1216 23:02:15.486982 18693 layer_factory.hpp:74] Creating layer inception_4b/relu_3x3_reduce
I1216 23:02:15.486999 18693 net.cpp:84] Creating Layer inception_4b/relu_3x3_reduce
I1216 23:02:15.487005 18693 net.cpp:380] inception_4b/relu_3x3_reduce <- inception_4b/3x3_reduce
I1216 23:02:15.487012 18693 net.cpp:327] inception_4b/relu_3x3_reduce -> inception_4b/3x3_reduce (in-place)
I1216 23:02:15.487020 18693 net.cpp:113] Setting up inception_4b/relu_3x3_reduce
I1216 23:02:15.487088 18693 net.cpp:120] Top shape: 80 112 14 14 (1756160)
I1216 23:02:15.487095 18693 layer_factory.hpp:74] Creating layer inception_4b/3x3
I1216 23:02:15.487104 18693 net.cpp:84] Creating Layer inception_4b/3x3
I1216 23:02:15.487109 18693 net.cpp:380] inception_4b/3x3 <- inception_4b/3x3_reduce
I1216 23:02:15.487118 18693 net.cpp:338] inception_4b/3x3 -> inception_4b/3x3
I1216 23:02:15.487126 18693 net.cpp:113] Setting up inception_4b/3x3
I1216 23:02:15.490140 18693 net.cpp:120] Top shape: 80 224 14 14 (3512320)
I1216 23:02:15.490159 18693 layer_factory.hpp:74] Creating layer inception_4b/relu_3x3
I1216 23:02:15.490165 18693 net.cpp:84] Creating Layer inception_4b/relu_3x3
I1216 23:02:15.490170 18693 net.cpp:380] inception_4b/relu_3x3 <- inception_4b/3x3
I1216 23:02:15.490177 18693 net.cpp:327] inception_4b/relu_3x3 -> inception_4b/3x3 (in-place)
I1216 23:02:15.490185 18693 net.cpp:113] Setting up inception_4b/relu_3x3
I1216 23:02:15.490430 18693 net.cpp:120] Top shape: 80 224 14 14 (3512320)
I1216 23:02:15.490442 18693 layer_factory.hpp:74] Creating layer inception_4b/5x5_reduce
I1216 23:02:15.490452 18693 net.cpp:84] Creating Layer inception_4b/5x5_reduce
I1216 23:02:15.490458 18693 net.cpp:380] inception_4b/5x5_reduce <- inception_4a/output_inception_4a/output_0_split_3
I1216 23:02:15.490464 18693 net.cpp:338] inception_4b/5x5_reduce -> inception_4b/5x5_reduce
I1216 23:02:15.490473 18693 net.cpp:113] Setting up inception_4b/5x5_reduce
I1216 23:02:15.491037 18693 net.cpp:120] Top shape: 80 24 14 14 (376320)
I1216 23:02:15.491063 18693 layer_factory.hpp:74] Creating layer inception_4b/relu_5x5_reduce
I1216 23:02:15.491080 18693 net.cpp:84] Creating Layer inception_4b/relu_5x5_reduce
I1216 23:02:15.491086 18693 net.cpp:380] inception_4b/relu_5x5_reduce <- inception_4b/5x5_reduce
I1216 23:02:15.491092 18693 net.cpp:327] inception_4b/relu_5x5_reduce -> inception_4b/5x5_reduce (in-place)
I1216 23:02:15.491099 18693 net.cpp:113] Setting up inception_4b/relu_5x5_reduce
I1216 23:02:15.491178 18693 net.cpp:120] Top shape: 80 24 14 14 (376320)
I1216 23:02:15.491183 18693 layer_factory.hpp:74] Creating layer inception_4b/5x5
I1216 23:02:15.491191 18693 net.cpp:84] Creating Layer inception_4b/5x5
I1216 23:02:15.491196 18693 net.cpp:380] inception_4b/5x5 <- inception_4b/5x5_reduce
I1216 23:02:15.491204 18693 net.cpp:338] inception_4b/5x5 -> inception_4b/5x5
I1216 23:02:15.491212 18693 net.cpp:113] Setting up inception_4b/5x5
I1216 23:02:15.492065 18693 net.cpp:120] Top shape: 80 64 14 14 (1003520)
I1216 23:02:15.492082 18693 layer_factory.hpp:74] Creating layer inception_4b/relu_5x5
I1216 23:02:15.492090 18693 net.cpp:84] Creating Layer inception_4b/relu_5x5
I1216 23:02:15.492095 18693 net.cpp:380] inception_4b/relu_5x5 <- inception_4b/5x5
I1216 23:02:15.492101 18693 net.cpp:327] inception_4b/relu_5x5 -> inception_4b/5x5 (in-place)
I1216 23:02:15.492110 18693 net.cpp:113] Setting up inception_4b/relu_5x5
I1216 23:02:15.492179 18693 net.cpp:120] Top shape: 80 64 14 14 (1003520)
I1216 23:02:15.492188 18693 layer_factory.hpp:74] Creating layer inception_4b/pool
I1216 23:02:15.492200 18693 layer_factory.cpp:56] CUDNN does not support padding or multiple tops. Using Caffe's own pooling layer.
I1216 23:02:15.492207 18693 net.cpp:84] Creating Layer inception_4b/pool
I1216 23:02:15.492225 18693 net.cpp:380] inception_4b/pool <- inception_4a/output_inception_4a/output_0_split_4
I1216 23:02:15.492234 18693 net.cpp:338] inception_4b/pool -> inception_4b/pool
I1216 23:02:15.492252 18693 net.cpp:113] Setting up inception_4b/pool
I1216 23:02:15.492262 18693 net.cpp:120] Top shape: 80 512 14 14 (8028160)
I1216 23:02:15.492267 18693 layer_factory.hpp:74] Creating layer inception_4b/pool_proj
I1216 23:02:15.492281 18693 net.cpp:84] Creating Layer inception_4b/pool_proj
I1216 23:02:15.492286 18693 net.cpp:380] inception_4b/pool_proj <- inception_4b/pool
I1216 23:02:15.492295 18693 net.cpp:338] inception_4b/pool_proj -> inception_4b/pool_proj
I1216 23:02:15.492303 18693 net.cpp:113] Setting up inception_4b/pool_proj
I1216 23:02:15.493098 18693 net.cpp:120] Top shape: 80 64 14 14 (1003520)
I1216 23:02:15.493114 18693 layer_factory.hpp:74] Creating layer inception_4b/relu_pool_proj
I1216 23:02:15.493124 18693 net.cpp:84] Creating Layer inception_4b/relu_pool_proj
I1216 23:02:15.493129 18693 net.cpp:380] inception_4b/relu_pool_proj <- inception_4b/pool_proj
I1216 23:02:15.493136 18693 net.cpp:327] inception_4b/relu_pool_proj -> inception_4b/pool_proj (in-place)
I1216 23:02:15.493144 18693 net.cpp:113] Setting up inception_4b/relu_pool_proj
I1216 23:02:15.493396 18693 net.cpp:120] Top shape: 80 64 14 14 (1003520)
I1216 23:02:15.493408 18693 layer_factory.hpp:74] Creating layer inception_4b/output
I1216 23:02:15.493417 18693 net.cpp:84] Creating Layer inception_4b/output
I1216 23:02:15.493423 18693 net.cpp:380] inception_4b/output <- inception_4b/1x1
I1216 23:02:15.493429 18693 net.cpp:380] inception_4b/output <- inception_4b/3x3
I1216 23:02:15.493434 18693 net.cpp:380] inception_4b/output <- inception_4b/5x5
I1216 23:02:15.493439 18693 net.cpp:380] inception_4b/output <- inception_4b/pool_proj
I1216 23:02:15.493445 18693 net.cpp:338] inception_4b/output -> inception_4b/output
I1216 23:02:15.493453 18693 net.cpp:113] Setting up inception_4b/output
I1216 23:02:15.493463 18693 net.cpp:120] Top shape: 80 512 14 14 (8028160)
I1216 23:02:15.493466 18693 layer_factory.hpp:74] Creating layer inception_4b/output_inception_4b/output_0_split
I1216 23:02:15.493474 18693 net.cpp:84] Creating Layer inception_4b/output_inception_4b/output_0_split
I1216 23:02:15.493479 18693 net.cpp:380] inception_4b/output_inception_4b/output_0_split <- inception_4b/output
I1216 23:02:15.493485 18693 net.cpp:338] inception_4b/output_inception_4b/output_0_split -> inception_4b/output_inception_4b/output_0_split_0
I1216 23:02:15.493494 18693 net.cpp:338] inception_4b/output_inception_4b/output_0_split -> inception_4b/output_inception_4b/output_0_split_1
I1216 23:02:15.493500 18693 net.cpp:338] inception_4b/output_inception_4b/output_0_split -> inception_4b/output_inception_4b/output_0_split_2
I1216 23:02:15.493507 18693 net.cpp:338] inception_4b/output_inception_4b/output_0_split -> inception_4b/output_inception_4b/output_0_split_3
I1216 23:02:15.493513 18693 net.cpp:113] Setting up inception_4b/output_inception_4b/output_0_split
I1216 23:02:15.493521 18693 net.cpp:120] Top shape: 80 512 14 14 (8028160)
I1216 23:02:15.493526 18693 net.cpp:120] Top shape: 80 512 14 14 (8028160)
I1216 23:02:15.493531 18693 net.cpp:120] Top shape: 80 512 14 14 (8028160)
I1216 23:02:15.493536 18693 net.cpp:120] Top shape: 80 512 14 14 (8028160)
I1216 23:02:15.493541 18693 layer_factory.hpp:74] Creating layer inception_4c/1x1
I1216 23:02:15.493558 18693 net.cpp:84] Creating Layer inception_4c/1x1
I1216 23:02:15.493564 18693 net.cpp:380] inception_4c/1x1 <- inception_4b/output_inception_4b/output_0_split_0
I1216 23:02:15.493572 18693 net.cpp:338] inception_4c/1x1 -> inception_4c/1x1
I1216 23:02:15.493580 18693 net.cpp:113] Setting up inception_4c/1x1
I1216 23:02:15.500104 18693 net.cpp:120] Top shape: 80 128 14 14 (2007040)
I1216 23:02:15.500128 18693 layer_factory.hpp:74] Creating layer inception_4c/relu_1x1
I1216 23:02:15.500138 18693 net.cpp:84] Creating Layer inception_4c/relu_1x1
I1216 23:02:15.500144 18693 net.cpp:380] inception_4c/relu_1x1 <- inception_4c/1x1
I1216 23:02:15.500161 18693 net.cpp:327] inception_4c/relu_1x1 -> inception_4c/1x1 (in-place)
I1216 23:02:15.500169 18693 net.cpp:113] Setting up inception_4c/relu_1x1
I1216 23:02:15.500242 18693 net.cpp:120] Top shape: 80 128 14 14 (2007040)
I1216 23:02:15.500250 18693 layer_factory.hpp:74] Creating layer inception_4c/3x3_reduce
I1216 23:02:15.500257 18693 net.cpp:84] Creating Layer inception_4c/3x3_reduce
I1216 23:02:15.500262 18693 net.cpp:380] inception_4c/3x3_reduce <- inception_4b/output_inception_4b/output_0_split_1
I1216 23:02:15.500272 18693 net.cpp:338] inception_4c/3x3_reduce -> inception_4c/3x3_reduce
I1216 23:02:15.500280 18693 net.cpp:113] Setting up inception_4c/3x3_reduce
I1216 23:02:15.501458 18693 net.cpp:120] Top shape: 80 128 14 14 (2007040)
I1216 23:02:15.501483 18693 layer_factory.hpp:74] Creating layer inception_4c/relu_3x3_reduce
I1216 23:02:15.501499 18693 net.cpp:84] Creating Layer inception_4c/relu_3x3_reduce
I1216 23:02:15.501505 18693 net.cpp:380] inception_4c/relu_3x3_reduce <- inception_4c/3x3_reduce
I1216 23:02:15.501514 18693 net.cpp:327] inception_4c/relu_3x3_reduce -> inception_4c/3x3_reduce (in-place)
I1216 23:02:15.501523 18693 net.cpp:113] Setting up inception_4c/relu_3x3_reduce
I1216 23:02:15.501595 18693 net.cpp:120] Top shape: 80 128 14 14 (2007040)
I1216 23:02:15.501602 18693 layer_factory.hpp:74] Creating layer inception_4c/3x3
I1216 23:02:15.501612 18693 net.cpp:84] Creating Layer inception_4c/3x3
I1216 23:02:15.501617 18693 net.cpp:380] inception_4c/3x3 <- inception_4c/3x3_reduce
I1216 23:02:15.501623 18693 net.cpp:338] inception_4c/3x3 -> inception_4c/3x3
I1216 23:02:15.501631 18693 net.cpp:113] Setting up inception_4c/3x3
I1216 23:02:15.505436 18693 net.cpp:120] Top shape: 80 256 14 14 (4014080)
I1216 23:02:15.505465 18693 layer_factory.hpp:74] Creating layer inception_4c/relu_3x3
I1216 23:02:15.505475 18693 net.cpp:84] Creating Layer inception_4c/relu_3x3
I1216 23:02:15.505481 18693 net.cpp:380] inception_4c/relu_3x3 <- inception_4c/3x3
I1216 23:02:15.505487 18693 net.cpp:327] inception_4c/relu_3x3 -> inception_4c/3x3 (in-place)
I1216 23:02:15.505496 18693 net.cpp:113] Setting up inception_4c/relu_3x3
I1216 23:02:15.505569 18693 net.cpp:120] Top shape: 80 256 14 14 (4014080)
I1216 23:02:15.505584 18693 layer_factory.hpp:74] Creating layer inception_4c/5x5_reduce
I1216 23:02:15.505599 18693 net.cpp:84] Creating Layer inception_4c/5x5_reduce
I1216 23:02:15.505604 18693 net.cpp:380] inception_4c/5x5_reduce <- inception_4b/output_inception_4b/output_0_split_2
I1216 23:02:15.505614 18693 net.cpp:338] inception_4c/5x5_reduce -> inception_4c/5x5_reduce
I1216 23:02:15.505622 18693 net.cpp:113] Setting up inception_4c/5x5_reduce
I1216 23:02:15.506183 18693 net.cpp:120] Top shape: 80 24 14 14 (376320)
I1216 23:02:15.506199 18693 layer_factory.hpp:74] Creating layer inception_4c/relu_5x5_reduce
I1216 23:02:15.506206 18693 net.cpp:84] Creating Layer inception_4c/relu_5x5_reduce
I1216 23:02:15.506211 18693 net.cpp:380] inception_4c/relu_5x5_reduce <- inception_4c/5x5_reduce
I1216 23:02:15.506218 18693 net.cpp:327] inception_4c/relu_5x5_reduce -> inception_4c/5x5_reduce (in-place)
I1216 23:02:15.506227 18693 net.cpp:113] Setting up inception_4c/relu_5x5_reduce
I1216 23:02:15.506475 18693 net.cpp:120] Top shape: 80 24 14 14 (376320)
I1216 23:02:15.506487 18693 layer_factory.hpp:74] Creating layer inception_4c/5x5
I1216 23:02:15.506500 18693 net.cpp:84] Creating Layer inception_4c/5x5
I1216 23:02:15.506505 18693 net.cpp:380] inception_4c/5x5 <- inception_4c/5x5_reduce
I1216 23:02:15.506515 18693 net.cpp:338] inception_4c/5x5 -> inception_4c/5x5
I1216 23:02:15.506523 18693 net.cpp:113] Setting up inception_4c/5x5
I1216 23:02:15.507372 18693 net.cpp:120] Top shape: 80 64 14 14 (1003520)
I1216 23:02:15.507387 18693 layer_factory.hpp:74] Creating layer inception_4c/relu_5x5
I1216 23:02:15.507402 18693 net.cpp:84] Creating Layer inception_4c/relu_5x5
I1216 23:02:15.507408 18693 net.cpp:380] inception_4c/relu_5x5 <- inception_4c/5x5
I1216 23:02:15.507421 18693 net.cpp:327] inception_4c/relu_5x5 -> inception_4c/5x5 (in-place)
I1216 23:02:15.507436 18693 net.cpp:113] Setting up inception_4c/relu_5x5
I1216 23:02:15.507509 18693 net.cpp:120] Top shape: 80 64 14 14 (1003520)
I1216 23:02:15.507515 18693 layer_factory.hpp:74] Creating layer inception_4c/pool
I1216 23:02:15.507526 18693 layer_factory.cpp:56] CUDNN does not support padding or multiple tops. Using Caffe's own pooling layer.
I1216 23:02:15.507534 18693 net.cpp:84] Creating Layer inception_4c/pool
I1216 23:02:15.507539 18693 net.cpp:380] inception_4c/pool <- inception_4b/output_inception_4b/output_0_split_3
I1216 23:02:15.507549 18693 net.cpp:338] inception_4c/pool -> inception_4c/pool
I1216 23:02:15.507556 18693 net.cpp:113] Setting up inception_4c/pool
I1216 23:02:15.507565 18693 net.cpp:120] Top shape: 80 512 14 14 (8028160)
I1216 23:02:15.507570 18693 layer_factory.hpp:74] Creating layer inception_4c/pool_proj
I1216 23:02:15.507577 18693 net.cpp:84] Creating Layer inception_4c/pool_proj
I1216 23:02:15.507581 18693 net.cpp:380] inception_4c/pool_proj <- inception_4c/pool
I1216 23:02:15.507591 18693 net.cpp:338] inception_4c/pool_proj -> inception_4c/pool_proj
I1216 23:02:15.507598 18693 net.cpp:113] Setting up inception_4c/pool_proj
I1216 23:02:15.508386 18693 net.cpp:120] Top shape: 80 64 14 14 (1003520)
I1216 23:02:15.508402 18693 layer_factory.hpp:74] Creating layer inception_4c/relu_pool_proj
I1216 23:02:15.508409 18693 net.cpp:84] Creating Layer inception_4c/relu_pool_proj
I1216 23:02:15.508414 18693 net.cpp:380] inception_4c/relu_pool_proj <- inception_4c/pool_proj
I1216 23:02:15.508424 18693 net.cpp:327] inception_4c/relu_pool_proj -> inception_4c/pool_proj (in-place)
I1216 23:02:15.508431 18693 net.cpp:113] Setting up inception_4c/relu_pool_proj
I1216 23:02:15.508502 18693 net.cpp:120] Top shape: 80 64 14 14 (1003520)
I1216 23:02:15.508508 18693 layer_factory.hpp:74] Creating layer inception_4c/output
I1216 23:02:15.508522 18693 net.cpp:84] Creating Layer inception_4c/output
I1216 23:02:15.508527 18693 net.cpp:380] inception_4c/output <- inception_4c/1x1
I1216 23:02:15.508533 18693 net.cpp:380] inception_4c/output <- inception_4c/3x3
I1216 23:02:15.508539 18693 net.cpp:380] inception_4c/output <- inception_4c/5x5
I1216 23:02:15.508544 18693 net.cpp:380] inception_4c/output <- inception_4c/pool_proj
I1216 23:02:15.508550 18693 net.cpp:338] inception_4c/output -> inception_4c/output
I1216 23:02:15.508558 18693 net.cpp:113] Setting up inception_4c/output
I1216 23:02:15.508564 18693 net.cpp:120] Top shape: 80 512 14 14 (8028160)
I1216 23:02:15.508569 18693 layer_factory.hpp:74] Creating layer inception_4c/output_inception_4c/output_0_split
I1216 23:02:15.508579 18693 net.cpp:84] Creating Layer inception_4c/output_inception_4c/output_0_split
I1216 23:02:15.508584 18693 net.cpp:380] inception_4c/output_inception_4c/output_0_split <- inception_4c/output
I1216 23:02:15.508592 18693 net.cpp:338] inception_4c/output_inception_4c/output_0_split -> inception_4c/output_inception_4c/output_0_split_0
I1216 23:02:15.508600 18693 net.cpp:338] inception_4c/output_inception_4c/output_0_split -> inception_4c/output_inception_4c/output_0_split_1
I1216 23:02:15.508607 18693 net.cpp:338] inception_4c/output_inception_4c/output_0_split -> inception_4c/output_inception_4c/output_0_split_2
I1216 23:02:15.508615 18693 net.cpp:338] inception_4c/output_inception_4c/output_0_split -> inception_4c/output_inception_4c/output_0_split_3
I1216 23:02:15.508621 18693 net.cpp:113] Setting up inception_4c/output_inception_4c/output_0_split
I1216 23:02:15.508630 18693 net.cpp:120] Top shape: 80 512 14 14 (8028160)
I1216 23:02:15.508635 18693 net.cpp:120] Top shape: 80 512 14 14 (8028160)
I1216 23:02:15.508641 18693 net.cpp:120] Top shape: 80 512 14 14 (8028160)
I1216 23:02:15.508646 18693 net.cpp:120] Top shape: 80 512 14 14 (8028160)
I1216 23:02:15.508649 18693 layer_factory.hpp:74] Creating layer inception_4d/1x1
I1216 23:02:15.508656 18693 net.cpp:84] Creating Layer inception_4d/1x1
I1216 23:02:15.508661 18693 net.cpp:380] inception_4d/1x1 <- inception_4c/output_inception_4c/output_0_split_0
I1216 23:02:15.508680 18693 net.cpp:338] inception_4d/1x1 -> inception_4d/1x1
I1216 23:02:15.508688 18693 net.cpp:113] Setting up inception_4d/1x1
I1216 23:02:15.509773 18693 net.cpp:120] Top shape: 80 112 14 14 (1756160)
I1216 23:02:15.509789 18693 layer_factory.hpp:74] Creating layer inception_4d/relu_1x1
I1216 23:02:15.509798 18693 net.cpp:84] Creating Layer inception_4d/relu_1x1
I1216 23:02:15.509802 18693 net.cpp:380] inception_4d/relu_1x1 <- inception_4d/1x1
I1216 23:02:15.509809 18693 net.cpp:327] inception_4d/relu_1x1 -> inception_4d/1x1 (in-place)
I1216 23:02:15.509816 18693 net.cpp:113] Setting up inception_4d/relu_1x1
I1216 23:02:15.509886 18693 net.cpp:120] Top shape: 80 112 14 14 (1756160)
I1216 23:02:15.509893 18693 layer_factory.hpp:74] Creating layer inception_4d/3x3_reduce
I1216 23:02:15.509907 18693 net.cpp:84] Creating Layer inception_4d/3x3_reduce
I1216 23:02:15.509915 18693 net.cpp:380] inception_4d/3x3_reduce <- inception_4c/output_inception_4c/output_0_split_1
I1216 23:02:15.509924 18693 net.cpp:338] inception_4d/3x3_reduce -> inception_4d/3x3_reduce
I1216 23:02:15.509933 18693 net.cpp:113] Setting up inception_4d/3x3_reduce
I1216 23:02:15.511204 18693 net.cpp:120] Top shape: 80 144 14 14 (2257920)
I1216 23:02:15.511220 18693 layer_factory.hpp:74] Creating layer inception_4d/relu_3x3_reduce
I1216 23:02:15.511227 18693 net.cpp:84] Creating Layer inception_4d/relu_3x3_reduce
I1216 23:02:15.511232 18693 net.cpp:380] inception_4d/relu_3x3_reduce <- inception_4d/3x3_reduce
I1216 23:02:15.511240 18693 net.cpp:327] inception_4d/relu_3x3_reduce -> inception_4d/3x3_reduce (in-place)
I1216 23:02:15.511247 18693 net.cpp:113] Setting up inception_4d/relu_3x3_reduce
I1216 23:02:15.511498 18693 net.cpp:120] Top shape: 80 144 14 14 (2257920)
I1216 23:02:15.511515 18693 layer_factory.hpp:74] Creating layer inception_4d/3x3
I1216 23:02:15.511524 18693 net.cpp:84] Creating Layer inception_4d/3x3
I1216 23:02:15.511529 18693 net.cpp:380] inception_4d/3x3 <- inception_4d/3x3_reduce
I1216 23:02:15.511539 18693 net.cpp:338] inception_4d/3x3 -> inception_4d/3x3
I1216 23:02:15.511548 18693 net.cpp:113] Setting up inception_4d/3x3
I1216 23:02:15.516762 18693 net.cpp:120] Top shape: 80 288 14 14 (4515840)
I1216 23:02:15.516779 18693 layer_factory.hpp:74] Creating layer inception_4d/relu_3x3
I1216 23:02:15.516790 18693 net.cpp:84] Creating Layer inception_4d/relu_3x3
I1216 23:02:15.516796 18693 net.cpp:380] inception_4d/relu_3x3 <- inception_4d/3x3
I1216 23:02:15.516803 18693 net.cpp:327] inception_4d/relu_3x3 -> inception_4d/3x3 (in-place)
I1216 23:02:15.516810 18693 net.cpp:113] Setting up inception_4d/relu_3x3
I1216 23:02:15.516880 18693 net.cpp:120] Top shape: 80 288 14 14 (4515840)
I1216 23:02:15.516886 18693 layer_factory.hpp:74] Creating layer inception_4d/5x5_reduce
I1216 23:02:15.516902 18693 net.cpp:84] Creating Layer inception_4d/5x5_reduce
I1216 23:02:15.516908 18693 net.cpp:380] inception_4d/5x5_reduce <- inception_4c/output_inception_4c/output_0_split_2
I1216 23:02:15.516916 18693 net.cpp:338] inception_4d/5x5_reduce -> inception_4d/5x5_reduce
I1216 23:02:15.516923 18693 net.cpp:113] Setting up inception_4d/5x5_reduce
I1216 23:02:15.517539 18693 net.cpp:120] Top shape: 80 32 14 14 (501760)
I1216 23:02:15.517556 18693 layer_factory.hpp:74] Creating layer inception_4d/relu_5x5_reduce
I1216 23:02:15.517563 18693 net.cpp:84] Creating Layer inception_4d/relu_5x5_reduce
I1216 23:02:15.517570 18693 net.cpp:380] inception_4d/relu_5x5_reduce <- inception_4d/5x5_reduce
I1216 23:02:15.517577 18693 net.cpp:327] inception_4d/relu_5x5_reduce -> inception_4d/5x5_reduce (in-place)
I1216 23:02:15.517585 18693 net.cpp:113] Setting up inception_4d/relu_5x5_reduce
I1216 23:02:15.517652 18693 net.cpp:120] Top shape: 80 32 14 14 (501760)
I1216 23:02:15.517659 18693 layer_factory.hpp:74] Creating layer inception_4d/5x5
I1216 23:02:15.517673 18693 net.cpp:84] Creating Layer inception_4d/5x5
I1216 23:02:15.517679 18693 net.cpp:380] inception_4d/5x5 <- inception_4d/5x5_reduce
I1216 23:02:15.517693 18693 net.cpp:338] inception_4d/5x5 -> inception_4d/5x5
I1216 23:02:15.517709 18693 net.cpp:113] Setting up inception_4d/5x5
I1216 23:02:15.518712 18693 net.cpp:120] Top shape: 80 64 14 14 (1003520)
I1216 23:02:15.518728 18693 layer_factory.hpp:74] Creating layer inception_4d/relu_5x5
I1216 23:02:15.518741 18693 net.cpp:84] Creating Layer inception_4d/relu_5x5
I1216 23:02:15.518746 18693 net.cpp:380] inception_4d/relu_5x5 <- inception_4d/5x5
I1216 23:02:15.518755 18693 net.cpp:327] inception_4d/relu_5x5 -> inception_4d/5x5 (in-place)
I1216 23:02:15.518762 18693 net.cpp:113] Setting up inception_4d/relu_5x5
I1216 23:02:15.518833 18693 net.cpp:120] Top shape: 80 64 14 14 (1003520)
I1216 23:02:15.518839 18693 layer_factory.hpp:74] Creating layer inception_4d/pool
I1216 23:02:15.518846 18693 layer_factory.cpp:56] CUDNN does not support padding or multiple tops. Using Caffe's own pooling layer.
I1216 23:02:15.518853 18693 net.cpp:84] Creating Layer inception_4d/pool
I1216 23:02:15.518858 18693 net.cpp:380] inception_4d/pool <- inception_4c/output_inception_4c/output_0_split_3
I1216 23:02:15.518865 18693 net.cpp:338] inception_4d/pool -> inception_4d/pool
I1216 23:02:15.518873 18693 net.cpp:113] Setting up inception_4d/pool
I1216 23:02:15.518883 18693 net.cpp:120] Top shape: 80 512 14 14 (8028160)
I1216 23:02:15.518887 18693 layer_factory.hpp:74] Creating layer inception_4d/pool_proj
I1216 23:02:15.518895 18693 net.cpp:84] Creating Layer inception_4d/pool_proj
I1216 23:02:15.518899 18693 net.cpp:380] inception_4d/pool_proj <- inception_4d/pool
I1216 23:02:15.518908 18693 net.cpp:338] inception_4d/pool_proj -> inception_4d/pool_proj
I1216 23:02:15.518916 18693 net.cpp:113] Setting up inception_4d/pool_proj
I1216 23:02:15.519712 18693 net.cpp:120] Top shape: 80 64 14 14 (1003520)
I1216 23:02:15.519728 18693 layer_factory.hpp:74] Creating layer inception_4d/relu_pool_proj
I1216 23:02:15.519743 18693 net.cpp:84] Creating Layer inception_4d/relu_pool_proj
I1216 23:02:15.519749 18693 net.cpp:380] inception_4d/relu_pool_proj <- inception_4d/pool_proj
I1216 23:02:15.519757 18693 net.cpp:327] inception_4d/relu_pool_proj -> inception_4d/pool_proj (in-place)
I1216 23:02:15.519763 18693 net.cpp:113] Setting up inception_4d/relu_pool_proj
I1216 23:02:15.520015 18693 net.cpp:120] Top shape: 80 64 14 14 (1003520)
I1216 23:02:15.520025 18693 layer_factory.hpp:74] Creating layer inception_4d/output
I1216 23:02:15.520038 18693 net.cpp:84] Creating Layer inception_4d/output
I1216 23:02:15.520045 18693 net.cpp:380] inception_4d/output <- inception_4d/1x1
I1216 23:02:15.520051 18693 net.cpp:380] inception_4d/output <- inception_4d/3x3
I1216 23:02:15.520056 18693 net.cpp:380] inception_4d/output <- inception_4d/5x5
I1216 23:02:15.520061 18693 net.cpp:380] inception_4d/output <- inception_4d/pool_proj
I1216 23:02:15.520068 18693 net.cpp:338] inception_4d/output -> inception_4d/output
I1216 23:02:15.520076 18693 net.cpp:113] Setting up inception_4d/output
I1216 23:02:15.520084 18693 net.cpp:120] Top shape: 80 528 14 14 (8279040)
I1216 23:02:15.520089 18693 layer_factory.hpp:74] Creating layer inception_4d/output_inception_4d/output_0_split
I1216 23:02:15.520097 18693 net.cpp:84] Creating Layer inception_4d/output_inception_4d/output_0_split
I1216 23:02:15.520100 18693 net.cpp:380] inception_4d/output_inception_4d/output_0_split <- inception_4d/output
I1216 23:02:15.520107 18693 net.cpp:338] inception_4d/output_inception_4d/output_0_split -> inception_4d/output_inception_4d/output_0_split_0
I1216 23:02:15.520117 18693 net.cpp:338] inception_4d/output_inception_4d/output_0_split -> inception_4d/output_inception_4d/output_0_split_1
I1216 23:02:15.520123 18693 net.cpp:338] inception_4d/output_inception_4d/output_0_split -> inception_4d/output_inception_4d/output_0_split_2
I1216 23:02:15.520131 18693 net.cpp:338] inception_4d/output_inception_4d/output_0_split -> inception_4d/output_inception_4d/output_0_split_3
I1216 23:02:15.520138 18693 net.cpp:338] inception_4d/output_inception_4d/output_0_split -> inception_4d/output_inception_4d/output_0_split_4
I1216 23:02:15.520149 18693 net.cpp:113] Setting up inception_4d/output_inception_4d/output_0_split
I1216 23:02:15.520165 18693 net.cpp:120] Top shape: 80 528 14 14 (8279040)
I1216 23:02:15.520170 18693 net.cpp:120] Top shape: 80 528 14 14 (8279040)
I1216 23:02:15.520175 18693 net.cpp:120] Top shape: 80 528 14 14 (8279040)
I1216 23:02:15.520180 18693 net.cpp:120] Top shape: 80 528 14 14 (8279040)
I1216 23:02:15.520185 18693 net.cpp:120] Top shape: 80 528 14 14 (8279040)
I1216 23:02:15.520190 18693 layer_factory.hpp:74] Creating layer loss2/ave_pool
I1216 23:02:15.520198 18693 net.cpp:84] Creating Layer loss2/ave_pool
I1216 23:02:15.520203 18693 net.cpp:380] loss2/ave_pool <- inception_4d/output_inception_4d/output_0_split_0
I1216 23:02:15.520210 18693 net.cpp:338] loss2/ave_pool -> loss2/ave_pool
I1216 23:02:15.520216 18693 net.cpp:113] Setting up loss2/ave_pool
I1216 23:02:15.520292 18693 net.cpp:120] Top shape: 80 528 4 4 (675840)
I1216 23:02:15.520298 18693 layer_factory.hpp:74] Creating layer loss2/conv
I1216 23:02:15.520309 18693 net.cpp:84] Creating Layer loss2/conv
I1216 23:02:15.520314 18693 net.cpp:380] loss2/conv <- loss2/ave_pool
I1216 23:02:15.520321 18693 net.cpp:338] loss2/conv -> loss2/conv
I1216 23:02:15.520328 18693 net.cpp:113] Setting up loss2/conv
I1216 23:02:15.521527 18693 net.cpp:120] Top shape: 80 128 4 4 (163840)
I1216 23:02:15.521543 18693 layer_factory.hpp:74] Creating layer loss2/relu_conv
I1216 23:02:15.521559 18693 net.cpp:84] Creating Layer loss2/relu_conv
I1216 23:02:15.521565 18693 net.cpp:380] loss2/relu_conv <- loss2/conv
I1216 23:02:15.521572 18693 net.cpp:327] loss2/relu_conv -> loss2/conv (in-place)
I1216 23:02:15.521580 18693 net.cpp:113] Setting up loss2/relu_conv
I1216 23:02:15.521658 18693 net.cpp:120] Top shape: 80 128 4 4 (163840)
I1216 23:02:15.521669 18693 layer_factory.hpp:74] Creating layer loss2/fc
I1216 23:02:15.521679 18693 net.cpp:84] Creating Layer loss2/fc
I1216 23:02:15.521683 18693 net.cpp:380] loss2/fc <- loss2/conv
I1216 23:02:15.521692 18693 net.cpp:338] loss2/fc -> loss2/fc
I1216 23:02:15.521700 18693 net.cpp:113] Setting up loss2/fc
I1216 23:02:15.583400 18693 net.cpp:120] Top shape: 80 1024 (81920)
I1216 23:02:15.583436 18693 layer_factory.hpp:74] Creating layer loss2/relu_fc
I1216 23:02:15.583447 18693 net.cpp:84] Creating Layer loss2/relu_fc
I1216 23:02:15.583456 18693 net.cpp:380] loss2/relu_fc <- loss2/fc
I1216 23:02:15.583464 18693 net.cpp:327] loss2/relu_fc -> loss2/fc (in-place)
I1216 23:02:15.583474 18693 net.cpp:113] Setting up loss2/relu_fc
I1216 23:02:15.583909 18693 net.cpp:120] Top shape: 80 1024 (81920)
I1216 23:02:15.583920 18693 layer_factory.hpp:74] Creating layer loss2/drop_fc
I1216 23:02:15.583930 18693 net.cpp:84] Creating Layer loss2/drop_fc
I1216 23:02:15.583935 18693 net.cpp:380] loss2/drop_fc <- loss2/fc
I1216 23:02:15.583942 18693 net.cpp:327] loss2/drop_fc -> loss2/fc (in-place)
I1216 23:02:15.583950 18693 net.cpp:113] Setting up loss2/drop_fc
I1216 23:02:15.583957 18693 net.cpp:120] Top shape: 80 1024 (81920)
I1216 23:02:15.583962 18693 layer_factory.hpp:74] Creating layer loss2/classifier_kaggle
I1216 23:02:15.583993 18693 net.cpp:84] Creating Layer loss2/classifier_kaggle
I1216 23:02:15.583998 18693 net.cpp:380] loss2/classifier_kaggle <- loss2/fc
I1216 23:02:15.584007 18693 net.cpp:338] loss2/classifier_kaggle -> loss2/classifier_kaggle
I1216 23:02:15.584015 18693 net.cpp:113] Setting up loss2/classifier_kaggle
I1216 23:02:15.589289 18693 net.cpp:120] Top shape: 80 447 (35760)
I1216 23:02:15.589313 18693 layer_factory.hpp:74] Creating layer loss2/loss
I1216 23:02:15.589324 18693 net.cpp:84] Creating Layer loss2/loss
I1216 23:02:15.589330 18693 net.cpp:380] loss2/loss <- loss2/classifier_kaggle
I1216 23:02:15.589337 18693 net.cpp:380] loss2/loss <- label_data_1_split_1
I1216 23:02:15.589345 18693 net.cpp:338] loss2/loss -> loss2/loss1
I1216 23:02:15.589355 18693 net.cpp:113] Setting up loss2/loss
I1216 23:02:15.589362 18693 layer_factory.hpp:74] Creating layer loss2/loss
I1216 23:02:15.589536 18693 net.cpp:120] Top shape: (1)
I1216 23:02:15.589556 18693 net.cpp:122]     with loss weight 0.3
I1216 23:02:15.589583 18693 layer_factory.hpp:74] Creating layer inception_4e/1x1
I1216 23:02:15.589601 18693 net.cpp:84] Creating Layer inception_4e/1x1
I1216 23:02:15.589608 18693 net.cpp:380] inception_4e/1x1 <- inception_4d/output_inception_4d/output_0_split_1
I1216 23:02:15.589617 18693 net.cpp:338] inception_4e/1x1 -> inception_4e/1x1
I1216 23:02:15.589625 18693 net.cpp:113] Setting up inception_4e/1x1
I1216 23:02:15.591675 18693 net.cpp:120] Top shape: 80 256 14 14 (4014080)
I1216 23:02:15.591691 18693 layer_factory.hpp:74] Creating layer inception_4e/relu_1x1
I1216 23:02:15.591699 18693 net.cpp:84] Creating Layer inception_4e/relu_1x1
I1216 23:02:15.591704 18693 net.cpp:380] inception_4e/relu_1x1 <- inception_4e/1x1
I1216 23:02:15.591713 18693 net.cpp:327] inception_4e/relu_1x1 -> inception_4e/1x1 (in-place)
I1216 23:02:15.591722 18693 net.cpp:113] Setting up inception_4e/relu_1x1
I1216 23:02:15.591790 18693 net.cpp:120] Top shape: 80 256 14 14 (4014080)
I1216 23:02:15.591799 18693 layer_factory.hpp:74] Creating layer inception_4e/3x3_reduce
I1216 23:02:15.591814 18693 net.cpp:84] Creating Layer inception_4e/3x3_reduce
I1216 23:02:15.591820 18693 net.cpp:380] inception_4e/3x3_reduce <- inception_4d/output_inception_4d/output_0_split_2
I1216 23:02:15.591827 18693 net.cpp:338] inception_4e/3x3_reduce -> inception_4e/3x3_reduce
I1216 23:02:15.591835 18693 net.cpp:113] Setting up inception_4e/3x3_reduce
I1216 23:02:15.593235 18693 net.cpp:120] Top shape: 80 160 14 14 (2508800)
I1216 23:02:15.593252 18693 layer_factory.hpp:74] Creating layer inception_4e/relu_3x3_reduce
I1216 23:02:15.593266 18693 net.cpp:84] Creating Layer inception_4e/relu_3x3_reduce
I1216 23:02:15.593273 18693 net.cpp:380] inception_4e/relu_3x3_reduce <- inception_4e/3x3_reduce
I1216 23:02:15.593282 18693 net.cpp:327] inception_4e/relu_3x3_reduce -> inception_4e/3x3_reduce (in-place)
I1216 23:02:15.593291 18693 net.cpp:113] Setting up inception_4e/relu_3x3_reduce
I1216 23:02:15.593366 18693 net.cpp:120] Top shape: 80 160 14 14 (2508800)
I1216 23:02:15.593374 18693 layer_factory.hpp:74] Creating layer inception_4e/3x3
I1216 23:02:15.593381 18693 net.cpp:84] Creating Layer inception_4e/3x3
I1216 23:02:15.593385 18693 net.cpp:380] inception_4e/3x3 <- inception_4e/3x3_reduce
I1216 23:02:15.593394 18693 net.cpp:338] inception_4e/3x3 -> inception_4e/3x3
I1216 23:02:15.593402 18693 net.cpp:113] Setting up inception_4e/3x3
I1216 23:02:15.601210 18693 net.cpp:120] Top shape: 80 320 14 14 (5017600)
I1216 23:02:15.601233 18693 layer_factory.hpp:74] Creating layer inception_4e/relu_3x3
I1216 23:02:15.601241 18693 net.cpp:84] Creating Layer inception_4e/relu_3x3
I1216 23:02:15.601246 18693 net.cpp:380] inception_4e/relu_3x3 <- inception_4e/3x3
I1216 23:02:15.601254 18693 net.cpp:327] inception_4e/relu_3x3 -> inception_4e/3x3 (in-place)
I1216 23:02:15.601263 18693 net.cpp:113] Setting up inception_4e/relu_3x3
I1216 23:02:15.601526 18693 net.cpp:120] Top shape: 80 320 14 14 (5017600)
I1216 23:02:15.601538 18693 layer_factory.hpp:74] Creating layer inception_4e/5x5_reduce
I1216 23:02:15.601558 18693 net.cpp:84] Creating Layer inception_4e/5x5_reduce
I1216 23:02:15.601564 18693 net.cpp:380] inception_4e/5x5_reduce <- inception_4d/output_inception_4d/output_0_split_3
I1216 23:02:15.601574 18693 net.cpp:338] inception_4e/5x5_reduce -> inception_4e/5x5_reduce
I1216 23:02:15.601583 18693 net.cpp:113] Setting up inception_4e/5x5_reduce
I1216 23:02:15.602202 18693 net.cpp:120] Top shape: 80 32 14 14 (501760)
I1216 23:02:15.602218 18693 layer_factory.hpp:74] Creating layer inception_4e/relu_5x5_reduce
I1216 23:02:15.602226 18693 net.cpp:84] Creating Layer inception_4e/relu_5x5_reduce
I1216 23:02:15.602231 18693 net.cpp:380] inception_4e/relu_5x5_reduce <- inception_4e/5x5_reduce
I1216 23:02:15.602238 18693 net.cpp:327] inception_4e/relu_5x5_reduce -> inception_4e/5x5_reduce (in-place)
I1216 23:02:15.602246 18693 net.cpp:113] Setting up inception_4e/relu_5x5_reduce
I1216 23:02:15.602326 18693 net.cpp:120] Top shape: 80 32 14 14 (501760)
I1216 23:02:15.602350 18693 layer_factory.hpp:74] Creating layer inception_4e/5x5
I1216 23:02:15.602380 18693 net.cpp:84] Creating Layer inception_4e/5x5
I1216 23:02:15.602387 18693 net.cpp:380] inception_4e/5x5 <- inception_4e/5x5_reduce
I1216 23:02:15.602394 18693 net.cpp:338] inception_4e/5x5 -> inception_4e/5x5
I1216 23:02:15.602403 18693 net.cpp:113] Setting up inception_4e/5x5
I1216 23:02:15.604003 18693 net.cpp:120] Top shape: 80 128 14 14 (2007040)
I1216 23:02:15.604020 18693 layer_factory.hpp:74] Creating layer inception_4e/relu_5x5
I1216 23:02:15.604035 18693 net.cpp:84] Creating Layer inception_4e/relu_5x5
I1216 23:02:15.604042 18693 net.cpp:380] inception_4e/relu_5x5 <- inception_4e/5x5
I1216 23:02:15.604049 18693 net.cpp:327] inception_4e/relu_5x5 -> inception_4e/5x5 (in-place)
I1216 23:02:15.604058 18693 net.cpp:113] Setting up inception_4e/relu_5x5
I1216 23:02:15.604133 18693 net.cpp:120] Top shape: 80 128 14 14 (2007040)
I1216 23:02:15.604140 18693 layer_factory.hpp:74] Creating layer inception_4e/pool
I1216 23:02:15.604146 18693 layer_factory.cpp:56] CUDNN does not support padding or multiple tops. Using Caffe's own pooling layer.
I1216 23:02:15.604153 18693 net.cpp:84] Creating Layer inception_4e/pool
I1216 23:02:15.604159 18693 net.cpp:380] inception_4e/pool <- inception_4d/output_inception_4d/output_0_split_4
I1216 23:02:15.604166 18693 net.cpp:338] inception_4e/pool -> inception_4e/pool
I1216 23:02:15.604174 18693 net.cpp:113] Setting up inception_4e/pool
I1216 23:02:15.604184 18693 net.cpp:120] Top shape: 80 528 14 14 (8279040)
I1216 23:02:15.604189 18693 layer_factory.hpp:74] Creating layer inception_4e/pool_proj
I1216 23:02:15.604197 18693 net.cpp:84] Creating Layer inception_4e/pool_proj
I1216 23:02:15.604202 18693 net.cpp:380] inception_4e/pool_proj <- inception_4e/pool
I1216 23:02:15.604210 18693 net.cpp:338] inception_4e/pool_proj -> inception_4e/pool_proj
I1216 23:02:15.604218 18693 net.cpp:113] Setting up inception_4e/pool_proj
I1216 23:02:15.605422 18693 net.cpp:120] Top shape: 80 128 14 14 (2007040)
I1216 23:02:15.605439 18693 layer_factory.hpp:74] Creating layer inception_4e/relu_pool_proj
I1216 23:02:15.605461 18693 net.cpp:84] Creating Layer inception_4e/relu_pool_proj
I1216 23:02:15.605468 18693 net.cpp:380] inception_4e/relu_pool_proj <- inception_4e/pool_proj
I1216 23:02:15.605474 18693 net.cpp:327] inception_4e/relu_pool_proj -> inception_4e/pool_proj (in-place)
I1216 23:02:15.605482 18693 net.cpp:113] Setting up inception_4e/relu_pool_proj
I1216 23:02:15.605556 18693 net.cpp:120] Top shape: 80 128 14 14 (2007040)
I1216 23:02:15.605562 18693 layer_factory.hpp:74] Creating layer inception_4e/output
I1216 23:02:15.605569 18693 net.cpp:84] Creating Layer inception_4e/output
I1216 23:02:15.605573 18693 net.cpp:380] inception_4e/output <- inception_4e/1x1
I1216 23:02:15.605579 18693 net.cpp:380] inception_4e/output <- inception_4e/3x3
I1216 23:02:15.605586 18693 net.cpp:380] inception_4e/output <- inception_4e/5x5
I1216 23:02:15.605590 18693 net.cpp:380] inception_4e/output <- inception_4e/pool_proj
I1216 23:02:15.605597 18693 net.cpp:338] inception_4e/output -> inception_4e/output
I1216 23:02:15.605603 18693 net.cpp:113] Setting up inception_4e/output
I1216 23:02:15.605612 18693 net.cpp:120] Top shape: 80 832 14 14 (13045760)
I1216 23:02:15.605617 18693 layer_factory.hpp:74] Creating layer pool4/3x3_s2
I1216 23:02:15.605624 18693 net.cpp:84] Creating Layer pool4/3x3_s2
I1216 23:02:15.605629 18693 net.cpp:380] pool4/3x3_s2 <- inception_4e/output
I1216 23:02:15.605636 18693 net.cpp:338] pool4/3x3_s2 -> pool4/3x3_s2
I1216 23:02:15.605643 18693 net.cpp:113] Setting up pool4/3x3_s2
I1216 23:02:15.605903 18693 net.cpp:120] Top shape: 80 832 7 7 (3261440)
I1216 23:02:15.605916 18693 layer_factory.hpp:74] Creating layer pool4/3x3_s2_pool4/3x3_s2_0_split
I1216 23:02:15.605924 18693 net.cpp:84] Creating Layer pool4/3x3_s2_pool4/3x3_s2_0_split
I1216 23:02:15.605929 18693 net.cpp:380] pool4/3x3_s2_pool4/3x3_s2_0_split <- pool4/3x3_s2
I1216 23:02:15.605947 18693 net.cpp:338] pool4/3x3_s2_pool4/3x3_s2_0_split -> pool4/3x3_s2_pool4/3x3_s2_0_split_0
I1216 23:02:15.605964 18693 net.cpp:338] pool4/3x3_s2_pool4/3x3_s2_0_split -> pool4/3x3_s2_pool4/3x3_s2_0_split_1
I1216 23:02:15.605973 18693 net.cpp:338] pool4/3x3_s2_pool4/3x3_s2_0_split -> pool4/3x3_s2_pool4/3x3_s2_0_split_2
I1216 23:02:15.605979 18693 net.cpp:338] pool4/3x3_s2_pool4/3x3_s2_0_split -> pool4/3x3_s2_pool4/3x3_s2_0_split_3
I1216 23:02:15.605985 18693 net.cpp:113] Setting up pool4/3x3_s2_pool4/3x3_s2_0_split
I1216 23:02:15.605993 18693 net.cpp:120] Top shape: 80 832 7 7 (3261440)
I1216 23:02:15.605998 18693 net.cpp:120] Top shape: 80 832 7 7 (3261440)
I1216 23:02:15.606003 18693 net.cpp:120] Top shape: 80 832 7 7 (3261440)
I1216 23:02:15.606009 18693 net.cpp:120] Top shape: 80 832 7 7 (3261440)
I1216 23:02:15.606012 18693 layer_factory.hpp:74] Creating layer inception_5a/1x1
I1216 23:02:15.606029 18693 net.cpp:84] Creating Layer inception_5a/1x1
I1216 23:02:15.606034 18693 net.cpp:380] inception_5a/1x1 <- pool4/3x3_s2_pool4/3x3_s2_0_split_0
I1216 23:02:15.606041 18693 net.cpp:338] inception_5a/1x1 -> inception_5a/1x1
I1216 23:02:15.606050 18693 net.cpp:113] Setting up inception_5a/1x1
I1216 23:02:15.609552 18693 net.cpp:120] Top shape: 80 256 7 7 (1003520)
I1216 23:02:15.609580 18693 layer_factory.hpp:74] Creating layer inception_5a/relu_1x1
I1216 23:02:15.609590 18693 net.cpp:84] Creating Layer inception_5a/relu_1x1
I1216 23:02:15.609596 18693 net.cpp:380] inception_5a/relu_1x1 <- inception_5a/1x1
I1216 23:02:15.609606 18693 net.cpp:327] inception_5a/relu_1x1 -> inception_5a/1x1 (in-place)
I1216 23:02:15.609613 18693 net.cpp:113] Setting up inception_5a/relu_1x1
I1216 23:02:15.609693 18693 net.cpp:120] Top shape: 80 256 7 7 (1003520)
I1216 23:02:15.609700 18693 layer_factory.hpp:74] Creating layer inception_5a/3x3_reduce
I1216 23:02:15.609709 18693 net.cpp:84] Creating Layer inception_5a/3x3_reduce
I1216 23:02:15.609715 18693 net.cpp:380] inception_5a/3x3_reduce <- pool4/3x3_s2_pool4/3x3_s2_0_split_1
I1216 23:02:15.609724 18693 net.cpp:338] inception_5a/3x3_reduce -> inception_5a/3x3_reduce
I1216 23:02:15.609735 18693 net.cpp:113] Setting up inception_5a/3x3_reduce
I1216 23:02:15.611690 18693 net.cpp:120] Top shape: 80 160 7 7 (627200)
I1216 23:02:15.611706 18693 layer_factory.hpp:74] Creating layer inception_5a/relu_3x3_reduce
I1216 23:02:15.611719 18693 net.cpp:84] Creating Layer inception_5a/relu_3x3_reduce
I1216 23:02:15.611726 18693 net.cpp:380] inception_5a/relu_3x3_reduce <- inception_5a/3x3_reduce
I1216 23:02:15.611735 18693 net.cpp:327] inception_5a/relu_3x3_reduce -> inception_5a/3x3_reduce (in-place)
I1216 23:02:15.611743 18693 net.cpp:113] Setting up inception_5a/relu_3x3_reduce
I1216 23:02:15.611819 18693 net.cpp:120] Top shape: 80 160 7 7 (627200)
I1216 23:02:15.611825 18693 layer_factory.hpp:74] Creating layer inception_5a/3x3
I1216 23:02:15.611834 18693 net.cpp:84] Creating Layer inception_5a/3x3
I1216 23:02:15.611838 18693 net.cpp:380] inception_5a/3x3 <- inception_5a/3x3_reduce
I1216 23:02:15.611847 18693 net.cpp:338] inception_5a/3x3 -> inception_5a/3x3
I1216 23:02:15.611855 18693 net.cpp:113] Setting up inception_5a/3x3
I1216 23:02:15.617578 18693 net.cpp:120] Top shape: 80 320 7 7 (1254400)
I1216 23:02:15.617594 18693 layer_factory.hpp:74] Creating layer inception_5a/relu_3x3
I1216 23:02:15.617611 18693 net.cpp:84] Creating Layer inception_5a/relu_3x3
I1216 23:02:15.617617 18693 net.cpp:380] inception_5a/relu_3x3 <- inception_5a/3x3
I1216 23:02:15.617630 18693 net.cpp:327] inception_5a/relu_3x3 -> inception_5a/3x3 (in-place)
I1216 23:02:15.617637 18693 net.cpp:113] Setting up inception_5a/relu_3x3
I1216 23:02:15.617715 18693 net.cpp:120] Top shape: 80 320 7 7 (1254400)
I1216 23:02:15.617722 18693 layer_factory.hpp:74] Creating layer inception_5a/5x5_reduce
I1216 23:02:15.617729 18693 net.cpp:84] Creating Layer inception_5a/5x5_reduce
I1216 23:02:15.617735 18693 net.cpp:380] inception_5a/5x5_reduce <- pool4/3x3_s2_pool4/3x3_s2_0_split_2
I1216 23:02:15.617744 18693 net.cpp:338] inception_5a/5x5_reduce -> inception_5a/5x5_reduce
I1216 23:02:15.617759 18693 net.cpp:113] Setting up inception_5a/5x5_reduce
I1216 23:02:15.618739 18693 net.cpp:120] Top shape: 80 32 7 7 (125440)
I1216 23:02:15.618755 18693 layer_factory.hpp:74] Creating layer inception_5a/relu_5x5_reduce
I1216 23:02:15.618772 18693 net.cpp:84] Creating Layer inception_5a/relu_5x5_reduce
I1216 23:02:15.618778 18693 net.cpp:380] inception_5a/relu_5x5_reduce <- inception_5a/5x5_reduce
I1216 23:02:15.618785 18693 net.cpp:327] inception_5a/relu_5x5_reduce -> inception_5a/5x5_reduce (in-place)
I1216 23:02:15.618793 18693 net.cpp:113] Setting up inception_5a/relu_5x5_reduce
I1216 23:02:15.619045 18693 net.cpp:120] Top shape: 80 32 7 7 (125440)
I1216 23:02:15.619055 18693 layer_factory.hpp:74] Creating layer inception_5a/5x5
I1216 23:02:15.619063 18693 net.cpp:84] Creating Layer inception_5a/5x5
I1216 23:02:15.619070 18693 net.cpp:380] inception_5a/5x5 <- inception_5a/5x5_reduce
I1216 23:02:15.619078 18693 net.cpp:338] inception_5a/5x5 -> inception_5a/5x5
I1216 23:02:15.619087 18693 net.cpp:113] Setting up inception_5a/5x5
I1216 23:02:15.620719 18693 net.cpp:120] Top shape: 80 128 7 7 (501760)
I1216 23:02:15.620734 18693 layer_factory.hpp:74] Creating layer inception_5a/relu_5x5
I1216 23:02:15.620743 18693 net.cpp:84] Creating Layer inception_5a/relu_5x5
I1216 23:02:15.620748 18693 net.cpp:380] inception_5a/relu_5x5 <- inception_5a/5x5
I1216 23:02:15.620754 18693 net.cpp:327] inception_5a/relu_5x5 -> inception_5a/5x5 (in-place)
I1216 23:02:15.620761 18693 net.cpp:113] Setting up inception_5a/relu_5x5
I1216 23:02:15.620834 18693 net.cpp:120] Top shape: 80 128 7 7 (501760)
I1216 23:02:15.620848 18693 layer_factory.hpp:74] Creating layer inception_5a/pool
I1216 23:02:15.620854 18693 layer_factory.cpp:56] CUDNN does not support padding or multiple tops. Using Caffe's own pooling layer.
I1216 23:02:15.620867 18693 net.cpp:84] Creating Layer inception_5a/pool
I1216 23:02:15.620872 18693 net.cpp:380] inception_5a/pool <- pool4/3x3_s2_pool4/3x3_s2_0_split_3
I1216 23:02:15.620879 18693 net.cpp:338] inception_5a/pool -> inception_5a/pool
I1216 23:02:15.620887 18693 net.cpp:113] Setting up inception_5a/pool
I1216 23:02:15.620896 18693 net.cpp:120] Top shape: 80 832 7 7 (3261440)
I1216 23:02:15.620900 18693 layer_factory.hpp:74] Creating layer inception_5a/pool_proj
I1216 23:02:15.620911 18693 net.cpp:84] Creating Layer inception_5a/pool_proj
I1216 23:02:15.620918 18693 net.cpp:380] inception_5a/pool_proj <- inception_5a/pool
I1216 23:02:15.620924 18693 net.cpp:338] inception_5a/pool_proj -> inception_5a/pool_proj
I1216 23:02:15.620932 18693 net.cpp:113] Setting up inception_5a/pool_proj
I1216 23:02:15.622592 18693 net.cpp:120] Top shape: 80 128 7 7 (501760)
I1216 23:02:15.622609 18693 layer_factory.hpp:74] Creating layer inception_5a/relu_pool_proj
I1216 23:02:15.622617 18693 net.cpp:84] Creating Layer inception_5a/relu_pool_proj
I1216 23:02:15.622622 18693 net.cpp:380] inception_5a/relu_pool_proj <- inception_5a/pool_proj
I1216 23:02:15.622629 18693 net.cpp:327] inception_5a/relu_pool_proj -> inception_5a/pool_proj (in-place)
I1216 23:02:15.622637 18693 net.cpp:113] Setting up inception_5a/relu_pool_proj
I1216 23:02:15.622709 18693 net.cpp:120] Top shape: 80 128 7 7 (501760)
I1216 23:02:15.622714 18693 layer_factory.hpp:74] Creating layer inception_5a/output
I1216 23:02:15.622721 18693 net.cpp:84] Creating Layer inception_5a/output
I1216 23:02:15.622725 18693 net.cpp:380] inception_5a/output <- inception_5a/1x1
I1216 23:02:15.622731 18693 net.cpp:380] inception_5a/output <- inception_5a/3x3
I1216 23:02:15.622737 18693 net.cpp:380] inception_5a/output <- inception_5a/5x5
I1216 23:02:15.622742 18693 net.cpp:380] inception_5a/output <- inception_5a/pool_proj
I1216 23:02:15.622748 18693 net.cpp:338] inception_5a/output -> inception_5a/output
I1216 23:02:15.622756 18693 net.cpp:113] Setting up inception_5a/output
I1216 23:02:15.622763 18693 net.cpp:120] Top shape: 80 832 7 7 (3261440)
I1216 23:02:15.622776 18693 layer_factory.hpp:74] Creating layer inception_5a/output_inception_5a/output_0_split
I1216 23:02:15.622792 18693 net.cpp:84] Creating Layer inception_5a/output_inception_5a/output_0_split
I1216 23:02:15.622804 18693 net.cpp:380] inception_5a/output_inception_5a/output_0_split <- inception_5a/output
I1216 23:02:15.622812 18693 net.cpp:338] inception_5a/output_inception_5a/output_0_split -> inception_5a/output_inception_5a/output_0_split_0
I1216 23:02:15.622819 18693 net.cpp:338] inception_5a/output_inception_5a/output_0_split -> inception_5a/output_inception_5a/output_0_split_1
I1216 23:02:15.622828 18693 net.cpp:338] inception_5a/output_inception_5a/output_0_split -> inception_5a/output_inception_5a/output_0_split_2
I1216 23:02:15.622836 18693 net.cpp:338] inception_5a/output_inception_5a/output_0_split -> inception_5a/output_inception_5a/output_0_split_3
I1216 23:02:15.622843 18693 net.cpp:113] Setting up inception_5a/output_inception_5a/output_0_split
I1216 23:02:15.622850 18693 net.cpp:120] Top shape: 80 832 7 7 (3261440)
I1216 23:02:15.622855 18693 net.cpp:120] Top shape: 80 832 7 7 (3261440)
I1216 23:02:15.622860 18693 net.cpp:120] Top shape: 80 832 7 7 (3261440)
I1216 23:02:15.622865 18693 net.cpp:120] Top shape: 80 832 7 7 (3261440)
I1216 23:02:15.622869 18693 layer_factory.hpp:74] Creating layer inception_5b/1x1
I1216 23:02:15.622882 18693 net.cpp:84] Creating Layer inception_5b/1x1
I1216 23:02:15.622887 18693 net.cpp:380] inception_5b/1x1 <- inception_5a/output_inception_5a/output_0_split_0
I1216 23:02:15.622895 18693 net.cpp:338] inception_5b/1x1 -> inception_5b/1x1
I1216 23:02:15.622903 18693 net.cpp:113] Setting up inception_5b/1x1
I1216 23:02:15.627007 18693 net.cpp:120] Top shape: 80 384 7 7 (1505280)
I1216 23:02:15.627025 18693 layer_factory.hpp:74] Creating layer inception_5b/relu_1x1
I1216 23:02:15.627032 18693 net.cpp:84] Creating Layer inception_5b/relu_1x1
I1216 23:02:15.627038 18693 net.cpp:380] inception_5b/relu_1x1 <- inception_5b/1x1
I1216 23:02:15.627048 18693 net.cpp:327] inception_5b/relu_1x1 -> inception_5b/1x1 (in-place)
I1216 23:02:15.627055 18693 net.cpp:113] Setting up inception_5b/relu_1x1
I1216 23:02:15.627310 18693 net.cpp:120] Top shape: 80 384 7 7 (1505280)
I1216 23:02:15.627323 18693 layer_factory.hpp:74] Creating layer inception_5b/3x3_reduce
I1216 23:02:15.627332 18693 net.cpp:84] Creating Layer inception_5b/3x3_reduce
I1216 23:02:15.627339 18693 net.cpp:380] inception_5b/3x3_reduce <- inception_5a/output_inception_5a/output_0_split_1
I1216 23:02:15.627347 18693 net.cpp:338] inception_5b/3x3_reduce -> inception_5b/3x3_reduce
I1216 23:02:15.627357 18693 net.cpp:113] Setting up inception_5b/3x3_reduce
I1216 23:02:15.629621 18693 net.cpp:120] Top shape: 80 192 7 7 (752640)
I1216 23:02:15.629637 18693 layer_factory.hpp:74] Creating layer inception_5b/relu_3x3_reduce
I1216 23:02:15.629655 18693 net.cpp:84] Creating Layer inception_5b/relu_3x3_reduce
I1216 23:02:15.629662 18693 net.cpp:380] inception_5b/relu_3x3_reduce <- inception_5b/3x3_reduce
I1216 23:02:15.629668 18693 net.cpp:327] inception_5b/relu_3x3_reduce -> inception_5b/3x3_reduce (in-place)
I1216 23:02:15.629676 18693 net.cpp:113] Setting up inception_5b/relu_3x3_reduce
I1216 23:02:15.629753 18693 net.cpp:120] Top shape: 80 192 7 7 (752640)
I1216 23:02:15.629760 18693 layer_factory.hpp:74] Creating layer inception_5b/3x3
I1216 23:02:15.629770 18693 net.cpp:84] Creating Layer inception_5b/3x3
I1216 23:02:15.629775 18693 net.cpp:380] inception_5b/3x3 <- inception_5b/3x3_reduce
I1216 23:02:15.629781 18693 net.cpp:338] inception_5b/3x3 -> inception_5b/3x3
I1216 23:02:15.629814 18693 net.cpp:113] Setting up inception_5b/3x3
I1216 23:02:15.652217 18693 net.cpp:120] Top shape: 80 384 7 7 (1505280)
I1216 23:02:15.652240 18693 layer_factory.hpp:74] Creating layer inception_5b/relu_3x3
I1216 23:02:15.652248 18693 net.cpp:84] Creating Layer inception_5b/relu_3x3
I1216 23:02:15.652254 18693 net.cpp:380] inception_5b/relu_3x3 <- inception_5b/3x3
I1216 23:02:15.652263 18693 net.cpp:327] inception_5b/relu_3x3 -> inception_5b/3x3 (in-place)
I1216 23:02:15.652271 18693 net.cpp:113] Setting up inception_5b/relu_3x3
I1216 23:02:15.652351 18693 net.cpp:120] Top shape: 80 384 7 7 (1505280)
I1216 23:02:15.652367 18693 layer_factory.hpp:74] Creating layer inception_5b/5x5_reduce
I1216 23:02:15.652389 18693 net.cpp:84] Creating Layer inception_5b/5x5_reduce
I1216 23:02:15.652396 18693 net.cpp:380] inception_5b/5x5_reduce <- inception_5a/output_inception_5a/output_0_split_2
I1216 23:02:15.652405 18693 net.cpp:338] inception_5b/5x5_reduce -> inception_5b/5x5_reduce
I1216 23:02:15.652415 18693 net.cpp:113] Setting up inception_5b/5x5_reduce
I1216 23:02:15.653307 18693 net.cpp:120] Top shape: 80 48 7 7 (188160)
I1216 23:02:15.653324 18693 layer_factory.hpp:74] Creating layer inception_5b/relu_5x5_reduce
I1216 23:02:15.653332 18693 net.cpp:84] Creating Layer inception_5b/relu_5x5_reduce
I1216 23:02:15.653338 18693 net.cpp:380] inception_5b/relu_5x5_reduce <- inception_5b/5x5_reduce
I1216 23:02:15.653345 18693 net.cpp:327] inception_5b/relu_5x5_reduce -> inception_5b/5x5_reduce (in-place)
I1216 23:02:15.653353 18693 net.cpp:113] Setting up inception_5b/relu_5x5_reduce
I1216 23:02:15.653425 18693 net.cpp:120] Top shape: 80 48 7 7 (188160)
I1216 23:02:15.653431 18693 layer_factory.hpp:74] Creating layer inception_5b/5x5
I1216 23:02:15.653444 18693 net.cpp:84] Creating Layer inception_5b/5x5
I1216 23:02:15.653448 18693 net.cpp:380] inception_5b/5x5 <- inception_5b/5x5_reduce
I1216 23:02:15.653455 18693 net.cpp:338] inception_5b/5x5 -> inception_5b/5x5
I1216 23:02:15.653463 18693 net.cpp:113] Setting up inception_5b/5x5
I1216 23:02:15.655649 18693 net.cpp:120] Top shape: 80 128 7 7 (501760)
I1216 23:02:15.655665 18693 layer_factory.hpp:74] Creating layer inception_5b/relu_5x5
I1216 23:02:15.655673 18693 net.cpp:84] Creating Layer inception_5b/relu_5x5
I1216 23:02:15.655678 18693 net.cpp:380] inception_5b/relu_5x5 <- inception_5b/5x5
I1216 23:02:15.655685 18693 net.cpp:327] inception_5b/relu_5x5 -> inception_5b/5x5 (in-place)
I1216 23:02:15.655692 18693 net.cpp:113] Setting up inception_5b/relu_5x5
I1216 23:02:15.655947 18693 net.cpp:120] Top shape: 80 128 7 7 (501760)
I1216 23:02:15.655958 18693 layer_factory.hpp:74] Creating layer inception_5b/pool
I1216 23:02:15.655973 18693 layer_factory.cpp:56] CUDNN does not support padding or multiple tops. Using Caffe's own pooling layer.
I1216 23:02:15.655980 18693 net.cpp:84] Creating Layer inception_5b/pool
I1216 23:02:15.655987 18693 net.cpp:380] inception_5b/pool <- inception_5a/output_inception_5a/output_0_split_3
I1216 23:02:15.655993 18693 net.cpp:338] inception_5b/pool -> inception_5b/pool
I1216 23:02:15.656002 18693 net.cpp:113] Setting up inception_5b/pool
I1216 23:02:15.656011 18693 net.cpp:120] Top shape: 80 832 7 7 (3261440)
I1216 23:02:15.656016 18693 layer_factory.hpp:74] Creating layer inception_5b/pool_proj
I1216 23:02:15.656028 18693 net.cpp:84] Creating Layer inception_5b/pool_proj
I1216 23:02:15.656033 18693 net.cpp:380] inception_5b/pool_proj <- inception_5b/pool
I1216 23:02:15.656041 18693 net.cpp:338] inception_5b/pool_proj -> inception_5b/pool_proj
I1216 23:02:15.656049 18693 net.cpp:113] Setting up inception_5b/pool_proj
I1216 23:02:15.657706 18693 net.cpp:120] Top shape: 80 128 7 7 (501760)
I1216 23:02:15.657722 18693 layer_factory.hpp:74] Creating layer inception_5b/relu_pool_proj
I1216 23:02:15.657732 18693 net.cpp:84] Creating Layer inception_5b/relu_pool_proj
I1216 23:02:15.657738 18693 net.cpp:380] inception_5b/relu_pool_proj <- inception_5b/pool_proj
I1216 23:02:15.657745 18693 net.cpp:327] inception_5b/relu_pool_proj -> inception_5b/pool_proj (in-place)
I1216 23:02:15.657752 18693 net.cpp:113] Setting up inception_5b/relu_pool_proj
I1216 23:02:15.657825 18693 net.cpp:120] Top shape: 80 128 7 7 (501760)
I1216 23:02:15.657831 18693 layer_factory.hpp:74] Creating layer inception_5b/output
I1216 23:02:15.657847 18693 net.cpp:84] Creating Layer inception_5b/output
I1216 23:02:15.657855 18693 net.cpp:380] inception_5b/output <- inception_5b/1x1
I1216 23:02:15.657861 18693 net.cpp:380] inception_5b/output <- inception_5b/3x3
I1216 23:02:15.657867 18693 net.cpp:380] inception_5b/output <- inception_5b/5x5
I1216 23:02:15.657886 18693 net.cpp:380] inception_5b/output <- inception_5b/pool_proj
I1216 23:02:15.657893 18693 net.cpp:338] inception_5b/output -> inception_5b/output
I1216 23:02:15.657901 18693 net.cpp:113] Setting up inception_5b/output
I1216 23:02:15.657909 18693 net.cpp:120] Top shape: 80 1024 7 7 (4014080)
I1216 23:02:15.657914 18693 layer_factory.hpp:74] Creating layer pool5/7x7_s1
I1216 23:02:15.657923 18693 net.cpp:84] Creating Layer pool5/7x7_s1
I1216 23:02:15.657928 18693 net.cpp:380] pool5/7x7_s1 <- inception_5b/output
I1216 23:02:15.657934 18693 net.cpp:338] pool5/7x7_s1 -> pool5/7x7_s1
I1216 23:02:15.657941 18693 net.cpp:113] Setting up pool5/7x7_s1
I1216 23:02:15.658018 18693 net.cpp:120] Top shape: 80 1024 1 1 (81920)
I1216 23:02:15.658030 18693 layer_factory.hpp:74] Creating layer pool5/drop_7x7_s1
I1216 23:02:15.658037 18693 net.cpp:84] Creating Layer pool5/drop_7x7_s1
I1216 23:02:15.658042 18693 net.cpp:380] pool5/drop_7x7_s1 <- pool5/7x7_s1
I1216 23:02:15.658048 18693 net.cpp:327] pool5/drop_7x7_s1 -> pool5/7x7_s1 (in-place)
I1216 23:02:15.658056 18693 net.cpp:113] Setting up pool5/drop_7x7_s1
I1216 23:02:15.658062 18693 net.cpp:120] Top shape: 80 1024 1 1 (81920)
I1216 23:02:15.658067 18693 layer_factory.hpp:74] Creating layer loss3/classifier_kaggle
I1216 23:02:15.658077 18693 net.cpp:84] Creating Layer loss3/classifier_kaggle
I1216 23:02:15.658080 18693 net.cpp:380] loss3/classifier_kaggle <- pool5/7x7_s1
I1216 23:02:15.658089 18693 net.cpp:338] loss3/classifier_kaggle -> loss3/classifier_kaggle
I1216 23:02:15.658097 18693 net.cpp:113] Setting up loss3/classifier_kaggle
I1216 23:02:15.663388 18693 net.cpp:120] Top shape: 80 447 (35760)
I1216 23:02:15.663400 18693 layer_factory.hpp:74] Creating layer loss3/loss3
I1216 23:02:15.663420 18693 net.cpp:84] Creating Layer loss3/loss3
I1216 23:02:15.663429 18693 net.cpp:380] loss3/loss3 <- loss3/classifier_kaggle
I1216 23:02:15.663434 18693 net.cpp:380] loss3/loss3 <- label_data_1_split_2
I1216 23:02:15.663444 18693 net.cpp:338] loss3/loss3 -> loss3/loss3
I1216 23:02:15.663451 18693 net.cpp:113] Setting up loss3/loss3
…
I1216 23:02:15.668985 18693 net.cpp:257] The NetState phase (1) differed from the phase (0) specified by a rule in layer data
I1216 23:02:15.670483 18693 net.cpp:42] Initializing net from parameters: 
name: "GoogleNet"
state {
  phase: TEST
}
layer {
  name: "data"
  type: "Data"
  top: "data"
  top: "label"
  include {
    phase: TEST
  }
  transform_param {
    mirror: false
    crop_size: 224
    mean_value: 129
    mean_value: 129
    mean_value: 129
  }
  data_param {
    source: "/home/coldmanck/kaggle/kaggle2_val_lmdb"
    batch_size: 50
    backend: LMDB
  }
}
layer {
  name: "conv1/7x7_s2"
  type: "Convolution"
  bottom: "data"
  top: "conv1/7x7_s2"
  param {
    lr_mult: 1
    decay_mult: 1
  }
  param {
    lr_mult: 2
    decay_mult: 0
  }
  convolution_param {
    num_output: 64
    pad: 3
    kernel_size: 7
    stride: 2
    weight_filler {
      type: "xavier"
    }
    bias_filler {
      type: "constant"
      value: 0.2
    }
  }
}
layer {
  name: "conv1/relu_7x7"
  type: "ReLU"
  bottom: "conv1/7x7_s2"
  top: "conv1/7x7_s2"
}
layer {
  name: "pool1/3x3_s2"
  type: "Pooling"
  bottom: "conv1/7x7_s2"
  top: "pool1/3x3_s2"
  pooling_param {
    pool: MAX
    kernel_size: 3
    stride: 2
  }
}
layer {
  name: "pool1/norm1"
  type: "LRN"
  bottom: "pool1/3x3_s2"
  top: "pool1/norm1"
  lrn_param {
    local_size: 5
    alpha: 0.0001
    beta: 0.75
  }
}
layer {
  name: "conv2/3x3_reduce"
  type: "Convolution"
  bottom: "pool1/norm1"
  top: "conv2/3x3_reduce"
  param {
    lr_mult: 1
    decay_mult: 1
  }
  param {
    lr_mult: 2
    decay_mult: 0
  }
  convolution_param {
    num_output: 64
    kernel_size: 1
    weight_filler {
      type: "xavier"
    }
    bias_filler {
      type: "constant"
      value: 0.2
    }
  }
}
layer {
  name: "conv2/relu_3x3_reduce"
  type: "ReLU"
  bottom: "conv2/3x3_reduce"
  top: "conv2/3x3_reduce"
}
layer {
  name: "conv2/3x3"
  type: "Convolution"
  bottom: "conv2/3x3_reduce"
  top: "conv2/3x3"
  param {
    lr_mult: 1
    decay_mult: 1
  }
  param {
    lr_mult: 2
    decay_mult: 0
  }
  convolution_param {
    num_output: 192
    pad: 1
    kernel_size: 3
    weight_filler {
      type: "xavier"
    }
    bias_filler {
      type: "constant"
      value: 0.2
    }
  }
}
layer {
  name: "conv2/relu_3x3"
  type: "ReLU"
  bottom: "conv2/3x3"
  top: "conv2/3x3"
}
layer {
  name: "conv2/norm2"
  type: "LRN"
  bottom: "conv2/3x3"
  top: "conv2/norm2"
  lrn_param {
    local_size: 5
    alpha: 0.0001
    beta: 0.75
  }
}
layer {
  name: "pool2/3x3_s2"
  type: "Pooling"
  bottom: "conv2/norm2"
  top: "pool2/3x3_s2"
  pooling_param {
    pool: MAX
    kernel_size: 3
    stride: 2
  }
}
layer {
  name: "inception_3a/1x1"
  type: "Convolution"
  bottom: "pool2/3x3_s2"
  top: "inception_3a/1x1"
  param {
    lr_mult: 1
    decay_mult: 1
  }
  param {
    lr_mult: 2
    decay_mult: 0
  }
  convolution_param {
    num_output: 64
    kernel_size: 1
    weight_filler {
      type: "xavier"
    }
    bias_filler {
      type: "constant"
      value: 0.2
    }
  }
}
layer {
  name: "inception_3a/relu_1x1"
  type: "ReLU"
  bottom: "inception_3a/1x1"
  top: "inception_3a/1x1"
}
layer {
  name: "inception_3a/3x3_reduce"
  type: "Convolution"
  bottom: "pool2/3x3_s2"
  top: "inception_3a/3x3_reduce"
  param {
    lr_mult: 1
    decay_mult: 1
  }
  param {
    lr_mult: 2
    decay_mult: 0
  }
  convolution_param {
    num_output: 96
    kernel_size: 1
    weight_filler {
      type: "xavier"
    }
    bias_filler {
      type: "constant"
      value: 0.2
    }
  }
}
layer {
  name: "inception_3a/relu_3x3_reduce"
  type: "ReLU"
  bottom: "inception_3a/3x3_reduce"
  top: "inception_3a/3x3_reduce"
}
layer {
  name: "inception_3a/3x3"
  type: "Convolution"
  bottom: "inception_3a/3x3_reduce"
  top: "inception_3a/3x3"
  param {
    lr_mult: 1
    decay_mult: 1
  }
  param {
    lr_mult: 2
    decay_mult: 0
  }
  convolution_param {
    num_output: 128
    pad: 1
    kernel_size: 3
    weight_filler {
      type: "xavier"
    }
    bias_filler {
      type: "constant"
      value: 0.2
    }
  }
}
layer {
  name: "inception_3a/relu_3x3"
  type: "ReLU"
  bottom: "inception_3a/3x3"
  top: "inception_3a/3x3"
}
layer {
  name: "inception_3a/5x5_reduce"
  type: "Convolution"
  bottom: "pool2/3x3_s2"
  top: "inception_3a/5x5_reduce"
  param {
    lr_mult: 1
    decay_mult: 1
  }
  param {
    lr_mult: 2
    decay_mult: 0
  }
  convolution_param {
    num_output: 16
    kernel_size: 1
    weight_filler {
      type: "xavier"
    }
    bias_filler {
      type: "constant"
      value: 0.2
    }
  }
}
layer {
  name: "inception_3a/relu_5x5_reduce"
  type: "ReLU"
  bottom: "inception_3a/5x5_reduce"
  top: "inception_3a/5x5_reduce"
}
layer {
  name: "inception_3a/5x5"
  type: "Convolution"
  bottom: "inception_3a/5x5_reduce"
  top: "inception_3a/5x5"
  param {
    lr_mult: 1
    decay_mult: 1
  }
  param {
    lr_mult: 2
    decay_mult: 0
  }
  convolution_param {
    num_output: 32
    pad: 2
    kernel_size: 5
    weight_filler {
      type: "xavier"
    }
    bias_filler {
      type: "constant"
      value: 0.2
    }
  }
}
layer {
  name: "inception_3a/relu_5x5"
  type: "ReLU"
  bottom: "inception_3a/5x5"
  top: "inception_3a/5x5"
}
layer {
  name: "inception_3a/pool"
  type: "Pooling"
  bottom: "pool2/3x3_s2"
  top: "inception_3a/pool"
  pooling_param {
    pool: MAX
    kernel_size: 3
    stride: 1
    pad: 1
  }
}
layer {
  name: "inception_3a/pool_proj"
  type: "Convolution"
  bottom: "inception_3a/pool"
  top: "inception_3a/pool_proj"
  param {
    lr_mult: 1
    decay_mult: 1
  }
  param {
    lr_mult: 2
    decay_mult: 0
  }
  convolution_param {
    num_output: 32
    kernel_size: 1
    weight_filler {
      type: "xavier"
    }
    bias_filler {
      type: "constant"
      value: 0.2
    }
  }
}
layer {
  name: "inception_3a/relu_pool_proj"
  type: "ReLU"
  bottom: "inception_3a/pool_proj"
  top: "inception_3a/pool_proj"
}
layer {
  name: "inception_3a/output"
  type: "Concat"
  bottom: "inception_3a/1x1"
  bottom: "inception_3a/3x3"
  bottom: "inception_3a/5x5"
  bottom: "inception_3a/pool_proj"
  top: "inception_3a/output"
}
layer {
  name: "inception_3b/1x1"
  type: "Convolution"
  bottom: "inception_3a/output"
  top: "inception_3b/1x1"
  param {
    lr_mult: 1
    decay_mult: 1
  }
  param {
    lr_mult: 2
    decay_mult: 0
  }
  convolution_param {
    num_output: 128
    kernel_size: 1
    weight_filler {
      type: "xavier"
    }
    bias_filler {
      type: "constant"
      value: 0.2
    }
  }
}
layer {
  name: "inception_3b/relu_1x1"
  type: "ReLU"
  bottom: "inception_3b/1x1"
  top: "inception_3b/1x1"
}
layer {
  name: "inception_3b/3x3_reduce"
  type: "Convolution"
  bottom: "inception_3a/output"
  top: "inception_3b/3x3_reduce"
  param {
    lr_mult: 1
    decay_mult: 1
  }
  param {
    lr_mult: 2
    decay_mult: 0
  }
  convolution_param {
    num_output: 128
    kernel_size: 1
    weight_filler {
      type: "xavier"
    }
    bias_filler {
      type: "constant"
      value: 0.2
    }
  }
}
layer {
  name: "inception_3b/relu_3x3_reduce"
  type: "ReLU"
  bottom: "inception_3b/3x3_reduce"
  top: "inception_3b/3x3_reduce"
}
layer {
  name: "inception_3b/3x3"
  type: "Convolution"
  bottom: "inception_3b/3x3_reduce"
  top: "inception_3b/3x3"
  param {
    lr_mult: 1
    decay_mult: 1
  }
  param {
    lr_mult: 2
    decay_mult: 0
  }
  convolution_param {
    num_output: 192
    pad: 1
    kernel_size: 3
    weight_filler {
      type: "xavier"
    }
    bias_filler {
      type: "constant"
      value: 0.2
    }
  }
}
layer {
  name: "inception_3b/relu_3x3"
  type: "ReLU"
  bottom: "inception_3b/3x3"
  top: "inception_3b/3x3"
}
layer {
  name: "inception_3b/5x5_reduce"
  type: "Convolution"
  bottom: "inception_3a/output"
  top: "inception_3b/5x5_reduce"
  param {
    lr_mult: 1
    decay_mult: 1
  }
  param {
    lr_mult: 2
    decay_mult: 0
  }
  convolution_param {
    num_output: 32
    kernel_size: 1
    weight_filler {
      type: "xavier"
    }
    bias_filler {
      type: "constant"
      value: 0.2
    }
  }
}
layer {
  name: "inception_3b/relu_5x5_reduce"
  type: "ReLU"
  bottom: "inception_3b/5x5_reduce"
  top: "inception_3b/5x5_reduce"
}
layer {
  name: "inception_3b/5x5"
  type: "Convolution"
  bottom: "inception_3b/5x5_reduce"
  top: "inception_3b/5x5"
  param {
    lr_mult: 1
    decay_mult: 1
  }
  param {
    lr_mult: 2
    decay_mult: 0
  }
  convolution_param {
    num_output: 96
    pad: 2
    kernel_size: 5
    weight_filler {
      type: "xavier"
    }
    bias_filler {
      type: "constant"
      value: 0.2
    }
  }
}
layer {
  name: "inception_3b/relu_5x5"
  type: "ReLU"
  bottom: "inception_3b/5x5"
  top: "inception_3b/5x5"
}
layer {
  name: "inception_3b/pool"
  type: "Pooling"
  bottom: "inception_3a/output"
  top: "inception_3b/pool"
  pooling_param {
    pool: MAX
    kernel_size: 3
    stride: 1
    pad: 1
  }
}
layer {
  name: "inception_3b/pool_proj"
  type: "Convolution"
  bottom: "inception_3b/pool"
  top: "inception_3b/pool_proj"
  param {
    lr_mult: 1
    decay_mult: 1
  }
  param {
    lr_mult: 2
    decay_mult: 0
  }
  convolution_param {
    num_output: 64
    kernel_size: 1
    weight_filler {
      type: "xavier"
    }
    bias_filler {
      type: "constant"
      value: 0.2
    }
  }
}
layer {
  name: "inception_3b/relu_pool_proj"
  type: "ReLU"
  bottom: "inception_3b/pool_proj"
  top: "inception_3b/pool_proj"
}
layer {
  name: "inception_3b/output"
  type: "Concat"
  bottom: "inception_3b/1x1"
  bottom: "inception_3b/3x3"
  bottom: "inception_3b/5x5"
  bottom: "inception_3b/pool_proj"
  top: "inception_3b/output"
}
layer {
  name: "pool3/3x3_s2"
  type: "Pooling"
  bottom: "inception_3b/output"
  top: "pool3/3x3_s2"
  pooling_param {
    pool: MAX
    kernel_size: 3
    stride: 2
  }
}
layer {
  name: "inception_4a/1x1"
  type: "Convolution"
  bottom: "pool3/3x3_s2"
  top: "inception_4a/1x1"
  param {
    lr_mult: 1
    decay_mult: 1
  }
  param {
    lr_mult: 2
    decay_mult: 0
  }
  convolution_param {
    num_output: 192
    kernel_size: 1
    weight_filler {
      type: "xavier"
    }
    bias_filler {
      type: "constant"
      value: 0.2
    }
  }
}
layer {
  name: "inception_4a/relu_1x1"
  type: "ReLU"
  bottom: "inception_4a/1x1"
  top: "inception_4a/1x1"
}
layer {
  name: "inception_4a/3x3_reduce"
  type: "Convolution"
  bottom: "pool3/3x3_s2"
  top: "inception_4a/3x3_reduce"
  param {
    lr_mult: 1
    decay_mult: 1
  }
  param {
    lr_mult: 2
    decay_mult: 0
  }
  convolution_param {
    num_output: 96
    kernel_size: 1
    weight_filler {
      type: "xavier"
    }
    bias_filler {
      type: "constant"
      value: 0.2
    }
  }
}
layer {
  name: "inception_4a/relu_3x3_reduce"
  type: "ReLU"
  bottom: "inception_4a/3x3_reduce"
  top: "inception_4a/3x3_reduce"
}
layer {
  name: "inception_4a/3x3"
  type: "Convolution"
  bottom: "inception_4a/3x3_reduce"
  top: "inception_4a/3x3"
  param {
    lr_mult: 1
    decay_mult: 1
  }
  param {
    lr_mult: 2
    decay_mult: 0
  }
  convolution_param {
    num_output: 208
    pad: 1
    kernel_size: 3
    weight_filler {
      type: "xavier"
    }
    bias_filler {
      type: "constant"
      value: 0.2
    }
  }
}
layer {
  name: "inception_4a/relu_3x3"
  type: "ReLU"
  bottom: "inception_4a/3x3"
  top: "inception_4a/3x3"
}
layer {
  name: "inception_4a/5x5_reduce"
  type: "Convolution"
  bottom: "pool3/3x3_s2"
  top: "inception_4a/5x5_reduce"
  param {
    lr_mult: 1
    decay_mult: 1
  }
  param {
    lr_mult: 2
    decay_mult: 0
  }
  convolution_param {
    num_output: 16
    kernel_size: 1
    weight_filler {
      type: "xavier"
    }
    bias_filler {
      type: "constant"
      value: 0.2
    }
  }
}
layer {
  name: "inception_4a/relu_5x5_reduce"
  type: "ReLU"
  bottom: "inception_4a/5x5_reduce"
  top: "inception_4a/5x5_reduce"
}
layer {
  name: "inception_4a/5x5"
  type: "Convolution"
  bottom: "inception_4a/5x5_reduce"
  top: "inception_4a/5x5"
  param {
    lr_mult: 1
    decay_mult: 1
  }
  param {
    lr_mult: 2
    decay_mult: 0
  }
  convolution_param {
    num_output: 48
    pad: 2
    kernel_size: 5
    weight_filler {
      type: "xavier"
    }
    bias_filler {
      type: "constant"
      value: 0.2
    }
  }
}
layer {
  name: "inception_4a/relu_5x5"
  type: "ReLU"
  bottom: "inception_4a/5x5"
  top: "inception_4a/5x5"
}
layer {
  name: "inception_4a/pool"
  type: "Pooling"
  bottom: "pool3/3x3_s2"
  top: "inception_4a/pool"
  pooling_param {
    pool: MAX
    kernel_size: 3
    stride: 1
    pad: 1
  }
}
layer {
  name: "inception_4a/pool_proj"
  type: "Convolution"
  bottom: "inception_4a/pool"
  top: "inception_4a/pool_proj"
  param {
    lr_mult: 1
    decay_mult: 1
  }
  param {
    lr_mult: 2
    decay_mult: 0
  }
  convolution_param {
    num_output: 64
    kernel_size: 1
    weight_filler {
      type: "xavier"
    }
    bias_filler {
      type: "constant"
      value: 0.2
    }
  }
}
layer {
  name: "inception_4a/relu_pool_proj"
  type: "ReLU"
  bottom: "inception_4a/pool_proj"
  top: "inception_4a/pool_proj"
}
layer {
  name: "inception_4a/output"
  type: "Concat"
  bottom: "inception_4a/1x1"
  bottom: "inception_4a/3x3"
  bottom: "inception_4a/5x5"
  bottom: "inception_4a/pool_proj"
  top: "inception_4a/output"
}
layer {
  name: "loss1/ave_pool"
  type: "Pooling"
  bottom: "inception_4a/output"
  top: "loss1/ave_pool"
  pooling_param {
    pool: AVE
    kernel_size: 5
    stride: 3
  }
}
layer {
  name: "loss1/conv"
  type: "Convolution"
  bottom: "loss1/ave_pool"
  top: "loss1/conv"
  param {
    lr_mult: 1
    decay_mult: 1
  }
  param {
    lr_mult: 2
    decay_mult: 0
  }
  convolution_param {
    num_output: 128
    kernel_size: 1
    weight_filler {
      type: "xavier"
    }
    bias_filler {
      type: "constant"
      value: 0.2
    }
  }
}
layer {
  name: "loss1/relu_conv"
  type: "ReLU"
  bottom: "loss1/conv"
  top: "loss1/conv"
}
layer {
  name: "loss1/fc"
  type: "InnerProduct"
  bottom: "loss1/conv"
  top: "loss1/fc"
  param {
    lr_mult: 1
    decay_mult: 1
  }
  param {
    lr_mult: 2
    decay_mult: 0
  }
  inner_product_param {
    num_output: 1024
    weight_filler {
      type: "xavier"
    }
    bias_filler {
      type: "constant"
      value: 0.2
    }
  }
}
layer {
  name: "loss1/relu_fc"
  type: "ReLU"
  bottom: "loss1/fc"
  top: "loss1/fc"
}
layer {
  name: "loss1/drop_fc"
  type: "Dropout"
  bottom: "loss1/fc"
  top: "loss1/fc"
  dropout_param {
    dropout_ratio: 0.7
  }
}
layer {
  name: "loss1/classifier_kaggle"
  type: "InnerProduct"
  bottom: "loss1/fc"
  top: "loss1/classifier_kaggle"
  param {
    lr_mult: 1
    decay_mult: 1
  }
  param {
    lr_mult: 2
    decay_mult: 0
  }
  inner_product_param {
    num_output: 447
    weight_filler {
      type: "xavier"
    }
    bias_filler {
      type: "constant"
      value: 0
    }
  }
}
layer {
  name: "loss1/loss"
  type: "SoftmaxWithLoss"
  bottom: "loss1/classifier_kaggle"
  bottom: "label"
  top: "loss1/loss1"
  loss_weight: 0.3
}
layer {
  name: "loss1/top-1"
  type: "Accuracy"
  bottom: "loss1/classifier_kaggle"
  bottom: "label"
  top: "loss1/top-1"
  include {
    phase: TEST
  }
}
layer {
  name: "loss1/top-5"
  type: "Accuracy"
  bottom: "loss1/classifier_kaggle"
  bottom: "label"
  top: "loss1/top-5"
  include {
    phase: TEST
  }
  accuracy_param {
    top_k: 5
  }
}
layer {
  name: "inception_4b/1x1"
  type: "Convolution"
  bottom: "inception_4a/output"
  top: "inception_4b/1x1"
  param {
    lr_mult: 1
    decay_mult: 1
  }
  param {
    lr_mult: 2
    decay_mult: 0
  }
  convolution_param {
    num_output: 160
    kernel_size: 1
    weight_filler {
      type: "xavier"
    }
    bias_filler {
      type: "constant"
      value: 0.2
    }
  }
}
layer {
  name: "inception_4b/relu_1x1"
  type: "ReLU"
  bottom: "inception_4b/1x1"
  top: "inception_4b/1x1"
}
layer {
  name: "inception_4b/3x3_reduce"
  type: "Convolution"
  bottom: "inception_4a/output"
  top: "inception_4b/3x3_reduce"
  param {
    lr_mult: 1
    decay_mult: 1
  }
  param {
    lr_mult: 2
    decay_mult: 0
  }
  convolution_param {
    num_output: 112
    kernel_size: 1
    weight_filler {
      type: "xavier"
    }
    bias_filler {
      type: "constant"
      value: 0.2
    }
  }
}
layer {
  name: "inception_4b/relu_3x3_reduce"
  type: "ReLU"
  bottom: "inception_4b/3x3_reduce"
  top: "inception_4b/3x3_reduce"
}
layer {
  name: "inception_4b/3x3"
  type: "Convolution"
  bottom: "inception_4b/3x3_reduce"
  top: "inception_4b/3x3"
  param {
    lr_mult: 1
    decay_mult: 1
  }
  param {
    lr_mult: 2
    decay_mult: 0
  }
  convolution_param {
    num_output: 224
    pad: 1
    kernel_size: 3
    weight_filler {
      type: "xavier"
    }
    bias_filler {
      type: "constant"
      value: 0.2
    }
  }
}
layer {
  name: "inception_4b/relu_3x3"
  type: "ReLU"
  bottom: "inception_4b/3x3"
  top: "inception_4b/3x3"
}
layer {
  name: "inception_4b/5x5_reduce"
  type: "Convolution"
  bottom: "inception_4a/output"
  top: "inception_4b/5x5_reduce"
  param {
    lr_mult: 1
    decay_mult: 1
  }
  param {
    lr_mult: 2
    decay_mult: 0
  }
  convolution_param {
    num_output: 24
    kernel_size: 1
    weight_filler {
      type: "xavier"
    }
    bias_filler {
      type: "constant"
      value: 0.2
    }
  }
}
layer {
  name: "inception_4b/relu_5x5_reduce"
  type: "ReLU"
  bottom: "inception_4b/5x5_reduce"
  top: "inception_4b/5x5_reduce"
}
layer {
  name: "inception_4b/5x5"
  type: "Convolution"
  bottom: "inception_4b/5x5_reduce"
  top: "inception_4b/5x5"
  param {
    lr_mult: 1
    decay_mult: 1
  }
  param {
    lr_mult: 2
    decay_mult: 0
  }
  convolution_param {
    num_output: 64
    pad: 2
    kernel_size: 5
    weight_filler {
      type: "xavier"
    }
    bias_filler {
      type: "constant"
      value: 0.2
    }
  }
}
layer {
  name: "inception_4b/relu_5x5"
  type: "ReLU"
  bottom: "inception_4b/5x5"
  top: "inception_4b/5x5"
}
layer {
  name: "inception_4b/pool"
  type: "Pooling"
  bottom: "inception_4a/output"
  top: "inception_4b/pool"
  pooling_param {
    pool: MAX
    kernel_size: 3
    stride: 1
    pad: 1
  }
}
layer {
  name: "inception_4b/pool_proj"
  type: "Convolution"
  bottom: "inception_4b/pool"
  top: "inception_4b/pool_proj"
  param {
    lr_mult: 1
    decay_mult: 1
  }
  param {
    lr_mult: 2
    decay_mult: 0
  }
  convolution_param {
    num_output: 64
    kernel_size: 1
    weight_filler {
      type: "xavier"
    }
    bias_filler {
      type: "constant"
      value: 0.2
    }
  }
}
layer {
  name: "inception_4b/relu_pool_proj"
  type: "ReLU"
  bottom: "inception_4b/pool_proj"
  top: "inception_4b/pool_proj"
}
layer {
  name: "inception_4b/output"
  type: "Concat"
  bottom: "inception_4b/1x1"
  bottom: "inception_4b/3x3"
  bottom: "inception_4b/5x5"
  bottom: "inception_4b/pool_proj"
  top: "inception_4b/output"
}
layer {
  name: "inception_4c/1x1"
  type: "Convolution"
  bottom: "inception_4b/output"
  top: "inception_4c/1x1"
  param {
    lr_mult: 1
    decay_mult: 1
  }
  param {
    lr_mult: 2
    decay_mult: 0
  }
  convolution_param {
    num_output: 128
    kernel_size: 1
    weight_filler {
      type: "xavier"
    }
    bias_filler {
      type: "constant"
      value: 0.2
    }
  }
}
layer {
  name: "inception_4c/relu_1x1"
  type: "ReLU"
  bottom: "inception_4c/1x1"
  top: "inception_4c/1x1"
}
layer {
  name: "inception_4c/3x3_reduce"
  type: "Convolution"
  bottom: "inception_4b/output"
  top: "inception_4c/3x3_reduce"
  param {
    lr_mult: 1
    decay_mult: 1
  }
  param {
    lr_mult: 2
    decay_mult: 0
  }
  convolution_param {
    num_output: 128
    kernel_size: 1
    weight_filler {
      type: "xavier"
    }
    bias_filler {
      type: "constant"
      value: 0.2
    }
  }
}
layer {
  name: "inception_4c/relu_3x3_reduce"
  type: "ReLU"
  bottom: "inception_4c/3x3_reduce"
  top: "inception_4c/3x3_reduce"
}
layer {
  name: "inception_4c/3x3"
  type: "Convolution"
  bottom: "inception_4c/3x3_reduce"
  top: "inception_4c/3x3"
  param {
    lr_mult: 1
    decay_mult: 1
  }
  param {
    lr_mult: 2
    decay_mult: 0
  }
  convolution_param {
    num_output: 256
    pad: 1
    kernel_size: 3
    weight_filler {
      type: "xavier"
    }
    bias_filler {
      type: "constant"
      value: 0.2
    }
  }
}
layer {
  name: "inception_4c/relu_3x3"
  type: "ReLU"
  bottom: "inception_4c/3x3"
  top: "inception_4c/3x3"
}
layer {
  name: "inception_4c/5x5_reduce"
  type: "Convolution"
  bottom: "inception_4b/output"
  top: "inception_4c/5x5_reduce"
  param {
    lr_mult: 1
    decay_mult: 1
  }
  param {
    lr_mult: 2
    decay_mult: 0
  }
  convolution_param {
    num_output: 24
    kernel_size: 1
    weight_filler {
      type: "xavier"
    }
    bias_filler {
      type: "constant"
      value: 0.2
    }
  }
}
layer {
  name: "inception_4c/relu_5x5_reduce"
  type: "ReLU"
  bottom: "inception_4c/5x5_reduce"
  top: "inception_4c/5x5_reduce"
}
layer {
  name: "inception_4c/5x5"
  type: "Convolution"
  bottom: "inception_4c/5x5_reduce"
  top: "inception_4c/5x5"
  param {
    lr_mult: 1
    decay_mult: 1
  }
  param {
    lr_mult: 2
    decay_mult: 0
  }
  convolution_param {
    num_output: 64
    pad: 2
    kernel_size: 5
    weight_filler {
      type: "xavier"
    }
    bias_filler {
      type: "constant"
      value: 0.2
    }
  }
}
layer {
  name: "inception_4c/relu_5x5"
  type: "ReLU"
  bottom: "inception_4c/5x5"
  top: "inception_4c/5x5"
}
layer {
  name: "inception_4c/pool"
  type: "Pooling"
  bottom: "inception_4b/output"
  top: "inception_4c/pool"
  pooling_param {
    pool: MAX
    kernel_size: 3
    stride: 1
    pad: 1
  }
}
layer {
  name: "inception_4c/pool_proj"
  type: "Convolution"
  bottom: "inception_4c/pool"
  top: "inception_4c/pool_proj"
  param {
    lr_mult: 1
    decay_mult: 1
  }
  param {
    lr_mult: 2
    decay_mult: 0
  }
  convolution_param {
    num_output: 64
    kernel_size: 1
    weight_filler {
      type: "xavier"
    }
    bias_filler {
      type: "constant"
      value: 0.2
    }
  }
}
layer {
  name: "inception_4c/relu_pool_proj"
  type: "ReLU"
  bottom: "inception_4c/pool_proj"
  top: "inception_4c/pool_proj"
}
layer {
  name: "inception_4c/output"
  type: "Concat"
  bottom: "inception_4c/1x1"
  bottom: "inception_4c/3x3"
  bottom: "inception_4c/5x5"
  bottom: "inception_4c/pool_proj"
  top: "inception_4c/output"
}
layer {
  name: "inception_4d/1x1"
  type: "Convolution"
  bottom: "inception_4c/output"
  top: "inception_4d/1x1"
  param {
    lr_mult: 1
    decay_mult: 1
  }
  param {
    lr_mult: 2
    decay_mult: 0
  }
  convolution_param {
    num_output: 112
    kernel_size: 1
    weight_filler {
      type: "xavier"
    }
    bias_filler {
      type: "constant"
      value: 0.2
    }
  }
}
layer {
  name: "inception_4d/relu_1x1"
  type: "ReLU"
  bottom: "inception_4d/1x1"
  top: "inception_4d/1x1"
}
layer {
  name: "inception_4d/3x3_reduce"
  type: "Convolution"
  bottom: "inception_4c/output"
  top: "inception_4d/3x3_reduce"
  param {
    lr_mult: 1
    decay_mult: 1
  }
  param {
    lr_mult: 2
    decay_mult: 0
  }
  convolution_param {
    num_output: 144
    kernel_size: 1
    weight_filler {
      type: "xavier"
    }
    bias_filler {
      type: "constant"
      value: 0.2
    }
  }
}
layer {
  name: "inception_4d/relu_3x3_reduce"
  type: "ReLU"
  bottom: "inception_4d/3x3_reduce"
  top: "inception_4d/3x3_reduce"
}
layer {
  name: "inception_4d/3x3"
  type: "Convolution"
  bottom: "inception_4d/3x3_reduce"
  top: "inception_4d/3x3"
  param {
    lr_mult: 1
    decay_mult: 1
  }
  param {
    lr_mult: 2
    decay_mult: 0
  }
  convolution_param {
    num_output: 288
    pad: 1
    kernel_size: 3
    weight_filler {
      type: "xavier"
    }
    bias_filler {
      type: "constant"
      value: 0.2
    }
  }
}
layer {
  name: "inception_4d/relu_3x3"
  type: "ReLU"
  bottom: "inception_4d/3x3"
  top: "inception_4d/3x3"
}
layer {
  name: "inception_4d/5x5_reduce"
  type: "Convolution"
  bottom: "inception_4c/output"
  top: "inception_4d/5x5_reduce"
  param {
    lr_mult: 1
    decay_mult: 1
  }
  param {
    lr_mult: 2
    decay_mult: 0
  }
  convolution_param {
    num_output: 32
    kernel_size: 1
    weight_filler {
      type: "xavier"
    }
    bias_filler {
      type: "constant"
      value: 0.2
    }
  }
}
layer {
  name: "inception_4d/relu_5x5_reduce"
  type: "ReLU"
  bottom: "inception_4d/5x5_reduce"
  top: "inception_4d/5x5_reduce"
}
layer {
  name: "inception_4d/5x5"
  type: "Convolution"
  bottom: "inception_4d/5x5_reduce"
  top: "inception_4d/5x5"
  param {
    lr_mult: 1
    decay_mult: 1
  }
  param {
    lr_mult: 2
    decay_mult: 0
  }
  convolution_param {
    num_output: 64
    pad: 2
    kernel_size: 5
    weight_filler {
      type: "xavier"
    }
    bias_filler {
      type: "constant"
      value: 0.2
    }
  }
}
layer {
  name: "inception_4d/relu_5x5"
  type: "ReLU"
  bottom: "inception_4d/5x5"
  top: "inception_4d/5x5"
}
layer {
  name: "inception_4d/pool"
  type: "Pooling"
  bottom: "inception_4c/output"
  top: "inception_4d/pool"
  pooling_param {
    pool: MAX
    kernel_size: 3
    stride: 1
    pad: 1
  }
}
layer {
  name: "inception_4d/pool_proj"
  type: "Convolution"
  bottom: "inception_4d/pool"
  top: "inception_4d/pool_proj"
  param {
    lr_mult: 1
    decay_mult: 1
  }
  param {
    lr_mult: 2
    decay_mult: 0
  }
  convolution_param {
    num_output: 64
    kernel_size: 1
    weight_filler {
      type: "xavier"
    }
    bias_filler {
      type: "constant"
      value: 0.2
    }
  }
}
layer {
  name: "inception_4d/relu_pool_proj"
  type: "ReLU"
  bottom: "inception_4d/pool_proj"
  top: "inception_4d/pool_proj"
}
layer {
  name: "inception_4d/output"
  type: "Concat"
  bottom: "inception_4d/1x1"
  bottom: "inception_4d/3x3"
  bottom: "inception_4d/5x5"
  bottom: "inception_4d/pool_proj"
  top: "inception_4d/output"
}
layer {
  name: "loss2/ave_pool"
  type: "Pooling"
  bottom: "inception_4d/output"
  top: "loss2/ave_pool"
  pooling_param {
    pool: AVE
    kernel_size: 5
    stride: 3
  }
}
layer {
  name: "loss2/conv"
  type: "Convolution"
  bottom: "loss2/ave_pool"
  top: "loss2/conv"
  param {
    lr_mult: 1
    decay_mult: 1
  }
  param {
    lr_mult: 2
    decay_mult: 0
  }
  convolution_param {
…
I1216 23:02:15.954180 18693 net.cpp:84] Creating Layer inception_4c/1x1
I1216 23:02:15.954185 18693 net.cpp:380] inception_4c/1x1 <- inception_4b/output_inception_4b/output_0_split_0
I1216 23:02:15.954192 18693 net.cpp:338] inception_4c/1x1 -> inception_4c/1x1
I1216 23:02:15.954200 18693 net.cpp:113] Setting up inception_4c/1x1
I1216 23:02:15.955302 18693 net.cpp:120] Top shape: 50 128 14 14 (1254400)
I1216 23:02:15.955317 18693 layer_factory.hpp:74] Creating layer inception_4c/relu_1x1
I1216 23:02:15.955323 18693 net.cpp:84] Creating Layer inception_4c/relu_1x1
I1216 23:02:15.955328 18693 net.cpp:380] inception_4c/relu_1x1 <- inception_4c/1x1
I1216 23:02:15.955335 18693 net.cpp:327] inception_4c/relu_1x1 -> inception_4c/1x1 (in-place)
I1216 23:02:15.955343 18693 net.cpp:113] Setting up inception_4c/relu_1x1
I1216 23:02:15.955580 18693 net.cpp:120] Top shape: 50 128 14 14 (1254400)
I1216 23:02:15.955591 18693 layer_factory.hpp:74] Creating layer inception_4c/3x3_reduce
I1216 23:02:15.955601 18693 net.cpp:84] Creating Layer inception_4c/3x3_reduce
I1216 23:02:15.955606 18693 net.cpp:380] inception_4c/3x3_reduce <- inception_4b/output_inception_4b/output_0_split_1
I1216 23:02:15.955621 18693 net.cpp:338] inception_4c/3x3_reduce -> inception_4c/3x3_reduce
I1216 23:02:15.955636 18693 net.cpp:113] Setting up inception_4c/3x3_reduce
I1216 23:02:15.956732 18693 net.cpp:120] Top shape: 50 128 14 14 (1254400)
I1216 23:02:15.956745 18693 layer_factory.hpp:74] Creating layer inception_4c/relu_3x3_reduce
I1216 23:02:15.956754 18693 net.cpp:84] Creating Layer inception_4c/relu_3x3_reduce
I1216 23:02:15.956760 18693 net.cpp:380] inception_4c/relu_3x3_reduce <- inception_4c/3x3_reduce
I1216 23:02:15.956766 18693 net.cpp:327] inception_4c/relu_3x3_reduce -> inception_4c/3x3_reduce (in-place)
I1216 23:02:15.956773 18693 net.cpp:113] Setting up inception_4c/relu_3x3_reduce
I1216 23:02:15.956847 18693 net.cpp:120] Top shape: 50 128 14 14 (1254400)
I1216 23:02:15.956853 18693 layer_factory.hpp:74] Creating layer inception_4c/3x3
I1216 23:02:15.956863 18693 net.cpp:84] Creating Layer inception_4c/3x3
I1216 23:02:15.956867 18693 net.cpp:380] inception_4c/3x3 <- inception_4c/3x3_reduce
I1216 23:02:15.956874 18693 net.cpp:338] inception_4c/3x3 -> inception_4c/3x3
I1216 23:02:15.956881 18693 net.cpp:113] Setting up inception_4c/3x3
I1216 23:02:15.960435 18693 net.cpp:120] Top shape: 50 256 14 14 (2508800)
I1216 23:02:15.960463 18693 layer_factory.hpp:74] Creating layer inception_4c/relu_3x3
I1216 23:02:15.960472 18693 net.cpp:84] Creating Layer inception_4c/relu_3x3
I1216 23:02:15.960477 18693 net.cpp:380] inception_4c/relu_3x3 <- inception_4c/3x3
I1216 23:02:15.960484 18693 net.cpp:327] inception_4c/relu_3x3 -> inception_4c/3x3 (in-place)
I1216 23:02:15.960490 18693 net.cpp:113] Setting up inception_4c/relu_3x3
I1216 23:02:15.960561 18693 net.cpp:120] Top shape: 50 256 14 14 (2508800)
I1216 23:02:15.960566 18693 layer_factory.hpp:74] Creating layer inception_4c/5x5_reduce
I1216 23:02:15.960574 18693 net.cpp:84] Creating Layer inception_4c/5x5_reduce
I1216 23:02:15.960579 18693 net.cpp:380] inception_4c/5x5_reduce <- inception_4b/output_inception_4b/output_0_split_2
I1216 23:02:15.960588 18693 net.cpp:338] inception_4c/5x5_reduce -> inception_4c/5x5_reduce
I1216 23:02:15.960597 18693 net.cpp:113] Setting up inception_4c/5x5_reduce
I1216 23:02:15.961130 18693 net.cpp:120] Top shape: 50 24 14 14 (235200)
I1216 23:02:15.961145 18693 layer_factory.hpp:74] Creating layer inception_4c/relu_5x5_reduce
I1216 23:02:15.961153 18693 net.cpp:84] Creating Layer inception_4c/relu_5x5_reduce
I1216 23:02:15.961158 18693 net.cpp:380] inception_4c/relu_5x5_reduce <- inception_4c/5x5_reduce
I1216 23:02:15.961164 18693 net.cpp:327] inception_4c/relu_5x5_reduce -> inception_4c/5x5_reduce (in-place)
I1216 23:02:15.961171 18693 net.cpp:113] Setting up inception_4c/relu_5x5_reduce
I1216 23:02:15.961410 18693 net.cpp:120] Top shape: 50 24 14 14 (235200)
I1216 23:02:15.961421 18693 layer_factory.hpp:74] Creating layer inception_4c/5x5
I1216 23:02:15.961431 18693 net.cpp:84] Creating Layer inception_4c/5x5
I1216 23:02:15.961436 18693 net.cpp:380] inception_4c/5x5 <- inception_4c/5x5_reduce
I1216 23:02:15.961442 18693 net.cpp:338] inception_4c/5x5 -> inception_4c/5x5
I1216 23:02:15.961452 18693 net.cpp:113] Setting up inception_4c/5x5
I1216 23:02:15.962256 18693 net.cpp:120] Top shape: 50 64 14 14 (627200)
I1216 23:02:15.962270 18693 layer_factory.hpp:74] Creating layer inception_4c/relu_5x5
I1216 23:02:15.962277 18693 net.cpp:84] Creating Layer inception_4c/relu_5x5
I1216 23:02:15.962285 18693 net.cpp:380] inception_4c/relu_5x5 <- inception_4c/5x5
I1216 23:02:15.962291 18693 net.cpp:327] inception_4c/relu_5x5 -> inception_4c/5x5 (in-place)
I1216 23:02:15.962297 18693 net.cpp:113] Setting up inception_4c/relu_5x5
I1216 23:02:15.962364 18693 net.cpp:120] Top shape: 50 64 14 14 (627200)
I1216 23:02:15.962371 18693 layer_factory.hpp:74] Creating layer inception_4c/pool
I1216 23:02:15.962376 18693 layer_factory.cpp:56] CUDNN does not support padding or multiple tops. Using Caffe's own pooling layer.
I1216 23:02:15.962383 18693 net.cpp:84] Creating Layer inception_4c/pool
I1216 23:02:15.962388 18693 net.cpp:380] inception_4c/pool <- inception_4b/output_inception_4b/output_0_split_3
I1216 23:02:15.962406 18693 net.cpp:338] inception_4c/pool -> inception_4c/pool
I1216 23:02:15.962414 18693 net.cpp:113] Setting up inception_4c/pool
I1216 23:02:15.962424 18693 net.cpp:120] Top shape: 50 512 14 14 (5017600)
I1216 23:02:15.962430 18693 layer_factory.hpp:74] Creating layer inception_4c/pool_proj
I1216 23:02:15.962437 18693 net.cpp:84] Creating Layer inception_4c/pool_proj
I1216 23:02:15.962442 18693 net.cpp:380] inception_4c/pool_proj <- inception_4c/pool
I1216 23:02:15.962450 18693 net.cpp:338] inception_4c/pool_proj -> inception_4c/pool_proj
I1216 23:02:15.962457 18693 net.cpp:113] Setting up inception_4c/pool_proj
I1216 23:02:15.963204 18693 net.cpp:120] Top shape: 50 64 14 14 (627200)
I1216 23:02:15.963218 18693 layer_factory.hpp:74] Creating layer inception_4c/relu_pool_proj
I1216 23:02:15.963229 18693 net.cpp:84] Creating Layer inception_4c/relu_pool_proj
I1216 23:02:15.963234 18693 net.cpp:380] inception_4c/relu_pool_proj <- inception_4c/pool_proj
I1216 23:02:15.963241 18693 net.cpp:327] inception_4c/relu_pool_proj -> inception_4c/pool_proj (in-place)
I1216 23:02:15.963248 18693 net.cpp:113] Setting up inception_4c/relu_pool_proj
I1216 23:02:15.963316 18693 net.cpp:120] Top shape: 50 64 14 14 (627200)
I1216 23:02:15.963322 18693 layer_factory.hpp:74] Creating layer inception_4c/output
I1216 23:02:15.963330 18693 net.cpp:84] Creating Layer inception_4c/output
I1216 23:02:15.963333 18693 net.cpp:380] inception_4c/output <- inception_4c/1x1
I1216 23:02:15.963340 18693 net.cpp:380] inception_4c/output <- inception_4c/3x3
I1216 23:02:15.963345 18693 net.cpp:380] inception_4c/output <- inception_4c/5x5
I1216 23:02:15.963348 18693 net.cpp:380] inception_4c/output <- inception_4c/pool_proj
I1216 23:02:15.963354 18693 net.cpp:338] inception_4c/output -> inception_4c/output
I1216 23:02:15.963361 18693 net.cpp:113] Setting up inception_4c/output
I1216 23:02:15.963367 18693 net.cpp:120] Top shape: 50 512 14 14 (5017600)
I1216 23:02:15.963372 18693 layer_factory.hpp:74] Creating layer inception_4c/output_inception_4c/output_0_split
I1216 23:02:15.963378 18693 net.cpp:84] Creating Layer inception_4c/output_inception_4c/output_0_split
I1216 23:02:15.963382 18693 net.cpp:380] inception_4c/output_inception_4c/output_0_split <- inception_4c/output
I1216 23:02:15.963390 18693 net.cpp:338] inception_4c/output_inception_4c/output_0_split -> inception_4c/output_inception_4c/output_0_split_0
I1216 23:02:15.963397 18693 net.cpp:338] inception_4c/output_inception_4c/output_0_split -> inception_4c/output_inception_4c/output_0_split_1
I1216 23:02:15.963403 18693 net.cpp:338] inception_4c/output_inception_4c/output_0_split -> inception_4c/output_inception_4c/output_0_split_2
I1216 23:02:15.963410 18693 net.cpp:338] inception_4c/output_inception_4c/output_0_split -> inception_4c/output_inception_4c/output_0_split_3
I1216 23:02:15.963417 18693 net.cpp:113] Setting up inception_4c/output_inception_4c/output_0_split
I1216 23:02:15.963424 18693 net.cpp:120] Top shape: 50 512 14 14 (5017600)
I1216 23:02:15.963429 18693 net.cpp:120] Top shape: 50 512 14 14 (5017600)
I1216 23:02:15.963433 18693 net.cpp:120] Top shape: 50 512 14 14 (5017600)
I1216 23:02:15.963438 18693 net.cpp:120] Top shape: 50 512 14 14 (5017600)
I1216 23:02:15.963443 18693 layer_factory.hpp:74] Creating layer inception_4d/1x1
I1216 23:02:15.963450 18693 net.cpp:84] Creating Layer inception_4d/1x1
I1216 23:02:15.963454 18693 net.cpp:380] inception_4d/1x1 <- inception_4c/output_inception_4c/output_0_split_0
I1216 23:02:15.963462 18693 net.cpp:338] inception_4d/1x1 -> inception_4d/1x1
I1216 23:02:15.963469 18693 net.cpp:113] Setting up inception_4d/1x1
I1216 23:02:15.964488 18693 net.cpp:120] Top shape: 50 112 14 14 (1097600)
I1216 23:02:15.964504 18693 layer_factory.hpp:74] Creating layer inception_4d/relu_1x1
I1216 23:02:15.964511 18693 net.cpp:84] Creating Layer inception_4d/relu_1x1
I1216 23:02:15.964516 18693 net.cpp:380] inception_4d/relu_1x1 <- inception_4d/1x1
I1216 23:02:15.964527 18693 net.cpp:327] inception_4d/relu_1x1 -> inception_4d/1x1 (in-place)
I1216 23:02:15.964540 18693 net.cpp:113] Setting up inception_4d/relu_1x1
I1216 23:02:15.964607 18693 net.cpp:120] Top shape: 50 112 14 14 (1097600)
I1216 23:02:15.964613 18693 layer_factory.hpp:74] Creating layer inception_4d/3x3_reduce
I1216 23:02:15.964622 18693 net.cpp:84] Creating Layer inception_4d/3x3_reduce
I1216 23:02:15.964627 18693 net.cpp:380] inception_4d/3x3_reduce <- inception_4c/output_inception_4c/output_0_split_1
I1216 23:02:15.964634 18693 net.cpp:338] inception_4d/3x3_reduce -> inception_4d/3x3_reduce
I1216 23:02:15.964643 18693 net.cpp:113] Setting up inception_4d/3x3_reduce
I1216 23:02:15.965842 18693 net.cpp:120] Top shape: 50 144 14 14 (1411200)
I1216 23:02:15.965857 18693 layer_factory.hpp:74] Creating layer inception_4d/relu_3x3_reduce
I1216 23:02:15.965864 18693 net.cpp:84] Creating Layer inception_4d/relu_3x3_reduce
I1216 23:02:15.965870 18693 net.cpp:380] inception_4d/relu_3x3_reduce <- inception_4d/3x3_reduce
I1216 23:02:15.965876 18693 net.cpp:327] inception_4d/relu_3x3_reduce -> inception_4d/3x3_reduce (in-place)
I1216 23:02:15.965883 18693 net.cpp:113] Setting up inception_4d/relu_3x3_reduce
I1216 23:02:15.966127 18693 net.cpp:120] Top shape: 50 144 14 14 (1411200)
I1216 23:02:15.966138 18693 layer_factory.hpp:74] Creating layer inception_4d/3x3
I1216 23:02:15.966146 18693 net.cpp:84] Creating Layer inception_4d/3x3
I1216 23:02:15.966151 18693 net.cpp:380] inception_4d/3x3 <- inception_4d/3x3_reduce
I1216 23:02:15.966161 18693 net.cpp:338] inception_4d/3x3 -> inception_4d/3x3
I1216 23:02:15.966167 18693 net.cpp:113] Setting up inception_4d/3x3
I1216 23:02:15.970571 18693 net.cpp:120] Top shape: 50 288 14 14 (2822400)
I1216 23:02:15.970587 18693 layer_factory.hpp:74] Creating layer inception_4d/relu_3x3
I1216 23:02:15.970593 18693 net.cpp:84] Creating Layer inception_4d/relu_3x3
I1216 23:02:15.970598 18693 net.cpp:380] inception_4d/relu_3x3 <- inception_4d/3x3
I1216 23:02:15.970607 18693 net.cpp:327] inception_4d/relu_3x3 -> inception_4d/3x3 (in-place)
I1216 23:02:15.970615 18693 net.cpp:113] Setting up inception_4d/relu_3x3
I1216 23:02:15.970681 18693 net.cpp:120] Top shape: 50 288 14 14 (2822400)
I1216 23:02:15.970688 18693 layer_factory.hpp:74] Creating layer inception_4d/5x5_reduce
I1216 23:02:15.970697 18693 net.cpp:84] Creating Layer inception_4d/5x5_reduce
I1216 23:02:15.970703 18693 net.cpp:380] inception_4d/5x5_reduce <- inception_4c/output_inception_4c/output_0_split_2
I1216 23:02:15.970710 18693 net.cpp:338] inception_4d/5x5_reduce -> inception_4d/5x5_reduce
I1216 23:02:15.970717 18693 net.cpp:113] Setting up inception_4d/5x5_reduce
I1216 23:02:15.971328 18693 net.cpp:120] Top shape: 50 32 14 14 (313600)
I1216 23:02:15.971343 18693 layer_factory.hpp:74] Creating layer inception_4d/relu_5x5_reduce
I1216 23:02:15.971350 18693 net.cpp:84] Creating Layer inception_4d/relu_5x5_reduce
I1216 23:02:15.971355 18693 net.cpp:380] inception_4d/relu_5x5_reduce <- inception_4d/5x5_reduce
I1216 23:02:15.971364 18693 net.cpp:327] inception_4d/relu_5x5_reduce -> inception_4d/5x5_reduce (in-place)
I1216 23:02:15.971371 18693 net.cpp:113] Setting up inception_4d/relu_5x5_reduce
I1216 23:02:15.971438 18693 net.cpp:120] Top shape: 50 32 14 14 (313600)
I1216 23:02:15.971446 18693 layer_factory.hpp:74] Creating layer inception_4d/5x5
I1216 23:02:15.971456 18693 net.cpp:84] Creating Layer inception_4d/5x5
I1216 23:02:15.971459 18693 net.cpp:380] inception_4d/5x5 <- inception_4d/5x5_reduce
I1216 23:02:15.971467 18693 net.cpp:338] inception_4d/5x5 -> inception_4d/5x5
I1216 23:02:15.971475 18693 net.cpp:113] Setting up inception_4d/5x5
I1216 23:02:15.973181 18693 net.cpp:120] Top shape: 50 64 14 14 (627200)
I1216 23:02:15.973201 18693 layer_factory.hpp:74] Creating layer inception_4d/relu_5x5
I1216 23:02:15.973209 18693 net.cpp:84] Creating Layer inception_4d/relu_5x5
I1216 23:02:15.973215 18693 net.cpp:380] inception_4d/relu_5x5 <- inception_4d/5x5
I1216 23:02:15.973225 18693 net.cpp:327] inception_4d/relu_5x5 -> inception_4d/5x5 (in-place)
I1216 23:02:15.973239 18693 net.cpp:113] Setting up inception_4d/relu_5x5
I1216 23:02:15.973316 18693 net.cpp:120] Top shape: 50 64 14 14 (627200)
I1216 23:02:15.973323 18693 layer_factory.hpp:74] Creating layer inception_4d/pool
I1216 23:02:15.973330 18693 layer_factory.cpp:56] CUDNN does not support padding or multiple tops. Using Caffe's own pooling layer.
I1216 23:02:15.973336 18693 net.cpp:84] Creating Layer inception_4d/pool
I1216 23:02:15.973341 18693 net.cpp:380] inception_4d/pool <- inception_4c/output_inception_4c/output_0_split_3
I1216 23:02:15.973348 18693 net.cpp:338] inception_4d/pool -> inception_4d/pool
I1216 23:02:15.973356 18693 net.cpp:113] Setting up inception_4d/pool
I1216 23:02:15.973368 18693 net.cpp:120] Top shape: 50 512 14 14 (5017600)
I1216 23:02:15.973372 18693 layer_factory.hpp:74] Creating layer inception_4d/pool_proj
I1216 23:02:15.973381 18693 net.cpp:84] Creating Layer inception_4d/pool_proj
I1216 23:02:15.973387 18693 net.cpp:380] inception_4d/pool_proj <- inception_4d/pool
I1216 23:02:15.973392 18693 net.cpp:338] inception_4d/pool_proj -> inception_4d/pool_proj
I1216 23:02:15.973400 18693 net.cpp:113] Setting up inception_4d/pool_proj
I1216 23:02:15.974161 18693 net.cpp:120] Top shape: 50 64 14 14 (627200)
I1216 23:02:15.974177 18693 layer_factory.hpp:74] Creating layer inception_4d/relu_pool_proj
I1216 23:02:15.974187 18693 net.cpp:84] Creating Layer inception_4d/relu_pool_proj
I1216 23:02:15.974194 18693 net.cpp:380] inception_4d/relu_pool_proj <- inception_4d/pool_proj
I1216 23:02:15.974200 18693 net.cpp:327] inception_4d/relu_pool_proj -> inception_4d/pool_proj (in-place)
I1216 23:02:15.974206 18693 net.cpp:113] Setting up inception_4d/relu_pool_proj
I1216 23:02:15.974448 18693 net.cpp:120] Top shape: 50 64 14 14 (627200)
I1216 23:02:15.974459 18693 layer_factory.hpp:74] Creating layer inception_4d/output
I1216 23:02:15.974467 18693 net.cpp:84] Creating Layer inception_4d/output
I1216 23:02:15.974472 18693 net.cpp:380] inception_4d/output <- inception_4d/1x1
I1216 23:02:15.974478 18693 net.cpp:380] inception_4d/output <- inception_4d/3x3
I1216 23:02:15.974483 18693 net.cpp:380] inception_4d/output <- inception_4d/5x5
I1216 23:02:15.974488 18693 net.cpp:380] inception_4d/output <- inception_4d/pool_proj
I1216 23:02:15.974493 18693 net.cpp:338] inception_4d/output -> inception_4d/output
I1216 23:02:15.974501 18693 net.cpp:113] Setting up inception_4d/output
I1216 23:02:15.974509 18693 net.cpp:120] Top shape: 50 528 14 14 (5174400)
I1216 23:02:15.974512 18693 layer_factory.hpp:74] Creating layer inception_4d/output_inception_4d/output_0_split
I1216 23:02:15.974522 18693 net.cpp:84] Creating Layer inception_4d/output_inception_4d/output_0_split
I1216 23:02:15.974527 18693 net.cpp:380] inception_4d/output_inception_4d/output_0_split <- inception_4d/output
I1216 23:02:15.974534 18693 net.cpp:338] inception_4d/output_inception_4d/output_0_split -> inception_4d/output_inception_4d/output_0_split_0
I1216 23:02:15.974540 18693 net.cpp:338] inception_4d/output_inception_4d/output_0_split -> inception_4d/output_inception_4d/output_0_split_1
I1216 23:02:15.974550 18693 net.cpp:338] inception_4d/output_inception_4d/output_0_split -> inception_4d/output_inception_4d/output_0_split_2
I1216 23:02:15.974556 18693 net.cpp:338] inception_4d/output_inception_4d/output_0_split -> inception_4d/output_inception_4d/output_0_split_3
I1216 23:02:15.974562 18693 net.cpp:338] inception_4d/output_inception_4d/output_0_split -> inception_4d/output_inception_4d/output_0_split_4
I1216 23:02:15.974568 18693 net.cpp:113] Setting up inception_4d/output_inception_4d/output_0_split
I1216 23:02:15.974575 18693 net.cpp:120] Top shape: 50 528 14 14 (5174400)
I1216 23:02:15.974581 18693 net.cpp:120] Top shape: 50 528 14 14 (5174400)
I1216 23:02:15.974584 18693 net.cpp:120] Top shape: 50 528 14 14 (5174400)
I1216 23:02:15.974589 18693 net.cpp:120] Top shape: 50 528 14 14 (5174400)
I1216 23:02:15.974594 18693 net.cpp:120] Top shape: 50 528 14 14 (5174400)
I1216 23:02:15.974598 18693 layer_factory.hpp:74] Creating layer loss2/ave_pool
I1216 23:02:15.974609 18693 net.cpp:84] Creating Layer loss2/ave_pool
I1216 23:02:15.974620 18693 net.cpp:380] loss2/ave_pool <- inception_4d/output_inception_4d/output_0_split_0
I1216 23:02:15.974628 18693 net.cpp:338] loss2/ave_pool -> loss2/ave_pool
I1216 23:02:15.974635 18693 net.cpp:113] Setting up loss2/ave_pool
I1216 23:02:15.974709 18693 net.cpp:120] Top shape: 50 528 4 4 (422400)
I1216 23:02:15.974714 18693 layer_factory.hpp:74] Creating layer loss2/conv
I1216 23:02:15.974725 18693 net.cpp:84] Creating Layer loss2/conv
I1216 23:02:15.974730 18693 net.cpp:380] loss2/conv <- loss2/ave_pool
I1216 23:02:15.974736 18693 net.cpp:338] loss2/conv -> loss2/conv
I1216 23:02:15.974743 18693 net.cpp:113] Setting up loss2/conv
I1216 23:02:15.975874 18693 net.cpp:120] Top shape: 50 128 4 4 (102400)
I1216 23:02:15.975890 18693 layer_factory.hpp:74] Creating layer loss2/relu_conv
I1216 23:02:15.975898 18693 net.cpp:84] Creating Layer loss2/relu_conv
I1216 23:02:15.975903 18693 net.cpp:380] loss2/relu_conv <- loss2/conv
I1216 23:02:15.975909 18693 net.cpp:327] loss2/relu_conv -> loss2/conv (in-place)
I1216 23:02:15.975916 18693 net.cpp:113] Setting up loss2/relu_conv
I1216 23:02:15.975983 18693 net.cpp:120] Top shape: 50 128 4 4 (102400)
I1216 23:02:15.975991 18693 layer_factory.hpp:74] Creating layer loss2/fc
I1216 23:02:15.975998 18693 net.cpp:84] Creating Layer loss2/fc
I1216 23:02:15.976003 18693 net.cpp:380] loss2/fc <- loss2/conv
I1216 23:02:15.976011 18693 net.cpp:338] loss2/fc -> loss2/fc
I1216 23:02:15.976019 18693 net.cpp:113] Setting up loss2/fc
I1216 23:02:16.037751 18693 net.cpp:120] Top shape: 50 1024 (51200)
I1216 23:02:16.037767 18693 layer_factory.hpp:74] Creating layer loss2/relu_fc
I1216 23:02:16.037778 18693 net.cpp:84] Creating Layer loss2/relu_fc
I1216 23:02:16.037785 18693 net.cpp:380] loss2/relu_fc <- loss2/fc
I1216 23:02:16.037791 18693 net.cpp:327] loss2/relu_fc -> loss2/fc (in-place)
I1216 23:02:16.037797 18693 net.cpp:113] Setting up loss2/relu_fc
I1216 23:02:16.037876 18693 net.cpp:120] Top shape: 50 1024 (51200)
I1216 23:02:16.037883 18693 layer_factory.hpp:74] Creating layer loss2/drop_fc
I1216 23:02:16.037890 18693 net.cpp:84] Creating Layer loss2/drop_fc
I1216 23:02:16.037895 18693 net.cpp:380] loss2/drop_fc <- loss2/fc
I1216 23:02:16.037900 18693 net.cpp:327] loss2/drop_fc -> loss2/fc (in-place)
I1216 23:02:16.037909 18693 net.cpp:113] Setting up loss2/drop_fc
I1216 23:02:16.037915 18693 net.cpp:120] Top shape: 50 1024 (51200)
I1216 23:02:16.037919 18693 layer_factory.hpp:74] Creating layer loss2/classifier_kaggle
I1216 23:02:16.037927 18693 net.cpp:84] Creating Layer loss2/classifier_kaggle
I1216 23:02:16.037931 18693 net.cpp:380] loss2/classifier_kaggle <- loss2/fc
I1216 23:02:16.037937 18693 net.cpp:338] loss2/classifier_kaggle -> loss2/classifier_kaggle
I1216 23:02:16.037945 18693 net.cpp:113] Setting up loss2/classifier_kaggle
I1216 23:02:16.042703 18693 net.cpp:120] Top shape: 50 447 (22350)
I1216 23:02:16.042714 18693 layer_factory.hpp:74] Creating layer loss2/classifier_kaggle_loss2/classifier_kaggle_0_split
I1216 23:02:16.042722 18693 net.cpp:84] Creating Layer loss2/classifier_kaggle_loss2/classifier_kaggle_0_split
I1216 23:02:16.042727 18693 net.cpp:380] loss2/classifier_kaggle_loss2/classifier_kaggle_0_split <- loss2/classifier_kaggle
I1216 23:02:16.042733 18693 net.cpp:338] loss2/classifier_kaggle_loss2/classifier_kaggle_0_split -> loss2/classifier_kaggle_loss2/classifier_kaggle_0_split_0
I1216 23:02:16.042742 18693 net.cpp:338] loss2/classifier_kaggle_loss2/classifier_kaggle_0_split -> loss2/classifier_kaggle_loss2/classifier_kaggle_0_split_1
I1216 23:02:16.042749 18693 net.cpp:338] loss2/classifier_kaggle_loss2/classifier_kaggle_0_split -> loss2/classifier_kaggle_loss2/classifier_kaggle_0_split_2
I1216 23:02:16.042755 18693 net.cpp:113] Setting up loss2/classifier_kaggle_loss2/classifier_kaggle_0_split
I1216 23:02:16.042762 18693 net.cpp:120] Top shape: 50 447 (22350)
I1216 23:02:16.042767 18693 net.cpp:120] Top shape: 50 447 (22350)
I1216 23:02:16.042770 18693 net.cpp:120] Top shape: 50 447 (22350)
I1216 23:02:16.042779 18693 layer_factory.hpp:74] Creating layer loss2/loss
I1216 23:02:16.042793 18693 net.cpp:84] Creating Layer loss2/loss
I1216 23:02:16.042798 18693 net.cpp:380] loss2/loss <- loss2/classifier_kaggle_loss2/classifier_kaggle_0_split_0
I1216 23:02:16.042804 18693 net.cpp:380] loss2/loss <- label_data_1_split_3
I1216 23:02:16.042811 18693 net.cpp:338] loss2/loss -> loss2/loss1
…
I1216 23:02:16.043243 18693 net.cpp:338] loss2/top-5 -> loss2/top-5
I1216 23:02:16.043249 18693 net.cpp:113] Setting up loss2/top-5
I1216 23:02:16.043256 18693 net.cpp:120] Top shape: (1)
I1216 23:02:16.043259 18693 layer_factory.hpp:74] Creating layer inception_4e/1x1
I1216 23:02:16.043267 18693 net.cpp:84] Creating Layer inception_4e/1x1
I1216 23:02:16.043272 18693 net.cpp:380] inception_4e/1x1 <- inception_4d/output_inception_4d/output_0_split_1
I1216 23:02:16.043280 18693 net.cpp:338] inception_4e/1x1 -> inception_4e/1x1
I1216 23:02:16.043287 18693 net.cpp:113] Setting up inception_4e/1x1
I1216 23:02:16.045104 18693 net.cpp:120] Top shape: 50 256 14 14 (2508800)
I1216 23:02:16.045120 18693 layer_factory.hpp:74] Creating layer inception_4e/relu_1x1
I1216 23:02:16.045127 18693 net.cpp:84] Creating Layer inception_4e/relu_1x1
I1216 23:02:16.045136 18693 net.cpp:380] inception_4e/relu_1x1 <- inception_4e/1x1
I1216 23:02:16.045145 18693 net.cpp:327] inception_4e/relu_1x1 -> inception_4e/1x1 (in-place)
I1216 23:02:16.045152 18693 net.cpp:113] Setting up inception_4e/relu_1x1
I1216 23:02:16.045222 18693 net.cpp:120] Top shape: 50 256 14 14 (2508800)
I1216 23:02:16.045228 18693 layer_factory.hpp:74] Creating layer inception_4e/3x3_reduce
I1216 23:02:16.045258 18693 net.cpp:84] Creating Layer inception_4e/3x3_reduce
I1216 23:02:16.045263 18693 net.cpp:380] inception_4e/3x3_reduce <- inception_4d/output_inception_4d/output_0_split_2
I1216 23:02:16.045270 18693 net.cpp:338] inception_4e/3x3_reduce -> inception_4e/3x3_reduce
I1216 23:02:16.045279 18693 net.cpp:113] Setting up inception_4e/3x3_reduce
I1216 23:02:16.046557 18693 net.cpp:120] Top shape: 50 160 14 14 (1568000)
I1216 23:02:16.046572 18693 layer_factory.hpp:74] Creating layer inception_4e/relu_3x3_reduce
I1216 23:02:16.046579 18693 net.cpp:84] Creating Layer inception_4e/relu_3x3_reduce
I1216 23:02:16.046584 18693 net.cpp:380] inception_4e/relu_3x3_reduce <- inception_4e/3x3_reduce
I1216 23:02:16.046591 18693 net.cpp:327] inception_4e/relu_3x3_reduce -> inception_4e/3x3_reduce (in-place)
I1216 23:02:16.046597 18693 net.cpp:113] Setting up inception_4e/relu_3x3_reduce
I1216 23:02:16.046664 18693 net.cpp:120] Top shape: 50 160 14 14 (1568000)
I1216 23:02:16.046670 18693 layer_factory.hpp:74] Creating layer inception_4e/3x3
I1216 23:02:16.046680 18693 net.cpp:84] Creating Layer inception_4e/3x3
I1216 23:02:16.046685 18693 net.cpp:380] inception_4e/3x3 <- inception_4e/3x3_reduce
I1216 23:02:16.046691 18693 net.cpp:338] inception_4e/3x3 -> inception_4e/3x3
I1216 23:02:16.046705 18693 net.cpp:113] Setting up inception_4e/3x3
I1216 23:02:16.051978 18693 net.cpp:120] Top shape: 50 320 14 14 (3136000)
I1216 23:02:16.051995 18693 layer_factory.hpp:74] Creating layer inception_4e/relu_3x3
I1216 23:02:16.052002 18693 net.cpp:84] Creating Layer inception_4e/relu_3x3
I1216 23:02:16.052007 18693 net.cpp:380] inception_4e/relu_3x3 <- inception_4e/3x3
I1216 23:02:16.052014 18693 net.cpp:327] inception_4e/relu_3x3 -> inception_4e/3x3 (in-place)
I1216 23:02:16.052021 18693 net.cpp:113] Setting up inception_4e/relu_3x3
I1216 23:02:16.052251 18693 net.cpp:120] Top shape: 50 320 14 14 (3136000)
I1216 23:02:16.052263 18693 layer_factory.hpp:74] Creating layer inception_4e/5x5_reduce
I1216 23:02:16.052270 18693 net.cpp:84] Creating Layer inception_4e/5x5_reduce
I1216 23:02:16.052275 18693 net.cpp:380] inception_4e/5x5_reduce <- inception_4d/output_inception_4d/output_0_split_3
I1216 23:02:16.052284 18693 net.cpp:338] inception_4e/5x5_reduce -> inception_4e/5x5_reduce
I1216 23:02:16.052291 18693 net.cpp:113] Setting up inception_4e/5x5_reduce
I1216 23:02:16.052837 18693 net.cpp:120] Top shape: 50 32 14 14 (313600)
I1216 23:02:16.052851 18693 layer_factory.hpp:74] Creating layer inception_4e/relu_5x5_reduce
I1216 23:02:16.052860 18693 net.cpp:84] Creating Layer inception_4e/relu_5x5_reduce
I1216 23:02:16.052865 18693 net.cpp:380] inception_4e/relu_5x5_reduce <- inception_4e/5x5_reduce
I1216 23:02:16.052871 18693 net.cpp:327] inception_4e/relu_5x5_reduce -> inception_4e/5x5_reduce (in-place)
I1216 23:02:16.052878 18693 net.cpp:113] Setting up inception_4e/relu_5x5_reduce
I1216 23:02:16.052947 18693 net.cpp:120] Top shape: 50 32 14 14 (313600)
I1216 23:02:16.052953 18693 layer_factory.hpp:74] Creating layer inception_4e/5x5
I1216 23:02:16.052961 18693 net.cpp:84] Creating Layer inception_4e/5x5
I1216 23:02:16.052966 18693 net.cpp:380] inception_4e/5x5 <- inception_4e/5x5_reduce
I1216 23:02:16.052974 18693 net.cpp:338] inception_4e/5x5 -> inception_4e/5x5
I1216 23:02:16.052981 18693 net.cpp:113] Setting up inception_4e/5x5
I1216 23:02:16.054468 18693 net.cpp:120] Top shape: 50 128 14 14 (1254400)
I1216 23:02:16.054484 18693 layer_factory.hpp:74] Creating layer inception_4e/relu_5x5
I1216 23:02:16.054493 18693 net.cpp:84] Creating Layer inception_4e/relu_5x5
I1216 23:02:16.054498 18693 net.cpp:380] inception_4e/relu_5x5 <- inception_4e/5x5
I1216 23:02:16.054504 18693 net.cpp:327] inception_4e/relu_5x5 -> inception_4e/5x5 (in-place)
I1216 23:02:16.054512 18693 net.cpp:113] Setting up inception_4e/relu_5x5
I1216 23:02:16.054576 18693 net.cpp:120] Top shape: 50 128 14 14 (1254400)
I1216 23:02:16.054582 18693 layer_factory.hpp:74] Creating layer inception_4e/pool
I1216 23:02:16.054587 18693 layer_factory.cpp:56] CUDNN does not support padding or multiple tops. Using Caffe's own pooling layer.
I1216 23:02:16.054595 18693 net.cpp:84] Creating Layer inception_4e/pool
I1216 23:02:16.054600 18693 net.cpp:380] inception_4e/pool <- inception_4d/output_inception_4d/output_0_split_4
I1216 23:02:16.054606 18693 net.cpp:338] inception_4e/pool -> inception_4e/pool
I1216 23:02:16.054617 18693 net.cpp:113] Setting up inception_4e/pool
I1216 23:02:16.054625 18693 net.cpp:120] Top shape: 50 528 14 14 (5174400)
I1216 23:02:16.054630 18693 layer_factory.hpp:74] Creating layer inception_4e/pool_proj
I1216 23:02:16.054636 18693 net.cpp:84] Creating Layer inception_4e/pool_proj
I1216 23:02:16.054641 18693 net.cpp:380] inception_4e/pool_proj <- inception_4e/pool
I1216 23:02:16.054648 18693 net.cpp:338] inception_4e/pool_proj -> inception_4e/pool_proj
I1216 23:02:16.054656 18693 net.cpp:113] Setting up inception_4e/pool_proj
I1216 23:02:16.055744 18693 net.cpp:120] Top shape: 50 128 14 14 (1254400)
I1216 23:02:16.055758 18693 layer_factory.hpp:74] Creating layer inception_4e/relu_pool_proj
I1216 23:02:16.055764 18693 net.cpp:84] Creating Layer inception_4e/relu_pool_proj
I1216 23:02:16.055769 18693 net.cpp:380] inception_4e/relu_pool_proj <- inception_4e/pool_proj
I1216 23:02:16.055776 18693 net.cpp:327] inception_4e/relu_pool_proj -> inception_4e/pool_proj (in-place)
I1216 23:02:16.055794 18693 net.cpp:113] Setting up inception_4e/relu_pool_proj
I1216 23:02:16.055860 18693 net.cpp:120] Top shape: 50 128 14 14 (1254400)
I1216 23:02:16.055866 18693 layer_factory.hpp:74] Creating layer inception_4e/output
I1216 23:02:16.055873 18693 net.cpp:84] Creating Layer inception_4e/output
I1216 23:02:16.055877 18693 net.cpp:380] inception_4e/output <- inception_4e/1x1
I1216 23:02:16.055882 18693 net.cpp:380] inception_4e/output <- inception_4e/3x3
I1216 23:02:16.055887 18693 net.cpp:380] inception_4e/output <- inception_4e/5x5
I1216 23:02:16.055892 18693 net.cpp:380] inception_4e/output <- inception_4e/pool_proj
I1216 23:02:16.055897 18693 net.cpp:338] inception_4e/output -> inception_4e/output
I1216 23:02:16.055904 18693 net.cpp:113] Setting up inception_4e/output
I1216 23:02:16.055912 18693 net.cpp:120] Top shape: 50 832 14 14 (8153600)
I1216 23:02:16.055915 18693 layer_factory.hpp:74] Creating layer pool4/3x3_s2
I1216 23:02:16.055923 18693 net.cpp:84] Creating Layer pool4/3x3_s2
I1216 23:02:16.055928 18693 net.cpp:380] pool4/3x3_s2 <- inception_4e/output
I1216 23:02:16.055934 18693 net.cpp:338] pool4/3x3_s2 -> pool4/3x3_s2
I1216 23:02:16.055941 18693 net.cpp:113] Setting up pool4/3x3_s2
I1216 23:02:16.056180 18693 net.cpp:120] Top shape: 50 832 7 7 (2038400)
I1216 23:02:16.056192 18693 layer_factory.hpp:74] Creating layer pool4/3x3_s2_pool4/3x3_s2_0_split
I1216 23:02:16.056200 18693 net.cpp:84] Creating Layer pool4/3x3_s2_pool4/3x3_s2_0_split
I1216 23:02:16.056205 18693 net.cpp:380] pool4/3x3_s2_pool4/3x3_s2_0_split <- pool4/3x3_s2
I1216 23:02:16.056213 18693 net.cpp:338] pool4/3x3_s2_pool4/3x3_s2_0_split -> pool4/3x3_s2_pool4/3x3_s2_0_split_0
I1216 23:02:16.056221 18693 net.cpp:338] pool4/3x3_s2_pool4/3x3_s2_0_split -> pool4/3x3_s2_pool4/3x3_s2_0_split_1
I1216 23:02:16.056227 18693 net.cpp:338] pool4/3x3_s2_pool4/3x3_s2_0_split -> pool4/3x3_s2_pool4/3x3_s2_0_split_2
I1216 23:02:16.056252 18693 net.cpp:338] pool4/3x3_s2_pool4/3x3_s2_0_split -> pool4/3x3_s2_pool4/3x3_s2_0_split_3
I1216 23:02:16.056258 18693 net.cpp:113] Setting up pool4/3x3_s2_pool4/3x3_s2_0_split
I1216 23:02:16.056265 18693 net.cpp:120] Top shape: 50 832 7 7 (2038400)
I1216 23:02:16.056270 18693 net.cpp:120] Top shape: 50 832 7 7 (2038400)
I1216 23:02:16.056277 18693 net.cpp:120] Top shape: 50 832 7 7 (2038400)
I1216 23:02:16.056280 18693 net.cpp:120] Top shape: 50 832 7 7 (2038400)
I1216 23:02:16.056285 18693 layer_factory.hpp:74] Creating layer inception_5a/1x1
I1216 23:02:16.056294 18693 net.cpp:84] Creating Layer inception_5a/1x1
I1216 23:02:16.056299 18693 net.cpp:380] inception_5a/1x1 <- pool4/3x3_s2_pool4/3x3_s2_0_split_0
I1216 23:02:16.056306 18693 net.cpp:338] inception_5a/1x1 -> inception_5a/1x1
I1216 23:02:16.056313 18693 net.cpp:113] Setting up inception_5a/1x1
I1216 23:02:16.058939 18693 net.cpp:120] Top shape: 50 256 7 7 (627200)
I1216 23:02:16.058955 18693 layer_factory.hpp:74] Creating layer inception_5a/relu_1x1
I1216 23:02:16.058961 18693 net.cpp:84] Creating Layer inception_5a/relu_1x1
I1216 23:02:16.058966 18693 net.cpp:380] inception_5a/relu_1x1 <- inception_5a/1x1
I1216 23:02:16.058974 18693 net.cpp:327] inception_5a/relu_1x1 -> inception_5a/1x1 (in-place)
I1216 23:02:16.058982 18693 net.cpp:113] Setting up inception_5a/relu_1x1
I1216 23:02:16.059051 18693 net.cpp:120] Top shape: 50 256 7 7 (627200)
I1216 23:02:16.059057 18693 layer_factory.hpp:74] Creating layer inception_5a/3x3_reduce
I1216 23:02:16.059067 18693 net.cpp:84] Creating Layer inception_5a/3x3_reduce
I1216 23:02:16.059072 18693 net.cpp:380] inception_5a/3x3_reduce <- pool4/3x3_s2_pool4/3x3_s2_0_split_1
I1216 23:02:16.059078 18693 net.cpp:338] inception_5a/3x3_reduce -> inception_5a/3x3_reduce
I1216 23:02:16.059087 18693 net.cpp:113] Setting up inception_5a/3x3_reduce
I1216 23:02:16.060853 18693 net.cpp:120] Top shape: 50 160 7 7 (392000)
I1216 23:02:16.060868 18693 layer_factory.hpp:74] Creating layer inception_5a/relu_3x3_reduce
I1216 23:02:16.060874 18693 net.cpp:84] Creating Layer inception_5a/relu_3x3_reduce
I1216 23:02:16.060885 18693 net.cpp:380] inception_5a/relu_3x3_reduce <- inception_5a/3x3_reduce
I1216 23:02:16.060897 18693 net.cpp:327] inception_5a/relu_3x3_reduce -> inception_5a/3x3_reduce (in-place)
I1216 23:02:16.060905 18693 net.cpp:113] Setting up inception_5a/relu_3x3_reduce
I1216 23:02:16.060972 18693 net.cpp:120] Top shape: 50 160 7 7 (392000)
I1216 23:02:16.060978 18693 layer_factory.hpp:74] Creating layer inception_5a/3x3
I1216 23:02:16.060987 18693 net.cpp:84] Creating Layer inception_5a/3x3
I1216 23:02:16.060992 18693 net.cpp:380] inception_5a/3x3 <- inception_5a/3x3_reduce
I1216 23:02:16.060999 18693 net.cpp:338] inception_5a/3x3 -> inception_5a/3x3
I1216 23:02:16.061007 18693 net.cpp:113] Setting up inception_5a/3x3
I1216 23:02:16.066239 18693 net.cpp:120] Top shape: 50 320 7 7 (784000)
I1216 23:02:16.066256 18693 layer_factory.hpp:74] Creating layer inception_5a/relu_3x3
I1216 23:02:16.066262 18693 net.cpp:84] Creating Layer inception_5a/relu_3x3
I1216 23:02:16.066267 18693 net.cpp:380] inception_5a/relu_3x3 <- inception_5a/3x3
I1216 23:02:16.066273 18693 net.cpp:327] inception_5a/relu_3x3 -> inception_5a/3x3 (in-place)
I1216 23:02:16.066280 18693 net.cpp:113] Setting up inception_5a/relu_3x3
I1216 23:02:16.066345 18693 net.cpp:120] Top shape: 50 320 7 7 (784000)
I1216 23:02:16.066351 18693 layer_factory.hpp:74] Creating layer inception_5a/5x5_reduce
I1216 23:02:16.066359 18693 net.cpp:84] Creating Layer inception_5a/5x5_reduce
I1216 23:02:16.066365 18693 net.cpp:380] inception_5a/5x5_reduce <- pool4/3x3_s2_pool4/3x3_s2_0_split_2
I1216 23:02:16.066372 18693 net.cpp:338] inception_5a/5x5_reduce -> inception_5a/5x5_reduce
I1216 23:02:16.066380 18693 net.cpp:113] Setting up inception_5a/5x5_reduce
I1216 23:02:16.067049 18693 net.cpp:120] Top shape: 50 32 7 7 (78400)
I1216 23:02:16.067064 18693 layer_factory.hpp:74] Creating layer inception_5a/relu_5x5_reduce
I1216 23:02:16.067070 18693 net.cpp:84] Creating Layer inception_5a/relu_5x5_reduce
I1216 23:02:16.067077 18693 net.cpp:380] inception_5a/relu_5x5_reduce <- inception_5a/5x5_reduce
I1216 23:02:16.067085 18693 net.cpp:327] inception_5a/relu_5x5_reduce -> inception_5a/5x5_reduce (in-place)
I1216 23:02:16.067090 18693 net.cpp:113] Setting up inception_5a/relu_5x5_reduce
I1216 23:02:16.067327 18693 net.cpp:120] Top shape: 50 32 7 7 (78400)
I1216 23:02:16.067337 18693 layer_factory.hpp:74] Creating layer inception_5a/5x5
I1216 23:02:16.067345 18693 net.cpp:84] Creating Layer inception_5a/5x5
I1216 23:02:16.067349 18693 net.cpp:380] inception_5a/5x5 <- inception_5a/5x5_reduce
I1216 23:02:16.067358 18693 net.cpp:338] inception_5a/5x5 -> inception_5a/5x5
I1216 23:02:16.067366 18693 net.cpp:113] Setting up inception_5a/5x5
I1216 23:02:16.070605 18693 net.cpp:120] Top shape: 50 128 7 7 (313600)
I1216 23:02:16.070623 18693 layer_factory.hpp:74] Creating layer inception_5a/relu_5x5
I1216 23:02:16.070633 18693 net.cpp:84] Creating Layer inception_5a/relu_5x5
I1216 23:02:16.070638 18693 net.cpp:380] inception_5a/relu_5x5 <- inception_5a/5x5
I1216 23:02:16.070646 18693 net.cpp:327] inception_5a/relu_5x5 -> inception_5a/5x5 (in-place)
I1216 23:02:16.070653 18693 net.cpp:113] Setting up inception_5a/relu_5x5
I1216 23:02:16.070729 18693 net.cpp:120] Top shape: 50 128 7 7 (313600)
I1216 23:02:16.070736 18693 layer_factory.hpp:74] Creating layer inception_5a/pool
I1216 23:02:16.070741 18693 layer_factory.cpp:56] CUDNN does not support padding or multiple tops. Using Caffe's own pooling layer.
I1216 23:02:16.070747 18693 net.cpp:84] Creating Layer inception_5a/pool
I1216 23:02:16.070751 18693 net.cpp:380] inception_5a/pool <- pool4/3x3_s2_pool4/3x3_s2_0_split_3
I1216 23:02:16.070760 18693 net.cpp:338] inception_5a/pool -> inception_5a/pool
I1216 23:02:16.070767 18693 net.cpp:113] Setting up inception_5a/pool
I1216 23:02:16.070775 18693 net.cpp:120] Top shape: 50 832 7 7 (2038400)
I1216 23:02:16.070780 18693 layer_factory.hpp:74] Creating layer inception_5a/pool_proj
I1216 23:02:16.070788 18693 net.cpp:84] Creating Layer inception_5a/pool_proj
I1216 23:02:16.070798 18693 net.cpp:380] inception_5a/pool_proj <- inception_5a/pool
I1216 23:02:16.070825 18693 net.cpp:338] inception_5a/pool_proj -> inception_5a/pool_proj
I1216 23:02:16.070834 18693 net.cpp:113] Setting up inception_5a/pool_proj
I1216 23:02:16.072365 18693 net.cpp:120] Top shape: 50 128 7 7 (313600)
I1216 23:02:16.072381 18693 layer_factory.hpp:74] Creating layer inception_5a/relu_pool_proj
I1216 23:02:16.072387 18693 net.cpp:84] Creating Layer inception_5a/relu_pool_proj
I1216 23:02:16.072393 18693 net.cpp:380] inception_5a/relu_pool_proj <- inception_5a/pool_proj
I1216 23:02:16.072399 18693 net.cpp:327] inception_5a/relu_pool_proj -> inception_5a/pool_proj (in-place)
I1216 23:02:16.072407 18693 net.cpp:113] Setting up inception_5a/relu_pool_proj
I1216 23:02:16.072474 18693 net.cpp:120] Top shape: 50 128 7 7 (313600)
I1216 23:02:16.072479 18693 layer_factory.hpp:74] Creating layer inception_5a/output
I1216 23:02:16.072486 18693 net.cpp:84] Creating Layer inception_5a/output
I1216 23:02:16.072491 18693 net.cpp:380] inception_5a/output <- inception_5a/1x1
I1216 23:02:16.072496 18693 net.cpp:380] inception_5a/output <- inception_5a/3x3
I1216 23:02:16.072501 18693 net.cpp:380] inception_5a/output <- inception_5a/5x5
I1216 23:02:16.072506 18693 net.cpp:380] inception_5a/output <- inception_5a/pool_proj
I1216 23:02:16.072511 18693 net.cpp:338] inception_5a/output -> inception_5a/output
I1216 23:02:16.072518 18693 net.cpp:113] Setting up inception_5a/output
I1216 23:02:16.072525 18693 net.cpp:120] Top shape: 50 832 7 7 (2038400)
I1216 23:02:16.072530 18693 layer_factory.hpp:74] Creating layer inception_5a/output_inception_5a/output_0_split
I1216 23:02:16.072540 18693 net.cpp:84] Creating Layer inception_5a/output_inception_5a/output_0_split
I1216 23:02:16.072545 18693 net.cpp:380] inception_5a/output_inception_5a/output_0_split <- inception_5a/output
I1216 23:02:16.072551 18693 net.cpp:338] inception_5a/output_inception_5a/output_0_split -> inception_5a/output_inception_5a/output_0_split_0
I1216 23:02:16.072557 18693 net.cpp:338] inception_5a/output_inception_5a/output_0_split -> inception_5a/output_inception_5a/output_0_split_1
I1216 23:02:16.072564 18693 net.cpp:338] inception_5a/output_inception_5a/output_0_split -> inception_5a/output_inception_5a/output_0_split_2
I1216 23:02:16.072572 18693 net.cpp:338] inception_5a/output_inception_5a/output_0_split -> inception_5a/output_inception_5a/output_0_split_3
I1216 23:02:16.072578 18693 net.cpp:113] Setting up inception_5a/output_inception_5a/output_0_split
I1216 23:02:16.072584 18693 net.cpp:120] Top shape: 50 832 7 7 (2038400)
I1216 23:02:16.072589 18693 net.cpp:120] Top shape: 50 832 7 7 (2038400)
I1216 23:02:16.072593 18693 net.cpp:120] Top shape: 50 832 7 7 (2038400)
I1216 23:02:16.072597 18693 net.cpp:120] Top shape: 50 832 7 7 (2038400)
I1216 23:02:16.072602 18693 layer_factory.hpp:74] Creating layer inception_5b/1x1
I1216 23:02:16.072609 18693 net.cpp:84] Creating Layer inception_5b/1x1
I1216 23:02:16.072614 18693 net.cpp:380] inception_5b/1x1 <- inception_5a/output_inception_5a/output_0_split_0
I1216 23:02:16.072623 18693 net.cpp:338] inception_5b/1x1 -> inception_5b/1x1
I1216 23:02:16.072629 18693 net.cpp:113] Setting up inception_5b/1x1
I1216 23:02:16.076360 18693 net.cpp:120] Top shape: 50 384 7 7 (940800)
I1216 23:02:16.076376 18693 layer_factory.hpp:74] Creating layer inception_5b/relu_1x1
I1216 23:02:16.076383 18693 net.cpp:84] Creating Layer inception_5b/relu_1x1
I1216 23:02:16.076388 18693 net.cpp:380] inception_5b/relu_1x1 <- inception_5b/1x1
I1216 23:02:16.076396 18693 net.cpp:327] inception_5b/relu_1x1 -> inception_5b/1x1 (in-place)
I1216 23:02:16.076405 18693 net.cpp:113] Setting up inception_5b/relu_1x1
I1216 23:02:16.076472 18693 net.cpp:120] Top shape: 50 384 7 7 (940800)
I1216 23:02:16.076478 18693 layer_factory.hpp:74] Creating layer inception_5b/3x3_reduce
I1216 23:02:16.076486 18693 net.cpp:84] Creating Layer inception_5b/3x3_reduce
I1216 23:02:16.076491 18693 net.cpp:380] inception_5b/3x3_reduce <- inception_5a/output_inception_5a/output_0_split_1
I1216 23:02:16.076505 18693 net.cpp:338] inception_5b/3x3_reduce -> inception_5b/3x3_reduce
I1216 23:02:16.076520 18693 net.cpp:113] Setting up inception_5b/3x3_reduce
I1216 23:02:16.078603 18693 net.cpp:120] Top shape: 50 192 7 7 (470400)
I1216 23:02:16.078619 18693 layer_factory.hpp:74] Creating layer inception_5b/relu_3x3_reduce
I1216 23:02:16.078625 18693 net.cpp:84] Creating Layer inception_5b/relu_3x3_reduce
I1216 23:02:16.078631 18693 net.cpp:380] inception_5b/relu_3x3_reduce <- inception_5b/3x3_reduce
I1216 23:02:16.078637 18693 net.cpp:327] inception_5b/relu_3x3_reduce -> inception_5b/3x3_reduce (in-place)
I1216 23:02:16.078644 18693 net.cpp:113] Setting up inception_5b/relu_3x3_reduce
I1216 23:02:16.078882 18693 net.cpp:120] Top shape: 50 192 7 7 (470400)
I1216 23:02:16.078893 18693 layer_factory.hpp:74] Creating layer inception_5b/3x3
I1216 23:02:16.078903 18693 net.cpp:84] Creating Layer inception_5b/3x3
I1216 23:02:16.078908 18693 net.cpp:380] inception_5b/3x3 <- inception_5b/3x3_reduce
I1216 23:02:16.078915 18693 net.cpp:338] inception_5b/3x3 -> inception_5b/3x3
I1216 23:02:16.078923 18693 net.cpp:113] Setting up inception_5b/3x3
I1216 23:02:16.086251 18693 net.cpp:120] Top shape: 50 384 7 7 (940800)
I1216 23:02:16.086266 18693 layer_factory.hpp:74] Creating layer inception_5b/relu_3x3
I1216 23:02:16.086275 18693 net.cpp:84] Creating Layer inception_5b/relu_3x3
I1216 23:02:16.086282 18693 net.cpp:380] inception_5b/relu_3x3 <- inception_5b/3x3
I1216 23:02:16.086287 18693 net.cpp:327] inception_5b/relu_3x3 -> inception_5b/3x3 (in-place)
I1216 23:02:16.086294 18693 net.cpp:113] Setting up inception_5b/relu_3x3
I1216 23:02:16.086360 18693 net.cpp:120] Top shape: 50 384 7 7 (940800)
I1216 23:02:16.086366 18693 layer_factory.hpp:74] Creating layer inception_5b/5x5_reduce
I1216 23:02:16.086375 18693 net.cpp:84] Creating Layer inception_5b/5x5_reduce
I1216 23:02:16.086381 18693 net.cpp:380] inception_5b/5x5_reduce <- inception_5a/output_inception_5a/output_0_split_2
I1216 23:02:16.086390 18693 net.cpp:338] inception_5b/5x5_reduce -> inception_5b/5x5_reduce
I1216 23:02:16.086396 18693 net.cpp:113] Setting up inception_5b/5x5_reduce
I1216 23:02:16.087205 18693 net.cpp:120] Top shape: 50 48 7 7 (117600)
I1216 23:02:16.087220 18693 layer_factory.hpp:74] Creating layer inception_5b/relu_5x5_reduce
I1216 23:02:16.087227 18693 net.cpp:84] Creating Layer inception_5b/relu_5x5_reduce
I1216 23:02:16.087232 18693 net.cpp:380] inception_5b/relu_5x5_reduce <- inception_5b/5x5_reduce
I1216 23:02:16.087239 18693 net.cpp:327] inception_5b/relu_5x5_reduce -> inception_5b/5x5_reduce (in-place)
I1216 23:02:16.087246 18693 net.cpp:113] Setting up inception_5b/relu_5x5_reduce
I1216 23:02:16.087314 18693 net.cpp:120] Top shape: 50 48 7 7 (117600)
I1216 23:02:16.087321 18693 layer_factory.hpp:74] Creating layer inception_5b/5x5
I1216 23:02:16.087329 18693 net.cpp:84] Creating Layer inception_5b/5x5
I1216 23:02:16.087333 18693 net.cpp:380] inception_5b/5x5 <- inception_5b/5x5_reduce
I1216 23:02:16.087342 18693 net.cpp:338] inception_5b/5x5 -> inception_5b/5x5
I1216 23:02:16.087349 18693 net.cpp:113] Setting up inception_5b/5x5
I1216 23:02:16.089354 18693 net.cpp:120] Top shape: 50 128 7 7 (313600)
I1216 23:02:16.089370 18693 layer_factory.hpp:74] Creating layer inception_5b/relu_5x5
I1216 23:02:16.089378 18693 net.cpp:84] Creating Layer inception_5b/relu_5x5
I1216 23:02:16.089383 18693 net.cpp:380] inception_5b/relu_5x5 <- inception_5b/5x5
I1216 23:02:16.089401 18693 net.cpp:327] inception_5b/relu_5x5 -> inception_5b/5x5 (in-place)
I1216 23:02:16.089407 18693 net.cpp:113] Setting up inception_5b/relu_5x5
I1216 23:02:16.089644 18693 net.cpp:120] Top shape: 50 128 7 7 (313600)
I1216 23:02:16.089654 18693 layer_factory.hpp:74] Creating layer inception_5b/pool
I1216 23:02:16.089660 18693 layer_factory.cpp:56] CUDNN does not support padding or multiple tops. Using Caffe's own pooling layer.
I1216 23:02:16.089665 18693 net.cpp:84] Creating Layer inception_5b/pool
I1216 23:02:16.089671 18693 net.cpp:380] inception_5b/pool <- inception_5a/output_inception_5a/output_0_split_3
I1216 23:02:16.089690 18693 net.cpp:338] inception_5b/pool -> inception_5b/pool
I1216 23:02:16.089699 18693 net.cpp:113] Setting up inception_5b/pool
I1216 23:02:16.089707 18693 net.cpp:120] Top shape: 50 832 7 7 (2038400)
I1216 23:02:16.089711 18693 layer_factory.hpp:74] Creating layer inception_5b/pool_proj
I1216 23:02:16.089720 18693 net.cpp:84] Creating Layer inception_5b/pool_proj
I1216 23:02:16.089725 18693 net.cpp:380] inception_5b/pool_proj <- inception_5b/pool
I1216 23:02:16.089732 18693 net.cpp:338] inception_5b/pool_proj -> inception_5b/pool_proj
I1216 23:02:16.089740 18693 net.cpp:113] Setting up inception_5b/pool_proj
I1216 23:02:16.091234 18693 net.cpp:120] Top shape: 50 128 7 7 (313600)
I1216 23:02:16.091249 18693 layer_factory.hpp:74] Creating layer inception_5b/relu_pool_proj
I1216 23:02:16.091258 18693 net.cpp:84] Creating Layer inception_5b/relu_pool_proj
I1216 23:02:16.091264 18693 net.cpp:380] inception_5b/relu_pool_proj <- inception_5b/pool_proj
I1216 23:02:16.091269 18693 net.cpp:327] inception_5b/relu_pool_proj -> inception_5b/pool_proj (in-place)
I1216 23:02:16.091276 18693 net.cpp:113] Setting up inception_5b/relu_pool_proj
I1216 23:02:16.091343 18693 net.cpp:120] Top shape: 50 128 7 7 (313600)
I1216 23:02:16.091349 18693 layer_factory.hpp:74] Creating layer inception_5b/output
I1216 23:02:16.091358 18693 net.cpp:84] Creating Layer inception_5b/output
I1216 23:02:16.091363 18693 net.cpp:380] inception_5b/output <- inception_5b/1x1
I1216 23:02:16.091369 18693 net.cpp:380] inception_5b/output <- inception_5b/3x3
I1216 23:02:16.091374 18693 net.cpp:380] inception_5b/output <- inception_5b/5x5
I1216 23:02:16.091379 18693 net.cpp:380] inception_5b/output <- inception_5b/pool_proj
I1216 23:02:16.091384 18693 net.cpp:338] inception_5b/output -> inception_5b/output
I1216 23:02:16.091392 18693 net.cpp:113] Setting up inception_5b/output
I1216 23:02:16.091398 18693 net.cpp:120] Top shape: 50 1024 7 7 (2508800)
I1216 23:02:16.091403 18693 layer_factory.hpp:74] Creating layer pool5/7x7_s1
I1216 23:02:16.091410 18693 net.cpp:84] Creating Layer pool5/7x7_s1
I1216 23:02:16.091415 18693 net.cpp:380] pool5/7x7_s1 <- inception_5b/output
I1216 23:02:16.091420 18693 net.cpp:338] pool5/7x7_s1 -> pool5/7x7_s1
I1216 23:02:16.091426 18693 net.cpp:113] Setting up pool5/7x7_s1
I1216 23:02:16.091492 18693 net.cpp:120] Top shape: 50 1024 1 1 (51200)
I1216 23:02:16.091498 18693 layer_factory.hpp:74] Creating layer pool5/drop_7x7_s1
I1216 23:02:16.091506 18693 net.cpp:84] Creating Layer pool5/drop_7x7_s1
I1216 23:02:16.091509 18693 net.cpp:380] pool5/drop_7x7_s1 <- pool5/7x7_s1
I1216 23:02:16.091516 18693 net.cpp:327] pool5/drop_7x7_s1 -> pool5/7x7_s1 (in-place)
I1216 23:02:16.091521 18693 net.cpp:113] Setting up pool5/drop_7x7_s1
I1216 23:02:16.091528 18693 net.cpp:120] Top shape: 50 1024 1 1 (51200)
I1216 23:02:16.091532 18693 layer_factory.hpp:74] Creating layer loss3/classifier_kaggle
I1216 23:02:16.091542 18693 net.cpp:84] Creating Layer loss3/classifier_kaggle
I1216 23:02:16.091545 18693 net.cpp:380] loss3/classifier_kaggle <- pool5/7x7_s1
I1216 23:02:16.091557 18693 net.cpp:338] loss3/classifier_kaggle -> loss3/classifier_kaggle
I1216 23:02:16.091563 18693 net.cpp:113] Setting up loss3/classifier_kaggle
I1216 23:02:16.096328 18693 net.cpp:120] Top shape: 50 447 (22350)
I1216 23:02:16.096339 18693 layer_factory.hpp:74] Creating layer loss3/classifier_kaggle_loss3/classifier_kaggle_0_split
I1216 23:02:16.096348 18693 net.cpp:84] Creating Layer loss3/classifier_kaggle_loss3/classifier_kaggle_0_split
I1216 23:02:16.096351 18693 net.cpp:380] loss3/classifier_kaggle_loss3/classifier_kaggle_0_split <- loss3/classifier_kaggle
I1216 23:02:16.096359 18693 net.cpp:338] loss3/classifier_kaggle_loss3/classifier_kaggle_0_split -> loss3/classifier_kaggle_loss3/classifier_kaggle_0_split_0
I1216 23:02:16.096366 18693 net.cpp:338] loss3/classifier_kaggle_loss3/classifier_kaggle_0_split -> loss3/classifier_kaggle_loss3/classifier_kaggle_0_split_1
I1216 23:02:16.096374 18693 net.cpp:338] loss3/classifier_kaggle_loss3/classifier_kaggle_0_split -> loss3/classifier_kaggle_loss3/classifier_kaggle_0_split_2
I1216 23:02:16.096390 18693 net.cpp:113] Setting up loss3/classifier_kaggle_loss3/classifier_kaggle_0_split
I1216 23:02:16.096396 18693 net.cpp:120] Top shape: 50 447 (22350)
I1216 23:02:16.096401 18693 net.cpp:120] Top shape: 50 447 (22350)
I1216 23:02:16.096405 18693 net.cpp:120] Top shape: 50 447 (22350)
I1216 23:02:16.096410 18693 layer_factory.hpp:74] Creating layer loss3/loss3
I1216 23:02:16.096418 18693 net.cpp:84] Creating Layer loss3/loss3
I1216 23:02:16.096422 18693 net.cpp:380] loss3/loss3 <- loss3/classifier_kaggle_loss3/classifier_kaggle_0_split_0
I1216 23:02:16.096427 18693 net.cpp:380] loss3/loss3 <- label_data_1_split_6
I1216 23:02:16.096433 18693 net.cpp:338] loss3/loss3 -> loss3/loss3
…
