…
I1217 10:26:21.896983  9003 net.cpp:257] The NetState phase (0) differed from the phase (1) specified by a rule in layer loss3/top-5
I1217 10:26:21.898260  9003 net.cpp:42] Initializing net from parameters: 
name: "GoogleNet"
state {
  phase: TRAIN
}
layer {
  name: "data"
  type: "Data"
  top: "data"
  top: "label"
  include {
    phase: TRAIN
  }
  transform_param {
    mirror: true
    crop_size: 224
    mean_value: 129
    mean_value: 129
    mean_value: 129
  }
  data_param {
    source: "/home/coldmanck/kaggle/kaggle2_train_lmdb"
    batch_size: 80
    backend: LMDB
  }
}
layer {
  name: "conv1/7x7_s2"
  type: "Convolution"
  bottom: "data"
  top: "conv1/7x7_s2"
  param {
    lr_mult: 1
    decay_mult: 1
  }
  param {
    lr_mult: 2
    decay_mult: 0
  }
  convolution_param {
    num_output: 64
    pad: 3
    kernel_size: 7
    stride: 2
    weight_filler {
      type: "xavier"
    }
    bias_filler {
      type: "constant"
      value: 0.2
    }
  }
}
layer {
  name: "conv1/relu_7x7"
  type: "ReLU"
  bottom: "conv1/7x7_s2"
  top: "conv1/7x7_s2"
}
layer {
  name: "pool1/3x3_s2"
  type: "Pooling"
  bottom: "conv1/7x7_s2"
  top: "pool1/3x3_s2"
  pooling_param {
    pool: MAX
    kernel_size: 3
    stride: 2
  }
}
layer {
  name: "pool1/norm1"
  type: "LRN"
  bottom: "pool1/3x3_s2"
  top: "pool1/norm1"
  lrn_param {
    local_size: 5
    alpha: 0.0001
    beta: 0.75
  }
}
layer {
  name: "conv2/3x3_reduce"
  type: "Convolution"
  bottom: "pool1/norm1"
  top: "conv2/3x3_reduce"
  param {
    lr_mult: 1
    decay_mult: 1
  }
  param {
    lr_mult: 2
    decay_mult: 0
  }
  convolution_param {
    num_output: 64
    kernel_size: 1
    weight_filler {
      type: "xavier"
    }
    bias_filler {
      type: "constant"
      value: 0.2
    }
  }
}
layer {
  name: "conv2/relu_3x3_reduce"
  type: "ReLU"
  bottom: "conv2/3x3_reduce"
  top: "conv2/3x3_reduce"
}
layer {
  name: "conv2/3x3"
  type: "Convolution"
  bottom: "conv2/3x3_reduce"
  top: "conv2/3x3"
  param {
    lr_mult: 1
    decay_mult: 1
  }
  param {
    lr_mult: 2
    decay_mult: 0
  }
  convolution_param {
    num_output: 192
    pad: 1
    kernel_size: 3
    weight_filler {
      type: "xavier"
    }
    bias_filler {
      type: "constant"
      value: 0.2
    }
  }
}
layer {
  name: "conv2/relu_3x3"
  type: "ReLU"
  bottom: "conv2/3x3"
  top: "conv2/3x3"
}
layer {
  name: "conv2/norm2"
  type: "LRN"
  bottom: "conv2/3x3"
  top: "conv2/norm2"
  lrn_param {
    local_size: 5
    alpha: 0.0001
    beta: 0.75
  }
}
layer {
  name: "pool2/3x3_s2"
  type: "Pooling"
  bottom: "conv2/norm2"
  top: "pool2/3x3_s2"
  pooling_param {
    pool: MAX
    kernel_size: 3
    stride: 2
  }
}
layer {
  name: "inception_3a/1x1"
  type: "Convolution"
  bottom: "pool2/3x3_s2"
  top: "inception_3a/1x1"
  param {
    lr_mult: 1
    decay_mult: 1
  }
  param {
    lr_mult: 2
    decay_mult: 0
  }
  convolution_param {
    num_output: 64
    kernel_size: 1
    weight_filler {
      type: "xavier"
    }
    bias_filler {
      type: "constant"
      value: 0.2
    }
  }
}
layer {
  name: "inception_3a/relu_1x1"
  type: "ReLU"
  bottom: "inception_3a/1x1"
  top: "inception_3a/1x1"
}
layer {
  name: "inception_3a/3x3_reduce"
  type: "Convolution"
  bottom: "pool2/3x3_s2"
  top: "inception_3a/3x3_reduce"
  param {
    lr_mult: 1
    decay_mult: 1
  }
  param {
    lr_mult: 2
    decay_mult: 0
  }
  convolution_param {
    num_output: 96
    kernel_size: 1
    weight_filler {
      type: "xavier"
    }
    bias_filler {
      type: "constant"
      value: 0.2
    }
  }
}
layer {
  name: "inception_3a/relu_3x3_reduce"
  type: "ReLU"
  bottom: "inception_3a/3x3_reduce"
  top: "inception_3a/3x3_reduce"
}
layer {
  name: "inception_3a/3x3"
  type: "Convolution"
  bottom: "inception_3a/3x3_reduce"
  top: "inception_3a/3x3"
  param {
    lr_mult: 1
    decay_mult: 1
  }
  param {
    lr_mult: 2
    decay_mult: 0
  }
  convolution_param {
    num_output: 128
    pad: 1
    kernel_size: 3
    weight_filler {
      type: "xavier"
    }
    bias_filler {
      type: "constant"
      value: 0.2
    }
  }
}
layer {
  name: "inception_3a/relu_3x3"
  type: "ReLU"
  bottom: "inception_3a/3x3"
  top: "inception_3a/3x3"
}
layer {
  name: "inception_3a/5x5_reduce"
  type: "Convolution"
  bottom: "pool2/3x3_s2"
  top: "inception_3a/5x5_reduce"
  param {
    lr_mult: 1
    decay_mult: 1
  }
  param {
    lr_mult: 2
    decay_mult: 0
  }
  convolution_param {
    num_output: 16
    kernel_size: 1
    weight_filler {
      type: "xavier"
    }
    bias_filler {
      type: "constant"
      value: 0.2
    }
  }
}
layer {
  name: "inception_3a/relu_5x5_reduce"
  type: "ReLU"
  bottom: "inception_3a/5x5_reduce"
  top: "inception_3a/5x5_reduce"
}
layer {
  name: "inception_3a/5x5"
  type: "Convolution"
  bottom: "inception_3a/5x5_reduce"
  top: "inception_3a/5x5"
  param {
    lr_mult: 1
    decay_mult: 1
  }
  param {
    lr_mult: 2
    decay_mult: 0
  }
  convolution_param {
    num_output: 32
    pad: 2
    kernel_size: 5
    weight_filler {
      type: "xavier"
    }
    bias_filler {
      type: "constant"
      value: 0.2
    }
  }
}
layer {
  name: "inception_3a/relu_5x5"
  type: "ReLU"
  bottom: "inception_3a/5x5"
  top: "inception_3a/5x5"
}
layer {
  name: "inception_3a/pool"
  type: "Pooling"
  bottom: "pool2/3x3_s2"
  top: "inception_3a/pool"
  pooling_param {
    pool: MAX
    kernel_size: 3
    stride: 1
    pad: 1
  }
}
layer {
  name: "inception_3a/pool_proj"
  type: "Convolution"
  bottom: "inception_3a/pool"
  top: "inception_3a/pool_proj"
  param {
    lr_mult: 1
    decay_mult: 1
  }
  param {
    lr_mult: 2
    decay_mult: 0
  }
  convolution_param {
    num_output: 32
    kernel_size: 1
    weight_filler {
      type: "xavier"
    }
    bias_filler {
      type: "constant"
      value: 0.2
    }
  }
}
layer {
  name: "inception_3a/relu_pool_proj"
  type: "ReLU"
  bottom: "inception_3a/pool_proj"
  top: "inception_3a/pool_proj"
}
layer {
  name: "inception_3a/output"
  type: "Concat"
  bottom: "inception_3a/1x1"
  bottom: "inception_3a/3x3"
  bottom: "inception_3a/5x5"
  bottom: "inception_3a/pool_proj"
  top: "inception_3a/output"
}
layer {
  name: "inception_3b/1x1"
  type: "Convolution"
  bottom: "inception_3a/output"
  top: "inception_3b/1x1"
  param {
    lr_mult: 1
    decay_mult: 1
  }
  param {
    lr_mult: 2
    decay_mult: 0
  }
  convolution_param {
    num_output: 128
    kernel_size: 1
    weight_filler {
      type: "xavier"
    }
    bias_filler {
      type: "constant"
      value: 0.2
    }
  }
}
layer {
  name: "inception_3b/relu_1x1"
  type: "ReLU"
  bottom: "inception_3b/1x1"
  top: "inception_3b/1x1"
}
layer {
  name: "inception_3b/3x3_reduce"
  type: "Convolution"
  bottom: "inception_3a/output"
  top: "inception_3b/3x3_reduce"
  param {
    lr_mult: 1
    decay_mult: 1
  }
  param {
    lr_mult: 2
    decay_mult: 0
  }
  convolution_param {
    num_output: 128
    kernel_size: 1
    weight_filler {
      type: "xavier"
    }
    bias_filler {
      type: "constant"
      value: 0.2
    }
  }
}
layer {
  name: "inception_3b/relu_3x3_reduce"
  type: "ReLU"
  bottom: "inception_3b/3x3_reduce"
  top: "inception_3b/3x3_reduce"
}
layer {
  name: "inception_3b/3x3"
  type: "Convolution"
  bottom: "inception_3b/3x3_reduce"
  top: "inception_3b/3x3"
  param {
    lr_mult: 1
    decay_mult: 1
  }
  param {
    lr_mult: 2
    decay_mult: 0
  }
  convolution_param {
    num_output: 192
    pad: 1
    kernel_size: 3
    weight_filler {
      type: "xavier"
    }
    bias_filler {
      type: "constant"
      value: 0.2
    }
  }
}
layer {
  name: "inception_3b/relu_3x3"
  type: "ReLU"
  bottom: "inception_3b/3x3"
  top: "inception_3b/3x3"
}
layer {
  name: "inception_3b/5x5_reduce"
  type: "Convolution"
  bottom: "inception_3a/output"
  top: "inception_3b/5x5_reduce"
  param {
    lr_mult: 1
    decay_mult: 1
  }
  param {
    lr_mult: 2
    decay_mult: 0
  }
  convolution_param {
    num_output: 32
    kernel_size: 1
    weight_filler {
      type: "xavier"
    }
    bias_filler {
      type: "constant"
      value: 0.2
    }
  }
}
layer {
  name: "inception_3b/relu_5x5_reduce"
  type: "ReLU"
  bottom: "inception_3b/5x5_reduce"
  top: "inception_3b/5x5_reduce"
}
layer {
  name: "inception_3b/5x5"
  type: "Convolution"
  bottom: "inception_3b/5x5_reduce"
  top: "inception_3b/5x5"
  param {
    lr_mult: 1
    decay_mult: 1
  }
  param {
    lr_mult: 2
    decay_mult: 0
  }
  convolution_param {
    num_output: 96
    pad: 2
    kernel_size: 5
    weight_filler {
      type: "xavier"
    }
    bias_filler {
      type: "constant"
      value: 0.2
    }
  }
}
layer {
  name: "inception_3b/relu_5x5"
  type: "ReLU"
  bottom: "inception_3b/5x5"
  top: "inception_3b/5x5"
}
layer {
  name: "inception_3b/pool"
  type: "Pooling"
  bottom: "inception_3a/output"
  top: "inception_3b/pool"
  pooling_param {
    pool: MAX
    kernel_size: 3
    stride: 1
    pad: 1
  }
}
layer {
  name: "inception_3b/pool_proj"
  type: "Convolution"
  bottom: "inception_3b/pool"
  top: "inception_3b/pool_proj"
  param {
    lr_mult: 1
    decay_mult: 1
  }
  param {
    lr_mult: 2
    decay_mult: 0
  }
  convolution_param {
    num_output: 64
    kernel_size: 1
    weight_filler {
      type: "xavier"
    }
    bias_filler {
      type: "constant"
      value: 0.2
    }
  }
}
layer {
  name: "inception_3b/relu_pool_proj"
  type: "ReLU"
  bottom: "inception_3b/pool_proj"
  top: "inception_3b/pool_proj"
}
layer {
  name: "inception_3b/output"
  type: "Concat"
  bottom: "inception_3b/1x1"
  bottom: "inception_3b/3x3"
  bottom: "inception_3b/5x5"
  bottom: "inception_3b/pool_proj"
  top: "inception_3b/output"
}
layer {
  name: "pool3/3x3_s2"
  type: "Pooling"
  bottom: "inception_3b/output"
  top: "pool3/3x3_s2"
  pooling_param {
    pool: MAX
    kernel_size: 3
    stride: 2
  }
}
layer {
  name: "inception_4a/1x1"
  type: "Convolution"
  bottom: "pool3/3x3_s2"
  top: "inception_4a/1x1"
  param {
    lr_mult: 1
    decay_mult: 1
  }
  param {
    lr_mult: 2
    decay_mult: 0
  }
  convolution_param {
    num_output: 192
    kernel_size: 1
    weight_filler {
      type: "xavier"
    }
    bias_filler {
      type: "constant"
      value: 0.2
    }
  }
}
layer {
  name: "inception_4a/relu_1x1"
  type: "ReLU"
  bottom: "inception_4a/1x1"
  top: "inception_4a/1x1"
}
layer {
  name: "inception_4a/3x3_reduce"
  type: "Convolution"
  bottom: "pool3/3x3_s2"
  top: "inception_4a/3x3_reduce"
  param {
    lr_mult: 1
    decay_mult: 1
  }
  param {
    lr_mult: 2
    decay_mult: 0
  }
  convolution_param {
    num_output: 96
    kernel_size: 1
    weight_filler {
      type: "xavier"
    }
    bias_filler {
      type: "constant"
      value: 0.2
    }
  }
}
layer {
  name: "inception_4a/relu_3x3_reduce"
  type: "ReLU"
  bottom: "inception_4a/3x3_reduce"
  top: "inception_4a/3x3_reduce"
}
layer {
  name: "inception_4a/3x3"
  type: "Convolution"
  bottom: "inception_4a/3x3_reduce"
  top: "inception_4a/3x3"
  param {
    lr_mult: 1
    decay_mult: 1
  }
  param {
    lr_mult: 2
    decay_mult: 0
  }
  convolution_param {
    num_output: 208
    pad: 1
    kernel_size: 3
    weight_filler {
      type: "xavier"
    }
    bias_filler {
      type: "constant"
      value: 0.2
    }
  }
}
layer {
  name: "inception_4a/relu_3x3"
  type: "ReLU"
  bottom: "inception_4a/3x3"
  top: "inception_4a/3x3"
}
layer {
  name: "inception_4a/5x5_reduce"
  type: "Convolution"
  bottom: "pool3/3x3_s2"
  top: "inception_4a/5x5_reduce"
  param {
    lr_mult: 1
    decay_mult: 1
  }
  param {
    lr_mult: 2
    decay_mult: 0
  }
  convolution_param {
    num_output: 16
    kernel_size: 1
    weight_filler {
      type: "xavier"
    }
    bias_filler {
      type: "constant"
      value: 0.2
    }
  }
}
layer {
  name: "inception_4a/relu_5x5_reduce"
  type: "ReLU"
  bottom: "inception_4a/5x5_reduce"
  top: "inception_4a/5x5_reduce"
}
layer {
  name: "inception_4a/5x5"
  type: "Convolution"
  bottom: "inception_4a/5x5_reduce"
  top: "inception_4a/5x5"
  param {
    lr_mult: 1
    decay_mult: 1
  }
  param {
    lr_mult: 2
    decay_mult: 0
  }
  convolution_param {
    num_output: 48
    pad: 2
    kernel_size: 5
    weight_filler {
      type: "xavier"
    }
    bias_filler {
      type: "constant"
      value: 0.2
    }
  }
}
layer {
  name: "inception_4a/relu_5x5"
  type: "ReLU"
  bottom: "inception_4a/5x5"
  top: "inception_4a/5x5"
}
layer {
  name: "inception_4a/pool"
  type: "Pooling"
  bottom: "pool3/3x3_s2"
  top: "inception_4a/pool"
  pooling_param {
    pool: MAX
    kernel_size: 3
    stride: 1
    pad: 1
  }
}
layer {
  name: "inception_4a/pool_proj"
  type: "Convolution"
  bottom: "inception_4a/pool"
  top: "inception_4a/pool_proj"
  param {
    lr_mult: 1
    decay_mult: 1
  }
  param {
    lr_mult: 2
    decay_mult: 0
  }
  convolution_param {
    num_output: 64
    kernel_size: 1
    weight_filler {
      type: "xavier"
    }
    bias_filler {
      type: "constant"
      value: 0.2
    }
  }
}
layer {
  name: "inception_4a/relu_pool_proj"
  type: "ReLU"
  bottom: "inception_4a/pool_proj"
  top: "inception_4a/pool_proj"
}
layer {
  name: "inception_4a/output"
  type: "Concat"
  bottom: "inception_4a/1x1"
  bottom: "inception_4a/3x3"
  bottom: "inception_4a/5x5"
  bottom: "inception_4a/pool_proj"
  top: "inception_4a/output"
}
layer {
  name: "loss1/ave_pool"
  type: "Pooling"
  bottom: "inception_4a/output"
  top: "loss1/ave_pool"
  pooling_param {
    pool: AVE
    kernel_size: 5
    stride: 3
  }
}
layer {
  name: "loss1/conv"
  type: "Convolution"
  bottom: "loss1/ave_pool"
  top: "loss1/conv"
  param {
    lr_mult: 1
    decay_mult: 1
  }
  param {
    lr_mult: 2
    decay_mult: 0
  }
  convolution_param {
    num_output: 128
    kernel_size: 1
    weight_filler {
      type: "xavier"
    }
    bias_filler {
      type: "constant"
      value: 0.2
    }
  }
}
layer {
  name: "loss1/relu_conv"
  type: "ReLU"
  bottom: "loss1/conv"
  top: "loss1/conv"
}
layer {
  name: "loss1/fc"
  type: "InnerProduct"
  bottom: "loss1/conv"
  top: "loss1/fc"
  param {
    lr_mult: 1
    decay_mult: 1
  }
  param {
    lr_mult: 2
    decay_mult: 0
  }
  inner_product_param {
    num_output: 1024
    weight_filler {
      type: "xavier"
    }
    bias_filler {
      type: "constant"
      value: 0.2
    }
  }
}
layer {
  name: "loss1/relu_fc"
  type: "ReLU"
  bottom: "loss1/fc"
  top: "loss1/fc"
}
layer {
  name: "loss1/drop_fc"
  type: "Dropout"
  bottom: "loss1/fc"
  top: "loss1/fc"
  dropout_param {
    dropout_ratio: 0.7
  }
}
layer {
  name: "loss1/classifier_kaggle"
  type: "InnerProduct"
  bottom: "loss1/fc"
  top: "loss1/classifier_kaggle"
  param {
    lr_mult: 1
    decay_mult: 1
  }
  param {
    lr_mult: 2
    decay_mult: 0
  }
  inner_product_param {
    num_output: 447
    weight_filler {
      type: "xavier"
    }
    bias_filler {
      type: "constant"
      value: 0
    }
  }
}
layer {
  name: "loss1/loss"
  type: "SoftmaxWithLoss"
  bottom: "loss1/classifier_kaggle"
  bottom: "label"
  top: "loss1/loss1"
  loss_weight: 0.3
}
layer {
  name: "inception_4b/1x1"
  type: "Convolution"
  bottom: "inception_4a/output"
  top: "inception_4b/1x1"
  param {
    lr_mult: 1
    decay_mult: 1
  }
  param {
    lr_mult: 2
    decay_mult: 0
  }
  convolution_param {
    num_output: 160
    kernel_size: 1
    weight_filler {
      type: "xavier"
    }
    bias_filler {
      type: "constant"
      value: 0.2
    }
  }
}
layer {
  name: "inception_4b/relu_1x1"
  type: "ReLU"
  bottom: "inception_4b/1x1"
  top: "inception_4b/1x1"
}
layer {
  name: "inception_4b/3x3_reduce"
  type: "Convolution"
  bottom: "inception_4a/output"
  top: "inception_4b/3x3_reduce"
  param {
    lr_mult: 1
    decay_mult: 1
  }
  param {
    lr_mult: 2
    decay_mult: 0
  }
  convolution_param {
    num_output: 112
    kernel_size: 1
    weight_filler {
      type: "xavier"
    }
    bias_filler {
      type: "constant"
      value: 0.2
    }
  }
}
layer {
  name: "inception_4b/relu_3x3_reduce"
  type: "ReLU"
  bottom: "inception_4b/3x3_reduce"
  top: "inception_4b/3x3_reduce"
}
layer {
  name: "inception_4b/3x3"
  type: "Convolution"
  bottom: "inception_4b/3x3_reduce"
  top: "inception_4b/3x3"
  param {
    lr_mult: 1
    decay_mult: 1
  }
  param {
    lr_mult: 2
    decay_mult: 0
  }
  convolution_param {
    num_output: 224
    pad: 1
    kernel_size: 3
    weight_filler {
      type: "xavier"
    }
    bias_filler {
      type: "constant"
      value: 0.2
    }
  }
}
layer {
  name: "inception_4b/relu_3x3"
  type: "ReLU"
  bottom: "inception_4b/3x3"
  top: "inception_4b/3x3"
}
layer {
  name: "inception_4b/5x5_reduce"
  type: "Convolution"
  bottom: "inception_4a/output"
  top: "inception_4b/5x5_reduce"
  param {
    lr_mult: 1
    decay_mult: 1
  }
  param {
    lr_mult: 2
    decay_mult: 0
  }
  convolution_param {
    num_output: 24
    kernel_size: 1
    weight_filler {
      type: "xavier"
    }
    bias_filler {
      type: "constant"
      value: 0.2
    }
  }
}
layer {
  name: "inception_4b/relu_5x5_reduce"
  type: "ReLU"
  bottom: "inception_4b/5x5_reduce"
  top: "inception_4b/5x5_reduce"
}
layer {
  name: "inception_4b/5x5"
  type: "Convolution"
  bottom: "inception_4b/5x5_reduce"
  top: "inception_4b/5x5"
  param {
    lr_mult: 1
    decay_mult: 1
  }
  param {
    lr_mult: 2
    decay_mult: 0
  }
  convolution_param {
    num_output: 64
    pad: 2
    kernel_size: 5
    weight_filler {
      type: "xavier"
    }
    bias_filler {
      type: "constant"
      value: 0.2
    }
  }
}
layer {
  name: "inception_4b/relu_5x5"
  type: "ReLU"
  bottom: "inception_4b/5x5"
  top: "inception_4b/5x5"
}
layer {
  name: "inception_4b/pool"
  type: "Pooling"
  bottom: "inception_4a/output"
  top: "inception_4b/pool"
  pooling_param {
    pool: MAX
    kernel_size: 3
    stride: 1
    pad: 1
  }
}
layer {
  name: "inception_4b/pool_proj"
  type: "Convolution"
  bottom: "inception_4b/pool"
  top: "inception_4b/pool_proj"
  param {
    lr_mult: 1
    decay_mult: 1
  }
  param {
    lr_mult: 2
    decay_mult: 0
  }
  convolution_param {
    num_output: 64
    kernel_size: 1
    weight_filler {
      type: "xavier"
    }
    bias_filler {
      type: "constant"
      value: 0.2
    }
  }
}
layer {
  name: "inception_4b/relu_pool_proj"
  type: "ReLU"
  bottom: "inception_4b/pool_proj"
  top: "inception_4b/pool_proj"
}
layer {
  name: "inception_4b/output"
  type: "Concat"
  bottom: "inception_4b/1x1"
  bottom: "inception_4b/3x3"
  bottom: "inception_4b/5x5"
  bottom: "inception_4b/pool_proj"
  top: "inception_4b/output"
}
layer {
  name: "inception_4c/1x1"
  type: "Convolution"
  bottom: "inception_4b/output"
  top: "inception_4c/1x1"
  param {
    lr_mult: 1
    decay_mult: 1
  }
  param {
    lr_mult: 2
    decay_mult: 0
  }
  convolution_param {
    num_output: 128
    kernel_size: 1
    weight_filler {
      type: "xavier"
    }
    bias_filler {
      type: "constant"
      value: 0.2
    }
  }
}
layer {
  name: "inception_4c/relu_1x1"
  type: "ReLU"
  bottom: "inception_4c/1x1"
  top: "inception_4c/1x1"
}
layer {
  name: "inception_4c/3x3_reduce"
  type: "Convolution"
  bottom: "inception_4b/output"
  top: "inception_4c/3x3_reduce"
  param {
    lr_mult: 1
    decay_mult: 1
  }
  param {
    lr_mult: 2
    decay_mult: 0
  }
  convolution_param {
    num_output: 128
    kernel_size: 1
    weight_filler {
      type: "xavier"
    }
    bias_filler {
      type: "constant"
      value: 0.2
    }
  }
}
layer {
  name: "inception_4c/relu_3x3_reduce"
  type: "ReLU"
  bottom: "inception_4c/3x3_reduce"
  top: "inception_4c/3x3_reduce"
}
layer {
  name: "inception_4c/3x3"
  type: "Convolution"
  bottom: "inception_4c/3x3_reduce"
  top: "inception_4c/3x3"
  param {
    lr_mult: 1
    decay_mult: 1
  }
  param {
    lr_mult: 2
    decay_mult: 0
  }
  convolution_param {
    num_output: 256
    pad: 1
    kernel_size: 3
    weight_filler {
      type: "xavier"
    }
    bias_filler {
      type: "constant"
      value: 0.2
    }
  }
}
layer {
  name: "inception_4c/relu_3x3"
  type: "ReLU"
  bottom: "inception_4c/3x3"
  top: "inception_4c/3x3"
}
layer {
  name: "inception_4c/5x5_reduce"
  type: "Convolution"
  bottom: "inception_4b/output"
  top: "inception_4c/5x5_reduce"
  param {
    lr_mult: 1
    decay_mult: 1
  }
  param {
    lr_mult: 2
    decay_mult: 0
  }
  convolution_param {
    num_output: 24
    kernel_size: 1
    weight_filler {
      type: "xavier"
    }
    bias_filler {
      type: "constant"
      value: 0.2
    }
  }
}
layer {
  name: "inception_4c/relu_5x5_reduce"
  type: "ReLU"
  bottom: "inception_4c/5x5_reduce"
  top: "inception_4c/5x5_reduce"
}
layer {
  name: "inception_4c/5x5"
  type: "Convolution"
  bottom: "inception_4c/5x5_reduce"
  top: "inception_4c/5x5"
  param {
    lr_mult: 1
    decay_mult: 1
  }
  param {
    lr_mult: 2
    decay_mult: 0
  }
  convolution_param {
    num_output: 64
    pad: 2
    kernel_size: 5
    weight_filler {
      type: "xavier"
    }
    bias_filler {
      type: "constant"
      value: 0.2
    }
  }
}
layer {
  name: "inception_4c/relu_5x5"
  type: "ReLU"
  bottom: "inception_4c/5x5"
  top: "inception_4c/5x5"
}
layer {
  name: "inception_4c/pool"
  type: "Pooling"
  bottom: "inception_4b/output"
  top: "inception_4c/pool"
  pooling_param {
    pool: MAX
    kernel_size: 3
    stride: 1
    pad: 1
  }
}
layer {
  name: "inception_4c/pool_proj"
  type: "Convolution"
  bottom: "inception_4c/pool"
  top: "inception_4c/pool_proj"
  param {
    lr_mult: 1
    decay_mult: 1
  }
  param {
    lr_mult: 2
    decay_mult: 0
  }
  convolution_param {
    num_output: 64
    kernel_size: 1
    weight_filler {
      type: "xavier"
    }
    bias_filler {
      type: "constant"
      value: 0.2
    }
  }
}
layer {
  name: "inception_4c/relu_pool_proj"
  type: "ReLU"
  bottom: "inception_4c/pool_proj"
  top: "inception_4c/pool_proj"
}
layer {
  name: "inception_4c/output"
  type: "Concat"
  bottom: "inception_4c/1x1"
  bottom: "inception_4c/3x3"
  bottom: "inception_4c/5x5"
  bottom: "inception_4c/pool_proj"
  top: "inception_4c/output"
}
layer {
  name: "inception_4d/1x1"
  type: "Convolution"
  bottom: "inception_4c/output"
  top: "inception_4d/1x1"
  param {
    lr_mult: 1
    decay_mult: 1
  }
  param {
    lr_mult: 2
    decay_mult: 0
  }
  convolution_param {
    num_output: 112
    kernel_size: 1
    weight_filler {
      type: "xavier"
    }
    bias_filler {
      type: "constant"
      value: 0.2
    }
  }
}
layer {
  name: "inception_4d/relu_1x1"
  type: "ReLU"
  bottom: "inception_4d/1x1"
  top: "inception_4d/1x1"
}
layer {
  name: "inception_4d/3x3_reduce"
  type: "Convolution"
  bottom: "inception_4c/output"
  top: "inception_4d/3x3_reduce"
  param {
    lr_mult: 1
    decay_mult: 1
  }
  param {
    lr_mult: 2
    decay_mult: 0
  }
  convolution_param {
    num_output: 144
    kernel_size: 1
    weight_filler {
      type: "xavier"
    }
    bias_filler {
      type: "constant"
      value: 0.2
    }
  }
}
layer {
  name: "inception_4d/relu_3x3_reduce"
  type: "ReLU"
  bottom: "inception_4d/3x3_reduce"
  top: "inception_4d/3x3_reduce"
}
layer {
  name: "inception_4d/3x3"
  type: "Convolution"
  bottom: "inception_4d/3x3_reduce"
  top: "inception_4d/3x3"
  param {
    lr_mult: 1
    decay_mult: 1
  }
  param {
    lr_mult: 2
    decay_mult: 0
  }
  convolution_param {
    num_output: 288
    pad: 1
    kernel_size: 3
    weight_filler {
      type: "xavier"
    }
    bias_filler {
      type: "constant"
      value: 0.2
    }
  }
}
layer {
  name: "inception_4d/relu_3x3"
  type: "ReLU"
  bottom: "inception_4d/3x3"
  top: "inception_4d/3x3"
}
layer {
  name: "inception_4d/5x5_reduce"
  type: "Convolution"
  bottom: "inception_4c/output"
  top: "inception_4d/5x5_reduce"
  param {
    lr_mult: 1
    decay_mult: 1
  }
  param {
    lr_mult: 2
    decay_mult: 0
  }
  convolution_param {
    num_output: 32
    kernel_size: 1
    weight_filler {
      type: "xavier"
    }
    bias_filler {
      type: "constant"
      value: 0.2
    }
  }
}
layer {
  name: "inception_4d/relu_5x5_reduce"
  type: "ReLU"
  bottom: "inception_4d/5x5_reduce"
  top: "inception_4d/5x5_reduce"
}
layer {
  name: "inception_4d/5x5"
  type: "Convolution"
  bottom: "inception_4d/5x5_reduce"
  top: "inception_4d/5x5"
  param {
    lr_mult: 1
    decay_mult: 1
  }
  param {
    lr_mult: 2
    decay_mult: 0
  }
  convolution_param {
    num_output: 64
    pad: 2
    kernel_size: 5
    weight_filler {
      type: "xavier"
    }
    bias_filler {
      type: "constant"
      value: 0.2
    }
  }
}
layer {
  name: "inception_4d/relu_5x5"
  type: "ReLU"
  bottom: "inception_4d/5x5"
  top: "inception_4d/5x5"
}
layer {
  name: "inception_4d/pool"
  type: "Pooling"
  bottom: "inception_4c/output"
  top: "inception_4d/pool"
  pooling_param {
    pool: MAX
    kernel_size: 3
    stride: 1
    pad: 1
  }
}
layer {
  name: "inception_4d/pool_proj"
  type: "Convolution"
  bottom: "inception_4d/pool"
  top: "inception_4d/pool_proj"
  param {
    lr_mult: 1
    decay_mult: 1
  }
  param {
    lr_mult: 2
    decay_mult: 0
  }
  convolution_param {
    num_output: 64
    kernel_size: 1
    weight_filler {
      type: "xavier"
    }
    bias_filler {
      type: "constant"
      value: 0.2
    }
  }
}
layer {
  name: "inception_4d/relu_pool_proj"
  type: "ReLU"
  bottom: "inception_4d/pool_proj"
  top: "inception_4d/pool_proj"
}
layer {
  name: "inception_4d/output"
  type: "Concat"
  bottom: "inception_4d/1x1"
  bottom: "inception_4d/3x3"
  bottom: "inception_4d/5x5"
  bottom: "inception_4d/pool_proj"
  top: "inception_4d/output"
}
layer {
  name: "loss2/ave_pool"
  type: "Pooling"
  bottom: "inception_4d/output"
  top: "loss2/ave_pool"
  pooling_param {
    pool: AVE
    kernel_size: 5
    stride: 3
  }
}
layer {
  name: "loss2/conv"
  type: "Convolution"
  bottom: "loss2/ave_pool"
  top: "loss2/conv"
  param {
    lr_mult: 1
    decay_mult: 1
  }
  param {
    lr_mult: 2
    decay_mult: 0
  }
  convolution_param {
    num_output: 128
    kernel_size: 1
    weight_filler {
      type: "xavier"
    }
    bias_filler {
      type: "constant"
      value: 0.2
    }
  }
}
layer {
  name: "loss2/relu_conv"
  type: "ReLU"
  bottom: "loss2/conv"
  top: "loss2/conv"
}
layer {
  name: "loss2/fc"
  type: "InnerProduct"
  bottom: "loss2/conv"
  top: "loss2/fc"
  param {
    lr_mult: 1
    decay_mult: 1
  }
  param {
    lr_mult: 2
    decay_mult: 0
  }
  inner_product_param {
    num_output: 1024
    weight_filler {
      type: "xavier"
    }
    bias_filler {
      type: "constant"
      value: 0.2
    }
  }
}
layer {
  name: "loss2/relu_fc"
  type: "ReLU"
  bottom: "loss2/fc"
  top: "loss2/fc"
}
layer {
  name: "loss2/drop_fc"
  type: "Dropout"
  bottom: "loss2/fc"
  top: "loss2/fc"
  dropout_param {
    dropout_ratio: 0.7
  }
}
layer {
  name: "loss2/classifier_kaggle"
  type: "InnerProduct"
  bottom: "loss2/fc"
  top: "loss2/classifier_kaggle"
  param {
    lr_mult: 1
    decay_mult: 1
  }
  param {
    lr_mult: 2
    decay_mult: 0
  }
  inner_product_param {
    num_output: 447
    weight_filler {
      type: "xavier"
    }
    bias_filler {
      type: "constant"
      value: 0
    }
  }
}
layer {
  name: "loss2/loss"
  type: "SoftmaxWithLoss"
  bottom: "loss2/classifier_kaggle"
  bottom: "label"
  top: "loss2/loss1"
  loss_weight: 0.3
}
layer {
  name: "inception_4e/1x1"
  type: "Convolution"
  bottom: "inception_4d/output"
  top: "inception_4e/1x1"
  param {
    lr_mult: 1
    decay_mult: 1
  }
  param {
    lr_mult: 2
    decay_mult: 0
  }
  convolution_param {
    num_output: 256
    kernel_size: 1
    weight_filler {
      type: "xavier"
    }
    bias_filler {
      type: "constant"
      value: 0.2
    }
  }
}
layer {
  name: "inception_4e/relu_1x1"
  type: "ReLU"
  bottom: "inception_4e/1x1"
  top: "inception_4e/1x1"
}
layer {
  name: "inception_4e/3x3_reduce"
  type: "Convolution"
  bottom: "inception_4d/output"
  top: "inception_4e/3x3_reduce"
  param {
    lr_mult: 1
    decay_mult: 1
  }
  param {
    lr_mult: 2
    decay_mult: 0
  }
  convolution_param {
    num_output: 160
    kernel_size: 1
    weight_filler {
      type: "xavier"
    }
    bias_filler {
      type: "constant"
      value: 0.2
    }
  }
}
layer {
  name: "inception_4e/relu_3x3_reduce"
  type: "ReLU"
  bottom: "inception_4e/3x3_reduce"
  top: "inception_4e/3x3_reduce"
}
layer {
  name: "inception_4e/3x3"
  type: "Convolution"
  bottom: "inception_4e/3x3_reduce"
  top: "inception_4e/3x3"
  param {
    lr_mult: 1
    decay_mult: 1
  }
  param {
    lr_mult: 2
    decay_mult: 0
  }
  convolution_param {
    num_output: 320
    pad: 1
    kernel_size: 3
    weight_filler {
      type: "xavier"
    }
    bias_filler {
      type: "constant"
      value: 0.2
    }
  }
}
layer {
  name: "inception_4e/relu_3x3"
  type: "ReLU"
  bottom: "inception_4e/3x3"
  top: "inception_4e/3x3"
}
layer {
  name: "inception_4e/5x5_reduce"
  type: "Convolution"
  bottom: "inception_4d/output"
  top: "inception_4e/5x5_reduce"
  param {
    lr_mult: 1
    decay_mult: 1
  }
  param {
    lr_mult: 2
    decay_mult: 0
  }
  convolution_param {
    num_output: 32
    kernel_size: 1
    weight_filler {
      type: "xavier"
    }
    bias_filler {
      type: "constant"
      value: 0.2
    }
  }
}
layer {
  name: "inception_4e/relu_5x5_reduce"
  type: "ReLU"
  bottom: "inception_4e/5x5_reduce"
  top: "inception_4e/5x5_reduce"
}
layer {
  name: "inception_4e/5x5"
  type: "Convolution"
  bottom: "inception_4e/5x5_reduce"
  top: "inception_4e/5x5"
  param {
    lr_mult: 1
    decay_mult: 1
  }
  param {
    lr_mult: 2
    decay_mult: 0
  }
  convolution_param {
    num_output: 128
    pad: 2
    kernel_size: 5
    weight_filler {
      type: "xavier"
    }
    bias_filler {
      type: "constant"
      value: 0.2
    }
  }
}
layer {
  name: "inception_4e/relu_5x5"
  type: "ReLU"
  bottom: "inception_4e/5x5"
  top: "inception_4e/5x5"
}
layer {
  name: "inception_4e/pool"
  type: "Pooling"
  bottom: "inception_4d/output"
  top: "inception_4e/pool"
  pooling_param {
   
I1217 10:26:21.898977  9003 layer_factory.hpp:74] Creating layer data
I1217 10:26:21.899004  9003 net.cpp:84] Creating Layer data
I1217 10:26:21.899013  9003 net.cpp:338] data -> data
I1217 10:26:21.899046  9003 net.cpp:338] data -> label
I1217 10:26:21.899055  9003 net.cpp:113] Setting up data
I1217 10:26:21.899129  9003 db.cpp:34] Opened lmdb /home/coldmanck/kaggle/kaggle2_train_lmdb
I1217 10:26:21.899348  9003 data_layer.cpp:67] output data size: 80,3,224,224
I1217 10:26:22.070124  9003 net.cpp:120] Top shape: 80 3 224 224 (12042240)
I1217 10:26:22.070164  9003 net.cpp:120] Top shape: 80 (80)
I1217 10:26:22.070180  9003 layer_factory.hpp:74] Creating layer label_data_1_split
I1217 10:26:22.070222  9003 net.cpp:84] Creating Layer label_data_1_split
I1217 10:26:22.070230  9003 net.cpp:380] label_data_1_split <- label
I1217 10:26:22.070266  9003 net.cpp:338] label_data_1_split -> label_data_1_split_0
I1217 10:26:22.070286  9003 net.cpp:338] label_data_1_split -> label_data_1_split_1
I1217 10:26:22.070296  9003 net.cpp:338] label_data_1_split -> label_data_1_split_2
I1217 10:26:22.070303  9003 net.cpp:113] Setting up label_data_1_split
I1217 10:26:22.070323  9003 net.cpp:120] Top shape: 80 (80)
I1217 10:26:22.070329  9003 net.cpp:120] Top shape: 80 (80)
I1217 10:26:22.070345  9003 net.cpp:120] Top shape: 80 (80)
I1217 10:26:22.070353  9003 layer_factory.hpp:74] Creating layer conv1/7x7_s2
I1217 10:26:22.070366  9003 net.cpp:84] Creating Layer conv1/7x7_s2
I1217 10:26:22.070372  9003 net.cpp:380] conv1/7x7_s2 <- data
I1217 10:26:22.070384  9003 net.cpp:338] conv1/7x7_s2 -> conv1/7x7_s2
I1217 10:26:22.070395  9003 net.cpp:113] Setting up conv1/7x7_s2
I1217 10:26:22.377509  9003 net.cpp:120] Top shape: 80 64 112 112 (64225280)
I1217 10:26:22.377590  9003 layer_factory.hpp:74] Creating layer conv1/relu_7x7
I1217 10:26:22.377606  9003 net.cpp:84] Creating Layer conv1/relu_7x7
I1217 10:26:22.377614  9003 net.cpp:380] conv1/relu_7x7 <- conv1/7x7_s2
I1217 10:26:22.377624  9003 net.cpp:327] conv1/relu_7x7 -> conv1/7x7_s2 (in-place)
I1217 10:26:22.377637  9003 net.cpp:113] Setting up conv1/relu_7x7
I1217 10:26:22.378525  9003 net.cpp:120] Top shape: 80 64 112 112 (64225280)
I1217 10:26:22.378538  9003 layer_factory.hpp:74] Creating layer pool1/3x3_s2
I1217 10:26:22.378556  9003 net.cpp:84] Creating Layer pool1/3x3_s2
I1217 10:26:22.378561  9003 net.cpp:380] pool1/3x3_s2 <- conv1/7x7_s2
I1217 10:26:22.378569  9003 net.cpp:338] pool1/3x3_s2 -> pool1/3x3_s2
I1217 10:26:22.378579  9003 net.cpp:113] Setting up pool1/3x3_s2
I1217 10:26:22.378659  9003 net.cpp:120] Top shape: 80 64 56 56 (16056320)
I1217 10:26:22.378682  9003 layer_factory.hpp:74] Creating layer pool1/norm1
I1217 10:26:22.378693  9003 net.cpp:84] Creating Layer pool1/norm1
I1217 10:26:22.378700  9003 net.cpp:380] pool1/norm1 <- pool1/3x3_s2
I1217 10:26:22.378706  9003 net.cpp:338] pool1/norm1 -> pool1/norm1
I1217 10:26:22.378716  9003 net.cpp:113] Setting up pool1/norm1
I1217 10:26:22.378725  9003 net.cpp:120] Top shape: 80 64 56 56 (16056320)
I1217 10:26:22.378736  9003 layer_factory.hpp:74] Creating layer conv2/3x3_reduce
I1217 10:26:22.378753  9003 net.cpp:84] Creating Layer conv2/3x3_reduce
I1217 10:26:22.378758  9003 net.cpp:380] conv2/3x3_reduce <- pool1/norm1
I1217 10:26:22.378777  9003 net.cpp:338] conv2/3x3_reduce -> conv2/3x3_reduce
I1217 10:26:22.378787  9003 net.cpp:113] Setting up conv2/3x3_reduce
I1217 10:26:22.379243  9003 net.cpp:120] Top shape: 80 64 56 56 (16056320)
I1217 10:26:22.379264  9003 layer_factory.hpp:74] Creating layer conv2/relu_3x3_reduce
I1217 10:26:22.379272  9003 net.cpp:84] Creating Layer conv2/relu_3x3_reduce
I1217 10:26:22.379278  9003 net.cpp:380] conv2/relu_3x3_reduce <- conv2/3x3_reduce
I1217 10:26:22.379286  9003 net.cpp:327] conv2/relu_3x3_reduce -> conv2/3x3_reduce (in-place)
I1217 10:26:22.379293  9003 net.cpp:113] Setting up conv2/relu_3x3_reduce
I1217 10:26:22.379356  9003 net.cpp:120] Top shape: 80 64 56 56 (16056320)
I1217 10:26:22.379364  9003 layer_factory.hpp:74] Creating layer conv2/3x3
I1217 10:26:22.379384  9003 net.cpp:84] Creating Layer conv2/3x3
I1217 10:26:22.379390  9003 net.cpp:380] conv2/3x3 <- conv2/3x3_reduce
I1217 10:26:22.379405  9003 net.cpp:338] conv2/3x3 -> conv2/3x3
I1217 10:26:22.379413  9003 net.cpp:113] Setting up conv2/3x3
I1217 10:26:22.381186  9003 net.cpp:120] Top shape: 80 192 56 56 (48168960)
I1217 10:26:22.381206  9003 layer_factory.hpp:74] Creating layer conv2/relu_3x3
I1217 10:26:22.381214  9003 net.cpp:84] Creating Layer conv2/relu_3x3
I1217 10:26:22.381220  9003 net.cpp:380] conv2/relu_3x3 <- conv2/3x3
I1217 10:26:22.381227  9003 net.cpp:327] conv2/relu_3x3 -> conv2/3x3 (in-place)
I1217 10:26:22.381235  9003 net.cpp:113] Setting up conv2/relu_3x3
I1217 10:26:22.381952  9003 net.cpp:120] Top shape: 80 192 56 56 (48168960)
I1217 10:26:22.381979  9003 layer_factory.hpp:74] Creating layer conv2/norm2
I1217 10:26:22.381990  9003 net.cpp:84] Creating Layer conv2/norm2
I1217 10:26:22.381995  9003 net.cpp:380] conv2/norm2 <- conv2/3x3
I1217 10:26:22.382010  9003 net.cpp:338] conv2/norm2 -> conv2/norm2
I1217 10:26:22.382020  9003 net.cpp:113] Setting up conv2/norm2
I1217 10:26:22.382030  9003 net.cpp:120] Top shape: 80 192 56 56 (48168960)
I1217 10:26:22.382046  9003 layer_factory.hpp:74] Creating layer pool2/3x3_s2
I1217 10:26:22.382066  9003 net.cpp:84] Creating Layer pool2/3x3_s2
I1217 10:26:22.382071  9003 net.cpp:380] pool2/3x3_s2 <- conv2/norm2
I1217 10:26:22.382077  9003 net.cpp:338] pool2/3x3_s2 -> pool2/3x3_s2
I1217 10:26:22.382086  9003 net.cpp:113] Setting up pool2/3x3_s2
I1217 10:26:22.382154  9003 net.cpp:120] Top shape: 80 192 28 28 (12042240)
I1217 10:26:22.382161  9003 layer_factory.hpp:74] Creating layer pool2/3x3_s2_pool2/3x3_s2_0_split
I1217 10:26:22.382169  9003 net.cpp:84] Creating Layer pool2/3x3_s2_pool2/3x3_s2_0_split
I1217 10:26:22.382174  9003 net.cpp:380] pool2/3x3_s2_pool2/3x3_s2_0_split <- pool2/3x3_s2
I1217 10:26:22.382181  9003 net.cpp:338] pool2/3x3_s2_pool2/3x3_s2_0_split -> pool2/3x3_s2_pool2/3x3_s2_0_split_0
I1217 10:26:22.382189  9003 net.cpp:338] pool2/3x3_s2_pool2/3x3_s2_0_split -> pool2/3x3_s2_pool2/3x3_s2_0_split_1
I1217 10:26:22.382197  9003 net.cpp:338] pool2/3x3_s2_pool2/3x3_s2_0_split -> pool2/3x3_s2_pool2/3x3_s2_0_split_2
I1217 10:26:22.382205  9003 net.cpp:338] pool2/3x3_s2_pool2/3x3_s2_0_split -> pool2/3x3_s2_pool2/3x3_s2_0_split_3
I1217 10:26:22.382211  9003 net.cpp:113] Setting up pool2/3x3_s2_pool2/3x3_s2_0_split
I1217 10:26:22.382220  9003 net.cpp:120] Top shape: 80 192 28 28 (12042240)
I1217 10:26:22.382225  9003 net.cpp:120] Top shape: 80 192 28 28 (12042240)
I1217 10:26:22.382230  9003 net.cpp:120] Top shape: 80 192 28 28 (12042240)
I1217 10:26:22.382236  9003 net.cpp:120] Top shape: 80 192 28 28 (12042240)
I1217 10:26:22.382239  9003 layer_factory.hpp:74] Creating layer inception_3a/1x1
I1217 10:26:22.382285  9003 net.cpp:84] Creating Layer inception_3a/1x1
I1217 10:26:22.382292  9003 net.cpp:380] inception_3a/1x1 <- pool2/3x3_s2_pool2/3x3_s2_0_split_0
I1217 10:26:22.382298  9003 net.cpp:338] inception_3a/1x1 -> inception_3a/1x1
I1217 10:26:22.382308  9003 net.cpp:113] Setting up inception_3a/1x1
I1217 10:26:22.384186  9003 net.cpp:120] Top shape: 80 64 28 28 (4014080)
I1217 10:26:22.384204  9003 layer_factory.hpp:74] Creating layer inception_3a/relu_1x1
I1217 10:26:22.384212  9003 net.cpp:84] Creating Layer inception_3a/relu_1x1
I1217 10:26:22.384217  9003 net.cpp:380] inception_3a/relu_1x1 <- inception_3a/1x1
I1217 10:26:22.384237  9003 net.cpp:327] inception_3a/relu_1x1 -> inception_3a/1x1 (in-place)
I1217 10:26:22.384245  9003 net.cpp:113] Setting up inception_3a/relu_1x1
I1217 10:26:22.384320  9003 net.cpp:120] Top shape: 80 64 28 28 (4014080)
I1217 10:26:22.384330  9003 layer_factory.hpp:74] Creating layer inception_3a/3x3_reduce
I1217 10:26:22.384341  9003 net.cpp:84] Creating Layer inception_3a/3x3_reduce
I1217 10:26:22.384346  9003 net.cpp:380] inception_3a/3x3_reduce <- pool2/3x3_s2_pool2/3x3_s2_0_split_1
I1217 10:26:22.384352  9003 net.cpp:338] inception_3a/3x3_reduce -> inception_3a/3x3_reduce
I1217 10:26:22.384361  9003 net.cpp:113] Setting up inception_3a/3x3_reduce
I1217 10:26:22.385072  9003 net.cpp:120] Top shape: 80 96 28 28 (6021120)
I1217 10:26:22.385092  9003 layer_factory.hpp:74] Creating layer inception_3a/relu_3x3_reduce
I1217 10:26:22.385115  9003 net.cpp:84] Creating Layer inception_3a/relu_3x3_reduce
I1217 10:26:22.385121  9003 net.cpp:380] inception_3a/relu_3x3_reduce <- inception_3a/3x3_reduce
I1217 10:26:22.385135  9003 net.cpp:327] inception_3a/relu_3x3_reduce -> inception_3a/3x3_reduce (in-place)
I1217 10:26:22.385144  9003 net.cpp:113] Setting up inception_3a/relu_3x3_reduce
I1217 10:26:22.385221  9003 net.cpp:120] Top shape: 80 96 28 28 (6021120)
I1217 10:26:22.385229  9003 layer_factory.hpp:74] Creating layer inception_3a/3x3
I1217 10:26:22.385251  9003 net.cpp:84] Creating Layer inception_3a/3x3
I1217 10:26:22.385257  9003 net.cpp:380] inception_3a/3x3 <- inception_3a/3x3_reduce
I1217 10:26:22.385267  9003 net.cpp:338] inception_3a/3x3 -> inception_3a/3x3
I1217 10:26:22.385275  9003 net.cpp:113] Setting up inception_3a/3x3
I1217 10:26:22.387045  9003 net.cpp:120] Top shape: 80 128 28 28 (8028160)
I1217 10:26:22.387063  9003 layer_factory.hpp:74] Creating layer inception_3a/relu_3x3
I1217 10:26:22.387076  9003 net.cpp:84] Creating Layer inception_3a/relu_3x3
I1217 10:26:22.387090  9003 net.cpp:380] inception_3a/relu_3x3 <- inception_3a/3x3
I1217 10:26:22.387099  9003 net.cpp:327] inception_3a/relu_3x3 -> inception_3a/3x3 (in-place)
I1217 10:26:22.387106  9003 net.cpp:113] Setting up inception_3a/relu_3x3
I1217 10:26:22.387367  9003 net.cpp:120] Top shape: 80 128 28 28 (8028160)
I1217 10:26:22.387377  9003 layer_factory.hpp:74] Creating layer inception_3a/5x5_reduce
I1217 10:26:22.387388  9003 net.cpp:84] Creating Layer inception_3a/5x5_reduce
I1217 10:26:22.387393  9003 net.cpp:380] inception_3a/5x5_reduce <- pool2/3x3_s2_pool2/3x3_s2_0_split_2
I1217 10:26:22.387404  9003 net.cpp:338] inception_3a/5x5_reduce -> inception_3a/5x5_reduce
I1217 10:26:22.387418  9003 net.cpp:113] Setting up inception_3a/5x5_reduce
I1217 10:26:22.387868  9003 net.cpp:120] Top shape: 80 16 28 28 (1003520)
I1217 10:26:22.387884  9003 layer_factory.hpp:74] Creating layer inception_3a/relu_5x5_reduce
I1217 10:26:22.387905  9003 net.cpp:84] Creating Layer inception_3a/relu_5x5_reduce
I1217 10:26:22.387912  9003 net.cpp:380] inception_3a/relu_5x5_reduce <- inception_3a/5x5_reduce
I1217 10:26:22.387919  9003 net.cpp:327] inception_3a/relu_5x5_reduce -> inception_3a/5x5_reduce (in-place)
I1217 10:26:22.387926  9003 net.cpp:113] Setting up inception_3a/relu_5x5_reduce
I1217 10:26:22.387998  9003 net.cpp:120] Top shape: 80 16 28 28 (1003520)
I1217 10:26:22.388006  9003 layer_factory.hpp:74] Creating layer inception_3a/5x5
I1217 10:26:22.388016  9003 net.cpp:84] Creating Layer inception_3a/5x5
I1217 10:26:22.388022  9003 net.cpp:380] inception_3a/5x5 <- inception_3a/5x5_reduce
I1217 10:26:22.388028  9003 net.cpp:338] inception_3a/5x5 -> inception_3a/5x5
I1217 10:26:22.388037  9003 net.cpp:113] Setting up inception_3a/5x5
I1217 10:26:22.388622  9003 net.cpp:120] Top shape: 80 32 28 28 (2007040)
I1217 10:26:22.388650  9003 layer_factory.hpp:74] Creating layer inception_3a/relu_5x5
I1217 10:26:22.388659  9003 net.cpp:84] Creating Layer inception_3a/relu_5x5
I1217 10:26:22.388664  9003 net.cpp:380] inception_3a/relu_5x5 <- inception_3a/5x5
I1217 10:26:22.388674  9003 net.cpp:327] inception_3a/relu_5x5 -> inception_3a/5x5 (in-place)
I1217 10:26:22.388681  9003 net.cpp:113] Setting up inception_3a/relu_5x5
I1217 10:26:22.388754  9003 net.cpp:120] Top shape: 80 32 28 28 (2007040)
I1217 10:26:22.388763  9003 layer_factory.hpp:74] Creating layer inception_3a/pool
I1217 10:26:22.388777  9003 layer_factory.cpp:56] CUDNN does not support padding or multiple tops. Using Caffe's own pooling layer.
I1217 10:26:22.388784  9003 net.cpp:84] Creating Layer inception_3a/pool
I1217 10:26:22.388790  9003 net.cpp:380] inception_3a/pool <- pool2/3x3_s2_pool2/3x3_s2_0_split_3
I1217 10:26:22.388799  9003 net.cpp:338] inception_3a/pool -> inception_3a/pool
I1217 10:26:22.388808  9003 net.cpp:113] Setting up inception_3a/pool
I1217 10:26:22.388816  9003 net.cpp:120] Top shape: 80 192 28 28 (12042240)
I1217 10:26:22.388821  9003 layer_factory.hpp:74] Creating layer inception_3a/pool_proj
I1217 10:26:22.388829  9003 net.cpp:84] Creating Layer inception_3a/pool_proj
I1217 10:26:22.388834  9003 net.cpp:380] inception_3a/pool_proj <- inception_3a/pool
I1217 10:26:22.388845  9003 net.cpp:338] inception_3a/pool_proj -> inception_3a/pool_proj
I1217 10:26:22.388854  9003 net.cpp:113] Setting up inception_3a/pool_proj
I1217 10:26:22.389396  9003 net.cpp:120] Top shape: 80 32 28 28 (2007040)
I1217 10:26:22.389420  9003 layer_factory.hpp:74] Creating layer inception_3a/relu_pool_proj
I1217 10:26:22.389427  9003 net.cpp:84] Creating Layer inception_3a/relu_pool_proj
I1217 10:26:22.389432  9003 net.cpp:380] inception_3a/relu_pool_proj <- inception_3a/pool_proj
I1217 10:26:22.389443  9003 net.cpp:327] inception_3a/relu_pool_proj -> inception_3a/pool_proj (in-place)
I1217 10:26:22.389452  9003 net.cpp:113] Setting up inception_3a/relu_pool_proj
I1217 10:26:22.389539  9003 net.cpp:120] Top shape: 80 32 28 28 (2007040)
I1217 10:26:22.389557  9003 layer_factory.hpp:74] Creating layer inception_3a/output
I1217 10:26:22.389588  9003 net.cpp:84] Creating Layer inception_3a/output
I1217 10:26:22.389602  9003 net.cpp:380] inception_3a/output <- inception_3a/1x1
I1217 10:26:22.389610  9003 net.cpp:380] inception_3a/output <- inception_3a/3x3
I1217 10:26:22.389616  9003 net.cpp:380] inception_3a/output <- inception_3a/5x5
I1217 10:26:22.389621  9003 net.cpp:380] inception_3a/output <- inception_3a/pool_proj
I1217 10:26:22.389626  9003 net.cpp:338] inception_3a/output -> inception_3a/output
I1217 10:26:22.389636  9003 net.cpp:113] Setting up inception_3a/output
I1217 10:26:22.389644  9003 net.cpp:120] Top shape: 80 256 28 28 (16056320)
I1217 10:26:22.389649  9003 layer_factory.hpp:74] Creating layer inception_3a/output_inception_3a/output_0_split
I1217 10:26:22.389658  9003 net.cpp:84] Creating Layer inception_3a/output_inception_3a/output_0_split
I1217 10:26:22.389663  9003 net.cpp:380] inception_3a/output_inception_3a/output_0_split <- inception_3a/output
I1217 10:26:22.389669  9003 net.cpp:338] inception_3a/output_inception_3a/output_0_split -> inception_3a/output_inception_3a/output_0_split_0
I1217 10:26:22.389678  9003 net.cpp:338] inception_3a/output_inception_3a/output_0_split -> inception_3a/output_inception_3a/output_0_split_1
I1217 10:26:22.389686  9003 net.cpp:338] inception_3a/output_inception_3a/output_0_split -> inception_3a/output_inception_3a/output_0_split_2
I1217 10:26:22.389694  9003 net.cpp:338] inception_3a/output_inception_3a/output_0_split -> inception_3a/output_inception_3a/output_0_split_3
I1217 10:26:22.389701  9003 net.cpp:113] Setting up inception_3a/output_inception_3a/output_0_split
I1217 10:26:22.389709  9003 net.cpp:120] Top shape: 80 256 28 28 (16056320)
I1217 10:26:22.389715  9003 net.cpp:120] Top shape: 80 256 28 28 (16056320)
I1217 10:26:22.389720  9003 net.cpp:120] Top shape: 80 256 28 28 (16056320)
I1217 10:26:22.389725  9003 net.cpp:120] Top shape: 80 256 28 28 (16056320)
I1217 10:26:22.389730  9003 layer_factory.hpp:74] Creating layer inception_3b/1x1
I1217 10:26:22.389741  9003 net.cpp:84] Creating Layer inception_3b/1x1
I1217 10:26:22.389746  9003 net.cpp:380] inception_3b/1x1 <- inception_3a/output_inception_3a/output_0_split_0
I1217 10:26:22.389755  9003 net.cpp:338] inception_3b/1x1 -> inception_3b/1x1
I1217 10:26:22.389763  9003 net.cpp:113] Setting up inception_3b/1x1
I1217 10:26:22.390619  9003 net.cpp:120] Top shape: 80 128 28 28 (8028160)
I1217 10:26:22.390636  9003 layer_factory.hpp:74] Creating layer inception_3b/relu_1x1
I1217 10:26:22.390645  9003 net.cpp:84] Creating Layer inception_3b/relu_1x1
I1217 10:26:22.390650  9003 net.cpp:380] inception_3b/relu_1x1 <- inception_3b/1x1
I1217 10:26:22.390658  9003 net.cpp:327] inception_3b/relu_1x1 -> inception_3b/1x1 (in-place)
I1217 10:26:22.390666  9003 net.cpp:113] Setting up inception_3b/relu_1x1
I1217 10:26:22.390946  9003 net.cpp:120] Top shape: 80 128 28 28 (8028160)
I1217 10:26:22.390959  9003 layer_factory.hpp:74] Creating layer inception_3b/3x3_reduce
I1217 10:26:22.390969  9003 net.cpp:84] Creating Layer inception_3b/3x3_reduce
I1217 10:26:22.390974  9003 net.cpp:380] inception_3b/3x3_reduce <- inception_3a/output_inception_3a/output_0_split_1
I1217 10:26:22.390986  9003 net.cpp:338] inception_3b/3x3_reduce -> inception_3b/3x3_reduce
I1217 10:26:22.390996  9003 net.cpp:113] Setting up inception_3b/3x3_reduce
I1217 10:26:22.391897  9003 net.cpp:120] Top shape: 80 128 28 28 (8028160)
I1217 10:26:22.391922  9003 layer_factory.hpp:74] Creating layer inception_3b/relu_3x3_reduce
I1217 10:26:22.391938  9003 net.cpp:84] Creating Layer inception_3b/relu_3x3_reduce
I1217 10:26:22.391944  9003 net.cpp:380] inception_3b/relu_3x3_reduce <- inception_3b/3x3_reduce
I1217 10:26:22.391952  9003 net.cpp:327] inception_3b/relu_3x3_reduce -> inception_3b/3x3_reduce (in-place)
I1217 10:26:22.391959  9003 net.cpp:113] Setting up inception_3b/relu_3x3_reduce
I1217 10:26:22.392056  9003 net.cpp:120] Top shape: 80 128 28 28 (8028160)
I1217 10:26:22.392065  9003 layer_factory.hpp:74] Creating layer inception_3b/3x3
I1217 10:26:22.392083  9003 net.cpp:84] Creating Layer inception_3b/3x3
I1217 10:26:22.392096  9003 net.cpp:380] inception_3b/3x3 <- inception_3b/3x3_reduce
I1217 10:26:22.392105  9003 net.cpp:338] inception_3b/3x3 -> inception_3b/3x3
I1217 10:26:22.392114  9003 net.cpp:113] Setting up inception_3b/3x3
I1217 10:26:22.395297  9003 net.cpp:120] Top shape: 80 192 28 28 (12042240)
I1217 10:26:22.395314  9003 layer_factory.hpp:74] Creating layer inception_3b/relu_3x3
I1217 10:26:22.395323  9003 net.cpp:84] Creating Layer inception_3b/relu_3x3
I1217 10:26:22.395329  9003 net.cpp:380] inception_3b/relu_3x3 <- inception_3b/3x3
I1217 10:26:22.395336  9003 net.cpp:327] inception_3b/relu_3x3 -> inception_3b/3x3 (in-place)
I1217 10:26:22.395344  9003 net.cpp:113] Setting up inception_3b/relu_3x3
I1217 10:26:22.395427  9003 net.cpp:120] Top shape: 80 192 28 28 (12042240)
I1217 10:26:22.395443  9003 layer_factory.hpp:74] Creating layer inception_3b/5x5_reduce
I1217 10:26:22.395465  9003 net.cpp:84] Creating Layer inception_3b/5x5_reduce
I1217 10:26:22.395473  9003 net.cpp:380] inception_3b/5x5_reduce <- inception_3a/output_inception_3a/output_0_split_2
I1217 10:26:22.395480  9003 net.cpp:338] inception_3b/5x5_reduce -> inception_3b/5x5_reduce
I1217 10:26:22.395490  9003 net.cpp:113] Setting up inception_3b/5x5_reduce
I1217 10:26:22.396044  9003 net.cpp:120] Top shape: 80 32 28 28 (2007040)
I1217 10:26:22.396073  9003 layer_factory.hpp:74] Creating layer inception_3b/relu_5x5_reduce
I1217 10:26:22.396082  9003 net.cpp:84] Creating Layer inception_3b/relu_5x5_reduce
I1217 10:26:22.396088  9003 net.cpp:380] inception_3b/relu_5x5_reduce <- inception_3b/5x5_reduce
I1217 10:26:22.396095  9003 net.cpp:327] inception_3b/relu_5x5_reduce -> inception_3b/5x5_reduce (in-place)
I1217 10:26:22.396103  9003 net.cpp:113] Setting up inception_3b/relu_5x5_reduce
I1217 10:26:22.396174  9003 net.cpp:120] Top shape: 80 32 28 28 (2007040)
I1217 10:26:22.396195  9003 layer_factory.hpp:74] Creating layer inception_3b/5x5
I1217 10:26:22.396203  9003 net.cpp:84] Creating Layer inception_3b/5x5
I1217 10:26:22.396209  9003 net.cpp:380] inception_3b/5x5 <- inception_3b/5x5_reduce
I1217 10:26:22.396222  9003 net.cpp:338] inception_3b/5x5 -> inception_3b/5x5
I1217 10:26:22.396237  9003 net.cpp:113] Setting up inception_3b/5x5
I1217 10:26:22.397675  9003 net.cpp:120] Top shape: 80 96 28 28 (6021120)
I1217 10:26:22.397693  9003 layer_factory.hpp:74] Creating layer inception_3b/relu_5x5
I1217 10:26:22.397711  9003 net.cpp:84] Creating Layer inception_3b/relu_5x5
I1217 10:26:22.397717  9003 net.cpp:380] inception_3b/relu_5x5 <- inception_3b/5x5
I1217 10:26:22.397724  9003 net.cpp:327] inception_3b/relu_5x5 -> inception_3b/5x5 (in-place)
I1217 10:26:22.397733  9003 net.cpp:113] Setting up inception_3b/relu_5x5
I1217 10:26:22.398036  9003 net.cpp:120] Top shape: 80 96 28 28 (6021120)
I1217 10:26:22.398048  9003 layer_factory.hpp:74] Creating layer inception_3b/pool
I1217 10:26:22.398054  9003 layer_factory.cpp:56] CUDNN does not support padding or multiple tops. Using Caffe's own pooling layer.
I1217 10:26:22.398062  9003 net.cpp:84] Creating Layer inception_3b/pool
I1217 10:26:22.398069  9003 net.cpp:380] inception_3b/pool <- inception_3a/output_inception_3a/output_0_split_3
I1217 10:26:22.398079  9003 net.cpp:338] inception_3b/pool -> inception_3b/pool
I1217 10:26:22.398088  9003 net.cpp:113] Setting up inception_3b/pool
I1217 10:26:22.398098  9003 net.cpp:120] Top shape: 80 256 28 28 (16056320)
I1217 10:26:22.398103  9003 layer_factory.hpp:74] Creating layer inception_3b/pool_proj
I1217 10:26:22.398114  9003 net.cpp:84] Creating Layer inception_3b/pool_proj
I1217 10:26:22.398120  9003 net.cpp:380] inception_3b/pool_proj <- inception_3b/pool
I1217 10:26:22.398128  9003 net.cpp:338] inception_3b/pool_proj -> inception_3b/pool_proj
I1217 10:26:22.398136  9003 net.cpp:113] Setting up inception_3b/pool_proj
I1217 10:26:22.398807  9003 net.cpp:120] Top shape: 80 64 28 28 (4014080)
I1217 10:26:22.398833  9003 layer_factory.hpp:74] Creating layer inception_3b/relu_pool_proj
I1217 10:26:22.398847  9003 net.cpp:84] Creating Layer inception_3b/relu_pool_proj
I1217 10:26:22.398862  9003 net.cpp:380] inception_3b/relu_pool_proj <- inception_3b/pool_proj
I1217 10:26:22.398872  9003 net.cpp:327] inception_3b/relu_pool_proj -> inception_3b/pool_proj (in-place)
I1217 10:26:22.398881  9003 net.cpp:113] Setting up inception_3b/relu_pool_proj
I1217 10:26:22.398962  9003 net.cpp:120] Top shape: 80 64 28 28 (4014080)
I1217 10:26:22.398968  9003 layer_factory.hpp:74] Creating layer inception_3b/output
I1217 10:26:22.398983  9003 net.cpp:84] Creating Layer inception_3b/output
I1217 10:26:22.398989  9003 net.cpp:380] inception_3b/output <- inception_3b/1x1
I1217 10:26:22.398995  9003 net.cpp:380] inception_3b/output <- inception_3b/3x3
I1217 10:26:22.399003  9003 net.cpp:380] inception_3b/output <- inception_3b/5x5
I1217 10:26:22.399008  9003 net.cpp:380] inception_3b/output <- inception_3b/pool_proj
I1217 10:26:22.399014  9003 net.cpp:338] inception_3b/output -> inception_3b/output
I1217 10:26:22.399024  9003 net.cpp:113] Setting up inception_3b/output
I1217 10:26:22.399032  9003 net.cpp:120] Top shape: 80 480 28 28 (30105600)
I1217 10:26:22.399037  9003 layer_factory.hpp:74] Creating layer pool3/3x3_s2
I1217 10:26:22.399049  9003 net.cpp:84] Creating Layer pool3/3x3_s2
I1217 10:26:22.399055  9003 net.cpp:380] pool3/3x3_s2 <- inception_3b/output
I1217 10:26:22.399062  9003 net.cpp:338] pool3/3x3_s2 -> pool3/3x3_s2
I1217 10:26:22.399070  9003 net.cpp:113] Setting up pool3/3x3_s2
I1217 10:26:22.399145  9003 net.cpp:120] Top shape: 80 480 14 14 (7526400)
I1217 10:26:22.399152  9003 layer_factory.hpp:74] Creating layer pool3/3x3_s2_pool3/3x3_s2_0_split
I1217 10:26:22.399163  9003 net.cpp:84] Creating Layer pool3/3x3_s2_pool3/3x3_s2_0_split
I1217 10:26:22.399168  9003 net.cpp:380] pool3/3x3_s2_pool3/3x3_s2_0_split <- pool3/3x3_s2
I1217 10:26:22.399174  9003 net.cpp:338] pool3/3x3_s2_pool3/3x3_s2_0_split -> pool3/3x3_s2_pool3/3x3_s2_0_split_0
I1217 10:26:22.399183  9003 net.cpp:338] pool3/3x3_s2_pool3/3x3_s2_0_split -> pool3/3x3_s2_pool3/3x3_s2_0_split_1
I1217 10:26:22.399193  9003 net.cpp:338] pool3/3x3_s2_pool3/3x3_s2_0_split -> pool3/3x3_s2_pool3/3x3_s2_0_split_2
I1217 10:26:22.399199  9003 net.cpp:338] pool3/3x3_s2_pool3/3x3_s2_0_split -> pool3/3x3_s2_pool3/3x3_s2_0_split_3
I1217 10:26:22.399206  9003 net.cpp:113] Setting up pool3/3x3_s2_pool3/3x3_s2_0_split
I1217 10:26:22.399215  9003 net.cpp:120] Top shape: 80 480 14 14 (7526400)
I1217 10:26:22.399220  9003 net.cpp:120] Top shape: 80 480 14 14 (7526400)
I1217 10:26:22.399226  9003 net.cpp:120] Top shape: 80 480 14 14 (7526400)
I1217 10:26:22.399232  9003 net.cpp:120] Top shape: 80 480 14 14 (7526400)
I1217 10:26:22.399236  9003 layer_factory.hpp:74] Creating layer inception_4a/1x1
I1217 10:26:22.399253  9003 net.cpp:84] Creating Layer inception_4a/1x1
I1217 10:26:22.399260  9003 net.cpp:380] inception_4a/1x1 <- pool3/3x3_s2_pool3/3x3_s2_0_split_0
I1217 10:26:22.399266  9003 net.cpp:338] inception_4a/1x1 -> inception_4a/1x1
I1217 10:26:22.399276  9003 net.cpp:113] Setting up inception_4a/1x1
I1217 10:26:22.400909  9003 net.cpp:120] Top shape: 80 192 14 14 (3010560)
I1217 10:26:22.400928  9003 layer_factory.hpp:74] Creating layer inception_4a/relu_1x1
I1217 10:26:22.400945  9003 net.cpp:84] Creating Layer inception_4a/relu_1x1
I1217 10:26:22.400951  9003 net.cpp:380] inception_4a/relu_1x1 <- inception_4a/1x1
I1217 10:26:22.400960  9003 net.cpp:327] inception_4a/relu_1x1 -> inception_4a/1x1 (in-place)
I1217 10:26:22.400969  9003 net.cpp:113] Setting up inception_4a/relu_1x1
I1217 10:26:22.401278  9003 net.cpp:120] Top shape: 80 192 14 14 (3010560)
I1217 10:26:22.401291  9003 layer_factory.hpp:74] Creating layer inception_4a/3x3_reduce
I1217 10:26:22.401307  9003 net.cpp:84] Creating Layer inception_4a/3x3_reduce
I1217 10:26:22.401314  9003 net.cpp:380] inception_4a/3x3_reduce <- pool3/3x3_s2_pool3/3x3_s2_0_split_1
I1217 10:26:22.401324  9003 net.cpp:338] inception_4a/3x3_reduce -> inception_4a/3x3_reduce
I1217 10:26:22.401335  9003 net.cpp:113] Setting up inception_4a/3x3_reduce
I1217 10:26:22.402405  9003 net.cpp:120] Top shape: 80 96 14 14 (1505280)
I1217 10:26:22.402442  9003 layer_factory.hpp:74] Creating layer inception_4a/relu_3x3_reduce
I1217 10:26:22.402452  9003 net.cpp:84] Creating Layer inception_4a/relu_3x3_reduce
I1217 10:26:22.402461  9003 net.cpp:380] inception_4a/relu_3x3_reduce <- inception_4a/3x3_reduce
I1217 10:26:22.402468  9003 net.cpp:327] inception_4a/relu_3x3_reduce -> inception_4a/3x3_reduce (in-place)
I1217 10:26:22.402477  9003 net.cpp:113] Setting up inception_4a/relu_3x3_reduce
I1217 10:26:22.402552  9003 net.cpp:120] Top shape: 80 96 14 14 (1505280)
I1217 10:26:22.402559  9003 layer_factory.hpp:74] Creating layer inception_4a/3x3
I1217 10:26:22.402578  9003 net.cpp:84] Creating Layer inception_4a/3x3
I1217 10:26:22.402585  9003 net.cpp:380] inception_4a/3x3 <- inception_4a/3x3_reduce
I1217 10:26:22.402592  9003 net.cpp:338] inception_4a/3x3 -> inception_4a/3x3
I1217 10:26:22.402602  9003 net.cpp:113] Setting up inception_4a/3x3
I1217 10:26:22.405338  9003 net.cpp:120] Top shape: 80 208 14 14 (3261440)
I1217 10:26:22.405355  9003 layer_factory.hpp:74] Creating layer inception_4a/relu_3x3
I1217 10:26:22.405372  9003 net.cpp:84] Creating Layer inception_4a/relu_3x3
I1217 10:26:22.405378  9003 net.cpp:380] inception_4a/relu_3x3 <- inception_4a/3x3
I1217 10:26:22.405388  9003 net.cpp:327] inception_4a/relu_3x3 -> inception_4a/3x3 (in-place)
I1217 10:26:22.405396  9003 net.cpp:113] Setting up inception_4a/relu_3x3
I1217 10:26:22.405474  9003 net.cpp:120] Top shape: 80 208 14 14 (3261440)
I1217 10:26:22.405481  9003 layer_factory.hpp:74] Creating layer inception_4a/5x5_reduce
I1217 10:26:22.405493  9003 net.cpp:84] Creating Layer inception_4a/5x5_reduce
I1217 10:26:22.405500  9003 net.cpp:380] inception_4a/5x5_reduce <- pool3/3x3_s2_pool3/3x3_s2_0_split_2
I1217 10:26:22.405510  9003 net.cpp:338] inception_4a/5x5_reduce -> inception_4a/5x5_reduce
I1217 10:26:22.405520  9003 net.cpp:113] Setting up inception_4a/5x5_reduce
I1217 10:26:22.406092  9003 net.cpp:120] Top shape: 80 16 14 14 (250880)
I1217 10:26:22.406110  9003 layer_factory.hpp:74] Creating layer inception_4a/relu_5x5_reduce
I1217 10:26:22.406117  9003 net.cpp:84] Creating Layer inception_4a/relu_5x5_reduce
I1217 10:26:22.406124  9003 net.cpp:380] inception_4a/relu_5x5_reduce <- inception_4a/5x5_reduce
I1217 10:26:22.406136  9003 net.cpp:327] inception_4a/relu_5x5_reduce -> inception_4a/5x5_reduce (in-place)
I1217 10:26:22.406144  9003 net.cpp:113] Setting up inception_4a/relu_5x5_reduce
I1217 10:26:22.406221  9003 net.cpp:120] Top shape: 80 16 14 14 (250880)
I1217 10:26:22.406229  9003 layer_factory.hpp:74] Creating layer inception_4a/5x5
I1217 10:26:22.406247  9003 net.cpp:84] Creating Layer inception_4a/5x5
I1217 10:26:22.406254  9003 net.cpp:380] inception_4a/5x5 <- inception_4a/5x5_reduce
I1217 10:26:22.406263  9003 net.cpp:338] inception_4a/5x5 -> inception_4a/5x5
I1217 10:26:22.406273  9003 net.cpp:113] Setting up inception_4a/5x5
I1217 10:26:22.406994  9003 net.cpp:120] Top shape: 80 48 14 14 (752640)
I1217 10:26:22.407019  9003 layer_factory.hpp:74] Creating layer inception_4a/relu_5x5
I1217 10:26:22.407028  9003 net.cpp:84] Creating Layer inception_4a/relu_5x5
I1217 10:26:22.407034  9003 net.cpp:380] inception_4a/relu_5x5 <- inception_4a/5x5
I1217 10:26:22.407042  9003 net.cpp:327] inception_4a/relu_5x5 -> inception_4a/5x5 (in-place)
I1217 10:26:22.407049  9003 net.cpp:113] Setting up inception_4a/relu_5x5
I1217 10:26:22.407337  9003 net.cpp:120] Top shape: 80 48 14 14 (752640)
I1217 10:26:22.407351  9003 layer_factory.hpp:74] Creating layer inception_4a/pool
I1217 10:26:22.407356  9003 layer_factory.cpp:56] CUDNN does not support padding or multiple tops. Using Caffe's own pooling layer.
I1217 10:26:22.407366  9003 net.cpp:84] Creating Layer inception_4a/pool
I1217 10:26:22.407372  9003 net.cpp:380] inception_4a/pool <- pool3/3x3_s2_pool3/3x3_s2_0_split_3
I1217 10:26:22.407380  9003 net.cpp:338] inception_4a/pool -> inception_4a/pool
I1217 10:26:22.407390  9003 net.cpp:113] Setting up inception_4a/pool
I1217 10:26:22.407410  9003 net.cpp:120] Top shape: 80 480 14 14 (7526400)
I1217 10:26:22.407424  9003 layer_factory.hpp:74] Creating layer inception_4a/pool_proj
I1217 10:26:22.407441  9003 net.cpp:84] Creating Layer inception_4a/pool_proj
I1217 10:26:22.407448  9003 net.cpp:380] inception_4a/pool_proj <- inception_4a/pool
I1217 10:26:22.407457  9003 net.cpp:338] inception_4a/pool_proj -> inception_4a/pool_proj
I1217 10:26:22.407467  9003 net.cpp:113] Setting up inception_4a/pool_proj
I1217 10:26:22.408324  9003 net.cpp:120] Top shape: 80 64 14 14 (1003520)
I1217 10:26:22.408344  9003 layer_factory.hpp:74] Creating layer inception_4a/relu_pool_proj
I1217 10:26:22.408351  9003 net.cpp:84] Creating Layer inception_4a/relu_pool_proj
I1217 10:26:22.408357  9003 net.cpp:380] inception_4a/relu_pool_proj <- inception_4a/pool_proj
I1217 10:26:22.408365  9003 net.cpp:327] inception_4a/relu_pool_proj -> inception_4a/pool_proj (in-place)
I1217 10:26:22.408375  9003 net.cpp:113] Setting up inception_4a/relu_pool_proj
I1217 10:26:22.408453  9003 net.cpp:120] Top shape: 80 64 14 14 (1003520)
I1217 10:26:22.408466  9003 layer_factory.hpp:74] Creating layer inception_4a/output
I1217 10:26:22.408473  9003 net.cpp:84] Creating Layer inception_4a/output
I1217 10:26:22.408478  9003 net.cpp:380] inception_4a/output <- inception_4a/1x1
I1217 10:26:22.408485  9003 net.cpp:380] inception_4a/output <- inception_4a/3x3
I1217 10:26:22.408491  9003 net.cpp:380] inception_4a/output <- inception_4a/5x5
I1217 10:26:22.408498  9003 net.cpp:380] inception_4a/output <- inception_4a/pool_proj
I1217 10:26:22.408505  9003 net.cpp:338] inception_4a/output -> inception_4a/output
I1217 10:26:22.408514  9003 net.cpp:113] Setting up inception_4a/output
I1217 10:26:22.408524  9003 net.cpp:120] Top shape: 80 512 14 14 (8028160)
I1217 10:26:22.408540  9003 layer_factory.hpp:74] Creating layer inception_4a/output_inception_4a/output_0_split
I1217 10:26:22.408547  9003 net.cpp:84] Creating Layer inception_4a/output_inception_4a/output_0_split
I1217 10:26:22.408553  9003 net.cpp:380] inception_4a/output_inception_4a/output_0_split <- inception_4a/output
I1217 10:26:22.408560  9003 net.cpp:338] inception_4a/output_inception_4a/output_0_split -> inception_4a/output_inception_4a/output_0_split_0
I1217 10:26:22.408570  9003 net.cpp:338] inception_4a/output_inception_4a/output_0_split -> inception_4a/output_inception_4a/output_0_split_1
I1217 10:26:22.408578  9003 net.cpp:338] inception_4a/output_inception_4a/output_0_split -> inception_4a/output_inception_4a/output_0_split_2
I1217 10:26:22.408589  9003 net.cpp:338] inception_4a/output_inception_4a/output_0_split -> inception_4a/output_inception_4a/output_0_split_3
I1217 10:26:22.408597  9003 net.cpp:338] inception_4a/output_inception_4a/output_0_split -> inception_4a/output_inception_4a/output_0_split_4
I1217 10:26:22.408606  9003 net.cpp:113] Setting up inception_4a/output_inception_4a/output_0_split
I1217 10:26:22.408627  9003 net.cpp:120] Top shape: 80 512 14 14 (8028160)
I1217 10:26:22.408640  9003 net.cpp:120] Top shape: 80 512 14 14 (8028160)
I1217 10:26:22.408645  9003 net.cpp:120] Top shape: 80 512 14 14 (8028160)
I1217 10:26:22.408651  9003 net.cpp:120] Top shape: 80 512 14 14 (8028160)
I1217 10:26:22.408656  9003 net.cpp:120] Top shape: 80 512 14 14 (8028160)
I1217 10:26:22.408661  9003 layer_factory.hpp:74] Creating layer loss1/ave_pool
I1217 10:26:22.408670  9003 net.cpp:84] Creating Layer loss1/ave_pool
I1217 10:26:22.408675  9003 net.cpp:380] loss1/ave_pool <- inception_4a/output_inception_4a/output_0_split_0
I1217 10:26:22.408682  9003 net.cpp:338] loss1/ave_pool -> loss1/ave_pool
I1217 10:26:22.408690  9003 net.cpp:113] Setting up loss1/ave_pool
I1217 10:26:22.408769  9003 net.cpp:120] Top shape: 80 512 4 4 (655360)
I1217 10:26:22.408776  9003 layer_factory.hpp:74] Creating layer loss1/conv
I1217 10:26:22.408793  9003 net.cpp:84] Creating Layer loss1/conv
I1217 10:26:22.408799  9003 net.cpp:380] loss1/conv <- loss1/ave_pool
I1217 10:26:22.408808  9003 net.cpp:338] loss1/conv -> loss1/conv
I1217 10:26:22.408824  9003 net.cpp:113] Setting up loss1/conv
I1217 10:26:22.410142  9003 net.cpp:120] Top shape: 80 128 4 4 (163840)
I1217 10:26:22.410161  9003 layer_factory.hpp:74] Creating layer loss1/relu_conv
I1217 10:26:22.410171  9003 net.cpp:84] Creating Layer loss1/relu_conv
I1217 10:26:22.410176  9003 net.cpp:380] loss1/relu_conv <- loss1/conv
I1217 10:26:22.410183  9003 net.cpp:327] loss1/relu_conv -> loss1/conv (in-place)
I1217 10:26:22.410192  9003 net.cpp:113] Setting up loss1/relu_conv
I1217 10:26:22.410265  9003 net.cpp:120] Top shape: 80 128 4 4 (163840)
I1217 10:26:22.410272  9003 layer_factory.hpp:74] Creating layer loss1/fc
I1217 10:26:22.410293  9003 net.cpp:84] Creating Layer loss1/fc
I1217 10:26:22.410300  9003 net.cpp:380] loss1/fc <- loss1/conv
I1217 10:26:22.410307  9003 net.cpp:338] loss1/fc -> loss1/fc
I1217 10:26:22.410320  9003 net.cpp:113] Setting up loss1/fc
I1217 10:26:22.462893  9003 net.cpp:120] Top shape: 80 1024 (81920)
I1217 10:26:22.462931  9003 layer_factory.hpp:74] Creating layer loss1/relu_fc
I1217 10:26:22.462944  9003 net.cpp:84] Creating Layer loss1/relu_fc
I1217 10:26:22.462951  9003 net.cpp:380] loss1/relu_fc <- loss1/fc
I1217 10:26:22.462967  9003 net.cpp:327] loss1/relu_fc -> loss1/fc (in-place)
I1217 10:26:22.462978  9003 net.cpp:113] Setting up loss1/relu_fc
I1217 10:26:22.463418  9003 net.cpp:120] Top shape: 80 1024 (81920)
I1217 10:26:22.463431  9003 layer_factory.hpp:74] Creating layer loss1/drop_fc
I1217 10:26:22.463464  9003 net.cpp:84] Creating Layer loss1/drop_fc
I1217 10:26:22.463471  9003 net.cpp:380] loss1/drop_fc <- loss1/fc
I1217 10:26:22.463480  9003 net.cpp:327] loss1/drop_fc -> loss1/fc (in-place)
I1217 10:26:22.463492  9003 net.cpp:113] Setting up loss1/drop_fc
I1217 10:26:22.463503  9003 net.cpp:120] Top shape: 80 1024 (81920)
I1217 10:26:22.463510  9003 layer_factory.hpp:74] Creating layer loss1/classifier_kaggle
I1217 10:26:22.463522  9003 net.cpp:84] Creating Layer loss1/classifier_kaggle
I1217 10:26:22.463528  9003 net.cpp:380] loss1/classifier_kaggle <- loss1/fc
I1217 10:26:22.463536  9003 net.cpp:338] loss1/classifier_kaggle -> loss1/classifier_kaggle
I1217 10:26:22.463546  9003 net.cpp:113] Setting up loss1/classifier_kaggle
I1217 10:26:22.469386  9003 net.cpp:120] Top shape: 80 447 (35760)
I1217 10:26:22.469406  9003 layer_factory.hpp:74] Creating layer loss1/loss
I1217 10:26:22.469416  9003 net.cpp:84] Creating Layer loss1/loss
I1217 10:26:22.469422  9003 net.cpp:380] loss1/loss <- loss1/classifier_kaggle
I1217 10:26:22.469439  9003 net.cpp:380] loss1/loss <- label_data_1_split_0
I1217 10:26:22.469449  9003 net.cpp:338] loss1/loss -> loss1/loss1
I1217 10:26:22.469458  9003 net.cpp:113] Setting up loss1/loss
I1217 10:26:22.469467  9003 layer_factory.hpp:74] Creating layer loss1/loss
I1217 10:26:22.469694  9003 net.cpp:120] Top shape: (1)
I1217 10:26:22.469707  9003 net.cpp:122]     with loss weight 0.3
I1217 10:26:22.469738  9003 layer_factory.hpp:74] Creating layer inception_4b/1x1
I1217 10:26:22.469755  9003 net.cpp:84] Creating Layer inception_4b/1x1
I1217 10:26:22.469764  9003 net.cpp:380] inception_4b/1x1 <- inception_4a/output_inception_4a/output_0_split_1
I1217 10:26:22.469774  9003 net.cpp:338] inception_4b/1x1 -> inception_4b/1x1
I1217 10:26:22.469784  9003 net.cpp:113] Setting up inception_4b/1x1
I1217 10:26:22.471323  9003 net.cpp:120] Top shape: 80 160 14 14 (2508800)
I1217 10:26:22.471340  9003 layer_factory.hpp:74] Creating layer inception_4b/relu_1x1
I1217 10:26:22.471357  9003 net.cpp:84] Creating Layer inception_4b/relu_1x1
I1217 10:26:22.471364  9003 net.cpp:380] inception_4b/relu_1x1 <- inception_4b/1x1
I1217 10:26:22.471372  9003 net.cpp:327] inception_4b/relu_1x1 -> inception_4b/1x1 (in-place)
I1217 10:26:22.471380  9003 net.cpp:113] Setting up inception_4b/relu_1x1
I1217 10:26:22.471452  9003 net.cpp:120] Top shape: 80 160 14 14 (2508800)
I1217 10:26:22.471459  9003 layer_factory.hpp:74] Creating layer inception_4b/3x3_reduce
I1217 10:26:22.471469  9003 net.cpp:84] Creating Layer inception_4b/3x3_reduce
I1217 10:26:22.471487  9003 net.cpp:380] inception_4b/3x3_reduce <- inception_4a/output_inception_4a/output_0_split_2
I1217 10:26:22.471513  9003 net.cpp:338] inception_4b/3x3_reduce -> inception_4b/3x3_reduce
I1217 10:26:22.471523  9003 net.cpp:113] Setting up inception_4b/3x3_reduce
I1217 10:26:22.472650  9003 net.cpp:120] Top shape: 80 112 14 14 (1756160)
I1217 10:26:22.472666  9003 layer_factory.hpp:74] Creating layer inception_4b/relu_3x3_reduce
I1217 10:26:22.472674  9003 net.cpp:84] Creating Layer inception_4b/relu_3x3_reduce
I1217 10:26:22.472681  9003 net.cpp:380] inception_4b/relu_3x3_reduce <- inception_4b/3x3_reduce
I1217 10:26:22.472687  9003 net.cpp:327] inception_4b/relu_3x3_reduce -> inception_4b/3x3_reduce (in-place)
I1217 10:26:22.472695  9003 net.cpp:113] Setting up inception_4b/relu_3x3_reduce
I1217 10:26:22.472766  9003 net.cpp:120] Top shape: 80 112 14 14 (1756160)
I1217 10:26:22.472784  9003 layer_factory.hpp:74] Creating layer inception_4b/3x3
I1217 10:26:22.472800  9003 net.cpp:84] Creating Layer inception_4b/3x3
I1217 10:26:22.472806  9003 net.cpp:380] inception_4b/3x3 <- inception_4b/3x3_reduce
I1217 10:26:22.472815  9003 net.cpp:338] inception_4b/3x3 -> inception_4b/3x3
I1217 10:26:22.472825  9003 net.cpp:113] Setting up inception_4b/3x3
I1217 10:26:22.475921  9003 net.cpp:120] Top shape: 80 224 14 14 (3512320)
I1217 10:26:22.475939  9003 layer_factory.hpp:74] Creating layer inception_4b/relu_3x3
I1217 10:26:22.475946  9003 net.cpp:84] Creating Layer inception_4b/relu_3x3
I1217 10:26:22.475952  9003 net.cpp:380] inception_4b/relu_3x3 <- inception_4b/3x3
I1217 10:26:22.475958  9003 net.cpp:327] inception_4b/relu_3x3 -> inception_4b/3x3 (in-place)
I1217 10:26:22.475966  9003 net.cpp:113] Setting up inception_4b/relu_3x3
I1217 10:26:22.476236  9003 net.cpp:120] Top shape: 80 224 14 14 (3512320)
I1217 10:26:22.476248  9003 layer_factory.hpp:74] Creating layer inception_4b/5x5_reduce
I1217 10:26:22.476270  9003 net.cpp:84] Creating Layer inception_4b/5x5_reduce
I1217 10:26:22.476276  9003 net.cpp:380] inception_4b/5x5_reduce <- inception_4a/output_inception_4a/output_0_split_3
I1217 10:26:22.476289  9003 net.cpp:338] inception_4b/5x5_reduce -> inception_4b/5x5_reduce
I1217 10:26:22.476299  9003 net.cpp:113] Setting up inception_4b/5x5_reduce
I1217 10:26:22.476910  9003 net.cpp:120] Top shape: 80 24 14 14 (376320)
I1217 10:26:22.476927  9003 layer_factory.hpp:74] Creating layer inception_4b/relu_5x5_reduce
I1217 10:26:22.476943  9003 net.cpp:84] Creating Layer inception_4b/relu_5x5_reduce
I1217 10:26:22.476951  9003 net.cpp:380] inception_4b/relu_5x5_reduce <- inception_4b/5x5_reduce
I1217 10:26:22.476960  9003 net.cpp:327] inception_4b/relu_5x5_reduce -> inception_4b/5x5_reduce (in-place)
I1217 10:26:22.476969  9003 net.cpp:113] Setting up inception_4b/relu_5x5_reduce
I1217 10:26:22.477046  9003 net.cpp:120] Top shape: 80 24 14 14 (376320)
I1217 10:26:22.477052  9003 layer_factory.hpp:74] Creating layer inception_4b/5x5
I1217 10:26:22.477075  9003 net.cpp:84] Creating Layer inception_4b/5x5
I1217 10:26:22.477084  9003 net.cpp:380] inception_4b/5x5 <- inception_4b/5x5_reduce
I1217 10:26:22.477093  9003 net.cpp:338] inception_4b/5x5 -> inception_4b/5x5
I1217 10:26:22.477102  9003 net.cpp:113] Setting up inception_4b/5x5
I1217 10:26:22.478000  9003 net.cpp:120] Top shape: 80 64 14 14 (1003520)
I1217 10:26:22.478018  9003 layer_factory.hpp:74] Creating layer inception_4b/relu_5x5
I1217 10:26:22.478026  9003 net.cpp:84] Creating Layer inception_4b/relu_5x5
I1217 10:26:22.478032  9003 net.cpp:380] inception_4b/relu_5x5 <- inception_4b/5x5
I1217 10:26:22.478039  9003 net.cpp:327] inception_4b/relu_5x5 -> inception_4b/5x5 (in-place)
I1217 10:26:22.478049  9003 net.cpp:113] Setting up inception_4b/relu_5x5
I1217 10:26:22.478122  9003 net.cpp:120] Top shape: 80 64 14 14 (1003520)
I1217 10:26:22.478129  9003 layer_factory.hpp:74] Creating layer inception_4b/pool
I1217 10:26:22.478135  9003 layer_factory.cpp:56] CUDNN does not support padding or multiple tops. Using Caffe's own pooling layer.
I1217 10:26:22.478144  9003 net.cpp:84] Creating Layer inception_4b/pool
I1217 10:26:22.478168  9003 net.cpp:380] inception_4b/pool <- inception_4a/output_inception_4a/output_0_split_4
I1217 10:26:22.478176  9003 net.cpp:338] inception_4b/pool -> inception_4b/pool
I1217 10:26:22.478196  9003 net.cpp:113] Setting up inception_4b/pool
I1217 10:26:22.478209  9003 net.cpp:120] Top shape: 80 512 14 14 (8028160)
I1217 10:26:22.478214  9003 layer_factory.hpp:74] Creating layer inception_4b/pool_proj
I1217 10:26:22.478235  9003 net.cpp:84] Creating Layer inception_4b/pool_proj
I1217 10:26:22.478241  9003 net.cpp:380] inception_4b/pool_proj <- inception_4b/pool
I1217 10:26:22.478250  9003 net.cpp:338] inception_4b/pool_proj -> inception_4b/pool_proj
I1217 10:26:22.478260  9003 net.cpp:113] Setting up inception_4b/pool_proj
I1217 10:26:22.479085  9003 net.cpp:120] Top shape: 80 64 14 14 (1003520)
I1217 10:26:22.479101  9003 layer_factory.hpp:74] Creating layer inception_4b/relu_pool_proj
I1217 10:26:22.479110  9003 net.cpp:84] Creating Layer inception_4b/relu_pool_proj
I1217 10:26:22.479115  9003 net.cpp:380] inception_4b/relu_pool_proj <- inception_4b/pool_proj
I1217 10:26:22.479122  9003 net.cpp:327] inception_4b/relu_pool_proj -> inception_4b/pool_proj (in-place)
I1217 10:26:22.479130  9003 net.cpp:113] Setting up inception_4b/relu_pool_proj
I1217 10:26:22.479399  9003 net.cpp:120] Top shape: 80 64 14 14 (1003520)
I1217 10:26:22.479418  9003 layer_factory.hpp:74] Creating layer inception_4b/output
I1217 10:26:22.479428  9003 net.cpp:84] Creating Layer inception_4b/output
I1217 10:26:22.479434  9003 net.cpp:380] inception_4b/output <- inception_4b/1x1
I1217 10:26:22.479440  9003 net.cpp:380] inception_4b/output <- inception_4b/3x3
I1217 10:26:22.479445  9003 net.cpp:380] inception_4b/output <- inception_4b/5x5
I1217 10:26:22.479451  9003 net.cpp:380] inception_4b/output <- inception_4b/pool_proj
I1217 10:26:22.479457  9003 net.cpp:338] inception_4b/output -> inception_4b/output
I1217 10:26:22.479465  9003 net.cpp:113] Setting up inception_4b/output
I1217 10:26:22.479475  9003 net.cpp:120] Top shape: 80 512 14 14 (8028160)
I1217 10:26:22.479480  9003 layer_factory.hpp:74] Creating layer inception_4b/output_inception_4b/output_0_split
I1217 10:26:22.479486  9003 net.cpp:84] Creating Layer inception_4b/output_inception_4b/output_0_split
I1217 10:26:22.479493  9003 net.cpp:380] inception_4b/output_inception_4b/output_0_split <- inception_4b/output
I1217 10:26:22.479499  9003 net.cpp:338] inception_4b/output_inception_4b/output_0_split -> inception_4b/output_inception_4b/output_0_split_0
I1217 10:26:22.479507  9003 net.cpp:338] inception_4b/output_inception_4b/output_0_split -> inception_4b/output_inception_4b/output_0_split_1
I1217 10:26:22.479516  9003 net.cpp:338] inception_4b/output_inception_4b/output_0_split -> inception_4b/output_inception_4b/output_0_split_2
I1217 10:26:22.479523  9003 net.cpp:338] inception_4b/output_inception_4b/output_0_split -> inception_4b/output_inception_4b/output_0_split_3
I1217 10:26:22.479531  9003 net.cpp:113] Setting up inception_4b/output_inception_4b/output_0_split
I1217 10:26:22.479539  9003 net.cpp:120] Top shape: 80 512 14 14 (8028160)
I1217 10:26:22.479544  9003 net.cpp:120] Top shape: 80 512 14 14 (8028160)
I1217 10:26:22.479549  9003 net.cpp:120] Top shape: 80 512 14 14 (8028160)
I1217 10:26:22.479555  9003 net.cpp:120] Top shape: 80 512 14 14 (8028160)
I1217 10:26:22.479559  9003 layer_factory.hpp:74] Creating layer inception_4c/1x1
I1217 10:26:22.479576  9003 net.cpp:84] Creating Layer inception_4c/1x1
I1217 10:26:22.479583  9003 net.cpp:380] inception_4c/1x1 <- inception_4b/output_inception_4b/output_0_split_0
I1217 10:26:22.479591  9003 net.cpp:338] inception_4c/1x1 -> inception_4c/1x1
I1217 10:26:22.479599  9003 net.cpp:113] Setting up inception_4c/1x1
I1217 10:26:22.480821  9003 net.cpp:120] Top shape: 80 128 14 14 (2007040)
I1217 10:26:22.480837  9003 layer_factory.hpp:74] Creating layer inception_4c/relu_1x1
I1217 10:26:22.480846  9003 net.cpp:84] Creating Layer inception_4c/relu_1x1
I1217 10:26:22.480859  9003 net.cpp:380] inception_4c/relu_1x1 <- inception_4c/1x1
I1217 10:26:22.480872  9003 net.cpp:327] inception_4c/relu_1x1 -> inception_4c/1x1 (in-place)
I1217 10:26:22.480881  9003 net.cpp:113] Setting up inception_4c/relu_1x1
I1217 10:26:22.480952  9003 net.cpp:120] Top shape: 80 128 14 14 (2007040)
I1217 10:26:22.480958  9003 layer_factory.hpp:74] Creating layer inception_4c/3x3_reduce
I1217 10:26:22.480976  9003 net.cpp:84] Creating Layer inception_4c/3x3_reduce
I1217 10:26:22.480983  9003 net.cpp:380] inception_4c/3x3_reduce <- inception_4b/output_inception_4b/output_0_split_1
I1217 10:26:22.480993  9003 net.cpp:338] inception_4c/3x3_reduce -> inception_4c/3x3_reduce
I1217 10:26:22.481003  9003 net.cpp:113] Setting up inception_4c/3x3_reduce
I1217 10:26:22.482218  9003 net.cpp:120] Top shape: 80 128 14 14 (2007040)
I1217 10:26:22.482234  9003 layer_factory.hpp:74] Creating layer inception_4c/relu_3x3_reduce
I1217 10:26:22.482244  9003 net.cpp:84] Creating Layer inception_4c/relu_3x3_reduce
I1217 10:26:22.482249  9003 net.cpp:380] inception_4c/relu_3x3_reduce <- inception_4c/3x3_reduce
I1217 10:26:22.482256  9003 net.cpp:327] inception_4c/relu_3x3_reduce -> inception_4c/3x3_reduce (in-place)
I1217 10:26:22.482264  9003 net.cpp:113] Setting up inception_4c/relu_3x3_reduce
I1217 10:26:22.482333  9003 net.cpp:120] Top shape: 80 128 14 14 (2007040)
I1217 10:26:22.482341  9003 layer_factory.hpp:74] Creating layer inception_4c/3x3
I1217 10:26:22.482360  9003 net.cpp:84] Creating Layer inception_4c/3x3
I1217 10:26:22.482367  9003 net.cpp:380] inception_4c/3x3 <- inception_4c/3x3_reduce
I1217 10:26:22.482375  9003 net.cpp:338] inception_4c/3x3 -> inception_4c/3x3
I1217 10:26:22.482384  9003 net.cpp:113] Setting up inception_4c/3x3
I1217 10:26:22.490486  9003 net.cpp:120] Top shape: 80 256 14 14 (4014080)
I1217 10:26:22.490517  9003 layer_factory.hpp:74] Creating layer inception_4c/relu_3x3
I1217 10:26:22.490526  9003 net.cpp:84] Creating Layer inception_4c/relu_3x3
I1217 10:26:22.490532  9003 net.cpp:380] inception_4c/relu_3x3 <- inception_4c/3x3
I1217 10:26:22.490541  9003 net.cpp:327] inception_4c/relu_3x3 -> inception_4c/3x3 (in-place)
I1217 10:26:22.490550  9003 net.cpp:113] Setting up inception_4c/relu_3x3
I1217 10:26:22.490624  9003 net.cpp:120] Top shape: 80 256 14 14 (4014080)
I1217 10:26:22.490630  9003 layer_factory.hpp:74] Creating layer inception_4c/5x5_reduce
I1217 10:26:22.490638  9003 net.cpp:84] Creating Layer inception_4c/5x5_reduce
I1217 10:26:22.490644  9003 net.cpp:380] inception_4c/5x5_reduce <- inception_4b/output_inception_4b/output_0_split_2
I1217 10:26:22.490653  9003 net.cpp:338] inception_4c/5x5_reduce -> inception_4c/5x5_reduce
I1217 10:26:22.490663  9003 net.cpp:113] Setting up inception_4c/5x5_reduce
I1217 10:26:22.491250  9003 net.cpp:120] Top shape: 80 24 14 14 (376320)
I1217 10:26:22.491276  9003 layer_factory.hpp:74] Creating layer inception_4c/relu_5x5_reduce
I1217 10:26:22.491292  9003 net.cpp:84] Creating Layer inception_4c/relu_5x5_reduce
I1217 10:26:22.491298  9003 net.cpp:380] inception_4c/relu_5x5_reduce <- inception_4c/5x5_reduce
I1217 10:26:22.491305  9003 net.cpp:327] inception_4c/relu_5x5_reduce -> inception_4c/5x5_reduce (in-place)
I1217 10:26:22.491313  9003 net.cpp:113] Setting up inception_4c/relu_5x5_reduce
I1217 10:26:22.491587  9003 net.cpp:120] Top shape: 80 24 14 14 (376320)
I1217 10:26:22.491598  9003 layer_factory.hpp:74] Creating layer inception_4c/5x5
I1217 10:26:22.491608  9003 net.cpp:84] Creating Layer inception_4c/5x5
I1217 10:26:22.491614  9003 net.cpp:380] inception_4c/5x5 <- inception_4c/5x5_reduce
I1217 10:26:22.491622  9003 net.cpp:338] inception_4c/5x5 -> inception_4c/5x5
I1217 10:26:22.491631  9003 net.cpp:113] Setting up inception_4c/5x5
I1217 10:26:22.493641  9003 net.cpp:120] Top shape: 80 64 14 14 (1003520)
I1217 10:26:22.493664  9003 layer_factory.hpp:74] Creating layer inception_4c/relu_5x5
I1217 10:26:22.493674  9003 net.cpp:84] Creating Layer inception_4c/relu_5x5
I1217 10:26:22.493680  9003 net.cpp:380] inception_4c/relu_5x5 <- inception_4c/5x5
I1217 10:26:22.493700  9003 net.cpp:327] inception_4c/relu_5x5 -> inception_4c/5x5 (in-place)
I1217 10:26:22.493721  9003 net.cpp:113] Setting up inception_4c/relu_5x5
I1217 10:26:22.493799  9003 net.cpp:120] Top shape: 80 64 14 14 (1003520)
I1217 10:26:22.493805  9003 layer_factory.hpp:74] Creating layer inception_4c/pool
I1217 10:26:22.493811  9003 layer_factory.cpp:56] CUDNN does not support padding or multiple tops. Using Caffe's own pooling layer.
I1217 10:26:22.493820  9003 net.cpp:84] Creating Layer inception_4c/pool
I1217 10:26:22.493826  9003 net.cpp:380] inception_4c/pool <- inception_4b/output_inception_4b/output_0_split_3
I1217 10:26:22.493834  9003 net.cpp:338] inception_4c/pool -> inception_4c/pool
I1217 10:26:22.493842  9003 net.cpp:113] Setting up inception_4c/pool
I1217 10:26:22.493854  9003 net.cpp:120] Top shape: 80 512 14 14 (8028160)
I1217 10:26:22.493870  9003 layer_factory.hpp:74] Creating layer inception_4c/pool_proj
I1217 10:26:22.493885  9003 net.cpp:84] Creating Layer inception_4c/pool_proj
I1217 10:26:22.493891  9003 net.cpp:380] inception_4c/pool_proj <- inception_4c/pool
I1217 10:26:22.493903  9003 net.cpp:338] inception_4c/pool_proj -> inception_4c/pool_proj
I1217 10:26:22.493913  9003 net.cpp:113] Setting up inception_4c/pool_proj
I1217 10:26:22.494765  9003 net.cpp:120] Top shape: 80 64 14 14 (1003520)
I1217 10:26:22.494781  9003 layer_factory.hpp:74] Creating layer inception_4c/relu_pool_proj
I1217 10:26:22.494789  9003 net.cpp:84] Creating Layer inception_4c/relu_pool_proj
I1217 10:26:22.494796  9003 net.cpp:380] inception_4c/relu_pool_proj <- inception_4c/pool_proj
I1217 10:26:22.494802  9003 net.cpp:327] inception_4c/relu_pool_proj -> inception_4c/pool_proj (in-place)
I1217 10:26:22.494810  9003 net.cpp:113] Setting up inception_4c/relu_pool_proj
I1217 10:26:22.494881  9003 net.cpp:120] Top shape: 80 64 14 14 (1003520)
I1217 10:26:22.494889  9003 layer_factory.hpp:74] Creating layer inception_4c/output
I1217 10:26:22.494896  9003 net.cpp:84] Creating Layer inception_4c/output
I1217 10:26:22.494901  9003 net.cpp:380] inception_4c/output <- inception_4c/1x1
I1217 10:26:22.494907  9003 net.cpp:380] inception_4c/output <- inception_4c/3x3
I1217 10:26:22.494913  9003 net.cpp:380] inception_4c/output <- inception_4c/5x5
I1217 10:26:22.494918  9003 net.cpp:380] inception_4c/output <- inception_4c/pool_proj
I1217 10:26:22.494925  9003 net.cpp:338] inception_4c/output -> inception_4c/output
I1217 10:26:22.494933  9003 net.cpp:113] Setting up inception_4c/output
I1217 10:26:22.494941  9003 net.cpp:120] Top shape: 80 512 14 14 (8028160)
I1217 10:26:22.494946  9003 layer_factory.hpp:74] Creating layer inception_4c/output_inception_4c/output_0_split
I1217 10:26:22.494953  9003 net.cpp:84] Creating Layer inception_4c/output_inception_4c/output_0_split
I1217 10:26:22.494958  9003 net.cpp:380] inception_4c/output_inception_4c/output_0_split <- inception_4c/output
I1217 10:26:22.494966  9003 net.cpp:338] inception_4c/output_inception_4c/output_0_split -> inception_4c/output_inception_4c/output_0_split_0
I1217 10:26:22.494976  9003 net.cpp:338] inception_4c/output_inception_4c/output_0_split -> inception_4c/output_inception_4c/output_0_split_1
I1217 10:26:22.494983  9003 net.cpp:338] inception_4c/output_inception_4c/output_0_split -> inception_4c/output_inception_4c/output_0_split_2
I1217 10:26:22.494992  9003 net.cpp:338] inception_4c/output_inception_4c/output_0_split -> inception_4c/output_inception_4c/output_0_split_3
I1217 10:26:22.494998  9003 net.cpp:113] Setting up inception_4c/output_inception_4c/output_0_split
I1217 10:26:22.495007  9003 net.cpp:120] Top shape: 80 512 14 14 (8028160)
I1217 10:26:22.495012  9003 net.cpp:120] Top shape: 80 512 14 14 (8028160)
I1217 10:26:22.495018  9003 net.cpp:120] Top shape: 80 512 14 14 (8028160)
I1217 10:26:22.495023  9003 net.cpp:120] Top shape: 80 512 14 14 (8028160)
I1217 10:26:22.495026  9003 layer_factory.hpp:74] Creating layer inception_4d/1x1
I1217 10:26:22.495054  9003 net.cpp:84] Creating Layer inception_4d/1x1
I1217 10:26:22.495059  9003 net.cpp:380] inception_4d/1x1 <- inception_4c/output_inception_4c/output_0_split_0
I1217 10:26:22.495079  9003 net.cpp:338] inception_4d/1x1 -> inception_4d/1x1
I1217 10:26:22.495087  9003 net.cpp:113] Setting up inception_4d/1x1
I1217 10:26:22.496894  9003 net.cpp:120] Top shape: 80 112 14 14 (1756160)
I1217 10:26:22.496917  9003 layer_factory.hpp:74] Creating layer inception_4d/relu_1x1
I1217 10:26:22.496927  9003 net.cpp:84] Creating Layer inception_4d/relu_1x1
I1217 10:26:22.496933  9003 net.cpp:380] inception_4d/relu_1x1 <- inception_4d/1x1
I1217 10:26:22.496942  9003 net.cpp:327] inception_4d/relu_1x1 -> inception_4d/1x1 (in-place)
I1217 10:26:22.496950  9003 net.cpp:113] Setting up inception_4d/relu_1x1
I1217 10:26:22.497030  9003 net.cpp:120] Top shape: 80 112 14 14 (1756160)
I1217 10:26:22.497038  9003 layer_factory.hpp:74] Creating layer inception_4d/3x3_reduce
I1217 10:26:22.497046  9003 net.cpp:84] Creating Layer inception_4d/3x3_reduce
I1217 10:26:22.497052  9003 net.cpp:380] inception_4d/3x3_reduce <- inception_4c/output_inception_4c/output_0_split_1
I1217 10:26:22.497072  9003 net.cpp:338] inception_4d/3x3_reduce -> inception_4d/3x3_reduce
I1217 10:26:22.497083  9003 net.cpp:113] Setting up inception_4d/3x3_reduce
I1217 10:26:22.498417  9003 net.cpp:120] Top shape: 80 144 14 14 (2257920)
I1217 10:26:22.498435  9003 layer_factory.hpp:74] Creating layer inception_4d/relu_3x3_reduce
I1217 10:26:22.498456  9003 net.cpp:84] Creating Layer inception_4d/relu_3x3_reduce
I1217 10:26:22.498462  9003 net.cpp:380] inception_4d/relu_3x3_reduce <- inception_4d/3x3_reduce
I1217 10:26:22.498469  9003 net.cpp:327] inception_4d/relu_3x3_reduce -> inception_4d/3x3_reduce (in-place)
I1217 10:26:22.498478  9003 net.cpp:113] Setting up inception_4d/relu_3x3_reduce
I1217 10:26:22.498760  9003 net.cpp:120] Top shape: 80 144 14 14 (2257920)
I1217 10:26:22.498772  9003 layer_factory.hpp:74] Creating layer inception_4d/3x3
I1217 10:26:22.498780  9003 net.cpp:84] Creating Layer inception_4d/3x3
I1217 10:26:22.498786  9003 net.cpp:380] inception_4d/3x3 <- inception_4d/3x3_reduce
I1217 10:26:22.498796  9003 net.cpp:338] inception_4d/3x3 -> inception_4d/3x3
I1217 10:26:22.498806  9003 net.cpp:113] Setting up inception_4d/3x3
I1217 10:26:22.503648  9003 net.cpp:120] Top shape: 80 288 14 14 (4515840)
I1217 10:26:22.503674  9003 layer_factory.hpp:74] Creating layer inception_4d/relu_3x3
I1217 10:26:22.503684  9003 net.cpp:84] Creating Layer inception_4d/relu_3x3
I1217 10:26:22.503690  9003 net.cpp:380] inception_4d/relu_3x3 <- inception_4d/3x3
I1217 10:26:22.503700  9003 net.cpp:327] inception_4d/relu_3x3 -> inception_4d/3x3 (in-place)
I1217 10:26:22.503708  9003 net.cpp:113] Setting up inception_4d/relu_3x3
I1217 10:26:22.503782  9003 net.cpp:120] Top shape: 80 288 14 14 (4515840)
I1217 10:26:22.503787  9003 layer_factory.hpp:74] Creating layer inception_4d/5x5_reduce
I1217 10:26:22.503804  9003 net.cpp:84] Creating Layer inception_4d/5x5_reduce
I1217 10:26:22.503810  9003 net.cpp:380] inception_4d/5x5_reduce <- inception_4c/output_inception_4c/output_0_split_2
I1217 10:26:22.503818  9003 net.cpp:338] inception_4d/5x5_reduce -> inception_4d/5x5_reduce
I1217 10:26:22.503828  9003 net.cpp:113] Setting up inception_4d/5x5_reduce
I1217 10:26:22.504459  9003 net.cpp:120] Top shape: 80 32 14 14 (501760)
I1217 10:26:22.504475  9003 layer_factory.hpp:74] Creating layer inception_4d/relu_5x5_reduce
I1217 10:26:22.504483  9003 net.cpp:84] Creating Layer inception_4d/relu_5x5_reduce
I1217 10:26:22.504489  9003 net.cpp:380] inception_4d/relu_5x5_reduce <- inception_4d/5x5_reduce
I1217 10:26:22.504498  9003 net.cpp:327] inception_4d/relu_5x5_reduce -> inception_4d/5x5_reduce (in-place)
I1217 10:26:22.504506  9003 net.cpp:113] Setting up inception_4d/relu_5x5_reduce
I1217 10:26:22.504575  9003 net.cpp:120] Top shape: 80 32 14 14 (501760)
I1217 10:26:22.504582  9003 layer_factory.hpp:74] Creating layer inception_4d/5x5
I1217 10:26:22.504592  9003 net.cpp:84] Creating Layer inception_4d/5x5
I1217 10:26:22.504597  9003 net.cpp:380] inception_4d/5x5 <- inception_4d/5x5_reduce
I1217 10:26:22.504612  9003 net.cpp:338] inception_4d/5x5 -> inception_4d/5x5
I1217 10:26:22.504631  9003 net.cpp:113] Setting up inception_4d/5x5
I1217 10:26:22.505676  9003 net.cpp:120] Top shape: 80 64 14 14 (1003520)
I1217 10:26:22.505693  9003 layer_factory.hpp:74] Creating layer inception_4d/relu_5x5
I1217 10:26:22.505702  9003 net.cpp:84] Creating Layer inception_4d/relu_5x5
I1217 10:26:22.505707  9003 net.cpp:380] inception_4d/relu_5x5 <- inception_4d/5x5
I1217 10:26:22.505717  9003 net.cpp:327] inception_4d/relu_5x5 -> inception_4d/5x5 (in-place)
I1217 10:26:22.505724  9003 net.cpp:113] Setting up inception_4d/relu_5x5
I1217 10:26:22.505794  9003 net.cpp:120] Top shape: 80 64 14 14 (1003520)
I1217 10:26:22.505807  9003 layer_factory.hpp:74] Creating layer inception_4d/pool
I1217 10:26:22.505820  9003 layer_factory.cpp:56] CUDNN does not support padding or multiple tops. Using Caffe's own pooling layer.
I1217 10:26:22.505830  9003 net.cpp:84] Creating Layer inception_4d/pool
I1217 10:26:22.505836  9003 net.cpp:380] inception_4d/pool <- inception_4c/output_inception_4c/output_0_split_3
I1217 10:26:22.505842  9003 net.cpp:338] inception_4d/pool -> inception_4d/pool
I1217 10:26:22.505851  9003 net.cpp:113] Setting up inception_4d/pool
I1217 10:26:22.505861  9003 net.cpp:120] Top shape: 80 512 14 14 (8028160)
I1217 10:26:22.505866  9003 layer_factory.hpp:74] Creating layer inception_4d/pool_proj
I1217 10:26:22.505875  9003 net.cpp:84] Creating Layer inception_4d/pool_proj
I1217 10:26:22.505880  9003 net.cpp:380] inception_4d/pool_proj <- inception_4d/pool
I1217 10:26:22.505887  9003 net.cpp:338] inception_4d/pool_proj -> inception_4d/pool_proj
I1217 10:26:22.505895  9003 net.cpp:113] Setting up inception_4d/pool_proj
I1217 10:26:22.506722  9003 net.cpp:120] Top shape: 80 64 14 14 (1003520)
I1217 10:26:22.506737  9003 layer_factory.hpp:74] Creating layer inception_4d/relu_pool_proj
I1217 10:26:22.506747  9003 net.cpp:84] Creating Layer inception_4d/relu_pool_proj
I1217 10:26:22.506753  9003 net.cpp:380] inception_4d/relu_pool_proj <- inception_4d/pool_proj
I1217 10:26:22.506759  9003 net.cpp:327] inception_4d/relu_pool_proj -> inception_4d/pool_proj (in-place)
I1217 10:26:22.506767  9003 net.cpp:113] Setting up inception_4d/relu_pool_proj
I1217 10:26:22.507038  9003 net.cpp:120] Top shape: 80 64 14 14 (1003520)
I1217 10:26:22.507050  9003 layer_factory.hpp:74] Creating layer inception_4d/output
I1217 10:26:22.507064  9003 net.cpp:84] Creating Layer inception_4d/output
I1217 10:26:22.507071  9003 net.cpp:380] inception_4d/output <- inception_4d/1x1
I1217 10:26:22.507077  9003 net.cpp:380] inception_4d/output <- inception_4d/3x3
I1217 10:26:22.507083  9003 net.cpp:380] inception_4d/output <- inception_4d/5x5
I1217 10:26:22.507089  9003 net.cpp:380] inception_4d/output <- inception_4d/pool_proj
I1217 10:26:22.507096  9003 net.cpp:338] inception_4d/output -> inception_4d/output
I1217 10:26:22.507104  9003 net.cpp:113] Setting up inception_4d/output
I1217 10:26:22.507112  9003 net.cpp:120] Top shape: 80 528 14 14 (8279040)
I1217 10:26:22.507117  9003 layer_factory.hpp:74] Creating layer inception_4d/output_inception_4d/output_0_split
I1217 10:26:22.507133  9003 net.cpp:84] Creating Layer inception_4d/output_inception_4d/output_0_split
I1217 10:26:22.507138  9003 net.cpp:380] inception_4d/output_inception_4d/output_0_split <- inception_4d/output
I1217 10:26:22.507144  9003 net.cpp:338] inception_4d/output_inception_4d/output_0_split -> inception_4d/output_inception_4d/output_0_split_0
I1217 10:26:22.507153  9003 net.cpp:338] inception_4d/output_inception_4d/output_0_split -> inception_4d/output_inception_4d/output_0_split_1
I1217 10:26:22.507164  9003 net.cpp:338] inception_4d/output_inception_4d/output_0_split -> inception_4d/output_inception_4d/output_0_split_2
I1217 10:26:22.507171  9003 net.cpp:338] inception_4d/output_inception_4d/output_0_split -> inception_4d/output_inception_4d/output_0_split_3
I1217 10:26:22.507179  9003 net.cpp:338] inception_4d/output_inception_4d/output_0_split -> inception_4d/output_inception_4d/output_0_split_4
I1217 10:26:22.507192  9003 net.cpp:113] Setting up inception_4d/output_inception_4d/output_0_split
I1217 10:26:22.507210  9003 net.cpp:120] Top shape: 80 528 14 14 (8279040)
I1217 10:26:22.507215  9003 net.cpp:120] Top shape: 80 528 14 14 (8279040)
I1217 10:26:22.507221  9003 net.cpp:120] Top shape: 80 528 14 14 (8279040)
I1217 10:26:22.507226  9003 net.cpp:120] Top shape: 80 528 14 14 (8279040)
I1217 10:26:22.507231  9003 net.cpp:120] Top shape: 80 528 14 14 (8279040)
I1217 10:26:22.507236  9003 layer_factory.hpp:74] Creating layer loss2/ave_pool
I1217 10:26:22.507243  9003 net.cpp:84] Creating Layer loss2/ave_pool
I1217 10:26:22.507248  9003 net.cpp:380] loss2/ave_pool <- inception_4d/output_inception_4d/output_0_split_0
I1217 10:26:22.507257  9003 net.cpp:338] loss2/ave_pool -> loss2/ave_pool
I1217 10:26:22.507266  9003 net.cpp:113] Setting up loss2/ave_pool
I1217 10:26:22.507342  9003 net.cpp:120] Top shape: 80 528 4 4 (675840)
I1217 10:26:22.507349  9003 layer_factory.hpp:74] Creating layer loss2/conv
I1217 10:26:22.507357  9003 net.cpp:84] Creating Layer loss2/conv
I1217 10:26:22.507362  9003 net.cpp:380] loss2/conv <- loss2/ave_pool
I1217 10:26:22.507371  9003 net.cpp:338] loss2/conv -> loss2/conv
I1217 10:26:22.507380  9003 net.cpp:113] Setting up loss2/conv
I1217 10:26:22.508613  9003 net.cpp:120] Top shape: 80 128 4 4 (163840)
I1217 10:26:22.508630  9003 layer_factory.hpp:74] Creating layer loss2/relu_conv
I1217 10:26:22.508636  9003 net.cpp:84] Creating Layer loss2/relu_conv
I1217 10:26:22.508642  9003 net.cpp:380] loss2/relu_conv <- loss2/conv
I1217 10:26:22.508649  9003 net.cpp:327] loss2/relu_conv -> loss2/conv (in-place)
I1217 10:26:22.508657  9003 net.cpp:113] Setting up loss2/relu_conv
I1217 10:26:22.508730  9003 net.cpp:120] Top shape: 80 128 4 4 (163840)
I1217 10:26:22.508736  9003 layer_factory.hpp:74] Creating layer loss2/fc
I1217 10:26:22.508752  9003 net.cpp:84] Creating Layer loss2/fc
I1217 10:26:22.508759  9003 net.cpp:380] loss2/fc <- loss2/conv
I1217 10:26:22.508769  9003 net.cpp:338] loss2/fc -> loss2/fc
I1217 10:26:22.508779  9003 net.cpp:113] Setting up loss2/fc
I1217 10:26:22.560602  9003 net.cpp:120] Top shape: 80 1024 (81920)
I1217 10:26:22.560654  9003 layer_factory.hpp:74] Creating layer loss2/relu_fc
I1217 10:26:22.560672  9003 net.cpp:84] Creating Layer loss2/relu_fc
I1217 10:26:22.560681  9003 net.cpp:380] loss2/relu_fc <- loss2/fc
I1217 10:26:22.560690  9003 net.cpp:327] loss2/relu_fc -> loss2/fc (in-place)
I1217 10:26:22.560699  9003 net.cpp:113] Setting up loss2/relu_fc
I1217 10:26:22.561105  9003 net.cpp:120] Top shape: 80 1024 (81920)
I1217 10:26:22.561120  9003 layer_factory.hpp:74] Creating layer loss2/drop_fc
I1217 10:26:22.561128  9003 net.cpp:84] Creating Layer loss2/drop_fc
I1217 10:26:22.561134  9003 net.cpp:380] loss2/drop_fc <- loss2/fc
I1217 10:26:22.561141  9003 net.cpp:327] loss2/drop_fc -> loss2/fc (in-place)
I1217 10:26:22.561149  9003 net.cpp:113] Setting up loss2/drop_fc
I1217 10:26:22.561157  9003 net.cpp:120] Top shape: 80 1024 (81920)
I1217 10:26:22.561162  9003 layer_factory.hpp:74] Creating layer loss2/classifier_kaggle
I1217 10:26:22.561172  9003 net.cpp:84] Creating Layer loss2/classifier_kaggle
I1217 10:26:22.561177  9003 net.cpp:380] loss2/classifier_kaggle <- loss2/fc
I1217 10:26:22.561187  9003 net.cpp:338] loss2/classifier_kaggle -> loss2/classifier_kaggle
I1217 10:26:22.561197  9003 net.cpp:113] Setting up loss2/classifier_kaggle
I1217 10:26:22.566567  9003 net.cpp:120] Top shape: 80 447 (35760)
I1217 10:26:22.566581  9003 layer_factory.hpp:74] Creating layer loss2/loss
I1217 10:26:22.566604  9003 net.cpp:84] Creating Layer loss2/loss
I1217 10:26:22.566612  9003 net.cpp:380] loss2/loss <- loss2/classifier_kaggle
I1217 10:26:22.566619  9003 net.cpp:380] loss2/loss <- label_data_1_split_1
I1217 10:26:22.566627  9003 net.cpp:338] loss2/loss -> loss2/loss1
I1217 10:26:22.566635  9003 net.cpp:113] Setting up loss2/loss
I1217 10:26:22.566642  9003 layer_factory.hpp:74] Creating layer loss2/loss
I1217 10:26:22.566834  9003 net.cpp:120] Top shape: (1)
I1217 10:26:22.566855  9003 net.cpp:122]     with loss weight 0.3
I1217 10:26:22.566886  9003 layer_factory.hpp:74] Creating layer inception_4e/1x1
I1217 10:26:22.566903  9003 net.cpp:84] Creating Layer inception_4e/1x1
I1217 10:26:22.566910  9003 net.cpp:380] inception_4e/1x1 <- inception_4d/output_inception_4d/output_0_split_1
I1217 10:26:22.566920  9003 net.cpp:338] inception_4e/1x1 -> inception_4e/1x1
I1217 10:26:22.566929  9003 net.cpp:113] Setting up inception_4e/1x1
I1217 10:26:22.568987  9003 net.cpp:120] Top shape: 80 256 14 14 (4014080)
I1217 10:26:22.569005  9003 layer_factory.hpp:74] Creating layer inception_4e/relu_1x1
I1217 10:26:22.569015  9003 net.cpp:84] Creating Layer inception_4e/relu_1x1
I1217 10:26:22.569020  9003 net.cpp:380] inception_4e/relu_1x1 <- inception_4e/1x1
I1217 10:26:22.569027  9003 net.cpp:327] inception_4e/relu_1x1 -> inception_4e/1x1 (in-place)
I1217 10:26:22.569035  9003 net.cpp:113] Setting up inception_4e/relu_1x1
I1217 10:26:22.569114  9003 net.cpp:120] Top shape: 80 256 14 14 (4014080)
I1217 10:26:22.569121  9003 layer_factory.hpp:74] Creating layer inception_4e/3x3_reduce
I1217 10:26:22.569133  9003 net.cpp:84] Creating Layer inception_4e/3x3_reduce
I1217 10:26:22.569138  9003 net.cpp:380] inception_4e/3x3_reduce <- inception_4d/output_inception_4d/output_0_split_2
I1217 10:26:22.569147  9003 net.cpp:338] inception_4e/3x3_reduce -> inception_4e/3x3_reduce
I1217 10:26:22.569156  9003 net.cpp:113] Setting up inception_4e/3x3_reduce
I1217 10:26:22.574753  9003 net.cpp:120] Top shape: 80 160 14 14 (2508800)
I1217 10:26:22.574775  9003 layer_factory.hpp:74] Creating layer inception_4e/relu_3x3_reduce
I1217 10:26:22.574795  9003 net.cpp:84] Creating Layer inception_4e/relu_3x3_reduce
I1217 10:26:22.574800  9003 net.cpp:380] inception_4e/relu_3x3_reduce <- inception_4e/3x3_reduce
I1217 10:26:22.574808  9003 net.cpp:327] inception_4e/relu_3x3_reduce -> inception_4e/3x3_reduce (in-place)
I1217 10:26:22.574817  9003 net.cpp:113] Setting up inception_4e/relu_3x3_reduce
I1217 10:26:22.574899  9003 net.cpp:120] Top shape: 80 160 14 14 (2508800)
I1217 10:26:22.574906  9003 layer_factory.hpp:74] Creating layer inception_4e/3x3
I1217 10:26:22.574923  9003 net.cpp:84] Creating Layer inception_4e/3x3
I1217 10:26:22.574928  9003 net.cpp:380] inception_4e/3x3 <- inception_4e/3x3_reduce
I1217 10:26:22.574936  9003 net.cpp:338] inception_4e/3x3 -> inception_4e/3x3
I1217 10:26:22.574945  9003 net.cpp:113] Setting up inception_4e/3x3
I1217 10:26:22.580781  9003 net.cpp:120] Top shape: 80 320 14 14 (5017600)
I1217 10:26:22.580799  9003 layer_factory.hpp:74] Creating layer inception_4e/relu_3x3
I1217 10:26:22.580807  9003 net.cpp:84] Creating Layer inception_4e/relu_3x3
I1217 10:26:22.580813  9003 net.cpp:380] inception_4e/relu_3x3 <- inception_4e/3x3
I1217 10:26:22.580821  9003 net.cpp:327] inception_4e/relu_3x3 -> inception_4e/3x3 (in-place)
I1217 10:26:22.580828  9003 net.cpp:113] Setting up inception_4e/relu_3x3
I1217 10:26:22.581109  9003 net.cpp:120] Top shape: 80 320 14 14 (5017600)
I1217 10:26:22.581121  9003 layer_factory.hpp:74] Creating layer inception_4e/5x5_reduce
I1217 10:26:22.581131  9003 net.cpp:84] Creating Layer inception_4e/5x5_reduce
I1217 10:26:22.581137  9003 net.cpp:380] inception_4e/5x5_reduce <- inception_4d/output_inception_4d/output_0_split_3
I1217 10:26:22.581147  9003 net.cpp:338] inception_4e/5x5_reduce -> inception_4e/5x5_reduce
I1217 10:26:22.581157  9003 net.cpp:113] Setting up inception_4e/5x5_reduce
I1217 10:26:22.581786  9003 net.cpp:120] Top shape: 80 32 14 14 (501760)
I1217 10:26:22.581801  9003 layer_factory.hpp:74] Creating layer inception_4e/relu_5x5_reduce
I1217 10:26:22.581821  9003 net.cpp:84] Creating Layer inception_4e/relu_5x5_reduce
I1217 10:26:22.581828  9003 net.cpp:380] inception_4e/relu_5x5_reduce <- inception_4e/5x5_reduce
I1217 10:26:22.581835  9003 net.cpp:327] inception_4e/relu_5x5_reduce -> inception_4e/5x5_reduce (in-place)
I1217 10:26:22.581843  9003 net.cpp:113] Setting up inception_4e/relu_5x5_reduce
I1217 10:26:22.581931  9003 net.cpp:120] Top shape: 80 32 14 14 (501760)
I1217 10:26:22.581949  9003 layer_factory.hpp:74] Creating layer inception_4e/5x5
I1217 10:26:22.581979  9003 net.cpp:84] Creating Layer inception_4e/5x5
I1217 10:26:22.581984  9003 net.cpp:380] inception_4e/5x5 <- inception_4e/5x5_reduce
I1217 10:26:22.581995  9003 net.cpp:338] inception_4e/5x5 -> inception_4e/5x5
I1217 10:26:22.582003  9003 net.cpp:113] Setting up inception_4e/5x5
I1217 10:26:22.583652  9003 net.cpp:120] Top shape: 80 128 14 14 (2007040)
I1217 10:26:22.583669  9003 layer_factory.hpp:74] Creating layer inception_4e/relu_5x5
I1217 10:26:22.583683  9003 net.cpp:84] Creating Layer inception_4e/relu_5x5
I1217 10:26:22.583689  9003 net.cpp:380] inception_4e/relu_5x5 <- inception_4e/5x5
I1217 10:26:22.583698  9003 net.cpp:327] inception_4e/relu_5x5 -> inception_4e/5x5 (in-place)
I1217 10:26:22.583706  9003 net.cpp:113] Setting up inception_4e/relu_5x5
I1217 10:26:22.583777  9003 net.cpp:120] Top shape: 80 128 14 14 (2007040)
I1217 10:26:22.583784  9003 layer_factory.hpp:74] Creating layer inception_4e/pool
I1217 10:26:22.583797  9003 layer_factory.cpp:56] CUDNN does not support padding or multiple tops. Using Caffe's own pooling layer.
I1217 10:26:22.583806  9003 net.cpp:84] Creating Layer inception_4e/pool
I1217 10:26:22.583812  9003 net.cpp:380] inception_4e/pool <- inception_4d/output_inception_4d/output_0_split_4
I1217 10:26:22.583819  9003 net.cpp:338] inception_4e/pool -> inception_4e/pool
I1217 10:26:22.583827  9003 net.cpp:113] Setting up inception_4e/pool
I1217 10:26:22.583839  9003 net.cpp:120] Top shape: 80 528 14 14 (8279040)
I1217 10:26:22.583844  9003 layer_factory.hpp:74] Creating layer inception_4e/pool_proj
I1217 10:26:22.583853  9003 net.cpp:84] Creating Layer inception_4e/pool_proj
I1217 10:26:22.583858  9003 net.cpp:380] inception_4e/pool_proj <- inception_4e/pool
I1217 10:26:22.583864  9003 net.cpp:338] inception_4e/pool_proj -> inception_4e/pool_proj
I1217 10:26:22.583873  9003 net.cpp:113] Setting up inception_4e/pool_proj
I1217 10:26:22.588793  9003 net.cpp:120] Top shape: 80 128 14 14 (2007040)
I1217 10:26:22.588815  9003 layer_factory.hpp:74] Creating layer inception_4e/relu_pool_proj
I1217 10:26:22.588834  9003 net.cpp:84] Creating Layer inception_4e/relu_pool_proj
I1217 10:26:22.588840  9003 net.cpp:380] inception_4e/relu_pool_proj <- inception_4e/pool_proj
I1217 10:26:22.588848  9003 net.cpp:327] inception_4e/relu_pool_proj -> inception_4e/pool_proj (in-place)
I1217 10:26:22.588857  9003 net.cpp:113] Setting up inception_4e/relu_pool_proj
I1217 10:26:22.588930  9003 net.cpp:120] Top shape: 80 128 14 14 (2007040)
I1217 10:26:22.588939  9003 layer_factory.hpp:74] Creating layer inception_4e/output
I1217 10:26:22.588953  9003 net.cpp:84] Creating Layer inception_4e/output
I1217 10:26:22.588958  9003 net.cpp:380] inception_4e/output <- inception_4e/1x1
I1217 10:26:22.588964  9003 net.cpp:380] inception_4e/output <- inception_4e/3x3
I1217 10:26:22.588970  9003 net.cpp:380] inception_4e/output <- inception_4e/5x5
I1217 10:26:22.588976  9003 net.cpp:380] inception_4e/output <- inception_4e/pool_proj
I1217 10:26:22.588982  9003 net.cpp:338] inception_4e/output -> inception_4e/output
I1217 10:26:22.588990  9003 net.cpp:113] Setting up inception_4e/output
I1217 10:26:22.588999  9003 net.cpp:120] Top shape: 80 832 14 14 (13045760)
I1217 10:26:22.589004  9003 layer_factory.hpp:74] Creating layer pool4/3x3_s2
I1217 10:26:22.589011  9003 net.cpp:84] Creating Layer pool4/3x3_s2
I1217 10:26:22.589016  9003 net.cpp:380] pool4/3x3_s2 <- inception_4e/output
I1217 10:26:22.589026  9003 net.cpp:338] pool4/3x3_s2 -> pool4/3x3_s2
I1217 10:26:22.589033  9003 net.cpp:113] Setting up pool4/3x3_s2
I1217 10:26:22.589328  9003 net.cpp:120] Top shape: 80 832 7 7 (3261440)
I1217 10:26:22.589340  9003 layer_factory.hpp:74] Creating layer pool4/3x3_s2_pool4/3x3_s2_0_split
I1217 10:26:22.589359  9003 net.cpp:84] Creating Layer pool4/3x3_s2_pool4/3x3_s2_0_split
I1217 10:26:22.589366  9003 net.cpp:380] pool4/3x3_s2_pool4/3x3_s2_0_split <- pool4/3x3_s2
I1217 10:26:22.589380  9003 net.cpp:338] pool4/3x3_s2_pool4/3x3_s2_0_split -> pool4/3x3_s2_pool4/3x3_s2_0_split_0
I1217 10:26:22.589401  9003 net.cpp:338] pool4/3x3_s2_pool4/3x3_s2_0_split -> pool4/3x3_s2_pool4/3x3_s2_0_split_1
I1217 10:26:22.589411  9003 net.cpp:338] pool4/3x3_s2_pool4/3x3_s2_0_split -> pool4/3x3_s2_pool4/3x3_s2_0_split_2
I1217 10:26:22.589417  9003 net.cpp:338] pool4/3x3_s2_pool4/3x3_s2_0_split -> pool4/3x3_s2_pool4/3x3_s2_0_split_3
I1217 10:26:22.589424  9003 net.cpp:113] Setting up pool4/3x3_s2_pool4/3x3_s2_0_split
I1217 10:26:22.589433  9003 net.cpp:120] Top shape: 80 832 7 7 (3261440)
I1217 10:26:22.589438  9003 net.cpp:120] Top shape: 80 832 7 7 (3261440)
I1217 10:26:22.589444  9003 net.cpp:120] Top shape: 80 832 7 7 (3261440)
I1217 10:26:22.589449  9003 net.cpp:120] Top shape: 80 832 7 7 (3261440)
I1217 10:26:22.589453  9003 layer_factory.hpp:74] Creating layer inception_5a/1x1
I1217 10:26:22.589462  9003 net.cpp:84] Creating Layer inception_5a/1x1
I1217 10:26:22.589468  9003 net.cpp:380] inception_5a/1x1 <- pool4/3x3_s2_pool4/3x3_s2_0_split_0
I1217 10:26:22.589476  9003 net.cpp:338] inception_5a/1x1 -> inception_5a/1x1
I1217 10:26:22.589485  9003 net.cpp:113] Setting up inception_5a/1x1
I1217 10:26:22.592458  9003 net.cpp:120] Top shape: 80 256 7 7 (1003520)
I1217 10:26:22.592475  9003 layer_factory.hpp:74] Creating layer inception_5a/relu_1x1
I1217 10:26:22.592490  9003 net.cpp:84] Creating Layer inception_5a/relu_1x1
I1217 10:26:22.592497  9003 net.cpp:380] inception_5a/relu_1x1 <- inception_5a/1x1
I1217 10:26:22.592506  9003 net.cpp:327] inception_5a/relu_1x1 -> inception_5a/1x1 (in-place)
I1217 10:26:22.592514  9003 net.cpp:113] Setting up inception_5a/relu_1x1
I1217 10:26:22.592587  9003 net.cpp:120] Top shape: 80 256 7 7 (1003520)
I1217 10:26:22.592600  9003 layer_factory.hpp:74] Creating layer inception_5a/3x3_reduce
I1217 10:26:22.592612  9003 net.cpp:84] Creating Layer inception_5a/3x3_reduce
I1217 10:26:22.592617  9003 net.cpp:380] inception_5a/3x3_reduce <- pool4/3x3_s2_pool4/3x3_s2_0_split_1
I1217 10:26:22.592624  9003 net.cpp:338] inception_5a/3x3_reduce -> inception_5a/3x3_reduce
I1217 10:26:22.592633  9003 net.cpp:113] Setting up inception_5a/3x3_reduce
I1217 10:26:22.594647  9003 net.cpp:120] Top shape: 80 160 7 7 (627200)
I1217 10:26:22.594665  9003 layer_factory.hpp:74] Creating layer inception_5a/relu_3x3_reduce
I1217 10:26:22.594671  9003 net.cpp:84] Creating Layer inception_5a/relu_3x3_reduce
I1217 10:26:22.594677  9003 net.cpp:380] inception_5a/relu_3x3_reduce <- inception_5a/3x3_reduce
I1217 10:26:22.594684  9003 net.cpp:327] inception_5a/relu_3x3_reduce -> inception_5a/3x3_reduce (in-place)
I1217 10:26:22.594692  9003 net.cpp:113] Setting up inception_5a/relu_3x3_reduce
I1217 10:26:22.594763  9003 net.cpp:120] Top shape: 80 160 7 7 (627200)
I1217 10:26:22.594769  9003 layer_factory.hpp:74] Creating layer inception_5a/3x3
I1217 10:26:22.594787  9003 net.cpp:84] Creating Layer inception_5a/3x3
I1217 10:26:22.594794  9003 net.cpp:380] inception_5a/3x3 <- inception_5a/3x3_reduce
I1217 10:26:22.594802  9003 net.cpp:338] inception_5a/3x3 -> inception_5a/3x3
I1217 10:26:22.594811  9003 net.cpp:113] Setting up inception_5a/3x3
I1217 10:26:22.600646  9003 net.cpp:120] Top shape: 80 320 7 7 (1254400)
I1217 10:26:22.600663  9003 layer_factory.hpp:74] Creating layer inception_5a/relu_3x3
I1217 10:26:22.600672  9003 net.cpp:84] Creating Layer inception_5a/relu_3x3
I1217 10:26:22.600677  9003 net.cpp:380] inception_5a/relu_3x3 <- inception_5a/3x3
I1217 10:26:22.600693  9003 net.cpp:327] inception_5a/relu_3x3 -> inception_5a/3x3 (in-place)
I1217 10:26:22.600702  9003 net.cpp:113] Setting up inception_5a/relu_3x3
I1217 10:26:22.600775  9003 net.cpp:120] Top shape: 80 320 7 7 (1254400)
I1217 10:26:22.600782  9003 layer_factory.hpp:74] Creating layer inception_5a/5x5_reduce
I1217 10:26:22.600800  9003 net.cpp:84] Creating Layer inception_5a/5x5_reduce
I1217 10:26:22.600805  9003 net.cpp:380] inception_5a/5x5_reduce <- pool4/3x3_s2_pool4/3x3_s2_0_split_2
I1217 10:26:22.600816  9003 net.cpp:338] inception_5a/5x5_reduce -> inception_5a/5x5_reduce
I1217 10:26:22.600831  9003 net.cpp:113] Setting up inception_5a/5x5_reduce
I1217 10:26:22.601603  9003 net.cpp:120] Top shape: 80 32 7 7 (125440)
I1217 10:26:22.601620  9003 layer_factory.hpp:74] Creating layer inception_5a/relu_5x5_reduce
I1217 10:26:22.601629  9003 net.cpp:84] Creating Layer inception_5a/relu_5x5_reduce
I1217 10:26:22.601634  9003 net.cpp:380] inception_5a/relu_5x5_reduce <- inception_5a/5x5_reduce
I1217 10:26:22.601644  9003 net.cpp:327] inception_5a/relu_5x5_reduce -> inception_5a/5x5_reduce (in-place)
I1217 10:26:22.601651  9003 net.cpp:113] Setting up inception_5a/relu_5x5_reduce
I1217 10:26:22.601925  9003 net.cpp:120] Top shape: 80 32 7 7 (125440)
I1217 10:26:22.601938  9003 layer_factory.hpp:74] Creating layer inception_5a/5x5
I1217 10:26:22.601954  9003 net.cpp:84] Creating Layer inception_5a/5x5
I1217 10:26:22.601961  9003 net.cpp:380] inception_5a/5x5 <- inception_5a/5x5_reduce
I1217 10:26:22.601971  9003 net.cpp:338] inception_5a/5x5 -> inception_5a/5x5
I1217 10:26:22.601980  9003 net.cpp:113] Setting up inception_5a/5x5
I1217 10:26:22.603660  9003 net.cpp:120] Top shape: 80 128 7 7 (501760)
I1217 10:26:22.603677  9003 layer_factory.hpp:74] Creating layer inception_5a/relu_5x5
I1217 10:26:22.603683  9003 net.cpp:84] Creating Layer inception_5a/relu_5x5
I1217 10:26:22.603689  9003 net.cpp:380] inception_5a/relu_5x5 <- inception_5a/5x5
I1217 10:26:22.603696  9003 net.cpp:327] inception_5a/relu_5x5 -> inception_5a/5x5 (in-place)
I1217 10:26:22.603704  9003 net.cpp:113] Setting up inception_5a/relu_5x5
I1217 10:26:22.603775  9003 net.cpp:120] Top shape: 80 128 7 7 (501760)
I1217 10:26:22.603782  9003 layer_factory.hpp:74] Creating layer inception_5a/pool
I1217 10:26:22.603787  9003 layer_factory.cpp:56] CUDNN does not support padding or multiple tops. Using Caffe's own pooling layer.
I1217 10:26:22.603795  9003 net.cpp:84] Creating Layer inception_5a/pool
I1217 10:26:22.603799  9003 net.cpp:380] inception_5a/pool <- pool4/3x3_s2_pool4/3x3_s2_0_split_3
I1217 10:26:22.603808  9003 net.cpp:338] inception_5a/pool -> inception_5a/pool
I1217 10:26:22.603817  9003 net.cpp:113] Setting up inception_5a/pool
I1217 10:26:22.603826  9003 net.cpp:120] Top shape: 80 832 7 7 (3261440)
I1217 10:26:22.603840  9003 layer_factory.hpp:74] Creating layer inception_5a/pool_proj
I1217 10:26:22.603853  9003 net.cpp:84] Creating Layer inception_5a/pool_proj
I1217 10:26:22.603858  9003 net.cpp:380] inception_5a/pool_proj <- inception_5a/pool
I1217 10:26:22.603869  9003 net.cpp:338] inception_5a/pool_proj -> inception_5a/pool_proj
I1217 10:26:22.603879  9003 net.cpp:113] Setting up inception_5a/pool_proj
I1217 10:26:22.605583  9003 net.cpp:120] Top shape: 80 128 7 7 (501760)
I1217 10:26:22.605600  9003 layer_factory.hpp:74] Creating layer inception_5a/relu_pool_proj
I1217 10:26:22.605607  9003 net.cpp:84] Creating Layer inception_5a/relu_pool_proj
I1217 10:26:22.605613  9003 net.cpp:380] inception_5a/relu_pool_proj <- inception_5a/pool_proj
I1217 10:26:22.605620  9003 net.cpp:327] inception_5a/relu_pool_proj -> inception_5a/pool_proj (in-place)
I1217 10:26:22.605629  9003 net.cpp:113] Setting up inception_5a/relu_pool_proj
I1217 10:26:22.605698  9003 net.cpp:120] Top shape: 80 128 7 7 (501760)
I1217 10:26:22.605705  9003 layer_factory.hpp:74] Creating layer inception_5a/output
I1217 10:26:22.605712  9003 net.cpp:84] Creating Layer inception_5a/output
I1217 10:26:22.605717  9003 net.cpp:380] inception_5a/output <- inception_5a/1x1
I1217 10:26:22.605723  9003 net.cpp:380] inception_5a/output <- inception_5a/3x3
I1217 10:26:22.605729  9003 net.cpp:380] inception_5a/output <- inception_5a/5x5
I1217 10:26:22.605734  9003 net.cpp:380] inception_5a/output <- inception_5a/pool_proj
I1217 10:26:22.605741  9003 net.cpp:338] inception_5a/output -> inception_5a/output
I1217 10:26:22.605748  9003 net.cpp:113] Setting up inception_5a/output
I1217 10:26:22.605756  9003 net.cpp:120] Top shape: 80 832 7 7 (3261440)
I1217 10:26:22.605762  9003 layer_factory.hpp:74] Creating layer inception_5a/output_inception_5a/output_0_split
I1217 10:26:22.605777  9003 net.cpp:84] Creating Layer inception_5a/output_inception_5a/output_0_split
I1217 10:26:22.605789  9003 net.cpp:380] inception_5a/output_inception_5a/output_0_split <- inception_5a/output
I1217 10:26:22.605797  9003 net.cpp:338] inception_5a/output_inception_5a/output_0_split -> inception_5a/output_inception_5a/output_0_split_0
I1217 10:26:22.605805  9003 net.cpp:338] inception_5a/output_inception_5a/output_0_split -> inception_5a/output_inception_5a/output_0_split_1
I1217 10:26:22.605813  9003 net.cpp:338] inception_5a/output_inception_5a/output_0_split -> inception_5a/output_inception_5a/output_0_split_2
I1217 10:26:22.605823  9003 net.cpp:338] inception_5a/output_inception_5a/output_0_split -> inception_5a/output_inception_5a/output_0_split_3
I1217 10:26:22.605830  9003 net.cpp:113] Setting up inception_5a/output_inception_5a/output_0_split
I1217 10:26:22.605839  9003 net.cpp:120] Top shape: 80 832 7 7 (3261440)
I1217 10:26:22.605844  9003 net.cpp:120] Top shape: 80 832 7 7 (3261440)
I1217 10:26:22.605849  9003 net.cpp:120] Top shape: 80 832 7 7 (3261440)
I1217 10:26:22.605855  9003 net.cpp:120] Top shape: 80 832 7 7 (3261440)
I1217 10:26:22.605859  9003 layer_factory.hpp:74] Creating layer inception_5b/1x1
I1217 10:26:22.605876  9003 net.cpp:84] Creating Layer inception_5b/1x1
I1217 10:26:22.605882  9003 net.cpp:380] inception_5b/1x1 <- inception_5a/output_inception_5a/output_0_split_0
I1217 10:26:22.605891  9003 net.cpp:338] inception_5b/1x1 -> inception_5b/1x1
I1217 10:26:22.605901  9003 net.cpp:113] Setting up inception_5b/1x1
I1217 10:26:22.610075  9003 net.cpp:120] Top shape: 80 384 7 7 (1505280)
I1217 10:26:22.610093  9003 layer_factory.hpp:74] Creating layer inception_5b/relu_1x1
I1217 10:26:22.610110  9003 net.cpp:84] Creating Layer inception_5b/relu_1x1
I1217 10:26:22.610117  9003 net.cpp:380] inception_5b/relu_1x1 <- inception_5b/1x1
I1217 10:26:22.610124  9003 net.cpp:327] inception_5b/relu_1x1 -> inception_5b/1x1 (in-place)
I1217 10:26:22.610132  9003 net.cpp:113] Setting up inception_5b/relu_1x1
I1217 10:26:22.610399  9003 net.cpp:120] Top shape: 80 384 7 7 (1505280)
I1217 10:26:22.610411  9003 layer_factory.hpp:74] Creating layer inception_5b/3x3_reduce
I1217 10:26:22.610421  9003 net.cpp:84] Creating Layer inception_5b/3x3_reduce
I1217 10:26:22.610427  9003 net.cpp:380] inception_5b/3x3_reduce <- inception_5a/output_inception_5a/output_0_split_1
I1217 10:26:22.610437  9003 net.cpp:338] inception_5b/3x3_reduce -> inception_5b/3x3_reduce
I1217 10:26:22.610447  9003 net.cpp:113] Setting up inception_5b/3x3_reduce
I1217 10:26:22.612752  9003 net.cpp:120] Top shape: 80 192 7 7 (752640)
I1217 10:26:22.612768  9003 layer_factory.hpp:74] Creating layer inception_5b/relu_3x3_reduce
I1217 10:26:22.612777  9003 net.cpp:84] Creating Layer inception_5b/relu_3x3_reduce
I1217 10:26:22.612783  9003 net.cpp:380] inception_5b/relu_3x3_reduce <- inception_5b/3x3_reduce
I1217 10:26:22.612790  9003 net.cpp:327] inception_5b/relu_3x3_reduce -> inception_5b/3x3_reduce (in-place)
I1217 10:26:22.612798  9003 net.cpp:113] Setting up inception_5b/relu_3x3_reduce
I1217 10:26:22.612874  9003 net.cpp:120] Top shape: 80 192 7 7 (752640)
I1217 10:26:22.612880  9003 layer_factory.hpp:74] Creating layer inception_5b/3x3
I1217 10:26:22.612896  9003 net.cpp:84] Creating Layer inception_5b/3x3
I1217 10:26:22.612902  9003 net.cpp:380] inception_5b/3x3 <- inception_5b/3x3_reduce
I1217 10:26:22.612910  9003 net.cpp:338] inception_5b/3x3 -> inception_5b/3x3
I1217 10:26:22.612941  9003 net.cpp:113] Setting up inception_5b/3x3
I1217 10:26:22.633702  9003 net.cpp:120] Top shape: 80 384 7 7 (1505280)
I1217 10:26:22.633726  9003 layer_factory.hpp:74] Creating layer inception_5b/relu_3x3
I1217 10:26:22.633735  9003 net.cpp:84] Creating Layer inception_5b/relu_3x3
I1217 10:26:22.633741  9003 net.cpp:380] inception_5b/relu_3x3 <- inception_5b/3x3
I1217 10:26:22.633751  9003 net.cpp:327] inception_5b/relu_3x3 -> inception_5b/3x3 (in-place)
I1217 10:26:22.633761  9003 net.cpp:113] Setting up inception_5b/relu_3x3
I1217 10:26:22.633844  9003 net.cpp:120] Top shape: 80 384 7 7 (1505280)
I1217 10:26:22.633860  9003 layer_factory.hpp:74] Creating layer inception_5b/5x5_reduce
I1217 10:26:22.633872  9003 net.cpp:84] Creating Layer inception_5b/5x5_reduce
I1217 10:26:22.633877  9003 net.cpp:380] inception_5b/5x5_reduce <- inception_5a/output_inception_5a/output_0_split_2
I1217 10:26:22.633887  9003 net.cpp:338] inception_5b/5x5_reduce -> inception_5b/5x5_reduce
I1217 10:26:22.633895  9003 net.cpp:113] Setting up inception_5b/5x5_reduce
I1217 10:26:22.634809  9003 net.cpp:120] Top shape: 80 48 7 7 (188160)
I1217 10:26:22.634825  9003 layer_factory.hpp:74] Creating layer inception_5b/relu_5x5_reduce
I1217 10:26:22.634842  9003 net.cpp:84] Creating Layer inception_5b/relu_5x5_reduce
I1217 10:26:22.634850  9003 net.cpp:380] inception_5b/relu_5x5_reduce <- inception_5b/5x5_reduce
I1217 10:26:22.634856  9003 net.cpp:327] inception_5b/relu_5x5_reduce -> inception_5b/5x5_reduce (in-place)
I1217 10:26:22.634865  9003 net.cpp:113] Setting up inception_5b/relu_5x5_reduce
I1217 10:26:22.634938  9003 net.cpp:120] Top shape: 80 48 7 7 (188160)
I1217 10:26:22.634944  9003 layer_factory.hpp:74] Creating layer inception_5b/5x5
I1217 10:26:22.634954  9003 net.cpp:84] Creating Layer inception_5b/5x5
I1217 10:26:22.634960  9003 net.cpp:380] inception_5b/5x5 <- inception_5b/5x5_reduce
I1217 10:26:22.634968  9003 net.cpp:338] inception_5b/5x5 -> inception_5b/5x5
I1217 10:26:22.634976  9003 net.cpp:113] Setting up inception_5b/5x5
I1217 10:26:22.637224  9003 net.cpp:120] Top shape: 80 128 7 7 (501760)
I1217 10:26:22.637244  9003 layer_factory.hpp:74] Creating layer inception_5b/relu_5x5
I1217 10:26:22.637251  9003 net.cpp:84] Creating Layer inception_5b/relu_5x5
I1217 10:26:22.637258  9003 net.cpp:380] inception_5b/relu_5x5 <- inception_5b/5x5
I1217 10:26:22.637264  9003 net.cpp:327] inception_5b/relu_5x5 -> inception_5b/5x5 (in-place)
I1217 10:26:22.637272  9003 net.cpp:113] Setting up inception_5b/relu_5x5
I1217 10:26:22.637540  9003 net.cpp:120] Top shape: 80 128 7 7 (501760)
I1217 10:26:22.637552  9003 layer_factory.hpp:74] Creating layer inception_5b/pool
I1217 10:26:22.637558  9003 layer_factory.cpp:56] CUDNN does not support padding or multiple tops. Using Caffe's own pooling layer.
I1217 10:26:22.637565  9003 net.cpp:84] Creating Layer inception_5b/pool
I1217 10:26:22.637572  9003 net.cpp:380] inception_5b/pool <- inception_5a/output_inception_5a/output_0_split_3
I1217 10:26:22.637578  9003 net.cpp:338] inception_5b/pool -> inception_5b/pool
I1217 10:26:22.637588  9003 net.cpp:113] Setting up inception_5b/pool
I1217 10:26:22.637596  9003 net.cpp:120] Top shape: 80 832 7 7 (3261440)
I1217 10:26:22.637601  9003 layer_factory.hpp:74] Creating layer inception_5b/pool_proj
I1217 10:26:22.637622  9003 net.cpp:84] Creating Layer inception_5b/pool_proj
I1217 10:26:22.637629  9003 net.cpp:380] inception_5b/pool_proj <- inception_5b/pool
I1217 10:26:22.637639  9003 net.cpp:338] inception_5b/pool_proj -> inception_5b/pool_proj
I1217 10:26:22.637648  9003 net.cpp:113] Setting up inception_5b/pool_proj
I1217 10:26:22.639336  9003 net.cpp:120] Top shape: 80 128 7 7 (501760)
I1217 10:26:22.639353  9003 layer_factory.hpp:74] Creating layer inception_5b/relu_pool_proj
I1217 10:26:22.639360  9003 net.cpp:84] Creating Layer inception_5b/relu_pool_proj
I1217 10:26:22.639366  9003 net.cpp:380] inception_5b/relu_pool_proj <- inception_5b/pool_proj
I1217 10:26:22.639374  9003 net.cpp:327] inception_5b/relu_pool_proj -> inception_5b/pool_proj (in-place)
I1217 10:26:22.639384  9003 net.cpp:113] Setting up inception_5b/relu_pool_proj
I1217 10:26:22.639453  9003 net.cpp:120] Top shape: 80 128 7 7 (501760)
I1217 10:26:22.639461  9003 layer_factory.hpp:74] Creating layer inception_5b/output
I1217 10:26:22.639467  9003 net.cpp:84] Creating Layer inception_5b/output
I1217 10:26:22.639472  9003 net.cpp:380] inception_5b/output <- inception_5b/1x1
I1217 10:26:22.639482  9003 net.cpp:380] inception_5b/output <- inception_5b/3x3
I1217 10:26:22.639487  9003 net.cpp:380] inception_5b/output <- inception_5b/5x5
I1217 10:26:22.639505  9003 net.cpp:380] inception_5b/output <- inception_5b/pool_proj
I1217 10:26:22.639513  9003 net.cpp:338] inception_5b/output -> inception_5b/output
I1217 10:26:22.639521  9003 net.cpp:113] Setting up inception_5b/output
I1217 10:26:22.639530  9003 net.cpp:120] Top shape: 80 1024 7 7 (4014080)
I1217 10:26:22.639535  9003 layer_factory.hpp:74] Creating layer pool5/7x7_s1
I1217 10:26:22.639549  9003 net.cpp:84] Creating Layer pool5/7x7_s1
I1217 10:26:22.639555  9003 net.cpp:380] pool5/7x7_s1 <- inception_5b/output
I1217 10:26:22.639564  9003 net.cpp:338] pool5/7x7_s1 -> pool5/7x7_s1
I1217 10:26:22.639572  9003 net.cpp:113] Setting up pool5/7x7_s1
I1217 10:26:22.639647  9003 net.cpp:120] Top shape: 80 1024 1 1 (81920)
I1217 10:26:22.639655  9003 layer_factory.hpp:74] Creating layer pool5/drop_7x7_s1
I1217 10:26:22.639663  9003 net.cpp:84] Creating Layer pool5/drop_7x7_s1
I1217 10:26:22.639668  9003 net.cpp:380] pool5/drop_7x7_s1 <- pool5/7x7_s1
I1217 10:26:22.639674  9003 net.cpp:327] pool5/drop_7x7_s1 -> pool5/7x7_s1 (in-place)
I1217 10:26:22.639683  9003 net.cpp:113] Setting up pool5/drop_7x7_s1
I1217 10:26:22.639689  9003 net.cpp:120] Top shape: 80 1024 1 1 (81920)
I1217 10:26:22.639694  9003 layer_factory.hpp:74] Creating layer loss3/classifier_kaggle
I1217 10:26:22.639703  9003 net.cpp:84] Creating Layer loss3/classifier_kaggle
I1217 10:26:22.639708  9003 net.cpp:380] loss3/classifier_kaggle <- pool5/7x7_s1
I1217 10:26:22.639715  9003 net.cpp:338] loss3/classifier_kaggle -> loss3/classifier_kaggle
I1217 10:26:22.639724  9003 net.cpp:113] Setting up loss3/classifier_kaggle
I1217 10:26:22.645094  9003 net.cpp:120] Top shape: 80 447 (35760)
I1217 10:26:22.645108  9003 layer_factory.hpp:74] Creating layer loss3/loss3
I1217 10:26:22.645117  9003 net.cpp:84] Creating Layer loss3/loss3
I1217 10:26:22.645123  9003 net.cpp:380] loss3/loss3 <- loss3/classifier_kaggle
I1217 10:26:22.645129  9003 net.cpp:380] loss3/loss3 <- label_data_1_split_2
I1217 10:26:22.645138  9003 net.cpp:338] loss3/loss3 -> loss3/loss3
I1217 10:26:22.645146  9003 net.cpp:113] Setting up loss3/loss3
…
I1217 10:26:22.650964  9003 net.cpp:257] The NetState phase (1) differed from the phase (0) specified by a rule in layer data
I1217 10:26:22.652509  9003 net.cpp:42] Initializing net from parameters: 
name: "GoogleNet"
state {
  phase: TEST
}
layer {
  name: "data"
  type: "Data"
  top: "data"
  top: "label"
  include {
    phase: TEST
  }
  transform_param {
    mirror: false
    crop_size: 224
    mean_value: 129
    mean_value: 129
    mean_value: 129
  }
  data_param {
    source: "/home/coldmanck/kaggle/kaggle2_val_lmdb"
    batch_size: 50
    backend: LMDB
  }
}
layer {
  name: "conv1/7x7_s2"
  type: "Convolution"
  bottom: "data"
  top: "conv1/7x7_s2"
  param {
    lr_mult: 1
    decay_mult: 1
  }
  param {
    lr_mult: 2
    decay_mult: 0
  }
  convolution_param {
    num_output: 64
    pad: 3
    kernel_size: 7
    stride: 2
    weight_filler {
      type: "xavier"
    }
    bias_filler {
      type: "constant"
      value: 0.2
    }
  }
}
layer {
  name: "conv1/relu_7x7"
  type: "ReLU"
  bottom: "conv1/7x7_s2"
  top: "conv1/7x7_s2"
}
layer {
  name: "pool1/3x3_s2"
  type: "Pooling"
  bottom: "conv1/7x7_s2"
  top: "pool1/3x3_s2"
  pooling_param {
    pool: MAX
    kernel_size: 3
    stride: 2
  }
}
layer {
  name: "pool1/norm1"
  type: "LRN"
  bottom: "pool1/3x3_s2"
  top: "pool1/norm1"
  lrn_param {
    local_size: 5
    alpha: 0.0001
    beta: 0.75
  }
}
layer {
  name: "conv2/3x3_reduce"
  type: "Convolution"
  bottom: "pool1/norm1"
  top: "conv2/3x3_reduce"
  param {
    lr_mult: 1
    decay_mult: 1
  }
  param {
    lr_mult: 2
    decay_mult: 0
  }
  convolution_param {
    num_output: 64
    kernel_size: 1
    weight_filler {
      type: "xavier"
    }
    bias_filler {
      type: "constant"
      value: 0.2
    }
  }
}
layer {
  name: "conv2/relu_3x3_reduce"
  type: "ReLU"
  bottom: "conv2/3x3_reduce"
  top: "conv2/3x3_reduce"
}
layer {
  name: "conv2/3x3"
  type: "Convolution"
  bottom: "conv2/3x3_reduce"
  top: "conv2/3x3"
  param {
    lr_mult: 1
    decay_mult: 1
  }
  param {
    lr_mult: 2
    decay_mult: 0
  }
  convolution_param {
    num_output: 192
    pad: 1
    kernel_size: 3
    weight_filler {
      type: "xavier"
    }
    bias_filler {
      type: "constant"
      value: 0.2
    }
  }
}
layer {
  name: "conv2/relu_3x3"
  type: "ReLU"
  bottom: "conv2/3x3"
  top: "conv2/3x3"
}
layer {
  name: "conv2/norm2"
  type: "LRN"
  bottom: "conv2/3x3"
  top: "conv2/norm2"
  lrn_param {
    local_size: 5
    alpha: 0.0001
    beta: 0.75
  }
}
layer {
  name: "pool2/3x3_s2"
  type: "Pooling"
  bottom: "conv2/norm2"
  top: "pool2/3x3_s2"
  pooling_param {
    pool: MAX
    kernel_size: 3
    stride: 2
  }
}
layer {
  name: "inception_3a/1x1"
  type: "Convolution"
  bottom: "pool2/3x3_s2"
  top: "inception_3a/1x1"
  param {
    lr_mult: 1
    decay_mult: 1
  }
  param {
    lr_mult: 2
    decay_mult: 0
  }
  convolution_param {
    num_output: 64
    kernel_size: 1
    weight_filler {
      type: "xavier"
    }
    bias_filler {
      type: "constant"
      value: 0.2
    }
  }
}
layer {
  name: "inception_3a/relu_1x1"
  type: "ReLU"
  bottom: "inception_3a/1x1"
  top: "inception_3a/1x1"
}
layer {
  name: "inception_3a/3x3_reduce"
  type: "Convolution"
  bottom: "pool2/3x3_s2"
  top: "inception_3a/3x3_reduce"
  param {
    lr_mult: 1
    decay_mult: 1
  }
  param {
    lr_mult: 2
    decay_mult: 0
  }
  convolution_param {
    num_output: 96
    kernel_size: 1
    weight_filler {
      type: "xavier"
    }
    bias_filler {
      type: "constant"
      value: 0.2
    }
  }
}
layer {
  name: "inception_3a/relu_3x3_reduce"
  type: "ReLU"
  bottom: "inception_3a/3x3_reduce"
  top: "inception_3a/3x3_reduce"
}
layer {
  name: "inception_3a/3x3"
  type: "Convolution"
  bottom: "inception_3a/3x3_reduce"
  top: "inception_3a/3x3"
  param {
    lr_mult: 1
    decay_mult: 1
  }
  param {
    lr_mult: 2
    decay_mult: 0
  }
  convolution_param {
    num_output: 128
    pad: 1
    kernel_size: 3
    weight_filler {
      type: "xavier"
    }
    bias_filler {
      type: "constant"
      value: 0.2
    }
  }
}
layer {
  name: "inception_3a/relu_3x3"
  type: "ReLU"
  bottom: "inception_3a/3x3"
  top: "inception_3a/3x3"
}
layer {
  name: "inception_3a/5x5_reduce"
  type: "Convolution"
  bottom: "pool2/3x3_s2"
  top: "inception_3a/5x5_reduce"
  param {
    lr_mult: 1
    decay_mult: 1
  }
  param {
    lr_mult: 2
    decay_mult: 0
  }
  convolution_param {
    num_output: 16
    kernel_size: 1
    weight_filler {
      type: "xavier"
    }
    bias_filler {
      type: "constant"
      value: 0.2
    }
  }
}
layer {
  name: "inception_3a/relu_5x5_reduce"
  type: "ReLU"
  bottom: "inception_3a/5x5_reduce"
  top: "inception_3a/5x5_reduce"
}
layer {
  name: "inception_3a/5x5"
  type: "Convolution"
  bottom: "inception_3a/5x5_reduce"
  top: "inception_3a/5x5"
  param {
    lr_mult: 1
    decay_mult: 1
  }
  param {
    lr_mult: 2
    decay_mult: 0
  }
  convolution_param {
    num_output: 32
    pad: 2
    kernel_size: 5
    weight_filler {
      type: "xavier"
    }
    bias_filler {
      type: "constant"
      value: 0.2
    }
  }
}
layer {
  name: "inception_3a/relu_5x5"
  type: "ReLU"
  bottom: "inception_3a/5x5"
  top: "inception_3a/5x5"
}
layer {
  name: "inception_3a/pool"
  type: "Pooling"
  bottom: "pool2/3x3_s2"
  top: "inception_3a/pool"
  pooling_param {
    pool: MAX
    kernel_size: 3
    stride: 1
    pad: 1
  }
}
layer {
  name: "inception_3a/pool_proj"
  type: "Convolution"
  bottom: "inception_3a/pool"
  top: "inception_3a/pool_proj"
  param {
    lr_mult: 1
    decay_mult: 1
  }
  param {
    lr_mult: 2
    decay_mult: 0
  }
  convolution_param {
    num_output: 32
    kernel_size: 1
    weight_filler {
      type: "xavier"
    }
    bias_filler {
      type: "constant"
      value: 0.2
    }
  }
}
layer {
  name: "inception_3a/relu_pool_proj"
  type: "ReLU"
  bottom: "inception_3a/pool_proj"
  top: "inception_3a/pool_proj"
}
layer {
  name: "inception_3a/output"
  type: "Concat"
  bottom: "inception_3a/1x1"
  bottom: "inception_3a/3x3"
  bottom: "inception_3a/5x5"
  bottom: "inception_3a/pool_proj"
  top: "inception_3a/output"
}
layer {
  name: "inception_3b/1x1"
  type: "Convolution"
  bottom: "inception_3a/output"
  top: "inception_3b/1x1"
  param {
    lr_mult: 1
    decay_mult: 1
  }
  param {
    lr_mult: 2
    decay_mult: 0
  }
  convolution_param {
    num_output: 128
    kernel_size: 1
    weight_filler {
      type: "xavier"
    }
    bias_filler {
      type: "constant"
      value: 0.2
    }
  }
}
layer {
  name: "inception_3b/relu_1x1"
  type: "ReLU"
  bottom: "inception_3b/1x1"
  top: "inception_3b/1x1"
}
layer {
  name: "inception_3b/3x3_reduce"
  type: "Convolution"
  bottom: "inception_3a/output"
  top: "inception_3b/3x3_reduce"
  param {
    lr_mult: 1
    decay_mult: 1
  }
  param {
    lr_mult: 2
    decay_mult: 0
  }
  convolution_param {
    num_output: 128
    kernel_size: 1
    weight_filler {
      type: "xavier"
    }
    bias_filler {
      type: "constant"
      value: 0.2
    }
  }
}
layer {
  name: "inception_3b/relu_3x3_reduce"
  type: "ReLU"
  bottom: "inception_3b/3x3_reduce"
  top: "inception_3b/3x3_reduce"
}
layer {
  name: "inception_3b/3x3"
  type: "Convolution"
  bottom: "inception_3b/3x3_reduce"
  top: "inception_3b/3x3"
  param {
    lr_mult: 1
    decay_mult: 1
  }
  param {
    lr_mult: 2
    decay_mult: 0
  }
  convolution_param {
    num_output: 192
    pad: 1
    kernel_size: 3
    weight_filler {
      type: "xavier"
    }
    bias_filler {
      type: "constant"
      value: 0.2
    }
  }
}
layer {
  name: "inception_3b/relu_3x3"
  type: "ReLU"
  bottom: "inception_3b/3x3"
  top: "inception_3b/3x3"
}
layer {
  name: "inception_3b/5x5_reduce"
  type: "Convolution"
  bottom: "inception_3a/output"
  top: "inception_3b/5x5_reduce"
  param {
    lr_mult: 1
    decay_mult: 1
  }
  param {
    lr_mult: 2
    decay_mult: 0
  }
  convolution_param {
    num_output: 32
    kernel_size: 1
    weight_filler {
      type: "xavier"
    }
    bias_filler {
      type: "constant"
      value: 0.2
    }
  }
}
layer {
  name: "inception_3b/relu_5x5_reduce"
  type: "ReLU"
  bottom: "inception_3b/5x5_reduce"
  top: "inception_3b/5x5_reduce"
}
layer {
  name: "inception_3b/5x5"
  type: "Convolution"
  bottom: "inception_3b/5x5_reduce"
  top: "inception_3b/5x5"
  param {
    lr_mult: 1
    decay_mult: 1
  }
  param {
    lr_mult: 2
    decay_mult: 0
  }
  convolution_param {
    num_output: 96
    pad: 2
    kernel_size: 5
    weight_filler {
      type: "xavier"
    }
    bias_filler {
      type: "constant"
      value: 0.2
    }
  }
}
layer {
  name: "inception_3b/relu_5x5"
  type: "ReLU"
  bottom: "inception_3b/5x5"
  top: "inception_3b/5x5"
}
layer {
  name: "inception_3b/pool"
  type: "Pooling"
  bottom: "inception_3a/output"
  top: "inception_3b/pool"
  pooling_param {
    pool: MAX
    kernel_size: 3
    stride: 1
    pad: 1
  }
}
layer {
  name: "inception_3b/pool_proj"
  type: "Convolution"
  bottom: "inception_3b/pool"
  top: "inception_3b/pool_proj"
  param {
    lr_mult: 1
    decay_mult: 1
  }
  param {
    lr_mult: 2
    decay_mult: 0
  }
  convolution_param {
    num_output: 64
    kernel_size: 1
    weight_filler {
      type: "xavier"
    }
    bias_filler {
      type: "constant"
      value: 0.2
    }
  }
}
layer {
  name: "inception_3b/relu_pool_proj"
  type: "ReLU"
  bottom: "inception_3b/pool_proj"
  top: "inception_3b/pool_proj"
}
layer {
  name: "inception_3b/output"
  type: "Concat"
  bottom: "inception_3b/1x1"
  bottom: "inception_3b/3x3"
  bottom: "inception_3b/5x5"
  bottom: "inception_3b/pool_proj"
  top: "inception_3b/output"
}
layer {
  name: "pool3/3x3_s2"
  type: "Pooling"
  bottom: "inception_3b/output"
  top: "pool3/3x3_s2"
  pooling_param {
    pool: MAX
    kernel_size: 3
    stride: 2
  }
}
layer {
  name: "inception_4a/1x1"
  type: "Convolution"
  bottom: "pool3/3x3_s2"
  top: "inception_4a/1x1"
  param {
    lr_mult: 1
    decay_mult: 1
  }
  param {
    lr_mult: 2
    decay_mult: 0
  }
  convolution_param {
    num_output: 192
    kernel_size: 1
    weight_filler {
      type: "xavier"
    }
    bias_filler {
      type: "constant"
      value: 0.2
    }
  }
}
layer {
  name: "inception_4a/relu_1x1"
  type: "ReLU"
  bottom: "inception_4a/1x1"
  top: "inception_4a/1x1"
}
layer {
  name: "inception_4a/3x3_reduce"
  type: "Convolution"
  bottom: "pool3/3x3_s2"
  top: "inception_4a/3x3_reduce"
  param {
    lr_mult: 1
    decay_mult: 1
  }
  param {
    lr_mult: 2
    decay_mult: 0
  }
  convolution_param {
    num_output: 96
    kernel_size: 1
    weight_filler {
      type: "xavier"
    }
    bias_filler {
      type: "constant"
      value: 0.2
    }
  }
}
layer {
  name: "inception_4a/relu_3x3_reduce"
  type: "ReLU"
  bottom: "inception_4a/3x3_reduce"
  top: "inception_4a/3x3_reduce"
}
layer {
  name: "inception_4a/3x3"
  type: "Convolution"
  bottom: "inception_4a/3x3_reduce"
  top: "inception_4a/3x3"
  param {
    lr_mult: 1
    decay_mult: 1
  }
  param {
    lr_mult: 2
    decay_mult: 0
  }
  convolution_param {
    num_output: 208
    pad: 1
    kernel_size: 3
    weight_filler {
      type: "xavier"
    }
    bias_filler {
      type: "constant"
      value: 0.2
    }
  }
}
layer {
  name: "inception_4a/relu_3x3"
  type: "ReLU"
  bottom: "inception_4a/3x3"
  top: "inception_4a/3x3"
}
layer {
  name: "inception_4a/5x5_reduce"
  type: "Convolution"
  bottom: "pool3/3x3_s2"
  top: "inception_4a/5x5_reduce"
  param {
    lr_mult: 1
    decay_mult: 1
  }
  param {
    lr_mult: 2
    decay_mult: 0
  }
  convolution_param {
    num_output: 16
    kernel_size: 1
    weight_filler {
      type: "xavier"
    }
    bias_filler {
      type: "constant"
      value: 0.2
    }
  }
}
layer {
  name: "inception_4a/relu_5x5_reduce"
  type: "ReLU"
  bottom: "inception_4a/5x5_reduce"
  top: "inception_4a/5x5_reduce"
}
layer {
  name: "inception_4a/5x5"
  type: "Convolution"
  bottom: "inception_4a/5x5_reduce"
  top: "inception_4a/5x5"
  param {
    lr_mult: 1
    decay_mult: 1
  }
  param {
    lr_mult: 2
    decay_mult: 0
  }
  convolution_param {
    num_output: 48
    pad: 2
    kernel_size: 5
    weight_filler {
      type: "xavier"
    }
    bias_filler {
      type: "constant"
      value: 0.2
    }
  }
}
layer {
  name: "inception_4a/relu_5x5"
  type: "ReLU"
  bottom: "inception_4a/5x5"
  top: "inception_4a/5x5"
}
layer {
  name: "inception_4a/pool"
  type: "Pooling"
  bottom: "pool3/3x3_s2"
  top: "inception_4a/pool"
  pooling_param {
    pool: MAX
    kernel_size: 3
    stride: 1
    pad: 1
  }
}
layer {
  name: "inception_4a/pool_proj"
  type: "Convolution"
  bottom: "inception_4a/pool"
  top: "inception_4a/pool_proj"
  param {
    lr_mult: 1
    decay_mult: 1
  }
  param {
    lr_mult: 2
    decay_mult: 0
  }
  convolution_param {
    num_output: 64
    kernel_size: 1
    weight_filler {
      type: "xavier"
    }
    bias_filler {
      type: "constant"
      value: 0.2
    }
  }
}
layer {
  name: "inception_4a/relu_pool_proj"
  type: "ReLU"
  bottom: "inception_4a/pool_proj"
  top: "inception_4a/pool_proj"
}
layer {
  name: "inception_4a/output"
  type: "Concat"
  bottom: "inception_4a/1x1"
  bottom: "inception_4a/3x3"
  bottom: "inception_4a/5x5"
  bottom: "inception_4a/pool_proj"
  top: "inception_4a/output"
}
layer {
  name: "loss1/ave_pool"
  type: "Pooling"
  bottom: "inception_4a/output"
  top: "loss1/ave_pool"
  pooling_param {
    pool: AVE
    kernel_size: 5
    stride: 3
  }
}
layer {
  name: "loss1/conv"
  type: "Convolution"
  bottom: "loss1/ave_pool"
  top: "loss1/conv"
  param {
    lr_mult: 1
    decay_mult: 1
  }
  param {
    lr_mult: 2
    decay_mult: 0
  }
  convolution_param {
    num_output: 128
    kernel_size: 1
    weight_filler {
      type: "xavier"
    }
    bias_filler {
      type: "constant"
      value: 0.2
    }
  }
}
layer {
  name: "loss1/relu_conv"
  type: "ReLU"
  bottom: "loss1/conv"
  top: "loss1/conv"
}
layer {
  name: "loss1/fc"
  type: "InnerProduct"
  bottom: "loss1/conv"
  top: "loss1/fc"
  param {
    lr_mult: 1
    decay_mult: 1
  }
  param {
    lr_mult: 2
    decay_mult: 0
  }
  inner_product_param {
    num_output: 1024
    weight_filler {
      type: "xavier"
    }
    bias_filler {
      type: "constant"
      value: 0.2
    }
  }
}
layer {
  name: "loss1/relu_fc"
  type: "ReLU"
  bottom: "loss1/fc"
  top: "loss1/fc"
}
layer {
  name: "loss1/drop_fc"
  type: "Dropout"
  bottom: "loss1/fc"
  top: "loss1/fc"
  dropout_param {
    dropout_ratio: 0.7
  }
}
layer {
  name: "loss1/classifier_kaggle"
  type: "InnerProduct"
  bottom: "loss1/fc"
  top: "loss1/classifier_kaggle"
  param {
    lr_mult: 1
    decay_mult: 1
  }
  param {
    lr_mult: 2
    decay_mult: 0
  }
  inner_product_param {
    num_output: 447
    weight_filler {
      type: "xavier"
    }
    bias_filler {
      type: "constant"
      value: 0
    }
  }
}
layer {
  name: "loss1/loss"
  type: "SoftmaxWithLoss"
  bottom: "loss1/classifier_kaggle"
  bottom: "label"
  top: "loss1/loss1"
  loss_weight: 0.3
}
layer {
  name: "loss1/top-1"
  type: "Accuracy"
  bottom: "loss1/classifier_kaggle"
  bottom: "label"
  top: "loss1/top-1"
  include {
    phase: TEST
  }
}
layer {
  name: "loss1/top-5"
  type: "Accuracy"
  bottom: "loss1/classifier_kaggle"
  bottom: "label"
  top: "loss1/top-5"
  include {
    phase: TEST
  }
  accuracy_param {
    top_k: 5
  }
}
layer {
  name: "inception_4b/1x1"
  type: "Convolution"
  bottom: "inception_4a/output"
  top: "inception_4b/1x1"
  param {
    lr_mult: 1
    decay_mult: 1
  }
  param {
    lr_mult: 2
    decay_mult: 0
  }
  convolution_param {
    num_output: 160
    kernel_size: 1
    weight_filler {
      type: "xavier"
    }
    bias_filler {
      type: "constant"
      value: 0.2
    }
  }
}
layer {
  name: "inception_4b/relu_1x1"
  type: "ReLU"
  bottom: "inception_4b/1x1"
  top: "inception_4b/1x1"
}
layer {
  name: "inception_4b/3x3_reduce"
  type: "Convolution"
  bottom: "inception_4a/output"
  top: "inception_4b/3x3_reduce"
  param {
    lr_mult: 1
    decay_mult: 1
  }
  param {
    lr_mult: 2
    decay_mult: 0
  }
  convolution_param {
    num_output: 112
    kernel_size: 1
    weight_filler {
      type: "xavier"
    }
    bias_filler {
      type: "constant"
      value: 0.2
    }
  }
}
layer {
  name: "inception_4b/relu_3x3_reduce"
  type: "ReLU"
  bottom: "inception_4b/3x3_reduce"
  top: "inception_4b/3x3_reduce"
}
layer {
  name: "inception_4b/3x3"
  type: "Convolution"
  bottom: "inception_4b/3x3_reduce"
  top: "inception_4b/3x3"
  param {
    lr_mult: 1
    decay_mult: 1
  }
  param {
    lr_mult: 2
    decay_mult: 0
  }
  convolution_param {
    num_output: 224
    pad: 1
    kernel_size: 3
    weight_filler {
      type: "xavier"
    }
    bias_filler {
      type: "constant"
      value: 0.2
    }
  }
}
layer {
  name: "inception_4b/relu_3x3"
  type: "ReLU"
  bottom: "inception_4b/3x3"
  top: "inception_4b/3x3"
}
layer {
  name: "inception_4b/5x5_reduce"
  type: "Convolution"
  bottom: "inception_4a/output"
  top: "inception_4b/5x5_reduce"
  param {
    lr_mult: 1
    decay_mult: 1
  }
  param {
    lr_mult: 2
    decay_mult: 0
  }
  convolution_param {
    num_output: 24
    kernel_size: 1
    weight_filler {
      type: "xavier"
    }
    bias_filler {
      type: "constant"
      value: 0.2
    }
  }
}
layer {
  name: "inception_4b/relu_5x5_reduce"
  type: "ReLU"
  bottom: "inception_4b/5x5_reduce"
  top: "inception_4b/5x5_reduce"
}
layer {
  name: "inception_4b/5x5"
  type: "Convolution"
  bottom: "inception_4b/5x5_reduce"
  top: "inception_4b/5x5"
  param {
    lr_mult: 1
    decay_mult: 1
  }
  param {
    lr_mult: 2
    decay_mult: 0
  }
  convolution_param {
    num_output: 64
    pad: 2
    kernel_size: 5
    weight_filler {
      type: "xavier"
    }
    bias_filler {
      type: "constant"
      value: 0.2
    }
  }
}
layer {
  name: "inception_4b/relu_5x5"
  type: "ReLU"
  bottom: "inception_4b/5x5"
  top: "inception_4b/5x5"
}
layer {
  name: "inception_4b/pool"
  type: "Pooling"
  bottom: "inception_4a/output"
  top: "inception_4b/pool"
  pooling_param {
    pool: MAX
    kernel_size: 3
    stride: 1
    pad: 1
  }
}
layer {
  name: "inception_4b/pool_proj"
  type: "Convolution"
  bottom: "inception_4b/pool"
  top: "inception_4b/pool_proj"
  param {
    lr_mult: 1
    decay_mult: 1
  }
  param {
    lr_mult: 2
    decay_mult: 0
  }
  convolution_param {
    num_output: 64
    kernel_size: 1
    weight_filler {
      type: "xavier"
    }
    bias_filler {
      type: "constant"
      value: 0.2
    }
  }
}
layer {
  name: "inception_4b/relu_pool_proj"
  type: "ReLU"
  bottom: "inception_4b/pool_proj"
  top: "inception_4b/pool_proj"
}
layer {
  name: "inception_4b/output"
  type: "Concat"
  bottom: "inception_4b/1x1"
  bottom: "inception_4b/3x3"
  bottom: "inception_4b/5x5"
  bottom: "inception_4b/pool_proj"
  top: "inception_4b/output"
}
layer {
  name: "inception_4c/1x1"
  type: "Convolution"
  bottom: "inception_4b/output"
  top: "inception_4c/1x1"
  param {
    lr_mult: 1
    decay_mult: 1
  }
  param {
    lr_mult: 2
    decay_mult: 0
  }
  convolution_param {
    num_output: 128
    kernel_size: 1
    weight_filler {
      type: "xavier"
    }
    bias_filler {
      type: "constant"
      value: 0.2
    }
  }
}
layer {
  name: "inception_4c/relu_1x1"
  type: "ReLU"
  bottom: "inception_4c/1x1"
  top: "inception_4c/1x1"
}
layer {
  name: "inception_4c/3x3_reduce"
  type: "Convolution"
  bottom: "inception_4b/output"
  top: "inception_4c/3x3_reduce"
  param {
    lr_mult: 1
    decay_mult: 1
  }
  param {
    lr_mult: 2
    decay_mult: 0
  }
  convolution_param {
    num_output: 128
    kernel_size: 1
    weight_filler {
      type: "xavier"
    }
    bias_filler {
      type: "constant"
      value: 0.2
    }
  }
}
layer {
  name: "inception_4c/relu_3x3_reduce"
  type: "ReLU"
  bottom: "inception_4c/3x3_reduce"
  top: "inception_4c/3x3_reduce"
}
layer {
  name: "inception_4c/3x3"
  type: "Convolution"
  bottom: "inception_4c/3x3_reduce"
  top: "inception_4c/3x3"
  param {
    lr_mult: 1
    decay_mult: 1
  }
  param {
    lr_mult: 2
    decay_mult: 0
  }
  convolution_param {
    num_output: 256
    pad: 1
    kernel_size: 3
    weight_filler {
      type: "xavier"
    }
    bias_filler {
      type: "constant"
      value: 0.2
    }
  }
}
layer {
  name: "inception_4c/relu_3x3"
  type: "ReLU"
  bottom: "inception_4c/3x3"
  top: "inception_4c/3x3"
}
layer {
  name: "inception_4c/5x5_reduce"
  type: "Convolution"
  bottom: "inception_4b/output"
  top: "inception_4c/5x5_reduce"
  param {
    lr_mult: 1
    decay_mult: 1
  }
  param {
    lr_mult: 2
    decay_mult: 0
  }
  convolution_param {
    num_output: 24
    kernel_size: 1
    weight_filler {
      type: "xavier"
    }
    bias_filler {
      type: "constant"
      value: 0.2
    }
  }
}
layer {
  name: "inception_4c/relu_5x5_reduce"
  type: "ReLU"
  bottom: "inception_4c/5x5_reduce"
  top: "inception_4c/5x5_reduce"
}
layer {
  name: "inception_4c/5x5"
  type: "Convolution"
  bottom: "inception_4c/5x5_reduce"
  top: "inception_4c/5x5"
  param {
    lr_mult: 1
    decay_mult: 1
  }
  param {
    lr_mult: 2
    decay_mult: 0
  }
  convolution_param {
    num_output: 64
    pad: 2
    kernel_size: 5
    weight_filler {
      type: "xavier"
    }
    bias_filler {
      type: "constant"
      value: 0.2
    }
  }
}
layer {
  name: "inception_4c/relu_5x5"
  type: "ReLU"
  bottom: "inception_4c/5x5"
  top: "inception_4c/5x5"
}
layer {
  name: "inception_4c/pool"
  type: "Pooling"
  bottom: "inception_4b/output"
  top: "inception_4c/pool"
  pooling_param {
    pool: MAX
    kernel_size: 3
    stride: 1
    pad: 1
  }
}
layer {
  name: "inception_4c/pool_proj"
  type: "Convolution"
  bottom: "inception_4c/pool"
  top: "inception_4c/pool_proj"
  param {
    lr_mult: 1
    decay_mult: 1
  }
  param {
    lr_mult: 2
    decay_mult: 0
  }
  convolution_param {
    num_output: 64
    kernel_size: 1
    weight_filler {
      type: "xavier"
    }
    bias_filler {
      type: "constant"
      value: 0.2
    }
  }
}
layer {
  name: "inception_4c/relu_pool_proj"
  type: "ReLU"
  bottom: "inception_4c/pool_proj"
  top: "inception_4c/pool_proj"
}
layer {
  name: "inception_4c/output"
  type: "Concat"
  bottom: "inception_4c/1x1"
  bottom: "inception_4c/3x3"
  bottom: "inception_4c/5x5"
  bottom: "inception_4c/pool_proj"
  top: "inception_4c/output"
}
layer {
  name: "inception_4d/1x1"
  type: "Convolution"
  bottom: "inception_4c/output"
  top: "inception_4d/1x1"
  param {
    lr_mult: 1
    decay_mult: 1
  }
  param {
    lr_mult: 2
    decay_mult: 0
  }
  convolution_param {
    num_output: 112
    kernel_size: 1
    weight_filler {
      type: "xavier"
    }
    bias_filler {
      type: "constant"
      value: 0.2
    }
  }
}
layer {
  name: "inception_4d/relu_1x1"
  type: "ReLU"
  bottom: "inception_4d/1x1"
  top: "inception_4d/1x1"
}
layer {
  name: "inception_4d/3x3_reduce"
  type: "Convolution"
  bottom: "inception_4c/output"
  top: "inception_4d/3x3_reduce"
  param {
    lr_mult: 1
    decay_mult: 1
  }
  param {
    lr_mult: 2
    decay_mult: 0
  }
  convolution_param {
    num_output: 144
    kernel_size: 1
    weight_filler {
      type: "xavier"
    }
    bias_filler {
      type: "constant"
      value: 0.2
    }
  }
}
layer {
  name: "inception_4d/relu_3x3_reduce"
  type: "ReLU"
  bottom: "inception_4d/3x3_reduce"
  top: "inception_4d/3x3_reduce"
}
layer {
  name: "inception_4d/3x3"
  type: "Convolution"
  bottom: "inception_4d/3x3_reduce"
  top: "inception_4d/3x3"
  param {
    lr_mult: 1
    decay_mult: 1
  }
  param {
    lr_mult: 2
    decay_mult: 0
  }
  convolution_param {
    num_output: 288
    pad: 1
    kernel_size: 3
    weight_filler {
      type: "xavier"
    }
    bias_filler {
      type: "constant"
      value: 0.2
    }
  }
}
layer {
  name: "inception_4d/relu_3x3"
  type: "ReLU"
  bottom: "inception_4d/3x3"
  top: "inception_4d/3x3"
}
layer {
  name: "inception_4d/5x5_reduce"
  type: "Convolution"
  bottom: "inception_4c/output"
  top: "inception_4d/5x5_reduce"
  param {
    lr_mult: 1
    decay_mult: 1
  }
  param {
    lr_mult: 2
    decay_mult: 0
  }
  convolution_param {
    num_output: 32
    kernel_size: 1
    weight_filler {
      type: "xavier"
    }
    bias_filler {
      type: "constant"
      value: 0.2
    }
  }
}
layer {
  name: "inception_4d/relu_5x5_reduce"
  type: "ReLU"
  bottom: "inception_4d/5x5_reduce"
  top: "inception_4d/5x5_reduce"
}
layer {
  name: "inception_4d/5x5"
  type: "Convolution"
  bottom: "inception_4d/5x5_reduce"
  top: "inception_4d/5x5"
  param {
    lr_mult: 1
    decay_mult: 1
  }
  param {
    lr_mult: 2
    decay_mult: 0
  }
  convolution_param {
    num_output: 64
    pad: 2
    kernel_size: 5
    weight_filler {
      type: "xavier"
    }
    bias_filler {
      type: "constant"
      value: 0.2
    }
  }
}
layer {
  name: "inception_4d/relu_5x5"
  type: "ReLU"
  bottom: "inception_4d/5x5"
  top: "inception_4d/5x5"
}
layer {
  name: "inception_4d/pool"
  type: "Pooling"
  bottom: "inception_4c/output"
  top: "inception_4d/pool"
  pooling_param {
    pool: MAX
    kernel_size: 3
    stride: 1
    pad: 1
  }
}
layer {
  name: "inception_4d/pool_proj"
  type: "Convolution"
  bottom: "inception_4d/pool"
  top: "inception_4d/pool_proj"
  param {
    lr_mult: 1
    decay_mult: 1
  }
  param {
    lr_mult: 2
    decay_mult: 0
  }
  convolution_param {
    num_output: 64
    kernel_size: 1
    weight_filler {
      type: "xavier"
    }
    bias_filler {
      type: "constant"
      value: 0.2
    }
  }
}
layer {
  name: "inception_4d/relu_pool_proj"
  type: "ReLU"
  bottom: "inception_4d/pool_proj"
  top: "inception_4d/pool_proj"
}
layer {
  name: "inception_4d/output"
  type: "Concat"
  bottom: "inception_4d/1x1"
  bottom: "inception_4d/3x3"
  bottom: "inception_4d/5x5"
  bottom: "inception_4d/pool_proj"
  top: "inception_4d/output"
}
layer {
  name: "loss2/ave_pool"
  type: "Pooling"
  bottom: "inception_4d/output"
  top: "loss2/ave_pool"
  pooling_param {
    pool: AVE
    kernel_size: 5
    stride: 3
  }
}
layer {
  name: "loss2/conv"
  type: "Convolution"
  bottom: "loss2/ave_pool"
  top: "loss2/conv"
  param {
    lr_mult: 1
    decay_mult: 1
  }
  param {
    lr_mult: 2
    decay_mult: 0
  }
  convolution_param {
…
I1217 10:26:22.913806  9003 net.cpp:84] Creating Layer inception_4c/1x1
I1217 10:26:22.913810  9003 net.cpp:380] inception_4c/1x1 <- inception_4b/output_inception_4b/output_0_split_0
I1217 10:26:22.913818  9003 net.cpp:338] inception_4c/1x1 -> inception_4c/1x1
I1217 10:26:22.913825  9003 net.cpp:113] Setting up inception_4c/1x1
I1217 10:26:22.914927  9003 net.cpp:120] Top shape: 50 128 14 14 (1254400)
I1217 10:26:22.914942  9003 layer_factory.hpp:74] Creating layer inception_4c/relu_1x1
I1217 10:26:22.914948  9003 net.cpp:84] Creating Layer inception_4c/relu_1x1
I1217 10:26:22.914953  9003 net.cpp:380] inception_4c/relu_1x1 <- inception_4c/1x1
I1217 10:26:22.914960  9003 net.cpp:327] inception_4c/relu_1x1 -> inception_4c/1x1 (in-place)
I1217 10:26:22.914966  9003 net.cpp:113] Setting up inception_4c/relu_1x1
I1217 10:26:22.915225  9003 net.cpp:120] Top shape: 50 128 14 14 (1254400)
I1217 10:26:22.915235  9003 layer_factory.hpp:74] Creating layer inception_4c/3x3_reduce
I1217 10:26:22.915246  9003 net.cpp:84] Creating Layer inception_4c/3x3_reduce
I1217 10:26:22.915251  9003 net.cpp:380] inception_4c/3x3_reduce <- inception_4b/output_inception_4b/output_0_split_1
I1217 10:26:22.915264  9003 net.cpp:338] inception_4c/3x3_reduce -> inception_4c/3x3_reduce
I1217 10:26:22.915280  9003 net.cpp:113] Setting up inception_4c/3x3_reduce
I1217 10:26:22.916383  9003 net.cpp:120] Top shape: 50 128 14 14 (1254400)
I1217 10:26:22.916398  9003 layer_factory.hpp:74] Creating layer inception_4c/relu_3x3_reduce
I1217 10:26:22.916409  9003 net.cpp:84] Creating Layer inception_4c/relu_3x3_reduce
I1217 10:26:22.916414  9003 net.cpp:380] inception_4c/relu_3x3_reduce <- inception_4c/3x3_reduce
I1217 10:26:22.916421  9003 net.cpp:327] inception_4c/relu_3x3_reduce -> inception_4c/3x3_reduce (in-place)
I1217 10:26:22.916429  9003 net.cpp:113] Setting up inception_4c/relu_3x3_reduce
I1217 10:26:22.916496  9003 net.cpp:120] Top shape: 50 128 14 14 (1254400)
I1217 10:26:22.916502  9003 layer_factory.hpp:74] Creating layer inception_4c/3x3
I1217 10:26:22.916512  9003 net.cpp:84] Creating Layer inception_4c/3x3
I1217 10:26:22.916517  9003 net.cpp:380] inception_4c/3x3 <- inception_4c/3x3_reduce
I1217 10:26:22.916522  9003 net.cpp:338] inception_4c/3x3 -> inception_4c/3x3
I1217 10:26:22.916530  9003 net.cpp:113] Setting up inception_4c/3x3
I1217 10:26:22.920033  9003 net.cpp:120] Top shape: 50 256 14 14 (2508800)
I1217 10:26:22.920059  9003 layer_factory.hpp:74] Creating layer inception_4c/relu_3x3
I1217 10:26:22.920068  9003 net.cpp:84] Creating Layer inception_4c/relu_3x3
I1217 10:26:22.920073  9003 net.cpp:380] inception_4c/relu_3x3 <- inception_4c/3x3
I1217 10:26:22.920080  9003 net.cpp:327] inception_4c/relu_3x3 -> inception_4c/3x3 (in-place)
I1217 10:26:22.920088  9003 net.cpp:113] Setting up inception_4c/relu_3x3
I1217 10:26:22.920157  9003 net.cpp:120] Top shape: 50 256 14 14 (2508800)
I1217 10:26:22.920163  9003 layer_factory.hpp:74] Creating layer inception_4c/5x5_reduce
I1217 10:26:22.920171  9003 net.cpp:84] Creating Layer inception_4c/5x5_reduce
I1217 10:26:22.920176  9003 net.cpp:380] inception_4c/5x5_reduce <- inception_4b/output_inception_4b/output_0_split_2
I1217 10:26:22.920184  9003 net.cpp:338] inception_4c/5x5_reduce -> inception_4c/5x5_reduce
I1217 10:26:22.920192  9003 net.cpp:113] Setting up inception_4c/5x5_reduce
I1217 10:26:22.920737  9003 net.cpp:120] Top shape: 50 24 14 14 (235200)
I1217 10:26:22.920752  9003 layer_factory.hpp:74] Creating layer inception_4c/relu_5x5_reduce
I1217 10:26:22.920758  9003 net.cpp:84] Creating Layer inception_4c/relu_5x5_reduce
I1217 10:26:22.920763  9003 net.cpp:380] inception_4c/relu_5x5_reduce <- inception_4c/5x5_reduce
I1217 10:26:22.920769  9003 net.cpp:327] inception_4c/relu_5x5_reduce -> inception_4c/5x5_reduce (in-place)
I1217 10:26:22.920776  9003 net.cpp:113] Setting up inception_4c/relu_5x5_reduce
I1217 10:26:22.921025  9003 net.cpp:120] Top shape: 50 24 14 14 (235200)
I1217 10:26:22.921036  9003 layer_factory.hpp:74] Creating layer inception_4c/5x5
I1217 10:26:22.921046  9003 net.cpp:84] Creating Layer inception_4c/5x5
I1217 10:26:22.921051  9003 net.cpp:380] inception_4c/5x5 <- inception_4c/5x5_reduce
I1217 10:26:22.921066  9003 net.cpp:338] inception_4c/5x5 -> inception_4c/5x5
I1217 10:26:22.921079  9003 net.cpp:113] Setting up inception_4c/5x5
I1217 10:26:22.921895  9003 net.cpp:120] Top shape: 50 64 14 14 (627200)
I1217 10:26:22.921908  9003 layer_factory.hpp:74] Creating layer inception_4c/relu_5x5
I1217 10:26:22.921916  9003 net.cpp:84] Creating Layer inception_4c/relu_5x5
I1217 10:26:22.921922  9003 net.cpp:380] inception_4c/relu_5x5 <- inception_4c/5x5
I1217 10:26:22.921928  9003 net.cpp:327] inception_4c/relu_5x5 -> inception_4c/5x5 (in-place)
I1217 10:26:22.921936  9003 net.cpp:113] Setting up inception_4c/relu_5x5
I1217 10:26:22.922005  9003 net.cpp:120] Top shape: 50 64 14 14 (627200)
I1217 10:26:22.922011  9003 layer_factory.hpp:74] Creating layer inception_4c/pool
I1217 10:26:22.922016  9003 layer_factory.cpp:56] CUDNN does not support padding or multiple tops. Using Caffe's own pooling layer.
I1217 10:26:22.922024  9003 net.cpp:84] Creating Layer inception_4c/pool
I1217 10:26:22.922029  9003 net.cpp:380] inception_4c/pool <- inception_4b/output_inception_4b/output_0_split_3
I1217 10:26:22.922050  9003 net.cpp:338] inception_4c/pool -> inception_4c/pool
I1217 10:26:22.922058  9003 net.cpp:113] Setting up inception_4c/pool
I1217 10:26:22.922068  9003 net.cpp:120] Top shape: 50 512 14 14 (5017600)
I1217 10:26:22.922073  9003 layer_factory.hpp:74] Creating layer inception_4c/pool_proj
I1217 10:26:22.922080  9003 net.cpp:84] Creating Layer inception_4c/pool_proj
I1217 10:26:22.922086  9003 net.cpp:380] inception_4c/pool_proj <- inception_4c/pool
I1217 10:26:22.922094  9003 net.cpp:338] inception_4c/pool_proj -> inception_4c/pool_proj
I1217 10:26:22.922101  9003 net.cpp:113] Setting up inception_4c/pool_proj
I1217 10:26:22.922855  9003 net.cpp:120] Top shape: 50 64 14 14 (627200)
I1217 10:26:22.922869  9003 layer_factory.hpp:74] Creating layer inception_4c/relu_pool_proj
I1217 10:26:22.922879  9003 net.cpp:84] Creating Layer inception_4c/relu_pool_proj
I1217 10:26:22.922885  9003 net.cpp:380] inception_4c/relu_pool_proj <- inception_4c/pool_proj
I1217 10:26:22.922891  9003 net.cpp:327] inception_4c/relu_pool_proj -> inception_4c/pool_proj (in-place)
I1217 10:26:22.922899  9003 net.cpp:113] Setting up inception_4c/relu_pool_proj
I1217 10:26:22.922962  9003 net.cpp:120] Top shape: 50 64 14 14 (627200)
I1217 10:26:22.922968  9003 layer_factory.hpp:74] Creating layer inception_4c/output
I1217 10:26:22.922976  9003 net.cpp:84] Creating Layer inception_4c/output
I1217 10:26:22.922979  9003 net.cpp:380] inception_4c/output <- inception_4c/1x1
I1217 10:26:22.922986  9003 net.cpp:380] inception_4c/output <- inception_4c/3x3
I1217 10:26:22.922991  9003 net.cpp:380] inception_4c/output <- inception_4c/5x5
I1217 10:26:22.922996  9003 net.cpp:380] inception_4c/output <- inception_4c/pool_proj
I1217 10:26:22.923002  9003 net.cpp:338] inception_4c/output -> inception_4c/output
I1217 10:26:22.923007  9003 net.cpp:113] Setting up inception_4c/output
I1217 10:26:22.923014  9003 net.cpp:120] Top shape: 50 512 14 14 (5017600)
I1217 10:26:22.923019  9003 layer_factory.hpp:74] Creating layer inception_4c/output_inception_4c/output_0_split
I1217 10:26:22.923025  9003 net.cpp:84] Creating Layer inception_4c/output_inception_4c/output_0_split
I1217 10:26:22.923029  9003 net.cpp:380] inception_4c/output_inception_4c/output_0_split <- inception_4c/output
I1217 10:26:22.923038  9003 net.cpp:338] inception_4c/output_inception_4c/output_0_split -> inception_4c/output_inception_4c/output_0_split_0
I1217 10:26:22.923044  9003 net.cpp:338] inception_4c/output_inception_4c/output_0_split -> inception_4c/output_inception_4c/output_0_split_1
I1217 10:26:22.923051  9003 net.cpp:338] inception_4c/output_inception_4c/output_0_split -> inception_4c/output_inception_4c/output_0_split_2
I1217 10:26:22.923059  9003 net.cpp:338] inception_4c/output_inception_4c/output_0_split -> inception_4c/output_inception_4c/output_0_split_3
I1217 10:26:22.923065  9003 net.cpp:113] Setting up inception_4c/output_inception_4c/output_0_split
I1217 10:26:22.923074  9003 net.cpp:120] Top shape: 50 512 14 14 (5017600)
I1217 10:26:22.923079  9003 net.cpp:120] Top shape: 50 512 14 14 (5017600)
I1217 10:26:22.923084  9003 net.cpp:120] Top shape: 50 512 14 14 (5017600)
I1217 10:26:22.923089  9003 net.cpp:120] Top shape: 50 512 14 14 (5017600)
I1217 10:26:22.923092  9003 layer_factory.hpp:74] Creating layer inception_4d/1x1
I1217 10:26:22.923099  9003 net.cpp:84] Creating Layer inception_4d/1x1
I1217 10:26:22.923104  9003 net.cpp:380] inception_4d/1x1 <- inception_4c/output_inception_4c/output_0_split_0
I1217 10:26:22.923111  9003 net.cpp:338] inception_4d/1x1 -> inception_4d/1x1
I1217 10:26:22.923118  9003 net.cpp:113] Setting up inception_4d/1x1
I1217 10:26:22.924137  9003 net.cpp:120] Top shape: 50 112 14 14 (1097600)
I1217 10:26:22.924152  9003 layer_factory.hpp:74] Creating layer inception_4d/relu_1x1
I1217 10:26:22.924160  9003 net.cpp:84] Creating Layer inception_4d/relu_1x1
I1217 10:26:22.924165  9003 net.cpp:380] inception_4d/relu_1x1 <- inception_4d/1x1
I1217 10:26:22.924180  9003 net.cpp:327] inception_4d/relu_1x1 -> inception_4d/1x1 (in-place)
I1217 10:26:22.924193  9003 net.cpp:113] Setting up inception_4d/relu_1x1
I1217 10:26:22.924258  9003 net.cpp:120] Top shape: 50 112 14 14 (1097600)
I1217 10:26:22.924264  9003 layer_factory.hpp:74] Creating layer inception_4d/3x3_reduce
I1217 10:26:22.924273  9003 net.cpp:84] Creating Layer inception_4d/3x3_reduce
I1217 10:26:22.924278  9003 net.cpp:380] inception_4d/3x3_reduce <- inception_4c/output_inception_4c/output_0_split_1
I1217 10:26:22.924286  9003 net.cpp:338] inception_4d/3x3_reduce -> inception_4d/3x3_reduce
I1217 10:26:22.924294  9003 net.cpp:113] Setting up inception_4d/3x3_reduce
I1217 10:26:22.925492  9003 net.cpp:120] Top shape: 50 144 14 14 (1411200)
I1217 10:26:22.925506  9003 layer_factory.hpp:74] Creating layer inception_4d/relu_3x3_reduce
I1217 10:26:22.925513  9003 net.cpp:84] Creating Layer inception_4d/relu_3x3_reduce
I1217 10:26:22.925518  9003 net.cpp:380] inception_4d/relu_3x3_reduce <- inception_4d/3x3_reduce
I1217 10:26:22.925525  9003 net.cpp:327] inception_4d/relu_3x3_reduce -> inception_4d/3x3_reduce (in-place)
I1217 10:26:22.925532  9003 net.cpp:113] Setting up inception_4d/relu_3x3_reduce
I1217 10:26:22.925801  9003 net.cpp:120] Top shape: 50 144 14 14 (1411200)
I1217 10:26:22.925812  9003 layer_factory.hpp:74] Creating layer inception_4d/3x3
I1217 10:26:22.925820  9003 net.cpp:84] Creating Layer inception_4d/3x3
I1217 10:26:22.925825  9003 net.cpp:380] inception_4d/3x3 <- inception_4d/3x3_reduce
I1217 10:26:22.925833  9003 net.cpp:338] inception_4d/3x3 -> inception_4d/3x3
I1217 10:26:22.925843  9003 net.cpp:113] Setting up inception_4d/3x3
I1217 10:26:22.930215  9003 net.cpp:120] Top shape: 50 288 14 14 (2822400)
I1217 10:26:22.930232  9003 layer_factory.hpp:74] Creating layer inception_4d/relu_3x3
I1217 10:26:22.930238  9003 net.cpp:84] Creating Layer inception_4d/relu_3x3
I1217 10:26:22.930244  9003 net.cpp:380] inception_4d/relu_3x3 <- inception_4d/3x3
I1217 10:26:22.930253  9003 net.cpp:327] inception_4d/relu_3x3 -> inception_4d/3x3 (in-place)
I1217 10:26:22.930259  9003 net.cpp:113] Setting up inception_4d/relu_3x3
I1217 10:26:22.930323  9003 net.cpp:120] Top shape: 50 288 14 14 (2822400)
I1217 10:26:22.930330  9003 layer_factory.hpp:74] Creating layer inception_4d/5x5_reduce
I1217 10:26:22.930340  9003 net.cpp:84] Creating Layer inception_4d/5x5_reduce
I1217 10:26:22.930344  9003 net.cpp:380] inception_4d/5x5_reduce <- inception_4c/output_inception_4c/output_0_split_2
I1217 10:26:22.930351  9003 net.cpp:338] inception_4d/5x5_reduce -> inception_4d/5x5_reduce
I1217 10:26:22.930359  9003 net.cpp:113] Setting up inception_4d/5x5_reduce
I1217 10:26:22.930989  9003 net.cpp:120] Top shape: 50 32 14 14 (313600)
I1217 10:26:22.931005  9003 layer_factory.hpp:74] Creating layer inception_4d/relu_5x5_reduce
I1217 10:26:22.931011  9003 net.cpp:84] Creating Layer inception_4d/relu_5x5_reduce
I1217 10:26:22.931016  9003 net.cpp:380] inception_4d/relu_5x5_reduce <- inception_4d/5x5_reduce
I1217 10:26:22.931025  9003 net.cpp:327] inception_4d/relu_5x5_reduce -> inception_4d/5x5_reduce (in-place)
I1217 10:26:22.931031  9003 net.cpp:113] Setting up inception_4d/relu_5x5_reduce
I1217 10:26:22.931097  9003 net.cpp:120] Top shape: 50 32 14 14 (313600)
I1217 10:26:22.931102  9003 layer_factory.hpp:74] Creating layer inception_4d/5x5
I1217 10:26:22.931112  9003 net.cpp:84] Creating Layer inception_4d/5x5
I1217 10:26:22.931116  9003 net.cpp:380] inception_4d/5x5 <- inception_4d/5x5_reduce
I1217 10:26:22.931124  9003 net.cpp:338] inception_4d/5x5 -> inception_4d/5x5
I1217 10:26:22.931133  9003 net.cpp:113] Setting up inception_4d/5x5
I1217 10:26:22.932081  9003 net.cpp:120] Top shape: 50 64 14 14 (627200)
I1217 10:26:22.932096  9003 layer_factory.hpp:74] Creating layer inception_4d/relu_5x5
I1217 10:26:22.932102  9003 net.cpp:84] Creating Layer inception_4d/relu_5x5
I1217 10:26:22.932107  9003 net.cpp:380] inception_4d/relu_5x5 <- inception_4d/5x5
I1217 10:26:22.932116  9003 net.cpp:327] inception_4d/relu_5x5 -> inception_4d/5x5 (in-place)
I1217 10:26:22.932129  9003 net.cpp:113] Setting up inception_4d/relu_5x5
I1217 10:26:22.932202  9003 net.cpp:120] Top shape: 50 64 14 14 (627200)
I1217 10:26:22.932209  9003 layer_factory.hpp:74] Creating layer inception_4d/pool
I1217 10:26:22.932214  9003 layer_factory.cpp:56] CUDNN does not support padding or multiple tops. Using Caffe's own pooling layer.
I1217 10:26:22.932221  9003 net.cpp:84] Creating Layer inception_4d/pool
I1217 10:26:22.932226  9003 net.cpp:380] inception_4d/pool <- inception_4c/output_inception_4c/output_0_split_3
I1217 10:26:22.932234  9003 net.cpp:338] inception_4d/pool -> inception_4d/pool
I1217 10:26:22.932240  9003 net.cpp:113] Setting up inception_4d/pool
I1217 10:26:22.932251  9003 net.cpp:120] Top shape: 50 512 14 14 (5017600)
I1217 10:26:22.932255  9003 layer_factory.hpp:74] Creating layer inception_4d/pool_proj
I1217 10:26:22.932263  9003 net.cpp:84] Creating Layer inception_4d/pool_proj
I1217 10:26:22.932267  9003 net.cpp:380] inception_4d/pool_proj <- inception_4d/pool
I1217 10:26:22.932274  9003 net.cpp:338] inception_4d/pool_proj -> inception_4d/pool_proj
I1217 10:26:22.932281  9003 net.cpp:113] Setting up inception_4d/pool_proj
I1217 10:26:22.933040  9003 net.cpp:120] Top shape: 50 64 14 14 (627200)
I1217 10:26:22.933061  9003 layer_factory.hpp:74] Creating layer inception_4d/relu_pool_proj
I1217 10:26:22.933074  9003 net.cpp:84] Creating Layer inception_4d/relu_pool_proj
I1217 10:26:22.933080  9003 net.cpp:380] inception_4d/relu_pool_proj <- inception_4d/pool_proj
I1217 10:26:22.933086  9003 net.cpp:327] inception_4d/relu_pool_proj -> inception_4d/pool_proj (in-place)
I1217 10:26:22.933094  9003 net.cpp:113] Setting up inception_4d/relu_pool_proj
I1217 10:26:22.933358  9003 net.cpp:120] Top shape: 50 64 14 14 (627200)
I1217 10:26:22.933368  9003 layer_factory.hpp:74] Creating layer inception_4d/output
I1217 10:26:22.933375  9003 net.cpp:84] Creating Layer inception_4d/output
I1217 10:26:22.933380  9003 net.cpp:380] inception_4d/output <- inception_4d/1x1
I1217 10:26:22.933387  9003 net.cpp:380] inception_4d/output <- inception_4d/3x3
I1217 10:26:22.933392  9003 net.cpp:380] inception_4d/output <- inception_4d/5x5
I1217 10:26:22.933396  9003 net.cpp:380] inception_4d/output <- inception_4d/pool_proj
I1217 10:26:22.933403  9003 net.cpp:338] inception_4d/output -> inception_4d/output
I1217 10:26:22.933409  9003 net.cpp:113] Setting up inception_4d/output
I1217 10:26:22.933418  9003 net.cpp:120] Top shape: 50 528 14 14 (5174400)
I1217 10:26:22.933421  9003 layer_factory.hpp:74] Creating layer inception_4d/output_inception_4d/output_0_split
I1217 10:26:22.933429  9003 net.cpp:84] Creating Layer inception_4d/output_inception_4d/output_0_split
I1217 10:26:22.933434  9003 net.cpp:380] inception_4d/output_inception_4d/output_0_split <- inception_4d/output
I1217 10:26:22.933440  9003 net.cpp:338] inception_4d/output_inception_4d/output_0_split -> inception_4d/output_inception_4d/output_0_split_0
I1217 10:26:22.933447  9003 net.cpp:338] inception_4d/output_inception_4d/output_0_split -> inception_4d/output_inception_4d/output_0_split_1
I1217 10:26:22.933457  9003 net.cpp:338] inception_4d/output_inception_4d/output_0_split -> inception_4d/output_inception_4d/output_0_split_2
I1217 10:26:22.933465  9003 net.cpp:338] inception_4d/output_inception_4d/output_0_split -> inception_4d/output_inception_4d/output_0_split_3
I1217 10:26:22.933472  9003 net.cpp:338] inception_4d/output_inception_4d/output_0_split -> inception_4d/output_inception_4d/output_0_split_4
I1217 10:26:22.933478  9003 net.cpp:113] Setting up inception_4d/output_inception_4d/output_0_split
I1217 10:26:22.933486  9003 net.cpp:120] Top shape: 50 528 14 14 (5174400)
I1217 10:26:22.933491  9003 net.cpp:120] Top shape: 50 528 14 14 (5174400)
I1217 10:26:22.933495  9003 net.cpp:120] Top shape: 50 528 14 14 (5174400)
I1217 10:26:22.933501  9003 net.cpp:120] Top shape: 50 528 14 14 (5174400)
I1217 10:26:22.933506  9003 net.cpp:120] Top shape: 50 528 14 14 (5174400)
I1217 10:26:22.933509  9003 layer_factory.hpp:74] Creating layer loss2/ave_pool
I1217 10:26:22.933521  9003 net.cpp:84] Creating Layer loss2/ave_pool
I1217 10:26:22.933533  9003 net.cpp:380] loss2/ave_pool <- inception_4d/output_inception_4d/output_0_split_0
I1217 10:26:22.933542  9003 net.cpp:338] loss2/ave_pool -> loss2/ave_pool
I1217 10:26:22.933549  9003 net.cpp:113] Setting up loss2/ave_pool
I1217 10:26:22.933619  9003 net.cpp:120] Top shape: 50 528 4 4 (422400)
I1217 10:26:22.933625  9003 layer_factory.hpp:74] Creating layer loss2/conv
I1217 10:26:22.933635  9003 net.cpp:84] Creating Layer loss2/conv
I1217 10:26:22.933640  9003 net.cpp:380] loss2/conv <- loss2/ave_pool
I1217 10:26:22.933646  9003 net.cpp:338] loss2/conv -> loss2/conv
I1217 10:26:22.933653  9003 net.cpp:113] Setting up loss2/conv
I1217 10:26:22.934784  9003 net.cpp:120] Top shape: 50 128 4 4 (102400)
I1217 10:26:22.934799  9003 layer_factory.hpp:74] Creating layer loss2/relu_conv
I1217 10:26:22.934805  9003 net.cpp:84] Creating Layer loss2/relu_conv
I1217 10:26:22.934810  9003 net.cpp:380] loss2/relu_conv <- loss2/conv
I1217 10:26:22.934816  9003 net.cpp:327] loss2/relu_conv -> loss2/conv (in-place)
I1217 10:26:22.934823  9003 net.cpp:113] Setting up loss2/relu_conv
I1217 10:26:22.934888  9003 net.cpp:120] Top shape: 50 128 4 4 (102400)
I1217 10:26:22.934895  9003 layer_factory.hpp:74] Creating layer loss2/fc
I1217 10:26:22.934903  9003 net.cpp:84] Creating Layer loss2/fc
I1217 10:26:22.934907  9003 net.cpp:380] loss2/fc <- loss2/conv
I1217 10:26:22.934916  9003 net.cpp:338] loss2/fc -> loss2/fc
I1217 10:26:22.934924  9003 net.cpp:113] Setting up loss2/fc
I1217 10:26:22.988175  9003 net.cpp:120] Top shape: 50 1024 (51200)
I1217 10:26:22.988210  9003 layer_factory.hpp:74] Creating layer loss2/relu_fc
I1217 10:26:22.988224  9003 net.cpp:84] Creating Layer loss2/relu_fc
I1217 10:26:22.988231  9003 net.cpp:380] loss2/relu_fc <- loss2/fc
I1217 10:26:22.988240  9003 net.cpp:327] loss2/relu_fc -> loss2/fc (in-place)
I1217 10:26:22.988248  9003 net.cpp:113] Setting up loss2/relu_fc
I1217 10:26:22.988361  9003 net.cpp:120] Top shape: 50 1024 (51200)
I1217 10:26:22.988368  9003 layer_factory.hpp:74] Creating layer loss2/drop_fc
I1217 10:26:22.988378  9003 net.cpp:84] Creating Layer loss2/drop_fc
I1217 10:26:22.988382  9003 net.cpp:380] loss2/drop_fc <- loss2/fc
I1217 10:26:22.988389  9003 net.cpp:327] loss2/drop_fc -> loss2/fc (in-place)
I1217 10:26:22.988396  9003 net.cpp:113] Setting up loss2/drop_fc
I1217 10:26:22.988404  9003 net.cpp:120] Top shape: 50 1024 (51200)
I1217 10:26:22.988409  9003 layer_factory.hpp:74] Creating layer loss2/classifier_kaggle
I1217 10:26:22.988417  9003 net.cpp:84] Creating Layer loss2/classifier_kaggle
I1217 10:26:22.988421  9003 net.cpp:380] loss2/classifier_kaggle <- loss2/fc
I1217 10:26:22.988428  9003 net.cpp:338] loss2/classifier_kaggle -> loss2/classifier_kaggle
I1217 10:26:22.988436  9003 net.cpp:113] Setting up loss2/classifier_kaggle
I1217 10:26:22.993302  9003 net.cpp:120] Top shape: 50 447 (22350)
I1217 10:26:22.993317  9003 layer_factory.hpp:74] Creating layer loss2/classifier_kaggle_loss2/classifier_kaggle_0_split
I1217 10:26:22.993325  9003 net.cpp:84] Creating Layer loss2/classifier_kaggle_loss2/classifier_kaggle_0_split
I1217 10:26:22.993331  9003 net.cpp:380] loss2/classifier_kaggle_loss2/classifier_kaggle_0_split <- loss2/classifier_kaggle
I1217 10:26:22.993338  9003 net.cpp:338] loss2/classifier_kaggle_loss2/classifier_kaggle_0_split -> loss2/classifier_kaggle_loss2/classifier_kaggle_0_split_0
I1217 10:26:22.993346  9003 net.cpp:338] loss2/classifier_kaggle_loss2/classifier_kaggle_0_split -> loss2/classifier_kaggle_loss2/classifier_kaggle_0_split_1
I1217 10:26:22.993356  9003 net.cpp:338] loss2/classifier_kaggle_loss2/classifier_kaggle_0_split -> loss2/classifier_kaggle_loss2/classifier_kaggle_0_split_2
I1217 10:26:22.993363  9003 net.cpp:113] Setting up loss2/classifier_kaggle_loss2/classifier_kaggle_0_split
I1217 10:26:22.993371  9003 net.cpp:120] Top shape: 50 447 (22350)
I1217 10:26:22.993376  9003 net.cpp:120] Top shape: 50 447 (22350)
I1217 10:26:22.993393  9003 net.cpp:120] Top shape: 50 447 (22350)
I1217 10:26:22.993398  9003 layer_factory.hpp:74] Creating layer loss2/loss
I1217 10:26:22.993415  9003 net.cpp:84] Creating Layer loss2/loss
I1217 10:26:22.993420  9003 net.cpp:380] loss2/loss <- loss2/classifier_kaggle_loss2/classifier_kaggle_0_split_0
I1217 10:26:22.993427  9003 net.cpp:380] loss2/loss <- label_data_1_split_3
I1217 10:26:22.993435  9003 net.cpp:338] loss2/loss -> loss2/loss1
…
I1217 10:26:22.993993  9003 net.cpp:338] loss2/top-5 -> loss2/top-5
I1217 10:26:22.993999  9003 net.cpp:113] Setting up loss2/top-5
I1217 10:26:22.994004  9003 net.cpp:120] Top shape: (1)
I1217 10:26:22.994009  9003 layer_factory.hpp:74] Creating layer inception_4e/1x1
I1217 10:26:22.994017  9003 net.cpp:84] Creating Layer inception_4e/1x1
I1217 10:26:22.994024  9003 net.cpp:380] inception_4e/1x1 <- inception_4d/output_inception_4d/output_0_split_1
I1217 10:26:22.994031  9003 net.cpp:338] inception_4e/1x1 -> inception_4e/1x1
I1217 10:26:22.994038  9003 net.cpp:113] Setting up inception_4e/1x1
I1217 10:26:22.995885  9003 net.cpp:120] Top shape: 50 256 14 14 (2508800)
I1217 10:26:22.995900  9003 layer_factory.hpp:74] Creating layer inception_4e/relu_1x1
I1217 10:26:22.995908  9003 net.cpp:84] Creating Layer inception_4e/relu_1x1
I1217 10:26:22.995913  9003 net.cpp:380] inception_4e/relu_1x1 <- inception_4e/1x1
I1217 10:26:22.995920  9003 net.cpp:327] inception_4e/relu_1x1 -> inception_4e/1x1 (in-place)
I1217 10:26:22.995929  9003 net.cpp:113] Setting up inception_4e/relu_1x1
I1217 10:26:22.995995  9003 net.cpp:120] Top shape: 50 256 14 14 (2508800)
I1217 10:26:22.996001  9003 layer_factory.hpp:74] Creating layer inception_4e/3x3_reduce
I1217 10:26:22.996029  9003 net.cpp:84] Creating Layer inception_4e/3x3_reduce
I1217 10:26:22.996034  9003 net.cpp:380] inception_4e/3x3_reduce <- inception_4d/output_inception_4d/output_0_split_2
I1217 10:26:22.996042  9003 net.cpp:338] inception_4e/3x3_reduce -> inception_4e/3x3_reduce
I1217 10:26:22.996049  9003 net.cpp:113] Setting up inception_4e/3x3_reduce
I1217 10:26:22.997370  9003 net.cpp:120] Top shape: 50 160 14 14 (1568000)
I1217 10:26:22.997386  9003 layer_factory.hpp:74] Creating layer inception_4e/relu_3x3_reduce
I1217 10:26:22.997393  9003 net.cpp:84] Creating Layer inception_4e/relu_3x3_reduce
I1217 10:26:22.997398  9003 net.cpp:380] inception_4e/relu_3x3_reduce <- inception_4e/3x3_reduce
I1217 10:26:22.997405  9003 net.cpp:327] inception_4e/relu_3x3_reduce -> inception_4e/3x3_reduce (in-place)
I1217 10:26:22.997411  9003 net.cpp:113] Setting up inception_4e/relu_3x3_reduce
I1217 10:26:22.997480  9003 net.cpp:120] Top shape: 50 160 14 14 (1568000)
I1217 10:26:22.997488  9003 layer_factory.hpp:74] Creating layer inception_4e/3x3
I1217 10:26:22.997496  9003 net.cpp:84] Creating Layer inception_4e/3x3
I1217 10:26:22.997501  9003 net.cpp:380] inception_4e/3x3 <- inception_4e/3x3_reduce
I1217 10:26:22.997508  9003 net.cpp:338] inception_4e/3x3 -> inception_4e/3x3
I1217 10:26:22.997520  9003 net.cpp:113] Setting up inception_4e/3x3
I1217 10:26:23.002902  9003 net.cpp:120] Top shape: 50 320 14 14 (3136000)
I1217 10:26:23.002918  9003 layer_factory.hpp:74] Creating layer inception_4e/relu_3x3
I1217 10:26:23.002926  9003 net.cpp:84] Creating Layer inception_4e/relu_3x3
I1217 10:26:23.002931  9003 net.cpp:380] inception_4e/relu_3x3 <- inception_4e/3x3
I1217 10:26:23.002938  9003 net.cpp:327] inception_4e/relu_3x3 -> inception_4e/3x3 (in-place)
I1217 10:26:23.002944  9003 net.cpp:113] Setting up inception_4e/relu_3x3
I1217 10:26:23.003199  9003 net.cpp:120] Top shape: 50 320 14 14 (3136000)
I1217 10:26:23.003209  9003 layer_factory.hpp:74] Creating layer inception_4e/5x5_reduce
I1217 10:26:23.003218  9003 net.cpp:84] Creating Layer inception_4e/5x5_reduce
I1217 10:26:23.003223  9003 net.cpp:380] inception_4e/5x5_reduce <- inception_4d/output_inception_4d/output_0_split_3
I1217 10:26:23.003231  9003 net.cpp:338] inception_4e/5x5_reduce -> inception_4e/5x5_reduce
I1217 10:26:23.003238  9003 net.cpp:113] Setting up inception_4e/5x5_reduce
I1217 10:26:23.003816  9003 net.cpp:120] Top shape: 50 32 14 14 (313600)
I1217 10:26:23.003830  9003 layer_factory.hpp:74] Creating layer inception_4e/relu_5x5_reduce
I1217 10:26:23.003840  9003 net.cpp:84] Creating Layer inception_4e/relu_5x5_reduce
I1217 10:26:23.003845  9003 net.cpp:380] inception_4e/relu_5x5_reduce <- inception_4e/5x5_reduce
I1217 10:26:23.003852  9003 net.cpp:327] inception_4e/relu_5x5_reduce -> inception_4e/5x5_reduce (in-place)
I1217 10:26:23.003859  9003 net.cpp:113] Setting up inception_4e/relu_5x5_reduce
I1217 10:26:23.003926  9003 net.cpp:120] Top shape: 50 32 14 14 (313600)
I1217 10:26:23.003932  9003 layer_factory.hpp:74] Creating layer inception_4e/5x5
I1217 10:26:23.003942  9003 net.cpp:84] Creating Layer inception_4e/5x5
I1217 10:26:23.003947  9003 net.cpp:380] inception_4e/5x5 <- inception_4e/5x5_reduce
I1217 10:26:23.003954  9003 net.cpp:338] inception_4e/5x5 -> inception_4e/5x5
I1217 10:26:23.003962  9003 net.cpp:113] Setting up inception_4e/5x5
I1217 10:26:23.011353  9003 net.cpp:120] Top shape: 50 128 14 14 (1254400)
I1217 10:26:23.011374  9003 layer_factory.hpp:74] Creating layer inception_4e/relu_5x5
I1217 10:26:23.011385  9003 net.cpp:84] Creating Layer inception_4e/relu_5x5
I1217 10:26:23.011391  9003 net.cpp:380] inception_4e/relu_5x5 <- inception_4e/5x5
I1217 10:26:23.011399  9003 net.cpp:327] inception_4e/relu_5x5 -> inception_4e/5x5 (in-place)
I1217 10:26:23.011406  9003 net.cpp:113] Setting up inception_4e/relu_5x5
I1217 10:26:23.011478  9003 net.cpp:120] Top shape: 50 128 14 14 (1254400)
I1217 10:26:23.011484  9003 layer_factory.hpp:74] Creating layer inception_4e/pool
I1217 10:26:23.011492  9003 layer_factory.cpp:56] CUDNN does not support padding or multiple tops. Using Caffe's own pooling layer.
I1217 10:26:23.011499  9003 net.cpp:84] Creating Layer inception_4e/pool
I1217 10:26:23.011504  9003 net.cpp:380] inception_4e/pool <- inception_4d/output_inception_4d/output_0_split_4
I1217 10:26:23.011512  9003 net.cpp:338] inception_4e/pool -> inception_4e/pool
I1217 10:26:23.011521  9003 net.cpp:113] Setting up inception_4e/pool
I1217 10:26:23.011530  9003 net.cpp:120] Top shape: 50 528 14 14 (5174400)
I1217 10:26:23.011535  9003 layer_factory.hpp:74] Creating layer inception_4e/pool_proj
I1217 10:26:23.011543  9003 net.cpp:84] Creating Layer inception_4e/pool_proj
I1217 10:26:23.011548  9003 net.cpp:380] inception_4e/pool_proj <- inception_4e/pool
I1217 10:26:23.011556  9003 net.cpp:338] inception_4e/pool_proj -> inception_4e/pool_proj
I1217 10:26:23.011564  9003 net.cpp:113] Setting up inception_4e/pool_proj
I1217 10:26:23.012711  9003 net.cpp:120] Top shape: 50 128 14 14 (1254400)
I1217 10:26:23.012725  9003 layer_factory.hpp:74] Creating layer inception_4e/relu_pool_proj
I1217 10:26:23.012732  9003 net.cpp:84] Creating Layer inception_4e/relu_pool_proj
I1217 10:26:23.012738  9003 net.cpp:380] inception_4e/relu_pool_proj <- inception_4e/pool_proj
I1217 10:26:23.012744  9003 net.cpp:327] inception_4e/relu_pool_proj -> inception_4e/pool_proj (in-place)
I1217 10:26:23.012764  9003 net.cpp:113] Setting up inception_4e/relu_pool_proj
I1217 10:26:23.012833  9003 net.cpp:120] Top shape: 50 128 14 14 (1254400)
I1217 10:26:23.012840  9003 layer_factory.hpp:74] Creating layer inception_4e/output
I1217 10:26:23.012847  9003 net.cpp:84] Creating Layer inception_4e/output
I1217 10:26:23.012852  9003 net.cpp:380] inception_4e/output <- inception_4e/1x1
I1217 10:26:23.012858  9003 net.cpp:380] inception_4e/output <- inception_4e/3x3
I1217 10:26:23.012863  9003 net.cpp:380] inception_4e/output <- inception_4e/5x5
I1217 10:26:23.012868  9003 net.cpp:380] inception_4e/output <- inception_4e/pool_proj
I1217 10:26:23.012874  9003 net.cpp:338] inception_4e/output -> inception_4e/output
I1217 10:26:23.012881  9003 net.cpp:113] Setting up inception_4e/output
I1217 10:26:23.012888  9003 net.cpp:120] Top shape: 50 832 14 14 (8153600)
I1217 10:26:23.012893  9003 layer_factory.hpp:74] Creating layer pool4/3x3_s2
I1217 10:26:23.012902  9003 net.cpp:84] Creating Layer pool4/3x3_s2
I1217 10:26:23.012907  9003 net.cpp:380] pool4/3x3_s2 <- inception_4e/output
I1217 10:26:23.012912  9003 net.cpp:338] pool4/3x3_s2 -> pool4/3x3_s2
I1217 10:26:23.012919  9003 net.cpp:113] Setting up pool4/3x3_s2
I1217 10:26:23.013202  9003 net.cpp:120] Top shape: 50 832 7 7 (2038400)
I1217 10:26:23.013216  9003 layer_factory.hpp:74] Creating layer pool4/3x3_s2_pool4/3x3_s2_0_split
I1217 10:26:23.013223  9003 net.cpp:84] Creating Layer pool4/3x3_s2_pool4/3x3_s2_0_split
I1217 10:26:23.013228  9003 net.cpp:380] pool4/3x3_s2_pool4/3x3_s2_0_split <- pool4/3x3_s2
I1217 10:26:23.013236  9003 net.cpp:338] pool4/3x3_s2_pool4/3x3_s2_0_split -> pool4/3x3_s2_pool4/3x3_s2_0_split_0
I1217 10:26:23.013244  9003 net.cpp:338] pool4/3x3_s2_pool4/3x3_s2_0_split -> pool4/3x3_s2_pool4/3x3_s2_0_split_1
I1217 10:26:23.013252  9003 net.cpp:338] pool4/3x3_s2_pool4/3x3_s2_0_split -> pool4/3x3_s2_pool4/3x3_s2_0_split_2
I1217 10:26:23.013275  9003 net.cpp:338] pool4/3x3_s2_pool4/3x3_s2_0_split -> pool4/3x3_s2_pool4/3x3_s2_0_split_3
I1217 10:26:23.013283  9003 net.cpp:113] Setting up pool4/3x3_s2_pool4/3x3_s2_0_split
I1217 10:26:23.013289  9003 net.cpp:120] Top shape: 50 832 7 7 (2038400)
I1217 10:26:23.013294  9003 net.cpp:120] Top shape: 50 832 7 7 (2038400)
I1217 10:26:23.013300  9003 net.cpp:120] Top shape: 50 832 7 7 (2038400)
I1217 10:26:23.013305  9003 net.cpp:120] Top shape: 50 832 7 7 (2038400)
I1217 10:26:23.013309  9003 layer_factory.hpp:74] Creating layer inception_5a/1x1
I1217 10:26:23.013319  9003 net.cpp:84] Creating Layer inception_5a/1x1
I1217 10:26:23.013324  9003 net.cpp:380] inception_5a/1x1 <- pool4/3x3_s2_pool4/3x3_s2_0_split_0
I1217 10:26:23.013331  9003 net.cpp:338] inception_5a/1x1 -> inception_5a/1x1
I1217 10:26:23.013339  9003 net.cpp:113] Setting up inception_5a/1x1
I1217 10:26:23.015988  9003 net.cpp:120] Top shape: 50 256 7 7 (627200)
I1217 10:26:23.016003  9003 layer_factory.hpp:74] Creating layer inception_5a/relu_1x1
I1217 10:26:23.016011  9003 net.cpp:84] Creating Layer inception_5a/relu_1x1
I1217 10:26:23.016016  9003 net.cpp:380] inception_5a/relu_1x1 <- inception_5a/1x1
I1217 10:26:23.016024  9003 net.cpp:327] inception_5a/relu_1x1 -> inception_5a/1x1 (in-place)
I1217 10:26:23.016031  9003 net.cpp:113] Setting up inception_5a/relu_1x1
I1217 10:26:23.016098  9003 net.cpp:120] Top shape: 50 256 7 7 (627200)
I1217 10:26:23.016103  9003 layer_factory.hpp:74] Creating layer inception_5a/3x3_reduce
I1217 10:26:23.016113  9003 net.cpp:84] Creating Layer inception_5a/3x3_reduce
I1217 10:26:23.016119  9003 net.cpp:380] inception_5a/3x3_reduce <- pool4/3x3_s2_pool4/3x3_s2_0_split_1
I1217 10:26:23.016125  9003 net.cpp:338] inception_5a/3x3_reduce -> inception_5a/3x3_reduce
I1217 10:26:23.016134  9003 net.cpp:113] Setting up inception_5a/3x3_reduce
I1217 10:26:23.017959  9003 net.cpp:120] Top shape: 50 160 7 7 (392000)
I1217 10:26:23.017976  9003 layer_factory.hpp:74] Creating layer inception_5a/relu_3x3_reduce
I1217 10:26:23.017982  9003 net.cpp:84] Creating Layer inception_5a/relu_3x3_reduce
I1217 10:26:23.017992  9003 net.cpp:380] inception_5a/relu_3x3_reduce <- inception_5a/3x3_reduce
I1217 10:26:23.018007  9003 net.cpp:327] inception_5a/relu_3x3_reduce -> inception_5a/3x3_reduce (in-place)
I1217 10:26:23.018013  9003 net.cpp:113] Setting up inception_5a/relu_3x3_reduce
I1217 10:26:23.018082  9003 net.cpp:120] Top shape: 50 160 7 7 (392000)
I1217 10:26:23.018088  9003 layer_factory.hpp:74] Creating layer inception_5a/3x3
I1217 10:26:23.018098  9003 net.cpp:84] Creating Layer inception_5a/3x3
I1217 10:26:23.018102  9003 net.cpp:380] inception_5a/3x3 <- inception_5a/3x3_reduce
I1217 10:26:23.018110  9003 net.cpp:338] inception_5a/3x3 -> inception_5a/3x3
I1217 10:26:23.018116  9003 net.cpp:113] Setting up inception_5a/3x3
I1217 10:26:23.023370  9003 net.cpp:120] Top shape: 50 320 7 7 (784000)
I1217 10:26:23.023386  9003 layer_factory.hpp:74] Creating layer inception_5a/relu_3x3
I1217 10:26:23.023393  9003 net.cpp:84] Creating Layer inception_5a/relu_3x3
I1217 10:26:23.023398  9003 net.cpp:380] inception_5a/relu_3x3 <- inception_5a/3x3
I1217 10:26:23.023414  9003 net.cpp:327] inception_5a/relu_3x3 -> inception_5a/3x3 (in-place)
I1217 10:26:23.023422  9003 net.cpp:113] Setting up inception_5a/relu_3x3
I1217 10:26:23.023489  9003 net.cpp:120] Top shape: 50 320 7 7 (784000)
I1217 10:26:23.023495  9003 layer_factory.hpp:74] Creating layer inception_5a/5x5_reduce
I1217 10:26:23.023504  9003 net.cpp:84] Creating Layer inception_5a/5x5_reduce
I1217 10:26:23.023509  9003 net.cpp:380] inception_5a/5x5_reduce <- pool4/3x3_s2_pool4/3x3_s2_0_split_2
I1217 10:26:23.023516  9003 net.cpp:338] inception_5a/5x5_reduce -> inception_5a/5x5_reduce
I1217 10:26:23.023524  9003 net.cpp:113] Setting up inception_5a/5x5_reduce
I1217 10:26:23.024225  9003 net.cpp:120] Top shape: 50 32 7 7 (78400)
I1217 10:26:23.024240  9003 layer_factory.hpp:74] Creating layer inception_5a/relu_5x5_reduce
I1217 10:26:23.024247  9003 net.cpp:84] Creating Layer inception_5a/relu_5x5_reduce
I1217 10:26:23.024255  9003 net.cpp:380] inception_5a/relu_5x5_reduce <- inception_5a/5x5_reduce
I1217 10:26:23.024261  9003 net.cpp:327] inception_5a/relu_5x5_reduce -> inception_5a/5x5_reduce (in-place)
I1217 10:26:23.024268  9003 net.cpp:113] Setting up inception_5a/relu_5x5_reduce
I1217 10:26:23.024534  9003 net.cpp:120] Top shape: 50 32 7 7 (78400)
I1217 10:26:23.024545  9003 layer_factory.hpp:74] Creating layer inception_5a/5x5
I1217 10:26:23.024554  9003 net.cpp:84] Creating Layer inception_5a/5x5
I1217 10:26:23.024559  9003 net.cpp:380] inception_5a/5x5 <- inception_5a/5x5_reduce
I1217 10:26:23.024567  9003 net.cpp:338] inception_5a/5x5 -> inception_5a/5x5
I1217 10:26:23.024575  9003 net.cpp:113] Setting up inception_5a/5x5
I1217 10:26:23.026078  9003 net.cpp:120] Top shape: 50 128 7 7 (313600)
I1217 10:26:23.026093  9003 layer_factory.hpp:74] Creating layer inception_5a/relu_5x5
I1217 10:26:23.026100  9003 net.cpp:84] Creating Layer inception_5a/relu_5x5
I1217 10:26:23.026105  9003 net.cpp:380] inception_5a/relu_5x5 <- inception_5a/5x5
I1217 10:26:23.026113  9003 net.cpp:327] inception_5a/relu_5x5 -> inception_5a/5x5 (in-place)
I1217 10:26:23.026118  9003 net.cpp:113] Setting up inception_5a/relu_5x5
I1217 10:26:23.026185  9003 net.cpp:120] Top shape: 50 128 7 7 (313600)
I1217 10:26:23.026191  9003 layer_factory.hpp:74] Creating layer inception_5a/pool
I1217 10:26:23.026196  9003 layer_factory.cpp:56] CUDNN does not support padding or multiple tops. Using Caffe's own pooling layer.
I1217 10:26:23.026203  9003 net.cpp:84] Creating Layer inception_5a/pool
I1217 10:26:23.026208  9003 net.cpp:380] inception_5a/pool <- pool4/3x3_s2_pool4/3x3_s2_0_split_3
I1217 10:26:23.026216  9003 net.cpp:338] inception_5a/pool -> inception_5a/pool
I1217 10:26:23.026224  9003 net.cpp:113] Setting up inception_5a/pool
I1217 10:26:23.026232  9003 net.cpp:120] Top shape: 50 832 7 7 (2038400)
I1217 10:26:23.026237  9003 layer_factory.hpp:74] Creating layer inception_5a/pool_proj
I1217 10:26:23.026244  9003 net.cpp:84] Creating Layer inception_5a/pool_proj
I1217 10:26:23.026253  9003 net.cpp:380] inception_5a/pool_proj <- inception_5a/pool
I1217 10:26:23.026269  9003 net.cpp:338] inception_5a/pool_proj -> inception_5a/pool_proj
I1217 10:26:23.026278  9003 net.cpp:113] Setting up inception_5a/pool_proj
I1217 10:26:23.027838  9003 net.cpp:120] Top shape: 50 128 7 7 (313600)
I1217 10:26:23.027854  9003 layer_factory.hpp:74] Creating layer inception_5a/relu_pool_proj
I1217 10:26:23.027863  9003 net.cpp:84] Creating Layer inception_5a/relu_pool_proj
I1217 10:26:23.027868  9003 net.cpp:380] inception_5a/relu_pool_proj <- inception_5a/pool_proj
I1217 10:26:23.027873  9003 net.cpp:327] inception_5a/relu_pool_proj -> inception_5a/pool_proj (in-place)
I1217 10:26:23.027880  9003 net.cpp:113] Setting up inception_5a/relu_pool_proj
I1217 10:26:23.027947  9003 net.cpp:120] Top shape: 50 128 7 7 (313600)
I1217 10:26:23.027953  9003 layer_factory.hpp:74] Creating layer inception_5a/output
I1217 10:26:23.027959  9003 net.cpp:84] Creating Layer inception_5a/output
I1217 10:26:23.027964  9003 net.cpp:380] inception_5a/output <- inception_5a/1x1
I1217 10:26:23.027971  9003 net.cpp:380] inception_5a/output <- inception_5a/3x3
I1217 10:26:23.027976  9003 net.cpp:380] inception_5a/output <- inception_5a/5x5
I1217 10:26:23.027981  9003 net.cpp:380] inception_5a/output <- inception_5a/pool_proj
I1217 10:26:23.027986  9003 net.cpp:338] inception_5a/output -> inception_5a/output
I1217 10:26:23.027992  9003 net.cpp:113] Setting up inception_5a/output
I1217 10:26:23.028000  9003 net.cpp:120] Top shape: 50 832 7 7 (2038400)
I1217 10:26:23.028004  9003 layer_factory.hpp:74] Creating layer inception_5a/output_inception_5a/output_0_split
I1217 10:26:23.028013  9003 net.cpp:84] Creating Layer inception_5a/output_inception_5a/output_0_split
I1217 10:26:23.028017  9003 net.cpp:380] inception_5a/output_inception_5a/output_0_split <- inception_5a/output
I1217 10:26:23.028023  9003 net.cpp:338] inception_5a/output_inception_5a/output_0_split -> inception_5a/output_inception_5a/output_0_split_0
I1217 10:26:23.028030  9003 net.cpp:338] inception_5a/output_inception_5a/output_0_split -> inception_5a/output_inception_5a/output_0_split_1
I1217 10:26:23.028038  9003 net.cpp:338] inception_5a/output_inception_5a/output_0_split -> inception_5a/output_inception_5a/output_0_split_2
I1217 10:26:23.028046  9003 net.cpp:338] inception_5a/output_inception_5a/output_0_split -> inception_5a/output_inception_5a/output_0_split_3
I1217 10:26:23.028053  9003 net.cpp:113] Setting up inception_5a/output_inception_5a/output_0_split
I1217 10:26:23.028060  9003 net.cpp:120] Top shape: 50 832 7 7 (2038400)
I1217 10:26:23.028065  9003 net.cpp:120] Top shape: 50 832 7 7 (2038400)
I1217 10:26:23.028069  9003 net.cpp:120] Top shape: 50 832 7 7 (2038400)
I1217 10:26:23.028074  9003 net.cpp:120] Top shape: 50 832 7 7 (2038400)
I1217 10:26:23.028079  9003 layer_factory.hpp:74] Creating layer inception_5b/1x1
I1217 10:26:23.028086  9003 net.cpp:84] Creating Layer inception_5b/1x1
I1217 10:26:23.028090  9003 net.cpp:380] inception_5b/1x1 <- inception_5a/output_inception_5a/output_0_split_0
I1217 10:26:23.028098  9003 net.cpp:338] inception_5b/1x1 -> inception_5b/1x1
I1217 10:26:23.028105  9003 net.cpp:113] Setting up inception_5b/1x1
I1217 10:26:23.031918  9003 net.cpp:120] Top shape: 50 384 7 7 (940800)
I1217 10:26:23.031934  9003 layer_factory.hpp:74] Creating layer inception_5b/relu_1x1
I1217 10:26:23.031940  9003 net.cpp:84] Creating Layer inception_5b/relu_1x1
I1217 10:26:23.031946  9003 net.cpp:380] inception_5b/relu_1x1 <- inception_5b/1x1
I1217 10:26:23.031955  9003 net.cpp:327] inception_5b/relu_1x1 -> inception_5b/1x1 (in-place)
I1217 10:26:23.031961  9003 net.cpp:113] Setting up inception_5b/relu_1x1
I1217 10:26:23.032029  9003 net.cpp:120] Top shape: 50 384 7 7 (940800)
I1217 10:26:23.032035  9003 layer_factory.hpp:74] Creating layer inception_5b/3x3_reduce
I1217 10:26:23.032043  9003 net.cpp:84] Creating Layer inception_5b/3x3_reduce
I1217 10:26:23.032047  9003 net.cpp:380] inception_5b/3x3_reduce <- inception_5a/output_inception_5a/output_0_split_1
I1217 10:26:23.032063  9003 net.cpp:338] inception_5b/3x3_reduce -> inception_5b/3x3_reduce
I1217 10:26:23.032079  9003 net.cpp:113] Setting up inception_5b/3x3_reduce
I1217 10:26:23.035020  9003 net.cpp:120] Top shape: 50 192 7 7 (470400)
I1217 10:26:23.035040  9003 layer_factory.hpp:74] Creating layer inception_5b/relu_3x3_reduce
I1217 10:26:23.035048  9003 net.cpp:84] Creating Layer inception_5b/relu_3x3_reduce
I1217 10:26:23.035054  9003 net.cpp:380] inception_5b/relu_3x3_reduce <- inception_5b/3x3_reduce
I1217 10:26:23.035061  9003 net.cpp:327] inception_5b/relu_3x3_reduce -> inception_5b/3x3_reduce (in-place)
I1217 10:26:23.035070  9003 net.cpp:113] Setting up inception_5b/relu_3x3_reduce
I1217 10:26:23.035343  9003 net.cpp:120] Top shape: 50 192 7 7 (470400)
I1217 10:26:23.035354  9003 layer_factory.hpp:74] Creating layer inception_5b/3x3
I1217 10:26:23.035364  9003 net.cpp:84] Creating Layer inception_5b/3x3
I1217 10:26:23.035370  9003 net.cpp:380] inception_5b/3x3 <- inception_5b/3x3_reduce
I1217 10:26:23.035378  9003 net.cpp:338] inception_5b/3x3 -> inception_5b/3x3
I1217 10:26:23.035387  9003 net.cpp:113] Setting up inception_5b/3x3
I1217 10:26:23.042781  9003 net.cpp:120] Top shape: 50 384 7 7 (940800)
I1217 10:26:23.042798  9003 layer_factory.hpp:74] Creating layer inception_5b/relu_3x3
I1217 10:26:23.042809  9003 net.cpp:84] Creating Layer inception_5b/relu_3x3
I1217 10:26:23.042814  9003 net.cpp:380] inception_5b/relu_3x3 <- inception_5b/3x3
I1217 10:26:23.042820  9003 net.cpp:327] inception_5b/relu_3x3 -> inception_5b/3x3 (in-place)
I1217 10:26:23.042829  9003 net.cpp:113] Setting up inception_5b/relu_3x3
I1217 10:26:23.042896  9003 net.cpp:120] Top shape: 50 384 7 7 (940800)
I1217 10:26:23.042901  9003 layer_factory.hpp:74] Creating layer inception_5b/5x5_reduce
I1217 10:26:23.042912  9003 net.cpp:84] Creating Layer inception_5b/5x5_reduce
I1217 10:26:23.042917  9003 net.cpp:380] inception_5b/5x5_reduce <- inception_5a/output_inception_5a/output_0_split_2
I1217 10:26:23.042925  9003 net.cpp:338] inception_5b/5x5_reduce -> inception_5b/5x5_reduce
I1217 10:26:23.042933  9003 net.cpp:113] Setting up inception_5b/5x5_reduce
I1217 10:26:23.043812  9003 net.cpp:120] Top shape: 50 48 7 7 (117600)
I1217 10:26:23.043828  9003 layer_factory.hpp:74] Creating layer inception_5b/relu_5x5_reduce
I1217 10:26:23.043834  9003 net.cpp:84] Creating Layer inception_5b/relu_5x5_reduce
I1217 10:26:23.043840  9003 net.cpp:380] inception_5b/relu_5x5_reduce <- inception_5b/5x5_reduce
I1217 10:26:23.043846  9003 net.cpp:327] inception_5b/relu_5x5_reduce -> inception_5b/5x5_reduce (in-place)
I1217 10:26:23.043853  9003 net.cpp:113] Setting up inception_5b/relu_5x5_reduce
I1217 10:26:23.043921  9003 net.cpp:120] Top shape: 50 48 7 7 (117600)
I1217 10:26:23.043927  9003 layer_factory.hpp:74] Creating layer inception_5b/5x5
I1217 10:26:23.043936  9003 net.cpp:84] Creating Layer inception_5b/5x5
I1217 10:26:23.043941  9003 net.cpp:380] inception_5b/5x5 <- inception_5b/5x5_reduce
I1217 10:26:23.043948  9003 net.cpp:338] inception_5b/5x5 -> inception_5b/5x5
I1217 10:26:23.043956  9003 net.cpp:113] Setting up inception_5b/5x5
I1217 10:26:23.046010  9003 net.cpp:120] Top shape: 50 128 7 7 (313600)
I1217 10:26:23.046026  9003 layer_factory.hpp:74] Creating layer inception_5b/relu_5x5
I1217 10:26:23.046036  9003 net.cpp:84] Creating Layer inception_5b/relu_5x5
I1217 10:26:23.046041  9003 net.cpp:380] inception_5b/relu_5x5 <- inception_5b/5x5
I1217 10:26:23.046047  9003 net.cpp:327] inception_5b/relu_5x5 -> inception_5b/5x5 (in-place)
I1217 10:26:23.046054  9003 net.cpp:113] Setting up inception_5b/relu_5x5
I1217 10:26:23.046317  9003 net.cpp:120] Top shape: 50 128 7 7 (313600)
I1217 10:26:23.046327  9003 layer_factory.hpp:74] Creating layer inception_5b/pool
I1217 10:26:23.046334  9003 layer_factory.cpp:56] CUDNN does not support padding or multiple tops. Using Caffe's own pooling layer.
I1217 10:26:23.046339  9003 net.cpp:84] Creating Layer inception_5b/pool
I1217 10:26:23.046345  9003 net.cpp:380] inception_5b/pool <- inception_5a/output_inception_5a/output_0_split_3
I1217 10:26:23.046368  9003 net.cpp:338] inception_5b/pool -> inception_5b/pool
I1217 10:26:23.046377  9003 net.cpp:113] Setting up inception_5b/pool
I1217 10:26:23.046386  9003 net.cpp:120] Top shape: 50 832 7 7 (2038400)
I1217 10:26:23.046391  9003 layer_factory.hpp:74] Creating layer inception_5b/pool_proj
I1217 10:26:23.046398  9003 net.cpp:84] Creating Layer inception_5b/pool_proj
I1217 10:26:23.046402  9003 net.cpp:380] inception_5b/pool_proj <- inception_5b/pool
I1217 10:26:23.046411  9003 net.cpp:338] inception_5b/pool_proj -> inception_5b/pool_proj
I1217 10:26:23.046418  9003 net.cpp:113] Setting up inception_5b/pool_proj
I1217 10:26:23.047960  9003 net.cpp:120] Top shape: 50 128 7 7 (313600)
I1217 10:26:23.047974  9003 layer_factory.hpp:74] Creating layer inception_5b/relu_pool_proj
I1217 10:26:23.047983  9003 net.cpp:84] Creating Layer inception_5b/relu_pool_proj
I1217 10:26:23.047988  9003 net.cpp:380] inception_5b/relu_pool_proj <- inception_5b/pool_proj
I1217 10:26:23.047996  9003 net.cpp:327] inception_5b/relu_pool_proj -> inception_5b/pool_proj (in-place)
I1217 10:26:23.048002  9003 net.cpp:113] Setting up inception_5b/relu_pool_proj
I1217 10:26:23.048074  9003 net.cpp:120] Top shape: 50 128 7 7 (313600)
I1217 10:26:23.048079  9003 layer_factory.hpp:74] Creating layer inception_5b/output
I1217 10:26:23.048089  9003 net.cpp:84] Creating Layer inception_5b/output
I1217 10:26:23.048094  9003 net.cpp:380] inception_5b/output <- inception_5b/1x1
I1217 10:26:23.048099  9003 net.cpp:380] inception_5b/output <- inception_5b/3x3
I1217 10:26:23.048105  9003 net.cpp:380] inception_5b/output <- inception_5b/5x5
I1217 10:26:23.048110  9003 net.cpp:380] inception_5b/output <- inception_5b/pool_proj
I1217 10:26:23.048115  9003 net.cpp:338] inception_5b/output -> inception_5b/output
I1217 10:26:23.048122  9003 net.cpp:113] Setting up inception_5b/output
I1217 10:26:23.048130  9003 net.cpp:120] Top shape: 50 1024 7 7 (2508800)
I1217 10:26:23.048135  9003 layer_factory.hpp:74] Creating layer pool5/7x7_s1
I1217 10:26:23.048142  9003 net.cpp:84] Creating Layer pool5/7x7_s1
I1217 10:26:23.048147  9003 net.cpp:380] pool5/7x7_s1 <- inception_5b/output
I1217 10:26:23.048153  9003 net.cpp:338] pool5/7x7_s1 -> pool5/7x7_s1
I1217 10:26:23.048161  9003 net.cpp:113] Setting up pool5/7x7_s1
I1217 10:26:23.048229  9003 net.cpp:120] Top shape: 50 1024 1 1 (51200)
I1217 10:26:23.048235  9003 layer_factory.hpp:74] Creating layer pool5/drop_7x7_s1
I1217 10:26:23.048243  9003 net.cpp:84] Creating Layer pool5/drop_7x7_s1
I1217 10:26:23.048248  9003 net.cpp:380] pool5/drop_7x7_s1 <- pool5/7x7_s1
I1217 10:26:23.048254  9003 net.cpp:327] pool5/drop_7x7_s1 -> pool5/7x7_s1 (in-place)
I1217 10:26:23.048259  9003 net.cpp:113] Setting up pool5/drop_7x7_s1
I1217 10:26:23.048266  9003 net.cpp:120] Top shape: 50 1024 1 1 (51200)
I1217 10:26:23.048270  9003 layer_factory.hpp:74] Creating layer loss3/classifier_kaggle
I1217 10:26:23.048280  9003 net.cpp:84] Creating Layer loss3/classifier_kaggle
I1217 10:26:23.048285  9003 net.cpp:380] loss3/classifier_kaggle <- pool5/7x7_s1
I1217 10:26:23.048292  9003 net.cpp:338] loss3/classifier_kaggle -> loss3/classifier_kaggle
I1217 10:26:23.048300  9003 net.cpp:113] Setting up loss3/classifier_kaggle
I1217 10:26:23.053130  9003 net.cpp:120] Top shape: 50 447 (22350)
I1217 10:26:23.053143  9003 layer_factory.hpp:74] Creating layer loss3/classifier_kaggle_loss3/classifier_kaggle_0_split
I1217 10:26:23.053151  9003 net.cpp:84] Creating Layer loss3/classifier_kaggle_loss3/classifier_kaggle_0_split
I1217 10:26:23.053156  9003 net.cpp:380] loss3/classifier_kaggle_loss3/classifier_kaggle_0_split <- loss3/classifier_kaggle
I1217 10:26:23.053164  9003 net.cpp:338] loss3/classifier_kaggle_loss3/classifier_kaggle_0_split -> loss3/classifier_kaggle_loss3/classifier_kaggle_0_split_0
I1217 10:26:23.053172  9003 net.cpp:338] loss3/classifier_kaggle_loss3/classifier_kaggle_0_split -> loss3/classifier_kaggle_loss3/classifier_kaggle_0_split_1
I1217 10:26:23.053179  9003 net.cpp:338] loss3/classifier_kaggle_loss3/classifier_kaggle_0_split -> loss3/classifier_kaggle_loss3/classifier_kaggle_0_split_2
I1217 10:26:23.053199  9003 net.cpp:113] Setting up loss3/classifier_kaggle_loss3/classifier_kaggle_0_split
I1217 10:26:23.053206  9003 net.cpp:120] Top shape: 50 447 (22350)
I1217 10:26:23.053211  9003 net.cpp:120] Top shape: 50 447 (22350)
I1217 10:26:23.053216  9003 net.cpp:120] Top shape: 50 447 (22350)
I1217 10:26:23.053220  9003 layer_factory.hpp:74] Creating layer loss3/loss3
I1217 10:26:23.053230  9003 net.cpp:84] Creating Layer loss3/loss3
I1217 10:26:23.053233  9003 net.cpp:380] loss3/loss3 <- loss3/classifier_kaggle_loss3/classifier_kaggle_0_split_0
I1217 10:26:23.053239  9003 net.cpp:380] loss3/loss3 <- label_data_1_split_6
I1217 10:26:23.053246  9003 net.cpp:338] loss3/loss3 -> loss3/loss3
…
