…
I1216 21:15:57.160611 25674 net.cpp:257] The NetState phase (0) differed from the phase (1) specified by a rule in layer loss3/top-5
I1216 21:15:57.161994 25674 net.cpp:42] Initializing net from parameters: 
name: "GoogleNet"
state {
  phase: TRAIN
}
layer {
  name: "data"
  type: "Data"
  top: "data"
  top: "label"
  include {
    phase: TRAIN
  }
  transform_param {
    mirror: true
    crop_size: 224
    mean_value: 129
    mean_value: 129
    mean_value: 129
  }
  data_param {
    source: "/home/coldmanck/kaggle/kaggle2_train_lmdb"
    batch_size: 80
    backend: LMDB
  }
}
layer {
  name: "conv1/7x7_s2"
  type: "Convolution"
  bottom: "data"
  top: "conv1/7x7_s2"
  param {
    lr_mult: 1
    decay_mult: 1
  }
  param {
    lr_mult: 2
    decay_mult: 0
  }
  convolution_param {
    num_output: 64
    pad: 3
    kernel_size: 7
    stride: 2
    weight_filler {
      type: "xavier"
    }
    bias_filler {
      type: "constant"
      value: 0.2
    }
  }
}
layer {
  name: "conv1/relu_7x7"
  type: "ReLU"
  bottom: "conv1/7x7_s2"
  top: "conv1/7x7_s2"
}
layer {
  name: "pool1/3x3_s2"
  type: "Pooling"
  bottom: "conv1/7x7_s2"
  top: "pool1/3x3_s2"
  pooling_param {
    pool: MAX
    kernel_size: 3
    stride: 2
  }
}
layer {
  name: "pool1/norm1"
  type: "LRN"
  bottom: "pool1/3x3_s2"
  top: "pool1/norm1"
  lrn_param {
    local_size: 5
    alpha: 0.0001
    beta: 0.75
  }
}
layer {
  name: "conv2/3x3_reduce"
  type: "Convolution"
  bottom: "pool1/norm1"
  top: "conv2/3x3_reduce"
  param {
    lr_mult: 1
    decay_mult: 1
  }
  param {
    lr_mult: 2
    decay_mult: 0
  }
  convolution_param {
    num_output: 64
    kernel_size: 1
    weight_filler {
      type: "xavier"
    }
    bias_filler {
      type: "constant"
      value: 0.2
    }
  }
}
layer {
  name: "conv2/relu_3x3_reduce"
  type: "ReLU"
  bottom: "conv2/3x3_reduce"
  top: "conv2/3x3_reduce"
}
layer {
  name: "conv2/3x3"
  type: "Convolution"
  bottom: "conv2/3x3_reduce"
  top: "conv2/3x3"
  param {
    lr_mult: 1
    decay_mult: 1
  }
  param {
    lr_mult: 2
    decay_mult: 0
  }
  convolution_param {
    num_output: 192
    pad: 1
    kernel_size: 3
    weight_filler {
      type: "xavier"
    }
    bias_filler {
      type: "constant"
      value: 0.2
    }
  }
}
layer {
  name: "conv2/relu_3x3"
  type: "ReLU"
  bottom: "conv2/3x3"
  top: "conv2/3x3"
}
layer {
  name: "conv2/norm2"
  type: "LRN"
  bottom: "conv2/3x3"
  top: "conv2/norm2"
  lrn_param {
    local_size: 5
    alpha: 0.0001
    beta: 0.75
  }
}
layer {
  name: "pool2/3x3_s2"
  type: "Pooling"
  bottom: "conv2/norm2"
  top: "pool2/3x3_s2"
  pooling_param {
    pool: MAX
    kernel_size: 3
    stride: 2
  }
}
layer {
  name: "inception_3a/1x1"
  type: "Convolution"
  bottom: "pool2/3x3_s2"
  top: "inception_3a/1x1"
  param {
    lr_mult: 1
    decay_mult: 1
  }
  param {
    lr_mult: 2
    decay_mult: 0
  }
  convolution_param {
    num_output: 64
    kernel_size: 1
    weight_filler {
      type: "xavier"
    }
    bias_filler {
      type: "constant"
      value: 0.2
    }
  }
}
layer {
  name: "inception_3a/relu_1x1"
  type: "ReLU"
  bottom: "inception_3a/1x1"
  top: "inception_3a/1x1"
}
layer {
  name: "inception_3a/3x3_reduce"
  type: "Convolution"
  bottom: "pool2/3x3_s2"
  top: "inception_3a/3x3_reduce"
  param {
    lr_mult: 1
    decay_mult: 1
  }
  param {
    lr_mult: 2
    decay_mult: 0
  }
  convolution_param {
    num_output: 96
    kernel_size: 1
    weight_filler {
      type: "xavier"
    }
    bias_filler {
      type: "constant"
      value: 0.2
    }
  }
}
layer {
  name: "inception_3a/relu_3x3_reduce"
  type: "ReLU"
  bottom: "inception_3a/3x3_reduce"
  top: "inception_3a/3x3_reduce"
}
layer {
  name: "inception_3a/3x3"
  type: "Convolution"
  bottom: "inception_3a/3x3_reduce"
  top: "inception_3a/3x3"
  param {
    lr_mult: 1
    decay_mult: 1
  }
  param {
    lr_mult: 2
    decay_mult: 0
  }
  convolution_param {
    num_output: 128
    pad: 1
    kernel_size: 3
    weight_filler {
      type: "xavier"
    }
    bias_filler {
      type: "constant"
      value: 0.2
    }
  }
}
layer {
  name: "inception_3a/relu_3x3"
  type: "ReLU"
  bottom: "inception_3a/3x3"
  top: "inception_3a/3x3"
}
layer {
  name: "inception_3a/5x5_reduce"
  type: "Convolution"
  bottom: "pool2/3x3_s2"
  top: "inception_3a/5x5_reduce"
  param {
    lr_mult: 1
    decay_mult: 1
  }
  param {
    lr_mult: 2
    decay_mult: 0
  }
  convolution_param {
    num_output: 16
    kernel_size: 1
    weight_filler {
      type: "xavier"
    }
    bias_filler {
      type: "constant"
      value: 0.2
    }
  }
}
layer {
  name: "inception_3a/relu_5x5_reduce"
  type: "ReLU"
  bottom: "inception_3a/5x5_reduce"
  top: "inception_3a/5x5_reduce"
}
layer {
  name: "inception_3a/5x5"
  type: "Convolution"
  bottom: "inception_3a/5x5_reduce"
  top: "inception_3a/5x5"
  param {
    lr_mult: 1
    decay_mult: 1
  }
  param {
    lr_mult: 2
    decay_mult: 0
  }
  convolution_param {
    num_output: 32
    pad: 2
    kernel_size: 5
    weight_filler {
      type: "xavier"
    }
    bias_filler {
      type: "constant"
      value: 0.2
    }
  }
}
layer {
  name: "inception_3a/relu_5x5"
  type: "ReLU"
  bottom: "inception_3a/5x5"
  top: "inception_3a/5x5"
}
layer {
  name: "inception_3a/pool"
  type: "Pooling"
  bottom: "pool2/3x3_s2"
  top: "inception_3a/pool"
  pooling_param {
    pool: MAX
    kernel_size: 3
    stride: 1
    pad: 1
  }
}
layer {
  name: "inception_3a/pool_proj"
  type: "Convolution"
  bottom: "inception_3a/pool"
  top: "inception_3a/pool_proj"
  param {
    lr_mult: 1
    decay_mult: 1
  }
  param {
    lr_mult: 2
    decay_mult: 0
  }
  convolution_param {
    num_output: 32
    kernel_size: 1
    weight_filler {
      type: "xavier"
    }
    bias_filler {
      type: "constant"
      value: 0.2
    }
  }
}
layer {
  name: "inception_3a/relu_pool_proj"
  type: "ReLU"
  bottom: "inception_3a/pool_proj"
  top: "inception_3a/pool_proj"
}
layer {
  name: "inception_3a/output"
  type: "Concat"
  bottom: "inception_3a/1x1"
  bottom: "inception_3a/3x3"
  bottom: "inception_3a/5x5"
  bottom: "inception_3a/pool_proj"
  top: "inception_3a/output"
}
layer {
  name: "inception_3b/1x1"
  type: "Convolution"
  bottom: "inception_3a/output"
  top: "inception_3b/1x1"
  param {
    lr_mult: 1
    decay_mult: 1
  }
  param {
    lr_mult: 2
    decay_mult: 0
  }
  convolution_param {
    num_output: 128
    kernel_size: 1
    weight_filler {
      type: "xavier"
    }
    bias_filler {
      type: "constant"
      value: 0.2
    }
  }
}
layer {
  name: "inception_3b/relu_1x1"
  type: "ReLU"
  bottom: "inception_3b/1x1"
  top: "inception_3b/1x1"
}
layer {
  name: "inception_3b/3x3_reduce"
  type: "Convolution"
  bottom: "inception_3a/output"
  top: "inception_3b/3x3_reduce"
  param {
    lr_mult: 1
    decay_mult: 1
  }
  param {
    lr_mult: 2
    decay_mult: 0
  }
  convolution_param {
    num_output: 128
    kernel_size: 1
    weight_filler {
      type: "xavier"
    }
    bias_filler {
      type: "constant"
      value: 0.2
    }
  }
}
layer {
  name: "inception_3b/relu_3x3_reduce"
  type: "ReLU"
  bottom: "inception_3b/3x3_reduce"
  top: "inception_3b/3x3_reduce"
}
layer {
  name: "inception_3b/3x3"
  type: "Convolution"
  bottom: "inception_3b/3x3_reduce"
  top: "inception_3b/3x3"
  param {
    lr_mult: 1
    decay_mult: 1
  }
  param {
    lr_mult: 2
    decay_mult: 0
  }
  convolution_param {
    num_output: 192
    pad: 1
    kernel_size: 3
    weight_filler {
      type: "xavier"
    }
    bias_filler {
      type: "constant"
      value: 0.2
    }
  }
}
layer {
  name: "inception_3b/relu_3x3"
  type: "ReLU"
  bottom: "inception_3b/3x3"
  top: "inception_3b/3x3"
}
layer {
  name: "inception_3b/5x5_reduce"
  type: "Convolution"
  bottom: "inception_3a/output"
  top: "inception_3b/5x5_reduce"
  param {
    lr_mult: 1
    decay_mult: 1
  }
  param {
    lr_mult: 2
    decay_mult: 0
  }
  convolution_param {
    num_output: 32
    kernel_size: 1
    weight_filler {
      type: "xavier"
    }
    bias_filler {
      type: "constant"
      value: 0.2
    }
  }
}
layer {
  name: "inception_3b/relu_5x5_reduce"
  type: "ReLU"
  bottom: "inception_3b/5x5_reduce"
  top: "inception_3b/5x5_reduce"
}
layer {
  name: "inception_3b/5x5"
  type: "Convolution"
  bottom: "inception_3b/5x5_reduce"
  top: "inception_3b/5x5"
  param {
    lr_mult: 1
    decay_mult: 1
  }
  param {
    lr_mult: 2
    decay_mult: 0
  }
  convolution_param {
    num_output: 96
    pad: 2
    kernel_size: 5
    weight_filler {
      type: "xavier"
    }
    bias_filler {
      type: "constant"
      value: 0.2
    }
  }
}
layer {
  name: "inception_3b/relu_5x5"
  type: "ReLU"
  bottom: "inception_3b/5x5"
  top: "inception_3b/5x5"
}
layer {
  name: "inception_3b/pool"
  type: "Pooling"
  bottom: "inception_3a/output"
  top: "inception_3b/pool"
  pooling_param {
    pool: MAX
    kernel_size: 3
    stride: 1
    pad: 1
  }
}
layer {
  name: "inception_3b/pool_proj"
  type: "Convolution"
  bottom: "inception_3b/pool"
  top: "inception_3b/pool_proj"
  param {
    lr_mult: 1
    decay_mult: 1
  }
  param {
    lr_mult: 2
    decay_mult: 0
  }
  convolution_param {
    num_output: 64
    kernel_size: 1
    weight_filler {
      type: "xavier"
    }
    bias_filler {
      type: "constant"
      value: 0.2
    }
  }
}
layer {
  name: "inception_3b/relu_pool_proj"
  type: "ReLU"
  bottom: "inception_3b/pool_proj"
  top: "inception_3b/pool_proj"
}
layer {
  name: "inception_3b/output"
  type: "Concat"
  bottom: "inception_3b/1x1"
  bottom: "inception_3b/3x3"
  bottom: "inception_3b/5x5"
  bottom: "inception_3b/pool_proj"
  top: "inception_3b/output"
}
layer {
  name: "pool3/3x3_s2"
  type: "Pooling"
  bottom: "inception_3b/output"
  top: "pool3/3x3_s2"
  pooling_param {
    pool: MAX
    kernel_size: 3
    stride: 2
  }
}
layer {
  name: "inception_4a/1x1"
  type: "Convolution"
  bottom: "pool3/3x3_s2"
  top: "inception_4a/1x1"
  param {
    lr_mult: 1
    decay_mult: 1
  }
  param {
    lr_mult: 2
    decay_mult: 0
  }
  convolution_param {
    num_output: 192
    kernel_size: 1
    weight_filler {
      type: "xavier"
    }
    bias_filler {
      type: "constant"
      value: 0.2
    }
  }
}
layer {
  name: "inception_4a/relu_1x1"
  type: "ReLU"
  bottom: "inception_4a/1x1"
  top: "inception_4a/1x1"
}
layer {
  name: "inception_4a/3x3_reduce"
  type: "Convolution"
  bottom: "pool3/3x3_s2"
  top: "inception_4a/3x3_reduce"
  param {
    lr_mult: 1
    decay_mult: 1
  }
  param {
    lr_mult: 2
    decay_mult: 0
  }
  convolution_param {
    num_output: 96
    kernel_size: 1
    weight_filler {
      type: "xavier"
    }
    bias_filler {
      type: "constant"
      value: 0.2
    }
  }
}
layer {
  name: "inception_4a/relu_3x3_reduce"
  type: "ReLU"
  bottom: "inception_4a/3x3_reduce"
  top: "inception_4a/3x3_reduce"
}
layer {
  name: "inception_4a/3x3"
  type: "Convolution"
  bottom: "inception_4a/3x3_reduce"
  top: "inception_4a/3x3"
  param {
    lr_mult: 1
    decay_mult: 1
  }
  param {
    lr_mult: 2
    decay_mult: 0
  }
  convolution_param {
    num_output: 208
    pad: 1
    kernel_size: 3
    weight_filler {
      type: "xavier"
    }
    bias_filler {
      type: "constant"
      value: 0.2
    }
  }
}
layer {
  name: "inception_4a/relu_3x3"
  type: "ReLU"
  bottom: "inception_4a/3x3"
  top: "inception_4a/3x3"
}
layer {
  name: "inception_4a/5x5_reduce"
  type: "Convolution"
  bottom: "pool3/3x3_s2"
  top: "inception_4a/5x5_reduce"
  param {
    lr_mult: 1
    decay_mult: 1
  }
  param {
    lr_mult: 2
    decay_mult: 0
  }
  convolution_param {
    num_output: 16
    kernel_size: 1
    weight_filler {
      type: "xavier"
    }
    bias_filler {
      type: "constant"
      value: 0.2
    }
  }
}
layer {
  name: "inception_4a/relu_5x5_reduce"
  type: "ReLU"
  bottom: "inception_4a/5x5_reduce"
  top: "inception_4a/5x5_reduce"
}
layer {
  name: "inception_4a/5x5"
  type: "Convolution"
  bottom: "inception_4a/5x5_reduce"
  top: "inception_4a/5x5"
  param {
    lr_mult: 1
    decay_mult: 1
  }
  param {
    lr_mult: 2
    decay_mult: 0
  }
  convolution_param {
    num_output: 48
    pad: 2
    kernel_size: 5
    weight_filler {
      type: "xavier"
    }
    bias_filler {
      type: "constant"
      value: 0.2
    }
  }
}
layer {
  name: "inception_4a/relu_5x5"
  type: "ReLU"
  bottom: "inception_4a/5x5"
  top: "inception_4a/5x5"
}
layer {
  name: "inception_4a/pool"
  type: "Pooling"
  bottom: "pool3/3x3_s2"
  top: "inception_4a/pool"
  pooling_param {
    pool: MAX
    kernel_size: 3
    stride: 1
    pad: 1
  }
}
layer {
  name: "inception_4a/pool_proj"
  type: "Convolution"
  bottom: "inception_4a/pool"
  top: "inception_4a/pool_proj"
  param {
    lr_mult: 1
    decay_mult: 1
  }
  param {
    lr_mult: 2
    decay_mult: 0
  }
  convolution_param {
    num_output: 64
    kernel_size: 1
    weight_filler {
      type: "xavier"
    }
    bias_filler {
      type: "constant"
      value: 0.2
    }
  }
}
layer {
  name: "inception_4a/relu_pool_proj"
  type: "ReLU"
  bottom: "inception_4a/pool_proj"
  top: "inception_4a/pool_proj"
}
layer {
  name: "inception_4a/output"
  type: "Concat"
  bottom: "inception_4a/1x1"
  bottom: "inception_4a/3x3"
  bottom: "inception_4a/5x5"
  bottom: "inception_4a/pool_proj"
  top: "inception_4a/output"
}
layer {
  name: "loss1/ave_pool"
  type: "Pooling"
  bottom: "inception_4a/output"
  top: "loss1/ave_pool"
  pooling_param {
    pool: AVE
    kernel_size: 5
    stride: 3
  }
}
layer {
  name: "loss1/conv"
  type: "Convolution"
  bottom: "loss1/ave_pool"
  top: "loss1/conv"
  param {
    lr_mult: 1
    decay_mult: 1
  }
  param {
    lr_mult: 2
    decay_mult: 0
  }
  convolution_param {
    num_output: 128
    kernel_size: 1
    weight_filler {
      type: "xavier"
    }
    bias_filler {
      type: "constant"
      value: 0.2
    }
  }
}
layer {
  name: "loss1/relu_conv"
  type: "ReLU"
  bottom: "loss1/conv"
  top: "loss1/conv"
}
layer {
  name: "loss1/fc"
  type: "InnerProduct"
  bottom: "loss1/conv"
  top: "loss1/fc"
  param {
    lr_mult: 1
    decay_mult: 1
  }
  param {
    lr_mult: 2
    decay_mult: 0
  }
  inner_product_param {
    num_output: 1024
    weight_filler {
      type: "xavier"
    }
    bias_filler {
      type: "constant"
      value: 0.2
    }
  }
}
layer {
  name: "loss1/relu_fc"
  type: "ReLU"
  bottom: "loss1/fc"
  top: "loss1/fc"
}
layer {
  name: "loss1/drop_fc"
  type: "Dropout"
  bottom: "loss1/fc"
  top: "loss1/fc"
  dropout_param {
    dropout_ratio: 0.7
  }
}
layer {
  name: "loss1/classifier_kaggle"
  type: "InnerProduct"
  bottom: "loss1/fc"
  top: "loss1/classifier_kaggle"
  param {
    lr_mult: 1
    decay_mult: 1
  }
  param {
    lr_mult: 2
    decay_mult: 0
  }
  inner_product_param {
    num_output: 447
    weight_filler {
      type: "xavier"
    }
    bias_filler {
      type: "constant"
      value: 0
    }
  }
}
layer {
  name: "loss1/loss"
  type: "SoftmaxWithLoss"
  bottom: "loss1/classifier_kaggle"
  bottom: "label"
  top: "loss1/loss1"
  loss_weight: 0.3
}
layer {
  name: "inception_4b/1x1"
  type: "Convolution"
  bottom: "inception_4a/output"
  top: "inception_4b/1x1"
  param {
    lr_mult: 1
    decay_mult: 1
  }
  param {
    lr_mult: 2
    decay_mult: 0
  }
  convolution_param {
    num_output: 160
    kernel_size: 1
    weight_filler {
      type: "xavier"
    }
    bias_filler {
      type: "constant"
      value: 0.2
    }
  }
}
layer {
  name: "inception_4b/relu_1x1"
  type: "ReLU"
  bottom: "inception_4b/1x1"
  top: "inception_4b/1x1"
}
layer {
  name: "inception_4b/3x3_reduce"
  type: "Convolution"
  bottom: "inception_4a/output"
  top: "inception_4b/3x3_reduce"
  param {
    lr_mult: 1
    decay_mult: 1
  }
  param {
    lr_mult: 2
    decay_mult: 0
  }
  convolution_param {
    num_output: 112
    kernel_size: 1
    weight_filler {
      type: "xavier"
    }
    bias_filler {
      type: "constant"
      value: 0.2
    }
  }
}
layer {
  name: "inception_4b/relu_3x3_reduce"
  type: "ReLU"
  bottom: "inception_4b/3x3_reduce"
  top: "inception_4b/3x3_reduce"
}
layer {
  name: "inception_4b/3x3"
  type: "Convolution"
  bottom: "inception_4b/3x3_reduce"
  top: "inception_4b/3x3"
  param {
    lr_mult: 1
    decay_mult: 1
  }
  param {
    lr_mult: 2
    decay_mult: 0
  }
  convolution_param {
    num_output: 224
    pad: 1
    kernel_size: 3
    weight_filler {
      type: "xavier"
    }
    bias_filler {
      type: "constant"
      value: 0.2
    }
  }
}
layer {
  name: "inception_4b/relu_3x3"
  type: "ReLU"
  bottom: "inception_4b/3x3"
  top: "inception_4b/3x3"
}
layer {
  name: "inception_4b/5x5_reduce"
  type: "Convolution"
  bottom: "inception_4a/output"
  top: "inception_4b/5x5_reduce"
  param {
    lr_mult: 1
    decay_mult: 1
  }
  param {
    lr_mult: 2
    decay_mult: 0
  }
  convolution_param {
    num_output: 24
    kernel_size: 1
    weight_filler {
      type: "xavier"
    }
    bias_filler {
      type: "constant"
      value: 0.2
    }
  }
}
layer {
  name: "inception_4b/relu_5x5_reduce"
  type: "ReLU"
  bottom: "inception_4b/5x5_reduce"
  top: "inception_4b/5x5_reduce"
}
layer {
  name: "inception_4b/5x5"
  type: "Convolution"
  bottom: "inception_4b/5x5_reduce"
  top: "inception_4b/5x5"
  param {
    lr_mult: 1
    decay_mult: 1
  }
  param {
    lr_mult: 2
    decay_mult: 0
  }
  convolution_param {
    num_output: 64
    pad: 2
    kernel_size: 5
    weight_filler {
      type: "xavier"
    }
    bias_filler {
      type: "constant"
      value: 0.2
    }
  }
}
layer {
  name: "inception_4b/relu_5x5"
  type: "ReLU"
  bottom: "inception_4b/5x5"
  top: "inception_4b/5x5"
}
layer {
  name: "inception_4b/pool"
  type: "Pooling"
  bottom: "inception_4a/output"
  top: "inception_4b/pool"
  pooling_param {
    pool: MAX
    kernel_size: 3
    stride: 1
    pad: 1
  }
}
layer {
  name: "inception_4b/pool_proj"
  type: "Convolution"
  bottom: "inception_4b/pool"
  top: "inception_4b/pool_proj"
  param {
    lr_mult: 1
    decay_mult: 1
  }
  param {
    lr_mult: 2
    decay_mult: 0
  }
  convolution_param {
    num_output: 64
    kernel_size: 1
    weight_filler {
      type: "xavier"
    }
    bias_filler {
      type: "constant"
      value: 0.2
    }
  }
}
layer {
  name: "inception_4b/relu_pool_proj"
  type: "ReLU"
  bottom: "inception_4b/pool_proj"
  top: "inception_4b/pool_proj"
}
layer {
  name: "inception_4b/output"
  type: "Concat"
  bottom: "inception_4b/1x1"
  bottom: "inception_4b/3x3"
  bottom: "inception_4b/5x5"
  bottom: "inception_4b/pool_proj"
  top: "inception_4b/output"
}
layer {
  name: "inception_4c/1x1"
  type: "Convolution"
  bottom: "inception_4b/output"
  top: "inception_4c/1x1"
  param {
    lr_mult: 1
    decay_mult: 1
  }
  param {
    lr_mult: 2
    decay_mult: 0
  }
  convolution_param {
    num_output: 128
    kernel_size: 1
    weight_filler {
      type: "xavier"
    }
    bias_filler {
      type: "constant"
      value: 0.2
    }
  }
}
layer {
  name: "inception_4c/relu_1x1"
  type: "ReLU"
  bottom: "inception_4c/1x1"
  top: "inception_4c/1x1"
}
layer {
  name: "inception_4c/3x3_reduce"
  type: "Convolution"
  bottom: "inception_4b/output"
  top: "inception_4c/3x3_reduce"
  param {
    lr_mult: 1
    decay_mult: 1
  }
  param {
    lr_mult: 2
    decay_mult: 0
  }
  convolution_param {
    num_output: 128
    kernel_size: 1
    weight_filler {
      type: "xavier"
    }
    bias_filler {
      type: "constant"
      value: 0.2
    }
  }
}
layer {
  name: "inception_4c/relu_3x3_reduce"
  type: "ReLU"
  bottom: "inception_4c/3x3_reduce"
  top: "inception_4c/3x3_reduce"
}
layer {
  name: "inception_4c/3x3"
  type: "Convolution"
  bottom: "inception_4c/3x3_reduce"
  top: "inception_4c/3x3"
  param {
    lr_mult: 1
    decay_mult: 1
  }
  param {
    lr_mult: 2
    decay_mult: 0
  }
  convolution_param {
    num_output: 256
    pad: 1
    kernel_size: 3
    weight_filler {
      type: "xavier"
    }
    bias_filler {
      type: "constant"
      value: 0.2
    }
  }
}
layer {
  name: "inception_4c/relu_3x3"
  type: "ReLU"
  bottom: "inception_4c/3x3"
  top: "inception_4c/3x3"
}
layer {
  name: "inception_4c/5x5_reduce"
  type: "Convolution"
  bottom: "inception_4b/output"
  top: "inception_4c/5x5_reduce"
  param {
    lr_mult: 1
    decay_mult: 1
  }
  param {
    lr_mult: 2
    decay_mult: 0
  }
  convolution_param {
    num_output: 24
    kernel_size: 1
    weight_filler {
      type: "xavier"
    }
    bias_filler {
      type: "constant"
      value: 0.2
    }
  }
}
layer {
  name: "inception_4c/relu_5x5_reduce"
  type: "ReLU"
  bottom: "inception_4c/5x5_reduce"
  top: "inception_4c/5x5_reduce"
}
layer {
  name: "inception_4c/5x5"
  type: "Convolution"
  bottom: "inception_4c/5x5_reduce"
  top: "inception_4c/5x5"
  param {
    lr_mult: 1
    decay_mult: 1
  }
  param {
    lr_mult: 2
    decay_mult: 0
  }
  convolution_param {
    num_output: 64
    pad: 2
    kernel_size: 5
    weight_filler {
      type: "xavier"
    }
    bias_filler {
      type: "constant"
      value: 0.2
    }
  }
}
layer {
  name: "inception_4c/relu_5x5"
  type: "ReLU"
  bottom: "inception_4c/5x5"
  top: "inception_4c/5x5"
}
layer {
  name: "inception_4c/pool"
  type: "Pooling"
  bottom: "inception_4b/output"
  top: "inception_4c/pool"
  pooling_param {
    pool: MAX
    kernel_size: 3
    stride: 1
    pad: 1
  }
}
layer {
  name: "inception_4c/pool_proj"
  type: "Convolution"
  bottom: "inception_4c/pool"
  top: "inception_4c/pool_proj"
  param {
    lr_mult: 1
    decay_mult: 1
  }
  param {
    lr_mult: 2
    decay_mult: 0
  }
  convolution_param {
    num_output: 64
    kernel_size: 1
    weight_filler {
      type: "xavier"
    }
    bias_filler {
      type: "constant"
      value: 0.2
    }
  }
}
layer {
  name: "inception_4c/relu_pool_proj"
  type: "ReLU"
  bottom: "inception_4c/pool_proj"
  top: "inception_4c/pool_proj"
}
layer {
  name: "inception_4c/output"
  type: "Concat"
  bottom: "inception_4c/1x1"
  bottom: "inception_4c/3x3"
  bottom: "inception_4c/5x5"
  bottom: "inception_4c/pool_proj"
  top: "inception_4c/output"
}
layer {
  name: "inception_4d/1x1"
  type: "Convolution"
  bottom: "inception_4c/output"
  top: "inception_4d/1x1"
  param {
    lr_mult: 1
    decay_mult: 1
  }
  param {
    lr_mult: 2
    decay_mult: 0
  }
  convolution_param {
    num_output: 112
    kernel_size: 1
    weight_filler {
      type: "xavier"
    }
    bias_filler {
      type: "constant"
      value: 0.2
    }
  }
}
layer {
  name: "inception_4d/relu_1x1"
  type: "ReLU"
  bottom: "inception_4d/1x1"
  top: "inception_4d/1x1"
}
layer {
  name: "inception_4d/3x3_reduce"
  type: "Convolution"
  bottom: "inception_4c/output"
  top: "inception_4d/3x3_reduce"
  param {
    lr_mult: 1
    decay_mult: 1
  }
  param {
    lr_mult: 2
    decay_mult: 0
  }
  convolution_param {
    num_output: 144
    kernel_size: 1
    weight_filler {
      type: "xavier"
    }
    bias_filler {
      type: "constant"
      value: 0.2
    }
  }
}
layer {
  name: "inception_4d/relu_3x3_reduce"
  type: "ReLU"
  bottom: "inception_4d/3x3_reduce"
  top: "inception_4d/3x3_reduce"
}
layer {
  name: "inception_4d/3x3"
  type: "Convolution"
  bottom: "inception_4d/3x3_reduce"
  top: "inception_4d/3x3"
  param {
    lr_mult: 1
    decay_mult: 1
  }
  param {
    lr_mult: 2
    decay_mult: 0
  }
  convolution_param {
    num_output: 288
    pad: 1
    kernel_size: 3
    weight_filler {
      type: "xavier"
    }
    bias_filler {
      type: "constant"
      value: 0.2
    }
  }
}
layer {
  name: "inception_4d/relu_3x3"
  type: "ReLU"
  bottom: "inception_4d/3x3"
  top: "inception_4d/3x3"
}
layer {
  name: "inception_4d/5x5_reduce"
  type: "Convolution"
  bottom: "inception_4c/output"
  top: "inception_4d/5x5_reduce"
  param {
    lr_mult: 1
    decay_mult: 1
  }
  param {
    lr_mult: 2
    decay_mult: 0
  }
  convolution_param {
    num_output: 32
    kernel_size: 1
    weight_filler {
      type: "xavier"
    }
    bias_filler {
      type: "constant"
      value: 0.2
    }
  }
}
layer {
  name: "inception_4d/relu_5x5_reduce"
  type: "ReLU"
  bottom: "inception_4d/5x5_reduce"
  top: "inception_4d/5x5_reduce"
}
layer {
  name: "inception_4d/5x5"
  type: "Convolution"
  bottom: "inception_4d/5x5_reduce"
  top: "inception_4d/5x5"
  param {
    lr_mult: 1
    decay_mult: 1
  }
  param {
    lr_mult: 2
    decay_mult: 0
  }
  convolution_param {
    num_output: 64
    pad: 2
    kernel_size: 5
    weight_filler {
      type: "xavier"
    }
    bias_filler {
      type: "constant"
      value: 0.2
    }
  }
}
layer {
  name: "inception_4d/relu_5x5"
  type: "ReLU"
  bottom: "inception_4d/5x5"
  top: "inception_4d/5x5"
}
layer {
  name: "inception_4d/pool"
  type: "Pooling"
  bottom: "inception_4c/output"
  top: "inception_4d/pool"
  pooling_param {
    pool: MAX
    kernel_size: 3
    stride: 1
    pad: 1
  }
}
layer {
  name: "inception_4d/pool_proj"
  type: "Convolution"
  bottom: "inception_4d/pool"
  top: "inception_4d/pool_proj"
  param {
    lr_mult: 1
    decay_mult: 1
  }
  param {
    lr_mult: 2
    decay_mult: 0
  }
  convolution_param {
    num_output: 64
    kernel_size: 1
    weight_filler {
      type: "xavier"
    }
    bias_filler {
      type: "constant"
      value: 0.2
    }
  }
}
layer {
  name: "inception_4d/relu_pool_proj"
  type: "ReLU"
  bottom: "inception_4d/pool_proj"
  top: "inception_4d/pool_proj"
}
layer {
  name: "inception_4d/output"
  type: "Concat"
  bottom: "inception_4d/1x1"
  bottom: "inception_4d/3x3"
  bottom: "inception_4d/5x5"
  bottom: "inception_4d/pool_proj"
  top: "inception_4d/output"
}
layer {
  name: "loss2/ave_pool"
  type: "Pooling"
  bottom: "inception_4d/output"
  top: "loss2/ave_pool"
  pooling_param {
    pool: AVE
    kernel_size: 5
    stride: 3
  }
}
layer {
  name: "loss2/conv"
  type: "Convolution"
  bottom: "loss2/ave_pool"
  top: "loss2/conv"
  param {
    lr_mult: 1
    decay_mult: 1
  }
  param {
    lr_mult: 2
    decay_mult: 0
  }
  convolution_param {
    num_output: 128
    kernel_size: 1
    weight_filler {
      type: "xavier"
    }
    bias_filler {
      type: "constant"
      value: 0.2
    }
  }
}
layer {
  name: "loss2/relu_conv"
  type: "ReLU"
  bottom: "loss2/conv"
  top: "loss2/conv"
}
layer {
  name: "loss2/fc"
  type: "InnerProduct"
  bottom: "loss2/conv"
  top: "loss2/fc"
  param {
    lr_mult: 1
    decay_mult: 1
  }
  param {
    lr_mult: 2
    decay_mult: 0
  }
  inner_product_param {
    num_output: 1024
    weight_filler {
      type: "xavier"
    }
    bias_filler {
      type: "constant"
      value: 0.2
    }
  }
}
layer {
  name: "loss2/relu_fc"
  type: "ReLU"
  bottom: "loss2/fc"
  top: "loss2/fc"
}
layer {
  name: "loss2/drop_fc"
  type: "Dropout"
  bottom: "loss2/fc"
  top: "loss2/fc"
  dropout_param {
    dropout_ratio: 0.7
  }
}
layer {
  name: "loss2/classifier_kaggle"
  type: "InnerProduct"
  bottom: "loss2/fc"
  top: "loss2/classifier_kaggle"
  param {
    lr_mult: 1
    decay_mult: 1
  }
  param {
    lr_mult: 2
    decay_mult: 0
  }
  inner_product_param {
    num_output: 447
    weight_filler {
      type: "xavier"
    }
    bias_filler {
      type: "constant"
      value: 0
    }
  }
}
layer {
  name: "loss2/loss"
  type: "SoftmaxWithLoss"
  bottom: "loss2/classifier_kaggle"
  bottom: "label"
  top: "loss2/loss1"
  loss_weight: 0.3
}
layer {
  name: "inception_4e/1x1"
  type: "Convolution"
  bottom: "inception_4d/output"
  top: "inception_4e/1x1"
  param {
    lr_mult: 1
    decay_mult: 1
  }
  param {
    lr_mult: 2
    decay_mult: 0
  }
  convolution_param {
    num_output: 256
    kernel_size: 1
    weight_filler {
      type: "xavier"
    }
    bias_filler {
      type: "constant"
      value: 0.2
    }
  }
}
layer {
  name: "inception_4e/relu_1x1"
  type: "ReLU"
  bottom: "inception_4e/1x1"
  top: "inception_4e/1x1"
}
layer {
  name: "inception_4e/3x3_reduce"
  type: "Convolution"
  bottom: "inception_4d/output"
  top: "inception_4e/3x3_reduce"
  param {
    lr_mult: 1
    decay_mult: 1
  }
  param {
    lr_mult: 2
    decay_mult: 0
  }
  convolution_param {
    num_output: 160
    kernel_size: 1
    weight_filler {
      type: "xavier"
    }
    bias_filler {
      type: "constant"
      value: 0.2
    }
  }
}
layer {
  name: "inception_4e/relu_3x3_reduce"
  type: "ReLU"
  bottom: "inception_4e/3x3_reduce"
  top: "inception_4e/3x3_reduce"
}
layer {
  name: "inception_4e/3x3"
  type: "Convolution"
  bottom: "inception_4e/3x3_reduce"
  top: "inception_4e/3x3"
  param {
    lr_mult: 1
    decay_mult: 1
  }
  param {
    lr_mult: 2
    decay_mult: 0
  }
  convolution_param {
    num_output: 320
    pad: 1
    kernel_size: 3
    weight_filler {
      type: "xavier"
    }
    bias_filler {
      type: "constant"
      value: 0.2
    }
  }
}
layer {
  name: "inception_4e/relu_3x3"
  type: "ReLU"
  bottom: "inception_4e/3x3"
  top: "inception_4e/3x3"
}
layer {
  name: "inception_4e/5x5_reduce"
  type: "Convolution"
  bottom: "inception_4d/output"
  top: "inception_4e/5x5_reduce"
  param {
    lr_mult: 1
    decay_mult: 1
  }
  param {
    lr_mult: 2
    decay_mult: 0
  }
  convolution_param {
    num_output: 32
    kernel_size: 1
    weight_filler {
      type: "xavier"
    }
    bias_filler {
      type: "constant"
      value: 0.2
    }
  }
}
layer {
  name: "inception_4e/relu_5x5_reduce"
  type: "ReLU"
  bottom: "inception_4e/5x5_reduce"
  top: "inception_4e/5x5_reduce"
}
layer {
  name: "inception_4e/5x5"
  type: "Convolution"
  bottom: "inception_4e/5x5_reduce"
  top: "inception_4e/5x5"
  param {
    lr_mult: 1
    decay_mult: 1
  }
  param {
    lr_mult: 2
    decay_mult: 0
  }
  convolution_param {
    num_output: 128
    pad: 2
    kernel_size: 5
    weight_filler {
      type: "xavier"
    }
    bias_filler {
      type: "constant"
      value: 0.2
    }
  }
}
layer {
  name: "inception_4e/relu_5x5"
  type: "ReLU"
  bottom: "inception_4e/5x5"
  top: "inception_4e/5x5"
}
layer {
  name: "inception_4e/pool"
  type: "Pooling"
  bottom: "inception_4d/output"
  top: "inception_4e/pool"
  pooling_param {
   
I1216 21:15:57.162770 25674 layer_factory.hpp:74] Creating layer data
I1216 21:15:57.162801 25674 net.cpp:84] Creating Layer data
I1216 21:15:57.162811 25674 net.cpp:338] data -> data
I1216 21:15:57.162847 25674 net.cpp:338] data -> label
I1216 21:15:57.162858 25674 net.cpp:113] Setting up data
I1216 21:15:57.162935 25674 db.cpp:34] Opened lmdb /home/coldmanck/kaggle/kaggle2_train_lmdb
I1216 21:15:57.163180 25674 data_layer.cpp:67] output data size: 80,3,224,224
I1216 21:15:57.910048 25674 net.cpp:120] Top shape: 80 3 224 224 (12042240)
I1216 21:15:57.910142 25674 net.cpp:120] Top shape: 80 (80)
I1216 21:15:57.910172 25674 layer_factory.hpp:74] Creating layer label_data_1_split
I1216 21:15:57.910233 25674 net.cpp:84] Creating Layer label_data_1_split
I1216 21:15:57.910244 25674 net.cpp:380] label_data_1_split <- label
I1216 21:15:57.910262 25674 net.cpp:338] label_data_1_split -> label_data_1_split_0
I1216 21:15:57.910276 25674 net.cpp:338] label_data_1_split -> label_data_1_split_1
I1216 21:15:57.910284 25674 net.cpp:338] label_data_1_split -> label_data_1_split_2
I1216 21:15:57.910292 25674 net.cpp:113] Setting up label_data_1_split
I1216 21:15:57.910305 25674 net.cpp:120] Top shape: 80 (80)
I1216 21:15:57.910327 25674 net.cpp:120] Top shape: 80 (80)
I1216 21:15:57.910351 25674 net.cpp:120] Top shape: 80 (80)
I1216 21:15:57.910359 25674 layer_factory.hpp:74] Creating layer conv1/7x7_s2
I1216 21:15:57.910379 25674 net.cpp:84] Creating Layer conv1/7x7_s2
I1216 21:15:57.910387 25674 net.cpp:380] conv1/7x7_s2 <- data
I1216 21:15:57.910399 25674 net.cpp:338] conv1/7x7_s2 -> conv1/7x7_s2
I1216 21:15:57.910411 25674 net.cpp:113] Setting up conv1/7x7_s2
I1216 21:15:58.205577 25674 net.cpp:120] Top shape: 80 64 112 112 (64225280)
I1216 21:15:58.205665 25674 layer_factory.hpp:74] Creating layer conv1/relu_7x7
I1216 21:15:58.205683 25674 net.cpp:84] Creating Layer conv1/relu_7x7
I1216 21:15:58.205693 25674 net.cpp:380] conv1/relu_7x7 <- conv1/7x7_s2
I1216 21:15:58.205708 25674 net.cpp:327] conv1/relu_7x7 -> conv1/7x7_s2 (in-place)
I1216 21:15:58.205724 25674 net.cpp:113] Setting up conv1/relu_7x7
I1216 21:15:58.212858 25674 net.cpp:120] Top shape: 80 64 112 112 (64225280)
I1216 21:15:58.212877 25674 layer_factory.hpp:74] Creating layer pool1/3x3_s2
I1216 21:15:58.212896 25674 net.cpp:84] Creating Layer pool1/3x3_s2
I1216 21:15:58.212905 25674 net.cpp:380] pool1/3x3_s2 <- conv1/7x7_s2
I1216 21:15:58.212918 25674 net.cpp:338] pool1/3x3_s2 -> pool1/3x3_s2
I1216 21:15:58.212930 25674 net.cpp:113] Setting up pool1/3x3_s2
I1216 21:15:58.213028 25674 net.cpp:120] Top shape: 80 64 56 56 (16056320)
I1216 21:15:58.213040 25674 layer_factory.hpp:74] Creating layer pool1/norm1
I1216 21:15:58.213053 25674 net.cpp:84] Creating Layer pool1/norm1
I1216 21:15:58.213085 25674 net.cpp:380] pool1/norm1 <- pool1/3x3_s2
I1216 21:15:58.213096 25674 net.cpp:338] pool1/norm1 -> pool1/norm1
I1216 21:15:58.213111 25674 net.cpp:113] Setting up pool1/norm1
I1216 21:15:58.213124 25674 net.cpp:120] Top shape: 80 64 56 56 (16056320)
I1216 21:15:58.213135 25674 layer_factory.hpp:74] Creating layer conv2/3x3_reduce
I1216 21:15:58.213151 25674 net.cpp:84] Creating Layer conv2/3x3_reduce
I1216 21:15:58.213160 25674 net.cpp:380] conv2/3x3_reduce <- pool1/norm1
I1216 21:15:58.213172 25674 net.cpp:338] conv2/3x3_reduce -> conv2/3x3_reduce
I1216 21:15:58.213189 25674 net.cpp:113] Setting up conv2/3x3_reduce
I1216 21:15:58.214207 25674 net.cpp:120] Top shape: 80 64 56 56 (16056320)
I1216 21:15:58.214231 25674 layer_factory.hpp:74] Creating layer conv2/relu_3x3_reduce
I1216 21:15:58.214243 25674 net.cpp:84] Creating Layer conv2/relu_3x3_reduce
I1216 21:15:58.214251 25674 net.cpp:380] conv2/relu_3x3_reduce <- conv2/3x3_reduce
I1216 21:15:58.214263 25674 net.cpp:327] conv2/relu_3x3_reduce -> conv2/3x3_reduce (in-place)
I1216 21:15:58.214272 25674 net.cpp:113] Setting up conv2/relu_3x3_reduce
I1216 21:15:58.214352 25674 net.cpp:120] Top shape: 80 64 56 56 (16056320)
I1216 21:15:58.214365 25674 layer_factory.hpp:74] Creating layer conv2/3x3
I1216 21:15:58.214380 25674 net.cpp:84] Creating Layer conv2/3x3
I1216 21:15:58.214390 25674 net.cpp:380] conv2/3x3 <- conv2/3x3_reduce
I1216 21:15:58.214402 25674 net.cpp:338] conv2/3x3 -> conv2/3x3
I1216 21:15:58.214414 25674 net.cpp:113] Setting up conv2/3x3
I1216 21:15:58.215997 25674 net.cpp:120] Top shape: 80 192 56 56 (48168960)
I1216 21:15:58.216022 25674 layer_factory.hpp:74] Creating layer conv2/relu_3x3
I1216 21:15:58.216033 25674 net.cpp:84] Creating Layer conv2/relu_3x3
I1216 21:15:58.216042 25674 net.cpp:380] conv2/relu_3x3 <- conv2/3x3
I1216 21:15:58.216053 25674 net.cpp:327] conv2/relu_3x3 -> conv2/3x3 (in-place)
I1216 21:15:58.216064 25674 net.cpp:113] Setting up conv2/relu_3x3
I1216 21:15:58.216639 25674 net.cpp:120] Top shape: 80 192 56 56 (48168960)
I1216 21:15:58.216657 25674 layer_factory.hpp:74] Creating layer conv2/norm2
I1216 21:15:58.216670 25674 net.cpp:84] Creating Layer conv2/norm2
I1216 21:15:58.216678 25674 net.cpp:380] conv2/norm2 <- conv2/3x3
I1216 21:15:58.216691 25674 net.cpp:338] conv2/norm2 -> conv2/norm2
I1216 21:15:58.216703 25674 net.cpp:113] Setting up conv2/norm2
I1216 21:15:58.216717 25674 net.cpp:120] Top shape: 80 192 56 56 (48168960)
I1216 21:15:58.216727 25674 layer_factory.hpp:74] Creating layer pool2/3x3_s2
I1216 21:15:58.216758 25674 net.cpp:84] Creating Layer pool2/3x3_s2
I1216 21:15:58.216763 25674 net.cpp:380] pool2/3x3_s2 <- conv2/norm2
I1216 21:15:58.216770 25674 net.cpp:338] pool2/3x3_s2 -> pool2/3x3_s2
I1216 21:15:58.216779 25674 net.cpp:113] Setting up pool2/3x3_s2
I1216 21:15:58.216862 25674 net.cpp:120] Top shape: 80 192 28 28 (12042240)
I1216 21:15:58.216874 25674 layer_factory.hpp:74] Creating layer pool2/3x3_s2_pool2/3x3_s2_0_split
I1216 21:15:58.216886 25674 net.cpp:84] Creating Layer pool2/3x3_s2_pool2/3x3_s2_0_split
I1216 21:15:58.216892 25674 net.cpp:380] pool2/3x3_s2_pool2/3x3_s2_0_split <- pool2/3x3_s2
I1216 21:15:58.216903 25674 net.cpp:338] pool2/3x3_s2_pool2/3x3_s2_0_split -> pool2/3x3_s2_pool2/3x3_s2_0_split_0
I1216 21:15:58.216915 25674 net.cpp:338] pool2/3x3_s2_pool2/3x3_s2_0_split -> pool2/3x3_s2_pool2/3x3_s2_0_split_1
I1216 21:15:58.216928 25674 net.cpp:338] pool2/3x3_s2_pool2/3x3_s2_0_split -> pool2/3x3_s2_pool2/3x3_s2_0_split_2
I1216 21:15:58.216938 25674 net.cpp:338] pool2/3x3_s2_pool2/3x3_s2_0_split -> pool2/3x3_s2_pool2/3x3_s2_0_split_3
I1216 21:15:58.216949 25674 net.cpp:113] Setting up pool2/3x3_s2_pool2/3x3_s2_0_split
I1216 21:15:58.216963 25674 net.cpp:120] Top shape: 80 192 28 28 (12042240)
I1216 21:15:58.216970 25674 net.cpp:120] Top shape: 80 192 28 28 (12042240)
I1216 21:15:58.216975 25674 net.cpp:120] Top shape: 80 192 28 28 (12042240)
I1216 21:15:58.216979 25674 net.cpp:120] Top shape: 80 192 28 28 (12042240)
I1216 21:15:58.216984 25674 layer_factory.hpp:74] Creating layer inception_3a/1x1
I1216 21:15:58.216994 25674 net.cpp:84] Creating Layer inception_3a/1x1
I1216 21:15:58.216998 25674 net.cpp:380] inception_3a/1x1 <- pool2/3x3_s2_pool2/3x3_s2_0_split_0
I1216 21:15:58.217010 25674 net.cpp:338] inception_3a/1x1 -> inception_3a/1x1
I1216 21:15:58.217036 25674 net.cpp:113] Setting up inception_3a/1x1
I1216 21:15:58.217717 25674 net.cpp:120] Top shape: 80 64 28 28 (4014080)
I1216 21:15:58.217739 25674 layer_factory.hpp:74] Creating layer inception_3a/relu_1x1
I1216 21:15:58.217751 25674 net.cpp:84] Creating Layer inception_3a/relu_1x1
I1216 21:15:58.217758 25674 net.cpp:380] inception_3a/relu_1x1 <- inception_3a/1x1
I1216 21:15:58.217771 25674 net.cpp:327] inception_3a/relu_1x1 -> inception_3a/1x1 (in-place)
I1216 21:15:58.217782 25674 net.cpp:113] Setting up inception_3a/relu_1x1
I1216 21:15:58.218189 25674 net.cpp:120] Top shape: 80 64 28 28 (4014080)
I1216 21:15:58.218202 25674 layer_factory.hpp:74] Creating layer inception_3a/3x3_reduce
I1216 21:15:58.218214 25674 net.cpp:84] Creating Layer inception_3a/3x3_reduce
I1216 21:15:58.218224 25674 net.cpp:380] inception_3a/3x3_reduce <- pool2/3x3_s2_pool2/3x3_s2_0_split_1
I1216 21:15:58.218235 25674 net.cpp:338] inception_3a/3x3_reduce -> inception_3a/3x3_reduce
I1216 21:15:58.218247 25674 net.cpp:113] Setting up inception_3a/3x3_reduce
I1216 21:15:58.219555 25674 net.cpp:120] Top shape: 80 96 28 28 (6021120)
I1216 21:15:58.219579 25674 layer_factory.hpp:74] Creating layer inception_3a/relu_3x3_reduce
I1216 21:15:58.219597 25674 net.cpp:84] Creating Layer inception_3a/relu_3x3_reduce
I1216 21:15:58.219609 25674 net.cpp:380] inception_3a/relu_3x3_reduce <- inception_3a/3x3_reduce
I1216 21:15:58.219619 25674 net.cpp:327] inception_3a/relu_3x3_reduce -> inception_3a/3x3_reduce (in-place)
I1216 21:15:58.219631 25674 net.cpp:113] Setting up inception_3a/relu_3x3_reduce
I1216 21:15:58.219811 25674 net.cpp:120] Top shape: 80 96 28 28 (6021120)
I1216 21:15:58.219825 25674 layer_factory.hpp:74] Creating layer inception_3a/3x3
I1216 21:15:58.219842 25674 net.cpp:84] Creating Layer inception_3a/3x3
I1216 21:15:58.219851 25674 net.cpp:380] inception_3a/3x3 <- inception_3a/3x3_reduce
I1216 21:15:58.219862 25674 net.cpp:338] inception_3a/3x3 -> inception_3a/3x3
I1216 21:15:58.219877 25674 net.cpp:113] Setting up inception_3a/3x3
I1216 21:15:58.222147 25674 net.cpp:120] Top shape: 80 128 28 28 (8028160)
I1216 21:15:58.222172 25674 layer_factory.hpp:74] Creating layer inception_3a/relu_3x3
I1216 21:15:58.222185 25674 net.cpp:84] Creating Layer inception_3a/relu_3x3
I1216 21:15:58.222199 25674 net.cpp:380] inception_3a/relu_3x3 <- inception_3a/3x3
I1216 21:15:58.222211 25674 net.cpp:327] inception_3a/relu_3x3 -> inception_3a/3x3 (in-place)
I1216 21:15:58.222223 25674 net.cpp:113] Setting up inception_3a/relu_3x3
I1216 21:15:58.222544 25674 net.cpp:120] Top shape: 80 128 28 28 (8028160)
I1216 21:15:58.222559 25674 layer_factory.hpp:74] Creating layer inception_3a/5x5_reduce
I1216 21:15:58.222576 25674 net.cpp:84] Creating Layer inception_3a/5x5_reduce
I1216 21:15:58.222586 25674 net.cpp:380] inception_3a/5x5_reduce <- pool2/3x3_s2_pool2/3x3_s2_0_split_2
I1216 21:15:58.222606 25674 net.cpp:338] inception_3a/5x5_reduce -> inception_3a/5x5_reduce
I1216 21:15:58.222627 25674 net.cpp:113] Setting up inception_3a/5x5_reduce
I1216 21:15:58.223218 25674 net.cpp:120] Top shape: 80 16 28 28 (1003520)
I1216 21:15:58.223239 25674 layer_factory.hpp:74] Creating layer inception_3a/relu_5x5_reduce
I1216 21:15:58.223256 25674 net.cpp:84] Creating Layer inception_3a/relu_5x5_reduce
I1216 21:15:58.223266 25674 net.cpp:380] inception_3a/relu_5x5_reduce <- inception_3a/5x5_reduce
I1216 21:15:58.223276 25674 net.cpp:327] inception_3a/relu_5x5_reduce -> inception_3a/5x5_reduce (in-place)
I1216 21:15:58.223289 25674 net.cpp:113] Setting up inception_3a/relu_5x5_reduce
I1216 21:15:58.223392 25674 net.cpp:120] Top shape: 80 16 28 28 (1003520)
I1216 21:15:58.223407 25674 layer_factory.hpp:74] Creating layer inception_3a/5x5
I1216 21:15:58.223423 25674 net.cpp:84] Creating Layer inception_3a/5x5
I1216 21:15:58.223431 25674 net.cpp:380] inception_3a/5x5 <- inception_3a/5x5_reduce
I1216 21:15:58.223444 25674 net.cpp:338] inception_3a/5x5 -> inception_3a/5x5
I1216 21:15:58.223458 25674 net.cpp:113] Setting up inception_3a/5x5
I1216 21:15:58.224231 25674 net.cpp:120] Top shape: 80 32 28 28 (2007040)
I1216 21:15:58.224253 25674 layer_factory.hpp:74] Creating layer inception_3a/relu_5x5
I1216 21:15:58.224267 25674 net.cpp:84] Creating Layer inception_3a/relu_5x5
I1216 21:15:58.224275 25674 net.cpp:380] inception_3a/relu_5x5 <- inception_3a/5x5
I1216 21:15:58.224288 25674 net.cpp:327] inception_3a/relu_5x5 -> inception_3a/5x5 (in-place)
I1216 21:15:58.224302 25674 net.cpp:113] Setting up inception_3a/relu_5x5
I1216 21:15:58.224427 25674 net.cpp:120] Top shape: 80 32 28 28 (2007040)
I1216 21:15:58.224438 25674 layer_factory.hpp:74] Creating layer inception_3a/pool
I1216 21:15:58.224445 25674 layer_factory.cpp:56] CUDNN does not support padding or multiple tops. Using Caffe's own pooling layer.
I1216 21:15:58.224457 25674 net.cpp:84] Creating Layer inception_3a/pool
I1216 21:15:58.224467 25674 net.cpp:380] inception_3a/pool <- pool2/3x3_s2_pool2/3x3_s2_0_split_3
I1216 21:15:58.224481 25674 net.cpp:338] inception_3a/pool -> inception_3a/pool
I1216 21:15:58.224496 25674 net.cpp:113] Setting up inception_3a/pool
I1216 21:15:58.224511 25674 net.cpp:120] Top shape: 80 192 28 28 (12042240)
I1216 21:15:58.224520 25674 layer_factory.hpp:74] Creating layer inception_3a/pool_proj
I1216 21:15:58.224534 25674 net.cpp:84] Creating Layer inception_3a/pool_proj
I1216 21:15:58.224541 25674 net.cpp:380] inception_3a/pool_proj <- inception_3a/pool
I1216 21:15:58.224555 25674 net.cpp:338] inception_3a/pool_proj -> inception_3a/pool_proj
I1216 21:15:58.224568 25674 net.cpp:113] Setting up inception_3a/pool_proj
I1216 21:15:58.225291 25674 net.cpp:120] Top shape: 80 32 28 28 (2007040)
I1216 21:15:58.225320 25674 layer_factory.hpp:74] Creating layer inception_3a/relu_pool_proj
I1216 21:15:58.225334 25674 net.cpp:84] Creating Layer inception_3a/relu_pool_proj
I1216 21:15:58.225343 25674 net.cpp:380] inception_3a/relu_pool_proj <- inception_3a/pool_proj
I1216 21:15:58.225358 25674 net.cpp:327] inception_3a/relu_pool_proj -> inception_3a/pool_proj (in-place)
I1216 21:15:58.225370 25674 net.cpp:113] Setting up inception_3a/relu_pool_proj
I1216 21:15:58.225484 25674 net.cpp:120] Top shape: 80 32 28 28 (2007040)
I1216 21:15:58.225498 25674 layer_factory.hpp:74] Creating layer inception_3a/output
I1216 21:15:58.225528 25674 net.cpp:84] Creating Layer inception_3a/output
I1216 21:15:58.225546 25674 net.cpp:380] inception_3a/output <- inception_3a/1x1
I1216 21:15:58.225558 25674 net.cpp:380] inception_3a/output <- inception_3a/3x3
I1216 21:15:58.225564 25674 net.cpp:380] inception_3a/output <- inception_3a/5x5
I1216 21:15:58.225569 25674 net.cpp:380] inception_3a/output <- inception_3a/pool_proj
I1216 21:15:58.225579 25674 net.cpp:338] inception_3a/output -> inception_3a/output
I1216 21:15:58.225591 25674 net.cpp:113] Setting up inception_3a/output
I1216 21:15:58.225605 25674 net.cpp:120] Top shape: 80 256 28 28 (16056320)
I1216 21:15:58.225613 25674 layer_factory.hpp:74] Creating layer inception_3a/output_inception_3a/output_0_split
I1216 21:15:58.225626 25674 net.cpp:84] Creating Layer inception_3a/output_inception_3a/output_0_split
I1216 21:15:58.225636 25674 net.cpp:380] inception_3a/output_inception_3a/output_0_split <- inception_3a/output
I1216 21:15:58.225646 25674 net.cpp:338] inception_3a/output_inception_3a/output_0_split -> inception_3a/output_inception_3a/output_0_split_0
I1216 21:15:58.225658 25674 net.cpp:338] inception_3a/output_inception_3a/output_0_split -> inception_3a/output_inception_3a/output_0_split_1
I1216 21:15:58.225671 25674 net.cpp:338] inception_3a/output_inception_3a/output_0_split -> inception_3a/output_inception_3a/output_0_split_2
I1216 21:15:58.225682 25674 net.cpp:338] inception_3a/output_inception_3a/output_0_split -> inception_3a/output_inception_3a/output_0_split_3
I1216 21:15:58.225692 25674 net.cpp:113] Setting up inception_3a/output_inception_3a/output_0_split
I1216 21:15:58.225706 25674 net.cpp:120] Top shape: 80 256 28 28 (16056320)
I1216 21:15:58.225716 25674 net.cpp:120] Top shape: 80 256 28 28 (16056320)
I1216 21:15:58.225725 25674 net.cpp:120] Top shape: 80 256 28 28 (16056320)
I1216 21:15:58.225735 25674 net.cpp:120] Top shape: 80 256 28 28 (16056320)
I1216 21:15:58.225742 25674 layer_factory.hpp:74] Creating layer inception_3b/1x1
I1216 21:15:58.225762 25674 net.cpp:84] Creating Layer inception_3b/1x1
I1216 21:15:58.225769 25674 net.cpp:380] inception_3b/1x1 <- inception_3a/output_inception_3a/output_0_split_0
I1216 21:15:58.225782 25674 net.cpp:338] inception_3b/1x1 -> inception_3b/1x1
I1216 21:15:58.225797 25674 net.cpp:113] Setting up inception_3b/1x1
I1216 21:15:58.226989 25674 net.cpp:120] Top shape: 80 128 28 28 (8028160)
I1216 21:15:58.227010 25674 layer_factory.hpp:74] Creating layer inception_3b/relu_1x1
I1216 21:15:58.227020 25674 net.cpp:84] Creating Layer inception_3b/relu_1x1
I1216 21:15:58.227026 25674 net.cpp:380] inception_3b/relu_1x1 <- inception_3b/1x1
I1216 21:15:58.227036 25674 net.cpp:327] inception_3b/relu_1x1 -> inception_3b/1x1 (in-place)
I1216 21:15:58.227048 25674 net.cpp:113] Setting up inception_3b/relu_1x1
I1216 21:15:58.227391 25674 net.cpp:120] Top shape: 80 128 28 28 (8028160)
I1216 21:15:58.227406 25674 layer_factory.hpp:74] Creating layer inception_3b/3x3_reduce
I1216 21:15:58.227422 25674 net.cpp:84] Creating Layer inception_3b/3x3_reduce
I1216 21:15:58.227432 25674 net.cpp:380] inception_3b/3x3_reduce <- inception_3a/output_inception_3a/output_0_split_1
I1216 21:15:58.227448 25674 net.cpp:338] inception_3b/3x3_reduce -> inception_3b/3x3_reduce
I1216 21:15:58.227460 25674 net.cpp:113] Setting up inception_3b/3x3_reduce
I1216 21:15:58.228468 25674 net.cpp:120] Top shape: 80 128 28 28 (8028160)
I1216 21:15:58.228495 25674 layer_factory.hpp:74] Creating layer inception_3b/relu_3x3_reduce
I1216 21:15:58.228510 25674 net.cpp:84] Creating Layer inception_3b/relu_3x3_reduce
I1216 21:15:58.228521 25674 net.cpp:380] inception_3b/relu_3x3_reduce <- inception_3b/3x3_reduce
I1216 21:15:58.228533 25674 net.cpp:327] inception_3b/relu_3x3_reduce -> inception_3b/3x3_reduce (in-place)
I1216 21:15:58.228548 25674 net.cpp:113] Setting up inception_3b/relu_3x3_reduce
I1216 21:15:58.228647 25674 net.cpp:120] Top shape: 80 128 28 28 (8028160)
I1216 21:15:58.228662 25674 layer_factory.hpp:74] Creating layer inception_3b/3x3
I1216 21:15:58.228689 25674 net.cpp:84] Creating Layer inception_3b/3x3
I1216 21:15:58.228708 25674 net.cpp:380] inception_3b/3x3 <- inception_3b/3x3_reduce
I1216 21:15:58.228724 25674 net.cpp:338] inception_3b/3x3 -> inception_3b/3x3
I1216 21:15:58.228745 25674 net.cpp:113] Setting up inception_3b/3x3
I1216 21:15:58.233388 25674 net.cpp:120] Top shape: 80 192 28 28 (12042240)
I1216 21:15:58.233413 25674 layer_factory.hpp:74] Creating layer inception_3b/relu_3x3
I1216 21:15:58.233429 25674 net.cpp:84] Creating Layer inception_3b/relu_3x3
I1216 21:15:58.233440 25674 net.cpp:380] inception_3b/relu_3x3 <- inception_3b/3x3
I1216 21:15:58.233453 25674 net.cpp:327] inception_3b/relu_3x3 -> inception_3b/3x3 (in-place)
I1216 21:15:58.233467 25674 net.cpp:113] Setting up inception_3b/relu_3x3
I1216 21:15:58.233582 25674 net.cpp:120] Top shape: 80 192 28 28 (12042240)
I1216 21:15:58.233599 25674 layer_factory.hpp:74] Creating layer inception_3b/5x5_reduce
I1216 21:15:58.233616 25674 net.cpp:84] Creating Layer inception_3b/5x5_reduce
I1216 21:15:58.233628 25674 net.cpp:380] inception_3b/5x5_reduce <- inception_3a/output_inception_3a/output_0_split_2
I1216 21:15:58.233642 25674 net.cpp:338] inception_3b/5x5_reduce -> inception_3b/5x5_reduce
I1216 21:15:58.233669 25674 net.cpp:113] Setting up inception_3b/5x5_reduce
I1216 21:15:58.234370 25674 net.cpp:120] Top shape: 80 32 28 28 (2007040)
I1216 21:15:58.234396 25674 layer_factory.hpp:74] Creating layer inception_3b/relu_5x5_reduce
I1216 21:15:58.234410 25674 net.cpp:84] Creating Layer inception_3b/relu_5x5_reduce
I1216 21:15:58.234419 25674 net.cpp:380] inception_3b/relu_5x5_reduce <- inception_3b/5x5_reduce
I1216 21:15:58.234432 25674 net.cpp:327] inception_3b/relu_5x5_reduce -> inception_3b/5x5_reduce (in-place)
I1216 21:15:58.234447 25674 net.cpp:113] Setting up inception_3b/relu_5x5_reduce
I1216 21:15:58.234540 25674 net.cpp:120] Top shape: 80 32 28 28 (2007040)
I1216 21:15:58.234555 25674 layer_factory.hpp:74] Creating layer inception_3b/5x5
I1216 21:15:58.234570 25674 net.cpp:84] Creating Layer inception_3b/5x5
I1216 21:15:58.234578 25674 net.cpp:380] inception_3b/5x5 <- inception_3b/5x5_reduce
I1216 21:15:58.234594 25674 net.cpp:338] inception_3b/5x5 -> inception_3b/5x5
I1216 21:15:58.234621 25674 net.cpp:113] Setting up inception_3b/5x5
I1216 21:15:58.236218 25674 net.cpp:120] Top shape: 80 96 28 28 (6021120)
I1216 21:15:58.236237 25674 layer_factory.hpp:74] Creating layer inception_3b/relu_5x5
I1216 21:15:58.236250 25674 net.cpp:84] Creating Layer inception_3b/relu_5x5
I1216 21:15:58.236259 25674 net.cpp:380] inception_3b/relu_5x5 <- inception_3b/5x5
I1216 21:15:58.236271 25674 net.cpp:327] inception_3b/relu_5x5 -> inception_3b/5x5 (in-place)
I1216 21:15:58.236284 25674 net.cpp:113] Setting up inception_3b/relu_5x5
I1216 21:15:58.236621 25674 net.cpp:120] Top shape: 80 96 28 28 (6021120)
I1216 21:15:58.236634 25674 layer_factory.hpp:74] Creating layer inception_3b/pool
I1216 21:15:58.236640 25674 layer_factory.cpp:56] CUDNN does not support padding or multiple tops. Using Caffe's own pooling layer.
I1216 21:15:58.236646 25674 net.cpp:84] Creating Layer inception_3b/pool
I1216 21:15:58.236651 25674 net.cpp:380] inception_3b/pool <- inception_3a/output_inception_3a/output_0_split_3
I1216 21:15:58.236661 25674 net.cpp:338] inception_3b/pool -> inception_3b/pool
I1216 21:15:58.236675 25674 net.cpp:113] Setting up inception_3b/pool
I1216 21:15:58.236691 25674 net.cpp:120] Top shape: 80 256 28 28 (16056320)
I1216 21:15:58.236699 25674 layer_factory.hpp:74] Creating layer inception_3b/pool_proj
I1216 21:15:58.236717 25674 net.cpp:84] Creating Layer inception_3b/pool_proj
I1216 21:15:58.236728 25674 net.cpp:380] inception_3b/pool_proj <- inception_3b/pool
I1216 21:15:58.236740 25674 net.cpp:338] inception_3b/pool_proj -> inception_3b/pool_proj
I1216 21:15:58.236755 25674 net.cpp:113] Setting up inception_3b/pool_proj
I1216 21:15:58.237596 25674 net.cpp:120] Top shape: 80 64 28 28 (4014080)
I1216 21:15:58.237622 25674 layer_factory.hpp:74] Creating layer inception_3b/relu_pool_proj
I1216 21:15:58.237643 25674 net.cpp:84] Creating Layer inception_3b/relu_pool_proj
I1216 21:15:58.237664 25674 net.cpp:380] inception_3b/relu_pool_proj <- inception_3b/pool_proj
I1216 21:15:58.237680 25674 net.cpp:327] inception_3b/relu_pool_proj -> inception_3b/pool_proj (in-place)
I1216 21:15:58.237694 25674 net.cpp:113] Setting up inception_3b/relu_pool_proj
I1216 21:15:58.237803 25674 net.cpp:120] Top shape: 80 64 28 28 (4014080)
I1216 21:15:58.237818 25674 layer_factory.hpp:74] Creating layer inception_3b/output
I1216 21:15:58.237833 25674 net.cpp:84] Creating Layer inception_3b/output
I1216 21:15:58.237841 25674 net.cpp:380] inception_3b/output <- inception_3b/1x1
I1216 21:15:58.237853 25674 net.cpp:380] inception_3b/output <- inception_3b/3x3
I1216 21:15:58.237861 25674 net.cpp:380] inception_3b/output <- inception_3b/5x5
I1216 21:15:58.237869 25674 net.cpp:380] inception_3b/output <- inception_3b/pool_proj
I1216 21:15:58.237877 25674 net.cpp:338] inception_3b/output -> inception_3b/output
I1216 21:15:58.237890 25674 net.cpp:113] Setting up inception_3b/output
I1216 21:15:58.237906 25674 net.cpp:120] Top shape: 80 480 28 28 (30105600)
I1216 21:15:58.237915 25674 layer_factory.hpp:74] Creating layer pool3/3x3_s2
I1216 21:15:58.237931 25674 net.cpp:84] Creating Layer pool3/3x3_s2
I1216 21:15:58.237941 25674 net.cpp:380] pool3/3x3_s2 <- inception_3b/output
I1216 21:15:58.237952 25674 net.cpp:338] pool3/3x3_s2 -> pool3/3x3_s2
I1216 21:15:58.237965 25674 net.cpp:113] Setting up pool3/3x3_s2
I1216 21:15:58.238066 25674 net.cpp:120] Top shape: 80 480 14 14 (7526400)
I1216 21:15:58.238076 25674 layer_factory.hpp:74] Creating layer pool3/3x3_s2_pool3/3x3_s2_0_split
I1216 21:15:58.238090 25674 net.cpp:84] Creating Layer pool3/3x3_s2_pool3/3x3_s2_0_split
I1216 21:15:58.238100 25674 net.cpp:380] pool3/3x3_s2_pool3/3x3_s2_0_split <- pool3/3x3_s2
I1216 21:15:58.238111 25674 net.cpp:338] pool3/3x3_s2_pool3/3x3_s2_0_split -> pool3/3x3_s2_pool3/3x3_s2_0_split_0
I1216 21:15:58.238126 25674 net.cpp:338] pool3/3x3_s2_pool3/3x3_s2_0_split -> pool3/3x3_s2_pool3/3x3_s2_0_split_1
I1216 21:15:58.238138 25674 net.cpp:338] pool3/3x3_s2_pool3/3x3_s2_0_split -> pool3/3x3_s2_pool3/3x3_s2_0_split_2
I1216 21:15:58.238147 25674 net.cpp:338] pool3/3x3_s2_pool3/3x3_s2_0_split -> pool3/3x3_s2_pool3/3x3_s2_0_split_3
I1216 21:15:58.238154 25674 net.cpp:113] Setting up pool3/3x3_s2_pool3/3x3_s2_0_split
I1216 21:15:58.238168 25674 net.cpp:120] Top shape: 80 480 14 14 (7526400)
I1216 21:15:58.238175 25674 net.cpp:120] Top shape: 80 480 14 14 (7526400)
I1216 21:15:58.238184 25674 net.cpp:120] Top shape: 80 480 14 14 (7526400)
I1216 21:15:58.238193 25674 net.cpp:120] Top shape: 80 480 14 14 (7526400)
I1216 21:15:58.238203 25674 layer_factory.hpp:74] Creating layer inception_4a/1x1
I1216 21:15:58.238216 25674 net.cpp:84] Creating Layer inception_4a/1x1
I1216 21:15:58.238227 25674 net.cpp:380] inception_4a/1x1 <- pool3/3x3_s2_pool3/3x3_s2_0_split_0
I1216 21:15:58.238241 25674 net.cpp:338] inception_4a/1x1 -> inception_4a/1x1
I1216 21:15:58.238255 25674 net.cpp:113] Setting up inception_4a/1x1
I1216 21:15:58.240037 25674 net.cpp:120] Top shape: 80 192 14 14 (3010560)
I1216 21:15:58.240062 25674 layer_factory.hpp:74] Creating layer inception_4a/relu_1x1
I1216 21:15:58.240077 25674 net.cpp:84] Creating Layer inception_4a/relu_1x1
I1216 21:15:58.240088 25674 net.cpp:380] inception_4a/relu_1x1 <- inception_4a/1x1
I1216 21:15:58.240103 25674 net.cpp:327] inception_4a/relu_1x1 -> inception_4a/1x1 (in-place)
I1216 21:15:58.240115 25674 net.cpp:113] Setting up inception_4a/relu_1x1
I1216 21:15:58.240442 25674 net.cpp:120] Top shape: 80 192 14 14 (3010560)
I1216 21:15:58.240460 25674 layer_factory.hpp:74] Creating layer inception_4a/3x3_reduce
I1216 21:15:58.240478 25674 net.cpp:84] Creating Layer inception_4a/3x3_reduce
I1216 21:15:58.240489 25674 net.cpp:380] inception_4a/3x3_reduce <- pool3/3x3_s2_pool3/3x3_s2_0_split_1
I1216 21:15:58.240504 25674 net.cpp:338] inception_4a/3x3_reduce -> inception_4a/3x3_reduce
I1216 21:15:58.240520 25674 net.cpp:113] Setting up inception_4a/3x3_reduce
I1216 21:15:58.241742 25674 net.cpp:120] Top shape: 80 96 14 14 (1505280)
I1216 21:15:58.241789 25674 layer_factory.hpp:74] Creating layer inception_4a/relu_3x3_reduce
I1216 21:15:58.241806 25674 net.cpp:84] Creating Layer inception_4a/relu_3x3_reduce
I1216 21:15:58.241816 25674 net.cpp:380] inception_4a/relu_3x3_reduce <- inception_4a/3x3_reduce
I1216 21:15:58.241828 25674 net.cpp:327] inception_4a/relu_3x3_reduce -> inception_4a/3x3_reduce (in-place)
I1216 21:15:58.241842 25674 net.cpp:113] Setting up inception_4a/relu_3x3_reduce
I1216 21:15:58.241935 25674 net.cpp:120] Top shape: 80 96 14 14 (1505280)
I1216 21:15:58.241946 25674 layer_factory.hpp:74] Creating layer inception_4a/3x3
I1216 21:15:58.241964 25674 net.cpp:84] Creating Layer inception_4a/3x3
I1216 21:15:58.241974 25674 net.cpp:380] inception_4a/3x3 <- inception_4a/3x3_reduce
I1216 21:15:58.241986 25674 net.cpp:338] inception_4a/3x3 -> inception_4a/3x3
I1216 21:15:58.242002 25674 net.cpp:113] Setting up inception_4a/3x3
I1216 21:15:58.244784 25674 net.cpp:120] Top shape: 80 208 14 14 (3261440)
I1216 21:15:58.244804 25674 layer_factory.hpp:74] Creating layer inception_4a/relu_3x3
I1216 21:15:58.244814 25674 net.cpp:84] Creating Layer inception_4a/relu_3x3
I1216 21:15:58.244822 25674 net.cpp:380] inception_4a/relu_3x3 <- inception_4a/3x3
I1216 21:15:58.244829 25674 net.cpp:327] inception_4a/relu_3x3 -> inception_4a/3x3 (in-place)
I1216 21:15:58.244837 25674 net.cpp:113] Setting up inception_4a/relu_3x3
I1216 21:15:58.244928 25674 net.cpp:120] Top shape: 80 208 14 14 (3261440)
I1216 21:15:58.244940 25674 layer_factory.hpp:74] Creating layer inception_4a/5x5_reduce
I1216 21:15:58.244954 25674 net.cpp:84] Creating Layer inception_4a/5x5_reduce
I1216 21:15:58.244963 25674 net.cpp:380] inception_4a/5x5_reduce <- pool3/3x3_s2_pool3/3x3_s2_0_split_2
I1216 21:15:58.244977 25674 net.cpp:338] inception_4a/5x5_reduce -> inception_4a/5x5_reduce
I1216 21:15:58.244992 25674 net.cpp:113] Setting up inception_4a/5x5_reduce
I1216 21:15:58.245643 25674 net.cpp:120] Top shape: 80 16 14 14 (250880)
I1216 21:15:58.245666 25674 layer_factory.hpp:74] Creating layer inception_4a/relu_5x5_reduce
I1216 21:15:58.245677 25674 net.cpp:84] Creating Layer inception_4a/relu_5x5_reduce
I1216 21:15:58.245687 25674 net.cpp:380] inception_4a/relu_5x5_reduce <- inception_4a/5x5_reduce
I1216 21:15:58.245705 25674 net.cpp:327] inception_4a/relu_5x5_reduce -> inception_4a/5x5_reduce (in-place)
I1216 21:15:58.245718 25674 net.cpp:113] Setting up inception_4a/relu_5x5_reduce
I1216 21:15:58.245798 25674 net.cpp:120] Top shape: 80 16 14 14 (250880)
I1216 21:15:58.245810 25674 layer_factory.hpp:74] Creating layer inception_4a/5x5
I1216 21:15:58.245826 25674 net.cpp:84] Creating Layer inception_4a/5x5
I1216 21:15:58.245831 25674 net.cpp:380] inception_4a/5x5 <- inception_4a/5x5_reduce
I1216 21:15:58.245839 25674 net.cpp:338] inception_4a/5x5 -> inception_4a/5x5
I1216 21:15:58.245848 25674 net.cpp:113] Setting up inception_4a/5x5
I1216 21:15:58.246598 25674 net.cpp:120] Top shape: 80 48 14 14 (752640)
I1216 21:15:58.246621 25674 layer_factory.hpp:74] Creating layer inception_4a/relu_5x5
I1216 21:15:58.246634 25674 net.cpp:84] Creating Layer inception_4a/relu_5x5
I1216 21:15:58.246642 25674 net.cpp:380] inception_4a/relu_5x5 <- inception_4a/5x5
I1216 21:15:58.246652 25674 net.cpp:327] inception_4a/relu_5x5 -> inception_4a/5x5 (in-place)
I1216 21:15:58.246664 25674 net.cpp:113] Setting up inception_4a/relu_5x5
I1216 21:15:58.246966 25674 net.cpp:120] Top shape: 80 48 14 14 (752640)
I1216 21:15:58.246981 25674 layer_factory.hpp:74] Creating layer inception_4a/pool
I1216 21:15:58.246990 25674 layer_factory.cpp:56] CUDNN does not support padding or multiple tops. Using Caffe's own pooling layer.
I1216 21:15:58.247004 25674 net.cpp:84] Creating Layer inception_4a/pool
I1216 21:15:58.247012 25674 net.cpp:380] inception_4a/pool <- pool3/3x3_s2_pool3/3x3_s2_0_split_3
I1216 21:15:58.247023 25674 net.cpp:338] inception_4a/pool -> inception_4a/pool
I1216 21:15:58.247033 25674 net.cpp:113] Setting up inception_4a/pool
I1216 21:15:58.247057 25674 net.cpp:120] Top shape: 80 480 14 14 (7526400)
I1216 21:15:58.247074 25674 layer_factory.hpp:74] Creating layer inception_4a/pool_proj
I1216 21:15:58.247089 25674 net.cpp:84] Creating Layer inception_4a/pool_proj
I1216 21:15:58.247097 25674 net.cpp:380] inception_4a/pool_proj <- inception_4a/pool
I1216 21:15:58.247112 25674 net.cpp:338] inception_4a/pool_proj -> inception_4a/pool_proj
I1216 21:15:58.247124 25674 net.cpp:113] Setting up inception_4a/pool_proj
I1216 21:15:58.247994 25674 net.cpp:120] Top shape: 80 64 14 14 (1003520)
I1216 21:15:58.248016 25674 layer_factory.hpp:74] Creating layer inception_4a/relu_pool_proj
I1216 21:15:58.248028 25674 net.cpp:84] Creating Layer inception_4a/relu_pool_proj
I1216 21:15:58.248038 25674 net.cpp:380] inception_4a/relu_pool_proj <- inception_4a/pool_proj
I1216 21:15:58.248049 25674 net.cpp:327] inception_4a/relu_pool_proj -> inception_4a/pool_proj (in-place)
I1216 21:15:58.248060 25674 net.cpp:113] Setting up inception_4a/relu_pool_proj
I1216 21:15:58.248164 25674 net.cpp:120] Top shape: 80 64 14 14 (1003520)
I1216 21:15:58.248175 25674 layer_factory.hpp:74] Creating layer inception_4a/output
I1216 21:15:58.248183 25674 net.cpp:84] Creating Layer inception_4a/output
I1216 21:15:58.248188 25674 net.cpp:380] inception_4a/output <- inception_4a/1x1
I1216 21:15:58.248194 25674 net.cpp:380] inception_4a/output <- inception_4a/3x3
I1216 21:15:58.248199 25674 net.cpp:380] inception_4a/output <- inception_4a/5x5
I1216 21:15:58.248204 25674 net.cpp:380] inception_4a/output <- inception_4a/pool_proj
I1216 21:15:58.248213 25674 net.cpp:338] inception_4a/output -> inception_4a/output
I1216 21:15:58.248220 25674 net.cpp:113] Setting up inception_4a/output
I1216 21:15:58.248229 25674 net.cpp:120] Top shape: 80 512 14 14 (8028160)
I1216 21:15:58.248239 25674 layer_factory.hpp:74] Creating layer inception_4a/output_inception_4a/output_0_split
I1216 21:15:58.248250 25674 net.cpp:84] Creating Layer inception_4a/output_inception_4a/output_0_split
I1216 21:15:58.248257 25674 net.cpp:380] inception_4a/output_inception_4a/output_0_split <- inception_4a/output
I1216 21:15:58.248268 25674 net.cpp:338] inception_4a/output_inception_4a/output_0_split -> inception_4a/output_inception_4a/output_0_split_0
I1216 21:15:58.248281 25674 net.cpp:338] inception_4a/output_inception_4a/output_0_split -> inception_4a/output_inception_4a/output_0_split_1
I1216 21:15:58.248292 25674 net.cpp:338] inception_4a/output_inception_4a/output_0_split -> inception_4a/output_inception_4a/output_0_split_2
I1216 21:15:58.248307 25674 net.cpp:338] inception_4a/output_inception_4a/output_0_split -> inception_4a/output_inception_4a/output_0_split_3
I1216 21:15:58.248322 25674 net.cpp:338] inception_4a/output_inception_4a/output_0_split -> inception_4a/output_inception_4a/output_0_split_4
I1216 21:15:58.248335 25674 net.cpp:113] Setting up inception_4a/output_inception_4a/output_0_split
I1216 21:15:58.248348 25674 net.cpp:120] Top shape: 80 512 14 14 (8028160)
I1216 21:15:58.248358 25674 net.cpp:120] Top shape: 80 512 14 14 (8028160)
I1216 21:15:58.248368 25674 net.cpp:120] Top shape: 80 512 14 14 (8028160)
I1216 21:15:58.248376 25674 net.cpp:120] Top shape: 80 512 14 14 (8028160)
I1216 21:15:58.248384 25674 net.cpp:120] Top shape: 80 512 14 14 (8028160)
I1216 21:15:58.248389 25674 layer_factory.hpp:74] Creating layer loss1/ave_pool
I1216 21:15:58.248399 25674 net.cpp:84] Creating Layer loss1/ave_pool
I1216 21:15:58.248407 25674 net.cpp:380] loss1/ave_pool <- inception_4a/output_inception_4a/output_0_split_0
I1216 21:15:58.248419 25674 net.cpp:338] loss1/ave_pool -> loss1/ave_pool
I1216 21:15:58.248430 25674 net.cpp:113] Setting up loss1/ave_pool
I1216 21:15:58.248528 25674 net.cpp:120] Top shape: 80 512 4 4 (655360)
I1216 21:15:58.248538 25674 layer_factory.hpp:74] Creating layer loss1/conv
I1216 21:15:58.248550 25674 net.cpp:84] Creating Layer loss1/conv
I1216 21:15:58.248559 25674 net.cpp:380] loss1/conv <- loss1/ave_pool
I1216 21:15:58.248574 25674 net.cpp:338] loss1/conv -> loss1/conv
I1216 21:15:58.248594 25674 net.cpp:113] Setting up loss1/conv
I1216 21:15:58.249943 25674 net.cpp:120] Top shape: 80 128 4 4 (163840)
I1216 21:15:58.249965 25674 layer_factory.hpp:74] Creating layer loss1/relu_conv
I1216 21:15:58.249979 25674 net.cpp:84] Creating Layer loss1/relu_conv
I1216 21:15:58.249989 25674 net.cpp:380] loss1/relu_conv <- loss1/conv
I1216 21:15:58.250000 25674 net.cpp:327] loss1/relu_conv -> loss1/conv (in-place)
I1216 21:15:58.250011 25674 net.cpp:113] Setting up loss1/relu_conv
I1216 21:15:58.250102 25674 net.cpp:120] Top shape: 80 128 4 4 (163840)
I1216 21:15:58.250110 25674 layer_factory.hpp:74] Creating layer loss1/fc
I1216 21:15:58.250124 25674 net.cpp:84] Creating Layer loss1/fc
I1216 21:15:58.250133 25674 net.cpp:380] loss1/fc <- loss1/conv
I1216 21:15:58.250145 25674 net.cpp:338] loss1/fc -> loss1/fc
I1216 21:15:58.250161 25674 net.cpp:113] Setting up loss1/fc
I1216 21:15:58.400579 25674 net.cpp:120] Top shape: 80 1024 (81920)
I1216 21:15:58.400614 25674 layer_factory.hpp:74] Creating layer loss1/relu_fc
I1216 21:15:58.400625 25674 net.cpp:84] Creating Layer loss1/relu_fc
I1216 21:15:58.400632 25674 net.cpp:380] loss1/relu_fc <- loss1/fc
I1216 21:15:58.400643 25674 net.cpp:327] loss1/relu_fc -> loss1/fc (in-place)
I1216 21:15:58.400652 25674 net.cpp:113] Setting up loss1/relu_fc
I1216 21:15:58.401139 25674 net.cpp:120] Top shape: 80 1024 (81920)
I1216 21:15:58.401151 25674 layer_factory.hpp:74] Creating layer loss1/drop_fc
I1216 21:15:58.401172 25674 net.cpp:84] Creating Layer loss1/drop_fc
I1216 21:15:58.401178 25674 net.cpp:380] loss1/drop_fc <- loss1/fc
I1216 21:15:58.401185 25674 net.cpp:327] loss1/drop_fc -> loss1/fc (in-place)
I1216 21:15:58.401195 25674 net.cpp:113] Setting up loss1/drop_fc
I1216 21:15:58.401206 25674 net.cpp:120] Top shape: 80 1024 (81920)
I1216 21:15:58.401211 25674 layer_factory.hpp:74] Creating layer loss1/classifier_kaggle
I1216 21:15:58.401221 25674 net.cpp:84] Creating Layer loss1/classifier_kaggle
I1216 21:15:58.401226 25674 net.cpp:380] loss1/classifier_kaggle <- loss1/fc
I1216 21:15:58.401233 25674 net.cpp:338] loss1/classifier_kaggle -> loss1/classifier_kaggle
I1216 21:15:58.401242 25674 net.cpp:113] Setting up loss1/classifier_kaggle
I1216 21:15:58.406080 25674 net.cpp:120] Top shape: 80 447 (35760)
I1216 21:15:58.406093 25674 layer_factory.hpp:74] Creating layer loss1/loss
I1216 21:15:58.406101 25674 net.cpp:84] Creating Layer loss1/loss
I1216 21:15:58.406106 25674 net.cpp:380] loss1/loss <- loss1/classifier_kaggle
I1216 21:15:58.406112 25674 net.cpp:380] loss1/loss <- label_data_1_split_0
I1216 21:15:58.406121 25674 net.cpp:338] loss1/loss -> loss1/loss1
I1216 21:15:58.406128 25674 net.cpp:113] Setting up loss1/loss
I1216 21:15:58.406136 25674 layer_factory.hpp:74] Creating layer loss1/loss
I1216 21:15:58.406296 25674 net.cpp:120] Top shape: (1)
I1216 21:15:58.406303 25674 net.cpp:122]     with loss weight 0.3
I1216 21:15:58.406322 25674 layer_factory.hpp:74] Creating layer inception_4b/1x1
I1216 21:15:58.406332 25674 net.cpp:84] Creating Layer inception_4b/1x1
I1216 21:15:58.406339 25674 net.cpp:380] inception_4b/1x1 <- inception_4a/output_inception_4a/output_0_split_1
I1216 21:15:58.406347 25674 net.cpp:338] inception_4b/1x1 -> inception_4b/1x1
I1216 21:15:58.406354 25674 net.cpp:113] Setting up inception_4b/1x1
I1216 21:15:58.407624 25674 net.cpp:120] Top shape: 80 160 14 14 (2508800)
I1216 21:15:58.407639 25674 layer_factory.hpp:74] Creating layer inception_4b/relu_1x1
I1216 21:15:58.407649 25674 net.cpp:84] Creating Layer inception_4b/relu_1x1
I1216 21:15:58.407654 25674 net.cpp:380] inception_4b/relu_1x1 <- inception_4b/1x1
I1216 21:15:58.407661 25674 net.cpp:327] inception_4b/relu_1x1 -> inception_4b/1x1 (in-place)
I1216 21:15:58.407670 25674 net.cpp:113] Setting up inception_4b/relu_1x1
I1216 21:15:58.407734 25674 net.cpp:120] Top shape: 80 160 14 14 (2508800)
I1216 21:15:58.407740 25674 layer_factory.hpp:74] Creating layer inception_4b/3x3_reduce
I1216 21:15:58.407752 25674 net.cpp:84] Creating Layer inception_4b/3x3_reduce
I1216 21:15:58.407757 25674 net.cpp:380] inception_4b/3x3_reduce <- inception_4a/output_inception_4a/output_0_split_2
I1216 21:15:58.407783 25674 net.cpp:338] inception_4b/3x3_reduce -> inception_4b/3x3_reduce
I1216 21:15:58.407793 25674 net.cpp:113] Setting up inception_4b/3x3_reduce
I1216 21:15:58.408777 25674 net.cpp:120] Top shape: 80 112 14 14 (1756160)
I1216 21:15:58.408792 25674 layer_factory.hpp:74] Creating layer inception_4b/relu_3x3_reduce
I1216 21:15:58.408800 25674 net.cpp:84] Creating Layer inception_4b/relu_3x3_reduce
I1216 21:15:58.408807 25674 net.cpp:380] inception_4b/relu_3x3_reduce <- inception_4b/3x3_reduce
I1216 21:15:58.408812 25674 net.cpp:327] inception_4b/relu_3x3_reduce -> inception_4b/3x3_reduce (in-place)
I1216 21:15:58.408819 25674 net.cpp:113] Setting up inception_4b/relu_3x3_reduce
I1216 21:15:58.408882 25674 net.cpp:120] Top shape: 80 112 14 14 (1756160)
I1216 21:15:58.408890 25674 layer_factory.hpp:74] Creating layer inception_4b/3x3
I1216 21:15:58.408900 25674 net.cpp:84] Creating Layer inception_4b/3x3
I1216 21:15:58.408905 25674 net.cpp:380] inception_4b/3x3 <- inception_4b/3x3_reduce
I1216 21:15:58.408912 25674 net.cpp:338] inception_4b/3x3 -> inception_4b/3x3
I1216 21:15:58.408921 25674 net.cpp:113] Setting up inception_4b/3x3
I1216 21:15:58.411662 25674 net.cpp:120] Top shape: 80 224 14 14 (3512320)
I1216 21:15:58.411677 25674 layer_factory.hpp:74] Creating layer inception_4b/relu_3x3
I1216 21:15:58.411684 25674 net.cpp:84] Creating Layer inception_4b/relu_3x3
I1216 21:15:58.411689 25674 net.cpp:380] inception_4b/relu_3x3 <- inception_4b/3x3
I1216 21:15:58.411696 25674 net.cpp:327] inception_4b/relu_3x3 -> inception_4b/3x3 (in-place)
I1216 21:15:58.411703 25674 net.cpp:113] Setting up inception_4b/relu_3x3
I1216 21:15:58.411943 25674 net.cpp:120] Top shape: 80 224 14 14 (3512320)
I1216 21:15:58.411953 25674 layer_factory.hpp:74] Creating layer inception_4b/5x5_reduce
I1216 21:15:58.411962 25674 net.cpp:84] Creating Layer inception_4b/5x5_reduce
I1216 21:15:58.411967 25674 net.cpp:380] inception_4b/5x5_reduce <- inception_4a/output_inception_4a/output_0_split_3
I1216 21:15:58.411977 25674 net.cpp:338] inception_4b/5x5_reduce -> inception_4b/5x5_reduce
I1216 21:15:58.411984 25674 net.cpp:113] Setting up inception_4b/5x5_reduce
I1216 21:15:58.412508 25674 net.cpp:120] Top shape: 80 24 14 14 (376320)
I1216 21:15:58.412523 25674 layer_factory.hpp:74] Creating layer inception_4b/relu_5x5_reduce
I1216 21:15:58.412530 25674 net.cpp:84] Creating Layer inception_4b/relu_5x5_reduce
I1216 21:15:58.412535 25674 net.cpp:380] inception_4b/relu_5x5_reduce <- inception_4b/5x5_reduce
I1216 21:15:58.412544 25674 net.cpp:327] inception_4b/relu_5x5_reduce -> inception_4b/5x5_reduce (in-place)
I1216 21:15:58.412551 25674 net.cpp:113] Setting up inception_4b/relu_5x5_reduce
I1216 21:15:58.412621 25674 net.cpp:120] Top shape: 80 24 14 14 (376320)
I1216 21:15:58.412626 25674 layer_factory.hpp:74] Creating layer inception_4b/5x5
I1216 21:15:58.412636 25674 net.cpp:84] Creating Layer inception_4b/5x5
I1216 21:15:58.412639 25674 net.cpp:380] inception_4b/5x5 <- inception_4b/5x5_reduce
I1216 21:15:58.412647 25674 net.cpp:338] inception_4b/5x5 -> inception_4b/5x5
I1216 21:15:58.412655 25674 net.cpp:113] Setting up inception_4b/5x5
I1216 21:15:58.413476 25674 net.cpp:120] Top shape: 80 64 14 14 (1003520)
I1216 21:15:58.413491 25674 layer_factory.hpp:74] Creating layer inception_4b/relu_5x5
I1216 21:15:58.413499 25674 net.cpp:84] Creating Layer inception_4b/relu_5x5
I1216 21:15:58.413506 25674 net.cpp:380] inception_4b/relu_5x5 <- inception_4b/5x5
I1216 21:15:58.413511 25674 net.cpp:327] inception_4b/relu_5x5 -> inception_4b/5x5 (in-place)
I1216 21:15:58.413518 25674 net.cpp:113] Setting up inception_4b/relu_5x5
I1216 21:15:58.413579 25674 net.cpp:120] Top shape: 80 64 14 14 (1003520)
I1216 21:15:58.413585 25674 layer_factory.hpp:74] Creating layer inception_4b/pool
I1216 21:15:58.413591 25674 layer_factory.cpp:56] CUDNN does not support padding or multiple tops. Using Caffe's own pooling layer.
I1216 21:15:58.413599 25674 net.cpp:84] Creating Layer inception_4b/pool
I1216 21:15:58.413609 25674 net.cpp:380] inception_4b/pool <- inception_4a/output_inception_4a/output_0_split_4
I1216 21:15:58.413622 25674 net.cpp:338] inception_4b/pool -> inception_4b/pool
I1216 21:15:58.413640 25674 net.cpp:113] Setting up inception_4b/pool
I1216 21:15:58.413650 25674 net.cpp:120] Top shape: 80 512 14 14 (8028160)
I1216 21:15:58.413655 25674 layer_factory.hpp:74] Creating layer inception_4b/pool_proj
I1216 21:15:58.413664 25674 net.cpp:84] Creating Layer inception_4b/pool_proj
I1216 21:15:58.413669 25674 net.cpp:380] inception_4b/pool_proj <- inception_4b/pool
I1216 21:15:58.413679 25674 net.cpp:338] inception_4b/pool_proj -> inception_4b/pool_proj
I1216 21:15:58.413687 25674 net.cpp:113] Setting up inception_4b/pool_proj
I1216 21:15:58.414415 25674 net.cpp:120] Top shape: 80 64 14 14 (1003520)
I1216 21:15:58.414429 25674 layer_factory.hpp:74] Creating layer inception_4b/relu_pool_proj
I1216 21:15:58.414438 25674 net.cpp:84] Creating Layer inception_4b/relu_pool_proj
I1216 21:15:58.414443 25674 net.cpp:380] inception_4b/relu_pool_proj <- inception_4b/pool_proj
I1216 21:15:58.414449 25674 net.cpp:327] inception_4b/relu_pool_proj -> inception_4b/pool_proj (in-place)
I1216 21:15:58.414456 25674 net.cpp:113] Setting up inception_4b/relu_pool_proj
I1216 21:15:58.414695 25674 net.cpp:120] Top shape: 80 64 14 14 (1003520)
I1216 21:15:58.414705 25674 layer_factory.hpp:74] Creating layer inception_4b/output
I1216 21:15:58.414715 25674 net.cpp:84] Creating Layer inception_4b/output
I1216 21:15:58.414719 25674 net.cpp:380] inception_4b/output <- inception_4b/1x1
I1216 21:15:58.414726 25674 net.cpp:380] inception_4b/output <- inception_4b/3x3
I1216 21:15:58.414731 25674 net.cpp:380] inception_4b/output <- inception_4b/5x5
I1216 21:15:58.414736 25674 net.cpp:380] inception_4b/output <- inception_4b/pool_proj
I1216 21:15:58.414741 25674 net.cpp:338] inception_4b/output -> inception_4b/output
I1216 21:15:58.414748 25674 net.cpp:113] Setting up inception_4b/output
I1216 21:15:58.414757 25674 net.cpp:120] Top shape: 80 512 14 14 (8028160)
I1216 21:15:58.414760 25674 layer_factory.hpp:74] Creating layer inception_4b/output_inception_4b/output_0_split
I1216 21:15:58.414767 25674 net.cpp:84] Creating Layer inception_4b/output_inception_4b/output_0_split
I1216 21:15:58.414773 25674 net.cpp:380] inception_4b/output_inception_4b/output_0_split <- inception_4b/output
I1216 21:15:58.414779 25674 net.cpp:338] inception_4b/output_inception_4b/output_0_split -> inception_4b/output_inception_4b/output_0_split_0
I1216 21:15:58.414786 25674 net.cpp:338] inception_4b/output_inception_4b/output_0_split -> inception_4b/output_inception_4b/output_0_split_1
I1216 21:15:58.414793 25674 net.cpp:338] inception_4b/output_inception_4b/output_0_split -> inception_4b/output_inception_4b/output_0_split_2
I1216 21:15:58.414800 25674 net.cpp:338] inception_4b/output_inception_4b/output_0_split -> inception_4b/output_inception_4b/output_0_split_3
I1216 21:15:58.414806 25674 net.cpp:113] Setting up inception_4b/output_inception_4b/output_0_split
I1216 21:15:58.414813 25674 net.cpp:120] Top shape: 80 512 14 14 (8028160)
I1216 21:15:58.414819 25674 net.cpp:120] Top shape: 80 512 14 14 (8028160)
I1216 21:15:58.414824 25674 net.cpp:120] Top shape: 80 512 14 14 (8028160)
I1216 21:15:58.414827 25674 net.cpp:120] Top shape: 80 512 14 14 (8028160)
I1216 21:15:58.414832 25674 layer_factory.hpp:74] Creating layer inception_4c/1x1
I1216 21:15:58.414841 25674 net.cpp:84] Creating Layer inception_4c/1x1
I1216 21:15:58.414846 25674 net.cpp:380] inception_4c/1x1 <- inception_4b/output_inception_4b/output_0_split_0
I1216 21:15:58.414855 25674 net.cpp:338] inception_4c/1x1 -> inception_4c/1x1
I1216 21:15:58.414861 25674 net.cpp:113] Setting up inception_4c/1x1
I1216 21:15:58.415911 25674 net.cpp:120] Top shape: 80 128 14 14 (2007040)
I1216 21:15:58.415925 25674 layer_factory.hpp:74] Creating layer inception_4c/relu_1x1
I1216 21:15:58.415935 25674 net.cpp:84] Creating Layer inception_4c/relu_1x1
I1216 21:15:58.415940 25674 net.cpp:380] inception_4c/relu_1x1 <- inception_4c/1x1
I1216 21:15:58.415952 25674 net.cpp:327] inception_4c/relu_1x1 -> inception_4c/1x1 (in-place)
I1216 21:15:58.415966 25674 net.cpp:113] Setting up inception_4c/relu_1x1
I1216 21:15:58.416029 25674 net.cpp:120] Top shape: 80 128 14 14 (2007040)
I1216 21:15:58.416035 25674 layer_factory.hpp:74] Creating layer inception_4c/3x3_reduce
I1216 21:15:58.416046 25674 net.cpp:84] Creating Layer inception_4c/3x3_reduce
I1216 21:15:58.416051 25674 net.cpp:380] inception_4c/3x3_reduce <- inception_4b/output_inception_4b/output_0_split_1
I1216 21:15:58.416059 25674 net.cpp:338] inception_4c/3x3_reduce -> inception_4c/3x3_reduce
I1216 21:15:58.416067 25674 net.cpp:113] Setting up inception_4c/3x3_reduce
I1216 21:15:58.417155 25674 net.cpp:120] Top shape: 80 128 14 14 (2007040)
I1216 21:15:58.417171 25674 layer_factory.hpp:74] Creating layer inception_4c/relu_3x3_reduce
I1216 21:15:58.417179 25674 net.cpp:84] Creating Layer inception_4c/relu_3x3_reduce
I1216 21:15:58.417186 25674 net.cpp:380] inception_4c/relu_3x3_reduce <- inception_4c/3x3_reduce
I1216 21:15:58.417191 25674 net.cpp:327] inception_4c/relu_3x3_reduce -> inception_4c/3x3_reduce (in-place)
I1216 21:15:58.417199 25674 net.cpp:113] Setting up inception_4c/relu_3x3_reduce
I1216 21:15:58.417263 25674 net.cpp:120] Top shape: 80 128 14 14 (2007040)
I1216 21:15:58.417269 25674 layer_factory.hpp:74] Creating layer inception_4c/3x3
I1216 21:15:58.417280 25674 net.cpp:84] Creating Layer inception_4c/3x3
I1216 21:15:58.417285 25674 net.cpp:380] inception_4c/3x3 <- inception_4c/3x3_reduce
I1216 21:15:58.417294 25674 net.cpp:338] inception_4c/3x3 -> inception_4c/3x3
I1216 21:15:58.417302 25674 net.cpp:113] Setting up inception_4c/3x3
I1216 21:15:58.420683 25674 net.cpp:120] Top shape: 80 256 14 14 (4014080)
I1216 21:15:58.420708 25674 layer_factory.hpp:74] Creating layer inception_4c/relu_3x3
I1216 21:15:58.420717 25674 net.cpp:84] Creating Layer inception_4c/relu_3x3
I1216 21:15:58.420722 25674 net.cpp:380] inception_4c/relu_3x3 <- inception_4c/3x3
I1216 21:15:58.420730 25674 net.cpp:327] inception_4c/relu_3x3 -> inception_4c/3x3 (in-place)
I1216 21:15:58.420738 25674 net.cpp:113] Setting up inception_4c/relu_3x3
I1216 21:15:58.420805 25674 net.cpp:120] Top shape: 80 256 14 14 (4014080)
I1216 21:15:58.420811 25674 layer_factory.hpp:74] Creating layer inception_4c/5x5_reduce
I1216 21:15:58.420819 25674 net.cpp:84] Creating Layer inception_4c/5x5_reduce
I1216 21:15:58.420825 25674 net.cpp:380] inception_4c/5x5_reduce <- inception_4b/output_inception_4b/output_0_split_2
I1216 21:15:58.420833 25674 net.cpp:338] inception_4c/5x5_reduce -> inception_4c/5x5_reduce
I1216 21:15:58.420841 25674 net.cpp:113] Setting up inception_4c/5x5_reduce
I1216 21:15:58.421397 25674 net.cpp:120] Top shape: 80 24 14 14 (376320)
I1216 21:15:58.421414 25674 layer_factory.hpp:74] Creating layer inception_4c/relu_5x5_reduce
I1216 21:15:58.421423 25674 net.cpp:84] Creating Layer inception_4c/relu_5x5_reduce
I1216 21:15:58.421429 25674 net.cpp:380] inception_4c/relu_5x5_reduce <- inception_4c/5x5_reduce
I1216 21:15:58.421437 25674 net.cpp:327] inception_4c/relu_5x5_reduce -> inception_4c/5x5_reduce (in-place)
I1216 21:15:58.421443 25674 net.cpp:113] Setting up inception_4c/relu_5x5_reduce
I1216 21:15:58.421687 25674 net.cpp:120] Top shape: 80 24 14 14 (376320)
I1216 21:15:58.421699 25674 layer_factory.hpp:74] Creating layer inception_4c/5x5
I1216 21:15:58.421708 25674 net.cpp:84] Creating Layer inception_4c/5x5
I1216 21:15:58.421715 25674 net.cpp:380] inception_4c/5x5 <- inception_4c/5x5_reduce
I1216 21:15:58.421721 25674 net.cpp:338] inception_4c/5x5 -> inception_4c/5x5
I1216 21:15:58.421730 25674 net.cpp:113] Setting up inception_4c/5x5
I1216 21:15:58.422510 25674 net.cpp:120] Top shape: 80 64 14 14 (1003520)
I1216 21:15:58.422524 25674 layer_factory.hpp:74] Creating layer inception_4c/relu_5x5
I1216 21:15:58.422531 25674 net.cpp:84] Creating Layer inception_4c/relu_5x5
I1216 21:15:58.422536 25674 net.cpp:380] inception_4c/relu_5x5 <- inception_4c/5x5
I1216 21:15:58.422544 25674 net.cpp:327] inception_4c/relu_5x5 -> inception_4c/5x5 (in-place)
I1216 21:15:58.422574 25674 net.cpp:113] Setting up inception_4c/relu_5x5
I1216 21:15:58.422639 25674 net.cpp:120] Top shape: 80 64 14 14 (1003520)
I1216 21:15:58.422646 25674 layer_factory.hpp:74] Creating layer inception_4c/pool
I1216 21:15:58.422652 25674 layer_factory.cpp:56] CUDNN does not support padding or multiple tops. Using Caffe's own pooling layer.
I1216 21:15:58.422658 25674 net.cpp:84] Creating Layer inception_4c/pool
I1216 21:15:58.422663 25674 net.cpp:380] inception_4c/pool <- inception_4b/output_inception_4b/output_0_split_3
I1216 21:15:58.422670 25674 net.cpp:338] inception_4c/pool -> inception_4c/pool
I1216 21:15:58.422677 25674 net.cpp:113] Setting up inception_4c/pool
I1216 21:15:58.422688 25674 net.cpp:120] Top shape: 80 512 14 14 (8028160)
I1216 21:15:58.422693 25674 layer_factory.hpp:74] Creating layer inception_4c/pool_proj
I1216 21:15:58.422703 25674 net.cpp:84] Creating Layer inception_4c/pool_proj
I1216 21:15:58.422708 25674 net.cpp:380] inception_4c/pool_proj <- inception_4c/pool
I1216 21:15:58.422714 25674 net.cpp:338] inception_4c/pool_proj -> inception_4c/pool_proj
I1216 21:15:58.422722 25674 net.cpp:113] Setting up inception_4c/pool_proj
I1216 21:15:58.423455 25674 net.cpp:120] Top shape: 80 64 14 14 (1003520)
I1216 21:15:58.423470 25674 layer_factory.hpp:74] Creating layer inception_4c/relu_pool_proj
I1216 21:15:58.423488 25674 net.cpp:84] Creating Layer inception_4c/relu_pool_proj
I1216 21:15:58.423493 25674 net.cpp:380] inception_4c/relu_pool_proj <- inception_4c/pool_proj
I1216 21:15:58.423501 25674 net.cpp:327] inception_4c/relu_pool_proj -> inception_4c/pool_proj (in-place)
I1216 21:15:58.423507 25674 net.cpp:113] Setting up inception_4c/relu_pool_proj
I1216 21:15:58.423571 25674 net.cpp:120] Top shape: 80 64 14 14 (1003520)
I1216 21:15:58.423579 25674 layer_factory.hpp:74] Creating layer inception_4c/output
I1216 21:15:58.423585 25674 net.cpp:84] Creating Layer inception_4c/output
I1216 21:15:58.423590 25674 net.cpp:380] inception_4c/output <- inception_4c/1x1
I1216 21:15:58.423596 25674 net.cpp:380] inception_4c/output <- inception_4c/3x3
I1216 21:15:58.423601 25674 net.cpp:380] inception_4c/output <- inception_4c/5x5
I1216 21:15:58.423606 25674 net.cpp:380] inception_4c/output <- inception_4c/pool_proj
I1216 21:15:58.423612 25674 net.cpp:338] inception_4c/output -> inception_4c/output
I1216 21:15:58.423619 25674 net.cpp:113] Setting up inception_4c/output
I1216 21:15:58.423627 25674 net.cpp:120] Top shape: 80 512 14 14 (8028160)
I1216 21:15:58.423631 25674 layer_factory.hpp:74] Creating layer inception_4c/output_inception_4c/output_0_split
I1216 21:15:58.423637 25674 net.cpp:84] Creating Layer inception_4c/output_inception_4c/output_0_split
I1216 21:15:58.423642 25674 net.cpp:380] inception_4c/output_inception_4c/output_0_split <- inception_4c/output
I1216 21:15:58.423650 25674 net.cpp:338] inception_4c/output_inception_4c/output_0_split -> inception_4c/output_inception_4c/output_0_split_0
I1216 21:15:58.423657 25674 net.cpp:338] inception_4c/output_inception_4c/output_0_split -> inception_4c/output_inception_4c/output_0_split_1
I1216 21:15:58.423665 25674 net.cpp:338] inception_4c/output_inception_4c/output_0_split -> inception_4c/output_inception_4c/output_0_split_2
I1216 21:15:58.423671 25674 net.cpp:338] inception_4c/output_inception_4c/output_0_split -> inception_4c/output_inception_4c/output_0_split_3
I1216 21:15:58.423677 25674 net.cpp:113] Setting up inception_4c/output_inception_4c/output_0_split
I1216 21:15:58.423686 25674 net.cpp:120] Top shape: 80 512 14 14 (8028160)
I1216 21:15:58.423691 25674 net.cpp:120] Top shape: 80 512 14 14 (8028160)
I1216 21:15:58.423694 25674 net.cpp:120] Top shape: 80 512 14 14 (8028160)
I1216 21:15:58.423699 25674 net.cpp:120] Top shape: 80 512 14 14 (8028160)
I1216 21:15:58.423704 25674 layer_factory.hpp:74] Creating layer inception_4d/1x1
I1216 21:15:58.423714 25674 net.cpp:84] Creating Layer inception_4d/1x1
I1216 21:15:58.423719 25674 net.cpp:380] inception_4d/1x1 <- inception_4c/output_inception_4c/output_0_split_0
I1216 21:15:58.423738 25674 net.cpp:338] inception_4d/1x1 -> inception_4d/1x1
I1216 21:15:58.423748 25674 net.cpp:113] Setting up inception_4d/1x1
I1216 21:15:58.424721 25674 net.cpp:120] Top shape: 80 112 14 14 (1756160)
I1216 21:15:58.424736 25674 layer_factory.hpp:74] Creating layer inception_4d/relu_1x1
I1216 21:15:58.424744 25674 net.cpp:84] Creating Layer inception_4d/relu_1x1
I1216 21:15:58.424749 25674 net.cpp:380] inception_4d/relu_1x1 <- inception_4d/1x1
I1216 21:15:58.424757 25674 net.cpp:327] inception_4d/relu_1x1 -> inception_4d/1x1 (in-place)
I1216 21:15:58.424763 25674 net.cpp:113] Setting up inception_4d/relu_1x1
I1216 21:15:58.424823 25674 net.cpp:120] Top shape: 80 112 14 14 (1756160)
I1216 21:15:58.424829 25674 layer_factory.hpp:74] Creating layer inception_4d/3x3_reduce
I1216 21:15:58.424837 25674 net.cpp:84] Creating Layer inception_4d/3x3_reduce
I1216 21:15:58.424842 25674 net.cpp:380] inception_4d/3x3_reduce <- inception_4c/output_inception_4c/output_0_split_1
I1216 21:15:58.424850 25674 net.cpp:338] inception_4d/3x3_reduce -> inception_4d/3x3_reduce
I1216 21:15:58.424859 25674 net.cpp:113] Setting up inception_4d/3x3_reduce
I1216 21:15:58.426010 25674 net.cpp:120] Top shape: 80 144 14 14 (2257920)
I1216 21:15:58.426026 25674 layer_factory.hpp:74] Creating layer inception_4d/relu_3x3_reduce
I1216 21:15:58.426034 25674 net.cpp:84] Creating Layer inception_4d/relu_3x3_reduce
I1216 21:15:58.426040 25674 net.cpp:380] inception_4d/relu_3x3_reduce <- inception_4d/3x3_reduce
I1216 21:15:58.426046 25674 net.cpp:327] inception_4d/relu_3x3_reduce -> inception_4d/3x3_reduce (in-place)
I1216 21:15:58.426054 25674 net.cpp:113] Setting up inception_4d/relu_3x3_reduce
I1216 21:15:58.426297 25674 net.cpp:120] Top shape: 80 144 14 14 (2257920)
I1216 21:15:58.426308 25674 layer_factory.hpp:74] Creating layer inception_4d/3x3
I1216 21:15:58.426316 25674 net.cpp:84] Creating Layer inception_4d/3x3
I1216 21:15:58.426321 25674 net.cpp:380] inception_4d/3x3 <- inception_4d/3x3_reduce
I1216 21:15:58.426329 25674 net.cpp:338] inception_4d/3x3 -> inception_4d/3x3
I1216 21:15:58.426338 25674 net.cpp:113] Setting up inception_4d/3x3
I1216 21:15:58.433756 25674 net.cpp:120] Top shape: 80 288 14 14 (4515840)
I1216 21:15:58.433775 25674 layer_factory.hpp:74] Creating layer inception_4d/relu_3x3
I1216 21:15:58.433784 25674 net.cpp:84] Creating Layer inception_4d/relu_3x3
I1216 21:15:58.433789 25674 net.cpp:380] inception_4d/relu_3x3 <- inception_4d/3x3
I1216 21:15:58.433797 25674 net.cpp:327] inception_4d/relu_3x3 -> inception_4d/3x3 (in-place)
I1216 21:15:58.433805 25674 net.cpp:113] Setting up inception_4d/relu_3x3
I1216 21:15:58.433871 25674 net.cpp:120] Top shape: 80 288 14 14 (4515840)
I1216 21:15:58.433877 25674 layer_factory.hpp:74] Creating layer inception_4d/5x5_reduce
I1216 21:15:58.433887 25674 net.cpp:84] Creating Layer inception_4d/5x5_reduce
I1216 21:15:58.433892 25674 net.cpp:380] inception_4d/5x5_reduce <- inception_4c/output_inception_4c/output_0_split_2
I1216 21:15:58.433899 25674 net.cpp:338] inception_4d/5x5_reduce -> inception_4d/5x5_reduce
I1216 21:15:58.433907 25674 net.cpp:113] Setting up inception_4d/5x5_reduce
I1216 21:15:58.434486 25674 net.cpp:120] Top shape: 80 32 14 14 (501760)
I1216 21:15:58.434500 25674 layer_factory.hpp:74] Creating layer inception_4d/relu_5x5_reduce
I1216 21:15:58.434507 25674 net.cpp:84] Creating Layer inception_4d/relu_5x5_reduce
I1216 21:15:58.434514 25674 net.cpp:380] inception_4d/relu_5x5_reduce <- inception_4d/5x5_reduce
I1216 21:15:58.434521 25674 net.cpp:327] inception_4d/relu_5x5_reduce -> inception_4d/5x5_reduce (in-place)
I1216 21:15:58.434528 25674 net.cpp:113] Setting up inception_4d/relu_5x5_reduce
I1216 21:15:58.434588 25674 net.cpp:120] Top shape: 80 32 14 14 (501760)
I1216 21:15:58.434595 25674 layer_factory.hpp:74] Creating layer inception_4d/5x5
I1216 21:15:58.434605 25674 net.cpp:84] Creating Layer inception_4d/5x5
I1216 21:15:58.434609 25674 net.cpp:380] inception_4d/5x5 <- inception_4d/5x5_reduce
I1216 21:15:58.434622 25674 net.cpp:338] inception_4d/5x5 -> inception_4d/5x5
I1216 21:15:58.434635 25674 net.cpp:113] Setting up inception_4d/5x5
I1216 21:15:58.435554 25674 net.cpp:120] Top shape: 80 64 14 14 (1003520)
I1216 21:15:58.435569 25674 layer_factory.hpp:74] Creating layer inception_4d/relu_5x5
I1216 21:15:58.435575 25674 net.cpp:84] Creating Layer inception_4d/relu_5x5
I1216 21:15:58.435580 25674 net.cpp:380] inception_4d/relu_5x5 <- inception_4d/5x5
I1216 21:15:58.435587 25674 net.cpp:327] inception_4d/relu_5x5 -> inception_4d/5x5 (in-place)
I1216 21:15:58.435595 25674 net.cpp:113] Setting up inception_4d/relu_5x5
I1216 21:15:58.435657 25674 net.cpp:120] Top shape: 80 64 14 14 (1003520)
I1216 21:15:58.435664 25674 layer_factory.hpp:74] Creating layer inception_4d/pool
I1216 21:15:58.435670 25674 layer_factory.cpp:56] CUDNN does not support padding or multiple tops. Using Caffe's own pooling layer.
I1216 21:15:58.435678 25674 net.cpp:84] Creating Layer inception_4d/pool
I1216 21:15:58.435683 25674 net.cpp:380] inception_4d/pool <- inception_4c/output_inception_4c/output_0_split_3
I1216 21:15:58.435689 25674 net.cpp:338] inception_4d/pool -> inception_4d/pool
I1216 21:15:58.435698 25674 net.cpp:113] Setting up inception_4d/pool
I1216 21:15:58.435705 25674 net.cpp:120] Top shape: 80 512 14 14 (8028160)
I1216 21:15:58.435709 25674 layer_factory.hpp:74] Creating layer inception_4d/pool_proj
I1216 21:15:58.435719 25674 net.cpp:84] Creating Layer inception_4d/pool_proj
I1216 21:15:58.435724 25674 net.cpp:380] inception_4d/pool_proj <- inception_4d/pool
I1216 21:15:58.435730 25674 net.cpp:338] inception_4d/pool_proj -> inception_4d/pool_proj
I1216 21:15:58.435737 25674 net.cpp:113] Setting up inception_4d/pool_proj
I1216 21:15:58.436462 25674 net.cpp:120] Top shape: 80 64 14 14 (1003520)
I1216 21:15:58.436476 25674 layer_factory.hpp:74] Creating layer inception_4d/relu_pool_proj
I1216 21:15:58.436486 25674 net.cpp:84] Creating Layer inception_4d/relu_pool_proj
I1216 21:15:58.436491 25674 net.cpp:380] inception_4d/relu_pool_proj <- inception_4d/pool_proj
I1216 21:15:58.436496 25674 net.cpp:327] inception_4d/relu_pool_proj -> inception_4d/pool_proj (in-place)
I1216 21:15:58.436503 25674 net.cpp:113] Setting up inception_4d/relu_pool_proj
I1216 21:15:58.436740 25674 net.cpp:120] Top shape: 80 64 14 14 (1003520)
I1216 21:15:58.436750 25674 layer_factory.hpp:74] Creating layer inception_4d/output
I1216 21:15:58.436758 25674 net.cpp:84] Creating Layer inception_4d/output
I1216 21:15:58.436764 25674 net.cpp:380] inception_4d/output <- inception_4d/1x1
I1216 21:15:58.436769 25674 net.cpp:380] inception_4d/output <- inception_4d/3x3
I1216 21:15:58.436774 25674 net.cpp:380] inception_4d/output <- inception_4d/5x5
I1216 21:15:58.436779 25674 net.cpp:380] inception_4d/output <- inception_4d/pool_proj
I1216 21:15:58.436784 25674 net.cpp:338] inception_4d/output -> inception_4d/output
I1216 21:15:58.436792 25674 net.cpp:113] Setting up inception_4d/output
I1216 21:15:58.436800 25674 net.cpp:120] Top shape: 80 528 14 14 (8279040)
I1216 21:15:58.436805 25674 layer_factory.hpp:74] Creating layer inception_4d/output_inception_4d/output_0_split
I1216 21:15:58.436813 25674 net.cpp:84] Creating Layer inception_4d/output_inception_4d/output_0_split
I1216 21:15:58.436818 25674 net.cpp:380] inception_4d/output_inception_4d/output_0_split <- inception_4d/output
I1216 21:15:58.436823 25674 net.cpp:338] inception_4d/output_inception_4d/output_0_split -> inception_4d/output_inception_4d/output_0_split_0
I1216 21:15:58.436831 25674 net.cpp:338] inception_4d/output_inception_4d/output_0_split -> inception_4d/output_inception_4d/output_0_split_1
I1216 21:15:58.436841 25674 net.cpp:338] inception_4d/output_inception_4d/output_0_split -> inception_4d/output_inception_4d/output_0_split_2
I1216 21:15:58.436847 25674 net.cpp:338] inception_4d/output_inception_4d/output_0_split -> inception_4d/output_inception_4d/output_0_split_3
I1216 21:15:58.436854 25674 net.cpp:338] inception_4d/output_inception_4d/output_0_split -> inception_4d/output_inception_4d/output_0_split_4
I1216 21:15:58.436866 25674 net.cpp:113] Setting up inception_4d/output_inception_4d/output_0_split
I1216 21:15:58.436879 25674 net.cpp:120] Top shape: 80 528 14 14 (8279040)
I1216 21:15:58.436885 25674 net.cpp:120] Top shape: 80 528 14 14 (8279040)
I1216 21:15:58.436889 25674 net.cpp:120] Top shape: 80 528 14 14 (8279040)
I1216 21:15:58.436894 25674 net.cpp:120] Top shape: 80 528 14 14 (8279040)
I1216 21:15:58.436899 25674 net.cpp:120] Top shape: 80 528 14 14 (8279040)
I1216 21:15:58.436903 25674 layer_factory.hpp:74] Creating layer loss2/ave_pool
I1216 21:15:58.436909 25674 net.cpp:84] Creating Layer loss2/ave_pool
I1216 21:15:58.436914 25674 net.cpp:380] loss2/ave_pool <- inception_4d/output_inception_4d/output_0_split_0
I1216 21:15:58.436923 25674 net.cpp:338] loss2/ave_pool -> loss2/ave_pool
I1216 21:15:58.436929 25674 net.cpp:113] Setting up loss2/ave_pool
I1216 21:15:58.437000 25674 net.cpp:120] Top shape: 80 528 4 4 (675840)
I1216 21:15:58.437005 25674 layer_factory.hpp:74] Creating layer loss2/conv
I1216 21:15:58.437014 25674 net.cpp:84] Creating Layer loss2/conv
I1216 21:15:58.437019 25674 net.cpp:380] loss2/conv <- loss2/ave_pool
I1216 21:15:58.437027 25674 net.cpp:338] loss2/conv -> loss2/conv
I1216 21:15:58.437036 25674 net.cpp:113] Setting up loss2/conv
I1216 21:15:58.438170 25674 net.cpp:120] Top shape: 80 128 4 4 (163840)
I1216 21:15:58.438185 25674 layer_factory.hpp:74] Creating layer loss2/relu_conv
I1216 21:15:58.438194 25674 net.cpp:84] Creating Layer loss2/relu_conv
I1216 21:15:58.438199 25674 net.cpp:380] loss2/relu_conv <- loss2/conv
I1216 21:15:58.438205 25674 net.cpp:327] loss2/relu_conv -> loss2/conv (in-place)
I1216 21:15:58.438211 25674 net.cpp:113] Setting up loss2/relu_conv
I1216 21:15:58.438277 25674 net.cpp:120] Top shape: 80 128 4 4 (163840)
I1216 21:15:58.438282 25674 layer_factory.hpp:74] Creating layer loss2/fc
I1216 21:15:58.438292 25674 net.cpp:84] Creating Layer loss2/fc
I1216 21:15:58.438297 25674 net.cpp:380] loss2/fc <- loss2/conv
I1216 21:15:58.438304 25674 net.cpp:338] loss2/fc -> loss2/fc
I1216 21:15:58.438313 25674 net.cpp:113] Setting up loss2/fc
I1216 21:15:58.546983 25674 net.cpp:120] Top shape: 80 1024 (81920)
I1216 21:15:58.547039 25674 layer_factory.hpp:74] Creating layer loss2/relu_fc
I1216 21:15:58.547054 25674 net.cpp:84] Creating Layer loss2/relu_fc
I1216 21:15:58.547061 25674 net.cpp:380] loss2/relu_fc <- loss2/fc
I1216 21:15:58.547070 25674 net.cpp:327] loss2/relu_fc -> loss2/fc (in-place)
I1216 21:15:58.547080 25674 net.cpp:113] Setting up loss2/relu_fc
I1216 21:15:58.547549 25674 net.cpp:120] Top shape: 80 1024 (81920)
I1216 21:15:58.547564 25674 layer_factory.hpp:74] Creating layer loss2/drop_fc
I1216 21:15:58.547571 25674 net.cpp:84] Creating Layer loss2/drop_fc
I1216 21:15:58.547576 25674 net.cpp:380] loss2/drop_fc <- loss2/fc
I1216 21:15:58.547583 25674 net.cpp:327] loss2/drop_fc -> loss2/fc (in-place)
I1216 21:15:58.547590 25674 net.cpp:113] Setting up loss2/drop_fc
I1216 21:15:58.547598 25674 net.cpp:120] Top shape: 80 1024 (81920)
I1216 21:15:58.547603 25674 layer_factory.hpp:74] Creating layer loss2/classifier_kaggle
I1216 21:15:58.547612 25674 net.cpp:84] Creating Layer loss2/classifier_kaggle
I1216 21:15:58.547616 25674 net.cpp:380] loss2/classifier_kaggle <- loss2/fc
I1216 21:15:58.547624 25674 net.cpp:338] loss2/classifier_kaggle -> loss2/classifier_kaggle
I1216 21:15:58.547634 25674 net.cpp:113] Setting up loss2/classifier_kaggle
I1216 21:15:58.552480 25674 net.cpp:120] Top shape: 80 447 (35760)
I1216 21:15:58.552496 25674 layer_factory.hpp:74] Creating layer loss2/loss
I1216 21:15:58.552507 25674 net.cpp:84] Creating Layer loss2/loss
I1216 21:15:58.552513 25674 net.cpp:380] loss2/loss <- loss2/classifier_kaggle
I1216 21:15:58.552520 25674 net.cpp:380] loss2/loss <- label_data_1_split_1
I1216 21:15:58.552526 25674 net.cpp:338] loss2/loss -> loss2/loss1
I1216 21:15:58.552536 25674 net.cpp:113] Setting up loss2/loss
I1216 21:15:58.552542 25674 layer_factory.hpp:74] Creating layer loss2/loss
I1216 21:15:58.552700 25674 net.cpp:120] Top shape: (1)
I1216 21:15:58.552716 25674 net.cpp:122]     with loss weight 0.3
I1216 21:15:58.552737 25674 layer_factory.hpp:74] Creating layer inception_4e/1x1
I1216 21:15:58.552749 25674 net.cpp:84] Creating Layer inception_4e/1x1
I1216 21:15:58.552755 25674 net.cpp:380] inception_4e/1x1 <- inception_4d/output_inception_4d/output_0_split_1
I1216 21:15:58.552763 25674 net.cpp:338] inception_4e/1x1 -> inception_4e/1x1
I1216 21:15:58.552772 25674 net.cpp:113] Setting up inception_4e/1x1
I1216 21:15:58.554702 25674 net.cpp:120] Top shape: 80 256 14 14 (4014080)
I1216 21:15:58.554719 25674 layer_factory.hpp:74] Creating layer inception_4e/relu_1x1
I1216 21:15:58.554728 25674 net.cpp:84] Creating Layer inception_4e/relu_1x1
I1216 21:15:58.554734 25674 net.cpp:380] inception_4e/relu_1x1 <- inception_4e/1x1
I1216 21:15:58.554741 25674 net.cpp:327] inception_4e/relu_1x1 -> inception_4e/1x1 (in-place)
I1216 21:15:58.554749 25674 net.cpp:113] Setting up inception_4e/relu_1x1
I1216 21:15:58.554813 25674 net.cpp:120] Top shape: 80 256 14 14 (4014080)
I1216 21:15:58.554832 25674 layer_factory.hpp:74] Creating layer inception_4e/3x3_reduce
I1216 21:15:58.554841 25674 net.cpp:84] Creating Layer inception_4e/3x3_reduce
I1216 21:15:58.554846 25674 net.cpp:380] inception_4e/3x3_reduce <- inception_4d/output_inception_4d/output_0_split_2
I1216 21:15:58.554864 25674 net.cpp:338] inception_4e/3x3_reduce -> inception_4e/3x3_reduce
I1216 21:15:58.554872 25674 net.cpp:113] Setting up inception_4e/3x3_reduce
I1216 21:15:58.556056 25674 net.cpp:120] Top shape: 80 160 14 14 (2508800)
I1216 21:15:58.556071 25674 layer_factory.hpp:74] Creating layer inception_4e/relu_3x3_reduce
I1216 21:15:58.556078 25674 net.cpp:84] Creating Layer inception_4e/relu_3x3_reduce
I1216 21:15:58.556083 25674 net.cpp:380] inception_4e/relu_3x3_reduce <- inception_4e/3x3_reduce
I1216 21:15:58.556090 25674 net.cpp:327] inception_4e/relu_3x3_reduce -> inception_4e/3x3_reduce (in-place)
I1216 21:15:58.556097 25674 net.cpp:113] Setting up inception_4e/relu_3x3_reduce
I1216 21:15:58.556159 25674 net.cpp:120] Top shape: 80 160 14 14 (2508800)
I1216 21:15:58.556165 25674 layer_factory.hpp:74] Creating layer inception_4e/3x3
I1216 21:15:58.556175 25674 net.cpp:84] Creating Layer inception_4e/3x3
I1216 21:15:58.556180 25674 net.cpp:380] inception_4e/3x3 <- inception_4e/3x3_reduce
I1216 21:15:58.556186 25674 net.cpp:338] inception_4e/3x3 -> inception_4e/3x3
I1216 21:15:58.556195 25674 net.cpp:113] Setting up inception_4e/3x3
I1216 21:15:58.561204 25674 net.cpp:120] Top shape: 80 320 14 14 (5017600)
I1216 21:15:58.561220 25674 layer_factory.hpp:74] Creating layer inception_4e/relu_3x3
I1216 21:15:58.561228 25674 net.cpp:84] Creating Layer inception_4e/relu_3x3
I1216 21:15:58.561233 25674 net.cpp:380] inception_4e/relu_3x3 <- inception_4e/3x3
I1216 21:15:58.561239 25674 net.cpp:327] inception_4e/relu_3x3 -> inception_4e/3x3 (in-place)
I1216 21:15:58.561247 25674 net.cpp:113] Setting up inception_4e/relu_3x3
I1216 21:15:58.561501 25674 net.cpp:120] Top shape: 80 320 14 14 (5017600)
I1216 21:15:58.561511 25674 layer_factory.hpp:74] Creating layer inception_4e/5x5_reduce
I1216 21:15:58.561521 25674 net.cpp:84] Creating Layer inception_4e/5x5_reduce
I1216 21:15:58.561525 25674 net.cpp:380] inception_4e/5x5_reduce <- inception_4d/output_inception_4d/output_0_split_3
I1216 21:15:58.561534 25674 net.cpp:338] inception_4e/5x5_reduce -> inception_4e/5x5_reduce
I1216 21:15:58.561542 25674 net.cpp:113] Setting up inception_4e/5x5_reduce
I1216 21:15:58.562086 25674 net.cpp:120] Top shape: 80 32 14 14 (501760)
I1216 21:15:58.562100 25674 layer_factory.hpp:74] Creating layer inception_4e/relu_5x5_reduce
I1216 21:15:58.562113 25674 net.cpp:84] Creating Layer inception_4e/relu_5x5_reduce
I1216 21:15:58.562119 25674 net.cpp:380] inception_4e/relu_5x5_reduce <- inception_4e/5x5_reduce
I1216 21:15:58.562124 25674 net.cpp:327] inception_4e/relu_5x5_reduce -> inception_4e/5x5_reduce (in-place)
I1216 21:15:58.562131 25674 net.cpp:113] Setting up inception_4e/relu_5x5_reduce
I1216 21:15:58.562193 25674 net.cpp:120] Top shape: 80 32 14 14 (501760)
I1216 21:15:58.562206 25674 layer_factory.hpp:74] Creating layer inception_4e/5x5
I1216 21:15:58.562237 25674 net.cpp:84] Creating Layer inception_4e/5x5
I1216 21:15:58.562242 25674 net.cpp:380] inception_4e/5x5 <- inception_4e/5x5_reduce
I1216 21:15:58.562250 25674 net.cpp:338] inception_4e/5x5 -> inception_4e/5x5
I1216 21:15:58.562259 25674 net.cpp:113] Setting up inception_4e/5x5
I1216 21:15:58.563655 25674 net.cpp:120] Top shape: 80 128 14 14 (2007040)
I1216 21:15:58.563670 25674 layer_factory.hpp:74] Creating layer inception_4e/relu_5x5
I1216 21:15:58.563678 25674 net.cpp:84] Creating Layer inception_4e/relu_5x5
I1216 21:15:58.563684 25674 net.cpp:380] inception_4e/relu_5x5 <- inception_4e/5x5
I1216 21:15:58.563691 25674 net.cpp:327] inception_4e/relu_5x5 -> inception_4e/5x5 (in-place)
I1216 21:15:58.563699 25674 net.cpp:113] Setting up inception_4e/relu_5x5
I1216 21:15:58.563760 25674 net.cpp:120] Top shape: 80 128 14 14 (2007040)
I1216 21:15:58.563766 25674 layer_factory.hpp:74] Creating layer inception_4e/pool
I1216 21:15:58.563773 25674 layer_factory.cpp:56] CUDNN does not support padding or multiple tops. Using Caffe's own pooling layer.
I1216 21:15:58.563783 25674 net.cpp:84] Creating Layer inception_4e/pool
I1216 21:15:58.563788 25674 net.cpp:380] inception_4e/pool <- inception_4d/output_inception_4d/output_0_split_4
I1216 21:15:58.563794 25674 net.cpp:338] inception_4e/pool -> inception_4e/pool
I1216 21:15:58.563802 25674 net.cpp:113] Setting up inception_4e/pool
I1216 21:15:58.563812 25674 net.cpp:120] Top shape: 80 528 14 14 (8279040)
I1216 21:15:58.563817 25674 layer_factory.hpp:74] Creating layer inception_4e/pool_proj
I1216 21:15:58.563824 25674 net.cpp:84] Creating Layer inception_4e/pool_proj
I1216 21:15:58.563828 25674 net.cpp:380] inception_4e/pool_proj <- inception_4e/pool
I1216 21:15:58.563834 25674 net.cpp:338] inception_4e/pool_proj -> inception_4e/pool_proj
I1216 21:15:58.563841 25674 net.cpp:113] Setting up inception_4e/pool_proj
I1216 21:15:58.564894 25674 net.cpp:120] Top shape: 80 128 14 14 (2007040)
I1216 21:15:58.564908 25674 layer_factory.hpp:74] Creating layer inception_4e/relu_pool_proj
I1216 21:15:58.564918 25674 net.cpp:84] Creating Layer inception_4e/relu_pool_proj
I1216 21:15:58.564924 25674 net.cpp:380] inception_4e/relu_pool_proj <- inception_4e/pool_proj
I1216 21:15:58.564929 25674 net.cpp:327] inception_4e/relu_pool_proj -> inception_4e/pool_proj (in-place)
I1216 21:15:58.564936 25674 net.cpp:113] Setting up inception_4e/relu_pool_proj
I1216 21:15:58.564996 25674 net.cpp:120] Top shape: 80 128 14 14 (2007040)
I1216 21:15:58.565003 25674 layer_factory.hpp:74] Creating layer inception_4e/output
I1216 21:15:58.565011 25674 net.cpp:84] Creating Layer inception_4e/output
I1216 21:15:58.565016 25674 net.cpp:380] inception_4e/output <- inception_4e/1x1
I1216 21:15:58.565021 25674 net.cpp:380] inception_4e/output <- inception_4e/3x3
I1216 21:15:58.565026 25674 net.cpp:380] inception_4e/output <- inception_4e/5x5
I1216 21:15:58.565031 25674 net.cpp:380] inception_4e/output <- inception_4e/pool_proj
I1216 21:15:58.565037 25674 net.cpp:338] inception_4e/output -> inception_4e/output
I1216 21:15:58.565043 25674 net.cpp:113] Setting up inception_4e/output
I1216 21:15:58.565052 25674 net.cpp:120] Top shape: 80 832 14 14 (13045760)
I1216 21:15:58.565074 25674 layer_factory.hpp:74] Creating layer pool4/3x3_s2
I1216 21:15:58.565083 25674 net.cpp:84] Creating Layer pool4/3x3_s2
I1216 21:15:58.565088 25674 net.cpp:380] pool4/3x3_s2 <- inception_4e/output
I1216 21:15:58.565095 25674 net.cpp:338] pool4/3x3_s2 -> pool4/3x3_s2
I1216 21:15:58.565102 25674 net.cpp:113] Setting up pool4/3x3_s2
I1216 21:15:58.565351 25674 net.cpp:120] Top shape: 80 832 7 7 (3261440)
I1216 21:15:58.565361 25674 layer_factory.hpp:74] Creating layer pool4/3x3_s2_pool4/3x3_s2_0_split
I1216 21:15:58.565371 25674 net.cpp:84] Creating Layer pool4/3x3_s2_pool4/3x3_s2_0_split
I1216 21:15:58.565376 25674 net.cpp:380] pool4/3x3_s2_pool4/3x3_s2_0_split <- pool4/3x3_s2
I1216 21:15:58.565383 25674 net.cpp:338] pool4/3x3_s2_pool4/3x3_s2_0_split -> pool4/3x3_s2_pool4/3x3_s2_0_split_0
I1216 21:15:58.565403 25674 net.cpp:338] pool4/3x3_s2_pool4/3x3_s2_0_split -> pool4/3x3_s2_pool4/3x3_s2_0_split_1
I1216 21:15:58.565412 25674 net.cpp:338] pool4/3x3_s2_pool4/3x3_s2_0_split -> pool4/3x3_s2_pool4/3x3_s2_0_split_2
I1216 21:15:58.565418 25674 net.cpp:338] pool4/3x3_s2_pool4/3x3_s2_0_split -> pool4/3x3_s2_pool4/3x3_s2_0_split_3
I1216 21:15:58.565424 25674 net.cpp:113] Setting up pool4/3x3_s2_pool4/3x3_s2_0_split
I1216 21:15:58.565433 25674 net.cpp:120] Top shape: 80 832 7 7 (3261440)
I1216 21:15:58.565448 25674 net.cpp:120] Top shape: 80 832 7 7 (3261440)
I1216 21:15:58.565453 25674 net.cpp:120] Top shape: 80 832 7 7 (3261440)
I1216 21:15:58.565457 25674 net.cpp:120] Top shape: 80 832 7 7 (3261440)
I1216 21:15:58.565461 25674 layer_factory.hpp:74] Creating layer inception_5a/1x1
I1216 21:15:58.565469 25674 net.cpp:84] Creating Layer inception_5a/1x1
I1216 21:15:58.565474 25674 net.cpp:380] inception_5a/1x1 <- pool4/3x3_s2_pool4/3x3_s2_0_split_0
I1216 21:15:58.565480 25674 net.cpp:338] inception_5a/1x1 -> inception_5a/1x1
I1216 21:15:58.565487 25674 net.cpp:113] Setting up inception_5a/1x1
I1216 21:15:58.568022 25674 net.cpp:120] Top shape: 80 256 7 7 (1003520)
I1216 21:15:58.568037 25674 layer_factory.hpp:74] Creating layer inception_5a/relu_1x1
I1216 21:15:58.568045 25674 net.cpp:84] Creating Layer inception_5a/relu_1x1
I1216 21:15:58.568050 25674 net.cpp:380] inception_5a/relu_1x1 <- inception_5a/1x1
I1216 21:15:58.568060 25674 net.cpp:327] inception_5a/relu_1x1 -> inception_5a/1x1 (in-place)
I1216 21:15:58.568068 25674 net.cpp:113] Setting up inception_5a/relu_1x1
I1216 21:15:58.568130 25674 net.cpp:120] Top shape: 80 256 7 7 (1003520)
I1216 21:15:58.568136 25674 layer_factory.hpp:74] Creating layer inception_5a/3x3_reduce
I1216 21:15:58.568145 25674 net.cpp:84] Creating Layer inception_5a/3x3_reduce
I1216 21:15:58.568151 25674 net.cpp:380] inception_5a/3x3_reduce <- pool4/3x3_s2_pool4/3x3_s2_0_split_1
I1216 21:15:58.568157 25674 net.cpp:338] inception_5a/3x3_reduce -> inception_5a/3x3_reduce
I1216 21:15:58.568166 25674 net.cpp:113] Setting up inception_5a/3x3_reduce
I1216 21:15:58.569936 25674 net.cpp:120] Top shape: 80 160 7 7 (627200)
I1216 21:15:58.569952 25674 layer_factory.hpp:74] Creating layer inception_5a/relu_3x3_reduce
I1216 21:15:58.569958 25674 net.cpp:84] Creating Layer inception_5a/relu_3x3_reduce
I1216 21:15:58.569963 25674 net.cpp:380] inception_5a/relu_3x3_reduce <- inception_5a/3x3_reduce
I1216 21:15:58.569969 25674 net.cpp:327] inception_5a/relu_3x3_reduce -> inception_5a/3x3_reduce (in-place)
I1216 21:15:58.569977 25674 net.cpp:113] Setting up inception_5a/relu_3x3_reduce
I1216 21:15:58.570039 25674 net.cpp:120] Top shape: 80 160 7 7 (627200)
I1216 21:15:58.570045 25674 layer_factory.hpp:74] Creating layer inception_5a/3x3
I1216 21:15:58.570055 25674 net.cpp:84] Creating Layer inception_5a/3x3
I1216 21:15:58.570060 25674 net.cpp:380] inception_5a/3x3 <- inception_5a/3x3_reduce
I1216 21:15:58.570066 25674 net.cpp:338] inception_5a/3x3 -> inception_5a/3x3
I1216 21:15:58.570075 25674 net.cpp:113] Setting up inception_5a/3x3
I1216 21:15:58.575222 25674 net.cpp:120] Top shape: 80 320 7 7 (1254400)
I1216 21:15:58.575237 25674 layer_factory.hpp:74] Creating layer inception_5a/relu_3x3
I1216 21:15:58.575244 25674 net.cpp:84] Creating Layer inception_5a/relu_3x3
I1216 21:15:58.575249 25674 net.cpp:380] inception_5a/relu_3x3 <- inception_5a/3x3
I1216 21:15:58.575258 25674 net.cpp:327] inception_5a/relu_3x3 -> inception_5a/3x3 (in-place)
I1216 21:15:58.575264 25674 net.cpp:113] Setting up inception_5a/relu_3x3
I1216 21:15:58.575330 25674 net.cpp:120] Top shape: 80 320 7 7 (1254400)
I1216 21:15:58.575336 25674 layer_factory.hpp:74] Creating layer inception_5a/5x5_reduce
I1216 21:15:58.575345 25674 net.cpp:84] Creating Layer inception_5a/5x5_reduce
I1216 21:15:58.575350 25674 net.cpp:380] inception_5a/5x5_reduce <- pool4/3x3_s2_pool4/3x3_s2_0_split_2
I1216 21:15:58.575358 25674 net.cpp:338] inception_5a/5x5_reduce -> inception_5a/5x5_reduce
I1216 21:15:58.575371 25674 net.cpp:113] Setting up inception_5a/5x5_reduce
I1216 21:15:58.576040 25674 net.cpp:120] Top shape: 80 32 7 7 (125440)
I1216 21:15:58.576055 25674 layer_factory.hpp:74] Creating layer inception_5a/relu_5x5_reduce
I1216 21:15:58.576061 25674 net.cpp:84] Creating Layer inception_5a/relu_5x5_reduce
I1216 21:15:58.576066 25674 net.cpp:380] inception_5a/relu_5x5_reduce <- inception_5a/5x5_reduce
I1216 21:15:58.576076 25674 net.cpp:327] inception_5a/relu_5x5_reduce -> inception_5a/5x5_reduce (in-place)
I1216 21:15:58.576083 25674 net.cpp:113] Setting up inception_5a/relu_5x5_reduce
I1216 21:15:58.576324 25674 net.cpp:120] Top shape: 80 32 7 7 (125440)
I1216 21:15:58.576334 25674 layer_factory.hpp:74] Creating layer inception_5a/5x5
I1216 21:15:58.576344 25674 net.cpp:84] Creating Layer inception_5a/5x5
I1216 21:15:58.576349 25674 net.cpp:380] inception_5a/5x5 <- inception_5a/5x5_reduce
I1216 21:15:58.576357 25674 net.cpp:338] inception_5a/5x5 -> inception_5a/5x5
I1216 21:15:58.576366 25674 net.cpp:113] Setting up inception_5a/5x5
I1216 21:15:58.577854 25674 net.cpp:120] Top shape: 80 128 7 7 (501760)
I1216 21:15:58.577870 25674 layer_factory.hpp:74] Creating layer inception_5a/relu_5x5
I1216 21:15:58.577877 25674 net.cpp:84] Creating Layer inception_5a/relu_5x5
I1216 21:15:58.577883 25674 net.cpp:380] inception_5a/relu_5x5 <- inception_5a/5x5
I1216 21:15:58.577889 25674 net.cpp:327] inception_5a/relu_5x5 -> inception_5a/5x5 (in-place)
I1216 21:15:58.577896 25674 net.cpp:113] Setting up inception_5a/relu_5x5
I1216 21:15:58.577961 25674 net.cpp:120] Top shape: 80 128 7 7 (501760)
I1216 21:15:58.577968 25674 layer_factory.hpp:74] Creating layer inception_5a/pool
I1216 21:15:58.577973 25674 layer_factory.cpp:56] CUDNN does not support padding or multiple tops. Using Caffe's own pooling layer.
I1216 21:15:58.577980 25674 net.cpp:84] Creating Layer inception_5a/pool
I1216 21:15:58.577985 25674 net.cpp:380] inception_5a/pool <- pool4/3x3_s2_pool4/3x3_s2_0_split_3
I1216 21:15:58.577992 25674 net.cpp:338] inception_5a/pool -> inception_5a/pool
I1216 21:15:58.578001 25674 net.cpp:113] Setting up inception_5a/pool
I1216 21:15:58.578008 25674 net.cpp:120] Top shape: 80 832 7 7 (3261440)
I1216 21:15:58.578013 25674 layer_factory.hpp:74] Creating layer inception_5a/pool_proj
I1216 21:15:58.578022 25674 net.cpp:84] Creating Layer inception_5a/pool_proj
I1216 21:15:58.578027 25674 net.cpp:380] inception_5a/pool_proj <- inception_5a/pool
I1216 21:15:58.578037 25674 net.cpp:338] inception_5a/pool_proj -> inception_5a/pool_proj
I1216 21:15:58.578045 25674 net.cpp:113] Setting up inception_5a/pool_proj
I1216 21:15:58.579536 25674 net.cpp:120] Top shape: 80 128 7 7 (501760)
I1216 21:15:58.579551 25674 layer_factory.hpp:74] Creating layer inception_5a/relu_pool_proj
I1216 21:15:58.579558 25674 net.cpp:84] Creating Layer inception_5a/relu_pool_proj
I1216 21:15:58.579563 25674 net.cpp:380] inception_5a/relu_pool_proj <- inception_5a/pool_proj
I1216 21:15:58.579571 25674 net.cpp:327] inception_5a/relu_pool_proj -> inception_5a/pool_proj (in-place)
I1216 21:15:58.579577 25674 net.cpp:113] Setting up inception_5a/relu_pool_proj
I1216 21:15:58.579641 25674 net.cpp:120] Top shape: 80 128 7 7 (501760)
I1216 21:15:58.579648 25674 layer_factory.hpp:74] Creating layer inception_5a/output
I1216 21:15:58.579654 25674 net.cpp:84] Creating Layer inception_5a/output
I1216 21:15:58.579659 25674 net.cpp:380] inception_5a/output <- inception_5a/1x1
I1216 21:15:58.579664 25674 net.cpp:380] inception_5a/output <- inception_5a/3x3
I1216 21:15:58.579669 25674 net.cpp:380] inception_5a/output <- inception_5a/5x5
I1216 21:15:58.579674 25674 net.cpp:380] inception_5a/output <- inception_5a/pool_proj
I1216 21:15:58.579680 25674 net.cpp:338] inception_5a/output -> inception_5a/output
I1216 21:15:58.579687 25674 net.cpp:113] Setting up inception_5a/output
I1216 21:15:58.579694 25674 net.cpp:120] Top shape: 80 832 7 7 (3261440)
I1216 21:15:58.579699 25674 layer_factory.hpp:74] Creating layer inception_5a/output_inception_5a/output_0_split
I1216 21:15:58.579711 25674 net.cpp:84] Creating Layer inception_5a/output_inception_5a/output_0_split
I1216 21:15:58.579722 25674 net.cpp:380] inception_5a/output_inception_5a/output_0_split <- inception_5a/output
I1216 21:15:58.579730 25674 net.cpp:338] inception_5a/output_inception_5a/output_0_split -> inception_5a/output_inception_5a/output_0_split_0
I1216 21:15:58.579736 25674 net.cpp:338] inception_5a/output_inception_5a/output_0_split -> inception_5a/output_inception_5a/output_0_split_1
I1216 21:15:58.579743 25674 net.cpp:338] inception_5a/output_inception_5a/output_0_split -> inception_5a/output_inception_5a/output_0_split_2
I1216 21:15:58.579752 25674 net.cpp:338] inception_5a/output_inception_5a/output_0_split -> inception_5a/output_inception_5a/output_0_split_3
I1216 21:15:58.579759 25674 net.cpp:113] Setting up inception_5a/output_inception_5a/output_0_split
I1216 21:15:58.579766 25674 net.cpp:120] Top shape: 80 832 7 7 (3261440)
I1216 21:15:58.579771 25674 net.cpp:120] Top shape: 80 832 7 7 (3261440)
I1216 21:15:58.579776 25674 net.cpp:120] Top shape: 80 832 7 7 (3261440)
I1216 21:15:58.579780 25674 net.cpp:120] Top shape: 80 832 7 7 (3261440)
I1216 21:15:58.579784 25674 layer_factory.hpp:74] Creating layer inception_5b/1x1
I1216 21:15:58.579792 25674 net.cpp:84] Creating Layer inception_5b/1x1
I1216 21:15:58.579797 25674 net.cpp:380] inception_5b/1x1 <- inception_5a/output_inception_5a/output_0_split_0
I1216 21:15:58.579804 25674 net.cpp:338] inception_5b/1x1 -> inception_5b/1x1
I1216 21:15:58.579812 25674 net.cpp:113] Setting up inception_5b/1x1
I1216 21:15:58.583555 25674 net.cpp:120] Top shape: 80 384 7 7 (1505280)
I1216 21:15:58.583571 25674 layer_factory.hpp:74] Creating layer inception_5b/relu_1x1
I1216 21:15:58.583580 25674 net.cpp:84] Creating Layer inception_5b/relu_1x1
I1216 21:15:58.583585 25674 net.cpp:380] inception_5b/relu_1x1 <- inception_5b/1x1
I1216 21:15:58.583592 25674 net.cpp:327] inception_5b/relu_1x1 -> inception_5b/1x1 (in-place)
I1216 21:15:58.583600 25674 net.cpp:113] Setting up inception_5b/relu_1x1
I1216 21:15:58.583847 25674 net.cpp:120] Top shape: 80 384 7 7 (1505280)
I1216 21:15:58.583856 25674 layer_factory.hpp:74] Creating layer inception_5b/3x3_reduce
I1216 21:15:58.583866 25674 net.cpp:84] Creating Layer inception_5b/3x3_reduce
I1216 21:15:58.583873 25674 net.cpp:380] inception_5b/3x3_reduce <- inception_5a/output_inception_5a/output_0_split_1
I1216 21:15:58.583881 25674 net.cpp:338] inception_5b/3x3_reduce -> inception_5b/3x3_reduce
I1216 21:15:58.583890 25674 net.cpp:113] Setting up inception_5b/3x3_reduce
I1216 21:15:58.586004 25674 net.cpp:120] Top shape: 80 192 7 7 (752640)
I1216 21:15:58.586020 25674 layer_factory.hpp:74] Creating layer inception_5b/relu_3x3_reduce
I1216 21:15:58.586030 25674 net.cpp:84] Creating Layer inception_5b/relu_3x3_reduce
I1216 21:15:58.586035 25674 net.cpp:380] inception_5b/relu_3x3_reduce <- inception_5b/3x3_reduce
I1216 21:15:58.586042 25674 net.cpp:327] inception_5b/relu_3x3_reduce -> inception_5b/3x3_reduce (in-place)
I1216 21:15:58.586050 25674 net.cpp:113] Setting up inception_5b/relu_3x3_reduce
I1216 21:15:58.586120 25674 net.cpp:120] Top shape: 80 192 7 7 (752640)
I1216 21:15:58.586127 25674 layer_factory.hpp:74] Creating layer inception_5b/3x3
I1216 21:15:58.586138 25674 net.cpp:84] Creating Layer inception_5b/3x3
I1216 21:15:58.586143 25674 net.cpp:380] inception_5b/3x3 <- inception_5b/3x3_reduce
I1216 21:15:58.586148 25674 net.cpp:338] inception_5b/3x3 -> inception_5b/3x3
I1216 21:15:58.586176 25674 net.cpp:113] Setting up inception_5b/3x3
I1216 21:15:58.625119 25674 net.cpp:120] Top shape: 80 384 7 7 (1505280)
I1216 21:15:58.625146 25674 layer_factory.hpp:74] Creating layer inception_5b/relu_3x3
I1216 21:15:58.625157 25674 net.cpp:84] Creating Layer inception_5b/relu_3x3
I1216 21:15:58.625164 25674 net.cpp:380] inception_5b/relu_3x3 <- inception_5b/3x3
I1216 21:15:58.625174 25674 net.cpp:327] inception_5b/relu_3x3 -> inception_5b/3x3 (in-place)
I1216 21:15:58.625185 25674 net.cpp:113] Setting up inception_5b/relu_3x3
I1216 21:15:58.625262 25674 net.cpp:120] Top shape: 80 384 7 7 (1505280)
I1216 21:15:58.625277 25674 layer_factory.hpp:74] Creating layer inception_5b/5x5_reduce
I1216 21:15:58.625288 25674 net.cpp:84] Creating Layer inception_5b/5x5_reduce
I1216 21:15:58.625293 25674 net.cpp:380] inception_5b/5x5_reduce <- inception_5a/output_inception_5a/output_0_split_2
I1216 21:15:58.625301 25674 net.cpp:338] inception_5b/5x5_reduce -> inception_5b/5x5_reduce
I1216 21:15:58.625309 25674 net.cpp:113] Setting up inception_5b/5x5_reduce
I1216 21:15:58.626152 25674 net.cpp:120] Top shape: 80 48 7 7 (188160)
I1216 21:15:58.626168 25674 layer_factory.hpp:74] Creating layer inception_5b/relu_5x5_reduce
I1216 21:15:58.626176 25674 net.cpp:84] Creating Layer inception_5b/relu_5x5_reduce
I1216 21:15:58.626181 25674 net.cpp:380] inception_5b/relu_5x5_reduce <- inception_5b/5x5_reduce
I1216 21:15:58.626188 25674 net.cpp:327] inception_5b/relu_5x5_reduce -> inception_5b/5x5_reduce (in-place)
I1216 21:15:58.626196 25674 net.cpp:113] Setting up inception_5b/relu_5x5_reduce
I1216 21:15:58.626265 25674 net.cpp:120] Top shape: 80 48 7 7 (188160)
I1216 21:15:58.626271 25674 layer_factory.hpp:74] Creating layer inception_5b/5x5
I1216 21:15:58.626281 25674 net.cpp:84] Creating Layer inception_5b/5x5
I1216 21:15:58.626286 25674 net.cpp:380] inception_5b/5x5 <- inception_5b/5x5_reduce
I1216 21:15:58.626292 25674 net.cpp:338] inception_5b/5x5 -> inception_5b/5x5
I1216 21:15:58.626301 25674 net.cpp:113] Setting up inception_5b/5x5
I1216 21:15:58.628388 25674 net.cpp:120] Top shape: 80 128 7 7 (501760)
I1216 21:15:58.628404 25674 layer_factory.hpp:74] Creating layer inception_5b/relu_5x5
I1216 21:15:58.628412 25674 net.cpp:84] Creating Layer inception_5b/relu_5x5
I1216 21:15:58.628417 25674 net.cpp:380] inception_5b/relu_5x5 <- inception_5b/5x5
I1216 21:15:58.628423 25674 net.cpp:327] inception_5b/relu_5x5 -> inception_5b/5x5 (in-place)
I1216 21:15:58.628432 25674 net.cpp:113] Setting up inception_5b/relu_5x5
I1216 21:15:58.628682 25674 net.cpp:120] Top shape: 80 128 7 7 (501760)
I1216 21:15:58.628693 25674 layer_factory.hpp:74] Creating layer inception_5b/pool
I1216 21:15:58.628700 25674 layer_factory.cpp:56] CUDNN does not support padding or multiple tops. Using Caffe's own pooling layer.
I1216 21:15:58.628705 25674 net.cpp:84] Creating Layer inception_5b/pool
I1216 21:15:58.628711 25674 net.cpp:380] inception_5b/pool <- inception_5a/output_inception_5a/output_0_split_3
I1216 21:15:58.628718 25674 net.cpp:338] inception_5b/pool -> inception_5b/pool
I1216 21:15:58.628726 25674 net.cpp:113] Setting up inception_5b/pool
I1216 21:15:58.628736 25674 net.cpp:120] Top shape: 80 832 7 7 (3261440)
I1216 21:15:58.628741 25674 layer_factory.hpp:74] Creating layer inception_5b/pool_proj
I1216 21:15:58.628751 25674 net.cpp:84] Creating Layer inception_5b/pool_proj
I1216 21:15:58.628756 25674 net.cpp:380] inception_5b/pool_proj <- inception_5b/pool
I1216 21:15:58.628764 25674 net.cpp:338] inception_5b/pool_proj -> inception_5b/pool_proj
I1216 21:15:58.628772 25674 net.cpp:113] Setting up inception_5b/pool_proj
I1216 21:15:58.630393 25674 net.cpp:120] Top shape: 80 128 7 7 (501760)
I1216 21:15:58.630414 25674 layer_factory.hpp:74] Creating layer inception_5b/relu_pool_proj
I1216 21:15:58.630424 25674 net.cpp:84] Creating Layer inception_5b/relu_pool_proj
I1216 21:15:58.630429 25674 net.cpp:380] inception_5b/relu_pool_proj <- inception_5b/pool_proj
I1216 21:15:58.630439 25674 net.cpp:327] inception_5b/relu_pool_proj -> inception_5b/pool_proj (in-place)
I1216 21:15:58.630447 25674 net.cpp:113] Setting up inception_5b/relu_pool_proj
I1216 21:15:58.630517 25674 net.cpp:120] Top shape: 80 128 7 7 (501760)
I1216 21:15:58.630524 25674 layer_factory.hpp:74] Creating layer inception_5b/output
I1216 21:15:58.630532 25674 net.cpp:84] Creating Layer inception_5b/output
I1216 21:15:58.630537 25674 net.cpp:380] inception_5b/output <- inception_5b/1x1
I1216 21:15:58.630544 25674 net.cpp:380] inception_5b/output <- inception_5b/3x3
I1216 21:15:58.630550 25674 net.cpp:380] inception_5b/output <- inception_5b/5x5
I1216 21:15:58.630560 25674 net.cpp:380] inception_5b/output <- inception_5b/pool_proj
I1216 21:15:58.630573 25674 net.cpp:338] inception_5b/output -> inception_5b/output
I1216 21:15:58.630583 25674 net.cpp:113] Setting up inception_5b/output
I1216 21:15:58.630591 25674 net.cpp:120] Top shape: 80 1024 7 7 (4014080)
I1216 21:15:58.630595 25674 layer_factory.hpp:74] Creating layer pool5/7x7_s1
I1216 21:15:58.630604 25674 net.cpp:84] Creating Layer pool5/7x7_s1
I1216 21:15:58.630609 25674 net.cpp:380] pool5/7x7_s1 <- inception_5b/output
I1216 21:15:58.630619 25674 net.cpp:338] pool5/7x7_s1 -> pool5/7x7_s1
I1216 21:15:58.630625 25674 net.cpp:113] Setting up pool5/7x7_s1
I1216 21:15:58.630697 25674 net.cpp:120] Top shape: 80 1024 1 1 (81920)
I1216 21:15:58.630704 25674 layer_factory.hpp:74] Creating layer pool5/drop_7x7_s1
I1216 21:15:58.630712 25674 net.cpp:84] Creating Layer pool5/drop_7x7_s1
I1216 21:15:58.630717 25674 net.cpp:380] pool5/drop_7x7_s1 <- pool5/7x7_s1
I1216 21:15:58.630723 25674 net.cpp:327] pool5/drop_7x7_s1 -> pool5/7x7_s1 (in-place)
I1216 21:15:58.630729 25674 net.cpp:113] Setting up pool5/drop_7x7_s1
I1216 21:15:58.630738 25674 net.cpp:120] Top shape: 80 1024 1 1 (81920)
I1216 21:15:58.630743 25674 layer_factory.hpp:74] Creating layer loss3/classifier_kaggle
I1216 21:15:58.630750 25674 net.cpp:84] Creating Layer loss3/classifier_kaggle
I1216 21:15:58.630755 25674 net.cpp:380] loss3/classifier_kaggle <- pool5/7x7_s1
I1216 21:15:58.630762 25674 net.cpp:338] loss3/classifier_kaggle -> loss3/classifier_kaggle
I1216 21:15:58.630770 25674 net.cpp:113] Setting up loss3/classifier_kaggle
I1216 21:15:58.635473 25674 net.cpp:120] Top shape: 80 447 (35760)
I1216 21:15:58.635485 25674 layer_factory.hpp:74] Creating layer loss3/loss3
I1216 21:15:58.635493 25674 net.cpp:84] Creating Layer loss3/loss3
I1216 21:15:58.635498 25674 net.cpp:380] loss3/loss3 <- loss3/classifier_kaggle
I1216 21:15:58.635504 25674 net.cpp:380] loss3/loss3 <- label_data_1_split_2
I1216 21:15:58.635510 25674 net.cpp:338] loss3/loss3 -> loss3/loss3
I1216 21:15:58.635519 25674 net.cpp:113] Setting up loss3/loss3
…
I1216 21:15:58.640398 25674 net.cpp:257] The NetState phase (1) differed from the phase (0) specified by a rule in layer data
I1216 21:15:58.641690 25674 net.cpp:42] Initializing net from parameters: 
name: "GoogleNet"
state {
  phase: TEST
}
layer {
  name: "data"
  type: "Data"
  top: "data"
  top: "label"
  include {
    phase: TEST
  }
  transform_param {
    mirror: false
    crop_size: 224
    mean_value: 129
    mean_value: 129
    mean_value: 129
  }
  data_param {
    source: "/home/coldmanck/kaggle/kaggle2_val_lmdb"
    batch_size: 50
    backend: LMDB
  }
}
layer {
  name: "conv1/7x7_s2"
  type: "Convolution"
  bottom: "data"
  top: "conv1/7x7_s2"
  param {
    lr_mult: 1
    decay_mult: 1
  }
  param {
    lr_mult: 2
    decay_mult: 0
  }
  convolution_param {
    num_output: 64
    pad: 3
    kernel_size: 7
    stride: 2
    weight_filler {
      type: "xavier"
    }
    bias_filler {
      type: "constant"
      value: 0.2
    }
  }
}
layer {
  name: "conv1/relu_7x7"
  type: "ReLU"
  bottom: "conv1/7x7_s2"
  top: "conv1/7x7_s2"
}
layer {
  name: "pool1/3x3_s2"
  type: "Pooling"
  bottom: "conv1/7x7_s2"
  top: "pool1/3x3_s2"
  pooling_param {
    pool: MAX
    kernel_size: 3
    stride: 2
  }
}
layer {
  name: "pool1/norm1"
  type: "LRN"
  bottom: "pool1/3x3_s2"
  top: "pool1/norm1"
  lrn_param {
    local_size: 5
    alpha: 0.0001
    beta: 0.75
  }
}
layer {
  name: "conv2/3x3_reduce"
  type: "Convolution"
  bottom: "pool1/norm1"
  top: "conv2/3x3_reduce"
  param {
    lr_mult: 1
    decay_mult: 1
  }
  param {
    lr_mult: 2
    decay_mult: 0
  }
  convolution_param {
    num_output: 64
    kernel_size: 1
    weight_filler {
      type: "xavier"
    }
    bias_filler {
      type: "constant"
      value: 0.2
    }
  }
}
layer {
  name: "conv2/relu_3x3_reduce"
  type: "ReLU"
  bottom: "conv2/3x3_reduce"
  top: "conv2/3x3_reduce"
}
layer {
  name: "conv2/3x3"
  type: "Convolution"
  bottom: "conv2/3x3_reduce"
  top: "conv2/3x3"
  param {
    lr_mult: 1
    decay_mult: 1
  }
  param {
    lr_mult: 2
    decay_mult: 0
  }
  convolution_param {
    num_output: 192
    pad: 1
    kernel_size: 3
    weight_filler {
      type: "xavier"
    }
    bias_filler {
      type: "constant"
      value: 0.2
    }
  }
}
layer {
  name: "conv2/relu_3x3"
  type: "ReLU"
  bottom: "conv2/3x3"
  top: "conv2/3x3"
}
layer {
  name: "conv2/norm2"
  type: "LRN"
  bottom: "conv2/3x3"
  top: "conv2/norm2"
  lrn_param {
    local_size: 5
    alpha: 0.0001
    beta: 0.75
  }
}
layer {
  name: "pool2/3x3_s2"
  type: "Pooling"
  bottom: "conv2/norm2"
  top: "pool2/3x3_s2"
  pooling_param {
    pool: MAX
    kernel_size: 3
    stride: 2
  }
}
layer {
  name: "inception_3a/1x1"
  type: "Convolution"
  bottom: "pool2/3x3_s2"
  top: "inception_3a/1x1"
  param {
    lr_mult: 1
    decay_mult: 1
  }
  param {
    lr_mult: 2
    decay_mult: 0
  }
  convolution_param {
    num_output: 64
    kernel_size: 1
    weight_filler {
      type: "xavier"
    }
    bias_filler {
      type: "constant"
      value: 0.2
    }
  }
}
layer {
  name: "inception_3a/relu_1x1"
  type: "ReLU"
  bottom: "inception_3a/1x1"
  top: "inception_3a/1x1"
}
layer {
  name: "inception_3a/3x3_reduce"
  type: "Convolution"
  bottom: "pool2/3x3_s2"
  top: "inception_3a/3x3_reduce"
  param {
    lr_mult: 1
    decay_mult: 1
  }
  param {
    lr_mult: 2
    decay_mult: 0
  }
  convolution_param {
    num_output: 96
    kernel_size: 1
    weight_filler {
      type: "xavier"
    }
    bias_filler {
      type: "constant"
      value: 0.2
    }
  }
}
layer {
  name: "inception_3a/relu_3x3_reduce"
  type: "ReLU"
  bottom: "inception_3a/3x3_reduce"
  top: "inception_3a/3x3_reduce"
}
layer {
  name: "inception_3a/3x3"
  type: "Convolution"
  bottom: "inception_3a/3x3_reduce"
  top: "inception_3a/3x3"
  param {
    lr_mult: 1
    decay_mult: 1
  }
  param {
    lr_mult: 2
    decay_mult: 0
  }
  convolution_param {
    num_output: 128
    pad: 1
    kernel_size: 3
    weight_filler {
      type: "xavier"
    }
    bias_filler {
      type: "constant"
      value: 0.2
    }
  }
}
layer {
  name: "inception_3a/relu_3x3"
  type: "ReLU"
  bottom: "inception_3a/3x3"
  top: "inception_3a/3x3"
}
layer {
  name: "inception_3a/5x5_reduce"
  type: "Convolution"
  bottom: "pool2/3x3_s2"
  top: "inception_3a/5x5_reduce"
  param {
    lr_mult: 1
    decay_mult: 1
  }
  param {
    lr_mult: 2
    decay_mult: 0
  }
  convolution_param {
    num_output: 16
    kernel_size: 1
    weight_filler {
      type: "xavier"
    }
    bias_filler {
      type: "constant"
      value: 0.2
    }
  }
}
layer {
  name: "inception_3a/relu_5x5_reduce"
  type: "ReLU"
  bottom: "inception_3a/5x5_reduce"
  top: "inception_3a/5x5_reduce"
}
layer {
  name: "inception_3a/5x5"
  type: "Convolution"
  bottom: "inception_3a/5x5_reduce"
  top: "inception_3a/5x5"
  param {
    lr_mult: 1
    decay_mult: 1
  }
  param {
    lr_mult: 2
    decay_mult: 0
  }
  convolution_param {
    num_output: 32
    pad: 2
    kernel_size: 5
    weight_filler {
      type: "xavier"
    }
    bias_filler {
      type: "constant"
      value: 0.2
    }
  }
}
layer {
  name: "inception_3a/relu_5x5"
  type: "ReLU"
  bottom: "inception_3a/5x5"
  top: "inception_3a/5x5"
}
layer {
  name: "inception_3a/pool"
  type: "Pooling"
  bottom: "pool2/3x3_s2"
  top: "inception_3a/pool"
  pooling_param {
    pool: MAX
    kernel_size: 3
    stride: 1
    pad: 1
  }
}
layer {
  name: "inception_3a/pool_proj"
  type: "Convolution"
  bottom: "inception_3a/pool"
  top: "inception_3a/pool_proj"
  param {
    lr_mult: 1
    decay_mult: 1
  }
  param {
    lr_mult: 2
    decay_mult: 0
  }
  convolution_param {
    num_output: 32
    kernel_size: 1
    weight_filler {
      type: "xavier"
    }
    bias_filler {
      type: "constant"
      value: 0.2
    }
  }
}
layer {
  name: "inception_3a/relu_pool_proj"
  type: "ReLU"
  bottom: "inception_3a/pool_proj"
  top: "inception_3a/pool_proj"
}
layer {
  name: "inception_3a/output"
  type: "Concat"
  bottom: "inception_3a/1x1"
  bottom: "inception_3a/3x3"
  bottom: "inception_3a/5x5"
  bottom: "inception_3a/pool_proj"
  top: "inception_3a/output"
}
layer {
  name: "inception_3b/1x1"
  type: "Convolution"
  bottom: "inception_3a/output"
  top: "inception_3b/1x1"
  param {
    lr_mult: 1
    decay_mult: 1
  }
  param {
    lr_mult: 2
    decay_mult: 0
  }
  convolution_param {
    num_output: 128
    kernel_size: 1
    weight_filler {
      type: "xavier"
    }
    bias_filler {
      type: "constant"
      value: 0.2
    }
  }
}
layer {
  name: "inception_3b/relu_1x1"
  type: "ReLU"
  bottom: "inception_3b/1x1"
  top: "inception_3b/1x1"
}
layer {
  name: "inception_3b/3x3_reduce"
  type: "Convolution"
  bottom: "inception_3a/output"
  top: "inception_3b/3x3_reduce"
  param {
    lr_mult: 1
    decay_mult: 1
  }
  param {
    lr_mult: 2
    decay_mult: 0
  }
  convolution_param {
    num_output: 128
    kernel_size: 1
    weight_filler {
      type: "xavier"
    }
    bias_filler {
      type: "constant"
      value: 0.2
    }
  }
}
layer {
  name: "inception_3b/relu_3x3_reduce"
  type: "ReLU"
  bottom: "inception_3b/3x3_reduce"
  top: "inception_3b/3x3_reduce"
}
layer {
  name: "inception_3b/3x3"
  type: "Convolution"
  bottom: "inception_3b/3x3_reduce"
  top: "inception_3b/3x3"
  param {
    lr_mult: 1
    decay_mult: 1
  }
  param {
    lr_mult: 2
    decay_mult: 0
  }
  convolution_param {
    num_output: 192
    pad: 1
    kernel_size: 3
    weight_filler {
      type: "xavier"
    }
    bias_filler {
      type: "constant"
      value: 0.2
    }
  }
}
layer {
  name: "inception_3b/relu_3x3"
  type: "ReLU"
  bottom: "inception_3b/3x3"
  top: "inception_3b/3x3"
}
layer {
  name: "inception_3b/5x5_reduce"
  type: "Convolution"
  bottom: "inception_3a/output"
  top: "inception_3b/5x5_reduce"
  param {
    lr_mult: 1
    decay_mult: 1
  }
  param {
    lr_mult: 2
    decay_mult: 0
  }
  convolution_param {
    num_output: 32
    kernel_size: 1
    weight_filler {
      type: "xavier"
    }
    bias_filler {
      type: "constant"
      value: 0.2
    }
  }
}
layer {
  name: "inception_3b/relu_5x5_reduce"
  type: "ReLU"
  bottom: "inception_3b/5x5_reduce"
  top: "inception_3b/5x5_reduce"
}
layer {
  name: "inception_3b/5x5"
  type: "Convolution"
  bottom: "inception_3b/5x5_reduce"
  top: "inception_3b/5x5"
  param {
    lr_mult: 1
    decay_mult: 1
  }
  param {
    lr_mult: 2
    decay_mult: 0
  }
  convolution_param {
    num_output: 96
    pad: 2
    kernel_size: 5
    weight_filler {
      type: "xavier"
    }
    bias_filler {
      type: "constant"
      value: 0.2
    }
  }
}
layer {
  name: "inception_3b/relu_5x5"
  type: "ReLU"
  bottom: "inception_3b/5x5"
  top: "inception_3b/5x5"
}
layer {
  name: "inception_3b/pool"
  type: "Pooling"
  bottom: "inception_3a/output"
  top: "inception_3b/pool"
  pooling_param {
    pool: MAX
    kernel_size: 3
    stride: 1
    pad: 1
  }
}
layer {
  name: "inception_3b/pool_proj"
  type: "Convolution"
  bottom: "inception_3b/pool"
  top: "inception_3b/pool_proj"
  param {
    lr_mult: 1
    decay_mult: 1
  }
  param {
    lr_mult: 2
    decay_mult: 0
  }
  convolution_param {
    num_output: 64
    kernel_size: 1
    weight_filler {
      type: "xavier"
    }
    bias_filler {
      type: "constant"
      value: 0.2
    }
  }
}
layer {
  name: "inception_3b/relu_pool_proj"
  type: "ReLU"
  bottom: "inception_3b/pool_proj"
  top: "inception_3b/pool_proj"
}
layer {
  name: "inception_3b/output"
  type: "Concat"
  bottom: "inception_3b/1x1"
  bottom: "inception_3b/3x3"
  bottom: "inception_3b/5x5"
  bottom: "inception_3b/pool_proj"
  top: "inception_3b/output"
}
layer {
  name: "pool3/3x3_s2"
  type: "Pooling"
  bottom: "inception_3b/output"
  top: "pool3/3x3_s2"
  pooling_param {
    pool: MAX
    kernel_size: 3
    stride: 2
  }
}
layer {
  name: "inception_4a/1x1"
  type: "Convolution"
  bottom: "pool3/3x3_s2"
  top: "inception_4a/1x1"
  param {
    lr_mult: 1
    decay_mult: 1
  }
  param {
    lr_mult: 2
    decay_mult: 0
  }
  convolution_param {
    num_output: 192
    kernel_size: 1
    weight_filler {
      type: "xavier"
    }
    bias_filler {
      type: "constant"
      value: 0.2
    }
  }
}
layer {
  name: "inception_4a/relu_1x1"
  type: "ReLU"
  bottom: "inception_4a/1x1"
  top: "inception_4a/1x1"
}
layer {
  name: "inception_4a/3x3_reduce"
  type: "Convolution"
  bottom: "pool3/3x3_s2"
  top: "inception_4a/3x3_reduce"
  param {
    lr_mult: 1
    decay_mult: 1
  }
  param {
    lr_mult: 2
    decay_mult: 0
  }
  convolution_param {
    num_output: 96
    kernel_size: 1
    weight_filler {
      type: "xavier"
    }
    bias_filler {
      type: "constant"
      value: 0.2
    }
  }
}
layer {
  name: "inception_4a/relu_3x3_reduce"
  type: "ReLU"
  bottom: "inception_4a/3x3_reduce"
  top: "inception_4a/3x3_reduce"
}
layer {
  name: "inception_4a/3x3"
  type: "Convolution"
  bottom: "inception_4a/3x3_reduce"
  top: "inception_4a/3x3"
  param {
    lr_mult: 1
    decay_mult: 1
  }
  param {
    lr_mult: 2
    decay_mult: 0
  }
  convolution_param {
    num_output: 208
    pad: 1
    kernel_size: 3
    weight_filler {
      type: "xavier"
    }
    bias_filler {
      type: "constant"
      value: 0.2
    }
  }
}
layer {
  name: "inception_4a/relu_3x3"
  type: "ReLU"
  bottom: "inception_4a/3x3"
  top: "inception_4a/3x3"
}
layer {
  name: "inception_4a/5x5_reduce"
  type: "Convolution"
  bottom: "pool3/3x3_s2"
  top: "inception_4a/5x5_reduce"
  param {
    lr_mult: 1
    decay_mult: 1
  }
  param {
    lr_mult: 2
    decay_mult: 0
  }
  convolution_param {
    num_output: 16
    kernel_size: 1
    weight_filler {
      type: "xavier"
    }
    bias_filler {
      type: "constant"
      value: 0.2
    }
  }
}
layer {
  name: "inception_4a/relu_5x5_reduce"
  type: "ReLU"
  bottom: "inception_4a/5x5_reduce"
  top: "inception_4a/5x5_reduce"
}
layer {
  name: "inception_4a/5x5"
  type: "Convolution"
  bottom: "inception_4a/5x5_reduce"
  top: "inception_4a/5x5"
  param {
    lr_mult: 1
    decay_mult: 1
  }
  param {
    lr_mult: 2
    decay_mult: 0
  }
  convolution_param {
    num_output: 48
    pad: 2
    kernel_size: 5
    weight_filler {
      type: "xavier"
    }
    bias_filler {
      type: "constant"
      value: 0.2
    }
  }
}
layer {
  name: "inception_4a/relu_5x5"
  type: "ReLU"
  bottom: "inception_4a/5x5"
  top: "inception_4a/5x5"
}
layer {
  name: "inception_4a/pool"
  type: "Pooling"
  bottom: "pool3/3x3_s2"
  top: "inception_4a/pool"
  pooling_param {
    pool: MAX
    kernel_size: 3
    stride: 1
    pad: 1
  }
}
layer {
  name: "inception_4a/pool_proj"
  type: "Convolution"
  bottom: "inception_4a/pool"
  top: "inception_4a/pool_proj"
  param {
    lr_mult: 1
    decay_mult: 1
  }
  param {
    lr_mult: 2
    decay_mult: 0
  }
  convolution_param {
    num_output: 64
    kernel_size: 1
    weight_filler {
      type: "xavier"
    }
    bias_filler {
      type: "constant"
      value: 0.2
    }
  }
}
layer {
  name: "inception_4a/relu_pool_proj"
  type: "ReLU"
  bottom: "inception_4a/pool_proj"
  top: "inception_4a/pool_proj"
}
layer {
  name: "inception_4a/output"
  type: "Concat"
  bottom: "inception_4a/1x1"
  bottom: "inception_4a/3x3"
  bottom: "inception_4a/5x5"
  bottom: "inception_4a/pool_proj"
  top: "inception_4a/output"
}
layer {
  name: "loss1/ave_pool"
  type: "Pooling"
  bottom: "inception_4a/output"
  top: "loss1/ave_pool"
  pooling_param {
    pool: AVE
    kernel_size: 5
    stride: 3
  }
}
layer {
  name: "loss1/conv"
  type: "Convolution"
  bottom: "loss1/ave_pool"
  top: "loss1/conv"
  param {
    lr_mult: 1
    decay_mult: 1
  }
  param {
    lr_mult: 2
    decay_mult: 0
  }
  convolution_param {
    num_output: 128
    kernel_size: 1
    weight_filler {
      type: "xavier"
    }
    bias_filler {
      type: "constant"
      value: 0.2
    }
  }
}
layer {
  name: "loss1/relu_conv"
  type: "ReLU"
  bottom: "loss1/conv"
  top: "loss1/conv"
}
layer {
  name: "loss1/fc"
  type: "InnerProduct"
  bottom: "loss1/conv"
  top: "loss1/fc"
  param {
    lr_mult: 1
    decay_mult: 1
  }
  param {
    lr_mult: 2
    decay_mult: 0
  }
  inner_product_param {
    num_output: 1024
    weight_filler {
      type: "xavier"
    }
    bias_filler {
      type: "constant"
      value: 0.2
    }
  }
}
layer {
  name: "loss1/relu_fc"
  type: "ReLU"
  bottom: "loss1/fc"
  top: "loss1/fc"
}
layer {
  name: "loss1/drop_fc"
  type: "Dropout"
  bottom: "loss1/fc"
  top: "loss1/fc"
  dropout_param {
    dropout_ratio: 0.7
  }
}
layer {
  name: "loss1/classifier_kaggle"
  type: "InnerProduct"
  bottom: "loss1/fc"
  top: "loss1/classifier_kaggle"
  param {
    lr_mult: 1
    decay_mult: 1
  }
  param {
    lr_mult: 2
    decay_mult: 0
  }
  inner_product_param {
    num_output: 447
    weight_filler {
      type: "xavier"
    }
    bias_filler {
      type: "constant"
      value: 0
    }
  }
}
layer {
  name: "loss1/loss"
  type: "SoftmaxWithLoss"
  bottom: "loss1/classifier_kaggle"
  bottom: "label"
  top: "loss1/loss1"
  loss_weight: 0.3
}
layer {
  name: "loss1/top-1"
  type: "Accuracy"
  bottom: "loss1/classifier_kaggle"
  bottom: "label"
  top: "loss1/top-1"
  include {
    phase: TEST
  }
}
layer {
  name: "loss1/top-5"
  type: "Accuracy"
  bottom: "loss1/classifier_kaggle"
  bottom: "label"
  top: "loss1/top-5"
  include {
    phase: TEST
  }
  accuracy_param {
    top_k: 5
  }
}
layer {
  name: "inception_4b/1x1"
  type: "Convolution"
  bottom: "inception_4a/output"
  top: "inception_4b/1x1"
  param {
    lr_mult: 1
    decay_mult: 1
  }
  param {
    lr_mult: 2
    decay_mult: 0
  }
  convolution_param {
    num_output: 160
    kernel_size: 1
    weight_filler {
      type: "xavier"
    }
    bias_filler {
      type: "constant"
      value: 0.2
    }
  }
}
layer {
  name: "inception_4b/relu_1x1"
  type: "ReLU"
  bottom: "inception_4b/1x1"
  top: "inception_4b/1x1"
}
layer {
  name: "inception_4b/3x3_reduce"
  type: "Convolution"
  bottom: "inception_4a/output"
  top: "inception_4b/3x3_reduce"
  param {
    lr_mult: 1
    decay_mult: 1
  }
  param {
    lr_mult: 2
    decay_mult: 0
  }
  convolution_param {
    num_output: 112
    kernel_size: 1
    weight_filler {
      type: "xavier"
    }
    bias_filler {
      type: "constant"
      value: 0.2
    }
  }
}
layer {
  name: "inception_4b/relu_3x3_reduce"
  type: "ReLU"
  bottom: "inception_4b/3x3_reduce"
  top: "inception_4b/3x3_reduce"
}
layer {
  name: "inception_4b/3x3"
  type: "Convolution"
  bottom: "inception_4b/3x3_reduce"
  top: "inception_4b/3x3"
  param {
    lr_mult: 1
    decay_mult: 1
  }
  param {
    lr_mult: 2
    decay_mult: 0
  }
  convolution_param {
    num_output: 224
    pad: 1
    kernel_size: 3
    weight_filler {
      type: "xavier"
    }
    bias_filler {
      type: "constant"
      value: 0.2
    }
  }
}
layer {
  name: "inception_4b/relu_3x3"
  type: "ReLU"
  bottom: "inception_4b/3x3"
  top: "inception_4b/3x3"
}
layer {
  name: "inception_4b/5x5_reduce"
  type: "Convolution"
  bottom: "inception_4a/output"
  top: "inception_4b/5x5_reduce"
  param {
    lr_mult: 1
    decay_mult: 1
  }
  param {
    lr_mult: 2
    decay_mult: 0
  }
  convolution_param {
    num_output: 24
    kernel_size: 1
    weight_filler {
      type: "xavier"
    }
    bias_filler {
      type: "constant"
      value: 0.2
    }
  }
}
layer {
  name: "inception_4b/relu_5x5_reduce"
  type: "ReLU"
  bottom: "inception_4b/5x5_reduce"
  top: "inception_4b/5x5_reduce"
}
layer {
  name: "inception_4b/5x5"
  type: "Convolution"
  bottom: "inception_4b/5x5_reduce"
  top: "inception_4b/5x5"
  param {
    lr_mult: 1
    decay_mult: 1
  }
  param {
    lr_mult: 2
    decay_mult: 0
  }
  convolution_param {
    num_output: 64
    pad: 2
    kernel_size: 5
    weight_filler {
      type: "xavier"
    }
    bias_filler {
      type: "constant"
      value: 0.2
    }
  }
}
layer {
  name: "inception_4b/relu_5x5"
  type: "ReLU"
  bottom: "inception_4b/5x5"
  top: "inception_4b/5x5"
}
layer {
  name: "inception_4b/pool"
  type: "Pooling"
  bottom: "inception_4a/output"
  top: "inception_4b/pool"
  pooling_param {
    pool: MAX
    kernel_size: 3
    stride: 1
    pad: 1
  }
}
layer {
  name: "inception_4b/pool_proj"
  type: "Convolution"
  bottom: "inception_4b/pool"
  top: "inception_4b/pool_proj"
  param {
    lr_mult: 1
    decay_mult: 1
  }
  param {
    lr_mult: 2
    decay_mult: 0
  }
  convolution_param {
    num_output: 64
    kernel_size: 1
    weight_filler {
      type: "xavier"
    }
    bias_filler {
      type: "constant"
      value: 0.2
    }
  }
}
layer {
  name: "inception_4b/relu_pool_proj"
  type: "ReLU"
  bottom: "inception_4b/pool_proj"
  top: "inception_4b/pool_proj"
}
layer {
  name: "inception_4b/output"
  type: "Concat"
  bottom: "inception_4b/1x1"
  bottom: "inception_4b/3x3"
  bottom: "inception_4b/5x5"
  bottom: "inception_4b/pool_proj"
  top: "inception_4b/output"
}
layer {
  name: "inception_4c/1x1"
  type: "Convolution"
  bottom: "inception_4b/output"
  top: "inception_4c/1x1"
  param {
    lr_mult: 1
    decay_mult: 1
  }
  param {
    lr_mult: 2
    decay_mult: 0
  }
  convolution_param {
    num_output: 128
    kernel_size: 1
    weight_filler {
      type: "xavier"
    }
    bias_filler {
      type: "constant"
      value: 0.2
    }
  }
}
layer {
  name: "inception_4c/relu_1x1"
  type: "ReLU"
  bottom: "inception_4c/1x1"
  top: "inception_4c/1x1"
}
layer {
  name: "inception_4c/3x3_reduce"
  type: "Convolution"
  bottom: "inception_4b/output"
  top: "inception_4c/3x3_reduce"
  param {
    lr_mult: 1
    decay_mult: 1
  }
  param {
    lr_mult: 2
    decay_mult: 0
  }
  convolution_param {
    num_output: 128
    kernel_size: 1
    weight_filler {
      type: "xavier"
    }
    bias_filler {
      type: "constant"
      value: 0.2
    }
  }
}
layer {
  name: "inception_4c/relu_3x3_reduce"
  type: "ReLU"
  bottom: "inception_4c/3x3_reduce"
  top: "inception_4c/3x3_reduce"
}
layer {
  name: "inception_4c/3x3"
  type: "Convolution"
  bottom: "inception_4c/3x3_reduce"
  top: "inception_4c/3x3"
  param {
    lr_mult: 1
    decay_mult: 1
  }
  param {
    lr_mult: 2
    decay_mult: 0
  }
  convolution_param {
    num_output: 256
    pad: 1
    kernel_size: 3
    weight_filler {
      type: "xavier"
    }
    bias_filler {
      type: "constant"
      value: 0.2
    }
  }
}
layer {
  name: "inception_4c/relu_3x3"
  type: "ReLU"
  bottom: "inception_4c/3x3"
  top: "inception_4c/3x3"
}
layer {
  name: "inception_4c/5x5_reduce"
  type: "Convolution"
  bottom: "inception_4b/output"
  top: "inception_4c/5x5_reduce"
  param {
    lr_mult: 1
    decay_mult: 1
  }
  param {
    lr_mult: 2
    decay_mult: 0
  }
  convolution_param {
    num_output: 24
    kernel_size: 1
    weight_filler {
      type: "xavier"
    }
    bias_filler {
      type: "constant"
      value: 0.2
    }
  }
}
layer {
  name: "inception_4c/relu_5x5_reduce"
  type: "ReLU"
  bottom: "inception_4c/5x5_reduce"
  top: "inception_4c/5x5_reduce"
}
layer {
  name: "inception_4c/5x5"
  type: "Convolution"
  bottom: "inception_4c/5x5_reduce"
  top: "inception_4c/5x5"
  param {
    lr_mult: 1
    decay_mult: 1
  }
  param {
    lr_mult: 2
    decay_mult: 0
  }
  convolution_param {
    num_output: 64
    pad: 2
    kernel_size: 5
    weight_filler {
      type: "xavier"
    }
    bias_filler {
      type: "constant"
      value: 0.2
    }
  }
}
layer {
  name: "inception_4c/relu_5x5"
  type: "ReLU"
  bottom: "inception_4c/5x5"
  top: "inception_4c/5x5"
}
layer {
  name: "inception_4c/pool"
  type: "Pooling"
  bottom: "inception_4b/output"
  top: "inception_4c/pool"
  pooling_param {
    pool: MAX
    kernel_size: 3
    stride: 1
    pad: 1
  }
}
layer {
  name: "inception_4c/pool_proj"
  type: "Convolution"
  bottom: "inception_4c/pool"
  top: "inception_4c/pool_proj"
  param {
    lr_mult: 1
    decay_mult: 1
  }
  param {
    lr_mult: 2
    decay_mult: 0
  }
  convolution_param {
    num_output: 64
    kernel_size: 1
    weight_filler {
      type: "xavier"
    }
    bias_filler {
      type: "constant"
      value: 0.2
    }
  }
}
layer {
  name: "inception_4c/relu_pool_proj"
  type: "ReLU"
  bottom: "inception_4c/pool_proj"
  top: "inception_4c/pool_proj"
}
layer {
  name: "inception_4c/output"
  type: "Concat"
  bottom: "inception_4c/1x1"
  bottom: "inception_4c/3x3"
  bottom: "inception_4c/5x5"
  bottom: "inception_4c/pool_proj"
  top: "inception_4c/output"
}
layer {
  name: "inception_4d/1x1"
  type: "Convolution"
  bottom: "inception_4c/output"
  top: "inception_4d/1x1"
  param {
    lr_mult: 1
    decay_mult: 1
  }
  param {
    lr_mult: 2
    decay_mult: 0
  }
  convolution_param {
    num_output: 112
    kernel_size: 1
    weight_filler {
      type: "xavier"
    }
    bias_filler {
      type: "constant"
      value: 0.2
    }
  }
}
layer {
  name: "inception_4d/relu_1x1"
  type: "ReLU"
  bottom: "inception_4d/1x1"
  top: "inception_4d/1x1"
}
layer {
  name: "inception_4d/3x3_reduce"
  type: "Convolution"
  bottom: "inception_4c/output"
  top: "inception_4d/3x3_reduce"
  param {
    lr_mult: 1
    decay_mult: 1
  }
  param {
    lr_mult: 2
    decay_mult: 0
  }
  convolution_param {
    num_output: 144
    kernel_size: 1
    weight_filler {
      type: "xavier"
    }
    bias_filler {
      type: "constant"
      value: 0.2
    }
  }
}
layer {
  name: "inception_4d/relu_3x3_reduce"
  type: "ReLU"
  bottom: "inception_4d/3x3_reduce"
  top: "inception_4d/3x3_reduce"
}
layer {
  name: "inception_4d/3x3"
  type: "Convolution"
  bottom: "inception_4d/3x3_reduce"
  top: "inception_4d/3x3"
  param {
    lr_mult: 1
    decay_mult: 1
  }
  param {
    lr_mult: 2
    decay_mult: 0
  }
  convolution_param {
    num_output: 288
    pad: 1
    kernel_size: 3
    weight_filler {
      type: "xavier"
    }
    bias_filler {
      type: "constant"
      value: 0.2
    }
  }
}
layer {
  name: "inception_4d/relu_3x3"
  type: "ReLU"
  bottom: "inception_4d/3x3"
  top: "inception_4d/3x3"
}
layer {
  name: "inception_4d/5x5_reduce"
  type: "Convolution"
  bottom: "inception_4c/output"
  top: "inception_4d/5x5_reduce"
  param {
    lr_mult: 1
    decay_mult: 1
  }
  param {
    lr_mult: 2
    decay_mult: 0
  }
  convolution_param {
    num_output: 32
    kernel_size: 1
    weight_filler {
      type: "xavier"
    }
    bias_filler {
      type: "constant"
      value: 0.2
    }
  }
}
layer {
  name: "inception_4d/relu_5x5_reduce"
  type: "ReLU"
  bottom: "inception_4d/5x5_reduce"
  top: "inception_4d/5x5_reduce"
}
layer {
  name: "inception_4d/5x5"
  type: "Convolution"
  bottom: "inception_4d/5x5_reduce"
  top: "inception_4d/5x5"
  param {
    lr_mult: 1
    decay_mult: 1
  }
  param {
    lr_mult: 2
    decay_mult: 0
  }
  convolution_param {
    num_output: 64
    pad: 2
    kernel_size: 5
    weight_filler {
      type: "xavier"
    }
    bias_filler {
      type: "constant"
      value: 0.2
    }
  }
}
layer {
  name: "inception_4d/relu_5x5"
  type: "ReLU"
  bottom: "inception_4d/5x5"
  top: "inception_4d/5x5"
}
layer {
  name: "inception_4d/pool"
  type: "Pooling"
  bottom: "inception_4c/output"
  top: "inception_4d/pool"
  pooling_param {
    pool: MAX
    kernel_size: 3
    stride: 1
    pad: 1
  }
}
layer {
  name: "inception_4d/pool_proj"
  type: "Convolution"
  bottom: "inception_4d/pool"
  top: "inception_4d/pool_proj"
  param {
    lr_mult: 1
    decay_mult: 1
  }
  param {
    lr_mult: 2
    decay_mult: 0
  }
  convolution_param {
    num_output: 64
    kernel_size: 1
    weight_filler {
      type: "xavier"
    }
    bias_filler {
      type: "constant"
      value: 0.2
    }
  }
}
layer {
  name: "inception_4d/relu_pool_proj"
  type: "ReLU"
  bottom: "inception_4d/pool_proj"
  top: "inception_4d/pool_proj"
}
layer {
  name: "inception_4d/output"
  type: "Concat"
  bottom: "inception_4d/1x1"
  bottom: "inception_4d/3x3"
  bottom: "inception_4d/5x5"
  bottom: "inception_4d/pool_proj"
  top: "inception_4d/output"
}
layer {
  name: "loss2/ave_pool"
  type: "Pooling"
  bottom: "inception_4d/output"
  top: "loss2/ave_pool"
  pooling_param {
    pool: AVE
    kernel_size: 5
    stride: 3
  }
}
layer {
  name: "loss2/conv"
  type: "Convolution"
  bottom: "loss2/ave_pool"
  top: "loss2/conv"
  param {
    lr_mult: 1
    decay_mult: 1
  }
  param {
    lr_mult: 2
    decay_mult: 0
  }
  convolution_param {
…
I1216 21:15:59.148311 25674 net.cpp:84] Creating Layer inception_4c/1x1
I1216 21:15:59.148315 25674 net.cpp:380] inception_4c/1x1 <- inception_4b/output_inception_4b/output_0_split_0
I1216 21:15:59.148325 25674 net.cpp:338] inception_4c/1x1 -> inception_4c/1x1
I1216 21:15:59.148334 25674 net.cpp:113] Setting up inception_4c/1x1
I1216 21:15:59.149551 25674 net.cpp:120] Top shape: 50 128 14 14 (1254400)
I1216 21:15:59.149569 25674 layer_factory.hpp:74] Creating layer inception_4c/relu_1x1
I1216 21:15:59.149575 25674 net.cpp:84] Creating Layer inception_4c/relu_1x1
I1216 21:15:59.149581 25674 net.cpp:380] inception_4c/relu_1x1 <- inception_4c/1x1
I1216 21:15:59.149588 25674 net.cpp:327] inception_4c/relu_1x1 -> inception_4c/1x1 (in-place)
I1216 21:15:59.149596 25674 net.cpp:113] Setting up inception_4c/relu_1x1
I1216 21:15:59.154145 25674 net.cpp:120] Top shape: 50 128 14 14 (1254400)
I1216 21:15:59.154161 25674 layer_factory.hpp:74] Creating layer inception_4c/3x3_reduce
I1216 21:15:59.154173 25674 net.cpp:84] Creating Layer inception_4c/3x3_reduce
I1216 21:15:59.154181 25674 net.cpp:380] inception_4c/3x3_reduce <- inception_4b/output_inception_4b/output_0_split_1
I1216 21:15:59.154197 25674 net.cpp:338] inception_4c/3x3_reduce -> inception_4c/3x3_reduce
I1216 21:15:59.154216 25674 net.cpp:113] Setting up inception_4c/3x3_reduce
I1216 21:15:59.155426 25674 net.cpp:120] Top shape: 50 128 14 14 (1254400)
I1216 21:15:59.155443 25674 layer_factory.hpp:74] Creating layer inception_4c/relu_3x3_reduce
I1216 21:15:59.155454 25674 net.cpp:84] Creating Layer inception_4c/relu_3x3_reduce
I1216 21:15:59.155460 25674 net.cpp:380] inception_4c/relu_3x3_reduce <- inception_4c/3x3_reduce
I1216 21:15:59.155468 25674 net.cpp:327] inception_4c/relu_3x3_reduce -> inception_4c/3x3_reduce (in-place)
I1216 21:15:59.155477 25674 net.cpp:113] Setting up inception_4c/relu_3x3_reduce
I1216 21:15:59.155550 25674 net.cpp:120] Top shape: 50 128 14 14 (1254400)
I1216 21:15:59.155557 25674 layer_factory.hpp:74] Creating layer inception_4c/3x3
I1216 21:15:59.155567 25674 net.cpp:84] Creating Layer inception_4c/3x3
I1216 21:15:59.155573 25674 net.cpp:380] inception_4c/3x3 <- inception_4c/3x3_reduce
I1216 21:15:59.155580 25674 net.cpp:338] inception_4c/3x3 -> inception_4c/3x3
I1216 21:15:59.155591 25674 net.cpp:113] Setting up inception_4c/3x3
I1216 21:15:59.159436 25674 net.cpp:120] Top shape: 50 256 14 14 (2508800)
I1216 21:15:59.159464 25674 layer_factory.hpp:74] Creating layer inception_4c/relu_3x3
I1216 21:15:59.159476 25674 net.cpp:84] Creating Layer inception_4c/relu_3x3
I1216 21:15:59.159482 25674 net.cpp:380] inception_4c/relu_3x3 <- inception_4c/3x3
I1216 21:15:59.159489 25674 net.cpp:327] inception_4c/relu_3x3 -> inception_4c/3x3 (in-place)
I1216 21:15:59.159497 25674 net.cpp:113] Setting up inception_4c/relu_3x3
I1216 21:15:59.159575 25674 net.cpp:120] Top shape: 50 256 14 14 (2508800)
I1216 21:15:59.159582 25674 layer_factory.hpp:74] Creating layer inception_4c/5x5_reduce
I1216 21:15:59.159590 25674 net.cpp:84] Creating Layer inception_4c/5x5_reduce
I1216 21:15:59.159596 25674 net.cpp:380] inception_4c/5x5_reduce <- inception_4b/output_inception_4b/output_0_split_2
I1216 21:15:59.159605 25674 net.cpp:338] inception_4c/5x5_reduce -> inception_4c/5x5_reduce
I1216 21:15:59.159615 25674 net.cpp:113] Setting up inception_4c/5x5_reduce
I1216 21:15:59.160198 25674 net.cpp:120] Top shape: 50 24 14 14 (235200)
I1216 21:15:59.160214 25674 layer_factory.hpp:74] Creating layer inception_4c/relu_5x5_reduce
I1216 21:15:59.160223 25674 net.cpp:84] Creating Layer inception_4c/relu_5x5_reduce
I1216 21:15:59.160228 25674 net.cpp:380] inception_4c/relu_5x5_reduce <- inception_4c/5x5_reduce
I1216 21:15:59.160235 25674 net.cpp:327] inception_4c/relu_5x5_reduce -> inception_4c/5x5_reduce (in-place)
I1216 21:15:59.160243 25674 net.cpp:113] Setting up inception_4c/relu_5x5_reduce
I1216 21:15:59.160509 25674 net.cpp:120] Top shape: 50 24 14 14 (235200)
I1216 21:15:59.160521 25674 layer_factory.hpp:74] Creating layer inception_4c/5x5
I1216 21:15:59.160533 25674 net.cpp:84] Creating Layer inception_4c/5x5
I1216 21:15:59.160540 25674 net.cpp:380] inception_4c/5x5 <- inception_4c/5x5_reduce
I1216 21:15:59.160547 25674 net.cpp:338] inception_4c/5x5 -> inception_4c/5x5
I1216 21:15:59.160559 25674 net.cpp:113] Setting up inception_4c/5x5
I1216 21:15:59.161686 25674 net.cpp:120] Top shape: 50 64 14 14 (627200)
I1216 21:15:59.161705 25674 layer_factory.hpp:74] Creating layer inception_4c/relu_5x5
I1216 21:15:59.161715 25674 net.cpp:84] Creating Layer inception_4c/relu_5x5
I1216 21:15:59.161720 25674 net.cpp:380] inception_4c/relu_5x5 <- inception_4c/5x5
I1216 21:15:59.161728 25674 net.cpp:327] inception_4c/relu_5x5 -> inception_4c/5x5 (in-place)
I1216 21:15:59.161736 25674 net.cpp:113] Setting up inception_4c/relu_5x5
I1216 21:15:59.161811 25674 net.cpp:120] Top shape: 50 64 14 14 (627200)
I1216 21:15:59.161818 25674 layer_factory.hpp:74] Creating layer inception_4c/pool
I1216 21:15:59.161824 25674 layer_factory.cpp:56] CUDNN does not support padding or multiple tops. Using Caffe's own pooling layer.
I1216 21:15:59.161833 25674 net.cpp:84] Creating Layer inception_4c/pool
I1216 21:15:59.161839 25674 net.cpp:380] inception_4c/pool <- inception_4b/output_inception_4b/output_0_split_3
I1216 21:15:59.161857 25674 net.cpp:338] inception_4c/pool -> inception_4c/pool
I1216 21:15:59.161866 25674 net.cpp:113] Setting up inception_4c/pool
I1216 21:15:59.161880 25674 net.cpp:120] Top shape: 50 512 14 14 (5017600)
I1216 21:15:59.161885 25674 layer_factory.hpp:74] Creating layer inception_4c/pool_proj
I1216 21:15:59.161893 25674 net.cpp:84] Creating Layer inception_4c/pool_proj
I1216 21:15:59.161898 25674 net.cpp:380] inception_4c/pool_proj <- inception_4c/pool
I1216 21:15:59.161907 25674 net.cpp:338] inception_4c/pool_proj -> inception_4c/pool_proj
I1216 21:15:59.161916 25674 net.cpp:113] Setting up inception_4c/pool_proj
I1216 21:15:59.162732 25674 net.cpp:120] Top shape: 50 64 14 14 (627200)
I1216 21:15:59.162749 25674 layer_factory.hpp:74] Creating layer inception_4c/relu_pool_proj
I1216 21:15:59.162758 25674 net.cpp:84] Creating Layer inception_4c/relu_pool_proj
I1216 21:15:59.162765 25674 net.cpp:380] inception_4c/relu_pool_proj <- inception_4c/pool_proj
I1216 21:15:59.162771 25674 net.cpp:327] inception_4c/relu_pool_proj -> inception_4c/pool_proj (in-place)
I1216 21:15:59.162780 25674 net.cpp:113] Setting up inception_4c/relu_pool_proj
I1216 21:15:59.162853 25674 net.cpp:120] Top shape: 50 64 14 14 (627200)
I1216 21:15:59.162859 25674 layer_factory.hpp:74] Creating layer inception_4c/output
I1216 21:15:59.162866 25674 net.cpp:84] Creating Layer inception_4c/output
I1216 21:15:59.162873 25674 net.cpp:380] inception_4c/output <- inception_4c/1x1
I1216 21:15:59.162878 25674 net.cpp:380] inception_4c/output <- inception_4c/3x3
I1216 21:15:59.162884 25674 net.cpp:380] inception_4c/output <- inception_4c/5x5
I1216 21:15:59.162889 25674 net.cpp:380] inception_4c/output <- inception_4c/pool_proj
I1216 21:15:59.162896 25674 net.cpp:338] inception_4c/output -> inception_4c/output
I1216 21:15:59.162904 25674 net.cpp:113] Setting up inception_4c/output
I1216 21:15:59.162911 25674 net.cpp:120] Top shape: 50 512 14 14 (5017600)
I1216 21:15:59.162916 25674 layer_factory.hpp:74] Creating layer inception_4c/output_inception_4c/output_0_split
I1216 21:15:59.162924 25674 net.cpp:84] Creating Layer inception_4c/output_inception_4c/output_0_split
I1216 21:15:59.162928 25674 net.cpp:380] inception_4c/output_inception_4c/output_0_split <- inception_4c/output
I1216 21:15:59.162936 25674 net.cpp:338] inception_4c/output_inception_4c/output_0_split -> inception_4c/output_inception_4c/output_0_split_0
I1216 21:15:59.162945 25674 net.cpp:338] inception_4c/output_inception_4c/output_0_split -> inception_4c/output_inception_4c/output_0_split_1
I1216 21:15:59.162952 25674 net.cpp:338] inception_4c/output_inception_4c/output_0_split -> inception_4c/output_inception_4c/output_0_split_2
I1216 21:15:59.162961 25674 net.cpp:338] inception_4c/output_inception_4c/output_0_split -> inception_4c/output_inception_4c/output_0_split_3
I1216 21:15:59.162967 25674 net.cpp:113] Setting up inception_4c/output_inception_4c/output_0_split
I1216 21:15:59.162976 25674 net.cpp:120] Top shape: 50 512 14 14 (5017600)
I1216 21:15:59.162982 25674 net.cpp:120] Top shape: 50 512 14 14 (5017600)
I1216 21:15:59.162987 25674 net.cpp:120] Top shape: 50 512 14 14 (5017600)
I1216 21:15:59.162992 25674 net.cpp:120] Top shape: 50 512 14 14 (5017600)
I1216 21:15:59.162997 25674 layer_factory.hpp:74] Creating layer inception_4d/1x1
I1216 21:15:59.163004 25674 net.cpp:84] Creating Layer inception_4d/1x1
I1216 21:15:59.163009 25674 net.cpp:380] inception_4d/1x1 <- inception_4c/output_inception_4c/output_0_split_0
I1216 21:15:59.163018 25674 net.cpp:338] inception_4d/1x1 -> inception_4d/1x1
I1216 21:15:59.163028 25674 net.cpp:113] Setting up inception_4d/1x1
I1216 21:15:59.164134 25674 net.cpp:120] Top shape: 50 112 14 14 (1097600)
I1216 21:15:59.164150 25674 layer_factory.hpp:74] Creating layer inception_4d/relu_1x1
I1216 21:15:59.164158 25674 net.cpp:84] Creating Layer inception_4d/relu_1x1
I1216 21:15:59.164165 25674 net.cpp:380] inception_4d/relu_1x1 <- inception_4d/1x1
I1216 21:15:59.164171 25674 net.cpp:327] inception_4d/relu_1x1 -> inception_4d/1x1 (in-place)
I1216 21:15:59.164191 25674 net.cpp:113] Setting up inception_4d/relu_1x1
I1216 21:15:59.164264 25674 net.cpp:120] Top shape: 50 112 14 14 (1097600)
I1216 21:15:59.164271 25674 layer_factory.hpp:74] Creating layer inception_4d/3x3_reduce
I1216 21:15:59.164279 25674 net.cpp:84] Creating Layer inception_4d/3x3_reduce
I1216 21:15:59.164285 25674 net.cpp:380] inception_4d/3x3_reduce <- inception_4c/output_inception_4c/output_0_split_1
I1216 21:15:59.164294 25674 net.cpp:338] inception_4d/3x3_reduce -> inception_4d/3x3_reduce
I1216 21:15:59.164304 25674 net.cpp:113] Setting up inception_4d/3x3_reduce
I1216 21:15:59.165629 25674 net.cpp:120] Top shape: 50 144 14 14 (1411200)
I1216 21:15:59.165647 25674 layer_factory.hpp:74] Creating layer inception_4d/relu_3x3_reduce
I1216 21:15:59.165655 25674 net.cpp:84] Creating Layer inception_4d/relu_3x3_reduce
I1216 21:15:59.165662 25674 net.cpp:380] inception_4d/relu_3x3_reduce <- inception_4d/3x3_reduce
I1216 21:15:59.165668 25674 net.cpp:327] inception_4d/relu_3x3_reduce -> inception_4d/3x3_reduce (in-place)
I1216 21:15:59.165678 25674 net.cpp:113] Setting up inception_4d/relu_3x3_reduce
I1216 21:15:59.165954 25674 net.cpp:120] Top shape: 50 144 14 14 (1411200)
I1216 21:15:59.165966 25674 layer_factory.hpp:74] Creating layer inception_4d/3x3
I1216 21:15:59.165976 25674 net.cpp:84] Creating Layer inception_4d/3x3
I1216 21:15:59.165980 25674 net.cpp:380] inception_4d/3x3 <- inception_4d/3x3_reduce
I1216 21:15:59.165990 25674 net.cpp:338] inception_4d/3x3 -> inception_4d/3x3
I1216 21:15:59.165999 25674 net.cpp:113] Setting up inception_4d/3x3
I1216 21:15:59.170755 25674 net.cpp:120] Top shape: 50 288 14 14 (2822400)
I1216 21:15:59.170773 25674 layer_factory.hpp:74] Creating layer inception_4d/relu_3x3
I1216 21:15:59.170781 25674 net.cpp:84] Creating Layer inception_4d/relu_3x3
I1216 21:15:59.170788 25674 net.cpp:380] inception_4d/relu_3x3 <- inception_4d/3x3
I1216 21:15:59.170796 25674 net.cpp:327] inception_4d/relu_3x3 -> inception_4d/3x3 (in-place)
I1216 21:15:59.170804 25674 net.cpp:113] Setting up inception_4d/relu_3x3
I1216 21:15:59.170877 25674 net.cpp:120] Top shape: 50 288 14 14 (2822400)
I1216 21:15:59.170884 25674 layer_factory.hpp:74] Creating layer inception_4d/5x5_reduce
I1216 21:15:59.170896 25674 net.cpp:84] Creating Layer inception_4d/5x5_reduce
I1216 21:15:59.170900 25674 net.cpp:380] inception_4d/5x5_reduce <- inception_4c/output_inception_4c/output_0_split_2
I1216 21:15:59.170908 25674 net.cpp:338] inception_4d/5x5_reduce -> inception_4d/5x5_reduce
I1216 21:15:59.170917 25674 net.cpp:113] Setting up inception_4d/5x5_reduce
I1216 21:15:59.171587 25674 net.cpp:120] Top shape: 50 32 14 14 (313600)
I1216 21:15:59.171603 25674 layer_factory.hpp:74] Creating layer inception_4d/relu_5x5_reduce
I1216 21:15:59.171610 25674 net.cpp:84] Creating Layer inception_4d/relu_5x5_reduce
I1216 21:15:59.171617 25674 net.cpp:380] inception_4d/relu_5x5_reduce <- inception_4d/5x5_reduce
I1216 21:15:59.171625 25674 net.cpp:327] inception_4d/relu_5x5_reduce -> inception_4d/5x5_reduce (in-place)
I1216 21:15:59.171634 25674 net.cpp:113] Setting up inception_4d/relu_5x5_reduce
I1216 21:15:59.171706 25674 net.cpp:120] Top shape: 50 32 14 14 (313600)
I1216 21:15:59.171713 25674 layer_factory.hpp:74] Creating layer inception_4d/5x5
I1216 21:15:59.171726 25674 net.cpp:84] Creating Layer inception_4d/5x5
I1216 21:15:59.171732 25674 net.cpp:380] inception_4d/5x5 <- inception_4d/5x5_reduce
I1216 21:15:59.171741 25674 net.cpp:338] inception_4d/5x5 -> inception_4d/5x5
I1216 21:15:59.171751 25674 net.cpp:113] Setting up inception_4d/5x5
I1216 21:15:59.172773 25674 net.cpp:120] Top shape: 50 64 14 14 (627200)
I1216 21:15:59.172790 25674 layer_factory.hpp:74] Creating layer inception_4d/relu_5x5
I1216 21:15:59.172796 25674 net.cpp:84] Creating Layer inception_4d/relu_5x5
I1216 21:15:59.172802 25674 net.cpp:380] inception_4d/relu_5x5 <- inception_4d/5x5
I1216 21:15:59.172811 25674 net.cpp:327] inception_4d/relu_5x5 -> inception_4d/5x5 (in-place)
I1216 21:15:59.172827 25674 net.cpp:113] Setting up inception_4d/relu_5x5
I1216 21:15:59.172909 25674 net.cpp:120] Top shape: 50 64 14 14 (627200)
I1216 21:15:59.172916 25674 layer_factory.hpp:74] Creating layer inception_4d/pool
I1216 21:15:59.172921 25674 layer_factory.cpp:56] CUDNN does not support padding or multiple tops. Using Caffe's own pooling layer.
I1216 21:15:59.172930 25674 net.cpp:84] Creating Layer inception_4d/pool
I1216 21:15:59.172935 25674 net.cpp:380] inception_4d/pool <- inception_4c/output_inception_4c/output_0_split_3
I1216 21:15:59.172943 25674 net.cpp:338] inception_4d/pool -> inception_4d/pool
I1216 21:15:59.172951 25674 net.cpp:113] Setting up inception_4d/pool
I1216 21:15:59.172961 25674 net.cpp:120] Top shape: 50 512 14 14 (5017600)
I1216 21:15:59.172967 25674 layer_factory.hpp:74] Creating layer inception_4d/pool_proj
I1216 21:15:59.172976 25674 net.cpp:84] Creating Layer inception_4d/pool_proj
I1216 21:15:59.172981 25674 net.cpp:380] inception_4d/pool_proj <- inception_4d/pool
I1216 21:15:59.172987 25674 net.cpp:338] inception_4d/pool_proj -> inception_4d/pool_proj
I1216 21:15:59.172996 25674 net.cpp:113] Setting up inception_4d/pool_proj
I1216 21:15:59.173823 25674 net.cpp:120] Top shape: 50 64 14 14 (627200)
I1216 21:15:59.173840 25674 layer_factory.hpp:74] Creating layer inception_4d/relu_pool_proj
I1216 21:15:59.173851 25674 net.cpp:84] Creating Layer inception_4d/relu_pool_proj
I1216 21:15:59.173857 25674 net.cpp:380] inception_4d/relu_pool_proj <- inception_4d/pool_proj
I1216 21:15:59.173864 25674 net.cpp:327] inception_4d/relu_pool_proj -> inception_4d/pool_proj (in-place)
I1216 21:15:59.173872 25674 net.cpp:113] Setting up inception_4d/relu_pool_proj
I1216 21:15:59.174139 25674 net.cpp:120] Top shape: 50 64 14 14 (627200)
I1216 21:15:59.174150 25674 layer_factory.hpp:74] Creating layer inception_4d/output
I1216 21:15:59.174157 25674 net.cpp:84] Creating Layer inception_4d/output
I1216 21:15:59.174163 25674 net.cpp:380] inception_4d/output <- inception_4d/1x1
I1216 21:15:59.174170 25674 net.cpp:380] inception_4d/output <- inception_4d/3x3
I1216 21:15:59.174175 25674 net.cpp:380] inception_4d/output <- inception_4d/5x5
I1216 21:15:59.174181 25674 net.cpp:380] inception_4d/output <- inception_4d/pool_proj
I1216 21:15:59.174187 25674 net.cpp:338] inception_4d/output -> inception_4d/output
I1216 21:15:59.174196 25674 net.cpp:113] Setting up inception_4d/output
I1216 21:15:59.174204 25674 net.cpp:120] Top shape: 50 528 14 14 (5174400)
I1216 21:15:59.174209 25674 layer_factory.hpp:74] Creating layer inception_4d/output_inception_4d/output_0_split
I1216 21:15:59.174217 25674 net.cpp:84] Creating Layer inception_4d/output_inception_4d/output_0_split
I1216 21:15:59.174222 25674 net.cpp:380] inception_4d/output_inception_4d/output_0_split <- inception_4d/output
I1216 21:15:59.174229 25674 net.cpp:338] inception_4d/output_inception_4d/output_0_split -> inception_4d/output_inception_4d/output_0_split_0
I1216 21:15:59.174239 25674 net.cpp:338] inception_4d/output_inception_4d/output_0_split -> inception_4d/output_inception_4d/output_0_split_1
I1216 21:15:59.174247 25674 net.cpp:338] inception_4d/output_inception_4d/output_0_split -> inception_4d/output_inception_4d/output_0_split_2
I1216 21:15:59.174255 25674 net.cpp:338] inception_4d/output_inception_4d/output_0_split -> inception_4d/output_inception_4d/output_0_split_3
I1216 21:15:59.174263 25674 net.cpp:338] inception_4d/output_inception_4d/output_0_split -> inception_4d/output_inception_4d/output_0_split_4
I1216 21:15:59.174269 25674 net.cpp:113] Setting up inception_4d/output_inception_4d/output_0_split
I1216 21:15:59.174278 25674 net.cpp:120] Top shape: 50 528 14 14 (5174400)
I1216 21:15:59.174283 25674 net.cpp:120] Top shape: 50 528 14 14 (5174400)
I1216 21:15:59.174288 25674 net.cpp:120] Top shape: 50 528 14 14 (5174400)
I1216 21:15:59.174293 25674 net.cpp:120] Top shape: 50 528 14 14 (5174400)
I1216 21:15:59.174299 25674 net.cpp:120] Top shape: 50 528 14 14 (5174400)
I1216 21:15:59.174304 25674 layer_factory.hpp:74] Creating layer loss2/ave_pool
I1216 21:15:59.174315 25674 net.cpp:84] Creating Layer loss2/ave_pool
I1216 21:15:59.174329 25674 net.cpp:380] loss2/ave_pool <- inception_4d/output_inception_4d/output_0_split_0
I1216 21:15:59.174337 25674 net.cpp:338] loss2/ave_pool -> loss2/ave_pool
I1216 21:15:59.174345 25674 net.cpp:113] Setting up loss2/ave_pool
I1216 21:15:59.174425 25674 net.cpp:120] Top shape: 50 528 4 4 (422400)
I1216 21:15:59.174432 25674 layer_factory.hpp:74] Creating layer loss2/conv
I1216 21:15:59.174443 25674 net.cpp:84] Creating Layer loss2/conv
I1216 21:15:59.174449 25674 net.cpp:380] loss2/conv <- loss2/ave_pool
I1216 21:15:59.174456 25674 net.cpp:338] loss2/conv -> loss2/conv
I1216 21:15:59.174465 25674 net.cpp:113] Setting up loss2/conv
I1216 21:15:59.175684 25674 net.cpp:120] Top shape: 50 128 4 4 (102400)
I1216 21:15:59.175700 25674 layer_factory.hpp:74] Creating layer loss2/relu_conv
I1216 21:15:59.175709 25674 net.cpp:84] Creating Layer loss2/relu_conv
I1216 21:15:59.175714 25674 net.cpp:380] loss2/relu_conv <- loss2/conv
I1216 21:15:59.175721 25674 net.cpp:327] loss2/relu_conv -> loss2/conv (in-place)
I1216 21:15:59.175729 25674 net.cpp:113] Setting up loss2/relu_conv
I1216 21:15:59.175801 25674 net.cpp:120] Top shape: 50 128 4 4 (102400)
I1216 21:15:59.175808 25674 layer_factory.hpp:74] Creating layer loss2/fc
I1216 21:15:59.175817 25674 net.cpp:84] Creating Layer loss2/fc
I1216 21:15:59.175822 25674 net.cpp:380] loss2/fc <- loss2/conv
I1216 21:15:59.175830 25674 net.cpp:338] loss2/fc -> loss2/fc
I1216 21:15:59.175839 25674 net.cpp:113] Setting up loss2/fc
I1216 21:15:59.284685 25674 net.cpp:120] Top shape: 50 1024 (51200)
I1216 21:15:59.284718 25674 layer_factory.hpp:74] Creating layer loss2/relu_fc
I1216 21:15:59.284734 25674 net.cpp:84] Creating Layer loss2/relu_fc
I1216 21:15:59.284742 25674 net.cpp:380] loss2/relu_fc <- loss2/fc
I1216 21:15:59.284752 25674 net.cpp:327] loss2/relu_fc -> loss2/fc (in-place)
I1216 21:15:59.284762 25674 net.cpp:113] Setting up loss2/relu_fc
I1216 21:15:59.284883 25674 net.cpp:120] Top shape: 50 1024 (51200)
I1216 21:15:59.284891 25674 layer_factory.hpp:74] Creating layer loss2/drop_fc
I1216 21:15:59.284901 25674 net.cpp:84] Creating Layer loss2/drop_fc
I1216 21:15:59.284906 25674 net.cpp:380] loss2/drop_fc <- loss2/fc
I1216 21:15:59.284914 25674 net.cpp:327] loss2/drop_fc -> loss2/fc (in-place)
I1216 21:15:59.284922 25674 net.cpp:113] Setting up loss2/drop_fc
I1216 21:15:59.284930 25674 net.cpp:120] Top shape: 50 1024 (51200)
I1216 21:15:59.284935 25674 layer_factory.hpp:74] Creating layer loss2/classifier_kaggle
I1216 21:15:59.284945 25674 net.cpp:84] Creating Layer loss2/classifier_kaggle
I1216 21:15:59.284950 25674 net.cpp:380] loss2/classifier_kaggle <- loss2/fc
I1216 21:15:59.284956 25674 net.cpp:338] loss2/classifier_kaggle -> loss2/classifier_kaggle
I1216 21:15:59.284966 25674 net.cpp:113] Setting up loss2/classifier_kaggle
I1216 21:15:59.290248 25674 net.cpp:120] Top shape: 50 447 (22350)
I1216 21:15:59.290261 25674 layer_factory.hpp:74] Creating layer loss2/classifier_kaggle_loss2/classifier_kaggle_0_split
I1216 21:15:59.290271 25674 net.cpp:84] Creating Layer loss2/classifier_kaggle_loss2/classifier_kaggle_0_split
I1216 21:15:59.290277 25674 net.cpp:380] loss2/classifier_kaggle_loss2/classifier_kaggle_0_split <- loss2/classifier_kaggle
I1216 21:15:59.290283 25674 net.cpp:338] loss2/classifier_kaggle_loss2/classifier_kaggle_0_split -> loss2/classifier_kaggle_loss2/classifier_kaggle_0_split_0
I1216 21:15:59.290293 25674 net.cpp:338] loss2/classifier_kaggle_loss2/classifier_kaggle_0_split -> loss2/classifier_kaggle_loss2/classifier_kaggle_0_split_1
I1216 21:15:59.290303 25674 net.cpp:338] loss2/classifier_kaggle_loss2/classifier_kaggle_0_split -> loss2/classifier_kaggle_loss2/classifier_kaggle_0_split_2
I1216 21:15:59.290312 25674 net.cpp:113] Setting up loss2/classifier_kaggle_loss2/classifier_kaggle_0_split
I1216 21:15:59.290319 25674 net.cpp:120] Top shape: 50 447 (22350)
I1216 21:15:59.290325 25674 net.cpp:120] Top shape: 50 447 (22350)
I1216 21:15:59.290330 25674 net.cpp:120] Top shape: 50 447 (22350)
I1216 21:15:59.290344 25674 layer_factory.hpp:74] Creating layer loss2/loss
I1216 21:15:59.290364 25674 net.cpp:84] Creating Layer loss2/loss
I1216 21:15:59.290369 25674 net.cpp:380] loss2/loss <- loss2/classifier_kaggle_loss2/classifier_kaggle_0_split_0
I1216 21:15:59.290375 25674 net.cpp:380] loss2/loss <- label_data_1_split_3
I1216 21:15:59.290385 25674 net.cpp:338] loss2/loss -> loss2/loss1
…
I1216 21:15:59.296329 25674 net.cpp:338] loss2/top-5 -> loss2/top-5
I1216 21:15:59.296337 25674 net.cpp:113] Setting up loss2/top-5
I1216 21:15:59.296344 25674 net.cpp:120] Top shape: (1)
I1216 21:15:59.296350 25674 layer_factory.hpp:74] Creating layer inception_4e/1x1
I1216 21:15:59.296358 25674 net.cpp:84] Creating Layer inception_4e/1x1
I1216 21:15:59.296365 25674 net.cpp:380] inception_4e/1x1 <- inception_4d/output_inception_4d/output_0_split_1
I1216 21:15:59.296373 25674 net.cpp:338] inception_4e/1x1 -> inception_4e/1x1
I1216 21:15:59.296382 25674 net.cpp:113] Setting up inception_4e/1x1
I1216 21:15:59.298414 25674 net.cpp:120] Top shape: 50 256 14 14 (2508800)
I1216 21:15:59.298432 25674 layer_factory.hpp:74] Creating layer inception_4e/relu_1x1
I1216 21:15:59.298440 25674 net.cpp:84] Creating Layer inception_4e/relu_1x1
I1216 21:15:59.298446 25674 net.cpp:380] inception_4e/relu_1x1 <- inception_4e/1x1
I1216 21:15:59.298455 25674 net.cpp:327] inception_4e/relu_1x1 -> inception_4e/1x1 (in-place)
I1216 21:15:59.298465 25674 net.cpp:113] Setting up inception_4e/relu_1x1
I1216 21:15:59.298539 25674 net.cpp:120] Top shape: 50 256 14 14 (2508800)
I1216 21:15:59.298547 25674 layer_factory.hpp:74] Creating layer inception_4e/3x3_reduce
I1216 21:15:59.298574 25674 net.cpp:84] Creating Layer inception_4e/3x3_reduce
I1216 21:15:59.298581 25674 net.cpp:380] inception_4e/3x3_reduce <- inception_4d/output_inception_4d/output_0_split_2
I1216 21:15:59.298589 25674 net.cpp:338] inception_4e/3x3_reduce -> inception_4e/3x3_reduce
I1216 21:15:59.298599 25674 net.cpp:113] Setting up inception_4e/3x3_reduce
I1216 21:15:59.300024 25674 net.cpp:120] Top shape: 50 160 14 14 (1568000)
I1216 21:15:59.300042 25674 layer_factory.hpp:74] Creating layer inception_4e/relu_3x3_reduce
I1216 21:15:59.300050 25674 net.cpp:84] Creating Layer inception_4e/relu_3x3_reduce
I1216 21:15:59.300055 25674 net.cpp:380] inception_4e/relu_3x3_reduce <- inception_4e/3x3_reduce
I1216 21:15:59.300062 25674 net.cpp:327] inception_4e/relu_3x3_reduce -> inception_4e/3x3_reduce (in-place)
I1216 21:15:59.300071 25674 net.cpp:113] Setting up inception_4e/relu_3x3_reduce
I1216 21:15:59.300144 25674 net.cpp:120] Top shape: 50 160 14 14 (1568000)
I1216 21:15:59.300151 25674 layer_factory.hpp:74] Creating layer inception_4e/3x3
I1216 21:15:59.300161 25674 net.cpp:84] Creating Layer inception_4e/3x3
I1216 21:15:59.300168 25674 net.cpp:380] inception_4e/3x3 <- inception_4e/3x3_reduce
I1216 21:15:59.300174 25674 net.cpp:338] inception_4e/3x3 -> inception_4e/3x3
I1216 21:15:59.300189 25674 net.cpp:113] Setting up inception_4e/3x3
I1216 21:15:59.309285 25674 net.cpp:120] Top shape: 50 320 14 14 (3136000)
I1216 21:15:59.309308 25674 layer_factory.hpp:74] Creating layer inception_4e/relu_3x3
I1216 21:15:59.309316 25674 net.cpp:84] Creating Layer inception_4e/relu_3x3
I1216 21:15:59.309322 25674 net.cpp:380] inception_4e/relu_3x3 <- inception_4e/3x3
I1216 21:15:59.309330 25674 net.cpp:327] inception_4e/relu_3x3 -> inception_4e/3x3 (in-place)
I1216 21:15:59.309340 25674 net.cpp:113] Setting up inception_4e/relu_3x3
I1216 21:15:59.309610 25674 net.cpp:120] Top shape: 50 320 14 14 (3136000)
I1216 21:15:59.309623 25674 layer_factory.hpp:74] Creating layer inception_4e/5x5_reduce
I1216 21:15:59.309631 25674 net.cpp:84] Creating Layer inception_4e/5x5_reduce
I1216 21:15:59.309638 25674 net.cpp:380] inception_4e/5x5_reduce <- inception_4d/output_inception_4d/output_0_split_3
I1216 21:15:59.309646 25674 net.cpp:338] inception_4e/5x5_reduce -> inception_4e/5x5_reduce
I1216 21:15:59.309656 25674 net.cpp:113] Setting up inception_4e/5x5_reduce
I1216 21:15:59.310276 25674 net.cpp:120] Top shape: 50 32 14 14 (313600)
I1216 21:15:59.310292 25674 layer_factory.hpp:74] Creating layer inception_4e/relu_5x5_reduce
I1216 21:15:59.310302 25674 net.cpp:84] Creating Layer inception_4e/relu_5x5_reduce
I1216 21:15:59.310307 25674 net.cpp:380] inception_4e/relu_5x5_reduce <- inception_4e/5x5_reduce
I1216 21:15:59.310314 25674 net.cpp:327] inception_4e/relu_5x5_reduce -> inception_4e/5x5_reduce (in-place)
I1216 21:15:59.310322 25674 net.cpp:113] Setting up inception_4e/relu_5x5_reduce
I1216 21:15:59.310398 25674 net.cpp:120] Top shape: 50 32 14 14 (313600)
I1216 21:15:59.310405 25674 layer_factory.hpp:74] Creating layer inception_4e/5x5
I1216 21:15:59.310415 25674 net.cpp:84] Creating Layer inception_4e/5x5
I1216 21:15:59.310421 25674 net.cpp:380] inception_4e/5x5 <- inception_4e/5x5_reduce
I1216 21:15:59.310430 25674 net.cpp:338] inception_4e/5x5 -> inception_4e/5x5
I1216 21:15:59.310439 25674 net.cpp:113] Setting up inception_4e/5x5
I1216 21:15:59.312067 25674 net.cpp:120] Top shape: 50 128 14 14 (1254400)
I1216 21:15:59.312083 25674 layer_factory.hpp:74] Creating layer inception_4e/relu_5x5
I1216 21:15:59.312093 25674 net.cpp:84] Creating Layer inception_4e/relu_5x5
I1216 21:15:59.312098 25674 net.cpp:380] inception_4e/relu_5x5 <- inception_4e/5x5
I1216 21:15:59.312106 25674 net.cpp:327] inception_4e/relu_5x5 -> inception_4e/5x5 (in-place)
I1216 21:15:59.312114 25674 net.cpp:113] Setting up inception_4e/relu_5x5
I1216 21:15:59.312187 25674 net.cpp:120] Top shape: 50 128 14 14 (1254400)
I1216 21:15:59.312193 25674 layer_factory.hpp:74] Creating layer inception_4e/pool
I1216 21:15:59.312199 25674 layer_factory.cpp:56] CUDNN does not support padding or multiple tops. Using Caffe's own pooling layer.
I1216 21:15:59.312208 25674 net.cpp:84] Creating Layer inception_4e/pool
I1216 21:15:59.312214 25674 net.cpp:380] inception_4e/pool <- inception_4d/output_inception_4d/output_0_split_4
I1216 21:15:59.312227 25674 net.cpp:338] inception_4e/pool -> inception_4e/pool
I1216 21:15:59.312234 25674 net.cpp:113] Setting up inception_4e/pool
I1216 21:15:59.312244 25674 net.cpp:120] Top shape: 50 528 14 14 (5174400)
I1216 21:15:59.312249 25674 layer_factory.hpp:74] Creating layer inception_4e/pool_proj
I1216 21:15:59.312258 25674 net.cpp:84] Creating Layer inception_4e/pool_proj
I1216 21:15:59.312263 25674 net.cpp:380] inception_4e/pool_proj <- inception_4e/pool
I1216 21:15:59.312271 25674 net.cpp:338] inception_4e/pool_proj -> inception_4e/pool_proj
I1216 21:15:59.312279 25674 net.cpp:113] Setting up inception_4e/pool_proj
I1216 21:15:59.313513 25674 net.cpp:120] Top shape: 50 128 14 14 (1254400)
I1216 21:15:59.313530 25674 layer_factory.hpp:74] Creating layer inception_4e/relu_pool_proj
I1216 21:15:59.313539 25674 net.cpp:84] Creating Layer inception_4e/relu_pool_proj
I1216 21:15:59.313544 25674 net.cpp:380] inception_4e/relu_pool_proj <- inception_4e/pool_proj
I1216 21:15:59.313551 25674 net.cpp:327] inception_4e/relu_pool_proj -> inception_4e/pool_proj (in-place)
I1216 21:15:59.313565 25674 net.cpp:113] Setting up inception_4e/relu_pool_proj
I1216 21:15:59.313648 25674 net.cpp:120] Top shape: 50 128 14 14 (1254400)
I1216 21:15:59.313655 25674 layer_factory.hpp:74] Creating layer inception_4e/output
I1216 21:15:59.313663 25674 net.cpp:84] Creating Layer inception_4e/output
I1216 21:15:59.313668 25674 net.cpp:380] inception_4e/output <- inception_4e/1x1
I1216 21:15:59.313674 25674 net.cpp:380] inception_4e/output <- inception_4e/3x3
I1216 21:15:59.313680 25674 net.cpp:380] inception_4e/output <- inception_4e/5x5
I1216 21:15:59.313685 25674 net.cpp:380] inception_4e/output <- inception_4e/pool_proj
I1216 21:15:59.313693 25674 net.cpp:338] inception_4e/output -> inception_4e/output
I1216 21:15:59.313700 25674 net.cpp:113] Setting up inception_4e/output
I1216 21:15:59.313709 25674 net.cpp:120] Top shape: 50 832 14 14 (8153600)
I1216 21:15:59.313714 25674 layer_factory.hpp:74] Creating layer pool4/3x3_s2
I1216 21:15:59.313722 25674 net.cpp:84] Creating Layer pool4/3x3_s2
I1216 21:15:59.313727 25674 net.cpp:380] pool4/3x3_s2 <- inception_4e/output
I1216 21:15:59.313735 25674 net.cpp:338] pool4/3x3_s2 -> pool4/3x3_s2
I1216 21:15:59.313742 25674 net.cpp:113] Setting up pool4/3x3_s2
I1216 21:15:59.314018 25674 net.cpp:120] Top shape: 50 832 7 7 (2038400)
I1216 21:15:59.314031 25674 layer_factory.hpp:74] Creating layer pool4/3x3_s2_pool4/3x3_s2_0_split
I1216 21:15:59.314040 25674 net.cpp:84] Creating Layer pool4/3x3_s2_pool4/3x3_s2_0_split
I1216 21:15:59.314045 25674 net.cpp:380] pool4/3x3_s2_pool4/3x3_s2_0_split <- pool4/3x3_s2
I1216 21:15:59.314054 25674 net.cpp:338] pool4/3x3_s2_pool4/3x3_s2_0_split -> pool4/3x3_s2_pool4/3x3_s2_0_split_0
I1216 21:15:59.314064 25674 net.cpp:338] pool4/3x3_s2_pool4/3x3_s2_0_split -> pool4/3x3_s2_pool4/3x3_s2_0_split_1
I1216 21:15:59.314071 25674 net.cpp:338] pool4/3x3_s2_pool4/3x3_s2_0_split -> pool4/3x3_s2_pool4/3x3_s2_0_split_2
I1216 21:15:59.314098 25674 net.cpp:338] pool4/3x3_s2_pool4/3x3_s2_0_split -> pool4/3x3_s2_pool4/3x3_s2_0_split_3
I1216 21:15:59.314106 25674 net.cpp:113] Setting up pool4/3x3_s2_pool4/3x3_s2_0_split
I1216 21:15:59.314115 25674 net.cpp:120] Top shape: 50 832 7 7 (2038400)
I1216 21:15:59.314121 25674 net.cpp:120] Top shape: 50 832 7 7 (2038400)
I1216 21:15:59.314126 25674 net.cpp:120] Top shape: 50 832 7 7 (2038400)
I1216 21:15:59.314132 25674 net.cpp:120] Top shape: 50 832 7 7 (2038400)
I1216 21:15:59.314136 25674 layer_factory.hpp:74] Creating layer inception_5a/1x1
I1216 21:15:59.314147 25674 net.cpp:84] Creating Layer inception_5a/1x1
I1216 21:15:59.314153 25674 net.cpp:380] inception_5a/1x1 <- pool4/3x3_s2_pool4/3x3_s2_0_split_0
I1216 21:15:59.314160 25674 net.cpp:338] inception_5a/1x1 -> inception_5a/1x1
I1216 21:15:59.314169 25674 net.cpp:113] Setting up inception_5a/1x1
I1216 21:15:59.317067 25674 net.cpp:120] Top shape: 50 256 7 7 (627200)
I1216 21:15:59.317085 25674 layer_factory.hpp:74] Creating layer inception_5a/relu_1x1
I1216 21:15:59.317092 25674 net.cpp:84] Creating Layer inception_5a/relu_1x1
I1216 21:15:59.317098 25674 net.cpp:380] inception_5a/relu_1x1 <- inception_5a/1x1
I1216 21:15:59.317107 25674 net.cpp:327] inception_5a/relu_1x1 -> inception_5a/1x1 (in-place)
I1216 21:15:59.317116 25674 net.cpp:113] Setting up inception_5a/relu_1x1
I1216 21:15:59.317193 25674 net.cpp:120] Top shape: 50 256 7 7 (627200)
I1216 21:15:59.317199 25674 layer_factory.hpp:74] Creating layer inception_5a/3x3_reduce
I1216 21:15:59.317209 25674 net.cpp:84] Creating Layer inception_5a/3x3_reduce
I1216 21:15:59.317215 25674 net.cpp:380] inception_5a/3x3_reduce <- pool4/3x3_s2_pool4/3x3_s2_0_split_1
I1216 21:15:59.317224 25674 net.cpp:338] inception_5a/3x3_reduce -> inception_5a/3x3_reduce
I1216 21:15:59.317232 25674 net.cpp:113] Setting up inception_5a/3x3_reduce
I1216 21:15:59.319208 25674 net.cpp:120] Top shape: 50 160 7 7 (392000)
I1216 21:15:59.319223 25674 layer_factory.hpp:74] Creating layer inception_5a/relu_3x3_reduce
I1216 21:15:59.319231 25674 net.cpp:84] Creating Layer inception_5a/relu_3x3_reduce
I1216 21:15:59.319242 25674 net.cpp:380] inception_5a/relu_3x3_reduce <- inception_5a/3x3_reduce
I1216 21:15:59.319257 25674 net.cpp:327] inception_5a/relu_3x3_reduce -> inception_5a/3x3_reduce (in-place)
I1216 21:15:59.319265 25674 net.cpp:113] Setting up inception_5a/relu_3x3_reduce
I1216 21:15:59.319341 25674 net.cpp:120] Top shape: 50 160 7 7 (392000)
I1216 21:15:59.319350 25674 layer_factory.hpp:74] Creating layer inception_5a/3x3
I1216 21:15:59.319358 25674 net.cpp:84] Creating Layer inception_5a/3x3
I1216 21:15:59.319363 25674 net.cpp:380] inception_5a/3x3 <- inception_5a/3x3_reduce
I1216 21:15:59.319372 25674 net.cpp:338] inception_5a/3x3 -> inception_5a/3x3
I1216 21:15:59.319381 25674 net.cpp:113] Setting up inception_5a/3x3
I1216 21:15:59.325151 25674 net.cpp:120] Top shape: 50 320 7 7 (784000)
I1216 21:15:59.325168 25674 layer_factory.hpp:74] Creating layer inception_5a/relu_3x3
I1216 21:15:59.325176 25674 net.cpp:84] Creating Layer inception_5a/relu_3x3
I1216 21:15:59.325182 25674 net.cpp:380] inception_5a/relu_3x3 <- inception_5a/3x3
I1216 21:15:59.325189 25674 net.cpp:327] inception_5a/relu_3x3 -> inception_5a/3x3 (in-place)
I1216 21:15:59.325197 25674 net.cpp:113] Setting up inception_5a/relu_3x3
I1216 21:15:59.325269 25674 net.cpp:120] Top shape: 50 320 7 7 (784000)
I1216 21:15:59.325276 25674 layer_factory.hpp:74] Creating layer inception_5a/5x5_reduce
I1216 21:15:59.325289 25674 net.cpp:84] Creating Layer inception_5a/5x5_reduce
I1216 21:15:59.325294 25674 net.cpp:380] inception_5a/5x5_reduce <- pool4/3x3_s2_pool4/3x3_s2_0_split_2
I1216 21:15:59.325304 25674 net.cpp:338] inception_5a/5x5_reduce -> inception_5a/5x5_reduce
I1216 21:15:59.325312 25674 net.cpp:113] Setting up inception_5a/5x5_reduce
I1216 21:15:59.326072 25674 net.cpp:120] Top shape: 50 32 7 7 (78400)
I1216 21:15:59.326088 25674 layer_factory.hpp:74] Creating layer inception_5a/relu_5x5_reduce
I1216 21:15:59.326097 25674 net.cpp:84] Creating Layer inception_5a/relu_5x5_reduce
I1216 21:15:59.326104 25674 net.cpp:380] inception_5a/relu_5x5_reduce <- inception_5a/5x5_reduce
I1216 21:15:59.326112 25674 net.cpp:327] inception_5a/relu_5x5_reduce -> inception_5a/5x5_reduce (in-place)
I1216 21:15:59.326119 25674 net.cpp:113] Setting up inception_5a/relu_5x5_reduce
I1216 21:15:59.326386 25674 net.cpp:120] Top shape: 50 32 7 7 (78400)
I1216 21:15:59.326397 25674 layer_factory.hpp:74] Creating layer inception_5a/5x5
I1216 21:15:59.326406 25674 net.cpp:84] Creating Layer inception_5a/5x5
I1216 21:15:59.326412 25674 net.cpp:380] inception_5a/5x5 <- inception_5a/5x5_reduce
I1216 21:15:59.326422 25674 net.cpp:338] inception_5a/5x5 -> inception_5a/5x5
I1216 21:15:59.326431 25674 net.cpp:113] Setting up inception_5a/5x5
I1216 21:15:59.328055 25674 net.cpp:120] Top shape: 50 128 7 7 (313600)
I1216 21:15:59.328071 25674 layer_factory.hpp:74] Creating layer inception_5a/relu_5x5
I1216 21:15:59.328079 25674 net.cpp:84] Creating Layer inception_5a/relu_5x5
I1216 21:15:59.328084 25674 net.cpp:380] inception_5a/relu_5x5 <- inception_5a/5x5
I1216 21:15:59.328093 25674 net.cpp:327] inception_5a/relu_5x5 -> inception_5a/5x5 (in-place)
I1216 21:15:59.328099 25674 net.cpp:113] Setting up inception_5a/relu_5x5
I1216 21:15:59.328176 25674 net.cpp:120] Top shape: 50 128 7 7 (313600)
I1216 21:15:59.328183 25674 layer_factory.hpp:74] Creating layer inception_5a/pool
I1216 21:15:59.328188 25674 layer_factory.cpp:56] CUDNN does not support padding or multiple tops. Using Caffe's own pooling layer.
I1216 21:15:59.328196 25674 net.cpp:84] Creating Layer inception_5a/pool
I1216 21:15:59.328203 25674 net.cpp:380] inception_5a/pool <- pool4/3x3_s2_pool4/3x3_s2_0_split_3
I1216 21:15:59.328210 25674 net.cpp:338] inception_5a/pool -> inception_5a/pool
I1216 21:15:59.328218 25674 net.cpp:113] Setting up inception_5a/pool
I1216 21:15:59.328227 25674 net.cpp:120] Top shape: 50 832 7 7 (2038400)
I1216 21:15:59.328233 25674 layer_factory.hpp:74] Creating layer inception_5a/pool_proj
I1216 21:15:59.328239 25674 net.cpp:84] Creating Layer inception_5a/pool_proj
I1216 21:15:59.328250 25674 net.cpp:380] inception_5a/pool_proj <- inception_5a/pool
I1216 21:15:59.328268 25674 net.cpp:338] inception_5a/pool_proj -> inception_5a/pool_proj
I1216 21:15:59.328276 25674 net.cpp:113] Setting up inception_5a/pool_proj
I1216 21:15:59.329957 25674 net.cpp:120] Top shape: 50 128 7 7 (313600)
I1216 21:15:59.329973 25674 layer_factory.hpp:74] Creating layer inception_5a/relu_pool_proj
I1216 21:15:59.329982 25674 net.cpp:84] Creating Layer inception_5a/relu_pool_proj
I1216 21:15:59.329988 25674 net.cpp:380] inception_5a/relu_pool_proj <- inception_5a/pool_proj
I1216 21:15:59.329994 25674 net.cpp:327] inception_5a/relu_pool_proj -> inception_5a/pool_proj (in-place)
I1216 21:15:59.330003 25674 net.cpp:113] Setting up inception_5a/relu_pool_proj
I1216 21:15:59.330075 25674 net.cpp:120] Top shape: 50 128 7 7 (313600)
I1216 21:15:59.330085 25674 layer_factory.hpp:74] Creating layer inception_5a/output
I1216 21:15:59.330096 25674 net.cpp:84] Creating Layer inception_5a/output
I1216 21:15:59.330103 25674 net.cpp:380] inception_5a/output <- inception_5a/1x1
I1216 21:15:59.330113 25674 net.cpp:380] inception_5a/output <- inception_5a/3x3
I1216 21:15:59.330122 25674 net.cpp:380] inception_5a/output <- inception_5a/5x5
I1216 21:15:59.330129 25674 net.cpp:380] inception_5a/output <- inception_5a/pool_proj
I1216 21:15:59.330139 25674 net.cpp:338] inception_5a/output -> inception_5a/output
I1216 21:15:59.330152 25674 net.cpp:113] Setting up inception_5a/output
I1216 21:15:59.330164 25674 net.cpp:120] Top shape: 50 832 7 7 (2038400)
I1216 21:15:59.330169 25674 layer_factory.hpp:74] Creating layer inception_5a/output_inception_5a/output_0_split
I1216 21:15:59.330183 25674 net.cpp:84] Creating Layer inception_5a/output_inception_5a/output_0_split
I1216 21:15:59.330188 25674 net.cpp:380] inception_5a/output_inception_5a/output_0_split <- inception_5a/output
I1216 21:15:59.330194 25674 net.cpp:338] inception_5a/output_inception_5a/output_0_split -> inception_5a/output_inception_5a/output_0_split_0
I1216 21:15:59.330202 25674 net.cpp:338] inception_5a/output_inception_5a/output_0_split -> inception_5a/output_inception_5a/output_0_split_1
I1216 21:15:59.330210 25674 net.cpp:338] inception_5a/output_inception_5a/output_0_split -> inception_5a/output_inception_5a/output_0_split_2
I1216 21:15:59.330220 25674 net.cpp:338] inception_5a/output_inception_5a/output_0_split -> inception_5a/output_inception_5a/output_0_split_3
I1216 21:15:59.330227 25674 net.cpp:113] Setting up inception_5a/output_inception_5a/output_0_split
I1216 21:15:59.330235 25674 net.cpp:120] Top shape: 50 832 7 7 (2038400)
I1216 21:15:59.330240 25674 net.cpp:120] Top shape: 50 832 7 7 (2038400)
I1216 21:15:59.330245 25674 net.cpp:120] Top shape: 50 832 7 7 (2038400)
I1216 21:15:59.330250 25674 net.cpp:120] Top shape: 50 832 7 7 (2038400)
I1216 21:15:59.330255 25674 layer_factory.hpp:74] Creating layer inception_5b/1x1
I1216 21:15:59.330263 25674 net.cpp:84] Creating Layer inception_5b/1x1
I1216 21:15:59.330268 25674 net.cpp:380] inception_5b/1x1 <- inception_5a/output_inception_5a/output_0_split_0
I1216 21:15:59.330276 25674 net.cpp:338] inception_5b/1x1 -> inception_5b/1x1
I1216 21:15:59.330286 25674 net.cpp:113] Setting up inception_5b/1x1
I1216 21:15:59.334417 25674 net.cpp:120] Top shape: 50 384 7 7 (940800)
I1216 21:15:59.334434 25674 layer_factory.hpp:74] Creating layer inception_5b/relu_1x1
I1216 21:15:59.334444 25674 net.cpp:84] Creating Layer inception_5b/relu_1x1
I1216 21:15:59.334449 25674 net.cpp:380] inception_5b/relu_1x1 <- inception_5b/1x1
I1216 21:15:59.334458 25674 net.cpp:327] inception_5b/relu_1x1 -> inception_5b/1x1 (in-place)
I1216 21:15:59.334466 25674 net.cpp:113] Setting up inception_5b/relu_1x1
I1216 21:15:59.334543 25674 net.cpp:120] Top shape: 50 384 7 7 (940800)
I1216 21:15:59.334550 25674 layer_factory.hpp:74] Creating layer inception_5b/3x3_reduce
I1216 21:15:59.334558 25674 net.cpp:84] Creating Layer inception_5b/3x3_reduce
I1216 21:15:59.334564 25674 net.cpp:380] inception_5b/3x3_reduce <- inception_5a/output_inception_5a/output_0_split_1
I1216 21:15:59.334579 25674 net.cpp:338] inception_5b/3x3_reduce -> inception_5b/3x3_reduce
I1216 21:15:59.334597 25674 net.cpp:113] Setting up inception_5b/3x3_reduce
I1216 21:15:59.336877 25674 net.cpp:120] Top shape: 50 192 7 7 (470400)
I1216 21:15:59.336894 25674 layer_factory.hpp:74] Creating layer inception_5b/relu_3x3_reduce
I1216 21:15:59.336901 25674 net.cpp:84] Creating Layer inception_5b/relu_3x3_reduce
I1216 21:15:59.336907 25674 net.cpp:380] inception_5b/relu_3x3_reduce <- inception_5b/3x3_reduce
I1216 21:15:59.336915 25674 net.cpp:327] inception_5b/relu_3x3_reduce -> inception_5b/3x3_reduce (in-place)
I1216 21:15:59.336923 25674 net.cpp:113] Setting up inception_5b/relu_3x3_reduce
I1216 21:15:59.337204 25674 net.cpp:120] Top shape: 50 192 7 7 (470400)
I1216 21:15:59.337218 25674 layer_factory.hpp:74] Creating layer inception_5b/3x3
I1216 21:15:59.337229 25674 net.cpp:84] Creating Layer inception_5b/3x3
I1216 21:15:59.337234 25674 net.cpp:380] inception_5b/3x3 <- inception_5b/3x3_reduce
I1216 21:15:59.337242 25674 net.cpp:338] inception_5b/3x3 -> inception_5b/3x3
I1216 21:15:59.337252 25674 net.cpp:113] Setting up inception_5b/3x3
I1216 21:15:59.345343 25674 net.cpp:120] Top shape: 50 384 7 7 (940800)
I1216 21:15:59.345360 25674 layer_factory.hpp:74] Creating layer inception_5b/relu_3x3
I1216 21:15:59.345371 25674 net.cpp:84] Creating Layer inception_5b/relu_3x3
I1216 21:15:59.345377 25674 net.cpp:380] inception_5b/relu_3x3 <- inception_5b/3x3
I1216 21:15:59.345386 25674 net.cpp:327] inception_5b/relu_3x3 -> inception_5b/3x3 (in-place)
I1216 21:15:59.345393 25674 net.cpp:113] Setting up inception_5b/relu_3x3
I1216 21:15:59.345468 25674 net.cpp:120] Top shape: 50 384 7 7 (940800)
I1216 21:15:59.345475 25674 layer_factory.hpp:74] Creating layer inception_5b/5x5_reduce
I1216 21:15:59.345485 25674 net.cpp:84] Creating Layer inception_5b/5x5_reduce
I1216 21:15:59.345491 25674 net.cpp:380] inception_5b/5x5_reduce <- inception_5a/output_inception_5a/output_0_split_2
I1216 21:15:59.345500 25674 net.cpp:338] inception_5b/5x5_reduce -> inception_5b/5x5_reduce
I1216 21:15:59.345510 25674 net.cpp:113] Setting up inception_5b/5x5_reduce
I1216 21:15:59.346429 25674 net.cpp:120] Top shape: 50 48 7 7 (117600)
I1216 21:15:59.346446 25674 layer_factory.hpp:74] Creating layer inception_5b/relu_5x5_reduce
I1216 21:15:59.346454 25674 net.cpp:84] Creating Layer inception_5b/relu_5x5_reduce
I1216 21:15:59.346460 25674 net.cpp:380] inception_5b/relu_5x5_reduce <- inception_5b/5x5_reduce
I1216 21:15:59.346468 25674 net.cpp:327] inception_5b/relu_5x5_reduce -> inception_5b/5x5_reduce (in-place)
I1216 21:15:59.346477 25674 net.cpp:113] Setting up inception_5b/relu_5x5_reduce
I1216 21:15:59.346552 25674 net.cpp:120] Top shape: 50 48 7 7 (117600)
I1216 21:15:59.346560 25674 layer_factory.hpp:74] Creating layer inception_5b/5x5
I1216 21:15:59.346568 25674 net.cpp:84] Creating Layer inception_5b/5x5
I1216 21:15:59.346575 25674 net.cpp:380] inception_5b/5x5 <- inception_5b/5x5_reduce
I1216 21:15:59.346583 25674 net.cpp:338] inception_5b/5x5 -> inception_5b/5x5
I1216 21:15:59.346592 25674 net.cpp:113] Setting up inception_5b/5x5
I1216 21:15:59.348810 25674 net.cpp:120] Top shape: 50 128 7 7 (313600)
I1216 21:15:59.348826 25674 layer_factory.hpp:74] Creating layer inception_5b/relu_5x5
I1216 21:15:59.348836 25674 net.cpp:84] Creating Layer inception_5b/relu_5x5
I1216 21:15:59.348844 25674 net.cpp:380] inception_5b/relu_5x5 <- inception_5b/5x5
I1216 21:15:59.348850 25674 net.cpp:327] inception_5b/relu_5x5 -> inception_5b/5x5 (in-place)
I1216 21:15:59.348858 25674 net.cpp:113] Setting up inception_5b/relu_5x5
I1216 21:15:59.349133 25674 net.cpp:120] Top shape: 50 128 7 7 (313600)
I1216 21:15:59.349146 25674 layer_factory.hpp:74] Creating layer inception_5b/pool
I1216 21:15:59.349153 25674 layer_factory.cpp:56] CUDNN does not support padding or multiple tops. Using Caffe's own pooling layer.
I1216 21:15:59.349159 25674 net.cpp:84] Creating Layer inception_5b/pool
I1216 21:15:59.349165 25674 net.cpp:380] inception_5b/pool <- inception_5a/output_inception_5a/output_0_split_3
I1216 21:15:59.349181 25674 net.cpp:338] inception_5b/pool -> inception_5b/pool
I1216 21:15:59.349198 25674 net.cpp:113] Setting up inception_5b/pool
I1216 21:15:59.349208 25674 net.cpp:120] Top shape: 50 832 7 7 (2038400)
I1216 21:15:59.349213 25674 layer_factory.hpp:74] Creating layer inception_5b/pool_proj
I1216 21:15:59.349222 25674 net.cpp:84] Creating Layer inception_5b/pool_proj
I1216 21:15:59.349231 25674 net.cpp:380] inception_5b/pool_proj <- inception_5b/pool
I1216 21:15:59.349237 25674 net.cpp:338] inception_5b/pool_proj -> inception_5b/pool_proj
I1216 21:15:59.349246 25674 net.cpp:113] Setting up inception_5b/pool_proj
I1216 21:15:59.350917 25674 net.cpp:120] Top shape: 50 128 7 7 (313600)
I1216 21:15:59.350934 25674 layer_factory.hpp:74] Creating layer inception_5b/relu_pool_proj
I1216 21:15:59.350944 25674 net.cpp:84] Creating Layer inception_5b/relu_pool_proj
I1216 21:15:59.350950 25674 net.cpp:380] inception_5b/relu_pool_proj <- inception_5b/pool_proj
I1216 21:15:59.350957 25674 net.cpp:327] inception_5b/relu_pool_proj -> inception_5b/pool_proj (in-place)
I1216 21:15:59.350967 25674 net.cpp:113] Setting up inception_5b/relu_pool_proj
I1216 21:15:59.351040 25674 net.cpp:120] Top shape: 50 128 7 7 (313600)
I1216 21:15:59.351047 25674 layer_factory.hpp:74] Creating layer inception_5b/output
I1216 21:15:59.351057 25674 net.cpp:84] Creating Layer inception_5b/output
I1216 21:15:59.351061 25674 net.cpp:380] inception_5b/output <- inception_5b/1x1
I1216 21:15:59.351068 25674 net.cpp:380] inception_5b/output <- inception_5b/3x3
I1216 21:15:59.351073 25674 net.cpp:380] inception_5b/output <- inception_5b/5x5
I1216 21:15:59.351078 25674 net.cpp:380] inception_5b/output <- inception_5b/pool_proj
I1216 21:15:59.351085 25674 net.cpp:338] inception_5b/output -> inception_5b/output
I1216 21:15:59.351094 25674 net.cpp:113] Setting up inception_5b/output
I1216 21:15:59.351101 25674 net.cpp:120] Top shape: 50 1024 7 7 (2508800)
I1216 21:15:59.351106 25674 layer_factory.hpp:74] Creating layer pool5/7x7_s1
I1216 21:15:59.351114 25674 net.cpp:84] Creating Layer pool5/7x7_s1
I1216 21:15:59.351120 25674 net.cpp:380] pool5/7x7_s1 <- inception_5b/output
I1216 21:15:59.351127 25674 net.cpp:338] pool5/7x7_s1 -> pool5/7x7_s1
I1216 21:15:59.351135 25674 net.cpp:113] Setting up pool5/7x7_s1
I1216 21:15:59.351210 25674 net.cpp:120] Top shape: 50 1024 1 1 (51200)
I1216 21:15:59.351217 25674 layer_factory.hpp:74] Creating layer pool5/drop_7x7_s1
I1216 21:15:59.351225 25674 net.cpp:84] Creating Layer pool5/drop_7x7_s1
I1216 21:15:59.351230 25674 net.cpp:380] pool5/drop_7x7_s1 <- pool5/7x7_s1
I1216 21:15:59.351236 25674 net.cpp:327] pool5/drop_7x7_s1 -> pool5/7x7_s1 (in-place)
I1216 21:15:59.351243 25674 net.cpp:113] Setting up pool5/drop_7x7_s1
I1216 21:15:59.351251 25674 net.cpp:120] Top shape: 50 1024 1 1 (51200)
I1216 21:15:59.351256 25674 layer_factory.hpp:74] Creating layer loss3/classifier_kaggle
I1216 21:15:59.351264 25674 net.cpp:84] Creating Layer loss3/classifier_kaggle
I1216 21:15:59.351269 25674 net.cpp:380] loss3/classifier_kaggle <- pool5/7x7_s1
I1216 21:15:59.351281 25674 net.cpp:338] loss3/classifier_kaggle -> loss3/classifier_kaggle
I1216 21:15:59.351290 25674 net.cpp:113] Setting up loss3/classifier_kaggle
I1216 21:15:59.356566 25674 net.cpp:120] Top shape: 50 447 (22350)
I1216 21:15:59.356580 25674 layer_factory.hpp:74] Creating layer loss3/classifier_kaggle_loss3/classifier_kaggle_0_split
I1216 21:15:59.356587 25674 net.cpp:84] Creating Layer loss3/classifier_kaggle_loss3/classifier_kaggle_0_split
I1216 21:15:59.356592 25674 net.cpp:380] loss3/classifier_kaggle_loss3/classifier_kaggle_0_split <- loss3/classifier_kaggle
I1216 21:15:59.356601 25674 net.cpp:338] loss3/classifier_kaggle_loss3/classifier_kaggle_0_split -> loss3/classifier_kaggle_loss3/classifier_kaggle_0_split_0
I1216 21:15:59.356611 25674 net.cpp:338] loss3/classifier_kaggle_loss3/classifier_kaggle_0_split -> loss3/classifier_kaggle_loss3/classifier_kaggle_0_split_1
I1216 21:15:59.356618 25674 net.cpp:338] loss3/classifier_kaggle_loss3/classifier_kaggle_0_split -> loss3/classifier_kaggle_loss3/classifier_kaggle_0_split_2
I1216 21:15:59.356638 25674 net.cpp:113] Setting up loss3/classifier_kaggle_loss3/classifier_kaggle_0_split
I1216 21:15:59.356647 25674 net.cpp:120] Top shape: 50 447 (22350)
I1216 21:15:59.356652 25674 net.cpp:120] Top shape: 50 447 (22350)
I1216 21:15:59.356657 25674 net.cpp:120] Top shape: 50 447 (22350)
I1216 21:15:59.356662 25674 layer_factory.hpp:74] Creating layer loss3/loss3
I1216 21:15:59.356672 25674 net.cpp:84] Creating Layer loss3/loss3
I1216 21:15:59.356676 25674 net.cpp:380] loss3/loss3 <- loss3/classifier_kaggle_loss3/classifier_kaggle_0_split_0
I1216 21:15:59.356683 25674 net.cpp:380] loss3/loss3 <- label_data_1_split_6
I1216 21:15:59.356688 25674 net.cpp:338] loss3/loss3 -> loss3/loss3
…
