…
I1214 21:27:37.508960 25444 net.cpp:257] The NetState phase (0) differed from the phase (1) specified by a rule in layer loss3/top-5
I1214 21:27:37.511559 25444 net.cpp:42] Initializing net from parameters: 
name: "GoogleNet"
state {
  phase: TRAIN
}
layer {
  name: "data"
  type: "Data"
  top: "data"
  top: "label"
  include {
    phase: TRAIN
  }
  transform_param {
    mirror: true
    crop_size: 224
    mean_value: 104
    mean_value: 117
    mean_value: 123
  }
  data_param {
    source: "/home/coldmanck/kaggle/kaggle2_train_lmdb"
    batch_size: 32
    backend: LMDB
  }
}
layer {
  name: "conv1/7x7_s2"
  type: "Convolution"
  bottom: "data"
  top: "conv1/7x7_s2"
  param {
    lr_mult: 1
    decay_mult: 1
  }
  param {
    lr_mult: 2
    decay_mult: 0
  }
  convolution_param {
    num_output: 64
    pad: 3
    kernel_size: 7
    stride: 2
    weight_filler {
      type: "xavier"
      std: 0.1
    }
    bias_filler {
      type: "constant"
      value: 0.2
    }
  }
}
layer {
  name: "conv1/relu_7x7"
  type: "ReLU"
  bottom: "conv1/7x7_s2"
  top: "conv1/7x7_s2"
}
layer {
  name: "pool1/3x3_s2"
  type: "Pooling"
  bottom: "conv1/7x7_s2"
  top: "pool1/3x3_s2"
  pooling_param {
    pool: MAX
    kernel_size: 3
    stride: 2
  }
}
layer {
  name: "pool1/norm1"
  type: "LRN"
  bottom: "pool1/3x3_s2"
  top: "pool1/norm1"
  lrn_param {
    local_size: 5
    alpha: 0.0001
    beta: 0.75
  }
}
layer {
  name: "conv2/3x3_reduce"
  type: "Convolution"
  bottom: "pool1/norm1"
  top: "conv2/3x3_reduce"
  param {
    lr_mult: 1
    decay_mult: 1
  }
  param {
    lr_mult: 2
    decay_mult: 0
  }
  convolution_param {
    num_output: 64
    kernel_size: 1
    weight_filler {
      type: "xavier"
      std: 0.1
    }
    bias_filler {
      type: "constant"
      value: 0.2
    }
  }
}
layer {
  name: "conv2/relu_3x3_reduce"
  type: "ReLU"
  bottom: "conv2/3x3_reduce"
  top: "conv2/3x3_reduce"
}
layer {
  name: "conv2/3x3"
  type: "Convolution"
  bottom: "conv2/3x3_reduce"
  top: "conv2/3x3"
  param {
    lr_mult: 1
    decay_mult: 1
  }
  param {
    lr_mult: 2
    decay_mult: 0
  }
  convolution_param {
    num_output: 192
    pad: 1
    kernel_size: 3
    weight_filler {
      type: "xavier"
      std: 0.03
    }
    bias_filler {
      type: "constant"
      value: 0.2
    }
  }
}
layer {
  name: "conv2/relu_3x3"
  type: "ReLU"
  bottom: "conv2/3x3"
  top: "conv2/3x3"
}
layer {
  name: "conv2/norm2"
  type: "LRN"
  bottom: "conv2/3x3"
  top: "conv2/norm2"
  lrn_param {
    local_size: 5
    alpha: 0.0001
    beta: 0.75
  }
}
layer {
  name: "pool2/3x3_s2"
  type: "Pooling"
  bottom: "conv2/norm2"
  top: "pool2/3x3_s2"
  pooling_param {
    pool: MAX
    kernel_size: 3
    stride: 2
  }
}
layer {
  name: "inception_3a/1x1"
  type: "Convolution"
  bottom: "pool2/3x3_s2"
  top: "inception_3a/1x1"
  param {
    lr_mult: 1
    decay_mult: 1
  }
  param {
    lr_mult: 2
    decay_mult: 0
  }
  convolution_param {
    num_output: 64
    kernel_size: 1
    weight_filler {
      type: "xavier"
      std: 0.03
    }
    bias_filler {
      type: "constant"
      value: 0.2
    }
  }
}
layer {
  name: "inception_3a/relu_1x1"
  type: "ReLU"
  bottom: "inception_3a/1x1"
  top: "inception_3a/1x1"
}
layer {
  name: "inception_3a/3x3_reduce"
  type: "Convolution"
  bottom: "pool2/3x3_s2"
  top: "inception_3a/3x3_reduce"
  param {
    lr_mult: 1
    decay_mult: 1
  }
  param {
    lr_mult: 2
    decay_mult: 0
  }
  convolution_param {
    num_output: 96
    kernel_size: 1
    weight_filler {
      type: "xavier"
      std: 0.09
    }
    bias_filler {
      type: "constant"
      value: 0.2
    }
  }
}
layer {
  name: "inception_3a/relu_3x3_reduce"
  type: "ReLU"
  bottom: "inception_3a/3x3_reduce"
  top: "inception_3a/3x3_reduce"
}
layer {
  name: "inception_3a/3x3"
  type: "Convolution"
  bottom: "inception_3a/3x3_reduce"
  top: "inception_3a/3x3"
  param {
    lr_mult: 1
    decay_mult: 1
  }
  param {
    lr_mult: 2
    decay_mult: 0
  }
  convolution_param {
    num_output: 128
    pad: 1
    kernel_size: 3
    weight_filler {
      type: "xavier"
      std: 0.03
    }
    bias_filler {
      type: "constant"
      value: 0.2
    }
  }
}
layer {
  name: "inception_3a/relu_3x3"
  type: "ReLU"
  bottom: "inception_3a/3x3"
  top: "inception_3a/3x3"
}
layer {
  name: "inception_3a/5x5_reduce"
  type: "Convolution"
  bottom: "pool2/3x3_s2"
  top: "inception_3a/5x5_reduce"
  param {
    lr_mult: 1
    decay_mult: 1
  }
  param {
    lr_mult: 2
    decay_mult: 0
  }
  convolution_param {
    num_output: 16
    kernel_size: 1
    weight_filler {
      type: "xavier"
      std: 0.2
    }
    bias_filler {
      type: "constant"
      value: 0.2
    }
  }
}
layer {
  name: "inception_3a/relu_5x5_reduce"
  type: "ReLU"
  bottom: "inception_3a/5x5_reduce"
  top: "inception_3a/5x5_reduce"
}
layer {
  name: "inception_3a/5x5"
  type: "Convolution"
  bottom: "inception_3a/5x5_reduce"
  top: "inception_3a/5x5"
  param {
    lr_mult: 1
    decay_mult: 1
  }
  param {
    lr_mult: 2
    decay_mult: 0
  }
  convolution_param {
    num_output: 32
    pad: 2
    kernel_size: 5
    weight_filler {
      type: "xavier"
      std: 0.03
    }
    bias_filler {
      type: "constant"
      value: 0.2
    }
  }
}
layer {
  name: "inception_3a/relu_5x5"
  type: "ReLU"
  bottom: "inception_3a/5x5"
  top: "inception_3a/5x5"
}
layer {
  name: "inception_3a/pool"
  type: "Pooling"
  bottom: "pool2/3x3_s2"
  top: "inception_3a/pool"
  pooling_param {
    pool: MAX
    kernel_size: 3
    stride: 1
    pad: 1
  }
}
layer {
  name: "inception_3a/pool_proj"
  type: "Convolution"
  bottom: "inception_3a/pool"
  top: "inception_3a/pool_proj"
  param {
    lr_mult: 1
    decay_mult: 1
  }
  param {
    lr_mult: 2
    decay_mult: 0
  }
  convolution_param {
    num_output: 32
    kernel_size: 1
    weight_filler {
      type: "xavier"
      std: 0.1
    }
    bias_filler {
      type: "constant"
      value: 0.2
    }
  }
}
layer {
  name: "inception_3a/relu_pool_proj"
  type: "ReLU"
  bottom: "inception_3a/pool_proj"
  top: "inception_3a/pool_proj"
}
layer {
  name: "inception_3a/output"
  type: "Concat"
  bottom: "inception_3a/1x1"
  bottom: "inception_3a/3x3"
  bottom: "inception_3a/5x5"
  bottom: "inception_3a/pool_proj"
  top: "inception_3a/output"
}
layer {
  name: "inception_3b/1x1"
  type: "Convolution"
  bottom: "inception_3a/output"
  top: "inception_3b/1x1"
  param {
    lr_mult: 1
    decay_mult: 1
  }
  param {
    lr_mult: 2
    decay_mult: 0
  }
  convolution_param {
    num_output: 128
    kernel_size: 1
    weight_filler {
      type: "xavier"
      std: 0.03
    }
    bias_filler {
      type: "constant"
      value: 0.2
    }
  }
}
layer {
  name: "inception_3b/relu_1x1"
  type: "ReLU"
  bottom: "inception_3b/1x1"
  top: "inception_3b/1x1"
}
layer {
  name: "inception_3b/3x3_reduce"
  type: "Convolution"
  bottom: "inception_3a/output"
  top: "inception_3b/3x3_reduce"
  param {
    lr_mult: 1
    decay_mult: 1
  }
  param {
    lr_mult: 2
    decay_mult: 0
  }
  convolution_param {
    num_output: 128
    kernel_size: 1
    weight_filler {
      type: "xavier"
      std: 0.09
    }
    bias_filler {
      type: "constant"
      value: 0.2
    }
  }
}
layer {
  name: "inception_3b/relu_3x3_reduce"
  type: "ReLU"
  bottom: "inception_3b/3x3_reduce"
  top: "inception_3b/3x3_reduce"
}
layer {
  name: "inception_3b/3x3"
  type: "Convolution"
  bottom: "inception_3b/3x3_reduce"
  top: "inception_3b/3x3"
  param {
    lr_mult: 1
    decay_mult: 1
  }
  param {
    lr_mult: 2
    decay_mult: 0
  }
  convolution_param {
    num_output: 192
    pad: 1
    kernel_size: 3
    weight_filler {
      type: "xavier"
      std: 0.03
    }
    bias_filler {
      type: "constant"
      value: 0.2
    }
  }
}
layer {
  name: "inception_3b/relu_3x3"
  type: "ReLU"
  bottom: "inception_3b/3x3"
  top: "inception_3b/3x3"
}
layer {
  name: "inception_3b/5x5_reduce"
  type: "Convolution"
  bottom: "inception_3a/output"
  top: "inception_3b/5x5_reduce"
  param {
    lr_mult: 1
    decay_mult: 1
  }
  param {
    lr_mult: 2
    decay_mult: 0
  }
  convolution_param {
    num_output: 32
    kernel_size: 1
    weight_filler {
      type: "xavier"
      std: 0.2
    }
    bias_filler {
      type: "constant"
      value: 0.2
    }
  }
}
layer {
  name: "inception_3b/relu_5x5_reduce"
  type: "ReLU"
  bottom: "inception_3b/5x5_reduce"
  top: "inception_3b/5x5_reduce"
}
layer {
  name: "inception_3b/5x5"
  type: "Convolution"
  bottom: "inception_3b/5x5_reduce"
  top: "inception_3b/5x5"
  param {
    lr_mult: 1
    decay_mult: 1
  }
  param {
    lr_mult: 2
    decay_mult: 0
  }
  convolution_param {
    num_output: 96
    pad: 2
    kernel_size: 5
    weight_filler {
      type: "xavier"
      std: 0.03
    }
    bias_filler {
      type: "constant"
      value: 0.2
    }
  }
}
layer {
  name: "inception_3b/relu_5x5"
  type: "ReLU"
  bottom: "inception_3b/5x5"
  top: "inception_3b/5x5"
}
layer {
  name: "inception_3b/pool"
  type: "Pooling"
  bottom: "inception_3a/output"
  top: "inception_3b/pool"
  pooling_param {
    pool: MAX
    kernel_size: 3
    stride: 1
    pad: 1
  }
}
layer {
  name: "inception_3b/pool_proj"
  type: "Convolution"
  bottom: "inception_3b/pool"
  top: "inception_3b/pool_proj"
  param {
    lr_mult: 1
    decay_mult: 1
  }
  param {
    lr_mult: 2
    decay_mult: 0
  }
  convolution_param {
    num_output: 64
    kernel_size: 1
    weight_filler {
      type: "xavier"
      std: 0.1
    }
    bias_filler {
      type: "constant"
      value: 0.2
    }
  }
}
layer {
  name: "inception_3b/relu_pool_proj"
  type: "ReLU"
  bottom: "inception_3b/pool_proj"
  top: "inception_3b/pool_proj"
}
layer {
  name: "inception_3b/output"
  type: "Concat"
  bottom: "inception_3b/1x1"
  bottom: "inception_3b/3x3"
  bottom: "inception_3b/5x5"
  bottom: "inception_3b/pool_proj"
  top: "inception_3b/output"
}
layer {
  name: "pool3/3x3_s2"
  type: "Pooling"
  bottom: "inception_3b/output"
  top: "pool3/3x3_s2"
  pooling_param {
    pool: MAX
    kernel_size: 3
    stride: 2
  }
}
layer {
  name: "inception_4a/1x1"
  type: "Convolution"
  bottom: "pool3/3x3_s2"
  top: "inception_4a/1x1"
  param {
    lr_mult: 1
    decay_mult: 1
  }
  param {
    lr_mult: 2
    decay_mult: 0
  }
  convolution_param {
    num_output: 192
    kernel_size: 1
    weight_filler {
      type: "xavier"
      std: 0.03
    }
    bias_filler {
      type: "constant"
      value: 0.2
    }
  }
}
layer {
  name: "inception_4a/relu_1x1"
  type: "ReLU"
  bottom: "inception_4a/1x1"
  top: "inception_4a/1x1"
}
layer {
  name: "inception_4a/3x3_reduce"
  type: "Convolution"
  bottom: "pool3/3x3_s2"
  top: "inception_4a/3x3_reduce"
  param {
    lr_mult: 1
    decay_mult: 1
  }
  param {
    lr_mult: 2
    decay_mult: 0
  }
  convolution_param {
    num_output: 96
    kernel_size: 1
    weight_filler {
      type: "xavier"
      std: 0.09
    }
    bias_filler {
      type: "constant"
      value: 0.2
    }
  }
}
layer {
  name: "inception_4a/relu_3x3_reduce"
  type: "ReLU"
  bottom: "inception_4a/3x3_reduce"
  top: "inception_4a/3x3_reduce"
}
layer {
  name: "inception_4a/3x3"
  type: "Convolution"
  bottom: "inception_4a/3x3_reduce"
  top: "inception_4a/3x3"
  param {
    lr_mult: 1
    decay_mult: 1
  }
  param {
    lr_mult: 2
    decay_mult: 0
  }
  convolution_param {
    num_output: 208
    pad: 1
    kernel_size: 3
    weight_filler {
      type: "xavier"
      std: 0.03
    }
    bias_filler {
      type: "constant"
      value: 0.2
    }
  }
}
layer {
  name: "inception_4a/relu_3x3"
  type: "ReLU"
  bottom: "inception_4a/3x3"
  top: "inception_4a/3x3"
}
layer {
  name: "inception_4a/5x5_reduce"
  type: "Convolution"
  bottom: "pool3/3x3_s2"
  top: "inception_4a/5x5_reduce"
  param {
    lr_mult: 1
    decay_mult: 1
  }
  param {
    lr_mult: 2
    decay_mult: 0
  }
  convolution_param {
    num_output: 16
    kernel_size: 1
    weight_filler {
      type: "xavier"
      std: 0.2
    }
    bias_filler {
      type: "constant"
      value: 0.2
    }
  }
}
layer {
  name: "inception_4a/relu_5x5_reduce"
  type: "ReLU"
  bottom: "inception_4a/5x5_reduce"
  top: "inception_4a/5x5_reduce"
}
layer {
  name: "inception_4a/5x5"
  type: "Convolution"
  bottom: "inception_4a/5x5_reduce"
  top: "inception_4a/5x5"
  param {
    lr_mult: 1
    decay_mult: 1
  }
  param {
    lr_mult: 2
    decay_mult: 0
  }
  convolution_param {
    num_output: 48
    pad: 2
    kernel_size: 5
    weight_filler {
      type: "xavier"
      std: 0.03
    }
    bias_filler {
      type: "constant"
      value: 0.2
    }
  }
}
layer {
  name: "inception_4a/relu_5x5"
  type: "ReLU"
  bottom: "inception_4a/5x5"
  top: "inception_4a/5x5"
}
layer {
  name: "inception_4a/pool"
  type: "Pooling"
  bottom: "pool3/3x3_s2"
  top: "inception_4a/pool"
  pooling_param {
    pool: MAX
    kernel_size: 3
    stride: 1
    pad: 1
  }
}
layer {
  name: "inception_4a/pool_proj"
  type: "Convolution"
  bottom: "inception_4a/pool"
  top: "inception_4a/pool_proj"
  param {
    lr_mult: 1
    decay_mult: 1
  }
  param {
    lr_mult: 2
    decay_mult: 0
  }
  convolution_param {
    num_output: 64
    kernel_size: 1
    weight_filler {
      type: "xavier"
      std: 0.1
    }
    bias_filler {
      type: "constant"
      value: 0.2
    }
  }
}
layer {
  name: "inception_4a/relu_pool_proj"
  type: "ReLU"
  bottom: "inception_4a/pool_proj"
  top: "inception_4a/pool_proj"
}
layer {
  name: "inception_4a/output"
  type: "Concat"
  bottom: "inception_4a/1x1"
  bottom: "inception_4a/3x3"
  bottom: "inception_4a/5x5"
  bottom: "inception_4a/pool_proj"
  top: "inception_4a/output"
}
layer {
  name: "loss1/ave_pool"
  type: "Pooling"
  bottom: "inception_4a/output"
  top: "loss1/ave_pool"
  pooling_param {
    pool: AVE
    kernel_size: 5
    stride: 3
  }
}
layer {
  name: "loss1/conv"
  type: "Convolution"
  bottom: "loss1/ave_pool"
  top: "loss1/conv"
  param {
    lr_mult: 1
    decay_mult: 1
  }
  param {
    lr_mult: 2
    decay_mult: 0
  }
  convolution_param {
    num_output: 128
    kernel_size: 1
    weight_filler {
      type: "xavier"
      std: 0.08
    }
    bias_filler {
      type: "constant"
      value: 0.2
    }
  }
}
layer {
  name: "loss1/relu_conv"
  type: "ReLU"
  bottom: "loss1/conv"
  top: "loss1/conv"
}
layer {
  name: "loss1/fc"
  type: "InnerProduct"
  bottom: "loss1/conv"
  top: "loss1/fc"
  param {
    lr_mult: 1
    decay_mult: 1
  }
  param {
    lr_mult: 2
    decay_mult: 0
  }
  inner_product_param {
    num_output: 1024
    weight_filler {
      type: "xavier"
      std: 0.02
    }
    bias_filler {
      type: "constant"
      value: 0.2
    }
  }
}
layer {
  name: "loss1/relu_fc"
  type: "ReLU"
  bottom: "loss1/fc"
  top: "loss1/fc"
}
layer {
  name: "loss1/drop_fc"
  type: "Dropout"
  bottom: "loss1/fc"
  top: "loss1/fc"
  dropout_param {
    dropout_ratio: 0.7
  }
}
layer {
  name: "loss1/classifier_kaggle"
  type: "InnerProduct"
  bottom: "loss1/fc"
  top: "loss1/classifier_kaggle"
  param {
    lr_mult: 1
    decay_mult: 1
  }
  param {
    lr_mult: 2
    decay_mult: 0
  }
  inner_product_param {
    num_output: 447
    weight_filler {
      type: "xavier"
      std: 0.0009765625
    }
    bias_filler {
      type: "constant"
      value: 0
    }
  }
}
layer {
  name: "loss1/loss"
  type: "SoftmaxWithLoss"
  bottom: "loss1/classifier_kaggle"
  bottom: "label"
  top: "loss1/loss1"
  loss_weight: 0.3
}
layer {
  name: "inception_4b/1x1"
  type: "Convolution"
  bottom: "inception_4a/output"
  top: "inception_4b/1x1"
  param {
    lr_mult: 1
    decay_mult: 1
  }
  param {
    lr_mult: 2
    decay_mult: 0
  }
  convolution_param {
    num_output: 160
    kernel_size: 1
    weight_filler {
      type: "xavier"
      std: 0.03
    }
    bias_filler {
      type: "constant"
      value: 0.2
    }
  }
}
layer {
  name: "inception_4b/relu_1x1"
  type: "ReLU"
  bottom: "inception_4b/1x1"
  top: "inception_4b/1x1"
}
layer {
  name: "inception_4b/3x3_reduce"
  type: "Convolution"
  bottom: "inception_4a/output"
  top: "inception_4b/3x3_reduce"
  param {
    lr_mult: 1
    decay_mult: 1
  }
  param {
    lr_mult: 2
    decay_mult: 0
  }
  convolution_param {
    num_output: 112
    kernel_size: 1
    weight_filler {
      type: "xavier"
      std: 0.09
    }
    bias_filler {
      type: "constant"
      value: 0.2
    }
  }
}
layer {
  name: "inception_4b/relu_3x3_reduce"
  type: "ReLU"
  bottom: "inception_4b/3x3_reduce"
  top: "inception_4b/3x3_reduce"
}
layer {
  name: "inception_4b/3x3"
  type: "Convolution"
  bottom: "inception_4b/3x3_reduce"
  top: "inception_4b/3x3"
  param {
    lr_mult: 1
    decay_mult: 1
  }
  param {
    lr_mult: 2
    decay_mult: 0
  }
  convolution_param {
    num_output: 224
    pad: 1
    kernel_size: 3
    weight_filler {
      type: "xavier"
      std: 0.03
    }
    bias_filler {
      type: "constant"
      value: 0.2
    }
  }
}
layer {
  name: "inception_4b/relu_3x3"
  type: "ReLU"
  bottom: "inception_4b/3x3"
  top: "inception_4b/3x3"
}
layer {
  name: "inception_4b/5x5_reduce"
  type: "Convolution"
  bottom: "inception_4a/output"
  top: "inception_4b/5x5_reduce"
  param {
    lr_mult: 1
    decay_mult: 1
  }
  param {
    lr_mult: 2
    decay_mult: 0
  }
  convolution_param {
    num_output: 24
    kernel_size: 1
    weight_filler {
      type: "xavier"
      std: 0.2
    }
    bias_filler {
      type: "constant"
      value: 0.2
    }
  }
}
layer {
  name: "inception_4b/relu_5x5_reduce"
  type: "ReLU"
  bottom: "inception_4b/5x5_reduce"
  top: "inception_4b/5x5_reduce"
}
layer {
  name: "inception_4b/5x5"
  type: "Convolution"
  bottom: "inception_4b/5x5_reduce"
  top: "inception_4b/5x5"
  param {
    lr_mult: 1
    decay_mult: 1
  }
  param {
    lr_mult: 2
    decay_mult: 0
  }
  convolution_param {
    num_output: 64
    pad: 2
    kernel_size: 5
    weight_filler {
      type: "xavier"
      std: 0.03
    }
    bias_filler {
      type: "constant"
      value: 0.2
    }
  }
}
layer {
  name: "inception_4b/relu_5x5"
  type: "ReLU"
  bottom: "inception_4b/5x5"
  top: "inception_4b/5x5"
}
layer {
  name: "inception_4b/pool"
  type: "Pooling"
  bottom: "inception_4a/output"
  top: "inception_4b/pool"
  pooling_param {
    pool: MAX
    kernel_size: 3
    stride: 1
    pad: 1
  }
}
layer {
  name: "inception_4b/pool_proj"
  type: "Convolution"
  bottom: "inception_4b/pool"
  top: "inception_4b/pool_proj"
  param {
    lr_mult: 1
    decay_mult: 1
  }
  param {
    lr_mult: 2
    decay_mult: 0
  }
  convolution_param {
    num_output: 64
    kernel_size: 1
    weight_filler {
      type: "xavier"
      std: 0.1
    }
    bias_filler {
      type: "constant"
      value: 0.2
    }
  }
}
layer {
  name: "inception_4b/relu_pool_proj"
  type: "ReLU"
  bottom: "inception_4b/pool_proj"
  top: "inception_4b/pool_proj"
}
layer {
  name: "inception_4b/output"
  type: "Concat"
  bottom: "inception_4b/1x1"
  bottom: "inception_4b/3x3"
  bottom: "inception_4b/5x5"
  bottom: "inception_4b/pool_proj"
  top: "inception_4b/output"
}
layer {
  name: "inception_4c/1x1"
  type: "Convolution"
  bottom: "inception_4b/output"
  top: "inception_4c/1x1"
  param {
    lr_mult: 1
    decay_mult: 1
  }
  param {
    lr_mult: 2
    decay_mult: 0
  }
  convolution_param {
    num_output: 128
    kernel_size: 1
    weight_filler {
      type: "xavier"
      std: 0.03
    }
    bias_filler {
      type: "constant"
      value: 0.2
    }
  }
}
layer {
  name: "inception_4c/relu_1x1"
  type: "ReLU"
  bottom: "inception_4c/1x1"
  top: "inception_4c/1x1"
}
layer {
  name: "inception_4c/3x3_reduce"
  type: "Convolution"
  bottom: "inception_4b/output"
  top: "inception_4c/3x3_reduce"
  param {
    lr_mult: 1
    decay_mult: 1
  }
  param {
    lr_mult: 2
    decay_mult: 0
  }
  convolution_param {
    num_output: 128
    kernel_size: 1
    weight_filler {
      type: "xavier"
      std: 0.09
    }
    bias_filler {
      type: "constant"
      value: 0.2
    }
  }
}
layer {
  name: "inception_4c/relu_3x3_reduce"
  type: "ReLU"
  bottom: "inception_4c/3x3_reduce"
  top: "inception_4c/3x3_reduce"
}
layer {
  name: "inception_4c/3x3"
  type: "Convolution"
  bottom: "inception_4c/3x3_reduce"
  top: "inception_4c/3x3"
  param {
    lr_mult: 1
    decay_mult: 1
  }
  param {
    lr_mult: 2
    decay_mult: 0
  }
  convolution_param {
    num_output: 256
    pad: 1
    kernel_size: 3
    weight_filler {
      type: "xavier"
      std: 0.03
    }
    bias_filler {
      type: "constant"
      value: 0.2
    }
  }
}
layer {
  name: "inception_4c/relu_3x3"
  type: "ReLU"
  bottom: "inception_4c/3x3"
  top: "inception_4c/3x3"
}
layer {
  name: "inception_4c/5x5_reduce"
  type: "Convolution"
  bottom: "inception_4b/output"
  top: "inception_4c/5x5_reduce"
  param {
    lr_mult: 1
    decay_mult: 1
  }
  param {
    lr_mult: 2
    decay_mult: 0
  }
  convolution_param {
    num_output: 24
    kernel_size: 1
    weight_filler {
      type: "xavier"
      std: 0.2
    }
    bias_filler {
      type: "constant"
      value: 0.2
    }
  }
}
layer {
  name: "inception_4c/relu_5x5_reduce"
  type: "ReLU"
  bottom: "inception_4c/5x5_reduce"
  top: "inception_4c/5x5_reduce"
}
layer {
  name: "inception_4c/5x5"
  type: "Convolution"
  bottom: "inception_4c/5x5_reduce"
  top: "inception_4c/5x5"
  param {
    lr_mult: 1
    decay_mult: 1
  }
  param {
    lr_mult: 2
    decay_mult: 0
  }
  convolution_param {
    num_output: 64
    pad: 2
    kernel_size: 5
    weight_filler {
      type: "xavier"
      std: 0.03
    }
    bias_filler {
      type: "constant"
      value: 0.2
    }
  }
}
layer {
  name: "inception_4c/relu_5x5"
  type: "ReLU"
  bottom: "inception_4c/5x5"
  top: "inception_4c/5x5"
}
layer {
  name: "inception_4c/pool"
  type: "Pooling"
  bottom: "inception_4b/output"
  top: "inception_4c/pool"
  pooling_param {
    pool: MAX
    kernel_size: 3
    stride: 1
    pad: 1
  }
}
layer {
  name: "inception_4c/pool_proj"
  type: "Convolution"
  bottom: "inception_4c/pool"
  top: "inception_4c/pool_proj"
  param {
    lr_mult: 1
    decay_mult: 1
  }
  param {
    lr_mult: 2
    decay_mult: 0
  }
  convolution_param {
    num_output: 64
    kernel_size: 1
    weight_filler {
      type: "xavier"
      std: 0.1
    }
    bias_filler {
      type: "constant"
      value: 0.2
    }
  }
}
layer {
  name: "inception_4c/relu_pool_proj"
  type: "ReLU"
  bottom: "inception_4c/pool_proj"
  top: "inception_4c/pool_proj"
}
layer {
  name: "inception_4c/output"
  type: "Concat"
  bottom: "inception_4c/1x1"
  bottom: "inception_4c/3x3"
  bottom: "inception_4c/5x5"
  bottom: "inception_4c/pool_proj"
  top: "inception_4c/output"
}
layer {
  name: "inception_4d/1x1"
  type: "Convolution"
  bottom: "inception_4c/output"
  top: "inception_4d/1x1"
  param {
    lr_mult: 1
    decay_mult: 1
  }
  param {
    lr_mult: 2
    decay_mult: 0
  }
  convolution_param {
    num_output: 112
    kernel_size: 1
    weight_filler {
      type: "xavier"
      std: 0.03
    }
    bias_filler {
      type: "constant"
      value: 0.2
    }
  }
}
layer {
  name: "inception_4d/relu_1x1"
  type: "ReLU"
  bottom: "inception_4d/1x1"
  top: "inception_4d/1x1"
}
layer {
  name: "inception_4d/3x3_reduce"
  type: "Convolution"
  bottom: "inception_4c/output"
  top: "inception_4d/3x3_reduce"
  param {
    lr_mult: 1
    decay_mult: 1
  }
  param {
    lr_mult: 2
    decay_mult: 0
  }
  convolution_param {
    num_output: 144
    kernel_size: 1
    weight_filler {
      type: "xavier"
      std: 0.09
    }
    bias_filler {
      type: "constant"
      value: 0.2
    }
  }
}
layer {
  name: "inception_4d/relu_3x3_reduce"
  type: "ReLU"
  bottom: "inception_4d/3x3_reduce"
  top: "inception_4d/3x3_reduce"
}
layer {
  name: "inception_4d/3x3"
  type: "Convolution"
  bottom: "inception_4d/3x3_reduce"
  top: "inception_4d/3x3"
  param {
    lr_mult: 1
    decay_mult: 1
  }
  param {
    lr_mult: 2
    decay_mult: 0
  }
  convolution_param {
    num_output: 288
    pad: 1
    kernel_size: 3
    weight_filler {
      type: "xavier"
      std: 0.03
    }
    bias_filler {
      type: "constant"
      value: 0.2
    }
  }
}
layer {
  name: "inception_4d/relu_3x3"
  type: "ReLU"
  bottom: "inception_4d/3x3"
  top: "inception_4d/3x3"
}
layer {
  name: "inception_4d/5x5_reduce"
  type: "Convolution"
  bottom: "inception_4c/output"
  top: "inception_4d/5x5_reduce"
  param {
    lr_mult: 1
    decay_mult: 1
  }
  param {
    lr_mult: 2
    decay_mult: 0
  }
  convolution_param {
    num_output: 32
    kernel_size: 1
    weight_filler {
      type: "xavier"
      std: 0.2
    }
    bias_filler {
      type: "constant"
      value: 0.2
    }
  }
}
layer {
  name: "inception_4d/relu_5x5_reduce"
  type: "ReLU"
  bottom: "inception_4d/5x5_reduce"
  top: "inception_4d/5x5_reduce"
}
layer {
  name: "inception_4d/5x5"
  type: "Convolution"
  bottom: "inception_4d/5x5_reduce"
  top: "inception_4d/5x5"
  param {
    lr_mult: 1
    decay_mult: 1
  }
  param {
    lr_mult: 2
    decay_mult: 0
  }
  convolution_param {
    num_output: 64
    pad: 2
    kernel_size: 5
    weight_filler {
      type: "xavier"
      std: 0.03
    }
    bias_filler {
      type: "constant"
      value: 0.2
    }
  }
}
layer {
  name: "inception_4d/relu_5x5"
  type: "ReLU"
  bottom: "inception_4d/5x5"
  top: "inception_4d/5x5"
}
layer {
  name: "inception_4d/pool"
  type: "Pooling"
  bottom: "inception_4c/output"
  top: "inception_4d/pool"
  pooling_param {
    pool: MAX
    kernel_size: 3
    stride: 1
    pad: 1
  }
}
layer {
  name: "inception_4d/pool_proj"
  type: "Convolution"
  bottom: "inception_4d/pool"
  top: "inception_4d/pool_proj"
  param {
    lr_mult: 1
    decay_mult: 1
  }
  param {
    lr_mult: 2
    decay_mult: 0
  }
  convolution_param {
    num_output: 64
    kernel_size: 1
    weight_filler {
      type: "xavier"
      std: 0.1
    }
    bias_filler {
      type: "constant"
      value: 0.2
    }
  }
}
layer {
  name: "inception_4d/relu_pool_proj"
  type: "ReLU"
  bottom: "inception_4d/pool_proj"
  top: "inception_4d/pool_proj"
}
layer {
  name: "inception_4d/output"
  type: "Concat"
  bottom: "inception_4d/1x1"
  bottom: "inception_4d/3x3"
  bottom: "inception_4d/5x5"
  bottom: "inception_4d/pool_proj"
  top: "inception_4d/output"
}
layer {
  name: "loss2/ave_pool"
  type: "Pooling"
  bottom: "inception_4d/output"
  top: "loss2/ave_pool"
  pooling_param {
    pool: AVE
    kernel_size: 5
    stride: 3
  }
}
layer {
  name: "loss2/conv"
  type: "Convolution"
  bottom: "loss2/ave_pool"
  top: "loss2/conv"
  param {
    lr_mult: 1
    decay_mult: 1
  }
  param {
    lr_mult: 2
    decay_mult: 0
  }
  convolution_param {
    num_output: 128
    kernel_size: 1
    weight_filler {
      type: "xavier"
      std: 0.08
    }
    bias_filler {
      type: "constant"
      value: 0.2
    }
  }
}
layer {
  name: "loss2/relu_conv"
  type: "ReLU"
  bottom: "loss2/conv"
  top: "loss2/conv"
}
layer {
  name: "loss2/fc"
  type: "InnerProduct"
  bottom: "loss2/conv"
  top: "loss2/fc"
  param {
    lr_mult: 1
    decay_mult: 1
  }
  param {
    lr_mult: 2
    decay_mult: 0
  }
  inner_product_param {
    num_output: 1024
    weight_filler {
      type: "xavier"
      std: 0.02
    }
    bias_filler {
      type: "constant"
      value: 0.2
    }
  }
}
layer {
  name: "loss2/relu_fc"
  type: "ReLU"
  bottom: "loss2/fc"
  top: "loss2/fc"
}
layer {
  name: "loss2/drop_fc"
  type: "Dropout"
  bottom: "loss2/fc"
  top: "loss2/fc"
  dropout_param {
    dropout_ratio: 0.7
  }
}
layer {
  name: "loss2/classifier_kaggle"
  type: "InnerProduct"
  bottom: "loss2/fc"
  top: "loss2/classifier_kaggle"
  param {
    lr_mult: 1
    decay_mult: 1
  }
  param {
    lr_mult: 2
    decay_mult: 0
  }
  inner_product_param {
    num_output: 447
    weight_filler {
      type: "xavier"
      std: 0.0009765625
    }
    bias_filler {
      type: "constant"
      value: 0
    }
  }
}
layer {
  name: "loss2/loss"
  type: "SoftmaxWithLoss"
  bottom: "loss2/classifier_kaggle"
  bottom: "label"
  top: "loss2/loss1"
  loss_weight: 0.3
}
layer {
  name: "inception_4e/1x1"
  type: "Convolution"
  bottom: "inception_4d/output"
  top: "inception_4e/1x1"
  param {
    lr_mult: 1
    decay_mult: 1
  }
  param {
    lr_mult: 2
    decay_mult: 0
  }
  convolution_param {
    num_output: 256
    kernel_size: 1
    weight_filler {
      type: "xavier"
      std: 0.03
    }
    bias_filler {
      type: "constant"
      value: 0.2
    }
  }
}
layer {
  name: "inception_4e/relu_1x1"
  type: "ReLU"
  bottom: "inception_4e/1x1"
  top: "inception_4e/1x1"
}
layer {
  name: "inception_4e/3x3_reduce"
  type: "Convolution"
  bottom: "inception_4d/output"
  top: "inception_4e/3x3_reduce"
  param {
    lr_mult: 1
    decay_mult: 1
  }
  param {
    lr_mult: 2
    decay_mult: 0
  }
  convolution_param {
    num_output: 160
    kernel_size: 1
    weight_filler {
      type: "xavier"
      std: 0.09
    }
    bias_filler {
      type: "constant"
      value: 0.2
    }
  }
}
layer {
  name: "inception_4e/relu_3x3_reduce"
  type: "ReLU"
  bottom: "inception_4e/3x3_reduce"
  top: "inception_4e/3x3_reduce"
}
layer {
  name: "inception_4e/3x3"
  type: "Convolution"
  bottom: "inception_4e/3x3_reduce"
  top: "inception_4e/3x3"
  param {
    lr_mult: 1
    decay_mult: 1
  }
  param {
    lr_mult: 2
    decay_mult: 0
  }
  convolution_param {
    num_output: 320
    pad: 1
    kernel_size: 3
    weight_filler {
      type: "xavier"
      std: 0.03
    }
    bias_filler {
      type: "constant"
      value: 0.2
    }
  }
}
layer {
  name: "inception_4e/relu_3x3"
  type: "ReLU"
  bottom: "inception_4e/3x3"
  top: "inception_4e/3x3"
}
layer {
  name: "inception_4e/5x5_reduce"
  type: "Convolution"
  bottom: "inception_4d/output"
  top: "inception_4e/5x5_reduce"
  param {
    lr_mult: 1
    decay_mult: 1
  }
  param {
    lr_mult: 2
    decay_mult: 0
  }
  convolution_param {
    num_output: 32
    kernel_size: 1
    weight_filler {
      type: "xavier"
      std: 0.2
    }
    bias_filler {
      type: "constant"
      value: 0.2
    }
  
I1214 21:27:37.512811 25444 layer_factory.hpp:74] Creating layer data
I1214 21:27:37.512857 25444 net.cpp:84] Creating Layer data
I1214 21:27:37.512871 25444 net.cpp:338] data -> data
I1214 21:27:37.512918 25444 net.cpp:338] data -> label
I1214 21:27:37.512934 25444 net.cpp:113] Setting up data
I1214 21:27:37.513092 25444 db.cpp:34] Opened lmdb /home/coldmanck/kaggle/kaggle2_train_lmdb
I1214 21:27:37.513406 25444 data_layer.cpp:67] output data size: 32,3,224,224
I1214 21:27:37.519975 25444 net.cpp:120] Top shape: 32 3 224 224 (4816896)
I1214 21:27:37.520005 25444 net.cpp:120] Top shape: 32 (32)
I1214 21:27:37.520020 25444 layer_factory.hpp:74] Creating layer label_data_1_split
I1214 21:27:37.520082 25444 net.cpp:84] Creating Layer label_data_1_split
I1214 21:27:37.520094 25444 net.cpp:380] label_data_1_split <- label
I1214 21:27:37.520115 25444 net.cpp:338] label_data_1_split -> label_data_1_split_0
I1214 21:27:37.520136 25444 net.cpp:338] label_data_1_split -> label_data_1_split_1
I1214 21:27:37.520148 25444 net.cpp:338] label_data_1_split -> label_data_1_split_2
I1214 21:27:37.520159 25444 net.cpp:113] Setting up label_data_1_split
I1214 21:27:37.520174 25444 net.cpp:120] Top shape: 32 (32)
I1214 21:27:37.520193 25444 net.cpp:120] Top shape: 32 (32)
I1214 21:27:37.520215 25444 net.cpp:120] Top shape: 32 (32)
I1214 21:27:37.520222 25444 layer_factory.hpp:74] Creating layer conv1/7x7_s2
I1214 21:27:37.520239 25444 net.cpp:84] Creating Layer conv1/7x7_s2
I1214 21:27:37.520246 25444 net.cpp:380] conv1/7x7_s2 <- data
I1214 21:27:37.520257 25444 net.cpp:338] conv1/7x7_s2 -> conv1/7x7_s2
I1214 21:27:37.520272 25444 net.cpp:113] Setting up conv1/7x7_s2
I1214 21:27:37.868113 25444 net.cpp:120] Top shape: 32 64 112 112 (25690112)
I1214 21:27:37.868227 25444 layer_factory.hpp:74] Creating layer conv1/relu_7x7
I1214 21:27:37.868259 25444 net.cpp:84] Creating Layer conv1/relu_7x7
I1214 21:27:37.868278 25444 net.cpp:380] conv1/relu_7x7 <- conv1/7x7_s2
I1214 21:27:37.868304 25444 net.cpp:327] conv1/relu_7x7 -> conv1/7x7_s2 (in-place)
I1214 21:27:37.868316 25444 net.cpp:113] Setting up conv1/relu_7x7
I1214 21:27:37.868594 25444 net.cpp:120] Top shape: 32 64 112 112 (25690112)
I1214 21:27:37.868609 25444 layer_factory.hpp:74] Creating layer pool1/3x3_s2
I1214 21:27:37.868628 25444 net.cpp:84] Creating Layer pool1/3x3_s2
I1214 21:27:37.868635 25444 net.cpp:380] pool1/3x3_s2 <- conv1/7x7_s2
I1214 21:27:37.868645 25444 net.cpp:338] pool1/3x3_s2 -> pool1/3x3_s2
I1214 21:27:37.868656 25444 net.cpp:113] Setting up pool1/3x3_s2
I1214 21:27:37.868752 25444 net.cpp:120] Top shape: 32 64 56 56 (6422528)
I1214 21:27:37.868780 25444 layer_factory.hpp:74] Creating layer pool1/norm1
I1214 21:27:37.868806 25444 net.cpp:84] Creating Layer pool1/norm1
I1214 21:27:37.868816 25444 net.cpp:380] pool1/norm1 <- pool1/3x3_s2
I1214 21:27:37.868825 25444 net.cpp:338] pool1/norm1 -> pool1/norm1
I1214 21:27:37.868837 25444 net.cpp:113] Setting up pool1/norm1
I1214 21:27:37.868849 25444 net.cpp:120] Top shape: 32 64 56 56 (6422528)
I1214 21:27:37.868922 25444 layer_factory.hpp:74] Creating layer conv2/3x3_reduce
I1214 21:27:37.868937 25444 net.cpp:84] Creating Layer conv2/3x3_reduce
I1214 21:27:37.868940 25444 net.cpp:380] conv2/3x3_reduce <- pool1/norm1
I1214 21:27:37.869187 25444 net.cpp:338] conv2/3x3_reduce -> conv2/3x3_reduce
I1214 21:27:37.869207 25444 net.cpp:113] Setting up conv2/3x3_reduce
I1214 21:27:37.869736 25444 net.cpp:120] Top shape: 32 64 56 56 (6422528)
I1214 21:27:37.869753 25444 layer_factory.hpp:74] Creating layer conv2/relu_3x3_reduce
I1214 21:27:37.869760 25444 net.cpp:84] Creating Layer conv2/relu_3x3_reduce
I1214 21:27:37.869766 25444 net.cpp:380] conv2/relu_3x3_reduce <- conv2/3x3_reduce
I1214 21:27:37.869778 25444 net.cpp:327] conv2/relu_3x3_reduce -> conv2/3x3_reduce (in-place)
I1214 21:27:37.869788 25444 net.cpp:113] Setting up conv2/relu_3x3_reduce
I1214 21:27:37.869875 25444 net.cpp:120] Top shape: 32 64 56 56 (6422528)
I1214 21:27:37.869885 25444 layer_factory.hpp:74] Creating layer conv2/3x3
I1214 21:27:37.869911 25444 net.cpp:84] Creating Layer conv2/3x3
I1214 21:27:37.869922 25444 net.cpp:380] conv2/3x3 <- conv2/3x3_reduce
I1214 21:27:37.869941 25444 net.cpp:338] conv2/3x3 -> conv2/3x3
I1214 21:27:37.869951 25444 net.cpp:113] Setting up conv2/3x3
I1214 21:27:37.871973 25444 net.cpp:120] Top shape: 32 192 56 56 (19267584)
I1214 21:27:37.871999 25444 layer_factory.hpp:74] Creating layer conv2/relu_3x3
I1214 21:27:37.872010 25444 net.cpp:84] Creating Layer conv2/relu_3x3
I1214 21:27:37.872017 25444 net.cpp:380] conv2/relu_3x3 <- conv2/3x3
I1214 21:27:37.872026 25444 net.cpp:327] conv2/relu_3x3 -> conv2/3x3 (in-place)
I1214 21:27:37.872033 25444 net.cpp:113] Setting up conv2/relu_3x3
I1214 21:27:37.872956 25444 net.cpp:120] Top shape: 32 192 56 56 (19267584)
I1214 21:27:37.872985 25444 layer_factory.hpp:74] Creating layer conv2/norm2
I1214 21:27:37.872997 25444 net.cpp:84] Creating Layer conv2/norm2
I1214 21:27:37.873003 25444 net.cpp:380] conv2/norm2 <- conv2/3x3
I1214 21:27:37.873070 25444 net.cpp:338] conv2/norm2 -> conv2/norm2
I1214 21:27:37.873085 25444 net.cpp:113] Setting up conv2/norm2
I1214 21:27:37.873098 25444 net.cpp:120] Top shape: 32 192 56 56 (19267584)
I1214 21:27:37.873105 25444 layer_factory.hpp:74] Creating layer pool2/3x3_s2
I1214 21:27:37.873129 25444 net.cpp:84] Creating Layer pool2/3x3_s2
I1214 21:27:37.873147 25444 net.cpp:380] pool2/3x3_s2 <- conv2/norm2
I1214 21:27:37.873157 25444 net.cpp:338] pool2/3x3_s2 -> pool2/3x3_s2
I1214 21:27:37.873165 25444 net.cpp:113] Setting up pool2/3x3_s2
I1214 21:27:37.873796 25444 net.cpp:120] Top shape: 32 192 28 28 (4816896)
I1214 21:27:37.873810 25444 layer_factory.hpp:74] Creating layer pool2/3x3_s2_pool2/3x3_s2_0_split
I1214 21:27:37.873818 25444 net.cpp:84] Creating Layer pool2/3x3_s2_pool2/3x3_s2_0_split
I1214 21:27:37.873826 25444 net.cpp:380] pool2/3x3_s2_pool2/3x3_s2_0_split <- pool2/3x3_s2
I1214 21:27:37.873838 25444 net.cpp:338] pool2/3x3_s2_pool2/3x3_s2_0_split -> pool2/3x3_s2_pool2/3x3_s2_0_split_0
I1214 21:27:37.873849 25444 net.cpp:338] pool2/3x3_s2_pool2/3x3_s2_0_split -> pool2/3x3_s2_pool2/3x3_s2_0_split_1
I1214 21:27:37.873860 25444 net.cpp:338] pool2/3x3_s2_pool2/3x3_s2_0_split -> pool2/3x3_s2_pool2/3x3_s2_0_split_2
I1214 21:27:37.873870 25444 net.cpp:338] pool2/3x3_s2_pool2/3x3_s2_0_split -> pool2/3x3_s2_pool2/3x3_s2_0_split_3
I1214 21:27:37.873878 25444 net.cpp:113] Setting up pool2/3x3_s2_pool2/3x3_s2_0_split
I1214 21:27:37.873891 25444 net.cpp:120] Top shape: 32 192 28 28 (4816896)
I1214 21:27:37.873899 25444 net.cpp:120] Top shape: 32 192 28 28 (4816896)
I1214 21:27:37.873906 25444 net.cpp:120] Top shape: 32 192 28 28 (4816896)
I1214 21:27:37.873914 25444 net.cpp:120] Top shape: 32 192 28 28 (4816896)
I1214 21:27:37.873919 25444 layer_factory.hpp:74] Creating layer inception_3a/1x1
I1214 21:27:37.873941 25444 net.cpp:84] Creating Layer inception_3a/1x1
I1214 21:27:37.873950 25444 net.cpp:380] inception_3a/1x1 <- pool2/3x3_s2_pool2/3x3_s2_0_split_0
I1214 21:27:37.873961 25444 net.cpp:338] inception_3a/1x1 -> inception_3a/1x1
I1214 21:27:37.873975 25444 net.cpp:113] Setting up inception_3a/1x1
I1214 21:27:37.874640 25444 net.cpp:120] Top shape: 32 64 28 28 (1605632)
I1214 21:27:37.874661 25444 layer_factory.hpp:74] Creating layer inception_3a/relu_1x1
I1214 21:27:37.874670 25444 net.cpp:84] Creating Layer inception_3a/relu_1x1
I1214 21:27:37.874676 25444 net.cpp:380] inception_3a/relu_1x1 <- inception_3a/1x1
I1214 21:27:37.874691 25444 net.cpp:327] inception_3a/relu_1x1 -> inception_3a/1x1 (in-place)
I1214 21:27:37.874697 25444 net.cpp:113] Setting up inception_3a/relu_1x1
I1214 21:27:37.874778 25444 net.cpp:120] Top shape: 32 64 28 28 (1605632)
I1214 21:27:37.874789 25444 layer_factory.hpp:74] Creating layer inception_3a/3x3_reduce
I1214 21:27:37.874801 25444 net.cpp:84] Creating Layer inception_3a/3x3_reduce
I1214 21:27:37.874809 25444 net.cpp:380] inception_3a/3x3_reduce <- pool2/3x3_s2_pool2/3x3_s2_0_split_1
I1214 21:27:37.874819 25444 net.cpp:338] inception_3a/3x3_reduce -> inception_3a/3x3_reduce
I1214 21:27:37.874830 25444 net.cpp:113] Setting up inception_3a/3x3_reduce
I1214 21:27:37.875514 25444 net.cpp:120] Top shape: 32 96 28 28 (2408448)
I1214 21:27:37.875530 25444 layer_factory.hpp:74] Creating layer inception_3a/relu_3x3_reduce
I1214 21:27:37.875557 25444 net.cpp:84] Creating Layer inception_3a/relu_3x3_reduce
I1214 21:27:37.875566 25444 net.cpp:380] inception_3a/relu_3x3_reduce <- inception_3a/3x3_reduce
I1214 21:27:37.875584 25444 net.cpp:327] inception_3a/relu_3x3_reduce -> inception_3a/3x3_reduce (in-place)
I1214 21:27:37.875594 25444 net.cpp:113] Setting up inception_3a/relu_3x3_reduce
I1214 21:27:37.875677 25444 net.cpp:120] Top shape: 32 96 28 28 (2408448)
I1214 21:27:37.875695 25444 layer_factory.hpp:74] Creating layer inception_3a/3x3
I1214 21:27:37.875705 25444 net.cpp:84] Creating Layer inception_3a/3x3
I1214 21:27:37.875710 25444 net.cpp:380] inception_3a/3x3 <- inception_3a/3x3_reduce
I1214 21:27:37.875722 25444 net.cpp:338] inception_3a/3x3 -> inception_3a/3x3
I1214 21:27:37.875735 25444 net.cpp:113] Setting up inception_3a/3x3
I1214 21:27:37.877673 25444 net.cpp:120] Top shape: 32 128 28 28 (3211264)
I1214 21:27:37.877693 25444 layer_factory.hpp:74] Creating layer inception_3a/relu_3x3
I1214 21:27:37.877702 25444 net.cpp:84] Creating Layer inception_3a/relu_3x3
I1214 21:27:37.877712 25444 net.cpp:380] inception_3a/relu_3x3 <- inception_3a/3x3
I1214 21:27:37.877725 25444 net.cpp:327] inception_3a/relu_3x3 -> inception_3a/3x3 (in-place)
I1214 21:27:37.877737 25444 net.cpp:113] Setting up inception_3a/relu_3x3
I1214 21:27:37.878036 25444 net.cpp:120] Top shape: 32 128 28 28 (3211264)
I1214 21:27:37.878049 25444 layer_factory.hpp:74] Creating layer inception_3a/5x5_reduce
I1214 21:27:37.878079 25444 net.cpp:84] Creating Layer inception_3a/5x5_reduce
I1214 21:27:37.878092 25444 net.cpp:380] inception_3a/5x5_reduce <- pool2/3x3_s2_pool2/3x3_s2_0_split_2
I1214 21:27:37.878106 25444 net.cpp:338] inception_3a/5x5_reduce -> inception_3a/5x5_reduce
I1214 21:27:37.878123 25444 net.cpp:113] Setting up inception_3a/5x5_reduce
I1214 21:27:37.878679 25444 net.cpp:120] Top shape: 32 16 28 28 (401408)
I1214 21:27:37.878698 25444 layer_factory.hpp:74] Creating layer inception_3a/relu_5x5_reduce
I1214 21:27:37.878708 25444 net.cpp:84] Creating Layer inception_3a/relu_5x5_reduce
I1214 21:27:37.878715 25444 net.cpp:380] inception_3a/relu_5x5_reduce <- inception_3a/5x5_reduce
I1214 21:27:37.878726 25444 net.cpp:327] inception_3a/relu_5x5_reduce -> inception_3a/5x5_reduce (in-place)
I1214 21:27:37.878732 25444 net.cpp:113] Setting up inception_3a/relu_5x5_reduce
I1214 21:27:37.878839 25444 net.cpp:120] Top shape: 32 16 28 28 (401408)
I1214 21:27:37.878851 25444 layer_factory.hpp:74] Creating layer inception_3a/5x5
I1214 21:27:37.878873 25444 net.cpp:84] Creating Layer inception_3a/5x5
I1214 21:27:37.878881 25444 net.cpp:380] inception_3a/5x5 <- inception_3a/5x5_reduce
I1214 21:27:37.878890 25444 net.cpp:338] inception_3a/5x5 -> inception_3a/5x5
I1214 21:27:37.878897 25444 net.cpp:113] Setting up inception_3a/5x5
I1214 21:27:37.879503 25444 net.cpp:120] Top shape: 32 32 28 28 (802816)
I1214 21:27:37.879521 25444 layer_factory.hpp:74] Creating layer inception_3a/relu_5x5
I1214 21:27:37.879528 25444 net.cpp:84] Creating Layer inception_3a/relu_5x5
I1214 21:27:37.879534 25444 net.cpp:380] inception_3a/relu_5x5 <- inception_3a/5x5
I1214 21:27:37.879540 25444 net.cpp:327] inception_3a/relu_5x5 -> inception_3a/5x5 (in-place)
I1214 21:27:37.879547 25444 net.cpp:113] Setting up inception_3a/relu_5x5
I1214 21:27:37.879638 25444 net.cpp:120] Top shape: 32 32 28 28 (802816)
I1214 21:27:37.879650 25444 layer_factory.hpp:74] Creating layer inception_3a/pool
I1214 21:27:37.879669 25444 layer_factory.cpp:56] CUDNN does not support padding or multiple tops. Using Caffe's own pooling layer.
I1214 21:27:37.879680 25444 net.cpp:84] Creating Layer inception_3a/pool
I1214 21:27:37.879690 25444 net.cpp:380] inception_3a/pool <- pool2/3x3_s2_pool2/3x3_s2_0_split_3
I1214 21:27:37.879699 25444 net.cpp:338] inception_3a/pool -> inception_3a/pool
I1214 21:27:37.879711 25444 net.cpp:113] Setting up inception_3a/pool
I1214 21:27:37.879724 25444 net.cpp:120] Top shape: 32 192 28 28 (4816896)
I1214 21:27:37.879731 25444 layer_factory.hpp:74] Creating layer inception_3a/pool_proj
I1214 21:27:37.879742 25444 net.cpp:84] Creating Layer inception_3a/pool_proj
I1214 21:27:37.879747 25444 net.cpp:380] inception_3a/pool_proj <- inception_3a/pool
I1214 21:27:37.879753 25444 net.cpp:338] inception_3a/pool_proj -> inception_3a/pool_proj
I1214 21:27:37.879760 25444 net.cpp:113] Setting up inception_3a/pool_proj
I1214 21:27:37.880334 25444 net.cpp:120] Top shape: 32 32 28 28 (802816)
I1214 21:27:37.880352 25444 layer_factory.hpp:74] Creating layer inception_3a/relu_pool_proj
I1214 21:27:37.880359 25444 net.cpp:84] Creating Layer inception_3a/relu_pool_proj
I1214 21:27:37.880364 25444 net.cpp:380] inception_3a/relu_pool_proj <- inception_3a/pool_proj
I1214 21:27:37.880373 25444 net.cpp:327] inception_3a/relu_pool_proj -> inception_3a/pool_proj (in-place)
I1214 21:27:37.880383 25444 net.cpp:113] Setting up inception_3a/relu_pool_proj
I1214 21:27:37.880494 25444 net.cpp:120] Top shape: 32 32 28 28 (802816)
I1214 21:27:37.880516 25444 layer_factory.hpp:74] Creating layer inception_3a/output
I1214 21:27:37.880549 25444 net.cpp:84] Creating Layer inception_3a/output
I1214 21:27:37.880561 25444 net.cpp:380] inception_3a/output <- inception_3a/1x1
I1214 21:27:37.880570 25444 net.cpp:380] inception_3a/output <- inception_3a/3x3
I1214 21:27:37.880578 25444 net.cpp:380] inception_3a/output <- inception_3a/5x5
I1214 21:27:37.880584 25444 net.cpp:380] inception_3a/output <- inception_3a/pool_proj
I1214 21:27:37.880591 25444 net.cpp:338] inception_3a/output -> inception_3a/output
I1214 21:27:37.880599 25444 net.cpp:113] Setting up inception_3a/output
I1214 21:27:37.880612 25444 net.cpp:120] Top shape: 32 256 28 28 (6422528)
I1214 21:27:37.880620 25444 layer_factory.hpp:74] Creating layer inception_3a/output_inception_3a/output_0_split
I1214 21:27:37.880627 25444 net.cpp:84] Creating Layer inception_3a/output_inception_3a/output_0_split
I1214 21:27:37.880633 25444 net.cpp:380] inception_3a/output_inception_3a/output_0_split <- inception_3a/output
I1214 21:27:37.880642 25444 net.cpp:338] inception_3a/output_inception_3a/output_0_split -> inception_3a/output_inception_3a/output_0_split_0
I1214 21:27:37.880652 25444 net.cpp:338] inception_3a/output_inception_3a/output_0_split -> inception_3a/output_inception_3a/output_0_split_1
I1214 21:27:37.880662 25444 net.cpp:338] inception_3a/output_inception_3a/output_0_split -> inception_3a/output_inception_3a/output_0_split_2
I1214 21:27:37.880671 25444 net.cpp:338] inception_3a/output_inception_3a/output_0_split -> inception_3a/output_inception_3a/output_0_split_3
I1214 21:27:37.880681 25444 net.cpp:113] Setting up inception_3a/output_inception_3a/output_0_split
I1214 21:27:37.880691 25444 net.cpp:120] Top shape: 32 256 28 28 (6422528)
I1214 21:27:37.880697 25444 net.cpp:120] Top shape: 32 256 28 28 (6422528)
I1214 21:27:37.880705 25444 net.cpp:120] Top shape: 32 256 28 28 (6422528)
I1214 21:27:37.880712 25444 net.cpp:120] Top shape: 32 256 28 28 (6422528)
I1214 21:27:37.880719 25444 layer_factory.hpp:74] Creating layer inception_3b/1x1
I1214 21:27:37.880733 25444 net.cpp:84] Creating Layer inception_3b/1x1
I1214 21:27:37.880738 25444 net.cpp:380] inception_3b/1x1 <- inception_3a/output_inception_3a/output_0_split_0
I1214 21:27:37.880745 25444 net.cpp:338] inception_3b/1x1 -> inception_3b/1x1
I1214 21:27:37.880751 25444 net.cpp:113] Setting up inception_3b/1x1
I1214 21:27:37.881624 25444 net.cpp:120] Top shape: 32 128 28 28 (3211264)
I1214 21:27:37.881642 25444 layer_factory.hpp:74] Creating layer inception_3b/relu_1x1
I1214 21:27:37.881654 25444 net.cpp:84] Creating Layer inception_3b/relu_1x1
I1214 21:27:37.881661 25444 net.cpp:380] inception_3b/relu_1x1 <- inception_3b/1x1
I1214 21:27:37.881671 25444 net.cpp:327] inception_3b/relu_1x1 -> inception_3b/1x1 (in-place)
I1214 21:27:37.881681 25444 net.cpp:113] Setting up inception_3b/relu_1x1
I1214 21:27:37.881973 25444 net.cpp:120] Top shape: 32 128 28 28 (3211264)
I1214 21:27:37.881997 25444 layer_factory.hpp:74] Creating layer inception_3b/3x3_reduce
I1214 21:27:37.882027 25444 net.cpp:84] Creating Layer inception_3b/3x3_reduce
I1214 21:27:37.882035 25444 net.cpp:380] inception_3b/3x3_reduce <- inception_3a/output_inception_3a/output_0_split_1
I1214 21:27:37.882047 25444 net.cpp:338] inception_3b/3x3_reduce -> inception_3b/3x3_reduce
I1214 21:27:37.882061 25444 net.cpp:113] Setting up inception_3b/3x3_reduce
I1214 21:27:37.882939 25444 net.cpp:120] Top shape: 32 128 28 28 (3211264)
I1214 21:27:37.882957 25444 layer_factory.hpp:74] Creating layer inception_3b/relu_3x3_reduce
I1214 21:27:37.882967 25444 net.cpp:84] Creating Layer inception_3b/relu_3x3_reduce
I1214 21:27:37.882975 25444 net.cpp:380] inception_3b/relu_3x3_reduce <- inception_3b/3x3_reduce
I1214 21:27:37.882985 25444 net.cpp:327] inception_3b/relu_3x3_reduce -> inception_3b/3x3_reduce (in-place)
I1214 21:27:37.882995 25444 net.cpp:113] Setting up inception_3b/relu_3x3_reduce
I1214 21:27:37.883075 25444 net.cpp:120] Top shape: 32 128 28 28 (3211264)
I1214 21:27:37.883087 25444 layer_factory.hpp:74] Creating layer inception_3b/3x3
I1214 21:27:37.883105 25444 net.cpp:84] Creating Layer inception_3b/3x3
I1214 21:27:37.883121 25444 net.cpp:380] inception_3b/3x3 <- inception_3b/3x3_reduce
I1214 21:27:37.883142 25444 net.cpp:338] inception_3b/3x3 -> inception_3b/3x3
I1214 21:27:37.883155 25444 net.cpp:113] Setting up inception_3b/3x3
I1214 21:27:37.885932 25444 net.cpp:120] Top shape: 32 192 28 28 (4816896)
I1214 21:27:37.885952 25444 layer_factory.hpp:74] Creating layer inception_3b/relu_3x3
I1214 21:27:37.885962 25444 net.cpp:84] Creating Layer inception_3b/relu_3x3
I1214 21:27:37.885969 25444 net.cpp:380] inception_3b/relu_3x3 <- inception_3b/3x3
I1214 21:27:37.885978 25444 net.cpp:327] inception_3b/relu_3x3 -> inception_3b/3x3 (in-place)
I1214 21:27:37.885987 25444 net.cpp:113] Setting up inception_3b/relu_3x3
I1214 21:27:37.886065 25444 net.cpp:120] Top shape: 32 192 28 28 (4816896)
I1214 21:27:37.886073 25444 layer_factory.hpp:74] Creating layer inception_3b/5x5_reduce
I1214 21:27:37.886098 25444 net.cpp:84] Creating Layer inception_3b/5x5_reduce
I1214 21:27:37.886108 25444 net.cpp:380] inception_3b/5x5_reduce <- inception_3a/output_inception_3a/output_0_split_2
I1214 21:27:37.886117 25444 net.cpp:338] inception_3b/5x5_reduce -> inception_3b/5x5_reduce
I1214 21:27:37.886126 25444 net.cpp:113] Setting up inception_3b/5x5_reduce
I1214 21:27:37.886683 25444 net.cpp:120] Top shape: 32 32 28 28 (802816)
I1214 21:27:37.886711 25444 layer_factory.hpp:74] Creating layer inception_3b/relu_5x5_reduce
I1214 21:27:37.886723 25444 net.cpp:84] Creating Layer inception_3b/relu_5x5_reduce
I1214 21:27:37.886730 25444 net.cpp:380] inception_3b/relu_5x5_reduce <- inception_3b/5x5_reduce
I1214 21:27:37.886741 25444 net.cpp:327] inception_3b/relu_5x5_reduce -> inception_3b/5x5_reduce (in-place)
I1214 21:27:37.886754 25444 net.cpp:113] Setting up inception_3b/relu_5x5_reduce
I1214 21:27:37.886844 25444 net.cpp:120] Top shape: 32 32 28 28 (802816)
I1214 21:27:37.886852 25444 layer_factory.hpp:74] Creating layer inception_3b/5x5
I1214 21:27:37.886860 25444 net.cpp:84] Creating Layer inception_3b/5x5
I1214 21:27:37.886864 25444 net.cpp:380] inception_3b/5x5 <- inception_3b/5x5_reduce
I1214 21:27:37.886873 25444 net.cpp:338] inception_3b/5x5 -> inception_3b/5x5
I1214 21:27:37.886893 25444 net.cpp:113] Setting up inception_3b/5x5
I1214 21:27:37.888180 25444 net.cpp:120] Top shape: 32 96 28 28 (2408448)
I1214 21:27:37.888200 25444 layer_factory.hpp:74] Creating layer inception_3b/relu_5x5
I1214 21:27:37.888221 25444 net.cpp:84] Creating Layer inception_3b/relu_5x5
I1214 21:27:37.888227 25444 net.cpp:380] inception_3b/relu_5x5 <- inception_3b/5x5
I1214 21:27:37.888237 25444 net.cpp:327] inception_3b/relu_5x5 -> inception_3b/5x5 (in-place)
I1214 21:27:37.888252 25444 net.cpp:113] Setting up inception_3b/relu_5x5
I1214 21:27:37.888527 25444 net.cpp:120] Top shape: 32 96 28 28 (2408448)
I1214 21:27:37.888541 25444 layer_factory.hpp:74] Creating layer inception_3b/pool
I1214 21:27:37.888550 25444 layer_factory.cpp:56] CUDNN does not support padding or multiple tops. Using Caffe's own pooling layer.
I1214 21:27:37.888559 25444 net.cpp:84] Creating Layer inception_3b/pool
I1214 21:27:37.888567 25444 net.cpp:380] inception_3b/pool <- inception_3a/output_inception_3a/output_0_split_3
I1214 21:27:37.888589 25444 net.cpp:338] inception_3b/pool -> inception_3b/pool
I1214 21:27:37.888603 25444 net.cpp:113] Setting up inception_3b/pool
I1214 21:27:37.888615 25444 net.cpp:120] Top shape: 32 256 28 28 (6422528)
I1214 21:27:37.888622 25444 layer_factory.hpp:74] Creating layer inception_3b/pool_proj
I1214 21:27:37.888641 25444 net.cpp:84] Creating Layer inception_3b/pool_proj
I1214 21:27:37.888650 25444 net.cpp:380] inception_3b/pool_proj <- inception_3b/pool
I1214 21:27:37.888661 25444 net.cpp:338] inception_3b/pool_proj -> inception_3b/pool_proj
I1214 21:27:37.888672 25444 net.cpp:113] Setting up inception_3b/pool_proj
I1214 21:27:37.889324 25444 net.cpp:120] Top shape: 32 64 28 28 (1605632)
I1214 21:27:37.889344 25444 layer_factory.hpp:74] Creating layer inception_3b/relu_pool_proj
I1214 21:27:37.889371 25444 net.cpp:84] Creating Layer inception_3b/relu_pool_proj
I1214 21:27:37.889382 25444 net.cpp:380] inception_3b/relu_pool_proj <- inception_3b/pool_proj
I1214 21:27:37.889395 25444 net.cpp:327] inception_3b/relu_pool_proj -> inception_3b/pool_proj (in-place)
I1214 21:27:37.889406 25444 net.cpp:113] Setting up inception_3b/relu_pool_proj
I1214 21:27:37.889502 25444 net.cpp:120] Top shape: 32 64 28 28 (1605632)
I1214 21:27:37.889513 25444 layer_factory.hpp:74] Creating layer inception_3b/output
I1214 21:27:37.889521 25444 net.cpp:84] Creating Layer inception_3b/output
I1214 21:27:37.889528 25444 net.cpp:380] inception_3b/output <- inception_3b/1x1
I1214 21:27:37.889536 25444 net.cpp:380] inception_3b/output <- inception_3b/3x3
I1214 21:27:37.889544 25444 net.cpp:380] inception_3b/output <- inception_3b/5x5
I1214 21:27:37.889551 25444 net.cpp:380] inception_3b/output <- inception_3b/pool_proj
I1214 21:27:37.889556 25444 net.cpp:338] inception_3b/output -> inception_3b/output
I1214 21:27:37.889564 25444 net.cpp:113] Setting up inception_3b/output
I1214 21:27:37.889569 25444 net.cpp:120] Top shape: 32 480 28 28 (12042240)
I1214 21:27:37.889574 25444 layer_factory.hpp:74] Creating layer pool3/3x3_s2
I1214 21:27:37.889582 25444 net.cpp:84] Creating Layer pool3/3x3_s2
I1214 21:27:37.889590 25444 net.cpp:380] pool3/3x3_s2 <- inception_3b/output
I1214 21:27:37.889600 25444 net.cpp:338] pool3/3x3_s2 -> pool3/3x3_s2
I1214 21:27:37.889608 25444 net.cpp:113] Setting up pool3/3x3_s2
I1214 21:27:37.889696 25444 net.cpp:120] Top shape: 32 480 14 14 (3010560)
I1214 21:27:37.889709 25444 layer_factory.hpp:74] Creating layer pool3/3x3_s2_pool3/3x3_s2_0_split
I1214 21:27:37.889719 25444 net.cpp:84] Creating Layer pool3/3x3_s2_pool3/3x3_s2_0_split
I1214 21:27:37.889725 25444 net.cpp:380] pool3/3x3_s2_pool3/3x3_s2_0_split <- pool3/3x3_s2
I1214 21:27:37.889734 25444 net.cpp:338] pool3/3x3_s2_pool3/3x3_s2_0_split -> pool3/3x3_s2_pool3/3x3_s2_0_split_0
I1214 21:27:37.889744 25444 net.cpp:338] pool3/3x3_s2_pool3/3x3_s2_0_split -> pool3/3x3_s2_pool3/3x3_s2_0_split_1
I1214 21:27:37.889755 25444 net.cpp:338] pool3/3x3_s2_pool3/3x3_s2_0_split -> pool3/3x3_s2_pool3/3x3_s2_0_split_2
I1214 21:27:37.889761 25444 net.cpp:338] pool3/3x3_s2_pool3/3x3_s2_0_split -> pool3/3x3_s2_pool3/3x3_s2_0_split_3
I1214 21:27:37.889766 25444 net.cpp:113] Setting up pool3/3x3_s2_pool3/3x3_s2_0_split
I1214 21:27:37.889772 25444 net.cpp:120] Top shape: 32 480 14 14 (3010560)
I1214 21:27:37.889776 25444 net.cpp:120] Top shape: 32 480 14 14 (3010560)
I1214 21:27:37.889780 25444 net.cpp:120] Top shape: 32 480 14 14 (3010560)
I1214 21:27:37.889786 25444 net.cpp:120] Top shape: 32 480 14 14 (3010560)
I1214 21:27:37.889801 25444 layer_factory.hpp:74] Creating layer inception_4a/1x1
I1214 21:27:37.889814 25444 net.cpp:84] Creating Layer inception_4a/1x1
I1214 21:27:37.889822 25444 net.cpp:380] inception_4a/1x1 <- pool3/3x3_s2_pool3/3x3_s2_0_split_0
I1214 21:27:37.889832 25444 net.cpp:338] inception_4a/1x1 -> inception_4a/1x1
I1214 21:27:37.889843 25444 net.cpp:113] Setting up inception_4a/1x1
I1214 21:27:37.891299 25444 net.cpp:120] Top shape: 32 192 14 14 (1204224)
I1214 21:27:37.891317 25444 layer_factory.hpp:74] Creating layer inception_4a/relu_1x1
I1214 21:27:37.891337 25444 net.cpp:84] Creating Layer inception_4a/relu_1x1
I1214 21:27:37.891345 25444 net.cpp:380] inception_4a/relu_1x1 <- inception_4a/1x1
I1214 21:27:37.891355 25444 net.cpp:327] inception_4a/relu_1x1 -> inception_4a/1x1 (in-place)
I1214 21:27:37.891365 25444 net.cpp:113] Setting up inception_4a/relu_1x1
I1214 21:27:37.891646 25444 net.cpp:120] Top shape: 32 192 14 14 (1204224)
I1214 21:27:37.891660 25444 layer_factory.hpp:74] Creating layer inception_4a/3x3_reduce
I1214 21:27:37.891674 25444 net.cpp:84] Creating Layer inception_4a/3x3_reduce
I1214 21:27:37.891681 25444 net.cpp:380] inception_4a/3x3_reduce <- pool3/3x3_s2_pool3/3x3_s2_0_split_1
I1214 21:27:37.891695 25444 net.cpp:338] inception_4a/3x3_reduce -> inception_4a/3x3_reduce
I1214 21:27:37.891707 25444 net.cpp:113] Setting up inception_4a/3x3_reduce
I1214 21:27:37.892642 25444 net.cpp:120] Top shape: 32 96 14 14 (602112)
I1214 21:27:37.892673 25444 layer_factory.hpp:74] Creating layer inception_4a/relu_3x3_reduce
I1214 21:27:37.892693 25444 net.cpp:84] Creating Layer inception_4a/relu_3x3_reduce
I1214 21:27:37.892701 25444 net.cpp:380] inception_4a/relu_3x3_reduce <- inception_4a/3x3_reduce
I1214 21:27:37.892710 25444 net.cpp:327] inception_4a/relu_3x3_reduce -> inception_4a/3x3_reduce (in-place)
I1214 21:27:37.892719 25444 net.cpp:113] Setting up inception_4a/relu_3x3_reduce
I1214 21:27:37.892803 25444 net.cpp:120] Top shape: 32 96 14 14 (602112)
I1214 21:27:37.892814 25444 layer_factory.hpp:74] Creating layer inception_4a/3x3
I1214 21:27:37.892849 25444 net.cpp:84] Creating Layer inception_4a/3x3
I1214 21:27:37.892858 25444 net.cpp:380] inception_4a/3x3 <- inception_4a/3x3_reduce
I1214 21:27:37.892868 25444 net.cpp:338] inception_4a/3x3 -> inception_4a/3x3
I1214 21:27:37.892879 25444 net.cpp:113] Setting up inception_4a/3x3
I1214 21:27:37.895290 25444 net.cpp:120] Top shape: 32 208 14 14 (1304576)
I1214 21:27:37.895309 25444 layer_factory.hpp:74] Creating layer inception_4a/relu_3x3
I1214 21:27:37.895321 25444 net.cpp:84] Creating Layer inception_4a/relu_3x3
I1214 21:27:37.895328 25444 net.cpp:380] inception_4a/relu_3x3 <- inception_4a/3x3
I1214 21:27:37.895339 25444 net.cpp:327] inception_4a/relu_3x3 -> inception_4a/3x3 (in-place)
I1214 21:27:37.895349 25444 net.cpp:113] Setting up inception_4a/relu_3x3
I1214 21:27:37.895442 25444 net.cpp:120] Top shape: 32 208 14 14 (1304576)
I1214 21:27:37.895453 25444 layer_factory.hpp:74] Creating layer inception_4a/5x5_reduce
I1214 21:27:37.895467 25444 net.cpp:84] Creating Layer inception_4a/5x5_reduce
I1214 21:27:37.895488 25444 net.cpp:380] inception_4a/5x5_reduce <- pool3/3x3_s2_pool3/3x3_s2_0_split_2
I1214 21:27:37.895501 25444 net.cpp:338] inception_4a/5x5_reduce -> inception_4a/5x5_reduce
I1214 21:27:37.895512 25444 net.cpp:113] Setting up inception_4a/5x5_reduce
I1214 21:27:37.896062 25444 net.cpp:120] Top shape: 32 16 14 14 (100352)
I1214 21:27:37.896081 25444 layer_factory.hpp:74] Creating layer inception_4a/relu_5x5_reduce
I1214 21:27:37.896093 25444 net.cpp:84] Creating Layer inception_4a/relu_5x5_reduce
I1214 21:27:37.896101 25444 net.cpp:380] inception_4a/relu_5x5_reduce <- inception_4a/5x5_reduce
I1214 21:27:37.896119 25444 net.cpp:327] inception_4a/relu_5x5_reduce -> inception_4a/5x5_reduce (in-place)
I1214 21:27:37.896129 25444 net.cpp:113] Setting up inception_4a/relu_5x5_reduce
I1214 21:27:37.896204 25444 net.cpp:120] Top shape: 32 16 14 14 (100352)
I1214 21:27:37.896216 25444 layer_factory.hpp:74] Creating layer inception_4a/5x5
I1214 21:27:37.896226 25444 net.cpp:84] Creating Layer inception_4a/5x5
I1214 21:27:37.896234 25444 net.cpp:380] inception_4a/5x5 <- inception_4a/5x5_reduce
I1214 21:27:37.896263 25444 net.cpp:338] inception_4a/5x5 -> inception_4a/5x5
I1214 21:27:37.896275 25444 net.cpp:113] Setting up inception_4a/5x5
I1214 21:27:37.896932 25444 net.cpp:120] Top shape: 32 48 14 14 (301056)
I1214 21:27:37.896953 25444 layer_factory.hpp:74] Creating layer inception_4a/relu_5x5
I1214 21:27:37.896960 25444 net.cpp:84] Creating Layer inception_4a/relu_5x5
I1214 21:27:37.896965 25444 net.cpp:380] inception_4a/relu_5x5 <- inception_4a/5x5
I1214 21:27:37.896978 25444 net.cpp:327] inception_4a/relu_5x5 -> inception_4a/5x5 (in-place)
I1214 21:27:37.896989 25444 net.cpp:113] Setting up inception_4a/relu_5x5
I1214 21:27:37.897275 25444 net.cpp:120] Top shape: 32 48 14 14 (301056)
I1214 21:27:37.897292 25444 layer_factory.hpp:74] Creating layer inception_4a/pool
I1214 21:27:37.897300 25444 layer_factory.cpp:56] CUDNN does not support padding or multiple tops. Using Caffe's own pooling layer.
I1214 21:27:37.897307 25444 net.cpp:84] Creating Layer inception_4a/pool
I1214 21:27:37.897315 25444 net.cpp:380] inception_4a/pool <- pool3/3x3_s2_pool3/3x3_s2_0_split_3
I1214 21:27:37.897327 25444 net.cpp:338] inception_4a/pool -> inception_4a/pool
I1214 21:27:37.897339 25444 net.cpp:113] Setting up inception_4a/pool
I1214 21:27:37.897352 25444 net.cpp:120] Top shape: 32 480 14 14 (3010560)
I1214 21:27:37.897362 25444 layer_factory.hpp:74] Creating layer inception_4a/pool_proj
I1214 21:27:37.897392 25444 net.cpp:84] Creating Layer inception_4a/pool_proj
I1214 21:27:37.897399 25444 net.cpp:380] inception_4a/pool_proj <- inception_4a/pool
I1214 21:27:37.897419 25444 net.cpp:338] inception_4a/pool_proj -> inception_4a/pool_proj
I1214 21:27:37.897431 25444 net.cpp:113] Setting up inception_4a/pool_proj
I1214 21:27:37.898224 25444 net.cpp:120] Top shape: 32 64 14 14 (401408)
I1214 21:27:37.898241 25444 layer_factory.hpp:74] Creating layer inception_4a/relu_pool_proj
I1214 21:27:37.898249 25444 net.cpp:84] Creating Layer inception_4a/relu_pool_proj
I1214 21:27:37.898257 25444 net.cpp:380] inception_4a/relu_pool_proj <- inception_4a/pool_proj
I1214 21:27:37.898265 25444 net.cpp:327] inception_4a/relu_pool_proj -> inception_4a/pool_proj (in-place)
I1214 21:27:37.898275 25444 net.cpp:113] Setting up inception_4a/relu_pool_proj
I1214 21:27:37.898365 25444 net.cpp:120] Top shape: 32 64 14 14 (401408)
I1214 21:27:37.898375 25444 layer_factory.hpp:74] Creating layer inception_4a/output
I1214 21:27:37.898393 25444 net.cpp:84] Creating Layer inception_4a/output
I1214 21:27:37.898402 25444 net.cpp:380] inception_4a/output <- inception_4a/1x1
I1214 21:27:37.898411 25444 net.cpp:380] inception_4a/output <- inception_4a/3x3
I1214 21:27:37.898417 25444 net.cpp:380] inception_4a/output <- inception_4a/5x5
I1214 21:27:37.898422 25444 net.cpp:380] inception_4a/output <- inception_4a/pool_proj
I1214 21:27:37.898427 25444 net.cpp:338] inception_4a/output -> inception_4a/output
I1214 21:27:37.898433 25444 net.cpp:113] Setting up inception_4a/output
I1214 21:27:37.898439 25444 net.cpp:120] Top shape: 32 512 14 14 (3211264)
I1214 21:27:37.898443 25444 layer_factory.hpp:74] Creating layer inception_4a/output_inception_4a/output_0_split
I1214 21:27:37.898449 25444 net.cpp:84] Creating Layer inception_4a/output_inception_4a/output_0_split
I1214 21:27:37.898454 25444 net.cpp:380] inception_4a/output_inception_4a/output_0_split <- inception_4a/output
I1214 21:27:37.898470 25444 net.cpp:338] inception_4a/output_inception_4a/output_0_split -> inception_4a/output_inception_4a/output_0_split_0
I1214 21:27:37.898483 25444 net.cpp:338] inception_4a/output_inception_4a/output_0_split -> inception_4a/output_inception_4a/output_0_split_1
I1214 21:27:37.898494 25444 net.cpp:338] inception_4a/output_inception_4a/output_0_split -> inception_4a/output_inception_4a/output_0_split_2
I1214 21:27:37.898504 25444 net.cpp:338] inception_4a/output_inception_4a/output_0_split -> inception_4a/output_inception_4a/output_0_split_3
I1214 21:27:37.898514 25444 net.cpp:338] inception_4a/output_inception_4a/output_0_split -> inception_4a/output_inception_4a/output_0_split_4
I1214 21:27:37.898522 25444 net.cpp:113] Setting up inception_4a/output_inception_4a/output_0_split
I1214 21:27:37.898533 25444 net.cpp:120] Top shape: 32 512 14 14 (3211264)
I1214 21:27:37.898540 25444 net.cpp:120] Top shape: 32 512 14 14 (3211264)
I1214 21:27:37.898548 25444 net.cpp:120] Top shape: 32 512 14 14 (3211264)
I1214 21:27:37.898555 25444 net.cpp:120] Top shape: 32 512 14 14 (3211264)
I1214 21:27:37.898562 25444 net.cpp:120] Top shape: 32 512 14 14 (3211264)
I1214 21:27:37.898569 25444 layer_factory.hpp:74] Creating layer loss1/ave_pool
I1214 21:27:37.898581 25444 net.cpp:84] Creating Layer loss1/ave_pool
I1214 21:27:37.898586 25444 net.cpp:380] loss1/ave_pool <- inception_4a/output_inception_4a/output_0_split_0
I1214 21:27:37.898591 25444 net.cpp:338] loss1/ave_pool -> loss1/ave_pool
I1214 21:27:37.898597 25444 net.cpp:113] Setting up loss1/ave_pool
I1214 21:27:37.898671 25444 net.cpp:120] Top shape: 32 512 4 4 (262144)
I1214 21:27:37.898680 25444 layer_factory.hpp:74] Creating layer loss1/conv
I1214 21:27:37.898699 25444 net.cpp:84] Creating Layer loss1/conv
I1214 21:27:37.898706 25444 net.cpp:380] loss1/conv <- loss1/ave_pool
I1214 21:27:37.898718 25444 net.cpp:338] loss1/conv -> loss1/conv
I1214 21:27:37.898730 25444 net.cpp:113] Setting up loss1/conv
I1214 21:27:37.899890 25444 net.cpp:120] Top shape: 32 128 4 4 (65536)
I1214 21:27:37.899920 25444 layer_factory.hpp:74] Creating layer loss1/relu_conv
I1214 21:27:37.899930 25444 net.cpp:84] Creating Layer loss1/relu_conv
I1214 21:27:37.899936 25444 net.cpp:380] loss1/relu_conv <- loss1/conv
I1214 21:27:37.899945 25444 net.cpp:327] loss1/relu_conv -> loss1/conv (in-place)
I1214 21:27:37.899955 25444 net.cpp:113] Setting up loss1/relu_conv
I1214 21:27:37.900043 25444 net.cpp:120] Top shape: 32 128 4 4 (65536)
I1214 21:27:37.900061 25444 layer_factory.hpp:74] Creating layer loss1/fc
I1214 21:27:37.900074 25444 net.cpp:84] Creating Layer loss1/fc
I1214 21:27:37.900081 25444 net.cpp:380] loss1/fc <- loss1/conv
I1214 21:27:37.900091 25444 net.cpp:338] loss1/fc -> loss1/fc
I1214 21:27:37.900104 25444 net.cpp:113] Setting up loss1/fc
I1214 21:27:37.920408 25444 net.cpp:120] Top shape: 32 1024 (32768)
I1214 21:27:37.920442 25444 layer_factory.hpp:74] Creating layer loss1/relu_fc
I1214 21:27:37.920454 25444 net.cpp:84] Creating Layer loss1/relu_fc
I1214 21:27:37.920461 25444 net.cpp:380] loss1/relu_fc <- loss1/fc
I1214 21:27:37.920475 25444 net.cpp:327] loss1/relu_fc -> loss1/fc (in-place)
I1214 21:27:37.920485 25444 net.cpp:113] Setting up loss1/relu_fc
I1214 21:27:37.920830 25444 net.cpp:120] Top shape: 32 1024 (32768)
I1214 21:27:37.920845 25444 layer_factory.hpp:74] Creating layer loss1/drop_fc
I1214 21:27:37.920878 25444 net.cpp:84] Creating Layer loss1/drop_fc
I1214 21:27:37.920888 25444 net.cpp:380] loss1/drop_fc <- loss1/fc
I1214 21:27:37.920897 25444 net.cpp:327] loss1/drop_fc -> loss1/fc (in-place)
I1214 21:27:37.920910 25444 net.cpp:113] Setting up loss1/drop_fc
I1214 21:27:37.920923 25444 net.cpp:120] Top shape: 32 1024 (32768)
I1214 21:27:37.920931 25444 layer_factory.hpp:74] Creating layer loss1/classifier_kaggle
I1214 21:27:37.920948 25444 net.cpp:84] Creating Layer loss1/classifier_kaggle
I1214 21:27:37.920955 25444 net.cpp:380] loss1/classifier_kaggle <- loss1/fc
I1214 21:27:37.920965 25444 net.cpp:338] loss1/classifier_kaggle -> loss1/classifier_kaggle
I1214 21:27:37.920977 25444 net.cpp:113] Setting up loss1/classifier_kaggle
I1214 21:27:37.925917 25444 net.cpp:120] Top shape: 32 447 (14304)
I1214 21:27:37.925936 25444 layer_factory.hpp:74] Creating layer loss1/loss
I1214 21:27:37.925957 25444 net.cpp:84] Creating Layer loss1/loss
I1214 21:27:37.925963 25444 net.cpp:380] loss1/loss <- loss1/classifier_kaggle
I1214 21:27:37.925969 25444 net.cpp:380] loss1/loss <- label_data_1_split_0
I1214 21:27:37.925977 25444 net.cpp:338] loss1/loss -> loss1/loss1
I1214 21:27:37.925986 25444 net.cpp:113] Setting up loss1/loss
I1214 21:27:37.925993 25444 layer_factory.hpp:74] Creating layer loss1/loss
I1214 21:27:37.926153 25444 net.cpp:120] Top shape: (1)
I1214 21:27:37.926163 25444 net.cpp:122]     with loss weight 0.3
I1214 21:27:37.926184 25444 layer_factory.hpp:74] Creating layer inception_4b/1x1
I1214 21:27:37.926211 25444 net.cpp:84] Creating Layer inception_4b/1x1
I1214 21:27:37.926216 25444 net.cpp:380] inception_4b/1x1 <- inception_4a/output_inception_4a/output_0_split_1
I1214 21:27:37.926224 25444 net.cpp:338] inception_4b/1x1 -> inception_4b/1x1
I1214 21:27:37.926236 25444 net.cpp:113] Setting up inception_4b/1x1
I1214 21:27:37.927604 25444 net.cpp:120] Top shape: 32 160 14 14 (1003520)
I1214 21:27:37.927621 25444 layer_factory.hpp:74] Creating layer inception_4b/relu_1x1
I1214 21:27:37.927636 25444 net.cpp:84] Creating Layer inception_4b/relu_1x1
I1214 21:27:37.927644 25444 net.cpp:380] inception_4b/relu_1x1 <- inception_4b/1x1
I1214 21:27:37.927655 25444 net.cpp:327] inception_4b/relu_1x1 -> inception_4b/1x1 (in-place)
I1214 21:27:37.927666 25444 net.cpp:113] Setting up inception_4b/relu_1x1
I1214 21:27:37.927757 25444 net.cpp:120] Top shape: 32 160 14 14 (1003520)
I1214 21:27:37.927767 25444 layer_factory.hpp:74] Creating layer inception_4b/3x3_reduce
I1214 21:27:37.927779 25444 net.cpp:84] Creating Layer inception_4b/3x3_reduce
I1214 21:27:37.927786 25444 net.cpp:380] inception_4b/3x3_reduce <- inception_4a/output_inception_4a/output_0_split_2
I1214 21:27:37.927806 25444 net.cpp:338] inception_4b/3x3_reduce -> inception_4b/3x3_reduce
I1214 21:27:37.927824 25444 net.cpp:113] Setting up inception_4b/3x3_reduce
I1214 21:27:37.928912 25444 net.cpp:120] Top shape: 32 112 14 14 (702464)
I1214 21:27:37.928930 25444 layer_factory.hpp:74] Creating layer inception_4b/relu_3x3_reduce
I1214 21:27:37.928942 25444 net.cpp:84] Creating Layer inception_4b/relu_3x3_reduce
I1214 21:27:37.928951 25444 net.cpp:380] inception_4b/relu_3x3_reduce <- inception_4b/3x3_reduce
I1214 21:27:37.928958 25444 net.cpp:327] inception_4b/relu_3x3_reduce -> inception_4b/3x3_reduce (in-place)
I1214 21:27:37.928967 25444 net.cpp:113] Setting up inception_4b/relu_3x3_reduce
I1214 21:27:37.929062 25444 net.cpp:120] Top shape: 32 112 14 14 (702464)
I1214 21:27:37.929083 25444 layer_factory.hpp:74] Creating layer inception_4b/3x3
I1214 21:27:37.929106 25444 net.cpp:84] Creating Layer inception_4b/3x3
I1214 21:27:37.929114 25444 net.cpp:380] inception_4b/3x3 <- inception_4b/3x3_reduce
I1214 21:27:37.929127 25444 net.cpp:338] inception_4b/3x3 -> inception_4b/3x3
I1214 21:27:37.929136 25444 net.cpp:113] Setting up inception_4b/3x3
I1214 21:27:37.932055 25444 net.cpp:120] Top shape: 32 224 14 14 (1404928)
I1214 21:27:37.932075 25444 layer_factory.hpp:74] Creating layer inception_4b/relu_3x3
I1214 21:27:37.932085 25444 net.cpp:84] Creating Layer inception_4b/relu_3x3
I1214 21:27:37.932092 25444 net.cpp:380] inception_4b/relu_3x3 <- inception_4b/3x3
I1214 21:27:37.932101 25444 net.cpp:327] inception_4b/relu_3x3 -> inception_4b/3x3 (in-place)
I1214 21:27:37.932107 25444 net.cpp:113] Setting up inception_4b/relu_3x3
I1214 21:27:37.932385 25444 net.cpp:120] Top shape: 32 224 14 14 (1404928)
I1214 21:27:37.932399 25444 layer_factory.hpp:74] Creating layer inception_4b/5x5_reduce
I1214 21:27:37.932410 25444 net.cpp:84] Creating Layer inception_4b/5x5_reduce
I1214 21:27:37.932417 25444 net.cpp:380] inception_4b/5x5_reduce <- inception_4a/output_inception_4a/output_0_split_3
I1214 21:27:37.932432 25444 net.cpp:338] inception_4b/5x5_reduce -> inception_4b/5x5_reduce
I1214 21:27:37.932445 25444 net.cpp:113] Setting up inception_4b/5x5_reduce
I1214 21:27:37.933073 25444 net.cpp:120] Top shape: 32 24 14 14 (150528)
I1214 21:27:37.933092 25444 layer_factory.hpp:74] Creating layer inception_4b/relu_5x5_reduce
I1214 21:27:37.933111 25444 net.cpp:84] Creating Layer inception_4b/relu_5x5_reduce
I1214 21:27:37.933116 25444 net.cpp:380] inception_4b/relu_5x5_reduce <- inception_4b/5x5_reduce
I1214 21:27:37.933125 25444 net.cpp:327] inception_4b/relu_5x5_reduce -> inception_4b/5x5_reduce (in-place)
I1214 21:27:37.933135 25444 net.cpp:113] Setting up inception_4b/relu_5x5_reduce
I1214 21:27:37.933228 25444 net.cpp:120] Top shape: 32 24 14 14 (150528)
I1214 21:27:37.933245 25444 layer_factory.hpp:74] Creating layer inception_4b/5x5
I1214 21:27:37.933257 25444 net.cpp:84] Creating Layer inception_4b/5x5
I1214 21:27:37.933264 25444 net.cpp:380] inception_4b/5x5 <- inception_4b/5x5_reduce
I1214 21:27:37.933276 25444 net.cpp:338] inception_4b/5x5 -> inception_4b/5x5
I1214 21:27:37.933289 25444 net.cpp:113] Setting up inception_4b/5x5
I1214 21:27:37.934197 25444 net.cpp:120] Top shape: 32 64 14 14 (401408)
I1214 21:27:37.934212 25444 layer_factory.hpp:74] Creating layer inception_4b/relu_5x5
I1214 21:27:37.934221 25444 net.cpp:84] Creating Layer inception_4b/relu_5x5
I1214 21:27:37.934226 25444 net.cpp:380] inception_4b/relu_5x5 <- inception_4b/5x5
I1214 21:27:37.934231 25444 net.cpp:327] inception_4b/relu_5x5 -> inception_4b/5x5 (in-place)
I1214 21:27:37.934238 25444 net.cpp:113] Setting up inception_4b/relu_5x5
I1214 21:27:37.934321 25444 net.cpp:120] Top shape: 32 64 14 14 (401408)
I1214 21:27:37.934334 25444 layer_factory.hpp:74] Creating layer inception_4b/pool
I1214 21:27:37.934342 25444 layer_factory.cpp:56] CUDNN does not support padding or multiple tops. Using Caffe's own pooling layer.
I1214 21:27:37.934351 25444 net.cpp:84] Creating Layer inception_4b/pool
I1214 21:27:37.934358 25444 net.cpp:380] inception_4b/pool <- inception_4a/output_inception_4a/output_0_split_4
I1214 21:27:37.934394 25444 net.cpp:338] inception_4b/pool -> inception_4b/pool
I1214 21:27:37.934417 25444 net.cpp:113] Setting up inception_4b/pool
I1214 21:27:37.934427 25444 net.cpp:120] Top shape: 32 512 14 14 (3211264)
I1214 21:27:37.934430 25444 layer_factory.hpp:74] Creating layer inception_4b/pool_proj
I1214 21:27:37.934445 25444 net.cpp:84] Creating Layer inception_4b/pool_proj
I1214 21:27:37.934449 25444 net.cpp:380] inception_4b/pool_proj <- inception_4b/pool
I1214 21:27:37.934456 25444 net.cpp:338] inception_4b/pool_proj -> inception_4b/pool_proj
I1214 21:27:37.934463 25444 net.cpp:113] Setting up inception_4b/pool_proj
I1214 21:27:37.935279 25444 net.cpp:120] Top shape: 32 64 14 14 (401408)
I1214 21:27:37.935298 25444 layer_factory.hpp:74] Creating layer inception_4b/relu_pool_proj
I1214 21:27:37.935310 25444 net.cpp:84] Creating Layer inception_4b/relu_pool_proj
I1214 21:27:37.935318 25444 net.cpp:380] inception_4b/relu_pool_proj <- inception_4b/pool_proj
I1214 21:27:37.935328 25444 net.cpp:327] inception_4b/relu_pool_proj -> inception_4b/pool_proj (in-place)
I1214 21:27:37.935338 25444 net.cpp:113] Setting up inception_4b/relu_pool_proj
I1214 21:27:37.935617 25444 net.cpp:120] Top shape: 32 64 14 14 (401408)
I1214 21:27:37.935639 25444 layer_factory.hpp:74] Creating layer inception_4b/output
I1214 21:27:37.935652 25444 net.cpp:84] Creating Layer inception_4b/output
I1214 21:27:37.935657 25444 net.cpp:380] inception_4b/output <- inception_4b/1x1
I1214 21:27:37.935667 25444 net.cpp:380] inception_4b/output <- inception_4b/3x3
I1214 21:27:37.935673 25444 net.cpp:380] inception_4b/output <- inception_4b/5x5
I1214 21:27:37.935680 25444 net.cpp:380] inception_4b/output <- inception_4b/pool_proj
I1214 21:27:37.935688 25444 net.cpp:338] inception_4b/output -> inception_4b/output
I1214 21:27:37.935699 25444 net.cpp:113] Setting up inception_4b/output
I1214 21:27:37.935710 25444 net.cpp:120] Top shape: 32 512 14 14 (3211264)
I1214 21:27:37.935717 25444 layer_factory.hpp:74] Creating layer inception_4b/output_inception_4b/output_0_split
I1214 21:27:37.935729 25444 net.cpp:84] Creating Layer inception_4b/output_inception_4b/output_0_split
I1214 21:27:37.935735 25444 net.cpp:380] inception_4b/output_inception_4b/output_0_split <- inception_4b/output
I1214 21:27:37.935745 25444 net.cpp:338] inception_4b/output_inception_4b/output_0_split -> inception_4b/output_inception_4b/output_0_split_0
I1214 21:27:37.935755 25444 net.cpp:338] inception_4b/output_inception_4b/output_0_split -> inception_4b/output_inception_4b/output_0_split_1
I1214 21:27:37.935765 25444 net.cpp:338] inception_4b/output_inception_4b/output_0_split -> inception_4b/output_inception_4b/output_0_split_2
I1214 21:27:37.935776 25444 net.cpp:338] inception_4b/output_inception_4b/output_0_split -> inception_4b/output_inception_4b/output_0_split_3
I1214 21:27:37.935786 25444 net.cpp:113] Setting up inception_4b/output_inception_4b/output_0_split
I1214 21:27:37.935796 25444 net.cpp:120] Top shape: 32 512 14 14 (3211264)
I1214 21:27:37.935803 25444 net.cpp:120] Top shape: 32 512 14 14 (3211264)
I1214 21:27:37.935811 25444 net.cpp:120] Top shape: 32 512 14 14 (3211264)
I1214 21:27:37.935818 25444 net.cpp:120] Top shape: 32 512 14 14 (3211264)
I1214 21:27:37.935822 25444 layer_factory.hpp:74] Creating layer inception_4c/1x1
I1214 21:27:37.935839 25444 net.cpp:84] Creating Layer inception_4c/1x1
I1214 21:27:37.935847 25444 net.cpp:380] inception_4c/1x1 <- inception_4b/output_inception_4b/output_0_split_0
I1214 21:27:37.935858 25444 net.cpp:338] inception_4c/1x1 -> inception_4c/1x1
I1214 21:27:37.935869 25444 net.cpp:113] Setting up inception_4c/1x1
I1214 21:27:37.937022 25444 net.cpp:120] Top shape: 32 128 14 14 (802816)
I1214 21:27:37.937041 25444 layer_factory.hpp:74] Creating layer inception_4c/relu_1x1
I1214 21:27:37.937059 25444 net.cpp:84] Creating Layer inception_4c/relu_1x1
I1214 21:27:37.937070 25444 net.cpp:380] inception_4c/relu_1x1 <- inception_4c/1x1
I1214 21:27:37.937093 25444 net.cpp:327] inception_4c/relu_1x1 -> inception_4c/1x1 (in-place)
I1214 21:27:37.937111 25444 net.cpp:113] Setting up inception_4c/relu_1x1
I1214 21:27:37.937193 25444 net.cpp:120] Top shape: 32 128 14 14 (802816)
I1214 21:27:37.937211 25444 layer_factory.hpp:74] Creating layer inception_4c/3x3_reduce
I1214 21:27:37.937227 25444 net.cpp:84] Creating Layer inception_4c/3x3_reduce
I1214 21:27:37.937232 25444 net.cpp:380] inception_4c/3x3_reduce <- inception_4b/output_inception_4b/output_0_split_1
I1214 21:27:37.937245 25444 net.cpp:338] inception_4c/3x3_reduce -> inception_4c/3x3_reduce
I1214 21:27:37.937258 25444 net.cpp:113] Setting up inception_4c/3x3_reduce
I1214 21:27:37.938418 25444 net.cpp:120] Top shape: 32 128 14 14 (802816)
I1214 21:27:37.938436 25444 layer_factory.hpp:74] Creating layer inception_4c/relu_3x3_reduce
I1214 21:27:37.938458 25444 net.cpp:84] Creating Layer inception_4c/relu_3x3_reduce
I1214 21:27:37.938467 25444 net.cpp:380] inception_4c/relu_3x3_reduce <- inception_4c/3x3_reduce
I1214 21:27:37.938475 25444 net.cpp:327] inception_4c/relu_3x3_reduce -> inception_4c/3x3_reduce (in-place)
I1214 21:27:37.938485 25444 net.cpp:113] Setting up inception_4c/relu_3x3_reduce
I1214 21:27:37.938572 25444 net.cpp:120] Top shape: 32 128 14 14 (802816)
I1214 21:27:37.938581 25444 layer_factory.hpp:74] Creating layer inception_4c/3x3
I1214 21:27:37.938588 25444 net.cpp:84] Creating Layer inception_4c/3x3
I1214 21:27:37.938593 25444 net.cpp:380] inception_4c/3x3 <- inception_4c/3x3_reduce
I1214 21:27:37.938599 25444 net.cpp:338] inception_4c/3x3 -> inception_4c/3x3
I1214 21:27:37.938609 25444 net.cpp:113] Setting up inception_4c/3x3
I1214 21:27:37.942203 25444 net.cpp:120] Top shape: 32 256 14 14 (1605632)
I1214 21:27:37.942234 25444 layer_factory.hpp:74] Creating layer inception_4c/relu_3x3
I1214 21:27:37.942247 25444 net.cpp:84] Creating Layer inception_4c/relu_3x3
I1214 21:27:37.942255 25444 net.cpp:380] inception_4c/relu_3x3 <- inception_4c/3x3
I1214 21:27:37.942265 25444 net.cpp:327] inception_4c/relu_3x3 -> inception_4c/3x3 (in-place)
I1214 21:27:37.942276 25444 net.cpp:113] Setting up inception_4c/relu_3x3
I1214 21:27:37.942373 25444 net.cpp:120] Top shape: 32 256 14 14 (1605632)
I1214 21:27:37.942384 25444 layer_factory.hpp:74] Creating layer inception_4c/5x5_reduce
I1214 21:27:37.942404 25444 net.cpp:84] Creating Layer inception_4c/5x5_reduce
I1214 21:27:37.942410 25444 net.cpp:380] inception_4c/5x5_reduce <- inception_4b/output_inception_4b/output_0_split_2
I1214 21:27:37.942420 25444 net.cpp:338] inception_4c/5x5_reduce -> inception_4c/5x5_reduce
I1214 21:27:37.942426 25444 net.cpp:113] Setting up inception_4c/5x5_reduce
I1214 21:27:37.943019 25444 net.cpp:120] Top shape: 32 24 14 14 (150528)
I1214 21:27:37.943038 25444 layer_factory.hpp:74] Creating layer inception_4c/relu_5x5_reduce
I1214 21:27:37.943058 25444 net.cpp:84] Creating Layer inception_4c/relu_5x5_reduce
I1214 21:27:37.943066 25444 net.cpp:380] inception_4c/relu_5x5_reduce <- inception_4c/5x5_reduce
I1214 21:27:37.943075 25444 net.cpp:327] inception_4c/relu_5x5_reduce -> inception_4c/5x5_reduce (in-place)
I1214 21:27:37.943085 25444 net.cpp:113] Setting up inception_4c/relu_5x5_reduce
I1214 21:27:37.943366 25444 net.cpp:120] Top shape: 32 24 14 14 (150528)
I1214 21:27:37.943377 25444 layer_factory.hpp:74] Creating layer inception_4c/5x5
I1214 21:27:37.943388 25444 net.cpp:84] Creating Layer inception_4c/5x5
I1214 21:27:37.943397 25444 net.cpp:380] inception_4c/5x5 <- inception_4c/5x5_reduce
I1214 21:27:37.943408 25444 net.cpp:338] inception_4c/5x5 -> inception_4c/5x5
I1214 21:27:37.943420 25444 net.cpp:113] Setting up inception_4c/5x5
I1214 21:27:37.944286 25444 net.cpp:120] Top shape: 32 64 14 14 (401408)
I1214 21:27:37.944304 25444 layer_factory.hpp:74] Creating layer inception_4c/relu_5x5
I1214 21:27:37.944321 25444 net.cpp:84] Creating Layer inception_4c/relu_5x5
I1214 21:27:37.944329 25444 net.cpp:380] inception_4c/relu_5x5 <- inception_4c/5x5
I1214 21:27:37.944339 25444 net.cpp:327] inception_4c/relu_5x5 -> inception_4c/5x5 (in-place)
I1214 21:27:37.944355 25444 net.cpp:113] Setting up inception_4c/relu_5x5
I1214 21:27:37.944442 25444 net.cpp:120] Top shape: 32 64 14 14 (401408)
I1214 21:27:37.944449 25444 layer_factory.hpp:74] Creating layer inception_4c/pool
I1214 21:27:37.944454 25444 layer_factory.cpp:56] CUDNN does not support padding or multiple tops. Using Caffe's own pooling layer.
I1214 21:27:37.944466 25444 net.cpp:84] Creating Layer inception_4c/pool
I1214 21:27:37.944474 25444 net.cpp:380] inception_4c/pool <- inception_4b/output_inception_4b/output_0_split_3
I1214 21:27:37.944483 25444 net.cpp:338] inception_4c/pool -> inception_4c/pool
I1214 21:27:37.944494 25444 net.cpp:113] Setting up inception_4c/pool
I1214 21:27:37.944505 25444 net.cpp:120] Top shape: 32 512 14 14 (3211264)
I1214 21:27:37.944522 25444 layer_factory.hpp:74] Creating layer inception_4c/pool_proj
I1214 21:27:37.944533 25444 net.cpp:84] Creating Layer inception_4c/pool_proj
I1214 21:27:37.944540 25444 net.cpp:380] inception_4c/pool_proj <- inception_4c/pool
I1214 21:27:37.944555 25444 net.cpp:338] inception_4c/pool_proj -> inception_4c/pool_proj
I1214 21:27:37.944566 25444 net.cpp:113] Setting up inception_4c/pool_proj
I1214 21:27:37.945400 25444 net.cpp:120] Top shape: 32 64 14 14 (401408)
I1214 21:27:37.945420 25444 layer_factory.hpp:74] Creating layer inception_4c/relu_pool_proj
I1214 21:27:37.945430 25444 net.cpp:84] Creating Layer inception_4c/relu_pool_proj
I1214 21:27:37.945438 25444 net.cpp:380] inception_4c/relu_pool_proj <- inception_4c/pool_proj
I1214 21:27:37.945451 25444 net.cpp:327] inception_4c/relu_pool_proj -> inception_4c/pool_proj (in-place)
I1214 21:27:37.945461 25444 net.cpp:113] Setting up inception_4c/relu_pool_proj
I1214 21:27:37.945544 25444 net.cpp:120] Top shape: 32 64 14 14 (401408)
I1214 21:27:37.945554 25444 layer_factory.hpp:74] Creating layer inception_4c/output
I1214 21:27:37.945564 25444 net.cpp:84] Creating Layer inception_4c/output
I1214 21:27:37.945570 25444 net.cpp:380] inception_4c/output <- inception_4c/1x1
I1214 21:27:37.945579 25444 net.cpp:380] inception_4c/output <- inception_4c/3x3
I1214 21:27:37.945585 25444 net.cpp:380] inception_4c/output <- inception_4c/5x5
I1214 21:27:37.945592 25444 net.cpp:380] inception_4c/output <- inception_4c/pool_proj
I1214 21:27:37.945601 25444 net.cpp:338] inception_4c/output -> inception_4c/output
I1214 21:27:37.945608 25444 net.cpp:113] Setting up inception_4c/output
I1214 21:27:37.945616 25444 net.cpp:120] Top shape: 32 512 14 14 (3211264)
I1214 21:27:37.945623 25444 layer_factory.hpp:74] Creating layer inception_4c/output_inception_4c/output_0_split
I1214 21:27:37.945632 25444 net.cpp:84] Creating Layer inception_4c/output_inception_4c/output_0_split
I1214 21:27:37.945638 25444 net.cpp:380] inception_4c/output_inception_4c/output_0_split <- inception_4c/output
I1214 21:27:37.945649 25444 net.cpp:338] inception_4c/output_inception_4c/output_0_split -> inception_4c/output_inception_4c/output_0_split_0
I1214 21:27:37.945660 25444 net.cpp:338] inception_4c/output_inception_4c/output_0_split -> inception_4c/output_inception_4c/output_0_split_1
I1214 21:27:37.945670 25444 net.cpp:338] inception_4c/output_inception_4c/output_0_split -> inception_4c/output_inception_4c/output_0_split_2
I1214 21:27:37.945680 25444 net.cpp:338] inception_4c/output_inception_4c/output_0_split -> inception_4c/output_inception_4c/output_0_split_3
I1214 21:27:37.945689 25444 net.cpp:113] Setting up inception_4c/output_inception_4c/output_0_split
I1214 21:27:37.945703 25444 net.cpp:120] Top shape: 32 512 14 14 (3211264)
I1214 21:27:37.945710 25444 net.cpp:120] Top shape: 32 512 14 14 (3211264)
I1214 21:27:37.945718 25444 net.cpp:120] Top shape: 32 512 14 14 (3211264)
I1214 21:27:37.945725 25444 net.cpp:120] Top shape: 32 512 14 14 (3211264)
I1214 21:27:37.945739 25444 layer_factory.hpp:74] Creating layer inception_4d/1x1
I1214 21:27:37.945758 25444 net.cpp:84] Creating Layer inception_4d/1x1
I1214 21:27:37.945766 25444 net.cpp:380] inception_4d/1x1 <- inception_4c/output_inception_4c/output_0_split_0
I1214 21:27:37.945782 25444 net.cpp:338] inception_4d/1x1 -> inception_4d/1x1
I1214 21:27:37.945801 25444 net.cpp:113] Setting up inception_4d/1x1
I1214 21:27:37.946898 25444 net.cpp:120] Top shape: 32 112 14 14 (702464)
I1214 21:27:37.946918 25444 layer_factory.hpp:74] Creating layer inception_4d/relu_1x1
I1214 21:27:37.946928 25444 net.cpp:84] Creating Layer inception_4d/relu_1x1
I1214 21:27:37.946934 25444 net.cpp:380] inception_4d/relu_1x1 <- inception_4d/1x1
I1214 21:27:37.946943 25444 net.cpp:327] inception_4d/relu_1x1 -> inception_4d/1x1 (in-place)
I1214 21:27:37.946954 25444 net.cpp:113] Setting up inception_4d/relu_1x1
I1214 21:27:37.947026 25444 net.cpp:120] Top shape: 32 112 14 14 (702464)
I1214 21:27:37.947036 25444 layer_factory.hpp:74] Creating layer inception_4d/3x3_reduce
I1214 21:27:37.947043 25444 net.cpp:84] Creating Layer inception_4d/3x3_reduce
I1214 21:27:37.947047 25444 net.cpp:380] inception_4d/3x3_reduce <- inception_4c/output_inception_4c/output_0_split_1
I1214 21:27:37.947057 25444 net.cpp:338] inception_4d/3x3_reduce -> inception_4d/3x3_reduce
I1214 21:27:37.947064 25444 net.cpp:113] Setting up inception_4d/3x3_reduce
I1214 21:27:37.948317 25444 net.cpp:120] Top shape: 32 144 14 14 (903168)
I1214 21:27:37.948335 25444 layer_factory.hpp:74] Creating layer inception_4d/relu_3x3_reduce
I1214 21:27:37.948355 25444 net.cpp:84] Creating Layer inception_4d/relu_3x3_reduce
I1214 21:27:37.948365 25444 net.cpp:380] inception_4d/relu_3x3_reduce <- inception_4d/3x3_reduce
I1214 21:27:37.948374 25444 net.cpp:327] inception_4d/relu_3x3_reduce -> inception_4d/3x3_reduce (in-place)
I1214 21:27:37.948385 25444 net.cpp:113] Setting up inception_4d/relu_3x3_reduce
I1214 21:27:37.948662 25444 net.cpp:120] Top shape: 32 144 14 14 (903168)
I1214 21:27:37.948676 25444 layer_factory.hpp:74] Creating layer inception_4d/3x3
I1214 21:27:37.948694 25444 net.cpp:84] Creating Layer inception_4d/3x3
I1214 21:27:37.948703 25444 net.cpp:380] inception_4d/3x3 <- inception_4d/3x3_reduce
I1214 21:27:37.948716 25444 net.cpp:338] inception_4d/3x3 -> inception_4d/3x3
I1214 21:27:37.948729 25444 net.cpp:113] Setting up inception_4d/3x3
I1214 21:27:37.953200 25444 net.cpp:120] Top shape: 32 288 14 14 (1806336)
I1214 21:27:37.953220 25444 layer_factory.hpp:74] Creating layer inception_4d/relu_3x3
I1214 21:27:37.953233 25444 net.cpp:84] Creating Layer inception_4d/relu_3x3
I1214 21:27:37.953239 25444 net.cpp:380] inception_4d/relu_3x3 <- inception_4d/3x3
I1214 21:27:37.953249 25444 net.cpp:327] inception_4d/relu_3x3 -> inception_4d/3x3 (in-place)
I1214 21:27:37.953260 25444 net.cpp:113] Setting up inception_4d/relu_3x3
I1214 21:27:37.953348 25444 net.cpp:120] Top shape: 32 288 14 14 (1806336)
I1214 21:27:37.953358 25444 layer_factory.hpp:74] Creating layer inception_4d/5x5_reduce
I1214 21:27:37.953379 25444 net.cpp:84] Creating Layer inception_4d/5x5_reduce
I1214 21:27:37.953390 25444 net.cpp:380] inception_4d/5x5_reduce <- inception_4c/output_inception_4c/output_0_split_2
I1214 21:27:37.953402 25444 net.cpp:338] inception_4d/5x5_reduce -> inception_4d/5x5_reduce
I1214 21:27:37.953413 25444 net.cpp:113] Setting up inception_4d/5x5_reduce
I1214 21:27:37.954069 25444 net.cpp:120] Top shape: 32 32 14 14 (200704)
I1214 21:27:37.954087 25444 layer_factory.hpp:74] Creating layer inception_4d/relu_5x5_reduce
I1214 21:27:37.954098 25444 net.cpp:84] Creating Layer inception_4d/relu_5x5_reduce
I1214 21:27:37.954105 25444 net.cpp:380] inception_4d/relu_5x5_reduce <- inception_4d/5x5_reduce
I1214 21:27:37.954116 25444 net.cpp:327] inception_4d/relu_5x5_reduce -> inception_4d/5x5_reduce (in-place)
I1214 21:27:37.954128 25444 net.cpp:113] Setting up inception_4d/relu_5x5_reduce
I1214 21:27:37.954215 25444 net.cpp:120] Top shape: 32 32 14 14 (200704)
I1214 21:27:37.954221 25444 layer_factory.hpp:74] Creating layer inception_4d/5x5
I1214 21:27:37.954229 25444 net.cpp:84] Creating Layer inception_4d/5x5
I1214 21:27:37.954234 25444 net.cpp:380] inception_4d/5x5 <- inception_4d/5x5_reduce
I1214 21:27:37.954244 25444 net.cpp:338] inception_4d/5x5 -> inception_4d/5x5
I1214 21:27:37.954262 25444 net.cpp:113] Setting up inception_4d/5x5
I1214 21:27:37.955286 25444 net.cpp:120] Top shape: 32 64 14 14 (401408)
I1214 21:27:37.955306 25444 layer_factory.hpp:74] Creating layer inception_4d/relu_5x5
I1214 21:27:37.955330 25444 net.cpp:84] Creating Layer inception_4d/relu_5x5
I1214 21:27:37.955339 25444 net.cpp:380] inception_4d/relu_5x5 <- inception_4d/5x5
I1214 21:27:37.955351 25444 net.cpp:327] inception_4d/relu_5x5 -> inception_4d/5x5 (in-place)
I1214 21:27:37.955361 25444 net.cpp:113] Setting up inception_4d/relu_5x5
I1214 21:27:37.955438 25444 net.cpp:120] Top shape: 32 64 14 14 (401408)
I1214 21:27:37.955449 25444 layer_factory.hpp:74] Creating layer inception_4d/pool
I1214 21:27:37.955456 25444 layer_factory.cpp:56] CUDNN does not support padding or multiple tops. Using Caffe's own pooling layer.
I1214 21:27:37.955466 25444 net.cpp:84] Creating Layer inception_4d/pool
I1214 21:27:37.955473 25444 net.cpp:380] inception_4d/pool <- inception_4c/output_inception_4c/output_0_split_3
I1214 21:27:37.955483 25444 net.cpp:338] inception_4d/pool -> inception_4d/pool
I1214 21:27:37.955493 25444 net.cpp:113] Setting up inception_4d/pool
I1214 21:27:37.955508 25444 net.cpp:120] Top shape: 32 512 14 14 (3211264)
I1214 21:27:37.955515 25444 layer_factory.hpp:74] Creating layer inception_4d/pool_proj
I1214 21:27:37.955526 25444 net.cpp:84] Creating Layer inception_4d/pool_proj
I1214 21:27:37.955533 25444 net.cpp:380] inception_4d/pool_proj <- inception_4d/pool
I1214 21:27:37.955541 25444 net.cpp:338] inception_4d/pool_proj -> inception_4d/pool_proj
I1214 21:27:37.955551 25444 net.cpp:113] Setting up inception_4d/pool_proj
I1214 21:27:37.956408 25444 net.cpp:120] Top shape: 32 64 14 14 (401408)
I1214 21:27:37.956426 25444 layer_factory.hpp:74] Creating layer inception_4d/relu_pool_proj
I1214 21:27:37.956441 25444 net.cpp:84] Creating Layer inception_4d/relu_pool_proj
I1214 21:27:37.956449 25444 net.cpp:380] inception_4d/relu_pool_proj <- inception_4d/pool_proj
I1214 21:27:37.956454 25444 net.cpp:327] inception_4d/relu_pool_proj -> inception_4d/pool_proj (in-place)
I1214 21:27:37.956461 25444 net.cpp:113] Setting up inception_4d/relu_pool_proj
I1214 21:27:37.956725 25444 net.cpp:120] Top shape: 32 64 14 14 (401408)
I1214 21:27:37.956739 25444 layer_factory.hpp:74] Creating layer inception_4d/output
I1214 21:27:37.956759 25444 net.cpp:84] Creating Layer inception_4d/output
I1214 21:27:37.956766 25444 net.cpp:380] inception_4d/output <- inception_4d/1x1
I1214 21:27:37.956775 25444 net.cpp:380] inception_4d/output <- inception_4d/3x3
I1214 21:27:37.956782 25444 net.cpp:380] inception_4d/output <- inception_4d/5x5
I1214 21:27:37.956789 25444 net.cpp:380] inception_4d/output <- inception_4d/pool_proj
I1214 21:27:37.956800 25444 net.cpp:338] inception_4d/output -> inception_4d/output
I1214 21:27:37.956811 25444 net.cpp:113] Setting up inception_4d/output
I1214 21:27:37.956822 25444 net.cpp:120] Top shape: 32 528 14 14 (3311616)
I1214 21:27:37.956836 25444 layer_factory.hpp:74] Creating layer inception_4d/output_inception_4d/output_0_split
I1214 21:27:37.956845 25444 net.cpp:84] Creating Layer inception_4d/output_inception_4d/output_0_split
I1214 21:27:37.956852 25444 net.cpp:380] inception_4d/output_inception_4d/output_0_split <- inception_4d/output
I1214 21:27:37.956861 25444 net.cpp:338] inception_4d/output_inception_4d/output_0_split -> inception_4d/output_inception_4d/output_0_split_0
I1214 21:27:37.956876 25444 net.cpp:338] inception_4d/output_inception_4d/output_0_split -> inception_4d/output_inception_4d/output_0_split_1
I1214 21:27:37.956887 25444 net.cpp:338] inception_4d/output_inception_4d/output_0_split -> inception_4d/output_inception_4d/output_0_split_2
I1214 21:27:37.956897 25444 net.cpp:338] inception_4d/output_inception_4d/output_0_split -> inception_4d/output_inception_4d/output_0_split_3
I1214 21:27:37.956907 25444 net.cpp:338] inception_4d/output_inception_4d/output_0_split -> inception_4d/output_inception_4d/output_0_split_4
I1214 21:27:37.956915 25444 net.cpp:113] Setting up inception_4d/output_inception_4d/output_0_split
I1214 21:27:37.956929 25444 net.cpp:120] Top shape: 32 528 14 14 (3311616)
I1214 21:27:37.956939 25444 net.cpp:120] Top shape: 32 528 14 14 (3311616)
I1214 21:27:37.956943 25444 net.cpp:120] Top shape: 32 528 14 14 (3311616)
I1214 21:27:37.956949 25444 net.cpp:120] Top shape: 32 528 14 14 (3311616)
I1214 21:27:37.956957 25444 net.cpp:120] Top shape: 32 528 14 14 (3311616)
I1214 21:27:37.956964 25444 layer_factory.hpp:74] Creating layer loss2/ave_pool
I1214 21:27:37.956972 25444 net.cpp:84] Creating Layer loss2/ave_pool
I1214 21:27:37.956979 25444 net.cpp:380] loss2/ave_pool <- inception_4d/output_inception_4d/output_0_split_0
I1214 21:27:37.956990 25444 net.cpp:338] loss2/ave_pool -> loss2/ave_pool
I1214 21:27:37.957001 25444 net.cpp:113] Setting up loss2/ave_pool
I1214 21:27:37.957104 25444 net.cpp:120] Top shape: 32 528 4 4 (270336)
I1214 21:27:37.957116 25444 layer_factory.hpp:74] Creating layer loss2/conv
I1214 21:27:37.957129 25444 net.cpp:84] Creating Layer loss2/conv
I1214 21:27:37.957136 25444 net.cpp:380] loss2/conv <- loss2/ave_pool
I1214 21:27:37.957146 25444 net.cpp:338] loss2/conv -> loss2/conv
I1214 21:27:37.957154 25444 net.cpp:113] Setting up loss2/conv
I1214 21:27:37.958351 25444 net.cpp:120] Top shape: 32 128 4 4 (65536)
I1214 21:27:37.958370 25444 layer_factory.hpp:74] Creating layer loss2/relu_conv
I1214 21:27:37.958380 25444 net.cpp:84] Creating Layer loss2/relu_conv
I1214 21:27:37.958386 25444 net.cpp:380] loss2/relu_conv <- loss2/conv
I1214 21:27:37.958391 25444 net.cpp:327] loss2/relu_conv -> loss2/conv (in-place)
I1214 21:27:37.958398 25444 net.cpp:113] Setting up loss2/relu_conv
I1214 21:27:37.958482 25444 net.cpp:120] Top shape: 32 128 4 4 (65536)
I1214 21:27:37.958500 25444 layer_factory.hpp:74] Creating layer loss2/fc
I1214 21:27:37.958518 25444 net.cpp:84] Creating Layer loss2/fc
I1214 21:27:37.958526 25444 net.cpp:380] loss2/fc <- loss2/conv
I1214 21:27:37.958539 25444 net.cpp:338] loss2/fc -> loss2/fc
I1214 21:27:37.958551 25444 net.cpp:113] Setting up loss2/fc
I1214 21:27:37.979379 25444 net.cpp:120] Top shape: 32 1024 (32768)
I1214 21:27:37.979401 25444 layer_factory.hpp:74] Creating layer loss2/relu_fc
I1214 21:27:37.979413 25444 net.cpp:84] Creating Layer loss2/relu_fc
I1214 21:27:37.979421 25444 net.cpp:380] loss2/relu_fc <- loss2/fc
I1214 21:27:37.979429 25444 net.cpp:327] loss2/relu_fc -> loss2/fc (in-place)
I1214 21:27:37.979434 25444 net.cpp:113] Setting up loss2/relu_fc
I1214 21:27:37.979727 25444 net.cpp:120] Top shape: 32 1024 (32768)
I1214 21:27:37.979742 25444 layer_factory.hpp:74] Creating layer loss2/drop_fc
I1214 21:27:37.979751 25444 net.cpp:84] Creating Layer loss2/drop_fc
I1214 21:27:37.979759 25444 net.cpp:380] loss2/drop_fc <- loss2/fc
I1214 21:27:37.979768 25444 net.cpp:327] loss2/drop_fc -> loss2/fc (in-place)
I1214 21:27:37.979779 25444 net.cpp:113] Setting up loss2/drop_fc
I1214 21:27:37.979789 25444 net.cpp:120] Top shape: 32 1024 (32768)
I1214 21:27:37.979794 25444 layer_factory.hpp:74] Creating layer loss2/classifier_kaggle
I1214 21:27:37.979814 25444 net.cpp:84] Creating Layer loss2/classifier_kaggle
I1214 21:27:37.979820 25444 net.cpp:380] loss2/classifier_kaggle <- loss2/fc
I1214 21:27:37.979831 25444 net.cpp:338] loss2/classifier_kaggle -> loss2/classifier_kaggle
I1214 21:27:37.979838 25444 net.cpp:113] Setting up loss2/classifier_kaggle
I1214 21:27:37.984727 25444 net.cpp:120] Top shape: 32 447 (14304)
I1214 21:27:37.984745 25444 layer_factory.hpp:74] Creating layer loss2/loss
I1214 21:27:37.984756 25444 net.cpp:84] Creating Layer loss2/loss
I1214 21:27:37.984766 25444 net.cpp:380] loss2/loss <- loss2/classifier_kaggle
I1214 21:27:37.984774 25444 net.cpp:380] loss2/loss <- label_data_1_split_1
I1214 21:27:37.984783 25444 net.cpp:338] loss2/loss -> loss2/loss1
I1214 21:27:37.984793 25444 net.cpp:113] Setting up loss2/loss
I1214 21:27:37.984802 25444 layer_factory.hpp:74] Creating layer loss2/loss
I1214 21:27:37.984943 25444 net.cpp:120] Top shape: (1)
I1214 21:27:37.984954 25444 net.cpp:122]     with loss weight 0.3
I1214 21:27:37.984982 25444 layer_factory.hpp:74] Creating layer inception_4e/1x1
I1214 21:27:37.985013 25444 net.cpp:84] Creating Layer inception_4e/1x1
I1214 21:27:37.985018 25444 net.cpp:380] inception_4e/1x1 <- inception_4d/output_inception_4d/output_0_split_1
I1214 21:27:37.985028 25444 net.cpp:338] inception_4e/1x1 -> inception_4e/1x1
I1214 21:27:37.985035 25444 net.cpp:113] Setting up inception_4e/1x1
I1214 21:27:37.986968 25444 net.cpp:120] Top shape: 32 256 14 14 (1605632)
I1214 21:27:37.986989 25444 layer_factory.hpp:74] Creating layer inception_4e/relu_1x1
I1214 21:27:37.987001 25444 net.cpp:84] Creating Layer inception_4e/relu_1x1
I1214 21:27:37.987010 25444 net.cpp:380] inception_4e/relu_1x1 <- inception_4e/1x1
I1214 21:27:37.987020 25444 net.cpp:327] inception_4e/relu_1x1 -> inception_4e/1x1 (in-place)
I1214 21:27:37.987027 25444 net.cpp:113] Setting up inception_4e/relu_1x1
I1214 21:27:37.987107 25444 net.cpp:120] Top shape: 32 256 14 14 (1605632)
I1214 21:27:37.987120 25444 layer_factory.hpp:74] Creating layer inception_4e/3x3_reduce
I1214 21:27:37.987131 25444 net.cpp:84] Creating Layer inception_4e/3x3_reduce
I1214 21:27:37.987140 25444 net.cpp:380] inception_4e/3x3_reduce <- inception_4d/output_inception_4d/output_0_split_2
I1214 21:27:37.987150 25444 net.cpp:338] inception_4e/3x3_reduce -> inception_4e/3x3_reduce
I1214 21:27:37.987161 25444 net.cpp:113] Setting up inception_4e/3x3_reduce
I1214 21:27:37.988528 25444 net.cpp:120] Top shape: 32 160 14 14 (1003520)
I1214 21:27:37.988546 25444 layer_factory.hpp:74] Creating layer inception_4e/relu_3x3_reduce
I1214 21:27:37.988567 25444 net.cpp:84] Creating Layer inception_4e/relu_3x3_reduce
I1214 21:27:37.988576 25444 net.cpp:380] inception_4e/relu_3x3_reduce <- inception_4e/3x3_reduce
I1214 21:27:37.988585 25444 net.cpp:327] inception_4e/relu_3x3_reduce -> inception_4e/3x3_reduce (in-place)
I1214 21:27:37.988596 25444 net.cpp:113] Setting up inception_4e/relu_3x3_reduce
I1214 21:27:37.988695 25444 net.cpp:120] Top shape: 32 160 14 14 (1003520)
I1214 21:27:37.988713 25444 layer_factory.hpp:74] Creating layer inception_4e/3x3
I1214 21:27:37.988723 25444 net.cpp:84] Creating Layer inception_4e/3x3
I1214 21:27:37.988728 25444 net.cpp:380] inception_4e/3x3 <- inception_4e/3x3_reduce
I1214 21:27:37.988734 25444 net.cpp:338] inception_4e/3x3 -> inception_4e/3x3
I1214 21:27:37.988741 25444 net.cpp:113] Setting up inception_4e/3x3
I1214 21:27:37.994256 25444 net.cpp:120] Top shape: 32 320 14 14 (2007040)
I1214 21:27:37.994277 25444 layer_factory.hpp:74] Creating layer inception_4e/relu_3x3
I1214 21:27:37.994287 25444 net.cpp:84] Creating Layer inception_4e/relu_3x3
I1214 21:27:37.994292 25444 net.cpp:380] inception_4e/relu_3x3 <- inception_4e/3x3
I1214 21:27:37.994297 25444 net.cpp:327] inception_4e/relu_3x3 -> inception_4e/3x3 (in-place)
I1214 21:27:37.994303 25444 net.cpp:113] Setting up inception_4e/relu_3x3
I1214 21:27:37.994604 25444 net.cpp:120] Top shape: 32 320 14 14 (2007040)
I1214 21:27:37.994631 25444 layer_factory.hpp:74] Creating layer inception_4e/5x5_reduce
I1214 21:27:37.994652 25444 net.cpp:84] Creating Layer inception_4e/5x5_reduce
I1214 21:27:37.994663 25444 net.cpp:380] inception_4e/5x5_reduce <- inception_4d/output_inception_4d/output_0_split_3
I1214 21:27:37.994678 25444 net.cpp:338] inception_4e/5x5_reduce -> inception_4e/5x5_reduce
I1214 21:27:37.994690 25444 net.cpp:113] Setting up inception_4e/5x5_reduce
I1214 21:27:37.995426 25444 net.cpp:120] Top shape: 32 32 14 14 (200704)
I1214 21:27:37.995445 25444 layer_factory.hpp:74] Creating layer inception_4e/relu_5x5_reduce
I1214 21:27:37.995457 25444 net.cpp:84] Creating Layer inception_4e/relu_5x5_reduce
I1214 21:27:37.995465 25444 net.cpp:380] inception_4e/relu_5x5_reduce <- inception_4e/5x5_reduce
I1214 21:27:37.995474 25444 net.cpp:327] inception_4e/relu_5x5_reduce -> inception_4e/5x5_reduce (in-place)
I1214 21:27:37.995486 25444 net.cpp:113] Setting up inception_4e/relu_5x5_reduce
I1214 21:27:37.995575 25444 net.cpp:120] Top shape: 32 32 14 14 (200704)
I1214 21:27:37.995587 25444 layer_factory.hpp:74] Creating layer inception_4e/5x5
I1214 21:27:37.995620 25444 net.cpp:84] Creating Layer inception_4e/5x5
I1214 21:27:37.995635 25444 net.cpp:380] inception_4e/5x5 <- inception_4e/5x5_reduce
I1214 21:27:37.995648 25444 net.cpp:338] inception_4e/5x5 -> inception_4e/5x5
I1214 21:27:37.995659 25444 net.cpp:113] Setting up inception_4e/5x5
I1214 21:27:37.997512 25444 net.cpp:120] Top shape: 32 128 14 14 (802816)
I1214 21:27:37.997535 25444 layer_factory.hpp:74] Creating layer inception_4e/relu_5x5
I1214 21:27:37.997542 25444 net.cpp:84] Creating Layer inception_4e/relu_5x5
I1214 21:27:37.997546 25444 net.cpp:380] inception_4e/relu_5x5 <- inception_4e/5x5
I1214 21:27:37.997560 25444 net.cpp:327] inception_4e/relu_5x5 -> inception_4e/5x5 (in-place)
I1214 21:27:37.997571 25444 net.cpp:113] Setting up inception_4e/relu_5x5
I1214 21:27:37.997653 25444 net.cpp:120] Top shape: 32 128 14 14 (802816)
I1214 21:27:37.997663 25444 layer_factory.hpp:74] Creating layer inception_4e/pool
I1214 21:27:37.997678 25444 layer_factory.cpp:56] CUDNN does not support padding or multiple tops. Using Caffe's own pooling layer.
I1214 21:27:37.997687 25444 net.cpp:84] Creating Layer inception_4e/pool
I1214 21:27:37.997695 25444 net.cpp:380] inception_4e/pool <- inception_4d/output_inception_4d/output_0_split_4
I1214 21:27:37.997705 25444 net.cpp:338] inception_4e/pool -> inception_4e/pool
I1214 21:27:37.997716 25444 net.cpp:113] Setting up inception_4e/pool
I1214 21:27:37.997730 25444 net.cpp:120] Top shape: 32 528 14 14 (3311616)
I1214 21:27:37.997735 25444 layer_factory.hpp:74] Creating layer inception_4e/pool_proj
I1214 21:27:37.997741 25444 net.cpp:84] Creating Layer inception_4e/pool_proj
I1214 21:27:37.997745 25444 net.cpp:380] inception_4e/pool_proj <- inception_4e/pool
I1214 21:27:37.997751 25444 net.cpp:338] inception_4e/pool_proj -> inception_4e/pool_proj
I1214 21:27:37.997758 25444 net.cpp:113] Setting up inception_4e/pool_proj
I1214 21:27:38.000255 25444 net.cpp:120] Top shape: 32 128 14 14 (802816)
I1214 21:27:38.000279 25444 layer_factory.hpp:74] Creating layer inception_4e/relu_pool_proj
I1214 21:27:38.000300 25444 net.cpp:84] Creating Layer inception_4e/relu_pool_proj
I1214 21:27:38.000308 25444 net.cpp:380] inception_4e/relu_pool_proj <- inception_4e/pool_proj
I1214 21:27:38.000315 25444 net.cpp:327] inception_4e/relu_pool_proj -> inception_4e/pool_proj (in-place)
I1214 21:27:38.000322 25444 net.cpp:113] Setting up inception_4e/relu_pool_proj
I1214 21:27:38.000409 25444 net.cpp:120] Top shape: 32 128 14 14 (802816)
I1214 21:27:38.000421 25444 layer_factory.hpp:74] Creating layer inception_4e/output
I1214 21:27:38.000437 25444 net.cpp:84] Creating Layer inception_4e/output
I1214 21:27:38.000443 25444 net.cpp:380] inception_4e/output <- inception_4e/1x1
I1214 21:27:38.000452 25444 net.cpp:380] inception_4e/output <- inception_4e/3x3
I1214 21:27:38.000460 25444 net.cpp:380] inception_4e/output <- inception_4e/5x5
I1214 21:27:38.000468 25444 net.cpp:380] inception_4e/output <- inception_4e/pool_proj
I1214 21:27:38.000476 25444 net.cpp:338] inception_4e/output -> inception_4e/output
I1214 21:27:38.000486 25444 net.cpp:113] Setting up inception_4e/output
I1214 21:27:38.000497 25444 net.cpp:120] Top shape: 32 832 14 14 (5218304)
I1214 21:27:38.000504 25444 layer_factory.hpp:74] Creating layer pool4/3x3_s2
I1214 21:27:38.000514 25444 net.cpp:84] Creating Layer pool4/3x3_s2
I1214 21:27:38.000521 25444 net.cpp:380] pool4/3x3_s2 <- inception_4e/output
I1214 21:27:38.000535 25444 net.cpp:338] pool4/3x3_s2 -> pool4/3x3_s2
I1214 21:27:38.000545 25444 net.cpp:113] Setting up pool4/3x3_s2
I1214 21:27:38.000854 25444 net.cpp:120] Top shape: 32 832 7 7 (1304576)
I1214 21:27:38.000869 25444 layer_factory.hpp:74] Creating layer pool4/3x3_s2_pool4/3x3_s2_0_split
I1214 21:27:38.000881 25444 net.cpp:84] Creating Layer pool4/3x3_s2_pool4/3x3_s2_0_split
I1214 21:27:38.000888 25444 net.cpp:380] pool4/3x3_s2_pool4/3x3_s2_0_split <- pool4/3x3_s2
I1214 21:27:38.000898 25444 net.cpp:338] pool4/3x3_s2_pool4/3x3_s2_0_split -> pool4/3x3_s2_pool4/3x3_s2_0_split_0
I1214 21:27:38.000919 25444 net.cpp:338] pool4/3x3_s2_pool4/3x3_s2_0_split -> pool4/3x3_s2_pool4/3x3_s2_0_split_1
I1214 21:27:38.000942 25444 net.cpp:338] pool4/3x3_s2_pool4/3x3_s2_0_split -> pool4/3x3_s2_pool4/3x3_s2_0_split_2
I1214 21:27:38.000954 25444 net.cpp:338] pool4/3x3_s2_pool4/3x3_s2_0_split -> pool4/3x3_s2_pool4/3x3_s2_0_split_3
I1214 21:27:38.000963 25444 net.cpp:113] Setting up pool4/3x3_s2_pool4/3x3_s2_0_split
I1214 21:27:38.000970 25444 net.cpp:120] Top shape: 32 832 7 7 (1304576)
I1214 21:27:38.000975 25444 net.cpp:120] Top shape: 32 832 7 7 (1304576)
I1214 21:27:38.000979 25444 net.cpp:120] Top shape: 32 832 7 7 (1304576)
I1214 21:27:38.000983 25444 net.cpp:120] Top shape: 32 832 7 7 (1304576)
I1214 21:27:38.000988 25444 layer_factory.hpp:74] Creating layer inception_5a/1x1
I1214 21:27:38.000998 25444 net.cpp:84] Creating Layer inception_5a/1x1
I1214 21:27:38.001005 25444 net.cpp:380] inception_5a/1x1 <- pool4/3x3_s2_pool4/3x3_s2_0_split_0
I1214 21:27:38.001015 25444 net.cpp:338] inception_5a/1x1 -> inception_5a/1x1
I1214 21:27:38.001026 25444 net.cpp:113] Setting up inception_5a/1x1
I1214 21:27:38.004730 25444 net.cpp:120] Top shape: 32 256 7 7 (401408)
I1214 21:27:38.004789 25444 layer_factory.hpp:74] Creating layer inception_5a/relu_1x1
I1214 21:27:38.004812 25444 net.cpp:84] Creating Layer inception_5a/relu_1x1
I1214 21:27:38.004827 25444 net.cpp:380] inception_5a/relu_1x1 <- inception_5a/1x1
I1214 21:27:38.004853 25444 net.cpp:327] inception_5a/relu_1x1 -> inception_5a/1x1 (in-place)
I1214 21:27:38.004873 25444 net.cpp:113] Setting up inception_5a/relu_1x1
I1214 21:27:38.005028 25444 net.cpp:120] Top shape: 32 256 7 7 (401408)
I1214 21:27:38.005043 25444 layer_factory.hpp:74] Creating layer inception_5a/3x3_reduce
I1214 21:27:38.005086 25444 net.cpp:84] Creating Layer inception_5a/3x3_reduce
I1214 21:27:38.005101 25444 net.cpp:380] inception_5a/3x3_reduce <- pool4/3x3_s2_pool4/3x3_s2_0_split_1
I1214 21:27:38.005117 25444 net.cpp:338] inception_5a/3x3_reduce -> inception_5a/3x3_reduce
I1214 21:27:38.005136 25444 net.cpp:113] Setting up inception_5a/3x3_reduce
I1214 21:27:38.009793 25444 net.cpp:120] Top shape: 32 160 7 7 (250880)
I1214 21:27:38.009829 25444 layer_factory.hpp:74] Creating layer inception_5a/relu_3x3_reduce
I1214 21:27:38.009856 25444 net.cpp:84] Creating Layer inception_5a/relu_3x3_reduce
I1214 21:27:38.009868 25444 net.cpp:380] inception_5a/relu_3x3_reduce <- inception_5a/3x3_reduce
I1214 21:27:38.009882 25444 net.cpp:327] inception_5a/relu_3x3_reduce -> inception_5a/3x3_reduce (in-place)
I1214 21:27:38.009899 25444 net.cpp:113] Setting up inception_5a/relu_3x3_reduce
I1214 21:27:38.010042 25444 net.cpp:120] Top shape: 32 160 7 7 (250880)
I1214 21:27:38.010056 25444 layer_factory.hpp:74] Creating layer inception_5a/3x3
I1214 21:27:38.010076 25444 net.cpp:84] Creating Layer inception_5a/3x3
I1214 21:27:38.010087 25444 net.cpp:380] inception_5a/3x3 <- inception_5a/3x3_reduce
I1214 21:27:38.010100 25444 net.cpp:338] inception_5a/3x3 -> inception_5a/3x3
I1214 21:27:38.010118 25444 net.cpp:113] Setting up inception_5a/3x3
I1214 21:27:38.021435 25444 net.cpp:120] Top shape: 32 320 7 7 (501760)
I1214 21:27:38.021457 25444 layer_factory.hpp:74] Creating layer inception_5a/relu_3x3
I1214 21:27:38.021467 25444 net.cpp:84] Creating Layer inception_5a/relu_3x3
I1214 21:27:38.021476 25444 net.cpp:380] inception_5a/relu_3x3 <- inception_5a/3x3
I1214 21:27:38.021486 25444 net.cpp:327] inception_5a/relu_3x3 -> inception_5a/3x3 (in-place)
I1214 21:27:38.021494 25444 net.cpp:113] Setting up inception_5a/relu_3x3
I1214 21:27:38.021570 25444 net.cpp:120] Top shape: 32 320 7 7 (501760)
I1214 21:27:38.021584 25444 layer_factory.hpp:74] Creating layer inception_5a/5x5_reduce
I1214 21:27:38.021595 25444 net.cpp:84] Creating Layer inception_5a/5x5_reduce
I1214 21:27:38.021600 25444 net.cpp:380] inception_5a/5x5_reduce <- pool4/3x3_s2_pool4/3x3_s2_0_split_2
I1214 21:27:38.021610 25444 net.cpp:338] inception_5a/5x5_reduce -> inception_5a/5x5_reduce
I1214 21:27:38.021618 25444 net.cpp:113] Setting up inception_5a/5x5_reduce
I1214 21:27:38.022440 25444 net.cpp:120] Top shape: 32 32 7 7 (50176)
I1214 21:27:38.022466 25444 layer_factory.hpp:74] Creating layer inception_5a/relu_5x5_reduce
I1214 21:27:38.022483 25444 net.cpp:84] Creating Layer inception_5a/relu_5x5_reduce
I1214 21:27:38.022492 25444 net.cpp:380] inception_5a/relu_5x5_reduce <- inception_5a/5x5_reduce
I1214 21:27:38.022500 25444 net.cpp:327] inception_5a/relu_5x5_reduce -> inception_5a/5x5_reduce (in-place)
I1214 21:27:38.022507 25444 net.cpp:113] Setting up inception_5a/relu_5x5_reduce
I1214 21:27:38.023228 25444 net.cpp:120] Top shape: 32 32 7 7 (50176)
I1214 21:27:38.023246 25444 layer_factory.hpp:74] Creating layer inception_5a/5x5
I1214 21:27:38.023255 25444 net.cpp:84] Creating Layer inception_5a/5x5
I1214 21:27:38.023262 25444 net.cpp:380] inception_5a/5x5 <- inception_5a/5x5_reduce
I1214 21:27:38.023272 25444 net.cpp:338] inception_5a/5x5 -> inception_5a/5x5
I1214 21:27:38.023283 25444 net.cpp:113] Setting up inception_5a/5x5
I1214 21:27:38.025429 25444 net.cpp:120] Top shape: 32 128 7 7 (200704)
I1214 21:27:38.025447 25444 layer_factory.hpp:74] Creating layer inception_5a/relu_5x5
I1214 21:27:38.025455 25444 net.cpp:84] Creating Layer inception_5a/relu_5x5
I1214 21:27:38.025461 25444 net.cpp:380] inception_5a/relu_5x5 <- inception_5a/5x5
I1214 21:27:38.025468 25444 net.cpp:327] inception_5a/relu_5x5 -> inception_5a/5x5 (in-place)
I1214 21:27:38.025476 25444 net.cpp:113] Setting up inception_5a/relu_5x5
I1214 21:27:38.025552 25444 net.cpp:120] Top shape: 32 128 7 7 (200704)
I1214 21:27:38.025557 25444 layer_factory.hpp:74] Creating layer inception_5a/pool
I1214 21:27:38.025570 25444 layer_factory.cpp:56] CUDNN does not support padding or multiple tops. Using Caffe's own pooling layer.
I1214 21:27:38.025578 25444 net.cpp:84] Creating Layer inception_5a/pool
I1214 21:27:38.025583 25444 net.cpp:380] inception_5a/pool <- pool4/3x3_s2_pool4/3x3_s2_0_split_3
I1214 21:27:38.025591 25444 net.cpp:338] inception_5a/pool -> inception_5a/pool
I1214 21:27:38.025599 25444 net.cpp:113] Setting up inception_5a/pool
I1214 21:27:38.025609 25444 net.cpp:120] Top shape: 32 832 7 7 (1304576)
I1214 21:27:38.025614 25444 layer_factory.hpp:74] Creating layer inception_5a/pool_proj
I1214 21:27:38.025631 25444 net.cpp:84] Creating Layer inception_5a/pool_proj
I1214 21:27:38.025636 25444 net.cpp:380] inception_5a/pool_proj <- inception_5a/pool
I1214 21:27:38.025647 25444 net.cpp:338] inception_5a/pool_proj -> inception_5a/pool_proj
I1214 21:27:38.025657 25444 net.cpp:113] Setting up inception_5a/pool_proj
I1214 21:27:38.029301 25444 net.cpp:120] Top shape: 32 128 7 7 (200704)
I1214 21:27:38.029337 25444 layer_factory.hpp:74] Creating layer inception_5a/relu_pool_proj
I1214 21:27:38.029351 25444 net.cpp:84] Creating Layer inception_5a/relu_pool_proj
I1214 21:27:38.029362 25444 net.cpp:380] inception_5a/relu_pool_proj <- inception_5a/pool_proj
I1214 21:27:38.029376 25444 net.cpp:327] inception_5a/relu_pool_proj -> inception_5a/pool_proj (in-place)
I1214 21:27:38.029394 25444 net.cpp:113] Setting up inception_5a/relu_pool_proj
I1214 21:27:38.029515 25444 net.cpp:120] Top shape: 32 128 7 7 (200704)
I1214 21:27:38.029526 25444 layer_factory.hpp:74] Creating layer inception_5a/output
I1214 21:27:38.029537 25444 net.cpp:84] Creating Layer inception_5a/output
I1214 21:27:38.029546 25444 net.cpp:380] inception_5a/output <- inception_5a/1x1
I1214 21:27:38.029556 25444 net.cpp:380] inception_5a/output <- inception_5a/3x3
I1214 21:27:38.029566 25444 net.cpp:380] inception_5a/output <- inception_5a/5x5
I1214 21:27:38.029574 25444 net.cpp:380] inception_5a/output <- inception_5a/pool_proj
I1214 21:27:38.029584 25444 net.cpp:338] inception_5a/output -> inception_5a/output
I1214 21:27:38.029597 25444 net.cpp:113] Setting up inception_5a/output
I1214 21:27:38.029611 25444 net.cpp:120] Top shape: 32 832 7 7 (1304576)
I1214 21:27:38.029619 25444 layer_factory.hpp:74] Creating layer inception_5a/output_inception_5a/output_0_split
I1214 21:27:38.029633 25444 net.cpp:84] Creating Layer inception_5a/output_inception_5a/output_0_split
I1214 21:27:38.029650 25444 net.cpp:380] inception_5a/output_inception_5a/output_0_split <- inception_5a/output
I1214 21:27:38.029677 25444 net.cpp:338] inception_5a/output_inception_5a/output_0_split -> inception_5a/output_inception_5a/output_0_split_0
I1214 21:27:38.029691 25444 net.cpp:338] inception_5a/output_inception_5a/output_0_split -> inception_5a/output_inception_5a/output_0_split_1
I1214 21:27:38.029705 25444 net.cpp:338] inception_5a/output_inception_5a/output_0_split -> inception_5a/output_inception_5a/output_0_split_2
I1214 21:27:38.029719 25444 net.cpp:338] inception_5a/output_inception_5a/output_0_split -> inception_5a/output_inception_5a/output_0_split_3
I1214 21:27:38.029731 25444 net.cpp:113] Setting up inception_5a/output_inception_5a/output_0_split
I1214 21:27:38.029743 25444 net.cpp:120] Top shape: 32 832 7 7 (1304576)
I1214 21:27:38.029753 25444 net.cpp:120] Top shape: 32 832 7 7 (1304576)
I1214 21:27:38.029762 25444 net.cpp:120] Top shape: 32 832 7 7 (1304576)
I1214 21:27:38.029770 25444 net.cpp:120] Top shape: 32 832 7 7 (1304576)
I1214 21:27:38.029779 25444 layer_factory.hpp:74] Creating layer inception_5b/1x1
I1214 21:27:38.029794 25444 net.cpp:84] Creating Layer inception_5b/1x1
I1214 21:27:38.029803 25444 net.cpp:380] inception_5b/1x1 <- inception_5a/output_inception_5a/output_0_split_0
I1214 21:27:38.029816 25444 net.cpp:338] inception_5b/1x1 -> inception_5b/1x1
I1214 21:27:38.029830 25444 net.cpp:113] Setting up inception_5b/1x1
I1214 21:27:38.036986 25444 net.cpp:120] Top shape: 32 384 7 7 (602112)
I1214 21:27:38.037009 25444 layer_factory.hpp:74] Creating layer inception_5b/relu_1x1
I1214 21:27:38.037019 25444 net.cpp:84] Creating Layer inception_5b/relu_1x1
I1214 21:27:38.037025 25444 net.cpp:380] inception_5b/relu_1x1 <- inception_5b/1x1
I1214 21:27:38.037035 25444 net.cpp:327] inception_5b/relu_1x1 -> inception_5b/1x1 (in-place)
I1214 21:27:38.037045 25444 net.cpp:113] Setting up inception_5b/relu_1x1
I1214 21:27:38.037835 25444 net.cpp:120] Top shape: 32 384 7 7 (602112)
I1214 21:27:38.037860 25444 layer_factory.hpp:74] Creating layer inception_5b/3x3_reduce
I1214 21:27:38.037881 25444 net.cpp:84] Creating Layer inception_5b/3x3_reduce
I1214 21:27:38.037894 25444 net.cpp:380] inception_5b/3x3_reduce <- inception_5a/output_inception_5a/output_0_split_1
I1214 21:27:38.037911 25444 net.cpp:338] inception_5b/3x3_reduce -> inception_5b/3x3_reduce
I1214 21:27:38.037930 25444 net.cpp:113] Setting up inception_5b/3x3_reduce
I1214 21:27:38.043184 25444 net.cpp:120] Top shape: 32 192 7 7 (301056)
I1214 21:27:38.043205 25444 layer_factory.hpp:74] Creating layer inception_5b/relu_3x3_reduce
I1214 21:27:38.043216 25444 net.cpp:84] Creating Layer inception_5b/relu_3x3_reduce
I1214 21:27:38.043223 25444 net.cpp:380] inception_5b/relu_3x3_reduce <- inception_5b/3x3_reduce
I1214 21:27:38.043231 25444 net.cpp:327] inception_5b/relu_3x3_reduce -> inception_5b/3x3_reduce (in-place)
I1214 21:27:38.043241 25444 net.cpp:113] Setting up inception_5b/relu_3x3_reduce
I1214 21:27:38.043323 25444 net.cpp:120] Top shape: 32 192 7 7 (301056)
I1214 21:27:38.043329 25444 layer_factory.hpp:74] Creating layer inception_5b/3x3
I1214 21:27:38.043351 25444 net.cpp:84] Creating Layer inception_5b/3x3
I1214 21:27:38.043357 25444 net.cpp:380] inception_5b/3x3 <- inception_5b/3x3_reduce
I1214 21:27:38.043365 25444 net.cpp:338] inception_5b/3x3 -> inception_5b/3x3
I1214 21:27:38.043395 25444 net.cpp:113] Setting up inception_5b/3x3
I1214 21:27:38.058737 25444 net.cpp:120] Top shape: 32 384 7 7 (602112)
I1214 21:27:38.058769 25444 layer_factory.hpp:74] Creating layer inception_5b/relu_3x3
I1214 21:27:38.058784 25444 net.cpp:84] Creating Layer inception_5b/relu_3x3
I1214 21:27:38.058794 25444 net.cpp:380] inception_5b/relu_3x3 <- inception_5b/3x3
I1214 21:27:38.058811 25444 net.cpp:327] inception_5b/relu_3x3 -> inception_5b/3x3 (in-place)
I1214 21:27:38.058826 25444 net.cpp:113] Setting up inception_5b/relu_3x3
I1214 21:27:38.058959 25444 net.cpp:120] Top shape: 32 384 7 7 (602112)
I1214 21:27:38.058980 25444 layer_factory.hpp:74] Creating layer inception_5b/5x5_reduce
I1214 21:27:38.059010 25444 net.cpp:84] Creating Layer inception_5b/5x5_reduce
I1214 21:27:38.059020 25444 net.cpp:380] inception_5b/5x5_reduce <- inception_5a/output_inception_5a/output_0_split_2
I1214 21:27:38.059034 25444 net.cpp:338] inception_5b/5x5_reduce -> inception_5b/5x5_reduce
I1214 21:27:38.059051 25444 net.cpp:113] Setting up inception_5b/5x5_reduce
I1214 21:27:38.061074 25444 net.cpp:120] Top shape: 32 48 7 7 (75264)
I1214 21:27:38.061105 25444 layer_factory.hpp:74] Creating layer inception_5b/relu_5x5_reduce
I1214 21:27:38.061134 25444 net.cpp:84] Creating Layer inception_5b/relu_5x5_reduce
I1214 21:27:38.061146 25444 net.cpp:380] inception_5b/relu_5x5_reduce <- inception_5b/5x5_reduce
I1214 21:27:38.061169 25444 net.cpp:327] inception_5b/relu_5x5_reduce -> inception_5b/5x5_reduce (in-place)
I1214 21:27:38.061183 25444 net.cpp:113] Setting up inception_5b/relu_5x5_reduce
I1214 21:27:38.061308 25444 net.cpp:120] Top shape: 32 48 7 7 (75264)
I1214 21:27:38.061319 25444 layer_factory.hpp:74] Creating layer inception_5b/5x5
I1214 21:27:38.061334 25444 net.cpp:84] Creating Layer inception_5b/5x5
I1214 21:27:38.061343 25444 net.cpp:380] inception_5b/5x5 <- inception_5b/5x5_reduce
I1214 21:27:38.061355 25444 net.cpp:338] inception_5b/5x5 -> inception_5b/5x5
I1214 21:27:38.061369 25444 net.cpp:113] Setting up inception_5b/5x5
I1214 21:27:38.065364 25444 net.cpp:120] Top shape: 32 128 7 7 (200704)
I1214 21:27:38.065392 25444 layer_factory.hpp:74] Creating layer inception_5b/relu_5x5
I1214 21:27:38.065404 25444 net.cpp:84] Creating Layer inception_5b/relu_5x5
I1214 21:27:38.065414 25444 net.cpp:380] inception_5b/relu_5x5 <- inception_5b/5x5
I1214 21:27:38.065425 25444 net.cpp:327] inception_5b/relu_5x5 -> inception_5b/5x5 (in-place)
I1214 21:27:38.065438 25444 net.cpp:113] Setting up inception_5b/relu_5x5
I1214 21:27:38.066305 25444 net.cpp:120] Top shape: 32 128 7 7 (200704)
I1214 21:27:38.066324 25444 layer_factory.hpp:74] Creating layer inception_5b/pool
I1214 21:27:38.066334 25444 layer_factory.cpp:56] CUDNN does not support padding or multiple tops. Using Caffe's own pooling layer.
I1214 21:27:38.066344 25444 net.cpp:84] Creating Layer inception_5b/pool
I1214 21:27:38.066354 25444 net.cpp:380] inception_5b/pool <- inception_5a/output_inception_5a/output_0_split_3
I1214 21:27:38.066366 25444 net.cpp:338] inception_5b/pool -> inception_5b/pool
I1214 21:27:38.066380 25444 net.cpp:113] Setting up inception_5b/pool
I1214 21:27:38.066395 25444 net.cpp:120] Top shape: 32 832 7 7 (1304576)
I1214 21:27:38.066403 25444 layer_factory.hpp:74] Creating layer inception_5b/pool_proj
I1214 21:27:38.066433 25444 net.cpp:84] Creating Layer inception_5b/pool_proj
I1214 21:27:38.066444 25444 net.cpp:380] inception_5b/pool_proj <- inception_5b/pool
I1214 21:27:38.066458 25444 net.cpp:338] inception_5b/pool_proj -> inception_5b/pool_proj
I1214 21:27:38.066473 25444 net.cpp:113] Setting up inception_5b/pool_proj
I1214 21:27:38.069500 25444 net.cpp:120] Top shape: 32 128 7 7 (200704)
I1214 21:27:38.069528 25444 layer_factory.hpp:74] Creating layer inception_5b/relu_pool_proj
I1214 21:27:38.069543 25444 net.cpp:84] Creating Layer inception_5b/relu_pool_proj
I1214 21:27:38.069553 25444 net.cpp:380] inception_5b/relu_pool_proj <- inception_5b/pool_proj
I1214 21:27:38.069564 25444 net.cpp:327] inception_5b/relu_pool_proj -> inception_5b/pool_proj (in-place)
I1214 21:27:38.069578 25444 net.cpp:113] Setting up inception_5b/relu_pool_proj
I1214 21:27:38.069695 25444 net.cpp:120] Top shape: 32 128 7 7 (200704)
I1214 21:27:38.069706 25444 layer_factory.hpp:74] Creating layer inception_5b/output
I1214 21:27:38.069716 25444 net.cpp:84] Creating Layer inception_5b/output
I1214 21:27:38.069725 25444 net.cpp:380] inception_5b/output <- inception_5b/1x1
I1214 21:27:38.069737 25444 net.cpp:380] inception_5b/output <- inception_5b/3x3
I1214 21:27:38.069746 25444 net.cpp:380] inception_5b/output <- inception_5b/5x5
I1214 21:27:38.069756 25444 net.cpp:380] inception_5b/output <- inception_5b/pool_proj
I1214 21:27:38.069774 25444 net.cpp:338] inception_5b/output -> inception_5b/output
I1214 21:27:38.069798 25444 net.cpp:113] Setting up inception_5b/output
I1214 21:27:38.069811 25444 net.cpp:120] Top shape: 32 1024 7 7 (1605632)
I1214 21:27:38.069819 25444 layer_factory.hpp:74] Creating layer pool5/7x7_s1
I1214 21:27:38.069841 25444 net.cpp:84] Creating Layer pool5/7x7_s1
I1214 21:27:38.069854 25444 net.cpp:380] pool5/7x7_s1 <- inception_5b/output
I1214 21:27:38.069865 25444 net.cpp:338] pool5/7x7_s1 -> pool5/7x7_s1
I1214 21:27:38.069877 25444 net.cpp:113] Setting up pool5/7x7_s1
I1214 21:27:38.070003 25444 net.cpp:120] Top shape: 32 1024 1 1 (32768)
I1214 21:27:38.070015 25444 layer_factory.hpp:74] Creating layer pool5/drop_7x7_s1
I1214 21:27:38.070026 25444 net.cpp:84] Creating Layer pool5/drop_7x7_s1
I1214 21:27:38.070034 25444 net.cpp:380] pool5/drop_7x7_s1 <- pool5/7x7_s1
I1214 21:27:38.070044 25444 net.cpp:327] pool5/drop_7x7_s1 -> pool5/7x7_s1 (in-place)
I1214 21:27:38.070056 25444 net.cpp:113] Setting up pool5/drop_7x7_s1
I1214 21:27:38.070068 25444 net.cpp:120] Top shape: 32 1024 1 1 (32768)
I1214 21:27:38.070075 25444 layer_factory.hpp:74] Creating layer loss3/classifier_kaggle
I1214 21:27:38.070088 25444 net.cpp:84] Creating Layer loss3/classifier_kaggle
I1214 21:27:38.070096 25444 net.cpp:380] loss3/classifier_kaggle <- pool5/7x7_s1
I1214 21:27:38.070106 25444 net.cpp:338] loss3/classifier_kaggle -> loss3/classifier_kaggle
I1214 21:27:38.070121 25444 net.cpp:113] Setting up loss3/classifier_kaggle
I1214 21:27:38.078660 25444 net.cpp:120] Top shape: 32 447 (14304)
I1214 21:27:38.078680 25444 layer_factory.hpp:74] Creating layer loss3/loss3
I1214 21:27:38.078691 25444 net.cpp:84] Creating Layer loss3/loss3
I1214 21:27:38.078698 25444 net.cpp:380] loss3/loss3 <- loss3/classifier_kaggle
I1214 21:27:38.078708 25444 net.cpp:380] loss3/loss3 <- label_data_1_split_2
I1214 21:27:38.078718 25444 net.cpp:338] loss3/loss3 -> loss3/loss3
I1214 21:27:38.078729 25444 net.cpp:113] Setting up loss3/loss3
…
I1214 21:27:38.087052 25444 net.cpp:257] The NetState phase (1) differed from the phase (0) specified by a rule in layer data
I1214 21:27:38.089402 25444 net.cpp:42] Initializing net from parameters: 
name: "GoogleNet"
state {
  phase: TEST
}
layer {
  name: "data"
  type: "Data"
  top: "data"
  top: "label"
  include {
    phase: TEST
  }
  transform_param {
    mirror: false
    crop_size: 224
    mean_value: 104
    mean_value: 117
    mean_value: 123
  }
  data_param {
    source: "/home/coldmanck/kaggle/kaggle2_val_lmdb"
    batch_size: 50
    backend: LMDB
  }
}
layer {
  name: "conv1/7x7_s2"
  type: "Convolution"
  bottom: "data"
  top: "conv1/7x7_s2"
  param {
    lr_mult: 1
    decay_mult: 1
  }
  param {
    lr_mult: 2
    decay_mult: 0
  }
  convolution_param {
    num_output: 64
    pad: 3
    kernel_size: 7
    stride: 2
    weight_filler {
      type: "xavier"
      std: 0.1
    }
    bias_filler {
      type: "constant"
      value: 0.2
    }
  }
}
layer {
  name: "conv1/relu_7x7"
  type: "ReLU"
  bottom: "conv1/7x7_s2"
  top: "conv1/7x7_s2"
}
layer {
  name: "pool1/3x3_s2"
  type: "Pooling"
  bottom: "conv1/7x7_s2"
  top: "pool1/3x3_s2"
  pooling_param {
    pool: MAX
    kernel_size: 3
    stride: 2
  }
}
layer {
  name: "pool1/norm1"
  type: "LRN"
  bottom: "pool1/3x3_s2"
  top: "pool1/norm1"
  lrn_param {
    local_size: 5
    alpha: 0.0001
    beta: 0.75
  }
}
layer {
  name: "conv2/3x3_reduce"
  type: "Convolution"
  bottom: "pool1/norm1"
  top: "conv2/3x3_reduce"
  param {
    lr_mult: 1
    decay_mult: 1
  }
  param {
    lr_mult: 2
    decay_mult: 0
  }
  convolution_param {
    num_output: 64
    kernel_size: 1
    weight_filler {
      type: "xavier"
      std: 0.1
    }
    bias_filler {
      type: "constant"
      value: 0.2
    }
  }
}
layer {
  name: "conv2/relu_3x3_reduce"
  type: "ReLU"
  bottom: "conv2/3x3_reduce"
  top: "conv2/3x3_reduce"
}
layer {
  name: "conv2/3x3"
  type: "Convolution"
  bottom: "conv2/3x3_reduce"
  top: "conv2/3x3"
  param {
    lr_mult: 1
    decay_mult: 1
  }
  param {
    lr_mult: 2
    decay_mult: 0
  }
  convolution_param {
    num_output: 192
    pad: 1
    kernel_size: 3
    weight_filler {
      type: "xavier"
      std: 0.03
    }
    bias_filler {
      type: "constant"
      value: 0.2
    }
  }
}
layer {
  name: "conv2/relu_3x3"
  type: "ReLU"
  bottom: "conv2/3x3"
  top: "conv2/3x3"
}
layer {
  name: "conv2/norm2"
  type: "LRN"
  bottom: "conv2/3x3"
  top: "conv2/norm2"
  lrn_param {
    local_size: 5
    alpha: 0.0001
    beta: 0.75
  }
}
layer {
  name: "pool2/3x3_s2"
  type: "Pooling"
  bottom: "conv2/norm2"
  top: "pool2/3x3_s2"
  pooling_param {
    pool: MAX
    kernel_size: 3
    stride: 2
  }
}
layer {
  name: "inception_3a/1x1"
  type: "Convolution"
  bottom: "pool2/3x3_s2"
  top: "inception_3a/1x1"
  param {
    lr_mult: 1
    decay_mult: 1
  }
  param {
    lr_mult: 2
    decay_mult: 0
  }
  convolution_param {
    num_output: 64
    kernel_size: 1
    weight_filler {
      type: "xavier"
      std: 0.03
    }
    bias_filler {
      type: "constant"
      value: 0.2
    }
  }
}
layer {
  name: "inception_3a/relu_1x1"
  type: "ReLU"
  bottom: "inception_3a/1x1"
  top: "inception_3a/1x1"
}
layer {
  name: "inception_3a/3x3_reduce"
  type: "Convolution"
  bottom: "pool2/3x3_s2"
  top: "inception_3a/3x3_reduce"
  param {
    lr_mult: 1
    decay_mult: 1
  }
  param {
    lr_mult: 2
    decay_mult: 0
  }
  convolution_param {
    num_output: 96
    kernel_size: 1
    weight_filler {
      type: "xavier"
      std: 0.09
    }
    bias_filler {
      type: "constant"
      value: 0.2
    }
  }
}
layer {
  name: "inception_3a/relu_3x3_reduce"
  type: "ReLU"
  bottom: "inception_3a/3x3_reduce"
  top: "inception_3a/3x3_reduce"
}
layer {
  name: "inception_3a/3x3"
  type: "Convolution"
  bottom: "inception_3a/3x3_reduce"
  top: "inception_3a/3x3"
  param {
    lr_mult: 1
    decay_mult: 1
  }
  param {
    lr_mult: 2
    decay_mult: 0
  }
  convolution_param {
    num_output: 128
    pad: 1
    kernel_size: 3
    weight_filler {
      type: "xavier"
      std: 0.03
    }
    bias_filler {
      type: "constant"
      value: 0.2
    }
  }
}
layer {
  name: "inception_3a/relu_3x3"
  type: "ReLU"
  bottom: "inception_3a/3x3"
  top: "inception_3a/3x3"
}
layer {
  name: "inception_3a/5x5_reduce"
  type: "Convolution"
  bottom: "pool2/3x3_s2"
  top: "inception_3a/5x5_reduce"
  param {
    lr_mult: 1
    decay_mult: 1
  }
  param {
    lr_mult: 2
    decay_mult: 0
  }
  convolution_param {
    num_output: 16
    kernel_size: 1
    weight_filler {
      type: "xavier"
      std: 0.2
    }
    bias_filler {
      type: "constant"
      value: 0.2
    }
  }
}
layer {
  name: "inception_3a/relu_5x5_reduce"
  type: "ReLU"
  bottom: "inception_3a/5x5_reduce"
  top: "inception_3a/5x5_reduce"
}
layer {
  name: "inception_3a/5x5"
  type: "Convolution"
  bottom: "inception_3a/5x5_reduce"
  top: "inception_3a/5x5"
  param {
    lr_mult: 1
    decay_mult: 1
  }
  param {
    lr_mult: 2
    decay_mult: 0
  }
  convolution_param {
    num_output: 32
    pad: 2
    kernel_size: 5
    weight_filler {
      type: "xavier"
      std: 0.03
    }
    bias_filler {
      type: "constant"
      value: 0.2
    }
  }
}
layer {
  name: "inception_3a/relu_5x5"
  type: "ReLU"
  bottom: "inception_3a/5x5"
  top: "inception_3a/5x5"
}
layer {
  name: "inception_3a/pool"
  type: "Pooling"
  bottom: "pool2/3x3_s2"
  top: "inception_3a/pool"
  pooling_param {
    pool: MAX
    kernel_size: 3
    stride: 1
    pad: 1
  }
}
layer {
  name: "inception_3a/pool_proj"
  type: "Convolution"
  bottom: "inception_3a/pool"
  top: "inception_3a/pool_proj"
  param {
    lr_mult: 1
    decay_mult: 1
  }
  param {
    lr_mult: 2
    decay_mult: 0
  }
  convolution_param {
    num_output: 32
    kernel_size: 1
    weight_filler {
      type: "xavier"
      std: 0.1
    }
    bias_filler {
      type: "constant"
      value: 0.2
    }
  }
}
layer {
  name: "inception_3a/relu_pool_proj"
  type: "ReLU"
  bottom: "inception_3a/pool_proj"
  top: "inception_3a/pool_proj"
}
layer {
  name: "inception_3a/output"
  type: "Concat"
  bottom: "inception_3a/1x1"
  bottom: "inception_3a/3x3"
  bottom: "inception_3a/5x5"
  bottom: "inception_3a/pool_proj"
  top: "inception_3a/output"
}
layer {
  name: "inception_3b/1x1"
  type: "Convolution"
  bottom: "inception_3a/output"
  top: "inception_3b/1x1"
  param {
    lr_mult: 1
    decay_mult: 1
  }
  param {
    lr_mult: 2
    decay_mult: 0
  }
  convolution_param {
    num_output: 128
    kernel_size: 1
    weight_filler {
      type: "xavier"
      std: 0.03
    }
    bias_filler {
      type: "constant"
      value: 0.2
    }
  }
}
layer {
  name: "inception_3b/relu_1x1"
  type: "ReLU"
  bottom: "inception_3b/1x1"
  top: "inception_3b/1x1"
}
layer {
  name: "inception_3b/3x3_reduce"
  type: "Convolution"
  bottom: "inception_3a/output"
  top: "inception_3b/3x3_reduce"
  param {
    lr_mult: 1
    decay_mult: 1
  }
  param {
    lr_mult: 2
    decay_mult: 0
  }
  convolution_param {
    num_output: 128
    kernel_size: 1
    weight_filler {
      type: "xavier"
      std: 0.09
    }
    bias_filler {
      type: "constant"
      value: 0.2
    }
  }
}
layer {
  name: "inception_3b/relu_3x3_reduce"
  type: "ReLU"
  bottom: "inception_3b/3x3_reduce"
  top: "inception_3b/3x3_reduce"
}
layer {
  name: "inception_3b/3x3"
  type: "Convolution"
  bottom: "inception_3b/3x3_reduce"
  top: "inception_3b/3x3"
  param {
    lr_mult: 1
    decay_mult: 1
  }
  param {
    lr_mult: 2
    decay_mult: 0
  }
  convolution_param {
    num_output: 192
    pad: 1
    kernel_size: 3
    weight_filler {
      type: "xavier"
      std: 0.03
    }
    bias_filler {
      type: "constant"
      value: 0.2
    }
  }
}
layer {
  name: "inception_3b/relu_3x3"
  type: "ReLU"
  bottom: "inception_3b/3x3"
  top: "inception_3b/3x3"
}
layer {
  name: "inception_3b/5x5_reduce"
  type: "Convolution"
  bottom: "inception_3a/output"
  top: "inception_3b/5x5_reduce"
  param {
    lr_mult: 1
    decay_mult: 1
  }
  param {
    lr_mult: 2
    decay_mult: 0
  }
  convolution_param {
    num_output: 32
    kernel_size: 1
    weight_filler {
      type: "xavier"
      std: 0.2
    }
    bias_filler {
      type: "constant"
      value: 0.2
    }
  }
}
layer {
  name: "inception_3b/relu_5x5_reduce"
  type: "ReLU"
  bottom: "inception_3b/5x5_reduce"
  top: "inception_3b/5x5_reduce"
}
layer {
  name: "inception_3b/5x5"
  type: "Convolution"
  bottom: "inception_3b/5x5_reduce"
  top: "inception_3b/5x5"
  param {
    lr_mult: 1
    decay_mult: 1
  }
  param {
    lr_mult: 2
    decay_mult: 0
  }
  convolution_param {
    num_output: 96
    pad: 2
    kernel_size: 5
    weight_filler {
      type: "xavier"
      std: 0.03
    }
    bias_filler {
      type: "constant"
      value: 0.2
    }
  }
}
layer {
  name: "inception_3b/relu_5x5"
  type: "ReLU"
  bottom: "inception_3b/5x5"
  top: "inception_3b/5x5"
}
layer {
  name: "inception_3b/pool"
  type: "Pooling"
  bottom: "inception_3a/output"
  top: "inception_3b/pool"
  pooling_param {
    pool: MAX
    kernel_size: 3
    stride: 1
    pad: 1
  }
}
layer {
  name: "inception_3b/pool_proj"
  type: "Convolution"
  bottom: "inception_3b/pool"
  top: "inception_3b/pool_proj"
  param {
    lr_mult: 1
    decay_mult: 1
  }
  param {
    lr_mult: 2
    decay_mult: 0
  }
  convolution_param {
    num_output: 64
    kernel_size: 1
    weight_filler {
      type: "xavier"
      std: 0.1
    }
    bias_filler {
      type: "constant"
      value: 0.2
    }
  }
}
layer {
  name: "inception_3b/relu_pool_proj"
  type: "ReLU"
  bottom: "inception_3b/pool_proj"
  top: "inception_3b/pool_proj"
}
layer {
  name: "inception_3b/output"
  type: "Concat"
  bottom: "inception_3b/1x1"
  bottom: "inception_3b/3x3"
  bottom: "inception_3b/5x5"
  bottom: "inception_3b/pool_proj"
  top: "inception_3b/output"
}
layer {
  name: "pool3/3x3_s2"
  type: "Pooling"
  bottom: "inception_3b/output"
  top: "pool3/3x3_s2"
  pooling_param {
    pool: MAX
    kernel_size: 3
    stride: 2
  }
}
layer {
  name: "inception_4a/1x1"
  type: "Convolution"
  bottom: "pool3/3x3_s2"
  top: "inception_4a/1x1"
  param {
    lr_mult: 1
    decay_mult: 1
  }
  param {
    lr_mult: 2
    decay_mult: 0
  }
  convolution_param {
    num_output: 192
    kernel_size: 1
    weight_filler {
      type: "xavier"
      std: 0.03
    }
    bias_filler {
      type: "constant"
      value: 0.2
    }
  }
}
layer {
  name: "inception_4a/relu_1x1"
  type: "ReLU"
  bottom: "inception_4a/1x1"
  top: "inception_4a/1x1"
}
layer {
  name: "inception_4a/3x3_reduce"
  type: "Convolution"
  bottom: "pool3/3x3_s2"
  top: "inception_4a/3x3_reduce"
  param {
    lr_mult: 1
    decay_mult: 1
  }
  param {
    lr_mult: 2
    decay_mult: 0
  }
  convolution_param {
    num_output: 96
    kernel_size: 1
    weight_filler {
      type: "xavier"
      std: 0.09
    }
    bias_filler {
      type: "constant"
      value: 0.2
    }
  }
}
layer {
  name: "inception_4a/relu_3x3_reduce"
  type: "ReLU"
  bottom: "inception_4a/3x3_reduce"
  top: "inception_4a/3x3_reduce"
}
layer {
  name: "inception_4a/3x3"
  type: "Convolution"
  bottom: "inception_4a/3x3_reduce"
  top: "inception_4a/3x3"
  param {
    lr_mult: 1
    decay_mult: 1
  }
  param {
    lr_mult: 2
    decay_mult: 0
  }
  convolution_param {
    num_output: 208
    pad: 1
    kernel_size: 3
    weight_filler {
      type: "xavier"
      std: 0.03
    }
    bias_filler {
      type: "constant"
      value: 0.2
    }
  }
}
layer {
  name: "inception_4a/relu_3x3"
  type: "ReLU"
  bottom: "inception_4a/3x3"
  top: "inception_4a/3x3"
}
layer {
  name: "inception_4a/5x5_reduce"
  type: "Convolution"
  bottom: "pool3/3x3_s2"
  top: "inception_4a/5x5_reduce"
  param {
    lr_mult: 1
    decay_mult: 1
  }
  param {
    lr_mult: 2
    decay_mult: 0
  }
  convolution_param {
    num_output: 16
    kernel_size: 1
    weight_filler {
      type: "xavier"
      std: 0.2
    }
    bias_filler {
      type: "constant"
      value: 0.2
    }
  }
}
layer {
  name: "inception_4a/relu_5x5_reduce"
  type: "ReLU"
  bottom: "inception_4a/5x5_reduce"
  top: "inception_4a/5x5_reduce"
}
layer {
  name: "inception_4a/5x5"
  type: "Convolution"
  bottom: "inception_4a/5x5_reduce"
  top: "inception_4a/5x5"
  param {
    lr_mult: 1
    decay_mult: 1
  }
  param {
    lr_mult: 2
    decay_mult: 0
  }
  convolution_param {
    num_output: 48
    pad: 2
    kernel_size: 5
    weight_filler {
      type: "xavier"
      std: 0.03
    }
    bias_filler {
      type: "constant"
      value: 0.2
    }
  }
}
layer {
  name: "inception_4a/relu_5x5"
  type: "ReLU"
  bottom: "inception_4a/5x5"
  top: "inception_4a/5x5"
}
layer {
  name: "inception_4a/pool"
  type: "Pooling"
  bottom: "pool3/3x3_s2"
  top: "inception_4a/pool"
  pooling_param {
    pool: MAX
    kernel_size: 3
    stride: 1
    pad: 1
  }
}
layer {
  name: "inception_4a/pool_proj"
  type: "Convolution"
  bottom: "inception_4a/pool"
  top: "inception_4a/pool_proj"
  param {
    lr_mult: 1
    decay_mult: 1
  }
  param {
    lr_mult: 2
    decay_mult: 0
  }
  convolution_param {
    num_output: 64
    kernel_size: 1
    weight_filler {
      type: "xavier"
      std: 0.1
    }
    bias_filler {
      type: "constant"
      value: 0.2
    }
  }
}
layer {
  name: "inception_4a/relu_pool_proj"
  type: "ReLU"
  bottom: "inception_4a/pool_proj"
  top: "inception_4a/pool_proj"
}
layer {
  name: "inception_4a/output"
  type: "Concat"
  bottom: "inception_4a/1x1"
  bottom: "inception_4a/3x3"
  bottom: "inception_4a/5x5"
  bottom: "inception_4a/pool_proj"
  top: "inception_4a/output"
}
layer {
  name: "loss1/ave_pool"
  type: "Pooling"
  bottom: "inception_4a/output"
  top: "loss1/ave_pool"
  pooling_param {
    pool: AVE
    kernel_size: 5
    stride: 3
  }
}
layer {
  name: "loss1/conv"
  type: "Convolution"
  bottom: "loss1/ave_pool"
  top: "loss1/conv"
  param {
    lr_mult: 1
    decay_mult: 1
  }
  param {
    lr_mult: 2
    decay_mult: 0
  }
  convolution_param {
    num_output: 128
    kernel_size: 1
    weight_filler {
      type: "xavier"
      std: 0.08
    }
    bias_filler {
      type: "constant"
      value: 0.2
    }
  }
}
layer {
  name: "loss1/relu_conv"
  type: "ReLU"
  bottom: "loss1/conv"
  top: "loss1/conv"
}
layer {
  name: "loss1/fc"
  type: "InnerProduct"
  bottom: "loss1/conv"
  top: "loss1/fc"
  param {
    lr_mult: 1
    decay_mult: 1
  }
  param {
    lr_mult: 2
    decay_mult: 0
  }
  inner_product_param {
    num_output: 1024
    weight_filler {
      type: "xavier"
      std: 0.02
    }
    bias_filler {
      type: "constant"
      value: 0.2
    }
  }
}
layer {
  name: "loss1/relu_fc"
  type: "ReLU"
  bottom: "loss1/fc"
  top: "loss1/fc"
}
layer {
  name: "loss1/drop_fc"
  type: "Dropout"
  bottom: "loss1/fc"
  top: "loss1/fc"
  dropout_param {
    dropout_ratio: 0.7
  }
}
layer {
  name: "loss1/classifier_kaggle"
  type: "InnerProduct"
  bottom: "loss1/fc"
  top: "loss1/classifier_kaggle"
  param {
    lr_mult: 1
    decay_mult: 1
  }
  param {
    lr_mult: 2
    decay_mult: 0
  }
  inner_product_param {
    num_output: 447
    weight_filler {
      type: "xavier"
      std: 0.0009765625
    }
    bias_filler {
      type: "constant"
      value: 0
    }
  }
}
layer {
  name: "loss1/loss"
  type: "SoftmaxWithLoss"
  bottom: "loss1/classifier_kaggle"
  bottom: "label"
  top: "loss1/loss1"
  loss_weight: 0.3
}
layer {
  name: "loss1/top-1"
  type: "Accuracy"
  bottom: "loss1/classifier_kaggle"
  bottom: "label"
  top: "loss1/top-1"
  include {
    phase: TEST
  }
}
layer {
  name: "loss1/top-5"
  type: "Accuracy"
  bottom: "loss1/classifier_kaggle"
  bottom: "label"
  top: "loss1/top-5"
  include {
    phase: TEST
  }
  accuracy_param {
    top_k: 5
  }
}
layer {
  name: "inception_4b/1x1"
  type: "Convolution"
  bottom: "inception_4a/output"
  top: "inception_4b/1x1"
  param {
    lr_mult: 1
    decay_mult: 1
  }
  param {
    lr_mult: 2
    decay_mult: 0
  }
  convolution_param {
    num_output: 160
    kernel_size: 1
    weight_filler {
      type: "xavier"
      std: 0.03
    }
    bias_filler {
      type: "constant"
      value: 0.2
    }
  }
}
layer {
  name: "inception_4b/relu_1x1"
  type: "ReLU"
  bottom: "inception_4b/1x1"
  top: "inception_4b/1x1"
}
layer {
  name: "inception_4b/3x3_reduce"
  type: "Convolution"
  bottom: "inception_4a/output"
  top: "inception_4b/3x3_reduce"
  param {
    lr_mult: 1
    decay_mult: 1
  }
  param {
    lr_mult: 2
    decay_mult: 0
  }
  convolution_param {
    num_output: 112
    kernel_size: 1
    weight_filler {
      type: "xavier"
      std: 0.09
    }
    bias_filler {
      type: "constant"
      value: 0.2
    }
  }
}
layer {
  name: "inception_4b/relu_3x3_reduce"
  type: "ReLU"
  bottom: "inception_4b/3x3_reduce"
  top: "inception_4b/3x3_reduce"
}
layer {
  name: "inception_4b/3x3"
  type: "Convolution"
  bottom: "inception_4b/3x3_reduce"
  top: "inception_4b/3x3"
  param {
    lr_mult: 1
    decay_mult: 1
  }
  param {
    lr_mult: 2
    decay_mult: 0
  }
  convolution_param {
    num_output: 224
    pad: 1
    kernel_size: 3
    weight_filler {
      type: "xavier"
      std: 0.03
    }
    bias_filler {
      type: "constant"
      value: 0.2
    }
  }
}
layer {
  name: "inception_4b/relu_3x3"
  type: "ReLU"
  bottom: "inception_4b/3x3"
  top: "inception_4b/3x3"
}
layer {
  name: "inception_4b/5x5_reduce"
  type: "Convolution"
  bottom: "inception_4a/output"
  top: "inception_4b/5x5_reduce"
  param {
    lr_mult: 1
    decay_mult: 1
  }
  param {
    lr_mult: 2
    decay_mult: 0
  }
  convolution_param {
    num_output: 24
    kernel_size: 1
    weight_filler {
      type: "xavier"
      std: 0.2
    }
    bias_filler {
      type: "constant"
      value: 0.2
    }
  }
}
layer {
  name: "inception_4b/relu_5x5_reduce"
  type: "ReLU"
  bottom: "inception_4b/5x5_reduce"
  top: "inception_4b/5x5_reduce"
}
layer {
  name: "inception_4b/5x5"
  type: "Convolution"
  bottom: "inception_4b/5x5_reduce"
  top: "inception_4b/5x5"
  param {
    lr_mult: 1
    decay_mult: 1
  }
  param {
    lr_mult: 2
    decay_mult: 0
  }
  convolution_param {
    num_output: 64
    pad: 2
    kernel_size: 5
    weight_filler {
      type: "xavier"
      std: 0.03
    }
    bias_filler {
      type: "constant"
      value: 0.2
    }
  }
}
layer {
  name: "inception_4b/relu_5x5"
  type: "ReLU"
  bottom: "inception_4b/5x5"
  top: "inception_4b/5x5"
}
layer {
  name: "inception_4b/pool"
  type: "Pooling"
  bottom: "inception_4a/output"
  top: "inception_4b/pool"
  pooling_param {
    pool: MAX
    kernel_size: 3
    stride: 1
    pad: 1
  }
}
layer {
  name: "inception_4b/pool_proj"
  type: "Convolution"
  bottom: "inception_4b/pool"
  top: "inception_4b/pool_proj"
  param {
    lr_mult: 1
    decay_mult: 1
  }
  param {
    lr_mult: 2
    decay_mult: 0
  }
  convolution_param {
    num_output: 64
    kernel_size: 1
    weight_filler {
      type: "xavier"
      std: 0.1
    }
    bias_filler {
      type: "constant"
      value: 0.2
    }
  }
}
layer {
  name: "inception_4b/relu_pool_proj"
  type: "ReLU"
  bottom: "inception_4b/pool_proj"
  top: "inception_4b/pool_proj"
}
layer {
  name: "inception_4b/output"
  type: "Concat"
  bottom: "inception_4b/1x1"
  bottom: "inception_4b/3x3"
  bottom: "inception_4b/5x5"
  bottom: "inception_4b/pool_proj"
  top: "inception_4b/output"
}
layer {
  name: "inception_4c/1x1"
  type: "Convolution"
  bottom: "inception_4b/output"
  top: "inception_4c/1x1"
  param {
    lr_mult: 1
    decay_mult: 1
  }
  param {
    lr_mult: 2
    decay_mult: 0
  }
  convolution_param {
    num_output: 128
    kernel_size: 1
    weight_filler {
      type: "xavier"
      std: 0.03
    }
    bias_filler {
      type: "constant"
      value: 0.2
    }
  }
}
layer {
  name: "inception_4c/relu_1x1"
  type: "ReLU"
  bottom: "inception_4c/1x1"
  top: "inception_4c/1x1"
}
layer {
  name: "inception_4c/3x3_reduce"
  type: "Convolution"
  bottom: "inception_4b/output"
  top: "inception_4c/3x3_reduce"
  param {
    lr_mult: 1
    decay_mult: 1
  }
  param {
    lr_mult: 2
    decay_mult: 0
  }
  convolution_param {
    num_output: 128
    kernel_size: 1
    weight_filler {
      type: "xavier"
      std: 0.09
    }
    bias_filler {
      type: "constant"
      value: 0.2
    }
  }
}
layer {
  name: "inception_4c/relu_3x3_reduce"
  type: "ReLU"
  bottom: "inception_4c/3x3_reduce"
  top: "inception_4c/3x3_reduce"
}
layer {
  name: "inception_4c/3x3"
  type: "Convolution"
  bottom: "inception_4c/3x3_reduce"
  top: "inception_4c/3x3"
  param {
    lr_mult: 1
    decay_mult: 1
  }
  param {
    lr_mult: 2
    decay_mult: 0
  }
  convolution_param {
    num_output: 256
    pad: 1
    kernel_size: 3
    weight_filler {
      type: "xavier"
      std: 0.03
    }
    bias_filler {
      type: "constant"
      value: 0.2
    }
  }
}
layer {
  name: "inception_4c/relu_3x3"
  type: "ReLU"
  bottom: "inception_4c/3x3"
  top: "inception_4c/3x3"
}
layer {
  name: "inception_4c/5x5_reduce"
  type: "Convolution"
  bottom: "inception_4b/output"
  top: "inception_4c/5x5_reduce"
  param {
    lr_mult: 1
    decay_mult: 1
  }
  param {
    lr_mult: 2
    decay_mult: 0
  }
  convolution_param {
    num_output: 24
    kernel_size: 1
    weight_filler {
      type: "xavier"
      std: 0.2
    }
    bias_filler {
      type: "constant"
      value: 0.2
    }
  }
}
layer {
  name: "inception_4c/relu_5x5_reduce"
  type: "ReLU"
  bottom: "inception_4c/5x5_reduce"
  top: "inception_4c/5x5_reduce"
}
layer {
  name: "inception_4c/5x5"
  type: "Convolution"
  bottom: "inception_4c/5x5_reduce"
  top: "inception_4c/5x5"
  param {
    lr_mult: 1
    decay_mult: 1
  }
  param {
    lr_mult: 2
    decay_mult: 0
  }
  convolution_param {
    num_output: 64
    pad: 2
    kernel_size: 5
    weight_filler {
      type: "xavier"
      std: 0.03
    }
    bias_filler {
      type: "constant"
      value: 0.2
    }
  }
}
layer {
  name: "inception_4c/relu_5x5"
  type: "ReLU"
  bottom: "inception_4c/5x5"
  top: "inception_4c/5x5"
}
layer {
  name: "inception_4c/pool"
  type: "Pooling"
  bottom: "inception_4b/output"
  top: "inception_4c/pool"
  pooling_param {
    pool: MAX
    kernel_size: 3
    stride: 1
    pad: 1
  }
}
layer {
  name: "inception_4c/pool_proj"
  type: "Convolution"
  bottom: "inception_4c/pool"
  top: "inception_4c/pool_proj"
  param {
    lr_mult: 1
    decay_mult: 1
  }
  param {
    lr_mult: 2
    decay_mult: 0
  }
  convolution_param {
    num_output: 64
    kernel_size: 1
    weight_filler {
      type: "xavier"
      std: 0.1
    }
    bias_filler {
      type: "constant"
      value: 0.2
    }
  }
}
layer {
  name: "inception_4c/relu_pool_proj"
  type: "ReLU"
  bottom: "inception_4c/pool_proj"
  top: "inception_4c/pool_proj"
}
layer {
  name: "inception_4c/output"
  type: "Concat"
  bottom: "inception_4c/1x1"
  bottom: "inception_4c/3x3"
  bottom: "inception_4c/5x5"
  bottom: "inception_4c/pool_proj"
  top: "inception_4c/output"
}
layer {
  name: "inception_4d/1x1"
  type: "Convolution"
  bottom: "inception_4c/output"
  top: "inception_4d/1x1"
  param {
    lr_mult: 1
    decay_mult: 1
  }
  param {
    lr_mult: 2
    decay_mult: 0
  }
  convolution_param {
    num_output: 112
    kernel_size: 1
    weight_filler {
      type: "xavier"
      std: 0.03
    }
    bias_filler {
      type: "constant"
      value: 0.2
    }
  }
}
layer {
  name: "inception_4d/relu_1x1"
  type: "ReLU"
  bottom: "inception_4d/1x1"
  top: "inception_4d/1x1"
}
layer {
  name: "inception_4d/3x3_reduce"
  type: "Convolution"
  bottom: "inception_4c/output"
  top: "inception_4d/3x3_reduce"
  param {
    lr_mult: 1
    decay_mult: 1
  }
  param {
    lr_mult: 2
    decay_mult: 0
  }
  convolution_param {
    num_output: 144
    kernel_size: 1
    weight_filler {
      type: "xavier"
      std: 0.09
    }
    bias_filler {
      type: "constant"
      value: 0.2
    }
  }
}
layer {
  name: "inception_4d/relu_3x3_reduce"
  type: "ReLU"
  bottom: "inception_4d/3x3_reduce"
  top: "inception_4d/3x3_reduce"
}
layer {
  name: "inception_4d/3x3"
  type: "Convolution"
  bottom: "inception_4d/3x3_reduce"
  top: "inception_4d/3x3"
  param {
    lr_mult: 1
    decay_mult: 1
  }
  param {
    lr_mult: 2
    decay_mult: 0
  }
  convolution_param {
    num_output: 288
    pad: 1
    kernel_size: 3
    weight_filler {
      type: "xavier"
      std: 0.03
    }
    bias_filler {
      type: "constant"
      value: 0.2
    }
  }
}
layer {
  name: "inception_4d/relu_3x3"
  type: "ReLU"
  bottom: "inception_4d/3x3"
  top: "inception_4d/3x3"
}
layer {
  name: "inception_4d/5x5_reduce"
  type: "Convolution"
  bottom: "inception_4c/output"
  top: "inception_4d/5x5_reduce"
  param {
    lr_mult: 1
    decay_mult: 1
  }
  param {
    lr_mult: 2
    decay_mult: 0
  }
  convolution_param {
    num_output: 32
    kernel_size: 1
    weight_filler {
      type: "xavier"
      std: 0.2
    }
    bias_filler {
      type: "constant"
      value: 0.2
    }
  }
}
layer {
  name: "inception_4d/relu_5x5_reduce"
  type: "ReLU"
  bottom: "inception_4d/5x5_reduce"
  top: "inception_4d/5x5_reduce"
}
layer {
  name: "inception_4d/5x5"
  type: "Convolution"
  bottom: "inception_4d/5x5_reduce"
  top: "inception_4d/5x5"
  param {
    lr_mult: 1
    decay_mult: 1
  }
  param {
    lr_mult: 2
    decay_mult: 0
  }
  convolution_param {
    num_output: 64
    pad: 2
    kernel_size: 5
    weight_filler {
      type: "xavier"
      std: 0.03
    }
    bias_filler {
      type: "constant"
      value: 0.2
    }
  }
}
layer {
  name: "inception_4d/relu_5x5"
  type: "ReLU"
  bottom: "inception_4d/5x5"
  top: "inception_4d/5x5"
}
layer {
  name: "inception_4d/pool"
  type: "Pooling"
  bottom: "inception_4c/output"
  top: "inception_4d/pool"
  pooling_param {
    pool: MAX
    kernel_size: 3
    stride: 1
    pad: 1
  }
}
layer {
  name: "inception_4d/pool_proj"
  type: "Convolution"
  bottom: "inception_4d/pool"
  top: "inception_4d/pool_proj"
  param {
    lr_mult: 1
    decay_mult: 1
  }
  param {
    lr_mult: 2
    decay_mult: 0
  }
  convolution_param {
    num_output: 64
    kernel_size: 1
    weight_filler {
      type: "xavier"
      std: 0.1
    }
    bias_filler {
      type: "constant"
      value: 0.2
    }
  }
}
layer {
  name: "inception_4d/relu_pool_proj"
  type: "ReLU"
  bottom: "inception_4d/pool_proj"
  top: "inception_4d/pool_proj"
}
layer {
…
I1214 21:27:38.196082 25444 net.cpp:84] Creating Layer inception_4c/1x1
I1214 21:27:38.196089 25444 net.cpp:380] inception_4c/1x1 <- inception_4b/output_inception_4b/output_0_split_0
I1214 21:27:38.196100 25444 net.cpp:338] inception_4c/1x1 -> inception_4c/1x1
I1214 21:27:38.196107 25444 net.cpp:113] Setting up inception_4c/1x1
I1214 21:27:38.197688 25444 net.cpp:120] Top shape: 50 128 14 14 (1254400)
I1214 21:27:38.197710 25444 layer_factory.hpp:74] Creating layer inception_4c/relu_1x1
I1214 21:27:38.197717 25444 net.cpp:84] Creating Layer inception_4c/relu_1x1
I1214 21:27:38.197722 25444 net.cpp:380] inception_4c/relu_1x1 <- inception_4c/1x1
I1214 21:27:38.197731 25444 net.cpp:327] inception_4c/relu_1x1 -> inception_4c/1x1 (in-place)
I1214 21:27:38.197737 25444 net.cpp:113] Setting up inception_4c/relu_1x1
I1214 21:27:38.198303 25444 net.cpp:120] Top shape: 50 128 14 14 (1254400)
I1214 21:27:38.198318 25444 layer_factory.hpp:74] Creating layer inception_4c/3x3_reduce
I1214 21:27:38.198333 25444 net.cpp:84] Creating Layer inception_4c/3x3_reduce
I1214 21:27:38.198341 25444 net.cpp:380] inception_4c/3x3_reduce <- inception_4b/output_inception_4b/output_0_split_1
I1214 21:27:38.198354 25444 net.cpp:338] inception_4c/3x3_reduce -> inception_4c/3x3_reduce
I1214 21:27:38.198374 25444 net.cpp:113] Setting up inception_4c/3x3_reduce
I1214 21:27:38.199954 25444 net.cpp:120] Top shape: 50 128 14 14 (1254400)
I1214 21:27:38.199970 25444 layer_factory.hpp:74] Creating layer inception_4c/relu_3x3_reduce
I1214 21:27:38.199982 25444 net.cpp:84] Creating Layer inception_4c/relu_3x3_reduce
I1214 21:27:38.199990 25444 net.cpp:380] inception_4c/relu_3x3_reduce <- inception_4c/3x3_reduce
I1214 21:27:38.200000 25444 net.cpp:327] inception_4c/relu_3x3_reduce -> inception_4c/3x3_reduce (in-place)
I1214 21:27:38.200012 25444 net.cpp:113] Setting up inception_4c/relu_3x3_reduce
I1214 21:27:38.200109 25444 net.cpp:120] Top shape: 50 128 14 14 (1254400)
I1214 21:27:38.200119 25444 layer_factory.hpp:74] Creating layer inception_4c/3x3
I1214 21:27:38.200134 25444 net.cpp:84] Creating Layer inception_4c/3x3
I1214 21:27:38.200139 25444 net.cpp:380] inception_4c/3x3 <- inception_4c/3x3_reduce
I1214 21:27:38.200146 25444 net.cpp:338] inception_4c/3x3 -> inception_4c/3x3
I1214 21:27:38.200155 25444 net.cpp:113] Setting up inception_4c/3x3
I1214 21:27:38.204319 25444 net.cpp:120] Top shape: 50 256 14 14 (2508800)
I1214 21:27:38.204351 25444 layer_factory.hpp:74] Creating layer inception_4c/relu_3x3
I1214 21:27:38.204370 25444 net.cpp:84] Creating Layer inception_4c/relu_3x3
I1214 21:27:38.204380 25444 net.cpp:380] inception_4c/relu_3x3 <- inception_4c/3x3
I1214 21:27:38.204388 25444 net.cpp:327] inception_4c/relu_3x3 -> inception_4c/3x3 (in-place)
I1214 21:27:38.204399 25444 net.cpp:113] Setting up inception_4c/relu_3x3
I1214 21:27:38.204484 25444 net.cpp:120] Top shape: 50 256 14 14 (2508800)
I1214 21:27:38.204495 25444 layer_factory.hpp:74] Creating layer inception_4c/5x5_reduce
I1214 21:27:38.204505 25444 net.cpp:84] Creating Layer inception_4c/5x5_reduce
I1214 21:27:38.204514 25444 net.cpp:380] inception_4c/5x5_reduce <- inception_4b/output_inception_4b/output_0_split_2
I1214 21:27:38.204525 25444 net.cpp:338] inception_4c/5x5_reduce -> inception_4c/5x5_reduce
I1214 21:27:38.204537 25444 net.cpp:113] Setting up inception_4c/5x5_reduce
I1214 21:27:38.208832 25444 net.cpp:120] Top shape: 50 24 14 14 (235200)
I1214 21:27:38.208848 25444 layer_factory.hpp:74] Creating layer inception_4c/relu_5x5_reduce
I1214 21:27:38.208855 25444 net.cpp:84] Creating Layer inception_4c/relu_5x5_reduce
I1214 21:27:38.208863 25444 net.cpp:380] inception_4c/relu_5x5_reduce <- inception_4c/5x5_reduce
I1214 21:27:38.208873 25444 net.cpp:327] inception_4c/relu_5x5_reduce -> inception_4c/5x5_reduce (in-place)
I1214 21:27:38.208884 25444 net.cpp:113] Setting up inception_4c/relu_5x5_reduce
I1214 21:27:38.209748 25444 net.cpp:120] Top shape: 50 24 14 14 (235200)
I1214 21:27:38.209760 25444 layer_factory.hpp:74] Creating layer inception_4c/5x5
I1214 21:27:38.209770 25444 net.cpp:84] Creating Layer inception_4c/5x5
I1214 21:27:38.209775 25444 net.cpp:380] inception_4c/5x5 <- inception_4c/5x5_reduce
I1214 21:27:38.209784 25444 net.cpp:338] inception_4c/5x5 -> inception_4c/5x5
I1214 21:27:38.209791 25444 net.cpp:113] Setting up inception_4c/5x5
I1214 21:27:38.210950 25444 net.cpp:120] Top shape: 50 64 14 14 (627200)
I1214 21:27:38.210970 25444 layer_factory.hpp:74] Creating layer inception_4c/relu_5x5
I1214 21:27:38.210983 25444 net.cpp:84] Creating Layer inception_4c/relu_5x5
I1214 21:27:38.210990 25444 net.cpp:380] inception_4c/relu_5x5 <- inception_4c/5x5
I1214 21:27:38.211000 25444 net.cpp:327] inception_4c/relu_5x5 -> inception_4c/5x5 (in-place)
I1214 21:27:38.211010 25444 net.cpp:113] Setting up inception_4c/relu_5x5
I1214 21:27:38.211107 25444 net.cpp:120] Top shape: 50 64 14 14 (627200)
I1214 21:27:38.211115 25444 layer_factory.hpp:74] Creating layer inception_4c/pool
I1214 21:27:38.211120 25444 layer_factory.cpp:56] CUDNN does not support padding or multiple tops. Using Caffe's own pooling layer.
I1214 21:27:38.211127 25444 net.cpp:84] Creating Layer inception_4c/pool
I1214 21:27:38.211133 25444 net.cpp:380] inception_4c/pool <- inception_4b/output_inception_4b/output_0_split_3
I1214 21:27:38.211141 25444 net.cpp:338] inception_4c/pool -> inception_4c/pool
I1214 21:27:38.211160 25444 net.cpp:113] Setting up inception_4c/pool
I1214 21:27:38.211180 25444 net.cpp:120] Top shape: 50 512 14 14 (5017600)
I1214 21:27:38.211187 25444 layer_factory.hpp:74] Creating layer inception_4c/pool_proj
I1214 21:27:38.211199 25444 net.cpp:84] Creating Layer inception_4c/pool_proj
I1214 21:27:38.211205 25444 net.cpp:380] inception_4c/pool_proj <- inception_4c/pool
I1214 21:27:38.211217 25444 net.cpp:338] inception_4c/pool_proj -> inception_4c/pool_proj
I1214 21:27:38.211228 25444 net.cpp:113] Setting up inception_4c/pool_proj
I1214 21:27:38.212434 25444 net.cpp:120] Top shape: 50 64 14 14 (627200)
I1214 21:27:38.212455 25444 layer_factory.hpp:74] Creating layer inception_4c/relu_pool_proj
I1214 21:27:38.212465 25444 net.cpp:84] Creating Layer inception_4c/relu_pool_proj
I1214 21:27:38.212471 25444 net.cpp:380] inception_4c/relu_pool_proj <- inception_4c/pool_proj
I1214 21:27:38.212481 25444 net.cpp:327] inception_4c/relu_pool_proj -> inception_4c/pool_proj (in-place)
I1214 21:27:38.212491 25444 net.cpp:113] Setting up inception_4c/relu_pool_proj
I1214 21:27:38.212568 25444 net.cpp:120] Top shape: 50 64 14 14 (627200)
I1214 21:27:38.212579 25444 layer_factory.hpp:74] Creating layer inception_4c/output
I1214 21:27:38.212587 25444 net.cpp:84] Creating Layer inception_4c/output
I1214 21:27:38.212592 25444 net.cpp:380] inception_4c/output <- inception_4c/1x1
I1214 21:27:38.212597 25444 net.cpp:380] inception_4c/output <- inception_4c/3x3
I1214 21:27:38.212602 25444 net.cpp:380] inception_4c/output <- inception_4c/5x5
I1214 21:27:38.212610 25444 net.cpp:380] inception_4c/output <- inception_4c/pool_proj
I1214 21:27:38.212617 25444 net.cpp:338] inception_4c/output -> inception_4c/output
I1214 21:27:38.212628 25444 net.cpp:113] Setting up inception_4c/output
I1214 21:27:38.212638 25444 net.cpp:120] Top shape: 50 512 14 14 (5017600)
I1214 21:27:38.212646 25444 layer_factory.hpp:74] Creating layer inception_4c/output_inception_4c/output_0_split
I1214 21:27:38.212653 25444 net.cpp:84] Creating Layer inception_4c/output_inception_4c/output_0_split
I1214 21:27:38.212661 25444 net.cpp:380] inception_4c/output_inception_4c/output_0_split <- inception_4c/output
I1214 21:27:38.212671 25444 net.cpp:338] inception_4c/output_inception_4c/output_0_split -> inception_4c/output_inception_4c/output_0_split_0
I1214 21:27:38.212682 25444 net.cpp:338] inception_4c/output_inception_4c/output_0_split -> inception_4c/output_inception_4c/output_0_split_1
I1214 21:27:38.212692 25444 net.cpp:338] inception_4c/output_inception_4c/output_0_split -> inception_4c/output_inception_4c/output_0_split_2
I1214 21:27:38.212702 25444 net.cpp:338] inception_4c/output_inception_4c/output_0_split -> inception_4c/output_inception_4c/output_0_split_3
I1214 21:27:38.212710 25444 net.cpp:113] Setting up inception_4c/output_inception_4c/output_0_split
I1214 21:27:38.212723 25444 net.cpp:120] Top shape: 50 512 14 14 (5017600)
I1214 21:27:38.212730 25444 net.cpp:120] Top shape: 50 512 14 14 (5017600)
I1214 21:27:38.212735 25444 net.cpp:120] Top shape: 50 512 14 14 (5017600)
I1214 21:27:38.212739 25444 net.cpp:120] Top shape: 50 512 14 14 (5017600)
I1214 21:27:38.212743 25444 layer_factory.hpp:74] Creating layer inception_4d/1x1
I1214 21:27:38.212749 25444 net.cpp:84] Creating Layer inception_4d/1x1
I1214 21:27:38.212754 25444 net.cpp:380] inception_4d/1x1 <- inception_4c/output_inception_4c/output_0_split_0
I1214 21:27:38.212761 25444 net.cpp:338] inception_4d/1x1 -> inception_4d/1x1
I1214 21:27:38.212769 25444 net.cpp:113] Setting up inception_4d/1x1
I1214 21:27:38.214567 25444 net.cpp:120] Top shape: 50 112 14 14 (1097600)
I1214 21:27:38.214587 25444 layer_factory.hpp:74] Creating layer inception_4d/relu_1x1
I1214 21:27:38.214598 25444 net.cpp:84] Creating Layer inception_4d/relu_1x1
I1214 21:27:38.214606 25444 net.cpp:380] inception_4d/relu_1x1 <- inception_4d/1x1
I1214 21:27:38.214614 25444 net.cpp:327] inception_4d/relu_1x1 -> inception_4d/1x1 (in-place)
I1214 21:27:38.214623 25444 net.cpp:113] Setting up inception_4d/relu_1x1
I1214 21:27:38.214714 25444 net.cpp:120] Top shape: 50 112 14 14 (1097600)
I1214 21:27:38.214735 25444 layer_factory.hpp:74] Creating layer inception_4d/3x3_reduce
I1214 21:27:38.214747 25444 net.cpp:84] Creating Layer inception_4d/3x3_reduce
I1214 21:27:38.214754 25444 net.cpp:380] inception_4d/3x3_reduce <- inception_4c/output_inception_4c/output_0_split_1
I1214 21:27:38.214767 25444 net.cpp:338] inception_4d/3x3_reduce -> inception_4d/3x3_reduce
I1214 21:27:38.214781 25444 net.cpp:113] Setting up inception_4d/3x3_reduce
I1214 21:27:38.216153 25444 net.cpp:120] Top shape: 50 144 14 14 (1411200)
I1214 21:27:38.216172 25444 layer_factory.hpp:74] Creating layer inception_4d/relu_3x3_reduce
I1214 21:27:38.216183 25444 net.cpp:84] Creating Layer inception_4d/relu_3x3_reduce
I1214 21:27:38.216192 25444 net.cpp:380] inception_4d/relu_3x3_reduce <- inception_4d/3x3_reduce
I1214 21:27:38.216202 25444 net.cpp:327] inception_4d/relu_3x3_reduce -> inception_4d/3x3_reduce (in-place)
I1214 21:27:38.216212 25444 net.cpp:113] Setting up inception_4d/relu_3x3_reduce
I1214 21:27:38.216722 25444 net.cpp:120] Top shape: 50 144 14 14 (1411200)
I1214 21:27:38.216737 25444 layer_factory.hpp:74] Creating layer inception_4d/3x3
I1214 21:27:38.216748 25444 net.cpp:84] Creating Layer inception_4d/3x3
I1214 21:27:38.216756 25444 net.cpp:380] inception_4d/3x3 <- inception_4d/3x3_reduce
I1214 21:27:38.216769 25444 net.cpp:338] inception_4d/3x3 -> inception_4d/3x3
I1214 21:27:38.216783 25444 net.cpp:113] Setting up inception_4d/3x3
I1214 21:27:38.221695 25444 net.cpp:120] Top shape: 50 288 14 14 (2822400)
I1214 21:27:38.221719 25444 layer_factory.hpp:74] Creating layer inception_4d/relu_3x3
I1214 21:27:38.221731 25444 net.cpp:84] Creating Layer inception_4d/relu_3x3
I1214 21:27:38.221740 25444 net.cpp:380] inception_4d/relu_3x3 <- inception_4d/3x3
I1214 21:27:38.221748 25444 net.cpp:327] inception_4d/relu_3x3 -> inception_4d/3x3 (in-place)
I1214 21:27:38.221758 25444 net.cpp:113] Setting up inception_4d/relu_3x3
I1214 21:27:38.221840 25444 net.cpp:120] Top shape: 50 288 14 14 (2822400)
I1214 21:27:38.221849 25444 layer_factory.hpp:74] Creating layer inception_4d/5x5_reduce
I1214 21:27:38.221866 25444 net.cpp:84] Creating Layer inception_4d/5x5_reduce
I1214 21:27:38.221874 25444 net.cpp:380] inception_4d/5x5_reduce <- inception_4c/output_inception_4c/output_0_split_2
I1214 21:27:38.221885 25444 net.cpp:338] inception_4d/5x5_reduce -> inception_4d/5x5_reduce
I1214 21:27:38.221896 25444 net.cpp:113] Setting up inception_4d/5x5_reduce
I1214 21:27:38.222699 25444 net.cpp:120] Top shape: 50 32 14 14 (313600)
I1214 21:27:38.222718 25444 layer_factory.hpp:74] Creating layer inception_4d/relu_5x5_reduce
I1214 21:27:38.222729 25444 net.cpp:84] Creating Layer inception_4d/relu_5x5_reduce
I1214 21:27:38.222738 25444 net.cpp:380] inception_4d/relu_5x5_reduce <- inception_4d/5x5_reduce
I1214 21:27:38.222749 25444 net.cpp:327] inception_4d/relu_5x5_reduce -> inception_4d/5x5_reduce (in-place)
I1214 21:27:38.222761 25444 net.cpp:113] Setting up inception_4d/relu_5x5_reduce
I1214 21:27:38.222852 25444 net.cpp:120] Top shape: 50 32 14 14 (313600)
I1214 21:27:38.222864 25444 layer_factory.hpp:74] Creating layer inception_4d/5x5
I1214 21:27:38.222874 25444 net.cpp:84] Creating Layer inception_4d/5x5
I1214 21:27:38.222880 25444 net.cpp:380] inception_4d/5x5 <- inception_4d/5x5_reduce
I1214 21:27:38.222893 25444 net.cpp:338] inception_4d/5x5 -> inception_4d/5x5
I1214 21:27:38.222905 25444 net.cpp:113] Setting up inception_4d/5x5
I1214 21:27:38.224257 25444 net.cpp:120] Top shape: 50 64 14 14 (627200)
I1214 21:27:38.224277 25444 layer_factory.hpp:74] Creating layer inception_4d/relu_5x5
I1214 21:27:38.224287 25444 net.cpp:84] Creating Layer inception_4d/relu_5x5
I1214 21:27:38.224292 25444 net.cpp:380] inception_4d/relu_5x5 <- inception_4d/5x5
I1214 21:27:38.224299 25444 net.cpp:327] inception_4d/relu_5x5 -> inception_4d/5x5 (in-place)
I1214 21:27:38.224306 25444 net.cpp:113] Setting up inception_4d/relu_5x5
I1214 21:27:38.224395 25444 net.cpp:120] Top shape: 50 64 14 14 (627200)
I1214 21:27:38.224412 25444 layer_factory.hpp:74] Creating layer inception_4d/pool
I1214 21:27:38.224429 25444 layer_factory.cpp:56] CUDNN does not support padding or multiple tops. Using Caffe's own pooling layer.
I1214 21:27:38.224442 25444 net.cpp:84] Creating Layer inception_4d/pool
I1214 21:27:38.224447 25444 net.cpp:380] inception_4d/pool <- inception_4c/output_inception_4c/output_0_split_3
I1214 21:27:38.224454 25444 net.cpp:338] inception_4d/pool -> inception_4d/pool
I1214 21:27:38.224462 25444 net.cpp:113] Setting up inception_4d/pool
I1214 21:27:38.224470 25444 net.cpp:120] Top shape: 50 512 14 14 (5017600)
I1214 21:27:38.224474 25444 layer_factory.hpp:74] Creating layer inception_4d/pool_proj
I1214 21:27:38.224481 25444 net.cpp:84] Creating Layer inception_4d/pool_proj
I1214 21:27:38.224485 25444 net.cpp:380] inception_4d/pool_proj <- inception_4d/pool
I1214 21:27:38.224491 25444 net.cpp:338] inception_4d/pool_proj -> inception_4d/pool_proj
I1214 21:27:38.224498 25444 net.cpp:113] Setting up inception_4d/pool_proj
I1214 21:27:38.225607 25444 net.cpp:120] Top shape: 50 64 14 14 (627200)
I1214 21:27:38.225628 25444 layer_factory.hpp:74] Creating layer inception_4d/relu_pool_proj
I1214 21:27:38.225641 25444 net.cpp:84] Creating Layer inception_4d/relu_pool_proj
I1214 21:27:38.225651 25444 net.cpp:380] inception_4d/relu_pool_proj <- inception_4d/pool_proj
I1214 21:27:38.225661 25444 net.cpp:327] inception_4d/relu_pool_proj -> inception_4d/pool_proj (in-place)
I1214 21:27:38.225672 25444 net.cpp:113] Setting up inception_4d/relu_pool_proj
I1214 21:27:38.226238 25444 net.cpp:120] Top shape: 50 64 14 14 (627200)
I1214 21:27:38.226253 25444 layer_factory.hpp:74] Creating layer inception_4d/output
I1214 21:27:38.226263 25444 net.cpp:84] Creating Layer inception_4d/output
I1214 21:27:38.226270 25444 net.cpp:380] inception_4d/output <- inception_4d/1x1
I1214 21:27:38.226280 25444 net.cpp:380] inception_4d/output <- inception_4d/3x3
I1214 21:27:38.226287 25444 net.cpp:380] inception_4d/output <- inception_4d/5x5
I1214 21:27:38.226295 25444 net.cpp:380] inception_4d/output <- inception_4d/pool_proj
I1214 21:27:38.226306 25444 net.cpp:338] inception_4d/output -> inception_4d/output
I1214 21:27:38.226317 25444 net.cpp:113] Setting up inception_4d/output
I1214 21:27:38.226330 25444 net.cpp:120] Top shape: 50 528 14 14 (5174400)
I1214 21:27:38.226336 25444 layer_factory.hpp:74] Creating layer inception_4d/output_inception_4d/output_0_split
I1214 21:27:38.226346 25444 net.cpp:84] Creating Layer inception_4d/output_inception_4d/output_0_split
I1214 21:27:38.226352 25444 net.cpp:380] inception_4d/output_inception_4d/output_0_split <- inception_4d/output
I1214 21:27:38.226362 25444 net.cpp:338] inception_4d/output_inception_4d/output_0_split -> inception_4d/output_inception_4d/output_0_split_0
I1214 21:27:38.226375 25444 net.cpp:338] inception_4d/output_inception_4d/output_0_split -> inception_4d/output_inception_4d/output_0_split_1
I1214 21:27:38.226383 25444 net.cpp:338] inception_4d/output_inception_4d/output_0_split -> inception_4d/output_inception_4d/output_0_split_2
I1214 21:27:38.226389 25444 net.cpp:338] inception_4d/output_inception_4d/output_0_split -> inception_4d/output_inception_4d/output_0_split_3
I1214 21:27:38.226394 25444 net.cpp:338] inception_4d/output_inception_4d/output_0_split -> inception_4d/output_inception_4d/output_0_split_4
I1214 21:27:38.226400 25444 net.cpp:113] Setting up inception_4d/output_inception_4d/output_0_split
I1214 21:27:38.226411 25444 net.cpp:120] Top shape: 50 528 14 14 (5174400)
I1214 21:27:38.226419 25444 net.cpp:120] Top shape: 50 528 14 14 (5174400)
I1214 21:27:38.226428 25444 net.cpp:120] Top shape: 50 528 14 14 (5174400)
I1214 21:27:38.226434 25444 net.cpp:120] Top shape: 50 528 14 14 (5174400)
I1214 21:27:38.226443 25444 net.cpp:120] Top shape: 50 528 14 14 (5174400)
I1214 21:27:38.226449 25444 layer_factory.hpp:74] Creating layer loss2/ave_pool
I1214 21:27:38.226457 25444 net.cpp:84] Creating Layer loss2/ave_pool
I1214 21:27:38.226465 25444 net.cpp:380] loss2/ave_pool <- inception_4d/output_inception_4d/output_0_split_0
I1214 21:27:38.226491 25444 net.cpp:338] loss2/ave_pool -> loss2/ave_pool
I1214 21:27:38.226502 25444 net.cpp:113] Setting up loss2/ave_pool
I1214 21:27:38.226603 25444 net.cpp:120] Top shape: 50 528 4 4 (422400)
I1214 21:27:38.226614 25444 layer_factory.hpp:74] Creating layer loss2/conv
I1214 21:27:38.226627 25444 net.cpp:84] Creating Layer loss2/conv
I1214 21:27:38.226634 25444 net.cpp:380] loss2/conv <- loss2/ave_pool
I1214 21:27:38.226645 25444 net.cpp:338] loss2/conv -> loss2/conv
I1214 21:27:38.226657 25444 net.cpp:113] Setting up loss2/conv
I1214 21:27:38.228266 25444 net.cpp:120] Top shape: 50 128 4 4 (102400)
I1214 21:27:38.228286 25444 layer_factory.hpp:74] Creating layer loss2/relu_conv
I1214 21:27:38.228296 25444 net.cpp:84] Creating Layer loss2/relu_conv
I1214 21:27:38.228304 25444 net.cpp:380] loss2/relu_conv <- loss2/conv
I1214 21:27:38.228313 25444 net.cpp:327] loss2/relu_conv -> loss2/conv (in-place)
I1214 21:27:38.228323 25444 net.cpp:113] Setting up loss2/relu_conv
I1214 21:27:38.228410 25444 net.cpp:120] Top shape: 50 128 4 4 (102400)
I1214 21:27:38.228420 25444 layer_factory.hpp:74] Creating layer loss2/fc
I1214 21:27:38.228432 25444 net.cpp:84] Creating Layer loss2/fc
I1214 21:27:38.228440 25444 net.cpp:380] loss2/fc <- loss2/conv
I1214 21:27:38.228451 25444 net.cpp:338] loss2/fc -> loss2/fc
I1214 21:27:38.228463 25444 net.cpp:113] Setting up loss2/fc
I1214 21:27:38.249712 25444 net.cpp:120] Top shape: 50 1024 (51200)
I1214 21:27:38.249732 25444 layer_factory.hpp:74] Creating layer loss2/relu_fc
I1214 21:27:38.249739 25444 net.cpp:84] Creating Layer loss2/relu_fc
I1214 21:27:38.249744 25444 net.cpp:380] loss2/relu_fc <- loss2/fc
I1214 21:27:38.249749 25444 net.cpp:327] loss2/relu_fc -> loss2/fc (in-place)
I1214 21:27:38.249755 25444 net.cpp:113] Setting up loss2/relu_fc
I1214 21:27:38.249848 25444 net.cpp:120] Top shape: 50 1024 (51200)
I1214 21:27:38.249862 25444 layer_factory.hpp:74] Creating layer loss2/drop_fc
I1214 21:27:38.249872 25444 net.cpp:84] Creating Layer loss2/drop_fc
I1214 21:27:38.249878 25444 net.cpp:380] loss2/drop_fc <- loss2/fc
I1214 21:27:38.249886 25444 net.cpp:327] loss2/drop_fc -> loss2/fc (in-place)
I1214 21:27:38.249891 25444 net.cpp:113] Setting up loss2/drop_fc
I1214 21:27:38.249897 25444 net.cpp:120] Top shape: 50 1024 (51200)
I1214 21:27:38.249900 25444 layer_factory.hpp:74] Creating layer loss2/classifier_kaggle
I1214 21:27:38.249907 25444 net.cpp:84] Creating Layer loss2/classifier_kaggle
I1214 21:27:38.249910 25444 net.cpp:380] loss2/classifier_kaggle <- loss2/fc
I1214 21:27:38.249915 25444 net.cpp:338] loss2/classifier_kaggle -> loss2/classifier_kaggle
I1214 21:27:38.249922 25444 net.cpp:113] Setting up loss2/classifier_kaggle
I1214 21:27:38.254523 25444 net.cpp:120] Top shape: 50 447 (22350)
I1214 21:27:38.254536 25444 layer_factory.hpp:74] Creating layer loss2/classifier_kaggle_loss2/classifier_kaggle_0_split
I1214 21:27:38.254546 25444 net.cpp:84] Creating Layer loss2/classifier_kaggle_loss2/classifier_kaggle_0_split
I1214 21:27:38.254554 25444 net.cpp:380] loss2/classifier_kaggle_loss2/classifier_kaggle_0_split <- loss2/classifier_kaggle
I1214 21:27:38.254561 25444 net.cpp:338] loss2/classifier_kaggle_loss2/classifier_kaggle_0_split -> loss2/classifier_kaggle_loss2/classifier_kaggle_0_split_0
I1214 21:27:38.254575 25444 net.cpp:338] loss2/classifier_kaggle_loss2/classifier_kaggle_0_split -> loss2/classifier_kaggle_loss2/classifier_kaggle_0_split_1
I1214 21:27:38.254585 25444 net.cpp:338] loss2/classifier_kaggle_loss2/classifier_kaggle_0_split -> loss2/classifier_kaggle_loss2/classifier_kaggle_0_split_2
I1214 21:27:38.254593 25444 net.cpp:113] Setting up loss2/classifier_kaggle_loss2/classifier_kaggle_0_split
I1214 21:27:38.254603 25444 net.cpp:120] Top shape: 50 447 (22350)
I1214 21:27:38.254611 25444 net.cpp:120] Top shape: 50 447 (22350)
I1214 21:27:38.254617 25444 net.cpp:120] Top shape: 50 447 (22350)
I1214 21:27:38.254623 25444 layer_factory.hpp:74] Creating layer loss2/loss
I1214 21:27:38.254638 25444 net.cpp:84] Creating Layer loss2/loss
I1214 21:27:38.254655 25444 net.cpp:380] loss2/loss <- loss2/classifier_kaggle_loss2/classifier_kaggle_0_split_0
I1214 21:27:38.254663 25444 net.cpp:380] loss2/loss <- label_data_1_split_3
I1214 21:27:38.254674 25444 net.cpp:338] loss2/loss -> loss2/loss1
…
I1214 21:27:38.255944 25444 net.cpp:338] loss2/top-5 -> loss2/top-5
I1214 21:27:38.255962 25444 net.cpp:113] Setting up loss2/top-5
I1214 21:27:38.255975 25444 net.cpp:120] Top shape: (1)
I1214 21:27:38.255982 25444 layer_factory.hpp:74] Creating layer inception_4e/1x1
I1214 21:27:38.256002 25444 net.cpp:84] Creating Layer inception_4e/1x1
I1214 21:27:38.256013 25444 net.cpp:380] inception_4e/1x1 <- inception_4d/output_inception_4d/output_0_split_1
I1214 21:27:38.256026 25444 net.cpp:338] inception_4e/1x1 -> inception_4e/1x1
I1214 21:27:38.256042 25444 net.cpp:113] Setting up inception_4e/1x1
I1214 21:27:38.260205 25444 net.cpp:120] Top shape: 50 256 14 14 (2508800)
I1214 21:27:38.260241 25444 layer_factory.hpp:74] Creating layer inception_4e/relu_1x1
I1214 21:27:38.260257 25444 net.cpp:84] Creating Layer inception_4e/relu_1x1
I1214 21:27:38.260272 25444 net.cpp:380] inception_4e/relu_1x1 <- inception_4e/1x1
I1214 21:27:38.260285 25444 net.cpp:327] inception_4e/relu_1x1 -> inception_4e/1x1 (in-place)
I1214 21:27:38.260301 25444 net.cpp:113] Setting up inception_4e/relu_1x1
I1214 21:27:38.260452 25444 net.cpp:120] Top shape: 50 256 14 14 (2508800)
I1214 21:27:38.260464 25444 layer_factory.hpp:74] Creating layer inception_4e/3x3_reduce
I1214 21:27:38.260512 25444 net.cpp:84] Creating Layer inception_4e/3x3_reduce
I1214 21:27:38.260524 25444 net.cpp:380] inception_4e/3x3_reduce <- inception_4d/output_inception_4d/output_0_split_2
I1214 21:27:38.260540 25444 net.cpp:338] inception_4e/3x3_reduce -> inception_4e/3x3_reduce
I1214 21:27:38.260556 25444 net.cpp:113] Setting up inception_4e/3x3_reduce
I1214 21:27:38.263558 25444 net.cpp:120] Top shape: 50 160 14 14 (1568000)
I1214 21:27:38.263592 25444 layer_factory.hpp:74] Creating layer inception_4e/relu_3x3_reduce
I1214 21:27:38.263607 25444 net.cpp:84] Creating Layer inception_4e/relu_3x3_reduce
I1214 21:27:38.263617 25444 net.cpp:380] inception_4e/relu_3x3_reduce <- inception_4e/3x3_reduce
I1214 21:27:38.263630 25444 net.cpp:327] inception_4e/relu_3x3_reduce -> inception_4e/3x3_reduce (in-place)
I1214 21:27:38.263645 25444 net.cpp:113] Setting up inception_4e/relu_3x3_reduce
I1214 21:27:38.263785 25444 net.cpp:120] Top shape: 50 160 14 14 (1568000)
I1214 21:27:38.263797 25444 layer_factory.hpp:74] Creating layer inception_4e/3x3
I1214 21:27:38.263815 25444 net.cpp:84] Creating Layer inception_4e/3x3
I1214 21:27:38.263825 25444 net.cpp:380] inception_4e/3x3 <- inception_4e/3x3_reduce
I1214 21:27:38.263839 25444 net.cpp:338] inception_4e/3x3 -> inception_4e/3x3
I1214 21:27:38.263854 25444 net.cpp:113] Setting up inception_4e/3x3
I1214 21:27:38.274723 25444 net.cpp:120] Top shape: 50 320 14 14 (3136000)
I1214 21:27:38.274765 25444 layer_factory.hpp:74] Creating layer inception_4e/relu_3x3
I1214 21:27:38.274794 25444 net.cpp:84] Creating Layer inception_4e/relu_3x3
I1214 21:27:38.274806 25444 net.cpp:380] inception_4e/relu_3x3 <- inception_4e/3x3
I1214 21:27:38.274818 25444 net.cpp:327] inception_4e/relu_3x3 -> inception_4e/3x3 (in-place)
I1214 21:27:38.274832 25444 net.cpp:113] Setting up inception_4e/relu_3x3
I1214 21:27:38.275404 25444 net.cpp:120] Top shape: 50 320 14 14 (3136000)
I1214 21:27:38.275425 25444 layer_factory.hpp:74] Creating layer inception_4e/5x5_reduce
I1214 21:27:38.275440 25444 net.cpp:84] Creating Layer inception_4e/5x5_reduce
I1214 21:27:38.275450 25444 net.cpp:380] inception_4e/5x5_reduce <- inception_4d/output_inception_4d/output_0_split_3
I1214 21:27:38.275465 25444 net.cpp:338] inception_4e/5x5_reduce -> inception_4e/5x5_reduce
I1214 21:27:38.275481 25444 net.cpp:113] Setting up inception_4e/5x5_reduce
I1214 21:27:38.277154 25444 net.cpp:120] Top shape: 50 32 14 14 (313600)
I1214 21:27:38.277191 25444 layer_factory.hpp:74] Creating layer inception_4e/relu_5x5_reduce
I1214 21:27:38.277209 25444 net.cpp:84] Creating Layer inception_4e/relu_5x5_reduce
I1214 21:27:38.277220 25444 net.cpp:380] inception_4e/relu_5x5_reduce <- inception_4e/5x5_reduce
I1214 21:27:38.277233 25444 net.cpp:327] inception_4e/relu_5x5_reduce -> inception_4e/5x5_reduce (in-place)
I1214 21:27:38.277250 25444 net.cpp:113] Setting up inception_4e/relu_5x5_reduce
I1214 21:27:38.277398 25444 net.cpp:120] Top shape: 50 32 14 14 (313600)
I1214 21:27:38.277410 25444 layer_factory.hpp:74] Creating layer inception_4e/5x5
I1214 21:27:38.277434 25444 net.cpp:84] Creating Layer inception_4e/5x5
I1214 21:27:38.277443 25444 net.cpp:380] inception_4e/5x5 <- inception_4e/5x5_reduce
I1214 21:27:38.277459 25444 net.cpp:338] inception_4e/5x5 -> inception_4e/5x5
I1214 21:27:38.277474 25444 net.cpp:113] Setting up inception_4e/5x5
I1214 21:27:38.280573 25444 net.cpp:120] Top shape: 50 128 14 14 (1254400)
I1214 21:27:38.280601 25444 layer_factory.hpp:74] Creating layer inception_4e/relu_5x5
I1214 21:27:38.280617 25444 net.cpp:84] Creating Layer inception_4e/relu_5x5
I1214 21:27:38.280628 25444 net.cpp:380] inception_4e/relu_5x5 <- inception_4e/5x5
I1214 21:27:38.280642 25444 net.cpp:327] inception_4e/relu_5x5 -> inception_4e/5x5 (in-place)
I1214 21:27:38.280655 25444 net.cpp:113] Setting up inception_4e/relu_5x5
I1214 21:27:38.280786 25444 net.cpp:120] Top shape: 50 128 14 14 (1254400)
I1214 21:27:38.280799 25444 layer_factory.hpp:74] Creating layer inception_4e/pool
I1214 21:27:38.280809 25444 layer_factory.cpp:56] CUDNN does not support padding or multiple tops. Using Caffe's own pooling layer.
I1214 21:27:38.280822 25444 net.cpp:84] Creating Layer inception_4e/pool
I1214 21:27:38.280830 25444 net.cpp:380] inception_4e/pool <- inception_4d/output_inception_4d/output_0_split_4
I1214 21:27:38.280846 25444 net.cpp:338] inception_4e/pool -> inception_4e/pool
I1214 21:27:38.280860 25444 net.cpp:113] Setting up inception_4e/pool
I1214 21:27:38.280876 25444 net.cpp:120] Top shape: 50 528 14 14 (5174400)
I1214 21:27:38.280885 25444 layer_factory.hpp:74] Creating layer inception_4e/pool_proj
I1214 21:27:38.280900 25444 net.cpp:84] Creating Layer inception_4e/pool_proj
I1214 21:27:38.280908 25444 net.cpp:380] inception_4e/pool_proj <- inception_4e/pool
I1214 21:27:38.280922 25444 net.cpp:338] inception_4e/pool_proj -> inception_4e/pool_proj
I1214 21:27:38.280936 25444 net.cpp:113] Setting up inception_4e/pool_proj
I1214 21:27:38.283285 25444 net.cpp:120] Top shape: 50 128 14 14 (1254400)
I1214 21:27:38.283313 25444 layer_factory.hpp:74] Creating layer inception_4e/relu_pool_proj
I1214 21:27:38.283325 25444 net.cpp:84] Creating Layer inception_4e/relu_pool_proj
I1214 21:27:38.283334 25444 net.cpp:380] inception_4e/relu_pool_proj <- inception_4e/pool_proj
I1214 21:27:38.283345 25444 net.cpp:327] inception_4e/relu_pool_proj -> inception_4e/pool_proj (in-place)
I1214 21:27:38.283359 25444 net.cpp:113] Setting up inception_4e/relu_pool_proj
I1214 21:27:38.283488 25444 net.cpp:120] Top shape: 50 128 14 14 (1254400)
I1214 21:27:38.283510 25444 layer_factory.hpp:74] Creating layer inception_4e/output
I1214 21:27:38.283522 25444 net.cpp:84] Creating Layer inception_4e/output
I1214 21:27:38.283530 25444 net.cpp:380] inception_4e/output <- inception_4e/1x1
I1214 21:27:38.283540 25444 net.cpp:380] inception_4e/output <- inception_4e/3x3
I1214 21:27:38.283550 25444 net.cpp:380] inception_4e/output <- inception_4e/5x5
I1214 21:27:38.283560 25444 net.cpp:380] inception_4e/output <- inception_4e/pool_proj
I1214 21:27:38.283570 25444 net.cpp:338] inception_4e/output -> inception_4e/output
I1214 21:27:38.283581 25444 net.cpp:113] Setting up inception_4e/output
I1214 21:27:38.283594 25444 net.cpp:120] Top shape: 50 832 14 14 (8153600)
I1214 21:27:38.283602 25444 layer_factory.hpp:74] Creating layer pool4/3x3_s2
I1214 21:27:38.283617 25444 net.cpp:84] Creating Layer pool4/3x3_s2
I1214 21:27:38.283625 25444 net.cpp:380] pool4/3x3_s2 <- inception_4e/output
I1214 21:27:38.283637 25444 net.cpp:338] pool4/3x3_s2 -> pool4/3x3_s2
I1214 21:27:38.283648 25444 net.cpp:113] Setting up pool4/3x3_s2
I1214 21:27:38.284409 25444 net.cpp:120] Top shape: 50 832 7 7 (2038400)
I1214 21:27:38.284428 25444 layer_factory.hpp:74] Creating layer pool4/3x3_s2_pool4/3x3_s2_0_split
I1214 21:27:38.284440 25444 net.cpp:84] Creating Layer pool4/3x3_s2_pool4/3x3_s2_0_split
I1214 21:27:38.284449 25444 net.cpp:380] pool4/3x3_s2_pool4/3x3_s2_0_split <- pool4/3x3_s2
I1214 21:27:38.284463 25444 net.cpp:338] pool4/3x3_s2_pool4/3x3_s2_0_split -> pool4/3x3_s2_pool4/3x3_s2_0_split_0
I1214 21:27:38.284478 25444 net.cpp:338] pool4/3x3_s2_pool4/3x3_s2_0_split -> pool4/3x3_s2_pool4/3x3_s2_0_split_1
I1214 21:27:38.284492 25444 net.cpp:338] pool4/3x3_s2_pool4/3x3_s2_0_split -> pool4/3x3_s2_pool4/3x3_s2_0_split_2
I1214 21:27:38.284530 25444 net.cpp:338] pool4/3x3_s2_pool4/3x3_s2_0_split -> pool4/3x3_s2_pool4/3x3_s2_0_split_3
I1214 21:27:38.284543 25444 net.cpp:113] Setting up pool4/3x3_s2_pool4/3x3_s2_0_split
I1214 21:27:38.284555 25444 net.cpp:120] Top shape: 50 832 7 7 (2038400)
I1214 21:27:38.284565 25444 net.cpp:120] Top shape: 50 832 7 7 (2038400)
I1214 21:27:38.284575 25444 net.cpp:120] Top shape: 50 832 7 7 (2038400)
I1214 21:27:38.284584 25444 net.cpp:120] Top shape: 50 832 7 7 (2038400)
I1214 21:27:38.284591 25444 layer_factory.hpp:74] Creating layer inception_5a/1x1
I1214 21:27:38.284607 25444 net.cpp:84] Creating Layer inception_5a/1x1
I1214 21:27:38.284616 25444 net.cpp:380] inception_5a/1x1 <- pool4/3x3_s2_pool4/3x3_s2_0_split_0
I1214 21:27:38.284628 25444 net.cpp:338] inception_5a/1x1 -> inception_5a/1x1
I1214 21:27:38.284641 25444 net.cpp:113] Setting up inception_5a/1x1
I1214 21:27:38.290325 25444 net.cpp:120] Top shape: 50 256 7 7 (627200)
I1214 21:27:38.290360 25444 layer_factory.hpp:74] Creating layer inception_5a/relu_1x1
I1214 21:27:38.290374 25444 net.cpp:84] Creating Layer inception_5a/relu_1x1
I1214 21:27:38.290382 25444 net.cpp:380] inception_5a/relu_1x1 <- inception_5a/1x1
I1214 21:27:38.290398 25444 net.cpp:327] inception_5a/relu_1x1 -> inception_5a/1x1 (in-place)
I1214 21:27:38.290413 25444 net.cpp:113] Setting up inception_5a/relu_1x1
I1214 21:27:38.290544 25444 net.cpp:120] Top shape: 50 256 7 7 (627200)
I1214 21:27:38.290555 25444 layer_factory.hpp:74] Creating layer inception_5a/3x3_reduce
I1214 21:27:38.290571 25444 net.cpp:84] Creating Layer inception_5a/3x3_reduce
I1214 21:27:38.290580 25444 net.cpp:380] inception_5a/3x3_reduce <- pool4/3x3_s2_pool4/3x3_s2_0_split_1
I1214 21:27:38.290593 25444 net.cpp:338] inception_5a/3x3_reduce -> inception_5a/3x3_reduce
I1214 21:27:38.290607 25444 net.cpp:113] Setting up inception_5a/3x3_reduce
I1214 21:27:38.294180 25444 net.cpp:120] Top shape: 50 160 7 7 (392000)
I1214 21:27:38.294208 25444 layer_factory.hpp:74] Creating layer inception_5a/relu_3x3_reduce
I1214 21:27:38.294219 25444 net.cpp:84] Creating Layer inception_5a/relu_3x3_reduce
I1214 21:27:38.294229 25444 net.cpp:380] inception_5a/relu_3x3_reduce <- inception_5a/3x3_reduce
I1214 21:27:38.294250 25444 net.cpp:327] inception_5a/relu_3x3_reduce -> inception_5a/3x3_reduce (in-place)
I1214 21:27:38.294273 25444 net.cpp:113] Setting up inception_5a/relu_3x3_reduce
I1214 21:27:38.294391 25444 net.cpp:120] Top shape: 50 160 7 7 (392000)
I1214 21:27:38.294401 25444 layer_factory.hpp:74] Creating layer inception_5a/3x3
I1214 21:27:38.294414 25444 net.cpp:84] Creating Layer inception_5a/3x3
I1214 21:27:38.294422 25444 net.cpp:380] inception_5a/3x3 <- inception_5a/3x3_reduce
I1214 21:27:38.294435 25444 net.cpp:338] inception_5a/3x3 -> inception_5a/3x3
I1214 21:27:38.294450 25444 net.cpp:113] Setting up inception_5a/3x3
I1214 21:27:38.303876 25444 net.cpp:120] Top shape: 50 320 7 7 (784000)
I1214 21:27:38.303908 25444 layer_factory.hpp:74] Creating layer inception_5a/relu_3x3
I1214 21:27:38.303920 25444 net.cpp:84] Creating Layer inception_5a/relu_3x3
I1214 21:27:38.303930 25444 net.cpp:380] inception_5a/relu_3x3 <- inception_5a/3x3
I1214 21:27:38.303939 25444 net.cpp:327] inception_5a/relu_3x3 -> inception_5a/3x3 (in-place)
I1214 21:27:38.303951 25444 net.cpp:113] Setting up inception_5a/relu_3x3
I1214 21:27:38.304065 25444 net.cpp:120] Top shape: 50 320 7 7 (784000)
I1214 21:27:38.304075 25444 layer_factory.hpp:74] Creating layer inception_5a/5x5_reduce
I1214 21:27:38.304088 25444 net.cpp:84] Creating Layer inception_5a/5x5_reduce
I1214 21:27:38.304096 25444 net.cpp:380] inception_5a/5x5_reduce <- pool4/3x3_s2_pool4/3x3_s2_0_split_2
I1214 21:27:38.304111 25444 net.cpp:338] inception_5a/5x5_reduce -> inception_5a/5x5_reduce
I1214 21:27:38.304123 25444 net.cpp:113] Setting up inception_5a/5x5_reduce
I1214 21:27:38.305667 25444 net.cpp:120] Top shape: 50 32 7 7 (78400)
I1214 21:27:38.305692 25444 layer_factory.hpp:74] Creating layer inception_5a/relu_5x5_reduce
I1214 21:27:38.305707 25444 net.cpp:84] Creating Layer inception_5a/relu_5x5_reduce
I1214 21:27:38.305716 25444 net.cpp:380] inception_5a/relu_5x5_reduce <- inception_5a/5x5_reduce
I1214 21:27:38.305727 25444 net.cpp:327] inception_5a/relu_5x5_reduce -> inception_5a/5x5_reduce (in-place)
I1214 21:27:38.305739 25444 net.cpp:113] Setting up inception_5a/relu_5x5_reduce
I1214 21:27:38.306411 25444 net.cpp:120] Top shape: 50 32 7 7 (78400)
I1214 21:27:38.306428 25444 layer_factory.hpp:74] Creating layer inception_5a/5x5
I1214 21:27:38.306442 25444 net.cpp:84] Creating Layer inception_5a/5x5
I1214 21:27:38.306452 25444 net.cpp:380] inception_5a/5x5 <- inception_5a/5x5_reduce
I1214 21:27:38.306465 25444 net.cpp:338] inception_5a/5x5 -> inception_5a/5x5
I1214 21:27:38.306480 25444 net.cpp:113] Setting up inception_5a/5x5
I1214 21:27:38.309506 25444 net.cpp:120] Top shape: 50 128 7 7 (313600)
I1214 21:27:38.309538 25444 layer_factory.hpp:74] Creating layer inception_5a/relu_5x5
I1214 21:27:38.309552 25444 net.cpp:84] Creating Layer inception_5a/relu_5x5
I1214 21:27:38.309561 25444 net.cpp:380] inception_5a/relu_5x5 <- inception_5a/5x5
I1214 21:27:38.309573 25444 net.cpp:327] inception_5a/relu_5x5 -> inception_5a/5x5 (in-place)
I1214 21:27:38.309587 25444 net.cpp:113] Setting up inception_5a/relu_5x5
I1214 21:27:38.309710 25444 net.cpp:120] Top shape: 50 128 7 7 (313600)
I1214 21:27:38.309720 25444 layer_factory.hpp:74] Creating layer inception_5a/pool
I1214 21:27:38.309730 25444 layer_factory.cpp:56] CUDNN does not support padding or multiple tops. Using Caffe's own pooling layer.
I1214 21:27:38.309741 25444 net.cpp:84] Creating Layer inception_5a/pool
I1214 21:27:38.309751 25444 net.cpp:380] inception_5a/pool <- pool4/3x3_s2_pool4/3x3_s2_0_split_3
I1214 21:27:38.309762 25444 net.cpp:338] inception_5a/pool -> inception_5a/pool
I1214 21:27:38.309773 25444 net.cpp:113] Setting up inception_5a/pool
I1214 21:27:38.309787 25444 net.cpp:120] Top shape: 50 832 7 7 (2038400)
I1214 21:27:38.309793 25444 layer_factory.hpp:74] Creating layer inception_5a/pool_proj
I1214 21:27:38.309810 25444 net.cpp:84] Creating Layer inception_5a/pool_proj
I1214 21:27:38.309818 25444 net.cpp:380] inception_5a/pool_proj <- inception_5a/pool
I1214 21:27:38.309829 25444 net.cpp:338] inception_5a/pool_proj -> inception_5a/pool_proj
I1214 21:27:38.309859 25444 net.cpp:113] Setting up inception_5a/pool_proj
I1214 21:27:38.312849 25444 net.cpp:120] Top shape: 50 128 7 7 (313600)
I1214 21:27:38.312875 25444 layer_factory.hpp:74] Creating layer inception_5a/relu_pool_proj
I1214 21:27:38.312886 25444 net.cpp:84] Creating Layer inception_5a/relu_pool_proj
I1214 21:27:38.312896 25444 net.cpp:380] inception_5a/relu_pool_proj <- inception_5a/pool_proj
I1214 21:27:38.312906 25444 net.cpp:327] inception_5a/relu_pool_proj -> inception_5a/pool_proj (in-place)
I1214 21:27:38.312918 25444 net.cpp:113] Setting up inception_5a/relu_pool_proj
I1214 21:27:38.313032 25444 net.cpp:120] Top shape: 50 128 7 7 (313600)
I1214 21:27:38.313042 25444 layer_factory.hpp:74] Creating layer inception_5a/output
I1214 21:27:38.313053 25444 net.cpp:84] Creating Layer inception_5a/output
I1214 21:27:38.313087 25444 net.cpp:380] inception_5a/output <- inception_5a/1x1
I1214 21:27:38.313097 25444 net.cpp:380] inception_5a/output <- inception_5a/3x3
I1214 21:27:38.313107 25444 net.cpp:380] inception_5a/output <- inception_5a/5x5
I1214 21:27:38.313114 25444 net.cpp:380] inception_5a/output <- inception_5a/pool_proj
I1214 21:27:38.313124 25444 net.cpp:338] inception_5a/output -> inception_5a/output
I1214 21:27:38.313136 25444 net.cpp:113] Setting up inception_5a/output
I1214 21:27:38.313149 25444 net.cpp:120] Top shape: 50 832 7 7 (2038400)
I1214 21:27:38.313156 25444 layer_factory.hpp:74] Creating layer inception_5a/output_inception_5a/output_0_split
I1214 21:27:38.313170 25444 net.cpp:84] Creating Layer inception_5a/output_inception_5a/output_0_split
I1214 21:27:38.313177 25444 net.cpp:380] inception_5a/output_inception_5a/output_0_split <- inception_5a/output
I1214 21:27:38.313187 25444 net.cpp:338] inception_5a/output_inception_5a/output_0_split -> inception_5a/output_inception_5a/output_0_split_0
I1214 21:27:38.313200 25444 net.cpp:338] inception_5a/output_inception_5a/output_0_split -> inception_5a/output_inception_5a/output_0_split_1
I1214 21:27:38.313211 25444 net.cpp:338] inception_5a/output_inception_5a/output_0_split -> inception_5a/output_inception_5a/output_0_split_2
I1214 21:27:38.313225 25444 net.cpp:338] inception_5a/output_inception_5a/output_0_split -> inception_5a/output_inception_5a/output_0_split_3
I1214 21:27:38.313235 25444 net.cpp:113] Setting up inception_5a/output_inception_5a/output_0_split
I1214 21:27:38.313247 25444 net.cpp:120] Top shape: 50 832 7 7 (2038400)
I1214 21:27:38.313256 25444 net.cpp:120] Top shape: 50 832 7 7 (2038400)
I1214 21:27:38.313263 25444 net.cpp:120] Top shape: 50 832 7 7 (2038400)
I1214 21:27:38.313271 25444 net.cpp:120] Top shape: 50 832 7 7 (2038400)
I1214 21:27:38.313278 25444 layer_factory.hpp:74] Creating layer inception_5b/1x1
I1214 21:27:38.313292 25444 net.cpp:84] Creating Layer inception_5b/1x1
I1214 21:27:38.313298 25444 net.cpp:380] inception_5b/1x1 <- inception_5a/output_inception_5a/output_0_split_0
I1214 21:27:38.313311 25444 net.cpp:338] inception_5b/1x1 -> inception_5b/1x1
I1214 21:27:38.313323 25444 net.cpp:113] Setting up inception_5b/1x1
I1214 21:27:38.319754 25444 net.cpp:120] Top shape: 50 384 7 7 (940800)
I1214 21:27:38.319779 25444 layer_factory.hpp:74] Creating layer inception_5b/relu_1x1
I1214 21:27:38.319790 25444 net.cpp:84] Creating Layer inception_5b/relu_1x1
I1214 21:27:38.319798 25444 net.cpp:380] inception_5b/relu_1x1 <- inception_5b/1x1
I1214 21:27:38.319811 25444 net.cpp:327] inception_5b/relu_1x1 -> inception_5b/1x1 (in-place)
I1214 21:27:38.319823 25444 net.cpp:113] Setting up inception_5b/relu_1x1
I1214 21:27:38.319934 25444 net.cpp:120] Top shape: 50 384 7 7 (940800)
I1214 21:27:38.319943 25444 layer_factory.hpp:74] Creating layer inception_5b/3x3_reduce
I1214 21:27:38.319955 25444 net.cpp:84] Creating Layer inception_5b/3x3_reduce
I1214 21:27:38.319963 25444 net.cpp:380] inception_5b/3x3_reduce <- inception_5a/output_inception_5a/output_0_split_1
I1214 21:27:38.319977 25444 net.cpp:338] inception_5b/3x3_reduce -> inception_5b/3x3_reduce
I1214 21:27:38.319998 25444 net.cpp:113] Setting up inception_5b/3x3_reduce
I1214 21:27:38.327998 25444 net.cpp:120] Top shape: 50 192 7 7 (470400)
I1214 21:27:38.328023 25444 layer_factory.hpp:74] Creating layer inception_5b/relu_3x3_reduce
I1214 21:27:38.328034 25444 net.cpp:84] Creating Layer inception_5b/relu_3x3_reduce
I1214 21:27:38.328043 25444 net.cpp:380] inception_5b/relu_3x3_reduce <- inception_5b/3x3_reduce
I1214 21:27:38.328058 25444 net.cpp:327] inception_5b/relu_3x3_reduce -> inception_5b/3x3_reduce (in-place)
I1214 21:27:38.328069 25444 net.cpp:113] Setting up inception_5b/relu_3x3_reduce
I1214 21:27:38.328848 25444 net.cpp:120] Top shape: 50 192 7 7 (470400)
I1214 21:27:38.328866 25444 layer_factory.hpp:74] Creating layer inception_5b/3x3
I1214 21:27:38.328881 25444 net.cpp:84] Creating Layer inception_5b/3x3
I1214 21:27:38.328889 25444 net.cpp:380] inception_5b/3x3 <- inception_5b/3x3_reduce
I1214 21:27:38.328902 25444 net.cpp:338] inception_5b/3x3 -> inception_5b/3x3
I1214 21:27:38.328914 25444 net.cpp:113] Setting up inception_5b/3x3
I1214 21:27:38.341150 25444 net.cpp:120] Top shape: 50 384 7 7 (940800)
I1214 21:27:38.341174 25444 layer_factory.hpp:74] Creating layer inception_5b/relu_3x3
I1214 21:27:38.341187 25444 net.cpp:84] Creating Layer inception_5b/relu_3x3
I1214 21:27:38.341194 25444 net.cpp:380] inception_5b/relu_3x3 <- inception_5b/3x3
I1214 21:27:38.341202 25444 net.cpp:327] inception_5b/relu_3x3 -> inception_5b/3x3 (in-place)
I1214 21:27:38.341210 25444 net.cpp:113] Setting up inception_5b/relu_3x3
I1214 21:27:38.341289 25444 net.cpp:120] Top shape: 50 384 7 7 (940800)
I1214 21:27:38.341296 25444 layer_factory.hpp:74] Creating layer inception_5b/5x5_reduce
I1214 21:27:38.341308 25444 net.cpp:84] Creating Layer inception_5b/5x5_reduce
I1214 21:27:38.341315 25444 net.cpp:380] inception_5b/5x5_reduce <- inception_5a/output_inception_5a/output_0_split_2
I1214 21:27:38.341328 25444 net.cpp:338] inception_5b/5x5_reduce -> inception_5b/5x5_reduce
I1214 21:27:38.341337 25444 net.cpp:113] Setting up inception_5b/5x5_reduce
I1214 21:27:38.343509 25444 net.cpp:120] Top shape: 50 48 7 7 (117600)
I1214 21:27:38.343541 25444 layer_factory.hpp:74] Creating layer inception_5b/relu_5x5_reduce
I1214 21:27:38.343555 25444 net.cpp:84] Creating Layer inception_5b/relu_5x5_reduce
I1214 21:27:38.343567 25444 net.cpp:380] inception_5b/relu_5x5_reduce <- inception_5b/5x5_reduce
I1214 21:27:38.343585 25444 net.cpp:327] inception_5b/relu_5x5_reduce -> inception_5b/5x5_reduce (in-place)
I1214 21:27:38.343600 25444 net.cpp:113] Setting up inception_5b/relu_5x5_reduce
I1214 21:27:38.343749 25444 net.cpp:120] Top shape: 50 48 7 7 (117600)
I1214 21:27:38.343760 25444 layer_factory.hpp:74] Creating layer inception_5b/5x5
I1214 21:27:38.343775 25444 net.cpp:84] Creating Layer inception_5b/5x5
I1214 21:27:38.343785 25444 net.cpp:380] inception_5b/5x5 <- inception_5b/5x5_reduce
I1214 21:27:38.343801 25444 net.cpp:338] inception_5b/5x5 -> inception_5b/5x5
I1214 21:27:38.343818 25444 net.cpp:113] Setting up inception_5b/5x5
I1214 21:27:38.348393 25444 net.cpp:120] Top shape: 50 128 7 7 (313600)
I1214 21:27:38.348425 25444 layer_factory.hpp:74] Creating layer inception_5b/relu_5x5
I1214 21:27:38.348443 25444 net.cpp:84] Creating Layer inception_5b/relu_5x5
I1214 21:27:38.348455 25444 net.cpp:380] inception_5b/relu_5x5 <- inception_5b/5x5
I1214 21:27:38.348469 25444 net.cpp:327] inception_5b/relu_5x5 -> inception_5b/5x5 (in-place)
I1214 21:27:38.348484 25444 net.cpp:113] Setting up inception_5b/relu_5x5
I1214 21:27:38.349102 25444 net.cpp:120] Top shape: 50 128 7 7 (313600)
I1214 21:27:38.349125 25444 layer_factory.hpp:74] Creating layer inception_5b/pool
I1214 21:27:38.349136 25444 layer_factory.cpp:56] CUDNN does not support padding or multiple tops. Using Caffe's own pooling layer.
I1214 21:27:38.349149 25444 net.cpp:84] Creating Layer inception_5b/pool
I1214 21:27:38.349160 25444 net.cpp:380] inception_5b/pool <- inception_5a/output_inception_5a/output_0_split_3
I1214 21:27:38.349179 25444 net.cpp:338] inception_5b/pool -> inception_5b/pool
I1214 21:27:38.349210 25444 net.cpp:113] Setting up inception_5b/pool
I1214 21:27:38.349242 25444 net.cpp:120] Top shape: 50 832 7 7 (2038400)
I1214 21:27:38.349252 25444 layer_factory.hpp:74] Creating layer inception_5b/pool_proj
I1214 21:27:38.349270 25444 net.cpp:84] Creating Layer inception_5b/pool_proj
I1214 21:27:38.349280 25444 net.cpp:380] inception_5b/pool_proj <- inception_5b/pool
I1214 21:27:38.349294 25444 net.cpp:338] inception_5b/pool_proj -> inception_5b/pool_proj
I1214 21:27:38.349309 25444 net.cpp:113] Setting up inception_5b/pool_proj
I1214 21:27:38.352881 25444 net.cpp:120] Top shape: 50 128 7 7 (313600)
I1214 21:27:38.352911 25444 layer_factory.hpp:74] Creating layer inception_5b/relu_pool_proj
I1214 21:27:38.352928 25444 net.cpp:84] Creating Layer inception_5b/relu_pool_proj
I1214 21:27:38.352941 25444 net.cpp:380] inception_5b/relu_pool_proj <- inception_5b/pool_proj
I1214 21:27:38.352953 25444 net.cpp:327] inception_5b/relu_pool_proj -> inception_5b/pool_proj (in-place)
I1214 21:27:38.352969 25444 net.cpp:113] Setting up inception_5b/relu_pool_proj
I1214 21:27:38.353157 25444 net.cpp:120] Top shape: 50 128 7 7 (313600)
I1214 21:27:38.353170 25444 layer_factory.hpp:74] Creating layer inception_5b/output
I1214 21:27:38.353184 25444 net.cpp:84] Creating Layer inception_5b/output
I1214 21:27:38.353194 25444 net.cpp:380] inception_5b/output <- inception_5b/1x1
I1214 21:27:38.353205 25444 net.cpp:380] inception_5b/output <- inception_5b/3x3
I1214 21:27:38.353215 25444 net.cpp:380] inception_5b/output <- inception_5b/5x5
I1214 21:27:38.353225 25444 net.cpp:380] inception_5b/output <- inception_5b/pool_proj
I1214 21:27:38.353236 25444 net.cpp:338] inception_5b/output -> inception_5b/output
I1214 21:27:38.353250 25444 net.cpp:113] Setting up inception_5b/output
I1214 21:27:38.353265 25444 net.cpp:120] Top shape: 50 1024 7 7 (2508800)
I1214 21:27:38.353272 25444 layer_factory.hpp:74] Creating layer pool5/7x7_s1
I1214 21:27:38.353287 25444 net.cpp:84] Creating Layer pool5/7x7_s1
I1214 21:27:38.353296 25444 net.cpp:380] pool5/7x7_s1 <- inception_5b/output
I1214 21:27:38.353309 25444 net.cpp:338] pool5/7x7_s1 -> pool5/7x7_s1
I1214 21:27:38.353322 25444 net.cpp:113] Setting up pool5/7x7_s1
I1214 21:27:38.353456 25444 net.cpp:120] Top shape: 50 1024 1 1 (51200)
I1214 21:27:38.353468 25444 layer_factory.hpp:74] Creating layer pool5/drop_7x7_s1
I1214 21:27:38.353479 25444 net.cpp:84] Creating Layer pool5/drop_7x7_s1
I1214 21:27:38.353488 25444 net.cpp:380] pool5/drop_7x7_s1 <- pool5/7x7_s1
I1214 21:27:38.353499 25444 net.cpp:327] pool5/drop_7x7_s1 -> pool5/7x7_s1 (in-place)
I1214 21:27:38.353512 25444 net.cpp:113] Setting up pool5/drop_7x7_s1
I1214 21:27:38.353524 25444 net.cpp:120] Top shape: 50 1024 1 1 (51200)
I1214 21:27:38.353533 25444 layer_factory.hpp:74] Creating layer loss3/classifier_kaggle
I1214 21:27:38.353546 25444 net.cpp:84] Creating Layer loss3/classifier_kaggle
I1214 21:27:38.353554 25444 net.cpp:380] loss3/classifier_kaggle <- pool5/7x7_s1
I1214 21:27:38.353569 25444 net.cpp:338] loss3/classifier_kaggle -> loss3/classifier_kaggle
I1214 21:27:38.353584 25444 net.cpp:113] Setting up loss3/classifier_kaggle
I1214 21:27:38.363145 25444 net.cpp:120] Top shape: 50 447 (22350)
I1214 21:27:38.363168 25444 layer_factory.hpp:74] Creating layer loss3/classifier_kaggle_loss3/classifier_kaggle_0_split
I1214 21:27:38.363180 25444 net.cpp:84] Creating Layer loss3/classifier_kaggle_loss3/classifier_kaggle_0_split
I1214 21:27:38.363189 25444 net.cpp:380] loss3/classifier_kaggle_loss3/classifier_kaggle_0_split <- loss3/classifier_kaggle
I1214 21:27:38.363204 25444 net.cpp:338] loss3/classifier_kaggle_loss3/classifier_kaggle_0_split -> loss3/classifier_kaggle_loss3/classifier_kaggle_0_split_0
I1214 21:27:38.363219 25444 net.cpp:338] loss3/classifier_kaggle_loss3/classifier_kaggle_0_split -> loss3/classifier_kaggle_loss3/classifier_kaggle_0_split_1
I1214 21:27:38.363232 25444 net.cpp:338] loss3/classifier_kaggle_loss3/classifier_kaggle_0_split -> loss3/classifier_kaggle_loss3/classifier_kaggle_0_split_2
I1214 21:27:38.363253 25444 net.cpp:113] Setting up loss3/classifier_kaggle_loss3/classifier_kaggle_0_split
I1214 21:27:38.363278 25444 net.cpp:120] Top shape: 50 447 (22350)
I1214 21:27:38.363288 25444 net.cpp:120] Top shape: 50 447 (22350)
I1214 21:27:38.363297 25444 net.cpp:120] Top shape: 50 447 (22350)
I1214 21:27:38.363306 25444 layer_factory.hpp:74] Creating layer loss3/loss3
I1214 21:27:38.363319 25444 net.cpp:84] Creating Layer loss3/loss3
I1214 21:27:38.363328 25444 net.cpp:380] loss3/loss3 <- loss3/classifier_kaggle_loss3/classifier_kaggle_0_split_0
I1214 21:27:38.363339 25444 net.cpp:380] loss3/loss3 <- label_data_1_split_6
I1214 21:27:38.363350 25444 net.cpp:338] loss3/loss3 -> loss3/loss3
…
