…
I1214 21:47:10.385944 29761 net.cpp:257] The NetState phase (0) differed from the phase (1) specified by a rule in layer loss3/top-5
I1214 21:47:10.387212 29761 net.cpp:42] Initializing net from parameters: 
name: "GoogleNet"
state {
  phase: TRAIN
}
layer {
  name: "data"
  type: "Data"
  top: "data"
  top: "label"
  include {
    phase: TRAIN
  }
  transform_param {
    mirror: true
    crop_size: 224
    mean_value: 104
    mean_value: 117
    mean_value: 123
  }
  data_param {
    source: "/home/coldmanck/kaggle/kaggle2_train_lmdb"
    batch_size: 32
    backend: LMDB
  }
}
layer {
  name: "conv1/7x7_s2"
  type: "Convolution"
  bottom: "data"
  top: "conv1/7x7_s2"
  param {
    lr_mult: 1
    decay_mult: 1
  }
  param {
    lr_mult: 2
    decay_mult: 0
  }
  convolution_param {
    num_output: 64
    pad: 3
    kernel_size: 7
    stride: 2
    weight_filler {
      type: "xavier"
      std: 0.1
    }
    bias_filler {
      type: "constant"
      value: 0.2
    }
  }
}
layer {
  name: "conv1/relu_7x7"
  type: "ReLU"
  bottom: "conv1/7x7_s2"
  top: "conv1/7x7_s2"
}
layer {
  name: "pool1/3x3_s2"
  type: "Pooling"
  bottom: "conv1/7x7_s2"
  top: "pool1/3x3_s2"
  pooling_param {
    pool: MAX
    kernel_size: 3
    stride: 2
  }
}
layer {
  name: "pool1/norm1"
  type: "LRN"
  bottom: "pool1/3x3_s2"
  top: "pool1/norm1"
  lrn_param {
    local_size: 5
    alpha: 0.0001
    beta: 0.75
  }
}
layer {
  name: "conv2/3x3_reduce"
  type: "Convolution"
  bottom: "pool1/norm1"
  top: "conv2/3x3_reduce"
  param {
    lr_mult: 1
    decay_mult: 1
  }
  param {
    lr_mult: 2
    decay_mult: 0
  }
  convolution_param {
    num_output: 64
    kernel_size: 1
    weight_filler {
      type: "xavier"
      std: 0.1
    }
    bias_filler {
      type: "constant"
      value: 0.2
    }
  }
}
layer {
  name: "conv2/relu_3x3_reduce"
  type: "ReLU"
  bottom: "conv2/3x3_reduce"
  top: "conv2/3x3_reduce"
}
layer {
  name: "conv2/3x3"
  type: "Convolution"
  bottom: "conv2/3x3_reduce"
  top: "conv2/3x3"
  param {
    lr_mult: 1
    decay_mult: 1
  }
  param {
    lr_mult: 2
    decay_mult: 0
  }
  convolution_param {
    num_output: 192
    pad: 1
    kernel_size: 3
    weight_filler {
      type: "xavier"
      std: 0.03
    }
    bias_filler {
      type: "constant"
      value: 0.2
    }
  }
}
layer {
  name: "conv2/relu_3x3"
  type: "ReLU"
  bottom: "conv2/3x3"
  top: "conv2/3x3"
}
layer {
  name: "conv2/norm2"
  type: "LRN"
  bottom: "conv2/3x3"
  top: "conv2/norm2"
  lrn_param {
    local_size: 5
    alpha: 0.0001
    beta: 0.75
  }
}
layer {
  name: "pool2/3x3_s2"
  type: "Pooling"
  bottom: "conv2/norm2"
  top: "pool2/3x3_s2"
  pooling_param {
    pool: MAX
    kernel_size: 3
    stride: 2
  }
}
layer {
  name: "inception_3a/1x1"
  type: "Convolution"
  bottom: "pool2/3x3_s2"
  top: "inception_3a/1x1"
  param {
    lr_mult: 1
    decay_mult: 1
  }
  param {
    lr_mult: 2
    decay_mult: 0
  }
  convolution_param {
    num_output: 64
    kernel_size: 1
    weight_filler {
      type: "xavier"
      std: 0.03
    }
    bias_filler {
      type: "constant"
      value: 0.2
    }
  }
}
layer {
  name: "inception_3a/relu_1x1"
  type: "ReLU"
  bottom: "inception_3a/1x1"
  top: "inception_3a/1x1"
}
layer {
  name: "inception_3a/3x3_reduce"
  type: "Convolution"
  bottom: "pool2/3x3_s2"
  top: "inception_3a/3x3_reduce"
  param {
    lr_mult: 1
    decay_mult: 1
  }
  param {
    lr_mult: 2
    decay_mult: 0
  }
  convolution_param {
    num_output: 96
    kernel_size: 1
    weight_filler {
      type: "xavier"
      std: 0.09
    }
    bias_filler {
      type: "constant"
      value: 0.2
    }
  }
}
layer {
  name: "inception_3a/relu_3x3_reduce"
  type: "ReLU"
  bottom: "inception_3a/3x3_reduce"
  top: "inception_3a/3x3_reduce"
}
layer {
  name: "inception_3a/3x3"
  type: "Convolution"
  bottom: "inception_3a/3x3_reduce"
  top: "inception_3a/3x3"
  param {
    lr_mult: 1
    decay_mult: 1
  }
  param {
    lr_mult: 2
    decay_mult: 0
  }
  convolution_param {
    num_output: 128
    pad: 1
    kernel_size: 3
    weight_filler {
      type: "xavier"
      std: 0.03
    }
    bias_filler {
      type: "constant"
      value: 0.2
    }
  }
}
layer {
  name: "inception_3a/relu_3x3"
  type: "ReLU"
  bottom: "inception_3a/3x3"
  top: "inception_3a/3x3"
}
layer {
  name: "inception_3a/5x5_reduce"
  type: "Convolution"
  bottom: "pool2/3x3_s2"
  top: "inception_3a/5x5_reduce"
  param {
    lr_mult: 1
    decay_mult: 1
  }
  param {
    lr_mult: 2
    decay_mult: 0
  }
  convolution_param {
    num_output: 16
    kernel_size: 1
    weight_filler {
      type: "xavier"
      std: 0.2
    }
    bias_filler {
      type: "constant"
      value: 0.2
    }
  }
}
layer {
  name: "inception_3a/relu_5x5_reduce"
  type: "ReLU"
  bottom: "inception_3a/5x5_reduce"
  top: "inception_3a/5x5_reduce"
}
layer {
  name: "inception_3a/5x5"
  type: "Convolution"
  bottom: "inception_3a/5x5_reduce"
  top: "inception_3a/5x5"
  param {
    lr_mult: 1
    decay_mult: 1
  }
  param {
    lr_mult: 2
    decay_mult: 0
  }
  convolution_param {
    num_output: 32
    pad: 2
    kernel_size: 5
    weight_filler {
      type: "xavier"
      std: 0.03
    }
    bias_filler {
      type: "constant"
      value: 0.2
    }
  }
}
layer {
  name: "inception_3a/relu_5x5"
  type: "ReLU"
  bottom: "inception_3a/5x5"
  top: "inception_3a/5x5"
}
layer {
  name: "inception_3a/pool"
  type: "Pooling"
  bottom: "pool2/3x3_s2"
  top: "inception_3a/pool"
  pooling_param {
    pool: MAX
    kernel_size: 3
    stride: 1
    pad: 1
  }
}
layer {
  name: "inception_3a/pool_proj"
  type: "Convolution"
  bottom: "inception_3a/pool"
  top: "inception_3a/pool_proj"
  param {
    lr_mult: 1
    decay_mult: 1
  }
  param {
    lr_mult: 2
    decay_mult: 0
  }
  convolution_param {
    num_output: 32
    kernel_size: 1
    weight_filler {
      type: "xavier"
      std: 0.1
    }
    bias_filler {
      type: "constant"
      value: 0.2
    }
  }
}
layer {
  name: "inception_3a/relu_pool_proj"
  type: "ReLU"
  bottom: "inception_3a/pool_proj"
  top: "inception_3a/pool_proj"
}
layer {
  name: "inception_3a/output"
  type: "Concat"
  bottom: "inception_3a/1x1"
  bottom: "inception_3a/3x3"
  bottom: "inception_3a/5x5"
  bottom: "inception_3a/pool_proj"
  top: "inception_3a/output"
}
layer {
  name: "inception_3b/1x1"
  type: "Convolution"
  bottom: "inception_3a/output"
  top: "inception_3b/1x1"
  param {
    lr_mult: 1
    decay_mult: 1
  }
  param {
    lr_mult: 2
    decay_mult: 0
  }
  convolution_param {
    num_output: 128
    kernel_size: 1
    weight_filler {
      type: "xavier"
      std: 0.03
    }
    bias_filler {
      type: "constant"
      value: 0.2
    }
  }
}
layer {
  name: "inception_3b/relu_1x1"
  type: "ReLU"
  bottom: "inception_3b/1x1"
  top: "inception_3b/1x1"
}
layer {
  name: "inception_3b/3x3_reduce"
  type: "Convolution"
  bottom: "inception_3a/output"
  top: "inception_3b/3x3_reduce"
  param {
    lr_mult: 1
    decay_mult: 1
  }
  param {
    lr_mult: 2
    decay_mult: 0
  }
  convolution_param {
    num_output: 128
    kernel_size: 1
    weight_filler {
      type: "xavier"
      std: 0.09
    }
    bias_filler {
      type: "constant"
      value: 0.2
    }
  }
}
layer {
  name: "inception_3b/relu_3x3_reduce"
  type: "ReLU"
  bottom: "inception_3b/3x3_reduce"
  top: "inception_3b/3x3_reduce"
}
layer {
  name: "inception_3b/3x3"
  type: "Convolution"
  bottom: "inception_3b/3x3_reduce"
  top: "inception_3b/3x3"
  param {
    lr_mult: 1
    decay_mult: 1
  }
  param {
    lr_mult: 2
    decay_mult: 0
  }
  convolution_param {
    num_output: 192
    pad: 1
    kernel_size: 3
    weight_filler {
      type: "xavier"
      std: 0.03
    }
    bias_filler {
      type: "constant"
      value: 0.2
    }
  }
}
layer {
  name: "inception_3b/relu_3x3"
  type: "ReLU"
  bottom: "inception_3b/3x3"
  top: "inception_3b/3x3"
}
layer {
  name: "inception_3b/5x5_reduce"
  type: "Convolution"
  bottom: "inception_3a/output"
  top: "inception_3b/5x5_reduce"
  param {
    lr_mult: 1
    decay_mult: 1
  }
  param {
    lr_mult: 2
    decay_mult: 0
  }
  convolution_param {
    num_output: 32
    kernel_size: 1
    weight_filler {
      type: "xavier"
      std: 0.2
    }
    bias_filler {
      type: "constant"
      value: 0.2
    }
  }
}
layer {
  name: "inception_3b/relu_5x5_reduce"
  type: "ReLU"
  bottom: "inception_3b/5x5_reduce"
  top: "inception_3b/5x5_reduce"
}
layer {
  name: "inception_3b/5x5"
  type: "Convolution"
  bottom: "inception_3b/5x5_reduce"
  top: "inception_3b/5x5"
  param {
    lr_mult: 1
    decay_mult: 1
  }
  param {
    lr_mult: 2
    decay_mult: 0
  }
  convolution_param {
    num_output: 96
    pad: 2
    kernel_size: 5
    weight_filler {
      type: "xavier"
      std: 0.03
    }
    bias_filler {
      type: "constant"
      value: 0.2
    }
  }
}
layer {
  name: "inception_3b/relu_5x5"
  type: "ReLU"
  bottom: "inception_3b/5x5"
  top: "inception_3b/5x5"
}
layer {
  name: "inception_3b/pool"
  type: "Pooling"
  bottom: "inception_3a/output"
  top: "inception_3b/pool"
  pooling_param {
    pool: MAX
    kernel_size: 3
    stride: 1
    pad: 1
  }
}
layer {
  name: "inception_3b/pool_proj"
  type: "Convolution"
  bottom: "inception_3b/pool"
  top: "inception_3b/pool_proj"
  param {
    lr_mult: 1
    decay_mult: 1
  }
  param {
    lr_mult: 2
    decay_mult: 0
  }
  convolution_param {
    num_output: 64
    kernel_size: 1
    weight_filler {
      type: "xavier"
      std: 0.1
    }
    bias_filler {
      type: "constant"
      value: 0.2
    }
  }
}
layer {
  name: "inception_3b/relu_pool_proj"
  type: "ReLU"
  bottom: "inception_3b/pool_proj"
  top: "inception_3b/pool_proj"
}
layer {
  name: "inception_3b/output"
  type: "Concat"
  bottom: "inception_3b/1x1"
  bottom: "inception_3b/3x3"
  bottom: "inception_3b/5x5"
  bottom: "inception_3b/pool_proj"
  top: "inception_3b/output"
}
layer {
  name: "pool3/3x3_s2"
  type: "Pooling"
  bottom: "inception_3b/output"
  top: "pool3/3x3_s2"
  pooling_param {
    pool: MAX
    kernel_size: 3
    stride: 2
  }
}
layer {
  name: "inception_4a/1x1"
  type: "Convolution"
  bottom: "pool3/3x3_s2"
  top: "inception_4a/1x1"
  param {
    lr_mult: 1
    decay_mult: 1
  }
  param {
    lr_mult: 2
    decay_mult: 0
  }
  convolution_param {
    num_output: 192
    kernel_size: 1
    weight_filler {
      type: "xavier"
      std: 0.03
    }
    bias_filler {
      type: "constant"
      value: 0.2
    }
  }
}
layer {
  name: "inception_4a/relu_1x1"
  type: "ReLU"
  bottom: "inception_4a/1x1"
  top: "inception_4a/1x1"
}
layer {
  name: "inception_4a/3x3_reduce"
  type: "Convolution"
  bottom: "pool3/3x3_s2"
  top: "inception_4a/3x3_reduce"
  param {
    lr_mult: 1
    decay_mult: 1
  }
  param {
    lr_mult: 2
    decay_mult: 0
  }
  convolution_param {
    num_output: 96
    kernel_size: 1
    weight_filler {
      type: "xavier"
      std: 0.09
    }
    bias_filler {
      type: "constant"
      value: 0.2
    }
  }
}
layer {
  name: "inception_4a/relu_3x3_reduce"
  type: "ReLU"
  bottom: "inception_4a/3x3_reduce"
  top: "inception_4a/3x3_reduce"
}
layer {
  name: "inception_4a/3x3"
  type: "Convolution"
  bottom: "inception_4a/3x3_reduce"
  top: "inception_4a/3x3"
  param {
    lr_mult: 1
    decay_mult: 1
  }
  param {
    lr_mult: 2
    decay_mult: 0
  }
  convolution_param {
    num_output: 208
    pad: 1
    kernel_size: 3
    weight_filler {
      type: "xavier"
      std: 0.03
    }
    bias_filler {
      type: "constant"
      value: 0.2
    }
  }
}
layer {
  name: "inception_4a/relu_3x3"
  type: "ReLU"
  bottom: "inception_4a/3x3"
  top: "inception_4a/3x3"
}
layer {
  name: "inception_4a/5x5_reduce"
  type: "Convolution"
  bottom: "pool3/3x3_s2"
  top: "inception_4a/5x5_reduce"
  param {
    lr_mult: 1
    decay_mult: 1
  }
  param {
    lr_mult: 2
    decay_mult: 0
  }
  convolution_param {
    num_output: 16
    kernel_size: 1
    weight_filler {
      type: "xavier"
      std: 0.2
    }
    bias_filler {
      type: "constant"
      value: 0.2
    }
  }
}
layer {
  name: "inception_4a/relu_5x5_reduce"
  type: "ReLU"
  bottom: "inception_4a/5x5_reduce"
  top: "inception_4a/5x5_reduce"
}
layer {
  name: "inception_4a/5x5"
  type: "Convolution"
  bottom: "inception_4a/5x5_reduce"
  top: "inception_4a/5x5"
  param {
    lr_mult: 1
    decay_mult: 1
  }
  param {
    lr_mult: 2
    decay_mult: 0
  }
  convolution_param {
    num_output: 48
    pad: 2
    kernel_size: 5
    weight_filler {
      type: "xavier"
      std: 0.03
    }
    bias_filler {
      type: "constant"
      value: 0.2
    }
  }
}
layer {
  name: "inception_4a/relu_5x5"
  type: "ReLU"
  bottom: "inception_4a/5x5"
  top: "inception_4a/5x5"
}
layer {
  name: "inception_4a/pool"
  type: "Pooling"
  bottom: "pool3/3x3_s2"
  top: "inception_4a/pool"
  pooling_param {
    pool: MAX
    kernel_size: 3
    stride: 1
    pad: 1
  }
}
layer {
  name: "inception_4a/pool_proj"
  type: "Convolution"
  bottom: "inception_4a/pool"
  top: "inception_4a/pool_proj"
  param {
    lr_mult: 1
    decay_mult: 1
  }
  param {
    lr_mult: 2
    decay_mult: 0
  }
  convolution_param {
    num_output: 64
    kernel_size: 1
    weight_filler {
      type: "xavier"
      std: 0.1
    }
    bias_filler {
      type: "constant"
      value: 0.2
    }
  }
}
layer {
  name: "inception_4a/relu_pool_proj"
  type: "ReLU"
  bottom: "inception_4a/pool_proj"
  top: "inception_4a/pool_proj"
}
layer {
  name: "inception_4a/output"
  type: "Concat"
  bottom: "inception_4a/1x1"
  bottom: "inception_4a/3x3"
  bottom: "inception_4a/5x5"
  bottom: "inception_4a/pool_proj"
  top: "inception_4a/output"
}
layer {
  name: "loss1/ave_pool"
  type: "Pooling"
  bottom: "inception_4a/output"
  top: "loss1/ave_pool"
  pooling_param {
    pool: AVE
    kernel_size: 5
    stride: 3
  }
}
layer {
  name: "loss1/conv"
  type: "Convolution"
  bottom: "loss1/ave_pool"
  top: "loss1/conv"
  param {
    lr_mult: 1
    decay_mult: 1
  }
  param {
    lr_mult: 2
    decay_mult: 0
  }
  convolution_param {
    num_output: 128
    kernel_size: 1
    weight_filler {
      type: "xavier"
      std: 0.08
    }
    bias_filler {
      type: "constant"
      value: 0.2
    }
  }
}
layer {
  name: "loss1/relu_conv"
  type: "ReLU"
  bottom: "loss1/conv"
  top: "loss1/conv"
}
layer {
  name: "loss1/fc"
  type: "InnerProduct"
  bottom: "loss1/conv"
  top: "loss1/fc"
  param {
    lr_mult: 1
    decay_mult: 1
  }
  param {
    lr_mult: 2
    decay_mult: 0
  }
  inner_product_param {
    num_output: 1024
    weight_filler {
      type: "xavier"
      std: 0.02
    }
    bias_filler {
      type: "constant"
      value: 0.2
    }
  }
}
layer {
  name: "loss1/relu_fc"
  type: "ReLU"
  bottom: "loss1/fc"
  top: "loss1/fc"
}
layer {
  name: "loss1/drop_fc"
  type: "Dropout"
  bottom: "loss1/fc"
  top: "loss1/fc"
  dropout_param {
    dropout_ratio: 0.7
  }
}
layer {
  name: "loss1/classifier_kaggle"
  type: "InnerProduct"
  bottom: "loss1/fc"
  top: "loss1/classifier_kaggle"
  param {
    lr_mult: 1
    decay_mult: 1
  }
  param {
    lr_mult: 2
    decay_mult: 0
  }
  inner_product_param {
    num_output: 447
    weight_filler {
      type: "xavier"
      std: 0.0009765625
    }
    bias_filler {
      type: "constant"
      value: 0
    }
  }
}
layer {
  name: "loss1/loss"
  type: "SoftmaxWithLoss"
  bottom: "loss1/classifier_kaggle"
  bottom: "label"
  top: "loss1/loss1"
  loss_weight: 0.3
}
layer {
  name: "inception_4b/1x1"
  type: "Convolution"
  bottom: "inception_4a/output"
  top: "inception_4b/1x1"
  param {
    lr_mult: 1
    decay_mult: 1
  }
  param {
    lr_mult: 2
    decay_mult: 0
  }
  convolution_param {
    num_output: 160
    kernel_size: 1
    weight_filler {
      type: "xavier"
      std: 0.03
    }
    bias_filler {
      type: "constant"
      value: 0.2
    }
  }
}
layer {
  name: "inception_4b/relu_1x1"
  type: "ReLU"
  bottom: "inception_4b/1x1"
  top: "inception_4b/1x1"
}
layer {
  name: "inception_4b/3x3_reduce"
  type: "Convolution"
  bottom: "inception_4a/output"
  top: "inception_4b/3x3_reduce"
  param {
    lr_mult: 1
    decay_mult: 1
  }
  param {
    lr_mult: 2
    decay_mult: 0
  }
  convolution_param {
    num_output: 112
    kernel_size: 1
    weight_filler {
      type: "xavier"
      std: 0.09
    }
    bias_filler {
      type: "constant"
      value: 0.2
    }
  }
}
layer {
  name: "inception_4b/relu_3x3_reduce"
  type: "ReLU"
  bottom: "inception_4b/3x3_reduce"
  top: "inception_4b/3x3_reduce"
}
layer {
  name: "inception_4b/3x3"
  type: "Convolution"
  bottom: "inception_4b/3x3_reduce"
  top: "inception_4b/3x3"
  param {
    lr_mult: 1
    decay_mult: 1
  }
  param {
    lr_mult: 2
    decay_mult: 0
  }
  convolution_param {
    num_output: 224
    pad: 1
    kernel_size: 3
    weight_filler {
      type: "xavier"
      std: 0.03
    }
    bias_filler {
      type: "constant"
      value: 0.2
    }
  }
}
layer {
  name: "inception_4b/relu_3x3"
  type: "ReLU"
  bottom: "inception_4b/3x3"
  top: "inception_4b/3x3"
}
layer {
  name: "inception_4b/5x5_reduce"
  type: "Convolution"
  bottom: "inception_4a/output"
  top: "inception_4b/5x5_reduce"
  param {
    lr_mult: 1
    decay_mult: 1
  }
  param {
    lr_mult: 2
    decay_mult: 0
  }
  convolution_param {
    num_output: 24
    kernel_size: 1
    weight_filler {
      type: "xavier"
      std: 0.2
    }
    bias_filler {
      type: "constant"
      value: 0.2
    }
  }
}
layer {
  name: "inception_4b/relu_5x5_reduce"
  type: "ReLU"
  bottom: "inception_4b/5x5_reduce"
  top: "inception_4b/5x5_reduce"
}
layer {
  name: "inception_4b/5x5"
  type: "Convolution"
  bottom: "inception_4b/5x5_reduce"
  top: "inception_4b/5x5"
  param {
    lr_mult: 1
    decay_mult: 1
  }
  param {
    lr_mult: 2
    decay_mult: 0
  }
  convolution_param {
    num_output: 64
    pad: 2
    kernel_size: 5
    weight_filler {
      type: "xavier"
      std: 0.03
    }
    bias_filler {
      type: "constant"
      value: 0.2
    }
  }
}
layer {
  name: "inception_4b/relu_5x5"
  type: "ReLU"
  bottom: "inception_4b/5x5"
  top: "inception_4b/5x5"
}
layer {
  name: "inception_4b/pool"
  type: "Pooling"
  bottom: "inception_4a/output"
  top: "inception_4b/pool"
  pooling_param {
    pool: MAX
    kernel_size: 3
    stride: 1
    pad: 1
  }
}
layer {
  name: "inception_4b/pool_proj"
  type: "Convolution"
  bottom: "inception_4b/pool"
  top: "inception_4b/pool_proj"
  param {
    lr_mult: 1
    decay_mult: 1
  }
  param {
    lr_mult: 2
    decay_mult: 0
  }
  convolution_param {
    num_output: 64
    kernel_size: 1
    weight_filler {
      type: "xavier"
      std: 0.1
    }
    bias_filler {
      type: "constant"
      value: 0.2
    }
  }
}
layer {
  name: "inception_4b/relu_pool_proj"
  type: "ReLU"
  bottom: "inception_4b/pool_proj"
  top: "inception_4b/pool_proj"
}
layer {
  name: "inception_4b/output"
  type: "Concat"
  bottom: "inception_4b/1x1"
  bottom: "inception_4b/3x3"
  bottom: "inception_4b/5x5"
  bottom: "inception_4b/pool_proj"
  top: "inception_4b/output"
}
layer {
  name: "inception_4c/1x1"
  type: "Convolution"
  bottom: "inception_4b/output"
  top: "inception_4c/1x1"
  param {
    lr_mult: 1
    decay_mult: 1
  }
  param {
    lr_mult: 2
    decay_mult: 0
  }
  convolution_param {
    num_output: 128
    kernel_size: 1
    weight_filler {
      type: "xavier"
      std: 0.03
    }
    bias_filler {
      type: "constant"
      value: 0.2
    }
  }
}
layer {
  name: "inception_4c/relu_1x1"
  type: "ReLU"
  bottom: "inception_4c/1x1"
  top: "inception_4c/1x1"
}
layer {
  name: "inception_4c/3x3_reduce"
  type: "Convolution"
  bottom: "inception_4b/output"
  top: "inception_4c/3x3_reduce"
  param {
    lr_mult: 1
    decay_mult: 1
  }
  param {
    lr_mult: 2
    decay_mult: 0
  }
  convolution_param {
    num_output: 128
    kernel_size: 1
    weight_filler {
      type: "xavier"
      std: 0.09
    }
    bias_filler {
      type: "constant"
      value: 0.2
    }
  }
}
layer {
  name: "inception_4c/relu_3x3_reduce"
  type: "ReLU"
  bottom: "inception_4c/3x3_reduce"
  top: "inception_4c/3x3_reduce"
}
layer {
  name: "inception_4c/3x3"
  type: "Convolution"
  bottom: "inception_4c/3x3_reduce"
  top: "inception_4c/3x3"
  param {
    lr_mult: 1
    decay_mult: 1
  }
  param {
    lr_mult: 2
    decay_mult: 0
  }
  convolution_param {
    num_output: 256
    pad: 1
    kernel_size: 3
    weight_filler {
      type: "xavier"
      std: 0.03
    }
    bias_filler {
      type: "constant"
      value: 0.2
    }
  }
}
layer {
  name: "inception_4c/relu_3x3"
  type: "ReLU"
  bottom: "inception_4c/3x3"
  top: "inception_4c/3x3"
}
layer {
  name: "inception_4c/5x5_reduce"
  type: "Convolution"
  bottom: "inception_4b/output"
  top: "inception_4c/5x5_reduce"
  param {
    lr_mult: 1
    decay_mult: 1
  }
  param {
    lr_mult: 2
    decay_mult: 0
  }
  convolution_param {
    num_output: 24
    kernel_size: 1
    weight_filler {
      type: "xavier"
      std: 0.2
    }
    bias_filler {
      type: "constant"
      value: 0.2
    }
  }
}
layer {
  name: "inception_4c/relu_5x5_reduce"
  type: "ReLU"
  bottom: "inception_4c/5x5_reduce"
  top: "inception_4c/5x5_reduce"
}
layer {
  name: "inception_4c/5x5"
  type: "Convolution"
  bottom: "inception_4c/5x5_reduce"
  top: "inception_4c/5x5"
  param {
    lr_mult: 1
    decay_mult: 1
  }
  param {
    lr_mult: 2
    decay_mult: 0
  }
  convolution_param {
    num_output: 64
    pad: 2
    kernel_size: 5
    weight_filler {
      type: "xavier"
      std: 0.03
    }
    bias_filler {
      type: "constant"
      value: 0.2
    }
  }
}
layer {
  name: "inception_4c/relu_5x5"
  type: "ReLU"
  bottom: "inception_4c/5x5"
  top: "inception_4c/5x5"
}
layer {
  name: "inception_4c/pool"
  type: "Pooling"
  bottom: "inception_4b/output"
  top: "inception_4c/pool"
  pooling_param {
    pool: MAX
    kernel_size: 3
    stride: 1
    pad: 1
  }
}
layer {
  name: "inception_4c/pool_proj"
  type: "Convolution"
  bottom: "inception_4c/pool"
  top: "inception_4c/pool_proj"
  param {
    lr_mult: 1
    decay_mult: 1
  }
  param {
    lr_mult: 2
    decay_mult: 0
  }
  convolution_param {
    num_output: 64
    kernel_size: 1
    weight_filler {
      type: "xavier"
      std: 0.1
    }
    bias_filler {
      type: "constant"
      value: 0.2
    }
  }
}
layer {
  name: "inception_4c/relu_pool_proj"
  type: "ReLU"
  bottom: "inception_4c/pool_proj"
  top: "inception_4c/pool_proj"
}
layer {
  name: "inception_4c/output"
  type: "Concat"
  bottom: "inception_4c/1x1"
  bottom: "inception_4c/3x3"
  bottom: "inception_4c/5x5"
  bottom: "inception_4c/pool_proj"
  top: "inception_4c/output"
}
layer {
  name: "inception_4d/1x1"
  type: "Convolution"
  bottom: "inception_4c/output"
  top: "inception_4d/1x1"
  param {
    lr_mult: 1
    decay_mult: 1
  }
  param {
    lr_mult: 2
    decay_mult: 0
  }
  convolution_param {
    num_output: 112
    kernel_size: 1
    weight_filler {
      type: "xavier"
      std: 0.03
    }
    bias_filler {
      type: "constant"
      value: 0.2
    }
  }
}
layer {
  name: "inception_4d/relu_1x1"
  type: "ReLU"
  bottom: "inception_4d/1x1"
  top: "inception_4d/1x1"
}
layer {
  name: "inception_4d/3x3_reduce"
  type: "Convolution"
  bottom: "inception_4c/output"
  top: "inception_4d/3x3_reduce"
  param {
    lr_mult: 1
    decay_mult: 1
  }
  param {
    lr_mult: 2
    decay_mult: 0
  }
  convolution_param {
    num_output: 144
    kernel_size: 1
    weight_filler {
      type: "xavier"
      std: 0.09
    }
    bias_filler {
      type: "constant"
      value: 0.2
    }
  }
}
layer {
  name: "inception_4d/relu_3x3_reduce"
  type: "ReLU"
  bottom: "inception_4d/3x3_reduce"
  top: "inception_4d/3x3_reduce"
}
layer {
  name: "inception_4d/3x3"
  type: "Convolution"
  bottom: "inception_4d/3x3_reduce"
  top: "inception_4d/3x3"
  param {
    lr_mult: 1
    decay_mult: 1
  }
  param {
    lr_mult: 2
    decay_mult: 0
  }
  convolution_param {
    num_output: 288
    pad: 1
    kernel_size: 3
    weight_filler {
      type: "xavier"
      std: 0.03
    }
    bias_filler {
      type: "constant"
      value: 0.2
    }
  }
}
layer {
  name: "inception_4d/relu_3x3"
  type: "ReLU"
  bottom: "inception_4d/3x3"
  top: "inception_4d/3x3"
}
layer {
  name: "inception_4d/5x5_reduce"
  type: "Convolution"
  bottom: "inception_4c/output"
  top: "inception_4d/5x5_reduce"
  param {
    lr_mult: 1
    decay_mult: 1
  }
  param {
    lr_mult: 2
    decay_mult: 0
  }
  convolution_param {
    num_output: 32
    kernel_size: 1
    weight_filler {
      type: "xavier"
      std: 0.2
    }
    bias_filler {
      type: "constant"
      value: 0.2
    }
  }
}
layer {
  name: "inception_4d/relu_5x5_reduce"
  type: "ReLU"
  bottom: "inception_4d/5x5_reduce"
  top: "inception_4d/5x5_reduce"
}
layer {
  name: "inception_4d/5x5"
  type: "Convolution"
  bottom: "inception_4d/5x5_reduce"
  top: "inception_4d/5x5"
  param {
    lr_mult: 1
    decay_mult: 1
  }
  param {
    lr_mult: 2
    decay_mult: 0
  }
  convolution_param {
    num_output: 64
    pad: 2
    kernel_size: 5
    weight_filler {
      type: "xavier"
      std: 0.03
    }
    bias_filler {
      type: "constant"
      value: 0.2
    }
  }
}
layer {
  name: "inception_4d/relu_5x5"
  type: "ReLU"
  bottom: "inception_4d/5x5"
  top: "inception_4d/5x5"
}
layer {
  name: "inception_4d/pool"
  type: "Pooling"
  bottom: "inception_4c/output"
  top: "inception_4d/pool"
  pooling_param {
    pool: MAX
    kernel_size: 3
    stride: 1
    pad: 1
  }
}
layer {
  name: "inception_4d/pool_proj"
  type: "Convolution"
  bottom: "inception_4d/pool"
  top: "inception_4d/pool_proj"
  param {
    lr_mult: 1
    decay_mult: 1
  }
  param {
    lr_mult: 2
    decay_mult: 0
  }
  convolution_param {
    num_output: 64
    kernel_size: 1
    weight_filler {
      type: "xavier"
      std: 0.1
    }
    bias_filler {
      type: "constant"
      value: 0.2
    }
  }
}
layer {
  name: "inception_4d/relu_pool_proj"
  type: "ReLU"
  bottom: "inception_4d/pool_proj"
  top: "inception_4d/pool_proj"
}
layer {
  name: "inception_4d/output"
  type: "Concat"
  bottom: "inception_4d/1x1"
  bottom: "inception_4d/3x3"
  bottom: "inception_4d/5x5"
  bottom: "inception_4d/pool_proj"
  top: "inception_4d/output"
}
layer {
  name: "loss2/ave_pool"
  type: "Pooling"
  bottom: "inception_4d/output"
  top: "loss2/ave_pool"
  pooling_param {
    pool: AVE
    kernel_size: 5
    stride: 3
  }
}
layer {
  name: "loss2/conv"
  type: "Convolution"
  bottom: "loss2/ave_pool"
  top: "loss2/conv"
  param {
    lr_mult: 1
    decay_mult: 1
  }
  param {
    lr_mult: 2
    decay_mult: 0
  }
  convolution_param {
    num_output: 128
    kernel_size: 1
    weight_filler {
      type: "xavier"
      std: 0.08
    }
    bias_filler {
      type: "constant"
      value: 0.2
    }
  }
}
layer {
  name: "loss2/relu_conv"
  type: "ReLU"
  bottom: "loss2/conv"
  top: "loss2/conv"
}
layer {
  name: "loss2/fc"
  type: "InnerProduct"
  bottom: "loss2/conv"
  top: "loss2/fc"
  param {
    lr_mult: 1
    decay_mult: 1
  }
  param {
    lr_mult: 2
    decay_mult: 0
  }
  inner_product_param {
    num_output: 1024
    weight_filler {
      type: "xavier"
      std: 0.02
    }
    bias_filler {
      type: "constant"
      value: 0.2
    }
  }
}
layer {
  name: "loss2/relu_fc"
  type: "ReLU"
  bottom: "loss2/fc"
  top: "loss2/fc"
}
layer {
  name: "loss2/drop_fc"
  type: "Dropout"
  bottom: "loss2/fc"
  top: "loss2/fc"
  dropout_param {
    dropout_ratio: 0.7
  }
}
layer {
  name: "loss2/classifier_kaggle"
  type: "InnerProduct"
  bottom: "loss2/fc"
  top: "loss2/classifier_kaggle"
  param {
    lr_mult: 1
    decay_mult: 1
  }
  param {
    lr_mult: 2
    decay_mult: 0
  }
  inner_product_param {
    num_output: 447
    weight_filler {
      type: "xavier"
      std: 0.0009765625
    }
    bias_filler {
      type: "constant"
      value: 0
    }
  }
}
layer {
  name: "loss2/loss"
  type: "SoftmaxWithLoss"
  bottom: "loss2/classifier_kaggle"
  bottom: "label"
  top: "loss2/loss1"
  loss_weight: 0.3
}
layer {
  name: "inception_4e/1x1"
  type: "Convolution"
  bottom: "inception_4d/output"
  top: "inception_4e/1x1"
  param {
    lr_mult: 1
    decay_mult: 1
  }
  param {
    lr_mult: 2
    decay_mult: 0
  }
  convolution_param {
    num_output: 256
    kernel_size: 1
    weight_filler {
      type: "xavier"
      std: 0.03
    }
    bias_filler {
      type: "constant"
      value: 0.2
    }
  }
}
layer {
  name: "inception_4e/relu_1x1"
  type: "ReLU"
  bottom: "inception_4e/1x1"
  top: "inception_4e/1x1"
}
layer {
  name: "inception_4e/3x3_reduce"
  type: "Convolution"
  bottom: "inception_4d/output"
  top: "inception_4e/3x3_reduce"
  param {
    lr_mult: 1
    decay_mult: 1
  }
  param {
    lr_mult: 2
    decay_mult: 0
  }
  convolution_param {
    num_output: 160
    kernel_size: 1
    weight_filler {
      type: "xavier"
      std: 0.09
    }
    bias_filler {
      type: "constant"
      value: 0.2
    }
  }
}
layer {
  name: "inception_4e/relu_3x3_reduce"
  type: "ReLU"
  bottom: "inception_4e/3x3_reduce"
  top: "inception_4e/3x3_reduce"
}
layer {
  name: "inception_4e/3x3"
  type: "Convolution"
  bottom: "inception_4e/3x3_reduce"
  top: "inception_4e/3x3"
  param {
    lr_mult: 1
    decay_mult: 1
  }
  param {
    lr_mult: 2
    decay_mult: 0
  }
  convolution_param {
    num_output: 320
    pad: 1
    kernel_size: 3
    weight_filler {
      type: "xavier"
      std: 0.03
    }
    bias_filler {
      type: "constant"
      value: 0.2
    }
  }
}
layer {
  name: "inception_4e/relu_3x3"
  type: "ReLU"
  bottom: "inception_4e/3x3"
  top: "inception_4e/3x3"
}
layer {
  name: "inception_4e/5x5_reduce"
  type: "Convolution"
  bottom: "inception_4d/output"
  top: "inception_4e/5x5_reduce"
  param {
    lr_mult: 1
    decay_mult: 1
  }
  param {
    lr_mult: 2
    decay_mult: 0
  }
  convolution_param {
    num_output: 32
    kernel_size: 1
    weight_filler {
      type: "xavier"
      std: 0.2
    }
    bias_filler {
      type: "constant"
      value: 0.2
    }
  
I1214 21:47:10.387893 29761 layer_factory.hpp:74] Creating layer data
I1214 21:47:10.387924 29761 net.cpp:84] Creating Layer data
I1214 21:47:10.387933 29761 net.cpp:338] data -> data
I1214 21:47:10.387969 29761 net.cpp:338] data -> label
I1214 21:47:10.387982 29761 net.cpp:113] Setting up data
I1214 21:47:10.388049 29761 db.cpp:34] Opened lmdb /home/coldmanck/kaggle/kaggle2_train_lmdb
I1214 21:47:10.388245 29761 data_layer.cpp:67] output data size: 32,3,224,224
I1214 21:47:10.393474 29761 net.cpp:120] Top shape: 32 3 224 224 (4816896)
I1214 21:47:10.393498 29761 net.cpp:120] Top shape: 32 (32)
I1214 21:47:10.393507 29761 layer_factory.hpp:74] Creating layer label_data_1_split
I1214 21:47:10.393537 29761 net.cpp:84] Creating Layer label_data_1_split
I1214 21:47:10.393544 29761 net.cpp:380] label_data_1_split <- label
I1214 21:47:10.393559 29761 net.cpp:338] label_data_1_split -> label_data_1_split_0
I1214 21:47:10.393571 29761 net.cpp:338] label_data_1_split -> label_data_1_split_1
I1214 21:47:10.393579 29761 net.cpp:338] label_data_1_split -> label_data_1_split_2
I1214 21:47:10.393586 29761 net.cpp:113] Setting up label_data_1_split
I1214 21:47:10.393595 29761 net.cpp:120] Top shape: 32 (32)
I1214 21:47:10.393610 29761 net.cpp:120] Top shape: 32 (32)
I1214 21:47:10.393625 29761 net.cpp:120] Top shape: 32 (32)
I1214 21:47:10.393630 29761 layer_factory.hpp:74] Creating layer conv1/7x7_s2
I1214 21:47:10.393642 29761 net.cpp:84] Creating Layer conv1/7x7_s2
I1214 21:47:10.393647 29761 net.cpp:380] conv1/7x7_s2 <- data
I1214 21:47:10.393654 29761 net.cpp:338] conv1/7x7_s2 -> conv1/7x7_s2
I1214 21:47:10.393666 29761 net.cpp:113] Setting up conv1/7x7_s2
I1214 21:47:10.739665 29761 net.cpp:120] Top shape: 32 64 112 112 (25690112)
I1214 21:47:10.739742 29761 layer_factory.hpp:74] Creating layer conv1/relu_7x7
I1214 21:47:10.739789 29761 net.cpp:84] Creating Layer conv1/relu_7x7
I1214 21:47:10.739796 29761 net.cpp:380] conv1/relu_7x7 <- conv1/7x7_s2
I1214 21:47:10.739809 29761 net.cpp:327] conv1/relu_7x7 -> conv1/7x7_s2 (in-place)
I1214 21:47:10.739821 29761 net.cpp:113] Setting up conv1/relu_7x7
I1214 21:47:10.743018 29761 net.cpp:120] Top shape: 32 64 112 112 (25690112)
I1214 21:47:10.743060 29761 layer_factory.hpp:74] Creating layer pool1/3x3_s2
I1214 21:47:10.743094 29761 net.cpp:84] Creating Layer pool1/3x3_s2
I1214 21:47:10.743103 29761 net.cpp:380] pool1/3x3_s2 <- conv1/7x7_s2
I1214 21:47:10.743114 29761 net.cpp:338] pool1/3x3_s2 -> pool1/3x3_s2
I1214 21:47:10.743127 29761 net.cpp:113] Setting up pool1/3x3_s2
I1214 21:47:10.743219 29761 net.cpp:120] Top shape: 32 64 56 56 (6422528)
I1214 21:47:10.743230 29761 layer_factory.hpp:74] Creating layer pool1/norm1
I1214 21:47:10.743252 29761 net.cpp:84] Creating Layer pool1/norm1
I1214 21:47:10.743258 29761 net.cpp:380] pool1/norm1 <- pool1/3x3_s2
I1214 21:47:10.743268 29761 net.cpp:338] pool1/norm1 -> pool1/norm1
I1214 21:47:10.743276 29761 net.cpp:113] Setting up pool1/norm1
I1214 21:47:10.743285 29761 net.cpp:120] Top shape: 32 64 56 56 (6422528)
I1214 21:47:10.743291 29761 layer_factory.hpp:74] Creating layer conv2/3x3_reduce
I1214 21:47:10.743302 29761 net.cpp:84] Creating Layer conv2/3x3_reduce
I1214 21:47:10.743309 29761 net.cpp:380] conv2/3x3_reduce <- pool1/norm1
I1214 21:47:10.743316 29761 net.cpp:338] conv2/3x3_reduce -> conv2/3x3_reduce
I1214 21:47:10.743327 29761 net.cpp:113] Setting up conv2/3x3_reduce
I1214 21:47:10.746228 29761 net.cpp:120] Top shape: 32 64 56 56 (6422528)
I1214 21:47:10.746253 29761 layer_factory.hpp:74] Creating layer conv2/relu_3x3_reduce
I1214 21:47:10.746263 29761 net.cpp:84] Creating Layer conv2/relu_3x3_reduce
I1214 21:47:10.746269 29761 net.cpp:380] conv2/relu_3x3_reduce <- conv2/3x3_reduce
I1214 21:47:10.746278 29761 net.cpp:327] conv2/relu_3x3_reduce -> conv2/3x3_reduce (in-place)
I1214 21:47:10.746286 29761 net.cpp:113] Setting up conv2/relu_3x3_reduce
I1214 21:47:10.746351 29761 net.cpp:120] Top shape: 32 64 56 56 (6422528)
I1214 21:47:10.746357 29761 layer_factory.hpp:74] Creating layer conv2/3x3
I1214 21:47:10.746368 29761 net.cpp:84] Creating Layer conv2/3x3
I1214 21:47:10.746373 29761 net.cpp:380] conv2/3x3 <- conv2/3x3_reduce
I1214 21:47:10.746384 29761 net.cpp:338] conv2/3x3 -> conv2/3x3
I1214 21:47:10.746394 29761 net.cpp:113] Setting up conv2/3x3
I1214 21:47:10.754333 29761 net.cpp:120] Top shape: 32 192 56 56 (19267584)
I1214 21:47:10.754389 29761 layer_factory.hpp:74] Creating layer conv2/relu_3x3
I1214 21:47:10.754408 29761 net.cpp:84] Creating Layer conv2/relu_3x3
I1214 21:47:10.754415 29761 net.cpp:380] conv2/relu_3x3 <- conv2/3x3
I1214 21:47:10.754426 29761 net.cpp:327] conv2/relu_3x3 -> conv2/3x3 (in-place)
I1214 21:47:10.754437 29761 net.cpp:113] Setting up conv2/relu_3x3
I1214 21:47:10.755444 29761 net.cpp:120] Top shape: 32 192 56 56 (19267584)
I1214 21:47:10.755463 29761 layer_factory.hpp:74] Creating layer conv2/norm2
I1214 21:47:10.755476 29761 net.cpp:84] Creating Layer conv2/norm2
I1214 21:47:10.755482 29761 net.cpp:380] conv2/norm2 <- conv2/3x3
I1214 21:47:10.755492 29761 net.cpp:338] conv2/norm2 -> conv2/norm2
I1214 21:47:10.755502 29761 net.cpp:113] Setting up conv2/norm2
I1214 21:47:10.755512 29761 net.cpp:120] Top shape: 32 192 56 56 (19267584)
I1214 21:47:10.755517 29761 layer_factory.hpp:74] Creating layer pool2/3x3_s2
I1214 21:47:10.755538 29761 net.cpp:84] Creating Layer pool2/3x3_s2
I1214 21:47:10.755555 29761 net.cpp:380] pool2/3x3_s2 <- conv2/norm2
I1214 21:47:10.755563 29761 net.cpp:338] pool2/3x3_s2 -> pool2/3x3_s2
I1214 21:47:10.755571 29761 net.cpp:113] Setting up pool2/3x3_s2
I1214 21:47:10.755645 29761 net.cpp:120] Top shape: 32 192 28 28 (4816896)
I1214 21:47:10.755651 29761 layer_factory.hpp:74] Creating layer pool2/3x3_s2_pool2/3x3_s2_0_split
I1214 21:47:10.755659 29761 net.cpp:84] Creating Layer pool2/3x3_s2_pool2/3x3_s2_0_split
I1214 21:47:10.755664 29761 net.cpp:380] pool2/3x3_s2_pool2/3x3_s2_0_split <- pool2/3x3_s2
I1214 21:47:10.755672 29761 net.cpp:338] pool2/3x3_s2_pool2/3x3_s2_0_split -> pool2/3x3_s2_pool2/3x3_s2_0_split_0
I1214 21:47:10.755681 29761 net.cpp:338] pool2/3x3_s2_pool2/3x3_s2_0_split -> pool2/3x3_s2_pool2/3x3_s2_0_split_1
I1214 21:47:10.755687 29761 net.cpp:338] pool2/3x3_s2_pool2/3x3_s2_0_split -> pool2/3x3_s2_pool2/3x3_s2_0_split_2
I1214 21:47:10.755694 29761 net.cpp:338] pool2/3x3_s2_pool2/3x3_s2_0_split -> pool2/3x3_s2_pool2/3x3_s2_0_split_3
I1214 21:47:10.755700 29761 net.cpp:113] Setting up pool2/3x3_s2_pool2/3x3_s2_0_split
I1214 21:47:10.755708 29761 net.cpp:120] Top shape: 32 192 28 28 (4816896)
I1214 21:47:10.755713 29761 net.cpp:120] Top shape: 32 192 28 28 (4816896)
I1214 21:47:10.755719 29761 net.cpp:120] Top shape: 32 192 28 28 (4816896)
I1214 21:47:10.755724 29761 net.cpp:120] Top shape: 32 192 28 28 (4816896)
I1214 21:47:10.755728 29761 layer_factory.hpp:74] Creating layer inception_3a/1x1
I1214 21:47:10.755739 29761 net.cpp:84] Creating Layer inception_3a/1x1
I1214 21:47:10.755744 29761 net.cpp:380] inception_3a/1x1 <- pool2/3x3_s2_pool2/3x3_s2_0_split_0
I1214 21:47:10.755753 29761 net.cpp:338] inception_3a/1x1 -> inception_3a/1x1
I1214 21:47:10.755764 29761 net.cpp:113] Setting up inception_3a/1x1
I1214 21:47:10.757315 29761 net.cpp:120] Top shape: 32 64 28 28 (1605632)
I1214 21:47:10.757334 29761 layer_factory.hpp:74] Creating layer inception_3a/relu_1x1
I1214 21:47:10.757344 29761 net.cpp:84] Creating Layer inception_3a/relu_1x1
I1214 21:47:10.757350 29761 net.cpp:380] inception_3a/relu_1x1 <- inception_3a/1x1
I1214 21:47:10.757359 29761 net.cpp:327] inception_3a/relu_1x1 -> inception_3a/1x1 (in-place)
I1214 21:47:10.757366 29761 net.cpp:113] Setting up inception_3a/relu_1x1
I1214 21:47:10.757433 29761 net.cpp:120] Top shape: 32 64 28 28 (1605632)
I1214 21:47:10.757441 29761 layer_factory.hpp:74] Creating layer inception_3a/3x3_reduce
I1214 21:47:10.757449 29761 net.cpp:84] Creating Layer inception_3a/3x3_reduce
I1214 21:47:10.757455 29761 net.cpp:380] inception_3a/3x3_reduce <- pool2/3x3_s2_pool2/3x3_s2_0_split_1
I1214 21:47:10.757463 29761 net.cpp:338] inception_3a/3x3_reduce -> inception_3a/3x3_reduce
I1214 21:47:10.757472 29761 net.cpp:113] Setting up inception_3a/3x3_reduce
I1214 21:47:10.759734 29761 net.cpp:120] Top shape: 32 96 28 28 (2408448)
I1214 21:47:10.759757 29761 layer_factory.hpp:74] Creating layer inception_3a/relu_3x3_reduce
I1214 21:47:10.759770 29761 net.cpp:84] Creating Layer inception_3a/relu_3x3_reduce
I1214 21:47:10.759776 29761 net.cpp:380] inception_3a/relu_3x3_reduce <- inception_3a/3x3_reduce
I1214 21:47:10.759785 29761 net.cpp:327] inception_3a/relu_3x3_reduce -> inception_3a/3x3_reduce (in-place)
I1214 21:47:10.759793 29761 net.cpp:113] Setting up inception_3a/relu_3x3_reduce
I1214 21:47:10.759860 29761 net.cpp:120] Top shape: 32 96 28 28 (2408448)
I1214 21:47:10.759867 29761 layer_factory.hpp:74] Creating layer inception_3a/3x3
I1214 21:47:10.759877 29761 net.cpp:84] Creating Layer inception_3a/3x3
I1214 21:47:10.759882 29761 net.cpp:380] inception_3a/3x3 <- inception_3a/3x3_reduce
I1214 21:47:10.759891 29761 net.cpp:338] inception_3a/3x3 -> inception_3a/3x3
I1214 21:47:10.759901 29761 net.cpp:113] Setting up inception_3a/3x3
I1214 21:47:10.762014 29761 net.cpp:120] Top shape: 32 128 28 28 (3211264)
I1214 21:47:10.762032 29761 layer_factory.hpp:74] Creating layer inception_3a/relu_3x3
I1214 21:47:10.762042 29761 net.cpp:84] Creating Layer inception_3a/relu_3x3
I1214 21:47:10.762054 29761 net.cpp:380] inception_3a/relu_3x3 <- inception_3a/3x3
I1214 21:47:10.762070 29761 net.cpp:327] inception_3a/relu_3x3 -> inception_3a/3x3 (in-place)
I1214 21:47:10.762079 29761 net.cpp:113] Setting up inception_3a/relu_3x3
I1214 21:47:10.762456 29761 net.cpp:120] Top shape: 32 128 28 28 (3211264)
I1214 21:47:10.762469 29761 layer_factory.hpp:74] Creating layer inception_3a/5x5_reduce
I1214 21:47:10.762480 29761 net.cpp:84] Creating Layer inception_3a/5x5_reduce
I1214 21:47:10.762485 29761 net.cpp:380] inception_3a/5x5_reduce <- pool2/3x3_s2_pool2/3x3_s2_0_split_2
I1214 21:47:10.762496 29761 net.cpp:338] inception_3a/5x5_reduce -> inception_3a/5x5_reduce
I1214 21:47:10.762509 29761 net.cpp:113] Setting up inception_3a/5x5_reduce
I1214 21:47:10.763198 29761 net.cpp:120] Top shape: 32 16 28 28 (401408)
I1214 21:47:10.763216 29761 layer_factory.hpp:74] Creating layer inception_3a/relu_5x5_reduce
I1214 21:47:10.763223 29761 net.cpp:84] Creating Layer inception_3a/relu_5x5_reduce
I1214 21:47:10.763228 29761 net.cpp:380] inception_3a/relu_5x5_reduce <- inception_3a/5x5_reduce
I1214 21:47:10.763236 29761 net.cpp:327] inception_3a/relu_5x5_reduce -> inception_3a/5x5_reduce (in-place)
I1214 21:47:10.763243 29761 net.cpp:113] Setting up inception_3a/relu_5x5_reduce
I1214 21:47:10.763312 29761 net.cpp:120] Top shape: 32 16 28 28 (401408)
I1214 21:47:10.763320 29761 layer_factory.hpp:74] Creating layer inception_3a/5x5
I1214 21:47:10.763336 29761 net.cpp:84] Creating Layer inception_3a/5x5
I1214 21:47:10.763341 29761 net.cpp:380] inception_3a/5x5 <- inception_3a/5x5_reduce
I1214 21:47:10.763348 29761 net.cpp:338] inception_3a/5x5 -> inception_3a/5x5
I1214 21:47:10.763357 29761 net.cpp:113] Setting up inception_3a/5x5
I1214 21:47:10.764852 29761 net.cpp:120] Top shape: 32 32 28 28 (802816)
I1214 21:47:10.764868 29761 layer_factory.hpp:74] Creating layer inception_3a/relu_5x5
I1214 21:47:10.764874 29761 net.cpp:84] Creating Layer inception_3a/relu_5x5
I1214 21:47:10.764880 29761 net.cpp:380] inception_3a/relu_5x5 <- inception_3a/5x5
I1214 21:47:10.764889 29761 net.cpp:327] inception_3a/relu_5x5 -> inception_3a/5x5 (in-place)
I1214 21:47:10.764896 29761 net.cpp:113] Setting up inception_3a/relu_5x5
I1214 21:47:10.764962 29761 net.cpp:120] Top shape: 32 32 28 28 (802816)
I1214 21:47:10.764968 29761 layer_factory.hpp:74] Creating layer inception_3a/pool
I1214 21:47:10.764974 29761 layer_factory.cpp:56] CUDNN does not support padding or multiple tops. Using Caffe's own pooling layer.
I1214 21:47:10.764982 29761 net.cpp:84] Creating Layer inception_3a/pool
I1214 21:47:10.764987 29761 net.cpp:380] inception_3a/pool <- pool2/3x3_s2_pool2/3x3_s2_0_split_3
I1214 21:47:10.764996 29761 net.cpp:338] inception_3a/pool -> inception_3a/pool
I1214 21:47:10.765003 29761 net.cpp:113] Setting up inception_3a/pool
I1214 21:47:10.765012 29761 net.cpp:120] Top shape: 32 192 28 28 (4816896)
I1214 21:47:10.765017 29761 layer_factory.hpp:74] Creating layer inception_3a/pool_proj
I1214 21:47:10.765027 29761 net.cpp:84] Creating Layer inception_3a/pool_proj
I1214 21:47:10.765032 29761 net.cpp:380] inception_3a/pool_proj <- inception_3a/pool
I1214 21:47:10.765041 29761 net.cpp:338] inception_3a/pool_proj -> inception_3a/pool_proj
I1214 21:47:10.765049 29761 net.cpp:113] Setting up inception_3a/pool_proj
I1214 21:47:10.765765 29761 net.cpp:120] Top shape: 32 32 28 28 (802816)
I1214 21:47:10.765785 29761 layer_factory.hpp:74] Creating layer inception_3a/relu_pool_proj
I1214 21:47:10.765792 29761 net.cpp:84] Creating Layer inception_3a/relu_pool_proj
I1214 21:47:10.765797 29761 net.cpp:380] inception_3a/relu_pool_proj <- inception_3a/pool_proj
I1214 21:47:10.765806 29761 net.cpp:327] inception_3a/relu_pool_proj -> inception_3a/pool_proj (in-place)
I1214 21:47:10.765813 29761 net.cpp:113] Setting up inception_3a/relu_pool_proj
I1214 21:47:10.765880 29761 net.cpp:120] Top shape: 32 32 28 28 (802816)
I1214 21:47:10.765888 29761 layer_factory.hpp:74] Creating layer inception_3a/output
I1214 21:47:10.765918 29761 net.cpp:84] Creating Layer inception_3a/output
I1214 21:47:10.765930 29761 net.cpp:380] inception_3a/output <- inception_3a/1x1
I1214 21:47:10.765938 29761 net.cpp:380] inception_3a/output <- inception_3a/3x3
I1214 21:47:10.765944 29761 net.cpp:380] inception_3a/output <- inception_3a/5x5
I1214 21:47:10.765949 29761 net.cpp:380] inception_3a/output <- inception_3a/pool_proj
I1214 21:47:10.765954 29761 net.cpp:338] inception_3a/output -> inception_3a/output
I1214 21:47:10.765961 29761 net.cpp:113] Setting up inception_3a/output
I1214 21:47:10.765970 29761 net.cpp:120] Top shape: 32 256 28 28 (6422528)
I1214 21:47:10.765974 29761 layer_factory.hpp:74] Creating layer inception_3a/output_inception_3a/output_0_split
I1214 21:47:10.765983 29761 net.cpp:84] Creating Layer inception_3a/output_inception_3a/output_0_split
I1214 21:47:10.765988 29761 net.cpp:380] inception_3a/output_inception_3a/output_0_split <- inception_3a/output
I1214 21:47:10.765995 29761 net.cpp:338] inception_3a/output_inception_3a/output_0_split -> inception_3a/output_inception_3a/output_0_split_0
I1214 21:47:10.766001 29761 net.cpp:338] inception_3a/output_inception_3a/output_0_split -> inception_3a/output_inception_3a/output_0_split_1
I1214 21:47:10.766008 29761 net.cpp:338] inception_3a/output_inception_3a/output_0_split -> inception_3a/output_inception_3a/output_0_split_2
I1214 21:47:10.766016 29761 net.cpp:338] inception_3a/output_inception_3a/output_0_split -> inception_3a/output_inception_3a/output_0_split_3
I1214 21:47:10.766021 29761 net.cpp:113] Setting up inception_3a/output_inception_3a/output_0_split
I1214 21:47:10.766028 29761 net.cpp:120] Top shape: 32 256 28 28 (6422528)
I1214 21:47:10.766033 29761 net.cpp:120] Top shape: 32 256 28 28 (6422528)
I1214 21:47:10.766038 29761 net.cpp:120] Top shape: 32 256 28 28 (6422528)
I1214 21:47:10.766043 29761 net.cpp:120] Top shape: 32 256 28 28 (6422528)
I1214 21:47:10.766047 29761 layer_factory.hpp:74] Creating layer inception_3b/1x1
I1214 21:47:10.766057 29761 net.cpp:84] Creating Layer inception_3b/1x1
I1214 21:47:10.766062 29761 net.cpp:380] inception_3b/1x1 <- inception_3a/output_inception_3a/output_0_split_0
I1214 21:47:10.766072 29761 net.cpp:338] inception_3b/1x1 -> inception_3b/1x1
I1214 21:47:10.766078 29761 net.cpp:113] Setting up inception_3b/1x1
I1214 21:47:10.767585 29761 net.cpp:120] Top shape: 32 128 28 28 (3211264)
I1214 21:47:10.767601 29761 layer_factory.hpp:74] Creating layer inception_3b/relu_1x1
I1214 21:47:10.767613 29761 net.cpp:84] Creating Layer inception_3b/relu_1x1
I1214 21:47:10.767618 29761 net.cpp:380] inception_3b/relu_1x1 <- inception_3b/1x1
I1214 21:47:10.767626 29761 net.cpp:327] inception_3b/relu_1x1 -> inception_3b/1x1 (in-place)
I1214 21:47:10.767633 29761 net.cpp:113] Setting up inception_3b/relu_1x1
I1214 21:47:10.768925 29761 net.cpp:120] Top shape: 32 128 28 28 (3211264)
I1214 21:47:10.768939 29761 layer_factory.hpp:74] Creating layer inception_3b/3x3_reduce
I1214 21:47:10.768949 29761 net.cpp:84] Creating Layer inception_3b/3x3_reduce
I1214 21:47:10.768955 29761 net.cpp:380] inception_3b/3x3_reduce <- inception_3a/output_inception_3a/output_0_split_1
I1214 21:47:10.768965 29761 net.cpp:338] inception_3b/3x3_reduce -> inception_3b/3x3_reduce
I1214 21:47:10.768973 29761 net.cpp:113] Setting up inception_3b/3x3_reduce
I1214 21:47:10.770473 29761 net.cpp:120] Top shape: 32 128 28 28 (3211264)
I1214 21:47:10.770489 29761 layer_factory.hpp:74] Creating layer inception_3b/relu_3x3_reduce
I1214 21:47:10.770498 29761 net.cpp:84] Creating Layer inception_3b/relu_3x3_reduce
I1214 21:47:10.770503 29761 net.cpp:380] inception_3b/relu_3x3_reduce <- inception_3b/3x3_reduce
I1214 21:47:10.770509 29761 net.cpp:327] inception_3b/relu_3x3_reduce -> inception_3b/3x3_reduce (in-place)
I1214 21:47:10.770517 29761 net.cpp:113] Setting up inception_3b/relu_3x3_reduce
I1214 21:47:10.770586 29761 net.cpp:120] Top shape: 32 128 28 28 (3211264)
I1214 21:47:10.770592 29761 layer_factory.hpp:74] Creating layer inception_3b/3x3
I1214 21:47:10.770606 29761 net.cpp:84] Creating Layer inception_3b/3x3
I1214 21:47:10.770617 29761 net.cpp:380] inception_3b/3x3 <- inception_3b/3x3_reduce
I1214 21:47:10.770632 29761 net.cpp:338] inception_3b/3x3 -> inception_3b/3x3
I1214 21:47:10.770642 29761 net.cpp:113] Setting up inception_3b/3x3
I1214 21:47:10.774456 29761 net.cpp:120] Top shape: 32 192 28 28 (4816896)
I1214 21:47:10.774478 29761 layer_factory.hpp:74] Creating layer inception_3b/relu_3x3
I1214 21:47:10.774487 29761 net.cpp:84] Creating Layer inception_3b/relu_3x3
I1214 21:47:10.774492 29761 net.cpp:380] inception_3b/relu_3x3 <- inception_3b/3x3
I1214 21:47:10.774499 29761 net.cpp:327] inception_3b/relu_3x3 -> inception_3b/3x3 (in-place)
I1214 21:47:10.774507 29761 net.cpp:113] Setting up inception_3b/relu_3x3
I1214 21:47:10.774579 29761 net.cpp:120] Top shape: 32 192 28 28 (4816896)
I1214 21:47:10.774586 29761 layer_factory.hpp:74] Creating layer inception_3b/5x5_reduce
I1214 21:47:10.774596 29761 net.cpp:84] Creating Layer inception_3b/5x5_reduce
I1214 21:47:10.774601 29761 net.cpp:380] inception_3b/5x5_reduce <- inception_3a/output_inception_3a/output_0_split_2
I1214 21:47:10.774610 29761 net.cpp:338] inception_3b/5x5_reduce -> inception_3b/5x5_reduce
I1214 21:47:10.774617 29761 net.cpp:113] Setting up inception_3b/5x5_reduce
I1214 21:47:10.775496 29761 net.cpp:120] Top shape: 32 32 28 28 (802816)
I1214 21:47:10.775513 29761 layer_factory.hpp:74] Creating layer inception_3b/relu_5x5_reduce
I1214 21:47:10.775521 29761 net.cpp:84] Creating Layer inception_3b/relu_5x5_reduce
I1214 21:47:10.775527 29761 net.cpp:380] inception_3b/relu_5x5_reduce <- inception_3b/5x5_reduce
I1214 21:47:10.775535 29761 net.cpp:327] inception_3b/relu_5x5_reduce -> inception_3b/5x5_reduce (in-place)
I1214 21:47:10.775543 29761 net.cpp:113] Setting up inception_3b/relu_5x5_reduce
I1214 21:47:10.775617 29761 net.cpp:120] Top shape: 32 32 28 28 (802816)
I1214 21:47:10.775624 29761 layer_factory.hpp:74] Creating layer inception_3b/5x5
I1214 21:47:10.775634 29761 net.cpp:84] Creating Layer inception_3b/5x5
I1214 21:47:10.775638 29761 net.cpp:380] inception_3b/5x5 <- inception_3b/5x5_reduce
I1214 21:47:10.775645 29761 net.cpp:338] inception_3b/5x5 -> inception_3b/5x5
I1214 21:47:10.775662 29761 net.cpp:113] Setting up inception_3b/5x5
I1214 21:47:10.777328 29761 net.cpp:120] Top shape: 32 96 28 28 (2408448)
I1214 21:47:10.777346 29761 layer_factory.hpp:74] Creating layer inception_3b/relu_5x5
I1214 21:47:10.777354 29761 net.cpp:84] Creating Layer inception_3b/relu_5x5
I1214 21:47:10.777359 29761 net.cpp:380] inception_3b/relu_5x5 <- inception_3b/5x5
I1214 21:47:10.777365 29761 net.cpp:327] inception_3b/relu_5x5 -> inception_3b/5x5 (in-place)
I1214 21:47:10.777374 29761 net.cpp:113] Setting up inception_3b/relu_5x5
I1214 21:47:10.777936 29761 net.cpp:120] Top shape: 32 96 28 28 (2408448)
I1214 21:47:10.777948 29761 layer_factory.hpp:74] Creating layer inception_3b/pool
I1214 21:47:10.777954 29761 layer_factory.cpp:56] CUDNN does not support padding or multiple tops. Using Caffe's own pooling layer.
I1214 21:47:10.777962 29761 net.cpp:84] Creating Layer inception_3b/pool
I1214 21:47:10.777967 29761 net.cpp:380] inception_3b/pool <- inception_3a/output_inception_3a/output_0_split_3
I1214 21:47:10.777981 29761 net.cpp:338] inception_3b/pool -> inception_3b/pool
I1214 21:47:10.777989 29761 net.cpp:113] Setting up inception_3b/pool
I1214 21:47:10.777997 29761 net.cpp:120] Top shape: 32 256 28 28 (6422528)
I1214 21:47:10.778002 29761 layer_factory.hpp:74] Creating layer inception_3b/pool_proj
I1214 21:47:10.778013 29761 net.cpp:84] Creating Layer inception_3b/pool_proj
I1214 21:47:10.778018 29761 net.cpp:380] inception_3b/pool_proj <- inception_3b/pool
I1214 21:47:10.778025 29761 net.cpp:338] inception_3b/pool_proj -> inception_3b/pool_proj
I1214 21:47:10.778033 29761 net.cpp:113] Setting up inception_3b/pool_proj
I1214 21:47:10.778949 29761 net.cpp:120] Top shape: 32 64 28 28 (1605632)
I1214 21:47:10.778964 29761 layer_factory.hpp:74] Creating layer inception_3b/relu_pool_proj
I1214 21:47:10.778973 29761 net.cpp:84] Creating Layer inception_3b/relu_pool_proj
I1214 21:47:10.778985 29761 net.cpp:380] inception_3b/relu_pool_proj <- inception_3b/pool_proj
I1214 21:47:10.779003 29761 net.cpp:327] inception_3b/relu_pool_proj -> inception_3b/pool_proj (in-place)
I1214 21:47:10.779012 29761 net.cpp:113] Setting up inception_3b/relu_pool_proj
I1214 21:47:10.779098 29761 net.cpp:120] Top shape: 32 64 28 28 (1605632)
I1214 21:47:10.779104 29761 layer_factory.hpp:74] Creating layer inception_3b/output
I1214 21:47:10.779112 29761 net.cpp:84] Creating Layer inception_3b/output
I1214 21:47:10.779117 29761 net.cpp:380] inception_3b/output <- inception_3b/1x1
I1214 21:47:10.779124 29761 net.cpp:380] inception_3b/output <- inception_3b/3x3
I1214 21:47:10.779129 29761 net.cpp:380] inception_3b/output <- inception_3b/5x5
I1214 21:47:10.779134 29761 net.cpp:380] inception_3b/output <- inception_3b/pool_proj
I1214 21:47:10.779139 29761 net.cpp:338] inception_3b/output -> inception_3b/output
I1214 21:47:10.779147 29761 net.cpp:113] Setting up inception_3b/output
I1214 21:47:10.779155 29761 net.cpp:120] Top shape: 32 480 28 28 (12042240)
I1214 21:47:10.779160 29761 layer_factory.hpp:74] Creating layer pool3/3x3_s2
I1214 21:47:10.779168 29761 net.cpp:84] Creating Layer pool3/3x3_s2
I1214 21:47:10.779173 29761 net.cpp:380] pool3/3x3_s2 <- inception_3b/output
I1214 21:47:10.779180 29761 net.cpp:338] pool3/3x3_s2 -> pool3/3x3_s2
I1214 21:47:10.779186 29761 net.cpp:113] Setting up pool3/3x3_s2
I1214 21:47:10.779256 29761 net.cpp:120] Top shape: 32 480 14 14 (3010560)
I1214 21:47:10.779265 29761 layer_factory.hpp:74] Creating layer pool3/3x3_s2_pool3/3x3_s2_0_split
I1214 21:47:10.779271 29761 net.cpp:84] Creating Layer pool3/3x3_s2_pool3/3x3_s2_0_split
I1214 21:47:10.779276 29761 net.cpp:380] pool3/3x3_s2_pool3/3x3_s2_0_split <- pool3/3x3_s2
I1214 21:47:10.779284 29761 net.cpp:338] pool3/3x3_s2_pool3/3x3_s2_0_split -> pool3/3x3_s2_pool3/3x3_s2_0_split_0
I1214 21:47:10.779290 29761 net.cpp:338] pool3/3x3_s2_pool3/3x3_s2_0_split -> pool3/3x3_s2_pool3/3x3_s2_0_split_1
I1214 21:47:10.779297 29761 net.cpp:338] pool3/3x3_s2_pool3/3x3_s2_0_split -> pool3/3x3_s2_pool3/3x3_s2_0_split_2
I1214 21:47:10.779304 29761 net.cpp:338] pool3/3x3_s2_pool3/3x3_s2_0_split -> pool3/3x3_s2_pool3/3x3_s2_0_split_3
I1214 21:47:10.779310 29761 net.cpp:113] Setting up pool3/3x3_s2_pool3/3x3_s2_0_split
I1214 21:47:10.779317 29761 net.cpp:120] Top shape: 32 480 14 14 (3010560)
I1214 21:47:10.779322 29761 net.cpp:120] Top shape: 32 480 14 14 (3010560)
I1214 21:47:10.779327 29761 net.cpp:120] Top shape: 32 480 14 14 (3010560)
I1214 21:47:10.779332 29761 net.cpp:120] Top shape: 32 480 14 14 (3010560)
I1214 21:47:10.779338 29761 layer_factory.hpp:74] Creating layer inception_4a/1x1
I1214 21:47:10.779348 29761 net.cpp:84] Creating Layer inception_4a/1x1
I1214 21:47:10.779353 29761 net.cpp:380] inception_4a/1x1 <- pool3/3x3_s2_pool3/3x3_s2_0_split_0
I1214 21:47:10.779359 29761 net.cpp:338] inception_4a/1x1 -> inception_4a/1x1
I1214 21:47:10.779369 29761 net.cpp:113] Setting up inception_4a/1x1
I1214 21:47:10.781672 29761 net.cpp:120] Top shape: 32 192 14 14 (1204224)
I1214 21:47:10.781690 29761 layer_factory.hpp:74] Creating layer inception_4a/relu_1x1
I1214 21:47:10.781702 29761 net.cpp:84] Creating Layer inception_4a/relu_1x1
I1214 21:47:10.781708 29761 net.cpp:380] inception_4a/relu_1x1 <- inception_4a/1x1
I1214 21:47:10.781714 29761 net.cpp:327] inception_4a/relu_1x1 -> inception_4a/1x1 (in-place)
I1214 21:47:10.781721 29761 net.cpp:113] Setting up inception_4a/relu_1x1
I1214 21:47:10.782325 29761 net.cpp:120] Top shape: 32 192 14 14 (1204224)
I1214 21:47:10.782337 29761 layer_factory.hpp:74] Creating layer inception_4a/3x3_reduce
I1214 21:47:10.782347 29761 net.cpp:84] Creating Layer inception_4a/3x3_reduce
I1214 21:47:10.782353 29761 net.cpp:380] inception_4a/3x3_reduce <- pool3/3x3_s2_pool3/3x3_s2_0_split_1
I1214 21:47:10.782363 29761 net.cpp:338] inception_4a/3x3_reduce -> inception_4a/3x3_reduce
I1214 21:47:10.782372 29761 net.cpp:113] Setting up inception_4a/3x3_reduce
I1214 21:47:10.783689 29761 net.cpp:120] Top shape: 32 96 14 14 (602112)
I1214 21:47:10.783716 29761 layer_factory.hpp:74] Creating layer inception_4a/relu_3x3_reduce
I1214 21:47:10.783733 29761 net.cpp:84] Creating Layer inception_4a/relu_3x3_reduce
I1214 21:47:10.783740 29761 net.cpp:380] inception_4a/relu_3x3_reduce <- inception_4a/3x3_reduce
I1214 21:47:10.783749 29761 net.cpp:327] inception_4a/relu_3x3_reduce -> inception_4a/3x3_reduce (in-place)
I1214 21:47:10.783757 29761 net.cpp:113] Setting up inception_4a/relu_3x3_reduce
I1214 21:47:10.783829 29761 net.cpp:120] Top shape: 32 96 14 14 (602112)
I1214 21:47:10.783835 29761 layer_factory.hpp:74] Creating layer inception_4a/3x3
I1214 21:47:10.783848 29761 net.cpp:84] Creating Layer inception_4a/3x3
I1214 21:47:10.783852 29761 net.cpp:380] inception_4a/3x3 <- inception_4a/3x3_reduce
I1214 21:47:10.783859 29761 net.cpp:338] inception_4a/3x3 -> inception_4a/3x3
I1214 21:47:10.783867 29761 net.cpp:113] Setting up inception_4a/3x3
I1214 21:47:10.786756 29761 net.cpp:120] Top shape: 32 208 14 14 (1304576)
I1214 21:47:10.786772 29761 layer_factory.hpp:74] Creating layer inception_4a/relu_3x3
I1214 21:47:10.786782 29761 net.cpp:84] Creating Layer inception_4a/relu_3x3
I1214 21:47:10.786787 29761 net.cpp:380] inception_4a/relu_3x3 <- inception_4a/3x3
I1214 21:47:10.786794 29761 net.cpp:327] inception_4a/relu_3x3 -> inception_4a/3x3 (in-place)
I1214 21:47:10.786803 29761 net.cpp:113] Setting up inception_4a/relu_3x3
I1214 21:47:10.786871 29761 net.cpp:120] Top shape: 32 208 14 14 (1304576)
I1214 21:47:10.786877 29761 layer_factory.hpp:74] Creating layer inception_4a/5x5_reduce
I1214 21:47:10.786890 29761 net.cpp:84] Creating Layer inception_4a/5x5_reduce
I1214 21:47:10.786895 29761 net.cpp:380] inception_4a/5x5_reduce <- pool3/3x3_s2_pool3/3x3_s2_0_split_2
I1214 21:47:10.786906 29761 net.cpp:338] inception_4a/5x5_reduce -> inception_4a/5x5_reduce
I1214 21:47:10.786913 29761 net.cpp:113] Setting up inception_4a/5x5_reduce
I1214 21:47:10.787664 29761 net.cpp:120] Top shape: 32 16 14 14 (100352)
I1214 21:47:10.787680 29761 layer_factory.hpp:74] Creating layer inception_4a/relu_5x5_reduce
I1214 21:47:10.787689 29761 net.cpp:84] Creating Layer inception_4a/relu_5x5_reduce
I1214 21:47:10.787694 29761 net.cpp:380] inception_4a/relu_5x5_reduce <- inception_4a/5x5_reduce
I1214 21:47:10.787703 29761 net.cpp:327] inception_4a/relu_5x5_reduce -> inception_4a/5x5_reduce (in-place)
I1214 21:47:10.787710 29761 net.cpp:113] Setting up inception_4a/relu_5x5_reduce
I1214 21:47:10.787780 29761 net.cpp:120] Top shape: 32 16 14 14 (100352)
I1214 21:47:10.787786 29761 layer_factory.hpp:74] Creating layer inception_4a/5x5
I1214 21:47:10.787796 29761 net.cpp:84] Creating Layer inception_4a/5x5
I1214 21:47:10.787801 29761 net.cpp:380] inception_4a/5x5 <- inception_4a/5x5_reduce
I1214 21:47:10.787809 29761 net.cpp:338] inception_4a/5x5 -> inception_4a/5x5
I1214 21:47:10.787817 29761 net.cpp:113] Setting up inception_4a/5x5
I1214 21:47:10.788851 29761 net.cpp:120] Top shape: 32 48 14 14 (301056)
I1214 21:47:10.788866 29761 layer_factory.hpp:74] Creating layer inception_4a/relu_5x5
I1214 21:47:10.788874 29761 net.cpp:84] Creating Layer inception_4a/relu_5x5
I1214 21:47:10.788879 29761 net.cpp:380] inception_4a/relu_5x5 <- inception_4a/5x5
I1214 21:47:10.788892 29761 net.cpp:327] inception_4a/relu_5x5 -> inception_4a/5x5 (in-place)
I1214 21:47:10.788899 29761 net.cpp:113] Setting up inception_4a/relu_5x5
I1214 21:47:10.789626 29761 net.cpp:120] Top shape: 32 48 14 14 (301056)
I1214 21:47:10.789639 29761 layer_factory.hpp:74] Creating layer inception_4a/pool
I1214 21:47:10.789645 29761 layer_factory.cpp:56] CUDNN does not support padding or multiple tops. Using Caffe's own pooling layer.
I1214 21:47:10.789654 29761 net.cpp:84] Creating Layer inception_4a/pool
I1214 21:47:10.789659 29761 net.cpp:380] inception_4a/pool <- pool3/3x3_s2_pool3/3x3_s2_0_split_3
I1214 21:47:10.789667 29761 net.cpp:338] inception_4a/pool -> inception_4a/pool
I1214 21:47:10.789676 29761 net.cpp:113] Setting up inception_4a/pool
I1214 21:47:10.789685 29761 net.cpp:120] Top shape: 32 480 14 14 (3010560)
I1214 21:47:10.789696 29761 layer_factory.hpp:74] Creating layer inception_4a/pool_proj
I1214 21:47:10.789716 29761 net.cpp:84] Creating Layer inception_4a/pool_proj
I1214 21:47:10.789721 29761 net.cpp:380] inception_4a/pool_proj <- inception_4a/pool
I1214 21:47:10.789731 29761 net.cpp:338] inception_4a/pool_proj -> inception_4a/pool_proj
I1214 21:47:10.789738 29761 net.cpp:113] Setting up inception_4a/pool_proj
I1214 21:47:10.790868 29761 net.cpp:120] Top shape: 32 64 14 14 (401408)
I1214 21:47:10.790884 29761 layer_factory.hpp:74] Creating layer inception_4a/relu_pool_proj
I1214 21:47:10.790891 29761 net.cpp:84] Creating Layer inception_4a/relu_pool_proj
I1214 21:47:10.790896 29761 net.cpp:380] inception_4a/relu_pool_proj <- inception_4a/pool_proj
I1214 21:47:10.790904 29761 net.cpp:327] inception_4a/relu_pool_proj -> inception_4a/pool_proj (in-place)
I1214 21:47:10.790911 29761 net.cpp:113] Setting up inception_4a/relu_pool_proj
I1214 21:47:10.790982 29761 net.cpp:120] Top shape: 32 64 14 14 (401408)
I1214 21:47:10.790987 29761 layer_factory.hpp:74] Creating layer inception_4a/output
I1214 21:47:10.790995 29761 net.cpp:84] Creating Layer inception_4a/output
I1214 21:47:10.790999 29761 net.cpp:380] inception_4a/output <- inception_4a/1x1
I1214 21:47:10.791005 29761 net.cpp:380] inception_4a/output <- inception_4a/3x3
I1214 21:47:10.791012 29761 net.cpp:380] inception_4a/output <- inception_4a/5x5
I1214 21:47:10.791016 29761 net.cpp:380] inception_4a/output <- inception_4a/pool_proj
I1214 21:47:10.791023 29761 net.cpp:338] inception_4a/output -> inception_4a/output
I1214 21:47:10.791031 29761 net.cpp:113] Setting up inception_4a/output
I1214 21:47:10.791038 29761 net.cpp:120] Top shape: 32 512 14 14 (3211264)
I1214 21:47:10.791043 29761 layer_factory.hpp:74] Creating layer inception_4a/output_inception_4a/output_0_split
I1214 21:47:10.791050 29761 net.cpp:84] Creating Layer inception_4a/output_inception_4a/output_0_split
I1214 21:47:10.791054 29761 net.cpp:380] inception_4a/output_inception_4a/output_0_split <- inception_4a/output
I1214 21:47:10.791062 29761 net.cpp:338] inception_4a/output_inception_4a/output_0_split -> inception_4a/output_inception_4a/output_0_split_0
I1214 21:47:10.791069 29761 net.cpp:338] inception_4a/output_inception_4a/output_0_split -> inception_4a/output_inception_4a/output_0_split_1
I1214 21:47:10.791079 29761 net.cpp:338] inception_4a/output_inception_4a/output_0_split -> inception_4a/output_inception_4a/output_0_split_2
I1214 21:47:10.791085 29761 net.cpp:338] inception_4a/output_inception_4a/output_0_split -> inception_4a/output_inception_4a/output_0_split_3
I1214 21:47:10.791092 29761 net.cpp:338] inception_4a/output_inception_4a/output_0_split -> inception_4a/output_inception_4a/output_0_split_4
I1214 21:47:10.791098 29761 net.cpp:113] Setting up inception_4a/output_inception_4a/output_0_split
I1214 21:47:10.791106 29761 net.cpp:120] Top shape: 32 512 14 14 (3211264)
I1214 21:47:10.791111 29761 net.cpp:120] Top shape: 32 512 14 14 (3211264)
I1214 21:47:10.791118 29761 net.cpp:120] Top shape: 32 512 14 14 (3211264)
I1214 21:47:10.791124 29761 net.cpp:120] Top shape: 32 512 14 14 (3211264)
I1214 21:47:10.791129 29761 net.cpp:120] Top shape: 32 512 14 14 (3211264)
I1214 21:47:10.791134 29761 layer_factory.hpp:74] Creating layer loss1/ave_pool
I1214 21:47:10.791142 29761 net.cpp:84] Creating Layer loss1/ave_pool
I1214 21:47:10.791147 29761 net.cpp:380] loss1/ave_pool <- inception_4a/output_inception_4a/output_0_split_0
I1214 21:47:10.791153 29761 net.cpp:338] loss1/ave_pool -> loss1/ave_pool
I1214 21:47:10.791160 29761 net.cpp:113] Setting up loss1/ave_pool
I1214 21:47:10.791232 29761 net.cpp:120] Top shape: 32 512 4 4 (262144)
I1214 21:47:10.791239 29761 layer_factory.hpp:74] Creating layer loss1/conv
I1214 21:47:10.791247 29761 net.cpp:84] Creating Layer loss1/conv
I1214 21:47:10.791252 29761 net.cpp:380] loss1/conv <- loss1/ave_pool
I1214 21:47:10.791261 29761 net.cpp:338] loss1/conv -> loss1/conv
I1214 21:47:10.791270 29761 net.cpp:113] Setting up loss1/conv
I1214 21:47:10.792935 29761 net.cpp:120] Top shape: 32 128 4 4 (65536)
I1214 21:47:10.792960 29761 layer_factory.hpp:74] Creating layer loss1/relu_conv
I1214 21:47:10.792970 29761 net.cpp:84] Creating Layer loss1/relu_conv
I1214 21:47:10.792975 29761 net.cpp:380] loss1/relu_conv <- loss1/conv
I1214 21:47:10.792982 29761 net.cpp:327] loss1/relu_conv -> loss1/conv (in-place)
I1214 21:47:10.792990 29761 net.cpp:113] Setting up loss1/relu_conv
I1214 21:47:10.793066 29761 net.cpp:120] Top shape: 32 128 4 4 (65536)
I1214 21:47:10.793076 29761 layer_factory.hpp:74] Creating layer loss1/fc
I1214 21:47:10.793087 29761 net.cpp:84] Creating Layer loss1/fc
I1214 21:47:10.793092 29761 net.cpp:380] loss1/fc <- loss1/conv
I1214 21:47:10.793098 29761 net.cpp:338] loss1/fc -> loss1/fc
I1214 21:47:10.793109 29761 net.cpp:113] Setting up loss1/fc
I1214 21:47:10.815688 29761 net.cpp:120] Top shape: 32 1024 (32768)
I1214 21:47:10.815716 29761 layer_factory.hpp:74] Creating layer loss1/relu_fc
I1214 21:47:10.815726 29761 net.cpp:84] Creating Layer loss1/relu_fc
I1214 21:47:10.815732 29761 net.cpp:380] loss1/relu_fc <- loss1/fc
I1214 21:47:10.815742 29761 net.cpp:327] loss1/relu_fc -> loss1/fc (in-place)
I1214 21:47:10.815750 29761 net.cpp:113] Setting up loss1/relu_fc
I1214 21:47:10.820035 29761 net.cpp:120] Top shape: 32 1024 (32768)
I1214 21:47:10.820050 29761 layer_factory.hpp:74] Creating layer loss1/drop_fc
I1214 21:47:10.820071 29761 net.cpp:84] Creating Layer loss1/drop_fc
I1214 21:47:10.820076 29761 net.cpp:380] loss1/drop_fc <- loss1/fc
I1214 21:47:10.820085 29761 net.cpp:327] loss1/drop_fc -> loss1/fc (in-place)
I1214 21:47:10.820093 29761 net.cpp:113] Setting up loss1/drop_fc
I1214 21:47:10.820103 29761 net.cpp:120] Top shape: 32 1024 (32768)
I1214 21:47:10.820108 29761 layer_factory.hpp:74] Creating layer loss1/classifier_kaggle
I1214 21:47:10.820119 29761 net.cpp:84] Creating Layer loss1/classifier_kaggle
I1214 21:47:10.820124 29761 net.cpp:380] loss1/classifier_kaggle <- loss1/fc
I1214 21:47:10.820132 29761 net.cpp:338] loss1/classifier_kaggle -> loss1/classifier_kaggle
I1214 21:47:10.820139 29761 net.cpp:113] Setting up loss1/classifier_kaggle
I1214 21:47:10.825417 29761 net.cpp:120] Top shape: 32 447 (14304)
I1214 21:47:10.825429 29761 layer_factory.hpp:74] Creating layer loss1/loss
I1214 21:47:10.825438 29761 net.cpp:84] Creating Layer loss1/loss
I1214 21:47:10.825443 29761 net.cpp:380] loss1/loss <- loss1/classifier_kaggle
I1214 21:47:10.825450 29761 net.cpp:380] loss1/loss <- label_data_1_split_0
I1214 21:47:10.825459 29761 net.cpp:338] loss1/loss -> loss1/loss1
I1214 21:47:10.825467 29761 net.cpp:113] Setting up loss1/loss
I1214 21:47:10.825476 29761 layer_factory.hpp:74] Creating layer loss1/loss
I1214 21:47:10.825598 29761 net.cpp:120] Top shape: (1)
I1214 21:47:10.825606 29761 net.cpp:122]     with loss weight 0.3
I1214 21:47:10.825625 29761 layer_factory.hpp:74] Creating layer inception_4b/1x1
I1214 21:47:10.825636 29761 net.cpp:84] Creating Layer inception_4b/1x1
I1214 21:47:10.825644 29761 net.cpp:380] inception_4b/1x1 <- inception_4a/output_inception_4a/output_0_split_1
I1214 21:47:10.825652 29761 net.cpp:338] inception_4b/1x1 -> inception_4b/1x1
I1214 21:47:10.825660 29761 net.cpp:113] Setting up inception_4b/1x1
I1214 21:47:10.827860 29761 net.cpp:120] Top shape: 32 160 14 14 (1003520)
I1214 21:47:10.827883 29761 layer_factory.hpp:74] Creating layer inception_4b/relu_1x1
I1214 21:47:10.827893 29761 net.cpp:84] Creating Layer inception_4b/relu_1x1
I1214 21:47:10.827898 29761 net.cpp:380] inception_4b/relu_1x1 <- inception_4b/1x1
I1214 21:47:10.827908 29761 net.cpp:327] inception_4b/relu_1x1 -> inception_4b/1x1 (in-place)
I1214 21:47:10.827918 29761 net.cpp:113] Setting up inception_4b/relu_1x1
I1214 21:47:10.827991 29761 net.cpp:120] Top shape: 32 160 14 14 (1003520)
I1214 21:47:10.827996 29761 layer_factory.hpp:74] Creating layer inception_4b/3x3_reduce
I1214 21:47:10.828007 29761 net.cpp:84] Creating Layer inception_4b/3x3_reduce
I1214 21:47:10.828012 29761 net.cpp:380] inception_4b/3x3_reduce <- inception_4a/output_inception_4a/output_0_split_2
I1214 21:47:10.828032 29761 net.cpp:338] inception_4b/3x3_reduce -> inception_4b/3x3_reduce
I1214 21:47:10.828052 29761 net.cpp:113] Setting up inception_4b/3x3_reduce
I1214 21:47:10.829679 29761 net.cpp:120] Top shape: 32 112 14 14 (702464)
I1214 21:47:10.829699 29761 layer_factory.hpp:74] Creating layer inception_4b/relu_3x3_reduce
I1214 21:47:10.829710 29761 net.cpp:84] Creating Layer inception_4b/relu_3x3_reduce
I1214 21:47:10.829716 29761 net.cpp:380] inception_4b/relu_3x3_reduce <- inception_4b/3x3_reduce
I1214 21:47:10.829725 29761 net.cpp:327] inception_4b/relu_3x3_reduce -> inception_4b/3x3_reduce (in-place)
I1214 21:47:10.829732 29761 net.cpp:113] Setting up inception_4b/relu_3x3_reduce
I1214 21:47:10.829807 29761 net.cpp:120] Top shape: 32 112 14 14 (702464)
I1214 21:47:10.829815 29761 layer_factory.hpp:74] Creating layer inception_4b/3x3
I1214 21:47:10.829828 29761 net.cpp:84] Creating Layer inception_4b/3x3
I1214 21:47:10.829833 29761 net.cpp:380] inception_4b/3x3 <- inception_4b/3x3_reduce
I1214 21:47:10.829841 29761 net.cpp:338] inception_4b/3x3 -> inception_4b/3x3
I1214 21:47:10.829850 29761 net.cpp:113] Setting up inception_4b/3x3
I1214 21:47:10.833184 29761 net.cpp:120] Top shape: 32 224 14 14 (1404928)
I1214 21:47:10.833201 29761 layer_factory.hpp:74] Creating layer inception_4b/relu_3x3
I1214 21:47:10.833209 29761 net.cpp:84] Creating Layer inception_4b/relu_3x3
I1214 21:47:10.833215 29761 net.cpp:380] inception_4b/relu_3x3 <- inception_4b/3x3
I1214 21:47:10.833222 29761 net.cpp:327] inception_4b/relu_3x3 -> inception_4b/3x3 (in-place)
I1214 21:47:10.833230 29761 net.cpp:113] Setting up inception_4b/relu_3x3
I1214 21:47:10.833858 29761 net.cpp:120] Top shape: 32 224 14 14 (1404928)
I1214 21:47:10.833869 29761 layer_factory.hpp:74] Creating layer inception_4b/5x5_reduce
I1214 21:47:10.833878 29761 net.cpp:84] Creating Layer inception_4b/5x5_reduce
I1214 21:47:10.833884 29761 net.cpp:380] inception_4b/5x5_reduce <- inception_4a/output_inception_4a/output_0_split_3
I1214 21:47:10.833894 29761 net.cpp:338] inception_4b/5x5_reduce -> inception_4b/5x5_reduce
I1214 21:47:10.833904 29761 net.cpp:113] Setting up inception_4b/5x5_reduce
I1214 21:47:10.834913 29761 net.cpp:120] Top shape: 32 24 14 14 (150528)
I1214 21:47:10.834930 29761 layer_factory.hpp:74] Creating layer inception_4b/relu_5x5_reduce
I1214 21:47:10.834939 29761 net.cpp:84] Creating Layer inception_4b/relu_5x5_reduce
I1214 21:47:10.834945 29761 net.cpp:380] inception_4b/relu_5x5_reduce <- inception_4b/5x5_reduce
I1214 21:47:10.834955 29761 net.cpp:327] inception_4b/relu_5x5_reduce -> inception_4b/5x5_reduce (in-place)
I1214 21:47:10.834964 29761 net.cpp:113] Setting up inception_4b/relu_5x5_reduce
I1214 21:47:10.835034 29761 net.cpp:120] Top shape: 32 24 14 14 (150528)
I1214 21:47:10.835042 29761 layer_factory.hpp:74] Creating layer inception_4b/5x5
I1214 21:47:10.835050 29761 net.cpp:84] Creating Layer inception_4b/5x5
I1214 21:47:10.835055 29761 net.cpp:380] inception_4b/5x5 <- inception_4b/5x5_reduce
I1214 21:47:10.835064 29761 net.cpp:338] inception_4b/5x5 -> inception_4b/5x5
I1214 21:47:10.835072 29761 net.cpp:113] Setting up inception_4b/5x5
I1214 21:47:10.837054 29761 net.cpp:120] Top shape: 32 64 14 14 (401408)
I1214 21:47:10.837079 29761 layer_factory.hpp:74] Creating layer inception_4b/relu_5x5
I1214 21:47:10.837087 29761 net.cpp:84] Creating Layer inception_4b/relu_5x5
I1214 21:47:10.837093 29761 net.cpp:380] inception_4b/relu_5x5 <- inception_4b/5x5
I1214 21:47:10.837100 29761 net.cpp:327] inception_4b/relu_5x5 -> inception_4b/5x5 (in-place)
I1214 21:47:10.837107 29761 net.cpp:113] Setting up inception_4b/relu_5x5
I1214 21:47:10.837177 29761 net.cpp:120] Top shape: 32 64 14 14 (401408)
I1214 21:47:10.837184 29761 layer_factory.hpp:74] Creating layer inception_4b/pool
I1214 21:47:10.837190 29761 layer_factory.cpp:56] CUDNN does not support padding or multiple tops. Using Caffe's own pooling layer.
I1214 21:47:10.837198 29761 net.cpp:84] Creating Layer inception_4b/pool
I1214 21:47:10.837203 29761 net.cpp:380] inception_4b/pool <- inception_4a/output_inception_4a/output_0_split_4
I1214 21:47:10.837223 29761 net.cpp:338] inception_4b/pool -> inception_4b/pool
I1214 21:47:10.837240 29761 net.cpp:113] Setting up inception_4b/pool
I1214 21:47:10.837250 29761 net.cpp:120] Top shape: 32 512 14 14 (3211264)
I1214 21:47:10.837255 29761 layer_factory.hpp:74] Creating layer inception_4b/pool_proj
I1214 21:47:10.837267 29761 net.cpp:84] Creating Layer inception_4b/pool_proj
I1214 21:47:10.837272 29761 net.cpp:380] inception_4b/pool_proj <- inception_4b/pool
I1214 21:47:10.837280 29761 net.cpp:338] inception_4b/pool_proj -> inception_4b/pool_proj
I1214 21:47:10.837288 29761 net.cpp:113] Setting up inception_4b/pool_proj
I1214 21:47:10.838433 29761 net.cpp:120] Top shape: 32 64 14 14 (401408)
I1214 21:47:10.838450 29761 layer_factory.hpp:74] Creating layer inception_4b/relu_pool_proj
I1214 21:47:10.838461 29761 net.cpp:84] Creating Layer inception_4b/relu_pool_proj
I1214 21:47:10.838467 29761 net.cpp:380] inception_4b/relu_pool_proj <- inception_4b/pool_proj
I1214 21:47:10.838474 29761 net.cpp:327] inception_4b/relu_pool_proj -> inception_4b/pool_proj (in-place)
I1214 21:47:10.838482 29761 net.cpp:113] Setting up inception_4b/relu_pool_proj
I1214 21:47:10.838940 29761 net.cpp:120] Top shape: 32 64 14 14 (401408)
I1214 21:47:10.838953 29761 layer_factory.hpp:74] Creating layer inception_4b/output
I1214 21:47:10.838963 29761 net.cpp:84] Creating Layer inception_4b/output
I1214 21:47:10.838968 29761 net.cpp:380] inception_4b/output <- inception_4b/1x1
I1214 21:47:10.838974 29761 net.cpp:380] inception_4b/output <- inception_4b/3x3
I1214 21:47:10.838979 29761 net.cpp:380] inception_4b/output <- inception_4b/5x5
I1214 21:47:10.838985 29761 net.cpp:380] inception_4b/output <- inception_4b/pool_proj
I1214 21:47:10.838991 29761 net.cpp:338] inception_4b/output -> inception_4b/output
I1214 21:47:10.838999 29761 net.cpp:113] Setting up inception_4b/output
I1214 21:47:10.839009 29761 net.cpp:120] Top shape: 32 512 14 14 (3211264)
I1214 21:47:10.839012 29761 layer_factory.hpp:74] Creating layer inception_4b/output_inception_4b/output_0_split
I1214 21:47:10.839020 29761 net.cpp:84] Creating Layer inception_4b/output_inception_4b/output_0_split
I1214 21:47:10.839027 29761 net.cpp:380] inception_4b/output_inception_4b/output_0_split <- inception_4b/output
I1214 21:47:10.839033 29761 net.cpp:338] inception_4b/output_inception_4b/output_0_split -> inception_4b/output_inception_4b/output_0_split_0
I1214 21:47:10.839041 29761 net.cpp:338] inception_4b/output_inception_4b/output_0_split -> inception_4b/output_inception_4b/output_0_split_1
I1214 21:47:10.839048 29761 net.cpp:338] inception_4b/output_inception_4b/output_0_split -> inception_4b/output_inception_4b/output_0_split_2
I1214 21:47:10.839056 29761 net.cpp:338] inception_4b/output_inception_4b/output_0_split -> inception_4b/output_inception_4b/output_0_split_3
I1214 21:47:10.839061 29761 net.cpp:113] Setting up inception_4b/output_inception_4b/output_0_split
I1214 21:47:10.839068 29761 net.cpp:120] Top shape: 32 512 14 14 (3211264)
I1214 21:47:10.839074 29761 net.cpp:120] Top shape: 32 512 14 14 (3211264)
I1214 21:47:10.839079 29761 net.cpp:120] Top shape: 32 512 14 14 (3211264)
I1214 21:47:10.839084 29761 net.cpp:120] Top shape: 32 512 14 14 (3211264)
I1214 21:47:10.839088 29761 layer_factory.hpp:74] Creating layer inception_4c/1x1
I1214 21:47:10.839099 29761 net.cpp:84] Creating Layer inception_4c/1x1
I1214 21:47:10.839104 29761 net.cpp:380] inception_4c/1x1 <- inception_4b/output_inception_4b/output_0_split_0
I1214 21:47:10.839112 29761 net.cpp:338] inception_4c/1x1 -> inception_4c/1x1
I1214 21:47:10.839120 29761 net.cpp:113] Setting up inception_4c/1x1
I1214 21:47:10.840651 29761 net.cpp:120] Top shape: 32 128 14 14 (802816)
I1214 21:47:10.840667 29761 layer_factory.hpp:74] Creating layer inception_4c/relu_1x1
I1214 21:47:10.840677 29761 net.cpp:84] Creating Layer inception_4c/relu_1x1
I1214 21:47:10.840682 29761 net.cpp:380] inception_4c/relu_1x1 <- inception_4c/1x1
I1214 21:47:10.840694 29761 net.cpp:327] inception_4c/relu_1x1 -> inception_4c/1x1 (in-place)
I1214 21:47:10.840709 29761 net.cpp:113] Setting up inception_4c/relu_1x1
I1214 21:47:10.840778 29761 net.cpp:120] Top shape: 32 128 14 14 (802816)
I1214 21:47:10.840786 29761 layer_factory.hpp:74] Creating layer inception_4c/3x3_reduce
I1214 21:47:10.840796 29761 net.cpp:84] Creating Layer inception_4c/3x3_reduce
I1214 21:47:10.840801 29761 net.cpp:380] inception_4c/3x3_reduce <- inception_4b/output_inception_4b/output_0_split_1
I1214 21:47:10.840811 29761 net.cpp:338] inception_4c/3x3_reduce -> inception_4c/3x3_reduce
I1214 21:47:10.840819 29761 net.cpp:113] Setting up inception_4c/3x3_reduce
I1214 21:47:10.842386 29761 net.cpp:120] Top shape: 32 128 14 14 (802816)
I1214 21:47:10.842403 29761 layer_factory.hpp:74] Creating layer inception_4c/relu_3x3_reduce
I1214 21:47:10.842414 29761 net.cpp:84] Creating Layer inception_4c/relu_3x3_reduce
I1214 21:47:10.842419 29761 net.cpp:380] inception_4c/relu_3x3_reduce <- inception_4c/3x3_reduce
I1214 21:47:10.842427 29761 net.cpp:327] inception_4c/relu_3x3_reduce -> inception_4c/3x3_reduce (in-place)
I1214 21:47:10.842434 29761 net.cpp:113] Setting up inception_4c/relu_3x3_reduce
I1214 21:47:10.842504 29761 net.cpp:120] Top shape: 32 128 14 14 (802816)
I1214 21:47:10.842509 29761 layer_factory.hpp:74] Creating layer inception_4c/3x3
I1214 21:47:10.842519 29761 net.cpp:84] Creating Layer inception_4c/3x3
I1214 21:47:10.842525 29761 net.cpp:380] inception_4c/3x3 <- inception_4c/3x3_reduce
I1214 21:47:10.842533 29761 net.cpp:338] inception_4c/3x3 -> inception_4c/3x3
I1214 21:47:10.842541 29761 net.cpp:113] Setting up inception_4c/3x3
I1214 21:47:10.847045 29761 net.cpp:120] Top shape: 32 256 14 14 (1605632)
I1214 21:47:10.847074 29761 layer_factory.hpp:74] Creating layer inception_4c/relu_3x3
I1214 21:47:10.847081 29761 net.cpp:84] Creating Layer inception_4c/relu_3x3
I1214 21:47:10.847087 29761 net.cpp:380] inception_4c/relu_3x3 <- inception_4c/3x3
I1214 21:47:10.847097 29761 net.cpp:327] inception_4c/relu_3x3 -> inception_4c/3x3 (in-place)
I1214 21:47:10.847105 29761 net.cpp:113] Setting up inception_4c/relu_3x3
I1214 21:47:10.847177 29761 net.cpp:120] Top shape: 32 256 14 14 (1605632)
I1214 21:47:10.847183 29761 layer_factory.hpp:74] Creating layer inception_4c/5x5_reduce
I1214 21:47:10.847193 29761 net.cpp:84] Creating Layer inception_4c/5x5_reduce
I1214 21:47:10.847198 29761 net.cpp:380] inception_4c/5x5_reduce <- inception_4b/output_inception_4b/output_0_split_2
I1214 21:47:10.847208 29761 net.cpp:338] inception_4c/5x5_reduce -> inception_4c/5x5_reduce
I1214 21:47:10.847215 29761 net.cpp:113] Setting up inception_4c/5x5_reduce
I1214 21:47:10.848399 29761 net.cpp:120] Top shape: 32 24 14 14 (150528)
I1214 21:47:10.848422 29761 layer_factory.hpp:74] Creating layer inception_4c/relu_5x5_reduce
I1214 21:47:10.848433 29761 net.cpp:84] Creating Layer inception_4c/relu_5x5_reduce
I1214 21:47:10.848438 29761 net.cpp:380] inception_4c/relu_5x5_reduce <- inception_4c/5x5_reduce
I1214 21:47:10.848445 29761 net.cpp:327] inception_4c/relu_5x5_reduce -> inception_4c/5x5_reduce (in-place)
I1214 21:47:10.848453 29761 net.cpp:113] Setting up inception_4c/relu_5x5_reduce
I1214 21:47:10.848994 29761 net.cpp:120] Top shape: 32 24 14 14 (150528)
I1214 21:47:10.849005 29761 layer_factory.hpp:74] Creating layer inception_4c/5x5
I1214 21:47:10.849015 29761 net.cpp:84] Creating Layer inception_4c/5x5
I1214 21:47:10.849021 29761 net.cpp:380] inception_4c/5x5 <- inception_4c/5x5_reduce
I1214 21:47:10.849028 29761 net.cpp:338] inception_4c/5x5 -> inception_4c/5x5
I1214 21:47:10.849036 29761 net.cpp:113] Setting up inception_4c/5x5
I1214 21:47:10.850323 29761 net.cpp:120] Top shape: 32 64 14 14 (401408)
I1214 21:47:10.850358 29761 layer_factory.hpp:74] Creating layer inception_4c/relu_5x5
I1214 21:47:10.850371 29761 net.cpp:84] Creating Layer inception_4c/relu_5x5
I1214 21:47:10.850383 29761 net.cpp:380] inception_4c/relu_5x5 <- inception_4c/5x5
I1214 21:47:10.850399 29761 net.cpp:327] inception_4c/relu_5x5 -> inception_4c/5x5 (in-place)
I1214 21:47:10.850425 29761 net.cpp:113] Setting up inception_4c/relu_5x5
I1214 21:47:10.850577 29761 net.cpp:120] Top shape: 32 64 14 14 (401408)
I1214 21:47:10.850590 29761 layer_factory.hpp:74] Creating layer inception_4c/pool
I1214 21:47:10.850601 29761 layer_factory.cpp:56] CUDNN does not support padding or multiple tops. Using Caffe's own pooling layer.
I1214 21:47:10.850617 29761 net.cpp:84] Creating Layer inception_4c/pool
I1214 21:47:10.850627 29761 net.cpp:380] inception_4c/pool <- inception_4b/output_inception_4b/output_0_split_3
I1214 21:47:10.850641 29761 net.cpp:338] inception_4c/pool -> inception_4c/pool
I1214 21:47:10.850656 29761 net.cpp:113] Setting up inception_4c/pool
I1214 21:47:10.850677 29761 net.cpp:120] Top shape: 32 512 14 14 (3211264)
I1214 21:47:10.850687 29761 layer_factory.hpp:74] Creating layer inception_4c/pool_proj
I1214 21:47:10.850703 29761 net.cpp:84] Creating Layer inception_4c/pool_proj
I1214 21:47:10.850713 29761 net.cpp:380] inception_4c/pool_proj <- inception_4c/pool
I1214 21:47:10.850733 29761 net.cpp:338] inception_4c/pool_proj -> inception_4c/pool_proj
I1214 21:47:10.850749 29761 net.cpp:113] Setting up inception_4c/pool_proj
I1214 21:47:10.852526 29761 net.cpp:120] Top shape: 32 64 14 14 (401408)
I1214 21:47:10.852557 29761 layer_factory.hpp:74] Creating layer inception_4c/relu_pool_proj
I1214 21:47:10.852571 29761 net.cpp:84] Creating Layer inception_4c/relu_pool_proj
I1214 21:47:10.852582 29761 net.cpp:380] inception_4c/relu_pool_proj <- inception_4c/pool_proj
I1214 21:47:10.852596 29761 net.cpp:327] inception_4c/relu_pool_proj -> inception_4c/pool_proj (in-place)
I1214 21:47:10.852612 29761 net.cpp:113] Setting up inception_4c/relu_pool_proj
I1214 21:47:10.852743 29761 net.cpp:120] Top shape: 32 64 14 14 (401408)
I1214 21:47:10.852757 29761 layer_factory.hpp:74] Creating layer inception_4c/output
I1214 21:47:10.852771 29761 net.cpp:84] Creating Layer inception_4c/output
I1214 21:47:10.852780 29761 net.cpp:380] inception_4c/output <- inception_4c/1x1
I1214 21:47:10.852792 29761 net.cpp:380] inception_4c/output <- inception_4c/3x3
I1214 21:47:10.852802 29761 net.cpp:380] inception_4c/output <- inception_4c/5x5
I1214 21:47:10.852813 29761 net.cpp:380] inception_4c/output <- inception_4c/pool_proj
I1214 21:47:10.852824 29761 net.cpp:338] inception_4c/output -> inception_4c/output
I1214 21:47:10.852838 29761 net.cpp:113] Setting up inception_4c/output
I1214 21:47:10.852854 29761 net.cpp:120] Top shape: 32 512 14 14 (3211264)
I1214 21:47:10.852862 29761 layer_factory.hpp:74] Creating layer inception_4c/output_inception_4c/output_0_split
I1214 21:47:10.852874 29761 net.cpp:84] Creating Layer inception_4c/output_inception_4c/output_0_split
I1214 21:47:10.852883 29761 net.cpp:380] inception_4c/output_inception_4c/output_0_split <- inception_4c/output
I1214 21:47:10.852898 29761 net.cpp:338] inception_4c/output_inception_4c/output_0_split -> inception_4c/output_inception_4c/output_0_split_0
I1214 21:47:10.852913 29761 net.cpp:338] inception_4c/output_inception_4c/output_0_split -> inception_4c/output_inception_4c/output_0_split_1
I1214 21:47:10.852927 29761 net.cpp:338] inception_4c/output_inception_4c/output_0_split -> inception_4c/output_inception_4c/output_0_split_2
I1214 21:47:10.852941 29761 net.cpp:338] inception_4c/output_inception_4c/output_0_split -> inception_4c/output_inception_4c/output_0_split_3
I1214 21:47:10.852952 29761 net.cpp:113] Setting up inception_4c/output_inception_4c/output_0_split
I1214 21:47:10.852967 29761 net.cpp:120] Top shape: 32 512 14 14 (3211264)
I1214 21:47:10.852977 29761 net.cpp:120] Top shape: 32 512 14 14 (3211264)
I1214 21:47:10.852988 29761 net.cpp:120] Top shape: 32 512 14 14 (3211264)
I1214 21:47:10.852998 29761 net.cpp:120] Top shape: 32 512 14 14 (3211264)
I1214 21:47:10.853008 29761 layer_factory.hpp:74] Creating layer inception_4d/1x1
I1214 21:47:10.853026 29761 net.cpp:84] Creating Layer inception_4d/1x1
I1214 21:47:10.853036 29761 net.cpp:380] inception_4d/1x1 <- inception_4c/output_inception_4c/output_0_split_0
I1214 21:47:10.853073 29761 net.cpp:338] inception_4d/1x1 -> inception_4d/1x1
I1214 21:47:10.853108 29761 net.cpp:113] Setting up inception_4d/1x1
I1214 21:47:10.855533 29761 net.cpp:120] Top shape: 32 112 14 14 (702464)
I1214 21:47:10.855564 29761 layer_factory.hpp:74] Creating layer inception_4d/relu_1x1
I1214 21:47:10.855581 29761 net.cpp:84] Creating Layer inception_4d/relu_1x1
I1214 21:47:10.855592 29761 net.cpp:380] inception_4d/relu_1x1 <- inception_4d/1x1
I1214 21:47:10.855607 29761 net.cpp:327] inception_4d/relu_1x1 -> inception_4d/1x1 (in-place)
I1214 21:47:10.855622 29761 net.cpp:113] Setting up inception_4d/relu_1x1
I1214 21:47:10.855752 29761 net.cpp:120] Top shape: 32 112 14 14 (702464)
I1214 21:47:10.855763 29761 layer_factory.hpp:74] Creating layer inception_4d/3x3_reduce
I1214 21:47:10.855778 29761 net.cpp:84] Creating Layer inception_4d/3x3_reduce
I1214 21:47:10.855788 29761 net.cpp:380] inception_4d/3x3_reduce <- inception_4c/output_inception_4c/output_0_split_1
I1214 21:47:10.855808 29761 net.cpp:338] inception_4d/3x3_reduce -> inception_4d/3x3_reduce
I1214 21:47:10.855824 29761 net.cpp:113] Setting up inception_4d/3x3_reduce
I1214 21:47:10.858597 29761 net.cpp:120] Top shape: 32 144 14 14 (903168)
I1214 21:47:10.858628 29761 layer_factory.hpp:74] Creating layer inception_4d/relu_3x3_reduce
I1214 21:47:10.858644 29761 net.cpp:84] Creating Layer inception_4d/relu_3x3_reduce
I1214 21:47:10.858655 29761 net.cpp:380] inception_4d/relu_3x3_reduce <- inception_4d/3x3_reduce
I1214 21:47:10.858669 29761 net.cpp:327] inception_4d/relu_3x3_reduce -> inception_4d/3x3_reduce (in-place)
I1214 21:47:10.858685 29761 net.cpp:113] Setting up inception_4d/relu_3x3_reduce
I1214 21:47:10.859184 29761 net.cpp:120] Top shape: 32 144 14 14 (903168)
I1214 21:47:10.859206 29761 layer_factory.hpp:74] Creating layer inception_4d/3x3
I1214 21:47:10.859225 29761 net.cpp:84] Creating Layer inception_4d/3x3
I1214 21:47:10.859236 29761 net.cpp:380] inception_4d/3x3 <- inception_4d/3x3_reduce
I1214 21:47:10.859252 29761 net.cpp:338] inception_4d/3x3 -> inception_4d/3x3
I1214 21:47:10.859269 29761 net.cpp:113] Setting up inception_4d/3x3
I1214 21:47:10.867424 29761 net.cpp:120] Top shape: 32 288 14 14 (1806336)
I1214 21:47:10.867451 29761 layer_factory.hpp:74] Creating layer inception_4d/relu_3x3
I1214 21:47:10.867463 29761 net.cpp:84] Creating Layer inception_4d/relu_3x3
I1214 21:47:10.867472 29761 net.cpp:380] inception_4d/relu_3x3 <- inception_4d/3x3
I1214 21:47:10.867487 29761 net.cpp:327] inception_4d/relu_3x3 -> inception_4d/3x3 (in-place)
I1214 21:47:10.867501 29761 net.cpp:113] Setting up inception_4d/relu_3x3
I1214 21:47:10.867615 29761 net.cpp:120] Top shape: 32 288 14 14 (1806336)
I1214 21:47:10.867625 29761 layer_factory.hpp:74] Creating layer inception_4d/5x5_reduce
I1214 21:47:10.867643 29761 net.cpp:84] Creating Layer inception_4d/5x5_reduce
I1214 21:47:10.867651 29761 net.cpp:380] inception_4d/5x5_reduce <- inception_4c/output_inception_4c/output_0_split_2
I1214 21:47:10.867665 29761 net.cpp:338] inception_4d/5x5_reduce -> inception_4d/5x5_reduce
I1214 21:47:10.867677 29761 net.cpp:113] Setting up inception_4d/5x5_reduce
I1214 21:47:10.868962 29761 net.cpp:120] Top shape: 32 32 14 14 (200704)
I1214 21:47:10.868989 29761 layer_factory.hpp:74] Creating layer inception_4d/relu_5x5_reduce
I1214 21:47:10.869000 29761 net.cpp:84] Creating Layer inception_4d/relu_5x5_reduce
I1214 21:47:10.869010 29761 net.cpp:380] inception_4d/relu_5x5_reduce <- inception_4d/5x5_reduce
I1214 21:47:10.869024 29761 net.cpp:327] inception_4d/relu_5x5_reduce -> inception_4d/5x5_reduce (in-place)
I1214 21:47:10.869037 29761 net.cpp:113] Setting up inception_4d/relu_5x5_reduce
I1214 21:47:10.869164 29761 net.cpp:120] Top shape: 32 32 14 14 (200704)
I1214 21:47:10.869179 29761 layer_factory.hpp:74] Creating layer inception_4d/5x5
I1214 21:47:10.869194 29761 net.cpp:84] Creating Layer inception_4d/5x5
I1214 21:47:10.869204 29761 net.cpp:380] inception_4d/5x5 <- inception_4d/5x5_reduce
I1214 21:47:10.869215 29761 net.cpp:338] inception_4d/5x5 -> inception_4d/5x5
I1214 21:47:10.869237 29761 net.cpp:113] Setting up inception_4d/5x5
I1214 21:47:10.871311 29761 net.cpp:120] Top shape: 32 64 14 14 (401408)
I1214 21:47:10.871338 29761 layer_factory.hpp:74] Creating layer inception_4d/relu_5x5
I1214 21:47:10.871353 29761 net.cpp:84] Creating Layer inception_4d/relu_5x5
I1214 21:47:10.871363 29761 net.cpp:380] inception_4d/relu_5x5 <- inception_4d/5x5
I1214 21:47:10.871377 29761 net.cpp:327] inception_4d/relu_5x5 -> inception_4d/5x5 (in-place)
I1214 21:47:10.871390 29761 net.cpp:113] Setting up inception_4d/relu_5x5
I1214 21:47:10.871503 29761 net.cpp:120] Top shape: 32 64 14 14 (401408)
I1214 21:47:10.871513 29761 layer_factory.hpp:74] Creating layer inception_4d/pool
I1214 21:47:10.871523 29761 layer_factory.cpp:56] CUDNN does not support padding or multiple tops. Using Caffe's own pooling layer.
I1214 21:47:10.871536 29761 net.cpp:84] Creating Layer inception_4d/pool
I1214 21:47:10.871543 29761 net.cpp:380] inception_4d/pool <- inception_4c/output_inception_4c/output_0_split_3
I1214 21:47:10.871556 29761 net.cpp:338] inception_4d/pool -> inception_4d/pool
I1214 21:47:10.871568 29761 net.cpp:113] Setting up inception_4d/pool
I1214 21:47:10.871582 29761 net.cpp:120] Top shape: 32 512 14 14 (3211264)
I1214 21:47:10.871590 29761 layer_factory.hpp:74] Creating layer inception_4d/pool_proj
I1214 21:47:10.871606 29761 net.cpp:84] Creating Layer inception_4d/pool_proj
I1214 21:47:10.871615 29761 net.cpp:380] inception_4d/pool_proj <- inception_4d/pool
I1214 21:47:10.871626 29761 net.cpp:338] inception_4d/pool_proj -> inception_4d/pool_proj
I1214 21:47:10.871639 29761 net.cpp:113] Setting up inception_4d/pool_proj
I1214 21:47:10.873410 29761 net.cpp:120] Top shape: 32 64 14 14 (401408)
I1214 21:47:10.873440 29761 layer_factory.hpp:74] Creating layer inception_4d/relu_pool_proj
I1214 21:47:10.873453 29761 net.cpp:84] Creating Layer inception_4d/relu_pool_proj
I1214 21:47:10.873463 29761 net.cpp:380] inception_4d/relu_pool_proj <- inception_4d/pool_proj
I1214 21:47:10.873476 29761 net.cpp:327] inception_4d/relu_pool_proj -> inception_4d/pool_proj (in-place)
I1214 21:47:10.873488 29761 net.cpp:113] Setting up inception_4d/relu_pool_proj
I1214 21:47:10.874112 29761 net.cpp:120] Top shape: 32 64 14 14 (401408)
I1214 21:47:10.874130 29761 layer_factory.hpp:74] Creating layer inception_4d/output
I1214 21:47:10.874145 29761 net.cpp:84] Creating Layer inception_4d/output
I1214 21:47:10.874155 29761 net.cpp:380] inception_4d/output <- inception_4d/1x1
I1214 21:47:10.874166 29761 net.cpp:380] inception_4d/output <- inception_4d/3x3
I1214 21:47:10.874174 29761 net.cpp:380] inception_4d/output <- inception_4d/5x5
I1214 21:47:10.874183 29761 net.cpp:380] inception_4d/output <- inception_4d/pool_proj
I1214 21:47:10.874194 29761 net.cpp:338] inception_4d/output -> inception_4d/output
I1214 21:47:10.874207 29761 net.cpp:113] Setting up inception_4d/output
I1214 21:47:10.874220 29761 net.cpp:120] Top shape: 32 528 14 14 (3311616)
I1214 21:47:10.874229 29761 layer_factory.hpp:74] Creating layer inception_4d/output_inception_4d/output_0_split
I1214 21:47:10.874243 29761 net.cpp:84] Creating Layer inception_4d/output_inception_4d/output_0_split
I1214 21:47:10.874251 29761 net.cpp:380] inception_4d/output_inception_4d/output_0_split <- inception_4d/output
I1214 21:47:10.874263 29761 net.cpp:338] inception_4d/output_inception_4d/output_0_split -> inception_4d/output_inception_4d/output_0_split_0
I1214 21:47:10.874274 29761 net.cpp:338] inception_4d/output_inception_4d/output_0_split -> inception_4d/output_inception_4d/output_0_split_1
I1214 21:47:10.874289 29761 net.cpp:338] inception_4d/output_inception_4d/output_0_split -> inception_4d/output_inception_4d/output_0_split_2
I1214 21:47:10.874302 29761 net.cpp:338] inception_4d/output_inception_4d/output_0_split -> inception_4d/output_inception_4d/output_0_split_3
I1214 21:47:10.874313 29761 net.cpp:338] inception_4d/output_inception_4d/output_0_split -> inception_4d/output_inception_4d/output_0_split_4
I1214 21:47:10.874323 29761 net.cpp:113] Setting up inception_4d/output_inception_4d/output_0_split
I1214 21:47:10.874346 29761 net.cpp:120] Top shape: 32 528 14 14 (3311616)
I1214 21:47:10.874369 29761 net.cpp:120] Top shape: 32 528 14 14 (3311616)
I1214 21:47:10.874378 29761 net.cpp:120] Top shape: 32 528 14 14 (3311616)
I1214 21:47:10.874387 29761 net.cpp:120] Top shape: 32 528 14 14 (3311616)
I1214 21:47:10.874397 29761 net.cpp:120] Top shape: 32 528 14 14 (3311616)
I1214 21:47:10.874403 29761 layer_factory.hpp:74] Creating layer loss2/ave_pool
I1214 21:47:10.874414 29761 net.cpp:84] Creating Layer loss2/ave_pool
I1214 21:47:10.874423 29761 net.cpp:380] loss2/ave_pool <- inception_4d/output_inception_4d/output_0_split_0
I1214 21:47:10.874435 29761 net.cpp:338] loss2/ave_pool -> loss2/ave_pool
I1214 21:47:10.874447 29761 net.cpp:113] Setting up loss2/ave_pool
I1214 21:47:10.874570 29761 net.cpp:120] Top shape: 32 528 4 4 (270336)
I1214 21:47:10.874582 29761 layer_factory.hpp:74] Creating layer loss2/conv
I1214 21:47:10.874593 29761 net.cpp:84] Creating Layer loss2/conv
I1214 21:47:10.874603 29761 net.cpp:380] loss2/conv <- loss2/ave_pool
I1214 21:47:10.874616 29761 net.cpp:338] loss2/conv -> loss2/conv
I1214 21:47:10.874629 29761 net.cpp:113] Setting up loss2/conv
I1214 21:47:10.876967 29761 net.cpp:120] Top shape: 32 128 4 4 (65536)
I1214 21:47:10.876993 29761 layer_factory.hpp:74] Creating layer loss2/relu_conv
I1214 21:47:10.877005 29761 net.cpp:84] Creating Layer loss2/relu_conv
I1214 21:47:10.877014 29761 net.cpp:380] loss2/relu_conv <- loss2/conv
I1214 21:47:10.877025 29761 net.cpp:327] loss2/relu_conv -> loss2/conv (in-place)
I1214 21:47:10.877038 29761 net.cpp:113] Setting up loss2/relu_conv
I1214 21:47:10.877167 29761 net.cpp:120] Top shape: 32 128 4 4 (65536)
I1214 21:47:10.877182 29761 layer_factory.hpp:74] Creating layer loss2/fc
I1214 21:47:10.877197 29761 net.cpp:84] Creating Layer loss2/fc
I1214 21:47:10.877204 29761 net.cpp:380] loss2/fc <- loss2/conv
I1214 21:47:10.877218 29761 net.cpp:338] loss2/fc -> loss2/fc
I1214 21:47:10.877233 29761 net.cpp:113] Setting up loss2/fc
I1214 21:47:10.912369 29761 net.cpp:120] Top shape: 32 1024 (32768)
I1214 21:47:10.912387 29761 layer_factory.hpp:74] Creating layer loss2/relu_fc
I1214 21:47:10.912400 29761 net.cpp:84] Creating Layer loss2/relu_fc
I1214 21:47:10.912407 29761 net.cpp:380] loss2/relu_fc <- loss2/fc
I1214 21:47:10.912416 29761 net.cpp:327] loss2/relu_fc -> loss2/fc (in-place)
I1214 21:47:10.912425 29761 net.cpp:113] Setting up loss2/relu_fc
I1214 21:47:10.913147 29761 net.cpp:120] Top shape: 32 1024 (32768)
I1214 21:47:10.913164 29761 layer_factory.hpp:74] Creating layer loss2/drop_fc
I1214 21:47:10.913177 29761 net.cpp:84] Creating Layer loss2/drop_fc
I1214 21:47:10.913185 29761 net.cpp:380] loss2/drop_fc <- loss2/fc
I1214 21:47:10.913194 29761 net.cpp:327] loss2/drop_fc -> loss2/fc (in-place)
I1214 21:47:10.913204 29761 net.cpp:113] Setting up loss2/drop_fc
I1214 21:47:10.913215 29761 net.cpp:120] Top shape: 32 1024 (32768)
I1214 21:47:10.913223 29761 layer_factory.hpp:74] Creating layer loss2/classifier_kaggle
I1214 21:47:10.913234 29761 net.cpp:84] Creating Layer loss2/classifier_kaggle
I1214 21:47:10.913240 29761 net.cpp:380] loss2/classifier_kaggle <- loss2/fc
I1214 21:47:10.913254 29761 net.cpp:338] loss2/classifier_kaggle -> loss2/classifier_kaggle
I1214 21:47:10.913265 29761 net.cpp:113] Setting up loss2/classifier_kaggle
I1214 21:47:10.920568 29761 net.cpp:120] Top shape: 32 447 (14304)
I1214 21:47:10.920585 29761 layer_factory.hpp:74] Creating layer loss2/loss
I1214 21:47:10.920598 29761 net.cpp:84] Creating Layer loss2/loss
I1214 21:47:10.920605 29761 net.cpp:380] loss2/loss <- loss2/classifier_kaggle
I1214 21:47:10.920614 29761 net.cpp:380] loss2/loss <- label_data_1_split_1
I1214 21:47:10.920624 29761 net.cpp:338] loss2/loss -> loss2/loss1
I1214 21:47:10.920634 29761 net.cpp:113] Setting up loss2/loss
I1214 21:47:10.920642 29761 layer_factory.hpp:74] Creating layer loss2/loss
I1214 21:47:10.920806 29761 net.cpp:120] Top shape: (1)
I1214 21:47:10.920815 29761 net.cpp:122]     with loss weight 0.3
I1214 21:47:10.920837 29761 layer_factory.hpp:74] Creating layer inception_4e/1x1
I1214 21:47:10.920862 29761 net.cpp:84] Creating Layer inception_4e/1x1
I1214 21:47:10.920871 29761 net.cpp:380] inception_4e/1x1 <- inception_4d/output_inception_4d/output_0_split_1
I1214 21:47:10.920882 29761 net.cpp:338] inception_4e/1x1 -> inception_4e/1x1
I1214 21:47:10.920893 29761 net.cpp:113] Setting up inception_4e/1x1
I1214 21:47:10.923751 29761 net.cpp:120] Top shape: 32 256 14 14 (1605632)
I1214 21:47:10.923774 29761 layer_factory.hpp:74] Creating layer inception_4e/relu_1x1
I1214 21:47:10.923784 29761 net.cpp:84] Creating Layer inception_4e/relu_1x1
I1214 21:47:10.923792 29761 net.cpp:380] inception_4e/relu_1x1 <- inception_4e/1x1
I1214 21:47:10.923801 29761 net.cpp:327] inception_4e/relu_1x1 -> inception_4e/1x1 (in-place)
I1214 21:47:10.923811 29761 net.cpp:113] Setting up inception_4e/relu_1x1
I1214 21:47:10.923903 29761 net.cpp:120] Top shape: 32 256 14 14 (1605632)
I1214 21:47:10.923913 29761 layer_factory.hpp:74] Creating layer inception_4e/3x3_reduce
I1214 21:47:10.923924 29761 net.cpp:84] Creating Layer inception_4e/3x3_reduce
I1214 21:47:10.923931 29761 net.cpp:380] inception_4e/3x3_reduce <- inception_4d/output_inception_4d/output_0_split_2
I1214 21:47:10.923944 29761 net.cpp:338] inception_4e/3x3_reduce -> inception_4e/3x3_reduce
I1214 21:47:10.923955 29761 net.cpp:113] Setting up inception_4e/3x3_reduce
I1214 21:47:10.933176 29761 net.cpp:120] Top shape: 32 160 14 14 (1003520)
I1214 21:47:10.933204 29761 layer_factory.hpp:74] Creating layer inception_4e/relu_3x3_reduce
I1214 21:47:10.933217 29761 net.cpp:84] Creating Layer inception_4e/relu_3x3_reduce
I1214 21:47:10.933224 29761 net.cpp:380] inception_4e/relu_3x3_reduce <- inception_4e/3x3_reduce
I1214 21:47:10.933234 29761 net.cpp:327] inception_4e/relu_3x3_reduce -> inception_4e/3x3_reduce (in-place)
I1214 21:47:10.933245 29761 net.cpp:113] Setting up inception_4e/relu_3x3_reduce
I1214 21:47:10.933341 29761 net.cpp:120] Top shape: 32 160 14 14 (1003520)
I1214 21:47:10.933351 29761 layer_factory.hpp:74] Creating layer inception_4e/3x3
I1214 21:47:10.933363 29761 net.cpp:84] Creating Layer inception_4e/3x3
I1214 21:47:10.933370 29761 net.cpp:380] inception_4e/3x3 <- inception_4e/3x3_reduce
I1214 21:47:10.933380 29761 net.cpp:338] inception_4e/3x3 -> inception_4e/3x3
I1214 21:47:10.933392 29761 net.cpp:113] Setting up inception_4e/3x3
I1214 21:47:10.940981 29761 net.cpp:120] Top shape: 32 320 14 14 (2007040)
I1214 21:47:10.941004 29761 layer_factory.hpp:74] Creating layer inception_4e/relu_3x3
I1214 21:47:10.941014 29761 net.cpp:84] Creating Layer inception_4e/relu_3x3
I1214 21:47:10.941020 29761 net.cpp:380] inception_4e/relu_3x3 <- inception_4e/3x3
I1214 21:47:10.941030 29761 net.cpp:327] inception_4e/relu_3x3 -> inception_4e/3x3 (in-place)
I1214 21:47:10.941040 29761 net.cpp:113] Setting up inception_4e/relu_3x3
I1214 21:47:10.941661 29761 net.cpp:120] Top shape: 32 320 14 14 (2007040)
I1214 21:47:10.941678 29761 layer_factory.hpp:74] Creating layer inception_4e/5x5_reduce
I1214 21:47:10.941691 29761 net.cpp:84] Creating Layer inception_4e/5x5_reduce
I1214 21:47:10.941699 29761 net.cpp:380] inception_4e/5x5_reduce <- inception_4d/output_inception_4d/output_0_split_3
I1214 21:47:10.941710 29761 net.cpp:338] inception_4e/5x5_reduce -> inception_4e/5x5_reduce
I1214 21:47:10.941722 29761 net.cpp:113] Setting up inception_4e/5x5_reduce
I1214 21:47:10.942548 29761 net.cpp:120] Top shape: 32 32 14 14 (200704)
I1214 21:47:10.942567 29761 layer_factory.hpp:74] Creating layer inception_4e/relu_5x5_reduce
I1214 21:47:10.942579 29761 net.cpp:84] Creating Layer inception_4e/relu_5x5_reduce
I1214 21:47:10.942586 29761 net.cpp:380] inception_4e/relu_5x5_reduce <- inception_4e/5x5_reduce
I1214 21:47:10.942595 29761 net.cpp:327] inception_4e/relu_5x5_reduce -> inception_4e/5x5_reduce (in-place)
I1214 21:47:10.942605 29761 net.cpp:113] Setting up inception_4e/relu_5x5_reduce
I1214 21:47:10.942693 29761 net.cpp:120] Top shape: 32 32 14 14 (200704)
I1214 21:47:10.942701 29761 layer_factory.hpp:74] Creating layer inception_4e/5x5
I1214 21:47:10.942737 29761 net.cpp:84] Creating Layer inception_4e/5x5
I1214 21:47:10.942754 29761 net.cpp:380] inception_4e/5x5 <- inception_4e/5x5_reduce
I1214 21:47:10.942766 29761 net.cpp:338] inception_4e/5x5 -> inception_4e/5x5
I1214 21:47:10.942777 29761 net.cpp:113] Setting up inception_4e/5x5
I1214 21:47:10.945209 29761 net.cpp:120] Top shape: 32 128 14 14 (802816)
I1214 21:47:10.945232 29761 layer_factory.hpp:74] Creating layer inception_4e/relu_5x5
I1214 21:47:10.945242 29761 net.cpp:84] Creating Layer inception_4e/relu_5x5
I1214 21:47:10.945250 29761 net.cpp:380] inception_4e/relu_5x5 <- inception_4e/5x5
I1214 21:47:10.945260 29761 net.cpp:327] inception_4e/relu_5x5 -> inception_4e/5x5 (in-place)
I1214 21:47:10.945269 29761 net.cpp:113] Setting up inception_4e/relu_5x5
I1214 21:47:10.945356 29761 net.cpp:120] Top shape: 32 128 14 14 (802816)
I1214 21:47:10.945364 29761 layer_factory.hpp:74] Creating layer inception_4e/pool
I1214 21:47:10.945374 29761 layer_factory.cpp:56] CUDNN does not support padding or multiple tops. Using Caffe's own pooling layer.
I1214 21:47:10.945382 29761 net.cpp:84] Creating Layer inception_4e/pool
I1214 21:47:10.945389 29761 net.cpp:380] inception_4e/pool <- inception_4d/output_inception_4d/output_0_split_4
I1214 21:47:10.945397 29761 net.cpp:338] inception_4e/pool -> inception_4e/pool
I1214 21:47:10.945407 29761 net.cpp:113] Setting up inception_4e/pool
I1214 21:47:10.945418 29761 net.cpp:120] Top shape: 32 528 14 14 (3311616)
I1214 21:47:10.945425 29761 layer_factory.hpp:74] Creating layer inception_4e/pool_proj
I1214 21:47:10.945436 29761 net.cpp:84] Creating Layer inception_4e/pool_proj
I1214 21:47:10.945442 29761 net.cpp:380] inception_4e/pool_proj <- inception_4e/pool
I1214 21:47:10.945451 29761 net.cpp:338] inception_4e/pool_proj -> inception_4e/pool_proj
I1214 21:47:10.945471 29761 net.cpp:113] Setting up inception_4e/pool_proj
I1214 21:47:10.947341 29761 net.cpp:120] Top shape: 32 128 14 14 (802816)
I1214 21:47:10.947360 29761 layer_factory.hpp:74] Creating layer inception_4e/relu_pool_proj
I1214 21:47:10.947373 29761 net.cpp:84] Creating Layer inception_4e/relu_pool_proj
I1214 21:47:10.947381 29761 net.cpp:380] inception_4e/relu_pool_proj <- inception_4e/pool_proj
I1214 21:47:10.947388 29761 net.cpp:327] inception_4e/relu_pool_proj -> inception_4e/pool_proj (in-place)
I1214 21:47:10.947397 29761 net.cpp:113] Setting up inception_4e/relu_pool_proj
I1214 21:47:10.947477 29761 net.cpp:120] Top shape: 32 128 14 14 (802816)
I1214 21:47:10.947484 29761 layer_factory.hpp:74] Creating layer inception_4e/output
I1214 21:47:10.947496 29761 net.cpp:84] Creating Layer inception_4e/output
I1214 21:47:10.947502 29761 net.cpp:380] inception_4e/output <- inception_4e/1x1
I1214 21:47:10.947510 29761 net.cpp:380] inception_4e/output <- inception_4e/3x3
I1214 21:47:10.947516 29761 net.cpp:380] inception_4e/output <- inception_4e/5x5
I1214 21:47:10.947522 29761 net.cpp:380] inception_4e/output <- inception_4e/pool_proj
I1214 21:47:10.947530 29761 net.cpp:338] inception_4e/output -> inception_4e/output
I1214 21:47:10.947540 29761 net.cpp:113] Setting up inception_4e/output
I1214 21:47:10.947548 29761 net.cpp:120] Top shape: 32 832 14 14 (5218304)
I1214 21:47:10.947554 29761 layer_factory.hpp:74] Creating layer pool4/3x3_s2
I1214 21:47:10.947562 29761 net.cpp:84] Creating Layer pool4/3x3_s2
I1214 21:47:10.947567 29761 net.cpp:380] pool4/3x3_s2 <- inception_4e/output
I1214 21:47:10.947578 29761 net.cpp:338] pool4/3x3_s2 -> pool4/3x3_s2
I1214 21:47:10.947587 29761 net.cpp:113] Setting up pool4/3x3_s2
I1214 21:47:10.948353 29761 net.cpp:120] Top shape: 32 832 7 7 (1304576)
I1214 21:47:10.948366 29761 layer_factory.hpp:74] Creating layer pool4/3x3_s2_pool4/3x3_s2_0_split
I1214 21:47:10.948377 29761 net.cpp:84] Creating Layer pool4/3x3_s2_pool4/3x3_s2_0_split
I1214 21:47:10.948384 29761 net.cpp:380] pool4/3x3_s2_pool4/3x3_s2_0_split <- pool4/3x3_s2
I1214 21:47:10.948392 29761 net.cpp:338] pool4/3x3_s2_pool4/3x3_s2_0_split -> pool4/3x3_s2_pool4/3x3_s2_0_split_0
I1214 21:47:10.948408 29761 net.cpp:338] pool4/3x3_s2_pool4/3x3_s2_0_split -> pool4/3x3_s2_pool4/3x3_s2_0_split_1
I1214 21:47:10.948427 29761 net.cpp:338] pool4/3x3_s2_pool4/3x3_s2_0_split -> pool4/3x3_s2_pool4/3x3_s2_0_split_2
I1214 21:47:10.948436 29761 net.cpp:338] pool4/3x3_s2_pool4/3x3_s2_0_split -> pool4/3x3_s2_pool4/3x3_s2_0_split_3
I1214 21:47:10.948444 29761 net.cpp:113] Setting up pool4/3x3_s2_pool4/3x3_s2_0_split
I1214 21:47:10.948453 29761 net.cpp:120] Top shape: 32 832 7 7 (1304576)
I1214 21:47:10.948459 29761 net.cpp:120] Top shape: 32 832 7 7 (1304576)
I1214 21:47:10.948465 29761 net.cpp:120] Top shape: 32 832 7 7 (1304576)
I1214 21:47:10.948472 29761 net.cpp:120] Top shape: 32 832 7 7 (1304576)
I1214 21:47:10.948477 29761 layer_factory.hpp:74] Creating layer inception_5a/1x1
I1214 21:47:10.948487 29761 net.cpp:84] Creating Layer inception_5a/1x1
I1214 21:47:10.948493 29761 net.cpp:380] inception_5a/1x1 <- pool4/3x3_s2_pool4/3x3_s2_0_split_0
I1214 21:47:10.948503 29761 net.cpp:338] inception_5a/1x1 -> inception_5a/1x1
I1214 21:47:10.948513 29761 net.cpp:113] Setting up inception_5a/1x1
I1214 21:47:10.952224 29761 net.cpp:120] Top shape: 32 256 7 7 (401408)
I1214 21:47:10.952244 29761 layer_factory.hpp:74] Creating layer inception_5a/relu_1x1
I1214 21:47:10.952255 29761 net.cpp:84] Creating Layer inception_5a/relu_1x1
I1214 21:47:10.952260 29761 net.cpp:380] inception_5a/relu_1x1 <- inception_5a/1x1
I1214 21:47:10.952270 29761 net.cpp:327] inception_5a/relu_1x1 -> inception_5a/1x1 (in-place)
I1214 21:47:10.952278 29761 net.cpp:113] Setting up inception_5a/relu_1x1
I1214 21:47:10.952363 29761 net.cpp:120] Top shape: 32 256 7 7 (401408)
I1214 21:47:10.952370 29761 layer_factory.hpp:74] Creating layer inception_5a/3x3_reduce
I1214 21:47:10.952380 29761 net.cpp:84] Creating Layer inception_5a/3x3_reduce
I1214 21:47:10.952386 29761 net.cpp:380] inception_5a/3x3_reduce <- pool4/3x3_s2_pool4/3x3_s2_0_split_1
I1214 21:47:10.952396 29761 net.cpp:338] inception_5a/3x3_reduce -> inception_5a/3x3_reduce
I1214 21:47:10.952407 29761 net.cpp:113] Setting up inception_5a/3x3_reduce
I1214 21:47:10.954843 29761 net.cpp:120] Top shape: 32 160 7 7 (250880)
I1214 21:47:10.954862 29761 layer_factory.hpp:74] Creating layer inception_5a/relu_3x3_reduce
I1214 21:47:10.954871 29761 net.cpp:84] Creating Layer inception_5a/relu_3x3_reduce
I1214 21:47:10.954877 29761 net.cpp:380] inception_5a/relu_3x3_reduce <- inception_5a/3x3_reduce
I1214 21:47:10.954886 29761 net.cpp:327] inception_5a/relu_3x3_reduce -> inception_5a/3x3_reduce (in-place)
I1214 21:47:10.954895 29761 net.cpp:113] Setting up inception_5a/relu_3x3_reduce
I1214 21:47:10.954978 29761 net.cpp:120] Top shape: 32 160 7 7 (250880)
I1214 21:47:10.954985 29761 layer_factory.hpp:74] Creating layer inception_5a/3x3
I1214 21:47:10.954999 29761 net.cpp:84] Creating Layer inception_5a/3x3
I1214 21:47:10.955005 29761 net.cpp:380] inception_5a/3x3 <- inception_5a/3x3_reduce
I1214 21:47:10.955014 29761 net.cpp:338] inception_5a/3x3 -> inception_5a/3x3
I1214 21:47:10.955024 29761 net.cpp:113] Setting up inception_5a/3x3
I1214 21:47:10.961978 29761 net.cpp:120] Top shape: 32 320 7 7 (501760)
I1214 21:47:10.961997 29761 layer_factory.hpp:74] Creating layer inception_5a/relu_3x3
I1214 21:47:10.962005 29761 net.cpp:84] Creating Layer inception_5a/relu_3x3
I1214 21:47:10.962013 29761 net.cpp:380] inception_5a/relu_3x3 <- inception_5a/3x3
I1214 21:47:10.962020 29761 net.cpp:327] inception_5a/relu_3x3 -> inception_5a/3x3 (in-place)
I1214 21:47:10.962028 29761 net.cpp:113] Setting up inception_5a/relu_3x3
I1214 21:47:10.962108 29761 net.cpp:120] Top shape: 32 320 7 7 (501760)
I1214 21:47:10.962118 29761 layer_factory.hpp:74] Creating layer inception_5a/5x5_reduce
I1214 21:47:10.962127 29761 net.cpp:84] Creating Layer inception_5a/5x5_reduce
I1214 21:47:10.962134 29761 net.cpp:380] inception_5a/5x5_reduce <- pool4/3x3_s2_pool4/3x3_s2_0_split_2
I1214 21:47:10.962144 29761 net.cpp:338] inception_5a/5x5_reduce -> inception_5a/5x5_reduce
I1214 21:47:10.962154 29761 net.cpp:113] Setting up inception_5a/5x5_reduce
I1214 21:47:10.963337 29761 net.cpp:120] Top shape: 32 32 7 7 (50176)
I1214 21:47:10.963366 29761 layer_factory.hpp:74] Creating layer inception_5a/relu_5x5_reduce
I1214 21:47:10.963376 29761 net.cpp:84] Creating Layer inception_5a/relu_5x5_reduce
I1214 21:47:10.963382 29761 net.cpp:380] inception_5a/relu_5x5_reduce <- inception_5a/5x5_reduce
I1214 21:47:10.963392 29761 net.cpp:327] inception_5a/relu_5x5_reduce -> inception_5a/5x5_reduce (in-place)
I1214 21:47:10.963400 29761 net.cpp:113] Setting up inception_5a/relu_5x5_reduce
I1214 21:47:10.964002 29761 net.cpp:120] Top shape: 32 32 7 7 (50176)
I1214 21:47:10.964015 29761 layer_factory.hpp:74] Creating layer inception_5a/5x5
I1214 21:47:10.964025 29761 net.cpp:84] Creating Layer inception_5a/5x5
I1214 21:47:10.964031 29761 net.cpp:380] inception_5a/5x5 <- inception_5a/5x5_reduce
I1214 21:47:10.964042 29761 net.cpp:338] inception_5a/5x5 -> inception_5a/5x5
I1214 21:47:10.964052 29761 net.cpp:113] Setting up inception_5a/5x5
I1214 21:47:10.966228 29761 net.cpp:120] Top shape: 32 128 7 7 (200704)
I1214 21:47:10.966250 29761 layer_factory.hpp:74] Creating layer inception_5a/relu_5x5
I1214 21:47:10.966259 29761 net.cpp:84] Creating Layer inception_5a/relu_5x5
I1214 21:47:10.966265 29761 net.cpp:380] inception_5a/relu_5x5 <- inception_5a/5x5
I1214 21:47:10.966274 29761 net.cpp:327] inception_5a/relu_5x5 -> inception_5a/5x5 (in-place)
I1214 21:47:10.966284 29761 net.cpp:113] Setting up inception_5a/relu_5x5
I1214 21:47:10.966362 29761 net.cpp:120] Top shape: 32 128 7 7 (200704)
I1214 21:47:10.966372 29761 layer_factory.hpp:74] Creating layer inception_5a/pool
I1214 21:47:10.966379 29761 layer_factory.cpp:56] CUDNN does not support padding or multiple tops. Using Caffe's own pooling layer.
I1214 21:47:10.966385 29761 net.cpp:84] Creating Layer inception_5a/pool
I1214 21:47:10.966392 29761 net.cpp:380] inception_5a/pool <- pool4/3x3_s2_pool4/3x3_s2_0_split_3
I1214 21:47:10.966401 29761 net.cpp:338] inception_5a/pool -> inception_5a/pool
I1214 21:47:10.966410 29761 net.cpp:113] Setting up inception_5a/pool
I1214 21:47:10.966420 29761 net.cpp:120] Top shape: 32 832 7 7 (1304576)
I1214 21:47:10.966425 29761 layer_factory.hpp:74] Creating layer inception_5a/pool_proj
I1214 21:47:10.966435 29761 net.cpp:84] Creating Layer inception_5a/pool_proj
I1214 21:47:10.966441 29761 net.cpp:380] inception_5a/pool_proj <- inception_5a/pool
I1214 21:47:10.966454 29761 net.cpp:338] inception_5a/pool_proj -> inception_5a/pool_proj
I1214 21:47:10.966462 29761 net.cpp:113] Setting up inception_5a/pool_proj
I1214 21:47:10.968682 29761 net.cpp:120] Top shape: 32 128 7 7 (200704)
I1214 21:47:10.968699 29761 layer_factory.hpp:74] Creating layer inception_5a/relu_pool_proj
I1214 21:47:10.968708 29761 net.cpp:84] Creating Layer inception_5a/relu_pool_proj
I1214 21:47:10.968714 29761 net.cpp:380] inception_5a/relu_pool_proj <- inception_5a/pool_proj
I1214 21:47:10.968721 29761 net.cpp:327] inception_5a/relu_pool_proj -> inception_5a/pool_proj (in-place)
I1214 21:47:10.968730 29761 net.cpp:113] Setting up inception_5a/relu_pool_proj
I1214 21:47:10.968808 29761 net.cpp:120] Top shape: 32 128 7 7 (200704)
I1214 21:47:10.968816 29761 layer_factory.hpp:74] Creating layer inception_5a/output
I1214 21:47:10.968823 29761 net.cpp:84] Creating Layer inception_5a/output
I1214 21:47:10.968828 29761 net.cpp:380] inception_5a/output <- inception_5a/1x1
I1214 21:47:10.968835 29761 net.cpp:380] inception_5a/output <- inception_5a/3x3
I1214 21:47:10.968842 29761 net.cpp:380] inception_5a/output <- inception_5a/5x5
I1214 21:47:10.968847 29761 net.cpp:380] inception_5a/output <- inception_5a/pool_proj
I1214 21:47:10.968854 29761 net.cpp:338] inception_5a/output -> inception_5a/output
I1214 21:47:10.968863 29761 net.cpp:113] Setting up inception_5a/output
I1214 21:47:10.968871 29761 net.cpp:120] Top shape: 32 832 7 7 (1304576)
I1214 21:47:10.968876 29761 layer_factory.hpp:74] Creating layer inception_5a/output_inception_5a/output_0_split
I1214 21:47:10.968884 29761 net.cpp:84] Creating Layer inception_5a/output_inception_5a/output_0_split
I1214 21:47:10.968896 29761 net.cpp:380] inception_5a/output_inception_5a/output_0_split <- inception_5a/output
I1214 21:47:10.968914 29761 net.cpp:338] inception_5a/output_inception_5a/output_0_split -> inception_5a/output_inception_5a/output_0_split_0
I1214 21:47:10.968924 29761 net.cpp:338] inception_5a/output_inception_5a/output_0_split -> inception_5a/output_inception_5a/output_0_split_1
I1214 21:47:10.968931 29761 net.cpp:338] inception_5a/output_inception_5a/output_0_split -> inception_5a/output_inception_5a/output_0_split_2
I1214 21:47:10.968940 29761 net.cpp:338] inception_5a/output_inception_5a/output_0_split -> inception_5a/output_inception_5a/output_0_split_3
I1214 21:47:10.968946 29761 net.cpp:113] Setting up inception_5a/output_inception_5a/output_0_split
I1214 21:47:10.968956 29761 net.cpp:120] Top shape: 32 832 7 7 (1304576)
I1214 21:47:10.968962 29761 net.cpp:120] Top shape: 32 832 7 7 (1304576)
I1214 21:47:10.968968 29761 net.cpp:120] Top shape: 32 832 7 7 (1304576)
I1214 21:47:10.968974 29761 net.cpp:120] Top shape: 32 832 7 7 (1304576)
I1214 21:47:10.968981 29761 layer_factory.hpp:74] Creating layer inception_5b/1x1
I1214 21:47:10.968991 29761 net.cpp:84] Creating Layer inception_5b/1x1
I1214 21:47:10.968996 29761 net.cpp:380] inception_5b/1x1 <- inception_5a/output_inception_5a/output_0_split_0
I1214 21:47:10.969004 29761 net.cpp:338] inception_5b/1x1 -> inception_5b/1x1
I1214 21:47:10.969014 29761 net.cpp:113] Setting up inception_5b/1x1
I1214 21:47:10.973850 29761 net.cpp:120] Top shape: 32 384 7 7 (602112)
I1214 21:47:10.973870 29761 layer_factory.hpp:74] Creating layer inception_5b/relu_1x1
I1214 21:47:10.973877 29761 net.cpp:84] Creating Layer inception_5b/relu_1x1
I1214 21:47:10.973884 29761 net.cpp:380] inception_5b/relu_1x1 <- inception_5b/1x1
I1214 21:47:10.973892 29761 net.cpp:327] inception_5b/relu_1x1 -> inception_5b/1x1 (in-place)
I1214 21:47:10.973901 29761 net.cpp:113] Setting up inception_5b/relu_1x1
I1214 21:47:10.974509 29761 net.cpp:120] Top shape: 32 384 7 7 (602112)
I1214 21:47:10.974521 29761 layer_factory.hpp:74] Creating layer inception_5b/3x3_reduce
I1214 21:47:10.974532 29761 net.cpp:84] Creating Layer inception_5b/3x3_reduce
I1214 21:47:10.974539 29761 net.cpp:380] inception_5b/3x3_reduce <- inception_5a/output_inception_5a/output_0_split_1
I1214 21:47:10.974550 29761 net.cpp:338] inception_5b/3x3_reduce -> inception_5b/3x3_reduce
I1214 21:47:10.974560 29761 net.cpp:113] Setting up inception_5b/3x3_reduce
I1214 21:47:10.977167 29761 net.cpp:120] Top shape: 32 192 7 7 (301056)
I1214 21:47:10.977185 29761 layer_factory.hpp:74] Creating layer inception_5b/relu_3x3_reduce
I1214 21:47:10.977195 29761 net.cpp:84] Creating Layer inception_5b/relu_3x3_reduce
I1214 21:47:10.977201 29761 net.cpp:380] inception_5b/relu_3x3_reduce <- inception_5b/3x3_reduce
I1214 21:47:10.977210 29761 net.cpp:327] inception_5b/relu_3x3_reduce -> inception_5b/3x3_reduce (in-place)
I1214 21:47:10.977217 29761 net.cpp:113] Setting up inception_5b/relu_3x3_reduce
I1214 21:47:10.977299 29761 net.cpp:120] Top shape: 32 192 7 7 (301056)
I1214 21:47:10.977306 29761 layer_factory.hpp:74] Creating layer inception_5b/3x3
I1214 21:47:10.977316 29761 net.cpp:84] Creating Layer inception_5b/3x3
I1214 21:47:10.977321 29761 net.cpp:380] inception_5b/3x3 <- inception_5b/3x3_reduce
I1214 21:47:10.977331 29761 net.cpp:338] inception_5b/3x3 -> inception_5b/3x3
I1214 21:47:10.977357 29761 net.cpp:113] Setting up inception_5b/3x3
I1214 21:47:10.987085 29761 net.cpp:120] Top shape: 32 384 7 7 (602112)
I1214 21:47:10.987138 29761 layer_factory.hpp:74] Creating layer inception_5b/relu_3x3
I1214 21:47:10.987157 29761 net.cpp:84] Creating Layer inception_5b/relu_3x3
I1214 21:47:10.987170 29761 net.cpp:380] inception_5b/relu_3x3 <- inception_5b/3x3
I1214 21:47:10.987186 29761 net.cpp:327] inception_5b/relu_3x3 -> inception_5b/3x3 (in-place)
I1214 21:47:10.987203 29761 net.cpp:113] Setting up inception_5b/relu_3x3
I1214 21:47:10.987341 29761 net.cpp:120] Top shape: 32 384 7 7 (602112)
I1214 21:47:10.987365 29761 layer_factory.hpp:74] Creating layer inception_5b/5x5_reduce
I1214 21:47:10.987401 29761 net.cpp:84] Creating Layer inception_5b/5x5_reduce
I1214 21:47:10.987411 29761 net.cpp:380] inception_5b/5x5_reduce <- inception_5a/output_inception_5a/output_0_split_2
I1214 21:47:10.987426 29761 net.cpp:338] inception_5b/5x5_reduce -> inception_5b/5x5_reduce
I1214 21:47:10.987443 29761 net.cpp:113] Setting up inception_5b/5x5_reduce
I1214 21:47:10.989424 29761 net.cpp:120] Top shape: 32 48 7 7 (75264)
I1214 21:47:10.989455 29761 layer_factory.hpp:74] Creating layer inception_5b/relu_5x5_reduce
I1214 21:47:10.989485 29761 net.cpp:84] Creating Layer inception_5b/relu_5x5_reduce
I1214 21:47:10.989496 29761 net.cpp:380] inception_5b/relu_5x5_reduce <- inception_5b/5x5_reduce
I1214 21:47:10.989511 29761 net.cpp:327] inception_5b/relu_5x5_reduce -> inception_5b/5x5_reduce (in-place)
I1214 21:47:10.989524 29761 net.cpp:113] Setting up inception_5b/relu_5x5_reduce
I1214 21:47:10.989655 29761 net.cpp:120] Top shape: 32 48 7 7 (75264)
I1214 21:47:10.989666 29761 layer_factory.hpp:74] Creating layer inception_5b/5x5
I1214 21:47:10.989683 29761 net.cpp:84] Creating Layer inception_5b/5x5
I1214 21:47:10.989693 29761 net.cpp:380] inception_5b/5x5 <- inception_5b/5x5_reduce
I1214 21:47:10.989706 29761 net.cpp:338] inception_5b/5x5 -> inception_5b/5x5
I1214 21:47:10.989722 29761 net.cpp:113] Setting up inception_5b/5x5
I1214 21:47:10.995105 29761 net.cpp:120] Top shape: 32 128 7 7 (200704)
I1214 21:47:10.995144 29761 layer_factory.hpp:74] Creating layer inception_5b/relu_5x5
I1214 21:47:10.995164 29761 net.cpp:84] Creating Layer inception_5b/relu_5x5
I1214 21:47:10.995177 29761 net.cpp:380] inception_5b/relu_5x5 <- inception_5b/5x5
I1214 21:47:10.995192 29761 net.cpp:327] inception_5b/relu_5x5 -> inception_5b/5x5 (in-place)
I1214 21:47:10.995208 29761 net.cpp:113] Setting up inception_5b/relu_5x5
I1214 21:47:10.996031 29761 net.cpp:120] Top shape: 32 128 7 7 (200704)
I1214 21:47:10.996054 29761 layer_factory.hpp:74] Creating layer inception_5b/pool
I1214 21:47:10.996065 29761 layer_factory.cpp:56] CUDNN does not support padding or multiple tops. Using Caffe's own pooling layer.
I1214 21:47:10.996078 29761 net.cpp:84] Creating Layer inception_5b/pool
I1214 21:47:10.996089 29761 net.cpp:380] inception_5b/pool <- inception_5a/output_inception_5a/output_0_split_3
I1214 21:47:10.996104 29761 net.cpp:338] inception_5b/pool -> inception_5b/pool
I1214 21:47:10.996121 29761 net.cpp:113] Setting up inception_5b/pool
I1214 21:47:10.996140 29761 net.cpp:120] Top shape: 32 832 7 7 (1304576)
I1214 21:47:10.996150 29761 layer_factory.hpp:74] Creating layer inception_5b/pool_proj
I1214 21:47:10.996186 29761 net.cpp:84] Creating Layer inception_5b/pool_proj
I1214 21:47:10.996197 29761 net.cpp:380] inception_5b/pool_proj <- inception_5b/pool
I1214 21:47:10.996215 29761 net.cpp:338] inception_5b/pool_proj -> inception_5b/pool_proj
I1214 21:47:10.996232 29761 net.cpp:113] Setting up inception_5b/pool_proj
I1214 21:47:10.999814 29761 net.cpp:120] Top shape: 32 128 7 7 (200704)
I1214 21:47:10.999846 29761 layer_factory.hpp:74] Creating layer inception_5b/relu_pool_proj
I1214 21:47:10.999861 29761 net.cpp:84] Creating Layer inception_5b/relu_pool_proj
I1214 21:47:10.999872 29761 net.cpp:380] inception_5b/relu_pool_proj <- inception_5b/pool_proj
I1214 21:47:10.999889 29761 net.cpp:327] inception_5b/relu_pool_proj -> inception_5b/pool_proj (in-place)
I1214 21:47:10.999907 29761 net.cpp:113] Setting up inception_5b/relu_pool_proj
I1214 21:47:11.000043 29761 net.cpp:120] Top shape: 32 128 7 7 (200704)
I1214 21:47:11.000056 29761 layer_factory.hpp:74] Creating layer inception_5b/output
I1214 21:47:11.000068 29761 net.cpp:84] Creating Layer inception_5b/output
I1214 21:47:11.000079 29761 net.cpp:380] inception_5b/output <- inception_5b/1x1
I1214 21:47:11.000092 29761 net.cpp:380] inception_5b/output <- inception_5b/3x3
I1214 21:47:11.000102 29761 net.cpp:380] inception_5b/output <- inception_5b/5x5
I1214 21:47:11.000113 29761 net.cpp:380] inception_5b/output <- inception_5b/pool_proj
I1214 21:47:11.000138 29761 net.cpp:338] inception_5b/output -> inception_5b/output
I1214 21:47:11.000167 29761 net.cpp:113] Setting up inception_5b/output
I1214 21:47:11.000185 29761 net.cpp:120] Top shape: 32 1024 7 7 (1605632)
I1214 21:47:11.000193 29761 layer_factory.hpp:74] Creating layer pool5/7x7_s1
I1214 21:47:11.000219 29761 net.cpp:84] Creating Layer pool5/7x7_s1
I1214 21:47:11.000231 29761 net.cpp:380] pool5/7x7_s1 <- inception_5b/output
I1214 21:47:11.000250 29761 net.cpp:338] pool5/7x7_s1 -> pool5/7x7_s1
I1214 21:47:11.000267 29761 net.cpp:113] Setting up pool5/7x7_s1
I1214 21:47:11.000414 29761 net.cpp:120] Top shape: 32 1024 1 1 (32768)
I1214 21:47:11.000427 29761 layer_factory.hpp:74] Creating layer pool5/drop_7x7_s1
I1214 21:47:11.000442 29761 net.cpp:84] Creating Layer pool5/drop_7x7_s1
I1214 21:47:11.000452 29761 net.cpp:380] pool5/drop_7x7_s1 <- pool5/7x7_s1
I1214 21:47:11.000464 29761 net.cpp:327] pool5/drop_7x7_s1 -> pool5/7x7_s1 (in-place)
I1214 21:47:11.000478 29761 net.cpp:113] Setting up pool5/drop_7x7_s1
I1214 21:47:11.000491 29761 net.cpp:120] Top shape: 32 1024 1 1 (32768)
I1214 21:47:11.000500 29761 layer_factory.hpp:74] Creating layer loss3/classifier_kaggle
I1214 21:47:11.000516 29761 net.cpp:84] Creating Layer loss3/classifier_kaggle
I1214 21:47:11.000525 29761 net.cpp:380] loss3/classifier_kaggle <- pool5/7x7_s1
I1214 21:47:11.000538 29761 net.cpp:338] loss3/classifier_kaggle -> loss3/classifier_kaggle
I1214 21:47:11.000553 29761 net.cpp:113] Setting up loss3/classifier_kaggle
I1214 21:47:11.010258 29761 net.cpp:120] Top shape: 32 447 (14304)
I1214 21:47:11.010279 29761 layer_factory.hpp:74] Creating layer loss3/loss3
I1214 21:47:11.010290 29761 net.cpp:84] Creating Layer loss3/loss3
I1214 21:47:11.010298 29761 net.cpp:380] loss3/loss3 <- loss3/classifier_kaggle
I1214 21:47:11.010308 29761 net.cpp:380] loss3/loss3 <- label_data_1_split_2
I1214 21:47:11.010318 29761 net.cpp:338] loss3/loss3 -> loss3/loss3
I1214 21:47:11.010329 29761 net.cpp:113] Setting up loss3/loss3
…
I1214 21:47:11.018100 29761 net.cpp:257] The NetState phase (1) differed from the phase (0) specified by a rule in layer data
I1214 21:47:11.020138 29761 net.cpp:42] Initializing net from parameters: 
name: "GoogleNet"
state {
  phase: TEST
}
layer {
  name: "data"
  type: "Data"
  top: "data"
  top: "label"
  include {
    phase: TEST
  }
  transform_param {
    mirror: false
    crop_size: 224
    mean_value: 104
    mean_value: 117
    mean_value: 123
  }
  data_param {
    source: "/home/coldmanck/kaggle/kaggle2_val_lmdb"
    batch_size: 50
    backend: LMDB
  }
}
layer {
  name: "conv1/7x7_s2"
  type: "Convolution"
  bottom: "data"
  top: "conv1/7x7_s2"
  param {
    lr_mult: 1
    decay_mult: 1
  }
  param {
    lr_mult: 2
    decay_mult: 0
  }
  convolution_param {
    num_output: 64
    pad: 3
    kernel_size: 7
    stride: 2
    weight_filler {
      type: "xavier"
      std: 0.1
    }
    bias_filler {
      type: "constant"
      value: 0.2
    }
  }
}
layer {
  name: "conv1/relu_7x7"
  type: "ReLU"
  bottom: "conv1/7x7_s2"
  top: "conv1/7x7_s2"
}
layer {
  name: "pool1/3x3_s2"
  type: "Pooling"
  bottom: "conv1/7x7_s2"
  top: "pool1/3x3_s2"
  pooling_param {
    pool: MAX
    kernel_size: 3
    stride: 2
  }
}
layer {
  name: "pool1/norm1"
  type: "LRN"
  bottom: "pool1/3x3_s2"
  top: "pool1/norm1"
  lrn_param {
    local_size: 5
    alpha: 0.0001
    beta: 0.75
  }
}
layer {
  name: "conv2/3x3_reduce"
  type: "Convolution"
  bottom: "pool1/norm1"
  top: "conv2/3x3_reduce"
  param {
    lr_mult: 1
    decay_mult: 1
  }
  param {
    lr_mult: 2
    decay_mult: 0
  }
  convolution_param {
    num_output: 64
    kernel_size: 1
    weight_filler {
      type: "xavier"
      std: 0.1
    }
    bias_filler {
      type: "constant"
      value: 0.2
    }
  }
}
layer {
  name: "conv2/relu_3x3_reduce"
  type: "ReLU"
  bottom: "conv2/3x3_reduce"
  top: "conv2/3x3_reduce"
}
layer {
  name: "conv2/3x3"
  type: "Convolution"
  bottom: "conv2/3x3_reduce"
  top: "conv2/3x3"
  param {
    lr_mult: 1
    decay_mult: 1
  }
  param {
    lr_mult: 2
    decay_mult: 0
  }
  convolution_param {
    num_output: 192
    pad: 1
    kernel_size: 3
    weight_filler {
      type: "xavier"
      std: 0.03
    }
    bias_filler {
      type: "constant"
      value: 0.2
    }
  }
}
layer {
  name: "conv2/relu_3x3"
  type: "ReLU"
  bottom: "conv2/3x3"
  top: "conv2/3x3"
}
layer {
  name: "conv2/norm2"
  type: "LRN"
  bottom: "conv2/3x3"
  top: "conv2/norm2"
  lrn_param {
    local_size: 5
    alpha: 0.0001
    beta: 0.75
  }
}
layer {
  name: "pool2/3x3_s2"
  type: "Pooling"
  bottom: "conv2/norm2"
  top: "pool2/3x3_s2"
  pooling_param {
    pool: MAX
    kernel_size: 3
    stride: 2
  }
}
layer {
  name: "inception_3a/1x1"
  type: "Convolution"
  bottom: "pool2/3x3_s2"
  top: "inception_3a/1x1"
  param {
    lr_mult: 1
    decay_mult: 1
  }
  param {
    lr_mult: 2
    decay_mult: 0
  }
  convolution_param {
    num_output: 64
    kernel_size: 1
    weight_filler {
      type: "xavier"
      std: 0.03
    }
    bias_filler {
      type: "constant"
      value: 0.2
    }
  }
}
layer {
  name: "inception_3a/relu_1x1"
  type: "ReLU"
  bottom: "inception_3a/1x1"
  top: "inception_3a/1x1"
}
layer {
  name: "inception_3a/3x3_reduce"
  type: "Convolution"
  bottom: "pool2/3x3_s2"
  top: "inception_3a/3x3_reduce"
  param {
    lr_mult: 1
    decay_mult: 1
  }
  param {
    lr_mult: 2
    decay_mult: 0
  }
  convolution_param {
    num_output: 96
    kernel_size: 1
    weight_filler {
      type: "xavier"
      std: 0.09
    }
    bias_filler {
      type: "constant"
      value: 0.2
    }
  }
}
layer {
  name: "inception_3a/relu_3x3_reduce"
  type: "ReLU"
  bottom: "inception_3a/3x3_reduce"
  top: "inception_3a/3x3_reduce"
}
layer {
  name: "inception_3a/3x3"
  type: "Convolution"
  bottom: "inception_3a/3x3_reduce"
  top: "inception_3a/3x3"
  param {
    lr_mult: 1
    decay_mult: 1
  }
  param {
    lr_mult: 2
    decay_mult: 0
  }
  convolution_param {
    num_output: 128
    pad: 1
    kernel_size: 3
    weight_filler {
      type: "xavier"
      std: 0.03
    }
    bias_filler {
      type: "constant"
      value: 0.2
    }
  }
}
layer {
  name: "inception_3a/relu_3x3"
  type: "ReLU"
  bottom: "inception_3a/3x3"
  top: "inception_3a/3x3"
}
layer {
  name: "inception_3a/5x5_reduce"
  type: "Convolution"
  bottom: "pool2/3x3_s2"
  top: "inception_3a/5x5_reduce"
  param {
    lr_mult: 1
    decay_mult: 1
  }
  param {
    lr_mult: 2
    decay_mult: 0
  }
  convolution_param {
    num_output: 16
    kernel_size: 1
    weight_filler {
      type: "xavier"
      std: 0.2
    }
    bias_filler {
      type: "constant"
      value: 0.2
    }
  }
}
layer {
  name: "inception_3a/relu_5x5_reduce"
  type: "ReLU"
  bottom: "inception_3a/5x5_reduce"
  top: "inception_3a/5x5_reduce"
}
layer {
  name: "inception_3a/5x5"
  type: "Convolution"
  bottom: "inception_3a/5x5_reduce"
  top: "inception_3a/5x5"
  param {
    lr_mult: 1
    decay_mult: 1
  }
  param {
    lr_mult: 2
    decay_mult: 0
  }
  convolution_param {
    num_output: 32
    pad: 2
    kernel_size: 5
    weight_filler {
      type: "xavier"
      std: 0.03
    }
    bias_filler {
      type: "constant"
      value: 0.2
    }
  }
}
layer {
  name: "inception_3a/relu_5x5"
  type: "ReLU"
  bottom: "inception_3a/5x5"
  top: "inception_3a/5x5"
}
layer {
  name: "inception_3a/pool"
  type: "Pooling"
  bottom: "pool2/3x3_s2"
  top: "inception_3a/pool"
  pooling_param {
    pool: MAX
    kernel_size: 3
    stride: 1
    pad: 1
  }
}
layer {
  name: "inception_3a/pool_proj"
  type: "Convolution"
  bottom: "inception_3a/pool"
  top: "inception_3a/pool_proj"
  param {
    lr_mult: 1
    decay_mult: 1
  }
  param {
    lr_mult: 2
    decay_mult: 0
  }
  convolution_param {
    num_output: 32
    kernel_size: 1
    weight_filler {
      type: "xavier"
      std: 0.1
    }
    bias_filler {
      type: "constant"
      value: 0.2
    }
  }
}
layer {
  name: "inception_3a/relu_pool_proj"
  type: "ReLU"
  bottom: "inception_3a/pool_proj"
  top: "inception_3a/pool_proj"
}
layer {
  name: "inception_3a/output"
  type: "Concat"
  bottom: "inception_3a/1x1"
  bottom: "inception_3a/3x3"
  bottom: "inception_3a/5x5"
  bottom: "inception_3a/pool_proj"
  top: "inception_3a/output"
}
layer {
  name: "inception_3b/1x1"
  type: "Convolution"
  bottom: "inception_3a/output"
  top: "inception_3b/1x1"
  param {
    lr_mult: 1
    decay_mult: 1
  }
  param {
    lr_mult: 2
    decay_mult: 0
  }
  convolution_param {
    num_output: 128
    kernel_size: 1
    weight_filler {
      type: "xavier"
      std: 0.03
    }
    bias_filler {
      type: "constant"
      value: 0.2
    }
  }
}
layer {
  name: "inception_3b/relu_1x1"
  type: "ReLU"
  bottom: "inception_3b/1x1"
  top: "inception_3b/1x1"
}
layer {
  name: "inception_3b/3x3_reduce"
  type: "Convolution"
  bottom: "inception_3a/output"
  top: "inception_3b/3x3_reduce"
  param {
    lr_mult: 1
    decay_mult: 1
  }
  param {
    lr_mult: 2
    decay_mult: 0
  }
  convolution_param {
    num_output: 128
    kernel_size: 1
    weight_filler {
      type: "xavier"
      std: 0.09
    }
    bias_filler {
      type: "constant"
      value: 0.2
    }
  }
}
layer {
  name: "inception_3b/relu_3x3_reduce"
  type: "ReLU"
  bottom: "inception_3b/3x3_reduce"
  top: "inception_3b/3x3_reduce"
}
layer {
  name: "inception_3b/3x3"
  type: "Convolution"
  bottom: "inception_3b/3x3_reduce"
  top: "inception_3b/3x3"
  param {
    lr_mult: 1
    decay_mult: 1
  }
  param {
    lr_mult: 2
    decay_mult: 0
  }
  convolution_param {
    num_output: 192
    pad: 1
    kernel_size: 3
    weight_filler {
      type: "xavier"
      std: 0.03
    }
    bias_filler {
      type: "constant"
      value: 0.2
    }
  }
}
layer {
  name: "inception_3b/relu_3x3"
  type: "ReLU"
  bottom: "inception_3b/3x3"
  top: "inception_3b/3x3"
}
layer {
  name: "inception_3b/5x5_reduce"
  type: "Convolution"
  bottom: "inception_3a/output"
  top: "inception_3b/5x5_reduce"
  param {
    lr_mult: 1
    decay_mult: 1
  }
  param {
    lr_mult: 2
    decay_mult: 0
  }
  convolution_param {
    num_output: 32
    kernel_size: 1
    weight_filler {
      type: "xavier"
      std: 0.2
    }
    bias_filler {
      type: "constant"
      value: 0.2
    }
  }
}
layer {
  name: "inception_3b/relu_5x5_reduce"
  type: "ReLU"
  bottom: "inception_3b/5x5_reduce"
  top: "inception_3b/5x5_reduce"
}
layer {
  name: "inception_3b/5x5"
  type: "Convolution"
  bottom: "inception_3b/5x5_reduce"
  top: "inception_3b/5x5"
  param {
    lr_mult: 1
    decay_mult: 1
  }
  param {
    lr_mult: 2
    decay_mult: 0
  }
  convolution_param {
    num_output: 96
    pad: 2
    kernel_size: 5
    weight_filler {
      type: "xavier"
      std: 0.03
    }
    bias_filler {
      type: "constant"
      value: 0.2
    }
  }
}
layer {
  name: "inception_3b/relu_5x5"
  type: "ReLU"
  bottom: "inception_3b/5x5"
  top: "inception_3b/5x5"
}
layer {
  name: "inception_3b/pool"
  type: "Pooling"
  bottom: "inception_3a/output"
  top: "inception_3b/pool"
  pooling_param {
    pool: MAX
    kernel_size: 3
    stride: 1
    pad: 1
  }
}
layer {
  name: "inception_3b/pool_proj"
  type: "Convolution"
  bottom: "inception_3b/pool"
  top: "inception_3b/pool_proj"
  param {
    lr_mult: 1
    decay_mult: 1
  }
  param {
    lr_mult: 2
    decay_mult: 0
  }
  convolution_param {
    num_output: 64
    kernel_size: 1
    weight_filler {
      type: "xavier"
      std: 0.1
    }
    bias_filler {
      type: "constant"
      value: 0.2
    }
  }
}
layer {
  name: "inception_3b/relu_pool_proj"
  type: "ReLU"
  bottom: "inception_3b/pool_proj"
  top: "inception_3b/pool_proj"
}
layer {
  name: "inception_3b/output"
  type: "Concat"
  bottom: "inception_3b/1x1"
  bottom: "inception_3b/3x3"
  bottom: "inception_3b/5x5"
  bottom: "inception_3b/pool_proj"
  top: "inception_3b/output"
}
layer {
  name: "pool3/3x3_s2"
  type: "Pooling"
  bottom: "inception_3b/output"
  top: "pool3/3x3_s2"
  pooling_param {
    pool: MAX
    kernel_size: 3
    stride: 2
  }
}
layer {
  name: "inception_4a/1x1"
  type: "Convolution"
  bottom: "pool3/3x3_s2"
  top: "inception_4a/1x1"
  param {
    lr_mult: 1
    decay_mult: 1
  }
  param {
    lr_mult: 2
    decay_mult: 0
  }
  convolution_param {
    num_output: 192
    kernel_size: 1
    weight_filler {
      type: "xavier"
      std: 0.03
    }
    bias_filler {
      type: "constant"
      value: 0.2
    }
  }
}
layer {
  name: "inception_4a/relu_1x1"
  type: "ReLU"
  bottom: "inception_4a/1x1"
  top: "inception_4a/1x1"
}
layer {
  name: "inception_4a/3x3_reduce"
  type: "Convolution"
  bottom: "pool3/3x3_s2"
  top: "inception_4a/3x3_reduce"
  param {
    lr_mult: 1
    decay_mult: 1
  }
  param {
    lr_mult: 2
    decay_mult: 0
  }
  convolution_param {
    num_output: 96
    kernel_size: 1
    weight_filler {
      type: "xavier"
      std: 0.09
    }
    bias_filler {
      type: "constant"
      value: 0.2
    }
  }
}
layer {
  name: "inception_4a/relu_3x3_reduce"
  type: "ReLU"
  bottom: "inception_4a/3x3_reduce"
  top: "inception_4a/3x3_reduce"
}
layer {
  name: "inception_4a/3x3"
  type: "Convolution"
  bottom: "inception_4a/3x3_reduce"
  top: "inception_4a/3x3"
  param {
    lr_mult: 1
    decay_mult: 1
  }
  param {
    lr_mult: 2
    decay_mult: 0
  }
  convolution_param {
    num_output: 208
    pad: 1
    kernel_size: 3
    weight_filler {
      type: "xavier"
      std: 0.03
    }
    bias_filler {
      type: "constant"
      value: 0.2
    }
  }
}
layer {
  name: "inception_4a/relu_3x3"
  type: "ReLU"
  bottom: "inception_4a/3x3"
  top: "inception_4a/3x3"
}
layer {
  name: "inception_4a/5x5_reduce"
  type: "Convolution"
  bottom: "pool3/3x3_s2"
  top: "inception_4a/5x5_reduce"
  param {
    lr_mult: 1
    decay_mult: 1
  }
  param {
    lr_mult: 2
    decay_mult: 0
  }
  convolution_param {
    num_output: 16
    kernel_size: 1
    weight_filler {
      type: "xavier"
      std: 0.2
    }
    bias_filler {
      type: "constant"
      value: 0.2
    }
  }
}
layer {
  name: "inception_4a/relu_5x5_reduce"
  type: "ReLU"
  bottom: "inception_4a/5x5_reduce"
  top: "inception_4a/5x5_reduce"
}
layer {
  name: "inception_4a/5x5"
  type: "Convolution"
  bottom: "inception_4a/5x5_reduce"
  top: "inception_4a/5x5"
  param {
    lr_mult: 1
    decay_mult: 1
  }
  param {
    lr_mult: 2
    decay_mult: 0
  }
  convolution_param {
    num_output: 48
    pad: 2
    kernel_size: 5
    weight_filler {
      type: "xavier"
      std: 0.03
    }
    bias_filler {
      type: "constant"
      value: 0.2
    }
  }
}
layer {
  name: "inception_4a/relu_5x5"
  type: "ReLU"
  bottom: "inception_4a/5x5"
  top: "inception_4a/5x5"
}
layer {
  name: "inception_4a/pool"
  type: "Pooling"
  bottom: "pool3/3x3_s2"
  top: "inception_4a/pool"
  pooling_param {
    pool: MAX
    kernel_size: 3
    stride: 1
    pad: 1
  }
}
layer {
  name: "inception_4a/pool_proj"
  type: "Convolution"
  bottom: "inception_4a/pool"
  top: "inception_4a/pool_proj"
  param {
    lr_mult: 1
    decay_mult: 1
  }
  param {
    lr_mult: 2
    decay_mult: 0
  }
  convolution_param {
    num_output: 64
    kernel_size: 1
    weight_filler {
      type: "xavier"
      std: 0.1
    }
    bias_filler {
      type: "constant"
      value: 0.2
    }
  }
}
layer {
  name: "inception_4a/relu_pool_proj"
  type: "ReLU"
  bottom: "inception_4a/pool_proj"
  top: "inception_4a/pool_proj"
}
layer {
  name: "inception_4a/output"
  type: "Concat"
  bottom: "inception_4a/1x1"
  bottom: "inception_4a/3x3"
  bottom: "inception_4a/5x5"
  bottom: "inception_4a/pool_proj"
  top: "inception_4a/output"
}
layer {
  name: "loss1/ave_pool"
  type: "Pooling"
  bottom: "inception_4a/output"
  top: "loss1/ave_pool"
  pooling_param {
    pool: AVE
    kernel_size: 5
    stride: 3
  }
}
layer {
  name: "loss1/conv"
  type: "Convolution"
  bottom: "loss1/ave_pool"
  top: "loss1/conv"
  param {
    lr_mult: 1
    decay_mult: 1
  }
  param {
    lr_mult: 2
    decay_mult: 0
  }
  convolution_param {
    num_output: 128
    kernel_size: 1
    weight_filler {
      type: "xavier"
      std: 0.08
    }
    bias_filler {
      type: "constant"
      value: 0.2
    }
  }
}
layer {
  name: "loss1/relu_conv"
  type: "ReLU"
  bottom: "loss1/conv"
  top: "loss1/conv"
}
layer {
  name: "loss1/fc"
  type: "InnerProduct"
  bottom: "loss1/conv"
  top: "loss1/fc"
  param {
    lr_mult: 1
    decay_mult: 1
  }
  param {
    lr_mult: 2
    decay_mult: 0
  }
  inner_product_param {
    num_output: 1024
    weight_filler {
      type: "xavier"
      std: 0.02
    }
    bias_filler {
      type: "constant"
      value: 0.2
    }
  }
}
layer {
  name: "loss1/relu_fc"
  type: "ReLU"
  bottom: "loss1/fc"
  top: "loss1/fc"
}
layer {
  name: "loss1/drop_fc"
  type: "Dropout"
  bottom: "loss1/fc"
  top: "loss1/fc"
  dropout_param {
    dropout_ratio: 0.7
  }
}
layer {
  name: "loss1/classifier_kaggle"
  type: "InnerProduct"
  bottom: "loss1/fc"
  top: "loss1/classifier_kaggle"
  param {
    lr_mult: 1
    decay_mult: 1
  }
  param {
    lr_mult: 2
    decay_mult: 0
  }
  inner_product_param {
    num_output: 447
    weight_filler {
      type: "xavier"
      std: 0.0009765625
    }
    bias_filler {
      type: "constant"
      value: 0
    }
  }
}
layer {
  name: "loss1/loss"
  type: "SoftmaxWithLoss"
  bottom: "loss1/classifier_kaggle"
  bottom: "label"
  top: "loss1/loss1"
  loss_weight: 0.3
}
layer {
  name: "loss1/top-1"
  type: "Accuracy"
  bottom: "loss1/classifier_kaggle"
  bottom: "label"
  top: "loss1/top-1"
  include {
    phase: TEST
  }
}
layer {
  name: "loss1/top-5"
  type: "Accuracy"
  bottom: "loss1/classifier_kaggle"
  bottom: "label"
  top: "loss1/top-5"
  include {
    phase: TEST
  }
  accuracy_param {
    top_k: 5
  }
}
layer {
  name: "inception_4b/1x1"
  type: "Convolution"
  bottom: "inception_4a/output"
  top: "inception_4b/1x1"
  param {
    lr_mult: 1
    decay_mult: 1
  }
  param {
    lr_mult: 2
    decay_mult: 0
  }
  convolution_param {
    num_output: 160
    kernel_size: 1
    weight_filler {
      type: "xavier"
      std: 0.03
    }
    bias_filler {
      type: "constant"
      value: 0.2
    }
  }
}
layer {
  name: "inception_4b/relu_1x1"
  type: "ReLU"
  bottom: "inception_4b/1x1"
  top: "inception_4b/1x1"
}
layer {
  name: "inception_4b/3x3_reduce"
  type: "Convolution"
  bottom: "inception_4a/output"
  top: "inception_4b/3x3_reduce"
  param {
    lr_mult: 1
    decay_mult: 1
  }
  param {
    lr_mult: 2
    decay_mult: 0
  }
  convolution_param {
    num_output: 112
    kernel_size: 1
    weight_filler {
      type: "xavier"
      std: 0.09
    }
    bias_filler {
      type: "constant"
      value: 0.2
    }
  }
}
layer {
  name: "inception_4b/relu_3x3_reduce"
  type: "ReLU"
  bottom: "inception_4b/3x3_reduce"
  top: "inception_4b/3x3_reduce"
}
layer {
  name: "inception_4b/3x3"
  type: "Convolution"
  bottom: "inception_4b/3x3_reduce"
  top: "inception_4b/3x3"
  param {
    lr_mult: 1
    decay_mult: 1
  }
  param {
    lr_mult: 2
    decay_mult: 0
  }
  convolution_param {
    num_output: 224
    pad: 1
    kernel_size: 3
    weight_filler {
      type: "xavier"
      std: 0.03
    }
    bias_filler {
      type: "constant"
      value: 0.2
    }
  }
}
layer {
  name: "inception_4b/relu_3x3"
  type: "ReLU"
  bottom: "inception_4b/3x3"
  top: "inception_4b/3x3"
}
layer {
  name: "inception_4b/5x5_reduce"
  type: "Convolution"
  bottom: "inception_4a/output"
  top: "inception_4b/5x5_reduce"
  param {
    lr_mult: 1
    decay_mult: 1
  }
  param {
    lr_mult: 2
    decay_mult: 0
  }
  convolution_param {
    num_output: 24
    kernel_size: 1
    weight_filler {
      type: "xavier"
      std: 0.2
    }
    bias_filler {
      type: "constant"
      value: 0.2
    }
  }
}
layer {
  name: "inception_4b/relu_5x5_reduce"
  type: "ReLU"
  bottom: "inception_4b/5x5_reduce"
  top: "inception_4b/5x5_reduce"
}
layer {
  name: "inception_4b/5x5"
  type: "Convolution"
  bottom: "inception_4b/5x5_reduce"
  top: "inception_4b/5x5"
  param {
    lr_mult: 1
    decay_mult: 1
  }
  param {
    lr_mult: 2
    decay_mult: 0
  }
  convolution_param {
    num_output: 64
    pad: 2
    kernel_size: 5
    weight_filler {
      type: "xavier"
      std: 0.03
    }
    bias_filler {
      type: "constant"
      value: 0.2
    }
  }
}
layer {
  name: "inception_4b/relu_5x5"
  type: "ReLU"
  bottom: "inception_4b/5x5"
  top: "inception_4b/5x5"
}
layer {
  name: "inception_4b/pool"
  type: "Pooling"
  bottom: "inception_4a/output"
  top: "inception_4b/pool"
  pooling_param {
    pool: MAX
    kernel_size: 3
    stride: 1
    pad: 1
  }
}
layer {
  name: "inception_4b/pool_proj"
  type: "Convolution"
  bottom: "inception_4b/pool"
  top: "inception_4b/pool_proj"
  param {
    lr_mult: 1
    decay_mult: 1
  }
  param {
    lr_mult: 2
    decay_mult: 0
  }
  convolution_param {
    num_output: 64
    kernel_size: 1
    weight_filler {
      type: "xavier"
      std: 0.1
    }
    bias_filler {
      type: "constant"
      value: 0.2
    }
  }
}
layer {
  name: "inception_4b/relu_pool_proj"
  type: "ReLU"
  bottom: "inception_4b/pool_proj"
  top: "inception_4b/pool_proj"
}
layer {
  name: "inception_4b/output"
  type: "Concat"
  bottom: "inception_4b/1x1"
  bottom: "inception_4b/3x3"
  bottom: "inception_4b/5x5"
  bottom: "inception_4b/pool_proj"
  top: "inception_4b/output"
}
layer {
  name: "inception_4c/1x1"
  type: "Convolution"
  bottom: "inception_4b/output"
  top: "inception_4c/1x1"
  param {
    lr_mult: 1
    decay_mult: 1
  }
  param {
    lr_mult: 2
    decay_mult: 0
  }
  convolution_param {
    num_output: 128
    kernel_size: 1
    weight_filler {
      type: "xavier"
      std: 0.03
    }
    bias_filler {
      type: "constant"
      value: 0.2
    }
  }
}
layer {
  name: "inception_4c/relu_1x1"
  type: "ReLU"
  bottom: "inception_4c/1x1"
  top: "inception_4c/1x1"
}
layer {
  name: "inception_4c/3x3_reduce"
  type: "Convolution"
  bottom: "inception_4b/output"
  top: "inception_4c/3x3_reduce"
  param {
    lr_mult: 1
    decay_mult: 1
  }
  param {
    lr_mult: 2
    decay_mult: 0
  }
  convolution_param {
    num_output: 128
    kernel_size: 1
    weight_filler {
      type: "xavier"
      std: 0.09
    }
    bias_filler {
      type: "constant"
      value: 0.2
    }
  }
}
layer {
  name: "inception_4c/relu_3x3_reduce"
  type: "ReLU"
  bottom: "inception_4c/3x3_reduce"
  top: "inception_4c/3x3_reduce"
}
layer {
  name: "inception_4c/3x3"
  type: "Convolution"
  bottom: "inception_4c/3x3_reduce"
  top: "inception_4c/3x3"
  param {
    lr_mult: 1
    decay_mult: 1
  }
  param {
    lr_mult: 2
    decay_mult: 0
  }
  convolution_param {
    num_output: 256
    pad: 1
    kernel_size: 3
    weight_filler {
      type: "xavier"
      std: 0.03
    }
    bias_filler {
      type: "constant"
      value: 0.2
    }
  }
}
layer {
  name: "inception_4c/relu_3x3"
  type: "ReLU"
  bottom: "inception_4c/3x3"
  top: "inception_4c/3x3"
}
layer {
  name: "inception_4c/5x5_reduce"
  type: "Convolution"
  bottom: "inception_4b/output"
  top: "inception_4c/5x5_reduce"
  param {
    lr_mult: 1
    decay_mult: 1
  }
  param {
    lr_mult: 2
    decay_mult: 0
  }
  convolution_param {
    num_output: 24
    kernel_size: 1
    weight_filler {
      type: "xavier"
      std: 0.2
    }
    bias_filler {
      type: "constant"
      value: 0.2
    }
  }
}
layer {
  name: "inception_4c/relu_5x5_reduce"
  type: "ReLU"
  bottom: "inception_4c/5x5_reduce"
  top: "inception_4c/5x5_reduce"
}
layer {
  name: "inception_4c/5x5"
  type: "Convolution"
  bottom: "inception_4c/5x5_reduce"
  top: "inception_4c/5x5"
  param {
    lr_mult: 1
    decay_mult: 1
  }
  param {
    lr_mult: 2
    decay_mult: 0
  }
  convolution_param {
    num_output: 64
    pad: 2
    kernel_size: 5
    weight_filler {
      type: "xavier"
      std: 0.03
    }
    bias_filler {
      type: "constant"
      value: 0.2
    }
  }
}
layer {
  name: "inception_4c/relu_5x5"
  type: "ReLU"
  bottom: "inception_4c/5x5"
  top: "inception_4c/5x5"
}
layer {
  name: "inception_4c/pool"
  type: "Pooling"
  bottom: "inception_4b/output"
  top: "inception_4c/pool"
  pooling_param {
    pool: MAX
    kernel_size: 3
    stride: 1
    pad: 1
  }
}
layer {
  name: "inception_4c/pool_proj"
  type: "Convolution"
  bottom: "inception_4c/pool"
  top: "inception_4c/pool_proj"
  param {
    lr_mult: 1
    decay_mult: 1
  }
  param {
    lr_mult: 2
    decay_mult: 0
  }
  convolution_param {
    num_output: 64
    kernel_size: 1
    weight_filler {
      type: "xavier"
      std: 0.1
    }
    bias_filler {
      type: "constant"
      value: 0.2
    }
  }
}
layer {
  name: "inception_4c/relu_pool_proj"
  type: "ReLU"
  bottom: "inception_4c/pool_proj"
  top: "inception_4c/pool_proj"
}
layer {
  name: "inception_4c/output"
  type: "Concat"
  bottom: "inception_4c/1x1"
  bottom: "inception_4c/3x3"
  bottom: "inception_4c/5x5"
  bottom: "inception_4c/pool_proj"
  top: "inception_4c/output"
}
layer {
  name: "inception_4d/1x1"
  type: "Convolution"
  bottom: "inception_4c/output"
  top: "inception_4d/1x1"
  param {
    lr_mult: 1
    decay_mult: 1
  }
  param {
    lr_mult: 2
    decay_mult: 0
  }
  convolution_param {
    num_output: 112
    kernel_size: 1
    weight_filler {
      type: "xavier"
      std: 0.03
    }
    bias_filler {
      type: "constant"
      value: 0.2
    }
  }
}
layer {
  name: "inception_4d/relu_1x1"
  type: "ReLU"
  bottom: "inception_4d/1x1"
  top: "inception_4d/1x1"
}
layer {
  name: "inception_4d/3x3_reduce"
  type: "Convolution"
  bottom: "inception_4c/output"
  top: "inception_4d/3x3_reduce"
  param {
    lr_mult: 1
    decay_mult: 1
  }
  param {
    lr_mult: 2
    decay_mult: 0
  }
  convolution_param {
    num_output: 144
    kernel_size: 1
    weight_filler {
      type: "xavier"
      std: 0.09
    }
    bias_filler {
      type: "constant"
      value: 0.2
    }
  }
}
layer {
  name: "inception_4d/relu_3x3_reduce"
  type: "ReLU"
  bottom: "inception_4d/3x3_reduce"
  top: "inception_4d/3x3_reduce"
}
layer {
  name: "inception_4d/3x3"
  type: "Convolution"
  bottom: "inception_4d/3x3_reduce"
  top: "inception_4d/3x3"
  param {
    lr_mult: 1
    decay_mult: 1
  }
  param {
    lr_mult: 2
    decay_mult: 0
  }
  convolution_param {
    num_output: 288
    pad: 1
    kernel_size: 3
    weight_filler {
      type: "xavier"
      std: 0.03
    }
    bias_filler {
      type: "constant"
      value: 0.2
    }
  }
}
layer {
  name: "inception_4d/relu_3x3"
  type: "ReLU"
  bottom: "inception_4d/3x3"
  top: "inception_4d/3x3"
}
layer {
  name: "inception_4d/5x5_reduce"
  type: "Convolution"
  bottom: "inception_4c/output"
  top: "inception_4d/5x5_reduce"
  param {
    lr_mult: 1
    decay_mult: 1
  }
  param {
    lr_mult: 2
    decay_mult: 0
  }
  convolution_param {
    num_output: 32
    kernel_size: 1
    weight_filler {
      type: "xavier"
      std: 0.2
    }
    bias_filler {
      type: "constant"
      value: 0.2
    }
  }
}
layer {
  name: "inception_4d/relu_5x5_reduce"
  type: "ReLU"
  bottom: "inception_4d/5x5_reduce"
  top: "inception_4d/5x5_reduce"
}
layer {
  name: "inception_4d/5x5"
  type: "Convolution"
  bottom: "inception_4d/5x5_reduce"
  top: "inception_4d/5x5"
  param {
    lr_mult: 1
    decay_mult: 1
  }
  param {
    lr_mult: 2
    decay_mult: 0
  }
  convolution_param {
    num_output: 64
    pad: 2
    kernel_size: 5
    weight_filler {
      type: "xavier"
      std: 0.03
    }
    bias_filler {
      type: "constant"
      value: 0.2
    }
  }
}
layer {
  name: "inception_4d/relu_5x5"
  type: "ReLU"
  bottom: "inception_4d/5x5"
  top: "inception_4d/5x5"
}
layer {
  name: "inception_4d/pool"
  type: "Pooling"
  bottom: "inception_4c/output"
  top: "inception_4d/pool"
  pooling_param {
    pool: MAX
    kernel_size: 3
    stride: 1
    pad: 1
  }
}
layer {
  name: "inception_4d/pool_proj"
  type: "Convolution"
  bottom: "inception_4d/pool"
  top: "inception_4d/pool_proj"
  param {
    lr_mult: 1
    decay_mult: 1
  }
  param {
    lr_mult: 2
    decay_mult: 0
  }
  convolution_param {
    num_output: 64
    kernel_size: 1
    weight_filler {
      type: "xavier"
      std: 0.1
    }
    bias_filler {
      type: "constant"
      value: 0.2
    }
  }
}
layer {
  name: "inception_4d/relu_pool_proj"
  type: "ReLU"
  bottom: "inception_4d/pool_proj"
  top: "inception_4d/pool_proj"
}
layer {
…
I1214 21:47:11.160652 29761 net.cpp:84] Creating Layer inception_4c/1x1
I1214 21:47:11.160661 29761 net.cpp:380] inception_4c/1x1 <- inception_4b/output_inception_4b/output_0_split_0
I1214 21:47:11.160678 29761 net.cpp:338] inception_4c/1x1 -> inception_4c/1x1
I1214 21:47:11.160693 29761 net.cpp:113] Setting up inception_4c/1x1
I1214 21:47:11.163424 29761 net.cpp:120] Top shape: 50 128 14 14 (1254400)
I1214 21:47:11.163460 29761 layer_factory.hpp:74] Creating layer inception_4c/relu_1x1
I1214 21:47:11.163475 29761 net.cpp:84] Creating Layer inception_4c/relu_1x1
I1214 21:47:11.163486 29761 net.cpp:380] inception_4c/relu_1x1 <- inception_4c/1x1
I1214 21:47:11.163498 29761 net.cpp:327] inception_4c/relu_1x1 -> inception_4c/1x1 (in-place)
I1214 21:47:11.163514 29761 net.cpp:113] Setting up inception_4c/relu_1x1
I1214 21:47:11.173157 29761 net.cpp:120] Top shape: 50 128 14 14 (1254400)
I1214 21:47:11.173187 29761 layer_factory.hpp:74] Creating layer inception_4c/3x3_reduce
I1214 21:47:11.173208 29761 net.cpp:84] Creating Layer inception_4c/3x3_reduce
I1214 21:47:11.173219 29761 net.cpp:380] inception_4c/3x3_reduce <- inception_4b/output_inception_4b/output_0_split_1
I1214 21:47:11.173238 29761 net.cpp:338] inception_4c/3x3_reduce -> inception_4c/3x3_reduce
I1214 21:47:11.173265 29761 net.cpp:113] Setting up inception_4c/3x3_reduce
I1214 21:47:11.186157 29761 net.cpp:120] Top shape: 50 128 14 14 (1254400)
I1214 21:47:11.186177 29761 layer_factory.hpp:74] Creating layer inception_4c/relu_3x3_reduce
I1214 21:47:11.186187 29761 net.cpp:84] Creating Layer inception_4c/relu_3x3_reduce
I1214 21:47:11.186192 29761 net.cpp:380] inception_4c/relu_3x3_reduce <- inception_4c/3x3_reduce
I1214 21:47:11.186199 29761 net.cpp:327] inception_4c/relu_3x3_reduce -> inception_4c/3x3_reduce (in-place)
I1214 21:47:11.186208 29761 net.cpp:113] Setting up inception_4c/relu_3x3_reduce
I1214 21:47:11.186300 29761 net.cpp:120] Top shape: 50 128 14 14 (1254400)
I1214 21:47:11.186307 29761 layer_factory.hpp:74] Creating layer inception_4c/3x3
I1214 21:47:11.186318 29761 net.cpp:84] Creating Layer inception_4c/3x3
I1214 21:47:11.186323 29761 net.cpp:380] inception_4c/3x3 <- inception_4c/3x3_reduce
I1214 21:47:11.186331 29761 net.cpp:338] inception_4c/3x3 -> inception_4c/3x3
I1214 21:47:11.186341 29761 net.cpp:113] Setting up inception_4c/3x3
I1214 21:47:11.197638 29761 net.cpp:120] Top shape: 50 256 14 14 (2508800)
I1214 21:47:11.197695 29761 layer_factory.hpp:74] Creating layer inception_4c/relu_3x3
I1214 21:47:11.197715 29761 net.cpp:84] Creating Layer inception_4c/relu_3x3
I1214 21:47:11.197726 29761 net.cpp:380] inception_4c/relu_3x3 <- inception_4c/3x3
I1214 21:47:11.197741 29761 net.cpp:327] inception_4c/relu_3x3 -> inception_4c/3x3 (in-place)
I1214 21:47:11.197758 29761 net.cpp:113] Setting up inception_4c/relu_3x3
I1214 21:47:11.197904 29761 net.cpp:120] Top shape: 50 256 14 14 (2508800)
I1214 21:47:11.197916 29761 layer_factory.hpp:74] Creating layer inception_4c/5x5_reduce
I1214 21:47:11.197933 29761 net.cpp:84] Creating Layer inception_4c/5x5_reduce
I1214 21:47:11.197943 29761 net.cpp:380] inception_4c/5x5_reduce <- inception_4b/output_inception_4b/output_0_split_2
I1214 21:47:11.197962 29761 net.cpp:338] inception_4c/5x5_reduce -> inception_4c/5x5_reduce
I1214 21:47:11.197979 29761 net.cpp:113] Setting up inception_4c/5x5_reduce
I1214 21:47:11.211318 29761 net.cpp:120] Top shape: 50 24 14 14 (235200)
I1214 21:47:11.211365 29761 layer_factory.hpp:74] Creating layer inception_4c/relu_5x5_reduce
I1214 21:47:11.211382 29761 net.cpp:84] Creating Layer inception_4c/relu_5x5_reduce
I1214 21:47:11.211395 29761 net.cpp:380] inception_4c/relu_5x5_reduce <- inception_4c/5x5_reduce
I1214 21:47:11.211410 29761 net.cpp:327] inception_4c/relu_5x5_reduce -> inception_4c/5x5_reduce (in-place)
I1214 21:47:11.211428 29761 net.cpp:113] Setting up inception_4c/relu_5x5_reduce
I1214 21:47:11.221175 29761 net.cpp:120] Top shape: 50 24 14 14 (235200)
I1214 21:47:11.221213 29761 layer_factory.hpp:74] Creating layer inception_4c/5x5
I1214 21:47:11.221242 29761 net.cpp:84] Creating Layer inception_4c/5x5
I1214 21:47:11.221259 29761 net.cpp:380] inception_4c/5x5 <- inception_4c/5x5_reduce
I1214 21:47:11.221283 29761 net.cpp:338] inception_4c/5x5 -> inception_4c/5x5
I1214 21:47:11.221313 29761 net.cpp:113] Setting up inception_4c/5x5
I1214 21:47:11.244992 29761 net.cpp:120] Top shape: 50 64 14 14 (627200)
I1214 21:47:11.245029 29761 layer_factory.hpp:74] Creating layer inception_4c/relu_5x5
I1214 21:47:11.245048 29761 net.cpp:84] Creating Layer inception_4c/relu_5x5
I1214 21:47:11.245085 29761 net.cpp:380] inception_4c/relu_5x5 <- inception_4c/5x5
I1214 21:47:11.245103 29761 net.cpp:327] inception_4c/relu_5x5 -> inception_4c/5x5 (in-place)
I1214 21:47:11.245121 29761 net.cpp:113] Setting up inception_4c/relu_5x5
I1214 21:47:11.245304 29761 net.cpp:120] Top shape: 50 64 14 14 (627200)
I1214 21:47:11.245324 29761 layer_factory.hpp:74] Creating layer inception_4c/pool
I1214 21:47:11.245339 29761 layer_factory.cpp:56] CUDNN does not support padding or multiple tops. Using Caffe's own pooling layer.
I1214 21:47:11.245359 29761 net.cpp:84] Creating Layer inception_4c/pool
I1214 21:47:11.245374 29761 net.cpp:380] inception_4c/pool <- inception_4b/output_inception_4b/output_0_split_3
I1214 21:47:11.245393 29761 net.cpp:338] inception_4c/pool -> inception_4c/pool
I1214 21:47:11.245452 29761 net.cpp:113] Setting up inception_4c/pool
I1214 21:47:11.245481 29761 net.cpp:120] Top shape: 50 512 14 14 (5017600)
I1214 21:47:11.245494 29761 layer_factory.hpp:74] Creating layer inception_4c/pool_proj
I1214 21:47:11.245513 29761 net.cpp:84] Creating Layer inception_4c/pool_proj
I1214 21:47:11.245525 29761 net.cpp:380] inception_4c/pool_proj <- inception_4c/pool
I1214 21:47:11.245546 29761 net.cpp:338] inception_4c/pool_proj -> inception_4c/pool_proj
I1214 21:47:11.245565 29761 net.cpp:113] Setting up inception_4c/pool_proj
I1214 21:47:11.251492 29761 net.cpp:120] Top shape: 50 64 14 14 (627200)
I1214 21:47:11.251524 29761 layer_factory.hpp:74] Creating layer inception_4c/relu_pool_proj
I1214 21:47:11.251543 29761 net.cpp:84] Creating Layer inception_4c/relu_pool_proj
I1214 21:47:11.251556 29761 net.cpp:380] inception_4c/relu_pool_proj <- inception_4c/pool_proj
I1214 21:47:11.251571 29761 net.cpp:327] inception_4c/relu_pool_proj -> inception_4c/pool_proj (in-place)
I1214 21:47:11.251588 29761 net.cpp:113] Setting up inception_4c/relu_pool_proj
I1214 21:47:11.251740 29761 net.cpp:120] Top shape: 50 64 14 14 (627200)
I1214 21:47:11.251755 29761 layer_factory.hpp:74] Creating layer inception_4c/output
I1214 21:47:11.251770 29761 net.cpp:84] Creating Layer inception_4c/output
I1214 21:47:11.251782 29761 net.cpp:380] inception_4c/output <- inception_4c/1x1
I1214 21:47:11.251796 29761 net.cpp:380] inception_4c/output <- inception_4c/3x3
I1214 21:47:11.251809 29761 net.cpp:380] inception_4c/output <- inception_4c/5x5
I1214 21:47:11.251821 29761 net.cpp:380] inception_4c/output <- inception_4c/pool_proj
I1214 21:47:11.251835 29761 net.cpp:338] inception_4c/output -> inception_4c/output
I1214 21:47:11.251852 29761 net.cpp:113] Setting up inception_4c/output
I1214 21:47:11.251870 29761 net.cpp:120] Top shape: 50 512 14 14 (5017600)
I1214 21:47:11.251881 29761 layer_factory.hpp:74] Creating layer inception_4c/output_inception_4c/output_0_split
I1214 21:47:11.251896 29761 net.cpp:84] Creating Layer inception_4c/output_inception_4c/output_0_split
I1214 21:47:11.251907 29761 net.cpp:380] inception_4c/output_inception_4c/output_0_split <- inception_4c/output
I1214 21:47:11.251925 29761 net.cpp:338] inception_4c/output_inception_4c/output_0_split -> inception_4c/output_inception_4c/output_0_split_0
I1214 21:47:11.251942 29761 net.cpp:338] inception_4c/output_inception_4c/output_0_split -> inception_4c/output_inception_4c/output_0_split_1
I1214 21:47:11.251960 29761 net.cpp:338] inception_4c/output_inception_4c/output_0_split -> inception_4c/output_inception_4c/output_0_split_2
I1214 21:47:11.251976 29761 net.cpp:338] inception_4c/output_inception_4c/output_0_split -> inception_4c/output_inception_4c/output_0_split_3
I1214 21:47:11.251988 29761 net.cpp:113] Setting up inception_4c/output_inception_4c/output_0_split
I1214 21:47:11.252005 29761 net.cpp:120] Top shape: 50 512 14 14 (5017600)
I1214 21:47:11.252018 29761 net.cpp:120] Top shape: 50 512 14 14 (5017600)
I1214 21:47:11.252032 29761 net.cpp:120] Top shape: 50 512 14 14 (5017600)
I1214 21:47:11.252044 29761 net.cpp:120] Top shape: 50 512 14 14 (5017600)
I1214 21:47:11.252054 29761 layer_factory.hpp:74] Creating layer inception_4d/1x1
I1214 21:47:11.252074 29761 net.cpp:84] Creating Layer inception_4d/1x1
I1214 21:47:11.252086 29761 net.cpp:380] inception_4d/1x1 <- inception_4c/output_inception_4c/output_0_split_0
I1214 21:47:11.252105 29761 net.cpp:338] inception_4d/1x1 -> inception_4d/1x1
I1214 21:47:11.252122 29761 net.cpp:113] Setting up inception_4d/1x1
I1214 21:47:11.264247 29761 net.cpp:120] Top shape: 50 112 14 14 (1097600)
I1214 21:47:11.264284 29761 layer_factory.hpp:74] Creating layer inception_4d/relu_1x1
I1214 21:47:11.264303 29761 net.cpp:84] Creating Layer inception_4d/relu_1x1
I1214 21:47:11.264313 29761 net.cpp:380] inception_4d/relu_1x1 <- inception_4d/1x1
I1214 21:47:11.264328 29761 net.cpp:327] inception_4d/relu_1x1 -> inception_4d/1x1 (in-place)
I1214 21:47:11.264343 29761 net.cpp:113] Setting up inception_4d/relu_1x1
I1214 21:47:11.264483 29761 net.cpp:120] Top shape: 50 112 14 14 (1097600)
I1214 21:47:11.264508 29761 layer_factory.hpp:74] Creating layer inception_4d/3x3_reduce
I1214 21:47:11.264523 29761 net.cpp:84] Creating Layer inception_4d/3x3_reduce
I1214 21:47:11.264533 29761 net.cpp:380] inception_4d/3x3_reduce <- inception_4c/output_inception_4c/output_0_split_1
I1214 21:47:11.264549 29761 net.cpp:338] inception_4d/3x3_reduce -> inception_4d/3x3_reduce
I1214 21:47:11.264566 29761 net.cpp:113] Setting up inception_4d/3x3_reduce
I1214 21:47:11.274969 29761 net.cpp:120] Top shape: 50 144 14 14 (1411200)
I1214 21:47:11.275001 29761 layer_factory.hpp:74] Creating layer inception_4d/relu_3x3_reduce
I1214 21:47:11.275012 29761 net.cpp:84] Creating Layer inception_4d/relu_3x3_reduce
I1214 21:47:11.275022 29761 net.cpp:380] inception_4d/relu_3x3_reduce <- inception_4d/3x3_reduce
I1214 21:47:11.275032 29761 net.cpp:327] inception_4d/relu_3x3_reduce -> inception_4d/3x3_reduce (in-place)
I1214 21:47:11.275045 29761 net.cpp:113] Setting up inception_4d/relu_3x3_reduce
I1214 21:47:11.284638 29761 net.cpp:120] Top shape: 50 144 14 14 (1411200)
I1214 21:47:11.284663 29761 layer_factory.hpp:74] Creating layer inception_4d/3x3
I1214 21:47:11.284678 29761 net.cpp:84] Creating Layer inception_4d/3x3
I1214 21:47:11.284687 29761 net.cpp:380] inception_4d/3x3 <- inception_4d/3x3_reduce
I1214 21:47:11.284703 29761 net.cpp:338] inception_4d/3x3 -> inception_4d/3x3
I1214 21:47:11.284718 29761 net.cpp:113] Setting up inception_4d/3x3
I1214 21:47:11.294432 29761 net.cpp:120] Top shape: 50 288 14 14 (2822400)
I1214 21:47:11.294463 29761 layer_factory.hpp:74] Creating layer inception_4d/relu_3x3
I1214 21:47:11.294476 29761 net.cpp:84] Creating Layer inception_4d/relu_3x3
I1214 21:47:11.294484 29761 net.cpp:380] inception_4d/relu_3x3 <- inception_4d/3x3
I1214 21:47:11.294498 29761 net.cpp:327] inception_4d/relu_3x3 -> inception_4d/3x3 (in-place)
I1214 21:47:11.294512 29761 net.cpp:113] Setting up inception_4d/relu_3x3
I1214 21:47:11.294622 29761 net.cpp:120] Top shape: 50 288 14 14 (2822400)
I1214 21:47:11.294632 29761 layer_factory.hpp:74] Creating layer inception_4d/5x5_reduce
I1214 21:47:11.294647 29761 net.cpp:84] Creating Layer inception_4d/5x5_reduce
I1214 21:47:11.294656 29761 net.cpp:380] inception_4d/5x5_reduce <- inception_4c/output_inception_4c/output_0_split_2
I1214 21:47:11.294667 29761 net.cpp:338] inception_4d/5x5_reduce -> inception_4d/5x5_reduce
I1214 21:47:11.294680 29761 net.cpp:113] Setting up inception_4d/5x5_reduce
I1214 21:47:11.308629 29761 net.cpp:120] Top shape: 50 32 14 14 (313600)
I1214 21:47:11.308660 29761 layer_factory.hpp:74] Creating layer inception_4d/relu_5x5_reduce
I1214 21:47:11.308672 29761 net.cpp:84] Creating Layer inception_4d/relu_5x5_reduce
I1214 21:47:11.308681 29761 net.cpp:380] inception_4d/relu_5x5_reduce <- inception_4d/5x5_reduce
I1214 21:47:11.308694 29761 net.cpp:327] inception_4d/relu_5x5_reduce -> inception_4d/5x5_reduce (in-place)
I1214 21:47:11.308708 29761 net.cpp:113] Setting up inception_4d/relu_5x5_reduce
I1214 21:47:11.308820 29761 net.cpp:120] Top shape: 50 32 14 14 (313600)
I1214 21:47:11.308830 29761 layer_factory.hpp:74] Creating layer inception_4d/5x5
I1214 21:47:11.308845 29761 net.cpp:84] Creating Layer inception_4d/5x5
I1214 21:47:11.308852 29761 net.cpp:380] inception_4d/5x5 <- inception_4d/5x5_reduce
I1214 21:47:11.308866 29761 net.cpp:338] inception_4d/5x5 -> inception_4d/5x5
I1214 21:47:11.308878 29761 net.cpp:113] Setting up inception_4d/5x5
I1214 21:47:11.321846 29761 net.cpp:120] Top shape: 50 64 14 14 (627200)
I1214 21:47:11.321874 29761 layer_factory.hpp:74] Creating layer inception_4d/relu_5x5
I1214 21:47:11.321885 29761 net.cpp:84] Creating Layer inception_4d/relu_5x5
I1214 21:47:11.321894 29761 net.cpp:380] inception_4d/relu_5x5 <- inception_4d/5x5
I1214 21:47:11.321907 29761 net.cpp:327] inception_4d/relu_5x5 -> inception_4d/5x5 (in-place)
I1214 21:47:11.321919 29761 net.cpp:113] Setting up inception_4d/relu_5x5
I1214 21:47:11.322021 29761 net.cpp:120] Top shape: 50 64 14 14 (627200)
I1214 21:47:11.322039 29761 layer_factory.hpp:74] Creating layer inception_4d/pool
I1214 21:47:11.322057 29761 layer_factory.cpp:56] CUDNN does not support padding or multiple tops. Using Caffe's own pooling layer.
I1214 21:47:11.322072 29761 net.cpp:84] Creating Layer inception_4d/pool
I1214 21:47:11.322079 29761 net.cpp:380] inception_4d/pool <- inception_4c/output_inception_4c/output_0_split_3
I1214 21:47:11.322089 29761 net.cpp:338] inception_4d/pool -> inception_4d/pool
I1214 21:47:11.322100 29761 net.cpp:113] Setting up inception_4d/pool
I1214 21:47:11.322115 29761 net.cpp:120] Top shape: 50 512 14 14 (5017600)
I1214 21:47:11.322123 29761 layer_factory.hpp:74] Creating layer inception_4d/pool_proj
I1214 21:47:11.322134 29761 net.cpp:84] Creating Layer inception_4d/pool_proj
I1214 21:47:11.322141 29761 net.cpp:380] inception_4d/pool_proj <- inception_4d/pool
I1214 21:47:11.322151 29761 net.cpp:338] inception_4d/pool_proj -> inception_4d/pool_proj
I1214 21:47:11.322162 29761 net.cpp:113] Setting up inception_4d/pool_proj
I1214 21:47:11.344743 29761 net.cpp:120] Top shape: 50 64 14 14 (627200)
I1214 21:47:11.344772 29761 layer_factory.hpp:74] Creating layer inception_4d/relu_pool_proj
I1214 21:47:11.344787 29761 net.cpp:84] Creating Layer inception_4d/relu_pool_proj
I1214 21:47:11.344795 29761 net.cpp:380] inception_4d/relu_pool_proj <- inception_4d/pool_proj
I1214 21:47:11.344806 29761 net.cpp:327] inception_4d/relu_pool_proj -> inception_4d/pool_proj (in-place)
I1214 21:47:11.344818 29761 net.cpp:113] Setting up inception_4d/relu_pool_proj
I1214 21:47:11.351361 29761 net.cpp:120] Top shape: 50 64 14 14 (627200)
I1214 21:47:11.351387 29761 layer_factory.hpp:74] Creating layer inception_4d/output
I1214 21:47:11.351400 29761 net.cpp:84] Creating Layer inception_4d/output
I1214 21:47:11.351409 29761 net.cpp:380] inception_4d/output <- inception_4d/1x1
I1214 21:47:11.351420 29761 net.cpp:380] inception_4d/output <- inception_4d/3x3
I1214 21:47:11.351430 29761 net.cpp:380] inception_4d/output <- inception_4d/5x5
I1214 21:47:11.351438 29761 net.cpp:380] inception_4d/output <- inception_4d/pool_proj
I1214 21:47:11.351449 29761 net.cpp:338] inception_4d/output -> inception_4d/output
I1214 21:47:11.351462 29761 net.cpp:113] Setting up inception_4d/output
I1214 21:47:11.351476 29761 net.cpp:120] Top shape: 50 528 14 14 (5174400)
I1214 21:47:11.351483 29761 layer_factory.hpp:74] Creating layer inception_4d/output_inception_4d/output_0_split
I1214 21:47:11.351497 29761 net.cpp:84] Creating Layer inception_4d/output_inception_4d/output_0_split
I1214 21:47:11.351505 29761 net.cpp:380] inception_4d/output_inception_4d/output_0_split <- inception_4d/output
I1214 21:47:11.351516 29761 net.cpp:338] inception_4d/output_inception_4d/output_0_split -> inception_4d/output_inception_4d/output_0_split_0
I1214 21:47:11.351528 29761 net.cpp:338] inception_4d/output_inception_4d/output_0_split -> inception_4d/output_inception_4d/output_0_split_1
I1214 21:47:11.351542 29761 net.cpp:338] inception_4d/output_inception_4d/output_0_split -> inception_4d/output_inception_4d/output_0_split_2
I1214 21:47:11.351554 29761 net.cpp:338] inception_4d/output_inception_4d/output_0_split -> inception_4d/output_inception_4d/output_0_split_3
I1214 21:47:11.351577 29761 net.cpp:338] inception_4d/output_inception_4d/output_0_split -> inception_4d/output_inception_4d/output_0_split_4
I1214 21:47:11.351585 29761 net.cpp:113] Setting up inception_4d/output_inception_4d/output_0_split
I1214 21:47:11.351596 29761 net.cpp:120] Top shape: 50 528 14 14 (5174400)
I1214 21:47:11.351603 29761 net.cpp:120] Top shape: 50 528 14 14 (5174400)
I1214 21:47:11.351610 29761 net.cpp:120] Top shape: 50 528 14 14 (5174400)
I1214 21:47:11.351618 29761 net.cpp:120] Top shape: 50 528 14 14 (5174400)
I1214 21:47:11.351624 29761 net.cpp:120] Top shape: 50 528 14 14 (5174400)
I1214 21:47:11.351630 29761 layer_factory.hpp:74] Creating layer loss2/ave_pool
I1214 21:47:11.351640 29761 net.cpp:84] Creating Layer loss2/ave_pool
I1214 21:47:11.351646 29761 net.cpp:380] loss2/ave_pool <- inception_4d/output_inception_4d/output_0_split_0
I1214 21:47:11.351675 29761 net.cpp:338] loss2/ave_pool -> loss2/ave_pool
I1214 21:47:11.351686 29761 net.cpp:113] Setting up loss2/ave_pool
I1214 21:47:11.351799 29761 net.cpp:120] Top shape: 50 528 4 4 (422400)
I1214 21:47:11.351809 29761 layer_factory.hpp:74] Creating layer loss2/conv
I1214 21:47:11.351821 29761 net.cpp:84] Creating Layer loss2/conv
I1214 21:47:11.351829 29761 net.cpp:380] loss2/conv <- loss2/ave_pool
I1214 21:47:11.351838 29761 net.cpp:338] loss2/conv -> loss2/conv
I1214 21:47:11.351850 29761 net.cpp:113] Setting up loss2/conv
I1214 21:47:11.364673 29761 net.cpp:120] Top shape: 50 128 4 4 (102400)
I1214 21:47:11.364713 29761 layer_factory.hpp:74] Creating layer loss2/relu_conv
I1214 21:47:11.364729 29761 net.cpp:84] Creating Layer loss2/relu_conv
I1214 21:47:11.364740 29761 net.cpp:380] loss2/relu_conv <- loss2/conv
I1214 21:47:11.364754 29761 net.cpp:327] loss2/relu_conv -> loss2/conv (in-place)
I1214 21:47:11.364770 29761 net.cpp:113] Setting up loss2/relu_conv
I1214 21:47:11.364915 29761 net.cpp:120] Top shape: 50 128 4 4 (102400)
I1214 21:47:11.364928 29761 layer_factory.hpp:74] Creating layer loss2/fc
I1214 21:47:11.364944 29761 net.cpp:84] Creating Layer loss2/fc
I1214 21:47:11.364953 29761 net.cpp:380] loss2/fc <- loss2/conv
I1214 21:47:11.364972 29761 net.cpp:338] loss2/fc -> loss2/fc
I1214 21:47:11.364990 29761 net.cpp:113] Setting up loss2/fc
I1214 21:47:11.400233 29761 net.cpp:120] Top shape: 50 1024 (51200)
I1214 21:47:11.400254 29761 layer_factory.hpp:74] Creating layer loss2/relu_fc
I1214 21:47:11.400266 29761 net.cpp:84] Creating Layer loss2/relu_fc
I1214 21:47:11.400274 29761 net.cpp:380] loss2/relu_fc <- loss2/fc
I1214 21:47:11.400285 29761 net.cpp:327] loss2/relu_fc -> loss2/fc (in-place)
I1214 21:47:11.400295 29761 net.cpp:113] Setting up loss2/relu_fc
I1214 21:47:11.400410 29761 net.cpp:120] Top shape: 50 1024 (51200)
I1214 21:47:11.400419 29761 layer_factory.hpp:74] Creating layer loss2/drop_fc
I1214 21:47:11.400431 29761 net.cpp:84] Creating Layer loss2/drop_fc
I1214 21:47:11.400439 29761 net.cpp:380] loss2/drop_fc <- loss2/fc
I1214 21:47:11.400449 29761 net.cpp:327] loss2/drop_fc -> loss2/fc (in-place)
I1214 21:47:11.400457 29761 net.cpp:113] Setting up loss2/drop_fc
I1214 21:47:11.400470 29761 net.cpp:120] Top shape: 50 1024 (51200)
I1214 21:47:11.400477 29761 layer_factory.hpp:74] Creating layer loss2/classifier_kaggle
I1214 21:47:11.400488 29761 net.cpp:84] Creating Layer loss2/classifier_kaggle
I1214 21:47:11.400496 29761 net.cpp:380] loss2/classifier_kaggle <- loss2/fc
I1214 21:47:11.400506 29761 net.cpp:338] loss2/classifier_kaggle -> loss2/classifier_kaggle
I1214 21:47:11.400517 29761 net.cpp:113] Setting up loss2/classifier_kaggle
I1214 21:47:11.407887 29761 net.cpp:120] Top shape: 50 447 (22350)
I1214 21:47:11.407904 29761 layer_factory.hpp:74] Creating layer loss2/classifier_kaggle_loss2/classifier_kaggle_0_split
I1214 21:47:11.407914 29761 net.cpp:84] Creating Layer loss2/classifier_kaggle_loss2/classifier_kaggle_0_split
I1214 21:47:11.407922 29761 net.cpp:380] loss2/classifier_kaggle_loss2/classifier_kaggle_0_split <- loss2/classifier_kaggle
I1214 21:47:11.407932 29761 net.cpp:338] loss2/classifier_kaggle_loss2/classifier_kaggle_0_split -> loss2/classifier_kaggle_loss2/classifier_kaggle_0_split_0
I1214 21:47:11.407943 29761 net.cpp:338] loss2/classifier_kaggle_loss2/classifier_kaggle_0_split -> loss2/classifier_kaggle_loss2/classifier_kaggle_0_split_1
I1214 21:47:11.407956 29761 net.cpp:338] loss2/classifier_kaggle_loss2/classifier_kaggle_0_split -> loss2/classifier_kaggle_loss2/classifier_kaggle_0_split_2
I1214 21:47:11.407965 29761 net.cpp:113] Setting up loss2/classifier_kaggle_loss2/classifier_kaggle_0_split
I1214 21:47:11.407975 29761 net.cpp:120] Top shape: 50 447 (22350)
I1214 21:47:11.407982 29761 net.cpp:120] Top shape: 50 447 (22350)
I1214 21:47:11.407989 29761 net.cpp:120] Top shape: 50 447 (22350)
I1214 21:47:11.407995 29761 layer_factory.hpp:74] Creating layer loss2/loss
I1214 21:47:11.408012 29761 net.cpp:84] Creating Layer loss2/loss
I1214 21:47:11.408030 29761 net.cpp:380] loss2/loss <- loss2/classifier_kaggle_loss2/classifier_kaggle_0_split_0
I1214 21:47:11.408038 29761 net.cpp:380] loss2/loss <- label_data_1_split_3
I1214 21:47:11.408051 29761 net.cpp:338] loss2/loss -> loss2/loss1
…
I1214 21:47:11.409605 29761 net.cpp:338] loss2/top-5 -> loss2/top-5
I1214 21:47:11.409615 29761 net.cpp:113] Setting up loss2/top-5
I1214 21:47:11.409625 29761 net.cpp:120] Top shape: (1)
I1214 21:47:11.409631 29761 layer_factory.hpp:74] Creating layer inception_4e/1x1
I1214 21:47:11.409641 29761 net.cpp:84] Creating Layer inception_4e/1x1
I1214 21:47:11.409649 29761 net.cpp:380] inception_4e/1x1 <- inception_4d/output_inception_4d/output_0_split_1
I1214 21:47:11.409662 29761 net.cpp:338] inception_4e/1x1 -> inception_4e/1x1
I1214 21:47:11.409672 29761 net.cpp:113] Setting up inception_4e/1x1
I1214 21:47:11.412731 29761 net.cpp:120] Top shape: 50 256 14 14 (2508800)
I1214 21:47:11.412755 29761 layer_factory.hpp:74] Creating layer inception_4e/relu_1x1
I1214 21:47:11.412765 29761 net.cpp:84] Creating Layer inception_4e/relu_1x1
I1214 21:47:11.412772 29761 net.cpp:380] inception_4e/relu_1x1 <- inception_4e/1x1
I1214 21:47:11.412785 29761 net.cpp:327] inception_4e/relu_1x1 -> inception_4e/1x1 (in-place)
I1214 21:47:11.412796 29761 net.cpp:113] Setting up inception_4e/relu_1x1
I1214 21:47:11.412895 29761 net.cpp:120] Top shape: 50 256 14 14 (2508800)
I1214 21:47:11.412904 29761 layer_factory.hpp:74] Creating layer inception_4e/3x3_reduce
I1214 21:47:11.412941 29761 net.cpp:84] Creating Layer inception_4e/3x3_reduce
I1214 21:47:11.412950 29761 net.cpp:380] inception_4e/3x3_reduce <- inception_4d/output_inception_4d/output_0_split_2
I1214 21:47:11.412961 29761 net.cpp:338] inception_4e/3x3_reduce -> inception_4e/3x3_reduce
I1214 21:47:11.412973 29761 net.cpp:113] Setting up inception_4e/3x3_reduce
I1214 21:47:11.415132 29761 net.cpp:120] Top shape: 50 160 14 14 (1568000)
I1214 21:47:11.415158 29761 layer_factory.hpp:74] Creating layer inception_4e/relu_3x3_reduce
I1214 21:47:11.415168 29761 net.cpp:84] Creating Layer inception_4e/relu_3x3_reduce
I1214 21:47:11.415175 29761 net.cpp:380] inception_4e/relu_3x3_reduce <- inception_4e/3x3_reduce
I1214 21:47:11.415185 29761 net.cpp:327] inception_4e/relu_3x3_reduce -> inception_4e/3x3_reduce (in-place)
I1214 21:47:11.415195 29761 net.cpp:113] Setting up inception_4e/relu_3x3_reduce
I1214 21:47:11.415297 29761 net.cpp:120] Top shape: 50 160 14 14 (1568000)
I1214 21:47:11.415307 29761 layer_factory.hpp:74] Creating layer inception_4e/3x3
I1214 21:47:11.415319 29761 net.cpp:84] Creating Layer inception_4e/3x3
I1214 21:47:11.415326 29761 net.cpp:380] inception_4e/3x3 <- inception_4e/3x3_reduce
I1214 21:47:11.415336 29761 net.cpp:338] inception_4e/3x3 -> inception_4e/3x3
I1214 21:47:11.415348 29761 net.cpp:113] Setting up inception_4e/3x3
I1214 21:47:11.424070 29761 net.cpp:120] Top shape: 50 320 14 14 (3136000)
I1214 21:47:11.424144 29761 layer_factory.hpp:74] Creating layer inception_4e/relu_3x3
I1214 21:47:11.424178 29761 net.cpp:84] Creating Layer inception_4e/relu_3x3
I1214 21:47:11.424191 29761 net.cpp:380] inception_4e/relu_3x3 <- inception_4e/3x3
I1214 21:47:11.424208 29761 net.cpp:327] inception_4e/relu_3x3 -> inception_4e/3x3 (in-place)
I1214 21:47:11.424226 29761 net.cpp:113] Setting up inception_4e/relu_3x3
I1214 21:47:11.425765 29761 net.cpp:120] Top shape: 50 320 14 14 (3136000)
I1214 21:47:11.425793 29761 layer_factory.hpp:74] Creating layer inception_4e/5x5_reduce
I1214 21:47:11.425813 29761 net.cpp:84] Creating Layer inception_4e/5x5_reduce
I1214 21:47:11.425823 29761 net.cpp:380] inception_4e/5x5_reduce <- inception_4d/output_inception_4d/output_0_split_3
I1214 21:47:11.425839 29761 net.cpp:338] inception_4e/5x5_reduce -> inception_4e/5x5_reduce
I1214 21:47:11.425858 29761 net.cpp:113] Setting up inception_4e/5x5_reduce
I1214 21:47:11.427490 29761 net.cpp:120] Top shape: 50 32 14 14 (313600)
I1214 21:47:11.427523 29761 layer_factory.hpp:74] Creating layer inception_4e/relu_5x5_reduce
I1214 21:47:11.427537 29761 net.cpp:84] Creating Layer inception_4e/relu_5x5_reduce
I1214 21:47:11.427551 29761 net.cpp:380] inception_4e/relu_5x5_reduce <- inception_4e/5x5_reduce
I1214 21:47:11.427563 29761 net.cpp:327] inception_4e/relu_5x5_reduce -> inception_4e/5x5_reduce (in-place)
I1214 21:47:11.427578 29761 net.cpp:113] Setting up inception_4e/relu_5x5_reduce
I1214 21:47:11.427716 29761 net.cpp:120] Top shape: 50 32 14 14 (313600)
I1214 21:47:11.427727 29761 layer_factory.hpp:74] Creating layer inception_4e/5x5
I1214 21:47:11.427744 29761 net.cpp:84] Creating Layer inception_4e/5x5
I1214 21:47:11.427753 29761 net.cpp:380] inception_4e/5x5 <- inception_4e/5x5_reduce
I1214 21:47:11.427768 29761 net.cpp:338] inception_4e/5x5 -> inception_4e/5x5
I1214 21:47:11.427783 29761 net.cpp:113] Setting up inception_4e/5x5
I1214 21:47:11.431638 29761 net.cpp:120] Top shape: 50 128 14 14 (1254400)
I1214 21:47:11.431679 29761 layer_factory.hpp:74] Creating layer inception_4e/relu_5x5
I1214 21:47:11.431697 29761 net.cpp:84] Creating Layer inception_4e/relu_5x5
I1214 21:47:11.431710 29761 net.cpp:380] inception_4e/relu_5x5 <- inception_4e/5x5
I1214 21:47:11.431725 29761 net.cpp:327] inception_4e/relu_5x5 -> inception_4e/5x5 (in-place)
I1214 21:47:11.431740 29761 net.cpp:113] Setting up inception_4e/relu_5x5
I1214 21:47:11.431890 29761 net.cpp:120] Top shape: 50 128 14 14 (1254400)
I1214 21:47:11.431902 29761 layer_factory.hpp:74] Creating layer inception_4e/pool
I1214 21:47:11.431913 29761 layer_factory.cpp:56] CUDNN does not support padding or multiple tops. Using Caffe's own pooling layer.
I1214 21:47:11.431929 29761 net.cpp:84] Creating Layer inception_4e/pool
I1214 21:47:11.431939 29761 net.cpp:380] inception_4e/pool <- inception_4d/output_inception_4d/output_0_split_4
I1214 21:47:11.431953 29761 net.cpp:338] inception_4e/pool -> inception_4e/pool
I1214 21:47:11.431972 29761 net.cpp:113] Setting up inception_4e/pool
I1214 21:47:11.431990 29761 net.cpp:120] Top shape: 50 528 14 14 (5174400)
I1214 21:47:11.431999 29761 layer_factory.hpp:74] Creating layer inception_4e/pool_proj
I1214 21:47:11.432016 29761 net.cpp:84] Creating Layer inception_4e/pool_proj
I1214 21:47:11.432026 29761 net.cpp:380] inception_4e/pool_proj <- inception_4e/pool
I1214 21:47:11.432044 29761 net.cpp:338] inception_4e/pool_proj -> inception_4e/pool_proj
I1214 21:47:11.432060 29761 net.cpp:113] Setting up inception_4e/pool_proj
I1214 21:47:11.435040 29761 net.cpp:120] Top shape: 50 128 14 14 (1254400)
I1214 21:47:11.435091 29761 layer_factory.hpp:74] Creating layer inception_4e/relu_pool_proj
I1214 21:47:11.435106 29761 net.cpp:84] Creating Layer inception_4e/relu_pool_proj
I1214 21:47:11.435117 29761 net.cpp:380] inception_4e/relu_pool_proj <- inception_4e/pool_proj
I1214 21:47:11.435130 29761 net.cpp:327] inception_4e/relu_pool_proj -> inception_4e/pool_proj (in-place)
I1214 21:47:11.435147 29761 net.cpp:113] Setting up inception_4e/relu_pool_proj
I1214 21:47:11.435302 29761 net.cpp:120] Top shape: 50 128 14 14 (1254400)
I1214 21:47:11.435328 29761 layer_factory.hpp:74] Creating layer inception_4e/output
I1214 21:47:11.435343 29761 net.cpp:84] Creating Layer inception_4e/output
I1214 21:47:11.435353 29761 net.cpp:380] inception_4e/output <- inception_4e/1x1
I1214 21:47:11.435365 29761 net.cpp:380] inception_4e/output <- inception_4e/3x3
I1214 21:47:11.435377 29761 net.cpp:380] inception_4e/output <- inception_4e/5x5
I1214 21:47:11.435389 29761 net.cpp:380] inception_4e/output <- inception_4e/pool_proj
I1214 21:47:11.435400 29761 net.cpp:338] inception_4e/output -> inception_4e/output
I1214 21:47:11.435415 29761 net.cpp:113] Setting up inception_4e/output
I1214 21:47:11.435431 29761 net.cpp:120] Top shape: 50 832 14 14 (8153600)
I1214 21:47:11.435441 29761 layer_factory.hpp:74] Creating layer pool4/3x3_s2
I1214 21:47:11.435457 29761 net.cpp:84] Creating Layer pool4/3x3_s2
I1214 21:47:11.435467 29761 net.cpp:380] pool4/3x3_s2 <- inception_4e/output
I1214 21:47:11.435482 29761 net.cpp:338] pool4/3x3_s2 -> pool4/3x3_s2
I1214 21:47:11.435495 29761 net.cpp:113] Setting up pool4/3x3_s2
I1214 21:47:11.435935 29761 net.cpp:120] Top shape: 50 832 7 7 (2038400)
I1214 21:47:11.435959 29761 layer_factory.hpp:74] Creating layer pool4/3x3_s2_pool4/3x3_s2_0_split
I1214 21:47:11.435973 29761 net.cpp:84] Creating Layer pool4/3x3_s2_pool4/3x3_s2_0_split
I1214 21:47:11.435984 29761 net.cpp:380] pool4/3x3_s2_pool4/3x3_s2_0_split <- pool4/3x3_s2
I1214 21:47:11.436004 29761 net.cpp:338] pool4/3x3_s2_pool4/3x3_s2_0_split -> pool4/3x3_s2_pool4/3x3_s2_0_split_0
I1214 21:47:11.436022 29761 net.cpp:338] pool4/3x3_s2_pool4/3x3_s2_0_split -> pool4/3x3_s2_pool4/3x3_s2_0_split_1
I1214 21:47:11.436036 29761 net.cpp:338] pool4/3x3_s2_pool4/3x3_s2_0_split -> pool4/3x3_s2_pool4/3x3_s2_0_split_2
I1214 21:47:11.436084 29761 net.cpp:338] pool4/3x3_s2_pool4/3x3_s2_0_split -> pool4/3x3_s2_pool4/3x3_s2_0_split_3
I1214 21:47:11.436097 29761 net.cpp:113] Setting up pool4/3x3_s2_pool4/3x3_s2_0_split
I1214 21:47:11.436112 29761 net.cpp:120] Top shape: 50 832 7 7 (2038400)
I1214 21:47:11.436125 29761 net.cpp:120] Top shape: 50 832 7 7 (2038400)
I1214 21:47:11.436136 29761 net.cpp:120] Top shape: 50 832 7 7 (2038400)
I1214 21:47:11.436146 29761 net.cpp:120] Top shape: 50 832 7 7 (2038400)
I1214 21:47:11.436156 29761 layer_factory.hpp:74] Creating layer inception_5a/1x1
I1214 21:47:11.436175 29761 net.cpp:84] Creating Layer inception_5a/1x1
I1214 21:47:11.436187 29761 net.cpp:380] inception_5a/1x1 <- pool4/3x3_s2_pool4/3x3_s2_0_split_0
I1214 21:47:11.436202 29761 net.cpp:338] inception_5a/1x1 -> inception_5a/1x1
I1214 21:47:11.436216 29761 net.cpp:113] Setting up inception_5a/1x1
I1214 21:47:11.441838 29761 net.cpp:120] Top shape: 50 256 7 7 (627200)
I1214 21:47:11.441866 29761 layer_factory.hpp:74] Creating layer inception_5a/relu_1x1
I1214 21:47:11.441879 29761 net.cpp:84] Creating Layer inception_5a/relu_1x1
I1214 21:47:11.441890 29761 net.cpp:380] inception_5a/relu_1x1 <- inception_5a/1x1
I1214 21:47:11.441905 29761 net.cpp:327] inception_5a/relu_1x1 -> inception_5a/1x1 (in-place)
I1214 21:47:11.441920 29761 net.cpp:113] Setting up inception_5a/relu_1x1
I1214 21:47:11.442050 29761 net.cpp:120] Top shape: 50 256 7 7 (627200)
I1214 21:47:11.442061 29761 layer_factory.hpp:74] Creating layer inception_5a/3x3_reduce
I1214 21:47:11.442078 29761 net.cpp:84] Creating Layer inception_5a/3x3_reduce
I1214 21:47:11.442087 29761 net.cpp:380] inception_5a/3x3_reduce <- pool4/3x3_s2_pool4/3x3_s2_0_split_1
I1214 21:47:11.442101 29761 net.cpp:338] inception_5a/3x3_reduce -> inception_5a/3x3_reduce
I1214 21:47:11.442116 29761 net.cpp:113] Setting up inception_5a/3x3_reduce
I1214 21:47:11.445626 29761 net.cpp:120] Top shape: 50 160 7 7 (392000)
I1214 21:47:11.445653 29761 layer_factory.hpp:74] Creating layer inception_5a/relu_3x3_reduce
I1214 21:47:11.445667 29761 net.cpp:84] Creating Layer inception_5a/relu_3x3_reduce
I1214 21:47:11.445677 29761 net.cpp:380] inception_5a/relu_3x3_reduce <- inception_5a/3x3_reduce
I1214 21:47:11.445699 29761 net.cpp:327] inception_5a/relu_3x3_reduce -> inception_5a/3x3_reduce (in-place)
I1214 21:47:11.445725 29761 net.cpp:113] Setting up inception_5a/relu_3x3_reduce
I1214 21:47:11.445858 29761 net.cpp:120] Top shape: 50 160 7 7 (392000)
I1214 21:47:11.445868 29761 layer_factory.hpp:74] Creating layer inception_5a/3x3
I1214 21:47:11.445885 29761 net.cpp:84] Creating Layer inception_5a/3x3
I1214 21:47:11.445895 29761 net.cpp:380] inception_5a/3x3 <- inception_5a/3x3_reduce
I1214 21:47:11.445909 29761 net.cpp:338] inception_5a/3x3 -> inception_5a/3x3
I1214 21:47:11.445922 29761 net.cpp:113] Setting up inception_5a/3x3
I1214 21:47:11.456120 29761 net.cpp:120] Top shape: 50 320 7 7 (784000)
I1214 21:47:11.456146 29761 layer_factory.hpp:74] Creating layer inception_5a/relu_3x3
I1214 21:47:11.456159 29761 net.cpp:84] Creating Layer inception_5a/relu_3x3
I1214 21:47:11.456168 29761 net.cpp:380] inception_5a/relu_3x3 <- inception_5a/3x3
I1214 21:47:11.456181 29761 net.cpp:327] inception_5a/relu_3x3 -> inception_5a/3x3 (in-place)
I1214 21:47:11.456192 29761 net.cpp:113] Setting up inception_5a/relu_3x3
I1214 21:47:11.456312 29761 net.cpp:120] Top shape: 50 320 7 7 (784000)
I1214 21:47:11.456322 29761 layer_factory.hpp:74] Creating layer inception_5a/5x5_reduce
I1214 21:47:11.456336 29761 net.cpp:84] Creating Layer inception_5a/5x5_reduce
I1214 21:47:11.456344 29761 net.cpp:380] inception_5a/5x5_reduce <- pool4/3x3_s2_pool4/3x3_s2_0_split_2
I1214 21:47:11.456359 29761 net.cpp:338] inception_5a/5x5_reduce -> inception_5a/5x5_reduce
I1214 21:47:11.456374 29761 net.cpp:113] Setting up inception_5a/5x5_reduce
I1214 21:47:11.457576 29761 net.cpp:120] Top shape: 50 32 7 7 (78400)
I1214 21:47:11.457602 29761 layer_factory.hpp:74] Creating layer inception_5a/relu_5x5_reduce
I1214 21:47:11.457614 29761 net.cpp:84] Creating Layer inception_5a/relu_5x5_reduce
I1214 21:47:11.457628 29761 net.cpp:380] inception_5a/relu_5x5_reduce <- inception_5a/5x5_reduce
I1214 21:47:11.457638 29761 net.cpp:327] inception_5a/relu_5x5_reduce -> inception_5a/5x5_reduce (in-place)
I1214 21:47:11.457651 29761 net.cpp:113] Setting up inception_5a/relu_5x5_reduce
I1214 21:47:11.458034 29761 net.cpp:120] Top shape: 50 32 7 7 (78400)
I1214 21:47:11.458051 29761 layer_factory.hpp:74] Creating layer inception_5a/5x5
I1214 21:47:11.458065 29761 net.cpp:84] Creating Layer inception_5a/5x5
I1214 21:47:11.458075 29761 net.cpp:380] inception_5a/5x5 <- inception_5a/5x5_reduce
I1214 21:47:11.458089 29761 net.cpp:338] inception_5a/5x5 -> inception_5a/5x5
I1214 21:47:11.458104 29761 net.cpp:113] Setting up inception_5a/5x5
I1214 21:47:11.460768 29761 net.cpp:120] Top shape: 50 128 7 7 (313600)
I1214 21:47:11.460793 29761 layer_factory.hpp:74] Creating layer inception_5a/relu_5x5
I1214 21:47:11.460804 29761 net.cpp:84] Creating Layer inception_5a/relu_5x5
I1214 21:47:11.460813 29761 net.cpp:380] inception_5a/relu_5x5 <- inception_5a/5x5
I1214 21:47:11.460825 29761 net.cpp:327] inception_5a/relu_5x5 -> inception_5a/5x5 (in-place)
I1214 21:47:11.460837 29761 net.cpp:113] Setting up inception_5a/relu_5x5
I1214 21:47:11.460958 29761 net.cpp:120] Top shape: 50 128 7 7 (313600)
I1214 21:47:11.460968 29761 layer_factory.hpp:74] Creating layer inception_5a/pool
I1214 21:47:11.460978 29761 layer_factory.cpp:56] CUDNN does not support padding or multiple tops. Using Caffe's own pooling layer.
I1214 21:47:11.460988 29761 net.cpp:84] Creating Layer inception_5a/pool
I1214 21:47:11.460995 29761 net.cpp:380] inception_5a/pool <- pool4/3x3_s2_pool4/3x3_s2_0_split_3
I1214 21:47:11.461010 29761 net.cpp:338] inception_5a/pool -> inception_5a/pool
I1214 21:47:11.461024 29761 net.cpp:113] Setting up inception_5a/pool
I1214 21:47:11.461037 29761 net.cpp:120] Top shape: 50 832 7 7 (2038400)
I1214 21:47:11.461045 29761 layer_factory.hpp:74] Creating layer inception_5a/pool_proj
I1214 21:47:11.461067 29761 net.cpp:84] Creating Layer inception_5a/pool_proj
I1214 21:47:11.461078 29761 net.cpp:380] inception_5a/pool_proj <- inception_5a/pool
I1214 21:47:11.461094 29761 net.cpp:338] inception_5a/pool_proj -> inception_5a/pool_proj
I1214 21:47:11.461127 29761 net.cpp:113] Setting up inception_5a/pool_proj
I1214 21:47:11.463878 29761 net.cpp:120] Top shape: 50 128 7 7 (313600)
I1214 21:47:11.463902 29761 layer_factory.hpp:74] Creating layer inception_5a/relu_pool_proj
I1214 21:47:11.463914 29761 net.cpp:84] Creating Layer inception_5a/relu_pool_proj
I1214 21:47:11.463924 29761 net.cpp:380] inception_5a/relu_pool_proj <- inception_5a/pool_proj
I1214 21:47:11.463935 29761 net.cpp:327] inception_5a/relu_pool_proj -> inception_5a/pool_proj (in-place)
I1214 21:47:11.463948 29761 net.cpp:113] Setting up inception_5a/relu_pool_proj
I1214 21:47:11.464069 29761 net.cpp:120] Top shape: 50 128 7 7 (313600)
I1214 21:47:11.464081 29761 layer_factory.hpp:74] Creating layer inception_5a/output
I1214 21:47:11.464092 29761 net.cpp:84] Creating Layer inception_5a/output
I1214 21:47:11.464100 29761 net.cpp:380] inception_5a/output <- inception_5a/1x1
I1214 21:47:11.464110 29761 net.cpp:380] inception_5a/output <- inception_5a/3x3
I1214 21:47:11.464120 29761 net.cpp:380] inception_5a/output <- inception_5a/5x5
I1214 21:47:11.464129 29761 net.cpp:380] inception_5a/output <- inception_5a/pool_proj
I1214 21:47:11.464140 29761 net.cpp:338] inception_5a/output -> inception_5a/output
I1214 21:47:11.464153 29761 net.cpp:113] Setting up inception_5a/output
I1214 21:47:11.464165 29761 net.cpp:120] Top shape: 50 832 7 7 (2038400)
I1214 21:47:11.464174 29761 layer_factory.hpp:74] Creating layer inception_5a/output_inception_5a/output_0_split
I1214 21:47:11.464186 29761 net.cpp:84] Creating Layer inception_5a/output_inception_5a/output_0_split
I1214 21:47:11.464195 29761 net.cpp:380] inception_5a/output_inception_5a/output_0_split <- inception_5a/output
I1214 21:47:11.464205 29761 net.cpp:338] inception_5a/output_inception_5a/output_0_split -> inception_5a/output_inception_5a/output_0_split_0
I1214 21:47:11.464218 29761 net.cpp:338] inception_5a/output_inception_5a/output_0_split -> inception_5a/output_inception_5a/output_0_split_1
I1214 21:47:11.464231 29761 net.cpp:338] inception_5a/output_inception_5a/output_0_split -> inception_5a/output_inception_5a/output_0_split_2
I1214 21:47:11.464246 29761 net.cpp:338] inception_5a/output_inception_5a/output_0_split -> inception_5a/output_inception_5a/output_0_split_3
I1214 21:47:11.464257 29761 net.cpp:113] Setting up inception_5a/output_inception_5a/output_0_split
I1214 21:47:11.464268 29761 net.cpp:120] Top shape: 50 832 7 7 (2038400)
I1214 21:47:11.464277 29761 net.cpp:120] Top shape: 50 832 7 7 (2038400)
I1214 21:47:11.464287 29761 net.cpp:120] Top shape: 50 832 7 7 (2038400)
I1214 21:47:11.464295 29761 net.cpp:120] Top shape: 50 832 7 7 (2038400)
I1214 21:47:11.464303 29761 layer_factory.hpp:74] Creating layer inception_5b/1x1
I1214 21:47:11.464315 29761 net.cpp:84] Creating Layer inception_5b/1x1
I1214 21:47:11.464323 29761 net.cpp:380] inception_5b/1x1 <- inception_5a/output_inception_5a/output_0_split_0
I1214 21:47:11.464337 29761 net.cpp:338] inception_5b/1x1 -> inception_5b/1x1
I1214 21:47:11.464350 29761 net.cpp:113] Setting up inception_5b/1x1
I1214 21:47:11.476691 29761 net.cpp:120] Top shape: 50 384 7 7 (940800)
I1214 21:47:11.476727 29761 layer_factory.hpp:74] Creating layer inception_5b/relu_1x1
I1214 21:47:11.476740 29761 net.cpp:84] Creating Layer inception_5b/relu_1x1
I1214 21:47:11.476750 29761 net.cpp:380] inception_5b/relu_1x1 <- inception_5b/1x1
I1214 21:47:11.476766 29761 net.cpp:327] inception_5b/relu_1x1 -> inception_5b/1x1 (in-place)
I1214 21:47:11.476781 29761 net.cpp:113] Setting up inception_5b/relu_1x1
I1214 21:47:11.476908 29761 net.cpp:120] Top shape: 50 384 7 7 (940800)
I1214 21:47:11.476918 29761 layer_factory.hpp:74] Creating layer inception_5b/3x3_reduce
I1214 21:47:11.476933 29761 net.cpp:84] Creating Layer inception_5b/3x3_reduce
I1214 21:47:11.476943 29761 net.cpp:380] inception_5b/3x3_reduce <- inception_5a/output_inception_5a/output_0_split_1
I1214 21:47:11.476958 29761 net.cpp:338] inception_5b/3x3_reduce -> inception_5b/3x3_reduce
I1214 21:47:11.476982 29761 net.cpp:113] Setting up inception_5b/3x3_reduce
I1214 21:47:11.480598 29761 net.cpp:120] Top shape: 50 192 7 7 (470400)
I1214 21:47:11.480625 29761 layer_factory.hpp:74] Creating layer inception_5b/relu_3x3_reduce
I1214 21:47:11.480638 29761 net.cpp:84] Creating Layer inception_5b/relu_3x3_reduce
I1214 21:47:11.480646 29761 net.cpp:380] inception_5b/relu_3x3_reduce <- inception_5b/3x3_reduce
I1214 21:47:11.480657 29761 net.cpp:327] inception_5b/relu_3x3_reduce -> inception_5b/3x3_reduce (in-place)
I1214 21:47:11.480669 29761 net.cpp:113] Setting up inception_5b/relu_3x3_reduce
I1214 21:47:11.481041 29761 net.cpp:120] Top shape: 50 192 7 7 (470400)
I1214 21:47:11.481066 29761 layer_factory.hpp:74] Creating layer inception_5b/3x3
I1214 21:47:11.481086 29761 net.cpp:84] Creating Layer inception_5b/3x3
I1214 21:47:11.481094 29761 net.cpp:380] inception_5b/3x3 <- inception_5b/3x3_reduce
I1214 21:47:11.481106 29761 net.cpp:338] inception_5b/3x3 -> inception_5b/3x3
I1214 21:47:11.481120 29761 net.cpp:113] Setting up inception_5b/3x3
I1214 21:47:11.493592 29761 net.cpp:120] Top shape: 50 384 7 7 (940800)
I1214 21:47:11.493616 29761 layer_factory.hpp:74] Creating layer inception_5b/relu_3x3
I1214 21:47:11.493629 29761 net.cpp:84] Creating Layer inception_5b/relu_3x3
I1214 21:47:11.493639 29761 net.cpp:380] inception_5b/relu_3x3 <- inception_5b/3x3
I1214 21:47:11.493649 29761 net.cpp:327] inception_5b/relu_3x3 -> inception_5b/3x3 (in-place)
I1214 21:47:11.493661 29761 net.cpp:113] Setting up inception_5b/relu_3x3
I1214 21:47:11.493769 29761 net.cpp:120] Top shape: 50 384 7 7 (940800)
I1214 21:47:11.493777 29761 layer_factory.hpp:74] Creating layer inception_5b/5x5_reduce
I1214 21:47:11.493793 29761 net.cpp:84] Creating Layer inception_5b/5x5_reduce
I1214 21:47:11.493800 29761 net.cpp:380] inception_5b/5x5_reduce <- inception_5a/output_inception_5a/output_0_split_2
I1214 21:47:11.493814 29761 net.cpp:338] inception_5b/5x5_reduce -> inception_5b/5x5_reduce
I1214 21:47:11.493826 29761 net.cpp:113] Setting up inception_5b/5x5_reduce
I1214 21:47:11.495127 29761 net.cpp:120] Top shape: 50 48 7 7 (117600)
I1214 21:47:11.495149 29761 layer_factory.hpp:74] Creating layer inception_5b/relu_5x5_reduce
I1214 21:47:11.495160 29761 net.cpp:84] Creating Layer inception_5b/relu_5x5_reduce
I1214 21:47:11.495168 29761 net.cpp:380] inception_5b/relu_5x5_reduce <- inception_5b/5x5_reduce
I1214 21:47:11.495178 29761 net.cpp:327] inception_5b/relu_5x5_reduce -> inception_5b/5x5_reduce (in-place)
I1214 21:47:11.495189 29761 net.cpp:113] Setting up inception_5b/relu_5x5_reduce
I1214 21:47:11.495301 29761 net.cpp:120] Top shape: 50 48 7 7 (117600)
I1214 21:47:11.495309 29761 layer_factory.hpp:74] Creating layer inception_5b/5x5
I1214 21:47:11.495321 29761 net.cpp:84] Creating Layer inception_5b/5x5
I1214 21:47:11.495328 29761 net.cpp:380] inception_5b/5x5 <- inception_5b/5x5_reduce
I1214 21:47:11.495340 29761 net.cpp:338] inception_5b/5x5 -> inception_5b/5x5
I1214 21:47:11.495353 29761 net.cpp:113] Setting up inception_5b/5x5
I1214 21:47:11.498590 29761 net.cpp:120] Top shape: 50 128 7 7 (313600)
I1214 21:47:11.498613 29761 layer_factory.hpp:74] Creating layer inception_5b/relu_5x5
I1214 21:47:11.498627 29761 net.cpp:84] Creating Layer inception_5b/relu_5x5
I1214 21:47:11.498636 29761 net.cpp:380] inception_5b/relu_5x5 <- inception_5b/5x5
I1214 21:47:11.498646 29761 net.cpp:327] inception_5b/relu_5x5 -> inception_5b/5x5 (in-place)
I1214 21:47:11.498657 29761 net.cpp:113] Setting up inception_5b/relu_5x5
I1214 21:47:11.499004 29761 net.cpp:120] Top shape: 50 128 7 7 (313600)
I1214 21:47:11.499019 29761 layer_factory.hpp:74] Creating layer inception_5b/pool
I1214 21:47:11.499028 29761 layer_factory.cpp:56] CUDNN does not support padding or multiple tops. Using Caffe's own pooling layer.
I1214 21:47:11.499037 29761 net.cpp:84] Creating Layer inception_5b/pool
I1214 21:47:11.499045 29761 net.cpp:380] inception_5b/pool <- inception_5a/output_inception_5a/output_0_split_3
I1214 21:47:11.499059 29761 net.cpp:338] inception_5b/pool -> inception_5b/pool
I1214 21:47:11.499079 29761 net.cpp:113] Setting up inception_5b/pool
I1214 21:47:11.499104 29761 net.cpp:120] Top shape: 50 832 7 7 (2038400)
I1214 21:47:11.499111 29761 layer_factory.hpp:74] Creating layer inception_5b/pool_proj
I1214 21:47:11.499124 29761 net.cpp:84] Creating Layer inception_5b/pool_proj
I1214 21:47:11.499130 29761 net.cpp:380] inception_5b/pool_proj <- inception_5b/pool
I1214 21:47:11.499145 29761 net.cpp:338] inception_5b/pool_proj -> inception_5b/pool_proj
I1214 21:47:11.499155 29761 net.cpp:113] Setting up inception_5b/pool_proj
I1214 21:47:11.501607 29761 net.cpp:120] Top shape: 50 128 7 7 (313600)
I1214 21:47:11.501629 29761 layer_factory.hpp:74] Creating layer inception_5b/relu_pool_proj
I1214 21:47:11.501641 29761 net.cpp:84] Creating Layer inception_5b/relu_pool_proj
I1214 21:47:11.501651 29761 net.cpp:380] inception_5b/relu_pool_proj <- inception_5b/pool_proj
I1214 21:47:11.501659 29761 net.cpp:327] inception_5b/relu_pool_proj -> inception_5b/pool_proj (in-place)
I1214 21:47:11.501670 29761 net.cpp:113] Setting up inception_5b/relu_pool_proj
I1214 21:47:11.501773 29761 net.cpp:120] Top shape: 50 128 7 7 (313600)
I1214 21:47:11.501782 29761 layer_factory.hpp:74] Creating layer inception_5b/output
I1214 21:47:11.501793 29761 net.cpp:84] Creating Layer inception_5b/output
I1214 21:47:11.501801 29761 net.cpp:380] inception_5b/output <- inception_5b/1x1
I1214 21:47:11.501811 29761 net.cpp:380] inception_5b/output <- inception_5b/3x3
I1214 21:47:11.501817 29761 net.cpp:380] inception_5b/output <- inception_5b/5x5
I1214 21:47:11.501826 29761 net.cpp:380] inception_5b/output <- inception_5b/pool_proj
I1214 21:47:11.501834 29761 net.cpp:338] inception_5b/output -> inception_5b/output
I1214 21:47:11.501844 29761 net.cpp:113] Setting up inception_5b/output
I1214 21:47:11.501855 29761 net.cpp:120] Top shape: 50 1024 7 7 (2508800)
I1214 21:47:11.501863 29761 layer_factory.hpp:74] Creating layer pool5/7x7_s1
I1214 21:47:11.501874 29761 net.cpp:84] Creating Layer pool5/7x7_s1
I1214 21:47:11.501881 29761 net.cpp:380] pool5/7x7_s1 <- inception_5b/output
I1214 21:47:11.501891 29761 net.cpp:338] pool5/7x7_s1 -> pool5/7x7_s1
I1214 21:47:11.501900 29761 net.cpp:113] Setting up pool5/7x7_s1
I1214 21:47:11.501999 29761 net.cpp:120] Top shape: 50 1024 1 1 (51200)
I1214 21:47:11.502008 29761 layer_factory.hpp:74] Creating layer pool5/drop_7x7_s1
I1214 21:47:11.502018 29761 net.cpp:84] Creating Layer pool5/drop_7x7_s1
I1214 21:47:11.502025 29761 net.cpp:380] pool5/drop_7x7_s1 <- pool5/7x7_s1
I1214 21:47:11.502033 29761 net.cpp:327] pool5/drop_7x7_s1 -> pool5/7x7_s1 (in-place)
I1214 21:47:11.502043 29761 net.cpp:113] Setting up pool5/drop_7x7_s1
I1214 21:47:11.502053 29761 net.cpp:120] Top shape: 50 1024 1 1 (51200)
I1214 21:47:11.502059 29761 layer_factory.hpp:74] Creating layer loss3/classifier_kaggle
I1214 21:47:11.502070 29761 net.cpp:84] Creating Layer loss3/classifier_kaggle
I1214 21:47:11.502077 29761 net.cpp:380] loss3/classifier_kaggle <- pool5/7x7_s1
I1214 21:47:11.502089 29761 net.cpp:338] loss3/classifier_kaggle -> loss3/classifier_kaggle
I1214 21:47:11.502100 29761 net.cpp:113] Setting up loss3/classifier_kaggle
I1214 21:47:11.509510 29761 net.cpp:120] Top shape: 50 447 (22350)
I1214 21:47:11.509527 29761 layer_factory.hpp:74] Creating layer loss3/classifier_kaggle_loss3/classifier_kaggle_0_split
I1214 21:47:11.509537 29761 net.cpp:84] Creating Layer loss3/classifier_kaggle_loss3/classifier_kaggle_0_split
I1214 21:47:11.509546 29761 net.cpp:380] loss3/classifier_kaggle_loss3/classifier_kaggle_0_split <- loss3/classifier_kaggle
I1214 21:47:11.509557 29761 net.cpp:338] loss3/classifier_kaggle_loss3/classifier_kaggle_0_split -> loss3/classifier_kaggle_loss3/classifier_kaggle_0_split_0
I1214 21:47:11.509569 29761 net.cpp:338] loss3/classifier_kaggle_loss3/classifier_kaggle_0_split -> loss3/classifier_kaggle_loss3/classifier_kaggle_0_split_1
I1214 21:47:11.509578 29761 net.cpp:338] loss3/classifier_kaggle_loss3/classifier_kaggle_0_split -> loss3/classifier_kaggle_loss3/classifier_kaggle_0_split_2
I1214 21:47:11.509595 29761 net.cpp:113] Setting up loss3/classifier_kaggle_loss3/classifier_kaggle_0_split
I1214 21:47:11.509618 29761 net.cpp:120] Top shape: 50 447 (22350)
I1214 21:47:11.509626 29761 net.cpp:120] Top shape: 50 447 (22350)
I1214 21:47:11.509634 29761 net.cpp:120] Top shape: 50 447 (22350)
I1214 21:47:11.509639 29761 layer_factory.hpp:74] Creating layer loss3/loss3
I1214 21:47:11.509651 29761 net.cpp:84] Creating Layer loss3/loss3
I1214 21:47:11.509659 29761 net.cpp:380] loss3/loss3 <- loss3/classifier_kaggle_loss3/classifier_kaggle_0_split_0
I1214 21:47:11.509667 29761 net.cpp:380] loss3/loss3 <- label_data_1_split_6
I1214 21:47:11.509676 29761 net.cpp:338] loss3/loss3 -> loss3/loss3
…
