…
I1215 11:15:02.026244 17832 net.cpp:257] The NetState phase (0) differed from the phase (1) specified by a rule in layer loss3/top-5
I1215 11:15:02.028657 17832 net.cpp:42] Initializing net from parameters: 
name: "GoogleNet"
state {
  phase: TRAIN
}
layer {
  name: "data"
  type: "Data"
  top: "data"
  top: "label"
  include {
    phase: TRAIN
  }
  transform_param {
    mirror: true
    crop_size: 224
    mean_value: 104
    mean_value: 117
    mean_value: 123
  }
  data_param {
    source: "/home/coldmanck/kaggle/kaggle2_train_lmdb"
    batch_size: 128
    backend: LMDB
  }
}
layer {
  name: "conv1/7x7_s2"
  type: "Convolution"
  bottom: "data"
  top: "conv1/7x7_s2"
  param {
    lr_mult: 1
    decay_mult: 1
  }
  param {
    lr_mult: 2
    decay_mult: 0
  }
  convolution_param {
    num_output: 64
    pad: 3
    kernel_size: 7
    stride: 2
    weight_filler {
      type: "xavier"
      std: 0.1
    }
    bias_filler {
      type: "constant"
      value: 0.2
    }
  }
}
layer {
  name: "conv1/relu_7x7"
  type: "ReLU"
  bottom: "conv1/7x7_s2"
  top: "conv1/7x7_s2"
}
layer {
  name: "pool1/3x3_s2"
  type: "Pooling"
  bottom: "conv1/7x7_s2"
  top: "pool1/3x3_s2"
  pooling_param {
    pool: MAX
    kernel_size: 3
    stride: 2
  }
}
layer {
  name: "pool1/norm1"
  type: "LRN"
  bottom: "pool1/3x3_s2"
  top: "pool1/norm1"
  lrn_param {
    local_size: 5
    alpha: 0.0001
    beta: 0.75
  }
}
layer {
  name: "conv2/3x3_reduce"
  type: "Convolution"
  bottom: "pool1/norm1"
  top: "conv2/3x3_reduce"
  param {
    lr_mult: 1
    decay_mult: 1
  }
  param {
    lr_mult: 2
    decay_mult: 0
  }
  convolution_param {
    num_output: 64
    kernel_size: 1
    weight_filler {
      type: "xavier"
      std: 0.1
    }
    bias_filler {
      type: "constant"
      value: 0.2
    }
  }
}
layer {
  name: "conv2/relu_3x3_reduce"
  type: "ReLU"
  bottom: "conv2/3x3_reduce"
  top: "conv2/3x3_reduce"
}
layer {
  name: "conv2/3x3"
  type: "Convolution"
  bottom: "conv2/3x3_reduce"
  top: "conv2/3x3"
  param {
    lr_mult: 1
    decay_mult: 1
  }
  param {
    lr_mult: 2
    decay_mult: 0
  }
  convolution_param {
    num_output: 192
    pad: 1
    kernel_size: 3
    weight_filler {
      type: "xavier"
      std: 0.03
    }
    bias_filler {
      type: "constant"
      value: 0.2
    }
  }
}
layer {
  name: "conv2/relu_3x3"
  type: "ReLU"
  bottom: "conv2/3x3"
  top: "conv2/3x3"
}
layer {
  name: "conv2/norm2"
  type: "LRN"
  bottom: "conv2/3x3"
  top: "conv2/norm2"
  lrn_param {
    local_size: 5
    alpha: 0.0001
    beta: 0.75
  }
}
layer {
  name: "pool2/3x3_s2"
  type: "Pooling"
  bottom: "conv2/norm2"
  top: "pool2/3x3_s2"
  pooling_param {
    pool: MAX
    kernel_size: 3
    stride: 2
  }
}
layer {
  name: "inception_3a/1x1"
  type: "Convolution"
  bottom: "pool2/3x3_s2"
  top: "inception_3a/1x1"
  param {
    lr_mult: 1
    decay_mult: 1
  }
  param {
    lr_mult: 2
    decay_mult: 0
  }
  convolution_param {
    num_output: 64
    kernel_size: 1
    weight_filler {
      type: "xavier"
      std: 0.03
    }
    bias_filler {
      type: "constant"
      value: 0.2
    }
  }
}
layer {
  name: "inception_3a/relu_1x1"
  type: "ReLU"
  bottom: "inception_3a/1x1"
  top: "inception_3a/1x1"
}
layer {
  name: "inception_3a/3x3_reduce"
  type: "Convolution"
  bottom: "pool2/3x3_s2"
  top: "inception_3a/3x3_reduce"
  param {
    lr_mult: 1
    decay_mult: 1
  }
  param {
    lr_mult: 2
    decay_mult: 0
  }
  convolution_param {
    num_output: 96
    kernel_size: 1
    weight_filler {
      type: "xavier"
      std: 0.09
    }
    bias_filler {
      type: "constant"
      value: 0.2
    }
  }
}
layer {
  name: "inception_3a/relu_3x3_reduce"
  type: "ReLU"
  bottom: "inception_3a/3x3_reduce"
  top: "inception_3a/3x3_reduce"
}
layer {
  name: "inception_3a/3x3"
  type: "Convolution"
  bottom: "inception_3a/3x3_reduce"
  top: "inception_3a/3x3"
  param {
    lr_mult: 1
    decay_mult: 1
  }
  param {
    lr_mult: 2
    decay_mult: 0
  }
  convolution_param {
    num_output: 128
    pad: 1
    kernel_size: 3
    weight_filler {
      type: "xavier"
      std: 0.03
    }
    bias_filler {
      type: "constant"
      value: 0.2
    }
  }
}
layer {
  name: "inception_3a/relu_3x3"
  type: "ReLU"
  bottom: "inception_3a/3x3"
  top: "inception_3a/3x3"
}
layer {
  name: "inception_3a/5x5_reduce"
  type: "Convolution"
  bottom: "pool2/3x3_s2"
  top: "inception_3a/5x5_reduce"
  param {
    lr_mult: 1
    decay_mult: 1
  }
  param {
    lr_mult: 2
    decay_mult: 0
  }
  convolution_param {
    num_output: 16
    kernel_size: 1
    weight_filler {
      type: "xavier"
      std: 0.2
    }
    bias_filler {
      type: "constant"
      value: 0.2
    }
  }
}
layer {
  name: "inception_3a/relu_5x5_reduce"
  type: "ReLU"
  bottom: "inception_3a/5x5_reduce"
  top: "inception_3a/5x5_reduce"
}
layer {
  name: "inception_3a/5x5"
  type: "Convolution"
  bottom: "inception_3a/5x5_reduce"
  top: "inception_3a/5x5"
  param {
    lr_mult: 1
    decay_mult: 1
  }
  param {
    lr_mult: 2
    decay_mult: 0
  }
  convolution_param {
    num_output: 32
    pad: 2
    kernel_size: 5
    weight_filler {
      type: "xavier"
      std: 0.03
    }
    bias_filler {
      type: "constant"
      value: 0.2
    }
  }
}
layer {
  name: "inception_3a/relu_5x5"
  type: "ReLU"
  bottom: "inception_3a/5x5"
  top: "inception_3a/5x5"
}
layer {
  name: "inception_3a/pool"
  type: "Pooling"
  bottom: "pool2/3x3_s2"
  top: "inception_3a/pool"
  pooling_param {
    pool: MAX
    kernel_size: 3
    stride: 1
    pad: 1
  }
}
layer {
  name: "inception_3a/pool_proj"
  type: "Convolution"
  bottom: "inception_3a/pool"
  top: "inception_3a/pool_proj"
  param {
    lr_mult: 1
    decay_mult: 1
  }
  param {
    lr_mult: 2
    decay_mult: 0
  }
  convolution_param {
    num_output: 32
    kernel_size: 1
    weight_filler {
      type: "xavier"
      std: 0.1
    }
    bias_filler {
      type: "constant"
      value: 0.2
    }
  }
}
layer {
  name: "inception_3a/relu_pool_proj"
  type: "ReLU"
  bottom: "inception_3a/pool_proj"
  top: "inception_3a/pool_proj"
}
layer {
  name: "inception_3a/output"
  type: "Concat"
  bottom: "inception_3a/1x1"
  bottom: "inception_3a/3x3"
  bottom: "inception_3a/5x5"
  bottom: "inception_3a/pool_proj"
  top: "inception_3a/output"
}
layer {
  name: "inception_3b/1x1"
  type: "Convolution"
  bottom: "inception_3a/output"
  top: "inception_3b/1x1"
  param {
    lr_mult: 1
    decay_mult: 1
  }
  param {
    lr_mult: 2
    decay_mult: 0
  }
  convolution_param {
    num_output: 128
    kernel_size: 1
    weight_filler {
      type: "xavier"
      std: 0.03
    }
    bias_filler {
      type: "constant"
      value: 0.2
    }
  }
}
layer {
  name: "inception_3b/relu_1x1"
  type: "ReLU"
  bottom: "inception_3b/1x1"
  top: "inception_3b/1x1"
}
layer {
  name: "inception_3b/3x3_reduce"
  type: "Convolution"
  bottom: "inception_3a/output"
  top: "inception_3b/3x3_reduce"
  param {
    lr_mult: 1
    decay_mult: 1
  }
  param {
    lr_mult: 2
    decay_mult: 0
  }
  convolution_param {
    num_output: 128
    kernel_size: 1
    weight_filler {
      type: "xavier"
      std: 0.09
    }
    bias_filler {
      type: "constant"
      value: 0.2
    }
  }
}
layer {
  name: "inception_3b/relu_3x3_reduce"
  type: "ReLU"
  bottom: "inception_3b/3x3_reduce"
  top: "inception_3b/3x3_reduce"
}
layer {
  name: "inception_3b/3x3"
  type: "Convolution"
  bottom: "inception_3b/3x3_reduce"
  top: "inception_3b/3x3"
  param {
    lr_mult: 1
    decay_mult: 1
  }
  param {
    lr_mult: 2
    decay_mult: 0
  }
  convolution_param {
    num_output: 192
    pad: 1
    kernel_size: 3
    weight_filler {
      type: "xavier"
      std: 0.03
    }
    bias_filler {
      type: "constant"
      value: 0.2
    }
  }
}
layer {
  name: "inception_3b/relu_3x3"
  type: "ReLU"
  bottom: "inception_3b/3x3"
  top: "inception_3b/3x3"
}
layer {
  name: "inception_3b/5x5_reduce"
  type: "Convolution"
  bottom: "inception_3a/output"
  top: "inception_3b/5x5_reduce"
  param {
    lr_mult: 1
    decay_mult: 1
  }
  param {
    lr_mult: 2
    decay_mult: 0
  }
  convolution_param {
    num_output: 32
    kernel_size: 1
    weight_filler {
      type: "xavier"
      std: 0.2
    }
    bias_filler {
      type: "constant"
      value: 0.2
    }
  }
}
layer {
  name: "inception_3b/relu_5x5_reduce"
  type: "ReLU"
  bottom: "inception_3b/5x5_reduce"
  top: "inception_3b/5x5_reduce"
}
layer {
  name: "inception_3b/5x5"
  type: "Convolution"
  bottom: "inception_3b/5x5_reduce"
  top: "inception_3b/5x5"
  param {
    lr_mult: 1
    decay_mult: 1
  }
  param {
    lr_mult: 2
    decay_mult: 0
  }
  convolution_param {
    num_output: 96
    pad: 2
    kernel_size: 5
    weight_filler {
      type: "xavier"
      std: 0.03
    }
    bias_filler {
      type: "constant"
      value: 0.2
    }
  }
}
layer {
  name: "inception_3b/relu_5x5"
  type: "ReLU"
  bottom: "inception_3b/5x5"
  top: "inception_3b/5x5"
}
layer {
  name: "inception_3b/pool"
  type: "Pooling"
  bottom: "inception_3a/output"
  top: "inception_3b/pool"
  pooling_param {
    pool: MAX
    kernel_size: 3
    stride: 1
    pad: 1
  }
}
layer {
  name: "inception_3b/pool_proj"
  type: "Convolution"
  bottom: "inception_3b/pool"
  top: "inception_3b/pool_proj"
  param {
    lr_mult: 1
    decay_mult: 1
  }
  param {
    lr_mult: 2
    decay_mult: 0
  }
  convolution_param {
    num_output: 64
    kernel_size: 1
    weight_filler {
      type: "xavier"
      std: 0.1
    }
    bias_filler {
      type: "constant"
      value: 0.2
    }
  }
}
layer {
  name: "inception_3b/relu_pool_proj"
  type: "ReLU"
  bottom: "inception_3b/pool_proj"
  top: "inception_3b/pool_proj"
}
layer {
  name: "inception_3b/output"
  type: "Concat"
  bottom: "inception_3b/1x1"
  bottom: "inception_3b/3x3"
  bottom: "inception_3b/5x5"
  bottom: "inception_3b/pool_proj"
  top: "inception_3b/output"
}
layer {
  name: "pool3/3x3_s2"
  type: "Pooling"
  bottom: "inception_3b/output"
  top: "pool3/3x3_s2"
  pooling_param {
    pool: MAX
    kernel_size: 3
    stride: 2
  }
}
layer {
  name: "inception_4a/1x1"
  type: "Convolution"
  bottom: "pool3/3x3_s2"
  top: "inception_4a/1x1"
  param {
    lr_mult: 1
    decay_mult: 1
  }
  param {
    lr_mult: 2
    decay_mult: 0
  }
  convolution_param {
    num_output: 192
    kernel_size: 1
    weight_filler {
      type: "xavier"
      std: 0.03
    }
    bias_filler {
      type: "constant"
      value: 0.2
    }
  }
}
layer {
  name: "inception_4a/relu_1x1"
  type: "ReLU"
  bottom: "inception_4a/1x1"
  top: "inception_4a/1x1"
}
layer {
  name: "inception_4a/3x3_reduce"
  type: "Convolution"
  bottom: "pool3/3x3_s2"
  top: "inception_4a/3x3_reduce"
  param {
    lr_mult: 1
    decay_mult: 1
  }
  param {
    lr_mult: 2
    decay_mult: 0
  }
  convolution_param {
    num_output: 96
    kernel_size: 1
    weight_filler {
      type: "xavier"
      std: 0.09
    }
    bias_filler {
      type: "constant"
      value: 0.2
    }
  }
}
layer {
  name: "inception_4a/relu_3x3_reduce"
  type: "ReLU"
  bottom: "inception_4a/3x3_reduce"
  top: "inception_4a/3x3_reduce"
}
layer {
  name: "inception_4a/3x3"
  type: "Convolution"
  bottom: "inception_4a/3x3_reduce"
  top: "inception_4a/3x3"
  param {
    lr_mult: 1
    decay_mult: 1
  }
  param {
    lr_mult: 2
    decay_mult: 0
  }
  convolution_param {
    num_output: 208
    pad: 1
    kernel_size: 3
    weight_filler {
      type: "xavier"
      std: 0.03
    }
    bias_filler {
      type: "constant"
      value: 0.2
    }
  }
}
layer {
  name: "inception_4a/relu_3x3"
  type: "ReLU"
  bottom: "inception_4a/3x3"
  top: "inception_4a/3x3"
}
layer {
  name: "inception_4a/5x5_reduce"
  type: "Convolution"
  bottom: "pool3/3x3_s2"
  top: "inception_4a/5x5_reduce"
  param {
    lr_mult: 1
    decay_mult: 1
  }
  param {
    lr_mult: 2
    decay_mult: 0
  }
  convolution_param {
    num_output: 16
    kernel_size: 1
    weight_filler {
      type: "xavier"
      std: 0.2
    }
    bias_filler {
      type: "constant"
      value: 0.2
    }
  }
}
layer {
  name: "inception_4a/relu_5x5_reduce"
  type: "ReLU"
  bottom: "inception_4a/5x5_reduce"
  top: "inception_4a/5x5_reduce"
}
layer {
  name: "inception_4a/5x5"
  type: "Convolution"
  bottom: "inception_4a/5x5_reduce"
  top: "inception_4a/5x5"
  param {
    lr_mult: 1
    decay_mult: 1
  }
  param {
    lr_mult: 2
    decay_mult: 0
  }
  convolution_param {
    num_output: 48
    pad: 2
    kernel_size: 5
    weight_filler {
      type: "xavier"
      std: 0.03
    }
    bias_filler {
      type: "constant"
      value: 0.2
    }
  }
}
layer {
  name: "inception_4a/relu_5x5"
  type: "ReLU"
  bottom: "inception_4a/5x5"
  top: "inception_4a/5x5"
}
layer {
  name: "inception_4a/pool"
  type: "Pooling"
  bottom: "pool3/3x3_s2"
  top: "inception_4a/pool"
  pooling_param {
    pool: MAX
    kernel_size: 3
    stride: 1
    pad: 1
  }
}
layer {
  name: "inception_4a/pool_proj"
  type: "Convolution"
  bottom: "inception_4a/pool"
  top: "inception_4a/pool_proj"
  param {
    lr_mult: 1
    decay_mult: 1
  }
  param {
    lr_mult: 2
    decay_mult: 0
  }
  convolution_param {
    num_output: 64
    kernel_size: 1
    weight_filler {
      type: "xavier"
      std: 0.1
    }
    bias_filler {
      type: "constant"
      value: 0.2
    }
  }
}
layer {
  name: "inception_4a/relu_pool_proj"
  type: "ReLU"
  bottom: "inception_4a/pool_proj"
  top: "inception_4a/pool_proj"
}
layer {
  name: "inception_4a/output"
  type: "Concat"
  bottom: "inception_4a/1x1"
  bottom: "inception_4a/3x3"
  bottom: "inception_4a/5x5"
  bottom: "inception_4a/pool_proj"
  top: "inception_4a/output"
}
layer {
  name: "loss1/ave_pool"
  type: "Pooling"
  bottom: "inception_4a/output"
  top: "loss1/ave_pool"
  pooling_param {
    pool: AVE
    kernel_size: 5
    stride: 3
  }
}
layer {
  name: "loss1/conv"
  type: "Convolution"
  bottom: "loss1/ave_pool"
  top: "loss1/conv"
  param {
    lr_mult: 1
    decay_mult: 1
  }
  param {
    lr_mult: 2
    decay_mult: 0
  }
  convolution_param {
    num_output: 128
    kernel_size: 1
    weight_filler {
      type: "xavier"
      std: 0.08
    }
    bias_filler {
      type: "constant"
      value: 0.2
    }
  }
}
layer {
  name: "loss1/relu_conv"
  type: "ReLU"
  bottom: "loss1/conv"
  top: "loss1/conv"
}
layer {
  name: "loss1/fc"
  type: "InnerProduct"
  bottom: "loss1/conv"
  top: "loss1/fc"
  param {
    lr_mult: 1
    decay_mult: 1
  }
  param {
    lr_mult: 2
    decay_mult: 0
  }
  inner_product_param {
    num_output: 1024
    weight_filler {
      type: "xavier"
      std: 0.02
    }
    bias_filler {
      type: "constant"
      value: 0.2
    }
  }
}
layer {
  name: "loss1/relu_fc"
  type: "ReLU"
  bottom: "loss1/fc"
  top: "loss1/fc"
}
layer {
  name: "loss1/drop_fc"
  type: "Dropout"
  bottom: "loss1/fc"
  top: "loss1/fc"
  dropout_param {
    dropout_ratio: 0.7
  }
}
layer {
  name: "loss1/classifier_kaggle"
  type: "InnerProduct"
  bottom: "loss1/fc"
  top: "loss1/classifier_kaggle"
  param {
    lr_mult: 1
    decay_mult: 1
  }
  param {
    lr_mult: 2
    decay_mult: 0
  }
  inner_product_param {
    num_output: 447
    weight_filler {
      type: "xavier"
      std: 0.0009765625
    }
    bias_filler {
      type: "constant"
      value: 0
    }
  }
}
layer {
  name: "loss1/loss"
  type: "SoftmaxWithLoss"
  bottom: "loss1/classifier_kaggle"
  bottom: "label"
  top: "loss1/loss1"
  loss_weight: 0.3
}
layer {
  name: "inception_4b/1x1"
  type: "Convolution"
  bottom: "inception_4a/output"
  top: "inception_4b/1x1"
  param {
    lr_mult: 1
    decay_mult: 1
  }
  param {
    lr_mult: 2
    decay_mult: 0
  }
  convolution_param {
    num_output: 160
    kernel_size: 1
    weight_filler {
      type: "xavier"
      std: 0.03
    }
    bias_filler {
      type: "constant"
      value: 0.2
    }
  }
}
layer {
  name: "inception_4b/relu_1x1"
  type: "ReLU"
  bottom: "inception_4b/1x1"
  top: "inception_4b/1x1"
}
layer {
  name: "inception_4b/3x3_reduce"
  type: "Convolution"
  bottom: "inception_4a/output"
  top: "inception_4b/3x3_reduce"
  param {
    lr_mult: 1
    decay_mult: 1
  }
  param {
    lr_mult: 2
    decay_mult: 0
  }
  convolution_param {
    num_output: 112
    kernel_size: 1
    weight_filler {
      type: "xavier"
      std: 0.09
    }
    bias_filler {
      type: "constant"
      value: 0.2
    }
  }
}
layer {
  name: "inception_4b/relu_3x3_reduce"
  type: "ReLU"
  bottom: "inception_4b/3x3_reduce"
  top: "inception_4b/3x3_reduce"
}
layer {
  name: "inception_4b/3x3"
  type: "Convolution"
  bottom: "inception_4b/3x3_reduce"
  top: "inception_4b/3x3"
  param {
    lr_mult: 1
    decay_mult: 1
  }
  param {
    lr_mult: 2
    decay_mult: 0
  }
  convolution_param {
    num_output: 224
    pad: 1
    kernel_size: 3
    weight_filler {
      type: "xavier"
      std: 0.03
    }
    bias_filler {
      type: "constant"
      value: 0.2
    }
  }
}
layer {
  name: "inception_4b/relu_3x3"
  type: "ReLU"
  bottom: "inception_4b/3x3"
  top: "inception_4b/3x3"
}
layer {
  name: "inception_4b/5x5_reduce"
  type: "Convolution"
  bottom: "inception_4a/output"
  top: "inception_4b/5x5_reduce"
  param {
    lr_mult: 1
    decay_mult: 1
  }
  param {
    lr_mult: 2
    decay_mult: 0
  }
  convolution_param {
    num_output: 24
    kernel_size: 1
    weight_filler {
      type: "xavier"
      std: 0.2
    }
    bias_filler {
      type: "constant"
      value: 0.2
    }
  }
}
layer {
  name: "inception_4b/relu_5x5_reduce"
  type: "ReLU"
  bottom: "inception_4b/5x5_reduce"
  top: "inception_4b/5x5_reduce"
}
layer {
  name: "inception_4b/5x5"
  type: "Convolution"
  bottom: "inception_4b/5x5_reduce"
  top: "inception_4b/5x5"
  param {
    lr_mult: 1
    decay_mult: 1
  }
  param {
    lr_mult: 2
    decay_mult: 0
  }
  convolution_param {
    num_output: 64
    pad: 2
    kernel_size: 5
    weight_filler {
      type: "xavier"
      std: 0.03
    }
    bias_filler {
      type: "constant"
      value: 0.2
    }
  }
}
layer {
  name: "inception_4b/relu_5x5"
  type: "ReLU"
  bottom: "inception_4b/5x5"
  top: "inception_4b/5x5"
}
layer {
  name: "inception_4b/pool"
  type: "Pooling"
  bottom: "inception_4a/output"
  top: "inception_4b/pool"
  pooling_param {
    pool: MAX
    kernel_size: 3
    stride: 1
    pad: 1
  }
}
layer {
  name: "inception_4b/pool_proj"
  type: "Convolution"
  bottom: "inception_4b/pool"
  top: "inception_4b/pool_proj"
  param {
    lr_mult: 1
    decay_mult: 1
  }
  param {
    lr_mult: 2
    decay_mult: 0
  }
  convolution_param {
    num_output: 64
    kernel_size: 1
    weight_filler {
      type: "xavier"
      std: 0.1
    }
    bias_filler {
      type: "constant"
      value: 0.2
    }
  }
}
layer {
  name: "inception_4b/relu_pool_proj"
  type: "ReLU"
  bottom: "inception_4b/pool_proj"
  top: "inception_4b/pool_proj"
}
layer {
  name: "inception_4b/output"
  type: "Concat"
  bottom: "inception_4b/1x1"
  bottom: "inception_4b/3x3"
  bottom: "inception_4b/5x5"
  bottom: "inception_4b/pool_proj"
  top: "inception_4b/output"
}
layer {
  name: "inception_4c/1x1"
  type: "Convolution"
  bottom: "inception_4b/output"
  top: "inception_4c/1x1"
  param {
    lr_mult: 1
    decay_mult: 1
  }
  param {
    lr_mult: 2
    decay_mult: 0
  }
  convolution_param {
    num_output: 128
    kernel_size: 1
    weight_filler {
      type: "xavier"
      std: 0.03
    }
    bias_filler {
      type: "constant"
      value: 0.2
    }
  }
}
layer {
  name: "inception_4c/relu_1x1"
  type: "ReLU"
  bottom: "inception_4c/1x1"
  top: "inception_4c/1x1"
}
layer {
  name: "inception_4c/3x3_reduce"
  type: "Convolution"
  bottom: "inception_4b/output"
  top: "inception_4c/3x3_reduce"
  param {
    lr_mult: 1
    decay_mult: 1
  }
  param {
    lr_mult: 2
    decay_mult: 0
  }
  convolution_param {
    num_output: 128
    kernel_size: 1
    weight_filler {
      type: "xavier"
      std: 0.09
    }
    bias_filler {
      type: "constant"
      value: 0.2
    }
  }
}
layer {
  name: "inception_4c/relu_3x3_reduce"
  type: "ReLU"
  bottom: "inception_4c/3x3_reduce"
  top: "inception_4c/3x3_reduce"
}
layer {
  name: "inception_4c/3x3"
  type: "Convolution"
  bottom: "inception_4c/3x3_reduce"
  top: "inception_4c/3x3"
  param {
    lr_mult: 1
    decay_mult: 1
  }
  param {
    lr_mult: 2
    decay_mult: 0
  }
  convolution_param {
    num_output: 256
    pad: 1
    kernel_size: 3
    weight_filler {
      type: "xavier"
      std: 0.03
    }
    bias_filler {
      type: "constant"
      value: 0.2
    }
  }
}
layer {
  name: "inception_4c/relu_3x3"
  type: "ReLU"
  bottom: "inception_4c/3x3"
  top: "inception_4c/3x3"
}
layer {
  name: "inception_4c/5x5_reduce"
  type: "Convolution"
  bottom: "inception_4b/output"
  top: "inception_4c/5x5_reduce"
  param {
    lr_mult: 1
    decay_mult: 1
  }
  param {
    lr_mult: 2
    decay_mult: 0
  }
  convolution_param {
    num_output: 24
    kernel_size: 1
    weight_filler {
      type: "xavier"
      std: 0.2
    }
    bias_filler {
      type: "constant"
      value: 0.2
    }
  }
}
layer {
  name: "inception_4c/relu_5x5_reduce"
  type: "ReLU"
  bottom: "inception_4c/5x5_reduce"
  top: "inception_4c/5x5_reduce"
}
layer {
  name: "inception_4c/5x5"
  type: "Convolution"
  bottom: "inception_4c/5x5_reduce"
  top: "inception_4c/5x5"
  param {
    lr_mult: 1
    decay_mult: 1
  }
  param {
    lr_mult: 2
    decay_mult: 0
  }
  convolution_param {
    num_output: 64
    pad: 2
    kernel_size: 5
    weight_filler {
      type: "xavier"
      std: 0.03
    }
    bias_filler {
      type: "constant"
      value: 0.2
    }
  }
}
layer {
  name: "inception_4c/relu_5x5"
  type: "ReLU"
  bottom: "inception_4c/5x5"
  top: "inception_4c/5x5"
}
layer {
  name: "inception_4c/pool"
  type: "Pooling"
  bottom: "inception_4b/output"
  top: "inception_4c/pool"
  pooling_param {
    pool: MAX
    kernel_size: 3
    stride: 1
    pad: 1
  }
}
layer {
  name: "inception_4c/pool_proj"
  type: "Convolution"
  bottom: "inception_4c/pool"
  top: "inception_4c/pool_proj"
  param {
    lr_mult: 1
    decay_mult: 1
  }
  param {
    lr_mult: 2
    decay_mult: 0
  }
  convolution_param {
    num_output: 64
    kernel_size: 1
    weight_filler {
      type: "xavier"
      std: 0.1
    }
    bias_filler {
      type: "constant"
      value: 0.2
    }
  }
}
layer {
  name: "inception_4c/relu_pool_proj"
  type: "ReLU"
  bottom: "inception_4c/pool_proj"
  top: "inception_4c/pool_proj"
}
layer {
  name: "inception_4c/output"
  type: "Concat"
  bottom: "inception_4c/1x1"
  bottom: "inception_4c/3x3"
  bottom: "inception_4c/5x5"
  bottom: "inception_4c/pool_proj"
  top: "inception_4c/output"
}
layer {
  name: "inception_4d/1x1"
  type: "Convolution"
  bottom: "inception_4c/output"
  top: "inception_4d/1x1"
  param {
    lr_mult: 1
    decay_mult: 1
  }
  param {
    lr_mult: 2
    decay_mult: 0
  }
  convolution_param {
    num_output: 112
    kernel_size: 1
    weight_filler {
      type: "xavier"
      std: 0.03
    }
    bias_filler {
      type: "constant"
      value: 0.2
    }
  }
}
layer {
  name: "inception_4d/relu_1x1"
  type: "ReLU"
  bottom: "inception_4d/1x1"
  top: "inception_4d/1x1"
}
layer {
  name: "inception_4d/3x3_reduce"
  type: "Convolution"
  bottom: "inception_4c/output"
  top: "inception_4d/3x3_reduce"
  param {
    lr_mult: 1
    decay_mult: 1
  }
  param {
    lr_mult: 2
    decay_mult: 0
  }
  convolution_param {
    num_output: 144
    kernel_size: 1
    weight_filler {
      type: "xavier"
      std: 0.09
    }
    bias_filler {
      type: "constant"
      value: 0.2
    }
  }
}
layer {
  name: "inception_4d/relu_3x3_reduce"
  type: "ReLU"
  bottom: "inception_4d/3x3_reduce"
  top: "inception_4d/3x3_reduce"
}
layer {
  name: "inception_4d/3x3"
  type: "Convolution"
  bottom: "inception_4d/3x3_reduce"
  top: "inception_4d/3x3"
  param {
    lr_mult: 1
    decay_mult: 1
  }
  param {
    lr_mult: 2
    decay_mult: 0
  }
  convolution_param {
    num_output: 288
    pad: 1
    kernel_size: 3
    weight_filler {
      type: "xavier"
      std: 0.03
    }
    bias_filler {
      type: "constant"
      value: 0.2
    }
  }
}
layer {
  name: "inception_4d/relu_3x3"
  type: "ReLU"
  bottom: "inception_4d/3x3"
  top: "inception_4d/3x3"
}
layer {
  name: "inception_4d/5x5_reduce"
  type: "Convolution"
  bottom: "inception_4c/output"
  top: "inception_4d/5x5_reduce"
  param {
    lr_mult: 1
    decay_mult: 1
  }
  param {
    lr_mult: 2
    decay_mult: 0
  }
  convolution_param {
    num_output: 32
    kernel_size: 1
    weight_filler {
      type: "xavier"
      std: 0.2
    }
    bias_filler {
      type: "constant"
      value: 0.2
    }
  }
}
layer {
  name: "inception_4d/relu_5x5_reduce"
  type: "ReLU"
  bottom: "inception_4d/5x5_reduce"
  top: "inception_4d/5x5_reduce"
}
layer {
  name: "inception_4d/5x5"
  type: "Convolution"
  bottom: "inception_4d/5x5_reduce"
  top: "inception_4d/5x5"
  param {
    lr_mult: 1
    decay_mult: 1
  }
  param {
    lr_mult: 2
    decay_mult: 0
  }
  convolution_param {
    num_output: 64
    pad: 2
    kernel_size: 5
    weight_filler {
      type: "xavier"
      std: 0.03
    }
    bias_filler {
      type: "constant"
      value: 0.2
    }
  }
}
layer {
  name: "inception_4d/relu_5x5"
  type: "ReLU"
  bottom: "inception_4d/5x5"
  top: "inception_4d/5x5"
}
layer {
  name: "inception_4d/pool"
  type: "Pooling"
  bottom: "inception_4c/output"
  top: "inception_4d/pool"
  pooling_param {
    pool: MAX
    kernel_size: 3
    stride: 1
    pad: 1
  }
}
layer {
  name: "inception_4d/pool_proj"
  type: "Convolution"
  bottom: "inception_4d/pool"
  top: "inception_4d/pool_proj"
  param {
    lr_mult: 1
    decay_mult: 1
  }
  param {
    lr_mult: 2
    decay_mult: 0
  }
  convolution_param {
    num_output: 64
    kernel_size: 1
    weight_filler {
      type: "xavier"
      std: 0.1
    }
    bias_filler {
      type: "constant"
      value: 0.2
    }
  }
}
layer {
  name: "inception_4d/relu_pool_proj"
  type: "ReLU"
  bottom: "inception_4d/pool_proj"
  top: "inception_4d/pool_proj"
}
layer {
  name: "inception_4d/output"
  type: "Concat"
  bottom: "inception_4d/1x1"
  bottom: "inception_4d/3x3"
  bottom: "inception_4d/5x5"
  bottom: "inception_4d/pool_proj"
  top: "inception_4d/output"
}
layer {
  name: "loss2/ave_pool"
  type: "Pooling"
  bottom: "inception_4d/output"
  top: "loss2/ave_pool"
  pooling_param {
    pool: AVE
    kernel_size: 5
    stride: 3
  }
}
layer {
  name: "loss2/conv"
  type: "Convolution"
  bottom: "loss2/ave_pool"
  top: "loss2/conv"
  param {
    lr_mult: 1
    decay_mult: 1
  }
  param {
    lr_mult: 2
    decay_mult: 0
  }
  convolution_param {
    num_output: 128
    kernel_size: 1
    weight_filler {
      type: "xavier"
      std: 0.08
    }
    bias_filler {
      type: "constant"
      value: 0.2
    }
  }
}
layer {
  name: "loss2/relu_conv"
  type: "ReLU"
  bottom: "loss2/conv"
  top: "loss2/conv"
}
layer {
  name: "loss2/fc"
  type: "InnerProduct"
  bottom: "loss2/conv"
  top: "loss2/fc"
  param {
    lr_mult: 1
    decay_mult: 1
  }
  param {
    lr_mult: 2
    decay_mult: 0
  }
  inner_product_param {
    num_output: 1024
    weight_filler {
      type: "xavier"
      std: 0.02
    }
    bias_filler {
      type: "constant"
      value: 0.2
    }
  }
}
layer {
  name: "loss2/relu_fc"
  type: "ReLU"
  bottom: "loss2/fc"
  top: "loss2/fc"
}
layer {
  name: "loss2/drop_fc"
  type: "Dropout"
  bottom: "loss2/fc"
  top: "loss2/fc"
  dropout_param {
    dropout_ratio: 0.7
  }
}
layer {
  name: "loss2/classifier_kaggle"
  type: "InnerProduct"
  bottom: "loss2/fc"
  top: "loss2/classifier_kaggle"
  param {
    lr_mult: 1
    decay_mult: 1
  }
  param {
    lr_mult: 2
    decay_mult: 0
  }
  inner_product_param {
    num_output: 447
    weight_filler {
      type: "xavier"
      std: 0.0009765625
    }
    bias_filler {
      type: "constant"
      value: 0
    }
  }
}
layer {
  name: "loss2/loss"
  type: "SoftmaxWithLoss"
  bottom: "loss2/classifier_kaggle"
  bottom: "label"
  top: "loss2/loss1"
  loss_weight: 0.3
}
layer {
  name: "inception_4e/1x1"
  type: "Convolution"
  bottom: "inception_4d/output"
  top: "inception_4e/1x1"
  param {
    lr_mult: 1
    decay_mult: 1
  }
  param {
    lr_mult: 2
    decay_mult: 0
  }
  convolution_param {
    num_output: 256
    kernel_size: 1
    weight_filler {
      type: "xavier"
      std: 0.03
    }
    bias_filler {
      type: "constant"
      value: 0.2
    }
  }
}
layer {
  name: "inception_4e/relu_1x1"
  type: "ReLU"
  bottom: "inception_4e/1x1"
  top: "inception_4e/1x1"
}
layer {
  name: "inception_4e/3x3_reduce"
  type: "Convolution"
  bottom: "inception_4d/output"
  top: "inception_4e/3x3_reduce"
  param {
    lr_mult: 1
    decay_mult: 1
  }
  param {
    lr_mult: 2
    decay_mult: 0
  }
  convolution_param {
    num_output: 160
    kernel_size: 1
    weight_filler {
      type: "xavier"
      std: 0.09
    }
    bias_filler {
      type: "constant"
      value: 0.2
    }
  }
}
layer {
  name: "inception_4e/relu_3x3_reduce"
  type: "ReLU"
  bottom: "inception_4e/3x3_reduce"
  top: "inception_4e/3x3_reduce"
}
layer {
  name: "inception_4e/3x3"
  type: "Convolution"
  bottom: "inception_4e/3x3_reduce"
  top: "inception_4e/3x3"
  param {
    lr_mult: 1
    decay_mult: 1
  }
  param {
    lr_mult: 2
    decay_mult: 0
  }
  convolution_param {
    num_output: 320
    pad: 1
    kernel_size: 3
    weight_filler {
      type: "xavier"
      std: 0.03
    }
    bias_filler {
      type: "constant"
      value: 0.2
    }
  }
}
layer {
  name: "inception_4e/relu_3x3"
  type: "ReLU"
  bottom: "inception_4e/3x3"
  top: "inception_4e/3x3"
}
layer {
  name: "inception_4e/5x5_reduce"
  type: "Convolution"
  bottom: "inception_4d/output"
  top: "inception_4e/5x5_reduce"
  param {
    lr_mult: 1
    decay_mult: 1
  }
  param {
    lr_mult: 2
    decay_mult: 0
  }
  convolution_param {
    num_output: 32
    kernel_size: 1
    weight_filler {
      type: "xavier"
      std: 0.2
    }
    bias_filler {
      type: "constant"
      value: 0.2
    }
 
I1215 11:15:02.029927 17832 layer_factory.hpp:74] Creating layer data
I1215 11:15:02.029974 17832 net.cpp:84] Creating Layer data
I1215 11:15:02.029990 17832 net.cpp:338] data -> data
I1215 11:15:02.030038 17832 net.cpp:338] data -> label
I1215 11:15:02.030055 17832 net.cpp:113] Setting up data
I1215 11:15:02.030156 17832 db.cpp:34] Opened lmdb /home/coldmanck/kaggle/kaggle2_train_lmdb
I1215 11:15:02.030469 17832 data_layer.cpp:67] output data size: 128,3,224,224
I1215 11:15:02.056032 17832 net.cpp:120] Top shape: 128 3 224 224 (19267584)
I1215 11:15:02.056071 17832 net.cpp:120] Top shape: 128 (128)
I1215 11:15:02.056085 17832 layer_factory.hpp:74] Creating layer label_data_1_split
I1215 11:15:02.056105 17832 net.cpp:84] Creating Layer label_data_1_split
I1215 11:15:02.056115 17832 net.cpp:380] label_data_1_split <- label
I1215 11:15:02.056135 17832 net.cpp:338] label_data_1_split -> label_data_1_split_0
I1215 11:15:02.056155 17832 net.cpp:338] label_data_1_split -> label_data_1_split_1
I1215 11:15:02.056167 17832 net.cpp:338] label_data_1_split -> label_data_1_split_2
I1215 11:15:02.056179 17832 net.cpp:113] Setting up label_data_1_split
I1215 11:15:02.056192 17832 net.cpp:120] Top shape: 128 (128)
I1215 11:15:02.056213 17832 net.cpp:120] Top shape: 128 (128)
I1215 11:15:02.056236 17832 net.cpp:120] Top shape: 128 (128)
I1215 11:15:02.056242 17832 layer_factory.hpp:74] Creating layer conv1/7x7_s2
I1215 11:15:02.056258 17832 net.cpp:84] Creating Layer conv1/7x7_s2
I1215 11:15:02.056267 17832 net.cpp:380] conv1/7x7_s2 <- data
I1215 11:15:02.056277 17832 net.cpp:338] conv1/7x7_s2 -> conv1/7x7_s2
I1215 11:15:02.056293 17832 net.cpp:113] Setting up conv1/7x7_s2
I1215 11:15:02.397070 17832 net.cpp:120] Top shape: 128 64 112 112 (102760448)
I1215 11:15:02.397138 17832 layer_factory.hpp:74] Creating layer conv1/relu_7x7
I1215 11:15:02.397186 17832 net.cpp:84] Creating Layer conv1/relu_7x7
I1215 11:15:02.397194 17832 net.cpp:380] conv1/relu_7x7 <- conv1/7x7_s2
I1215 11:15:02.397207 17832 net.cpp:327] conv1/relu_7x7 -> conv1/7x7_s2 (in-place)
I1215 11:15:02.397220 17832 net.cpp:113] Setting up conv1/relu_7x7
I1215 11:15:02.397498 17832 net.cpp:120] Top shape: 128 64 112 112 (102760448)
I1215 11:15:02.397512 17832 layer_factory.hpp:74] Creating layer pool1/3x3_s2
I1215 11:15:02.397544 17832 net.cpp:84] Creating Layer pool1/3x3_s2
I1215 11:15:02.397552 17832 net.cpp:380] pool1/3x3_s2 <- conv1/7x7_s2
I1215 11:15:02.397560 17832 net.cpp:338] pool1/3x3_s2 -> pool1/3x3_s2
I1215 11:15:02.397569 17832 net.cpp:113] Setting up pool1/3x3_s2
I1215 11:15:02.397647 17832 net.cpp:120] Top shape: 128 64 56 56 (25690112)
I1215 11:15:02.397655 17832 layer_factory.hpp:74] Creating layer pool1/norm1
I1215 11:15:02.397672 17832 net.cpp:84] Creating Layer pool1/norm1
I1215 11:15:02.397678 17832 net.cpp:380] pool1/norm1 <- pool1/3x3_s2
I1215 11:15:02.397686 17832 net.cpp:338] pool1/norm1 -> pool1/norm1
I1215 11:15:02.397694 17832 net.cpp:113] Setting up pool1/norm1
I1215 11:15:02.397703 17832 net.cpp:120] Top shape: 128 64 56 56 (25690112)
I1215 11:15:02.397708 17832 layer_factory.hpp:74] Creating layer conv2/3x3_reduce
I1215 11:15:02.397721 17832 net.cpp:84] Creating Layer conv2/3x3_reduce
I1215 11:15:02.397725 17832 net.cpp:380] conv2/3x3_reduce <- pool1/norm1
I1215 11:15:02.397732 17832 net.cpp:338] conv2/3x3_reduce -> conv2/3x3_reduce
I1215 11:15:02.397743 17832 net.cpp:113] Setting up conv2/3x3_reduce
I1215 11:15:02.398355 17832 net.cpp:120] Top shape: 128 64 56 56 (25690112)
I1215 11:15:02.398375 17832 layer_factory.hpp:74] Creating layer conv2/relu_3x3_reduce
I1215 11:15:02.398382 17832 net.cpp:84] Creating Layer conv2/relu_3x3_reduce
I1215 11:15:02.398388 17832 net.cpp:380] conv2/relu_3x3_reduce <- conv2/3x3_reduce
I1215 11:15:02.398396 17832 net.cpp:327] conv2/relu_3x3_reduce -> conv2/3x3_reduce (in-place)
I1215 11:15:02.398403 17832 net.cpp:113] Setting up conv2/relu_3x3_reduce
I1215 11:15:02.398461 17832 net.cpp:120] Top shape: 128 64 56 56 (25690112)
I1215 11:15:02.398468 17832 layer_factory.hpp:74] Creating layer conv2/3x3
I1215 11:15:02.398478 17832 net.cpp:84] Creating Layer conv2/3x3
I1215 11:15:02.398483 17832 net.cpp:380] conv2/3x3 <- conv2/3x3_reduce
I1215 11:15:02.398493 17832 net.cpp:338] conv2/3x3 -> conv2/3x3
I1215 11:15:02.398501 17832 net.cpp:113] Setting up conv2/3x3
I1215 11:15:02.400043 17832 net.cpp:120] Top shape: 128 192 56 56 (77070336)
I1215 11:15:02.400063 17832 layer_factory.hpp:74] Creating layer conv2/relu_3x3
I1215 11:15:02.400070 17832 net.cpp:84] Creating Layer conv2/relu_3x3
I1215 11:15:02.400076 17832 net.cpp:380] conv2/relu_3x3 <- conv2/3x3
I1215 11:15:02.400082 17832 net.cpp:327] conv2/relu_3x3 -> conv2/3x3 (in-place)
I1215 11:15:02.400090 17832 net.cpp:113] Setting up conv2/relu_3x3
I1215 11:15:02.400604 17832 net.cpp:120] Top shape: 128 192 56 56 (77070336)
I1215 11:15:02.400619 17832 layer_factory.hpp:74] Creating layer conv2/norm2
I1215 11:15:02.400626 17832 net.cpp:84] Creating Layer conv2/norm2
I1215 11:15:02.400632 17832 net.cpp:380] conv2/norm2 <- conv2/3x3
I1215 11:15:02.400640 17832 net.cpp:338] conv2/norm2 -> conv2/norm2
I1215 11:15:02.400648 17832 net.cpp:113] Setting up conv2/norm2
I1215 11:15:02.400656 17832 net.cpp:120] Top shape: 128 192 56 56 (77070336)
I1215 11:15:02.400670 17832 layer_factory.hpp:74] Creating layer pool2/3x3_s2
I1215 11:15:02.400689 17832 net.cpp:84] Creating Layer pool2/3x3_s2
I1215 11:15:02.400694 17832 net.cpp:380] pool2/3x3_s2 <- conv2/norm2
I1215 11:15:02.400701 17832 net.cpp:338] pool2/3x3_s2 -> pool2/3x3_s2
I1215 11:15:02.400708 17832 net.cpp:113] Setting up pool2/3x3_s2
I1215 11:15:02.400774 17832 net.cpp:120] Top shape: 128 192 28 28 (19267584)
I1215 11:15:02.400779 17832 layer_factory.hpp:74] Creating layer pool2/3x3_s2_pool2/3x3_s2_0_split
I1215 11:15:02.400786 17832 net.cpp:84] Creating Layer pool2/3x3_s2_pool2/3x3_s2_0_split
I1215 11:15:02.400791 17832 net.cpp:380] pool2/3x3_s2_pool2/3x3_s2_0_split <- pool2/3x3_s2
I1215 11:15:02.400799 17832 net.cpp:338] pool2/3x3_s2_pool2/3x3_s2_0_split -> pool2/3x3_s2_pool2/3x3_s2_0_split_0
I1215 11:15:02.400807 17832 net.cpp:338] pool2/3x3_s2_pool2/3x3_s2_0_split -> pool2/3x3_s2_pool2/3x3_s2_0_split_1
I1215 11:15:02.400815 17832 net.cpp:338] pool2/3x3_s2_pool2/3x3_s2_0_split -> pool2/3x3_s2_pool2/3x3_s2_0_split_2
I1215 11:15:02.400822 17832 net.cpp:338] pool2/3x3_s2_pool2/3x3_s2_0_split -> pool2/3x3_s2_pool2/3x3_s2_0_split_3
I1215 11:15:02.400828 17832 net.cpp:113] Setting up pool2/3x3_s2_pool2/3x3_s2_0_split
I1215 11:15:02.400835 17832 net.cpp:120] Top shape: 128 192 28 28 (19267584)
I1215 11:15:02.400841 17832 net.cpp:120] Top shape: 128 192 28 28 (19267584)
I1215 11:15:02.400846 17832 net.cpp:120] Top shape: 128 192 28 28 (19267584)
I1215 11:15:02.400851 17832 net.cpp:120] Top shape: 128 192 28 28 (19267584)
I1215 11:15:02.400856 17832 layer_factory.hpp:74] Creating layer inception_3a/1x1
I1215 11:15:02.400864 17832 net.cpp:84] Creating Layer inception_3a/1x1
I1215 11:15:02.400869 17832 net.cpp:380] inception_3a/1x1 <- pool2/3x3_s2_pool2/3x3_s2_0_split_0
I1215 11:15:02.400876 17832 net.cpp:338] inception_3a/1x1 -> inception_3a/1x1
I1215 11:15:02.400885 17832 net.cpp:113] Setting up inception_3a/1x1
I1215 11:15:02.402676 17832 net.cpp:120] Top shape: 128 64 28 28 (6422528)
I1215 11:15:02.402704 17832 layer_factory.hpp:74] Creating layer inception_3a/relu_1x1
I1215 11:15:02.402719 17832 net.cpp:84] Creating Layer inception_3a/relu_1x1
I1215 11:15:02.402726 17832 net.cpp:380] inception_3a/relu_1x1 <- inception_3a/1x1
I1215 11:15:02.402737 17832 net.cpp:327] inception_3a/relu_1x1 -> inception_3a/1x1 (in-place)
I1215 11:15:02.402748 17832 net.cpp:113] Setting up inception_3a/relu_1x1
I1215 11:15:02.402869 17832 net.cpp:120] Top shape: 128 64 28 28 (6422528)
I1215 11:15:02.402880 17832 layer_factory.hpp:74] Creating layer inception_3a/3x3_reduce
I1215 11:15:02.402891 17832 net.cpp:84] Creating Layer inception_3a/3x3_reduce
I1215 11:15:02.402899 17832 net.cpp:380] inception_3a/3x3_reduce <- pool2/3x3_s2_pool2/3x3_s2_0_split_1
I1215 11:15:02.402909 17832 net.cpp:338] inception_3a/3x3_reduce -> inception_3a/3x3_reduce
I1215 11:15:02.402921 17832 net.cpp:113] Setting up inception_3a/3x3_reduce
I1215 11:15:02.403636 17832 net.cpp:120] Top shape: 128 96 28 28 (9633792)
I1215 11:15:02.403656 17832 layer_factory.hpp:74] Creating layer inception_3a/relu_3x3_reduce
I1215 11:15:02.403666 17832 net.cpp:84] Creating Layer inception_3a/relu_3x3_reduce
I1215 11:15:02.403671 17832 net.cpp:380] inception_3a/relu_3x3_reduce <- inception_3a/3x3_reduce
I1215 11:15:02.403678 17832 net.cpp:327] inception_3a/relu_3x3_reduce -> inception_3a/3x3_reduce (in-place)
I1215 11:15:02.403687 17832 net.cpp:113] Setting up inception_3a/relu_3x3_reduce
I1215 11:15:02.403770 17832 net.cpp:120] Top shape: 128 96 28 28 (9633792)
I1215 11:15:02.403777 17832 layer_factory.hpp:74] Creating layer inception_3a/3x3
I1215 11:15:02.403785 17832 net.cpp:84] Creating Layer inception_3a/3x3
I1215 11:15:02.403790 17832 net.cpp:380] inception_3a/3x3 <- inception_3a/3x3_reduce
I1215 11:15:02.403797 17832 net.cpp:338] inception_3a/3x3 -> inception_3a/3x3
I1215 11:15:02.403805 17832 net.cpp:113] Setting up inception_3a/3x3
I1215 11:15:02.405333 17832 net.cpp:120] Top shape: 128 128 28 28 (12845056)
I1215 11:15:02.405350 17832 layer_factory.hpp:74] Creating layer inception_3a/relu_3x3
I1215 11:15:02.405371 17832 net.cpp:84] Creating Layer inception_3a/relu_3x3
I1215 11:15:02.405385 17832 net.cpp:380] inception_3a/relu_3x3 <- inception_3a/3x3
I1215 11:15:02.405391 17832 net.cpp:327] inception_3a/relu_3x3 -> inception_3a/3x3 (in-place)
I1215 11:15:02.405400 17832 net.cpp:113] Setting up inception_3a/relu_3x3
I1215 11:15:02.405647 17832 net.cpp:120] Top shape: 128 128 28 28 (12845056)
I1215 11:15:02.405658 17832 layer_factory.hpp:74] Creating layer inception_3a/5x5_reduce
I1215 11:15:02.405669 17832 net.cpp:84] Creating Layer inception_3a/5x5_reduce
I1215 11:15:02.405674 17832 net.cpp:380] inception_3a/5x5_reduce <- pool2/3x3_s2_pool2/3x3_s2_0_split_2
I1215 11:15:02.405683 17832 net.cpp:338] inception_3a/5x5_reduce -> inception_3a/5x5_reduce
I1215 11:15:02.405694 17832 net.cpp:113] Setting up inception_3a/5x5_reduce
I1215 11:15:02.406112 17832 net.cpp:120] Top shape: 128 16 28 28 (1605632)
I1215 11:15:02.406128 17832 layer_factory.hpp:74] Creating layer inception_3a/relu_5x5_reduce
I1215 11:15:02.406136 17832 net.cpp:84] Creating Layer inception_3a/relu_5x5_reduce
I1215 11:15:02.406141 17832 net.cpp:380] inception_3a/relu_5x5_reduce <- inception_3a/5x5_reduce
I1215 11:15:02.406147 17832 net.cpp:327] inception_3a/relu_5x5_reduce -> inception_3a/5x5_reduce (in-place)
I1215 11:15:02.406155 17832 net.cpp:113] Setting up inception_3a/relu_5x5_reduce
I1215 11:15:02.406215 17832 net.cpp:120] Top shape: 128 16 28 28 (1605632)
I1215 11:15:02.406221 17832 layer_factory.hpp:74] Creating layer inception_3a/5x5
I1215 11:15:02.406235 17832 net.cpp:84] Creating Layer inception_3a/5x5
I1215 11:15:02.406240 17832 net.cpp:380] inception_3a/5x5 <- inception_3a/5x5_reduce
I1215 11:15:02.406247 17832 net.cpp:338] inception_3a/5x5 -> inception_3a/5x5
I1215 11:15:02.406255 17832 net.cpp:113] Setting up inception_3a/5x5
I1215 11:15:02.406780 17832 net.cpp:120] Top shape: 128 32 28 28 (3211264)
I1215 11:15:02.406795 17832 layer_factory.hpp:74] Creating layer inception_3a/relu_5x5
I1215 11:15:02.406802 17832 net.cpp:84] Creating Layer inception_3a/relu_5x5
I1215 11:15:02.406807 17832 net.cpp:380] inception_3a/relu_5x5 <- inception_3a/5x5
I1215 11:15:02.406816 17832 net.cpp:327] inception_3a/relu_5x5 -> inception_3a/5x5 (in-place)
I1215 11:15:02.406823 17832 net.cpp:113] Setting up inception_3a/relu_5x5
I1215 11:15:02.406891 17832 net.cpp:120] Top shape: 128 32 28 28 (3211264)
I1215 11:15:02.406898 17832 layer_factory.hpp:74] Creating layer inception_3a/pool
I1215 11:15:02.406903 17832 layer_factory.cpp:56] CUDNN does not support padding or multiple tops. Using Caffe's own pooling layer.
I1215 11:15:02.406911 17832 net.cpp:84] Creating Layer inception_3a/pool
I1215 11:15:02.406916 17832 net.cpp:380] inception_3a/pool <- pool2/3x3_s2_pool2/3x3_s2_0_split_3
I1215 11:15:02.406925 17832 net.cpp:338] inception_3a/pool -> inception_3a/pool
I1215 11:15:02.406934 17832 net.cpp:113] Setting up inception_3a/pool
I1215 11:15:02.406944 17832 net.cpp:120] Top shape: 128 192 28 28 (19267584)
I1215 11:15:02.406949 17832 layer_factory.hpp:74] Creating layer inception_3a/pool_proj
I1215 11:15:02.406960 17832 net.cpp:84] Creating Layer inception_3a/pool_proj
I1215 11:15:02.406965 17832 net.cpp:380] inception_3a/pool_proj <- inception_3a/pool
I1215 11:15:02.406971 17832 net.cpp:338] inception_3a/pool_proj -> inception_3a/pool_proj
I1215 11:15:02.406980 17832 net.cpp:113] Setting up inception_3a/pool_proj
I1215 11:15:02.407536 17832 net.cpp:120] Top shape: 128 32 28 28 (3211264)
I1215 11:15:02.407555 17832 layer_factory.hpp:74] Creating layer inception_3a/relu_pool_proj
I1215 11:15:02.407565 17832 net.cpp:84] Creating Layer inception_3a/relu_pool_proj
I1215 11:15:02.407570 17832 net.cpp:380] inception_3a/relu_pool_proj <- inception_3a/pool_proj
I1215 11:15:02.407582 17832 net.cpp:327] inception_3a/relu_pool_proj -> inception_3a/pool_proj (in-place)
I1215 11:15:02.407590 17832 net.cpp:113] Setting up inception_3a/relu_pool_proj
I1215 11:15:02.407663 17832 net.cpp:120] Top shape: 128 32 28 28 (3211264)
I1215 11:15:02.407670 17832 layer_factory.hpp:74] Creating layer inception_3a/output
I1215 11:15:02.407696 17832 net.cpp:84] Creating Layer inception_3a/output
I1215 11:15:02.407701 17832 net.cpp:380] inception_3a/output <- inception_3a/1x1
I1215 11:15:02.407707 17832 net.cpp:380] inception_3a/output <- inception_3a/3x3
I1215 11:15:02.407712 17832 net.cpp:380] inception_3a/output <- inception_3a/5x5
I1215 11:15:02.407717 17832 net.cpp:380] inception_3a/output <- inception_3a/pool_proj
I1215 11:15:02.407723 17832 net.cpp:338] inception_3a/output -> inception_3a/output
I1215 11:15:02.407732 17832 net.cpp:113] Setting up inception_3a/output
I1215 11:15:02.407739 17832 net.cpp:120] Top shape: 128 256 28 28 (25690112)
I1215 11:15:02.407744 17832 layer_factory.hpp:74] Creating layer inception_3a/output_inception_3a/output_0_split
I1215 11:15:02.407750 17832 net.cpp:84] Creating Layer inception_3a/output_inception_3a/output_0_split
I1215 11:15:02.407755 17832 net.cpp:380] inception_3a/output_inception_3a/output_0_split <- inception_3a/output
I1215 11:15:02.407763 17832 net.cpp:338] inception_3a/output_inception_3a/output_0_split -> inception_3a/output_inception_3a/output_0_split_0
I1215 11:15:02.407771 17832 net.cpp:338] inception_3a/output_inception_3a/output_0_split -> inception_3a/output_inception_3a/output_0_split_1
I1215 11:15:02.407778 17832 net.cpp:338] inception_3a/output_inception_3a/output_0_split -> inception_3a/output_inception_3a/output_0_split_2
I1215 11:15:02.407785 17832 net.cpp:338] inception_3a/output_inception_3a/output_0_split -> inception_3a/output_inception_3a/output_0_split_3
I1215 11:15:02.407794 17832 net.cpp:113] Setting up inception_3a/output_inception_3a/output_0_split
I1215 11:15:02.407801 17832 net.cpp:120] Top shape: 128 256 28 28 (25690112)
I1215 11:15:02.407807 17832 net.cpp:120] Top shape: 128 256 28 28 (25690112)
I1215 11:15:02.407812 17832 net.cpp:120] Top shape: 128 256 28 28 (25690112)
I1215 11:15:02.407817 17832 net.cpp:120] Top shape: 128 256 28 28 (25690112)
I1215 11:15:02.407822 17832 layer_factory.hpp:74] Creating layer inception_3b/1x1
I1215 11:15:02.407831 17832 net.cpp:84] Creating Layer inception_3b/1x1
I1215 11:15:02.407836 17832 net.cpp:380] inception_3b/1x1 <- inception_3a/output_inception_3a/output_0_split_0
I1215 11:15:02.407845 17832 net.cpp:338] inception_3b/1x1 -> inception_3b/1x1
I1215 11:15:02.407853 17832 net.cpp:113] Setting up inception_3b/1x1
I1215 11:15:02.408658 17832 net.cpp:120] Top shape: 128 128 28 28 (12845056)
I1215 11:15:02.408674 17832 layer_factory.hpp:74] Creating layer inception_3b/relu_1x1
I1215 11:15:02.408685 17832 net.cpp:84] Creating Layer inception_3b/relu_1x1
I1215 11:15:02.408691 17832 net.cpp:380] inception_3b/relu_1x1 <- inception_3b/1x1
I1215 11:15:02.408699 17832 net.cpp:327] inception_3b/relu_1x1 -> inception_3b/1x1 (in-place)
I1215 11:15:02.408706 17832 net.cpp:113] Setting up inception_3b/relu_1x1
I1215 11:15:02.408962 17832 net.cpp:120] Top shape: 128 128 28 28 (12845056)
I1215 11:15:02.408974 17832 layer_factory.hpp:74] Creating layer inception_3b/3x3_reduce
I1215 11:15:02.408982 17832 net.cpp:84] Creating Layer inception_3b/3x3_reduce
I1215 11:15:02.408987 17832 net.cpp:380] inception_3b/3x3_reduce <- inception_3a/output_inception_3a/output_0_split_1
I1215 11:15:02.408998 17832 net.cpp:338] inception_3b/3x3_reduce -> inception_3b/3x3_reduce
I1215 11:15:02.409006 17832 net.cpp:113] Setting up inception_3b/3x3_reduce
I1215 11:15:02.409888 17832 net.cpp:120] Top shape: 128 128 28 28 (12845056)
I1215 11:15:02.409904 17832 layer_factory.hpp:74] Creating layer inception_3b/relu_3x3_reduce
I1215 11:15:02.409914 17832 net.cpp:84] Creating Layer inception_3b/relu_3x3_reduce
I1215 11:15:02.409919 17832 net.cpp:380] inception_3b/relu_3x3_reduce <- inception_3b/3x3_reduce
I1215 11:15:02.409926 17832 net.cpp:327] inception_3b/relu_3x3_reduce -> inception_3b/3x3_reduce (in-place)
I1215 11:15:02.409936 17832 net.cpp:113] Setting up inception_3b/relu_3x3_reduce
I1215 11:15:02.410006 17832 net.cpp:120] Top shape: 128 128 28 28 (12845056)
I1215 11:15:02.410013 17832 layer_factory.hpp:74] Creating layer inception_3b/3x3
I1215 11:15:02.410033 17832 net.cpp:84] Creating Layer inception_3b/3x3
I1215 11:15:02.410046 17832 net.cpp:380] inception_3b/3x3 <- inception_3b/3x3_reduce
I1215 11:15:02.410054 17832 net.cpp:338] inception_3b/3x3 -> inception_3b/3x3
I1215 11:15:02.410063 17832 net.cpp:113] Setting up inception_3b/3x3
I1215 11:15:02.413136 17832 net.cpp:120] Top shape: 128 192 28 28 (19267584)
I1215 11:15:02.413154 17832 layer_factory.hpp:74] Creating layer inception_3b/relu_3x3
I1215 11:15:02.413164 17832 net.cpp:84] Creating Layer inception_3b/relu_3x3
I1215 11:15:02.413171 17832 net.cpp:380] inception_3b/relu_3x3 <- inception_3b/3x3
I1215 11:15:02.413177 17832 net.cpp:327] inception_3b/relu_3x3 -> inception_3b/3x3 (in-place)
I1215 11:15:02.413184 17832 net.cpp:113] Setting up inception_3b/relu_3x3
I1215 11:15:02.413254 17832 net.cpp:120] Top shape: 128 192 28 28 (19267584)
I1215 11:15:02.413260 17832 layer_factory.hpp:74] Creating layer inception_3b/5x5_reduce
I1215 11:15:02.413269 17832 net.cpp:84] Creating Layer inception_3b/5x5_reduce
I1215 11:15:02.413274 17832 net.cpp:380] inception_3b/5x5_reduce <- inception_3a/output_inception_3a/output_0_split_2
I1215 11:15:02.413282 17832 net.cpp:338] inception_3b/5x5_reduce -> inception_3b/5x5_reduce
I1215 11:15:02.413291 17832 net.cpp:113] Setting up inception_3b/5x5_reduce
I1215 11:15:02.413811 17832 net.cpp:120] Top shape: 128 32 28 28 (3211264)
I1215 11:15:02.413826 17832 layer_factory.hpp:74] Creating layer inception_3b/relu_5x5_reduce
I1215 11:15:02.413836 17832 net.cpp:84] Creating Layer inception_3b/relu_5x5_reduce
I1215 11:15:02.413841 17832 net.cpp:380] inception_3b/relu_5x5_reduce <- inception_3b/5x5_reduce
I1215 11:15:02.413849 17832 net.cpp:327] inception_3b/relu_5x5_reduce -> inception_3b/5x5_reduce (in-place)
I1215 11:15:02.413857 17832 net.cpp:113] Setting up inception_3b/relu_5x5_reduce
I1215 11:15:02.413930 17832 net.cpp:120] Top shape: 128 32 28 28 (3211264)
I1215 11:15:02.413938 17832 layer_factory.hpp:74] Creating layer inception_3b/5x5
I1215 11:15:02.413947 17832 net.cpp:84] Creating Layer inception_3b/5x5
I1215 11:15:02.413952 17832 net.cpp:380] inception_3b/5x5 <- inception_3b/5x5_reduce
I1215 11:15:02.413959 17832 net.cpp:338] inception_3b/5x5 -> inception_3b/5x5
I1215 11:15:02.413970 17832 net.cpp:113] Setting up inception_3b/5x5
I1215 11:15:02.415297 17832 net.cpp:120] Top shape: 128 96 28 28 (9633792)
I1215 11:15:02.415313 17832 layer_factory.hpp:74] Creating layer inception_3b/relu_5x5
I1215 11:15:02.415323 17832 net.cpp:84] Creating Layer inception_3b/relu_5x5
I1215 11:15:02.415329 17832 net.cpp:380] inception_3b/relu_5x5 <- inception_3b/5x5
I1215 11:15:02.415336 17832 net.cpp:327] inception_3b/relu_5x5 -> inception_3b/5x5 (in-place)
I1215 11:15:02.415343 17832 net.cpp:113] Setting up inception_3b/relu_5x5
I1215 11:15:02.415598 17832 net.cpp:120] Top shape: 128 96 28 28 (9633792)
I1215 11:15:02.415609 17832 layer_factory.hpp:74] Creating layer inception_3b/pool
I1215 11:15:02.415616 17832 layer_factory.cpp:56] CUDNN does not support padding or multiple tops. Using Caffe's own pooling layer.
I1215 11:15:02.415624 17832 net.cpp:84] Creating Layer inception_3b/pool
I1215 11:15:02.415629 17832 net.cpp:380] inception_3b/pool <- inception_3a/output_inception_3a/output_0_split_3
I1215 11:15:02.415637 17832 net.cpp:338] inception_3b/pool -> inception_3b/pool
I1215 11:15:02.415645 17832 net.cpp:113] Setting up inception_3b/pool
I1215 11:15:02.415654 17832 net.cpp:120] Top shape: 128 256 28 28 (25690112)
I1215 11:15:02.415659 17832 layer_factory.hpp:74] Creating layer inception_3b/pool_proj
I1215 11:15:02.415670 17832 net.cpp:84] Creating Layer inception_3b/pool_proj
I1215 11:15:02.415675 17832 net.cpp:380] inception_3b/pool_proj <- inception_3b/pool
I1215 11:15:02.415683 17832 net.cpp:338] inception_3b/pool_proj -> inception_3b/pool_proj
I1215 11:15:02.415691 17832 net.cpp:113] Setting up inception_3b/pool_proj
I1215 11:15:02.416295 17832 net.cpp:120] Top shape: 128 64 28 28 (6422528)
I1215 11:15:02.416311 17832 layer_factory.hpp:74] Creating layer inception_3b/relu_pool_proj
I1215 11:15:02.416326 17832 net.cpp:84] Creating Layer inception_3b/relu_pool_proj
I1215 11:15:02.416338 17832 net.cpp:380] inception_3b/relu_pool_proj <- inception_3b/pool_proj
I1215 11:15:02.416348 17832 net.cpp:327] inception_3b/relu_pool_proj -> inception_3b/pool_proj (in-place)
I1215 11:15:02.416357 17832 net.cpp:113] Setting up inception_3b/relu_pool_proj
I1215 11:15:02.416430 17832 net.cpp:120] Top shape: 128 64 28 28 (6422528)
I1215 11:15:02.416436 17832 layer_factory.hpp:74] Creating layer inception_3b/output
I1215 11:15:02.416445 17832 net.cpp:84] Creating Layer inception_3b/output
I1215 11:15:02.416450 17832 net.cpp:380] inception_3b/output <- inception_3b/1x1
I1215 11:15:02.416456 17832 net.cpp:380] inception_3b/output <- inception_3b/3x3
I1215 11:15:02.416461 17832 net.cpp:380] inception_3b/output <- inception_3b/5x5
I1215 11:15:02.416466 17832 net.cpp:380] inception_3b/output <- inception_3b/pool_proj
I1215 11:15:02.416472 17832 net.cpp:338] inception_3b/output -> inception_3b/output
I1215 11:15:02.416481 17832 net.cpp:113] Setting up inception_3b/output
I1215 11:15:02.416487 17832 net.cpp:120] Top shape: 128 480 28 28 (48168960)
I1215 11:15:02.416496 17832 layer_factory.hpp:74] Creating layer pool3/3x3_s2
I1215 11:15:02.416503 17832 net.cpp:84] Creating Layer pool3/3x3_s2
I1215 11:15:02.416508 17832 net.cpp:380] pool3/3x3_s2 <- inception_3b/output
I1215 11:15:02.416514 17832 net.cpp:338] pool3/3x3_s2 -> pool3/3x3_s2
I1215 11:15:02.416522 17832 net.cpp:113] Setting up pool3/3x3_s2
I1215 11:15:02.416590 17832 net.cpp:120] Top shape: 128 480 14 14 (12042240)
I1215 11:15:02.416597 17832 layer_factory.hpp:74] Creating layer pool3/3x3_s2_pool3/3x3_s2_0_split
I1215 11:15:02.416604 17832 net.cpp:84] Creating Layer pool3/3x3_s2_pool3/3x3_s2_0_split
I1215 11:15:02.416609 17832 net.cpp:380] pool3/3x3_s2_pool3/3x3_s2_0_split <- pool3/3x3_s2
I1215 11:15:02.416615 17832 net.cpp:338] pool3/3x3_s2_pool3/3x3_s2_0_split -> pool3/3x3_s2_pool3/3x3_s2_0_split_0
I1215 11:15:02.416627 17832 net.cpp:338] pool3/3x3_s2_pool3/3x3_s2_0_split -> pool3/3x3_s2_pool3/3x3_s2_0_split_1
I1215 11:15:02.416635 17832 net.cpp:338] pool3/3x3_s2_pool3/3x3_s2_0_split -> pool3/3x3_s2_pool3/3x3_s2_0_split_2
I1215 11:15:02.416642 17832 net.cpp:338] pool3/3x3_s2_pool3/3x3_s2_0_split -> pool3/3x3_s2_pool3/3x3_s2_0_split_3
I1215 11:15:02.416648 17832 net.cpp:113] Setting up pool3/3x3_s2_pool3/3x3_s2_0_split
I1215 11:15:02.416656 17832 net.cpp:120] Top shape: 128 480 14 14 (12042240)
I1215 11:15:02.416661 17832 net.cpp:120] Top shape: 128 480 14 14 (12042240)
I1215 11:15:02.416666 17832 net.cpp:120] Top shape: 128 480 14 14 (12042240)
I1215 11:15:02.416671 17832 net.cpp:120] Top shape: 128 480 14 14 (12042240)
I1215 11:15:02.416674 17832 layer_factory.hpp:74] Creating layer inception_4a/1x1
I1215 11:15:02.416683 17832 net.cpp:84] Creating Layer inception_4a/1x1
I1215 11:15:02.416688 17832 net.cpp:380] inception_4a/1x1 <- pool3/3x3_s2_pool3/3x3_s2_0_split_0
I1215 11:15:02.416695 17832 net.cpp:338] inception_4a/1x1 -> inception_4a/1x1
I1215 11:15:02.416702 17832 net.cpp:113] Setting up inception_4a/1x1
I1215 11:15:02.418203 17832 net.cpp:120] Top shape: 128 192 14 14 (4816896)
I1215 11:15:02.418220 17832 layer_factory.hpp:74] Creating layer inception_4a/relu_1x1
I1215 11:15:02.418231 17832 net.cpp:84] Creating Layer inception_4a/relu_1x1
I1215 11:15:02.418236 17832 net.cpp:380] inception_4a/relu_1x1 <- inception_4a/1x1
I1215 11:15:02.418242 17832 net.cpp:327] inception_4a/relu_1x1 -> inception_4a/1x1 (in-place)
I1215 11:15:02.418251 17832 net.cpp:113] Setting up inception_4a/relu_1x1
I1215 11:15:02.418506 17832 net.cpp:120] Top shape: 128 192 14 14 (4816896)
I1215 11:15:02.418519 17832 layer_factory.hpp:74] Creating layer inception_4a/3x3_reduce
I1215 11:15:02.418529 17832 net.cpp:84] Creating Layer inception_4a/3x3_reduce
I1215 11:15:02.418534 17832 net.cpp:380] inception_4a/3x3_reduce <- pool3/3x3_s2_pool3/3x3_s2_0_split_1
I1215 11:15:02.418542 17832 net.cpp:338] inception_4a/3x3_reduce -> inception_4a/3x3_reduce
I1215 11:15:02.418556 17832 net.cpp:113] Setting up inception_4a/3x3_reduce
I1215 11:15:02.419519 17832 net.cpp:120] Top shape: 128 96 14 14 (2408448)
I1215 11:15:02.419539 17832 layer_factory.hpp:74] Creating layer inception_4a/relu_3x3_reduce
I1215 11:15:02.419549 17832 net.cpp:84] Creating Layer inception_4a/relu_3x3_reduce
I1215 11:15:02.419554 17832 net.cpp:380] inception_4a/relu_3x3_reduce <- inception_4a/3x3_reduce
I1215 11:15:02.419564 17832 net.cpp:327] inception_4a/relu_3x3_reduce -> inception_4a/3x3_reduce (in-place)
I1215 11:15:02.419571 17832 net.cpp:113] Setting up inception_4a/relu_3x3_reduce
I1215 11:15:02.419646 17832 net.cpp:120] Top shape: 128 96 14 14 (2408448)
I1215 11:15:02.419653 17832 layer_factory.hpp:74] Creating layer inception_4a/3x3
I1215 11:15:02.419663 17832 net.cpp:84] Creating Layer inception_4a/3x3
I1215 11:15:02.419668 17832 net.cpp:380] inception_4a/3x3 <- inception_4a/3x3_reduce
I1215 11:15:02.419675 17832 net.cpp:338] inception_4a/3x3 -> inception_4a/3x3
I1215 11:15:02.419683 17832 net.cpp:113] Setting up inception_4a/3x3
I1215 11:15:02.422186 17832 net.cpp:120] Top shape: 128 208 14 14 (5218304)
I1215 11:15:02.422204 17832 layer_factory.hpp:74] Creating layer inception_4a/relu_3x3
I1215 11:15:02.422214 17832 net.cpp:84] Creating Layer inception_4a/relu_3x3
I1215 11:15:02.422219 17832 net.cpp:380] inception_4a/relu_3x3 <- inception_4a/3x3
I1215 11:15:02.422227 17832 net.cpp:327] inception_4a/relu_3x3 -> inception_4a/3x3 (in-place)
I1215 11:15:02.422235 17832 net.cpp:113] Setting up inception_4a/relu_3x3
I1215 11:15:02.422303 17832 net.cpp:120] Top shape: 128 208 14 14 (5218304)
I1215 11:15:02.422309 17832 layer_factory.hpp:74] Creating layer inception_4a/5x5_reduce
I1215 11:15:02.422322 17832 net.cpp:84] Creating Layer inception_4a/5x5_reduce
I1215 11:15:02.422327 17832 net.cpp:380] inception_4a/5x5_reduce <- pool3/3x3_s2_pool3/3x3_s2_0_split_2
I1215 11:15:02.422333 17832 net.cpp:338] inception_4a/5x5_reduce -> inception_4a/5x5_reduce
I1215 11:15:02.422343 17832 net.cpp:113] Setting up inception_4a/5x5_reduce
I1215 11:15:02.422852 17832 net.cpp:120] Top shape: 128 16 14 14 (401408)
I1215 11:15:02.422869 17832 layer_factory.hpp:74] Creating layer inception_4a/relu_5x5_reduce
I1215 11:15:02.422878 17832 net.cpp:84] Creating Layer inception_4a/relu_5x5_reduce
I1215 11:15:02.422883 17832 net.cpp:380] inception_4a/relu_5x5_reduce <- inception_4a/5x5_reduce
I1215 11:15:02.422891 17832 net.cpp:327] inception_4a/relu_5x5_reduce -> inception_4a/5x5_reduce (in-place)
I1215 11:15:02.422899 17832 net.cpp:113] Setting up inception_4a/relu_5x5_reduce
I1215 11:15:02.422969 17832 net.cpp:120] Top shape: 128 16 14 14 (401408)
I1215 11:15:02.422976 17832 layer_factory.hpp:74] Creating layer inception_4a/5x5
I1215 11:15:02.422983 17832 net.cpp:84] Creating Layer inception_4a/5x5
I1215 11:15:02.422988 17832 net.cpp:380] inception_4a/5x5 <- inception_4a/5x5_reduce
I1215 11:15:02.422997 17832 net.cpp:338] inception_4a/5x5 -> inception_4a/5x5
I1215 11:15:02.423005 17832 net.cpp:113] Setting up inception_4a/5x5
I1215 11:15:02.423648 17832 net.cpp:120] Top shape: 128 48 14 14 (1204224)
I1215 11:15:02.423665 17832 layer_factory.hpp:74] Creating layer inception_4a/relu_5x5
I1215 11:15:02.423673 17832 net.cpp:84] Creating Layer inception_4a/relu_5x5
I1215 11:15:02.423678 17832 net.cpp:380] inception_4a/relu_5x5 <- inception_4a/5x5
I1215 11:15:02.423687 17832 net.cpp:327] inception_4a/relu_5x5 -> inception_4a/5x5 (in-place)
I1215 11:15:02.423696 17832 net.cpp:113] Setting up inception_4a/relu_5x5
I1215 11:15:02.423951 17832 net.cpp:120] Top shape: 128 48 14 14 (1204224)
I1215 11:15:02.423964 17832 layer_factory.hpp:74] Creating layer inception_4a/pool
I1215 11:15:02.423969 17832 layer_factory.cpp:56] CUDNN does not support padding or multiple tops. Using Caffe's own pooling layer.
I1215 11:15:02.423975 17832 net.cpp:84] Creating Layer inception_4a/pool
I1215 11:15:02.423980 17832 net.cpp:380] inception_4a/pool <- pool3/3x3_s2_pool3/3x3_s2_0_split_3
I1215 11:15:02.423987 17832 net.cpp:338] inception_4a/pool -> inception_4a/pool
I1215 11:15:02.424002 17832 net.cpp:113] Setting up inception_4a/pool
I1215 11:15:02.424020 17832 net.cpp:120] Top shape: 128 480 14 14 (12042240)
I1215 11:15:02.424024 17832 layer_factory.hpp:74] Creating layer inception_4a/pool_proj
I1215 11:15:02.424036 17832 net.cpp:84] Creating Layer inception_4a/pool_proj
I1215 11:15:02.424041 17832 net.cpp:380] inception_4a/pool_proj <- inception_4a/pool
I1215 11:15:02.424051 17832 net.cpp:338] inception_4a/pool_proj -> inception_4a/pool_proj
I1215 11:15:02.424058 17832 net.cpp:113] Setting up inception_4a/pool_proj
I1215 11:15:02.424839 17832 net.cpp:120] Top shape: 128 64 14 14 (1605632)
I1215 11:15:02.424854 17832 layer_factory.hpp:74] Creating layer inception_4a/relu_pool_proj
I1215 11:15:02.424865 17832 net.cpp:84] Creating Layer inception_4a/relu_pool_proj
I1215 11:15:02.424871 17832 net.cpp:380] inception_4a/relu_pool_proj <- inception_4a/pool_proj
I1215 11:15:02.424878 17832 net.cpp:327] inception_4a/relu_pool_proj -> inception_4a/pool_proj (in-place)
I1215 11:15:02.424886 17832 net.cpp:113] Setting up inception_4a/relu_pool_proj
I1215 11:15:02.424957 17832 net.cpp:120] Top shape: 128 64 14 14 (1605632)
I1215 11:15:02.424963 17832 layer_factory.hpp:74] Creating layer inception_4a/output
I1215 11:15:02.424971 17832 net.cpp:84] Creating Layer inception_4a/output
I1215 11:15:02.424976 17832 net.cpp:380] inception_4a/output <- inception_4a/1x1
I1215 11:15:02.424983 17832 net.cpp:380] inception_4a/output <- inception_4a/3x3
I1215 11:15:02.424988 17832 net.cpp:380] inception_4a/output <- inception_4a/5x5
I1215 11:15:02.424993 17832 net.cpp:380] inception_4a/output <- inception_4a/pool_proj
I1215 11:15:02.425000 17832 net.cpp:338] inception_4a/output -> inception_4a/output
I1215 11:15:02.425009 17832 net.cpp:113] Setting up inception_4a/output
I1215 11:15:02.425016 17832 net.cpp:120] Top shape: 128 512 14 14 (12845056)
I1215 11:15:02.425021 17832 layer_factory.hpp:74] Creating layer inception_4a/output_inception_4a/output_0_split
I1215 11:15:02.425027 17832 net.cpp:84] Creating Layer inception_4a/output_inception_4a/output_0_split
I1215 11:15:02.425031 17832 net.cpp:380] inception_4a/output_inception_4a/output_0_split <- inception_4a/output
I1215 11:15:02.425039 17832 net.cpp:338] inception_4a/output_inception_4a/output_0_split -> inception_4a/output_inception_4a/output_0_split_0
I1215 11:15:02.425048 17832 net.cpp:338] inception_4a/output_inception_4a/output_0_split -> inception_4a/output_inception_4a/output_0_split_1
I1215 11:15:02.425062 17832 net.cpp:338] inception_4a/output_inception_4a/output_0_split -> inception_4a/output_inception_4a/output_0_split_2
I1215 11:15:02.425072 17832 net.cpp:338] inception_4a/output_inception_4a/output_0_split -> inception_4a/output_inception_4a/output_0_split_3
I1215 11:15:02.425079 17832 net.cpp:338] inception_4a/output_inception_4a/output_0_split -> inception_4a/output_inception_4a/output_0_split_4
I1215 11:15:02.425086 17832 net.cpp:113] Setting up inception_4a/output_inception_4a/output_0_split
I1215 11:15:02.425093 17832 net.cpp:120] Top shape: 128 512 14 14 (12845056)
I1215 11:15:02.425098 17832 net.cpp:120] Top shape: 128 512 14 14 (12845056)
I1215 11:15:02.425104 17832 net.cpp:120] Top shape: 128 512 14 14 (12845056)
I1215 11:15:02.425108 17832 net.cpp:120] Top shape: 128 512 14 14 (12845056)
I1215 11:15:02.425113 17832 net.cpp:120] Top shape: 128 512 14 14 (12845056)
I1215 11:15:02.425118 17832 layer_factory.hpp:74] Creating layer loss1/ave_pool
I1215 11:15:02.425127 17832 net.cpp:84] Creating Layer loss1/ave_pool
I1215 11:15:02.425132 17832 net.cpp:380] loss1/ave_pool <- inception_4a/output_inception_4a/output_0_split_0
I1215 11:15:02.425139 17832 net.cpp:338] loss1/ave_pool -> loss1/ave_pool
I1215 11:15:02.425145 17832 net.cpp:113] Setting up loss1/ave_pool
I1215 11:15:02.425215 17832 net.cpp:120] Top shape: 128 512 4 4 (1048576)
I1215 11:15:02.425221 17832 layer_factory.hpp:74] Creating layer loss1/conv
I1215 11:15:02.425231 17832 net.cpp:84] Creating Layer loss1/conv
I1215 11:15:02.425236 17832 net.cpp:380] loss1/conv <- loss1/ave_pool
I1215 11:15:02.425252 17832 net.cpp:338] loss1/conv -> loss1/conv
I1215 11:15:02.425271 17832 net.cpp:113] Setting up loss1/conv
I1215 11:15:02.426857 17832 net.cpp:120] Top shape: 128 128 4 4 (262144)
I1215 11:15:02.426877 17832 layer_factory.hpp:74] Creating layer loss1/relu_conv
I1215 11:15:02.426888 17832 net.cpp:84] Creating Layer loss1/relu_conv
I1215 11:15:02.426894 17832 net.cpp:380] loss1/relu_conv <- loss1/conv
I1215 11:15:02.426901 17832 net.cpp:327] loss1/relu_conv -> loss1/conv (in-place)
I1215 11:15:02.426908 17832 net.cpp:113] Setting up loss1/relu_conv
I1215 11:15:02.426981 17832 net.cpp:120] Top shape: 128 128 4 4 (262144)
I1215 11:15:02.426987 17832 layer_factory.hpp:74] Creating layer loss1/fc
I1215 11:15:02.427000 17832 net.cpp:84] Creating Layer loss1/fc
I1215 11:15:02.427005 17832 net.cpp:380] loss1/fc <- loss1/conv
I1215 11:15:02.427016 17832 net.cpp:338] loss1/fc -> loss1/fc
I1215 11:15:02.427026 17832 net.cpp:113] Setting up loss1/fc
I1215 11:15:02.450496 17832 net.cpp:120] Top shape: 128 1024 (131072)
I1215 11:15:02.450530 17832 layer_factory.hpp:74] Creating layer loss1/relu_fc
I1215 11:15:02.450541 17832 net.cpp:84] Creating Layer loss1/relu_fc
I1215 11:15:02.450547 17832 net.cpp:380] loss1/relu_fc <- loss1/fc
I1215 11:15:02.450558 17832 net.cpp:327] loss1/relu_fc -> loss1/fc (in-place)
I1215 11:15:02.450569 17832 net.cpp:113] Setting up loss1/relu_fc
I1215 11:15:02.450976 17832 net.cpp:120] Top shape: 128 1024 (131072)
I1215 11:15:02.450990 17832 layer_factory.hpp:74] Creating layer loss1/drop_fc
I1215 11:15:02.451014 17832 net.cpp:84] Creating Layer loss1/drop_fc
I1215 11:15:02.451020 17832 net.cpp:380] loss1/drop_fc <- loss1/fc
I1215 11:15:02.451026 17832 net.cpp:327] loss1/drop_fc -> loss1/fc (in-place)
I1215 11:15:02.451036 17832 net.cpp:113] Setting up loss1/drop_fc
I1215 11:15:02.451046 17832 net.cpp:120] Top shape: 128 1024 (131072)
I1215 11:15:02.451052 17832 layer_factory.hpp:74] Creating layer loss1/classifier_kaggle
I1215 11:15:02.451062 17832 net.cpp:84] Creating Layer loss1/classifier_kaggle
I1215 11:15:02.451067 17832 net.cpp:380] loss1/classifier_kaggle <- loss1/fc
I1215 11:15:02.451077 17832 net.cpp:338] loss1/classifier_kaggle -> loss1/classifier_kaggle
I1215 11:15:02.451087 17832 net.cpp:113] Setting up loss1/classifier_kaggle
I1215 11:15:02.456387 17832 net.cpp:120] Top shape: 128 447 (57216)
I1215 11:15:02.456400 17832 layer_factory.hpp:74] Creating layer loss1/loss
I1215 11:15:02.456410 17832 net.cpp:84] Creating Layer loss1/loss
I1215 11:15:02.456416 17832 net.cpp:380] loss1/loss <- loss1/classifier_kaggle
I1215 11:15:02.456423 17832 net.cpp:380] loss1/loss <- label_data_1_split_0
I1215 11:15:02.456429 17832 net.cpp:338] loss1/loss -> loss1/loss1
I1215 11:15:02.456439 17832 net.cpp:113] Setting up loss1/loss
I1215 11:15:02.456447 17832 layer_factory.hpp:74] Creating layer loss1/loss
I1215 11:15:02.456665 17832 net.cpp:120] Top shape: (1)
I1215 11:15:02.456673 17832 net.cpp:122]     with loss weight 0.3
I1215 11:15:02.456691 17832 layer_factory.hpp:74] Creating layer inception_4b/1x1
I1215 11:15:02.456704 17832 net.cpp:84] Creating Layer inception_4b/1x1
I1215 11:15:02.456712 17832 net.cpp:380] inception_4b/1x1 <- inception_4a/output_inception_4a/output_0_split_1
I1215 11:15:02.456719 17832 net.cpp:338] inception_4b/1x1 -> inception_4b/1x1
I1215 11:15:02.456728 17832 net.cpp:113] Setting up inception_4b/1x1
I1215 11:15:02.458134 17832 net.cpp:120] Top shape: 128 160 14 14 (4014080)
I1215 11:15:02.458151 17832 layer_factory.hpp:74] Creating layer inception_4b/relu_1x1
I1215 11:15:02.458161 17832 net.cpp:84] Creating Layer inception_4b/relu_1x1
I1215 11:15:02.458166 17832 net.cpp:380] inception_4b/relu_1x1 <- inception_4b/1x1
I1215 11:15:02.458175 17832 net.cpp:327] inception_4b/relu_1x1 -> inception_4b/1x1 (in-place)
I1215 11:15:02.458184 17832 net.cpp:113] Setting up inception_4b/relu_1x1
I1215 11:15:02.458256 17832 net.cpp:120] Top shape: 128 160 14 14 (4014080)
I1215 11:15:02.458262 17832 layer_factory.hpp:74] Creating layer inception_4b/3x3_reduce
I1215 11:15:02.458281 17832 net.cpp:84] Creating Layer inception_4b/3x3_reduce
I1215 11:15:02.458297 17832 net.cpp:380] inception_4b/3x3_reduce <- inception_4a/output_inception_4a/output_0_split_2
I1215 11:15:02.458307 17832 net.cpp:338] inception_4b/3x3_reduce -> inception_4b/3x3_reduce
I1215 11:15:02.458317 17832 net.cpp:113] Setting up inception_4b/3x3_reduce
I1215 11:15:02.459408 17832 net.cpp:120] Top shape: 128 112 14 14 (2809856)
I1215 11:15:02.459424 17832 layer_factory.hpp:74] Creating layer inception_4b/relu_3x3_reduce
I1215 11:15:02.459431 17832 net.cpp:84] Creating Layer inception_4b/relu_3x3_reduce
I1215 11:15:02.459437 17832 net.cpp:380] inception_4b/relu_3x3_reduce <- inception_4b/3x3_reduce
I1215 11:15:02.459444 17832 net.cpp:327] inception_4b/relu_3x3_reduce -> inception_4b/3x3_reduce (in-place)
I1215 11:15:02.459451 17832 net.cpp:113] Setting up inception_4b/relu_3x3_reduce
I1215 11:15:02.459520 17832 net.cpp:120] Top shape: 128 112 14 14 (2809856)
I1215 11:15:02.459527 17832 layer_factory.hpp:74] Creating layer inception_4b/3x3
I1215 11:15:02.459534 17832 net.cpp:84] Creating Layer inception_4b/3x3
I1215 11:15:02.459539 17832 net.cpp:380] inception_4b/3x3 <- inception_4b/3x3_reduce
I1215 11:15:02.459547 17832 net.cpp:338] inception_4b/3x3 -> inception_4b/3x3
I1215 11:15:02.459556 17832 net.cpp:113] Setting up inception_4b/3x3
I1215 11:15:02.463901 17832 net.cpp:120] Top shape: 128 224 14 14 (5619712)
I1215 11:15:02.463918 17832 layer_factory.hpp:74] Creating layer inception_4b/relu_3x3
I1215 11:15:02.463927 17832 net.cpp:84] Creating Layer inception_4b/relu_3x3
I1215 11:15:02.463932 17832 net.cpp:380] inception_4b/relu_3x3 <- inception_4b/3x3
I1215 11:15:02.463940 17832 net.cpp:327] inception_4b/relu_3x3 -> inception_4b/3x3 (in-place)
I1215 11:15:02.463948 17832 net.cpp:113] Setting up inception_4b/relu_3x3
I1215 11:15:02.464205 17832 net.cpp:120] Top shape: 128 224 14 14 (5619712)
I1215 11:15:02.464217 17832 layer_factory.hpp:74] Creating layer inception_4b/5x5_reduce
I1215 11:15:02.464229 17832 net.cpp:84] Creating Layer inception_4b/5x5_reduce
I1215 11:15:02.464234 17832 net.cpp:380] inception_4b/5x5_reduce <- inception_4a/output_inception_4a/output_0_split_3
I1215 11:15:02.464242 17832 net.cpp:338] inception_4b/5x5_reduce -> inception_4b/5x5_reduce
I1215 11:15:02.464251 17832 net.cpp:113] Setting up inception_4b/5x5_reduce
I1215 11:15:02.464838 17832 net.cpp:120] Top shape: 128 24 14 14 (602112)
I1215 11:15:02.464854 17832 layer_factory.hpp:74] Creating layer inception_4b/relu_5x5_reduce
I1215 11:15:02.464862 17832 net.cpp:84] Creating Layer inception_4b/relu_5x5_reduce
I1215 11:15:02.464867 17832 net.cpp:380] inception_4b/relu_5x5_reduce <- inception_4b/5x5_reduce
I1215 11:15:02.464874 17832 net.cpp:327] inception_4b/relu_5x5_reduce -> inception_4b/5x5_reduce (in-place)
I1215 11:15:02.464881 17832 net.cpp:113] Setting up inception_4b/relu_5x5_reduce
I1215 11:15:02.464951 17832 net.cpp:120] Top shape: 128 24 14 14 (602112)
I1215 11:15:02.464961 17832 layer_factory.hpp:74] Creating layer inception_4b/5x5
I1215 11:15:02.464970 17832 net.cpp:84] Creating Layer inception_4b/5x5
I1215 11:15:02.464975 17832 net.cpp:380] inception_4b/5x5 <- inception_4b/5x5_reduce
I1215 11:15:02.464982 17832 net.cpp:338] inception_4b/5x5 -> inception_4b/5x5
I1215 11:15:02.464990 17832 net.cpp:113] Setting up inception_4b/5x5
I1215 11:15:02.465865 17832 net.cpp:120] Top shape: 128 64 14 14 (1605632)
I1215 11:15:02.465883 17832 layer_factory.hpp:74] Creating layer inception_4b/relu_5x5
I1215 11:15:02.465891 17832 net.cpp:84] Creating Layer inception_4b/relu_5x5
I1215 11:15:02.465898 17832 net.cpp:380] inception_4b/relu_5x5 <- inception_4b/5x5
I1215 11:15:02.465903 17832 net.cpp:327] inception_4b/relu_5x5 -> inception_4b/5x5 (in-place)
I1215 11:15:02.465911 17832 net.cpp:113] Setting up inception_4b/relu_5x5
I1215 11:15:02.465981 17832 net.cpp:120] Top shape: 128 64 14 14 (1605632)
I1215 11:15:02.465988 17832 layer_factory.hpp:74] Creating layer inception_4b/pool
I1215 11:15:02.465994 17832 layer_factory.cpp:56] CUDNN does not support padding or multiple tops. Using Caffe's own pooling layer.
I1215 11:15:02.466013 17832 net.cpp:84] Creating Layer inception_4b/pool
I1215 11:15:02.466019 17832 net.cpp:380] inception_4b/pool <- inception_4a/output_inception_4a/output_0_split_4
I1215 11:15:02.466029 17832 net.cpp:338] inception_4b/pool -> inception_4b/pool
I1215 11:15:02.466047 17832 net.cpp:113] Setting up inception_4b/pool
I1215 11:15:02.466058 17832 net.cpp:120] Top shape: 128 512 14 14 (12845056)
I1215 11:15:02.466063 17832 layer_factory.hpp:74] Creating layer inception_4b/pool_proj
I1215 11:15:02.466073 17832 net.cpp:84] Creating Layer inception_4b/pool_proj
I1215 11:15:02.466080 17832 net.cpp:380] inception_4b/pool_proj <- inception_4b/pool
I1215 11:15:02.466089 17832 net.cpp:338] inception_4b/pool_proj -> inception_4b/pool_proj
I1215 11:15:02.466099 17832 net.cpp:113] Setting up inception_4b/pool_proj
I1215 11:15:02.466913 17832 net.cpp:120] Top shape: 128 64 14 14 (1605632)
I1215 11:15:02.466929 17832 layer_factory.hpp:74] Creating layer inception_4b/relu_pool_proj
I1215 11:15:02.466938 17832 net.cpp:84] Creating Layer inception_4b/relu_pool_proj
I1215 11:15:02.466943 17832 net.cpp:380] inception_4b/relu_pool_proj <- inception_4b/pool_proj
I1215 11:15:02.466950 17832 net.cpp:327] inception_4b/relu_pool_proj -> inception_4b/pool_proj (in-place)
I1215 11:15:02.466958 17832 net.cpp:113] Setting up inception_4b/relu_pool_proj
I1215 11:15:02.467214 17832 net.cpp:120] Top shape: 128 64 14 14 (1605632)
I1215 11:15:02.467226 17832 layer_factory.hpp:74] Creating layer inception_4b/output
I1215 11:15:02.467233 17832 net.cpp:84] Creating Layer inception_4b/output
I1215 11:15:02.467238 17832 net.cpp:380] inception_4b/output <- inception_4b/1x1
I1215 11:15:02.467244 17832 net.cpp:380] inception_4b/output <- inception_4b/3x3
I1215 11:15:02.467249 17832 net.cpp:380] inception_4b/output <- inception_4b/5x5
I1215 11:15:02.467255 17832 net.cpp:380] inception_4b/output <- inception_4b/pool_proj
I1215 11:15:02.467262 17832 net.cpp:338] inception_4b/output -> inception_4b/output
I1215 11:15:02.467269 17832 net.cpp:113] Setting up inception_4b/output
I1215 11:15:02.467278 17832 net.cpp:120] Top shape: 128 512 14 14 (12845056)
I1215 11:15:02.467283 17832 layer_factory.hpp:74] Creating layer inception_4b/output_inception_4b/output_0_split
I1215 11:15:02.467291 17832 net.cpp:84] Creating Layer inception_4b/output_inception_4b/output_0_split
I1215 11:15:02.467296 17832 net.cpp:380] inception_4b/output_inception_4b/output_0_split <- inception_4b/output
I1215 11:15:02.467303 17832 net.cpp:338] inception_4b/output_inception_4b/output_0_split -> inception_4b/output_inception_4b/output_0_split_0
I1215 11:15:02.467311 17832 net.cpp:338] inception_4b/output_inception_4b/output_0_split -> inception_4b/output_inception_4b/output_0_split_1
I1215 11:15:02.467319 17832 net.cpp:338] inception_4b/output_inception_4b/output_0_split -> inception_4b/output_inception_4b/output_0_split_2
I1215 11:15:02.467329 17832 net.cpp:338] inception_4b/output_inception_4b/output_0_split -> inception_4b/output_inception_4b/output_0_split_3
I1215 11:15:02.467334 17832 net.cpp:113] Setting up inception_4b/output_inception_4b/output_0_split
I1215 11:15:02.467342 17832 net.cpp:120] Top shape: 128 512 14 14 (12845056)
I1215 11:15:02.467349 17832 net.cpp:120] Top shape: 128 512 14 14 (12845056)
I1215 11:15:02.467352 17832 net.cpp:120] Top shape: 128 512 14 14 (12845056)
I1215 11:15:02.467357 17832 net.cpp:120] Top shape: 128 512 14 14 (12845056)
I1215 11:15:02.467363 17832 layer_factory.hpp:74] Creating layer inception_4c/1x1
I1215 11:15:02.467371 17832 net.cpp:84] Creating Layer inception_4c/1x1
I1215 11:15:02.467375 17832 net.cpp:380] inception_4c/1x1 <- inception_4b/output_inception_4b/output_0_split_0
I1215 11:15:02.467383 17832 net.cpp:338] inception_4c/1x1 -> inception_4c/1x1
I1215 11:15:02.467391 17832 net.cpp:113] Setting up inception_4c/1x1
I1215 11:15:02.469025 17832 net.cpp:120] Top shape: 128 128 14 14 (3211264)
I1215 11:15:02.469046 17832 layer_factory.hpp:74] Creating layer inception_4c/relu_1x1
I1215 11:15:02.469077 17832 net.cpp:84] Creating Layer inception_4c/relu_1x1
I1215 11:15:02.469095 17832 net.cpp:380] inception_4c/relu_1x1 <- inception_4c/1x1
I1215 11:15:02.469105 17832 net.cpp:327] inception_4c/relu_1x1 -> inception_4c/1x1 (in-place)
I1215 11:15:02.469115 17832 net.cpp:113] Setting up inception_4c/relu_1x1
I1215 11:15:02.469209 17832 net.cpp:120] Top shape: 128 128 14 14 (3211264)
I1215 11:15:02.469218 17832 layer_factory.hpp:74] Creating layer inception_4c/3x3_reduce
I1215 11:15:02.469230 17832 net.cpp:84] Creating Layer inception_4c/3x3_reduce
I1215 11:15:02.469238 17832 net.cpp:380] inception_4c/3x3_reduce <- inception_4b/output_inception_4b/output_0_split_1
I1215 11:15:02.469249 17832 net.cpp:338] inception_4c/3x3_reduce -> inception_4c/3x3_reduce
I1215 11:15:02.469260 17832 net.cpp:113] Setting up inception_4c/3x3_reduce
I1215 11:15:02.470479 17832 net.cpp:120] Top shape: 128 128 14 14 (3211264)
I1215 11:15:02.470496 17832 layer_factory.hpp:74] Creating layer inception_4c/relu_3x3_reduce
I1215 11:15:02.470504 17832 net.cpp:84] Creating Layer inception_4c/relu_3x3_reduce
I1215 11:15:02.470510 17832 net.cpp:380] inception_4c/relu_3x3_reduce <- inception_4c/3x3_reduce
I1215 11:15:02.470516 17832 net.cpp:327] inception_4c/relu_3x3_reduce -> inception_4c/3x3_reduce (in-place)
I1215 11:15:02.470525 17832 net.cpp:113] Setting up inception_4c/relu_3x3_reduce
I1215 11:15:02.470594 17832 net.cpp:120] Top shape: 128 128 14 14 (3211264)
I1215 11:15:02.470600 17832 layer_factory.hpp:74] Creating layer inception_4c/3x3
I1215 11:15:02.470609 17832 net.cpp:84] Creating Layer inception_4c/3x3
I1215 11:15:02.470614 17832 net.cpp:380] inception_4c/3x3 <- inception_4c/3x3_reduce
I1215 11:15:02.470623 17832 net.cpp:338] inception_4c/3x3 -> inception_4c/3x3
I1215 11:15:02.470631 17832 net.cpp:113] Setting up inception_4c/3x3
I1215 11:15:02.474467 17832 net.cpp:120] Top shape: 128 256 14 14 (6422528)
I1215 11:15:02.474496 17832 layer_factory.hpp:74] Creating layer inception_4c/relu_3x3
I1215 11:15:02.474505 17832 net.cpp:84] Creating Layer inception_4c/relu_3x3
I1215 11:15:02.474511 17832 net.cpp:380] inception_4c/relu_3x3 <- inception_4c/3x3
I1215 11:15:02.474519 17832 net.cpp:327] inception_4c/relu_3x3 -> inception_4c/3x3 (in-place)
I1215 11:15:02.474526 17832 net.cpp:113] Setting up inception_4c/relu_3x3
I1215 11:15:02.474597 17832 net.cpp:120] Top shape: 128 256 14 14 (6422528)
I1215 11:15:02.474606 17832 layer_factory.hpp:74] Creating layer inception_4c/5x5_reduce
I1215 11:15:02.474613 17832 net.cpp:84] Creating Layer inception_4c/5x5_reduce
I1215 11:15:02.474620 17832 net.cpp:380] inception_4c/5x5_reduce <- inception_4b/output_inception_4b/output_0_split_2
I1215 11:15:02.474628 17832 net.cpp:338] inception_4c/5x5_reduce -> inception_4c/5x5_reduce
I1215 11:15:02.474637 17832 net.cpp:113] Setting up inception_4c/5x5_reduce
I1215 11:15:02.475198 17832 net.cpp:120] Top shape: 128 24 14 14 (602112)
I1215 11:15:02.475214 17832 layer_factory.hpp:74] Creating layer inception_4c/relu_5x5_reduce
I1215 11:15:02.475224 17832 net.cpp:84] Creating Layer inception_4c/relu_5x5_reduce
I1215 11:15:02.475229 17832 net.cpp:380] inception_4c/relu_5x5_reduce <- inception_4c/5x5_reduce
I1215 11:15:02.475235 17832 net.cpp:327] inception_4c/relu_5x5_reduce -> inception_4c/5x5_reduce (in-place)
I1215 11:15:02.475244 17832 net.cpp:113] Setting up inception_4c/relu_5x5_reduce
I1215 11:15:02.475499 17832 net.cpp:120] Top shape: 128 24 14 14 (602112)
I1215 11:15:02.475512 17832 layer_factory.hpp:74] Creating layer inception_4c/5x5
I1215 11:15:02.475523 17832 net.cpp:84] Creating Layer inception_4c/5x5
I1215 11:15:02.475529 17832 net.cpp:380] inception_4c/5x5 <- inception_4c/5x5_reduce
I1215 11:15:02.475536 17832 net.cpp:338] inception_4c/5x5 -> inception_4c/5x5
I1215 11:15:02.475545 17832 net.cpp:113] Setting up inception_4c/5x5
I1215 11:15:02.476411 17832 net.cpp:120] Top shape: 128 64 14 14 (1605632)
I1215 11:15:02.476428 17832 layer_factory.hpp:74] Creating layer inception_4c/relu_5x5
I1215 11:15:02.476435 17832 net.cpp:84] Creating Layer inception_4c/relu_5x5
I1215 11:15:02.476446 17832 net.cpp:380] inception_4c/relu_5x5 <- inception_4c/5x5
I1215 11:15:02.476462 17832 net.cpp:327] inception_4c/relu_5x5 -> inception_4c/5x5 (in-place)
I1215 11:15:02.476474 17832 net.cpp:113] Setting up inception_4c/relu_5x5
I1215 11:15:02.476550 17832 net.cpp:120] Top shape: 128 64 14 14 (1605632)
I1215 11:15:02.476557 17832 layer_factory.hpp:74] Creating layer inception_4c/pool
I1215 11:15:02.476563 17832 layer_factory.cpp:56] CUDNN does not support padding or multiple tops. Using Caffe's own pooling layer.
I1215 11:15:02.476569 17832 net.cpp:84] Creating Layer inception_4c/pool
I1215 11:15:02.476574 17832 net.cpp:380] inception_4c/pool <- inception_4b/output_inception_4b/output_0_split_3
I1215 11:15:02.476582 17832 net.cpp:338] inception_4c/pool -> inception_4c/pool
I1215 11:15:02.476589 17832 net.cpp:113] Setting up inception_4c/pool
I1215 11:15:02.476598 17832 net.cpp:120] Top shape: 128 512 14 14 (12845056)
I1215 11:15:02.476603 17832 layer_factory.hpp:74] Creating layer inception_4c/pool_proj
I1215 11:15:02.476613 17832 net.cpp:84] Creating Layer inception_4c/pool_proj
I1215 11:15:02.476618 17832 net.cpp:380] inception_4c/pool_proj <- inception_4c/pool
I1215 11:15:02.476626 17832 net.cpp:338] inception_4c/pool_proj -> inception_4c/pool_proj
I1215 11:15:02.476634 17832 net.cpp:113] Setting up inception_4c/pool_proj
I1215 11:15:02.477447 17832 net.cpp:120] Top shape: 128 64 14 14 (1605632)
I1215 11:15:02.477464 17832 layer_factory.hpp:74] Creating layer inception_4c/relu_pool_proj
I1215 11:15:02.477475 17832 net.cpp:84] Creating Layer inception_4c/relu_pool_proj
I1215 11:15:02.477481 17832 net.cpp:380] inception_4c/relu_pool_proj <- inception_4c/pool_proj
I1215 11:15:02.477488 17832 net.cpp:327] inception_4c/relu_pool_proj -> inception_4c/pool_proj (in-place)
I1215 11:15:02.477495 17832 net.cpp:113] Setting up inception_4c/relu_pool_proj
I1215 11:15:02.477568 17832 net.cpp:120] Top shape: 128 64 14 14 (1605632)
I1215 11:15:02.477576 17832 layer_factory.hpp:74] Creating layer inception_4c/output
I1215 11:15:02.477584 17832 net.cpp:84] Creating Layer inception_4c/output
I1215 11:15:02.477591 17832 net.cpp:380] inception_4c/output <- inception_4c/1x1
I1215 11:15:02.477596 17832 net.cpp:380] inception_4c/output <- inception_4c/3x3
I1215 11:15:02.477602 17832 net.cpp:380] inception_4c/output <- inception_4c/5x5
I1215 11:15:02.477607 17832 net.cpp:380] inception_4c/output <- inception_4c/pool_proj
I1215 11:15:02.477612 17832 net.cpp:338] inception_4c/output -> inception_4c/output
I1215 11:15:02.477619 17832 net.cpp:113] Setting up inception_4c/output
I1215 11:15:02.477627 17832 net.cpp:120] Top shape: 128 512 14 14 (12845056)
I1215 11:15:02.477632 17832 layer_factory.hpp:74] Creating layer inception_4c/output_inception_4c/output_0_split
I1215 11:15:02.477640 17832 net.cpp:84] Creating Layer inception_4c/output_inception_4c/output_0_split
I1215 11:15:02.477645 17832 net.cpp:380] inception_4c/output_inception_4c/output_0_split <- inception_4c/output
I1215 11:15:02.477651 17832 net.cpp:338] inception_4c/output_inception_4c/output_0_split -> inception_4c/output_inception_4c/output_0_split_0
I1215 11:15:02.477659 17832 net.cpp:338] inception_4c/output_inception_4c/output_0_split -> inception_4c/output_inception_4c/output_0_split_1
I1215 11:15:02.477668 17832 net.cpp:338] inception_4c/output_inception_4c/output_0_split -> inception_4c/output_inception_4c/output_0_split_2
I1215 11:15:02.477674 17832 net.cpp:338] inception_4c/output_inception_4c/output_0_split -> inception_4c/output_inception_4c/output_0_split_3
I1215 11:15:02.477680 17832 net.cpp:113] Setting up inception_4c/output_inception_4c/output_0_split
I1215 11:15:02.477689 17832 net.cpp:120] Top shape: 128 512 14 14 (12845056)
I1215 11:15:02.477694 17832 net.cpp:120] Top shape: 128 512 14 14 (12845056)
I1215 11:15:02.477699 17832 net.cpp:120] Top shape: 128 512 14 14 (12845056)
I1215 11:15:02.477704 17832 net.cpp:120] Top shape: 128 512 14 14 (12845056)
I1215 11:15:02.477707 17832 layer_factory.hpp:74] Creating layer inception_4d/1x1
I1215 11:15:02.477721 17832 net.cpp:84] Creating Layer inception_4d/1x1
I1215 11:15:02.477733 17832 net.cpp:380] inception_4d/1x1 <- inception_4c/output_inception_4c/output_0_split_0
I1215 11:15:02.477742 17832 net.cpp:338] inception_4d/1x1 -> inception_4d/1x1
I1215 11:15:02.477751 17832 net.cpp:113] Setting up inception_4d/1x1
I1215 11:15:02.478842 17832 net.cpp:120] Top shape: 128 112 14 14 (2809856)
I1215 11:15:02.478859 17832 layer_factory.hpp:74] Creating layer inception_4d/relu_1x1
I1215 11:15:02.478870 17832 net.cpp:84] Creating Layer inception_4d/relu_1x1
I1215 11:15:02.478876 17832 net.cpp:380] inception_4d/relu_1x1 <- inception_4d/1x1
I1215 11:15:02.478883 17832 net.cpp:327] inception_4d/relu_1x1 -> inception_4d/1x1 (in-place)
I1215 11:15:02.478891 17832 net.cpp:113] Setting up inception_4d/relu_1x1
I1215 11:15:02.478963 17832 net.cpp:120] Top shape: 128 112 14 14 (2809856)
I1215 11:15:02.478970 17832 layer_factory.hpp:74] Creating layer inception_4d/3x3_reduce
I1215 11:15:02.478981 17832 net.cpp:84] Creating Layer inception_4d/3x3_reduce
I1215 11:15:02.478986 17832 net.cpp:380] inception_4d/3x3_reduce <- inception_4c/output_inception_4c/output_0_split_1
I1215 11:15:02.478996 17832 net.cpp:338] inception_4d/3x3_reduce -> inception_4d/3x3_reduce
I1215 11:15:02.479004 17832 net.cpp:113] Setting up inception_4d/3x3_reduce
I1215 11:15:02.480511 17832 net.cpp:120] Top shape: 128 144 14 14 (3612672)
I1215 11:15:02.480530 17832 layer_factory.hpp:74] Creating layer inception_4d/relu_3x3_reduce
I1215 11:15:02.480538 17832 net.cpp:84] Creating Layer inception_4d/relu_3x3_reduce
I1215 11:15:02.480545 17832 net.cpp:380] inception_4d/relu_3x3_reduce <- inception_4d/3x3_reduce
I1215 11:15:02.480551 17832 net.cpp:327] inception_4d/relu_3x3_reduce -> inception_4d/3x3_reduce (in-place)
I1215 11:15:02.480558 17832 net.cpp:113] Setting up inception_4d/relu_3x3_reduce
I1215 11:15:02.481068 17832 net.cpp:120] Top shape: 128 144 14 14 (3612672)
I1215 11:15:02.481083 17832 layer_factory.hpp:74] Creating layer inception_4d/3x3
I1215 11:15:02.481094 17832 net.cpp:84] Creating Layer inception_4d/3x3
I1215 11:15:02.481101 17832 net.cpp:380] inception_4d/3x3 <- inception_4d/3x3_reduce
I1215 11:15:02.481108 17832 net.cpp:338] inception_4d/3x3 -> inception_4d/3x3
I1215 11:15:02.481117 17832 net.cpp:113] Setting up inception_4d/3x3
I1215 11:15:02.485846 17832 net.cpp:120] Top shape: 128 288 14 14 (7225344)
I1215 11:15:02.485862 17832 layer_factory.hpp:74] Creating layer inception_4d/relu_3x3
I1215 11:15:02.485872 17832 net.cpp:84] Creating Layer inception_4d/relu_3x3
I1215 11:15:02.485878 17832 net.cpp:380] inception_4d/relu_3x3 <- inception_4d/3x3
I1215 11:15:02.485888 17832 net.cpp:327] inception_4d/relu_3x3 -> inception_4d/3x3 (in-place)
I1215 11:15:02.485895 17832 net.cpp:113] Setting up inception_4d/relu_3x3
I1215 11:15:02.485963 17832 net.cpp:120] Top shape: 128 288 14 14 (7225344)
I1215 11:15:02.485970 17832 layer_factory.hpp:74] Creating layer inception_4d/5x5_reduce
I1215 11:15:02.485980 17832 net.cpp:84] Creating Layer inception_4d/5x5_reduce
I1215 11:15:02.485985 17832 net.cpp:380] inception_4d/5x5_reduce <- inception_4c/output_inception_4c/output_0_split_2
I1215 11:15:02.485994 17832 net.cpp:338] inception_4d/5x5_reduce -> inception_4d/5x5_reduce
I1215 11:15:02.486002 17832 net.cpp:113] Setting up inception_4d/5x5_reduce
I1215 11:15:02.486621 17832 net.cpp:120] Top shape: 128 32 14 14 (802816)
I1215 11:15:02.486637 17832 layer_factory.hpp:74] Creating layer inception_4d/relu_5x5_reduce
I1215 11:15:02.486646 17832 net.cpp:84] Creating Layer inception_4d/relu_5x5_reduce
I1215 11:15:02.486651 17832 net.cpp:380] inception_4d/relu_5x5_reduce <- inception_4d/5x5_reduce
I1215 11:15:02.486660 17832 net.cpp:327] inception_4d/relu_5x5_reduce -> inception_4d/5x5_reduce (in-place)
I1215 11:15:02.486668 17832 net.cpp:113] Setting up inception_4d/relu_5x5_reduce
I1215 11:15:02.486737 17832 net.cpp:120] Top shape: 128 32 14 14 (802816)
I1215 11:15:02.486743 17832 layer_factory.hpp:74] Creating layer inception_4d/5x5
I1215 11:15:02.486759 17832 net.cpp:84] Creating Layer inception_4d/5x5
I1215 11:15:02.486773 17832 net.cpp:380] inception_4d/5x5 <- inception_4d/5x5_reduce
I1215 11:15:02.486780 17832 net.cpp:338] inception_4d/5x5 -> inception_4d/5x5
I1215 11:15:02.486791 17832 net.cpp:113] Setting up inception_4d/5x5
I1215 11:15:02.490710 17832 net.cpp:120] Top shape: 128 64 14 14 (1605632)
I1215 11:15:02.490733 17832 layer_factory.hpp:74] Creating layer inception_4d/relu_5x5
I1215 11:15:02.490742 17832 net.cpp:84] Creating Layer inception_4d/relu_5x5
I1215 11:15:02.490748 17832 net.cpp:380] inception_4d/relu_5x5 <- inception_4d/5x5
I1215 11:15:02.490758 17832 net.cpp:327] inception_4d/relu_5x5 -> inception_4d/5x5 (in-place)
I1215 11:15:02.490767 17832 net.cpp:113] Setting up inception_4d/relu_5x5
I1215 11:15:02.490842 17832 net.cpp:120] Top shape: 128 64 14 14 (1605632)
I1215 11:15:02.490849 17832 layer_factory.hpp:74] Creating layer inception_4d/pool
I1215 11:15:02.490854 17832 layer_factory.cpp:56] CUDNN does not support padding or multiple tops. Using Caffe's own pooling layer.
I1215 11:15:02.490860 17832 net.cpp:84] Creating Layer inception_4d/pool
I1215 11:15:02.490866 17832 net.cpp:380] inception_4d/pool <- inception_4c/output_inception_4c/output_0_split_3
I1215 11:15:02.490874 17832 net.cpp:338] inception_4d/pool -> inception_4d/pool
I1215 11:15:02.490881 17832 net.cpp:113] Setting up inception_4d/pool
I1215 11:15:02.490893 17832 net.cpp:120] Top shape: 128 512 14 14 (12845056)
I1215 11:15:02.490898 17832 layer_factory.hpp:74] Creating layer inception_4d/pool_proj
I1215 11:15:02.490911 17832 net.cpp:84] Creating Layer inception_4d/pool_proj
I1215 11:15:02.490916 17832 net.cpp:380] inception_4d/pool_proj <- inception_4d/pool
I1215 11:15:02.490928 17832 net.cpp:338] inception_4d/pool_proj -> inception_4d/pool_proj
I1215 11:15:02.490937 17832 net.cpp:113] Setting up inception_4d/pool_proj
I1215 11:15:02.491758 17832 net.cpp:120] Top shape: 128 64 14 14 (1605632)
I1215 11:15:02.491776 17832 layer_factory.hpp:74] Creating layer inception_4d/relu_pool_proj
I1215 11:15:02.491786 17832 net.cpp:84] Creating Layer inception_4d/relu_pool_proj
I1215 11:15:02.491792 17832 net.cpp:380] inception_4d/relu_pool_proj <- inception_4d/pool_proj
I1215 11:15:02.491799 17832 net.cpp:327] inception_4d/relu_pool_proj -> inception_4d/pool_proj (in-place)
I1215 11:15:02.491807 17832 net.cpp:113] Setting up inception_4d/relu_pool_proj
I1215 11:15:02.492070 17832 net.cpp:120] Top shape: 128 64 14 14 (1605632)
I1215 11:15:02.492082 17832 layer_factory.hpp:74] Creating layer inception_4d/output
I1215 11:15:02.492089 17832 net.cpp:84] Creating Layer inception_4d/output
I1215 11:15:02.492094 17832 net.cpp:380] inception_4d/output <- inception_4d/1x1
I1215 11:15:02.492101 17832 net.cpp:380] inception_4d/output <- inception_4d/3x3
I1215 11:15:02.492112 17832 net.cpp:380] inception_4d/output <- inception_4d/5x5
I1215 11:15:02.492118 17832 net.cpp:380] inception_4d/output <- inception_4d/pool_proj
I1215 11:15:02.492125 17832 net.cpp:338] inception_4d/output -> inception_4d/output
I1215 11:15:02.492132 17832 net.cpp:113] Setting up inception_4d/output
I1215 11:15:02.492141 17832 net.cpp:120] Top shape: 128 528 14 14 (13246464)
I1215 11:15:02.492146 17832 layer_factory.hpp:74] Creating layer inception_4d/output_inception_4d/output_0_split
I1215 11:15:02.492152 17832 net.cpp:84] Creating Layer inception_4d/output_inception_4d/output_0_split
I1215 11:15:02.492157 17832 net.cpp:380] inception_4d/output_inception_4d/output_0_split <- inception_4d/output
I1215 11:15:02.492163 17832 net.cpp:338] inception_4d/output_inception_4d/output_0_split -> inception_4d/output_inception_4d/output_0_split_0
I1215 11:15:02.492172 17832 net.cpp:338] inception_4d/output_inception_4d/output_0_split -> inception_4d/output_inception_4d/output_0_split_1
I1215 11:15:02.492182 17832 net.cpp:338] inception_4d/output_inception_4d/output_0_split -> inception_4d/output_inception_4d/output_0_split_2
I1215 11:15:02.492190 17832 net.cpp:338] inception_4d/output_inception_4d/output_0_split -> inception_4d/output_inception_4d/output_0_split_3
I1215 11:15:02.492203 17832 net.cpp:338] inception_4d/output_inception_4d/output_0_split -> inception_4d/output_inception_4d/output_0_split_4
I1215 11:15:02.492224 17832 net.cpp:113] Setting up inception_4d/output_inception_4d/output_0_split
I1215 11:15:02.492233 17832 net.cpp:120] Top shape: 128 528 14 14 (13246464)
I1215 11:15:02.492238 17832 net.cpp:120] Top shape: 128 528 14 14 (13246464)
I1215 11:15:02.492244 17832 net.cpp:120] Top shape: 128 528 14 14 (13246464)
I1215 11:15:02.492249 17832 net.cpp:120] Top shape: 128 528 14 14 (13246464)
I1215 11:15:02.492254 17832 net.cpp:120] Top shape: 128 528 14 14 (13246464)
I1215 11:15:02.492257 17832 layer_factory.hpp:74] Creating layer loss2/ave_pool
I1215 11:15:02.492266 17832 net.cpp:84] Creating Layer loss2/ave_pool
I1215 11:15:02.492271 17832 net.cpp:380] loss2/ave_pool <- inception_4d/output_inception_4d/output_0_split_0
I1215 11:15:02.492279 17832 net.cpp:338] loss2/ave_pool -> loss2/ave_pool
I1215 11:15:02.492285 17832 net.cpp:113] Setting up loss2/ave_pool
I1215 11:15:02.492358 17832 net.cpp:120] Top shape: 128 528 4 4 (1081344)
I1215 11:15:02.492367 17832 layer_factory.hpp:74] Creating layer loss2/conv
I1215 11:15:02.492377 17832 net.cpp:84] Creating Layer loss2/conv
I1215 11:15:02.492383 17832 net.cpp:380] loss2/conv <- loss2/ave_pool
I1215 11:15:02.492389 17832 net.cpp:338] loss2/conv -> loss2/conv
I1215 11:15:02.492398 17832 net.cpp:113] Setting up loss2/conv
I1215 11:15:02.493630 17832 net.cpp:120] Top shape: 128 128 4 4 (262144)
I1215 11:15:02.493649 17832 layer_factory.hpp:74] Creating layer loss2/relu_conv
I1215 11:15:02.493655 17832 net.cpp:84] Creating Layer loss2/relu_conv
I1215 11:15:02.493661 17832 net.cpp:380] loss2/relu_conv <- loss2/conv
I1215 11:15:02.493670 17832 net.cpp:327] loss2/relu_conv -> loss2/conv (in-place)
I1215 11:15:02.493679 17832 net.cpp:113] Setting up loss2/relu_conv
I1215 11:15:02.493746 17832 net.cpp:120] Top shape: 128 128 4 4 (262144)
I1215 11:15:02.493753 17832 layer_factory.hpp:74] Creating layer loss2/fc
I1215 11:15:02.493762 17832 net.cpp:84] Creating Layer loss2/fc
I1215 11:15:02.493767 17832 net.cpp:380] loss2/fc <- loss2/conv
I1215 11:15:02.493777 17832 net.cpp:338] loss2/fc -> loss2/fc
I1215 11:15:02.493785 17832 net.cpp:113] Setting up loss2/fc
I1215 11:15:02.517484 17832 net.cpp:120] Top shape: 128 1024 (131072)
I1215 11:15:02.517516 17832 layer_factory.hpp:74] Creating layer loss2/relu_fc
I1215 11:15:02.517530 17832 net.cpp:84] Creating Layer loss2/relu_fc
I1215 11:15:02.517539 17832 net.cpp:380] loss2/relu_fc <- loss2/fc
I1215 11:15:02.517547 17832 net.cpp:327] loss2/relu_fc -> loss2/fc (in-place)
I1215 11:15:02.517557 17832 net.cpp:113] Setting up loss2/relu_fc
I1215 11:15:02.517992 17832 net.cpp:120] Top shape: 128 1024 (131072)
I1215 11:15:02.518004 17832 layer_factory.hpp:74] Creating layer loss2/drop_fc
I1215 11:15:02.518018 17832 net.cpp:84] Creating Layer loss2/drop_fc
I1215 11:15:02.518024 17832 net.cpp:380] loss2/drop_fc <- loss2/fc
I1215 11:15:02.518031 17832 net.cpp:327] loss2/drop_fc -> loss2/fc (in-place)
I1215 11:15:02.518038 17832 net.cpp:113] Setting up loss2/drop_fc
I1215 11:15:02.518049 17832 net.cpp:120] Top shape: 128 1024 (131072)
I1215 11:15:02.518054 17832 layer_factory.hpp:74] Creating layer loss2/classifier_kaggle
I1215 11:15:02.518064 17832 net.cpp:84] Creating Layer loss2/classifier_kaggle
I1215 11:15:02.518067 17832 net.cpp:380] loss2/classifier_kaggle <- loss2/fc
I1215 11:15:02.518075 17832 net.cpp:338] loss2/classifier_kaggle -> loss2/classifier_kaggle
I1215 11:15:02.518085 17832 net.cpp:113] Setting up loss2/classifier_kaggle
I1215 11:15:02.523367 17832 net.cpp:120] Top shape: 128 447 (57216)
I1215 11:15:02.523380 17832 layer_factory.hpp:74] Creating layer loss2/loss
I1215 11:15:02.523388 17832 net.cpp:84] Creating Layer loss2/loss
I1215 11:15:02.523394 17832 net.cpp:380] loss2/loss <- loss2/classifier_kaggle
I1215 11:15:02.523401 17832 net.cpp:380] loss2/loss <- label_data_1_split_1
I1215 11:15:02.523411 17832 net.cpp:338] loss2/loss -> loss2/loss1
I1215 11:15:02.523427 17832 net.cpp:113] Setting up loss2/loss
I1215 11:15:02.523447 17832 layer_factory.hpp:74] Creating layer loss2/loss
I1215 11:15:02.523684 17832 net.cpp:120] Top shape: (1)
I1215 11:15:02.523694 17832 net.cpp:122]     with loss weight 0.3
I1215 11:15:02.523706 17832 layer_factory.hpp:74] Creating layer inception_4e/1x1
I1215 11:15:02.523716 17832 net.cpp:84] Creating Layer inception_4e/1x1
I1215 11:15:02.523722 17832 net.cpp:380] inception_4e/1x1 <- inception_4d/output_inception_4d/output_0_split_1
I1215 11:15:02.523732 17832 net.cpp:338] inception_4e/1x1 -> inception_4e/1x1
I1215 11:15:02.523741 17832 net.cpp:113] Setting up inception_4e/1x1
I1215 11:15:02.525748 17832 net.cpp:120] Top shape: 128 256 14 14 (6422528)
I1215 11:15:02.525765 17832 layer_factory.hpp:74] Creating layer inception_4e/relu_1x1
I1215 11:15:02.525774 17832 net.cpp:84] Creating Layer inception_4e/relu_1x1
I1215 11:15:02.525780 17832 net.cpp:380] inception_4e/relu_1x1 <- inception_4e/1x1
I1215 11:15:02.525789 17832 net.cpp:327] inception_4e/relu_1x1 -> inception_4e/1x1 (in-place)
I1215 11:15:02.525797 17832 net.cpp:113] Setting up inception_4e/relu_1x1
I1215 11:15:02.525867 17832 net.cpp:120] Top shape: 128 256 14 14 (6422528)
I1215 11:15:02.525874 17832 layer_factory.hpp:74] Creating layer inception_4e/3x3_reduce
I1215 11:15:02.525884 17832 net.cpp:84] Creating Layer inception_4e/3x3_reduce
I1215 11:15:02.525889 17832 net.cpp:380] inception_4e/3x3_reduce <- inception_4d/output_inception_4d/output_0_split_2
I1215 11:15:02.525897 17832 net.cpp:338] inception_4e/3x3_reduce -> inception_4e/3x3_reduce
I1215 11:15:02.525905 17832 net.cpp:113] Setting up inception_4e/3x3_reduce
I1215 11:15:02.527302 17832 net.cpp:120] Top shape: 128 160 14 14 (4014080)
I1215 11:15:02.527318 17832 layer_factory.hpp:74] Creating layer inception_4e/relu_3x3_reduce
I1215 11:15:02.527328 17832 net.cpp:84] Creating Layer inception_4e/relu_3x3_reduce
I1215 11:15:02.527333 17832 net.cpp:380] inception_4e/relu_3x3_reduce <- inception_4e/3x3_reduce
I1215 11:15:02.527340 17832 net.cpp:327] inception_4e/relu_3x3_reduce -> inception_4e/3x3_reduce (in-place)
I1215 11:15:02.527348 17832 net.cpp:113] Setting up inception_4e/relu_3x3_reduce
I1215 11:15:02.527420 17832 net.cpp:120] Top shape: 128 160 14 14 (4014080)
I1215 11:15:02.527426 17832 layer_factory.hpp:74] Creating layer inception_4e/3x3
I1215 11:15:02.527436 17832 net.cpp:84] Creating Layer inception_4e/3x3
I1215 11:15:02.527441 17832 net.cpp:380] inception_4e/3x3 <- inception_4e/3x3_reduce
I1215 11:15:02.527449 17832 net.cpp:338] inception_4e/3x3 -> inception_4e/3x3
I1215 11:15:02.527457 17832 net.cpp:113] Setting up inception_4e/3x3
I1215 11:15:02.533210 17832 net.cpp:120] Top shape: 128 320 14 14 (8028160)
I1215 11:15:02.533226 17832 layer_factory.hpp:74] Creating layer inception_4e/relu_3x3
I1215 11:15:02.533236 17832 net.cpp:84] Creating Layer inception_4e/relu_3x3
I1215 11:15:02.533241 17832 net.cpp:380] inception_4e/relu_3x3 <- inception_4e/3x3
I1215 11:15:02.533251 17832 net.cpp:327] inception_4e/relu_3x3 -> inception_4e/3x3 (in-place)
I1215 11:15:02.533258 17832 net.cpp:113] Setting up inception_4e/relu_3x3
I1215 11:15:02.533517 17832 net.cpp:120] Top shape: 128 320 14 14 (8028160)
I1215 11:15:02.533529 17832 layer_factory.hpp:74] Creating layer inception_4e/5x5_reduce
I1215 11:15:02.533538 17832 net.cpp:84] Creating Layer inception_4e/5x5_reduce
I1215 11:15:02.533543 17832 net.cpp:380] inception_4e/5x5_reduce <- inception_4d/output_inception_4d/output_0_split_3
I1215 11:15:02.533552 17832 net.cpp:338] inception_4e/5x5_reduce -> inception_4e/5x5_reduce
I1215 11:15:02.533562 17832 net.cpp:113] Setting up inception_4e/5x5_reduce
I1215 11:15:02.534185 17832 net.cpp:120] Top shape: 128 32 14 14 (802816)
I1215 11:15:02.534203 17832 layer_factory.hpp:74] Creating layer inception_4e/relu_5x5_reduce
I1215 11:15:02.534211 17832 net.cpp:84] Creating Layer inception_4e/relu_5x5_reduce
I1215 11:15:02.534217 17832 net.cpp:380] inception_4e/relu_5x5_reduce <- inception_4e/5x5_reduce
I1215 11:15:02.534224 17832 net.cpp:327] inception_4e/relu_5x5_reduce -> inception_4e/5x5_reduce (in-place)
I1215 11:15:02.534245 17832 net.cpp:113] Setting up inception_4e/relu_5x5_reduce
I1215 11:15:02.534317 17832 net.cpp:120] Top shape: 128 32 14 14 (802816)
I1215 11:15:02.534323 17832 layer_factory.hpp:74] Creating layer inception_4e/5x5
I1215 11:15:02.534353 17832 net.cpp:84] Creating Layer inception_4e/5x5
I1215 11:15:02.534358 17832 net.cpp:380] inception_4e/5x5 <- inception_4e/5x5_reduce
I1215 11:15:02.534368 17832 net.cpp:338] inception_4e/5x5 -> inception_4e/5x5
I1215 11:15:02.534376 17832 net.cpp:113] Setting up inception_4e/5x5
I1215 11:15:02.535976 17832 net.cpp:120] Top shape: 128 128 14 14 (3211264)
I1215 11:15:02.535992 17832 layer_factory.hpp:74] Creating layer inception_4e/relu_5x5
I1215 11:15:02.536000 17832 net.cpp:84] Creating Layer inception_4e/relu_5x5
I1215 11:15:02.536005 17832 net.cpp:380] inception_4e/relu_5x5 <- inception_4e/5x5
I1215 11:15:02.536015 17832 net.cpp:327] inception_4e/relu_5x5 -> inception_4e/5x5 (in-place)
I1215 11:15:02.536022 17832 net.cpp:113] Setting up inception_4e/relu_5x5
I1215 11:15:02.536093 17832 net.cpp:120] Top shape: 128 128 14 14 (3211264)
I1215 11:15:02.536099 17832 layer_factory.hpp:74] Creating layer inception_4e/pool
I1215 11:15:02.536105 17832 layer_factory.cpp:56] CUDNN does not support padding or multiple tops. Using Caffe's own pooling layer.
I1215 11:15:02.536113 17832 net.cpp:84] Creating Layer inception_4e/pool
I1215 11:15:02.536118 17832 net.cpp:380] inception_4e/pool <- inception_4d/output_inception_4d/output_0_split_4
I1215 11:15:02.536124 17832 net.cpp:338] inception_4e/pool -> inception_4e/pool
I1215 11:15:02.536133 17832 net.cpp:113] Setting up inception_4e/pool
I1215 11:15:02.536141 17832 net.cpp:120] Top shape: 128 528 14 14 (13246464)
I1215 11:15:02.536147 17832 layer_factory.hpp:74] Creating layer inception_4e/pool_proj
I1215 11:15:02.536157 17832 net.cpp:84] Creating Layer inception_4e/pool_proj
I1215 11:15:02.536164 17832 net.cpp:380] inception_4e/pool_proj <- inception_4e/pool
I1215 11:15:02.536171 17832 net.cpp:338] inception_4e/pool_proj -> inception_4e/pool_proj
I1215 11:15:02.536180 17832 net.cpp:113] Setting up inception_4e/pool_proj
I1215 11:15:02.537391 17832 net.cpp:120] Top shape: 128 128 14 14 (3211264)
I1215 11:15:02.537408 17832 layer_factory.hpp:74] Creating layer inception_4e/relu_pool_proj
I1215 11:15:02.537420 17832 net.cpp:84] Creating Layer inception_4e/relu_pool_proj
I1215 11:15:02.537425 17832 net.cpp:380] inception_4e/relu_pool_proj <- inception_4e/pool_proj
I1215 11:15:02.537432 17832 net.cpp:327] inception_4e/relu_pool_proj -> inception_4e/pool_proj (in-place)
I1215 11:15:02.537439 17832 net.cpp:113] Setting up inception_4e/relu_pool_proj
I1215 11:15:02.537509 17832 net.cpp:120] Top shape: 128 128 14 14 (3211264)
I1215 11:15:02.537515 17832 layer_factory.hpp:74] Creating layer inception_4e/output
I1215 11:15:02.537525 17832 net.cpp:84] Creating Layer inception_4e/output
I1215 11:15:02.537530 17832 net.cpp:380] inception_4e/output <- inception_4e/1x1
I1215 11:15:02.537536 17832 net.cpp:380] inception_4e/output <- inception_4e/3x3
I1215 11:15:02.537541 17832 net.cpp:380] inception_4e/output <- inception_4e/5x5
I1215 11:15:02.537546 17832 net.cpp:380] inception_4e/output <- inception_4e/pool_proj
I1215 11:15:02.537552 17832 net.cpp:338] inception_4e/output -> inception_4e/output
I1215 11:15:02.537560 17832 net.cpp:113] Setting up inception_4e/output
I1215 11:15:02.537569 17832 net.cpp:120] Top shape: 128 832 14 14 (20873216)
I1215 11:15:02.537574 17832 layer_factory.hpp:74] Creating layer pool4/3x3_s2
I1215 11:15:02.537582 17832 net.cpp:84] Creating Layer pool4/3x3_s2
I1215 11:15:02.537588 17832 net.cpp:380] pool4/3x3_s2 <- inception_4e/output
I1215 11:15:02.537595 17832 net.cpp:338] pool4/3x3_s2 -> pool4/3x3_s2
I1215 11:15:02.537602 17832 net.cpp:113] Setting up pool4/3x3_s2
I1215 11:15:02.537865 17832 net.cpp:120] Top shape: 128 832 7 7 (5218304)
I1215 11:15:02.537876 17832 layer_factory.hpp:74] Creating layer pool4/3x3_s2_pool4/3x3_s2_0_split
I1215 11:15:02.537891 17832 net.cpp:84] Creating Layer pool4/3x3_s2_pool4/3x3_s2_0_split
I1215 11:15:02.537904 17832 net.cpp:380] pool4/3x3_s2_pool4/3x3_s2_0_split <- pool4/3x3_s2
I1215 11:15:02.537911 17832 net.cpp:338] pool4/3x3_s2_pool4/3x3_s2_0_split -> pool4/3x3_s2_pool4/3x3_s2_0_split_0
I1215 11:15:02.537921 17832 net.cpp:338] pool4/3x3_s2_pool4/3x3_s2_0_split -> pool4/3x3_s2_pool4/3x3_s2_0_split_1
I1215 11:15:02.537930 17832 net.cpp:338] pool4/3x3_s2_pool4/3x3_s2_0_split -> pool4/3x3_s2_pool4/3x3_s2_0_split_2
I1215 11:15:02.537936 17832 net.cpp:338] pool4/3x3_s2_pool4/3x3_s2_0_split -> pool4/3x3_s2_pool4/3x3_s2_0_split_3
I1215 11:15:02.537942 17832 net.cpp:113] Setting up pool4/3x3_s2_pool4/3x3_s2_0_split
I1215 11:15:02.537950 17832 net.cpp:120] Top shape: 128 832 7 7 (5218304)
I1215 11:15:02.537956 17832 net.cpp:120] Top shape: 128 832 7 7 (5218304)
I1215 11:15:02.537961 17832 net.cpp:120] Top shape: 128 832 7 7 (5218304)
I1215 11:15:02.537966 17832 net.cpp:120] Top shape: 128 832 7 7 (5218304)
I1215 11:15:02.537971 17832 layer_factory.hpp:74] Creating layer inception_5a/1x1
I1215 11:15:02.537979 17832 net.cpp:84] Creating Layer inception_5a/1x1
I1215 11:15:02.537984 17832 net.cpp:380] inception_5a/1x1 <- pool4/3x3_s2_pool4/3x3_s2_0_split_0
I1215 11:15:02.537992 17832 net.cpp:338] inception_5a/1x1 -> inception_5a/1x1
I1215 11:15:02.537999 17832 net.cpp:113] Setting up inception_5a/1x1
I1215 11:15:02.540880 17832 net.cpp:120] Top shape: 128 256 7 7 (1605632)
I1215 11:15:02.540896 17832 layer_factory.hpp:74] Creating layer inception_5a/relu_1x1
I1215 11:15:02.540906 17832 net.cpp:84] Creating Layer inception_5a/relu_1x1
I1215 11:15:02.540912 17832 net.cpp:380] inception_5a/relu_1x1 <- inception_5a/1x1
I1215 11:15:02.540920 17832 net.cpp:327] inception_5a/relu_1x1 -> inception_5a/1x1 (in-place)
I1215 11:15:02.540927 17832 net.cpp:113] Setting up inception_5a/relu_1x1
I1215 11:15:02.540994 17832 net.cpp:120] Top shape: 128 256 7 7 (1605632)
I1215 11:15:02.541002 17832 layer_factory.hpp:74] Creating layer inception_5a/3x3_reduce
I1215 11:15:02.541010 17832 net.cpp:84] Creating Layer inception_5a/3x3_reduce
I1215 11:15:02.541016 17832 net.cpp:380] inception_5a/3x3_reduce <- pool4/3x3_s2_pool4/3x3_s2_0_split_1
I1215 11:15:02.541023 17832 net.cpp:338] inception_5a/3x3_reduce -> inception_5a/3x3_reduce
I1215 11:15:02.541033 17832 net.cpp:113] Setting up inception_5a/3x3_reduce
I1215 11:15:02.543009 17832 net.cpp:120] Top shape: 128 160 7 7 (1003520)
I1215 11:15:02.543025 17832 layer_factory.hpp:74] Creating layer inception_5a/relu_3x3_reduce
I1215 11:15:02.543033 17832 net.cpp:84] Creating Layer inception_5a/relu_3x3_reduce
I1215 11:15:02.543041 17832 net.cpp:380] inception_5a/relu_3x3_reduce <- inception_5a/3x3_reduce
I1215 11:15:02.543048 17832 net.cpp:327] inception_5a/relu_3x3_reduce -> inception_5a/3x3_reduce (in-place)
I1215 11:15:02.543056 17832 net.cpp:113] Setting up inception_5a/relu_3x3_reduce
I1215 11:15:02.543126 17832 net.cpp:120] Top shape: 128 160 7 7 (1003520)
I1215 11:15:02.543134 17832 layer_factory.hpp:74] Creating layer inception_5a/3x3
I1215 11:15:02.543143 17832 net.cpp:84] Creating Layer inception_5a/3x3
I1215 11:15:02.543149 17832 net.cpp:380] inception_5a/3x3 <- inception_5a/3x3_reduce
I1215 11:15:02.543159 17832 net.cpp:338] inception_5a/3x3 -> inception_5a/3x3
I1215 11:15:02.543167 17832 net.cpp:113] Setting up inception_5a/3x3
I1215 11:15:02.548895 17832 net.cpp:120] Top shape: 128 320 7 7 (2007040)
I1215 11:15:02.548913 17832 layer_factory.hpp:74] Creating layer inception_5a/relu_3x3
I1215 11:15:02.548921 17832 net.cpp:84] Creating Layer inception_5a/relu_3x3
I1215 11:15:02.548928 17832 net.cpp:380] inception_5a/relu_3x3 <- inception_5a/3x3
I1215 11:15:02.548934 17832 net.cpp:327] inception_5a/relu_3x3 -> inception_5a/3x3 (in-place)
I1215 11:15:02.548943 17832 net.cpp:113] Setting up inception_5a/relu_3x3
I1215 11:15:02.549012 17832 net.cpp:120] Top shape: 128 320 7 7 (2007040)
I1215 11:15:02.549021 17832 layer_factory.hpp:74] Creating layer inception_5a/5x5_reduce
I1215 11:15:02.549029 17832 net.cpp:84] Creating Layer inception_5a/5x5_reduce
I1215 11:15:02.549041 17832 net.cpp:380] inception_5a/5x5_reduce <- pool4/3x3_s2_pool4/3x3_s2_0_split_2
I1215 11:15:02.549063 17832 net.cpp:338] inception_5a/5x5_reduce -> inception_5a/5x5_reduce
I1215 11:15:02.549074 17832 net.cpp:113] Setting up inception_5a/5x5_reduce
I1215 11:15:02.549804 17832 net.cpp:120] Top shape: 128 32 7 7 (200704)
I1215 11:15:02.549820 17832 layer_factory.hpp:74] Creating layer inception_5a/relu_5x5_reduce
I1215 11:15:02.549829 17832 net.cpp:84] Creating Layer inception_5a/relu_5x5_reduce
I1215 11:15:02.549835 17832 net.cpp:380] inception_5a/relu_5x5_reduce <- inception_5a/5x5_reduce
I1215 11:15:02.549842 17832 net.cpp:327] inception_5a/relu_5x5_reduce -> inception_5a/5x5_reduce (in-place)
I1215 11:15:02.549850 17832 net.cpp:113] Setting up inception_5a/relu_5x5_reduce
I1215 11:15:02.550112 17832 net.cpp:120] Top shape: 128 32 7 7 (200704)
I1215 11:15:02.550122 17832 layer_factory.hpp:74] Creating layer inception_5a/5x5
I1215 11:15:02.550134 17832 net.cpp:84] Creating Layer inception_5a/5x5
I1215 11:15:02.550139 17832 net.cpp:380] inception_5a/5x5 <- inception_5a/5x5_reduce
I1215 11:15:02.550148 17832 net.cpp:338] inception_5a/5x5 -> inception_5a/5x5
I1215 11:15:02.550156 17832 net.cpp:113] Setting up inception_5a/5x5
I1215 11:15:02.551791 17832 net.cpp:120] Top shape: 128 128 7 7 (802816)
I1215 11:15:02.551810 17832 layer_factory.hpp:74] Creating layer inception_5a/relu_5x5
I1215 11:15:02.551818 17832 net.cpp:84] Creating Layer inception_5a/relu_5x5
I1215 11:15:02.551825 17832 net.cpp:380] inception_5a/relu_5x5 <- inception_5a/5x5
I1215 11:15:02.551833 17832 net.cpp:327] inception_5a/relu_5x5 -> inception_5a/5x5 (in-place)
I1215 11:15:02.551841 17832 net.cpp:113] Setting up inception_5a/relu_5x5
I1215 11:15:02.551913 17832 net.cpp:120] Top shape: 128 128 7 7 (802816)
I1215 11:15:02.551918 17832 layer_factory.hpp:74] Creating layer inception_5a/pool
I1215 11:15:02.551923 17832 layer_factory.cpp:56] CUDNN does not support padding or multiple tops. Using Caffe's own pooling layer.
I1215 11:15:02.551931 17832 net.cpp:84] Creating Layer inception_5a/pool
I1215 11:15:02.551937 17832 net.cpp:380] inception_5a/pool <- pool4/3x3_s2_pool4/3x3_s2_0_split_3
I1215 11:15:02.551944 17832 net.cpp:338] inception_5a/pool -> inception_5a/pool
I1215 11:15:02.551952 17832 net.cpp:113] Setting up inception_5a/pool
I1215 11:15:02.551960 17832 net.cpp:120] Top shape: 128 832 7 7 (5218304)
I1215 11:15:02.551965 17832 layer_factory.hpp:74] Creating layer inception_5a/pool_proj
I1215 11:15:02.551975 17832 net.cpp:84] Creating Layer inception_5a/pool_proj
I1215 11:15:02.551980 17832 net.cpp:380] inception_5a/pool_proj <- inception_5a/pool
I1215 11:15:02.551986 17832 net.cpp:338] inception_5a/pool_proj -> inception_5a/pool_proj
I1215 11:15:02.551995 17832 net.cpp:113] Setting up inception_5a/pool_proj
I1215 11:15:02.553653 17832 net.cpp:120] Top shape: 128 128 7 7 (802816)
I1215 11:15:02.553670 17832 layer_factory.hpp:74] Creating layer inception_5a/relu_pool_proj
I1215 11:15:02.553678 17832 net.cpp:84] Creating Layer inception_5a/relu_pool_proj
I1215 11:15:02.553684 17832 net.cpp:380] inception_5a/relu_pool_proj <- inception_5a/pool_proj
I1215 11:15:02.553692 17832 net.cpp:327] inception_5a/relu_pool_proj -> inception_5a/pool_proj (in-place)
I1215 11:15:02.553701 17832 net.cpp:113] Setting up inception_5a/relu_pool_proj
I1215 11:15:02.553768 17832 net.cpp:120] Top shape: 128 128 7 7 (802816)
I1215 11:15:02.553777 17832 layer_factory.hpp:74] Creating layer inception_5a/output
I1215 11:15:02.553786 17832 net.cpp:84] Creating Layer inception_5a/output
I1215 11:15:02.553791 17832 net.cpp:380] inception_5a/output <- inception_5a/1x1
I1215 11:15:02.553797 17832 net.cpp:380] inception_5a/output <- inception_5a/3x3
I1215 11:15:02.553802 17832 net.cpp:380] inception_5a/output <- inception_5a/5x5
I1215 11:15:02.553807 17832 net.cpp:380] inception_5a/output <- inception_5a/pool_proj
I1215 11:15:02.553815 17832 net.cpp:338] inception_5a/output -> inception_5a/output
I1215 11:15:02.553823 17832 net.cpp:113] Setting up inception_5a/output
I1215 11:15:02.553846 17832 net.cpp:120] Top shape: 128 832 7 7 (5218304)
I1215 11:15:02.553851 17832 layer_factory.hpp:74] Creating layer inception_5a/output_inception_5a/output_0_split
I1215 11:15:02.553858 17832 net.cpp:84] Creating Layer inception_5a/output_inception_5a/output_0_split
I1215 11:15:02.553864 17832 net.cpp:380] inception_5a/output_inception_5a/output_0_split <- inception_5a/output
I1215 11:15:02.553869 17832 net.cpp:338] inception_5a/output_inception_5a/output_0_split -> inception_5a/output_inception_5a/output_0_split_0
I1215 11:15:02.553879 17832 net.cpp:338] inception_5a/output_inception_5a/output_0_split -> inception_5a/output_inception_5a/output_0_split_1
I1215 11:15:02.553885 17832 net.cpp:338] inception_5a/output_inception_5a/output_0_split -> inception_5a/output_inception_5a/output_0_split_2
I1215 11:15:02.553894 17832 net.cpp:338] inception_5a/output_inception_5a/output_0_split -> inception_5a/output_inception_5a/output_0_split_3
I1215 11:15:02.553901 17832 net.cpp:113] Setting up inception_5a/output_inception_5a/output_0_split
I1215 11:15:02.553910 17832 net.cpp:120] Top shape: 128 832 7 7 (5218304)
I1215 11:15:02.553915 17832 net.cpp:120] Top shape: 128 832 7 7 (5218304)
I1215 11:15:02.553920 17832 net.cpp:120] Top shape: 128 832 7 7 (5218304)
I1215 11:15:02.553925 17832 net.cpp:120] Top shape: 128 832 7 7 (5218304)
I1215 11:15:02.553928 17832 layer_factory.hpp:74] Creating layer inception_5b/1x1
I1215 11:15:02.553937 17832 net.cpp:84] Creating Layer inception_5b/1x1
I1215 11:15:02.553942 17832 net.cpp:380] inception_5b/1x1 <- inception_5a/output_inception_5a/output_0_split_0
I1215 11:15:02.553949 17832 net.cpp:338] inception_5b/1x1 -> inception_5b/1x1
I1215 11:15:02.553957 17832 net.cpp:113] Setting up inception_5b/1x1
I1215 11:15:02.558070 17832 net.cpp:120] Top shape: 128 384 7 7 (2408448)
I1215 11:15:02.558089 17832 layer_factory.hpp:74] Creating layer inception_5b/relu_1x1
I1215 11:15:02.558097 17832 net.cpp:84] Creating Layer inception_5b/relu_1x1
I1215 11:15:02.558104 17832 net.cpp:380] inception_5b/relu_1x1 <- inception_5b/1x1
I1215 11:15:02.558110 17832 net.cpp:327] inception_5b/relu_1x1 -> inception_5b/1x1 (in-place)
I1215 11:15:02.558118 17832 net.cpp:113] Setting up inception_5b/relu_1x1
I1215 11:15:02.558377 17832 net.cpp:120] Top shape: 128 384 7 7 (2408448)
I1215 11:15:02.558388 17832 layer_factory.hpp:74] Creating layer inception_5b/3x3_reduce
I1215 11:15:02.558398 17832 net.cpp:84] Creating Layer inception_5b/3x3_reduce
I1215 11:15:02.558403 17832 net.cpp:380] inception_5b/3x3_reduce <- inception_5a/output_inception_5a/output_0_split_1
I1215 11:15:02.558413 17832 net.cpp:338] inception_5b/3x3_reduce -> inception_5b/3x3_reduce
I1215 11:15:02.558423 17832 net.cpp:113] Setting up inception_5b/3x3_reduce
I1215 11:15:02.560684 17832 net.cpp:120] Top shape: 128 192 7 7 (1204224)
I1215 11:15:02.560700 17832 layer_factory.hpp:74] Creating layer inception_5b/relu_3x3_reduce
I1215 11:15:02.560708 17832 net.cpp:84] Creating Layer inception_5b/relu_3x3_reduce
I1215 11:15:02.560714 17832 net.cpp:380] inception_5b/relu_3x3_reduce <- inception_5b/3x3_reduce
I1215 11:15:02.560720 17832 net.cpp:327] inception_5b/relu_3x3_reduce -> inception_5b/3x3_reduce (in-place)
I1215 11:15:02.560729 17832 net.cpp:113] Setting up inception_5b/relu_3x3_reduce
I1215 11:15:02.560801 17832 net.cpp:120] Top shape: 128 192 7 7 (1204224)
I1215 11:15:02.560806 17832 layer_factory.hpp:74] Creating layer inception_5b/3x3
I1215 11:15:02.560817 17832 net.cpp:84] Creating Layer inception_5b/3x3
I1215 11:15:02.560822 17832 net.cpp:380] inception_5b/3x3 <- inception_5b/3x3_reduce
I1215 11:15:02.560828 17832 net.cpp:338] inception_5b/3x3 -> inception_5b/3x3
I1215 11:15:02.560856 17832 net.cpp:113] Setting up inception_5b/3x3
I1215 11:15:02.568620 17832 net.cpp:120] Top shape: 128 384 7 7 (2408448)
I1215 11:15:02.568639 17832 layer_factory.hpp:74] Creating layer inception_5b/relu_3x3
I1215 11:15:02.568647 17832 net.cpp:84] Creating Layer inception_5b/relu_3x3
I1215 11:15:02.568658 17832 net.cpp:380] inception_5b/relu_3x3 <- inception_5b/3x3
I1215 11:15:02.568672 17832 net.cpp:327] inception_5b/relu_3x3 -> inception_5b/3x3 (in-place)
I1215 11:15:02.568681 17832 net.cpp:113] Setting up inception_5b/relu_3x3
I1215 11:15:02.568750 17832 net.cpp:120] Top shape: 128 384 7 7 (2408448)
I1215 11:15:02.568758 17832 layer_factory.hpp:74] Creating layer inception_5b/5x5_reduce
I1215 11:15:02.568770 17832 net.cpp:84] Creating Layer inception_5b/5x5_reduce
I1215 11:15:02.568775 17832 net.cpp:380] inception_5b/5x5_reduce <- inception_5a/output_inception_5a/output_0_split_2
I1215 11:15:02.568783 17832 net.cpp:338] inception_5b/5x5_reduce -> inception_5b/5x5_reduce
I1215 11:15:02.568791 17832 net.cpp:113] Setting up inception_5b/5x5_reduce
I1215 11:15:02.569687 17832 net.cpp:120] Top shape: 128 48 7 7 (301056)
I1215 11:15:02.569703 17832 layer_factory.hpp:74] Creating layer inception_5b/relu_5x5_reduce
I1215 11:15:02.569711 17832 net.cpp:84] Creating Layer inception_5b/relu_5x5_reduce
I1215 11:15:02.569717 17832 net.cpp:380] inception_5b/relu_5x5_reduce <- inception_5b/5x5_reduce
I1215 11:15:02.569726 17832 net.cpp:327] inception_5b/relu_5x5_reduce -> inception_5b/5x5_reduce (in-place)
I1215 11:15:02.569735 17832 net.cpp:113] Setting up inception_5b/relu_5x5_reduce
I1215 11:15:02.569805 17832 net.cpp:120] Top shape: 128 48 7 7 (301056)
I1215 11:15:02.569811 17832 layer_factory.hpp:74] Creating layer inception_5b/5x5
I1215 11:15:02.569821 17832 net.cpp:84] Creating Layer inception_5b/5x5
I1215 11:15:02.569826 17832 net.cpp:380] inception_5b/5x5 <- inception_5b/5x5_reduce
I1215 11:15:02.569835 17832 net.cpp:338] inception_5b/5x5 -> inception_5b/5x5
I1215 11:15:02.569844 17832 net.cpp:113] Setting up inception_5b/5x5
I1215 11:15:02.572033 17832 net.cpp:120] Top shape: 128 128 7 7 (802816)
I1215 11:15:02.572049 17832 layer_factory.hpp:74] Creating layer inception_5b/relu_5x5
I1215 11:15:02.572062 17832 net.cpp:84] Creating Layer inception_5b/relu_5x5
I1215 11:15:02.572068 17832 net.cpp:380] inception_5b/relu_5x5 <- inception_5b/5x5
I1215 11:15:02.572075 17832 net.cpp:327] inception_5b/relu_5x5 -> inception_5b/5x5 (in-place)
I1215 11:15:02.572082 17832 net.cpp:113] Setting up inception_5b/relu_5x5
I1215 11:15:02.572351 17832 net.cpp:120] Top shape: 128 128 7 7 (802816)
I1215 11:15:02.572365 17832 layer_factory.hpp:74] Creating layer inception_5b/pool
I1215 11:15:02.572371 17832 layer_factory.cpp:56] CUDNN does not support padding or multiple tops. Using Caffe's own pooling layer.
I1215 11:15:02.572378 17832 net.cpp:84] Creating Layer inception_5b/pool
I1215 11:15:02.572383 17832 net.cpp:380] inception_5b/pool <- inception_5a/output_inception_5a/output_0_split_3
I1215 11:15:02.572392 17832 net.cpp:338] inception_5b/pool -> inception_5b/pool
I1215 11:15:02.572402 17832 net.cpp:113] Setting up inception_5b/pool
I1215 11:15:02.572410 17832 net.cpp:120] Top shape: 128 832 7 7 (5218304)
I1215 11:15:02.572415 17832 layer_factory.hpp:74] Creating layer inception_5b/pool_proj
I1215 11:15:02.572423 17832 net.cpp:84] Creating Layer inception_5b/pool_proj
I1215 11:15:02.572428 17832 net.cpp:380] inception_5b/pool_proj <- inception_5b/pool
I1215 11:15:02.572437 17832 net.cpp:338] inception_5b/pool_proj -> inception_5b/pool_proj
I1215 11:15:02.572445 17832 net.cpp:113] Setting up inception_5b/pool_proj
I1215 11:15:02.574110 17832 net.cpp:120] Top shape: 128 128 7 7 (802816)
I1215 11:15:02.574127 17832 layer_factory.hpp:74] Creating layer inception_5b/relu_pool_proj
I1215 11:15:02.574136 17832 net.cpp:84] Creating Layer inception_5b/relu_pool_proj
I1215 11:15:02.574141 17832 net.cpp:380] inception_5b/relu_pool_proj <- inception_5b/pool_proj
I1215 11:15:02.574148 17832 net.cpp:327] inception_5b/relu_pool_proj -> inception_5b/pool_proj (in-place)
I1215 11:15:02.574156 17832 net.cpp:113] Setting up inception_5b/relu_pool_proj
I1215 11:15:02.574230 17832 net.cpp:120] Top shape: 128 128 7 7 (802816)
I1215 11:15:02.574237 17832 layer_factory.hpp:74] Creating layer inception_5b/output
I1215 11:15:02.574244 17832 net.cpp:84] Creating Layer inception_5b/output
I1215 11:15:02.574254 17832 net.cpp:380] inception_5b/output <- inception_5b/1x1
I1215 11:15:02.574267 17832 net.cpp:380] inception_5b/output <- inception_5b/3x3
I1215 11:15:02.574273 17832 net.cpp:380] inception_5b/output <- inception_5b/5x5
I1215 11:15:02.574278 17832 net.cpp:380] inception_5b/output <- inception_5b/pool_proj
I1215 11:15:02.574285 17832 net.cpp:338] inception_5b/output -> inception_5b/output
I1215 11:15:02.574292 17832 net.cpp:113] Setting up inception_5b/output
I1215 11:15:02.574301 17832 net.cpp:120] Top shape: 128 1024 7 7 (6422528)
I1215 11:15:02.574304 17832 layer_factory.hpp:74] Creating layer pool5/7x7_s1
I1215 11:15:02.574314 17832 net.cpp:84] Creating Layer pool5/7x7_s1
I1215 11:15:02.574319 17832 net.cpp:380] pool5/7x7_s1 <- inception_5b/output
I1215 11:15:02.574326 17832 net.cpp:338] pool5/7x7_s1 -> pool5/7x7_s1
I1215 11:15:02.574332 17832 net.cpp:113] Setting up pool5/7x7_s1
I1215 11:15:02.574407 17832 net.cpp:120] Top shape: 128 1024 1 1 (131072)
I1215 11:15:02.574414 17832 layer_factory.hpp:74] Creating layer pool5/drop_7x7_s1
I1215 11:15:02.574420 17832 net.cpp:84] Creating Layer pool5/drop_7x7_s1
I1215 11:15:02.574425 17832 net.cpp:380] pool5/drop_7x7_s1 <- pool5/7x7_s1
I1215 11:15:02.574434 17832 net.cpp:327] pool5/drop_7x7_s1 -> pool5/7x7_s1 (in-place)
I1215 11:15:02.574440 17832 net.cpp:113] Setting up pool5/drop_7x7_s1
I1215 11:15:02.574447 17832 net.cpp:120] Top shape: 128 1024 1 1 (131072)
I1215 11:15:02.574451 17832 layer_factory.hpp:74] Creating layer loss3/classifier_kaggle
I1215 11:15:02.574461 17832 net.cpp:84] Creating Layer loss3/classifier_kaggle
I1215 11:15:02.574465 17832 net.cpp:380] loss3/classifier_kaggle <- pool5/7x7_s1
I1215 11:15:02.574475 17832 net.cpp:338] loss3/classifier_kaggle -> loss3/classifier_kaggle
I1215 11:15:02.574482 17832 net.cpp:113] Setting up loss3/classifier_kaggle
I1215 11:15:02.579751 17832 net.cpp:120] Top shape: 128 447 (57216)
I1215 11:15:02.579762 17832 layer_factory.hpp:74] Creating layer loss3/loss3
I1215 11:15:02.579772 17832 net.cpp:84] Creating Layer loss3/loss3
I1215 11:15:02.579777 17832 net.cpp:380] loss3/loss3 <- loss3/classifier_kaggle
I1215 11:15:02.579783 17832 net.cpp:380] loss3/loss3 <- label_data_1_split_2
I1215 11:15:02.579790 17832 net.cpp:338] loss3/loss3 -> loss3/loss3
I1215 11:15:02.579797 17832 net.cpp:113] Setting up loss3/loss3
…
I1215 11:15:02.585371 17832 net.cpp:257] The NetState phase (1) differed from the phase (0) specified by a rule in layer data
I1215 11:15:02.586923 17832 net.cpp:42] Initializing net from parameters: 
name: "GoogleNet"
state {
  phase: TEST
}
layer {
  name: "data"
  type: "Data"
  top: "data"
  top: "label"
  include {
    phase: TEST
  }
  transform_param {
    mirror: false
    crop_size: 224
    mean_value: 104
    mean_value: 117
    mean_value: 123
  }
  data_param {
    source: "/home/coldmanck/kaggle/kaggle2_val_lmdb"
    batch_size: 50
    backend: LMDB
  }
}
layer {
  name: "conv1/7x7_s2"
  type: "Convolution"
  bottom: "data"
  top: "conv1/7x7_s2"
  param {
    lr_mult: 1
    decay_mult: 1
  }
  param {
    lr_mult: 2
    decay_mult: 0
  }
  convolution_param {
    num_output: 64
    pad: 3
    kernel_size: 7
    stride: 2
    weight_filler {
      type: "xavier"
      std: 0.1
    }
    bias_filler {
      type: "constant"
      value: 0.2
    }
  }
}
layer {
  name: "conv1/relu_7x7"
  type: "ReLU"
  bottom: "conv1/7x7_s2"
  top: "conv1/7x7_s2"
}
layer {
  name: "pool1/3x3_s2"
  type: "Pooling"
  bottom: "conv1/7x7_s2"
  top: "pool1/3x3_s2"
  pooling_param {
    pool: MAX
    kernel_size: 3
    stride: 2
  }
}
layer {
  name: "pool1/norm1"
  type: "LRN"
  bottom: "pool1/3x3_s2"
  top: "pool1/norm1"
  lrn_param {
    local_size: 5
    alpha: 0.0001
    beta: 0.75
  }
}
layer {
  name: "conv2/3x3_reduce"
  type: "Convolution"
  bottom: "pool1/norm1"
  top: "conv2/3x3_reduce"
  param {
    lr_mult: 1
    decay_mult: 1
  }
  param {
    lr_mult: 2
    decay_mult: 0
  }
  convolution_param {
    num_output: 64
    kernel_size: 1
    weight_filler {
      type: "xavier"
      std: 0.1
    }
    bias_filler {
      type: "constant"
      value: 0.2
    }
  }
}
layer {
  name: "conv2/relu_3x3_reduce"
  type: "ReLU"
  bottom: "conv2/3x3_reduce"
  top: "conv2/3x3_reduce"
}
layer {
  name: "conv2/3x3"
  type: "Convolution"
  bottom: "conv2/3x3_reduce"
  top: "conv2/3x3"
  param {
    lr_mult: 1
    decay_mult: 1
  }
  param {
    lr_mult: 2
    decay_mult: 0
  }
  convolution_param {
    num_output: 192
    pad: 1
    kernel_size: 3
    weight_filler {
      type: "xavier"
      std: 0.03
    }
    bias_filler {
      type: "constant"
      value: 0.2
    }
  }
}
layer {
  name: "conv2/relu_3x3"
  type: "ReLU"
  bottom: "conv2/3x3"
  top: "conv2/3x3"
}
layer {
  name: "conv2/norm2"
  type: "LRN"
  bottom: "conv2/3x3"
  top: "conv2/norm2"
  lrn_param {
    local_size: 5
    alpha: 0.0001
    beta: 0.75
  }
}
layer {
  name: "pool2/3x3_s2"
  type: "Pooling"
  bottom: "conv2/norm2"
  top: "pool2/3x3_s2"
  pooling_param {
    pool: MAX
    kernel_size: 3
    stride: 2
  }
}
layer {
  name: "inception_3a/1x1"
  type: "Convolution"
  bottom: "pool2/3x3_s2"
  top: "inception_3a/1x1"
  param {
    lr_mult: 1
    decay_mult: 1
  }
  param {
    lr_mult: 2
    decay_mult: 0
  }
  convolution_param {
    num_output: 64
    kernel_size: 1
    weight_filler {
      type: "xavier"
      std: 0.03
    }
    bias_filler {
      type: "constant"
      value: 0.2
    }
  }
}
layer {
  name: "inception_3a/relu_1x1"
  type: "ReLU"
  bottom: "inception_3a/1x1"
  top: "inception_3a/1x1"
}
layer {
  name: "inception_3a/3x3_reduce"
  type: "Convolution"
  bottom: "pool2/3x3_s2"
  top: "inception_3a/3x3_reduce"
  param {
    lr_mult: 1
    decay_mult: 1
  }
  param {
    lr_mult: 2
    decay_mult: 0
  }
  convolution_param {
    num_output: 96
    kernel_size: 1
    weight_filler {
      type: "xavier"
      std: 0.09
    }
    bias_filler {
      type: "constant"
      value: 0.2
    }
  }
}
layer {
  name: "inception_3a/relu_3x3_reduce"
  type: "ReLU"
  bottom: "inception_3a/3x3_reduce"
  top: "inception_3a/3x3_reduce"
}
layer {
  name: "inception_3a/3x3"
  type: "Convolution"
  bottom: "inception_3a/3x3_reduce"
  top: "inception_3a/3x3"
  param {
    lr_mult: 1
    decay_mult: 1
  }
  param {
    lr_mult: 2
    decay_mult: 0
  }
  convolution_param {
    num_output: 128
    pad: 1
    kernel_size: 3
    weight_filler {
      type: "xavier"
      std: 0.03
    }
    bias_filler {
      type: "constant"
      value: 0.2
    }
  }
}
layer {
  name: "inception_3a/relu_3x3"
  type: "ReLU"
  bottom: "inception_3a/3x3"
  top: "inception_3a/3x3"
}
layer {
  name: "inception_3a/5x5_reduce"
  type: "Convolution"
  bottom: "pool2/3x3_s2"
  top: "inception_3a/5x5_reduce"
  param {
    lr_mult: 1
    decay_mult: 1
  }
  param {
    lr_mult: 2
    decay_mult: 0
  }
  convolution_param {
    num_output: 16
    kernel_size: 1
    weight_filler {
      type: "xavier"
      std: 0.2
    }
    bias_filler {
      type: "constant"
      value: 0.2
    }
  }
}
layer {
  name: "inception_3a/relu_5x5_reduce"
  type: "ReLU"
  bottom: "inception_3a/5x5_reduce"
  top: "inception_3a/5x5_reduce"
}
layer {
  name: "inception_3a/5x5"
  type: "Convolution"
  bottom: "inception_3a/5x5_reduce"
  top: "inception_3a/5x5"
  param {
    lr_mult: 1
    decay_mult: 1
  }
  param {
    lr_mult: 2
    decay_mult: 0
  }
  convolution_param {
    num_output: 32
    pad: 2
    kernel_size: 5
    weight_filler {
      type: "xavier"
      std: 0.03
    }
    bias_filler {
      type: "constant"
      value: 0.2
    }
  }
}
layer {
  name: "inception_3a/relu_5x5"
  type: "ReLU"
  bottom: "inception_3a/5x5"
  top: "inception_3a/5x5"
}
layer {
  name: "inception_3a/pool"
  type: "Pooling"
  bottom: "pool2/3x3_s2"
  top: "inception_3a/pool"
  pooling_param {
    pool: MAX
    kernel_size: 3
    stride: 1
    pad: 1
  }
}
layer {
  name: "inception_3a/pool_proj"
  type: "Convolution"
  bottom: "inception_3a/pool"
  top: "inception_3a/pool_proj"
  param {
    lr_mult: 1
    decay_mult: 1
  }
  param {
    lr_mult: 2
    decay_mult: 0
  }
  convolution_param {
    num_output: 32
    kernel_size: 1
    weight_filler {
      type: "xavier"
      std: 0.1
    }
    bias_filler {
      type: "constant"
      value: 0.2
    }
  }
}
layer {
  name: "inception_3a/relu_pool_proj"
  type: "ReLU"
  bottom: "inception_3a/pool_proj"
  top: "inception_3a/pool_proj"
}
layer {
  name: "inception_3a/output"
  type: "Concat"
  bottom: "inception_3a/1x1"
  bottom: "inception_3a/3x3"
  bottom: "inception_3a/5x5"
  bottom: "inception_3a/pool_proj"
  top: "inception_3a/output"
}
layer {
  name: "inception_3b/1x1"
  type: "Convolution"
  bottom: "inception_3a/output"
  top: "inception_3b/1x1"
  param {
    lr_mult: 1
    decay_mult: 1
  }
  param {
    lr_mult: 2
    decay_mult: 0
  }
  convolution_param {
    num_output: 128
    kernel_size: 1
    weight_filler {
      type: "xavier"
      std: 0.03
    }
    bias_filler {
      type: "constant"
      value: 0.2
    }
  }
}
layer {
  name: "inception_3b/relu_1x1"
  type: "ReLU"
  bottom: "inception_3b/1x1"
  top: "inception_3b/1x1"
}
layer {
  name: "inception_3b/3x3_reduce"
  type: "Convolution"
  bottom: "inception_3a/output"
  top: "inception_3b/3x3_reduce"
  param {
    lr_mult: 1
    decay_mult: 1
  }
  param {
    lr_mult: 2
    decay_mult: 0
  }
  convolution_param {
    num_output: 128
    kernel_size: 1
    weight_filler {
      type: "xavier"
      std: 0.09
    }
    bias_filler {
      type: "constant"
      value: 0.2
    }
  }
}
layer {
  name: "inception_3b/relu_3x3_reduce"
  type: "ReLU"
  bottom: "inception_3b/3x3_reduce"
  top: "inception_3b/3x3_reduce"
}
layer {
  name: "inception_3b/3x3"
  type: "Convolution"
  bottom: "inception_3b/3x3_reduce"
  top: "inception_3b/3x3"
  param {
    lr_mult: 1
    decay_mult: 1
  }
  param {
    lr_mult: 2
    decay_mult: 0
  }
  convolution_param {
    num_output: 192
    pad: 1
    kernel_size: 3
    weight_filler {
      type: "xavier"
      std: 0.03
    }
    bias_filler {
      type: "constant"
      value: 0.2
    }
  }
}
layer {
  name: "inception_3b/relu_3x3"
  type: "ReLU"
  bottom: "inception_3b/3x3"
  top: "inception_3b/3x3"
}
layer {
  name: "inception_3b/5x5_reduce"
  type: "Convolution"
  bottom: "inception_3a/output"
  top: "inception_3b/5x5_reduce"
  param {
    lr_mult: 1
    decay_mult: 1
  }
  param {
    lr_mult: 2
    decay_mult: 0
  }
  convolution_param {
    num_output: 32
    kernel_size: 1
    weight_filler {
      type: "xavier"
      std: 0.2
    }
    bias_filler {
      type: "constant"
      value: 0.2
    }
  }
}
layer {
  name: "inception_3b/relu_5x5_reduce"
  type: "ReLU"
  bottom: "inception_3b/5x5_reduce"
  top: "inception_3b/5x5_reduce"
}
layer {
  name: "inception_3b/5x5"
  type: "Convolution"
  bottom: "inception_3b/5x5_reduce"
  top: "inception_3b/5x5"
  param {
    lr_mult: 1
    decay_mult: 1
  }
  param {
    lr_mult: 2
    decay_mult: 0
  }
  convolution_param {
    num_output: 96
    pad: 2
    kernel_size: 5
    weight_filler {
      type: "xavier"
      std: 0.03
    }
    bias_filler {
      type: "constant"
      value: 0.2
    }
  }
}
layer {
  name: "inception_3b/relu_5x5"
  type: "ReLU"
  bottom: "inception_3b/5x5"
  top: "inception_3b/5x5"
}
layer {
  name: "inception_3b/pool"
  type: "Pooling"
  bottom: "inception_3a/output"
  top: "inception_3b/pool"
  pooling_param {
    pool: MAX
    kernel_size: 3
    stride: 1
    pad: 1
  }
}
layer {
  name: "inception_3b/pool_proj"
  type: "Convolution"
  bottom: "inception_3b/pool"
  top: "inception_3b/pool_proj"
  param {
    lr_mult: 1
    decay_mult: 1
  }
  param {
    lr_mult: 2
    decay_mult: 0
  }
  convolution_param {
    num_output: 64
    kernel_size: 1
    weight_filler {
      type: "xavier"
      std: 0.1
    }
    bias_filler {
      type: "constant"
      value: 0.2
    }
  }
}
layer {
  name: "inception_3b/relu_pool_proj"
  type: "ReLU"
  bottom: "inception_3b/pool_proj"
  top: "inception_3b/pool_proj"
}
layer {
  name: "inception_3b/output"
  type: "Concat"
  bottom: "inception_3b/1x1"
  bottom: "inception_3b/3x3"
  bottom: "inception_3b/5x5"
  bottom: "inception_3b/pool_proj"
  top: "inception_3b/output"
}
layer {
  name: "pool3/3x3_s2"
  type: "Pooling"
  bottom: "inception_3b/output"
  top: "pool3/3x3_s2"
  pooling_param {
    pool: MAX
    kernel_size: 3
    stride: 2
  }
}
layer {
  name: "inception_4a/1x1"
  type: "Convolution"
  bottom: "pool3/3x3_s2"
  top: "inception_4a/1x1"
  param {
    lr_mult: 1
    decay_mult: 1
  }
  param {
    lr_mult: 2
    decay_mult: 0
  }
  convolution_param {
    num_output: 192
    kernel_size: 1
    weight_filler {
      type: "xavier"
      std: 0.03
    }
    bias_filler {
      type: "constant"
      value: 0.2
    }
  }
}
layer {
  name: "inception_4a/relu_1x1"
  type: "ReLU"
  bottom: "inception_4a/1x1"
  top: "inception_4a/1x1"
}
layer {
  name: "inception_4a/3x3_reduce"
  type: "Convolution"
  bottom: "pool3/3x3_s2"
  top: "inception_4a/3x3_reduce"
  param {
    lr_mult: 1
    decay_mult: 1
  }
  param {
    lr_mult: 2
    decay_mult: 0
  }
  convolution_param {
    num_output: 96
    kernel_size: 1
    weight_filler {
      type: "xavier"
      std: 0.09
    }
    bias_filler {
      type: "constant"
      value: 0.2
    }
  }
}
layer {
  name: "inception_4a/relu_3x3_reduce"
  type: "ReLU"
  bottom: "inception_4a/3x3_reduce"
  top: "inception_4a/3x3_reduce"
}
layer {
  name: "inception_4a/3x3"
  type: "Convolution"
  bottom: "inception_4a/3x3_reduce"
  top: "inception_4a/3x3"
  param {
    lr_mult: 1
    decay_mult: 1
  }
  param {
    lr_mult: 2
    decay_mult: 0
  }
  convolution_param {
    num_output: 208
    pad: 1
    kernel_size: 3
    weight_filler {
      type: "xavier"
      std: 0.03
    }
    bias_filler {
      type: "constant"
      value: 0.2
    }
  }
}
layer {
  name: "inception_4a/relu_3x3"
  type: "ReLU"
  bottom: "inception_4a/3x3"
  top: "inception_4a/3x3"
}
layer {
  name: "inception_4a/5x5_reduce"
  type: "Convolution"
  bottom: "pool3/3x3_s2"
  top: "inception_4a/5x5_reduce"
  param {
    lr_mult: 1
    decay_mult: 1
  }
  param {
    lr_mult: 2
    decay_mult: 0
  }
  convolution_param {
    num_output: 16
    kernel_size: 1
    weight_filler {
      type: "xavier"
      std: 0.2
    }
    bias_filler {
      type: "constant"
      value: 0.2
    }
  }
}
layer {
  name: "inception_4a/relu_5x5_reduce"
  type: "ReLU"
  bottom: "inception_4a/5x5_reduce"
  top: "inception_4a/5x5_reduce"
}
layer {
  name: "inception_4a/5x5"
  type: "Convolution"
  bottom: "inception_4a/5x5_reduce"
  top: "inception_4a/5x5"
  param {
    lr_mult: 1
    decay_mult: 1
  }
  param {
    lr_mult: 2
    decay_mult: 0
  }
  convolution_param {
    num_output: 48
    pad: 2
    kernel_size: 5
    weight_filler {
      type: "xavier"
      std: 0.03
    }
    bias_filler {
      type: "constant"
      value: 0.2
    }
  }
}
layer {
  name: "inception_4a/relu_5x5"
  type: "ReLU"
  bottom: "inception_4a/5x5"
  top: "inception_4a/5x5"
}
layer {
  name: "inception_4a/pool"
  type: "Pooling"
  bottom: "pool3/3x3_s2"
  top: "inception_4a/pool"
  pooling_param {
    pool: MAX
    kernel_size: 3
    stride: 1
    pad: 1
  }
}
layer {
  name: "inception_4a/pool_proj"
  type: "Convolution"
  bottom: "inception_4a/pool"
  top: "inception_4a/pool_proj"
  param {
    lr_mult: 1
    decay_mult: 1
  }
  param {
    lr_mult: 2
    decay_mult: 0
  }
  convolution_param {
    num_output: 64
    kernel_size: 1
    weight_filler {
      type: "xavier"
      std: 0.1
    }
    bias_filler {
      type: "constant"
      value: 0.2
    }
  }
}
layer {
  name: "inception_4a/relu_pool_proj"
  type: "ReLU"
  bottom: "inception_4a/pool_proj"
  top: "inception_4a/pool_proj"
}
layer {
  name: "inception_4a/output"
  type: "Concat"
  bottom: "inception_4a/1x1"
  bottom: "inception_4a/3x3"
  bottom: "inception_4a/5x5"
  bottom: "inception_4a/pool_proj"
  top: "inception_4a/output"
}
layer {
  name: "loss1/ave_pool"
  type: "Pooling"
  bottom: "inception_4a/output"
  top: "loss1/ave_pool"
  pooling_param {
    pool: AVE
    kernel_size: 5
    stride: 3
  }
}
layer {
  name: "loss1/conv"
  type: "Convolution"
  bottom: "loss1/ave_pool"
  top: "loss1/conv"
  param {
    lr_mult: 1
    decay_mult: 1
  }
  param {
    lr_mult: 2
    decay_mult: 0
  }
  convolution_param {
    num_output: 128
    kernel_size: 1
    weight_filler {
      type: "xavier"
      std: 0.08
    }
    bias_filler {
      type: "constant"
      value: 0.2
    }
  }
}
layer {
  name: "loss1/relu_conv"
  type: "ReLU"
  bottom: "loss1/conv"
  top: "loss1/conv"
}
layer {
  name: "loss1/fc"
  type: "InnerProduct"
  bottom: "loss1/conv"
  top: "loss1/fc"
  param {
    lr_mult: 1
    decay_mult: 1
  }
  param {
    lr_mult: 2
    decay_mult: 0
  }
  inner_product_param {
    num_output: 1024
    weight_filler {
      type: "xavier"
      std: 0.02
    }
    bias_filler {
      type: "constant"
      value: 0.2
    }
  }
}
layer {
  name: "loss1/relu_fc"
  type: "ReLU"
  bottom: "loss1/fc"
  top: "loss1/fc"
}
layer {
  name: "loss1/drop_fc"
  type: "Dropout"
  bottom: "loss1/fc"
  top: "loss1/fc"
  dropout_param {
    dropout_ratio: 0.7
  }
}
layer {
  name: "loss1/classifier_kaggle"
  type: "InnerProduct"
  bottom: "loss1/fc"
  top: "loss1/classifier_kaggle"
  param {
    lr_mult: 1
    decay_mult: 1
  }
  param {
    lr_mult: 2
    decay_mult: 0
  }
  inner_product_param {
    num_output: 447
    weight_filler {
      type: "xavier"
      std: 0.0009765625
    }
    bias_filler {
      type: "constant"
      value: 0
    }
  }
}
layer {
  name: "loss1/loss"
  type: "SoftmaxWithLoss"
  bottom: "loss1/classifier_kaggle"
  bottom: "label"
  top: "loss1/loss1"
  loss_weight: 0.3
}
layer {
  name: "loss1/top-1"
  type: "Accuracy"
  bottom: "loss1/classifier_kaggle"
  bottom: "label"
  top: "loss1/top-1"
  include {
    phase: TEST
  }
}
layer {
  name: "loss1/top-5"
  type: "Accuracy"
  bottom: "loss1/classifier_kaggle"
  bottom: "label"
  top: "loss1/top-5"
  include {
    phase: TEST
  }
  accuracy_param {
    top_k: 5
  }
}
layer {
  name: "inception_4b/1x1"
  type: "Convolution"
  bottom: "inception_4a/output"
  top: "inception_4b/1x1"
  param {
    lr_mult: 1
    decay_mult: 1
  }
  param {
    lr_mult: 2
    decay_mult: 0
  }
  convolution_param {
    num_output: 160
    kernel_size: 1
    weight_filler {
      type: "xavier"
      std: 0.03
    }
    bias_filler {
      type: "constant"
      value: 0.2
    }
  }
}
layer {
  name: "inception_4b/relu_1x1"
  type: "ReLU"
  bottom: "inception_4b/1x1"
  top: "inception_4b/1x1"
}
layer {
  name: "inception_4b/3x3_reduce"
  type: "Convolution"
  bottom: "inception_4a/output"
  top: "inception_4b/3x3_reduce"
  param {
    lr_mult: 1
    decay_mult: 1
  }
  param {
    lr_mult: 2
    decay_mult: 0
  }
  convolution_param {
    num_output: 112
    kernel_size: 1
    weight_filler {
      type: "xavier"
      std: 0.09
    }
    bias_filler {
      type: "constant"
      value: 0.2
    }
  }
}
layer {
  name: "inception_4b/relu_3x3_reduce"
  type: "ReLU"
  bottom: "inception_4b/3x3_reduce"
  top: "inception_4b/3x3_reduce"
}
layer {
  name: "inception_4b/3x3"
  type: "Convolution"
  bottom: "inception_4b/3x3_reduce"
  top: "inception_4b/3x3"
  param {
    lr_mult: 1
    decay_mult: 1
  }
  param {
    lr_mult: 2
    decay_mult: 0
  }
  convolution_param {
    num_output: 224
    pad: 1
    kernel_size: 3
    weight_filler {
      type: "xavier"
      std: 0.03
    }
    bias_filler {
      type: "constant"
      value: 0.2
    }
  }
}
layer {
  name: "inception_4b/relu_3x3"
  type: "ReLU"
  bottom: "inception_4b/3x3"
  top: "inception_4b/3x3"
}
layer {
  name: "inception_4b/5x5_reduce"
  type: "Convolution"
  bottom: "inception_4a/output"
  top: "inception_4b/5x5_reduce"
  param {
    lr_mult: 1
    decay_mult: 1
  }
  param {
    lr_mult: 2
    decay_mult: 0
  }
  convolution_param {
    num_output: 24
    kernel_size: 1
    weight_filler {
      type: "xavier"
      std: 0.2
    }
    bias_filler {
      type: "constant"
      value: 0.2
    }
  }
}
layer {
  name: "inception_4b/relu_5x5_reduce"
  type: "ReLU"
  bottom: "inception_4b/5x5_reduce"
  top: "inception_4b/5x5_reduce"
}
layer {
  name: "inception_4b/5x5"
  type: "Convolution"
  bottom: "inception_4b/5x5_reduce"
  top: "inception_4b/5x5"
  param {
    lr_mult: 1
    decay_mult: 1
  }
  param {
    lr_mult: 2
    decay_mult: 0
  }
  convolution_param {
    num_output: 64
    pad: 2
    kernel_size: 5
    weight_filler {
      type: "xavier"
      std: 0.03
    }
    bias_filler {
      type: "constant"
      value: 0.2
    }
  }
}
layer {
  name: "inception_4b/relu_5x5"
  type: "ReLU"
  bottom: "inception_4b/5x5"
  top: "inception_4b/5x5"
}
layer {
  name: "inception_4b/pool"
  type: "Pooling"
  bottom: "inception_4a/output"
  top: "inception_4b/pool"
  pooling_param {
    pool: MAX
    kernel_size: 3
    stride: 1
    pad: 1
  }
}
layer {
  name: "inception_4b/pool_proj"
  type: "Convolution"
  bottom: "inception_4b/pool"
  top: "inception_4b/pool_proj"
  param {
    lr_mult: 1
    decay_mult: 1
  }
  param {
    lr_mult: 2
    decay_mult: 0
  }
  convolution_param {
    num_output: 64
    kernel_size: 1
    weight_filler {
      type: "xavier"
      std: 0.1
    }
    bias_filler {
      type: "constant"
      value: 0.2
    }
  }
}
layer {
  name: "inception_4b/relu_pool_proj"
  type: "ReLU"
  bottom: "inception_4b/pool_proj"
  top: "inception_4b/pool_proj"
}
layer {
  name: "inception_4b/output"
  type: "Concat"
  bottom: "inception_4b/1x1"
  bottom: "inception_4b/3x3"
  bottom: "inception_4b/5x5"
  bottom: "inception_4b/pool_proj"
  top: "inception_4b/output"
}
layer {
  name: "inception_4c/1x1"
  type: "Convolution"
  bottom: "inception_4b/output"
  top: "inception_4c/1x1"
  param {
    lr_mult: 1
    decay_mult: 1
  }
  param {
    lr_mult: 2
    decay_mult: 0
  }
  convolution_param {
    num_output: 128
    kernel_size: 1
    weight_filler {
      type: "xavier"
      std: 0.03
    }
    bias_filler {
      type: "constant"
      value: 0.2
    }
  }
}
layer {
  name: "inception_4c/relu_1x1"
  type: "ReLU"
  bottom: "inception_4c/1x1"
  top: "inception_4c/1x1"
}
layer {
  name: "inception_4c/3x3_reduce"
  type: "Convolution"
  bottom: "inception_4b/output"
  top: "inception_4c/3x3_reduce"
  param {
    lr_mult: 1
    decay_mult: 1
  }
  param {
    lr_mult: 2
    decay_mult: 0
  }
  convolution_param {
    num_output: 128
    kernel_size: 1
    weight_filler {
      type: "xavier"
      std: 0.09
    }
    bias_filler {
      type: "constant"
      value: 0.2
    }
  }
}
layer {
  name: "inception_4c/relu_3x3_reduce"
  type: "ReLU"
  bottom: "inception_4c/3x3_reduce"
  top: "inception_4c/3x3_reduce"
}
layer {
  name: "inception_4c/3x3"
  type: "Convolution"
  bottom: "inception_4c/3x3_reduce"
  top: "inception_4c/3x3"
  param {
    lr_mult: 1
    decay_mult: 1
  }
  param {
    lr_mult: 2
    decay_mult: 0
  }
  convolution_param {
    num_output: 256
    pad: 1
    kernel_size: 3
    weight_filler {
      type: "xavier"
      std: 0.03
    }
    bias_filler {
      type: "constant"
      value: 0.2
    }
  }
}
layer {
  name: "inception_4c/relu_3x3"
  type: "ReLU"
  bottom: "inception_4c/3x3"
  top: "inception_4c/3x3"
}
layer {
  name: "inception_4c/5x5_reduce"
  type: "Convolution"
  bottom: "inception_4b/output"
  top: "inception_4c/5x5_reduce"
  param {
    lr_mult: 1
    decay_mult: 1
  }
  param {
    lr_mult: 2
    decay_mult: 0
  }
  convolution_param {
    num_output: 24
    kernel_size: 1
    weight_filler {
      type: "xavier"
      std: 0.2
    }
    bias_filler {
      type: "constant"
      value: 0.2
    }
  }
}
layer {
  name: "inception_4c/relu_5x5_reduce"
  type: "ReLU"
  bottom: "inception_4c/5x5_reduce"
  top: "inception_4c/5x5_reduce"
}
layer {
  name: "inception_4c/5x5"
  type: "Convolution"
  bottom: "inception_4c/5x5_reduce"
  top: "inception_4c/5x5"
  param {
    lr_mult: 1
    decay_mult: 1
  }
  param {
    lr_mult: 2
    decay_mult: 0
  }
  convolution_param {
    num_output: 64
    pad: 2
    kernel_size: 5
    weight_filler {
      type: "xavier"
      std: 0.03
    }
    bias_filler {
      type: "constant"
      value: 0.2
    }
  }
}
layer {
  name: "inception_4c/relu_5x5"
  type: "ReLU"
  bottom: "inception_4c/5x5"
  top: "inception_4c/5x5"
}
layer {
  name: "inception_4c/pool"
  type: "Pooling"
  bottom: "inception_4b/output"
  top: "inception_4c/pool"
  pooling_param {
    pool: MAX
    kernel_size: 3
    stride: 1
    pad: 1
  }
}
layer {
  name: "inception_4c/pool_proj"
  type: "Convolution"
  bottom: "inception_4c/pool"
  top: "inception_4c/pool_proj"
  param {
    lr_mult: 1
    decay_mult: 1
  }
  param {
    lr_mult: 2
    decay_mult: 0
  }
  convolution_param {
    num_output: 64
    kernel_size: 1
    weight_filler {
      type: "xavier"
      std: 0.1
    }
    bias_filler {
      type: "constant"
      value: 0.2
    }
  }
}
layer {
  name: "inception_4c/relu_pool_proj"
  type: "ReLU"
  bottom: "inception_4c/pool_proj"
  top: "inception_4c/pool_proj"
}
layer {
  name: "inception_4c/output"
  type: "Concat"
  bottom: "inception_4c/1x1"
  bottom: "inception_4c/3x3"
  bottom: "inception_4c/5x5"
  bottom: "inception_4c/pool_proj"
  top: "inception_4c/output"
}
layer {
  name: "inception_4d/1x1"
  type: "Convolution"
  bottom: "inception_4c/output"
  top: "inception_4d/1x1"
  param {
    lr_mult: 1
    decay_mult: 1
  }
  param {
    lr_mult: 2
    decay_mult: 0
  }
  convolution_param {
    num_output: 112
    kernel_size: 1
    weight_filler {
      type: "xavier"
      std: 0.03
    }
    bias_filler {
      type: "constant"
      value: 0.2
    }
  }
}
layer {
  name: "inception_4d/relu_1x1"
  type: "ReLU"
  bottom: "inception_4d/1x1"
  top: "inception_4d/1x1"
}
layer {
  name: "inception_4d/3x3_reduce"
  type: "Convolution"
  bottom: "inception_4c/output"
  top: "inception_4d/3x3_reduce"
  param {
    lr_mult: 1
    decay_mult: 1
  }
  param {
    lr_mult: 2
    decay_mult: 0
  }
  convolution_param {
    num_output: 144
    kernel_size: 1
    weight_filler {
      type: "xavier"
      std: 0.09
    }
    bias_filler {
      type: "constant"
      value: 0.2
    }
  }
}
layer {
  name: "inception_4d/relu_3x3_reduce"
  type: "ReLU"
  bottom: "inception_4d/3x3_reduce"
  top: "inception_4d/3x3_reduce"
}
layer {
  name: "inception_4d/3x3"
  type: "Convolution"
  bottom: "inception_4d/3x3_reduce"
  top: "inception_4d/3x3"
  param {
    lr_mult: 1
    decay_mult: 1
  }
  param {
    lr_mult: 2
    decay_mult: 0
  }
  convolution_param {
    num_output: 288
    pad: 1
    kernel_size: 3
    weight_filler {
      type: "xavier"
      std: 0.03
    }
    bias_filler {
      type: "constant"
      value: 0.2
    }
  }
}
layer {
  name: "inception_4d/relu_3x3"
  type: "ReLU"
  bottom: "inception_4d/3x3"
  top: "inception_4d/3x3"
}
layer {
  name: "inception_4d/5x5_reduce"
  type: "Convolution"
  bottom: "inception_4c/output"
  top: "inception_4d/5x5_reduce"
  param {
    lr_mult: 1
    decay_mult: 1
  }
  param {
    lr_mult: 2
    decay_mult: 0
  }
  convolution_param {
    num_output: 32
    kernel_size: 1
    weight_filler {
      type: "xavier"
      std: 0.2
    }
    bias_filler {
      type: "constant"
      value: 0.2
    }
  }
}
layer {
  name: "inception_4d/relu_5x5_reduce"
  type: "ReLU"
  bottom: "inception_4d/5x5_reduce"
  top: "inception_4d/5x5_reduce"
}
layer {
  name: "inception_4d/5x5"
  type: "Convolution"
  bottom: "inception_4d/5x5_reduce"
  top: "inception_4d/5x5"
  param {
    lr_mult: 1
    decay_mult: 1
  }
  param {
    lr_mult: 2
    decay_mult: 0
  }
  convolution_param {
    num_output: 64
    pad: 2
    kernel_size: 5
    weight_filler {
      type: "xavier"
      std: 0.03
    }
    bias_filler {
      type: "constant"
      value: 0.2
    }
  }
}
layer {
  name: "inception_4d/relu_5x5"
  type: "ReLU"
  bottom: "inception_4d/5x5"
  top: "inception_4d/5x5"
}
layer {
  name: "inception_4d/pool"
  type: "Pooling"
  bottom: "inception_4c/output"
  top: "inception_4d/pool"
  pooling_param {
    pool: MAX
    kernel_size: 3
    stride: 1
    pad: 1
  }
}
layer {
  name: "inception_4d/pool_proj"
  type: "Convolution"
  bottom: "inception_4d/pool"
  top: "inception_4d/pool_proj"
  param {
    lr_mult: 1
    decay_mult: 1
  }
  param {
    lr_mult: 2
    decay_mult: 0
  }
…
I1215 11:15:02.669855 17832 net.cpp:84] Creating Layer inception_4c/1x1
I1215 11:15:02.669859 17832 net.cpp:380] inception_4c/1x1 <- inception_4b/output_inception_4b/output_0_split_0
I1215 11:15:02.669867 17832 net.cpp:338] inception_4c/1x1 -> inception_4c/1x1
I1215 11:15:02.669874 17832 net.cpp:113] Setting up inception_4c/1x1
I1215 11:15:02.671067 17832 net.cpp:120] Top shape: 50 128 14 14 (1254400)
I1215 11:15:02.671083 17832 layer_factory.hpp:74] Creating layer inception_4c/relu_1x1
I1215 11:15:02.671093 17832 net.cpp:84] Creating Layer inception_4c/relu_1x1
I1215 11:15:02.671098 17832 net.cpp:380] inception_4c/relu_1x1 <- inception_4c/1x1
I1215 11:15:02.671105 17832 net.cpp:327] inception_4c/relu_1x1 -> inception_4c/1x1 (in-place)
I1215 11:15:02.671113 17832 net.cpp:113] Setting up inception_4c/relu_1x1
I1215 11:15:02.671380 17832 net.cpp:120] Top shape: 50 128 14 14 (1254400)
I1215 11:15:02.671391 17832 layer_factory.hpp:74] Creating layer inception_4c/3x3_reduce
I1215 11:15:02.671411 17832 net.cpp:84] Creating Layer inception_4c/3x3_reduce
I1215 11:15:02.671417 17832 net.cpp:380] inception_4c/3x3_reduce <- inception_4b/output_inception_4b/output_0_split_1
I1215 11:15:02.671427 17832 net.cpp:338] inception_4c/3x3_reduce -> inception_4c/3x3_reduce
I1215 11:15:02.671437 17832 net.cpp:113] Setting up inception_4c/3x3_reduce
I1215 11:15:02.672627 17832 net.cpp:120] Top shape: 50 128 14 14 (1254400)
I1215 11:15:02.672643 17832 layer_factory.hpp:74] Creating layer inception_4c/relu_3x3_reduce
I1215 11:15:02.672651 17832 net.cpp:84] Creating Layer inception_4c/relu_3x3_reduce
I1215 11:15:02.672657 17832 net.cpp:380] inception_4c/relu_3x3_reduce <- inception_4c/3x3_reduce
I1215 11:15:02.672662 17832 net.cpp:327] inception_4c/relu_3x3_reduce -> inception_4c/3x3_reduce (in-place)
I1215 11:15:02.672670 17832 net.cpp:113] Setting up inception_4c/relu_3x3_reduce
I1215 11:15:02.672742 17832 net.cpp:120] Top shape: 50 128 14 14 (1254400)
I1215 11:15:02.672750 17832 layer_factory.hpp:74] Creating layer inception_4c/3x3
I1215 11:15:02.672758 17832 net.cpp:84] Creating Layer inception_4c/3x3
I1215 11:15:02.672763 17832 net.cpp:380] inception_4c/3x3 <- inception_4c/3x3_reduce
I1215 11:15:02.672772 17832 net.cpp:338] inception_4c/3x3 -> inception_4c/3x3
I1215 11:15:02.672780 17832 net.cpp:113] Setting up inception_4c/3x3
I1215 11:15:02.676614 17832 net.cpp:120] Top shape: 50 256 14 14 (2508800)
I1215 11:15:02.676645 17832 layer_factory.hpp:74] Creating layer inception_4c/relu_3x3
I1215 11:15:02.676652 17832 net.cpp:84] Creating Layer inception_4c/relu_3x3
I1215 11:15:02.676658 17832 net.cpp:380] inception_4c/relu_3x3 <- inception_4c/3x3
I1215 11:15:02.676666 17832 net.cpp:327] inception_4c/relu_3x3 -> inception_4c/3x3 (in-place)
I1215 11:15:02.676672 17832 net.cpp:113] Setting up inception_4c/relu_3x3
I1215 11:15:02.676745 17832 net.cpp:120] Top shape: 50 256 14 14 (2508800)
I1215 11:15:02.676753 17832 layer_factory.hpp:74] Creating layer inception_4c/5x5_reduce
I1215 11:15:02.676764 17832 net.cpp:84] Creating Layer inception_4c/5x5_reduce
I1215 11:15:02.676769 17832 net.cpp:380] inception_4c/5x5_reduce <- inception_4b/output_inception_4b/output_0_split_2
I1215 11:15:02.676776 17832 net.cpp:338] inception_4c/5x5_reduce -> inception_4c/5x5_reduce
I1215 11:15:02.676785 17832 net.cpp:113] Setting up inception_4c/5x5_reduce
I1215 11:15:02.677368 17832 net.cpp:120] Top shape: 50 24 14 14 (235200)
I1215 11:15:02.677384 17832 layer_factory.hpp:74] Creating layer inception_4c/relu_5x5_reduce
I1215 11:15:02.677394 17832 net.cpp:84] Creating Layer inception_4c/relu_5x5_reduce
I1215 11:15:02.677400 17832 net.cpp:380] inception_4c/relu_5x5_reduce <- inception_4c/5x5_reduce
I1215 11:15:02.677407 17832 net.cpp:327] inception_4c/relu_5x5_reduce -> inception_4c/5x5_reduce (in-place)
I1215 11:15:02.677414 17832 net.cpp:113] Setting up inception_4c/relu_5x5_reduce
I1215 11:15:02.677677 17832 net.cpp:120] Top shape: 50 24 14 14 (235200)
I1215 11:15:02.677690 17832 layer_factory.hpp:74] Creating layer inception_4c/5x5
I1215 11:15:02.677700 17832 net.cpp:84] Creating Layer inception_4c/5x5
I1215 11:15:02.677705 17832 net.cpp:380] inception_4c/5x5 <- inception_4c/5x5_reduce
I1215 11:15:02.677714 17832 net.cpp:338] inception_4c/5x5 -> inception_4c/5x5
I1215 11:15:02.677723 17832 net.cpp:113] Setting up inception_4c/5x5
I1215 11:15:02.678598 17832 net.cpp:120] Top shape: 50 64 14 14 (627200)
I1215 11:15:02.678613 17832 layer_factory.hpp:74] Creating layer inception_4c/relu_5x5
I1215 11:15:02.678622 17832 net.cpp:84] Creating Layer inception_4c/relu_5x5
I1215 11:15:02.678628 17832 net.cpp:380] inception_4c/relu_5x5 <- inception_4c/5x5
I1215 11:15:02.678635 17832 net.cpp:327] inception_4c/relu_5x5 -> inception_4c/5x5 (in-place)
I1215 11:15:02.678642 17832 net.cpp:113] Setting up inception_4c/relu_5x5
I1215 11:15:02.678719 17832 net.cpp:120] Top shape: 50 64 14 14 (627200)
I1215 11:15:02.678725 17832 layer_factory.hpp:74] Creating layer inception_4c/pool
I1215 11:15:02.678736 17832 layer_factory.cpp:56] CUDNN does not support padding or multiple tops. Using Caffe's own pooling layer.
I1215 11:15:02.678750 17832 net.cpp:84] Creating Layer inception_4c/pool
I1215 11:15:02.678756 17832 net.cpp:380] inception_4c/pool <- inception_4b/output_inception_4b/output_0_split_3
I1215 11:15:02.678763 17832 net.cpp:338] inception_4c/pool -> inception_4c/pool
I1215 11:15:02.678771 17832 net.cpp:113] Setting up inception_4c/pool
I1215 11:15:02.678781 17832 net.cpp:120] Top shape: 50 512 14 14 (5017600)
I1215 11:15:02.678787 17832 layer_factory.hpp:74] Creating layer inception_4c/pool_proj
I1215 11:15:02.678796 17832 net.cpp:84] Creating Layer inception_4c/pool_proj
I1215 11:15:02.678799 17832 net.cpp:380] inception_4c/pool_proj <- inception_4c/pool
I1215 11:15:02.678808 17832 net.cpp:338] inception_4c/pool_proj -> inception_4c/pool_proj
I1215 11:15:02.678817 17832 net.cpp:113] Setting up inception_4c/pool_proj
I1215 11:15:02.679633 17832 net.cpp:120] Top shape: 50 64 14 14 (627200)
I1215 11:15:02.679648 17832 layer_factory.hpp:74] Creating layer inception_4c/relu_pool_proj
I1215 11:15:02.679657 17832 net.cpp:84] Creating Layer inception_4c/relu_pool_proj
I1215 11:15:02.679663 17832 net.cpp:380] inception_4c/relu_pool_proj <- inception_4c/pool_proj
I1215 11:15:02.679671 17832 net.cpp:327] inception_4c/relu_pool_proj -> inception_4c/pool_proj (in-place)
I1215 11:15:02.679678 17832 net.cpp:113] Setting up inception_4c/relu_pool_proj
I1215 11:15:02.679749 17832 net.cpp:120] Top shape: 50 64 14 14 (627200)
I1215 11:15:02.679755 17832 layer_factory.hpp:74] Creating layer inception_4c/output
I1215 11:15:02.679764 17832 net.cpp:84] Creating Layer inception_4c/output
I1215 11:15:02.679769 17832 net.cpp:380] inception_4c/output <- inception_4c/1x1
I1215 11:15:02.679775 17832 net.cpp:380] inception_4c/output <- inception_4c/3x3
I1215 11:15:02.679781 17832 net.cpp:380] inception_4c/output <- inception_4c/5x5
I1215 11:15:02.679786 17832 net.cpp:380] inception_4c/output <- inception_4c/pool_proj
I1215 11:15:02.679792 17832 net.cpp:338] inception_4c/output -> inception_4c/output
I1215 11:15:02.679800 17832 net.cpp:113] Setting up inception_4c/output
I1215 11:15:02.679807 17832 net.cpp:120] Top shape: 50 512 14 14 (5017600)
I1215 11:15:02.679811 17832 layer_factory.hpp:74] Creating layer inception_4c/output_inception_4c/output_0_split
I1215 11:15:02.679821 17832 net.cpp:84] Creating Layer inception_4c/output_inception_4c/output_0_split
I1215 11:15:02.679826 17832 net.cpp:380] inception_4c/output_inception_4c/output_0_split <- inception_4c/output
I1215 11:15:02.679831 17832 net.cpp:338] inception_4c/output_inception_4c/output_0_split -> inception_4c/output_inception_4c/output_0_split_0
I1215 11:15:02.679839 17832 net.cpp:338] inception_4c/output_inception_4c/output_0_split -> inception_4c/output_inception_4c/output_0_split_1
I1215 11:15:02.679847 17832 net.cpp:338] inception_4c/output_inception_4c/output_0_split -> inception_4c/output_inception_4c/output_0_split_2
I1215 11:15:02.679853 17832 net.cpp:338] inception_4c/output_inception_4c/output_0_split -> inception_4c/output_inception_4c/output_0_split_3
I1215 11:15:02.679860 17832 net.cpp:113] Setting up inception_4c/output_inception_4c/output_0_split
I1215 11:15:02.679867 17832 net.cpp:120] Top shape: 50 512 14 14 (5017600)
I1215 11:15:02.679872 17832 net.cpp:120] Top shape: 50 512 14 14 (5017600)
I1215 11:15:02.679877 17832 net.cpp:120] Top shape: 50 512 14 14 (5017600)
I1215 11:15:02.679883 17832 net.cpp:120] Top shape: 50 512 14 14 (5017600)
I1215 11:15:02.679888 17832 layer_factory.hpp:74] Creating layer inception_4d/1x1
I1215 11:15:02.679896 17832 net.cpp:84] Creating Layer inception_4d/1x1
I1215 11:15:02.679901 17832 net.cpp:380] inception_4d/1x1 <- inception_4c/output_inception_4c/output_0_split_0
I1215 11:15:02.679910 17832 net.cpp:338] inception_4d/1x1 -> inception_4d/1x1
I1215 11:15:02.679919 17832 net.cpp:113] Setting up inception_4d/1x1
I1215 11:15:02.681021 17832 net.cpp:120] Top shape: 50 112 14 14 (1097600)
I1215 11:15:02.681036 17832 layer_factory.hpp:74] Creating layer inception_4d/relu_1x1
I1215 11:15:02.681051 17832 net.cpp:84] Creating Layer inception_4d/relu_1x1
I1215 11:15:02.681071 17832 net.cpp:380] inception_4d/relu_1x1 <- inception_4d/1x1
I1215 11:15:02.681078 17832 net.cpp:327] inception_4d/relu_1x1 -> inception_4d/1x1 (in-place)
I1215 11:15:02.681087 17832 net.cpp:113] Setting up inception_4d/relu_1x1
I1215 11:15:02.681159 17832 net.cpp:120] Top shape: 50 112 14 14 (1097600)
I1215 11:15:02.681166 17832 layer_factory.hpp:74] Creating layer inception_4d/3x3_reduce
I1215 11:15:02.681176 17832 net.cpp:84] Creating Layer inception_4d/3x3_reduce
I1215 11:15:02.681181 17832 net.cpp:380] inception_4d/3x3_reduce <- inception_4c/output_inception_4c/output_0_split_1
I1215 11:15:02.681190 17832 net.cpp:338] inception_4d/3x3_reduce -> inception_4d/3x3_reduce
I1215 11:15:02.681200 17832 net.cpp:113] Setting up inception_4d/3x3_reduce
I1215 11:15:02.682484 17832 net.cpp:120] Top shape: 50 144 14 14 (1411200)
I1215 11:15:02.682502 17832 layer_factory.hpp:74] Creating layer inception_4d/relu_3x3_reduce
I1215 11:15:02.682509 17832 net.cpp:84] Creating Layer inception_4d/relu_3x3_reduce
I1215 11:15:02.682515 17832 net.cpp:380] inception_4d/relu_3x3_reduce <- inception_4d/3x3_reduce
I1215 11:15:02.682523 17832 net.cpp:327] inception_4d/relu_3x3_reduce -> inception_4d/3x3_reduce (in-place)
I1215 11:15:02.682535 17832 net.cpp:113] Setting up inception_4d/relu_3x3_reduce
I1215 11:15:02.682803 17832 net.cpp:120] Top shape: 50 144 14 14 (1411200)
I1215 11:15:02.682816 17832 layer_factory.hpp:74] Creating layer inception_4d/3x3
I1215 11:15:02.682827 17832 net.cpp:84] Creating Layer inception_4d/3x3
I1215 11:15:02.682832 17832 net.cpp:380] inception_4d/3x3 <- inception_4d/3x3_reduce
I1215 11:15:02.682840 17832 net.cpp:338] inception_4d/3x3 -> inception_4d/3x3
I1215 11:15:02.682848 17832 net.cpp:113] Setting up inception_4d/3x3
I1215 11:15:02.687587 17832 net.cpp:120] Top shape: 50 288 14 14 (2822400)
I1215 11:15:02.687604 17832 layer_factory.hpp:74] Creating layer inception_4d/relu_3x3
I1215 11:15:02.687613 17832 net.cpp:84] Creating Layer inception_4d/relu_3x3
I1215 11:15:02.687619 17832 net.cpp:380] inception_4d/relu_3x3 <- inception_4d/3x3
I1215 11:15:02.687626 17832 net.cpp:327] inception_4d/relu_3x3 -> inception_4d/3x3 (in-place)
I1215 11:15:02.687634 17832 net.cpp:113] Setting up inception_4d/relu_3x3
I1215 11:15:02.687707 17832 net.cpp:120] Top shape: 50 288 14 14 (2822400)
I1215 11:15:02.687715 17832 layer_factory.hpp:74] Creating layer inception_4d/5x5_reduce
I1215 11:15:02.687724 17832 net.cpp:84] Creating Layer inception_4d/5x5_reduce
I1215 11:15:02.687729 17832 net.cpp:380] inception_4d/5x5_reduce <- inception_4c/output_inception_4c/output_0_split_2
I1215 11:15:02.687742 17832 net.cpp:338] inception_4d/5x5_reduce -> inception_4d/5x5_reduce
I1215 11:15:02.687752 17832 net.cpp:113] Setting up inception_4d/5x5_reduce
I1215 11:15:02.688417 17832 net.cpp:120] Top shape: 50 32 14 14 (313600)
I1215 11:15:02.688433 17832 layer_factory.hpp:74] Creating layer inception_4d/relu_5x5_reduce
I1215 11:15:02.688441 17832 net.cpp:84] Creating Layer inception_4d/relu_5x5_reduce
I1215 11:15:02.688446 17832 net.cpp:380] inception_4d/relu_5x5_reduce <- inception_4d/5x5_reduce
I1215 11:15:02.688455 17832 net.cpp:327] inception_4d/relu_5x5_reduce -> inception_4d/5x5_reduce (in-place)
I1215 11:15:02.688463 17832 net.cpp:113] Setting up inception_4d/relu_5x5_reduce
I1215 11:15:02.688539 17832 net.cpp:120] Top shape: 50 32 14 14 (313600)
I1215 11:15:02.688544 17832 layer_factory.hpp:74] Creating layer inception_4d/5x5
I1215 11:15:02.688552 17832 net.cpp:84] Creating Layer inception_4d/5x5
I1215 11:15:02.688557 17832 net.cpp:380] inception_4d/5x5 <- inception_4d/5x5_reduce
I1215 11:15:02.688567 17832 net.cpp:338] inception_4d/5x5 -> inception_4d/5x5
I1215 11:15:02.688575 17832 net.cpp:113] Setting up inception_4d/5x5
I1215 11:15:02.689611 17832 net.cpp:120] Top shape: 50 64 14 14 (627200)
I1215 11:15:02.689628 17832 layer_factory.hpp:74] Creating layer inception_4d/relu_5x5
I1215 11:15:02.689640 17832 net.cpp:84] Creating Layer inception_4d/relu_5x5
I1215 11:15:02.689653 17832 net.cpp:380] inception_4d/relu_5x5 <- inception_4d/5x5
I1215 11:15:02.689662 17832 net.cpp:327] inception_4d/relu_5x5 -> inception_4d/5x5 (in-place)
I1215 11:15:02.689671 17832 net.cpp:113] Setting up inception_4d/relu_5x5
I1215 11:15:02.689746 17832 net.cpp:120] Top shape: 50 64 14 14 (627200)
I1215 11:15:02.689752 17832 layer_factory.hpp:74] Creating layer inception_4d/pool
I1215 11:15:02.689757 17832 layer_factory.cpp:56] CUDNN does not support padding or multiple tops. Using Caffe's own pooling layer.
I1215 11:15:02.689764 17832 net.cpp:84] Creating Layer inception_4d/pool
I1215 11:15:02.689769 17832 net.cpp:380] inception_4d/pool <- inception_4c/output_inception_4c/output_0_split_3
I1215 11:15:02.689776 17832 net.cpp:338] inception_4d/pool -> inception_4d/pool
I1215 11:15:02.689785 17832 net.cpp:113] Setting up inception_4d/pool
I1215 11:15:02.689792 17832 net.cpp:120] Top shape: 50 512 14 14 (5017600)
I1215 11:15:02.689797 17832 layer_factory.hpp:74] Creating layer inception_4d/pool_proj
I1215 11:15:02.689807 17832 net.cpp:84] Creating Layer inception_4d/pool_proj
I1215 11:15:02.689812 17832 net.cpp:380] inception_4d/pool_proj <- inception_4d/pool
I1215 11:15:02.689821 17832 net.cpp:338] inception_4d/pool_proj -> inception_4d/pool_proj
I1215 11:15:02.689829 17832 net.cpp:113] Setting up inception_4d/pool_proj
I1215 11:15:02.690651 17832 net.cpp:120] Top shape: 50 64 14 14 (627200)
I1215 11:15:02.690667 17832 layer_factory.hpp:74] Creating layer inception_4d/relu_pool_proj
I1215 11:15:02.690676 17832 net.cpp:84] Creating Layer inception_4d/relu_pool_proj
I1215 11:15:02.690682 17832 net.cpp:380] inception_4d/relu_pool_proj <- inception_4d/pool_proj
I1215 11:15:02.690690 17832 net.cpp:327] inception_4d/relu_pool_proj -> inception_4d/pool_proj (in-place)
I1215 11:15:02.690697 17832 net.cpp:113] Setting up inception_4d/relu_pool_proj
I1215 11:15:02.690963 17832 net.cpp:120] Top shape: 50 64 14 14 (627200)
I1215 11:15:02.690975 17832 layer_factory.hpp:74] Creating layer inception_4d/output
I1215 11:15:02.690982 17832 net.cpp:84] Creating Layer inception_4d/output
I1215 11:15:02.690989 17832 net.cpp:380] inception_4d/output <- inception_4d/1x1
I1215 11:15:02.690996 17832 net.cpp:380] inception_4d/output <- inception_4d/3x3
I1215 11:15:02.691002 17832 net.cpp:380] inception_4d/output <- inception_4d/5x5
I1215 11:15:02.691007 17832 net.cpp:380] inception_4d/output <- inception_4d/pool_proj
I1215 11:15:02.691014 17832 net.cpp:338] inception_4d/output -> inception_4d/output
I1215 11:15:02.691021 17832 net.cpp:113] Setting up inception_4d/output
I1215 11:15:02.691030 17832 net.cpp:120] Top shape: 50 528 14 14 (5174400)
I1215 11:15:02.691035 17832 layer_factory.hpp:74] Creating layer inception_4d/output_inception_4d/output_0_split
I1215 11:15:02.691041 17832 net.cpp:84] Creating Layer inception_4d/output_inception_4d/output_0_split
I1215 11:15:02.691045 17832 net.cpp:380] inception_4d/output_inception_4d/output_0_split <- inception_4d/output
I1215 11:15:02.691052 17832 net.cpp:338] inception_4d/output_inception_4d/output_0_split -> inception_4d/output_inception_4d/output_0_split_0
I1215 11:15:02.691062 17832 net.cpp:338] inception_4d/output_inception_4d/output_0_split -> inception_4d/output_inception_4d/output_0_split_1
I1215 11:15:02.691071 17832 net.cpp:338] inception_4d/output_inception_4d/output_0_split -> inception_4d/output_inception_4d/output_0_split_2
I1215 11:15:02.691078 17832 net.cpp:338] inception_4d/output_inception_4d/output_0_split -> inception_4d/output_inception_4d/output_0_split_3
I1215 11:15:02.691085 17832 net.cpp:338] inception_4d/output_inception_4d/output_0_split -> inception_4d/output_inception_4d/output_0_split_4
I1215 11:15:02.691092 17832 net.cpp:113] Setting up inception_4d/output_inception_4d/output_0_split
I1215 11:15:02.691099 17832 net.cpp:120] Top shape: 50 528 14 14 (5174400)
I1215 11:15:02.691104 17832 net.cpp:120] Top shape: 50 528 14 14 (5174400)
I1215 11:15:02.691109 17832 net.cpp:120] Top shape: 50 528 14 14 (5174400)
I1215 11:15:02.691119 17832 net.cpp:120] Top shape: 50 528 14 14 (5174400)
I1215 11:15:02.691133 17832 net.cpp:120] Top shape: 50 528 14 14 (5174400)
I1215 11:15:02.691136 17832 layer_factory.hpp:74] Creating layer loss2/ave_pool
I1215 11:15:02.691145 17832 net.cpp:84] Creating Layer loss2/ave_pool
I1215 11:15:02.691150 17832 net.cpp:380] loss2/ave_pool <- inception_4d/output_inception_4d/output_0_split_0
I1215 11:15:02.691157 17832 net.cpp:338] loss2/ave_pool -> loss2/ave_pool
I1215 11:15:02.691164 17832 net.cpp:113] Setting up loss2/ave_pool
I1215 11:15:02.691238 17832 net.cpp:120] Top shape: 50 528 4 4 (422400)
I1215 11:15:02.691246 17832 layer_factory.hpp:74] Creating layer loss2/conv
I1215 11:15:02.691254 17832 net.cpp:84] Creating Layer loss2/conv
I1215 11:15:02.691259 17832 net.cpp:380] loss2/conv <- loss2/ave_pool
I1215 11:15:02.691267 17832 net.cpp:338] loss2/conv -> loss2/conv
I1215 11:15:02.691275 17832 net.cpp:113] Setting up loss2/conv
I1215 11:15:02.692503 17832 net.cpp:120] Top shape: 50 128 4 4 (102400)
I1215 11:15:02.692519 17832 layer_factory.hpp:74] Creating layer loss2/relu_conv
I1215 11:15:02.692526 17832 net.cpp:84] Creating Layer loss2/relu_conv
I1215 11:15:02.692533 17832 net.cpp:380] loss2/relu_conv <- loss2/conv
I1215 11:15:02.692540 17832 net.cpp:327] loss2/relu_conv -> loss2/conv (in-place)
I1215 11:15:02.692548 17832 net.cpp:113] Setting up loss2/relu_conv
I1215 11:15:02.692620 17832 net.cpp:120] Top shape: 50 128 4 4 (102400)
I1215 11:15:02.692626 17832 layer_factory.hpp:74] Creating layer loss2/fc
I1215 11:15:02.692636 17832 net.cpp:84] Creating Layer loss2/fc
I1215 11:15:02.692641 17832 net.cpp:380] loss2/fc <- loss2/conv
I1215 11:15:02.692648 17832 net.cpp:338] loss2/fc -> loss2/fc
I1215 11:15:02.692657 17832 net.cpp:113] Setting up loss2/fc
I1215 11:15:02.715976 17832 net.cpp:120] Top shape: 50 1024 (51200)
I1215 11:15:02.715993 17832 layer_factory.hpp:74] Creating layer loss2/relu_fc
I1215 11:15:02.716002 17832 net.cpp:84] Creating Layer loss2/relu_fc
I1215 11:15:02.716009 17832 net.cpp:380] loss2/relu_fc <- loss2/fc
I1215 11:15:02.716017 17832 net.cpp:327] loss2/relu_fc -> loss2/fc (in-place)
I1215 11:15:02.716023 17832 net.cpp:113] Setting up loss2/relu_fc
I1215 11:15:02.716111 17832 net.cpp:120] Top shape: 50 1024 (51200)
I1215 11:15:02.716119 17832 layer_factory.hpp:74] Creating layer loss2/drop_fc
I1215 11:15:02.716126 17832 net.cpp:84] Creating Layer loss2/drop_fc
I1215 11:15:02.716130 17832 net.cpp:380] loss2/drop_fc <- loss2/fc
I1215 11:15:02.716140 17832 net.cpp:327] loss2/drop_fc -> loss2/fc (in-place)
I1215 11:15:02.716146 17832 net.cpp:113] Setting up loss2/drop_fc
I1215 11:15:02.716153 17832 net.cpp:120] Top shape: 50 1024 (51200)
I1215 11:15:02.716158 17832 layer_factory.hpp:74] Creating layer loss2/classifier_kaggle
I1215 11:15:02.716167 17832 net.cpp:84] Creating Layer loss2/classifier_kaggle
I1215 11:15:02.716171 17832 net.cpp:380] loss2/classifier_kaggle <- loss2/fc
I1215 11:15:02.716181 17832 net.cpp:338] loss2/classifier_kaggle -> loss2/classifier_kaggle
I1215 11:15:02.716188 17832 net.cpp:113] Setting up loss2/classifier_kaggle
I1215 11:15:02.721479 17832 net.cpp:120] Top shape: 50 447 (22350)
I1215 11:15:02.721492 17832 layer_factory.hpp:74] Creating layer loss2/classifier_kaggle_loss2/classifier_kaggle_0_split
I1215 11:15:02.721499 17832 net.cpp:84] Creating Layer loss2/classifier_kaggle_loss2/classifier_kaggle_0_split
I1215 11:15:02.721504 17832 net.cpp:380] loss2/classifier_kaggle_loss2/classifier_kaggle_0_split <- loss2/classifier_kaggle
I1215 11:15:02.721513 17832 net.cpp:338] loss2/classifier_kaggle_loss2/classifier_kaggle_0_split -> loss2/classifier_kaggle_loss2/classifier_kaggle_0_split_0
I1215 11:15:02.721524 17832 net.cpp:338] loss2/classifier_kaggle_loss2/classifier_kaggle_0_split -> loss2/classifier_kaggle_loss2/classifier_kaggle_0_split_1
I1215 11:15:02.721531 17832 net.cpp:338] loss2/classifier_kaggle_loss2/classifier_kaggle_0_split -> loss2/classifier_kaggle_loss2/classifier_kaggle_0_split_2
I1215 11:15:02.721539 17832 net.cpp:113] Setting up loss2/classifier_kaggle_loss2/classifier_kaggle_0_split
I1215 11:15:02.721560 17832 net.cpp:120] Top shape: 50 447 (22350)
I1215 11:15:02.721566 17832 net.cpp:120] Top shape: 50 447 (22350)
I1215 11:15:02.721571 17832 net.cpp:120] Top shape: 50 447 (22350)
I1215 11:15:02.721575 17832 layer_factory.hpp:74] Creating layer loss2/loss
I1215 11:15:02.721582 17832 net.cpp:84] Creating Layer loss2/loss
I1215 11:15:02.721587 17832 net.cpp:380] loss2/loss <- loss2/classifier_kaggle_loss2/classifier_kaggle_0_split_0
I1215 11:15:02.721595 17832 net.cpp:380] loss2/loss <- label_data_1_split_3
I1215 11:15:02.721603 17832 net.cpp:338] loss2/loss -> loss2/loss1
…
I1215 11:15:02.722106 17832 net.cpp:338] loss2/top-5 -> loss2/top-5
I1215 11:15:02.722113 17832 net.cpp:113] Setting up loss2/top-5
I1215 11:15:02.722120 17832 net.cpp:120] Top shape: (1)
I1215 11:15:02.722123 17832 layer_factory.hpp:74] Creating layer inception_4e/1x1
I1215 11:15:02.722132 17832 net.cpp:84] Creating Layer inception_4e/1x1
I1215 11:15:02.722137 17832 net.cpp:380] inception_4e/1x1 <- inception_4d/output_inception_4d/output_0_split_1
I1215 11:15:02.722147 17832 net.cpp:338] inception_4e/1x1 -> inception_4e/1x1
I1215 11:15:02.722156 17832 net.cpp:113] Setting up inception_4e/1x1
I1215 11:15:02.724160 17832 net.cpp:120] Top shape: 50 256 14 14 (2508800)
I1215 11:15:02.724176 17832 layer_factory.hpp:74] Creating layer inception_4e/relu_1x1
I1215 11:15:02.724184 17832 net.cpp:84] Creating Layer inception_4e/relu_1x1
I1215 11:15:02.724190 17832 net.cpp:380] inception_4e/relu_1x1 <- inception_4e/1x1
I1215 11:15:02.724198 17832 net.cpp:327] inception_4e/relu_1x1 -> inception_4e/1x1 (in-place)
I1215 11:15:02.724206 17832 net.cpp:113] Setting up inception_4e/relu_1x1
I1215 11:15:02.724283 17832 net.cpp:120] Top shape: 50 256 14 14 (2508800)
I1215 11:15:02.724290 17832 layer_factory.hpp:74] Creating layer inception_4e/3x3_reduce
I1215 11:15:02.724318 17832 net.cpp:84] Creating Layer inception_4e/3x3_reduce
I1215 11:15:02.724323 17832 net.cpp:380] inception_4e/3x3_reduce <- inception_4d/output_inception_4d/output_0_split_2
I1215 11:15:02.724331 17832 net.cpp:338] inception_4e/3x3_reduce -> inception_4e/3x3_reduce
I1215 11:15:02.724339 17832 net.cpp:113] Setting up inception_4e/3x3_reduce
I1215 11:15:02.725764 17832 net.cpp:120] Top shape: 50 160 14 14 (1568000)
I1215 11:15:02.725780 17832 layer_factory.hpp:74] Creating layer inception_4e/relu_3x3_reduce
I1215 11:15:02.725788 17832 net.cpp:84] Creating Layer inception_4e/relu_3x3_reduce
I1215 11:15:02.725795 17832 net.cpp:380] inception_4e/relu_3x3_reduce <- inception_4e/3x3_reduce
I1215 11:15:02.725802 17832 net.cpp:327] inception_4e/relu_3x3_reduce -> inception_4e/3x3_reduce (in-place)
I1215 11:15:02.725811 17832 net.cpp:113] Setting up inception_4e/relu_3x3_reduce
I1215 11:15:02.725884 17832 net.cpp:120] Top shape: 50 160 14 14 (1568000)
I1215 11:15:02.725890 17832 layer_factory.hpp:74] Creating layer inception_4e/3x3
I1215 11:15:02.725905 17832 net.cpp:84] Creating Layer inception_4e/3x3
I1215 11:15:02.725917 17832 net.cpp:380] inception_4e/3x3 <- inception_4e/3x3_reduce
I1215 11:15:02.725926 17832 net.cpp:338] inception_4e/3x3 -> inception_4e/3x3
I1215 11:15:02.725935 17832 net.cpp:113] Setting up inception_4e/3x3
I1215 11:15:02.731782 17832 net.cpp:120] Top shape: 50 320 14 14 (3136000)
I1215 11:15:02.731799 17832 layer_factory.hpp:74] Creating layer inception_4e/relu_3x3
I1215 11:15:02.731807 17832 net.cpp:84] Creating Layer inception_4e/relu_3x3
I1215 11:15:02.731813 17832 net.cpp:380] inception_4e/relu_3x3 <- inception_4e/3x3
I1215 11:15:02.731820 17832 net.cpp:327] inception_4e/relu_3x3 -> inception_4e/3x3 (in-place)
I1215 11:15:02.731827 17832 net.cpp:113] Setting up inception_4e/relu_3x3
I1215 11:15:02.732087 17832 net.cpp:120] Top shape: 50 320 14 14 (3136000)
I1215 11:15:02.732100 17832 layer_factory.hpp:74] Creating layer inception_4e/5x5_reduce
I1215 11:15:02.732108 17832 net.cpp:84] Creating Layer inception_4e/5x5_reduce
I1215 11:15:02.732113 17832 net.cpp:380] inception_4e/5x5_reduce <- inception_4d/output_inception_4d/output_0_split_3
I1215 11:15:02.732121 17832 net.cpp:338] inception_4e/5x5_reduce -> inception_4e/5x5_reduce
I1215 11:15:02.732131 17832 net.cpp:113] Setting up inception_4e/5x5_reduce
I1215 11:15:02.732745 17832 net.cpp:120] Top shape: 50 32 14 14 (313600)
I1215 11:15:02.732760 17832 layer_factory.hpp:74] Creating layer inception_4e/relu_5x5_reduce
I1215 11:15:02.732770 17832 net.cpp:84] Creating Layer inception_4e/relu_5x5_reduce
I1215 11:15:02.732776 17832 net.cpp:380] inception_4e/relu_5x5_reduce <- inception_4e/5x5_reduce
I1215 11:15:02.732784 17832 net.cpp:327] inception_4e/relu_5x5_reduce -> inception_4e/5x5_reduce (in-place)
I1215 11:15:02.732790 17832 net.cpp:113] Setting up inception_4e/relu_5x5_reduce
I1215 11:15:02.732866 17832 net.cpp:120] Top shape: 50 32 14 14 (313600)
I1215 11:15:02.732872 17832 layer_factory.hpp:74] Creating layer inception_4e/5x5
I1215 11:15:02.732880 17832 net.cpp:84] Creating Layer inception_4e/5x5
I1215 11:15:02.732885 17832 net.cpp:380] inception_4e/5x5 <- inception_4e/5x5_reduce
I1215 11:15:02.732897 17832 net.cpp:338] inception_4e/5x5 -> inception_4e/5x5
I1215 11:15:02.732905 17832 net.cpp:113] Setting up inception_4e/5x5
I1215 11:15:02.734534 17832 net.cpp:120] Top shape: 50 128 14 14 (1254400)
I1215 11:15:02.734551 17832 layer_factory.hpp:74] Creating layer inception_4e/relu_5x5
I1215 11:15:02.734558 17832 net.cpp:84] Creating Layer inception_4e/relu_5x5
I1215 11:15:02.734565 17832 net.cpp:380] inception_4e/relu_5x5 <- inception_4e/5x5
I1215 11:15:02.734571 17832 net.cpp:327] inception_4e/relu_5x5 -> inception_4e/5x5 (in-place)
I1215 11:15:02.734578 17832 net.cpp:113] Setting up inception_4e/relu_5x5
I1215 11:15:02.734650 17832 net.cpp:120] Top shape: 50 128 14 14 (1254400)
I1215 11:15:02.734657 17832 layer_factory.hpp:74] Creating layer inception_4e/pool
I1215 11:15:02.734663 17832 layer_factory.cpp:56] CUDNN does not support padding or multiple tops. Using Caffe's own pooling layer.
I1215 11:15:02.734668 17832 net.cpp:84] Creating Layer inception_4e/pool
I1215 11:15:02.734673 17832 net.cpp:380] inception_4e/pool <- inception_4d/output_inception_4d/output_0_split_4
I1215 11:15:02.734683 17832 net.cpp:338] inception_4e/pool -> inception_4e/pool
I1215 11:15:02.734690 17832 net.cpp:113] Setting up inception_4e/pool
I1215 11:15:02.734699 17832 net.cpp:120] Top shape: 50 528 14 14 (5174400)
I1215 11:15:02.734704 17832 layer_factory.hpp:74] Creating layer inception_4e/pool_proj
I1215 11:15:02.734712 17832 net.cpp:84] Creating Layer inception_4e/pool_proj
I1215 11:15:02.734719 17832 net.cpp:380] inception_4e/pool_proj <- inception_4e/pool
I1215 11:15:02.734726 17832 net.cpp:338] inception_4e/pool_proj -> inception_4e/pool_proj
I1215 11:15:02.734735 17832 net.cpp:113] Setting up inception_4e/pool_proj
I1215 11:15:02.735960 17832 net.cpp:120] Top shape: 50 128 14 14 (1254400)
I1215 11:15:02.735977 17832 layer_factory.hpp:74] Creating layer inception_4e/relu_pool_proj
I1215 11:15:02.735990 17832 net.cpp:84] Creating Layer inception_4e/relu_pool_proj
I1215 11:15:02.736002 17832 net.cpp:380] inception_4e/relu_pool_proj <- inception_4e/pool_proj
I1215 11:15:02.736011 17832 net.cpp:327] inception_4e/relu_pool_proj -> inception_4e/pool_proj (in-place)
I1215 11:15:02.736019 17832 net.cpp:113] Setting up inception_4e/relu_pool_proj
I1215 11:15:02.736089 17832 net.cpp:120] Top shape: 50 128 14 14 (1254400)
I1215 11:15:02.736099 17832 layer_factory.hpp:74] Creating layer inception_4e/output
I1215 11:15:02.736105 17832 net.cpp:84] Creating Layer inception_4e/output
I1215 11:15:02.736110 17832 net.cpp:380] inception_4e/output <- inception_4e/1x1
I1215 11:15:02.736116 17832 net.cpp:380] inception_4e/output <- inception_4e/3x3
I1215 11:15:02.736122 17832 net.cpp:380] inception_4e/output <- inception_4e/5x5
I1215 11:15:02.736127 17832 net.cpp:380] inception_4e/output <- inception_4e/pool_proj
I1215 11:15:02.736135 17832 net.cpp:338] inception_4e/output -> inception_4e/output
I1215 11:15:02.736143 17832 net.cpp:113] Setting up inception_4e/output
I1215 11:15:02.736151 17832 net.cpp:120] Top shape: 50 832 14 14 (8153600)
I1215 11:15:02.736156 17832 layer_factory.hpp:74] Creating layer pool4/3x3_s2
I1215 11:15:02.736163 17832 net.cpp:84] Creating Layer pool4/3x3_s2
I1215 11:15:02.736167 17832 net.cpp:380] pool4/3x3_s2 <- inception_4e/output
I1215 11:15:02.736174 17832 net.cpp:338] pool4/3x3_s2 -> pool4/3x3_s2
I1215 11:15:02.736181 17832 net.cpp:113] Setting up pool4/3x3_s2
I1215 11:15:02.736459 17832 net.cpp:120] Top shape: 50 832 7 7 (2038400)
I1215 11:15:02.736471 17832 layer_factory.hpp:74] Creating layer pool4/3x3_s2_pool4/3x3_s2_0_split
I1215 11:15:02.736479 17832 net.cpp:84] Creating Layer pool4/3x3_s2_pool4/3x3_s2_0_split
I1215 11:15:02.736484 17832 net.cpp:380] pool4/3x3_s2_pool4/3x3_s2_0_split <- pool4/3x3_s2
I1215 11:15:02.736492 17832 net.cpp:338] pool4/3x3_s2_pool4/3x3_s2_0_split -> pool4/3x3_s2_pool4/3x3_s2_0_split_0
I1215 11:15:02.736501 17832 net.cpp:338] pool4/3x3_s2_pool4/3x3_s2_0_split -> pool4/3x3_s2_pool4/3x3_s2_0_split_1
I1215 11:15:02.736510 17832 net.cpp:338] pool4/3x3_s2_pool4/3x3_s2_0_split -> pool4/3x3_s2_pool4/3x3_s2_0_split_2
I1215 11:15:02.736533 17832 net.cpp:338] pool4/3x3_s2_pool4/3x3_s2_0_split -> pool4/3x3_s2_pool4/3x3_s2_0_split_3
I1215 11:15:02.736541 17832 net.cpp:113] Setting up pool4/3x3_s2_pool4/3x3_s2_0_split
I1215 11:15:02.736548 17832 net.cpp:120] Top shape: 50 832 7 7 (2038400)
I1215 11:15:02.736553 17832 net.cpp:120] Top shape: 50 832 7 7 (2038400)
I1215 11:15:02.736559 17832 net.cpp:120] Top shape: 50 832 7 7 (2038400)
I1215 11:15:02.736564 17832 net.cpp:120] Top shape: 50 832 7 7 (2038400)
I1215 11:15:02.736569 17832 layer_factory.hpp:74] Creating layer inception_5a/1x1
I1215 11:15:02.736577 17832 net.cpp:84] Creating Layer inception_5a/1x1
I1215 11:15:02.736582 17832 net.cpp:380] inception_5a/1x1 <- pool4/3x3_s2_pool4/3x3_s2_0_split_0
I1215 11:15:02.736590 17832 net.cpp:338] inception_5a/1x1 -> inception_5a/1x1
I1215 11:15:02.736598 17832 net.cpp:113] Setting up inception_5a/1x1
I1215 11:15:02.739506 17832 net.cpp:120] Top shape: 50 256 7 7 (627200)
I1215 11:15:02.739523 17832 layer_factory.hpp:74] Creating layer inception_5a/relu_1x1
I1215 11:15:02.739532 17832 net.cpp:84] Creating Layer inception_5a/relu_1x1
I1215 11:15:02.739538 17832 net.cpp:380] inception_5a/relu_1x1 <- inception_5a/1x1
I1215 11:15:02.739545 17832 net.cpp:327] inception_5a/relu_1x1 -> inception_5a/1x1 (in-place)
I1215 11:15:02.739553 17832 net.cpp:113] Setting up inception_5a/relu_1x1
I1215 11:15:02.739624 17832 net.cpp:120] Top shape: 50 256 7 7 (627200)
I1215 11:15:02.739631 17832 layer_factory.hpp:74] Creating layer inception_5a/3x3_reduce
I1215 11:15:02.739641 17832 net.cpp:84] Creating Layer inception_5a/3x3_reduce
I1215 11:15:02.739646 17832 net.cpp:380] inception_5a/3x3_reduce <- pool4/3x3_s2_pool4/3x3_s2_0_split_1
I1215 11:15:02.739655 17832 net.cpp:338] inception_5a/3x3_reduce -> inception_5a/3x3_reduce
I1215 11:15:02.739662 17832 net.cpp:113] Setting up inception_5a/3x3_reduce
I1215 11:15:02.741662 17832 net.cpp:120] Top shape: 50 160 7 7 (392000)
I1215 11:15:02.741693 17832 layer_factory.hpp:74] Creating layer inception_5a/relu_3x3_reduce
I1215 11:15:02.741701 17832 net.cpp:84] Creating Layer inception_5a/relu_3x3_reduce
I1215 11:15:02.741709 17832 net.cpp:380] inception_5a/relu_3x3_reduce <- inception_5a/3x3_reduce
I1215 11:15:02.741716 17832 net.cpp:327] inception_5a/relu_3x3_reduce -> inception_5a/3x3_reduce (in-place)
I1215 11:15:02.741724 17832 net.cpp:113] Setting up inception_5a/relu_3x3_reduce
I1215 11:15:02.741799 17832 net.cpp:120] Top shape: 50 160 7 7 (392000)
I1215 11:15:02.741806 17832 layer_factory.hpp:74] Creating layer inception_5a/3x3
I1215 11:15:02.741816 17832 net.cpp:84] Creating Layer inception_5a/3x3
I1215 11:15:02.741822 17832 net.cpp:380] inception_5a/3x3 <- inception_5a/3x3_reduce
I1215 11:15:02.741830 17832 net.cpp:338] inception_5a/3x3 -> inception_5a/3x3
I1215 11:15:02.741838 17832 net.cpp:113] Setting up inception_5a/3x3
I1215 11:15:02.747591 17832 net.cpp:120] Top shape: 50 320 7 7 (784000)
I1215 11:15:02.747608 17832 layer_factory.hpp:74] Creating layer inception_5a/relu_3x3
I1215 11:15:02.747617 17832 net.cpp:84] Creating Layer inception_5a/relu_3x3
I1215 11:15:02.747623 17832 net.cpp:380] inception_5a/relu_3x3 <- inception_5a/3x3
I1215 11:15:02.747630 17832 net.cpp:327] inception_5a/relu_3x3 -> inception_5a/3x3 (in-place)
I1215 11:15:02.747638 17832 net.cpp:113] Setting up inception_5a/relu_3x3
I1215 11:15:02.747709 17832 net.cpp:120] Top shape: 50 320 7 7 (784000)
I1215 11:15:02.747717 17832 layer_factory.hpp:74] Creating layer inception_5a/5x5_reduce
I1215 11:15:02.747726 17832 net.cpp:84] Creating Layer inception_5a/5x5_reduce
I1215 11:15:02.747731 17832 net.cpp:380] inception_5a/5x5_reduce <- pool4/3x3_s2_pool4/3x3_s2_0_split_2
I1215 11:15:02.747740 17832 net.cpp:338] inception_5a/5x5_reduce -> inception_5a/5x5_reduce
I1215 11:15:02.747750 17832 net.cpp:113] Setting up inception_5a/5x5_reduce
I1215 11:15:02.748502 17832 net.cpp:120] Top shape: 50 32 7 7 (78400)
I1215 11:15:02.748518 17832 layer_factory.hpp:74] Creating layer inception_5a/relu_5x5_reduce
I1215 11:15:02.748528 17832 net.cpp:84] Creating Layer inception_5a/relu_5x5_reduce
I1215 11:15:02.748534 17832 net.cpp:380] inception_5a/relu_5x5_reduce <- inception_5a/5x5_reduce
I1215 11:15:02.748541 17832 net.cpp:327] inception_5a/relu_5x5_reduce -> inception_5a/5x5_reduce (in-place)
I1215 11:15:02.748548 17832 net.cpp:113] Setting up inception_5a/relu_5x5_reduce
I1215 11:15:02.748824 17832 net.cpp:120] Top shape: 50 32 7 7 (78400)
I1215 11:15:02.748836 17832 layer_factory.hpp:74] Creating layer inception_5a/5x5
I1215 11:15:02.748847 17832 net.cpp:84] Creating Layer inception_5a/5x5
I1215 11:15:02.748852 17832 net.cpp:380] inception_5a/5x5 <- inception_5a/5x5_reduce
I1215 11:15:02.748859 17832 net.cpp:338] inception_5a/5x5 -> inception_5a/5x5
I1215 11:15:02.748868 17832 net.cpp:113] Setting up inception_5a/5x5
I1215 11:15:02.750497 17832 net.cpp:120] Top shape: 50 128 7 7 (313600)
I1215 11:15:02.750516 17832 layer_factory.hpp:74] Creating layer inception_5a/relu_5x5
I1215 11:15:02.750524 17832 net.cpp:84] Creating Layer inception_5a/relu_5x5
I1215 11:15:02.750530 17832 net.cpp:380] inception_5a/relu_5x5 <- inception_5a/5x5
I1215 11:15:02.750536 17832 net.cpp:327] inception_5a/relu_5x5 -> inception_5a/5x5 (in-place)
I1215 11:15:02.750546 17832 net.cpp:113] Setting up inception_5a/relu_5x5
I1215 11:15:02.750618 17832 net.cpp:120] Top shape: 50 128 7 7 (313600)
I1215 11:15:02.750625 17832 layer_factory.hpp:74] Creating layer inception_5a/pool
I1215 11:15:02.750630 17832 layer_factory.cpp:56] CUDNN does not support padding or multiple tops. Using Caffe's own pooling layer.
I1215 11:15:02.750638 17832 net.cpp:84] Creating Layer inception_5a/pool
I1215 11:15:02.750644 17832 net.cpp:380] inception_5a/pool <- pool4/3x3_s2_pool4/3x3_s2_0_split_3
I1215 11:15:02.750650 17832 net.cpp:338] inception_5a/pool -> inception_5a/pool
I1215 11:15:02.750658 17832 net.cpp:113] Setting up inception_5a/pool
I1215 11:15:02.750672 17832 net.cpp:120] Top shape: 50 832 7 7 (2038400)
I1215 11:15:02.750684 17832 layer_factory.hpp:74] Creating layer inception_5a/pool_proj
I1215 11:15:02.750696 17832 net.cpp:84] Creating Layer inception_5a/pool_proj
I1215 11:15:02.750701 17832 net.cpp:380] inception_5a/pool_proj <- inception_5a/pool
I1215 11:15:02.750708 17832 net.cpp:338] inception_5a/pool_proj -> inception_5a/pool_proj
I1215 11:15:02.750716 17832 net.cpp:113] Setting up inception_5a/pool_proj
I1215 11:15:02.752388 17832 net.cpp:120] Top shape: 50 128 7 7 (313600)
I1215 11:15:02.752403 17832 layer_factory.hpp:74] Creating layer inception_5a/relu_pool_proj
I1215 11:15:02.752410 17832 net.cpp:84] Creating Layer inception_5a/relu_pool_proj
I1215 11:15:02.752416 17832 net.cpp:380] inception_5a/relu_pool_proj <- inception_5a/pool_proj
I1215 11:15:02.752425 17832 net.cpp:327] inception_5a/relu_pool_proj -> inception_5a/pool_proj (in-place)
I1215 11:15:02.752434 17832 net.cpp:113] Setting up inception_5a/relu_pool_proj
I1215 11:15:02.752503 17832 net.cpp:120] Top shape: 50 128 7 7 (313600)
I1215 11:15:02.752511 17832 layer_factory.hpp:74] Creating layer inception_5a/output
I1215 11:15:02.752518 17832 net.cpp:84] Creating Layer inception_5a/output
I1215 11:15:02.752523 17832 net.cpp:380] inception_5a/output <- inception_5a/1x1
I1215 11:15:02.752529 17832 net.cpp:380] inception_5a/output <- inception_5a/3x3
I1215 11:15:02.752534 17832 net.cpp:380] inception_5a/output <- inception_5a/5x5
I1215 11:15:02.752539 17832 net.cpp:380] inception_5a/output <- inception_5a/pool_proj
I1215 11:15:02.752547 17832 net.cpp:338] inception_5a/output -> inception_5a/output
I1215 11:15:02.752555 17832 net.cpp:113] Setting up inception_5a/output
I1215 11:15:02.752563 17832 net.cpp:120] Top shape: 50 832 7 7 (2038400)
I1215 11:15:02.752568 17832 layer_factory.hpp:74] Creating layer inception_5a/output_inception_5a/output_0_split
I1215 11:15:02.752574 17832 net.cpp:84] Creating Layer inception_5a/output_inception_5a/output_0_split
I1215 11:15:02.752578 17832 net.cpp:380] inception_5a/output_inception_5a/output_0_split <- inception_5a/output
I1215 11:15:02.752584 17832 net.cpp:338] inception_5a/output_inception_5a/output_0_split -> inception_5a/output_inception_5a/output_0_split_0
I1215 11:15:02.752593 17832 net.cpp:338] inception_5a/output_inception_5a/output_0_split -> inception_5a/output_inception_5a/output_0_split_1
I1215 11:15:02.752600 17832 net.cpp:338] inception_5a/output_inception_5a/output_0_split -> inception_5a/output_inception_5a/output_0_split_2
I1215 11:15:02.752609 17832 net.cpp:338] inception_5a/output_inception_5a/output_0_split -> inception_5a/output_inception_5a/output_0_split_3
I1215 11:15:02.752616 17832 net.cpp:113] Setting up inception_5a/output_inception_5a/output_0_split
I1215 11:15:02.752624 17832 net.cpp:120] Top shape: 50 832 7 7 (2038400)
I1215 11:15:02.752629 17832 net.cpp:120] Top shape: 50 832 7 7 (2038400)
I1215 11:15:02.752635 17832 net.cpp:120] Top shape: 50 832 7 7 (2038400)
I1215 11:15:02.752640 17832 net.cpp:120] Top shape: 50 832 7 7 (2038400)
I1215 11:15:02.752643 17832 layer_factory.hpp:74] Creating layer inception_5b/1x1
I1215 11:15:02.752653 17832 net.cpp:84] Creating Layer inception_5b/1x1
I1215 11:15:02.752658 17832 net.cpp:380] inception_5b/1x1 <- inception_5a/output_inception_5a/output_0_split_0
I1215 11:15:02.752665 17832 net.cpp:338] inception_5b/1x1 -> inception_5b/1x1
I1215 11:15:02.752672 17832 net.cpp:113] Setting up inception_5b/1x1
I1215 11:15:02.756799 17832 net.cpp:120] Top shape: 50 384 7 7 (940800)
I1215 11:15:02.756816 17832 layer_factory.hpp:74] Creating layer inception_5b/relu_1x1
I1215 11:15:02.756825 17832 net.cpp:84] Creating Layer inception_5b/relu_1x1
I1215 11:15:02.756831 17832 net.cpp:380] inception_5b/relu_1x1 <- inception_5b/1x1
I1215 11:15:02.756839 17832 net.cpp:327] inception_5b/relu_1x1 -> inception_5b/1x1 (in-place)
I1215 11:15:02.756846 17832 net.cpp:113] Setting up inception_5b/relu_1x1
I1215 11:15:02.756918 17832 net.cpp:120] Top shape: 50 384 7 7 (940800)
I1215 11:15:02.756925 17832 layer_factory.hpp:74] Creating layer inception_5b/3x3_reduce
I1215 11:15:02.756942 17832 net.cpp:84] Creating Layer inception_5b/3x3_reduce
I1215 11:15:02.756954 17832 net.cpp:380] inception_5b/3x3_reduce <- inception_5a/output_inception_5a/output_0_split_1
I1215 11:15:02.756963 17832 net.cpp:338] inception_5b/3x3_reduce -> inception_5b/3x3_reduce
I1215 11:15:02.756973 17832 net.cpp:113] Setting up inception_5b/3x3_reduce
I1215 11:15:02.759256 17832 net.cpp:120] Top shape: 50 192 7 7 (470400)
I1215 11:15:02.759274 17832 layer_factory.hpp:74] Creating layer inception_5b/relu_3x3_reduce
I1215 11:15:02.759284 17832 net.cpp:84] Creating Layer inception_5b/relu_3x3_reduce
I1215 11:15:02.759289 17832 net.cpp:380] inception_5b/relu_3x3_reduce <- inception_5b/3x3_reduce
I1215 11:15:02.759296 17832 net.cpp:327] inception_5b/relu_3x3_reduce -> inception_5b/3x3_reduce (in-place)
I1215 11:15:02.759305 17832 net.cpp:113] Setting up inception_5b/relu_3x3_reduce
I1215 11:15:02.759579 17832 net.cpp:120] Top shape: 50 192 7 7 (470400)
I1215 11:15:02.759590 17832 layer_factory.hpp:74] Creating layer inception_5b/3x3
I1215 11:15:02.759604 17832 net.cpp:84] Creating Layer inception_5b/3x3
I1215 11:15:02.759610 17832 net.cpp:380] inception_5b/3x3 <- inception_5b/3x3_reduce
I1215 11:15:02.759618 17832 net.cpp:338] inception_5b/3x3 -> inception_5b/3x3
I1215 11:15:02.759626 17832 net.cpp:113] Setting up inception_5b/3x3
I1215 11:15:02.767724 17832 net.cpp:120] Top shape: 50 384 7 7 (940800)
I1215 11:15:02.767741 17832 layer_factory.hpp:74] Creating layer inception_5b/relu_3x3
I1215 11:15:02.767750 17832 net.cpp:84] Creating Layer inception_5b/relu_3x3
I1215 11:15:02.767755 17832 net.cpp:380] inception_5b/relu_3x3 <- inception_5b/3x3
I1215 11:15:02.767762 17832 net.cpp:327] inception_5b/relu_3x3 -> inception_5b/3x3 (in-place)
I1215 11:15:02.767770 17832 net.cpp:113] Setting up inception_5b/relu_3x3
I1215 11:15:02.767843 17832 net.cpp:120] Top shape: 50 384 7 7 (940800)
I1215 11:15:02.767849 17832 layer_factory.hpp:74] Creating layer inception_5b/5x5_reduce
I1215 11:15:02.767858 17832 net.cpp:84] Creating Layer inception_5b/5x5_reduce
I1215 11:15:02.767863 17832 net.cpp:380] inception_5b/5x5_reduce <- inception_5a/output_inception_5a/output_0_split_2
I1215 11:15:02.767874 17832 net.cpp:338] inception_5b/5x5_reduce -> inception_5b/5x5_reduce
I1215 11:15:02.767881 17832 net.cpp:113] Setting up inception_5b/5x5_reduce
I1215 11:15:02.768784 17832 net.cpp:120] Top shape: 50 48 7 7 (117600)
I1215 11:15:02.768800 17832 layer_factory.hpp:74] Creating layer inception_5b/relu_5x5_reduce
I1215 11:15:02.768808 17832 net.cpp:84] Creating Layer inception_5b/relu_5x5_reduce
I1215 11:15:02.768815 17832 net.cpp:380] inception_5b/relu_5x5_reduce <- inception_5b/5x5_reduce
I1215 11:15:02.768821 17832 net.cpp:327] inception_5b/relu_5x5_reduce -> inception_5b/5x5_reduce (in-place)
I1215 11:15:02.768829 17832 net.cpp:113] Setting up inception_5b/relu_5x5_reduce
I1215 11:15:02.768903 17832 net.cpp:120] Top shape: 50 48 7 7 (117600)
I1215 11:15:02.768908 17832 layer_factory.hpp:74] Creating layer inception_5b/5x5
I1215 11:15:02.768918 17832 net.cpp:84] Creating Layer inception_5b/5x5
I1215 11:15:02.768923 17832 net.cpp:380] inception_5b/5x5 <- inception_5b/5x5_reduce
I1215 11:15:02.768934 17832 net.cpp:338] inception_5b/5x5 -> inception_5b/5x5
I1215 11:15:02.768942 17832 net.cpp:113] Setting up inception_5b/5x5
I1215 11:15:02.771162 17832 net.cpp:120] Top shape: 50 128 7 7 (313600)
I1215 11:15:02.771178 17832 layer_factory.hpp:74] Creating layer inception_5b/relu_5x5
I1215 11:15:02.771188 17832 net.cpp:84] Creating Layer inception_5b/relu_5x5
I1215 11:15:02.771194 17832 net.cpp:380] inception_5b/relu_5x5 <- inception_5b/5x5
I1215 11:15:02.771201 17832 net.cpp:327] inception_5b/relu_5x5 -> inception_5b/5x5 (in-place)
I1215 11:15:02.771209 17832 net.cpp:113] Setting up inception_5b/relu_5x5
I1215 11:15:02.771477 17832 net.cpp:120] Top shape: 50 128 7 7 (313600)
I1215 11:15:02.771489 17832 layer_factory.hpp:74] Creating layer inception_5b/pool
I1215 11:15:02.771494 17832 layer_factory.cpp:56] CUDNN does not support padding or multiple tops. Using Caffe's own pooling layer.
I1215 11:15:02.771517 17832 net.cpp:84] Creating Layer inception_5b/pool
I1215 11:15:02.771522 17832 net.cpp:380] inception_5b/pool <- inception_5a/output_inception_5a/output_0_split_3
I1215 11:15:02.771530 17832 net.cpp:338] inception_5b/pool -> inception_5b/pool
I1215 11:15:02.771538 17832 net.cpp:113] Setting up inception_5b/pool
I1215 11:15:02.771548 17832 net.cpp:120] Top shape: 50 832 7 7 (2038400)
I1215 11:15:02.771553 17832 layer_factory.hpp:74] Creating layer inception_5b/pool_proj
I1215 11:15:02.771564 17832 net.cpp:84] Creating Layer inception_5b/pool_proj
I1215 11:15:02.771569 17832 net.cpp:380] inception_5b/pool_proj <- inception_5b/pool
I1215 11:15:02.771575 17832 net.cpp:338] inception_5b/pool_proj -> inception_5b/pool_proj
I1215 11:15:02.771584 17832 net.cpp:113] Setting up inception_5b/pool_proj
I1215 11:15:02.773262 17832 net.cpp:120] Top shape: 50 128 7 7 (313600)
I1215 11:15:02.773278 17832 layer_factory.hpp:74] Creating layer inception_5b/relu_pool_proj
I1215 11:15:02.773286 17832 net.cpp:84] Creating Layer inception_5b/relu_pool_proj
I1215 11:15:02.773293 17832 net.cpp:380] inception_5b/relu_pool_proj <- inception_5b/pool_proj
I1215 11:15:02.773298 17832 net.cpp:327] inception_5b/relu_pool_proj -> inception_5b/pool_proj (in-place)
I1215 11:15:02.773306 17832 net.cpp:113] Setting up inception_5b/relu_pool_proj
I1215 11:15:02.773381 17832 net.cpp:120] Top shape: 50 128 7 7 (313600)
I1215 11:15:02.773387 17832 layer_factory.hpp:74] Creating layer inception_5b/output
I1215 11:15:02.773394 17832 net.cpp:84] Creating Layer inception_5b/output
I1215 11:15:02.773399 17832 net.cpp:380] inception_5b/output <- inception_5b/1x1
I1215 11:15:02.773406 17832 net.cpp:380] inception_5b/output <- inception_5b/3x3
I1215 11:15:02.773412 17832 net.cpp:380] inception_5b/output <- inception_5b/5x5
I1215 11:15:02.773417 17832 net.cpp:380] inception_5b/output <- inception_5b/pool_proj
I1215 11:15:02.773424 17832 net.cpp:338] inception_5b/output -> inception_5b/output
I1215 11:15:02.773432 17832 net.cpp:113] Setting up inception_5b/output
I1215 11:15:02.773439 17832 net.cpp:120] Top shape: 50 1024 7 7 (2508800)
I1215 11:15:02.773443 17832 layer_factory.hpp:74] Creating layer pool5/7x7_s1
I1215 11:15:02.773452 17832 net.cpp:84] Creating Layer pool5/7x7_s1
I1215 11:15:02.773458 17832 net.cpp:380] pool5/7x7_s1 <- inception_5b/output
I1215 11:15:02.773464 17832 net.cpp:338] pool5/7x7_s1 -> pool5/7x7_s1
I1215 11:15:02.773471 17832 net.cpp:113] Setting up pool5/7x7_s1
I1215 11:15:02.773545 17832 net.cpp:120] Top shape: 50 1024 1 1 (51200)
I1215 11:15:02.773552 17832 layer_factory.hpp:74] Creating layer pool5/drop_7x7_s1
I1215 11:15:02.773560 17832 net.cpp:84] Creating Layer pool5/drop_7x7_s1
I1215 11:15:02.773564 17832 net.cpp:380] pool5/drop_7x7_s1 <- pool5/7x7_s1
I1215 11:15:02.773572 17832 net.cpp:327] pool5/drop_7x7_s1 -> pool5/7x7_s1 (in-place)
I1215 11:15:02.773579 17832 net.cpp:113] Setting up pool5/drop_7x7_s1
I1215 11:15:02.773586 17832 net.cpp:120] Top shape: 50 1024 1 1 (51200)
I1215 11:15:02.773591 17832 layer_factory.hpp:74] Creating layer loss3/classifier_kaggle
I1215 11:15:02.773599 17832 net.cpp:84] Creating Layer loss3/classifier_kaggle
I1215 11:15:02.773607 17832 net.cpp:380] loss3/classifier_kaggle <- pool5/7x7_s1
I1215 11:15:02.773614 17832 net.cpp:338] loss3/classifier_kaggle -> loss3/classifier_kaggle
I1215 11:15:02.773622 17832 net.cpp:113] Setting up loss3/classifier_kaggle
I1215 11:15:02.778897 17832 net.cpp:120] Top shape: 50 447 (22350)
I1215 11:15:02.778909 17832 layer_factory.hpp:74] Creating layer loss3/classifier_kaggle_loss3/classifier_kaggle_0_split
I1215 11:15:02.778919 17832 net.cpp:84] Creating Layer loss3/classifier_kaggle_loss3/classifier_kaggle_0_split
I1215 11:15:02.778924 17832 net.cpp:380] loss3/classifier_kaggle_loss3/classifier_kaggle_0_split <- loss3/classifier_kaggle
I1215 11:15:02.778931 17832 net.cpp:338] loss3/classifier_kaggle_loss3/classifier_kaggle_0_split -> loss3/classifier_kaggle_loss3/classifier_kaggle_0_split_0
I1215 11:15:02.778945 17832 net.cpp:338] loss3/classifier_kaggle_loss3/classifier_kaggle_0_split -> loss3/classifier_kaggle_loss3/classifier_kaggle_0_split_1
I1215 11:15:02.778960 17832 net.cpp:338] loss3/classifier_kaggle_loss3/classifier_kaggle_0_split -> loss3/classifier_kaggle_loss3/classifier_kaggle_0_split_2
I1215 11:15:02.778967 17832 net.cpp:113] Setting up loss3/classifier_kaggle_loss3/classifier_kaggle_0_split
I1215 11:15:02.778975 17832 net.cpp:120] Top shape: 50 447 (22350)
I1215 11:15:02.778980 17832 net.cpp:120] Top shape: 50 447 (22350)
I1215 11:15:02.778985 17832 net.cpp:120] Top shape: 50 447 (22350)
I1215 11:15:02.778990 17832 layer_factory.hpp:74] Creating layer loss3/loss3
I1215 11:15:02.779000 17832 net.cpp:84] Creating Layer loss3/loss3
I1215 11:15:02.779006 17832 net.cpp:380] loss3/loss3 <- loss3/classifier_kaggle_loss3/classifier_kaggle_0_split_0
I1215 11:15:02.779012 17832 net.cpp:380] loss3/loss3 <- label_data_1_split_6
I1215 11:15:02.779018 17832 net.cpp:338] loss3/loss3 -> loss3/loss3
…
