…
I1215 21:08:37.111342 12297 net.cpp:257] The NetState phase (0) differed from the phase (1) specified by a rule in layer loss3/top-5
I1215 21:08:37.113770 12297 net.cpp:42] Initializing net from parameters: 
name: "GoogleNet"
state {
  phase: TRAIN
}
layer {
  name: "data"
  type: "Data"
  top: "data"
  top: "label"
  include {
    phase: TRAIN
  }
  transform_param {
    mirror: true
    crop_size: 224
    mean_value: 104
    mean_value: 117
    mean_value: 123
  }
  data_param {
    source: "/home/coldmanck/kaggle/kaggle2_train_lmdb"
    batch_size: 128
    backend: LMDB
  }
}
layer {
  name: "conv1/7x7_s2"
  type: "Convolution"
  bottom: "data"
  top: "conv1/7x7_s2"
  param {
    lr_mult: 1
    decay_mult: 1
  }
  param {
    lr_mult: 2
    decay_mult: 0
  }
  convolution_param {
    num_output: 64
    pad: 3
    kernel_size: 7
    stride: 2
    weight_filler {
      type: "xavier"
      std: 0.1
    }
    bias_filler {
      type: "constant"
      value: 0.2
    }
  }
}
layer {
  name: "conv1/relu_7x7"
  type: "ReLU"
  bottom: "conv1/7x7_s2"
  top: "conv1/7x7_s2"
}
layer {
  name: "pool1/3x3_s2"
  type: "Pooling"
  bottom: "conv1/7x7_s2"
  top: "pool1/3x3_s2"
  pooling_param {
    pool: MAX
    kernel_size: 3
    stride: 2
  }
}
layer {
  name: "pool1/norm1"
  type: "LRN"
  bottom: "pool1/3x3_s2"
  top: "pool1/norm1"
  lrn_param {
    local_size: 5
    alpha: 0.0001
    beta: 0.75
  }
}
layer {
  name: "conv2/3x3_reduce"
  type: "Convolution"
  bottom: "pool1/norm1"
  top: "conv2/3x3_reduce"
  param {
    lr_mult: 1
    decay_mult: 1
  }
  param {
    lr_mult: 2
    decay_mult: 0
  }
  convolution_param {
    num_output: 64
    kernel_size: 1
    weight_filler {
      type: "xavier"
      std: 0.1
    }
    bias_filler {
      type: "constant"
      value: 0.2
    }
  }
}
layer {
  name: "conv2/relu_3x3_reduce"
  type: "ReLU"
  bottom: "conv2/3x3_reduce"
  top: "conv2/3x3_reduce"
}
layer {
  name: "conv2/3x3"
  type: "Convolution"
  bottom: "conv2/3x3_reduce"
  top: "conv2/3x3"
  param {
    lr_mult: 1
    decay_mult: 1
  }
  param {
    lr_mult: 2
    decay_mult: 0
  }
  convolution_param {
    num_output: 192
    pad: 1
    kernel_size: 3
    weight_filler {
      type: "xavier"
      std: 0.03
    }
    bias_filler {
      type: "constant"
      value: 0.2
    }
  }
}
layer {
  name: "conv2/relu_3x3"
  type: "ReLU"
  bottom: "conv2/3x3"
  top: "conv2/3x3"
}
layer {
  name: "conv2/norm2"
  type: "LRN"
  bottom: "conv2/3x3"
  top: "conv2/norm2"
  lrn_param {
    local_size: 5
    alpha: 0.0001
    beta: 0.75
  }
}
layer {
  name: "pool2/3x3_s2"
  type: "Pooling"
  bottom: "conv2/norm2"
  top: "pool2/3x3_s2"
  pooling_param {
    pool: MAX
    kernel_size: 3
    stride: 2
  }
}
layer {
  name: "inception_3a/1x1"
  type: "Convolution"
  bottom: "pool2/3x3_s2"
  top: "inception_3a/1x1"
  param {
    lr_mult: 1
    decay_mult: 1
  }
  param {
    lr_mult: 2
    decay_mult: 0
  }
  convolution_param {
    num_output: 64
    kernel_size: 1
    weight_filler {
      type: "xavier"
      std: 0.03
    }
    bias_filler {
      type: "constant"
      value: 0.2
    }
  }
}
layer {
  name: "inception_3a/relu_1x1"
  type: "ReLU"
  bottom: "inception_3a/1x1"
  top: "inception_3a/1x1"
}
layer {
  name: "inception_3a/3x3_reduce"
  type: "Convolution"
  bottom: "pool2/3x3_s2"
  top: "inception_3a/3x3_reduce"
  param {
    lr_mult: 1
    decay_mult: 1
  }
  param {
    lr_mult: 2
    decay_mult: 0
  }
  convolution_param {
    num_output: 96
    kernel_size: 1
    weight_filler {
      type: "xavier"
      std: 0.09
    }
    bias_filler {
      type: "constant"
      value: 0.2
    }
  }
}
layer {
  name: "inception_3a/relu_3x3_reduce"
  type: "ReLU"
  bottom: "inception_3a/3x3_reduce"
  top: "inception_3a/3x3_reduce"
}
layer {
  name: "inception_3a/3x3"
  type: "Convolution"
  bottom: "inception_3a/3x3_reduce"
  top: "inception_3a/3x3"
  param {
    lr_mult: 1
    decay_mult: 1
  }
  param {
    lr_mult: 2
    decay_mult: 0
  }
  convolution_param {
    num_output: 128
    pad: 1
    kernel_size: 3
    weight_filler {
      type: "xavier"
      std: 0.03
    }
    bias_filler {
      type: "constant"
      value: 0.2
    }
  }
}
layer {
  name: "inception_3a/relu_3x3"
  type: "ReLU"
  bottom: "inception_3a/3x3"
  top: "inception_3a/3x3"
}
layer {
  name: "inception_3a/5x5_reduce"
  type: "Convolution"
  bottom: "pool2/3x3_s2"
  top: "inception_3a/5x5_reduce"
  param {
    lr_mult: 1
    decay_mult: 1
  }
  param {
    lr_mult: 2
    decay_mult: 0
  }
  convolution_param {
    num_output: 16
    kernel_size: 1
    weight_filler {
      type: "xavier"
      std: 0.2
    }
    bias_filler {
      type: "constant"
      value: 0.2
    }
  }
}
layer {
  name: "inception_3a/relu_5x5_reduce"
  type: "ReLU"
  bottom: "inception_3a/5x5_reduce"
  top: "inception_3a/5x5_reduce"
}
layer {
  name: "inception_3a/5x5"
  type: "Convolution"
  bottom: "inception_3a/5x5_reduce"
  top: "inception_3a/5x5"
  param {
    lr_mult: 1
    decay_mult: 1
  }
  param {
    lr_mult: 2
    decay_mult: 0
  }
  convolution_param {
    num_output: 32
    pad: 2
    kernel_size: 5
    weight_filler {
      type: "xavier"
      std: 0.03
    }
    bias_filler {
      type: "constant"
      value: 0.2
    }
  }
}
layer {
  name: "inception_3a/relu_5x5"
  type: "ReLU"
  bottom: "inception_3a/5x5"
  top: "inception_3a/5x5"
}
layer {
  name: "inception_3a/pool"
  type: "Pooling"
  bottom: "pool2/3x3_s2"
  top: "inception_3a/pool"
  pooling_param {
    pool: MAX
    kernel_size: 3
    stride: 1
    pad: 1
  }
}
layer {
  name: "inception_3a/pool_proj"
  type: "Convolution"
  bottom: "inception_3a/pool"
  top: "inception_3a/pool_proj"
  param {
    lr_mult: 1
    decay_mult: 1
  }
  param {
    lr_mult: 2
    decay_mult: 0
  }
  convolution_param {
    num_output: 32
    kernel_size: 1
    weight_filler {
      type: "xavier"
      std: 0.1
    }
    bias_filler {
      type: "constant"
      value: 0.2
    }
  }
}
layer {
  name: "inception_3a/relu_pool_proj"
  type: "ReLU"
  bottom: "inception_3a/pool_proj"
  top: "inception_3a/pool_proj"
}
layer {
  name: "inception_3a/output"
  type: "Concat"
  bottom: "inception_3a/1x1"
  bottom: "inception_3a/3x3"
  bottom: "inception_3a/5x5"
  bottom: "inception_3a/pool_proj"
  top: "inception_3a/output"
}
layer {
  name: "inception_3b/1x1"
  type: "Convolution"
  bottom: "inception_3a/output"
  top: "inception_3b/1x1"
  param {
    lr_mult: 1
    decay_mult: 1
  }
  param {
    lr_mult: 2
    decay_mult: 0
  }
  convolution_param {
    num_output: 128
    kernel_size: 1
    weight_filler {
      type: "xavier"
      std: 0.03
    }
    bias_filler {
      type: "constant"
      value: 0.2
    }
  }
}
layer {
  name: "inception_3b/relu_1x1"
  type: "ReLU"
  bottom: "inception_3b/1x1"
  top: "inception_3b/1x1"
}
layer {
  name: "inception_3b/3x3_reduce"
  type: "Convolution"
  bottom: "inception_3a/output"
  top: "inception_3b/3x3_reduce"
  param {
    lr_mult: 1
    decay_mult: 1
  }
  param {
    lr_mult: 2
    decay_mult: 0
  }
  convolution_param {
    num_output: 128
    kernel_size: 1
    weight_filler {
      type: "xavier"
      std: 0.09
    }
    bias_filler {
      type: "constant"
      value: 0.2
    }
  }
}
layer {
  name: "inception_3b/relu_3x3_reduce"
  type: "ReLU"
  bottom: "inception_3b/3x3_reduce"
  top: "inception_3b/3x3_reduce"
}
layer {
  name: "inception_3b/3x3"
  type: "Convolution"
  bottom: "inception_3b/3x3_reduce"
  top: "inception_3b/3x3"
  param {
    lr_mult: 1
    decay_mult: 1
  }
  param {
    lr_mult: 2
    decay_mult: 0
  }
  convolution_param {
    num_output: 192
    pad: 1
    kernel_size: 3
    weight_filler {
      type: "xavier"
      std: 0.03
    }
    bias_filler {
      type: "constant"
      value: 0.2
    }
  }
}
layer {
  name: "inception_3b/relu_3x3"
  type: "ReLU"
  bottom: "inception_3b/3x3"
  top: "inception_3b/3x3"
}
layer {
  name: "inception_3b/5x5_reduce"
  type: "Convolution"
  bottom: "inception_3a/output"
  top: "inception_3b/5x5_reduce"
  param {
    lr_mult: 1
    decay_mult: 1
  }
  param {
    lr_mult: 2
    decay_mult: 0
  }
  convolution_param {
    num_output: 32
    kernel_size: 1
    weight_filler {
      type: "xavier"
      std: 0.2
    }
    bias_filler {
      type: "constant"
      value: 0.2
    }
  }
}
layer {
  name: "inception_3b/relu_5x5_reduce"
  type: "ReLU"
  bottom: "inception_3b/5x5_reduce"
  top: "inception_3b/5x5_reduce"
}
layer {
  name: "inception_3b/5x5"
  type: "Convolution"
  bottom: "inception_3b/5x5_reduce"
  top: "inception_3b/5x5"
  param {
    lr_mult: 1
    decay_mult: 1
  }
  param {
    lr_mult: 2
    decay_mult: 0
  }
  convolution_param {
    num_output: 96
    pad: 2
    kernel_size: 5
    weight_filler {
      type: "xavier"
      std: 0.03
    }
    bias_filler {
      type: "constant"
      value: 0.2
    }
  }
}
layer {
  name: "inception_3b/relu_5x5"
  type: "ReLU"
  bottom: "inception_3b/5x5"
  top: "inception_3b/5x5"
}
layer {
  name: "inception_3b/pool"
  type: "Pooling"
  bottom: "inception_3a/output"
  top: "inception_3b/pool"
  pooling_param {
    pool: MAX
    kernel_size: 3
    stride: 1
    pad: 1
  }
}
layer {
  name: "inception_3b/pool_proj"
  type: "Convolution"
  bottom: "inception_3b/pool"
  top: "inception_3b/pool_proj"
  param {
    lr_mult: 1
    decay_mult: 1
  }
  param {
    lr_mult: 2
    decay_mult: 0
  }
  convolution_param {
    num_output: 64
    kernel_size: 1
    weight_filler {
      type: "xavier"
      std: 0.1
    }
    bias_filler {
      type: "constant"
      value: 0.2
    }
  }
}
layer {
  name: "inception_3b/relu_pool_proj"
  type: "ReLU"
  bottom: "inception_3b/pool_proj"
  top: "inception_3b/pool_proj"
}
layer {
  name: "inception_3b/output"
  type: "Concat"
  bottom: "inception_3b/1x1"
  bottom: "inception_3b/3x3"
  bottom: "inception_3b/5x5"
  bottom: "inception_3b/pool_proj"
  top: "inception_3b/output"
}
layer {
  name: "pool3/3x3_s2"
  type: "Pooling"
  bottom: "inception_3b/output"
  top: "pool3/3x3_s2"
  pooling_param {
    pool: MAX
    kernel_size: 3
    stride: 2
  }
}
layer {
  name: "inception_4a/1x1"
  type: "Convolution"
  bottom: "pool3/3x3_s2"
  top: "inception_4a/1x1"
  param {
    lr_mult: 1
    decay_mult: 1
  }
  param {
    lr_mult: 2
    decay_mult: 0
  }
  convolution_param {
    num_output: 192
    kernel_size: 1
    weight_filler {
      type: "xavier"
      std: 0.03
    }
    bias_filler {
      type: "constant"
      value: 0.2
    }
  }
}
layer {
  name: "inception_4a/relu_1x1"
  type: "ReLU"
  bottom: "inception_4a/1x1"
  top: "inception_4a/1x1"
}
layer {
  name: "inception_4a/3x3_reduce"
  type: "Convolution"
  bottom: "pool3/3x3_s2"
  top: "inception_4a/3x3_reduce"
  param {
    lr_mult: 1
    decay_mult: 1
  }
  param {
    lr_mult: 2
    decay_mult: 0
  }
  convolution_param {
    num_output: 96
    kernel_size: 1
    weight_filler {
      type: "xavier"
      std: 0.09
    }
    bias_filler {
      type: "constant"
      value: 0.2
    }
  }
}
layer {
  name: "inception_4a/relu_3x3_reduce"
  type: "ReLU"
  bottom: "inception_4a/3x3_reduce"
  top: "inception_4a/3x3_reduce"
}
layer {
  name: "inception_4a/3x3"
  type: "Convolution"
  bottom: "inception_4a/3x3_reduce"
  top: "inception_4a/3x3"
  param {
    lr_mult: 1
    decay_mult: 1
  }
  param {
    lr_mult: 2
    decay_mult: 0
  }
  convolution_param {
    num_output: 208
    pad: 1
    kernel_size: 3
    weight_filler {
      type: "xavier"
      std: 0.03
    }
    bias_filler {
      type: "constant"
      value: 0.2
    }
  }
}
layer {
  name: "inception_4a/relu_3x3"
  type: "ReLU"
  bottom: "inception_4a/3x3"
  top: "inception_4a/3x3"
}
layer {
  name: "inception_4a/5x5_reduce"
  type: "Convolution"
  bottom: "pool3/3x3_s2"
  top: "inception_4a/5x5_reduce"
  param {
    lr_mult: 1
    decay_mult: 1
  }
  param {
    lr_mult: 2
    decay_mult: 0
  }
  convolution_param {
    num_output: 16
    kernel_size: 1
    weight_filler {
      type: "xavier"
      std: 0.2
    }
    bias_filler {
      type: "constant"
      value: 0.2
    }
  }
}
layer {
  name: "inception_4a/relu_5x5_reduce"
  type: "ReLU"
  bottom: "inception_4a/5x5_reduce"
  top: "inception_4a/5x5_reduce"
}
layer {
  name: "inception_4a/5x5"
  type: "Convolution"
  bottom: "inception_4a/5x5_reduce"
  top: "inception_4a/5x5"
  param {
    lr_mult: 1
    decay_mult: 1
  }
  param {
    lr_mult: 2
    decay_mult: 0
  }
  convolution_param {
    num_output: 48
    pad: 2
    kernel_size: 5
    weight_filler {
      type: "xavier"
      std: 0.03
    }
    bias_filler {
      type: "constant"
      value: 0.2
    }
  }
}
layer {
  name: "inception_4a/relu_5x5"
  type: "ReLU"
  bottom: "inception_4a/5x5"
  top: "inception_4a/5x5"
}
layer {
  name: "inception_4a/pool"
  type: "Pooling"
  bottom: "pool3/3x3_s2"
  top: "inception_4a/pool"
  pooling_param {
    pool: MAX
    kernel_size: 3
    stride: 1
    pad: 1
  }
}
layer {
  name: "inception_4a/pool_proj"
  type: "Convolution"
  bottom: "inception_4a/pool"
  top: "inception_4a/pool_proj"
  param {
    lr_mult: 1
    decay_mult: 1
  }
  param {
    lr_mult: 2
    decay_mult: 0
  }
  convolution_param {
    num_output: 64
    kernel_size: 1
    weight_filler {
      type: "xavier"
      std: 0.1
    }
    bias_filler {
      type: "constant"
      value: 0.2
    }
  }
}
layer {
  name: "inception_4a/relu_pool_proj"
  type: "ReLU"
  bottom: "inception_4a/pool_proj"
  top: "inception_4a/pool_proj"
}
layer {
  name: "inception_4a/output"
  type: "Concat"
  bottom: "inception_4a/1x1"
  bottom: "inception_4a/3x3"
  bottom: "inception_4a/5x5"
  bottom: "inception_4a/pool_proj"
  top: "inception_4a/output"
}
layer {
  name: "loss1/ave_pool"
  type: "Pooling"
  bottom: "inception_4a/output"
  top: "loss1/ave_pool"
  pooling_param {
    pool: AVE
    kernel_size: 5
    stride: 3
  }
}
layer {
  name: "loss1/conv"
  type: "Convolution"
  bottom: "loss1/ave_pool"
  top: "loss1/conv"
  param {
    lr_mult: 1
    decay_mult: 1
  }
  param {
    lr_mult: 2
    decay_mult: 0
  }
  convolution_param {
    num_output: 128
    kernel_size: 1
    weight_filler {
      type: "xavier"
      std: 0.08
    }
    bias_filler {
      type: "constant"
      value: 0.2
    }
  }
}
layer {
  name: "loss1/relu_conv"
  type: "ReLU"
  bottom: "loss1/conv"
  top: "loss1/conv"
}
layer {
  name: "loss1/fc"
  type: "InnerProduct"
  bottom: "loss1/conv"
  top: "loss1/fc"
  param {
    lr_mult: 1
    decay_mult: 1
  }
  param {
    lr_mult: 2
    decay_mult: 0
  }
  inner_product_param {
    num_output: 1024
    weight_filler {
      type: "xavier"
      std: 0.02
    }
    bias_filler {
      type: "constant"
      value: 0.2
    }
  }
}
layer {
  name: "loss1/relu_fc"
  type: "ReLU"
  bottom: "loss1/fc"
  top: "loss1/fc"
}
layer {
  name: "loss1/drop_fc"
  type: "Dropout"
  bottom: "loss1/fc"
  top: "loss1/fc"
  dropout_param {
    dropout_ratio: 0.7
  }
}
layer {
  name: "loss1/classifier_kaggle"
  type: "InnerProduct"
  bottom: "loss1/fc"
  top: "loss1/classifier_kaggle"
  param {
    lr_mult: 1
    decay_mult: 1
  }
  param {
    lr_mult: 2
    decay_mult: 0
  }
  inner_product_param {
    num_output: 447
    weight_filler {
      type: "xavier"
      std: 0.0009765625
    }
    bias_filler {
      type: "constant"
      value: 0
    }
  }
}
layer {
  name: "loss1/loss"
  type: "SoftmaxWithLoss"
  bottom: "loss1/classifier_kaggle"
  bottom: "label"
  top: "loss1/loss1"
  loss_weight: 0.3
}
layer {
  name: "inception_4b/1x1"
  type: "Convolution"
  bottom: "inception_4a/output"
  top: "inception_4b/1x1"
  param {
    lr_mult: 1
    decay_mult: 1
  }
  param {
    lr_mult: 2
    decay_mult: 0
  }
  convolution_param {
    num_output: 160
    kernel_size: 1
    weight_filler {
      type: "xavier"
      std: 0.03
    }
    bias_filler {
      type: "constant"
      value: 0.2
    }
  }
}
layer {
  name: "inception_4b/relu_1x1"
  type: "ReLU"
  bottom: "inception_4b/1x1"
  top: "inception_4b/1x1"
}
layer {
  name: "inception_4b/3x3_reduce"
  type: "Convolution"
  bottom: "inception_4a/output"
  top: "inception_4b/3x3_reduce"
  param {
    lr_mult: 1
    decay_mult: 1
  }
  param {
    lr_mult: 2
    decay_mult: 0
  }
  convolution_param {
    num_output: 112
    kernel_size: 1
    weight_filler {
      type: "xavier"
      std: 0.09
    }
    bias_filler {
      type: "constant"
      value: 0.2
    }
  }
}
layer {
  name: "inception_4b/relu_3x3_reduce"
  type: "ReLU"
  bottom: "inception_4b/3x3_reduce"
  top: "inception_4b/3x3_reduce"
}
layer {
  name: "inception_4b/3x3"
  type: "Convolution"
  bottom: "inception_4b/3x3_reduce"
  top: "inception_4b/3x3"
  param {
    lr_mult: 1
    decay_mult: 1
  }
  param {
    lr_mult: 2
    decay_mult: 0
  }
  convolution_param {
    num_output: 224
    pad: 1
    kernel_size: 3
    weight_filler {
      type: "xavier"
      std: 0.03
    }
    bias_filler {
      type: "constant"
      value: 0.2
    }
  }
}
layer {
  name: "inception_4b/relu_3x3"
  type: "ReLU"
  bottom: "inception_4b/3x3"
  top: "inception_4b/3x3"
}
layer {
  name: "inception_4b/5x5_reduce"
  type: "Convolution"
  bottom: "inception_4a/output"
  top: "inception_4b/5x5_reduce"
  param {
    lr_mult: 1
    decay_mult: 1
  }
  param {
    lr_mult: 2
    decay_mult: 0
  }
  convolution_param {
    num_output: 24
    kernel_size: 1
    weight_filler {
      type: "xavier"
      std: 0.2
    }
    bias_filler {
      type: "constant"
      value: 0.2
    }
  }
}
layer {
  name: "inception_4b/relu_5x5_reduce"
  type: "ReLU"
  bottom: "inception_4b/5x5_reduce"
  top: "inception_4b/5x5_reduce"
}
layer {
  name: "inception_4b/5x5"
  type: "Convolution"
  bottom: "inception_4b/5x5_reduce"
  top: "inception_4b/5x5"
  param {
    lr_mult: 1
    decay_mult: 1
  }
  param {
    lr_mult: 2
    decay_mult: 0
  }
  convolution_param {
    num_output: 64
    pad: 2
    kernel_size: 5
    weight_filler {
      type: "xavier"
      std: 0.03
    }
    bias_filler {
      type: "constant"
      value: 0.2
    }
  }
}
layer {
  name: "inception_4b/relu_5x5"
  type: "ReLU"
  bottom: "inception_4b/5x5"
  top: "inception_4b/5x5"
}
layer {
  name: "inception_4b/pool"
  type: "Pooling"
  bottom: "inception_4a/output"
  top: "inception_4b/pool"
  pooling_param {
    pool: MAX
    kernel_size: 3
    stride: 1
    pad: 1
  }
}
layer {
  name: "inception_4b/pool_proj"
  type: "Convolution"
  bottom: "inception_4b/pool"
  top: "inception_4b/pool_proj"
  param {
    lr_mult: 1
    decay_mult: 1
  }
  param {
    lr_mult: 2
    decay_mult: 0
  }
  convolution_param {
    num_output: 64
    kernel_size: 1
    weight_filler {
      type: "xavier"
      std: 0.1
    }
    bias_filler {
      type: "constant"
      value: 0.2
    }
  }
}
layer {
  name: "inception_4b/relu_pool_proj"
  type: "ReLU"
  bottom: "inception_4b/pool_proj"
  top: "inception_4b/pool_proj"
}
layer {
  name: "inception_4b/output"
  type: "Concat"
  bottom: "inception_4b/1x1"
  bottom: "inception_4b/3x3"
  bottom: "inception_4b/5x5"
  bottom: "inception_4b/pool_proj"
  top: "inception_4b/output"
}
layer {
  name: "inception_4c/1x1"
  type: "Convolution"
  bottom: "inception_4b/output"
  top: "inception_4c/1x1"
  param {
    lr_mult: 1
    decay_mult: 1
  }
  param {
    lr_mult: 2
    decay_mult: 0
  }
  convolution_param {
    num_output: 128
    kernel_size: 1
    weight_filler {
      type: "xavier"
      std: 0.03
    }
    bias_filler {
      type: "constant"
      value: 0.2
    }
  }
}
layer {
  name: "inception_4c/relu_1x1"
  type: "ReLU"
  bottom: "inception_4c/1x1"
  top: "inception_4c/1x1"
}
layer {
  name: "inception_4c/3x3_reduce"
  type: "Convolution"
  bottom: "inception_4b/output"
  top: "inception_4c/3x3_reduce"
  param {
    lr_mult: 1
    decay_mult: 1
  }
  param {
    lr_mult: 2
    decay_mult: 0
  }
  convolution_param {
    num_output: 128
    kernel_size: 1
    weight_filler {
      type: "xavier"
      std: 0.09
    }
    bias_filler {
      type: "constant"
      value: 0.2
    }
  }
}
layer {
  name: "inception_4c/relu_3x3_reduce"
  type: "ReLU"
  bottom: "inception_4c/3x3_reduce"
  top: "inception_4c/3x3_reduce"
}
layer {
  name: "inception_4c/3x3"
  type: "Convolution"
  bottom: "inception_4c/3x3_reduce"
  top: "inception_4c/3x3"
  param {
    lr_mult: 1
    decay_mult: 1
  }
  param {
    lr_mult: 2
    decay_mult: 0
  }
  convolution_param {
    num_output: 256
    pad: 1
    kernel_size: 3
    weight_filler {
      type: "xavier"
      std: 0.03
    }
    bias_filler {
      type: "constant"
      value: 0.2
    }
  }
}
layer {
  name: "inception_4c/relu_3x3"
  type: "ReLU"
  bottom: "inception_4c/3x3"
  top: "inception_4c/3x3"
}
layer {
  name: "inception_4c/5x5_reduce"
  type: "Convolution"
  bottom: "inception_4b/output"
  top: "inception_4c/5x5_reduce"
  param {
    lr_mult: 1
    decay_mult: 1
  }
  param {
    lr_mult: 2
    decay_mult: 0
  }
  convolution_param {
    num_output: 24
    kernel_size: 1
    weight_filler {
      type: "xavier"
      std: 0.2
    }
    bias_filler {
      type: "constant"
      value: 0.2
    }
  }
}
layer {
  name: "inception_4c/relu_5x5_reduce"
  type: "ReLU"
  bottom: "inception_4c/5x5_reduce"
  top: "inception_4c/5x5_reduce"
}
layer {
  name: "inception_4c/5x5"
  type: "Convolution"
  bottom: "inception_4c/5x5_reduce"
  top: "inception_4c/5x5"
  param {
    lr_mult: 1
    decay_mult: 1
  }
  param {
    lr_mult: 2
    decay_mult: 0
  }
  convolution_param {
    num_output: 64
    pad: 2
    kernel_size: 5
    weight_filler {
      type: "xavier"
      std: 0.03
    }
    bias_filler {
      type: "constant"
      value: 0.2
    }
  }
}
layer {
  name: "inception_4c/relu_5x5"
  type: "ReLU"
  bottom: "inception_4c/5x5"
  top: "inception_4c/5x5"
}
layer {
  name: "inception_4c/pool"
  type: "Pooling"
  bottom: "inception_4b/output"
  top: "inception_4c/pool"
  pooling_param {
    pool: MAX
    kernel_size: 3
    stride: 1
    pad: 1
  }
}
layer {
  name: "inception_4c/pool_proj"
  type: "Convolution"
  bottom: "inception_4c/pool"
  top: "inception_4c/pool_proj"
  param {
    lr_mult: 1
    decay_mult: 1
  }
  param {
    lr_mult: 2
    decay_mult: 0
  }
  convolution_param {
    num_output: 64
    kernel_size: 1
    weight_filler {
      type: "xavier"
      std: 0.1
    }
    bias_filler {
      type: "constant"
      value: 0.2
    }
  }
}
layer {
  name: "inception_4c/relu_pool_proj"
  type: "ReLU"
  bottom: "inception_4c/pool_proj"
  top: "inception_4c/pool_proj"
}
layer {
  name: "inception_4c/output"
  type: "Concat"
  bottom: "inception_4c/1x1"
  bottom: "inception_4c/3x3"
  bottom: "inception_4c/5x5"
  bottom: "inception_4c/pool_proj"
  top: "inception_4c/output"
}
layer {
  name: "inception_4d/1x1"
  type: "Convolution"
  bottom: "inception_4c/output"
  top: "inception_4d/1x1"
  param {
    lr_mult: 1
    decay_mult: 1
  }
  param {
    lr_mult: 2
    decay_mult: 0
  }
  convolution_param {
    num_output: 112
    kernel_size: 1
    weight_filler {
      type: "xavier"
      std: 0.03
    }
    bias_filler {
      type: "constant"
      value: 0.2
    }
  }
}
layer {
  name: "inception_4d/relu_1x1"
  type: "ReLU"
  bottom: "inception_4d/1x1"
  top: "inception_4d/1x1"
}
layer {
  name: "inception_4d/3x3_reduce"
  type: "Convolution"
  bottom: "inception_4c/output"
  top: "inception_4d/3x3_reduce"
  param {
    lr_mult: 1
    decay_mult: 1
  }
  param {
    lr_mult: 2
    decay_mult: 0
  }
  convolution_param {
    num_output: 144
    kernel_size: 1
    weight_filler {
      type: "xavier"
      std: 0.09
    }
    bias_filler {
      type: "constant"
      value: 0.2
    }
  }
}
layer {
  name: "inception_4d/relu_3x3_reduce"
  type: "ReLU"
  bottom: "inception_4d/3x3_reduce"
  top: "inception_4d/3x3_reduce"
}
layer {
  name: "inception_4d/3x3"
  type: "Convolution"
  bottom: "inception_4d/3x3_reduce"
  top: "inception_4d/3x3"
  param {
    lr_mult: 1
    decay_mult: 1
  }
  param {
    lr_mult: 2
    decay_mult: 0
  }
  convolution_param {
    num_output: 288
    pad: 1
    kernel_size: 3
    weight_filler {
      type: "xavier"
      std: 0.03
    }
    bias_filler {
      type: "constant"
      value: 0.2
    }
  }
}
layer {
  name: "inception_4d/relu_3x3"
  type: "ReLU"
  bottom: "inception_4d/3x3"
  top: "inception_4d/3x3"
}
layer {
  name: "inception_4d/5x5_reduce"
  type: "Convolution"
  bottom: "inception_4c/output"
  top: "inception_4d/5x5_reduce"
  param {
    lr_mult: 1
    decay_mult: 1
  }
  param {
    lr_mult: 2
    decay_mult: 0
  }
  convolution_param {
    num_output: 32
    kernel_size: 1
    weight_filler {
      type: "xavier"
      std: 0.2
    }
    bias_filler {
      type: "constant"
      value: 0.2
    }
  }
}
layer {
  name: "inception_4d/relu_5x5_reduce"
  type: "ReLU"
  bottom: "inception_4d/5x5_reduce"
  top: "inception_4d/5x5_reduce"
}
layer {
  name: "inception_4d/5x5"
  type: "Convolution"
  bottom: "inception_4d/5x5_reduce"
  top: "inception_4d/5x5"
  param {
    lr_mult: 1
    decay_mult: 1
  }
  param {
    lr_mult: 2
    decay_mult: 0
  }
  convolution_param {
    num_output: 64
    pad: 2
    kernel_size: 5
    weight_filler {
      type: "xavier"
      std: 0.03
    }
    bias_filler {
      type: "constant"
      value: 0.2
    }
  }
}
layer {
  name: "inception_4d/relu_5x5"
  type: "ReLU"
  bottom: "inception_4d/5x5"
  top: "inception_4d/5x5"
}
layer {
  name: "inception_4d/pool"
  type: "Pooling"
  bottom: "inception_4c/output"
  top: "inception_4d/pool"
  pooling_param {
    pool: MAX
    kernel_size: 3
    stride: 1
    pad: 1
  }
}
layer {
  name: "inception_4d/pool_proj"
  type: "Convolution"
  bottom: "inception_4d/pool"
  top: "inception_4d/pool_proj"
  param {
    lr_mult: 1
    decay_mult: 1
  }
  param {
    lr_mult: 2
    decay_mult: 0
  }
  convolution_param {
    num_output: 64
    kernel_size: 1
    weight_filler {
      type: "xavier"
      std: 0.1
    }
    bias_filler {
      type: "constant"
      value: 0.2
    }
  }
}
layer {
  name: "inception_4d/relu_pool_proj"
  type: "ReLU"
  bottom: "inception_4d/pool_proj"
  top: "inception_4d/pool_proj"
}
layer {
  name: "inception_4d/output"
  type: "Concat"
  bottom: "inception_4d/1x1"
  bottom: "inception_4d/3x3"
  bottom: "inception_4d/5x5"
  bottom: "inception_4d/pool_proj"
  top: "inception_4d/output"
}
layer {
  name: "loss2/ave_pool"
  type: "Pooling"
  bottom: "inception_4d/output"
  top: "loss2/ave_pool"
  pooling_param {
    pool: AVE
    kernel_size: 5
    stride: 3
  }
}
layer {
  name: "loss2/conv"
  type: "Convolution"
  bottom: "loss2/ave_pool"
  top: "loss2/conv"
  param {
    lr_mult: 1
    decay_mult: 1
  }
  param {
    lr_mult: 2
    decay_mult: 0
  }
  convolution_param {
    num_output: 128
    kernel_size: 1
    weight_filler {
      type: "xavier"
      std: 0.08
    }
    bias_filler {
      type: "constant"
      value: 0.2
    }
  }
}
layer {
  name: "loss2/relu_conv"
  type: "ReLU"
  bottom: "loss2/conv"
  top: "loss2/conv"
}
layer {
  name: "loss2/fc"
  type: "InnerProduct"
  bottom: "loss2/conv"
  top: "loss2/fc"
  param {
    lr_mult: 1
    decay_mult: 1
  }
  param {
    lr_mult: 2
    decay_mult: 0
  }
  inner_product_param {
    num_output: 1024
    weight_filler {
      type: "xavier"
      std: 0.02
    }
    bias_filler {
      type: "constant"
      value: 0.2
    }
  }
}
layer {
  name: "loss2/relu_fc"
  type: "ReLU"
  bottom: "loss2/fc"
  top: "loss2/fc"
}
layer {
  name: "loss2/drop_fc"
  type: "Dropout"
  bottom: "loss2/fc"
  top: "loss2/fc"
  dropout_param {
    dropout_ratio: 0.7
  }
}
layer {
  name: "loss2/classifier_kaggle"
  type: "InnerProduct"
  bottom: "loss2/fc"
  top: "loss2/classifier_kaggle"
  param {
    lr_mult: 1
    decay_mult: 1
  }
  param {
    lr_mult: 2
    decay_mult: 0
  }
  inner_product_param {
    num_output: 447
    weight_filler {
      type: "xavier"
      std: 0.0009765625
    }
    bias_filler {
      type: "constant"
      value: 0
    }
  }
}
layer {
  name: "loss2/loss"
  type: "SoftmaxWithLoss"
  bottom: "loss2/classifier_kaggle"
  bottom: "label"
  top: "loss2/loss1"
  loss_weight: 0.3
}
layer {
  name: "inception_4e/1x1"
  type: "Convolution"
  bottom: "inception_4d/output"
  top: "inception_4e/1x1"
  param {
    lr_mult: 1
    decay_mult: 1
  }
  param {
    lr_mult: 2
    decay_mult: 0
  }
  convolution_param {
    num_output: 256
    kernel_size: 1
    weight_filler {
      type: "xavier"
      std: 0.03
    }
    bias_filler {
      type: "constant"
      value: 0.2
    }
  }
}
layer {
  name: "inception_4e/relu_1x1"
  type: "ReLU"
  bottom: "inception_4e/1x1"
  top: "inception_4e/1x1"
}
layer {
  name: "inception_4e/3x3_reduce"
  type: "Convolution"
  bottom: "inception_4d/output"
  top: "inception_4e/3x3_reduce"
  param {
    lr_mult: 1
    decay_mult: 1
  }
  param {
    lr_mult: 2
    decay_mult: 0
  }
  convolution_param {
    num_output: 160
    kernel_size: 1
    weight_filler {
      type: "xavier"
      std: 0.09
    }
    bias_filler {
      type: "constant"
      value: 0.2
    }
  }
}
layer {
  name: "inception_4e/relu_3x3_reduce"
  type: "ReLU"
  bottom: "inception_4e/3x3_reduce"
  top: "inception_4e/3x3_reduce"
}
layer {
  name: "inception_4e/3x3"
  type: "Convolution"
  bottom: "inception_4e/3x3_reduce"
  top: "inception_4e/3x3"
  param {
    lr_mult: 1
    decay_mult: 1
  }
  param {
    lr_mult: 2
    decay_mult: 0
  }
  convolution_param {
    num_output: 320
    pad: 1
    kernel_size: 3
    weight_filler {
      type: "xavier"
      std: 0.03
    }
    bias_filler {
      type: "constant"
      value: 0.2
    }
  }
}
layer {
  name: "inception_4e/relu_3x3"
  type: "ReLU"
  bottom: "inception_4e/3x3"
  top: "inception_4e/3x3"
}
layer {
  name: "inception_4e/5x5_reduce"
  type: "Convolution"
  bottom: "inception_4d/output"
  top: "inception_4e/5x5_reduce"
  param {
    lr_mult: 1
    decay_mult: 1
  }
  param {
    lr_mult: 2
    decay_mult: 0
  }
  convolution_param {
    num_output: 32
    kernel_size: 1
    weight_filler {
      type: "xavier"
      std: 0.2
    }
    bias_filler {
      type: "constant"
      value: 0.2
    }
 
I1215 21:08:37.115013 12297 layer_factory.hpp:74] Creating layer data
I1215 21:08:37.115054 12297 net.cpp:84] Creating Layer data
I1215 21:08:37.115069 12297 net.cpp:338] data -> data
I1215 21:08:37.115119 12297 net.cpp:338] data -> label
I1215 21:08:37.115134 12297 net.cpp:113] Setting up data
I1215 21:08:37.115236 12297 db.cpp:34] Opened lmdb /home/coldmanck/kaggle/kaggle2_train_lmdb
I1215 21:08:37.115557 12297 data_layer.cpp:67] output data size: 128,3,224,224
I1215 21:08:37.139603 12297 net.cpp:120] Top shape: 128 3 224 224 (19267584)
I1215 21:08:37.139642 12297 net.cpp:120] Top shape: 128 (128)
I1215 21:08:37.139655 12297 layer_factory.hpp:74] Creating layer label_data_1_split
I1215 21:08:37.139715 12297 net.cpp:84] Creating Layer label_data_1_split
I1215 21:08:37.139729 12297 net.cpp:380] label_data_1_split <- label
I1215 21:08:37.139750 12297 net.cpp:338] label_data_1_split -> label_data_1_split_0
I1215 21:08:37.139768 12297 net.cpp:338] label_data_1_split -> label_data_1_split_1
I1215 21:08:37.139780 12297 net.cpp:338] label_data_1_split -> label_data_1_split_2
I1215 21:08:37.139789 12297 net.cpp:113] Setting up label_data_1_split
I1215 21:08:37.139804 12297 net.cpp:120] Top shape: 128 (128)
I1215 21:08:37.139824 12297 net.cpp:120] Top shape: 128 (128)
I1215 21:08:37.139844 12297 net.cpp:120] Top shape: 128 (128)
I1215 21:08:37.139853 12297 layer_factory.hpp:74] Creating layer conv1/7x7_s2
I1215 21:08:37.139868 12297 net.cpp:84] Creating Layer conv1/7x7_s2
I1215 21:08:37.139876 12297 net.cpp:380] conv1/7x7_s2 <- data
I1215 21:08:37.139888 12297 net.cpp:338] conv1/7x7_s2 -> conv1/7x7_s2
I1215 21:08:37.139901 12297 net.cpp:113] Setting up conv1/7x7_s2
I1215 21:08:37.500253 12297 net.cpp:120] Top shape: 128 64 112 112 (102760448)
I1215 21:08:37.500367 12297 layer_factory.hpp:74] Creating layer conv1/relu_7x7
I1215 21:08:37.500419 12297 net.cpp:84] Creating Layer conv1/relu_7x7
I1215 21:08:37.500437 12297 net.cpp:380] conv1/relu_7x7 <- conv1/7x7_s2
I1215 21:08:37.500473 12297 net.cpp:327] conv1/relu_7x7 -> conv1/7x7_s2 (in-place)
I1215 21:08:37.500490 12297 net.cpp:113] Setting up conv1/relu_7x7
I1215 21:08:37.501199 12297 net.cpp:120] Top shape: 128 64 112 112 (102760448)
I1215 21:08:37.501225 12297 layer_factory.hpp:74] Creating layer pool1/3x3_s2
I1215 21:08:37.501258 12297 net.cpp:84] Creating Layer pool1/3x3_s2
I1215 21:08:37.501266 12297 net.cpp:380] pool1/3x3_s2 <- conv1/7x7_s2
I1215 21:08:37.501283 12297 net.cpp:338] pool1/3x3_s2 -> pool1/3x3_s2
I1215 21:08:37.501303 12297 net.cpp:113] Setting up pool1/3x3_s2
I1215 21:08:37.501405 12297 net.cpp:120] Top shape: 128 64 56 56 (25690112)
I1215 21:08:37.501423 12297 layer_factory.hpp:74] Creating layer pool1/norm1
I1215 21:08:37.501451 12297 net.cpp:84] Creating Layer pool1/norm1
I1215 21:08:37.501459 12297 net.cpp:380] pool1/norm1 <- pool1/3x3_s2
I1215 21:08:37.501467 12297 net.cpp:338] pool1/norm1 -> pool1/norm1
I1215 21:08:37.501478 12297 net.cpp:113] Setting up pool1/norm1
I1215 21:08:37.501489 12297 net.cpp:120] Top shape: 128 64 56 56 (25690112)
I1215 21:08:37.501502 12297 layer_factory.hpp:74] Creating layer conv2/3x3_reduce
I1215 21:08:37.501520 12297 net.cpp:84] Creating Layer conv2/3x3_reduce
I1215 21:08:37.501526 12297 net.cpp:380] conv2/3x3_reduce <- pool1/norm1
I1215 21:08:37.501543 12297 net.cpp:338] conv2/3x3_reduce -> conv2/3x3_reduce
I1215 21:08:37.501560 12297 net.cpp:113] Setting up conv2/3x3_reduce
I1215 21:08:37.502112 12297 net.cpp:120] Top shape: 128 64 56 56 (25690112)
I1215 21:08:37.502135 12297 layer_factory.hpp:74] Creating layer conv2/relu_3x3_reduce
I1215 21:08:37.502143 12297 net.cpp:84] Creating Layer conv2/relu_3x3_reduce
I1215 21:08:37.502151 12297 net.cpp:380] conv2/relu_3x3_reduce <- conv2/3x3_reduce
I1215 21:08:37.502159 12297 net.cpp:327] conv2/relu_3x3_reduce -> conv2/3x3_reduce (in-place)
I1215 21:08:37.502168 12297 net.cpp:113] Setting up conv2/relu_3x3_reduce
I1215 21:08:37.502266 12297 net.cpp:120] Top shape: 128 64 56 56 (25690112)
I1215 21:08:37.502276 12297 layer_factory.hpp:74] Creating layer conv2/3x3
I1215 21:08:37.502288 12297 net.cpp:84] Creating Layer conv2/3x3
I1215 21:08:37.502295 12297 net.cpp:380] conv2/3x3 <- conv2/3x3_reduce
I1215 21:08:37.502316 12297 net.cpp:338] conv2/3x3 -> conv2/3x3
I1215 21:08:37.502331 12297 net.cpp:113] Setting up conv2/3x3
I1215 21:08:37.504694 12297 net.cpp:120] Top shape: 128 192 56 56 (77070336)
I1215 21:08:37.504717 12297 layer_factory.hpp:74] Creating layer conv2/relu_3x3
I1215 21:08:37.504747 12297 net.cpp:84] Creating Layer conv2/relu_3x3
I1215 21:08:37.504755 12297 net.cpp:380] conv2/relu_3x3 <- conv2/3x3
I1215 21:08:37.504763 12297 net.cpp:327] conv2/relu_3x3 -> conv2/3x3 (in-place)
I1215 21:08:37.504773 12297 net.cpp:113] Setting up conv2/relu_3x3
I1215 21:08:37.505084 12297 net.cpp:120] Top shape: 128 192 56 56 (77070336)
I1215 21:08:37.505112 12297 layer_factory.hpp:74] Creating layer conv2/norm2
I1215 21:08:37.505123 12297 net.cpp:84] Creating Layer conv2/norm2
I1215 21:08:37.505131 12297 net.cpp:380] conv2/norm2 <- conv2/3x3
I1215 21:08:37.505139 12297 net.cpp:338] conv2/norm2 -> conv2/norm2
I1215 21:08:37.505149 12297 net.cpp:113] Setting up conv2/norm2
I1215 21:08:37.505159 12297 net.cpp:120] Top shape: 128 192 56 56 (77070336)
I1215 21:08:37.505208 12297 layer_factory.hpp:74] Creating layer pool2/3x3_s2
I1215 21:08:37.505231 12297 net.cpp:84] Creating Layer pool2/3x3_s2
I1215 21:08:37.505239 12297 net.cpp:380] pool2/3x3_s2 <- conv2/norm2
I1215 21:08:37.505246 12297 net.cpp:338] pool2/3x3_s2 -> pool2/3x3_s2
I1215 21:08:37.505255 12297 net.cpp:113] Setting up pool2/3x3_s2
I1215 21:08:37.505604 12297 net.cpp:120] Top shape: 128 192 28 28 (19267584)
I1215 21:08:37.505612 12297 layer_factory.hpp:74] Creating layer pool2/3x3_s2_pool2/3x3_s2_0_split
I1215 21:08:37.505621 12297 net.cpp:84] Creating Layer pool2/3x3_s2_pool2/3x3_s2_0_split
I1215 21:08:37.505627 12297 net.cpp:380] pool2/3x3_s2_pool2/3x3_s2_0_split <- pool2/3x3_s2
I1215 21:08:37.505647 12297 net.cpp:338] pool2/3x3_s2_pool2/3x3_s2_0_split -> pool2/3x3_s2_pool2/3x3_s2_0_split_0
I1215 21:08:37.505658 12297 net.cpp:338] pool2/3x3_s2_pool2/3x3_s2_0_split -> pool2/3x3_s2_pool2/3x3_s2_0_split_1
I1215 21:08:37.505667 12297 net.cpp:338] pool2/3x3_s2_pool2/3x3_s2_0_split -> pool2/3x3_s2_pool2/3x3_s2_0_split_2
I1215 21:08:37.505674 12297 net.cpp:338] pool2/3x3_s2_pool2/3x3_s2_0_split -> pool2/3x3_s2_pool2/3x3_s2_0_split_3
I1215 21:08:37.505681 12297 net.cpp:113] Setting up pool2/3x3_s2_pool2/3x3_s2_0_split
I1215 21:08:37.505692 12297 net.cpp:120] Top shape: 128 192 28 28 (19267584)
I1215 21:08:37.505697 12297 net.cpp:120] Top shape: 128 192 28 28 (19267584)
I1215 21:08:37.505703 12297 net.cpp:120] Top shape: 128 192 28 28 (19267584)
I1215 21:08:37.505709 12297 net.cpp:120] Top shape: 128 192 28 28 (19267584)
I1215 21:08:37.505714 12297 layer_factory.hpp:74] Creating layer inception_3a/1x1
I1215 21:08:37.505723 12297 net.cpp:84] Creating Layer inception_3a/1x1
I1215 21:08:37.505729 12297 net.cpp:380] inception_3a/1x1 <- pool2/3x3_s2_pool2/3x3_s2_0_split_0
I1215 21:08:37.505738 12297 net.cpp:338] inception_3a/1x1 -> inception_3a/1x1
I1215 21:08:37.505748 12297 net.cpp:113] Setting up inception_3a/1x1
I1215 21:08:37.507155 12297 net.cpp:120] Top shape: 128 64 28 28 (6422528)
I1215 21:08:37.507179 12297 layer_factory.hpp:74] Creating layer inception_3a/relu_1x1
I1215 21:08:37.507210 12297 net.cpp:84] Creating Layer inception_3a/relu_1x1
I1215 21:08:37.507217 12297 net.cpp:380] inception_3a/relu_1x1 <- inception_3a/1x1
I1215 21:08:37.507235 12297 net.cpp:327] inception_3a/relu_1x1 -> inception_3a/1x1 (in-place)
I1215 21:08:37.507246 12297 net.cpp:113] Setting up inception_3a/relu_1x1
I1215 21:08:37.507370 12297 net.cpp:120] Top shape: 128 64 28 28 (6422528)
I1215 21:08:37.507380 12297 layer_factory.hpp:74] Creating layer inception_3a/3x3_reduce
I1215 21:08:37.507392 12297 net.cpp:84] Creating Layer inception_3a/3x3_reduce
I1215 21:08:37.507400 12297 net.cpp:380] inception_3a/3x3_reduce <- pool2/3x3_s2_pool2/3x3_s2_0_split_1
I1215 21:08:37.507410 12297 net.cpp:338] inception_3a/3x3_reduce -> inception_3a/3x3_reduce
I1215 21:08:37.507421 12297 net.cpp:113] Setting up inception_3a/3x3_reduce
I1215 21:08:37.508167 12297 net.cpp:120] Top shape: 128 96 28 28 (9633792)
I1215 21:08:37.508189 12297 layer_factory.hpp:74] Creating layer inception_3a/relu_3x3_reduce
I1215 21:08:37.508200 12297 net.cpp:84] Creating Layer inception_3a/relu_3x3_reduce
I1215 21:08:37.508206 12297 net.cpp:380] inception_3a/relu_3x3_reduce <- inception_3a/3x3_reduce
I1215 21:08:37.508225 12297 net.cpp:327] inception_3a/relu_3x3_reduce -> inception_3a/3x3_reduce (in-place)
I1215 21:08:37.508236 12297 net.cpp:113] Setting up inception_3a/relu_3x3_reduce
I1215 21:08:37.508389 12297 net.cpp:120] Top shape: 128 96 28 28 (9633792)
I1215 21:08:37.508399 12297 layer_factory.hpp:74] Creating layer inception_3a/3x3
I1215 21:08:37.508419 12297 net.cpp:84] Creating Layer inception_3a/3x3
I1215 21:08:37.508427 12297 net.cpp:380] inception_3a/3x3 <- inception_3a/3x3_reduce
I1215 21:08:37.508438 12297 net.cpp:338] inception_3a/3x3 -> inception_3a/3x3
I1215 21:08:37.508448 12297 net.cpp:113] Setting up inception_3a/3x3
I1215 21:08:37.510593 12297 net.cpp:120] Top shape: 128 128 28 28 (12845056)
I1215 21:08:37.510624 12297 layer_factory.hpp:74] Creating layer inception_3a/relu_3x3
I1215 21:08:37.510640 12297 net.cpp:84] Creating Layer inception_3a/relu_3x3
I1215 21:08:37.510655 12297 net.cpp:380] inception_3a/relu_3x3 <- inception_3a/3x3
I1215 21:08:37.510666 12297 net.cpp:327] inception_3a/relu_3x3 -> inception_3a/3x3 (in-place)
I1215 21:08:37.510676 12297 net.cpp:113] Setting up inception_3a/relu_3x3
I1215 21:08:37.510977 12297 net.cpp:120] Top shape: 128 128 28 28 (12845056)
I1215 21:08:37.510990 12297 layer_factory.hpp:74] Creating layer inception_3a/5x5_reduce
I1215 21:08:37.511000 12297 net.cpp:84] Creating Layer inception_3a/5x5_reduce
I1215 21:08:37.511006 12297 net.cpp:380] inception_3a/5x5_reduce <- pool2/3x3_s2_pool2/3x3_s2_0_split_2
I1215 21:08:37.511018 12297 net.cpp:338] inception_3a/5x5_reduce -> inception_3a/5x5_reduce
I1215 21:08:37.511032 12297 net.cpp:113] Setting up inception_3a/5x5_reduce
I1215 21:08:37.511632 12297 net.cpp:120] Top shape: 128 16 28 28 (1605632)
I1215 21:08:37.511651 12297 layer_factory.hpp:74] Creating layer inception_3a/relu_5x5_reduce
I1215 21:08:37.511674 12297 net.cpp:84] Creating Layer inception_3a/relu_5x5_reduce
I1215 21:08:37.511682 12297 net.cpp:380] inception_3a/relu_5x5_reduce <- inception_3a/5x5_reduce
I1215 21:08:37.511690 12297 net.cpp:327] inception_3a/relu_5x5_reduce -> inception_3a/5x5_reduce (in-place)
I1215 21:08:37.511703 12297 net.cpp:113] Setting up inception_3a/relu_5x5_reduce
I1215 21:08:37.511801 12297 net.cpp:120] Top shape: 128 16 28 28 (1605632)
I1215 21:08:37.511809 12297 layer_factory.hpp:74] Creating layer inception_3a/5x5
I1215 21:08:37.511819 12297 net.cpp:84] Creating Layer inception_3a/5x5
I1215 21:08:37.511826 12297 net.cpp:380] inception_3a/5x5 <- inception_3a/5x5_reduce
I1215 21:08:37.511837 12297 net.cpp:338] inception_3a/5x5 -> inception_3a/5x5
I1215 21:08:37.511847 12297 net.cpp:113] Setting up inception_3a/5x5
I1215 21:08:37.512490 12297 net.cpp:120] Top shape: 128 32 28 28 (3211264)
I1215 21:08:37.512507 12297 layer_factory.hpp:74] Creating layer inception_3a/relu_5x5
I1215 21:08:37.512516 12297 net.cpp:84] Creating Layer inception_3a/relu_5x5
I1215 21:08:37.512523 12297 net.cpp:380] inception_3a/relu_5x5 <- inception_3a/5x5
I1215 21:08:37.512532 12297 net.cpp:327] inception_3a/relu_5x5 -> inception_3a/5x5 (in-place)
I1215 21:08:37.512542 12297 net.cpp:113] Setting up inception_3a/relu_5x5
I1215 21:08:37.512646 12297 net.cpp:120] Top shape: 128 32 28 28 (3211264)
I1215 21:08:37.512668 12297 layer_factory.hpp:74] Creating layer inception_3a/pool
I1215 21:08:37.512676 12297 layer_factory.cpp:56] CUDNN does not support padding or multiple tops. Using Caffe's own pooling layer.
I1215 21:08:37.512691 12297 net.cpp:84] Creating Layer inception_3a/pool
I1215 21:08:37.512696 12297 net.cpp:380] inception_3a/pool <- pool2/3x3_s2_pool2/3x3_s2_0_split_3
I1215 21:08:37.512706 12297 net.cpp:338] inception_3a/pool -> inception_3a/pool
I1215 21:08:37.512717 12297 net.cpp:113] Setting up inception_3a/pool
I1215 21:08:37.512727 12297 net.cpp:120] Top shape: 128 192 28 28 (19267584)
I1215 21:08:37.512733 12297 layer_factory.hpp:74] Creating layer inception_3a/pool_proj
I1215 21:08:37.512765 12297 net.cpp:84] Creating Layer inception_3a/pool_proj
I1215 21:08:37.512773 12297 net.cpp:380] inception_3a/pool_proj <- inception_3a/pool
I1215 21:08:37.512783 12297 net.cpp:338] inception_3a/pool_proj -> inception_3a/pool_proj
I1215 21:08:37.512794 12297 net.cpp:113] Setting up inception_3a/pool_proj
I1215 21:08:37.513422 12297 net.cpp:120] Top shape: 128 32 28 28 (3211264)
I1215 21:08:37.513447 12297 layer_factory.hpp:74] Creating layer inception_3a/relu_pool_proj
I1215 21:08:37.513459 12297 net.cpp:84] Creating Layer inception_3a/relu_pool_proj
I1215 21:08:37.513466 12297 net.cpp:380] inception_3a/relu_pool_proj <- inception_3a/pool_proj
I1215 21:08:37.513474 12297 net.cpp:327] inception_3a/relu_pool_proj -> inception_3a/pool_proj (in-place)
I1215 21:08:37.513484 12297 net.cpp:113] Setting up inception_3a/relu_pool_proj
I1215 21:08:37.513581 12297 net.cpp:120] Top shape: 128 32 28 28 (3211264)
I1215 21:08:37.513589 12297 layer_factory.hpp:74] Creating layer inception_3a/output
I1215 21:08:37.513628 12297 net.cpp:84] Creating Layer inception_3a/output
I1215 21:08:37.513638 12297 net.cpp:380] inception_3a/output <- inception_3a/1x1
I1215 21:08:37.513645 12297 net.cpp:380] inception_3a/output <- inception_3a/3x3
I1215 21:08:37.513651 12297 net.cpp:380] inception_3a/output <- inception_3a/5x5
I1215 21:08:37.513658 12297 net.cpp:380] inception_3a/output <- inception_3a/pool_proj
I1215 21:08:37.513665 12297 net.cpp:338] inception_3a/output -> inception_3a/output
I1215 21:08:37.513675 12297 net.cpp:113] Setting up inception_3a/output
I1215 21:08:37.513686 12297 net.cpp:120] Top shape: 128 256 28 28 (25690112)
I1215 21:08:37.513707 12297 layer_factory.hpp:74] Creating layer inception_3a/output_inception_3a/output_0_split
I1215 21:08:37.513722 12297 net.cpp:84] Creating Layer inception_3a/output_inception_3a/output_0_split
I1215 21:08:37.513730 12297 net.cpp:380] inception_3a/output_inception_3a/output_0_split <- inception_3a/output
I1215 21:08:37.513737 12297 net.cpp:338] inception_3a/output_inception_3a/output_0_split -> inception_3a/output_inception_3a/output_0_split_0
I1215 21:08:37.513748 12297 net.cpp:338] inception_3a/output_inception_3a/output_0_split -> inception_3a/output_inception_3a/output_0_split_1
I1215 21:08:37.513761 12297 net.cpp:338] inception_3a/output_inception_3a/output_0_split -> inception_3a/output_inception_3a/output_0_split_2
I1215 21:08:37.513770 12297 net.cpp:338] inception_3a/output_inception_3a/output_0_split -> inception_3a/output_inception_3a/output_0_split_3
I1215 21:08:37.513778 12297 net.cpp:113] Setting up inception_3a/output_inception_3a/output_0_split
I1215 21:08:37.513788 12297 net.cpp:120] Top shape: 128 256 28 28 (25690112)
I1215 21:08:37.513795 12297 net.cpp:120] Top shape: 128 256 28 28 (25690112)
I1215 21:08:37.513802 12297 net.cpp:120] Top shape: 128 256 28 28 (25690112)
I1215 21:08:37.513808 12297 net.cpp:120] Top shape: 128 256 28 28 (25690112)
I1215 21:08:37.513813 12297 layer_factory.hpp:74] Creating layer inception_3b/1x1
I1215 21:08:37.513831 12297 net.cpp:84] Creating Layer inception_3b/1x1
I1215 21:08:37.513838 12297 net.cpp:380] inception_3b/1x1 <- inception_3a/output_inception_3a/output_0_split_0
I1215 21:08:37.513849 12297 net.cpp:338] inception_3b/1x1 -> inception_3b/1x1
I1215 21:08:37.513860 12297 net.cpp:113] Setting up inception_3b/1x1
I1215 21:08:37.514950 12297 net.cpp:120] Top shape: 128 128 28 28 (12845056)
I1215 21:08:37.514968 12297 layer_factory.hpp:74] Creating layer inception_3b/relu_1x1
I1215 21:08:37.514977 12297 net.cpp:84] Creating Layer inception_3b/relu_1x1
I1215 21:08:37.514983 12297 net.cpp:380] inception_3b/relu_1x1 <- inception_3b/1x1
I1215 21:08:37.514991 12297 net.cpp:327] inception_3b/relu_1x1 -> inception_3b/1x1 (in-place)
I1215 21:08:37.515000 12297 net.cpp:113] Setting up inception_3b/relu_1x1
I1215 21:08:37.515282 12297 net.cpp:120] Top shape: 128 128 28 28 (12845056)
I1215 21:08:37.515295 12297 layer_factory.hpp:74] Creating layer inception_3b/3x3_reduce
I1215 21:08:37.515305 12297 net.cpp:84] Creating Layer inception_3b/3x3_reduce
I1215 21:08:37.515311 12297 net.cpp:380] inception_3b/3x3_reduce <- inception_3a/output_inception_3a/output_0_split_1
I1215 21:08:37.515322 12297 net.cpp:338] inception_3b/3x3_reduce -> inception_3b/3x3_reduce
I1215 21:08:37.515333 12297 net.cpp:113] Setting up inception_3b/3x3_reduce
I1215 21:08:37.516305 12297 net.cpp:120] Top shape: 128 128 28 28 (12845056)
I1215 21:08:37.516324 12297 layer_factory.hpp:74] Creating layer inception_3b/relu_3x3_reduce
I1215 21:08:37.516356 12297 net.cpp:84] Creating Layer inception_3b/relu_3x3_reduce
I1215 21:08:37.516363 12297 net.cpp:380] inception_3b/relu_3x3_reduce <- inception_3b/3x3_reduce
I1215 21:08:37.516374 12297 net.cpp:327] inception_3b/relu_3x3_reduce -> inception_3b/3x3_reduce (in-place)
I1215 21:08:37.516384 12297 net.cpp:113] Setting up inception_3b/relu_3x3_reduce
I1215 21:08:37.516492 12297 net.cpp:120] Top shape: 128 128 28 28 (12845056)
I1215 21:08:37.516502 12297 layer_factory.hpp:74] Creating layer inception_3b/3x3
I1215 21:08:37.516523 12297 net.cpp:84] Creating Layer inception_3b/3x3
I1215 21:08:37.516540 12297 net.cpp:380] inception_3b/3x3 <- inception_3b/3x3_reduce
I1215 21:08:37.516551 12297 net.cpp:338] inception_3b/3x3 -> inception_3b/3x3
I1215 21:08:37.516564 12297 net.cpp:113] Setting up inception_3b/3x3
I1215 21:08:37.520221 12297 net.cpp:120] Top shape: 128 192 28 28 (19267584)
I1215 21:08:37.520243 12297 layer_factory.hpp:74] Creating layer inception_3b/relu_3x3
I1215 21:08:37.520252 12297 net.cpp:84] Creating Layer inception_3b/relu_3x3
I1215 21:08:37.520258 12297 net.cpp:380] inception_3b/relu_3x3 <- inception_3b/3x3
I1215 21:08:37.520267 12297 net.cpp:327] inception_3b/relu_3x3 -> inception_3b/3x3 (in-place)
I1215 21:08:37.520277 12297 net.cpp:113] Setting up inception_3b/relu_3x3
I1215 21:08:37.520355 12297 net.cpp:120] Top shape: 128 192 28 28 (19267584)
I1215 21:08:37.520362 12297 layer_factory.hpp:74] Creating layer inception_3b/5x5_reduce
I1215 21:08:37.520383 12297 net.cpp:84] Creating Layer inception_3b/5x5_reduce
I1215 21:08:37.520390 12297 net.cpp:380] inception_3b/5x5_reduce <- inception_3a/output_inception_3a/output_0_split_2
I1215 21:08:37.520401 12297 net.cpp:338] inception_3b/5x5_reduce -> inception_3b/5x5_reduce
I1215 21:08:37.520411 12297 net.cpp:113] Setting up inception_3b/5x5_reduce
I1215 21:08:37.520987 12297 net.cpp:120] Top shape: 128 32 28 28 (3211264)
I1215 21:08:37.521004 12297 layer_factory.hpp:74] Creating layer inception_3b/relu_5x5_reduce
I1215 21:08:37.521014 12297 net.cpp:84] Creating Layer inception_3b/relu_5x5_reduce
I1215 21:08:37.521021 12297 net.cpp:380] inception_3b/relu_5x5_reduce <- inception_3b/5x5_reduce
I1215 21:08:37.521028 12297 net.cpp:327] inception_3b/relu_5x5_reduce -> inception_3b/5x5_reduce (in-place)
I1215 21:08:37.521037 12297 net.cpp:113] Setting up inception_3b/relu_5x5_reduce
I1215 21:08:37.521126 12297 net.cpp:120] Top shape: 128 32 28 28 (3211264)
I1215 21:08:37.521144 12297 layer_factory.hpp:74] Creating layer inception_3b/5x5
I1215 21:08:37.521158 12297 net.cpp:84] Creating Layer inception_3b/5x5
I1215 21:08:37.521164 12297 net.cpp:380] inception_3b/5x5 <- inception_3b/5x5_reduce
I1215 21:08:37.521173 12297 net.cpp:338] inception_3b/5x5 -> inception_3b/5x5
I1215 21:08:37.521203 12297 net.cpp:113] Setting up inception_3b/5x5
I1215 21:08:37.522685 12297 net.cpp:120] Top shape: 128 96 28 28 (9633792)
I1215 21:08:37.522702 12297 layer_factory.hpp:74] Creating layer inception_3b/relu_5x5
I1215 21:08:37.522711 12297 net.cpp:84] Creating Layer inception_3b/relu_5x5
I1215 21:08:37.522716 12297 net.cpp:380] inception_3b/relu_5x5 <- inception_3b/5x5
I1215 21:08:37.522727 12297 net.cpp:327] inception_3b/relu_5x5 -> inception_3b/5x5 (in-place)
I1215 21:08:37.522735 12297 net.cpp:113] Setting up inception_3b/relu_5x5
I1215 21:08:37.523000 12297 net.cpp:120] Top shape: 128 96 28 28 (9633792)
I1215 21:08:37.523012 12297 layer_factory.hpp:74] Creating layer inception_3b/pool
I1215 21:08:37.523030 12297 layer_factory.cpp:56] CUDNN does not support padding or multiple tops. Using Caffe's own pooling layer.
I1215 21:08:37.523036 12297 net.cpp:84] Creating Layer inception_3b/pool
I1215 21:08:37.523042 12297 net.cpp:380] inception_3b/pool <- inception_3a/output_inception_3a/output_0_split_3
I1215 21:08:37.523051 12297 net.cpp:338] inception_3b/pool -> inception_3b/pool
I1215 21:08:37.523061 12297 net.cpp:113] Setting up inception_3b/pool
I1215 21:08:37.523071 12297 net.cpp:120] Top shape: 128 256 28 28 (25690112)
I1215 21:08:37.523075 12297 layer_factory.hpp:74] Creating layer inception_3b/pool_proj
I1215 21:08:37.523085 12297 net.cpp:84] Creating Layer inception_3b/pool_proj
I1215 21:08:37.523092 12297 net.cpp:380] inception_3b/pool_proj <- inception_3b/pool
I1215 21:08:37.523100 12297 net.cpp:338] inception_3b/pool_proj -> inception_3b/pool_proj
I1215 21:08:37.523109 12297 net.cpp:113] Setting up inception_3b/pool_proj
I1215 21:08:37.523787 12297 net.cpp:120] Top shape: 128 64 28 28 (6422528)
I1215 21:08:37.523803 12297 layer_factory.hpp:74] Creating layer inception_3b/relu_pool_proj
I1215 21:08:37.523818 12297 net.cpp:84] Creating Layer inception_3b/relu_pool_proj
I1215 21:08:37.523833 12297 net.cpp:380] inception_3b/relu_pool_proj <- inception_3b/pool_proj
I1215 21:08:37.523840 12297 net.cpp:327] inception_3b/relu_pool_proj -> inception_3b/pool_proj (in-place)
I1215 21:08:37.523849 12297 net.cpp:113] Setting up inception_3b/relu_pool_proj
I1215 21:08:37.523928 12297 net.cpp:120] Top shape: 128 64 28 28 (6422528)
I1215 21:08:37.523946 12297 layer_factory.hpp:74] Creating layer inception_3b/output
I1215 21:08:37.523962 12297 net.cpp:84] Creating Layer inception_3b/output
I1215 21:08:37.523968 12297 net.cpp:380] inception_3b/output <- inception_3b/1x1
I1215 21:08:37.523975 12297 net.cpp:380] inception_3b/output <- inception_3b/3x3
I1215 21:08:37.523982 12297 net.cpp:380] inception_3b/output <- inception_3b/5x5
I1215 21:08:37.523988 12297 net.cpp:380] inception_3b/output <- inception_3b/pool_proj
I1215 21:08:37.523996 12297 net.cpp:338] inception_3b/output -> inception_3b/output
I1215 21:08:37.524005 12297 net.cpp:113] Setting up inception_3b/output
I1215 21:08:37.524013 12297 net.cpp:120] Top shape: 128 480 28 28 (48168960)
I1215 21:08:37.524019 12297 layer_factory.hpp:74] Creating layer pool3/3x3_s2
I1215 21:08:37.524026 12297 net.cpp:84] Creating Layer pool3/3x3_s2
I1215 21:08:37.524031 12297 net.cpp:380] pool3/3x3_s2 <- inception_3b/output
I1215 21:08:37.524039 12297 net.cpp:338] pool3/3x3_s2 -> pool3/3x3_s2
I1215 21:08:37.524045 12297 net.cpp:113] Setting up pool3/3x3_s2
I1215 21:08:37.524123 12297 net.cpp:120] Top shape: 128 480 14 14 (12042240)
I1215 21:08:37.524132 12297 layer_factory.hpp:74] Creating layer pool3/3x3_s2_pool3/3x3_s2_0_split
I1215 21:08:37.524138 12297 net.cpp:84] Creating Layer pool3/3x3_s2_pool3/3x3_s2_0_split
I1215 21:08:37.524143 12297 net.cpp:380] pool3/3x3_s2_pool3/3x3_s2_0_split <- pool3/3x3_s2
I1215 21:08:37.524152 12297 net.cpp:338] pool3/3x3_s2_pool3/3x3_s2_0_split -> pool3/3x3_s2_pool3/3x3_s2_0_split_0
I1215 21:08:37.524161 12297 net.cpp:338] pool3/3x3_s2_pool3/3x3_s2_0_split -> pool3/3x3_s2_pool3/3x3_s2_0_split_1
I1215 21:08:37.524169 12297 net.cpp:338] pool3/3x3_s2_pool3/3x3_s2_0_split -> pool3/3x3_s2_pool3/3x3_s2_0_split_2
I1215 21:08:37.524176 12297 net.cpp:338] pool3/3x3_s2_pool3/3x3_s2_0_split -> pool3/3x3_s2_pool3/3x3_s2_0_split_3
I1215 21:08:37.524183 12297 net.cpp:113] Setting up pool3/3x3_s2_pool3/3x3_s2_0_split
I1215 21:08:37.524194 12297 net.cpp:120] Top shape: 128 480 14 14 (12042240)
I1215 21:08:37.524199 12297 net.cpp:120] Top shape: 128 480 14 14 (12042240)
I1215 21:08:37.524204 12297 net.cpp:120] Top shape: 128 480 14 14 (12042240)
I1215 21:08:37.524210 12297 net.cpp:120] Top shape: 128 480 14 14 (12042240)
I1215 21:08:37.524215 12297 layer_factory.hpp:74] Creating layer inception_4a/1x1
I1215 21:08:37.524224 12297 net.cpp:84] Creating Layer inception_4a/1x1
I1215 21:08:37.524229 12297 net.cpp:380] inception_4a/1x1 <- pool3/3x3_s2_pool3/3x3_s2_0_split_0
I1215 21:08:37.524238 12297 net.cpp:338] inception_4a/1x1 -> inception_4a/1x1
I1215 21:08:37.524246 12297 net.cpp:113] Setting up inception_4a/1x1
I1215 21:08:37.525926 12297 net.cpp:120] Top shape: 128 192 14 14 (4816896)
I1215 21:08:37.525956 12297 layer_factory.hpp:74] Creating layer inception_4a/relu_1x1
I1215 21:08:37.525967 12297 net.cpp:84] Creating Layer inception_4a/relu_1x1
I1215 21:08:37.525974 12297 net.cpp:380] inception_4a/relu_1x1 <- inception_4a/1x1
I1215 21:08:37.525980 12297 net.cpp:327] inception_4a/relu_1x1 -> inception_4a/1x1 (in-place)
I1215 21:08:37.525990 12297 net.cpp:113] Setting up inception_4a/relu_1x1
I1215 21:08:37.526268 12297 net.cpp:120] Top shape: 128 192 14 14 (4816896)
I1215 21:08:37.526279 12297 layer_factory.hpp:74] Creating layer inception_4a/3x3_reduce
I1215 21:08:37.526298 12297 net.cpp:84] Creating Layer inception_4a/3x3_reduce
I1215 21:08:37.526304 12297 net.cpp:380] inception_4a/3x3_reduce <- pool3/3x3_s2_pool3/3x3_s2_0_split_1
I1215 21:08:37.526315 12297 net.cpp:338] inception_4a/3x3_reduce -> inception_4a/3x3_reduce
I1215 21:08:37.526331 12297 net.cpp:113] Setting up inception_4a/3x3_reduce
I1215 21:08:37.527410 12297 net.cpp:120] Top shape: 128 96 14 14 (2408448)
I1215 21:08:37.527432 12297 layer_factory.hpp:74] Creating layer inception_4a/relu_3x3_reduce
I1215 21:08:37.527443 12297 net.cpp:84] Creating Layer inception_4a/relu_3x3_reduce
I1215 21:08:37.527449 12297 net.cpp:380] inception_4a/relu_3x3_reduce <- inception_4a/3x3_reduce
I1215 21:08:37.527457 12297 net.cpp:327] inception_4a/relu_3x3_reduce -> inception_4a/3x3_reduce (in-place)
I1215 21:08:37.527467 12297 net.cpp:113] Setting up inception_4a/relu_3x3_reduce
I1215 21:08:37.527549 12297 net.cpp:120] Top shape: 128 96 14 14 (2408448)
I1215 21:08:37.527556 12297 layer_factory.hpp:74] Creating layer inception_4a/3x3
I1215 21:08:37.527566 12297 net.cpp:84] Creating Layer inception_4a/3x3
I1215 21:08:37.527572 12297 net.cpp:380] inception_4a/3x3 <- inception_4a/3x3_reduce
I1215 21:08:37.527583 12297 net.cpp:338] inception_4a/3x3 -> inception_4a/3x3
I1215 21:08:37.527592 12297 net.cpp:113] Setting up inception_4a/3x3
I1215 21:08:37.530356 12297 net.cpp:120] Top shape: 128 208 14 14 (5218304)
I1215 21:08:37.530385 12297 layer_factory.hpp:74] Creating layer inception_4a/relu_3x3
I1215 21:08:37.530401 12297 net.cpp:84] Creating Layer inception_4a/relu_3x3
I1215 21:08:37.530407 12297 net.cpp:380] inception_4a/relu_3x3 <- inception_4a/3x3
I1215 21:08:37.530416 12297 net.cpp:327] inception_4a/relu_3x3 -> inception_4a/3x3 (in-place)
I1215 21:08:37.530423 12297 net.cpp:113] Setting up inception_4a/relu_3x3
I1215 21:08:37.530508 12297 net.cpp:120] Top shape: 128 208 14 14 (5218304)
I1215 21:08:37.530516 12297 layer_factory.hpp:74] Creating layer inception_4a/5x5_reduce
I1215 21:08:37.530524 12297 net.cpp:84] Creating Layer inception_4a/5x5_reduce
I1215 21:08:37.530530 12297 net.cpp:380] inception_4a/5x5_reduce <- pool3/3x3_s2_pool3/3x3_s2_0_split_2
I1215 21:08:37.530540 12297 net.cpp:338] inception_4a/5x5_reduce -> inception_4a/5x5_reduce
I1215 21:08:37.530550 12297 net.cpp:113] Setting up inception_4a/5x5_reduce
I1215 21:08:37.531096 12297 net.cpp:120] Top shape: 128 16 14 14 (401408)
I1215 21:08:37.531113 12297 layer_factory.hpp:74] Creating layer inception_4a/relu_5x5_reduce
I1215 21:08:37.531122 12297 net.cpp:84] Creating Layer inception_4a/relu_5x5_reduce
I1215 21:08:37.531129 12297 net.cpp:380] inception_4a/relu_5x5_reduce <- inception_4a/5x5_reduce
I1215 21:08:37.531136 12297 net.cpp:327] inception_4a/relu_5x5_reduce -> inception_4a/5x5_reduce (in-place)
I1215 21:08:37.531144 12297 net.cpp:113] Setting up inception_4a/relu_5x5_reduce
I1215 21:08:37.531222 12297 net.cpp:120] Top shape: 128 16 14 14 (401408)
I1215 21:08:37.531229 12297 layer_factory.hpp:74] Creating layer inception_4a/5x5
I1215 21:08:37.531246 12297 net.cpp:84] Creating Layer inception_4a/5x5
I1215 21:08:37.531254 12297 net.cpp:380] inception_4a/5x5 <- inception_4a/5x5_reduce
I1215 21:08:37.531262 12297 net.cpp:338] inception_4a/5x5 -> inception_4a/5x5
I1215 21:08:37.531272 12297 net.cpp:113] Setting up inception_4a/5x5
I1215 21:08:37.531962 12297 net.cpp:120] Top shape: 128 48 14 14 (1204224)
I1215 21:08:37.531978 12297 layer_factory.hpp:74] Creating layer inception_4a/relu_5x5
I1215 21:08:37.531987 12297 net.cpp:84] Creating Layer inception_4a/relu_5x5
I1215 21:08:37.531993 12297 net.cpp:380] inception_4a/relu_5x5 <- inception_4a/5x5
I1215 21:08:37.532001 12297 net.cpp:327] inception_4a/relu_5x5 -> inception_4a/5x5 (in-place)
I1215 21:08:37.532009 12297 net.cpp:113] Setting up inception_4a/relu_5x5
I1215 21:08:37.532269 12297 net.cpp:120] Top shape: 128 48 14 14 (1204224)
I1215 21:08:37.532290 12297 layer_factory.hpp:74] Creating layer inception_4a/pool
I1215 21:08:37.532297 12297 layer_factory.cpp:56] CUDNN does not support padding or multiple tops. Using Caffe's own pooling layer.
I1215 21:08:37.532305 12297 net.cpp:84] Creating Layer inception_4a/pool
I1215 21:08:37.532310 12297 net.cpp:380] inception_4a/pool <- pool3/3x3_s2_pool3/3x3_s2_0_split_3
I1215 21:08:37.532320 12297 net.cpp:338] inception_4a/pool -> inception_4a/pool
I1215 21:08:37.532335 12297 net.cpp:113] Setting up inception_4a/pool
I1215 21:08:37.532352 12297 net.cpp:120] Top shape: 128 480 14 14 (12042240)
I1215 21:08:37.532357 12297 layer_factory.hpp:74] Creating layer inception_4a/pool_proj
I1215 21:08:37.532367 12297 net.cpp:84] Creating Layer inception_4a/pool_proj
I1215 21:08:37.532373 12297 net.cpp:380] inception_4a/pool_proj <- inception_4a/pool
I1215 21:08:37.532380 12297 net.cpp:338] inception_4a/pool_proj -> inception_4a/pool_proj
I1215 21:08:37.532388 12297 net.cpp:113] Setting up inception_4a/pool_proj
I1215 21:08:37.533234 12297 net.cpp:120] Top shape: 128 64 14 14 (1605632)
I1215 21:08:37.533252 12297 layer_factory.hpp:74] Creating layer inception_4a/relu_pool_proj
I1215 21:08:37.533272 12297 net.cpp:84] Creating Layer inception_4a/relu_pool_proj
I1215 21:08:37.533279 12297 net.cpp:380] inception_4a/relu_pool_proj <- inception_4a/pool_proj
I1215 21:08:37.533288 12297 net.cpp:327] inception_4a/relu_pool_proj -> inception_4a/pool_proj (in-place)
I1215 21:08:37.533298 12297 net.cpp:113] Setting up inception_4a/relu_pool_proj
I1215 21:08:37.533378 12297 net.cpp:120] Top shape: 128 64 14 14 (1605632)
I1215 21:08:37.533385 12297 layer_factory.hpp:74] Creating layer inception_4a/output
I1215 21:08:37.533396 12297 net.cpp:84] Creating Layer inception_4a/output
I1215 21:08:37.533401 12297 net.cpp:380] inception_4a/output <- inception_4a/1x1
I1215 21:08:37.533407 12297 net.cpp:380] inception_4a/output <- inception_4a/3x3
I1215 21:08:37.533413 12297 net.cpp:380] inception_4a/output <- inception_4a/5x5
I1215 21:08:37.533419 12297 net.cpp:380] inception_4a/output <- inception_4a/pool_proj
I1215 21:08:37.533426 12297 net.cpp:338] inception_4a/output -> inception_4a/output
I1215 21:08:37.533433 12297 net.cpp:113] Setting up inception_4a/output
I1215 21:08:37.533442 12297 net.cpp:120] Top shape: 128 512 14 14 (12845056)
I1215 21:08:37.533447 12297 layer_factory.hpp:74] Creating layer inception_4a/output_inception_4a/output_0_split
I1215 21:08:37.533460 12297 net.cpp:84] Creating Layer inception_4a/output_inception_4a/output_0_split
I1215 21:08:37.533465 12297 net.cpp:380] inception_4a/output_inception_4a/output_0_split <- inception_4a/output
I1215 21:08:37.533474 12297 net.cpp:338] inception_4a/output_inception_4a/output_0_split -> inception_4a/output_inception_4a/output_0_split_0
I1215 21:08:37.533483 12297 net.cpp:338] inception_4a/output_inception_4a/output_0_split -> inception_4a/output_inception_4a/output_0_split_1
I1215 21:08:37.533490 12297 net.cpp:338] inception_4a/output_inception_4a/output_0_split -> inception_4a/output_inception_4a/output_0_split_2
I1215 21:08:37.533499 12297 net.cpp:338] inception_4a/output_inception_4a/output_0_split -> inception_4a/output_inception_4a/output_0_split_3
I1215 21:08:37.533505 12297 net.cpp:338] inception_4a/output_inception_4a/output_0_split -> inception_4a/output_inception_4a/output_0_split_4
I1215 21:08:37.533515 12297 net.cpp:113] Setting up inception_4a/output_inception_4a/output_0_split
I1215 21:08:37.533524 12297 net.cpp:120] Top shape: 128 512 14 14 (12845056)
I1215 21:08:37.533530 12297 net.cpp:120] Top shape: 128 512 14 14 (12845056)
I1215 21:08:37.533535 12297 net.cpp:120] Top shape: 128 512 14 14 (12845056)
I1215 21:08:37.533541 12297 net.cpp:120] Top shape: 128 512 14 14 (12845056)
I1215 21:08:37.533546 12297 net.cpp:120] Top shape: 128 512 14 14 (12845056)
I1215 21:08:37.533552 12297 layer_factory.hpp:74] Creating layer loss1/ave_pool
I1215 21:08:37.533560 12297 net.cpp:84] Creating Layer loss1/ave_pool
I1215 21:08:37.533566 12297 net.cpp:380] loss1/ave_pool <- inception_4a/output_inception_4a/output_0_split_0
I1215 21:08:37.533572 12297 net.cpp:338] loss1/ave_pool -> loss1/ave_pool
I1215 21:08:37.533579 12297 net.cpp:113] Setting up loss1/ave_pool
I1215 21:08:37.533660 12297 net.cpp:120] Top shape: 128 512 4 4 (1048576)
I1215 21:08:37.533668 12297 layer_factory.hpp:74] Creating layer loss1/conv
I1215 21:08:37.533679 12297 net.cpp:84] Creating Layer loss1/conv
I1215 21:08:37.533684 12297 net.cpp:380] loss1/conv <- loss1/ave_pool
I1215 21:08:37.533696 12297 net.cpp:338] loss1/conv -> loss1/conv
I1215 21:08:37.533712 12297 net.cpp:113] Setting up loss1/conv
I1215 21:08:37.534979 12297 net.cpp:120] Top shape: 128 128 4 4 (262144)
I1215 21:08:37.534996 12297 layer_factory.hpp:74] Creating layer loss1/relu_conv
I1215 21:08:37.535017 12297 net.cpp:84] Creating Layer loss1/relu_conv
I1215 21:08:37.535023 12297 net.cpp:380] loss1/relu_conv <- loss1/conv
I1215 21:08:37.535032 12297 net.cpp:327] loss1/relu_conv -> loss1/conv (in-place)
I1215 21:08:37.535039 12297 net.cpp:113] Setting up loss1/relu_conv
I1215 21:08:37.535120 12297 net.cpp:120] Top shape: 128 128 4 4 (262144)
I1215 21:08:37.535126 12297 layer_factory.hpp:74] Creating layer loss1/fc
I1215 21:08:37.535136 12297 net.cpp:84] Creating Layer loss1/fc
I1215 21:08:37.535142 12297 net.cpp:380] loss1/fc <- loss1/conv
I1215 21:08:37.535151 12297 net.cpp:338] loss1/fc -> loss1/fc
I1215 21:08:37.535163 12297 net.cpp:113] Setting up loss1/fc
I1215 21:08:37.558589 12297 net.cpp:120] Top shape: 128 1024 (131072)
I1215 21:08:37.558614 12297 layer_factory.hpp:74] Creating layer loss1/relu_fc
I1215 21:08:37.558625 12297 net.cpp:84] Creating Layer loss1/relu_fc
I1215 21:08:37.558630 12297 net.cpp:380] loss1/relu_fc <- loss1/fc
I1215 21:08:37.558637 12297 net.cpp:327] loss1/relu_fc -> loss1/fc (in-place)
I1215 21:08:37.558645 12297 net.cpp:113] Setting up loss1/relu_fc
I1215 21:08:37.562031 12297 net.cpp:120] Top shape: 128 1024 (131072)
I1215 21:08:37.562042 12297 layer_factory.hpp:74] Creating layer loss1/drop_fc
I1215 21:08:37.562067 12297 net.cpp:84] Creating Layer loss1/drop_fc
I1215 21:08:37.562072 12297 net.cpp:380] loss1/drop_fc <- loss1/fc
I1215 21:08:37.562080 12297 net.cpp:327] loss1/drop_fc -> loss1/fc (in-place)
I1215 21:08:37.562090 12297 net.cpp:113] Setting up loss1/drop_fc
I1215 21:08:37.562099 12297 net.cpp:120] Top shape: 128 1024 (131072)
I1215 21:08:37.562105 12297 layer_factory.hpp:74] Creating layer loss1/classifier_kaggle
I1215 21:08:37.562111 12297 net.cpp:84] Creating Layer loss1/classifier_kaggle
I1215 21:08:37.562116 12297 net.cpp:380] loss1/classifier_kaggle <- loss1/fc
I1215 21:08:37.562124 12297 net.cpp:338] loss1/classifier_kaggle -> loss1/classifier_kaggle
I1215 21:08:37.562132 12297 net.cpp:113] Setting up loss1/classifier_kaggle
I1215 21:08:37.567404 12297 net.cpp:120] Top shape: 128 447 (57216)
I1215 21:08:37.567415 12297 layer_factory.hpp:74] Creating layer loss1/loss
I1215 21:08:37.567425 12297 net.cpp:84] Creating Layer loss1/loss
I1215 21:08:37.567430 12297 net.cpp:380] loss1/loss <- loss1/classifier_kaggle
I1215 21:08:37.567436 12297 net.cpp:380] loss1/loss <- label_data_1_split_0
I1215 21:08:37.567443 12297 net.cpp:338] loss1/loss -> loss1/loss1
I1215 21:08:37.567451 12297 net.cpp:113] Setting up loss1/loss
I1215 21:08:37.567459 12297 layer_factory.hpp:74] Creating layer loss1/loss
I1215 21:08:37.567680 12297 net.cpp:120] Top shape: (1)
I1215 21:08:37.567688 12297 net.cpp:122]     with loss weight 0.3
I1215 21:08:37.567708 12297 layer_factory.hpp:74] Creating layer inception_4b/1x1
I1215 21:08:37.567739 12297 net.cpp:84] Creating Layer inception_4b/1x1
I1215 21:08:37.567745 12297 net.cpp:380] inception_4b/1x1 <- inception_4a/output_inception_4a/output_0_split_1
I1215 21:08:37.567754 12297 net.cpp:338] inception_4b/1x1 -> inception_4b/1x1
I1215 21:08:37.567764 12297 net.cpp:113] Setting up inception_4b/1x1
I1215 21:08:37.569146 12297 net.cpp:120] Top shape: 128 160 14 14 (4014080)
I1215 21:08:37.569164 12297 layer_factory.hpp:74] Creating layer inception_4b/relu_1x1
I1215 21:08:37.569183 12297 net.cpp:84] Creating Layer inception_4b/relu_1x1
I1215 21:08:37.569191 12297 net.cpp:380] inception_4b/relu_1x1 <- inception_4b/1x1
I1215 21:08:37.569198 12297 net.cpp:327] inception_4b/relu_1x1 -> inception_4b/1x1 (in-place)
I1215 21:08:37.569205 12297 net.cpp:113] Setting up inception_4b/relu_1x1
I1215 21:08:37.569286 12297 net.cpp:120] Top shape: 128 160 14 14 (4014080)
I1215 21:08:37.569293 12297 layer_factory.hpp:74] Creating layer inception_4b/3x3_reduce
I1215 21:08:37.569306 12297 net.cpp:84] Creating Layer inception_4b/3x3_reduce
I1215 21:08:37.569319 12297 net.cpp:380] inception_4b/3x3_reduce <- inception_4a/output_inception_4a/output_0_split_2
I1215 21:08:37.569329 12297 net.cpp:338] inception_4b/3x3_reduce -> inception_4b/3x3_reduce
I1215 21:08:37.569337 12297 net.cpp:113] Setting up inception_4b/3x3_reduce
I1215 21:08:37.570431 12297 net.cpp:120] Top shape: 128 112 14 14 (2809856)
I1215 21:08:37.570447 12297 layer_factory.hpp:74] Creating layer inception_4b/relu_3x3_reduce
I1215 21:08:37.570454 12297 net.cpp:84] Creating Layer inception_4b/relu_3x3_reduce
I1215 21:08:37.570461 12297 net.cpp:380] inception_4b/relu_3x3_reduce <- inception_4b/3x3_reduce
I1215 21:08:37.570467 12297 net.cpp:327] inception_4b/relu_3x3_reduce -> inception_4b/3x3_reduce (in-place)
I1215 21:08:37.570474 12297 net.cpp:113] Setting up inception_4b/relu_3x3_reduce
I1215 21:08:37.570544 12297 net.cpp:120] Top shape: 128 112 14 14 (2809856)
I1215 21:08:37.570551 12297 layer_factory.hpp:74] Creating layer inception_4b/3x3
I1215 21:08:37.570559 12297 net.cpp:84] Creating Layer inception_4b/3x3
I1215 21:08:37.570564 12297 net.cpp:380] inception_4b/3x3 <- inception_4b/3x3_reduce
I1215 21:08:37.570571 12297 net.cpp:338] inception_4b/3x3 -> inception_4b/3x3
I1215 21:08:37.570580 12297 net.cpp:113] Setting up inception_4b/3x3
I1215 21:08:37.573588 12297 net.cpp:120] Top shape: 128 224 14 14 (5619712)
I1215 21:08:37.573614 12297 layer_factory.hpp:74] Creating layer inception_4b/relu_3x3
I1215 21:08:37.573633 12297 net.cpp:84] Creating Layer inception_4b/relu_3x3
I1215 21:08:37.573639 12297 net.cpp:380] inception_4b/relu_3x3 <- inception_4b/3x3
I1215 21:08:37.573647 12297 net.cpp:327] inception_4b/relu_3x3 -> inception_4b/3x3 (in-place)
I1215 21:08:37.573653 12297 net.cpp:113] Setting up inception_4b/relu_3x3
I1215 21:08:37.573909 12297 net.cpp:120] Top shape: 128 224 14 14 (5619712)
I1215 21:08:37.573920 12297 layer_factory.hpp:74] Creating layer inception_4b/5x5_reduce
I1215 21:08:37.573930 12297 net.cpp:84] Creating Layer inception_4b/5x5_reduce
I1215 21:08:37.573935 12297 net.cpp:380] inception_4b/5x5_reduce <- inception_4a/output_inception_4a/output_0_split_3
I1215 21:08:37.573942 12297 net.cpp:338] inception_4b/5x5_reduce -> inception_4b/5x5_reduce
I1215 21:08:37.573951 12297 net.cpp:113] Setting up inception_4b/5x5_reduce
I1215 21:08:37.574524 12297 net.cpp:120] Top shape: 128 24 14 14 (602112)
I1215 21:08:37.574540 12297 layer_factory.hpp:74] Creating layer inception_4b/relu_5x5_reduce
I1215 21:08:37.574548 12297 net.cpp:84] Creating Layer inception_4b/relu_5x5_reduce
I1215 21:08:37.574553 12297 net.cpp:380] inception_4b/relu_5x5_reduce <- inception_4b/5x5_reduce
I1215 21:08:37.574559 12297 net.cpp:327] inception_4b/relu_5x5_reduce -> inception_4b/5x5_reduce (in-place)
I1215 21:08:37.574566 12297 net.cpp:113] Setting up inception_4b/relu_5x5_reduce
I1215 21:08:37.574640 12297 net.cpp:120] Top shape: 128 24 14 14 (602112)
I1215 21:08:37.574647 12297 layer_factory.hpp:74] Creating layer inception_4b/5x5
I1215 21:08:37.574666 12297 net.cpp:84] Creating Layer inception_4b/5x5
I1215 21:08:37.574672 12297 net.cpp:380] inception_4b/5x5 <- inception_4b/5x5_reduce
I1215 21:08:37.574679 12297 net.cpp:338] inception_4b/5x5 -> inception_4b/5x5
I1215 21:08:37.574687 12297 net.cpp:113] Setting up inception_4b/5x5
I1215 21:08:37.575546 12297 net.cpp:120] Top shape: 128 64 14 14 (1605632)
I1215 21:08:37.575562 12297 layer_factory.hpp:74] Creating layer inception_4b/relu_5x5
I1215 21:08:37.575577 12297 net.cpp:84] Creating Layer inception_4b/relu_5x5
I1215 21:08:37.575583 12297 net.cpp:380] inception_4b/relu_5x5 <- inception_4b/5x5
I1215 21:08:37.575592 12297 net.cpp:327] inception_4b/relu_5x5 -> inception_4b/5x5 (in-place)
I1215 21:08:37.575599 12297 net.cpp:113] Setting up inception_4b/relu_5x5
I1215 21:08:37.575670 12297 net.cpp:120] Top shape: 128 64 14 14 (1605632)
I1215 21:08:37.575676 12297 layer_factory.hpp:74] Creating layer inception_4b/pool
I1215 21:08:37.575682 12297 layer_factory.cpp:56] CUDNN does not support padding or multiple tops. Using Caffe's own pooling layer.
I1215 21:08:37.575701 12297 net.cpp:84] Creating Layer inception_4b/pool
I1215 21:08:37.575707 12297 net.cpp:380] inception_4b/pool <- inception_4a/output_inception_4a/output_0_split_4
I1215 21:08:37.575716 12297 net.cpp:338] inception_4b/pool -> inception_4b/pool
I1215 21:08:37.575732 12297 net.cpp:113] Setting up inception_4b/pool
I1215 21:08:37.575742 12297 net.cpp:120] Top shape: 128 512 14 14 (12845056)
I1215 21:08:37.575747 12297 layer_factory.hpp:74] Creating layer inception_4b/pool_proj
I1215 21:08:37.575753 12297 net.cpp:84] Creating Layer inception_4b/pool_proj
I1215 21:08:37.575758 12297 net.cpp:380] inception_4b/pool_proj <- inception_4b/pool
I1215 21:08:37.575767 12297 net.cpp:338] inception_4b/pool_proj -> inception_4b/pool_proj
I1215 21:08:37.575774 12297 net.cpp:113] Setting up inception_4b/pool_proj
I1215 21:08:37.576571 12297 net.cpp:120] Top shape: 128 64 14 14 (1605632)
I1215 21:08:37.576586 12297 layer_factory.hpp:74] Creating layer inception_4b/relu_pool_proj
I1215 21:08:37.576603 12297 net.cpp:84] Creating Layer inception_4b/relu_pool_proj
I1215 21:08:37.576609 12297 net.cpp:380] inception_4b/relu_pool_proj <- inception_4b/pool_proj
I1215 21:08:37.576617 12297 net.cpp:327] inception_4b/relu_pool_proj -> inception_4b/pool_proj (in-place)
I1215 21:08:37.576623 12297 net.cpp:113] Setting up inception_4b/relu_pool_proj
I1215 21:08:37.576876 12297 net.cpp:120] Top shape: 128 64 14 14 (1605632)
I1215 21:08:37.576887 12297 layer_factory.hpp:74] Creating layer inception_4b/output
I1215 21:08:37.576894 12297 net.cpp:84] Creating Layer inception_4b/output
I1215 21:08:37.576900 12297 net.cpp:380] inception_4b/output <- inception_4b/1x1
I1215 21:08:37.576905 12297 net.cpp:380] inception_4b/output <- inception_4b/3x3
I1215 21:08:37.576911 12297 net.cpp:380] inception_4b/output <- inception_4b/5x5
I1215 21:08:37.576916 12297 net.cpp:380] inception_4b/output <- inception_4b/pool_proj
I1215 21:08:37.576925 12297 net.cpp:338] inception_4b/output -> inception_4b/output
I1215 21:08:37.576933 12297 net.cpp:113] Setting up inception_4b/output
I1215 21:08:37.576941 12297 net.cpp:120] Top shape: 128 512 14 14 (12845056)
I1215 21:08:37.576956 12297 layer_factory.hpp:74] Creating layer inception_4b/output_inception_4b/output_0_split
I1215 21:08:37.576962 12297 net.cpp:84] Creating Layer inception_4b/output_inception_4b/output_0_split
I1215 21:08:37.576967 12297 net.cpp:380] inception_4b/output_inception_4b/output_0_split <- inception_4b/output
I1215 21:08:37.576974 12297 net.cpp:338] inception_4b/output_inception_4b/output_0_split -> inception_4b/output_inception_4b/output_0_split_0
I1215 21:08:37.576983 12297 net.cpp:338] inception_4b/output_inception_4b/output_0_split -> inception_4b/output_inception_4b/output_0_split_1
I1215 21:08:37.576990 12297 net.cpp:338] inception_4b/output_inception_4b/output_0_split -> inception_4b/output_inception_4b/output_0_split_2
I1215 21:08:37.576997 12297 net.cpp:338] inception_4b/output_inception_4b/output_0_split -> inception_4b/output_inception_4b/output_0_split_3
I1215 21:08:37.577003 12297 net.cpp:113] Setting up inception_4b/output_inception_4b/output_0_split
I1215 21:08:37.577010 12297 net.cpp:120] Top shape: 128 512 14 14 (12845056)
I1215 21:08:37.577015 12297 net.cpp:120] Top shape: 128 512 14 14 (12845056)
I1215 21:08:37.577020 12297 net.cpp:120] Top shape: 128 512 14 14 (12845056)
I1215 21:08:37.577025 12297 net.cpp:120] Top shape: 128 512 14 14 (12845056)
I1215 21:08:37.577029 12297 layer_factory.hpp:74] Creating layer inception_4c/1x1
I1215 21:08:37.577039 12297 net.cpp:84] Creating Layer inception_4c/1x1
I1215 21:08:37.577044 12297 net.cpp:380] inception_4c/1x1 <- inception_4b/output_inception_4b/output_0_split_0
I1215 21:08:37.577050 12297 net.cpp:338] inception_4c/1x1 -> inception_4c/1x1
I1215 21:08:37.577066 12297 net.cpp:113] Setting up inception_4c/1x1
I1215 21:08:37.578245 12297 net.cpp:120] Top shape: 128 128 14 14 (3211264)
I1215 21:08:37.578261 12297 layer_factory.hpp:74] Creating layer inception_4c/relu_1x1
I1215 21:08:37.578284 12297 net.cpp:84] Creating Layer inception_4c/relu_1x1
I1215 21:08:37.578299 12297 net.cpp:380] inception_4c/relu_1x1 <- inception_4c/1x1
I1215 21:08:37.578307 12297 net.cpp:327] inception_4c/relu_1x1 -> inception_4c/1x1 (in-place)
I1215 21:08:37.578315 12297 net.cpp:113] Setting up inception_4c/relu_1x1
I1215 21:08:37.578392 12297 net.cpp:120] Top shape: 128 128 14 14 (3211264)
I1215 21:08:37.578398 12297 layer_factory.hpp:74] Creating layer inception_4c/3x3_reduce
I1215 21:08:37.578408 12297 net.cpp:84] Creating Layer inception_4c/3x3_reduce
I1215 21:08:37.578413 12297 net.cpp:380] inception_4c/3x3_reduce <- inception_4b/output_inception_4b/output_0_split_1
I1215 21:08:37.578420 12297 net.cpp:338] inception_4c/3x3_reduce -> inception_4c/3x3_reduce
I1215 21:08:37.578428 12297 net.cpp:113] Setting up inception_4c/3x3_reduce
I1215 21:08:37.579609 12297 net.cpp:120] Top shape: 128 128 14 14 (3211264)
I1215 21:08:37.579633 12297 layer_factory.hpp:74] Creating layer inception_4c/relu_3x3_reduce
I1215 21:08:37.579641 12297 net.cpp:84] Creating Layer inception_4c/relu_3x3_reduce
I1215 21:08:37.579648 12297 net.cpp:380] inception_4c/relu_3x3_reduce <- inception_4c/3x3_reduce
I1215 21:08:37.579656 12297 net.cpp:327] inception_4c/relu_3x3_reduce -> inception_4c/3x3_reduce (in-place)
I1215 21:08:37.579664 12297 net.cpp:113] Setting up inception_4c/relu_3x3_reduce
I1215 21:08:37.579738 12297 net.cpp:120] Top shape: 128 128 14 14 (3211264)
I1215 21:08:37.579744 12297 layer_factory.hpp:74] Creating layer inception_4c/3x3
I1215 21:08:37.579761 12297 net.cpp:84] Creating Layer inception_4c/3x3
I1215 21:08:37.579767 12297 net.cpp:380] inception_4c/3x3 <- inception_4c/3x3_reduce
I1215 21:08:37.579774 12297 net.cpp:338] inception_4c/3x3 -> inception_4c/3x3
I1215 21:08:37.579784 12297 net.cpp:113] Setting up inception_4c/3x3
I1215 21:08:37.583588 12297 net.cpp:120] Top shape: 128 256 14 14 (6422528)
I1215 21:08:37.583616 12297 layer_factory.hpp:74] Creating layer inception_4c/relu_3x3
I1215 21:08:37.583623 12297 net.cpp:84] Creating Layer inception_4c/relu_3x3
I1215 21:08:37.583628 12297 net.cpp:380] inception_4c/relu_3x3 <- inception_4c/3x3
I1215 21:08:37.583636 12297 net.cpp:327] inception_4c/relu_3x3 -> inception_4c/3x3 (in-place)
I1215 21:08:37.583643 12297 net.cpp:113] Setting up inception_4c/relu_3x3
I1215 21:08:37.583716 12297 net.cpp:120] Top shape: 128 256 14 14 (6422528)
I1215 21:08:37.583724 12297 layer_factory.hpp:74] Creating layer inception_4c/5x5_reduce
I1215 21:08:37.583732 12297 net.cpp:84] Creating Layer inception_4c/5x5_reduce
I1215 21:08:37.583739 12297 net.cpp:380] inception_4c/5x5_reduce <- inception_4b/output_inception_4b/output_0_split_2
I1215 21:08:37.583745 12297 net.cpp:338] inception_4c/5x5_reduce -> inception_4c/5x5_reduce
I1215 21:08:37.583753 12297 net.cpp:113] Setting up inception_4c/5x5_reduce
I1215 21:08:37.584306 12297 net.cpp:120] Top shape: 128 24 14 14 (602112)
I1215 21:08:37.584321 12297 layer_factory.hpp:74] Creating layer inception_4c/relu_5x5_reduce
I1215 21:08:37.584328 12297 net.cpp:84] Creating Layer inception_4c/relu_5x5_reduce
I1215 21:08:37.584334 12297 net.cpp:380] inception_4c/relu_5x5_reduce <- inception_4c/5x5_reduce
I1215 21:08:37.584342 12297 net.cpp:327] inception_4c/relu_5x5_reduce -> inception_4c/5x5_reduce (in-place)
I1215 21:08:37.584350 12297 net.cpp:113] Setting up inception_4c/relu_5x5_reduce
I1215 21:08:37.584607 12297 net.cpp:120] Top shape: 128 24 14 14 (602112)
I1215 21:08:37.584628 12297 layer_factory.hpp:74] Creating layer inception_4c/5x5
I1215 21:08:37.584645 12297 net.cpp:84] Creating Layer inception_4c/5x5
I1215 21:08:37.584650 12297 net.cpp:380] inception_4c/5x5 <- inception_4c/5x5_reduce
I1215 21:08:37.584660 12297 net.cpp:338] inception_4c/5x5 -> inception_4c/5x5
I1215 21:08:37.584668 12297 net.cpp:113] Setting up inception_4c/5x5
I1215 21:08:37.585538 12297 net.cpp:120] Top shape: 128 64 14 14 (1605632)
I1215 21:08:37.585554 12297 layer_factory.hpp:74] Creating layer inception_4c/relu_5x5
I1215 21:08:37.585563 12297 net.cpp:84] Creating Layer inception_4c/relu_5x5
I1215 21:08:37.585574 12297 net.cpp:380] inception_4c/relu_5x5 <- inception_4c/5x5
I1215 21:08:37.585589 12297 net.cpp:327] inception_4c/relu_5x5 -> inception_4c/5x5 (in-place)
I1215 21:08:37.585597 12297 net.cpp:113] Setting up inception_4c/relu_5x5
I1215 21:08:37.585672 12297 net.cpp:120] Top shape: 128 64 14 14 (1605632)
I1215 21:08:37.585680 12297 layer_factory.hpp:74] Creating layer inception_4c/pool
I1215 21:08:37.585687 12297 layer_factory.cpp:56] CUDNN does not support padding or multiple tops. Using Caffe's own pooling layer.
I1215 21:08:37.585693 12297 net.cpp:84] Creating Layer inception_4c/pool
I1215 21:08:37.585697 12297 net.cpp:380] inception_4c/pool <- inception_4b/output_inception_4b/output_0_split_3
I1215 21:08:37.585706 12297 net.cpp:338] inception_4c/pool -> inception_4c/pool
I1215 21:08:37.585714 12297 net.cpp:113] Setting up inception_4c/pool
I1215 21:08:37.585724 12297 net.cpp:120] Top shape: 128 512 14 14 (12845056)
I1215 21:08:37.585731 12297 layer_factory.hpp:74] Creating layer inception_4c/pool_proj
I1215 21:08:37.585753 12297 net.cpp:84] Creating Layer inception_4c/pool_proj
I1215 21:08:37.585760 12297 net.cpp:380] inception_4c/pool_proj <- inception_4c/pool
I1215 21:08:37.585767 12297 net.cpp:338] inception_4c/pool_proj -> inception_4c/pool_proj
I1215 21:08:37.585775 12297 net.cpp:113] Setting up inception_4c/pool_proj
I1215 21:08:37.586580 12297 net.cpp:120] Top shape: 128 64 14 14 (1605632)
I1215 21:08:37.586604 12297 layer_factory.hpp:74] Creating layer inception_4c/relu_pool_proj
I1215 21:08:37.586614 12297 net.cpp:84] Creating Layer inception_4c/relu_pool_proj
I1215 21:08:37.586621 12297 net.cpp:380] inception_4c/relu_pool_proj <- inception_4c/pool_proj
I1215 21:08:37.586627 12297 net.cpp:327] inception_4c/relu_pool_proj -> inception_4c/pool_proj (in-place)
I1215 21:08:37.586634 12297 net.cpp:113] Setting up inception_4c/relu_pool_proj
I1215 21:08:37.586706 12297 net.cpp:120] Top shape: 128 64 14 14 (1605632)
I1215 21:08:37.586714 12297 layer_factory.hpp:74] Creating layer inception_4c/output
I1215 21:08:37.586721 12297 net.cpp:84] Creating Layer inception_4c/output
I1215 21:08:37.586726 12297 net.cpp:380] inception_4c/output <- inception_4c/1x1
I1215 21:08:37.586732 12297 net.cpp:380] inception_4c/output <- inception_4c/3x3
I1215 21:08:37.586737 12297 net.cpp:380] inception_4c/output <- inception_4c/5x5
I1215 21:08:37.586742 12297 net.cpp:380] inception_4c/output <- inception_4c/pool_proj
I1215 21:08:37.586750 12297 net.cpp:338] inception_4c/output -> inception_4c/output
I1215 21:08:37.586757 12297 net.cpp:113] Setting up inception_4c/output
I1215 21:08:37.586766 12297 net.cpp:120] Top shape: 128 512 14 14 (12845056)
I1215 21:08:37.586769 12297 layer_factory.hpp:74] Creating layer inception_4c/output_inception_4c/output_0_split
I1215 21:08:37.586776 12297 net.cpp:84] Creating Layer inception_4c/output_inception_4c/output_0_split
I1215 21:08:37.586781 12297 net.cpp:380] inception_4c/output_inception_4c/output_0_split <- inception_4c/output
I1215 21:08:37.586786 12297 net.cpp:338] inception_4c/output_inception_4c/output_0_split -> inception_4c/output_inception_4c/output_0_split_0
I1215 21:08:37.586793 12297 net.cpp:338] inception_4c/output_inception_4c/output_0_split -> inception_4c/output_inception_4c/output_0_split_1
I1215 21:08:37.586801 12297 net.cpp:338] inception_4c/output_inception_4c/output_0_split -> inception_4c/output_inception_4c/output_0_split_2
I1215 21:08:37.586808 12297 net.cpp:338] inception_4c/output_inception_4c/output_0_split -> inception_4c/output_inception_4c/output_0_split_3
I1215 21:08:37.586814 12297 net.cpp:113] Setting up inception_4c/output_inception_4c/output_0_split
I1215 21:08:37.586822 12297 net.cpp:120] Top shape: 128 512 14 14 (12845056)
I1215 21:08:37.586827 12297 net.cpp:120] Top shape: 128 512 14 14 (12845056)
I1215 21:08:37.586832 12297 net.cpp:120] Top shape: 128 512 14 14 (12845056)
I1215 21:08:37.586837 12297 net.cpp:120] Top shape: 128 512 14 14 (12845056)
I1215 21:08:37.586841 12297 layer_factory.hpp:74] Creating layer inception_4d/1x1
I1215 21:08:37.586863 12297 net.cpp:84] Creating Layer inception_4d/1x1
I1215 21:08:37.586874 12297 net.cpp:380] inception_4d/1x1 <- inception_4c/output_inception_4c/output_0_split_0
I1215 21:08:37.586881 12297 net.cpp:338] inception_4d/1x1 -> inception_4d/1x1
I1215 21:08:37.586889 12297 net.cpp:113] Setting up inception_4d/1x1
I1215 21:08:37.587976 12297 net.cpp:120] Top shape: 128 112 14 14 (2809856)
I1215 21:08:37.587991 12297 layer_factory.hpp:74] Creating layer inception_4d/relu_1x1
I1215 21:08:37.588009 12297 net.cpp:84] Creating Layer inception_4d/relu_1x1
I1215 21:08:37.588016 12297 net.cpp:380] inception_4d/relu_1x1 <- inception_4d/1x1
I1215 21:08:37.588023 12297 net.cpp:327] inception_4d/relu_1x1 -> inception_4d/1x1 (in-place)
I1215 21:08:37.588032 12297 net.cpp:113] Setting up inception_4d/relu_1x1
I1215 21:08:37.588100 12297 net.cpp:120] Top shape: 128 112 14 14 (2809856)
I1215 21:08:37.588109 12297 layer_factory.hpp:74] Creating layer inception_4d/3x3_reduce
I1215 21:08:37.588119 12297 net.cpp:84] Creating Layer inception_4d/3x3_reduce
I1215 21:08:37.588124 12297 net.cpp:380] inception_4d/3x3_reduce <- inception_4c/output_inception_4c/output_0_split_1
I1215 21:08:37.588131 12297 net.cpp:338] inception_4d/3x3_reduce -> inception_4d/3x3_reduce
I1215 21:08:37.588140 12297 net.cpp:113] Setting up inception_4d/3x3_reduce
I1215 21:08:37.589426 12297 net.cpp:120] Top shape: 128 144 14 14 (3612672)
I1215 21:08:37.589442 12297 layer_factory.hpp:74] Creating layer inception_4d/relu_3x3_reduce
I1215 21:08:37.589448 12297 net.cpp:84] Creating Layer inception_4d/relu_3x3_reduce
I1215 21:08:37.589454 12297 net.cpp:380] inception_4d/relu_3x3_reduce <- inception_4d/3x3_reduce
I1215 21:08:37.589463 12297 net.cpp:327] inception_4d/relu_3x3_reduce -> inception_4d/3x3_reduce (in-place)
I1215 21:08:37.589471 12297 net.cpp:113] Setting up inception_4d/relu_3x3_reduce
I1215 21:08:37.589725 12297 net.cpp:120] Top shape: 128 144 14 14 (3612672)
I1215 21:08:37.589736 12297 layer_factory.hpp:74] Creating layer inception_4d/3x3
I1215 21:08:37.589758 12297 net.cpp:84] Creating Layer inception_4d/3x3
I1215 21:08:37.589766 12297 net.cpp:380] inception_4d/3x3 <- inception_4d/3x3_reduce
I1215 21:08:37.589772 12297 net.cpp:338] inception_4d/3x3 -> inception_4d/3x3
I1215 21:08:37.589781 12297 net.cpp:113] Setting up inception_4d/3x3
I1215 21:08:37.594538 12297 net.cpp:120] Top shape: 128 288 14 14 (7225344)
I1215 21:08:37.594555 12297 layer_factory.hpp:74] Creating layer inception_4d/relu_3x3
I1215 21:08:37.594564 12297 net.cpp:84] Creating Layer inception_4d/relu_3x3
I1215 21:08:37.594570 12297 net.cpp:380] inception_4d/relu_3x3 <- inception_4d/3x3
I1215 21:08:37.594578 12297 net.cpp:327] inception_4d/relu_3x3 -> inception_4d/3x3 (in-place)
I1215 21:08:37.594584 12297 net.cpp:113] Setting up inception_4d/relu_3x3
I1215 21:08:37.594655 12297 net.cpp:120] Top shape: 128 288 14 14 (7225344)
I1215 21:08:37.594674 12297 layer_factory.hpp:74] Creating layer inception_4d/5x5_reduce
I1215 21:08:37.594687 12297 net.cpp:84] Creating Layer inception_4d/5x5_reduce
I1215 21:08:37.594693 12297 net.cpp:380] inception_4d/5x5_reduce <- inception_4c/output_inception_4c/output_0_split_2
I1215 21:08:37.594702 12297 net.cpp:338] inception_4d/5x5_reduce -> inception_4d/5x5_reduce
I1215 21:08:37.594712 12297 net.cpp:113] Setting up inception_4d/5x5_reduce
I1215 21:08:37.595363 12297 net.cpp:120] Top shape: 128 32 14 14 (802816)
I1215 21:08:37.595379 12297 layer_factory.hpp:74] Creating layer inception_4d/relu_5x5_reduce
I1215 21:08:37.595398 12297 net.cpp:84] Creating Layer inception_4d/relu_5x5_reduce
I1215 21:08:37.595404 12297 net.cpp:380] inception_4d/relu_5x5_reduce <- inception_4d/5x5_reduce
I1215 21:08:37.595412 12297 net.cpp:327] inception_4d/relu_5x5_reduce -> inception_4d/5x5_reduce (in-place)
I1215 21:08:37.595419 12297 net.cpp:113] Setting up inception_4d/relu_5x5_reduce
I1215 21:08:37.595494 12297 net.cpp:120] Top shape: 128 32 14 14 (802816)
I1215 21:08:37.595501 12297 layer_factory.hpp:74] Creating layer inception_4d/5x5
I1215 21:08:37.595515 12297 net.cpp:84] Creating Layer inception_4d/5x5
I1215 21:08:37.595528 12297 net.cpp:380] inception_4d/5x5 <- inception_4d/5x5_reduce
I1215 21:08:37.595537 12297 net.cpp:338] inception_4d/5x5 -> inception_4d/5x5
I1215 21:08:37.595546 12297 net.cpp:113] Setting up inception_4d/5x5
I1215 21:08:37.596570 12297 net.cpp:120] Top shape: 128 64 14 14 (1605632)
I1215 21:08:37.596585 12297 layer_factory.hpp:74] Creating layer inception_4d/relu_5x5
I1215 21:08:37.596595 12297 net.cpp:84] Creating Layer inception_4d/relu_5x5
I1215 21:08:37.596599 12297 net.cpp:380] inception_4d/relu_5x5 <- inception_4d/5x5
I1215 21:08:37.596606 12297 net.cpp:327] inception_4d/relu_5x5 -> inception_4d/5x5 (in-place)
I1215 21:08:37.596614 12297 net.cpp:113] Setting up inception_4d/relu_5x5
I1215 21:08:37.596688 12297 net.cpp:120] Top shape: 128 64 14 14 (1605632)
I1215 21:08:37.596694 12297 layer_factory.hpp:74] Creating layer inception_4d/pool
I1215 21:08:37.596699 12297 layer_factory.cpp:56] CUDNN does not support padding or multiple tops. Using Caffe's own pooling layer.
I1215 21:08:37.596705 12297 net.cpp:84] Creating Layer inception_4d/pool
I1215 21:08:37.596710 12297 net.cpp:380] inception_4d/pool <- inception_4c/output_inception_4c/output_0_split_3
I1215 21:08:37.596717 12297 net.cpp:338] inception_4d/pool -> inception_4d/pool
I1215 21:08:37.596725 12297 net.cpp:113] Setting up inception_4d/pool
I1215 21:08:37.596735 12297 net.cpp:120] Top shape: 128 512 14 14 (12845056)
I1215 21:08:37.596750 12297 layer_factory.hpp:74] Creating layer inception_4d/pool_proj
I1215 21:08:37.596765 12297 net.cpp:84] Creating Layer inception_4d/pool_proj
I1215 21:08:37.596771 12297 net.cpp:380] inception_4d/pool_proj <- inception_4d/pool
I1215 21:08:37.596779 12297 net.cpp:338] inception_4d/pool_proj -> inception_4d/pool_proj
I1215 21:08:37.596787 12297 net.cpp:113] Setting up inception_4d/pool_proj
I1215 21:08:37.597599 12297 net.cpp:120] Top shape: 128 64 14 14 (1605632)
I1215 21:08:37.597615 12297 layer_factory.hpp:74] Creating layer inception_4d/relu_pool_proj
I1215 21:08:37.597625 12297 net.cpp:84] Creating Layer inception_4d/relu_pool_proj
I1215 21:08:37.597630 12297 net.cpp:380] inception_4d/relu_pool_proj <- inception_4d/pool_proj
I1215 21:08:37.597637 12297 net.cpp:327] inception_4d/relu_pool_proj -> inception_4d/pool_proj (in-place)
I1215 21:08:37.597645 12297 net.cpp:113] Setting up inception_4d/relu_pool_proj
I1215 21:08:37.597898 12297 net.cpp:120] Top shape: 128 64 14 14 (1605632)
I1215 21:08:37.597908 12297 layer_factory.hpp:74] Creating layer inception_4d/output
I1215 21:08:37.597918 12297 net.cpp:84] Creating Layer inception_4d/output
I1215 21:08:37.597923 12297 net.cpp:380] inception_4d/output <- inception_4d/1x1
I1215 21:08:37.597929 12297 net.cpp:380] inception_4d/output <- inception_4d/3x3
I1215 21:08:37.597934 12297 net.cpp:380] inception_4d/output <- inception_4d/5x5
I1215 21:08:37.597939 12297 net.cpp:380] inception_4d/output <- inception_4d/pool_proj
I1215 21:08:37.597945 12297 net.cpp:338] inception_4d/output -> inception_4d/output
I1215 21:08:37.597954 12297 net.cpp:113] Setting up inception_4d/output
I1215 21:08:37.597961 12297 net.cpp:120] Top shape: 128 528 14 14 (13246464)
I1215 21:08:37.597965 12297 layer_factory.hpp:74] Creating layer inception_4d/output_inception_4d/output_0_split
I1215 21:08:37.597972 12297 net.cpp:84] Creating Layer inception_4d/output_inception_4d/output_0_split
I1215 21:08:37.597976 12297 net.cpp:380] inception_4d/output_inception_4d/output_0_split <- inception_4d/output
I1215 21:08:37.597985 12297 net.cpp:338] inception_4d/output_inception_4d/output_0_split -> inception_4d/output_inception_4d/output_0_split_0
I1215 21:08:37.597992 12297 net.cpp:338] inception_4d/output_inception_4d/output_0_split -> inception_4d/output_inception_4d/output_0_split_1
I1215 21:08:37.598000 12297 net.cpp:338] inception_4d/output_inception_4d/output_0_split -> inception_4d/output_inception_4d/output_0_split_2
I1215 21:08:37.598006 12297 net.cpp:338] inception_4d/output_inception_4d/output_0_split -> inception_4d/output_inception_4d/output_0_split_3
I1215 21:08:37.598019 12297 net.cpp:338] inception_4d/output_inception_4d/output_0_split -> inception_4d/output_inception_4d/output_0_split_4
I1215 21:08:37.598032 12297 net.cpp:113] Setting up inception_4d/output_inception_4d/output_0_split
I1215 21:08:37.598044 12297 net.cpp:120] Top shape: 128 528 14 14 (13246464)
I1215 21:08:37.598049 12297 net.cpp:120] Top shape: 128 528 14 14 (13246464)
I1215 21:08:37.598054 12297 net.cpp:120] Top shape: 128 528 14 14 (13246464)
I1215 21:08:37.598059 12297 net.cpp:120] Top shape: 128 528 14 14 (13246464)
I1215 21:08:37.598064 12297 net.cpp:120] Top shape: 128 528 14 14 (13246464)
I1215 21:08:37.598069 12297 layer_factory.hpp:74] Creating layer loss2/ave_pool
I1215 21:08:37.598094 12297 net.cpp:84] Creating Layer loss2/ave_pool
I1215 21:08:37.598100 12297 net.cpp:380] loss2/ave_pool <- inception_4d/output_inception_4d/output_0_split_0
I1215 21:08:37.598106 12297 net.cpp:338] loss2/ave_pool -> loss2/ave_pool
I1215 21:08:37.598114 12297 net.cpp:113] Setting up loss2/ave_pool
I1215 21:08:37.598192 12297 net.cpp:120] Top shape: 128 528 4 4 (1081344)
I1215 21:08:37.598199 12297 layer_factory.hpp:74] Creating layer loss2/conv
I1215 21:08:37.598207 12297 net.cpp:84] Creating Layer loss2/conv
I1215 21:08:37.598212 12297 net.cpp:380] loss2/conv <- loss2/ave_pool
I1215 21:08:37.598220 12297 net.cpp:338] loss2/conv -> loss2/conv
I1215 21:08:37.598228 12297 net.cpp:113] Setting up loss2/conv
I1215 21:08:37.599443 12297 net.cpp:120] Top shape: 128 128 4 4 (262144)
I1215 21:08:37.599459 12297 layer_factory.hpp:74] Creating layer loss2/relu_conv
I1215 21:08:37.599469 12297 net.cpp:84] Creating Layer loss2/relu_conv
I1215 21:08:37.599475 12297 net.cpp:380] loss2/relu_conv <- loss2/conv
I1215 21:08:37.599481 12297 net.cpp:327] loss2/relu_conv -> loss2/conv (in-place)
I1215 21:08:37.599489 12297 net.cpp:113] Setting up loss2/relu_conv
I1215 21:08:37.599558 12297 net.cpp:120] Top shape: 128 128 4 4 (262144)
I1215 21:08:37.599565 12297 layer_factory.hpp:74] Creating layer loss2/fc
I1215 21:08:37.599573 12297 net.cpp:84] Creating Layer loss2/fc
I1215 21:08:37.599578 12297 net.cpp:380] loss2/fc <- loss2/conv
I1215 21:08:37.599586 12297 net.cpp:338] loss2/fc -> loss2/fc
I1215 21:08:37.599593 12297 net.cpp:113] Setting up loss2/fc
I1215 21:08:37.622506 12297 net.cpp:120] Top shape: 128 1024 (131072)
I1215 21:08:37.622524 12297 layer_factory.hpp:74] Creating layer loss2/relu_fc
I1215 21:08:37.622550 12297 net.cpp:84] Creating Layer loss2/relu_fc
I1215 21:08:37.622555 12297 net.cpp:380] loss2/relu_fc <- loss2/fc
I1215 21:08:37.622563 12297 net.cpp:327] loss2/relu_fc -> loss2/fc (in-place)
I1215 21:08:37.622571 12297 net.cpp:113] Setting up loss2/relu_fc
I1215 21:08:37.622838 12297 net.cpp:120] Top shape: 128 1024 (131072)
I1215 21:08:37.622848 12297 layer_factory.hpp:74] Creating layer loss2/drop_fc
I1215 21:08:37.622855 12297 net.cpp:84] Creating Layer loss2/drop_fc
I1215 21:08:37.622860 12297 net.cpp:380] loss2/drop_fc <- loss2/fc
I1215 21:08:37.622870 12297 net.cpp:327] loss2/drop_fc -> loss2/fc (in-place)
I1215 21:08:37.622879 12297 net.cpp:113] Setting up loss2/drop_fc
I1215 21:08:37.622885 12297 net.cpp:120] Top shape: 128 1024 (131072)
I1215 21:08:37.622890 12297 layer_factory.hpp:74] Creating layer loss2/classifier_kaggle
I1215 21:08:37.622897 12297 net.cpp:84] Creating Layer loss2/classifier_kaggle
I1215 21:08:37.622902 12297 net.cpp:380] loss2/classifier_kaggle <- loss2/fc
I1215 21:08:37.622910 12297 net.cpp:338] loss2/classifier_kaggle -> loss2/classifier_kaggle
I1215 21:08:37.622918 12297 net.cpp:113] Setting up loss2/classifier_kaggle
I1215 21:08:37.628193 12297 net.cpp:120] Top shape: 128 447 (57216)
I1215 21:08:37.628206 12297 layer_factory.hpp:74] Creating layer loss2/loss
I1215 21:08:37.628223 12297 net.cpp:84] Creating Layer loss2/loss
I1215 21:08:37.628232 12297 net.cpp:380] loss2/loss <- loss2/classifier_kaggle
I1215 21:08:37.628238 12297 net.cpp:380] loss2/loss <- label_data_1_split_1
I1215 21:08:37.628248 12297 net.cpp:338] loss2/loss -> loss2/loss1
I1215 21:08:37.628269 12297 net.cpp:113] Setting up loss2/loss
I1215 21:08:37.628284 12297 layer_factory.hpp:74] Creating layer loss2/loss
I1215 21:08:37.628517 12297 net.cpp:120] Top shape: (1)
I1215 21:08:37.628526 12297 net.cpp:122]     with loss weight 0.3
I1215 21:08:37.628537 12297 layer_factory.hpp:74] Creating layer inception_4e/1x1
I1215 21:08:37.628556 12297 net.cpp:84] Creating Layer inception_4e/1x1
I1215 21:08:37.628562 12297 net.cpp:380] inception_4e/1x1 <- inception_4d/output_inception_4d/output_0_split_1
I1215 21:08:37.628569 12297 net.cpp:338] inception_4e/1x1 -> inception_4e/1x1
I1215 21:08:37.628578 12297 net.cpp:113] Setting up inception_4e/1x1
I1215 21:08:37.630575 12297 net.cpp:120] Top shape: 128 256 14 14 (6422528)
I1215 21:08:37.630594 12297 layer_factory.hpp:74] Creating layer inception_4e/relu_1x1
I1215 21:08:37.630614 12297 net.cpp:84] Creating Layer inception_4e/relu_1x1
I1215 21:08:37.630620 12297 net.cpp:380] inception_4e/relu_1x1 <- inception_4e/1x1
I1215 21:08:37.630628 12297 net.cpp:327] inception_4e/relu_1x1 -> inception_4e/1x1 (in-place)
I1215 21:08:37.630637 12297 net.cpp:113] Setting up inception_4e/relu_1x1
I1215 21:08:37.630712 12297 net.cpp:120] Top shape: 128 256 14 14 (6422528)
I1215 21:08:37.630719 12297 layer_factory.hpp:74] Creating layer inception_4e/3x3_reduce
I1215 21:08:37.630728 12297 net.cpp:84] Creating Layer inception_4e/3x3_reduce
I1215 21:08:37.630734 12297 net.cpp:380] inception_4e/3x3_reduce <- inception_4d/output_inception_4d/output_0_split_2
I1215 21:08:37.630743 12297 net.cpp:338] inception_4e/3x3_reduce -> inception_4e/3x3_reduce
I1215 21:08:37.630751 12297 net.cpp:113] Setting up inception_4e/3x3_reduce
I1215 21:08:37.632154 12297 net.cpp:120] Top shape: 128 160 14 14 (4014080)
I1215 21:08:37.632171 12297 layer_factory.hpp:74] Creating layer inception_4e/relu_3x3_reduce
I1215 21:08:37.632179 12297 net.cpp:84] Creating Layer inception_4e/relu_3x3_reduce
I1215 21:08:37.632184 12297 net.cpp:380] inception_4e/relu_3x3_reduce <- inception_4e/3x3_reduce
I1215 21:08:37.632191 12297 net.cpp:327] inception_4e/relu_3x3_reduce -> inception_4e/3x3_reduce (in-place)
I1215 21:08:37.632200 12297 net.cpp:113] Setting up inception_4e/relu_3x3_reduce
I1215 21:08:37.632272 12297 net.cpp:120] Top shape: 128 160 14 14 (4014080)
I1215 21:08:37.632280 12297 layer_factory.hpp:74] Creating layer inception_4e/3x3
I1215 21:08:37.632298 12297 net.cpp:84] Creating Layer inception_4e/3x3
I1215 21:08:37.632304 12297 net.cpp:380] inception_4e/3x3 <- inception_4e/3x3_reduce
I1215 21:08:37.632311 12297 net.cpp:338] inception_4e/3x3 -> inception_4e/3x3
I1215 21:08:37.632319 12297 net.cpp:113] Setting up inception_4e/3x3
I1215 21:08:37.638044 12297 net.cpp:120] Top shape: 128 320 14 14 (8028160)
I1215 21:08:37.638062 12297 layer_factory.hpp:74] Creating layer inception_4e/relu_3x3
I1215 21:08:37.638082 12297 net.cpp:84] Creating Layer inception_4e/relu_3x3
I1215 21:08:37.638088 12297 net.cpp:380] inception_4e/relu_3x3 <- inception_4e/3x3
I1215 21:08:37.638095 12297 net.cpp:327] inception_4e/relu_3x3 -> inception_4e/3x3 (in-place)
I1215 21:08:37.638103 12297 net.cpp:113] Setting up inception_4e/relu_3x3
I1215 21:08:37.638368 12297 net.cpp:120] Top shape: 128 320 14 14 (8028160)
I1215 21:08:37.638381 12297 layer_factory.hpp:74] Creating layer inception_4e/5x5_reduce
I1215 21:08:37.638391 12297 net.cpp:84] Creating Layer inception_4e/5x5_reduce
I1215 21:08:37.638396 12297 net.cpp:380] inception_4e/5x5_reduce <- inception_4d/output_inception_4d/output_0_split_3
I1215 21:08:37.638403 12297 net.cpp:338] inception_4e/5x5_reduce -> inception_4e/5x5_reduce
I1215 21:08:37.638412 12297 net.cpp:113] Setting up inception_4e/5x5_reduce
I1215 21:08:37.639029 12297 net.cpp:120] Top shape: 128 32 14 14 (802816)
I1215 21:08:37.639044 12297 layer_factory.hpp:74] Creating layer inception_4e/relu_5x5_reduce
I1215 21:08:37.639060 12297 net.cpp:84] Creating Layer inception_4e/relu_5x5_reduce
I1215 21:08:37.639066 12297 net.cpp:380] inception_4e/relu_5x5_reduce <- inception_4e/5x5_reduce
I1215 21:08:37.639075 12297 net.cpp:327] inception_4e/relu_5x5_reduce -> inception_4e/5x5_reduce (in-place)
I1215 21:08:37.639094 12297 net.cpp:113] Setting up inception_4e/relu_5x5_reduce
I1215 21:08:37.639169 12297 net.cpp:120] Top shape: 128 32 14 14 (802816)
I1215 21:08:37.639175 12297 layer_factory.hpp:74] Creating layer inception_4e/5x5
I1215 21:08:37.639201 12297 net.cpp:84] Creating Layer inception_4e/5x5
I1215 21:08:37.639207 12297 net.cpp:380] inception_4e/5x5 <- inception_4e/5x5_reduce
I1215 21:08:37.639214 12297 net.cpp:338] inception_4e/5x5 -> inception_4e/5x5
I1215 21:08:37.639222 12297 net.cpp:113] Setting up inception_4e/5x5
I1215 21:08:37.640836 12297 net.cpp:120] Top shape: 128 128 14 14 (3211264)
I1215 21:08:37.640852 12297 layer_factory.hpp:74] Creating layer inception_4e/relu_5x5
I1215 21:08:37.640861 12297 net.cpp:84] Creating Layer inception_4e/relu_5x5
I1215 21:08:37.640866 12297 net.cpp:380] inception_4e/relu_5x5 <- inception_4e/5x5
I1215 21:08:37.640873 12297 net.cpp:327] inception_4e/relu_5x5 -> inception_4e/5x5 (in-place)
I1215 21:08:37.640880 12297 net.cpp:113] Setting up inception_4e/relu_5x5
I1215 21:08:37.640954 12297 net.cpp:120] Top shape: 128 128 14 14 (3211264)
I1215 21:08:37.640969 12297 layer_factory.hpp:74] Creating layer inception_4e/pool
I1215 21:08:37.640976 12297 layer_factory.cpp:56] CUDNN does not support padding or multiple tops. Using Caffe's own pooling layer.
I1215 21:08:37.640982 12297 net.cpp:84] Creating Layer inception_4e/pool
I1215 21:08:37.640987 12297 net.cpp:380] inception_4e/pool <- inception_4d/output_inception_4d/output_0_split_4
I1215 21:08:37.640996 12297 net.cpp:338] inception_4e/pool -> inception_4e/pool
I1215 21:08:37.641005 12297 net.cpp:113] Setting up inception_4e/pool
I1215 21:08:37.641013 12297 net.cpp:120] Top shape: 128 528 14 14 (13246464)
I1215 21:08:37.641017 12297 layer_factory.hpp:74] Creating layer inception_4e/pool_proj
I1215 21:08:37.641033 12297 net.cpp:84] Creating Layer inception_4e/pool_proj
I1215 21:08:37.641039 12297 net.cpp:380] inception_4e/pool_proj <- inception_4e/pool
I1215 21:08:37.641047 12297 net.cpp:338] inception_4e/pool_proj -> inception_4e/pool_proj
I1215 21:08:37.641060 12297 net.cpp:113] Setting up inception_4e/pool_proj
I1215 21:08:37.642268 12297 net.cpp:120] Top shape: 128 128 14 14 (3211264)
I1215 21:08:37.642284 12297 layer_factory.hpp:74] Creating layer inception_4e/relu_pool_proj
I1215 21:08:37.642292 12297 net.cpp:84] Creating Layer inception_4e/relu_pool_proj
I1215 21:08:37.642297 12297 net.cpp:380] inception_4e/relu_pool_proj <- inception_4e/pool_proj
I1215 21:08:37.642305 12297 net.cpp:327] inception_4e/relu_pool_proj -> inception_4e/pool_proj (in-place)
I1215 21:08:37.642313 12297 net.cpp:113] Setting up inception_4e/relu_pool_proj
I1215 21:08:37.642391 12297 net.cpp:120] Top shape: 128 128 14 14 (3211264)
I1215 21:08:37.642400 12297 layer_factory.hpp:74] Creating layer inception_4e/output
I1215 21:08:37.642420 12297 net.cpp:84] Creating Layer inception_4e/output
I1215 21:08:37.642427 12297 net.cpp:380] inception_4e/output <- inception_4e/1x1
I1215 21:08:37.642433 12297 net.cpp:380] inception_4e/output <- inception_4e/3x3
I1215 21:08:37.642438 12297 net.cpp:380] inception_4e/output <- inception_4e/5x5
I1215 21:08:37.642444 12297 net.cpp:380] inception_4e/output <- inception_4e/pool_proj
I1215 21:08:37.642452 12297 net.cpp:338] inception_4e/output -> inception_4e/output
I1215 21:08:37.642460 12297 net.cpp:113] Setting up inception_4e/output
I1215 21:08:37.642468 12297 net.cpp:120] Top shape: 128 832 14 14 (20873216)
I1215 21:08:37.642482 12297 layer_factory.hpp:74] Creating layer pool4/3x3_s2
I1215 21:08:37.642489 12297 net.cpp:84] Creating Layer pool4/3x3_s2
I1215 21:08:37.642494 12297 net.cpp:380] pool4/3x3_s2 <- inception_4e/output
I1215 21:08:37.642501 12297 net.cpp:338] pool4/3x3_s2 -> pool4/3x3_s2
I1215 21:08:37.642508 12297 net.cpp:113] Setting up pool4/3x3_s2
I1215 21:08:37.642773 12297 net.cpp:120] Top shape: 128 832 7 7 (5218304)
I1215 21:08:37.642784 12297 layer_factory.hpp:74] Creating layer pool4/3x3_s2_pool4/3x3_s2_0_split
I1215 21:08:37.642796 12297 net.cpp:84] Creating Layer pool4/3x3_s2_pool4/3x3_s2_0_split
I1215 21:08:37.642810 12297 net.cpp:380] pool4/3x3_s2_pool4/3x3_s2_0_split <- pool4/3x3_s2
I1215 21:08:37.642820 12297 net.cpp:338] pool4/3x3_s2_pool4/3x3_s2_0_split -> pool4/3x3_s2_pool4/3x3_s2_0_split_0
I1215 21:08:37.642829 12297 net.cpp:338] pool4/3x3_s2_pool4/3x3_s2_0_split -> pool4/3x3_s2_pool4/3x3_s2_0_split_1
I1215 21:08:37.642837 12297 net.cpp:338] pool4/3x3_s2_pool4/3x3_s2_0_split -> pool4/3x3_s2_pool4/3x3_s2_0_split_2
I1215 21:08:37.642843 12297 net.cpp:338] pool4/3x3_s2_pool4/3x3_s2_0_split -> pool4/3x3_s2_pool4/3x3_s2_0_split_3
I1215 21:08:37.642848 12297 net.cpp:113] Setting up pool4/3x3_s2_pool4/3x3_s2_0_split
I1215 21:08:37.642858 12297 net.cpp:120] Top shape: 128 832 7 7 (5218304)
I1215 21:08:37.642863 12297 net.cpp:120] Top shape: 128 832 7 7 (5218304)
I1215 21:08:37.642868 12297 net.cpp:120] Top shape: 128 832 7 7 (5218304)
I1215 21:08:37.642874 12297 net.cpp:120] Top shape: 128 832 7 7 (5218304)
I1215 21:08:37.642877 12297 layer_factory.hpp:74] Creating layer inception_5a/1x1
I1215 21:08:37.642885 12297 net.cpp:84] Creating Layer inception_5a/1x1
I1215 21:08:37.642890 12297 net.cpp:380] inception_5a/1x1 <- pool4/3x3_s2_pool4/3x3_s2_0_split_0
I1215 21:08:37.642899 12297 net.cpp:338] inception_5a/1x1 -> inception_5a/1x1
I1215 21:08:37.642909 12297 net.cpp:113] Setting up inception_5a/1x1
I1215 21:08:37.645804 12297 net.cpp:120] Top shape: 128 256 7 7 (1605632)
I1215 21:08:37.645822 12297 layer_factory.hpp:74] Creating layer inception_5a/relu_1x1
I1215 21:08:37.645828 12297 net.cpp:84] Creating Layer inception_5a/relu_1x1
I1215 21:08:37.645834 12297 net.cpp:380] inception_5a/relu_1x1 <- inception_5a/1x1
I1215 21:08:37.645841 12297 net.cpp:327] inception_5a/relu_1x1 -> inception_5a/1x1 (in-place)
I1215 21:08:37.645848 12297 net.cpp:113] Setting up inception_5a/relu_1x1
I1215 21:08:37.645921 12297 net.cpp:120] Top shape: 128 256 7 7 (1605632)
I1215 21:08:37.645927 12297 layer_factory.hpp:74] Creating layer inception_5a/3x3_reduce
I1215 21:08:37.645954 12297 net.cpp:84] Creating Layer inception_5a/3x3_reduce
I1215 21:08:37.645961 12297 net.cpp:380] inception_5a/3x3_reduce <- pool4/3x3_s2_pool4/3x3_s2_0_split_1
I1215 21:08:37.645970 12297 net.cpp:338] inception_5a/3x3_reduce -> inception_5a/3x3_reduce
I1215 21:08:37.645980 12297 net.cpp:113] Setting up inception_5a/3x3_reduce
I1215 21:08:37.647951 12297 net.cpp:120] Top shape: 128 160 7 7 (1003520)
I1215 21:08:37.647969 12297 layer_factory.hpp:74] Creating layer inception_5a/relu_3x3_reduce
I1215 21:08:37.647977 12297 net.cpp:84] Creating Layer inception_5a/relu_3x3_reduce
I1215 21:08:37.647984 12297 net.cpp:380] inception_5a/relu_3x3_reduce <- inception_5a/3x3_reduce
I1215 21:08:37.647990 12297 net.cpp:327] inception_5a/relu_3x3_reduce -> inception_5a/3x3_reduce (in-place)
I1215 21:08:37.647997 12297 net.cpp:113] Setting up inception_5a/relu_3x3_reduce
I1215 21:08:37.648069 12297 net.cpp:120] Top shape: 128 160 7 7 (1003520)
I1215 21:08:37.648077 12297 layer_factory.hpp:74] Creating layer inception_5a/3x3
I1215 21:08:37.648087 12297 net.cpp:84] Creating Layer inception_5a/3x3
I1215 21:08:37.648092 12297 net.cpp:380] inception_5a/3x3 <- inception_5a/3x3_reduce
I1215 21:08:37.648098 12297 net.cpp:338] inception_5a/3x3 -> inception_5a/3x3
I1215 21:08:37.648108 12297 net.cpp:113] Setting up inception_5a/3x3
I1215 21:08:37.653831 12297 net.cpp:120] Top shape: 128 320 7 7 (2007040)
I1215 21:08:37.653847 12297 layer_factory.hpp:74] Creating layer inception_5a/relu_3x3
I1215 21:08:37.653864 12297 net.cpp:84] Creating Layer inception_5a/relu_3x3
I1215 21:08:37.653870 12297 net.cpp:380] inception_5a/relu_3x3 <- inception_5a/3x3
I1215 21:08:37.653877 12297 net.cpp:327] inception_5a/relu_3x3 -> inception_5a/3x3 (in-place)
I1215 21:08:37.653885 12297 net.cpp:113] Setting up inception_5a/relu_3x3
I1215 21:08:37.653960 12297 net.cpp:120] Top shape: 128 320 7 7 (2007040)
I1215 21:08:37.653966 12297 layer_factory.hpp:74] Creating layer inception_5a/5x5_reduce
I1215 21:08:37.653976 12297 net.cpp:84] Creating Layer inception_5a/5x5_reduce
I1215 21:08:37.653993 12297 net.cpp:380] inception_5a/5x5_reduce <- pool4/3x3_s2_pool4/3x3_s2_0_split_2
I1215 21:08:37.654001 12297 net.cpp:338] inception_5a/5x5_reduce -> inception_5a/5x5_reduce
I1215 21:08:37.654009 12297 net.cpp:113] Setting up inception_5a/5x5_reduce
I1215 21:08:37.654739 12297 net.cpp:120] Top shape: 128 32 7 7 (200704)
I1215 21:08:37.654755 12297 layer_factory.hpp:74] Creating layer inception_5a/relu_5x5_reduce
I1215 21:08:37.654773 12297 net.cpp:84] Creating Layer inception_5a/relu_5x5_reduce
I1215 21:08:37.654779 12297 net.cpp:380] inception_5a/relu_5x5_reduce <- inception_5a/5x5_reduce
I1215 21:08:37.654786 12297 net.cpp:327] inception_5a/relu_5x5_reduce -> inception_5a/5x5_reduce (in-place)
I1215 21:08:37.654794 12297 net.cpp:113] Setting up inception_5a/relu_5x5_reduce
I1215 21:08:37.655047 12297 net.cpp:120] Top shape: 128 32 7 7 (200704)
I1215 21:08:37.655060 12297 layer_factory.hpp:74] Creating layer inception_5a/5x5
I1215 21:08:37.655077 12297 net.cpp:84] Creating Layer inception_5a/5x5
I1215 21:08:37.655083 12297 net.cpp:380] inception_5a/5x5 <- inception_5a/5x5_reduce
I1215 21:08:37.655092 12297 net.cpp:338] inception_5a/5x5 -> inception_5a/5x5
I1215 21:08:37.655100 12297 net.cpp:113] Setting up inception_5a/5x5
I1215 21:08:37.656745 12297 net.cpp:120] Top shape: 128 128 7 7 (802816)
I1215 21:08:37.656761 12297 layer_factory.hpp:74] Creating layer inception_5a/relu_5x5
I1215 21:08:37.656769 12297 net.cpp:84] Creating Layer inception_5a/relu_5x5
I1215 21:08:37.656776 12297 net.cpp:380] inception_5a/relu_5x5 <- inception_5a/5x5
I1215 21:08:37.656783 12297 net.cpp:327] inception_5a/relu_5x5 -> inception_5a/5x5 (in-place)
I1215 21:08:37.656790 12297 net.cpp:113] Setting up inception_5a/relu_5x5
I1215 21:08:37.656864 12297 net.cpp:120] Top shape: 128 128 7 7 (802816)
I1215 21:08:37.656870 12297 layer_factory.hpp:74] Creating layer inception_5a/pool
I1215 21:08:37.656875 12297 layer_factory.cpp:56] CUDNN does not support padding or multiple tops. Using Caffe's own pooling layer.
I1215 21:08:37.656883 12297 net.cpp:84] Creating Layer inception_5a/pool
I1215 21:08:37.656888 12297 net.cpp:380] inception_5a/pool <- pool4/3x3_s2_pool4/3x3_s2_0_split_3
I1215 21:08:37.656895 12297 net.cpp:338] inception_5a/pool -> inception_5a/pool
I1215 21:08:37.656903 12297 net.cpp:113] Setting up inception_5a/pool
I1215 21:08:37.656913 12297 net.cpp:120] Top shape: 128 832 7 7 (5218304)
I1215 21:08:37.656919 12297 layer_factory.hpp:74] Creating layer inception_5a/pool_proj
I1215 21:08:37.656935 12297 net.cpp:84] Creating Layer inception_5a/pool_proj
I1215 21:08:37.656941 12297 net.cpp:380] inception_5a/pool_proj <- inception_5a/pool
I1215 21:08:37.656952 12297 net.cpp:338] inception_5a/pool_proj -> inception_5a/pool_proj
I1215 21:08:37.656961 12297 net.cpp:113] Setting up inception_5a/pool_proj
I1215 21:08:37.658620 12297 net.cpp:120] Top shape: 128 128 7 7 (802816)
I1215 21:08:37.658638 12297 layer_factory.hpp:74] Creating layer inception_5a/relu_pool_proj
I1215 21:08:37.658658 12297 net.cpp:84] Creating Layer inception_5a/relu_pool_proj
I1215 21:08:37.658665 12297 net.cpp:380] inception_5a/relu_pool_proj <- inception_5a/pool_proj
I1215 21:08:37.658671 12297 net.cpp:327] inception_5a/relu_pool_proj -> inception_5a/pool_proj (in-place)
I1215 21:08:37.658679 12297 net.cpp:113] Setting up inception_5a/relu_pool_proj
I1215 21:08:37.658754 12297 net.cpp:120] Top shape: 128 128 7 7 (802816)
I1215 21:08:37.658761 12297 layer_factory.hpp:74] Creating layer inception_5a/output
I1215 21:08:37.658768 12297 net.cpp:84] Creating Layer inception_5a/output
I1215 21:08:37.658773 12297 net.cpp:380] inception_5a/output <- inception_5a/1x1
I1215 21:08:37.658779 12297 net.cpp:380] inception_5a/output <- inception_5a/3x3
I1215 21:08:37.658785 12297 net.cpp:380] inception_5a/output <- inception_5a/5x5
I1215 21:08:37.658790 12297 net.cpp:380] inception_5a/output <- inception_5a/pool_proj
I1215 21:08:37.658797 12297 net.cpp:338] inception_5a/output -> inception_5a/output
I1215 21:08:37.658809 12297 net.cpp:113] Setting up inception_5a/output
I1215 21:08:37.658823 12297 net.cpp:120] Top shape: 128 832 7 7 (5218304)
I1215 21:08:37.658828 12297 layer_factory.hpp:74] Creating layer inception_5a/output_inception_5a/output_0_split
I1215 21:08:37.658834 12297 net.cpp:84] Creating Layer inception_5a/output_inception_5a/output_0_split
I1215 21:08:37.658839 12297 net.cpp:380] inception_5a/output_inception_5a/output_0_split <- inception_5a/output
I1215 21:08:37.658845 12297 net.cpp:338] inception_5a/output_inception_5a/output_0_split -> inception_5a/output_inception_5a/output_0_split_0
I1215 21:08:37.658855 12297 net.cpp:338] inception_5a/output_inception_5a/output_0_split -> inception_5a/output_inception_5a/output_0_split_1
I1215 21:08:37.658862 12297 net.cpp:338] inception_5a/output_inception_5a/output_0_split -> inception_5a/output_inception_5a/output_0_split_2
I1215 21:08:37.658869 12297 net.cpp:338] inception_5a/output_inception_5a/output_0_split -> inception_5a/output_inception_5a/output_0_split_3
I1215 21:08:37.658875 12297 net.cpp:113] Setting up inception_5a/output_inception_5a/output_0_split
I1215 21:08:37.658882 12297 net.cpp:120] Top shape: 128 832 7 7 (5218304)
I1215 21:08:37.658887 12297 net.cpp:120] Top shape: 128 832 7 7 (5218304)
I1215 21:08:37.658892 12297 net.cpp:120] Top shape: 128 832 7 7 (5218304)
I1215 21:08:37.658897 12297 net.cpp:120] Top shape: 128 832 7 7 (5218304)
I1215 21:08:37.658901 12297 layer_factory.hpp:74] Creating layer inception_5b/1x1
I1215 21:08:37.658910 12297 net.cpp:84] Creating Layer inception_5b/1x1
I1215 21:08:37.658915 12297 net.cpp:380] inception_5b/1x1 <- inception_5a/output_inception_5a/output_0_split_0
I1215 21:08:37.658922 12297 net.cpp:338] inception_5b/1x1 -> inception_5b/1x1
I1215 21:08:37.658929 12297 net.cpp:113] Setting up inception_5b/1x1
I1215 21:08:37.663044 12297 net.cpp:120] Top shape: 128 384 7 7 (2408448)
I1215 21:08:37.663061 12297 layer_factory.hpp:74] Creating layer inception_5b/relu_1x1
I1215 21:08:37.663086 12297 net.cpp:84] Creating Layer inception_5b/relu_1x1
I1215 21:08:37.663091 12297 net.cpp:380] inception_5b/relu_1x1 <- inception_5b/1x1
I1215 21:08:37.663099 12297 net.cpp:327] inception_5b/relu_1x1 -> inception_5b/1x1 (in-place)
I1215 21:08:37.663106 12297 net.cpp:113] Setting up inception_5b/relu_1x1
I1215 21:08:37.663363 12297 net.cpp:120] Top shape: 128 384 7 7 (2408448)
I1215 21:08:37.663377 12297 layer_factory.hpp:74] Creating layer inception_5b/3x3_reduce
I1215 21:08:37.663386 12297 net.cpp:84] Creating Layer inception_5b/3x3_reduce
I1215 21:08:37.663391 12297 net.cpp:380] inception_5b/3x3_reduce <- inception_5a/output_inception_5a/output_0_split_1
I1215 21:08:37.663399 12297 net.cpp:338] inception_5b/3x3_reduce -> inception_5b/3x3_reduce
I1215 21:08:37.663410 12297 net.cpp:113] Setting up inception_5b/3x3_reduce
I1215 21:08:37.665680 12297 net.cpp:120] Top shape: 128 192 7 7 (1204224)
I1215 21:08:37.665698 12297 layer_factory.hpp:74] Creating layer inception_5b/relu_3x3_reduce
I1215 21:08:37.665704 12297 net.cpp:84] Creating Layer inception_5b/relu_3x3_reduce
I1215 21:08:37.665709 12297 net.cpp:380] inception_5b/relu_3x3_reduce <- inception_5b/3x3_reduce
I1215 21:08:37.665720 12297 net.cpp:327] inception_5b/relu_3x3_reduce -> inception_5b/3x3_reduce (in-place)
I1215 21:08:37.665729 12297 net.cpp:113] Setting up inception_5b/relu_3x3_reduce
I1215 21:08:37.665803 12297 net.cpp:120] Top shape: 128 192 7 7 (1204224)
I1215 21:08:37.665810 12297 layer_factory.hpp:74] Creating layer inception_5b/3x3
I1215 21:08:37.665817 12297 net.cpp:84] Creating Layer inception_5b/3x3
I1215 21:08:37.665822 12297 net.cpp:380] inception_5b/3x3 <- inception_5b/3x3_reduce
I1215 21:08:37.665830 12297 net.cpp:338] inception_5b/3x3 -> inception_5b/3x3
I1215 21:08:37.665854 12297 net.cpp:113] Setting up inception_5b/3x3
I1215 21:08:37.673887 12297 net.cpp:120] Top shape: 128 384 7 7 (2408448)
I1215 21:08:37.673903 12297 layer_factory.hpp:74] Creating layer inception_5b/relu_3x3
I1215 21:08:37.673921 12297 net.cpp:84] Creating Layer inception_5b/relu_3x3
I1215 21:08:37.673933 12297 net.cpp:380] inception_5b/relu_3x3 <- inception_5b/3x3
I1215 21:08:37.673946 12297 net.cpp:327] inception_5b/relu_3x3 -> inception_5b/3x3 (in-place)
I1215 21:08:37.673954 12297 net.cpp:113] Setting up inception_5b/relu_3x3
I1215 21:08:37.674031 12297 net.cpp:120] Top shape: 128 384 7 7 (2408448)
I1215 21:08:37.674036 12297 layer_factory.hpp:74] Creating layer inception_5b/5x5_reduce
I1215 21:08:37.674044 12297 net.cpp:84] Creating Layer inception_5b/5x5_reduce
I1215 21:08:37.674051 12297 net.cpp:380] inception_5b/5x5_reduce <- inception_5a/output_inception_5a/output_0_split_2
I1215 21:08:37.674059 12297 net.cpp:338] inception_5b/5x5_reduce -> inception_5b/5x5_reduce
I1215 21:08:37.674067 12297 net.cpp:113] Setting up inception_5b/5x5_reduce
I1215 21:08:37.674960 12297 net.cpp:120] Top shape: 128 48 7 7 (301056)
I1215 21:08:37.674975 12297 layer_factory.hpp:74] Creating layer inception_5b/relu_5x5_reduce
I1215 21:08:37.674984 12297 net.cpp:84] Creating Layer inception_5b/relu_5x5_reduce
I1215 21:08:37.674990 12297 net.cpp:380] inception_5b/relu_5x5_reduce <- inception_5b/5x5_reduce
I1215 21:08:37.674998 12297 net.cpp:327] inception_5b/relu_5x5_reduce -> inception_5b/5x5_reduce (in-place)
I1215 21:08:37.675005 12297 net.cpp:113] Setting up inception_5b/relu_5x5_reduce
I1215 21:08:37.675077 12297 net.cpp:120] Top shape: 128 48 7 7 (301056)
I1215 21:08:37.675084 12297 layer_factory.hpp:74] Creating layer inception_5b/5x5
I1215 21:08:37.675101 12297 net.cpp:84] Creating Layer inception_5b/5x5
I1215 21:08:37.675107 12297 net.cpp:380] inception_5b/5x5 <- inception_5b/5x5_reduce
I1215 21:08:37.675114 12297 net.cpp:338] inception_5b/5x5 -> inception_5b/5x5
I1215 21:08:37.675123 12297 net.cpp:113] Setting up inception_5b/5x5
I1215 21:08:37.677311 12297 net.cpp:120] Top shape: 128 128 7 7 (802816)
I1215 21:08:37.677327 12297 layer_factory.hpp:74] Creating layer inception_5b/relu_5x5
I1215 21:08:37.677335 12297 net.cpp:84] Creating Layer inception_5b/relu_5x5
I1215 21:08:37.677340 12297 net.cpp:380] inception_5b/relu_5x5 <- inception_5b/5x5
I1215 21:08:37.677348 12297 net.cpp:327] inception_5b/relu_5x5 -> inception_5b/5x5 (in-place)
I1215 21:08:37.677356 12297 net.cpp:113] Setting up inception_5b/relu_5x5
I1215 21:08:37.677610 12297 net.cpp:120] Top shape: 128 128 7 7 (802816)
I1215 21:08:37.677623 12297 layer_factory.hpp:74] Creating layer inception_5b/pool
I1215 21:08:37.677628 12297 layer_factory.cpp:56] CUDNN does not support padding or multiple tops. Using Caffe's own pooling layer.
I1215 21:08:37.677635 12297 net.cpp:84] Creating Layer inception_5b/pool
I1215 21:08:37.677641 12297 net.cpp:380] inception_5b/pool <- inception_5a/output_inception_5a/output_0_split_3
I1215 21:08:37.677649 12297 net.cpp:338] inception_5b/pool -> inception_5b/pool
I1215 21:08:37.677657 12297 net.cpp:113] Setting up inception_5b/pool
I1215 21:08:37.677665 12297 net.cpp:120] Top shape: 128 832 7 7 (5218304)
I1215 21:08:37.677670 12297 layer_factory.hpp:74] Creating layer inception_5b/pool_proj
I1215 21:08:37.677686 12297 net.cpp:84] Creating Layer inception_5b/pool_proj
I1215 21:08:37.677695 12297 net.cpp:380] inception_5b/pool_proj <- inception_5b/pool
I1215 21:08:37.677701 12297 net.cpp:338] inception_5b/pool_proj -> inception_5b/pool_proj
I1215 21:08:37.677709 12297 net.cpp:113] Setting up inception_5b/pool_proj
I1215 21:08:37.679378 12297 net.cpp:120] Top shape: 128 128 7 7 (802816)
I1215 21:08:37.679394 12297 layer_factory.hpp:74] Creating layer inception_5b/relu_pool_proj
I1215 21:08:37.679400 12297 net.cpp:84] Creating Layer inception_5b/relu_pool_proj
I1215 21:08:37.679406 12297 net.cpp:380] inception_5b/relu_pool_proj <- inception_5b/pool_proj
I1215 21:08:37.679412 12297 net.cpp:327] inception_5b/relu_pool_proj -> inception_5b/pool_proj (in-place)
I1215 21:08:37.679420 12297 net.cpp:113] Setting up inception_5b/relu_pool_proj
I1215 21:08:37.679493 12297 net.cpp:120] Top shape: 128 128 7 7 (802816)
I1215 21:08:37.679499 12297 layer_factory.hpp:74] Creating layer inception_5b/output
I1215 21:08:37.679507 12297 net.cpp:84] Creating Layer inception_5b/output
I1215 21:08:37.679517 12297 net.cpp:380] inception_5b/output <- inception_5b/1x1
I1215 21:08:37.679529 12297 net.cpp:380] inception_5b/output <- inception_5b/3x3
I1215 21:08:37.679535 12297 net.cpp:380] inception_5b/output <- inception_5b/5x5
I1215 21:08:37.679540 12297 net.cpp:380] inception_5b/output <- inception_5b/pool_proj
I1215 21:08:37.679546 12297 net.cpp:338] inception_5b/output -> inception_5b/output
I1215 21:08:37.679554 12297 net.cpp:113] Setting up inception_5b/output
I1215 21:08:37.679561 12297 net.cpp:120] Top shape: 128 1024 7 7 (6422528)
I1215 21:08:37.679566 12297 layer_factory.hpp:74] Creating layer pool5/7x7_s1
I1215 21:08:37.679574 12297 net.cpp:84] Creating Layer pool5/7x7_s1
I1215 21:08:37.679579 12297 net.cpp:380] pool5/7x7_s1 <- inception_5b/output
I1215 21:08:37.679586 12297 net.cpp:338] pool5/7x7_s1 -> pool5/7x7_s1
I1215 21:08:37.679594 12297 net.cpp:113] Setting up pool5/7x7_s1
I1215 21:08:37.679672 12297 net.cpp:120] Top shape: 128 1024 1 1 (131072)
I1215 21:08:37.679678 12297 layer_factory.hpp:74] Creating layer pool5/drop_7x7_s1
I1215 21:08:37.679695 12297 net.cpp:84] Creating Layer pool5/drop_7x7_s1
I1215 21:08:37.679702 12297 net.cpp:380] pool5/drop_7x7_s1 <- pool5/7x7_s1
I1215 21:08:37.679708 12297 net.cpp:327] pool5/drop_7x7_s1 -> pool5/7x7_s1 (in-place)
I1215 21:08:37.679714 12297 net.cpp:113] Setting up pool5/drop_7x7_s1
I1215 21:08:37.679721 12297 net.cpp:120] Top shape: 128 1024 1 1 (131072)
I1215 21:08:37.679726 12297 layer_factory.hpp:74] Creating layer loss3/classifier_kaggle
I1215 21:08:37.679736 12297 net.cpp:84] Creating Layer loss3/classifier_kaggle
I1215 21:08:37.679740 12297 net.cpp:380] loss3/classifier_kaggle <- pool5/7x7_s1
I1215 21:08:37.679747 12297 net.cpp:338] loss3/classifier_kaggle -> loss3/classifier_kaggle
I1215 21:08:37.679755 12297 net.cpp:113] Setting up loss3/classifier_kaggle
I1215 21:08:37.685005 12297 net.cpp:120] Top shape: 128 447 (57216)
I1215 21:08:37.685017 12297 layer_factory.hpp:74] Creating layer loss3/loss3
I1215 21:08:37.685024 12297 net.cpp:84] Creating Layer loss3/loss3
I1215 21:08:37.685029 12297 net.cpp:380] loss3/loss3 <- loss3/classifier_kaggle
I1215 21:08:37.685036 12297 net.cpp:380] loss3/loss3 <- label_data_1_split_2
I1215 21:08:37.685042 12297 net.cpp:338] loss3/loss3 -> loss3/loss3
I1215 21:08:37.685050 12297 net.cpp:113] Setting up loss3/loss3
…
I1215 21:08:37.690709 12297 net.cpp:257] The NetState phase (1) differed from the phase (0) specified by a rule in layer data
I1215 21:08:37.692272 12297 net.cpp:42] Initializing net from parameters: 
name: "GoogleNet"
state {
  phase: TEST
}
layer {
  name: "data"
  type: "Data"
  top: "data"
  top: "label"
  include {
    phase: TEST
  }
  transform_param {
    mirror: false
    crop_size: 224
    mean_value: 104
    mean_value: 117
    mean_value: 123
  }
  data_param {
    source: "/home/coldmanck/kaggle/kaggle2_val_lmdb"
    batch_size: 50
    backend: LMDB
  }
}
layer {
  name: "conv1/7x7_s2"
  type: "Convolution"
  bottom: "data"
  top: "conv1/7x7_s2"
  param {
    lr_mult: 1
    decay_mult: 1
  }
  param {
    lr_mult: 2
    decay_mult: 0
  }
  convolution_param {
    num_output: 64
    pad: 3
    kernel_size: 7
    stride: 2
    weight_filler {
      type: "xavier"
      std: 0.1
    }
    bias_filler {
      type: "constant"
      value: 0.2
    }
  }
}
layer {
  name: "conv1/relu_7x7"
  type: "ReLU"
  bottom: "conv1/7x7_s2"
  top: "conv1/7x7_s2"
}
layer {
  name: "pool1/3x3_s2"
  type: "Pooling"
  bottom: "conv1/7x7_s2"
  top: "pool1/3x3_s2"
  pooling_param {
    pool: MAX
    kernel_size: 3
    stride: 2
  }
}
layer {
  name: "pool1/norm1"
  type: "LRN"
  bottom: "pool1/3x3_s2"
  top: "pool1/norm1"
  lrn_param {
    local_size: 5
    alpha: 0.0001
    beta: 0.75
  }
}
layer {
  name: "conv2/3x3_reduce"
  type: "Convolution"
  bottom: "pool1/norm1"
  top: "conv2/3x3_reduce"
  param {
    lr_mult: 1
    decay_mult: 1
  }
  param {
    lr_mult: 2
    decay_mult: 0
  }
  convolution_param {
    num_output: 64
    kernel_size: 1
    weight_filler {
      type: "xavier"
      std: 0.1
    }
    bias_filler {
      type: "constant"
      value: 0.2
    }
  }
}
layer {
  name: "conv2/relu_3x3_reduce"
  type: "ReLU"
  bottom: "conv2/3x3_reduce"
  top: "conv2/3x3_reduce"
}
layer {
  name: "conv2/3x3"
  type: "Convolution"
  bottom: "conv2/3x3_reduce"
  top: "conv2/3x3"
  param {
    lr_mult: 1
    decay_mult: 1
  }
  param {
    lr_mult: 2
    decay_mult: 0
  }
  convolution_param {
    num_output: 192
    pad: 1
    kernel_size: 3
    weight_filler {
      type: "xavier"
      std: 0.03
    }
    bias_filler {
      type: "constant"
      value: 0.2
    }
  }
}
layer {
  name: "conv2/relu_3x3"
  type: "ReLU"
  bottom: "conv2/3x3"
  top: "conv2/3x3"
}
layer {
  name: "conv2/norm2"
  type: "LRN"
  bottom: "conv2/3x3"
  top: "conv2/norm2"
  lrn_param {
    local_size: 5
    alpha: 0.0001
    beta: 0.75
  }
}
layer {
  name: "pool2/3x3_s2"
  type: "Pooling"
  bottom: "conv2/norm2"
  top: "pool2/3x3_s2"
  pooling_param {
    pool: MAX
    kernel_size: 3
    stride: 2
  }
}
layer {
  name: "inception_3a/1x1"
  type: "Convolution"
  bottom: "pool2/3x3_s2"
  top: "inception_3a/1x1"
  param {
    lr_mult: 1
    decay_mult: 1
  }
  param {
    lr_mult: 2
    decay_mult: 0
  }
  convolution_param {
    num_output: 64
    kernel_size: 1
    weight_filler {
      type: "xavier"
      std: 0.03
    }
    bias_filler {
      type: "constant"
      value: 0.2
    }
  }
}
layer {
  name: "inception_3a/relu_1x1"
  type: "ReLU"
  bottom: "inception_3a/1x1"
  top: "inception_3a/1x1"
}
layer {
  name: "inception_3a/3x3_reduce"
  type: "Convolution"
  bottom: "pool2/3x3_s2"
  top: "inception_3a/3x3_reduce"
  param {
    lr_mult: 1
    decay_mult: 1
  }
  param {
    lr_mult: 2
    decay_mult: 0
  }
  convolution_param {
    num_output: 96
    kernel_size: 1
    weight_filler {
      type: "xavier"
      std: 0.09
    }
    bias_filler {
      type: "constant"
      value: 0.2
    }
  }
}
layer {
  name: "inception_3a/relu_3x3_reduce"
  type: "ReLU"
  bottom: "inception_3a/3x3_reduce"
  top: "inception_3a/3x3_reduce"
}
layer {
  name: "inception_3a/3x3"
  type: "Convolution"
  bottom: "inception_3a/3x3_reduce"
  top: "inception_3a/3x3"
  param {
    lr_mult: 1
    decay_mult: 1
  }
  param {
    lr_mult: 2
    decay_mult: 0
  }
  convolution_param {
    num_output: 128
    pad: 1
    kernel_size: 3
    weight_filler {
      type: "xavier"
      std: 0.03
    }
    bias_filler {
      type: "constant"
      value: 0.2
    }
  }
}
layer {
  name: "inception_3a/relu_3x3"
  type: "ReLU"
  bottom: "inception_3a/3x3"
  top: "inception_3a/3x3"
}
layer {
  name: "inception_3a/5x5_reduce"
  type: "Convolution"
  bottom: "pool2/3x3_s2"
  top: "inception_3a/5x5_reduce"
  param {
    lr_mult: 1
    decay_mult: 1
  }
  param {
    lr_mult: 2
    decay_mult: 0
  }
  convolution_param {
    num_output: 16
    kernel_size: 1
    weight_filler {
      type: "xavier"
      std: 0.2
    }
    bias_filler {
      type: "constant"
      value: 0.2
    }
  }
}
layer {
  name: "inception_3a/relu_5x5_reduce"
  type: "ReLU"
  bottom: "inception_3a/5x5_reduce"
  top: "inception_3a/5x5_reduce"
}
layer {
  name: "inception_3a/5x5"
  type: "Convolution"
  bottom: "inception_3a/5x5_reduce"
  top: "inception_3a/5x5"
  param {
    lr_mult: 1
    decay_mult: 1
  }
  param {
    lr_mult: 2
    decay_mult: 0
  }
  convolution_param {
    num_output: 32
    pad: 2
    kernel_size: 5
    weight_filler {
      type: "xavier"
      std: 0.03
    }
    bias_filler {
      type: "constant"
      value: 0.2
    }
  }
}
layer {
  name: "inception_3a/relu_5x5"
  type: "ReLU"
  bottom: "inception_3a/5x5"
  top: "inception_3a/5x5"
}
layer {
  name: "inception_3a/pool"
  type: "Pooling"
  bottom: "pool2/3x3_s2"
  top: "inception_3a/pool"
  pooling_param {
    pool: MAX
    kernel_size: 3
    stride: 1
    pad: 1
  }
}
layer {
  name: "inception_3a/pool_proj"
  type: "Convolution"
  bottom: "inception_3a/pool"
  top: "inception_3a/pool_proj"
  param {
    lr_mult: 1
    decay_mult: 1
  }
  param {
    lr_mult: 2
    decay_mult: 0
  }
  convolution_param {
    num_output: 32
    kernel_size: 1
    weight_filler {
      type: "xavier"
      std: 0.1
    }
    bias_filler {
      type: "constant"
      value: 0.2
    }
  }
}
layer {
  name: "inception_3a/relu_pool_proj"
  type: "ReLU"
  bottom: "inception_3a/pool_proj"
  top: "inception_3a/pool_proj"
}
layer {
  name: "inception_3a/output"
  type: "Concat"
  bottom: "inception_3a/1x1"
  bottom: "inception_3a/3x3"
  bottom: "inception_3a/5x5"
  bottom: "inception_3a/pool_proj"
  top: "inception_3a/output"
}
layer {
  name: "inception_3b/1x1"
  type: "Convolution"
  bottom: "inception_3a/output"
  top: "inception_3b/1x1"
  param {
    lr_mult: 1
    decay_mult: 1
  }
  param {
    lr_mult: 2
    decay_mult: 0
  }
  convolution_param {
    num_output: 128
    kernel_size: 1
    weight_filler {
      type: "xavier"
      std: 0.03
    }
    bias_filler {
      type: "constant"
      value: 0.2
    }
  }
}
layer {
  name: "inception_3b/relu_1x1"
  type: "ReLU"
  bottom: "inception_3b/1x1"
  top: "inception_3b/1x1"
}
layer {
  name: "inception_3b/3x3_reduce"
  type: "Convolution"
  bottom: "inception_3a/output"
  top: "inception_3b/3x3_reduce"
  param {
    lr_mult: 1
    decay_mult: 1
  }
  param {
    lr_mult: 2
    decay_mult: 0
  }
  convolution_param {
    num_output: 128
    kernel_size: 1
    weight_filler {
      type: "xavier"
      std: 0.09
    }
    bias_filler {
      type: "constant"
      value: 0.2
    }
  }
}
layer {
  name: "inception_3b/relu_3x3_reduce"
  type: "ReLU"
  bottom: "inception_3b/3x3_reduce"
  top: "inception_3b/3x3_reduce"
}
layer {
  name: "inception_3b/3x3"
  type: "Convolution"
  bottom: "inception_3b/3x3_reduce"
  top: "inception_3b/3x3"
  param {
    lr_mult: 1
    decay_mult: 1
  }
  param {
    lr_mult: 2
    decay_mult: 0
  }
  convolution_param {
    num_output: 192
    pad: 1
    kernel_size: 3
    weight_filler {
      type: "xavier"
      std: 0.03
    }
    bias_filler {
      type: "constant"
      value: 0.2
    }
  }
}
layer {
  name: "inception_3b/relu_3x3"
  type: "ReLU"
  bottom: "inception_3b/3x3"
  top: "inception_3b/3x3"
}
layer {
  name: "inception_3b/5x5_reduce"
  type: "Convolution"
  bottom: "inception_3a/output"
  top: "inception_3b/5x5_reduce"
  param {
    lr_mult: 1
    decay_mult: 1
  }
  param {
    lr_mult: 2
    decay_mult: 0
  }
  convolution_param {
    num_output: 32
    kernel_size: 1
    weight_filler {
      type: "xavier"
      std: 0.2
    }
    bias_filler {
      type: "constant"
      value: 0.2
    }
  }
}
layer {
  name: "inception_3b/relu_5x5_reduce"
  type: "ReLU"
  bottom: "inception_3b/5x5_reduce"
  top: "inception_3b/5x5_reduce"
}
layer {
  name: "inception_3b/5x5"
  type: "Convolution"
  bottom: "inception_3b/5x5_reduce"
  top: "inception_3b/5x5"
  param {
    lr_mult: 1
    decay_mult: 1
  }
  param {
    lr_mult: 2
    decay_mult: 0
  }
  convolution_param {
    num_output: 96
    pad: 2
    kernel_size: 5
    weight_filler {
      type: "xavier"
      std: 0.03
    }
    bias_filler {
      type: "constant"
      value: 0.2
    }
  }
}
layer {
  name: "inception_3b/relu_5x5"
  type: "ReLU"
  bottom: "inception_3b/5x5"
  top: "inception_3b/5x5"
}
layer {
  name: "inception_3b/pool"
  type: "Pooling"
  bottom: "inception_3a/output"
  top: "inception_3b/pool"
  pooling_param {
    pool: MAX
    kernel_size: 3
    stride: 1
    pad: 1
  }
}
layer {
  name: "inception_3b/pool_proj"
  type: "Convolution"
  bottom: "inception_3b/pool"
  top: "inception_3b/pool_proj"
  param {
    lr_mult: 1
    decay_mult: 1
  }
  param {
    lr_mult: 2
    decay_mult: 0
  }
  convolution_param {
    num_output: 64
    kernel_size: 1
    weight_filler {
      type: "xavier"
      std: 0.1
    }
    bias_filler {
      type: "constant"
      value: 0.2
    }
  }
}
layer {
  name: "inception_3b/relu_pool_proj"
  type: "ReLU"
  bottom: "inception_3b/pool_proj"
  top: "inception_3b/pool_proj"
}
layer {
  name: "inception_3b/output"
  type: "Concat"
  bottom: "inception_3b/1x1"
  bottom: "inception_3b/3x3"
  bottom: "inception_3b/5x5"
  bottom: "inception_3b/pool_proj"
  top: "inception_3b/output"
}
layer {
  name: "pool3/3x3_s2"
  type: "Pooling"
  bottom: "inception_3b/output"
  top: "pool3/3x3_s2"
  pooling_param {
    pool: MAX
    kernel_size: 3
    stride: 2
  }
}
layer {
  name: "inception_4a/1x1"
  type: "Convolution"
  bottom: "pool3/3x3_s2"
  top: "inception_4a/1x1"
  param {
    lr_mult: 1
    decay_mult: 1
  }
  param {
    lr_mult: 2
    decay_mult: 0
  }
  convolution_param {
    num_output: 192
    kernel_size: 1
    weight_filler {
      type: "xavier"
      std: 0.03
    }
    bias_filler {
      type: "constant"
      value: 0.2
    }
  }
}
layer {
  name: "inception_4a/relu_1x1"
  type: "ReLU"
  bottom: "inception_4a/1x1"
  top: "inception_4a/1x1"
}
layer {
  name: "inception_4a/3x3_reduce"
  type: "Convolution"
  bottom: "pool3/3x3_s2"
  top: "inception_4a/3x3_reduce"
  param {
    lr_mult: 1
    decay_mult: 1
  }
  param {
    lr_mult: 2
    decay_mult: 0
  }
  convolution_param {
    num_output: 96
    kernel_size: 1
    weight_filler {
      type: "xavier"
      std: 0.09
    }
    bias_filler {
      type: "constant"
      value: 0.2
    }
  }
}
layer {
  name: "inception_4a/relu_3x3_reduce"
  type: "ReLU"
  bottom: "inception_4a/3x3_reduce"
  top: "inception_4a/3x3_reduce"
}
layer {
  name: "inception_4a/3x3"
  type: "Convolution"
  bottom: "inception_4a/3x3_reduce"
  top: "inception_4a/3x3"
  param {
    lr_mult: 1
    decay_mult: 1
  }
  param {
    lr_mult: 2
    decay_mult: 0
  }
  convolution_param {
    num_output: 208
    pad: 1
    kernel_size: 3
    weight_filler {
      type: "xavier"
      std: 0.03
    }
    bias_filler {
      type: "constant"
      value: 0.2
    }
  }
}
layer {
  name: "inception_4a/relu_3x3"
  type: "ReLU"
  bottom: "inception_4a/3x3"
  top: "inception_4a/3x3"
}
layer {
  name: "inception_4a/5x5_reduce"
  type: "Convolution"
  bottom: "pool3/3x3_s2"
  top: "inception_4a/5x5_reduce"
  param {
    lr_mult: 1
    decay_mult: 1
  }
  param {
    lr_mult: 2
    decay_mult: 0
  }
  convolution_param {
    num_output: 16
    kernel_size: 1
    weight_filler {
      type: "xavier"
      std: 0.2
    }
    bias_filler {
      type: "constant"
      value: 0.2
    }
  }
}
layer {
  name: "inception_4a/relu_5x5_reduce"
  type: "ReLU"
  bottom: "inception_4a/5x5_reduce"
  top: "inception_4a/5x5_reduce"
}
layer {
  name: "inception_4a/5x5"
  type: "Convolution"
  bottom: "inception_4a/5x5_reduce"
  top: "inception_4a/5x5"
  param {
    lr_mult: 1
    decay_mult: 1
  }
  param {
    lr_mult: 2
    decay_mult: 0
  }
  convolution_param {
    num_output: 48
    pad: 2
    kernel_size: 5
    weight_filler {
      type: "xavier"
      std: 0.03
    }
    bias_filler {
      type: "constant"
      value: 0.2
    }
  }
}
layer {
  name: "inception_4a/relu_5x5"
  type: "ReLU"
  bottom: "inception_4a/5x5"
  top: "inception_4a/5x5"
}
layer {
  name: "inception_4a/pool"
  type: "Pooling"
  bottom: "pool3/3x3_s2"
  top: "inception_4a/pool"
  pooling_param {
    pool: MAX
    kernel_size: 3
    stride: 1
    pad: 1
  }
}
layer {
  name: "inception_4a/pool_proj"
  type: "Convolution"
  bottom: "inception_4a/pool"
  top: "inception_4a/pool_proj"
  param {
    lr_mult: 1
    decay_mult: 1
  }
  param {
    lr_mult: 2
    decay_mult: 0
  }
  convolution_param {
    num_output: 64
    kernel_size: 1
    weight_filler {
      type: "xavier"
      std: 0.1
    }
    bias_filler {
      type: "constant"
      value: 0.2
    }
  }
}
layer {
  name: "inception_4a/relu_pool_proj"
  type: "ReLU"
  bottom: "inception_4a/pool_proj"
  top: "inception_4a/pool_proj"
}
layer {
  name: "inception_4a/output"
  type: "Concat"
  bottom: "inception_4a/1x1"
  bottom: "inception_4a/3x3"
  bottom: "inception_4a/5x5"
  bottom: "inception_4a/pool_proj"
  top: "inception_4a/output"
}
layer {
  name: "loss1/ave_pool"
  type: "Pooling"
  bottom: "inception_4a/output"
  top: "loss1/ave_pool"
  pooling_param {
    pool: AVE
    kernel_size: 5
    stride: 3
  }
}
layer {
  name: "loss1/conv"
  type: "Convolution"
  bottom: "loss1/ave_pool"
  top: "loss1/conv"
  param {
    lr_mult: 1
    decay_mult: 1
  }
  param {
    lr_mult: 2
    decay_mult: 0
  }
  convolution_param {
    num_output: 128
    kernel_size: 1
    weight_filler {
      type: "xavier"
      std: 0.08
    }
    bias_filler {
      type: "constant"
      value: 0.2
    }
  }
}
layer {
  name: "loss1/relu_conv"
  type: "ReLU"
  bottom: "loss1/conv"
  top: "loss1/conv"
}
layer {
  name: "loss1/fc"
  type: "InnerProduct"
  bottom: "loss1/conv"
  top: "loss1/fc"
  param {
    lr_mult: 1
    decay_mult: 1
  }
  param {
    lr_mult: 2
    decay_mult: 0
  }
  inner_product_param {
    num_output: 1024
    weight_filler {
      type: "xavier"
      std: 0.02
    }
    bias_filler {
      type: "constant"
      value: 0.2
    }
  }
}
layer {
  name: "loss1/relu_fc"
  type: "ReLU"
  bottom: "loss1/fc"
  top: "loss1/fc"
}
layer {
  name: "loss1/drop_fc"
  type: "Dropout"
  bottom: "loss1/fc"
  top: "loss1/fc"
  dropout_param {
    dropout_ratio: 0.7
  }
}
layer {
  name: "loss1/classifier_kaggle"
  type: "InnerProduct"
  bottom: "loss1/fc"
  top: "loss1/classifier_kaggle"
  param {
    lr_mult: 1
    decay_mult: 1
  }
  param {
    lr_mult: 2
    decay_mult: 0
  }
  inner_product_param {
    num_output: 447
    weight_filler {
      type: "xavier"
      std: 0.0009765625
    }
    bias_filler {
      type: "constant"
      value: 0
    }
  }
}
layer {
  name: "loss1/loss"
  type: "SoftmaxWithLoss"
  bottom: "loss1/classifier_kaggle"
  bottom: "label"
  top: "loss1/loss1"
  loss_weight: 0.3
}
layer {
  name: "loss1/top-1"
  type: "Accuracy"
  bottom: "loss1/classifier_kaggle"
  bottom: "label"
  top: "loss1/top-1"
  include {
    phase: TEST
  }
}
layer {
  name: "loss1/top-5"
  type: "Accuracy"
  bottom: "loss1/classifier_kaggle"
  bottom: "label"
  top: "loss1/top-5"
  include {
    phase: TEST
  }
  accuracy_param {
    top_k: 5
  }
}
layer {
  name: "inception_4b/1x1"
  type: "Convolution"
  bottom: "inception_4a/output"
  top: "inception_4b/1x1"
  param {
    lr_mult: 1
    decay_mult: 1
  }
  param {
    lr_mult: 2
    decay_mult: 0
  }
  convolution_param {
    num_output: 160
    kernel_size: 1
    weight_filler {
      type: "xavier"
      std: 0.03
    }
    bias_filler {
      type: "constant"
      value: 0.2
    }
  }
}
layer {
  name: "inception_4b/relu_1x1"
  type: "ReLU"
  bottom: "inception_4b/1x1"
  top: "inception_4b/1x1"
}
layer {
  name: "inception_4b/3x3_reduce"
  type: "Convolution"
  bottom: "inception_4a/output"
  top: "inception_4b/3x3_reduce"
  param {
    lr_mult: 1
    decay_mult: 1
  }
  param {
    lr_mult: 2
    decay_mult: 0
  }
  convolution_param {
    num_output: 112
    kernel_size: 1
    weight_filler {
      type: "xavier"
      std: 0.09
    }
    bias_filler {
      type: "constant"
      value: 0.2
    }
  }
}
layer {
  name: "inception_4b/relu_3x3_reduce"
  type: "ReLU"
  bottom: "inception_4b/3x3_reduce"
  top: "inception_4b/3x3_reduce"
}
layer {
  name: "inception_4b/3x3"
  type: "Convolution"
  bottom: "inception_4b/3x3_reduce"
  top: "inception_4b/3x3"
  param {
    lr_mult: 1
    decay_mult: 1
  }
  param {
    lr_mult: 2
    decay_mult: 0
  }
  convolution_param {
    num_output: 224
    pad: 1
    kernel_size: 3
    weight_filler {
      type: "xavier"
      std: 0.03
    }
    bias_filler {
      type: "constant"
      value: 0.2
    }
  }
}
layer {
  name: "inception_4b/relu_3x3"
  type: "ReLU"
  bottom: "inception_4b/3x3"
  top: "inception_4b/3x3"
}
layer {
  name: "inception_4b/5x5_reduce"
  type: "Convolution"
  bottom: "inception_4a/output"
  top: "inception_4b/5x5_reduce"
  param {
    lr_mult: 1
    decay_mult: 1
  }
  param {
    lr_mult: 2
    decay_mult: 0
  }
  convolution_param {
    num_output: 24
    kernel_size: 1
    weight_filler {
      type: "xavier"
      std: 0.2
    }
    bias_filler {
      type: "constant"
      value: 0.2
    }
  }
}
layer {
  name: "inception_4b/relu_5x5_reduce"
  type: "ReLU"
  bottom: "inception_4b/5x5_reduce"
  top: "inception_4b/5x5_reduce"
}
layer {
  name: "inception_4b/5x5"
  type: "Convolution"
  bottom: "inception_4b/5x5_reduce"
  top: "inception_4b/5x5"
  param {
    lr_mult: 1
    decay_mult: 1
  }
  param {
    lr_mult: 2
    decay_mult: 0
  }
  convolution_param {
    num_output: 64
    pad: 2
    kernel_size: 5
    weight_filler {
      type: "xavier"
      std: 0.03
    }
    bias_filler {
      type: "constant"
      value: 0.2
    }
  }
}
layer {
  name: "inception_4b/relu_5x5"
  type: "ReLU"
  bottom: "inception_4b/5x5"
  top: "inception_4b/5x5"
}
layer {
  name: "inception_4b/pool"
  type: "Pooling"
  bottom: "inception_4a/output"
  top: "inception_4b/pool"
  pooling_param {
    pool: MAX
    kernel_size: 3
    stride: 1
    pad: 1
  }
}
layer {
  name: "inception_4b/pool_proj"
  type: "Convolution"
  bottom: "inception_4b/pool"
  top: "inception_4b/pool_proj"
  param {
    lr_mult: 1
    decay_mult: 1
  }
  param {
    lr_mult: 2
    decay_mult: 0
  }
  convolution_param {
    num_output: 64
    kernel_size: 1
    weight_filler {
      type: "xavier"
      std: 0.1
    }
    bias_filler {
      type: "constant"
      value: 0.2
    }
  }
}
layer {
  name: "inception_4b/relu_pool_proj"
  type: "ReLU"
  bottom: "inception_4b/pool_proj"
  top: "inception_4b/pool_proj"
}
layer {
  name: "inception_4b/output"
  type: "Concat"
  bottom: "inception_4b/1x1"
  bottom: "inception_4b/3x3"
  bottom: "inception_4b/5x5"
  bottom: "inception_4b/pool_proj"
  top: "inception_4b/output"
}
layer {
  name: "inception_4c/1x1"
  type: "Convolution"
  bottom: "inception_4b/output"
  top: "inception_4c/1x1"
  param {
    lr_mult: 1
    decay_mult: 1
  }
  param {
    lr_mult: 2
    decay_mult: 0
  }
  convolution_param {
    num_output: 128
    kernel_size: 1
    weight_filler {
      type: "xavier"
      std: 0.03
    }
    bias_filler {
      type: "constant"
      value: 0.2
    }
  }
}
layer {
  name: "inception_4c/relu_1x1"
  type: "ReLU"
  bottom: "inception_4c/1x1"
  top: "inception_4c/1x1"
}
layer {
  name: "inception_4c/3x3_reduce"
  type: "Convolution"
  bottom: "inception_4b/output"
  top: "inception_4c/3x3_reduce"
  param {
    lr_mult: 1
    decay_mult: 1
  }
  param {
    lr_mult: 2
    decay_mult: 0
  }
  convolution_param {
    num_output: 128
    kernel_size: 1
    weight_filler {
      type: "xavier"
      std: 0.09
    }
    bias_filler {
      type: "constant"
      value: 0.2
    }
  }
}
layer {
  name: "inception_4c/relu_3x3_reduce"
  type: "ReLU"
  bottom: "inception_4c/3x3_reduce"
  top: "inception_4c/3x3_reduce"
}
layer {
  name: "inception_4c/3x3"
  type: "Convolution"
  bottom: "inception_4c/3x3_reduce"
  top: "inception_4c/3x3"
  param {
    lr_mult: 1
    decay_mult: 1
  }
  param {
    lr_mult: 2
    decay_mult: 0
  }
  convolution_param {
    num_output: 256
    pad: 1
    kernel_size: 3
    weight_filler {
      type: "xavier"
      std: 0.03
    }
    bias_filler {
      type: "constant"
      value: 0.2
    }
  }
}
layer {
  name: "inception_4c/relu_3x3"
  type: "ReLU"
  bottom: "inception_4c/3x3"
  top: "inception_4c/3x3"
}
layer {
  name: "inception_4c/5x5_reduce"
  type: "Convolution"
  bottom: "inception_4b/output"
  top: "inception_4c/5x5_reduce"
  param {
    lr_mult: 1
    decay_mult: 1
  }
  param {
    lr_mult: 2
    decay_mult: 0
  }
  convolution_param {
    num_output: 24
    kernel_size: 1
    weight_filler {
      type: "xavier"
      std: 0.2
    }
    bias_filler {
      type: "constant"
      value: 0.2
    }
  }
}
layer {
  name: "inception_4c/relu_5x5_reduce"
  type: "ReLU"
  bottom: "inception_4c/5x5_reduce"
  top: "inception_4c/5x5_reduce"
}
layer {
  name: "inception_4c/5x5"
  type: "Convolution"
  bottom: "inception_4c/5x5_reduce"
  top: "inception_4c/5x5"
  param {
    lr_mult: 1
    decay_mult: 1
  }
  param {
    lr_mult: 2
    decay_mult: 0
  }
  convolution_param {
    num_output: 64
    pad: 2
    kernel_size: 5
    weight_filler {
      type: "xavier"
      std: 0.03
    }
    bias_filler {
      type: "constant"
      value: 0.2
    }
  }
}
layer {
  name: "inception_4c/relu_5x5"
  type: "ReLU"
  bottom: "inception_4c/5x5"
  top: "inception_4c/5x5"
}
layer {
  name: "inception_4c/pool"
  type: "Pooling"
  bottom: "inception_4b/output"
  top: "inception_4c/pool"
  pooling_param {
    pool: MAX
    kernel_size: 3
    stride: 1
    pad: 1
  }
}
layer {
  name: "inception_4c/pool_proj"
  type: "Convolution"
  bottom: "inception_4c/pool"
  top: "inception_4c/pool_proj"
  param {
    lr_mult: 1
    decay_mult: 1
  }
  param {
    lr_mult: 2
    decay_mult: 0
  }
  convolution_param {
    num_output: 64
    kernel_size: 1
    weight_filler {
      type: "xavier"
      std: 0.1
    }
    bias_filler {
      type: "constant"
      value: 0.2
    }
  }
}
layer {
  name: "inception_4c/relu_pool_proj"
  type: "ReLU"
  bottom: "inception_4c/pool_proj"
  top: "inception_4c/pool_proj"
}
layer {
  name: "inception_4c/output"
  type: "Concat"
  bottom: "inception_4c/1x1"
  bottom: "inception_4c/3x3"
  bottom: "inception_4c/5x5"
  bottom: "inception_4c/pool_proj"
  top: "inception_4c/output"
}
layer {
  name: "inception_4d/1x1"
  type: "Convolution"
  bottom: "inception_4c/output"
  top: "inception_4d/1x1"
  param {
    lr_mult: 1
    decay_mult: 1
  }
  param {
    lr_mult: 2
    decay_mult: 0
  }
  convolution_param {
    num_output: 112
    kernel_size: 1
    weight_filler {
      type: "xavier"
      std: 0.03
    }
    bias_filler {
      type: "constant"
      value: 0.2
    }
  }
}
layer {
  name: "inception_4d/relu_1x1"
  type: "ReLU"
  bottom: "inception_4d/1x1"
  top: "inception_4d/1x1"
}
layer {
  name: "inception_4d/3x3_reduce"
  type: "Convolution"
  bottom: "inception_4c/output"
  top: "inception_4d/3x3_reduce"
  param {
    lr_mult: 1
    decay_mult: 1
  }
  param {
    lr_mult: 2
    decay_mult: 0
  }
  convolution_param {
    num_output: 144
    kernel_size: 1
    weight_filler {
      type: "xavier"
      std: 0.09
    }
    bias_filler {
      type: "constant"
      value: 0.2
    }
  }
}
layer {
  name: "inception_4d/relu_3x3_reduce"
  type: "ReLU"
  bottom: "inception_4d/3x3_reduce"
  top: "inception_4d/3x3_reduce"
}
layer {
  name: "inception_4d/3x3"
  type: "Convolution"
  bottom: "inception_4d/3x3_reduce"
  top: "inception_4d/3x3"
  param {
    lr_mult: 1
    decay_mult: 1
  }
  param {
    lr_mult: 2
    decay_mult: 0
  }
  convolution_param {
    num_output: 288
    pad: 1
    kernel_size: 3
    weight_filler {
      type: "xavier"
      std: 0.03
    }
    bias_filler {
      type: "constant"
      value: 0.2
    }
  }
}
layer {
  name: "inception_4d/relu_3x3"
  type: "ReLU"
  bottom: "inception_4d/3x3"
  top: "inception_4d/3x3"
}
layer {
  name: "inception_4d/5x5_reduce"
  type: "Convolution"
  bottom: "inception_4c/output"
  top: "inception_4d/5x5_reduce"
  param {
    lr_mult: 1
    decay_mult: 1
  }
  param {
    lr_mult: 2
    decay_mult: 0
  }
  convolution_param {
    num_output: 32
    kernel_size: 1
    weight_filler {
      type: "xavier"
      std: 0.2
    }
    bias_filler {
      type: "constant"
      value: 0.2
    }
  }
}
layer {
  name: "inception_4d/relu_5x5_reduce"
  type: "ReLU"
  bottom: "inception_4d/5x5_reduce"
  top: "inception_4d/5x5_reduce"
}
layer {
  name: "inception_4d/5x5"
  type: "Convolution"
  bottom: "inception_4d/5x5_reduce"
  top: "inception_4d/5x5"
  param {
    lr_mult: 1
    decay_mult: 1
  }
  param {
    lr_mult: 2
    decay_mult: 0
  }
  convolution_param {
    num_output: 64
    pad: 2
    kernel_size: 5
    weight_filler {
      type: "xavier"
      std: 0.03
    }
    bias_filler {
      type: "constant"
      value: 0.2
    }
  }
}
layer {
  name: "inception_4d/relu_5x5"
  type: "ReLU"
  bottom: "inception_4d/5x5"
  top: "inception_4d/5x5"
}
layer {
  name: "inception_4d/pool"
  type: "Pooling"
  bottom: "inception_4c/output"
  top: "inception_4d/pool"
  pooling_param {
    pool: MAX
    kernel_size: 3
    stride: 1
    pad: 1
  }
}
layer {
  name: "inception_4d/pool_proj"
  type: "Convolution"
  bottom: "inception_4d/pool"
  top: "inception_4d/pool_proj"
  param {
    lr_mult: 1
    decay_mult: 1
  }
  param {
    lr_mult: 2
    decay_mult: 0
  }
…
I1215 21:08:37.769990 12297 net.cpp:84] Creating Layer inception_4c/1x1
I1215 21:08:37.769995 12297 net.cpp:380] inception_4c/1x1 <- inception_4b/output_inception_4b/output_0_split_0
I1215 21:08:37.770004 12297 net.cpp:338] inception_4c/1x1 -> inception_4c/1x1
I1215 21:08:37.770011 12297 net.cpp:113] Setting up inception_4c/1x1
I1215 21:08:37.771196 12297 net.cpp:120] Top shape: 50 128 14 14 (1254400)
I1215 21:08:37.771212 12297 layer_factory.hpp:74] Creating layer inception_4c/relu_1x1
I1215 21:08:37.771220 12297 net.cpp:84] Creating Layer inception_4c/relu_1x1
I1215 21:08:37.771225 12297 net.cpp:380] inception_4c/relu_1x1 <- inception_4c/1x1
I1215 21:08:37.771232 12297 net.cpp:327] inception_4c/relu_1x1 -> inception_4c/1x1 (in-place)
I1215 21:08:37.771240 12297 net.cpp:113] Setting up inception_4c/relu_1x1
I1215 21:08:37.771498 12297 net.cpp:120] Top shape: 50 128 14 14 (1254400)
I1215 21:08:37.771515 12297 layer_factory.hpp:74] Creating layer inception_4c/3x3_reduce
I1215 21:08:37.771533 12297 net.cpp:84] Creating Layer inception_4c/3x3_reduce
I1215 21:08:37.771538 12297 net.cpp:380] inception_4c/3x3_reduce <- inception_4b/output_inception_4b/output_0_split_1
I1215 21:08:37.771546 12297 net.cpp:338] inception_4c/3x3_reduce -> inception_4c/3x3_reduce
I1215 21:08:37.771558 12297 net.cpp:113] Setting up inception_4c/3x3_reduce
I1215 21:08:37.772742 12297 net.cpp:120] Top shape: 50 128 14 14 (1254400)
I1215 21:08:37.772758 12297 layer_factory.hpp:74] Creating layer inception_4c/relu_3x3_reduce
I1215 21:08:37.772765 12297 net.cpp:84] Creating Layer inception_4c/relu_3x3_reduce
I1215 21:08:37.772771 12297 net.cpp:380] inception_4c/relu_3x3_reduce <- inception_4c/3x3_reduce
I1215 21:08:37.772779 12297 net.cpp:327] inception_4c/relu_3x3_reduce -> inception_4c/3x3_reduce (in-place)
I1215 21:08:37.772788 12297 net.cpp:113] Setting up inception_4c/relu_3x3_reduce
I1215 21:08:37.772863 12297 net.cpp:120] Top shape: 50 128 14 14 (1254400)
I1215 21:08:37.772871 12297 layer_factory.hpp:74] Creating layer inception_4c/3x3
I1215 21:08:37.772878 12297 net.cpp:84] Creating Layer inception_4c/3x3
I1215 21:08:37.772883 12297 net.cpp:380] inception_4c/3x3 <- inception_4c/3x3_reduce
I1215 21:08:37.772892 12297 net.cpp:338] inception_4c/3x3 -> inception_4c/3x3
I1215 21:08:37.772900 12297 net.cpp:113] Setting up inception_4c/3x3
I1215 21:08:37.776726 12297 net.cpp:120] Top shape: 50 256 14 14 (2508800)
I1215 21:08:37.776752 12297 layer_factory.hpp:74] Creating layer inception_4c/relu_3x3
I1215 21:08:37.776762 12297 net.cpp:84] Creating Layer inception_4c/relu_3x3
I1215 21:08:37.776767 12297 net.cpp:380] inception_4c/relu_3x3 <- inception_4c/3x3
I1215 21:08:37.776773 12297 net.cpp:327] inception_4c/relu_3x3 -> inception_4c/3x3 (in-place)
I1215 21:08:37.776782 12297 net.cpp:113] Setting up inception_4c/relu_3x3
I1215 21:08:37.776855 12297 net.cpp:120] Top shape: 50 256 14 14 (2508800)
I1215 21:08:37.776862 12297 layer_factory.hpp:74] Creating layer inception_4c/5x5_reduce
I1215 21:08:37.776872 12297 net.cpp:84] Creating Layer inception_4c/5x5_reduce
I1215 21:08:37.776877 12297 net.cpp:380] inception_4c/5x5_reduce <- inception_4b/output_inception_4b/output_0_split_2
I1215 21:08:37.776885 12297 net.cpp:338] inception_4c/5x5_reduce -> inception_4c/5x5_reduce
I1215 21:08:37.776893 12297 net.cpp:113] Setting up inception_4c/5x5_reduce
I1215 21:08:37.777483 12297 net.cpp:120] Top shape: 50 24 14 14 (235200)
I1215 21:08:37.777499 12297 layer_factory.hpp:74] Creating layer inception_4c/relu_5x5_reduce
I1215 21:08:37.777508 12297 net.cpp:84] Creating Layer inception_4c/relu_5x5_reduce
I1215 21:08:37.777513 12297 net.cpp:380] inception_4c/relu_5x5_reduce <- inception_4c/5x5_reduce
I1215 21:08:37.777521 12297 net.cpp:327] inception_4c/relu_5x5_reduce -> inception_4c/5x5_reduce (in-place)
I1215 21:08:37.777529 12297 net.cpp:113] Setting up inception_4c/relu_5x5_reduce
I1215 21:08:37.777789 12297 net.cpp:120] Top shape: 50 24 14 14 (235200)
I1215 21:08:37.777801 12297 layer_factory.hpp:74] Creating layer inception_4c/5x5
I1215 21:08:37.777809 12297 net.cpp:84] Creating Layer inception_4c/5x5
I1215 21:08:37.777814 12297 net.cpp:380] inception_4c/5x5 <- inception_4c/5x5_reduce
I1215 21:08:37.777823 12297 net.cpp:338] inception_4c/5x5 -> inception_4c/5x5
I1215 21:08:37.777832 12297 net.cpp:113] Setting up inception_4c/5x5
I1215 21:08:37.778704 12297 net.cpp:120] Top shape: 50 64 14 14 (627200)
I1215 21:08:37.778719 12297 layer_factory.hpp:74] Creating layer inception_4c/relu_5x5
I1215 21:08:37.778729 12297 net.cpp:84] Creating Layer inception_4c/relu_5x5
I1215 21:08:37.778735 12297 net.cpp:380] inception_4c/relu_5x5 <- inception_4c/5x5
I1215 21:08:37.778743 12297 net.cpp:327] inception_4c/relu_5x5 -> inception_4c/5x5 (in-place)
I1215 21:08:37.778749 12297 net.cpp:113] Setting up inception_4c/relu_5x5
I1215 21:08:37.778825 12297 net.cpp:120] Top shape: 50 64 14 14 (627200)
I1215 21:08:37.778831 12297 layer_factory.hpp:74] Creating layer inception_4c/pool
I1215 21:08:37.778841 12297 layer_factory.cpp:56] CUDNN does not support padding or multiple tops. Using Caffe's own pooling layer.
I1215 21:08:37.778857 12297 net.cpp:84] Creating Layer inception_4c/pool
I1215 21:08:37.778862 12297 net.cpp:380] inception_4c/pool <- inception_4b/output_inception_4b/output_0_split_3
I1215 21:08:37.778872 12297 net.cpp:338] inception_4c/pool -> inception_4c/pool
I1215 21:08:37.778879 12297 net.cpp:113] Setting up inception_4c/pool
I1215 21:08:37.778888 12297 net.cpp:120] Top shape: 50 512 14 14 (5017600)
I1215 21:08:37.778892 12297 layer_factory.hpp:74] Creating layer inception_4c/pool_proj
I1215 21:08:37.778903 12297 net.cpp:84] Creating Layer inception_4c/pool_proj
I1215 21:08:37.778908 12297 net.cpp:380] inception_4c/pool_proj <- inception_4c/pool
I1215 21:08:37.778914 12297 net.cpp:338] inception_4c/pool_proj -> inception_4c/pool_proj
I1215 21:08:37.778923 12297 net.cpp:113] Setting up inception_4c/pool_proj
I1215 21:08:37.779728 12297 net.cpp:120] Top shape: 50 64 14 14 (627200)
I1215 21:08:37.779744 12297 layer_factory.hpp:74] Creating layer inception_4c/relu_pool_proj
I1215 21:08:37.779752 12297 net.cpp:84] Creating Layer inception_4c/relu_pool_proj
I1215 21:08:37.779757 12297 net.cpp:380] inception_4c/relu_pool_proj <- inception_4c/pool_proj
I1215 21:08:37.779765 12297 net.cpp:327] inception_4c/relu_pool_proj -> inception_4c/pool_proj (in-place)
I1215 21:08:37.779773 12297 net.cpp:113] Setting up inception_4c/relu_pool_proj
I1215 21:08:37.779845 12297 net.cpp:120] Top shape: 50 64 14 14 (627200)
I1215 21:08:37.779852 12297 layer_factory.hpp:74] Creating layer inception_4c/output
I1215 21:08:37.779860 12297 net.cpp:84] Creating Layer inception_4c/output
I1215 21:08:37.779865 12297 net.cpp:380] inception_4c/output <- inception_4c/1x1
I1215 21:08:37.779870 12297 net.cpp:380] inception_4c/output <- inception_4c/3x3
I1215 21:08:37.779875 12297 net.cpp:380] inception_4c/output <- inception_4c/5x5
I1215 21:08:37.779881 12297 net.cpp:380] inception_4c/output <- inception_4c/pool_proj
I1215 21:08:37.779888 12297 net.cpp:338] inception_4c/output -> inception_4c/output
I1215 21:08:37.779896 12297 net.cpp:113] Setting up inception_4c/output
I1215 21:08:37.779903 12297 net.cpp:120] Top shape: 50 512 14 14 (5017600)
I1215 21:08:37.779908 12297 layer_factory.hpp:74] Creating layer inception_4c/output_inception_4c/output_0_split
I1215 21:08:37.779916 12297 net.cpp:84] Creating Layer inception_4c/output_inception_4c/output_0_split
I1215 21:08:37.779919 12297 net.cpp:380] inception_4c/output_inception_4c/output_0_split <- inception_4c/output
I1215 21:08:37.779925 12297 net.cpp:338] inception_4c/output_inception_4c/output_0_split -> inception_4c/output_inception_4c/output_0_split_0
I1215 21:08:37.779932 12297 net.cpp:338] inception_4c/output_inception_4c/output_0_split -> inception_4c/output_inception_4c/output_0_split_1
I1215 21:08:37.779942 12297 net.cpp:338] inception_4c/output_inception_4c/output_0_split -> inception_4c/output_inception_4c/output_0_split_2
I1215 21:08:37.779948 12297 net.cpp:338] inception_4c/output_inception_4c/output_0_split -> inception_4c/output_inception_4c/output_0_split_3
I1215 21:08:37.779954 12297 net.cpp:113] Setting up inception_4c/output_inception_4c/output_0_split
I1215 21:08:37.779961 12297 net.cpp:120] Top shape: 50 512 14 14 (5017600)
I1215 21:08:37.779966 12297 net.cpp:120] Top shape: 50 512 14 14 (5017600)
I1215 21:08:37.779971 12297 net.cpp:120] Top shape: 50 512 14 14 (5017600)
I1215 21:08:37.779976 12297 net.cpp:120] Top shape: 50 512 14 14 (5017600)
I1215 21:08:37.779980 12297 layer_factory.hpp:74] Creating layer inception_4d/1x1
I1215 21:08:37.779990 12297 net.cpp:84] Creating Layer inception_4d/1x1
I1215 21:08:37.779995 12297 net.cpp:380] inception_4d/1x1 <- inception_4c/output_inception_4c/output_0_split_0
I1215 21:08:37.780001 12297 net.cpp:338] inception_4d/1x1 -> inception_4d/1x1
I1215 21:08:37.780009 12297 net.cpp:113] Setting up inception_4d/1x1
I1215 21:08:37.781117 12297 net.cpp:120] Top shape: 50 112 14 14 (1097600)
I1215 21:08:37.781133 12297 layer_factory.hpp:74] Creating layer inception_4d/relu_1x1
I1215 21:08:37.781152 12297 net.cpp:84] Creating Layer inception_4d/relu_1x1
I1215 21:08:37.781158 12297 net.cpp:380] inception_4d/relu_1x1 <- inception_4d/1x1
I1215 21:08:37.781167 12297 net.cpp:327] inception_4d/relu_1x1 -> inception_4d/1x1 (in-place)
I1215 21:08:37.781175 12297 net.cpp:113] Setting up inception_4d/relu_1x1
I1215 21:08:37.781245 12297 net.cpp:120] Top shape: 50 112 14 14 (1097600)
I1215 21:08:37.781252 12297 layer_factory.hpp:74] Creating layer inception_4d/3x3_reduce
I1215 21:08:37.781261 12297 net.cpp:84] Creating Layer inception_4d/3x3_reduce
I1215 21:08:37.781267 12297 net.cpp:380] inception_4d/3x3_reduce <- inception_4c/output_inception_4c/output_0_split_1
I1215 21:08:37.781275 12297 net.cpp:338] inception_4d/3x3_reduce -> inception_4d/3x3_reduce
I1215 21:08:37.781282 12297 net.cpp:113] Setting up inception_4d/3x3_reduce
I1215 21:08:37.782574 12297 net.cpp:120] Top shape: 50 144 14 14 (1411200)
I1215 21:08:37.782590 12297 layer_factory.hpp:74] Creating layer inception_4d/relu_3x3_reduce
I1215 21:08:37.782599 12297 net.cpp:84] Creating Layer inception_4d/relu_3x3_reduce
I1215 21:08:37.782605 12297 net.cpp:380] inception_4d/relu_3x3_reduce <- inception_4d/3x3_reduce
I1215 21:08:37.782611 12297 net.cpp:327] inception_4d/relu_3x3_reduce -> inception_4d/3x3_reduce (in-place)
I1215 21:08:37.782619 12297 net.cpp:113] Setting up inception_4d/relu_3x3_reduce
I1215 21:08:37.782882 12297 net.cpp:120] Top shape: 50 144 14 14 (1411200)
I1215 21:08:37.782893 12297 layer_factory.hpp:74] Creating layer inception_4d/3x3
I1215 21:08:37.782904 12297 net.cpp:84] Creating Layer inception_4d/3x3
I1215 21:08:37.782909 12297 net.cpp:380] inception_4d/3x3 <- inception_4d/3x3_reduce
I1215 21:08:37.782917 12297 net.cpp:338] inception_4d/3x3 -> inception_4d/3x3
I1215 21:08:37.782925 12297 net.cpp:113] Setting up inception_4d/3x3
I1215 21:08:37.787644 12297 net.cpp:120] Top shape: 50 288 14 14 (2822400)
I1215 21:08:37.787662 12297 layer_factory.hpp:74] Creating layer inception_4d/relu_3x3
I1215 21:08:37.787672 12297 net.cpp:84] Creating Layer inception_4d/relu_3x3
I1215 21:08:37.787678 12297 net.cpp:380] inception_4d/relu_3x3 <- inception_4d/3x3
I1215 21:08:37.787685 12297 net.cpp:327] inception_4d/relu_3x3 -> inception_4d/3x3 (in-place)
I1215 21:08:37.787693 12297 net.cpp:113] Setting up inception_4d/relu_3x3
I1215 21:08:37.787766 12297 net.cpp:120] Top shape: 50 288 14 14 (2822400)
I1215 21:08:37.787773 12297 layer_factory.hpp:74] Creating layer inception_4d/5x5_reduce
I1215 21:08:37.787783 12297 net.cpp:84] Creating Layer inception_4d/5x5_reduce
I1215 21:08:37.787788 12297 net.cpp:380] inception_4d/5x5_reduce <- inception_4c/output_inception_4c/output_0_split_2
I1215 21:08:37.787798 12297 net.cpp:338] inception_4d/5x5_reduce -> inception_4d/5x5_reduce
I1215 21:08:37.787806 12297 net.cpp:113] Setting up inception_4d/5x5_reduce
I1215 21:08:37.788465 12297 net.cpp:120] Top shape: 50 32 14 14 (313600)
I1215 21:08:37.788481 12297 layer_factory.hpp:74] Creating layer inception_4d/relu_5x5_reduce
I1215 21:08:37.788491 12297 net.cpp:84] Creating Layer inception_4d/relu_5x5_reduce
I1215 21:08:37.788496 12297 net.cpp:380] inception_4d/relu_5x5_reduce <- inception_4d/5x5_reduce
I1215 21:08:37.788503 12297 net.cpp:327] inception_4d/relu_5x5_reduce -> inception_4d/5x5_reduce (in-place)
I1215 21:08:37.788511 12297 net.cpp:113] Setting up inception_4d/relu_5x5_reduce
I1215 21:08:37.788585 12297 net.cpp:120] Top shape: 50 32 14 14 (313600)
I1215 21:08:37.788591 12297 layer_factory.hpp:74] Creating layer inception_4d/5x5
I1215 21:08:37.788601 12297 net.cpp:84] Creating Layer inception_4d/5x5
I1215 21:08:37.788607 12297 net.cpp:380] inception_4d/5x5 <- inception_4d/5x5_reduce
I1215 21:08:37.788614 12297 net.cpp:338] inception_4d/5x5 -> inception_4d/5x5
I1215 21:08:37.788622 12297 net.cpp:113] Setting up inception_4d/5x5
I1215 21:08:37.789649 12297 net.cpp:120] Top shape: 50 64 14 14 (627200)
I1215 21:08:37.789666 12297 layer_factory.hpp:74] Creating layer inception_4d/relu_5x5
I1215 21:08:37.789680 12297 net.cpp:84] Creating Layer inception_4d/relu_5x5
I1215 21:08:37.789695 12297 net.cpp:380] inception_4d/relu_5x5 <- inception_4d/5x5
I1215 21:08:37.789702 12297 net.cpp:327] inception_4d/relu_5x5 -> inception_4d/5x5 (in-place)
I1215 21:08:37.789710 12297 net.cpp:113] Setting up inception_4d/relu_5x5
I1215 21:08:37.789785 12297 net.cpp:120] Top shape: 50 64 14 14 (627200)
I1215 21:08:37.789793 12297 layer_factory.hpp:74] Creating layer inception_4d/pool
I1215 21:08:37.789798 12297 layer_factory.cpp:56] CUDNN does not support padding or multiple tops. Using Caffe's own pooling layer.
I1215 21:08:37.789803 12297 net.cpp:84] Creating Layer inception_4d/pool
I1215 21:08:37.789808 12297 net.cpp:380] inception_4d/pool <- inception_4c/output_inception_4c/output_0_split_3
I1215 21:08:37.789818 12297 net.cpp:338] inception_4d/pool -> inception_4d/pool
I1215 21:08:37.789825 12297 net.cpp:113] Setting up inception_4d/pool
I1215 21:08:37.789835 12297 net.cpp:120] Top shape: 50 512 14 14 (5017600)
I1215 21:08:37.789839 12297 layer_factory.hpp:74] Creating layer inception_4d/pool_proj
I1215 21:08:37.789849 12297 net.cpp:84] Creating Layer inception_4d/pool_proj
I1215 21:08:37.789855 12297 net.cpp:380] inception_4d/pool_proj <- inception_4d/pool
I1215 21:08:37.789862 12297 net.cpp:338] inception_4d/pool_proj -> inception_4d/pool_proj
I1215 21:08:37.789870 12297 net.cpp:113] Setting up inception_4d/pool_proj
I1215 21:08:37.790686 12297 net.cpp:120] Top shape: 50 64 14 14 (627200)
I1215 21:08:37.790704 12297 layer_factory.hpp:74] Creating layer inception_4d/relu_pool_proj
I1215 21:08:37.790711 12297 net.cpp:84] Creating Layer inception_4d/relu_pool_proj
I1215 21:08:37.790717 12297 net.cpp:380] inception_4d/relu_pool_proj <- inception_4d/pool_proj
I1215 21:08:37.790724 12297 net.cpp:327] inception_4d/relu_pool_proj -> inception_4d/pool_proj (in-place)
I1215 21:08:37.790735 12297 net.cpp:113] Setting up inception_4d/relu_pool_proj
I1215 21:08:37.791000 12297 net.cpp:120] Top shape: 50 64 14 14 (627200)
I1215 21:08:37.791012 12297 layer_factory.hpp:74] Creating layer inception_4d/output
I1215 21:08:37.791019 12297 net.cpp:84] Creating Layer inception_4d/output
I1215 21:08:37.791024 12297 net.cpp:380] inception_4d/output <- inception_4d/1x1
I1215 21:08:37.791030 12297 net.cpp:380] inception_4d/output <- inception_4d/3x3
I1215 21:08:37.791036 12297 net.cpp:380] inception_4d/output <- inception_4d/5x5
I1215 21:08:37.791041 12297 net.cpp:380] inception_4d/output <- inception_4d/pool_proj
I1215 21:08:37.791048 12297 net.cpp:338] inception_4d/output -> inception_4d/output
I1215 21:08:37.791055 12297 net.cpp:113] Setting up inception_4d/output
I1215 21:08:37.791064 12297 net.cpp:120] Top shape: 50 528 14 14 (5174400)
I1215 21:08:37.791069 12297 layer_factory.hpp:74] Creating layer inception_4d/output_inception_4d/output_0_split
I1215 21:08:37.791074 12297 net.cpp:84] Creating Layer inception_4d/output_inception_4d/output_0_split
I1215 21:08:37.791079 12297 net.cpp:380] inception_4d/output_inception_4d/output_0_split <- inception_4d/output
I1215 21:08:37.791090 12297 net.cpp:338] inception_4d/output_inception_4d/output_0_split -> inception_4d/output_inception_4d/output_0_split_0
I1215 21:08:37.791098 12297 net.cpp:338] inception_4d/output_inception_4d/output_0_split -> inception_4d/output_inception_4d/output_0_split_1
I1215 21:08:37.791105 12297 net.cpp:338] inception_4d/output_inception_4d/output_0_split -> inception_4d/output_inception_4d/output_0_split_2
I1215 21:08:37.791112 12297 net.cpp:338] inception_4d/output_inception_4d/output_0_split -> inception_4d/output_inception_4d/output_0_split_3
I1215 21:08:37.791118 12297 net.cpp:338] inception_4d/output_inception_4d/output_0_split -> inception_4d/output_inception_4d/output_0_split_4
I1215 21:08:37.791126 12297 net.cpp:113] Setting up inception_4d/output_inception_4d/output_0_split
I1215 21:08:37.791136 12297 net.cpp:120] Top shape: 50 528 14 14 (5174400)
I1215 21:08:37.791141 12297 net.cpp:120] Top shape: 50 528 14 14 (5174400)
I1215 21:08:37.791146 12297 net.cpp:120] Top shape: 50 528 14 14 (5174400)
I1215 21:08:37.791157 12297 net.cpp:120] Top shape: 50 528 14 14 (5174400)
I1215 21:08:37.791167 12297 net.cpp:120] Top shape: 50 528 14 14 (5174400)
I1215 21:08:37.791172 12297 layer_factory.hpp:74] Creating layer loss2/ave_pool
I1215 21:08:37.791178 12297 net.cpp:84] Creating Layer loss2/ave_pool
I1215 21:08:37.791183 12297 net.cpp:380] loss2/ave_pool <- inception_4d/output_inception_4d/output_0_split_0
I1215 21:08:37.791190 12297 net.cpp:338] loss2/ave_pool -> loss2/ave_pool
I1215 21:08:37.791198 12297 net.cpp:113] Setting up loss2/ave_pool
I1215 21:08:37.791275 12297 net.cpp:120] Top shape: 50 528 4 4 (422400)
I1215 21:08:37.791282 12297 layer_factory.hpp:74] Creating layer loss2/conv
I1215 21:08:37.791290 12297 net.cpp:84] Creating Layer loss2/conv
I1215 21:08:37.791295 12297 net.cpp:380] loss2/conv <- loss2/ave_pool
I1215 21:08:37.791303 12297 net.cpp:338] loss2/conv -> loss2/conv
I1215 21:08:37.791312 12297 net.cpp:113] Setting up loss2/conv
I1215 21:08:37.792526 12297 net.cpp:120] Top shape: 50 128 4 4 (102400)
I1215 21:08:37.792541 12297 layer_factory.hpp:74] Creating layer loss2/relu_conv
I1215 21:08:37.792551 12297 net.cpp:84] Creating Layer loss2/relu_conv
I1215 21:08:37.792557 12297 net.cpp:380] loss2/relu_conv <- loss2/conv
I1215 21:08:37.792563 12297 net.cpp:327] loss2/relu_conv -> loss2/conv (in-place)
I1215 21:08:37.792570 12297 net.cpp:113] Setting up loss2/relu_conv
I1215 21:08:37.792642 12297 net.cpp:120] Top shape: 50 128 4 4 (102400)
I1215 21:08:37.792649 12297 layer_factory.hpp:74] Creating layer loss2/fc
I1215 21:08:37.792659 12297 net.cpp:84] Creating Layer loss2/fc
I1215 21:08:37.792665 12297 net.cpp:380] loss2/fc <- loss2/conv
I1215 21:08:37.792671 12297 net.cpp:338] loss2/fc -> loss2/fc
I1215 21:08:37.792680 12297 net.cpp:113] Setting up loss2/fc
I1215 21:08:37.815562 12297 net.cpp:120] Top shape: 50 1024 (51200)
I1215 21:08:37.815577 12297 layer_factory.hpp:74] Creating layer loss2/relu_fc
I1215 21:08:37.815584 12297 net.cpp:84] Creating Layer loss2/relu_fc
I1215 21:08:37.815589 12297 net.cpp:380] loss2/relu_fc <- loss2/fc
I1215 21:08:37.815598 12297 net.cpp:327] loss2/relu_fc -> loss2/fc (in-place)
I1215 21:08:37.815605 12297 net.cpp:113] Setting up loss2/relu_fc
I1215 21:08:37.815686 12297 net.cpp:120] Top shape: 50 1024 (51200)
I1215 21:08:37.815693 12297 layer_factory.hpp:74] Creating layer loss2/drop_fc
I1215 21:08:37.815701 12297 net.cpp:84] Creating Layer loss2/drop_fc
I1215 21:08:37.815706 12297 net.cpp:380] loss2/drop_fc <- loss2/fc
I1215 21:08:37.815712 12297 net.cpp:327] loss2/drop_fc -> loss2/fc (in-place)
I1215 21:08:37.815719 12297 net.cpp:113] Setting up loss2/drop_fc
I1215 21:08:37.815727 12297 net.cpp:120] Top shape: 50 1024 (51200)
I1215 21:08:37.815732 12297 layer_factory.hpp:74] Creating layer loss2/classifier_kaggle
I1215 21:08:37.815739 12297 net.cpp:84] Creating Layer loss2/classifier_kaggle
I1215 21:08:37.815747 12297 net.cpp:380] loss2/classifier_kaggle <- loss2/fc
I1215 21:08:37.815753 12297 net.cpp:338] loss2/classifier_kaggle -> loss2/classifier_kaggle
I1215 21:08:37.815760 12297 net.cpp:113] Setting up loss2/classifier_kaggle
I1215 21:08:37.821019 12297 net.cpp:120] Top shape: 50 447 (22350)
I1215 21:08:37.821033 12297 layer_factory.hpp:74] Creating layer loss2/classifier_kaggle_loss2/classifier_kaggle_0_split
I1215 21:08:37.821040 12297 net.cpp:84] Creating Layer loss2/classifier_kaggle_loss2/classifier_kaggle_0_split
I1215 21:08:37.821045 12297 net.cpp:380] loss2/classifier_kaggle_loss2/classifier_kaggle_0_split <- loss2/classifier_kaggle
I1215 21:08:37.821053 12297 net.cpp:338] loss2/classifier_kaggle_loss2/classifier_kaggle_0_split -> loss2/classifier_kaggle_loss2/classifier_kaggle_0_split_0
I1215 21:08:37.821064 12297 net.cpp:338] loss2/classifier_kaggle_loss2/classifier_kaggle_0_split -> loss2/classifier_kaggle_loss2/classifier_kaggle_0_split_1
I1215 21:08:37.821072 12297 net.cpp:338] loss2/classifier_kaggle_loss2/classifier_kaggle_0_split -> loss2/classifier_kaggle_loss2/classifier_kaggle_0_split_2
I1215 21:08:37.821079 12297 net.cpp:113] Setting up loss2/classifier_kaggle_loss2/classifier_kaggle_0_split
I1215 21:08:37.821099 12297 net.cpp:120] Top shape: 50 447 (22350)
I1215 21:08:37.821105 12297 net.cpp:120] Top shape: 50 447 (22350)
I1215 21:08:37.821110 12297 net.cpp:120] Top shape: 50 447 (22350)
I1215 21:08:37.821115 12297 layer_factory.hpp:74] Creating layer loss2/loss
I1215 21:08:37.821123 12297 net.cpp:84] Creating Layer loss2/loss
I1215 21:08:37.821128 12297 net.cpp:380] loss2/loss <- loss2/classifier_kaggle_loss2/classifier_kaggle_0_split_0
I1215 21:08:37.821135 12297 net.cpp:380] loss2/loss <- label_data_1_split_3
I1215 21:08:37.821141 12297 net.cpp:338] loss2/loss -> loss2/loss1
…
I1215 21:08:37.821580 12297 net.cpp:338] loss2/top-5 -> loss2/top-5
I1215 21:08:37.821588 12297 net.cpp:113] Setting up loss2/top-5
I1215 21:08:37.821593 12297 net.cpp:120] Top shape: (1)
I1215 21:08:37.821598 12297 layer_factory.hpp:74] Creating layer inception_4e/1x1
I1215 21:08:37.821607 12297 net.cpp:84] Creating Layer inception_4e/1x1
I1215 21:08:37.821612 12297 net.cpp:380] inception_4e/1x1 <- inception_4d/output_inception_4d/output_0_split_1
I1215 21:08:37.821624 12297 net.cpp:338] inception_4e/1x1 -> inception_4e/1x1
I1215 21:08:37.821631 12297 net.cpp:113] Setting up inception_4e/1x1
I1215 21:08:37.823623 12297 net.cpp:120] Top shape: 50 256 14 14 (2508800)
I1215 21:08:37.823639 12297 layer_factory.hpp:74] Creating layer inception_4e/relu_1x1
I1215 21:08:37.823649 12297 net.cpp:84] Creating Layer inception_4e/relu_1x1
I1215 21:08:37.823654 12297 net.cpp:380] inception_4e/relu_1x1 <- inception_4e/1x1
I1215 21:08:37.823662 12297 net.cpp:327] inception_4e/relu_1x1 -> inception_4e/1x1 (in-place)
I1215 21:08:37.823669 12297 net.cpp:113] Setting up inception_4e/relu_1x1
I1215 21:08:37.823745 12297 net.cpp:120] Top shape: 50 256 14 14 (2508800)
I1215 21:08:37.823751 12297 layer_factory.hpp:74] Creating layer inception_4e/3x3_reduce
I1215 21:08:37.823777 12297 net.cpp:84] Creating Layer inception_4e/3x3_reduce
I1215 21:08:37.823783 12297 net.cpp:380] inception_4e/3x3_reduce <- inception_4d/output_inception_4d/output_0_split_2
I1215 21:08:37.823793 12297 net.cpp:338] inception_4e/3x3_reduce -> inception_4e/3x3_reduce
I1215 21:08:37.823802 12297 net.cpp:113] Setting up inception_4e/3x3_reduce
I1215 21:08:37.825208 12297 net.cpp:120] Top shape: 50 160 14 14 (1568000)
I1215 21:08:37.825225 12297 layer_factory.hpp:74] Creating layer inception_4e/relu_3x3_reduce
I1215 21:08:37.825234 12297 net.cpp:84] Creating Layer inception_4e/relu_3x3_reduce
I1215 21:08:37.825240 12297 net.cpp:380] inception_4e/relu_3x3_reduce <- inception_4e/3x3_reduce
I1215 21:08:37.825248 12297 net.cpp:327] inception_4e/relu_3x3_reduce -> inception_4e/3x3_reduce (in-place)
I1215 21:08:37.825254 12297 net.cpp:113] Setting up inception_4e/relu_3x3_reduce
I1215 21:08:37.825328 12297 net.cpp:120] Top shape: 50 160 14 14 (1568000)
I1215 21:08:37.825335 12297 layer_factory.hpp:74] Creating layer inception_4e/3x3
I1215 21:08:37.825352 12297 net.cpp:84] Creating Layer inception_4e/3x3
I1215 21:08:37.825364 12297 net.cpp:380] inception_4e/3x3 <- inception_4e/3x3_reduce
I1215 21:08:37.825373 12297 net.cpp:338] inception_4e/3x3 -> inception_4e/3x3
I1215 21:08:37.825382 12297 net.cpp:113] Setting up inception_4e/3x3
I1215 21:08:37.831184 12297 net.cpp:120] Top shape: 50 320 14 14 (3136000)
I1215 21:08:37.831202 12297 layer_factory.hpp:74] Creating layer inception_4e/relu_3x3
I1215 21:08:37.831209 12297 net.cpp:84] Creating Layer inception_4e/relu_3x3
I1215 21:08:37.831214 12297 net.cpp:380] inception_4e/relu_3x3 <- inception_4e/3x3
I1215 21:08:37.831223 12297 net.cpp:327] inception_4e/relu_3x3 -> inception_4e/3x3 (in-place)
I1215 21:08:37.831229 12297 net.cpp:113] Setting up inception_4e/relu_3x3
I1215 21:08:37.831485 12297 net.cpp:120] Top shape: 50 320 14 14 (3136000)
I1215 21:08:37.831496 12297 layer_factory.hpp:74] Creating layer inception_4e/5x5_reduce
I1215 21:08:37.831504 12297 net.cpp:84] Creating Layer inception_4e/5x5_reduce
I1215 21:08:37.831511 12297 net.cpp:380] inception_4e/5x5_reduce <- inception_4d/output_inception_4d/output_0_split_3
I1215 21:08:37.831518 12297 net.cpp:338] inception_4e/5x5_reduce -> inception_4e/5x5_reduce
I1215 21:08:37.831527 12297 net.cpp:113] Setting up inception_4e/5x5_reduce
I1215 21:08:37.832139 12297 net.cpp:120] Top shape: 50 32 14 14 (313600)
I1215 21:08:37.832154 12297 layer_factory.hpp:74] Creating layer inception_4e/relu_5x5_reduce
I1215 21:08:37.832162 12297 net.cpp:84] Creating Layer inception_4e/relu_5x5_reduce
I1215 21:08:37.832168 12297 net.cpp:380] inception_4e/relu_5x5_reduce <- inception_4e/5x5_reduce
I1215 21:08:37.832175 12297 net.cpp:327] inception_4e/relu_5x5_reduce -> inception_4e/5x5_reduce (in-place)
I1215 21:08:37.832182 12297 net.cpp:113] Setting up inception_4e/relu_5x5_reduce
I1215 21:08:37.832259 12297 net.cpp:120] Top shape: 50 32 14 14 (313600)
I1215 21:08:37.832267 12297 layer_factory.hpp:74] Creating layer inception_4e/5x5
I1215 21:08:37.832276 12297 net.cpp:84] Creating Layer inception_4e/5x5
I1215 21:08:37.832281 12297 net.cpp:380] inception_4e/5x5 <- inception_4e/5x5_reduce
I1215 21:08:37.832288 12297 net.cpp:338] inception_4e/5x5 -> inception_4e/5x5
I1215 21:08:37.832298 12297 net.cpp:113] Setting up inception_4e/5x5
I1215 21:08:37.833915 12297 net.cpp:120] Top shape: 50 128 14 14 (1254400)
I1215 21:08:37.833932 12297 layer_factory.hpp:74] Creating layer inception_4e/relu_5x5
I1215 21:08:37.833940 12297 net.cpp:84] Creating Layer inception_4e/relu_5x5
I1215 21:08:37.833945 12297 net.cpp:380] inception_4e/relu_5x5 <- inception_4e/5x5
I1215 21:08:37.833953 12297 net.cpp:327] inception_4e/relu_5x5 -> inception_4e/5x5 (in-place)
I1215 21:08:37.833961 12297 net.cpp:113] Setting up inception_4e/relu_5x5
I1215 21:08:37.834034 12297 net.cpp:120] Top shape: 50 128 14 14 (1254400)
I1215 21:08:37.834041 12297 layer_factory.hpp:74] Creating layer inception_4e/pool
I1215 21:08:37.834046 12297 layer_factory.cpp:56] CUDNN does not support padding or multiple tops. Using Caffe's own pooling layer.
I1215 21:08:37.834054 12297 net.cpp:84] Creating Layer inception_4e/pool
I1215 21:08:37.834059 12297 net.cpp:380] inception_4e/pool <- inception_4d/output_inception_4d/output_0_split_4
I1215 21:08:37.834066 12297 net.cpp:338] inception_4e/pool -> inception_4e/pool
I1215 21:08:37.834074 12297 net.cpp:113] Setting up inception_4e/pool
I1215 21:08:37.834082 12297 net.cpp:120] Top shape: 50 528 14 14 (5174400)
I1215 21:08:37.834087 12297 layer_factory.hpp:74] Creating layer inception_4e/pool_proj
I1215 21:08:37.834096 12297 net.cpp:84] Creating Layer inception_4e/pool_proj
I1215 21:08:37.834102 12297 net.cpp:380] inception_4e/pool_proj <- inception_4e/pool
I1215 21:08:37.834108 12297 net.cpp:338] inception_4e/pool_proj -> inception_4e/pool_proj
I1215 21:08:37.834116 12297 net.cpp:113] Setting up inception_4e/pool_proj
I1215 21:08:37.835328 12297 net.cpp:120] Top shape: 50 128 14 14 (1254400)
I1215 21:08:37.835345 12297 layer_factory.hpp:74] Creating layer inception_4e/relu_pool_proj
I1215 21:08:37.835358 12297 net.cpp:84] Creating Layer inception_4e/relu_pool_proj
I1215 21:08:37.835373 12297 net.cpp:380] inception_4e/relu_pool_proj <- inception_4e/pool_proj
I1215 21:08:37.835381 12297 net.cpp:327] inception_4e/relu_pool_proj -> inception_4e/pool_proj (in-place)
I1215 21:08:37.835388 12297 net.cpp:113] Setting up inception_4e/relu_pool_proj
I1215 21:08:37.835461 12297 net.cpp:120] Top shape: 50 128 14 14 (1254400)
I1215 21:08:37.835469 12297 layer_factory.hpp:74] Creating layer inception_4e/output
I1215 21:08:37.835476 12297 net.cpp:84] Creating Layer inception_4e/output
I1215 21:08:37.835481 12297 net.cpp:380] inception_4e/output <- inception_4e/1x1
I1215 21:08:37.835487 12297 net.cpp:380] inception_4e/output <- inception_4e/3x3
I1215 21:08:37.835494 12297 net.cpp:380] inception_4e/output <- inception_4e/5x5
I1215 21:08:37.835500 12297 net.cpp:380] inception_4e/output <- inception_4e/pool_proj
I1215 21:08:37.835505 12297 net.cpp:338] inception_4e/output -> inception_4e/output
I1215 21:08:37.835512 12297 net.cpp:113] Setting up inception_4e/output
I1215 21:08:37.835520 12297 net.cpp:120] Top shape: 50 832 14 14 (8153600)
I1215 21:08:37.835525 12297 layer_factory.hpp:74] Creating layer pool4/3x3_s2
I1215 21:08:37.835531 12297 net.cpp:84] Creating Layer pool4/3x3_s2
I1215 21:08:37.835536 12297 net.cpp:380] pool4/3x3_s2 <- inception_4e/output
I1215 21:08:37.835544 12297 net.cpp:338] pool4/3x3_s2 -> pool4/3x3_s2
I1215 21:08:37.835551 12297 net.cpp:113] Setting up pool4/3x3_s2
I1215 21:08:37.835819 12297 net.cpp:120] Top shape: 50 832 7 7 (2038400)
I1215 21:08:37.835830 12297 layer_factory.hpp:74] Creating layer pool4/3x3_s2_pool4/3x3_s2_0_split
I1215 21:08:37.835840 12297 net.cpp:84] Creating Layer pool4/3x3_s2_pool4/3x3_s2_0_split
I1215 21:08:37.835846 12297 net.cpp:380] pool4/3x3_s2_pool4/3x3_s2_0_split <- pool4/3x3_s2
I1215 21:08:37.835854 12297 net.cpp:338] pool4/3x3_s2_pool4/3x3_s2_0_split -> pool4/3x3_s2_pool4/3x3_s2_0_split_0
I1215 21:08:37.835861 12297 net.cpp:338] pool4/3x3_s2_pool4/3x3_s2_0_split -> pool4/3x3_s2_pool4/3x3_s2_0_split_1
I1215 21:08:37.835868 12297 net.cpp:338] pool4/3x3_s2_pool4/3x3_s2_0_split -> pool4/3x3_s2_pool4/3x3_s2_0_split_2
I1215 21:08:37.835892 12297 net.cpp:338] pool4/3x3_s2_pool4/3x3_s2_0_split -> pool4/3x3_s2_pool4/3x3_s2_0_split_3
I1215 21:08:37.835901 12297 net.cpp:113] Setting up pool4/3x3_s2_pool4/3x3_s2_0_split
I1215 21:08:37.835908 12297 net.cpp:120] Top shape: 50 832 7 7 (2038400)
I1215 21:08:37.835914 12297 net.cpp:120] Top shape: 50 832 7 7 (2038400)
I1215 21:08:37.835921 12297 net.cpp:120] Top shape: 50 832 7 7 (2038400)
I1215 21:08:37.835925 12297 net.cpp:120] Top shape: 50 832 7 7 (2038400)
I1215 21:08:37.835929 12297 layer_factory.hpp:74] Creating layer inception_5a/1x1
I1215 21:08:37.835938 12297 net.cpp:84] Creating Layer inception_5a/1x1
I1215 21:08:37.835943 12297 net.cpp:380] inception_5a/1x1 <- pool4/3x3_s2_pool4/3x3_s2_0_split_0
I1215 21:08:37.835952 12297 net.cpp:338] inception_5a/1x1 -> inception_5a/1x1
I1215 21:08:37.835960 12297 net.cpp:113] Setting up inception_5a/1x1
I1215 21:08:37.838840 12297 net.cpp:120] Top shape: 50 256 7 7 (627200)
I1215 21:08:37.838856 12297 layer_factory.hpp:74] Creating layer inception_5a/relu_1x1
I1215 21:08:37.838865 12297 net.cpp:84] Creating Layer inception_5a/relu_1x1
I1215 21:08:37.838871 12297 net.cpp:380] inception_5a/relu_1x1 <- inception_5a/1x1
I1215 21:08:37.838876 12297 net.cpp:327] inception_5a/relu_1x1 -> inception_5a/1x1 (in-place)
I1215 21:08:37.838884 12297 net.cpp:113] Setting up inception_5a/relu_1x1
I1215 21:08:37.838958 12297 net.cpp:120] Top shape: 50 256 7 7 (627200)
I1215 21:08:37.838964 12297 layer_factory.hpp:74] Creating layer inception_5a/3x3_reduce
I1215 21:08:37.838973 12297 net.cpp:84] Creating Layer inception_5a/3x3_reduce
I1215 21:08:37.838978 12297 net.cpp:380] inception_5a/3x3_reduce <- pool4/3x3_s2_pool4/3x3_s2_0_split_1
I1215 21:08:37.838986 12297 net.cpp:338] inception_5a/3x3_reduce -> inception_5a/3x3_reduce
I1215 21:08:37.838995 12297 net.cpp:113] Setting up inception_5a/3x3_reduce
I1215 21:08:37.840962 12297 net.cpp:120] Top shape: 50 160 7 7 (392000)
I1215 21:08:37.840988 12297 layer_factory.hpp:74] Creating layer inception_5a/relu_3x3_reduce
I1215 21:08:37.840996 12297 net.cpp:84] Creating Layer inception_5a/relu_3x3_reduce
I1215 21:08:37.841002 12297 net.cpp:380] inception_5a/relu_3x3_reduce <- inception_5a/3x3_reduce
I1215 21:08:37.841009 12297 net.cpp:327] inception_5a/relu_3x3_reduce -> inception_5a/3x3_reduce (in-place)
I1215 21:08:37.841017 12297 net.cpp:113] Setting up inception_5a/relu_3x3_reduce
I1215 21:08:37.841100 12297 net.cpp:120] Top shape: 50 160 7 7 (392000)
I1215 21:08:37.841110 12297 layer_factory.hpp:74] Creating layer inception_5a/3x3
I1215 21:08:37.841121 12297 net.cpp:84] Creating Layer inception_5a/3x3
I1215 21:08:37.841126 12297 net.cpp:380] inception_5a/3x3 <- inception_5a/3x3_reduce
I1215 21:08:37.841135 12297 net.cpp:338] inception_5a/3x3 -> inception_5a/3x3
I1215 21:08:37.841142 12297 net.cpp:113] Setting up inception_5a/3x3
I1215 21:08:37.846860 12297 net.cpp:120] Top shape: 50 320 7 7 (784000)
I1215 21:08:37.846878 12297 layer_factory.hpp:74] Creating layer inception_5a/relu_3x3
I1215 21:08:37.846885 12297 net.cpp:84] Creating Layer inception_5a/relu_3x3
I1215 21:08:37.846890 12297 net.cpp:380] inception_5a/relu_3x3 <- inception_5a/3x3
I1215 21:08:37.846899 12297 net.cpp:327] inception_5a/relu_3x3 -> inception_5a/3x3 (in-place)
I1215 21:08:37.846907 12297 net.cpp:113] Setting up inception_5a/relu_3x3
I1215 21:08:37.846978 12297 net.cpp:120] Top shape: 50 320 7 7 (784000)
I1215 21:08:37.846985 12297 layer_factory.hpp:74] Creating layer inception_5a/5x5_reduce
I1215 21:08:37.846995 12297 net.cpp:84] Creating Layer inception_5a/5x5_reduce
I1215 21:08:37.847000 12297 net.cpp:380] inception_5a/5x5_reduce <- pool4/3x3_s2_pool4/3x3_s2_0_split_2
I1215 21:08:37.847007 12297 net.cpp:338] inception_5a/5x5_reduce -> inception_5a/5x5_reduce
I1215 21:08:37.847015 12297 net.cpp:113] Setting up inception_5a/5x5_reduce
I1215 21:08:37.847759 12297 net.cpp:120] Top shape: 50 32 7 7 (78400)
I1215 21:08:37.847775 12297 layer_factory.hpp:74] Creating layer inception_5a/relu_5x5_reduce
I1215 21:08:37.847785 12297 net.cpp:84] Creating Layer inception_5a/relu_5x5_reduce
I1215 21:08:37.847791 12297 net.cpp:380] inception_5a/relu_5x5_reduce <- inception_5a/5x5_reduce
I1215 21:08:37.847797 12297 net.cpp:327] inception_5a/relu_5x5_reduce -> inception_5a/5x5_reduce (in-place)
I1215 21:08:37.847805 12297 net.cpp:113] Setting up inception_5a/relu_5x5_reduce
I1215 21:08:37.848067 12297 net.cpp:120] Top shape: 50 32 7 7 (78400)
I1215 21:08:37.848081 12297 layer_factory.hpp:74] Creating layer inception_5a/5x5
I1215 21:08:37.848089 12297 net.cpp:84] Creating Layer inception_5a/5x5
I1215 21:08:37.848095 12297 net.cpp:380] inception_5a/5x5 <- inception_5a/5x5_reduce
I1215 21:08:37.848104 12297 net.cpp:338] inception_5a/5x5 -> inception_5a/5x5
I1215 21:08:37.848114 12297 net.cpp:113] Setting up inception_5a/5x5
I1215 21:08:37.849726 12297 net.cpp:120] Top shape: 50 128 7 7 (313600)
I1215 21:08:37.849742 12297 layer_factory.hpp:74] Creating layer inception_5a/relu_5x5
I1215 21:08:37.849751 12297 net.cpp:84] Creating Layer inception_5a/relu_5x5
I1215 21:08:37.849757 12297 net.cpp:380] inception_5a/relu_5x5 <- inception_5a/5x5
I1215 21:08:37.849764 12297 net.cpp:327] inception_5a/relu_5x5 -> inception_5a/5x5 (in-place)
I1215 21:08:37.849772 12297 net.cpp:113] Setting up inception_5a/relu_5x5
I1215 21:08:37.849849 12297 net.cpp:120] Top shape: 50 128 7 7 (313600)
I1215 21:08:37.849855 12297 layer_factory.hpp:74] Creating layer inception_5a/pool
I1215 21:08:37.849861 12297 layer_factory.cpp:56] CUDNN does not support padding or multiple tops. Using Caffe's own pooling layer.
I1215 21:08:37.849869 12297 net.cpp:84] Creating Layer inception_5a/pool
I1215 21:08:37.849874 12297 net.cpp:380] inception_5a/pool <- pool4/3x3_s2_pool4/3x3_s2_0_split_3
I1215 21:08:37.849881 12297 net.cpp:338] inception_5a/pool -> inception_5a/pool
I1215 21:08:37.849889 12297 net.cpp:113] Setting up inception_5a/pool
I1215 21:08:37.849907 12297 net.cpp:120] Top shape: 50 832 7 7 (2038400)
I1215 21:08:37.849920 12297 layer_factory.hpp:74] Creating layer inception_5a/pool_proj
I1215 21:08:37.849930 12297 net.cpp:84] Creating Layer inception_5a/pool_proj
I1215 21:08:37.849934 12297 net.cpp:380] inception_5a/pool_proj <- inception_5a/pool
I1215 21:08:37.849942 12297 net.cpp:338] inception_5a/pool_proj -> inception_5a/pool_proj
I1215 21:08:37.849951 12297 net.cpp:113] Setting up inception_5a/pool_proj
I1215 21:08:37.851608 12297 net.cpp:120] Top shape: 50 128 7 7 (313600)
I1215 21:08:37.851624 12297 layer_factory.hpp:74] Creating layer inception_5a/relu_pool_proj
I1215 21:08:37.851634 12297 net.cpp:84] Creating Layer inception_5a/relu_pool_proj
I1215 21:08:37.851639 12297 net.cpp:380] inception_5a/relu_pool_proj <- inception_5a/pool_proj
I1215 21:08:37.851646 12297 net.cpp:327] inception_5a/relu_pool_proj -> inception_5a/pool_proj (in-place)
I1215 21:08:37.851655 12297 net.cpp:113] Setting up inception_5a/relu_pool_proj
I1215 21:08:37.851724 12297 net.cpp:120] Top shape: 50 128 7 7 (313600)
I1215 21:08:37.851732 12297 layer_factory.hpp:74] Creating layer inception_5a/output
I1215 21:08:37.851740 12297 net.cpp:84] Creating Layer inception_5a/output
I1215 21:08:37.851745 12297 net.cpp:380] inception_5a/output <- inception_5a/1x1
I1215 21:08:37.851752 12297 net.cpp:380] inception_5a/output <- inception_5a/3x3
I1215 21:08:37.851758 12297 net.cpp:380] inception_5a/output <- inception_5a/5x5
I1215 21:08:37.851763 12297 net.cpp:380] inception_5a/output <- inception_5a/pool_proj
I1215 21:08:37.851768 12297 net.cpp:338] inception_5a/output -> inception_5a/output
I1215 21:08:37.851776 12297 net.cpp:113] Setting up inception_5a/output
I1215 21:08:37.851783 12297 net.cpp:120] Top shape: 50 832 7 7 (2038400)
I1215 21:08:37.851788 12297 layer_factory.hpp:74] Creating layer inception_5a/output_inception_5a/output_0_split
I1215 21:08:37.851794 12297 net.cpp:84] Creating Layer inception_5a/output_inception_5a/output_0_split
I1215 21:08:37.851799 12297 net.cpp:380] inception_5a/output_inception_5a/output_0_split <- inception_5a/output
I1215 21:08:37.851806 12297 net.cpp:338] inception_5a/output_inception_5a/output_0_split -> inception_5a/output_inception_5a/output_0_split_0
I1215 21:08:37.851814 12297 net.cpp:338] inception_5a/output_inception_5a/output_0_split -> inception_5a/output_inception_5a/output_0_split_1
I1215 21:08:37.851821 12297 net.cpp:338] inception_5a/output_inception_5a/output_0_split -> inception_5a/output_inception_5a/output_0_split_2
I1215 21:08:37.851829 12297 net.cpp:338] inception_5a/output_inception_5a/output_0_split -> inception_5a/output_inception_5a/output_0_split_3
I1215 21:08:37.851835 12297 net.cpp:113] Setting up inception_5a/output_inception_5a/output_0_split
I1215 21:08:37.851841 12297 net.cpp:120] Top shape: 50 832 7 7 (2038400)
I1215 21:08:37.851846 12297 net.cpp:120] Top shape: 50 832 7 7 (2038400)
I1215 21:08:37.851851 12297 net.cpp:120] Top shape: 50 832 7 7 (2038400)
I1215 21:08:37.851856 12297 net.cpp:120] Top shape: 50 832 7 7 (2038400)
I1215 21:08:37.851861 12297 layer_factory.hpp:74] Creating layer inception_5b/1x1
I1215 21:08:37.851871 12297 net.cpp:84] Creating Layer inception_5b/1x1
I1215 21:08:37.851876 12297 net.cpp:380] inception_5b/1x1 <- inception_5a/output_inception_5a/output_0_split_0
I1215 21:08:37.851882 12297 net.cpp:338] inception_5b/1x1 -> inception_5b/1x1
I1215 21:08:37.851889 12297 net.cpp:113] Setting up inception_5b/1x1
I1215 21:08:37.855996 12297 net.cpp:120] Top shape: 50 384 7 7 (940800)
I1215 21:08:37.856012 12297 layer_factory.hpp:74] Creating layer inception_5b/relu_1x1
I1215 21:08:37.856020 12297 net.cpp:84] Creating Layer inception_5b/relu_1x1
I1215 21:08:37.856025 12297 net.cpp:380] inception_5b/relu_1x1 <- inception_5b/1x1
I1215 21:08:37.856032 12297 net.cpp:327] inception_5b/relu_1x1 -> inception_5b/1x1 (in-place)
I1215 21:08:37.856040 12297 net.cpp:113] Setting up inception_5b/relu_1x1
I1215 21:08:37.856117 12297 net.cpp:120] Top shape: 50 384 7 7 (940800)
I1215 21:08:37.856123 12297 layer_factory.hpp:74] Creating layer inception_5b/3x3_reduce
I1215 21:08:37.856147 12297 net.cpp:84] Creating Layer inception_5b/3x3_reduce
I1215 21:08:37.856153 12297 net.cpp:380] inception_5b/3x3_reduce <- inception_5a/output_inception_5a/output_0_split_1
I1215 21:08:37.856160 12297 net.cpp:338] inception_5b/3x3_reduce -> inception_5b/3x3_reduce
I1215 21:08:37.856169 12297 net.cpp:113] Setting up inception_5b/3x3_reduce
I1215 21:08:37.858445 12297 net.cpp:120] Top shape: 50 192 7 7 (470400)
I1215 21:08:37.858461 12297 layer_factory.hpp:74] Creating layer inception_5b/relu_3x3_reduce
I1215 21:08:37.858469 12297 net.cpp:84] Creating Layer inception_5b/relu_3x3_reduce
I1215 21:08:37.858475 12297 net.cpp:380] inception_5b/relu_3x3_reduce <- inception_5b/3x3_reduce
I1215 21:08:37.858482 12297 net.cpp:327] inception_5b/relu_3x3_reduce -> inception_5b/3x3_reduce (in-place)
I1215 21:08:37.858489 12297 net.cpp:113] Setting up inception_5b/relu_3x3_reduce
I1215 21:08:37.858759 12297 net.cpp:120] Top shape: 50 192 7 7 (470400)
I1215 21:08:37.858770 12297 layer_factory.hpp:74] Creating layer inception_5b/3x3
I1215 21:08:37.858779 12297 net.cpp:84] Creating Layer inception_5b/3x3
I1215 21:08:37.858784 12297 net.cpp:380] inception_5b/3x3 <- inception_5b/3x3_reduce
I1215 21:08:37.858794 12297 net.cpp:338] inception_5b/3x3 -> inception_5b/3x3
I1215 21:08:37.858803 12297 net.cpp:113] Setting up inception_5b/3x3
I1215 21:08:37.866863 12297 net.cpp:120] Top shape: 50 384 7 7 (940800)
I1215 21:08:37.866880 12297 layer_factory.hpp:74] Creating layer inception_5b/relu_3x3
I1215 21:08:37.866888 12297 net.cpp:84] Creating Layer inception_5b/relu_3x3
I1215 21:08:37.866894 12297 net.cpp:380] inception_5b/relu_3x3 <- inception_5b/3x3
I1215 21:08:37.866900 12297 net.cpp:327] inception_5b/relu_3x3 -> inception_5b/3x3 (in-place)
I1215 21:08:37.866909 12297 net.cpp:113] Setting up inception_5b/relu_3x3
I1215 21:08:37.866983 12297 net.cpp:120] Top shape: 50 384 7 7 (940800)
I1215 21:08:37.866989 12297 layer_factory.hpp:74] Creating layer inception_5b/5x5_reduce
I1215 21:08:37.866998 12297 net.cpp:84] Creating Layer inception_5b/5x5_reduce
I1215 21:08:37.867003 12297 net.cpp:380] inception_5b/5x5_reduce <- inception_5a/output_inception_5a/output_0_split_2
I1215 21:08:37.867012 12297 net.cpp:338] inception_5b/5x5_reduce -> inception_5b/5x5_reduce
I1215 21:08:37.867020 12297 net.cpp:113] Setting up inception_5b/5x5_reduce
I1215 21:08:37.867918 12297 net.cpp:120] Top shape: 50 48 7 7 (117600)
I1215 21:08:37.867933 12297 layer_factory.hpp:74] Creating layer inception_5b/relu_5x5_reduce
I1215 21:08:37.867941 12297 net.cpp:84] Creating Layer inception_5b/relu_5x5_reduce
I1215 21:08:37.867946 12297 net.cpp:380] inception_5b/relu_5x5_reduce <- inception_5b/5x5_reduce
I1215 21:08:37.867954 12297 net.cpp:327] inception_5b/relu_5x5_reduce -> inception_5b/5x5_reduce (in-place)
I1215 21:08:37.867961 12297 net.cpp:113] Setting up inception_5b/relu_5x5_reduce
I1215 21:08:37.868034 12297 net.cpp:120] Top shape: 50 48 7 7 (117600)
I1215 21:08:37.868041 12297 layer_factory.hpp:74] Creating layer inception_5b/5x5
I1215 21:08:37.868051 12297 net.cpp:84] Creating Layer inception_5b/5x5
I1215 21:08:37.868057 12297 net.cpp:380] inception_5b/5x5 <- inception_5b/5x5_reduce
I1215 21:08:37.868062 12297 net.cpp:338] inception_5b/5x5 -> inception_5b/5x5
I1215 21:08:37.868072 12297 net.cpp:113] Setting up inception_5b/5x5
I1215 21:08:37.870277 12297 net.cpp:120] Top shape: 50 128 7 7 (313600)
I1215 21:08:37.870295 12297 layer_factory.hpp:74] Creating layer inception_5b/relu_5x5
I1215 21:08:37.870303 12297 net.cpp:84] Creating Layer inception_5b/relu_5x5
I1215 21:08:37.870309 12297 net.cpp:380] inception_5b/relu_5x5 <- inception_5b/5x5
I1215 21:08:37.870316 12297 net.cpp:327] inception_5b/relu_5x5 -> inception_5b/5x5 (in-place)
I1215 21:08:37.870326 12297 net.cpp:113] Setting up inception_5b/relu_5x5
I1215 21:08:37.870589 12297 net.cpp:120] Top shape: 50 128 7 7 (313600)
I1215 21:08:37.870600 12297 layer_factory.hpp:74] Creating layer inception_5b/pool
I1215 21:08:37.870606 12297 layer_factory.cpp:56] CUDNN does not support padding or multiple tops. Using Caffe's own pooling layer.
I1215 21:08:37.870625 12297 net.cpp:84] Creating Layer inception_5b/pool
I1215 21:08:37.870630 12297 net.cpp:380] inception_5b/pool <- inception_5a/output_inception_5a/output_0_split_3
I1215 21:08:37.870637 12297 net.cpp:338] inception_5b/pool -> inception_5b/pool
I1215 21:08:37.870645 12297 net.cpp:113] Setting up inception_5b/pool
I1215 21:08:37.870653 12297 net.cpp:120] Top shape: 50 832 7 7 (2038400)
I1215 21:08:37.870658 12297 layer_factory.hpp:74] Creating layer inception_5b/pool_proj
I1215 21:08:37.870668 12297 net.cpp:84] Creating Layer inception_5b/pool_proj
I1215 21:08:37.870673 12297 net.cpp:380] inception_5b/pool_proj <- inception_5b/pool
I1215 21:08:37.870682 12297 net.cpp:338] inception_5b/pool_proj -> inception_5b/pool_proj
I1215 21:08:37.870689 12297 net.cpp:113] Setting up inception_5b/pool_proj
I1215 21:08:37.872346 12297 net.cpp:120] Top shape: 50 128 7 7 (313600)
I1215 21:08:37.872362 12297 layer_factory.hpp:74] Creating layer inception_5b/relu_pool_proj
I1215 21:08:37.872370 12297 net.cpp:84] Creating Layer inception_5b/relu_pool_proj
I1215 21:08:37.872375 12297 net.cpp:380] inception_5b/relu_pool_proj <- inception_5b/pool_proj
I1215 21:08:37.872383 12297 net.cpp:327] inception_5b/relu_pool_proj -> inception_5b/pool_proj (in-place)
I1215 21:08:37.872391 12297 net.cpp:113] Setting up inception_5b/relu_pool_proj
I1215 21:08:37.872467 12297 net.cpp:120] Top shape: 50 128 7 7 (313600)
I1215 21:08:37.872473 12297 layer_factory.hpp:74] Creating layer inception_5b/output
I1215 21:08:37.872480 12297 net.cpp:84] Creating Layer inception_5b/output
I1215 21:08:37.872485 12297 net.cpp:380] inception_5b/output <- inception_5b/1x1
I1215 21:08:37.872491 12297 net.cpp:380] inception_5b/output <- inception_5b/3x3
I1215 21:08:37.872496 12297 net.cpp:380] inception_5b/output <- inception_5b/5x5
I1215 21:08:37.872501 12297 net.cpp:380] inception_5b/output <- inception_5b/pool_proj
I1215 21:08:37.872509 12297 net.cpp:338] inception_5b/output -> inception_5b/output
I1215 21:08:37.872517 12297 net.cpp:113] Setting up inception_5b/output
I1215 21:08:37.872524 12297 net.cpp:120] Top shape: 50 1024 7 7 (2508800)
I1215 21:08:37.872529 12297 layer_factory.hpp:74] Creating layer pool5/7x7_s1
I1215 21:08:37.872536 12297 net.cpp:84] Creating Layer pool5/7x7_s1
I1215 21:08:37.872540 12297 net.cpp:380] pool5/7x7_s1 <- inception_5b/output
I1215 21:08:37.872550 12297 net.cpp:338] pool5/7x7_s1 -> pool5/7x7_s1
I1215 21:08:37.872556 12297 net.cpp:113] Setting up pool5/7x7_s1
I1215 21:08:37.872629 12297 net.cpp:120] Top shape: 50 1024 1 1 (51200)
I1215 21:08:37.872637 12297 layer_factory.hpp:74] Creating layer pool5/drop_7x7_s1
I1215 21:08:37.872644 12297 net.cpp:84] Creating Layer pool5/drop_7x7_s1
I1215 21:08:37.872649 12297 net.cpp:380] pool5/drop_7x7_s1 <- pool5/7x7_s1
I1215 21:08:37.872655 12297 net.cpp:327] pool5/drop_7x7_s1 -> pool5/7x7_s1 (in-place)
I1215 21:08:37.872663 12297 net.cpp:113] Setting up pool5/drop_7x7_s1
I1215 21:08:37.872669 12297 net.cpp:120] Top shape: 50 1024 1 1 (51200)
I1215 21:08:37.872674 12297 layer_factory.hpp:74] Creating layer loss3/classifier_kaggle
I1215 21:08:37.872683 12297 net.cpp:84] Creating Layer loss3/classifier_kaggle
I1215 21:08:37.872686 12297 net.cpp:380] loss3/classifier_kaggle <- pool5/7x7_s1
I1215 21:08:37.872694 12297 net.cpp:338] loss3/classifier_kaggle -> loss3/classifier_kaggle
I1215 21:08:37.872701 12297 net.cpp:113] Setting up loss3/classifier_kaggle
I1215 21:08:37.877960 12297 net.cpp:120] Top shape: 50 447 (22350)
I1215 21:08:37.877972 12297 layer_factory.hpp:74] Creating layer loss3/classifier_kaggle_loss3/classifier_kaggle_0_split
I1215 21:08:37.877979 12297 net.cpp:84] Creating Layer loss3/classifier_kaggle_loss3/classifier_kaggle_0_split
I1215 21:08:37.877985 12297 net.cpp:380] loss3/classifier_kaggle_loss3/classifier_kaggle_0_split <- loss3/classifier_kaggle
I1215 21:08:37.877991 12297 net.cpp:338] loss3/classifier_kaggle_loss3/classifier_kaggle_0_split -> loss3/classifier_kaggle_loss3/classifier_kaggle_0_split_0
I1215 21:08:37.878005 12297 net.cpp:338] loss3/classifier_kaggle_loss3/classifier_kaggle_0_split -> loss3/classifier_kaggle_loss3/classifier_kaggle_0_split_1
I1215 21:08:37.878021 12297 net.cpp:338] loss3/classifier_kaggle_loss3/classifier_kaggle_0_split -> loss3/classifier_kaggle_loss3/classifier_kaggle_0_split_2
I1215 21:08:37.878027 12297 net.cpp:113] Setting up loss3/classifier_kaggle_loss3/classifier_kaggle_0_split
I1215 21:08:37.878034 12297 net.cpp:120] Top shape: 50 447 (22350)
I1215 21:08:37.878039 12297 net.cpp:120] Top shape: 50 447 (22350)
I1215 21:08:37.878044 12297 net.cpp:120] Top shape: 50 447 (22350)
I1215 21:08:37.878049 12297 layer_factory.hpp:74] Creating layer loss3/loss3
I1215 21:08:37.878056 12297 net.cpp:84] Creating Layer loss3/loss3
I1215 21:08:37.878060 12297 net.cpp:380] loss3/loss3 <- loss3/classifier_kaggle_loss3/classifier_kaggle_0_split_0
I1215 21:08:37.878067 12297 net.cpp:380] loss3/loss3 <- label_data_1_split_6
I1215 21:08:37.878074 12297 net.cpp:338] loss3/loss3 -> loss3/loss3
…
