…
I0105 14:43:06.762332  4844 net.cpp:257] The NetState phase (0) differed from the phase (1) specified by a rule in layer loss3/top-5
I0105 14:43:06.764480  4844 net.cpp:42] Initializing net from parameters: 
name: "MYNET"
state {
  phase: TRAIN
}
layer {
  name: "data"
  type: "ImageData"
  top: "data"
  top: "label"
  include {
    phase: TRAIN
  }
  transform_param {
    mirror: false
    crop_size: 224
    mean_value: 129
    mean_value: 129
    mean_value: 129
  }
  image_data_param {
    source: "/home/coldmanck/kaggle/label_train_full_resize_rotated.txt"
    batch_size: 80
    shuffle: true
  }
}
layer {
  name: "conv1/7x7_s2"
  type: "Convolution"
  bottom: "data"
  top: "conv1/7x7_s2"
  param {
    lr_mult: 1
    decay_mult: 1
  }
  param {
    lr_mult: 2
    decay_mult: 0
  }
  convolution_param {
    num_output: 64
    pad: 3
    kernel_size: 7
    stride: 2
    weight_filler {
      type: "xavier"
    }
    bias_filler {
      type: "constant"
      value: 0.2
    }
  }
}
layer {
  name: "conv1/relu_7x7"
  type: "ReLU"
  bottom: "conv1/7x7_s2"
  top: "conv1/7x7_s2"
}
layer {
  name: "pool1/3x3_s2"
  type: "Pooling"
  bottom: "conv1/7x7_s2"
  top: "pool1/3x3_s2"
  pooling_param {
    pool: MAX
    kernel_size: 3
    stride: 2
  }
}
layer {
  name: "pool1/norm1"
  type: "LRN"
  bottom: "pool1/3x3_s2"
  top: "pool1/norm1"
  lrn_param {
    local_size: 5
    alpha: 0.0001
    beta: 0.75
  }
}
layer {
  name: "conv2/3x3_reduce"
  type: "Convolution"
  bottom: "pool1/norm1"
  top: "conv2/3x3_reduce"
  param {
    lr_mult: 1
    decay_mult: 1
  }
  param {
    lr_mult: 2
    decay_mult: 0
  }
  convolution_param {
    num_output: 64
    kernel_size: 1
    weight_filler {
      type: "xavier"
    }
    bias_filler {
      type: "constant"
      value: 0.2
    }
  }
}
layer {
  name: "conv2/relu_3x3_reduce"
  type: "ReLU"
  bottom: "conv2/3x3_reduce"
  top: "conv2/3x3_reduce"
}
layer {
  name: "conv2/3x3"
  type: "Convolution"
  bottom: "conv2/3x3_reduce"
  top: "conv2/3x3"
  param {
    lr_mult: 1
    decay_mult: 1
  }
  param {
    lr_mult: 2
    decay_mult: 0
  }
  convolution_param {
    num_output: 192
    pad: 1
    kernel_size: 3
    weight_filler {
      type: "xavier"
    }
    bias_filler {
      type: "constant"
      value: 0.2
    }
  }
}
layer {
  name: "conv2/relu_3x3"
  type: "ReLU"
  bottom: "conv2/3x3"
  top: "conv2/3x3"
}
layer {
  name: "conv2/norm2"
  type: "LRN"
  bottom: "conv2/3x3"
  top: "conv2/norm2"
  lrn_param {
    local_size: 5
    alpha: 0.0001
    beta: 0.75
  }
}
layer {
  name: "pool2/3x3_s2"
  type: "Pooling"
  bottom: "conv2/norm2"
  top: "pool2/3x3_s2"
  pooling_param {
    pool: MAX
    kernel_size: 3
    stride: 2
  }
}
layer {
  name: "inception_3a/1x1"
  type: "Convolution"
  bottom: "pool2/3x3_s2"
  top: "inception_3a/1x1"
  param {
    lr_mult: 1
    decay_mult: 1
  }
  param {
    lr_mult: 2
    decay_mult: 0
  }
  convolution_param {
    num_output: 64
    kernel_size: 1
    weight_filler {
      type: "xavier"
    }
    bias_filler {
      type: "constant"
      value: 0.2
    }
  }
}
layer {
  name: "inception_3a/relu_1x1"
  type: "ReLU"
  bottom: "inception_3a/1x1"
  top: "inception_3a/1x1"
}
layer {
  name: "inception_3a/3x3_reduce"
  type: "Convolution"
  bottom: "pool2/3x3_s2"
  top: "inception_3a/3x3_reduce"
  param {
    lr_mult: 1
    decay_mult: 1
  }
  param {
    lr_mult: 2
    decay_mult: 0
  }
  convolution_param {
    num_output: 96
    kernel_size: 1
    weight_filler {
      type: "xavier"
    }
    bias_filler {
      type: "constant"
      value: 0.2
    }
  }
}
layer {
  name: "inception_3a/relu_3x3_reduce"
  type: "ReLU"
  bottom: "inception_3a/3x3_reduce"
  top: "inception_3a/3x3_reduce"
}
layer {
  name: "inception_3a/3x3"
  type: "Convolution"
  bottom: "inception_3a/3x3_reduce"
  top: "inception_3a/3x3"
  param {
    lr_mult: 1
    decay_mult: 1
  }
  param {
    lr_mult: 2
    decay_mult: 0
  }
  convolution_param {
    num_output: 128
    pad: 1
    kernel_size: 3
    weight_filler {
      type: "xavier"
    }
    bias_filler {
      type: "constant"
      value: 0.2
    }
  }
}
layer {
  name: "inception_3a/relu_3x3"
  type: "ReLU"
  bottom: "inception_3a/3x3"
  top: "inception_3a/3x3"
}
layer {
  name: "inception_3a/5x5_reduce"
  type: "Convolution"
  bottom: "pool2/3x3_s2"
  top: "inception_3a/5x5_reduce"
  param {
    lr_mult: 1
    decay_mult: 1
  }
  param {
    lr_mult: 2
    decay_mult: 0
  }
  convolution_param {
    num_output: 16
    kernel_size: 1
    weight_filler {
      type: "xavier"
    }
    bias_filler {
      type: "constant"
      value: 0.2
    }
  }
}
layer {
  name: "inception_3a/relu_5x5_reduce"
  type: "ReLU"
  bottom: "inception_3a/5x5_reduce"
  top: "inception_3a/5x5_reduce"
}
layer {
  name: "inception_3a/5x5"
  type: "Convolution"
  bottom: "inception_3a/5x5_reduce"
  top: "inception_3a/5x5"
  param {
    lr_mult: 1
    decay_mult: 1
  }
  param {
    lr_mult: 2
    decay_mult: 0
  }
  convolution_param {
    num_output: 32
    pad: 2
    kernel_size: 5
    weight_filler {
      type: "xavier"
    }
    bias_filler {
      type: "constant"
      value: 0.2
    }
  }
}
layer {
  name: "inception_3a/relu_5x5"
  type: "ReLU"
  bottom: "inception_3a/5x5"
  top: "inception_3a/5x5"
}
layer {
  name: "inception_3a/pool"
  type: "Pooling"
  bottom: "pool2/3x3_s2"
  top: "inception_3a/pool"
  pooling_param {
    pool: MAX
    kernel_size: 3
    stride: 1
    pad: 1
  }
}
layer {
  name: "inception_3a/pool_proj"
  type: "Convolution"
  bottom: "inception_3a/pool"
  top: "inception_3a/pool_proj"
  param {
    lr_mult: 1
    decay_mult: 1
  }
  param {
    lr_mult: 2
    decay_mult: 0
  }
  convolution_param {
    num_output: 32
    kernel_size: 1
    weight_filler {
      type: "xavier"
    }
    bias_filler {
      type: "constant"
      value: 0.2
    }
  }
}
layer {
  name: "inception_3a/relu_pool_proj"
  type: "ReLU"
  bottom: "inception_3a/pool_proj"
  top: "inception_3a/pool_proj"
}
layer {
  name: "inception_3a/output"
  type: "Concat"
  bottom: "inception_3a/1x1"
  bottom: "inception_3a/3x3"
  bottom: "inception_3a/5x5"
  bottom: "inception_3a/pool_proj"
  top: "inception_3a/output"
}
layer {
  name: "inception_3b/1x1"
  type: "Convolution"
  bottom: "inception_3a/output"
  top: "inception_3b/1x1"
  param {
    lr_mult: 1
    decay_mult: 1
  }
  param {
    lr_mult: 2
    decay_mult: 0
  }
  convolution_param {
    num_output: 128
    kernel_size: 1
    weight_filler {
      type: "xavier"
    }
    bias_filler {
      type: "constant"
      value: 0.2
    }
  }
}
layer {
  name: "inception_3b/relu_1x1"
  type: "ReLU"
  bottom: "inception_3b/1x1"
  top: "inception_3b/1x1"
}
layer {
  name: "inception_3b/3x3_reduce"
  type: "Convolution"
  bottom: "inception_3a/output"
  top: "inception_3b/3x3_reduce"
  param {
    lr_mult: 1
    decay_mult: 1
  }
  param {
    lr_mult: 2
    decay_mult: 0
  }
  convolution_param {
    num_output: 128
    kernel_size: 1
    weight_filler {
      type: "xavier"
    }
    bias_filler {
      type: "constant"
      value: 0.2
    }
  }
}
layer {
  name: "inception_3b/relu_3x3_reduce"
  type: "ReLU"
  bottom: "inception_3b/3x3_reduce"
  top: "inception_3b/3x3_reduce"
}
layer {
  name: "inception_3b/3x3"
  type: "Convolution"
  bottom: "inception_3b/3x3_reduce"
  top: "inception_3b/3x3"
  param {
    lr_mult: 1
    decay_mult: 1
  }
  param {
    lr_mult: 2
    decay_mult: 0
  }
  convolution_param {
    num_output: 192
    pad: 1
    kernel_size: 3
    weight_filler {
      type: "xavier"
    }
    bias_filler {
      type: "constant"
      value: 0.2
    }
  }
}
layer {
  name: "inception_3b/relu_3x3"
  type: "ReLU"
  bottom: "inception_3b/3x3"
  top: "inception_3b/3x3"
}
layer {
  name: "inception_3b/5x5_reduce"
  type: "Convolution"
  bottom: "inception_3a/output"
  top: "inception_3b/5x5_reduce"
  param {
    lr_mult: 1
    decay_mult: 1
  }
  param {
    lr_mult: 2
    decay_mult: 0
  }
  convolution_param {
    num_output: 32
    kernel_size: 1
    weight_filler {
      type: "xavier"
    }
    bias_filler {
      type: "constant"
      value: 0.2
    }
  }
}
layer {
  name: "inception_3b/relu_5x5_reduce"
  type: "ReLU"
  bottom: "inception_3b/5x5_reduce"
  top: "inception_3b/5x5_reduce"
}
layer {
  name: "inception_3b/5x5"
  type: "Convolution"
  bottom: "inception_3b/5x5_reduce"
  top: "inception_3b/5x5"
  param {
    lr_mult: 1
    decay_mult: 1
  }
  param {
    lr_mult: 2
    decay_mult: 0
  }
  convolution_param {
    num_output: 96
    pad: 2
    kernel_size: 5
    weight_filler {
      type: "xavier"
    }
    bias_filler {
      type: "constant"
      value: 0.2
    }
  }
}
layer {
  name: "inception_3b/relu_5x5"
  type: "ReLU"
  bottom: "inception_3b/5x5"
  top: "inception_3b/5x5"
}
layer {
  name: "inception_3b/pool"
  type: "Pooling"
  bottom: "inception_3a/output"
  top: "inception_3b/pool"
  pooling_param {
    pool: MAX
    kernel_size: 3
    stride: 1
    pad: 1
  }
}
layer {
  name: "inception_3b/pool_proj"
  type: "Convolution"
  bottom: "inception_3b/pool"
  top: "inception_3b/pool_proj"
  param {
    lr_mult: 1
    decay_mult: 1
  }
  param {
    lr_mult: 2
    decay_mult: 0
  }
  convolution_param {
    num_output: 64
    kernel_size: 1
    weight_filler {
      type: "xavier"
    }
    bias_filler {
      type: "constant"
      value: 0.2
    }
  }
}
layer {
  name: "inception_3b/relu_pool_proj"
  type: "ReLU"
  bottom: "inception_3b/pool_proj"
  top: "inception_3b/pool_proj"
}
layer {
  name: "inception_3b/output"
  type: "Concat"
  bottom: "inception_3b/1x1"
  bottom: "inception_3b/3x3"
  bottom: "inception_3b/5x5"
  bottom: "inception_3b/pool_proj"
  top: "inception_3b/output"
}
layer {
  name: "pool3/3x3_s2"
  type: "Pooling"
  bottom: "inception_3b/output"
  top: "pool3/3x3_s2"
  pooling_param {
    pool: MAX
    kernel_size: 3
    stride: 2
  }
}
layer {
  name: "inception_4a/1x1"
  type: "Convolution"
  bottom: "pool3/3x3_s2"
  top: "inception_4a/1x1"
  param {
    lr_mult: 1
    decay_mult: 1
  }
  param {
    lr_mult: 2
    decay_mult: 0
  }
  convolution_param {
    num_output: 192
    kernel_size: 1
    weight_filler {
      type: "xavier"
    }
    bias_filler {
      type: "constant"
      value: 0.2
    }
  }
}
layer {
  name: "inception_4a/relu_1x1"
  type: "ReLU"
  bottom: "inception_4a/1x1"
  top: "inception_4a/1x1"
}
layer {
  name: "inception_4a/3x3_reduce"
  type: "Convolution"
  bottom: "pool3/3x3_s2"
  top: "inception_4a/3x3_reduce"
  param {
    lr_mult: 1
    decay_mult: 1
  }
  param {
    lr_mult: 2
    decay_mult: 0
  }
  convolution_param {
    num_output: 96
    kernel_size: 1
    weight_filler {
      type: "xavier"
    }
    bias_filler {
      type: "constant"
      value: 0.2
    }
  }
}
layer {
  name: "inception_4a/relu_3x3_reduce"
  type: "ReLU"
  bottom: "inception_4a/3x3_reduce"
  top: "inception_4a/3x3_reduce"
}
layer {
  name: "inception_4a/3x3"
  type: "Convolution"
  bottom: "inception_4a/3x3_reduce"
  top: "inception_4a/3x3"
  param {
    lr_mult: 1
    decay_mult: 1
  }
  param {
    lr_mult: 2
    decay_mult: 0
  }
  convolution_param {
    num_output: 208
    pad: 1
    kernel_size: 3
    weight_filler {
      type: "xavier"
    }
    bias_filler {
      type: "constant"
      value: 0.2
    }
  }
}
layer {
  name: "inception_4a/relu_3x3"
  type: "ReLU"
  bottom: "inception_4a/3x3"
  top: "inception_4a/3x3"
}
layer {
  name: "inception_4a/5x5_reduce"
  type: "Convolution"
  bottom: "pool3/3x3_s2"
  top: "inception_4a/5x5_reduce"
  param {
    lr_mult: 1
    decay_mult: 1
  }
  param {
    lr_mult: 2
    decay_mult: 0
  }
  convolution_param {
    num_output: 16
    kernel_size: 1
    weight_filler {
      type: "xavier"
    }
    bias_filler {
      type: "constant"
      value: 0.2
    }
  }
}
layer {
  name: "inception_4a/relu_5x5_reduce"
  type: "ReLU"
  bottom: "inception_4a/5x5_reduce"
  top: "inception_4a/5x5_reduce"
}
layer {
  name: "inception_4a/5x5"
  type: "Convolution"
  bottom: "inception_4a/5x5_reduce"
  top: "inception_4a/5x5"
  param {
    lr_mult: 1
    decay_mult: 1
  }
  param {
    lr_mult: 2
    decay_mult: 0
  }
  convolution_param {
    num_output: 48
    pad: 2
    kernel_size: 5
    weight_filler {
      type: "xavier"
    }
    bias_filler {
      type: "constant"
      value: 0.2
    }
  }
}
layer {
  name: "inception_4a/relu_5x5"
  type: "ReLU"
  bottom: "inception_4a/5x5"
  top: "inception_4a/5x5"
}
layer {
  name: "inception_4a/pool"
  type: "Pooling"
  bottom: "pool3/3x3_s2"
  top: "inception_4a/pool"
  pooling_param {
    pool: MAX
    kernel_size: 3
    stride: 1
    pad: 1
  }
}
layer {
  name: "inception_4a/pool_proj"
  type: "Convolution"
  bottom: "inception_4a/pool"
  top: "inception_4a/pool_proj"
  param {
    lr_mult: 1
    decay_mult: 1
  }
  param {
    lr_mult: 2
    decay_mult: 0
  }
  convolution_param {
    num_output: 64
    kernel_size: 1
    weight_filler {
      type: "xavier"
    }
    bias_filler {
      type: "constant"
      value: 0.2
    }
  }
}
layer {
  name: "inception_4a/relu_pool_proj"
  type: "ReLU"
  bottom: "inception_4a/pool_proj"
  top: "inception_4a/pool_proj"
}
layer {
  name: "inception_4a/output"
  type: "Concat"
  bottom: "inception_4a/1x1"
  bottom: "inception_4a/3x3"
  bottom: "inception_4a/5x5"
  bottom: "inception_4a/pool_proj"
  top: "inception_4a/output"
}
layer {
  name: "loss1/ave_pool"
  type: "Pooling"
  bottom: "inception_4a/output"
  top: "loss1/ave_pool"
  pooling_param {
    pool: AVE
    kernel_size: 5
    stride: 3
  }
}
layer {
  name: "loss1/conv"
  type: "Convolution"
  bottom: "loss1/ave_pool"
  top: "loss1/conv"
  param {
    lr_mult: 1
    decay_mult: 1
  }
  param {
    lr_mult: 2
    decay_mult: 0
  }
  convolution_param {
    num_output: 128
    kernel_size: 1
    weight_filler {
      type: "xavier"
    }
    bias_filler {
      type: "constant"
      value: 0.2
    }
  }
}
layer {
  name: "loss1/relu_conv"
  type: "ReLU"
  bottom: "loss1/conv"
  top: "loss1/conv"
}
layer {
  name: "loss1/fc"
  type: "InnerProduct"
  bottom: "loss1/conv"
  top: "loss1/fc"
  param {
    lr_mult: 1
    decay_mult: 1
  }
  param {
    lr_mult: 2
    decay_mult: 0
  }
  inner_product_param {
    num_output: 1024
    weight_filler {
      type: "xavier"
    }
    bias_filler {
      type: "constant"
      value: 0.2
    }
  }
}
layer {
  name: "loss1/relu_fc"
  type: "ReLU"
  bottom: "loss1/fc"
  top: "loss1/fc"
}
layer {
  name: "loss1/drop_fc"
  type: "Dropout"
  bottom: "loss1/fc"
  top: "loss1/fc"
  dropout_param {
    dropout_ratio: 0.7
  }
}
layer {
  name: "loss1/classifier_kaggle"
  type: "InnerProduct"
  bottom: "loss1/fc"
  top: "loss1/classifier_kaggle"
  param {
    lr_mult: 1
    decay_mult: 1
  }
  param {
    lr_mult: 2
    decay_mult: 0
  }
  inner_product_param {
    num_output: 447
    weight_filler {
      type: "xavier"
    }
    bias_filler {
      type: "constant"
      value: 0
    }
  }
}
layer {
  name: "loss1/loss"
  type: "SoftmaxWithLoss"
  bottom: "loss1/classifier_kaggle"
  bottom: "label"
  top: "loss1/loss1"
  loss_weight: 0.3
}
layer {
  name: "inception_4b/1x1"
  type: "Convolution"
  bottom: "inception_4a/output"
  top: "inception_4b/1x1"
  param {
    lr_mult: 1
    decay_mult: 1
  }
  param {
    lr_mult: 2
    decay_mult: 0
  }
  convolution_param {
    num_output: 160
    kernel_size: 1
    weight_filler {
      type: "xavier"
    }
    bias_filler {
      type: "constant"
      value: 0.2
    }
  }
}
layer {
  name: "inception_4b/relu_1x1"
  type: "ReLU"
  bottom: "inception_4b/1x1"
  top: "inception_4b/1x1"
}
layer {
  name: "inception_4b/3x3_reduce"
  type: "Convolution"
  bottom: "inception_4a/output"
  top: "inception_4b/3x3_reduce"
  param {
    lr_mult: 1
    decay_mult: 1
  }
  param {
    lr_mult: 2
    decay_mult: 0
  }
  convolution_param {
    num_output: 112
    kernel_size: 1
    weight_filler {
      type: "xavier"
    }
    bias_filler {
      type: "constant"
      value: 0.2
    }
  }
}
layer {
  name: "inception_4b/relu_3x3_reduce"
  type: "ReLU"
  bottom: "inception_4b/3x3_reduce"
  top: "inception_4b/3x3_reduce"
}
layer {
  name: "inception_4b/3x3"
  type: "Convolution"
  bottom: "inception_4b/3x3_reduce"
  top: "inception_4b/3x3"
  param {
    lr_mult: 1
    decay_mult: 1
  }
  param {
    lr_mult: 2
    decay_mult: 0
  }
  convolution_param {
    num_output: 224
    pad: 1
    kernel_size: 3
    weight_filler {
      type: "xavier"
    }
    bias_filler {
      type: "constant"
      value: 0.2
    }
  }
}
layer {
  name: "inception_4b/relu_3x3"
  type: "ReLU"
  bottom: "inception_4b/3x3"
  top: "inception_4b/3x3"
}
layer {
  name: "inception_4b/5x5_reduce"
  type: "Convolution"
  bottom: "inception_4a/output"
  top: "inception_4b/5x5_reduce"
  param {
    lr_mult: 1
    decay_mult: 1
  }
  param {
    lr_mult: 2
    decay_mult: 0
  }
  convolution_param {
    num_output: 24
    kernel_size: 1
    weight_filler {
      type: "xavier"
    }
    bias_filler {
      type: "constant"
      value: 0.2
    }
  }
}
layer {
  name: "inception_4b/relu_5x5_reduce"
  type: "ReLU"
  bottom: "inception_4b/5x5_reduce"
  top: "inception_4b/5x5_reduce"
}
layer {
  name: "inception_4b/5x5"
  type: "Convolution"
  bottom: "inception_4b/5x5_reduce"
  top: "inception_4b/5x5"
  param {
    lr_mult: 1
    decay_mult: 1
  }
  param {
    lr_mult: 2
    decay_mult: 0
  }
  convolution_param {
    num_output: 64
    pad: 2
    kernel_size: 5
    weight_filler {
      type: "xavier"
    }
    bias_filler {
      type: "constant"
      value: 0.2
    }
  }
}
layer {
  name: "inception_4b/relu_5x5"
  type: "ReLU"
  bottom: "inception_4b/5x5"
  top: "inception_4b/5x5"
}
layer {
  name: "inception_4b/pool"
  type: "Pooling"
  bottom: "inception_4a/output"
  top: "inception_4b/pool"
  pooling_param {
    pool: MAX
    kernel_size: 3
    stride: 1
    pad: 1
  }
}
layer {
  name: "inception_4b/pool_proj"
  type: "Convolution"
  bottom: "inception_4b/pool"
  top: "inception_4b/pool_proj"
  param {
    lr_mult: 1
    decay_mult: 1
  }
  param {
    lr_mult: 2
    decay_mult: 0
  }
  convolution_param {
    num_output: 64
    kernel_size: 1
    weight_filler {
      type: "xavier"
    }
    bias_filler {
      type: "constant"
      value: 0.2
    }
  }
}
layer {
  name: "inception_4b/relu_pool_proj"
  type: "ReLU"
  bottom: "inception_4b/pool_proj"
  top: "inception_4b/pool_proj"
}
layer {
  name: "inception_4b/output"
  type: "Concat"
  bottom: "inception_4b/1x1"
  bottom: "inception_4b/3x3"
  bottom: "inception_4b/5x5"
  bottom: "inception_4b/pool_proj"
  top: "inception_4b/output"
}
layer {
  name: "inception_4c/1x1"
  type: "Convolution"
  bottom: "inception_4b/output"
  top: "inception_4c/1x1"
  param {
    lr_mult: 1
    decay_mult: 1
  }
  param {
    lr_mult: 2
    decay_mult: 0
  }
  convolution_param {
    num_output: 128
    kernel_size: 1
    weight_filler {
      type: "xavier"
    }
    bias_filler {
      type: "constant"
      value: 0.2
    }
  }
}
layer {
  name: "inception_4c/relu_1x1"
  type: "ReLU"
  bottom: "inception_4c/1x1"
  top: "inception_4c/1x1"
}
layer {
  name: "inception_4c/3x3_reduce"
  type: "Convolution"
  bottom: "inception_4b/output"
  top: "inception_4c/3x3_reduce"
  param {
    lr_mult: 1
    decay_mult: 1
  }
  param {
    lr_mult: 2
    decay_mult: 0
  }
  convolution_param {
    num_output: 128
    kernel_size: 1
    weight_filler {
      type: "xavier"
    }
    bias_filler {
      type: "constant"
      value: 0.2
    }
  }
}
layer {
  name: "inception_4c/relu_3x3_reduce"
  type: "ReLU"
  bottom: "inception_4c/3x3_reduce"
  top: "inception_4c/3x3_reduce"
}
layer {
  name: "inception_4c/3x3"
  type: "Convolution"
  bottom: "inception_4c/3x3_reduce"
  top: "inception_4c/3x3"
  param {
    lr_mult: 1
    decay_mult: 1
  }
  param {
    lr_mult: 2
    decay_mult: 0
  }
  convolution_param {
    num_output: 256
    pad: 1
    kernel_size: 3
    weight_filler {
      type: "xavier"
    }
    bias_filler {
      type: "constant"
      value: 0.2
    }
  }
}
layer {
  name: "inception_4c/relu_3x3"
  type: "ReLU"
  bottom: "inception_4c/3x3"
  top: "inception_4c/3x3"
}
layer {
  name: "inception_4c/5x5_reduce"
  type: "Convolution"
  bottom: "inception_4b/output"
  top: "inception_4c/5x5_reduce"
  param {
    lr_mult: 1
    decay_mult: 1
  }
  param {
    lr_mult: 2
    decay_mult: 0
  }
  convolution_param {
    num_output: 24
    kernel_size: 1
    weight_filler {
      type: "xavier"
    }
    bias_filler {
      type: "constant"
      value: 0.2
    }
  }
}
layer {
  name: "inception_4c/relu_5x5_reduce"
  type: "ReLU"
  bottom: "inception_4c/5x5_reduce"
  top: "inception_4c/5x5_reduce"
}
layer {
  name: "inception_4c/5x5"
  type: "Convolution"
  bottom: "inception_4c/5x5_reduce"
  top: "inception_4c/5x5"
  param {
    lr_mult: 1
    decay_mult: 1
  }
  param {
    lr_mult: 2
    decay_mult: 0
  }
  convolution_param {
    num_output: 64
    pad: 2
    kernel_size: 5
    weight_filler {
      type: "xavier"
    }
    bias_filler {
      type: "constant"
      value: 0.2
    }
  }
}
layer {
  name: "inception_4c/relu_5x5"
  type: "ReLU"
  bottom: "inception_4c/5x5"
  top: "inception_4c/5x5"
}
layer {
  name: "inception_4c/pool"
  type: "Pooling"
  bottom: "inception_4b/output"
  top: "inception_4c/pool"
  pooling_param {
    pool: MAX
    kernel_size: 3
    stride: 1
    pad: 1
  }
}
layer {
  name: "inception_4c/pool_proj"
  type: "Convolution"
  bottom: "inception_4c/pool"
  top: "inception_4c/pool_proj"
  param {
    lr_mult: 1
    decay_mult: 1
  }
  param {
    lr_mult: 2
    decay_mult: 0
  }
  convolution_param {
    num_output: 64
    kernel_size: 1
    weight_filler {
      type: "xavier"
    }
    bias_filler {
      type: "constant"
      value: 0.2
    }
  }
}
layer {
  name: "inception_4c/relu_pool_proj"
  type: "ReLU"
  bottom: "inception_4c/pool_proj"
  top: "inception_4c/pool_proj"
}
layer {
  name: "inception_4c/output"
  type: "Concat"
  bottom: "inception_4c/1x1"
  bottom: "inception_4c/3x3"
  bottom: "inception_4c/5x5"
  bottom: "inception_4c/pool_proj"
  top: "inception_4c/output"
}
layer {
  name: "inception_4d/1x1"
  type: "Convolution"
  bottom: "inception_4c/output"
  top: "inception_4d/1x1"
  param {
    lr_mult: 1
    decay_mult: 1
  }
  param {
    lr_mult: 2
    decay_mult: 0
  }
  convolution_param {
    num_output: 112
    kernel_size: 1
    weight_filler {
      type: "xavier"
    }
    bias_filler {
      type: "constant"
      value: 0.2
    }
  }
}
layer {
  name: "inception_4d/relu_1x1"
  type: "ReLU"
  bottom: "inception_4d/1x1"
  top: "inception_4d/1x1"
}
layer {
  name: "inception_4d/3x3_reduce"
  type: "Convolution"
  bottom: "inception_4c/output"
  top: "inception_4d/3x3_reduce"
  param {
    lr_mult: 1
    decay_mult: 1
  }
  param {
    lr_mult: 2
    decay_mult: 0
  }
  convolution_param {
    num_output: 144
    kernel_size: 1
    weight_filler {
      type: "xavier"
    }
    bias_filler {
      type: "constant"
      value: 0.2
    }
  }
}
layer {
  name: "inception_4d/relu_3x3_reduce"
  type: "ReLU"
  bottom: "inception_4d/3x3_reduce"
  top: "inception_4d/3x3_reduce"
}
layer {
  name: "inception_4d/3x3"
  type: "Convolution"
  bottom: "inception_4d/3x3_reduce"
  top: "inception_4d/3x3"
  param {
    lr_mult: 1
    decay_mult: 1
  }
  param {
    lr_mult: 2
    decay_mult: 0
  }
  convolution_param {
    num_output: 288
    pad: 1
    kernel_size: 3
    weight_filler {
      type: "xavier"
    }
    bias_filler {
      type: "constant"
      value: 0.2
    }
  }
}
layer {
  name: "inception_4d/relu_3x3"
  type: "ReLU"
  bottom: "inception_4d/3x3"
  top: "inception_4d/3x3"
}
layer {
  name: "inception_4d/5x5_reduce"
  type: "Convolution"
  bottom: "inception_4c/output"
  top: "inception_4d/5x5_reduce"
  param {
    lr_mult: 1
    decay_mult: 1
  }
  param {
    lr_mult: 2
    decay_mult: 0
  }
  convolution_param {
    num_output: 32
    kernel_size: 1
    weight_filler {
      type: "xavier"
    }
    bias_filler {
      type: "constant"
      value: 0.2
    }
  }
}
layer {
  name: "inception_4d/relu_5x5_reduce"
  type: "ReLU"
  bottom: "inception_4d/5x5_reduce"
  top: "inception_4d/5x5_reduce"
}
layer {
  name: "inception_4d/5x5"
  type: "Convolution"
  bottom: "inception_4d/5x5_reduce"
  top: "inception_4d/5x5"
  param {
    lr_mult: 1
    decay_mult: 1
  }
  param {
    lr_mult: 2
    decay_mult: 0
  }
  convolution_param {
    num_output: 64
    pad: 2
    kernel_size: 5
    weight_filler {
      type: "xavier"
    }
    bias_filler {
      type: "constant"
      value: 0.2
    }
  }
}
layer {
  name: "inception_4d/relu_5x5"
  type: "ReLU"
  bottom: "inception_4d/5x5"
  top: "inception_4d/5x5"
}
layer {
  name: "inception_4d/pool"
  type: "Pooling"
  bottom: "inception_4c/output"
  top: "inception_4d/pool"
  pooling_param {
    pool: MAX
    kernel_size: 3
    stride: 1
    pad: 1
  }
}
layer {
  name: "inception_4d/pool_proj"
  type: "Convolution"
  bottom: "inception_4d/pool"
  top: "inception_4d/pool_proj"
  param {
    lr_mult: 1
    decay_mult: 1
  }
  param {
    lr_mult: 2
    decay_mult: 0
  }
  convolution_param {
    num_output: 64
    kernel_size: 1
    weight_filler {
      type: "xavier"
    }
    bias_filler {
      type: "constant"
      value: 0.2
    }
  }
}
layer {
  name: "inception_4d/relu_pool_proj"
  type: "ReLU"
  bottom: "inception_4d/pool_proj"
  top: "inception_4d/pool_proj"
}
layer {
  name: "inception_4d/output"
  type: "Concat"
  bottom: "inception_4d/1x1"
  bottom: "inception_4d/3x3"
  bottom: "inception_4d/5x5"
  bottom: "inception_4d/pool_proj"
  top: "inception_4d/output"
}
layer {
  name: "loss2/ave_pool"
  type: "Pooling"
  bottom: "inception_4d/output"
  top: "loss2/ave_pool"
  pooling_param {
    pool: AVE
    kernel_size: 5
    stride: 3
  }
}
layer {
  name: "loss2/conv"
  type: "Convolution"
  bottom: "loss2/ave_pool"
  top: "loss2/conv"
  param {
    lr_mult: 1
    decay_mult: 1
  }
  param {
    lr_mult: 2
    decay_mult: 0
  }
  convolution_param {
    num_output: 128
    kernel_size: 1
    weight_filler {
      type: "xavier"
    }
    bias_filler {
      type: "constant"
      value: 0.2
    }
  }
}
layer {
  name: "loss2/relu_conv"
  type: "ReLU"
  bottom: "loss2/conv"
  top: "loss2/conv"
}
layer {
  name: "loss2/fc"
  type: "InnerProduct"
  bottom: "loss2/conv"
  top: "loss2/fc"
  param {
    lr_mult: 1
    decay_mult: 1
  }
  param {
    lr_mult: 2
    decay_mult: 0
  }
  inner_product_param {
    num_output: 1024
    weight_filler {
      type: "xavier"
    }
    bias_filler {
      type: "constant"
      value: 0.2
    }
  }
}
layer {
  name: "loss2/relu_fc"
  type: "ReLU"
  bottom: "loss2/fc"
  top: "loss2/fc"
}
layer {
  name: "loss2/drop_fc"
  type: "Dropout"
  bottom: "loss2/fc"
  top: "loss2/fc"
  dropout_param {
    dropout_ratio: 0.7
  }
}
layer {
  name: "loss2/classifier_kaggle"
  type: "InnerProduct"
  bottom: "loss2/fc"
  top: "loss2/classifier_kaggle"
  param {
    lr_mult: 1
    decay_mult: 1
  }
  param {
    lr_mult: 2
    decay_mult: 0
  }
  inner_product_param {
    num_output: 447
    weight_filler {
      type: "xavier"
    }
    bias_filler {
      type: "constant"
      value: 0
    }
  }
}
layer {
  name: "loss2/loss"
  type: "SoftmaxWithLoss"
  bottom: "loss2/classifier_kaggle"
  bottom: "label"
  top: "loss2/loss1"
  loss_weight: 0.3
}
layer {
  name: "inception_4e/1x1"
  type: "Convolution"
  bottom: "inception_4d/output"
  top: "inception_4e/1x1"
  param {
    lr_mult: 1
    decay_mult: 1
  }
  param {
    lr_mult: 2
    decay_mult: 0
  }
  convolution_param {
    num_output: 256
    kernel_size: 1
    weight_filler {
      type: "xavier"
    }
    bias_filler {
      type: "constant"
      value: 0.2
    }
  }
}
layer {
  name: "inception_4e/relu_1x1"
  type: "ReLU"
  bottom: "inception_4e/1x1"
  top: "inception_4e/1x1"
}
layer {
  name: "inception_4e/3x3_reduce"
  type: "Convolution"
  bottom: "inception_4d/output"
  top: "inception_4e/3x3_reduce"
  param {
    lr_mult: 1
    decay_mult: 1
  }
  param {
    lr_mult: 2
    decay_mult: 0
  }
  convolution_param {
    num_output: 160
    kernel_size: 1
    weight_filler {
      type: "xavier"
    }
    bias_filler {
      type: "constant"
      value: 0.2
    }
  }
}
layer {
  name: "inception_4e/relu_3x3_reduce"
  type: "ReLU"
  bottom: "inception_4e/3x3_reduce"
  top: "inception_4e/3x3_reduce"
}
layer {
  name: "inception_4e/3x3"
  type: "Convolution"
  bottom: "inception_4e/3x3_reduce"
  top: "inception_4e/3x3"
  param {
    lr_mult: 1
    decay_mult: 1
  }
  param {
    lr_mult: 2
    decay_mult: 0
  }
  convolution_param {
    num_output: 320
    pad: 1
    kernel_size: 3
    weight_filler {
      type: "xavier"
    }
    bias_filler {
      type: "constant"
      value: 0.2
    }
  }
}
layer {
  name: "inception_4e/relu_3x3"
  type: "ReLU"
  bottom: "inception_4e/3x3"
  top: "inception_4e/3x3"
}
layer {
  name: "inception_4e/5x5_reduce"
  type: "Convolution"
  bottom: "inception_4d/output"
  top: "inception_4e/5x5_reduce"
  param {
    lr_mult: 1
    decay_mult: 1
  }
  param {
    lr_mult: 2
    decay_mult: 0
  }
  convolution_param {
    num_output: 32
    kernel_size: 1
    weight_filler {
      type: "xavier"
    }
    bias_filler {
      type: "constant"
      value: 0.2
    }
  }
}
layer {
  name: "inception_4e/relu_5x5_reduce"
  type: "ReLU"
  bottom: "inception_4e/5x5_reduce"
  top: "inception_4e/5x5_reduce"
}
layer {
  name: "inception_4e/5x5"
  type: "Convolution"
  bottom: "inception_4e/5x5_reduce"
  top: "inception_4e/5x5"
  param {
    lr_mult: 1
    decay_mult: 1
  }
  param {
    lr_mult: 2
    decay_mult: 0
  }
  convolution_param {
    num_output: 128
    pad: 2
    kernel_size: 5
    weight_filler {
      type: "xavier"
    }
    bias_filler {
      type: "constant"
      value: 0.2
    }
  }
}
layer {
  name: "inception_4e/relu_5x5"
  type: "ReLU"
  bottom: "inception_4e/5x5"
  top: "inception_4e/5x5"
}
layer {
  name: "inception_4e/pool"
  type: "Pooling"
  bottom: "inception_4d/output"
  top: "inception_4e/po
I0105 14:43:06.765686  4844 layer_factory.hpp:74] Creating layer data
I0105 14:43:06.765724  4844 net.cpp:84] Creating Layer data
I0105 14:43:06.765735  4844 net.cpp:338] data -> data
I0105 14:43:06.765818  4844 net.cpp:338] data -> label
I0105 14:43:06.765831  4844 net.cpp:113] Setting up data
I0105 14:43:06.765841  4844 image_data_layer.cpp:36] Opening file /home/coldmanck/kaggle/label_train_full_resize_rotated.txt
I0105 14:43:06.785099  4844 image_data_layer.cpp:46] Shuffling data
I0105 14:43:06.786509  4844 image_data_layer.cpp:51] A total of 4235 images.
I0105 14:43:06.818267  4844 image_data_layer.cpp:80] output data size: 80,3,224,224
I0105 14:43:07.896001  4844 net.cpp:120] Top shape: 80 3 224 224 (12042240)
I0105 14:43:07.896054  4844 net.cpp:120] Top shape: 80 (80)
I0105 14:43:07.896071  4844 layer_factory.hpp:74] Creating layer label_data_1_split
I0105 14:43:07.896106  4844 net.cpp:84] Creating Layer label_data_1_split
I0105 14:43:07.896117  4844 net.cpp:380] label_data_1_split <- label
I0105 14:43:07.896142  4844 net.cpp:338] label_data_1_split -> label_data_1_split_0
I0105 14:43:07.896177  4844 net.cpp:338] label_data_1_split -> label_data_1_split_1
I0105 14:43:07.896210  4844 net.cpp:338] label_data_1_split -> label_data_1_split_2
I0105 14:43:07.896222  4844 net.cpp:113] Setting up label_data_1_split
I0105 14:43:07.896237  4844 net.cpp:120] Top shape: 80 (80)
I0105 14:43:07.896246  4844 net.cpp:120] Top shape: 80 (80)
I0105 14:43:07.896255  4844 net.cpp:120] Top shape: 80 (80)
I0105 14:43:07.896262  4844 layer_factory.hpp:74] Creating layer conv1/7x7_s2
I0105 14:43:07.896282  4844 net.cpp:84] Creating Layer conv1/7x7_s2
I0105 14:43:07.896291  4844 net.cpp:380] conv1/7x7_s2 <- data
I0105 14:43:07.896304  4844 net.cpp:338] conv1/7x7_s2 -> conv1/7x7_s2
I0105 14:43:07.896319  4844 net.cpp:113] Setting up conv1/7x7_s2
I0105 14:43:08.210017  4844 net.cpp:120] Top shape: 80 64 112 112 (64225280)
I0105 14:43:08.210094  4844 layer_factory.hpp:74] Creating layer conv1/relu_7x7
I0105 14:43:08.210111  4844 net.cpp:84] Creating Layer conv1/relu_7x7
I0105 14:43:08.210119  4844 net.cpp:380] conv1/relu_7x7 <- conv1/7x7_s2
I0105 14:43:08.210134  4844 net.cpp:327] conv1/relu_7x7 -> conv1/7x7_s2 (in-place)
I0105 14:43:08.210147  4844 net.cpp:113] Setting up conv1/relu_7x7
I0105 14:43:08.224117  4844 net.cpp:120] Top shape: 80 64 112 112 (64225280)
I0105 14:43:08.224164  4844 layer_factory.hpp:74] Creating layer pool1/3x3_s2
I0105 14:43:08.224187  4844 net.cpp:84] Creating Layer pool1/3x3_s2
I0105 14:43:08.224196  4844 net.cpp:380] pool1/3x3_s2 <- conv1/7x7_s2
I0105 14:43:08.224213  4844 net.cpp:338] pool1/3x3_s2 -> pool1/3x3_s2
I0105 14:43:08.224227  4844 net.cpp:113] Setting up pool1/3x3_s2
I0105 14:43:08.224334  4844 net.cpp:120] Top shape: 80 64 56 56 (16056320)
I0105 14:43:08.224344  4844 layer_factory.hpp:74] Creating layer pool1/norm1
I0105 14:43:08.224357  4844 net.cpp:84] Creating Layer pool1/norm1
I0105 14:43:08.224364  4844 net.cpp:380] pool1/norm1 <- pool1/3x3_s2
I0105 14:43:08.224372  4844 net.cpp:338] pool1/norm1 -> pool1/norm1
I0105 14:43:08.224385  4844 net.cpp:113] Setting up pool1/norm1
I0105 14:43:08.224395  4844 net.cpp:120] Top shape: 80 64 56 56 (16056320)
I0105 14:43:08.224402  4844 layer_factory.hpp:74] Creating layer conv2/3x3_reduce
I0105 14:43:08.224416  4844 net.cpp:84] Creating Layer conv2/3x3_reduce
I0105 14:43:08.224422  4844 net.cpp:380] conv2/3x3_reduce <- pool1/norm1
I0105 14:43:08.224431  4844 net.cpp:338] conv2/3x3_reduce -> conv2/3x3_reduce
I0105 14:43:08.224444  4844 net.cpp:113] Setting up conv2/3x3_reduce
I0105 14:43:08.226827  4844 net.cpp:120] Top shape: 80 64 56 56 (16056320)
I0105 14:43:08.226860  4844 layer_factory.hpp:74] Creating layer conv2/relu_3x3_reduce
I0105 14:43:08.226873  4844 net.cpp:84] Creating Layer conv2/relu_3x3_reduce
I0105 14:43:08.226881  4844 net.cpp:380] conv2/relu_3x3_reduce <- conv2/3x3_reduce
I0105 14:43:08.226889  4844 net.cpp:327] conv2/relu_3x3_reduce -> conv2/3x3_reduce (in-place)
I0105 14:43:08.226899  4844 net.cpp:113] Setting up conv2/relu_3x3_reduce
I0105 14:43:08.226974  4844 net.cpp:120] Top shape: 80 64 56 56 (16056320)
I0105 14:43:08.226982  4844 layer_factory.hpp:74] Creating layer conv2/3x3
I0105 14:43:08.226996  4844 net.cpp:84] Creating Layer conv2/3x3
I0105 14:43:08.227002  4844 net.cpp:380] conv2/3x3 <- conv2/3x3_reduce
I0105 14:43:08.227013  4844 net.cpp:338] conv2/3x3 -> conv2/3x3
I0105 14:43:08.227023  4844 net.cpp:113] Setting up conv2/3x3
I0105 14:43:08.229424  4844 net.cpp:120] Top shape: 80 192 56 56 (48168960)
I0105 14:43:08.229486  4844 layer_factory.hpp:74] Creating layer conv2/relu_3x3
I0105 14:43:08.229501  4844 net.cpp:84] Creating Layer conv2/relu_3x3
I0105 14:43:08.229508  4844 net.cpp:380] conv2/relu_3x3 <- conv2/3x3
I0105 14:43:08.229519  4844 net.cpp:327] conv2/relu_3x3 -> conv2/3x3 (in-place)
I0105 14:43:08.229533  4844 net.cpp:113] Setting up conv2/relu_3x3
I0105 14:43:08.230924  4844 net.cpp:120] Top shape: 80 192 56 56 (48168960)
I0105 14:43:08.230964  4844 layer_factory.hpp:74] Creating layer conv2/norm2
I0105 14:43:08.230983  4844 net.cpp:84] Creating Layer conv2/norm2
I0105 14:43:08.231008  4844 net.cpp:380] conv2/norm2 <- conv2/3x3
I0105 14:43:08.231035  4844 net.cpp:338] conv2/norm2 -> conv2/norm2
I0105 14:43:08.231052  4844 net.cpp:113] Setting up conv2/norm2
I0105 14:43:08.231066  4844 net.cpp:120] Top shape: 80 192 56 56 (48168960)
I0105 14:43:08.231072  4844 layer_factory.hpp:74] Creating layer pool2/3x3_s2
I0105 14:43:08.231087  4844 net.cpp:84] Creating Layer pool2/3x3_s2
I0105 14:43:08.231093  4844 net.cpp:380] pool2/3x3_s2 <- conv2/norm2
I0105 14:43:08.231103  4844 net.cpp:338] pool2/3x3_s2 -> pool2/3x3_s2
I0105 14:43:08.231113  4844 net.cpp:113] Setting up pool2/3x3_s2
I0105 14:43:08.231223  4844 net.cpp:120] Top shape: 80 192 28 28 (12042240)
I0105 14:43:08.231238  4844 layer_factory.hpp:74] Creating layer pool2/3x3_s2_pool2/3x3_s2_0_split
I0105 14:43:08.231248  4844 net.cpp:84] Creating Layer pool2/3x3_s2_pool2/3x3_s2_0_split
I0105 14:43:08.231256  4844 net.cpp:380] pool2/3x3_s2_pool2/3x3_s2_0_split <- pool2/3x3_s2
I0105 14:43:08.231264  4844 net.cpp:338] pool2/3x3_s2_pool2/3x3_s2_0_split -> pool2/3x3_s2_pool2/3x3_s2_0_split_0
I0105 14:43:08.231276  4844 net.cpp:338] pool2/3x3_s2_pool2/3x3_s2_0_split -> pool2/3x3_s2_pool2/3x3_s2_0_split_1
I0105 14:43:08.231287  4844 net.cpp:338] pool2/3x3_s2_pool2/3x3_s2_0_split -> pool2/3x3_s2_pool2/3x3_s2_0_split_2
I0105 14:43:08.231295  4844 net.cpp:338] pool2/3x3_s2_pool2/3x3_s2_0_split -> pool2/3x3_s2_pool2/3x3_s2_0_split_3
I0105 14:43:08.231304  4844 net.cpp:113] Setting up pool2/3x3_s2_pool2/3x3_s2_0_split
I0105 14:43:08.231315  4844 net.cpp:120] Top shape: 80 192 28 28 (12042240)
I0105 14:43:08.231323  4844 net.cpp:120] Top shape: 80 192 28 28 (12042240)
I0105 14:43:08.231330  4844 net.cpp:120] Top shape: 80 192 28 28 (12042240)
I0105 14:43:08.231338  4844 net.cpp:120] Top shape: 80 192 28 28 (12042240)
I0105 14:43:08.231344  4844 layer_factory.hpp:74] Creating layer inception_3a/1x1
I0105 14:43:08.231361  4844 net.cpp:84] Creating Layer inception_3a/1x1
I0105 14:43:08.231369  4844 net.cpp:380] inception_3a/1x1 <- pool2/3x3_s2_pool2/3x3_s2_0_split_0
I0105 14:43:08.231380  4844 net.cpp:338] inception_3a/1x1 -> inception_3a/1x1
I0105 14:43:08.231398  4844 net.cpp:113] Setting up inception_3a/1x1
I0105 14:43:08.232669  4844 net.cpp:120] Top shape: 80 64 28 28 (4014080)
I0105 14:43:08.232705  4844 layer_factory.hpp:74] Creating layer inception_3a/relu_1x1
I0105 14:43:08.232717  4844 net.cpp:84] Creating Layer inception_3a/relu_1x1
I0105 14:43:08.232723  4844 net.cpp:380] inception_3a/relu_1x1 <- inception_3a/1x1
I0105 14:43:08.232734  4844 net.cpp:327] inception_3a/relu_1x1 -> inception_3a/1x1 (in-place)
I0105 14:43:08.232744  4844 net.cpp:113] Setting up inception_3a/relu_1x1
I0105 14:43:08.232831  4844 net.cpp:120] Top shape: 80 64 28 28 (4014080)
I0105 14:43:08.232839  4844 layer_factory.hpp:74] Creating layer inception_3a/3x3_reduce
I0105 14:43:08.232883  4844 net.cpp:84] Creating Layer inception_3a/3x3_reduce
I0105 14:43:08.232892  4844 net.cpp:380] inception_3a/3x3_reduce <- pool2/3x3_s2_pool2/3x3_s2_0_split_1
I0105 14:43:08.232900  4844 net.cpp:338] inception_3a/3x3_reduce -> inception_3a/3x3_reduce
I0105 14:43:08.232913  4844 net.cpp:113] Setting up inception_3a/3x3_reduce
I0105 14:43:08.246016  4844 net.cpp:120] Top shape: 80 96 28 28 (6021120)
I0105 14:43:08.246083  4844 layer_factory.hpp:74] Creating layer inception_3a/relu_3x3_reduce
I0105 14:43:08.246105  4844 net.cpp:84] Creating Layer inception_3a/relu_3x3_reduce
I0105 14:43:08.246115  4844 net.cpp:380] inception_3a/relu_3x3_reduce <- inception_3a/3x3_reduce
I0105 14:43:08.246127  4844 net.cpp:327] inception_3a/relu_3x3_reduce -> inception_3a/3x3_reduce (in-place)
I0105 14:43:08.246142  4844 net.cpp:113] Setting up inception_3a/relu_3x3_reduce
I0105 14:43:08.246235  4844 net.cpp:120] Top shape: 80 96 28 28 (6021120)
I0105 14:43:08.246247  4844 layer_factory.hpp:74] Creating layer inception_3a/3x3
I0105 14:43:08.246263  4844 net.cpp:84] Creating Layer inception_3a/3x3
I0105 14:43:08.246271  4844 net.cpp:380] inception_3a/3x3 <- inception_3a/3x3_reduce
I0105 14:43:08.246299  4844 net.cpp:338] inception_3a/3x3 -> inception_3a/3x3
I0105 14:43:08.246330  4844 net.cpp:113] Setting up inception_3a/3x3
I0105 14:43:08.250083  4844 net.cpp:120] Top shape: 80 128 28 28 (8028160)
I0105 14:43:08.250134  4844 layer_factory.hpp:74] Creating layer inception_3a/relu_3x3
I0105 14:43:08.250156  4844 net.cpp:84] Creating Layer inception_3a/relu_3x3
I0105 14:43:08.250167  4844 net.cpp:380] inception_3a/relu_3x3 <- inception_3a/3x3
I0105 14:43:08.250180  4844 net.cpp:327] inception_3a/relu_3x3 -> inception_3a/3x3 (in-place)
I0105 14:43:08.250192  4844 net.cpp:113] Setting up inception_3a/relu_3x3
I0105 14:43:08.253887  4844 net.cpp:120] Top shape: 80 128 28 28 (8028160)
I0105 14:43:08.253926  4844 layer_factory.hpp:74] Creating layer inception_3a/5x5_reduce
I0105 14:43:08.253950  4844 net.cpp:84] Creating Layer inception_3a/5x5_reduce
I0105 14:43:08.253962  4844 net.cpp:380] inception_3a/5x5_reduce <- pool2/3x3_s2_pool2/3x3_s2_0_split_2
I0105 14:43:08.253981  4844 net.cpp:338] inception_3a/5x5_reduce -> inception_3a/5x5_reduce
I0105 14:43:08.254005  4844 net.cpp:113] Setting up inception_3a/5x5_reduce
I0105 14:43:08.255817  4844 net.cpp:120] Top shape: 80 16 28 28 (1003520)
I0105 14:43:08.255846  4844 layer_factory.hpp:74] Creating layer inception_3a/relu_5x5_reduce
I0105 14:43:08.255867  4844 net.cpp:84] Creating Layer inception_3a/relu_5x5_reduce
I0105 14:43:08.255877  4844 net.cpp:380] inception_3a/relu_5x5_reduce <- inception_3a/5x5_reduce
I0105 14:43:08.255889  4844 net.cpp:327] inception_3a/relu_5x5_reduce -> inception_3a/5x5_reduce (in-place)
I0105 14:43:08.255903  4844 net.cpp:113] Setting up inception_3a/relu_5x5_reduce
I0105 14:43:08.256026  4844 net.cpp:120] Top shape: 80 16 28 28 (1003520)
I0105 14:43:08.256045  4844 layer_factory.hpp:74] Creating layer inception_3a/5x5
I0105 14:43:08.256065  4844 net.cpp:84] Creating Layer inception_3a/5x5
I0105 14:43:08.256078  4844 net.cpp:380] inception_3a/5x5 <- inception_3a/5x5_reduce
I0105 14:43:08.256093  4844 net.cpp:338] inception_3a/5x5 -> inception_3a/5x5
I0105 14:43:08.256108  4844 net.cpp:113] Setting up inception_3a/5x5
I0105 14:43:08.290171  4844 net.cpp:120] Top shape: 80 32 28 28 (2007040)
I0105 14:43:08.290225  4844 layer_factory.hpp:74] Creating layer inception_3a/relu_5x5
I0105 14:43:08.290246  4844 net.cpp:84] Creating Layer inception_3a/relu_5x5
I0105 14:43:08.290256  4844 net.cpp:380] inception_3a/relu_5x5 <- inception_3a/5x5
I0105 14:43:08.290273  4844 net.cpp:327] inception_3a/relu_5x5 -> inception_3a/5x5 (in-place)
I0105 14:43:08.290288  4844 net.cpp:113] Setting up inception_3a/relu_5x5
I0105 14:43:08.290387  4844 net.cpp:120] Top shape: 80 32 28 28 (2007040)
I0105 14:43:08.290401  4844 layer_factory.hpp:74] Creating layer inception_3a/pool
I0105 14:43:08.290411  4844 layer_factory.cpp:56] CUDNN does not support padding or multiple tops. Using Caffe's own pooling layer.
I0105 14:43:08.290423  4844 net.cpp:84] Creating Layer inception_3a/pool
I0105 14:43:08.290432  4844 net.cpp:380] inception_3a/pool <- pool2/3x3_s2_pool2/3x3_s2_0_split_3
I0105 14:43:08.290446  4844 net.cpp:338] inception_3a/pool -> inception_3a/pool
I0105 14:43:08.290459  4844 net.cpp:113] Setting up inception_3a/pool
I0105 14:43:08.290473  4844 net.cpp:120] Top shape: 80 192 28 28 (12042240)
I0105 14:43:08.290482  4844 layer_factory.hpp:74] Creating layer inception_3a/pool_proj
I0105 14:43:08.290495  4844 net.cpp:84] Creating Layer inception_3a/pool_proj
I0105 14:43:08.290503  4844 net.cpp:380] inception_3a/pool_proj <- inception_3a/pool
I0105 14:43:08.290516  4844 net.cpp:338] inception_3a/pool_proj -> inception_3a/pool_proj
I0105 14:43:08.290529  4844 net.cpp:113] Setting up inception_3a/pool_proj
I0105 14:43:08.295948  4844 net.cpp:120] Top shape: 80 32 28 28 (2007040)
I0105 14:43:08.295989  4844 layer_factory.hpp:74] Creating layer inception_3a/relu_pool_proj
I0105 14:43:08.296005  4844 net.cpp:84] Creating Layer inception_3a/relu_pool_proj
I0105 14:43:08.296012  4844 net.cpp:380] inception_3a/relu_pool_proj <- inception_3a/pool_proj
I0105 14:43:08.296042  4844 net.cpp:327] inception_3a/relu_pool_proj -> inception_3a/pool_proj (in-place)
I0105 14:43:08.296068  4844 net.cpp:113] Setting up inception_3a/relu_pool_proj
I0105 14:43:08.296171  4844 net.cpp:120] Top shape: 80 32 28 28 (2007040)
I0105 14:43:08.296182  4844 layer_factory.hpp:74] Creating layer inception_3a/output
I0105 14:43:08.296196  4844 net.cpp:84] Creating Layer inception_3a/output
I0105 14:43:08.296205  4844 net.cpp:380] inception_3a/output <- inception_3a/1x1
I0105 14:43:08.296213  4844 net.cpp:380] inception_3a/output <- inception_3a/3x3
I0105 14:43:08.296222  4844 net.cpp:380] inception_3a/output <- inception_3a/5x5
I0105 14:43:08.296231  4844 net.cpp:380] inception_3a/output <- inception_3a/pool_proj
I0105 14:43:08.296239  4844 net.cpp:338] inception_3a/output -> inception_3a/output
I0105 14:43:08.296250  4844 net.cpp:113] Setting up inception_3a/output
I0105 14:43:08.296263  4844 net.cpp:120] Top shape: 80 256 28 28 (16056320)
I0105 14:43:08.296272  4844 layer_factory.hpp:74] Creating layer inception_3a/output_inception_3a/output_0_split
I0105 14:43:08.296284  4844 net.cpp:84] Creating Layer inception_3a/output_inception_3a/output_0_split
I0105 14:43:08.296291  4844 net.cpp:380] inception_3a/output_inception_3a/output_0_split <- inception_3a/output
I0105 14:43:08.296301  4844 net.cpp:338] inception_3a/output_inception_3a/output_0_split -> inception_3a/output_inception_3a/output_0_split_0
I0105 14:43:08.296314  4844 net.cpp:338] inception_3a/output_inception_3a/output_0_split -> inception_3a/output_inception_3a/output_0_split_1
I0105 14:43:08.296324  4844 net.cpp:338] inception_3a/output_inception_3a/output_0_split -> inception_3a/output_inception_3a/output_0_split_2
I0105 14:43:08.296334  4844 net.cpp:338] inception_3a/output_inception_3a/output_0_split -> inception_3a/output_inception_3a/output_0_split_3
I0105 14:43:08.296344  4844 net.cpp:113] Setting up inception_3a/output_inception_3a/output_0_split
I0105 14:43:08.296356  4844 net.cpp:120] Top shape: 80 256 28 28 (16056320)
I0105 14:43:08.296365  4844 net.cpp:120] Top shape: 80 256 28 28 (16056320)
I0105 14:43:08.296373  4844 net.cpp:120] Top shape: 80 256 28 28 (16056320)
I0105 14:43:08.296381  4844 net.cpp:120] Top shape: 80 256 28 28 (16056320)
I0105 14:43:08.296391  4844 layer_factory.hpp:74] Creating layer inception_3b/1x1
I0105 14:43:08.296406  4844 net.cpp:84] Creating Layer inception_3b/1x1
I0105 14:43:08.296412  4844 net.cpp:380] inception_3b/1x1 <- inception_3a/output_inception_3a/output_0_split_0
I0105 14:43:08.296425  4844 net.cpp:338] inception_3b/1x1 -> inception_3b/1x1
I0105 14:43:08.296437  4844 net.cpp:113] Setting up inception_3b/1x1
I0105 14:43:08.297655  4844 net.cpp:120] Top shape: 80 128 28 28 (8028160)
I0105 14:43:08.297679  4844 layer_factory.hpp:74] Creating layer inception_3b/relu_1x1
I0105 14:43:08.297693  4844 net.cpp:84] Creating Layer inception_3b/relu_1x1
I0105 14:43:08.297701  4844 net.cpp:380] inception_3b/relu_1x1 <- inception_3b/1x1
I0105 14:43:08.297711  4844 net.cpp:327] inception_3b/relu_1x1 -> inception_3b/1x1 (in-place)
I0105 14:43:08.297722  4844 net.cpp:113] Setting up inception_3b/relu_1x1
I0105 14:43:08.298116  4844 net.cpp:120] Top shape: 80 128 28 28 (8028160)
I0105 14:43:08.298131  4844 layer_factory.hpp:74] Creating layer inception_3b/3x3_reduce
I0105 14:43:08.298148  4844 net.cpp:84] Creating Layer inception_3b/3x3_reduce
I0105 14:43:08.298157  4844 net.cpp:380] inception_3b/3x3_reduce <- inception_3a/output_inception_3a/output_0_split_1
I0105 14:43:08.298171  4844 net.cpp:338] inception_3b/3x3_reduce -> inception_3b/3x3_reduce
I0105 14:43:08.298184  4844 net.cpp:113] Setting up inception_3b/3x3_reduce
I0105 14:43:08.299237  4844 net.cpp:120] Top shape: 80 128 28 28 (8028160)
I0105 14:43:08.299258  4844 layer_factory.hpp:74] Creating layer inception_3b/relu_3x3_reduce
I0105 14:43:08.299269  4844 net.cpp:84] Creating Layer inception_3b/relu_3x3_reduce
I0105 14:43:08.299278  4844 net.cpp:380] inception_3b/relu_3x3_reduce <- inception_3b/3x3_reduce
I0105 14:43:08.299288  4844 net.cpp:327] inception_3b/relu_3x3_reduce -> inception_3b/3x3_reduce (in-place)
I0105 14:43:08.299337  4844 net.cpp:113] Setting up inception_3b/relu_3x3_reduce
I0105 14:43:08.299440  4844 net.cpp:120] Top shape: 80 128 28 28 (8028160)
I0105 14:43:08.299453  4844 layer_factory.hpp:74] Creating layer inception_3b/3x3
I0105 14:43:08.299474  4844 net.cpp:84] Creating Layer inception_3b/3x3
I0105 14:43:08.299482  4844 net.cpp:380] inception_3b/3x3 <- inception_3b/3x3_reduce
I0105 14:43:08.299494  4844 net.cpp:338] inception_3b/3x3 -> inception_3b/3x3
I0105 14:43:08.299506  4844 net.cpp:113] Setting up inception_3b/3x3
I0105 14:43:08.314525  4844 net.cpp:120] Top shape: 80 192 28 28 (12042240)
I0105 14:43:08.314579  4844 layer_factory.hpp:74] Creating layer inception_3b/relu_3x3
I0105 14:43:08.314606  4844 net.cpp:84] Creating Layer inception_3b/relu_3x3
I0105 14:43:08.314620  4844 net.cpp:380] inception_3b/relu_3x3 <- inception_3b/3x3
I0105 14:43:08.314636  4844 net.cpp:327] inception_3b/relu_3x3 -> inception_3b/3x3 (in-place)
I0105 14:43:08.314653  4844 net.cpp:113] Setting up inception_3b/relu_3x3
I0105 14:43:08.314769  4844 net.cpp:120] Top shape: 80 192 28 28 (12042240)
I0105 14:43:08.314788  4844 layer_factory.hpp:74] Creating layer inception_3b/5x5_reduce
I0105 14:43:08.314810  4844 net.cpp:84] Creating Layer inception_3b/5x5_reduce
I0105 14:43:08.314821  4844 net.cpp:380] inception_3b/5x5_reduce <- inception_3a/output_inception_3a/output_0_split_2
I0105 14:43:08.314834  4844 net.cpp:338] inception_3b/5x5_reduce -> inception_3b/5x5_reduce
I0105 14:43:08.314851  4844 net.cpp:113] Setting up inception_3b/5x5_reduce
I0105 14:43:08.316058  4844 net.cpp:120] Top shape: 80 32 28 28 (2007040)
I0105 14:43:08.316084  4844 layer_factory.hpp:74] Creating layer inception_3b/relu_5x5_reduce
I0105 14:43:08.316097  4844 net.cpp:84] Creating Layer inception_3b/relu_5x5_reduce
I0105 14:43:08.316107  4844 net.cpp:380] inception_3b/relu_5x5_reduce <- inception_3b/5x5_reduce
I0105 14:43:08.316119  4844 net.cpp:327] inception_3b/relu_5x5_reduce -> inception_3b/5x5_reduce (in-place)
I0105 14:43:08.316133  4844 net.cpp:113] Setting up inception_3b/relu_5x5_reduce
I0105 14:43:08.316246  4844 net.cpp:120] Top shape: 80 32 28 28 (2007040)
I0105 14:43:08.316262  4844 layer_factory.hpp:74] Creating layer inception_3b/5x5
I0105 14:43:08.316279  4844 net.cpp:84] Creating Layer inception_3b/5x5
I0105 14:43:08.316288  4844 net.cpp:380] inception_3b/5x5 <- inception_3b/5x5_reduce
I0105 14:43:08.316304  4844 net.cpp:338] inception_3b/5x5 -> inception_3b/5x5
I0105 14:43:08.316330  4844 net.cpp:113] Setting up inception_3b/5x5
I0105 14:43:08.321877  4844 net.cpp:120] Top shape: 80 96 28 28 (6021120)
I0105 14:43:08.321913  4844 layer_factory.hpp:74] Creating layer inception_3b/relu_5x5
I0105 14:43:08.321928  4844 net.cpp:84] Creating Layer inception_3b/relu_5x5
I0105 14:43:08.321936  4844 net.cpp:380] inception_3b/relu_5x5 <- inception_3b/5x5
I0105 14:43:08.321948  4844 net.cpp:327] inception_3b/relu_5x5 -> inception_3b/5x5 (in-place)
I0105 14:43:08.321960  4844 net.cpp:113] Setting up inception_3b/relu_5x5
I0105 14:43:08.322721  4844 net.cpp:120] Top shape: 80 96 28 28 (6021120)
I0105 14:43:08.322736  4844 layer_factory.hpp:74] Creating layer inception_3b/pool
I0105 14:43:08.322746  4844 layer_factory.cpp:56] CUDNN does not support padding or multiple tops. Using Caffe's own pooling layer.
I0105 14:43:08.322756  4844 net.cpp:84] Creating Layer inception_3b/pool
I0105 14:43:08.322764  4844 net.cpp:380] inception_3b/pool <- inception_3a/output_inception_3a/output_0_split_3
I0105 14:43:08.322780  4844 net.cpp:338] inception_3b/pool -> inception_3b/pool
I0105 14:43:08.322794  4844 net.cpp:113] Setting up inception_3b/pool
I0105 14:43:08.322809  4844 net.cpp:120] Top shape: 80 256 28 28 (16056320)
I0105 14:43:08.322818  4844 layer_factory.hpp:74] Creating layer inception_3b/pool_proj
I0105 14:43:08.322834  4844 net.cpp:84] Creating Layer inception_3b/pool_proj
I0105 14:43:08.322841  4844 net.cpp:380] inception_3b/pool_proj <- inception_3b/pool
I0105 14:43:08.322852  4844 net.cpp:338] inception_3b/pool_proj -> inception_3b/pool_proj
I0105 14:43:08.322892  4844 net.cpp:113] Setting up inception_3b/pool_proj
I0105 14:43:08.324151  4844 net.cpp:120] Top shape: 80 64 28 28 (4014080)
I0105 14:43:08.324172  4844 layer_factory.hpp:74] Creating layer inception_3b/relu_pool_proj
I0105 14:43:08.324183  4844 net.cpp:84] Creating Layer inception_3b/relu_pool_proj
I0105 14:43:08.324192  4844 net.cpp:380] inception_3b/relu_pool_proj <- inception_3b/pool_proj
I0105 14:43:08.324204  4844 net.cpp:327] inception_3b/relu_pool_proj -> inception_3b/pool_proj (in-place)
I0105 14:43:08.324216  4844 net.cpp:113] Setting up inception_3b/relu_pool_proj
I0105 14:43:08.324321  4844 net.cpp:120] Top shape: 80 64 28 28 (4014080)
I0105 14:43:08.324332  4844 layer_factory.hpp:74] Creating layer inception_3b/output
I0105 14:43:08.324342  4844 net.cpp:84] Creating Layer inception_3b/output
I0105 14:43:08.324350  4844 net.cpp:380] inception_3b/output <- inception_3b/1x1
I0105 14:43:08.324359  4844 net.cpp:380] inception_3b/output <- inception_3b/3x3
I0105 14:43:08.324368  4844 net.cpp:380] inception_3b/output <- inception_3b/5x5
I0105 14:43:08.324376  4844 net.cpp:380] inception_3b/output <- inception_3b/pool_proj
I0105 14:43:08.324385  4844 net.cpp:338] inception_3b/output -> inception_3b/output
I0105 14:43:08.324395  4844 net.cpp:113] Setting up inception_3b/output
I0105 14:43:08.324409  4844 net.cpp:120] Top shape: 80 480 28 28 (30105600)
I0105 14:43:08.324416  4844 layer_factory.hpp:74] Creating layer pool3/3x3_s2
I0105 14:43:08.324430  4844 net.cpp:84] Creating Layer pool3/3x3_s2
I0105 14:43:08.324439  4844 net.cpp:380] pool3/3x3_s2 <- inception_3b/output
I0105 14:43:08.324448  4844 net.cpp:338] pool3/3x3_s2 -> pool3/3x3_s2
I0105 14:43:08.324460  4844 net.cpp:113] Setting up pool3/3x3_s2
I0105 14:43:08.324563  4844 net.cpp:120] Top shape: 80 480 14 14 (7526400)
I0105 14:43:08.324575  4844 layer_factory.hpp:74] Creating layer pool3/3x3_s2_pool3/3x3_s2_0_split
I0105 14:43:08.324586  4844 net.cpp:84] Creating Layer pool3/3x3_s2_pool3/3x3_s2_0_split
I0105 14:43:08.324594  4844 net.cpp:380] pool3/3x3_s2_pool3/3x3_s2_0_split <- pool3/3x3_s2
I0105 14:43:08.324604  4844 net.cpp:338] pool3/3x3_s2_pool3/3x3_s2_0_split -> pool3/3x3_s2_pool3/3x3_s2_0_split_0
I0105 14:43:08.324615  4844 net.cpp:338] pool3/3x3_s2_pool3/3x3_s2_0_split -> pool3/3x3_s2_pool3/3x3_s2_0_split_1
I0105 14:43:08.324625  4844 net.cpp:338] pool3/3x3_s2_pool3/3x3_s2_0_split -> pool3/3x3_s2_pool3/3x3_s2_0_split_2
I0105 14:43:08.324636  4844 net.cpp:338] pool3/3x3_s2_pool3/3x3_s2_0_split -> pool3/3x3_s2_pool3/3x3_s2_0_split_3
I0105 14:43:08.324645  4844 net.cpp:113] Setting up pool3/3x3_s2_pool3/3x3_s2_0_split
I0105 14:43:08.324657  4844 net.cpp:120] Top shape: 80 480 14 14 (7526400)
I0105 14:43:08.324666  4844 net.cpp:120] Top shape: 80 480 14 14 (7526400)
I0105 14:43:08.324674  4844 net.cpp:120] Top shape: 80 480 14 14 (7526400)
I0105 14:43:08.324683  4844 net.cpp:120] Top shape: 80 480 14 14 (7526400)
I0105 14:43:08.324690  4844 layer_factory.hpp:74] Creating layer inception_4a/1x1
I0105 14:43:08.324703  4844 net.cpp:84] Creating Layer inception_4a/1x1
I0105 14:43:08.324712  4844 net.cpp:380] inception_4a/1x1 <- pool3/3x3_s2_pool3/3x3_s2_0_split_0
I0105 14:43:08.324722  4844 net.cpp:338] inception_4a/1x1 -> inception_4a/1x1
I0105 14:43:08.324733  4844 net.cpp:113] Setting up inception_4a/1x1
I0105 14:43:08.332705  4844 net.cpp:120] Top shape: 80 192 14 14 (3010560)
I0105 14:43:08.332754  4844 layer_factory.hpp:74] Creating layer inception_4a/relu_1x1
I0105 14:43:08.332774  4844 net.cpp:84] Creating Layer inception_4a/relu_1x1
I0105 14:43:08.332785  4844 net.cpp:380] inception_4a/relu_1x1 <- inception_4a/1x1
I0105 14:43:08.332798  4844 net.cpp:327] inception_4a/relu_1x1 -> inception_4a/1x1 (in-place)
I0105 14:43:08.332813  4844 net.cpp:113] Setting up inception_4a/relu_1x1
I0105 14:43:08.333739  4844 net.cpp:120] Top shape: 80 192 14 14 (3010560)
I0105 14:43:08.333758  4844 layer_factory.hpp:74] Creating layer inception_4a/3x3_reduce
I0105 14:43:08.333781  4844 net.cpp:84] Creating Layer inception_4a/3x3_reduce
I0105 14:43:08.333804  4844 net.cpp:380] inception_4a/3x3_reduce <- pool3/3x3_s2_pool3/3x3_s2_0_split_1
I0105 14:43:08.333835  4844 net.cpp:338] inception_4a/3x3_reduce -> inception_4a/3x3_reduce
I0105 14:43:08.333850  4844 net.cpp:113] Setting up inception_4a/3x3_reduce
I0105 14:43:08.335259  4844 net.cpp:120] Top shape: 80 96 14 14 (1505280)
I0105 14:43:08.335294  4844 layer_factory.hpp:74] Creating layer inception_4a/relu_3x3_reduce
I0105 14:43:08.335314  4844 net.cpp:84] Creating Layer inception_4a/relu_3x3_reduce
I0105 14:43:08.335322  4844 net.cpp:380] inception_4a/relu_3x3_reduce <- inception_4a/3x3_reduce
I0105 14:43:08.335332  4844 net.cpp:327] inception_4a/relu_3x3_reduce -> inception_4a/3x3_reduce (in-place)
I0105 14:43:08.335343  4844 net.cpp:113] Setting up inception_4a/relu_3x3_reduce
I0105 14:43:08.335445  4844 net.cpp:120] Top shape: 80 96 14 14 (1505280)
I0105 14:43:08.335456  4844 layer_factory.hpp:74] Creating layer inception_4a/3x3
I0105 14:43:08.335470  4844 net.cpp:84] Creating Layer inception_4a/3x3
I0105 14:43:08.335477  4844 net.cpp:380] inception_4a/3x3 <- inception_4a/3x3_reduce
I0105 14:43:08.335489  4844 net.cpp:338] inception_4a/3x3 -> inception_4a/3x3
I0105 14:43:08.335501  4844 net.cpp:113] Setting up inception_4a/3x3
I0105 14:43:08.350567  4844 net.cpp:120] Top shape: 80 208 14 14 (3261440)
I0105 14:43:08.350613  4844 layer_factory.hpp:74] Creating layer inception_4a/relu_3x3
I0105 14:43:08.350630  4844 net.cpp:84] Creating Layer inception_4a/relu_3x3
I0105 14:43:08.350641  4844 net.cpp:380] inception_4a/relu_3x3 <- inception_4a/3x3
I0105 14:43:08.350656  4844 net.cpp:327] inception_4a/relu_3x3 -> inception_4a/3x3 (in-place)
I0105 14:43:08.350671  4844 net.cpp:113] Setting up inception_4a/relu_3x3
I0105 14:43:08.350775  4844 net.cpp:120] Top shape: 80 208 14 14 (3261440)
I0105 14:43:08.350785  4844 layer_factory.hpp:74] Creating layer inception_4a/5x5_reduce
I0105 14:43:08.350801  4844 net.cpp:84] Creating Layer inception_4a/5x5_reduce
I0105 14:43:08.350811  4844 net.cpp:380] inception_4a/5x5_reduce <- pool3/3x3_s2_pool3/3x3_s2_0_split_2
I0105 14:43:08.350824  4844 net.cpp:338] inception_4a/5x5_reduce -> inception_4a/5x5_reduce
I0105 14:43:08.350838  4844 net.cpp:113] Setting up inception_4a/5x5_reduce
I0105 14:43:08.351557  4844 net.cpp:120] Top shape: 80 16 14 14 (250880)
I0105 14:43:08.351578  4844 layer_factory.hpp:74] Creating layer inception_4a/relu_5x5_reduce
I0105 14:43:08.351589  4844 net.cpp:84] Creating Layer inception_4a/relu_5x5_reduce
I0105 14:43:08.351600  4844 net.cpp:380] inception_4a/relu_5x5_reduce <- inception_4a/5x5_reduce
I0105 14:43:08.351610  4844 net.cpp:327] inception_4a/relu_5x5_reduce -> inception_4a/5x5_reduce (in-place)
I0105 14:43:08.351622  4844 net.cpp:113] Setting up inception_4a/relu_5x5_reduce
I0105 14:43:08.351722  4844 net.cpp:120] Top shape: 80 16 14 14 (250880)
I0105 14:43:08.351732  4844 layer_factory.hpp:74] Creating layer inception_4a/5x5
I0105 14:43:08.351747  4844 net.cpp:84] Creating Layer inception_4a/5x5
I0105 14:43:08.351754  4844 net.cpp:380] inception_4a/5x5 <- inception_4a/5x5_reduce
I0105 14:43:08.351769  4844 net.cpp:338] inception_4a/5x5 -> inception_4a/5x5
I0105 14:43:08.351781  4844 net.cpp:113] Setting up inception_4a/5x5
I0105 14:43:08.352643  4844 net.cpp:120] Top shape: 80 48 14 14 (752640)
I0105 14:43:08.352663  4844 layer_factory.hpp:74] Creating layer inception_4a/relu_5x5
I0105 14:43:08.352675  4844 net.cpp:84] Creating Layer inception_4a/relu_5x5
I0105 14:43:08.352684  4844 net.cpp:380] inception_4a/relu_5x5 <- inception_4a/5x5
I0105 14:43:08.352695  4844 net.cpp:327] inception_4a/relu_5x5 -> inception_4a/5x5 (in-place)
I0105 14:43:08.352707  4844 net.cpp:113] Setting up inception_4a/relu_5x5
I0105 14:43:08.357172  4844 net.cpp:120] Top shape: 80 48 14 14 (752640)
I0105 14:43:08.357210  4844 layer_factory.hpp:74] Creating layer inception_4a/pool
I0105 14:43:08.357223  4844 layer_factory.cpp:56] CUDNN does not support padding or multiple tops. Using Caffe's own pooling layer.
I0105 14:43:08.357256  4844 net.cpp:84] Creating Layer inception_4a/pool
I0105 14:43:08.357282  4844 net.cpp:380] inception_4a/pool <- pool3/3x3_s2_pool3/3x3_s2_0_split_3
I0105 14:43:08.357300  4844 net.cpp:338] inception_4a/pool -> inception_4a/pool
I0105 14:43:08.357316  4844 net.cpp:113] Setting up inception_4a/pool
I0105 14:43:08.357331  4844 net.cpp:120] Top shape: 80 480 14 14 (7526400)
I0105 14:43:08.357339  4844 layer_factory.hpp:74] Creating layer inception_4a/pool_proj
I0105 14:43:08.357352  4844 net.cpp:84] Creating Layer inception_4a/pool_proj
I0105 14:43:08.357360  4844 net.cpp:380] inception_4a/pool_proj <- inception_4a/pool
I0105 14:43:08.357373  4844 net.cpp:338] inception_4a/pool_proj -> inception_4a/pool_proj
I0105 14:43:08.357386  4844 net.cpp:113] Setting up inception_4a/pool_proj
I0105 14:43:08.358611  4844 net.cpp:120] Top shape: 80 64 14 14 (1003520)
I0105 14:43:08.358634  4844 layer_factory.hpp:74] Creating layer inception_4a/relu_pool_proj
I0105 14:43:08.358647  4844 net.cpp:84] Creating Layer inception_4a/relu_pool_proj
I0105 14:43:08.358656  4844 net.cpp:380] inception_4a/relu_pool_proj <- inception_4a/pool_proj
I0105 14:43:08.358666  4844 net.cpp:327] inception_4a/relu_pool_proj -> inception_4a/pool_proj (in-place)
I0105 14:43:08.358677  4844 net.cpp:113] Setting up inception_4a/relu_pool_proj
I0105 14:43:08.358780  4844 net.cpp:120] Top shape: 80 64 14 14 (1003520)
I0105 14:43:08.358790  4844 layer_factory.hpp:74] Creating layer inception_4a/output
I0105 14:43:08.358801  4844 net.cpp:84] Creating Layer inception_4a/output
I0105 14:43:08.358809  4844 net.cpp:380] inception_4a/output <- inception_4a/1x1
I0105 14:43:08.358819  4844 net.cpp:380] inception_4a/output <- inception_4a/3x3
I0105 14:43:08.358827  4844 net.cpp:380] inception_4a/output <- inception_4a/5x5
I0105 14:43:08.358835  4844 net.cpp:380] inception_4a/output <- inception_4a/pool_proj
I0105 14:43:08.358847  4844 net.cpp:338] inception_4a/output -> inception_4a/output
I0105 14:43:08.358858  4844 net.cpp:113] Setting up inception_4a/output
I0105 14:43:08.358871  4844 net.cpp:120] Top shape: 80 512 14 14 (8028160)
I0105 14:43:08.358880  4844 layer_factory.hpp:74] Creating layer inception_4a/output_inception_4a/output_0_split
I0105 14:43:08.358891  4844 net.cpp:84] Creating Layer inception_4a/output_inception_4a/output_0_split
I0105 14:43:08.358898  4844 net.cpp:380] inception_4a/output_inception_4a/output_0_split <- inception_4a/output
I0105 14:43:08.358908  4844 net.cpp:338] inception_4a/output_inception_4a/output_0_split -> inception_4a/output_inception_4a/output_0_split_0
I0105 14:43:08.358919  4844 net.cpp:338] inception_4a/output_inception_4a/output_0_split -> inception_4a/output_inception_4a/output_0_split_1
I0105 14:43:08.358933  4844 net.cpp:338] inception_4a/output_inception_4a/output_0_split -> inception_4a/output_inception_4a/output_0_split_2
I0105 14:43:08.358945  4844 net.cpp:338] inception_4a/output_inception_4a/output_0_split -> inception_4a/output_inception_4a/output_0_split_3
I0105 14:43:08.358955  4844 net.cpp:338] inception_4a/output_inception_4a/output_0_split -> inception_4a/output_inception_4a/output_0_split_4
I0105 14:43:08.358965  4844 net.cpp:113] Setting up inception_4a/output_inception_4a/output_0_split
I0105 14:43:08.358978  4844 net.cpp:120] Top shape: 80 512 14 14 (8028160)
I0105 14:43:08.358988  4844 net.cpp:120] Top shape: 80 512 14 14 (8028160)
I0105 14:43:08.358995  4844 net.cpp:120] Top shape: 80 512 14 14 (8028160)
I0105 14:43:08.359004  4844 net.cpp:120] Top shape: 80 512 14 14 (8028160)
I0105 14:43:08.359012  4844 net.cpp:120] Top shape: 80 512 14 14 (8028160)
I0105 14:43:08.359020  4844 layer_factory.hpp:74] Creating layer loss1/ave_pool
I0105 14:43:08.359035  4844 net.cpp:84] Creating Layer loss1/ave_pool
I0105 14:43:08.359043  4844 net.cpp:380] loss1/ave_pool <- inception_4a/output_inception_4a/output_0_split_0
I0105 14:43:08.359052  4844 net.cpp:338] loss1/ave_pool -> loss1/ave_pool
I0105 14:43:08.359063  4844 net.cpp:113] Setting up loss1/ave_pool
I0105 14:43:08.359165  4844 net.cpp:120] Top shape: 80 512 4 4 (655360)
I0105 14:43:08.359182  4844 layer_factory.hpp:74] Creating layer loss1/conv
I0105 14:43:08.359203  4844 net.cpp:84] Creating Layer loss1/conv
I0105 14:43:08.359211  4844 net.cpp:380] loss1/conv <- loss1/ave_pool
I0105 14:43:08.359225  4844 net.cpp:338] loss1/conv -> loss1/conv
I0105 14:43:08.359236  4844 net.cpp:113] Setting up loss1/conv
I0105 14:43:08.368741  4844 net.cpp:120] Top shape: 80 128 4 4 (163840)
I0105 14:43:08.368783  4844 layer_factory.hpp:74] Creating layer loss1/relu_conv
I0105 14:43:08.368801  4844 net.cpp:84] Creating Layer loss1/relu_conv
I0105 14:43:08.368811  4844 net.cpp:380] loss1/relu_conv <- loss1/conv
I0105 14:43:08.368823  4844 net.cpp:327] loss1/relu_conv -> loss1/conv (in-place)
I0105 14:43:08.368835  4844 net.cpp:113] Setting up loss1/relu_conv
I0105 14:43:08.368935  4844 net.cpp:120] Top shape: 80 128 4 4 (163840)
I0105 14:43:08.368945  4844 layer_factory.hpp:74] Creating layer loss1/fc
I0105 14:43:08.368962  4844 net.cpp:84] Creating Layer loss1/fc
I0105 14:43:08.368969  4844 net.cpp:380] loss1/fc <- loss1/conv
I0105 14:43:08.368980  4844 net.cpp:338] loss1/fc -> loss1/fc
I0105 14:43:08.368996  4844 net.cpp:113] Setting up loss1/fc
I0105 14:43:08.477649  4844 net.cpp:120] Top shape: 80 1024 (81920)
I0105 14:43:08.477713  4844 layer_factory.hpp:74] Creating layer loss1/relu_fc
I0105 14:43:08.477733  4844 net.cpp:84] Creating Layer loss1/relu_fc
I0105 14:43:08.477744  4844 net.cpp:380] loss1/relu_fc <- loss1/fc
I0105 14:43:08.477759  4844 net.cpp:327] loss1/relu_fc -> loss1/fc (in-place)
I0105 14:43:08.477772  4844 net.cpp:113] Setting up loss1/relu_fc
I0105 14:43:08.481447  4844 net.cpp:120] Top shape: 80 1024 (81920)
I0105 14:43:08.481472  4844 layer_factory.hpp:74] Creating layer loss1/drop_fc
I0105 14:43:08.481499  4844 net.cpp:84] Creating Layer loss1/drop_fc
I0105 14:43:08.481509  4844 net.cpp:380] loss1/drop_fc <- loss1/fc
I0105 14:43:08.481519  4844 net.cpp:327] loss1/drop_fc -> loss1/fc (in-place)
I0105 14:43:08.481534  4844 net.cpp:113] Setting up loss1/drop_fc
I0105 14:43:08.481546  4844 net.cpp:120] Top shape: 80 1024 (81920)
I0105 14:43:08.481554  4844 layer_factory.hpp:74] Creating layer loss1/classifier_kaggle
I0105 14:43:08.481571  4844 net.cpp:84] Creating Layer loss1/classifier_kaggle
I0105 14:43:08.481578  4844 net.cpp:380] loss1/classifier_kaggle <- loss1/fc
I0105 14:43:08.481588  4844 net.cpp:338] loss1/classifier_kaggle -> loss1/classifier_kaggle
I0105 14:43:08.481601  4844 net.cpp:113] Setting up loss1/classifier_kaggle
I0105 14:43:08.487300  4844 net.cpp:120] Top shape: 80 447 (35760)
I0105 14:43:08.487342  4844 layer_factory.hpp:74] Creating layer loss1/loss
I0105 14:43:08.487355  4844 net.cpp:84] Creating Layer loss1/loss
I0105 14:43:08.487365  4844 net.cpp:380] loss1/loss <- loss1/classifier_kaggle
I0105 14:43:08.487373  4844 net.cpp:380] loss1/loss <- label_data_1_split_0
I0105 14:43:08.487385  4844 net.cpp:338] loss1/loss -> loss1/loss1
I0105 14:43:08.487397  4844 net.cpp:113] Setting up loss1/loss
I0105 14:43:08.487411  4844 layer_factory.hpp:74] Creating layer loss1/loss
I0105 14:43:08.487669  4844 net.cpp:120] Top shape: (1)
I0105 14:43:08.487680  4844 net.cpp:122]     with loss weight 0.3
I0105 14:43:08.487704  4844 layer_factory.hpp:74] Creating layer inception_4b/1x1
I0105 14:43:08.487722  4844 net.cpp:84] Creating Layer inception_4b/1x1
I0105 14:43:08.487730  4844 net.cpp:380] inception_4b/1x1 <- inception_4a/output_inception_4a/output_0_split_1
I0105 14:43:08.487740  4844 net.cpp:338] inception_4b/1x1 -> inception_4b/1x1
I0105 14:43:08.487751  4844 net.cpp:113] Setting up inception_4b/1x1
I0105 14:43:08.491598  4844 net.cpp:120] Top shape: 80 160 14 14 (2508800)
I0105 14:43:08.491626  4844 layer_factory.hpp:74] Creating layer inception_4b/relu_1x1
I0105 14:43:08.491638  4844 net.cpp:84] Creating Layer inception_4b/relu_1x1
I0105 14:43:08.491647  4844 net.cpp:380] inception_4b/relu_1x1 <- inception_4b/1x1
I0105 14:43:08.491658  4844 net.cpp:327] inception_4b/relu_1x1 -> inception_4b/1x1 (in-place)
I0105 14:43:08.491670  4844 net.cpp:113] Setting up inception_4b/relu_1x1
I0105 14:43:08.491786  4844 net.cpp:120] Top shape: 80 160 14 14 (2508800)
I0105 14:43:08.491813  4844 layer_factory.hpp:74] Creating layer inception_4b/3x3_reduce
I0105 14:43:08.491832  4844 net.cpp:84] Creating Layer inception_4b/3x3_reduce
I0105 14:43:08.491839  4844 net.cpp:380] inception_4b/3x3_reduce <- inception_4a/output_inception_4a/output_0_split_2
I0105 14:43:08.491855  4844 net.cpp:338] inception_4b/3x3_reduce -> inception_4b/3x3_reduce
I0105 14:43:08.491868  4844 net.cpp:113] Setting up inception_4b/3x3_reduce
I0105 14:43:08.509567  4844 net.cpp:120] Top shape: 80 112 14 14 (1756160)
I0105 14:43:08.509634  4844 layer_factory.hpp:74] Creating layer inception_4b/relu_3x3_reduce
I0105 14:43:08.509656  4844 net.cpp:84] Creating Layer inception_4b/relu_3x3_reduce
I0105 14:43:08.509670  4844 net.cpp:380] inception_4b/relu_3x3_reduce <- inception_4b/3x3_reduce
I0105 14:43:08.509683  4844 net.cpp:327] inception_4b/relu_3x3_reduce -> inception_4b/3x3_reduce (in-place)
I0105 14:43:08.509701  4844 net.cpp:113] Setting up inception_4b/relu_3x3_reduce
I0105 14:43:08.509814  4844 net.cpp:120] Top shape: 80 112 14 14 (1756160)
I0105 14:43:08.509829  4844 layer_factory.hpp:74] Creating layer inception_4b/3x3
I0105 14:43:08.509847  4844 net.cpp:84] Creating Layer inception_4b/3x3
I0105 14:43:08.509858  4844 net.cpp:380] inception_4b/3x3 <- inception_4b/3x3_reduce
I0105 14:43:08.509874  4844 net.cpp:338] inception_4b/3x3 -> inception_4b/3x3
I0105 14:43:08.509892  4844 net.cpp:113] Setting up inception_4b/3x3
I0105 14:43:08.513695  4844 net.cpp:120] Top shape: 80 224 14 14 (3512320)
I0105 14:43:08.513726  4844 layer_factory.hpp:74] Creating layer inception_4b/relu_3x3
I0105 14:43:08.513741  4844 net.cpp:84] Creating Layer inception_4b/relu_3x3
I0105 14:43:08.513749  4844 net.cpp:380] inception_4b/relu_3x3 <- inception_4b/3x3
I0105 14:43:08.513757  4844 net.cpp:327] inception_4b/relu_3x3 -> inception_4b/3x3 (in-place)
I0105 14:43:08.513768  4844 net.cpp:113] Setting up inception_4b/relu_3x3
I0105 14:43:08.514143  4844 net.cpp:120] Top shape: 80 224 14 14 (3512320)
I0105 14:43:08.514158  4844 layer_factory.hpp:74] Creating layer inception_4b/5x5_reduce
I0105 14:43:08.514170  4844 net.cpp:84] Creating Layer inception_4b/5x5_reduce
I0105 14:43:08.514178  4844 net.cpp:380] inception_4b/5x5_reduce <- inception_4a/output_inception_4a/output_0_split_3
I0105 14:43:08.514191  4844 net.cpp:338] inception_4b/5x5_reduce -> inception_4b/5x5_reduce
I0105 14:43:08.514204  4844 net.cpp:113] Setting up inception_4b/5x5_reduce
I0105 14:43:08.514936  4844 net.cpp:120] Top shape: 80 24 14 14 (376320)
I0105 14:43:08.514955  4844 layer_factory.hpp:74] Creating layer inception_4b/relu_5x5_reduce
I0105 14:43:08.514966  4844 net.cpp:84] Creating Layer inception_4b/relu_5x5_reduce
I0105 14:43:08.514972  4844 net.cpp:380] inception_4b/relu_5x5_reduce <- inception_4b/5x5_reduce
I0105 14:43:08.514983  4844 net.cpp:327] inception_4b/relu_5x5_reduce -> inception_4b/5x5_reduce (in-place)
I0105 14:43:08.514993  4844 net.cpp:113] Setting up inception_4b/relu_5x5_reduce
I0105 14:43:08.515080  4844 net.cpp:120] Top shape: 80 24 14 14 (376320)
I0105 14:43:08.515089  4844 layer_factory.hpp:74] Creating layer inception_4b/5x5
I0105 14:43:08.515101  4844 net.cpp:84] Creating Layer inception_4b/5x5
I0105 14:43:08.515108  4844 net.cpp:380] inception_4b/5x5 <- inception_4b/5x5_reduce
I0105 14:43:08.515120  4844 net.cpp:338] inception_4b/5x5 -> inception_4b/5x5
I0105 14:43:08.515132  4844 net.cpp:113] Setting up inception_4b/5x5
I0105 14:43:08.516269  4844 net.cpp:120] Top shape: 80 64 14 14 (1003520)
I0105 14:43:08.516295  4844 layer_factory.hpp:74] Creating layer inception_4b/relu_5x5
I0105 14:43:08.516312  4844 net.cpp:84] Creating Layer inception_4b/relu_5x5
I0105 14:43:08.516321  4844 net.cpp:380] inception_4b/relu_5x5 <- inception_4b/5x5
I0105 14:43:08.516332  4844 net.cpp:327] inception_4b/relu_5x5 -> inception_4b/5x5 (in-place)
I0105 14:43:08.516345  4844 net.cpp:113] Setting up inception_4b/relu_5x5
I0105 14:43:08.516451  4844 net.cpp:120] Top shape: 80 64 14 14 (1003520)
I0105 14:43:08.516496  4844 layer_factory.hpp:74] Creating layer inception_4b/pool
I0105 14:43:08.516510  4844 layer_factory.cpp:56] CUDNN does not support padding or multiple tops. Using Caffe's own pooling layer.
I0105 14:43:08.516532  4844 net.cpp:84] Creating Layer inception_4b/pool
I0105 14:43:08.516542  4844 net.cpp:380] inception_4b/pool <- inception_4a/output_inception_4a/output_0_split_4
I0105 14:43:08.516553  4844 net.cpp:338] inception_4b/pool -> inception_4b/pool
I0105 14:43:08.516584  4844 net.cpp:113] Setting up inception_4b/pool
I0105 14:43:08.516603  4844 net.cpp:120] Top shape: 80 512 14 14 (8028160)
I0105 14:43:08.516613  4844 layer_factory.hpp:74] Creating layer inception_4b/pool_proj
I0105 14:43:08.516628  4844 net.cpp:84] Creating Layer inception_4b/pool_proj
I0105 14:43:08.516638  4844 net.cpp:380] inception_4b/pool_proj <- inception_4b/pool
I0105 14:43:08.516652  4844 net.cpp:338] inception_4b/pool_proj -> inception_4b/pool_proj
I0105 14:43:08.516665  4844 net.cpp:113] Setting up inception_4b/pool_proj
I0105 14:43:08.517714  4844 net.cpp:120] Top shape: 80 64 14 14 (1003520)
I0105 14:43:08.517735  4844 layer_factory.hpp:74] Creating layer inception_4b/relu_pool_proj
I0105 14:43:08.517748  4844 net.cpp:84] Creating Layer inception_4b/relu_pool_proj
I0105 14:43:08.517756  4844 net.cpp:380] inception_4b/relu_pool_proj <- inception_4b/pool_proj
I0105 14:43:08.517765  4844 net.cpp:327] inception_4b/relu_pool_proj -> inception_4b/pool_proj (in-place)
I0105 14:43:08.517774  4844 net.cpp:113] Setting up inception_4b/relu_pool_proj
I0105 14:43:08.518129  4844 net.cpp:120] Top shape: 80 64 14 14 (1003520)
I0105 14:43:08.518144  4844 layer_factory.hpp:74] Creating layer inception_4b/output
I0105 14:43:08.518157  4844 net.cpp:84] Creating Layer inception_4b/output
I0105 14:43:08.518164  4844 net.cpp:380] inception_4b/output <- inception_4b/1x1
I0105 14:43:08.518173  4844 net.cpp:380] inception_4b/output <- inception_4b/3x3
I0105 14:43:08.518180  4844 net.cpp:380] inception_4b/output <- inception_4b/5x5
I0105 14:43:08.518188  4844 net.cpp:380] inception_4b/output <- inception_4b/pool_proj
I0105 14:43:08.518198  4844 net.cpp:338] inception_4b/output -> inception_4b/output
I0105 14:43:08.518208  4844 net.cpp:113] Setting up inception_4b/output
I0105 14:43:08.518220  4844 net.cpp:120] Top shape: 80 512 14 14 (8028160)
I0105 14:43:08.518229  4844 layer_factory.hpp:74] Creating layer inception_4b/output_inception_4b/output_0_split
I0105 14:43:08.518239  4844 net.cpp:84] Creating Layer inception_4b/output_inception_4b/output_0_split
I0105 14:43:08.518249  4844 net.cpp:380] inception_4b/output_inception_4b/output_0_split <- inception_4b/output
I0105 14:43:08.518257  4844 net.cpp:338] inception_4b/output_inception_4b/output_0_split -> inception_4b/output_inception_4b/output_0_split_0
I0105 14:43:08.518268  4844 net.cpp:338] inception_4b/output_inception_4b/output_0_split -> inception_4b/output_inception_4b/output_0_split_1
I0105 14:43:08.518278  4844 net.cpp:338] inception_4b/output_inception_4b/output_0_split -> inception_4b/output_inception_4b/output_0_split_2
I0105 14:43:08.518288  4844 net.cpp:338] inception_4b/output_inception_4b/output_0_split -> inception_4b/output_inception_4b/output_0_split_3
I0105 14:43:08.518297  4844 net.cpp:113] Setting up inception_4b/output_inception_4b/output_0_split
I0105 14:43:08.518311  4844 net.cpp:120] Top shape: 80 512 14 14 (8028160)
I0105 14:43:08.518319  4844 net.cpp:120] Top shape: 80 512 14 14 (8028160)
I0105 14:43:08.518333  4844 net.cpp:120] Top shape: 80 512 14 14 (8028160)
I0105 14:43:08.518357  4844 net.cpp:120] Top shape: 80 512 14 14 (8028160)
I0105 14:43:08.518368  4844 layer_factory.hpp:74] Creating layer inception_4c/1x1
I0105 14:43:08.518383  4844 net.cpp:84] Creating Layer inception_4c/1x1
I0105 14:43:08.518404  4844 net.cpp:380] inception_4c/1x1 <- inception_4b/output_inception_4b/output_0_split_0
I0105 14:43:08.518415  4844 net.cpp:338] inception_4c/1x1 -> inception_4c/1x1
I0105 14:43:08.518445  4844 net.cpp:113] Setting up inception_4c/1x1
I0105 14:43:08.519779  4844 net.cpp:120] Top shape: 80 128 14 14 (2007040)
I0105 14:43:08.519826  4844 layer_factory.hpp:74] Creating layer inception_4c/relu_1x1
I0105 14:43:08.519842  4844 net.cpp:84] Creating Layer inception_4c/relu_1x1
I0105 14:43:08.519855  4844 net.cpp:380] inception_4c/relu_1x1 <- inception_4c/1x1
I0105 14:43:08.519866  4844 net.cpp:327] inception_4c/relu_1x1 -> inception_4c/1x1 (in-place)
I0105 14:43:08.519888  4844 net.cpp:113] Setting up inception_4c/relu_1x1
I0105 14:43:08.519971  4844 net.cpp:120] Top shape: 80 128 14 14 (2007040)
I0105 14:43:08.519992  4844 layer_factory.hpp:74] Creating layer inception_4c/3x3_reduce
I0105 14:43:08.520015  4844 net.cpp:84] Creating Layer inception_4c/3x3_reduce
I0105 14:43:08.520021  4844 net.cpp:380] inception_4c/3x3_reduce <- inception_4b/output_inception_4b/output_0_split_1
I0105 14:43:08.520036  4844 net.cpp:338] inception_4c/3x3_reduce -> inception_4c/3x3_reduce
I0105 14:43:08.520053  4844 net.cpp:113] Setting up inception_4c/3x3_reduce
I0105 14:43:08.521456  4844 net.cpp:120] Top shape: 80 128 14 14 (2007040)
I0105 14:43:08.521477  4844 layer_factory.hpp:74] Creating layer inception_4c/relu_3x3_reduce
I0105 14:43:08.521492  4844 net.cpp:84] Creating Layer inception_4c/relu_3x3_reduce
I0105 14:43:08.521499  4844 net.cpp:380] inception_4c/relu_3x3_reduce <- inception_4c/3x3_reduce
I0105 14:43:08.521508  4844 net.cpp:327] inception_4c/relu_3x3_reduce -> inception_4c/3x3_reduce (in-place)
I0105 14:43:08.521518  4844 net.cpp:113] Setting up inception_4c/relu_3x3_reduce
I0105 14:43:08.521606  4844 net.cpp:120] Top shape: 80 128 14 14 (2007040)
I0105 14:43:08.521615  4844 layer_factory.hpp:74] Creating layer inception_4c/3x3
I0105 14:43:08.521630  4844 net.cpp:84] Creating Layer inception_4c/3x3
I0105 14:43:08.521636  4844 net.cpp:380] inception_4c/3x3 <- inception_4c/3x3_reduce
I0105 14:43:08.521697  4844 net.cpp:338] inception_4c/3x3 -> inception_4c/3x3
I0105 14:43:08.521710  4844 net.cpp:113] Setting up inception_4c/3x3
I0105 14:43:08.534869  4844 net.cpp:120] Top shape: 80 256 14 14 (4014080)
I0105 14:43:08.534945  4844 layer_factory.hpp:74] Creating layer inception_4c/relu_3x3
I0105 14:43:08.534967  4844 net.cpp:84] Creating Layer inception_4c/relu_3x3
I0105 14:43:08.534979  4844 net.cpp:380] inception_4c/relu_3x3 <- inception_4c/3x3
I0105 14:43:08.534997  4844 net.cpp:327] inception_4c/relu_3x3 -> inception_4c/3x3 (in-place)
I0105 14:43:08.535014  4844 net.cpp:113] Setting up inception_4c/relu_3x3
I0105 14:43:08.535133  4844 net.cpp:120] Top shape: 80 256 14 14 (4014080)
I0105 14:43:08.535147  4844 layer_factory.hpp:74] Creating layer inception_4c/5x5_reduce
I0105 14:43:08.535163  4844 net.cpp:84] Creating Layer inception_4c/5x5_reduce
I0105 14:43:08.535174  4844 net.cpp:380] inception_4c/5x5_reduce <- inception_4b/output_inception_4b/output_0_split_2
I0105 14:43:08.535192  4844 net.cpp:338] inception_4c/5x5_reduce -> inception_4c/5x5_reduce
I0105 14:43:08.535208  4844 net.cpp:113] Setting up inception_4c/5x5_reduce
I0105 14:43:08.535946  4844 net.cpp:120] Top shape: 80 24 14 14 (376320)
I0105 14:43:08.535966  4844 layer_factory.hpp:74] Creating layer inception_4c/relu_5x5_reduce
I0105 14:43:08.535979  4844 net.cpp:84] Creating Layer inception_4c/relu_5x5_reduce
I0105 14:43:08.535986  4844 net.cpp:380] inception_4c/relu_5x5_reduce <- inception_4c/5x5_reduce
I0105 14:43:08.535995  4844 net.cpp:327] inception_4c/relu_5x5_reduce -> inception_4c/5x5_reduce (in-place)
I0105 14:43:08.536005  4844 net.cpp:113] Setting up inception_4c/relu_5x5_reduce
I0105 14:43:08.536360  4844 net.cpp:120] Top shape: 80 24 14 14 (376320)
I0105 14:43:08.536375  4844 layer_factory.hpp:74] Creating layer inception_4c/5x5
I0105 14:43:08.536391  4844 net.cpp:84] Creating Layer inception_4c/5x5
I0105 14:43:08.536398  4844 net.cpp:380] inception_4c/5x5 <- inception_4c/5x5_reduce
I0105 14:43:08.536408  4844 net.cpp:338] inception_4c/5x5 -> inception_4c/5x5
I0105 14:43:08.536419  4844 net.cpp:113] Setting up inception_4c/5x5
I0105 14:43:08.548018  4844 net.cpp:120] Top shape: 80 64 14 14 (1003520)
I0105 14:43:08.548084  4844 layer_factory.hpp:74] Creating layer inception_4c/relu_5x5
I0105 14:43:08.548115  4844 net.cpp:84] Creating Layer inception_4c/relu_5x5
I0105 14:43:08.548125  4844 net.cpp:380] inception_4c/relu_5x5 <- inception_4c/5x5
I0105 14:43:08.548141  4844 net.cpp:327] inception_4c/relu_5x5 -> inception_4c/5x5 (in-place)
I0105 14:43:08.548156  4844 net.cpp:113] Setting up inception_4c/relu_5x5
I0105 14:43:08.548255  4844 net.cpp:120] Top shape: 80 64 14 14 (1003520)
I0105 14:43:08.548265  4844 layer_factory.hpp:74] Creating layer inception_4c/pool
I0105 14:43:08.548274  4844 layer_factory.cpp:56] CUDNN does not support padding or multiple tops. Using Caffe's own pooling layer.
I0105 14:43:08.548285  4844 net.cpp:84] Creating Layer inception_4c/pool
I0105 14:43:08.548292  4844 net.cpp:380] inception_4c/pool <- inception_4b/output_inception_4b/output_0_split_3
I0105 14:43:08.548302  4844 net.cpp:338] inception_4c/pool -> inception_4c/pool
I0105 14:43:08.548315  4844 net.cpp:113] Setting up inception_4c/pool
I0105 14:43:08.548331  4844 net.cpp:120] Top shape: 80 512 14 14 (8028160)
I0105 14:43:08.548337  4844 layer_factory.hpp:74] Creating layer inception_4c/pool_proj
I0105 14:43:08.548352  4844 net.cpp:84] Creating Layer inception_4c/pool_proj
I0105 14:43:08.548359  4844 net.cpp:380] inception_4c/pool_proj <- inception_4c/pool
I0105 14:43:08.548372  4844 net.cpp:338] inception_4c/pool_proj -> inception_4c/pool_proj
I0105 14:43:08.548383  4844 net.cpp:113] Setting up inception_4c/pool_proj
I0105 14:43:08.549701  4844 net.cpp:120] Top shape: 80 64 14 14 (1003520)
I0105 14:43:08.549724  4844 layer_factory.hpp:74] Creating layer inception_4c/relu_pool_proj
I0105 14:43:08.549737  4844 net.cpp:84] Creating Layer inception_4c/relu_pool_proj
I0105 14:43:08.549744  4844 net.cpp:380] inception_4c/relu_pool_proj <- inception_4c/pool_proj
I0105 14:43:08.549753  4844 net.cpp:327] inception_4c/relu_pool_proj -> inception_4c/pool_proj (in-place)
I0105 14:43:08.549764  4844 net.cpp:113] Setting up inception_4c/relu_pool_proj
I0105 14:43:08.549855  4844 net.cpp:120] Top shape: 80 64 14 14 (1003520)
I0105 14:43:08.549866  4844 layer_factory.hpp:74] Creating layer inception_4c/output
I0105 14:43:08.549876  4844 net.cpp:84] Creating Layer inception_4c/output
I0105 14:43:08.549885  4844 net.cpp:380] inception_4c/output <- inception_4c/1x1
I0105 14:43:08.549893  4844 net.cpp:380] inception_4c/output <- inception_4c/3x3
I0105 14:43:08.549901  4844 net.cpp:380] inception_4c/output <- inception_4c/5x5
I0105 14:43:08.549909  4844 net.cpp:380] inception_4c/output <- inception_4c/pool_proj
I0105 14:43:08.549917  4844 net.cpp:338] inception_4c/output -> inception_4c/output
I0105 14:43:08.549927  4844 net.cpp:113] Setting up inception_4c/output
I0105 14:43:08.549939  4844 net.cpp:120] Top shape: 80 512 14 14 (8028160)
I0105 14:43:08.549945  4844 layer_factory.hpp:74] Creating layer inception_4c/output_inception_4c/output_0_split
I0105 14:43:08.549954  4844 net.cpp:84] Creating Layer inception_4c/output_inception_4c/output_0_split
I0105 14:43:08.549962  4844 net.cpp:380] inception_4c/output_inception_4c/output_0_split <- inception_4c/output
I0105 14:43:08.549973  4844 net.cpp:338] inception_4c/output_inception_4c/output_0_split -> inception_4c/output_inception_4c/output_0_split_0
I0105 14:43:08.549985  4844 net.cpp:338] inception_4c/output_inception_4c/output_0_split -> inception_4c/output_inception_4c/output_0_split_1
I0105 14:43:08.549998  4844 net.cpp:338] inception_4c/output_inception_4c/output_0_split -> inception_4c/output_inception_4c/output_0_split_2
I0105 14:43:08.550007  4844 net.cpp:338] inception_4c/output_inception_4c/output_0_split -> inception_4c/output_inception_4c/output_0_split_3
I0105 14:43:08.550015  4844 net.cpp:113] Setting up inception_4c/output_inception_4c/output_0_split
I0105 14:43:08.550025  4844 net.cpp:120] Top shape: 80 512 14 14 (8028160)
I0105 14:43:08.550032  4844 net.cpp:120] Top shape: 80 512 14 14 (8028160)
I0105 14:43:08.550040  4844 net.cpp:120] Top shape: 80 512 14 14 (8028160)
I0105 14:43:08.550058  4844 net.cpp:120] Top shape: 80 512 14 14 (8028160)
I0105 14:43:08.550076  4844 layer_factory.hpp:74] Creating layer inception_4d/1x1
I0105 14:43:08.550091  4844 net.cpp:84] Creating Layer inception_4d/1x1
I0105 14:43:08.550097  4844 net.cpp:380] inception_4d/1x1 <- inception_4c/output_inception_4c/output_0_split_0
I0105 14:43:08.550107  4844 net.cpp:338] inception_4d/1x1 -> inception_4d/1x1
I0105 14:43:08.550118  4844 net.cpp:113] Setting up inception_4d/1x1
I0105 14:43:08.551465  4844 net.cpp:120] Top shape: 80 112 14 14 (1756160)
I0105 14:43:08.551484  4844 layer_factory.hpp:74] Creating layer inception_4d/relu_1x1
I0105 14:43:08.551497  4844 net.cpp:84] Creating Layer inception_4d/relu_1x1
I0105 14:43:08.551506  4844 net.cpp:380] inception_4d/relu_1x1 <- inception_4d/1x1
I0105 14:43:08.551515  4844 net.cpp:327] inception_4d/relu_1x1 -> inception_4d/1x1 (in-place)
I0105 14:43:08.551524  4844 net.cpp:113] Setting up inception_4d/relu_1x1
I0105 14:43:08.551610  4844 net.cpp:120] Top shape: 80 112 14 14 (1756160)
I0105 14:43:08.551620  4844 layer_factory.hpp:74] Creating layer inception_4d/3x3_reduce
I0105 14:43:08.551631  4844 net.cpp:84] Creating Layer inception_4d/3x3_reduce
I0105 14:43:08.551637  4844 net.cpp:380] inception_4d/3x3_reduce <- inception_4c/output_inception_4c/output_0_split_1
I0105 14:43:08.551651  4844 net.cpp:338] inception_4d/3x3_reduce -> inception_4d/3x3_reduce
I0105 14:43:08.551662  4844 net.cpp:113] Setting up inception_4d/3x3_reduce
I0105 14:43:08.553226  4844 net.cpp:120] Top shape: 80 144 14 14 (2257920)
I0105 14:43:08.553252  4844 layer_factory.hpp:74] Creating layer inception_4d/relu_3x3_reduce
I0105 14:43:08.553267  4844 net.cpp:84] Creating Layer inception_4d/relu_3x3_reduce
I0105 14:43:08.553275  4844 net.cpp:380] inception_4d/relu_3x3_reduce <- inception_4d/3x3_reduce
I0105 14:43:08.553285  4844 net.cpp:327] inception_4d/relu_3x3_reduce -> inception_4d/3x3_reduce (in-place)
I0105 14:43:08.553299  4844 net.cpp:113] Setting up inception_4d/relu_3x3_reduce
I0105 14:43:08.553730  4844 net.cpp:120] Top shape: 80 144 14 14 (2257920)
I0105 14:43:08.553746  4844 layer_factory.hpp:74] Creating layer inception_4d/3x3
I0105 14:43:08.553762  4844 net.cpp:84] Creating Layer inception_4d/3x3
I0105 14:43:08.553773  4844 net.cpp:380] inception_4d/3x3 <- inception_4d/3x3_reduce
I0105 14:43:08.553788  4844 net.cpp:338] inception_4d/3x3 -> inception_4d/3x3
I0105 14:43:08.553804  4844 net.cpp:113] Setting up inception_4d/3x3
I0105 14:43:08.559248  4844 net.cpp:120] Top shape: 80 288 14 14 (4515840)
I0105 14:43:08.559288  4844 layer_factory.hpp:74] Creating layer inception_4d/relu_3x3
I0105 14:43:08.559303  4844 net.cpp:84] Creating Layer inception_4d/relu_3x3
I0105 14:43:08.559311  4844 net.cpp:380] inception_4d/relu_3x3 <- inception_4d/3x3
I0105 14:43:08.559324  4844 net.cpp:327] inception_4d/relu_3x3 -> inception_4d/3x3 (in-place)
I0105 14:43:08.559334  4844 net.cpp:113] Setting up inception_4d/relu_3x3
I0105 14:43:08.559422  4844 net.cpp:120] Top shape: 80 288 14 14 (4515840)
I0105 14:43:08.559430  4844 layer_factory.hpp:74] Creating layer inception_4d/5x5_reduce
I0105 14:43:08.559448  4844 net.cpp:84] Creating Layer inception_4d/5x5_reduce
I0105 14:43:08.559455  4844 net.cpp:380] inception_4d/5x5_reduce <- inception_4c/output_inception_4c/output_0_split_2
I0105 14:43:08.559465  4844 net.cpp:338] inception_4d/5x5_reduce -> inception_4d/5x5_reduce
I0105 14:43:08.559478  4844 net.cpp:113] Setting up inception_4d/5x5_reduce
I0105 14:43:08.560282  4844 net.cpp:120] Top shape: 80 32 14 14 (501760)
I0105 14:43:08.560302  4844 layer_factory.hpp:74] Creating layer inception_4d/relu_5x5_reduce
I0105 14:43:08.560313  4844 net.cpp:84] Creating Layer inception_4d/relu_5x5_reduce
I0105 14:43:08.560322  4844 net.cpp:380] inception_4d/relu_5x5_reduce <- inception_4d/5x5_reduce
I0105 14:43:08.560334  4844 net.cpp:327] inception_4d/relu_5x5_reduce -> inception_4d/5x5_reduce (in-place)
I0105 14:43:08.560345  4844 net.cpp:113] Setting up inception_4d/relu_5x5_reduce
I0105 14:43:08.560446  4844 net.cpp:120] Top shape: 80 32 14 14 (501760)
I0105 14:43:08.560472  4844 layer_factory.hpp:74] Creating layer inception_4d/5x5
I0105 14:43:08.560485  4844 net.cpp:84] Creating Layer inception_4d/5x5
I0105 14:43:08.560493  4844 net.cpp:380] inception_4d/5x5 <- inception_4d/5x5_reduce
I0105 14:43:08.560503  4844 net.cpp:338] inception_4d/5x5 -> inception_4d/5x5
I0105 14:43:08.560513  4844 net.cpp:113] Setting up inception_4d/5x5
I0105 14:43:08.561998  4844 net.cpp:120] Top shape: 80 64 14 14 (1003520)
I0105 14:43:08.562024  4844 layer_factory.hpp:74] Creating layer inception_4d/relu_5x5
I0105 14:43:08.562039  4844 net.cpp:84] Creating Layer inception_4d/relu_5x5
I0105 14:43:08.562049  4844 net.cpp:380] inception_4d/relu_5x5 <- inception_4d/5x5
I0105 14:43:08.562062  4844 net.cpp:327] inception_4d/relu_5x5 -> inception_4d/5x5 (in-place)
I0105 14:43:08.562075  4844 net.cpp:113] Setting up inception_4d/relu_5x5
I0105 14:43:08.562188  4844 net.cpp:120] Top shape: 80 64 14 14 (1003520)
I0105 14:43:08.562201  4844 layer_factory.hpp:74] Creating layer inception_4d/pool
I0105 14:43:08.562211  4844 layer_factory.cpp:56] CUDNN does not support padding or multiple tops. Using Caffe's own pooling layer.
I0105 14:43:08.562225  4844 net.cpp:84] Creating Layer inception_4d/pool
I0105 14:43:08.562237  4844 net.cpp:380] inception_4d/pool <- inception_4c/output_inception_4c/output_0_split_3
I0105 14:43:08.562248  4844 net.cpp:338] inception_4d/pool -> inception_4d/pool
I0105 14:43:08.562263  4844 net.cpp:113] Setting up inception_4d/pool
I0105 14:43:08.562278  4844 net.cpp:120] Top shape: 80 512 14 14 (8028160)
I0105 14:43:08.562288  4844 layer_factory.hpp:74] Creating layer inception_4d/pool_proj
I0105 14:43:08.562304  4844 net.cpp:84] Creating Layer inception_4d/pool_proj
I0105 14:43:08.562314  4844 net.cpp:380] inception_4d/pool_proj <- inception_4d/pool
I0105 14:43:08.562327  4844 net.cpp:338] inception_4d/pool_proj -> inception_4d/pool_proj
I0105 14:43:08.562341  4844 net.cpp:113] Setting up inception_4d/pool_proj
I0105 14:43:08.563493  4844 net.cpp:120] Top shape: 80 64 14 14 (1003520)
I0105 14:43:08.563513  4844 layer_factory.hpp:74] Creating layer inception_4d/relu_pool_proj
I0105 14:43:08.563524  4844 net.cpp:84] Creating Layer inception_4d/relu_pool_proj
I0105 14:43:08.563532  4844 net.cpp:380] inception_4d/relu_pool_proj <- inception_4d/pool_proj
I0105 14:43:08.563541  4844 net.cpp:327] inception_4d/relu_pool_proj -> inception_4d/pool_proj (in-place)
I0105 14:43:08.563551  4844 net.cpp:113] Setting up inception_4d/relu_pool_proj
I0105 14:43:08.563911  4844 net.cpp:120] Top shape: 80 64 14 14 (1003520)
I0105 14:43:08.563925  4844 layer_factory.hpp:74] Creating layer inception_4d/output
I0105 14:43:08.563935  4844 net.cpp:84] Creating Layer inception_4d/output
I0105 14:43:08.563942  4844 net.cpp:380] inception_4d/output <- inception_4d/1x1
I0105 14:43:08.563951  4844 net.cpp:380] inception_4d/output <- inception_4d/3x3
I0105 14:43:08.563959  4844 net.cpp:380] inception_4d/output <- inception_4d/5x5
I0105 14:43:08.563966  4844 net.cpp:380] inception_4d/output <- inception_4d/pool_proj
I0105 14:43:08.563974  4844 net.cpp:338] inception_4d/output -> inception_4d/output
I0105 14:43:08.563984  4844 net.cpp:113] Setting up inception_4d/output
I0105 14:43:08.563997  4844 net.cpp:120] Top shape: 80 528 14 14 (8279040)
I0105 14:43:08.564002  4844 layer_factory.hpp:74] Creating layer inception_4d/output_inception_4d/output_0_split
I0105 14:43:08.564015  4844 net.cpp:84] Creating Layer inception_4d/output_inception_4d/output_0_split
I0105 14:43:08.564023  4844 net.cpp:380] inception_4d/output_inception_4d/output_0_split <- inception_4d/output
I0105 14:43:08.564031  4844 net.cpp:338] inception_4d/output_inception_4d/output_0_split -> inception_4d/output_inception_4d/output_0_split_0
I0105 14:43:08.564041  4844 net.cpp:338] inception_4d/output_inception_4d/output_0_split -> inception_4d/output_inception_4d/output_0_split_1
I0105 14:43:08.564054  4844 net.cpp:338] inception_4d/output_inception_4d/output_0_split -> inception_4d/output_inception_4d/output_0_split_2
I0105 14:43:08.564075  4844 net.cpp:338] inception_4d/output_inception_4d/output_0_split -> inception_4d/output_inception_4d/output_0_split_3
I0105 14:43:08.564096  4844 net.cpp:338] inception_4d/output_inception_4d/output_0_split -> inception_4d/output_inception_4d/output_0_split_4
I0105 14:43:08.564105  4844 net.cpp:113] Setting up inception_4d/output_inception_4d/output_0_split
I0105 14:43:08.564116  4844 net.cpp:120] Top shape: 80 528 14 14 (8279040)
I0105 14:43:08.564124  4844 net.cpp:120] Top shape: 80 528 14 14 (8279040)
I0105 14:43:08.564132  4844 net.cpp:120] Top shape: 80 528 14 14 (8279040)
I0105 14:43:08.564139  4844 net.cpp:120] Top shape: 80 528 14 14 (8279040)
I0105 14:43:08.564146  4844 net.cpp:120] Top shape: 80 528 14 14 (8279040)
I0105 14:43:08.564152  4844 layer_factory.hpp:74] Creating layer loss2/ave_pool
I0105 14:43:08.564163  4844 net.cpp:84] Creating Layer loss2/ave_pool
I0105 14:43:08.564170  4844 net.cpp:380] loss2/ave_pool <- inception_4d/output_inception_4d/output_0_split_0
I0105 14:43:08.564183  4844 net.cpp:338] loss2/ave_pool -> loss2/ave_pool
I0105 14:43:08.564193  4844 net.cpp:113] Setting up loss2/ave_pool
I0105 14:43:08.564287  4844 net.cpp:120] Top shape: 80 528 4 4 (675840)
I0105 14:43:08.564298  4844 layer_factory.hpp:74] Creating layer loss2/conv
I0105 14:43:08.564309  4844 net.cpp:84] Creating Layer loss2/conv
I0105 14:43:08.564316  4844 net.cpp:380] loss2/conv <- loss2/ave_pool
I0105 14:43:08.564328  4844 net.cpp:338] loss2/conv -> loss2/conv
I0105 14:43:08.564339  4844 net.cpp:113] Setting up loss2/conv
I0105 14:43:08.565886  4844 net.cpp:120] Top shape: 80 128 4 4 (163840)
I0105 14:43:08.565910  4844 layer_factory.hpp:74] Creating layer loss2/relu_conv
I0105 14:43:08.565922  4844 net.cpp:84] Creating Layer loss2/relu_conv
I0105 14:43:08.565929  4844 net.cpp:380] loss2/relu_conv <- loss2/conv
I0105 14:43:08.565938  4844 net.cpp:327] loss2/relu_conv -> loss2/conv (in-place)
I0105 14:43:08.565948  4844 net.cpp:113] Setting up loss2/relu_conv
I0105 14:43:08.566035  4844 net.cpp:120] Top shape: 80 128 4 4 (163840)
I0105 14:43:08.566045  4844 layer_factory.hpp:74] Creating layer loss2/fc
I0105 14:43:08.566056  4844 net.cpp:84] Creating Layer loss2/fc
I0105 14:43:08.566062  4844 net.cpp:380] loss2/fc <- loss2/conv
I0105 14:43:08.566074  4844 net.cpp:338] loss2/fc -> loss2/fc
I0105 14:43:08.566085  4844 net.cpp:113] Setting up loss2/fc
I0105 14:43:08.637852  4844 net.cpp:120] Top shape: 80 1024 (81920)
I0105 14:43:08.637904  4844 layer_factory.hpp:74] Creating layer loss2/relu_fc
I0105 14:43:08.637923  4844 net.cpp:84] Creating Layer loss2/relu_fc
I0105 14:43:08.637933  4844 net.cpp:380] loss2/relu_fc <- loss2/fc
I0105 14:43:08.637945  4844 net.cpp:327] loss2/relu_fc -> loss2/fc (in-place)
I0105 14:43:08.637958  4844 net.cpp:113] Setting up loss2/relu_fc
I0105 14:43:08.638677  4844 net.cpp:120] Top shape: 80 1024 (81920)
I0105 14:43:08.638697  4844 layer_factory.hpp:74] Creating layer loss2/drop_fc
I0105 14:43:08.638712  4844 net.cpp:84] Creating Layer loss2/drop_fc
I0105 14:43:08.638720  4844 net.cpp:380] loss2/drop_fc <- loss2/fc
I0105 14:43:08.638730  4844 net.cpp:327] loss2/drop_fc -> loss2/fc (in-place)
I0105 14:43:08.638741  4844 net.cpp:113] Setting up loss2/drop_fc
I0105 14:43:08.638752  4844 net.cpp:120] Top shape: 80 1024 (81920)
I0105 14:43:08.638759  4844 layer_factory.hpp:74] Creating layer loss2/classifier_kaggle
I0105 14:43:08.638772  4844 net.cpp:84] Creating Layer loss2/classifier_kaggle
I0105 14:43:08.638778  4844 net.cpp:380] loss2/classifier_kaggle <- loss2/fc
I0105 14:43:08.638790  4844 net.cpp:338] loss2/classifier_kaggle -> loss2/classifier_kaggle
I0105 14:43:08.638804  4844 net.cpp:113] Setting up loss2/classifier_kaggle
I0105 14:43:08.644559  4844 net.cpp:120] Top shape: 80 447 (35760)
I0105 14:43:08.644604  4844 layer_factory.hpp:74] Creating layer loss2/loss
I0105 14:43:08.644620  4844 net.cpp:84] Creating Layer loss2/loss
I0105 14:43:08.644630  4844 net.cpp:380] loss2/loss <- loss2/classifier_kaggle
I0105 14:43:08.644641  4844 net.cpp:380] loss2/loss <- label_data_1_split_1
I0105 14:43:08.644680  4844 net.cpp:338] loss2/loss -> loss2/loss1
I0105 14:43:08.644693  4844 net.cpp:113] Setting up loss2/loss
I0105 14:43:08.644702  4844 layer_factory.hpp:74] Creating layer loss2/loss
I0105 14:43:08.644963  4844 net.cpp:120] Top shape: (1)
I0105 14:43:08.644973  4844 net.cpp:122]     with loss weight 0.3
I0105 14:43:08.644989  4844 layer_factory.hpp:74] Creating layer inception_4e/1x1
I0105 14:43:08.645006  4844 net.cpp:84] Creating Layer inception_4e/1x1
I0105 14:43:08.645015  4844 net.cpp:380] inception_4e/1x1 <- inception_4d/output_inception_4d/output_0_split_1
I0105 14:43:08.645038  4844 net.cpp:338] inception_4e/1x1 -> inception_4e/1x1
I0105 14:43:08.645164  4844 net.cpp:113] Setting up inception_4e/1x1
I0105 14:43:08.647686  4844 net.cpp:120] Top shape: 80 256 14 14 (4014080)
I0105 14:43:08.647709  4844 layer_factory.hpp:74] Creating layer inception_4e/relu_1x1
I0105 14:43:08.647724  4844 net.cpp:84] Creating Layer inception_4e/relu_1x1
I0105 14:43:08.647732  4844 net.cpp:380] inception_4e/relu_1x1 <- inception_4e/1x1
I0105 14:43:08.647742  4844 net.cpp:327] inception_4e/relu_1x1 -> inception_4e/1x1 (in-place)
I0105 14:43:08.647750  4844 net.cpp:113] Setting up inception_4e/relu_1x1
I0105 14:43:08.647837  4844 net.cpp:120] Top shape: 80 256 14 14 (4014080)
I0105 14:43:08.647846  4844 layer_factory.hpp:74] Creating layer inception_4e/3x3_reduce
I0105 14:43:08.647861  4844 net.cpp:84] Creating Layer inception_4e/3x3_reduce
I0105 14:43:08.647867  4844 net.cpp:380] inception_4e/3x3_reduce <- inception_4d/output_inception_4d/output_0_split_2
I0105 14:43:08.647878  4844 net.cpp:338] inception_4e/3x3_reduce -> inception_4e/3x3_reduce
I0105 14:43:08.647891  4844 net.cpp:113] Setting up inception_4e/3x3_reduce
I0105 14:43:08.649602  4844 net.cpp:120] Top shape: 80 160 14 14 (2508800)
I0105 14:43:08.649629  4844 layer_factory.hpp:74] Creating layer inception_4e/relu_3x3_reduce
I0105 14:43:08.649643  4844 net.cpp:84] Creating Layer inception_4e/relu_3x3_reduce
I0105 14:43:08.649653  4844 net.cpp:380] inception_4e/relu_3x3_reduce <- inception_4e/3x3_reduce
I0105 14:43:08.649667  4844 net.cpp:327] inception_4e/relu_3x3_reduce -> inception_4e/3x3_reduce (in-place)
I0105 14:43:08.649679  4844 net.cpp:113] Setting up inception_4e/relu_3x3_reduce
I0105 14:43:08.649791  4844 net.cpp:120] Top shape: 80 160 14 14 (2508800)
I0105 14:43:08.649804  4844 layer_factory.hpp:74] Creating layer inception_4e/3x3
I0105 14:43:08.649821  4844 net.cpp:84] Creating Layer inception_4e/3x3
I0105 14:43:08.649832  4844 net.cpp:380] inception_4e/3x3 <- inception_4e/3x3_reduce
I0105 14:43:08.649844  4844 net.cpp:338] inception_4e/3x3 -> inception_4e/3x3
I0105 14:43:08.649858  4844 net.cpp:113] Setting up inception_4e/3x3
I0105 14:43:08.656939  4844 net.cpp:120] Top shape: 80 320 14 14 (5017600)
I0105 14:43:08.656985  4844 layer_factory.hpp:74] Creating layer inception_4e/relu_3x3
I0105 14:43:08.656998  4844 net.cpp:84] Creating Layer inception_4e/relu_3x3
I0105 14:43:08.657007  4844 net.cpp:380] inception_4e/relu_3x3 <- inception_4e/3x3
I0105 14:43:08.657027  4844 net.cpp:327] inception_4e/relu_3x3 -> inception_4e/3x3 (in-place)
I0105 14:43:08.657042  4844 net.cpp:113] Setting up inception_4e/relu_3x3
I0105 14:43:08.657524  4844 net.cpp:120] Top shape: 80 320 14 14 (5017600)
I0105 14:43:08.657541  4844 layer_factory.hpp:74] Creating layer inception_4e/5x5_reduce
I0105 14:43:08.657558  4844 net.cpp:84] Creating Layer inception_4e/5x5_reduce
I0105 14:43:08.657567  4844 net.cpp:380] inception_4e/5x5_reduce <- inception_4d/output_inception_4d/output_0_split_3
I0105 14:43:08.657580  4844 net.cpp:338] inception_4e/5x5_reduce -> inception_4e/5x5_reduce
I0105 14:43:08.657594  4844 net.cpp:113] Setting up inception_4e/5x5_reduce
I0105 14:43:08.658493  4844 net.cpp:120] Top shape: 80 32 14 14 (501760)
I0105 14:43:08.658517  4844 layer_factory.hpp:74] Creating layer inception_4e/relu_5x5_reduce
I0105 14:43:08.658535  4844 net.cpp:84] Creating Layer inception_4e/relu_5x5_reduce
I0105 14:43:08.658565  4844 net.cpp:380] inception_4e/relu_5x5_reduce <- inception_4e/5x5_reduce
I0105 14:43:08.658592  4844 net.cpp:327] inception_4e/relu_5x5_reduce -> inception_4e/5x5_reduce (in-place)
I0105 14:43:08.658607  4844 net.cpp:113] Setting up inception_4e/relu_5x5_reduce
I0105 14:43:08.658721  4844 net.cpp:120] Top shape: 80 32 14 14 (501760)
I0105 14:43:08.658737  4844 layer_factory.hpp:74] Creating layer inception_4e/5x5
I0105 14:43:08.658782  4844 net.cpp:84] Creating Layer inception_4e/5x5
I0105 14:43:08.658794  4844 net.cpp:380] inception_4e/5x5 <- inception_4e/5x5_reduce
I0105 14:43:08.658809  4844 net.cpp:338] inception_4e/5x5 -> inception_4e/5x5
I0105 14:43:08.658823  4844 net.cpp:113] Setting up inception_4e/5x5
I0105 14:43:08.660759  4844 net.cpp:120] Top shape: 80 128 14 14 (2007040)
I0105 14:43:08.660784  4844 layer_factory.hpp:74] Creating layer inception_4e/relu_5x5
I0105 14:43:08.660795  4844 net.cpp:84] Creating Layer inception_4e/relu_5x5
I0105 14:43:08.660804  4844 net.cpp:380] inception_4e/relu_5x5 <- inception_4e/5x5
I0105 14:43:08.660816  4844 net.cpp:327] inception_4e/relu_5x5 -> inception_4e/5x5 (in-place)
I0105 14:43:08.660826  4844 net.cpp:113] Setting up inception_4e/relu_5x5
I0105 14:43:08.660913  4844 net.cpp:120] Top shape: 80 128 14 14 (2007040)
I0105 14:43:08.660924  4844 layer_factory.hpp:74] Creating layer inception_4e/pool
I0105 14:43:08.660933  4844 layer_factory.cpp:56] CUDNN does not support padding or multiple tops. Using Caffe's own pooling layer.
I0105 14:43:08.660946  4844 net.cpp:84] Creating Layer inception_4e/pool
I0105 14:43:08.660953  4844 net.cpp:380] inception_4e/pool <- inception_4d/output_inception_4d/output_0_split_4
I0105 14:43:08.660964  4844 net.cpp:338] inception_4e/pool -> inception_4e/pool
I0105 14:43:08.660974  4844 net.cpp:113] Setting up inception_4e/pool
I0105 14:43:08.660989  4844 net.cpp:120] Top shape: 80 528 14 14 (8279040)
I0105 14:43:08.660996  4844 layer_factory.hpp:74] Creating layer inception_4e/pool_proj
I0105 14:43:08.661010  4844 net.cpp:84] Creating Layer inception_4e/pool_proj
I0105 14:43:08.661432  4844 net.cpp:380] inception_4e/pool_proj <- inception_4e/pool
I0105 14:43:08.661455  4844 net.cpp:338] inception_4e/pool_proj -> inception_4e/pool_proj
I0105 14:43:08.661468  4844 net.cpp:113] Setting up inception_4e/pool_proj
I0105 14:43:08.662933  4844 net.cpp:120] Top shape: 80 128 14 14 (2007040)
I0105 14:43:08.662956  4844 layer_factory.hpp:74] Creating layer inception_4e/relu_pool_proj
I0105 14:43:08.662973  4844 net.cpp:84] Creating Layer inception_4e/relu_pool_proj
I0105 14:43:08.662981  4844 net.cpp:380] inception_4e/relu_pool_proj <- inception_4e/pool_proj
I0105 14:43:08.662992  4844 net.cpp:327] inception_4e/relu_pool_proj -> inception_4e/pool_proj (in-place)
I0105 14:43:08.663002  4844 net.cpp:113] Setting up inception_4e/relu_pool_proj
I0105 14:43:08.663089  4844 net.cpp:120] Top shape: 80 128 14 14 (2007040)
I0105 14:43:08.663100  4844 layer_factory.hpp:74] Creating layer inception_4e/output
I0105 14:43:08.663112  4844 net.cpp:84] Creating Layer inception_4e/output
I0105 14:43:08.663121  4844 net.cpp:380] inception_4e/output <- inception_4e/1x1
I0105 14:43:08.663130  4844 net.cpp:380] inception_4e/output <- inception_4e/3x3
I0105 14:43:08.663141  4844 net.cpp:380] inception_4e/output <- inception_4e/5x5
I0105 14:43:08.663148  4844 net.cpp:380] inception_4e/output <- inception_4e/pool_proj
I0105 14:43:08.663158  4844 net.cpp:338] inception_4e/output -> inception_4e/output
I0105 14:43:08.663203  4844 net.cpp:113] Setting up inception_4e/output
I0105 14:43:08.663215  4844 net.cpp:120] Top shape: 80 832 14 14 (13045760)
I0105 14:43:08.663221  4844 layer_factory.hpp:74] Creating layer pool4/3x3_s2
I0105 14:43:08.663233  4844 net.cpp:84] Creating Layer pool4/3x3_s2
I0105 14:43:08.663240  4844 net.cpp:380] pool4/3x3_s2 <- inception_4e/output
I0105 14:43:08.663259  4844 net.cpp:338] pool4/3x3_s2 -> pool4/3x3_s2
I0105 14:43:08.663270  4844 net.cpp:113] Setting up pool4/3x3_s2
I0105 14:43:08.663637  4844 net.cpp:120] Top shape: 80 832 7 7 (3261440)
I0105 14:43:08.663667  4844 layer_factory.hpp:74] Creating layer pool4/3x3_s2_pool4/3x3_s2_0_split
I0105 14:43:08.663696  4844 net.cpp:84] Creating Layer pool4/3x3_s2_pool4/3x3_s2_0_split
I0105 14:43:08.663704  4844 net.cpp:380] pool4/3x3_s2_pool4/3x3_s2_0_split <- pool4/3x3_s2
I0105 14:43:08.663713  4844 net.cpp:338] pool4/3x3_s2_pool4/3x3_s2_0_split -> pool4/3x3_s2_pool4/3x3_s2_0_split_0
I0105 14:43:08.663724  4844 net.cpp:338] pool4/3x3_s2_pool4/3x3_s2_0_split -> pool4/3x3_s2_pool4/3x3_s2_0_split_1
I0105 14:43:08.663736  4844 net.cpp:338] pool4/3x3_s2_pool4/3x3_s2_0_split -> pool4/3x3_s2_pool4/3x3_s2_0_split_2
I0105 14:43:08.663746  4844 net.cpp:338] pool4/3x3_s2_pool4/3x3_s2_0_split -> pool4/3x3_s2_pool4/3x3_s2_0_split_3
I0105 14:43:08.663754  4844 net.cpp:113] Setting up pool4/3x3_s2_pool4/3x3_s2_0_split
I0105 14:43:08.663765  4844 net.cpp:120] Top shape: 80 832 7 7 (3261440)
I0105 14:43:08.663774  4844 net.cpp:120] Top shape: 80 832 7 7 (3261440)
I0105 14:43:08.663780  4844 net.cpp:120] Top shape: 80 832 7 7 (3261440)
I0105 14:43:08.663787  4844 net.cpp:120] Top shape: 80 832 7 7 (3261440)
I0105 14:43:08.663794  4844 layer_factory.hpp:74] Creating layer inception_5a/1x1
I0105 14:43:08.663805  4844 net.cpp:84] Creating Layer inception_5a/1x1
I0105 14:43:08.663811  4844 net.cpp:380] inception_5a/1x1 <- pool4/3x3_s2_pool4/3x3_s2_0_split_0
I0105 14:43:08.663822  4844 net.cpp:338] inception_5a/1x1 -> inception_5a/1x1
I0105 14:43:08.663833  4844 net.cpp:113] Setting up inception_5a/1x1
I0105 14:43:08.668275  4844 net.cpp:120] Top shape: 80 256 7 7 (1003520)
I0105 14:43:08.668311  4844 layer_factory.hpp:74] Creating layer inception_5a/relu_1x1
I0105 14:43:08.668325  4844 net.cpp:84] Creating Layer inception_5a/relu_1x1
I0105 14:43:08.668334  4844 net.cpp:380] inception_5a/relu_1x1 <- inception_5a/1x1
I0105 14:43:08.668344  4844 net.cpp:327] inception_5a/relu_1x1 -> inception_5a/1x1 (in-place)
I0105 14:43:08.668356  4844 net.cpp:113] Setting up inception_5a/relu_1x1
I0105 14:43:08.668447  4844 net.cpp:120] Top shape: 80 256 7 7 (1003520)
I0105 14:43:08.668457  4844 layer_factory.hpp:74] Creating layer inception_5a/3x3_reduce
I0105 14:43:08.668473  4844 net.cpp:84] Creating Layer inception_5a/3x3_reduce
I0105 14:43:08.668480  4844 net.cpp:380] inception_5a/3x3_reduce <- pool4/3x3_s2_pool4/3x3_s2_0_split_1
I0105 14:43:08.668490  4844 net.cpp:338] inception_5a/3x3_reduce -> inception_5a/3x3_reduce
I0105 14:43:08.668503  4844 net.cpp:113] Setting up inception_5a/3x3_reduce
I0105 14:43:08.670802  4844 net.cpp:120] Top shape: 80 160 7 7 (627200)
I0105 14:43:08.670827  4844 layer_factory.hpp:74] Creating layer inception_5a/relu_3x3_reduce
I0105 14:43:08.670838  4844 net.cpp:84] Creating Layer inception_5a/relu_3x3_reduce
I0105 14:43:08.670846  4844 net.cpp:380] inception_5a/relu_3x3_reduce <- inception_5a/3x3_reduce
I0105 14:43:08.670855  4844 net.cpp:327] inception_5a/relu_3x3_reduce -> inception_5a/3x3_reduce (in-place)
I0105 14:43:08.670866  4844 net.cpp:113] Setting up inception_5a/relu_3x3_reduce
I0105 14:43:08.670956  4844 net.cpp:120] Top shape: 80 160 7 7 (627200)
I0105 14:43:08.670966  4844 layer_factory.hpp:74] Creating layer inception_5a/3x3
I0105 14:43:08.670979  4844 net.cpp:84] Creating Layer inception_5a/3x3
I0105 14:43:08.670986  4844 net.cpp:380] inception_5a/3x3 <- inception_5a/3x3_reduce
I0105 14:43:08.670996  4844 net.cpp:338] inception_5a/3x3 -> inception_5a/3x3
I0105 14:43:08.671007  4844 net.cpp:113] Setting up inception_5a/3x3
I0105 14:43:08.677516  4844 net.cpp:120] Top shape: 80 320 7 7 (1254400)
I0105 14:43:08.677554  4844 layer_factory.hpp:74] Creating layer inception_5a/relu_3x3
I0105 14:43:08.677568  4844 net.cpp:84] Creating Layer inception_5a/relu_3x3
I0105 14:43:08.677577  4844 net.cpp:380] inception_5a/relu_3x3 <- inception_5a/3x3
I0105 14:43:08.677589  4844 net.cpp:327] inception_5a/relu_3x3 -> inception_5a/3x3 (in-place)
I0105 14:43:08.677602  4844 net.cpp:113] Setting up inception_5a/relu_3x3
I0105 14:43:08.677723  4844 net.cpp:120] Top shape: 80 320 7 7 (1254400)
I0105 14:43:08.677733  4844 layer_factory.hpp:74] Creating layer inception_5a/5x5_reduce
I0105 14:43:08.677788  4844 net.cpp:84] Creating Layer inception_5a/5x5_reduce
I0105 14:43:08.677798  4844 net.cpp:380] inception_5a/5x5_reduce <- pool4/3x3_s2_pool4/3x3_s2_0_split_2
I0105 14:43:08.677811  4844 net.cpp:338] inception_5a/5x5_reduce -> inception_5a/5x5_reduce
I0105 14:43:08.677834  4844 net.cpp:113] Setting up inception_5a/5x5_reduce
I0105 14:43:08.678728  4844 net.cpp:120] Top shape: 80 32 7 7 (125440)
I0105 14:43:08.678747  4844 layer_factory.hpp:74] Creating layer inception_5a/relu_5x5_reduce
I0105 14:43:08.678764  4844 net.cpp:84] Creating Layer inception_5a/relu_5x5_reduce
I0105 14:43:08.678772  4844 net.cpp:380] inception_5a/relu_5x5_reduce <- inception_5a/5x5_reduce
I0105 14:43:08.678786  4844 net.cpp:327] inception_5a/relu_5x5_reduce -> inception_5a/5x5_reduce (in-place)
I0105 14:43:08.678796  4844 net.cpp:113] Setting up inception_5a/relu_5x5_reduce
I0105 14:43:08.679164  4844 net.cpp:120] Top shape: 80 32 7 7 (125440)
I0105 14:43:08.679179  4844 layer_factory.hpp:74] Creating layer inception_5a/5x5
I0105 14:43:08.679194  4844 net.cpp:84] Creating Layer inception_5a/5x5
I0105 14:43:08.679203  4844 net.cpp:380] inception_5a/5x5 <- inception_5a/5x5_reduce
I0105 14:43:08.679217  4844 net.cpp:338] inception_5a/5x5 -> inception_5a/5x5
I0105 14:43:08.679231  4844 net.cpp:113] Setting up inception_5a/5x5
I0105 14:43:08.681376  4844 net.cpp:120] Top shape: 80 128 7 7 (501760)
I0105 14:43:08.681404  4844 layer_factory.hpp:74] Creating layer inception_5a/relu_5x5
I0105 14:43:08.681421  4844 net.cpp:84] Creating Layer inception_5a/relu_5x5
I0105 14:43:08.681432  4844 net.cpp:380] inception_5a/relu_5x5 <- inception_5a/5x5
I0105 14:43:08.681442  4844 net.cpp:327] inception_5a/relu_5x5 -> inception_5a/5x5 (in-place)
I0105 14:43:08.681455  4844 net.cpp:113] Setting up inception_5a/relu_5x5
I0105 14:43:08.681570  4844 net.cpp:120] Top shape: 80 128 7 7 (501760)
I0105 14:43:08.681583  4844 layer_factory.hpp:74] Creating layer inception_5a/pool
I0105 14:43:08.681594  4844 layer_factory.cpp:56] CUDNN does not support padding or multiple tops. Using Caffe's own pooling layer.
I0105 14:43:08.681607  4844 net.cpp:84] Creating Layer inception_5a/pool
I0105 14:43:08.681617  4844 net.cpp:380] inception_5a/pool <- pool4/3x3_s2_pool4/3x3_s2_0_split_3
I0105 14:43:08.681632  4844 net.cpp:338] inception_5a/pool -> inception_5a/pool
I0105 14:43:08.681646  4844 net.cpp:113] Setting up inception_5a/pool
I0105 14:43:08.681663  4844 net.cpp:120] Top shape: 80 832 7 7 (3261440)
I0105 14:43:08.681670  4844 layer_factory.hpp:74] Creating layer inception_5a/pool_proj
I0105 14:43:08.681684  4844 net.cpp:84] Creating Layer inception_5a/pool_proj
I0105 14:43:08.681694  4844 net.cpp:380] inception_5a/pool_proj <- inception_5a/pool
I0105 14:43:08.681711  4844 net.cpp:338] inception_5a/pool_proj -> inception_5a/pool_proj
I0105 14:43:08.681727  4844 net.cpp:113] Setting up inception_5a/pool_proj
I0105 14:43:08.683681  4844 net.cpp:120] Top shape: 80 128 7 7 (501760)
I0105 14:43:08.683703  4844 layer_factory.hpp:74] Creating layer inception_5a/relu_pool_proj
I0105 14:43:08.683715  4844 net.cpp:84] Creating Layer inception_5a/relu_pool_proj
I0105 14:43:08.683723  4844 net.cpp:380] inception_5a/relu_pool_proj <- inception_5a/pool_proj
I0105 14:43:08.683732  4844 net.cpp:327] inception_5a/relu_pool_proj -> inception_5a/pool_proj (in-place)
I0105 14:43:08.683743  4844 net.cpp:113] Setting up inception_5a/relu_pool_proj
I0105 14:43:08.683830  4844 net.cpp:120] Top shape: 80 128 7 7 (501760)
I0105 14:43:08.683838  4844 layer_factory.hpp:74] Creating layer inception_5a/output
I0105 14:43:08.683847  4844 net.cpp:84] Creating Layer inception_5a/output
I0105 14:43:08.683856  4844 net.cpp:380] inception_5a/output <- inception_5a/1x1
I0105 14:43:08.683864  4844 net.cpp:380] inception_5a/output <- inception_5a/3x3
I0105 14:43:08.683871  4844 net.cpp:380] inception_5a/output <- inception_5a/5x5
I0105 14:43:08.683878  4844 net.cpp:380] inception_5a/output <- inception_5a/pool_proj
I0105 14:43:08.683902  4844 net.cpp:338] inception_5a/output -> inception_5a/output
I0105 14:43:08.683924  4844 net.cpp:113] Setting up inception_5a/output
I0105 14:43:08.683936  4844 net.cpp:120] Top shape: 80 832 7 7 (3261440)
I0105 14:43:08.683943  4844 layer_factory.hpp:74] Creating layer inception_5a/output_inception_5a/output_0_split
I0105 14:43:08.683953  4844 net.cpp:84] Creating Layer inception_5a/output_inception_5a/output_0_split
I0105 14:43:08.683959  4844 net.cpp:380] inception_5a/output_inception_5a/output_0_split <- inception_5a/output
I0105 14:43:08.683969  4844 net.cpp:338] inception_5a/output_inception_5a/output_0_split -> inception_5a/output_inception_5a/output_0_split_0
I0105 14:43:08.683980  4844 net.cpp:338] inception_5a/output_inception_5a/output_0_split -> inception_5a/output_inception_5a/output_0_split_1
I0105 14:43:08.683990  4844 net.cpp:338] inception_5a/output_inception_5a/output_0_split -> inception_5a/output_inception_5a/output_0_split_2
I0105 14:43:08.683998  4844 net.cpp:338] inception_5a/output_inception_5a/output_0_split -> inception_5a/output_inception_5a/output_0_split_3
I0105 14:43:08.684010  4844 net.cpp:113] Setting up inception_5a/output_inception_5a/output_0_split
I0105 14:43:08.684020  4844 net.cpp:120] Top shape: 80 832 7 7 (3261440)
I0105 14:43:08.684027  4844 net.cpp:120] Top shape: 80 832 7 7 (3261440)
I0105 14:43:08.684036  4844 net.cpp:120] Top shape: 80 832 7 7 (3261440)
I0105 14:43:08.684042  4844 net.cpp:120] Top shape: 80 832 7 7 (3261440)
I0105 14:43:08.684048  4844 layer_factory.hpp:74] Creating layer inception_5b/1x1
I0105 14:43:08.684058  4844 net.cpp:84] Creating Layer inception_5b/1x1
I0105 14:43:08.684064  4844 net.cpp:380] inception_5b/1x1 <- inception_5a/output_inception_5a/output_0_split_0
I0105 14:43:08.684075  4844 net.cpp:338] inception_5b/1x1 -> inception_5b/1x1
I0105 14:43:08.684085  4844 net.cpp:113] Setting up inception_5b/1x1
I0105 14:43:08.692636  4844 net.cpp:120] Top shape: 80 384 7 7 (1505280)
I0105 14:43:08.692672  4844 layer_factory.hpp:74] Creating layer inception_5b/relu_1x1
I0105 14:43:08.692687  4844 net.cpp:84] Creating Layer inception_5b/relu_1x1
I0105 14:43:08.692697  4844 net.cpp:380] inception_5b/relu_1x1 <- inception_5b/1x1
I0105 14:43:08.692708  4844 net.cpp:327] inception_5b/relu_1x1 -> inception_5b/1x1 (in-place)
I0105 14:43:08.692719  4844 net.cpp:113] Setting up inception_5b/relu_1x1
I0105 14:43:08.693176  4844 net.cpp:120] Top shape: 80 384 7 7 (1505280)
I0105 14:43:08.693193  4844 layer_factory.hpp:74] Creating layer inception_5b/3x3_reduce
I0105 14:43:08.693209  4844 net.cpp:84] Creating Layer inception_5b/3x3_reduce
I0105 14:43:08.693218  4844 net.cpp:380] inception_5b/3x3_reduce <- inception_5a/output_inception_5a/output_0_split_1
I0105 14:43:08.693231  4844 net.cpp:338] inception_5b/3x3_reduce -> inception_5b/3x3_reduce
I0105 14:43:08.693244  4844 net.cpp:113] Setting up inception_5b/3x3_reduce
I0105 14:43:08.695952  4844 net.cpp:120] Top shape: 80 192 7 7 (752640)
I0105 14:43:08.695991  4844 layer_factory.hpp:74] Creating layer inception_5b/relu_3x3_reduce
I0105 14:43:08.696008  4844 net.cpp:84] Creating Layer inception_5b/relu_3x3_reduce
I0105 14:43:08.696022  4844 net.cpp:380] inception_5b/relu_3x3_reduce <- inception_5b/3x3_reduce
I0105 14:43:08.696032  4844 net.cpp:327] inception_5b/relu_3x3_reduce -> inception_5b/3x3_reduce (in-place)
I0105 14:43:08.696043  4844 net.cpp:113] Setting up inception_5b/relu_3x3_reduce
I0105 14:43:08.696138  4844 net.cpp:120] Top shape: 80 192 7 7 (752640)
I0105 14:43:08.696148  4844 layer_factory.hpp:74] Creating layer inception_5b/3x3
I0105 14:43:08.696161  4844 net.cpp:84] Creating Layer inception_5b/3x3
I0105 14:43:08.696168  4844 net.cpp:380] inception_5b/3x3 <- inception_5b/3x3_reduce
I0105 14:43:08.696182  4844 net.cpp:338] inception_5b/3x3 -> inception_5b/3x3
I0105 14:43:08.696218  4844 net.cpp:113] Setting up inception_5b/3x3
I0105 14:43:08.707510  4844 net.cpp:120] Top shape: 80 384 7 7 (1505280)
I0105 14:43:08.707561  4844 layer_factory.hpp:74] Creating layer inception_5b/relu_3x3
I0105 14:43:08.707593  4844 net.cpp:84] Creating Layer inception_5b/relu_3x3
I0105 14:43:08.707617  4844 net.cpp:380] inception_5b/relu_3x3 <- inception_5b/3x3
I0105 14:43:08.707629  4844 net.cpp:327] inception_5b/relu_3x3 -> inception_5b/3x3 (in-place)
I0105 14:43:08.707643  4844 net.cpp:113] Setting up inception_5b/relu_3x3
I0105 14:43:08.707736  4844 net.cpp:120] Top shape: 80 384 7 7 (1505280)
I0105 14:43:08.707744  4844 layer_factory.hpp:74] Creating layer inception_5b/5x5_reduce
I0105 14:43:08.707759  4844 net.cpp:84] Creating Layer inception_5b/5x5_reduce
I0105 14:43:08.707768  4844 net.cpp:380] inception_5b/5x5_reduce <- inception_5a/output_inception_5a/output_0_split_2
I0105 14:43:08.707779  4844 net.cpp:338] inception_5b/5x5_reduce -> inception_5b/5x5_reduce
I0105 14:43:08.707792  4844 net.cpp:113] Setting up inception_5b/5x5_reduce
I0105 14:43:08.708858  4844 net.cpp:120] Top shape: 80 48 7 7 (188160)
I0105 14:43:08.708879  4844 layer_factory.hpp:74] Creating layer inception_5b/relu_5x5_reduce
I0105 14:43:08.708890  4844 net.cpp:84] Creating Layer inception_5b/relu_5x5_reduce
I0105 14:43:08.708899  4844 net.cpp:380] inception_5b/relu_5x5_reduce <- inception_5b/5x5_reduce
I0105 14:43:08.708907  4844 net.cpp:327] inception_5b/relu_5x5_reduce -> inception_5b/5x5_reduce (in-place)
I0105 14:43:08.708919  4844 net.cpp:113] Setting up inception_5b/relu_5x5_reduce
I0105 14:43:08.709007  4844 net.cpp:120] Top shape: 80 48 7 7 (188160)
I0105 14:43:08.709120  4844 layer_factory.hpp:74] Creating layer inception_5b/5x5
I0105 14:43:08.709151  4844 net.cpp:84] Creating Layer inception_5b/5x5
I0105 14:43:08.709158  4844 net.cpp:380] inception_5b/5x5 <- inception_5b/5x5_reduce
I0105 14:43:08.709169  4844 net.cpp:338] inception_5b/5x5 -> inception_5b/5x5
I0105 14:43:08.709182  4844 net.cpp:113] Setting up inception_5b/5x5
I0105 14:43:08.711632  4844 net.cpp:120] Top shape: 80 128 7 7 (501760)
I0105 14:43:08.711671  4844 layer_factory.hpp:74] Creating layer inception_5b/relu_5x5
I0105 14:43:08.711691  4844 net.cpp:84] Creating Layer inception_5b/relu_5x5
I0105 14:43:08.711700  4844 net.cpp:380] inception_5b/relu_5x5 <- inception_5b/5x5
I0105 14:43:08.711709  4844 net.cpp:327] inception_5b/relu_5x5 -> inception_5b/5x5 (in-place)
I0105 14:43:08.711719  4844 net.cpp:113] Setting up inception_5b/relu_5x5
I0105 14:43:08.712085  4844 net.cpp:120] Top shape: 80 128 7 7 (501760)
I0105 14:43:08.712100  4844 layer_factory.hpp:74] Creating layer inception_5b/pool
I0105 14:43:08.712107  4844 layer_factory.cpp:56] CUDNN does not support padding or multiple tops. Using Caffe's own pooling layer.
I0105 14:43:08.712117  4844 net.cpp:84] Creating Layer inception_5b/pool
I0105 14:43:08.712124  4844 net.cpp:380] inception_5b/pool <- inception_5a/output_inception_5a/output_0_split_3
I0105 14:43:08.712136  4844 net.cpp:338] inception_5b/pool -> inception_5b/pool
I0105 14:43:08.712148  4844 net.cpp:113] Setting up inception_5b/pool
I0105 14:43:08.712162  4844 net.cpp:120] Top shape: 80 832 7 7 (3261440)
I0105 14:43:08.712169  4844 layer_factory.hpp:74] Creating layer inception_5b/pool_proj
I0105 14:43:08.712183  4844 net.cpp:84] Creating Layer inception_5b/pool_proj
I0105 14:43:08.712190  4844 net.cpp:380] inception_5b/pool_proj <- inception_5b/pool
I0105 14:43:08.712203  4844 net.cpp:338] inception_5b/pool_proj -> inception_5b/pool_proj
I0105 14:43:08.712214  4844 net.cpp:113] Setting up inception_5b/pool_proj
I0105 14:43:08.714354  4844 net.cpp:120] Top shape: 80 128 7 7 (501760)
I0105 14:43:08.714387  4844 layer_factory.hpp:74] Creating layer inception_5b/relu_pool_proj
I0105 14:43:08.714404  4844 net.cpp:84] Creating Layer inception_5b/relu_pool_proj
I0105 14:43:08.714416  4844 net.cpp:380] inception_5b/relu_pool_proj <- inception_5b/pool_proj
I0105 14:43:08.714431  4844 net.cpp:327] inception_5b/relu_pool_proj -> inception_5b/pool_proj (in-place)
I0105 14:43:08.714443  4844 net.cpp:113] Setting up inception_5b/relu_pool_proj
I0105 14:43:08.714553  4844 net.cpp:120] Top shape: 80 128 7 7 (501760)
I0105 14:43:08.714566  4844 layer_factory.hpp:74] Creating layer inception_5b/output
I0105 14:43:08.714594  4844 net.cpp:84] Creating Layer inception_5b/output
I0105 14:43:08.714620  4844 net.cpp:380] inception_5b/output <- inception_5b/1x1
I0105 14:43:08.714632  4844 net.cpp:380] inception_5b/output <- inception_5b/3x3
I0105 14:43:08.714643  4844 net.cpp:380] inception_5b/output <- inception_5b/5x5
I0105 14:43:08.714653  4844 net.cpp:380] inception_5b/output <- inception_5b/pool_proj
I0105 14:43:08.714664  4844 net.cpp:338] inception_5b/output -> inception_5b/output
I0105 14:43:08.714676  4844 net.cpp:113] Setting up inception_5b/output
I0105 14:43:08.714691  4844 net.cpp:120] Top shape: 80 1024 7 7 (4014080)
I0105 14:43:08.714700  4844 layer_factory.hpp:74] Creating layer pool5/7x7_s1
I0105 14:43:08.714714  4844 net.cpp:84] Creating Layer pool5/7x7_s1
I0105 14:43:08.714723  4844 net.cpp:380] pool5/7x7_s1 <- inception_5b/output
I0105 14:43:08.714738  4844 net.cpp:338] pool5/7x7_s1 -> pool5/7x7_s1
I0105 14:43:08.714752  4844 net.cpp:113] Setting up pool5/7x7_s1
I0105 14:43:08.714871  4844 net.cpp:120] Top shape: 80 1024 1 1 (81920)
I0105 14:43:08.714884  4844 layer_factory.hpp:74] Creating layer pool5/drop_7x7_s1
I0105 14:43:08.714896  4844 net.cpp:84] Creating Layer pool5/drop_7x7_s1
I0105 14:43:08.714905  4844 net.cpp:380] pool5/drop_7x7_s1 <- pool5/7x7_s1
I0105 14:43:08.714915  4844 net.cpp:327] pool5/drop_7x7_s1 -> pool5/7x7_s1 (in-place)
I0105 14:43:08.714927  4844 net.cpp:113] Setting up pool5/drop_7x7_s1
I0105 14:43:08.714941  4844 net.cpp:120] Top shape: 80 1024 1 1 (81920)
I0105 14:43:08.714948  4844 layer_factory.hpp:74] Creating layer loss3/classifier_kaggle
I0105 14:43:08.714962  4844 net.cpp:84] Creating Layer loss3/classifier_kaggle
I0105 14:43:08.714969  4844 net.cpp:380] loss3/classifier_kaggle <- pool5/7x7_s1
I0105 14:43:08.714978  4844 net.cpp:338] loss3/classifier_kaggle -> loss3/classifier_kaggle
I0105 14:43:08.714989  4844 net.cpp:113] Setting up loss3/classifier_kaggle
I0105 14:43:08.720834  4844 net.cpp:120] Top shape: 80 447 (35760)
I0105 14:43:08.720888  4844 layer_factory.hpp:74] Creating layer loss3/loss3
I0105 14:43:08.720903  4844 net.cpp:84] Creating Layer loss3/loss3
I0105 14:43:08.720912  4844 net.cpp:380] loss3/loss3 <- loss3/classifier_kaggle
I0105 14:43:08.720924  4844 net.cpp:380] loss3/loss3 <- label_data_1_split_2
I0105 14:43:08.720934  4844 net.cpp:338] loss3/loss3 -> loss3/loss3
I0105 14:43:08.720949  4844 net.cpp:113] Setting up loss3/loss3
…
I0105 14:43:08.729676  4844 net.cpp:257] The NetState phase (1) differed from the phase (0) specified by a rule in layer data
I0105 14:43:08.731714  4844 net.cpp:42] Initializing net from parameters: 
name: "MYNET"
state {
  phase: TEST
}
layer {
  name: "data"
  type: "ImageData"
  top: "data"
  top: "label"
  include {
    phase: TEST
  }
  transform_param {
    mirror: false
    crop_size: 224
    mean_value: 129
    mean_value: 129
    mean_value: 129
  }
  image_data_param {
    source: "/home/coldmanck/kaggle/label_val_full_resize_rotated.txt"
    batch_size: 50
    shuffle: true
  }
}
layer {
  name: "conv1/7x7_s2"
  type: "Convolution"
  bottom: "data"
  top: "conv1/7x7_s2"
  param {
    lr_mult: 1
    decay_mult: 1
  }
  param {
    lr_mult: 2
    decay_mult: 0
  }
  convolution_param {
    num_output: 64
    pad: 3
    kernel_size: 7
    stride: 2
    weight_filler {
      type: "xavier"
    }
    bias_filler {
      type: "constant"
      value: 0.2
    }
  }
}
layer {
  name: "conv1/relu_7x7"
  type: "ReLU"
  bottom: "conv1/7x7_s2"
  top: "conv1/7x7_s2"
}
layer {
  name: "pool1/3x3_s2"
  type: "Pooling"
  bottom: "conv1/7x7_s2"
  top: "pool1/3x3_s2"
  pooling_param {
    pool: MAX
    kernel_size: 3
    stride: 2
  }
}
layer {
  name: "pool1/norm1"
  type: "LRN"
  bottom: "pool1/3x3_s2"
  top: "pool1/norm1"
  lrn_param {
    local_size: 5
    alpha: 0.0001
    beta: 0.75
  }
}
layer {
  name: "conv2/3x3_reduce"
  type: "Convolution"
  bottom: "pool1/norm1"
  top: "conv2/3x3_reduce"
  param {
    lr_mult: 1
    decay_mult: 1
  }
  param {
    lr_mult: 2
    decay_mult: 0
  }
  convolution_param {
    num_output: 64
    kernel_size: 1
    weight_filler {
      type: "xavier"
    }
    bias_filler {
      type: "constant"
      value: 0.2
    }
  }
}
layer {
  name: "conv2/relu_3x3_reduce"
  type: "ReLU"
  bottom: "conv2/3x3_reduce"
  top: "conv2/3x3_reduce"
}
layer {
  name: "conv2/3x3"
  type: "Convolution"
  bottom: "conv2/3x3_reduce"
  top: "conv2/3x3"
  param {
    lr_mult: 1
    decay_mult: 1
  }
  param {
    lr_mult: 2
    decay_mult: 0
  }
  convolution_param {
    num_output: 192
    pad: 1
    kernel_size: 3
    weight_filler {
      type: "xavier"
    }
    bias_filler {
      type: "constant"
      value: 0.2
    }
  }
}
layer {
  name: "conv2/relu_3x3"
  type: "ReLU"
  bottom: "conv2/3x3"
  top: "conv2/3x3"
}
layer {
  name: "conv2/norm2"
  type: "LRN"
  bottom: "conv2/3x3"
  top: "conv2/norm2"
  lrn_param {
    local_size: 5
    alpha: 0.0001
    beta: 0.75
  }
}
layer {
  name: "pool2/3x3_s2"
  type: "Pooling"
  bottom: "conv2/norm2"
  top: "pool2/3x3_s2"
  pooling_param {
    pool: MAX
    kernel_size: 3
    stride: 2
  }
}
layer {
  name: "inception_3a/1x1"
  type: "Convolution"
  bottom: "pool2/3x3_s2"
  top: "inception_3a/1x1"
  param {
    lr_mult: 1
    decay_mult: 1
  }
  param {
    lr_mult: 2
    decay_mult: 0
  }
  convolution_param {
    num_output: 64
    kernel_size: 1
    weight_filler {
      type: "xavier"
    }
    bias_filler {
      type: "constant"
      value: 0.2
    }
  }
}
layer {
  name: "inception_3a/relu_1x1"
  type: "ReLU"
  bottom: "inception_3a/1x1"
  top: "inception_3a/1x1"
}
layer {
  name: "inception_3a/3x3_reduce"
  type: "Convolution"
  bottom: "pool2/3x3_s2"
  top: "inception_3a/3x3_reduce"
  param {
    lr_mult: 1
    decay_mult: 1
  }
  param {
    lr_mult: 2
    decay_mult: 0
  }
  convolution_param {
    num_output: 96
    kernel_size: 1
    weight_filler {
      type: "xavier"
    }
    bias_filler {
      type: "constant"
      value: 0.2
    }
  }
}
layer {
  name: "inception_3a/relu_3x3_reduce"
  type: "ReLU"
  bottom: "inception_3a/3x3_reduce"
  top: "inception_3a/3x3_reduce"
}
layer {
  name: "inception_3a/3x3"
  type: "Convolution"
  bottom: "inception_3a/3x3_reduce"
  top: "inception_3a/3x3"
  param {
    lr_mult: 1
    decay_mult: 1
  }
  param {
    lr_mult: 2
    decay_mult: 0
  }
  convolution_param {
    num_output: 128
    pad: 1
    kernel_size: 3
    weight_filler {
      type: "xavier"
    }
    bias_filler {
      type: "constant"
      value: 0.2
    }
  }
}
layer {
  name: "inception_3a/relu_3x3"
  type: "ReLU"
  bottom: "inception_3a/3x3"
  top: "inception_3a/3x3"
}
layer {
  name: "inception_3a/5x5_reduce"
  type: "Convolution"
  bottom: "pool2/3x3_s2"
  top: "inception_3a/5x5_reduce"
  param {
    lr_mult: 1
    decay_mult: 1
  }
  param {
    lr_mult: 2
    decay_mult: 0
  }
  convolution_param {
    num_output: 16
    kernel_size: 1
    weight_filler {
      type: "xavier"
    }
    bias_filler {
      type: "constant"
      value: 0.2
    }
  }
}
layer {
  name: "inception_3a/relu_5x5_reduce"
  type: "ReLU"
  bottom: "inception_3a/5x5_reduce"
  top: "inception_3a/5x5_reduce"
}
layer {
  name: "inception_3a/5x5"
  type: "Convolution"
  bottom: "inception_3a/5x5_reduce"
  top: "inception_3a/5x5"
  param {
    lr_mult: 1
    decay_mult: 1
  }
  param {
    lr_mult: 2
    decay_mult: 0
  }
  convolution_param {
    num_output: 32
    pad: 2
    kernel_size: 5
    weight_filler {
      type: "xavier"
    }
    bias_filler {
      type: "constant"
      value: 0.2
    }
  }
}
layer {
  name: "inception_3a/relu_5x5"
  type: "ReLU"
  bottom: "inception_3a/5x5"
  top: "inception_3a/5x5"
}
layer {
  name: "inception_3a/pool"
  type: "Pooling"
  bottom: "pool2/3x3_s2"
  top: "inception_3a/pool"
  pooling_param {
    pool: MAX
    kernel_size: 3
    stride: 1
    pad: 1
  }
}
layer {
  name: "inception_3a/pool_proj"
  type: "Convolution"
  bottom: "inception_3a/pool"
  top: "inception_3a/pool_proj"
  param {
    lr_mult: 1
    decay_mult: 1
  }
  param {
    lr_mult: 2
    decay_mult: 0
  }
  convolution_param {
    num_output: 32
    kernel_size: 1
    weight_filler {
      type: "xavier"
    }
    bias_filler {
      type: "constant"
      value: 0.2
    }
  }
}
layer {
  name: "inception_3a/relu_pool_proj"
  type: "ReLU"
  bottom: "inception_3a/pool_proj"
  top: "inception_3a/pool_proj"
}
layer {
  name: "inception_3a/output"
  type: "Concat"
  bottom: "inception_3a/1x1"
  bottom: "inception_3a/3x3"
  bottom: "inception_3a/5x5"
  bottom: "inception_3a/pool_proj"
  top: "inception_3a/output"
}
layer {
  name: "inception_3b/1x1"
  type: "Convolution"
  bottom: "inception_3a/output"
  top: "inception_3b/1x1"
  param {
    lr_mult: 1
    decay_mult: 1
  }
  param {
    lr_mult: 2
    decay_mult: 0
  }
  convolution_param {
    num_output: 128
    kernel_size: 1
    weight_filler {
      type: "xavier"
    }
    bias_filler {
      type: "constant"
      value: 0.2
    }
  }
}
layer {
  name: "inception_3b/relu_1x1"
  type: "ReLU"
  bottom: "inception_3b/1x1"
  top: "inception_3b/1x1"
}
layer {
  name: "inception_3b/3x3_reduce"
  type: "Convolution"
  bottom: "inception_3a/output"
  top: "inception_3b/3x3_reduce"
  param {
    lr_mult: 1
    decay_mult: 1
  }
  param {
    lr_mult: 2
    decay_mult: 0
  }
  convolution_param {
    num_output: 128
    kernel_size: 1
    weight_filler {
      type: "xavier"
    }
    bias_filler {
      type: "constant"
      value: 0.2
    }
  }
}
layer {
  name: "inception_3b/relu_3x3_reduce"
  type: "ReLU"
  bottom: "inception_3b/3x3_reduce"
  top: "inception_3b/3x3_reduce"
}
layer {
  name: "inception_3b/3x3"
  type: "Convolution"
  bottom: "inception_3b/3x3_reduce"
  top: "inception_3b/3x3"
  param {
    lr_mult: 1
    decay_mult: 1
  }
  param {
    lr_mult: 2
    decay_mult: 0
  }
  convolution_param {
    num_output: 192
    pad: 1
    kernel_size: 3
    weight_filler {
      type: "xavier"
    }
    bias_filler {
      type: "constant"
      value: 0.2
    }
  }
}
layer {
  name: "inception_3b/relu_3x3"
  type: "ReLU"
  bottom: "inception_3b/3x3"
  top: "inception_3b/3x3"
}
layer {
  name: "inception_3b/5x5_reduce"
  type: "Convolution"
  bottom: "inception_3a/output"
  top: "inception_3b/5x5_reduce"
  param {
    lr_mult: 1
    decay_mult: 1
  }
  param {
    lr_mult: 2
    decay_mult: 0
  }
  convolution_param {
    num_output: 32
    kernel_size: 1
    weight_filler {
      type: "xavier"
    }
    bias_filler {
      type: "constant"
      value: 0.2
    }
  }
}
layer {
  name: "inception_3b/relu_5x5_reduce"
  type: "ReLU"
  bottom: "inception_3b/5x5_reduce"
  top: "inception_3b/5x5_reduce"
}
layer {
  name: "inception_3b/5x5"
  type: "Convolution"
  bottom: "inception_3b/5x5_reduce"
  top: "inception_3b/5x5"
  param {
    lr_mult: 1
    decay_mult: 1
  }
  param {
    lr_mult: 2
    decay_mult: 0
  }
  convolution_param {
    num_output: 96
    pad: 2
    kernel_size: 5
    weight_filler {
      type: "xavier"
    }
    bias_filler {
      type: "constant"
      value: 0.2
    }
  }
}
layer {
  name: "inception_3b/relu_5x5"
  type: "ReLU"
  bottom: "inception_3b/5x5"
  top: "inception_3b/5x5"
}
layer {
  name: "inception_3b/pool"
  type: "Pooling"
  bottom: "inception_3a/output"
  top: "inception_3b/pool"
  pooling_param {
    pool: MAX
    kernel_size: 3
    stride: 1
    pad: 1
  }
}
layer {
  name: "inception_3b/pool_proj"
  type: "Convolution"
  bottom: "inception_3b/pool"
  top: "inception_3b/pool_proj"
  param {
    lr_mult: 1
    decay_mult: 1
  }
  param {
    lr_mult: 2
    decay_mult: 0
  }
  convolution_param {
    num_output: 64
    kernel_size: 1
    weight_filler {
      type: "xavier"
    }
    bias_filler {
      type: "constant"
      value: 0.2
    }
  }
}
layer {
  name: "inception_3b/relu_pool_proj"
  type: "ReLU"
  bottom: "inception_3b/pool_proj"
  top: "inception_3b/pool_proj"
}
layer {
  name: "inception_3b/output"
  type: "Concat"
  bottom: "inception_3b/1x1"
  bottom: "inception_3b/3x3"
  bottom: "inception_3b/5x5"
  bottom: "inception_3b/pool_proj"
  top: "inception_3b/output"
}
layer {
  name: "pool3/3x3_s2"
  type: "Pooling"
  bottom: "inception_3b/output"
  top: "pool3/3x3_s2"
  pooling_param {
    pool: MAX
    kernel_size: 3
    stride: 2
  }
}
layer {
  name: "inception_4a/1x1"
  type: "Convolution"
  bottom: "pool3/3x3_s2"
  top: "inception_4a/1x1"
  param {
    lr_mult: 1
    decay_mult: 1
  }
  param {
    lr_mult: 2
    decay_mult: 0
  }
  convolution_param {
    num_output: 192
    kernel_size: 1
    weight_filler {
      type: "xavier"
    }
    bias_filler {
      type: "constant"
      value: 0.2
    }
  }
}
layer {
  name: "inception_4a/relu_1x1"
  type: "ReLU"
  bottom: "inception_4a/1x1"
  top: "inception_4a/1x1"
}
layer {
  name: "inception_4a/3x3_reduce"
  type: "Convolution"
  bottom: "pool3/3x3_s2"
  top: "inception_4a/3x3_reduce"
  param {
    lr_mult: 1
    decay_mult: 1
  }
  param {
    lr_mult: 2
    decay_mult: 0
  }
  convolution_param {
    num_output: 96
    kernel_size: 1
    weight_filler {
      type: "xavier"
    }
    bias_filler {
      type: "constant"
      value: 0.2
    }
  }
}
layer {
  name: "inception_4a/relu_3x3_reduce"
  type: "ReLU"
  bottom: "inception_4a/3x3_reduce"
  top: "inception_4a/3x3_reduce"
}
layer {
  name: "inception_4a/3x3"
  type: "Convolution"
  bottom: "inception_4a/3x3_reduce"
  top: "inception_4a/3x3"
  param {
    lr_mult: 1
    decay_mult: 1
  }
  param {
    lr_mult: 2
    decay_mult: 0
  }
  convolution_param {
    num_output: 208
    pad: 1
    kernel_size: 3
    weight_filler {
      type: "xavier"
    }
    bias_filler {
      type: "constant"
      value: 0.2
    }
  }
}
layer {
  name: "inception_4a/relu_3x3"
  type: "ReLU"
  bottom: "inception_4a/3x3"
  top: "inception_4a/3x3"
}
layer {
  name: "inception_4a/5x5_reduce"
  type: "Convolution"
  bottom: "pool3/3x3_s2"
  top: "inception_4a/5x5_reduce"
  param {
    lr_mult: 1
    decay_mult: 1
  }
  param {
    lr_mult: 2
    decay_mult: 0
  }
  convolution_param {
    num_output: 16
    kernel_size: 1
    weight_filler {
      type: "xavier"
    }
    bias_filler {
      type: "constant"
      value: 0.2
    }
  }
}
layer {
  name: "inception_4a/relu_5x5_reduce"
  type: "ReLU"
  bottom: "inception_4a/5x5_reduce"
  top: "inception_4a/5x5_reduce"
}
layer {
  name: "inception_4a/5x5"
  type: "Convolution"
  bottom: "inception_4a/5x5_reduce"
  top: "inception_4a/5x5"
  param {
    lr_mult: 1
    decay_mult: 1
  }
  param {
    lr_mult: 2
    decay_mult: 0
  }
  convolution_param {
    num_output: 48
    pad: 2
    kernel_size: 5
    weight_filler {
      type: "xavier"
    }
    bias_filler {
      type: "constant"
      value: 0.2
    }
  }
}
layer {
  name: "inception_4a/relu_5x5"
  type: "ReLU"
  bottom: "inception_4a/5x5"
  top: "inception_4a/5x5"
}
layer {
  name: "inception_4a/pool"
  type: "Pooling"
  bottom: "pool3/3x3_s2"
  top: "inception_4a/pool"
  pooling_param {
    pool: MAX
    kernel_size: 3
    stride: 1
    pad: 1
  }
}
layer {
  name: "inception_4a/pool_proj"
  type: "Convolution"
  bottom: "inception_4a/pool"
  top: "inception_4a/pool_proj"
  param {
    lr_mult: 1
    decay_mult: 1
  }
  param {
    lr_mult: 2
    decay_mult: 0
  }
  convolution_param {
    num_output: 64
    kernel_size: 1
    weight_filler {
      type: "xavier"
    }
    bias_filler {
      type: "constant"
      value: 0.2
    }
  }
}
layer {
  name: "inception_4a/relu_pool_proj"
  type: "ReLU"
  bottom: "inception_4a/pool_proj"
  top: "inception_4a/pool_proj"
}
layer {
  name: "inception_4a/output"
  type: "Concat"
  bottom: "inception_4a/1x1"
  bottom: "inception_4a/3x3"
  bottom: "inception_4a/5x5"
  bottom: "inception_4a/pool_proj"
  top: "inception_4a/output"
}
layer {
  name: "loss1/ave_pool"
  type: "Pooling"
  bottom: "inception_4a/output"
  top: "loss1/ave_pool"
  pooling_param {
    pool: AVE
    kernel_size: 5
    stride: 3
  }
}
layer {
  name: "loss1/conv"
  type: "Convolution"
  bottom: "loss1/ave_pool"
  top: "loss1/conv"
  param {
    lr_mult: 1
    decay_mult: 1
  }
  param {
    lr_mult: 2
    decay_mult: 0
  }
  convolution_param {
    num_output: 128
    kernel_size: 1
    weight_filler {
      type: "xavier"
    }
    bias_filler {
      type: "constant"
      value: 0.2
    }
  }
}
layer {
  name: "loss1/relu_conv"
  type: "ReLU"
  bottom: "loss1/conv"
  top: "loss1/conv"
}
layer {
  name: "loss1/fc"
  type: "InnerProduct"
  bottom: "loss1/conv"
  top: "loss1/fc"
  param {
    lr_mult: 1
    decay_mult: 1
  }
  param {
    lr_mult: 2
    decay_mult: 0
  }
  inner_product_param {
    num_output: 1024
    weight_filler {
      type: "xavier"
    }
    bias_filler {
      type: "constant"
      value: 0.2
    }
  }
}
layer {
  name: "loss1/relu_fc"
  type: "ReLU"
  bottom: "loss1/fc"
  top: "loss1/fc"
}
layer {
  name: "loss1/drop_fc"
  type: "Dropout"
  bottom: "loss1/fc"
  top: "loss1/fc"
  dropout_param {
    dropout_ratio: 0.7
  }
}
layer {
  name: "loss1/classifier_kaggle"
  type: "InnerProduct"
  bottom: "loss1/fc"
  top: "loss1/classifier_kaggle"
  param {
    lr_mult: 1
    decay_mult: 1
  }
  param {
    lr_mult: 2
    decay_mult: 0
  }
  inner_product_param {
    num_output: 447
    weight_filler {
      type: "xavier"
    }
    bias_filler {
      type: "constant"
      value: 0
    }
  }
}
layer {
  name: "loss1/loss"
  type: "SoftmaxWithLoss"
  bottom: "loss1/classifier_kaggle"
  bottom: "label"
  top: "loss1/loss1"
  loss_weight: 0.3
}
layer {
  name: "loss1/top-1"
  type: "Accuracy"
  bottom: "loss1/classifier_kaggle"
  bottom: "label"
  top: "loss1/top-1"
  include {
    phase: TEST
  }
}
layer {
  name: "loss1/top-5"
  type: "Accuracy"
  bottom: "loss1/classifier_kaggle"
  bottom: "label"
  top: "loss1/top-5"
  include {
    phase: TEST
  }
  accuracy_param {
    top_k: 5
  }
}
layer {
  name: "inception_4b/1x1"
  type: "Convolution"
  bottom: "inception_4a/output"
  top: "inception_4b/1x1"
  param {
    lr_mult: 1
    decay_mult: 1
  }
  param {
    lr_mult: 2
    decay_mult: 0
  }
  convolution_param {
    num_output: 160
    kernel_size: 1
    weight_filler {
      type: "xavier"
    }
    bias_filler {
      type: "constant"
      value: 0.2
    }
  }
}
layer {
  name: "inception_4b/relu_1x1"
  type: "ReLU"
  bottom: "inception_4b/1x1"
  top: "inception_4b/1x1"
}
layer {
  name: "inception_4b/3x3_reduce"
  type: "Convolution"
  bottom: "inception_4a/output"
  top: "inception_4b/3x3_reduce"
  param {
    lr_mult: 1
    decay_mult: 1
  }
  param {
    lr_mult: 2
    decay_mult: 0
  }
  convolution_param {
    num_output: 112
    kernel_size: 1
    weight_filler {
      type: "xavier"
    }
    bias_filler {
      type: "constant"
      value: 0.2
    }
  }
}
layer {
  name: "inception_4b/relu_3x3_reduce"
  type: "ReLU"
  bottom: "inception_4b/3x3_reduce"
  top: "inception_4b/3x3_reduce"
}
layer {
  name: "inception_4b/3x3"
  type: "Convolution"
  bottom: "inception_4b/3x3_reduce"
  top: "inception_4b/3x3"
  param {
    lr_mult: 1
    decay_mult: 1
  }
  param {
    lr_mult: 2
    decay_mult: 0
  }
  convolution_param {
    num_output: 224
    pad: 1
    kernel_size: 3
    weight_filler {
      type: "xavier"
    }
    bias_filler {
      type: "constant"
      value: 0.2
    }
  }
}
layer {
  name: "inception_4b/relu_3x3"
  type: "ReLU"
  bottom: "inception_4b/3x3"
  top: "inception_4b/3x3"
}
layer {
  name: "inception_4b/5x5_reduce"
  type: "Convolution"
  bottom: "inception_4a/output"
  top: "inception_4b/5x5_reduce"
  param {
    lr_mult: 1
    decay_mult: 1
  }
  param {
    lr_mult: 2
    decay_mult: 0
  }
  convolution_param {
    num_output: 24
    kernel_size: 1
    weight_filler {
      type: "xavier"
    }
    bias_filler {
      type: "constant"
      value: 0.2
    }
  }
}
layer {
  name: "inception_4b/relu_5x5_reduce"
  type: "ReLU"
  bottom: "inception_4b/5x5_reduce"
  top: "inception_4b/5x5_reduce"
}
layer {
  name: "inception_4b/5x5"
  type: "Convolution"
  bottom: "inception_4b/5x5_reduce"
  top: "inception_4b/5x5"
  param {
    lr_mult: 1
    decay_mult: 1
  }
  param {
    lr_mult: 2
    decay_mult: 0
  }
  convolution_param {
    num_output: 64
    pad: 2
    kernel_size: 5
    weight_filler {
      type: "xavier"
    }
    bias_filler {
      type: "constant"
      value: 0.2
    }
  }
}
layer {
  name: "inception_4b/relu_5x5"
  type: "ReLU"
  bottom: "inception_4b/5x5"
  top: "inception_4b/5x5"
}
layer {
  name: "inception_4b/pool"
  type: "Pooling"
  bottom: "inception_4a/output"
  top: "inception_4b/pool"
  pooling_param {
    pool: MAX
    kernel_size: 3
    stride: 1
    pad: 1
  }
}
layer {
  name: "inception_4b/pool_proj"
  type: "Convolution"
  bottom: "inception_4b/pool"
  top: "inception_4b/pool_proj"
  param {
    lr_mult: 1
    decay_mult: 1
  }
  param {
    lr_mult: 2
    decay_mult: 0
  }
  convolution_param {
    num_output: 64
    kernel_size: 1
    weight_filler {
      type: "xavier"
    }
    bias_filler {
      type: "constant"
      value: 0.2
    }
  }
}
layer {
  name: "inception_4b/relu_pool_proj"
  type: "ReLU"
  bottom: "inception_4b/pool_proj"
  top: "inception_4b/pool_proj"
}
layer {
  name: "inception_4b/output"
  type: "Concat"
  bottom: "inception_4b/1x1"
  bottom: "inception_4b/3x3"
  bottom: "inception_4b/5x5"
  bottom: "inception_4b/pool_proj"
  top: "inception_4b/output"
}
layer {
  name: "inception_4c/1x1"
  type: "Convolution"
  bottom: "inception_4b/output"
  top: "inception_4c/1x1"
  param {
    lr_mult: 1
    decay_mult: 1
  }
  param {
    lr_mult: 2
    decay_mult: 0
  }
  convolution_param {
    num_output: 128
    kernel_size: 1
    weight_filler {
      type: "xavier"
    }
    bias_filler {
      type: "constant"
      value: 0.2
    }
  }
}
layer {
  name: "inception_4c/relu_1x1"
  type: "ReLU"
  bottom: "inception_4c/1x1"
  top: "inception_4c/1x1"
}
layer {
  name: "inception_4c/3x3_reduce"
  type: "Convolution"
  bottom: "inception_4b/output"
  top: "inception_4c/3x3_reduce"
  param {
    lr_mult: 1
    decay_mult: 1
  }
  param {
    lr_mult: 2
    decay_mult: 0
  }
  convolution_param {
    num_output: 128
    kernel_size: 1
    weight_filler {
      type: "xavier"
    }
    bias_filler {
      type: "constant"
      value: 0.2
    }
  }
}
layer {
  name: "inception_4c/relu_3x3_reduce"
  type: "ReLU"
  bottom: "inception_4c/3x3_reduce"
  top: "inception_4c/3x3_reduce"
}
layer {
  name: "inception_4c/3x3"
  type: "Convolution"
  bottom: "inception_4c/3x3_reduce"
  top: "inception_4c/3x3"
  param {
    lr_mult: 1
    decay_mult: 1
  }
  param {
    lr_mult: 2
    decay_mult: 0
  }
  convolution_param {
    num_output: 256
    pad: 1
    kernel_size: 3
    weight_filler {
      type: "xavier"
    }
    bias_filler {
      type: "constant"
      value: 0.2
    }
  }
}
layer {
  name: "inception_4c/relu_3x3"
  type: "ReLU"
  bottom: "inception_4c/3x3"
  top: "inception_4c/3x3"
}
layer {
  name: "inception_4c/5x5_reduce"
  type: "Convolution"
  bottom: "inception_4b/output"
  top: "inception_4c/5x5_reduce"
  param {
    lr_mult: 1
    decay_mult: 1
  }
  param {
    lr_mult: 2
    decay_mult: 0
  }
  convolution_param {
    num_output: 24
    kernel_size: 1
    weight_filler {
      type: "xavier"
    }
    bias_filler {
      type: "constant"
      value: 0.2
    }
  }
}
layer {
  name: "inception_4c/relu_5x5_reduce"
  type: "ReLU"
  bottom: "inception_4c/5x5_reduce"
  top: "inception_4c/5x5_reduce"
}
layer {
  name: "inception_4c/5x5"
  type: "Convolution"
  bottom: "inception_4c/5x5_reduce"
  top: "inception_4c/5x5"
  param {
    lr_mult: 1
    decay_mult: 1
  }
  param {
    lr_mult: 2
    decay_mult: 0
  }
  convolution_param {
    num_output: 64
    pad: 2
    kernel_size: 5
    weight_filler {
      type: "xavier"
    }
    bias_filler {
      type: "constant"
      value: 0.2
    }
  }
}
layer {
  name: "inception_4c/relu_5x5"
  type: "ReLU"
  bottom: "inception_4c/5x5"
  top: "inception_4c/5x5"
}
layer {
  name: "inception_4c/pool"
  type: "Pooling"
  bottom: "inception_4b/output"
  top: "inception_4c/pool"
  pooling_param {
    pool: MAX
    kernel_size: 3
    stride: 1
    pad: 1
  }
}
layer {
  name: "inception_4c/pool_proj"
  type: "Convolution"
  bottom: "inception_4c/pool"
  top: "inception_4c/pool_proj"
  param {
    lr_mult: 1
    decay_mult: 1
  }
  param {
    lr_mult: 2
    decay_mult: 0
  }
  convolution_param {
    num_output: 64
    kernel_size: 1
    weight_filler {
      type: "xavier"
    }
    bias_filler {
      type: "constant"
      value: 0.2
    }
  }
}
layer {
  name: "inception_4c/relu_pool_proj"
  type: "ReLU"
  bottom: "inception_4c/pool_proj"
  top: "inception_4c/pool_proj"
}
layer {
  name: "inception_4c/output"
  type: "Concat"
  bottom: "inception_4c/1x1"
  bottom: "inception_4c/3x3"
  bottom: "inception_4c/5x5"
  bottom: "inception_4c/pool_proj"
  top: "inception_4c/output"
}
layer {
  name: "inception_4d/1x1"
  type: "Convolution"
  bottom: "inception_4c/output"
  top: "inception_4d/1x1"
  param {
    lr_mult: 1
    decay_mult: 1
  }
  param {
    lr_mult: 2
    decay_mult: 0
  }
  convolution_param {
    num_output: 112
    kernel_size: 1
    weight_filler {
      type: "xavier"
    }
    bias_filler {
      type: "constant"
      value: 0.2
    }
  }
}
layer {
  name: "inception_4d/relu_1x1"
  type: "ReLU"
  bottom: "inception_4d/1x1"
  top: "inception_4d/1x1"
}
layer {
  name: "inception_4d/3x3_reduce"
  type: "Convolution"
  bottom: "inception_4c/output"
  top: "inception_4d/3x3_reduce"
  param {
    lr_mult: 1
    decay_mult: 1
  }
  param {
    lr_mult: 2
    decay_mult: 0
  }
  convolution_param {
    num_output: 144
    kernel_size: 1
    weight_filler {
      type: "xavier"
    }
    bias_filler {
      type: "constant"
      value: 0.2
    }
  }
}
layer {
  name: "inception_4d/relu_3x3_reduce"
  type: "ReLU"
  bottom: "inception_4d/3x3_reduce"
  top: "inception_4d/3x3_reduce"
}
layer {
  name: "inception_4d/3x3"
  type: "Convolution"
  bottom: "inception_4d/3x3_reduce"
  top: "inception_4d/3x3"
  param {
    lr_mult: 1
    decay_mult: 1
  }
  param {
    lr_mult: 2
    decay_mult: 0
  }
  convolution_param {
    num_output: 288
    pad: 1
    kernel_size: 3
    weight_filler {
      type: "xavier"
    }
    bias_filler {
      type: "constant"
      value: 0.2
    }
  }
}
layer {
  name: "inception_4d/relu_3x3"
  type: "ReLU"
  bottom: "inception_4d/3x3"
  top: "inception_4d/3x3"
}
layer {
  name: "inception_4d/5x5_reduce"
  type: "Convolution"
  bottom: "inception_4c/output"
  top: "inception_4d/5x5_reduce"
  param {
    lr_mult: 1
    decay_mult: 1
  }
  param {
    lr_mult: 2
    decay_mult: 0
  }
  convolution_param {
    num_output: 32
    kernel_size: 1
    weight_filler {
      type: "xavier"
    }
    bias_filler {
      type: "constant"
      value: 0.2
    }
  }
}
layer {
  name: "inception_4d/relu_5x5_reduce"
  type: "ReLU"
  bottom: "inception_4d/5x5_reduce"
  top: "inception_4d/5x5_reduce"
}
layer {
  name: "inception_4d/5x5"
  type: "Convolution"
  bottom: "inception_4d/5x5_reduce"
  top: "inception_4d/5x5"
  param {
    lr_mult: 1
    decay_mult: 1
  }
  param {
    lr_mult: 2
    decay_mult: 0
  }
  convolution_param {
    num_output: 64
    pad: 2
    kernel_size: 5
    weight_filler {
      type: "xavier"
    }
    bias_filler {
      type: "constant"
      value: 0.2
    }
  }
}
layer {
  name: "inception_4d/relu_5x5"
  type: "ReLU"
  bottom: "inception_4d/5x5"
  top: "inception_4d/5x5"
}
layer {
  name: "inception_4d/pool"
  type: "Pooling"
  bottom: "inception_4c/output"
  top: "inception_4d/pool"
  pooling_param {
    pool: MAX
    kernel_size: 3
    stride: 1
    pad: 1
  }
}
layer {
  name: "inception_4d/pool_proj"
  type: "Convolution"
  bottom: "inception_4d/pool"
  top: "inception_4d/pool_proj"
  param {
    lr_mult: 1
    decay_mult: 1
  }
  param {
    lr_mult: 2
    decay_mult: 0
  }
  convolution_param {
    num_output: 64
    kernel_size: 1
    weight_filler {
      type: "xavier"
    }
    bias_filler {
      type: "constant"
      value: 0.2
    }
  }
}
layer {
  name: "inception_4d/relu_pool_proj"
  type: "ReLU"
  bottom: "inception_4d/pool_proj"
  top: "inception_4d/pool_proj"
}
layer {
  name: "inception_4d/output"
  type: "Concat"
  bottom: "inception_4d/1x1"
  bottom: "inception_4d/3x3"
  bottom: "inception_4d/5x5"
  bottom: "inception_4d/pool_proj"
  top: "inception_4d/output"
}
layer {
  name: "loss2/ave_pool"
  type: "Pooling"
  bottom: "inception_4d/output"
  top: "loss2/ave_pool"
  pooling_param {
    pool: AVE
    kernel_size: 5
    stride: 3
  }
}
layer {
…
I0105 14:43:09.245272  4844 net.cpp:84] Creating Layer inception_4c/1x1
I0105 14:43:09.245276  4844 net.cpp:380] inception_4c/1x1 <- inception_4b/output_inception_4b/output_0_split_0
I0105 14:43:09.245285  4844 net.cpp:338] inception_4c/1x1 -> inception_4c/1x1
I0105 14:43:09.245293  4844 net.cpp:113] Setting up inception_4c/1x1
I0105 14:43:09.246834  4844 net.cpp:120] Top shape: 50 128 14 14 (1254400)
I0105 14:43:09.246878  4844 layer_factory.hpp:74] Creating layer inception_4c/relu_1x1
I0105 14:43:09.246892  4844 net.cpp:84] Creating Layer inception_4c/relu_1x1
I0105 14:43:09.246899  4844 net.cpp:380] inception_4c/relu_1x1 <- inception_4c/1x1
I0105 14:43:09.246918  4844 net.cpp:327] inception_4c/relu_1x1 -> inception_4c/1x1 (in-place)
I0105 14:43:09.246942  4844 net.cpp:113] Setting up inception_4c/relu_1x1
I0105 14:43:09.247373  4844 net.cpp:120] Top shape: 50 128 14 14 (1254400)
I0105 14:43:09.247386  4844 layer_factory.hpp:74] Creating layer inception_4c/3x3_reduce
I0105 14:43:09.247402  4844 net.cpp:84] Creating Layer inception_4c/3x3_reduce
I0105 14:43:09.247409  4844 net.cpp:380] inception_4c/3x3_reduce <- inception_4b/output_inception_4b/output_0_split_1
I0105 14:43:09.247419  4844 net.cpp:338] inception_4c/3x3_reduce -> inception_4c/3x3_reduce
I0105 14:43:09.247429  4844 net.cpp:113] Setting up inception_4c/3x3_reduce
I0105 14:43:09.248723  4844 net.cpp:120] Top shape: 50 128 14 14 (1254400)
I0105 14:43:09.248745  4844 layer_factory.hpp:74] Creating layer inception_4c/relu_3x3_reduce
I0105 14:43:09.248755  4844 net.cpp:84] Creating Layer inception_4c/relu_3x3_reduce
I0105 14:43:09.248761  4844 net.cpp:380] inception_4c/relu_3x3_reduce <- inception_4c/3x3_reduce
I0105 14:43:09.248770  4844 net.cpp:327] inception_4c/relu_3x3_reduce -> inception_4c/3x3_reduce (in-place)
I0105 14:43:09.248780  4844 net.cpp:113] Setting up inception_4c/relu_3x3_reduce
I0105 14:43:09.248853  4844 net.cpp:120] Top shape: 50 128 14 14 (1254400)
I0105 14:43:09.248860  4844 layer_factory.hpp:74] Creating layer inception_4c/3x3
I0105 14:43:09.248872  4844 net.cpp:84] Creating Layer inception_4c/3x3
I0105 14:43:09.248878  4844 net.cpp:380] inception_4c/3x3 <- inception_4c/3x3_reduce
I0105 14:43:09.248888  4844 net.cpp:338] inception_4c/3x3 -> inception_4c/3x3
I0105 14:43:09.248896  4844 net.cpp:113] Setting up inception_4c/3x3
I0105 14:43:09.255120  4844 net.cpp:120] Top shape: 50 256 14 14 (2508800)
I0105 14:43:09.255241  4844 layer_factory.hpp:74] Creating layer inception_4c/relu_3x3
I0105 14:43:09.255269  4844 net.cpp:84] Creating Layer inception_4c/relu_3x3
I0105 14:43:09.255283  4844 net.cpp:380] inception_4c/relu_3x3 <- inception_4c/3x3
I0105 14:43:09.255301  4844 net.cpp:327] inception_4c/relu_3x3 -> inception_4c/3x3 (in-place)
I0105 14:43:09.255322  4844 net.cpp:113] Setting up inception_4c/relu_3x3
I0105 14:43:09.255445  4844 net.cpp:120] Top shape: 50 256 14 14 (2508800)
I0105 14:43:09.255456  4844 layer_factory.hpp:74] Creating layer inception_4c/5x5_reduce
I0105 14:43:09.255481  4844 net.cpp:84] Creating Layer inception_4c/5x5_reduce
I0105 14:43:09.255491  4844 net.cpp:380] inception_4c/5x5_reduce <- inception_4b/output_inception_4b/output_0_split_2
I0105 14:43:09.255503  4844 net.cpp:338] inception_4c/5x5_reduce -> inception_4c/5x5_reduce
I0105 14:43:09.255518  4844 net.cpp:113] Setting up inception_4c/5x5_reduce
I0105 14:43:09.256491  4844 net.cpp:120] Top shape: 50 24 14 14 (235200)
I0105 14:43:09.256513  4844 layer_factory.hpp:74] Creating layer inception_4c/relu_5x5_reduce
I0105 14:43:09.256525  4844 net.cpp:84] Creating Layer inception_4c/relu_5x5_reduce
I0105 14:43:09.256532  4844 net.cpp:380] inception_4c/relu_5x5_reduce <- inception_4c/5x5_reduce
I0105 14:43:09.256548  4844 net.cpp:327] inception_4c/relu_5x5_reduce -> inception_4c/5x5_reduce (in-place)
I0105 14:43:09.256557  4844 net.cpp:113] Setting up inception_4c/relu_5x5_reduce
I0105 14:43:09.256929  4844 net.cpp:120] Top shape: 50 24 14 14 (235200)
I0105 14:43:09.256943  4844 layer_factory.hpp:74] Creating layer inception_4c/5x5
I0105 14:43:09.256958  4844 net.cpp:84] Creating Layer inception_4c/5x5
I0105 14:43:09.256965  4844 net.cpp:380] inception_4c/5x5 <- inception_4c/5x5_reduce
I0105 14:43:09.256978  4844 net.cpp:338] inception_4c/5x5 -> inception_4c/5x5
I0105 14:43:09.256989  4844 net.cpp:113] Setting up inception_4c/5x5
I0105 14:43:09.258164  4844 net.cpp:120] Top shape: 50 64 14 14 (627200)
I0105 14:43:09.258188  4844 layer_factory.hpp:74] Creating layer inception_4c/relu_5x5
I0105 14:43:09.258200  4844 net.cpp:84] Creating Layer inception_4c/relu_5x5
I0105 14:43:09.258208  4844 net.cpp:380] inception_4c/relu_5x5 <- inception_4c/5x5
I0105 14:43:09.258218  4844 net.cpp:327] inception_4c/relu_5x5 -> inception_4c/5x5 (in-place)
I0105 14:43:09.258239  4844 net.cpp:113] Setting up inception_4c/relu_5x5
I0105 14:43:09.258348  4844 net.cpp:120] Top shape: 50 64 14 14 (627200)
I0105 14:43:09.258358  4844 layer_factory.hpp:74] Creating layer inception_4c/pool
I0105 14:43:09.258370  4844 layer_factory.cpp:56] CUDNN does not support padding or multiple tops. Using Caffe's own pooling layer.
I0105 14:43:09.258380  4844 net.cpp:84] Creating Layer inception_4c/pool
I0105 14:43:09.258388  4844 net.cpp:380] inception_4c/pool <- inception_4b/output_inception_4b/output_0_split_3
I0105 14:43:09.258399  4844 net.cpp:338] inception_4c/pool -> inception_4c/pool
I0105 14:43:09.258409  4844 net.cpp:113] Setting up inception_4c/pool
I0105 14:43:09.258422  4844 net.cpp:120] Top shape: 50 512 14 14 (5017600)
I0105 14:43:09.258430  4844 layer_factory.hpp:74] Creating layer inception_4c/pool_proj
I0105 14:43:09.258445  4844 net.cpp:84] Creating Layer inception_4c/pool_proj
I0105 14:43:09.259083  4844 net.cpp:380] inception_4c/pool_proj <- inception_4c/pool
I0105 14:43:09.259100  4844 net.cpp:338] inception_4c/pool_proj -> inception_4c/pool_proj
I0105 14:43:09.259114  4844 net.cpp:113] Setting up inception_4c/pool_proj
I0105 14:43:09.260097  4844 net.cpp:120] Top shape: 50 64 14 14 (627200)
I0105 14:43:09.260116  4844 layer_factory.hpp:74] Creating layer inception_4c/relu_pool_proj
I0105 14:43:09.260128  4844 net.cpp:84] Creating Layer inception_4c/relu_pool_proj
I0105 14:43:09.260136  4844 net.cpp:380] inception_4c/relu_pool_proj <- inception_4c/pool_proj
I0105 14:43:09.260149  4844 net.cpp:327] inception_4c/relu_pool_proj -> inception_4c/pool_proj (in-place)
I0105 14:43:09.260159  4844 net.cpp:113] Setting up inception_4c/relu_pool_proj
I0105 14:43:09.260243  4844 net.cpp:120] Top shape: 50 64 14 14 (627200)
I0105 14:43:09.260252  4844 layer_factory.hpp:74] Creating layer inception_4c/output
I0105 14:43:09.260262  4844 net.cpp:84] Creating Layer inception_4c/output
I0105 14:43:09.260269  4844 net.cpp:380] inception_4c/output <- inception_4c/1x1
I0105 14:43:09.260277  4844 net.cpp:380] inception_4c/output <- inception_4c/3x3
I0105 14:43:09.260284  4844 net.cpp:380] inception_4c/output <- inception_4c/5x5
I0105 14:43:09.260292  4844 net.cpp:380] inception_4c/output <- inception_4c/pool_proj
I0105 14:43:09.260304  4844 net.cpp:338] inception_4c/output -> inception_4c/output
I0105 14:43:09.260314  4844 net.cpp:113] Setting up inception_4c/output
I0105 14:43:09.260326  4844 net.cpp:120] Top shape: 50 512 14 14 (5017600)
I0105 14:43:09.260334  4844 layer_factory.hpp:74] Creating layer inception_4c/output_inception_4c/output_0_split
I0105 14:43:09.260344  4844 net.cpp:84] Creating Layer inception_4c/output_inception_4c/output_0_split
I0105 14:43:09.260349  4844 net.cpp:380] inception_4c/output_inception_4c/output_0_split <- inception_4c/output
I0105 14:43:09.260359  4844 net.cpp:338] inception_4c/output_inception_4c/output_0_split -> inception_4c/output_inception_4c/output_0_split_0
I0105 14:43:09.260367  4844 net.cpp:338] inception_4c/output_inception_4c/output_0_split -> inception_4c/output_inception_4c/output_0_split_1
I0105 14:43:09.260380  4844 net.cpp:338] inception_4c/output_inception_4c/output_0_split -> inception_4c/output_inception_4c/output_0_split_2
I0105 14:43:09.260390  4844 net.cpp:338] inception_4c/output_inception_4c/output_0_split -> inception_4c/output_inception_4c/output_0_split_3
I0105 14:43:09.260398  4844 net.cpp:113] Setting up inception_4c/output_inception_4c/output_0_split
I0105 14:43:09.260408  4844 net.cpp:120] Top shape: 50 512 14 14 (5017600)
I0105 14:43:09.260416  4844 net.cpp:120] Top shape: 50 512 14 14 (5017600)
I0105 14:43:09.260422  4844 net.cpp:120] Top shape: 50 512 14 14 (5017600)
I0105 14:43:09.260429  4844 net.cpp:120] Top shape: 50 512 14 14 (5017600)
I0105 14:43:09.260435  4844 layer_factory.hpp:74] Creating layer inception_4d/1x1
I0105 14:43:09.260452  4844 net.cpp:84] Creating Layer inception_4d/1x1
I0105 14:43:09.260458  4844 net.cpp:380] inception_4d/1x1 <- inception_4c/output_inception_4c/output_0_split_0
I0105 14:43:09.260475  4844 net.cpp:338] inception_4d/1x1 -> inception_4d/1x1
I0105 14:43:09.260494  4844 net.cpp:113] Setting up inception_4d/1x1
I0105 14:43:09.262930  4844 net.cpp:120] Top shape: 50 112 14 14 (1097600)
I0105 14:43:09.262975  4844 layer_factory.hpp:74] Creating layer inception_4d/relu_1x1
I0105 14:43:09.263000  4844 net.cpp:84] Creating Layer inception_4d/relu_1x1
I0105 14:43:09.263012  4844 net.cpp:380] inception_4d/relu_1x1 <- inception_4d/1x1
I0105 14:43:09.263025  4844 net.cpp:327] inception_4d/relu_1x1 -> inception_4d/1x1 (in-place)
I0105 14:43:09.263042  4844 net.cpp:113] Setting up inception_4d/relu_1x1
I0105 14:43:09.263130  4844 net.cpp:120] Top shape: 50 112 14 14 (1097600)
I0105 14:43:09.263141  4844 layer_factory.hpp:74] Creating layer inception_4d/3x3_reduce
I0105 14:43:09.263160  4844 net.cpp:84] Creating Layer inception_4d/3x3_reduce
I0105 14:43:09.263169  4844 net.cpp:380] inception_4d/3x3_reduce <- inception_4c/output_inception_4c/output_0_split_1
I0105 14:43:09.263180  4844 net.cpp:338] inception_4d/3x3_reduce -> inception_4d/3x3_reduce
I0105 14:43:09.263193  4844 net.cpp:113] Setting up inception_4d/3x3_reduce
I0105 14:43:09.264760  4844 net.cpp:120] Top shape: 50 144 14 14 (1411200)
I0105 14:43:09.264783  4844 layer_factory.hpp:74] Creating layer inception_4d/relu_3x3_reduce
I0105 14:43:09.264801  4844 net.cpp:84] Creating Layer inception_4d/relu_3x3_reduce
I0105 14:43:09.264808  4844 net.cpp:380] inception_4d/relu_3x3_reduce <- inception_4d/3x3_reduce
I0105 14:43:09.264818  4844 net.cpp:327] inception_4d/relu_3x3_reduce -> inception_4d/3x3_reduce (in-place)
I0105 14:43:09.264828  4844 net.cpp:113] Setting up inception_4d/relu_3x3_reduce
I0105 14:43:09.265420  4844 net.cpp:120] Top shape: 50 144 14 14 (1411200)
I0105 14:43:09.265440  4844 layer_factory.hpp:74] Creating layer inception_4d/3x3
I0105 14:43:09.265467  4844 net.cpp:84] Creating Layer inception_4d/3x3
I0105 14:43:09.265476  4844 net.cpp:380] inception_4d/3x3 <- inception_4d/3x3_reduce
I0105 14:43:09.265486  4844 net.cpp:338] inception_4d/3x3 -> inception_4d/3x3
I0105 14:43:09.265501  4844 net.cpp:113] Setting up inception_4d/3x3
I0105 14:43:09.275588  4844 net.cpp:120] Top shape: 50 288 14 14 (2822400)
I0105 14:43:09.275650  4844 layer_factory.hpp:74] Creating layer inception_4d/relu_3x3
I0105 14:43:09.275676  4844 net.cpp:84] Creating Layer inception_4d/relu_3x3
I0105 14:43:09.275689  4844 net.cpp:380] inception_4d/relu_3x3 <- inception_4d/3x3
I0105 14:43:09.275708  4844 net.cpp:327] inception_4d/relu_3x3 -> inception_4d/3x3 (in-place)
I0105 14:43:09.275727  4844 net.cpp:113] Setting up inception_4d/relu_3x3
I0105 14:43:09.275820  4844 net.cpp:120] Top shape: 50 288 14 14 (2822400)
I0105 14:43:09.275830  4844 layer_factory.hpp:74] Creating layer inception_4d/5x5_reduce
I0105 14:43:09.275852  4844 net.cpp:84] Creating Layer inception_4d/5x5_reduce
I0105 14:43:09.275861  4844 net.cpp:380] inception_4d/5x5_reduce <- inception_4c/output_inception_4c/output_0_split_2
I0105 14:43:09.275876  4844 net.cpp:338] inception_4d/5x5_reduce -> inception_4d/5x5_reduce
I0105 14:43:09.275892  4844 net.cpp:113] Setting up inception_4d/5x5_reduce
I0105 14:43:09.276849  4844 net.cpp:120] Top shape: 50 32 14 14 (313600)
I0105 14:43:09.276871  4844 layer_factory.hpp:74] Creating layer inception_4d/relu_5x5_reduce
I0105 14:43:09.276885  4844 net.cpp:84] Creating Layer inception_4d/relu_5x5_reduce
I0105 14:43:09.276895  4844 net.cpp:380] inception_4d/relu_5x5_reduce <- inception_4d/5x5_reduce
I0105 14:43:09.276904  4844 net.cpp:327] inception_4d/relu_5x5_reduce -> inception_4d/5x5_reduce (in-place)
I0105 14:43:09.276914  4844 net.cpp:113] Setting up inception_4d/relu_5x5_reduce
I0105 14:43:09.277007  4844 net.cpp:120] Top shape: 50 32 14 14 (313600)
I0105 14:43:09.277706  4844 layer_factory.hpp:74] Creating layer inception_4d/5x5
I0105 14:43:09.277736  4844 net.cpp:84] Creating Layer inception_4d/5x5
I0105 14:43:09.277745  4844 net.cpp:380] inception_4d/5x5 <- inception_4d/5x5_reduce
I0105 14:43:09.277756  4844 net.cpp:338] inception_4d/5x5 -> inception_4d/5x5
I0105 14:43:09.277782  4844 net.cpp:113] Setting up inception_4d/5x5
I0105 14:43:09.279139  4844 net.cpp:120] Top shape: 50 64 14 14 (627200)
I0105 14:43:09.279162  4844 layer_factory.hpp:74] Creating layer inception_4d/relu_5x5
I0105 14:43:09.279177  4844 net.cpp:84] Creating Layer inception_4d/relu_5x5
I0105 14:43:09.279186  4844 net.cpp:380] inception_4d/relu_5x5 <- inception_4d/5x5
I0105 14:43:09.279196  4844 net.cpp:327] inception_4d/relu_5x5 -> inception_4d/5x5 (in-place)
I0105 14:43:09.279206  4844 net.cpp:113] Setting up inception_4d/relu_5x5
I0105 14:43:09.279296  4844 net.cpp:120] Top shape: 50 64 14 14 (627200)
I0105 14:43:09.279305  4844 layer_factory.hpp:74] Creating layer inception_4d/pool
I0105 14:43:09.279316  4844 layer_factory.cpp:56] CUDNN does not support padding or multiple tops. Using Caffe's own pooling layer.
I0105 14:43:09.279326  4844 net.cpp:84] Creating Layer inception_4d/pool
I0105 14:43:09.279335  4844 net.cpp:380] inception_4d/pool <- inception_4c/output_inception_4c/output_0_split_3
I0105 14:43:09.279347  4844 net.cpp:338] inception_4d/pool -> inception_4d/pool
I0105 14:43:09.279358  4844 net.cpp:113] Setting up inception_4d/pool
I0105 14:43:09.279372  4844 net.cpp:120] Top shape: 50 512 14 14 (5017600)
I0105 14:43:09.279378  4844 layer_factory.hpp:74] Creating layer inception_4d/pool_proj
I0105 14:43:09.279395  4844 net.cpp:84] Creating Layer inception_4d/pool_proj
I0105 14:43:09.279402  4844 net.cpp:380] inception_4d/pool_proj <- inception_4d/pool
I0105 14:43:09.279412  4844 net.cpp:338] inception_4d/pool_proj -> inception_4d/pool_proj
I0105 14:43:09.279422  4844 net.cpp:113] Setting up inception_4d/pool_proj
I0105 14:43:09.280470  4844 net.cpp:120] Top shape: 50 64 14 14 (627200)
I0105 14:43:09.280511  4844 layer_factory.hpp:74] Creating layer inception_4d/relu_pool_proj
I0105 14:43:09.280525  4844 net.cpp:84] Creating Layer inception_4d/relu_pool_proj
I0105 14:43:09.280534  4844 net.cpp:380] inception_4d/relu_pool_proj <- inception_4d/pool_proj
I0105 14:43:09.280546  4844 net.cpp:327] inception_4d/relu_pool_proj -> inception_4d/pool_proj (in-place)
I0105 14:43:09.280560  4844 net.cpp:113] Setting up inception_4d/relu_pool_proj
I0105 14:43:09.286432  4844 net.cpp:120] Top shape: 50 64 14 14 (627200)
I0105 14:43:09.286479  4844 layer_factory.hpp:74] Creating layer inception_4d/output
I0105 14:43:09.286501  4844 net.cpp:84] Creating Layer inception_4d/output
I0105 14:43:09.286515  4844 net.cpp:380] inception_4d/output <- inception_4d/1x1
I0105 14:43:09.286530  4844 net.cpp:380] inception_4d/output <- inception_4d/3x3
I0105 14:43:09.286540  4844 net.cpp:380] inception_4d/output <- inception_4d/5x5
I0105 14:43:09.286548  4844 net.cpp:380] inception_4d/output <- inception_4d/pool_proj
I0105 14:43:09.286558  4844 net.cpp:338] inception_4d/output -> inception_4d/output
I0105 14:43:09.286815  4844 net.cpp:113] Setting up inception_4d/output
I0105 14:43:09.286873  4844 net.cpp:120] Top shape: 50 528 14 14 (5174400)
I0105 14:43:09.286881  4844 layer_factory.hpp:74] Creating layer inception_4d/output_inception_4d/output_0_split
I0105 14:43:09.286895  4844 net.cpp:84] Creating Layer inception_4d/output_inception_4d/output_0_split
I0105 14:43:09.286901  4844 net.cpp:380] inception_4d/output_inception_4d/output_0_split <- inception_4d/output
I0105 14:43:09.286913  4844 net.cpp:338] inception_4d/output_inception_4d/output_0_split -> inception_4d/output_inception_4d/output_0_split_0
I0105 14:43:09.286926  4844 net.cpp:338] inception_4d/output_inception_4d/output_0_split -> inception_4d/output_inception_4d/output_0_split_1
I0105 14:43:09.286936  4844 net.cpp:338] inception_4d/output_inception_4d/output_0_split -> inception_4d/output_inception_4d/output_0_split_2
I0105 14:43:09.286947  4844 net.cpp:338] inception_4d/output_inception_4d/output_0_split -> inception_4d/output_inception_4d/output_0_split_3
I0105 14:43:09.286957  4844 net.cpp:338] inception_4d/output_inception_4d/output_0_split -> inception_4d/output_inception_4d/output_0_split_4
I0105 14:43:09.286968  4844 net.cpp:113] Setting up inception_4d/output_inception_4d/output_0_split
I0105 14:43:09.287005  4844 net.cpp:120] Top shape: 50 528 14 14 (5174400)
I0105 14:43:09.287014  4844 net.cpp:120] Top shape: 50 528 14 14 (5174400)
I0105 14:43:09.287020  4844 net.cpp:120] Top shape: 50 528 14 14 (5174400)
I0105 14:43:09.287027  4844 net.cpp:120] Top shape: 50 528 14 14 (5174400)
I0105 14:43:09.287034  4844 net.cpp:120] Top shape: 50 528 14 14 (5174400)
I0105 14:43:09.287040  4844 layer_factory.hpp:74] Creating layer loss2/ave_pool
I0105 14:43:09.287057  4844 net.cpp:84] Creating Layer loss2/ave_pool
I0105 14:43:09.287063  4844 net.cpp:380] loss2/ave_pool <- inception_4d/output_inception_4d/output_0_split_0
I0105 14:43:09.287073  4844 net.cpp:338] loss2/ave_pool -> loss2/ave_pool
I0105 14:43:09.287083  4844 net.cpp:113] Setting up loss2/ave_pool
I0105 14:43:09.287194  4844 net.cpp:120] Top shape: 50 528 4 4 (422400)
I0105 14:43:09.287204  4844 layer_factory.hpp:74] Creating layer loss2/conv
I0105 14:43:09.287221  4844 net.cpp:84] Creating Layer loss2/conv
I0105 14:43:09.287228  4844 net.cpp:380] loss2/conv <- loss2/ave_pool
I0105 14:43:09.287240  4844 net.cpp:338] loss2/conv -> loss2/conv
I0105 14:43:09.287256  4844 net.cpp:113] Setting up loss2/conv
I0105 14:43:09.288888  4844 net.cpp:120] Top shape: 50 128 4 4 (102400)
I0105 14:43:09.288919  4844 layer_factory.hpp:74] Creating layer loss2/relu_conv
I0105 14:43:09.288933  4844 net.cpp:84] Creating Layer loss2/relu_conv
I0105 14:43:09.288941  4844 net.cpp:380] loss2/relu_conv <- loss2/conv
I0105 14:43:09.288950  4844 net.cpp:327] loss2/relu_conv -> loss2/conv (in-place)
I0105 14:43:09.288959  4844 net.cpp:113] Setting up loss2/relu_conv
I0105 14:43:09.289984  4844 net.cpp:120] Top shape: 50 128 4 4 (102400)
I0105 14:43:09.290004  4844 layer_factory.hpp:74] Creating layer loss2/fc
I0105 14:43:09.290020  4844 net.cpp:84] Creating Layer loss2/fc
I0105 14:43:09.290029  4844 net.cpp:380] loss2/fc <- loss2/conv
I0105 14:43:09.290038  4844 net.cpp:338] loss2/fc -> loss2/fc
I0105 14:43:09.290051  4844 net.cpp:113] Setting up loss2/fc
I0105 14:43:09.334740  4844 net.cpp:120] Top shape: 50 1024 (51200)
I0105 14:43:09.334846  4844 layer_factory.hpp:74] Creating layer loss2/relu_fc
I0105 14:43:09.334872  4844 net.cpp:84] Creating Layer loss2/relu_fc
I0105 14:43:09.334890  4844 net.cpp:380] loss2/relu_fc <- loss2/fc
I0105 14:43:09.334910  4844 net.cpp:327] loss2/relu_fc -> loss2/fc (in-place)
I0105 14:43:09.334926  4844 net.cpp:113] Setting up loss2/relu_fc
I0105 14:43:09.335166  4844 net.cpp:120] Top shape: 50 1024 (51200)
I0105 14:43:09.335178  4844 layer_factory.hpp:74] Creating layer loss2/drop_fc
I0105 14:43:09.335191  4844 net.cpp:84] Creating Layer loss2/drop_fc
I0105 14:43:09.335198  4844 net.cpp:380] loss2/drop_fc <- loss2/fc
I0105 14:43:09.335209  4844 net.cpp:327] loss2/drop_fc -> loss2/fc (in-place)
I0105 14:43:09.335219  4844 net.cpp:113] Setting up loss2/drop_fc
I0105 14:43:09.335232  4844 net.cpp:120] Top shape: 50 1024 (51200)
I0105 14:43:09.335240  4844 layer_factory.hpp:74] Creating layer loss2/classifier_kaggle
I0105 14:43:09.335258  4844 net.cpp:84] Creating Layer loss2/classifier_kaggle
I0105 14:43:09.335266  4844 net.cpp:380] loss2/classifier_kaggle <- loss2/fc
I0105 14:43:09.335278  4844 net.cpp:338] loss2/classifier_kaggle -> loss2/classifier_kaggle
I0105 14:43:09.335292  4844 net.cpp:113] Setting up loss2/classifier_kaggle
I0105 14:43:09.340878  4844 net.cpp:120] Top shape: 50 447 (22350)
I0105 14:43:09.340934  4844 layer_factory.hpp:74] Creating layer loss2/classifier_kaggle_loss2/classifier_kaggle_0_split
I0105 14:43:09.340947  4844 net.cpp:84] Creating Layer loss2/classifier_kaggle_loss2/classifier_kaggle_0_split
I0105 14:43:09.340965  4844 net.cpp:380] loss2/classifier_kaggle_loss2/classifier_kaggle_0_split <- loss2/classifier_kaggle
I0105 14:43:09.340975  4844 net.cpp:338] loss2/classifier_kaggle_loss2/classifier_kaggle_0_split -> loss2/classifier_kaggle_loss2/classifier_kaggle_0_split_0
I0105 14:43:09.340991  4844 net.cpp:338] loss2/classifier_kaggle_loss2/classifier_kaggle_0_split -> loss2/classifier_kaggle_loss2/classifier_kaggle_0_split_1
I0105 14:43:09.341059  4844 net.cpp:338] loss2/classifier_kaggle_loss2/classifier_kaggle_0_split -> loss2/classifier_kaggle_loss2/classifier_kaggle_0_split_2
I0105 14:43:09.341112  4844 net.cpp:113] Setting up loss2/classifier_kaggle_loss2/classifier_kaggle_0_split
I0105 14:43:09.341123  4844 net.cpp:120] Top shape: 50 447 (22350)
I0105 14:43:09.341130  4844 net.cpp:120] Top shape: 50 447 (22350)
I0105 14:43:09.341137  4844 net.cpp:120] Top shape: 50 447 (22350)
I0105 14:43:09.341145  4844 layer_factory.hpp:74] Creating layer loss2/loss
I0105 14:43:09.341171  4844 net.cpp:84] Creating Layer loss2/loss
I0105 14:43:09.341178  4844 net.cpp:380] loss2/loss <- loss2/classifier_kaggle_loss2/classifier_kaggle_0_split_0
I0105 14:43:09.341191  4844 net.cpp:380] loss2/loss <- label_data_1_split_3
I0105 14:43:09.341202  4844 net.cpp:338] loss2/loss -> loss2/loss1
…
I0105 14:43:09.342522  4844 net.cpp:338] loss2/top-5 -> loss2/top-5
I0105 14:43:09.342531  4844 net.cpp:113] Setting up loss2/top-5
I0105 14:43:09.342540  4844 net.cpp:120] Top shape: (1)
I0105 14:43:09.342546  4844 layer_factory.hpp:74] Creating layer inception_4e/1x1
I0105 14:43:09.342566  4844 net.cpp:84] Creating Layer inception_4e/1x1
I0105 14:43:09.342576  4844 net.cpp:380] inception_4e/1x1 <- inception_4d/output_inception_4d/output_0_split_1
I0105 14:43:09.342586  4844 net.cpp:338] inception_4e/1x1 -> inception_4e/1x1
I0105 14:43:09.342599  4844 net.cpp:113] Setting up inception_4e/1x1
I0105 14:43:09.345119  4844 net.cpp:120] Top shape: 50 256 14 14 (2508800)
I0105 14:43:09.345151  4844 layer_factory.hpp:74] Creating layer inception_4e/relu_1x1
I0105 14:43:09.345168  4844 net.cpp:84] Creating Layer inception_4e/relu_1x1
I0105 14:43:09.345177  4844 net.cpp:380] inception_4e/relu_1x1 <- inception_4e/1x1
I0105 14:43:09.345186  4844 net.cpp:327] inception_4e/relu_1x1 -> inception_4e/1x1 (in-place)
I0105 14:43:09.345196  4844 net.cpp:113] Setting up inception_4e/relu_1x1
I0105 14:43:09.345293  4844 net.cpp:120] Top shape: 50 256 14 14 (2508800)
I0105 14:43:09.345302  4844 layer_factory.hpp:74] Creating layer inception_4e/3x3_reduce
I0105 14:43:09.345350  4844 net.cpp:84] Creating Layer inception_4e/3x3_reduce
I0105 14:43:09.345360  4844 net.cpp:380] inception_4e/3x3_reduce <- inception_4d/output_inception_4d/output_0_split_2
I0105 14:43:09.345374  4844 net.cpp:338] inception_4e/3x3_reduce -> inception_4e/3x3_reduce
I0105 14:43:09.345386  4844 net.cpp:113] Setting up inception_4e/3x3_reduce
I0105 14:43:09.346992  4844 net.cpp:120] Top shape: 50 160 14 14 (1568000)
I0105 14:43:09.347013  4844 layer_factory.hpp:74] Creating layer inception_4e/relu_3x3_reduce
I0105 14:43:09.347029  4844 net.cpp:84] Creating Layer inception_4e/relu_3x3_reduce
I0105 14:43:09.347038  4844 net.cpp:380] inception_4e/relu_3x3_reduce <- inception_4e/3x3_reduce
I0105 14:43:09.347045  4844 net.cpp:327] inception_4e/relu_3x3_reduce -> inception_4e/3x3_reduce (in-place)
I0105 14:43:09.347069  4844 net.cpp:113] Setting up inception_4e/relu_3x3_reduce
I0105 14:43:09.347172  4844 net.cpp:120] Top shape: 50 160 14 14 (1568000)
I0105 14:43:09.347180  4844 layer_factory.hpp:74] Creating layer inception_4e/3x3
I0105 14:43:09.347195  4844 net.cpp:84] Creating Layer inception_4e/3x3
I0105 14:43:09.347203  4844 net.cpp:380] inception_4e/3x3 <- inception_4e/3x3_reduce
I0105 14:43:09.347215  4844 net.cpp:338] inception_4e/3x3 -> inception_4e/3x3
I0105 14:43:09.347225  4844 net.cpp:113] Setting up inception_4e/3x3
I0105 14:43:09.354023  4844 net.cpp:120] Top shape: 50 320 14 14 (3136000)
I0105 14:43:09.354090  4844 layer_factory.hpp:74] Creating layer inception_4e/relu_3x3
I0105 14:43:09.354110  4844 net.cpp:84] Creating Layer inception_4e/relu_3x3
I0105 14:43:09.354123  4844 net.cpp:380] inception_4e/relu_3x3 <- inception_4e/3x3
I0105 14:43:09.354137  4844 net.cpp:327] inception_4e/relu_3x3 -> inception_4e/3x3 (in-place)
I0105 14:43:09.354153  4844 net.cpp:113] Setting up inception_4e/relu_3x3
I0105 14:43:09.354606  4844 net.cpp:120] Top shape: 50 320 14 14 (3136000)
I0105 14:43:09.354621  4844 layer_factory.hpp:74] Creating layer inception_4e/5x5_reduce
I0105 14:43:09.354640  4844 net.cpp:84] Creating Layer inception_4e/5x5_reduce
I0105 14:43:09.354648  4844 net.cpp:380] inception_4e/5x5_reduce <- inception_4d/output_inception_4d/output_0_split_3
I0105 14:43:09.354660  4844 net.cpp:338] inception_4e/5x5_reduce -> inception_4e/5x5_reduce
I0105 14:43:09.354679  4844 net.cpp:113] Setting up inception_4e/5x5_reduce
I0105 14:43:09.355450  4844 net.cpp:120] Top shape: 50 32 14 14 (313600)
I0105 14:43:09.355470  4844 layer_factory.hpp:74] Creating layer inception_4e/relu_5x5_reduce
I0105 14:43:09.355486  4844 net.cpp:84] Creating Layer inception_4e/relu_5x5_reduce
I0105 14:43:09.355495  4844 net.cpp:380] inception_4e/relu_5x5_reduce <- inception_4e/5x5_reduce
I0105 14:43:09.355504  4844 net.cpp:327] inception_4e/relu_5x5_reduce -> inception_4e/5x5_reduce (in-place)
I0105 14:43:09.355514  4844 net.cpp:113] Setting up inception_4e/relu_5x5_reduce
I0105 14:43:09.355607  4844 net.cpp:120] Top shape: 50 32 14 14 (313600)
I0105 14:43:09.355615  4844 layer_factory.hpp:74] Creating layer inception_4e/5x5
I0105 14:43:09.355630  4844 net.cpp:84] Creating Layer inception_4e/5x5
I0105 14:43:09.355638  4844 net.cpp:380] inception_4e/5x5 <- inception_4e/5x5_reduce
I0105 14:43:09.355646  4844 net.cpp:338] inception_4e/5x5 -> inception_4e/5x5
I0105 14:43:09.355659  4844 net.cpp:113] Setting up inception_4e/5x5
I0105 14:43:09.357491  4844 net.cpp:120] Top shape: 50 128 14 14 (1254400)
I0105 14:43:09.357512  4844 layer_factory.hpp:74] Creating layer inception_4e/relu_5x5
I0105 14:43:09.357522  4844 net.cpp:84] Creating Layer inception_4e/relu_5x5
I0105 14:43:09.357529  4844 net.cpp:380] inception_4e/relu_5x5 <- inception_4e/5x5
I0105 14:43:09.357540  4844 net.cpp:327] inception_4e/relu_5x5 -> inception_4e/5x5 (in-place)
I0105 14:43:09.357550  4844 net.cpp:113] Setting up inception_4e/relu_5x5
I0105 14:43:09.357641  4844 net.cpp:120] Top shape: 50 128 14 14 (1254400)
I0105 14:43:09.357650  4844 layer_factory.hpp:74] Creating layer inception_4e/pool
I0105 14:43:09.357659  4844 layer_factory.cpp:56] CUDNN does not support padding or multiple tops. Using Caffe's own pooling layer.
I0105 14:43:09.357672  4844 net.cpp:84] Creating Layer inception_4e/pool
I0105 14:43:09.357681  4844 net.cpp:380] inception_4e/pool <- inception_4d/output_inception_4d/output_0_split_4
I0105 14:43:09.357692  4844 net.cpp:338] inception_4e/pool -> inception_4e/pool
I0105 14:43:09.357702  4844 net.cpp:113] Setting up inception_4e/pool
I0105 14:43:09.357713  4844 net.cpp:120] Top shape: 50 528 14 14 (5174400)
I0105 14:43:09.357720  4844 layer_factory.hpp:74] Creating layer inception_4e/pool_proj
I0105 14:43:09.357734  4844 net.cpp:84] Creating Layer inception_4e/pool_proj
I0105 14:43:09.357740  4844 net.cpp:380] inception_4e/pool_proj <- inception_4e/pool
I0105 14:43:09.357750  4844 net.cpp:338] inception_4e/pool_proj -> inception_4e/pool_proj
I0105 14:43:09.357771  4844 net.cpp:113] Setting up inception_4e/pool_proj
I0105 14:43:09.359155  4844 net.cpp:120] Top shape: 50 128 14 14 (1254400)
I0105 14:43:09.359175  4844 layer_factory.hpp:74] Creating layer inception_4e/relu_pool_proj
I0105 14:43:09.359187  4844 net.cpp:84] Creating Layer inception_4e/relu_pool_proj
I0105 14:43:09.359195  4844 net.cpp:380] inception_4e/relu_pool_proj <- inception_4e/pool_proj
I0105 14:43:09.359205  4844 net.cpp:327] inception_4e/relu_pool_proj -> inception_4e/pool_proj (in-place)
I0105 14:43:09.359215  4844 net.cpp:113] Setting up inception_4e/relu_pool_proj
I0105 14:43:09.359302  4844 net.cpp:120] Top shape: 50 128 14 14 (1254400)
I0105 14:43:09.359309  4844 layer_factory.hpp:74] Creating layer inception_4e/output
I0105 14:43:09.359323  4844 net.cpp:84] Creating Layer inception_4e/output
I0105 14:43:09.359329  4844 net.cpp:380] inception_4e/output <- inception_4e/1x1
I0105 14:43:09.359338  4844 net.cpp:380] inception_4e/output <- inception_4e/3x3
I0105 14:43:09.359346  4844 net.cpp:380] inception_4e/output <- inception_4e/5x5
I0105 14:43:09.359354  4844 net.cpp:380] inception_4e/output <- inception_4e/pool_proj
I0105 14:43:09.359361  4844 net.cpp:338] inception_4e/output -> inception_4e/output
I0105 14:43:09.359371  4844 net.cpp:113] Setting up inception_4e/output
I0105 14:43:09.359383  4844 net.cpp:120] Top shape: 50 832 14 14 (8153600)
I0105 14:43:09.359390  4844 layer_factory.hpp:74] Creating layer pool4/3x3_s2
I0105 14:43:09.359400  4844 net.cpp:84] Creating Layer pool4/3x3_s2
I0105 14:43:09.359406  4844 net.cpp:380] pool4/3x3_s2 <- inception_4e/output
I0105 14:43:09.359421  4844 net.cpp:338] pool4/3x3_s2 -> pool4/3x3_s2
I0105 14:43:09.359431  4844 net.cpp:113] Setting up pool4/3x3_s2
I0105 14:43:09.359853  4844 net.cpp:120] Top shape: 50 832 7 7 (2038400)
I0105 14:43:09.359869  4844 layer_factory.hpp:74] Creating layer pool4/3x3_s2_pool4/3x3_s2_0_split
I0105 14:43:09.359884  4844 net.cpp:84] Creating Layer pool4/3x3_s2_pool4/3x3_s2_0_split
I0105 14:43:09.359892  4844 net.cpp:380] pool4/3x3_s2_pool4/3x3_s2_0_split <- pool4/3x3_s2
I0105 14:43:09.359902  4844 net.cpp:338] pool4/3x3_s2_pool4/3x3_s2_0_split -> pool4/3x3_s2_pool4/3x3_s2_0_split_0
I0105 14:43:09.359913  4844 net.cpp:338] pool4/3x3_s2_pool4/3x3_s2_0_split -> pool4/3x3_s2_pool4/3x3_s2_0_split_1
I0105 14:43:09.359927  4844 net.cpp:338] pool4/3x3_s2_pool4/3x3_s2_0_split -> pool4/3x3_s2_pool4/3x3_s2_0_split_2
I0105 14:43:09.359969  4844 net.cpp:338] pool4/3x3_s2_pool4/3x3_s2_0_split -> pool4/3x3_s2_pool4/3x3_s2_0_split_3
I0105 14:43:09.359982  4844 net.cpp:113] Setting up pool4/3x3_s2_pool4/3x3_s2_0_split
I0105 14:43:09.359992  4844 net.cpp:120] Top shape: 50 832 7 7 (2038400)
I0105 14:43:09.360000  4844 net.cpp:120] Top shape: 50 832 7 7 (2038400)
I0105 14:43:09.360009  4844 net.cpp:120] Top shape: 50 832 7 7 (2038400)
I0105 14:43:09.360016  4844 net.cpp:120] Top shape: 50 832 7 7 (2038400)
I0105 14:43:09.360023  4844 layer_factory.hpp:74] Creating layer inception_5a/1x1
I0105 14:43:09.360038  4844 net.cpp:84] Creating Layer inception_5a/1x1
I0105 14:43:09.360044  4844 net.cpp:380] inception_5a/1x1 <- pool4/3x3_s2_pool4/3x3_s2_0_split_0
I0105 14:43:09.360056  4844 net.cpp:338] inception_5a/1x1 -> inception_5a/1x1
I0105 14:43:09.360066  4844 net.cpp:113] Setting up inception_5a/1x1
I0105 14:43:09.363623  4844 net.cpp:120] Top shape: 50 256 7 7 (627200)
I0105 14:43:09.363648  4844 layer_factory.hpp:74] Creating layer inception_5a/relu_1x1
I0105 14:43:09.363662  4844 net.cpp:84] Creating Layer inception_5a/relu_1x1
I0105 14:43:09.363670  4844 net.cpp:380] inception_5a/relu_1x1 <- inception_5a/1x1
I0105 14:43:09.363679  4844 net.cpp:327] inception_5a/relu_1x1 -> inception_5a/1x1 (in-place)
I0105 14:43:09.363689  4844 net.cpp:113] Setting up inception_5a/relu_1x1
I0105 14:43:09.363777  4844 net.cpp:120] Top shape: 50 256 7 7 (627200)
I0105 14:43:09.363787  4844 layer_factory.hpp:74] Creating layer inception_5a/3x3_reduce
I0105 14:43:09.363801  4844 net.cpp:84] Creating Layer inception_5a/3x3_reduce
I0105 14:43:09.363817  4844 net.cpp:380] inception_5a/3x3_reduce <- pool4/3x3_s2_pool4/3x3_s2_0_split_1
I0105 14:43:09.363843  4844 net.cpp:338] inception_5a/3x3_reduce -> inception_5a/3x3_reduce
I0105 14:43:09.363855  4844 net.cpp:113] Setting up inception_5a/3x3_reduce
I0105 14:43:09.366950  4844 net.cpp:120] Top shape: 50 160 7 7 (392000)
I0105 14:43:09.367002  4844 layer_factory.hpp:74] Creating layer inception_5a/relu_3x3_reduce
I0105 14:43:09.367015  4844 net.cpp:84] Creating Layer inception_5a/relu_3x3_reduce
I0105 14:43:09.367025  4844 net.cpp:380] inception_5a/relu_3x3_reduce <- inception_5a/3x3_reduce
I0105 14:43:09.367036  4844 net.cpp:327] inception_5a/relu_3x3_reduce -> inception_5a/3x3_reduce (in-place)
I0105 14:43:09.367048  4844 net.cpp:113] Setting up inception_5a/relu_3x3_reduce
I0105 14:43:09.367148  4844 net.cpp:120] Top shape: 50 160 7 7 (392000)
I0105 14:43:09.367159  4844 layer_factory.hpp:74] Creating layer inception_5a/3x3
I0105 14:43:09.367177  4844 net.cpp:84] Creating Layer inception_5a/3x3
I0105 14:43:09.367183  4844 net.cpp:380] inception_5a/3x3 <- inception_5a/3x3_reduce
I0105 14:43:09.367193  4844 net.cpp:338] inception_5a/3x3 -> inception_5a/3x3
I0105 14:43:09.367205  4844 net.cpp:113] Setting up inception_5a/3x3
I0105 14:43:09.374949  4844 net.cpp:120] Top shape: 50 320 7 7 (784000)
I0105 14:43:09.375010  4844 layer_factory.hpp:74] Creating layer inception_5a/relu_3x3
I0105 14:43:09.375030  4844 net.cpp:84] Creating Layer inception_5a/relu_3x3
I0105 14:43:09.375042  4844 net.cpp:380] inception_5a/relu_3x3 <- inception_5a/3x3
I0105 14:43:09.375061  4844 net.cpp:327] inception_5a/relu_3x3 -> inception_5a/3x3 (in-place)
I0105 14:43:09.375080  4844 net.cpp:113] Setting up inception_5a/relu_3x3
I0105 14:43:09.375170  4844 net.cpp:120] Top shape: 50 320 7 7 (784000)
I0105 14:43:09.375180  4844 layer_factory.hpp:74] Creating layer inception_5a/5x5_reduce
I0105 14:43:09.375200  4844 net.cpp:84] Creating Layer inception_5a/5x5_reduce
I0105 14:43:09.375211  4844 net.cpp:380] inception_5a/5x5_reduce <- pool4/3x3_s2_pool4/3x3_s2_0_split_2
I0105 14:43:09.375221  4844 net.cpp:338] inception_5a/5x5_reduce -> inception_5a/5x5_reduce
I0105 14:43:09.375236  4844 net.cpp:113] Setting up inception_5a/5x5_reduce
I0105 14:43:09.376255  4844 net.cpp:120] Top shape: 50 32 7 7 (78400)
I0105 14:43:09.376274  4844 layer_factory.hpp:74] Creating layer inception_5a/relu_5x5_reduce
I0105 14:43:09.376291  4844 net.cpp:84] Creating Layer inception_5a/relu_5x5_reduce
I0105 14:43:09.376298  4844 net.cpp:380] inception_5a/relu_5x5_reduce <- inception_5a/5x5_reduce
I0105 14:43:09.376307  4844 net.cpp:327] inception_5a/relu_5x5_reduce -> inception_5a/5x5_reduce (in-place)
I0105 14:43:09.376317  4844 net.cpp:113] Setting up inception_5a/relu_5x5_reduce
I0105 14:43:09.376696  4844 net.cpp:120] Top shape: 50 32 7 7 (78400)
I0105 14:43:09.376713  4844 layer_factory.hpp:74] Creating layer inception_5a/5x5
I0105 14:43:09.376726  4844 net.cpp:84] Creating Layer inception_5a/5x5
I0105 14:43:09.376734  4844 net.cpp:380] inception_5a/5x5 <- inception_5a/5x5_reduce
I0105 14:43:09.376745  4844 net.cpp:338] inception_5a/5x5 -> inception_5a/5x5
I0105 14:43:09.376757  4844 net.cpp:113] Setting up inception_5a/5x5
I0105 14:43:09.379443  4844 net.cpp:120] Top shape: 50 128 7 7 (313600)
I0105 14:43:09.379464  4844 layer_factory.hpp:74] Creating layer inception_5a/relu_5x5
I0105 14:43:09.379477  4844 net.cpp:84] Creating Layer inception_5a/relu_5x5
I0105 14:43:09.379484  4844 net.cpp:380] inception_5a/relu_5x5 <- inception_5a/5x5
I0105 14:43:09.379493  4844 net.cpp:327] inception_5a/relu_5x5 -> inception_5a/5x5 (in-place)
I0105 14:43:09.379503  4844 net.cpp:113] Setting up inception_5a/relu_5x5
I0105 14:43:09.379593  4844 net.cpp:120] Top shape: 50 128 7 7 (313600)
I0105 14:43:09.379602  4844 layer_factory.hpp:74] Creating layer inception_5a/pool
I0105 14:43:09.379611  4844 layer_factory.cpp:56] CUDNN does not support padding or multiple tops. Using Caffe's own pooling layer.
I0105 14:43:09.379622  4844 net.cpp:84] Creating Layer inception_5a/pool
I0105 14:43:09.379643  4844 net.cpp:380] inception_5a/pool <- pool4/3x3_s2_pool4/3x3_s2_0_split_3
I0105 14:43:09.379669  4844 net.cpp:338] inception_5a/pool -> inception_5a/pool
I0105 14:43:09.379684  4844 net.cpp:113] Setting up inception_5a/pool
I0105 14:43:09.379703  4844 net.cpp:120] Top shape: 50 832 7 7 (2038400)
I0105 14:43:09.379709  4844 layer_factory.hpp:74] Creating layer inception_5a/pool_proj
I0105 14:43:09.379721  4844 net.cpp:84] Creating Layer inception_5a/pool_proj
I0105 14:43:09.379727  4844 net.cpp:380] inception_5a/pool_proj <- inception_5a/pool
I0105 14:43:09.379744  4844 net.cpp:338] inception_5a/pool_proj -> inception_5a/pool_proj
I0105 14:43:09.379755  4844 net.cpp:113] Setting up inception_5a/pool_proj
I0105 14:43:09.381610  4844 net.cpp:120] Top shape: 50 128 7 7 (313600)
I0105 14:43:09.381630  4844 layer_factory.hpp:74] Creating layer inception_5a/relu_pool_proj
I0105 14:43:09.381644  4844 net.cpp:84] Creating Layer inception_5a/relu_pool_proj
I0105 14:43:09.381651  4844 net.cpp:380] inception_5a/relu_pool_proj <- inception_5a/pool_proj
I0105 14:43:09.381660  4844 net.cpp:327] inception_5a/relu_pool_proj -> inception_5a/pool_proj (in-place)
I0105 14:43:09.381670  4844 net.cpp:113] Setting up inception_5a/relu_pool_proj
I0105 14:43:09.381753  4844 net.cpp:120] Top shape: 50 128 7 7 (313600)
I0105 14:43:09.381762  4844 layer_factory.hpp:74] Creating layer inception_5a/output
I0105 14:43:09.381777  4844 net.cpp:84] Creating Layer inception_5a/output
I0105 14:43:09.381784  4844 net.cpp:380] inception_5a/output <- inception_5a/1x1
I0105 14:43:09.381793  4844 net.cpp:380] inception_5a/output <- inception_5a/3x3
I0105 14:43:09.381800  4844 net.cpp:380] inception_5a/output <- inception_5a/5x5
I0105 14:43:09.381808  4844 net.cpp:380] inception_5a/output <- inception_5a/pool_proj
I0105 14:43:09.381815  4844 net.cpp:338] inception_5a/output -> inception_5a/output
I0105 14:43:09.381825  4844 net.cpp:113] Setting up inception_5a/output
I0105 14:43:09.381835  4844 net.cpp:120] Top shape: 50 832 7 7 (2038400)
I0105 14:43:09.381842  4844 layer_factory.hpp:74] Creating layer inception_5a/output_inception_5a/output_0_split
I0105 14:43:09.381853  4844 net.cpp:84] Creating Layer inception_5a/output_inception_5a/output_0_split
I0105 14:43:09.381860  4844 net.cpp:380] inception_5a/output_inception_5a/output_0_split <- inception_5a/output
I0105 14:43:09.381870  4844 net.cpp:338] inception_5a/output_inception_5a/output_0_split -> inception_5a/output_inception_5a/output_0_split_0
I0105 14:43:09.381881  4844 net.cpp:338] inception_5a/output_inception_5a/output_0_split -> inception_5a/output_inception_5a/output_0_split_1
I0105 14:43:09.381891  4844 net.cpp:338] inception_5a/output_inception_5a/output_0_split -> inception_5a/output_inception_5a/output_0_split_2
I0105 14:43:09.381901  4844 net.cpp:338] inception_5a/output_inception_5a/output_0_split -> inception_5a/output_inception_5a/output_0_split_3
I0105 14:43:09.381908  4844 net.cpp:113] Setting up inception_5a/output_inception_5a/output_0_split
I0105 14:43:09.381918  4844 net.cpp:120] Top shape: 50 832 7 7 (2038400)
I0105 14:43:09.381927  4844 net.cpp:120] Top shape: 50 832 7 7 (2038400)
I0105 14:43:09.381934  4844 net.cpp:120] Top shape: 50 832 7 7 (2038400)
I0105 14:43:09.381942  4844 net.cpp:120] Top shape: 50 832 7 7 (2038400)
I0105 14:43:09.381947  4844 layer_factory.hpp:74] Creating layer inception_5b/1x1
I0105 14:43:09.381963  4844 net.cpp:84] Creating Layer inception_5b/1x1
I0105 14:43:09.381969  4844 net.cpp:380] inception_5b/1x1 <- inception_5a/output_inception_5a/output_0_split_0
I0105 14:43:09.381978  4844 net.cpp:338] inception_5b/1x1 -> inception_5b/1x1
I0105 14:43:09.381988  4844 net.cpp:113] Setting up inception_5b/1x1
I0105 14:43:09.395853  4844 net.cpp:120] Top shape: 50 384 7 7 (940800)
I0105 14:43:09.395905  4844 layer_factory.hpp:74] Creating layer inception_5b/relu_1x1
I0105 14:43:09.395925  4844 net.cpp:84] Creating Layer inception_5b/relu_1x1
I0105 14:43:09.395939  4844 net.cpp:380] inception_5b/relu_1x1 <- inception_5b/1x1
I0105 14:43:09.395968  4844 net.cpp:327] inception_5b/relu_1x1 -> inception_5b/1x1 (in-place)
I0105 14:43:09.396000  4844 net.cpp:113] Setting up inception_5b/relu_1x1
I0105 14:43:09.396137  4844 net.cpp:120] Top shape: 50 384 7 7 (940800)
I0105 14:43:09.396148  4844 layer_factory.hpp:74] Creating layer inception_5b/3x3_reduce
I0105 14:43:09.396167  4844 net.cpp:84] Creating Layer inception_5b/3x3_reduce
I0105 14:43:09.396177  4844 net.cpp:380] inception_5b/3x3_reduce <- inception_5a/output_inception_5a/output_0_split_1
I0105 14:43:09.396188  4844 net.cpp:338] inception_5b/3x3_reduce -> inception_5b/3x3_reduce
I0105 14:43:09.396203  4844 net.cpp:113] Setting up inception_5b/3x3_reduce
I0105 14:43:09.401837  4844 net.cpp:120] Top shape: 50 192 7 7 (470400)
I0105 14:43:09.401886  4844 layer_factory.hpp:74] Creating layer inception_5b/relu_3x3_reduce
I0105 14:43:09.401903  4844 net.cpp:84] Creating Layer inception_5b/relu_3x3_reduce
I0105 14:43:09.401917  4844 net.cpp:380] inception_5b/relu_3x3_reduce <- inception_5b/3x3_reduce
I0105 14:43:09.401932  4844 net.cpp:327] inception_5b/relu_3x3_reduce -> inception_5b/3x3_reduce (in-place)
I0105 14:43:09.401945  4844 net.cpp:113] Setting up inception_5b/relu_3x3_reduce
I0105 14:43:09.402328  4844 net.cpp:120] Top shape: 50 192 7 7 (470400)
I0105 14:43:09.402343  4844 layer_factory.hpp:74] Creating layer inception_5b/3x3
I0105 14:43:09.402360  4844 net.cpp:84] Creating Layer inception_5b/3x3
I0105 14:43:09.402369  4844 net.cpp:380] inception_5b/3x3 <- inception_5b/3x3_reduce
I0105 14:43:09.402380  4844 net.cpp:338] inception_5b/3x3 -> inception_5b/3x3
I0105 14:43:09.402393  4844 net.cpp:113] Setting up inception_5b/3x3
I0105 14:43:09.417924  4844 net.cpp:120] Top shape: 50 384 7 7 (940800)
I0105 14:43:09.417981  4844 layer_factory.hpp:74] Creating layer inception_5b/relu_3x3
I0105 14:43:09.418002  4844 net.cpp:84] Creating Layer inception_5b/relu_3x3
I0105 14:43:09.418017  4844 net.cpp:380] inception_5b/relu_3x3 <- inception_5b/3x3
I0105 14:43:09.418035  4844 net.cpp:327] inception_5b/relu_3x3 -> inception_5b/3x3 (in-place)
I0105 14:43:09.418051  4844 net.cpp:113] Setting up inception_5b/relu_3x3
I0105 14:43:09.418157  4844 net.cpp:120] Top shape: 50 384 7 7 (940800)
I0105 14:43:09.418166  4844 layer_factory.hpp:74] Creating layer inception_5b/5x5_reduce
I0105 14:43:09.418185  4844 net.cpp:84] Creating Layer inception_5b/5x5_reduce
I0105 14:43:09.418195  4844 net.cpp:380] inception_5b/5x5_reduce <- inception_5a/output_inception_5a/output_0_split_2
I0105 14:43:09.418207  4844 net.cpp:338] inception_5b/5x5_reduce -> inception_5b/5x5_reduce
I0105 14:43:09.418222  4844 net.cpp:113] Setting up inception_5b/5x5_reduce
I0105 14:43:09.420182  4844 net.cpp:120] Top shape: 50 48 7 7 (117600)
I0105 14:43:09.421139  4844 layer_factory.hpp:74] Creating layer inception_5b/relu_5x5_reduce
I0105 14:43:09.421167  4844 net.cpp:84] Creating Layer inception_5b/relu_5x5_reduce
I0105 14:43:09.421180  4844 net.cpp:380] inception_5b/relu_5x5_reduce <- inception_5b/5x5_reduce
I0105 14:43:09.421195  4844 net.cpp:327] inception_5b/relu_5x5_reduce -> inception_5b/5x5_reduce (in-place)
I0105 14:43:09.421211  4844 net.cpp:113] Setting up inception_5b/relu_5x5_reduce
I0105 14:43:09.421311  4844 net.cpp:120] Top shape: 50 48 7 7 (117600)
I0105 14:43:09.421321  4844 layer_factory.hpp:74] Creating layer inception_5b/5x5
I0105 14:43:09.421341  4844 net.cpp:84] Creating Layer inception_5b/5x5
I0105 14:43:09.421349  4844 net.cpp:380] inception_5b/5x5 <- inception_5b/5x5_reduce
I0105 14:43:09.421357  4844 net.cpp:338] inception_5b/5x5 -> inception_5b/5x5
I0105 14:43:09.421372  4844 net.cpp:113] Setting up inception_5b/5x5
I0105 14:43:09.424192  4844 net.cpp:120] Top shape: 50 128 7 7 (313600)
I0105 14:43:09.424224  4844 layer_factory.hpp:74] Creating layer inception_5b/relu_5x5
I0105 14:43:09.424242  4844 net.cpp:84] Creating Layer inception_5b/relu_5x5
I0105 14:43:09.424250  4844 net.cpp:380] inception_5b/relu_5x5 <- inception_5b/5x5
I0105 14:43:09.424259  4844 net.cpp:327] inception_5b/relu_5x5 -> inception_5b/5x5 (in-place)
I0105 14:43:09.424285  4844 net.cpp:113] Setting up inception_5b/relu_5x5
I0105 14:43:09.424715  4844 net.cpp:120] Top shape: 50 128 7 7 (313600)
I0105 14:43:09.424731  4844 layer_factory.hpp:74] Creating layer inception_5b/pool
I0105 14:43:09.424741  4844 layer_factory.cpp:56] CUDNN does not support padding or multiple tops. Using Caffe's own pooling layer.
I0105 14:43:09.424751  4844 net.cpp:84] Creating Layer inception_5b/pool
I0105 14:43:09.424759  4844 net.cpp:380] inception_5b/pool <- inception_5a/output_inception_5a/output_0_split_3
I0105 14:43:09.424770  4844 net.cpp:338] inception_5b/pool -> inception_5b/pool
I0105 14:43:09.424782  4844 net.cpp:113] Setting up inception_5b/pool
I0105 14:43:09.424795  4844 net.cpp:120] Top shape: 50 832 7 7 (2038400)
I0105 14:43:09.424801  4844 layer_factory.hpp:74] Creating layer inception_5b/pool_proj
I0105 14:43:09.424818  4844 net.cpp:84] Creating Layer inception_5b/pool_proj
I0105 14:43:09.424825  4844 net.cpp:380] inception_5b/pool_proj <- inception_5b/pool
I0105 14:43:09.424836  4844 net.cpp:338] inception_5b/pool_proj -> inception_5b/pool_proj
I0105 14:43:09.424847  4844 net.cpp:113] Setting up inception_5b/pool_proj
I0105 14:43:09.430621  4844 net.cpp:120] Top shape: 50 128 7 7 (313600)
I0105 14:43:09.430670  4844 layer_factory.hpp:74] Creating layer inception_5b/relu_pool_proj
I0105 14:43:09.430687  4844 net.cpp:84] Creating Layer inception_5b/relu_pool_proj
I0105 14:43:09.430701  4844 net.cpp:380] inception_5b/relu_pool_proj <- inception_5b/pool_proj
I0105 14:43:09.430718  4844 net.cpp:327] inception_5b/relu_pool_proj -> inception_5b/pool_proj (in-place)
I0105 14:43:09.430735  4844 net.cpp:113] Setting up inception_5b/relu_pool_proj
I0105 14:43:09.430860  4844 net.cpp:120] Top shape: 50 128 7 7 (313600)
I0105 14:43:09.430871  4844 layer_factory.hpp:74] Creating layer inception_5b/output
I0105 14:43:09.430884  4844 net.cpp:84] Creating Layer inception_5b/output
I0105 14:43:09.430894  4844 net.cpp:380] inception_5b/output <- inception_5b/1x1
I0105 14:43:09.430907  4844 net.cpp:380] inception_5b/output <- inception_5b/3x3
I0105 14:43:09.430917  4844 net.cpp:380] inception_5b/output <- inception_5b/5x5
I0105 14:43:09.430927  4844 net.cpp:380] inception_5b/output <- inception_5b/pool_proj
I0105 14:43:09.430940  4844 net.cpp:338] inception_5b/output -> inception_5b/output
I0105 14:43:09.430955  4844 net.cpp:113] Setting up inception_5b/output
I0105 14:43:09.430971  4844 net.cpp:120] Top shape: 50 1024 7 7 (2508800)
I0105 14:43:09.430980  4844 layer_factory.hpp:74] Creating layer pool5/7x7_s1
I0105 14:43:09.430994  4844 net.cpp:84] Creating Layer pool5/7x7_s1
I0105 14:43:09.431002  4844 net.cpp:380] pool5/7x7_s1 <- inception_5b/output
I0105 14:43:09.431017  4844 net.cpp:338] pool5/7x7_s1 -> pool5/7x7_s1
I0105 14:43:09.431031  4844 net.cpp:113] Setting up pool5/7x7_s1
I0105 14:43:09.431146  4844 net.cpp:120] Top shape: 50 1024 1 1 (51200)
I0105 14:43:09.431159  4844 layer_factory.hpp:74] Creating layer pool5/drop_7x7_s1
I0105 14:43:09.431176  4844 net.cpp:84] Creating Layer pool5/drop_7x7_s1
I0105 14:43:09.431185  4844 net.cpp:380] pool5/drop_7x7_s1 <- pool5/7x7_s1
I0105 14:43:09.431197  4844 net.cpp:327] pool5/drop_7x7_s1 -> pool5/7x7_s1 (in-place)
I0105 14:43:09.431210  4844 net.cpp:113] Setting up pool5/drop_7x7_s1
I0105 14:43:09.431223  4844 net.cpp:120] Top shape: 50 1024 1 1 (51200)
I0105 14:43:09.431232  4844 layer_factory.hpp:74] Creating layer loss3/classifier_kaggle
I0105 14:43:09.431247  4844 net.cpp:84] Creating Layer loss3/classifier_kaggle
I0105 14:43:09.431257  4844 net.cpp:380] loss3/classifier_kaggle <- pool5/7x7_s1
I0105 14:43:09.431269  4844 net.cpp:338] loss3/classifier_kaggle -> loss3/classifier_kaggle
I0105 14:43:09.431283  4844 net.cpp:113] Setting up loss3/classifier_kaggle
I0105 14:43:09.437625  4844 net.cpp:120] Top shape: 50 447 (22350)
I0105 14:43:09.437680  4844 layer_factory.hpp:74] Creating layer loss3/classifier_kaggle_loss3/classifier_kaggle_0_split
I0105 14:43:09.437697  4844 net.cpp:84] Creating Layer loss3/classifier_kaggle_loss3/classifier_kaggle_0_split
I0105 14:43:09.437728  4844 net.cpp:380] loss3/classifier_kaggle_loss3/classifier_kaggle_0_split <- loss3/classifier_kaggle
I0105 14:43:09.437763  4844 net.cpp:338] loss3/classifier_kaggle_loss3/classifier_kaggle_0_split -> loss3/classifier_kaggle_loss3/classifier_kaggle_0_split_0
I0105 14:43:09.437782  4844 net.cpp:338] loss3/classifier_kaggle_loss3/classifier_kaggle_0_split -> loss3/classifier_kaggle_loss3/classifier_kaggle_0_split_1
I0105 14:43:09.437798  4844 net.cpp:338] loss3/classifier_kaggle_loss3/classifier_kaggle_0_split -> loss3/classifier_kaggle_loss3/classifier_kaggle_0_split_2
I0105 14:43:09.437813  4844 net.cpp:113] Setting up loss3/classifier_kaggle_loss3/classifier_kaggle_0_split
I0105 14:43:09.437827  4844 net.cpp:120] Top shape: 50 447 (22350)
I0105 14:43:09.437837  4844 net.cpp:120] Top shape: 50 447 (22350)
I0105 14:43:09.437847  4844 net.cpp:120] Top shape: 50 447 (22350)
I0105 14:43:09.437855  4844 layer_factory.hpp:74] Creating layer loss3/loss3
I0105 14:43:09.437868  4844 net.cpp:84] Creating Layer loss3/loss3
I0105 14:43:09.437876  4844 net.cpp:380] loss3/loss3 <- loss3/classifier_kaggle_loss3/classifier_kaggle_0_split_0
I0105 14:43:09.437887  4844 net.cpp:380] loss3/loss3 <- label_data_1_split_6
I0105 14:43:09.437901  4844 net.cpp:338] loss3/loss3 -> loss3/loss3
…
