…
I0106 23:18:34.516937 16874 net.cpp:257] The NetState phase (0) differed from the phase (1) specified by a rule in layer loss3/top-5
I0106 23:18:34.518296 16874 net.cpp:42] Initializing net from parameters: 
name: "MYNET"
state {
  phase: TRAIN
}
layer {
  name: "data"
  type: "ImageData"
  top: "data"
  top: "label"
  include {
    phase: TRAIN
  }
  transform_param {
    mirror: false
    crop_size: 224
    mean_value: 129
    mean_value: 129
    mean_value: 129
  }
  image_data_param {
    source: "/home/coldmanck/kaggle/label_train_full_resize_rotated.txt"
    batch_size: 80
    shuffle: true
  }
}
layer {
  name: "conv1/7x7_s2"
  type: "Convolution"
  bottom: "data"
  top: "conv1/7x7_s2"
  param {
    lr_mult: 1
    decay_mult: 1
  }
  param {
    lr_mult: 2
    decay_mult: 0
  }
  convolution_param {
    num_output: 64
    pad: 3
    kernel_size: 7
    stride: 2
    weight_filler {
      type: "xavier"
    }
    bias_filler {
      type: "constant"
      value: 0.2
    }
  }
}
layer {
  name: "conv1/relu_7x7"
  type: "ReLU"
  bottom: "conv1/7x7_s2"
  top: "conv1/7x7_s2"
}
layer {
  name: "pool1/3x3_s2"
  type: "Pooling"
  bottom: "conv1/7x7_s2"
  top: "pool1/3x3_s2"
  pooling_param {
    pool: MAX
    kernel_size: 3
    stride: 2
  }
}
layer {
  name: "pool1/norm1"
  type: "LRN"
  bottom: "pool1/3x3_s2"
  top: "pool1/norm1"
  lrn_param {
    local_size: 5
    alpha: 0.0001
    beta: 0.75
  }
}
layer {
  name: "conv2/3x3_reduce"
  type: "Convolution"
  bottom: "pool1/norm1"
  top: "conv2/3x3_reduce"
  param {
    lr_mult: 1
    decay_mult: 1
  }
  param {
    lr_mult: 2
    decay_mult: 0
  }
  convolution_param {
    num_output: 64
    kernel_size: 1
    weight_filler {
      type: "xavier"
    }
    bias_filler {
      type: "constant"
      value: 0.2
    }
  }
}
layer {
  name: "conv2/relu_3x3_reduce"
  type: "ReLU"
  bottom: "conv2/3x3_reduce"
  top: "conv2/3x3_reduce"
}
layer {
  name: "conv2/3x3"
  type: "Convolution"
  bottom: "conv2/3x3_reduce"
  top: "conv2/3x3"
  param {
    lr_mult: 1
    decay_mult: 1
  }
  param {
    lr_mult: 2
    decay_mult: 0
  }
  convolution_param {
    num_output: 192
    pad: 1
    kernel_size: 3
    weight_filler {
      type: "xavier"
    }
    bias_filler {
      type: "constant"
      value: 0.2
    }
  }
}
layer {
  name: "conv2/relu_3x3"
  type: "ReLU"
  bottom: "conv2/3x3"
  top: "conv2/3x3"
}
layer {
  name: "conv2/norm2"
  type: "LRN"
  bottom: "conv2/3x3"
  top: "conv2/norm2"
  lrn_param {
    local_size: 5
    alpha: 0.0001
    beta: 0.75
  }
}
layer {
  name: "pool2/3x3_s2"
  type: "Pooling"
  bottom: "conv2/norm2"
  top: "pool2/3x3_s2"
  pooling_param {
    pool: MAX
    kernel_size: 3
    stride: 2
  }
}
layer {
  name: "inception_3a/1x1"
  type: "Convolution"
  bottom: "pool2/3x3_s2"
  top: "inception_3a/1x1"
  param {
    lr_mult: 1
    decay_mult: 1
  }
  param {
    lr_mult: 2
    decay_mult: 0
  }
  convolution_param {
    num_output: 64
    kernel_size: 1
    weight_filler {
      type: "xavier"
    }
    bias_filler {
      type: "constant"
      value: 0.2
    }
  }
}
layer {
  name: "inception_3a/relu_1x1"
  type: "ReLU"
  bottom: "inception_3a/1x1"
  top: "inception_3a/1x1"
}
layer {
  name: "inception_3a/3x3_reduce"
  type: "Convolution"
  bottom: "pool2/3x3_s2"
  top: "inception_3a/3x3_reduce"
  param {
    lr_mult: 1
    decay_mult: 1
  }
  param {
    lr_mult: 2
    decay_mult: 0
  }
  convolution_param {
    num_output: 96
    kernel_size: 1
    weight_filler {
      type: "xavier"
    }
    bias_filler {
      type: "constant"
      value: 0.2
    }
  }
}
layer {
  name: "inception_3a/relu_3x3_reduce"
  type: "ReLU"
  bottom: "inception_3a/3x3_reduce"
  top: "inception_3a/3x3_reduce"
}
layer {
  name: "inception_3a/3x3"
  type: "Convolution"
  bottom: "inception_3a/3x3_reduce"
  top: "inception_3a/3x3"
  param {
    lr_mult: 1
    decay_mult: 1
  }
  param {
    lr_mult: 2
    decay_mult: 0
  }
  convolution_param {
    num_output: 128
    pad: 1
    kernel_size: 3
    weight_filler {
      type: "xavier"
    }
    bias_filler {
      type: "constant"
      value: 0.2
    }
  }
}
layer {
  name: "inception_3a/relu_3x3"
  type: "ReLU"
  bottom: "inception_3a/3x3"
  top: "inception_3a/3x3"
}
layer {
  name: "inception_3a/5x5_reduce"
  type: "Convolution"
  bottom: "pool2/3x3_s2"
  top: "inception_3a/5x5_reduce"
  param {
    lr_mult: 1
    decay_mult: 1
  }
  param {
    lr_mult: 2
    decay_mult: 0
  }
  convolution_param {
    num_output: 16
    kernel_size: 1
    weight_filler {
      type: "xavier"
    }
    bias_filler {
      type: "constant"
      value: 0.2
    }
  }
}
layer {
  name: "inception_3a/relu_5x5_reduce"
  type: "ReLU"
  bottom: "inception_3a/5x5_reduce"
  top: "inception_3a/5x5_reduce"
}
layer {
  name: "inception_3a/5x5"
  type: "Convolution"
  bottom: "inception_3a/5x5_reduce"
  top: "inception_3a/5x5"
  param {
    lr_mult: 1
    decay_mult: 1
  }
  param {
    lr_mult: 2
    decay_mult: 0
  }
  convolution_param {
    num_output: 32
    pad: 2
    kernel_size: 5
    weight_filler {
      type: "xavier"
    }
    bias_filler {
      type: "constant"
      value: 0.2
    }
  }
}
layer {
  name: "inception_3a/relu_5x5"
  type: "ReLU"
  bottom: "inception_3a/5x5"
  top: "inception_3a/5x5"
}
layer {
  name: "inception_3a/pool"
  type: "Pooling"
  bottom: "pool2/3x3_s2"
  top: "inception_3a/pool"
  pooling_param {
    pool: MAX
    kernel_size: 3
    stride: 1
    pad: 1
  }
}
layer {
  name: "inception_3a/pool_proj"
  type: "Convolution"
  bottom: "inception_3a/pool"
  top: "inception_3a/pool_proj"
  param {
    lr_mult: 1
    decay_mult: 1
  }
  param {
    lr_mult: 2
    decay_mult: 0
  }
  convolution_param {
    num_output: 32
    kernel_size: 1
    weight_filler {
      type: "xavier"
    }
    bias_filler {
      type: "constant"
      value: 0.2
    }
  }
}
layer {
  name: "inception_3a/relu_pool_proj"
  type: "ReLU"
  bottom: "inception_3a/pool_proj"
  top: "inception_3a/pool_proj"
}
layer {
  name: "inception_3a/output"
  type: "Concat"
  bottom: "inception_3a/1x1"
  bottom: "inception_3a/3x3"
  bottom: "inception_3a/5x5"
  bottom: "inception_3a/pool_proj"
  top: "inception_3a/output"
}
layer {
  name: "inception_3b/1x1"
  type: "Convolution"
  bottom: "inception_3a/output"
  top: "inception_3b/1x1"
  param {
    lr_mult: 1
    decay_mult: 1
  }
  param {
    lr_mult: 2
    decay_mult: 0
  }
  convolution_param {
    num_output: 128
    kernel_size: 1
    weight_filler {
      type: "xavier"
    }
    bias_filler {
      type: "constant"
      value: 0.2
    }
  }
}
layer {
  name: "inception_3b/relu_1x1"
  type: "ReLU"
  bottom: "inception_3b/1x1"
  top: "inception_3b/1x1"
}
layer {
  name: "inception_3b/3x3_reduce"
  type: "Convolution"
  bottom: "inception_3a/output"
  top: "inception_3b/3x3_reduce"
  param {
    lr_mult: 1
    decay_mult: 1
  }
  param {
    lr_mult: 2
    decay_mult: 0
  }
  convolution_param {
    num_output: 128
    kernel_size: 1
    weight_filler {
      type: "xavier"
    }
    bias_filler {
      type: "constant"
      value: 0.2
    }
  }
}
layer {
  name: "inception_3b/relu_3x3_reduce"
  type: "ReLU"
  bottom: "inception_3b/3x3_reduce"
  top: "inception_3b/3x3_reduce"
}
layer {
  name: "inception_3b/3x3"
  type: "Convolution"
  bottom: "inception_3b/3x3_reduce"
  top: "inception_3b/3x3"
  param {
    lr_mult: 1
    decay_mult: 1
  }
  param {
    lr_mult: 2
    decay_mult: 0
  }
  convolution_param {
    num_output: 192
    pad: 1
    kernel_size: 3
    weight_filler {
      type: "xavier"
    }
    bias_filler {
      type: "constant"
      value: 0.2
    }
  }
}
layer {
  name: "inception_3b/relu_3x3"
  type: "ReLU"
  bottom: "inception_3b/3x3"
  top: "inception_3b/3x3"
}
layer {
  name: "inception_3b/5x5_reduce"
  type: "Convolution"
  bottom: "inception_3a/output"
  top: "inception_3b/5x5_reduce"
  param {
    lr_mult: 1
    decay_mult: 1
  }
  param {
    lr_mult: 2
    decay_mult: 0
  }
  convolution_param {
    num_output: 32
    kernel_size: 1
    weight_filler {
      type: "xavier"
    }
    bias_filler {
      type: "constant"
      value: 0.2
    }
  }
}
layer {
  name: "inception_3b/relu_5x5_reduce"
  type: "ReLU"
  bottom: "inception_3b/5x5_reduce"
  top: "inception_3b/5x5_reduce"
}
layer {
  name: "inception_3b/5x5"
  type: "Convolution"
  bottom: "inception_3b/5x5_reduce"
  top: "inception_3b/5x5"
  param {
    lr_mult: 1
    decay_mult: 1
  }
  param {
    lr_mult: 2
    decay_mult: 0
  }
  convolution_param {
    num_output: 96
    pad: 2
    kernel_size: 5
    weight_filler {
      type: "xavier"
    }
    bias_filler {
      type: "constant"
      value: 0.2
    }
  }
}
layer {
  name: "inception_3b/relu_5x5"
  type: "ReLU"
  bottom: "inception_3b/5x5"
  top: "inception_3b/5x5"
}
layer {
  name: "inception_3b/pool"
  type: "Pooling"
  bottom: "inception_3a/output"
  top: "inception_3b/pool"
  pooling_param {
    pool: MAX
    kernel_size: 3
    stride: 1
    pad: 1
  }
}
layer {
  name: "inception_3b/pool_proj"
  type: "Convolution"
  bottom: "inception_3b/pool"
  top: "inception_3b/pool_proj"
  param {
    lr_mult: 1
    decay_mult: 1
  }
  param {
    lr_mult: 2
    decay_mult: 0
  }
  convolution_param {
    num_output: 64
    kernel_size: 1
    weight_filler {
      type: "xavier"
    }
    bias_filler {
      type: "constant"
      value: 0.2
    }
  }
}
layer {
  name: "inception_3b/relu_pool_proj"
  type: "ReLU"
  bottom: "inception_3b/pool_proj"
  top: "inception_3b/pool_proj"
}
layer {
  name: "inception_3b/output"
  type: "Concat"
  bottom: "inception_3b/1x1"
  bottom: "inception_3b/3x3"
  bottom: "inception_3b/5x5"
  bottom: "inception_3b/pool_proj"
  top: "inception_3b/output"
}
layer {
  name: "pool3/3x3_s2"
  type: "Pooling"
  bottom: "inception_3b/output"
  top: "pool3/3x3_s2"
  pooling_param {
    pool: MAX
    kernel_size: 3
    stride: 2
  }
}
layer {
  name: "inception_4a/1x1"
  type: "Convolution"
  bottom: "pool3/3x3_s2"
  top: "inception_4a/1x1"
  param {
    lr_mult: 1
    decay_mult: 1
  }
  param {
    lr_mult: 2
    decay_mult: 0
  }
  convolution_param {
    num_output: 192
    kernel_size: 1
    weight_filler {
      type: "xavier"
    }
    bias_filler {
      type: "constant"
      value: 0.2
    }
  }
}
layer {
  name: "inception_4a/relu_1x1"
  type: "ReLU"
  bottom: "inception_4a/1x1"
  top: "inception_4a/1x1"
}
layer {
  name: "inception_4a/3x3_reduce"
  type: "Convolution"
  bottom: "pool3/3x3_s2"
  top: "inception_4a/3x3_reduce"
  param {
    lr_mult: 1
    decay_mult: 1
  }
  param {
    lr_mult: 2
    decay_mult: 0
  }
  convolution_param {
    num_output: 96
    kernel_size: 1
    weight_filler {
      type: "xavier"
    }
    bias_filler {
      type: "constant"
      value: 0.2
    }
  }
}
layer {
  name: "inception_4a/relu_3x3_reduce"
  type: "ReLU"
  bottom: "inception_4a/3x3_reduce"
  top: "inception_4a/3x3_reduce"
}
layer {
  name: "inception_4a/3x3"
  type: "Convolution"
  bottom: "inception_4a/3x3_reduce"
  top: "inception_4a/3x3"
  param {
    lr_mult: 1
    decay_mult: 1
  }
  param {
    lr_mult: 2
    decay_mult: 0
  }
  convolution_param {
    num_output: 208
    pad: 1
    kernel_size: 3
    weight_filler {
      type: "xavier"
    }
    bias_filler {
      type: "constant"
      value: 0.2
    }
  }
}
layer {
  name: "inception_4a/relu_3x3"
  type: "ReLU"
  bottom: "inception_4a/3x3"
  top: "inception_4a/3x3"
}
layer {
  name: "inception_4a/5x5_reduce"
  type: "Convolution"
  bottom: "pool3/3x3_s2"
  top: "inception_4a/5x5_reduce"
  param {
    lr_mult: 1
    decay_mult: 1
  }
  param {
    lr_mult: 2
    decay_mult: 0
  }
  convolution_param {
    num_output: 16
    kernel_size: 1
    weight_filler {
      type: "xavier"
    }
    bias_filler {
      type: "constant"
      value: 0.2
    }
  }
}
layer {
  name: "inception_4a/relu_5x5_reduce"
  type: "ReLU"
  bottom: "inception_4a/5x5_reduce"
  top: "inception_4a/5x5_reduce"
}
layer {
  name: "inception_4a/5x5"
  type: "Convolution"
  bottom: "inception_4a/5x5_reduce"
  top: "inception_4a/5x5"
  param {
    lr_mult: 1
    decay_mult: 1
  }
  param {
    lr_mult: 2
    decay_mult: 0
  }
  convolution_param {
    num_output: 48
    pad: 2
    kernel_size: 5
    weight_filler {
      type: "xavier"
    }
    bias_filler {
      type: "constant"
      value: 0.2
    }
  }
}
layer {
  name: "inception_4a/relu_5x5"
  type: "ReLU"
  bottom: "inception_4a/5x5"
  top: "inception_4a/5x5"
}
layer {
  name: "inception_4a/pool"
  type: "Pooling"
  bottom: "pool3/3x3_s2"
  top: "inception_4a/pool"
  pooling_param {
    pool: MAX
    kernel_size: 3
    stride: 1
    pad: 1
  }
}
layer {
  name: "inception_4a/pool_proj"
  type: "Convolution"
  bottom: "inception_4a/pool"
  top: "inception_4a/pool_proj"
  param {
    lr_mult: 1
    decay_mult: 1
  }
  param {
    lr_mult: 2
    decay_mult: 0
  }
  convolution_param {
    num_output: 64
    kernel_size: 1
    weight_filler {
      type: "xavier"
    }
    bias_filler {
      type: "constant"
      value: 0.2
    }
  }
}
layer {
  name: "inception_4a/relu_pool_proj"
  type: "ReLU"
  bottom: "inception_4a/pool_proj"
  top: "inception_4a/pool_proj"
}
layer {
  name: "inception_4a/output"
  type: "Concat"
  bottom: "inception_4a/1x1"
  bottom: "inception_4a/3x3"
  bottom: "inception_4a/5x5"
  bottom: "inception_4a/pool_proj"
  top: "inception_4a/output"
}
layer {
  name: "loss1/ave_pool"
  type: "Pooling"
  bottom: "inception_4a/output"
  top: "loss1/ave_pool"
  pooling_param {
    pool: AVE
    kernel_size: 5
    stride: 3
  }
}
layer {
  name: "loss1/conv"
  type: "Convolution"
  bottom: "loss1/ave_pool"
  top: "loss1/conv"
  param {
    lr_mult: 1
    decay_mult: 1
  }
  param {
    lr_mult: 2
    decay_mult: 0
  }
  convolution_param {
    num_output: 128
    kernel_size: 1
    weight_filler {
      type: "xavier"
    }
    bias_filler {
      type: "constant"
      value: 0.2
    }
  }
}
layer {
  name: "loss1/relu_conv"
  type: "ReLU"
  bottom: "loss1/conv"
  top: "loss1/conv"
}
layer {
  name: "loss1/fc"
  type: "InnerProduct"
  bottom: "loss1/conv"
  top: "loss1/fc"
  param {
    lr_mult: 1
    decay_mult: 1
  }
  param {
    lr_mult: 2
    decay_mult: 0
  }
  inner_product_param {
    num_output: 1024
    weight_filler {
      type: "xavier"
    }
    bias_filler {
      type: "constant"
      value: 0.2
    }
  }
}
layer {
  name: "loss1/relu_fc"
  type: "ReLU"
  bottom: "loss1/fc"
  top: "loss1/fc"
}
layer {
  name: "loss1/drop_fc"
  type: "Dropout"
  bottom: "loss1/fc"
  top: "loss1/fc"
  dropout_param {
    dropout_ratio: 0.7
  }
}
layer {
  name: "loss1/classifier_kaggle"
  type: "InnerProduct"
  bottom: "loss1/fc"
  top: "loss1/classifier_kaggle"
  param {
    lr_mult: 1
    decay_mult: 1
  }
  param {
    lr_mult: 2
    decay_mult: 0
  }
  inner_product_param {
    num_output: 447
    weight_filler {
      type: "xavier"
    }
    bias_filler {
      type: "constant"
      value: 0
    }
  }
}
layer {
  name: "loss1/loss"
  type: "SoftmaxWithLoss"
  bottom: "loss1/classifier_kaggle"
  bottom: "label"
  top: "loss1/loss1"
  loss_weight: 0.3
}
layer {
  name: "inception_4b/1x1"
  type: "Convolution"
  bottom: "inception_4a/output"
  top: "inception_4b/1x1"
  param {
    lr_mult: 1
    decay_mult: 1
  }
  param {
    lr_mult: 2
    decay_mult: 0
  }
  convolution_param {
    num_output: 160
    kernel_size: 1
    weight_filler {
      type: "xavier"
    }
    bias_filler {
      type: "constant"
      value: 0.2
    }
  }
}
layer {
  name: "inception_4b/relu_1x1"
  type: "ReLU"
  bottom: "inception_4b/1x1"
  top: "inception_4b/1x1"
}
layer {
  name: "inception_4b/3x3_reduce"
  type: "Convolution"
  bottom: "inception_4a/output"
  top: "inception_4b/3x3_reduce"
  param {
    lr_mult: 1
    decay_mult: 1
  }
  param {
    lr_mult: 2
    decay_mult: 0
  }
  convolution_param {
    num_output: 112
    kernel_size: 1
    weight_filler {
      type: "xavier"
    }
    bias_filler {
      type: "constant"
      value: 0.2
    }
  }
}
layer {
  name: "inception_4b/relu_3x3_reduce"
  type: "ReLU"
  bottom: "inception_4b/3x3_reduce"
  top: "inception_4b/3x3_reduce"
}
layer {
  name: "inception_4b/3x3"
  type: "Convolution"
  bottom: "inception_4b/3x3_reduce"
  top: "inception_4b/3x3"
  param {
    lr_mult: 1
    decay_mult: 1
  }
  param {
    lr_mult: 2
    decay_mult: 0
  }
  convolution_param {
    num_output: 224
    pad: 1
    kernel_size: 3
    weight_filler {
      type: "xavier"
    }
    bias_filler {
      type: "constant"
      value: 0.2
    }
  }
}
layer {
  name: "inception_4b/relu_3x3"
  type: "ReLU"
  bottom: "inception_4b/3x3"
  top: "inception_4b/3x3"
}
layer {
  name: "inception_4b/5x5_reduce"
  type: "Convolution"
  bottom: "inception_4a/output"
  top: "inception_4b/5x5_reduce"
  param {
    lr_mult: 1
    decay_mult: 1
  }
  param {
    lr_mult: 2
    decay_mult: 0
  }
  convolution_param {
    num_output: 24
    kernel_size: 1
    weight_filler {
      type: "xavier"
    }
    bias_filler {
      type: "constant"
      value: 0.2
    }
  }
}
layer {
  name: "inception_4b/relu_5x5_reduce"
  type: "ReLU"
  bottom: "inception_4b/5x5_reduce"
  top: "inception_4b/5x5_reduce"
}
layer {
  name: "inception_4b/5x5"
  type: "Convolution"
  bottom: "inception_4b/5x5_reduce"
  top: "inception_4b/5x5"
  param {
    lr_mult: 1
    decay_mult: 1
  }
  param {
    lr_mult: 2
    decay_mult: 0
  }
  convolution_param {
    num_output: 64
    pad: 2
    kernel_size: 5
    weight_filler {
      type: "xavier"
    }
    bias_filler {
      type: "constant"
      value: 0.2
    }
  }
}
layer {
  name: "inception_4b/relu_5x5"
  type: "ReLU"
  bottom: "inception_4b/5x5"
  top: "inception_4b/5x5"
}
layer {
  name: "inception_4b/pool"
  type: "Pooling"
  bottom: "inception_4a/output"
  top: "inception_4b/pool"
  pooling_param {
    pool: MAX
    kernel_size: 3
    stride: 1
    pad: 1
  }
}
layer {
  name: "inception_4b/pool_proj"
  type: "Convolution"
  bottom: "inception_4b/pool"
  top: "inception_4b/pool_proj"
  param {
    lr_mult: 1
    decay_mult: 1
  }
  param {
    lr_mult: 2
    decay_mult: 0
  }
  convolution_param {
    num_output: 64
    kernel_size: 1
    weight_filler {
      type: "xavier"
    }
    bias_filler {
      type: "constant"
      value: 0.2
    }
  }
}
layer {
  name: "inception_4b/relu_pool_proj"
  type: "ReLU"
  bottom: "inception_4b/pool_proj"
  top: "inception_4b/pool_proj"
}
layer {
  name: "inception_4b/output"
  type: "Concat"
  bottom: "inception_4b/1x1"
  bottom: "inception_4b/3x3"
  bottom: "inception_4b/5x5"
  bottom: "inception_4b/pool_proj"
  top: "inception_4b/output"
}
layer {
  name: "inception_4c/1x1"
  type: "Convolution"
  bottom: "inception_4b/output"
  top: "inception_4c/1x1"
  param {
    lr_mult: 1
    decay_mult: 1
  }
  param {
    lr_mult: 2
    decay_mult: 0
  }
  convolution_param {
    num_output: 128
    kernel_size: 1
    weight_filler {
      type: "xavier"
    }
    bias_filler {
      type: "constant"
      value: 0.2
    }
  }
}
layer {
  name: "inception_4c/relu_1x1"
  type: "ReLU"
  bottom: "inception_4c/1x1"
  top: "inception_4c/1x1"
}
layer {
  name: "inception_4c/3x3_reduce"
  type: "Convolution"
  bottom: "inception_4b/output"
  top: "inception_4c/3x3_reduce"
  param {
    lr_mult: 1
    decay_mult: 1
  }
  param {
    lr_mult: 2
    decay_mult: 0
  }
  convolution_param {
    num_output: 128
    kernel_size: 1
    weight_filler {
      type: "xavier"
    }
    bias_filler {
      type: "constant"
      value: 0.2
    }
  }
}
layer {
  name: "inception_4c/relu_3x3_reduce"
  type: "ReLU"
  bottom: "inception_4c/3x3_reduce"
  top: "inception_4c/3x3_reduce"
}
layer {
  name: "inception_4c/3x3"
  type: "Convolution"
  bottom: "inception_4c/3x3_reduce"
  top: "inception_4c/3x3"
  param {
    lr_mult: 1
    decay_mult: 1
  }
  param {
    lr_mult: 2
    decay_mult: 0
  }
  convolution_param {
    num_output: 256
    pad: 1
    kernel_size: 3
    weight_filler {
      type: "xavier"
    }
    bias_filler {
      type: "constant"
      value: 0.2
    }
  }
}
layer {
  name: "inception_4c/relu_3x3"
  type: "ReLU"
  bottom: "inception_4c/3x3"
  top: "inception_4c/3x3"
}
layer {
  name: "inception_4c/5x5_reduce"
  type: "Convolution"
  bottom: "inception_4b/output"
  top: "inception_4c/5x5_reduce"
  param {
    lr_mult: 1
    decay_mult: 1
  }
  param {
    lr_mult: 2
    decay_mult: 0
  }
  convolution_param {
    num_output: 24
    kernel_size: 1
    weight_filler {
      type: "xavier"
    }
    bias_filler {
      type: "constant"
      value: 0.2
    }
  }
}
layer {
  name: "inception_4c/relu_5x5_reduce"
  type: "ReLU"
  bottom: "inception_4c/5x5_reduce"
  top: "inception_4c/5x5_reduce"
}
layer {
  name: "inception_4c/5x5"
  type: "Convolution"
  bottom: "inception_4c/5x5_reduce"
  top: "inception_4c/5x5"
  param {
    lr_mult: 1
    decay_mult: 1
  }
  param {
    lr_mult: 2
    decay_mult: 0
  }
  convolution_param {
    num_output: 64
    pad: 2
    kernel_size: 5
    weight_filler {
      type: "xavier"
    }
    bias_filler {
      type: "constant"
      value: 0.2
    }
  }
}
layer {
  name: "inception_4c/relu_5x5"
  type: "ReLU"
  bottom: "inception_4c/5x5"
  top: "inception_4c/5x5"
}
layer {
  name: "inception_4c/pool"
  type: "Pooling"
  bottom: "inception_4b/output"
  top: "inception_4c/pool"
  pooling_param {
    pool: MAX
    kernel_size: 3
    stride: 1
    pad: 1
  }
}
layer {
  name: "inception_4c/pool_proj"
  type: "Convolution"
  bottom: "inception_4c/pool"
  top: "inception_4c/pool_proj"
  param {
    lr_mult: 1
    decay_mult: 1
  }
  param {
    lr_mult: 2
    decay_mult: 0
  }
  convolution_param {
    num_output: 64
    kernel_size: 1
    weight_filler {
      type: "xavier"
    }
    bias_filler {
      type: "constant"
      value: 0.2
    }
  }
}
layer {
  name: "inception_4c/relu_pool_proj"
  type: "ReLU"
  bottom: "inception_4c/pool_proj"
  top: "inception_4c/pool_proj"
}
layer {
  name: "inception_4c/output"
  type: "Concat"
  bottom: "inception_4c/1x1"
  bottom: "inception_4c/3x3"
  bottom: "inception_4c/5x5"
  bottom: "inception_4c/pool_proj"
  top: "inception_4c/output"
}
layer {
  name: "inception_4d/1x1"
  type: "Convolution"
  bottom: "inception_4c/output"
  top: "inception_4d/1x1"
  param {
    lr_mult: 1
    decay_mult: 1
  }
  param {
    lr_mult: 2
    decay_mult: 0
  }
  convolution_param {
    num_output: 112
    kernel_size: 1
    weight_filler {
      type: "xavier"
    }
    bias_filler {
      type: "constant"
      value: 0.2
    }
  }
}
layer {
  name: "inception_4d/relu_1x1"
  type: "ReLU"
  bottom: "inception_4d/1x1"
  top: "inception_4d/1x1"
}
layer {
  name: "inception_4d/3x3_reduce"
  type: "Convolution"
  bottom: "inception_4c/output"
  top: "inception_4d/3x3_reduce"
  param {
    lr_mult: 1
    decay_mult: 1
  }
  param {
    lr_mult: 2
    decay_mult: 0
  }
  convolution_param {
    num_output: 144
    kernel_size: 1
    weight_filler {
      type: "xavier"
    }
    bias_filler {
      type: "constant"
      value: 0.2
    }
  }
}
layer {
  name: "inception_4d/relu_3x3_reduce"
  type: "ReLU"
  bottom: "inception_4d/3x3_reduce"
  top: "inception_4d/3x3_reduce"
}
layer {
  name: "inception_4d/3x3"
  type: "Convolution"
  bottom: "inception_4d/3x3_reduce"
  top: "inception_4d/3x3"
  param {
    lr_mult: 1
    decay_mult: 1
  }
  param {
    lr_mult: 2
    decay_mult: 0
  }
  convolution_param {
    num_output: 288
    pad: 1
    kernel_size: 3
    weight_filler {
      type: "xavier"
    }
    bias_filler {
      type: "constant"
      value: 0.2
    }
  }
}
layer {
  name: "inception_4d/relu_3x3"
  type: "ReLU"
  bottom: "inception_4d/3x3"
  top: "inception_4d/3x3"
}
layer {
  name: "inception_4d/5x5_reduce"
  type: "Convolution"
  bottom: "inception_4c/output"
  top: "inception_4d/5x5_reduce"
  param {
    lr_mult: 1
    decay_mult: 1
  }
  param {
    lr_mult: 2
    decay_mult: 0
  }
  convolution_param {
    num_output: 32
    kernel_size: 1
    weight_filler {
      type: "xavier"
    }
    bias_filler {
      type: "constant"
      value: 0.2
    }
  }
}
layer {
  name: "inception_4d/relu_5x5_reduce"
  type: "ReLU"
  bottom: "inception_4d/5x5_reduce"
  top: "inception_4d/5x5_reduce"
}
layer {
  name: "inception_4d/5x5"
  type: "Convolution"
  bottom: "inception_4d/5x5_reduce"
  top: "inception_4d/5x5"
  param {
    lr_mult: 1
    decay_mult: 1
  }
  param {
    lr_mult: 2
    decay_mult: 0
  }
  convolution_param {
    num_output: 64
    pad: 2
    kernel_size: 5
    weight_filler {
      type: "xavier"
    }
    bias_filler {
      type: "constant"
      value: 0.2
    }
  }
}
layer {
  name: "inception_4d/relu_5x5"
  type: "ReLU"
  bottom: "inception_4d/5x5"
  top: "inception_4d/5x5"
}
layer {
  name: "inception_4d/pool"
  type: "Pooling"
  bottom: "inception_4c/output"
  top: "inception_4d/pool"
  pooling_param {
    pool: MAX
    kernel_size: 3
    stride: 1
    pad: 1
  }
}
layer {
  name: "inception_4d/pool_proj"
  type: "Convolution"
  bottom: "inception_4d/pool"
  top: "inception_4d/pool_proj"
  param {
    lr_mult: 1
    decay_mult: 1
  }
  param {
    lr_mult: 2
    decay_mult: 0
  }
  convolution_param {
    num_output: 64
    kernel_size: 1
    weight_filler {
      type: "xavier"
    }
    bias_filler {
      type: "constant"
      value: 0.2
    }
  }
}
layer {
  name: "inception_4d/relu_pool_proj"
  type: "ReLU"
  bottom: "inception_4d/pool_proj"
  top: "inception_4d/pool_proj"
}
layer {
  name: "inception_4d/output"
  type: "Concat"
  bottom: "inception_4d/1x1"
  bottom: "inception_4d/3x3"
  bottom: "inception_4d/5x5"
  bottom: "inception_4d/pool_proj"
  top: "inception_4d/output"
}
layer {
  name: "loss2/ave_pool"
  type: "Pooling"
  bottom: "inception_4d/output"
  top: "loss2/ave_pool"
  pooling_param {
    pool: AVE
    kernel_size: 5
    stride: 3
  }
}
layer {
  name: "loss2/conv"
  type: "Convolution"
  bottom: "loss2/ave_pool"
  top: "loss2/conv"
  param {
    lr_mult: 1
    decay_mult: 1
  }
  param {
    lr_mult: 2
    decay_mult: 0
  }
  convolution_param {
    num_output: 128
    kernel_size: 1
    weight_filler {
      type: "xavier"
    }
    bias_filler {
      type: "constant"
      value: 0.2
    }
  }
}
layer {
  name: "loss2/relu_conv"
  type: "ReLU"
  bottom: "loss2/conv"
  top: "loss2/conv"
}
layer {
  name: "loss2/fc"
  type: "InnerProduct"
  bottom: "loss2/conv"
  top: "loss2/fc"
  param {
    lr_mult: 1
    decay_mult: 1
  }
  param {
    lr_mult: 2
    decay_mult: 0
  }
  inner_product_param {
    num_output: 1024
    weight_filler {
      type: "xavier"
    }
    bias_filler {
      type: "constant"
      value: 0.2
    }
  }
}
layer {
  name: "loss2/relu_fc"
  type: "ReLU"
  bottom: "loss2/fc"
  top: "loss2/fc"
}
layer {
  name: "loss2/drop_fc"
  type: "Dropout"
  bottom: "loss2/fc"
  top: "loss2/fc"
  dropout_param {
    dropout_ratio: 0.7
  }
}
layer {
  name: "loss2/classifier_kaggle"
  type: "InnerProduct"
  bottom: "loss2/fc"
  top: "loss2/classifier_kaggle"
  param {
    lr_mult: 1
    decay_mult: 1
  }
  param {
    lr_mult: 2
    decay_mult: 0
  }
  inner_product_param {
    num_output: 447
    weight_filler {
      type: "xavier"
    }
    bias_filler {
      type: "constant"
      value: 0
    }
  }
}
layer {
  name: "loss2/loss"
  type: "SoftmaxWithLoss"
  bottom: "loss2/classifier_kaggle"
  bottom: "label"
  top: "loss2/loss1"
  loss_weight: 0.3
}
layer {
  name: "inception_4e/1x1"
  type: "Convolution"
  bottom: "inception_4d/output"
  top: "inception_4e/1x1"
  param {
    lr_mult: 1
    decay_mult: 1
  }
  param {
    lr_mult: 2
    decay_mult: 0
  }
  convolution_param {
    num_output: 256
    kernel_size: 1
    weight_filler {
      type: "xavier"
    }
    bias_filler {
      type: "constant"
      value: 0.2
    }
  }
}
layer {
  name: "inception_4e/relu_1x1"
  type: "ReLU"
  bottom: "inception_4e/1x1"
  top: "inception_4e/1x1"
}
layer {
  name: "inception_4e/3x3_reduce"
  type: "Convolution"
  bottom: "inception_4d/output"
  top: "inception_4e/3x3_reduce"
  param {
    lr_mult: 1
    decay_mult: 1
  }
  param {
    lr_mult: 2
    decay_mult: 0
  }
  convolution_param {
    num_output: 160
    kernel_size: 1
    weight_filler {
      type: "xavier"
    }
    bias_filler {
      type: "constant"
      value: 0.2
    }
  }
}
layer {
  name: "inception_4e/relu_3x3_reduce"
  type: "ReLU"
  bottom: "inception_4e/3x3_reduce"
  top: "inception_4e/3x3_reduce"
}
layer {
  name: "inception_4e/3x3"
  type: "Convolution"
  bottom: "inception_4e/3x3_reduce"
  top: "inception_4e/3x3"
  param {
    lr_mult: 1
    decay_mult: 1
  }
  param {
    lr_mult: 2
    decay_mult: 0
  }
  convolution_param {
    num_output: 320
    pad: 1
    kernel_size: 3
    weight_filler {
      type: "xavier"
    }
    bias_filler {
      type: "constant"
      value: 0.2
    }
  }
}
layer {
  name: "inception_4e/relu_3x3"
  type: "ReLU"
  bottom: "inception_4e/3x3"
  top: "inception_4e/3x3"
}
layer {
  name: "inception_4e/5x5_reduce"
  type: "Convolution"
  bottom: "inception_4d/output"
  top: "inception_4e/5x5_reduce"
  param {
    lr_mult: 1
    decay_mult: 1
  }
  param {
    lr_mult: 2
    decay_mult: 0
  }
  convolution_param {
    num_output: 32
    kernel_size: 1
    weight_filler {
      type: "xavier"
    }
    bias_filler {
      type: "constant"
      value: 0.2
    }
  }
}
layer {
  name: "inception_4e/relu_5x5_reduce"
  type: "ReLU"
  bottom: "inception_4e/5x5_reduce"
  top: "inception_4e/5x5_reduce"
}
layer {
  name: "inception_4e/5x5"
  type: "Convolution"
  bottom: "inception_4e/5x5_reduce"
  top: "inception_4e/5x5"
  param {
    lr_mult: 1
    decay_mult: 1
  }
  param {
    lr_mult: 2
    decay_mult: 0
  }
  convolution_param {
    num_output: 128
    pad: 2
    kernel_size: 5
    weight_filler {
      type: "xavier"
    }
    bias_filler {
      type: "constant"
      value: 0.2
    }
  }
}
layer {
  name: "inception_4e/relu_5x5"
  type: "ReLU"
  bottom: "inception_4e/5x5"
  top: "inception_4e/5x5"
}
layer {
  name: "inception_4e/pool"
  type: "Pooling"
  bottom: "inception_4d/output"
  top: "inception_4e/po
I0106 23:18:34.519048 16874 layer_factory.hpp:74] Creating layer data
I0106 23:18:34.519076 16874 net.cpp:84] Creating Layer data
I0106 23:18:34.519086 16874 net.cpp:338] data -> data
I0106 23:18:34.519125 16874 net.cpp:338] data -> label
I0106 23:18:34.519136 16874 net.cpp:113] Setting up data
I0106 23:18:34.519143 16874 image_data_layer.cpp:36] Opening file /home/coldmanck/kaggle/label_train_full_resize_rotated.txt
I0106 23:18:34.521394 16874 image_data_layer.cpp:46] Shuffling data
I0106 23:18:34.522174 16874 image_data_layer.cpp:51] A total of 4235 images.
I0106 23:18:34.530006 16874 image_data_layer.cpp:80] output data size: 80,3,224,224
I0106 23:18:34.542073 16874 net.cpp:120] Top shape: 80 3 224 224 (12042240)
I0106 23:18:34.542100 16874 net.cpp:120] Top shape: 80 (80)
I0106 23:18:34.542112 16874 layer_factory.hpp:74] Creating layer label_data_1_split
I0106 23:18:34.542146 16874 net.cpp:84] Creating Layer label_data_1_split
I0106 23:18:34.542155 16874 net.cpp:380] label_data_1_split <- label
I0106 23:18:34.542173 16874 net.cpp:338] label_data_1_split -> label_data_1_split_0
I0106 23:18:34.542197 16874 net.cpp:338] label_data_1_split -> label_data_1_split_1
I0106 23:18:34.542217 16874 net.cpp:338] label_data_1_split -> label_data_1_split_2
I0106 23:18:34.542224 16874 net.cpp:113] Setting up label_data_1_split
I0106 23:18:34.542234 16874 net.cpp:120] Top shape: 80 (80)
I0106 23:18:34.542240 16874 net.cpp:120] Top shape: 80 (80)
I0106 23:18:34.542246 16874 net.cpp:120] Top shape: 80 (80)
I0106 23:18:34.542251 16874 layer_factory.hpp:74] Creating layer conv1/7x7_s2
I0106 23:18:34.542264 16874 net.cpp:84] Creating Layer conv1/7x7_s2
I0106 23:18:34.542269 16874 net.cpp:380] conv1/7x7_s2 <- data
I0106 23:18:34.542279 16874 net.cpp:338] conv1/7x7_s2 -> conv1/7x7_s2
I0106 23:18:34.542290 16874 net.cpp:113] Setting up conv1/7x7_s2
I0106 23:18:34.874107 16874 net.cpp:120] Top shape: 80 64 112 112 (64225280)
I0106 23:18:34.874228 16874 layer_factory.hpp:74] Creating layer conv1/relu_7x7
I0106 23:18:34.874279 16874 net.cpp:84] Creating Layer conv1/relu_7x7
I0106 23:18:34.874296 16874 net.cpp:380] conv1/relu_7x7 <- conv1/7x7_s2
I0106 23:18:34.874318 16874 net.cpp:327] conv1/relu_7x7 -> conv1/7x7_s2 (in-place)
I0106 23:18:34.874333 16874 net.cpp:113] Setting up conv1/relu_7x7
I0106 23:18:34.874783 16874 net.cpp:120] Top shape: 80 64 112 112 (64225280)
I0106 23:18:34.874795 16874 layer_factory.hpp:74] Creating layer pool1/3x3_s2
I0106 23:18:34.874833 16874 net.cpp:84] Creating Layer pool1/3x3_s2
I0106 23:18:34.874840 16874 net.cpp:380] pool1/3x3_s2 <- conv1/7x7_s2
I0106 23:18:34.874850 16874 net.cpp:338] pool1/3x3_s2 -> pool1/3x3_s2
I0106 23:18:34.874858 16874 net.cpp:113] Setting up pool1/3x3_s2
I0106 23:18:34.874936 16874 net.cpp:120] Top shape: 80 64 56 56 (16056320)
I0106 23:18:34.874971 16874 layer_factory.hpp:74] Creating layer pool1/norm1
I0106 23:18:34.874991 16874 net.cpp:84] Creating Layer pool1/norm1
I0106 23:18:34.874999 16874 net.cpp:380] pool1/norm1 <- pool1/3x3_s2
I0106 23:18:34.875005 16874 net.cpp:338] pool1/norm1 -> pool1/norm1
I0106 23:18:34.875015 16874 net.cpp:113] Setting up pool1/norm1
I0106 23:18:34.875025 16874 net.cpp:120] Top shape: 80 64 56 56 (16056320)
I0106 23:18:34.875036 16874 layer_factory.hpp:74] Creating layer conv2/3x3_reduce
I0106 23:18:34.875046 16874 net.cpp:84] Creating Layer conv2/3x3_reduce
I0106 23:18:34.875052 16874 net.cpp:380] conv2/3x3_reduce <- pool1/norm1
I0106 23:18:34.875066 16874 net.cpp:338] conv2/3x3_reduce -> conv2/3x3_reduce
I0106 23:18:34.875078 16874 net.cpp:113] Setting up conv2/3x3_reduce
I0106 23:18:34.875548 16874 net.cpp:120] Top shape: 80 64 56 56 (16056320)
I0106 23:18:34.875566 16874 layer_factory.hpp:74] Creating layer conv2/relu_3x3_reduce
I0106 23:18:34.875574 16874 net.cpp:84] Creating Layer conv2/relu_3x3_reduce
I0106 23:18:34.875581 16874 net.cpp:380] conv2/relu_3x3_reduce <- conv2/3x3_reduce
I0106 23:18:34.875588 16874 net.cpp:327] conv2/relu_3x3_reduce -> conv2/3x3_reduce (in-place)
I0106 23:18:34.875597 16874 net.cpp:113] Setting up conv2/relu_3x3_reduce
I0106 23:18:34.875658 16874 net.cpp:120] Top shape: 80 64 56 56 (16056320)
I0106 23:18:34.875663 16874 layer_factory.hpp:74] Creating layer conv2/3x3
I0106 23:18:34.875684 16874 net.cpp:84] Creating Layer conv2/3x3
I0106 23:18:34.875692 16874 net.cpp:380] conv2/3x3 <- conv2/3x3_reduce
I0106 23:18:34.875706 16874 net.cpp:338] conv2/3x3 -> conv2/3x3
I0106 23:18:34.875715 16874 net.cpp:113] Setting up conv2/3x3
I0106 23:18:34.877210 16874 net.cpp:120] Top shape: 80 192 56 56 (48168960)
I0106 23:18:34.877228 16874 layer_factory.hpp:74] Creating layer conv2/relu_3x3
I0106 23:18:34.877236 16874 net.cpp:84] Creating Layer conv2/relu_3x3
I0106 23:18:34.877241 16874 net.cpp:380] conv2/relu_3x3 <- conv2/3x3
I0106 23:18:34.877249 16874 net.cpp:327] conv2/relu_3x3 -> conv2/3x3 (in-place)
I0106 23:18:34.877257 16874 net.cpp:113] Setting up conv2/relu_3x3
I0106 23:18:34.877542 16874 net.cpp:120] Top shape: 80 192 56 56 (48168960)
I0106 23:18:34.877571 16874 layer_factory.hpp:74] Creating layer conv2/norm2
I0106 23:18:34.877581 16874 net.cpp:84] Creating Layer conv2/norm2
I0106 23:18:34.877598 16874 net.cpp:380] conv2/norm2 <- conv2/3x3
I0106 23:18:34.877622 16874 net.cpp:338] conv2/norm2 -> conv2/norm2
I0106 23:18:34.877632 16874 net.cpp:113] Setting up conv2/norm2
I0106 23:18:34.877641 16874 net.cpp:120] Top shape: 80 192 56 56 (48168960)
I0106 23:18:34.877646 16874 layer_factory.hpp:74] Creating layer pool2/3x3_s2
I0106 23:18:34.877653 16874 net.cpp:84] Creating Layer pool2/3x3_s2
I0106 23:18:34.877658 16874 net.cpp:380] pool2/3x3_s2 <- conv2/norm2
I0106 23:18:34.877665 16874 net.cpp:338] pool2/3x3_s2 -> pool2/3x3_s2
I0106 23:18:34.877672 16874 net.cpp:113] Setting up pool2/3x3_s2
I0106 23:18:34.877738 16874 net.cpp:120] Top shape: 80 192 28 28 (12042240)
I0106 23:18:34.877745 16874 layer_factory.hpp:74] Creating layer pool2/3x3_s2_pool2/3x3_s2_0_split
I0106 23:18:34.877753 16874 net.cpp:84] Creating Layer pool2/3x3_s2_pool2/3x3_s2_0_split
I0106 23:18:34.877758 16874 net.cpp:380] pool2/3x3_s2_pool2/3x3_s2_0_split <- pool2/3x3_s2
I0106 23:18:34.877764 16874 net.cpp:338] pool2/3x3_s2_pool2/3x3_s2_0_split -> pool2/3x3_s2_pool2/3x3_s2_0_split_0
I0106 23:18:34.877773 16874 net.cpp:338] pool2/3x3_s2_pool2/3x3_s2_0_split -> pool2/3x3_s2_pool2/3x3_s2_0_split_1
I0106 23:18:34.877780 16874 net.cpp:338] pool2/3x3_s2_pool2/3x3_s2_0_split -> pool2/3x3_s2_pool2/3x3_s2_0_split_2
I0106 23:18:34.877787 16874 net.cpp:338] pool2/3x3_s2_pool2/3x3_s2_0_split -> pool2/3x3_s2_pool2/3x3_s2_0_split_3
I0106 23:18:34.877794 16874 net.cpp:113] Setting up pool2/3x3_s2_pool2/3x3_s2_0_split
I0106 23:18:34.877802 16874 net.cpp:120] Top shape: 80 192 28 28 (12042240)
I0106 23:18:34.877809 16874 net.cpp:120] Top shape: 80 192 28 28 (12042240)
I0106 23:18:34.877813 16874 net.cpp:120] Top shape: 80 192 28 28 (12042240)
I0106 23:18:34.877820 16874 net.cpp:120] Top shape: 80 192 28 28 (12042240)
I0106 23:18:34.877825 16874 layer_factory.hpp:74] Creating layer inception_3a/1x1
I0106 23:18:34.877840 16874 net.cpp:84] Creating Layer inception_3a/1x1
I0106 23:18:34.877846 16874 net.cpp:380] inception_3a/1x1 <- pool2/3x3_s2_pool2/3x3_s2_0_split_0
I0106 23:18:34.877852 16874 net.cpp:338] inception_3a/1x1 -> inception_3a/1x1
I0106 23:18:34.877862 16874 net.cpp:113] Setting up inception_3a/1x1
I0106 23:18:34.878407 16874 net.cpp:120] Top shape: 80 64 28 28 (4014080)
I0106 23:18:34.878422 16874 layer_factory.hpp:74] Creating layer inception_3a/relu_1x1
I0106 23:18:34.878430 16874 net.cpp:84] Creating Layer inception_3a/relu_1x1
I0106 23:18:34.878435 16874 net.cpp:380] inception_3a/relu_1x1 <- inception_3a/1x1
I0106 23:18:34.878453 16874 net.cpp:327] inception_3a/relu_1x1 -> inception_3a/1x1 (in-place)
I0106 23:18:34.878463 16874 net.cpp:113] Setting up inception_3a/relu_1x1
I0106 23:18:34.878525 16874 net.cpp:120] Top shape: 80 64 28 28 (4014080)
I0106 23:18:34.878532 16874 layer_factory.hpp:74] Creating layer inception_3a/3x3_reduce
I0106 23:18:34.878540 16874 net.cpp:84] Creating Layer inception_3a/3x3_reduce
I0106 23:18:34.878545 16874 net.cpp:380] inception_3a/3x3_reduce <- pool2/3x3_s2_pool2/3x3_s2_0_split_1
I0106 23:18:34.878553 16874 net.cpp:338] inception_3a/3x3_reduce -> inception_3a/3x3_reduce
I0106 23:18:34.878561 16874 net.cpp:113] Setting up inception_3a/3x3_reduce
I0106 23:18:34.879124 16874 net.cpp:120] Top shape: 80 96 28 28 (6021120)
I0106 23:18:34.879142 16874 layer_factory.hpp:74] Creating layer inception_3a/relu_3x3_reduce
I0106 23:18:34.879160 16874 net.cpp:84] Creating Layer inception_3a/relu_3x3_reduce
I0106 23:18:34.879168 16874 net.cpp:380] inception_3a/relu_3x3_reduce <- inception_3a/3x3_reduce
I0106 23:18:34.879180 16874 net.cpp:327] inception_3a/relu_3x3_reduce -> inception_3a/3x3_reduce (in-place)
I0106 23:18:34.879189 16874 net.cpp:113] Setting up inception_3a/relu_3x3_reduce
I0106 23:18:34.879250 16874 net.cpp:120] Top shape: 80 96 28 28 (6021120)
I0106 23:18:34.879256 16874 layer_factory.hpp:74] Creating layer inception_3a/3x3
I0106 23:18:34.879379 16874 net.cpp:84] Creating Layer inception_3a/3x3
I0106 23:18:34.879384 16874 net.cpp:380] inception_3a/3x3 <- inception_3a/3x3_reduce
I0106 23:18:34.879400 16874 net.cpp:338] inception_3a/3x3 -> inception_3a/3x3
I0106 23:18:34.879415 16874 net.cpp:113] Setting up inception_3a/3x3
I0106 23:18:34.882314 16874 net.cpp:120] Top shape: 80 128 28 28 (8028160)
I0106 23:18:34.882331 16874 layer_factory.hpp:74] Creating layer inception_3a/relu_3x3
I0106 23:18:34.882339 16874 net.cpp:84] Creating Layer inception_3a/relu_3x3
I0106 23:18:34.882344 16874 net.cpp:380] inception_3a/relu_3x3 <- inception_3a/3x3
I0106 23:18:34.882351 16874 net.cpp:327] inception_3a/relu_3x3 -> inception_3a/3x3 (in-place)
I0106 23:18:34.882359 16874 net.cpp:113] Setting up inception_3a/relu_3x3
I0106 23:18:34.882752 16874 net.cpp:120] Top shape: 80 128 28 28 (8028160)
I0106 23:18:34.882764 16874 layer_factory.hpp:74] Creating layer inception_3a/5x5_reduce
I0106 23:18:34.882782 16874 net.cpp:84] Creating Layer inception_3a/5x5_reduce
I0106 23:18:34.882788 16874 net.cpp:380] inception_3a/5x5_reduce <- pool2/3x3_s2_pool2/3x3_s2_0_split_2
I0106 23:18:34.882797 16874 net.cpp:338] inception_3a/5x5_reduce -> inception_3a/5x5_reduce
I0106 23:18:34.882809 16874 net.cpp:113] Setting up inception_3a/5x5_reduce
I0106 23:18:34.883262 16874 net.cpp:120] Top shape: 80 16 28 28 (1003520)
I0106 23:18:34.883278 16874 layer_factory.hpp:74] Creating layer inception_3a/relu_5x5_reduce
I0106 23:18:34.883285 16874 net.cpp:84] Creating Layer inception_3a/relu_5x5_reduce
I0106 23:18:34.883291 16874 net.cpp:380] inception_3a/relu_5x5_reduce <- inception_3a/5x5_reduce
I0106 23:18:34.883298 16874 net.cpp:327] inception_3a/relu_5x5_reduce -> inception_3a/5x5_reduce (in-place)
I0106 23:18:34.883306 16874 net.cpp:113] Setting up inception_3a/relu_5x5_reduce
I0106 23:18:34.883368 16874 net.cpp:120] Top shape: 80 16 28 28 (1003520)
I0106 23:18:34.883373 16874 layer_factory.hpp:74] Creating layer inception_3a/5x5
I0106 23:18:34.883383 16874 net.cpp:84] Creating Layer inception_3a/5x5
I0106 23:18:34.883388 16874 net.cpp:380] inception_3a/5x5 <- inception_3a/5x5_reduce
I0106 23:18:34.883394 16874 net.cpp:338] inception_3a/5x5 -> inception_3a/5x5
I0106 23:18:34.883402 16874 net.cpp:113] Setting up inception_3a/5x5
I0106 23:18:34.883939 16874 net.cpp:120] Top shape: 80 32 28 28 (2007040)
I0106 23:18:34.883962 16874 layer_factory.hpp:74] Creating layer inception_3a/relu_5x5
I0106 23:18:34.883972 16874 net.cpp:84] Creating Layer inception_3a/relu_5x5
I0106 23:18:34.883977 16874 net.cpp:380] inception_3a/relu_5x5 <- inception_3a/5x5
I0106 23:18:34.883985 16874 net.cpp:327] inception_3a/relu_5x5 -> inception_3a/5x5 (in-place)
I0106 23:18:34.883992 16874 net.cpp:113] Setting up inception_3a/relu_5x5
I0106 23:18:34.884055 16874 net.cpp:120] Top shape: 80 32 28 28 (2007040)
I0106 23:18:34.884062 16874 layer_factory.hpp:74] Creating layer inception_3a/pool
I0106 23:18:34.884074 16874 layer_factory.cpp:56] CUDNN does not support padding or multiple tops. Using Caffe's own pooling layer.
I0106 23:18:34.884083 16874 net.cpp:84] Creating Layer inception_3a/pool
I0106 23:18:34.884088 16874 net.cpp:380] inception_3a/pool <- pool2/3x3_s2_pool2/3x3_s2_0_split_3
I0106 23:18:34.884095 16874 net.cpp:338] inception_3a/pool -> inception_3a/pool
I0106 23:18:34.884104 16874 net.cpp:113] Setting up inception_3a/pool
I0106 23:18:34.884114 16874 net.cpp:120] Top shape: 80 192 28 28 (12042240)
I0106 23:18:34.884119 16874 layer_factory.hpp:74] Creating layer inception_3a/pool_proj
I0106 23:18:34.884126 16874 net.cpp:84] Creating Layer inception_3a/pool_proj
I0106 23:18:34.884131 16874 net.cpp:380] inception_3a/pool_proj <- inception_3a/pool
I0106 23:18:34.884138 16874 net.cpp:338] inception_3a/pool_proj -> inception_3a/pool_proj
I0106 23:18:34.884145 16874 net.cpp:113] Setting up inception_3a/pool_proj
I0106 23:18:34.884623 16874 net.cpp:120] Top shape: 80 32 28 28 (2007040)
I0106 23:18:34.884640 16874 layer_factory.hpp:74] Creating layer inception_3a/relu_pool_proj
I0106 23:18:34.884649 16874 net.cpp:84] Creating Layer inception_3a/relu_pool_proj
I0106 23:18:34.884654 16874 net.cpp:380] inception_3a/relu_pool_proj <- inception_3a/pool_proj
I0106 23:18:34.884660 16874 net.cpp:327] inception_3a/relu_pool_proj -> inception_3a/pool_proj (in-place)
I0106 23:18:34.884680 16874 net.cpp:113] Setting up inception_3a/relu_pool_proj
I0106 23:18:34.884743 16874 net.cpp:120] Top shape: 80 32 28 28 (2007040)
I0106 23:18:34.884758 16874 layer_factory.hpp:74] Creating layer inception_3a/output
I0106 23:18:34.884773 16874 net.cpp:84] Creating Layer inception_3a/output
I0106 23:18:34.884779 16874 net.cpp:380] inception_3a/output <- inception_3a/1x1
I0106 23:18:34.884785 16874 net.cpp:380] inception_3a/output <- inception_3a/3x3
I0106 23:18:34.884791 16874 net.cpp:380] inception_3a/output <- inception_3a/5x5
I0106 23:18:34.884798 16874 net.cpp:380] inception_3a/output <- inception_3a/pool_proj
I0106 23:18:34.884804 16874 net.cpp:338] inception_3a/output -> inception_3a/output
I0106 23:18:34.884811 16874 net.cpp:113] Setting up inception_3a/output
I0106 23:18:34.884820 16874 net.cpp:120] Top shape: 80 256 28 28 (16056320)
I0106 23:18:34.884825 16874 layer_factory.hpp:74] Creating layer inception_3a/output_inception_3a/output_0_split
I0106 23:18:34.884831 16874 net.cpp:84] Creating Layer inception_3a/output_inception_3a/output_0_split
I0106 23:18:34.884836 16874 net.cpp:380] inception_3a/output_inception_3a/output_0_split <- inception_3a/output
I0106 23:18:34.884842 16874 net.cpp:338] inception_3a/output_inception_3a/output_0_split -> inception_3a/output_inception_3a/output_0_split_0
I0106 23:18:34.884850 16874 net.cpp:338] inception_3a/output_inception_3a/output_0_split -> inception_3a/output_inception_3a/output_0_split_1
I0106 23:18:34.884858 16874 net.cpp:338] inception_3a/output_inception_3a/output_0_split -> inception_3a/output_inception_3a/output_0_split_2
I0106 23:18:34.884865 16874 net.cpp:338] inception_3a/output_inception_3a/output_0_split -> inception_3a/output_inception_3a/output_0_split_3
I0106 23:18:34.884871 16874 net.cpp:113] Setting up inception_3a/output_inception_3a/output_0_split
I0106 23:18:34.884879 16874 net.cpp:120] Top shape: 80 256 28 28 (16056320)
I0106 23:18:34.884886 16874 net.cpp:120] Top shape: 80 256 28 28 (16056320)
I0106 23:18:34.884891 16874 net.cpp:120] Top shape: 80 256 28 28 (16056320)
I0106 23:18:34.884896 16874 net.cpp:120] Top shape: 80 256 28 28 (16056320)
I0106 23:18:34.884902 16874 layer_factory.hpp:74] Creating layer inception_3b/1x1
I0106 23:18:34.884908 16874 net.cpp:84] Creating Layer inception_3b/1x1
I0106 23:18:34.884913 16874 net.cpp:380] inception_3b/1x1 <- inception_3a/output_inception_3a/output_0_split_0
I0106 23:18:34.884922 16874 net.cpp:338] inception_3b/1x1 -> inception_3b/1x1
I0106 23:18:34.884930 16874 net.cpp:113] Setting up inception_3b/1x1
I0106 23:18:34.885716 16874 net.cpp:120] Top shape: 80 128 28 28 (8028160)
I0106 23:18:34.885733 16874 layer_factory.hpp:74] Creating layer inception_3b/relu_1x1
I0106 23:18:34.885740 16874 net.cpp:84] Creating Layer inception_3b/relu_1x1
I0106 23:18:34.885746 16874 net.cpp:380] inception_3b/relu_1x1 <- inception_3b/1x1
I0106 23:18:34.885752 16874 net.cpp:327] inception_3b/relu_1x1 -> inception_3b/1x1 (in-place)
I0106 23:18:34.885761 16874 net.cpp:113] Setting up inception_3b/relu_1x1
I0106 23:18:34.886003 16874 net.cpp:120] Top shape: 80 128 28 28 (8028160)
I0106 23:18:34.886014 16874 layer_factory.hpp:74] Creating layer inception_3b/3x3_reduce
I0106 23:18:34.886034 16874 net.cpp:84] Creating Layer inception_3b/3x3_reduce
I0106 23:18:34.886039 16874 net.cpp:380] inception_3b/3x3_reduce <- inception_3a/output_inception_3a/output_0_split_1
I0106 23:18:34.886049 16874 net.cpp:338] inception_3b/3x3_reduce -> inception_3b/3x3_reduce
I0106 23:18:34.886057 16874 net.cpp:113] Setting up inception_3b/3x3_reduce
I0106 23:18:34.886864 16874 net.cpp:120] Top shape: 80 128 28 28 (8028160)
I0106 23:18:34.886880 16874 layer_factory.hpp:74] Creating layer inception_3b/relu_3x3_reduce
I0106 23:18:34.886896 16874 net.cpp:84] Creating Layer inception_3b/relu_3x3_reduce
I0106 23:18:34.886904 16874 net.cpp:380] inception_3b/relu_3x3_reduce <- inception_3b/3x3_reduce
I0106 23:18:34.886912 16874 net.cpp:327] inception_3b/relu_3x3_reduce -> inception_3b/3x3_reduce (in-place)
I0106 23:18:34.886932 16874 net.cpp:113] Setting up inception_3b/relu_3x3_reduce
I0106 23:18:34.887037 16874 net.cpp:120] Top shape: 80 128 28 28 (8028160)
I0106 23:18:34.887044 16874 layer_factory.hpp:74] Creating layer inception_3b/3x3
I0106 23:18:34.887056 16874 net.cpp:84] Creating Layer inception_3b/3x3
I0106 23:18:34.887063 16874 net.cpp:380] inception_3b/3x3 <- inception_3b/3x3_reduce
I0106 23:18:34.887071 16874 net.cpp:338] inception_3b/3x3 -> inception_3b/3x3
I0106 23:18:34.887080 16874 net.cpp:113] Setting up inception_3b/3x3
I0106 23:18:34.890316 16874 net.cpp:120] Top shape: 80 192 28 28 (12042240)
I0106 23:18:34.890332 16874 layer_factory.hpp:74] Creating layer inception_3b/relu_3x3
I0106 23:18:34.890341 16874 net.cpp:84] Creating Layer inception_3b/relu_3x3
I0106 23:18:34.890347 16874 net.cpp:380] inception_3b/relu_3x3 <- inception_3b/3x3
I0106 23:18:34.890355 16874 net.cpp:327] inception_3b/relu_3x3 -> inception_3b/3x3 (in-place)
I0106 23:18:34.890363 16874 net.cpp:113] Setting up inception_3b/relu_3x3
I0106 23:18:34.890441 16874 net.cpp:120] Top shape: 80 192 28 28 (12042240)
I0106 23:18:34.890449 16874 layer_factory.hpp:74] Creating layer inception_3b/5x5_reduce
I0106 23:18:34.890466 16874 net.cpp:84] Creating Layer inception_3b/5x5_reduce
I0106 23:18:34.890475 16874 net.cpp:380] inception_3b/5x5_reduce <- inception_3a/output_inception_3a/output_0_split_2
I0106 23:18:34.890494 16874 net.cpp:338] inception_3b/5x5_reduce -> inception_3b/5x5_reduce
I0106 23:18:34.890504 16874 net.cpp:113] Setting up inception_3b/5x5_reduce
I0106 23:18:34.891055 16874 net.cpp:120] Top shape: 80 32 28 28 (2007040)
I0106 23:18:34.891079 16874 layer_factory.hpp:74] Creating layer inception_3b/relu_5x5_reduce
I0106 23:18:34.891089 16874 net.cpp:84] Creating Layer inception_3b/relu_5x5_reduce
I0106 23:18:34.891095 16874 net.cpp:380] inception_3b/relu_5x5_reduce <- inception_3b/5x5_reduce
I0106 23:18:34.891103 16874 net.cpp:327] inception_3b/relu_5x5_reduce -> inception_3b/5x5_reduce (in-place)
I0106 23:18:34.891110 16874 net.cpp:113] Setting up inception_3b/relu_5x5_reduce
I0106 23:18:34.891180 16874 net.cpp:120] Top shape: 80 32 28 28 (2007040)
I0106 23:18:34.891187 16874 layer_factory.hpp:74] Creating layer inception_3b/5x5
I0106 23:18:34.891196 16874 net.cpp:84] Creating Layer inception_3b/5x5
I0106 23:18:34.891202 16874 net.cpp:380] inception_3b/5x5 <- inception_3b/5x5_reduce
I0106 23:18:34.891211 16874 net.cpp:338] inception_3b/5x5 -> inception_3b/5x5
I0106 23:18:34.891222 16874 net.cpp:113] Setting up inception_3b/5x5
I0106 23:18:34.892626 16874 net.cpp:120] Top shape: 80 96 28 28 (6021120)
I0106 23:18:34.892642 16874 layer_factory.hpp:74] Creating layer inception_3b/relu_5x5
I0106 23:18:34.892658 16874 net.cpp:84] Creating Layer inception_3b/relu_5x5
I0106 23:18:34.892665 16874 net.cpp:380] inception_3b/relu_5x5 <- inception_3b/5x5
I0106 23:18:34.892675 16874 net.cpp:327] inception_3b/relu_5x5 -> inception_3b/5x5 (in-place)
I0106 23:18:34.892683 16874 net.cpp:113] Setting up inception_3b/relu_5x5
I0106 23:18:34.892925 16874 net.cpp:120] Top shape: 80 96 28 28 (6021120)
I0106 23:18:34.892936 16874 layer_factory.hpp:74] Creating layer inception_3b/pool
I0106 23:18:34.892942 16874 layer_factory.cpp:56] CUDNN does not support padding or multiple tops. Using Caffe's own pooling layer.
I0106 23:18:34.892949 16874 net.cpp:84] Creating Layer inception_3b/pool
I0106 23:18:34.892954 16874 net.cpp:380] inception_3b/pool <- inception_3a/output_inception_3a/output_0_split_3
I0106 23:18:34.892972 16874 net.cpp:338] inception_3b/pool -> inception_3b/pool
I0106 23:18:34.892982 16874 net.cpp:113] Setting up inception_3b/pool
I0106 23:18:34.892992 16874 net.cpp:120] Top shape: 80 256 28 28 (16056320)
I0106 23:18:34.892997 16874 layer_factory.hpp:74] Creating layer inception_3b/pool_proj
I0106 23:18:34.893004 16874 net.cpp:84] Creating Layer inception_3b/pool_proj
I0106 23:18:34.893009 16874 net.cpp:380] inception_3b/pool_proj <- inception_3b/pool
I0106 23:18:34.893018 16874 net.cpp:338] inception_3b/pool_proj -> inception_3b/pool_proj
I0106 23:18:34.893031 16874 net.cpp:113] Setting up inception_3b/pool_proj
I0106 23:18:34.893668 16874 net.cpp:120] Top shape: 80 64 28 28 (4014080)
I0106 23:18:34.893693 16874 layer_factory.hpp:74] Creating layer inception_3b/relu_pool_proj
I0106 23:18:34.893709 16874 net.cpp:84] Creating Layer inception_3b/relu_pool_proj
I0106 23:18:34.893715 16874 net.cpp:380] inception_3b/relu_pool_proj <- inception_3b/pool_proj
I0106 23:18:34.893723 16874 net.cpp:327] inception_3b/relu_pool_proj -> inception_3b/pool_proj (in-place)
I0106 23:18:34.893734 16874 net.cpp:113] Setting up inception_3b/relu_pool_proj
I0106 23:18:34.893826 16874 net.cpp:120] Top shape: 80 64 28 28 (4014080)
I0106 23:18:34.893833 16874 layer_factory.hpp:74] Creating layer inception_3b/output
I0106 23:18:34.893841 16874 net.cpp:84] Creating Layer inception_3b/output
I0106 23:18:34.893846 16874 net.cpp:380] inception_3b/output <- inception_3b/1x1
I0106 23:18:34.893852 16874 net.cpp:380] inception_3b/output <- inception_3b/3x3
I0106 23:18:34.893858 16874 net.cpp:380] inception_3b/output <- inception_3b/5x5
I0106 23:18:34.893863 16874 net.cpp:380] inception_3b/output <- inception_3b/pool_proj
I0106 23:18:34.893872 16874 net.cpp:338] inception_3b/output -> inception_3b/output
I0106 23:18:34.893879 16874 net.cpp:113] Setting up inception_3b/output
I0106 23:18:34.893888 16874 net.cpp:120] Top shape: 80 480 28 28 (30105600)
I0106 23:18:34.893893 16874 layer_factory.hpp:74] Creating layer pool3/3x3_s2
I0106 23:18:34.893899 16874 net.cpp:84] Creating Layer pool3/3x3_s2
I0106 23:18:34.893905 16874 net.cpp:380] pool3/3x3_s2 <- inception_3b/output
I0106 23:18:34.893913 16874 net.cpp:338] pool3/3x3_s2 -> pool3/3x3_s2
I0106 23:18:34.893920 16874 net.cpp:113] Setting up pool3/3x3_s2
I0106 23:18:34.893986 16874 net.cpp:120] Top shape: 80 480 14 14 (7526400)
I0106 23:18:34.893992 16874 layer_factory.hpp:74] Creating layer pool3/3x3_s2_pool3/3x3_s2_0_split
I0106 23:18:34.893998 16874 net.cpp:84] Creating Layer pool3/3x3_s2_pool3/3x3_s2_0_split
I0106 23:18:34.894004 16874 net.cpp:380] pool3/3x3_s2_pool3/3x3_s2_0_split <- pool3/3x3_s2
I0106 23:18:34.894011 16874 net.cpp:338] pool3/3x3_s2_pool3/3x3_s2_0_split -> pool3/3x3_s2_pool3/3x3_s2_0_split_0
I0106 23:18:34.894018 16874 net.cpp:338] pool3/3x3_s2_pool3/3x3_s2_0_split -> pool3/3x3_s2_pool3/3x3_s2_0_split_1
I0106 23:18:34.894026 16874 net.cpp:338] pool3/3x3_s2_pool3/3x3_s2_0_split -> pool3/3x3_s2_pool3/3x3_s2_0_split_2
I0106 23:18:34.894033 16874 net.cpp:338] pool3/3x3_s2_pool3/3x3_s2_0_split -> pool3/3x3_s2_pool3/3x3_s2_0_split_3
I0106 23:18:34.894039 16874 net.cpp:113] Setting up pool3/3x3_s2_pool3/3x3_s2_0_split
I0106 23:18:34.894047 16874 net.cpp:120] Top shape: 80 480 14 14 (7526400)
I0106 23:18:34.894053 16874 net.cpp:120] Top shape: 80 480 14 14 (7526400)
I0106 23:18:34.894058 16874 net.cpp:120] Top shape: 80 480 14 14 (7526400)
I0106 23:18:34.894064 16874 net.cpp:120] Top shape: 80 480 14 14 (7526400)
I0106 23:18:34.894076 16874 layer_factory.hpp:74] Creating layer inception_4a/1x1
I0106 23:18:34.894086 16874 net.cpp:84] Creating Layer inception_4a/1x1
I0106 23:18:34.894091 16874 net.cpp:380] inception_4a/1x1 <- pool3/3x3_s2_pool3/3x3_s2_0_split_0
I0106 23:18:34.894100 16874 net.cpp:338] inception_4a/1x1 -> inception_4a/1x1
I0106 23:18:34.894109 16874 net.cpp:113] Setting up inception_4a/1x1
I0106 23:18:34.895679 16874 net.cpp:120] Top shape: 80 192 14 14 (3010560)
I0106 23:18:34.895695 16874 layer_factory.hpp:74] Creating layer inception_4a/relu_1x1
I0106 23:18:34.895715 16874 net.cpp:84] Creating Layer inception_4a/relu_1x1
I0106 23:18:34.895721 16874 net.cpp:380] inception_4a/relu_1x1 <- inception_4a/1x1
I0106 23:18:34.895730 16874 net.cpp:327] inception_4a/relu_1x1 -> inception_4a/1x1 (in-place)
I0106 23:18:34.895738 16874 net.cpp:113] Setting up inception_4a/relu_1x1
I0106 23:18:34.895979 16874 net.cpp:120] Top shape: 80 192 14 14 (3010560)
I0106 23:18:34.895990 16874 layer_factory.hpp:74] Creating layer inception_4a/3x3_reduce
I0106 23:18:34.896000 16874 net.cpp:84] Creating Layer inception_4a/3x3_reduce
I0106 23:18:34.896011 16874 net.cpp:380] inception_4a/3x3_reduce <- pool3/3x3_s2_pool3/3x3_s2_0_split_1
I0106 23:18:34.896028 16874 net.cpp:338] inception_4a/3x3_reduce -> inception_4a/3x3_reduce
I0106 23:18:34.896037 16874 net.cpp:113] Setting up inception_4a/3x3_reduce
I0106 23:18:34.896968 16874 net.cpp:120] Top shape: 80 96 14 14 (1505280)
I0106 23:18:34.896988 16874 layer_factory.hpp:74] Creating layer inception_4a/relu_3x3_reduce
I0106 23:18:34.896996 16874 net.cpp:84] Creating Layer inception_4a/relu_3x3_reduce
I0106 23:18:34.897002 16874 net.cpp:380] inception_4a/relu_3x3_reduce <- inception_4a/3x3_reduce
I0106 23:18:34.897009 16874 net.cpp:327] inception_4a/relu_3x3_reduce -> inception_4a/3x3_reduce (in-place)
I0106 23:18:34.897017 16874 net.cpp:113] Setting up inception_4a/relu_3x3_reduce
I0106 23:18:34.897086 16874 net.cpp:120] Top shape: 80 96 14 14 (1505280)
I0106 23:18:34.897094 16874 layer_factory.hpp:74] Creating layer inception_4a/3x3
I0106 23:18:34.897110 16874 net.cpp:84] Creating Layer inception_4a/3x3
I0106 23:18:34.897116 16874 net.cpp:380] inception_4a/3x3 <- inception_4a/3x3_reduce
I0106 23:18:34.897125 16874 net.cpp:338] inception_4a/3x3 -> inception_4a/3x3
I0106 23:18:34.897135 16874 net.cpp:113] Setting up inception_4a/3x3
I0106 23:18:34.899606 16874 net.cpp:120] Top shape: 80 208 14 14 (3261440)
I0106 23:18:34.899624 16874 layer_factory.hpp:74] Creating layer inception_4a/relu_3x3
I0106 23:18:34.899631 16874 net.cpp:84] Creating Layer inception_4a/relu_3x3
I0106 23:18:34.899637 16874 net.cpp:380] inception_4a/relu_3x3 <- inception_4a/3x3
I0106 23:18:34.899646 16874 net.cpp:327] inception_4a/relu_3x3 -> inception_4a/3x3 (in-place)
I0106 23:18:34.899654 16874 net.cpp:113] Setting up inception_4a/relu_3x3
I0106 23:18:34.899720 16874 net.cpp:120] Top shape: 80 208 14 14 (3261440)
I0106 23:18:34.899729 16874 layer_factory.hpp:74] Creating layer inception_4a/5x5_reduce
I0106 23:18:34.899739 16874 net.cpp:84] Creating Layer inception_4a/5x5_reduce
I0106 23:18:34.899744 16874 net.cpp:380] inception_4a/5x5_reduce <- pool3/3x3_s2_pool3/3x3_s2_0_split_2
I0106 23:18:34.899751 16874 net.cpp:338] inception_4a/5x5_reduce -> inception_4a/5x5_reduce
I0106 23:18:34.899760 16874 net.cpp:113] Setting up inception_4a/5x5_reduce
I0106 23:18:34.900245 16874 net.cpp:120] Top shape: 80 16 14 14 (250880)
I0106 23:18:34.900260 16874 layer_factory.hpp:74] Creating layer inception_4a/relu_5x5_reduce
I0106 23:18:34.900267 16874 net.cpp:84] Creating Layer inception_4a/relu_5x5_reduce
I0106 23:18:34.900272 16874 net.cpp:380] inception_4a/relu_5x5_reduce <- inception_4a/5x5_reduce
I0106 23:18:34.900280 16874 net.cpp:327] inception_4a/relu_5x5_reduce -> inception_4a/5x5_reduce (in-place)
I0106 23:18:34.900287 16874 net.cpp:113] Setting up inception_4a/relu_5x5_reduce
I0106 23:18:34.900357 16874 net.cpp:120] Top shape: 80 16 14 14 (250880)
I0106 23:18:34.900362 16874 layer_factory.hpp:74] Creating layer inception_4a/5x5
I0106 23:18:34.900379 16874 net.cpp:84] Creating Layer inception_4a/5x5
I0106 23:18:34.900384 16874 net.cpp:380] inception_4a/5x5 <- inception_4a/5x5_reduce
I0106 23:18:34.900391 16874 net.cpp:338] inception_4a/5x5 -> inception_4a/5x5
I0106 23:18:34.900400 16874 net.cpp:113] Setting up inception_4a/5x5
I0106 23:18:34.901024 16874 net.cpp:120] Top shape: 80 48 14 14 (752640)
I0106 23:18:34.901046 16874 layer_factory.hpp:74] Creating layer inception_4a/relu_5x5
I0106 23:18:34.901056 16874 net.cpp:84] Creating Layer inception_4a/relu_5x5
I0106 23:18:34.901062 16874 net.cpp:380] inception_4a/relu_5x5 <- inception_4a/5x5
I0106 23:18:34.901068 16874 net.cpp:327] inception_4a/relu_5x5 -> inception_4a/5x5 (in-place)
I0106 23:18:34.901077 16874 net.cpp:113] Setting up inception_4a/relu_5x5
I0106 23:18:34.901314 16874 net.cpp:120] Top shape: 80 48 14 14 (752640)
I0106 23:18:34.901324 16874 layer_factory.hpp:74] Creating layer inception_4a/pool
I0106 23:18:34.901329 16874 layer_factory.cpp:56] CUDNN does not support padding or multiple tops. Using Caffe's own pooling layer.
I0106 23:18:34.901343 16874 net.cpp:84] Creating Layer inception_4a/pool
I0106 23:18:34.901357 16874 net.cpp:380] inception_4a/pool <- pool3/3x3_s2_pool3/3x3_s2_0_split_3
I0106 23:18:34.901365 16874 net.cpp:338] inception_4a/pool -> inception_4a/pool
I0106 23:18:34.901374 16874 net.cpp:113] Setting up inception_4a/pool
I0106 23:18:34.901383 16874 net.cpp:120] Top shape: 80 480 14 14 (7526400)
I0106 23:18:34.901388 16874 layer_factory.hpp:74] Creating layer inception_4a/pool_proj
I0106 23:18:34.901404 16874 net.cpp:84] Creating Layer inception_4a/pool_proj
I0106 23:18:34.901410 16874 net.cpp:380] inception_4a/pool_proj <- inception_4a/pool
I0106 23:18:34.901417 16874 net.cpp:338] inception_4a/pool_proj -> inception_4a/pool_proj
I0106 23:18:34.901425 16874 net.cpp:113] Setting up inception_4a/pool_proj
I0106 23:18:34.902195 16874 net.cpp:120] Top shape: 80 64 14 14 (1003520)
I0106 23:18:34.902211 16874 layer_factory.hpp:74] Creating layer inception_4a/relu_pool_proj
I0106 23:18:34.902218 16874 net.cpp:84] Creating Layer inception_4a/relu_pool_proj
I0106 23:18:34.902225 16874 net.cpp:380] inception_4a/relu_pool_proj <- inception_4a/pool_proj
I0106 23:18:34.902233 16874 net.cpp:327] inception_4a/relu_pool_proj -> inception_4a/pool_proj (in-place)
I0106 23:18:34.902241 16874 net.cpp:113] Setting up inception_4a/relu_pool_proj
I0106 23:18:34.902318 16874 net.cpp:120] Top shape: 80 64 14 14 (1003520)
I0106 23:18:34.902325 16874 layer_factory.hpp:74] Creating layer inception_4a/output
I0106 23:18:34.902331 16874 net.cpp:84] Creating Layer inception_4a/output
I0106 23:18:34.902336 16874 net.cpp:380] inception_4a/output <- inception_4a/1x1
I0106 23:18:34.902343 16874 net.cpp:380] inception_4a/output <- inception_4a/3x3
I0106 23:18:34.902348 16874 net.cpp:380] inception_4a/output <- inception_4a/5x5
I0106 23:18:34.902354 16874 net.cpp:380] inception_4a/output <- inception_4a/pool_proj
I0106 23:18:34.902360 16874 net.cpp:338] inception_4a/output -> inception_4a/output
I0106 23:18:34.902367 16874 net.cpp:113] Setting up inception_4a/output
I0106 23:18:34.902375 16874 net.cpp:120] Top shape: 80 512 14 14 (8028160)
I0106 23:18:34.902387 16874 layer_factory.hpp:74] Creating layer inception_4a/output_inception_4a/output_0_split
I0106 23:18:34.902396 16874 net.cpp:84] Creating Layer inception_4a/output_inception_4a/output_0_split
I0106 23:18:34.902401 16874 net.cpp:380] inception_4a/output_inception_4a/output_0_split <- inception_4a/output
I0106 23:18:34.902410 16874 net.cpp:338] inception_4a/output_inception_4a/output_0_split -> inception_4a/output_inception_4a/output_0_split_0
I0106 23:18:34.902420 16874 net.cpp:338] inception_4a/output_inception_4a/output_0_split -> inception_4a/output_inception_4a/output_0_split_1
I0106 23:18:34.902427 16874 net.cpp:338] inception_4a/output_inception_4a/output_0_split -> inception_4a/output_inception_4a/output_0_split_2
I0106 23:18:34.902434 16874 net.cpp:338] inception_4a/output_inception_4a/output_0_split -> inception_4a/output_inception_4a/output_0_split_3
I0106 23:18:34.902441 16874 net.cpp:338] inception_4a/output_inception_4a/output_0_split -> inception_4a/output_inception_4a/output_0_split_4
I0106 23:18:34.902451 16874 net.cpp:113] Setting up inception_4a/output_inception_4a/output_0_split
I0106 23:18:34.902458 16874 net.cpp:120] Top shape: 80 512 14 14 (8028160)
I0106 23:18:34.902464 16874 net.cpp:120] Top shape: 80 512 14 14 (8028160)
I0106 23:18:34.902470 16874 net.cpp:120] Top shape: 80 512 14 14 (8028160)
I0106 23:18:34.902475 16874 net.cpp:120] Top shape: 80 512 14 14 (8028160)
I0106 23:18:34.902482 16874 net.cpp:120] Top shape: 80 512 14 14 (8028160)
I0106 23:18:34.902487 16874 layer_factory.hpp:74] Creating layer loss1/ave_pool
I0106 23:18:34.902493 16874 net.cpp:84] Creating Layer loss1/ave_pool
I0106 23:18:34.902498 16874 net.cpp:380] loss1/ave_pool <- inception_4a/output_inception_4a/output_0_split_0
I0106 23:18:34.902504 16874 net.cpp:338] loss1/ave_pool -> loss1/ave_pool
I0106 23:18:34.902511 16874 net.cpp:113] Setting up loss1/ave_pool
I0106 23:18:34.902581 16874 net.cpp:120] Top shape: 80 512 4 4 (655360)
I0106 23:18:34.902593 16874 layer_factory.hpp:74] Creating layer loss1/conv
I0106 23:18:34.902617 16874 net.cpp:84] Creating Layer loss1/conv
I0106 23:18:34.902623 16874 net.cpp:380] loss1/conv <- loss1/ave_pool
I0106 23:18:34.902631 16874 net.cpp:338] loss1/conv -> loss1/conv
I0106 23:18:34.902640 16874 net.cpp:113] Setting up loss1/conv
I0106 23:18:34.903794 16874 net.cpp:120] Top shape: 80 128 4 4 (163840)
I0106 23:18:34.903808 16874 layer_factory.hpp:74] Creating layer loss1/relu_conv
I0106 23:18:34.903815 16874 net.cpp:84] Creating Layer loss1/relu_conv
I0106 23:18:34.903821 16874 net.cpp:380] loss1/relu_conv <- loss1/conv
I0106 23:18:34.903828 16874 net.cpp:327] loss1/relu_conv -> loss1/conv (in-place)
I0106 23:18:34.903836 16874 net.cpp:113] Setting up loss1/relu_conv
I0106 23:18:34.903903 16874 net.cpp:120] Top shape: 80 128 4 4 (163840)
I0106 23:18:34.903908 16874 layer_factory.hpp:74] Creating layer loss1/fc
I0106 23:18:34.903923 16874 net.cpp:84] Creating Layer loss1/fc
I0106 23:18:34.903928 16874 net.cpp:380] loss1/fc <- loss1/conv
I0106 23:18:34.903937 16874 net.cpp:338] loss1/fc -> loss1/fc
I0106 23:18:34.903949 16874 net.cpp:113] Setting up loss1/fc
I0106 23:18:34.927719 16874 net.cpp:120] Top shape: 80 1024 (81920)
I0106 23:18:34.927737 16874 layer_factory.hpp:74] Creating layer loss1/relu_fc
I0106 23:18:34.927744 16874 net.cpp:84] Creating Layer loss1/relu_fc
I0106 23:18:34.927750 16874 net.cpp:380] loss1/relu_fc <- loss1/fc
I0106 23:18:34.927770 16874 net.cpp:327] loss1/relu_fc -> loss1/fc (in-place)
I0106 23:18:34.927778 16874 net.cpp:113] Setting up loss1/relu_fc
I0106 23:18:34.929127 16874 net.cpp:120] Top shape: 80 1024 (81920)
I0106 23:18:34.929139 16874 layer_factory.hpp:74] Creating layer loss1/drop_fc
I0106 23:18:34.929162 16874 net.cpp:84] Creating Layer loss1/drop_fc
I0106 23:18:34.929168 16874 net.cpp:380] loss1/drop_fc <- loss1/fc
I0106 23:18:34.929177 16874 net.cpp:327] loss1/drop_fc -> loss1/fc (in-place)
I0106 23:18:34.929185 16874 net.cpp:113] Setting up loss1/drop_fc
I0106 23:18:34.929195 16874 net.cpp:120] Top shape: 80 1024 (81920)
I0106 23:18:34.929200 16874 layer_factory.hpp:74] Creating layer loss1/classifier_kaggle
I0106 23:18:34.929208 16874 net.cpp:84] Creating Layer loss1/classifier_kaggle
I0106 23:18:34.929213 16874 net.cpp:380] loss1/classifier_kaggle <- loss1/fc
I0106 23:18:34.929219 16874 net.cpp:338] loss1/classifier_kaggle -> loss1/classifier_kaggle
I0106 23:18:34.929229 16874 net.cpp:113] Setting up loss1/classifier_kaggle
I0106 23:18:34.934487 16874 net.cpp:120] Top shape: 80 447 (35760)
I0106 23:18:34.934500 16874 layer_factory.hpp:74] Creating layer loss1/loss
I0106 23:18:34.934520 16874 net.cpp:84] Creating Layer loss1/loss
I0106 23:18:34.934526 16874 net.cpp:380] loss1/loss <- loss1/classifier_kaggle
I0106 23:18:34.934532 16874 net.cpp:380] loss1/loss <- label_data_1_split_0
I0106 23:18:34.934540 16874 net.cpp:338] loss1/loss -> loss1/loss1
I0106 23:18:34.934548 16874 net.cpp:113] Setting up loss1/loss
I0106 23:18:34.934556 16874 layer_factory.hpp:74] Creating layer loss1/loss
I0106 23:18:34.934731 16874 net.cpp:120] Top shape: (1)
I0106 23:18:34.934739 16874 net.cpp:122]     with loss weight 0.3
I0106 23:18:34.934757 16874 layer_factory.hpp:74] Creating layer inception_4b/1x1
I0106 23:18:34.934774 16874 net.cpp:84] Creating Layer inception_4b/1x1
I0106 23:18:34.934780 16874 net.cpp:380] inception_4b/1x1 <- inception_4a/output_inception_4a/output_0_split_1
I0106 23:18:34.934790 16874 net.cpp:338] inception_4b/1x1 -> inception_4b/1x1
I0106 23:18:34.934798 16874 net.cpp:113] Setting up inception_4b/1x1
I0106 23:18:34.936164 16874 net.cpp:120] Top shape: 80 160 14 14 (2508800)
I0106 23:18:34.936180 16874 layer_factory.hpp:74] Creating layer inception_4b/relu_1x1
I0106 23:18:34.936195 16874 net.cpp:84] Creating Layer inception_4b/relu_1x1
I0106 23:18:34.936202 16874 net.cpp:380] inception_4b/relu_1x1 <- inception_4b/1x1
I0106 23:18:34.936209 16874 net.cpp:327] inception_4b/relu_1x1 -> inception_4b/1x1 (in-place)
I0106 23:18:34.936216 16874 net.cpp:113] Setting up inception_4b/relu_1x1
I0106 23:18:34.936293 16874 net.cpp:120] Top shape: 80 160 14 14 (2508800)
I0106 23:18:34.936308 16874 layer_factory.hpp:74] Creating layer inception_4b/3x3_reduce
I0106 23:18:34.936318 16874 net.cpp:84] Creating Layer inception_4b/3x3_reduce
I0106 23:18:34.936323 16874 net.cpp:380] inception_4b/3x3_reduce <- inception_4a/output_inception_4a/output_0_split_2
I0106 23:18:34.936331 16874 net.cpp:338] inception_4b/3x3_reduce -> inception_4b/3x3_reduce
I0106 23:18:34.936341 16874 net.cpp:113] Setting up inception_4b/3x3_reduce
I0106 23:18:34.937409 16874 net.cpp:120] Top shape: 80 112 14 14 (1756160)
I0106 23:18:34.937424 16874 layer_factory.hpp:74] Creating layer inception_4b/relu_3x3_reduce
I0106 23:18:34.937433 16874 net.cpp:84] Creating Layer inception_4b/relu_3x3_reduce
I0106 23:18:34.937438 16874 net.cpp:380] inception_4b/relu_3x3_reduce <- inception_4b/3x3_reduce
I0106 23:18:34.937453 16874 net.cpp:327] inception_4b/relu_3x3_reduce -> inception_4b/3x3_reduce (in-place)
I0106 23:18:34.937463 16874 net.cpp:113] Setting up inception_4b/relu_3x3_reduce
I0106 23:18:34.937533 16874 net.cpp:120] Top shape: 80 112 14 14 (1756160)
I0106 23:18:34.937546 16874 layer_factory.hpp:74] Creating layer inception_4b/3x3
I0106 23:18:34.937564 16874 net.cpp:84] Creating Layer inception_4b/3x3
I0106 23:18:34.937571 16874 net.cpp:380] inception_4b/3x3 <- inception_4b/3x3_reduce
I0106 23:18:34.937577 16874 net.cpp:338] inception_4b/3x3 -> inception_4b/3x3
I0106 23:18:34.937587 16874 net.cpp:113] Setting up inception_4b/3x3
I0106 23:18:34.940570 16874 net.cpp:120] Top shape: 80 224 14 14 (3512320)
I0106 23:18:34.940585 16874 layer_factory.hpp:74] Creating layer inception_4b/relu_3x3
I0106 23:18:34.940594 16874 net.cpp:84] Creating Layer inception_4b/relu_3x3
I0106 23:18:34.940600 16874 net.cpp:380] inception_4b/relu_3x3 <- inception_4b/3x3
I0106 23:18:34.940608 16874 net.cpp:327] inception_4b/relu_3x3 -> inception_4b/3x3 (in-place)
I0106 23:18:34.940615 16874 net.cpp:113] Setting up inception_4b/relu_3x3
I0106 23:18:34.940856 16874 net.cpp:120] Top shape: 80 224 14 14 (3512320)
I0106 23:18:34.940866 16874 layer_factory.hpp:74] Creating layer inception_4b/5x5_reduce
I0106 23:18:34.940876 16874 net.cpp:84] Creating Layer inception_4b/5x5_reduce
I0106 23:18:34.940882 16874 net.cpp:380] inception_4b/5x5_reduce <- inception_4a/output_inception_4a/output_0_split_3
I0106 23:18:34.940892 16874 net.cpp:338] inception_4b/5x5_reduce -> inception_4b/5x5_reduce
I0106 23:18:34.940901 16874 net.cpp:113] Setting up inception_4b/5x5_reduce
I0106 23:18:34.941465 16874 net.cpp:120] Top shape: 80 24 14 14 (376320)
I0106 23:18:34.941481 16874 layer_factory.hpp:74] Creating layer inception_4b/relu_5x5_reduce
I0106 23:18:34.941498 16874 net.cpp:84] Creating Layer inception_4b/relu_5x5_reduce
I0106 23:18:34.941505 16874 net.cpp:380] inception_4b/relu_5x5_reduce <- inception_4b/5x5_reduce
I0106 23:18:34.941514 16874 net.cpp:327] inception_4b/relu_5x5_reduce -> inception_4b/5x5_reduce (in-place)
I0106 23:18:34.941524 16874 net.cpp:113] Setting up inception_4b/relu_5x5_reduce
I0106 23:18:34.941596 16874 net.cpp:120] Top shape: 80 24 14 14 (376320)
I0106 23:18:34.941603 16874 layer_factory.hpp:74] Creating layer inception_4b/5x5
I0106 23:18:34.941617 16874 net.cpp:84] Creating Layer inception_4b/5x5
I0106 23:18:34.941623 16874 net.cpp:380] inception_4b/5x5 <- inception_4b/5x5_reduce
I0106 23:18:34.941632 16874 net.cpp:338] inception_4b/5x5 -> inception_4b/5x5
I0106 23:18:34.941640 16874 net.cpp:113] Setting up inception_4b/5x5
I0106 23:18:34.942487 16874 net.cpp:120] Top shape: 80 64 14 14 (1003520)
I0106 23:18:34.942502 16874 layer_factory.hpp:74] Creating layer inception_4b/relu_5x5
I0106 23:18:34.942510 16874 net.cpp:84] Creating Layer inception_4b/relu_5x5
I0106 23:18:34.942517 16874 net.cpp:380] inception_4b/relu_5x5 <- inception_4b/5x5
I0106 23:18:34.942523 16874 net.cpp:327] inception_4b/relu_5x5 -> inception_4b/5x5 (in-place)
I0106 23:18:34.942531 16874 net.cpp:113] Setting up inception_4b/relu_5x5
I0106 23:18:34.942597 16874 net.cpp:120] Top shape: 80 64 14 14 (1003520)
I0106 23:18:34.942610 16874 layer_factory.hpp:74] Creating layer inception_4b/pool
I0106 23:18:34.942621 16874 layer_factory.cpp:56] CUDNN does not support padding or multiple tops. Using Caffe's own pooling layer.
I0106 23:18:34.942631 16874 net.cpp:84] Creating Layer inception_4b/pool
I0106 23:18:34.942636 16874 net.cpp:380] inception_4b/pool <- inception_4a/output_inception_4a/output_0_split_4
I0106 23:18:34.942642 16874 net.cpp:338] inception_4b/pool -> inception_4b/pool
I0106 23:18:34.942658 16874 net.cpp:113] Setting up inception_4b/pool
I0106 23:18:34.942668 16874 net.cpp:120] Top shape: 80 512 14 14 (8028160)
I0106 23:18:34.942673 16874 layer_factory.hpp:74] Creating layer inception_4b/pool_proj
I0106 23:18:34.942689 16874 net.cpp:84] Creating Layer inception_4b/pool_proj
I0106 23:18:34.942695 16874 net.cpp:380] inception_4b/pool_proj <- inception_4b/pool
I0106 23:18:34.942703 16874 net.cpp:338] inception_4b/pool_proj -> inception_4b/pool_proj
I0106 23:18:34.942710 16874 net.cpp:113] Setting up inception_4b/pool_proj
I0106 23:18:34.943526 16874 net.cpp:120] Top shape: 80 64 14 14 (1003520)
I0106 23:18:34.943542 16874 layer_factory.hpp:74] Creating layer inception_4b/relu_pool_proj
I0106 23:18:34.943550 16874 net.cpp:84] Creating Layer inception_4b/relu_pool_proj
I0106 23:18:34.943555 16874 net.cpp:380] inception_4b/relu_pool_proj <- inception_4b/pool_proj
I0106 23:18:34.943564 16874 net.cpp:327] inception_4b/relu_pool_proj -> inception_4b/pool_proj (in-place)
I0106 23:18:34.943572 16874 net.cpp:113] Setting up inception_4b/relu_pool_proj
I0106 23:18:34.943816 16874 net.cpp:120] Top shape: 80 64 14 14 (1003520)
I0106 23:18:34.943837 16874 layer_factory.hpp:74] Creating layer inception_4b/output
I0106 23:18:34.943847 16874 net.cpp:84] Creating Layer inception_4b/output
I0106 23:18:34.943852 16874 net.cpp:380] inception_4b/output <- inception_4b/1x1
I0106 23:18:34.943866 16874 net.cpp:380] inception_4b/output <- inception_4b/3x3
I0106 23:18:34.943872 16874 net.cpp:380] inception_4b/output <- inception_4b/5x5
I0106 23:18:34.943878 16874 net.cpp:380] inception_4b/output <- inception_4b/pool_proj
I0106 23:18:34.943884 16874 net.cpp:338] inception_4b/output -> inception_4b/output
I0106 23:18:34.943893 16874 net.cpp:113] Setting up inception_4b/output
I0106 23:18:34.943902 16874 net.cpp:120] Top shape: 80 512 14 14 (8028160)
I0106 23:18:34.943907 16874 layer_factory.hpp:74] Creating layer inception_4b/output_inception_4b/output_0_split
I0106 23:18:34.943913 16874 net.cpp:84] Creating Layer inception_4b/output_inception_4b/output_0_split
I0106 23:18:34.943918 16874 net.cpp:380] inception_4b/output_inception_4b/output_0_split <- inception_4b/output
I0106 23:18:34.943925 16874 net.cpp:338] inception_4b/output_inception_4b/output_0_split -> inception_4b/output_inception_4b/output_0_split_0
I0106 23:18:34.943934 16874 net.cpp:338] inception_4b/output_inception_4b/output_0_split -> inception_4b/output_inception_4b/output_0_split_1
I0106 23:18:34.943943 16874 net.cpp:338] inception_4b/output_inception_4b/output_0_split -> inception_4b/output_inception_4b/output_0_split_2
I0106 23:18:34.943950 16874 net.cpp:338] inception_4b/output_inception_4b/output_0_split -> inception_4b/output_inception_4b/output_0_split_3
I0106 23:18:34.943958 16874 net.cpp:113] Setting up inception_4b/output_inception_4b/output_0_split
I0106 23:18:34.943965 16874 net.cpp:120] Top shape: 80 512 14 14 (8028160)
I0106 23:18:34.943971 16874 net.cpp:120] Top shape: 80 512 14 14 (8028160)
I0106 23:18:34.943976 16874 net.cpp:120] Top shape: 80 512 14 14 (8028160)
I0106 23:18:34.943982 16874 net.cpp:120] Top shape: 80 512 14 14 (8028160)
I0106 23:18:34.943986 16874 layer_factory.hpp:74] Creating layer inception_4c/1x1
I0106 23:18:34.944002 16874 net.cpp:84] Creating Layer inception_4c/1x1
I0106 23:18:34.944008 16874 net.cpp:380] inception_4c/1x1 <- inception_4b/output_inception_4b/output_0_split_0
I0106 23:18:34.944015 16874 net.cpp:338] inception_4c/1x1 -> inception_4c/1x1
I0106 23:18:34.944023 16874 net.cpp:113] Setting up inception_4c/1x1
I0106 23:18:34.945193 16874 net.cpp:120] Top shape: 80 128 14 14 (2007040)
I0106 23:18:34.945215 16874 layer_factory.hpp:74] Creating layer inception_4c/relu_1x1
I0106 23:18:34.945225 16874 net.cpp:84] Creating Layer inception_4c/relu_1x1
I0106 23:18:34.945230 16874 net.cpp:380] inception_4c/relu_1x1 <- inception_4c/1x1
I0106 23:18:34.945238 16874 net.cpp:327] inception_4c/relu_1x1 -> inception_4c/1x1 (in-place)
I0106 23:18:34.945246 16874 net.cpp:113] Setting up inception_4c/relu_1x1
I0106 23:18:34.945315 16874 net.cpp:120] Top shape: 80 128 14 14 (2007040)
I0106 23:18:34.945324 16874 layer_factory.hpp:74] Creating layer inception_4c/3x3_reduce
I0106 23:18:34.945343 16874 net.cpp:84] Creating Layer inception_4c/3x3_reduce
I0106 23:18:34.945349 16874 net.cpp:380] inception_4c/3x3_reduce <- inception_4b/output_inception_4b/output_0_split_1
I0106 23:18:34.945358 16874 net.cpp:338] inception_4c/3x3_reduce -> inception_4c/3x3_reduce
I0106 23:18:34.945365 16874 net.cpp:113] Setting up inception_4c/3x3_reduce
I0106 23:18:34.946534 16874 net.cpp:120] Top shape: 80 128 14 14 (2007040)
I0106 23:18:34.946552 16874 layer_factory.hpp:74] Creating layer inception_4c/relu_3x3_reduce
I0106 23:18:34.946560 16874 net.cpp:84] Creating Layer inception_4c/relu_3x3_reduce
I0106 23:18:34.946566 16874 net.cpp:380] inception_4c/relu_3x3_reduce <- inception_4c/3x3_reduce
I0106 23:18:34.946573 16874 net.cpp:327] inception_4c/relu_3x3_reduce -> inception_4c/3x3_reduce (in-place)
I0106 23:18:34.946581 16874 net.cpp:113] Setting up inception_4c/relu_3x3_reduce
I0106 23:18:34.946647 16874 net.cpp:120] Top shape: 80 128 14 14 (2007040)
I0106 23:18:34.946655 16874 layer_factory.hpp:74] Creating layer inception_4c/3x3
I0106 23:18:34.946672 16874 net.cpp:84] Creating Layer inception_4c/3x3
I0106 23:18:34.946679 16874 net.cpp:380] inception_4c/3x3 <- inception_4c/3x3_reduce
I0106 23:18:34.946686 16874 net.cpp:338] inception_4c/3x3 -> inception_4c/3x3
I0106 23:18:34.946696 16874 net.cpp:113] Setting up inception_4c/3x3
I0106 23:18:34.950484 16874 net.cpp:120] Top shape: 80 256 14 14 (4014080)
I0106 23:18:34.950510 16874 layer_factory.hpp:74] Creating layer inception_4c/relu_3x3
I0106 23:18:34.950518 16874 net.cpp:84] Creating Layer inception_4c/relu_3x3
I0106 23:18:34.950525 16874 net.cpp:380] inception_4c/relu_3x3 <- inception_4c/3x3
I0106 23:18:34.950533 16874 net.cpp:327] inception_4c/relu_3x3 -> inception_4c/3x3 (in-place)
I0106 23:18:34.950542 16874 net.cpp:113] Setting up inception_4c/relu_3x3
I0106 23:18:34.950611 16874 net.cpp:120] Top shape: 80 256 14 14 (4014080)
I0106 23:18:34.950618 16874 layer_factory.hpp:74] Creating layer inception_4c/5x5_reduce
I0106 23:18:34.950628 16874 net.cpp:84] Creating Layer inception_4c/5x5_reduce
I0106 23:18:34.950634 16874 net.cpp:380] inception_4c/5x5_reduce <- inception_4b/output_inception_4b/output_0_split_2
I0106 23:18:34.950641 16874 net.cpp:338] inception_4c/5x5_reduce -> inception_4c/5x5_reduce
I0106 23:18:34.950651 16874 net.cpp:113] Setting up inception_4c/5x5_reduce
I0106 23:18:34.951191 16874 net.cpp:120] Top shape: 80 24 14 14 (376320)
I0106 23:18:34.951212 16874 layer_factory.hpp:74] Creating layer inception_4c/relu_5x5_reduce
I0106 23:18:34.951225 16874 net.cpp:84] Creating Layer inception_4c/relu_5x5_reduce
I0106 23:18:34.951231 16874 net.cpp:380] inception_4c/relu_5x5_reduce <- inception_4c/5x5_reduce
I0106 23:18:34.951241 16874 net.cpp:327] inception_4c/relu_5x5_reduce -> inception_4c/5x5_reduce (in-place)
I0106 23:18:34.951248 16874 net.cpp:113] Setting up inception_4c/relu_5x5_reduce
I0106 23:18:34.951496 16874 net.cpp:120] Top shape: 80 24 14 14 (376320)
I0106 23:18:34.951508 16874 layer_factory.hpp:74] Creating layer inception_4c/5x5
I0106 23:18:34.951516 16874 net.cpp:84] Creating Layer inception_4c/5x5
I0106 23:18:34.951522 16874 net.cpp:380] inception_4c/5x5 <- inception_4c/5x5_reduce
I0106 23:18:34.951531 16874 net.cpp:338] inception_4c/5x5 -> inception_4c/5x5
I0106 23:18:34.951540 16874 net.cpp:113] Setting up inception_4c/5x5
I0106 23:18:34.952383 16874 net.cpp:120] Top shape: 80 64 14 14 (1003520)
I0106 23:18:34.952402 16874 layer_factory.hpp:74] Creating layer inception_4c/relu_5x5
I0106 23:18:34.952416 16874 net.cpp:84] Creating Layer inception_4c/relu_5x5
I0106 23:18:34.952422 16874 net.cpp:380] inception_4c/relu_5x5 <- inception_4c/5x5
I0106 23:18:34.952430 16874 net.cpp:327] inception_4c/relu_5x5 -> inception_4c/5x5 (in-place)
I0106 23:18:34.952437 16874 net.cpp:113] Setting up inception_4c/relu_5x5
I0106 23:18:34.952507 16874 net.cpp:120] Top shape: 80 64 14 14 (1003520)
I0106 23:18:34.952514 16874 layer_factory.hpp:74] Creating layer inception_4c/pool
I0106 23:18:34.952520 16874 layer_factory.cpp:56] CUDNN does not support padding or multiple tops. Using Caffe's own pooling layer.
I0106 23:18:34.952527 16874 net.cpp:84] Creating Layer inception_4c/pool
I0106 23:18:34.952533 16874 net.cpp:380] inception_4c/pool <- inception_4b/output_inception_4b/output_0_split_3
I0106 23:18:34.952546 16874 net.cpp:338] inception_4c/pool -> inception_4c/pool
I0106 23:18:34.952555 16874 net.cpp:113] Setting up inception_4c/pool
I0106 23:18:34.952564 16874 net.cpp:120] Top shape: 80 512 14 14 (8028160)
I0106 23:18:34.952574 16874 layer_factory.hpp:74] Creating layer inception_4c/pool_proj
I0106 23:18:34.952585 16874 net.cpp:84] Creating Layer inception_4c/pool_proj
I0106 23:18:34.952591 16874 net.cpp:380] inception_4c/pool_proj <- inception_4c/pool
I0106 23:18:34.952599 16874 net.cpp:338] inception_4c/pool_proj -> inception_4c/pool_proj
I0106 23:18:34.952606 16874 net.cpp:113] Setting up inception_4c/pool_proj
I0106 23:18:34.953384 16874 net.cpp:120] Top shape: 80 64 14 14 (1003520)
I0106 23:18:34.953400 16874 layer_factory.hpp:74] Creating layer inception_4c/relu_pool_proj
I0106 23:18:34.953409 16874 net.cpp:84] Creating Layer inception_4c/relu_pool_proj
I0106 23:18:34.953415 16874 net.cpp:380] inception_4c/relu_pool_proj <- inception_4c/pool_proj
I0106 23:18:34.953423 16874 net.cpp:327] inception_4c/relu_pool_proj -> inception_4c/pool_proj (in-place)
I0106 23:18:34.953430 16874 net.cpp:113] Setting up inception_4c/relu_pool_proj
I0106 23:18:34.953508 16874 net.cpp:120] Top shape: 80 64 14 14 (1003520)
I0106 23:18:34.953516 16874 layer_factory.hpp:74] Creating layer inception_4c/output
I0106 23:18:34.953523 16874 net.cpp:84] Creating Layer inception_4c/output
I0106 23:18:34.953528 16874 net.cpp:380] inception_4c/output <- inception_4c/1x1
I0106 23:18:34.953536 16874 net.cpp:380] inception_4c/output <- inception_4c/3x3
I0106 23:18:34.953541 16874 net.cpp:380] inception_4c/output <- inception_4c/5x5
I0106 23:18:34.953547 16874 net.cpp:380] inception_4c/output <- inception_4c/pool_proj
I0106 23:18:34.953554 16874 net.cpp:338] inception_4c/output -> inception_4c/output
I0106 23:18:34.953562 16874 net.cpp:113] Setting up inception_4c/output
I0106 23:18:34.953570 16874 net.cpp:120] Top shape: 80 512 14 14 (8028160)
I0106 23:18:34.953575 16874 layer_factory.hpp:74] Creating layer inception_4c/output_inception_4c/output_0_split
I0106 23:18:34.953583 16874 net.cpp:84] Creating Layer inception_4c/output_inception_4c/output_0_split
I0106 23:18:34.953588 16874 net.cpp:380] inception_4c/output_inception_4c/output_0_split <- inception_4c/output
I0106 23:18:34.953593 16874 net.cpp:338] inception_4c/output_inception_4c/output_0_split -> inception_4c/output_inception_4c/output_0_split_0
I0106 23:18:34.953603 16874 net.cpp:338] inception_4c/output_inception_4c/output_0_split -> inception_4c/output_inception_4c/output_0_split_1
I0106 23:18:34.953611 16874 net.cpp:338] inception_4c/output_inception_4c/output_0_split -> inception_4c/output_inception_4c/output_0_split_2
I0106 23:18:34.953619 16874 net.cpp:338] inception_4c/output_inception_4c/output_0_split -> inception_4c/output_inception_4c/output_0_split_3
I0106 23:18:34.953625 16874 net.cpp:113] Setting up inception_4c/output_inception_4c/output_0_split
I0106 23:18:34.953634 16874 net.cpp:120] Top shape: 80 512 14 14 (8028160)
I0106 23:18:34.953639 16874 net.cpp:120] Top shape: 80 512 14 14 (8028160)
I0106 23:18:34.953644 16874 net.cpp:120] Top shape: 80 512 14 14 (8028160)
I0106 23:18:34.953655 16874 net.cpp:120] Top shape: 80 512 14 14 (8028160)
I0106 23:18:34.953667 16874 layer_factory.hpp:74] Creating layer inception_4d/1x1
I0106 23:18:34.953691 16874 net.cpp:84] Creating Layer inception_4d/1x1
I0106 23:18:34.953697 16874 net.cpp:380] inception_4d/1x1 <- inception_4c/output_inception_4c/output_0_split_0
I0106 23:18:34.953706 16874 net.cpp:338] inception_4d/1x1 -> inception_4d/1x1
I0106 23:18:34.953713 16874 net.cpp:113] Setting up inception_4d/1x1
I0106 23:18:34.954779 16874 net.cpp:120] Top shape: 80 112 14 14 (1756160)
I0106 23:18:34.954795 16874 layer_factory.hpp:74] Creating layer inception_4d/relu_1x1
I0106 23:18:34.954802 16874 net.cpp:84] Creating Layer inception_4d/relu_1x1
I0106 23:18:34.954808 16874 net.cpp:380] inception_4d/relu_1x1 <- inception_4d/1x1
I0106 23:18:34.954818 16874 net.cpp:327] inception_4d/relu_1x1 -> inception_4d/1x1 (in-place)
I0106 23:18:34.954825 16874 net.cpp:113] Setting up inception_4d/relu_1x1
I0106 23:18:34.954893 16874 net.cpp:120] Top shape: 80 112 14 14 (1756160)
I0106 23:18:34.954900 16874 layer_factory.hpp:74] Creating layer inception_4d/3x3_reduce
I0106 23:18:34.954910 16874 net.cpp:84] Creating Layer inception_4d/3x3_reduce
I0106 23:18:34.954916 16874 net.cpp:380] inception_4d/3x3_reduce <- inception_4c/output_inception_4c/output_0_split_1
I0106 23:18:34.954922 16874 net.cpp:338] inception_4d/3x3_reduce -> inception_4d/3x3_reduce
I0106 23:18:34.954931 16874 net.cpp:113] Setting up inception_4d/3x3_reduce
I0106 23:18:34.956187 16874 net.cpp:120] Top shape: 80 144 14 14 (2257920)
I0106 23:18:34.956203 16874 layer_factory.hpp:74] Creating layer inception_4d/relu_3x3_reduce
I0106 23:18:34.956223 16874 net.cpp:84] Creating Layer inception_4d/relu_3x3_reduce
I0106 23:18:34.956228 16874 net.cpp:380] inception_4d/relu_3x3_reduce <- inception_4d/3x3_reduce
I0106 23:18:34.956238 16874 net.cpp:327] inception_4d/relu_3x3_reduce -> inception_4d/3x3_reduce (in-place)
I0106 23:18:34.956246 16874 net.cpp:113] Setting up inception_4d/relu_3x3_reduce
I0106 23:18:34.956491 16874 net.cpp:120] Top shape: 80 144 14 14 (2257920)
I0106 23:18:34.956502 16874 layer_factory.hpp:74] Creating layer inception_4d/3x3
I0106 23:18:34.956512 16874 net.cpp:84] Creating Layer inception_4d/3x3
I0106 23:18:34.956518 16874 net.cpp:380] inception_4d/3x3 <- inception_4d/3x3_reduce
I0106 23:18:34.956527 16874 net.cpp:338] inception_4d/3x3 -> inception_4d/3x3
I0106 23:18:34.956537 16874 net.cpp:113] Setting up inception_4d/3x3
I0106 23:18:34.961216 16874 net.cpp:120] Top shape: 80 288 14 14 (4515840)
I0106 23:18:34.961243 16874 layer_factory.hpp:74] Creating layer inception_4d/relu_3x3
I0106 23:18:34.961251 16874 net.cpp:84] Creating Layer inception_4d/relu_3x3
I0106 23:18:34.961257 16874 net.cpp:380] inception_4d/relu_3x3 <- inception_4d/3x3
I0106 23:18:34.961264 16874 net.cpp:327] inception_4d/relu_3x3 -> inception_4d/3x3 (in-place)
I0106 23:18:34.961272 16874 net.cpp:113] Setting up inception_4d/relu_3x3
I0106 23:18:34.961343 16874 net.cpp:120] Top shape: 80 288 14 14 (4515840)
I0106 23:18:34.961349 16874 layer_factory.hpp:74] Creating layer inception_4d/5x5_reduce
I0106 23:18:34.961364 16874 net.cpp:84] Creating Layer inception_4d/5x5_reduce
I0106 23:18:34.961369 16874 net.cpp:380] inception_4d/5x5_reduce <- inception_4c/output_inception_4c/output_0_split_2
I0106 23:18:34.961379 16874 net.cpp:338] inception_4d/5x5_reduce -> inception_4d/5x5_reduce
I0106 23:18:34.961387 16874 net.cpp:113] Setting up inception_4d/5x5_reduce
I0106 23:18:34.961987 16874 net.cpp:120] Top shape: 80 32 14 14 (501760)
I0106 23:18:34.962003 16874 layer_factory.hpp:74] Creating layer inception_4d/relu_5x5_reduce
I0106 23:18:34.962012 16874 net.cpp:84] Creating Layer inception_4d/relu_5x5_reduce
I0106 23:18:34.962016 16874 net.cpp:380] inception_4d/relu_5x5_reduce <- inception_4d/5x5_reduce
I0106 23:18:34.962024 16874 net.cpp:327] inception_4d/relu_5x5_reduce -> inception_4d/5x5_reduce (in-place)
I0106 23:18:34.962033 16874 net.cpp:113] Setting up inception_4d/relu_5x5_reduce
I0106 23:18:34.962100 16874 net.cpp:120] Top shape: 80 32 14 14 (501760)
I0106 23:18:34.962123 16874 layer_factory.hpp:74] Creating layer inception_4d/5x5
I0106 23:18:34.962131 16874 net.cpp:84] Creating Layer inception_4d/5x5
I0106 23:18:34.962136 16874 net.cpp:380] inception_4d/5x5 <- inception_4d/5x5_reduce
I0106 23:18:34.962146 16874 net.cpp:338] inception_4d/5x5 -> inception_4d/5x5
I0106 23:18:34.962154 16874 net.cpp:113] Setting up inception_4d/5x5
I0106 23:18:34.963147 16874 net.cpp:120] Top shape: 80 64 14 14 (1003520)
I0106 23:18:34.963163 16874 layer_factory.hpp:74] Creating layer inception_4d/relu_5x5
I0106 23:18:34.963171 16874 net.cpp:84] Creating Layer inception_4d/relu_5x5
I0106 23:18:34.963176 16874 net.cpp:380] inception_4d/relu_5x5 <- inception_4d/5x5
I0106 23:18:34.963183 16874 net.cpp:327] inception_4d/relu_5x5 -> inception_4d/5x5 (in-place)
I0106 23:18:34.963191 16874 net.cpp:113] Setting up inception_4d/relu_5x5
I0106 23:18:34.963261 16874 net.cpp:120] Top shape: 80 64 14 14 (1003520)
I0106 23:18:34.963276 16874 layer_factory.hpp:74] Creating layer inception_4d/pool
I0106 23:18:34.963289 16874 layer_factory.cpp:56] CUDNN does not support padding or multiple tops. Using Caffe's own pooling layer.
I0106 23:18:34.963295 16874 net.cpp:84] Creating Layer inception_4d/pool
I0106 23:18:34.963301 16874 net.cpp:380] inception_4d/pool <- inception_4c/output_inception_4c/output_0_split_3
I0106 23:18:34.963310 16874 net.cpp:338] inception_4d/pool -> inception_4d/pool
I0106 23:18:34.963318 16874 net.cpp:113] Setting up inception_4d/pool
I0106 23:18:34.963327 16874 net.cpp:120] Top shape: 80 512 14 14 (8028160)
I0106 23:18:34.963332 16874 layer_factory.hpp:74] Creating layer inception_4d/pool_proj
I0106 23:18:34.963340 16874 net.cpp:84] Creating Layer inception_4d/pool_proj
I0106 23:18:34.963346 16874 net.cpp:380] inception_4d/pool_proj <- inception_4d/pool
I0106 23:18:34.963354 16874 net.cpp:338] inception_4d/pool_proj -> inception_4d/pool_proj
I0106 23:18:34.963362 16874 net.cpp:113] Setting up inception_4d/pool_proj
I0106 23:18:34.964148 16874 net.cpp:120] Top shape: 80 64 14 14 (1003520)
I0106 23:18:34.964164 16874 layer_factory.hpp:74] Creating layer inception_4d/relu_pool_proj
I0106 23:18:34.964171 16874 net.cpp:84] Creating Layer inception_4d/relu_pool_proj
I0106 23:18:34.964177 16874 net.cpp:380] inception_4d/relu_pool_proj <- inception_4d/pool_proj
I0106 23:18:34.964184 16874 net.cpp:327] inception_4d/relu_pool_proj -> inception_4d/pool_proj (in-place)
I0106 23:18:34.964191 16874 net.cpp:113] Setting up inception_4d/relu_pool_proj
I0106 23:18:34.964432 16874 net.cpp:120] Top shape: 80 64 14 14 (1003520)
I0106 23:18:34.964442 16874 layer_factory.hpp:74] Creating layer inception_4d/output
I0106 23:18:34.964458 16874 net.cpp:84] Creating Layer inception_4d/output
I0106 23:18:34.964465 16874 net.cpp:380] inception_4d/output <- inception_4d/1x1
I0106 23:18:34.964473 16874 net.cpp:380] inception_4d/output <- inception_4d/3x3
I0106 23:18:34.964478 16874 net.cpp:380] inception_4d/output <- inception_4d/5x5
I0106 23:18:34.964483 16874 net.cpp:380] inception_4d/output <- inception_4d/pool_proj
I0106 23:18:34.964490 16874 net.cpp:338] inception_4d/output -> inception_4d/output
I0106 23:18:34.964498 16874 net.cpp:113] Setting up inception_4d/output
I0106 23:18:34.964507 16874 net.cpp:120] Top shape: 80 528 14 14 (8279040)
I0106 23:18:34.964516 16874 layer_factory.hpp:74] Creating layer inception_4d/output_inception_4d/output_0_split
I0106 23:18:34.964525 16874 net.cpp:84] Creating Layer inception_4d/output_inception_4d/output_0_split
I0106 23:18:34.964530 16874 net.cpp:380] inception_4d/output_inception_4d/output_0_split <- inception_4d/output
I0106 23:18:34.964537 16874 net.cpp:338] inception_4d/output_inception_4d/output_0_split -> inception_4d/output_inception_4d/output_0_split_0
I0106 23:18:34.964545 16874 net.cpp:338] inception_4d/output_inception_4d/output_0_split -> inception_4d/output_inception_4d/output_0_split_1
I0106 23:18:34.964553 16874 net.cpp:338] inception_4d/output_inception_4d/output_0_split -> inception_4d/output_inception_4d/output_0_split_2
I0106 23:18:34.964567 16874 net.cpp:338] inception_4d/output_inception_4d/output_0_split -> inception_4d/output_inception_4d/output_0_split_3
I0106 23:18:34.964581 16874 net.cpp:338] inception_4d/output_inception_4d/output_0_split -> inception_4d/output_inception_4d/output_0_split_4
I0106 23:18:34.964588 16874 net.cpp:113] Setting up inception_4d/output_inception_4d/output_0_split
I0106 23:18:34.964597 16874 net.cpp:120] Top shape: 80 528 14 14 (8279040)
I0106 23:18:34.964602 16874 net.cpp:120] Top shape: 80 528 14 14 (8279040)
I0106 23:18:34.964608 16874 net.cpp:120] Top shape: 80 528 14 14 (8279040)
I0106 23:18:34.964613 16874 net.cpp:120] Top shape: 80 528 14 14 (8279040)
I0106 23:18:34.964619 16874 net.cpp:120] Top shape: 80 528 14 14 (8279040)
I0106 23:18:34.964624 16874 layer_factory.hpp:74] Creating layer loss2/ave_pool
I0106 23:18:34.964632 16874 net.cpp:84] Creating Layer loss2/ave_pool
I0106 23:18:34.964638 16874 net.cpp:380] loss2/ave_pool <- inception_4d/output_inception_4d/output_0_split_0
I0106 23:18:34.964646 16874 net.cpp:338] loss2/ave_pool -> loss2/ave_pool
I0106 23:18:34.964654 16874 net.cpp:113] Setting up loss2/ave_pool
I0106 23:18:34.964726 16874 net.cpp:120] Top shape: 80 528 4 4 (675840)
I0106 23:18:34.964732 16874 layer_factory.hpp:74] Creating layer loss2/conv
I0106 23:18:34.964745 16874 net.cpp:84] Creating Layer loss2/conv
I0106 23:18:34.964751 16874 net.cpp:380] loss2/conv <- loss2/ave_pool
I0106 23:18:34.964766 16874 net.cpp:338] loss2/conv -> loss2/conv
I0106 23:18:34.964774 16874 net.cpp:113] Setting up loss2/conv
I0106 23:18:34.966096 16874 net.cpp:120] Top shape: 80 128 4 4 (163840)
I0106 23:18:34.966114 16874 layer_factory.hpp:74] Creating layer loss2/relu_conv
I0106 23:18:34.966121 16874 net.cpp:84] Creating Layer loss2/relu_conv
I0106 23:18:34.966126 16874 net.cpp:380] loss2/relu_conv <- loss2/conv
I0106 23:18:34.966135 16874 net.cpp:327] loss2/relu_conv -> loss2/conv (in-place)
I0106 23:18:34.966143 16874 net.cpp:113] Setting up loss2/relu_conv
I0106 23:18:34.966212 16874 net.cpp:120] Top shape: 80 128 4 4 (163840)
I0106 23:18:34.966218 16874 layer_factory.hpp:74] Creating layer loss2/fc
I0106 23:18:34.966248 16874 net.cpp:84] Creating Layer loss2/fc
I0106 23:18:34.966255 16874 net.cpp:380] loss2/fc <- loss2/conv
I0106 23:18:34.966264 16874 net.cpp:338] loss2/fc -> loss2/fc
I0106 23:18:34.966271 16874 net.cpp:113] Setting up loss2/fc
I0106 23:18:34.989145 16874 net.cpp:120] Top shape: 80 1024 (81920)
I0106 23:18:34.989158 16874 layer_factory.hpp:74] Creating layer loss2/relu_fc
I0106 23:18:34.989166 16874 net.cpp:84] Creating Layer loss2/relu_fc
I0106 23:18:34.989171 16874 net.cpp:380] loss2/relu_fc <- loss2/fc
I0106 23:18:34.989178 16874 net.cpp:327] loss2/relu_fc -> loss2/fc (in-place)
I0106 23:18:34.989186 16874 net.cpp:113] Setting up loss2/relu_fc
I0106 23:18:34.989437 16874 net.cpp:120] Top shape: 80 1024 (81920)
I0106 23:18:34.989454 16874 layer_factory.hpp:74] Creating layer loss2/drop_fc
I0106 23:18:34.989464 16874 net.cpp:84] Creating Layer loss2/drop_fc
I0106 23:18:34.989469 16874 net.cpp:380] loss2/drop_fc <- loss2/fc
I0106 23:18:34.989477 16874 net.cpp:327] loss2/drop_fc -> loss2/fc (in-place)
I0106 23:18:34.989485 16874 net.cpp:113] Setting up loss2/drop_fc
I0106 23:18:34.989493 16874 net.cpp:120] Top shape: 80 1024 (81920)
I0106 23:18:34.989498 16874 layer_factory.hpp:74] Creating layer loss2/classifier_kaggle
I0106 23:18:34.989506 16874 net.cpp:84] Creating Layer loss2/classifier_kaggle
I0106 23:18:34.989511 16874 net.cpp:380] loss2/classifier_kaggle <- loss2/fc
I0106 23:18:34.989517 16874 net.cpp:338] loss2/classifier_kaggle -> loss2/classifier_kaggle
I0106 23:18:34.989526 16874 net.cpp:113] Setting up loss2/classifier_kaggle
I0106 23:18:34.994776 16874 net.cpp:120] Top shape: 80 447 (35760)
I0106 23:18:34.994787 16874 layer_factory.hpp:74] Creating layer loss2/loss
I0106 23:18:34.994807 16874 net.cpp:84] Creating Layer loss2/loss
I0106 23:18:34.994813 16874 net.cpp:380] loss2/loss <- loss2/classifier_kaggle
I0106 23:18:34.994820 16874 net.cpp:380] loss2/loss <- label_data_1_split_1
I0106 23:18:34.994833 16874 net.cpp:338] loss2/loss -> loss2/loss1
I0106 23:18:34.994848 16874 net.cpp:113] Setting up loss2/loss
I0106 23:18:34.994855 16874 layer_factory.hpp:74] Creating layer loss2/loss
I0106 23:18:34.995020 16874 net.cpp:120] Top shape: (1)
I0106 23:18:34.995028 16874 net.cpp:122]     with loss weight 0.3
I0106 23:18:34.995041 16874 layer_factory.hpp:74] Creating layer inception_4e/1x1
I0106 23:18:34.995056 16874 net.cpp:84] Creating Layer inception_4e/1x1
I0106 23:18:34.995062 16874 net.cpp:380] inception_4e/1x1 <- inception_4d/output_inception_4d/output_0_split_1
I0106 23:18:34.995070 16874 net.cpp:338] inception_4e/1x1 -> inception_4e/1x1
I0106 23:18:34.995079 16874 net.cpp:113] Setting up inception_4e/1x1
I0106 23:18:34.997045 16874 net.cpp:120] Top shape: 80 256 14 14 (4014080)
I0106 23:18:34.997059 16874 layer_factory.hpp:74] Creating layer inception_4e/relu_1x1
I0106 23:18:34.997068 16874 net.cpp:84] Creating Layer inception_4e/relu_1x1
I0106 23:18:34.997076 16874 net.cpp:380] inception_4e/relu_1x1 <- inception_4e/1x1
I0106 23:18:34.997082 16874 net.cpp:327] inception_4e/relu_1x1 -> inception_4e/1x1 (in-place)
I0106 23:18:34.997089 16874 net.cpp:113] Setting up inception_4e/relu_1x1
I0106 23:18:34.997159 16874 net.cpp:120] Top shape: 80 256 14 14 (4014080)
I0106 23:18:34.997167 16874 layer_factory.hpp:74] Creating layer inception_4e/3x3_reduce
I0106 23:18:34.997175 16874 net.cpp:84] Creating Layer inception_4e/3x3_reduce
I0106 23:18:34.997180 16874 net.cpp:380] inception_4e/3x3_reduce <- inception_4d/output_inception_4d/output_0_split_2
I0106 23:18:34.997190 16874 net.cpp:338] inception_4e/3x3_reduce -> inception_4e/3x3_reduce
I0106 23:18:34.997198 16874 net.cpp:113] Setting up inception_4e/3x3_reduce
I0106 23:18:34.998576 16874 net.cpp:120] Top shape: 80 160 14 14 (2508800)
I0106 23:18:34.998594 16874 layer_factory.hpp:74] Creating layer inception_4e/relu_3x3_reduce
I0106 23:18:34.998612 16874 net.cpp:84] Creating Layer inception_4e/relu_3x3_reduce
I0106 23:18:34.998620 16874 net.cpp:380] inception_4e/relu_3x3_reduce <- inception_4e/3x3_reduce
I0106 23:18:34.998626 16874 net.cpp:327] inception_4e/relu_3x3_reduce -> inception_4e/3x3_reduce (in-place)
I0106 23:18:34.998634 16874 net.cpp:113] Setting up inception_4e/relu_3x3_reduce
I0106 23:18:34.998711 16874 net.cpp:120] Top shape: 80 160 14 14 (2508800)
I0106 23:18:34.998718 16874 layer_factory.hpp:74] Creating layer inception_4e/3x3
I0106 23:18:34.998731 16874 net.cpp:84] Creating Layer inception_4e/3x3
I0106 23:18:34.998738 16874 net.cpp:380] inception_4e/3x3 <- inception_4e/3x3_reduce
I0106 23:18:34.998746 16874 net.cpp:338] inception_4e/3x3 -> inception_4e/3x3
I0106 23:18:34.998754 16874 net.cpp:113] Setting up inception_4e/3x3
I0106 23:18:35.004434 16874 net.cpp:120] Top shape: 80 320 14 14 (5017600)
I0106 23:18:35.004451 16874 layer_factory.hpp:74] Creating layer inception_4e/relu_3x3
I0106 23:18:35.004459 16874 net.cpp:84] Creating Layer inception_4e/relu_3x3
I0106 23:18:35.004467 16874 net.cpp:380] inception_4e/relu_3x3 <- inception_4e/3x3
I0106 23:18:35.004473 16874 net.cpp:327] inception_4e/relu_3x3 -> inception_4e/3x3 (in-place)
I0106 23:18:35.004482 16874 net.cpp:113] Setting up inception_4e/relu_3x3
I0106 23:18:35.004720 16874 net.cpp:120] Top shape: 80 320 14 14 (5017600)
I0106 23:18:35.004731 16874 layer_factory.hpp:74] Creating layer inception_4e/5x5_reduce
I0106 23:18:35.004741 16874 net.cpp:84] Creating Layer inception_4e/5x5_reduce
I0106 23:18:35.004747 16874 net.cpp:380] inception_4e/5x5_reduce <- inception_4d/output_inception_4d/output_0_split_3
I0106 23:18:35.004755 16874 net.cpp:338] inception_4e/5x5_reduce -> inception_4e/5x5_reduce
I0106 23:18:35.004765 16874 net.cpp:113] Setting up inception_4e/5x5_reduce
I0106 23:18:35.005362 16874 net.cpp:120] Top shape: 80 32 14 14 (501760)
I0106 23:18:35.005376 16874 layer_factory.hpp:74] Creating layer inception_4e/relu_5x5_reduce
I0106 23:18:35.005393 16874 net.cpp:84] Creating Layer inception_4e/relu_5x5_reduce
I0106 23:18:35.005400 16874 net.cpp:380] inception_4e/relu_5x5_reduce <- inception_4e/5x5_reduce
I0106 23:18:35.005420 16874 net.cpp:327] inception_4e/relu_5x5_reduce -> inception_4e/5x5_reduce (in-place)
I0106 23:18:35.005429 16874 net.cpp:113] Setting up inception_4e/relu_5x5_reduce
I0106 23:18:35.005516 16874 net.cpp:120] Top shape: 80 32 14 14 (501760)
I0106 23:18:35.005523 16874 layer_factory.hpp:74] Creating layer inception_4e/5x5
I0106 23:18:35.005548 16874 net.cpp:84] Creating Layer inception_4e/5x5
I0106 23:18:35.005554 16874 net.cpp:380] inception_4e/5x5 <- inception_4e/5x5_reduce
I0106 23:18:35.005563 16874 net.cpp:338] inception_4e/5x5 -> inception_4e/5x5
I0106 23:18:35.005570 16874 net.cpp:113] Setting up inception_4e/5x5
I0106 23:18:35.007148 16874 net.cpp:120] Top shape: 80 128 14 14 (2007040)
I0106 23:18:35.007171 16874 layer_factory.hpp:74] Creating layer inception_4e/relu_5x5
I0106 23:18:35.007180 16874 net.cpp:84] Creating Layer inception_4e/relu_5x5
I0106 23:18:35.007186 16874 net.cpp:380] inception_4e/relu_5x5 <- inception_4e/5x5
I0106 23:18:35.007194 16874 net.cpp:327] inception_4e/relu_5x5 -> inception_4e/5x5 (in-place)
I0106 23:18:35.007201 16874 net.cpp:113] Setting up inception_4e/relu_5x5
I0106 23:18:35.007274 16874 net.cpp:120] Top shape: 80 128 14 14 (2007040)
I0106 23:18:35.007282 16874 layer_factory.hpp:74] Creating layer inception_4e/pool
I0106 23:18:35.007292 16874 layer_factory.cpp:56] CUDNN does not support padding or multiple tops. Using Caffe's own pooling layer.
I0106 23:18:35.007299 16874 net.cpp:84] Creating Layer inception_4e/pool
I0106 23:18:35.007305 16874 net.cpp:380] inception_4e/pool <- inception_4d/output_inception_4d/output_0_split_4
I0106 23:18:35.007314 16874 net.cpp:338] inception_4e/pool -> inception_4e/pool
I0106 23:18:35.007323 16874 net.cpp:113] Setting up inception_4e/pool
I0106 23:18:35.007331 16874 net.cpp:120] Top shape: 80 528 14 14 (8279040)
I0106 23:18:35.007336 16874 layer_factory.hpp:74] Creating layer inception_4e/pool_proj
I0106 23:18:35.007344 16874 net.cpp:84] Creating Layer inception_4e/pool_proj
I0106 23:18:35.007349 16874 net.cpp:380] inception_4e/pool_proj <- inception_4e/pool
I0106 23:18:35.007357 16874 net.cpp:338] inception_4e/pool_proj -> inception_4e/pool_proj
I0106 23:18:35.007365 16874 net.cpp:113] Setting up inception_4e/pool_proj
I0106 23:18:35.008548 16874 net.cpp:120] Top shape: 80 128 14 14 (2007040)
I0106 23:18:35.008563 16874 layer_factory.hpp:74] Creating layer inception_4e/relu_pool_proj
I0106 23:18:35.008577 16874 net.cpp:84] Creating Layer inception_4e/relu_pool_proj
I0106 23:18:35.008584 16874 net.cpp:380] inception_4e/relu_pool_proj <- inception_4e/pool_proj
I0106 23:18:35.008592 16874 net.cpp:327] inception_4e/relu_pool_proj -> inception_4e/pool_proj (in-place)
I0106 23:18:35.008601 16874 net.cpp:113] Setting up inception_4e/relu_pool_proj
I0106 23:18:35.008676 16874 net.cpp:120] Top shape: 80 128 14 14 (2007040)
I0106 23:18:35.008682 16874 layer_factory.hpp:74] Creating layer inception_4e/output
I0106 23:18:35.008693 16874 net.cpp:84] Creating Layer inception_4e/output
I0106 23:18:35.008698 16874 net.cpp:380] inception_4e/output <- inception_4e/1x1
I0106 23:18:35.008705 16874 net.cpp:380] inception_4e/output <- inception_4e/3x3
I0106 23:18:35.008710 16874 net.cpp:380] inception_4e/output <- inception_4e/5x5
I0106 23:18:35.008716 16874 net.cpp:380] inception_4e/output <- inception_4e/pool_proj
I0106 23:18:35.008724 16874 net.cpp:338] inception_4e/output -> inception_4e/output
I0106 23:18:35.008733 16874 net.cpp:113] Setting up inception_4e/output
I0106 23:18:35.008740 16874 net.cpp:120] Top shape: 80 832 14 14 (13045760)
I0106 23:18:35.008745 16874 layer_factory.hpp:74] Creating layer pool4/3x3_s2
I0106 23:18:35.008752 16874 net.cpp:84] Creating Layer pool4/3x3_s2
I0106 23:18:35.008757 16874 net.cpp:380] pool4/3x3_s2 <- inception_4e/output
I0106 23:18:35.008766 16874 net.cpp:338] pool4/3x3_s2 -> pool4/3x3_s2
I0106 23:18:35.008774 16874 net.cpp:113] Setting up pool4/3x3_s2
I0106 23:18:35.009021 16874 net.cpp:120] Top shape: 80 832 7 7 (3261440)
I0106 23:18:35.009037 16874 layer_factory.hpp:74] Creating layer pool4/3x3_s2_pool4/3x3_s2_0_split
I0106 23:18:35.009058 16874 net.cpp:84] Creating Layer pool4/3x3_s2_pool4/3x3_s2_0_split
I0106 23:18:35.009065 16874 net.cpp:380] pool4/3x3_s2_pool4/3x3_s2_0_split <- pool4/3x3_s2
I0106 23:18:35.009073 16874 net.cpp:338] pool4/3x3_s2_pool4/3x3_s2_0_split -> pool4/3x3_s2_pool4/3x3_s2_0_split_0
I0106 23:18:35.009083 16874 net.cpp:338] pool4/3x3_s2_pool4/3x3_s2_0_split -> pool4/3x3_s2_pool4/3x3_s2_0_split_1
I0106 23:18:35.009090 16874 net.cpp:338] pool4/3x3_s2_pool4/3x3_s2_0_split -> pool4/3x3_s2_pool4/3x3_s2_0_split_2
I0106 23:18:35.009098 16874 net.cpp:338] pool4/3x3_s2_pool4/3x3_s2_0_split -> pool4/3x3_s2_pool4/3x3_s2_0_split_3
I0106 23:18:35.009104 16874 net.cpp:113] Setting up pool4/3x3_s2_pool4/3x3_s2_0_split
I0106 23:18:35.009112 16874 net.cpp:120] Top shape: 80 832 7 7 (3261440)
I0106 23:18:35.009119 16874 net.cpp:120] Top shape: 80 832 7 7 (3261440)
I0106 23:18:35.009124 16874 net.cpp:120] Top shape: 80 832 7 7 (3261440)
I0106 23:18:35.009130 16874 net.cpp:120] Top shape: 80 832 7 7 (3261440)
I0106 23:18:35.009133 16874 layer_factory.hpp:74] Creating layer inception_5a/1x1
I0106 23:18:35.009143 16874 net.cpp:84] Creating Layer inception_5a/1x1
I0106 23:18:35.009150 16874 net.cpp:380] inception_5a/1x1 <- pool4/3x3_s2_pool4/3x3_s2_0_split_0
I0106 23:18:35.009158 16874 net.cpp:338] inception_5a/1x1 -> inception_5a/1x1
I0106 23:18:35.009166 16874 net.cpp:113] Setting up inception_5a/1x1
I0106 23:18:35.012020 16874 net.cpp:120] Top shape: 80 256 7 7 (1003520)
I0106 23:18:35.012037 16874 layer_factory.hpp:74] Creating layer inception_5a/relu_1x1
I0106 23:18:35.012055 16874 net.cpp:84] Creating Layer inception_5a/relu_1x1
I0106 23:18:35.012063 16874 net.cpp:380] inception_5a/relu_1x1 <- inception_5a/1x1
I0106 23:18:35.012070 16874 net.cpp:327] inception_5a/relu_1x1 -> inception_5a/1x1 (in-place)
I0106 23:18:35.012079 16874 net.cpp:113] Setting up inception_5a/relu_1x1
I0106 23:18:35.012154 16874 net.cpp:120] Top shape: 80 256 7 7 (1003520)
I0106 23:18:35.012166 16874 layer_factory.hpp:74] Creating layer inception_5a/3x3_reduce
I0106 23:18:35.012176 16874 net.cpp:84] Creating Layer inception_5a/3x3_reduce
I0106 23:18:35.012181 16874 net.cpp:380] inception_5a/3x3_reduce <- pool4/3x3_s2_pool4/3x3_s2_0_split_1
I0106 23:18:35.012190 16874 net.cpp:338] inception_5a/3x3_reduce -> inception_5a/3x3_reduce
I0106 23:18:35.012199 16874 net.cpp:113] Setting up inception_5a/3x3_reduce
I0106 23:18:35.014142 16874 net.cpp:120] Top shape: 80 160 7 7 (627200)
I0106 23:18:35.014159 16874 layer_factory.hpp:74] Creating layer inception_5a/relu_3x3_reduce
I0106 23:18:35.014168 16874 net.cpp:84] Creating Layer inception_5a/relu_3x3_reduce
I0106 23:18:35.014174 16874 net.cpp:380] inception_5a/relu_3x3_reduce <- inception_5a/3x3_reduce
I0106 23:18:35.014181 16874 net.cpp:327] inception_5a/relu_3x3_reduce -> inception_5a/3x3_reduce (in-place)
I0106 23:18:35.014189 16874 net.cpp:113] Setting up inception_5a/relu_3x3_reduce
I0106 23:18:35.014261 16874 net.cpp:120] Top shape: 80 160 7 7 (627200)
I0106 23:18:35.014266 16874 layer_factory.hpp:74] Creating layer inception_5a/3x3
I0106 23:18:35.014281 16874 net.cpp:84] Creating Layer inception_5a/3x3
I0106 23:18:35.014289 16874 net.cpp:380] inception_5a/3x3 <- inception_5a/3x3_reduce
I0106 23:18:35.014300 16874 net.cpp:338] inception_5a/3x3 -> inception_5a/3x3
I0106 23:18:35.014309 16874 net.cpp:113] Setting up inception_5a/3x3
I0106 23:18:35.034991 16874 net.cpp:120] Top shape: 80 320 7 7 (1254400)
I0106 23:18:35.035012 16874 layer_factory.hpp:74] Creating layer inception_5a/relu_3x3
I0106 23:18:35.035022 16874 net.cpp:84] Creating Layer inception_5a/relu_3x3
I0106 23:18:35.035029 16874 net.cpp:380] inception_5a/relu_3x3 <- inception_5a/3x3
I0106 23:18:35.035037 16874 net.cpp:327] inception_5a/relu_3x3 -> inception_5a/3x3 (in-place)
I0106 23:18:35.035046 16874 net.cpp:113] Setting up inception_5a/relu_3x3
I0106 23:18:35.035121 16874 net.cpp:120] Top shape: 80 320 7 7 (1254400)
I0106 23:18:35.035130 16874 layer_factory.hpp:74] Creating layer inception_5a/5x5_reduce
I0106 23:18:35.035158 16874 net.cpp:84] Creating Layer inception_5a/5x5_reduce
I0106 23:18:35.035166 16874 net.cpp:380] inception_5a/5x5_reduce <- pool4/3x3_s2_pool4/3x3_s2_0_split_2
I0106 23:18:35.035174 16874 net.cpp:338] inception_5a/5x5_reduce -> inception_5a/5x5_reduce
I0106 23:18:35.035183 16874 net.cpp:113] Setting up inception_5a/5x5_reduce
I0106 23:18:35.035908 16874 net.cpp:120] Top shape: 80 32 7 7 (125440)
I0106 23:18:35.035925 16874 layer_factory.hpp:74] Creating layer inception_5a/relu_5x5_reduce
I0106 23:18:35.035933 16874 net.cpp:84] Creating Layer inception_5a/relu_5x5_reduce
I0106 23:18:35.035939 16874 net.cpp:380] inception_5a/relu_5x5_reduce <- inception_5a/5x5_reduce
I0106 23:18:35.035946 16874 net.cpp:327] inception_5a/relu_5x5_reduce -> inception_5a/5x5_reduce (in-place)
I0106 23:18:35.035954 16874 net.cpp:113] Setting up inception_5a/relu_5x5_reduce
I0106 23:18:35.036198 16874 net.cpp:120] Top shape: 80 32 7 7 (125440)
I0106 23:18:35.036211 16874 layer_factory.hpp:74] Creating layer inception_5a/5x5
I0106 23:18:35.036227 16874 net.cpp:84] Creating Layer inception_5a/5x5
I0106 23:18:35.036234 16874 net.cpp:380] inception_5a/5x5 <- inception_5a/5x5_reduce
I0106 23:18:35.036243 16874 net.cpp:338] inception_5a/5x5 -> inception_5a/5x5
I0106 23:18:35.036253 16874 net.cpp:113] Setting up inception_5a/5x5
I0106 23:18:35.037883 16874 net.cpp:120] Top shape: 80 128 7 7 (501760)
I0106 23:18:35.037899 16874 layer_factory.hpp:74] Creating layer inception_5a/relu_5x5
I0106 23:18:35.037907 16874 net.cpp:84] Creating Layer inception_5a/relu_5x5
I0106 23:18:35.037914 16874 net.cpp:380] inception_5a/relu_5x5 <- inception_5a/5x5
I0106 23:18:35.037922 16874 net.cpp:327] inception_5a/relu_5x5 -> inception_5a/5x5 (in-place)
I0106 23:18:35.037930 16874 net.cpp:113] Setting up inception_5a/relu_5x5
I0106 23:18:35.038002 16874 net.cpp:120] Top shape: 80 128 7 7 (501760)
I0106 23:18:35.038009 16874 layer_factory.hpp:74] Creating layer inception_5a/pool
I0106 23:18:35.038015 16874 layer_factory.cpp:56] CUDNN does not support padding or multiple tops. Using Caffe's own pooling layer.
I0106 23:18:35.038022 16874 net.cpp:84] Creating Layer inception_5a/pool
I0106 23:18:35.038028 16874 net.cpp:380] inception_5a/pool <- pool4/3x3_s2_pool4/3x3_s2_0_split_3
I0106 23:18:35.038034 16874 net.cpp:338] inception_5a/pool -> inception_5a/pool
I0106 23:18:35.038043 16874 net.cpp:113] Setting up inception_5a/pool
I0106 23:18:35.038050 16874 net.cpp:120] Top shape: 80 832 7 7 (3261440)
I0106 23:18:35.038065 16874 layer_factory.hpp:74] Creating layer inception_5a/pool_proj
I0106 23:18:35.038081 16874 net.cpp:84] Creating Layer inception_5a/pool_proj
I0106 23:18:35.038087 16874 net.cpp:380] inception_5a/pool_proj <- inception_5a/pool
I0106 23:18:35.038099 16874 net.cpp:338] inception_5a/pool_proj -> inception_5a/pool_proj
I0106 23:18:35.038107 16874 net.cpp:113] Setting up inception_5a/pool_proj
I0106 23:18:35.039736 16874 net.cpp:120] Top shape: 80 128 7 7 (501760)
I0106 23:18:35.039752 16874 layer_factory.hpp:74] Creating layer inception_5a/relu_pool_proj
I0106 23:18:35.039762 16874 net.cpp:84] Creating Layer inception_5a/relu_pool_proj
I0106 23:18:35.039767 16874 net.cpp:380] inception_5a/relu_pool_proj <- inception_5a/pool_proj
I0106 23:18:35.039774 16874 net.cpp:327] inception_5a/relu_pool_proj -> inception_5a/pool_proj (in-place)
I0106 23:18:35.039783 16874 net.cpp:113] Setting up inception_5a/relu_pool_proj
I0106 23:18:35.039852 16874 net.cpp:120] Top shape: 80 128 7 7 (501760)
I0106 23:18:35.039858 16874 layer_factory.hpp:74] Creating layer inception_5a/output
I0106 23:18:35.039865 16874 net.cpp:84] Creating Layer inception_5a/output
I0106 23:18:35.039870 16874 net.cpp:380] inception_5a/output <- inception_5a/1x1
I0106 23:18:35.039878 16874 net.cpp:380] inception_5a/output <- inception_5a/3x3
I0106 23:18:35.039885 16874 net.cpp:380] inception_5a/output <- inception_5a/5x5
I0106 23:18:35.039891 16874 net.cpp:380] inception_5a/output <- inception_5a/pool_proj
I0106 23:18:35.039896 16874 net.cpp:338] inception_5a/output -> inception_5a/output
I0106 23:18:35.039918 16874 net.cpp:113] Setting up inception_5a/output
I0106 23:18:35.039927 16874 net.cpp:120] Top shape: 80 832 7 7 (3261440)
I0106 23:18:35.039932 16874 layer_factory.hpp:74] Creating layer inception_5a/output_inception_5a/output_0_split
I0106 23:18:35.039938 16874 net.cpp:84] Creating Layer inception_5a/output_inception_5a/output_0_split
I0106 23:18:35.039943 16874 net.cpp:380] inception_5a/output_inception_5a/output_0_split <- inception_5a/output
I0106 23:18:35.039952 16874 net.cpp:338] inception_5a/output_inception_5a/output_0_split -> inception_5a/output_inception_5a/output_0_split_0
I0106 23:18:35.039962 16874 net.cpp:338] inception_5a/output_inception_5a/output_0_split -> inception_5a/output_inception_5a/output_0_split_1
I0106 23:18:35.039968 16874 net.cpp:338] inception_5a/output_inception_5a/output_0_split -> inception_5a/output_inception_5a/output_0_split_2
I0106 23:18:35.039976 16874 net.cpp:338] inception_5a/output_inception_5a/output_0_split -> inception_5a/output_inception_5a/output_0_split_3
I0106 23:18:35.039983 16874 net.cpp:113] Setting up inception_5a/output_inception_5a/output_0_split
I0106 23:18:35.039990 16874 net.cpp:120] Top shape: 80 832 7 7 (3261440)
I0106 23:18:35.039996 16874 net.cpp:120] Top shape: 80 832 7 7 (3261440)
I0106 23:18:35.040002 16874 net.cpp:120] Top shape: 80 832 7 7 (3261440)
I0106 23:18:35.040007 16874 net.cpp:120] Top shape: 80 832 7 7 (3261440)
I0106 23:18:35.040019 16874 layer_factory.hpp:74] Creating layer inception_5b/1x1
I0106 23:18:35.040029 16874 net.cpp:84] Creating Layer inception_5b/1x1
I0106 23:18:35.040033 16874 net.cpp:380] inception_5b/1x1 <- inception_5a/output_inception_5a/output_0_split_0
I0106 23:18:35.040043 16874 net.cpp:338] inception_5b/1x1 -> inception_5b/1x1
I0106 23:18:35.040052 16874 net.cpp:113] Setting up inception_5b/1x1
I0106 23:18:35.044121 16874 net.cpp:120] Top shape: 80 384 7 7 (1505280)
I0106 23:18:35.044137 16874 layer_factory.hpp:74] Creating layer inception_5b/relu_1x1
I0106 23:18:35.044157 16874 net.cpp:84] Creating Layer inception_5b/relu_1x1
I0106 23:18:35.044164 16874 net.cpp:380] inception_5b/relu_1x1 <- inception_5b/1x1
I0106 23:18:35.044172 16874 net.cpp:327] inception_5b/relu_1x1 -> inception_5b/1x1 (in-place)
I0106 23:18:35.044179 16874 net.cpp:113] Setting up inception_5b/relu_1x1
I0106 23:18:35.044427 16874 net.cpp:120] Top shape: 80 384 7 7 (1505280)
I0106 23:18:35.044438 16874 layer_factory.hpp:74] Creating layer inception_5b/3x3_reduce
I0106 23:18:35.044448 16874 net.cpp:84] Creating Layer inception_5b/3x3_reduce
I0106 23:18:35.044455 16874 net.cpp:380] inception_5b/3x3_reduce <- inception_5a/output_inception_5a/output_0_split_1
I0106 23:18:35.044462 16874 net.cpp:338] inception_5b/3x3_reduce -> inception_5b/3x3_reduce
I0106 23:18:35.044472 16874 net.cpp:113] Setting up inception_5b/3x3_reduce
I0106 23:18:35.046717 16874 net.cpp:120] Top shape: 80 192 7 7 (752640)
I0106 23:18:35.046733 16874 layer_factory.hpp:74] Creating layer inception_5b/relu_3x3_reduce
I0106 23:18:35.046742 16874 net.cpp:84] Creating Layer inception_5b/relu_3x3_reduce
I0106 23:18:35.046748 16874 net.cpp:380] inception_5b/relu_3x3_reduce <- inception_5b/3x3_reduce
I0106 23:18:35.046756 16874 net.cpp:327] inception_5b/relu_3x3_reduce -> inception_5b/3x3_reduce (in-place)
I0106 23:18:35.046763 16874 net.cpp:113] Setting up inception_5b/relu_3x3_reduce
I0106 23:18:35.046835 16874 net.cpp:120] Top shape: 80 192 7 7 (752640)
I0106 23:18:35.046843 16874 layer_factory.hpp:74] Creating layer inception_5b/3x3
I0106 23:18:35.046860 16874 net.cpp:84] Creating Layer inception_5b/3x3
I0106 23:18:35.046867 16874 net.cpp:380] inception_5b/3x3 <- inception_5b/3x3_reduce
I0106 23:18:35.046876 16874 net.cpp:338] inception_5b/3x3 -> inception_5b/3x3
I0106 23:18:35.046903 16874 net.cpp:113] Setting up inception_5b/3x3
I0106 23:18:35.054909 16874 net.cpp:120] Top shape: 80 384 7 7 (1505280)
I0106 23:18:35.054927 16874 layer_factory.hpp:74] Creating layer inception_5b/relu_3x3
I0106 23:18:35.054936 16874 net.cpp:84] Creating Layer inception_5b/relu_3x3
I0106 23:18:35.054954 16874 net.cpp:380] inception_5b/relu_3x3 <- inception_5b/3x3
I0106 23:18:35.054961 16874 net.cpp:327] inception_5b/relu_3x3 -> inception_5b/3x3 (in-place)
I0106 23:18:35.054970 16874 net.cpp:113] Setting up inception_5b/relu_3x3
I0106 23:18:35.055040 16874 net.cpp:120] Top shape: 80 384 7 7 (1505280)
I0106 23:18:35.055047 16874 layer_factory.hpp:74] Creating layer inception_5b/5x5_reduce
I0106 23:18:35.055057 16874 net.cpp:84] Creating Layer inception_5b/5x5_reduce
I0106 23:18:35.055063 16874 net.cpp:380] inception_5b/5x5_reduce <- inception_5a/output_inception_5a/output_0_split_2
I0106 23:18:35.055071 16874 net.cpp:338] inception_5b/5x5_reduce -> inception_5b/5x5_reduce
I0106 23:18:35.055080 16874 net.cpp:113] Setting up inception_5b/5x5_reduce
I0106 23:18:35.055944 16874 net.cpp:120] Top shape: 80 48 7 7 (188160)
I0106 23:18:35.055959 16874 layer_factory.hpp:74] Creating layer inception_5b/relu_5x5_reduce
I0106 23:18:35.055976 16874 net.cpp:84] Creating Layer inception_5b/relu_5x5_reduce
I0106 23:18:35.055984 16874 net.cpp:380] inception_5b/relu_5x5_reduce <- inception_5b/5x5_reduce
I0106 23:18:35.055991 16874 net.cpp:327] inception_5b/relu_5x5_reduce -> inception_5b/5x5_reduce (in-place)
I0106 23:18:35.055999 16874 net.cpp:113] Setting up inception_5b/relu_5x5_reduce
I0106 23:18:35.056074 16874 net.cpp:120] Top shape: 80 48 7 7 (188160)
I0106 23:18:35.056082 16874 layer_factory.hpp:74] Creating layer inception_5b/5x5
I0106 23:18:35.056089 16874 net.cpp:84] Creating Layer inception_5b/5x5
I0106 23:18:35.056094 16874 net.cpp:380] inception_5b/5x5 <- inception_5b/5x5_reduce
I0106 23:18:35.056103 16874 net.cpp:338] inception_5b/5x5 -> inception_5b/5x5
I0106 23:18:35.056112 16874 net.cpp:113] Setting up inception_5b/5x5
I0106 23:18:35.058279 16874 net.cpp:120] Top shape: 80 128 7 7 (501760)
I0106 23:18:35.058295 16874 layer_factory.hpp:74] Creating layer inception_5b/relu_5x5
I0106 23:18:35.058302 16874 net.cpp:84] Creating Layer inception_5b/relu_5x5
I0106 23:18:35.058308 16874 net.cpp:380] inception_5b/relu_5x5 <- inception_5b/5x5
I0106 23:18:35.058317 16874 net.cpp:327] inception_5b/relu_5x5 -> inception_5b/5x5 (in-place)
I0106 23:18:35.058326 16874 net.cpp:113] Setting up inception_5b/relu_5x5
I0106 23:18:35.058571 16874 net.cpp:120] Top shape: 80 128 7 7 (501760)
I0106 23:18:35.058581 16874 layer_factory.hpp:74] Creating layer inception_5b/pool
I0106 23:18:35.058588 16874 layer_factory.cpp:56] CUDNN does not support padding or multiple tops. Using Caffe's own pooling layer.
I0106 23:18:35.058594 16874 net.cpp:84] Creating Layer inception_5b/pool
I0106 23:18:35.058600 16874 net.cpp:380] inception_5b/pool <- inception_5a/output_inception_5a/output_0_split_3
I0106 23:18:35.058609 16874 net.cpp:338] inception_5b/pool -> inception_5b/pool
I0106 23:18:35.058619 16874 net.cpp:113] Setting up inception_5b/pool
I0106 23:18:35.058627 16874 net.cpp:120] Top shape: 80 832 7 7 (3261440)
I0106 23:18:35.058632 16874 layer_factory.hpp:74] Creating layer inception_5b/pool_proj
I0106 23:18:35.058651 16874 net.cpp:84] Creating Layer inception_5b/pool_proj
I0106 23:18:35.058657 16874 net.cpp:380] inception_5b/pool_proj <- inception_5b/pool
I0106 23:18:35.058665 16874 net.cpp:338] inception_5b/pool_proj -> inception_5b/pool_proj
I0106 23:18:35.058673 16874 net.cpp:113] Setting up inception_5b/pool_proj
I0106 23:18:35.060308 16874 net.cpp:120] Top shape: 80 128 7 7 (501760)
I0106 23:18:35.060324 16874 layer_factory.hpp:74] Creating layer inception_5b/relu_pool_proj
I0106 23:18:35.060331 16874 net.cpp:84] Creating Layer inception_5b/relu_pool_proj
I0106 23:18:35.060338 16874 net.cpp:380] inception_5b/relu_pool_proj <- inception_5b/pool_proj
I0106 23:18:35.060348 16874 net.cpp:327] inception_5b/relu_pool_proj -> inception_5b/pool_proj (in-place)
I0106 23:18:35.060356 16874 net.cpp:113] Setting up inception_5b/relu_pool_proj
I0106 23:18:35.060423 16874 net.cpp:120] Top shape: 80 128 7 7 (501760)
I0106 23:18:35.060431 16874 layer_factory.hpp:74] Creating layer inception_5b/output
I0106 23:18:35.060443 16874 net.cpp:84] Creating Layer inception_5b/output
I0106 23:18:35.060456 16874 net.cpp:380] inception_5b/output <- inception_5b/1x1
I0106 23:18:35.060463 16874 net.cpp:380] inception_5b/output <- inception_5b/3x3
I0106 23:18:35.060469 16874 net.cpp:380] inception_5b/output <- inception_5b/5x5
I0106 23:18:35.060474 16874 net.cpp:380] inception_5b/output <- inception_5b/pool_proj
I0106 23:18:35.060484 16874 net.cpp:338] inception_5b/output -> inception_5b/output
I0106 23:18:35.060492 16874 net.cpp:113] Setting up inception_5b/output
I0106 23:18:35.060500 16874 net.cpp:120] Top shape: 80 1024 7 7 (4014080)
I0106 23:18:35.060505 16874 layer_factory.hpp:74] Creating layer pool5/7x7_s1
I0106 23:18:35.060519 16874 net.cpp:84] Creating Layer pool5/7x7_s1
I0106 23:18:35.060525 16874 net.cpp:380] pool5/7x7_s1 <- inception_5b/output
I0106 23:18:35.060533 16874 net.cpp:338] pool5/7x7_s1 -> pool5/7x7_s1
I0106 23:18:35.060539 16874 net.cpp:113] Setting up pool5/7x7_s1
I0106 23:18:35.060613 16874 net.cpp:120] Top shape: 80 1024 1 1 (81920)
I0106 23:18:35.060619 16874 layer_factory.hpp:74] Creating layer pool5/drop_7x7_s1
I0106 23:18:35.060626 16874 net.cpp:84] Creating Layer pool5/drop_7x7_s1
I0106 23:18:35.060632 16874 net.cpp:380] pool5/drop_7x7_s1 <- pool5/7x7_s1
I0106 23:18:35.060638 16874 net.cpp:327] pool5/drop_7x7_s1 -> pool5/7x7_s1 (in-place)
I0106 23:18:35.060645 16874 net.cpp:113] Setting up pool5/drop_7x7_s1
I0106 23:18:35.060653 16874 net.cpp:120] Top shape: 80 1024 1 1 (81920)
I0106 23:18:35.060658 16874 layer_factory.hpp:74] Creating layer loss3/classifier_kaggle
I0106 23:18:35.060667 16874 net.cpp:84] Creating Layer loss3/classifier_kaggle
I0106 23:18:35.060672 16874 net.cpp:380] loss3/classifier_kaggle <- pool5/7x7_s1
I0106 23:18:35.060681 16874 net.cpp:338] loss3/classifier_kaggle -> loss3/classifier_kaggle
I0106 23:18:35.060689 16874 net.cpp:113] Setting up loss3/classifier_kaggle
I0106 23:18:35.065937 16874 net.cpp:120] Top shape: 80 447 (35760)
I0106 23:18:35.065950 16874 layer_factory.hpp:74] Creating layer loss3/loss3
I0106 23:18:35.065959 16874 net.cpp:84] Creating Layer loss3/loss3
I0106 23:18:35.065965 16874 net.cpp:380] loss3/loss3 <- loss3/classifier_kaggle
I0106 23:18:35.065973 16874 net.cpp:380] loss3/loss3 <- label_data_1_split_2
I0106 23:18:35.065979 16874 net.cpp:338] loss3/loss3 -> loss3/loss3
I0106 23:18:35.065986 16874 net.cpp:113] Setting up loss3/loss3
…
I0106 23:18:35.071534 16874 net.cpp:257] The NetState phase (1) differed from the phase (0) specified by a rule in layer data
I0106 23:18:35.073040 16874 net.cpp:42] Initializing net from parameters: 
name: "MYNET"
state {
  phase: TEST
}
layer {
  name: "data"
  type: "ImageData"
  top: "data"
  top: "label"
  include {
    phase: TEST
  }
  transform_param {
    mirror: false
    crop_size: 224
    mean_value: 129
    mean_value: 129
    mean_value: 129
  }
  image_data_param {
    source: "/home/coldmanck/kaggle/label_val_full_resize_rotated.txt"
    batch_size: 50
    shuffle: true
  }
}
layer {
  name: "conv1/7x7_s2"
  type: "Convolution"
  bottom: "data"
  top: "conv1/7x7_s2"
  param {
    lr_mult: 1
    decay_mult: 1
  }
  param {
    lr_mult: 2
    decay_mult: 0
  }
  convolution_param {
    num_output: 64
    pad: 3
    kernel_size: 7
    stride: 2
    weight_filler {
      type: "xavier"
    }
    bias_filler {
      type: "constant"
      value: 0.2
    }
  }
}
layer {
  name: "conv1/relu_7x7"
  type: "ReLU"
  bottom: "conv1/7x7_s2"
  top: "conv1/7x7_s2"
}
layer {
  name: "pool1/3x3_s2"
  type: "Pooling"
  bottom: "conv1/7x7_s2"
  top: "pool1/3x3_s2"
  pooling_param {
    pool: MAX
    kernel_size: 3
    stride: 2
  }
}
layer {
  name: "pool1/norm1"
  type: "LRN"
  bottom: "pool1/3x3_s2"
  top: "pool1/norm1"
  lrn_param {
    local_size: 5
    alpha: 0.0001
    beta: 0.75
  }
}
layer {
  name: "conv2/3x3_reduce"
  type: "Convolution"
  bottom: "pool1/norm1"
  top: "conv2/3x3_reduce"
  param {
    lr_mult: 1
    decay_mult: 1
  }
  param {
    lr_mult: 2
    decay_mult: 0
  }
  convolution_param {
    num_output: 64
    kernel_size: 1
    weight_filler {
      type: "xavier"
    }
    bias_filler {
      type: "constant"
      value: 0.2
    }
  }
}
layer {
  name: "conv2/relu_3x3_reduce"
  type: "ReLU"
  bottom: "conv2/3x3_reduce"
  top: "conv2/3x3_reduce"
}
layer {
  name: "conv2/3x3"
  type: "Convolution"
  bottom: "conv2/3x3_reduce"
  top: "conv2/3x3"
  param {
    lr_mult: 1
    decay_mult: 1
  }
  param {
    lr_mult: 2
    decay_mult: 0
  }
  convolution_param {
    num_output: 192
    pad: 1
    kernel_size: 3
    weight_filler {
      type: "xavier"
    }
    bias_filler {
      type: "constant"
      value: 0.2
    }
  }
}
layer {
  name: "conv2/relu_3x3"
  type: "ReLU"
  bottom: "conv2/3x3"
  top: "conv2/3x3"
}
layer {
  name: "conv2/norm2"
  type: "LRN"
  bottom: "conv2/3x3"
  top: "conv2/norm2"
  lrn_param {
    local_size: 5
    alpha: 0.0001
    beta: 0.75
  }
}
layer {
  name: "pool2/3x3_s2"
  type: "Pooling"
  bottom: "conv2/norm2"
  top: "pool2/3x3_s2"
  pooling_param {
    pool: MAX
    kernel_size: 3
    stride: 2
  }
}
layer {
  name: "inception_3a/1x1"
  type: "Convolution"
  bottom: "pool2/3x3_s2"
  top: "inception_3a/1x1"
  param {
    lr_mult: 1
    decay_mult: 1
  }
  param {
    lr_mult: 2
    decay_mult: 0
  }
  convolution_param {
    num_output: 64
    kernel_size: 1
    weight_filler {
      type: "xavier"
    }
    bias_filler {
      type: "constant"
      value: 0.2
    }
  }
}
layer {
  name: "inception_3a/relu_1x1"
  type: "ReLU"
  bottom: "inception_3a/1x1"
  top: "inception_3a/1x1"
}
layer {
  name: "inception_3a/3x3_reduce"
  type: "Convolution"
  bottom: "pool2/3x3_s2"
  top: "inception_3a/3x3_reduce"
  param {
    lr_mult: 1
    decay_mult: 1
  }
  param {
    lr_mult: 2
    decay_mult: 0
  }
  convolution_param {
    num_output: 96
    kernel_size: 1
    weight_filler {
      type: "xavier"
    }
    bias_filler {
      type: "constant"
      value: 0.2
    }
  }
}
layer {
  name: "inception_3a/relu_3x3_reduce"
  type: "ReLU"
  bottom: "inception_3a/3x3_reduce"
  top: "inception_3a/3x3_reduce"
}
layer {
  name: "inception_3a/3x3"
  type: "Convolution"
  bottom: "inception_3a/3x3_reduce"
  top: "inception_3a/3x3"
  param {
    lr_mult: 1
    decay_mult: 1
  }
  param {
    lr_mult: 2
    decay_mult: 0
  }
  convolution_param {
    num_output: 128
    pad: 1
    kernel_size: 3
    weight_filler {
      type: "xavier"
    }
    bias_filler {
      type: "constant"
      value: 0.2
    }
  }
}
layer {
  name: "inception_3a/relu_3x3"
  type: "ReLU"
  bottom: "inception_3a/3x3"
  top: "inception_3a/3x3"
}
layer {
  name: "inception_3a/5x5_reduce"
  type: "Convolution"
  bottom: "pool2/3x3_s2"
  top: "inception_3a/5x5_reduce"
  param {
    lr_mult: 1
    decay_mult: 1
  }
  param {
    lr_mult: 2
    decay_mult: 0
  }
  convolution_param {
    num_output: 16
    kernel_size: 1
    weight_filler {
      type: "xavier"
    }
    bias_filler {
      type: "constant"
      value: 0.2
    }
  }
}
layer {
  name: "inception_3a/relu_5x5_reduce"
  type: "ReLU"
  bottom: "inception_3a/5x5_reduce"
  top: "inception_3a/5x5_reduce"
}
layer {
  name: "inception_3a/5x5"
  type: "Convolution"
  bottom: "inception_3a/5x5_reduce"
  top: "inception_3a/5x5"
  param {
    lr_mult: 1
    decay_mult: 1
  }
  param {
    lr_mult: 2
    decay_mult: 0
  }
  convolution_param {
    num_output: 32
    pad: 2
    kernel_size: 5
    weight_filler {
      type: "xavier"
    }
    bias_filler {
      type: "constant"
      value: 0.2
    }
  }
}
layer {
  name: "inception_3a/relu_5x5"
  type: "ReLU"
  bottom: "inception_3a/5x5"
  top: "inception_3a/5x5"
}
layer {
  name: "inception_3a/pool"
  type: "Pooling"
  bottom: "pool2/3x3_s2"
  top: "inception_3a/pool"
  pooling_param {
    pool: MAX
    kernel_size: 3
    stride: 1
    pad: 1
  }
}
layer {
  name: "inception_3a/pool_proj"
  type: "Convolution"
  bottom: "inception_3a/pool"
  top: "inception_3a/pool_proj"
  param {
    lr_mult: 1
    decay_mult: 1
  }
  param {
    lr_mult: 2
    decay_mult: 0
  }
  convolution_param {
    num_output: 32
    kernel_size: 1
    weight_filler {
      type: "xavier"
    }
    bias_filler {
      type: "constant"
      value: 0.2
    }
  }
}
layer {
  name: "inception_3a/relu_pool_proj"
  type: "ReLU"
  bottom: "inception_3a/pool_proj"
  top: "inception_3a/pool_proj"
}
layer {
  name: "inception_3a/output"
  type: "Concat"
  bottom: "inception_3a/1x1"
  bottom: "inception_3a/3x3"
  bottom: "inception_3a/5x5"
  bottom: "inception_3a/pool_proj"
  top: "inception_3a/output"
}
layer {
  name: "inception_3b/1x1"
  type: "Convolution"
  bottom: "inception_3a/output"
  top: "inception_3b/1x1"
  param {
    lr_mult: 1
    decay_mult: 1
  }
  param {
    lr_mult: 2
    decay_mult: 0
  }
  convolution_param {
    num_output: 128
    kernel_size: 1
    weight_filler {
      type: "xavier"
    }
    bias_filler {
      type: "constant"
      value: 0.2
    }
  }
}
layer {
  name: "inception_3b/relu_1x1"
  type: "ReLU"
  bottom: "inception_3b/1x1"
  top: "inception_3b/1x1"
}
layer {
  name: "inception_3b/3x3_reduce"
  type: "Convolution"
  bottom: "inception_3a/output"
  top: "inception_3b/3x3_reduce"
  param {
    lr_mult: 1
    decay_mult: 1
  }
  param {
    lr_mult: 2
    decay_mult: 0
  }
  convolution_param {
    num_output: 128
    kernel_size: 1
    weight_filler {
      type: "xavier"
    }
    bias_filler {
      type: "constant"
      value: 0.2
    }
  }
}
layer {
  name: "inception_3b/relu_3x3_reduce"
  type: "ReLU"
  bottom: "inception_3b/3x3_reduce"
  top: "inception_3b/3x3_reduce"
}
layer {
  name: "inception_3b/3x3"
  type: "Convolution"
  bottom: "inception_3b/3x3_reduce"
  top: "inception_3b/3x3"
  param {
    lr_mult: 1
    decay_mult: 1
  }
  param {
    lr_mult: 2
    decay_mult: 0
  }
  convolution_param {
    num_output: 192
    pad: 1
    kernel_size: 3
    weight_filler {
      type: "xavier"
    }
    bias_filler {
      type: "constant"
      value: 0.2
    }
  }
}
layer {
  name: "inception_3b/relu_3x3"
  type: "ReLU"
  bottom: "inception_3b/3x3"
  top: "inception_3b/3x3"
}
layer {
  name: "inception_3b/5x5_reduce"
  type: "Convolution"
  bottom: "inception_3a/output"
  top: "inception_3b/5x5_reduce"
  param {
    lr_mult: 1
    decay_mult: 1
  }
  param {
    lr_mult: 2
    decay_mult: 0
  }
  convolution_param {
    num_output: 32
    kernel_size: 1
    weight_filler {
      type: "xavier"
    }
    bias_filler {
      type: "constant"
      value: 0.2
    }
  }
}
layer {
  name: "inception_3b/relu_5x5_reduce"
  type: "ReLU"
  bottom: "inception_3b/5x5_reduce"
  top: "inception_3b/5x5_reduce"
}
layer {
  name: "inception_3b/5x5"
  type: "Convolution"
  bottom: "inception_3b/5x5_reduce"
  top: "inception_3b/5x5"
  param {
    lr_mult: 1
    decay_mult: 1
  }
  param {
    lr_mult: 2
    decay_mult: 0
  }
  convolution_param {
    num_output: 96
    pad: 2
    kernel_size: 5
    weight_filler {
      type: "xavier"
    }
    bias_filler {
      type: "constant"
      value: 0.2
    }
  }
}
layer {
  name: "inception_3b/relu_5x5"
  type: "ReLU"
  bottom: "inception_3b/5x5"
  top: "inception_3b/5x5"
}
layer {
  name: "inception_3b/pool"
  type: "Pooling"
  bottom: "inception_3a/output"
  top: "inception_3b/pool"
  pooling_param {
    pool: MAX
    kernel_size: 3
    stride: 1
    pad: 1
  }
}
layer {
  name: "inception_3b/pool_proj"
  type: "Convolution"
  bottom: "inception_3b/pool"
  top: "inception_3b/pool_proj"
  param {
    lr_mult: 1
    decay_mult: 1
  }
  param {
    lr_mult: 2
    decay_mult: 0
  }
  convolution_param {
    num_output: 64
    kernel_size: 1
    weight_filler {
      type: "xavier"
    }
    bias_filler {
      type: "constant"
      value: 0.2
    }
  }
}
layer {
  name: "inception_3b/relu_pool_proj"
  type: "ReLU"
  bottom: "inception_3b/pool_proj"
  top: "inception_3b/pool_proj"
}
layer {
  name: "inception_3b/output"
  type: "Concat"
  bottom: "inception_3b/1x1"
  bottom: "inception_3b/3x3"
  bottom: "inception_3b/5x5"
  bottom: "inception_3b/pool_proj"
  top: "inception_3b/output"
}
layer {
  name: "pool3/3x3_s2"
  type: "Pooling"
  bottom: "inception_3b/output"
  top: "pool3/3x3_s2"
  pooling_param {
    pool: MAX
    kernel_size: 3
    stride: 2
  }
}
layer {
  name: "inception_4a/1x1"
  type: "Convolution"
  bottom: "pool3/3x3_s2"
  top: "inception_4a/1x1"
  param {
    lr_mult: 1
    decay_mult: 1
  }
  param {
    lr_mult: 2
    decay_mult: 0
  }
  convolution_param {
    num_output: 192
    kernel_size: 1
    weight_filler {
      type: "xavier"
    }
    bias_filler {
      type: "constant"
      value: 0.2
    }
  }
}
layer {
  name: "inception_4a/relu_1x1"
  type: "ReLU"
  bottom: "inception_4a/1x1"
  top: "inception_4a/1x1"
}
layer {
  name: "inception_4a/3x3_reduce"
  type: "Convolution"
  bottom: "pool3/3x3_s2"
  top: "inception_4a/3x3_reduce"
  param {
    lr_mult: 1
    decay_mult: 1
  }
  param {
    lr_mult: 2
    decay_mult: 0
  }
  convolution_param {
    num_output: 96
    kernel_size: 1
    weight_filler {
      type: "xavier"
    }
    bias_filler {
      type: "constant"
      value: 0.2
    }
  }
}
layer {
  name: "inception_4a/relu_3x3_reduce"
  type: "ReLU"
  bottom: "inception_4a/3x3_reduce"
  top: "inception_4a/3x3_reduce"
}
layer {
  name: "inception_4a/3x3"
  type: "Convolution"
  bottom: "inception_4a/3x3_reduce"
  top: "inception_4a/3x3"
  param {
    lr_mult: 1
    decay_mult: 1
  }
  param {
    lr_mult: 2
    decay_mult: 0
  }
  convolution_param {
    num_output: 208
    pad: 1
    kernel_size: 3
    weight_filler {
      type: "xavier"
    }
    bias_filler {
      type: "constant"
      value: 0.2
    }
  }
}
layer {
  name: "inception_4a/relu_3x3"
  type: "ReLU"
  bottom: "inception_4a/3x3"
  top: "inception_4a/3x3"
}
layer {
  name: "inception_4a/5x5_reduce"
  type: "Convolution"
  bottom: "pool3/3x3_s2"
  top: "inception_4a/5x5_reduce"
  param {
    lr_mult: 1
    decay_mult: 1
  }
  param {
    lr_mult: 2
    decay_mult: 0
  }
  convolution_param {
    num_output: 16
    kernel_size: 1
    weight_filler {
      type: "xavier"
    }
    bias_filler {
      type: "constant"
      value: 0.2
    }
  }
}
layer {
  name: "inception_4a/relu_5x5_reduce"
  type: "ReLU"
  bottom: "inception_4a/5x5_reduce"
  top: "inception_4a/5x5_reduce"
}
layer {
  name: "inception_4a/5x5"
  type: "Convolution"
  bottom: "inception_4a/5x5_reduce"
  top: "inception_4a/5x5"
  param {
    lr_mult: 1
    decay_mult: 1
  }
  param {
    lr_mult: 2
    decay_mult: 0
  }
  convolution_param {
    num_output: 48
    pad: 2
    kernel_size: 5
    weight_filler {
      type: "xavier"
    }
    bias_filler {
      type: "constant"
      value: 0.2
    }
  }
}
layer {
  name: "inception_4a/relu_5x5"
  type: "ReLU"
  bottom: "inception_4a/5x5"
  top: "inception_4a/5x5"
}
layer {
  name: "inception_4a/pool"
  type: "Pooling"
  bottom: "pool3/3x3_s2"
  top: "inception_4a/pool"
  pooling_param {
    pool: MAX
    kernel_size: 3
    stride: 1
    pad: 1
  }
}
layer {
  name: "inception_4a/pool_proj"
  type: "Convolution"
  bottom: "inception_4a/pool"
  top: "inception_4a/pool_proj"
  param {
    lr_mult: 1
    decay_mult: 1
  }
  param {
    lr_mult: 2
    decay_mult: 0
  }
  convolution_param {
    num_output: 64
    kernel_size: 1
    weight_filler {
      type: "xavier"
    }
    bias_filler {
      type: "constant"
      value: 0.2
    }
  }
}
layer {
  name: "inception_4a/relu_pool_proj"
  type: "ReLU"
  bottom: "inception_4a/pool_proj"
  top: "inception_4a/pool_proj"
}
layer {
  name: "inception_4a/output"
  type: "Concat"
  bottom: "inception_4a/1x1"
  bottom: "inception_4a/3x3"
  bottom: "inception_4a/5x5"
  bottom: "inception_4a/pool_proj"
  top: "inception_4a/output"
}
layer {
  name: "loss1/ave_pool"
  type: "Pooling"
  bottom: "inception_4a/output"
  top: "loss1/ave_pool"
  pooling_param {
    pool: AVE
    kernel_size: 5
    stride: 3
  }
}
layer {
  name: "loss1/conv"
  type: "Convolution"
  bottom: "loss1/ave_pool"
  top: "loss1/conv"
  param {
    lr_mult: 1
    decay_mult: 1
  }
  param {
    lr_mult: 2
    decay_mult: 0
  }
  convolution_param {
    num_output: 128
    kernel_size: 1
    weight_filler {
      type: "xavier"
    }
    bias_filler {
      type: "constant"
      value: 0.2
    }
  }
}
layer {
  name: "loss1/relu_conv"
  type: "ReLU"
  bottom: "loss1/conv"
  top: "loss1/conv"
}
layer {
  name: "loss1/fc"
  type: "InnerProduct"
  bottom: "loss1/conv"
  top: "loss1/fc"
  param {
    lr_mult: 1
    decay_mult: 1
  }
  param {
    lr_mult: 2
    decay_mult: 0
  }
  inner_product_param {
    num_output: 1024
    weight_filler {
      type: "xavier"
    }
    bias_filler {
      type: "constant"
      value: 0.2
    }
  }
}
layer {
  name: "loss1/relu_fc"
  type: "ReLU"
  bottom: "loss1/fc"
  top: "loss1/fc"
}
layer {
  name: "loss1/drop_fc"
  type: "Dropout"
  bottom: "loss1/fc"
  top: "loss1/fc"
  dropout_param {
    dropout_ratio: 0.7
  }
}
layer {
  name: "loss1/classifier_kaggle"
  type: "InnerProduct"
  bottom: "loss1/fc"
  top: "loss1/classifier_kaggle"
  param {
    lr_mult: 1
    decay_mult: 1
  }
  param {
    lr_mult: 2
    decay_mult: 0
  }
  inner_product_param {
    num_output: 447
    weight_filler {
      type: "xavier"
    }
    bias_filler {
      type: "constant"
      value: 0
    }
  }
}
layer {
  name: "loss1/loss"
  type: "SoftmaxWithLoss"
  bottom: "loss1/classifier_kaggle"
  bottom: "label"
  top: "loss1/loss1"
  loss_weight: 0.3
}
layer {
  name: "loss1/top-1"
  type: "Accuracy"
  bottom: "loss1/classifier_kaggle"
  bottom: "label"
  top: "loss1/top-1"
  include {
    phase: TEST
  }
}
layer {
  name: "loss1/top-5"
  type: "Accuracy"
  bottom: "loss1/classifier_kaggle"
  bottom: "label"
  top: "loss1/top-5"
  include {
    phase: TEST
  }
  accuracy_param {
    top_k: 5
  }
}
layer {
  name: "inception_4b/1x1"
  type: "Convolution"
  bottom: "inception_4a/output"
  top: "inception_4b/1x1"
  param {
    lr_mult: 1
    decay_mult: 1
  }
  param {
    lr_mult: 2
    decay_mult: 0
  }
  convolution_param {
    num_output: 160
    kernel_size: 1
    weight_filler {
      type: "xavier"
    }
    bias_filler {
      type: "constant"
      value: 0.2
    }
  }
}
layer {
  name: "inception_4b/relu_1x1"
  type: "ReLU"
  bottom: "inception_4b/1x1"
  top: "inception_4b/1x1"
}
layer {
  name: "inception_4b/3x3_reduce"
  type: "Convolution"
  bottom: "inception_4a/output"
  top: "inception_4b/3x3_reduce"
  param {
    lr_mult: 1
    decay_mult: 1
  }
  param {
    lr_mult: 2
    decay_mult: 0
  }
  convolution_param {
    num_output: 112
    kernel_size: 1
    weight_filler {
      type: "xavier"
    }
    bias_filler {
      type: "constant"
      value: 0.2
    }
  }
}
layer {
  name: "inception_4b/relu_3x3_reduce"
  type: "ReLU"
  bottom: "inception_4b/3x3_reduce"
  top: "inception_4b/3x3_reduce"
}
layer {
  name: "inception_4b/3x3"
  type: "Convolution"
  bottom: "inception_4b/3x3_reduce"
  top: "inception_4b/3x3"
  param {
    lr_mult: 1
    decay_mult: 1
  }
  param {
    lr_mult: 2
    decay_mult: 0
  }
  convolution_param {
    num_output: 224
    pad: 1
    kernel_size: 3
    weight_filler {
      type: "xavier"
    }
    bias_filler {
      type: "constant"
      value: 0.2
    }
  }
}
layer {
  name: "inception_4b/relu_3x3"
  type: "ReLU"
  bottom: "inception_4b/3x3"
  top: "inception_4b/3x3"
}
layer {
  name: "inception_4b/5x5_reduce"
  type: "Convolution"
  bottom: "inception_4a/output"
  top: "inception_4b/5x5_reduce"
  param {
    lr_mult: 1
    decay_mult: 1
  }
  param {
    lr_mult: 2
    decay_mult: 0
  }
  convolution_param {
    num_output: 24
    kernel_size: 1
    weight_filler {
      type: "xavier"
    }
    bias_filler {
      type: "constant"
      value: 0.2
    }
  }
}
layer {
  name: "inception_4b/relu_5x5_reduce"
  type: "ReLU"
  bottom: "inception_4b/5x5_reduce"
  top: "inception_4b/5x5_reduce"
}
layer {
  name: "inception_4b/5x5"
  type: "Convolution"
  bottom: "inception_4b/5x5_reduce"
  top: "inception_4b/5x5"
  param {
    lr_mult: 1
    decay_mult: 1
  }
  param {
    lr_mult: 2
    decay_mult: 0
  }
  convolution_param {
    num_output: 64
    pad: 2
    kernel_size: 5
    weight_filler {
      type: "xavier"
    }
    bias_filler {
      type: "constant"
      value: 0.2
    }
  }
}
layer {
  name: "inception_4b/relu_5x5"
  type: "ReLU"
  bottom: "inception_4b/5x5"
  top: "inception_4b/5x5"
}
layer {
  name: "inception_4b/pool"
  type: "Pooling"
  bottom: "inception_4a/output"
  top: "inception_4b/pool"
  pooling_param {
    pool: MAX
    kernel_size: 3
    stride: 1
    pad: 1
  }
}
layer {
  name: "inception_4b/pool_proj"
  type: "Convolution"
  bottom: "inception_4b/pool"
  top: "inception_4b/pool_proj"
  param {
    lr_mult: 1
    decay_mult: 1
  }
  param {
    lr_mult: 2
    decay_mult: 0
  }
  convolution_param {
    num_output: 64
    kernel_size: 1
    weight_filler {
      type: "xavier"
    }
    bias_filler {
      type: "constant"
      value: 0.2
    }
  }
}
layer {
  name: "inception_4b/relu_pool_proj"
  type: "ReLU"
  bottom: "inception_4b/pool_proj"
  top: "inception_4b/pool_proj"
}
layer {
  name: "inception_4b/output"
  type: "Concat"
  bottom: "inception_4b/1x1"
  bottom: "inception_4b/3x3"
  bottom: "inception_4b/5x5"
  bottom: "inception_4b/pool_proj"
  top: "inception_4b/output"
}
layer {
  name: "inception_4c/1x1"
  type: "Convolution"
  bottom: "inception_4b/output"
  top: "inception_4c/1x1"
  param {
    lr_mult: 1
    decay_mult: 1
  }
  param {
    lr_mult: 2
    decay_mult: 0
  }
  convolution_param {
    num_output: 128
    kernel_size: 1
    weight_filler {
      type: "xavier"
    }
    bias_filler {
      type: "constant"
      value: 0.2
    }
  }
}
layer {
  name: "inception_4c/relu_1x1"
  type: "ReLU"
  bottom: "inception_4c/1x1"
  top: "inception_4c/1x1"
}
layer {
  name: "inception_4c/3x3_reduce"
  type: "Convolution"
  bottom: "inception_4b/output"
  top: "inception_4c/3x3_reduce"
  param {
    lr_mult: 1
    decay_mult: 1
  }
  param {
    lr_mult: 2
    decay_mult: 0
  }
  convolution_param {
    num_output: 128
    kernel_size: 1
    weight_filler {
      type: "xavier"
    }
    bias_filler {
      type: "constant"
      value: 0.2
    }
  }
}
layer {
  name: "inception_4c/relu_3x3_reduce"
  type: "ReLU"
  bottom: "inception_4c/3x3_reduce"
  top: "inception_4c/3x3_reduce"
}
layer {
  name: "inception_4c/3x3"
  type: "Convolution"
  bottom: "inception_4c/3x3_reduce"
  top: "inception_4c/3x3"
  param {
    lr_mult: 1
    decay_mult: 1
  }
  param {
    lr_mult: 2
    decay_mult: 0
  }
  convolution_param {
    num_output: 256
    pad: 1
    kernel_size: 3
    weight_filler {
      type: "xavier"
    }
    bias_filler {
      type: "constant"
      value: 0.2
    }
  }
}
layer {
  name: "inception_4c/relu_3x3"
  type: "ReLU"
  bottom: "inception_4c/3x3"
  top: "inception_4c/3x3"
}
layer {
  name: "inception_4c/5x5_reduce"
  type: "Convolution"
  bottom: "inception_4b/output"
  top: "inception_4c/5x5_reduce"
  param {
    lr_mult: 1
    decay_mult: 1
  }
  param {
    lr_mult: 2
    decay_mult: 0
  }
  convolution_param {
    num_output: 24
    kernel_size: 1
    weight_filler {
      type: "xavier"
    }
    bias_filler {
      type: "constant"
      value: 0.2
    }
  }
}
layer {
  name: "inception_4c/relu_5x5_reduce"
  type: "ReLU"
  bottom: "inception_4c/5x5_reduce"
  top: "inception_4c/5x5_reduce"
}
layer {
  name: "inception_4c/5x5"
  type: "Convolution"
  bottom: "inception_4c/5x5_reduce"
  top: "inception_4c/5x5"
  param {
    lr_mult: 1
    decay_mult: 1
  }
  param {
    lr_mult: 2
    decay_mult: 0
  }
  convolution_param {
    num_output: 64
    pad: 2
    kernel_size: 5
    weight_filler {
      type: "xavier"
    }
    bias_filler {
      type: "constant"
      value: 0.2
    }
  }
}
layer {
  name: "inception_4c/relu_5x5"
  type: "ReLU"
  bottom: "inception_4c/5x5"
  top: "inception_4c/5x5"
}
layer {
  name: "inception_4c/pool"
  type: "Pooling"
  bottom: "inception_4b/output"
  top: "inception_4c/pool"
  pooling_param {
    pool: MAX
    kernel_size: 3
    stride: 1
    pad: 1
  }
}
layer {
  name: "inception_4c/pool_proj"
  type: "Convolution"
  bottom: "inception_4c/pool"
  top: "inception_4c/pool_proj"
  param {
    lr_mult: 1
    decay_mult: 1
  }
  param {
    lr_mult: 2
    decay_mult: 0
  }
  convolution_param {
    num_output: 64
    kernel_size: 1
    weight_filler {
      type: "xavier"
    }
    bias_filler {
      type: "constant"
      value: 0.2
    }
  }
}
layer {
  name: "inception_4c/relu_pool_proj"
  type: "ReLU"
  bottom: "inception_4c/pool_proj"
  top: "inception_4c/pool_proj"
}
layer {
  name: "inception_4c/output"
  type: "Concat"
  bottom: "inception_4c/1x1"
  bottom: "inception_4c/3x3"
  bottom: "inception_4c/5x5"
  bottom: "inception_4c/pool_proj"
  top: "inception_4c/output"
}
layer {
  name: "inception_4d/1x1"
  type: "Convolution"
  bottom: "inception_4c/output"
  top: "inception_4d/1x1"
  param {
    lr_mult: 1
    decay_mult: 1
  }
  param {
    lr_mult: 2
    decay_mult: 0
  }
  convolution_param {
    num_output: 112
    kernel_size: 1
    weight_filler {
      type: "xavier"
    }
    bias_filler {
      type: "constant"
      value: 0.2
    }
  }
}
layer {
  name: "inception_4d/relu_1x1"
  type: "ReLU"
  bottom: "inception_4d/1x1"
  top: "inception_4d/1x1"
}
layer {
  name: "inception_4d/3x3_reduce"
  type: "Convolution"
  bottom: "inception_4c/output"
  top: "inception_4d/3x3_reduce"
  param {
    lr_mult: 1
    decay_mult: 1
  }
  param {
    lr_mult: 2
    decay_mult: 0
  }
  convolution_param {
    num_output: 144
    kernel_size: 1
    weight_filler {
      type: "xavier"
    }
    bias_filler {
      type: "constant"
      value: 0.2
    }
  }
}
layer {
  name: "inception_4d/relu_3x3_reduce"
  type: "ReLU"
  bottom: "inception_4d/3x3_reduce"
  top: "inception_4d/3x3_reduce"
}
layer {
  name: "inception_4d/3x3"
  type: "Convolution"
  bottom: "inception_4d/3x3_reduce"
  top: "inception_4d/3x3"
  param {
    lr_mult: 1
    decay_mult: 1
  }
  param {
    lr_mult: 2
    decay_mult: 0
  }
  convolution_param {
    num_output: 288
    pad: 1
    kernel_size: 3
    weight_filler {
      type: "xavier"
    }
    bias_filler {
      type: "constant"
      value: 0.2
    }
  }
}
layer {
  name: "inception_4d/relu_3x3"
  type: "ReLU"
  bottom: "inception_4d/3x3"
  top: "inception_4d/3x3"
}
layer {
  name: "inception_4d/5x5_reduce"
  type: "Convolution"
  bottom: "inception_4c/output"
  top: "inception_4d/5x5_reduce"
  param {
    lr_mult: 1
    decay_mult: 1
  }
  param {
    lr_mult: 2
    decay_mult: 0
  }
  convolution_param {
    num_output: 32
    kernel_size: 1
    weight_filler {
      type: "xavier"
    }
    bias_filler {
      type: "constant"
      value: 0.2
    }
  }
}
layer {
  name: "inception_4d/relu_5x5_reduce"
  type: "ReLU"
  bottom: "inception_4d/5x5_reduce"
  top: "inception_4d/5x5_reduce"
}
layer {
  name: "inception_4d/5x5"
  type: "Convolution"
  bottom: "inception_4d/5x5_reduce"
  top: "inception_4d/5x5"
  param {
    lr_mult: 1
    decay_mult: 1
  }
  param {
    lr_mult: 2
    decay_mult: 0
  }
  convolution_param {
    num_output: 64
    pad: 2
    kernel_size: 5
    weight_filler {
      type: "xavier"
    }
    bias_filler {
      type: "constant"
      value: 0.2
    }
  }
}
layer {
  name: "inception_4d/relu_5x5"
  type: "ReLU"
  bottom: "inception_4d/5x5"
  top: "inception_4d/5x5"
}
layer {
  name: "inception_4d/pool"
  type: "Pooling"
  bottom: "inception_4c/output"
  top: "inception_4d/pool"
  pooling_param {
    pool: MAX
    kernel_size: 3
    stride: 1
    pad: 1
  }
}
layer {
  name: "inception_4d/pool_proj"
  type: "Convolution"
  bottom: "inception_4d/pool"
  top: "inception_4d/pool_proj"
  param {
    lr_mult: 1
    decay_mult: 1
  }
  param {
    lr_mult: 2
    decay_mult: 0
  }
  convolution_param {
    num_output: 64
    kernel_size: 1
    weight_filler {
      type: "xavier"
    }
    bias_filler {
      type: "constant"
      value: 0.2
    }
  }
}
layer {
  name: "inception_4d/relu_pool_proj"
  type: "ReLU"
  bottom: "inception_4d/pool_proj"
  top: "inception_4d/pool_proj"
}
layer {
  name: "inception_4d/output"
  type: "Concat"
  bottom: "inception_4d/1x1"
  bottom: "inception_4d/3x3"
  bottom: "inception_4d/5x5"
  bottom: "inception_4d/pool_proj"
  top: "inception_4d/output"
}
layer {
  name: "loss2/ave_pool"
  type: "Pooling"
  bottom: "inception_4d/output"
  top: "loss2/ave_pool"
  pooling_param {
    pool: AVE
    kernel_size: 5
    stride: 3
  }
}
layer {
…
I0106 23:18:35.230337 16874 net.cpp:84] Creating Layer inception_4c/1x1
I0106 23:18:35.230345 16874 net.cpp:380] inception_4c/1x1 <- inception_4b/output_inception_4b/output_0_split_0
I0106 23:18:35.230355 16874 net.cpp:338] inception_4c/1x1 -> inception_4c/1x1
I0106 23:18:35.230365 16874 net.cpp:113] Setting up inception_4c/1x1
I0106 23:18:35.231946 16874 net.cpp:120] Top shape: 50 128 14 14 (1254400)
I0106 23:18:35.231968 16874 layer_factory.hpp:74] Creating layer inception_4c/relu_1x1
I0106 23:18:35.231979 16874 net.cpp:84] Creating Layer inception_4c/relu_1x1
I0106 23:18:35.231987 16874 net.cpp:380] inception_4c/relu_1x1 <- inception_4c/1x1
I0106 23:18:35.232007 16874 net.cpp:327] inception_4c/relu_1x1 -> inception_4c/1x1 (in-place)
I0106 23:18:35.232028 16874 net.cpp:113] Setting up inception_4c/relu_1x1
I0106 23:18:35.232331 16874 net.cpp:120] Top shape: 50 128 14 14 (1254400)
I0106 23:18:35.232348 16874 layer_factory.hpp:74] Creating layer inception_4c/3x3_reduce
I0106 23:18:35.232362 16874 net.cpp:84] Creating Layer inception_4c/3x3_reduce
I0106 23:18:35.232372 16874 net.cpp:380] inception_4c/3x3_reduce <- inception_4b/output_inception_4b/output_0_split_1
I0106 23:18:35.232383 16874 net.cpp:338] inception_4c/3x3_reduce -> inception_4c/3x3_reduce
I0106 23:18:35.232395 16874 net.cpp:113] Setting up inception_4c/3x3_reduce
I0106 23:18:35.233983 16874 net.cpp:120] Top shape: 50 128 14 14 (1254400)
I0106 23:18:35.234004 16874 layer_factory.hpp:74] Creating layer inception_4c/relu_3x3_reduce
I0106 23:18:35.234015 16874 net.cpp:84] Creating Layer inception_4c/relu_3x3_reduce
I0106 23:18:35.234024 16874 net.cpp:380] inception_4c/relu_3x3_reduce <- inception_4c/3x3_reduce
I0106 23:18:35.234035 16874 net.cpp:327] inception_4c/relu_3x3_reduce -> inception_4c/3x3_reduce (in-place)
I0106 23:18:35.234047 16874 net.cpp:113] Setting up inception_4c/relu_3x3_reduce
I0106 23:18:35.234148 16874 net.cpp:120] Top shape: 50 128 14 14 (1254400)
I0106 23:18:35.234156 16874 layer_factory.hpp:74] Creating layer inception_4c/3x3
I0106 23:18:35.234170 16874 net.cpp:84] Creating Layer inception_4c/3x3
I0106 23:18:35.234177 16874 net.cpp:380] inception_4c/3x3 <- inception_4c/3x3_reduce
I0106 23:18:35.234189 16874 net.cpp:338] inception_4c/3x3 -> inception_4c/3x3
I0106 23:18:35.234201 16874 net.cpp:113] Setting up inception_4c/3x3
I0106 23:18:35.239419 16874 net.cpp:120] Top shape: 50 256 14 14 (2508800)
I0106 23:18:35.239454 16874 layer_factory.hpp:74] Creating layer inception_4c/relu_3x3
I0106 23:18:35.239467 16874 net.cpp:84] Creating Layer inception_4c/relu_3x3
I0106 23:18:35.239475 16874 net.cpp:380] inception_4c/relu_3x3 <- inception_4c/3x3
I0106 23:18:35.239486 16874 net.cpp:327] inception_4c/relu_3x3 -> inception_4c/3x3 (in-place)
I0106 23:18:35.239497 16874 net.cpp:113] Setting up inception_4c/relu_3x3
I0106 23:18:35.239598 16874 net.cpp:120] Top shape: 50 256 14 14 (2508800)
I0106 23:18:35.239608 16874 layer_factory.hpp:74] Creating layer inception_4c/5x5_reduce
I0106 23:18:35.239619 16874 net.cpp:84] Creating Layer inception_4c/5x5_reduce
I0106 23:18:35.239626 16874 net.cpp:380] inception_4c/5x5_reduce <- inception_4b/output_inception_4b/output_0_split_2
I0106 23:18:35.239639 16874 net.cpp:338] inception_4c/5x5_reduce -> inception_4c/5x5_reduce
I0106 23:18:35.239650 16874 net.cpp:113] Setting up inception_4c/5x5_reduce
I0106 23:18:35.240376 16874 net.cpp:120] Top shape: 50 24 14 14 (235200)
I0106 23:18:35.240396 16874 layer_factory.hpp:74] Creating layer inception_4c/relu_5x5_reduce
I0106 23:18:35.240407 16874 net.cpp:84] Creating Layer inception_4c/relu_5x5_reduce
I0106 23:18:35.240416 16874 net.cpp:380] inception_4c/relu_5x5_reduce <- inception_4c/5x5_reduce
I0106 23:18:35.240425 16874 net.cpp:327] inception_4c/relu_5x5_reduce -> inception_4c/5x5_reduce (in-place)
I0106 23:18:35.240437 16874 net.cpp:113] Setting up inception_4c/relu_5x5_reduce
I0106 23:18:35.240738 16874 net.cpp:120] Top shape: 50 24 14 14 (235200)
I0106 23:18:35.240752 16874 layer_factory.hpp:74] Creating layer inception_4c/5x5
I0106 23:18:35.240767 16874 net.cpp:84] Creating Layer inception_4c/5x5
I0106 23:18:35.240774 16874 net.cpp:380] inception_4c/5x5 <- inception_4c/5x5_reduce
I0106 23:18:35.240787 16874 net.cpp:338] inception_4c/5x5 -> inception_4c/5x5
I0106 23:18:35.240800 16874 net.cpp:113] Setting up inception_4c/5x5
I0106 23:18:35.241963 16874 net.cpp:120] Top shape: 50 64 14 14 (627200)
I0106 23:18:35.241994 16874 layer_factory.hpp:74] Creating layer inception_4c/relu_5x5
I0106 23:18:35.242007 16874 net.cpp:84] Creating Layer inception_4c/relu_5x5
I0106 23:18:35.242014 16874 net.cpp:380] inception_4c/relu_5x5 <- inception_4c/5x5
I0106 23:18:35.242024 16874 net.cpp:327] inception_4c/relu_5x5 -> inception_4c/5x5 (in-place)
I0106 23:18:35.242040 16874 net.cpp:113] Setting up inception_4c/relu_5x5
I0106 23:18:35.242146 16874 net.cpp:120] Top shape: 50 64 14 14 (627200)
I0106 23:18:35.242158 16874 layer_factory.hpp:74] Creating layer inception_4c/pool
I0106 23:18:35.242166 16874 layer_factory.cpp:56] CUDNN does not support padding or multiple tops. Using Caffe's own pooling layer.
I0106 23:18:35.242174 16874 net.cpp:84] Creating Layer inception_4c/pool
I0106 23:18:35.242182 16874 net.cpp:380] inception_4c/pool <- inception_4b/output_inception_4b/output_0_split_3
I0106 23:18:35.242193 16874 net.cpp:338] inception_4c/pool -> inception_4c/pool
I0106 23:18:35.242204 16874 net.cpp:113] Setting up inception_4c/pool
I0106 23:18:35.242215 16874 net.cpp:120] Top shape: 50 512 14 14 (5017600)
I0106 23:18:35.242223 16874 layer_factory.hpp:74] Creating layer inception_4c/pool_proj
I0106 23:18:35.242233 16874 net.cpp:84] Creating Layer inception_4c/pool_proj
I0106 23:18:35.242240 16874 net.cpp:380] inception_4c/pool_proj <- inception_4c/pool
I0106 23:18:35.242252 16874 net.cpp:338] inception_4c/pool_proj -> inception_4c/pool_proj
I0106 23:18:35.242262 16874 net.cpp:113] Setting up inception_4c/pool_proj
I0106 23:18:35.243263 16874 net.cpp:120] Top shape: 50 64 14 14 (627200)
I0106 23:18:35.243283 16874 layer_factory.hpp:74] Creating layer inception_4c/relu_pool_proj
I0106 23:18:35.243293 16874 net.cpp:84] Creating Layer inception_4c/relu_pool_proj
I0106 23:18:35.243300 16874 net.cpp:380] inception_4c/relu_pool_proj <- inception_4c/pool_proj
I0106 23:18:35.243309 16874 net.cpp:327] inception_4c/relu_pool_proj -> inception_4c/pool_proj (in-place)
I0106 23:18:35.243320 16874 net.cpp:113] Setting up inception_4c/relu_pool_proj
I0106 23:18:35.243412 16874 net.cpp:120] Top shape: 50 64 14 14 (627200)
I0106 23:18:35.243422 16874 layer_factory.hpp:74] Creating layer inception_4c/output
I0106 23:18:35.243430 16874 net.cpp:84] Creating Layer inception_4c/output
I0106 23:18:35.243438 16874 net.cpp:380] inception_4c/output <- inception_4c/1x1
I0106 23:18:35.243445 16874 net.cpp:380] inception_4c/output <- inception_4c/3x3
I0106 23:18:35.243453 16874 net.cpp:380] inception_4c/output <- inception_4c/5x5
I0106 23:18:35.243461 16874 net.cpp:380] inception_4c/output <- inception_4c/pool_proj
I0106 23:18:35.243469 16874 net.cpp:338] inception_4c/output -> inception_4c/output
I0106 23:18:35.243479 16874 net.cpp:113] Setting up inception_4c/output
I0106 23:18:35.243490 16874 net.cpp:120] Top shape: 50 512 14 14 (5017600)
I0106 23:18:35.243497 16874 layer_factory.hpp:74] Creating layer inception_4c/output_inception_4c/output_0_split
I0106 23:18:35.243506 16874 net.cpp:84] Creating Layer inception_4c/output_inception_4c/output_0_split
I0106 23:18:35.243513 16874 net.cpp:380] inception_4c/output_inception_4c/output_0_split <- inception_4c/output
I0106 23:18:35.243523 16874 net.cpp:338] inception_4c/output_inception_4c/output_0_split -> inception_4c/output_inception_4c/output_0_split_0
I0106 23:18:35.243535 16874 net.cpp:338] inception_4c/output_inception_4c/output_0_split -> inception_4c/output_inception_4c/output_0_split_1
I0106 23:18:35.243544 16874 net.cpp:338] inception_4c/output_inception_4c/output_0_split -> inception_4c/output_inception_4c/output_0_split_2
I0106 23:18:35.243554 16874 net.cpp:338] inception_4c/output_inception_4c/output_0_split -> inception_4c/output_inception_4c/output_0_split_3
I0106 23:18:35.243563 16874 net.cpp:113] Setting up inception_4c/output_inception_4c/output_0_split
I0106 23:18:35.243576 16874 net.cpp:120] Top shape: 50 512 14 14 (5017600)
I0106 23:18:35.243583 16874 net.cpp:120] Top shape: 50 512 14 14 (5017600)
I0106 23:18:35.243592 16874 net.cpp:120] Top shape: 50 512 14 14 (5017600)
I0106 23:18:35.243598 16874 net.cpp:120] Top shape: 50 512 14 14 (5017600)
I0106 23:18:35.243604 16874 layer_factory.hpp:74] Creating layer inception_4d/1x1
I0106 23:18:35.243615 16874 net.cpp:84] Creating Layer inception_4d/1x1
I0106 23:18:35.243623 16874 net.cpp:380] inception_4d/1x1 <- inception_4c/output_inception_4c/output_0_split_0
I0106 23:18:35.243640 16874 net.cpp:338] inception_4d/1x1 -> inception_4d/1x1
I0106 23:18:35.243660 16874 net.cpp:113] Setting up inception_4d/1x1
I0106 23:18:35.245852 16874 net.cpp:120] Top shape: 50 112 14 14 (1097600)
I0106 23:18:35.245879 16874 layer_factory.hpp:74] Creating layer inception_4d/relu_1x1
I0106 23:18:35.245892 16874 net.cpp:84] Creating Layer inception_4d/relu_1x1
I0106 23:18:35.245899 16874 net.cpp:380] inception_4d/relu_1x1 <- inception_4d/1x1
I0106 23:18:35.245909 16874 net.cpp:327] inception_4d/relu_1x1 -> inception_4d/1x1 (in-place)
I0106 23:18:35.245921 16874 net.cpp:113] Setting up inception_4d/relu_1x1
I0106 23:18:35.246017 16874 net.cpp:120] Top shape: 50 112 14 14 (1097600)
I0106 23:18:35.246026 16874 layer_factory.hpp:74] Creating layer inception_4d/3x3_reduce
I0106 23:18:35.246039 16874 net.cpp:84] Creating Layer inception_4d/3x3_reduce
I0106 23:18:35.246047 16874 net.cpp:380] inception_4d/3x3_reduce <- inception_4c/output_inception_4c/output_0_split_1
I0106 23:18:35.246059 16874 net.cpp:338] inception_4d/3x3_reduce -> inception_4d/3x3_reduce
I0106 23:18:35.246074 16874 net.cpp:113] Setting up inception_4d/3x3_reduce
I0106 23:18:35.247716 16874 net.cpp:120] Top shape: 50 144 14 14 (1411200)
I0106 23:18:35.247737 16874 layer_factory.hpp:74] Creating layer inception_4d/relu_3x3_reduce
I0106 23:18:35.247747 16874 net.cpp:84] Creating Layer inception_4d/relu_3x3_reduce
I0106 23:18:35.247756 16874 net.cpp:380] inception_4d/relu_3x3_reduce <- inception_4d/3x3_reduce
I0106 23:18:35.247766 16874 net.cpp:327] inception_4d/relu_3x3_reduce -> inception_4d/3x3_reduce (in-place)
I0106 23:18:35.247776 16874 net.cpp:113] Setting up inception_4d/relu_3x3_reduce
I0106 23:18:35.248076 16874 net.cpp:120] Top shape: 50 144 14 14 (1411200)
I0106 23:18:35.248090 16874 layer_factory.hpp:74] Creating layer inception_4d/3x3
I0106 23:18:35.248102 16874 net.cpp:84] Creating Layer inception_4d/3x3
I0106 23:18:35.248111 16874 net.cpp:380] inception_4d/3x3 <- inception_4d/3x3_reduce
I0106 23:18:35.248122 16874 net.cpp:338] inception_4d/3x3 -> inception_4d/3x3
I0106 23:18:35.248134 16874 net.cpp:113] Setting up inception_4d/3x3
I0106 23:18:35.254313 16874 net.cpp:120] Top shape: 50 288 14 14 (2822400)
I0106 23:18:35.254335 16874 layer_factory.hpp:74] Creating layer inception_4d/relu_3x3
I0106 23:18:35.254348 16874 net.cpp:84] Creating Layer inception_4d/relu_3x3
I0106 23:18:35.254356 16874 net.cpp:380] inception_4d/relu_3x3 <- inception_4d/3x3
I0106 23:18:35.254366 16874 net.cpp:327] inception_4d/relu_3x3 -> inception_4d/3x3 (in-place)
I0106 23:18:35.254376 16874 net.cpp:113] Setting up inception_4d/relu_3x3
I0106 23:18:35.254464 16874 net.cpp:120] Top shape: 50 288 14 14 (2822400)
I0106 23:18:35.254473 16874 layer_factory.hpp:74] Creating layer inception_4d/5x5_reduce
I0106 23:18:35.254487 16874 net.cpp:84] Creating Layer inception_4d/5x5_reduce
I0106 23:18:35.254493 16874 net.cpp:380] inception_4d/5x5_reduce <- inception_4c/output_inception_4c/output_0_split_2
I0106 23:18:35.254503 16874 net.cpp:338] inception_4d/5x5_reduce -> inception_4d/5x5_reduce
I0106 23:18:35.254514 16874 net.cpp:113] Setting up inception_4d/5x5_reduce
I0106 23:18:35.255309 16874 net.cpp:120] Top shape: 50 32 14 14 (313600)
I0106 23:18:35.255331 16874 layer_factory.hpp:74] Creating layer inception_4d/relu_5x5_reduce
I0106 23:18:35.255343 16874 net.cpp:84] Creating Layer inception_4d/relu_5x5_reduce
I0106 23:18:35.255352 16874 net.cpp:380] inception_4d/relu_5x5_reduce <- inception_4d/5x5_reduce
I0106 23:18:35.255360 16874 net.cpp:327] inception_4d/relu_5x5_reduce -> inception_4d/5x5_reduce (in-place)
I0106 23:18:35.255370 16874 net.cpp:113] Setting up inception_4d/relu_5x5_reduce
I0106 23:18:35.255462 16874 net.cpp:120] Top shape: 50 32 14 14 (313600)
I0106 23:18:35.255471 16874 layer_factory.hpp:74] Creating layer inception_4d/5x5
I0106 23:18:35.255484 16874 net.cpp:84] Creating Layer inception_4d/5x5
I0106 23:18:35.255491 16874 net.cpp:380] inception_4d/5x5 <- inception_4d/5x5_reduce
I0106 23:18:35.255503 16874 net.cpp:338] inception_4d/5x5 -> inception_4d/5x5
I0106 23:18:35.255520 16874 net.cpp:113] Setting up inception_4d/5x5
I0106 23:18:35.262431 16874 net.cpp:120] Top shape: 50 64 14 14 (627200)
I0106 23:18:35.262457 16874 layer_factory.hpp:74] Creating layer inception_4d/relu_5x5
I0106 23:18:35.262469 16874 net.cpp:84] Creating Layer inception_4d/relu_5x5
I0106 23:18:35.262480 16874 net.cpp:380] inception_4d/relu_5x5 <- inception_4d/5x5
I0106 23:18:35.262490 16874 net.cpp:327] inception_4d/relu_5x5 -> inception_4d/5x5 (in-place)
I0106 23:18:35.262501 16874 net.cpp:113] Setting up inception_4d/relu_5x5
I0106 23:18:35.262591 16874 net.cpp:120] Top shape: 50 64 14 14 (627200)
I0106 23:18:35.262600 16874 layer_factory.hpp:74] Creating layer inception_4d/pool
I0106 23:18:35.262609 16874 layer_factory.cpp:56] CUDNN does not support padding or multiple tops. Using Caffe's own pooling layer.
I0106 23:18:35.262620 16874 net.cpp:84] Creating Layer inception_4d/pool
I0106 23:18:35.262629 16874 net.cpp:380] inception_4d/pool <- inception_4c/output_inception_4c/output_0_split_3
I0106 23:18:35.262637 16874 net.cpp:338] inception_4d/pool -> inception_4d/pool
I0106 23:18:35.262648 16874 net.cpp:113] Setting up inception_4d/pool
I0106 23:18:35.262661 16874 net.cpp:120] Top shape: 50 512 14 14 (5017600)
I0106 23:18:35.262670 16874 layer_factory.hpp:74] Creating layer inception_4d/pool_proj
I0106 23:18:35.262681 16874 net.cpp:84] Creating Layer inception_4d/pool_proj
I0106 23:18:35.262687 16874 net.cpp:380] inception_4d/pool_proj <- inception_4d/pool
I0106 23:18:35.262698 16874 net.cpp:338] inception_4d/pool_proj -> inception_4d/pool_proj
I0106 23:18:35.262709 16874 net.cpp:113] Setting up inception_4d/pool_proj
I0106 23:18:35.263689 16874 net.cpp:120] Top shape: 50 64 14 14 (627200)
I0106 23:18:35.263708 16874 layer_factory.hpp:74] Creating layer inception_4d/relu_pool_proj
I0106 23:18:35.263720 16874 net.cpp:84] Creating Layer inception_4d/relu_pool_proj
I0106 23:18:35.263728 16874 net.cpp:380] inception_4d/relu_pool_proj <- inception_4d/pool_proj
I0106 23:18:35.263738 16874 net.cpp:327] inception_4d/relu_pool_proj -> inception_4d/pool_proj (in-place)
I0106 23:18:35.263748 16874 net.cpp:113] Setting up inception_4d/relu_pool_proj
I0106 23:18:35.264036 16874 net.cpp:120] Top shape: 50 64 14 14 (627200)
I0106 23:18:35.264050 16874 layer_factory.hpp:74] Creating layer inception_4d/output
I0106 23:18:35.264060 16874 net.cpp:84] Creating Layer inception_4d/output
I0106 23:18:35.264067 16874 net.cpp:380] inception_4d/output <- inception_4d/1x1
I0106 23:18:35.264076 16874 net.cpp:380] inception_4d/output <- inception_4d/3x3
I0106 23:18:35.264084 16874 net.cpp:380] inception_4d/output <- inception_4d/5x5
I0106 23:18:35.264091 16874 net.cpp:380] inception_4d/output <- inception_4d/pool_proj
I0106 23:18:35.264101 16874 net.cpp:338] inception_4d/output -> inception_4d/output
I0106 23:18:35.264112 16874 net.cpp:113] Setting up inception_4d/output
I0106 23:18:35.264123 16874 net.cpp:120] Top shape: 50 528 14 14 (5174400)
I0106 23:18:35.264129 16874 layer_factory.hpp:74] Creating layer inception_4d/output_inception_4d/output_0_split
I0106 23:18:35.264139 16874 net.cpp:84] Creating Layer inception_4d/output_inception_4d/output_0_split
I0106 23:18:35.264145 16874 net.cpp:380] inception_4d/output_inception_4d/output_0_split <- inception_4d/output
I0106 23:18:35.264156 16874 net.cpp:338] inception_4d/output_inception_4d/output_0_split -> inception_4d/output_inception_4d/output_0_split_0
I0106 23:18:35.264166 16874 net.cpp:338] inception_4d/output_inception_4d/output_0_split -> inception_4d/output_inception_4d/output_0_split_1
I0106 23:18:35.264178 16874 net.cpp:338] inception_4d/output_inception_4d/output_0_split -> inception_4d/output_inception_4d/output_0_split_2
I0106 23:18:35.264186 16874 net.cpp:338] inception_4d/output_inception_4d/output_0_split -> inception_4d/output_inception_4d/output_0_split_3
I0106 23:18:35.264195 16874 net.cpp:338] inception_4d/output_inception_4d/output_0_split -> inception_4d/output_inception_4d/output_0_split_4
I0106 23:18:35.264204 16874 net.cpp:113] Setting up inception_4d/output_inception_4d/output_0_split
I0106 23:18:35.264231 16874 net.cpp:120] Top shape: 50 528 14 14 (5174400)
I0106 23:18:35.264240 16874 net.cpp:120] Top shape: 50 528 14 14 (5174400)
I0106 23:18:35.264246 16874 net.cpp:120] Top shape: 50 528 14 14 (5174400)
I0106 23:18:35.264253 16874 net.cpp:120] Top shape: 50 528 14 14 (5174400)
I0106 23:18:35.264261 16874 net.cpp:120] Top shape: 50 528 14 14 (5174400)
I0106 23:18:35.264266 16874 layer_factory.hpp:74] Creating layer loss2/ave_pool
I0106 23:18:35.264278 16874 net.cpp:84] Creating Layer loss2/ave_pool
I0106 23:18:35.264286 16874 net.cpp:380] loss2/ave_pool <- inception_4d/output_inception_4d/output_0_split_0
I0106 23:18:35.264294 16874 net.cpp:338] loss2/ave_pool -> loss2/ave_pool
I0106 23:18:35.264303 16874 net.cpp:113] Setting up loss2/ave_pool
I0106 23:18:35.264400 16874 net.cpp:120] Top shape: 50 528 4 4 (422400)
I0106 23:18:35.264407 16874 layer_factory.hpp:74] Creating layer loss2/conv
I0106 23:18:35.264420 16874 net.cpp:84] Creating Layer loss2/conv
I0106 23:18:35.264427 16874 net.cpp:380] loss2/conv <- loss2/ave_pool
I0106 23:18:35.264437 16874 net.cpp:338] loss2/conv -> loss2/conv
I0106 23:18:35.264451 16874 net.cpp:113] Setting up loss2/conv
I0106 23:18:35.265931 16874 net.cpp:120] Top shape: 50 128 4 4 (102400)
I0106 23:18:35.265952 16874 layer_factory.hpp:74] Creating layer loss2/relu_conv
I0106 23:18:35.265962 16874 net.cpp:84] Creating Layer loss2/relu_conv
I0106 23:18:35.265969 16874 net.cpp:380] loss2/relu_conv <- loss2/conv
I0106 23:18:35.265979 16874 net.cpp:327] loss2/relu_conv -> loss2/conv (in-place)
I0106 23:18:35.265988 16874 net.cpp:113] Setting up loss2/relu_conv
I0106 23:18:35.266077 16874 net.cpp:120] Top shape: 50 128 4 4 (102400)
I0106 23:18:35.266084 16874 layer_factory.hpp:74] Creating layer loss2/fc
I0106 23:18:35.266095 16874 net.cpp:84] Creating Layer loss2/fc
I0106 23:18:35.266103 16874 net.cpp:380] loss2/fc <- loss2/conv
I0106 23:18:35.266113 16874 net.cpp:338] loss2/fc -> loss2/fc
I0106 23:18:35.266124 16874 net.cpp:113] Setting up loss2/fc
I0106 23:18:35.293943 16874 net.cpp:120] Top shape: 50 1024 (51200)
I0106 23:18:35.293963 16874 layer_factory.hpp:74] Creating layer loss2/relu_fc
I0106 23:18:35.293972 16874 net.cpp:84] Creating Layer loss2/relu_fc
I0106 23:18:35.293979 16874 net.cpp:380] loss2/relu_fc <- loss2/fc
I0106 23:18:35.293988 16874 net.cpp:327] loss2/relu_fc -> loss2/fc (in-place)
I0106 23:18:35.293997 16874 net.cpp:113] Setting up loss2/relu_fc
I0106 23:18:35.294093 16874 net.cpp:120] Top shape: 50 1024 (51200)
I0106 23:18:35.294103 16874 layer_factory.hpp:74] Creating layer loss2/drop_fc
I0106 23:18:35.294112 16874 net.cpp:84] Creating Layer loss2/drop_fc
I0106 23:18:35.294118 16874 net.cpp:380] loss2/drop_fc <- loss2/fc
I0106 23:18:35.294127 16874 net.cpp:327] loss2/drop_fc -> loss2/fc (in-place)
I0106 23:18:35.294136 16874 net.cpp:113] Setting up loss2/drop_fc
I0106 23:18:35.294144 16874 net.cpp:120] Top shape: 50 1024 (51200)
I0106 23:18:35.294150 16874 layer_factory.hpp:74] Creating layer loss2/classifier_kaggle
I0106 23:18:35.294160 16874 net.cpp:84] Creating Layer loss2/classifier_kaggle
I0106 23:18:35.294165 16874 net.cpp:380] loss2/classifier_kaggle <- loss2/fc
I0106 23:18:35.294175 16874 net.cpp:338] loss2/classifier_kaggle -> loss2/classifier_kaggle
I0106 23:18:35.294185 16874 net.cpp:113] Setting up loss2/classifier_kaggle
I0106 23:18:35.300129 16874 net.cpp:120] Top shape: 50 447 (22350)
I0106 23:18:35.300143 16874 layer_factory.hpp:74] Creating layer loss2/classifier_kaggle_loss2/classifier_kaggle_0_split
I0106 23:18:35.300151 16874 net.cpp:84] Creating Layer loss2/classifier_kaggle_loss2/classifier_kaggle_0_split
I0106 23:18:35.300158 16874 net.cpp:380] loss2/classifier_kaggle_loss2/classifier_kaggle_0_split <- loss2/classifier_kaggle
I0106 23:18:35.300168 16874 net.cpp:338] loss2/classifier_kaggle_loss2/classifier_kaggle_0_split -> loss2/classifier_kaggle_loss2/classifier_kaggle_0_split_0
I0106 23:18:35.300179 16874 net.cpp:338] loss2/classifier_kaggle_loss2/classifier_kaggle_0_split -> loss2/classifier_kaggle_loss2/classifier_kaggle_0_split_1
I0106 23:18:35.300202 16874 net.cpp:338] loss2/classifier_kaggle_loss2/classifier_kaggle_0_split -> loss2/classifier_kaggle_loss2/classifier_kaggle_0_split_2
I0106 23:18:35.300211 16874 net.cpp:113] Setting up loss2/classifier_kaggle_loss2/classifier_kaggle_0_split
I0106 23:18:35.300220 16874 net.cpp:120] Top shape: 50 447 (22350)
I0106 23:18:35.300227 16874 net.cpp:120] Top shape: 50 447 (22350)
I0106 23:18:35.300233 16874 net.cpp:120] Top shape: 50 447 (22350)
I0106 23:18:35.300240 16874 layer_factory.hpp:74] Creating layer loss2/loss
I0106 23:18:35.300247 16874 net.cpp:84] Creating Layer loss2/loss
I0106 23:18:35.300253 16874 net.cpp:380] loss2/loss <- loss2/classifier_kaggle_loss2/classifier_kaggle_0_split_0
I0106 23:18:35.300267 16874 net.cpp:380] loss2/loss <- label_data_1_split_3
I0106 23:18:35.300276 16874 net.cpp:338] loss2/loss -> loss2/loss1
…
I0106 23:18:35.300791 16874 net.cpp:338] loss2/top-5 -> loss2/top-5
I0106 23:18:35.300801 16874 net.cpp:113] Setting up loss2/top-5
I0106 23:18:35.300807 16874 net.cpp:120] Top shape: (1)
I0106 23:18:35.300813 16874 layer_factory.hpp:74] Creating layer inception_4e/1x1
I0106 23:18:35.300827 16874 net.cpp:84] Creating Layer inception_4e/1x1
I0106 23:18:35.300832 16874 net.cpp:380] inception_4e/1x1 <- inception_4d/output_inception_4d/output_0_split_1
I0106 23:18:35.300842 16874 net.cpp:338] inception_4e/1x1 -> inception_4e/1x1
I0106 23:18:35.300850 16874 net.cpp:113] Setting up inception_4e/1x1
I0106 23:18:35.303084 16874 net.cpp:120] Top shape: 50 256 14 14 (2508800)
I0106 23:18:35.303103 16874 layer_factory.hpp:74] Creating layer inception_4e/relu_1x1
I0106 23:18:35.303114 16874 net.cpp:84] Creating Layer inception_4e/relu_1x1
I0106 23:18:35.303122 16874 net.cpp:380] inception_4e/relu_1x1 <- inception_4e/1x1
I0106 23:18:35.303129 16874 net.cpp:327] inception_4e/relu_1x1 -> inception_4e/1x1 (in-place)
I0106 23:18:35.303138 16874 net.cpp:113] Setting up inception_4e/relu_1x1
I0106 23:18:35.303220 16874 net.cpp:120] Top shape: 50 256 14 14 (2508800)
I0106 23:18:35.303228 16874 layer_factory.hpp:74] Creating layer inception_4e/3x3_reduce
I0106 23:18:35.303261 16874 net.cpp:84] Creating Layer inception_4e/3x3_reduce
I0106 23:18:35.303268 16874 net.cpp:380] inception_4e/3x3_reduce <- inception_4d/output_inception_4d/output_0_split_2
I0106 23:18:35.303278 16874 net.cpp:338] inception_4e/3x3_reduce -> inception_4e/3x3_reduce
I0106 23:18:35.303289 16874 net.cpp:113] Setting up inception_4e/3x3_reduce
I0106 23:18:35.304857 16874 net.cpp:120] Top shape: 50 160 14 14 (1568000)
I0106 23:18:35.304875 16874 layer_factory.hpp:74] Creating layer inception_4e/relu_3x3_reduce
I0106 23:18:35.304884 16874 net.cpp:84] Creating Layer inception_4e/relu_3x3_reduce
I0106 23:18:35.304891 16874 net.cpp:380] inception_4e/relu_3x3_reduce <- inception_4e/3x3_reduce
I0106 23:18:35.304899 16874 net.cpp:327] inception_4e/relu_3x3_reduce -> inception_4e/3x3_reduce (in-place)
I0106 23:18:35.304913 16874 net.cpp:113] Setting up inception_4e/relu_3x3_reduce
I0106 23:18:35.305003 16874 net.cpp:120] Top shape: 50 160 14 14 (1568000)
I0106 23:18:35.305011 16874 layer_factory.hpp:74] Creating layer inception_4e/3x3
I0106 23:18:35.305024 16874 net.cpp:84] Creating Layer inception_4e/3x3
I0106 23:18:35.305030 16874 net.cpp:380] inception_4e/3x3 <- inception_4e/3x3_reduce
I0106 23:18:35.305038 16874 net.cpp:338] inception_4e/3x3 -> inception_4e/3x3
I0106 23:18:35.305048 16874 net.cpp:113] Setting up inception_4e/3x3
I0106 23:18:35.311362 16874 net.cpp:120] Top shape: 50 320 14 14 (3136000)
I0106 23:18:35.311381 16874 layer_factory.hpp:74] Creating layer inception_4e/relu_3x3
I0106 23:18:35.311390 16874 net.cpp:84] Creating Layer inception_4e/relu_3x3
I0106 23:18:35.311396 16874 net.cpp:380] inception_4e/relu_3x3 <- inception_4e/3x3
I0106 23:18:35.311405 16874 net.cpp:327] inception_4e/relu_3x3 -> inception_4e/3x3 (in-place)
I0106 23:18:35.311414 16874 net.cpp:113] Setting up inception_4e/relu_3x3
I0106 23:18:35.311667 16874 net.cpp:120] Top shape: 50 320 14 14 (3136000)
I0106 23:18:35.311681 16874 layer_factory.hpp:74] Creating layer inception_4e/5x5_reduce
I0106 23:18:35.311691 16874 net.cpp:84] Creating Layer inception_4e/5x5_reduce
I0106 23:18:35.311697 16874 net.cpp:380] inception_4e/5x5_reduce <- inception_4d/output_inception_4d/output_0_split_3
I0106 23:18:35.311707 16874 net.cpp:338] inception_4e/5x5_reduce -> inception_4e/5x5_reduce
I0106 23:18:35.311717 16874 net.cpp:113] Setting up inception_4e/5x5_reduce
I0106 23:18:35.312357 16874 net.cpp:120] Top shape: 50 32 14 14 (313600)
I0106 23:18:35.312373 16874 layer_factory.hpp:74] Creating layer inception_4e/relu_5x5_reduce
I0106 23:18:35.312383 16874 net.cpp:84] Creating Layer inception_4e/relu_5x5_reduce
I0106 23:18:35.312391 16874 net.cpp:380] inception_4e/relu_5x5_reduce <- inception_4e/5x5_reduce
I0106 23:18:35.312398 16874 net.cpp:327] inception_4e/relu_5x5_reduce -> inception_4e/5x5_reduce (in-place)
I0106 23:18:35.312407 16874 net.cpp:113] Setting up inception_4e/relu_5x5_reduce
I0106 23:18:35.312485 16874 net.cpp:120] Top shape: 50 32 14 14 (313600)
I0106 23:18:35.312494 16874 layer_factory.hpp:74] Creating layer inception_4e/5x5
I0106 23:18:35.312505 16874 net.cpp:84] Creating Layer inception_4e/5x5
I0106 23:18:35.312512 16874 net.cpp:380] inception_4e/5x5 <- inception_4e/5x5_reduce
I0106 23:18:35.312520 16874 net.cpp:338] inception_4e/5x5 -> inception_4e/5x5
I0106 23:18:35.312530 16874 net.cpp:113] Setting up inception_4e/5x5
I0106 23:18:35.314249 16874 net.cpp:120] Top shape: 50 128 14 14 (1254400)
I0106 23:18:35.314265 16874 layer_factory.hpp:74] Creating layer inception_4e/relu_5x5
I0106 23:18:35.314275 16874 net.cpp:84] Creating Layer inception_4e/relu_5x5
I0106 23:18:35.314281 16874 net.cpp:380] inception_4e/relu_5x5 <- inception_4e/5x5
I0106 23:18:35.314291 16874 net.cpp:327] inception_4e/relu_5x5 -> inception_4e/5x5 (in-place)
I0106 23:18:35.314299 16874 net.cpp:113] Setting up inception_4e/relu_5x5
I0106 23:18:35.314376 16874 net.cpp:120] Top shape: 50 128 14 14 (1254400)
I0106 23:18:35.314386 16874 layer_factory.hpp:74] Creating layer inception_4e/pool
I0106 23:18:35.314393 16874 layer_factory.cpp:56] CUDNN does not support padding or multiple tops. Using Caffe's own pooling layer.
I0106 23:18:35.314400 16874 net.cpp:84] Creating Layer inception_4e/pool
I0106 23:18:35.314406 16874 net.cpp:380] inception_4e/pool <- inception_4d/output_inception_4d/output_0_split_4
I0106 23:18:35.314416 16874 net.cpp:338] inception_4e/pool -> inception_4e/pool
I0106 23:18:35.314424 16874 net.cpp:113] Setting up inception_4e/pool
I0106 23:18:35.314435 16874 net.cpp:120] Top shape: 50 528 14 14 (5174400)
I0106 23:18:35.314440 16874 layer_factory.hpp:74] Creating layer inception_4e/pool_proj
I0106 23:18:35.314450 16874 net.cpp:84] Creating Layer inception_4e/pool_proj
I0106 23:18:35.314455 16874 net.cpp:380] inception_4e/pool_proj <- inception_4e/pool
I0106 23:18:35.314465 16874 net.cpp:338] inception_4e/pool_proj -> inception_4e/pool_proj
I0106 23:18:35.314479 16874 net.cpp:113] Setting up inception_4e/pool_proj
I0106 23:18:35.315768 16874 net.cpp:120] Top shape: 50 128 14 14 (1254400)
I0106 23:18:35.315784 16874 layer_factory.hpp:74] Creating layer inception_4e/relu_pool_proj
I0106 23:18:35.315793 16874 net.cpp:84] Creating Layer inception_4e/relu_pool_proj
I0106 23:18:35.315798 16874 net.cpp:380] inception_4e/relu_pool_proj <- inception_4e/pool_proj
I0106 23:18:35.315806 16874 net.cpp:327] inception_4e/relu_pool_proj -> inception_4e/pool_proj (in-place)
I0106 23:18:35.315815 16874 net.cpp:113] Setting up inception_4e/relu_pool_proj
I0106 23:18:35.315891 16874 net.cpp:120] Top shape: 50 128 14 14 (1254400)
I0106 23:18:35.315898 16874 layer_factory.hpp:74] Creating layer inception_4e/output
I0106 23:18:35.315907 16874 net.cpp:84] Creating Layer inception_4e/output
I0106 23:18:35.315912 16874 net.cpp:380] inception_4e/output <- inception_4e/1x1
I0106 23:18:35.315919 16874 net.cpp:380] inception_4e/output <- inception_4e/3x3
I0106 23:18:35.315927 16874 net.cpp:380] inception_4e/output <- inception_4e/5x5
I0106 23:18:35.315932 16874 net.cpp:380] inception_4e/output <- inception_4e/pool_proj
I0106 23:18:35.315939 16874 net.cpp:338] inception_4e/output -> inception_4e/output
I0106 23:18:35.315948 16874 net.cpp:113] Setting up inception_4e/output
I0106 23:18:35.315958 16874 net.cpp:120] Top shape: 50 832 14 14 (8153600)
I0106 23:18:35.315963 16874 layer_factory.hpp:74] Creating layer pool4/3x3_s2
I0106 23:18:35.315973 16874 net.cpp:84] Creating Layer pool4/3x3_s2
I0106 23:18:35.315979 16874 net.cpp:380] pool4/3x3_s2 <- inception_4e/output
I0106 23:18:35.315986 16874 net.cpp:338] pool4/3x3_s2 -> pool4/3x3_s2
I0106 23:18:35.315994 16874 net.cpp:113] Setting up pool4/3x3_s2
I0106 23:18:35.316257 16874 net.cpp:120] Top shape: 50 832 7 7 (2038400)
I0106 23:18:35.316269 16874 layer_factory.hpp:74] Creating layer pool4/3x3_s2_pool4/3x3_s2_0_split
I0106 23:18:35.316278 16874 net.cpp:84] Creating Layer pool4/3x3_s2_pool4/3x3_s2_0_split
I0106 23:18:35.316284 16874 net.cpp:380] pool4/3x3_s2_pool4/3x3_s2_0_split <- pool4/3x3_s2
I0106 23:18:35.316294 16874 net.cpp:338] pool4/3x3_s2_pool4/3x3_s2_0_split -> pool4/3x3_s2_pool4/3x3_s2_0_split_0
I0106 23:18:35.316303 16874 net.cpp:338] pool4/3x3_s2_pool4/3x3_s2_0_split -> pool4/3x3_s2_pool4/3x3_s2_0_split_1
I0106 23:18:35.316313 16874 net.cpp:338] pool4/3x3_s2_pool4/3x3_s2_0_split -> pool4/3x3_s2_pool4/3x3_s2_0_split_2
I0106 23:18:35.316341 16874 net.cpp:338] pool4/3x3_s2_pool4/3x3_s2_0_split -> pool4/3x3_s2_pool4/3x3_s2_0_split_3
I0106 23:18:35.316350 16874 net.cpp:113] Setting up pool4/3x3_s2_pool4/3x3_s2_0_split
I0106 23:18:35.316359 16874 net.cpp:120] Top shape: 50 832 7 7 (2038400)
I0106 23:18:35.316365 16874 net.cpp:120] Top shape: 50 832 7 7 (2038400)
I0106 23:18:35.316372 16874 net.cpp:120] Top shape: 50 832 7 7 (2038400)
I0106 23:18:35.316378 16874 net.cpp:120] Top shape: 50 832 7 7 (2038400)
I0106 23:18:35.316385 16874 layer_factory.hpp:74] Creating layer inception_5a/1x1
I0106 23:18:35.316395 16874 net.cpp:84] Creating Layer inception_5a/1x1
I0106 23:18:35.316402 16874 net.cpp:380] inception_5a/1x1 <- pool4/3x3_s2_pool4/3x3_s2_0_split_0
I0106 23:18:35.316411 16874 net.cpp:338] inception_5a/1x1 -> inception_5a/1x1
I0106 23:18:35.316419 16874 net.cpp:113] Setting up inception_5a/1x1
I0106 23:18:35.319470 16874 net.cpp:120] Top shape: 50 256 7 7 (627200)
I0106 23:18:35.319488 16874 layer_factory.hpp:74] Creating layer inception_5a/relu_1x1
I0106 23:18:35.319495 16874 net.cpp:84] Creating Layer inception_5a/relu_1x1
I0106 23:18:35.319501 16874 net.cpp:380] inception_5a/relu_1x1 <- inception_5a/1x1
I0106 23:18:35.319511 16874 net.cpp:327] inception_5a/relu_1x1 -> inception_5a/1x1 (in-place)
I0106 23:18:35.319519 16874 net.cpp:113] Setting up inception_5a/relu_1x1
I0106 23:18:35.319592 16874 net.cpp:120] Top shape: 50 256 7 7 (627200)
I0106 23:18:35.319599 16874 layer_factory.hpp:74] Creating layer inception_5a/3x3_reduce
I0106 23:18:35.319619 16874 net.cpp:84] Creating Layer inception_5a/3x3_reduce
I0106 23:18:35.319630 16874 net.cpp:380] inception_5a/3x3_reduce <- pool4/3x3_s2_pool4/3x3_s2_0_split_1
I0106 23:18:35.319648 16874 net.cpp:338] inception_5a/3x3_reduce -> inception_5a/3x3_reduce
I0106 23:18:35.319658 16874 net.cpp:113] Setting up inception_5a/3x3_reduce
I0106 23:18:35.326316 16874 net.cpp:120] Top shape: 50 160 7 7 (392000)
I0106 23:18:35.326339 16874 layer_factory.hpp:74] Creating layer inception_5a/relu_3x3_reduce
I0106 23:18:35.326349 16874 net.cpp:84] Creating Layer inception_5a/relu_3x3_reduce
I0106 23:18:35.326354 16874 net.cpp:380] inception_5a/relu_3x3_reduce <- inception_5a/3x3_reduce
I0106 23:18:35.326365 16874 net.cpp:327] inception_5a/relu_3x3_reduce -> inception_5a/3x3_reduce (in-place)
I0106 23:18:35.326375 16874 net.cpp:113] Setting up inception_5a/relu_3x3_reduce
I0106 23:18:35.326463 16874 net.cpp:120] Top shape: 50 160 7 7 (392000)
I0106 23:18:35.326470 16874 layer_factory.hpp:74] Creating layer inception_5a/3x3
I0106 23:18:35.326481 16874 net.cpp:84] Creating Layer inception_5a/3x3
I0106 23:18:35.326488 16874 net.cpp:380] inception_5a/3x3 <- inception_5a/3x3_reduce
I0106 23:18:35.326496 16874 net.cpp:338] inception_5a/3x3 -> inception_5a/3x3
I0106 23:18:35.326506 16874 net.cpp:113] Setting up inception_5a/3x3
I0106 23:18:35.332357 16874 net.cpp:120] Top shape: 50 320 7 7 (784000)
I0106 23:18:35.332391 16874 layer_factory.hpp:74] Creating layer inception_5a/relu_3x3
I0106 23:18:35.332399 16874 net.cpp:84] Creating Layer inception_5a/relu_3x3
I0106 23:18:35.332406 16874 net.cpp:380] inception_5a/relu_3x3 <- inception_5a/3x3
I0106 23:18:35.332413 16874 net.cpp:327] inception_5a/relu_3x3 -> inception_5a/3x3 (in-place)
I0106 23:18:35.332420 16874 net.cpp:113] Setting up inception_5a/relu_3x3
I0106 23:18:35.332479 16874 net.cpp:120] Top shape: 50 320 7 7 (784000)
I0106 23:18:35.332486 16874 layer_factory.hpp:74] Creating layer inception_5a/5x5_reduce
I0106 23:18:35.332494 16874 net.cpp:84] Creating Layer inception_5a/5x5_reduce
I0106 23:18:35.332499 16874 net.cpp:380] inception_5a/5x5_reduce <- pool4/3x3_s2_pool4/3x3_s2_0_split_2
I0106 23:18:35.332507 16874 net.cpp:338] inception_5a/5x5_reduce -> inception_5a/5x5_reduce
I0106 23:18:35.332515 16874 net.cpp:113] Setting up inception_5a/5x5_reduce
I0106 23:18:35.333122 16874 net.cpp:120] Top shape: 50 32 7 7 (78400)
I0106 23:18:35.333137 16874 layer_factory.hpp:74] Creating layer inception_5a/relu_5x5_reduce
I0106 23:18:35.333143 16874 net.cpp:84] Creating Layer inception_5a/relu_5x5_reduce
I0106 23:18:35.333149 16874 net.cpp:380] inception_5a/relu_5x5_reduce <- inception_5a/5x5_reduce
I0106 23:18:35.333155 16874 net.cpp:327] inception_5a/relu_5x5_reduce -> inception_5a/5x5_reduce (in-place)
I0106 23:18:35.333161 16874 net.cpp:113] Setting up inception_5a/relu_5x5_reduce
I0106 23:18:35.333385 16874 net.cpp:120] Top shape: 50 32 7 7 (78400)
I0106 23:18:35.333395 16874 layer_factory.hpp:74] Creating layer inception_5a/5x5
I0106 23:18:35.333405 16874 net.cpp:84] Creating Layer inception_5a/5x5
I0106 23:18:35.333410 16874 net.cpp:380] inception_5a/5x5 <- inception_5a/5x5_reduce
I0106 23:18:35.333416 16874 net.cpp:338] inception_5a/5x5 -> inception_5a/5x5
I0106 23:18:35.333425 16874 net.cpp:113] Setting up inception_5a/5x5
I0106 23:18:35.334688 16874 net.cpp:120] Top shape: 50 128 7 7 (313600)
I0106 23:18:35.334702 16874 layer_factory.hpp:74] Creating layer inception_5a/relu_5x5
I0106 23:18:35.334709 16874 net.cpp:84] Creating Layer inception_5a/relu_5x5
I0106 23:18:35.334714 16874 net.cpp:380] inception_5a/relu_5x5 <- inception_5a/5x5
I0106 23:18:35.334720 16874 net.cpp:327] inception_5a/relu_5x5 -> inception_5a/5x5 (in-place)
I0106 23:18:35.334727 16874 net.cpp:113] Setting up inception_5a/relu_5x5
I0106 23:18:35.334785 16874 net.cpp:120] Top shape: 50 128 7 7 (313600)
I0106 23:18:35.334791 16874 layer_factory.hpp:74] Creating layer inception_5a/pool
I0106 23:18:35.334796 16874 layer_factory.cpp:56] CUDNN does not support padding or multiple tops. Using Caffe's own pooling layer.
I0106 23:18:35.334802 16874 net.cpp:84] Creating Layer inception_5a/pool
I0106 23:18:35.334812 16874 net.cpp:380] inception_5a/pool <- pool4/3x3_s2_pool4/3x3_s2_0_split_3
I0106 23:18:35.334826 16874 net.cpp:338] inception_5a/pool -> inception_5a/pool
I0106 23:18:35.334835 16874 net.cpp:113] Setting up inception_5a/pool
I0106 23:18:35.334841 16874 net.cpp:120] Top shape: 50 832 7 7 (2038400)
I0106 23:18:35.334846 16874 layer_factory.hpp:74] Creating layer inception_5a/pool_proj
I0106 23:18:35.334854 16874 net.cpp:84] Creating Layer inception_5a/pool_proj
I0106 23:18:35.334859 16874 net.cpp:380] inception_5a/pool_proj <- inception_5a/pool
I0106 23:18:35.334866 16874 net.cpp:338] inception_5a/pool_proj -> inception_5a/pool_proj
I0106 23:18:35.334872 16874 net.cpp:113] Setting up inception_5a/pool_proj
I0106 23:18:35.336159 16874 net.cpp:120] Top shape: 50 128 7 7 (313600)
I0106 23:18:35.336174 16874 layer_factory.hpp:74] Creating layer inception_5a/relu_pool_proj
I0106 23:18:35.336179 16874 net.cpp:84] Creating Layer inception_5a/relu_pool_proj
I0106 23:18:35.336184 16874 net.cpp:380] inception_5a/relu_pool_proj <- inception_5a/pool_proj
I0106 23:18:35.336190 16874 net.cpp:327] inception_5a/relu_pool_proj -> inception_5a/pool_proj (in-place)
I0106 23:18:35.336196 16874 net.cpp:113] Setting up inception_5a/relu_pool_proj
I0106 23:18:35.336253 16874 net.cpp:120] Top shape: 50 128 7 7 (313600)
I0106 23:18:35.336259 16874 layer_factory.hpp:74] Creating layer inception_5a/output
I0106 23:18:35.336266 16874 net.cpp:84] Creating Layer inception_5a/output
I0106 23:18:35.336269 16874 net.cpp:380] inception_5a/output <- inception_5a/1x1
I0106 23:18:35.336275 16874 net.cpp:380] inception_5a/output <- inception_5a/3x3
I0106 23:18:35.336279 16874 net.cpp:380] inception_5a/output <- inception_5a/5x5
I0106 23:18:35.336284 16874 net.cpp:380] inception_5a/output <- inception_5a/pool_proj
I0106 23:18:35.336289 16874 net.cpp:338] inception_5a/output -> inception_5a/output
I0106 23:18:35.336295 16874 net.cpp:113] Setting up inception_5a/output
I0106 23:18:35.336302 16874 net.cpp:120] Top shape: 50 832 7 7 (2038400)
I0106 23:18:35.336307 16874 layer_factory.hpp:74] Creating layer inception_5a/output_inception_5a/output_0_split
I0106 23:18:35.336313 16874 net.cpp:84] Creating Layer inception_5a/output_inception_5a/output_0_split
I0106 23:18:35.336318 16874 net.cpp:380] inception_5a/output_inception_5a/output_0_split <- inception_5a/output
I0106 23:18:35.336323 16874 net.cpp:338] inception_5a/output_inception_5a/output_0_split -> inception_5a/output_inception_5a/output_0_split_0
I0106 23:18:35.336329 16874 net.cpp:338] inception_5a/output_inception_5a/output_0_split -> inception_5a/output_inception_5a/output_0_split_1
I0106 23:18:35.336338 16874 net.cpp:338] inception_5a/output_inception_5a/output_0_split -> inception_5a/output_inception_5a/output_0_split_2
I0106 23:18:35.336344 16874 net.cpp:338] inception_5a/output_inception_5a/output_0_split -> inception_5a/output_inception_5a/output_0_split_3
I0106 23:18:35.336349 16874 net.cpp:113] Setting up inception_5a/output_inception_5a/output_0_split
I0106 23:18:35.336367 16874 net.cpp:120] Top shape: 50 832 7 7 (2038400)
I0106 23:18:35.336374 16874 net.cpp:120] Top shape: 50 832 7 7 (2038400)
I0106 23:18:35.336377 16874 net.cpp:120] Top shape: 50 832 7 7 (2038400)
I0106 23:18:35.336382 16874 net.cpp:120] Top shape: 50 832 7 7 (2038400)
I0106 23:18:35.336386 16874 layer_factory.hpp:74] Creating layer inception_5b/1x1
I0106 23:18:35.336393 16874 net.cpp:84] Creating Layer inception_5b/1x1
I0106 23:18:35.336397 16874 net.cpp:380] inception_5b/1x1 <- inception_5a/output_inception_5a/output_0_split_0
I0106 23:18:35.336405 16874 net.cpp:338] inception_5b/1x1 -> inception_5b/1x1
I0106 23:18:35.336412 16874 net.cpp:113] Setting up inception_5b/1x1
I0106 23:18:35.339851 16874 net.cpp:120] Top shape: 50 384 7 7 (940800)
I0106 23:18:35.339869 16874 layer_factory.hpp:74] Creating layer inception_5b/relu_1x1
I0106 23:18:35.339875 16874 net.cpp:84] Creating Layer inception_5b/relu_1x1
I0106 23:18:35.339880 16874 net.cpp:380] inception_5b/relu_1x1 <- inception_5b/1x1
I0106 23:18:35.339889 16874 net.cpp:327] inception_5b/relu_1x1 -> inception_5b/1x1 (in-place)
I0106 23:18:35.339905 16874 net.cpp:113] Setting up inception_5b/relu_1x1
I0106 23:18:35.339972 16874 net.cpp:120] Top shape: 50 384 7 7 (940800)
I0106 23:18:35.339979 16874 layer_factory.hpp:74] Creating layer inception_5b/3x3_reduce
I0106 23:18:35.339987 16874 net.cpp:84] Creating Layer inception_5b/3x3_reduce
I0106 23:18:35.339993 16874 net.cpp:380] inception_5b/3x3_reduce <- inception_5a/output_inception_5a/output_0_split_1
I0106 23:18:35.340000 16874 net.cpp:338] inception_5b/3x3_reduce -> inception_5b/3x3_reduce
I0106 23:18:35.340008 16874 net.cpp:113] Setting up inception_5b/3x3_reduce
I0106 23:18:35.343228 16874 net.cpp:120] Top shape: 50 192 7 7 (470400)
I0106 23:18:35.343246 16874 layer_factory.hpp:74] Creating layer inception_5b/relu_3x3_reduce
I0106 23:18:35.343255 16874 net.cpp:84] Creating Layer inception_5b/relu_3x3_reduce
I0106 23:18:35.343261 16874 net.cpp:380] inception_5b/relu_3x3_reduce <- inception_5b/3x3_reduce
I0106 23:18:35.343268 16874 net.cpp:327] inception_5b/relu_3x3_reduce -> inception_5b/3x3_reduce (in-place)
I0106 23:18:35.343276 16874 net.cpp:113] Setting up inception_5b/relu_3x3_reduce
I0106 23:18:35.343511 16874 net.cpp:120] Top shape: 50 192 7 7 (470400)
I0106 23:18:35.343523 16874 layer_factory.hpp:74] Creating layer inception_5b/3x3
I0106 23:18:35.343533 16874 net.cpp:84] Creating Layer inception_5b/3x3
I0106 23:18:35.343538 16874 net.cpp:380] inception_5b/3x3 <- inception_5b/3x3_reduce
I0106 23:18:35.343546 16874 net.cpp:338] inception_5b/3x3 -> inception_5b/3x3
I0106 23:18:35.343555 16874 net.cpp:113] Setting up inception_5b/3x3
I0106 23:18:35.350155 16874 net.cpp:120] Top shape: 50 384 7 7 (940800)
I0106 23:18:35.350172 16874 layer_factory.hpp:74] Creating layer inception_5b/relu_3x3
I0106 23:18:35.350180 16874 net.cpp:84] Creating Layer inception_5b/relu_3x3
I0106 23:18:35.350186 16874 net.cpp:380] inception_5b/relu_3x3 <- inception_5b/3x3
I0106 23:18:35.350193 16874 net.cpp:327] inception_5b/relu_3x3 -> inception_5b/3x3 (in-place)
I0106 23:18:35.350200 16874 net.cpp:113] Setting up inception_5b/relu_3x3
I0106 23:18:35.350262 16874 net.cpp:120] Top shape: 50 384 7 7 (940800)
I0106 23:18:35.350270 16874 layer_factory.hpp:74] Creating layer inception_5b/5x5_reduce
I0106 23:18:35.350278 16874 net.cpp:84] Creating Layer inception_5b/5x5_reduce
I0106 23:18:35.350283 16874 net.cpp:380] inception_5b/5x5_reduce <- inception_5a/output_inception_5a/output_0_split_2
I0106 23:18:35.350292 16874 net.cpp:338] inception_5b/5x5_reduce -> inception_5b/5x5_reduce
I0106 23:18:35.350299 16874 net.cpp:113] Setting up inception_5b/5x5_reduce
I0106 23:18:35.351043 16874 net.cpp:120] Top shape: 50 48 7 7 (117600)
I0106 23:18:35.351058 16874 layer_factory.hpp:74] Creating layer inception_5b/relu_5x5_reduce
I0106 23:18:35.351064 16874 net.cpp:84] Creating Layer inception_5b/relu_5x5_reduce
I0106 23:18:35.351069 16874 net.cpp:380] inception_5b/relu_5x5_reduce <- inception_5b/5x5_reduce
I0106 23:18:35.351078 16874 net.cpp:327] inception_5b/relu_5x5_reduce -> inception_5b/5x5_reduce (in-place)
I0106 23:18:35.351084 16874 net.cpp:113] Setting up inception_5b/relu_5x5_reduce
I0106 23:18:35.351146 16874 net.cpp:120] Top shape: 50 48 7 7 (117600)
I0106 23:18:35.351152 16874 layer_factory.hpp:74] Creating layer inception_5b/5x5
I0106 23:18:35.351160 16874 net.cpp:84] Creating Layer inception_5b/5x5
I0106 23:18:35.351164 16874 net.cpp:380] inception_5b/5x5 <- inception_5b/5x5_reduce
I0106 23:18:35.351172 16874 net.cpp:338] inception_5b/5x5 -> inception_5b/5x5
I0106 23:18:35.351181 16874 net.cpp:113] Setting up inception_5b/5x5
I0106 23:18:35.352972 16874 net.cpp:120] Top shape: 50 128 7 7 (313600)
I0106 23:18:35.352987 16874 layer_factory.hpp:74] Creating layer inception_5b/relu_5x5
I0106 23:18:35.352994 16874 net.cpp:84] Creating Layer inception_5b/relu_5x5
I0106 23:18:35.352999 16874 net.cpp:380] inception_5b/relu_5x5 <- inception_5b/5x5
I0106 23:18:35.353006 16874 net.cpp:327] inception_5b/relu_5x5 -> inception_5b/5x5 (in-place)
I0106 23:18:35.353023 16874 net.cpp:113] Setting up inception_5b/relu_5x5
I0106 23:18:35.353257 16874 net.cpp:120] Top shape: 50 128 7 7 (313600)
I0106 23:18:35.353267 16874 layer_factory.hpp:74] Creating layer inception_5b/pool
I0106 23:18:35.353272 16874 layer_factory.cpp:56] CUDNN does not support padding or multiple tops. Using Caffe's own pooling layer.
I0106 23:18:35.353278 16874 net.cpp:84] Creating Layer inception_5b/pool
I0106 23:18:35.353283 16874 net.cpp:380] inception_5b/pool <- inception_5a/output_inception_5a/output_0_split_3
I0106 23:18:35.353291 16874 net.cpp:338] inception_5b/pool -> inception_5b/pool
I0106 23:18:35.353299 16874 net.cpp:113] Setting up inception_5b/pool
I0106 23:18:35.353307 16874 net.cpp:120] Top shape: 50 832 7 7 (2038400)
I0106 23:18:35.353312 16874 layer_factory.hpp:74] Creating layer inception_5b/pool_proj
I0106 23:18:35.353320 16874 net.cpp:84] Creating Layer inception_5b/pool_proj
I0106 23:18:35.353324 16874 net.cpp:380] inception_5b/pool_proj <- inception_5b/pool
I0106 23:18:35.353332 16874 net.cpp:338] inception_5b/pool_proj -> inception_5b/pool_proj
I0106 23:18:35.353338 16874 net.cpp:113] Setting up inception_5b/pool_proj
I0106 23:18:35.354743 16874 net.cpp:120] Top shape: 50 128 7 7 (313600)
I0106 23:18:35.354758 16874 layer_factory.hpp:74] Creating layer inception_5b/relu_pool_proj
I0106 23:18:35.354768 16874 net.cpp:84] Creating Layer inception_5b/relu_pool_proj
I0106 23:18:35.354774 16874 net.cpp:380] inception_5b/relu_pool_proj <- inception_5b/pool_proj
I0106 23:18:35.354780 16874 net.cpp:327] inception_5b/relu_pool_proj -> inception_5b/pool_proj (in-place)
I0106 23:18:35.354787 16874 net.cpp:113] Setting up inception_5b/relu_pool_proj
I0106 23:18:35.354851 16874 net.cpp:120] Top shape: 50 128 7 7 (313600)
I0106 23:18:35.354857 16874 layer_factory.hpp:74] Creating layer inception_5b/output
I0106 23:18:35.354864 16874 net.cpp:84] Creating Layer inception_5b/output
I0106 23:18:35.354869 16874 net.cpp:380] inception_5b/output <- inception_5b/1x1
I0106 23:18:35.354874 16874 net.cpp:380] inception_5b/output <- inception_5b/3x3
I0106 23:18:35.354879 16874 net.cpp:380] inception_5b/output <- inception_5b/5x5
I0106 23:18:35.354884 16874 net.cpp:380] inception_5b/output <- inception_5b/pool_proj
I0106 23:18:35.354890 16874 net.cpp:338] inception_5b/output -> inception_5b/output
I0106 23:18:35.354897 16874 net.cpp:113] Setting up inception_5b/output
I0106 23:18:35.354905 16874 net.cpp:120] Top shape: 50 1024 7 7 (2508800)
I0106 23:18:35.354909 16874 layer_factory.hpp:74] Creating layer pool5/7x7_s1
I0106 23:18:35.354917 16874 net.cpp:84] Creating Layer pool5/7x7_s1
I0106 23:18:35.354920 16874 net.cpp:380] pool5/7x7_s1 <- inception_5b/output
I0106 23:18:35.354926 16874 net.cpp:338] pool5/7x7_s1 -> pool5/7x7_s1
I0106 23:18:35.354933 16874 net.cpp:113] Setting up pool5/7x7_s1
I0106 23:18:35.354993 16874 net.cpp:120] Top shape: 50 1024 1 1 (51200)
I0106 23:18:35.355000 16874 layer_factory.hpp:74] Creating layer pool5/drop_7x7_s1
I0106 23:18:35.355007 16874 net.cpp:84] Creating Layer pool5/drop_7x7_s1
I0106 23:18:35.355011 16874 net.cpp:380] pool5/drop_7x7_s1 <- pool5/7x7_s1
I0106 23:18:35.355017 16874 net.cpp:327] pool5/drop_7x7_s1 -> pool5/7x7_s1 (in-place)
I0106 23:18:35.355023 16874 net.cpp:113] Setting up pool5/drop_7x7_s1
I0106 23:18:35.355031 16874 net.cpp:120] Top shape: 50 1024 1 1 (51200)
I0106 23:18:35.355034 16874 layer_factory.hpp:74] Creating layer loss3/classifier_kaggle
I0106 23:18:35.355042 16874 net.cpp:84] Creating Layer loss3/classifier_kaggle
I0106 23:18:35.355046 16874 net.cpp:380] loss3/classifier_kaggle <- pool5/7x7_s1
I0106 23:18:35.355054 16874 net.cpp:338] loss3/classifier_kaggle -> loss3/classifier_kaggle
I0106 23:18:35.355062 16874 net.cpp:113] Setting up loss3/classifier_kaggle
I0106 23:18:35.359328 16874 net.cpp:120] Top shape: 50 447 (22350)
I0106 23:18:35.359339 16874 layer_factory.hpp:74] Creating layer loss3/classifier_kaggle_loss3/classifier_kaggle_0_split
I0106 23:18:35.359347 16874 net.cpp:84] Creating Layer loss3/classifier_kaggle_loss3/classifier_kaggle_0_split
I0106 23:18:35.359357 16874 net.cpp:380] loss3/classifier_kaggle_loss3/classifier_kaggle_0_split <- loss3/classifier_kaggle
I0106 23:18:35.359369 16874 net.cpp:338] loss3/classifier_kaggle_loss3/classifier_kaggle_0_split -> loss3/classifier_kaggle_loss3/classifier_kaggle_0_split_0
I0106 23:18:35.359377 16874 net.cpp:338] loss3/classifier_kaggle_loss3/classifier_kaggle_0_split -> loss3/classifier_kaggle_loss3/classifier_kaggle_0_split_1
I0106 23:18:35.359383 16874 net.cpp:338] loss3/classifier_kaggle_loss3/classifier_kaggle_0_split -> loss3/classifier_kaggle_loss3/classifier_kaggle_0_split_2
I0106 23:18:35.359390 16874 net.cpp:113] Setting up loss3/classifier_kaggle_loss3/classifier_kaggle_0_split
I0106 23:18:35.359398 16874 net.cpp:120] Top shape: 50 447 (22350)
I0106 23:18:35.359402 16874 net.cpp:120] Top shape: 50 447 (22350)
I0106 23:18:35.359407 16874 net.cpp:120] Top shape: 50 447 (22350)
I0106 23:18:35.359411 16874 layer_factory.hpp:74] Creating layer loss3/loss3
I0106 23:18:35.359417 16874 net.cpp:84] Creating Layer loss3/loss3
I0106 23:18:35.359421 16874 net.cpp:380] loss3/loss3 <- loss3/classifier_kaggle_loss3/classifier_kaggle_0_split_0
I0106 23:18:35.359427 16874 net.cpp:380] loss3/loss3 <- label_data_1_split_6
I0106 23:18:35.359432 16874 net.cpp:338] loss3/loss3 -> loss3/loss3
…
