…
I1220 11:11:03.984875 28373 net.cpp:257] The NetState phase (0) differed from the phase (1) specified by a rule in layer loss3/top-5
I1220 11:11:03.986824 28373 net.cpp:42] Initializing net from parameters: 
name: "MYNET"
state {
  phase: TRAIN
}
layer {
  name: "data"
  type: "ImageData"
  top: "data"
  top: "label"
  include {
    phase: TRAIN
  }
  transform_param {
    mirror: false
    crop_size: 224
    mean_value: 129
    mean_value: 129
    mean_value: 129
  }
  image_data_param {
    source: "/home/coldmanck/kaggle/label_train_full.txt"
    batch_size: 80
    shuffle: true
  }
}
layer {
  name: "conv1/7x7_s2"
  type: "Convolution"
  bottom: "data"
  top: "conv1/7x7_s2"
  param {
    lr_mult: 1
    decay_mult: 1
  }
  param {
    lr_mult: 2
    decay_mult: 0
  }
  convolution_param {
    num_output: 64
    pad: 3
    kernel_size: 7
    stride: 2
    weight_filler {
      type: "xavier"
    }
    bias_filler {
      type: "constant"
      value: 0.2
    }
  }
}
layer {
  name: "conv1/relu_7x7"
  type: "ReLU"
  bottom: "conv1/7x7_s2"
  top: "conv1/7x7_s2"
}
layer {
  name: "pool1/3x3_s2"
  type: "Pooling"
  bottom: "conv1/7x7_s2"
  top: "pool1/3x3_s2"
  pooling_param {
    pool: MAX
    kernel_size: 3
    stride: 2
  }
}
layer {
  name: "pool1/norm1"
  type: "LRN"
  bottom: "pool1/3x3_s2"
  top: "pool1/norm1"
  lrn_param {
    local_size: 5
    alpha: 0.0001
    beta: 0.75
  }
}
layer {
  name: "conv2/3x3_reduce"
  type: "Convolution"
  bottom: "pool1/norm1"
  top: "conv2/3x3_reduce"
  param {
    lr_mult: 1
    decay_mult: 1
  }
  param {
    lr_mult: 2
    decay_mult: 0
  }
  convolution_param {
    num_output: 64
    kernel_size: 1
    weight_filler {
      type: "xavier"
    }
    bias_filler {
      type: "constant"
      value: 0.2
    }
  }
}
layer {
  name: "conv2/relu_3x3_reduce"
  type: "ReLU"
  bottom: "conv2/3x3_reduce"
  top: "conv2/3x3_reduce"
}
layer {
  name: "conv2/3x3"
  type: "Convolution"
  bottom: "conv2/3x3_reduce"
  top: "conv2/3x3"
  param {
    lr_mult: 1
    decay_mult: 1
  }
  param {
    lr_mult: 2
    decay_mult: 0
  }
  convolution_param {
    num_output: 192
    pad: 1
    kernel_size: 3
    weight_filler {
      type: "xavier"
    }
    bias_filler {
      type: "constant"
      value: 0.2
    }
  }
}
layer {
  name: "conv2/relu_3x3"
  type: "ReLU"
  bottom: "conv2/3x3"
  top: "conv2/3x3"
}
layer {
  name: "conv2/norm2"
  type: "LRN"
  bottom: "conv2/3x3"
  top: "conv2/norm2"
  lrn_param {
    local_size: 5
    alpha: 0.0001
    beta: 0.75
  }
}
layer {
  name: "pool2/3x3_s2"
  type: "Pooling"
  bottom: "conv2/norm2"
  top: "pool2/3x3_s2"
  pooling_param {
    pool: MAX
    kernel_size: 3
    stride: 2
  }
}
layer {
  name: "inception_3a/1x1"
  type: "Convolution"
  bottom: "pool2/3x3_s2"
  top: "inception_3a/1x1"
  param {
    lr_mult: 1
    decay_mult: 1
  }
  param {
    lr_mult: 2
    decay_mult: 0
  }
  convolution_param {
    num_output: 64
    kernel_size: 1
    weight_filler {
      type: "xavier"
    }
    bias_filler {
      type: "constant"
      value: 0.2
    }
  }
}
layer {
  name: "inception_3a/relu_1x1"
  type: "ReLU"
  bottom: "inception_3a/1x1"
  top: "inception_3a/1x1"
}
layer {
  name: "inception_3a/3x3_reduce"
  type: "Convolution"
  bottom: "pool2/3x3_s2"
  top: "inception_3a/3x3_reduce"
  param {
    lr_mult: 1
    decay_mult: 1
  }
  param {
    lr_mult: 2
    decay_mult: 0
  }
  convolution_param {
    num_output: 96
    kernel_size: 1
    weight_filler {
      type: "xavier"
    }
    bias_filler {
      type: "constant"
      value: 0.2
    }
  }
}
layer {
  name: "inception_3a/relu_3x3_reduce"
  type: "ReLU"
  bottom: "inception_3a/3x3_reduce"
  top: "inception_3a/3x3_reduce"
}
layer {
  name: "inception_3a/3x3"
  type: "Convolution"
  bottom: "inception_3a/3x3_reduce"
  top: "inception_3a/3x3"
  param {
    lr_mult: 1
    decay_mult: 1
  }
  param {
    lr_mult: 2
    decay_mult: 0
  }
  convolution_param {
    num_output: 128
    pad: 1
    kernel_size: 3
    weight_filler {
      type: "xavier"
    }
    bias_filler {
      type: "constant"
      value: 0.2
    }
  }
}
layer {
  name: "inception_3a/relu_3x3"
  type: "ReLU"
  bottom: "inception_3a/3x3"
  top: "inception_3a/3x3"
}
layer {
  name: "inception_3a/5x5_reduce"
  type: "Convolution"
  bottom: "pool2/3x3_s2"
  top: "inception_3a/5x5_reduce"
  param {
    lr_mult: 1
    decay_mult: 1
  }
  param {
    lr_mult: 2
    decay_mult: 0
  }
  convolution_param {
    num_output: 16
    kernel_size: 1
    weight_filler {
      type: "xavier"
    }
    bias_filler {
      type: "constant"
      value: 0.2
    }
  }
}
layer {
  name: "inception_3a/relu_5x5_reduce"
  type: "ReLU"
  bottom: "inception_3a/5x5_reduce"
  top: "inception_3a/5x5_reduce"
}
layer {
  name: "inception_3a/5x5"
  type: "Convolution"
  bottom: "inception_3a/5x5_reduce"
  top: "inception_3a/5x5"
  param {
    lr_mult: 1
    decay_mult: 1
  }
  param {
    lr_mult: 2
    decay_mult: 0
  }
  convolution_param {
    num_output: 32
    pad: 2
    kernel_size: 5
    weight_filler {
      type: "xavier"
    }
    bias_filler {
      type: "constant"
      value: 0.2
    }
  }
}
layer {
  name: "inception_3a/relu_5x5"
  type: "ReLU"
  bottom: "inception_3a/5x5"
  top: "inception_3a/5x5"
}
layer {
  name: "inception_3a/pool"
  type: "Pooling"
  bottom: "pool2/3x3_s2"
  top: "inception_3a/pool"
  pooling_param {
    pool: MAX
    kernel_size: 3
    stride: 1
    pad: 1
  }
}
layer {
  name: "inception_3a/pool_proj"
  type: "Convolution"
  bottom: "inception_3a/pool"
  top: "inception_3a/pool_proj"
  param {
    lr_mult: 1
    decay_mult: 1
  }
  param {
    lr_mult: 2
    decay_mult: 0
  }
  convolution_param {
    num_output: 32
    kernel_size: 1
    weight_filler {
      type: "xavier"
    }
    bias_filler {
      type: "constant"
      value: 0.2
    }
  }
}
layer {
  name: "inception_3a/relu_pool_proj"
  type: "ReLU"
  bottom: "inception_3a/pool_proj"
  top: "inception_3a/pool_proj"
}
layer {
  name: "inception_3a/output"
  type: "Concat"
  bottom: "inception_3a/1x1"
  bottom: "inception_3a/3x3"
  bottom: "inception_3a/5x5"
  bottom: "inception_3a/pool_proj"
  top: "inception_3a/output"
}
layer {
  name: "inception_3b/1x1"
  type: "Convolution"
  bottom: "inception_3a/output"
  top: "inception_3b/1x1"
  param {
    lr_mult: 1
    decay_mult: 1
  }
  param {
    lr_mult: 2
    decay_mult: 0
  }
  convolution_param {
    num_output: 128
    kernel_size: 1
    weight_filler {
      type: "xavier"
    }
    bias_filler {
      type: "constant"
      value: 0.2
    }
  }
}
layer {
  name: "inception_3b/relu_1x1"
  type: "ReLU"
  bottom: "inception_3b/1x1"
  top: "inception_3b/1x1"
}
layer {
  name: "inception_3b/3x3_reduce"
  type: "Convolution"
  bottom: "inception_3a/output"
  top: "inception_3b/3x3_reduce"
  param {
    lr_mult: 1
    decay_mult: 1
  }
  param {
    lr_mult: 2
    decay_mult: 0
  }
  convolution_param {
    num_output: 128
    kernel_size: 1
    weight_filler {
      type: "xavier"
    }
    bias_filler {
      type: "constant"
      value: 0.2
    }
  }
}
layer {
  name: "inception_3b/relu_3x3_reduce"
  type: "ReLU"
  bottom: "inception_3b/3x3_reduce"
  top: "inception_3b/3x3_reduce"
}
layer {
  name: "inception_3b/3x3"
  type: "Convolution"
  bottom: "inception_3b/3x3_reduce"
  top: "inception_3b/3x3"
  param {
    lr_mult: 1
    decay_mult: 1
  }
  param {
    lr_mult: 2
    decay_mult: 0
  }
  convolution_param {
    num_output: 192
    pad: 1
    kernel_size: 3
    weight_filler {
      type: "xavier"
    }
    bias_filler {
      type: "constant"
      value: 0.2
    }
  }
}
layer {
  name: "inception_3b/relu_3x3"
  type: "ReLU"
  bottom: "inception_3b/3x3"
  top: "inception_3b/3x3"
}
layer {
  name: "inception_3b/5x5_reduce"
  type: "Convolution"
  bottom: "inception_3a/output"
  top: "inception_3b/5x5_reduce"
  param {
    lr_mult: 1
    decay_mult: 1
  }
  param {
    lr_mult: 2
    decay_mult: 0
  }
  convolution_param {
    num_output: 32
    kernel_size: 1
    weight_filler {
      type: "xavier"
    }
    bias_filler {
      type: "constant"
      value: 0.2
    }
  }
}
layer {
  name: "inception_3b/relu_5x5_reduce"
  type: "ReLU"
  bottom: "inception_3b/5x5_reduce"
  top: "inception_3b/5x5_reduce"
}
layer {
  name: "inception_3b/5x5"
  type: "Convolution"
  bottom: "inception_3b/5x5_reduce"
  top: "inception_3b/5x5"
  param {
    lr_mult: 1
    decay_mult: 1
  }
  param {
    lr_mult: 2
    decay_mult: 0
  }
  convolution_param {
    num_output: 96
    pad: 2
    kernel_size: 5
    weight_filler {
      type: "xavier"
    }
    bias_filler {
      type: "constant"
      value: 0.2
    }
  }
}
layer {
  name: "inception_3b/relu_5x5"
  type: "ReLU"
  bottom: "inception_3b/5x5"
  top: "inception_3b/5x5"
}
layer {
  name: "inception_3b/pool"
  type: "Pooling"
  bottom: "inception_3a/output"
  top: "inception_3b/pool"
  pooling_param {
    pool: MAX
    kernel_size: 3
    stride: 1
    pad: 1
  }
}
layer {
  name: "inception_3b/pool_proj"
  type: "Convolution"
  bottom: "inception_3b/pool"
  top: "inception_3b/pool_proj"
  param {
    lr_mult: 1
    decay_mult: 1
  }
  param {
    lr_mult: 2
    decay_mult: 0
  }
  convolution_param {
    num_output: 64
    kernel_size: 1
    weight_filler {
      type: "xavier"
    }
    bias_filler {
      type: "constant"
      value: 0.2
    }
  }
}
layer {
  name: "inception_3b/relu_pool_proj"
  type: "ReLU"
  bottom: "inception_3b/pool_proj"
  top: "inception_3b/pool_proj"
}
layer {
  name: "inception_3b/output"
  type: "Concat"
  bottom: "inception_3b/1x1"
  bottom: "inception_3b/3x3"
  bottom: "inception_3b/5x5"
  bottom: "inception_3b/pool_proj"
  top: "inception_3b/output"
}
layer {
  name: "pool3/3x3_s2"
  type: "Pooling"
  bottom: "inception_3b/output"
  top: "pool3/3x3_s2"
  pooling_param {
    pool: MAX
    kernel_size: 3
    stride: 2
  }
}
layer {
  name: "inception_4a/1x1"
  type: "Convolution"
  bottom: "pool3/3x3_s2"
  top: "inception_4a/1x1"
  param {
    lr_mult: 1
    decay_mult: 1
  }
  param {
    lr_mult: 2
    decay_mult: 0
  }
  convolution_param {
    num_output: 192
    kernel_size: 1
    weight_filler {
      type: "xavier"
    }
    bias_filler {
      type: "constant"
      value: 0.2
    }
  }
}
layer {
  name: "inception_4a/relu_1x1"
  type: "ReLU"
  bottom: "inception_4a/1x1"
  top: "inception_4a/1x1"
}
layer {
  name: "inception_4a/3x3_reduce"
  type: "Convolution"
  bottom: "pool3/3x3_s2"
  top: "inception_4a/3x3_reduce"
  param {
    lr_mult: 1
    decay_mult: 1
  }
  param {
    lr_mult: 2
    decay_mult: 0
  }
  convolution_param {
    num_output: 96
    kernel_size: 1
    weight_filler {
      type: "xavier"
    }
    bias_filler {
      type: "constant"
      value: 0.2
    }
  }
}
layer {
  name: "inception_4a/relu_3x3_reduce"
  type: "ReLU"
  bottom: "inception_4a/3x3_reduce"
  top: "inception_4a/3x3_reduce"
}
layer {
  name: "inception_4a/3x3"
  type: "Convolution"
  bottom: "inception_4a/3x3_reduce"
  top: "inception_4a/3x3"
  param {
    lr_mult: 1
    decay_mult: 1
  }
  param {
    lr_mult: 2
    decay_mult: 0
  }
  convolution_param {
    num_output: 208
    pad: 1
    kernel_size: 3
    weight_filler {
      type: "xavier"
    }
    bias_filler {
      type: "constant"
      value: 0.2
    }
  }
}
layer {
  name: "inception_4a/relu_3x3"
  type: "ReLU"
  bottom: "inception_4a/3x3"
  top: "inception_4a/3x3"
}
layer {
  name: "inception_4a/5x5_reduce"
  type: "Convolution"
  bottom: "pool3/3x3_s2"
  top: "inception_4a/5x5_reduce"
  param {
    lr_mult: 1
    decay_mult: 1
  }
  param {
    lr_mult: 2
    decay_mult: 0
  }
  convolution_param {
    num_output: 16
    kernel_size: 1
    weight_filler {
      type: "xavier"
    }
    bias_filler {
      type: "constant"
      value: 0.2
    }
  }
}
layer {
  name: "inception_4a/relu_5x5_reduce"
  type: "ReLU"
  bottom: "inception_4a/5x5_reduce"
  top: "inception_4a/5x5_reduce"
}
layer {
  name: "inception_4a/5x5"
  type: "Convolution"
  bottom: "inception_4a/5x5_reduce"
  top: "inception_4a/5x5"
  param {
    lr_mult: 1
    decay_mult: 1
  }
  param {
    lr_mult: 2
    decay_mult: 0
  }
  convolution_param {
    num_output: 48
    pad: 2
    kernel_size: 5
    weight_filler {
      type: "xavier"
    }
    bias_filler {
      type: "constant"
      value: 0.2
    }
  }
}
layer {
  name: "inception_4a/relu_5x5"
  type: "ReLU"
  bottom: "inception_4a/5x5"
  top: "inception_4a/5x5"
}
layer {
  name: "inception_4a/pool"
  type: "Pooling"
  bottom: "pool3/3x3_s2"
  top: "inception_4a/pool"
  pooling_param {
    pool: MAX
    kernel_size: 3
    stride: 1
    pad: 1
  }
}
layer {
  name: "inception_4a/pool_proj"
  type: "Convolution"
  bottom: "inception_4a/pool"
  top: "inception_4a/pool_proj"
  param {
    lr_mult: 1
    decay_mult: 1
  }
  param {
    lr_mult: 2
    decay_mult: 0
  }
  convolution_param {
    num_output: 64
    kernel_size: 1
    weight_filler {
      type: "xavier"
    }
    bias_filler {
      type: "constant"
      value: 0.2
    }
  }
}
layer {
  name: "inception_4a/relu_pool_proj"
  type: "ReLU"
  bottom: "inception_4a/pool_proj"
  top: "inception_4a/pool_proj"
}
layer {
  name: "inception_4a/output"
  type: "Concat"
  bottom: "inception_4a/1x1"
  bottom: "inception_4a/3x3"
  bottom: "inception_4a/5x5"
  bottom: "inception_4a/pool_proj"
  top: "inception_4a/output"
}
layer {
  name: "loss1/ave_pool"
  type: "Pooling"
  bottom: "inception_4a/output"
  top: "loss1/ave_pool"
  pooling_param {
    pool: AVE
    kernel_size: 5
    stride: 3
  }
}
layer {
  name: "loss1/conv"
  type: "Convolution"
  bottom: "loss1/ave_pool"
  top: "loss1/conv"
  param {
    lr_mult: 1
    decay_mult: 1
  }
  param {
    lr_mult: 2
    decay_mult: 0
  }
  convolution_param {
    num_output: 128
    kernel_size: 1
    weight_filler {
      type: "xavier"
    }
    bias_filler {
      type: "constant"
      value: 0.2
    }
  }
}
layer {
  name: "loss1/relu_conv"
  type: "ReLU"
  bottom: "loss1/conv"
  top: "loss1/conv"
}
layer {
  name: "loss1/fc_kaggle"
  type: "InnerProduct"
  bottom: "loss1/conv"
  top: "loss1/fc_kaggle"
  param {
    lr_mult: 1
    decay_mult: 1
  }
  param {
    lr_mult: 2
    decay_mult: 0
  }
  inner_product_param {
    num_output: 1024
    weight_filler {
      type: "xavier"
    }
    bias_filler {
      type: "constant"
      value: 0.2
    }
  }
}
layer {
  name: "loss1/relu_fc_kaggle"
  type: "ReLU"
  bottom: "loss1/fc_kaggle"
  top: "loss1/fc_kaggle"
}
layer {
  name: "loss1/drop_fc_kaggle"
  type: "Dropout"
  bottom: "loss1/fc_kaggle"
  top: "loss1/fc_kaggle"
  dropout_param {
    dropout_ratio: 0.7
  }
}
layer {
  name: "loss1/classifier_kaggle"
  type: "InnerProduct"
  bottom: "loss1/fc_kaggle"
  top: "loss1/classifier_kaggle"
  param {
    lr_mult: 1
    decay_mult: 1
  }
  param {
    lr_mult: 2
    decay_mult: 0
  }
  inner_product_param {
    num_output: 447
    weight_filler {
      type: "xavier"
    }
    bias_filler {
      type: "constant"
      value: 0
    }
  }
}
layer {
  name: "loss1/loss"
  type: "SoftmaxWithLoss"
  bottom: "loss1/classifier_kaggle"
  bottom: "label"
  top: "loss1/loss1"
  loss_weight: 0.3
}
layer {
  name: "inception_4b/1x1"
  type: "Convolution"
  bottom: "inception_4a/output"
  top: "inception_4b/1x1"
  param {
    lr_mult: 1
    decay_mult: 1
  }
  param {
    lr_mult: 2
    decay_mult: 0
  }
  convolution_param {
    num_output: 160
    kernel_size: 1
    weight_filler {
      type: "xavier"
    }
    bias_filler {
      type: "constant"
      value: 0.2
    }
  }
}
layer {
  name: "inception_4b/relu_1x1"
  type: "ReLU"
  bottom: "inception_4b/1x1"
  top: "inception_4b/1x1"
}
layer {
  name: "inception_4b/3x3_reduce"
  type: "Convolution"
  bottom: "inception_4a/output"
  top: "inception_4b/3x3_reduce"
  param {
    lr_mult: 1
    decay_mult: 1
  }
  param {
    lr_mult: 2
    decay_mult: 0
  }
  convolution_param {
    num_output: 112
    kernel_size: 1
    weight_filler {
      type: "xavier"
    }
    bias_filler {
      type: "constant"
      value: 0.2
    }
  }
}
layer {
  name: "inception_4b/relu_3x3_reduce"
  type: "ReLU"
  bottom: "inception_4b/3x3_reduce"
  top: "inception_4b/3x3_reduce"
}
layer {
  name: "inception_4b/3x3"
  type: "Convolution"
  bottom: "inception_4b/3x3_reduce"
  top: "inception_4b/3x3"
  param {
    lr_mult: 1
    decay_mult: 1
  }
  param {
    lr_mult: 2
    decay_mult: 0
  }
  convolution_param {
    num_output: 224
    pad: 1
    kernel_size: 3
    weight_filler {
      type: "xavier"
    }
    bias_filler {
      type: "constant"
      value: 0.2
    }
  }
}
layer {
  name: "inception_4b/relu_3x3"
  type: "ReLU"
  bottom: "inception_4b/3x3"
  top: "inception_4b/3x3"
}
layer {
  name: "inception_4b/5x5_reduce"
  type: "Convolution"
  bottom: "inception_4a/output"
  top: "inception_4b/5x5_reduce"
  param {
    lr_mult: 1
    decay_mult: 1
  }
  param {
    lr_mult: 2
    decay_mult: 0
  }
  convolution_param {
    num_output: 24
    kernel_size: 1
    weight_filler {
      type: "xavier"
    }
    bias_filler {
      type: "constant"
      value: 0.2
    }
  }
}
layer {
  name: "inception_4b/relu_5x5_reduce"
  type: "ReLU"
  bottom: "inception_4b/5x5_reduce"
  top: "inception_4b/5x5_reduce"
}
layer {
  name: "inception_4b/5x5"
  type: "Convolution"
  bottom: "inception_4b/5x5_reduce"
  top: "inception_4b/5x5"
  param {
    lr_mult: 1
    decay_mult: 1
  }
  param {
    lr_mult: 2
    decay_mult: 0
  }
  convolution_param {
    num_output: 64
    pad: 2
    kernel_size: 5
    weight_filler {
      type: "xavier"
    }
    bias_filler {
      type: "constant"
      value: 0.2
    }
  }
}
layer {
  name: "inception_4b/relu_5x5"
  type: "ReLU"
  bottom: "inception_4b/5x5"
  top: "inception_4b/5x5"
}
layer {
  name: "inception_4b/pool"
  type: "Pooling"
  bottom: "inception_4a/output"
  top: "inception_4b/pool"
  pooling_param {
    pool: MAX
    kernel_size: 3
    stride: 1
    pad: 1
  }
}
layer {
  name: "inception_4b/pool_proj"
  type: "Convolution"
  bottom: "inception_4b/pool"
  top: "inception_4b/pool_proj"
  param {
    lr_mult: 1
    decay_mult: 1
  }
  param {
    lr_mult: 2
    decay_mult: 0
  }
  convolution_param {
    num_output: 64
    kernel_size: 1
    weight_filler {
      type: "xavier"
    }
    bias_filler {
      type: "constant"
      value: 0.2
    }
  }
}
layer {
  name: "inception_4b/relu_pool_proj"
  type: "ReLU"
  bottom: "inception_4b/pool_proj"
  top: "inception_4b/pool_proj"
}
layer {
  name: "inception_4b/output"
  type: "Concat"
  bottom: "inception_4b/1x1"
  bottom: "inception_4b/3x3"
  bottom: "inception_4b/5x5"
  bottom: "inception_4b/pool_proj"
  top: "inception_4b/output"
}
layer {
  name: "inception_4c/1x1"
  type: "Convolution"
  bottom: "inception_4b/output"
  top: "inception_4c/1x1"
  param {
    lr_mult: 1
    decay_mult: 1
  }
  param {
    lr_mult: 2
    decay_mult: 0
  }
  convolution_param {
    num_output: 128
    kernel_size: 1
    weight_filler {
      type: "xavier"
    }
    bias_filler {
      type: "constant"
      value: 0.2
    }
  }
}
layer {
  name: "inception_4c/relu_1x1"
  type: "ReLU"
  bottom: "inception_4c/1x1"
  top: "inception_4c/1x1"
}
layer {
  name: "inception_4c/3x3_reduce"
  type: "Convolution"
  bottom: "inception_4b/output"
  top: "inception_4c/3x3_reduce"
  param {
    lr_mult: 1
    decay_mult: 1
  }
  param {
    lr_mult: 2
    decay_mult: 0
  }
  convolution_param {
    num_output: 128
    kernel_size: 1
    weight_filler {
      type: "xavier"
    }
    bias_filler {
      type: "constant"
      value: 0.2
    }
  }
}
layer {
  name: "inception_4c/relu_3x3_reduce"
  type: "ReLU"
  bottom: "inception_4c/3x3_reduce"
  top: "inception_4c/3x3_reduce"
}
layer {
  name: "inception_4c/3x3"
  type: "Convolution"
  bottom: "inception_4c/3x3_reduce"
  top: "inception_4c/3x3"
  param {
    lr_mult: 1
    decay_mult: 1
  }
  param {
    lr_mult: 2
    decay_mult: 0
  }
  convolution_param {
    num_output: 256
    pad: 1
    kernel_size: 3
    weight_filler {
      type: "xavier"
    }
    bias_filler {
      type: "constant"
      value: 0.2
    }
  }
}
layer {
  name: "inception_4c/relu_3x3"
  type: "ReLU"
  bottom: "inception_4c/3x3"
  top: "inception_4c/3x3"
}
layer {
  name: "inception_4c/5x5_reduce"
  type: "Convolution"
  bottom: "inception_4b/output"
  top: "inception_4c/5x5_reduce"
  param {
    lr_mult: 1
    decay_mult: 1
  }
  param {
    lr_mult: 2
    decay_mult: 0
  }
  convolution_param {
    num_output: 24
    kernel_size: 1
    weight_filler {
      type: "xavier"
    }
    bias_filler {
      type: "constant"
      value: 0.2
    }
  }
}
layer {
  name: "inception_4c/relu_5x5_reduce"
  type: "ReLU"
  bottom: "inception_4c/5x5_reduce"
  top: "inception_4c/5x5_reduce"
}
layer {
  name: "inception_4c/5x5"
  type: "Convolution"
  bottom: "inception_4c/5x5_reduce"
  top: "inception_4c/5x5"
  param {
    lr_mult: 1
    decay_mult: 1
  }
  param {
    lr_mult: 2
    decay_mult: 0
  }
  convolution_param {
    num_output: 64
    pad: 2
    kernel_size: 5
    weight_filler {
      type: "xavier"
    }
    bias_filler {
      type: "constant"
      value: 0.2
    }
  }
}
layer {
  name: "inception_4c/relu_5x5"
  type: "ReLU"
  bottom: "inception_4c/5x5"
  top: "inception_4c/5x5"
}
layer {
  name: "inception_4c/pool"
  type: "Pooling"
  bottom: "inception_4b/output"
  top: "inception_4c/pool"
  pooling_param {
    pool: MAX
    kernel_size: 3
    stride: 1
    pad: 1
  }
}
layer {
  name: "inception_4c/pool_proj"
  type: "Convolution"
  bottom: "inception_4c/pool"
  top: "inception_4c/pool_proj"
  param {
    lr_mult: 1
    decay_mult: 1
  }
  param {
    lr_mult: 2
    decay_mult: 0
  }
  convolution_param {
    num_output: 64
    kernel_size: 1
    weight_filler {
      type: "xavier"
    }
    bias_filler {
      type: "constant"
      value: 0.2
    }
  }
}
layer {
  name: "inception_4c/relu_pool_proj"
  type: "ReLU"
  bottom: "inception_4c/pool_proj"
  top: "inception_4c/pool_proj"
}
layer {
  name: "inception_4c/output"
  type: "Concat"
  bottom: "inception_4c/1x1"
  bottom: "inception_4c/3x3"
  bottom: "inception_4c/5x5"
  bottom: "inception_4c/pool_proj"
  top: "inception_4c/output"
}
layer {
  name: "inception_4d/1x1"
  type: "Convolution"
  bottom: "inception_4c/output"
  top: "inception_4d/1x1"
  param {
    lr_mult: 1
    decay_mult: 1
  }
  param {
    lr_mult: 2
    decay_mult: 0
  }
  convolution_param {
    num_output: 112
    kernel_size: 1
    weight_filler {
      type: "xavier"
    }
    bias_filler {
      type: "constant"
      value: 0.2
    }
  }
}
layer {
  name: "inception_4d/relu_1x1"
  type: "ReLU"
  bottom: "inception_4d/1x1"
  top: "inception_4d/1x1"
}
layer {
  name: "inception_4d/3x3_reduce"
  type: "Convolution"
  bottom: "inception_4c/output"
  top: "inception_4d/3x3_reduce"
  param {
    lr_mult: 1
    decay_mult: 1
  }
  param {
    lr_mult: 2
    decay_mult: 0
  }
  convolution_param {
    num_output: 144
    kernel_size: 1
    weight_filler {
      type: "xavier"
    }
    bias_filler {
      type: "constant"
      value: 0.2
    }
  }
}
layer {
  name: "inception_4d/relu_3x3_reduce"
  type: "ReLU"
  bottom: "inception_4d/3x3_reduce"
  top: "inception_4d/3x3_reduce"
}
layer {
  name: "inception_4d/3x3"
  type: "Convolution"
  bottom: "inception_4d/3x3_reduce"
  top: "inception_4d/3x3"
  param {
    lr_mult: 1
    decay_mult: 1
  }
  param {
    lr_mult: 2
    decay_mult: 0
  }
  convolution_param {
    num_output: 288
    pad: 1
    kernel_size: 3
    weight_filler {
      type: "xavier"
    }
    bias_filler {
      type: "constant"
      value: 0.2
    }
  }
}
layer {
  name: "inception_4d/relu_3x3"
  type: "ReLU"
  bottom: "inception_4d/3x3"
  top: "inception_4d/3x3"
}
layer {
  name: "inception_4d/5x5_reduce"
  type: "Convolution"
  bottom: "inception_4c/output"
  top: "inception_4d/5x5_reduce"
  param {
    lr_mult: 1
    decay_mult: 1
  }
  param {
    lr_mult: 2
    decay_mult: 0
  }
  convolution_param {
    num_output: 32
    kernel_size: 1
    weight_filler {
      type: "xavier"
    }
    bias_filler {
      type: "constant"
      value: 0.2
    }
  }
}
layer {
  name: "inception_4d/relu_5x5_reduce"
  type: "ReLU"
  bottom: "inception_4d/5x5_reduce"
  top: "inception_4d/5x5_reduce"
}
layer {
  name: "inception_4d/5x5"
  type: "Convolution"
  bottom: "inception_4d/5x5_reduce"
  top: "inception_4d/5x5"
  param {
    lr_mult: 1
    decay_mult: 1
  }
  param {
    lr_mult: 2
    decay_mult: 0
  }
  convolution_param {
    num_output: 64
    pad: 2
    kernel_size: 5
    weight_filler {
      type: "xavier"
    }
    bias_filler {
      type: "constant"
      value: 0.2
    }
  }
}
layer {
  name: "inception_4d/relu_5x5"
  type: "ReLU"
  bottom: "inception_4d/5x5"
  top: "inception_4d/5x5"
}
layer {
  name: "inception_4d/pool"
  type: "Pooling"
  bottom: "inception_4c/output"
  top: "inception_4d/pool"
  pooling_param {
    pool: MAX
    kernel_size: 3
    stride: 1
    pad: 1
  }
}
layer {
  name: "inception_4d/pool_proj"
  type: "Convolution"
  bottom: "inception_4d/pool"
  top: "inception_4d/pool_proj"
  param {
    lr_mult: 1
    decay_mult: 1
  }
  param {
    lr_mult: 2
    decay_mult: 0
  }
  convolution_param {
    num_output: 64
    kernel_size: 1
    weight_filler {
      type: "xavier"
    }
    bias_filler {
      type: "constant"
      value: 0.2
    }
  }
}
layer {
  name: "inception_4d/relu_pool_proj"
  type: "ReLU"
  bottom: "inception_4d/pool_proj"
  top: "inception_4d/pool_proj"
}
layer {
  name: "inception_4d/output"
  type: "Concat"
  bottom: "inception_4d/1x1"
  bottom: "inception_4d/3x3"
  bottom: "inception_4d/5x5"
  bottom: "inception_4d/pool_proj"
  top: "inception_4d/output"
}
layer {
  name: "loss2/ave_pool"
  type: "Pooling"
  bottom: "inception_4d/output"
  top: "loss2/ave_pool"
  pooling_param {
    pool: AVE
    kernel_size: 5
    stride: 3
  }
}
layer {
  name: "loss2/conv"
  type: "Convolution"
  bottom: "loss2/ave_pool"
  top: "loss2/conv"
  param {
    lr_mult: 1
    decay_mult: 1
  }
  param {
    lr_mult: 2
    decay_mult: 0
  }
  convolution_param {
    num_output: 128
    kernel_size: 1
    weight_filler {
      type: "xavier"
    }
    bias_filler {
      type: "constant"
      value: 0.2
    }
  }
}
layer {
  name: "loss2/relu_conv"
  type: "ReLU"
  bottom: "loss2/conv"
  top: "loss2/conv"
}
layer {
  name: "loss2/fc_kaggle"
  type: "InnerProduct"
  bottom: "loss2/conv"
  top: "loss2/fc_kaggle"
  param {
    lr_mult: 1
    decay_mult: 1
  }
  param {
    lr_mult: 2
    decay_mult: 0
  }
  inner_product_param {
    num_output: 1024
    weight_filler {
      type: "xavier"
    }
    bias_filler {
      type: "constant"
      value: 0.2
    }
  }
}
layer {
  name: "loss2/relu_fc_kaggle"
  type: "ReLU"
  bottom: "loss2/fc_kaggle"
  top: "loss2/fc_kaggle"
}
layer {
  name: "loss2/drop_fc_kaggle"
  type: "Dropout"
  bottom: "loss2/fc_kaggle"
  top: "loss2/fc_kaggle"
  dropout_param {
    dropout_ratio: 0.7
  }
}
layer {
  name: "loss2/classifier_kaggle"
  type: "InnerProduct"
  bottom: "loss2/fc_kaggle"
  top: "loss2/classifier_kaggle"
  param {
    lr_mult: 1
    decay_mult: 1
  }
  param {
    lr_mult: 2
    decay_mult: 0
  }
  inner_product_param {
    num_output: 447
    weight_filler {
      type: "xavier"
    }
    bias_filler {
      type: "constant"
      value: 0
    }
  }
}
layer {
  name: "loss2/loss"
  type: "SoftmaxWithLoss"
  bottom: "loss2/classifier_kaggle"
  bottom: "label"
  top: "loss2/loss1"
  loss_weight: 0.3
}
layer {
  name: "inception_4e/1x1"
  type: "Convolution"
  bottom: "inception_4d/output"
  top: "inception_4e/1x1"
  param {
    lr_mult: 1
    decay_mult: 1
  }
  param {
    lr_mult: 2
    decay_mult: 0
  }
  convolution_param {
    num_output: 256
    kernel_size: 1
    weight_filler {
      type: "xavier"
    }
    bias_filler {
      type: "constant"
      value: 0.2
    }
  }
}
layer {
  name: "inception_4e/relu_1x1"
  type: "ReLU"
  bottom: "inception_4e/1x1"
  top: "inception_4e/1x1"
}
layer {
  name: "inception_4e/3x3_reduce"
  type: "Convolution"
  bottom: "inception_4d/output"
  top: "inception_4e/3x3_reduce"
  param {
    lr_mult: 1
    decay_mult: 1
  }
  param {
    lr_mult: 2
    decay_mult: 0
  }
  convolution_param {
    num_output: 160
    kernel_size: 1
    weight_filler {
      type: "xavier"
    }
    bias_filler {
      type: "constant"
      value: 0.2
    }
  }
}
layer {
  name: "inception_4e/relu_3x3_reduce"
  type: "ReLU"
  bottom: "inception_4e/3x3_reduce"
  top: "inception_4e/3x3_reduce"
}
layer {
  name: "inception_4e/3x3"
  type: "Convolution"
  bottom: "inception_4e/3x3_reduce"
  top: "inception_4e/3x3"
  param {
    lr_mult: 1
    decay_mult: 1
  }
  param {
    lr_mult: 2
    decay_mult: 0
  }
  convolution_param {
    num_output: 320
    pad: 1
    kernel_size: 3
    weight_filler {
      type: "xavier"
    }
    bias_filler {
      type: "constant"
      value: 0.2
    }
  }
}
layer {
  name: "inception_4e/relu_3x3"
  type: "ReLU"
  bottom: "inception_4e/3x3"
  top: "inception_4e/3x3"
}
layer {
  name: "inception_4e/5x5_reduce"
  type: "Convolution"
  bottom: "inception_4d/output"
  top: "inception_4e/5x5_reduce"
  param {
    lr_mult: 1
    decay_mult: 1
  }
  param {
    lr_mult: 2
    decay_mult: 0
  }
  convolution_param {
    num_output: 32
    kernel_size: 1
    weight_filler {
      type: "xavier"
    }
    bias_filler {
      type: "constant"
      value: 0.2
    }
  }
}
layer {
  name: "inception_4e/relu_5x5_reduce"
  type: "ReLU"
  bottom: "inception_4e/5x5_reduce"
  top: "inception_4e/5x5_reduce"
}
layer {
  name: "inception_4e/5x5"
  type: "Convolution"
  bottom: "inception_4e/5x5_reduce"
  top: "inception_4e/5x5"
  param {
    lr_mult: 1
    decay_mult: 1
  }
  param {
    lr_mult: 2
    decay_mult: 0
  }
  convolution_param {
    num_output: 128
    pad: 2
    kernel_size: 5
    weight_filler {
      type: "xavier"
    }
    bias_filler {
      type: "constant"
      value: 0.2
    }
  }
}
layer {
  name: "inception_4e/relu_5x5"
  type: "ReLU"
  bottom: "inception_4e/5x5"
  top: "inception_4e/5x5"
I1220 11:11:03.987874 28373 layer_factory.hpp:74] Creating layer data
I1220 11:11:03.987915 28373 net.cpp:84] Creating Layer data
I1220 11:11:03.987928 28373 net.cpp:338] data -> data
I1220 11:11:03.987982 28373 net.cpp:338] data -> label
I1220 11:11:03.987996 28373 net.cpp:113] Setting up data
I1220 11:11:03.988006 28373 image_data_layer.cpp:36] Opening file /home/coldmanck/kaggle/label_train_full.txt
I1220 11:11:03.991025 28373 image_data_layer.cpp:46] Shuffling data
I1220 11:11:03.992035 28373 image_data_layer.cpp:51] A total of 4235 images.
I1220 11:11:03.993206 28373 image_data_layer.cpp:80] output data size: 80,3,224,224
I1220 11:11:04.862520 28373 net.cpp:120] Top shape: 80 3 224 224 (12042240)
I1220 11:11:04.862576 28373 net.cpp:120] Top shape: 80 (80)
I1220 11:11:04.862591 28373 layer_factory.hpp:74] Creating layer label_data_1_split
I1220 11:11:04.862617 28373 net.cpp:84] Creating Layer label_data_1_split
I1220 11:11:04.862624 28373 net.cpp:380] label_data_1_split <- label
I1220 11:11:04.862640 28373 net.cpp:338] label_data_1_split -> label_data_1_split_0
I1220 11:11:04.862655 28373 net.cpp:338] label_data_1_split -> label_data_1_split_1
I1220 11:11:04.862674 28373 net.cpp:338] label_data_1_split -> label_data_1_split_2
I1220 11:11:04.862696 28373 net.cpp:113] Setting up label_data_1_split
I1220 11:11:04.862707 28373 net.cpp:120] Top shape: 80 (80)
I1220 11:11:04.862712 28373 net.cpp:120] Top shape: 80 (80)
I1220 11:11:04.862717 28373 net.cpp:120] Top shape: 80 (80)
I1220 11:11:04.862722 28373 layer_factory.hpp:74] Creating layer conv1/7x7_s2
I1220 11:11:04.862737 28373 net.cpp:84] Creating Layer conv1/7x7_s2
I1220 11:11:04.862742 28373 net.cpp:380] conv1/7x7_s2 <- data
I1220 11:11:04.862752 28373 net.cpp:338] conv1/7x7_s2 -> conv1/7x7_s2
I1220 11:11:04.862764 28373 net.cpp:113] Setting up conv1/7x7_s2
I1220 11:11:05.298959 28373 net.cpp:120] Top shape: 80 64 112 112 (64225280)
I1220 11:11:05.299036 28373 layer_factory.hpp:74] Creating layer conv1/relu_7x7
I1220 11:11:05.299057 28373 net.cpp:84] Creating Layer conv1/relu_7x7
I1220 11:11:05.299068 28373 net.cpp:380] conv1/relu_7x7 <- conv1/7x7_s2
I1220 11:11:05.299083 28373 net.cpp:327] conv1/relu_7x7 -> conv1/7x7_s2 (in-place)
I1220 11:11:05.299103 28373 net.cpp:113] Setting up conv1/relu_7x7
I1220 11:11:05.305733 28373 net.cpp:120] Top shape: 80 64 112 112 (64225280)
I1220 11:11:05.305763 28373 layer_factory.hpp:74] Creating layer pool1/3x3_s2
I1220 11:11:05.305788 28373 net.cpp:84] Creating Layer pool1/3x3_s2
I1220 11:11:05.305799 28373 net.cpp:380] pool1/3x3_s2 <- conv1/7x7_s2
I1220 11:11:05.305814 28373 net.cpp:338] pool1/3x3_s2 -> pool1/3x3_s2
I1220 11:11:05.305830 28373 net.cpp:113] Setting up pool1/3x3_s2
I1220 11:11:05.305973 28373 net.cpp:120] Top shape: 80 64 56 56 (16056320)
I1220 11:11:05.305986 28373 layer_factory.hpp:74] Creating layer pool1/norm1
I1220 11:11:05.306005 28373 net.cpp:84] Creating Layer pool1/norm1
I1220 11:11:05.306015 28373 net.cpp:380] pool1/norm1 <- pool1/3x3_s2
I1220 11:11:05.306026 28373 net.cpp:338] pool1/norm1 -> pool1/norm1
I1220 11:11:05.306042 28373 net.cpp:113] Setting up pool1/norm1
I1220 11:11:05.306056 28373 net.cpp:120] Top shape: 80 64 56 56 (16056320)
I1220 11:11:05.306066 28373 layer_factory.hpp:74] Creating layer conv2/3x3_reduce
I1220 11:11:05.306082 28373 net.cpp:84] Creating Layer conv2/3x3_reduce
I1220 11:11:05.306090 28373 net.cpp:380] conv2/3x3_reduce <- pool1/norm1
I1220 11:11:05.306102 28373 net.cpp:338] conv2/3x3_reduce -> conv2/3x3_reduce
I1220 11:11:05.306120 28373 net.cpp:113] Setting up conv2/3x3_reduce
I1220 11:11:05.307096 28373 net.cpp:120] Top shape: 80 64 56 56 (16056320)
I1220 11:11:05.307129 28373 layer_factory.hpp:74] Creating layer conv2/relu_3x3_reduce
I1220 11:11:05.307144 28373 net.cpp:84] Creating Layer conv2/relu_3x3_reduce
I1220 11:11:05.307154 28373 net.cpp:380] conv2/relu_3x3_reduce <- conv2/3x3_reduce
I1220 11:11:05.307168 28373 net.cpp:327] conv2/relu_3x3_reduce -> conv2/3x3_reduce (in-place)
I1220 11:11:05.307181 28373 net.cpp:113] Setting up conv2/relu_3x3_reduce
I1220 11:11:05.307296 28373 net.cpp:120] Top shape: 80 64 56 56 (16056320)
I1220 11:11:05.307307 28373 layer_factory.hpp:74] Creating layer conv2/3x3
I1220 11:11:05.307325 28373 net.cpp:84] Creating Layer conv2/3x3
I1220 11:11:05.307334 28373 net.cpp:380] conv2/3x3 <- conv2/3x3_reduce
I1220 11:11:05.307348 28373 net.cpp:338] conv2/3x3 -> conv2/3x3
I1220 11:11:05.307363 28373 net.cpp:113] Setting up conv2/3x3
I1220 11:11:05.314376 28373 net.cpp:120] Top shape: 80 192 56 56 (48168960)
I1220 11:11:05.314440 28373 layer_factory.hpp:74] Creating layer conv2/relu_3x3
I1220 11:11:05.314460 28373 net.cpp:84] Creating Layer conv2/relu_3x3
I1220 11:11:05.314470 28373 net.cpp:380] conv2/relu_3x3 <- conv2/3x3
I1220 11:11:05.314484 28373 net.cpp:327] conv2/relu_3x3 -> conv2/3x3 (in-place)
I1220 11:11:05.314499 28373 net.cpp:113] Setting up conv2/relu_3x3
I1220 11:11:05.315268 28373 net.cpp:120] Top shape: 80 192 56 56 (48168960)
I1220 11:11:05.315294 28373 layer_factory.hpp:74] Creating layer conv2/norm2
I1220 11:11:05.315312 28373 net.cpp:84] Creating Layer conv2/norm2
I1220 11:11:05.315322 28373 net.cpp:380] conv2/norm2 <- conv2/3x3
I1220 11:11:05.315357 28373 net.cpp:338] conv2/norm2 -> conv2/norm2
I1220 11:11:05.315393 28373 net.cpp:113] Setting up conv2/norm2
I1220 11:11:05.315409 28373 net.cpp:120] Top shape: 80 192 56 56 (48168960)
I1220 11:11:05.315418 28373 layer_factory.hpp:74] Creating layer pool2/3x3_s2
I1220 11:11:05.315431 28373 net.cpp:84] Creating Layer pool2/3x3_s2
I1220 11:11:05.315438 28373 net.cpp:380] pool2/3x3_s2 <- conv2/norm2
I1220 11:11:05.315450 28373 net.cpp:338] pool2/3x3_s2 -> pool2/3x3_s2
I1220 11:11:05.315462 28373 net.cpp:113] Setting up pool2/3x3_s2
I1220 11:11:05.315585 28373 net.cpp:120] Top shape: 80 192 28 28 (12042240)
I1220 11:11:05.315596 28373 layer_factory.hpp:74] Creating layer pool2/3x3_s2_pool2/3x3_s2_0_split
I1220 11:11:05.315609 28373 net.cpp:84] Creating Layer pool2/3x3_s2_pool2/3x3_s2_0_split
I1220 11:11:05.315618 28373 net.cpp:380] pool2/3x3_s2_pool2/3x3_s2_0_split <- pool2/3x3_s2
I1220 11:11:05.315629 28373 net.cpp:338] pool2/3x3_s2_pool2/3x3_s2_0_split -> pool2/3x3_s2_pool2/3x3_s2_0_split_0
I1220 11:11:05.315642 28373 net.cpp:338] pool2/3x3_s2_pool2/3x3_s2_0_split -> pool2/3x3_s2_pool2/3x3_s2_0_split_1
I1220 11:11:05.315654 28373 net.cpp:338] pool2/3x3_s2_pool2/3x3_s2_0_split -> pool2/3x3_s2_pool2/3x3_s2_0_split_2
I1220 11:11:05.315666 28373 net.cpp:338] pool2/3x3_s2_pool2/3x3_s2_0_split -> pool2/3x3_s2_pool2/3x3_s2_0_split_3
I1220 11:11:05.315675 28373 net.cpp:113] Setting up pool2/3x3_s2_pool2/3x3_s2_0_split
I1220 11:11:05.315688 28373 net.cpp:120] Top shape: 80 192 28 28 (12042240)
I1220 11:11:05.315697 28373 net.cpp:120] Top shape: 80 192 28 28 (12042240)
I1220 11:11:05.315706 28373 net.cpp:120] Top shape: 80 192 28 28 (12042240)
I1220 11:11:05.315716 28373 net.cpp:120] Top shape: 80 192 28 28 (12042240)
I1220 11:11:05.315722 28373 layer_factory.hpp:74] Creating layer inception_3a/1x1
I1220 11:11:05.315737 28373 net.cpp:84] Creating Layer inception_3a/1x1
I1220 11:11:05.315745 28373 net.cpp:380] inception_3a/1x1 <- pool2/3x3_s2_pool2/3x3_s2_0_split_0
I1220 11:11:05.315757 28373 net.cpp:338] inception_3a/1x1 -> inception_3a/1x1
I1220 11:11:05.315773 28373 net.cpp:113] Setting up inception_3a/1x1
I1220 11:11:05.316952 28373 net.cpp:120] Top shape: 80 64 28 28 (4014080)
I1220 11:11:05.316979 28373 layer_factory.hpp:74] Creating layer inception_3a/relu_1x1
I1220 11:11:05.316993 28373 net.cpp:84] Creating Layer inception_3a/relu_1x1
I1220 11:11:05.317001 28373 net.cpp:380] inception_3a/relu_1x1 <- inception_3a/1x1
I1220 11:11:05.317013 28373 net.cpp:327] inception_3a/relu_1x1 -> inception_3a/1x1 (in-place)
I1220 11:11:05.317025 28373 net.cpp:113] Setting up inception_3a/relu_1x1
I1220 11:11:05.317153 28373 net.cpp:120] Top shape: 80 64 28 28 (4014080)
I1220 11:11:05.317167 28373 layer_factory.hpp:74] Creating layer inception_3a/3x3_reduce
I1220 11:11:05.317180 28373 net.cpp:84] Creating Layer inception_3a/3x3_reduce
I1220 11:11:05.317189 28373 net.cpp:380] inception_3a/3x3_reduce <- pool2/3x3_s2_pool2/3x3_s2_0_split_1
I1220 11:11:05.317203 28373 net.cpp:338] inception_3a/3x3_reduce -> inception_3a/3x3_reduce
I1220 11:11:05.317217 28373 net.cpp:113] Setting up inception_3a/3x3_reduce
I1220 11:11:05.318259 28373 net.cpp:120] Top shape: 80 96 28 28 (6021120)
I1220 11:11:05.318287 28373 layer_factory.hpp:74] Creating layer inception_3a/relu_3x3_reduce
I1220 11:11:05.318303 28373 net.cpp:84] Creating Layer inception_3a/relu_3x3_reduce
I1220 11:11:05.318312 28373 net.cpp:380] inception_3a/relu_3x3_reduce <- inception_3a/3x3_reduce
I1220 11:11:05.318331 28373 net.cpp:327] inception_3a/relu_3x3_reduce -> inception_3a/3x3_reduce (in-place)
I1220 11:11:05.318343 28373 net.cpp:113] Setting up inception_3a/relu_3x3_reduce
I1220 11:11:05.318466 28373 net.cpp:120] Top shape: 80 96 28 28 (6021120)
I1220 11:11:05.318477 28373 layer_factory.hpp:74] Creating layer inception_3a/3x3
I1220 11:11:05.318495 28373 net.cpp:84] Creating Layer inception_3a/3x3
I1220 11:11:05.318505 28373 net.cpp:380] inception_3a/3x3 <- inception_3a/3x3_reduce
I1220 11:11:05.318521 28373 net.cpp:338] inception_3a/3x3 -> inception_3a/3x3
I1220 11:11:05.318544 28373 net.cpp:113] Setting up inception_3a/3x3
I1220 11:11:05.321737 28373 net.cpp:120] Top shape: 80 128 28 28 (8028160)
I1220 11:11:05.321766 28373 layer_factory.hpp:74] Creating layer inception_3a/relu_3x3
I1220 11:11:05.321779 28373 net.cpp:84] Creating Layer inception_3a/relu_3x3
I1220 11:11:05.321787 28373 net.cpp:380] inception_3a/relu_3x3 <- inception_3a/3x3
I1220 11:11:05.321799 28373 net.cpp:327] inception_3a/relu_3x3 -> inception_3a/3x3 (in-place)
I1220 11:11:05.321812 28373 net.cpp:113] Setting up inception_3a/relu_3x3
I1220 11:11:05.322474 28373 net.cpp:120] Top shape: 80 128 28 28 (8028160)
I1220 11:11:05.322490 28373 layer_factory.hpp:74] Creating layer inception_3a/5x5_reduce
I1220 11:11:05.322507 28373 net.cpp:84] Creating Layer inception_3a/5x5_reduce
I1220 11:11:05.322515 28373 net.cpp:380] inception_3a/5x5_reduce <- pool2/3x3_s2_pool2/3x3_s2_0_split_2
I1220 11:11:05.322527 28373 net.cpp:338] inception_3a/5x5_reduce -> inception_3a/5x5_reduce
I1220 11:11:05.322546 28373 net.cpp:113] Setting up inception_3a/5x5_reduce
I1220 11:11:05.329110 28373 net.cpp:120] Top shape: 80 16 28 28 (1003520)
I1220 11:11:05.329144 28373 layer_factory.hpp:74] Creating layer inception_3a/relu_5x5_reduce
I1220 11:11:05.329156 28373 net.cpp:84] Creating Layer inception_3a/relu_5x5_reduce
I1220 11:11:05.329169 28373 net.cpp:380] inception_3a/relu_5x5_reduce <- inception_3a/5x5_reduce
I1220 11:11:05.329181 28373 net.cpp:327] inception_3a/relu_5x5_reduce -> inception_3a/5x5_reduce (in-place)
I1220 11:11:05.329197 28373 net.cpp:113] Setting up inception_3a/relu_5x5_reduce
I1220 11:11:05.329321 28373 net.cpp:120] Top shape: 80 16 28 28 (1003520)
I1220 11:11:05.329331 28373 layer_factory.hpp:74] Creating layer inception_3a/5x5
I1220 11:11:05.329349 28373 net.cpp:84] Creating Layer inception_3a/5x5
I1220 11:11:05.329356 28373 net.cpp:380] inception_3a/5x5 <- inception_3a/5x5_reduce
I1220 11:11:05.329370 28373 net.cpp:338] inception_3a/5x5 -> inception_3a/5x5
I1220 11:11:05.329383 28373 net.cpp:113] Setting up inception_3a/5x5
I1220 11:11:05.330366 28373 net.cpp:120] Top shape: 80 32 28 28 (2007040)
I1220 11:11:05.330394 28373 layer_factory.hpp:74] Creating layer inception_3a/relu_5x5
I1220 11:11:05.330410 28373 net.cpp:84] Creating Layer inception_3a/relu_5x5
I1220 11:11:05.330418 28373 net.cpp:380] inception_3a/relu_5x5 <- inception_3a/5x5
I1220 11:11:05.330430 28373 net.cpp:327] inception_3a/relu_5x5 -> inception_3a/5x5 (in-place)
I1220 11:11:05.330441 28373 net.cpp:113] Setting up inception_3a/relu_5x5
I1220 11:11:05.330551 28373 net.cpp:120] Top shape: 80 32 28 28 (2007040)
I1220 11:11:05.330560 28373 layer_factory.hpp:74] Creating layer inception_3a/pool
I1220 11:11:05.330569 28373 layer_factory.cpp:56] CUDNN does not support padding or multiple tops. Using Caffe's own pooling layer.
I1220 11:11:05.330584 28373 net.cpp:84] Creating Layer inception_3a/pool
I1220 11:11:05.330591 28373 net.cpp:380] inception_3a/pool <- pool2/3x3_s2_pool2/3x3_s2_0_split_3
I1220 11:11:05.330602 28373 net.cpp:338] inception_3a/pool -> inception_3a/pool
I1220 11:11:05.330615 28373 net.cpp:113] Setting up inception_3a/pool
I1220 11:11:05.330631 28373 net.cpp:120] Top shape: 80 192 28 28 (12042240)
I1220 11:11:05.330638 28373 layer_factory.hpp:74] Creating layer inception_3a/pool_proj
I1220 11:11:05.330651 28373 net.cpp:84] Creating Layer inception_3a/pool_proj
I1220 11:11:05.330658 28373 net.cpp:380] inception_3a/pool_proj <- inception_3a/pool
I1220 11:11:05.330672 28373 net.cpp:338] inception_3a/pool_proj -> inception_3a/pool_proj
I1220 11:11:05.330683 28373 net.cpp:113] Setting up inception_3a/pool_proj
I1220 11:11:05.331656 28373 net.cpp:120] Top shape: 80 32 28 28 (2007040)
I1220 11:11:05.331687 28373 layer_factory.hpp:74] Creating layer inception_3a/relu_pool_proj
I1220 11:11:05.331701 28373 net.cpp:84] Creating Layer inception_3a/relu_pool_proj
I1220 11:11:05.331708 28373 net.cpp:380] inception_3a/relu_pool_proj <- inception_3a/pool_proj
I1220 11:11:05.331719 28373 net.cpp:327] inception_3a/relu_pool_proj -> inception_3a/pool_proj (in-place)
I1220 11:11:05.331748 28373 net.cpp:113] Setting up inception_3a/relu_pool_proj
I1220 11:11:05.331876 28373 net.cpp:120] Top shape: 80 32 28 28 (2007040)
I1220 11:11:05.331887 28373 layer_factory.hpp:74] Creating layer inception_3a/output
I1220 11:11:05.331898 28373 net.cpp:84] Creating Layer inception_3a/output
I1220 11:11:05.331905 28373 net.cpp:380] inception_3a/output <- inception_3a/1x1
I1220 11:11:05.331918 28373 net.cpp:380] inception_3a/output <- inception_3a/3x3
I1220 11:11:05.331926 28373 net.cpp:380] inception_3a/output <- inception_3a/5x5
I1220 11:11:05.331934 28373 net.cpp:380] inception_3a/output <- inception_3a/pool_proj
I1220 11:11:05.331944 28373 net.cpp:338] inception_3a/output -> inception_3a/output
I1220 11:11:05.331956 28373 net.cpp:113] Setting up inception_3a/output
I1220 11:11:05.331969 28373 net.cpp:120] Top shape: 80 256 28 28 (16056320)
I1220 11:11:05.331976 28373 layer_factory.hpp:74] Creating layer inception_3a/output_inception_3a/output_0_split
I1220 11:11:05.331986 28373 net.cpp:84] Creating Layer inception_3a/output_inception_3a/output_0_split
I1220 11:11:05.331993 28373 net.cpp:380] inception_3a/output_inception_3a/output_0_split <- inception_3a/output
I1220 11:11:05.332005 28373 net.cpp:338] inception_3a/output_inception_3a/output_0_split -> inception_3a/output_inception_3a/output_0_split_0
I1220 11:11:05.332017 28373 net.cpp:338] inception_3a/output_inception_3a/output_0_split -> inception_3a/output_inception_3a/output_0_split_1
I1220 11:11:05.332028 28373 net.cpp:338] inception_3a/output_inception_3a/output_0_split -> inception_3a/output_inception_3a/output_0_split_2
I1220 11:11:05.332039 28373 net.cpp:338] inception_3a/output_inception_3a/output_0_split -> inception_3a/output_inception_3a/output_0_split_3
I1220 11:11:05.332049 28373 net.cpp:113] Setting up inception_3a/output_inception_3a/output_0_split
I1220 11:11:05.332061 28373 net.cpp:120] Top shape: 80 256 28 28 (16056320)
I1220 11:11:05.332069 28373 net.cpp:120] Top shape: 80 256 28 28 (16056320)
I1220 11:11:05.332077 28373 net.cpp:120] Top shape: 80 256 28 28 (16056320)
I1220 11:11:05.332085 28373 net.cpp:120] Top shape: 80 256 28 28 (16056320)
I1220 11:11:05.332093 28373 layer_factory.hpp:74] Creating layer inception_3b/1x1
I1220 11:11:05.332108 28373 net.cpp:84] Creating Layer inception_3b/1x1
I1220 11:11:05.332114 28373 net.cpp:380] inception_3b/1x1 <- inception_3a/output_inception_3a/output_0_split_0
I1220 11:11:05.332128 28373 net.cpp:338] inception_3b/1x1 -> inception_3b/1x1
I1220 11:11:05.332139 28373 net.cpp:113] Setting up inception_3b/1x1
I1220 11:11:05.334089 28373 net.cpp:120] Top shape: 80 128 28 28 (8028160)
I1220 11:11:05.334115 28373 layer_factory.hpp:74] Creating layer inception_3b/relu_1x1
I1220 11:11:05.334127 28373 net.cpp:84] Creating Layer inception_3b/relu_1x1
I1220 11:11:05.334136 28373 net.cpp:380] inception_3b/relu_1x1 <- inception_3b/1x1
I1220 11:11:05.334151 28373 net.cpp:327] inception_3b/relu_1x1 -> inception_3b/1x1 (in-place)
I1220 11:11:05.334163 28373 net.cpp:113] Setting up inception_3b/relu_1x1
I1220 11:11:05.334797 28373 net.cpp:120] Top shape: 80 128 28 28 (8028160)
I1220 11:11:05.334815 28373 layer_factory.hpp:74] Creating layer inception_3b/3x3_reduce
I1220 11:11:05.334831 28373 net.cpp:84] Creating Layer inception_3b/3x3_reduce
I1220 11:11:05.334841 28373 net.cpp:380] inception_3b/3x3_reduce <- inception_3a/output_inception_3a/output_0_split_1
I1220 11:11:05.334852 28373 net.cpp:338] inception_3b/3x3_reduce -> inception_3b/3x3_reduce
I1220 11:11:05.334870 28373 net.cpp:113] Setting up inception_3b/3x3_reduce
I1220 11:11:05.336097 28373 net.cpp:120] Top shape: 80 128 28 28 (8028160)
I1220 11:11:05.336120 28373 layer_factory.hpp:74] Creating layer inception_3b/relu_3x3_reduce
I1220 11:11:05.336135 28373 net.cpp:84] Creating Layer inception_3b/relu_3x3_reduce
I1220 11:11:05.336144 28373 net.cpp:380] inception_3b/relu_3x3_reduce <- inception_3b/3x3_reduce
I1220 11:11:05.336155 28373 net.cpp:327] inception_3b/relu_3x3_reduce -> inception_3b/3x3_reduce (in-place)
I1220 11:11:05.336168 28373 net.cpp:113] Setting up inception_3b/relu_3x3_reduce
I1220 11:11:05.336293 28373 net.cpp:120] Top shape: 80 128 28 28 (8028160)
I1220 11:11:05.336304 28373 layer_factory.hpp:74] Creating layer inception_3b/3x3
I1220 11:11:05.336321 28373 net.cpp:84] Creating Layer inception_3b/3x3
I1220 11:11:05.336330 28373 net.cpp:380] inception_3b/3x3 <- inception_3b/3x3_reduce
I1220 11:11:05.336344 28373 net.cpp:338] inception_3b/3x3 -> inception_3b/3x3
I1220 11:11:05.336359 28373 net.cpp:113] Setting up inception_3b/3x3
I1220 11:11:05.341405 28373 net.cpp:120] Top shape: 80 192 28 28 (12042240)
I1220 11:11:05.341434 28373 layer_factory.hpp:74] Creating layer inception_3b/relu_3x3
I1220 11:11:05.341450 28373 net.cpp:84] Creating Layer inception_3b/relu_3x3
I1220 11:11:05.341460 28373 net.cpp:380] inception_3b/relu_3x3 <- inception_3b/3x3
I1220 11:11:05.341471 28373 net.cpp:327] inception_3b/relu_3x3 -> inception_3b/3x3 (in-place)
I1220 11:11:05.341485 28373 net.cpp:113] Setting up inception_3b/relu_3x3
I1220 11:11:05.341651 28373 net.cpp:120] Top shape: 80 192 28 28 (12042240)
I1220 11:11:05.341665 28373 layer_factory.hpp:74] Creating layer inception_3b/5x5_reduce
I1220 11:11:05.341681 28373 net.cpp:84] Creating Layer inception_3b/5x5_reduce
I1220 11:11:05.341689 28373 net.cpp:380] inception_3b/5x5_reduce <- inception_3a/output_inception_3a/output_0_split_2
I1220 11:11:05.341704 28373 net.cpp:338] inception_3b/5x5_reduce -> inception_3b/5x5_reduce
I1220 11:11:05.341718 28373 net.cpp:113] Setting up inception_3b/5x5_reduce
I1220 11:11:05.342617 28373 net.cpp:120] Top shape: 80 32 28 28 (2007040)
I1220 11:11:05.342644 28373 layer_factory.hpp:74] Creating layer inception_3b/relu_5x5_reduce
I1220 11:11:05.342656 28373 net.cpp:84] Creating Layer inception_3b/relu_5x5_reduce
I1220 11:11:05.342664 28373 net.cpp:380] inception_3b/relu_5x5_reduce <- inception_3b/5x5_reduce
I1220 11:11:05.342676 28373 net.cpp:327] inception_3b/relu_5x5_reduce -> inception_3b/5x5_reduce (in-place)
I1220 11:11:05.342689 28373 net.cpp:113] Setting up inception_3b/relu_5x5_reduce
I1220 11:11:05.342808 28373 net.cpp:120] Top shape: 80 32 28 28 (2007040)
I1220 11:11:05.342819 28373 layer_factory.hpp:74] Creating layer inception_3b/5x5
I1220 11:11:05.342833 28373 net.cpp:84] Creating Layer inception_3b/5x5
I1220 11:11:05.342841 28373 net.cpp:380] inception_3b/5x5 <- inception_3b/5x5_reduce
I1220 11:11:05.342866 28373 net.cpp:338] inception_3b/5x5 -> inception_3b/5x5
I1220 11:11:05.342886 28373 net.cpp:113] Setting up inception_3b/5x5
I1220 11:11:05.345017 28373 net.cpp:120] Top shape: 80 96 28 28 (6021120)
I1220 11:11:05.345041 28373 layer_factory.hpp:74] Creating layer inception_3b/relu_5x5
I1220 11:11:05.345082 28373 net.cpp:84] Creating Layer inception_3b/relu_5x5
I1220 11:11:05.345093 28373 net.cpp:380] inception_3b/relu_5x5 <- inception_3b/5x5
I1220 11:11:05.345103 28373 net.cpp:327] inception_3b/relu_5x5 -> inception_3b/5x5 (in-place)
I1220 11:11:05.345115 28373 net.cpp:113] Setting up inception_3b/relu_5x5
I1220 11:11:05.345479 28373 net.cpp:120] Top shape: 80 96 28 28 (6021120)
I1220 11:11:05.345495 28373 layer_factory.hpp:74] Creating layer inception_3b/pool
I1220 11:11:05.345505 28373 layer_factory.cpp:56] CUDNN does not support padding or multiple tops. Using Caffe's own pooling layer.
I1220 11:11:05.345515 28373 net.cpp:84] Creating Layer inception_3b/pool
I1220 11:11:05.345525 28373 net.cpp:380] inception_3b/pool <- inception_3a/output_inception_3a/output_0_split_3
I1220 11:11:05.345540 28373 net.cpp:338] inception_3b/pool -> inception_3b/pool
I1220 11:11:05.345552 28373 net.cpp:113] Setting up inception_3b/pool
I1220 11:11:05.345567 28373 net.cpp:120] Top shape: 80 256 28 28 (16056320)
I1220 11:11:05.345574 28373 layer_factory.hpp:74] Creating layer inception_3b/pool_proj
I1220 11:11:05.345589 28373 net.cpp:84] Creating Layer inception_3b/pool_proj
I1220 11:11:05.345599 28373 net.cpp:380] inception_3b/pool_proj <- inception_3b/pool
I1220 11:11:05.345612 28373 net.cpp:338] inception_3b/pool_proj -> inception_3b/pool_proj
I1220 11:11:05.345624 28373 net.cpp:113] Setting up inception_3b/pool_proj
I1220 11:11:05.346650 28373 net.cpp:120] Top shape: 80 64 28 28 (4014080)
I1220 11:11:05.346688 28373 layer_factory.hpp:74] Creating layer inception_3b/relu_pool_proj
I1220 11:11:05.346701 28373 net.cpp:84] Creating Layer inception_3b/relu_pool_proj
I1220 11:11:05.346710 28373 net.cpp:380] inception_3b/relu_pool_proj <- inception_3b/pool_proj
I1220 11:11:05.346721 28373 net.cpp:327] inception_3b/relu_pool_proj -> inception_3b/pool_proj (in-place)
I1220 11:11:05.346735 28373 net.cpp:113] Setting up inception_3b/relu_pool_proj
I1220 11:11:05.346873 28373 net.cpp:120] Top shape: 80 64 28 28 (4014080)
I1220 11:11:05.346886 28373 layer_factory.hpp:74] Creating layer inception_3b/output
I1220 11:11:05.346901 28373 net.cpp:84] Creating Layer inception_3b/output
I1220 11:11:05.346910 28373 net.cpp:380] inception_3b/output <- inception_3b/1x1
I1220 11:11:05.346920 28373 net.cpp:380] inception_3b/output <- inception_3b/3x3
I1220 11:11:05.346930 28373 net.cpp:380] inception_3b/output <- inception_3b/5x5
I1220 11:11:05.346937 28373 net.cpp:380] inception_3b/output <- inception_3b/pool_proj
I1220 11:11:05.346946 28373 net.cpp:338] inception_3b/output -> inception_3b/output
I1220 11:11:05.346958 28373 net.cpp:113] Setting up inception_3b/output
I1220 11:11:05.346971 28373 net.cpp:120] Top shape: 80 480 28 28 (30105600)
I1220 11:11:05.346977 28373 layer_factory.hpp:74] Creating layer pool3/3x3_s2
I1220 11:11:05.346988 28373 net.cpp:84] Creating Layer pool3/3x3_s2
I1220 11:11:05.346997 28373 net.cpp:380] pool3/3x3_s2 <- inception_3b/output
I1220 11:11:05.347009 28373 net.cpp:338] pool3/3x3_s2 -> pool3/3x3_s2
I1220 11:11:05.347019 28373 net.cpp:113] Setting up pool3/3x3_s2
I1220 11:11:05.347136 28373 net.cpp:120] Top shape: 80 480 14 14 (7526400)
I1220 11:11:05.347146 28373 layer_factory.hpp:74] Creating layer pool3/3x3_s2_pool3/3x3_s2_0_split
I1220 11:11:05.347159 28373 net.cpp:84] Creating Layer pool3/3x3_s2_pool3/3x3_s2_0_split
I1220 11:11:05.347167 28373 net.cpp:380] pool3/3x3_s2_pool3/3x3_s2_0_split <- pool3/3x3_s2
I1220 11:11:05.347179 28373 net.cpp:338] pool3/3x3_s2_pool3/3x3_s2_0_split -> pool3/3x3_s2_pool3/3x3_s2_0_split_0
I1220 11:11:05.347195 28373 net.cpp:338] pool3/3x3_s2_pool3/3x3_s2_0_split -> pool3/3x3_s2_pool3/3x3_s2_0_split_1
I1220 11:11:05.347213 28373 net.cpp:338] pool3/3x3_s2_pool3/3x3_s2_0_split -> pool3/3x3_s2_pool3/3x3_s2_0_split_2
I1220 11:11:05.347226 28373 net.cpp:338] pool3/3x3_s2_pool3/3x3_s2_0_split -> pool3/3x3_s2_pool3/3x3_s2_0_split_3
I1220 11:11:05.347236 28373 net.cpp:113] Setting up pool3/3x3_s2_pool3/3x3_s2_0_split
I1220 11:11:05.347249 28373 net.cpp:120] Top shape: 80 480 14 14 (7526400)
I1220 11:11:05.347259 28373 net.cpp:120] Top shape: 80 480 14 14 (7526400)
I1220 11:11:05.347267 28373 net.cpp:120] Top shape: 80 480 14 14 (7526400)
I1220 11:11:05.347275 28373 net.cpp:120] Top shape: 80 480 14 14 (7526400)
I1220 11:11:05.347282 28373 layer_factory.hpp:74] Creating layer inception_4a/1x1
I1220 11:11:05.347295 28373 net.cpp:84] Creating Layer inception_4a/1x1
I1220 11:11:05.347301 28373 net.cpp:380] inception_4a/1x1 <- pool3/3x3_s2_pool3/3x3_s2_0_split_0
I1220 11:11:05.347316 28373 net.cpp:338] inception_4a/1x1 -> inception_4a/1x1
I1220 11:11:05.347327 28373 net.cpp:113] Setting up inception_4a/1x1
I1220 11:11:05.349802 28373 net.cpp:120] Top shape: 80 192 14 14 (3010560)
I1220 11:11:05.349827 28373 layer_factory.hpp:74] Creating layer inception_4a/relu_1x1
I1220 11:11:05.349838 28373 net.cpp:84] Creating Layer inception_4a/relu_1x1
I1220 11:11:05.349845 28373 net.cpp:380] inception_4a/relu_1x1 <- inception_4a/1x1
I1220 11:11:05.349858 28373 net.cpp:327] inception_4a/relu_1x1 -> inception_4a/1x1 (in-place)
I1220 11:11:05.349869 28373 net.cpp:113] Setting up inception_4a/relu_1x1
I1220 11:11:05.350205 28373 net.cpp:120] Top shape: 80 192 14 14 (3010560)
I1220 11:11:05.350220 28373 layer_factory.hpp:74] Creating layer inception_4a/3x3_reduce
I1220 11:11:05.350236 28373 net.cpp:84] Creating Layer inception_4a/3x3_reduce
I1220 11:11:05.350244 28373 net.cpp:380] inception_4a/3x3_reduce <- pool3/3x3_s2_pool3/3x3_s2_0_split_1
I1220 11:11:05.350275 28373 net.cpp:338] inception_4a/3x3_reduce -> inception_4a/3x3_reduce
I1220 11:11:05.350289 28373 net.cpp:113] Setting up inception_4a/3x3_reduce
I1220 11:11:05.351799 28373 net.cpp:120] Top shape: 80 96 14 14 (1505280)
I1220 11:11:05.351845 28373 layer_factory.hpp:74] Creating layer inception_4a/relu_3x3_reduce
I1220 11:11:05.351863 28373 net.cpp:84] Creating Layer inception_4a/relu_3x3_reduce
I1220 11:11:05.351876 28373 net.cpp:380] inception_4a/relu_3x3_reduce <- inception_4a/3x3_reduce
I1220 11:11:05.351891 28373 net.cpp:327] inception_4a/relu_3x3_reduce -> inception_4a/3x3_reduce (in-place)
I1220 11:11:05.351907 28373 net.cpp:113] Setting up inception_4a/relu_3x3_reduce
I1220 11:11:05.352042 28373 net.cpp:120] Top shape: 80 96 14 14 (1505280)
I1220 11:11:05.352054 28373 layer_factory.hpp:74] Creating layer inception_4a/3x3
I1220 11:11:05.352071 28373 net.cpp:84] Creating Layer inception_4a/3x3
I1220 11:11:05.352078 28373 net.cpp:380] inception_4a/3x3 <- inception_4a/3x3_reduce
I1220 11:11:05.352090 28373 net.cpp:338] inception_4a/3x3 -> inception_4a/3x3
I1220 11:11:05.352103 28373 net.cpp:113] Setting up inception_4a/3x3
I1220 11:11:05.355845 28373 net.cpp:120] Top shape: 80 208 14 14 (3261440)
I1220 11:11:05.355875 28373 layer_factory.hpp:74] Creating layer inception_4a/relu_3x3
I1220 11:11:05.355886 28373 net.cpp:84] Creating Layer inception_4a/relu_3x3
I1220 11:11:05.355895 28373 net.cpp:380] inception_4a/relu_3x3 <- inception_4a/3x3
I1220 11:11:05.355908 28373 net.cpp:327] inception_4a/relu_3x3 -> inception_4a/3x3 (in-place)
I1220 11:11:05.355921 28373 net.cpp:113] Setting up inception_4a/relu_3x3
I1220 11:11:05.356024 28373 net.cpp:120] Top shape: 80 208 14 14 (3261440)
I1220 11:11:05.356034 28373 layer_factory.hpp:74] Creating layer inception_4a/5x5_reduce
I1220 11:11:05.356048 28373 net.cpp:84] Creating Layer inception_4a/5x5_reduce
I1220 11:11:05.356056 28373 net.cpp:380] inception_4a/5x5_reduce <- pool3/3x3_s2_pool3/3x3_s2_0_split_2
I1220 11:11:05.356067 28373 net.cpp:338] inception_4a/5x5_reduce -> inception_4a/5x5_reduce
I1220 11:11:05.356079 28373 net.cpp:113] Setting up inception_4a/5x5_reduce
I1220 11:11:05.356786 28373 net.cpp:120] Top shape: 80 16 14 14 (250880)
I1220 11:11:05.356807 28373 layer_factory.hpp:74] Creating layer inception_4a/relu_5x5_reduce
I1220 11:11:05.356818 28373 net.cpp:84] Creating Layer inception_4a/relu_5x5_reduce
I1220 11:11:05.356827 28373 net.cpp:380] inception_4a/relu_5x5_reduce <- inception_4a/5x5_reduce
I1220 11:11:05.356839 28373 net.cpp:327] inception_4a/relu_5x5_reduce -> inception_4a/5x5_reduce (in-place)
I1220 11:11:05.356850 28373 net.cpp:113] Setting up inception_4a/relu_5x5_reduce
I1220 11:11:05.356951 28373 net.cpp:120] Top shape: 80 16 14 14 (250880)
I1220 11:11:05.356961 28373 layer_factory.hpp:74] Creating layer inception_4a/5x5
I1220 11:11:05.356976 28373 net.cpp:84] Creating Layer inception_4a/5x5
I1220 11:11:05.356982 28373 net.cpp:380] inception_4a/5x5 <- inception_4a/5x5_reduce
I1220 11:11:05.356995 28373 net.cpp:338] inception_4a/5x5 -> inception_4a/5x5
I1220 11:11:05.357007 28373 net.cpp:113] Setting up inception_4a/5x5
I1220 11:11:05.357955 28373 net.cpp:120] Top shape: 80 48 14 14 (752640)
I1220 11:11:05.357978 28373 layer_factory.hpp:74] Creating layer inception_4a/relu_5x5
I1220 11:11:05.357991 28373 net.cpp:84] Creating Layer inception_4a/relu_5x5
I1220 11:11:05.358000 28373 net.cpp:380] inception_4a/relu_5x5 <- inception_4a/5x5
I1220 11:11:05.358009 28373 net.cpp:327] inception_4a/relu_5x5 -> inception_4a/5x5 (in-place)
I1220 11:11:05.358021 28373 net.cpp:113] Setting up inception_4a/relu_5x5
I1220 11:11:05.358350 28373 net.cpp:120] Top shape: 80 48 14 14 (752640)
I1220 11:11:05.358366 28373 layer_factory.hpp:74] Creating layer inception_4a/pool
I1220 11:11:05.358374 28373 layer_factory.cpp:56] CUDNN does not support padding or multiple tops. Using Caffe's own pooling layer.
I1220 11:11:05.358386 28373 net.cpp:84] Creating Layer inception_4a/pool
I1220 11:11:05.358396 28373 net.cpp:380] inception_4a/pool <- pool3/3x3_s2_pool3/3x3_s2_0_split_3
I1220 11:11:05.358425 28373 net.cpp:338] inception_4a/pool -> inception_4a/pool
I1220 11:11:05.358438 28373 net.cpp:113] Setting up inception_4a/pool
I1220 11:11:05.358454 28373 net.cpp:120] Top shape: 80 480 14 14 (7526400)
I1220 11:11:05.358463 28373 layer_factory.hpp:74] Creating layer inception_4a/pool_proj
I1220 11:11:05.358474 28373 net.cpp:84] Creating Layer inception_4a/pool_proj
I1220 11:11:05.358481 28373 net.cpp:380] inception_4a/pool_proj <- inception_4a/pool
I1220 11:11:05.358491 28373 net.cpp:338] inception_4a/pool_proj -> inception_4a/pool_proj
I1220 11:11:05.358502 28373 net.cpp:113] Setting up inception_4a/pool_proj
I1220 11:11:05.359612 28373 net.cpp:120] Top shape: 80 64 14 14 (1003520)
I1220 11:11:05.359633 28373 layer_factory.hpp:74] Creating layer inception_4a/relu_pool_proj
I1220 11:11:05.359647 28373 net.cpp:84] Creating Layer inception_4a/relu_pool_proj
I1220 11:11:05.359655 28373 net.cpp:380] inception_4a/relu_pool_proj <- inception_4a/pool_proj
I1220 11:11:05.359665 28373 net.cpp:327] inception_4a/relu_pool_proj -> inception_4a/pool_proj (in-place)
I1220 11:11:05.359676 28373 net.cpp:113] Setting up inception_4a/relu_pool_proj
I1220 11:11:05.359779 28373 net.cpp:120] Top shape: 80 64 14 14 (1003520)
I1220 11:11:05.359788 28373 layer_factory.hpp:74] Creating layer inception_4a/output
I1220 11:11:05.359802 28373 net.cpp:84] Creating Layer inception_4a/output
I1220 11:11:05.359809 28373 net.cpp:380] inception_4a/output <- inception_4a/1x1
I1220 11:11:05.359818 28373 net.cpp:380] inception_4a/output <- inception_4a/3x3
I1220 11:11:05.359827 28373 net.cpp:380] inception_4a/output <- inception_4a/5x5
I1220 11:11:05.359834 28373 net.cpp:380] inception_4a/output <- inception_4a/pool_proj
I1220 11:11:05.359843 28373 net.cpp:338] inception_4a/output -> inception_4a/output
I1220 11:11:05.359853 28373 net.cpp:113] Setting up inception_4a/output
I1220 11:11:05.359865 28373 net.cpp:120] Top shape: 80 512 14 14 (8028160)
I1220 11:11:05.359875 28373 layer_factory.hpp:74] Creating layer inception_4a/output_inception_4a/output_0_split
I1220 11:11:05.359886 28373 net.cpp:84] Creating Layer inception_4a/output_inception_4a/output_0_split
I1220 11:11:05.359894 28373 net.cpp:380] inception_4a/output_inception_4a/output_0_split <- inception_4a/output
I1220 11:11:05.359902 28373 net.cpp:338] inception_4a/output_inception_4a/output_0_split -> inception_4a/output_inception_4a/output_0_split_0
I1220 11:11:05.359913 28373 net.cpp:338] inception_4a/output_inception_4a/output_0_split -> inception_4a/output_inception_4a/output_0_split_1
I1220 11:11:05.359925 28373 net.cpp:338] inception_4a/output_inception_4a/output_0_split -> inception_4a/output_inception_4a/output_0_split_2
I1220 11:11:05.359935 28373 net.cpp:338] inception_4a/output_inception_4a/output_0_split -> inception_4a/output_inception_4a/output_0_split_3
I1220 11:11:05.359944 28373 net.cpp:338] inception_4a/output_inception_4a/output_0_split -> inception_4a/output_inception_4a/output_0_split_4
I1220 11:11:05.359954 28373 net.cpp:113] Setting up inception_4a/output_inception_4a/output_0_split
I1220 11:11:05.359968 28373 net.cpp:120] Top shape: 80 512 14 14 (8028160)
I1220 11:11:05.359977 28373 net.cpp:120] Top shape: 80 512 14 14 (8028160)
I1220 11:11:05.359984 28373 net.cpp:120] Top shape: 80 512 14 14 (8028160)
I1220 11:11:05.359997 28373 net.cpp:120] Top shape: 80 512 14 14 (8028160)
I1220 11:11:05.360004 28373 net.cpp:120] Top shape: 80 512 14 14 (8028160)
I1220 11:11:05.360011 28373 layer_factory.hpp:74] Creating layer loss1/ave_pool
I1220 11:11:05.360023 28373 net.cpp:84] Creating Layer loss1/ave_pool
I1220 11:11:05.360030 28373 net.cpp:380] loss1/ave_pool <- inception_4a/output_inception_4a/output_0_split_0
I1220 11:11:05.360044 28373 net.cpp:338] loss1/ave_pool -> loss1/ave_pool
I1220 11:11:05.360055 28373 net.cpp:113] Setting up loss1/ave_pool
I1220 11:11:05.360153 28373 net.cpp:120] Top shape: 80 512 4 4 (655360)
I1220 11:11:05.360162 28373 layer_factory.hpp:74] Creating layer loss1/conv
I1220 11:11:05.360184 28373 net.cpp:84] Creating Layer loss1/conv
I1220 11:11:05.360200 28373 net.cpp:380] loss1/conv <- loss1/ave_pool
I1220 11:11:05.360211 28373 net.cpp:338] loss1/conv -> loss1/conv
I1220 11:11:05.360222 28373 net.cpp:113] Setting up loss1/conv
I1220 11:11:05.367686 28373 net.cpp:120] Top shape: 80 128 4 4 (163840)
I1220 11:11:05.367722 28373 layer_factory.hpp:74] Creating layer loss1/relu_conv
I1220 11:11:05.367733 28373 net.cpp:84] Creating Layer loss1/relu_conv
I1220 11:11:05.367741 28373 net.cpp:380] loss1/relu_conv <- loss1/conv
I1220 11:11:05.367755 28373 net.cpp:327] loss1/relu_conv -> loss1/conv (in-place)
I1220 11:11:05.367768 28373 net.cpp:113] Setting up loss1/relu_conv
I1220 11:11:05.367862 28373 net.cpp:120] Top shape: 80 128 4 4 (163840)
I1220 11:11:05.367872 28373 layer_factory.hpp:74] Creating layer loss1/fc_kaggle
I1220 11:11:05.367892 28373 net.cpp:84] Creating Layer loss1/fc_kaggle
I1220 11:11:05.367898 28373 net.cpp:380] loss1/fc_kaggle <- loss1/conv
I1220 11:11:05.367908 28373 net.cpp:338] loss1/fc_kaggle -> loss1/fc_kaggle
I1220 11:11:05.367923 28373 net.cpp:113] Setting up loss1/fc_kaggle
I1220 11:11:05.571112 28373 net.cpp:120] Top shape: 80 1024 (81920)
I1220 11:11:05.571163 28373 layer_factory.hpp:74] Creating layer loss1/relu_fc_kaggle
I1220 11:11:05.571179 28373 net.cpp:84] Creating Layer loss1/relu_fc_kaggle
I1220 11:11:05.571187 28373 net.cpp:380] loss1/relu_fc_kaggle <- loss1/fc_kaggle
I1220 11:11:05.571197 28373 net.cpp:327] loss1/relu_fc_kaggle -> loss1/fc_kaggle (in-place)
I1220 11:11:05.571208 28373 net.cpp:113] Setting up loss1/relu_fc_kaggle
I1220 11:11:05.571707 28373 net.cpp:120] Top shape: 80 1024 (81920)
I1220 11:11:05.571722 28373 layer_factory.hpp:74] Creating layer loss1/drop_fc_kaggle
I1220 11:11:05.571744 28373 net.cpp:84] Creating Layer loss1/drop_fc_kaggle
I1220 11:11:05.571750 28373 net.cpp:380] loss1/drop_fc_kaggle <- loss1/fc_kaggle
I1220 11:11:05.571758 28373 net.cpp:327] loss1/drop_fc_kaggle -> loss1/fc_kaggle (in-place)
I1220 11:11:05.571768 28373 net.cpp:113] Setting up loss1/drop_fc_kaggle
I1220 11:11:05.571779 28373 net.cpp:120] Top shape: 80 1024 (81920)
I1220 11:11:05.571784 28373 layer_factory.hpp:74] Creating layer loss1/classifier_kaggle
I1220 11:11:05.571796 28373 net.cpp:84] Creating Layer loss1/classifier_kaggle
I1220 11:11:05.571801 28373 net.cpp:380] loss1/classifier_kaggle <- loss1/fc_kaggle
I1220 11:11:05.571809 28373 net.cpp:338] loss1/classifier_kaggle -> loss1/classifier_kaggle
I1220 11:11:05.571817 28373 net.cpp:113] Setting up loss1/classifier_kaggle
I1220 11:11:05.577335 28373 net.cpp:120] Top shape: 80 447 (35760)
I1220 11:11:05.577354 28373 layer_factory.hpp:74] Creating layer loss1/loss
I1220 11:11:05.577366 28373 net.cpp:84] Creating Layer loss1/loss
I1220 11:11:05.577373 28373 net.cpp:380] loss1/loss <- loss1/classifier_kaggle
I1220 11:11:05.577379 28373 net.cpp:380] loss1/loss <- label_data_1_split_0
I1220 11:11:05.577386 28373 net.cpp:338] loss1/loss -> loss1/loss1
I1220 11:11:05.577396 28373 net.cpp:113] Setting up loss1/loss
I1220 11:11:05.577405 28373 layer_factory.hpp:74] Creating layer loss1/loss
I1220 11:11:05.577605 28373 net.cpp:120] Top shape: (1)
I1220 11:11:05.577612 28373 net.cpp:122]     with loss weight 0.3
I1220 11:11:05.577632 28373 layer_factory.hpp:74] Creating layer inception_4b/1x1
I1220 11:11:05.577646 28373 net.cpp:84] Creating Layer inception_4b/1x1
I1220 11:11:05.577652 28373 net.cpp:380] inception_4b/1x1 <- inception_4a/output_inception_4a/output_0_split_1
I1220 11:11:05.577662 28373 net.cpp:338] inception_4b/1x1 -> inception_4b/1x1
I1220 11:11:05.577672 28373 net.cpp:113] Setting up inception_4b/1x1
I1220 11:11:05.579166 28373 net.cpp:120] Top shape: 80 160 14 14 (2508800)
I1220 11:11:05.579182 28373 layer_factory.hpp:74] Creating layer inception_4b/relu_1x1
I1220 11:11:05.579192 28373 net.cpp:84] Creating Layer inception_4b/relu_1x1
I1220 11:11:05.579200 28373 net.cpp:380] inception_4b/relu_1x1 <- inception_4b/1x1
I1220 11:11:05.579206 28373 net.cpp:327] inception_4b/relu_1x1 -> inception_4b/1x1 (in-place)
I1220 11:11:05.579228 28373 net.cpp:113] Setting up inception_4b/relu_1x1
I1220 11:11:05.579319 28373 net.cpp:120] Top shape: 80 160 14 14 (2508800)
I1220 11:11:05.579325 28373 layer_factory.hpp:74] Creating layer inception_4b/3x3_reduce
I1220 11:11:05.579337 28373 net.cpp:84] Creating Layer inception_4b/3x3_reduce
I1220 11:11:05.579342 28373 net.cpp:380] inception_4b/3x3_reduce <- inception_4a/output_inception_4a/output_0_split_2
I1220 11:11:05.579350 28373 net.cpp:338] inception_4b/3x3_reduce -> inception_4b/3x3_reduce
I1220 11:11:05.579358 28373 net.cpp:113] Setting up inception_4b/3x3_reduce
I1220 11:11:05.580461 28373 net.cpp:120] Top shape: 80 112 14 14 (1756160)
I1220 11:11:05.580477 28373 layer_factory.hpp:74] Creating layer inception_4b/relu_3x3_reduce
I1220 11:11:05.580485 28373 net.cpp:84] Creating Layer inception_4b/relu_3x3_reduce
I1220 11:11:05.580492 28373 net.cpp:380] inception_4b/relu_3x3_reduce <- inception_4b/3x3_reduce
I1220 11:11:05.580499 28373 net.cpp:327] inception_4b/relu_3x3_reduce -> inception_4b/3x3_reduce (in-place)
I1220 11:11:05.580507 28373 net.cpp:113] Setting up inception_4b/relu_3x3_reduce
I1220 11:11:05.580576 28373 net.cpp:120] Top shape: 80 112 14 14 (1756160)
I1220 11:11:05.580584 28373 layer_factory.hpp:74] Creating layer inception_4b/3x3
I1220 11:11:05.580595 28373 net.cpp:84] Creating Layer inception_4b/3x3
I1220 11:11:05.580600 28373 net.cpp:380] inception_4b/3x3 <- inception_4b/3x3_reduce
I1220 11:11:05.580606 28373 net.cpp:338] inception_4b/3x3 -> inception_4b/3x3
I1220 11:11:05.580616 28373 net.cpp:113] Setting up inception_4b/3x3
I1220 11:11:05.583758 28373 net.cpp:120] Top shape: 80 224 14 14 (3512320)
I1220 11:11:05.583778 28373 layer_factory.hpp:74] Creating layer inception_4b/relu_3x3
I1220 11:11:05.583787 28373 net.cpp:84] Creating Layer inception_4b/relu_3x3
I1220 11:11:05.583792 28373 net.cpp:380] inception_4b/relu_3x3 <- inception_4b/3x3
I1220 11:11:05.583799 28373 net.cpp:327] inception_4b/relu_3x3 -> inception_4b/3x3 (in-place)
I1220 11:11:05.583807 28373 net.cpp:113] Setting up inception_4b/relu_3x3
I1220 11:11:05.584074 28373 net.cpp:120] Top shape: 80 224 14 14 (3512320)
I1220 11:11:05.584084 28373 layer_factory.hpp:74] Creating layer inception_4b/5x5_reduce
I1220 11:11:05.584094 28373 net.cpp:84] Creating Layer inception_4b/5x5_reduce
I1220 11:11:05.584100 28373 net.cpp:380] inception_4b/5x5_reduce <- inception_4a/output_inception_4a/output_0_split_3
I1220 11:11:05.584108 28373 net.cpp:338] inception_4b/5x5_reduce -> inception_4b/5x5_reduce
I1220 11:11:05.584117 28373 net.cpp:113] Setting up inception_4b/5x5_reduce
I1220 11:11:05.584698 28373 net.cpp:120] Top shape: 80 24 14 14 (376320)
I1220 11:11:05.584713 28373 layer_factory.hpp:74] Creating layer inception_4b/relu_5x5_reduce
I1220 11:11:05.584722 28373 net.cpp:84] Creating Layer inception_4b/relu_5x5_reduce
I1220 11:11:05.584727 28373 net.cpp:380] inception_4b/relu_5x5_reduce <- inception_4b/5x5_reduce
I1220 11:11:05.584735 28373 net.cpp:327] inception_4b/relu_5x5_reduce -> inception_4b/5x5_reduce (in-place)
I1220 11:11:05.584743 28373 net.cpp:113] Setting up inception_4b/relu_5x5_reduce
I1220 11:11:05.584826 28373 net.cpp:120] Top shape: 80 24 14 14 (376320)
I1220 11:11:05.584835 28373 layer_factory.hpp:74] Creating layer inception_4b/5x5
I1220 11:11:05.584843 28373 net.cpp:84] Creating Layer inception_4b/5x5
I1220 11:11:05.584848 28373 net.cpp:380] inception_4b/5x5 <- inception_4b/5x5_reduce
I1220 11:11:05.584857 28373 net.cpp:338] inception_4b/5x5 -> inception_4b/5x5
I1220 11:11:05.584866 28373 net.cpp:113] Setting up inception_4b/5x5
I1220 11:11:05.585757 28373 net.cpp:120] Top shape: 80 64 14 14 (1003520)
I1220 11:11:05.585773 28373 layer_factory.hpp:74] Creating layer inception_4b/relu_5x5
I1220 11:11:05.585783 28373 net.cpp:84] Creating Layer inception_4b/relu_5x5
I1220 11:11:05.585789 28373 net.cpp:380] inception_4b/relu_5x5 <- inception_4b/5x5
I1220 11:11:05.585796 28373 net.cpp:327] inception_4b/relu_5x5 -> inception_4b/5x5 (in-place)
I1220 11:11:05.585803 28373 net.cpp:113] Setting up inception_4b/relu_5x5
I1220 11:11:05.585882 28373 net.cpp:120] Top shape: 80 64 14 14 (1003520)
I1220 11:11:05.585898 28373 layer_factory.hpp:74] Creating layer inception_4b/pool
I1220 11:11:05.585906 28373 layer_factory.cpp:56] CUDNN does not support padding or multiple tops. Using Caffe's own pooling layer.
I1220 11:11:05.585913 28373 net.cpp:84] Creating Layer inception_4b/pool
I1220 11:11:05.585919 28373 net.cpp:380] inception_4b/pool <- inception_4a/output_inception_4a/output_0_split_4
I1220 11:11:05.585927 28373 net.cpp:338] inception_4b/pool -> inception_4b/pool
I1220 11:11:05.585945 28373 net.cpp:113] Setting up inception_4b/pool
I1220 11:11:05.585957 28373 net.cpp:120] Top shape: 80 512 14 14 (8028160)
I1220 11:11:05.585961 28373 layer_factory.hpp:74] Creating layer inception_4b/pool_proj
I1220 11:11:05.585976 28373 net.cpp:84] Creating Layer inception_4b/pool_proj
I1220 11:11:05.585983 28373 net.cpp:380] inception_4b/pool_proj <- inception_4b/pool
I1220 11:11:05.585988 28373 net.cpp:338] inception_4b/pool_proj -> inception_4b/pool_proj
I1220 11:11:05.585999 28373 net.cpp:113] Setting up inception_4b/pool_proj
I1220 11:11:05.586807 28373 net.cpp:120] Top shape: 80 64 14 14 (1003520)
I1220 11:11:05.586823 28373 layer_factory.hpp:74] Creating layer inception_4b/relu_pool_proj
I1220 11:11:05.586830 28373 net.cpp:84] Creating Layer inception_4b/relu_pool_proj
I1220 11:11:05.586837 28373 net.cpp:380] inception_4b/relu_pool_proj <- inception_4b/pool_proj
I1220 11:11:05.586845 28373 net.cpp:327] inception_4b/relu_pool_proj -> inception_4b/pool_proj (in-place)
I1220 11:11:05.586853 28373 net.cpp:113] Setting up inception_4b/relu_pool_proj
I1220 11:11:05.587110 28373 net.cpp:120] Top shape: 80 64 14 14 (1003520)
I1220 11:11:05.587121 28373 layer_factory.hpp:74] Creating layer inception_4b/output
I1220 11:11:05.587128 28373 net.cpp:84] Creating Layer inception_4b/output
I1220 11:11:05.587133 28373 net.cpp:380] inception_4b/output <- inception_4b/1x1
I1220 11:11:05.587141 28373 net.cpp:380] inception_4b/output <- inception_4b/3x3
I1220 11:11:05.587146 28373 net.cpp:380] inception_4b/output <- inception_4b/5x5
I1220 11:11:05.587152 28373 net.cpp:380] inception_4b/output <- inception_4b/pool_proj
I1220 11:11:05.587160 28373 net.cpp:338] inception_4b/output -> inception_4b/output
I1220 11:11:05.587168 28373 net.cpp:113] Setting up inception_4b/output
I1220 11:11:05.587177 28373 net.cpp:120] Top shape: 80 512 14 14 (8028160)
I1220 11:11:05.587182 28373 layer_factory.hpp:74] Creating layer inception_4b/output_inception_4b/output_0_split
I1220 11:11:05.587190 28373 net.cpp:84] Creating Layer inception_4b/output_inception_4b/output_0_split
I1220 11:11:05.587194 28373 net.cpp:380] inception_4b/output_inception_4b/output_0_split <- inception_4b/output
I1220 11:11:05.587203 28373 net.cpp:338] inception_4b/output_inception_4b/output_0_split -> inception_4b/output_inception_4b/output_0_split_0
I1220 11:11:05.587210 28373 net.cpp:338] inception_4b/output_inception_4b/output_0_split -> inception_4b/output_inception_4b/output_0_split_1
I1220 11:11:05.587218 28373 net.cpp:338] inception_4b/output_inception_4b/output_0_split -> inception_4b/output_inception_4b/output_0_split_2
I1220 11:11:05.587224 28373 net.cpp:338] inception_4b/output_inception_4b/output_0_split -> inception_4b/output_inception_4b/output_0_split_3
I1220 11:11:05.587230 28373 net.cpp:113] Setting up inception_4b/output_inception_4b/output_0_split
I1220 11:11:05.587239 28373 net.cpp:120] Top shape: 80 512 14 14 (8028160)
I1220 11:11:05.587244 28373 net.cpp:120] Top shape: 80 512 14 14 (8028160)
I1220 11:11:05.587249 28373 net.cpp:120] Top shape: 80 512 14 14 (8028160)
I1220 11:11:05.587255 28373 net.cpp:120] Top shape: 80 512 14 14 (8028160)
I1220 11:11:05.587258 28373 layer_factory.hpp:74] Creating layer inception_4c/1x1
I1220 11:11:05.587270 28373 net.cpp:84] Creating Layer inception_4c/1x1
I1220 11:11:05.587275 28373 net.cpp:380] inception_4c/1x1 <- inception_4b/output_inception_4b/output_0_split_0
I1220 11:11:05.587282 28373 net.cpp:338] inception_4c/1x1 -> inception_4c/1x1
I1220 11:11:05.587296 28373 net.cpp:113] Setting up inception_4c/1x1
I1220 11:11:05.588486 28373 net.cpp:120] Top shape: 80 128 14 14 (2007040)
I1220 11:11:05.588501 28373 layer_factory.hpp:74] Creating layer inception_4c/relu_1x1
I1220 11:11:05.588511 28373 net.cpp:84] Creating Layer inception_4c/relu_1x1
I1220 11:11:05.588517 28373 net.cpp:380] inception_4c/relu_1x1 <- inception_4c/1x1
I1220 11:11:05.588524 28373 net.cpp:327] inception_4c/relu_1x1 -> inception_4c/1x1 (in-place)
I1220 11:11:05.588531 28373 net.cpp:113] Setting up inception_4c/relu_1x1
I1220 11:11:05.588600 28373 net.cpp:120] Top shape: 80 128 14 14 (2007040)
I1220 11:11:05.588608 28373 layer_factory.hpp:74] Creating layer inception_4c/3x3_reduce
I1220 11:11:05.588618 28373 net.cpp:84] Creating Layer inception_4c/3x3_reduce
I1220 11:11:05.588623 28373 net.cpp:380] inception_4c/3x3_reduce <- inception_4b/output_inception_4b/output_0_split_1
I1220 11:11:05.588634 28373 net.cpp:338] inception_4c/3x3_reduce -> inception_4c/3x3_reduce
I1220 11:11:05.588641 28373 net.cpp:113] Setting up inception_4c/3x3_reduce
I1220 11:11:05.589910 28373 net.cpp:120] Top shape: 80 128 14 14 (2007040)
I1220 11:11:05.589926 28373 layer_factory.hpp:74] Creating layer inception_4c/relu_3x3_reduce
I1220 11:11:05.589936 28373 net.cpp:84] Creating Layer inception_4c/relu_3x3_reduce
I1220 11:11:05.589942 28373 net.cpp:380] inception_4c/relu_3x3_reduce <- inception_4c/3x3_reduce
I1220 11:11:05.589949 28373 net.cpp:327] inception_4c/relu_3x3_reduce -> inception_4c/3x3_reduce (in-place)
I1220 11:11:05.589957 28373 net.cpp:113] Setting up inception_4c/relu_3x3_reduce
I1220 11:11:05.590029 28373 net.cpp:120] Top shape: 80 128 14 14 (2007040)
I1220 11:11:05.590036 28373 layer_factory.hpp:74] Creating layer inception_4c/3x3
I1220 11:11:05.590047 28373 net.cpp:84] Creating Layer inception_4c/3x3
I1220 11:11:05.590052 28373 net.cpp:380] inception_4c/3x3 <- inception_4c/3x3_reduce
I1220 11:11:05.590061 28373 net.cpp:338] inception_4c/3x3 -> inception_4c/3x3
I1220 11:11:05.590070 28373 net.cpp:113] Setting up inception_4c/3x3
I1220 11:11:05.600975 28373 net.cpp:120] Top shape: 80 256 14 14 (4014080)
I1220 11:11:05.601021 28373 layer_factory.hpp:74] Creating layer inception_4c/relu_3x3
I1220 11:11:05.601032 28373 net.cpp:84] Creating Layer inception_4c/relu_3x3
I1220 11:11:05.601038 28373 net.cpp:380] inception_4c/relu_3x3 <- inception_4c/3x3
I1220 11:11:05.601047 28373 net.cpp:327] inception_4c/relu_3x3 -> inception_4c/3x3 (in-place)
I1220 11:11:05.601066 28373 net.cpp:113] Setting up inception_4c/relu_3x3
I1220 11:11:05.601141 28373 net.cpp:120] Top shape: 80 256 14 14 (4014080)
I1220 11:11:05.601148 28373 layer_factory.hpp:74] Creating layer inception_4c/5x5_reduce
I1220 11:11:05.601160 28373 net.cpp:84] Creating Layer inception_4c/5x5_reduce
I1220 11:11:05.601166 28373 net.cpp:380] inception_4c/5x5_reduce <- inception_4b/output_inception_4b/output_0_split_2
I1220 11:11:05.601173 28373 net.cpp:338] inception_4c/5x5_reduce -> inception_4c/5x5_reduce
I1220 11:11:05.601181 28373 net.cpp:113] Setting up inception_4c/5x5_reduce
I1220 11:11:05.607595 28373 net.cpp:120] Top shape: 80 24 14 14 (376320)
I1220 11:11:05.607620 28373 layer_factory.hpp:74] Creating layer inception_4c/relu_5x5_reduce
I1220 11:11:05.607631 28373 net.cpp:84] Creating Layer inception_4c/relu_5x5_reduce
I1220 11:11:05.607638 28373 net.cpp:380] inception_4c/relu_5x5_reduce <- inception_4c/5x5_reduce
I1220 11:11:05.607645 28373 net.cpp:327] inception_4c/relu_5x5_reduce -> inception_4c/5x5_reduce (in-place)
I1220 11:11:05.607655 28373 net.cpp:113] Setting up inception_4c/relu_5x5_reduce
I1220 11:11:05.620283 28373 net.cpp:120] Top shape: 80 24 14 14 (376320)
I1220 11:11:05.620316 28373 layer_factory.hpp:74] Creating layer inception_4c/5x5
I1220 11:11:05.620331 28373 net.cpp:84] Creating Layer inception_4c/5x5
I1220 11:11:05.620338 28373 net.cpp:380] inception_4c/5x5 <- inception_4c/5x5_reduce
I1220 11:11:05.620350 28373 net.cpp:338] inception_4c/5x5 -> inception_4c/5x5
I1220 11:11:05.620363 28373 net.cpp:113] Setting up inception_4c/5x5
I1220 11:11:05.622211 28373 net.cpp:120] Top shape: 80 64 14 14 (1003520)
I1220 11:11:05.622284 28373 layer_factory.hpp:74] Creating layer inception_4c/relu_5x5
I1220 11:11:05.622303 28373 net.cpp:84] Creating Layer inception_4c/relu_5x5
I1220 11:11:05.622313 28373 net.cpp:380] inception_4c/relu_5x5 <- inception_4c/5x5
I1220 11:11:05.622329 28373 net.cpp:327] inception_4c/relu_5x5 -> inception_4c/5x5 (in-place)
I1220 11:11:05.622345 28373 net.cpp:113] Setting up inception_4c/relu_5x5
I1220 11:11:05.622442 28373 net.cpp:120] Top shape: 80 64 14 14 (1003520)
I1220 11:11:05.622449 28373 layer_factory.hpp:74] Creating layer inception_4c/pool
I1220 11:11:05.622457 28373 layer_factory.cpp:56] CUDNN does not support padding or multiple tops. Using Caffe's own pooling layer.
I1220 11:11:05.622469 28373 net.cpp:84] Creating Layer inception_4c/pool
I1220 11:11:05.622476 28373 net.cpp:380] inception_4c/pool <- inception_4b/output_inception_4b/output_0_split_3
I1220 11:11:05.622483 28373 net.cpp:338] inception_4c/pool -> inception_4c/pool
I1220 11:11:05.622494 28373 net.cpp:113] Setting up inception_4c/pool
I1220 11:11:05.622505 28373 net.cpp:120] Top shape: 80 512 14 14 (8028160)
I1220 11:11:05.622510 28373 layer_factory.hpp:74] Creating layer inception_4c/pool_proj
I1220 11:11:05.622524 28373 net.cpp:84] Creating Layer inception_4c/pool_proj
I1220 11:11:05.622529 28373 net.cpp:380] inception_4c/pool_proj <- inception_4c/pool
I1220 11:11:05.622536 28373 net.cpp:338] inception_4c/pool_proj -> inception_4c/pool_proj
I1220 11:11:05.622545 28373 net.cpp:113] Setting up inception_4c/pool_proj
I1220 11:11:05.623399 28373 net.cpp:120] Top shape: 80 64 14 14 (1003520)
I1220 11:11:05.623417 28373 layer_factory.hpp:74] Creating layer inception_4c/relu_pool_proj
I1220 11:11:05.623425 28373 net.cpp:84] Creating Layer inception_4c/relu_pool_proj
I1220 11:11:05.623431 28373 net.cpp:380] inception_4c/relu_pool_proj <- inception_4c/pool_proj
I1220 11:11:05.623438 28373 net.cpp:327] inception_4c/relu_pool_proj -> inception_4c/pool_proj (in-place)
I1220 11:11:05.623447 28373 net.cpp:113] Setting up inception_4c/relu_pool_proj
I1220 11:11:05.623520 28373 net.cpp:120] Top shape: 80 64 14 14 (1003520)
I1220 11:11:05.623528 28373 layer_factory.hpp:74] Creating layer inception_4c/output
I1220 11:11:05.623535 28373 net.cpp:84] Creating Layer inception_4c/output
I1220 11:11:05.623543 28373 net.cpp:380] inception_4c/output <- inception_4c/1x1
I1220 11:11:05.623549 28373 net.cpp:380] inception_4c/output <- inception_4c/3x3
I1220 11:11:05.623555 28373 net.cpp:380] inception_4c/output <- inception_4c/5x5
I1220 11:11:05.623560 28373 net.cpp:380] inception_4c/output <- inception_4c/pool_proj
I1220 11:11:05.623567 28373 net.cpp:338] inception_4c/output -> inception_4c/output
I1220 11:11:05.623574 28373 net.cpp:113] Setting up inception_4c/output
I1220 11:11:05.623584 28373 net.cpp:120] Top shape: 80 512 14 14 (8028160)
I1220 11:11:05.623589 28373 layer_factory.hpp:74] Creating layer inception_4c/output_inception_4c/output_0_split
I1220 11:11:05.623597 28373 net.cpp:84] Creating Layer inception_4c/output_inception_4c/output_0_split
I1220 11:11:05.623602 28373 net.cpp:380] inception_4c/output_inception_4c/output_0_split <- inception_4c/output
I1220 11:11:05.623610 28373 net.cpp:338] inception_4c/output_inception_4c/output_0_split -> inception_4c/output_inception_4c/output_0_split_0
I1220 11:11:05.623620 28373 net.cpp:338] inception_4c/output_inception_4c/output_0_split -> inception_4c/output_inception_4c/output_0_split_1
I1220 11:11:05.623627 28373 net.cpp:338] inception_4c/output_inception_4c/output_0_split -> inception_4c/output_inception_4c/output_0_split_2
I1220 11:11:05.623634 28373 net.cpp:338] inception_4c/output_inception_4c/output_0_split -> inception_4c/output_inception_4c/output_0_split_3
I1220 11:11:05.623641 28373 net.cpp:113] Setting up inception_4c/output_inception_4c/output_0_split
I1220 11:11:05.623649 28373 net.cpp:120] Top shape: 80 512 14 14 (8028160)
I1220 11:11:05.623654 28373 net.cpp:120] Top shape: 80 512 14 14 (8028160)
I1220 11:11:05.623667 28373 net.cpp:120] Top shape: 80 512 14 14 (8028160)
I1220 11:11:05.623678 28373 net.cpp:120] Top shape: 80 512 14 14 (8028160)
I1220 11:11:05.623683 28373 layer_factory.hpp:74] Creating layer inception_4d/1x1
I1220 11:11:05.623695 28373 net.cpp:84] Creating Layer inception_4d/1x1
I1220 11:11:05.623700 28373 net.cpp:380] inception_4d/1x1 <- inception_4c/output_inception_4c/output_0_split_0
I1220 11:11:05.623708 28373 net.cpp:338] inception_4d/1x1 -> inception_4d/1x1
I1220 11:11:05.623715 28373 net.cpp:113] Setting up inception_4d/1x1
I1220 11:11:05.624871 28373 net.cpp:120] Top shape: 80 112 14 14 (1756160)
I1220 11:11:05.624888 28373 layer_factory.hpp:74] Creating layer inception_4d/relu_1x1
I1220 11:11:05.624902 28373 net.cpp:84] Creating Layer inception_4d/relu_1x1
I1220 11:11:05.624908 28373 net.cpp:380] inception_4d/relu_1x1 <- inception_4d/1x1
I1220 11:11:05.624915 28373 net.cpp:327] inception_4d/relu_1x1 -> inception_4d/1x1 (in-place)
I1220 11:11:05.624923 28373 net.cpp:113] Setting up inception_4d/relu_1x1
I1220 11:11:05.625000 28373 net.cpp:120] Top shape: 80 112 14 14 (1756160)
I1220 11:11:05.625005 28373 layer_factory.hpp:74] Creating layer inception_4d/3x3_reduce
I1220 11:11:05.625016 28373 net.cpp:84] Creating Layer inception_4d/3x3_reduce
I1220 11:11:05.625022 28373 net.cpp:380] inception_4d/3x3_reduce <- inception_4c/output_inception_4c/output_0_split_1
I1220 11:11:05.625030 28373 net.cpp:338] inception_4d/3x3_reduce -> inception_4d/3x3_reduce
I1220 11:11:05.625038 28373 net.cpp:113] Setting up inception_4d/3x3_reduce
I1220 11:11:05.626413 28373 net.cpp:120] Top shape: 80 144 14 14 (2257920)
I1220 11:11:05.626431 28373 layer_factory.hpp:74] Creating layer inception_4d/relu_3x3_reduce
I1220 11:11:05.626441 28373 net.cpp:84] Creating Layer inception_4d/relu_3x3_reduce
I1220 11:11:05.626448 28373 net.cpp:380] inception_4d/relu_3x3_reduce <- inception_4d/3x3_reduce
I1220 11:11:05.626456 28373 net.cpp:327] inception_4d/relu_3x3_reduce -> inception_4d/3x3_reduce (in-place)
I1220 11:11:05.626463 28373 net.cpp:113] Setting up inception_4d/relu_3x3_reduce
I1220 11:11:05.626734 28373 net.cpp:120] Top shape: 80 144 14 14 (2257920)
I1220 11:11:05.626752 28373 layer_factory.hpp:74] Creating layer inception_4d/3x3
I1220 11:11:05.626762 28373 net.cpp:84] Creating Layer inception_4d/3x3
I1220 11:11:05.626767 28373 net.cpp:380] inception_4d/3x3 <- inception_4d/3x3_reduce
I1220 11:11:05.626777 28373 net.cpp:338] inception_4d/3x3 -> inception_4d/3x3
I1220 11:11:05.626791 28373 net.cpp:113] Setting up inception_4d/3x3
I1220 11:11:05.631916 28373 net.cpp:120] Top shape: 80 288 14 14 (4515840)
I1220 11:11:05.631937 28373 layer_factory.hpp:74] Creating layer inception_4d/relu_3x3
I1220 11:11:05.631947 28373 net.cpp:84] Creating Layer inception_4d/relu_3x3
I1220 11:11:05.631953 28373 net.cpp:380] inception_4d/relu_3x3 <- inception_4d/3x3
I1220 11:11:05.631960 28373 net.cpp:327] inception_4d/relu_3x3 -> inception_4d/3x3 (in-place)
I1220 11:11:05.631971 28373 net.cpp:113] Setting up inception_4d/relu_3x3
I1220 11:11:05.632042 28373 net.cpp:120] Top shape: 80 288 14 14 (4515840)
I1220 11:11:05.632051 28373 layer_factory.hpp:74] Creating layer inception_4d/5x5_reduce
I1220 11:11:05.632063 28373 net.cpp:84] Creating Layer inception_4d/5x5_reduce
I1220 11:11:05.632069 28373 net.cpp:380] inception_4d/5x5_reduce <- inception_4c/output_inception_4c/output_0_split_2
I1220 11:11:05.632077 28373 net.cpp:338] inception_4d/5x5_reduce -> inception_4d/5x5_reduce
I1220 11:11:05.632086 28373 net.cpp:113] Setting up inception_4d/5x5_reduce
I1220 11:11:05.632724 28373 net.cpp:120] Top shape: 80 32 14 14 (501760)
I1220 11:11:05.632740 28373 layer_factory.hpp:74] Creating layer inception_4d/relu_5x5_reduce
I1220 11:11:05.632750 28373 net.cpp:84] Creating Layer inception_4d/relu_5x5_reduce
I1220 11:11:05.632756 28373 net.cpp:380] inception_4d/relu_5x5_reduce <- inception_4d/5x5_reduce
I1220 11:11:05.632764 28373 net.cpp:327] inception_4d/relu_5x5_reduce -> inception_4d/5x5_reduce (in-place)
I1220 11:11:05.632771 28373 net.cpp:113] Setting up inception_4d/relu_5x5_reduce
I1220 11:11:05.632853 28373 net.cpp:120] Top shape: 80 32 14 14 (501760)
I1220 11:11:05.632869 28373 layer_factory.hpp:74] Creating layer inception_4d/5x5
I1220 11:11:05.632881 28373 net.cpp:84] Creating Layer inception_4d/5x5
I1220 11:11:05.632887 28373 net.cpp:380] inception_4d/5x5 <- inception_4d/5x5_reduce
I1220 11:11:05.632896 28373 net.cpp:338] inception_4d/5x5 -> inception_4d/5x5
I1220 11:11:05.632905 28373 net.cpp:113] Setting up inception_4d/5x5
I1220 11:11:05.633983 28373 net.cpp:120] Top shape: 80 64 14 14 (1003520)
I1220 11:11:05.634001 28373 layer_factory.hpp:74] Creating layer inception_4d/relu_5x5
I1220 11:11:05.634011 28373 net.cpp:84] Creating Layer inception_4d/relu_5x5
I1220 11:11:05.634016 28373 net.cpp:380] inception_4d/relu_5x5 <- inception_4d/5x5
I1220 11:11:05.634023 28373 net.cpp:327] inception_4d/relu_5x5 -> inception_4d/5x5 (in-place)
I1220 11:11:05.634032 28373 net.cpp:113] Setting up inception_4d/relu_5x5
I1220 11:11:05.634107 28373 net.cpp:120] Top shape: 80 64 14 14 (1003520)
I1220 11:11:05.634114 28373 layer_factory.hpp:74] Creating layer inception_4d/pool
I1220 11:11:05.634121 28373 layer_factory.cpp:56] CUDNN does not support padding or multiple tops. Using Caffe's own pooling layer.
I1220 11:11:05.634129 28373 net.cpp:84] Creating Layer inception_4d/pool
I1220 11:11:05.634133 28373 net.cpp:380] inception_4d/pool <- inception_4c/output_inception_4c/output_0_split_3
I1220 11:11:05.634143 28373 net.cpp:338] inception_4d/pool -> inception_4d/pool
I1220 11:11:05.634151 28373 net.cpp:113] Setting up inception_4d/pool
I1220 11:11:05.634160 28373 net.cpp:120] Top shape: 80 512 14 14 (8028160)
I1220 11:11:05.634166 28373 layer_factory.hpp:74] Creating layer inception_4d/pool_proj
I1220 11:11:05.634177 28373 net.cpp:84] Creating Layer inception_4d/pool_proj
I1220 11:11:05.634183 28373 net.cpp:380] inception_4d/pool_proj <- inception_4d/pool
I1220 11:11:05.634191 28373 net.cpp:338] inception_4d/pool_proj -> inception_4d/pool_proj
I1220 11:11:05.634199 28373 net.cpp:113] Setting up inception_4d/pool_proj
I1220 11:11:05.635040 28373 net.cpp:120] Top shape: 80 64 14 14 (1003520)
I1220 11:11:05.635056 28373 layer_factory.hpp:74] Creating layer inception_4d/relu_pool_proj
I1220 11:11:05.635068 28373 net.cpp:84] Creating Layer inception_4d/relu_pool_proj
I1220 11:11:05.635076 28373 net.cpp:380] inception_4d/relu_pool_proj <- inception_4d/pool_proj
I1220 11:11:05.635084 28373 net.cpp:327] inception_4d/relu_pool_proj -> inception_4d/pool_proj (in-place)
I1220 11:11:05.635094 28373 net.cpp:113] Setting up inception_4d/relu_pool_proj
I1220 11:11:05.635360 28373 net.cpp:120] Top shape: 80 64 14 14 (1003520)
I1220 11:11:05.635371 28373 layer_factory.hpp:74] Creating layer inception_4d/output
I1220 11:11:05.635380 28373 net.cpp:84] Creating Layer inception_4d/output
I1220 11:11:05.635385 28373 net.cpp:380] inception_4d/output <- inception_4d/1x1
I1220 11:11:05.635392 28373 net.cpp:380] inception_4d/output <- inception_4d/3x3
I1220 11:11:05.635398 28373 net.cpp:380] inception_4d/output <- inception_4d/5x5
I1220 11:11:05.635403 28373 net.cpp:380] inception_4d/output <- inception_4d/pool_proj
I1220 11:11:05.635409 28373 net.cpp:338] inception_4d/output -> inception_4d/output
I1220 11:11:05.635418 28373 net.cpp:113] Setting up inception_4d/output
I1220 11:11:05.635426 28373 net.cpp:120] Top shape: 80 528 14 14 (8279040)
I1220 11:11:05.635432 28373 layer_factory.hpp:74] Creating layer inception_4d/output_inception_4d/output_0_split
I1220 11:11:05.635440 28373 net.cpp:84] Creating Layer inception_4d/output_inception_4d/output_0_split
I1220 11:11:05.635445 28373 net.cpp:380] inception_4d/output_inception_4d/output_0_split <- inception_4d/output
I1220 11:11:05.635454 28373 net.cpp:338] inception_4d/output_inception_4d/output_0_split -> inception_4d/output_inception_4d/output_0_split_0
I1220 11:11:05.635462 28373 net.cpp:338] inception_4d/output_inception_4d/output_0_split -> inception_4d/output_inception_4d/output_0_split_1
I1220 11:11:05.635469 28373 net.cpp:338] inception_4d/output_inception_4d/output_0_split -> inception_4d/output_inception_4d/output_0_split_2
I1220 11:11:05.635490 28373 net.cpp:338] inception_4d/output_inception_4d/output_0_split -> inception_4d/output_inception_4d/output_0_split_3
I1220 11:11:05.635500 28373 net.cpp:338] inception_4d/output_inception_4d/output_0_split -> inception_4d/output_inception_4d/output_0_split_4
I1220 11:11:05.635507 28373 net.cpp:113] Setting up inception_4d/output_inception_4d/output_0_split
I1220 11:11:05.635516 28373 net.cpp:120] Top shape: 80 528 14 14 (8279040)
I1220 11:11:05.635521 28373 net.cpp:120] Top shape: 80 528 14 14 (8279040)
I1220 11:11:05.635527 28373 net.cpp:120] Top shape: 80 528 14 14 (8279040)
I1220 11:11:05.635532 28373 net.cpp:120] Top shape: 80 528 14 14 (8279040)
I1220 11:11:05.635537 28373 net.cpp:120] Top shape: 80 528 14 14 (8279040)
I1220 11:11:05.635542 28373 layer_factory.hpp:74] Creating layer loss2/ave_pool
I1220 11:11:05.635550 28373 net.cpp:84] Creating Layer loss2/ave_pool
I1220 11:11:05.635555 28373 net.cpp:380] loss2/ave_pool <- inception_4d/output_inception_4d/output_0_split_0
I1220 11:11:05.635565 28373 net.cpp:338] loss2/ave_pool -> loss2/ave_pool
I1220 11:11:05.635571 28373 net.cpp:113] Setting up loss2/ave_pool
I1220 11:11:05.635651 28373 net.cpp:120] Top shape: 80 528 4 4 (675840)
I1220 11:11:05.635658 28373 layer_factory.hpp:74] Creating layer loss2/conv
I1220 11:11:05.635668 28373 net.cpp:84] Creating Layer loss2/conv
I1220 11:11:05.635673 28373 net.cpp:380] loss2/conv <- loss2/ave_pool
I1220 11:11:05.635681 28373 net.cpp:338] loss2/conv -> loss2/conv
I1220 11:11:05.635690 28373 net.cpp:113] Setting up loss2/conv
I1220 11:11:05.644372 28373 net.cpp:120] Top shape: 80 128 4 4 (163840)
I1220 11:11:05.644402 28373 layer_factory.hpp:74] Creating layer loss2/relu_conv
I1220 11:11:05.644413 28373 net.cpp:84] Creating Layer loss2/relu_conv
I1220 11:11:05.644420 28373 net.cpp:380] loss2/relu_conv <- loss2/conv
I1220 11:11:05.644428 28373 net.cpp:327] loss2/relu_conv -> loss2/conv (in-place)
I1220 11:11:05.644438 28373 net.cpp:113] Setting up loss2/relu_conv
I1220 11:11:05.644520 28373 net.cpp:120] Top shape: 80 128 4 4 (163840)
I1220 11:11:05.644527 28373 layer_factory.hpp:74] Creating layer loss2/fc_kaggle
I1220 11:11:05.644537 28373 net.cpp:84] Creating Layer loss2/fc_kaggle
I1220 11:11:05.644542 28373 net.cpp:380] loss2/fc_kaggle <- loss2/conv
I1220 11:11:05.644551 28373 net.cpp:338] loss2/fc_kaggle -> loss2/fc_kaggle
I1220 11:11:05.644559 28373 net.cpp:113] Setting up loss2/fc_kaggle
I1220 11:11:05.833242 28373 net.cpp:120] Top shape: 80 1024 (81920)
I1220 11:11:05.833364 28373 layer_factory.hpp:74] Creating layer loss2/relu_fc_kaggle
I1220 11:11:05.833392 28373 net.cpp:84] Creating Layer loss2/relu_fc_kaggle
I1220 11:11:05.833506 28373 net.cpp:380] loss2/relu_fc_kaggle <- loss2/fc_kaggle
I1220 11:11:05.833537 28373 net.cpp:327] loss2/relu_fc_kaggle -> loss2/fc_kaggle (in-place)
I1220 11:11:05.833555 28373 net.cpp:113] Setting up loss2/relu_fc_kaggle
I1220 11:11:05.834794 28373 net.cpp:120] Top shape: 80 1024 (81920)
I1220 11:11:05.834810 28373 layer_factory.hpp:74] Creating layer loss2/drop_fc_kaggle
I1220 11:11:05.834846 28373 net.cpp:84] Creating Layer loss2/drop_fc_kaggle
I1220 11:11:05.834854 28373 net.cpp:380] loss2/drop_fc_kaggle <- loss2/fc_kaggle
I1220 11:11:05.834863 28373 net.cpp:327] loss2/drop_fc_kaggle -> loss2/fc_kaggle (in-place)
I1220 11:11:05.834877 28373 net.cpp:113] Setting up loss2/drop_fc_kaggle
I1220 11:11:05.834888 28373 net.cpp:120] Top shape: 80 1024 (81920)
I1220 11:11:05.834895 28373 layer_factory.hpp:74] Creating layer loss2/classifier_kaggle
I1220 11:11:05.834918 28373 net.cpp:84] Creating Layer loss2/classifier_kaggle
I1220 11:11:05.834925 28373 net.cpp:380] loss2/classifier_kaggle <- loss2/fc_kaggle
I1220 11:11:05.834939 28373 net.cpp:338] loss2/classifier_kaggle -> loss2/classifier_kaggle
I1220 11:11:05.834954 28373 net.cpp:113] Setting up loss2/classifier_kaggle
I1220 11:11:05.841953 28373 net.cpp:120] Top shape: 80 447 (35760)
I1220 11:11:05.841984 28373 layer_factory.hpp:74] Creating layer loss2/loss
I1220 11:11:05.842010 28373 net.cpp:84] Creating Layer loss2/loss
I1220 11:11:05.842034 28373 net.cpp:380] loss2/loss <- loss2/classifier_kaggle
I1220 11:11:05.842044 28373 net.cpp:380] loss2/loss <- label_data_1_split_1
I1220 11:11:05.842053 28373 net.cpp:338] loss2/loss -> loss2/loss1
I1220 11:11:05.842064 28373 net.cpp:113] Setting up loss2/loss
I1220 11:11:05.842073 28373 layer_factory.hpp:74] Creating layer loss2/loss
I1220 11:11:05.842308 28373 net.cpp:120] Top shape: (1)
I1220 11:11:05.842319 28373 net.cpp:122]     with loss weight 0.3
I1220 11:11:05.842340 28373 layer_factory.hpp:74] Creating layer inception_4e/1x1
I1220 11:11:05.842363 28373 net.cpp:84] Creating Layer inception_4e/1x1
I1220 11:11:05.842387 28373 net.cpp:380] inception_4e/1x1 <- inception_4d/output_inception_4d/output_0_split_1
I1220 11:11:05.842416 28373 net.cpp:338] inception_4e/1x1 -> inception_4e/1x1
I1220 11:11:05.842432 28373 net.cpp:113] Setting up inception_4e/1x1
I1220 11:11:05.845173 28373 net.cpp:120] Top shape: 80 256 14 14 (4014080)
I1220 11:11:05.845194 28373 layer_factory.hpp:74] Creating layer inception_4e/relu_1x1
I1220 11:11:05.845209 28373 net.cpp:84] Creating Layer inception_4e/relu_1x1
I1220 11:11:05.845217 28373 net.cpp:380] inception_4e/relu_1x1 <- inception_4e/1x1
I1220 11:11:05.845226 28373 net.cpp:327] inception_4e/relu_1x1 -> inception_4e/1x1 (in-place)
I1220 11:11:05.845235 28373 net.cpp:113] Setting up inception_4e/relu_1x1
I1220 11:11:05.845331 28373 net.cpp:120] Top shape: 80 256 14 14 (4014080)
I1220 11:11:05.845340 28373 layer_factory.hpp:74] Creating layer inception_4e/3x3_reduce
I1220 11:11:05.845350 28373 net.cpp:84] Creating Layer inception_4e/3x3_reduce
I1220 11:11:05.845357 28373 net.cpp:380] inception_4e/3x3_reduce <- inception_4d/output_inception_4d/output_0_split_2
I1220 11:11:05.845368 28373 net.cpp:338] inception_4e/3x3_reduce -> inception_4e/3x3_reduce
I1220 11:11:05.845378 28373 net.cpp:113] Setting up inception_4e/3x3_reduce
I1220 11:11:05.847159 28373 net.cpp:120] Top shape: 80 160 14 14 (2508800)
I1220 11:11:05.847179 28373 layer_factory.hpp:74] Creating layer inception_4e/relu_3x3_reduce
I1220 11:11:05.847200 28373 net.cpp:84] Creating Layer inception_4e/relu_3x3_reduce
I1220 11:11:05.847209 28373 net.cpp:380] inception_4e/relu_3x3_reduce <- inception_4e/3x3_reduce
I1220 11:11:05.847219 28373 net.cpp:327] inception_4e/relu_3x3_reduce -> inception_4e/3x3_reduce (in-place)
I1220 11:11:05.847229 28373 net.cpp:113] Setting up inception_4e/relu_3x3_reduce
I1220 11:11:05.847324 28373 net.cpp:120] Top shape: 80 160 14 14 (2508800)
I1220 11:11:05.847347 28373 layer_factory.hpp:74] Creating layer inception_4e/3x3
I1220 11:11:05.847364 28373 net.cpp:84] Creating Layer inception_4e/3x3
I1220 11:11:05.847373 28373 net.cpp:380] inception_4e/3x3 <- inception_4e/3x3_reduce
I1220 11:11:05.847380 28373 net.cpp:338] inception_4e/3x3 -> inception_4e/3x3
I1220 11:11:05.847396 28373 net.cpp:113] Setting up inception_4e/3x3
I1220 11:11:05.854713 28373 net.cpp:120] Top shape: 80 320 14 14 (5017600)
I1220 11:11:05.854742 28373 layer_factory.hpp:74] Creating layer inception_4e/relu_3x3
I1220 11:11:05.854750 28373 net.cpp:84] Creating Layer inception_4e/relu_3x3
I1220 11:11:05.854758 28373 net.cpp:380] inception_4e/relu_3x3 <- inception_4e/3x3
I1220 11:11:05.854765 28373 net.cpp:327] inception_4e/relu_3x3 -> inception_4e/3x3 (in-place)
I1220 11:11:05.854775 28373 net.cpp:113] Setting up inception_4e/relu_3x3
I1220 11:11:05.855057 28373 net.cpp:120] Top shape: 80 320 14 14 (5017600)
I1220 11:11:05.855069 28373 layer_factory.hpp:74] Creating layer inception_4e/5x5_reduce
I1220 11:11:05.855095 28373 net.cpp:84] Creating Layer inception_4e/5x5_reduce
I1220 11:11:05.855103 28373 net.cpp:380] inception_4e/5x5_reduce <- inception_4d/output_inception_4d/output_0_split_3
I1220 11:11:05.855113 28373 net.cpp:338] inception_4e/5x5_reduce -> inception_4e/5x5_reduce
I1220 11:11:05.855124 28373 net.cpp:113] Setting up inception_4e/5x5_reduce
I1220 11:11:05.855825 28373 net.cpp:120] Top shape: 80 32 14 14 (501760)
I1220 11:11:05.855852 28373 layer_factory.hpp:74] Creating layer inception_4e/relu_5x5_reduce
I1220 11:11:05.855872 28373 net.cpp:84] Creating Layer inception_4e/relu_5x5_reduce
I1220 11:11:05.855881 28373 net.cpp:380] inception_4e/relu_5x5_reduce <- inception_4e/5x5_reduce
I1220 11:11:05.855890 28373 net.cpp:327] inception_4e/relu_5x5_reduce -> inception_4e/5x5_reduce (in-place)
I1220 11:11:05.855898 28373 net.cpp:113] Setting up inception_4e/relu_5x5_reduce
I1220 11:11:05.855981 28373 net.cpp:120] Top shape: 80 32 14 14 (501760)
I1220 11:11:05.855988 28373 layer_factory.hpp:74] Creating layer inception_4e/5x5
I1220 11:11:05.856217 28373 net.cpp:84] Creating Layer inception_4e/5x5
I1220 11:11:05.856226 28373 net.cpp:380] inception_4e/5x5 <- inception_4e/5x5_reduce
I1220 11:11:05.856235 28373 net.cpp:338] inception_4e/5x5 -> inception_4e/5x5
I1220 11:11:05.856245 28373 net.cpp:113] Setting up inception_4e/5x5
I1220 11:11:05.858095 28373 net.cpp:120] Top shape: 80 128 14 14 (2007040)
I1220 11:11:05.858124 28373 layer_factory.hpp:74] Creating layer inception_4e/relu_5x5
I1220 11:11:05.858132 28373 net.cpp:84] Creating Layer inception_4e/relu_5x5
I1220 11:11:05.858139 28373 net.cpp:380] inception_4e/relu_5x5 <- inception_4e/5x5
I1220 11:11:05.858146 28373 net.cpp:327] inception_4e/relu_5x5 -> inception_4e/5x5 (in-place)
I1220 11:11:05.858155 28373 net.cpp:113] Setting up inception_4e/relu_5x5
I1220 11:11:05.858240 28373 net.cpp:120] Top shape: 80 128 14 14 (2007040)
I1220 11:11:05.858248 28373 layer_factory.hpp:74] Creating layer inception_4e/pool
I1220 11:11:05.858260 28373 layer_factory.cpp:56] CUDNN does not support padding or multiple tops. Using Caffe's own pooling layer.
I1220 11:11:05.858268 28373 net.cpp:84] Creating Layer inception_4e/pool
I1220 11:11:05.858275 28373 net.cpp:380] inception_4e/pool <- inception_4d/output_inception_4d/output_0_split_4
I1220 11:11:05.858285 28373 net.cpp:338] inception_4e/pool -> inception_4e/pool
I1220 11:11:05.858294 28373 net.cpp:113] Setting up inception_4e/pool
I1220 11:11:05.858305 28373 net.cpp:120] Top shape: 80 528 14 14 (8279040)
I1220 11:11:05.858310 28373 layer_factory.hpp:74] Creating layer inception_4e/pool_proj
I1220 11:11:05.858320 28373 net.cpp:84] Creating Layer inception_4e/pool_proj
I1220 11:11:05.858326 28373 net.cpp:380] inception_4e/pool_proj <- inception_4e/pool
I1220 11:11:05.858335 28373 net.cpp:338] inception_4e/pool_proj -> inception_4e/pool_proj
I1220 11:11:05.858342 28373 net.cpp:113] Setting up inception_4e/pool_proj
I1220 11:11:05.859725 28373 net.cpp:120] Top shape: 80 128 14 14 (2007040)
I1220 11:11:05.859743 28373 layer_factory.hpp:74] Creating layer inception_4e/relu_pool_proj
I1220 11:11:05.859761 28373 net.cpp:84] Creating Layer inception_4e/relu_pool_proj
I1220 11:11:05.859771 28373 net.cpp:380] inception_4e/relu_pool_proj <- inception_4e/pool_proj
I1220 11:11:05.859778 28373 net.cpp:327] inception_4e/relu_pool_proj -> inception_4e/pool_proj (in-place)
I1220 11:11:05.859786 28373 net.cpp:113] Setting up inception_4e/relu_pool_proj
I1220 11:11:05.859869 28373 net.cpp:120] Top shape: 80 128 14 14 (2007040)
I1220 11:11:05.859875 28373 layer_factory.hpp:74] Creating layer inception_4e/output
I1220 11:11:05.859889 28373 net.cpp:84] Creating Layer inception_4e/output
I1220 11:11:05.859897 28373 net.cpp:380] inception_4e/output <- inception_4e/1x1
I1220 11:11:05.859905 28373 net.cpp:380] inception_4e/output <- inception_4e/3x3
I1220 11:11:05.859910 28373 net.cpp:380] inception_4e/output <- inception_4e/5x5
I1220 11:11:05.859916 28373 net.cpp:380] inception_4e/output <- inception_4e/pool_proj
I1220 11:11:05.859923 28373 net.cpp:338] inception_4e/output -> inception_4e/output
I1220 11:11:05.859931 28373 net.cpp:113] Setting up inception_4e/output
I1220 11:11:05.859941 28373 net.cpp:120] Top shape: 80 832 14 14 (13045760)
I1220 11:11:05.859947 28373 layer_factory.hpp:74] Creating layer pool4/3x3_s2
I1220 11:11:05.859954 28373 net.cpp:84] Creating Layer pool4/3x3_s2
I1220 11:11:05.859961 28373 net.cpp:380] pool4/3x3_s2 <- inception_4e/output
I1220 11:11:05.859974 28373 net.cpp:338] pool4/3x3_s2 -> pool4/3x3_s2
I1220 11:11:05.859993 28373 net.cpp:113] Setting up pool4/3x3_s2
I1220 11:11:05.868007 28373 net.cpp:120] Top shape: 80 832 7 7 (3261440)
I1220 11:11:05.868027 28373 layer_factory.hpp:74] Creating layer pool4/3x3_s2_pool4/3x3_s2_0_split
I1220 11:11:05.868047 28373 net.cpp:84] Creating Layer pool4/3x3_s2_pool4/3x3_s2_0_split
I1220 11:11:05.868054 28373 net.cpp:380] pool4/3x3_s2_pool4/3x3_s2_0_split <- pool4/3x3_s2
I1220 11:11:05.868063 28373 net.cpp:338] pool4/3x3_s2_pool4/3x3_s2_0_split -> pool4/3x3_s2_pool4/3x3_s2_0_split_0
I1220 11:11:05.868073 28373 net.cpp:338] pool4/3x3_s2_pool4/3x3_s2_0_split -> pool4/3x3_s2_pool4/3x3_s2_0_split_1
I1220 11:11:05.868083 28373 net.cpp:338] pool4/3x3_s2_pool4/3x3_s2_0_split -> pool4/3x3_s2_pool4/3x3_s2_0_split_2
I1220 11:11:05.868093 28373 net.cpp:338] pool4/3x3_s2_pool4/3x3_s2_0_split -> pool4/3x3_s2_pool4/3x3_s2_0_split_3
I1220 11:11:05.868099 28373 net.cpp:113] Setting up pool4/3x3_s2_pool4/3x3_s2_0_split
I1220 11:11:05.868108 28373 net.cpp:120] Top shape: 80 832 7 7 (3261440)
I1220 11:11:05.868115 28373 net.cpp:120] Top shape: 80 832 7 7 (3261440)
I1220 11:11:05.868120 28373 net.cpp:120] Top shape: 80 832 7 7 (3261440)
I1220 11:11:05.868126 28373 net.cpp:120] Top shape: 80 832 7 7 (3261440)
I1220 11:11:05.868131 28373 layer_factory.hpp:74] Creating layer inception_5a/1x1
I1220 11:11:05.868140 28373 net.cpp:84] Creating Layer inception_5a/1x1
I1220 11:11:05.868146 28373 net.cpp:380] inception_5a/1x1 <- pool4/3x3_s2_pool4/3x3_s2_0_split_0
I1220 11:11:05.868157 28373 net.cpp:338] inception_5a/1x1 -> inception_5a/1x1
I1220 11:11:05.868166 28373 net.cpp:113] Setting up inception_5a/1x1
I1220 11:11:05.871443 28373 net.cpp:120] Top shape: 80 256 7 7 (1003520)
I1220 11:11:05.871462 28373 layer_factory.hpp:74] Creating layer inception_5a/relu_1x1
I1220 11:11:05.871480 28373 net.cpp:84] Creating Layer inception_5a/relu_1x1
I1220 11:11:05.871487 28373 net.cpp:380] inception_5a/relu_1x1 <- inception_5a/1x1
I1220 11:11:05.871495 28373 net.cpp:327] inception_5a/relu_1x1 -> inception_5a/1x1 (in-place)
I1220 11:11:05.871502 28373 net.cpp:113] Setting up inception_5a/relu_1x1
I1220 11:11:05.871582 28373 net.cpp:120] Top shape: 80 256 7 7 (1003520)
I1220 11:11:05.871594 28373 layer_factory.hpp:74] Creating layer inception_5a/3x3_reduce
I1220 11:11:05.871603 28373 net.cpp:84] Creating Layer inception_5a/3x3_reduce
I1220 11:11:05.871609 28373 net.cpp:380] inception_5a/3x3_reduce <- pool4/3x3_s2_pool4/3x3_s2_0_split_1
I1220 11:11:05.871619 28373 net.cpp:338] inception_5a/3x3_reduce -> inception_5a/3x3_reduce
I1220 11:11:05.871629 28373 net.cpp:113] Setting up inception_5a/3x3_reduce
I1220 11:11:05.873807 28373 net.cpp:120] Top shape: 80 160 7 7 (627200)
I1220 11:11:05.873826 28373 layer_factory.hpp:74] Creating layer inception_5a/relu_3x3_reduce
I1220 11:11:05.873833 28373 net.cpp:84] Creating Layer inception_5a/relu_3x3_reduce
I1220 11:11:05.873839 28373 net.cpp:380] inception_5a/relu_3x3_reduce <- inception_5a/3x3_reduce
I1220 11:11:05.873847 28373 net.cpp:327] inception_5a/relu_3x3_reduce -> inception_5a/3x3_reduce (in-place)
I1220 11:11:05.873855 28373 net.cpp:113] Setting up inception_5a/relu_3x3_reduce
I1220 11:11:05.873931 28373 net.cpp:120] Top shape: 80 160 7 7 (627200)
I1220 11:11:05.873939 28373 layer_factory.hpp:74] Creating layer inception_5a/3x3
I1220 11:11:05.873957 28373 net.cpp:84] Creating Layer inception_5a/3x3
I1220 11:11:05.873965 28373 net.cpp:380] inception_5a/3x3 <- inception_5a/3x3_reduce
I1220 11:11:05.873972 28373 net.cpp:338] inception_5a/3x3 -> inception_5a/3x3
I1220 11:11:05.873981 28373 net.cpp:113] Setting up inception_5a/3x3
I1220 11:11:05.880394 28373 net.cpp:120] Top shape: 80 320 7 7 (1254400)
I1220 11:11:05.880419 28373 layer_factory.hpp:74] Creating layer inception_5a/relu_3x3
I1220 11:11:05.880434 28373 net.cpp:84] Creating Layer inception_5a/relu_3x3
I1220 11:11:05.880439 28373 net.cpp:380] inception_5a/relu_3x3 <- inception_5a/3x3
I1220 11:11:05.880447 28373 net.cpp:327] inception_5a/relu_3x3 -> inception_5a/3x3 (in-place)
I1220 11:11:05.880466 28373 net.cpp:113] Setting up inception_5a/relu_3x3
I1220 11:11:05.880558 28373 net.cpp:120] Top shape: 80 320 7 7 (1254400)
I1220 11:11:05.880573 28373 layer_factory.hpp:74] Creating layer inception_5a/5x5_reduce
I1220 11:11:05.880584 28373 net.cpp:84] Creating Layer inception_5a/5x5_reduce
I1220 11:11:05.880590 28373 net.cpp:380] inception_5a/5x5_reduce <- pool4/3x3_s2_pool4/3x3_s2_0_split_2
I1220 11:11:05.880599 28373 net.cpp:338] inception_5a/5x5_reduce -> inception_5a/5x5_reduce
I1220 11:11:05.880607 28373 net.cpp:113] Setting up inception_5a/5x5_reduce
I1220 11:11:05.882055 28373 net.cpp:120] Top shape: 80 32 7 7 (125440)
I1220 11:11:05.882077 28373 layer_factory.hpp:74] Creating layer inception_5a/relu_5x5_reduce
I1220 11:11:05.882093 28373 net.cpp:84] Creating Layer inception_5a/relu_5x5_reduce
I1220 11:11:05.882102 28373 net.cpp:380] inception_5a/relu_5x5_reduce <- inception_5a/5x5_reduce
I1220 11:11:05.882112 28373 net.cpp:327] inception_5a/relu_5x5_reduce -> inception_5a/5x5_reduce (in-place)
I1220 11:11:05.882122 28373 net.cpp:113] Setting up inception_5a/relu_5x5_reduce
I1220 11:11:05.882402 28373 net.cpp:120] Top shape: 80 32 7 7 (125440)
I1220 11:11:05.882414 28373 layer_factory.hpp:74] Creating layer inception_5a/5x5
I1220 11:11:05.882423 28373 net.cpp:84] Creating Layer inception_5a/5x5
I1220 11:11:05.882429 28373 net.cpp:380] inception_5a/5x5 <- inception_5a/5x5_reduce
I1220 11:11:05.882439 28373 net.cpp:338] inception_5a/5x5 -> inception_5a/5x5
I1220 11:11:05.882449 28373 net.cpp:113] Setting up inception_5a/5x5
I1220 11:11:05.884191 28373 net.cpp:120] Top shape: 80 128 7 7 (501760)
I1220 11:11:05.884208 28373 layer_factory.hpp:74] Creating layer inception_5a/relu_5x5
I1220 11:11:05.884217 28373 net.cpp:84] Creating Layer inception_5a/relu_5x5
I1220 11:11:05.884224 28373 net.cpp:380] inception_5a/relu_5x5 <- inception_5a/5x5
I1220 11:11:05.884232 28373 net.cpp:327] inception_5a/relu_5x5 -> inception_5a/5x5 (in-place)
I1220 11:11:05.884239 28373 net.cpp:113] Setting up inception_5a/relu_5x5
I1220 11:11:05.884321 28373 net.cpp:120] Top shape: 80 128 7 7 (501760)
I1220 11:11:05.884330 28373 layer_factory.hpp:74] Creating layer inception_5a/pool
I1220 11:11:05.884343 28373 layer_factory.cpp:56] CUDNN does not support padding or multiple tops. Using Caffe's own pooling layer.
I1220 11:11:05.884351 28373 net.cpp:84] Creating Layer inception_5a/pool
I1220 11:11:05.884356 28373 net.cpp:380] inception_5a/pool <- pool4/3x3_s2_pool4/3x3_s2_0_split_3
I1220 11:11:05.884366 28373 net.cpp:338] inception_5a/pool -> inception_5a/pool
I1220 11:11:05.884376 28373 net.cpp:113] Setting up inception_5a/pool
I1220 11:11:05.884384 28373 net.cpp:120] Top shape: 80 832 7 7 (3261440)
I1220 11:11:05.884390 28373 layer_factory.hpp:74] Creating layer inception_5a/pool_proj
I1220 11:11:05.884405 28373 net.cpp:84] Creating Layer inception_5a/pool_proj
I1220 11:11:05.884412 28373 net.cpp:380] inception_5a/pool_proj <- inception_5a/pool
I1220 11:11:05.884423 28373 net.cpp:338] inception_5a/pool_proj -> inception_5a/pool_proj
I1220 11:11:05.884431 28373 net.cpp:113] Setting up inception_5a/pool_proj
I1220 11:11:05.886209 28373 net.cpp:120] Top shape: 80 128 7 7 (501760)
I1220 11:11:05.886227 28373 layer_factory.hpp:74] Creating layer inception_5a/relu_pool_proj
I1220 11:11:05.886237 28373 net.cpp:84] Creating Layer inception_5a/relu_pool_proj
I1220 11:11:05.886243 28373 net.cpp:380] inception_5a/relu_pool_proj <- inception_5a/pool_proj
I1220 11:11:05.886250 28373 net.cpp:327] inception_5a/relu_pool_proj -> inception_5a/pool_proj (in-place)
I1220 11:11:05.886260 28373 net.cpp:113] Setting up inception_5a/relu_pool_proj
I1220 11:11:05.886337 28373 net.cpp:120] Top shape: 80 128 7 7 (501760)
I1220 11:11:05.886343 28373 layer_factory.hpp:74] Creating layer inception_5a/output
I1220 11:11:05.886351 28373 net.cpp:84] Creating Layer inception_5a/output
I1220 11:11:05.886356 28373 net.cpp:380] inception_5a/output <- inception_5a/1x1
I1220 11:11:05.886363 28373 net.cpp:380] inception_5a/output <- inception_5a/3x3
I1220 11:11:05.886376 28373 net.cpp:380] inception_5a/output <- inception_5a/5x5
I1220 11:11:05.886391 28373 net.cpp:380] inception_5a/output <- inception_5a/pool_proj
I1220 11:11:05.886399 28373 net.cpp:338] inception_5a/output -> inception_5a/output
I1220 11:11:05.886406 28373 net.cpp:113] Setting up inception_5a/output
I1220 11:11:05.886416 28373 net.cpp:120] Top shape: 80 832 7 7 (3261440)
I1220 11:11:05.886421 28373 layer_factory.hpp:74] Creating layer inception_5a/output_inception_5a/output_0_split
I1220 11:11:05.886436 28373 net.cpp:84] Creating Layer inception_5a/output_inception_5a/output_0_split
I1220 11:11:05.886442 28373 net.cpp:380] inception_5a/output_inception_5a/output_0_split <- inception_5a/output
I1220 11:11:05.886451 28373 net.cpp:338] inception_5a/output_inception_5a/output_0_split -> inception_5a/output_inception_5a/output_0_split_0
I1220 11:11:05.886461 28373 net.cpp:338] inception_5a/output_inception_5a/output_0_split -> inception_5a/output_inception_5a/output_0_split_1
I1220 11:11:05.886467 28373 net.cpp:338] inception_5a/output_inception_5a/output_0_split -> inception_5a/output_inception_5a/output_0_split_2
I1220 11:11:05.886474 28373 net.cpp:338] inception_5a/output_inception_5a/output_0_split -> inception_5a/output_inception_5a/output_0_split_3
I1220 11:11:05.886482 28373 net.cpp:113] Setting up inception_5a/output_inception_5a/output_0_split
I1220 11:11:05.886493 28373 net.cpp:120] Top shape: 80 832 7 7 (3261440)
I1220 11:11:05.886499 28373 net.cpp:120] Top shape: 80 832 7 7 (3261440)
I1220 11:11:05.886504 28373 net.cpp:120] Top shape: 80 832 7 7 (3261440)
I1220 11:11:05.886510 28373 net.cpp:120] Top shape: 80 832 7 7 (3261440)
I1220 11:11:05.886519 28373 layer_factory.hpp:74] Creating layer inception_5b/1x1
I1220 11:11:05.886533 28373 net.cpp:84] Creating Layer inception_5b/1x1
I1220 11:11:05.886538 28373 net.cpp:380] inception_5b/1x1 <- inception_5a/output_inception_5a/output_0_split_0
I1220 11:11:05.886548 28373 net.cpp:338] inception_5b/1x1 -> inception_5b/1x1
I1220 11:11:05.886555 28373 net.cpp:113] Setting up inception_5b/1x1
I1220 11:11:05.906131 28373 net.cpp:120] Top shape: 80 384 7 7 (1505280)
I1220 11:11:05.906173 28373 layer_factory.hpp:74] Creating layer inception_5b/relu_1x1
I1220 11:11:05.906188 28373 net.cpp:84] Creating Layer inception_5b/relu_1x1
I1220 11:11:05.906196 28373 net.cpp:380] inception_5b/relu_1x1 <- inception_5b/1x1
I1220 11:11:05.906208 28373 net.cpp:327] inception_5b/relu_1x1 -> inception_5b/1x1 (in-place)
I1220 11:11:05.906219 28373 net.cpp:113] Setting up inception_5b/relu_1x1
I1220 11:11:05.913272 28373 net.cpp:120] Top shape: 80 384 7 7 (1505280)
I1220 11:11:05.913293 28373 layer_factory.hpp:74] Creating layer inception_5b/3x3_reduce
I1220 11:11:05.913310 28373 net.cpp:84] Creating Layer inception_5b/3x3_reduce
I1220 11:11:05.913316 28373 net.cpp:380] inception_5b/3x3_reduce <- inception_5a/output_inception_5a/output_0_split_1
I1220 11:11:05.913328 28373 net.cpp:338] inception_5b/3x3_reduce -> inception_5b/3x3_reduce
I1220 11:11:05.913341 28373 net.cpp:113] Setting up inception_5b/3x3_reduce
I1220 11:11:05.916091 28373 net.cpp:120] Top shape: 80 192 7 7 (752640)
I1220 11:11:05.916110 28373 layer_factory.hpp:74] Creating layer inception_5b/relu_3x3_reduce
I1220 11:11:05.916121 28373 net.cpp:84] Creating Layer inception_5b/relu_3x3_reduce
I1220 11:11:05.916127 28373 net.cpp:380] inception_5b/relu_3x3_reduce <- inception_5b/3x3_reduce
I1220 11:11:05.916136 28373 net.cpp:327] inception_5b/relu_3x3_reduce -> inception_5b/3x3_reduce (in-place)
I1220 11:11:05.916144 28373 net.cpp:113] Setting up inception_5b/relu_3x3_reduce
I1220 11:11:05.916225 28373 net.cpp:120] Top shape: 80 192 7 7 (752640)
I1220 11:11:05.916232 28373 layer_factory.hpp:74] Creating layer inception_5b/3x3
I1220 11:11:05.916254 28373 net.cpp:84] Creating Layer inception_5b/3x3
I1220 11:11:05.916260 28373 net.cpp:380] inception_5b/3x3 <- inception_5b/3x3_reduce
I1220 11:11:05.916268 28373 net.cpp:338] inception_5b/3x3 -> inception_5b/3x3
I1220 11:11:05.916306 28373 net.cpp:113] Setting up inception_5b/3x3
I1220 11:11:05.968312 28373 net.cpp:120] Top shape: 80 384 7 7 (1505280)
I1220 11:11:05.968386 28373 layer_factory.hpp:74] Creating layer inception_5b/relu_3x3
I1220 11:11:05.968405 28373 net.cpp:84] Creating Layer inception_5b/relu_3x3
I1220 11:11:05.968415 28373 net.cpp:380] inception_5b/relu_3x3 <- inception_5b/3x3
I1220 11:11:05.968427 28373 net.cpp:327] inception_5b/relu_3x3 -> inception_5b/3x3 (in-place)
I1220 11:11:05.968443 28373 net.cpp:113] Setting up inception_5b/relu_3x3
I1220 11:11:05.968556 28373 net.cpp:120] Top shape: 80 384 7 7 (1505280)
I1220 11:11:05.968566 28373 layer_factory.hpp:74] Creating layer inception_5b/5x5_reduce
I1220 11:11:05.968580 28373 net.cpp:84] Creating Layer inception_5b/5x5_reduce
I1220 11:11:05.968590 28373 net.cpp:380] inception_5b/5x5_reduce <- inception_5a/output_inception_5a/output_0_split_2
I1220 11:11:05.968603 28373 net.cpp:338] inception_5b/5x5_reduce -> inception_5b/5x5_reduce
I1220 11:11:05.968617 28373 net.cpp:113] Setting up inception_5b/5x5_reduce
I1220 11:11:05.970233 28373 net.cpp:120] Top shape: 80 48 7 7 (188160)
I1220 11:11:05.970262 28373 layer_factory.hpp:74] Creating layer inception_5b/relu_5x5_reduce
I1220 11:11:05.970288 28373 net.cpp:84] Creating Layer inception_5b/relu_5x5_reduce
I1220 11:11:05.970298 28373 net.cpp:380] inception_5b/relu_5x5_reduce <- inception_5b/5x5_reduce
I1220 11:11:05.970309 28373 net.cpp:327] inception_5b/relu_5x5_reduce -> inception_5b/5x5_reduce (in-place)
I1220 11:11:05.970320 28373 net.cpp:113] Setting up inception_5b/relu_5x5_reduce
I1220 11:11:05.970428 28373 net.cpp:120] Top shape: 80 48 7 7 (188160)
I1220 11:11:05.970440 28373 layer_factory.hpp:74] Creating layer inception_5b/5x5
I1220 11:11:05.970454 28373 net.cpp:84] Creating Layer inception_5b/5x5
I1220 11:11:05.970463 28373 net.cpp:380] inception_5b/5x5 <- inception_5b/5x5_reduce
I1220 11:11:05.970474 28373 net.cpp:338] inception_5b/5x5 -> inception_5b/5x5
I1220 11:11:05.970486 28373 net.cpp:113] Setting up inception_5b/5x5
I1220 11:11:05.973987 28373 net.cpp:120] Top shape: 80 128 7 7 (501760)
I1220 11:11:05.974014 28373 layer_factory.hpp:74] Creating layer inception_5b/relu_5x5
I1220 11:11:05.974028 28373 net.cpp:84] Creating Layer inception_5b/relu_5x5
I1220 11:11:05.974037 28373 net.cpp:380] inception_5b/relu_5x5 <- inception_5b/5x5
I1220 11:11:05.974047 28373 net.cpp:327] inception_5b/relu_5x5 -> inception_5b/5x5 (in-place)
I1220 11:11:05.974059 28373 net.cpp:113] Setting up inception_5b/relu_5x5
I1220 11:11:05.974498 28373 net.cpp:120] Top shape: 80 128 7 7 (501760)
I1220 11:11:05.974515 28373 layer_factory.hpp:74] Creating layer inception_5b/pool
I1220 11:11:05.974524 28373 layer_factory.cpp:56] CUDNN does not support padding or multiple tops. Using Caffe's own pooling layer.
I1220 11:11:05.974547 28373 net.cpp:84] Creating Layer inception_5b/pool
I1220 11:11:05.974557 28373 net.cpp:380] inception_5b/pool <- inception_5a/output_inception_5a/output_0_split_3
I1220 11:11:05.974570 28373 net.cpp:338] inception_5b/pool -> inception_5b/pool
I1220 11:11:05.974582 28373 net.cpp:113] Setting up inception_5b/pool
I1220 11:11:05.974596 28373 net.cpp:120] Top shape: 80 832 7 7 (3261440)
I1220 11:11:05.974603 28373 layer_factory.hpp:74] Creating layer inception_5b/pool_proj
I1220 11:11:05.974625 28373 net.cpp:84] Creating Layer inception_5b/pool_proj
I1220 11:11:05.974633 28373 net.cpp:380] inception_5b/pool_proj <- inception_5b/pool
I1220 11:11:05.974647 28373 net.cpp:338] inception_5b/pool_proj -> inception_5b/pool_proj
I1220 11:11:05.974658 28373 net.cpp:113] Setting up inception_5b/pool_proj
I1220 11:11:05.977605 28373 net.cpp:120] Top shape: 80 128 7 7 (501760)
I1220 11:11:05.977638 28373 layer_factory.hpp:74] Creating layer inception_5b/relu_pool_proj
I1220 11:11:05.977653 28373 net.cpp:84] Creating Layer inception_5b/relu_pool_proj
I1220 11:11:05.977664 28373 net.cpp:380] inception_5b/relu_pool_proj <- inception_5b/pool_proj
I1220 11:11:05.977680 28373 net.cpp:327] inception_5b/relu_pool_proj -> inception_5b/pool_proj (in-place)
I1220 11:11:05.977710 28373 net.cpp:113] Setting up inception_5b/relu_pool_proj
I1220 11:11:05.977866 28373 net.cpp:120] Top shape: 80 128 7 7 (501760)
I1220 11:11:05.977880 28373 layer_factory.hpp:74] Creating layer inception_5b/output
I1220 11:11:05.977892 28373 net.cpp:84] Creating Layer inception_5b/output
I1220 11:11:05.977902 28373 net.cpp:380] inception_5b/output <- inception_5b/1x1
I1220 11:11:05.977923 28373 net.cpp:380] inception_5b/output <- inception_5b/3x3
I1220 11:11:05.977932 28373 net.cpp:380] inception_5b/output <- inception_5b/5x5
I1220 11:11:05.977939 28373 net.cpp:380] inception_5b/output <- inception_5b/pool_proj
I1220 11:11:05.977951 28373 net.cpp:338] inception_5b/output -> inception_5b/output
I1220 11:11:05.977962 28373 net.cpp:113] Setting up inception_5b/output
I1220 11:11:05.977974 28373 net.cpp:120] Top shape: 80 1024 7 7 (4014080)
I1220 11:11:05.977980 28373 layer_factory.hpp:74] Creating layer pool5/7x7_s1_kaggle
I1220 11:11:05.978000 28373 net.cpp:84] Creating Layer pool5/7x7_s1_kaggle
I1220 11:11:05.978008 28373 net.cpp:380] pool5/7x7_s1_kaggle <- inception_5b/output
I1220 11:11:05.978020 28373 net.cpp:338] pool5/7x7_s1_kaggle -> pool5/7x7_s1_kaggle
I1220 11:11:05.978030 28373 net.cpp:113] Setting up pool5/7x7_s1_kaggle
I1220 11:11:05.978132 28373 net.cpp:120] Top shape: 80 1024 1 1 (81920)
I1220 11:11:05.978142 28373 layer_factory.hpp:74] Creating layer pool5/drop_7x7_s1_kaggle
I1220 11:11:05.978154 28373 net.cpp:84] Creating Layer pool5/drop_7x7_s1_kaggle
I1220 11:11:05.978162 28373 net.cpp:380] pool5/drop_7x7_s1_kaggle <- pool5/7x7_s1_kaggle
I1220 11:11:05.978170 28373 net.cpp:327] pool5/drop_7x7_s1_kaggle -> pool5/7x7_s1_kaggle (in-place)
I1220 11:11:05.978179 28373 net.cpp:113] Setting up pool5/drop_7x7_s1_kaggle
I1220 11:11:05.978190 28373 net.cpp:120] Top shape: 80 1024 1 1 (81920)
I1220 11:11:05.978198 28373 layer_factory.hpp:74] Creating layer loss3/classifier_kaggle
I1220 11:11:05.978209 28373 net.cpp:84] Creating Layer loss3/classifier_kaggle
I1220 11:11:05.978215 28373 net.cpp:380] loss3/classifier_kaggle <- pool5/7x7_s1_kaggle
I1220 11:11:05.978225 28373 net.cpp:338] loss3/classifier_kaggle -> loss3/classifier_kaggle
I1220 11:11:05.978236 28373 net.cpp:113] Setting up loss3/classifier_kaggle
I1220 11:11:05.985671 28373 net.cpp:120] Top shape: 80 447 (35760)
I1220 11:11:05.985692 28373 layer_factory.hpp:74] Creating layer loss3/loss3
I1220 11:11:05.985704 28373 net.cpp:84] Creating Layer loss3/loss3
I1220 11:11:05.985712 28373 net.cpp:380] loss3/loss3 <- loss3/classifier_kaggle
I1220 11:11:05.985721 28373 net.cpp:380] loss3/loss3 <- label_data_1_split_2
I1220 11:11:05.985730 28373 net.cpp:338] loss3/loss3 -> loss3/loss3
I1220 11:11:05.985741 28373 net.cpp:113] Setting up loss3/loss3
…
I1220 11:11:05.993399 28373 net.cpp:257] The NetState phase (1) differed from the phase (0) specified by a rule in layer data
I1220 11:11:05.995496 28373 net.cpp:42] Initializing net from parameters: 
name: "MYNET"
state {
  phase: TEST
}
layer {
  name: "data"
  type: "ImageData"
  top: "data"
  top: "label"
  include {
    phase: TEST
  }
  transform_param {
    mirror: false
    crop_size: 224
    mean_value: 129
    mean_value: 129
    mean_value: 129
  }
  image_data_param {
    source: "/home/coldmanck/kaggle/label_val_full.txt"
    batch_size: 50
    shuffle: true
  }
}
layer {
  name: "conv1/7x7_s2"
  type: "Convolution"
  bottom: "data"
  top: "conv1/7x7_s2"
  param {
    lr_mult: 1
    decay_mult: 1
  }
  param {
    lr_mult: 2
    decay_mult: 0
  }
  convolution_param {
    num_output: 64
    pad: 3
    kernel_size: 7
    stride: 2
    weight_filler {
      type: "xavier"
    }
    bias_filler {
      type: "constant"
      value: 0.2
    }
  }
}
layer {
  name: "conv1/relu_7x7"
  type: "ReLU"
  bottom: "conv1/7x7_s2"
  top: "conv1/7x7_s2"
}
layer {
  name: "pool1/3x3_s2"
  type: "Pooling"
  bottom: "conv1/7x7_s2"
  top: "pool1/3x3_s2"
  pooling_param {
    pool: MAX
    kernel_size: 3
    stride: 2
  }
}
layer {
  name: "pool1/norm1"
  type: "LRN"
  bottom: "pool1/3x3_s2"
  top: "pool1/norm1"
  lrn_param {
    local_size: 5
    alpha: 0.0001
    beta: 0.75
  }
}
layer {
  name: "conv2/3x3_reduce"
  type: "Convolution"
  bottom: "pool1/norm1"
  top: "conv2/3x3_reduce"
  param {
    lr_mult: 1
    decay_mult: 1
  }
  param {
    lr_mult: 2
    decay_mult: 0
  }
  convolution_param {
    num_output: 64
    kernel_size: 1
    weight_filler {
      type: "xavier"
    }
    bias_filler {
      type: "constant"
      value: 0.2
    }
  }
}
layer {
  name: "conv2/relu_3x3_reduce"
  type: "ReLU"
  bottom: "conv2/3x3_reduce"
  top: "conv2/3x3_reduce"
}
layer {
  name: "conv2/3x3"
  type: "Convolution"
  bottom: "conv2/3x3_reduce"
  top: "conv2/3x3"
  param {
    lr_mult: 1
    decay_mult: 1
  }
  param {
    lr_mult: 2
    decay_mult: 0
  }
  convolution_param {
    num_output: 192
    pad: 1
    kernel_size: 3
    weight_filler {
      type: "xavier"
    }
    bias_filler {
      type: "constant"
      value: 0.2
    }
  }
}
layer {
  name: "conv2/relu_3x3"
  type: "ReLU"
  bottom: "conv2/3x3"
  top: "conv2/3x3"
}
layer {
  name: "conv2/norm2"
  type: "LRN"
  bottom: "conv2/3x3"
  top: "conv2/norm2"
  lrn_param {
    local_size: 5
    alpha: 0.0001
    beta: 0.75
  }
}
layer {
  name: "pool2/3x3_s2"
  type: "Pooling"
  bottom: "conv2/norm2"
  top: "pool2/3x3_s2"
  pooling_param {
    pool: MAX
    kernel_size: 3
    stride: 2
  }
}
layer {
  name: "inception_3a/1x1"
  type: "Convolution"
  bottom: "pool2/3x3_s2"
  top: "inception_3a/1x1"
  param {
    lr_mult: 1
    decay_mult: 1
  }
  param {
    lr_mult: 2
    decay_mult: 0
  }
  convolution_param {
    num_output: 64
    kernel_size: 1
    weight_filler {
      type: "xavier"
    }
    bias_filler {
      type: "constant"
      value: 0.2
    }
  }
}
layer {
  name: "inception_3a/relu_1x1"
  type: "ReLU"
  bottom: "inception_3a/1x1"
  top: "inception_3a/1x1"
}
layer {
  name: "inception_3a/3x3_reduce"
  type: "Convolution"
  bottom: "pool2/3x3_s2"
  top: "inception_3a/3x3_reduce"
  param {
    lr_mult: 1
    decay_mult: 1
  }
  param {
    lr_mult: 2
    decay_mult: 0
  }
  convolution_param {
    num_output: 96
    kernel_size: 1
    weight_filler {
      type: "xavier"
    }
    bias_filler {
      type: "constant"
      value: 0.2
    }
  }
}
layer {
  name: "inception_3a/relu_3x3_reduce"
  type: "ReLU"
  bottom: "inception_3a/3x3_reduce"
  top: "inception_3a/3x3_reduce"
}
layer {
  name: "inception_3a/3x3"
  type: "Convolution"
  bottom: "inception_3a/3x3_reduce"
  top: "inception_3a/3x3"
  param {
    lr_mult: 1
    decay_mult: 1
  }
  param {
    lr_mult: 2
    decay_mult: 0
  }
  convolution_param {
    num_output: 128
    pad: 1
    kernel_size: 3
    weight_filler {
      type: "xavier"
    }
    bias_filler {
      type: "constant"
      value: 0.2
    }
  }
}
layer {
  name: "inception_3a/relu_3x3"
  type: "ReLU"
  bottom: "inception_3a/3x3"
  top: "inception_3a/3x3"
}
layer {
  name: "inception_3a/5x5_reduce"
  type: "Convolution"
  bottom: "pool2/3x3_s2"
  top: "inception_3a/5x5_reduce"
  param {
    lr_mult: 1
    decay_mult: 1
  }
  param {
    lr_mult: 2
    decay_mult: 0
  }
  convolution_param {
    num_output: 16
    kernel_size: 1
    weight_filler {
      type: "xavier"
    }
    bias_filler {
      type: "constant"
      value: 0.2
    }
  }
}
layer {
  name: "inception_3a/relu_5x5_reduce"
  type: "ReLU"
  bottom: "inception_3a/5x5_reduce"
  top: "inception_3a/5x5_reduce"
}
layer {
  name: "inception_3a/5x5"
  type: "Convolution"
  bottom: "inception_3a/5x5_reduce"
  top: "inception_3a/5x5"
  param {
    lr_mult: 1
    decay_mult: 1
  }
  param {
    lr_mult: 2
    decay_mult: 0
  }
  convolution_param {
    num_output: 32
    pad: 2
    kernel_size: 5
    weight_filler {
      type: "xavier"
    }
    bias_filler {
      type: "constant"
      value: 0.2
    }
  }
}
layer {
  name: "inception_3a/relu_5x5"
  type: "ReLU"
  bottom: "inception_3a/5x5"
  top: "inception_3a/5x5"
}
layer {
  name: "inception_3a/pool"
  type: "Pooling"
  bottom: "pool2/3x3_s2"
  top: "inception_3a/pool"
  pooling_param {
    pool: MAX
    kernel_size: 3
    stride: 1
    pad: 1
  }
}
layer {
  name: "inception_3a/pool_proj"
  type: "Convolution"
  bottom: "inception_3a/pool"
  top: "inception_3a/pool_proj"
  param {
    lr_mult: 1
    decay_mult: 1
  }
  param {
    lr_mult: 2
    decay_mult: 0
  }
  convolution_param {
    num_output: 32
    kernel_size: 1
    weight_filler {
      type: "xavier"
    }
    bias_filler {
      type: "constant"
      value: 0.2
    }
  }
}
layer {
  name: "inception_3a/relu_pool_proj"
  type: "ReLU"
  bottom: "inception_3a/pool_proj"
  top: "inception_3a/pool_proj"
}
layer {
  name: "inception_3a/output"
  type: "Concat"
  bottom: "inception_3a/1x1"
  bottom: "inception_3a/3x3"
  bottom: "inception_3a/5x5"
  bottom: "inception_3a/pool_proj"
  top: "inception_3a/output"
}
layer {
  name: "inception_3b/1x1"
  type: "Convolution"
  bottom: "inception_3a/output"
  top: "inception_3b/1x1"
  param {
    lr_mult: 1
    decay_mult: 1
  }
  param {
    lr_mult: 2
    decay_mult: 0
  }
  convolution_param {
    num_output: 128
    kernel_size: 1
    weight_filler {
      type: "xavier"
    }
    bias_filler {
      type: "constant"
      value: 0.2
    }
  }
}
layer {
  name: "inception_3b/relu_1x1"
  type: "ReLU"
  bottom: "inception_3b/1x1"
  top: "inception_3b/1x1"
}
layer {
  name: "inception_3b/3x3_reduce"
  type: "Convolution"
  bottom: "inception_3a/output"
  top: "inception_3b/3x3_reduce"
  param {
    lr_mult: 1
    decay_mult: 1
  }
  param {
    lr_mult: 2
    decay_mult: 0
  }
  convolution_param {
    num_output: 128
    kernel_size: 1
    weight_filler {
      type: "xavier"
    }
    bias_filler {
      type: "constant"
      value: 0.2
    }
  }
}
layer {
  name: "inception_3b/relu_3x3_reduce"
  type: "ReLU"
  bottom: "inception_3b/3x3_reduce"
  top: "inception_3b/3x3_reduce"
}
layer {
  name: "inception_3b/3x3"
  type: "Convolution"
  bottom: "inception_3b/3x3_reduce"
  top: "inception_3b/3x3"
  param {
    lr_mult: 1
    decay_mult: 1
  }
  param {
    lr_mult: 2
    decay_mult: 0
  }
  convolution_param {
    num_output: 192
    pad: 1
    kernel_size: 3
    weight_filler {
      type: "xavier"
    }
    bias_filler {
      type: "constant"
      value: 0.2
    }
  }
}
layer {
  name: "inception_3b/relu_3x3"
  type: "ReLU"
  bottom: "inception_3b/3x3"
  top: "inception_3b/3x3"
}
layer {
  name: "inception_3b/5x5_reduce"
  type: "Convolution"
  bottom: "inception_3a/output"
  top: "inception_3b/5x5_reduce"
  param {
    lr_mult: 1
    decay_mult: 1
  }
  param {
    lr_mult: 2
    decay_mult: 0
  }
  convolution_param {
    num_output: 32
    kernel_size: 1
    weight_filler {
      type: "xavier"
    }
    bias_filler {
      type: "constant"
      value: 0.2
    }
  }
}
layer {
  name: "inception_3b/relu_5x5_reduce"
  type: "ReLU"
  bottom: "inception_3b/5x5_reduce"
  top: "inception_3b/5x5_reduce"
}
layer {
  name: "inception_3b/5x5"
  type: "Convolution"
  bottom: "inception_3b/5x5_reduce"
  top: "inception_3b/5x5"
  param {
    lr_mult: 1
    decay_mult: 1
  }
  param {
    lr_mult: 2
    decay_mult: 0
  }
  convolution_param {
    num_output: 96
    pad: 2
    kernel_size: 5
    weight_filler {
      type: "xavier"
    }
    bias_filler {
      type: "constant"
      value: 0.2
    }
  }
}
layer {
  name: "inception_3b/relu_5x5"
  type: "ReLU"
  bottom: "inception_3b/5x5"
  top: "inception_3b/5x5"
}
layer {
  name: "inception_3b/pool"
  type: "Pooling"
  bottom: "inception_3a/output"
  top: "inception_3b/pool"
  pooling_param {
    pool: MAX
    kernel_size: 3
    stride: 1
    pad: 1
  }
}
layer {
  name: "inception_3b/pool_proj"
  type: "Convolution"
  bottom: "inception_3b/pool"
  top: "inception_3b/pool_proj"
  param {
    lr_mult: 1
    decay_mult: 1
  }
  param {
    lr_mult: 2
    decay_mult: 0
  }
  convolution_param {
    num_output: 64
    kernel_size: 1
    weight_filler {
      type: "xavier"
    }
    bias_filler {
      type: "constant"
      value: 0.2
    }
  }
}
layer {
  name: "inception_3b/relu_pool_proj"
  type: "ReLU"
  bottom: "inception_3b/pool_proj"
  top: "inception_3b/pool_proj"
}
layer {
  name: "inception_3b/output"
  type: "Concat"
  bottom: "inception_3b/1x1"
  bottom: "inception_3b/3x3"
  bottom: "inception_3b/5x5"
  bottom: "inception_3b/pool_proj"
  top: "inception_3b/output"
}
layer {
  name: "pool3/3x3_s2"
  type: "Pooling"
  bottom: "inception_3b/output"
  top: "pool3/3x3_s2"
  pooling_param {
    pool: MAX
    kernel_size: 3
    stride: 2
  }
}
layer {
  name: "inception_4a/1x1"
  type: "Convolution"
  bottom: "pool3/3x3_s2"
  top: "inception_4a/1x1"
  param {
    lr_mult: 1
    decay_mult: 1
  }
  param {
    lr_mult: 2
    decay_mult: 0
  }
  convolution_param {
    num_output: 192
    kernel_size: 1
    weight_filler {
      type: "xavier"
    }
    bias_filler {
      type: "constant"
      value: 0.2
    }
  }
}
layer {
  name: "inception_4a/relu_1x1"
  type: "ReLU"
  bottom: "inception_4a/1x1"
  top: "inception_4a/1x1"
}
layer {
  name: "inception_4a/3x3_reduce"
  type: "Convolution"
  bottom: "pool3/3x3_s2"
  top: "inception_4a/3x3_reduce"
  param {
    lr_mult: 1
    decay_mult: 1
  }
  param {
    lr_mult: 2
    decay_mult: 0
  }
  convolution_param {
    num_output: 96
    kernel_size: 1
    weight_filler {
      type: "xavier"
    }
    bias_filler {
      type: "constant"
      value: 0.2
    }
  }
}
layer {
  name: "inception_4a/relu_3x3_reduce"
  type: "ReLU"
  bottom: "inception_4a/3x3_reduce"
  top: "inception_4a/3x3_reduce"
}
layer {
  name: "inception_4a/3x3"
  type: "Convolution"
  bottom: "inception_4a/3x3_reduce"
  top: "inception_4a/3x3"
  param {
    lr_mult: 1
    decay_mult: 1
  }
  param {
    lr_mult: 2
    decay_mult: 0
  }
  convolution_param {
    num_output: 208
    pad: 1
    kernel_size: 3
    weight_filler {
      type: "xavier"
    }
    bias_filler {
      type: "constant"
      value: 0.2
    }
  }
}
layer {
  name: "inception_4a/relu_3x3"
  type: "ReLU"
  bottom: "inception_4a/3x3"
  top: "inception_4a/3x3"
}
layer {
  name: "inception_4a/5x5_reduce"
  type: "Convolution"
  bottom: "pool3/3x3_s2"
  top: "inception_4a/5x5_reduce"
  param {
    lr_mult: 1
    decay_mult: 1
  }
  param {
    lr_mult: 2
    decay_mult: 0
  }
  convolution_param {
    num_output: 16
    kernel_size: 1
    weight_filler {
      type: "xavier"
    }
    bias_filler {
      type: "constant"
      value: 0.2
    }
  }
}
layer {
  name: "inception_4a/relu_5x5_reduce"
  type: "ReLU"
  bottom: "inception_4a/5x5_reduce"
  top: "inception_4a/5x5_reduce"
}
layer {
  name: "inception_4a/5x5"
  type: "Convolution"
  bottom: "inception_4a/5x5_reduce"
  top: "inception_4a/5x5"
  param {
    lr_mult: 1
    decay_mult: 1
  }
  param {
    lr_mult: 2
    decay_mult: 0
  }
  convolution_param {
    num_output: 48
    pad: 2
    kernel_size: 5
    weight_filler {
      type: "xavier"
    }
    bias_filler {
      type: "constant"
      value: 0.2
    }
  }
}
layer {
  name: "inception_4a/relu_5x5"
  type: "ReLU"
  bottom: "inception_4a/5x5"
  top: "inception_4a/5x5"
}
layer {
  name: "inception_4a/pool"
  type: "Pooling"
  bottom: "pool3/3x3_s2"
  top: "inception_4a/pool"
  pooling_param {
    pool: MAX
    kernel_size: 3
    stride: 1
    pad: 1
  }
}
layer {
  name: "inception_4a/pool_proj"
  type: "Convolution"
  bottom: "inception_4a/pool"
  top: "inception_4a/pool_proj"
  param {
    lr_mult: 1
    decay_mult: 1
  }
  param {
    lr_mult: 2
    decay_mult: 0
  }
  convolution_param {
    num_output: 64
    kernel_size: 1
    weight_filler {
      type: "xavier"
    }
    bias_filler {
      type: "constant"
      value: 0.2
    }
  }
}
layer {
  name: "inception_4a/relu_pool_proj"
  type: "ReLU"
  bottom: "inception_4a/pool_proj"
  top: "inception_4a/pool_proj"
}
layer {
  name: "inception_4a/output"
  type: "Concat"
  bottom: "inception_4a/1x1"
  bottom: "inception_4a/3x3"
  bottom: "inception_4a/5x5"
  bottom: "inception_4a/pool_proj"
  top: "inception_4a/output"
}
layer {
  name: "loss1/ave_pool"
  type: "Pooling"
  bottom: "inception_4a/output"
  top: "loss1/ave_pool"
  pooling_param {
    pool: AVE
    kernel_size: 5
    stride: 3
  }
}
layer {
  name: "loss1/conv"
  type: "Convolution"
  bottom: "loss1/ave_pool"
  top: "loss1/conv"
  param {
    lr_mult: 1
    decay_mult: 1
  }
  param {
    lr_mult: 2
    decay_mult: 0
  }
  convolution_param {
    num_output: 128
    kernel_size: 1
    weight_filler {
      type: "xavier"
    }
    bias_filler {
      type: "constant"
      value: 0.2
    }
  }
}
layer {
  name: "loss1/relu_conv"
  type: "ReLU"
  bottom: "loss1/conv"
  top: "loss1/conv"
}
layer {
  name: "loss1/fc_kaggle"
  type: "InnerProduct"
  bottom: "loss1/conv"
  top: "loss1/fc_kaggle"
  param {
    lr_mult: 1
    decay_mult: 1
  }
  param {
    lr_mult: 2
    decay_mult: 0
  }
  inner_product_param {
    num_output: 1024
    weight_filler {
      type: "xavier"
    }
    bias_filler {
      type: "constant"
      value: 0.2
    }
  }
}
layer {
  name: "loss1/relu_fc_kaggle"
  type: "ReLU"
  bottom: "loss1/fc_kaggle"
  top: "loss1/fc_kaggle"
}
layer {
  name: "loss1/drop_fc_kaggle"
  type: "Dropout"
  bottom: "loss1/fc_kaggle"
  top: "loss1/fc_kaggle"
  dropout_param {
    dropout_ratio: 0.7
  }
}
layer {
  name: "loss1/classifier_kaggle"
  type: "InnerProduct"
  bottom: "loss1/fc_kaggle"
  top: "loss1/classifier_kaggle"
  param {
    lr_mult: 1
    decay_mult: 1
  }
  param {
    lr_mult: 2
    decay_mult: 0
  }
  inner_product_param {
    num_output: 447
    weight_filler {
      type: "xavier"
    }
    bias_filler {
      type: "constant"
      value: 0
    }
  }
}
layer {
  name: "loss1/loss"
  type: "SoftmaxWithLoss"
  bottom: "loss1/classifier_kaggle"
  bottom: "label"
  top: "loss1/loss1"
  loss_weight: 0.3
}
layer {
  name: "loss1/top-1"
  type: "Accuracy"
  bottom: "loss1/classifier_kaggle"
  bottom: "label"
  top: "loss1/top-1"
  include {
    phase: TEST
  }
}
layer {
  name: "loss1/top-5"
  type: "Accuracy"
  bottom: "loss1/classifier_kaggle"
  bottom: "label"
  top: "loss1/top-5"
  include {
    phase: TEST
  }
  accuracy_param {
    top_k: 5
  }
}
layer {
  name: "inception_4b/1x1"
  type: "Convolution"
  bottom: "inception_4a/output"
  top: "inception_4b/1x1"
  param {
    lr_mult: 1
    decay_mult: 1
  }
  param {
    lr_mult: 2
    decay_mult: 0
  }
  convolution_param {
    num_output: 160
    kernel_size: 1
    weight_filler {
      type: "xavier"
    }
    bias_filler {
      type: "constant"
      value: 0.2
    }
  }
}
layer {
  name: "inception_4b/relu_1x1"
  type: "ReLU"
  bottom: "inception_4b/1x1"
  top: "inception_4b/1x1"
}
layer {
  name: "inception_4b/3x3_reduce"
  type: "Convolution"
  bottom: "inception_4a/output"
  top: "inception_4b/3x3_reduce"
  param {
    lr_mult: 1
    decay_mult: 1
  }
  param {
    lr_mult: 2
    decay_mult: 0
  }
  convolution_param {
    num_output: 112
    kernel_size: 1
    weight_filler {
      type: "xavier"
    }
    bias_filler {
      type: "constant"
      value: 0.2
    }
  }
}
layer {
  name: "inception_4b/relu_3x3_reduce"
  type: "ReLU"
  bottom: "inception_4b/3x3_reduce"
  top: "inception_4b/3x3_reduce"
}
layer {
  name: "inception_4b/3x3"
  type: "Convolution"
  bottom: "inception_4b/3x3_reduce"
  top: "inception_4b/3x3"
  param {
    lr_mult: 1
    decay_mult: 1
  }
  param {
    lr_mult: 2
    decay_mult: 0
  }
  convolution_param {
    num_output: 224
    pad: 1
    kernel_size: 3
    weight_filler {
      type: "xavier"
    }
    bias_filler {
      type: "constant"
      value: 0.2
    }
  }
}
layer {
  name: "inception_4b/relu_3x3"
  type: "ReLU"
  bottom: "inception_4b/3x3"
  top: "inception_4b/3x3"
}
layer {
  name: "inception_4b/5x5_reduce"
  type: "Convolution"
  bottom: "inception_4a/output"
  top: "inception_4b/5x5_reduce"
  param {
    lr_mult: 1
    decay_mult: 1
  }
  param {
    lr_mult: 2
    decay_mult: 0
  }
  convolution_param {
    num_output: 24
    kernel_size: 1
    weight_filler {
      type: "xavier"
    }
    bias_filler {
      type: "constant"
      value: 0.2
    }
  }
}
layer {
  name: "inception_4b/relu_5x5_reduce"
  type: "ReLU"
  bottom: "inception_4b/5x5_reduce"
  top: "inception_4b/5x5_reduce"
}
layer {
  name: "inception_4b/5x5"
  type: "Convolution"
  bottom: "inception_4b/5x5_reduce"
  top: "inception_4b/5x5"
  param {
    lr_mult: 1
    decay_mult: 1
  }
  param {
    lr_mult: 2
    decay_mult: 0
  }
  convolution_param {
    num_output: 64
    pad: 2
    kernel_size: 5
    weight_filler {
      type: "xavier"
    }
    bias_filler {
      type: "constant"
      value: 0.2
    }
  }
}
layer {
  name: "inception_4b/relu_5x5"
  type: "ReLU"
  bottom: "inception_4b/5x5"
  top: "inception_4b/5x5"
}
layer {
  name: "inception_4b/pool"
  type: "Pooling"
  bottom: "inception_4a/output"
  top: "inception_4b/pool"
  pooling_param {
    pool: MAX
    kernel_size: 3
    stride: 1
    pad: 1
  }
}
layer {
  name: "inception_4b/pool_proj"
  type: "Convolution"
  bottom: "inception_4b/pool"
  top: "inception_4b/pool_proj"
  param {
    lr_mult: 1
    decay_mult: 1
  }
  param {
    lr_mult: 2
    decay_mult: 0
  }
  convolution_param {
    num_output: 64
    kernel_size: 1
    weight_filler {
      type: "xavier"
    }
    bias_filler {
      type: "constant"
      value: 0.2
    }
  }
}
layer {
  name: "inception_4b/relu_pool_proj"
  type: "ReLU"
  bottom: "inception_4b/pool_proj"
  top: "inception_4b/pool_proj"
}
layer {
  name: "inception_4b/output"
  type: "Concat"
  bottom: "inception_4b/1x1"
  bottom: "inception_4b/3x3"
  bottom: "inception_4b/5x5"
  bottom: "inception_4b/pool_proj"
  top: "inception_4b/output"
}
layer {
  name: "inception_4c/1x1"
  type: "Convolution"
  bottom: "inception_4b/output"
  top: "inception_4c/1x1"
  param {
    lr_mult: 1
    decay_mult: 1
  }
  param {
    lr_mult: 2
    decay_mult: 0
  }
  convolution_param {
    num_output: 128
    kernel_size: 1
    weight_filler {
      type: "xavier"
    }
    bias_filler {
      type: "constant"
      value: 0.2
    }
  }
}
layer {
  name: "inception_4c/relu_1x1"
  type: "ReLU"
  bottom: "inception_4c/1x1"
  top: "inception_4c/1x1"
}
layer {
  name: "inception_4c/3x3_reduce"
  type: "Convolution"
  bottom: "inception_4b/output"
  top: "inception_4c/3x3_reduce"
  param {
    lr_mult: 1
    decay_mult: 1
  }
  param {
    lr_mult: 2
    decay_mult: 0
  }
  convolution_param {
    num_output: 128
    kernel_size: 1
    weight_filler {
      type: "xavier"
    }
    bias_filler {
      type: "constant"
      value: 0.2
    }
  }
}
layer {
  name: "inception_4c/relu_3x3_reduce"
  type: "ReLU"
  bottom: "inception_4c/3x3_reduce"
  top: "inception_4c/3x3_reduce"
}
layer {
  name: "inception_4c/3x3"
  type: "Convolution"
  bottom: "inception_4c/3x3_reduce"
  top: "inception_4c/3x3"
  param {
    lr_mult: 1
    decay_mult: 1
  }
  param {
    lr_mult: 2
    decay_mult: 0
  }
  convolution_param {
    num_output: 256
    pad: 1
    kernel_size: 3
    weight_filler {
      type: "xavier"
    }
    bias_filler {
      type: "constant"
      value: 0.2
    }
  }
}
layer {
  name: "inception_4c/relu_3x3"
  type: "ReLU"
  bottom: "inception_4c/3x3"
  top: "inception_4c/3x3"
}
layer {
  name: "inception_4c/5x5_reduce"
  type: "Convolution"
  bottom: "inception_4b/output"
  top: "inception_4c/5x5_reduce"
  param {
    lr_mult: 1
    decay_mult: 1
  }
  param {
    lr_mult: 2
    decay_mult: 0
  }
  convolution_param {
    num_output: 24
    kernel_size: 1
    weight_filler {
      type: "xavier"
    }
    bias_filler {
      type: "constant"
      value: 0.2
    }
  }
}
layer {
  name: "inception_4c/relu_5x5_reduce"
  type: "ReLU"
  bottom: "inception_4c/5x5_reduce"
  top: "inception_4c/5x5_reduce"
}
layer {
  name: "inception_4c/5x5"
  type: "Convolution"
  bottom: "inception_4c/5x5_reduce"
  top: "inception_4c/5x5"
  param {
    lr_mult: 1
    decay_mult: 1
  }
  param {
    lr_mult: 2
    decay_mult: 0
  }
  convolution_param {
    num_output: 64
    pad: 2
    kernel_size: 5
    weight_filler {
      type: "xavier"
    }
    bias_filler {
      type: "constant"
      value: 0.2
    }
  }
}
layer {
  name: "inception_4c/relu_5x5"
  type: "ReLU"
  bottom: "inception_4c/5x5"
  top: "inception_4c/5x5"
}
layer {
  name: "inception_4c/pool"
  type: "Pooling"
  bottom: "inception_4b/output"
  top: "inception_4c/pool"
  pooling_param {
    pool: MAX
    kernel_size: 3
    stride: 1
    pad: 1
  }
}
layer {
  name: "inception_4c/pool_proj"
  type: "Convolution"
  bottom: "inception_4c/pool"
  top: "inception_4c/pool_proj"
  param {
    lr_mult: 1
    decay_mult: 1
  }
  param {
    lr_mult: 2
    decay_mult: 0
  }
  convolution_param {
    num_output: 64
    kernel_size: 1
    weight_filler {
      type: "xavier"
    }
    bias_filler {
      type: "constant"
      value: 0.2
    }
  }
}
layer {
  name: "inception_4c/relu_pool_proj"
  type: "ReLU"
  bottom: "inception_4c/pool_proj"
  top: "inception_4c/pool_proj"
}
layer {
  name: "inception_4c/output"
  type: "Concat"
  bottom: "inception_4c/1x1"
  bottom: "inception_4c/3x3"
  bottom: "inception_4c/5x5"
  bottom: "inception_4c/pool_proj"
  top: "inception_4c/output"
}
layer {
  name: "inception_4d/1x1"
  type: "Convolution"
  bottom: "inception_4c/output"
  top: "inception_4d/1x1"
  param {
    lr_mult: 1
    decay_mult: 1
  }
  param {
    lr_mult: 2
    decay_mult: 0
  }
  convolution_param {
    num_output: 112
    kernel_size: 1
    weight_filler {
      type: "xavier"
    }
    bias_filler {
      type: "constant"
      value: 0.2
    }
  }
}
layer {
  name: "inception_4d/relu_1x1"
  type: "ReLU"
  bottom: "inception_4d/1x1"
  top: "inception_4d/1x1"
}
layer {
  name: "inception_4d/3x3_reduce"
  type: "Convolution"
  bottom: "inception_4c/output"
  top: "inception_4d/3x3_reduce"
  param {
    lr_mult: 1
    decay_mult: 1
  }
  param {
    lr_mult: 2
    decay_mult: 0
  }
  convolution_param {
    num_output: 144
    kernel_size: 1
    weight_filler {
      type: "xavier"
    }
    bias_filler {
      type: "constant"
      value: 0.2
    }
  }
}
layer {
  name: "inception_4d/relu_3x3_reduce"
  type: "ReLU"
  bottom: "inception_4d/3x3_reduce"
  top: "inception_4d/3x3_reduce"
}
layer {
  name: "inception_4d/3x3"
  type: "Convolution"
  bottom: "inception_4d/3x3_reduce"
  top: "inception_4d/3x3"
  param {
    lr_mult: 1
    decay_mult: 1
  }
  param {
    lr_mult: 2
    decay_mult: 0
  }
  convolution_param {
    num_output: 288
    pad: 1
    kernel_size: 3
    weight_filler {
      type: "xavier"
    }
    bias_filler {
      type: "constant"
      value: 0.2
    }
  }
}
layer {
  name: "inception_4d/relu_3x3"
  type: "ReLU"
  bottom: "inception_4d/3x3"
  top: "inception_4d/3x3"
}
layer {
  name: "inception_4d/5x5_reduce"
  type: "Convolution"
  bottom: "inception_4c/output"
  top: "inception_4d/5x5_reduce"
  param {
    lr_mult: 1
    decay_mult: 1
  }
  param {
    lr_mult: 2
    decay_mult: 0
  }
  convolution_param {
    num_output: 32
    kernel_size: 1
    weight_filler {
      type: "xavier"
    }
    bias_filler {
      type: "constant"
      value: 0.2
    }
  }
}
layer {
  name: "inception_4d/relu_5x5_reduce"
  type: "ReLU"
  bottom: "inception_4d/5x5_reduce"
  top: "inception_4d/5x5_reduce"
}
layer {
  name: "inception_4d/5x5"
  type: "Convolution"
  bottom: "inception_4d/5x5_reduce"
  top: "inception_4d/5x5"
  param {
    lr_mult: 1
    decay_mult: 1
  }
  param {
    lr_mult: 2
    decay_mult: 0
  }
  convolution_param {
    num_output: 64
    pad: 2
    kernel_size: 5
    weight_filler {
      type: "xavier"
    }
    bias_filler {
      type: "constant"
      value: 0.2
    }
  }
}
layer {
  name: "inception_4d/relu_5x5"
  type: "ReLU"
  bottom: "inception_4d/5x5"
  top: "inception_4d/5x5"
}
layer {
  name: "inception_4d/pool"
  type: "Pooling"
  bottom: "inception_4c/output"
  top: "inception_4d/pool"
  pooling_param {
    pool: MAX
    kernel_size: 3
    stride: 1
    pad: 1
  }
}
layer {
  name: "inception_4d/pool_proj"
  type: "Convolution"
  bottom: "inception_4d/pool"
  top: "inception_4d/pool_proj"
  param {
    lr_mult: 1
    decay_mult: 1
  }
  param {
    lr_mult: 2
    decay_mult: 0
  }
  convolution_param {
    num_output: 64
    kernel_size: 1
    weight_filler {
      type: "xavier"
    }
    bias_filler {
      type: "constant"
      value: 0.2
    }
  }
}
layer {
  name: "inception_4d/relu_pool_proj"
  type: "ReLU"
  bottom: "inception_4d/pool_proj"
…
I1220 11:11:06.847707 28373 net.cpp:338] inception_4c/1x1 -> inception_4c/1x1
I1220 11:11:06.847720 28373 net.cpp:113] Setting up inception_4c/1x1
I1220 11:11:06.848929 28373 net.cpp:120] Top shape: 50 128 14 14 (1254400)
I1220 11:11:06.848944 28373 layer_factory.hpp:74] Creating layer inception_4c/relu_1x1
I1220 11:11:06.848951 28373 net.cpp:84] Creating Layer inception_4c/relu_1x1
I1220 11:11:06.848958 28373 net.cpp:380] inception_4c/relu_1x1 <- inception_4c/1x1
I1220 11:11:06.848966 28373 net.cpp:327] inception_4c/relu_1x1 -> inception_4c/1x1 (in-place)
I1220 11:11:06.848974 28373 net.cpp:113] Setting up inception_4c/relu_1x1
I1220 11:11:06.849256 28373 net.cpp:120] Top shape: 50 128 14 14 (1254400)
I1220 11:11:06.849267 28373 layer_factory.hpp:74] Creating layer inception_4c/3x3_reduce
I1220 11:11:06.849277 28373 net.cpp:84] Creating Layer inception_4c/3x3_reduce
I1220 11:11:06.849282 28373 net.cpp:380] inception_4c/3x3_reduce <- inception_4b/output_inception_4b/output_0_split_1
I1220 11:11:06.849292 28373 net.cpp:338] inception_4c/3x3_reduce -> inception_4c/3x3_reduce
I1220 11:11:06.849303 28373 net.cpp:113] Setting up inception_4c/3x3_reduce
I1220 11:11:06.850518 28373 net.cpp:120] Top shape: 50 128 14 14 (1254400)
I1220 11:11:06.850533 28373 layer_factory.hpp:74] Creating layer inception_4c/relu_3x3_reduce
I1220 11:11:06.850540 28373 net.cpp:84] Creating Layer inception_4c/relu_3x3_reduce
I1220 11:11:06.850546 28373 net.cpp:380] inception_4c/relu_3x3_reduce <- inception_4c/3x3_reduce
I1220 11:11:06.850553 28373 net.cpp:327] inception_4c/relu_3x3_reduce -> inception_4c/3x3_reduce (in-place)
I1220 11:11:06.850560 28373 net.cpp:113] Setting up inception_4c/relu_3x3_reduce
I1220 11:11:06.850636 28373 net.cpp:120] Top shape: 50 128 14 14 (1254400)
I1220 11:11:06.850643 28373 layer_factory.hpp:74] Creating layer inception_4c/3x3
I1220 11:11:06.850652 28373 net.cpp:84] Creating Layer inception_4c/3x3
I1220 11:11:06.850657 28373 net.cpp:380] inception_4c/3x3 <- inception_4c/3x3_reduce
I1220 11:11:06.850664 28373 net.cpp:338] inception_4c/3x3 -> inception_4c/3x3
I1220 11:11:06.850672 28373 net.cpp:113] Setting up inception_4c/3x3
I1220 11:11:06.854581 28373 net.cpp:120] Top shape: 50 256 14 14 (2508800)
I1220 11:11:06.854611 28373 layer_factory.hpp:74] Creating layer inception_4c/relu_3x3
I1220 11:11:06.854620 28373 net.cpp:84] Creating Layer inception_4c/relu_3x3
I1220 11:11:06.854625 28373 net.cpp:380] inception_4c/relu_3x3 <- inception_4c/3x3
I1220 11:11:06.854632 28373 net.cpp:327] inception_4c/relu_3x3 -> inception_4c/3x3 (in-place)
I1220 11:11:06.854640 28373 net.cpp:113] Setting up inception_4c/relu_3x3
I1220 11:11:06.854714 28373 net.cpp:120] Top shape: 50 256 14 14 (2508800)
I1220 11:11:06.854722 28373 layer_factory.hpp:74] Creating layer inception_4c/5x5_reduce
I1220 11:11:06.854732 28373 net.cpp:84] Creating Layer inception_4c/5x5_reduce
I1220 11:11:06.854737 28373 net.cpp:380] inception_4c/5x5_reduce <- inception_4b/output_inception_4b/output_0_split_2
I1220 11:11:06.854745 28373 net.cpp:338] inception_4c/5x5_reduce -> inception_4c/5x5_reduce
I1220 11:11:06.854754 28373 net.cpp:113] Setting up inception_4c/5x5_reduce
I1220 11:11:06.855329 28373 net.cpp:120] Top shape: 50 24 14 14 (235200)
I1220 11:11:06.855343 28373 layer_factory.hpp:74] Creating layer inception_4c/relu_5x5_reduce
I1220 11:11:06.855352 28373 net.cpp:84] Creating Layer inception_4c/relu_5x5_reduce
I1220 11:11:06.855358 28373 net.cpp:380] inception_4c/relu_5x5_reduce <- inception_4c/5x5_reduce
I1220 11:11:06.855365 28373 net.cpp:327] inception_4c/relu_5x5_reduce -> inception_4c/5x5_reduce (in-place)
I1220 11:11:06.855373 28373 net.cpp:113] Setting up inception_4c/relu_5x5_reduce
I1220 11:11:06.855636 28373 net.cpp:120] Top shape: 50 24 14 14 (235200)
I1220 11:11:06.855648 28373 layer_factory.hpp:74] Creating layer inception_4c/5x5
I1220 11:11:06.855659 28373 net.cpp:84] Creating Layer inception_4c/5x5
I1220 11:11:06.855664 28373 net.cpp:380] inception_4c/5x5 <- inception_4c/5x5_reduce
I1220 11:11:06.855671 28373 net.cpp:338] inception_4c/5x5 -> inception_4c/5x5
I1220 11:11:06.855685 28373 net.cpp:113] Setting up inception_4c/5x5
I1220 11:11:06.856585 28373 net.cpp:120] Top shape: 50 64 14 14 (627200)
I1220 11:11:06.856600 28373 layer_factory.hpp:74] Creating layer inception_4c/relu_5x5
I1220 11:11:06.856607 28373 net.cpp:84] Creating Layer inception_4c/relu_5x5
I1220 11:11:06.856613 28373 net.cpp:380] inception_4c/relu_5x5 <- inception_4c/5x5
I1220 11:11:06.856622 28373 net.cpp:327] inception_4c/relu_5x5 -> inception_4c/5x5 (in-place)
I1220 11:11:06.856629 28373 net.cpp:113] Setting up inception_4c/relu_5x5
I1220 11:11:06.856706 28373 net.cpp:120] Top shape: 50 64 14 14 (627200)
I1220 11:11:06.856712 28373 layer_factory.hpp:74] Creating layer inception_4c/pool
I1220 11:11:06.856717 28373 layer_factory.cpp:56] CUDNN does not support padding or multiple tops. Using Caffe's own pooling layer.
I1220 11:11:06.856724 28373 net.cpp:84] Creating Layer inception_4c/pool
I1220 11:11:06.856729 28373 net.cpp:380] inception_4c/pool <- inception_4b/output_inception_4b/output_0_split_3
I1220 11:11:06.856736 28373 net.cpp:338] inception_4c/pool -> inception_4c/pool
I1220 11:11:06.856745 28373 net.cpp:113] Setting up inception_4c/pool
I1220 11:11:06.856752 28373 net.cpp:120] Top shape: 50 512 14 14 (5017600)
I1220 11:11:06.856757 28373 layer_factory.hpp:74] Creating layer inception_4c/pool_proj
I1220 11:11:06.856767 28373 net.cpp:84] Creating Layer inception_4c/pool_proj
I1220 11:11:06.856772 28373 net.cpp:380] inception_4c/pool_proj <- inception_4c/pool
I1220 11:11:06.856781 28373 net.cpp:338] inception_4c/pool_proj -> inception_4c/pool_proj
I1220 11:11:06.856788 28373 net.cpp:113] Setting up inception_4c/pool_proj
I1220 11:11:06.857616 28373 net.cpp:120] Top shape: 50 64 14 14 (627200)
I1220 11:11:06.857633 28373 layer_factory.hpp:74] Creating layer inception_4c/relu_pool_proj
I1220 11:11:06.857642 28373 net.cpp:84] Creating Layer inception_4c/relu_pool_proj
I1220 11:11:06.857648 28373 net.cpp:380] inception_4c/relu_pool_proj <- inception_4c/pool_proj
I1220 11:11:06.857656 28373 net.cpp:327] inception_4c/relu_pool_proj -> inception_4c/pool_proj (in-place)
I1220 11:11:06.857663 28373 net.cpp:113] Setting up inception_4c/relu_pool_proj
I1220 11:11:06.857738 28373 net.cpp:120] Top shape: 50 64 14 14 (627200)
I1220 11:11:06.857744 28373 layer_factory.hpp:74] Creating layer inception_4c/output
I1220 11:11:06.857753 28373 net.cpp:84] Creating Layer inception_4c/output
I1220 11:11:06.857758 28373 net.cpp:380] inception_4c/output <- inception_4c/1x1
I1220 11:11:06.857764 28373 net.cpp:380] inception_4c/output <- inception_4c/3x3
I1220 11:11:06.857769 28373 net.cpp:380] inception_4c/output <- inception_4c/5x5
I1220 11:11:06.857775 28373 net.cpp:380] inception_4c/output <- inception_4c/pool_proj
I1220 11:11:06.857781 28373 net.cpp:338] inception_4c/output -> inception_4c/output
I1220 11:11:06.857789 28373 net.cpp:113] Setting up inception_4c/output
I1220 11:11:06.857796 28373 net.cpp:120] Top shape: 50 512 14 14 (5017600)
I1220 11:11:06.857801 28373 layer_factory.hpp:74] Creating layer inception_4c/output_inception_4c/output_0_split
I1220 11:11:06.857807 28373 net.cpp:84] Creating Layer inception_4c/output_inception_4c/output_0_split
I1220 11:11:06.857812 28373 net.cpp:380] inception_4c/output_inception_4c/output_0_split <- inception_4c/output
I1220 11:11:06.857820 28373 net.cpp:338] inception_4c/output_inception_4c/output_0_split -> inception_4c/output_inception_4c/output_0_split_0
I1220 11:11:06.857827 28373 net.cpp:338] inception_4c/output_inception_4c/output_0_split -> inception_4c/output_inception_4c/output_0_split_1
I1220 11:11:06.857836 28373 net.cpp:338] inception_4c/output_inception_4c/output_0_split -> inception_4c/output_inception_4c/output_0_split_2
I1220 11:11:06.857842 28373 net.cpp:338] inception_4c/output_inception_4c/output_0_split -> inception_4c/output_inception_4c/output_0_split_3
I1220 11:11:06.857848 28373 net.cpp:113] Setting up inception_4c/output_inception_4c/output_0_split
I1220 11:11:06.857856 28373 net.cpp:120] Top shape: 50 512 14 14 (5017600)
I1220 11:11:06.857867 28373 net.cpp:120] Top shape: 50 512 14 14 (5017600)
I1220 11:11:06.857879 28373 net.cpp:120] Top shape: 50 512 14 14 (5017600)
I1220 11:11:06.857885 28373 net.cpp:120] Top shape: 50 512 14 14 (5017600)
I1220 11:11:06.857889 28373 layer_factory.hpp:74] Creating layer inception_4d/1x1
I1220 11:11:06.857899 28373 net.cpp:84] Creating Layer inception_4d/1x1
I1220 11:11:06.857904 28373 net.cpp:380] inception_4d/1x1 <- inception_4c/output_inception_4c/output_0_split_0
I1220 11:11:06.857913 28373 net.cpp:338] inception_4d/1x1 -> inception_4d/1x1
I1220 11:11:06.857921 28373 net.cpp:113] Setting up inception_4d/1x1
I1220 11:11:06.859031 28373 net.cpp:120] Top shape: 50 112 14 14 (1097600)
I1220 11:11:06.859047 28373 layer_factory.hpp:74] Creating layer inception_4d/relu_1x1
I1220 11:11:06.859056 28373 net.cpp:84] Creating Layer inception_4d/relu_1x1
I1220 11:11:06.859061 28373 net.cpp:380] inception_4d/relu_1x1 <- inception_4d/1x1
I1220 11:11:06.859068 28373 net.cpp:327] inception_4d/relu_1x1 -> inception_4d/1x1 (in-place)
I1220 11:11:06.859076 28373 net.cpp:113] Setting up inception_4d/relu_1x1
I1220 11:11:06.859148 28373 net.cpp:120] Top shape: 50 112 14 14 (1097600)
I1220 11:11:06.859154 28373 layer_factory.hpp:74] Creating layer inception_4d/3x3_reduce
I1220 11:11:06.859164 28373 net.cpp:84] Creating Layer inception_4d/3x3_reduce
I1220 11:11:06.859169 28373 net.cpp:380] inception_4d/3x3_reduce <- inception_4c/output_inception_4c/output_0_split_1
I1220 11:11:06.859179 28373 net.cpp:338] inception_4d/3x3_reduce -> inception_4d/3x3_reduce
I1220 11:11:06.859187 28373 net.cpp:113] Setting up inception_4d/3x3_reduce
I1220 11:11:06.860510 28373 net.cpp:120] Top shape: 50 144 14 14 (1411200)
I1220 11:11:06.860527 28373 layer_factory.hpp:74] Creating layer inception_4d/relu_3x3_reduce
I1220 11:11:06.860535 28373 net.cpp:84] Creating Layer inception_4d/relu_3x3_reduce
I1220 11:11:06.860548 28373 net.cpp:380] inception_4d/relu_3x3_reduce <- inception_4d/3x3_reduce
I1220 11:11:06.860554 28373 net.cpp:327] inception_4d/relu_3x3_reduce -> inception_4d/3x3_reduce (in-place)
I1220 11:11:06.860561 28373 net.cpp:113] Setting up inception_4d/relu_3x3_reduce
I1220 11:11:06.860960 28373 net.cpp:120] Top shape: 50 144 14 14 (1411200)
I1220 11:11:06.860971 28373 layer_factory.hpp:74] Creating layer inception_4d/3x3
I1220 11:11:06.860981 28373 net.cpp:84] Creating Layer inception_4d/3x3
I1220 11:11:06.860987 28373 net.cpp:380] inception_4d/3x3 <- inception_4d/3x3_reduce
I1220 11:11:06.860996 28373 net.cpp:338] inception_4d/3x3 -> inception_4d/3x3
I1220 11:11:06.861006 28373 net.cpp:113] Setting up inception_4d/3x3
I1220 11:11:06.865866 28373 net.cpp:120] Top shape: 50 288 14 14 (2822400)
I1220 11:11:06.865885 28373 layer_factory.hpp:74] Creating layer inception_4d/relu_3x3
I1220 11:11:06.865892 28373 net.cpp:84] Creating Layer inception_4d/relu_3x3
I1220 11:11:06.865898 28373 net.cpp:380] inception_4d/relu_3x3 <- inception_4d/3x3
I1220 11:11:06.865907 28373 net.cpp:327] inception_4d/relu_3x3 -> inception_4d/3x3 (in-place)
I1220 11:11:06.865916 28373 net.cpp:113] Setting up inception_4d/relu_3x3
I1220 11:11:06.865988 28373 net.cpp:120] Top shape: 50 288 14 14 (2822400)
I1220 11:11:06.865994 28373 layer_factory.hpp:74] Creating layer inception_4d/5x5_reduce
I1220 11:11:06.866005 28373 net.cpp:84] Creating Layer inception_4d/5x5_reduce
I1220 11:11:06.866011 28373 net.cpp:380] inception_4d/5x5_reduce <- inception_4c/output_inception_4c/output_0_split_2
I1220 11:11:06.866019 28373 net.cpp:338] inception_4d/5x5_reduce -> inception_4d/5x5_reduce
I1220 11:11:06.866027 28373 net.cpp:113] Setting up inception_4d/5x5_reduce
I1220 11:11:06.866703 28373 net.cpp:120] Top shape: 50 32 14 14 (313600)
I1220 11:11:06.866719 28373 layer_factory.hpp:74] Creating layer inception_4d/relu_5x5_reduce
I1220 11:11:06.866726 28373 net.cpp:84] Creating Layer inception_4d/relu_5x5_reduce
I1220 11:11:06.866732 28373 net.cpp:380] inception_4d/relu_5x5_reduce <- inception_4d/5x5_reduce
I1220 11:11:06.866739 28373 net.cpp:327] inception_4d/relu_5x5_reduce -> inception_4d/5x5_reduce (in-place)
I1220 11:11:06.866753 28373 net.cpp:113] Setting up inception_4d/relu_5x5_reduce
I1220 11:11:06.866838 28373 net.cpp:120] Top shape: 50 32 14 14 (313600)
I1220 11:11:06.866847 28373 layer_factory.hpp:74] Creating layer inception_4d/5x5
I1220 11:11:06.866855 28373 net.cpp:84] Creating Layer inception_4d/5x5
I1220 11:11:06.866861 28373 net.cpp:380] inception_4d/5x5 <- inception_4d/5x5_reduce
I1220 11:11:06.866874 28373 net.cpp:338] inception_4d/5x5 -> inception_4d/5x5
I1220 11:11:06.866883 28373 net.cpp:113] Setting up inception_4d/5x5
I1220 11:11:06.867929 28373 net.cpp:120] Top shape: 50 64 14 14 (627200)
I1220 11:11:06.867944 28373 layer_factory.hpp:74] Creating layer inception_4d/relu_5x5
I1220 11:11:06.867952 28373 net.cpp:84] Creating Layer inception_4d/relu_5x5
I1220 11:11:06.867957 28373 net.cpp:380] inception_4d/relu_5x5 <- inception_4d/5x5
I1220 11:11:06.867964 28373 net.cpp:327] inception_4d/relu_5x5 -> inception_4d/5x5 (in-place)
I1220 11:11:06.867972 28373 net.cpp:113] Setting up inception_4d/relu_5x5
I1220 11:11:06.868052 28373 net.cpp:120] Top shape: 50 64 14 14 (627200)
I1220 11:11:06.868059 28373 layer_factory.hpp:74] Creating layer inception_4d/pool
I1220 11:11:06.868065 28373 layer_factory.cpp:56] CUDNN does not support padding or multiple tops. Using Caffe's own pooling layer.
I1220 11:11:06.868072 28373 net.cpp:84] Creating Layer inception_4d/pool
I1220 11:11:06.868078 28373 net.cpp:380] inception_4d/pool <- inception_4c/output_inception_4c/output_0_split_3
I1220 11:11:06.868084 28373 net.cpp:338] inception_4d/pool -> inception_4d/pool
I1220 11:11:06.868093 28373 net.cpp:113] Setting up inception_4d/pool
I1220 11:11:06.868101 28373 net.cpp:120] Top shape: 50 512 14 14 (5017600)
I1220 11:11:06.868105 28373 layer_factory.hpp:74] Creating layer inception_4d/pool_proj
I1220 11:11:06.868115 28373 net.cpp:84] Creating Layer inception_4d/pool_proj
I1220 11:11:06.868120 28373 net.cpp:380] inception_4d/pool_proj <- inception_4d/pool
I1220 11:11:06.868129 28373 net.cpp:338] inception_4d/pool_proj -> inception_4d/pool_proj
I1220 11:11:06.868137 28373 net.cpp:113] Setting up inception_4d/pool_proj
I1220 11:11:06.868963 28373 net.cpp:120] Top shape: 50 64 14 14 (627200)
I1220 11:11:06.868978 28373 layer_factory.hpp:74] Creating layer inception_4d/relu_pool_proj
I1220 11:11:06.868985 28373 net.cpp:84] Creating Layer inception_4d/relu_pool_proj
I1220 11:11:06.868991 28373 net.cpp:380] inception_4d/relu_pool_proj <- inception_4d/pool_proj
I1220 11:11:06.869000 28373 net.cpp:327] inception_4d/relu_pool_proj -> inception_4d/pool_proj (in-place)
I1220 11:11:06.869009 28373 net.cpp:113] Setting up inception_4d/relu_pool_proj
I1220 11:11:06.869289 28373 net.cpp:120] Top shape: 50 64 14 14 (627200)
I1220 11:11:06.869304 28373 layer_factory.hpp:74] Creating layer inception_4d/output
I1220 11:11:06.869313 28373 net.cpp:84] Creating Layer inception_4d/output
I1220 11:11:06.869318 28373 net.cpp:380] inception_4d/output <- inception_4d/1x1
I1220 11:11:06.869324 28373 net.cpp:380] inception_4d/output <- inception_4d/3x3
I1220 11:11:06.869330 28373 net.cpp:380] inception_4d/output <- inception_4d/5x5
I1220 11:11:06.869335 28373 net.cpp:380] inception_4d/output <- inception_4d/pool_proj
I1220 11:11:06.869343 28373 net.cpp:338] inception_4d/output -> inception_4d/output
I1220 11:11:06.869352 28373 net.cpp:113] Setting up inception_4d/output
I1220 11:11:06.869360 28373 net.cpp:120] Top shape: 50 528 14 14 (5174400)
I1220 11:11:06.869365 28373 layer_factory.hpp:74] Creating layer inception_4d/output_inception_4d/output_0_split
I1220 11:11:06.869371 28373 net.cpp:84] Creating Layer inception_4d/output_inception_4d/output_0_split
I1220 11:11:06.869376 28373 net.cpp:380] inception_4d/output_inception_4d/output_0_split <- inception_4d/output
I1220 11:11:06.869382 28373 net.cpp:338] inception_4d/output_inception_4d/output_0_split -> inception_4d/output_inception_4d/output_0_split_0
I1220 11:11:06.869390 28373 net.cpp:338] inception_4d/output_inception_4d/output_0_split -> inception_4d/output_inception_4d/output_0_split_1
I1220 11:11:06.869403 28373 net.cpp:338] inception_4d/output_inception_4d/output_0_split -> inception_4d/output_inception_4d/output_0_split_2
I1220 11:11:06.869421 28373 net.cpp:338] inception_4d/output_inception_4d/output_0_split -> inception_4d/output_inception_4d/output_0_split_3
I1220 11:11:06.869427 28373 net.cpp:338] inception_4d/output_inception_4d/output_0_split -> inception_4d/output_inception_4d/output_0_split_4
I1220 11:11:06.869434 28373 net.cpp:113] Setting up inception_4d/output_inception_4d/output_0_split
I1220 11:11:06.869446 28373 net.cpp:120] Top shape: 50 528 14 14 (5174400)
I1220 11:11:06.869451 28373 net.cpp:120] Top shape: 50 528 14 14 (5174400)
I1220 11:11:06.869456 28373 net.cpp:120] Top shape: 50 528 14 14 (5174400)
I1220 11:11:06.869460 28373 net.cpp:120] Top shape: 50 528 14 14 (5174400)
I1220 11:11:06.869465 28373 net.cpp:120] Top shape: 50 528 14 14 (5174400)
I1220 11:11:06.869470 28373 layer_factory.hpp:74] Creating layer loss2/ave_pool
I1220 11:11:06.869480 28373 net.cpp:84] Creating Layer loss2/ave_pool
I1220 11:11:06.869485 28373 net.cpp:380] loss2/ave_pool <- inception_4d/output_inception_4d/output_0_split_0
I1220 11:11:06.869493 28373 net.cpp:338] loss2/ave_pool -> loss2/ave_pool
I1220 11:11:06.869499 28373 net.cpp:113] Setting up loss2/ave_pool
I1220 11:11:06.869575 28373 net.cpp:120] Top shape: 50 528 4 4 (422400)
I1220 11:11:06.869583 28373 layer_factory.hpp:74] Creating layer loss2/conv
I1220 11:11:06.869597 28373 net.cpp:84] Creating Layer loss2/conv
I1220 11:11:06.869602 28373 net.cpp:380] loss2/conv <- loss2/ave_pool
I1220 11:11:06.869609 28373 net.cpp:338] loss2/conv -> loss2/conv
I1220 11:11:06.869618 28373 net.cpp:113] Setting up loss2/conv
I1220 11:11:06.870851 28373 net.cpp:120] Top shape: 50 128 4 4 (102400)
I1220 11:11:06.870867 28373 layer_factory.hpp:74] Creating layer loss2/relu_conv
I1220 11:11:06.870875 28373 net.cpp:84] Creating Layer loss2/relu_conv
I1220 11:11:06.870882 28373 net.cpp:380] loss2/relu_conv <- loss2/conv
I1220 11:11:06.870888 28373 net.cpp:327] loss2/relu_conv -> loss2/conv (in-place)
I1220 11:11:06.870896 28373 net.cpp:113] Setting up loss2/relu_conv
I1220 11:11:06.870967 28373 net.cpp:120] Top shape: 50 128 4 4 (102400)
I1220 11:11:06.870975 28373 layer_factory.hpp:74] Creating layer loss2/fc_kaggle
I1220 11:11:06.870986 28373 net.cpp:84] Creating Layer loss2/fc_kaggle
I1220 11:11:06.870991 28373 net.cpp:380] loss2/fc_kaggle <- loss2/conv
I1220 11:11:06.871000 28373 net.cpp:338] loss2/fc_kaggle -> loss2/fc_kaggle
I1220 11:11:06.871008 28373 net.cpp:113] Setting up loss2/fc_kaggle
I1220 11:11:07.094213 28373 net.cpp:120] Top shape: 50 1024 (51200)
I1220 11:11:07.094266 28373 layer_factory.hpp:74] Creating layer loss2/relu_fc_kaggle
I1220 11:11:07.094281 28373 net.cpp:84] Creating Layer loss2/relu_fc_kaggle
I1220 11:11:07.094291 28373 net.cpp:380] loss2/relu_fc_kaggle <- loss2/fc_kaggle
I1220 11:11:07.094306 28373 net.cpp:327] loss2/relu_fc_kaggle -> loss2/fc_kaggle (in-place)
I1220 11:11:07.094318 28373 net.cpp:113] Setting up loss2/relu_fc_kaggle
I1220 11:11:07.094461 28373 net.cpp:120] Top shape: 50 1024 (51200)
I1220 11:11:07.094470 28373 layer_factory.hpp:74] Creating layer loss2/drop_fc_kaggle
I1220 11:11:07.094480 28373 net.cpp:84] Creating Layer loss2/drop_fc_kaggle
I1220 11:11:07.094485 28373 net.cpp:380] loss2/drop_fc_kaggle <- loss2/fc_kaggle
I1220 11:11:07.094492 28373 net.cpp:327] loss2/drop_fc_kaggle -> loss2/fc_kaggle (in-place)
I1220 11:11:07.094501 28373 net.cpp:113] Setting up loss2/drop_fc_kaggle
I1220 11:11:07.094508 28373 net.cpp:120] Top shape: 50 1024 (51200)
I1220 11:11:07.094514 28373 layer_factory.hpp:74] Creating layer loss2/classifier_kaggle
I1220 11:11:07.094527 28373 net.cpp:84] Creating Layer loss2/classifier_kaggle
I1220 11:11:07.094532 28373 net.cpp:380] loss2/classifier_kaggle <- loss2/fc_kaggle
I1220 11:11:07.094539 28373 net.cpp:338] loss2/classifier_kaggle -> loss2/classifier_kaggle
I1220 11:11:07.094550 28373 net.cpp:113] Setting up loss2/classifier_kaggle
I1220 11:11:07.099835 28373 net.cpp:120] Top shape: 50 447 (22350)
I1220 11:11:07.099864 28373 layer_factory.hpp:74] Creating layer loss2/classifier_kaggle_loss2/classifier_kaggle_0_split
I1220 11:11:07.099889 28373 net.cpp:84] Creating Layer loss2/classifier_kaggle_loss2/classifier_kaggle_0_split
I1220 11:11:07.099895 28373 net.cpp:380] loss2/classifier_kaggle_loss2/classifier_kaggle_0_split <- loss2/classifier_kaggle
I1220 11:11:07.099902 28373 net.cpp:338] loss2/classifier_kaggle_loss2/classifier_kaggle_0_split -> loss2/classifier_kaggle_loss2/classifier_kaggle_0_split_0
I1220 11:11:07.099913 28373 net.cpp:338] loss2/classifier_kaggle_loss2/classifier_kaggle_0_split -> loss2/classifier_kaggle_loss2/classifier_kaggle_0_split_1
I1220 11:11:07.099920 28373 net.cpp:338] loss2/classifier_kaggle_loss2/classifier_kaggle_0_split -> loss2/classifier_kaggle_loss2/classifier_kaggle_0_split_2
I1220 11:11:07.099927 28373 net.cpp:113] Setting up loss2/classifier_kaggle_loss2/classifier_kaggle_0_split
I1220 11:11:07.099936 28373 net.cpp:120] Top shape: 50 447 (22350)
I1220 11:11:07.099941 28373 net.cpp:120] Top shape: 50 447 (22350)
I1220 11:11:07.099946 28373 net.cpp:120] Top shape: 50 447 (22350)
I1220 11:11:07.099949 28373 layer_factory.hpp:74] Creating layer loss2/loss
I1220 11:11:07.099958 28373 net.cpp:84] Creating Layer loss2/loss
I1220 11:11:07.099963 28373 net.cpp:380] loss2/loss <- loss2/classifier_kaggle_loss2/classifier_kaggle_0_split_0
I1220 11:11:07.099970 28373 net.cpp:380] loss2/loss <- label_data_1_split_3
I1220 11:11:07.099977 28373 net.cpp:338] loss2/loss -> loss2/loss1
…
I1220 11:11:07.100565 28373 net.cpp:338] loss2/top-5 -> loss2/top-5
I1220 11:11:07.100574 28373 net.cpp:113] Setting up loss2/top-5
I1220 11:11:07.100579 28373 net.cpp:120] Top shape: (1)
I1220 11:11:07.100584 28373 layer_factory.hpp:74] Creating layer inception_4e/1x1
I1220 11:11:07.100594 28373 net.cpp:84] Creating Layer inception_4e/1x1
I1220 11:11:07.100600 28373 net.cpp:380] inception_4e/1x1 <- inception_4d/output_inception_4d/output_0_split_1
I1220 11:11:07.100608 28373 net.cpp:338] inception_4e/1x1 -> inception_4e/1x1
I1220 11:11:07.100617 28373 net.cpp:113] Setting up inception_4e/1x1
I1220 11:11:07.102648 28373 net.cpp:120] Top shape: 50 256 14 14 (2508800)
I1220 11:11:07.102665 28373 layer_factory.hpp:74] Creating layer inception_4e/relu_1x1
I1220 11:11:07.102674 28373 net.cpp:84] Creating Layer inception_4e/relu_1x1
I1220 11:11:07.102679 28373 net.cpp:380] inception_4e/relu_1x1 <- inception_4e/1x1
I1220 11:11:07.102686 28373 net.cpp:327] inception_4e/relu_1x1 -> inception_4e/1x1 (in-place)
I1220 11:11:07.102694 28373 net.cpp:113] Setting up inception_4e/relu_1x1
I1220 11:11:07.102773 28373 net.cpp:120] Top shape: 50 256 14 14 (2508800)
I1220 11:11:07.102780 28373 layer_factory.hpp:74] Creating layer inception_4e/3x3_reduce
I1220 11:11:07.102815 28373 net.cpp:84] Creating Layer inception_4e/3x3_reduce
I1220 11:11:07.102821 28373 net.cpp:380] inception_4e/3x3_reduce <- inception_4d/output_inception_4d/output_0_split_2
I1220 11:11:07.102836 28373 net.cpp:338] inception_4e/3x3_reduce -> inception_4e/3x3_reduce
I1220 11:11:07.102852 28373 net.cpp:113] Setting up inception_4e/3x3_reduce
I1220 11:11:07.104274 28373 net.cpp:120] Top shape: 50 160 14 14 (1568000)
I1220 11:11:07.104293 28373 layer_factory.hpp:74] Creating layer inception_4e/relu_3x3_reduce
I1220 11:11:07.104301 28373 net.cpp:84] Creating Layer inception_4e/relu_3x3_reduce
I1220 11:11:07.104307 28373 net.cpp:380] inception_4e/relu_3x3_reduce <- inception_4e/3x3_reduce
I1220 11:11:07.104315 28373 net.cpp:327] inception_4e/relu_3x3_reduce -> inception_4e/3x3_reduce (in-place)
I1220 11:11:07.104321 28373 net.cpp:113] Setting up inception_4e/relu_3x3_reduce
I1220 11:11:07.104396 28373 net.cpp:120] Top shape: 50 160 14 14 (1568000)
I1220 11:11:07.104403 28373 layer_factory.hpp:74] Creating layer inception_4e/3x3
I1220 11:11:07.104413 28373 net.cpp:84] Creating Layer inception_4e/3x3
I1220 11:11:07.104418 28373 net.cpp:380] inception_4e/3x3 <- inception_4e/3x3_reduce
I1220 11:11:07.104425 28373 net.cpp:338] inception_4e/3x3 -> inception_4e/3x3
I1220 11:11:07.104434 28373 net.cpp:113] Setting up inception_4e/3x3
I1220 11:11:07.110301 28373 net.cpp:120] Top shape: 50 320 14 14 (3136000)
I1220 11:11:07.110319 28373 layer_factory.hpp:74] Creating layer inception_4e/relu_3x3
I1220 11:11:07.110327 28373 net.cpp:84] Creating Layer inception_4e/relu_3x3
I1220 11:11:07.110332 28373 net.cpp:380] inception_4e/relu_3x3 <- inception_4e/3x3
I1220 11:11:07.110340 28373 net.cpp:327] inception_4e/relu_3x3 -> inception_4e/3x3 (in-place)
I1220 11:11:07.110348 28373 net.cpp:113] Setting up inception_4e/relu_3x3
I1220 11:11:07.110617 28373 net.cpp:120] Top shape: 50 320 14 14 (3136000)
I1220 11:11:07.110630 28373 layer_factory.hpp:74] Creating layer inception_4e/5x5_reduce
I1220 11:11:07.110640 28373 net.cpp:84] Creating Layer inception_4e/5x5_reduce
I1220 11:11:07.110644 28373 net.cpp:380] inception_4e/5x5_reduce <- inception_4d/output_inception_4d/output_0_split_3
I1220 11:11:07.110652 28373 net.cpp:338] inception_4e/5x5_reduce -> inception_4e/5x5_reduce
I1220 11:11:07.110661 28373 net.cpp:113] Setting up inception_4e/5x5_reduce
I1220 11:11:07.111280 28373 net.cpp:120] Top shape: 50 32 14 14 (313600)
I1220 11:11:07.111295 28373 layer_factory.hpp:74] Creating layer inception_4e/relu_5x5_reduce
I1220 11:11:07.111304 28373 net.cpp:84] Creating Layer inception_4e/relu_5x5_reduce
I1220 11:11:07.111309 28373 net.cpp:380] inception_4e/relu_5x5_reduce <- inception_4e/5x5_reduce
I1220 11:11:07.111317 28373 net.cpp:327] inception_4e/relu_5x5_reduce -> inception_4e/5x5_reduce (in-place)
I1220 11:11:07.111325 28373 net.cpp:113] Setting up inception_4e/relu_5x5_reduce
I1220 11:11:07.111402 28373 net.cpp:120] Top shape: 50 32 14 14 (313600)
I1220 11:11:07.111408 28373 layer_factory.hpp:74] Creating layer inception_4e/5x5
I1220 11:11:07.111418 28373 net.cpp:84] Creating Layer inception_4e/5x5
I1220 11:11:07.111423 28373 net.cpp:380] inception_4e/5x5 <- inception_4e/5x5_reduce
I1220 11:11:07.111433 28373 net.cpp:338] inception_4e/5x5 -> inception_4e/5x5
I1220 11:11:07.111440 28373 net.cpp:113] Setting up inception_4e/5x5
I1220 11:11:07.113072 28373 net.cpp:120] Top shape: 50 128 14 14 (1254400)
I1220 11:11:07.113090 28373 layer_factory.hpp:74] Creating layer inception_4e/relu_5x5
I1220 11:11:07.113096 28373 net.cpp:84] Creating Layer inception_4e/relu_5x5
I1220 11:11:07.113102 28373 net.cpp:380] inception_4e/relu_5x5 <- inception_4e/5x5
I1220 11:11:07.113109 28373 net.cpp:327] inception_4e/relu_5x5 -> inception_4e/5x5 (in-place)
I1220 11:11:07.113116 28373 net.cpp:113] Setting up inception_4e/relu_5x5
I1220 11:11:07.113189 28373 net.cpp:120] Top shape: 50 128 14 14 (1254400)
I1220 11:11:07.113196 28373 layer_factory.hpp:74] Creating layer inception_4e/pool
I1220 11:11:07.113203 28373 layer_factory.cpp:56] CUDNN does not support padding or multiple tops. Using Caffe's own pooling layer.
I1220 11:11:07.113209 28373 net.cpp:84] Creating Layer inception_4e/pool
I1220 11:11:07.113214 28373 net.cpp:380] inception_4e/pool <- inception_4d/output_inception_4d/output_0_split_4
I1220 11:11:07.113236 28373 net.cpp:338] inception_4e/pool -> inception_4e/pool
I1220 11:11:07.113245 28373 net.cpp:113] Setting up inception_4e/pool
I1220 11:11:07.113253 28373 net.cpp:120] Top shape: 50 528 14 14 (5174400)
I1220 11:11:07.113258 28373 layer_factory.hpp:74] Creating layer inception_4e/pool_proj
I1220 11:11:07.113270 28373 net.cpp:84] Creating Layer inception_4e/pool_proj
I1220 11:11:07.113275 28373 net.cpp:380] inception_4e/pool_proj <- inception_4e/pool
I1220 11:11:07.113282 28373 net.cpp:338] inception_4e/pool_proj -> inception_4e/pool_proj
I1220 11:11:07.113291 28373 net.cpp:113] Setting up inception_4e/pool_proj
I1220 11:11:07.114521 28373 net.cpp:120] Top shape: 50 128 14 14 (1254400)
I1220 11:11:07.114537 28373 layer_factory.hpp:74] Creating layer inception_4e/relu_pool_proj
I1220 11:11:07.114545 28373 net.cpp:84] Creating Layer inception_4e/relu_pool_proj
I1220 11:11:07.114552 28373 net.cpp:380] inception_4e/relu_pool_proj <- inception_4e/pool_proj
I1220 11:11:07.114558 28373 net.cpp:327] inception_4e/relu_pool_proj -> inception_4e/pool_proj (in-place)
I1220 11:11:07.114565 28373 net.cpp:113] Setting up inception_4e/relu_pool_proj
I1220 11:11:07.114637 28373 net.cpp:120] Top shape: 50 128 14 14 (1254400)
I1220 11:11:07.114644 28373 layer_factory.hpp:74] Creating layer inception_4e/output
I1220 11:11:07.114660 28373 net.cpp:84] Creating Layer inception_4e/output
I1220 11:11:07.114665 28373 net.cpp:380] inception_4e/output <- inception_4e/1x1
I1220 11:11:07.114670 28373 net.cpp:380] inception_4e/output <- inception_4e/3x3
I1220 11:11:07.114676 28373 net.cpp:380] inception_4e/output <- inception_4e/5x5
I1220 11:11:07.114682 28373 net.cpp:380] inception_4e/output <- inception_4e/pool_proj
I1220 11:11:07.114688 28373 net.cpp:338] inception_4e/output -> inception_4e/output
I1220 11:11:07.114696 28373 net.cpp:113] Setting up inception_4e/output
I1220 11:11:07.114704 28373 net.cpp:120] Top shape: 50 832 14 14 (8153600)
I1220 11:11:07.114708 28373 layer_factory.hpp:74] Creating layer pool4/3x3_s2
I1220 11:11:07.114717 28373 net.cpp:84] Creating Layer pool4/3x3_s2
I1220 11:11:07.114722 28373 net.cpp:380] pool4/3x3_s2 <- inception_4e/output
I1220 11:11:07.114729 28373 net.cpp:338] pool4/3x3_s2 -> pool4/3x3_s2
I1220 11:11:07.114737 28373 net.cpp:113] Setting up pool4/3x3_s2
I1220 11:11:07.115006 28373 net.cpp:120] Top shape: 50 832 7 7 (2038400)
I1220 11:11:07.115018 28373 layer_factory.hpp:74] Creating layer pool4/3x3_s2_pool4/3x3_s2_0_split
I1220 11:11:07.115026 28373 net.cpp:84] Creating Layer pool4/3x3_s2_pool4/3x3_s2_0_split
I1220 11:11:07.115031 28373 net.cpp:380] pool4/3x3_s2_pool4/3x3_s2_0_split <- pool4/3x3_s2
I1220 11:11:07.115039 28373 net.cpp:338] pool4/3x3_s2_pool4/3x3_s2_0_split -> pool4/3x3_s2_pool4/3x3_s2_0_split_0
I1220 11:11:07.115049 28373 net.cpp:338] pool4/3x3_s2_pool4/3x3_s2_0_split -> pool4/3x3_s2_pool4/3x3_s2_0_split_1
I1220 11:11:07.115057 28373 net.cpp:338] pool4/3x3_s2_pool4/3x3_s2_0_split -> pool4/3x3_s2_pool4/3x3_s2_0_split_2
I1220 11:11:07.115084 28373 net.cpp:338] pool4/3x3_s2_pool4/3x3_s2_0_split -> pool4/3x3_s2_pool4/3x3_s2_0_split_3
I1220 11:11:07.115092 28373 net.cpp:113] Setting up pool4/3x3_s2_pool4/3x3_s2_0_split
I1220 11:11:07.115099 28373 net.cpp:120] Top shape: 50 832 7 7 (2038400)
I1220 11:11:07.115104 28373 net.cpp:120] Top shape: 50 832 7 7 (2038400)
I1220 11:11:07.115113 28373 net.cpp:120] Top shape: 50 832 7 7 (2038400)
I1220 11:11:07.115118 28373 net.cpp:120] Top shape: 50 832 7 7 (2038400)
I1220 11:11:07.115123 28373 layer_factory.hpp:74] Creating layer inception_5a/1x1
I1220 11:11:07.115131 28373 net.cpp:84] Creating Layer inception_5a/1x1
I1220 11:11:07.115136 28373 net.cpp:380] inception_5a/1x1 <- pool4/3x3_s2_pool4/3x3_s2_0_split_0
I1220 11:11:07.115144 28373 net.cpp:338] inception_5a/1x1 -> inception_5a/1x1
I1220 11:11:07.115151 28373 net.cpp:113] Setting up inception_5a/1x1
I1220 11:11:07.118060 28373 net.cpp:120] Top shape: 50 256 7 7 (627200)
I1220 11:11:07.118077 28373 layer_factory.hpp:74] Creating layer inception_5a/relu_1x1
I1220 11:11:07.118098 28373 net.cpp:84] Creating Layer inception_5a/relu_1x1
I1220 11:11:07.118103 28373 net.cpp:380] inception_5a/relu_1x1 <- inception_5a/1x1
I1220 11:11:07.118113 28373 net.cpp:327] inception_5a/relu_1x1 -> inception_5a/1x1 (in-place)
I1220 11:11:07.118120 28373 net.cpp:113] Setting up inception_5a/relu_1x1
I1220 11:11:07.118192 28373 net.cpp:120] Top shape: 50 256 7 7 (627200)
I1220 11:11:07.118199 28373 layer_factory.hpp:74] Creating layer inception_5a/3x3_reduce
I1220 11:11:07.118209 28373 net.cpp:84] Creating Layer inception_5a/3x3_reduce
I1220 11:11:07.118216 28373 net.cpp:380] inception_5a/3x3_reduce <- pool4/3x3_s2_pool4/3x3_s2_0_split_1
I1220 11:11:07.118222 28373 net.cpp:338] inception_5a/3x3_reduce -> inception_5a/3x3_reduce
I1220 11:11:07.118230 28373 net.cpp:113] Setting up inception_5a/3x3_reduce
I1220 11:11:07.120213 28373 net.cpp:120] Top shape: 50 160 7 7 (392000)
I1220 11:11:07.120230 28373 layer_factory.hpp:74] Creating layer inception_5a/relu_3x3_reduce
I1220 11:11:07.120237 28373 net.cpp:84] Creating Layer inception_5a/relu_3x3_reduce
I1220 11:11:07.120244 28373 net.cpp:380] inception_5a/relu_3x3_reduce <- inception_5a/3x3_reduce
I1220 11:11:07.120254 28373 net.cpp:327] inception_5a/relu_3x3_reduce -> inception_5a/3x3_reduce (in-place)
I1220 11:11:07.120260 28373 net.cpp:113] Setting up inception_5a/relu_3x3_reduce
I1220 11:11:07.120332 28373 net.cpp:120] Top shape: 50 160 7 7 (392000)
I1220 11:11:07.120339 28373 layer_factory.hpp:74] Creating layer inception_5a/3x3
I1220 11:11:07.120349 28373 net.cpp:84] Creating Layer inception_5a/3x3
I1220 11:11:07.120354 28373 net.cpp:380] inception_5a/3x3 <- inception_5a/3x3_reduce
I1220 11:11:07.120363 28373 net.cpp:338] inception_5a/3x3 -> inception_5a/3x3
I1220 11:11:07.120371 28373 net.cpp:113] Setting up inception_5a/3x3
I1220 11:11:07.126139 28373 net.cpp:120] Top shape: 50 320 7 7 (784000)
I1220 11:11:07.126157 28373 layer_factory.hpp:74] Creating layer inception_5a/relu_3x3
I1220 11:11:07.126166 28373 net.cpp:84] Creating Layer inception_5a/relu_3x3
I1220 11:11:07.126173 28373 net.cpp:380] inception_5a/relu_3x3 <- inception_5a/3x3
I1220 11:11:07.126179 28373 net.cpp:327] inception_5a/relu_3x3 -> inception_5a/3x3 (in-place)
I1220 11:11:07.126186 28373 net.cpp:113] Setting up inception_5a/relu_3x3
I1220 11:11:07.126258 28373 net.cpp:120] Top shape: 50 320 7 7 (784000)
I1220 11:11:07.126266 28373 layer_factory.hpp:74] Creating layer inception_5a/5x5_reduce
I1220 11:11:07.126276 28373 net.cpp:84] Creating Layer inception_5a/5x5_reduce
I1220 11:11:07.126281 28373 net.cpp:380] inception_5a/5x5_reduce <- pool4/3x3_s2_pool4/3x3_s2_0_split_2
I1220 11:11:07.126289 28373 net.cpp:338] inception_5a/5x5_reduce -> inception_5a/5x5_reduce
I1220 11:11:07.126297 28373 net.cpp:113] Setting up inception_5a/5x5_reduce
I1220 11:11:07.127048 28373 net.cpp:120] Top shape: 50 32 7 7 (78400)
I1220 11:11:07.127064 28373 layer_factory.hpp:74] Creating layer inception_5a/relu_5x5_reduce
I1220 11:11:07.127071 28373 net.cpp:84] Creating Layer inception_5a/relu_5x5_reduce
I1220 11:11:07.127077 28373 net.cpp:380] inception_5a/relu_5x5_reduce <- inception_5a/5x5_reduce
I1220 11:11:07.127086 28373 net.cpp:327] inception_5a/relu_5x5_reduce -> inception_5a/5x5_reduce (in-place)
I1220 11:11:07.127094 28373 net.cpp:113] Setting up inception_5a/relu_5x5_reduce
I1220 11:11:07.127363 28373 net.cpp:120] Top shape: 50 32 7 7 (78400)
I1220 11:11:07.127374 28373 layer_factory.hpp:74] Creating layer inception_5a/5x5
I1220 11:11:07.127387 28373 net.cpp:84] Creating Layer inception_5a/5x5
I1220 11:11:07.127391 28373 net.cpp:380] inception_5a/5x5 <- inception_5a/5x5_reduce
I1220 11:11:07.127400 28373 net.cpp:338] inception_5a/5x5 -> inception_5a/5x5
I1220 11:11:07.127409 28373 net.cpp:113] Setting up inception_5a/5x5
I1220 11:11:07.129024 28373 net.cpp:120] Top shape: 50 128 7 7 (313600)
I1220 11:11:07.129040 28373 layer_factory.hpp:74] Creating layer inception_5a/relu_5x5
I1220 11:11:07.129048 28373 net.cpp:84] Creating Layer inception_5a/relu_5x5
I1220 11:11:07.129076 28373 net.cpp:380] inception_5a/relu_5x5 <- inception_5a/5x5
I1220 11:11:07.129092 28373 net.cpp:327] inception_5a/relu_5x5 -> inception_5a/5x5 (in-place)
I1220 11:11:07.129101 28373 net.cpp:113] Setting up inception_5a/relu_5x5
I1220 11:11:07.129180 28373 net.cpp:120] Top shape: 50 128 7 7 (313600)
I1220 11:11:07.129187 28373 layer_factory.hpp:74] Creating layer inception_5a/pool
I1220 11:11:07.129194 28373 layer_factory.cpp:56] CUDNN does not support padding or multiple tops. Using Caffe's own pooling layer.
I1220 11:11:07.129199 28373 net.cpp:84] Creating Layer inception_5a/pool
I1220 11:11:07.129204 28373 net.cpp:380] inception_5a/pool <- pool4/3x3_s2_pool4/3x3_s2_0_split_3
I1220 11:11:07.129214 28373 net.cpp:338] inception_5a/pool -> inception_5a/pool
I1220 11:11:07.129222 28373 net.cpp:113] Setting up inception_5a/pool
I1220 11:11:07.129230 28373 net.cpp:120] Top shape: 50 832 7 7 (2038400)
I1220 11:11:07.129235 28373 layer_factory.hpp:74] Creating layer inception_5a/pool_proj
I1220 11:11:07.129246 28373 net.cpp:84] Creating Layer inception_5a/pool_proj
I1220 11:11:07.129251 28373 net.cpp:380] inception_5a/pool_proj <- inception_5a/pool
I1220 11:11:07.129258 28373 net.cpp:338] inception_5a/pool_proj -> inception_5a/pool_proj
I1220 11:11:07.129266 28373 net.cpp:113] Setting up inception_5a/pool_proj
I1220 11:11:07.130944 28373 net.cpp:120] Top shape: 50 128 7 7 (313600)
I1220 11:11:07.130959 28373 layer_factory.hpp:74] Creating layer inception_5a/relu_pool_proj
I1220 11:11:07.130970 28373 net.cpp:84] Creating Layer inception_5a/relu_pool_proj
I1220 11:11:07.130975 28373 net.cpp:380] inception_5a/relu_pool_proj <- inception_5a/pool_proj
I1220 11:11:07.130982 28373 net.cpp:327] inception_5a/relu_pool_proj -> inception_5a/pool_proj (in-place)
I1220 11:11:07.130990 28373 net.cpp:113] Setting up inception_5a/relu_pool_proj
I1220 11:11:07.131062 28373 net.cpp:120] Top shape: 50 128 7 7 (313600)
I1220 11:11:07.131067 28373 layer_factory.hpp:74] Creating layer inception_5a/output
I1220 11:11:07.131077 28373 net.cpp:84] Creating Layer inception_5a/output
I1220 11:11:07.131081 28373 net.cpp:380] inception_5a/output <- inception_5a/1x1
I1220 11:11:07.131088 28373 net.cpp:380] inception_5a/output <- inception_5a/3x3
I1220 11:11:07.131093 28373 net.cpp:380] inception_5a/output <- inception_5a/5x5
I1220 11:11:07.131098 28373 net.cpp:380] inception_5a/output <- inception_5a/pool_proj
I1220 11:11:07.131105 28373 net.cpp:338] inception_5a/output -> inception_5a/output
I1220 11:11:07.131113 28373 net.cpp:113] Setting up inception_5a/output
I1220 11:11:07.131120 28373 net.cpp:120] Top shape: 50 832 7 7 (2038400)
I1220 11:11:07.131124 28373 layer_factory.hpp:74] Creating layer inception_5a/output_inception_5a/output_0_split
I1220 11:11:07.131134 28373 net.cpp:84] Creating Layer inception_5a/output_inception_5a/output_0_split
I1220 11:11:07.131139 28373 net.cpp:380] inception_5a/output_inception_5a/output_0_split <- inception_5a/output
I1220 11:11:07.131145 28373 net.cpp:338] inception_5a/output_inception_5a/output_0_split -> inception_5a/output_inception_5a/output_0_split_0
I1220 11:11:07.131152 28373 net.cpp:338] inception_5a/output_inception_5a/output_0_split -> inception_5a/output_inception_5a/output_0_split_1
I1220 11:11:07.131160 28373 net.cpp:338] inception_5a/output_inception_5a/output_0_split -> inception_5a/output_inception_5a/output_0_split_2
I1220 11:11:07.131166 28373 net.cpp:338] inception_5a/output_inception_5a/output_0_split -> inception_5a/output_inception_5a/output_0_split_3
I1220 11:11:07.131172 28373 net.cpp:113] Setting up inception_5a/output_inception_5a/output_0_split
I1220 11:11:07.131180 28373 net.cpp:120] Top shape: 50 832 7 7 (2038400)
I1220 11:11:07.131184 28373 net.cpp:120] Top shape: 50 832 7 7 (2038400)
I1220 11:11:07.131191 28373 net.cpp:120] Top shape: 50 832 7 7 (2038400)
I1220 11:11:07.131196 28373 net.cpp:120] Top shape: 50 832 7 7 (2038400)
I1220 11:11:07.131199 28373 layer_factory.hpp:74] Creating layer inception_5b/1x1
I1220 11:11:07.131211 28373 net.cpp:84] Creating Layer inception_5b/1x1
I1220 11:11:07.131224 28373 net.cpp:380] inception_5b/1x1 <- inception_5a/output_inception_5a/output_0_split_0
I1220 11:11:07.131242 28373 net.cpp:338] inception_5b/1x1 -> inception_5b/1x1
I1220 11:11:07.131250 28373 net.cpp:113] Setting up inception_5b/1x1
I1220 11:11:07.135401 28373 net.cpp:120] Top shape: 50 384 7 7 (940800)
I1220 11:11:07.135417 28373 layer_factory.hpp:74] Creating layer inception_5b/relu_1x1
I1220 11:11:07.135426 28373 net.cpp:84] Creating Layer inception_5b/relu_1x1
I1220 11:11:07.135432 28373 net.cpp:380] inception_5b/relu_1x1 <- inception_5b/1x1
I1220 11:11:07.135442 28373 net.cpp:327] inception_5b/relu_1x1 -> inception_5b/1x1 (in-place)
I1220 11:11:07.135449 28373 net.cpp:113] Setting up inception_5b/relu_1x1
I1220 11:11:07.135524 28373 net.cpp:120] Top shape: 50 384 7 7 (940800)
I1220 11:11:07.135529 28373 layer_factory.hpp:74] Creating layer inception_5b/3x3_reduce
I1220 11:11:07.135540 28373 net.cpp:84] Creating Layer inception_5b/3x3_reduce
I1220 11:11:07.135545 28373 net.cpp:380] inception_5b/3x3_reduce <- inception_5a/output_inception_5a/output_0_split_1
I1220 11:11:07.135555 28373 net.cpp:338] inception_5b/3x3_reduce -> inception_5b/3x3_reduce
I1220 11:11:07.135563 28373 net.cpp:113] Setting up inception_5b/3x3_reduce
I1220 11:11:07.137863 28373 net.cpp:120] Top shape: 50 192 7 7 (470400)
I1220 11:11:07.137881 28373 layer_factory.hpp:74] Creating layer inception_5b/relu_3x3_reduce
I1220 11:11:07.137888 28373 net.cpp:84] Creating Layer inception_5b/relu_3x3_reduce
I1220 11:11:07.137894 28373 net.cpp:380] inception_5b/relu_3x3_reduce <- inception_5b/3x3_reduce
I1220 11:11:07.137903 28373 net.cpp:327] inception_5b/relu_3x3_reduce -> inception_5b/3x3_reduce (in-place)
I1220 11:11:07.137910 28373 net.cpp:113] Setting up inception_5b/relu_3x3_reduce
I1220 11:11:07.138183 28373 net.cpp:120] Top shape: 50 192 7 7 (470400)
I1220 11:11:07.138195 28373 layer_factory.hpp:74] Creating layer inception_5b/3x3
I1220 11:11:07.138206 28373 net.cpp:84] Creating Layer inception_5b/3x3
I1220 11:11:07.138211 28373 net.cpp:380] inception_5b/3x3 <- inception_5b/3x3_reduce
I1220 11:11:07.138219 28373 net.cpp:338] inception_5b/3x3 -> inception_5b/3x3
I1220 11:11:07.138227 28373 net.cpp:113] Setting up inception_5b/3x3
I1220 11:11:07.146350 28373 net.cpp:120] Top shape: 50 384 7 7 (940800)
I1220 11:11:07.146368 28373 layer_factory.hpp:74] Creating layer inception_5b/relu_3x3
I1220 11:11:07.146378 28373 net.cpp:84] Creating Layer inception_5b/relu_3x3
I1220 11:11:07.146384 28373 net.cpp:380] inception_5b/relu_3x3 <- inception_5b/3x3
I1220 11:11:07.146391 28373 net.cpp:327] inception_5b/relu_3x3 -> inception_5b/3x3 (in-place)
I1220 11:11:07.146399 28373 net.cpp:113] Setting up inception_5b/relu_3x3
I1220 11:11:07.146472 28373 net.cpp:120] Top shape: 50 384 7 7 (940800)
I1220 11:11:07.146478 28373 layer_factory.hpp:74] Creating layer inception_5b/5x5_reduce
I1220 11:11:07.146489 28373 net.cpp:84] Creating Layer inception_5b/5x5_reduce
I1220 11:11:07.146495 28373 net.cpp:380] inception_5b/5x5_reduce <- inception_5a/output_inception_5a/output_0_split_2
I1220 11:11:07.146502 28373 net.cpp:338] inception_5b/5x5_reduce -> inception_5b/5x5_reduce
I1220 11:11:07.146510 28373 net.cpp:113] Setting up inception_5b/5x5_reduce
I1220 11:11:07.147423 28373 net.cpp:120] Top shape: 50 48 7 7 (117600)
I1220 11:11:07.147439 28373 layer_factory.hpp:74] Creating layer inception_5b/relu_5x5_reduce
I1220 11:11:07.147447 28373 net.cpp:84] Creating Layer inception_5b/relu_5x5_reduce
I1220 11:11:07.147454 28373 net.cpp:380] inception_5b/relu_5x5_reduce <- inception_5b/5x5_reduce
I1220 11:11:07.147462 28373 net.cpp:327] inception_5b/relu_5x5_reduce -> inception_5b/5x5_reduce (in-place)
I1220 11:11:07.147470 28373 net.cpp:113] Setting up inception_5b/relu_5x5_reduce
I1220 11:11:07.147543 28373 net.cpp:120] Top shape: 50 48 7 7 (117600)
I1220 11:11:07.147550 28373 layer_factory.hpp:74] Creating layer inception_5b/5x5
I1220 11:11:07.147560 28373 net.cpp:84] Creating Layer inception_5b/5x5
I1220 11:11:07.147572 28373 net.cpp:380] inception_5b/5x5 <- inception_5b/5x5_reduce
I1220 11:11:07.147589 28373 net.cpp:338] inception_5b/5x5 -> inception_5b/5x5
I1220 11:11:07.147598 28373 net.cpp:113] Setting up inception_5b/5x5
I1220 11:11:07.149821 28373 net.cpp:120] Top shape: 50 128 7 7 (313600)
I1220 11:11:07.149838 28373 layer_factory.hpp:74] Creating layer inception_5b/relu_5x5
I1220 11:11:07.149847 28373 net.cpp:84] Creating Layer inception_5b/relu_5x5
I1220 11:11:07.149852 28373 net.cpp:380] inception_5b/relu_5x5 <- inception_5b/5x5
I1220 11:11:07.149860 28373 net.cpp:327] inception_5b/relu_5x5 -> inception_5b/5x5 (in-place)
I1220 11:11:07.149868 28373 net.cpp:113] Setting up inception_5b/relu_5x5
I1220 11:11:07.150140 28373 net.cpp:120] Top shape: 50 128 7 7 (313600)
I1220 11:11:07.150152 28373 layer_factory.hpp:74] Creating layer inception_5b/pool
I1220 11:11:07.150159 28373 layer_factory.cpp:56] CUDNN does not support padding or multiple tops. Using Caffe's own pooling layer.
I1220 11:11:07.150166 28373 net.cpp:84] Creating Layer inception_5b/pool
I1220 11:11:07.150171 28373 net.cpp:380] inception_5b/pool <- inception_5a/output_inception_5a/output_0_split_3
I1220 11:11:07.150180 28373 net.cpp:338] inception_5b/pool -> inception_5b/pool
I1220 11:11:07.150188 28373 net.cpp:113] Setting up inception_5b/pool
I1220 11:11:07.150197 28373 net.cpp:120] Top shape: 50 832 7 7 (2038400)
I1220 11:11:07.150202 28373 layer_factory.hpp:74] Creating layer inception_5b/pool_proj
I1220 11:11:07.150210 28373 net.cpp:84] Creating Layer inception_5b/pool_proj
I1220 11:11:07.150215 28373 net.cpp:380] inception_5b/pool_proj <- inception_5b/pool
I1220 11:11:07.150223 28373 net.cpp:338] inception_5b/pool_proj -> inception_5b/pool_proj
I1220 11:11:07.150231 28373 net.cpp:113] Setting up inception_5b/pool_proj
I1220 11:11:07.151906 28373 net.cpp:120] Top shape: 50 128 7 7 (313600)
I1220 11:11:07.151923 28373 layer_factory.hpp:74] Creating layer inception_5b/relu_pool_proj
I1220 11:11:07.151932 28373 net.cpp:84] Creating Layer inception_5b/relu_pool_proj
I1220 11:11:07.151937 28373 net.cpp:380] inception_5b/relu_pool_proj <- inception_5b/pool_proj
I1220 11:11:07.151943 28373 net.cpp:327] inception_5b/relu_pool_proj -> inception_5b/pool_proj (in-place)
I1220 11:11:07.151952 28373 net.cpp:113] Setting up inception_5b/relu_pool_proj
I1220 11:11:07.152024 28373 net.cpp:120] Top shape: 50 128 7 7 (313600)
I1220 11:11:07.152031 28373 layer_factory.hpp:74] Creating layer inception_5b/output
I1220 11:11:07.152039 28373 net.cpp:84] Creating Layer inception_5b/output
I1220 11:11:07.152043 28373 net.cpp:380] inception_5b/output <- inception_5b/1x1
I1220 11:11:07.152050 28373 net.cpp:380] inception_5b/output <- inception_5b/3x3
I1220 11:11:07.152055 28373 net.cpp:380] inception_5b/output <- inception_5b/5x5
I1220 11:11:07.152061 28373 net.cpp:380] inception_5b/output <- inception_5b/pool_proj
I1220 11:11:07.152067 28373 net.cpp:338] inception_5b/output -> inception_5b/output
I1220 11:11:07.152075 28373 net.cpp:113] Setting up inception_5b/output
I1220 11:11:07.152082 28373 net.cpp:120] Top shape: 50 1024 7 7 (2508800)
I1220 11:11:07.152087 28373 layer_factory.hpp:74] Creating layer pool5/7x7_s1_kaggle
I1220 11:11:07.152094 28373 net.cpp:84] Creating Layer pool5/7x7_s1_kaggle
I1220 11:11:07.152099 28373 net.cpp:380] pool5/7x7_s1_kaggle <- inception_5b/output
I1220 11:11:07.152108 28373 net.cpp:338] pool5/7x7_s1_kaggle -> pool5/7x7_s1_kaggle
I1220 11:11:07.152115 28373 net.cpp:113] Setting up pool5/7x7_s1_kaggle
I1220 11:11:07.152190 28373 net.cpp:120] Top shape: 50 1024 1 1 (51200)
I1220 11:11:07.152197 28373 layer_factory.hpp:74] Creating layer pool5/drop_7x7_s1_kaggle
I1220 11:11:07.152205 28373 net.cpp:84] Creating Layer pool5/drop_7x7_s1_kaggle
I1220 11:11:07.152210 28373 net.cpp:380] pool5/drop_7x7_s1_kaggle <- pool5/7x7_s1_kaggle
I1220 11:11:07.152217 28373 net.cpp:327] pool5/drop_7x7_s1_kaggle -> pool5/7x7_s1_kaggle (in-place)
I1220 11:11:07.152225 28373 net.cpp:113] Setting up pool5/drop_7x7_s1_kaggle
I1220 11:11:07.152232 28373 net.cpp:120] Top shape: 50 1024 1 1 (51200)
I1220 11:11:07.152242 28373 layer_factory.hpp:74] Creating layer loss3/classifier_kaggle
I1220 11:11:07.152262 28373 net.cpp:84] Creating Layer loss3/classifier_kaggle
I1220 11:11:07.152267 28373 net.cpp:380] loss3/classifier_kaggle <- pool5/7x7_s1_kaggle
I1220 11:11:07.152276 28373 net.cpp:338] loss3/classifier_kaggle -> loss3/classifier_kaggle
I1220 11:11:07.152284 28373 net.cpp:113] Setting up loss3/classifier_kaggle
I1220 11:11:07.157593 28373 net.cpp:120] Top shape: 50 447 (22350)
I1220 11:11:07.157605 28373 layer_factory.hpp:74] Creating layer loss3/classifier_kaggle_loss3/classifier_kaggle_0_split
I1220 11:11:07.157613 28373 net.cpp:84] Creating Layer loss3/classifier_kaggle_loss3/classifier_kaggle_0_split
I1220 11:11:07.157618 28373 net.cpp:380] loss3/classifier_kaggle_loss3/classifier_kaggle_0_split <- loss3/classifier_kaggle
I1220 11:11:07.157627 28373 net.cpp:338] loss3/classifier_kaggle_loss3/classifier_kaggle_0_split -> loss3/classifier_kaggle_loss3/classifier_kaggle_0_split_0
I1220 11:11:07.157635 28373 net.cpp:338] loss3/classifier_kaggle_loss3/classifier_kaggle_0_split -> loss3/classifier_kaggle_loss3/classifier_kaggle_0_split_1
I1220 11:11:07.157642 28373 net.cpp:338] loss3/classifier_kaggle_loss3/classifier_kaggle_0_split -> loss3/classifier_kaggle_loss3/classifier_kaggle_0_split_2
I1220 11:11:07.157649 28373 net.cpp:113] Setting up loss3/classifier_kaggle_loss3/classifier_kaggle_0_split
I1220 11:11:07.157656 28373 net.cpp:120] Top shape: 50 447 (22350)
I1220 11:11:07.157661 28373 net.cpp:120] Top shape: 50 447 (22350)
I1220 11:11:07.157666 28373 net.cpp:120] Top shape: 50 447 (22350)
I1220 11:11:07.157670 28373 layer_factory.hpp:74] Creating layer loss3/loss3
I1220 11:11:07.157677 28373 net.cpp:84] Creating Layer loss3/loss3
I1220 11:11:07.157682 28373 net.cpp:380] loss3/loss3 <- loss3/classifier_kaggle_loss3/classifier_kaggle_0_split_0
I1220 11:11:07.157688 28373 net.cpp:380] loss3/loss3 <- label_data_1_split_6
I1220 11:11:07.157697 28373 net.cpp:338] loss3/loss3 -> loss3/loss3
…
