…
I1215 13:10:47.949904 31739 net.cpp:257] The NetState phase (0) differed from the phase (1) specified by a rule in layer loss3/top-5
I1215 13:10:47.951328 31739 net.cpp:42] Initializing net from parameters: 
name: "GoogleNet"
state {
  phase: TRAIN
}
layer {
  name: "data"
  type: "Data"
  top: "data"
  top: "label"
  include {
    phase: TRAIN
  }
  transform_param {
    mirror: true
    crop_size: 224
    mean_value: 104
    mean_value: 117
    mean_value: 123
  }
  data_param {
    source: "/home/coldmanck/kaggle/kaggle2_train_lmdb"
    batch_size: 128
    backend: LMDB
  }
}
layer {
  name: "conv1/7x7_s2"
  type: "Convolution"
  bottom: "data"
  top: "conv1/7x7_s2"
  param {
    lr_mult: 1
    decay_mult: 1
  }
  param {
    lr_mult: 2
    decay_mult: 0
  }
  convolution_param {
    num_output: 64
    pad: 3
    kernel_size: 7
    stride: 2
    weight_filler {
      type: "xavier"
      std: 0.1
    }
    bias_filler {
      type: "constant"
      value: 0.2
    }
  }
}
layer {
  name: "conv1/relu_7x7"
  type: "ReLU"
  bottom: "conv1/7x7_s2"
  top: "conv1/7x7_s2"
}
layer {
  name: "pool1/3x3_s2"
  type: "Pooling"
  bottom: "conv1/7x7_s2"
  top: "pool1/3x3_s2"
  pooling_param {
    pool: MAX
    kernel_size: 3
    stride: 2
  }
}
layer {
  name: "pool1/norm1"
  type: "LRN"
  bottom: "pool1/3x3_s2"
  top: "pool1/norm1"
  lrn_param {
    local_size: 5
    alpha: 0.0001
    beta: 0.75
  }
}
layer {
  name: "conv2/3x3_reduce"
  type: "Convolution"
  bottom: "pool1/norm1"
  top: "conv2/3x3_reduce"
  param {
    lr_mult: 1
    decay_mult: 1
  }
  param {
    lr_mult: 2
    decay_mult: 0
  }
  convolution_param {
    num_output: 64
    kernel_size: 1
    weight_filler {
      type: "xavier"
      std: 0.1
    }
    bias_filler {
      type: "constant"
      value: 0.2
    }
  }
}
layer {
  name: "conv2/relu_3x3_reduce"
  type: "ReLU"
  bottom: "conv2/3x3_reduce"
  top: "conv2/3x3_reduce"
}
layer {
  name: "conv2/3x3"
  type: "Convolution"
  bottom: "conv2/3x3_reduce"
  top: "conv2/3x3"
  param {
    lr_mult: 1
    decay_mult: 1
  }
  param {
    lr_mult: 2
    decay_mult: 0
  }
  convolution_param {
    num_output: 192
    pad: 1
    kernel_size: 3
    weight_filler {
      type: "xavier"
      std: 0.03
    }
    bias_filler {
      type: "constant"
      value: 0.2
    }
  }
}
layer {
  name: "conv2/relu_3x3"
  type: "ReLU"
  bottom: "conv2/3x3"
  top: "conv2/3x3"
}
layer {
  name: "conv2/norm2"
  type: "LRN"
  bottom: "conv2/3x3"
  top: "conv2/norm2"
  lrn_param {
    local_size: 5
    alpha: 0.0001
    beta: 0.75
  }
}
layer {
  name: "pool2/3x3_s2"
  type: "Pooling"
  bottom: "conv2/norm2"
  top: "pool2/3x3_s2"
  pooling_param {
    pool: MAX
    kernel_size: 3
    stride: 2
  }
}
layer {
  name: "inception_3a/1x1"
  type: "Convolution"
  bottom: "pool2/3x3_s2"
  top: "inception_3a/1x1"
  param {
    lr_mult: 1
    decay_mult: 1
  }
  param {
    lr_mult: 2
    decay_mult: 0
  }
  convolution_param {
    num_output: 64
    kernel_size: 1
    weight_filler {
      type: "xavier"
      std: 0.03
    }
    bias_filler {
      type: "constant"
      value: 0.2
    }
  }
}
layer {
  name: "inception_3a/relu_1x1"
  type: "ReLU"
  bottom: "inception_3a/1x1"
  top: "inception_3a/1x1"
}
layer {
  name: "inception_3a/3x3_reduce"
  type: "Convolution"
  bottom: "pool2/3x3_s2"
  top: "inception_3a/3x3_reduce"
  param {
    lr_mult: 1
    decay_mult: 1
  }
  param {
    lr_mult: 2
    decay_mult: 0
  }
  convolution_param {
    num_output: 96
    kernel_size: 1
    weight_filler {
      type: "xavier"
      std: 0.09
    }
    bias_filler {
      type: "constant"
      value: 0.2
    }
  }
}
layer {
  name: "inception_3a/relu_3x3_reduce"
  type: "ReLU"
  bottom: "inception_3a/3x3_reduce"
  top: "inception_3a/3x3_reduce"
}
layer {
  name: "inception_3a/3x3"
  type: "Convolution"
  bottom: "inception_3a/3x3_reduce"
  top: "inception_3a/3x3"
  param {
    lr_mult: 1
    decay_mult: 1
  }
  param {
    lr_mult: 2
    decay_mult: 0
  }
  convolution_param {
    num_output: 128
    pad: 1
    kernel_size: 3
    weight_filler {
      type: "xavier"
      std: 0.03
    }
    bias_filler {
      type: "constant"
      value: 0.2
    }
  }
}
layer {
  name: "inception_3a/relu_3x3"
  type: "ReLU"
  bottom: "inception_3a/3x3"
  top: "inception_3a/3x3"
}
layer {
  name: "inception_3a/5x5_reduce"
  type: "Convolution"
  bottom: "pool2/3x3_s2"
  top: "inception_3a/5x5_reduce"
  param {
    lr_mult: 1
    decay_mult: 1
  }
  param {
    lr_mult: 2
    decay_mult: 0
  }
  convolution_param {
    num_output: 16
    kernel_size: 1
    weight_filler {
      type: "xavier"
      std: 0.2
    }
    bias_filler {
      type: "constant"
      value: 0.2
    }
  }
}
layer {
  name: "inception_3a/relu_5x5_reduce"
  type: "ReLU"
  bottom: "inception_3a/5x5_reduce"
  top: "inception_3a/5x5_reduce"
}
layer {
  name: "inception_3a/5x5"
  type: "Convolution"
  bottom: "inception_3a/5x5_reduce"
  top: "inception_3a/5x5"
  param {
    lr_mult: 1
    decay_mult: 1
  }
  param {
    lr_mult: 2
    decay_mult: 0
  }
  convolution_param {
    num_output: 32
    pad: 2
    kernel_size: 5
    weight_filler {
      type: "xavier"
      std: 0.03
    }
    bias_filler {
      type: "constant"
      value: 0.2
    }
  }
}
layer {
  name: "inception_3a/relu_5x5"
  type: "ReLU"
  bottom: "inception_3a/5x5"
  top: "inception_3a/5x5"
}
layer {
  name: "inception_3a/pool"
  type: "Pooling"
  bottom: "pool2/3x3_s2"
  top: "inception_3a/pool"
  pooling_param {
    pool: MAX
    kernel_size: 3
    stride: 1
    pad: 1
  }
}
layer {
  name: "inception_3a/pool_proj"
  type: "Convolution"
  bottom: "inception_3a/pool"
  top: "inception_3a/pool_proj"
  param {
    lr_mult: 1
    decay_mult: 1
  }
  param {
    lr_mult: 2
    decay_mult: 0
  }
  convolution_param {
    num_output: 32
    kernel_size: 1
    weight_filler {
      type: "xavier"
      std: 0.1
    }
    bias_filler {
      type: "constant"
      value: 0.2
    }
  }
}
layer {
  name: "inception_3a/relu_pool_proj"
  type: "ReLU"
  bottom: "inception_3a/pool_proj"
  top: "inception_3a/pool_proj"
}
layer {
  name: "inception_3a/output"
  type: "Concat"
  bottom: "inception_3a/1x1"
  bottom: "inception_3a/3x3"
  bottom: "inception_3a/5x5"
  bottom: "inception_3a/pool_proj"
  top: "inception_3a/output"
}
layer {
  name: "inception_3b/1x1"
  type: "Convolution"
  bottom: "inception_3a/output"
  top: "inception_3b/1x1"
  param {
    lr_mult: 1
    decay_mult: 1
  }
  param {
    lr_mult: 2
    decay_mult: 0
  }
  convolution_param {
    num_output: 128
    kernel_size: 1
    weight_filler {
      type: "xavier"
      std: 0.03
    }
    bias_filler {
      type: "constant"
      value: 0.2
    }
  }
}
layer {
  name: "inception_3b/relu_1x1"
  type: "ReLU"
  bottom: "inception_3b/1x1"
  top: "inception_3b/1x1"
}
layer {
  name: "inception_3b/3x3_reduce"
  type: "Convolution"
  bottom: "inception_3a/output"
  top: "inception_3b/3x3_reduce"
  param {
    lr_mult: 1
    decay_mult: 1
  }
  param {
    lr_mult: 2
    decay_mult: 0
  }
  convolution_param {
    num_output: 128
    kernel_size: 1
    weight_filler {
      type: "xavier"
      std: 0.09
    }
    bias_filler {
      type: "constant"
      value: 0.2
    }
  }
}
layer {
  name: "inception_3b/relu_3x3_reduce"
  type: "ReLU"
  bottom: "inception_3b/3x3_reduce"
  top: "inception_3b/3x3_reduce"
}
layer {
  name: "inception_3b/3x3"
  type: "Convolution"
  bottom: "inception_3b/3x3_reduce"
  top: "inception_3b/3x3"
  param {
    lr_mult: 1
    decay_mult: 1
  }
  param {
    lr_mult: 2
    decay_mult: 0
  }
  convolution_param {
    num_output: 192
    pad: 1
    kernel_size: 3
    weight_filler {
      type: "xavier"
      std: 0.03
    }
    bias_filler {
      type: "constant"
      value: 0.2
    }
  }
}
layer {
  name: "inception_3b/relu_3x3"
  type: "ReLU"
  bottom: "inception_3b/3x3"
  top: "inception_3b/3x3"
}
layer {
  name: "inception_3b/5x5_reduce"
  type: "Convolution"
  bottom: "inception_3a/output"
  top: "inception_3b/5x5_reduce"
  param {
    lr_mult: 1
    decay_mult: 1
  }
  param {
    lr_mult: 2
    decay_mult: 0
  }
  convolution_param {
    num_output: 32
    kernel_size: 1
    weight_filler {
      type: "xavier"
      std: 0.2
    }
    bias_filler {
      type: "constant"
      value: 0.2
    }
  }
}
layer {
  name: "inception_3b/relu_5x5_reduce"
  type: "ReLU"
  bottom: "inception_3b/5x5_reduce"
  top: "inception_3b/5x5_reduce"
}
layer {
  name: "inception_3b/5x5"
  type: "Convolution"
  bottom: "inception_3b/5x5_reduce"
  top: "inception_3b/5x5"
  param {
    lr_mult: 1
    decay_mult: 1
  }
  param {
    lr_mult: 2
    decay_mult: 0
  }
  convolution_param {
    num_output: 96
    pad: 2
    kernel_size: 5
    weight_filler {
      type: "xavier"
      std: 0.03
    }
    bias_filler {
      type: "constant"
      value: 0.2
    }
  }
}
layer {
  name: "inception_3b/relu_5x5"
  type: "ReLU"
  bottom: "inception_3b/5x5"
  top: "inception_3b/5x5"
}
layer {
  name: "inception_3b/pool"
  type: "Pooling"
  bottom: "inception_3a/output"
  top: "inception_3b/pool"
  pooling_param {
    pool: MAX
    kernel_size: 3
    stride: 1
    pad: 1
  }
}
layer {
  name: "inception_3b/pool_proj"
  type: "Convolution"
  bottom: "inception_3b/pool"
  top: "inception_3b/pool_proj"
  param {
    lr_mult: 1
    decay_mult: 1
  }
  param {
    lr_mult: 2
    decay_mult: 0
  }
  convolution_param {
    num_output: 64
    kernel_size: 1
    weight_filler {
      type: "xavier"
      std: 0.1
    }
    bias_filler {
      type: "constant"
      value: 0.2
    }
  }
}
layer {
  name: "inception_3b/relu_pool_proj"
  type: "ReLU"
  bottom: "inception_3b/pool_proj"
  top: "inception_3b/pool_proj"
}
layer {
  name: "inception_3b/output"
  type: "Concat"
  bottom: "inception_3b/1x1"
  bottom: "inception_3b/3x3"
  bottom: "inception_3b/5x5"
  bottom: "inception_3b/pool_proj"
  top: "inception_3b/output"
}
layer {
  name: "pool3/3x3_s2"
  type: "Pooling"
  bottom: "inception_3b/output"
  top: "pool3/3x3_s2"
  pooling_param {
    pool: MAX
    kernel_size: 3
    stride: 2
  }
}
layer {
  name: "inception_4a/1x1"
  type: "Convolution"
  bottom: "pool3/3x3_s2"
  top: "inception_4a/1x1"
  param {
    lr_mult: 1
    decay_mult: 1
  }
  param {
    lr_mult: 2
    decay_mult: 0
  }
  convolution_param {
    num_output: 192
    kernel_size: 1
    weight_filler {
      type: "xavier"
      std: 0.03
    }
    bias_filler {
      type: "constant"
      value: 0.2
    }
  }
}
layer {
  name: "inception_4a/relu_1x1"
  type: "ReLU"
  bottom: "inception_4a/1x1"
  top: "inception_4a/1x1"
}
layer {
  name: "inception_4a/3x3_reduce"
  type: "Convolution"
  bottom: "pool3/3x3_s2"
  top: "inception_4a/3x3_reduce"
  param {
    lr_mult: 1
    decay_mult: 1
  }
  param {
    lr_mult: 2
    decay_mult: 0
  }
  convolution_param {
    num_output: 96
    kernel_size: 1
    weight_filler {
      type: "xavier"
      std: 0.09
    }
    bias_filler {
      type: "constant"
      value: 0.2
    }
  }
}
layer {
  name: "inception_4a/relu_3x3_reduce"
  type: "ReLU"
  bottom: "inception_4a/3x3_reduce"
  top: "inception_4a/3x3_reduce"
}
layer {
  name: "inception_4a/3x3"
  type: "Convolution"
  bottom: "inception_4a/3x3_reduce"
  top: "inception_4a/3x3"
  param {
    lr_mult: 1
    decay_mult: 1
  }
  param {
    lr_mult: 2
    decay_mult: 0
  }
  convolution_param {
    num_output: 208
    pad: 1
    kernel_size: 3
    weight_filler {
      type: "xavier"
      std: 0.03
    }
    bias_filler {
      type: "constant"
      value: 0.2
    }
  }
}
layer {
  name: "inception_4a/relu_3x3"
  type: "ReLU"
  bottom: "inception_4a/3x3"
  top: "inception_4a/3x3"
}
layer {
  name: "inception_4a/5x5_reduce"
  type: "Convolution"
  bottom: "pool3/3x3_s2"
  top: "inception_4a/5x5_reduce"
  param {
    lr_mult: 1
    decay_mult: 1
  }
  param {
    lr_mult: 2
    decay_mult: 0
  }
  convolution_param {
    num_output: 16
    kernel_size: 1
    weight_filler {
      type: "xavier"
      std: 0.2
    }
    bias_filler {
      type: "constant"
      value: 0.2
    }
  }
}
layer {
  name: "inception_4a/relu_5x5_reduce"
  type: "ReLU"
  bottom: "inception_4a/5x5_reduce"
  top: "inception_4a/5x5_reduce"
}
layer {
  name: "inception_4a/5x5"
  type: "Convolution"
  bottom: "inception_4a/5x5_reduce"
  top: "inception_4a/5x5"
  param {
    lr_mult: 1
    decay_mult: 1
  }
  param {
    lr_mult: 2
    decay_mult: 0
  }
  convolution_param {
    num_output: 48
    pad: 2
    kernel_size: 5
    weight_filler {
      type: "xavier"
      std: 0.03
    }
    bias_filler {
      type: "constant"
      value: 0.2
    }
  }
}
layer {
  name: "inception_4a/relu_5x5"
  type: "ReLU"
  bottom: "inception_4a/5x5"
  top: "inception_4a/5x5"
}
layer {
  name: "inception_4a/pool"
  type: "Pooling"
  bottom: "pool3/3x3_s2"
  top: "inception_4a/pool"
  pooling_param {
    pool: MAX
    kernel_size: 3
    stride: 1
    pad: 1
  }
}
layer {
  name: "inception_4a/pool_proj"
  type: "Convolution"
  bottom: "inception_4a/pool"
  top: "inception_4a/pool_proj"
  param {
    lr_mult: 1
    decay_mult: 1
  }
  param {
    lr_mult: 2
    decay_mult: 0
  }
  convolution_param {
    num_output: 64
    kernel_size: 1
    weight_filler {
      type: "xavier"
      std: 0.1
    }
    bias_filler {
      type: "constant"
      value: 0.2
    }
  }
}
layer {
  name: "inception_4a/relu_pool_proj"
  type: "ReLU"
  bottom: "inception_4a/pool_proj"
  top: "inception_4a/pool_proj"
}
layer {
  name: "inception_4a/output"
  type: "Concat"
  bottom: "inception_4a/1x1"
  bottom: "inception_4a/3x3"
  bottom: "inception_4a/5x5"
  bottom: "inception_4a/pool_proj"
  top: "inception_4a/output"
}
layer {
  name: "loss1/ave_pool"
  type: "Pooling"
  bottom: "inception_4a/output"
  top: "loss1/ave_pool"
  pooling_param {
    pool: AVE
    kernel_size: 5
    stride: 3
  }
}
layer {
  name: "loss1/conv"
  type: "Convolution"
  bottom: "loss1/ave_pool"
  top: "loss1/conv"
  param {
    lr_mult: 1
    decay_mult: 1
  }
  param {
    lr_mult: 2
    decay_mult: 0
  }
  convolution_param {
    num_output: 128
    kernel_size: 1
    weight_filler {
      type: "xavier"
      std: 0.08
    }
    bias_filler {
      type: "constant"
      value: 0.2
    }
  }
}
layer {
  name: "loss1/relu_conv"
  type: "ReLU"
  bottom: "loss1/conv"
  top: "loss1/conv"
}
layer {
  name: "loss1/fc"
  type: "InnerProduct"
  bottom: "loss1/conv"
  top: "loss1/fc"
  param {
    lr_mult: 1
    decay_mult: 1
  }
  param {
    lr_mult: 2
    decay_mult: 0
  }
  inner_product_param {
    num_output: 1024
    weight_filler {
      type: "xavier"
      std: 0.02
    }
    bias_filler {
      type: "constant"
      value: 0.2
    }
  }
}
layer {
  name: "loss1/relu_fc"
  type: "ReLU"
  bottom: "loss1/fc"
  top: "loss1/fc"
}
layer {
  name: "loss1/drop_fc"
  type: "Dropout"
  bottom: "loss1/fc"
  top: "loss1/fc"
  dropout_param {
    dropout_ratio: 0.7
  }
}
layer {
  name: "loss1/classifier_kaggle"
  type: "InnerProduct"
  bottom: "loss1/fc"
  top: "loss1/classifier_kaggle"
  param {
    lr_mult: 1
    decay_mult: 1
  }
  param {
    lr_mult: 2
    decay_mult: 0
  }
  inner_product_param {
    num_output: 447
    weight_filler {
      type: "xavier"
      std: 0.0009765625
    }
    bias_filler {
      type: "constant"
      value: 0
    }
  }
}
layer {
  name: "loss1/loss"
  type: "SoftmaxWithLoss"
  bottom: "loss1/classifier_kaggle"
  bottom: "label"
  top: "loss1/loss1"
  loss_weight: 0.3
}
layer {
  name: "inception_4b/1x1"
  type: "Convolution"
  bottom: "inception_4a/output"
  top: "inception_4b/1x1"
  param {
    lr_mult: 1
    decay_mult: 1
  }
  param {
    lr_mult: 2
    decay_mult: 0
  }
  convolution_param {
    num_output: 160
    kernel_size: 1
    weight_filler {
      type: "xavier"
      std: 0.03
    }
    bias_filler {
      type: "constant"
      value: 0.2
    }
  }
}
layer {
  name: "inception_4b/relu_1x1"
  type: "ReLU"
  bottom: "inception_4b/1x1"
  top: "inception_4b/1x1"
}
layer {
  name: "inception_4b/3x3_reduce"
  type: "Convolution"
  bottom: "inception_4a/output"
  top: "inception_4b/3x3_reduce"
  param {
    lr_mult: 1
    decay_mult: 1
  }
  param {
    lr_mult: 2
    decay_mult: 0
  }
  convolution_param {
    num_output: 112
    kernel_size: 1
    weight_filler {
      type: "xavier"
      std: 0.09
    }
    bias_filler {
      type: "constant"
      value: 0.2
    }
  }
}
layer {
  name: "inception_4b/relu_3x3_reduce"
  type: "ReLU"
  bottom: "inception_4b/3x3_reduce"
  top: "inception_4b/3x3_reduce"
}
layer {
  name: "inception_4b/3x3"
  type: "Convolution"
  bottom: "inception_4b/3x3_reduce"
  top: "inception_4b/3x3"
  param {
    lr_mult: 1
    decay_mult: 1
  }
  param {
    lr_mult: 2
    decay_mult: 0
  }
  convolution_param {
    num_output: 224
    pad: 1
    kernel_size: 3
    weight_filler {
      type: "xavier"
      std: 0.03
    }
    bias_filler {
      type: "constant"
      value: 0.2
    }
  }
}
layer {
  name: "inception_4b/relu_3x3"
  type: "ReLU"
  bottom: "inception_4b/3x3"
  top: "inception_4b/3x3"
}
layer {
  name: "inception_4b/5x5_reduce"
  type: "Convolution"
  bottom: "inception_4a/output"
  top: "inception_4b/5x5_reduce"
  param {
    lr_mult: 1
    decay_mult: 1
  }
  param {
    lr_mult: 2
    decay_mult: 0
  }
  convolution_param {
    num_output: 24
    kernel_size: 1
    weight_filler {
      type: "xavier"
      std: 0.2
    }
    bias_filler {
      type: "constant"
      value: 0.2
    }
  }
}
layer {
  name: "inception_4b/relu_5x5_reduce"
  type: "ReLU"
  bottom: "inception_4b/5x5_reduce"
  top: "inception_4b/5x5_reduce"
}
layer {
  name: "inception_4b/5x5"
  type: "Convolution"
  bottom: "inception_4b/5x5_reduce"
  top: "inception_4b/5x5"
  param {
    lr_mult: 1
    decay_mult: 1
  }
  param {
    lr_mult: 2
    decay_mult: 0
  }
  convolution_param {
    num_output: 64
    pad: 2
    kernel_size: 5
    weight_filler {
      type: "xavier"
      std: 0.03
    }
    bias_filler {
      type: "constant"
      value: 0.2
    }
  }
}
layer {
  name: "inception_4b/relu_5x5"
  type: "ReLU"
  bottom: "inception_4b/5x5"
  top: "inception_4b/5x5"
}
layer {
  name: "inception_4b/pool"
  type: "Pooling"
  bottom: "inception_4a/output"
  top: "inception_4b/pool"
  pooling_param {
    pool: MAX
    kernel_size: 3
    stride: 1
    pad: 1
  }
}
layer {
  name: "inception_4b/pool_proj"
  type: "Convolution"
  bottom: "inception_4b/pool"
  top: "inception_4b/pool_proj"
  param {
    lr_mult: 1
    decay_mult: 1
  }
  param {
    lr_mult: 2
    decay_mult: 0
  }
  convolution_param {
    num_output: 64
    kernel_size: 1
    weight_filler {
      type: "xavier"
      std: 0.1
    }
    bias_filler {
      type: "constant"
      value: 0.2
    }
  }
}
layer {
  name: "inception_4b/relu_pool_proj"
  type: "ReLU"
  bottom: "inception_4b/pool_proj"
  top: "inception_4b/pool_proj"
}
layer {
  name: "inception_4b/output"
  type: "Concat"
  bottom: "inception_4b/1x1"
  bottom: "inception_4b/3x3"
  bottom: "inception_4b/5x5"
  bottom: "inception_4b/pool_proj"
  top: "inception_4b/output"
}
layer {
  name: "inception_4c/1x1"
  type: "Convolution"
  bottom: "inception_4b/output"
  top: "inception_4c/1x1"
  param {
    lr_mult: 1
    decay_mult: 1
  }
  param {
    lr_mult: 2
    decay_mult: 0
  }
  convolution_param {
    num_output: 128
    kernel_size: 1
    weight_filler {
      type: "xavier"
      std: 0.03
    }
    bias_filler {
      type: "constant"
      value: 0.2
    }
  }
}
layer {
  name: "inception_4c/relu_1x1"
  type: "ReLU"
  bottom: "inception_4c/1x1"
  top: "inception_4c/1x1"
}
layer {
  name: "inception_4c/3x3_reduce"
  type: "Convolution"
  bottom: "inception_4b/output"
  top: "inception_4c/3x3_reduce"
  param {
    lr_mult: 1
    decay_mult: 1
  }
  param {
    lr_mult: 2
    decay_mult: 0
  }
  convolution_param {
    num_output: 128
    kernel_size: 1
    weight_filler {
      type: "xavier"
      std: 0.09
    }
    bias_filler {
      type: "constant"
      value: 0.2
    }
  }
}
layer {
  name: "inception_4c/relu_3x3_reduce"
  type: "ReLU"
  bottom: "inception_4c/3x3_reduce"
  top: "inception_4c/3x3_reduce"
}
layer {
  name: "inception_4c/3x3"
  type: "Convolution"
  bottom: "inception_4c/3x3_reduce"
  top: "inception_4c/3x3"
  param {
    lr_mult: 1
    decay_mult: 1
  }
  param {
    lr_mult: 2
    decay_mult: 0
  }
  convolution_param {
    num_output: 256
    pad: 1
    kernel_size: 3
    weight_filler {
      type: "xavier"
      std: 0.03
    }
    bias_filler {
      type: "constant"
      value: 0.2
    }
  }
}
layer {
  name: "inception_4c/relu_3x3"
  type: "ReLU"
  bottom: "inception_4c/3x3"
  top: "inception_4c/3x3"
}
layer {
  name: "inception_4c/5x5_reduce"
  type: "Convolution"
  bottom: "inception_4b/output"
  top: "inception_4c/5x5_reduce"
  param {
    lr_mult: 1
    decay_mult: 1
  }
  param {
    lr_mult: 2
    decay_mult: 0
  }
  convolution_param {
    num_output: 24
    kernel_size: 1
    weight_filler {
      type: "xavier"
      std: 0.2
    }
    bias_filler {
      type: "constant"
      value: 0.2
    }
  }
}
layer {
  name: "inception_4c/relu_5x5_reduce"
  type: "ReLU"
  bottom: "inception_4c/5x5_reduce"
  top: "inception_4c/5x5_reduce"
}
layer {
  name: "inception_4c/5x5"
  type: "Convolution"
  bottom: "inception_4c/5x5_reduce"
  top: "inception_4c/5x5"
  param {
    lr_mult: 1
    decay_mult: 1
  }
  param {
    lr_mult: 2
    decay_mult: 0
  }
  convolution_param {
    num_output: 64
    pad: 2
    kernel_size: 5
    weight_filler {
      type: "xavier"
      std: 0.03
    }
    bias_filler {
      type: "constant"
      value: 0.2
    }
  }
}
layer {
  name: "inception_4c/relu_5x5"
  type: "ReLU"
  bottom: "inception_4c/5x5"
  top: "inception_4c/5x5"
}
layer {
  name: "inception_4c/pool"
  type: "Pooling"
  bottom: "inception_4b/output"
  top: "inception_4c/pool"
  pooling_param {
    pool: MAX
    kernel_size: 3
    stride: 1
    pad: 1
  }
}
layer {
  name: "inception_4c/pool_proj"
  type: "Convolution"
  bottom: "inception_4c/pool"
  top: "inception_4c/pool_proj"
  param {
    lr_mult: 1
    decay_mult: 1
  }
  param {
    lr_mult: 2
    decay_mult: 0
  }
  convolution_param {
    num_output: 64
    kernel_size: 1
    weight_filler {
      type: "xavier"
      std: 0.1
    }
    bias_filler {
      type: "constant"
      value: 0.2
    }
  }
}
layer {
  name: "inception_4c/relu_pool_proj"
  type: "ReLU"
  bottom: "inception_4c/pool_proj"
  top: "inception_4c/pool_proj"
}
layer {
  name: "inception_4c/output"
  type: "Concat"
  bottom: "inception_4c/1x1"
  bottom: "inception_4c/3x3"
  bottom: "inception_4c/5x5"
  bottom: "inception_4c/pool_proj"
  top: "inception_4c/output"
}
layer {
  name: "inception_4d/1x1"
  type: "Convolution"
  bottom: "inception_4c/output"
  top: "inception_4d/1x1"
  param {
    lr_mult: 1
    decay_mult: 1
  }
  param {
    lr_mult: 2
    decay_mult: 0
  }
  convolution_param {
    num_output: 112
    kernel_size: 1
    weight_filler {
      type: "xavier"
      std: 0.03
    }
    bias_filler {
      type: "constant"
      value: 0.2
    }
  }
}
layer {
  name: "inception_4d/relu_1x1"
  type: "ReLU"
  bottom: "inception_4d/1x1"
  top: "inception_4d/1x1"
}
layer {
  name: "inception_4d/3x3_reduce"
  type: "Convolution"
  bottom: "inception_4c/output"
  top: "inception_4d/3x3_reduce"
  param {
    lr_mult: 1
    decay_mult: 1
  }
  param {
    lr_mult: 2
    decay_mult: 0
  }
  convolution_param {
    num_output: 144
    kernel_size: 1
    weight_filler {
      type: "xavier"
      std: 0.09
    }
    bias_filler {
      type: "constant"
      value: 0.2
    }
  }
}
layer {
  name: "inception_4d/relu_3x3_reduce"
  type: "ReLU"
  bottom: "inception_4d/3x3_reduce"
  top: "inception_4d/3x3_reduce"
}
layer {
  name: "inception_4d/3x3"
  type: "Convolution"
  bottom: "inception_4d/3x3_reduce"
  top: "inception_4d/3x3"
  param {
    lr_mult: 1
    decay_mult: 1
  }
  param {
    lr_mult: 2
    decay_mult: 0
  }
  convolution_param {
    num_output: 288
    pad: 1
    kernel_size: 3
    weight_filler {
      type: "xavier"
      std: 0.03
    }
    bias_filler {
      type: "constant"
      value: 0.2
    }
  }
}
layer {
  name: "inception_4d/relu_3x3"
  type: "ReLU"
  bottom: "inception_4d/3x3"
  top: "inception_4d/3x3"
}
layer {
  name: "inception_4d/5x5_reduce"
  type: "Convolution"
  bottom: "inception_4c/output"
  top: "inception_4d/5x5_reduce"
  param {
    lr_mult: 1
    decay_mult: 1
  }
  param {
    lr_mult: 2
    decay_mult: 0
  }
  convolution_param {
    num_output: 32
    kernel_size: 1
    weight_filler {
      type: "xavier"
      std: 0.2
    }
    bias_filler {
      type: "constant"
      value: 0.2
    }
  }
}
layer {
  name: "inception_4d/relu_5x5_reduce"
  type: "ReLU"
  bottom: "inception_4d/5x5_reduce"
  top: "inception_4d/5x5_reduce"
}
layer {
  name: "inception_4d/5x5"
  type: "Convolution"
  bottom: "inception_4d/5x5_reduce"
  top: "inception_4d/5x5"
  param {
    lr_mult: 1
    decay_mult: 1
  }
  param {
    lr_mult: 2
    decay_mult: 0
  }
  convolution_param {
    num_output: 64
    pad: 2
    kernel_size: 5
    weight_filler {
      type: "xavier"
      std: 0.03
    }
    bias_filler {
      type: "constant"
      value: 0.2
    }
  }
}
layer {
  name: "inception_4d/relu_5x5"
  type: "ReLU"
  bottom: "inception_4d/5x5"
  top: "inception_4d/5x5"
}
layer {
  name: "inception_4d/pool"
  type: "Pooling"
  bottom: "inception_4c/output"
  top: "inception_4d/pool"
  pooling_param {
    pool: MAX
    kernel_size: 3
    stride: 1
    pad: 1
  }
}
layer {
  name: "inception_4d/pool_proj"
  type: "Convolution"
  bottom: "inception_4d/pool"
  top: "inception_4d/pool_proj"
  param {
    lr_mult: 1
    decay_mult: 1
  }
  param {
    lr_mult: 2
    decay_mult: 0
  }
  convolution_param {
    num_output: 64
    kernel_size: 1
    weight_filler {
      type: "xavier"
      std: 0.1
    }
    bias_filler {
      type: "constant"
      value: 0.2
    }
  }
}
layer {
  name: "inception_4d/relu_pool_proj"
  type: "ReLU"
  bottom: "inception_4d/pool_proj"
  top: "inception_4d/pool_proj"
}
layer {
  name: "inception_4d/output"
  type: "Concat"
  bottom: "inception_4d/1x1"
  bottom: "inception_4d/3x3"
  bottom: "inception_4d/5x5"
  bottom: "inception_4d/pool_proj"
  top: "inception_4d/output"
}
layer {
  name: "loss2/ave_pool"
  type: "Pooling"
  bottom: "inception_4d/output"
  top: "loss2/ave_pool"
  pooling_param {
    pool: AVE
    kernel_size: 5
    stride: 3
  }
}
layer {
  name: "loss2/conv"
  type: "Convolution"
  bottom: "loss2/ave_pool"
  top: "loss2/conv"
  param {
    lr_mult: 1
    decay_mult: 1
  }
  param {
    lr_mult: 2
    decay_mult: 0
  }
  convolution_param {
    num_output: 128
    kernel_size: 1
    weight_filler {
      type: "xavier"
      std: 0.08
    }
    bias_filler {
      type: "constant"
      value: 0.2
    }
  }
}
layer {
  name: "loss2/relu_conv"
  type: "ReLU"
  bottom: "loss2/conv"
  top: "loss2/conv"
}
layer {
  name: "loss2/fc"
  type: "InnerProduct"
  bottom: "loss2/conv"
  top: "loss2/fc"
  param {
    lr_mult: 1
    decay_mult: 1
  }
  param {
    lr_mult: 2
    decay_mult: 0
  }
  inner_product_param {
    num_output: 1024
    weight_filler {
      type: "xavier"
      std: 0.02
    }
    bias_filler {
      type: "constant"
      value: 0.2
    }
  }
}
layer {
  name: "loss2/relu_fc"
  type: "ReLU"
  bottom: "loss2/fc"
  top: "loss2/fc"
}
layer {
  name: "loss2/drop_fc"
  type: "Dropout"
  bottom: "loss2/fc"
  top: "loss2/fc"
  dropout_param {
    dropout_ratio: 0.7
  }
}
layer {
  name: "loss2/classifier_kaggle"
  type: "InnerProduct"
  bottom: "loss2/fc"
  top: "loss2/classifier_kaggle"
  param {
    lr_mult: 1
    decay_mult: 1
  }
  param {
    lr_mult: 2
    decay_mult: 0
  }
  inner_product_param {
    num_output: 447
    weight_filler {
      type: "xavier"
      std: 0.0009765625
    }
    bias_filler {
      type: "constant"
      value: 0
    }
  }
}
layer {
  name: "loss2/loss"
  type: "SoftmaxWithLoss"
  bottom: "loss2/classifier_kaggle"
  bottom: "label"
  top: "loss2/loss1"
  loss_weight: 0.3
}
layer {
  name: "inception_4e/1x1"
  type: "Convolution"
  bottom: "inception_4d/output"
  top: "inception_4e/1x1"
  param {
    lr_mult: 1
    decay_mult: 1
  }
  param {
    lr_mult: 2
    decay_mult: 0
  }
  convolution_param {
    num_output: 256
    kernel_size: 1
    weight_filler {
      type: "xavier"
      std: 0.03
    }
    bias_filler {
      type: "constant"
      value: 0.2
    }
  }
}
layer {
  name: "inception_4e/relu_1x1"
  type: "ReLU"
  bottom: "inception_4e/1x1"
  top: "inception_4e/1x1"
}
layer {
  name: "inception_4e/3x3_reduce"
  type: "Convolution"
  bottom: "inception_4d/output"
  top: "inception_4e/3x3_reduce"
  param {
    lr_mult: 1
    decay_mult: 1
  }
  param {
    lr_mult: 2
    decay_mult: 0
  }
  convolution_param {
    num_output: 160
    kernel_size: 1
    weight_filler {
      type: "xavier"
      std: 0.09
    }
    bias_filler {
      type: "constant"
      value: 0.2
    }
  }
}
layer {
  name: "inception_4e/relu_3x3_reduce"
  type: "ReLU"
  bottom: "inception_4e/3x3_reduce"
  top: "inception_4e/3x3_reduce"
}
layer {
  name: "inception_4e/3x3"
  type: "Convolution"
  bottom: "inception_4e/3x3_reduce"
  top: "inception_4e/3x3"
  param {
    lr_mult: 1
    decay_mult: 1
  }
  param {
    lr_mult: 2
    decay_mult: 0
  }
  convolution_param {
    num_output: 320
    pad: 1
    kernel_size: 3
    weight_filler {
      type: "xavier"
      std: 0.03
    }
    bias_filler {
      type: "constant"
      value: 0.2
    }
  }
}
layer {
  name: "inception_4e/relu_3x3"
  type: "ReLU"
  bottom: "inception_4e/3x3"
  top: "inception_4e/3x3"
}
layer {
  name: "inception_4e/5x5_reduce"
  type: "Convolution"
  bottom: "inception_4d/output"
  top: "inception_4e/5x5_reduce"
  param {
    lr_mult: 1
    decay_mult: 1
  }
  param {
    lr_mult: 2
    decay_mult: 0
  }
  convolution_param {
    num_output: 32
    kernel_size: 1
    weight_filler {
      type: "xavier"
      std: 0.2
    }
    bias_filler {
      type: "constant"
      value: 0.2
    }
 
I1215 13:10:47.952101 31739 layer_factory.hpp:74] Creating layer data
I1215 13:10:47.952133 31739 net.cpp:84] Creating Layer data
I1215 13:10:47.952143 31739 net.cpp:338] data -> data
I1215 13:10:47.952184 31739 net.cpp:338] data -> label
I1215 13:10:47.952194 31739 net.cpp:113] Setting up data
I1215 13:10:47.952271 31739 db.cpp:34] Opened lmdb /home/coldmanck/kaggle/kaggle2_train_lmdb
I1215 13:10:47.952491 31739 data_layer.cpp:67] output data size: 128,3,224,224
I1215 13:10:47.971608 31739 net.cpp:120] Top shape: 128 3 224 224 (19267584)
I1215 13:10:47.971647 31739 net.cpp:120] Top shape: 128 (128)
I1215 13:10:47.971659 31739 layer_factory.hpp:74] Creating layer label_data_1_split
I1215 13:10:47.971704 31739 net.cpp:84] Creating Layer label_data_1_split
I1215 13:10:47.971714 31739 net.cpp:380] label_data_1_split <- label
I1215 13:10:47.971730 31739 net.cpp:338] label_data_1_split -> label_data_1_split_0
I1215 13:10:47.971745 31739 net.cpp:338] label_data_1_split -> label_data_1_split_1
I1215 13:10:47.971752 31739 net.cpp:338] label_data_1_split -> label_data_1_split_2
I1215 13:10:47.971760 31739 net.cpp:113] Setting up label_data_1_split
I1215 13:10:47.971771 31739 net.cpp:120] Top shape: 128 (128)
I1215 13:10:47.971788 31739 net.cpp:120] Top shape: 128 (128)
I1215 13:10:47.971807 31739 net.cpp:120] Top shape: 128 (128)
I1215 13:10:47.971812 31739 layer_factory.hpp:74] Creating layer conv1/7x7_s2
I1215 13:10:47.971825 31739 net.cpp:84] Creating Layer conv1/7x7_s2
I1215 13:10:47.971829 31739 net.cpp:380] conv1/7x7_s2 <- data
I1215 13:10:47.971838 31739 net.cpp:338] conv1/7x7_s2 -> conv1/7x7_s2
I1215 13:10:47.971848 31739 net.cpp:113] Setting up conv1/7x7_s2
I1215 13:10:48.325472 31739 net.cpp:120] Top shape: 128 64 112 112 (102760448)
I1215 13:10:48.325573 31739 layer_factory.hpp:74] Creating layer conv1/relu_7x7
I1215 13:10:48.325598 31739 net.cpp:84] Creating Layer conv1/relu_7x7
I1215 13:10:48.325614 31739 net.cpp:380] conv1/relu_7x7 <- conv1/7x7_s2
I1215 13:10:48.325642 31739 net.cpp:327] conv1/relu_7x7 -> conv1/7x7_s2 (in-place)
I1215 13:10:48.325657 31739 net.cpp:113] Setting up conv1/relu_7x7
I1215 13:10:48.326392 31739 net.cpp:120] Top shape: 128 64 112 112 (102760448)
I1215 13:10:48.326413 31739 layer_factory.hpp:74] Creating layer pool1/3x3_s2
I1215 13:10:48.326431 31739 net.cpp:84] Creating Layer pool1/3x3_s2
I1215 13:10:48.326436 31739 net.cpp:380] pool1/3x3_s2 <- conv1/7x7_s2
I1215 13:10:48.326444 31739 net.cpp:338] pool1/3x3_s2 -> pool1/3x3_s2
I1215 13:10:48.326453 31739 net.cpp:113] Setting up pool1/3x3_s2
I1215 13:10:48.326534 31739 net.cpp:120] Top shape: 128 64 56 56 (25690112)
I1215 13:10:48.326549 31739 layer_factory.hpp:74] Creating layer pool1/norm1
I1215 13:10:48.326565 31739 net.cpp:84] Creating Layer pool1/norm1
I1215 13:10:48.326570 31739 net.cpp:380] pool1/norm1 <- pool1/3x3_s2
I1215 13:10:48.326578 31739 net.cpp:338] pool1/norm1 -> pool1/norm1
I1215 13:10:48.326587 31739 net.cpp:113] Setting up pool1/norm1
I1215 13:10:48.326596 31739 net.cpp:120] Top shape: 128 64 56 56 (25690112)
I1215 13:10:48.326611 31739 layer_factory.hpp:74] Creating layer conv2/3x3_reduce
I1215 13:10:48.326630 31739 net.cpp:84] Creating Layer conv2/3x3_reduce
I1215 13:10:48.326635 31739 net.cpp:380] conv2/3x3_reduce <- pool1/norm1
I1215 13:10:48.326652 31739 net.cpp:338] conv2/3x3_reduce -> conv2/3x3_reduce
I1215 13:10:48.326663 31739 net.cpp:113] Setting up conv2/3x3_reduce
I1215 13:10:48.327242 31739 net.cpp:120] Top shape: 128 64 56 56 (25690112)
I1215 13:10:48.327261 31739 layer_factory.hpp:74] Creating layer conv2/relu_3x3_reduce
I1215 13:10:48.327270 31739 net.cpp:84] Creating Layer conv2/relu_3x3_reduce
I1215 13:10:48.327275 31739 net.cpp:380] conv2/relu_3x3_reduce <- conv2/3x3_reduce
I1215 13:10:48.327286 31739 net.cpp:327] conv2/relu_3x3_reduce -> conv2/3x3_reduce (in-place)
I1215 13:10:48.327293 31739 net.cpp:113] Setting up conv2/relu_3x3_reduce
I1215 13:10:48.327368 31739 net.cpp:120] Top shape: 128 64 56 56 (25690112)
I1215 13:10:48.327375 31739 layer_factory.hpp:74] Creating layer conv2/3x3
I1215 13:10:48.327394 31739 net.cpp:84] Creating Layer conv2/3x3
I1215 13:10:48.327400 31739 net.cpp:380] conv2/3x3 <- conv2/3x3_reduce
I1215 13:10:48.327410 31739 net.cpp:338] conv2/3x3 -> conv2/3x3
I1215 13:10:48.327425 31739 net.cpp:113] Setting up conv2/3x3
I1215 13:10:48.329422 31739 net.cpp:120] Top shape: 128 192 56 56 (77070336)
I1215 13:10:48.329445 31739 layer_factory.hpp:74] Creating layer conv2/relu_3x3
I1215 13:10:48.329453 31739 net.cpp:84] Creating Layer conv2/relu_3x3
I1215 13:10:48.329459 31739 net.cpp:380] conv2/relu_3x3 <- conv2/3x3
I1215 13:10:48.329466 31739 net.cpp:327] conv2/relu_3x3 -> conv2/3x3 (in-place)
I1215 13:10:48.329474 31739 net.cpp:113] Setting up conv2/relu_3x3
I1215 13:10:48.329725 31739 net.cpp:120] Top shape: 128 192 56 56 (77070336)
I1215 13:10:48.329820 31739 layer_factory.hpp:74] Creating layer conv2/norm2
I1215 13:10:48.329831 31739 net.cpp:84] Creating Layer conv2/norm2
I1215 13:10:48.329838 31739 net.cpp:380] conv2/norm2 <- conv2/3x3
I1215 13:10:48.329850 31739 net.cpp:338] conv2/norm2 -> conv2/norm2
I1215 13:10:48.329859 31739 net.cpp:113] Setting up conv2/norm2
I1215 13:10:48.329869 31739 net.cpp:120] Top shape: 128 192 56 56 (77070336)
I1215 13:10:48.329885 31739 layer_factory.hpp:74] Creating layer pool2/3x3_s2
I1215 13:10:48.329906 31739 net.cpp:84] Creating Layer pool2/3x3_s2
I1215 13:10:48.329911 31739 net.cpp:380] pool2/3x3_s2 <- conv2/norm2
I1215 13:10:48.329918 31739 net.cpp:338] pool2/3x3_s2 -> pool2/3x3_s2
I1215 13:10:48.329926 31739 net.cpp:113] Setting up pool2/3x3_s2
I1215 13:10:48.330157 31739 net.cpp:120] Top shape: 128 192 28 28 (19267584)
I1215 13:10:48.330165 31739 layer_factory.hpp:74] Creating layer pool2/3x3_s2_pool2/3x3_s2_0_split
I1215 13:10:48.330173 31739 net.cpp:84] Creating Layer pool2/3x3_s2_pool2/3x3_s2_0_split
I1215 13:10:48.330178 31739 net.cpp:380] pool2/3x3_s2_pool2/3x3_s2_0_split <- pool2/3x3_s2
I1215 13:10:48.330186 31739 net.cpp:338] pool2/3x3_s2_pool2/3x3_s2_0_split -> pool2/3x3_s2_pool2/3x3_s2_0_split_0
I1215 13:10:48.330194 31739 net.cpp:338] pool2/3x3_s2_pool2/3x3_s2_0_split -> pool2/3x3_s2_pool2/3x3_s2_0_split_1
I1215 13:10:48.330202 31739 net.cpp:338] pool2/3x3_s2_pool2/3x3_s2_0_split -> pool2/3x3_s2_pool2/3x3_s2_0_split_2
I1215 13:10:48.330209 31739 net.cpp:338] pool2/3x3_s2_pool2/3x3_s2_0_split -> pool2/3x3_s2_pool2/3x3_s2_0_split_3
I1215 13:10:48.330215 31739 net.cpp:113] Setting up pool2/3x3_s2_pool2/3x3_s2_0_split
I1215 13:10:48.330224 31739 net.cpp:120] Top shape: 128 192 28 28 (19267584)
I1215 13:10:48.330229 31739 net.cpp:120] Top shape: 128 192 28 28 (19267584)
I1215 13:10:48.330235 31739 net.cpp:120] Top shape: 128 192 28 28 (19267584)
I1215 13:10:48.330240 31739 net.cpp:120] Top shape: 128 192 28 28 (19267584)
I1215 13:10:48.330245 31739 layer_factory.hpp:74] Creating layer inception_3a/1x1
I1215 13:10:48.330263 31739 net.cpp:84] Creating Layer inception_3a/1x1
I1215 13:10:48.330270 31739 net.cpp:380] inception_3a/1x1 <- pool2/3x3_s2_pool2/3x3_s2_0_split_0
I1215 13:10:48.330278 31739 net.cpp:338] inception_3a/1x1 -> inception_3a/1x1
I1215 13:10:48.330288 31739 net.cpp:113] Setting up inception_3a/1x1
I1215 13:10:48.331437 31739 net.cpp:120] Top shape: 128 64 28 28 (6422528)
I1215 13:10:48.331455 31739 layer_factory.hpp:74] Creating layer inception_3a/relu_1x1
I1215 13:10:48.331464 31739 net.cpp:84] Creating Layer inception_3a/relu_1x1
I1215 13:10:48.331468 31739 net.cpp:380] inception_3a/relu_1x1 <- inception_3a/1x1
I1215 13:10:48.331485 31739 net.cpp:327] inception_3a/relu_1x1 -> inception_3a/1x1 (in-place)
I1215 13:10:48.331492 31739 net.cpp:113] Setting up inception_3a/relu_1x1
I1215 13:10:48.331568 31739 net.cpp:120] Top shape: 128 64 28 28 (6422528)
I1215 13:10:48.331574 31739 layer_factory.hpp:74] Creating layer inception_3a/3x3_reduce
I1215 13:10:48.331583 31739 net.cpp:84] Creating Layer inception_3a/3x3_reduce
I1215 13:10:48.331589 31739 net.cpp:380] inception_3a/3x3_reduce <- pool2/3x3_s2_pool2/3x3_s2_0_split_1
I1215 13:10:48.331596 31739 net.cpp:338] inception_3a/3x3_reduce -> inception_3a/3x3_reduce
I1215 13:10:48.331605 31739 net.cpp:113] Setting up inception_3a/3x3_reduce
I1215 13:10:48.332320 31739 net.cpp:120] Top shape: 128 96 28 28 (9633792)
I1215 13:10:48.332340 31739 layer_factory.hpp:74] Creating layer inception_3a/relu_3x3_reduce
I1215 13:10:48.332361 31739 net.cpp:84] Creating Layer inception_3a/relu_3x3_reduce
I1215 13:10:48.332367 31739 net.cpp:380] inception_3a/relu_3x3_reduce <- inception_3a/3x3_reduce
I1215 13:10:48.332381 31739 net.cpp:327] inception_3a/relu_3x3_reduce -> inception_3a/3x3_reduce (in-place)
I1215 13:10:48.332389 31739 net.cpp:113] Setting up inception_3a/relu_3x3_reduce
I1215 13:10:48.332499 31739 net.cpp:120] Top shape: 128 96 28 28 (9633792)
I1215 13:10:48.332506 31739 layer_factory.hpp:74] Creating layer inception_3a/3x3
I1215 13:10:48.332525 31739 net.cpp:84] Creating Layer inception_3a/3x3
I1215 13:10:48.332531 31739 net.cpp:380] inception_3a/3x3 <- inception_3a/3x3_reduce
I1215 13:10:48.332545 31739 net.cpp:338] inception_3a/3x3 -> inception_3a/3x3
I1215 13:10:48.332553 31739 net.cpp:113] Setting up inception_3a/3x3
I1215 13:10:48.334520 31739 net.cpp:120] Top shape: 128 128 28 28 (12845056)
I1215 13:10:48.334537 31739 layer_factory.hpp:74] Creating layer inception_3a/relu_3x3
I1215 13:10:48.334552 31739 net.cpp:84] Creating Layer inception_3a/relu_3x3
I1215 13:10:48.334564 31739 net.cpp:380] inception_3a/relu_3x3 <- inception_3a/3x3
I1215 13:10:48.334571 31739 net.cpp:327] inception_3a/relu_3x3 -> inception_3a/3x3 (in-place)
I1215 13:10:48.334579 31739 net.cpp:113] Setting up inception_3a/relu_3x3
I1215 13:10:48.334830 31739 net.cpp:120] Top shape: 128 128 28 28 (12845056)
I1215 13:10:48.334841 31739 layer_factory.hpp:74] Creating layer inception_3a/5x5_reduce
I1215 13:10:48.334851 31739 net.cpp:84] Creating Layer inception_3a/5x5_reduce
I1215 13:10:48.334857 31739 net.cpp:380] inception_3a/5x5_reduce <- pool2/3x3_s2_pool2/3x3_s2_0_split_2
I1215 13:10:48.334867 31739 net.cpp:338] inception_3a/5x5_reduce -> inception_3a/5x5_reduce
I1215 13:10:48.334879 31739 net.cpp:113] Setting up inception_3a/5x5_reduce
I1215 13:10:48.335346 31739 net.cpp:120] Top shape: 128 16 28 28 (1605632)
I1215 13:10:48.335362 31739 layer_factory.hpp:74] Creating layer inception_3a/relu_5x5_reduce
I1215 13:10:48.335383 31739 net.cpp:84] Creating Layer inception_3a/relu_5x5_reduce
I1215 13:10:48.335389 31739 net.cpp:380] inception_3a/relu_5x5_reduce <- inception_3a/5x5_reduce
I1215 13:10:48.335397 31739 net.cpp:327] inception_3a/relu_5x5_reduce -> inception_3a/5x5_reduce (in-place)
I1215 13:10:48.335404 31739 net.cpp:113] Setting up inception_3a/relu_5x5_reduce
I1215 13:10:48.335489 31739 net.cpp:120] Top shape: 128 16 28 28 (1605632)
I1215 13:10:48.335500 31739 layer_factory.hpp:74] Creating layer inception_3a/5x5
I1215 13:10:48.335510 31739 net.cpp:84] Creating Layer inception_3a/5x5
I1215 13:10:48.335515 31739 net.cpp:380] inception_3a/5x5 <- inception_3a/5x5_reduce
I1215 13:10:48.335521 31739 net.cpp:338] inception_3a/5x5 -> inception_3a/5x5
I1215 13:10:48.335530 31739 net.cpp:113] Setting up inception_3a/5x5
I1215 13:10:48.336110 31739 net.cpp:120] Top shape: 128 32 28 28 (3211264)
I1215 13:10:48.336133 31739 layer_factory.hpp:74] Creating layer inception_3a/relu_5x5
I1215 13:10:48.336141 31739 net.cpp:84] Creating Layer inception_3a/relu_5x5
I1215 13:10:48.336148 31739 net.cpp:380] inception_3a/relu_5x5 <- inception_3a/5x5
I1215 13:10:48.336156 31739 net.cpp:327] inception_3a/relu_5x5 -> inception_3a/5x5 (in-place)
I1215 13:10:48.336164 31739 net.cpp:113] Setting up inception_3a/relu_5x5
I1215 13:10:48.336230 31739 net.cpp:120] Top shape: 128 32 28 28 (3211264)
I1215 13:10:48.336237 31739 layer_factory.hpp:74] Creating layer inception_3a/pool
I1215 13:10:48.336242 31739 layer_factory.cpp:56] CUDNN does not support padding or multiple tops. Using Caffe's own pooling layer.
I1215 13:10:48.336256 31739 net.cpp:84] Creating Layer inception_3a/pool
I1215 13:10:48.336262 31739 net.cpp:380] inception_3a/pool <- pool2/3x3_s2_pool2/3x3_s2_0_split_3
I1215 13:10:48.336272 31739 net.cpp:338] inception_3a/pool -> inception_3a/pool
I1215 13:10:48.336279 31739 net.cpp:113] Setting up inception_3a/pool
I1215 13:10:48.336288 31739 net.cpp:120] Top shape: 128 192 28 28 (19267584)
I1215 13:10:48.336298 31739 layer_factory.hpp:74] Creating layer inception_3a/pool_proj
I1215 13:10:48.336307 31739 net.cpp:84] Creating Layer inception_3a/pool_proj
I1215 13:10:48.336311 31739 net.cpp:380] inception_3a/pool_proj <- inception_3a/pool
I1215 13:10:48.336323 31739 net.cpp:338] inception_3a/pool_proj -> inception_3a/pool_proj
I1215 13:10:48.336330 31739 net.cpp:113] Setting up inception_3a/pool_proj
I1215 13:10:48.336803 31739 net.cpp:120] Top shape: 128 32 28 28 (3211264)
I1215 13:10:48.336822 31739 layer_factory.hpp:74] Creating layer inception_3a/relu_pool_proj
I1215 13:10:48.336828 31739 net.cpp:84] Creating Layer inception_3a/relu_pool_proj
I1215 13:10:48.336835 31739 net.cpp:380] inception_3a/relu_pool_proj <- inception_3a/pool_proj
I1215 13:10:48.336843 31739 net.cpp:327] inception_3a/relu_pool_proj -> inception_3a/pool_proj (in-place)
I1215 13:10:48.336850 31739 net.cpp:113] Setting up inception_3a/relu_pool_proj
I1215 13:10:48.336918 31739 net.cpp:120] Top shape: 128 32 28 28 (3211264)
I1215 13:10:48.336925 31739 layer_factory.hpp:74] Creating layer inception_3a/output
I1215 13:10:48.336962 31739 net.cpp:84] Creating Layer inception_3a/output
I1215 13:10:48.336969 31739 net.cpp:380] inception_3a/output <- inception_3a/1x1
I1215 13:10:48.336976 31739 net.cpp:380] inception_3a/output <- inception_3a/3x3
I1215 13:10:48.336982 31739 net.cpp:380] inception_3a/output <- inception_3a/5x5
I1215 13:10:48.336987 31739 net.cpp:380] inception_3a/output <- inception_3a/pool_proj
I1215 13:10:48.336992 31739 net.cpp:338] inception_3a/output -> inception_3a/output
I1215 13:10:48.337000 31739 net.cpp:113] Setting up inception_3a/output
I1215 13:10:48.337013 31739 net.cpp:120] Top shape: 128 256 28 28 (25690112)
I1215 13:10:48.337018 31739 layer_factory.hpp:74] Creating layer inception_3a/output_inception_3a/output_0_split
I1215 13:10:48.337030 31739 net.cpp:84] Creating Layer inception_3a/output_inception_3a/output_0_split
I1215 13:10:48.337035 31739 net.cpp:380] inception_3a/output_inception_3a/output_0_split <- inception_3a/output
I1215 13:10:48.337044 31739 net.cpp:338] inception_3a/output_inception_3a/output_0_split -> inception_3a/output_inception_3a/output_0_split_0
I1215 13:10:48.337050 31739 net.cpp:338] inception_3a/output_inception_3a/output_0_split -> inception_3a/output_inception_3a/output_0_split_1
I1215 13:10:48.337074 31739 net.cpp:338] inception_3a/output_inception_3a/output_0_split -> inception_3a/output_inception_3a/output_0_split_2
I1215 13:10:48.337081 31739 net.cpp:338] inception_3a/output_inception_3a/output_0_split -> inception_3a/output_inception_3a/output_0_split_3
I1215 13:10:48.337087 31739 net.cpp:113] Setting up inception_3a/output_inception_3a/output_0_split
I1215 13:10:48.337095 31739 net.cpp:120] Top shape: 128 256 28 28 (25690112)
I1215 13:10:48.337100 31739 net.cpp:120] Top shape: 128 256 28 28 (25690112)
I1215 13:10:48.337105 31739 net.cpp:120] Top shape: 128 256 28 28 (25690112)
I1215 13:10:48.337110 31739 net.cpp:120] Top shape: 128 256 28 28 (25690112)
I1215 13:10:48.337116 31739 layer_factory.hpp:74] Creating layer inception_3b/1x1
I1215 13:10:48.337131 31739 net.cpp:84] Creating Layer inception_3b/1x1
I1215 13:10:48.337136 31739 net.cpp:380] inception_3b/1x1 <- inception_3a/output_inception_3a/output_0_split_0
I1215 13:10:48.337146 31739 net.cpp:338] inception_3b/1x1 -> inception_3b/1x1
I1215 13:10:48.337155 31739 net.cpp:113] Setting up inception_3b/1x1
I1215 13:10:48.338016 31739 net.cpp:120] Top shape: 128 128 28 28 (12845056)
I1215 13:10:48.338033 31739 layer_factory.hpp:74] Creating layer inception_3b/relu_1x1
I1215 13:10:48.338043 31739 net.cpp:84] Creating Layer inception_3b/relu_1x1
I1215 13:10:48.338048 31739 net.cpp:380] inception_3b/relu_1x1 <- inception_3b/1x1
I1215 13:10:48.338055 31739 net.cpp:327] inception_3b/relu_1x1 -> inception_3b/1x1 (in-place)
I1215 13:10:48.338063 31739 net.cpp:113] Setting up inception_3b/relu_1x1
I1215 13:10:48.338336 31739 net.cpp:120] Top shape: 128 128 28 28 (12845056)
I1215 13:10:48.338348 31739 layer_factory.hpp:74] Creating layer inception_3b/3x3_reduce
I1215 13:10:48.338358 31739 net.cpp:84] Creating Layer inception_3b/3x3_reduce
I1215 13:10:48.338364 31739 net.cpp:380] inception_3b/3x3_reduce <- inception_3a/output_inception_3a/output_0_split_1
I1215 13:10:48.338373 31739 net.cpp:338] inception_3b/3x3_reduce -> inception_3b/3x3_reduce
I1215 13:10:48.338383 31739 net.cpp:113] Setting up inception_3b/3x3_reduce
I1215 13:10:48.339215 31739 net.cpp:120] Top shape: 128 128 28 28 (12845056)
I1215 13:10:48.339241 31739 layer_factory.hpp:74] Creating layer inception_3b/relu_3x3_reduce
I1215 13:10:48.339258 31739 net.cpp:84] Creating Layer inception_3b/relu_3x3_reduce
I1215 13:10:48.339264 31739 net.cpp:380] inception_3b/relu_3x3_reduce <- inception_3b/3x3_reduce
I1215 13:10:48.339272 31739 net.cpp:327] inception_3b/relu_3x3_reduce -> inception_3b/3x3_reduce (in-place)
I1215 13:10:48.339279 31739 net.cpp:113] Setting up inception_3b/relu_3x3_reduce
I1215 13:10:48.339354 31739 net.cpp:120] Top shape: 128 128 28 28 (12845056)
I1215 13:10:48.339360 31739 layer_factory.hpp:74] Creating layer inception_3b/3x3
I1215 13:10:48.339378 31739 net.cpp:84] Creating Layer inception_3b/3x3
I1215 13:10:48.339391 31739 net.cpp:380] inception_3b/3x3 <- inception_3b/3x3_reduce
I1215 13:10:48.339400 31739 net.cpp:338] inception_3b/3x3 -> inception_3b/3x3
I1215 13:10:48.339409 31739 net.cpp:113] Setting up inception_3b/3x3
I1215 13:10:48.342689 31739 net.cpp:120] Top shape: 128 192 28 28 (19267584)
I1215 13:10:48.342706 31739 layer_factory.hpp:74] Creating layer inception_3b/relu_3x3
I1215 13:10:48.342715 31739 net.cpp:84] Creating Layer inception_3b/relu_3x3
I1215 13:10:48.342720 31739 net.cpp:380] inception_3b/relu_3x3 <- inception_3b/3x3
I1215 13:10:48.342728 31739 net.cpp:327] inception_3b/relu_3x3 -> inception_3b/3x3 (in-place)
I1215 13:10:48.342736 31739 net.cpp:113] Setting up inception_3b/relu_3x3
I1215 13:10:48.342811 31739 net.cpp:120] Top shape: 128 192 28 28 (19267584)
I1215 13:10:48.342818 31739 layer_factory.hpp:74] Creating layer inception_3b/5x5_reduce
I1215 13:10:48.342838 31739 net.cpp:84] Creating Layer inception_3b/5x5_reduce
I1215 13:10:48.342844 31739 net.cpp:380] inception_3b/5x5_reduce <- inception_3a/output_inception_3a/output_0_split_2
I1215 13:10:48.342851 31739 net.cpp:338] inception_3b/5x5_reduce -> inception_3b/5x5_reduce
I1215 13:10:48.342860 31739 net.cpp:113] Setting up inception_3b/5x5_reduce
I1215 13:10:48.343411 31739 net.cpp:120] Top shape: 128 32 28 28 (3211264)
I1215 13:10:48.343427 31739 layer_factory.hpp:74] Creating layer inception_3b/relu_5x5_reduce
I1215 13:10:48.343446 31739 net.cpp:84] Creating Layer inception_3b/relu_5x5_reduce
I1215 13:10:48.343451 31739 net.cpp:380] inception_3b/relu_5x5_reduce <- inception_3b/5x5_reduce
I1215 13:10:48.343461 31739 net.cpp:327] inception_3b/relu_5x5_reduce -> inception_3b/5x5_reduce (in-place)
I1215 13:10:48.343469 31739 net.cpp:113] Setting up inception_3b/relu_5x5_reduce
I1215 13:10:48.343544 31739 net.cpp:120] Top shape: 128 32 28 28 (3211264)
I1215 13:10:48.343549 31739 layer_factory.hpp:74] Creating layer inception_3b/5x5
I1215 13:10:48.343559 31739 net.cpp:84] Creating Layer inception_3b/5x5
I1215 13:10:48.343565 31739 net.cpp:380] inception_3b/5x5 <- inception_3b/5x5_reduce
I1215 13:10:48.343572 31739 net.cpp:338] inception_3b/5x5 -> inception_3b/5x5
I1215 13:10:48.343586 31739 net.cpp:113] Setting up inception_3b/5x5
I1215 13:10:48.344981 31739 net.cpp:120] Top shape: 128 96 28 28 (9633792)
I1215 13:10:48.344997 31739 layer_factory.hpp:74] Creating layer inception_3b/relu_5x5
I1215 13:10:48.345015 31739 net.cpp:84] Creating Layer inception_3b/relu_5x5
I1215 13:10:48.345019 31739 net.cpp:380] inception_3b/relu_5x5 <- inception_3b/5x5
I1215 13:10:48.345026 31739 net.cpp:327] inception_3b/relu_5x5 -> inception_3b/5x5 (in-place)
I1215 13:10:48.345036 31739 net.cpp:113] Setting up inception_3b/relu_5x5
I1215 13:10:48.345298 31739 net.cpp:120] Top shape: 128 96 28 28 (9633792)
I1215 13:10:48.345310 31739 layer_factory.hpp:74] Creating layer inception_3b/pool
I1215 13:10:48.345316 31739 layer_factory.cpp:56] CUDNN does not support padding or multiple tops. Using Caffe's own pooling layer.
I1215 13:10:48.345324 31739 net.cpp:84] Creating Layer inception_3b/pool
I1215 13:10:48.345330 31739 net.cpp:380] inception_3b/pool <- inception_3a/output_inception_3a/output_0_split_3
I1215 13:10:48.345345 31739 net.cpp:338] inception_3b/pool -> inception_3b/pool
I1215 13:10:48.345355 31739 net.cpp:113] Setting up inception_3b/pool
I1215 13:10:48.345363 31739 net.cpp:120] Top shape: 128 256 28 28 (25690112)
I1215 13:10:48.345368 31739 layer_factory.hpp:74] Creating layer inception_3b/pool_proj
I1215 13:10:48.345378 31739 net.cpp:84] Creating Layer inception_3b/pool_proj
I1215 13:10:48.345383 31739 net.cpp:380] inception_3b/pool_proj <- inception_3b/pool
I1215 13:10:48.345391 31739 net.cpp:338] inception_3b/pool_proj -> inception_3b/pool_proj
I1215 13:10:48.345397 31739 net.cpp:113] Setting up inception_3b/pool_proj
I1215 13:10:48.346261 31739 net.cpp:120] Top shape: 128 64 28 28 (6422528)
I1215 13:10:48.346284 31739 layer_factory.hpp:74] Creating layer inception_3b/relu_pool_proj
I1215 13:10:48.346298 31739 net.cpp:84] Creating Layer inception_3b/relu_pool_proj
I1215 13:10:48.346312 31739 net.cpp:380] inception_3b/relu_pool_proj <- inception_3b/pool_proj
I1215 13:10:48.346321 31739 net.cpp:327] inception_3b/relu_pool_proj -> inception_3b/pool_proj (in-place)
I1215 13:10:48.346329 31739 net.cpp:113] Setting up inception_3b/relu_pool_proj
I1215 13:10:48.346402 31739 net.cpp:120] Top shape: 128 64 28 28 (6422528)
I1215 13:10:48.346410 31739 layer_factory.hpp:74] Creating layer inception_3b/output
I1215 13:10:48.346422 31739 net.cpp:84] Creating Layer inception_3b/output
I1215 13:10:48.346427 31739 net.cpp:380] inception_3b/output <- inception_3b/1x1
I1215 13:10:48.346433 31739 net.cpp:380] inception_3b/output <- inception_3b/3x3
I1215 13:10:48.346438 31739 net.cpp:380] inception_3b/output <- inception_3b/5x5
I1215 13:10:48.346443 31739 net.cpp:380] inception_3b/output <- inception_3b/pool_proj
I1215 13:10:48.346451 31739 net.cpp:338] inception_3b/output -> inception_3b/output
I1215 13:10:48.346457 31739 net.cpp:113] Setting up inception_3b/output
I1215 13:10:48.346464 31739 net.cpp:120] Top shape: 128 480 28 28 (48168960)
I1215 13:10:48.346469 31739 layer_factory.hpp:74] Creating layer pool3/3x3_s2
I1215 13:10:48.346478 31739 net.cpp:84] Creating Layer pool3/3x3_s2
I1215 13:10:48.346483 31739 net.cpp:380] pool3/3x3_s2 <- inception_3b/output
I1215 13:10:48.346489 31739 net.cpp:338] pool3/3x3_s2 -> pool3/3x3_s2
I1215 13:10:48.346495 31739 net.cpp:113] Setting up pool3/3x3_s2
I1215 13:10:48.346566 31739 net.cpp:120] Top shape: 128 480 14 14 (12042240)
I1215 13:10:48.346575 31739 layer_factory.hpp:74] Creating layer pool3/3x3_s2_pool3/3x3_s2_0_split
I1215 13:10:48.346581 31739 net.cpp:84] Creating Layer pool3/3x3_s2_pool3/3x3_s2_0_split
I1215 13:10:48.346586 31739 net.cpp:380] pool3/3x3_s2_pool3/3x3_s2_0_split <- pool3/3x3_s2
I1215 13:10:48.346592 31739 net.cpp:338] pool3/3x3_s2_pool3/3x3_s2_0_split -> pool3/3x3_s2_pool3/3x3_s2_0_split_0
I1215 13:10:48.346599 31739 net.cpp:338] pool3/3x3_s2_pool3/3x3_s2_0_split -> pool3/3x3_s2_pool3/3x3_s2_0_split_1
I1215 13:10:48.346606 31739 net.cpp:338] pool3/3x3_s2_pool3/3x3_s2_0_split -> pool3/3x3_s2_pool3/3x3_s2_0_split_2
I1215 13:10:48.346613 31739 net.cpp:338] pool3/3x3_s2_pool3/3x3_s2_0_split -> pool3/3x3_s2_pool3/3x3_s2_0_split_3
I1215 13:10:48.346619 31739 net.cpp:113] Setting up pool3/3x3_s2_pool3/3x3_s2_0_split
I1215 13:10:48.346627 31739 net.cpp:120] Top shape: 128 480 14 14 (12042240)
I1215 13:10:48.346632 31739 net.cpp:120] Top shape: 128 480 14 14 (12042240)
I1215 13:10:48.346637 31739 net.cpp:120] Top shape: 128 480 14 14 (12042240)
I1215 13:10:48.346642 31739 net.cpp:120] Top shape: 128 480 14 14 (12042240)
I1215 13:10:48.346647 31739 layer_factory.hpp:74] Creating layer inception_4a/1x1
I1215 13:10:48.346662 31739 net.cpp:84] Creating Layer inception_4a/1x1
I1215 13:10:48.346668 31739 net.cpp:380] inception_4a/1x1 <- pool3/3x3_s2_pool3/3x3_s2_0_split_0
I1215 13:10:48.346674 31739 net.cpp:338] inception_4a/1x1 -> inception_4a/1x1
I1215 13:10:48.346683 31739 net.cpp:113] Setting up inception_4a/1x1
I1215 13:10:48.348176 31739 net.cpp:120] Top shape: 128 192 14 14 (4816896)
I1215 13:10:48.348191 31739 layer_factory.hpp:74] Creating layer inception_4a/relu_1x1
I1215 13:10:48.348211 31739 net.cpp:84] Creating Layer inception_4a/relu_1x1
I1215 13:10:48.348217 31739 net.cpp:380] inception_4a/relu_1x1 <- inception_4a/1x1
I1215 13:10:48.348223 31739 net.cpp:327] inception_4a/relu_1x1 -> inception_4a/1x1 (in-place)
I1215 13:10:48.348232 31739 net.cpp:113] Setting up inception_4a/relu_1x1
I1215 13:10:48.348474 31739 net.cpp:120] Top shape: 128 192 14 14 (4816896)
I1215 13:10:48.348484 31739 layer_factory.hpp:74] Creating layer inception_4a/3x3_reduce
I1215 13:10:48.348494 31739 net.cpp:84] Creating Layer inception_4a/3x3_reduce
I1215 13:10:48.348500 31739 net.cpp:380] inception_4a/3x3_reduce <- pool3/3x3_s2_pool3/3x3_s2_0_split_1
I1215 13:10:48.348510 31739 net.cpp:338] inception_4a/3x3_reduce -> inception_4a/3x3_reduce
I1215 13:10:48.348523 31739 net.cpp:113] Setting up inception_4a/3x3_reduce
I1215 13:10:48.349515 31739 net.cpp:120] Top shape: 128 96 14 14 (2408448)
I1215 13:10:48.349537 31739 layer_factory.hpp:74] Creating layer inception_4a/relu_3x3_reduce
I1215 13:10:48.349547 31739 net.cpp:84] Creating Layer inception_4a/relu_3x3_reduce
I1215 13:10:48.349553 31739 net.cpp:380] inception_4a/relu_3x3_reduce <- inception_4a/3x3_reduce
I1215 13:10:48.349560 31739 net.cpp:327] inception_4a/relu_3x3_reduce -> inception_4a/3x3_reduce (in-place)
I1215 13:10:48.349568 31739 net.cpp:113] Setting up inception_4a/relu_3x3_reduce
I1215 13:10:48.349637 31739 net.cpp:120] Top shape: 128 96 14 14 (2408448)
I1215 13:10:48.349642 31739 layer_factory.hpp:74] Creating layer inception_4a/3x3
I1215 13:10:48.349661 31739 net.cpp:84] Creating Layer inception_4a/3x3
I1215 13:10:48.349666 31739 net.cpp:380] inception_4a/3x3 <- inception_4a/3x3_reduce
I1215 13:10:48.349674 31739 net.cpp:338] inception_4a/3x3 -> inception_4a/3x3
I1215 13:10:48.349683 31739 net.cpp:113] Setting up inception_4a/3x3
I1215 13:10:48.352360 31739 net.cpp:120] Top shape: 128 208 14 14 (5218304)
I1215 13:10:48.352376 31739 layer_factory.hpp:74] Creating layer inception_4a/relu_3x3
I1215 13:10:48.352393 31739 net.cpp:84] Creating Layer inception_4a/relu_3x3
I1215 13:10:48.352399 31739 net.cpp:380] inception_4a/relu_3x3 <- inception_4a/3x3
I1215 13:10:48.352406 31739 net.cpp:327] inception_4a/relu_3x3 -> inception_4a/3x3 (in-place)
I1215 13:10:48.352413 31739 net.cpp:113] Setting up inception_4a/relu_3x3
I1215 13:10:48.352483 31739 net.cpp:120] Top shape: 128 208 14 14 (5218304)
I1215 13:10:48.352489 31739 layer_factory.hpp:74] Creating layer inception_4a/5x5_reduce
I1215 13:10:48.352499 31739 net.cpp:84] Creating Layer inception_4a/5x5_reduce
I1215 13:10:48.352504 31739 net.cpp:380] inception_4a/5x5_reduce <- pool3/3x3_s2_pool3/3x3_s2_0_split_2
I1215 13:10:48.352514 31739 net.cpp:338] inception_4a/5x5_reduce -> inception_4a/5x5_reduce
I1215 13:10:48.352524 31739 net.cpp:113] Setting up inception_4a/5x5_reduce
I1215 13:10:48.353013 31739 net.cpp:120] Top shape: 128 16 14 14 (401408)
I1215 13:10:48.353027 31739 layer_factory.hpp:74] Creating layer inception_4a/relu_5x5_reduce
I1215 13:10:48.353035 31739 net.cpp:84] Creating Layer inception_4a/relu_5x5_reduce
I1215 13:10:48.353041 31739 net.cpp:380] inception_4a/relu_5x5_reduce <- inception_4a/5x5_reduce
I1215 13:10:48.353049 31739 net.cpp:327] inception_4a/relu_5x5_reduce -> inception_4a/5x5_reduce (in-place)
I1215 13:10:48.353071 31739 net.cpp:113] Setting up inception_4a/relu_5x5_reduce
I1215 13:10:48.353143 31739 net.cpp:120] Top shape: 128 16 14 14 (401408)
I1215 13:10:48.353149 31739 layer_factory.hpp:74] Creating layer inception_4a/5x5
I1215 13:10:48.353168 31739 net.cpp:84] Creating Layer inception_4a/5x5
I1215 13:10:48.353173 31739 net.cpp:380] inception_4a/5x5 <- inception_4a/5x5_reduce
I1215 13:10:48.353183 31739 net.cpp:338] inception_4a/5x5 -> inception_4a/5x5
I1215 13:10:48.353190 31739 net.cpp:113] Setting up inception_4a/5x5
I1215 13:10:48.353835 31739 net.cpp:120] Top shape: 128 48 14 14 (1204224)
I1215 13:10:48.353850 31739 layer_factory.hpp:74] Creating layer inception_4a/relu_5x5
I1215 13:10:48.353866 31739 net.cpp:84] Creating Layer inception_4a/relu_5x5
I1215 13:10:48.353873 31739 net.cpp:380] inception_4a/relu_5x5 <- inception_4a/5x5
I1215 13:10:48.353881 31739 net.cpp:327] inception_4a/relu_5x5 -> inception_4a/5x5 (in-place)
I1215 13:10:48.353888 31739 net.cpp:113] Setting up inception_4a/relu_5x5
I1215 13:10:48.354130 31739 net.cpp:120] Top shape: 128 48 14 14 (1204224)
I1215 13:10:48.354141 31739 layer_factory.hpp:74] Creating layer inception_4a/pool
I1215 13:10:48.354147 31739 layer_factory.cpp:56] CUDNN does not support padding or multiple tops. Using Caffe's own pooling layer.
I1215 13:10:48.354156 31739 net.cpp:84] Creating Layer inception_4a/pool
I1215 13:10:48.354161 31739 net.cpp:380] inception_4a/pool <- pool3/3x3_s2_pool3/3x3_s2_0_split_3
I1215 13:10:48.354171 31739 net.cpp:338] inception_4a/pool -> inception_4a/pool
I1215 13:10:48.354185 31739 net.cpp:113] Setting up inception_4a/pool
I1215 13:10:48.354202 31739 net.cpp:120] Top shape: 128 480 14 14 (12042240)
I1215 13:10:48.354207 31739 layer_factory.hpp:74] Creating layer inception_4a/pool_proj
I1215 13:10:48.354215 31739 net.cpp:84] Creating Layer inception_4a/pool_proj
I1215 13:10:48.354220 31739 net.cpp:380] inception_4a/pool_proj <- inception_4a/pool
I1215 13:10:48.354236 31739 net.cpp:338] inception_4a/pool_proj -> inception_4a/pool_proj
I1215 13:10:48.354245 31739 net.cpp:113] Setting up inception_4a/pool_proj
I1215 13:10:48.355017 31739 net.cpp:120] Top shape: 128 64 14 14 (1605632)
I1215 13:10:48.355033 31739 layer_factory.hpp:74] Creating layer inception_4a/relu_pool_proj
I1215 13:10:48.355049 31739 net.cpp:84] Creating Layer inception_4a/relu_pool_proj
I1215 13:10:48.355054 31739 net.cpp:380] inception_4a/relu_pool_proj <- inception_4a/pool_proj
I1215 13:10:48.355062 31739 net.cpp:327] inception_4a/relu_pool_proj -> inception_4a/pool_proj (in-place)
I1215 13:10:48.355069 31739 net.cpp:113] Setting up inception_4a/relu_pool_proj
I1215 13:10:48.355142 31739 net.cpp:120] Top shape: 128 64 14 14 (1605632)
I1215 13:10:48.355149 31739 layer_factory.hpp:74] Creating layer inception_4a/output
I1215 13:10:48.355155 31739 net.cpp:84] Creating Layer inception_4a/output
I1215 13:10:48.355160 31739 net.cpp:380] inception_4a/output <- inception_4a/1x1
I1215 13:10:48.355165 31739 net.cpp:380] inception_4a/output <- inception_4a/3x3
I1215 13:10:48.355171 31739 net.cpp:380] inception_4a/output <- inception_4a/5x5
I1215 13:10:48.355176 31739 net.cpp:380] inception_4a/output <- inception_4a/pool_proj
I1215 13:10:48.355185 31739 net.cpp:338] inception_4a/output -> inception_4a/output
I1215 13:10:48.355191 31739 net.cpp:113] Setting up inception_4a/output
I1215 13:10:48.355200 31739 net.cpp:120] Top shape: 128 512 14 14 (12845056)
I1215 13:10:48.355211 31739 layer_factory.hpp:74] Creating layer inception_4a/output_inception_4a/output_0_split
I1215 13:10:48.355216 31739 net.cpp:84] Creating Layer inception_4a/output_inception_4a/output_0_split
I1215 13:10:48.355221 31739 net.cpp:380] inception_4a/output_inception_4a/output_0_split <- inception_4a/output
I1215 13:10:48.355228 31739 net.cpp:338] inception_4a/output_inception_4a/output_0_split -> inception_4a/output_inception_4a/output_0_split_0
I1215 13:10:48.355236 31739 net.cpp:338] inception_4a/output_inception_4a/output_0_split -> inception_4a/output_inception_4a/output_0_split_1
I1215 13:10:48.355245 31739 net.cpp:338] inception_4a/output_inception_4a/output_0_split -> inception_4a/output_inception_4a/output_0_split_2
I1215 13:10:48.355252 31739 net.cpp:338] inception_4a/output_inception_4a/output_0_split -> inception_4a/output_inception_4a/output_0_split_3
I1215 13:10:48.355259 31739 net.cpp:338] inception_4a/output_inception_4a/output_0_split -> inception_4a/output_inception_4a/output_0_split_4
I1215 13:10:48.355265 31739 net.cpp:113] Setting up inception_4a/output_inception_4a/output_0_split
I1215 13:10:48.355273 31739 net.cpp:120] Top shape: 128 512 14 14 (12845056)
I1215 13:10:48.355278 31739 net.cpp:120] Top shape: 128 512 14 14 (12845056)
I1215 13:10:48.355284 31739 net.cpp:120] Top shape: 128 512 14 14 (12845056)
I1215 13:10:48.355289 31739 net.cpp:120] Top shape: 128 512 14 14 (12845056)
I1215 13:10:48.355294 31739 net.cpp:120] Top shape: 128 512 14 14 (12845056)
I1215 13:10:48.355298 31739 layer_factory.hpp:74] Creating layer loss1/ave_pool
I1215 13:10:48.355306 31739 net.cpp:84] Creating Layer loss1/ave_pool
I1215 13:10:48.355311 31739 net.cpp:380] loss1/ave_pool <- inception_4a/output_inception_4a/output_0_split_0
I1215 13:10:48.355317 31739 net.cpp:338] loss1/ave_pool -> loss1/ave_pool
I1215 13:10:48.355324 31739 net.cpp:113] Setting up loss1/ave_pool
I1215 13:10:48.355393 31739 net.cpp:120] Top shape: 128 512 4 4 (1048576)
I1215 13:10:48.355399 31739 layer_factory.hpp:74] Creating layer loss1/conv
I1215 13:10:48.355413 31739 net.cpp:84] Creating Layer loss1/conv
I1215 13:10:48.355418 31739 net.cpp:380] loss1/conv <- loss1/ave_pool
I1215 13:10:48.355433 31739 net.cpp:338] loss1/conv -> loss1/conv
I1215 13:10:48.355450 31739 net.cpp:113] Setting up loss1/conv
I1215 13:10:48.356633 31739 net.cpp:120] Top shape: 128 128 4 4 (262144)
I1215 13:10:48.356652 31739 layer_factory.hpp:74] Creating layer loss1/relu_conv
I1215 13:10:48.356676 31739 net.cpp:84] Creating Layer loss1/relu_conv
I1215 13:10:48.356683 31739 net.cpp:380] loss1/relu_conv <- loss1/conv
I1215 13:10:48.356689 31739 net.cpp:327] loss1/relu_conv -> loss1/conv (in-place)
I1215 13:10:48.356696 31739 net.cpp:113] Setting up loss1/relu_conv
I1215 13:10:48.356771 31739 net.cpp:120] Top shape: 128 128 4 4 (262144)
I1215 13:10:48.356786 31739 layer_factory.hpp:74] Creating layer loss1/fc
I1215 13:10:48.356801 31739 net.cpp:84] Creating Layer loss1/fc
I1215 13:10:48.356809 31739 net.cpp:380] loss1/fc <- loss1/conv
I1215 13:10:48.356817 31739 net.cpp:338] loss1/fc -> loss1/fc
I1215 13:10:48.356827 31739 net.cpp:113] Setting up loss1/fc
I1215 13:10:48.379997 31739 net.cpp:120] Top shape: 128 1024 (131072)
I1215 13:10:48.380030 31739 layer_factory.hpp:74] Creating layer loss1/relu_fc
I1215 13:10:48.380043 31739 net.cpp:84] Creating Layer loss1/relu_fc
I1215 13:10:48.380049 31739 net.cpp:380] loss1/relu_fc <- loss1/fc
I1215 13:10:48.380060 31739 net.cpp:327] loss1/relu_fc -> loss1/fc (in-place)
I1215 13:10:48.380070 31739 net.cpp:113] Setting up loss1/relu_fc
I1215 13:10:48.386097 31739 net.cpp:120] Top shape: 128 1024 (131072)
I1215 13:10:48.386126 31739 layer_factory.hpp:74] Creating layer loss1/drop_fc
I1215 13:10:48.386171 31739 net.cpp:84] Creating Layer loss1/drop_fc
I1215 13:10:48.386183 31739 net.cpp:380] loss1/drop_fc <- loss1/fc
I1215 13:10:48.386198 31739 net.cpp:327] loss1/drop_fc -> loss1/fc (in-place)
I1215 13:10:48.386215 31739 net.cpp:113] Setting up loss1/drop_fc
I1215 13:10:48.386231 31739 net.cpp:120] Top shape: 128 1024 (131072)
I1215 13:10:48.386240 31739 layer_factory.hpp:74] Creating layer loss1/classifier_kaggle
I1215 13:10:48.386255 31739 net.cpp:84] Creating Layer loss1/classifier_kaggle
I1215 13:10:48.386271 31739 net.cpp:380] loss1/classifier_kaggle <- loss1/fc
I1215 13:10:48.386279 31739 net.cpp:338] loss1/classifier_kaggle -> loss1/classifier_kaggle
I1215 13:10:48.386288 31739 net.cpp:113] Setting up loss1/classifier_kaggle
I1215 13:10:48.391722 31739 net.cpp:120] Top shape: 128 447 (57216)
I1215 13:10:48.391737 31739 layer_factory.hpp:74] Creating layer loss1/loss
I1215 13:10:48.391747 31739 net.cpp:84] Creating Layer loss1/loss
I1215 13:10:48.391753 31739 net.cpp:380] loss1/loss <- loss1/classifier_kaggle
I1215 13:10:48.391760 31739 net.cpp:380] loss1/loss <- label_data_1_split_0
I1215 13:10:48.391767 31739 net.cpp:338] loss1/loss -> loss1/loss1
I1215 13:10:48.391775 31739 net.cpp:113] Setting up loss1/loss
I1215 13:10:48.391784 31739 layer_factory.hpp:74] Creating layer loss1/loss
I1215 13:10:48.392024 31739 net.cpp:120] Top shape: (1)
I1215 13:10:48.392032 31739 net.cpp:122]     with loss weight 0.3
I1215 13:10:48.392060 31739 layer_factory.hpp:74] Creating layer inception_4b/1x1
I1215 13:10:48.392077 31739 net.cpp:84] Creating Layer inception_4b/1x1
I1215 13:10:48.392083 31739 net.cpp:380] inception_4b/1x1 <- inception_4a/output_inception_4a/output_0_split_1
I1215 13:10:48.392091 31739 net.cpp:338] inception_4b/1x1 -> inception_4b/1x1
I1215 13:10:48.392099 31739 net.cpp:113] Setting up inception_4b/1x1
I1215 13:10:48.396809 31739 net.cpp:120] Top shape: 128 160 14 14 (4014080)
I1215 13:10:48.396831 31739 layer_factory.hpp:74] Creating layer inception_4b/relu_1x1
I1215 13:10:48.396852 31739 net.cpp:84] Creating Layer inception_4b/relu_1x1
I1215 13:10:48.396860 31739 net.cpp:380] inception_4b/relu_1x1 <- inception_4b/1x1
I1215 13:10:48.396868 31739 net.cpp:327] inception_4b/relu_1x1 -> inception_4b/1x1 (in-place)
I1215 13:10:48.396878 31739 net.cpp:113] Setting up inception_4b/relu_1x1
I1215 13:10:48.396958 31739 net.cpp:120] Top shape: 128 160 14 14 (4014080)
I1215 13:10:48.396966 31739 layer_factory.hpp:74] Creating layer inception_4b/3x3_reduce
I1215 13:10:48.396986 31739 net.cpp:84] Creating Layer inception_4b/3x3_reduce
I1215 13:10:48.397004 31739 net.cpp:380] inception_4b/3x3_reduce <- inception_4a/output_inception_4a/output_0_split_2
I1215 13:10:48.397016 31739 net.cpp:338] inception_4b/3x3_reduce -> inception_4b/3x3_reduce
I1215 13:10:48.397024 31739 net.cpp:113] Setting up inception_4b/3x3_reduce
I1215 13:10:48.398156 31739 net.cpp:120] Top shape: 128 112 14 14 (2809856)
I1215 13:10:48.398174 31739 layer_factory.hpp:74] Creating layer inception_4b/relu_3x3_reduce
I1215 13:10:48.398183 31739 net.cpp:84] Creating Layer inception_4b/relu_3x3_reduce
I1215 13:10:48.398190 31739 net.cpp:380] inception_4b/relu_3x3_reduce <- inception_4b/3x3_reduce
I1215 13:10:48.398196 31739 net.cpp:327] inception_4b/relu_3x3_reduce -> inception_4b/3x3_reduce (in-place)
I1215 13:10:48.398205 31739 net.cpp:113] Setting up inception_4b/relu_3x3_reduce
I1215 13:10:48.398279 31739 net.cpp:120] Top shape: 128 112 14 14 (2809856)
I1215 13:10:48.398294 31739 layer_factory.hpp:74] Creating layer inception_4b/3x3
I1215 13:10:48.398310 31739 net.cpp:84] Creating Layer inception_4b/3x3
I1215 13:10:48.398316 31739 net.cpp:380] inception_4b/3x3 <- inception_4b/3x3_reduce
I1215 13:10:48.398325 31739 net.cpp:338] inception_4b/3x3 -> inception_4b/3x3
I1215 13:10:48.398334 31739 net.cpp:113] Setting up inception_4b/3x3
I1215 13:10:48.401414 31739 net.cpp:120] Top shape: 128 224 14 14 (5619712)
I1215 13:10:48.401432 31739 layer_factory.hpp:74] Creating layer inception_4b/relu_3x3
I1215 13:10:48.401438 31739 net.cpp:84] Creating Layer inception_4b/relu_3x3
I1215 13:10:48.401444 31739 net.cpp:380] inception_4b/relu_3x3 <- inception_4b/3x3
I1215 13:10:48.401451 31739 net.cpp:327] inception_4b/relu_3x3 -> inception_4b/3x3 (in-place)
I1215 13:10:48.401459 31739 net.cpp:113] Setting up inception_4b/relu_3x3
I1215 13:10:48.401707 31739 net.cpp:120] Top shape: 128 224 14 14 (5619712)
I1215 13:10:48.401718 31739 layer_factory.hpp:74] Creating layer inception_4b/5x5_reduce
I1215 13:10:48.401729 31739 net.cpp:84] Creating Layer inception_4b/5x5_reduce
I1215 13:10:48.401736 31739 net.cpp:380] inception_4b/5x5_reduce <- inception_4a/output_inception_4a/output_0_split_3
I1215 13:10:48.401744 31739 net.cpp:338] inception_4b/5x5_reduce -> inception_4b/5x5_reduce
I1215 13:10:48.401752 31739 net.cpp:113] Setting up inception_4b/5x5_reduce
I1215 13:10:48.402330 31739 net.cpp:120] Top shape: 128 24 14 14 (602112)
I1215 13:10:48.402346 31739 layer_factory.hpp:74] Creating layer inception_4b/relu_5x5_reduce
I1215 13:10:48.402355 31739 net.cpp:84] Creating Layer inception_4b/relu_5x5_reduce
I1215 13:10:48.402361 31739 net.cpp:380] inception_4b/relu_5x5_reduce <- inception_4b/5x5_reduce
I1215 13:10:48.402369 31739 net.cpp:327] inception_4b/relu_5x5_reduce -> inception_4b/5x5_reduce (in-place)
I1215 13:10:48.402376 31739 net.cpp:113] Setting up inception_4b/relu_5x5_reduce
I1215 13:10:48.402448 31739 net.cpp:120] Top shape: 128 24 14 14 (602112)
I1215 13:10:48.402454 31739 layer_factory.hpp:74] Creating layer inception_4b/5x5
I1215 13:10:48.402470 31739 net.cpp:84] Creating Layer inception_4b/5x5
I1215 13:10:48.402475 31739 net.cpp:380] inception_4b/5x5 <- inception_4b/5x5_reduce
I1215 13:10:48.402484 31739 net.cpp:338] inception_4b/5x5 -> inception_4b/5x5
I1215 13:10:48.402493 31739 net.cpp:113] Setting up inception_4b/5x5
I1215 13:10:48.403362 31739 net.cpp:120] Top shape: 128 64 14 14 (1605632)
I1215 13:10:48.403385 31739 layer_factory.hpp:74] Creating layer inception_4b/relu_5x5
I1215 13:10:48.403393 31739 net.cpp:84] Creating Layer inception_4b/relu_5x5
I1215 13:10:48.403399 31739 net.cpp:380] inception_4b/relu_5x5 <- inception_4b/5x5
I1215 13:10:48.403409 31739 net.cpp:327] inception_4b/relu_5x5 -> inception_4b/5x5 (in-place)
I1215 13:10:48.403415 31739 net.cpp:113] Setting up inception_4b/relu_5x5
I1215 13:10:48.403483 31739 net.cpp:120] Top shape: 128 64 14 14 (1605632)
I1215 13:10:48.403491 31739 layer_factory.hpp:74] Creating layer inception_4b/pool
I1215 13:10:48.403497 31739 layer_factory.cpp:56] CUDNN does not support padding or multiple tops. Using Caffe's own pooling layer.
I1215 13:10:48.403517 31739 net.cpp:84] Creating Layer inception_4b/pool
I1215 13:10:48.403523 31739 net.cpp:380] inception_4b/pool <- inception_4a/output_inception_4a/output_0_split_4
I1215 13:10:48.403534 31739 net.cpp:338] inception_4b/pool -> inception_4b/pool
I1215 13:10:48.403551 31739 net.cpp:113] Setting up inception_4b/pool
I1215 13:10:48.403563 31739 net.cpp:120] Top shape: 128 512 14 14 (12845056)
I1215 13:10:48.403566 31739 layer_factory.hpp:74] Creating layer inception_4b/pool_proj
I1215 13:10:48.403584 31739 net.cpp:84] Creating Layer inception_4b/pool_proj
I1215 13:10:48.403589 31739 net.cpp:380] inception_4b/pool_proj <- inception_4b/pool
I1215 13:10:48.403597 31739 net.cpp:338] inception_4b/pool_proj -> inception_4b/pool_proj
I1215 13:10:48.403606 31739 net.cpp:113] Setting up inception_4b/pool_proj
I1215 13:10:48.404409 31739 net.cpp:120] Top shape: 128 64 14 14 (1605632)
I1215 13:10:48.404425 31739 layer_factory.hpp:74] Creating layer inception_4b/relu_pool_proj
I1215 13:10:48.404434 31739 net.cpp:84] Creating Layer inception_4b/relu_pool_proj
I1215 13:10:48.404440 31739 net.cpp:380] inception_4b/relu_pool_proj <- inception_4b/pool_proj
I1215 13:10:48.404448 31739 net.cpp:327] inception_4b/relu_pool_proj -> inception_4b/pool_proj (in-place)
I1215 13:10:48.404454 31739 net.cpp:113] Setting up inception_4b/relu_pool_proj
I1215 13:10:48.404700 31739 net.cpp:120] Top shape: 128 64 14 14 (1605632)
I1215 13:10:48.404711 31739 layer_factory.hpp:74] Creating layer inception_4b/output
I1215 13:10:48.404728 31739 net.cpp:84] Creating Layer inception_4b/output
I1215 13:10:48.404734 31739 net.cpp:380] inception_4b/output <- inception_4b/1x1
I1215 13:10:48.404741 31739 net.cpp:380] inception_4b/output <- inception_4b/3x3
I1215 13:10:48.404747 31739 net.cpp:380] inception_4b/output <- inception_4b/5x5
I1215 13:10:48.404752 31739 net.cpp:380] inception_4b/output <- inception_4b/pool_proj
I1215 13:10:48.404757 31739 net.cpp:338] inception_4b/output -> inception_4b/output
I1215 13:10:48.404765 31739 net.cpp:113] Setting up inception_4b/output
I1215 13:10:48.404774 31739 net.cpp:120] Top shape: 128 512 14 14 (12845056)
I1215 13:10:48.404783 31739 layer_factory.hpp:74] Creating layer inception_4b/output_inception_4b/output_0_split
I1215 13:10:48.404789 31739 net.cpp:84] Creating Layer inception_4b/output_inception_4b/output_0_split
I1215 13:10:48.404794 31739 net.cpp:380] inception_4b/output_inception_4b/output_0_split <- inception_4b/output
I1215 13:10:48.404800 31739 net.cpp:338] inception_4b/output_inception_4b/output_0_split -> inception_4b/output_inception_4b/output_0_split_0
I1215 13:10:48.404808 31739 net.cpp:338] inception_4b/output_inception_4b/output_0_split -> inception_4b/output_inception_4b/output_0_split_1
I1215 13:10:48.404815 31739 net.cpp:338] inception_4b/output_inception_4b/output_0_split -> inception_4b/output_inception_4b/output_0_split_2
I1215 13:10:48.404822 31739 net.cpp:338] inception_4b/output_inception_4b/output_0_split -> inception_4b/output_inception_4b/output_0_split_3
I1215 13:10:48.404829 31739 net.cpp:113] Setting up inception_4b/output_inception_4b/output_0_split
I1215 13:10:48.404836 31739 net.cpp:120] Top shape: 128 512 14 14 (12845056)
I1215 13:10:48.404841 31739 net.cpp:120] Top shape: 128 512 14 14 (12845056)
I1215 13:10:48.404846 31739 net.cpp:120] Top shape: 128 512 14 14 (12845056)
I1215 13:10:48.404851 31739 net.cpp:120] Top shape: 128 512 14 14 (12845056)
I1215 13:10:48.404856 31739 layer_factory.hpp:74] Creating layer inception_4c/1x1
I1215 13:10:48.404867 31739 net.cpp:84] Creating Layer inception_4c/1x1
I1215 13:10:48.404872 31739 net.cpp:380] inception_4c/1x1 <- inception_4b/output_inception_4b/output_0_split_0
I1215 13:10:48.404881 31739 net.cpp:338] inception_4c/1x1 -> inception_4c/1x1
I1215 13:10:48.404888 31739 net.cpp:113] Setting up inception_4c/1x1
I1215 13:10:48.406086 31739 net.cpp:120] Top shape: 128 128 14 14 (3211264)
I1215 13:10:48.406105 31739 layer_factory.hpp:74] Creating layer inception_4c/relu_1x1
I1215 13:10:48.406128 31739 net.cpp:84] Creating Layer inception_4c/relu_1x1
I1215 13:10:48.406142 31739 net.cpp:380] inception_4c/relu_1x1 <- inception_4c/1x1
I1215 13:10:48.406150 31739 net.cpp:327] inception_4c/relu_1x1 -> inception_4c/1x1 (in-place)
I1215 13:10:48.406158 31739 net.cpp:113] Setting up inception_4c/relu_1x1
I1215 13:10:48.406235 31739 net.cpp:120] Top shape: 128 128 14 14 (3211264)
I1215 13:10:48.406244 31739 layer_factory.hpp:74] Creating layer inception_4c/3x3_reduce
I1215 13:10:48.406260 31739 net.cpp:84] Creating Layer inception_4c/3x3_reduce
I1215 13:10:48.406267 31739 net.cpp:380] inception_4c/3x3_reduce <- inception_4b/output_inception_4b/output_0_split_1
I1215 13:10:48.406275 31739 net.cpp:338] inception_4c/3x3_reduce -> inception_4c/3x3_reduce
I1215 13:10:48.406283 31739 net.cpp:113] Setting up inception_4c/3x3_reduce
I1215 13:10:48.407470 31739 net.cpp:120] Top shape: 128 128 14 14 (3211264)
I1215 13:10:48.407486 31739 layer_factory.hpp:74] Creating layer inception_4c/relu_3x3_reduce
I1215 13:10:48.407493 31739 net.cpp:84] Creating Layer inception_4c/relu_3x3_reduce
I1215 13:10:48.407500 31739 net.cpp:380] inception_4c/relu_3x3_reduce <- inception_4c/3x3_reduce
I1215 13:10:48.407508 31739 net.cpp:327] inception_4c/relu_3x3_reduce -> inception_4c/3x3_reduce (in-place)
I1215 13:10:48.407516 31739 net.cpp:113] Setting up inception_4c/relu_3x3_reduce
I1215 13:10:48.407584 31739 net.cpp:120] Top shape: 128 128 14 14 (3211264)
I1215 13:10:48.407591 31739 layer_factory.hpp:74] Creating layer inception_4c/3x3
I1215 13:10:48.407609 31739 net.cpp:84] Creating Layer inception_4c/3x3
I1215 13:10:48.407614 31739 net.cpp:380] inception_4c/3x3 <- inception_4c/3x3_reduce
I1215 13:10:48.407621 31739 net.cpp:338] inception_4c/3x3 -> inception_4c/3x3
I1215 13:10:48.407629 31739 net.cpp:113] Setting up inception_4c/3x3
I1215 13:10:48.411528 31739 net.cpp:120] Top shape: 128 256 14 14 (6422528)
I1215 13:10:48.411556 31739 layer_factory.hpp:74] Creating layer inception_4c/relu_3x3
I1215 13:10:48.411566 31739 net.cpp:84] Creating Layer inception_4c/relu_3x3
I1215 13:10:48.411571 31739 net.cpp:380] inception_4c/relu_3x3 <- inception_4c/3x3
I1215 13:10:48.411579 31739 net.cpp:327] inception_4c/relu_3x3 -> inception_4c/3x3 (in-place)
I1215 13:10:48.411586 31739 net.cpp:113] Setting up inception_4c/relu_3x3
I1215 13:10:48.411659 31739 net.cpp:120] Top shape: 128 256 14 14 (6422528)
I1215 13:10:48.411665 31739 layer_factory.hpp:74] Creating layer inception_4c/5x5_reduce
I1215 13:10:48.411672 31739 net.cpp:84] Creating Layer inception_4c/5x5_reduce
I1215 13:10:48.411679 31739 net.cpp:380] inception_4c/5x5_reduce <- inception_4b/output_inception_4b/output_0_split_2
I1215 13:10:48.411687 31739 net.cpp:338] inception_4c/5x5_reduce -> inception_4c/5x5_reduce
I1215 13:10:48.411695 31739 net.cpp:113] Setting up inception_4c/5x5_reduce
I1215 13:10:48.412250 31739 net.cpp:120] Top shape: 128 24 14 14 (602112)
I1215 13:10:48.412274 31739 layer_factory.hpp:74] Creating layer inception_4c/relu_5x5_reduce
I1215 13:10:48.412287 31739 net.cpp:84] Creating Layer inception_4c/relu_5x5_reduce
I1215 13:10:48.412292 31739 net.cpp:380] inception_4c/relu_5x5_reduce <- inception_4c/5x5_reduce
I1215 13:10:48.412299 31739 net.cpp:327] inception_4c/relu_5x5_reduce -> inception_4c/5x5_reduce (in-place)
I1215 13:10:48.412307 31739 net.cpp:113] Setting up inception_4c/relu_5x5_reduce
I1215 13:10:48.412554 31739 net.cpp:120] Top shape: 128 24 14 14 (602112)
I1215 13:10:48.412565 31739 layer_factory.hpp:74] Creating layer inception_4c/5x5
I1215 13:10:48.412577 31739 net.cpp:84] Creating Layer inception_4c/5x5
I1215 13:10:48.412583 31739 net.cpp:380] inception_4c/5x5 <- inception_4c/5x5_reduce
I1215 13:10:48.412592 31739 net.cpp:338] inception_4c/5x5 -> inception_4c/5x5
I1215 13:10:48.412601 31739 net.cpp:113] Setting up inception_4c/5x5
I1215 13:10:48.413475 31739 net.cpp:120] Top shape: 128 64 14 14 (1605632)
I1215 13:10:48.413492 31739 layer_factory.hpp:74] Creating layer inception_4c/relu_5x5
I1215 13:10:48.413501 31739 net.cpp:84] Creating Layer inception_4c/relu_5x5
I1215 13:10:48.413512 31739 net.cpp:380] inception_4c/relu_5x5 <- inception_4c/5x5
I1215 13:10:48.413527 31739 net.cpp:327] inception_4c/relu_5x5 -> inception_4c/5x5 (in-place)
I1215 13:10:48.413535 31739 net.cpp:113] Setting up inception_4c/relu_5x5
I1215 13:10:48.413610 31739 net.cpp:120] Top shape: 128 64 14 14 (1605632)
I1215 13:10:48.413616 31739 layer_factory.hpp:74] Creating layer inception_4c/pool
I1215 13:10:48.413621 31739 layer_factory.cpp:56] CUDNN does not support padding or multiple tops. Using Caffe's own pooling layer.
I1215 13:10:48.413631 31739 net.cpp:84] Creating Layer inception_4c/pool
I1215 13:10:48.413636 31739 net.cpp:380] inception_4c/pool <- inception_4b/output_inception_4b/output_0_split_3
I1215 13:10:48.413645 31739 net.cpp:338] inception_4c/pool -> inception_4c/pool
I1215 13:10:48.413653 31739 net.cpp:113] Setting up inception_4c/pool
I1215 13:10:48.413662 31739 net.cpp:120] Top shape: 128 512 14 14 (12845056)
I1215 13:10:48.413666 31739 layer_factory.hpp:74] Creating layer inception_4c/pool_proj
I1215 13:10:48.413687 31739 net.cpp:84] Creating Layer inception_4c/pool_proj
I1215 13:10:48.413693 31739 net.cpp:380] inception_4c/pool_proj <- inception_4c/pool
I1215 13:10:48.413702 31739 net.cpp:338] inception_4c/pool_proj -> inception_4c/pool_proj
I1215 13:10:48.413710 31739 net.cpp:113] Setting up inception_4c/pool_proj
I1215 13:10:48.414510 31739 net.cpp:120] Top shape: 128 64 14 14 (1605632)
I1215 13:10:48.414526 31739 layer_factory.hpp:74] Creating layer inception_4c/relu_pool_proj
I1215 13:10:48.414535 31739 net.cpp:84] Creating Layer inception_4c/relu_pool_proj
I1215 13:10:48.414540 31739 net.cpp:380] inception_4c/relu_pool_proj <- inception_4c/pool_proj
I1215 13:10:48.414548 31739 net.cpp:327] inception_4c/relu_pool_proj -> inception_4c/pool_proj (in-place)
I1215 13:10:48.414556 31739 net.cpp:113] Setting up inception_4c/relu_pool_proj
I1215 13:10:48.414631 31739 net.cpp:120] Top shape: 128 64 14 14 (1605632)
I1215 13:10:48.414638 31739 layer_factory.hpp:74] Creating layer inception_4c/output
I1215 13:10:48.414644 31739 net.cpp:84] Creating Layer inception_4c/output
I1215 13:10:48.414649 31739 net.cpp:380] inception_4c/output <- inception_4c/1x1
I1215 13:10:48.414655 31739 net.cpp:380] inception_4c/output <- inception_4c/3x3
I1215 13:10:48.414660 31739 net.cpp:380] inception_4c/output <- inception_4c/5x5
I1215 13:10:48.414666 31739 net.cpp:380] inception_4c/output <- inception_4c/pool_proj
I1215 13:10:48.414672 31739 net.cpp:338] inception_4c/output -> inception_4c/output
I1215 13:10:48.414680 31739 net.cpp:113] Setting up inception_4c/output
I1215 13:10:48.414686 31739 net.cpp:120] Top shape: 128 512 14 14 (12845056)
I1215 13:10:48.414691 31739 layer_factory.hpp:74] Creating layer inception_4c/output_inception_4c/output_0_split
I1215 13:10:48.414698 31739 net.cpp:84] Creating Layer inception_4c/output_inception_4c/output_0_split
I1215 13:10:48.414702 31739 net.cpp:380] inception_4c/output_inception_4c/output_0_split <- inception_4c/output
I1215 13:10:48.414711 31739 net.cpp:338] inception_4c/output_inception_4c/output_0_split -> inception_4c/output_inception_4c/output_0_split_0
I1215 13:10:48.414718 31739 net.cpp:338] inception_4c/output_inception_4c/output_0_split -> inception_4c/output_inception_4c/output_0_split_1
I1215 13:10:48.414726 31739 net.cpp:338] inception_4c/output_inception_4c/output_0_split -> inception_4c/output_inception_4c/output_0_split_2
I1215 13:10:48.414733 31739 net.cpp:338] inception_4c/output_inception_4c/output_0_split -> inception_4c/output_inception_4c/output_0_split_3
I1215 13:10:48.414739 31739 net.cpp:113] Setting up inception_4c/output_inception_4c/output_0_split
I1215 13:10:48.414748 31739 net.cpp:120] Top shape: 128 512 14 14 (12845056)
I1215 13:10:48.414754 31739 net.cpp:120] Top shape: 128 512 14 14 (12845056)
I1215 13:10:48.414759 31739 net.cpp:120] Top shape: 128 512 14 14 (12845056)
I1215 13:10:48.414764 31739 net.cpp:120] Top shape: 128 512 14 14 (12845056)
I1215 13:10:48.414768 31739 layer_factory.hpp:74] Creating layer inception_4d/1x1
I1215 13:10:48.414790 31739 net.cpp:84] Creating Layer inception_4d/1x1
I1215 13:10:48.414803 31739 net.cpp:380] inception_4d/1x1 <- inception_4c/output_inception_4c/output_0_split_0
I1215 13:10:48.414813 31739 net.cpp:338] inception_4d/1x1 -> inception_4d/1x1
I1215 13:10:48.414821 31739 net.cpp:113] Setting up inception_4d/1x1
I1215 13:10:48.415913 31739 net.cpp:120] Top shape: 128 112 14 14 (2809856)
I1215 13:10:48.415937 31739 layer_factory.hpp:74] Creating layer inception_4d/relu_1x1
I1215 13:10:48.415946 31739 net.cpp:84] Creating Layer inception_4d/relu_1x1
I1215 13:10:48.415951 31739 net.cpp:380] inception_4d/relu_1x1 <- inception_4d/1x1
I1215 13:10:48.415958 31739 net.cpp:327] inception_4d/relu_1x1 -> inception_4d/1x1 (in-place)
I1215 13:10:48.415966 31739 net.cpp:113] Setting up inception_4d/relu_1x1
I1215 13:10:48.416038 31739 net.cpp:120] Top shape: 128 112 14 14 (2809856)
I1215 13:10:48.416044 31739 layer_factory.hpp:74] Creating layer inception_4d/3x3_reduce
I1215 13:10:48.416051 31739 net.cpp:84] Creating Layer inception_4d/3x3_reduce
I1215 13:10:48.416056 31739 net.cpp:380] inception_4d/3x3_reduce <- inception_4c/output_inception_4c/output_0_split_1
I1215 13:10:48.416065 31739 net.cpp:338] inception_4d/3x3_reduce -> inception_4d/3x3_reduce
I1215 13:10:48.416076 31739 net.cpp:113] Setting up inception_4d/3x3_reduce
I1215 13:10:48.417376 31739 net.cpp:120] Top shape: 128 144 14 14 (3612672)
I1215 13:10:48.417395 31739 layer_factory.hpp:74] Creating layer inception_4d/relu_3x3_reduce
I1215 13:10:48.417412 31739 net.cpp:84] Creating Layer inception_4d/relu_3x3_reduce
I1215 13:10:48.417418 31739 net.cpp:380] inception_4d/relu_3x3_reduce <- inception_4d/3x3_reduce
I1215 13:10:48.417424 31739 net.cpp:327] inception_4d/relu_3x3_reduce -> inception_4d/3x3_reduce (in-place)
I1215 13:10:48.417433 31739 net.cpp:113] Setting up inception_4d/relu_3x3_reduce
I1215 13:10:48.417681 31739 net.cpp:120] Top shape: 128 144 14 14 (3612672)
I1215 13:10:48.417692 31739 layer_factory.hpp:74] Creating layer inception_4d/3x3
I1215 13:10:48.417701 31739 net.cpp:84] Creating Layer inception_4d/3x3
I1215 13:10:48.417706 31739 net.cpp:380] inception_4d/3x3 <- inception_4d/3x3_reduce
I1215 13:10:48.417716 31739 net.cpp:338] inception_4d/3x3 -> inception_4d/3x3
I1215 13:10:48.417724 31739 net.cpp:113] Setting up inception_4d/3x3
I1215 13:10:48.422544 31739 net.cpp:120] Top shape: 128 288 14 14 (7225344)
I1215 13:10:48.422564 31739 layer_factory.hpp:74] Creating layer inception_4d/relu_3x3
I1215 13:10:48.422580 31739 net.cpp:84] Creating Layer inception_4d/relu_3x3
I1215 13:10:48.422586 31739 net.cpp:380] inception_4d/relu_3x3 <- inception_4d/3x3
I1215 13:10:48.422593 31739 net.cpp:327] inception_4d/relu_3x3 -> inception_4d/3x3 (in-place)
I1215 13:10:48.422601 31739 net.cpp:113] Setting up inception_4d/relu_3x3
I1215 13:10:48.422677 31739 net.cpp:120] Top shape: 128 288 14 14 (7225344)
I1215 13:10:48.422683 31739 layer_factory.hpp:74] Creating layer inception_4d/5x5_reduce
I1215 13:10:48.422693 31739 net.cpp:84] Creating Layer inception_4d/5x5_reduce
I1215 13:10:48.422698 31739 net.cpp:380] inception_4d/5x5_reduce <- inception_4c/output_inception_4c/output_0_split_2
I1215 13:10:48.422705 31739 net.cpp:338] inception_4d/5x5_reduce -> inception_4d/5x5_reduce
I1215 13:10:48.422713 31739 net.cpp:113] Setting up inception_4d/5x5_reduce
I1215 13:10:48.423324 31739 net.cpp:120] Top shape: 128 32 14 14 (802816)
I1215 13:10:48.423339 31739 layer_factory.hpp:74] Creating layer inception_4d/relu_5x5_reduce
I1215 13:10:48.423355 31739 net.cpp:84] Creating Layer inception_4d/relu_5x5_reduce
I1215 13:10:48.423363 31739 net.cpp:380] inception_4d/relu_5x5_reduce <- inception_4d/5x5_reduce
I1215 13:10:48.423370 31739 net.cpp:327] inception_4d/relu_5x5_reduce -> inception_4d/5x5_reduce (in-place)
I1215 13:10:48.423377 31739 net.cpp:113] Setting up inception_4d/relu_5x5_reduce
I1215 13:10:48.423445 31739 net.cpp:120] Top shape: 128 32 14 14 (802816)
I1215 13:10:48.423451 31739 layer_factory.hpp:74] Creating layer inception_4d/5x5
I1215 13:10:48.423467 31739 net.cpp:84] Creating Layer inception_4d/5x5
I1215 13:10:48.423486 31739 net.cpp:380] inception_4d/5x5 <- inception_4d/5x5_reduce
I1215 13:10:48.423493 31739 net.cpp:338] inception_4d/5x5 -> inception_4d/5x5
I1215 13:10:48.423502 31739 net.cpp:113] Setting up inception_4d/5x5
I1215 13:10:48.424521 31739 net.cpp:120] Top shape: 128 64 14 14 (1605632)
I1215 13:10:48.424536 31739 layer_factory.hpp:74] Creating layer inception_4d/relu_5x5
I1215 13:10:48.424543 31739 net.cpp:84] Creating Layer inception_4d/relu_5x5
I1215 13:10:48.424549 31739 net.cpp:380] inception_4d/relu_5x5 <- inception_4d/5x5
I1215 13:10:48.424558 31739 net.cpp:327] inception_4d/relu_5x5 -> inception_4d/5x5 (in-place)
I1215 13:10:48.424566 31739 net.cpp:113] Setting up inception_4d/relu_5x5
I1215 13:10:48.424635 31739 net.cpp:120] Top shape: 128 64 14 14 (1605632)
I1215 13:10:48.424653 31739 layer_factory.hpp:74] Creating layer inception_4d/pool
I1215 13:10:48.424664 31739 layer_factory.cpp:56] CUDNN does not support padding or multiple tops. Using Caffe's own pooling layer.
I1215 13:10:48.424671 31739 net.cpp:84] Creating Layer inception_4d/pool
I1215 13:10:48.424677 31739 net.cpp:380] inception_4d/pool <- inception_4c/output_inception_4c/output_0_split_3
I1215 13:10:48.424685 31739 net.cpp:338] inception_4d/pool -> inception_4d/pool
I1215 13:10:48.424692 31739 net.cpp:113] Setting up inception_4d/pool
I1215 13:10:48.424703 31739 net.cpp:120] Top shape: 128 512 14 14 (12845056)
I1215 13:10:48.424708 31739 layer_factory.hpp:74] Creating layer inception_4d/pool_proj
I1215 13:10:48.424716 31739 net.cpp:84] Creating Layer inception_4d/pool_proj
I1215 13:10:48.424721 31739 net.cpp:380] inception_4d/pool_proj <- inception_4d/pool
I1215 13:10:48.424731 31739 net.cpp:338] inception_4d/pool_proj -> inception_4d/pool_proj
I1215 13:10:48.424739 31739 net.cpp:113] Setting up inception_4d/pool_proj
I1215 13:10:48.425547 31739 net.cpp:120] Top shape: 128 64 14 14 (1605632)
I1215 13:10:48.425564 31739 layer_factory.hpp:74] Creating layer inception_4d/relu_pool_proj
I1215 13:10:48.425573 31739 net.cpp:84] Creating Layer inception_4d/relu_pool_proj
I1215 13:10:48.425580 31739 net.cpp:380] inception_4d/relu_pool_proj <- inception_4d/pool_proj
I1215 13:10:48.425586 31739 net.cpp:327] inception_4d/relu_pool_proj -> inception_4d/pool_proj (in-place)
I1215 13:10:48.425595 31739 net.cpp:113] Setting up inception_4d/relu_pool_proj
I1215 13:10:48.425838 31739 net.cpp:120] Top shape: 128 64 14 14 (1605632)
I1215 13:10:48.425848 31739 layer_factory.hpp:74] Creating layer inception_4d/output
I1215 13:10:48.425863 31739 net.cpp:84] Creating Layer inception_4d/output
I1215 13:10:48.425869 31739 net.cpp:380] inception_4d/output <- inception_4d/1x1
I1215 13:10:48.425876 31739 net.cpp:380] inception_4d/output <- inception_4d/3x3
I1215 13:10:48.425881 31739 net.cpp:380] inception_4d/output <- inception_4d/5x5
I1215 13:10:48.425887 31739 net.cpp:380] inception_4d/output <- inception_4d/pool_proj
I1215 13:10:48.425895 31739 net.cpp:338] inception_4d/output -> inception_4d/output
I1215 13:10:48.425904 31739 net.cpp:113] Setting up inception_4d/output
I1215 13:10:48.425911 31739 net.cpp:120] Top shape: 128 528 14 14 (13246464)
I1215 13:10:48.425916 31739 layer_factory.hpp:74] Creating layer inception_4d/output_inception_4d/output_0_split
I1215 13:10:48.425922 31739 net.cpp:84] Creating Layer inception_4d/output_inception_4d/output_0_split
I1215 13:10:48.425927 31739 net.cpp:380] inception_4d/output_inception_4d/output_0_split <- inception_4d/output
I1215 13:10:48.425935 31739 net.cpp:338] inception_4d/output_inception_4d/output_0_split -> inception_4d/output_inception_4d/output_0_split_0
I1215 13:10:48.425943 31739 net.cpp:338] inception_4d/output_inception_4d/output_0_split -> inception_4d/output_inception_4d/output_0_split_1
I1215 13:10:48.425951 31739 net.cpp:338] inception_4d/output_inception_4d/output_0_split -> inception_4d/output_inception_4d/output_0_split_2
I1215 13:10:48.425957 31739 net.cpp:338] inception_4d/output_inception_4d/output_0_split -> inception_4d/output_inception_4d/output_0_split_3
I1215 13:10:48.425971 31739 net.cpp:338] inception_4d/output_inception_4d/output_0_split -> inception_4d/output_inception_4d/output_0_split_4
I1215 13:10:48.425984 31739 net.cpp:113] Setting up inception_4d/output_inception_4d/output_0_split
I1215 13:10:48.425993 31739 net.cpp:120] Top shape: 128 528 14 14 (13246464)
I1215 13:10:48.425998 31739 net.cpp:120] Top shape: 128 528 14 14 (13246464)
I1215 13:10:48.426004 31739 net.cpp:120] Top shape: 128 528 14 14 (13246464)
I1215 13:10:48.426009 31739 net.cpp:120] Top shape: 128 528 14 14 (13246464)
I1215 13:10:48.426014 31739 net.cpp:120] Top shape: 128 528 14 14 (13246464)
I1215 13:10:48.426025 31739 layer_factory.hpp:74] Creating layer loss2/ave_pool
I1215 13:10:48.426034 31739 net.cpp:84] Creating Layer loss2/ave_pool
I1215 13:10:48.426039 31739 net.cpp:380] loss2/ave_pool <- inception_4d/output_inception_4d/output_0_split_0
I1215 13:10:48.426048 31739 net.cpp:338] loss2/ave_pool -> loss2/ave_pool
I1215 13:10:48.426054 31739 net.cpp:113] Setting up loss2/ave_pool
I1215 13:10:48.426132 31739 net.cpp:120] Top shape: 128 528 4 4 (1081344)
I1215 13:10:48.426139 31739 layer_factory.hpp:74] Creating layer loss2/conv
I1215 13:10:48.426152 31739 net.cpp:84] Creating Layer loss2/conv
I1215 13:10:48.426158 31739 net.cpp:380] loss2/conv <- loss2/ave_pool
I1215 13:10:48.426165 31739 net.cpp:338] loss2/conv -> loss2/conv
I1215 13:10:48.426173 31739 net.cpp:113] Setting up loss2/conv
I1215 13:10:48.427809 31739 net.cpp:120] Top shape: 128 128 4 4 (262144)
I1215 13:10:48.427829 31739 layer_factory.hpp:74] Creating layer loss2/relu_conv
I1215 13:10:48.427837 31739 net.cpp:84] Creating Layer loss2/relu_conv
I1215 13:10:48.427844 31739 net.cpp:380] loss2/relu_conv <- loss2/conv
I1215 13:10:48.427852 31739 net.cpp:327] loss2/relu_conv -> loss2/conv (in-place)
I1215 13:10:48.427863 31739 net.cpp:113] Setting up loss2/relu_conv
I1215 13:10:48.427947 31739 net.cpp:120] Top shape: 128 128 4 4 (262144)
I1215 13:10:48.427954 31739 layer_factory.hpp:74] Creating layer loss2/fc
I1215 13:10:48.427974 31739 net.cpp:84] Creating Layer loss2/fc
I1215 13:10:48.427980 31739 net.cpp:380] loss2/fc <- loss2/conv
I1215 13:10:48.427990 31739 net.cpp:338] loss2/fc -> loss2/fc
I1215 13:10:48.428019 31739 net.cpp:113] Setting up loss2/fc
I1215 13:10:48.451205 31739 net.cpp:120] Top shape: 128 1024 (131072)
I1215 13:10:48.451252 31739 layer_factory.hpp:74] Creating layer loss2/relu_fc
I1215 13:10:48.451266 31739 net.cpp:84] Creating Layer loss2/relu_fc
I1215 13:10:48.451273 31739 net.cpp:380] loss2/relu_fc <- loss2/fc
I1215 13:10:48.451283 31739 net.cpp:327] loss2/relu_fc -> loss2/fc (in-place)
I1215 13:10:48.451293 31739 net.cpp:113] Setting up loss2/relu_fc
I1215 13:10:48.451788 31739 net.cpp:120] Top shape: 128 1024 (131072)
I1215 13:10:48.451800 31739 layer_factory.hpp:74] Creating layer loss2/drop_fc
I1215 13:10:48.451809 31739 net.cpp:84] Creating Layer loss2/drop_fc
I1215 13:10:48.451814 31739 net.cpp:380] loss2/drop_fc <- loss2/fc
I1215 13:10:48.451822 31739 net.cpp:327] loss2/drop_fc -> loss2/fc (in-place)
I1215 13:10:48.451829 31739 net.cpp:113] Setting up loss2/drop_fc
I1215 13:10:48.451838 31739 net.cpp:120] Top shape: 128 1024 (131072)
I1215 13:10:48.451841 31739 layer_factory.hpp:74] Creating layer loss2/classifier_kaggle
I1215 13:10:48.451853 31739 net.cpp:84] Creating Layer loss2/classifier_kaggle
I1215 13:10:48.451858 31739 net.cpp:380] loss2/classifier_kaggle <- loss2/fc
I1215 13:10:48.451866 31739 net.cpp:338] loss2/classifier_kaggle -> loss2/classifier_kaggle
I1215 13:10:48.451875 31739 net.cpp:113] Setting up loss2/classifier_kaggle
I1215 13:10:48.457304 31739 net.cpp:120] Top shape: 128 447 (57216)
I1215 13:10:48.457316 31739 layer_factory.hpp:74] Creating layer loss2/loss
I1215 13:10:48.457334 31739 net.cpp:84] Creating Layer loss2/loss
I1215 13:10:48.457340 31739 net.cpp:380] loss2/loss <- loss2/classifier_kaggle
I1215 13:10:48.457346 31739 net.cpp:380] loss2/loss <- label_data_1_split_1
I1215 13:10:48.457355 31739 net.cpp:338] loss2/loss -> loss2/loss1
I1215 13:10:48.457375 31739 net.cpp:113] Setting up loss2/loss
I1215 13:10:48.457401 31739 layer_factory.hpp:74] Creating layer loss2/loss
I1215 13:10:48.457638 31739 net.cpp:120] Top shape: (1)
I1215 13:10:48.457645 31739 net.cpp:122]     with loss weight 0.3
I1215 13:10:48.457658 31739 layer_factory.hpp:74] Creating layer inception_4e/1x1
I1215 13:10:48.457681 31739 net.cpp:84] Creating Layer inception_4e/1x1
I1215 13:10:48.457689 31739 net.cpp:380] inception_4e/1x1 <- inception_4d/output_inception_4d/output_0_split_1
I1215 13:10:48.457698 31739 net.cpp:338] inception_4e/1x1 -> inception_4e/1x1
I1215 13:10:48.457707 31739 net.cpp:113] Setting up inception_4e/1x1
I1215 13:10:48.459764 31739 net.cpp:120] Top shape: 128 256 14 14 (6422528)
I1215 13:10:48.459781 31739 layer_factory.hpp:74] Creating layer inception_4e/relu_1x1
I1215 13:10:48.459789 31739 net.cpp:84] Creating Layer inception_4e/relu_1x1
I1215 13:10:48.459795 31739 net.cpp:380] inception_4e/relu_1x1 <- inception_4e/1x1
I1215 13:10:48.459805 31739 net.cpp:327] inception_4e/relu_1x1 -> inception_4e/1x1 (in-place)
I1215 13:10:48.459812 31739 net.cpp:113] Setting up inception_4e/relu_1x1
I1215 13:10:48.459879 31739 net.cpp:120] Top shape: 128 256 14 14 (6422528)
I1215 13:10:48.459885 31739 layer_factory.hpp:74] Creating layer inception_4e/3x3_reduce
I1215 13:10:48.459897 31739 net.cpp:84] Creating Layer inception_4e/3x3_reduce
I1215 13:10:48.459903 31739 net.cpp:380] inception_4e/3x3_reduce <- inception_4d/output_inception_4d/output_0_split_2
I1215 13:10:48.459909 31739 net.cpp:338] inception_4e/3x3_reduce -> inception_4e/3x3_reduce
I1215 13:10:48.459918 31739 net.cpp:113] Setting up inception_4e/3x3_reduce
I1215 13:10:48.461345 31739 net.cpp:120] Top shape: 128 160 14 14 (4014080)
I1215 13:10:48.461362 31739 layer_factory.hpp:74] Creating layer inception_4e/relu_3x3_reduce
I1215 13:10:48.461380 31739 net.cpp:84] Creating Layer inception_4e/relu_3x3_reduce
I1215 13:10:48.461386 31739 net.cpp:380] inception_4e/relu_3x3_reduce <- inception_4e/3x3_reduce
I1215 13:10:48.461395 31739 net.cpp:327] inception_4e/relu_3x3_reduce -> inception_4e/3x3_reduce (in-place)
I1215 13:10:48.461403 31739 net.cpp:113] Setting up inception_4e/relu_3x3_reduce
I1215 13:10:48.461480 31739 net.cpp:120] Top shape: 128 160 14 14 (4014080)
I1215 13:10:48.461486 31739 layer_factory.hpp:74] Creating layer inception_4e/3x3
I1215 13:10:48.461494 31739 net.cpp:84] Creating Layer inception_4e/3x3
I1215 13:10:48.461499 31739 net.cpp:380] inception_4e/3x3 <- inception_4e/3x3_reduce
I1215 13:10:48.461511 31739 net.cpp:338] inception_4e/3x3 -> inception_4e/3x3
I1215 13:10:48.461522 31739 net.cpp:113] Setting up inception_4e/3x3
I1215 13:10:48.467376 31739 net.cpp:120] Top shape: 128 320 14 14 (8028160)
I1215 13:10:48.467402 31739 layer_factory.hpp:74] Creating layer inception_4e/relu_3x3
I1215 13:10:48.467411 31739 net.cpp:84] Creating Layer inception_4e/relu_3x3
I1215 13:10:48.467417 31739 net.cpp:380] inception_4e/relu_3x3 <- inception_4e/3x3
I1215 13:10:48.467425 31739 net.cpp:327] inception_4e/relu_3x3 -> inception_4e/3x3 (in-place)
I1215 13:10:48.467433 31739 net.cpp:113] Setting up inception_4e/relu_3x3
I1215 13:10:48.467685 31739 net.cpp:120] Top shape: 128 320 14 14 (8028160)
I1215 13:10:48.467696 31739 layer_factory.hpp:74] Creating layer inception_4e/5x5_reduce
I1215 13:10:48.467707 31739 net.cpp:84] Creating Layer inception_4e/5x5_reduce
I1215 13:10:48.467713 31739 net.cpp:380] inception_4e/5x5_reduce <- inception_4d/output_inception_4d/output_0_split_3
I1215 13:10:48.467723 31739 net.cpp:338] inception_4e/5x5_reduce -> inception_4e/5x5_reduce
I1215 13:10:48.467732 31739 net.cpp:113] Setting up inception_4e/5x5_reduce
I1215 13:10:48.468382 31739 net.cpp:120] Top shape: 128 32 14 14 (802816)
I1215 13:10:48.468400 31739 layer_factory.hpp:74] Creating layer inception_4e/relu_5x5_reduce
I1215 13:10:48.468415 31739 net.cpp:84] Creating Layer inception_4e/relu_5x5_reduce
I1215 13:10:48.468421 31739 net.cpp:380] inception_4e/relu_5x5_reduce <- inception_4e/5x5_reduce
I1215 13:10:48.468428 31739 net.cpp:327] inception_4e/relu_5x5_reduce -> inception_4e/5x5_reduce (in-place)
I1215 13:10:48.468456 31739 net.cpp:113] Setting up inception_4e/relu_5x5_reduce
I1215 13:10:48.468531 31739 net.cpp:120] Top shape: 128 32 14 14 (802816)
I1215 13:10:48.468538 31739 layer_factory.hpp:74] Creating layer inception_4e/5x5
I1215 13:10:48.468567 31739 net.cpp:84] Creating Layer inception_4e/5x5
I1215 13:10:48.468574 31739 net.cpp:380] inception_4e/5x5 <- inception_4e/5x5_reduce
I1215 13:10:48.468581 31739 net.cpp:338] inception_4e/5x5 -> inception_4e/5x5
I1215 13:10:48.468590 31739 net.cpp:113] Setting up inception_4e/5x5
I1215 13:10:48.471109 31739 net.cpp:120] Top shape: 128 128 14 14 (3211264)
I1215 13:10:48.471143 31739 layer_factory.hpp:74] Creating layer inception_4e/relu_5x5
I1215 13:10:48.471174 31739 net.cpp:84] Creating Layer inception_4e/relu_5x5
I1215 13:10:48.471184 31739 net.cpp:380] inception_4e/relu_5x5 <- inception_4e/5x5
I1215 13:10:48.471195 31739 net.cpp:327] inception_4e/relu_5x5 -> inception_4e/5x5 (in-place)
I1215 13:10:48.471210 31739 net.cpp:113] Setting up inception_4e/relu_5x5
I1215 13:10:48.471336 31739 net.cpp:120] Top shape: 128 128 14 14 (3211264)
I1215 13:10:48.471343 31739 layer_factory.hpp:74] Creating layer inception_4e/pool
I1215 13:10:48.471355 31739 layer_factory.cpp:56] CUDNN does not support padding or multiple tops. Using Caffe's own pooling layer.
I1215 13:10:48.471381 31739 net.cpp:84] Creating Layer inception_4e/pool
I1215 13:10:48.471390 31739 net.cpp:380] inception_4e/pool <- inception_4d/output_inception_4d/output_0_split_4
I1215 13:10:48.471398 31739 net.cpp:338] inception_4e/pool -> inception_4e/pool
I1215 13:10:48.471407 31739 net.cpp:113] Setting up inception_4e/pool
I1215 13:10:48.471417 31739 net.cpp:120] Top shape: 128 528 14 14 (13246464)
I1215 13:10:48.471422 31739 layer_factory.hpp:74] Creating layer inception_4e/pool_proj
I1215 13:10:48.471431 31739 net.cpp:84] Creating Layer inception_4e/pool_proj
I1215 13:10:48.471453 31739 net.cpp:380] inception_4e/pool_proj <- inception_4e/pool
I1215 13:10:48.471467 31739 net.cpp:338] inception_4e/pool_proj -> inception_4e/pool_proj
I1215 13:10:48.471475 31739 net.cpp:113] Setting up inception_4e/pool_proj
I1215 13:10:48.472707 31739 net.cpp:120] Top shape: 128 128 14 14 (3211264)
I1215 13:10:48.472724 31739 layer_factory.hpp:74] Creating layer inception_4e/relu_pool_proj
I1215 13:10:48.472733 31739 net.cpp:84] Creating Layer inception_4e/relu_pool_proj
I1215 13:10:48.472738 31739 net.cpp:380] inception_4e/relu_pool_proj <- inception_4e/pool_proj
I1215 13:10:48.472744 31739 net.cpp:327] inception_4e/relu_pool_proj -> inception_4e/pool_proj (in-place)
I1215 13:10:48.472753 31739 net.cpp:113] Setting up inception_4e/relu_pool_proj
I1215 13:10:48.472823 31739 net.cpp:120] Top shape: 128 128 14 14 (3211264)
I1215 13:10:48.472829 31739 layer_factory.hpp:74] Creating layer inception_4e/output
I1215 13:10:48.472846 31739 net.cpp:84] Creating Layer inception_4e/output
I1215 13:10:48.472852 31739 net.cpp:380] inception_4e/output <- inception_4e/1x1
I1215 13:10:48.472858 31739 net.cpp:380] inception_4e/output <- inception_4e/3x3
I1215 13:10:48.472863 31739 net.cpp:380] inception_4e/output <- inception_4e/5x5
I1215 13:10:48.472869 31739 net.cpp:380] inception_4e/output <- inception_4e/pool_proj
I1215 13:10:48.472875 31739 net.cpp:338] inception_4e/output -> inception_4e/output
I1215 13:10:48.472882 31739 net.cpp:113] Setting up inception_4e/output
I1215 13:10:48.472892 31739 net.cpp:120] Top shape: 128 832 14 14 (20873216)
I1215 13:10:48.472903 31739 layer_factory.hpp:74] Creating layer pool4/3x3_s2
I1215 13:10:48.472911 31739 net.cpp:84] Creating Layer pool4/3x3_s2
I1215 13:10:48.472916 31739 net.cpp:380] pool4/3x3_s2 <- inception_4e/output
I1215 13:10:48.472923 31739 net.cpp:338] pool4/3x3_s2 -> pool4/3x3_s2
I1215 13:10:48.472930 31739 net.cpp:113] Setting up pool4/3x3_s2
I1215 13:10:48.473201 31739 net.cpp:120] Top shape: 128 832 7 7 (5218304)
I1215 13:10:48.473215 31739 layer_factory.hpp:74] Creating layer pool4/3x3_s2_pool4/3x3_s2_0_split
I1215 13:10:48.473240 31739 net.cpp:84] Creating Layer pool4/3x3_s2_pool4/3x3_s2_0_split
I1215 13:10:48.473255 31739 net.cpp:380] pool4/3x3_s2_pool4/3x3_s2_0_split <- pool4/3x3_s2
I1215 13:10:48.473265 31739 net.cpp:338] pool4/3x3_s2_pool4/3x3_s2_0_split -> pool4/3x3_s2_pool4/3x3_s2_0_split_0
I1215 13:10:48.473274 31739 net.cpp:338] pool4/3x3_s2_pool4/3x3_s2_0_split -> pool4/3x3_s2_pool4/3x3_s2_0_split_1
I1215 13:10:48.473281 31739 net.cpp:338] pool4/3x3_s2_pool4/3x3_s2_0_split -> pool4/3x3_s2_pool4/3x3_s2_0_split_2
I1215 13:10:48.473289 31739 net.cpp:338] pool4/3x3_s2_pool4/3x3_s2_0_split -> pool4/3x3_s2_pool4/3x3_s2_0_split_3
I1215 13:10:48.473294 31739 net.cpp:113] Setting up pool4/3x3_s2_pool4/3x3_s2_0_split
I1215 13:10:48.473302 31739 net.cpp:120] Top shape: 128 832 7 7 (5218304)
I1215 13:10:48.473309 31739 net.cpp:120] Top shape: 128 832 7 7 (5218304)
I1215 13:10:48.473314 31739 net.cpp:120] Top shape: 128 832 7 7 (5218304)
I1215 13:10:48.473318 31739 net.cpp:120] Top shape: 128 832 7 7 (5218304)
I1215 13:10:48.473323 31739 layer_factory.hpp:74] Creating layer inception_5a/1x1
I1215 13:10:48.473335 31739 net.cpp:84] Creating Layer inception_5a/1x1
I1215 13:10:48.473340 31739 net.cpp:380] inception_5a/1x1 <- pool4/3x3_s2_pool4/3x3_s2_0_split_0
I1215 13:10:48.473351 31739 net.cpp:338] inception_5a/1x1 -> inception_5a/1x1
I1215 13:10:48.473358 31739 net.cpp:113] Setting up inception_5a/1x1
I1215 13:10:48.480751 31739 net.cpp:120] Top shape: 128 256 7 7 (1605632)
I1215 13:10:48.480772 31739 layer_factory.hpp:74] Creating layer inception_5a/relu_1x1
I1215 13:10:48.480792 31739 net.cpp:84] Creating Layer inception_5a/relu_1x1
I1215 13:10:48.480798 31739 net.cpp:380] inception_5a/relu_1x1 <- inception_5a/1x1
I1215 13:10:48.480808 31739 net.cpp:327] inception_5a/relu_1x1 -> inception_5a/1x1 (in-place)
I1215 13:10:48.480818 31739 net.cpp:113] Setting up inception_5a/relu_1x1
I1215 13:10:48.480896 31739 net.cpp:120] Top shape: 128 256 7 7 (1605632)
I1215 13:10:48.480903 31739 layer_factory.hpp:74] Creating layer inception_5a/3x3_reduce
I1215 13:10:48.480918 31739 net.cpp:84] Creating Layer inception_5a/3x3_reduce
I1215 13:10:48.480924 31739 net.cpp:380] inception_5a/3x3_reduce <- pool4/3x3_s2_pool4/3x3_s2_0_split_1
I1215 13:10:48.480933 31739 net.cpp:338] inception_5a/3x3_reduce -> inception_5a/3x3_reduce
I1215 13:10:48.480943 31739 net.cpp:113] Setting up inception_5a/3x3_reduce
I1215 13:10:48.484483 31739 net.cpp:120] Top shape: 128 160 7 7 (1003520)
I1215 13:10:48.484505 31739 layer_factory.hpp:74] Creating layer inception_5a/relu_3x3_reduce
I1215 13:10:48.484514 31739 net.cpp:84] Creating Layer inception_5a/relu_3x3_reduce
I1215 13:10:48.484520 31739 net.cpp:380] inception_5a/relu_3x3_reduce <- inception_5a/3x3_reduce
I1215 13:10:48.484530 31739 net.cpp:327] inception_5a/relu_3x3_reduce -> inception_5a/3x3_reduce (in-place)
I1215 13:10:48.484539 31739 net.cpp:113] Setting up inception_5a/relu_3x3_reduce
I1215 13:10:48.484616 31739 net.cpp:120] Top shape: 128 160 7 7 (1003520)
I1215 13:10:48.484623 31739 layer_factory.hpp:74] Creating layer inception_5a/3x3
I1215 13:10:48.484632 31739 net.cpp:84] Creating Layer inception_5a/3x3
I1215 13:10:48.484637 31739 net.cpp:380] inception_5a/3x3 <- inception_5a/3x3_reduce
I1215 13:10:48.484645 31739 net.cpp:338] inception_5a/3x3 -> inception_5a/3x3
I1215 13:10:48.484654 31739 net.cpp:113] Setting up inception_5a/3x3
I1215 13:10:48.490517 31739 net.cpp:120] Top shape: 128 320 7 7 (2007040)
I1215 13:10:48.490535 31739 layer_factory.hpp:74] Creating layer inception_5a/relu_3x3
I1215 13:10:48.490556 31739 net.cpp:84] Creating Layer inception_5a/relu_3x3
I1215 13:10:48.490562 31739 net.cpp:380] inception_5a/relu_3x3 <- inception_5a/3x3
I1215 13:10:48.490569 31739 net.cpp:327] inception_5a/relu_3x3 -> inception_5a/3x3 (in-place)
I1215 13:10:48.490577 31739 net.cpp:113] Setting up inception_5a/relu_3x3
I1215 13:10:48.490656 31739 net.cpp:120] Top shape: 128 320 7 7 (2007040)
I1215 13:10:48.490663 31739 layer_factory.hpp:74] Creating layer inception_5a/5x5_reduce
I1215 13:10:48.490670 31739 net.cpp:84] Creating Layer inception_5a/5x5_reduce
I1215 13:10:48.490689 31739 net.cpp:380] inception_5a/5x5_reduce <- pool4/3x3_s2_pool4/3x3_s2_0_split_2
I1215 13:10:48.490700 31739 net.cpp:338] inception_5a/5x5_reduce -> inception_5a/5x5_reduce
I1215 13:10:48.490708 31739 net.cpp:113] Setting up inception_5a/5x5_reduce
I1215 13:10:48.491435 31739 net.cpp:120] Top shape: 128 32 7 7 (200704)
I1215 13:10:48.491459 31739 layer_factory.hpp:74] Creating layer inception_5a/relu_5x5_reduce
I1215 13:10:48.491471 31739 net.cpp:84] Creating Layer inception_5a/relu_5x5_reduce
I1215 13:10:48.491477 31739 net.cpp:380] inception_5a/relu_5x5_reduce <- inception_5a/5x5_reduce
I1215 13:10:48.491484 31739 net.cpp:327] inception_5a/relu_5x5_reduce -> inception_5a/5x5_reduce (in-place)
I1215 13:10:48.491492 31739 net.cpp:113] Setting up inception_5a/relu_5x5_reduce
I1215 13:10:48.491745 31739 net.cpp:120] Top shape: 128 32 7 7 (200704)
I1215 13:10:48.491756 31739 layer_factory.hpp:74] Creating layer inception_5a/5x5
I1215 13:10:48.491775 31739 net.cpp:84] Creating Layer inception_5a/5x5
I1215 13:10:48.491781 31739 net.cpp:380] inception_5a/5x5 <- inception_5a/5x5_reduce
I1215 13:10:48.491789 31739 net.cpp:338] inception_5a/5x5 -> inception_5a/5x5
I1215 13:10:48.491797 31739 net.cpp:113] Setting up inception_5a/5x5
I1215 13:10:48.496685 31739 net.cpp:120] Top shape: 128 128 7 7 (802816)
I1215 13:10:48.496706 31739 layer_factory.hpp:74] Creating layer inception_5a/relu_5x5
I1215 13:10:48.496716 31739 net.cpp:84] Creating Layer inception_5a/relu_5x5
I1215 13:10:48.496721 31739 net.cpp:380] inception_5a/relu_5x5 <- inception_5a/5x5
I1215 13:10:48.496728 31739 net.cpp:327] inception_5a/relu_5x5 -> inception_5a/5x5 (in-place)
I1215 13:10:48.496737 31739 net.cpp:113] Setting up inception_5a/relu_5x5
I1215 13:10:48.496819 31739 net.cpp:120] Top shape: 128 128 7 7 (802816)
I1215 13:10:48.496825 31739 layer_factory.hpp:74] Creating layer inception_5a/pool
I1215 13:10:48.496831 31739 layer_factory.cpp:56] CUDNN does not support padding or multiple tops. Using Caffe's own pooling layer.
I1215 13:10:48.496840 31739 net.cpp:84] Creating Layer inception_5a/pool
I1215 13:10:48.496846 31739 net.cpp:380] inception_5a/pool <- pool4/3x3_s2_pool4/3x3_s2_0_split_3
I1215 13:10:48.496853 31739 net.cpp:338] inception_5a/pool -> inception_5a/pool
I1215 13:10:48.496862 31739 net.cpp:113] Setting up inception_5a/pool
I1215 13:10:48.496870 31739 net.cpp:120] Top shape: 128 832 7 7 (5218304)
I1215 13:10:48.496876 31739 layer_factory.hpp:74] Creating layer inception_5a/pool_proj
I1215 13:10:48.496898 31739 net.cpp:84] Creating Layer inception_5a/pool_proj
I1215 13:10:48.496904 31739 net.cpp:380] inception_5a/pool_proj <- inception_5a/pool
I1215 13:10:48.496912 31739 net.cpp:338] inception_5a/pool_proj -> inception_5a/pool_proj
I1215 13:10:48.496922 31739 net.cpp:113] Setting up inception_5a/pool_proj
I1215 13:10:48.498615 31739 net.cpp:120] Top shape: 128 128 7 7 (802816)
I1215 13:10:48.498633 31739 layer_factory.hpp:74] Creating layer inception_5a/relu_pool_proj
I1215 13:10:48.498651 31739 net.cpp:84] Creating Layer inception_5a/relu_pool_proj
I1215 13:10:48.498656 31739 net.cpp:380] inception_5a/relu_pool_proj <- inception_5a/pool_proj
I1215 13:10:48.498663 31739 net.cpp:327] inception_5a/relu_pool_proj -> inception_5a/pool_proj (in-place)
I1215 13:10:48.498672 31739 net.cpp:113] Setting up inception_5a/relu_pool_proj
I1215 13:10:48.498745 31739 net.cpp:120] Top shape: 128 128 7 7 (802816)
I1215 13:10:48.498751 31739 layer_factory.hpp:74] Creating layer inception_5a/output
I1215 13:10:48.498759 31739 net.cpp:84] Creating Layer inception_5a/output
I1215 13:10:48.498764 31739 net.cpp:380] inception_5a/output <- inception_5a/1x1
I1215 13:10:48.498769 31739 net.cpp:380] inception_5a/output <- inception_5a/3x3
I1215 13:10:48.498775 31739 net.cpp:380] inception_5a/output <- inception_5a/5x5
I1215 13:10:48.498780 31739 net.cpp:380] inception_5a/output <- inception_5a/pool_proj
I1215 13:10:48.498788 31739 net.cpp:338] inception_5a/output -> inception_5a/output
I1215 13:10:48.498802 31739 net.cpp:113] Setting up inception_5a/output
I1215 13:10:48.498818 31739 net.cpp:120] Top shape: 128 832 7 7 (5218304)
I1215 13:10:48.498823 31739 layer_factory.hpp:74] Creating layer inception_5a/output_inception_5a/output_0_split
I1215 13:10:48.498831 31739 net.cpp:84] Creating Layer inception_5a/output_inception_5a/output_0_split
I1215 13:10:48.498836 31739 net.cpp:380] inception_5a/output_inception_5a/output_0_split <- inception_5a/output
I1215 13:10:48.498842 31739 net.cpp:338] inception_5a/output_inception_5a/output_0_split -> inception_5a/output_inception_5a/output_0_split_0
I1215 13:10:48.498852 31739 net.cpp:338] inception_5a/output_inception_5a/output_0_split -> inception_5a/output_inception_5a/output_0_split_1
I1215 13:10:48.498859 31739 net.cpp:338] inception_5a/output_inception_5a/output_0_split -> inception_5a/output_inception_5a/output_0_split_2
I1215 13:10:48.498867 31739 net.cpp:338] inception_5a/output_inception_5a/output_0_split -> inception_5a/output_inception_5a/output_0_split_3
I1215 13:10:48.498872 31739 net.cpp:113] Setting up inception_5a/output_inception_5a/output_0_split
I1215 13:10:48.498880 31739 net.cpp:120] Top shape: 128 832 7 7 (5218304)
I1215 13:10:48.498885 31739 net.cpp:120] Top shape: 128 832 7 7 (5218304)
I1215 13:10:48.498891 31739 net.cpp:120] Top shape: 128 832 7 7 (5218304)
I1215 13:10:48.498896 31739 net.cpp:120] Top shape: 128 832 7 7 (5218304)
I1215 13:10:48.498900 31739 layer_factory.hpp:74] Creating layer inception_5b/1x1
I1215 13:10:48.498910 31739 net.cpp:84] Creating Layer inception_5b/1x1
I1215 13:10:48.498915 31739 net.cpp:380] inception_5b/1x1 <- inception_5a/output_inception_5a/output_0_split_0
I1215 13:10:48.498921 31739 net.cpp:338] inception_5b/1x1 -> inception_5b/1x1
I1215 13:10:48.498929 31739 net.cpp:113] Setting up inception_5b/1x1
I1215 13:10:48.504276 31739 net.cpp:120] Top shape: 128 384 7 7 (2408448)
I1215 13:10:48.504307 31739 layer_factory.hpp:74] Creating layer inception_5b/relu_1x1
I1215 13:10:48.504322 31739 net.cpp:84] Creating Layer inception_5b/relu_1x1
I1215 13:10:48.504328 31739 net.cpp:380] inception_5b/relu_1x1 <- inception_5b/1x1
I1215 13:10:48.504338 31739 net.cpp:327] inception_5b/relu_1x1 -> inception_5b/1x1 (in-place)
I1215 13:10:48.504346 31739 net.cpp:113] Setting up inception_5b/relu_1x1
I1215 13:10:48.504608 31739 net.cpp:120] Top shape: 128 384 7 7 (2408448)
I1215 13:10:48.504622 31739 layer_factory.hpp:74] Creating layer inception_5b/3x3_reduce
I1215 13:10:48.504634 31739 net.cpp:84] Creating Layer inception_5b/3x3_reduce
I1215 13:10:48.504640 31739 net.cpp:380] inception_5b/3x3_reduce <- inception_5a/output_inception_5a/output_0_split_1
I1215 13:10:48.504649 31739 net.cpp:338] inception_5b/3x3_reduce -> inception_5b/3x3_reduce
I1215 13:10:48.504658 31739 net.cpp:113] Setting up inception_5b/3x3_reduce
I1215 13:10:48.506960 31739 net.cpp:120] Top shape: 128 192 7 7 (1204224)
I1215 13:10:48.506978 31739 layer_factory.hpp:74] Creating layer inception_5b/relu_3x3_reduce
I1215 13:10:48.506985 31739 net.cpp:84] Creating Layer inception_5b/relu_3x3_reduce
I1215 13:10:48.506991 31739 net.cpp:380] inception_5b/relu_3x3_reduce <- inception_5b/3x3_reduce
I1215 13:10:48.507000 31739 net.cpp:327] inception_5b/relu_3x3_reduce -> inception_5b/3x3_reduce (in-place)
I1215 13:10:48.507009 31739 net.cpp:113] Setting up inception_5b/relu_3x3_reduce
I1215 13:10:48.507082 31739 net.cpp:120] Top shape: 128 192 7 7 (1204224)
I1215 13:10:48.507088 31739 layer_factory.hpp:74] Creating layer inception_5b/3x3
I1215 13:10:48.507107 31739 net.cpp:84] Creating Layer inception_5b/3x3
I1215 13:10:48.507112 31739 net.cpp:380] inception_5b/3x3 <- inception_5b/3x3_reduce
I1215 13:10:48.507122 31739 net.cpp:338] inception_5b/3x3 -> inception_5b/3x3
I1215 13:10:48.507154 31739 net.cpp:113] Setting up inception_5b/3x3
I1215 13:10:48.515451 31739 net.cpp:120] Top shape: 128 384 7 7 (2408448)
I1215 13:10:48.515470 31739 layer_factory.hpp:74] Creating layer inception_5b/relu_3x3
I1215 13:10:48.515480 31739 net.cpp:84] Creating Layer inception_5b/relu_3x3
I1215 13:10:48.515491 31739 net.cpp:380] inception_5b/relu_3x3 <- inception_5b/3x3
I1215 13:10:48.515506 31739 net.cpp:327] inception_5b/relu_3x3 -> inception_5b/3x3 (in-place)
I1215 13:10:48.515514 31739 net.cpp:113] Setting up inception_5b/relu_3x3
I1215 13:10:48.515589 31739 net.cpp:120] Top shape: 128 384 7 7 (2408448)
I1215 13:10:48.515595 31739 layer_factory.hpp:74] Creating layer inception_5b/5x5_reduce
I1215 13:10:48.515605 31739 net.cpp:84] Creating Layer inception_5b/5x5_reduce
I1215 13:10:48.515611 31739 net.cpp:380] inception_5b/5x5_reduce <- inception_5a/output_inception_5a/output_0_split_2
I1215 13:10:48.515620 31739 net.cpp:338] inception_5b/5x5_reduce -> inception_5b/5x5_reduce
I1215 13:10:48.515630 31739 net.cpp:113] Setting up inception_5b/5x5_reduce
I1215 13:10:48.516515 31739 net.cpp:120] Top shape: 128 48 7 7 (301056)
I1215 13:10:48.516531 31739 layer_factory.hpp:74] Creating layer inception_5b/relu_5x5_reduce
I1215 13:10:48.516546 31739 net.cpp:84] Creating Layer inception_5b/relu_5x5_reduce
I1215 13:10:48.516551 31739 net.cpp:380] inception_5b/relu_5x5_reduce <- inception_5b/5x5_reduce
I1215 13:10:48.516561 31739 net.cpp:327] inception_5b/relu_5x5_reduce -> inception_5b/5x5_reduce (in-place)
I1215 13:10:48.516569 31739 net.cpp:113] Setting up inception_5b/relu_5x5_reduce
I1215 13:10:48.516644 31739 net.cpp:120] Top shape: 128 48 7 7 (301056)
I1215 13:10:48.516650 31739 layer_factory.hpp:74] Creating layer inception_5b/5x5
I1215 13:10:48.516659 31739 net.cpp:84] Creating Layer inception_5b/5x5
I1215 13:10:48.516664 31739 net.cpp:380] inception_5b/5x5 <- inception_5b/5x5_reduce
I1215 13:10:48.516671 31739 net.cpp:338] inception_5b/5x5 -> inception_5b/5x5
I1215 13:10:48.516680 31739 net.cpp:113] Setting up inception_5b/5x5
I1215 13:10:48.518918 31739 net.cpp:120] Top shape: 128 128 7 7 (802816)
I1215 13:10:48.518935 31739 layer_factory.hpp:74] Creating layer inception_5b/relu_5x5
I1215 13:10:48.518942 31739 net.cpp:84] Creating Layer inception_5b/relu_5x5
I1215 13:10:48.518949 31739 net.cpp:380] inception_5b/relu_5x5 <- inception_5b/5x5
I1215 13:10:48.518955 31739 net.cpp:327] inception_5b/relu_5x5 -> inception_5b/5x5 (in-place)
I1215 13:10:48.518962 31739 net.cpp:113] Setting up inception_5b/relu_5x5
I1215 13:10:48.519212 31739 net.cpp:120] Top shape: 128 128 7 7 (802816)
I1215 13:10:48.519223 31739 layer_factory.hpp:74] Creating layer inception_5b/pool
I1215 13:10:48.519229 31739 layer_factory.cpp:56] CUDNN does not support padding or multiple tops. Using Caffe's own pooling layer.
I1215 13:10:48.519235 31739 net.cpp:84] Creating Layer inception_5b/pool
I1215 13:10:48.519242 31739 net.cpp:380] inception_5b/pool <- inception_5a/output_inception_5a/output_0_split_3
I1215 13:10:48.519251 31739 net.cpp:338] inception_5b/pool -> inception_5b/pool
I1215 13:10:48.519259 31739 net.cpp:113] Setting up inception_5b/pool
I1215 13:10:48.519268 31739 net.cpp:120] Top shape: 128 832 7 7 (5218304)
I1215 13:10:48.519273 31739 layer_factory.hpp:74] Creating layer inception_5b/pool_proj
I1215 13:10:48.519289 31739 net.cpp:84] Creating Layer inception_5b/pool_proj
I1215 13:10:48.519295 31739 net.cpp:380] inception_5b/pool_proj <- inception_5b/pool
I1215 13:10:48.519304 31739 net.cpp:338] inception_5b/pool_proj -> inception_5b/pool_proj
I1215 13:10:48.519311 31739 net.cpp:113] Setting up inception_5b/pool_proj
I1215 13:10:48.520987 31739 net.cpp:120] Top shape: 128 128 7 7 (802816)
I1215 13:10:48.521003 31739 layer_factory.hpp:74] Creating layer inception_5b/relu_pool_proj
I1215 13:10:48.521013 31739 net.cpp:84] Creating Layer inception_5b/relu_pool_proj
I1215 13:10:48.521019 31739 net.cpp:380] inception_5b/relu_pool_proj <- inception_5b/pool_proj
I1215 13:10:48.521026 31739 net.cpp:327] inception_5b/relu_pool_proj -> inception_5b/pool_proj (in-place)
I1215 13:10:48.521034 31739 net.cpp:113] Setting up inception_5b/relu_pool_proj
I1215 13:10:48.521121 31739 net.cpp:120] Top shape: 128 128 7 7 (802816)
I1215 13:10:48.521127 31739 layer_factory.hpp:74] Creating layer inception_5b/output
I1215 13:10:48.521136 31739 net.cpp:84] Creating Layer inception_5b/output
I1215 13:10:48.521147 31739 net.cpp:380] inception_5b/output <- inception_5b/1x1
I1215 13:10:48.521162 31739 net.cpp:380] inception_5b/output <- inception_5b/3x3
I1215 13:10:48.521167 31739 net.cpp:380] inception_5b/output <- inception_5b/5x5
I1215 13:10:48.521173 31739 net.cpp:380] inception_5b/output <- inception_5b/pool_proj
I1215 13:10:48.521179 31739 net.cpp:338] inception_5b/output -> inception_5b/output
I1215 13:10:48.521186 31739 net.cpp:113] Setting up inception_5b/output
I1215 13:10:48.521194 31739 net.cpp:120] Top shape: 128 1024 7 7 (6422528)
I1215 13:10:48.521199 31739 layer_factory.hpp:74] Creating layer pool5/7x7_s1
I1215 13:10:48.521209 31739 net.cpp:84] Creating Layer pool5/7x7_s1
I1215 13:10:48.521214 31739 net.cpp:380] pool5/7x7_s1 <- inception_5b/output
I1215 13:10:48.521220 31739 net.cpp:338] pool5/7x7_s1 -> pool5/7x7_s1
I1215 13:10:48.521227 31739 net.cpp:113] Setting up pool5/7x7_s1
I1215 13:10:48.521301 31739 net.cpp:120] Top shape: 128 1024 1 1 (131072)
I1215 13:10:48.521306 31739 layer_factory.hpp:74] Creating layer pool5/drop_7x7_s1
I1215 13:10:48.521320 31739 net.cpp:84] Creating Layer pool5/drop_7x7_s1
I1215 13:10:48.521325 31739 net.cpp:380] pool5/drop_7x7_s1 <- pool5/7x7_s1
I1215 13:10:48.521332 31739 net.cpp:327] pool5/drop_7x7_s1 -> pool5/7x7_s1 (in-place)
I1215 13:10:48.521338 31739 net.cpp:113] Setting up pool5/drop_7x7_s1
I1215 13:10:48.521347 31739 net.cpp:120] Top shape: 128 1024 1 1 (131072)
I1215 13:10:48.521350 31739 layer_factory.hpp:74] Creating layer loss3/classifier_kaggle
I1215 13:10:48.521359 31739 net.cpp:84] Creating Layer loss3/classifier_kaggle
I1215 13:10:48.521363 31739 net.cpp:380] loss3/classifier_kaggle <- pool5/7x7_s1
I1215 13:10:48.521373 31739 net.cpp:338] loss3/classifier_kaggle -> loss3/classifier_kaggle
I1215 13:10:48.521381 31739 net.cpp:113] Setting up loss3/classifier_kaggle
I1215 13:10:48.526759 31739 net.cpp:120] Top shape: 128 447 (57216)
I1215 13:10:48.526772 31739 layer_factory.hpp:74] Creating layer loss3/loss3
I1215 13:10:48.526782 31739 net.cpp:84] Creating Layer loss3/loss3
I1215 13:10:48.526787 31739 net.cpp:380] loss3/loss3 <- loss3/classifier_kaggle
I1215 13:10:48.526793 31739 net.cpp:380] loss3/loss3 <- label_data_1_split_2
I1215 13:10:48.526799 31739 net.cpp:338] loss3/loss3 -> loss3/loss3
I1215 13:10:48.526808 31739 net.cpp:113] Setting up loss3/loss3
…
I1215 13:10:48.532346 31739 net.cpp:257] The NetState phase (1) differed from the phase (0) specified by a rule in layer data
I1215 13:10:48.533929 31739 net.cpp:42] Initializing net from parameters: 
name: "GoogleNet"
state {
  phase: TEST
}
layer {
  name: "data"
  type: "Data"
  top: "data"
  top: "label"
  include {
    phase: TEST
  }
  transform_param {
    mirror: false
    crop_size: 224
    mean_value: 104
    mean_value: 117
    mean_value: 123
  }
  data_param {
    source: "/home/coldmanck/kaggle/kaggle2_val_lmdb"
    batch_size: 50
    backend: LMDB
  }
}
layer {
  name: "conv1/7x7_s2"
  type: "Convolution"
  bottom: "data"
  top: "conv1/7x7_s2"
  param {
    lr_mult: 1
    decay_mult: 1
  }
  param {
    lr_mult: 2
    decay_mult: 0
  }
  convolution_param {
    num_output: 64
    pad: 3
    kernel_size: 7
    stride: 2
    weight_filler {
      type: "xavier"
      std: 0.1
    }
    bias_filler {
      type: "constant"
      value: 0.2
    }
  }
}
layer {
  name: "conv1/relu_7x7"
  type: "ReLU"
  bottom: "conv1/7x7_s2"
  top: "conv1/7x7_s2"
}
layer {
  name: "pool1/3x3_s2"
  type: "Pooling"
  bottom: "conv1/7x7_s2"
  top: "pool1/3x3_s2"
  pooling_param {
    pool: MAX
    kernel_size: 3
    stride: 2
  }
}
layer {
  name: "pool1/norm1"
  type: "LRN"
  bottom: "pool1/3x3_s2"
  top: "pool1/norm1"
  lrn_param {
    local_size: 5
    alpha: 0.0001
    beta: 0.75
  }
}
layer {
  name: "conv2/3x3_reduce"
  type: "Convolution"
  bottom: "pool1/norm1"
  top: "conv2/3x3_reduce"
  param {
    lr_mult: 1
    decay_mult: 1
  }
  param {
    lr_mult: 2
    decay_mult: 0
  }
  convolution_param {
    num_output: 64
    kernel_size: 1
    weight_filler {
      type: "xavier"
      std: 0.1
    }
    bias_filler {
      type: "constant"
      value: 0.2
    }
  }
}
layer {
  name: "conv2/relu_3x3_reduce"
  type: "ReLU"
  bottom: "conv2/3x3_reduce"
  top: "conv2/3x3_reduce"
}
layer {
  name: "conv2/3x3"
  type: "Convolution"
  bottom: "conv2/3x3_reduce"
  top: "conv2/3x3"
  param {
    lr_mult: 1
    decay_mult: 1
  }
  param {
    lr_mult: 2
    decay_mult: 0
  }
  convolution_param {
    num_output: 192
    pad: 1
    kernel_size: 3
    weight_filler {
      type: "xavier"
      std: 0.03
    }
    bias_filler {
      type: "constant"
      value: 0.2
    }
  }
}
layer {
  name: "conv2/relu_3x3"
  type: "ReLU"
  bottom: "conv2/3x3"
  top: "conv2/3x3"
}
layer {
  name: "conv2/norm2"
  type: "LRN"
  bottom: "conv2/3x3"
  top: "conv2/norm2"
  lrn_param {
    local_size: 5
    alpha: 0.0001
    beta: 0.75
  }
}
layer {
  name: "pool2/3x3_s2"
  type: "Pooling"
  bottom: "conv2/norm2"
  top: "pool2/3x3_s2"
  pooling_param {
    pool: MAX
    kernel_size: 3
    stride: 2
  }
}
layer {
  name: "inception_3a/1x1"
  type: "Convolution"
  bottom: "pool2/3x3_s2"
  top: "inception_3a/1x1"
  param {
    lr_mult: 1
    decay_mult: 1
  }
  param {
    lr_mult: 2
    decay_mult: 0
  }
  convolution_param {
    num_output: 64
    kernel_size: 1
    weight_filler {
      type: "xavier"
      std: 0.03
    }
    bias_filler {
      type: "constant"
      value: 0.2
    }
  }
}
layer {
  name: "inception_3a/relu_1x1"
  type: "ReLU"
  bottom: "inception_3a/1x1"
  top: "inception_3a/1x1"
}
layer {
  name: "inception_3a/3x3_reduce"
  type: "Convolution"
  bottom: "pool2/3x3_s2"
  top: "inception_3a/3x3_reduce"
  param {
    lr_mult: 1
    decay_mult: 1
  }
  param {
    lr_mult: 2
    decay_mult: 0
  }
  convolution_param {
    num_output: 96
    kernel_size: 1
    weight_filler {
      type: "xavier"
      std: 0.09
    }
    bias_filler {
      type: "constant"
      value: 0.2
    }
  }
}
layer {
  name: "inception_3a/relu_3x3_reduce"
  type: "ReLU"
  bottom: "inception_3a/3x3_reduce"
  top: "inception_3a/3x3_reduce"
}
layer {
  name: "inception_3a/3x3"
  type: "Convolution"
  bottom: "inception_3a/3x3_reduce"
  top: "inception_3a/3x3"
  param {
    lr_mult: 1
    decay_mult: 1
  }
  param {
    lr_mult: 2
    decay_mult: 0
  }
  convolution_param {
    num_output: 128
    pad: 1
    kernel_size: 3
    weight_filler {
      type: "xavier"
      std: 0.03
    }
    bias_filler {
      type: "constant"
      value: 0.2
    }
  }
}
layer {
  name: "inception_3a/relu_3x3"
  type: "ReLU"
  bottom: "inception_3a/3x3"
  top: "inception_3a/3x3"
}
layer {
  name: "inception_3a/5x5_reduce"
  type: "Convolution"
  bottom: "pool2/3x3_s2"
  top: "inception_3a/5x5_reduce"
  param {
    lr_mult: 1
    decay_mult: 1
  }
  param {
    lr_mult: 2
    decay_mult: 0
  }
  convolution_param {
    num_output: 16
    kernel_size: 1
    weight_filler {
      type: "xavier"
      std: 0.2
    }
    bias_filler {
      type: "constant"
      value: 0.2
    }
  }
}
layer {
  name: "inception_3a/relu_5x5_reduce"
  type: "ReLU"
  bottom: "inception_3a/5x5_reduce"
  top: "inception_3a/5x5_reduce"
}
layer {
  name: "inception_3a/5x5"
  type: "Convolution"
  bottom: "inception_3a/5x5_reduce"
  top: "inception_3a/5x5"
  param {
    lr_mult: 1
    decay_mult: 1
  }
  param {
    lr_mult: 2
    decay_mult: 0
  }
  convolution_param {
    num_output: 32
    pad: 2
    kernel_size: 5
    weight_filler {
      type: "xavier"
      std: 0.03
    }
    bias_filler {
      type: "constant"
      value: 0.2
    }
  }
}
layer {
  name: "inception_3a/relu_5x5"
  type: "ReLU"
  bottom: "inception_3a/5x5"
  top: "inception_3a/5x5"
}
layer {
  name: "inception_3a/pool"
  type: "Pooling"
  bottom: "pool2/3x3_s2"
  top: "inception_3a/pool"
  pooling_param {
    pool: MAX
    kernel_size: 3
    stride: 1
    pad: 1
  }
}
layer {
  name: "inception_3a/pool_proj"
  type: "Convolution"
  bottom: "inception_3a/pool"
  top: "inception_3a/pool_proj"
  param {
    lr_mult: 1
    decay_mult: 1
  }
  param {
    lr_mult: 2
    decay_mult: 0
  }
  convolution_param {
    num_output: 32
    kernel_size: 1
    weight_filler {
      type: "xavier"
      std: 0.1
    }
    bias_filler {
      type: "constant"
      value: 0.2
    }
  }
}
layer {
  name: "inception_3a/relu_pool_proj"
  type: "ReLU"
  bottom: "inception_3a/pool_proj"
  top: "inception_3a/pool_proj"
}
layer {
  name: "inception_3a/output"
  type: "Concat"
  bottom: "inception_3a/1x1"
  bottom: "inception_3a/3x3"
  bottom: "inception_3a/5x5"
  bottom: "inception_3a/pool_proj"
  top: "inception_3a/output"
}
layer {
  name: "inception_3b/1x1"
  type: "Convolution"
  bottom: "inception_3a/output"
  top: "inception_3b/1x1"
  param {
    lr_mult: 1
    decay_mult: 1
  }
  param {
    lr_mult: 2
    decay_mult: 0
  }
  convolution_param {
    num_output: 128
    kernel_size: 1
    weight_filler {
      type: "xavier"
      std: 0.03
    }
    bias_filler {
      type: "constant"
      value: 0.2
    }
  }
}
layer {
  name: "inception_3b/relu_1x1"
  type: "ReLU"
  bottom: "inception_3b/1x1"
  top: "inception_3b/1x1"
}
layer {
  name: "inception_3b/3x3_reduce"
  type: "Convolution"
  bottom: "inception_3a/output"
  top: "inception_3b/3x3_reduce"
  param {
    lr_mult: 1
    decay_mult: 1
  }
  param {
    lr_mult: 2
    decay_mult: 0
  }
  convolution_param {
    num_output: 128
    kernel_size: 1
    weight_filler {
      type: "xavier"
      std: 0.09
    }
    bias_filler {
      type: "constant"
      value: 0.2
    }
  }
}
layer {
  name: "inception_3b/relu_3x3_reduce"
  type: "ReLU"
  bottom: "inception_3b/3x3_reduce"
  top: "inception_3b/3x3_reduce"
}
layer {
  name: "inception_3b/3x3"
  type: "Convolution"
  bottom: "inception_3b/3x3_reduce"
  top: "inception_3b/3x3"
  param {
    lr_mult: 1
    decay_mult: 1
  }
  param {
    lr_mult: 2
    decay_mult: 0
  }
  convolution_param {
    num_output: 192
    pad: 1
    kernel_size: 3
    weight_filler {
      type: "xavier"
      std: 0.03
    }
    bias_filler {
      type: "constant"
      value: 0.2
    }
  }
}
layer {
  name: "inception_3b/relu_3x3"
  type: "ReLU"
  bottom: "inception_3b/3x3"
  top: "inception_3b/3x3"
}
layer {
  name: "inception_3b/5x5_reduce"
  type: "Convolution"
  bottom: "inception_3a/output"
  top: "inception_3b/5x5_reduce"
  param {
    lr_mult: 1
    decay_mult: 1
  }
  param {
    lr_mult: 2
    decay_mult: 0
  }
  convolution_param {
    num_output: 32
    kernel_size: 1
    weight_filler {
      type: "xavier"
      std: 0.2
    }
    bias_filler {
      type: "constant"
      value: 0.2
    }
  }
}
layer {
  name: "inception_3b/relu_5x5_reduce"
  type: "ReLU"
  bottom: "inception_3b/5x5_reduce"
  top: "inception_3b/5x5_reduce"
}
layer {
  name: "inception_3b/5x5"
  type: "Convolution"
  bottom: "inception_3b/5x5_reduce"
  top: "inception_3b/5x5"
  param {
    lr_mult: 1
    decay_mult: 1
  }
  param {
    lr_mult: 2
    decay_mult: 0
  }
  convolution_param {
    num_output: 96
    pad: 2
    kernel_size: 5
    weight_filler {
      type: "xavier"
      std: 0.03
    }
    bias_filler {
      type: "constant"
      value: 0.2
    }
  }
}
layer {
  name: "inception_3b/relu_5x5"
  type: "ReLU"
  bottom: "inception_3b/5x5"
  top: "inception_3b/5x5"
}
layer {
  name: "inception_3b/pool"
  type: "Pooling"
  bottom: "inception_3a/output"
  top: "inception_3b/pool"
  pooling_param {
    pool: MAX
    kernel_size: 3
    stride: 1
    pad: 1
  }
}
layer {
  name: "inception_3b/pool_proj"
  type: "Convolution"
  bottom: "inception_3b/pool"
  top: "inception_3b/pool_proj"
  param {
    lr_mult: 1
    decay_mult: 1
  }
  param {
    lr_mult: 2
    decay_mult: 0
  }
  convolution_param {
    num_output: 64
    kernel_size: 1
    weight_filler {
      type: "xavier"
      std: 0.1
    }
    bias_filler {
      type: "constant"
      value: 0.2
    }
  }
}
layer {
  name: "inception_3b/relu_pool_proj"
  type: "ReLU"
  bottom: "inception_3b/pool_proj"
  top: "inception_3b/pool_proj"
}
layer {
  name: "inception_3b/output"
  type: "Concat"
  bottom: "inception_3b/1x1"
  bottom: "inception_3b/3x3"
  bottom: "inception_3b/5x5"
  bottom: "inception_3b/pool_proj"
  top: "inception_3b/output"
}
layer {
  name: "pool3/3x3_s2"
  type: "Pooling"
  bottom: "inception_3b/output"
  top: "pool3/3x3_s2"
  pooling_param {
    pool: MAX
    kernel_size: 3
    stride: 2
  }
}
layer {
  name: "inception_4a/1x1"
  type: "Convolution"
  bottom: "pool3/3x3_s2"
  top: "inception_4a/1x1"
  param {
    lr_mult: 1
    decay_mult: 1
  }
  param {
    lr_mult: 2
    decay_mult: 0
  }
  convolution_param {
    num_output: 192
    kernel_size: 1
    weight_filler {
      type: "xavier"
      std: 0.03
    }
    bias_filler {
      type: "constant"
      value: 0.2
    }
  }
}
layer {
  name: "inception_4a/relu_1x1"
  type: "ReLU"
  bottom: "inception_4a/1x1"
  top: "inception_4a/1x1"
}
layer {
  name: "inception_4a/3x3_reduce"
  type: "Convolution"
  bottom: "pool3/3x3_s2"
  top: "inception_4a/3x3_reduce"
  param {
    lr_mult: 1
    decay_mult: 1
  }
  param {
    lr_mult: 2
    decay_mult: 0
  }
  convolution_param {
    num_output: 96
    kernel_size: 1
    weight_filler {
      type: "xavier"
      std: 0.09
    }
    bias_filler {
      type: "constant"
      value: 0.2
    }
  }
}
layer {
  name: "inception_4a/relu_3x3_reduce"
  type: "ReLU"
  bottom: "inception_4a/3x3_reduce"
  top: "inception_4a/3x3_reduce"
}
layer {
  name: "inception_4a/3x3"
  type: "Convolution"
  bottom: "inception_4a/3x3_reduce"
  top: "inception_4a/3x3"
  param {
    lr_mult: 1
    decay_mult: 1
  }
  param {
    lr_mult: 2
    decay_mult: 0
  }
  convolution_param {
    num_output: 208
    pad: 1
    kernel_size: 3
    weight_filler {
      type: "xavier"
      std: 0.03
    }
    bias_filler {
      type: "constant"
      value: 0.2
    }
  }
}
layer {
  name: "inception_4a/relu_3x3"
  type: "ReLU"
  bottom: "inception_4a/3x3"
  top: "inception_4a/3x3"
}
layer {
  name: "inception_4a/5x5_reduce"
  type: "Convolution"
  bottom: "pool3/3x3_s2"
  top: "inception_4a/5x5_reduce"
  param {
    lr_mult: 1
    decay_mult: 1
  }
  param {
    lr_mult: 2
    decay_mult: 0
  }
  convolution_param {
    num_output: 16
    kernel_size: 1
    weight_filler {
      type: "xavier"
      std: 0.2
    }
    bias_filler {
      type: "constant"
      value: 0.2
    }
  }
}
layer {
  name: "inception_4a/relu_5x5_reduce"
  type: "ReLU"
  bottom: "inception_4a/5x5_reduce"
  top: "inception_4a/5x5_reduce"
}
layer {
  name: "inception_4a/5x5"
  type: "Convolution"
  bottom: "inception_4a/5x5_reduce"
  top: "inception_4a/5x5"
  param {
    lr_mult: 1
    decay_mult: 1
  }
  param {
    lr_mult: 2
    decay_mult: 0
  }
  convolution_param {
    num_output: 48
    pad: 2
    kernel_size: 5
    weight_filler {
      type: "xavier"
      std: 0.03
    }
    bias_filler {
      type: "constant"
      value: 0.2
    }
  }
}
layer {
  name: "inception_4a/relu_5x5"
  type: "ReLU"
  bottom: "inception_4a/5x5"
  top: "inception_4a/5x5"
}
layer {
  name: "inception_4a/pool"
  type: "Pooling"
  bottom: "pool3/3x3_s2"
  top: "inception_4a/pool"
  pooling_param {
    pool: MAX
    kernel_size: 3
    stride: 1
    pad: 1
  }
}
layer {
  name: "inception_4a/pool_proj"
  type: "Convolution"
  bottom: "inception_4a/pool"
  top: "inception_4a/pool_proj"
  param {
    lr_mult: 1
    decay_mult: 1
  }
  param {
    lr_mult: 2
    decay_mult: 0
  }
  convolution_param {
    num_output: 64
    kernel_size: 1
    weight_filler {
      type: "xavier"
      std: 0.1
    }
    bias_filler {
      type: "constant"
      value: 0.2
    }
  }
}
layer {
  name: "inception_4a/relu_pool_proj"
  type: "ReLU"
  bottom: "inception_4a/pool_proj"
  top: "inception_4a/pool_proj"
}
layer {
  name: "inception_4a/output"
  type: "Concat"
  bottom: "inception_4a/1x1"
  bottom: "inception_4a/3x3"
  bottom: "inception_4a/5x5"
  bottom: "inception_4a/pool_proj"
  top: "inception_4a/output"
}
layer {
  name: "loss1/ave_pool"
  type: "Pooling"
  bottom: "inception_4a/output"
  top: "loss1/ave_pool"
  pooling_param {
    pool: AVE
    kernel_size: 5
    stride: 3
  }
}
layer {
  name: "loss1/conv"
  type: "Convolution"
  bottom: "loss1/ave_pool"
  top: "loss1/conv"
  param {
    lr_mult: 1
    decay_mult: 1
  }
  param {
    lr_mult: 2
    decay_mult: 0
  }
  convolution_param {
    num_output: 128
    kernel_size: 1
    weight_filler {
      type: "xavier"
      std: 0.08
    }
    bias_filler {
      type: "constant"
      value: 0.2
    }
  }
}
layer {
  name: "loss1/relu_conv"
  type: "ReLU"
  bottom: "loss1/conv"
  top: "loss1/conv"
}
layer {
  name: "loss1/fc"
  type: "InnerProduct"
  bottom: "loss1/conv"
  top: "loss1/fc"
  param {
    lr_mult: 1
    decay_mult: 1
  }
  param {
    lr_mult: 2
    decay_mult: 0
  }
  inner_product_param {
    num_output: 1024
    weight_filler {
      type: "xavier"
      std: 0.02
    }
    bias_filler {
      type: "constant"
      value: 0.2
    }
  }
}
layer {
  name: "loss1/relu_fc"
  type: "ReLU"
  bottom: "loss1/fc"
  top: "loss1/fc"
}
layer {
  name: "loss1/drop_fc"
  type: "Dropout"
  bottom: "loss1/fc"
  top: "loss1/fc"
  dropout_param {
    dropout_ratio: 0.7
  }
}
layer {
  name: "loss1/classifier_kaggle"
  type: "InnerProduct"
  bottom: "loss1/fc"
  top: "loss1/classifier_kaggle"
  param {
    lr_mult: 1
    decay_mult: 1
  }
  param {
    lr_mult: 2
    decay_mult: 0
  }
  inner_product_param {
    num_output: 447
    weight_filler {
      type: "xavier"
      std: 0.0009765625
    }
    bias_filler {
      type: "constant"
      value: 0
    }
  }
}
layer {
  name: "loss1/loss"
  type: "SoftmaxWithLoss"
  bottom: "loss1/classifier_kaggle"
  bottom: "label"
  top: "loss1/loss1"
  loss_weight: 0.3
}
layer {
  name: "loss1/top-1"
  type: "Accuracy"
  bottom: "loss1/classifier_kaggle"
  bottom: "label"
  top: "loss1/top-1"
  include {
    phase: TEST
  }
}
layer {
  name: "loss1/top-5"
  type: "Accuracy"
  bottom: "loss1/classifier_kaggle"
  bottom: "label"
  top: "loss1/top-5"
  include {
    phase: TEST
  }
  accuracy_param {
    top_k: 5
  }
}
layer {
  name: "inception_4b/1x1"
  type: "Convolution"
  bottom: "inception_4a/output"
  top: "inception_4b/1x1"
  param {
    lr_mult: 1
    decay_mult: 1
  }
  param {
    lr_mult: 2
    decay_mult: 0
  }
  convolution_param {
    num_output: 160
    kernel_size: 1
    weight_filler {
      type: "xavier"
      std: 0.03
    }
    bias_filler {
      type: "constant"
      value: 0.2
    }
  }
}
layer {
  name: "inception_4b/relu_1x1"
  type: "ReLU"
  bottom: "inception_4b/1x1"
  top: "inception_4b/1x1"
}
layer {
  name: "inception_4b/3x3_reduce"
  type: "Convolution"
  bottom: "inception_4a/output"
  top: "inception_4b/3x3_reduce"
  param {
    lr_mult: 1
    decay_mult: 1
  }
  param {
    lr_mult: 2
    decay_mult: 0
  }
  convolution_param {
    num_output: 112
    kernel_size: 1
    weight_filler {
      type: "xavier"
      std: 0.09
    }
    bias_filler {
      type: "constant"
      value: 0.2
    }
  }
}
layer {
  name: "inception_4b/relu_3x3_reduce"
  type: "ReLU"
  bottom: "inception_4b/3x3_reduce"
  top: "inception_4b/3x3_reduce"
}
layer {
  name: "inception_4b/3x3"
  type: "Convolution"
  bottom: "inception_4b/3x3_reduce"
  top: "inception_4b/3x3"
  param {
    lr_mult: 1
    decay_mult: 1
  }
  param {
    lr_mult: 2
    decay_mult: 0
  }
  convolution_param {
    num_output: 224
    pad: 1
    kernel_size: 3
    weight_filler {
      type: "xavier"
      std: 0.03
    }
    bias_filler {
      type: "constant"
      value: 0.2
    }
  }
}
layer {
  name: "inception_4b/relu_3x3"
  type: "ReLU"
  bottom: "inception_4b/3x3"
  top: "inception_4b/3x3"
}
layer {
  name: "inception_4b/5x5_reduce"
  type: "Convolution"
  bottom: "inception_4a/output"
  top: "inception_4b/5x5_reduce"
  param {
    lr_mult: 1
    decay_mult: 1
  }
  param {
    lr_mult: 2
    decay_mult: 0
  }
  convolution_param {
    num_output: 24
    kernel_size: 1
    weight_filler {
      type: "xavier"
      std: 0.2
    }
    bias_filler {
      type: "constant"
      value: 0.2
    }
  }
}
layer {
  name: "inception_4b/relu_5x5_reduce"
  type: "ReLU"
  bottom: "inception_4b/5x5_reduce"
  top: "inception_4b/5x5_reduce"
}
layer {
  name: "inception_4b/5x5"
  type: "Convolution"
  bottom: "inception_4b/5x5_reduce"
  top: "inception_4b/5x5"
  param {
    lr_mult: 1
    decay_mult: 1
  }
  param {
    lr_mult: 2
    decay_mult: 0
  }
  convolution_param {
    num_output: 64
    pad: 2
    kernel_size: 5
    weight_filler {
      type: "xavier"
      std: 0.03
    }
    bias_filler {
      type: "constant"
      value: 0.2
    }
  }
}
layer {
  name: "inception_4b/relu_5x5"
  type: "ReLU"
  bottom: "inception_4b/5x5"
  top: "inception_4b/5x5"
}
layer {
  name: "inception_4b/pool"
  type: "Pooling"
  bottom: "inception_4a/output"
  top: "inception_4b/pool"
  pooling_param {
    pool: MAX
    kernel_size: 3
    stride: 1
    pad: 1
  }
}
layer {
  name: "inception_4b/pool_proj"
  type: "Convolution"
  bottom: "inception_4b/pool"
  top: "inception_4b/pool_proj"
  param {
    lr_mult: 1
    decay_mult: 1
  }
  param {
    lr_mult: 2
    decay_mult: 0
  }
  convolution_param {
    num_output: 64
    kernel_size: 1
    weight_filler {
      type: "xavier"
      std: 0.1
    }
    bias_filler {
      type: "constant"
      value: 0.2
    }
  }
}
layer {
  name: "inception_4b/relu_pool_proj"
  type: "ReLU"
  bottom: "inception_4b/pool_proj"
  top: "inception_4b/pool_proj"
}
layer {
  name: "inception_4b/output"
  type: "Concat"
  bottom: "inception_4b/1x1"
  bottom: "inception_4b/3x3"
  bottom: "inception_4b/5x5"
  bottom: "inception_4b/pool_proj"
  top: "inception_4b/output"
}
layer {
  name: "inception_4c/1x1"
  type: "Convolution"
  bottom: "inception_4b/output"
  top: "inception_4c/1x1"
  param {
    lr_mult: 1
    decay_mult: 1
  }
  param {
    lr_mult: 2
    decay_mult: 0
  }
  convolution_param {
    num_output: 128
    kernel_size: 1
    weight_filler {
      type: "xavier"
      std: 0.03
    }
    bias_filler {
      type: "constant"
      value: 0.2
    }
  }
}
layer {
  name: "inception_4c/relu_1x1"
  type: "ReLU"
  bottom: "inception_4c/1x1"
  top: "inception_4c/1x1"
}
layer {
  name: "inception_4c/3x3_reduce"
  type: "Convolution"
  bottom: "inception_4b/output"
  top: "inception_4c/3x3_reduce"
  param {
    lr_mult: 1
    decay_mult: 1
  }
  param {
    lr_mult: 2
    decay_mult: 0
  }
  convolution_param {
    num_output: 128
    kernel_size: 1
    weight_filler {
      type: "xavier"
      std: 0.09
    }
    bias_filler {
      type: "constant"
      value: 0.2
    }
  }
}
layer {
  name: "inception_4c/relu_3x3_reduce"
  type: "ReLU"
  bottom: "inception_4c/3x3_reduce"
  top: "inception_4c/3x3_reduce"
}
layer {
  name: "inception_4c/3x3"
  type: "Convolution"
  bottom: "inception_4c/3x3_reduce"
  top: "inception_4c/3x3"
  param {
    lr_mult: 1
    decay_mult: 1
  }
  param {
    lr_mult: 2
    decay_mult: 0
  }
  convolution_param {
    num_output: 256
    pad: 1
    kernel_size: 3
    weight_filler {
      type: "xavier"
      std: 0.03
    }
    bias_filler {
      type: "constant"
      value: 0.2
    }
  }
}
layer {
  name: "inception_4c/relu_3x3"
  type: "ReLU"
  bottom: "inception_4c/3x3"
  top: "inception_4c/3x3"
}
layer {
  name: "inception_4c/5x5_reduce"
  type: "Convolution"
  bottom: "inception_4b/output"
  top: "inception_4c/5x5_reduce"
  param {
    lr_mult: 1
    decay_mult: 1
  }
  param {
    lr_mult: 2
    decay_mult: 0
  }
  convolution_param {
    num_output: 24
    kernel_size: 1
    weight_filler {
      type: "xavier"
      std: 0.2
    }
    bias_filler {
      type: "constant"
      value: 0.2
    }
  }
}
layer {
  name: "inception_4c/relu_5x5_reduce"
  type: "ReLU"
  bottom: "inception_4c/5x5_reduce"
  top: "inception_4c/5x5_reduce"
}
layer {
  name: "inception_4c/5x5"
  type: "Convolution"
  bottom: "inception_4c/5x5_reduce"
  top: "inception_4c/5x5"
  param {
    lr_mult: 1
    decay_mult: 1
  }
  param {
    lr_mult: 2
    decay_mult: 0
  }
  convolution_param {
    num_output: 64
    pad: 2
    kernel_size: 5
    weight_filler {
      type: "xavier"
      std: 0.03
    }
    bias_filler {
      type: "constant"
      value: 0.2
    }
  }
}
layer {
  name: "inception_4c/relu_5x5"
  type: "ReLU"
  bottom: "inception_4c/5x5"
  top: "inception_4c/5x5"
}
layer {
  name: "inception_4c/pool"
  type: "Pooling"
  bottom: "inception_4b/output"
  top: "inception_4c/pool"
  pooling_param {
    pool: MAX
    kernel_size: 3
    stride: 1
    pad: 1
  }
}
layer {
  name: "inception_4c/pool_proj"
  type: "Convolution"
  bottom: "inception_4c/pool"
  top: "inception_4c/pool_proj"
  param {
    lr_mult: 1
    decay_mult: 1
  }
  param {
    lr_mult: 2
    decay_mult: 0
  }
  convolution_param {
    num_output: 64
    kernel_size: 1
    weight_filler {
      type: "xavier"
      std: 0.1
    }
    bias_filler {
      type: "constant"
      value: 0.2
    }
  }
}
layer {
  name: "inception_4c/relu_pool_proj"
  type: "ReLU"
  bottom: "inception_4c/pool_proj"
  top: "inception_4c/pool_proj"
}
layer {
  name: "inception_4c/output"
  type: "Concat"
  bottom: "inception_4c/1x1"
  bottom: "inception_4c/3x3"
  bottom: "inception_4c/5x5"
  bottom: "inception_4c/pool_proj"
  top: "inception_4c/output"
}
layer {
  name: "inception_4d/1x1"
  type: "Convolution"
  bottom: "inception_4c/output"
  top: "inception_4d/1x1"
  param {
    lr_mult: 1
    decay_mult: 1
  }
  param {
    lr_mult: 2
    decay_mult: 0
  }
  convolution_param {
    num_output: 112
    kernel_size: 1
    weight_filler {
      type: "xavier"
      std: 0.03
    }
    bias_filler {
      type: "constant"
      value: 0.2
    }
  }
}
layer {
  name: "inception_4d/relu_1x1"
  type: "ReLU"
  bottom: "inception_4d/1x1"
  top: "inception_4d/1x1"
}
layer {
  name: "inception_4d/3x3_reduce"
  type: "Convolution"
  bottom: "inception_4c/output"
  top: "inception_4d/3x3_reduce"
  param {
    lr_mult: 1
    decay_mult: 1
  }
  param {
    lr_mult: 2
    decay_mult: 0
  }
  convolution_param {
    num_output: 144
    kernel_size: 1
    weight_filler {
      type: "xavier"
      std: 0.09
    }
    bias_filler {
      type: "constant"
      value: 0.2
    }
  }
}
layer {
  name: "inception_4d/relu_3x3_reduce"
  type: "ReLU"
  bottom: "inception_4d/3x3_reduce"
  top: "inception_4d/3x3_reduce"
}
layer {
  name: "inception_4d/3x3"
  type: "Convolution"
  bottom: "inception_4d/3x3_reduce"
  top: "inception_4d/3x3"
  param {
    lr_mult: 1
    decay_mult: 1
  }
  param {
    lr_mult: 2
    decay_mult: 0
  }
  convolution_param {
    num_output: 288
    pad: 1
    kernel_size: 3
    weight_filler {
      type: "xavier"
      std: 0.03
    }
    bias_filler {
      type: "constant"
      value: 0.2
    }
  }
}
layer {
  name: "inception_4d/relu_3x3"
  type: "ReLU"
  bottom: "inception_4d/3x3"
  top: "inception_4d/3x3"
}
layer {
  name: "inception_4d/5x5_reduce"
  type: "Convolution"
  bottom: "inception_4c/output"
  top: "inception_4d/5x5_reduce"
  param {
    lr_mult: 1
    decay_mult: 1
  }
  param {
    lr_mult: 2
    decay_mult: 0
  }
  convolution_param {
    num_output: 32
    kernel_size: 1
    weight_filler {
      type: "xavier"
      std: 0.2
    }
    bias_filler {
      type: "constant"
      value: 0.2
    }
  }
}
layer {
  name: "inception_4d/relu_5x5_reduce"
  type: "ReLU"
  bottom: "inception_4d/5x5_reduce"
  top: "inception_4d/5x5_reduce"
}
layer {
  name: "inception_4d/5x5"
  type: "Convolution"
  bottom: "inception_4d/5x5_reduce"
  top: "inception_4d/5x5"
  param {
    lr_mult: 1
    decay_mult: 1
  }
  param {
    lr_mult: 2
    decay_mult: 0
  }
  convolution_param {
    num_output: 64
    pad: 2
    kernel_size: 5
    weight_filler {
      type: "xavier"
      std: 0.03
    }
    bias_filler {
      type: "constant"
      value: 0.2
    }
  }
}
layer {
  name: "inception_4d/relu_5x5"
  type: "ReLU"
  bottom: "inception_4d/5x5"
  top: "inception_4d/5x5"
}
layer {
  name: "inception_4d/pool"
  type: "Pooling"
  bottom: "inception_4c/output"
  top: "inception_4d/pool"
  pooling_param {
    pool: MAX
    kernel_size: 3
    stride: 1
    pad: 1
  }
}
layer {
  name: "inception_4d/pool_proj"
  type: "Convolution"
  bottom: "inception_4d/pool"
  top: "inception_4d/pool_proj"
  param {
    lr_mult: 1
    decay_mult: 1
  }
  param {
    lr_mult: 2
    decay_mult: 0
  }
…
I1215 13:10:48.610419 31739 net.cpp:84] Creating Layer inception_4c/1x1
I1215 13:10:48.610424 31739 net.cpp:380] inception_4c/1x1 <- inception_4b/output_inception_4b/output_0_split_0
I1215 13:10:48.610430 31739 net.cpp:338] inception_4c/1x1 -> inception_4c/1x1
I1215 13:10:48.610437 31739 net.cpp:113] Setting up inception_4c/1x1
I1215 13:10:48.611631 31739 net.cpp:120] Top shape: 50 128 14 14 (1254400)
I1215 13:10:48.611646 31739 layer_factory.hpp:74] Creating layer inception_4c/relu_1x1
I1215 13:10:48.611654 31739 net.cpp:84] Creating Layer inception_4c/relu_1x1
I1215 13:10:48.611660 31739 net.cpp:380] inception_4c/relu_1x1 <- inception_4c/1x1
I1215 13:10:48.611668 31739 net.cpp:327] inception_4c/relu_1x1 -> inception_4c/1x1 (in-place)
I1215 13:10:48.611676 31739 net.cpp:113] Setting up inception_4c/relu_1x1
I1215 13:10:48.612000 31739 net.cpp:120] Top shape: 50 128 14 14 (1254400)
I1215 13:10:48.612015 31739 layer_factory.hpp:74] Creating layer inception_4c/3x3_reduce
I1215 13:10:48.612035 31739 net.cpp:84] Creating Layer inception_4c/3x3_reduce
I1215 13:10:48.612042 31739 net.cpp:380] inception_4c/3x3_reduce <- inception_4b/output_inception_4b/output_0_split_1
I1215 13:10:48.612051 31739 net.cpp:338] inception_4c/3x3_reduce -> inception_4c/3x3_reduce
I1215 13:10:48.612059 31739 net.cpp:113] Setting up inception_4c/3x3_reduce
I1215 13:10:48.613276 31739 net.cpp:120] Top shape: 50 128 14 14 (1254400)
I1215 13:10:48.613293 31739 layer_factory.hpp:74] Creating layer inception_4c/relu_3x3_reduce
I1215 13:10:48.613301 31739 net.cpp:84] Creating Layer inception_4c/relu_3x3_reduce
I1215 13:10:48.613306 31739 net.cpp:380] inception_4c/relu_3x3_reduce <- inception_4c/3x3_reduce
I1215 13:10:48.613318 31739 net.cpp:327] inception_4c/relu_3x3_reduce -> inception_4c/3x3_reduce (in-place)
I1215 13:10:48.613327 31739 net.cpp:113] Setting up inception_4c/relu_3x3_reduce
I1215 13:10:48.613406 31739 net.cpp:120] Top shape: 50 128 14 14 (1254400)
I1215 13:10:48.613412 31739 layer_factory.hpp:74] Creating layer inception_4c/3x3
I1215 13:10:48.613423 31739 net.cpp:84] Creating Layer inception_4c/3x3
I1215 13:10:48.613428 31739 net.cpp:380] inception_4c/3x3 <- inception_4c/3x3_reduce
I1215 13:10:48.613437 31739 net.cpp:338] inception_4c/3x3 -> inception_4c/3x3
I1215 13:10:48.613445 31739 net.cpp:113] Setting up inception_4c/3x3
I1215 13:10:48.617342 31739 net.cpp:120] Top shape: 50 256 14 14 (2508800)
I1215 13:10:48.617368 31739 layer_factory.hpp:74] Creating layer inception_4c/relu_3x3
I1215 13:10:48.617385 31739 net.cpp:84] Creating Layer inception_4c/relu_3x3
I1215 13:10:48.617391 31739 net.cpp:380] inception_4c/relu_3x3 <- inception_4c/3x3
I1215 13:10:48.617398 31739 net.cpp:327] inception_4c/relu_3x3 -> inception_4c/3x3 (in-place)
I1215 13:10:48.617406 31739 net.cpp:113] Setting up inception_4c/relu_3x3
I1215 13:10:48.617487 31739 net.cpp:120] Top shape: 50 256 14 14 (2508800)
I1215 13:10:48.617494 31739 layer_factory.hpp:74] Creating layer inception_4c/5x5_reduce
I1215 13:10:48.617502 31739 net.cpp:84] Creating Layer inception_4c/5x5_reduce
I1215 13:10:48.617507 31739 net.cpp:380] inception_4c/5x5_reduce <- inception_4b/output_inception_4b/output_0_split_2
I1215 13:10:48.617517 31739 net.cpp:338] inception_4c/5x5_reduce -> inception_4c/5x5_reduce
I1215 13:10:48.617525 31739 net.cpp:113] Setting up inception_4c/5x5_reduce
I1215 13:10:48.618090 31739 net.cpp:120] Top shape: 50 24 14 14 (235200)
I1215 13:10:48.618105 31739 layer_factory.hpp:74] Creating layer inception_4c/relu_5x5_reduce
I1215 13:10:48.618113 31739 net.cpp:84] Creating Layer inception_4c/relu_5x5_reduce
I1215 13:10:48.618119 31739 net.cpp:380] inception_4c/relu_5x5_reduce <- inception_4c/5x5_reduce
I1215 13:10:48.618125 31739 net.cpp:327] inception_4c/relu_5x5_reduce -> inception_4c/5x5_reduce (in-place)
I1215 13:10:48.618132 31739 net.cpp:113] Setting up inception_4c/relu_5x5_reduce
I1215 13:10:48.618383 31739 net.cpp:120] Top shape: 50 24 14 14 (235200)
I1215 13:10:48.618394 31739 layer_factory.hpp:74] Creating layer inception_4c/5x5
I1215 13:10:48.618404 31739 net.cpp:84] Creating Layer inception_4c/5x5
I1215 13:10:48.618410 31739 net.cpp:380] inception_4c/5x5 <- inception_4c/5x5_reduce
I1215 13:10:48.618419 31739 net.cpp:338] inception_4c/5x5 -> inception_4c/5x5
I1215 13:10:48.618428 31739 net.cpp:113] Setting up inception_4c/5x5
I1215 13:10:48.619307 31739 net.cpp:120] Top shape: 50 64 14 14 (627200)
I1215 13:10:48.619321 31739 layer_factory.hpp:74] Creating layer inception_4c/relu_5x5
I1215 13:10:48.619330 31739 net.cpp:84] Creating Layer inception_4c/relu_5x5
I1215 13:10:48.619336 31739 net.cpp:380] inception_4c/relu_5x5 <- inception_4c/5x5
I1215 13:10:48.619343 31739 net.cpp:327] inception_4c/relu_5x5 -> inception_4c/5x5 (in-place)
I1215 13:10:48.619350 31739 net.cpp:113] Setting up inception_4c/relu_5x5
I1215 13:10:48.619426 31739 net.cpp:120] Top shape: 50 64 14 14 (627200)
I1215 13:10:48.619433 31739 layer_factory.hpp:74] Creating layer inception_4c/pool
I1215 13:10:48.619444 31739 layer_factory.cpp:56] CUDNN does not support padding or multiple tops. Using Caffe's own pooling layer.
I1215 13:10:48.619458 31739 net.cpp:84] Creating Layer inception_4c/pool
I1215 13:10:48.619464 31739 net.cpp:380] inception_4c/pool <- inception_4b/output_inception_4b/output_0_split_3
I1215 13:10:48.619473 31739 net.cpp:338] inception_4c/pool -> inception_4c/pool
I1215 13:10:48.619482 31739 net.cpp:113] Setting up inception_4c/pool
I1215 13:10:48.619489 31739 net.cpp:120] Top shape: 50 512 14 14 (5017600)
I1215 13:10:48.619494 31739 layer_factory.hpp:74] Creating layer inception_4c/pool_proj
I1215 13:10:48.619503 31739 net.cpp:84] Creating Layer inception_4c/pool_proj
I1215 13:10:48.619508 31739 net.cpp:380] inception_4c/pool_proj <- inception_4c/pool
I1215 13:10:48.619516 31739 net.cpp:338] inception_4c/pool_proj -> inception_4c/pool_proj
I1215 13:10:48.619524 31739 net.cpp:113] Setting up inception_4c/pool_proj
I1215 13:10:48.620342 31739 net.cpp:120] Top shape: 50 64 14 14 (627200)
I1215 13:10:48.620357 31739 layer_factory.hpp:74] Creating layer inception_4c/relu_pool_proj
I1215 13:10:48.620363 31739 net.cpp:84] Creating Layer inception_4c/relu_pool_proj
I1215 13:10:48.620369 31739 net.cpp:380] inception_4c/relu_pool_proj <- inception_4c/pool_proj
I1215 13:10:48.620376 31739 net.cpp:327] inception_4c/relu_pool_proj -> inception_4c/pool_proj (in-place)
I1215 13:10:48.620383 31739 net.cpp:113] Setting up inception_4c/relu_pool_proj
I1215 13:10:48.620457 31739 net.cpp:120] Top shape: 50 64 14 14 (627200)
I1215 13:10:48.620463 31739 layer_factory.hpp:74] Creating layer inception_4c/output
I1215 13:10:48.620471 31739 net.cpp:84] Creating Layer inception_4c/output
I1215 13:10:48.620476 31739 net.cpp:380] inception_4c/output <- inception_4c/1x1
I1215 13:10:48.620481 31739 net.cpp:380] inception_4c/output <- inception_4c/3x3
I1215 13:10:48.620486 31739 net.cpp:380] inception_4c/output <- inception_4c/5x5
I1215 13:10:48.620492 31739 net.cpp:380] inception_4c/output <- inception_4c/pool_proj
I1215 13:10:48.620498 31739 net.cpp:338] inception_4c/output -> inception_4c/output
I1215 13:10:48.620506 31739 net.cpp:113] Setting up inception_4c/output
I1215 13:10:48.620512 31739 net.cpp:120] Top shape: 50 512 14 14 (5017600)
I1215 13:10:48.620517 31739 layer_factory.hpp:74] Creating layer inception_4c/output_inception_4c/output_0_split
I1215 13:10:48.620524 31739 net.cpp:84] Creating Layer inception_4c/output_inception_4c/output_0_split
I1215 13:10:48.620529 31739 net.cpp:380] inception_4c/output_inception_4c/output_0_split <- inception_4c/output
I1215 13:10:48.620537 31739 net.cpp:338] inception_4c/output_inception_4c/output_0_split -> inception_4c/output_inception_4c/output_0_split_0
I1215 13:10:48.620544 31739 net.cpp:338] inception_4c/output_inception_4c/output_0_split -> inception_4c/output_inception_4c/output_0_split_1
I1215 13:10:48.620553 31739 net.cpp:338] inception_4c/output_inception_4c/output_0_split -> inception_4c/output_inception_4c/output_0_split_2
I1215 13:10:48.620559 31739 net.cpp:338] inception_4c/output_inception_4c/output_0_split -> inception_4c/output_inception_4c/output_0_split_3
I1215 13:10:48.620568 31739 net.cpp:113] Setting up inception_4c/output_inception_4c/output_0_split
I1215 13:10:48.620575 31739 net.cpp:120] Top shape: 50 512 14 14 (5017600)
I1215 13:10:48.620580 31739 net.cpp:120] Top shape: 50 512 14 14 (5017600)
I1215 13:10:48.620585 31739 net.cpp:120] Top shape: 50 512 14 14 (5017600)
I1215 13:10:48.620590 31739 net.cpp:120] Top shape: 50 512 14 14 (5017600)
I1215 13:10:48.620595 31739 layer_factory.hpp:74] Creating layer inception_4d/1x1
I1215 13:10:48.620604 31739 net.cpp:84] Creating Layer inception_4d/1x1
I1215 13:10:48.620609 31739 net.cpp:380] inception_4d/1x1 <- inception_4c/output_inception_4c/output_0_split_0
I1215 13:10:48.620617 31739 net.cpp:338] inception_4d/1x1 -> inception_4d/1x1
I1215 13:10:48.620625 31739 net.cpp:113] Setting up inception_4d/1x1
I1215 13:10:48.621744 31739 net.cpp:120] Top shape: 50 112 14 14 (1097600)
I1215 13:10:48.621760 31739 layer_factory.hpp:74] Creating layer inception_4d/relu_1x1
I1215 13:10:48.621780 31739 net.cpp:84] Creating Layer inception_4d/relu_1x1
I1215 13:10:48.621786 31739 net.cpp:380] inception_4d/relu_1x1 <- inception_4d/1x1
I1215 13:10:48.621793 31739 net.cpp:327] inception_4d/relu_1x1 -> inception_4d/1x1 (in-place)
I1215 13:10:48.621801 31739 net.cpp:113] Setting up inception_4d/relu_1x1
I1215 13:10:48.621875 31739 net.cpp:120] Top shape: 50 112 14 14 (1097600)
I1215 13:10:48.621881 31739 layer_factory.hpp:74] Creating layer inception_4d/3x3_reduce
I1215 13:10:48.621889 31739 net.cpp:84] Creating Layer inception_4d/3x3_reduce
I1215 13:10:48.621894 31739 net.cpp:380] inception_4d/3x3_reduce <- inception_4c/output_inception_4c/output_0_split_1
I1215 13:10:48.621903 31739 net.cpp:338] inception_4d/3x3_reduce -> inception_4d/3x3_reduce
I1215 13:10:48.621912 31739 net.cpp:113] Setting up inception_4d/3x3_reduce
I1215 13:10:48.623208 31739 net.cpp:120] Top shape: 50 144 14 14 (1411200)
I1215 13:10:48.623224 31739 layer_factory.hpp:74] Creating layer inception_4d/relu_3x3_reduce
I1215 13:10:48.623231 31739 net.cpp:84] Creating Layer inception_4d/relu_3x3_reduce
I1215 13:10:48.623237 31739 net.cpp:380] inception_4d/relu_3x3_reduce <- inception_4d/3x3_reduce
I1215 13:10:48.623244 31739 net.cpp:327] inception_4d/relu_3x3_reduce -> inception_4d/3x3_reduce (in-place)
I1215 13:10:48.623251 31739 net.cpp:113] Setting up inception_4d/relu_3x3_reduce
I1215 13:10:48.623507 31739 net.cpp:120] Top shape: 50 144 14 14 (1411200)
I1215 13:10:48.623518 31739 layer_factory.hpp:74] Creating layer inception_4d/3x3
I1215 13:10:48.623527 31739 net.cpp:84] Creating Layer inception_4d/3x3
I1215 13:10:48.623533 31739 net.cpp:380] inception_4d/3x3 <- inception_4d/3x3_reduce
I1215 13:10:48.623543 31739 net.cpp:338] inception_4d/3x3 -> inception_4d/3x3
I1215 13:10:48.623551 31739 net.cpp:113] Setting up inception_4d/3x3
I1215 13:10:48.628370 31739 net.cpp:120] Top shape: 50 288 14 14 (2822400)
I1215 13:10:48.628386 31739 layer_factory.hpp:74] Creating layer inception_4d/relu_3x3
I1215 13:10:48.628396 31739 net.cpp:84] Creating Layer inception_4d/relu_3x3
I1215 13:10:48.628401 31739 net.cpp:380] inception_4d/relu_3x3 <- inception_4d/3x3
I1215 13:10:48.628408 31739 net.cpp:327] inception_4d/relu_3x3 -> inception_4d/3x3 (in-place)
I1215 13:10:48.628415 31739 net.cpp:113] Setting up inception_4d/relu_3x3
I1215 13:10:48.628485 31739 net.cpp:120] Top shape: 50 288 14 14 (2822400)
I1215 13:10:48.628491 31739 layer_factory.hpp:74] Creating layer inception_4d/5x5_reduce
I1215 13:10:48.628501 31739 net.cpp:84] Creating Layer inception_4d/5x5_reduce
I1215 13:10:48.628506 31739 net.cpp:380] inception_4d/5x5_reduce <- inception_4c/output_inception_4c/output_0_split_2
I1215 13:10:48.628515 31739 net.cpp:338] inception_4d/5x5_reduce -> inception_4d/5x5_reduce
I1215 13:10:48.628522 31739 net.cpp:113] Setting up inception_4d/5x5_reduce
I1215 13:10:48.629189 31739 net.cpp:120] Top shape: 50 32 14 14 (313600)
I1215 13:10:48.629206 31739 layer_factory.hpp:74] Creating layer inception_4d/relu_5x5_reduce
I1215 13:10:48.629216 31739 net.cpp:84] Creating Layer inception_4d/relu_5x5_reduce
I1215 13:10:48.629222 31739 net.cpp:380] inception_4d/relu_5x5_reduce <- inception_4d/5x5_reduce
I1215 13:10:48.629230 31739 net.cpp:327] inception_4d/relu_5x5_reduce -> inception_4d/5x5_reduce (in-place)
I1215 13:10:48.629237 31739 net.cpp:113] Setting up inception_4d/relu_5x5_reduce
I1215 13:10:48.629309 31739 net.cpp:120] Top shape: 50 32 14 14 (313600)
I1215 13:10:48.629317 31739 layer_factory.hpp:74] Creating layer inception_4d/5x5
I1215 13:10:48.629326 31739 net.cpp:84] Creating Layer inception_4d/5x5
I1215 13:10:48.629331 31739 net.cpp:380] inception_4d/5x5 <- inception_4d/5x5_reduce
I1215 13:10:48.629340 31739 net.cpp:338] inception_4d/5x5 -> inception_4d/5x5
I1215 13:10:48.629349 31739 net.cpp:113] Setting up inception_4d/5x5
I1215 13:10:48.630375 31739 net.cpp:120] Top shape: 50 64 14 14 (627200)
I1215 13:10:48.630390 31739 layer_factory.hpp:74] Creating layer inception_4d/relu_5x5
I1215 13:10:48.630405 31739 net.cpp:84] Creating Layer inception_4d/relu_5x5
I1215 13:10:48.630421 31739 net.cpp:380] inception_4d/relu_5x5 <- inception_4d/5x5
I1215 13:10:48.630429 31739 net.cpp:327] inception_4d/relu_5x5 -> inception_4d/5x5 (in-place)
I1215 13:10:48.630435 31739 net.cpp:113] Setting up inception_4d/relu_5x5
I1215 13:10:48.630513 31739 net.cpp:120] Top shape: 50 64 14 14 (627200)
I1215 13:10:48.630519 31739 layer_factory.hpp:74] Creating layer inception_4d/pool
I1215 13:10:48.630524 31739 layer_factory.cpp:56] CUDNN does not support padding or multiple tops. Using Caffe's own pooling layer.
I1215 13:10:48.630532 31739 net.cpp:84] Creating Layer inception_4d/pool
I1215 13:10:48.630538 31739 net.cpp:380] inception_4d/pool <- inception_4c/output_inception_4c/output_0_split_3
I1215 13:10:48.630545 31739 net.cpp:338] inception_4d/pool -> inception_4d/pool
I1215 13:10:48.630553 31739 net.cpp:113] Setting up inception_4d/pool
I1215 13:10:48.630564 31739 net.cpp:120] Top shape: 50 512 14 14 (5017600)
I1215 13:10:48.630569 31739 layer_factory.hpp:74] Creating layer inception_4d/pool_proj
I1215 13:10:48.630578 31739 net.cpp:84] Creating Layer inception_4d/pool_proj
I1215 13:10:48.630583 31739 net.cpp:380] inception_4d/pool_proj <- inception_4d/pool
I1215 13:10:48.630591 31739 net.cpp:338] inception_4d/pool_proj -> inception_4d/pool_proj
I1215 13:10:48.630599 31739 net.cpp:113] Setting up inception_4d/pool_proj
I1215 13:10:48.631412 31739 net.cpp:120] Top shape: 50 64 14 14 (627200)
I1215 13:10:48.631427 31739 layer_factory.hpp:74] Creating layer inception_4d/relu_pool_proj
I1215 13:10:48.631436 31739 net.cpp:84] Creating Layer inception_4d/relu_pool_proj
I1215 13:10:48.631443 31739 net.cpp:380] inception_4d/relu_pool_proj <- inception_4d/pool_proj
I1215 13:10:48.631448 31739 net.cpp:327] inception_4d/relu_pool_proj -> inception_4d/pool_proj (in-place)
I1215 13:10:48.631456 31739 net.cpp:113] Setting up inception_4d/relu_pool_proj
I1215 13:10:48.631711 31739 net.cpp:120] Top shape: 50 64 14 14 (627200)
I1215 13:10:48.631722 31739 layer_factory.hpp:74] Creating layer inception_4d/output
I1215 13:10:48.631731 31739 net.cpp:84] Creating Layer inception_4d/output
I1215 13:10:48.631736 31739 net.cpp:380] inception_4d/output <- inception_4d/1x1
I1215 13:10:48.631742 31739 net.cpp:380] inception_4d/output <- inception_4d/3x3
I1215 13:10:48.631748 31739 net.cpp:380] inception_4d/output <- inception_4d/5x5
I1215 13:10:48.631753 31739 net.cpp:380] inception_4d/output <- inception_4d/pool_proj
I1215 13:10:48.631762 31739 net.cpp:338] inception_4d/output -> inception_4d/output
I1215 13:10:48.631769 31739 net.cpp:113] Setting up inception_4d/output
I1215 13:10:48.631778 31739 net.cpp:120] Top shape: 50 528 14 14 (5174400)
I1215 13:10:48.631783 31739 layer_factory.hpp:74] Creating layer inception_4d/output_inception_4d/output_0_split
I1215 13:10:48.631789 31739 net.cpp:84] Creating Layer inception_4d/output_inception_4d/output_0_split
I1215 13:10:48.631794 31739 net.cpp:380] inception_4d/output_inception_4d/output_0_split <- inception_4d/output
I1215 13:10:48.631803 31739 net.cpp:338] inception_4d/output_inception_4d/output_0_split -> inception_4d/output_inception_4d/output_0_split_0
I1215 13:10:48.631810 31739 net.cpp:338] inception_4d/output_inception_4d/output_0_split -> inception_4d/output_inception_4d/output_0_split_1
I1215 13:10:48.631817 31739 net.cpp:338] inception_4d/output_inception_4d/output_0_split -> inception_4d/output_inception_4d/output_0_split_2
I1215 13:10:48.631825 31739 net.cpp:338] inception_4d/output_inception_4d/output_0_split -> inception_4d/output_inception_4d/output_0_split_3
I1215 13:10:48.631831 31739 net.cpp:338] inception_4d/output_inception_4d/output_0_split -> inception_4d/output_inception_4d/output_0_split_4
I1215 13:10:48.631839 31739 net.cpp:113] Setting up inception_4d/output_inception_4d/output_0_split
I1215 13:10:48.631845 31739 net.cpp:120] Top shape: 50 528 14 14 (5174400)
I1215 13:10:48.631851 31739 net.cpp:120] Top shape: 50 528 14 14 (5174400)
I1215 13:10:48.631856 31739 net.cpp:120] Top shape: 50 528 14 14 (5174400)
I1215 13:10:48.631867 31739 net.cpp:120] Top shape: 50 528 14 14 (5174400)
I1215 13:10:48.631878 31739 net.cpp:120] Top shape: 50 528 14 14 (5174400)
I1215 13:10:48.631883 31739 layer_factory.hpp:74] Creating layer loss2/ave_pool
I1215 13:10:48.631893 31739 net.cpp:84] Creating Layer loss2/ave_pool
I1215 13:10:48.631898 31739 net.cpp:380] loss2/ave_pool <- inception_4d/output_inception_4d/output_0_split_0
I1215 13:10:48.631906 31739 net.cpp:338] loss2/ave_pool -> loss2/ave_pool
I1215 13:10:48.631912 31739 net.cpp:113] Setting up loss2/ave_pool
I1215 13:10:48.631989 31739 net.cpp:120] Top shape: 50 528 4 4 (422400)
I1215 13:10:48.631996 31739 layer_factory.hpp:74] Creating layer loss2/conv
I1215 13:10:48.632007 31739 net.cpp:84] Creating Layer loss2/conv
I1215 13:10:48.632012 31739 net.cpp:380] loss2/conv <- loss2/ave_pool
I1215 13:10:48.632025 31739 net.cpp:338] loss2/conv -> loss2/conv
I1215 13:10:48.632033 31739 net.cpp:113] Setting up loss2/conv
I1215 13:10:48.633275 31739 net.cpp:120] Top shape: 50 128 4 4 (102400)
I1215 13:10:48.633291 31739 layer_factory.hpp:74] Creating layer loss2/relu_conv
I1215 13:10:48.633298 31739 net.cpp:84] Creating Layer loss2/relu_conv
I1215 13:10:48.633304 31739 net.cpp:380] loss2/relu_conv <- loss2/conv
I1215 13:10:48.633311 31739 net.cpp:327] loss2/relu_conv -> loss2/conv (in-place)
I1215 13:10:48.633318 31739 net.cpp:113] Setting up loss2/relu_conv
I1215 13:10:48.633393 31739 net.cpp:120] Top shape: 50 128 4 4 (102400)
I1215 13:10:48.633399 31739 layer_factory.hpp:74] Creating layer loss2/fc
I1215 13:10:48.633407 31739 net.cpp:84] Creating Layer loss2/fc
I1215 13:10:48.633412 31739 net.cpp:380] loss2/fc <- loss2/conv
I1215 13:10:48.633424 31739 net.cpp:338] loss2/fc -> loss2/fc
I1215 13:10:48.633433 31739 net.cpp:113] Setting up loss2/fc
I1215 13:10:48.656497 31739 net.cpp:120] Top shape: 50 1024 (51200)
I1215 13:10:48.656512 31739 layer_factory.hpp:74] Creating layer loss2/relu_fc
I1215 13:10:48.656519 31739 net.cpp:84] Creating Layer loss2/relu_fc
I1215 13:10:48.656524 31739 net.cpp:380] loss2/relu_fc <- loss2/fc
I1215 13:10:48.656532 31739 net.cpp:327] loss2/relu_fc -> loss2/fc (in-place)
I1215 13:10:48.656538 31739 net.cpp:113] Setting up loss2/relu_fc
I1215 13:10:48.656620 31739 net.cpp:120] Top shape: 50 1024 (51200)
I1215 13:10:48.656628 31739 layer_factory.hpp:74] Creating layer loss2/drop_fc
I1215 13:10:48.656636 31739 net.cpp:84] Creating Layer loss2/drop_fc
I1215 13:10:48.656641 31739 net.cpp:380] loss2/drop_fc <- loss2/fc
I1215 13:10:48.656649 31739 net.cpp:327] loss2/drop_fc -> loss2/fc (in-place)
I1215 13:10:48.656656 31739 net.cpp:113] Setting up loss2/drop_fc
I1215 13:10:48.656664 31739 net.cpp:120] Top shape: 50 1024 (51200)
I1215 13:10:48.656669 31739 layer_factory.hpp:74] Creating layer loss2/classifier_kaggle
I1215 13:10:48.656677 31739 net.cpp:84] Creating Layer loss2/classifier_kaggle
I1215 13:10:48.656682 31739 net.cpp:380] loss2/classifier_kaggle <- loss2/fc
I1215 13:10:48.656690 31739 net.cpp:338] loss2/classifier_kaggle -> loss2/classifier_kaggle
I1215 13:10:48.656698 31739 net.cpp:113] Setting up loss2/classifier_kaggle
I1215 13:10:48.662088 31739 net.cpp:120] Top shape: 50 447 (22350)
I1215 13:10:48.662101 31739 layer_factory.hpp:74] Creating layer loss2/classifier_kaggle_loss2/classifier_kaggle_0_split
I1215 13:10:48.662107 31739 net.cpp:84] Creating Layer loss2/classifier_kaggle_loss2/classifier_kaggle_0_split
I1215 13:10:48.662113 31739 net.cpp:380] loss2/classifier_kaggle_loss2/classifier_kaggle_0_split <- loss2/classifier_kaggle
I1215 13:10:48.662123 31739 net.cpp:338] loss2/classifier_kaggle_loss2/classifier_kaggle_0_split -> loss2/classifier_kaggle_loss2/classifier_kaggle_0_split_0
I1215 13:10:48.662132 31739 net.cpp:338] loss2/classifier_kaggle_loss2/classifier_kaggle_0_split -> loss2/classifier_kaggle_loss2/classifier_kaggle_0_split_1
I1215 13:10:48.662138 31739 net.cpp:338] loss2/classifier_kaggle_loss2/classifier_kaggle_0_split -> loss2/classifier_kaggle_loss2/classifier_kaggle_0_split_2
I1215 13:10:48.662145 31739 net.cpp:113] Setting up loss2/classifier_kaggle_loss2/classifier_kaggle_0_split
I1215 13:10:48.662164 31739 net.cpp:120] Top shape: 50 447 (22350)
I1215 13:10:48.662170 31739 net.cpp:120] Top shape: 50 447 (22350)
I1215 13:10:48.662175 31739 net.cpp:120] Top shape: 50 447 (22350)
I1215 13:10:48.662180 31739 layer_factory.hpp:74] Creating layer loss2/loss
I1215 13:10:48.662188 31739 net.cpp:84] Creating Layer loss2/loss
I1215 13:10:48.662194 31739 net.cpp:380] loss2/loss <- loss2/classifier_kaggle_loss2/classifier_kaggle_0_split_0
I1215 13:10:48.662200 31739 net.cpp:380] loss2/loss <- label_data_1_split_3
I1215 13:10:48.662206 31739 net.cpp:338] loss2/loss -> loss2/loss1
…
I1215 13:10:48.662652 31739 net.cpp:338] loss2/top-5 -> loss2/top-5
I1215 13:10:48.662659 31739 net.cpp:113] Setting up loss2/top-5
I1215 13:10:48.662665 31739 net.cpp:120] Top shape: (1)
I1215 13:10:48.662670 31739 layer_factory.hpp:74] Creating layer inception_4e/1x1
I1215 13:10:48.662680 31739 net.cpp:84] Creating Layer inception_4e/1x1
I1215 13:10:48.662685 31739 net.cpp:380] inception_4e/1x1 <- inception_4d/output_inception_4d/output_0_split_1
I1215 13:10:48.662693 31739 net.cpp:338] inception_4e/1x1 -> inception_4e/1x1
I1215 13:10:48.662700 31739 net.cpp:113] Setting up inception_4e/1x1
I1215 13:10:48.664726 31739 net.cpp:120] Top shape: 50 256 14 14 (2508800)
I1215 13:10:48.664742 31739 layer_factory.hpp:74] Creating layer inception_4e/relu_1x1
I1215 13:10:48.664752 31739 net.cpp:84] Creating Layer inception_4e/relu_1x1
I1215 13:10:48.664758 31739 net.cpp:380] inception_4e/relu_1x1 <- inception_4e/1x1
I1215 13:10:48.664765 31739 net.cpp:327] inception_4e/relu_1x1 -> inception_4e/1x1 (in-place)
I1215 13:10:48.664772 31739 net.cpp:113] Setting up inception_4e/relu_1x1
I1215 13:10:48.664845 31739 net.cpp:120] Top shape: 50 256 14 14 (2508800)
I1215 13:10:48.664851 31739 layer_factory.hpp:74] Creating layer inception_4e/3x3_reduce
I1215 13:10:48.664877 31739 net.cpp:84] Creating Layer inception_4e/3x3_reduce
I1215 13:10:48.664883 31739 net.cpp:380] inception_4e/3x3_reduce <- inception_4d/output_inception_4d/output_0_split_2
I1215 13:10:48.664891 31739 net.cpp:338] inception_4e/3x3_reduce -> inception_4e/3x3_reduce
I1215 13:10:48.664901 31739 net.cpp:113] Setting up inception_4e/3x3_reduce
I1215 13:10:48.666334 31739 net.cpp:120] Top shape: 50 160 14 14 (1568000)
I1215 13:10:48.666350 31739 layer_factory.hpp:74] Creating layer inception_4e/relu_3x3_reduce
I1215 13:10:48.666358 31739 net.cpp:84] Creating Layer inception_4e/relu_3x3_reduce
I1215 13:10:48.666364 31739 net.cpp:380] inception_4e/relu_3x3_reduce <- inception_4e/3x3_reduce
I1215 13:10:48.666370 31739 net.cpp:327] inception_4e/relu_3x3_reduce -> inception_4e/3x3_reduce (in-place)
I1215 13:10:48.666378 31739 net.cpp:113] Setting up inception_4e/relu_3x3_reduce
I1215 13:10:48.666451 31739 net.cpp:120] Top shape: 50 160 14 14 (1568000)
I1215 13:10:48.666457 31739 layer_factory.hpp:74] Creating layer inception_4e/3x3
I1215 13:10:48.666473 31739 net.cpp:84] Creating Layer inception_4e/3x3
I1215 13:10:48.666486 31739 net.cpp:380] inception_4e/3x3 <- inception_4e/3x3_reduce
I1215 13:10:48.666494 31739 net.cpp:338] inception_4e/3x3 -> inception_4e/3x3
I1215 13:10:48.666502 31739 net.cpp:113] Setting up inception_4e/3x3
I1215 13:10:48.672441 31739 net.cpp:120] Top shape: 50 320 14 14 (3136000)
I1215 13:10:48.672457 31739 layer_factory.hpp:74] Creating layer inception_4e/relu_3x3
I1215 13:10:48.672466 31739 net.cpp:84] Creating Layer inception_4e/relu_3x3
I1215 13:10:48.672472 31739 net.cpp:380] inception_4e/relu_3x3 <- inception_4e/3x3
I1215 13:10:48.672478 31739 net.cpp:327] inception_4e/relu_3x3 -> inception_4e/3x3 (in-place)
I1215 13:10:48.672487 31739 net.cpp:113] Setting up inception_4e/relu_3x3
I1215 13:10:48.672734 31739 net.cpp:120] Top shape: 50 320 14 14 (3136000)
I1215 13:10:48.672745 31739 layer_factory.hpp:74] Creating layer inception_4e/5x5_reduce
I1215 13:10:48.672755 31739 net.cpp:84] Creating Layer inception_4e/5x5_reduce
I1215 13:10:48.672760 31739 net.cpp:380] inception_4e/5x5_reduce <- inception_4d/output_inception_4d/output_0_split_3
I1215 13:10:48.672768 31739 net.cpp:338] inception_4e/5x5_reduce -> inception_4e/5x5_reduce
I1215 13:10:48.672777 31739 net.cpp:113] Setting up inception_4e/5x5_reduce
I1215 13:10:48.673391 31739 net.cpp:120] Top shape: 50 32 14 14 (313600)
I1215 13:10:48.673408 31739 layer_factory.hpp:74] Creating layer inception_4e/relu_5x5_reduce
I1215 13:10:48.673418 31739 net.cpp:84] Creating Layer inception_4e/relu_5x5_reduce
I1215 13:10:48.673423 31739 net.cpp:380] inception_4e/relu_5x5_reduce <- inception_4e/5x5_reduce
I1215 13:10:48.673430 31739 net.cpp:327] inception_4e/relu_5x5_reduce -> inception_4e/5x5_reduce (in-place)
I1215 13:10:48.673439 31739 net.cpp:113] Setting up inception_4e/relu_5x5_reduce
I1215 13:10:48.673521 31739 net.cpp:120] Top shape: 50 32 14 14 (313600)
I1215 13:10:48.673528 31739 layer_factory.hpp:74] Creating layer inception_4e/5x5
I1215 13:10:48.673538 31739 net.cpp:84] Creating Layer inception_4e/5x5
I1215 13:10:48.673544 31739 net.cpp:380] inception_4e/5x5 <- inception_4e/5x5_reduce
I1215 13:10:48.673552 31739 net.cpp:338] inception_4e/5x5 -> inception_4e/5x5
I1215 13:10:48.673559 31739 net.cpp:113] Setting up inception_4e/5x5
I1215 13:10:48.679271 31739 net.cpp:120] Top shape: 50 128 14 14 (1254400)
I1215 13:10:48.679293 31739 layer_factory.hpp:74] Creating layer inception_4e/relu_5x5
I1215 13:10:48.679302 31739 net.cpp:84] Creating Layer inception_4e/relu_5x5
I1215 13:10:48.679308 31739 net.cpp:380] inception_4e/relu_5x5 <- inception_4e/5x5
I1215 13:10:48.679322 31739 net.cpp:327] inception_4e/relu_5x5 -> inception_4e/5x5 (in-place)
I1215 13:10:48.679330 31739 net.cpp:113] Setting up inception_4e/relu_5x5
I1215 13:10:48.679406 31739 net.cpp:120] Top shape: 50 128 14 14 (1254400)
I1215 13:10:48.679415 31739 layer_factory.hpp:74] Creating layer inception_4e/pool
I1215 13:10:48.679421 31739 layer_factory.cpp:56] CUDNN does not support padding or multiple tops. Using Caffe's own pooling layer.
I1215 13:10:48.679428 31739 net.cpp:84] Creating Layer inception_4e/pool
I1215 13:10:48.679433 31739 net.cpp:380] inception_4e/pool <- inception_4d/output_inception_4d/output_0_split_4
I1215 13:10:48.679442 31739 net.cpp:338] inception_4e/pool -> inception_4e/pool
I1215 13:10:48.679450 31739 net.cpp:113] Setting up inception_4e/pool
I1215 13:10:48.679460 31739 net.cpp:120] Top shape: 50 528 14 14 (5174400)
I1215 13:10:48.679464 31739 layer_factory.hpp:74] Creating layer inception_4e/pool_proj
I1215 13:10:48.679473 31739 net.cpp:84] Creating Layer inception_4e/pool_proj
I1215 13:10:48.679478 31739 net.cpp:380] inception_4e/pool_proj <- inception_4e/pool
I1215 13:10:48.679486 31739 net.cpp:338] inception_4e/pool_proj -> inception_4e/pool_proj
I1215 13:10:48.679496 31739 net.cpp:113] Setting up inception_4e/pool_proj
I1215 13:10:48.681210 31739 net.cpp:120] Top shape: 50 128 14 14 (1254400)
I1215 13:10:48.681228 31739 layer_factory.hpp:74] Creating layer inception_4e/relu_pool_proj
I1215 13:10:48.681242 31739 net.cpp:84] Creating Layer inception_4e/relu_pool_proj
I1215 13:10:48.681259 31739 net.cpp:380] inception_4e/relu_pool_proj <- inception_4e/pool_proj
I1215 13:10:48.681267 31739 net.cpp:327] inception_4e/relu_pool_proj -> inception_4e/pool_proj (in-place)
I1215 13:10:48.681275 31739 net.cpp:113] Setting up inception_4e/relu_pool_proj
I1215 13:10:48.681349 31739 net.cpp:120] Top shape: 50 128 14 14 (1254400)
I1215 13:10:48.681356 31739 layer_factory.hpp:74] Creating layer inception_4e/output
I1215 13:10:48.681365 31739 net.cpp:84] Creating Layer inception_4e/output
I1215 13:10:48.681370 31739 net.cpp:380] inception_4e/output <- inception_4e/1x1
I1215 13:10:48.681375 31739 net.cpp:380] inception_4e/output <- inception_4e/3x3
I1215 13:10:48.681381 31739 net.cpp:380] inception_4e/output <- inception_4e/5x5
I1215 13:10:48.681391 31739 net.cpp:380] inception_4e/output <- inception_4e/pool_proj
I1215 13:10:48.681397 31739 net.cpp:338] inception_4e/output -> inception_4e/output
I1215 13:10:48.681406 31739 net.cpp:113] Setting up inception_4e/output
I1215 13:10:48.681412 31739 net.cpp:120] Top shape: 50 832 14 14 (8153600)
I1215 13:10:48.681417 31739 layer_factory.hpp:74] Creating layer pool4/3x3_s2
I1215 13:10:48.681427 31739 net.cpp:84] Creating Layer pool4/3x3_s2
I1215 13:10:48.681432 31739 net.cpp:380] pool4/3x3_s2 <- inception_4e/output
I1215 13:10:48.681439 31739 net.cpp:338] pool4/3x3_s2 -> pool4/3x3_s2
I1215 13:10:48.681447 31739 net.cpp:113] Setting up pool4/3x3_s2
I1215 13:10:48.682148 31739 net.cpp:120] Top shape: 50 832 7 7 (2038400)
I1215 13:10:48.682160 31739 layer_factory.hpp:74] Creating layer pool4/3x3_s2_pool4/3x3_s2_0_split
I1215 13:10:48.682168 31739 net.cpp:84] Creating Layer pool4/3x3_s2_pool4/3x3_s2_0_split
I1215 13:10:48.682174 31739 net.cpp:380] pool4/3x3_s2_pool4/3x3_s2_0_split <- pool4/3x3_s2
I1215 13:10:48.682183 31739 net.cpp:338] pool4/3x3_s2_pool4/3x3_s2_0_split -> pool4/3x3_s2_pool4/3x3_s2_0_split_0
I1215 13:10:48.682193 31739 net.cpp:338] pool4/3x3_s2_pool4/3x3_s2_0_split -> pool4/3x3_s2_pool4/3x3_s2_0_split_1
I1215 13:10:48.682199 31739 net.cpp:338] pool4/3x3_s2_pool4/3x3_s2_0_split -> pool4/3x3_s2_pool4/3x3_s2_0_split_2
I1215 13:10:48.682224 31739 net.cpp:338] pool4/3x3_s2_pool4/3x3_s2_0_split -> pool4/3x3_s2_pool4/3x3_s2_0_split_3
I1215 13:10:48.682231 31739 net.cpp:113] Setting up pool4/3x3_s2_pool4/3x3_s2_0_split
I1215 13:10:48.682240 31739 net.cpp:120] Top shape: 50 832 7 7 (2038400)
I1215 13:10:48.682245 31739 net.cpp:120] Top shape: 50 832 7 7 (2038400)
I1215 13:10:48.682251 31739 net.cpp:120] Top shape: 50 832 7 7 (2038400)
I1215 13:10:48.682256 31739 net.cpp:120] Top shape: 50 832 7 7 (2038400)
I1215 13:10:48.682261 31739 layer_factory.hpp:74] Creating layer inception_5a/1x1
I1215 13:10:48.682271 31739 net.cpp:84] Creating Layer inception_5a/1x1
I1215 13:10:48.682277 31739 net.cpp:380] inception_5a/1x1 <- pool4/3x3_s2_pool4/3x3_s2_0_split_0
I1215 13:10:48.682284 31739 net.cpp:338] inception_5a/1x1 -> inception_5a/1x1
I1215 13:10:48.682292 31739 net.cpp:113] Setting up inception_5a/1x1
I1215 13:10:48.685238 31739 net.cpp:120] Top shape: 50 256 7 7 (627200)
I1215 13:10:48.685255 31739 layer_factory.hpp:74] Creating layer inception_5a/relu_1x1
I1215 13:10:48.685262 31739 net.cpp:84] Creating Layer inception_5a/relu_1x1
I1215 13:10:48.685268 31739 net.cpp:380] inception_5a/relu_1x1 <- inception_5a/1x1
I1215 13:10:48.685277 31739 net.cpp:327] inception_5a/relu_1x1 -> inception_5a/1x1 (in-place)
I1215 13:10:48.685286 31739 net.cpp:113] Setting up inception_5a/relu_1x1
I1215 13:10:48.685358 31739 net.cpp:120] Top shape: 50 256 7 7 (627200)
I1215 13:10:48.685364 31739 layer_factory.hpp:74] Creating layer inception_5a/3x3_reduce
I1215 13:10:48.685374 31739 net.cpp:84] Creating Layer inception_5a/3x3_reduce
I1215 13:10:48.685379 31739 net.cpp:380] inception_5a/3x3_reduce <- pool4/3x3_s2_pool4/3x3_s2_0_split_1
I1215 13:10:48.685389 31739 net.cpp:338] inception_5a/3x3_reduce -> inception_5a/3x3_reduce
I1215 13:10:48.685403 31739 net.cpp:113] Setting up inception_5a/3x3_reduce
I1215 13:10:48.687400 31739 net.cpp:120] Top shape: 50 160 7 7 (392000)
I1215 13:10:48.687424 31739 layer_factory.hpp:74] Creating layer inception_5a/relu_3x3_reduce
I1215 13:10:48.687433 31739 net.cpp:84] Creating Layer inception_5a/relu_3x3_reduce
I1215 13:10:48.687438 31739 net.cpp:380] inception_5a/relu_3x3_reduce <- inception_5a/3x3_reduce
I1215 13:10:48.687448 31739 net.cpp:327] inception_5a/relu_3x3_reduce -> inception_5a/3x3_reduce (in-place)
I1215 13:10:48.687455 31739 net.cpp:113] Setting up inception_5a/relu_3x3_reduce
I1215 13:10:48.687536 31739 net.cpp:120] Top shape: 50 160 7 7 (392000)
I1215 13:10:48.687543 31739 layer_factory.hpp:74] Creating layer inception_5a/3x3
I1215 13:10:48.687551 31739 net.cpp:84] Creating Layer inception_5a/3x3
I1215 13:10:48.687556 31739 net.cpp:380] inception_5a/3x3 <- inception_5a/3x3_reduce
I1215 13:10:48.687566 31739 net.cpp:338] inception_5a/3x3 -> inception_5a/3x3
I1215 13:10:48.687573 31739 net.cpp:113] Setting up inception_5a/3x3
I1215 13:10:48.693415 31739 net.cpp:120] Top shape: 50 320 7 7 (784000)
I1215 13:10:48.693433 31739 layer_factory.hpp:74] Creating layer inception_5a/relu_3x3
I1215 13:10:48.693440 31739 net.cpp:84] Creating Layer inception_5a/relu_3x3
I1215 13:10:48.693446 31739 net.cpp:380] inception_5a/relu_3x3 <- inception_5a/3x3
I1215 13:10:48.693454 31739 net.cpp:327] inception_5a/relu_3x3 -> inception_5a/3x3 (in-place)
I1215 13:10:48.693460 31739 net.cpp:113] Setting up inception_5a/relu_3x3
I1215 13:10:48.693538 31739 net.cpp:120] Top shape: 50 320 7 7 (784000)
I1215 13:10:48.693544 31739 layer_factory.hpp:74] Creating layer inception_5a/5x5_reduce
I1215 13:10:48.693553 31739 net.cpp:84] Creating Layer inception_5a/5x5_reduce
I1215 13:10:48.693558 31739 net.cpp:380] inception_5a/5x5_reduce <- pool4/3x3_s2_pool4/3x3_s2_0_split_2
I1215 13:10:48.693567 31739 net.cpp:338] inception_5a/5x5_reduce -> inception_5a/5x5_reduce
I1215 13:10:48.693578 31739 net.cpp:113] Setting up inception_5a/5x5_reduce
I1215 13:10:48.694324 31739 net.cpp:120] Top shape: 50 32 7 7 (78400)
I1215 13:10:48.694339 31739 layer_factory.hpp:74] Creating layer inception_5a/relu_5x5_reduce
I1215 13:10:48.694349 31739 net.cpp:84] Creating Layer inception_5a/relu_5x5_reduce
I1215 13:10:48.694355 31739 net.cpp:380] inception_5a/relu_5x5_reduce <- inception_5a/5x5_reduce
I1215 13:10:48.694361 31739 net.cpp:327] inception_5a/relu_5x5_reduce -> inception_5a/5x5_reduce (in-place)
I1215 13:10:48.694368 31739 net.cpp:113] Setting up inception_5a/relu_5x5_reduce
I1215 13:10:48.694623 31739 net.cpp:120] Top shape: 50 32 7 7 (78400)
I1215 13:10:48.694634 31739 layer_factory.hpp:74] Creating layer inception_5a/5x5
I1215 13:10:48.694645 31739 net.cpp:84] Creating Layer inception_5a/5x5
I1215 13:10:48.694651 31739 net.cpp:380] inception_5a/5x5 <- inception_5a/5x5_reduce
I1215 13:10:48.694659 31739 net.cpp:338] inception_5a/5x5 -> inception_5a/5x5
I1215 13:10:48.694667 31739 net.cpp:113] Setting up inception_5a/5x5
I1215 13:10:48.696303 31739 net.cpp:120] Top shape: 50 128 7 7 (313600)
I1215 13:10:48.696318 31739 layer_factory.hpp:74] Creating layer inception_5a/relu_5x5
I1215 13:10:48.696326 31739 net.cpp:84] Creating Layer inception_5a/relu_5x5
I1215 13:10:48.696331 31739 net.cpp:380] inception_5a/relu_5x5 <- inception_5a/5x5
I1215 13:10:48.696338 31739 net.cpp:327] inception_5a/relu_5x5 -> inception_5a/5x5 (in-place)
I1215 13:10:48.696346 31739 net.cpp:113] Setting up inception_5a/relu_5x5
I1215 13:10:48.696419 31739 net.cpp:120] Top shape: 50 128 7 7 (313600)
I1215 13:10:48.696425 31739 layer_factory.hpp:74] Creating layer inception_5a/pool
I1215 13:10:48.696430 31739 layer_factory.cpp:56] CUDNN does not support padding or multiple tops. Using Caffe's own pooling layer.
I1215 13:10:48.696439 31739 net.cpp:84] Creating Layer inception_5a/pool
I1215 13:10:48.696444 31739 net.cpp:380] inception_5a/pool <- pool4/3x3_s2_pool4/3x3_s2_0_split_3
I1215 13:10:48.696451 31739 net.cpp:338] inception_5a/pool -> inception_5a/pool
I1215 13:10:48.696458 31739 net.cpp:113] Setting up inception_5a/pool
I1215 13:10:48.696472 31739 net.cpp:120] Top shape: 50 832 7 7 (2038400)
I1215 13:10:48.696486 31739 layer_factory.hpp:74] Creating layer inception_5a/pool_proj
I1215 13:10:48.696497 31739 net.cpp:84] Creating Layer inception_5a/pool_proj
I1215 13:10:48.696502 31739 net.cpp:380] inception_5a/pool_proj <- inception_5a/pool
I1215 13:10:48.696511 31739 net.cpp:338] inception_5a/pool_proj -> inception_5a/pool_proj
I1215 13:10:48.696517 31739 net.cpp:113] Setting up inception_5a/pool_proj
I1215 13:10:48.698218 31739 net.cpp:120] Top shape: 50 128 7 7 (313600)
I1215 13:10:48.698235 31739 layer_factory.hpp:74] Creating layer inception_5a/relu_pool_proj
I1215 13:10:48.698242 31739 net.cpp:84] Creating Layer inception_5a/relu_pool_proj
I1215 13:10:48.698248 31739 net.cpp:380] inception_5a/relu_pool_proj <- inception_5a/pool_proj
I1215 13:10:48.698256 31739 net.cpp:327] inception_5a/relu_pool_proj -> inception_5a/pool_proj (in-place)
I1215 13:10:48.698262 31739 net.cpp:113] Setting up inception_5a/relu_pool_proj
I1215 13:10:48.698335 31739 net.cpp:120] Top shape: 50 128 7 7 (313600)
I1215 13:10:48.698343 31739 layer_factory.hpp:74] Creating layer inception_5a/output
I1215 13:10:48.698349 31739 net.cpp:84] Creating Layer inception_5a/output
I1215 13:10:48.698354 31739 net.cpp:380] inception_5a/output <- inception_5a/1x1
I1215 13:10:48.698360 31739 net.cpp:380] inception_5a/output <- inception_5a/3x3
I1215 13:10:48.698365 31739 net.cpp:380] inception_5a/output <- inception_5a/5x5
I1215 13:10:48.698371 31739 net.cpp:380] inception_5a/output <- inception_5a/pool_proj
I1215 13:10:48.698377 31739 net.cpp:338] inception_5a/output -> inception_5a/output
I1215 13:10:48.698385 31739 net.cpp:113] Setting up inception_5a/output
I1215 13:10:48.698392 31739 net.cpp:120] Top shape: 50 832 7 7 (2038400)
I1215 13:10:48.698396 31739 layer_factory.hpp:74] Creating layer inception_5a/output_inception_5a/output_0_split
I1215 13:10:48.698405 31739 net.cpp:84] Creating Layer inception_5a/output_inception_5a/output_0_split
I1215 13:10:48.698410 31739 net.cpp:380] inception_5a/output_inception_5a/output_0_split <- inception_5a/output
I1215 13:10:48.698417 31739 net.cpp:338] inception_5a/output_inception_5a/output_0_split -> inception_5a/output_inception_5a/output_0_split_0
I1215 13:10:48.698426 31739 net.cpp:338] inception_5a/output_inception_5a/output_0_split -> inception_5a/output_inception_5a/output_0_split_1
I1215 13:10:48.698434 31739 net.cpp:338] inception_5a/output_inception_5a/output_0_split -> inception_5a/output_inception_5a/output_0_split_2
I1215 13:10:48.698442 31739 net.cpp:338] inception_5a/output_inception_5a/output_0_split -> inception_5a/output_inception_5a/output_0_split_3
I1215 13:10:48.698448 31739 net.cpp:113] Setting up inception_5a/output_inception_5a/output_0_split
I1215 13:10:48.698456 31739 net.cpp:120] Top shape: 50 832 7 7 (2038400)
I1215 13:10:48.698462 31739 net.cpp:120] Top shape: 50 832 7 7 (2038400)
I1215 13:10:48.698467 31739 net.cpp:120] Top shape: 50 832 7 7 (2038400)
I1215 13:10:48.698472 31739 net.cpp:120] Top shape: 50 832 7 7 (2038400)
I1215 13:10:48.698475 31739 layer_factory.hpp:74] Creating layer inception_5b/1x1
I1215 13:10:48.698483 31739 net.cpp:84] Creating Layer inception_5b/1x1
I1215 13:10:48.698488 31739 net.cpp:380] inception_5b/1x1 <- inception_5a/output_inception_5a/output_0_split_0
I1215 13:10:48.698496 31739 net.cpp:338] inception_5b/1x1 -> inception_5b/1x1
I1215 13:10:48.698504 31739 net.cpp:113] Setting up inception_5b/1x1
I1215 13:10:48.702685 31739 net.cpp:120] Top shape: 50 384 7 7 (940800)
I1215 13:10:48.702702 31739 layer_factory.hpp:74] Creating layer inception_5b/relu_1x1
I1215 13:10:48.702709 31739 net.cpp:84] Creating Layer inception_5b/relu_1x1
I1215 13:10:48.702715 31739 net.cpp:380] inception_5b/relu_1x1 <- inception_5b/1x1
I1215 13:10:48.702724 31739 net.cpp:327] inception_5b/relu_1x1 -> inception_5b/1x1 (in-place)
I1215 13:10:48.702733 31739 net.cpp:113] Setting up inception_5b/relu_1x1
I1215 13:10:48.702808 31739 net.cpp:120] Top shape: 50 384 7 7 (940800)
I1215 13:10:48.702816 31739 layer_factory.hpp:74] Creating layer inception_5b/3x3_reduce
I1215 13:10:48.702836 31739 net.cpp:84] Creating Layer inception_5b/3x3_reduce
I1215 13:10:48.702842 31739 net.cpp:380] inception_5b/3x3_reduce <- inception_5a/output_inception_5a/output_0_split_1
I1215 13:10:48.702852 31739 net.cpp:338] inception_5b/3x3_reduce -> inception_5b/3x3_reduce
I1215 13:10:48.702860 31739 net.cpp:113] Setting up inception_5b/3x3_reduce
I1215 13:10:48.705173 31739 net.cpp:120] Top shape: 50 192 7 7 (470400)
I1215 13:10:48.705190 31739 layer_factory.hpp:74] Creating layer inception_5b/relu_3x3_reduce
I1215 13:10:48.705198 31739 net.cpp:84] Creating Layer inception_5b/relu_3x3_reduce
I1215 13:10:48.705204 31739 net.cpp:380] inception_5b/relu_3x3_reduce <- inception_5b/3x3_reduce
I1215 13:10:48.705212 31739 net.cpp:327] inception_5b/relu_3x3_reduce -> inception_5b/3x3_reduce (in-place)
I1215 13:10:48.705220 31739 net.cpp:113] Setting up inception_5b/relu_3x3_reduce
I1215 13:10:48.705483 31739 net.cpp:120] Top shape: 50 192 7 7 (470400)
I1215 13:10:48.705494 31739 layer_factory.hpp:74] Creating layer inception_5b/3x3
I1215 13:10:48.705505 31739 net.cpp:84] Creating Layer inception_5b/3x3
I1215 13:10:48.705512 31739 net.cpp:380] inception_5b/3x3 <- inception_5b/3x3_reduce
I1215 13:10:48.705521 31739 net.cpp:338] inception_5b/3x3 -> inception_5b/3x3
I1215 13:10:48.705530 31739 net.cpp:113] Setting up inception_5b/3x3
I1215 13:10:48.713749 31739 net.cpp:120] Top shape: 50 384 7 7 (940800)
I1215 13:10:48.713765 31739 layer_factory.hpp:74] Creating layer inception_5b/relu_3x3
I1215 13:10:48.713775 31739 net.cpp:84] Creating Layer inception_5b/relu_3x3
I1215 13:10:48.713783 31739 net.cpp:380] inception_5b/relu_3x3 <- inception_5b/3x3
I1215 13:10:48.713789 31739 net.cpp:327] inception_5b/relu_3x3 -> inception_5b/3x3 (in-place)
I1215 13:10:48.713796 31739 net.cpp:113] Setting up inception_5b/relu_3x3
I1215 13:10:48.713871 31739 net.cpp:120] Top shape: 50 384 7 7 (940800)
I1215 13:10:48.713878 31739 layer_factory.hpp:74] Creating layer inception_5b/5x5_reduce
I1215 13:10:48.713888 31739 net.cpp:84] Creating Layer inception_5b/5x5_reduce
I1215 13:10:48.713894 31739 net.cpp:380] inception_5b/5x5_reduce <- inception_5a/output_inception_5a/output_0_split_2
I1215 13:10:48.713903 31739 net.cpp:338] inception_5b/5x5_reduce -> inception_5b/5x5_reduce
I1215 13:10:48.713912 31739 net.cpp:113] Setting up inception_5b/5x5_reduce
I1215 13:10:48.714809 31739 net.cpp:120] Top shape: 50 48 7 7 (117600)
I1215 13:10:48.714824 31739 layer_factory.hpp:74] Creating layer inception_5b/relu_5x5_reduce
I1215 13:10:48.714833 31739 net.cpp:84] Creating Layer inception_5b/relu_5x5_reduce
I1215 13:10:48.714838 31739 net.cpp:380] inception_5b/relu_5x5_reduce <- inception_5b/5x5_reduce
I1215 13:10:48.714846 31739 net.cpp:327] inception_5b/relu_5x5_reduce -> inception_5b/5x5_reduce (in-place)
I1215 13:10:48.714854 31739 net.cpp:113] Setting up inception_5b/relu_5x5_reduce
I1215 13:10:48.714931 31739 net.cpp:120] Top shape: 50 48 7 7 (117600)
I1215 13:10:48.714936 31739 layer_factory.hpp:74] Creating layer inception_5b/5x5
I1215 13:10:48.714946 31739 net.cpp:84] Creating Layer inception_5b/5x5
I1215 13:10:48.714951 31739 net.cpp:380] inception_5b/5x5 <- inception_5b/5x5_reduce
I1215 13:10:48.714959 31739 net.cpp:338] inception_5b/5x5 -> inception_5b/5x5
I1215 13:10:48.714967 31739 net.cpp:113] Setting up inception_5b/5x5
I1215 13:10:48.717206 31739 net.cpp:120] Top shape: 50 128 7 7 (313600)
I1215 13:10:48.717221 31739 layer_factory.hpp:74] Creating layer inception_5b/relu_5x5
I1215 13:10:48.717231 31739 net.cpp:84] Creating Layer inception_5b/relu_5x5
I1215 13:10:48.717237 31739 net.cpp:380] inception_5b/relu_5x5 <- inception_5b/5x5
I1215 13:10:48.717244 31739 net.cpp:327] inception_5b/relu_5x5 -> inception_5b/5x5 (in-place)
I1215 13:10:48.717252 31739 net.cpp:113] Setting up inception_5b/relu_5x5
I1215 13:10:48.717514 31739 net.cpp:120] Top shape: 50 128 7 7 (313600)
I1215 13:10:48.717525 31739 layer_factory.hpp:74] Creating layer inception_5b/pool
I1215 13:10:48.717530 31739 layer_factory.cpp:56] CUDNN does not support padding or multiple tops. Using Caffe's own pooling layer.
I1215 13:10:48.717550 31739 net.cpp:84] Creating Layer inception_5b/pool
I1215 13:10:48.717556 31739 net.cpp:380] inception_5b/pool <- inception_5a/output_inception_5a/output_0_split_3
I1215 13:10:48.717566 31739 net.cpp:338] inception_5b/pool -> inception_5b/pool
I1215 13:10:48.717574 31739 net.cpp:113] Setting up inception_5b/pool
I1215 13:10:48.717583 31739 net.cpp:120] Top shape: 50 832 7 7 (2038400)
I1215 13:10:48.717588 31739 layer_factory.hpp:74] Creating layer inception_5b/pool_proj
I1215 13:10:48.717597 31739 net.cpp:84] Creating Layer inception_5b/pool_proj
I1215 13:10:48.717603 31739 net.cpp:380] inception_5b/pool_proj <- inception_5b/pool
I1215 13:10:48.717610 31739 net.cpp:338] inception_5b/pool_proj -> inception_5b/pool_proj
I1215 13:10:48.717617 31739 net.cpp:113] Setting up inception_5b/pool_proj
I1215 13:10:48.719295 31739 net.cpp:120] Top shape: 50 128 7 7 (313600)
I1215 13:10:48.719310 31739 layer_factory.hpp:74] Creating layer inception_5b/relu_pool_proj
I1215 13:10:48.719319 31739 net.cpp:84] Creating Layer inception_5b/relu_pool_proj
I1215 13:10:48.719326 31739 net.cpp:380] inception_5b/relu_pool_proj <- inception_5b/pool_proj
I1215 13:10:48.719332 31739 net.cpp:327] inception_5b/relu_pool_proj -> inception_5b/pool_proj (in-place)
I1215 13:10:48.719339 31739 net.cpp:113] Setting up inception_5b/relu_pool_proj
I1215 13:10:48.719416 31739 net.cpp:120] Top shape: 50 128 7 7 (313600)
I1215 13:10:48.719424 31739 layer_factory.hpp:74] Creating layer inception_5b/output
I1215 13:10:48.719432 31739 net.cpp:84] Creating Layer inception_5b/output
I1215 13:10:48.719437 31739 net.cpp:380] inception_5b/output <- inception_5b/1x1
I1215 13:10:48.719444 31739 net.cpp:380] inception_5b/output <- inception_5b/3x3
I1215 13:10:48.719449 31739 net.cpp:380] inception_5b/output <- inception_5b/5x5
I1215 13:10:48.719455 31739 net.cpp:380] inception_5b/output <- inception_5b/pool_proj
I1215 13:10:48.719460 31739 net.cpp:338] inception_5b/output -> inception_5b/output
I1215 13:10:48.719470 31739 net.cpp:113] Setting up inception_5b/output
I1215 13:10:48.719477 31739 net.cpp:120] Top shape: 50 1024 7 7 (2508800)
I1215 13:10:48.719482 31739 layer_factory.hpp:74] Creating layer pool5/7x7_s1
I1215 13:10:48.719490 31739 net.cpp:84] Creating Layer pool5/7x7_s1
I1215 13:10:48.719494 31739 net.cpp:380] pool5/7x7_s1 <- inception_5b/output
I1215 13:10:48.719501 31739 net.cpp:338] pool5/7x7_s1 -> pool5/7x7_s1
I1215 13:10:48.719507 31739 net.cpp:113] Setting up pool5/7x7_s1
I1215 13:10:48.719581 31739 net.cpp:120] Top shape: 50 1024 1 1 (51200)
I1215 13:10:48.719588 31739 layer_factory.hpp:74] Creating layer pool5/drop_7x7_s1
I1215 13:10:48.719596 31739 net.cpp:84] Creating Layer pool5/drop_7x7_s1
I1215 13:10:48.719601 31739 net.cpp:380] pool5/drop_7x7_s1 <- pool5/7x7_s1
I1215 13:10:48.719607 31739 net.cpp:327] pool5/drop_7x7_s1 -> pool5/7x7_s1 (in-place)
I1215 13:10:48.719614 31739 net.cpp:113] Setting up pool5/drop_7x7_s1
I1215 13:10:48.719621 31739 net.cpp:120] Top shape: 50 1024 1 1 (51200)
I1215 13:10:48.719626 31739 layer_factory.hpp:74] Creating layer loss3/classifier_kaggle
I1215 13:10:48.719635 31739 net.cpp:84] Creating Layer loss3/classifier_kaggle
I1215 13:10:48.719638 31739 net.cpp:380] loss3/classifier_kaggle <- pool5/7x7_s1
I1215 13:10:48.719647 31739 net.cpp:338] loss3/classifier_kaggle -> loss3/classifier_kaggle
I1215 13:10:48.719655 31739 net.cpp:113] Setting up loss3/classifier_kaggle
I1215 13:10:48.725038 31739 net.cpp:120] Top shape: 50 447 (22350)
I1215 13:10:48.725049 31739 layer_factory.hpp:74] Creating layer loss3/classifier_kaggle_loss3/classifier_kaggle_0_split
I1215 13:10:48.725072 31739 net.cpp:84] Creating Layer loss3/classifier_kaggle_loss3/classifier_kaggle_0_split
I1215 13:10:48.725080 31739 net.cpp:380] loss3/classifier_kaggle_loss3/classifier_kaggle_0_split <- loss3/classifier_kaggle
I1215 13:10:48.725086 31739 net.cpp:338] loss3/classifier_kaggle_loss3/classifier_kaggle_0_split -> loss3/classifier_kaggle_loss3/classifier_kaggle_0_split_0
I1215 13:10:48.725100 31739 net.cpp:338] loss3/classifier_kaggle_loss3/classifier_kaggle_0_split -> loss3/classifier_kaggle_loss3/classifier_kaggle_0_split_1
I1215 13:10:48.725114 31739 net.cpp:338] loss3/classifier_kaggle_loss3/classifier_kaggle_0_split -> loss3/classifier_kaggle_loss3/classifier_kaggle_0_split_2
I1215 13:10:48.725121 31739 net.cpp:113] Setting up loss3/classifier_kaggle_loss3/classifier_kaggle_0_split
I1215 13:10:48.725131 31739 net.cpp:120] Top shape: 50 447 (22350)
I1215 13:10:48.725136 31739 net.cpp:120] Top shape: 50 447 (22350)
I1215 13:10:48.725142 31739 net.cpp:120] Top shape: 50 447 (22350)
I1215 13:10:48.725147 31739 layer_factory.hpp:74] Creating layer loss3/loss3
I1215 13:10:48.725153 31739 net.cpp:84] Creating Layer loss3/loss3
I1215 13:10:48.725157 31739 net.cpp:380] loss3/loss3 <- loss3/classifier_kaggle_loss3/classifier_kaggle_0_split_0
I1215 13:10:48.725163 31739 net.cpp:380] loss3/loss3 <- label_data_1_split_6
I1215 13:10:48.725170 31739 net.cpp:338] loss3/loss3 -> loss3/loss3
…
