…
I1220 19:05:47.172324 31316 net.cpp:257] The NetState phase (0) differed from the phase (1) specified by a rule in layer loss3/top-5
I1220 19:05:47.174545 31316 net.cpp:42] Initializing net from parameters: 
name: "MYNET"
state {
  phase: TRAIN
}
layer {
  name: "data"
  type: "ImageData"
  top: "data"
  top: "label"
  include {
    phase: TRAIN
  }
  transform_param {
    mirror: false
    crop_size: 224
    mean_value: 129
    mean_value: 129
    mean_value: 129
  }
  image_data_param {
    source: "/home/coldmanck/kaggle/label_train_full.txt"
    batch_size: 80
    shuffle: true
  }
}
layer {
  name: "conv1/7x7_s2"
  type: "Convolution"
  bottom: "data"
  top: "conv1/7x7_s2"
  param {
    lr_mult: 1
    decay_mult: 1
  }
  param {
    lr_mult: 2
    decay_mult: 0
  }
  convolution_param {
    num_output: 64
    pad: 3
    kernel_size: 7
    stride: 2
    weight_filler {
      type: "xavier"
    }
    bias_filler {
      type: "constant"
      value: 0.2
    }
  }
}
layer {
  name: "conv1/relu_7x7"
  type: "ReLU"
  bottom: "conv1/7x7_s2"
  top: "conv1/7x7_s2"
}
layer {
  name: "pool1/3x3_s2"
  type: "Pooling"
  bottom: "conv1/7x7_s2"
  top: "pool1/3x3_s2"
  pooling_param {
    pool: MAX
    kernel_size: 3
    stride: 2
  }
}
layer {
  name: "pool1/norm1"
  type: "LRN"
  bottom: "pool1/3x3_s2"
  top: "pool1/norm1"
  lrn_param {
    local_size: 5
    alpha: 0.0001
    beta: 0.75
  }
}
layer {
  name: "conv2/3x3_reduce"
  type: "Convolution"
  bottom: "pool1/norm1"
  top: "conv2/3x3_reduce"
  param {
    lr_mult: 1
    decay_mult: 1
  }
  param {
    lr_mult: 2
    decay_mult: 0
  }
  convolution_param {
    num_output: 64
    kernel_size: 1
    weight_filler {
      type: "xavier"
    }
    bias_filler {
      type: "constant"
      value: 0.2
    }
  }
}
layer {
  name: "conv2/relu_3x3_reduce"
  type: "ReLU"
  bottom: "conv2/3x3_reduce"
  top: "conv2/3x3_reduce"
}
layer {
  name: "conv2/3x3"
  type: "Convolution"
  bottom: "conv2/3x3_reduce"
  top: "conv2/3x3"
  param {
    lr_mult: 1
    decay_mult: 1
  }
  param {
    lr_mult: 2
    decay_mult: 0
  }
  convolution_param {
    num_output: 192
    pad: 1
    kernel_size: 3
    weight_filler {
      type: "xavier"
    }
    bias_filler {
      type: "constant"
      value: 0.2
    }
  }
}
layer {
  name: "conv2/relu_3x3"
  type: "ReLU"
  bottom: "conv2/3x3"
  top: "conv2/3x3"
}
layer {
  name: "conv2/norm2"
  type: "LRN"
  bottom: "conv2/3x3"
  top: "conv2/norm2"
  lrn_param {
    local_size: 5
    alpha: 0.0001
    beta: 0.75
  }
}
layer {
  name: "pool2/3x3_s2"
  type: "Pooling"
  bottom: "conv2/norm2"
  top: "pool2/3x3_s2"
  pooling_param {
    pool: MAX
    kernel_size: 3
    stride: 2
  }
}
layer {
  name: "inception_3a/1x1"
  type: "Convolution"
  bottom: "pool2/3x3_s2"
  top: "inception_3a/1x1"
  param {
    lr_mult: 1
    decay_mult: 1
  }
  param {
    lr_mult: 2
    decay_mult: 0
  }
  convolution_param {
    num_output: 64
    kernel_size: 1
    weight_filler {
      type: "xavier"
    }
    bias_filler {
      type: "constant"
      value: 0.2
    }
  }
}
layer {
  name: "inception_3a/relu_1x1"
  type: "ReLU"
  bottom: "inception_3a/1x1"
  top: "inception_3a/1x1"
}
layer {
  name: "inception_3a/3x3_reduce"
  type: "Convolution"
  bottom: "pool2/3x3_s2"
  top: "inception_3a/3x3_reduce"
  param {
    lr_mult: 1
    decay_mult: 1
  }
  param {
    lr_mult: 2
    decay_mult: 0
  }
  convolution_param {
    num_output: 96
    kernel_size: 1
    weight_filler {
      type: "xavier"
    }
    bias_filler {
      type: "constant"
      value: 0.2
    }
  }
}
layer {
  name: "inception_3a/relu_3x3_reduce"
  type: "ReLU"
  bottom: "inception_3a/3x3_reduce"
  top: "inception_3a/3x3_reduce"
}
layer {
  name: "inception_3a/3x3"
  type: "Convolution"
  bottom: "inception_3a/3x3_reduce"
  top: "inception_3a/3x3"
  param {
    lr_mult: 1
    decay_mult: 1
  }
  param {
    lr_mult: 2
    decay_mult: 0
  }
  convolution_param {
    num_output: 128
    pad: 1
    kernel_size: 3
    weight_filler {
      type: "xavier"
    }
    bias_filler {
      type: "constant"
      value: 0.2
    }
  }
}
layer {
  name: "inception_3a/relu_3x3"
  type: "ReLU"
  bottom: "inception_3a/3x3"
  top: "inception_3a/3x3"
}
layer {
  name: "inception_3a/5x5_reduce"
  type: "Convolution"
  bottom: "pool2/3x3_s2"
  top: "inception_3a/5x5_reduce"
  param {
    lr_mult: 1
    decay_mult: 1
  }
  param {
    lr_mult: 2
    decay_mult: 0
  }
  convolution_param {
    num_output: 16
    kernel_size: 1
    weight_filler {
      type: "xavier"
    }
    bias_filler {
      type: "constant"
      value: 0.2
    }
  }
}
layer {
  name: "inception_3a/relu_5x5_reduce"
  type: "ReLU"
  bottom: "inception_3a/5x5_reduce"
  top: "inception_3a/5x5_reduce"
}
layer {
  name: "inception_3a/5x5"
  type: "Convolution"
  bottom: "inception_3a/5x5_reduce"
  top: "inception_3a/5x5"
  param {
    lr_mult: 1
    decay_mult: 1
  }
  param {
    lr_mult: 2
    decay_mult: 0
  }
  convolution_param {
    num_output: 32
    pad: 2
    kernel_size: 5
    weight_filler {
      type: "xavier"
    }
    bias_filler {
      type: "constant"
      value: 0.2
    }
  }
}
layer {
  name: "inception_3a/relu_5x5"
  type: "ReLU"
  bottom: "inception_3a/5x5"
  top: "inception_3a/5x5"
}
layer {
  name: "inception_3a/pool"
  type: "Pooling"
  bottom: "pool2/3x3_s2"
  top: "inception_3a/pool"
  pooling_param {
    pool: MAX
    kernel_size: 3
    stride: 1
    pad: 1
  }
}
layer {
  name: "inception_3a/pool_proj"
  type: "Convolution"
  bottom: "inception_3a/pool"
  top: "inception_3a/pool_proj"
  param {
    lr_mult: 1
    decay_mult: 1
  }
  param {
    lr_mult: 2
    decay_mult: 0
  }
  convolution_param {
    num_output: 32
    kernel_size: 1
    weight_filler {
      type: "xavier"
    }
    bias_filler {
      type: "constant"
      value: 0.2
    }
  }
}
layer {
  name: "inception_3a/relu_pool_proj"
  type: "ReLU"
  bottom: "inception_3a/pool_proj"
  top: "inception_3a/pool_proj"
}
layer {
  name: "inception_3a/output"
  type: "Concat"
  bottom: "inception_3a/1x1"
  bottom: "inception_3a/3x3"
  bottom: "inception_3a/5x5"
  bottom: "inception_3a/pool_proj"
  top: "inception_3a/output"
}
layer {
  name: "inception_3b/1x1"
  type: "Convolution"
  bottom: "inception_3a/output"
  top: "inception_3b/1x1"
  param {
    lr_mult: 1
    decay_mult: 1
  }
  param {
    lr_mult: 2
    decay_mult: 0
  }
  convolution_param {
    num_output: 128
    kernel_size: 1
    weight_filler {
      type: "xavier"
    }
    bias_filler {
      type: "constant"
      value: 0.2
    }
  }
}
layer {
  name: "inception_3b/relu_1x1"
  type: "ReLU"
  bottom: "inception_3b/1x1"
  top: "inception_3b/1x1"
}
layer {
  name: "inception_3b/3x3_reduce"
  type: "Convolution"
  bottom: "inception_3a/output"
  top: "inception_3b/3x3_reduce"
  param {
    lr_mult: 1
    decay_mult: 1
  }
  param {
    lr_mult: 2
    decay_mult: 0
  }
  convolution_param {
    num_output: 128
    kernel_size: 1
    weight_filler {
      type: "xavier"
    }
    bias_filler {
      type: "constant"
      value: 0.2
    }
  }
}
layer {
  name: "inception_3b/relu_3x3_reduce"
  type: "ReLU"
  bottom: "inception_3b/3x3_reduce"
  top: "inception_3b/3x3_reduce"
}
layer {
  name: "inception_3b/3x3"
  type: "Convolution"
  bottom: "inception_3b/3x3_reduce"
  top: "inception_3b/3x3"
  param {
    lr_mult: 1
    decay_mult: 1
  }
  param {
    lr_mult: 2
    decay_mult: 0
  }
  convolution_param {
    num_output: 192
    pad: 1
    kernel_size: 3
    weight_filler {
      type: "xavier"
    }
    bias_filler {
      type: "constant"
      value: 0.2
    }
  }
}
layer {
  name: "inception_3b/relu_3x3"
  type: "ReLU"
  bottom: "inception_3b/3x3"
  top: "inception_3b/3x3"
}
layer {
  name: "inception_3b/5x5_reduce"
  type: "Convolution"
  bottom: "inception_3a/output"
  top: "inception_3b/5x5_reduce"
  param {
    lr_mult: 1
    decay_mult: 1
  }
  param {
    lr_mult: 2
    decay_mult: 0
  }
  convolution_param {
    num_output: 32
    kernel_size: 1
    weight_filler {
      type: "xavier"
    }
    bias_filler {
      type: "constant"
      value: 0.2
    }
  }
}
layer {
  name: "inception_3b/relu_5x5_reduce"
  type: "ReLU"
  bottom: "inception_3b/5x5_reduce"
  top: "inception_3b/5x5_reduce"
}
layer {
  name: "inception_3b/5x5"
  type: "Convolution"
  bottom: "inception_3b/5x5_reduce"
  top: "inception_3b/5x5"
  param {
    lr_mult: 1
    decay_mult: 1
  }
  param {
    lr_mult: 2
    decay_mult: 0
  }
  convolution_param {
    num_output: 96
    pad: 2
    kernel_size: 5
    weight_filler {
      type: "xavier"
    }
    bias_filler {
      type: "constant"
      value: 0.2
    }
  }
}
layer {
  name: "inception_3b/relu_5x5"
  type: "ReLU"
  bottom: "inception_3b/5x5"
  top: "inception_3b/5x5"
}
layer {
  name: "inception_3b/pool"
  type: "Pooling"
  bottom: "inception_3a/output"
  top: "inception_3b/pool"
  pooling_param {
    pool: MAX
    kernel_size: 3
    stride: 1
    pad: 1
  }
}
layer {
  name: "inception_3b/pool_proj"
  type: "Convolution"
  bottom: "inception_3b/pool"
  top: "inception_3b/pool_proj"
  param {
    lr_mult: 1
    decay_mult: 1
  }
  param {
    lr_mult: 2
    decay_mult: 0
  }
  convolution_param {
    num_output: 64
    kernel_size: 1
    weight_filler {
      type: "xavier"
    }
    bias_filler {
      type: "constant"
      value: 0.2
    }
  }
}
layer {
  name: "inception_3b/relu_pool_proj"
  type: "ReLU"
  bottom: "inception_3b/pool_proj"
  top: "inception_3b/pool_proj"
}
layer {
  name: "inception_3b/output"
  type: "Concat"
  bottom: "inception_3b/1x1"
  bottom: "inception_3b/3x3"
  bottom: "inception_3b/5x5"
  bottom: "inception_3b/pool_proj"
  top: "inception_3b/output"
}
layer {
  name: "pool3/3x3_s2"
  type: "Pooling"
  bottom: "inception_3b/output"
  top: "pool3/3x3_s2"
  pooling_param {
    pool: MAX
    kernel_size: 3
    stride: 2
  }
}
layer {
  name: "inception_4a/1x1"
  type: "Convolution"
  bottom: "pool3/3x3_s2"
  top: "inception_4a/1x1"
  param {
    lr_mult: 1
    decay_mult: 1
  }
  param {
    lr_mult: 2
    decay_mult: 0
  }
  convolution_param {
    num_output: 192
    kernel_size: 1
    weight_filler {
      type: "xavier"
    }
    bias_filler {
      type: "constant"
      value: 0.2
    }
  }
}
layer {
  name: "inception_4a/relu_1x1"
  type: "ReLU"
  bottom: "inception_4a/1x1"
  top: "inception_4a/1x1"
}
layer {
  name: "inception_4a/3x3_reduce"
  type: "Convolution"
  bottom: "pool3/3x3_s2"
  top: "inception_4a/3x3_reduce"
  param {
    lr_mult: 1
    decay_mult: 1
  }
  param {
    lr_mult: 2
    decay_mult: 0
  }
  convolution_param {
    num_output: 96
    kernel_size: 1
    weight_filler {
      type: "xavier"
    }
    bias_filler {
      type: "constant"
      value: 0.2
    }
  }
}
layer {
  name: "inception_4a/relu_3x3_reduce"
  type: "ReLU"
  bottom: "inception_4a/3x3_reduce"
  top: "inception_4a/3x3_reduce"
}
layer {
  name: "inception_4a/3x3"
  type: "Convolution"
  bottom: "inception_4a/3x3_reduce"
  top: "inception_4a/3x3"
  param {
    lr_mult: 1
    decay_mult: 1
  }
  param {
    lr_mult: 2
    decay_mult: 0
  }
  convolution_param {
    num_output: 208
    pad: 1
    kernel_size: 3
    weight_filler {
      type: "xavier"
    }
    bias_filler {
      type: "constant"
      value: 0.2
    }
  }
}
layer {
  name: "inception_4a/relu_3x3"
  type: "ReLU"
  bottom: "inception_4a/3x3"
  top: "inception_4a/3x3"
}
layer {
  name: "inception_4a/5x5_reduce"
  type: "Convolution"
  bottom: "pool3/3x3_s2"
  top: "inception_4a/5x5_reduce"
  param {
    lr_mult: 1
    decay_mult: 1
  }
  param {
    lr_mult: 2
    decay_mult: 0
  }
  convolution_param {
    num_output: 16
    kernel_size: 1
    weight_filler {
      type: "xavier"
    }
    bias_filler {
      type: "constant"
      value: 0.2
    }
  }
}
layer {
  name: "inception_4a/relu_5x5_reduce"
  type: "ReLU"
  bottom: "inception_4a/5x5_reduce"
  top: "inception_4a/5x5_reduce"
}
layer {
  name: "inception_4a/5x5"
  type: "Convolution"
  bottom: "inception_4a/5x5_reduce"
  top: "inception_4a/5x5"
  param {
    lr_mult: 1
    decay_mult: 1
  }
  param {
    lr_mult: 2
    decay_mult: 0
  }
  convolution_param {
    num_output: 48
    pad: 2
    kernel_size: 5
    weight_filler {
      type: "xavier"
    }
    bias_filler {
      type: "constant"
      value: 0.2
    }
  }
}
layer {
  name: "inception_4a/relu_5x5"
  type: "ReLU"
  bottom: "inception_4a/5x5"
  top: "inception_4a/5x5"
}
layer {
  name: "inception_4a/pool"
  type: "Pooling"
  bottom: "pool3/3x3_s2"
  top: "inception_4a/pool"
  pooling_param {
    pool: MAX
    kernel_size: 3
    stride: 1
    pad: 1
  }
}
layer {
  name: "inception_4a/pool_proj"
  type: "Convolution"
  bottom: "inception_4a/pool"
  top: "inception_4a/pool_proj"
  param {
    lr_mult: 1
    decay_mult: 1
  }
  param {
    lr_mult: 2
    decay_mult: 0
  }
  convolution_param {
    num_output: 64
    kernel_size: 1
    weight_filler {
      type: "xavier"
    }
    bias_filler {
      type: "constant"
      value: 0.2
    }
  }
}
layer {
  name: "inception_4a/relu_pool_proj"
  type: "ReLU"
  bottom: "inception_4a/pool_proj"
  top: "inception_4a/pool_proj"
}
layer {
  name: "inception_4a/output"
  type: "Concat"
  bottom: "inception_4a/1x1"
  bottom: "inception_4a/3x3"
  bottom: "inception_4a/5x5"
  bottom: "inception_4a/pool_proj"
  top: "inception_4a/output"
}
layer {
  name: "loss1/ave_pool"
  type: "Pooling"
  bottom: "inception_4a/output"
  top: "loss1/ave_pool"
  pooling_param {
    pool: AVE
    kernel_size: 5
    stride: 3
  }
}
layer {
  name: "loss1/conv"
  type: "Convolution"
  bottom: "loss1/ave_pool"
  top: "loss1/conv"
  param {
    lr_mult: 1
    decay_mult: 1
  }
  param {
    lr_mult: 2
    decay_mult: 0
  }
  convolution_param {
    num_output: 128
    kernel_size: 1
    weight_filler {
      type: "xavier"
    }
    bias_filler {
      type: "constant"
      value: 0.2
    }
  }
}
layer {
  name: "loss1/relu_conv"
  type: "ReLU"
  bottom: "loss1/conv"
  top: "loss1/conv"
}
layer {
  name: "loss1/fc"
  type: "InnerProduct"
  bottom: "loss1/conv"
  top: "loss1/fc"
  param {
    lr_mult: 1
    decay_mult: 1
  }
  param {
    lr_mult: 2
    decay_mult: 0
  }
  inner_product_param {
    num_output: 1024
    weight_filler {
      type: "xavier"
    }
    bias_filler {
      type: "constant"
      value: 0.2
    }
  }
}
layer {
  name: "loss1/relu_fc"
  type: "ReLU"
  bottom: "loss1/fc"
  top: "loss1/fc"
}
layer {
  name: "loss1/drop_fc"
  type: "Dropout"
  bottom: "loss1/fc"
  top: "loss1/fc"
  dropout_param {
    dropout_ratio: 0.7
  }
}
layer {
  name: "loss1/classifier_kaggle"
  type: "InnerProduct"
  bottom: "loss1/fc"
  top: "loss1/classifier_kaggle"
  param {
    lr_mult: 1
    decay_mult: 1
  }
  param {
    lr_mult: 2
    decay_mult: 0
  }
  inner_product_param {
    num_output: 447
    weight_filler {
      type: "xavier"
    }
    bias_filler {
      type: "constant"
      value: 0
    }
  }
}
layer {
  name: "loss1/loss"
  type: "SoftmaxWithLoss"
  bottom: "loss1/classifier_kaggle"
  bottom: "label"
  top: "loss1/loss1"
  loss_weight: 0.3
}
layer {
  name: "inception_4b/1x1"
  type: "Convolution"
  bottom: "inception_4a/output"
  top: "inception_4b/1x1"
  param {
    lr_mult: 1
    decay_mult: 1
  }
  param {
    lr_mult: 2
    decay_mult: 0
  }
  convolution_param {
    num_output: 160
    kernel_size: 1
    weight_filler {
      type: "xavier"
    }
    bias_filler {
      type: "constant"
      value: 0.2
    }
  }
}
layer {
  name: "inception_4b/relu_1x1"
  type: "ReLU"
  bottom: "inception_4b/1x1"
  top: "inception_4b/1x1"
}
layer {
  name: "inception_4b/3x3_reduce"
  type: "Convolution"
  bottom: "inception_4a/output"
  top: "inception_4b/3x3_reduce"
  param {
    lr_mult: 1
    decay_mult: 1
  }
  param {
    lr_mult: 2
    decay_mult: 0
  }
  convolution_param {
    num_output: 112
    kernel_size: 1
    weight_filler {
      type: "xavier"
    }
    bias_filler {
      type: "constant"
      value: 0.2
    }
  }
}
layer {
  name: "inception_4b/relu_3x3_reduce"
  type: "ReLU"
  bottom: "inception_4b/3x3_reduce"
  top: "inception_4b/3x3_reduce"
}
layer {
  name: "inception_4b/3x3"
  type: "Convolution"
  bottom: "inception_4b/3x3_reduce"
  top: "inception_4b/3x3"
  param {
    lr_mult: 1
    decay_mult: 1
  }
  param {
    lr_mult: 2
    decay_mult: 0
  }
  convolution_param {
    num_output: 224
    pad: 1
    kernel_size: 3
    weight_filler {
      type: "xavier"
    }
    bias_filler {
      type: "constant"
      value: 0.2
    }
  }
}
layer {
  name: "inception_4b/relu_3x3"
  type: "ReLU"
  bottom: "inception_4b/3x3"
  top: "inception_4b/3x3"
}
layer {
  name: "inception_4b/5x5_reduce"
  type: "Convolution"
  bottom: "inception_4a/output"
  top: "inception_4b/5x5_reduce"
  param {
    lr_mult: 1
    decay_mult: 1
  }
  param {
    lr_mult: 2
    decay_mult: 0
  }
  convolution_param {
    num_output: 24
    kernel_size: 1
    weight_filler {
      type: "xavier"
    }
    bias_filler {
      type: "constant"
      value: 0.2
    }
  }
}
layer {
  name: "inception_4b/relu_5x5_reduce"
  type: "ReLU"
  bottom: "inception_4b/5x5_reduce"
  top: "inception_4b/5x5_reduce"
}
layer {
  name: "inception_4b/5x5"
  type: "Convolution"
  bottom: "inception_4b/5x5_reduce"
  top: "inception_4b/5x5"
  param {
    lr_mult: 1
    decay_mult: 1
  }
  param {
    lr_mult: 2
    decay_mult: 0
  }
  convolution_param {
    num_output: 64
    pad: 2
    kernel_size: 5
    weight_filler {
      type: "xavier"
    }
    bias_filler {
      type: "constant"
      value: 0.2
    }
  }
}
layer {
  name: "inception_4b/relu_5x5"
  type: "ReLU"
  bottom: "inception_4b/5x5"
  top: "inception_4b/5x5"
}
layer {
  name: "inception_4b/pool"
  type: "Pooling"
  bottom: "inception_4a/output"
  top: "inception_4b/pool"
  pooling_param {
    pool: MAX
    kernel_size: 3
    stride: 1
    pad: 1
  }
}
layer {
  name: "inception_4b/pool_proj"
  type: "Convolution"
  bottom: "inception_4b/pool"
  top: "inception_4b/pool_proj"
  param {
    lr_mult: 1
    decay_mult: 1
  }
  param {
    lr_mult: 2
    decay_mult: 0
  }
  convolution_param {
    num_output: 64
    kernel_size: 1
    weight_filler {
      type: "xavier"
    }
    bias_filler {
      type: "constant"
      value: 0.2
    }
  }
}
layer {
  name: "inception_4b/relu_pool_proj"
  type: "ReLU"
  bottom: "inception_4b/pool_proj"
  top: "inception_4b/pool_proj"
}
layer {
  name: "inception_4b/output"
  type: "Concat"
  bottom: "inception_4b/1x1"
  bottom: "inception_4b/3x3"
  bottom: "inception_4b/5x5"
  bottom: "inception_4b/pool_proj"
  top: "inception_4b/output"
}
layer {
  name: "inception_4c/1x1"
  type: "Convolution"
  bottom: "inception_4b/output"
  top: "inception_4c/1x1"
  param {
    lr_mult: 1
    decay_mult: 1
  }
  param {
    lr_mult: 2
    decay_mult: 0
  }
  convolution_param {
    num_output: 128
    kernel_size: 1
    weight_filler {
      type: "xavier"
    }
    bias_filler {
      type: "constant"
      value: 0.2
    }
  }
}
layer {
  name: "inception_4c/relu_1x1"
  type: "ReLU"
  bottom: "inception_4c/1x1"
  top: "inception_4c/1x1"
}
layer {
  name: "inception_4c/3x3_reduce"
  type: "Convolution"
  bottom: "inception_4b/output"
  top: "inception_4c/3x3_reduce"
  param {
    lr_mult: 1
    decay_mult: 1
  }
  param {
    lr_mult: 2
    decay_mult: 0
  }
  convolution_param {
    num_output: 128
    kernel_size: 1
    weight_filler {
      type: "xavier"
    }
    bias_filler {
      type: "constant"
      value: 0.2
    }
  }
}
layer {
  name: "inception_4c/relu_3x3_reduce"
  type: "ReLU"
  bottom: "inception_4c/3x3_reduce"
  top: "inception_4c/3x3_reduce"
}
layer {
  name: "inception_4c/3x3"
  type: "Convolution"
  bottom: "inception_4c/3x3_reduce"
  top: "inception_4c/3x3"
  param {
    lr_mult: 1
    decay_mult: 1
  }
  param {
    lr_mult: 2
    decay_mult: 0
  }
  convolution_param {
    num_output: 256
    pad: 1
    kernel_size: 3
    weight_filler {
      type: "xavier"
    }
    bias_filler {
      type: "constant"
      value: 0.2
    }
  }
}
layer {
  name: "inception_4c/relu_3x3"
  type: "ReLU"
  bottom: "inception_4c/3x3"
  top: "inception_4c/3x3"
}
layer {
  name: "inception_4c/5x5_reduce"
  type: "Convolution"
  bottom: "inception_4b/output"
  top: "inception_4c/5x5_reduce"
  param {
    lr_mult: 1
    decay_mult: 1
  }
  param {
    lr_mult: 2
    decay_mult: 0
  }
  convolution_param {
    num_output: 24
    kernel_size: 1
    weight_filler {
      type: "xavier"
    }
    bias_filler {
      type: "constant"
      value: 0.2
    }
  }
}
layer {
  name: "inception_4c/relu_5x5_reduce"
  type: "ReLU"
  bottom: "inception_4c/5x5_reduce"
  top: "inception_4c/5x5_reduce"
}
layer {
  name: "inception_4c/5x5"
  type: "Convolution"
  bottom: "inception_4c/5x5_reduce"
  top: "inception_4c/5x5"
  param {
    lr_mult: 1
    decay_mult: 1
  }
  param {
    lr_mult: 2
    decay_mult: 0
  }
  convolution_param {
    num_output: 64
    pad: 2
    kernel_size: 5
    weight_filler {
      type: "xavier"
    }
    bias_filler {
      type: "constant"
      value: 0.2
    }
  }
}
layer {
  name: "inception_4c/relu_5x5"
  type: "ReLU"
  bottom: "inception_4c/5x5"
  top: "inception_4c/5x5"
}
layer {
  name: "inception_4c/pool"
  type: "Pooling"
  bottom: "inception_4b/output"
  top: "inception_4c/pool"
  pooling_param {
    pool: MAX
    kernel_size: 3
    stride: 1
    pad: 1
  }
}
layer {
  name: "inception_4c/pool_proj"
  type: "Convolution"
  bottom: "inception_4c/pool"
  top: "inception_4c/pool_proj"
  param {
    lr_mult: 1
    decay_mult: 1
  }
  param {
    lr_mult: 2
    decay_mult: 0
  }
  convolution_param {
    num_output: 64
    kernel_size: 1
    weight_filler {
      type: "xavier"
    }
    bias_filler {
      type: "constant"
      value: 0.2
    }
  }
}
layer {
  name: "inception_4c/relu_pool_proj"
  type: "ReLU"
  bottom: "inception_4c/pool_proj"
  top: "inception_4c/pool_proj"
}
layer {
  name: "inception_4c/output"
  type: "Concat"
  bottom: "inception_4c/1x1"
  bottom: "inception_4c/3x3"
  bottom: "inception_4c/5x5"
  bottom: "inception_4c/pool_proj"
  top: "inception_4c/output"
}
layer {
  name: "inception_4d/1x1"
  type: "Convolution"
  bottom: "inception_4c/output"
  top: "inception_4d/1x1"
  param {
    lr_mult: 1
    decay_mult: 1
  }
  param {
    lr_mult: 2
    decay_mult: 0
  }
  convolution_param {
    num_output: 112
    kernel_size: 1
    weight_filler {
      type: "xavier"
    }
    bias_filler {
      type: "constant"
      value: 0.2
    }
  }
}
layer {
  name: "inception_4d/relu_1x1"
  type: "ReLU"
  bottom: "inception_4d/1x1"
  top: "inception_4d/1x1"
}
layer {
  name: "inception_4d/3x3_reduce"
  type: "Convolution"
  bottom: "inception_4c/output"
  top: "inception_4d/3x3_reduce"
  param {
    lr_mult: 1
    decay_mult: 1
  }
  param {
    lr_mult: 2
    decay_mult: 0
  }
  convolution_param {
    num_output: 144
    kernel_size: 1
    weight_filler {
      type: "xavier"
    }
    bias_filler {
      type: "constant"
      value: 0.2
    }
  }
}
layer {
  name: "inception_4d/relu_3x3_reduce"
  type: "ReLU"
  bottom: "inception_4d/3x3_reduce"
  top: "inception_4d/3x3_reduce"
}
layer {
  name: "inception_4d/3x3"
  type: "Convolution"
  bottom: "inception_4d/3x3_reduce"
  top: "inception_4d/3x3"
  param {
    lr_mult: 1
    decay_mult: 1
  }
  param {
    lr_mult: 2
    decay_mult: 0
  }
  convolution_param {
    num_output: 288
    pad: 1
    kernel_size: 3
    weight_filler {
      type: "xavier"
    }
    bias_filler {
      type: "constant"
      value: 0.2
    }
  }
}
layer {
  name: "inception_4d/relu_3x3"
  type: "ReLU"
  bottom: "inception_4d/3x3"
  top: "inception_4d/3x3"
}
layer {
  name: "inception_4d/5x5_reduce"
  type: "Convolution"
  bottom: "inception_4c/output"
  top: "inception_4d/5x5_reduce"
  param {
    lr_mult: 1
    decay_mult: 1
  }
  param {
    lr_mult: 2
    decay_mult: 0
  }
  convolution_param {
    num_output: 32
    kernel_size: 1
    weight_filler {
      type: "xavier"
    }
    bias_filler {
      type: "constant"
      value: 0.2
    }
  }
}
layer {
  name: "inception_4d/relu_5x5_reduce"
  type: "ReLU"
  bottom: "inception_4d/5x5_reduce"
  top: "inception_4d/5x5_reduce"
}
layer {
  name: "inception_4d/5x5"
  type: "Convolution"
  bottom: "inception_4d/5x5_reduce"
  top: "inception_4d/5x5"
  param {
    lr_mult: 1
    decay_mult: 1
  }
  param {
    lr_mult: 2
    decay_mult: 0
  }
  convolution_param {
    num_output: 64
    pad: 2
    kernel_size: 5
    weight_filler {
      type: "xavier"
    }
    bias_filler {
      type: "constant"
      value: 0.2
    }
  }
}
layer {
  name: "inception_4d/relu_5x5"
  type: "ReLU"
  bottom: "inception_4d/5x5"
  top: "inception_4d/5x5"
}
layer {
  name: "inception_4d/pool"
  type: "Pooling"
  bottom: "inception_4c/output"
  top: "inception_4d/pool"
  pooling_param {
    pool: MAX
    kernel_size: 3
    stride: 1
    pad: 1
  }
}
layer {
  name: "inception_4d/pool_proj"
  type: "Convolution"
  bottom: "inception_4d/pool"
  top: "inception_4d/pool_proj"
  param {
    lr_mult: 1
    decay_mult: 1
  }
  param {
    lr_mult: 2
    decay_mult: 0
  }
  convolution_param {
    num_output: 64
    kernel_size: 1
    weight_filler {
      type: "xavier"
    }
    bias_filler {
      type: "constant"
      value: 0.2
    }
  }
}
layer {
  name: "inception_4d/relu_pool_proj"
  type: "ReLU"
  bottom: "inception_4d/pool_proj"
  top: "inception_4d/pool_proj"
}
layer {
  name: "inception_4d/output"
  type: "Concat"
  bottom: "inception_4d/1x1"
  bottom: "inception_4d/3x3"
  bottom: "inception_4d/5x5"
  bottom: "inception_4d/pool_proj"
  top: "inception_4d/output"
}
layer {
  name: "loss2/ave_pool"
  type: "Pooling"
  bottom: "inception_4d/output"
  top: "loss2/ave_pool"
  pooling_param {
    pool: AVE
    kernel_size: 5
    stride: 3
  }
}
layer {
  name: "loss2/conv"
  type: "Convolution"
  bottom: "loss2/ave_pool"
  top: "loss2/conv"
  param {
    lr_mult: 1
    decay_mult: 1
  }
  param {
    lr_mult: 2
    decay_mult: 0
  }
  convolution_param {
    num_output: 128
    kernel_size: 1
    weight_filler {
      type: "xavier"
    }
    bias_filler {
      type: "constant"
      value: 0.2
    }
  }
}
layer {
  name: "loss2/relu_conv"
  type: "ReLU"
  bottom: "loss2/conv"
  top: "loss2/conv"
}
layer {
  name: "loss2/fc"
  type: "InnerProduct"
  bottom: "loss2/conv"
  top: "loss2/fc"
  param {
    lr_mult: 1
    decay_mult: 1
  }
  param {
    lr_mult: 2
    decay_mult: 0
  }
  inner_product_param {
    num_output: 1024
    weight_filler {
      type: "xavier"
    }
    bias_filler {
      type: "constant"
      value: 0.2
    }
  }
}
layer {
  name: "loss2/relu_fc"
  type: "ReLU"
  bottom: "loss2/fc"
  top: "loss2/fc"
}
layer {
  name: "loss2/drop_fc"
  type: "Dropout"
  bottom: "loss2/fc"
  top: "loss2/fc"
  dropout_param {
    dropout_ratio: 0.7
  }
}
layer {
  name: "loss2/classifier_kaggle"
  type: "InnerProduct"
  bottom: "loss2/fc"
  top: "loss2/classifier_kaggle"
  param {
    lr_mult: 1
    decay_mult: 1
  }
  param {
    lr_mult: 2
    decay_mult: 0
  }
  inner_product_param {
    num_output: 447
    weight_filler {
      type: "xavier"
    }
    bias_filler {
      type: "constant"
      value: 0
    }
  }
}
layer {
  name: "loss2/loss"
  type: "SoftmaxWithLoss"
  bottom: "loss2/classifier_kaggle"
  bottom: "label"
  top: "loss2/loss1"
  loss_weight: 0.3
}
layer {
  name: "inception_4e/1x1"
  type: "Convolution"
  bottom: "inception_4d/output"
  top: "inception_4e/1x1"
  param {
    lr_mult: 1
    decay_mult: 1
  }
  param {
    lr_mult: 2
    decay_mult: 0
  }
  convolution_param {
    num_output: 256
    kernel_size: 1
    weight_filler {
      type: "xavier"
    }
    bias_filler {
      type: "constant"
      value: 0.2
    }
  }
}
layer {
  name: "inception_4e/relu_1x1"
  type: "ReLU"
  bottom: "inception_4e/1x1"
  top: "inception_4e/1x1"
}
layer {
  name: "inception_4e/3x3_reduce"
  type: "Convolution"
  bottom: "inception_4d/output"
  top: "inception_4e/3x3_reduce"
  param {
    lr_mult: 1
    decay_mult: 1
  }
  param {
    lr_mult: 2
    decay_mult: 0
  }
  convolution_param {
    num_output: 160
    kernel_size: 1
    weight_filler {
      type: "xavier"
    }
    bias_filler {
      type: "constant"
      value: 0.2
    }
  }
}
layer {
  name: "inception_4e/relu_3x3_reduce"
  type: "ReLU"
  bottom: "inception_4e/3x3_reduce"
  top: "inception_4e/3x3_reduce"
}
layer {
  name: "inception_4e/3x3"
  type: "Convolution"
  bottom: "inception_4e/3x3_reduce"
  top: "inception_4e/3x3"
  param {
    lr_mult: 1
    decay_mult: 1
  }
  param {
    lr_mult: 2
    decay_mult: 0
  }
  convolution_param {
    num_output: 320
    pad: 1
    kernel_size: 3
    weight_filler {
      type: "xavier"
    }
    bias_filler {
      type: "constant"
      value: 0.2
    }
  }
}
layer {
  name: "inception_4e/relu_3x3"
  type: "ReLU"
  bottom: "inception_4e/3x3"
  top: "inception_4e/3x3"
}
layer {
  name: "inception_4e/5x5_reduce"
  type: "Convolution"
  bottom: "inception_4d/output"
  top: "inception_4e/5x5_reduce"
  param {
    lr_mult: 1
    decay_mult: 1
  }
  param {
    lr_mult: 2
    decay_mult: 0
  }
  convolution_param {
    num_output: 32
    kernel_size: 1
    weight_filler {
      type: "xavier"
    }
    bias_filler {
      type: "constant"
      value: 0.2
    }
  }
}
layer {
  name: "inception_4e/relu_5x5_reduce"
  type: "ReLU"
  bottom: "inception_4e/5x5_reduce"
  top: "inception_4e/5x5_reduce"
}
layer {
  name: "inception_4e/5x5"
  type: "Convolution"
  bottom: "inception_4e/5x5_reduce"
  top: "inception_4e/5x5"
  param {
    lr_mult: 1
    decay_mult: 1
  }
  param {
    lr_mult: 2
    decay_mult: 0
  }
  convolution_param {
    num_output: 128
    pad: 2
    kernel_size: 5
    weight_filler {
      type: "xavier"
    }
    bias_filler {
      type: "constant"
      value: 0.2
    }
  }
}
layer {
  name: "inception_4e/relu_5x5"
  type: "ReLU"
  bottom: "inception_4e/5x5"
  top: "inception_4e/5x5"
}
layer {
  name: "inception_4e/pool"
  type: "Pooling"
  bottom: "inception_4d/output"
  top: "inception_4e/pool"
  pooling_p
I1220 19:05:47.175762 31316 layer_factory.hpp:74] Creating layer data
I1220 19:05:47.175814 31316 net.cpp:84] Creating Layer data
I1220 19:05:47.175830 31316 net.cpp:338] data -> data
I1220 19:05:47.175905 31316 net.cpp:338] data -> label
I1220 19:05:47.175921 31316 net.cpp:113] Setting up data
I1220 19:05:47.175933 31316 image_data_layer.cpp:36] Opening file /home/coldmanck/kaggle/label_train_full.txt
I1220 19:05:47.193657 31316 image_data_layer.cpp:46] Shuffling data
I1220 19:05:47.194855 31316 image_data_layer.cpp:51] A total of 4235 images.
I1220 19:05:47.196027 31316 image_data_layer.cpp:80] output data size: 80,3,224,224
I1220 19:05:54.647042 31316 net.cpp:120] Top shape: 80 3 224 224 (12042240)
I1220 19:05:54.647109 31316 net.cpp:120] Top shape: 80 (80)
I1220 19:05:54.647137 31316 layer_factory.hpp:74] Creating layer label_data_1_split
I1220 19:05:54.647178 31316 net.cpp:84] Creating Layer label_data_1_split
I1220 19:05:54.647188 31316 net.cpp:380] label_data_1_split <- label
I1220 19:05:54.647209 31316 net.cpp:338] label_data_1_split -> label_data_1_split_0
I1220 19:05:54.647224 31316 net.cpp:338] label_data_1_split -> label_data_1_split_1
I1220 19:05:54.647248 31316 net.cpp:338] label_data_1_split -> label_data_1_split_2
I1220 19:05:54.647269 31316 net.cpp:113] Setting up label_data_1_split
I1220 19:05:54.647280 31316 net.cpp:120] Top shape: 80 (80)
I1220 19:05:54.647285 31316 net.cpp:120] Top shape: 80 (80)
I1220 19:05:54.647290 31316 net.cpp:120] Top shape: 80 (80)
I1220 19:05:54.647295 31316 layer_factory.hpp:74] Creating layer conv1/7x7_s2
I1220 19:05:54.647310 31316 net.cpp:84] Creating Layer conv1/7x7_s2
I1220 19:05:54.647315 31316 net.cpp:380] conv1/7x7_s2 <- data
I1220 19:05:54.647326 31316 net.cpp:338] conv1/7x7_s2 -> conv1/7x7_s2
I1220 19:05:54.647337 31316 net.cpp:113] Setting up conv1/7x7_s2
I1220 19:05:55.287302 31316 net.cpp:120] Top shape: 80 64 112 112 (64225280)
I1220 19:05:55.287395 31316 layer_factory.hpp:74] Creating layer conv1/relu_7x7
I1220 19:05:55.287410 31316 net.cpp:84] Creating Layer conv1/relu_7x7
I1220 19:05:55.287417 31316 net.cpp:380] conv1/relu_7x7 <- conv1/7x7_s2
I1220 19:05:55.287428 31316 net.cpp:327] conv1/relu_7x7 -> conv1/7x7_s2 (in-place)
I1220 19:05:55.287441 31316 net.cpp:113] Setting up conv1/relu_7x7
I1220 19:05:55.292593 31316 net.cpp:120] Top shape: 80 64 112 112 (64225280)
I1220 19:05:55.292649 31316 layer_factory.hpp:74] Creating layer pool1/3x3_s2
I1220 19:05:55.292681 31316 net.cpp:84] Creating Layer pool1/3x3_s2
I1220 19:05:55.292693 31316 net.cpp:380] pool1/3x3_s2 <- conv1/7x7_s2
I1220 19:05:55.292711 31316 net.cpp:338] pool1/3x3_s2 -> pool1/3x3_s2
I1220 19:05:55.292732 31316 net.cpp:113] Setting up pool1/3x3_s2
I1220 19:05:55.292881 31316 net.cpp:120] Top shape: 80 64 56 56 (16056320)
I1220 19:05:55.292896 31316 layer_factory.hpp:74] Creating layer pool1/norm1
I1220 19:05:55.292915 31316 net.cpp:84] Creating Layer pool1/norm1
I1220 19:05:55.292924 31316 net.cpp:380] pool1/norm1 <- pool1/3x3_s2
I1220 19:05:55.292937 31316 net.cpp:338] pool1/norm1 -> pool1/norm1
I1220 19:05:55.292953 31316 net.cpp:113] Setting up pool1/norm1
I1220 19:05:55.292968 31316 net.cpp:120] Top shape: 80 64 56 56 (16056320)
I1220 19:05:55.292978 31316 layer_factory.hpp:74] Creating layer conv2/3x3_reduce
I1220 19:05:55.292994 31316 net.cpp:84] Creating Layer conv2/3x3_reduce
I1220 19:05:55.293004 31316 net.cpp:380] conv2/3x3_reduce <- pool1/norm1
I1220 19:05:55.293018 31316 net.cpp:338] conv2/3x3_reduce -> conv2/3x3_reduce
I1220 19:05:55.293036 31316 net.cpp:113] Setting up conv2/3x3_reduce
I1220 19:05:55.295667 31316 net.cpp:120] Top shape: 80 64 56 56 (16056320)
I1220 19:05:55.295722 31316 layer_factory.hpp:74] Creating layer conv2/relu_3x3_reduce
I1220 19:05:55.295753 31316 net.cpp:84] Creating Layer conv2/relu_3x3_reduce
I1220 19:05:55.295761 31316 net.cpp:380] conv2/relu_3x3_reduce <- conv2/3x3_reduce
I1220 19:05:55.295773 31316 net.cpp:327] conv2/relu_3x3_reduce -> conv2/3x3_reduce (in-place)
I1220 19:05:55.295784 31316 net.cpp:113] Setting up conv2/relu_3x3_reduce
I1220 19:05:55.295876 31316 net.cpp:120] Top shape: 80 64 56 56 (16056320)
I1220 19:05:55.295884 31316 layer_factory.hpp:74] Creating layer conv2/3x3
I1220 19:05:55.295907 31316 net.cpp:84] Creating Layer conv2/3x3
I1220 19:05:55.295914 31316 net.cpp:380] conv2/3x3 <- conv2/3x3_reduce
I1220 19:05:55.295928 31316 net.cpp:338] conv2/3x3 -> conv2/3x3
I1220 19:05:55.295940 31316 net.cpp:113] Setting up conv2/3x3
I1220 19:05:55.299715 31316 net.cpp:120] Top shape: 80 192 56 56 (48168960)
I1220 19:05:55.299764 31316 layer_factory.hpp:74] Creating layer conv2/relu_3x3
I1220 19:05:55.299778 31316 net.cpp:84] Creating Layer conv2/relu_3x3
I1220 19:05:55.299787 31316 net.cpp:380] conv2/relu_3x3 <- conv2/3x3
I1220 19:05:55.299799 31316 net.cpp:327] conv2/relu_3x3 -> conv2/3x3 (in-place)
I1220 19:05:55.299811 31316 net.cpp:113] Setting up conv2/relu_3x3
I1220 19:05:55.301086 31316 net.cpp:120] Top shape: 80 192 56 56 (48168960)
I1220 19:05:55.301141 31316 layer_factory.hpp:74] Creating layer conv2/norm2
I1220 19:05:55.301156 31316 net.cpp:84] Creating Layer conv2/norm2
I1220 19:05:55.301163 31316 net.cpp:380] conv2/norm2 <- conv2/3x3
I1220 19:05:55.301197 31316 net.cpp:338] conv2/norm2 -> conv2/norm2
I1220 19:05:55.301230 31316 net.cpp:113] Setting up conv2/norm2
I1220 19:05:55.301244 31316 net.cpp:120] Top shape: 80 192 56 56 (48168960)
I1220 19:05:55.301251 31316 layer_factory.hpp:74] Creating layer pool2/3x3_s2
I1220 19:05:55.301262 31316 net.cpp:84] Creating Layer pool2/3x3_s2
I1220 19:05:55.301270 31316 net.cpp:380] pool2/3x3_s2 <- conv2/norm2
I1220 19:05:55.301280 31316 net.cpp:338] pool2/3x3_s2 -> pool2/3x3_s2
I1220 19:05:55.301290 31316 net.cpp:113] Setting up pool2/3x3_s2
I1220 19:05:55.301391 31316 net.cpp:120] Top shape: 80 192 28 28 (12042240)
I1220 19:05:55.301400 31316 layer_factory.hpp:74] Creating layer pool2/3x3_s2_pool2/3x3_s2_0_split
I1220 19:05:55.301410 31316 net.cpp:84] Creating Layer pool2/3x3_s2_pool2/3x3_s2_0_split
I1220 19:05:55.301416 31316 net.cpp:380] pool2/3x3_s2_pool2/3x3_s2_0_split <- pool2/3x3_s2
I1220 19:05:55.301427 31316 net.cpp:338] pool2/3x3_s2_pool2/3x3_s2_0_split -> pool2/3x3_s2_pool2/3x3_s2_0_split_0
I1220 19:05:55.301439 31316 net.cpp:338] pool2/3x3_s2_pool2/3x3_s2_0_split -> pool2/3x3_s2_pool2/3x3_s2_0_split_1
I1220 19:05:55.301450 31316 net.cpp:338] pool2/3x3_s2_pool2/3x3_s2_0_split -> pool2/3x3_s2_pool2/3x3_s2_0_split_2
I1220 19:05:55.301460 31316 net.cpp:338] pool2/3x3_s2_pool2/3x3_s2_0_split -> pool2/3x3_s2_pool2/3x3_s2_0_split_3
I1220 19:05:55.301468 31316 net.cpp:113] Setting up pool2/3x3_s2_pool2/3x3_s2_0_split
I1220 19:05:55.301479 31316 net.cpp:120] Top shape: 80 192 28 28 (12042240)
I1220 19:05:55.301487 31316 net.cpp:120] Top shape: 80 192 28 28 (12042240)
I1220 19:05:55.301494 31316 net.cpp:120] Top shape: 80 192 28 28 (12042240)
I1220 19:05:55.301501 31316 net.cpp:120] Top shape: 80 192 28 28 (12042240)
I1220 19:05:55.301507 31316 layer_factory.hpp:74] Creating layer inception_3a/1x1
I1220 19:05:55.301523 31316 net.cpp:84] Creating Layer inception_3a/1x1
I1220 19:05:55.301530 31316 net.cpp:380] inception_3a/1x1 <- pool2/3x3_s2_pool2/3x3_s2_0_split_0
I1220 19:05:55.301540 31316 net.cpp:338] inception_3a/1x1 -> inception_3a/1x1
I1220 19:05:55.301560 31316 net.cpp:113] Setting up inception_3a/1x1
I1220 19:05:55.312402 31316 net.cpp:120] Top shape: 80 64 28 28 (4014080)
I1220 19:05:55.312465 31316 layer_factory.hpp:74] Creating layer inception_3a/relu_1x1
I1220 19:05:55.312484 31316 net.cpp:84] Creating Layer inception_3a/relu_1x1
I1220 19:05:55.312494 31316 net.cpp:380] inception_3a/relu_1x1 <- inception_3a/1x1
I1220 19:05:55.312516 31316 net.cpp:327] inception_3a/relu_1x1 -> inception_3a/1x1 (in-place)
I1220 19:05:55.312530 31316 net.cpp:113] Setting up inception_3a/relu_1x1
I1220 19:05:55.312633 31316 net.cpp:120] Top shape: 80 64 28 28 (4014080)
I1220 19:05:55.312644 31316 layer_factory.hpp:74] Creating layer inception_3a/3x3_reduce
I1220 19:05:55.312657 31316 net.cpp:84] Creating Layer inception_3a/3x3_reduce
I1220 19:05:55.312666 31316 net.cpp:380] inception_3a/3x3_reduce <- pool2/3x3_s2_pool2/3x3_s2_0_split_1
I1220 19:05:55.312677 31316 net.cpp:338] inception_3a/3x3_reduce -> inception_3a/3x3_reduce
I1220 19:05:55.312693 31316 net.cpp:113] Setting up inception_3a/3x3_reduce
I1220 19:05:55.315445 31316 net.cpp:120] Top shape: 80 96 28 28 (6021120)
I1220 19:05:55.315495 31316 layer_factory.hpp:74] Creating layer inception_3a/relu_3x3_reduce
I1220 19:05:55.315517 31316 net.cpp:84] Creating Layer inception_3a/relu_3x3_reduce
I1220 19:05:55.315526 31316 net.cpp:380] inception_3a/relu_3x3_reduce <- inception_3a/3x3_reduce
I1220 19:05:55.315538 31316 net.cpp:327] inception_3a/relu_3x3_reduce -> inception_3a/3x3_reduce (in-place)
I1220 19:05:55.315551 31316 net.cpp:113] Setting up inception_3a/relu_3x3_reduce
I1220 19:05:55.315639 31316 net.cpp:120] Top shape: 80 96 28 28 (6021120)
I1220 19:05:55.315646 31316 layer_factory.hpp:74] Creating layer inception_3a/3x3
I1220 19:05:55.315661 31316 net.cpp:84] Creating Layer inception_3a/3x3
I1220 19:05:55.315668 31316 net.cpp:380] inception_3a/3x3 <- inception_3a/3x3_reduce
I1220 19:05:55.315678 31316 net.cpp:338] inception_3a/3x3 -> inception_3a/3x3
I1220 19:05:55.315691 31316 net.cpp:113] Setting up inception_3a/3x3
I1220 19:05:55.320075 31316 net.cpp:120] Top shape: 80 128 28 28 (8028160)
I1220 19:05:55.320160 31316 layer_factory.hpp:74] Creating layer inception_3a/relu_3x3
I1220 19:05:55.320178 31316 net.cpp:84] Creating Layer inception_3a/relu_3x3
I1220 19:05:55.320185 31316 net.cpp:380] inception_3a/relu_3x3 <- inception_3a/3x3
I1220 19:05:55.320200 31316 net.cpp:327] inception_3a/relu_3x3 -> inception_3a/3x3 (in-place)
I1220 19:05:55.320214 31316 net.cpp:113] Setting up inception_3a/relu_3x3
I1220 19:05:55.327929 31316 net.cpp:120] Top shape: 80 128 28 28 (8028160)
I1220 19:05:55.327986 31316 layer_factory.hpp:74] Creating layer inception_3a/5x5_reduce
I1220 19:05:55.328011 31316 net.cpp:84] Creating Layer inception_3a/5x5_reduce
I1220 19:05:55.328023 31316 net.cpp:380] inception_3a/5x5_reduce <- pool2/3x3_s2_pool2/3x3_s2_0_split_2
I1220 19:05:55.328047 31316 net.cpp:338] inception_3a/5x5_reduce -> inception_3a/5x5_reduce
I1220 19:05:55.328076 31316 net.cpp:113] Setting up inception_3a/5x5_reduce
I1220 19:05:55.337471 31316 net.cpp:120] Top shape: 80 16 28 28 (1003520)
I1220 19:05:55.337600 31316 layer_factory.hpp:74] Creating layer inception_3a/relu_5x5_reduce
I1220 19:05:55.337672 31316 net.cpp:84] Creating Layer inception_3a/relu_5x5_reduce
I1220 19:05:55.337682 31316 net.cpp:380] inception_3a/relu_5x5_reduce <- inception_3a/5x5_reduce
I1220 19:05:55.337694 31316 net.cpp:327] inception_3a/relu_5x5_reduce -> inception_3a/5x5_reduce (in-place)
I1220 19:05:55.337708 31316 net.cpp:113] Setting up inception_3a/relu_5x5_reduce
I1220 19:05:55.337826 31316 net.cpp:120] Top shape: 80 16 28 28 (1003520)
I1220 19:05:55.337833 31316 layer_factory.hpp:74] Creating layer inception_3a/5x5
I1220 19:05:55.337852 31316 net.cpp:84] Creating Layer inception_3a/5x5
I1220 19:05:55.337857 31316 net.cpp:380] inception_3a/5x5 <- inception_3a/5x5_reduce
I1220 19:05:55.337864 31316 net.cpp:338] inception_3a/5x5 -> inception_3a/5x5
I1220 19:05:55.337877 31316 net.cpp:113] Setting up inception_3a/5x5
I1220 19:05:55.347082 31316 net.cpp:120] Top shape: 80 32 28 28 (2007040)
I1220 19:05:55.347165 31316 layer_factory.hpp:74] Creating layer inception_3a/relu_5x5
I1220 19:05:55.347188 31316 net.cpp:84] Creating Layer inception_3a/relu_5x5
I1220 19:05:55.347203 31316 net.cpp:380] inception_3a/relu_5x5 <- inception_3a/5x5
I1220 19:05:55.347224 31316 net.cpp:327] inception_3a/relu_5x5 -> inception_3a/5x5 (in-place)
I1220 19:05:55.347245 31316 net.cpp:113] Setting up inception_3a/relu_5x5
I1220 19:05:55.347431 31316 net.cpp:120] Top shape: 80 32 28 28 (2007040)
I1220 19:05:55.347447 31316 layer_factory.hpp:74] Creating layer inception_3a/pool
I1220 19:05:55.347460 31316 layer_factory.cpp:56] CUDNN does not support padding or multiple tops. Using Caffe's own pooling layer.
I1220 19:05:55.347477 31316 net.cpp:84] Creating Layer inception_3a/pool
I1220 19:05:55.347489 31316 net.cpp:380] inception_3a/pool <- pool2/3x3_s2_pool2/3x3_s2_0_split_3
I1220 19:05:55.347511 31316 net.cpp:338] inception_3a/pool -> inception_3a/pool
I1220 19:05:55.347529 31316 net.cpp:113] Setting up inception_3a/pool
I1220 19:05:55.347548 31316 net.cpp:120] Top shape: 80 192 28 28 (12042240)
I1220 19:05:55.347558 31316 layer_factory.hpp:74] Creating layer inception_3a/pool_proj
I1220 19:05:55.347581 31316 net.cpp:84] Creating Layer inception_3a/pool_proj
I1220 19:05:55.347591 31316 net.cpp:380] inception_3a/pool_proj <- inception_3a/pool
I1220 19:05:55.347607 31316 net.cpp:338] inception_3a/pool_proj -> inception_3a/pool_proj
I1220 19:05:55.347625 31316 net.cpp:113] Setting up inception_3a/pool_proj
I1220 19:05:55.350179 31316 net.cpp:120] Top shape: 80 32 28 28 (2007040)
I1220 19:05:55.350272 31316 layer_factory.hpp:74] Creating layer inception_3a/relu_pool_proj
I1220 19:05:55.350293 31316 net.cpp:84] Creating Layer inception_3a/relu_pool_proj
I1220 19:05:55.350306 31316 net.cpp:380] inception_3a/relu_pool_proj <- inception_3a/pool_proj
I1220 19:05:55.350327 31316 net.cpp:327] inception_3a/relu_pool_proj -> inception_3a/pool_proj (in-place)
I1220 19:05:55.350363 31316 net.cpp:113] Setting up inception_3a/relu_pool_proj
I1220 19:05:55.350533 31316 net.cpp:120] Top shape: 80 32 28 28 (2007040)
I1220 19:05:55.350548 31316 layer_factory.hpp:74] Creating layer inception_3a/output
I1220 19:05:55.350571 31316 net.cpp:84] Creating Layer inception_3a/output
I1220 19:05:55.350581 31316 net.cpp:380] inception_3a/output <- inception_3a/1x1
I1220 19:05:55.350594 31316 net.cpp:380] inception_3a/output <- inception_3a/3x3
I1220 19:05:55.350605 31316 net.cpp:380] inception_3a/output <- inception_3a/5x5
I1220 19:05:55.350615 31316 net.cpp:380] inception_3a/output <- inception_3a/pool_proj
I1220 19:05:55.350628 31316 net.cpp:338] inception_3a/output -> inception_3a/output
I1220 19:05:55.350644 31316 net.cpp:113] Setting up inception_3a/output
I1220 19:05:55.350672 31316 net.cpp:120] Top shape: 80 256 28 28 (16056320)
I1220 19:05:55.350682 31316 layer_factory.hpp:74] Creating layer inception_3a/output_inception_3a/output_0_split
I1220 19:05:55.350698 31316 net.cpp:84] Creating Layer inception_3a/output_inception_3a/output_0_split
I1220 19:05:55.350708 31316 net.cpp:380] inception_3a/output_inception_3a/output_0_split <- inception_3a/output
I1220 19:05:55.350721 31316 net.cpp:338] inception_3a/output_inception_3a/output_0_split -> inception_3a/output_inception_3a/output_0_split_0
I1220 19:05:55.350738 31316 net.cpp:338] inception_3a/output_inception_3a/output_0_split -> inception_3a/output_inception_3a/output_0_split_1
I1220 19:05:55.350754 31316 net.cpp:338] inception_3a/output_inception_3a/output_0_split -> inception_3a/output_inception_3a/output_0_split_2
I1220 19:05:55.350771 31316 net.cpp:338] inception_3a/output_inception_3a/output_0_split -> inception_3a/output_inception_3a/output_0_split_3
I1220 19:05:55.350785 31316 net.cpp:113] Setting up inception_3a/output_inception_3a/output_0_split
I1220 19:05:55.350802 31316 net.cpp:120] Top shape: 80 256 28 28 (16056320)
I1220 19:05:55.350813 31316 net.cpp:120] Top shape: 80 256 28 28 (16056320)
I1220 19:05:55.350823 31316 net.cpp:120] Top shape: 80 256 28 28 (16056320)
I1220 19:05:55.350833 31316 net.cpp:120] Top shape: 80 256 28 28 (16056320)
I1220 19:05:55.350842 31316 layer_factory.hpp:74] Creating layer inception_3b/1x1
I1220 19:05:55.350863 31316 net.cpp:84] Creating Layer inception_3b/1x1
I1220 19:05:55.350872 31316 net.cpp:380] inception_3b/1x1 <- inception_3a/output_inception_3a/output_0_split_0
I1220 19:05:55.350889 31316 net.cpp:338] inception_3b/1x1 -> inception_3b/1x1
I1220 19:05:55.350908 31316 net.cpp:113] Setting up inception_3b/1x1
I1220 19:05:55.355064 31316 net.cpp:120] Top shape: 80 128 28 28 (8028160)
I1220 19:05:55.355159 31316 layer_factory.hpp:74] Creating layer inception_3b/relu_1x1
I1220 19:05:55.355183 31316 net.cpp:84] Creating Layer inception_3b/relu_1x1
I1220 19:05:55.355196 31316 net.cpp:380] inception_3b/relu_1x1 <- inception_3b/1x1
I1220 19:05:55.355218 31316 net.cpp:327] inception_3b/relu_1x1 -> inception_3b/1x1 (in-place)
I1220 19:05:55.355240 31316 net.cpp:113] Setting up inception_3b/relu_1x1
I1220 19:05:55.356065 31316 net.cpp:120] Top shape: 80 128 28 28 (8028160)
I1220 19:05:55.356099 31316 layer_factory.hpp:74] Creating layer inception_3b/3x3_reduce
I1220 19:05:55.356122 31316 net.cpp:84] Creating Layer inception_3b/3x3_reduce
I1220 19:05:55.356133 31316 net.cpp:380] inception_3b/3x3_reduce <- inception_3a/output_inception_3a/output_0_split_1
I1220 19:05:55.356154 31316 net.cpp:338] inception_3b/3x3_reduce -> inception_3b/3x3_reduce
I1220 19:05:55.356178 31316 net.cpp:113] Setting up inception_3b/3x3_reduce
I1220 19:05:55.358271 31316 net.cpp:120] Top shape: 80 128 28 28 (8028160)
I1220 19:05:55.358337 31316 layer_factory.hpp:74] Creating layer inception_3b/relu_3x3_reduce
I1220 19:05:55.358357 31316 net.cpp:84] Creating Layer inception_3b/relu_3x3_reduce
I1220 19:05:55.358371 31316 net.cpp:380] inception_3b/relu_3x3_reduce <- inception_3b/3x3_reduce
I1220 19:05:55.358392 31316 net.cpp:327] inception_3b/relu_3x3_reduce -> inception_3b/3x3_reduce (in-place)
I1220 19:05:55.358410 31316 net.cpp:113] Setting up inception_3b/relu_3x3_reduce
I1220 19:05:55.358553 31316 net.cpp:120] Top shape: 80 128 28 28 (8028160)
I1220 19:05:55.358587 31316 layer_factory.hpp:74] Creating layer inception_3b/3x3
I1220 19:05:55.358616 31316 net.cpp:84] Creating Layer inception_3b/3x3
I1220 19:05:55.358626 31316 net.cpp:380] inception_3b/3x3 <- inception_3b/3x3_reduce
I1220 19:05:55.358640 31316 net.cpp:338] inception_3b/3x3 -> inception_3b/3x3
I1220 19:05:55.358659 31316 net.cpp:113] Setting up inception_3b/3x3
I1220 19:05:55.365568 31316 net.cpp:120] Top shape: 80 192 28 28 (12042240)
I1220 19:05:55.365649 31316 layer_factory.hpp:74] Creating layer inception_3b/relu_3x3
I1220 19:05:55.365674 31316 net.cpp:84] Creating Layer inception_3b/relu_3x3
I1220 19:05:55.365687 31316 net.cpp:380] inception_3b/relu_3x3 <- inception_3b/3x3
I1220 19:05:55.365708 31316 net.cpp:327] inception_3b/relu_3x3 -> inception_3b/3x3 (in-place)
I1220 19:05:55.365730 31316 net.cpp:113] Setting up inception_3b/relu_3x3
I1220 19:05:55.365880 31316 net.cpp:120] Top shape: 80 192 28 28 (12042240)
I1220 19:05:55.365893 31316 layer_factory.hpp:74] Creating layer inception_3b/5x5_reduce
I1220 19:05:55.365919 31316 net.cpp:84] Creating Layer inception_3b/5x5_reduce
I1220 19:05:55.365929 31316 net.cpp:380] inception_3b/5x5_reduce <- inception_3a/output_inception_3a/output_0_split_2
I1220 19:05:55.365943 31316 net.cpp:338] inception_3b/5x5_reduce -> inception_3b/5x5_reduce
I1220 19:05:55.365962 31316 net.cpp:113] Setting up inception_3b/5x5_reduce
I1220 19:05:55.368060 31316 net.cpp:120] Top shape: 80 32 28 28 (2007040)
I1220 19:05:55.368125 31316 layer_factory.hpp:74] Creating layer inception_3b/relu_5x5_reduce
I1220 19:05:55.368152 31316 net.cpp:84] Creating Layer inception_3b/relu_5x5_reduce
I1220 19:05:55.368172 31316 net.cpp:380] inception_3b/relu_5x5_reduce <- inception_3b/5x5_reduce
I1220 19:05:55.368190 31316 net.cpp:327] inception_3b/relu_5x5_reduce -> inception_3b/5x5_reduce (in-place)
I1220 19:05:55.368211 31316 net.cpp:113] Setting up inception_3b/relu_5x5_reduce
I1220 19:05:55.368341 31316 net.cpp:120] Top shape: 80 32 28 28 (2007040)
I1220 19:05:55.368355 31316 layer_factory.hpp:74] Creating layer inception_3b/5x5
I1220 19:05:55.368376 31316 net.cpp:84] Creating Layer inception_3b/5x5
I1220 19:05:55.368386 31316 net.cpp:380] inception_3b/5x5 <- inception_3b/5x5_reduce
I1220 19:05:55.368399 31316 net.cpp:338] inception_3b/5x5 -> inception_3b/5x5
I1220 19:05:55.368427 31316 net.cpp:113] Setting up inception_3b/5x5
I1220 19:05:55.372350 31316 net.cpp:120] Top shape: 80 96 28 28 (6021120)
I1220 19:05:55.372423 31316 layer_factory.hpp:74] Creating layer inception_3b/relu_5x5
I1220 19:05:55.372450 31316 net.cpp:84] Creating Layer inception_3b/relu_5x5
I1220 19:05:55.372463 31316 net.cpp:380] inception_3b/relu_5x5 <- inception_3b/5x5
I1220 19:05:55.372480 31316 net.cpp:327] inception_3b/relu_5x5 -> inception_3b/5x5 (in-place)
I1220 19:05:55.372499 31316 net.cpp:113] Setting up inception_3b/relu_5x5
I1220 19:05:55.376634 31316 net.cpp:120] Top shape: 80 96 28 28 (6021120)
I1220 19:05:55.376706 31316 layer_factory.hpp:74] Creating layer inception_3b/pool
I1220 19:05:55.376721 31316 layer_factory.cpp:56] CUDNN does not support padding or multiple tops. Using Caffe's own pooling layer.
I1220 19:05:55.376737 31316 net.cpp:84] Creating Layer inception_3b/pool
I1220 19:05:55.376756 31316 net.cpp:380] inception_3b/pool <- inception_3a/output_inception_3a/output_0_split_3
I1220 19:05:55.376775 31316 net.cpp:338] inception_3b/pool -> inception_3b/pool
I1220 19:05:55.376798 31316 net.cpp:113] Setting up inception_3b/pool
I1220 19:05:55.376819 31316 net.cpp:120] Top shape: 80 256 28 28 (16056320)
I1220 19:05:55.376829 31316 layer_factory.hpp:74] Creating layer inception_3b/pool_proj
I1220 19:05:55.376849 31316 net.cpp:84] Creating Layer inception_3b/pool_proj
I1220 19:05:55.376859 31316 net.cpp:380] inception_3b/pool_proj <- inception_3b/pool
I1220 19:05:55.376880 31316 net.cpp:338] inception_3b/pool_proj -> inception_3b/pool_proj
I1220 19:05:55.376896 31316 net.cpp:113] Setting up inception_3b/pool_proj
I1220 19:05:55.378517 31316 net.cpp:120] Top shape: 80 64 28 28 (4014080)
I1220 19:05:55.378609 31316 layer_factory.hpp:74] Creating layer inception_3b/relu_pool_proj
I1220 19:05:55.378631 31316 net.cpp:84] Creating Layer inception_3b/relu_pool_proj
I1220 19:05:55.378643 31316 net.cpp:380] inception_3b/relu_pool_proj <- inception_3b/pool_proj
I1220 19:05:55.378660 31316 net.cpp:327] inception_3b/relu_pool_proj -> inception_3b/pool_proj (in-place)
I1220 19:05:55.378679 31316 net.cpp:113] Setting up inception_3b/relu_pool_proj
I1220 19:05:55.378865 31316 net.cpp:120] Top shape: 80 64 28 28 (4014080)
I1220 19:05:55.378885 31316 layer_factory.hpp:74] Creating layer inception_3b/output
I1220 19:05:55.378901 31316 net.cpp:84] Creating Layer inception_3b/output
I1220 19:05:55.378911 31316 net.cpp:380] inception_3b/output <- inception_3b/1x1
I1220 19:05:55.378923 31316 net.cpp:380] inception_3b/output <- inception_3b/3x3
I1220 19:05:55.378934 31316 net.cpp:380] inception_3b/output <- inception_3b/5x5
I1220 19:05:55.378943 31316 net.cpp:380] inception_3b/output <- inception_3b/pool_proj
I1220 19:05:55.378959 31316 net.cpp:338] inception_3b/output -> inception_3b/output
I1220 19:05:55.378975 31316 net.cpp:113] Setting up inception_3b/output
I1220 19:05:55.378993 31316 net.cpp:120] Top shape: 80 480 28 28 (30105600)
I1220 19:05:55.379001 31316 layer_factory.hpp:74] Creating layer pool3/3x3_s2
I1220 19:05:55.379015 31316 net.cpp:84] Creating Layer pool3/3x3_s2
I1220 19:05:55.379024 31316 net.cpp:380] pool3/3x3_s2 <- inception_3b/output
I1220 19:05:55.379037 31316 net.cpp:338] pool3/3x3_s2 -> pool3/3x3_s2
I1220 19:05:55.379051 31316 net.cpp:113] Setting up pool3/3x3_s2
I1220 19:05:55.379206 31316 net.cpp:120] Top shape: 80 480 14 14 (7526400)
I1220 19:05:55.379218 31316 layer_factory.hpp:74] Creating layer pool3/3x3_s2_pool3/3x3_s2_0_split
I1220 19:05:55.379233 31316 net.cpp:84] Creating Layer pool3/3x3_s2_pool3/3x3_s2_0_split
I1220 19:05:55.379243 31316 net.cpp:380] pool3/3x3_s2_pool3/3x3_s2_0_split <- pool3/3x3_s2
I1220 19:05:55.379261 31316 net.cpp:338] pool3/3x3_s2_pool3/3x3_s2_0_split -> pool3/3x3_s2_pool3/3x3_s2_0_split_0
I1220 19:05:55.379276 31316 net.cpp:338] pool3/3x3_s2_pool3/3x3_s2_0_split -> pool3/3x3_s2_pool3/3x3_s2_0_split_1
I1220 19:05:55.379290 31316 net.cpp:338] pool3/3x3_s2_pool3/3x3_s2_0_split -> pool3/3x3_s2_pool3/3x3_s2_0_split_2
I1220 19:05:55.379307 31316 net.cpp:338] pool3/3x3_s2_pool3/3x3_s2_0_split -> pool3/3x3_s2_pool3/3x3_s2_0_split_3
I1220 19:05:55.379319 31316 net.cpp:113] Setting up pool3/3x3_s2_pool3/3x3_s2_0_split
I1220 19:05:55.379336 31316 net.cpp:120] Top shape: 80 480 14 14 (7526400)
I1220 19:05:55.379348 31316 net.cpp:120] Top shape: 80 480 14 14 (7526400)
I1220 19:05:55.379356 31316 net.cpp:120] Top shape: 80 480 14 14 (7526400)
I1220 19:05:55.379367 31316 net.cpp:120] Top shape: 80 480 14 14 (7526400)
I1220 19:05:55.379376 31316 layer_factory.hpp:74] Creating layer inception_4a/1x1
I1220 19:05:55.379405 31316 net.cpp:84] Creating Layer inception_4a/1x1
I1220 19:05:55.379415 31316 net.cpp:380] inception_4a/1x1 <- pool3/3x3_s2_pool3/3x3_s2_0_split_0
I1220 19:05:55.379429 31316 net.cpp:338] inception_4a/1x1 -> inception_4a/1x1
I1220 19:05:55.379447 31316 net.cpp:113] Setting up inception_4a/1x1
I1220 19:05:55.382993 31316 net.cpp:120] Top shape: 80 192 14 14 (3010560)
I1220 19:05:55.383061 31316 layer_factory.hpp:74] Creating layer inception_4a/relu_1x1
I1220 19:05:55.383090 31316 net.cpp:84] Creating Layer inception_4a/relu_1x1
I1220 19:05:55.383105 31316 net.cpp:380] inception_4a/relu_1x1 <- inception_4a/1x1
I1220 19:05:55.383121 31316 net.cpp:327] inception_4a/relu_1x1 -> inception_4a/1x1 (in-place)
I1220 19:05:55.383136 31316 net.cpp:113] Setting up inception_4a/relu_1x1
I1220 19:05:55.384088 31316 net.cpp:120] Top shape: 80 192 14 14 (3010560)
I1220 19:05:55.384117 31316 layer_factory.hpp:74] Creating layer inception_4a/3x3_reduce
I1220 19:05:55.384137 31316 net.cpp:84] Creating Layer inception_4a/3x3_reduce
I1220 19:05:55.384150 31316 net.cpp:380] inception_4a/3x3_reduce <- pool3/3x3_s2_pool3/3x3_s2_0_split_1
I1220 19:05:55.384207 31316 net.cpp:338] inception_4a/3x3_reduce -> inception_4a/3x3_reduce
I1220 19:05:55.384228 31316 net.cpp:113] Setting up inception_4a/3x3_reduce
I1220 19:05:55.386585 31316 net.cpp:120] Top shape: 80 96 14 14 (1505280)
I1220 19:05:55.386654 31316 layer_factory.hpp:74] Creating layer inception_4a/relu_3x3_reduce
I1220 19:05:55.386684 31316 net.cpp:84] Creating Layer inception_4a/relu_3x3_reduce
I1220 19:05:55.386695 31316 net.cpp:380] inception_4a/relu_3x3_reduce <- inception_4a/3x3_reduce
I1220 19:05:55.386713 31316 net.cpp:327] inception_4a/relu_3x3_reduce -> inception_4a/3x3_reduce (in-place)
I1220 19:05:55.386730 31316 net.cpp:113] Setting up inception_4a/relu_3x3_reduce
I1220 19:05:55.386873 31316 net.cpp:120] Top shape: 80 96 14 14 (1505280)
I1220 19:05:55.386885 31316 layer_factory.hpp:74] Creating layer inception_4a/3x3
I1220 19:05:55.386910 31316 net.cpp:84] Creating Layer inception_4a/3x3
I1220 19:05:55.386920 31316 net.cpp:380] inception_4a/3x3 <- inception_4a/3x3_reduce
I1220 19:05:55.386937 31316 net.cpp:338] inception_4a/3x3 -> inception_4a/3x3
I1220 19:05:55.386953 31316 net.cpp:113] Setting up inception_4a/3x3
I1220 19:05:55.391666 31316 net.cpp:120] Top shape: 80 208 14 14 (3261440)
I1220 19:05:55.391723 31316 layer_factory.hpp:74] Creating layer inception_4a/relu_3x3
I1220 19:05:55.391742 31316 net.cpp:84] Creating Layer inception_4a/relu_3x3
I1220 19:05:55.391753 31316 net.cpp:380] inception_4a/relu_3x3 <- inception_4a/3x3
I1220 19:05:55.391767 31316 net.cpp:327] inception_4a/relu_3x3 -> inception_4a/3x3 (in-place)
I1220 19:05:55.391782 31316 net.cpp:113] Setting up inception_4a/relu_3x3
I1220 19:05:55.391903 31316 net.cpp:120] Top shape: 80 208 14 14 (3261440)
I1220 19:05:55.391914 31316 layer_factory.hpp:74] Creating layer inception_4a/5x5_reduce
I1220 19:05:55.391928 31316 net.cpp:84] Creating Layer inception_4a/5x5_reduce
I1220 19:05:55.391938 31316 net.cpp:380] inception_4a/5x5_reduce <- pool3/3x3_s2_pool3/3x3_s2_0_split_2
I1220 19:05:55.391954 31316 net.cpp:338] inception_4a/5x5_reduce -> inception_4a/5x5_reduce
I1220 19:05:55.391971 31316 net.cpp:113] Setting up inception_4a/5x5_reduce
I1220 19:05:55.393134 31316 net.cpp:120] Top shape: 80 16 14 14 (250880)
I1220 19:05:55.393172 31316 layer_factory.hpp:74] Creating layer inception_4a/relu_5x5_reduce
I1220 19:05:55.393189 31316 net.cpp:84] Creating Layer inception_4a/relu_5x5_reduce
I1220 19:05:55.393199 31316 net.cpp:380] inception_4a/relu_5x5_reduce <- inception_4a/5x5_reduce
I1220 19:05:55.393213 31316 net.cpp:327] inception_4a/relu_5x5_reduce -> inception_4a/5x5_reduce (in-place)
I1220 19:05:55.393226 31316 net.cpp:113] Setting up inception_4a/relu_5x5_reduce
I1220 19:05:55.393350 31316 net.cpp:120] Top shape: 80 16 14 14 (250880)
I1220 19:05:55.393362 31316 layer_factory.hpp:74] Creating layer inception_4a/5x5
I1220 19:05:55.393378 31316 net.cpp:84] Creating Layer inception_4a/5x5
I1220 19:05:55.393388 31316 net.cpp:380] inception_4a/5x5 <- inception_4a/5x5_reduce
I1220 19:05:55.393403 31316 net.cpp:338] inception_4a/5x5 -> inception_4a/5x5
I1220 19:05:55.393417 31316 net.cpp:113] Setting up inception_4a/5x5
I1220 19:05:55.394930 31316 net.cpp:120] Top shape: 80 48 14 14 (752640)
I1220 19:05:55.394958 31316 layer_factory.hpp:74] Creating layer inception_4a/relu_5x5
I1220 19:05:55.394976 31316 net.cpp:84] Creating Layer inception_4a/relu_5x5
I1220 19:05:55.394986 31316 net.cpp:380] inception_4a/relu_5x5 <- inception_4a/5x5
I1220 19:05:55.394999 31316 net.cpp:327] inception_4a/relu_5x5 -> inception_4a/5x5 (in-place)
I1220 19:05:55.395012 31316 net.cpp:113] Setting up inception_4a/relu_5x5
I1220 19:05:55.395735 31316 net.cpp:120] Top shape: 80 48 14 14 (752640)
I1220 19:05:55.395756 31316 layer_factory.hpp:74] Creating layer inception_4a/pool
I1220 19:05:55.395766 31316 layer_factory.cpp:56] CUDNN does not support padding or multiple tops. Using Caffe's own pooling layer.
I1220 19:05:55.395777 31316 net.cpp:84] Creating Layer inception_4a/pool
I1220 19:05:55.395787 31316 net.cpp:380] inception_4a/pool <- pool3/3x3_s2_pool3/3x3_s2_0_split_3
I1220 19:05:55.395843 31316 net.cpp:338] inception_4a/pool -> inception_4a/pool
I1220 19:05:55.395860 31316 net.cpp:113] Setting up inception_4a/pool
I1220 19:05:55.395876 31316 net.cpp:120] Top shape: 80 480 14 14 (7526400)
I1220 19:05:55.395884 31316 layer_factory.hpp:74] Creating layer inception_4a/pool_proj
I1220 19:05:55.395898 31316 net.cpp:84] Creating Layer inception_4a/pool_proj
I1220 19:05:55.395910 31316 net.cpp:380] inception_4a/pool_proj <- inception_4a/pool
I1220 19:05:55.395925 31316 net.cpp:338] inception_4a/pool_proj -> inception_4a/pool_proj
I1220 19:05:55.395939 31316 net.cpp:113] Setting up inception_4a/pool_proj
I1220 19:05:55.397666 31316 net.cpp:120] Top shape: 80 64 14 14 (1003520)
I1220 19:05:55.397696 31316 layer_factory.hpp:74] Creating layer inception_4a/relu_pool_proj
I1220 19:05:55.397713 31316 net.cpp:84] Creating Layer inception_4a/relu_pool_proj
I1220 19:05:55.397723 31316 net.cpp:380] inception_4a/relu_pool_proj <- inception_4a/pool_proj
I1220 19:05:55.397734 31316 net.cpp:327] inception_4a/relu_pool_proj -> inception_4a/pool_proj (in-place)
I1220 19:05:55.397747 31316 net.cpp:113] Setting up inception_4a/relu_pool_proj
I1220 19:05:55.397863 31316 net.cpp:120] Top shape: 80 64 14 14 (1003520)
I1220 19:05:55.397874 31316 layer_factory.hpp:74] Creating layer inception_4a/output
I1220 19:05:55.397884 31316 net.cpp:84] Creating Layer inception_4a/output
I1220 19:05:55.397893 31316 net.cpp:380] inception_4a/output <- inception_4a/1x1
I1220 19:05:55.397903 31316 net.cpp:380] inception_4a/output <- inception_4a/3x3
I1220 19:05:55.397912 31316 net.cpp:380] inception_4a/output <- inception_4a/5x5
I1220 19:05:55.397920 31316 net.cpp:380] inception_4a/output <- inception_4a/pool_proj
I1220 19:05:55.397933 31316 net.cpp:338] inception_4a/output -> inception_4a/output
I1220 19:05:55.397945 31316 net.cpp:113] Setting up inception_4a/output
I1220 19:05:55.397959 31316 net.cpp:120] Top shape: 80 512 14 14 (8028160)
I1220 19:05:55.397969 31316 layer_factory.hpp:74] Creating layer inception_4a/output_inception_4a/output_0_split
I1220 19:05:55.397980 31316 net.cpp:84] Creating Layer inception_4a/output_inception_4a/output_0_split
I1220 19:05:55.397987 31316 net.cpp:380] inception_4a/output_inception_4a/output_0_split <- inception_4a/output
I1220 19:05:55.398000 31316 net.cpp:338] inception_4a/output_inception_4a/output_0_split -> inception_4a/output_inception_4a/output_0_split_0
I1220 19:05:55.398015 31316 net.cpp:338] inception_4a/output_inception_4a/output_0_split -> inception_4a/output_inception_4a/output_0_split_1
I1220 19:05:55.398026 31316 net.cpp:338] inception_4a/output_inception_4a/output_0_split -> inception_4a/output_inception_4a/output_0_split_2
I1220 19:05:55.398038 31316 net.cpp:338] inception_4a/output_inception_4a/output_0_split -> inception_4a/output_inception_4a/output_0_split_3
I1220 19:05:55.398051 31316 net.cpp:338] inception_4a/output_inception_4a/output_0_split -> inception_4a/output_inception_4a/output_0_split_4
I1220 19:05:55.398061 31316 net.cpp:113] Setting up inception_4a/output_inception_4a/output_0_split
I1220 19:05:55.398074 31316 net.cpp:120] Top shape: 80 512 14 14 (8028160)
I1220 19:05:55.398083 31316 net.cpp:120] Top shape: 80 512 14 14 (8028160)
I1220 19:05:55.398092 31316 net.cpp:120] Top shape: 80 512 14 14 (8028160)
I1220 19:05:55.398099 31316 net.cpp:120] Top shape: 80 512 14 14 (8028160)
I1220 19:05:55.398108 31316 net.cpp:120] Top shape: 80 512 14 14 (8028160)
I1220 19:05:55.398114 31316 layer_factory.hpp:74] Creating layer loss1/ave_pool
I1220 19:05:55.398128 31316 net.cpp:84] Creating Layer loss1/ave_pool
I1220 19:05:55.398135 31316 net.cpp:380] loss1/ave_pool <- inception_4a/output_inception_4a/output_0_split_0
I1220 19:05:55.398146 31316 net.cpp:338] loss1/ave_pool -> loss1/ave_pool
I1220 19:05:55.398157 31316 net.cpp:113] Setting up loss1/ave_pool
I1220 19:05:55.398265 31316 net.cpp:120] Top shape: 80 512 4 4 (655360)
I1220 19:05:55.398277 31316 layer_factory.hpp:74] Creating layer loss1/conv
I1220 19:05:55.398308 31316 net.cpp:84] Creating Layer loss1/conv
I1220 19:05:55.398330 31316 net.cpp:380] loss1/conv <- loss1/ave_pool
I1220 19:05:55.398344 31316 net.cpp:338] loss1/conv -> loss1/conv
I1220 19:05:55.398356 31316 net.cpp:113] Setting up loss1/conv
I1220 19:05:55.400511 31316 net.cpp:120] Top shape: 80 128 4 4 (163840)
I1220 19:05:55.400540 31316 layer_factory.hpp:74] Creating layer loss1/relu_conv
I1220 19:05:55.400555 31316 net.cpp:84] Creating Layer loss1/relu_conv
I1220 19:05:55.400565 31316 net.cpp:380] loss1/relu_conv <- loss1/conv
I1220 19:05:55.400576 31316 net.cpp:327] loss1/relu_conv -> loss1/conv (in-place)
I1220 19:05:55.400589 31316 net.cpp:113] Setting up loss1/relu_conv
I1220 19:05:55.400703 31316 net.cpp:120] Top shape: 80 128 4 4 (163840)
I1220 19:05:55.400713 31316 layer_factory.hpp:74] Creating layer loss1/fc
I1220 19:05:55.400737 31316 net.cpp:84] Creating Layer loss1/fc
I1220 19:05:55.400744 31316 net.cpp:380] loss1/fc <- loss1/conv
I1220 19:05:55.400758 31316 net.cpp:338] loss1/fc -> loss1/fc
I1220 19:05:55.400777 31316 net.cpp:113] Setting up loss1/fc
I1220 19:05:56.798935 31316 net.cpp:120] Top shape: 80 1024 (81920)
I1220 19:05:56.799008 31316 layer_factory.hpp:74] Creating layer loss1/relu_fc
I1220 19:05:56.799032 31316 net.cpp:84] Creating Layer loss1/relu_fc
I1220 19:05:56.799049 31316 net.cpp:380] loss1/relu_fc <- loss1/fc
I1220 19:05:56.799067 31316 net.cpp:327] loss1/relu_fc -> loss1/fc (in-place)
I1220 19:05:56.799082 31316 net.cpp:113] Setting up loss1/relu_fc
I1220 19:05:56.799783 31316 net.cpp:120] Top shape: 80 1024 (81920)
I1220 19:05:56.799799 31316 layer_factory.hpp:74] Creating layer loss1/drop_fc
I1220 19:05:56.799911 31316 net.cpp:84] Creating Layer loss1/drop_fc
I1220 19:05:56.799926 31316 net.cpp:380] loss1/drop_fc <- loss1/fc
I1220 19:05:56.799937 31316 net.cpp:327] loss1/drop_fc -> loss1/fc (in-place)
I1220 19:05:56.799994 31316 net.cpp:113] Setting up loss1/drop_fc
I1220 19:05:56.800015 31316 net.cpp:120] Top shape: 80 1024 (81920)
I1220 19:05:56.800029 31316 layer_factory.hpp:74] Creating layer loss1/classifier_kaggle
I1220 19:05:56.800050 31316 net.cpp:84] Creating Layer loss1/classifier_kaggle
I1220 19:05:56.800056 31316 net.cpp:380] loss1/classifier_kaggle <- loss1/fc
I1220 19:05:56.800070 31316 net.cpp:338] loss1/classifier_kaggle -> loss1/classifier_kaggle
I1220 19:05:56.800084 31316 net.cpp:113] Setting up loss1/classifier_kaggle
I1220 19:05:56.805850 31316 net.cpp:120] Top shape: 80 447 (35760)
I1220 19:05:56.805917 31316 layer_factory.hpp:74] Creating layer loss1/loss
I1220 19:05:56.805935 31316 net.cpp:84] Creating Layer loss1/loss
I1220 19:05:56.805945 31316 net.cpp:380] loss1/loss <- loss1/classifier_kaggle
I1220 19:05:56.805958 31316 net.cpp:380] loss1/loss <- label_data_1_split_0
I1220 19:05:56.805973 31316 net.cpp:338] loss1/loss -> loss1/loss1
I1220 19:05:56.805990 31316 net.cpp:113] Setting up loss1/loss
I1220 19:05:56.806005 31316 layer_factory.hpp:74] Creating layer loss1/loss
I1220 19:05:56.806296 31316 net.cpp:120] Top shape: (1)
I1220 19:05:56.806308 31316 net.cpp:122]     with loss weight 0.3
I1220 19:05:56.806385 31316 layer_factory.hpp:74] Creating layer inception_4b/1x1
I1220 19:05:56.806407 31316 net.cpp:84] Creating Layer inception_4b/1x1
I1220 19:05:56.806416 31316 net.cpp:380] inception_4b/1x1 <- inception_4a/output_inception_4a/output_0_split_1
I1220 19:05:56.806430 31316 net.cpp:338] inception_4b/1x1 -> inception_4b/1x1
I1220 19:05:56.806443 31316 net.cpp:113] Setting up inception_4b/1x1
I1220 19:05:56.808323 31316 net.cpp:120] Top shape: 80 160 14 14 (2508800)
I1220 19:05:56.808368 31316 layer_factory.hpp:74] Creating layer inception_4b/relu_1x1
I1220 19:05:56.808387 31316 net.cpp:84] Creating Layer inception_4b/relu_1x1
I1220 19:05:56.808396 31316 net.cpp:380] inception_4b/relu_1x1 <- inception_4b/1x1
I1220 19:05:56.808411 31316 net.cpp:327] inception_4b/relu_1x1 -> inception_4b/1x1 (in-place)
I1220 19:05:56.808424 31316 net.cpp:113] Setting up inception_4b/relu_1x1
I1220 19:05:56.808526 31316 net.cpp:120] Top shape: 80 160 14 14 (2508800)
I1220 19:05:56.808560 31316 layer_factory.hpp:74] Creating layer inception_4b/3x3_reduce
I1220 19:05:56.808594 31316 net.cpp:84] Creating Layer inception_4b/3x3_reduce
I1220 19:05:56.808604 31316 net.cpp:380] inception_4b/3x3_reduce <- inception_4a/output_inception_4a/output_0_split_2
I1220 19:05:56.808619 31316 net.cpp:338] inception_4b/3x3_reduce -> inception_4b/3x3_reduce
I1220 19:05:56.808634 31316 net.cpp:113] Setting up inception_4b/3x3_reduce
I1220 19:05:56.810030 31316 net.cpp:120] Top shape: 80 112 14 14 (1756160)
I1220 19:05:56.810066 31316 layer_factory.hpp:74] Creating layer inception_4b/relu_3x3_reduce
I1220 19:05:56.810080 31316 net.cpp:84] Creating Layer inception_4b/relu_3x3_reduce
I1220 19:05:56.810088 31316 net.cpp:380] inception_4b/relu_3x3_reduce <- inception_4b/3x3_reduce
I1220 19:05:56.810101 31316 net.cpp:327] inception_4b/relu_3x3_reduce -> inception_4b/3x3_reduce (in-place)
I1220 19:05:56.810111 31316 net.cpp:113] Setting up inception_4b/relu_3x3_reduce
I1220 19:05:56.810233 31316 net.cpp:120] Top shape: 80 112 14 14 (1756160)
I1220 19:05:56.810251 31316 layer_factory.hpp:74] Creating layer inception_4b/3x3
I1220 19:05:56.810268 31316 net.cpp:84] Creating Layer inception_4b/3x3
I1220 19:05:56.810276 31316 net.cpp:380] inception_4b/3x3 <- inception_4b/3x3_reduce
I1220 19:05:56.810289 31316 net.cpp:338] inception_4b/3x3 -> inception_4b/3x3
I1220 19:05:56.810303 31316 net.cpp:113] Setting up inception_4b/3x3
I1220 19:05:56.813941 31316 net.cpp:120] Top shape: 80 224 14 14 (3512320)
I1220 19:05:56.814008 31316 layer_factory.hpp:74] Creating layer inception_4b/relu_3x3
I1220 19:05:56.814028 31316 net.cpp:84] Creating Layer inception_4b/relu_3x3
I1220 19:05:56.814038 31316 net.cpp:380] inception_4b/relu_3x3 <- inception_4b/3x3
I1220 19:05:56.814057 31316 net.cpp:327] inception_4b/relu_3x3 -> inception_4b/3x3 (in-place)
I1220 19:05:56.814072 31316 net.cpp:113] Setting up inception_4b/relu_3x3
I1220 19:05:56.814446 31316 net.cpp:120] Top shape: 80 224 14 14 (3512320)
I1220 19:05:56.814462 31316 layer_factory.hpp:74] Creating layer inception_4b/5x5_reduce
I1220 19:05:56.814482 31316 net.cpp:84] Creating Layer inception_4b/5x5_reduce
I1220 19:05:56.814491 31316 net.cpp:380] inception_4b/5x5_reduce <- inception_4a/output_inception_4a/output_0_split_3
I1220 19:05:56.814503 31316 net.cpp:338] inception_4b/5x5_reduce -> inception_4b/5x5_reduce
I1220 19:05:56.814518 31316 net.cpp:113] Setting up inception_4b/5x5_reduce
I1220 19:05:56.815632 31316 net.cpp:120] Top shape: 80 24 14 14 (376320)
I1220 19:05:56.815690 31316 layer_factory.hpp:74] Creating layer inception_4b/relu_5x5_reduce
I1220 19:05:56.815713 31316 net.cpp:84] Creating Layer inception_4b/relu_5x5_reduce
I1220 19:05:56.815727 31316 net.cpp:380] inception_4b/relu_5x5_reduce <- inception_4b/5x5_reduce
I1220 19:05:56.815752 31316 net.cpp:327] inception_4b/relu_5x5_reduce -> inception_4b/5x5_reduce (in-place)
I1220 19:05:56.815771 31316 net.cpp:113] Setting up inception_4b/relu_5x5_reduce
I1220 19:05:56.815909 31316 net.cpp:120] Top shape: 80 24 14 14 (376320)
I1220 19:05:56.815922 31316 layer_factory.hpp:74] Creating layer inception_4b/5x5
I1220 19:05:56.815946 31316 net.cpp:84] Creating Layer inception_4b/5x5
I1220 19:05:56.815958 31316 net.cpp:380] inception_4b/5x5 <- inception_4b/5x5_reduce
I1220 19:05:56.815971 31316 net.cpp:338] inception_4b/5x5 -> inception_4b/5x5
I1220 19:05:56.815989 31316 net.cpp:113] Setting up inception_4b/5x5
I1220 19:05:56.817564 31316 net.cpp:120] Top shape: 80 64 14 14 (1003520)
I1220 19:05:56.817597 31316 layer_factory.hpp:74] Creating layer inception_4b/relu_5x5
I1220 19:05:56.817613 31316 net.cpp:84] Creating Layer inception_4b/relu_5x5
I1220 19:05:56.817625 31316 net.cpp:380] inception_4b/relu_5x5 <- inception_4b/5x5
I1220 19:05:56.817644 31316 net.cpp:327] inception_4b/relu_5x5 -> inception_4b/5x5 (in-place)
I1220 19:05:56.817658 31316 net.cpp:113] Setting up inception_4b/relu_5x5
I1220 19:05:56.817785 31316 net.cpp:120] Top shape: 80 64 14 14 (1003520)
I1220 19:05:56.817797 31316 layer_factory.hpp:74] Creating layer inception_4b/pool
I1220 19:05:56.817826 31316 layer_factory.cpp:56] CUDNN does not support padding or multiple tops. Using Caffe's own pooling layer.
I1220 19:05:56.817857 31316 net.cpp:84] Creating Layer inception_4b/pool
I1220 19:05:56.817868 31316 net.cpp:380] inception_4b/pool <- inception_4a/output_inception_4a/output_0_split_4
I1220 19:05:56.817885 31316 net.cpp:338] inception_4b/pool -> inception_4b/pool
I1220 19:05:56.817922 31316 net.cpp:113] Setting up inception_4b/pool
I1220 19:05:56.817947 31316 net.cpp:120] Top shape: 80 512 14 14 (8028160)
I1220 19:05:56.817957 31316 layer_factory.hpp:74] Creating layer inception_4b/pool_proj
I1220 19:05:56.817978 31316 net.cpp:84] Creating Layer inception_4b/pool_proj
I1220 19:05:56.817988 31316 net.cpp:380] inception_4b/pool_proj <- inception_4b/pool
I1220 19:05:56.818004 31316 net.cpp:338] inception_4b/pool_proj -> inception_4b/pool_proj
I1220 19:05:56.818020 31316 net.cpp:113] Setting up inception_4b/pool_proj
I1220 19:05:56.819437 31316 net.cpp:120] Top shape: 80 64 14 14 (1003520)
I1220 19:05:56.819468 31316 layer_factory.hpp:74] Creating layer inception_4b/relu_pool_proj
I1220 19:05:56.819481 31316 net.cpp:84] Creating Layer inception_4b/relu_pool_proj
I1220 19:05:56.819491 31316 net.cpp:380] inception_4b/relu_pool_proj <- inception_4b/pool_proj
I1220 19:05:56.819504 31316 net.cpp:327] inception_4b/relu_pool_proj -> inception_4b/pool_proj (in-place)
I1220 19:05:56.819519 31316 net.cpp:113] Setting up inception_4b/relu_pool_proj
I1220 19:05:56.819906 31316 net.cpp:120] Top shape: 80 64 14 14 (1003520)
I1220 19:05:56.819926 31316 layer_factory.hpp:74] Creating layer inception_4b/output
I1220 19:05:56.819942 31316 net.cpp:84] Creating Layer inception_4b/output
I1220 19:05:56.819952 31316 net.cpp:380] inception_4b/output <- inception_4b/1x1
I1220 19:05:56.819964 31316 net.cpp:380] inception_4b/output <- inception_4b/3x3
I1220 19:05:56.819974 31316 net.cpp:380] inception_4b/output <- inception_4b/5x5
I1220 19:05:56.819984 31316 net.cpp:380] inception_4b/output <- inception_4b/pool_proj
I1220 19:05:56.819996 31316 net.cpp:338] inception_4b/output -> inception_4b/output
I1220 19:05:56.820011 31316 net.cpp:113] Setting up inception_4b/output
I1220 19:05:56.820027 31316 net.cpp:120] Top shape: 80 512 14 14 (8028160)
I1220 19:05:56.820037 31316 layer_factory.hpp:74] Creating layer inception_4b/output_inception_4b/output_0_split
I1220 19:05:56.820053 31316 net.cpp:84] Creating Layer inception_4b/output_inception_4b/output_0_split
I1220 19:05:56.820062 31316 net.cpp:380] inception_4b/output_inception_4b/output_0_split <- inception_4b/output
I1220 19:05:56.820075 31316 net.cpp:338] inception_4b/output_inception_4b/output_0_split -> inception_4b/output_inception_4b/output_0_split_0
I1220 19:05:56.820089 31316 net.cpp:338] inception_4b/output_inception_4b/output_0_split -> inception_4b/output_inception_4b/output_0_split_1
I1220 19:05:56.820103 31316 net.cpp:338] inception_4b/output_inception_4b/output_0_split -> inception_4b/output_inception_4b/output_0_split_2
I1220 19:05:56.820121 31316 net.cpp:338] inception_4b/output_inception_4b/output_0_split -> inception_4b/output_inception_4b/output_0_split_3
I1220 19:05:56.820133 31316 net.cpp:113] Setting up inception_4b/output_inception_4b/output_0_split
I1220 19:05:56.820147 31316 net.cpp:120] Top shape: 80 512 14 14 (8028160)
I1220 19:05:56.820158 31316 net.cpp:120] Top shape: 80 512 14 14 (8028160)
I1220 19:05:56.820168 31316 net.cpp:120] Top shape: 80 512 14 14 (8028160)
I1220 19:05:56.820178 31316 net.cpp:120] Top shape: 80 512 14 14 (8028160)
I1220 19:05:56.820185 31316 layer_factory.hpp:74] Creating layer inception_4c/1x1
I1220 19:05:56.820200 31316 net.cpp:84] Creating Layer inception_4c/1x1
I1220 19:05:56.820209 31316 net.cpp:380] inception_4c/1x1 <- inception_4b/output_inception_4b/output_0_split_0
I1220 19:05:56.820225 31316 net.cpp:338] inception_4c/1x1 -> inception_4c/1x1
I1220 19:05:56.820240 31316 net.cpp:113] Setting up inception_4c/1x1
I1220 19:05:56.822340 31316 net.cpp:120] Top shape: 80 128 14 14 (2007040)
I1220 19:05:56.822377 31316 layer_factory.hpp:74] Creating layer inception_4c/relu_1x1
I1220 19:05:56.822408 31316 net.cpp:84] Creating Layer inception_4c/relu_1x1
I1220 19:05:56.822419 31316 net.cpp:380] inception_4c/relu_1x1 <- inception_4c/1x1
I1220 19:05:56.822432 31316 net.cpp:327] inception_4c/relu_1x1 -> inception_4c/1x1 (in-place)
I1220 19:05:56.822448 31316 net.cpp:113] Setting up inception_4c/relu_1x1
I1220 19:05:56.822577 31316 net.cpp:120] Top shape: 80 128 14 14 (2007040)
I1220 19:05:56.822589 31316 layer_factory.hpp:74] Creating layer inception_4c/3x3_reduce
I1220 19:05:56.822607 31316 net.cpp:84] Creating Layer inception_4c/3x3_reduce
I1220 19:05:56.822616 31316 net.cpp:380] inception_4c/3x3_reduce <- inception_4b/output_inception_4b/output_0_split_1
I1220 19:05:56.822633 31316 net.cpp:338] inception_4c/3x3_reduce -> inception_4c/3x3_reduce
I1220 19:05:56.822649 31316 net.cpp:113] Setting up inception_4c/3x3_reduce
I1220 19:05:56.824695 31316 net.cpp:120] Top shape: 80 128 14 14 (2007040)
I1220 19:05:56.824723 31316 layer_factory.hpp:74] Creating layer inception_4c/relu_3x3_reduce
I1220 19:05:56.824738 31316 net.cpp:84] Creating Layer inception_4c/relu_3x3_reduce
I1220 19:05:56.824748 31316 net.cpp:380] inception_4c/relu_3x3_reduce <- inception_4c/3x3_reduce
I1220 19:05:56.824760 31316 net.cpp:327] inception_4c/relu_3x3_reduce -> inception_4c/3x3_reduce (in-place)
I1220 19:05:56.824774 31316 net.cpp:113] Setting up inception_4c/relu_3x3_reduce
I1220 19:05:56.824899 31316 net.cpp:120] Top shape: 80 128 14 14 (2007040)
I1220 19:05:56.824911 31316 layer_factory.hpp:74] Creating layer inception_4c/3x3
I1220 19:05:56.824929 31316 net.cpp:84] Creating Layer inception_4c/3x3
I1220 19:05:56.824939 31316 net.cpp:380] inception_4c/3x3 <- inception_4c/3x3_reduce
I1220 19:05:56.824954 31316 net.cpp:338] inception_4c/3x3 -> inception_4c/3x3
I1220 19:05:56.824970 31316 net.cpp:113] Setting up inception_4c/3x3
I1220 19:05:56.831812 31316 net.cpp:120] Top shape: 80 256 14 14 (4014080)
I1220 19:05:56.831868 31316 layer_factory.hpp:74] Creating layer inception_4c/relu_3x3
I1220 19:05:56.831883 31316 net.cpp:84] Creating Layer inception_4c/relu_3x3
I1220 19:05:56.831893 31316 net.cpp:380] inception_4c/relu_3x3 <- inception_4c/3x3
I1220 19:05:56.831910 31316 net.cpp:327] inception_4c/relu_3x3 -> inception_4c/3x3 (in-place)
I1220 19:05:56.831925 31316 net.cpp:113] Setting up inception_4c/relu_3x3
I1220 19:05:56.832047 31316 net.cpp:120] Top shape: 80 256 14 14 (4014080)
I1220 19:05:56.832062 31316 layer_factory.hpp:74] Creating layer inception_4c/5x5_reduce
I1220 19:05:56.832078 31316 net.cpp:84] Creating Layer inception_4c/5x5_reduce
I1220 19:05:56.832087 31316 net.cpp:380] inception_4c/5x5_reduce <- inception_4b/output_inception_4b/output_0_split_2
I1220 19:05:56.832100 31316 net.cpp:338] inception_4c/5x5_reduce -> inception_4c/5x5_reduce
I1220 19:05:56.832115 31316 net.cpp:113] Setting up inception_4c/5x5_reduce
I1220 19:05:56.832983 31316 net.cpp:120] Top shape: 80 24 14 14 (376320)
I1220 19:05:56.833010 31316 layer_factory.hpp:74] Creating layer inception_4c/relu_5x5_reduce
I1220 19:05:56.833029 31316 net.cpp:84] Creating Layer inception_4c/relu_5x5_reduce
I1220 19:05:56.833039 31316 net.cpp:380] inception_4c/relu_5x5_reduce <- inception_4c/5x5_reduce
I1220 19:05:56.833050 31316 net.cpp:327] inception_4c/relu_5x5_reduce -> inception_4c/5x5_reduce (in-place)
I1220 19:05:56.833082 31316 net.cpp:113] Setting up inception_4c/relu_5x5_reduce
I1220 19:05:56.833438 31316 net.cpp:120] Top shape: 80 24 14 14 (376320)
I1220 19:05:56.833458 31316 layer_factory.hpp:74] Creating layer inception_4c/5x5
I1220 19:05:56.833473 31316 net.cpp:84] Creating Layer inception_4c/5x5
I1220 19:05:56.833482 31316 net.cpp:380] inception_4c/5x5 <- inception_4c/5x5_reduce
I1220 19:05:56.833498 31316 net.cpp:338] inception_4c/5x5 -> inception_4c/5x5
I1220 19:05:56.833513 31316 net.cpp:113] Setting up inception_4c/5x5
I1220 19:05:56.834956 31316 net.cpp:120] Top shape: 80 64 14 14 (1003520)
I1220 19:05:56.834982 31316 layer_factory.hpp:74] Creating layer inception_4c/relu_5x5
I1220 19:05:56.835006 31316 net.cpp:84] Creating Layer inception_4c/relu_5x5
I1220 19:05:56.835029 31316 net.cpp:380] inception_4c/relu_5x5 <- inception_4c/5x5
I1220 19:05:56.835042 31316 net.cpp:327] inception_4c/relu_5x5 -> inception_4c/5x5 (in-place)
I1220 19:05:56.835057 31316 net.cpp:113] Setting up inception_4c/relu_5x5
I1220 19:05:56.835178 31316 net.cpp:120] Top shape: 80 64 14 14 (1003520)
I1220 19:05:56.835189 31316 layer_factory.hpp:74] Creating layer inception_4c/pool
I1220 19:05:56.835198 31316 layer_factory.cpp:56] CUDNN does not support padding or multiple tops. Using Caffe's own pooling layer.
I1220 19:05:56.835209 31316 net.cpp:84] Creating Layer inception_4c/pool
I1220 19:05:56.835218 31316 net.cpp:380] inception_4c/pool <- inception_4b/output_inception_4b/output_0_split_3
I1220 19:05:56.835229 31316 net.cpp:338] inception_4c/pool -> inception_4c/pool
I1220 19:05:56.835244 31316 net.cpp:113] Setting up inception_4c/pool
I1220 19:05:56.835258 31316 net.cpp:120] Top shape: 80 512 14 14 (8028160)
I1220 19:05:56.835268 31316 layer_factory.hpp:74] Creating layer inception_4c/pool_proj
I1220 19:05:56.835289 31316 net.cpp:84] Creating Layer inception_4c/pool_proj
I1220 19:05:56.835299 31316 net.cpp:380] inception_4c/pool_proj <- inception_4c/pool
I1220 19:05:56.835312 31316 net.cpp:338] inception_4c/pool_proj -> inception_4c/pool_proj
I1220 19:05:56.835326 31316 net.cpp:113] Setting up inception_4c/pool_proj
I1220 19:05:56.836609 31316 net.cpp:120] Top shape: 80 64 14 14 (1003520)
I1220 19:05:56.836635 31316 layer_factory.hpp:74] Creating layer inception_4c/relu_pool_proj
I1220 19:05:56.836650 31316 net.cpp:84] Creating Layer inception_4c/relu_pool_proj
I1220 19:05:56.836660 31316 net.cpp:380] inception_4c/relu_pool_proj <- inception_4c/pool_proj
I1220 19:05:56.836673 31316 net.cpp:327] inception_4c/relu_pool_proj -> inception_4c/pool_proj (in-place)
I1220 19:05:56.836685 31316 net.cpp:113] Setting up inception_4c/relu_pool_proj
I1220 19:05:56.836807 31316 net.cpp:120] Top shape: 80 64 14 14 (1003520)
I1220 19:05:56.836818 31316 layer_factory.hpp:74] Creating layer inception_4c/output
I1220 19:05:56.836833 31316 net.cpp:84] Creating Layer inception_4c/output
I1220 19:05:56.836843 31316 net.cpp:380] inception_4c/output <- inception_4c/1x1
I1220 19:05:56.836853 31316 net.cpp:380] inception_4c/output <- inception_4c/3x3
I1220 19:05:56.836863 31316 net.cpp:380] inception_4c/output <- inception_4c/5x5
I1220 19:05:56.836871 31316 net.cpp:380] inception_4c/output <- inception_4c/pool_proj
I1220 19:05:56.836882 31316 net.cpp:338] inception_4c/output -> inception_4c/output
I1220 19:05:56.836895 31316 net.cpp:113] Setting up inception_4c/output
I1220 19:05:56.836910 31316 net.cpp:120] Top shape: 80 512 14 14 (8028160)
I1220 19:05:56.836917 31316 layer_factory.hpp:74] Creating layer inception_4c/output_inception_4c/output_0_split
I1220 19:05:56.836937 31316 net.cpp:84] Creating Layer inception_4c/output_inception_4c/output_0_split
I1220 19:05:56.836946 31316 net.cpp:380] inception_4c/output_inception_4c/output_0_split <- inception_4c/output
I1220 19:05:56.836961 31316 net.cpp:338] inception_4c/output_inception_4c/output_0_split -> inception_4c/output_inception_4c/output_0_split_0
I1220 19:05:56.836974 31316 net.cpp:338] inception_4c/output_inception_4c/output_0_split -> inception_4c/output_inception_4c/output_0_split_1
I1220 19:05:56.836987 31316 net.cpp:338] inception_4c/output_inception_4c/output_0_split -> inception_4c/output_inception_4c/output_0_split_2
I1220 19:05:56.837002 31316 net.cpp:338] inception_4c/output_inception_4c/output_0_split -> inception_4c/output_inception_4c/output_0_split_3
I1220 19:05:56.837013 31316 net.cpp:113] Setting up inception_4c/output_inception_4c/output_0_split
I1220 19:05:56.837025 31316 net.cpp:120] Top shape: 80 512 14 14 (8028160)
I1220 19:05:56.837034 31316 net.cpp:120] Top shape: 80 512 14 14 (8028160)
I1220 19:05:56.837044 31316 net.cpp:120] Top shape: 80 512 14 14 (8028160)
I1220 19:05:56.837052 31316 net.cpp:120] Top shape: 80 512 14 14 (8028160)
I1220 19:05:56.837085 31316 layer_factory.hpp:74] Creating layer inception_4d/1x1
I1220 19:05:56.837119 31316 net.cpp:84] Creating Layer inception_4d/1x1
I1220 19:05:56.837129 31316 net.cpp:380] inception_4d/1x1 <- inception_4c/output_inception_4c/output_0_split_0
I1220 19:05:56.837146 31316 net.cpp:338] inception_4d/1x1 -> inception_4d/1x1
I1220 19:05:56.837159 31316 net.cpp:113] Setting up inception_4d/1x1
I1220 19:05:56.838907 31316 net.cpp:120] Top shape: 80 112 14 14 (1756160)
I1220 19:05:56.838935 31316 layer_factory.hpp:74] Creating layer inception_4d/relu_1x1
I1220 19:05:56.838951 31316 net.cpp:84] Creating Layer inception_4d/relu_1x1
I1220 19:05:56.838960 31316 net.cpp:380] inception_4d/relu_1x1 <- inception_4d/1x1
I1220 19:05:56.838973 31316 net.cpp:327] inception_4d/relu_1x1 -> inception_4d/1x1 (in-place)
I1220 19:05:56.838985 31316 net.cpp:113] Setting up inception_4d/relu_1x1
I1220 19:05:56.839100 31316 net.cpp:120] Top shape: 80 112 14 14 (1756160)
I1220 19:05:56.839110 31316 layer_factory.hpp:74] Creating layer inception_4d/3x3_reduce
I1220 19:05:56.839128 31316 net.cpp:84] Creating Layer inception_4d/3x3_reduce
I1220 19:05:56.839136 31316 net.cpp:380] inception_4d/3x3_reduce <- inception_4c/output_inception_4c/output_0_split_1
I1220 19:05:56.839151 31316 net.cpp:338] inception_4d/3x3_reduce -> inception_4d/3x3_reduce
I1220 19:05:56.839166 31316 net.cpp:113] Setting up inception_4d/3x3_reduce
I1220 19:05:56.841279 31316 net.cpp:120] Top shape: 80 144 14 14 (2257920)
I1220 19:05:56.841315 31316 layer_factory.hpp:74] Creating layer inception_4d/relu_3x3_reduce
I1220 19:05:56.841334 31316 net.cpp:84] Creating Layer inception_4d/relu_3x3_reduce
I1220 19:05:56.841344 31316 net.cpp:380] inception_4d/relu_3x3_reduce <- inception_4d/3x3_reduce
I1220 19:05:56.841356 31316 net.cpp:327] inception_4d/relu_3x3_reduce -> inception_4d/3x3_reduce (in-place)
I1220 19:05:56.841373 31316 net.cpp:113] Setting up inception_4d/relu_3x3_reduce
I1220 19:05:56.841729 31316 net.cpp:120] Top shape: 80 144 14 14 (2257920)
I1220 19:05:56.841753 31316 layer_factory.hpp:74] Creating layer inception_4d/3x3
I1220 19:05:56.841770 31316 net.cpp:84] Creating Layer inception_4d/3x3
I1220 19:05:56.841779 31316 net.cpp:380] inception_4d/3x3 <- inception_4d/3x3_reduce
I1220 19:05:56.841792 31316 net.cpp:338] inception_4d/3x3 -> inception_4d/3x3
I1220 19:05:56.841807 31316 net.cpp:113] Setting up inception_4d/3x3
I1220 19:05:56.849869 31316 net.cpp:120] Top shape: 80 288 14 14 (4515840)
I1220 19:05:56.849946 31316 layer_factory.hpp:74] Creating layer inception_4d/relu_3x3
I1220 19:05:56.849997 31316 net.cpp:84] Creating Layer inception_4d/relu_3x3
I1220 19:05:56.850010 31316 net.cpp:380] inception_4d/relu_3x3 <- inception_4d/3x3
I1220 19:05:56.850035 31316 net.cpp:327] inception_4d/relu_3x3 -> inception_4d/3x3 (in-place)
I1220 19:05:56.850054 31316 net.cpp:113] Setting up inception_4d/relu_3x3
I1220 19:05:56.850208 31316 net.cpp:120] Top shape: 80 288 14 14 (4515840)
I1220 19:05:56.850219 31316 layer_factory.hpp:74] Creating layer inception_4d/5x5_reduce
I1220 19:05:56.850236 31316 net.cpp:84] Creating Layer inception_4d/5x5_reduce
I1220 19:05:56.850245 31316 net.cpp:380] inception_4d/5x5_reduce <- inception_4c/output_inception_4c/output_0_split_2
I1220 19:05:56.850260 31316 net.cpp:338] inception_4d/5x5_reduce -> inception_4d/5x5_reduce
I1220 19:05:56.850275 31316 net.cpp:113] Setting up inception_4d/5x5_reduce
I1220 19:05:56.851186 31316 net.cpp:120] Top shape: 80 32 14 14 (501760)
I1220 19:05:56.851213 31316 layer_factory.hpp:74] Creating layer inception_4d/relu_5x5_reduce
I1220 19:05:56.851228 31316 net.cpp:84] Creating Layer inception_4d/relu_5x5_reduce
I1220 19:05:56.851236 31316 net.cpp:380] inception_4d/relu_5x5_reduce <- inception_4d/5x5_reduce
I1220 19:05:56.851249 31316 net.cpp:327] inception_4d/relu_5x5_reduce -> inception_4d/5x5_reduce (in-place)
I1220 19:05:56.851261 31316 net.cpp:113] Setting up inception_4d/relu_5x5_reduce
I1220 19:05:56.851358 31316 net.cpp:120] Top shape: 80 32 14 14 (501760)
I1220 19:05:56.851367 31316 layer_factory.hpp:74] Creating layer inception_4d/5x5
I1220 19:05:56.851413 31316 net.cpp:84] Creating Layer inception_4d/5x5
I1220 19:05:56.851421 31316 net.cpp:380] inception_4d/5x5 <- inception_4d/5x5_reduce
I1220 19:05:56.851434 31316 net.cpp:338] inception_4d/5x5 -> inception_4d/5x5
I1220 19:05:56.851449 31316 net.cpp:113] Setting up inception_4d/5x5
I1220 19:05:56.852761 31316 net.cpp:120] Top shape: 80 64 14 14 (1003520)
I1220 19:05:56.852789 31316 layer_factory.hpp:74] Creating layer inception_4d/relu_5x5
I1220 19:05:56.852802 31316 net.cpp:84] Creating Layer inception_4d/relu_5x5
I1220 19:05:56.852812 31316 net.cpp:380] inception_4d/relu_5x5 <- inception_4d/5x5
I1220 19:05:56.852825 31316 net.cpp:327] inception_4d/relu_5x5 -> inception_4d/5x5 (in-place)
I1220 19:05:56.852836 31316 net.cpp:113] Setting up inception_4d/relu_5x5
I1220 19:05:56.852936 31316 net.cpp:120] Top shape: 80 64 14 14 (1003520)
I1220 19:05:56.852947 31316 layer_factory.hpp:74] Creating layer inception_4d/pool
I1220 19:05:56.852957 31316 layer_factory.cpp:56] CUDNN does not support padding or multiple tops. Using Caffe's own pooling layer.
I1220 19:05:56.852967 31316 net.cpp:84] Creating Layer inception_4d/pool
I1220 19:05:56.852977 31316 net.cpp:380] inception_4d/pool <- inception_4c/output_inception_4c/output_0_split_3
I1220 19:05:56.852987 31316 net.cpp:338] inception_4d/pool -> inception_4d/pool
I1220 19:05:56.852998 31316 net.cpp:113] Setting up inception_4d/pool
I1220 19:05:56.853013 31316 net.cpp:120] Top shape: 80 512 14 14 (8028160)
I1220 19:05:56.853020 31316 layer_factory.hpp:74] Creating layer inception_4d/pool_proj
I1220 19:05:56.853036 31316 net.cpp:84] Creating Layer inception_4d/pool_proj
I1220 19:05:56.853044 31316 net.cpp:380] inception_4d/pool_proj <- inception_4d/pool
I1220 19:05:56.853096 31316 net.cpp:338] inception_4d/pool_proj -> inception_4d/pool_proj
I1220 19:05:56.853113 31316 net.cpp:113] Setting up inception_4d/pool_proj
I1220 19:05:56.854213 31316 net.cpp:120] Top shape: 80 64 14 14 (1003520)
I1220 19:05:56.854240 31316 layer_factory.hpp:74] Creating layer inception_4d/relu_pool_proj
I1220 19:05:56.854254 31316 net.cpp:84] Creating Layer inception_4d/relu_pool_proj
I1220 19:05:56.854264 31316 net.cpp:380] inception_4d/relu_pool_proj <- inception_4d/pool_proj
I1220 19:05:56.854274 31316 net.cpp:327] inception_4d/relu_pool_proj -> inception_4d/pool_proj (in-place)
I1220 19:05:56.854286 31316 net.cpp:113] Setting up inception_4d/relu_pool_proj
I1220 19:05:56.854614 31316 net.cpp:120] Top shape: 80 64 14 14 (1003520)
I1220 19:05:56.854629 31316 layer_factory.hpp:74] Creating layer inception_4d/output
I1220 19:05:56.854642 31316 net.cpp:84] Creating Layer inception_4d/output
I1220 19:05:56.854655 31316 net.cpp:380] inception_4d/output <- inception_4d/1x1
I1220 19:05:56.854665 31316 net.cpp:380] inception_4d/output <- inception_4d/3x3
I1220 19:05:56.854673 31316 net.cpp:380] inception_4d/output <- inception_4d/5x5
I1220 19:05:56.854681 31316 net.cpp:380] inception_4d/output <- inception_4d/pool_proj
I1220 19:05:56.854691 31316 net.cpp:338] inception_4d/output -> inception_4d/output
I1220 19:05:56.854703 31316 net.cpp:113] Setting up inception_4d/output
I1220 19:05:56.854717 31316 net.cpp:120] Top shape: 80 528 14 14 (8279040)
I1220 19:05:56.854723 31316 layer_factory.hpp:74] Creating layer inception_4d/output_inception_4d/output_0_split
I1220 19:05:56.854737 31316 net.cpp:84] Creating Layer inception_4d/output_inception_4d/output_0_split
I1220 19:05:56.854744 31316 net.cpp:380] inception_4d/output_inception_4d/output_0_split <- inception_4d/output
I1220 19:05:56.854754 31316 net.cpp:338] inception_4d/output_inception_4d/output_0_split -> inception_4d/output_inception_4d/output_0_split_0
I1220 19:05:56.854773 31316 net.cpp:338] inception_4d/output_inception_4d/output_0_split -> inception_4d/output_inception_4d/output_0_split_1
I1220 19:05:56.854784 31316 net.cpp:338] inception_4d/output_inception_4d/output_0_split -> inception_4d/output_inception_4d/output_0_split_2
I1220 19:05:56.854796 31316 net.cpp:338] inception_4d/output_inception_4d/output_0_split -> inception_4d/output_inception_4d/output_0_split_3
I1220 19:05:56.854836 31316 net.cpp:338] inception_4d/output_inception_4d/output_0_split -> inception_4d/output_inception_4d/output_0_split_4
I1220 19:05:56.854847 31316 net.cpp:113] Setting up inception_4d/output_inception_4d/output_0_split
I1220 19:05:56.854861 31316 net.cpp:120] Top shape: 80 528 14 14 (8279040)
I1220 19:05:56.854869 31316 net.cpp:120] Top shape: 80 528 14 14 (8279040)
I1220 19:05:56.854877 31316 net.cpp:120] Top shape: 80 528 14 14 (8279040)
I1220 19:05:56.854885 31316 net.cpp:120] Top shape: 80 528 14 14 (8279040)
I1220 19:05:56.854894 31316 net.cpp:120] Top shape: 80 528 14 14 (8279040)
I1220 19:05:56.854902 31316 layer_factory.hpp:74] Creating layer loss2/ave_pool
I1220 19:05:56.854924 31316 net.cpp:84] Creating Layer loss2/ave_pool
I1220 19:05:56.854933 31316 net.cpp:380] loss2/ave_pool <- inception_4d/output_inception_4d/output_0_split_0
I1220 19:05:56.854943 31316 net.cpp:338] loss2/ave_pool -> loss2/ave_pool
I1220 19:05:56.854953 31316 net.cpp:113] Setting up loss2/ave_pool
I1220 19:05:56.855054 31316 net.cpp:120] Top shape: 80 528 4 4 (675840)
I1220 19:05:56.855063 31316 layer_factory.hpp:74] Creating layer loss2/conv
I1220 19:05:56.855078 31316 net.cpp:84] Creating Layer loss2/conv
I1220 19:05:56.855087 31316 net.cpp:380] loss2/conv <- loss2/ave_pool
I1220 19:05:56.855096 31316 net.cpp:338] loss2/conv -> loss2/conv
I1220 19:05:56.855108 31316 net.cpp:113] Setting up loss2/conv
I1220 19:05:56.856567 31316 net.cpp:120] Top shape: 80 128 4 4 (163840)
I1220 19:05:56.856600 31316 layer_factory.hpp:74] Creating layer loss2/relu_conv
I1220 19:05:56.856612 31316 net.cpp:84] Creating Layer loss2/relu_conv
I1220 19:05:56.856621 31316 net.cpp:380] loss2/relu_conv <- loss2/conv
I1220 19:05:56.856636 31316 net.cpp:327] loss2/relu_conv -> loss2/conv (in-place)
I1220 19:05:56.856647 31316 net.cpp:113] Setting up loss2/relu_conv
I1220 19:05:56.856740 31316 net.cpp:120] Top shape: 80 128 4 4 (163840)
I1220 19:05:56.856751 31316 layer_factory.hpp:74] Creating layer loss2/fc
I1220 19:05:56.856767 31316 net.cpp:84] Creating Layer loss2/fc
I1220 19:05:56.856777 31316 net.cpp:380] loss2/fc <- loss2/conv
I1220 19:05:56.856787 31316 net.cpp:338] loss2/fc -> loss2/fc
I1220 19:05:56.856801 31316 net.cpp:113] Setting up loss2/fc
I1220 19:05:58.754904 31316 net.cpp:120] Top shape: 80 1024 (81920)
I1220 19:05:58.754977 31316 layer_factory.hpp:74] Creating layer loss2/relu_fc
I1220 19:05:58.754998 31316 net.cpp:84] Creating Layer loss2/relu_fc
I1220 19:05:58.755023 31316 net.cpp:380] loss2/relu_fc <- loss2/fc
I1220 19:05:58.755034 31316 net.cpp:327] loss2/relu_fc -> loss2/fc (in-place)
I1220 19:05:58.755045 31316 net.cpp:113] Setting up loss2/relu_fc
I1220 19:05:58.812055 31316 net.cpp:120] Top shape: 80 1024 (81920)
I1220 19:05:58.812103 31316 layer_factory.hpp:74] Creating layer loss2/drop_fc
I1220 19:05:58.812120 31316 net.cpp:84] Creating Layer loss2/drop_fc
I1220 19:05:58.812129 31316 net.cpp:380] loss2/drop_fc <- loss2/fc
I1220 19:05:58.812140 31316 net.cpp:327] loss2/drop_fc -> loss2/fc (in-place)
I1220 19:05:58.812162 31316 net.cpp:113] Setting up loss2/drop_fc
I1220 19:05:58.812173 31316 net.cpp:120] Top shape: 80 1024 (81920)
I1220 19:05:58.812178 31316 layer_factory.hpp:74] Creating layer loss2/classifier_kaggle
I1220 19:05:58.812189 31316 net.cpp:84] Creating Layer loss2/classifier_kaggle
I1220 19:05:58.812193 31316 net.cpp:380] loss2/classifier_kaggle <- loss2/fc
I1220 19:05:58.812201 31316 net.cpp:338] loss2/classifier_kaggle -> loss2/classifier_kaggle
I1220 19:05:58.812216 31316 net.cpp:113] Setting up loss2/classifier_kaggle
I1220 19:05:58.821782 31316 net.cpp:120] Top shape: 80 447 (35760)
I1220 19:05:58.821841 31316 layer_factory.hpp:74] Creating layer loss2/loss
I1220 19:05:58.821864 31316 net.cpp:84] Creating Layer loss2/loss
I1220 19:05:58.821878 31316 net.cpp:380] loss2/loss <- loss2/classifier_kaggle
I1220 19:05:58.821894 31316 net.cpp:380] loss2/loss <- label_data_1_split_1
I1220 19:05:58.821908 31316 net.cpp:338] loss2/loss -> loss2/loss1
I1220 19:05:58.821944 31316 net.cpp:113] Setting up loss2/loss
I1220 19:05:58.821982 31316 layer_factory.hpp:74] Creating layer loss2/loss
I1220 19:05:58.822346 31316 net.cpp:120] Top shape: (1)
I1220 19:05:58.822362 31316 net.cpp:122]     with loss weight 0.3
I1220 19:05:58.822383 31316 layer_factory.hpp:74] Creating layer inception_4e/1x1
I1220 19:05:58.822412 31316 net.cpp:84] Creating Layer inception_4e/1x1
I1220 19:05:58.822446 31316 net.cpp:380] inception_4e/1x1 <- inception_4d/output_inception_4d/output_0_split_1
I1220 19:05:58.822484 31316 net.cpp:338] inception_4e/1x1 -> inception_4e/1x1
I1220 19:05:58.822504 31316 net.cpp:113] Setting up inception_4e/1x1
I1220 19:05:58.827064 31316 net.cpp:120] Top shape: 80 256 14 14 (4014080)
I1220 19:05:58.827131 31316 layer_factory.hpp:74] Creating layer inception_4e/relu_1x1
I1220 19:05:58.827149 31316 net.cpp:84] Creating Layer inception_4e/relu_1x1
I1220 19:05:58.827162 31316 net.cpp:380] inception_4e/relu_1x1 <- inception_4e/1x1
I1220 19:05:58.827181 31316 net.cpp:327] inception_4e/relu_1x1 -> inception_4e/1x1 (in-place)
I1220 19:05:58.827199 31316 net.cpp:113] Setting up inception_4e/relu_1x1
I1220 19:05:58.827327 31316 net.cpp:120] Top shape: 80 256 14 14 (4014080)
I1220 19:05:58.827338 31316 layer_factory.hpp:74] Creating layer inception_4e/3x3_reduce
I1220 19:05:58.827360 31316 net.cpp:84] Creating Layer inception_4e/3x3_reduce
I1220 19:05:58.827371 31316 net.cpp:380] inception_4e/3x3_reduce <- inception_4d/output_inception_4d/output_0_split_2
I1220 19:05:58.827385 31316 net.cpp:338] inception_4e/3x3_reduce -> inception_4e/3x3_reduce
I1220 19:05:58.827420 31316 net.cpp:113] Setting up inception_4e/3x3_reduce
I1220 19:05:58.830116 31316 net.cpp:120] Top shape: 80 160 14 14 (2508800)
I1220 19:05:58.830173 31316 layer_factory.hpp:74] Creating layer inception_4e/relu_3x3_reduce
I1220 19:05:58.830195 31316 net.cpp:84] Creating Layer inception_4e/relu_3x3_reduce
I1220 19:05:58.830209 31316 net.cpp:380] inception_4e/relu_3x3_reduce <- inception_4e/3x3_reduce
I1220 19:05:58.830225 31316 net.cpp:327] inception_4e/relu_3x3_reduce -> inception_4e/3x3_reduce (in-place)
I1220 19:05:58.830242 31316 net.cpp:113] Setting up inception_4e/relu_3x3_reduce
I1220 19:05:58.830373 31316 net.cpp:120] Top shape: 80 160 14 14 (2508800)
I1220 19:05:58.830384 31316 layer_factory.hpp:74] Creating layer inception_4e/3x3
I1220 19:05:58.830404 31316 net.cpp:84] Creating Layer inception_4e/3x3
I1220 19:05:58.830418 31316 net.cpp:380] inception_4e/3x3 <- inception_4e/3x3_reduce
I1220 19:05:58.830433 31316 net.cpp:338] inception_4e/3x3 -> inception_4e/3x3
I1220 19:05:58.830481 31316 net.cpp:113] Setting up inception_4e/3x3
I1220 19:05:58.841002 31316 net.cpp:120] Top shape: 80 320 14 14 (5017600)
I1220 19:05:58.841101 31316 layer_factory.hpp:74] Creating layer inception_4e/relu_3x3
I1220 19:05:58.841123 31316 net.cpp:84] Creating Layer inception_4e/relu_3x3
I1220 19:05:58.841136 31316 net.cpp:380] inception_4e/relu_3x3 <- inception_4e/3x3
I1220 19:05:58.841159 31316 net.cpp:327] inception_4e/relu_3x3 -> inception_4e/3x3 (in-place)
I1220 19:05:58.841178 31316 net.cpp:113] Setting up inception_4e/relu_3x3
I1220 19:05:58.841559 31316 net.cpp:120] Top shape: 80 320 14 14 (5017600)
I1220 19:05:58.841578 31316 layer_factory.hpp:74] Creating layer inception_4e/5x5_reduce
I1220 19:05:58.841594 31316 net.cpp:84] Creating Layer inception_4e/5x5_reduce
I1220 19:05:58.841603 31316 net.cpp:380] inception_4e/5x5_reduce <- inception_4d/output_inception_4d/output_0_split_3
I1220 19:05:58.841620 31316 net.cpp:338] inception_4e/5x5_reduce -> inception_4e/5x5_reduce
I1220 19:05:58.841635 31316 net.cpp:113] Setting up inception_4e/5x5_reduce
I1220 19:05:58.842620 31316 net.cpp:120] Top shape: 80 32 14 14 (501760)
I1220 19:05:58.842645 31316 layer_factory.hpp:74] Creating layer inception_4e/relu_5x5_reduce
I1220 19:05:58.842664 31316 net.cpp:84] Creating Layer inception_4e/relu_5x5_reduce
I1220 19:05:58.842675 31316 net.cpp:380] inception_4e/relu_5x5_reduce <- inception_4e/5x5_reduce
I1220 19:05:58.842707 31316 net.cpp:327] inception_4e/relu_5x5_reduce -> inception_4e/5x5_reduce (in-place)
I1220 19:05:58.842738 31316 net.cpp:113] Setting up inception_4e/relu_5x5_reduce
I1220 19:05:58.842864 31316 net.cpp:120] Top shape: 80 32 14 14 (501760)
I1220 19:05:58.842875 31316 layer_factory.hpp:74] Creating layer inception_4e/5x5
I1220 19:05:58.843204 31316 net.cpp:84] Creating Layer inception_4e/5x5
I1220 19:05:58.843219 31316 net.cpp:380] inception_4e/5x5 <- inception_4e/5x5_reduce
I1220 19:05:58.843236 31316 net.cpp:338] inception_4e/5x5 -> inception_4e/5x5
I1220 19:05:58.843252 31316 net.cpp:113] Setting up inception_4e/5x5
I1220 19:05:58.845990 31316 net.cpp:120] Top shape: 80 128 14 14 (2007040)
I1220 19:05:58.846035 31316 layer_factory.hpp:74] Creating layer inception_4e/relu_5x5
I1220 19:05:58.846050 31316 net.cpp:84] Creating Layer inception_4e/relu_5x5
I1220 19:05:58.846061 31316 net.cpp:380] inception_4e/relu_5x5 <- inception_4e/5x5
I1220 19:05:58.846078 31316 net.cpp:327] inception_4e/relu_5x5 -> inception_4e/5x5 (in-place)
I1220 19:05:58.846092 31316 net.cpp:113] Setting up inception_4e/relu_5x5
I1220 19:05:58.846213 31316 net.cpp:120] Top shape: 80 128 14 14 (2007040)
I1220 19:05:58.846225 31316 layer_factory.hpp:74] Creating layer inception_4e/pool
I1220 19:05:58.846235 31316 layer_factory.cpp:56] CUDNN does not support padding or multiple tops. Using Caffe's own pooling layer.
I1220 19:05:58.846247 31316 net.cpp:84] Creating Layer inception_4e/pool
I1220 19:05:58.846257 31316 net.cpp:380] inception_4e/pool <- inception_4d/output_inception_4d/output_0_split_4
I1220 19:05:58.846269 31316 net.cpp:338] inception_4e/pool -> inception_4e/pool
I1220 19:05:58.846283 31316 net.cpp:113] Setting up inception_4e/pool
I1220 19:05:58.846298 31316 net.cpp:120] Top shape: 80 528 14 14 (8279040)
I1220 19:05:58.846307 31316 layer_factory.hpp:74] Creating layer inception_4e/pool_proj
I1220 19:05:58.846323 31316 net.cpp:84] Creating Layer inception_4e/pool_proj
I1220 19:05:58.846333 31316 net.cpp:380] inception_4e/pool_proj <- inception_4e/pool
I1220 19:05:58.846348 31316 net.cpp:338] inception_4e/pool_proj -> inception_4e/pool_proj
I1220 19:05:58.846385 31316 net.cpp:113] Setting up inception_4e/pool_proj
I1220 19:05:58.848414 31316 net.cpp:120] Top shape: 80 128 14 14 (2007040)
I1220 19:05:58.848444 31316 layer_factory.hpp:74] Creating layer inception_4e/relu_pool_proj
I1220 19:05:58.848460 31316 net.cpp:84] Creating Layer inception_4e/relu_pool_proj
I1220 19:05:58.848470 31316 net.cpp:380] inception_4e/relu_pool_proj <- inception_4e/pool_proj
I1220 19:05:58.848482 31316 net.cpp:327] inception_4e/relu_pool_proj -> inception_4e/pool_proj (in-place)
I1220 19:05:58.848496 31316 net.cpp:113] Setting up inception_4e/relu_pool_proj
I1220 19:05:58.848613 31316 net.cpp:120] Top shape: 80 128 14 14 (2007040)
I1220 19:05:58.848623 31316 layer_factory.hpp:74] Creating layer inception_4e/output
I1220 19:05:58.848639 31316 net.cpp:84] Creating Layer inception_4e/output
I1220 19:05:58.848649 31316 net.cpp:380] inception_4e/output <- inception_4e/1x1
I1220 19:05:58.848659 31316 net.cpp:380] inception_4e/output <- inception_4e/3x3
I1220 19:05:58.848670 31316 net.cpp:380] inception_4e/output <- inception_4e/5x5
I1220 19:05:58.848680 31316 net.cpp:380] inception_4e/output <- inception_4e/pool_proj
I1220 19:05:58.848690 31316 net.cpp:338] inception_4e/output -> inception_4e/output
I1220 19:05:58.848703 31316 net.cpp:113] Setting up inception_4e/output
I1220 19:05:58.848718 31316 net.cpp:120] Top shape: 80 832 14 14 (13045760)
I1220 19:05:58.848728 31316 layer_factory.hpp:74] Creating layer pool4/3x3_s2
I1220 19:05:58.848744 31316 net.cpp:84] Creating Layer pool4/3x3_s2
I1220 19:05:58.848753 31316 net.cpp:380] pool4/3x3_s2 <- inception_4e/output
I1220 19:05:58.848765 31316 net.cpp:338] pool4/3x3_s2 -> pool4/3x3_s2
I1220 19:05:58.848780 31316 net.cpp:113] Setting up pool4/3x3_s2
I1220 19:05:58.849189 31316 net.cpp:120] Top shape: 80 832 7 7 (3261440)
I1220 19:05:58.849210 31316 layer_factory.hpp:74] Creating layer pool4/3x3_s2_pool4/3x3_s2_0_split
I1220 19:05:58.849246 31316 net.cpp:84] Creating Layer pool4/3x3_s2_pool4/3x3_s2_0_split
I1220 19:05:58.849272 31316 net.cpp:380] pool4/3x3_s2_pool4/3x3_s2_0_split <- pool4/3x3_s2
I1220 19:05:58.849285 31316 net.cpp:338] pool4/3x3_s2_pool4/3x3_s2_0_split -> pool4/3x3_s2_pool4/3x3_s2_0_split_0
I1220 19:05:58.849303 31316 net.cpp:338] pool4/3x3_s2_pool4/3x3_s2_0_split -> pool4/3x3_s2_pool4/3x3_s2_0_split_1
I1220 19:05:58.849316 31316 net.cpp:338] pool4/3x3_s2_pool4/3x3_s2_0_split -> pool4/3x3_s2_pool4/3x3_s2_0_split_2
I1220 19:05:58.849329 31316 net.cpp:338] pool4/3x3_s2_pool4/3x3_s2_0_split -> pool4/3x3_s2_pool4/3x3_s2_0_split_3
I1220 19:05:58.849340 31316 net.cpp:113] Setting up pool4/3x3_s2_pool4/3x3_s2_0_split
I1220 19:05:58.849354 31316 net.cpp:120] Top shape: 80 832 7 7 (3261440)
I1220 19:05:58.849364 31316 net.cpp:120] Top shape: 80 832 7 7 (3261440)
I1220 19:05:58.849372 31316 net.cpp:120] Top shape: 80 832 7 7 (3261440)
I1220 19:05:58.849381 31316 net.cpp:120] Top shape: 80 832 7 7 (3261440)
I1220 19:05:58.849390 31316 layer_factory.hpp:74] Creating layer inception_5a/1x1
I1220 19:05:58.849406 31316 net.cpp:84] Creating Layer inception_5a/1x1
I1220 19:05:58.849416 31316 net.cpp:380] inception_5a/1x1 <- pool4/3x3_s2_pool4/3x3_s2_0_split_0
I1220 19:05:58.849428 31316 net.cpp:338] inception_5a/1x1 -> inception_5a/1x1
I1220 19:05:58.849442 31316 net.cpp:113] Setting up inception_5a/1x1
I1220 19:05:58.854202 31316 net.cpp:120] Top shape: 80 256 7 7 (1003520)
I1220 19:05:58.854267 31316 layer_factory.hpp:74] Creating layer inception_5a/relu_1x1
I1220 19:05:58.854291 31316 net.cpp:84] Creating Layer inception_5a/relu_1x1
I1220 19:05:58.854302 31316 net.cpp:380] inception_5a/relu_1x1 <- inception_5a/1x1
I1220 19:05:58.854316 31316 net.cpp:327] inception_5a/relu_1x1 -> inception_5a/1x1 (in-place)
I1220 19:05:58.854331 31316 net.cpp:113] Setting up inception_5a/relu_1x1
I1220 19:05:58.854439 31316 net.cpp:120] Top shape: 80 256 7 7 (1003520)
I1220 19:05:58.854450 31316 layer_factory.hpp:74] Creating layer inception_5a/3x3_reduce
I1220 19:05:58.854468 31316 net.cpp:84] Creating Layer inception_5a/3x3_reduce
I1220 19:05:58.854478 31316 net.cpp:380] inception_5a/3x3_reduce <- pool4/3x3_s2_pool4/3x3_s2_0_split_1
I1220 19:05:58.854490 31316 net.cpp:338] inception_5a/3x3_reduce -> inception_5a/3x3_reduce
I1220 19:05:58.854506 31316 net.cpp:113] Setting up inception_5a/3x3_reduce
I1220 19:05:58.857734 31316 net.cpp:120] Top shape: 80 160 7 7 (627200)
I1220 19:05:58.857787 31316 layer_factory.hpp:74] Creating layer inception_5a/relu_3x3_reduce
I1220 19:05:58.857802 31316 net.cpp:84] Creating Layer inception_5a/relu_3x3_reduce
I1220 19:05:58.857816 31316 net.cpp:380] inception_5a/relu_3x3_reduce <- inception_5a/3x3_reduce
I1220 19:05:58.857831 31316 net.cpp:327] inception_5a/relu_3x3_reduce -> inception_5a/3x3_reduce (in-place)
I1220 19:05:58.857844 31316 net.cpp:113] Setting up inception_5a/relu_3x3_reduce
I1220 19:05:58.857954 31316 net.cpp:120] Top shape: 80 160 7 7 (627200)
I1220 19:05:58.857964 31316 layer_factory.hpp:74] Creating layer inception_5a/3x3
I1220 19:05:58.857981 31316 net.cpp:84] Creating Layer inception_5a/3x3
I1220 19:05:58.857990 31316 net.cpp:380] inception_5a/3x3 <- inception_5a/3x3_reduce
I1220 19:05:58.858003 31316 net.cpp:338] inception_5a/3x3 -> inception_5a/3x3
I1220 19:05:58.858018 31316 net.cpp:113] Setting up inception_5a/3x3
I1220 19:05:58.873476 31316 net.cpp:120] Top shape: 80 320 7 7 (1254400)
I1220 19:05:58.873555 31316 layer_factory.hpp:74] Creating layer inception_5a/relu_3x3
I1220 19:05:58.873581 31316 net.cpp:84] Creating Layer inception_5a/relu_3x3
I1220 19:05:58.873594 31316 net.cpp:380] inception_5a/relu_3x3 <- inception_5a/3x3
I1220 19:05:58.873607 31316 net.cpp:327] inception_5a/relu_3x3 -> inception_5a/3x3 (in-place)
I1220 19:05:58.873623 31316 net.cpp:113] Setting up inception_5a/relu_3x3
I1220 19:05:58.873728 31316 net.cpp:120] Top shape: 80 320 7 7 (1254400)
I1220 19:05:58.873739 31316 layer_factory.hpp:74] Creating layer inception_5a/5x5_reduce
I1220 19:05:58.873754 31316 net.cpp:84] Creating Layer inception_5a/5x5_reduce
I1220 19:05:58.873778 31316 net.cpp:380] inception_5a/5x5_reduce <- pool4/3x3_s2_pool4/3x3_s2_0_split_2
I1220 19:05:58.873807 31316 net.cpp:338] inception_5a/5x5_reduce -> inception_5a/5x5_reduce
I1220 19:05:58.873823 31316 net.cpp:113] Setting up inception_5a/5x5_reduce
I1220 19:05:58.874879 31316 net.cpp:120] Top shape: 80 32 7 7 (125440)
I1220 19:05:58.874908 31316 layer_factory.hpp:74] Creating layer inception_5a/relu_5x5_reduce
I1220 19:05:58.874922 31316 net.cpp:84] Creating Layer inception_5a/relu_5x5_reduce
I1220 19:05:58.874930 31316 net.cpp:380] inception_5a/relu_5x5_reduce <- inception_5a/5x5_reduce
I1220 19:05:58.874941 31316 net.cpp:327] inception_5a/relu_5x5_reduce -> inception_5a/5x5_reduce (in-place)
I1220 19:05:58.874953 31316 net.cpp:113] Setting up inception_5a/relu_5x5_reduce
I1220 19:05:58.875293 31316 net.cpp:120] Top shape: 80 32 7 7 (125440)
I1220 19:05:58.875308 31316 layer_factory.hpp:74] Creating layer inception_5a/5x5
I1220 19:05:58.875324 31316 net.cpp:84] Creating Layer inception_5a/5x5
I1220 19:05:58.875332 31316 net.cpp:380] inception_5a/5x5 <- inception_5a/5x5_reduce
I1220 19:05:58.875344 31316 net.cpp:338] inception_5a/5x5 -> inception_5a/5x5
I1220 19:05:58.875356 31316 net.cpp:113] Setting up inception_5a/5x5
I1220 19:05:58.877665 31316 net.cpp:120] Top shape: 80 128 7 7 (501760)
I1220 19:05:58.877702 31316 layer_factory.hpp:74] Creating layer inception_5a/relu_5x5
I1220 19:05:58.877715 31316 net.cpp:84] Creating Layer inception_5a/relu_5x5
I1220 19:05:58.877724 31316 net.cpp:380] inception_5a/relu_5x5 <- inception_5a/5x5
I1220 19:05:58.877737 31316 net.cpp:327] inception_5a/relu_5x5 -> inception_5a/5x5 (in-place)
I1220 19:05:58.877748 31316 net.cpp:113] Setting up inception_5a/relu_5x5
I1220 19:05:58.877848 31316 net.cpp:120] Top shape: 80 128 7 7 (501760)
I1220 19:05:58.877857 31316 layer_factory.hpp:74] Creating layer inception_5a/pool
I1220 19:05:58.877866 31316 layer_factory.cpp:56] CUDNN does not support padding or multiple tops. Using Caffe's own pooling layer.
I1220 19:05:58.877877 31316 net.cpp:84] Creating Layer inception_5a/pool
I1220 19:05:58.877887 31316 net.cpp:380] inception_5a/pool <- pool4/3x3_s2_pool4/3x3_s2_0_split_3
I1220 19:05:58.877897 31316 net.cpp:338] inception_5a/pool -> inception_5a/pool
I1220 19:05:58.877908 31316 net.cpp:113] Setting up inception_5a/pool
I1220 19:05:58.877921 31316 net.cpp:120] Top shape: 80 832 7 7 (3261440)
I1220 19:05:58.877930 31316 layer_factory.hpp:74] Creating layer inception_5a/pool_proj
I1220 19:05:58.877945 31316 net.cpp:84] Creating Layer inception_5a/pool_proj
I1220 19:05:58.877953 31316 net.cpp:380] inception_5a/pool_proj <- inception_5a/pool
I1220 19:05:58.877962 31316 net.cpp:338] inception_5a/pool_proj -> inception_5a/pool_proj
I1220 19:05:58.877974 31316 net.cpp:113] Setting up inception_5a/pool_proj
I1220 19:05:58.884881 31316 net.cpp:120] Top shape: 80 128 7 7 (501760)
I1220 19:05:58.884958 31316 layer_factory.hpp:74] Creating layer inception_5a/relu_pool_proj
I1220 19:05:58.884980 31316 net.cpp:84] Creating Layer inception_5a/relu_pool_proj
I1220 19:05:58.884994 31316 net.cpp:380] inception_5a/relu_pool_proj <- inception_5a/pool_proj
I1220 19:05:58.885015 31316 net.cpp:327] inception_5a/relu_pool_proj -> inception_5a/pool_proj (in-place)
I1220 19:05:58.885031 31316 net.cpp:113] Setting up inception_5a/relu_pool_proj
I1220 19:05:58.885149 31316 net.cpp:120] Top shape: 80 128 7 7 (501760)
I1220 19:05:58.885161 31316 layer_factory.hpp:74] Creating layer inception_5a/output
I1220 19:05:58.885172 31316 net.cpp:84] Creating Layer inception_5a/output
I1220 19:05:58.885180 31316 net.cpp:380] inception_5a/output <- inception_5a/1x1
I1220 19:05:58.885190 31316 net.cpp:380] inception_5a/output <- inception_5a/3x3
I1220 19:05:58.885198 31316 net.cpp:380] inception_5a/output <- inception_5a/5x5
I1220 19:05:58.885205 31316 net.cpp:380] inception_5a/output <- inception_5a/pool_proj
I1220 19:05:58.885217 31316 net.cpp:338] inception_5a/output -> inception_5a/output
I1220 19:05:58.885231 31316 net.cpp:113] Setting up inception_5a/output
I1220 19:05:58.885256 31316 net.cpp:120] Top shape: 80 832 7 7 (3261440)
I1220 19:05:58.885277 31316 layer_factory.hpp:74] Creating layer inception_5a/output_inception_5a/output_0_split
I1220 19:05:58.885288 31316 net.cpp:84] Creating Layer inception_5a/output_inception_5a/output_0_split
I1220 19:05:58.885295 31316 net.cpp:380] inception_5a/output_inception_5a/output_0_split <- inception_5a/output
I1220 19:05:58.885305 31316 net.cpp:338] inception_5a/output_inception_5a/output_0_split -> inception_5a/output_inception_5a/output_0_split_0
I1220 19:05:58.885316 31316 net.cpp:338] inception_5a/output_inception_5a/output_0_split -> inception_5a/output_inception_5a/output_0_split_1
I1220 19:05:58.885329 31316 net.cpp:338] inception_5a/output_inception_5a/output_0_split -> inception_5a/output_inception_5a/output_0_split_2
I1220 19:05:58.885341 31316 net.cpp:338] inception_5a/output_inception_5a/output_0_split -> inception_5a/output_inception_5a/output_0_split_3
I1220 19:05:58.885351 31316 net.cpp:113] Setting up inception_5a/output_inception_5a/output_0_split
I1220 19:05:58.885363 31316 net.cpp:120] Top shape: 80 832 7 7 (3261440)
I1220 19:05:58.885371 31316 net.cpp:120] Top shape: 80 832 7 7 (3261440)
I1220 19:05:58.885378 31316 net.cpp:120] Top shape: 80 832 7 7 (3261440)
I1220 19:05:58.885386 31316 net.cpp:120] Top shape: 80 832 7 7 (3261440)
I1220 19:05:58.885392 31316 layer_factory.hpp:74] Creating layer inception_5b/1x1
I1220 19:05:58.885407 31316 net.cpp:84] Creating Layer inception_5b/1x1
I1220 19:05:58.885416 31316 net.cpp:380] inception_5b/1x1 <- inception_5a/output_inception_5a/output_0_split_0
I1220 19:05:58.885424 31316 net.cpp:338] inception_5b/1x1 -> inception_5b/1x1
I1220 19:05:58.885437 31316 net.cpp:113] Setting up inception_5b/1x1
I1220 19:05:58.892562 31316 net.cpp:120] Top shape: 80 384 7 7 (1505280)
I1220 19:05:58.892617 31316 layer_factory.hpp:74] Creating layer inception_5b/relu_1x1
I1220 19:05:58.892637 31316 net.cpp:84] Creating Layer inception_5b/relu_1x1
I1220 19:05:58.892647 31316 net.cpp:380] inception_5b/relu_1x1 <- inception_5b/1x1
I1220 19:05:58.892659 31316 net.cpp:327] inception_5b/relu_1x1 -> inception_5b/1x1 (in-place)
I1220 19:05:58.892673 31316 net.cpp:113] Setting up inception_5b/relu_1x1
I1220 19:05:58.893030 31316 net.cpp:120] Top shape: 80 384 7 7 (1505280)
I1220 19:05:58.893045 31316 layer_factory.hpp:74] Creating layer inception_5b/3x3_reduce
I1220 19:05:58.893079 31316 net.cpp:84] Creating Layer inception_5b/3x3_reduce
I1220 19:05:58.893090 31316 net.cpp:380] inception_5b/3x3_reduce <- inception_5a/output_inception_5a/output_0_split_1
I1220 19:05:58.893110 31316 net.cpp:338] inception_5b/3x3_reduce -> inception_5b/3x3_reduce
I1220 19:05:58.893126 31316 net.cpp:113] Setting up inception_5b/3x3_reduce
I1220 19:05:58.896316 31316 net.cpp:120] Top shape: 80 192 7 7 (752640)
I1220 19:05:58.896364 31316 layer_factory.hpp:74] Creating layer inception_5b/relu_3x3_reduce
I1220 19:05:58.896379 31316 net.cpp:84] Creating Layer inception_5b/relu_3x3_reduce
I1220 19:05:58.896390 31316 net.cpp:380] inception_5b/relu_3x3_reduce <- inception_5b/3x3_reduce
I1220 19:05:58.896402 31316 net.cpp:327] inception_5b/relu_3x3_reduce -> inception_5b/3x3_reduce (in-place)
I1220 19:05:58.896415 31316 net.cpp:113] Setting up inception_5b/relu_3x3_reduce
I1220 19:05:58.896517 31316 net.cpp:120] Top shape: 80 192 7 7 (752640)
I1220 19:05:58.896527 31316 layer_factory.hpp:74] Creating layer inception_5b/3x3
I1220 19:05:58.896548 31316 net.cpp:84] Creating Layer inception_5b/3x3
I1220 19:05:58.896555 31316 net.cpp:380] inception_5b/3x3 <- inception_5b/3x3_reduce
I1220 19:05:58.896565 31316 net.cpp:338] inception_5b/3x3 -> inception_5b/3x3
I1220 19:05:58.896634 31316 net.cpp:113] Setting up inception_5b/3x3
I1220 19:05:58.907187 31316 net.cpp:120] Top shape: 80 384 7 7 (1505280)
I1220 19:05:58.907239 31316 layer_factory.hpp:74] Creating layer inception_5b/relu_3x3
I1220 19:05:58.907253 31316 net.cpp:84] Creating Layer inception_5b/relu_3x3
I1220 19:05:58.907263 31316 net.cpp:380] inception_5b/relu_3x3 <- inception_5b/3x3
I1220 19:05:58.907300 31316 net.cpp:327] inception_5b/relu_3x3 -> inception_5b/3x3 (in-place)
I1220 19:05:58.907315 31316 net.cpp:113] Setting up inception_5b/relu_3x3
I1220 19:05:58.907405 31316 net.cpp:120] Top shape: 80 384 7 7 (1505280)
I1220 19:05:58.907414 31316 layer_factory.hpp:74] Creating layer inception_5b/5x5_reduce
I1220 19:05:58.907428 31316 net.cpp:84] Creating Layer inception_5b/5x5_reduce
I1220 19:05:58.907435 31316 net.cpp:380] inception_5b/5x5_reduce <- inception_5a/output_inception_5a/output_0_split_2
I1220 19:05:58.907445 31316 net.cpp:338] inception_5b/5x5_reduce -> inception_5b/5x5_reduce
I1220 19:05:58.907459 31316 net.cpp:113] Setting up inception_5b/5x5_reduce
I1220 19:05:58.908643 31316 net.cpp:120] Top shape: 80 48 7 7 (188160)
I1220 19:05:58.908671 31316 layer_factory.hpp:74] Creating layer inception_5b/relu_5x5_reduce
I1220 19:05:58.908685 31316 net.cpp:84] Creating Layer inception_5b/relu_5x5_reduce
I1220 19:05:58.908694 31316 net.cpp:380] inception_5b/relu_5x5_reduce <- inception_5b/5x5_reduce
I1220 19:05:58.908705 31316 net.cpp:327] inception_5b/relu_5x5_reduce -> inception_5b/5x5_reduce (in-place)
I1220 19:05:58.908716 31316 net.cpp:113] Setting up inception_5b/relu_5x5_reduce
I1220 19:05:58.908807 31316 net.cpp:120] Top shape: 80 48 7 7 (188160)
I1220 19:05:58.908814 31316 layer_factory.hpp:74] Creating layer inception_5b/5x5
I1220 19:05:58.908828 31316 net.cpp:84] Creating Layer inception_5b/5x5
I1220 19:05:58.908835 31316 net.cpp:380] inception_5b/5x5 <- inception_5b/5x5_reduce
I1220 19:05:58.908846 31316 net.cpp:338] inception_5b/5x5 -> inception_5b/5x5
I1220 19:05:58.908859 31316 net.cpp:113] Setting up inception_5b/5x5
I1220 19:05:58.911737 31316 net.cpp:120] Top shape: 80 128 7 7 (501760)
I1220 19:05:58.911785 31316 layer_factory.hpp:74] Creating layer inception_5b/relu_5x5
I1220 19:05:58.911802 31316 net.cpp:84] Creating Layer inception_5b/relu_5x5
I1220 19:05:58.911810 31316 net.cpp:380] inception_5b/relu_5x5 <- inception_5b/5x5
I1220 19:05:58.911821 31316 net.cpp:327] inception_5b/relu_5x5 -> inception_5b/5x5 (in-place)
I1220 19:05:58.911833 31316 net.cpp:113] Setting up inception_5b/relu_5x5
I1220 19:05:58.912169 31316 net.cpp:120] Top shape: 80 128 7 7 (501760)
I1220 19:05:58.912186 31316 layer_factory.hpp:74] Creating layer inception_5b/pool
I1220 19:05:58.912194 31316 layer_factory.cpp:56] CUDNN does not support padding or multiple tops. Using Caffe's own pooling layer.
I1220 19:05:58.912206 31316 net.cpp:84] Creating Layer inception_5b/pool
I1220 19:05:58.912214 31316 net.cpp:380] inception_5b/pool <- inception_5a/output_inception_5a/output_0_split_3
I1220 19:05:58.912225 31316 net.cpp:338] inception_5b/pool -> inception_5b/pool
I1220 19:05:58.912237 31316 net.cpp:113] Setting up inception_5b/pool
I1220 19:05:58.912250 31316 net.cpp:120] Top shape: 80 832 7 7 (3261440)
I1220 19:05:58.912257 31316 layer_factory.hpp:74] Creating layer inception_5b/pool_proj
I1220 19:05:58.912271 31316 net.cpp:84] Creating Layer inception_5b/pool_proj
I1220 19:05:58.912277 31316 net.cpp:380] inception_5b/pool_proj <- inception_5b/pool
I1220 19:05:58.912288 31316 net.cpp:338] inception_5b/pool_proj -> inception_5b/pool_proj
I1220 19:05:58.912299 31316 net.cpp:113] Setting up inception_5b/pool_proj
I1220 19:05:58.914471 31316 net.cpp:120] Top shape: 80 128 7 7 (501760)
I1220 19:05:58.914521 31316 layer_factory.hpp:74] Creating layer inception_5b/relu_pool_proj
I1220 19:05:58.914535 31316 net.cpp:84] Creating Layer inception_5b/relu_pool_proj
I1220 19:05:58.914543 31316 net.cpp:380] inception_5b/relu_pool_proj <- inception_5b/pool_proj
I1220 19:05:58.914553 31316 net.cpp:327] inception_5b/relu_pool_proj -> inception_5b/pool_proj (in-place)
I1220 19:05:58.914566 31316 net.cpp:113] Setting up inception_5b/relu_pool_proj
I1220 19:05:58.914656 31316 net.cpp:120] Top shape: 80 128 7 7 (501760)
I1220 19:05:58.914664 31316 layer_factory.hpp:74] Creating layer inception_5b/output
I1220 19:05:58.914674 31316 net.cpp:84] Creating Layer inception_5b/output
I1220 19:05:58.914695 31316 net.cpp:380] inception_5b/output <- inception_5b/1x1
I1220 19:05:58.914716 31316 net.cpp:380] inception_5b/output <- inception_5b/3x3
I1220 19:05:58.914723 31316 net.cpp:380] inception_5b/output <- inception_5b/5x5
I1220 19:05:58.914731 31316 net.cpp:380] inception_5b/output <- inception_5b/pool_proj
I1220 19:05:58.914738 31316 net.cpp:338] inception_5b/output -> inception_5b/output
I1220 19:05:58.914748 31316 net.cpp:113] Setting up inception_5b/output
I1220 19:05:58.914758 31316 net.cpp:120] Top shape: 80 1024 7 7 (4014080)
I1220 19:05:58.914764 31316 layer_factory.hpp:74] Creating layer pool5/7x7_s1
I1220 19:05:58.914777 31316 net.cpp:84] Creating Layer pool5/7x7_s1
I1220 19:05:58.914783 31316 net.cpp:380] pool5/7x7_s1 <- inception_5b/output
I1220 19:05:58.914791 31316 net.cpp:338] pool5/7x7_s1 -> pool5/7x7_s1
I1220 19:05:58.914800 31316 net.cpp:113] Setting up pool5/7x7_s1
I1220 19:05:58.914891 31316 net.cpp:120] Top shape: 80 1024 1 1 (81920)
I1220 19:05:58.914898 31316 layer_factory.hpp:74] Creating layer pool5/drop_7x7_s1
I1220 19:05:58.914911 31316 net.cpp:84] Creating Layer pool5/drop_7x7_s1
I1220 19:05:58.914916 31316 net.cpp:380] pool5/drop_7x7_s1 <- pool5/7x7_s1
I1220 19:05:58.914926 31316 net.cpp:327] pool5/drop_7x7_s1 -> pool5/7x7_s1 (in-place)
I1220 19:05:58.914934 31316 net.cpp:113] Setting up pool5/drop_7x7_s1
I1220 19:05:58.914944 31316 net.cpp:120] Top shape: 80 1024 1 1 (81920)
I1220 19:05:58.914949 31316 layer_factory.hpp:74] Creating layer loss3/classifier_kaggle
I1220 19:05:58.914960 31316 net.cpp:84] Creating Layer loss3/classifier_kaggle
I1220 19:05:58.914965 31316 net.cpp:380] loss3/classifier_kaggle <- pool5/7x7_s1
I1220 19:05:58.914976 31316 net.cpp:338] loss3/classifier_kaggle -> loss3/classifier_kaggle
I1220 19:05:58.914988 31316 net.cpp:113] Setting up loss3/classifier_kaggle
I1220 19:05:58.921481 31316 net.cpp:120] Top shape: 80 447 (35760)
I1220 19:05:58.921527 31316 layer_factory.hpp:74] Creating layer loss3/loss3
I1220 19:05:58.921545 31316 net.cpp:84] Creating Layer loss3/loss3
I1220 19:05:58.921553 31316 net.cpp:380] loss3/loss3 <- loss3/classifier_kaggle
I1220 19:05:58.921562 31316 net.cpp:380] loss3/loss3 <- label_data_1_split_2
I1220 19:05:58.921571 31316 net.cpp:338] loss3/loss3 -> loss3/loss3
I1220 19:05:58.921584 31316 net.cpp:113] Setting up loss3/loss3
…
I1220 19:05:58.928375 31316 net.cpp:257] The NetState phase (1) differed from the phase (0) specified by a rule in layer data
I1220 19:05:58.930145 31316 net.cpp:42] Initializing net from parameters: 
name: "MYNET"
state {
  phase: TEST
}
layer {
  name: "data"
  type: "ImageData"
  top: "data"
  top: "label"
  include {
    phase: TEST
  }
  transform_param {
    mirror: false
    crop_size: 224
    mean_value: 129
    mean_value: 129
    mean_value: 129
  }
  image_data_param {
    source: "/home/coldmanck/kaggle/label_val_full.txt"
    batch_size: 50
    shuffle: true
  }
}
layer {
  name: "conv1/7x7_s2"
  type: "Convolution"
  bottom: "data"
  top: "conv1/7x7_s2"
  param {
    lr_mult: 1
    decay_mult: 1
  }
  param {
    lr_mult: 2
    decay_mult: 0
  }
  convolution_param {
    num_output: 64
    pad: 3
    kernel_size: 7
    stride: 2
    weight_filler {
      type: "xavier"
    }
    bias_filler {
      type: "constant"
      value: 0.2
    }
  }
}
layer {
  name: "conv1/relu_7x7"
  type: "ReLU"
  bottom: "conv1/7x7_s2"
  top: "conv1/7x7_s2"
}
layer {
  name: "pool1/3x3_s2"
  type: "Pooling"
  bottom: "conv1/7x7_s2"
  top: "pool1/3x3_s2"
  pooling_param {
    pool: MAX
    kernel_size: 3
    stride: 2
  }
}
layer {
  name: "pool1/norm1"
  type: "LRN"
  bottom: "pool1/3x3_s2"
  top: "pool1/norm1"
  lrn_param {
    local_size: 5
    alpha: 0.0001
    beta: 0.75
  }
}
layer {
  name: "conv2/3x3_reduce"
  type: "Convolution"
  bottom: "pool1/norm1"
  top: "conv2/3x3_reduce"
  param {
    lr_mult: 1
    decay_mult: 1
  }
  param {
    lr_mult: 2
    decay_mult: 0
  }
  convolution_param {
    num_output: 64
    kernel_size: 1
    weight_filler {
      type: "xavier"
    }
    bias_filler {
      type: "constant"
      value: 0.2
    }
  }
}
layer {
  name: "conv2/relu_3x3_reduce"
  type: "ReLU"
  bottom: "conv2/3x3_reduce"
  top: "conv2/3x3_reduce"
}
layer {
  name: "conv2/3x3"
  type: "Convolution"
  bottom: "conv2/3x3_reduce"
  top: "conv2/3x3"
  param {
    lr_mult: 1
    decay_mult: 1
  }
  param {
    lr_mult: 2
    decay_mult: 0
  }
  convolution_param {
    num_output: 192
    pad: 1
    kernel_size: 3
    weight_filler {
      type: "xavier"
    }
    bias_filler {
      type: "constant"
      value: 0.2
    }
  }
}
layer {
  name: "conv2/relu_3x3"
  type: "ReLU"
  bottom: "conv2/3x3"
  top: "conv2/3x3"
}
layer {
  name: "conv2/norm2"
  type: "LRN"
  bottom: "conv2/3x3"
  top: "conv2/norm2"
  lrn_param {
    local_size: 5
    alpha: 0.0001
    beta: 0.75
  }
}
layer {
  name: "pool2/3x3_s2"
  type: "Pooling"
  bottom: "conv2/norm2"
  top: "pool2/3x3_s2"
  pooling_param {
    pool: MAX
    kernel_size: 3
    stride: 2
  }
}
layer {
  name: "inception_3a/1x1"
  type: "Convolution"
  bottom: "pool2/3x3_s2"
  top: "inception_3a/1x1"
  param {
    lr_mult: 1
    decay_mult: 1
  }
  param {
    lr_mult: 2
    decay_mult: 0
  }
  convolution_param {
    num_output: 64
    kernel_size: 1
    weight_filler {
      type: "xavier"
    }
    bias_filler {
      type: "constant"
      value: 0.2
    }
  }
}
layer {
  name: "inception_3a/relu_1x1"
  type: "ReLU"
  bottom: "inception_3a/1x1"
  top: "inception_3a/1x1"
}
layer {
  name: "inception_3a/3x3_reduce"
  type: "Convolution"
  bottom: "pool2/3x3_s2"
  top: "inception_3a/3x3_reduce"
  param {
    lr_mult: 1
    decay_mult: 1
  }
  param {
    lr_mult: 2
    decay_mult: 0
  }
  convolution_param {
    num_output: 96
    kernel_size: 1
    weight_filler {
      type: "xavier"
    }
    bias_filler {
      type: "constant"
      value: 0.2
    }
  }
}
layer {
  name: "inception_3a/relu_3x3_reduce"
  type: "ReLU"
  bottom: "inception_3a/3x3_reduce"
  top: "inception_3a/3x3_reduce"
}
layer {
  name: "inception_3a/3x3"
  type: "Convolution"
  bottom: "inception_3a/3x3_reduce"
  top: "inception_3a/3x3"
  param {
    lr_mult: 1
    decay_mult: 1
  }
  param {
    lr_mult: 2
    decay_mult: 0
  }
  convolution_param {
    num_output: 128
    pad: 1
    kernel_size: 3
    weight_filler {
      type: "xavier"
    }
    bias_filler {
      type: "constant"
      value: 0.2
    }
  }
}
layer {
  name: "inception_3a/relu_3x3"
  type: "ReLU"
  bottom: "inception_3a/3x3"
  top: "inception_3a/3x3"
}
layer {
  name: "inception_3a/5x5_reduce"
  type: "Convolution"
  bottom: "pool2/3x3_s2"
  top: "inception_3a/5x5_reduce"
  param {
    lr_mult: 1
    decay_mult: 1
  }
  param {
    lr_mult: 2
    decay_mult: 0
  }
  convolution_param {
    num_output: 16
    kernel_size: 1
    weight_filler {
      type: "xavier"
    }
    bias_filler {
      type: "constant"
      value: 0.2
    }
  }
}
layer {
  name: "inception_3a/relu_5x5_reduce"
  type: "ReLU"
  bottom: "inception_3a/5x5_reduce"
  top: "inception_3a/5x5_reduce"
}
layer {
  name: "inception_3a/5x5"
  type: "Convolution"
  bottom: "inception_3a/5x5_reduce"
  top: "inception_3a/5x5"
  param {
    lr_mult: 1
    decay_mult: 1
  }
  param {
    lr_mult: 2
    decay_mult: 0
  }
  convolution_param {
    num_output: 32
    pad: 2
    kernel_size: 5
    weight_filler {
      type: "xavier"
    }
    bias_filler {
      type: "constant"
      value: 0.2
    }
  }
}
layer {
  name: "inception_3a/relu_5x5"
  type: "ReLU"
  bottom: "inception_3a/5x5"
  top: "inception_3a/5x5"
}
layer {
  name: "inception_3a/pool"
  type: "Pooling"
  bottom: "pool2/3x3_s2"
  top: "inception_3a/pool"
  pooling_param {
    pool: MAX
    kernel_size: 3
    stride: 1
    pad: 1
  }
}
layer {
  name: "inception_3a/pool_proj"
  type: "Convolution"
  bottom: "inception_3a/pool"
  top: "inception_3a/pool_proj"
  param {
    lr_mult: 1
    decay_mult: 1
  }
  param {
    lr_mult: 2
    decay_mult: 0
  }
  convolution_param {
    num_output: 32
    kernel_size: 1
    weight_filler {
      type: "xavier"
    }
    bias_filler {
      type: "constant"
      value: 0.2
    }
  }
}
layer {
  name: "inception_3a/relu_pool_proj"
  type: "ReLU"
  bottom: "inception_3a/pool_proj"
  top: "inception_3a/pool_proj"
}
layer {
  name: "inception_3a/output"
  type: "Concat"
  bottom: "inception_3a/1x1"
  bottom: "inception_3a/3x3"
  bottom: "inception_3a/5x5"
  bottom: "inception_3a/pool_proj"
  top: "inception_3a/output"
}
layer {
  name: "inception_3b/1x1"
  type: "Convolution"
  bottom: "inception_3a/output"
  top: "inception_3b/1x1"
  param {
    lr_mult: 1
    decay_mult: 1
  }
  param {
    lr_mult: 2
    decay_mult: 0
  }
  convolution_param {
    num_output: 128
    kernel_size: 1
    weight_filler {
      type: "xavier"
    }
    bias_filler {
      type: "constant"
      value: 0.2
    }
  }
}
layer {
  name: "inception_3b/relu_1x1"
  type: "ReLU"
  bottom: "inception_3b/1x1"
  top: "inception_3b/1x1"
}
layer {
  name: "inception_3b/3x3_reduce"
  type: "Convolution"
  bottom: "inception_3a/output"
  top: "inception_3b/3x3_reduce"
  param {
    lr_mult: 1
    decay_mult: 1
  }
  param {
    lr_mult: 2
    decay_mult: 0
  }
  convolution_param {
    num_output: 128
    kernel_size: 1
    weight_filler {
      type: "xavier"
    }
    bias_filler {
      type: "constant"
      value: 0.2
    }
  }
}
layer {
  name: "inception_3b/relu_3x3_reduce"
  type: "ReLU"
  bottom: "inception_3b/3x3_reduce"
  top: "inception_3b/3x3_reduce"
}
layer {
  name: "inception_3b/3x3"
  type: "Convolution"
  bottom: "inception_3b/3x3_reduce"
  top: "inception_3b/3x3"
  param {
    lr_mult: 1
    decay_mult: 1
  }
  param {
    lr_mult: 2
    decay_mult: 0
  }
  convolution_param {
    num_output: 192
    pad: 1
    kernel_size: 3
    weight_filler {
      type: "xavier"
    }
    bias_filler {
      type: "constant"
      value: 0.2
    }
  }
}
layer {
  name: "inception_3b/relu_3x3"
  type: "ReLU"
  bottom: "inception_3b/3x3"
  top: "inception_3b/3x3"
}
layer {
  name: "inception_3b/5x5_reduce"
  type: "Convolution"
  bottom: "inception_3a/output"
  top: "inception_3b/5x5_reduce"
  param {
    lr_mult: 1
    decay_mult: 1
  }
  param {
    lr_mult: 2
    decay_mult: 0
  }
  convolution_param {
    num_output: 32
    kernel_size: 1
    weight_filler {
      type: "xavier"
    }
    bias_filler {
      type: "constant"
      value: 0.2
    }
  }
}
layer {
  name: "inception_3b/relu_5x5_reduce"
  type: "ReLU"
  bottom: "inception_3b/5x5_reduce"
  top: "inception_3b/5x5_reduce"
}
layer {
  name: "inception_3b/5x5"
  type: "Convolution"
  bottom: "inception_3b/5x5_reduce"
  top: "inception_3b/5x5"
  param {
    lr_mult: 1
    decay_mult: 1
  }
  param {
    lr_mult: 2
    decay_mult: 0
  }
  convolution_param {
    num_output: 96
    pad: 2
    kernel_size: 5
    weight_filler {
      type: "xavier"
    }
    bias_filler {
      type: "constant"
      value: 0.2
    }
  }
}
layer {
  name: "inception_3b/relu_5x5"
  type: "ReLU"
  bottom: "inception_3b/5x5"
  top: "inception_3b/5x5"
}
layer {
  name: "inception_3b/pool"
  type: "Pooling"
  bottom: "inception_3a/output"
  top: "inception_3b/pool"
  pooling_param {
    pool: MAX
    kernel_size: 3
    stride: 1
    pad: 1
  }
}
layer {
  name: "inception_3b/pool_proj"
  type: "Convolution"
  bottom: "inception_3b/pool"
  top: "inception_3b/pool_proj"
  param {
    lr_mult: 1
    decay_mult: 1
  }
  param {
    lr_mult: 2
    decay_mult: 0
  }
  convolution_param {
    num_output: 64
    kernel_size: 1
    weight_filler {
      type: "xavier"
    }
    bias_filler {
      type: "constant"
      value: 0.2
    }
  }
}
layer {
  name: "inception_3b/relu_pool_proj"
  type: "ReLU"
  bottom: "inception_3b/pool_proj"
  top: "inception_3b/pool_proj"
}
layer {
  name: "inception_3b/output"
  type: "Concat"
  bottom: "inception_3b/1x1"
  bottom: "inception_3b/3x3"
  bottom: "inception_3b/5x5"
  bottom: "inception_3b/pool_proj"
  top: "inception_3b/output"
}
layer {
  name: "pool3/3x3_s2"
  type: "Pooling"
  bottom: "inception_3b/output"
  top: "pool3/3x3_s2"
  pooling_param {
    pool: MAX
    kernel_size: 3
    stride: 2
  }
}
layer {
  name: "inception_4a/1x1"
  type: "Convolution"
  bottom: "pool3/3x3_s2"
  top: "inception_4a/1x1"
  param {
    lr_mult: 1
    decay_mult: 1
  }
  param {
    lr_mult: 2
    decay_mult: 0
  }
  convolution_param {
    num_output: 192
    kernel_size: 1
    weight_filler {
      type: "xavier"
    }
    bias_filler {
      type: "constant"
      value: 0.2
    }
  }
}
layer {
  name: "inception_4a/relu_1x1"
  type: "ReLU"
  bottom: "inception_4a/1x1"
  top: "inception_4a/1x1"
}
layer {
  name: "inception_4a/3x3_reduce"
  type: "Convolution"
  bottom: "pool3/3x3_s2"
  top: "inception_4a/3x3_reduce"
  param {
    lr_mult: 1
    decay_mult: 1
  }
  param {
    lr_mult: 2
    decay_mult: 0
  }
  convolution_param {
    num_output: 96
    kernel_size: 1
    weight_filler {
      type: "xavier"
    }
    bias_filler {
      type: "constant"
      value: 0.2
    }
  }
}
layer {
  name: "inception_4a/relu_3x3_reduce"
  type: "ReLU"
  bottom: "inception_4a/3x3_reduce"
  top: "inception_4a/3x3_reduce"
}
layer {
  name: "inception_4a/3x3"
  type: "Convolution"
  bottom: "inception_4a/3x3_reduce"
  top: "inception_4a/3x3"
  param {
    lr_mult: 1
    decay_mult: 1
  }
  param {
    lr_mult: 2
    decay_mult: 0
  }
  convolution_param {
    num_output: 208
    pad: 1
    kernel_size: 3
    weight_filler {
      type: "xavier"
    }
    bias_filler {
      type: "constant"
      value: 0.2
    }
  }
}
layer {
  name: "inception_4a/relu_3x3"
  type: "ReLU"
  bottom: "inception_4a/3x3"
  top: "inception_4a/3x3"
}
layer {
  name: "inception_4a/5x5_reduce"
  type: "Convolution"
  bottom: "pool3/3x3_s2"
  top: "inception_4a/5x5_reduce"
  param {
    lr_mult: 1
    decay_mult: 1
  }
  param {
    lr_mult: 2
    decay_mult: 0
  }
  convolution_param {
    num_output: 16
    kernel_size: 1
    weight_filler {
      type: "xavier"
    }
    bias_filler {
      type: "constant"
      value: 0.2
    }
  }
}
layer {
  name: "inception_4a/relu_5x5_reduce"
  type: "ReLU"
  bottom: "inception_4a/5x5_reduce"
  top: "inception_4a/5x5_reduce"
}
layer {
  name: "inception_4a/5x5"
  type: "Convolution"
  bottom: "inception_4a/5x5_reduce"
  top: "inception_4a/5x5"
  param {
    lr_mult: 1
    decay_mult: 1
  }
  param {
    lr_mult: 2
    decay_mult: 0
  }
  convolution_param {
    num_output: 48
    pad: 2
    kernel_size: 5
    weight_filler {
      type: "xavier"
    }
    bias_filler {
      type: "constant"
      value: 0.2
    }
  }
}
layer {
  name: "inception_4a/relu_5x5"
  type: "ReLU"
  bottom: "inception_4a/5x5"
  top: "inception_4a/5x5"
}
layer {
  name: "inception_4a/pool"
  type: "Pooling"
  bottom: "pool3/3x3_s2"
  top: "inception_4a/pool"
  pooling_param {
    pool: MAX
    kernel_size: 3
    stride: 1
    pad: 1
  }
}
layer {
  name: "inception_4a/pool_proj"
  type: "Convolution"
  bottom: "inception_4a/pool"
  top: "inception_4a/pool_proj"
  param {
    lr_mult: 1
    decay_mult: 1
  }
  param {
    lr_mult: 2
    decay_mult: 0
  }
  convolution_param {
    num_output: 64
    kernel_size: 1
    weight_filler {
      type: "xavier"
    }
    bias_filler {
      type: "constant"
      value: 0.2
    }
  }
}
layer {
  name: "inception_4a/relu_pool_proj"
  type: "ReLU"
  bottom: "inception_4a/pool_proj"
  top: "inception_4a/pool_proj"
}
layer {
  name: "inception_4a/output"
  type: "Concat"
  bottom: "inception_4a/1x1"
  bottom: "inception_4a/3x3"
  bottom: "inception_4a/5x5"
  bottom: "inception_4a/pool_proj"
  top: "inception_4a/output"
}
layer {
  name: "loss1/ave_pool"
  type: "Pooling"
  bottom: "inception_4a/output"
  top: "loss1/ave_pool"
  pooling_param {
    pool: AVE
    kernel_size: 5
    stride: 3
  }
}
layer {
  name: "loss1/conv"
  type: "Convolution"
  bottom: "loss1/ave_pool"
  top: "loss1/conv"
  param {
    lr_mult: 1
    decay_mult: 1
  }
  param {
    lr_mult: 2
    decay_mult: 0
  }
  convolution_param {
    num_output: 128
    kernel_size: 1
    weight_filler {
      type: "xavier"
    }
    bias_filler {
      type: "constant"
      value: 0.2
    }
  }
}
layer {
  name: "loss1/relu_conv"
  type: "ReLU"
  bottom: "loss1/conv"
  top: "loss1/conv"
}
layer {
  name: "loss1/fc"
  type: "InnerProduct"
  bottom: "loss1/conv"
  top: "loss1/fc"
  param {
    lr_mult: 1
    decay_mult: 1
  }
  param {
    lr_mult: 2
    decay_mult: 0
  }
  inner_product_param {
    num_output: 1024
    weight_filler {
      type: "xavier"
    }
    bias_filler {
      type: "constant"
      value: 0.2
    }
  }
}
layer {
  name: "loss1/relu_fc"
  type: "ReLU"
  bottom: "loss1/fc"
  top: "loss1/fc"
}
layer {
  name: "loss1/drop_fc"
  type: "Dropout"
  bottom: "loss1/fc"
  top: "loss1/fc"
  dropout_param {
    dropout_ratio: 0.7
  }
}
layer {
  name: "loss1/classifier_kaggle"
  type: "InnerProduct"
  bottom: "loss1/fc"
  top: "loss1/classifier_kaggle"
  param {
    lr_mult: 1
    decay_mult: 1
  }
  param {
    lr_mult: 2
    decay_mult: 0
  }
  inner_product_param {
    num_output: 447
    weight_filler {
      type: "xavier"
    }
    bias_filler {
      type: "constant"
      value: 0
    }
  }
}
layer {
  name: "loss1/loss"
  type: "SoftmaxWithLoss"
  bottom: "loss1/classifier_kaggle"
  bottom: "label"
  top: "loss1/loss1"
  loss_weight: 0.3
}
layer {
  name: "loss1/top-1"
  type: "Accuracy"
  bottom: "loss1/classifier_kaggle"
  bottom: "label"
  top: "loss1/top-1"
  include {
    phase: TEST
  }
}
layer {
  name: "loss1/top-5"
  type: "Accuracy"
  bottom: "loss1/classifier_kaggle"
  bottom: "label"
  top: "loss1/top-5"
  include {
    phase: TEST
  }
  accuracy_param {
    top_k: 5
  }
}
layer {
  name: "inception_4b/1x1"
  type: "Convolution"
  bottom: "inception_4a/output"
  top: "inception_4b/1x1"
  param {
    lr_mult: 1
    decay_mult: 1
  }
  param {
    lr_mult: 2
    decay_mult: 0
  }
  convolution_param {
    num_output: 160
    kernel_size: 1
    weight_filler {
      type: "xavier"
    }
    bias_filler {
      type: "constant"
      value: 0.2
    }
  }
}
layer {
  name: "inception_4b/relu_1x1"
  type: "ReLU"
  bottom: "inception_4b/1x1"
  top: "inception_4b/1x1"
}
layer {
  name: "inception_4b/3x3_reduce"
  type: "Convolution"
  bottom: "inception_4a/output"
  top: "inception_4b/3x3_reduce"
  param {
    lr_mult: 1
    decay_mult: 1
  }
  param {
    lr_mult: 2
    decay_mult: 0
  }
  convolution_param {
    num_output: 112
    kernel_size: 1
    weight_filler {
      type: "xavier"
    }
    bias_filler {
      type: "constant"
      value: 0.2
    }
  }
}
layer {
  name: "inception_4b/relu_3x3_reduce"
  type: "ReLU"
  bottom: "inception_4b/3x3_reduce"
  top: "inception_4b/3x3_reduce"
}
layer {
  name: "inception_4b/3x3"
  type: "Convolution"
  bottom: "inception_4b/3x3_reduce"
  top: "inception_4b/3x3"
  param {
    lr_mult: 1
    decay_mult: 1
  }
  param {
    lr_mult: 2
    decay_mult: 0
  }
  convolution_param {
    num_output: 224
    pad: 1
    kernel_size: 3
    weight_filler {
      type: "xavier"
    }
    bias_filler {
      type: "constant"
      value: 0.2
    }
  }
}
layer {
  name: "inception_4b/relu_3x3"
  type: "ReLU"
  bottom: "inception_4b/3x3"
  top: "inception_4b/3x3"
}
layer {
  name: "inception_4b/5x5_reduce"
  type: "Convolution"
  bottom: "inception_4a/output"
  top: "inception_4b/5x5_reduce"
  param {
    lr_mult: 1
    decay_mult: 1
  }
  param {
    lr_mult: 2
    decay_mult: 0
  }
  convolution_param {
    num_output: 24
    kernel_size: 1
    weight_filler {
      type: "xavier"
    }
    bias_filler {
      type: "constant"
      value: 0.2
    }
  }
}
layer {
  name: "inception_4b/relu_5x5_reduce"
  type: "ReLU"
  bottom: "inception_4b/5x5_reduce"
  top: "inception_4b/5x5_reduce"
}
layer {
  name: "inception_4b/5x5"
  type: "Convolution"
  bottom: "inception_4b/5x5_reduce"
  top: "inception_4b/5x5"
  param {
    lr_mult: 1
    decay_mult: 1
  }
  param {
    lr_mult: 2
    decay_mult: 0
  }
  convolution_param {
    num_output: 64
    pad: 2
    kernel_size: 5
    weight_filler {
      type: "xavier"
    }
    bias_filler {
      type: "constant"
      value: 0.2
    }
  }
}
layer {
  name: "inception_4b/relu_5x5"
  type: "ReLU"
  bottom: "inception_4b/5x5"
  top: "inception_4b/5x5"
}
layer {
  name: "inception_4b/pool"
  type: "Pooling"
  bottom: "inception_4a/output"
  top: "inception_4b/pool"
  pooling_param {
    pool: MAX
    kernel_size: 3
    stride: 1
    pad: 1
  }
}
layer {
  name: "inception_4b/pool_proj"
  type: "Convolution"
  bottom: "inception_4b/pool"
  top: "inception_4b/pool_proj"
  param {
    lr_mult: 1
    decay_mult: 1
  }
  param {
    lr_mult: 2
    decay_mult: 0
  }
  convolution_param {
    num_output: 64
    kernel_size: 1
    weight_filler {
      type: "xavier"
    }
    bias_filler {
      type: "constant"
      value: 0.2
    }
  }
}
layer {
  name: "inception_4b/relu_pool_proj"
  type: "ReLU"
  bottom: "inception_4b/pool_proj"
  top: "inception_4b/pool_proj"
}
layer {
  name: "inception_4b/output"
  type: "Concat"
  bottom: "inception_4b/1x1"
  bottom: "inception_4b/3x3"
  bottom: "inception_4b/5x5"
  bottom: "inception_4b/pool_proj"
  top: "inception_4b/output"
}
layer {
  name: "inception_4c/1x1"
  type: "Convolution"
  bottom: "inception_4b/output"
  top: "inception_4c/1x1"
  param {
    lr_mult: 1
    decay_mult: 1
  }
  param {
    lr_mult: 2
    decay_mult: 0
  }
  convolution_param {
    num_output: 128
    kernel_size: 1
    weight_filler {
      type: "xavier"
    }
    bias_filler {
      type: "constant"
      value: 0.2
    }
  }
}
layer {
  name: "inception_4c/relu_1x1"
  type: "ReLU"
  bottom: "inception_4c/1x1"
  top: "inception_4c/1x1"
}
layer {
  name: "inception_4c/3x3_reduce"
  type: "Convolution"
  bottom: "inception_4b/output"
  top: "inception_4c/3x3_reduce"
  param {
    lr_mult: 1
    decay_mult: 1
  }
  param {
    lr_mult: 2
    decay_mult: 0
  }
  convolution_param {
    num_output: 128
    kernel_size: 1
    weight_filler {
      type: "xavier"
    }
    bias_filler {
      type: "constant"
      value: 0.2
    }
  }
}
layer {
  name: "inception_4c/relu_3x3_reduce"
  type: "ReLU"
  bottom: "inception_4c/3x3_reduce"
  top: "inception_4c/3x3_reduce"
}
layer {
  name: "inception_4c/3x3"
  type: "Convolution"
  bottom: "inception_4c/3x3_reduce"
  top: "inception_4c/3x3"
  param {
    lr_mult: 1
    decay_mult: 1
  }
  param {
    lr_mult: 2
    decay_mult: 0
  }
  convolution_param {
    num_output: 256
    pad: 1
    kernel_size: 3
    weight_filler {
      type: "xavier"
    }
    bias_filler {
      type: "constant"
      value: 0.2
    }
  }
}
layer {
  name: "inception_4c/relu_3x3"
  type: "ReLU"
  bottom: "inception_4c/3x3"
  top: "inception_4c/3x3"
}
layer {
  name: "inception_4c/5x5_reduce"
  type: "Convolution"
  bottom: "inception_4b/output"
  top: "inception_4c/5x5_reduce"
  param {
    lr_mult: 1
    decay_mult: 1
  }
  param {
    lr_mult: 2
    decay_mult: 0
  }
  convolution_param {
    num_output: 24
    kernel_size: 1
    weight_filler {
      type: "xavier"
    }
    bias_filler {
      type: "constant"
      value: 0.2
    }
  }
}
layer {
  name: "inception_4c/relu_5x5_reduce"
  type: "ReLU"
  bottom: "inception_4c/5x5_reduce"
  top: "inception_4c/5x5_reduce"
}
layer {
  name: "inception_4c/5x5"
  type: "Convolution"
  bottom: "inception_4c/5x5_reduce"
  top: "inception_4c/5x5"
  param {
    lr_mult: 1
    decay_mult: 1
  }
  param {
    lr_mult: 2
    decay_mult: 0
  }
  convolution_param {
    num_output: 64
    pad: 2
    kernel_size: 5
    weight_filler {
      type: "xavier"
    }
    bias_filler {
      type: "constant"
      value: 0.2
    }
  }
}
layer {
  name: "inception_4c/relu_5x5"
  type: "ReLU"
  bottom: "inception_4c/5x5"
  top: "inception_4c/5x5"
}
layer {
  name: "inception_4c/pool"
  type: "Pooling"
  bottom: "inception_4b/output"
  top: "inception_4c/pool"
  pooling_param {
    pool: MAX
    kernel_size: 3
    stride: 1
    pad: 1
  }
}
layer {
  name: "inception_4c/pool_proj"
  type: "Convolution"
  bottom: "inception_4c/pool"
  top: "inception_4c/pool_proj"
  param {
    lr_mult: 1
    decay_mult: 1
  }
  param {
    lr_mult: 2
    decay_mult: 0
  }
  convolution_param {
    num_output: 64
    kernel_size: 1
    weight_filler {
      type: "xavier"
    }
    bias_filler {
      type: "constant"
      value: 0.2
    }
  }
}
layer {
  name: "inception_4c/relu_pool_proj"
  type: "ReLU"
  bottom: "inception_4c/pool_proj"
  top: "inception_4c/pool_proj"
}
layer {
  name: "inception_4c/output"
  type: "Concat"
  bottom: "inception_4c/1x1"
  bottom: "inception_4c/3x3"
  bottom: "inception_4c/5x5"
  bottom: "inception_4c/pool_proj"
  top: "inception_4c/output"
}
layer {
  name: "inception_4d/1x1"
  type: "Convolution"
  bottom: "inception_4c/output"
  top: "inception_4d/1x1"
  param {
    lr_mult: 1
    decay_mult: 1
  }
  param {
    lr_mult: 2
    decay_mult: 0
  }
  convolution_param {
    num_output: 112
    kernel_size: 1
    weight_filler {
      type: "xavier"
    }
    bias_filler {
      type: "constant"
      value: 0.2
    }
  }
}
layer {
  name: "inception_4d/relu_1x1"
  type: "ReLU"
  bottom: "inception_4d/1x1"
  top: "inception_4d/1x1"
}
layer {
  name: "inception_4d/3x3_reduce"
  type: "Convolution"
  bottom: "inception_4c/output"
  top: "inception_4d/3x3_reduce"
  param {
    lr_mult: 1
    decay_mult: 1
  }
  param {
    lr_mult: 2
    decay_mult: 0
  }
  convolution_param {
    num_output: 144
    kernel_size: 1
    weight_filler {
      type: "xavier"
    }
    bias_filler {
      type: "constant"
      value: 0.2
    }
  }
}
layer {
  name: "inception_4d/relu_3x3_reduce"
  type: "ReLU"
  bottom: "inception_4d/3x3_reduce"
  top: "inception_4d/3x3_reduce"
}
layer {
  name: "inception_4d/3x3"
  type: "Convolution"
  bottom: "inception_4d/3x3_reduce"
  top: "inception_4d/3x3"
  param {
    lr_mult: 1
    decay_mult: 1
  }
  param {
    lr_mult: 2
    decay_mult: 0
  }
  convolution_param {
    num_output: 288
    pad: 1
    kernel_size: 3
    weight_filler {
      type: "xavier"
    }
    bias_filler {
      type: "constant"
      value: 0.2
    }
  }
}
layer {
  name: "inception_4d/relu_3x3"
  type: "ReLU"
  bottom: "inception_4d/3x3"
  top: "inception_4d/3x3"
}
layer {
  name: "inception_4d/5x5_reduce"
  type: "Convolution"
  bottom: "inception_4c/output"
  top: "inception_4d/5x5_reduce"
  param {
    lr_mult: 1
    decay_mult: 1
  }
  param {
    lr_mult: 2
    decay_mult: 0
  }
  convolution_param {
    num_output: 32
    kernel_size: 1
    weight_filler {
      type: "xavier"
    }
    bias_filler {
      type: "constant"
      value: 0.2
    }
  }
}
layer {
  name: "inception_4d/relu_5x5_reduce"
  type: "ReLU"
  bottom: "inception_4d/5x5_reduce"
  top: "inception_4d/5x5_reduce"
}
layer {
  name: "inception_4d/5x5"
  type: "Convolution"
  bottom: "inception_4d/5x5_reduce"
  top: "inception_4d/5x5"
  param {
    lr_mult: 1
    decay_mult: 1
  }
  param {
    lr_mult: 2
    decay_mult: 0
  }
  convolution_param {
    num_output: 64
    pad: 2
    kernel_size: 5
    weight_filler {
      type: "xavier"
    }
    bias_filler {
      type: "constant"
      value: 0.2
    }
  }
}
layer {
  name: "inception_4d/relu_5x5"
  type: "ReLU"
  bottom: "inception_4d/5x5"
  top: "inception_4d/5x5"
}
layer {
  name: "inception_4d/pool"
  type: "Pooling"
  bottom: "inception_4c/output"
  top: "inception_4d/pool"
  pooling_param {
    pool: MAX
    kernel_size: 3
    stride: 1
    pad: 1
  }
}
layer {
  name: "inception_4d/pool_proj"
  type: "Convolution"
  bottom: "inception_4d/pool"
  top: "inception_4d/pool_proj"
  param {
    lr_mult: 1
    decay_mult: 1
  }
  param {
    lr_mult: 2
    decay_mult: 0
  }
  convolution_param {
    num_output: 64
    kernel_size: 1
    weight_filler {
      type: "xavier"
    }
    bias_filler {
      type: "constant"
      value: 0.2
    }
  }
}
layer {
  name: "inception_4d/relu_pool_proj"
  type: "ReLU"
  bottom: "inception_4d/pool_proj"
  top: "inception_4d/pool_proj"
}
layer {
  name: "inception_4d/output"
  type: "Concat"
  bottom: "inception_4d/1x1"
  bottom: "inception_4d/3x3"
  bottom: "inception_4d/5x5"
  bottom: "inception_4d/pool_proj"
  top: "inception_4d/output"
}
layer {
  name: "loss2/ave_pool"
  type: "Pooling"
  bottom: "inception_4d/output"
  top: "loss2/ave_pool"
  pooling_param {
    pool: AVE
    kernel_size: 5
    stride: 3
  }
}
layer {
  name: "loss2/conv"
  type: "Convolution"
…
I1220 19:06:06.117663 31316 net.cpp:84] Creating Layer inception_4c/1x1
I1220 19:06:06.117671 31316 net.cpp:380] inception_4c/1x1 <- inception_4b/output_inception_4b/output_0_split_0
I1220 19:06:06.117681 31316 net.cpp:338] inception_4c/1x1 -> inception_4c/1x1
I1220 19:06:06.117692 31316 net.cpp:113] Setting up inception_4c/1x1
I1220 19:06:06.119387 31316 net.cpp:120] Top shape: 50 128 14 14 (1254400)
I1220 19:06:06.119408 31316 layer_factory.hpp:74] Creating layer inception_4c/relu_1x1
I1220 19:06:06.119420 31316 net.cpp:84] Creating Layer inception_4c/relu_1x1
I1220 19:06:06.119427 31316 net.cpp:380] inception_4c/relu_1x1 <- inception_4c/1x1
I1220 19:06:06.119439 31316 net.cpp:327] inception_4c/relu_1x1 -> inception_4c/1x1 (in-place)
I1220 19:06:06.119451 31316 net.cpp:113] Setting up inception_4c/relu_1x1
I1220 19:06:06.120203 31316 net.cpp:120] Top shape: 50 128 14 14 (1254400)
I1220 19:06:06.120220 31316 layer_factory.hpp:74] Creating layer inception_4c/3x3_reduce
I1220 19:06:06.120235 31316 net.cpp:84] Creating Layer inception_4c/3x3_reduce
I1220 19:06:06.120244 31316 net.cpp:380] inception_4c/3x3_reduce <- inception_4b/output_inception_4b/output_0_split_1
I1220 19:06:06.120255 31316 net.cpp:338] inception_4c/3x3_reduce -> inception_4c/3x3_reduce
I1220 19:06:06.120268 31316 net.cpp:113] Setting up inception_4c/3x3_reduce
I1220 19:06:06.122319 31316 net.cpp:120] Top shape: 50 128 14 14 (1254400)
I1220 19:06:06.122341 31316 layer_factory.hpp:74] Creating layer inception_4c/relu_3x3_reduce
I1220 19:06:06.122352 31316 net.cpp:84] Creating Layer inception_4c/relu_3x3_reduce
I1220 19:06:06.122360 31316 net.cpp:380] inception_4c/relu_3x3_reduce <- inception_4c/3x3_reduce
I1220 19:06:06.122373 31316 net.cpp:327] inception_4c/relu_3x3_reduce -> inception_4c/3x3_reduce (in-place)
I1220 19:06:06.122385 31316 net.cpp:113] Setting up inception_4c/relu_3x3_reduce
I1220 19:06:06.122485 31316 net.cpp:120] Top shape: 50 128 14 14 (1254400)
I1220 19:06:06.122496 31316 layer_factory.hpp:74] Creating layer inception_4c/3x3
I1220 19:06:06.122511 31316 net.cpp:84] Creating Layer inception_4c/3x3
I1220 19:06:06.122519 31316 net.cpp:380] inception_4c/3x3 <- inception_4c/3x3_reduce
I1220 19:06:06.122531 31316 net.cpp:338] inception_4c/3x3 -> inception_4c/3x3
I1220 19:06:06.122544 31316 net.cpp:113] Setting up inception_4c/3x3
I1220 19:06:06.127336 31316 net.cpp:120] Top shape: 50 256 14 14 (2508800)
I1220 19:06:06.127387 31316 layer_factory.hpp:74] Creating layer inception_4c/relu_3x3
I1220 19:06:06.127401 31316 net.cpp:84] Creating Layer inception_4c/relu_3x3
I1220 19:06:06.127410 31316 net.cpp:380] inception_4c/relu_3x3 <- inception_4c/3x3
I1220 19:06:06.127421 31316 net.cpp:327] inception_4c/relu_3x3 -> inception_4c/3x3 (in-place)
I1220 19:06:06.127432 31316 net.cpp:113] Setting up inception_4c/relu_3x3
I1220 19:06:06.127535 31316 net.cpp:120] Top shape: 50 256 14 14 (2508800)
I1220 19:06:06.127544 31316 layer_factory.hpp:74] Creating layer inception_4c/5x5_reduce
I1220 19:06:06.127557 31316 net.cpp:84] Creating Layer inception_4c/5x5_reduce
I1220 19:06:06.127565 31316 net.cpp:380] inception_4c/5x5_reduce <- inception_4b/output_inception_4b/output_0_split_2
I1220 19:06:06.127578 31316 net.cpp:338] inception_4c/5x5_reduce -> inception_4c/5x5_reduce
I1220 19:06:06.127590 31316 net.cpp:113] Setting up inception_4c/5x5_reduce
I1220 19:06:06.128520 31316 net.cpp:120] Top shape: 50 24 14 14 (235200)
I1220 19:06:06.128540 31316 layer_factory.hpp:74] Creating layer inception_4c/relu_5x5_reduce
I1220 19:06:06.128551 31316 net.cpp:84] Creating Layer inception_4c/relu_5x5_reduce
I1220 19:06:06.128559 31316 net.cpp:380] inception_4c/relu_5x5_reduce <- inception_4c/5x5_reduce
I1220 19:06:06.128571 31316 net.cpp:327] inception_4c/relu_5x5_reduce -> inception_4c/5x5_reduce (in-place)
I1220 19:06:06.128582 31316 net.cpp:113] Setting up inception_4c/relu_5x5_reduce
I1220 19:06:06.129307 31316 net.cpp:120] Top shape: 50 24 14 14 (235200)
I1220 19:06:06.129324 31316 layer_factory.hpp:74] Creating layer inception_4c/5x5
I1220 19:06:06.129339 31316 net.cpp:84] Creating Layer inception_4c/5x5
I1220 19:06:06.129348 31316 net.cpp:380] inception_4c/5x5 <- inception_4c/5x5_reduce
I1220 19:06:06.129362 31316 net.cpp:338] inception_4c/5x5 -> inception_4c/5x5
I1220 19:06:06.129375 31316 net.cpp:113] Setting up inception_4c/5x5
I1220 19:06:06.130771 31316 net.cpp:120] Top shape: 50 64 14 14 (627200)
I1220 19:06:06.130792 31316 layer_factory.hpp:74] Creating layer inception_4c/relu_5x5
I1220 19:06:06.130805 31316 net.cpp:84] Creating Layer inception_4c/relu_5x5
I1220 19:06:06.130815 31316 net.cpp:380] inception_4c/relu_5x5 <- inception_4c/5x5
I1220 19:06:06.130825 31316 net.cpp:327] inception_4c/relu_5x5 -> inception_4c/5x5 (in-place)
I1220 19:06:06.130836 31316 net.cpp:113] Setting up inception_4c/relu_5x5
I1220 19:06:06.130952 31316 net.cpp:120] Top shape: 50 64 14 14 (627200)
I1220 19:06:06.130976 31316 layer_factory.hpp:74] Creating layer inception_4c/pool
I1220 19:06:06.130986 31316 layer_factory.cpp:56] CUDNN does not support padding or multiple tops. Using Caffe's own pooling layer.
I1220 19:06:06.130996 31316 net.cpp:84] Creating Layer inception_4c/pool
I1220 19:06:06.131005 31316 net.cpp:380] inception_4c/pool <- inception_4b/output_inception_4b/output_0_split_3
I1220 19:06:06.131017 31316 net.cpp:338] inception_4c/pool -> inception_4c/pool
I1220 19:06:06.131029 31316 net.cpp:113] Setting up inception_4c/pool
I1220 19:06:06.131043 31316 net.cpp:120] Top shape: 50 512 14 14 (5017600)
I1220 19:06:06.131052 31316 layer_factory.hpp:74] Creating layer inception_4c/pool_proj
I1220 19:06:06.131064 31316 net.cpp:84] Creating Layer inception_4c/pool_proj
I1220 19:06:06.131072 31316 net.cpp:380] inception_4c/pool_proj <- inception_4c/pool
I1220 19:06:06.131085 31316 net.cpp:338] inception_4c/pool_proj -> inception_4c/pool_proj
I1220 19:06:06.131096 31316 net.cpp:113] Setting up inception_4c/pool_proj
I1220 19:06:06.139258 31316 net.cpp:120] Top shape: 50 64 14 14 (627200)
I1220 19:06:06.139322 31316 layer_factory.hpp:74] Creating layer inception_4c/relu_pool_proj
I1220 19:06:06.139341 31316 net.cpp:84] Creating Layer inception_4c/relu_pool_proj
I1220 19:06:06.139353 31316 net.cpp:380] inception_4c/relu_pool_proj <- inception_4c/pool_proj
I1220 19:06:06.139366 31316 net.cpp:327] inception_4c/relu_pool_proj -> inception_4c/pool_proj (in-place)
I1220 19:06:06.139381 31316 net.cpp:113] Setting up inception_4c/relu_pool_proj
I1220 19:06:06.139484 31316 net.cpp:120] Top shape: 50 64 14 14 (627200)
I1220 19:06:06.139494 31316 layer_factory.hpp:74] Creating layer inception_4c/output
I1220 19:06:06.139506 31316 net.cpp:84] Creating Layer inception_4c/output
I1220 19:06:06.139514 31316 net.cpp:380] inception_4c/output <- inception_4c/1x1
I1220 19:06:06.139524 31316 net.cpp:380] inception_4c/output <- inception_4c/3x3
I1220 19:06:06.139533 31316 net.cpp:380] inception_4c/output <- inception_4c/5x5
I1220 19:06:06.139540 31316 net.cpp:380] inception_4c/output <- inception_4c/pool_proj
I1220 19:06:06.139550 31316 net.cpp:338] inception_4c/output -> inception_4c/output
I1220 19:06:06.139562 31316 net.cpp:113] Setting up inception_4c/output
I1220 19:06:06.139575 31316 net.cpp:120] Top shape: 50 512 14 14 (5017600)
I1220 19:06:06.139582 31316 layer_factory.hpp:74] Creating layer inception_4c/output_inception_4c/output_0_split
I1220 19:06:06.139592 31316 net.cpp:84] Creating Layer inception_4c/output_inception_4c/output_0_split
I1220 19:06:06.139600 31316 net.cpp:380] inception_4c/output_inception_4c/output_0_split <- inception_4c/output
I1220 19:06:06.139612 31316 net.cpp:338] inception_4c/output_inception_4c/output_0_split -> inception_4c/output_inception_4c/output_0_split_0
I1220 19:06:06.139624 31316 net.cpp:338] inception_4c/output_inception_4c/output_0_split -> inception_4c/output_inception_4c/output_0_split_1
I1220 19:06:06.139636 31316 net.cpp:338] inception_4c/output_inception_4c/output_0_split -> inception_4c/output_inception_4c/output_0_split_2
I1220 19:06:06.139647 31316 net.cpp:338] inception_4c/output_inception_4c/output_0_split -> inception_4c/output_inception_4c/output_0_split_3
I1220 19:06:06.139659 31316 net.cpp:113] Setting up inception_4c/output_inception_4c/output_0_split
I1220 19:06:06.139672 31316 net.cpp:120] Top shape: 50 512 14 14 (5017600)
I1220 19:06:06.139680 31316 net.cpp:120] Top shape: 50 512 14 14 (5017600)
I1220 19:06:06.139688 31316 net.cpp:120] Top shape: 50 512 14 14 (5017600)
I1220 19:06:06.139698 31316 net.cpp:120] Top shape: 50 512 14 14 (5017600)
I1220 19:06:06.139704 31316 layer_factory.hpp:74] Creating layer inception_4d/1x1
I1220 19:06:06.139717 31316 net.cpp:84] Creating Layer inception_4d/1x1
I1220 19:06:06.139725 31316 net.cpp:380] inception_4d/1x1 <- inception_4c/output_inception_4c/output_0_split_0
I1220 19:06:06.139737 31316 net.cpp:338] inception_4d/1x1 -> inception_4d/1x1
I1220 19:06:06.139750 31316 net.cpp:113] Setting up inception_4d/1x1
I1220 19:06:06.146625 31316 net.cpp:120] Top shape: 50 112 14 14 (1097600)
I1220 19:06:06.146714 31316 layer_factory.hpp:74] Creating layer inception_4d/relu_1x1
I1220 19:06:06.146730 31316 net.cpp:84] Creating Layer inception_4d/relu_1x1
I1220 19:06:06.146744 31316 net.cpp:380] inception_4d/relu_1x1 <- inception_4d/1x1
I1220 19:06:06.146757 31316 net.cpp:327] inception_4d/relu_1x1 -> inception_4d/1x1 (in-place)
I1220 19:06:06.146773 31316 net.cpp:113] Setting up inception_4d/relu_1x1
I1220 19:06:06.146877 31316 net.cpp:120] Top shape: 50 112 14 14 (1097600)
I1220 19:06:06.146888 31316 layer_factory.hpp:74] Creating layer inception_4d/3x3_reduce
I1220 19:06:06.146916 31316 net.cpp:84] Creating Layer inception_4d/3x3_reduce
I1220 19:06:06.146926 31316 net.cpp:380] inception_4d/3x3_reduce <- inception_4c/output_inception_4c/output_0_split_1
I1220 19:06:06.146939 31316 net.cpp:338] inception_4d/3x3_reduce -> inception_4d/3x3_reduce
I1220 19:06:06.146955 31316 net.cpp:113] Setting up inception_4d/3x3_reduce
I1220 19:06:06.149142 31316 net.cpp:120] Top shape: 50 144 14 14 (1411200)
I1220 19:06:06.149200 31316 layer_factory.hpp:74] Creating layer inception_4d/relu_3x3_reduce
I1220 19:06:06.149221 31316 net.cpp:84] Creating Layer inception_4d/relu_3x3_reduce
I1220 19:06:06.149235 31316 net.cpp:380] inception_4d/relu_3x3_reduce <- inception_4d/3x3_reduce
I1220 19:06:06.149250 31316 net.cpp:327] inception_4d/relu_3x3_reduce -> inception_4d/3x3_reduce (in-place)
I1220 19:06:06.149267 31316 net.cpp:113] Setting up inception_4d/relu_3x3_reduce
I1220 19:06:06.150127 31316 net.cpp:120] Top shape: 50 144 14 14 (1411200)
I1220 19:06:06.150152 31316 layer_factory.hpp:74] Creating layer inception_4d/3x3
I1220 19:06:06.150172 31316 net.cpp:84] Creating Layer inception_4d/3x3
I1220 19:06:06.150185 31316 net.cpp:380] inception_4d/3x3 <- inception_4d/3x3_reduce
I1220 19:06:06.150204 31316 net.cpp:338] inception_4d/3x3 -> inception_4d/3x3
I1220 19:06:06.150226 31316 net.cpp:113] Setting up inception_4d/3x3
I1220 19:06:06.156275 31316 net.cpp:120] Top shape: 50 288 14 14 (2822400)
I1220 19:06:06.156352 31316 layer_factory.hpp:74] Creating layer inception_4d/relu_3x3
I1220 19:06:06.156376 31316 net.cpp:84] Creating Layer inception_4d/relu_3x3
I1220 19:06:06.156391 31316 net.cpp:380] inception_4d/relu_3x3 <- inception_4d/3x3
I1220 19:06:06.156409 31316 net.cpp:327] inception_4d/relu_3x3 -> inception_4d/3x3 (in-place)
I1220 19:06:06.156426 31316 net.cpp:113] Setting up inception_4d/relu_3x3
I1220 19:06:06.156540 31316 net.cpp:120] Top shape: 50 288 14 14 (2822400)
I1220 19:06:06.156556 31316 layer_factory.hpp:74] Creating layer inception_4d/5x5_reduce
I1220 19:06:06.156576 31316 net.cpp:84] Creating Layer inception_4d/5x5_reduce
I1220 19:06:06.156590 31316 net.cpp:380] inception_4d/5x5_reduce <- inception_4c/output_inception_4c/output_0_split_2
I1220 19:06:06.156605 31316 net.cpp:338] inception_4d/5x5_reduce -> inception_4d/5x5_reduce
I1220 19:06:06.156622 31316 net.cpp:113] Setting up inception_4d/5x5_reduce
I1220 19:06:06.158500 31316 net.cpp:120] Top shape: 50 32 14 14 (313600)
I1220 19:06:06.158547 31316 layer_factory.hpp:74] Creating layer inception_4d/relu_5x5_reduce
I1220 19:06:06.158568 31316 net.cpp:84] Creating Layer inception_4d/relu_5x5_reduce
I1220 19:06:06.158582 31316 net.cpp:380] inception_4d/relu_5x5_reduce <- inception_4d/5x5_reduce
I1220 19:06:06.158596 31316 net.cpp:327] inception_4d/relu_5x5_reduce -> inception_4d/5x5_reduce (in-place)
I1220 19:06:06.158614 31316 net.cpp:113] Setting up inception_4d/relu_5x5_reduce
I1220 19:06:06.158747 31316 net.cpp:120] Top shape: 50 32 14 14 (313600)
I1220 19:06:06.158761 31316 layer_factory.hpp:74] Creating layer inception_4d/5x5
I1220 19:06:06.158782 31316 net.cpp:84] Creating Layer inception_4d/5x5
I1220 19:06:06.158793 31316 net.cpp:380] inception_4d/5x5 <- inception_4d/5x5_reduce
I1220 19:06:06.158808 31316 net.cpp:338] inception_4d/5x5 -> inception_4d/5x5
I1220 19:06:06.158826 31316 net.cpp:113] Setting up inception_4d/5x5
I1220 19:06:06.165441 31316 net.cpp:120] Top shape: 50 64 14 14 (627200)
I1220 19:06:06.165531 31316 layer_factory.hpp:74] Creating layer inception_4d/relu_5x5
I1220 19:06:06.165567 31316 net.cpp:84] Creating Layer inception_4d/relu_5x5
I1220 19:06:06.165581 31316 net.cpp:380] inception_4d/relu_5x5 <- inception_4d/5x5
I1220 19:06:06.165597 31316 net.cpp:327] inception_4d/relu_5x5 -> inception_4d/5x5 (in-place)
I1220 19:06:06.165613 31316 net.cpp:113] Setting up inception_4d/relu_5x5
I1220 19:06:06.165724 31316 net.cpp:120] Top shape: 50 64 14 14 (627200)
I1220 19:06:06.165735 31316 layer_factory.hpp:74] Creating layer inception_4d/pool
I1220 19:06:06.165745 31316 layer_factory.cpp:56] CUDNN does not support padding or multiple tops. Using Caffe's own pooling layer.
I1220 19:06:06.165758 31316 net.cpp:84] Creating Layer inception_4d/pool
I1220 19:06:06.165768 31316 net.cpp:380] inception_4d/pool <- inception_4c/output_inception_4c/output_0_split_3
I1220 19:06:06.165781 31316 net.cpp:338] inception_4d/pool -> inception_4d/pool
I1220 19:06:06.165796 31316 net.cpp:113] Setting up inception_4d/pool
I1220 19:06:06.165817 31316 net.cpp:120] Top shape: 50 512 14 14 (5017600)
I1220 19:06:06.165827 31316 layer_factory.hpp:74] Creating layer inception_4d/pool_proj
I1220 19:06:06.165848 31316 net.cpp:84] Creating Layer inception_4d/pool_proj
I1220 19:06:06.165858 31316 net.cpp:380] inception_4d/pool_proj <- inception_4d/pool
I1220 19:06:06.165873 31316 net.cpp:338] inception_4d/pool_proj -> inception_4d/pool_proj
I1220 19:06:06.165887 31316 net.cpp:113] Setting up inception_4d/pool_proj
I1220 19:06:06.167847 31316 net.cpp:120] Top shape: 50 64 14 14 (627200)
I1220 19:06:06.167896 31316 layer_factory.hpp:74] Creating layer inception_4d/relu_pool_proj
I1220 19:06:06.167915 31316 net.cpp:84] Creating Layer inception_4d/relu_pool_proj
I1220 19:06:06.167927 31316 net.cpp:380] inception_4d/relu_pool_proj <- inception_4d/pool_proj
I1220 19:06:06.167940 31316 net.cpp:327] inception_4d/relu_pool_proj -> inception_4d/pool_proj (in-place)
I1220 19:06:06.167956 31316 net.cpp:113] Setting up inception_4d/relu_pool_proj
I1220 19:06:06.174849 31316 net.cpp:120] Top shape: 50 64 14 14 (627200)
I1220 19:06:06.174911 31316 layer_factory.hpp:74] Creating layer inception_4d/output
I1220 19:06:06.174929 31316 net.cpp:84] Creating Layer inception_4d/output
I1220 19:06:06.174942 31316 net.cpp:380] inception_4d/output <- inception_4d/1x1
I1220 19:06:06.174958 31316 net.cpp:380] inception_4d/output <- inception_4d/3x3
I1220 19:06:06.174969 31316 net.cpp:380] inception_4d/output <- inception_4d/5x5
I1220 19:06:06.174980 31316 net.cpp:380] inception_4d/output <- inception_4d/pool_proj
I1220 19:06:06.174995 31316 net.cpp:338] inception_4d/output -> inception_4d/output
I1220 19:06:06.175014 31316 net.cpp:113] Setting up inception_4d/output
I1220 19:06:06.175031 31316 net.cpp:120] Top shape: 50 528 14 14 (5174400)
I1220 19:06:06.175040 31316 layer_factory.hpp:74] Creating layer inception_4d/output_inception_4d/output_0_split
I1220 19:06:06.175052 31316 net.cpp:84] Creating Layer inception_4d/output_inception_4d/output_0_split
I1220 19:06:06.175061 31316 net.cpp:380] inception_4d/output_inception_4d/output_0_split <- inception_4d/output
I1220 19:06:06.175076 31316 net.cpp:338] inception_4d/output_inception_4d/output_0_split -> inception_4d/output_inception_4d/output_0_split_0
I1220 19:06:06.175091 31316 net.cpp:338] inception_4d/output_inception_4d/output_0_split -> inception_4d/output_inception_4d/output_0_split_1
I1220 19:06:06.175104 31316 net.cpp:338] inception_4d/output_inception_4d/output_0_split -> inception_4d/output_inception_4d/output_0_split_2
I1220 19:06:06.175118 31316 net.cpp:338] inception_4d/output_inception_4d/output_0_split -> inception_4d/output_inception_4d/output_0_split_3
I1220 19:06:06.175130 31316 net.cpp:338] inception_4d/output_inception_4d/output_0_split -> inception_4d/output_inception_4d/output_0_split_4
I1220 19:06:06.175142 31316 net.cpp:113] Setting up inception_4d/output_inception_4d/output_0_split
I1220 19:06:06.175153 31316 net.cpp:120] Top shape: 50 528 14 14 (5174400)
I1220 19:06:06.175180 31316 net.cpp:120] Top shape: 50 528 14 14 (5174400)
I1220 19:06:06.175207 31316 net.cpp:120] Top shape: 50 528 14 14 (5174400)
I1220 19:06:06.175217 31316 net.cpp:120] Top shape: 50 528 14 14 (5174400)
I1220 19:06:06.175227 31316 net.cpp:120] Top shape: 50 528 14 14 (5174400)
I1220 19:06:06.175235 31316 layer_factory.hpp:74] Creating layer loss2/ave_pool
I1220 19:06:06.175252 31316 net.cpp:84] Creating Layer loss2/ave_pool
I1220 19:06:06.175261 31316 net.cpp:380] loss2/ave_pool <- inception_4d/output_inception_4d/output_0_split_0
I1220 19:06:06.175274 31316 net.cpp:338] loss2/ave_pool -> loss2/ave_pool
I1220 19:06:06.175287 31316 net.cpp:113] Setting up loss2/ave_pool
I1220 19:06:06.175415 31316 net.cpp:120] Top shape: 50 528 4 4 (422400)
I1220 19:06:06.175428 31316 layer_factory.hpp:74] Creating layer loss2/conv
I1220 19:06:06.175448 31316 net.cpp:84] Creating Layer loss2/conv
I1220 19:06:06.175457 31316 net.cpp:380] loss2/conv <- loss2/ave_pool
I1220 19:06:06.175469 31316 net.cpp:338] loss2/conv -> loss2/conv
I1220 19:06:06.175488 31316 net.cpp:113] Setting up loss2/conv
I1220 19:06:06.177393 31316 net.cpp:120] Top shape: 50 128 4 4 (102400)
I1220 19:06:06.177446 31316 layer_factory.hpp:74] Creating layer loss2/relu_conv
I1220 19:06:06.177460 31316 net.cpp:84] Creating Layer loss2/relu_conv
I1220 19:06:06.177477 31316 net.cpp:380] loss2/relu_conv <- loss2/conv
I1220 19:06:06.177489 31316 net.cpp:327] loss2/relu_conv -> loss2/conv (in-place)
I1220 19:06:06.177503 31316 net.cpp:113] Setting up loss2/relu_conv
I1220 19:06:06.177613 31316 net.cpp:120] Top shape: 50 128 4 4 (102400)
I1220 19:06:06.177624 31316 layer_factory.hpp:74] Creating layer loss2/fc
I1220 19:06:06.177639 31316 net.cpp:84] Creating Layer loss2/fc
I1220 19:06:06.177649 31316 net.cpp:380] loss2/fc <- loss2/conv
I1220 19:06:06.177664 31316 net.cpp:338] loss2/fc -> loss2/fc
I1220 19:06:06.177680 31316 net.cpp:113] Setting up loss2/fc
I1220 19:06:07.615269 31316 net.cpp:120] Top shape: 50 1024 (51200)
I1220 19:06:07.615309 31316 layer_factory.hpp:74] Creating layer loss2/relu_fc
I1220 19:06:07.615321 31316 net.cpp:84] Creating Layer loss2/relu_fc
I1220 19:06:07.615331 31316 net.cpp:380] loss2/relu_fc <- loss2/fc
I1220 19:06:07.615341 31316 net.cpp:327] loss2/relu_fc -> loss2/fc (in-place)
I1220 19:06:07.615351 31316 net.cpp:113] Setting up loss2/relu_fc
I1220 19:06:07.615486 31316 net.cpp:120] Top shape: 50 1024 (51200)
I1220 19:06:07.615495 31316 layer_factory.hpp:74] Creating layer loss2/drop_fc
I1220 19:06:07.615505 31316 net.cpp:84] Creating Layer loss2/drop_fc
I1220 19:06:07.615510 31316 net.cpp:380] loss2/drop_fc <- loss2/fc
I1220 19:06:07.615519 31316 net.cpp:327] loss2/drop_fc -> loss2/fc (in-place)
I1220 19:06:07.615525 31316 net.cpp:113] Setting up loss2/drop_fc
I1220 19:06:07.615532 31316 net.cpp:120] Top shape: 50 1024 (51200)
I1220 19:06:07.615537 31316 layer_factory.hpp:74] Creating layer loss2/classifier_kaggle
I1220 19:06:07.615546 31316 net.cpp:84] Creating Layer loss2/classifier_kaggle
I1220 19:06:07.615550 31316 net.cpp:380] loss2/classifier_kaggle <- loss2/fc
I1220 19:06:07.615559 31316 net.cpp:338] loss2/classifier_kaggle -> loss2/classifier_kaggle
I1220 19:06:07.615571 31316 net.cpp:113] Setting up loss2/classifier_kaggle
I1220 19:06:07.620415 31316 net.cpp:120] Top shape: 50 447 (22350)
I1220 19:06:07.620451 31316 layer_factory.hpp:74] Creating layer loss2/classifier_kaggle_loss2/classifier_kaggle_0_split
I1220 19:06:07.620462 31316 net.cpp:84] Creating Layer loss2/classifier_kaggle_loss2/classifier_kaggle_0_split
I1220 19:06:07.620471 31316 net.cpp:380] loss2/classifier_kaggle_loss2/classifier_kaggle_0_split <- loss2/classifier_kaggle
I1220 19:06:07.620481 31316 net.cpp:338] loss2/classifier_kaggle_loss2/classifier_kaggle_0_split -> loss2/classifier_kaggle_loss2/classifier_kaggle_0_split_0
I1220 19:06:07.620493 31316 net.cpp:338] loss2/classifier_kaggle_loss2/classifier_kaggle_0_split -> loss2/classifier_kaggle_loss2/classifier_kaggle_0_split_1
I1220 19:06:07.620501 31316 net.cpp:338] loss2/classifier_kaggle_loss2/classifier_kaggle_0_split -> loss2/classifier_kaggle_loss2/classifier_kaggle_0_split_2
I1220 19:06:07.620532 31316 net.cpp:113] Setting up loss2/classifier_kaggle_loss2/classifier_kaggle_0_split
I1220 19:06:07.620542 31316 net.cpp:120] Top shape: 50 447 (22350)
I1220 19:06:07.620546 31316 net.cpp:120] Top shape: 50 447 (22350)
I1220 19:06:07.620550 31316 net.cpp:120] Top shape: 50 447 (22350)
I1220 19:06:07.620555 31316 layer_factory.hpp:74] Creating layer loss2/loss
I1220 19:06:07.620561 31316 net.cpp:84] Creating Layer loss2/loss
I1220 19:06:07.620568 31316 net.cpp:380] loss2/loss <- loss2/classifier_kaggle_loss2/classifier_kaggle_0_split_0
I1220 19:06:07.620575 31316 net.cpp:380] loss2/loss <- label_data_1_split_3
I1220 19:06:07.620581 31316 net.cpp:338] loss2/loss -> loss2/loss1
…
I1220 19:06:07.621265 31316 net.cpp:338] loss2/top-5 -> loss2/top-5
I1220 19:06:07.621273 31316 net.cpp:113] Setting up loss2/top-5
I1220 19:06:07.621279 31316 net.cpp:120] Top shape: (1)
I1220 19:06:07.621282 31316 layer_factory.hpp:74] Creating layer inception_4e/1x1
I1220 19:06:07.621294 31316 net.cpp:84] Creating Layer inception_4e/1x1
I1220 19:06:07.621299 31316 net.cpp:380] inception_4e/1x1 <- inception_4d/output_inception_4d/output_0_split_1
I1220 19:06:07.621306 31316 net.cpp:338] inception_4e/1x1 -> inception_4e/1x1
I1220 19:06:07.621315 31316 net.cpp:113] Setting up inception_4e/1x1
I1220 19:06:07.623383 31316 net.cpp:120] Top shape: 50 256 14 14 (2508800)
I1220 19:06:07.623416 31316 layer_factory.hpp:74] Creating layer inception_4e/relu_1x1
I1220 19:06:07.623430 31316 net.cpp:84] Creating Layer inception_4e/relu_1x1
I1220 19:06:07.623436 31316 net.cpp:380] inception_4e/relu_1x1 <- inception_4e/1x1
I1220 19:06:07.623445 31316 net.cpp:327] inception_4e/relu_1x1 -> inception_4e/1x1 (in-place)
I1220 19:06:07.623453 31316 net.cpp:113] Setting up inception_4e/relu_1x1
I1220 19:06:07.623523 31316 net.cpp:120] Top shape: 50 256 14 14 (2508800)
I1220 19:06:07.623530 31316 layer_factory.hpp:74] Creating layer inception_4e/3x3_reduce
I1220 19:06:07.623574 31316 net.cpp:84] Creating Layer inception_4e/3x3_reduce
I1220 19:06:07.623579 31316 net.cpp:380] inception_4e/3x3_reduce <- inception_4d/output_inception_4d/output_0_split_2
I1220 19:06:07.623587 31316 net.cpp:338] inception_4e/3x3_reduce -> inception_4e/3x3_reduce
I1220 19:06:07.623597 31316 net.cpp:113] Setting up inception_4e/3x3_reduce
I1220 19:06:07.625025 31316 net.cpp:120] Top shape: 50 160 14 14 (1568000)
I1220 19:06:07.625051 31316 layer_factory.hpp:74] Creating layer inception_4e/relu_3x3_reduce
I1220 19:06:07.625073 31316 net.cpp:84] Creating Layer inception_4e/relu_3x3_reduce
I1220 19:06:07.625079 31316 net.cpp:380] inception_4e/relu_3x3_reduce <- inception_4e/3x3_reduce
I1220 19:06:07.625087 31316 net.cpp:327] inception_4e/relu_3x3_reduce -> inception_4e/3x3_reduce (in-place)
I1220 19:06:07.625097 31316 net.cpp:113] Setting up inception_4e/relu_3x3_reduce
I1220 19:06:07.625179 31316 net.cpp:120] Top shape: 50 160 14 14 (1568000)
I1220 19:06:07.625196 31316 layer_factory.hpp:74] Creating layer inception_4e/3x3
I1220 19:06:07.625207 31316 net.cpp:84] Creating Layer inception_4e/3x3
I1220 19:06:07.625212 31316 net.cpp:380] inception_4e/3x3 <- inception_4e/3x3_reduce
I1220 19:06:07.625218 31316 net.cpp:338] inception_4e/3x3 -> inception_4e/3x3
I1220 19:06:07.625226 31316 net.cpp:113] Setting up inception_4e/3x3
I1220 19:06:07.630897 31316 net.cpp:120] Top shape: 50 320 14 14 (3136000)
I1220 19:06:07.630939 31316 layer_factory.hpp:74] Creating layer inception_4e/relu_3x3
I1220 19:06:07.630951 31316 net.cpp:84] Creating Layer inception_4e/relu_3x3
I1220 19:06:07.630959 31316 net.cpp:380] inception_4e/relu_3x3 <- inception_4e/3x3
I1220 19:06:07.630969 31316 net.cpp:327] inception_4e/relu_3x3 -> inception_4e/3x3 (in-place)
I1220 19:06:07.630978 31316 net.cpp:113] Setting up inception_4e/relu_3x3
I1220 19:06:07.631253 31316 net.cpp:120] Top shape: 50 320 14 14 (3136000)
I1220 19:06:07.631264 31316 layer_factory.hpp:74] Creating layer inception_4e/5x5_reduce
I1220 19:06:07.631275 31316 net.cpp:84] Creating Layer inception_4e/5x5_reduce
I1220 19:06:07.631281 31316 net.cpp:380] inception_4e/5x5_reduce <- inception_4d/output_inception_4d/output_0_split_3
I1220 19:06:07.631289 31316 net.cpp:338] inception_4e/5x5_reduce -> inception_4e/5x5_reduce
I1220 19:06:07.631300 31316 net.cpp:113] Setting up inception_4e/5x5_reduce
I1220 19:06:07.631896 31316 net.cpp:120] Top shape: 50 32 14 14 (313600)
I1220 19:06:07.631911 31316 layer_factory.hpp:74] Creating layer inception_4e/relu_5x5_reduce
I1220 19:06:07.631922 31316 net.cpp:84] Creating Layer inception_4e/relu_5x5_reduce
I1220 19:06:07.631927 31316 net.cpp:380] inception_4e/relu_5x5_reduce <- inception_4e/5x5_reduce
I1220 19:06:07.631933 31316 net.cpp:327] inception_4e/relu_5x5_reduce -> inception_4e/5x5_reduce (in-place)
I1220 19:06:07.631942 31316 net.cpp:113] Setting up inception_4e/relu_5x5_reduce
I1220 19:06:07.632014 31316 net.cpp:120] Top shape: 50 32 14 14 (313600)
I1220 19:06:07.632025 31316 layer_factory.hpp:74] Creating layer inception_4e/5x5
I1220 19:06:07.632033 31316 net.cpp:84] Creating Layer inception_4e/5x5
I1220 19:06:07.632040 31316 net.cpp:380] inception_4e/5x5 <- inception_4e/5x5_reduce
I1220 19:06:07.632047 31316 net.cpp:338] inception_4e/5x5 -> inception_4e/5x5
I1220 19:06:07.632055 31316 net.cpp:113] Setting up inception_4e/5x5
I1220 19:06:07.633630 31316 net.cpp:120] Top shape: 50 128 14 14 (1254400)
I1220 19:06:07.633656 31316 layer_factory.hpp:74] Creating layer inception_4e/relu_5x5
I1220 19:06:07.633664 31316 net.cpp:84] Creating Layer inception_4e/relu_5x5
I1220 19:06:07.633671 31316 net.cpp:380] inception_4e/relu_5x5 <- inception_4e/5x5
I1220 19:06:07.633679 31316 net.cpp:327] inception_4e/relu_5x5 -> inception_4e/5x5 (in-place)
I1220 19:06:07.633687 31316 net.cpp:113] Setting up inception_4e/relu_5x5
I1220 19:06:07.633754 31316 net.cpp:120] Top shape: 50 128 14 14 (1254400)
I1220 19:06:07.633764 31316 layer_factory.hpp:74] Creating layer inception_4e/pool
I1220 19:06:07.633770 31316 layer_factory.cpp:56] CUDNN does not support padding or multiple tops. Using Caffe's own pooling layer.
I1220 19:06:07.633776 31316 net.cpp:84] Creating Layer inception_4e/pool
I1220 19:06:07.633782 31316 net.cpp:380] inception_4e/pool <- inception_4d/output_inception_4d/output_0_split_4
I1220 19:06:07.633791 31316 net.cpp:338] inception_4e/pool -> inception_4e/pool
I1220 19:06:07.633800 31316 net.cpp:113] Setting up inception_4e/pool
I1220 19:06:07.633808 31316 net.cpp:120] Top shape: 50 528 14 14 (5174400)
I1220 19:06:07.633812 31316 layer_factory.hpp:74] Creating layer inception_4e/pool_proj
I1220 19:06:07.633824 31316 net.cpp:84] Creating Layer inception_4e/pool_proj
I1220 19:06:07.633829 31316 net.cpp:380] inception_4e/pool_proj <- inception_4e/pool
I1220 19:06:07.633837 31316 net.cpp:338] inception_4e/pool_proj -> inception_4e/pool_proj
I1220 19:06:07.633846 31316 net.cpp:113] Setting up inception_4e/pool_proj
I1220 19:06:07.635032 31316 net.cpp:120] Top shape: 50 128 14 14 (1254400)
I1220 19:06:07.635071 31316 layer_factory.hpp:74] Creating layer inception_4e/relu_pool_proj
I1220 19:06:07.635081 31316 net.cpp:84] Creating Layer inception_4e/relu_pool_proj
I1220 19:06:07.635087 31316 net.cpp:380] inception_4e/relu_pool_proj <- inception_4e/pool_proj
I1220 19:06:07.635094 31316 net.cpp:327] inception_4e/relu_pool_proj -> inception_4e/pool_proj (in-place)
I1220 19:06:07.635102 31316 net.cpp:113] Setting up inception_4e/relu_pool_proj
I1220 19:06:07.635169 31316 net.cpp:120] Top shape: 50 128 14 14 (1254400)
I1220 19:06:07.635174 31316 layer_factory.hpp:74] Creating layer inception_4e/output
I1220 19:06:07.635181 31316 net.cpp:84] Creating Layer inception_4e/output
I1220 19:06:07.635186 31316 net.cpp:380] inception_4e/output <- inception_4e/1x1
I1220 19:06:07.635192 31316 net.cpp:380] inception_4e/output <- inception_4e/3x3
I1220 19:06:07.635198 31316 net.cpp:380] inception_4e/output <- inception_4e/5x5
I1220 19:06:07.635203 31316 net.cpp:380] inception_4e/output <- inception_4e/pool_proj
I1220 19:06:07.635210 31316 net.cpp:338] inception_4e/output -> inception_4e/output
I1220 19:06:07.635216 31316 net.cpp:113] Setting up inception_4e/output
I1220 19:06:07.635224 31316 net.cpp:120] Top shape: 50 832 14 14 (8153600)
I1220 19:06:07.635229 31316 layer_factory.hpp:74] Creating layer pool4/3x3_s2
I1220 19:06:07.635238 31316 net.cpp:84] Creating Layer pool4/3x3_s2
I1220 19:06:07.635243 31316 net.cpp:380] pool4/3x3_s2 <- inception_4e/output
I1220 19:06:07.635251 31316 net.cpp:338] pool4/3x3_s2 -> pool4/3x3_s2
I1220 19:06:07.635257 31316 net.cpp:113] Setting up pool4/3x3_s2
I1220 19:06:07.635525 31316 net.cpp:120] Top shape: 50 832 7 7 (2038400)
I1220 19:06:07.635535 31316 layer_factory.hpp:74] Creating layer pool4/3x3_s2_pool4/3x3_s2_0_split
I1220 19:06:07.635543 31316 net.cpp:84] Creating Layer pool4/3x3_s2_pool4/3x3_s2_0_split
I1220 19:06:07.635548 31316 net.cpp:380] pool4/3x3_s2_pool4/3x3_s2_0_split <- pool4/3x3_s2
I1220 19:06:07.635557 31316 net.cpp:338] pool4/3x3_s2_pool4/3x3_s2_0_split -> pool4/3x3_s2_pool4/3x3_s2_0_split_0
I1220 19:06:07.635566 31316 net.cpp:338] pool4/3x3_s2_pool4/3x3_s2_0_split -> pool4/3x3_s2_pool4/3x3_s2_0_split_1
I1220 19:06:07.635573 31316 net.cpp:338] pool4/3x3_s2_pool4/3x3_s2_0_split -> pool4/3x3_s2_pool4/3x3_s2_0_split_2
I1220 19:06:07.635602 31316 net.cpp:338] pool4/3x3_s2_pool4/3x3_s2_0_split -> pool4/3x3_s2_pool4/3x3_s2_0_split_3
I1220 19:06:07.635609 31316 net.cpp:113] Setting up pool4/3x3_s2_pool4/3x3_s2_0_split
I1220 19:06:07.635617 31316 net.cpp:120] Top shape: 50 832 7 7 (2038400)
I1220 19:06:07.635622 31316 net.cpp:120] Top shape: 50 832 7 7 (2038400)
I1220 19:06:07.635628 31316 net.cpp:120] Top shape: 50 832 7 7 (2038400)
I1220 19:06:07.635633 31316 net.cpp:120] Top shape: 50 832 7 7 (2038400)
I1220 19:06:07.635637 31316 layer_factory.hpp:74] Creating layer inception_5a/1x1
I1220 19:06:07.635654 31316 net.cpp:84] Creating Layer inception_5a/1x1
I1220 19:06:07.635659 31316 net.cpp:380] inception_5a/1x1 <- pool4/3x3_s2_pool4/3x3_s2_0_split_0
I1220 19:06:07.635666 31316 net.cpp:338] inception_5a/1x1 -> inception_5a/1x1
I1220 19:06:07.635673 31316 net.cpp:113] Setting up inception_5a/1x1
I1220 19:06:07.638537 31316 net.cpp:120] Top shape: 50 256 7 7 (627200)
I1220 19:06:07.638578 31316 layer_factory.hpp:74] Creating layer inception_5a/relu_1x1
I1220 19:06:07.638591 31316 net.cpp:84] Creating Layer inception_5a/relu_1x1
I1220 19:06:07.638597 31316 net.cpp:380] inception_5a/relu_1x1 <- inception_5a/1x1
I1220 19:06:07.638609 31316 net.cpp:327] inception_5a/relu_1x1 -> inception_5a/1x1 (in-place)
I1220 19:06:07.638618 31316 net.cpp:113] Setting up inception_5a/relu_1x1
I1220 19:06:07.638689 31316 net.cpp:120] Top shape: 50 256 7 7 (627200)
I1220 19:06:07.638695 31316 layer_factory.hpp:74] Creating layer inception_5a/3x3_reduce
I1220 19:06:07.638707 31316 net.cpp:84] Creating Layer inception_5a/3x3_reduce
I1220 19:06:07.638715 31316 net.cpp:380] inception_5a/3x3_reduce <- pool4/3x3_s2_pool4/3x3_s2_0_split_1
I1220 19:06:07.638742 31316 net.cpp:338] inception_5a/3x3_reduce -> inception_5a/3x3_reduce
I1220 19:06:07.638767 31316 net.cpp:113] Setting up inception_5a/3x3_reduce
I1220 19:06:07.640736 31316 net.cpp:120] Top shape: 50 160 7 7 (392000)
I1220 19:06:07.640765 31316 layer_factory.hpp:74] Creating layer inception_5a/relu_3x3_reduce
I1220 19:06:07.640775 31316 net.cpp:84] Creating Layer inception_5a/relu_3x3_reduce
I1220 19:06:07.640781 31316 net.cpp:380] inception_5a/relu_3x3_reduce <- inception_5a/3x3_reduce
I1220 19:06:07.640791 31316 net.cpp:327] inception_5a/relu_3x3_reduce -> inception_5a/3x3_reduce (in-place)
I1220 19:06:07.640801 31316 net.cpp:113] Setting up inception_5a/relu_3x3_reduce
I1220 19:06:07.640869 31316 net.cpp:120] Top shape: 50 160 7 7 (392000)
I1220 19:06:07.640875 31316 layer_factory.hpp:74] Creating layer inception_5a/3x3
I1220 19:06:07.640885 31316 net.cpp:84] Creating Layer inception_5a/3x3
I1220 19:06:07.640889 31316 net.cpp:380] inception_5a/3x3 <- inception_5a/3x3_reduce
I1220 19:06:07.640902 31316 net.cpp:338] inception_5a/3x3 -> inception_5a/3x3
I1220 19:06:07.640910 31316 net.cpp:113] Setting up inception_5a/3x3
I1220 19:06:07.646441 31316 net.cpp:120] Top shape: 50 320 7 7 (784000)
I1220 19:06:07.646483 31316 layer_factory.hpp:74] Creating layer inception_5a/relu_3x3
I1220 19:06:07.646495 31316 net.cpp:84] Creating Layer inception_5a/relu_3x3
I1220 19:06:07.646503 31316 net.cpp:380] inception_5a/relu_3x3 <- inception_5a/3x3
I1220 19:06:07.646512 31316 net.cpp:327] inception_5a/relu_3x3 -> inception_5a/3x3 (in-place)
I1220 19:06:07.646522 31316 net.cpp:113] Setting up inception_5a/relu_3x3
I1220 19:06:07.646589 31316 net.cpp:120] Top shape: 50 320 7 7 (784000)
I1220 19:06:07.646595 31316 layer_factory.hpp:74] Creating layer inception_5a/5x5_reduce
I1220 19:06:07.646605 31316 net.cpp:84] Creating Layer inception_5a/5x5_reduce
I1220 19:06:07.646611 31316 net.cpp:380] inception_5a/5x5_reduce <- pool4/3x3_s2_pool4/3x3_s2_0_split_2
I1220 19:06:07.646623 31316 net.cpp:338] inception_5a/5x5_reduce -> inception_5a/5x5_reduce
I1220 19:06:07.646633 31316 net.cpp:113] Setting up inception_5a/5x5_reduce
I1220 19:06:07.647404 31316 net.cpp:120] Top shape: 50 32 7 7 (78400)
I1220 19:06:07.647423 31316 layer_factory.hpp:74] Creating layer inception_5a/relu_5x5_reduce
I1220 19:06:07.647433 31316 net.cpp:84] Creating Layer inception_5a/relu_5x5_reduce
I1220 19:06:07.647439 31316 net.cpp:380] inception_5a/relu_5x5_reduce <- inception_5a/5x5_reduce
I1220 19:06:07.647445 31316 net.cpp:327] inception_5a/relu_5x5_reduce -> inception_5a/5x5_reduce (in-place)
I1220 19:06:07.647452 31316 net.cpp:113] Setting up inception_5a/relu_5x5_reduce
I1220 19:06:07.647706 31316 net.cpp:120] Top shape: 50 32 7 7 (78400)
I1220 19:06:07.647716 31316 layer_factory.hpp:74] Creating layer inception_5a/5x5
I1220 19:06:07.647727 31316 net.cpp:84] Creating Layer inception_5a/5x5
I1220 19:06:07.647732 31316 net.cpp:380] inception_5a/5x5 <- inception_5a/5x5_reduce
I1220 19:06:07.647739 31316 net.cpp:338] inception_5a/5x5 -> inception_5a/5x5
I1220 19:06:07.647748 31316 net.cpp:113] Setting up inception_5a/5x5
I1220 19:06:07.649297 31316 net.cpp:120] Top shape: 50 128 7 7 (313600)
I1220 19:06:07.649322 31316 layer_factory.hpp:74] Creating layer inception_5a/relu_5x5
I1220 19:06:07.649330 31316 net.cpp:84] Creating Layer inception_5a/relu_5x5
I1220 19:06:07.649338 31316 net.cpp:380] inception_5a/relu_5x5 <- inception_5a/5x5
I1220 19:06:07.649343 31316 net.cpp:327] inception_5a/relu_5x5 -> inception_5a/5x5 (in-place)
I1220 19:06:07.649351 31316 net.cpp:113] Setting up inception_5a/relu_5x5
I1220 19:06:07.649423 31316 net.cpp:120] Top shape: 50 128 7 7 (313600)
I1220 19:06:07.649430 31316 layer_factory.hpp:74] Creating layer inception_5a/pool
I1220 19:06:07.649436 31316 layer_factory.cpp:56] CUDNN does not support padding or multiple tops. Using Caffe's own pooling layer.
I1220 19:06:07.649444 31316 net.cpp:84] Creating Layer inception_5a/pool
I1220 19:06:07.649451 31316 net.cpp:380] inception_5a/pool <- pool4/3x3_s2_pool4/3x3_s2_0_split_3
I1220 19:06:07.649469 31316 net.cpp:338] inception_5a/pool -> inception_5a/pool
I1220 19:06:07.649488 31316 net.cpp:113] Setting up inception_5a/pool
I1220 19:06:07.649498 31316 net.cpp:120] Top shape: 50 832 7 7 (2038400)
I1220 19:06:07.649502 31316 layer_factory.hpp:74] Creating layer inception_5a/pool_proj
I1220 19:06:07.649513 31316 net.cpp:84] Creating Layer inception_5a/pool_proj
I1220 19:06:07.649518 31316 net.cpp:380] inception_5a/pool_proj <- inception_5a/pool
I1220 19:06:07.649525 31316 net.cpp:338] inception_5a/pool_proj -> inception_5a/pool_proj
I1220 19:06:07.649533 31316 net.cpp:113] Setting up inception_5a/pool_proj
I1220 19:06:07.651165 31316 net.cpp:120] Top shape: 50 128 7 7 (313600)
I1220 19:06:07.651193 31316 layer_factory.hpp:74] Creating layer inception_5a/relu_pool_proj
I1220 19:06:07.651202 31316 net.cpp:84] Creating Layer inception_5a/relu_pool_proj
I1220 19:06:07.651208 31316 net.cpp:380] inception_5a/relu_pool_proj <- inception_5a/pool_proj
I1220 19:06:07.651216 31316 net.cpp:327] inception_5a/relu_pool_proj -> inception_5a/pool_proj (in-place)
I1220 19:06:07.651223 31316 net.cpp:113] Setting up inception_5a/relu_pool_proj
I1220 19:06:07.651294 31316 net.cpp:120] Top shape: 50 128 7 7 (313600)
I1220 19:06:07.651300 31316 layer_factory.hpp:74] Creating layer inception_5a/output
I1220 19:06:07.651309 31316 net.cpp:84] Creating Layer inception_5a/output
I1220 19:06:07.651314 31316 net.cpp:380] inception_5a/output <- inception_5a/1x1
I1220 19:06:07.651319 31316 net.cpp:380] inception_5a/output <- inception_5a/3x3
I1220 19:06:07.651324 31316 net.cpp:380] inception_5a/output <- inception_5a/5x5
I1220 19:06:07.651329 31316 net.cpp:380] inception_5a/output <- inception_5a/pool_proj
I1220 19:06:07.651335 31316 net.cpp:338] inception_5a/output -> inception_5a/output
I1220 19:06:07.651343 31316 net.cpp:113] Setting up inception_5a/output
I1220 19:06:07.651352 31316 net.cpp:120] Top shape: 50 832 7 7 (2038400)
I1220 19:06:07.651356 31316 layer_factory.hpp:74] Creating layer inception_5a/output_inception_5a/output_0_split
I1220 19:06:07.651365 31316 net.cpp:84] Creating Layer inception_5a/output_inception_5a/output_0_split
I1220 19:06:07.651371 31316 net.cpp:380] inception_5a/output_inception_5a/output_0_split <- inception_5a/output
I1220 19:06:07.651376 31316 net.cpp:338] inception_5a/output_inception_5a/output_0_split -> inception_5a/output_inception_5a/output_0_split_0
I1220 19:06:07.651384 31316 net.cpp:338] inception_5a/output_inception_5a/output_0_split -> inception_5a/output_inception_5a/output_0_split_1
I1220 19:06:07.651393 31316 net.cpp:338] inception_5a/output_inception_5a/output_0_split -> inception_5a/output_inception_5a/output_0_split_2
I1220 19:06:07.651401 31316 net.cpp:338] inception_5a/output_inception_5a/output_0_split -> inception_5a/output_inception_5a/output_0_split_3
I1220 19:06:07.651407 31316 net.cpp:113] Setting up inception_5a/output_inception_5a/output_0_split
I1220 19:06:07.651414 31316 net.cpp:120] Top shape: 50 832 7 7 (2038400)
I1220 19:06:07.651419 31316 net.cpp:120] Top shape: 50 832 7 7 (2038400)
I1220 19:06:07.651424 31316 net.cpp:120] Top shape: 50 832 7 7 (2038400)
I1220 19:06:07.651428 31316 net.cpp:120] Top shape: 50 832 7 7 (2038400)
I1220 19:06:07.651432 31316 layer_factory.hpp:74] Creating layer inception_5b/1x1
I1220 19:06:07.651442 31316 net.cpp:84] Creating Layer inception_5b/1x1
I1220 19:06:07.651445 31316 net.cpp:380] inception_5b/1x1 <- inception_5a/output_inception_5a/output_0_split_0
I1220 19:06:07.651454 31316 net.cpp:338] inception_5b/1x1 -> inception_5b/1x1
I1220 19:06:07.651463 31316 net.cpp:113] Setting up inception_5b/1x1
I1220 19:06:07.655515 31316 net.cpp:120] Top shape: 50 384 7 7 (940800)
I1220 19:06:07.655555 31316 layer_factory.hpp:74] Creating layer inception_5b/relu_1x1
I1220 19:06:07.655567 31316 net.cpp:84] Creating Layer inception_5b/relu_1x1
I1220 19:06:07.655575 31316 net.cpp:380] inception_5b/relu_1x1 <- inception_5b/1x1
I1220 19:06:07.655589 31316 net.cpp:327] inception_5b/relu_1x1 -> inception_5b/1x1 (in-place)
I1220 19:06:07.655604 31316 net.cpp:113] Setting up inception_5b/relu_1x1
I1220 19:06:07.655691 31316 net.cpp:120] Top shape: 50 384 7 7 (940800)
I1220 19:06:07.655710 31316 layer_factory.hpp:74] Creating layer inception_5b/3x3_reduce
I1220 19:06:07.655721 31316 net.cpp:84] Creating Layer inception_5b/3x3_reduce
I1220 19:06:07.655726 31316 net.cpp:380] inception_5b/3x3_reduce <- inception_5a/output_inception_5a/output_0_split_1
I1220 19:06:07.655747 31316 net.cpp:338] inception_5b/3x3_reduce -> inception_5b/3x3_reduce
I1220 19:06:07.655758 31316 net.cpp:113] Setting up inception_5b/3x3_reduce
I1220 19:06:07.658152 31316 net.cpp:120] Top shape: 50 192 7 7 (470400)
I1220 19:06:07.658169 31316 layer_factory.hpp:74] Creating layer inception_5b/relu_3x3_reduce
I1220 19:06:07.658177 31316 net.cpp:84] Creating Layer inception_5b/relu_3x3_reduce
I1220 19:06:07.658182 31316 net.cpp:380] inception_5b/relu_3x3_reduce <- inception_5b/3x3_reduce
I1220 19:06:07.658190 31316 net.cpp:327] inception_5b/relu_3x3_reduce -> inception_5b/3x3_reduce (in-place)
I1220 19:06:07.658198 31316 net.cpp:113] Setting up inception_5b/relu_3x3_reduce
I1220 19:06:07.658440 31316 net.cpp:120] Top shape: 50 192 7 7 (470400)
I1220 19:06:07.658450 31316 layer_factory.hpp:74] Creating layer inception_5b/3x3
I1220 19:06:07.658460 31316 net.cpp:84] Creating Layer inception_5b/3x3
I1220 19:06:07.658465 31316 net.cpp:380] inception_5b/3x3 <- inception_5b/3x3_reduce
I1220 19:06:07.658475 31316 net.cpp:338] inception_5b/3x3 -> inception_5b/3x3
I1220 19:06:07.658483 31316 net.cpp:113] Setting up inception_5b/3x3
I1220 19:06:07.665860 31316 net.cpp:120] Top shape: 50 384 7 7 (940800)
I1220 19:06:07.665875 31316 layer_factory.hpp:74] Creating layer inception_5b/relu_3x3
I1220 19:06:07.665885 31316 net.cpp:84] Creating Layer inception_5b/relu_3x3
I1220 19:06:07.665890 31316 net.cpp:380] inception_5b/relu_3x3 <- inception_5b/3x3
I1220 19:06:07.665897 31316 net.cpp:327] inception_5b/relu_3x3 -> inception_5b/3x3 (in-place)
I1220 19:06:07.665904 31316 net.cpp:113] Setting up inception_5b/relu_3x3
I1220 19:06:07.665969 31316 net.cpp:120] Top shape: 50 384 7 7 (940800)
I1220 19:06:07.665976 31316 layer_factory.hpp:74] Creating layer inception_5b/5x5_reduce
I1220 19:06:07.665987 31316 net.cpp:84] Creating Layer inception_5b/5x5_reduce
I1220 19:06:07.665992 31316 net.cpp:380] inception_5b/5x5_reduce <- inception_5a/output_inception_5a/output_0_split_2
I1220 19:06:07.666000 31316 net.cpp:338] inception_5b/5x5_reduce -> inception_5b/5x5_reduce
I1220 19:06:07.666008 31316 net.cpp:113] Setting up inception_5b/5x5_reduce
I1220 19:06:07.666822 31316 net.cpp:120] Top shape: 50 48 7 7 (117600)
I1220 19:06:07.666836 31316 layer_factory.hpp:74] Creating layer inception_5b/relu_5x5_reduce
I1220 19:06:07.666842 31316 net.cpp:84] Creating Layer inception_5b/relu_5x5_reduce
I1220 19:06:07.666847 31316 net.cpp:380] inception_5b/relu_5x5_reduce <- inception_5b/5x5_reduce
I1220 19:06:07.666857 31316 net.cpp:327] inception_5b/relu_5x5_reduce -> inception_5b/5x5_reduce (in-place)
I1220 19:06:07.666864 31316 net.cpp:113] Setting up inception_5b/relu_5x5_reduce
I1220 19:06:07.666932 31316 net.cpp:120] Top shape: 50 48 7 7 (117600)
I1220 19:06:07.666939 31316 layer_factory.hpp:74] Creating layer inception_5b/5x5
I1220 19:06:07.666946 31316 net.cpp:84] Creating Layer inception_5b/5x5
I1220 19:06:07.666950 31316 net.cpp:380] inception_5b/5x5 <- inception_5b/5x5_reduce
I1220 19:06:07.666960 31316 net.cpp:338] inception_5b/5x5 -> inception_5b/5x5
I1220 19:06:07.666966 31316 net.cpp:113] Setting up inception_5b/5x5
I1220 19:06:07.668994 31316 net.cpp:120] Top shape: 50 128 7 7 (313600)
I1220 19:06:07.669008 31316 layer_factory.hpp:74] Creating layer inception_5b/relu_5x5
I1220 19:06:07.669015 31316 net.cpp:84] Creating Layer inception_5b/relu_5x5
I1220 19:06:07.669021 31316 net.cpp:380] inception_5b/relu_5x5 <- inception_5b/5x5
I1220 19:06:07.669028 31316 net.cpp:327] inception_5b/relu_5x5 -> inception_5b/5x5 (in-place)
I1220 19:06:07.669034 31316 net.cpp:113] Setting up inception_5b/relu_5x5
I1220 19:06:07.669292 31316 net.cpp:120] Top shape: 50 128 7 7 (313600)
I1220 19:06:07.669311 31316 layer_factory.hpp:74] Creating layer inception_5b/pool
I1220 19:06:07.669324 31316 layer_factory.cpp:56] CUDNN does not support padding or multiple tops. Using Caffe's own pooling layer.
I1220 19:06:07.669332 31316 net.cpp:84] Creating Layer inception_5b/pool
I1220 19:06:07.669337 31316 net.cpp:380] inception_5b/pool <- inception_5a/output_inception_5a/output_0_split_3
I1220 19:06:07.669348 31316 net.cpp:338] inception_5b/pool -> inception_5b/pool
I1220 19:06:07.669355 31316 net.cpp:113] Setting up inception_5b/pool
I1220 19:06:07.669364 31316 net.cpp:120] Top shape: 50 832 7 7 (2038400)
I1220 19:06:07.669369 31316 layer_factory.hpp:74] Creating layer inception_5b/pool_proj
I1220 19:06:07.669378 31316 net.cpp:84] Creating Layer inception_5b/pool_proj
I1220 19:06:07.669384 31316 net.cpp:380] inception_5b/pool_proj <- inception_5b/pool
I1220 19:06:07.669390 31316 net.cpp:338] inception_5b/pool_proj -> inception_5b/pool_proj
I1220 19:06:07.669397 31316 net.cpp:113] Setting up inception_5b/pool_proj
I1220 19:06:07.670892 31316 net.cpp:120] Top shape: 50 128 7 7 (313600)
I1220 19:06:07.670907 31316 layer_factory.hpp:74] Creating layer inception_5b/relu_pool_proj
I1220 19:06:07.670915 31316 net.cpp:84] Creating Layer inception_5b/relu_pool_proj
I1220 19:06:07.670922 31316 net.cpp:380] inception_5b/relu_pool_proj <- inception_5b/pool_proj
I1220 19:06:07.670928 31316 net.cpp:327] inception_5b/relu_pool_proj -> inception_5b/pool_proj (in-place)
I1220 19:06:07.670934 31316 net.cpp:113] Setting up inception_5b/relu_pool_proj
I1220 19:06:07.671000 31316 net.cpp:120] Top shape: 50 128 7 7 (313600)
I1220 19:06:07.671010 31316 layer_factory.hpp:74] Creating layer inception_5b/output
I1220 19:06:07.671018 31316 net.cpp:84] Creating Layer inception_5b/output
I1220 19:06:07.671023 31316 net.cpp:380] inception_5b/output <- inception_5b/1x1
I1220 19:06:07.671030 31316 net.cpp:380] inception_5b/output <- inception_5b/3x3
I1220 19:06:07.671035 31316 net.cpp:380] inception_5b/output <- inception_5b/5x5
I1220 19:06:07.671039 31316 net.cpp:380] inception_5b/output <- inception_5b/pool_proj
I1220 19:06:07.671044 31316 net.cpp:338] inception_5b/output -> inception_5b/output
I1220 19:06:07.671053 31316 net.cpp:113] Setting up inception_5b/output
I1220 19:06:07.671061 31316 net.cpp:120] Top shape: 50 1024 7 7 (2508800)
I1220 19:06:07.671066 31316 layer_factory.hpp:74] Creating layer pool5/7x7_s1
I1220 19:06:07.671073 31316 net.cpp:84] Creating Layer pool5/7x7_s1
I1220 19:06:07.671078 31316 net.cpp:380] pool5/7x7_s1 <- inception_5b/output
I1220 19:06:07.671084 31316 net.cpp:338] pool5/7x7_s1 -> pool5/7x7_s1
I1220 19:06:07.671092 31316 net.cpp:113] Setting up pool5/7x7_s1
I1220 19:06:07.671160 31316 net.cpp:120] Top shape: 50 1024 1 1 (51200)
I1220 19:06:07.671165 31316 layer_factory.hpp:74] Creating layer pool5/drop_7x7_s1
I1220 19:06:07.671172 31316 net.cpp:84] Creating Layer pool5/drop_7x7_s1
I1220 19:06:07.671177 31316 net.cpp:380] pool5/drop_7x7_s1 <- pool5/7x7_s1
I1220 19:06:07.671182 31316 net.cpp:327] pool5/drop_7x7_s1 -> pool5/7x7_s1 (in-place)
I1220 19:06:07.671190 31316 net.cpp:113] Setting up pool5/drop_7x7_s1
I1220 19:06:07.671195 31316 net.cpp:120] Top shape: 50 1024 1 1 (51200)
I1220 19:06:07.671200 31316 layer_factory.hpp:74] Creating layer loss3/classifier_kaggle
I1220 19:06:07.671208 31316 net.cpp:84] Creating Layer loss3/classifier_kaggle
I1220 19:06:07.671212 31316 net.cpp:380] loss3/classifier_kaggle <- pool5/7x7_s1
I1220 19:06:07.671221 31316 net.cpp:338] loss3/classifier_kaggle -> loss3/classifier_kaggle
I1220 19:06:07.671228 31316 net.cpp:113] Setting up loss3/classifier_kaggle
I1220 19:06:07.676000 31316 net.cpp:120] Top shape: 50 447 (22350)
I1220 19:06:07.676013 31316 layer_factory.hpp:74] Creating layer loss3/classifier_kaggle_loss3/classifier_kaggle_0_split
I1220 19:06:07.676023 31316 net.cpp:84] Creating Layer loss3/classifier_kaggle_loss3/classifier_kaggle_0_split
I1220 19:06:07.676028 31316 net.cpp:380] loss3/classifier_kaggle_loss3/classifier_kaggle_0_split <- loss3/classifier_kaggle
I1220 19:06:07.676039 31316 net.cpp:338] loss3/classifier_kaggle_loss3/classifier_kaggle_0_split -> loss3/classifier_kaggle_loss3/classifier_kaggle_0_split_0
I1220 19:06:07.676055 31316 net.cpp:338] loss3/classifier_kaggle_loss3/classifier_kaggle_0_split -> loss3/classifier_kaggle_loss3/classifier_kaggle_0_split_1
I1220 19:06:07.676064 31316 net.cpp:338] loss3/classifier_kaggle_loss3/classifier_kaggle_0_split -> loss3/classifier_kaggle_loss3/classifier_kaggle_0_split_2
I1220 19:06:07.676069 31316 net.cpp:113] Setting up loss3/classifier_kaggle_loss3/classifier_kaggle_0_split
I1220 19:06:07.676079 31316 net.cpp:120] Top shape: 50 447 (22350)
I1220 19:06:07.676084 31316 net.cpp:120] Top shape: 50 447 (22350)
I1220 19:06:07.676089 31316 net.cpp:120] Top shape: 50 447 (22350)
I1220 19:06:07.676092 31316 layer_factory.hpp:74] Creating layer loss3/loss3
I1220 19:06:07.676100 31316 net.cpp:84] Creating Layer loss3/loss3
I1220 19:06:07.676105 31316 net.cpp:380] loss3/loss3 <- loss3/classifier_kaggle_loss3/classifier_kaggle_0_split_0
I1220 19:06:07.676112 31316 net.cpp:380] loss3/loss3 <- label_data_1_split_6
I1220 19:06:07.676120 31316 net.cpp:338] loss3/loss3 -> loss3/loss3
…
