…
I1217 18:15:45.663702 20669 net.cpp:257] The NetState phase (0) differed from the phase (1) specified by a rule in layer loss3/top-5
I1217 18:15:45.665514 20669 net.cpp:42] Initializing net from parameters: 
name: "MYNET"
state {
  phase: TRAIN
}
layer {
  name: "data"
  type: "ImageData"
  top: "data"
  top: "label"
  include {
    phase: TRAIN
  }
  transform_param {
    mirror: false
    crop_size: 224
    mean_value: 129
    mean_value: 129
    mean_value: 129
  }
  image_data_param {
    source: "/home/coldmanck/kaggle/label_train_full.txt"
    batch_size: 80
    shuffle: true
  }
}
layer {
  name: "conv1/7x7_s2"
  type: "Convolution"
  bottom: "data"
  top: "conv1/7x7_s2"
  param {
    lr_mult: 1
    decay_mult: 1
  }
  param {
    lr_mult: 2
    decay_mult: 0
  }
  convolution_param {
    num_output: 64
    pad: 3
    kernel_size: 7
    stride: 2
    weight_filler {
      type: "xavier"
    }
    bias_filler {
      type: "constant"
      value: 0.2
    }
  }
}
layer {
  name: "conv1/relu_7x7"
  type: "ReLU"
  bottom: "conv1/7x7_s2"
  top: "conv1/7x7_s2"
}
layer {
  name: "pool1/3x3_s2"
  type: "Pooling"
  bottom: "conv1/7x7_s2"
  top: "pool1/3x3_s2"
  pooling_param {
    pool: MAX
    kernel_size: 3
    stride: 2
  }
}
layer {
  name: "pool1/norm1"
  type: "LRN"
  bottom: "pool1/3x3_s2"
  top: "pool1/norm1"
  lrn_param {
    local_size: 5
    alpha: 0.0001
    beta: 0.75
  }
}
layer {
  name: "conv2/3x3_reduce"
  type: "Convolution"
  bottom: "pool1/norm1"
  top: "conv2/3x3_reduce"
  param {
    lr_mult: 1
    decay_mult: 1
  }
  param {
    lr_mult: 2
    decay_mult: 0
  }
  convolution_param {
    num_output: 64
    kernel_size: 1
    weight_filler {
      type: "xavier"
    }
    bias_filler {
      type: "constant"
      value: 0.2
    }
  }
}
layer {
  name: "conv2/relu_3x3_reduce"
  type: "ReLU"
  bottom: "conv2/3x3_reduce"
  top: "conv2/3x3_reduce"
}
layer {
  name: "conv2/3x3"
  type: "Convolution"
  bottom: "conv2/3x3_reduce"
  top: "conv2/3x3"
  param {
    lr_mult: 1
    decay_mult: 1
  }
  param {
    lr_mult: 2
    decay_mult: 0
  }
  convolution_param {
    num_output: 192
    pad: 1
    kernel_size: 3
    weight_filler {
      type: "xavier"
    }
    bias_filler {
      type: "constant"
      value: 0.2
    }
  }
}
layer {
  name: "conv2/relu_3x3"
  type: "ReLU"
  bottom: "conv2/3x3"
  top: "conv2/3x3"
}
layer {
  name: "conv2/norm2"
  type: "LRN"
  bottom: "conv2/3x3"
  top: "conv2/norm2"
  lrn_param {
    local_size: 5
    alpha: 0.0001
    beta: 0.75
  }
}
layer {
  name: "pool2/3x3_s2"
  type: "Pooling"
  bottom: "conv2/norm2"
  top: "pool2/3x3_s2"
  pooling_param {
    pool: MAX
    kernel_size: 3
    stride: 2
  }
}
layer {
  name: "inception_3a/1x1"
  type: "Convolution"
  bottom: "pool2/3x3_s2"
  top: "inception_3a/1x1"
  param {
    lr_mult: 1
    decay_mult: 1
  }
  param {
    lr_mult: 2
    decay_mult: 0
  }
  convolution_param {
    num_output: 64
    kernel_size: 1
    weight_filler {
      type: "xavier"
    }
    bias_filler {
      type: "constant"
      value: 0.2
    }
  }
}
layer {
  name: "inception_3a/relu_1x1"
  type: "ReLU"
  bottom: "inception_3a/1x1"
  top: "inception_3a/1x1"
}
layer {
  name: "inception_3a/3x3_reduce"
  type: "Convolution"
  bottom: "pool2/3x3_s2"
  top: "inception_3a/3x3_reduce"
  param {
    lr_mult: 1
    decay_mult: 1
  }
  param {
    lr_mult: 2
    decay_mult: 0
  }
  convolution_param {
    num_output: 96
    kernel_size: 1
    weight_filler {
      type: "xavier"
    }
    bias_filler {
      type: "constant"
      value: 0.2
    }
  }
}
layer {
  name: "inception_3a/relu_3x3_reduce"
  type: "ReLU"
  bottom: "inception_3a/3x3_reduce"
  top: "inception_3a/3x3_reduce"
}
layer {
  name: "inception_3a/3x3"
  type: "Convolution"
  bottom: "inception_3a/3x3_reduce"
  top: "inception_3a/3x3"
  param {
    lr_mult: 1
    decay_mult: 1
  }
  param {
    lr_mult: 2
    decay_mult: 0
  }
  convolution_param {
    num_output: 128
    pad: 1
    kernel_size: 3
    weight_filler {
      type: "xavier"
    }
    bias_filler {
      type: "constant"
      value: 0.2
    }
  }
}
layer {
  name: "inception_3a/relu_3x3"
  type: "ReLU"
  bottom: "inception_3a/3x3"
  top: "inception_3a/3x3"
}
layer {
  name: "inception_3a/5x5_reduce"
  type: "Convolution"
  bottom: "pool2/3x3_s2"
  top: "inception_3a/5x5_reduce"
  param {
    lr_mult: 1
    decay_mult: 1
  }
  param {
    lr_mult: 2
    decay_mult: 0
  }
  convolution_param {
    num_output: 16
    kernel_size: 1
    weight_filler {
      type: "xavier"
    }
    bias_filler {
      type: "constant"
      value: 0.2
    }
  }
}
layer {
  name: "inception_3a/relu_5x5_reduce"
  type: "ReLU"
  bottom: "inception_3a/5x5_reduce"
  top: "inception_3a/5x5_reduce"
}
layer {
  name: "inception_3a/5x5"
  type: "Convolution"
  bottom: "inception_3a/5x5_reduce"
  top: "inception_3a/5x5"
  param {
    lr_mult: 1
    decay_mult: 1
  }
  param {
    lr_mult: 2
    decay_mult: 0
  }
  convolution_param {
    num_output: 32
    pad: 2
    kernel_size: 5
    weight_filler {
      type: "xavier"
    }
    bias_filler {
      type: "constant"
      value: 0.2
    }
  }
}
layer {
  name: "inception_3a/relu_5x5"
  type: "ReLU"
  bottom: "inception_3a/5x5"
  top: "inception_3a/5x5"
}
layer {
  name: "inception_3a/pool"
  type: "Pooling"
  bottom: "pool2/3x3_s2"
  top: "inception_3a/pool"
  pooling_param {
    pool: MAX
    kernel_size: 3
    stride: 1
    pad: 1
  }
}
layer {
  name: "inception_3a/pool_proj"
  type: "Convolution"
  bottom: "inception_3a/pool"
  top: "inception_3a/pool_proj"
  param {
    lr_mult: 1
    decay_mult: 1
  }
  param {
    lr_mult: 2
    decay_mult: 0
  }
  convolution_param {
    num_output: 32
    kernel_size: 1
    weight_filler {
      type: "xavier"
    }
    bias_filler {
      type: "constant"
      value: 0.2
    }
  }
}
layer {
  name: "inception_3a/relu_pool_proj"
  type: "ReLU"
  bottom: "inception_3a/pool_proj"
  top: "inception_3a/pool_proj"
}
layer {
  name: "inception_3a/output"
  type: "Concat"
  bottom: "inception_3a/1x1"
  bottom: "inception_3a/3x3"
  bottom: "inception_3a/5x5"
  bottom: "inception_3a/pool_proj"
  top: "inception_3a/output"
}
layer {
  name: "inception_3b/1x1"
  type: "Convolution"
  bottom: "inception_3a/output"
  top: "inception_3b/1x1"
  param {
    lr_mult: 1
    decay_mult: 1
  }
  param {
    lr_mult: 2
    decay_mult: 0
  }
  convolution_param {
    num_output: 128
    kernel_size: 1
    weight_filler {
      type: "xavier"
    }
    bias_filler {
      type: "constant"
      value: 0.2
    }
  }
}
layer {
  name: "inception_3b/relu_1x1"
  type: "ReLU"
  bottom: "inception_3b/1x1"
  top: "inception_3b/1x1"
}
layer {
  name: "inception_3b/3x3_reduce"
  type: "Convolution"
  bottom: "inception_3a/output"
  top: "inception_3b/3x3_reduce"
  param {
    lr_mult: 1
    decay_mult: 1
  }
  param {
    lr_mult: 2
    decay_mult: 0
  }
  convolution_param {
    num_output: 128
    kernel_size: 1
    weight_filler {
      type: "xavier"
    }
    bias_filler {
      type: "constant"
      value: 0.2
    }
  }
}
layer {
  name: "inception_3b/relu_3x3_reduce"
  type: "ReLU"
  bottom: "inception_3b/3x3_reduce"
  top: "inception_3b/3x3_reduce"
}
layer {
  name: "inception_3b/3x3"
  type: "Convolution"
  bottom: "inception_3b/3x3_reduce"
  top: "inception_3b/3x3"
  param {
    lr_mult: 1
    decay_mult: 1
  }
  param {
    lr_mult: 2
    decay_mult: 0
  }
  convolution_param {
    num_output: 192
    pad: 1
    kernel_size: 3
    weight_filler {
      type: "xavier"
    }
    bias_filler {
      type: "constant"
      value: 0.2
    }
  }
}
layer {
  name: "inception_3b/relu_3x3"
  type: "ReLU"
  bottom: "inception_3b/3x3"
  top: "inception_3b/3x3"
}
layer {
  name: "inception_3b/5x5_reduce"
  type: "Convolution"
  bottom: "inception_3a/output"
  top: "inception_3b/5x5_reduce"
  param {
    lr_mult: 1
    decay_mult: 1
  }
  param {
    lr_mult: 2
    decay_mult: 0
  }
  convolution_param {
    num_output: 32
    kernel_size: 1
    weight_filler {
      type: "xavier"
    }
    bias_filler {
      type: "constant"
      value: 0.2
    }
  }
}
layer {
  name: "inception_3b/relu_5x5_reduce"
  type: "ReLU"
  bottom: "inception_3b/5x5_reduce"
  top: "inception_3b/5x5_reduce"
}
layer {
  name: "inception_3b/5x5"
  type: "Convolution"
  bottom: "inception_3b/5x5_reduce"
  top: "inception_3b/5x5"
  param {
    lr_mult: 1
    decay_mult: 1
  }
  param {
    lr_mult: 2
    decay_mult: 0
  }
  convolution_param {
    num_output: 96
    pad: 2
    kernel_size: 5
    weight_filler {
      type: "xavier"
    }
    bias_filler {
      type: "constant"
      value: 0.2
    }
  }
}
layer {
  name: "inception_3b/relu_5x5"
  type: "ReLU"
  bottom: "inception_3b/5x5"
  top: "inception_3b/5x5"
}
layer {
  name: "inception_3b/pool"
  type: "Pooling"
  bottom: "inception_3a/output"
  top: "inception_3b/pool"
  pooling_param {
    pool: MAX
    kernel_size: 3
    stride: 1
    pad: 1
  }
}
layer {
  name: "inception_3b/pool_proj"
  type: "Convolution"
  bottom: "inception_3b/pool"
  top: "inception_3b/pool_proj"
  param {
    lr_mult: 1
    decay_mult: 1
  }
  param {
    lr_mult: 2
    decay_mult: 0
  }
  convolution_param {
    num_output: 64
    kernel_size: 1
    weight_filler {
      type: "xavier"
    }
    bias_filler {
      type: "constant"
      value: 0.2
    }
  }
}
layer {
  name: "inception_3b/relu_pool_proj"
  type: "ReLU"
  bottom: "inception_3b/pool_proj"
  top: "inception_3b/pool_proj"
}
layer {
  name: "inception_3b/output"
  type: "Concat"
  bottom: "inception_3b/1x1"
  bottom: "inception_3b/3x3"
  bottom: "inception_3b/5x5"
  bottom: "inception_3b/pool_proj"
  top: "inception_3b/output"
}
layer {
  name: "pool3/3x3_s2"
  type: "Pooling"
  bottom: "inception_3b/output"
  top: "pool3/3x3_s2"
  pooling_param {
    pool: MAX
    kernel_size: 3
    stride: 2
  }
}
layer {
  name: "inception_4a/1x1"
  type: "Convolution"
  bottom: "pool3/3x3_s2"
  top: "inception_4a/1x1"
  param {
    lr_mult: 1
    decay_mult: 1
  }
  param {
    lr_mult: 2
    decay_mult: 0
  }
  convolution_param {
    num_output: 192
    kernel_size: 1
    weight_filler {
      type: "xavier"
    }
    bias_filler {
      type: "constant"
      value: 0.2
    }
  }
}
layer {
  name: "inception_4a/relu_1x1"
  type: "ReLU"
  bottom: "inception_4a/1x1"
  top: "inception_4a/1x1"
}
layer {
  name: "inception_4a/3x3_reduce"
  type: "Convolution"
  bottom: "pool3/3x3_s2"
  top: "inception_4a/3x3_reduce"
  param {
    lr_mult: 1
    decay_mult: 1
  }
  param {
    lr_mult: 2
    decay_mult: 0
  }
  convolution_param {
    num_output: 96
    kernel_size: 1
    weight_filler {
      type: "xavier"
    }
    bias_filler {
      type: "constant"
      value: 0.2
    }
  }
}
layer {
  name: "inception_4a/relu_3x3_reduce"
  type: "ReLU"
  bottom: "inception_4a/3x3_reduce"
  top: "inception_4a/3x3_reduce"
}
layer {
  name: "inception_4a/3x3"
  type: "Convolution"
  bottom: "inception_4a/3x3_reduce"
  top: "inception_4a/3x3"
  param {
    lr_mult: 1
    decay_mult: 1
  }
  param {
    lr_mult: 2
    decay_mult: 0
  }
  convolution_param {
    num_output: 208
    pad: 1
    kernel_size: 3
    weight_filler {
      type: "xavier"
    }
    bias_filler {
      type: "constant"
      value: 0.2
    }
  }
}
layer {
  name: "inception_4a/relu_3x3"
  type: "ReLU"
  bottom: "inception_4a/3x3"
  top: "inception_4a/3x3"
}
layer {
  name: "inception_4a/5x5_reduce"
  type: "Convolution"
  bottom: "pool3/3x3_s2"
  top: "inception_4a/5x5_reduce"
  param {
    lr_mult: 1
    decay_mult: 1
  }
  param {
    lr_mult: 2
    decay_mult: 0
  }
  convolution_param {
    num_output: 16
    kernel_size: 1
    weight_filler {
      type: "xavier"
    }
    bias_filler {
      type: "constant"
      value: 0.2
    }
  }
}
layer {
  name: "inception_4a/relu_5x5_reduce"
  type: "ReLU"
  bottom: "inception_4a/5x5_reduce"
  top: "inception_4a/5x5_reduce"
}
layer {
  name: "inception_4a/5x5"
  type: "Convolution"
  bottom: "inception_4a/5x5_reduce"
  top: "inception_4a/5x5"
  param {
    lr_mult: 1
    decay_mult: 1
  }
  param {
    lr_mult: 2
    decay_mult: 0
  }
  convolution_param {
    num_output: 48
    pad: 2
    kernel_size: 5
    weight_filler {
      type: "xavier"
    }
    bias_filler {
      type: "constant"
      value: 0.2
    }
  }
}
layer {
  name: "inception_4a/relu_5x5"
  type: "ReLU"
  bottom: "inception_4a/5x5"
  top: "inception_4a/5x5"
}
layer {
  name: "inception_4a/pool"
  type: "Pooling"
  bottom: "pool3/3x3_s2"
  top: "inception_4a/pool"
  pooling_param {
    pool: MAX
    kernel_size: 3
    stride: 1
    pad: 1
  }
}
layer {
  name: "inception_4a/pool_proj"
  type: "Convolution"
  bottom: "inception_4a/pool"
  top: "inception_4a/pool_proj"
  param {
    lr_mult: 1
    decay_mult: 1
  }
  param {
    lr_mult: 2
    decay_mult: 0
  }
  convolution_param {
    num_output: 64
    kernel_size: 1
    weight_filler {
      type: "xavier"
    }
    bias_filler {
      type: "constant"
      value: 0.2
    }
  }
}
layer {
  name: "inception_4a/relu_pool_proj"
  type: "ReLU"
  bottom: "inception_4a/pool_proj"
  top: "inception_4a/pool_proj"
}
layer {
  name: "inception_4a/output"
  type: "Concat"
  bottom: "inception_4a/1x1"
  bottom: "inception_4a/3x3"
  bottom: "inception_4a/5x5"
  bottom: "inception_4a/pool_proj"
  top: "inception_4a/output"
}
layer {
  name: "loss1/ave_pool"
  type: "Pooling"
  bottom: "inception_4a/output"
  top: "loss1/ave_pool"
  pooling_param {
    pool: AVE
    kernel_size: 5
    stride: 3
  }
}
layer {
  name: "loss1/conv"
  type: "Convolution"
  bottom: "loss1/ave_pool"
  top: "loss1/conv"
  param {
    lr_mult: 1
    decay_mult: 1
  }
  param {
    lr_mult: 2
    decay_mult: 0
  }
  convolution_param {
    num_output: 128
    kernel_size: 1
    weight_filler {
      type: "xavier"
    }
    bias_filler {
      type: "constant"
      value: 0.2
    }
  }
}
layer {
  name: "loss1/relu_conv"
  type: "ReLU"
  bottom: "loss1/conv"
  top: "loss1/conv"
}
layer {
  name: "loss1/fc"
  type: "InnerProduct"
  bottom: "loss1/conv"
  top: "loss1/fc"
  param {
    lr_mult: 1
    decay_mult: 1
  }
  param {
    lr_mult: 2
    decay_mult: 0
  }
  inner_product_param {
    num_output: 1024
    weight_filler {
      type: "xavier"
    }
    bias_filler {
      type: "constant"
      value: 0.2
    }
  }
}
layer {
  name: "loss1/relu_fc"
  type: "ReLU"
  bottom: "loss1/fc"
  top: "loss1/fc"
}
layer {
  name: "loss1/drop_fc"
  type: "Dropout"
  bottom: "loss1/fc"
  top: "loss1/fc"
  dropout_param {
    dropout_ratio: 0.7
  }
}
layer {
  name: "loss1/classifier_kaggle"
  type: "InnerProduct"
  bottom: "loss1/fc"
  top: "loss1/classifier_kaggle"
  param {
    lr_mult: 1
    decay_mult: 1
  }
  param {
    lr_mult: 2
    decay_mult: 0
  }
  inner_product_param {
    num_output: 447
    weight_filler {
      type: "xavier"
    }
    bias_filler {
      type: "constant"
      value: 0
    }
  }
}
layer {
  name: "loss1/loss"
  type: "SoftmaxWithLoss"
  bottom: "loss1/classifier_kaggle"
  bottom: "label"
  top: "loss1/loss1"
  loss_weight: 0.3
}
layer {
  name: "inception_4b/1x1"
  type: "Convolution"
  bottom: "inception_4a/output"
  top: "inception_4b/1x1"
  param {
    lr_mult: 1
    decay_mult: 1
  }
  param {
    lr_mult: 2
    decay_mult: 0
  }
  convolution_param {
    num_output: 160
    kernel_size: 1
    weight_filler {
      type: "xavier"
    }
    bias_filler {
      type: "constant"
      value: 0.2
    }
  }
}
layer {
  name: "inception_4b/relu_1x1"
  type: "ReLU"
  bottom: "inception_4b/1x1"
  top: "inception_4b/1x1"
}
layer {
  name: "inception_4b/3x3_reduce"
  type: "Convolution"
  bottom: "inception_4a/output"
  top: "inception_4b/3x3_reduce"
  param {
    lr_mult: 1
    decay_mult: 1
  }
  param {
    lr_mult: 2
    decay_mult: 0
  }
  convolution_param {
    num_output: 112
    kernel_size: 1
    weight_filler {
      type: "xavier"
    }
    bias_filler {
      type: "constant"
      value: 0.2
    }
  }
}
layer {
  name: "inception_4b/relu_3x3_reduce"
  type: "ReLU"
  bottom: "inception_4b/3x3_reduce"
  top: "inception_4b/3x3_reduce"
}
layer {
  name: "inception_4b/3x3"
  type: "Convolution"
  bottom: "inception_4b/3x3_reduce"
  top: "inception_4b/3x3"
  param {
    lr_mult: 1
    decay_mult: 1
  }
  param {
    lr_mult: 2
    decay_mult: 0
  }
  convolution_param {
    num_output: 224
    pad: 1
    kernel_size: 3
    weight_filler {
      type: "xavier"
    }
    bias_filler {
      type: "constant"
      value: 0.2
    }
  }
}
layer {
  name: "inception_4b/relu_3x3"
  type: "ReLU"
  bottom: "inception_4b/3x3"
  top: "inception_4b/3x3"
}
layer {
  name: "inception_4b/5x5_reduce"
  type: "Convolution"
  bottom: "inception_4a/output"
  top: "inception_4b/5x5_reduce"
  param {
    lr_mult: 1
    decay_mult: 1
  }
  param {
    lr_mult: 2
    decay_mult: 0
  }
  convolution_param {
    num_output: 24
    kernel_size: 1
    weight_filler {
      type: "xavier"
    }
    bias_filler {
      type: "constant"
      value: 0.2
    }
  }
}
layer {
  name: "inception_4b/relu_5x5_reduce"
  type: "ReLU"
  bottom: "inception_4b/5x5_reduce"
  top: "inception_4b/5x5_reduce"
}
layer {
  name: "inception_4b/5x5"
  type: "Convolution"
  bottom: "inception_4b/5x5_reduce"
  top: "inception_4b/5x5"
  param {
    lr_mult: 1
    decay_mult: 1
  }
  param {
    lr_mult: 2
    decay_mult: 0
  }
  convolution_param {
    num_output: 64
    pad: 2
    kernel_size: 5
    weight_filler {
      type: "xavier"
    }
    bias_filler {
      type: "constant"
      value: 0.2
    }
  }
}
layer {
  name: "inception_4b/relu_5x5"
  type: "ReLU"
  bottom: "inception_4b/5x5"
  top: "inception_4b/5x5"
}
layer {
  name: "inception_4b/pool"
  type: "Pooling"
  bottom: "inception_4a/output"
  top: "inception_4b/pool"
  pooling_param {
    pool: MAX
    kernel_size: 3
    stride: 1
    pad: 1
  }
}
layer {
  name: "inception_4b/pool_proj"
  type: "Convolution"
  bottom: "inception_4b/pool"
  top: "inception_4b/pool_proj"
  param {
    lr_mult: 1
    decay_mult: 1
  }
  param {
    lr_mult: 2
    decay_mult: 0
  }
  convolution_param {
    num_output: 64
    kernel_size: 1
    weight_filler {
      type: "xavier"
    }
    bias_filler {
      type: "constant"
      value: 0.2
    }
  }
}
layer {
  name: "inception_4b/relu_pool_proj"
  type: "ReLU"
  bottom: "inception_4b/pool_proj"
  top: "inception_4b/pool_proj"
}
layer {
  name: "inception_4b/output"
  type: "Concat"
  bottom: "inception_4b/1x1"
  bottom: "inception_4b/3x3"
  bottom: "inception_4b/5x5"
  bottom: "inception_4b/pool_proj"
  top: "inception_4b/output"
}
layer {
  name: "inception_4c/1x1"
  type: "Convolution"
  bottom: "inception_4b/output"
  top: "inception_4c/1x1"
  param {
    lr_mult: 1
    decay_mult: 1
  }
  param {
    lr_mult: 2
    decay_mult: 0
  }
  convolution_param {
    num_output: 128
    kernel_size: 1
    weight_filler {
      type: "xavier"
    }
    bias_filler {
      type: "constant"
      value: 0.2
    }
  }
}
layer {
  name: "inception_4c/relu_1x1"
  type: "ReLU"
  bottom: "inception_4c/1x1"
  top: "inception_4c/1x1"
}
layer {
  name: "inception_4c/3x3_reduce"
  type: "Convolution"
  bottom: "inception_4b/output"
  top: "inception_4c/3x3_reduce"
  param {
    lr_mult: 1
    decay_mult: 1
  }
  param {
    lr_mult: 2
    decay_mult: 0
  }
  convolution_param {
    num_output: 128
    kernel_size: 1
    weight_filler {
      type: "xavier"
    }
    bias_filler {
      type: "constant"
      value: 0.2
    }
  }
}
layer {
  name: "inception_4c/relu_3x3_reduce"
  type: "ReLU"
  bottom: "inception_4c/3x3_reduce"
  top: "inception_4c/3x3_reduce"
}
layer {
  name: "inception_4c/3x3"
  type: "Convolution"
  bottom: "inception_4c/3x3_reduce"
  top: "inception_4c/3x3"
  param {
    lr_mult: 1
    decay_mult: 1
  }
  param {
    lr_mult: 2
    decay_mult: 0
  }
  convolution_param {
    num_output: 256
    pad: 1
    kernel_size: 3
    weight_filler {
      type: "xavier"
    }
    bias_filler {
      type: "constant"
      value: 0.2
    }
  }
}
layer {
  name: "inception_4c/relu_3x3"
  type: "ReLU"
  bottom: "inception_4c/3x3"
  top: "inception_4c/3x3"
}
layer {
  name: "inception_4c/5x5_reduce"
  type: "Convolution"
  bottom: "inception_4b/output"
  top: "inception_4c/5x5_reduce"
  param {
    lr_mult: 1
    decay_mult: 1
  }
  param {
    lr_mult: 2
    decay_mult: 0
  }
  convolution_param {
    num_output: 24
    kernel_size: 1
    weight_filler {
      type: "xavier"
    }
    bias_filler {
      type: "constant"
      value: 0.2
    }
  }
}
layer {
  name: "inception_4c/relu_5x5_reduce"
  type: "ReLU"
  bottom: "inception_4c/5x5_reduce"
  top: "inception_4c/5x5_reduce"
}
layer {
  name: "inception_4c/5x5"
  type: "Convolution"
  bottom: "inception_4c/5x5_reduce"
  top: "inception_4c/5x5"
  param {
    lr_mult: 1
    decay_mult: 1
  }
  param {
    lr_mult: 2
    decay_mult: 0
  }
  convolution_param {
    num_output: 64
    pad: 2
    kernel_size: 5
    weight_filler {
      type: "xavier"
    }
    bias_filler {
      type: "constant"
      value: 0.2
    }
  }
}
layer {
  name: "inception_4c/relu_5x5"
  type: "ReLU"
  bottom: "inception_4c/5x5"
  top: "inception_4c/5x5"
}
layer {
  name: "inception_4c/pool"
  type: "Pooling"
  bottom: "inception_4b/output"
  top: "inception_4c/pool"
  pooling_param {
    pool: MAX
    kernel_size: 3
    stride: 1
    pad: 1
  }
}
layer {
  name: "inception_4c/pool_proj"
  type: "Convolution"
  bottom: "inception_4c/pool"
  top: "inception_4c/pool_proj"
  param {
    lr_mult: 1
    decay_mult: 1
  }
  param {
    lr_mult: 2
    decay_mult: 0
  }
  convolution_param {
    num_output: 64
    kernel_size: 1
    weight_filler {
      type: "xavier"
    }
    bias_filler {
      type: "constant"
      value: 0.2
    }
  }
}
layer {
  name: "inception_4c/relu_pool_proj"
  type: "ReLU"
  bottom: "inception_4c/pool_proj"
  top: "inception_4c/pool_proj"
}
layer {
  name: "inception_4c/output"
  type: "Concat"
  bottom: "inception_4c/1x1"
  bottom: "inception_4c/3x3"
  bottom: "inception_4c/5x5"
  bottom: "inception_4c/pool_proj"
  top: "inception_4c/output"
}
layer {
  name: "inception_4d/1x1"
  type: "Convolution"
  bottom: "inception_4c/output"
  top: "inception_4d/1x1"
  param {
    lr_mult: 1
    decay_mult: 1
  }
  param {
    lr_mult: 2
    decay_mult: 0
  }
  convolution_param {
    num_output: 112
    kernel_size: 1
    weight_filler {
      type: "xavier"
    }
    bias_filler {
      type: "constant"
      value: 0.2
    }
  }
}
layer {
  name: "inception_4d/relu_1x1"
  type: "ReLU"
  bottom: "inception_4d/1x1"
  top: "inception_4d/1x1"
}
layer {
  name: "inception_4d/3x3_reduce"
  type: "Convolution"
  bottom: "inception_4c/output"
  top: "inception_4d/3x3_reduce"
  param {
    lr_mult: 1
    decay_mult: 1
  }
  param {
    lr_mult: 2
    decay_mult: 0
  }
  convolution_param {
    num_output: 144
    kernel_size: 1
    weight_filler {
      type: "xavier"
    }
    bias_filler {
      type: "constant"
      value: 0.2
    }
  }
}
layer {
  name: "inception_4d/relu_3x3_reduce"
  type: "ReLU"
  bottom: "inception_4d/3x3_reduce"
  top: "inception_4d/3x3_reduce"
}
layer {
  name: "inception_4d/3x3"
  type: "Convolution"
  bottom: "inception_4d/3x3_reduce"
  top: "inception_4d/3x3"
  param {
    lr_mult: 1
    decay_mult: 1
  }
  param {
    lr_mult: 2
    decay_mult: 0
  }
  convolution_param {
    num_output: 288
    pad: 1
    kernel_size: 3
    weight_filler {
      type: "xavier"
    }
    bias_filler {
      type: "constant"
      value: 0.2
    }
  }
}
layer {
  name: "inception_4d/relu_3x3"
  type: "ReLU"
  bottom: "inception_4d/3x3"
  top: "inception_4d/3x3"
}
layer {
  name: "inception_4d/5x5_reduce"
  type: "Convolution"
  bottom: "inception_4c/output"
  top: "inception_4d/5x5_reduce"
  param {
    lr_mult: 1
    decay_mult: 1
  }
  param {
    lr_mult: 2
    decay_mult: 0
  }
  convolution_param {
    num_output: 32
    kernel_size: 1
    weight_filler {
      type: "xavier"
    }
    bias_filler {
      type: "constant"
      value: 0.2
    }
  }
}
layer {
  name: "inception_4d/relu_5x5_reduce"
  type: "ReLU"
  bottom: "inception_4d/5x5_reduce"
  top: "inception_4d/5x5_reduce"
}
layer {
  name: "inception_4d/5x5"
  type: "Convolution"
  bottom: "inception_4d/5x5_reduce"
  top: "inception_4d/5x5"
  param {
    lr_mult: 1
    decay_mult: 1
  }
  param {
    lr_mult: 2
    decay_mult: 0
  }
  convolution_param {
    num_output: 64
    pad: 2
    kernel_size: 5
    weight_filler {
      type: "xavier"
    }
    bias_filler {
      type: "constant"
      value: 0.2
    }
  }
}
layer {
  name: "inception_4d/relu_5x5"
  type: "ReLU"
  bottom: "inception_4d/5x5"
  top: "inception_4d/5x5"
}
layer {
  name: "inception_4d/pool"
  type: "Pooling"
  bottom: "inception_4c/output"
  top: "inception_4d/pool"
  pooling_param {
    pool: MAX
    kernel_size: 3
    stride: 1
    pad: 1
  }
}
layer {
  name: "inception_4d/pool_proj"
  type: "Convolution"
  bottom: "inception_4d/pool"
  top: "inception_4d/pool_proj"
  param {
    lr_mult: 1
    decay_mult: 1
  }
  param {
    lr_mult: 2
    decay_mult: 0
  }
  convolution_param {
    num_output: 64
    kernel_size: 1
    weight_filler {
      type: "xavier"
    }
    bias_filler {
      type: "constant"
      value: 0.2
    }
  }
}
layer {
  name: "inception_4d/relu_pool_proj"
  type: "ReLU"
  bottom: "inception_4d/pool_proj"
  top: "inception_4d/pool_proj"
}
layer {
  name: "inception_4d/output"
  type: "Concat"
  bottom: "inception_4d/1x1"
  bottom: "inception_4d/3x3"
  bottom: "inception_4d/5x5"
  bottom: "inception_4d/pool_proj"
  top: "inception_4d/output"
}
layer {
  name: "loss2/ave_pool"
  type: "Pooling"
  bottom: "inception_4d/output"
  top: "loss2/ave_pool"
  pooling_param {
    pool: AVE
    kernel_size: 5
    stride: 3
  }
}
layer {
  name: "loss2/conv"
  type: "Convolution"
  bottom: "loss2/ave_pool"
  top: "loss2/conv"
  param {
    lr_mult: 1
    decay_mult: 1
  }
  param {
    lr_mult: 2
    decay_mult: 0
  }
  convolution_param {
    num_output: 128
    kernel_size: 1
    weight_filler {
      type: "xavier"
    }
    bias_filler {
      type: "constant"
      value: 0.2
    }
  }
}
layer {
  name: "loss2/relu_conv"
  type: "ReLU"
  bottom: "loss2/conv"
  top: "loss2/conv"
}
layer {
  name: "loss2/fc"
  type: "InnerProduct"
  bottom: "loss2/conv"
  top: "loss2/fc"
  param {
    lr_mult: 1
    decay_mult: 1
  }
  param {
    lr_mult: 2
    decay_mult: 0
  }
  inner_product_param {
    num_output: 1024
    weight_filler {
      type: "xavier"
    }
    bias_filler {
      type: "constant"
      value: 0.2
    }
  }
}
layer {
  name: "loss2/relu_fc"
  type: "ReLU"
  bottom: "loss2/fc"
  top: "loss2/fc"
}
layer {
  name: "loss2/drop_fc"
  type: "Dropout"
  bottom: "loss2/fc"
  top: "loss2/fc"
  dropout_param {
    dropout_ratio: 0.7
  }
}
layer {
  name: "loss2/classifier_kaggle"
  type: "InnerProduct"
  bottom: "loss2/fc"
  top: "loss2/classifier_kaggle"
  param {
    lr_mult: 1
    decay_mult: 1
  }
  param {
    lr_mult: 2
    decay_mult: 0
  }
  inner_product_param {
    num_output: 447
    weight_filler {
      type: "xavier"
    }
    bias_filler {
      type: "constant"
      value: 0
    }
  }
}
layer {
  name: "loss2/loss"
  type: "SoftmaxWithLoss"
  bottom: "loss2/classifier_kaggle"
  bottom: "label"
  top: "loss2/loss1"
  loss_weight: 0.3
}
layer {
  name: "inception_4e/1x1"
  type: "Convolution"
  bottom: "inception_4d/output"
  top: "inception_4e/1x1"
  param {
    lr_mult: 1
    decay_mult: 1
  }
  param {
    lr_mult: 2
    decay_mult: 0
  }
  convolution_param {
    num_output: 256
    kernel_size: 1
    weight_filler {
      type: "xavier"
    }
    bias_filler {
      type: "constant"
      value: 0.2
    }
  }
}
layer {
  name: "inception_4e/relu_1x1"
  type: "ReLU"
  bottom: "inception_4e/1x1"
  top: "inception_4e/1x1"
}
layer {
  name: "inception_4e/3x3_reduce"
  type: "Convolution"
  bottom: "inception_4d/output"
  top: "inception_4e/3x3_reduce"
  param {
    lr_mult: 1
    decay_mult: 1
  }
  param {
    lr_mult: 2
    decay_mult: 0
  }
  convolution_param {
    num_output: 160
    kernel_size: 1
    weight_filler {
      type: "xavier"
    }
    bias_filler {
      type: "constant"
      value: 0.2
    }
  }
}
layer {
  name: "inception_4e/relu_3x3_reduce"
  type: "ReLU"
  bottom: "inception_4e/3x3_reduce"
  top: "inception_4e/3x3_reduce"
}
layer {
  name: "inception_4e/3x3"
  type: "Convolution"
  bottom: "inception_4e/3x3_reduce"
  top: "inception_4e/3x3"
  param {
    lr_mult: 1
    decay_mult: 1
  }
  param {
    lr_mult: 2
    decay_mult: 0
  }
  convolution_param {
    num_output: 320
    pad: 1
    kernel_size: 3
    weight_filler {
      type: "xavier"
    }
    bias_filler {
      type: "constant"
      value: 0.2
    }
  }
}
layer {
  name: "inception_4e/relu_3x3"
  type: "ReLU"
  bottom: "inception_4e/3x3"
  top: "inception_4e/3x3"
}
layer {
  name: "inception_4e/5x5_reduce"
  type: "Convolution"
  bottom: "inception_4d/output"
  top: "inception_4e/5x5_reduce"
  param {
    lr_mult: 1
    decay_mult: 1
  }
  param {
    lr_mult: 2
    decay_mult: 0
  }
  convolution_param {
    num_output: 32
    kernel_size: 1
    weight_filler {
      type: "xavier"
    }
    bias_filler {
      type: "constant"
      value: 0.2
    }
  }
}
layer {
  name: "inception_4e/relu_5x5_reduce"
  type: "ReLU"
  bottom: "inception_4e/5x5_reduce"
  top: "inception_4e/5x5_reduce"
}
layer {
  name: "inception_4e/5x5"
  type: "Convolution"
  bottom: "inception_4e/5x5_reduce"
  top: "inception_4e/5x5"
  param {
    lr_mult: 1
    decay_mult: 1
  }
  param {
    lr_mult: 2
    decay_mult: 0
  }
  convolution_param {
    num_output: 128
    pad: 2
    kernel_size: 5
    weight_filler {
      type: "xavier"
    }
    bias_filler {
      type: "constant"
      value: 0.2
    }
  }
}
layer {
  name: "inception_4e/relu_5x5"
  type: "ReLU"
  bottom: "inception_4e/5x5"
  top: "inception_4e/5x5"
}
layer {
  name: "inception_4e/pool"
  type: "Pooling"
  bottom: "inception_4d/output"
  top: "inception_4e/pool"
  pooling_p
I1217 18:15:45.666486 20669 layer_factory.hpp:74] Creating layer data
I1217 18:15:45.666524 20669 net.cpp:84] Creating Layer data
I1217 18:15:45.666535 20669 net.cpp:338] data -> data
I1217 18:15:45.666631 20669 net.cpp:338] data -> label
I1217 18:15:45.666649 20669 net.cpp:113] Setting up data
I1217 18:15:45.666662 20669 image_data_layer.cpp:36] Opening file /home/coldmanck/kaggle/label_train_full.txt
I1217 18:15:45.670358 20669 image_data_layer.cpp:46] Shuffling data
I1217 18:15:45.672410 20669 image_data_layer.cpp:51] A total of 4235 images.
I1217 18:15:45.699134 20669 image_data_layer.cpp:80] output data size: 80,3,224,224
I1217 18:15:45.712158 20669 net.cpp:120] Top shape: 80 3 224 224 (12042240)
I1217 18:15:45.712203 20669 net.cpp:120] Top shape: 80 (80)
I1217 18:15:45.712218 20669 layer_factory.hpp:74] Creating layer label_data_1_split
I1217 18:15:45.712242 20669 net.cpp:84] Creating Layer label_data_1_split
I1217 18:15:45.712252 20669 net.cpp:380] label_data_1_split <- label
I1217 18:15:45.712270 20669 net.cpp:338] label_data_1_split -> label_data_1_split_0
I1217 18:15:45.712290 20669 net.cpp:338] label_data_1_split -> label_data_1_split_1
I1217 18:15:45.712318 20669 net.cpp:338] label_data_1_split -> label_data_1_split_2
I1217 18:15:45.712340 20669 net.cpp:113] Setting up label_data_1_split
I1217 18:15:45.712354 20669 net.cpp:120] Top shape: 80 (80)
I1217 18:15:45.712362 20669 net.cpp:120] Top shape: 80 (80)
I1217 18:15:45.712368 20669 net.cpp:120] Top shape: 80 (80)
I1217 18:15:45.712373 20669 layer_factory.hpp:74] Creating layer conv1/7x7_s2
I1217 18:15:45.712389 20669 net.cpp:84] Creating Layer conv1/7x7_s2
I1217 18:15:45.712396 20669 net.cpp:380] conv1/7x7_s2 <- data
I1217 18:15:45.712406 20669 net.cpp:338] conv1/7x7_s2 -> conv1/7x7_s2
I1217 18:15:45.712424 20669 net.cpp:113] Setting up conv1/7x7_s2
I1217 18:15:46.019701 20669 net.cpp:120] Top shape: 80 64 112 112 (64225280)
I1217 18:15:46.019809 20669 layer_factory.hpp:74] Creating layer conv1/relu_7x7
I1217 18:15:46.019834 20669 net.cpp:84] Creating Layer conv1/relu_7x7
I1217 18:15:46.019847 20669 net.cpp:380] conv1/relu_7x7 <- conv1/7x7_s2
I1217 18:15:46.019865 20669 net.cpp:327] conv1/relu_7x7 -> conv1/7x7_s2 (in-place)
I1217 18:15:46.019884 20669 net.cpp:113] Setting up conv1/relu_7x7
I1217 18:15:46.020248 20669 net.cpp:120] Top shape: 80 64 112 112 (64225280)
I1217 18:15:46.020272 20669 layer_factory.hpp:74] Creating layer pool1/3x3_s2
I1217 18:15:46.020305 20669 net.cpp:84] Creating Layer pool1/3x3_s2
I1217 18:15:46.020316 20669 net.cpp:380] pool1/3x3_s2 <- conv1/7x7_s2
I1217 18:15:46.020329 20669 net.cpp:338] pool1/3x3_s2 -> pool1/3x3_s2
I1217 18:15:46.020344 20669 net.cpp:113] Setting up pool1/3x3_s2
I1217 18:15:46.020462 20669 net.cpp:120] Top shape: 80 64 56 56 (16056320)
I1217 18:15:46.020475 20669 layer_factory.hpp:74] Creating layer pool1/norm1
I1217 18:15:46.020514 20669 net.cpp:84] Creating Layer pool1/norm1
I1217 18:15:46.020524 20669 net.cpp:380] pool1/norm1 <- pool1/3x3_s2
I1217 18:15:46.020534 20669 net.cpp:338] pool1/norm1 -> pool1/norm1
I1217 18:15:46.020551 20669 net.cpp:113] Setting up pool1/norm1
I1217 18:15:46.020566 20669 net.cpp:120] Top shape: 80 64 56 56 (16056320)
I1217 18:15:46.020576 20669 layer_factory.hpp:74] Creating layer conv2/3x3_reduce
I1217 18:15:46.020594 20669 net.cpp:84] Creating Layer conv2/3x3_reduce
I1217 18:15:46.020603 20669 net.cpp:380] conv2/3x3_reduce <- pool1/norm1
I1217 18:15:46.020615 20669 net.cpp:338] conv2/3x3_reduce -> conv2/3x3_reduce
I1217 18:15:46.020632 20669 net.cpp:113] Setting up conv2/3x3_reduce
I1217 18:15:46.021216 20669 net.cpp:120] Top shape: 80 64 56 56 (16056320)
I1217 18:15:46.021241 20669 layer_factory.hpp:74] Creating layer conv2/relu_3x3_reduce
I1217 18:15:46.021256 20669 net.cpp:84] Creating Layer conv2/relu_3x3_reduce
I1217 18:15:46.021265 20669 net.cpp:380] conv2/relu_3x3_reduce <- conv2/3x3_reduce
I1217 18:15:46.021276 20669 net.cpp:327] conv2/relu_3x3_reduce -> conv2/3x3_reduce (in-place)
I1217 18:15:46.021288 20669 net.cpp:113] Setting up conv2/relu_3x3_reduce
I1217 18:15:46.021373 20669 net.cpp:120] Top shape: 80 64 56 56 (16056320)
I1217 18:15:46.021384 20669 layer_factory.hpp:74] Creating layer conv2/3x3
I1217 18:15:46.021399 20669 net.cpp:84] Creating Layer conv2/3x3
I1217 18:15:46.021409 20669 net.cpp:380] conv2/3x3 <- conv2/3x3_reduce
I1217 18:15:46.021421 20669 net.cpp:338] conv2/3x3 -> conv2/3x3
I1217 18:15:46.021435 20669 net.cpp:113] Setting up conv2/3x3
I1217 18:15:46.023110 20669 net.cpp:120] Top shape: 80 192 56 56 (48168960)
I1217 18:15:46.023134 20669 layer_factory.hpp:74] Creating layer conv2/relu_3x3
I1217 18:15:46.023146 20669 net.cpp:84] Creating Layer conv2/relu_3x3
I1217 18:15:46.023155 20669 net.cpp:380] conv2/relu_3x3 <- conv2/3x3
I1217 18:15:46.023166 20669 net.cpp:327] conv2/relu_3x3 -> conv2/3x3 (in-place)
I1217 18:15:46.023180 20669 net.cpp:113] Setting up conv2/relu_3x3
I1217 18:15:46.023463 20669 net.cpp:120] Top shape: 80 192 56 56 (48168960)
I1217 18:15:46.023486 20669 layer_factory.hpp:74] Creating layer conv2/norm2
I1217 18:15:46.023514 20669 net.cpp:84] Creating Layer conv2/norm2
I1217 18:15:46.023535 20669 net.cpp:380] conv2/norm2 <- conv2/3x3
I1217 18:15:46.023547 20669 net.cpp:338] conv2/norm2 -> conv2/norm2
I1217 18:15:46.023605 20669 net.cpp:113] Setting up conv2/norm2
I1217 18:15:46.023640 20669 net.cpp:120] Top shape: 80 192 56 56 (48168960)
I1217 18:15:46.023649 20669 layer_factory.hpp:74] Creating layer pool2/3x3_s2
I1217 18:15:46.023663 20669 net.cpp:84] Creating Layer pool2/3x3_s2
I1217 18:15:46.023670 20669 net.cpp:380] pool2/3x3_s2 <- conv2/norm2
I1217 18:15:46.023680 20669 net.cpp:338] pool2/3x3_s2 -> pool2/3x3_s2
I1217 18:15:46.023694 20669 net.cpp:113] Setting up pool2/3x3_s2
I1217 18:15:46.023782 20669 net.cpp:120] Top shape: 80 192 28 28 (12042240)
I1217 18:15:46.023794 20669 layer_factory.hpp:74] Creating layer pool2/3x3_s2_pool2/3x3_s2_0_split
I1217 18:15:46.023809 20669 net.cpp:84] Creating Layer pool2/3x3_s2_pool2/3x3_s2_0_split
I1217 18:15:46.023818 20669 net.cpp:380] pool2/3x3_s2_pool2/3x3_s2_0_split <- pool2/3x3_s2
I1217 18:15:46.023830 20669 net.cpp:338] pool2/3x3_s2_pool2/3x3_s2_0_split -> pool2/3x3_s2_pool2/3x3_s2_0_split_0
I1217 18:15:46.023844 20669 net.cpp:338] pool2/3x3_s2_pool2/3x3_s2_0_split -> pool2/3x3_s2_pool2/3x3_s2_0_split_1
I1217 18:15:46.023855 20669 net.cpp:338] pool2/3x3_s2_pool2/3x3_s2_0_split -> pool2/3x3_s2_pool2/3x3_s2_0_split_2
I1217 18:15:46.023869 20669 net.cpp:338] pool2/3x3_s2_pool2/3x3_s2_0_split -> pool2/3x3_s2_pool2/3x3_s2_0_split_3
I1217 18:15:46.023880 20669 net.cpp:113] Setting up pool2/3x3_s2_pool2/3x3_s2_0_split
I1217 18:15:46.023892 20669 net.cpp:120] Top shape: 80 192 28 28 (12042240)
I1217 18:15:46.023902 20669 net.cpp:120] Top shape: 80 192 28 28 (12042240)
I1217 18:15:46.023912 20669 net.cpp:120] Top shape: 80 192 28 28 (12042240)
I1217 18:15:46.023921 20669 net.cpp:120] Top shape: 80 192 28 28 (12042240)
I1217 18:15:46.023929 20669 layer_factory.hpp:74] Creating layer inception_3a/1x1
I1217 18:15:46.023942 20669 net.cpp:84] Creating Layer inception_3a/1x1
I1217 18:15:46.023952 20669 net.cpp:380] inception_3a/1x1 <- pool2/3x3_s2_pool2/3x3_s2_0_split_0
I1217 18:15:46.023962 20669 net.cpp:338] inception_3a/1x1 -> inception_3a/1x1
I1217 18:15:46.023977 20669 net.cpp:113] Setting up inception_3a/1x1
I1217 18:15:46.024634 20669 net.cpp:120] Top shape: 80 64 28 28 (4014080)
I1217 18:15:46.024655 20669 layer_factory.hpp:74] Creating layer inception_3a/relu_1x1
I1217 18:15:46.024667 20669 net.cpp:84] Creating Layer inception_3a/relu_1x1
I1217 18:15:46.024677 20669 net.cpp:380] inception_3a/relu_1x1 <- inception_3a/1x1
I1217 18:15:46.024689 20669 net.cpp:327] inception_3a/relu_1x1 -> inception_3a/1x1 (in-place)
I1217 18:15:46.024700 20669 net.cpp:113] Setting up inception_3a/relu_1x1
I1217 18:15:46.024785 20669 net.cpp:120] Top shape: 80 64 28 28 (4014080)
I1217 18:15:46.024796 20669 layer_factory.hpp:74] Creating layer inception_3a/3x3_reduce
I1217 18:15:46.024809 20669 net.cpp:84] Creating Layer inception_3a/3x3_reduce
I1217 18:15:46.024818 20669 net.cpp:380] inception_3a/3x3_reduce <- pool2/3x3_s2_pool2/3x3_s2_0_split_1
I1217 18:15:46.024830 20669 net.cpp:338] inception_3a/3x3_reduce -> inception_3a/3x3_reduce
I1217 18:15:46.024843 20669 net.cpp:113] Setting up inception_3a/3x3_reduce
I1217 18:15:46.025558 20669 net.cpp:120] Top shape: 80 96 28 28 (6021120)
I1217 18:15:46.025583 20669 layer_factory.hpp:74] Creating layer inception_3a/relu_3x3_reduce
I1217 18:15:46.025598 20669 net.cpp:84] Creating Layer inception_3a/relu_3x3_reduce
I1217 18:15:46.025606 20669 net.cpp:380] inception_3a/relu_3x3_reduce <- inception_3a/3x3_reduce
I1217 18:15:46.025617 20669 net.cpp:327] inception_3a/relu_3x3_reduce -> inception_3a/3x3_reduce (in-place)
I1217 18:15:46.025630 20669 net.cpp:113] Setting up inception_3a/relu_3x3_reduce
I1217 18:15:46.025713 20669 net.cpp:120] Top shape: 80 96 28 28 (6021120)
I1217 18:15:46.025723 20669 layer_factory.hpp:74] Creating layer inception_3a/3x3
I1217 18:15:46.025737 20669 net.cpp:84] Creating Layer inception_3a/3x3
I1217 18:15:46.025745 20669 net.cpp:380] inception_3a/3x3 <- inception_3a/3x3_reduce
I1217 18:15:46.025756 20669 net.cpp:338] inception_3a/3x3 -> inception_3a/3x3
I1217 18:15:46.025770 20669 net.cpp:113] Setting up inception_3a/3x3
I1217 18:15:46.027451 20669 net.cpp:120] Top shape: 80 128 28 28 (8028160)
I1217 18:15:46.027484 20669 layer_factory.hpp:74] Creating layer inception_3a/relu_3x3
I1217 18:15:46.027498 20669 net.cpp:84] Creating Layer inception_3a/relu_3x3
I1217 18:15:46.027508 20669 net.cpp:380] inception_3a/relu_3x3 <- inception_3a/3x3
I1217 18:15:46.027534 20669 net.cpp:327] inception_3a/relu_3x3 -> inception_3a/3x3 (in-place)
I1217 18:15:46.027565 20669 net.cpp:113] Setting up inception_3a/relu_3x3
I1217 18:15:46.027863 20669 net.cpp:120] Top shape: 80 128 28 28 (8028160)
I1217 18:15:46.027878 20669 layer_factory.hpp:74] Creating layer inception_3a/5x5_reduce
I1217 18:15:46.027892 20669 net.cpp:84] Creating Layer inception_3a/5x5_reduce
I1217 18:15:46.027901 20669 net.cpp:380] inception_3a/5x5_reduce <- pool2/3x3_s2_pool2/3x3_s2_0_split_2
I1217 18:15:46.027914 20669 net.cpp:338] inception_3a/5x5_reduce -> inception_3a/5x5_reduce
I1217 18:15:46.027931 20669 net.cpp:113] Setting up inception_3a/5x5_reduce
I1217 18:15:46.028497 20669 net.cpp:120] Top shape: 80 16 28 28 (1003520)
I1217 18:15:46.028522 20669 layer_factory.hpp:74] Creating layer inception_3a/relu_5x5_reduce
I1217 18:15:46.028534 20669 net.cpp:84] Creating Layer inception_3a/relu_5x5_reduce
I1217 18:15:46.028542 20669 net.cpp:380] inception_3a/relu_5x5_reduce <- inception_3a/5x5_reduce
I1217 18:15:46.028553 20669 net.cpp:327] inception_3a/relu_5x5_reduce -> inception_3a/5x5_reduce (in-place)
I1217 18:15:46.028565 20669 net.cpp:113] Setting up inception_3a/relu_5x5_reduce
I1217 18:15:46.028650 20669 net.cpp:120] Top shape: 80 16 28 28 (1003520)
I1217 18:15:46.028661 20669 layer_factory.hpp:74] Creating layer inception_3a/5x5
I1217 18:15:46.028673 20669 net.cpp:84] Creating Layer inception_3a/5x5
I1217 18:15:46.028682 20669 net.cpp:380] inception_3a/5x5 <- inception_3a/5x5_reduce
I1217 18:15:46.028695 20669 net.cpp:338] inception_3a/5x5 -> inception_3a/5x5
I1217 18:15:46.028708 20669 net.cpp:113] Setting up inception_3a/5x5
I1217 18:15:46.029358 20669 net.cpp:120] Top shape: 80 32 28 28 (2007040)
I1217 18:15:46.029381 20669 layer_factory.hpp:74] Creating layer inception_3a/relu_5x5
I1217 18:15:46.029395 20669 net.cpp:84] Creating Layer inception_3a/relu_5x5
I1217 18:15:46.029404 20669 net.cpp:380] inception_3a/relu_5x5 <- inception_3a/5x5
I1217 18:15:46.029415 20669 net.cpp:327] inception_3a/relu_5x5 -> inception_3a/5x5 (in-place)
I1217 18:15:46.029428 20669 net.cpp:113] Setting up inception_3a/relu_5x5
I1217 18:15:46.029513 20669 net.cpp:120] Top shape: 80 32 28 28 (2007040)
I1217 18:15:46.029525 20669 layer_factory.hpp:74] Creating layer inception_3a/pool
I1217 18:15:46.029533 20669 layer_factory.cpp:56] CUDNN does not support padding or multiple tops. Using Caffe's own pooling layer.
I1217 18:15:46.029546 20669 net.cpp:84] Creating Layer inception_3a/pool
I1217 18:15:46.029554 20669 net.cpp:380] inception_3a/pool <- pool2/3x3_s2_pool2/3x3_s2_0_split_3
I1217 18:15:46.029566 20669 net.cpp:338] inception_3a/pool -> inception_3a/pool
I1217 18:15:46.029578 20669 net.cpp:113] Setting up inception_3a/pool
I1217 18:15:46.029592 20669 net.cpp:120] Top shape: 80 192 28 28 (12042240)
I1217 18:15:46.029602 20669 layer_factory.hpp:74] Creating layer inception_3a/pool_proj
I1217 18:15:46.029613 20669 net.cpp:84] Creating Layer inception_3a/pool_proj
I1217 18:15:46.029621 20669 net.cpp:380] inception_3a/pool_proj <- inception_3a/pool
I1217 18:15:46.029633 20669 net.cpp:338] inception_3a/pool_proj -> inception_3a/pool_proj
I1217 18:15:46.029646 20669 net.cpp:113] Setting up inception_3a/pool_proj
I1217 18:15:46.030225 20669 net.cpp:120] Top shape: 80 32 28 28 (2007040)
I1217 18:15:46.030249 20669 layer_factory.hpp:74] Creating layer inception_3a/relu_pool_proj
I1217 18:15:46.030263 20669 net.cpp:84] Creating Layer inception_3a/relu_pool_proj
I1217 18:15:46.030272 20669 net.cpp:380] inception_3a/relu_pool_proj <- inception_3a/pool_proj
I1217 18:15:46.030283 20669 net.cpp:327] inception_3a/relu_pool_proj -> inception_3a/pool_proj (in-place)
I1217 18:15:46.030303 20669 net.cpp:113] Setting up inception_3a/relu_pool_proj
I1217 18:15:46.030396 20669 net.cpp:120] Top shape: 80 32 28 28 (2007040)
I1217 18:15:46.030406 20669 layer_factory.hpp:74] Creating layer inception_3a/output
I1217 18:15:46.030418 20669 net.cpp:84] Creating Layer inception_3a/output
I1217 18:15:46.030427 20669 net.cpp:380] inception_3a/output <- inception_3a/1x1
I1217 18:15:46.030437 20669 net.cpp:380] inception_3a/output <- inception_3a/3x3
I1217 18:15:46.030447 20669 net.cpp:380] inception_3a/output <- inception_3a/5x5
I1217 18:15:46.030454 20669 net.cpp:380] inception_3a/output <- inception_3a/pool_proj
I1217 18:15:46.030465 20669 net.cpp:338] inception_3a/output -> inception_3a/output
I1217 18:15:46.030478 20669 net.cpp:113] Setting up inception_3a/output
I1217 18:15:46.030491 20669 net.cpp:120] Top shape: 80 256 28 28 (16056320)
I1217 18:15:46.030500 20669 layer_factory.hpp:74] Creating layer inception_3a/output_inception_3a/output_0_split
I1217 18:15:46.030513 20669 net.cpp:84] Creating Layer inception_3a/output_inception_3a/output_0_split
I1217 18:15:46.030520 20669 net.cpp:380] inception_3a/output_inception_3a/output_0_split <- inception_3a/output
I1217 18:15:46.030531 20669 net.cpp:338] inception_3a/output_inception_3a/output_0_split -> inception_3a/output_inception_3a/output_0_split_0
I1217 18:15:46.030544 20669 net.cpp:338] inception_3a/output_inception_3a/output_0_split -> inception_3a/output_inception_3a/output_0_split_1
I1217 18:15:46.030556 20669 net.cpp:338] inception_3a/output_inception_3a/output_0_split -> inception_3a/output_inception_3a/output_0_split_2
I1217 18:15:46.030570 20669 net.cpp:338] inception_3a/output_inception_3a/output_0_split -> inception_3a/output_inception_3a/output_0_split_3
I1217 18:15:46.030580 20669 net.cpp:113] Setting up inception_3a/output_inception_3a/output_0_split
I1217 18:15:46.030593 20669 net.cpp:120] Top shape: 80 256 28 28 (16056320)
I1217 18:15:46.030602 20669 net.cpp:120] Top shape: 80 256 28 28 (16056320)
I1217 18:15:46.030612 20669 net.cpp:120] Top shape: 80 256 28 28 (16056320)
I1217 18:15:46.030622 20669 net.cpp:120] Top shape: 80 256 28 28 (16056320)
I1217 18:15:46.030629 20669 layer_factory.hpp:74] Creating layer inception_3b/1x1
I1217 18:15:46.030642 20669 net.cpp:84] Creating Layer inception_3b/1x1
I1217 18:15:46.030650 20669 net.cpp:380] inception_3b/1x1 <- inception_3a/output_inception_3a/output_0_split_0
I1217 18:15:46.030661 20669 net.cpp:338] inception_3b/1x1 -> inception_3b/1x1
I1217 18:15:46.030674 20669 net.cpp:113] Setting up inception_3b/1x1
I1217 18:15:46.031512 20669 net.cpp:120] Top shape: 80 128 28 28 (8028160)
I1217 18:15:46.031533 20669 layer_factory.hpp:74] Creating layer inception_3b/relu_1x1
I1217 18:15:46.031545 20669 net.cpp:84] Creating Layer inception_3b/relu_1x1
I1217 18:15:46.031553 20669 net.cpp:380] inception_3b/relu_1x1 <- inception_3b/1x1
I1217 18:15:46.031564 20669 net.cpp:327] inception_3b/relu_1x1 -> inception_3b/1x1 (in-place)
I1217 18:15:46.031576 20669 net.cpp:113] Setting up inception_3b/relu_1x1
I1217 18:15:46.031903 20669 net.cpp:120] Top shape: 80 128 28 28 (8028160)
I1217 18:15:46.031918 20669 layer_factory.hpp:74] Creating layer inception_3b/3x3_reduce
I1217 18:15:46.031932 20669 net.cpp:84] Creating Layer inception_3b/3x3_reduce
I1217 18:15:46.031941 20669 net.cpp:380] inception_3b/3x3_reduce <- inception_3a/output_inception_3a/output_0_split_1
I1217 18:15:46.031954 20669 net.cpp:338] inception_3b/3x3_reduce -> inception_3b/3x3_reduce
I1217 18:15:46.031967 20669 net.cpp:113] Setting up inception_3b/3x3_reduce
I1217 18:15:46.032829 20669 net.cpp:120] Top shape: 80 128 28 28 (8028160)
I1217 18:15:46.032850 20669 layer_factory.hpp:74] Creating layer inception_3b/relu_3x3_reduce
I1217 18:15:46.032861 20669 net.cpp:84] Creating Layer inception_3b/relu_3x3_reduce
I1217 18:15:46.032871 20669 net.cpp:380] inception_3b/relu_3x3_reduce <- inception_3b/3x3_reduce
I1217 18:15:46.032881 20669 net.cpp:327] inception_3b/relu_3x3_reduce -> inception_3b/3x3_reduce (in-place)
I1217 18:15:46.032893 20669 net.cpp:113] Setting up inception_3b/relu_3x3_reduce
I1217 18:15:46.032986 20669 net.cpp:120] Top shape: 80 128 28 28 (8028160)
I1217 18:15:46.033006 20669 layer_factory.hpp:74] Creating layer inception_3b/3x3
I1217 18:15:46.033022 20669 net.cpp:84] Creating Layer inception_3b/3x3
I1217 18:15:46.033031 20669 net.cpp:380] inception_3b/3x3 <- inception_3b/3x3_reduce
I1217 18:15:46.033043 20669 net.cpp:338] inception_3b/3x3 -> inception_3b/3x3
I1217 18:15:46.061571 20669 net.cpp:113] Setting up inception_3b/3x3
I1217 18:15:46.065636 20669 net.cpp:120] Top shape: 80 192 28 28 (12042240)
I1217 18:15:46.065665 20669 layer_factory.hpp:74] Creating layer inception_3b/relu_3x3
I1217 18:15:46.065704 20669 net.cpp:84] Creating Layer inception_3b/relu_3x3
I1217 18:15:46.065731 20669 net.cpp:380] inception_3b/relu_3x3 <- inception_3b/3x3
I1217 18:15:46.065750 20669 net.cpp:327] inception_3b/relu_3x3 -> inception_3b/3x3 (in-place)
I1217 18:15:46.065774 20669 net.cpp:113] Setting up inception_3b/relu_3x3
I1217 18:15:46.065878 20669 net.cpp:120] Top shape: 80 192 28 28 (12042240)
I1217 18:15:46.065889 20669 layer_factory.hpp:74] Creating layer inception_3b/5x5_reduce
I1217 18:15:46.065906 20669 net.cpp:84] Creating Layer inception_3b/5x5_reduce
I1217 18:15:46.065915 20669 net.cpp:380] inception_3b/5x5_reduce <- inception_3a/output_inception_3a/output_0_split_2
I1217 18:15:46.065930 20669 net.cpp:338] inception_3b/5x5_reduce -> inception_3b/5x5_reduce
I1217 18:15:46.065946 20669 net.cpp:113] Setting up inception_3b/5x5_reduce
I1217 18:15:46.067018 20669 net.cpp:120] Top shape: 80 32 28 28 (2007040)
I1217 18:15:46.067042 20669 layer_factory.hpp:74] Creating layer inception_3b/relu_5x5_reduce
I1217 18:15:46.067054 20669 net.cpp:84] Creating Layer inception_3b/relu_5x5_reduce
I1217 18:15:46.067064 20669 net.cpp:380] inception_3b/relu_5x5_reduce <- inception_3b/5x5_reduce
I1217 18:15:46.067075 20669 net.cpp:327] inception_3b/relu_5x5_reduce -> inception_3b/5x5_reduce (in-place)
I1217 18:15:46.067088 20669 net.cpp:113] Setting up inception_3b/relu_5x5_reduce
I1217 18:15:46.067183 20669 net.cpp:120] Top shape: 80 32 28 28 (2007040)
I1217 18:15:46.067195 20669 layer_factory.hpp:74] Creating layer inception_3b/5x5
I1217 18:15:46.067214 20669 net.cpp:84] Creating Layer inception_3b/5x5
I1217 18:15:46.067221 20669 net.cpp:380] inception_3b/5x5 <- inception_3b/5x5_reduce
I1217 18:15:46.067234 20669 net.cpp:338] inception_3b/5x5 -> inception_3b/5x5
I1217 18:15:46.067255 20669 net.cpp:113] Setting up inception_3b/5x5
I1217 18:15:46.068910 20669 net.cpp:120] Top shape: 80 96 28 28 (6021120)
I1217 18:15:46.068958 20669 layer_factory.hpp:74] Creating layer inception_3b/relu_5x5
I1217 18:15:46.068977 20669 net.cpp:84] Creating Layer inception_3b/relu_5x5
I1217 18:15:46.068989 20669 net.cpp:380] inception_3b/relu_5x5 <- inception_3b/5x5
I1217 18:15:46.069002 20669 net.cpp:327] inception_3b/relu_5x5 -> inception_3b/5x5 (in-place)
I1217 18:15:46.069018 20669 net.cpp:113] Setting up inception_3b/relu_5x5
I1217 18:15:46.082895 20669 net.cpp:120] Top shape: 80 96 28 28 (6021120)
I1217 18:15:46.082979 20669 layer_factory.hpp:74] Creating layer inception_3b/pool
I1217 18:15:46.082993 20669 layer_factory.cpp:56] CUDNN does not support padding or multiple tops. Using Caffe's own pooling layer.
I1217 18:15:46.083015 20669 net.cpp:84] Creating Layer inception_3b/pool
I1217 18:15:46.083029 20669 net.cpp:380] inception_3b/pool <- inception_3a/output_inception_3a/output_0_split_3
I1217 18:15:46.083050 20669 net.cpp:338] inception_3b/pool -> inception_3b/pool
I1217 18:15:46.083073 20669 net.cpp:113] Setting up inception_3b/pool
I1217 18:15:46.083094 20669 net.cpp:120] Top shape: 80 256 28 28 (16056320)
I1217 18:15:46.083103 20669 layer_factory.hpp:74] Creating layer inception_3b/pool_proj
I1217 18:15:46.083122 20669 net.cpp:84] Creating Layer inception_3b/pool_proj
I1217 18:15:46.083130 20669 net.cpp:380] inception_3b/pool_proj <- inception_3b/pool
I1217 18:15:46.083142 20669 net.cpp:338] inception_3b/pool_proj -> inception_3b/pool_proj
I1217 18:15:46.083158 20669 net.cpp:113] Setting up inception_3b/pool_proj
I1217 18:15:46.084467 20669 net.cpp:120] Top shape: 80 64 28 28 (4014080)
I1217 18:15:46.084507 20669 layer_factory.hpp:74] Creating layer inception_3b/relu_pool_proj
I1217 18:15:46.084522 20669 net.cpp:84] Creating Layer inception_3b/relu_pool_proj
I1217 18:15:46.084533 20669 net.cpp:380] inception_3b/relu_pool_proj <- inception_3b/pool_proj
I1217 18:15:46.084545 20669 net.cpp:327] inception_3b/relu_pool_proj -> inception_3b/pool_proj (in-place)
I1217 18:15:46.084558 20669 net.cpp:113] Setting up inception_3b/relu_pool_proj
I1217 18:15:46.084664 20669 net.cpp:120] Top shape: 80 64 28 28 (4014080)
I1217 18:15:46.084676 20669 layer_factory.hpp:74] Creating layer inception_3b/output
I1217 18:15:46.084691 20669 net.cpp:84] Creating Layer inception_3b/output
I1217 18:15:46.084699 20669 net.cpp:380] inception_3b/output <- inception_3b/1x1
I1217 18:15:46.084709 20669 net.cpp:380] inception_3b/output <- inception_3b/3x3
I1217 18:15:46.084719 20669 net.cpp:380] inception_3b/output <- inception_3b/5x5
I1217 18:15:46.084728 20669 net.cpp:380] inception_3b/output <- inception_3b/pool_proj
I1217 18:15:46.084738 20669 net.cpp:338] inception_3b/output -> inception_3b/output
I1217 18:15:46.084751 20669 net.cpp:113] Setting up inception_3b/output
I1217 18:15:46.084765 20669 net.cpp:120] Top shape: 80 480 28 28 (30105600)
I1217 18:15:46.084774 20669 layer_factory.hpp:74] Creating layer pool3/3x3_s2
I1217 18:15:46.084789 20669 net.cpp:84] Creating Layer pool3/3x3_s2
I1217 18:15:46.084797 20669 net.cpp:380] pool3/3x3_s2 <- inception_3b/output
I1217 18:15:46.084808 20669 net.cpp:338] pool3/3x3_s2 -> pool3/3x3_s2
I1217 18:15:46.084838 20669 net.cpp:113] Setting up pool3/3x3_s2
I1217 18:15:46.089159 20669 net.cpp:120] Top shape: 80 480 14 14 (7526400)
I1217 18:15:46.089179 20669 layer_factory.hpp:74] Creating layer pool3/3x3_s2_pool3/3x3_s2_0_split
I1217 18:15:46.089190 20669 net.cpp:84] Creating Layer pool3/3x3_s2_pool3/3x3_s2_0_split
I1217 18:15:46.089200 20669 net.cpp:380] pool3/3x3_s2_pool3/3x3_s2_0_split <- pool3/3x3_s2
I1217 18:15:46.089212 20669 net.cpp:338] pool3/3x3_s2_pool3/3x3_s2_0_split -> pool3/3x3_s2_pool3/3x3_s2_0_split_0
I1217 18:15:46.089226 20669 net.cpp:338] pool3/3x3_s2_pool3/3x3_s2_0_split -> pool3/3x3_s2_pool3/3x3_s2_0_split_1
I1217 18:15:46.089241 20669 net.cpp:338] pool3/3x3_s2_pool3/3x3_s2_0_split -> pool3/3x3_s2_pool3/3x3_s2_0_split_2
I1217 18:15:46.089254 20669 net.cpp:338] pool3/3x3_s2_pool3/3x3_s2_0_split -> pool3/3x3_s2_pool3/3x3_s2_0_split_3
I1217 18:15:46.089265 20669 net.cpp:113] Setting up pool3/3x3_s2_pool3/3x3_s2_0_split
I1217 18:15:46.089279 20669 net.cpp:120] Top shape: 80 480 14 14 (7526400)
I1217 18:15:46.089289 20669 net.cpp:120] Top shape: 80 480 14 14 (7526400)
I1217 18:15:46.089298 20669 net.cpp:120] Top shape: 80 480 14 14 (7526400)
I1217 18:15:46.089308 20669 net.cpp:120] Top shape: 80 480 14 14 (7526400)
I1217 18:15:46.089315 20669 layer_factory.hpp:74] Creating layer inception_4a/1x1
I1217 18:15:46.089330 20669 net.cpp:84] Creating Layer inception_4a/1x1
I1217 18:15:46.089339 20669 net.cpp:380] inception_4a/1x1 <- pool3/3x3_s2_pool3/3x3_s2_0_split_0
I1217 18:15:46.089350 20669 net.cpp:338] inception_4a/1x1 -> inception_4a/1x1
I1217 18:15:46.089364 20669 net.cpp:113] Setting up inception_4a/1x1
I1217 18:15:46.091095 20669 net.cpp:120] Top shape: 80 192 14 14 (3010560)
I1217 18:15:46.091120 20669 layer_factory.hpp:74] Creating layer inception_4a/relu_1x1
I1217 18:15:46.091133 20669 net.cpp:84] Creating Layer inception_4a/relu_1x1
I1217 18:15:46.091142 20669 net.cpp:380] inception_4a/relu_1x1 <- inception_4a/1x1
I1217 18:15:46.091153 20669 net.cpp:327] inception_4a/relu_1x1 -> inception_4a/1x1 (in-place)
I1217 18:15:46.091166 20669 net.cpp:113] Setting up inception_4a/relu_1x1
I1217 18:15:46.091464 20669 net.cpp:120] Top shape: 80 192 14 14 (3010560)
I1217 18:15:46.091480 20669 layer_factory.hpp:74] Creating layer inception_4a/3x3_reduce
I1217 18:15:46.091500 20669 net.cpp:84] Creating Layer inception_4a/3x3_reduce
I1217 18:15:46.091508 20669 net.cpp:380] inception_4a/3x3_reduce <- pool3/3x3_s2_pool3/3x3_s2_0_split_1
I1217 18:15:46.091531 20669 net.cpp:338] inception_4a/3x3_reduce -> inception_4a/3x3_reduce
I1217 18:15:46.091553 20669 net.cpp:113] Setting up inception_4a/3x3_reduce
I1217 18:15:46.116087 20669 net.cpp:120] Top shape: 80 96 14 14 (1505280)
I1217 18:15:46.116168 20669 layer_factory.hpp:74] Creating layer inception_4a/relu_3x3_reduce
I1217 18:15:46.116184 20669 net.cpp:84] Creating Layer inception_4a/relu_3x3_reduce
I1217 18:15:46.116195 20669 net.cpp:380] inception_4a/relu_3x3_reduce <- inception_4a/3x3_reduce
I1217 18:15:46.116210 20669 net.cpp:327] inception_4a/relu_3x3_reduce -> inception_4a/3x3_reduce (in-place)
I1217 18:15:46.116226 20669 net.cpp:113] Setting up inception_4a/relu_3x3_reduce
I1217 18:15:46.116333 20669 net.cpp:120] Top shape: 80 96 14 14 (1505280)
I1217 18:15:46.116343 20669 layer_factory.hpp:74] Creating layer inception_4a/3x3
I1217 18:15:46.116379 20669 net.cpp:84] Creating Layer inception_4a/3x3
I1217 18:15:46.116389 20669 net.cpp:380] inception_4a/3x3 <- inception_4a/3x3_reduce
I1217 18:15:46.116402 20669 net.cpp:338] inception_4a/3x3 -> inception_4a/3x3
I1217 18:15:46.116417 20669 net.cpp:113] Setting up inception_4a/3x3
I1217 18:15:46.124915 20669 net.cpp:120] Top shape: 80 208 14 14 (3261440)
I1217 18:15:46.124941 20669 layer_factory.hpp:74] Creating layer inception_4a/relu_3x3
I1217 18:15:46.124963 20669 net.cpp:84] Creating Layer inception_4a/relu_3x3
I1217 18:15:46.124972 20669 net.cpp:380] inception_4a/relu_3x3 <- inception_4a/3x3
I1217 18:15:46.124984 20669 net.cpp:327] inception_4a/relu_3x3 -> inception_4a/3x3 (in-place)
I1217 18:15:46.124997 20669 net.cpp:113] Setting up inception_4a/relu_3x3
I1217 18:15:46.125102 20669 net.cpp:120] Top shape: 80 208 14 14 (3261440)
I1217 18:15:46.125118 20669 layer_factory.hpp:74] Creating layer inception_4a/5x5_reduce
I1217 18:15:46.125133 20669 net.cpp:84] Creating Layer inception_4a/5x5_reduce
I1217 18:15:46.125144 20669 net.cpp:380] inception_4a/5x5_reduce <- pool3/3x3_s2_pool3/3x3_s2_0_split_2
I1217 18:15:46.125156 20669 net.cpp:338] inception_4a/5x5_reduce -> inception_4a/5x5_reduce
I1217 18:15:46.125170 20669 net.cpp:113] Setting up inception_4a/5x5_reduce
I1217 18:15:46.126330 20669 net.cpp:120] Top shape: 80 16 14 14 (250880)
I1217 18:15:46.126353 20669 layer_factory.hpp:74] Creating layer inception_4a/relu_5x5_reduce
I1217 18:15:46.126365 20669 net.cpp:84] Creating Layer inception_4a/relu_5x5_reduce
I1217 18:15:46.126375 20669 net.cpp:380] inception_4a/relu_5x5_reduce <- inception_4a/5x5_reduce
I1217 18:15:46.126389 20669 net.cpp:327] inception_4a/relu_5x5_reduce -> inception_4a/5x5_reduce (in-place)
I1217 18:15:46.126401 20669 net.cpp:113] Setting up inception_4a/relu_5x5_reduce
I1217 18:15:46.126503 20669 net.cpp:120] Top shape: 80 16 14 14 (250880)
I1217 18:15:46.126518 20669 layer_factory.hpp:74] Creating layer inception_4a/5x5
I1217 18:15:46.126530 20669 net.cpp:84] Creating Layer inception_4a/5x5
I1217 18:15:46.126538 20669 net.cpp:380] inception_4a/5x5 <- inception_4a/5x5_reduce
I1217 18:15:46.126554 20669 net.cpp:338] inception_4a/5x5 -> inception_4a/5x5
I1217 18:15:46.126567 20669 net.cpp:113] Setting up inception_4a/5x5
I1217 18:15:46.128069 20669 net.cpp:120] Top shape: 80 48 14 14 (752640)
I1217 18:15:46.128093 20669 layer_factory.hpp:74] Creating layer inception_4a/relu_5x5
I1217 18:15:46.128105 20669 net.cpp:84] Creating Layer inception_4a/relu_5x5
I1217 18:15:46.128115 20669 net.cpp:380] inception_4a/relu_5x5 <- inception_4a/5x5
I1217 18:15:46.128129 20669 net.cpp:327] inception_4a/relu_5x5 -> inception_4a/5x5 (in-place)
I1217 18:15:46.128141 20669 net.cpp:113] Setting up inception_4a/relu_5x5
I1217 18:15:46.128770 20669 net.cpp:120] Top shape: 80 48 14 14 (752640)
I1217 18:15:46.128787 20669 layer_factory.hpp:74] Creating layer inception_4a/pool
I1217 18:15:46.128798 20669 layer_factory.cpp:56] CUDNN does not support padding or multiple tops. Using Caffe's own pooling layer.
I1217 18:15:46.128809 20669 net.cpp:84] Creating Layer inception_4a/pool
I1217 18:15:46.128818 20669 net.cpp:380] inception_4a/pool <- pool3/3x3_s2_pool3/3x3_s2_0_split_3
I1217 18:15:46.128859 20669 net.cpp:338] inception_4a/pool -> inception_4a/pool
I1217 18:15:46.128872 20669 net.cpp:113] Setting up inception_4a/pool
I1217 18:15:46.128890 20669 net.cpp:120] Top shape: 80 480 14 14 (7526400)
I1217 18:15:46.128898 20669 layer_factory.hpp:74] Creating layer inception_4a/pool_proj
I1217 18:15:46.128913 20669 net.cpp:84] Creating Layer inception_4a/pool_proj
I1217 18:15:46.128922 20669 net.cpp:380] inception_4a/pool_proj <- inception_4a/pool
I1217 18:15:46.128936 20669 net.cpp:338] inception_4a/pool_proj -> inception_4a/pool_proj
I1217 18:15:46.128949 20669 net.cpp:113] Setting up inception_4a/pool_proj
I1217 18:15:46.130758 20669 net.cpp:120] Top shape: 80 64 14 14 (1003520)
I1217 18:15:46.130780 20669 layer_factory.hpp:74] Creating layer inception_4a/relu_pool_proj
I1217 18:15:46.130795 20669 net.cpp:84] Creating Layer inception_4a/relu_pool_proj
I1217 18:15:46.130805 20669 net.cpp:380] inception_4a/relu_pool_proj <- inception_4a/pool_proj
I1217 18:15:46.130816 20669 net.cpp:327] inception_4a/relu_pool_proj -> inception_4a/pool_proj (in-place)
I1217 18:15:46.130830 20669 net.cpp:113] Setting up inception_4a/relu_pool_proj
I1217 18:15:46.130928 20669 net.cpp:120] Top shape: 80 64 14 14 (1003520)
I1217 18:15:46.130939 20669 layer_factory.hpp:74] Creating layer inception_4a/output
I1217 18:15:46.130950 20669 net.cpp:84] Creating Layer inception_4a/output
I1217 18:15:46.130959 20669 net.cpp:380] inception_4a/output <- inception_4a/1x1
I1217 18:15:46.130969 20669 net.cpp:380] inception_4a/output <- inception_4a/3x3
I1217 18:15:46.130978 20669 net.cpp:380] inception_4a/output <- inception_4a/5x5
I1217 18:15:46.130986 20669 net.cpp:380] inception_4a/output <- inception_4a/pool_proj
I1217 18:15:46.130997 20669 net.cpp:338] inception_4a/output -> inception_4a/output
I1217 18:15:46.131009 20669 net.cpp:113] Setting up inception_4a/output
I1217 18:15:46.131034 20669 net.cpp:120] Top shape: 80 512 14 14 (8028160)
I1217 18:15:46.131052 20669 layer_factory.hpp:74] Creating layer inception_4a/output_inception_4a/output_0_split
I1217 18:15:46.131080 20669 net.cpp:84] Creating Layer inception_4a/output_inception_4a/output_0_split
I1217 18:15:46.131091 20669 net.cpp:380] inception_4a/output_inception_4a/output_0_split <- inception_4a/output
I1217 18:15:46.131103 20669 net.cpp:338] inception_4a/output_inception_4a/output_0_split -> inception_4a/output_inception_4a/output_0_split_0
I1217 18:15:46.131121 20669 net.cpp:338] inception_4a/output_inception_4a/output_0_split -> inception_4a/output_inception_4a/output_0_split_1
I1217 18:15:46.131139 20669 net.cpp:338] inception_4a/output_inception_4a/output_0_split -> inception_4a/output_inception_4a/output_0_split_2
I1217 18:15:46.131151 20669 net.cpp:338] inception_4a/output_inception_4a/output_0_split -> inception_4a/output_inception_4a/output_0_split_3
I1217 18:15:46.131162 20669 net.cpp:338] inception_4a/output_inception_4a/output_0_split -> inception_4a/output_inception_4a/output_0_split_4
I1217 18:15:46.131175 20669 net.cpp:113] Setting up inception_4a/output_inception_4a/output_0_split
I1217 18:15:46.131191 20669 net.cpp:120] Top shape: 80 512 14 14 (8028160)
I1217 18:15:46.131201 20669 net.cpp:120] Top shape: 80 512 14 14 (8028160)
I1217 18:15:46.131211 20669 net.cpp:120] Top shape: 80 512 14 14 (8028160)
I1217 18:15:46.131220 20669 net.cpp:120] Top shape: 80 512 14 14 (8028160)
I1217 18:15:46.131229 20669 net.cpp:120] Top shape: 80 512 14 14 (8028160)
I1217 18:15:46.131238 20669 layer_factory.hpp:74] Creating layer loss1/ave_pool
I1217 18:15:46.131249 20669 net.cpp:84] Creating Layer loss1/ave_pool
I1217 18:15:46.131258 20669 net.cpp:380] loss1/ave_pool <- inception_4a/output_inception_4a/output_0_split_0
I1217 18:15:46.131269 20669 net.cpp:338] loss1/ave_pool -> loss1/ave_pool
I1217 18:15:46.131283 20669 net.cpp:113] Setting up loss1/ave_pool
I1217 18:15:46.131381 20669 net.cpp:120] Top shape: 80 512 4 4 (655360)
I1217 18:15:46.131392 20669 layer_factory.hpp:74] Creating layer loss1/conv
I1217 18:15:46.131417 20669 net.cpp:84] Creating Layer loss1/conv
I1217 18:15:46.131433 20669 net.cpp:380] loss1/conv <- loss1/ave_pool
I1217 18:15:46.131448 20669 net.cpp:338] loss1/conv -> loss1/conv
I1217 18:15:46.131461 20669 net.cpp:113] Setting up loss1/conv
I1217 18:15:46.133397 20669 net.cpp:120] Top shape: 80 128 4 4 (163840)
I1217 18:15:46.133421 20669 layer_factory.hpp:74] Creating layer loss1/relu_conv
I1217 18:15:46.133435 20669 net.cpp:84] Creating Layer loss1/relu_conv
I1217 18:15:46.133445 20669 net.cpp:380] loss1/relu_conv <- loss1/conv
I1217 18:15:46.133460 20669 net.cpp:327] loss1/relu_conv -> loss1/conv (in-place)
I1217 18:15:46.133474 20669 net.cpp:113] Setting up loss1/relu_conv
I1217 18:15:46.133569 20669 net.cpp:120] Top shape: 80 128 4 4 (163840)
I1217 18:15:46.133580 20669 layer_factory.hpp:74] Creating layer loss1/fc
I1217 18:15:46.133596 20669 net.cpp:84] Creating Layer loss1/fc
I1217 18:15:46.133605 20669 net.cpp:380] loss1/fc <- loss1/conv
I1217 18:15:46.133617 20669 net.cpp:338] loss1/fc -> loss1/fc
I1217 18:15:46.133637 20669 net.cpp:113] Setting up loss1/fc
I1217 18:15:46.193269 20669 net.cpp:120] Top shape: 80 1024 (81920)
I1217 18:15:46.193343 20669 layer_factory.hpp:74] Creating layer loss1/relu_fc
I1217 18:15:46.193367 20669 net.cpp:84] Creating Layer loss1/relu_fc
I1217 18:15:46.193378 20669 net.cpp:380] loss1/relu_fc <- loss1/fc
I1217 18:15:46.193397 20669 net.cpp:327] loss1/relu_fc -> loss1/fc (in-place)
I1217 18:15:46.193423 20669 net.cpp:113] Setting up loss1/relu_fc
I1217 18:15:46.196228 20669 net.cpp:120] Top shape: 80 1024 (81920)
I1217 18:15:46.196247 20669 layer_factory.hpp:74] Creating layer loss1/drop_fc
I1217 18:15:46.196279 20669 net.cpp:84] Creating Layer loss1/drop_fc
I1217 18:15:46.196290 20669 net.cpp:380] loss1/drop_fc <- loss1/fc
I1217 18:15:46.196302 20669 net.cpp:327] loss1/drop_fc -> loss1/fc (in-place)
I1217 18:15:46.196328 20669 net.cpp:113] Setting up loss1/drop_fc
I1217 18:15:46.196348 20669 net.cpp:120] Top shape: 80 1024 (81920)
I1217 18:15:46.196359 20669 layer_factory.hpp:74] Creating layer loss1/classifier_kaggle
I1217 18:15:46.196380 20669 net.cpp:84] Creating Layer loss1/classifier_kaggle
I1217 18:15:46.196389 20669 net.cpp:380] loss1/classifier_kaggle <- loss1/fc
I1217 18:15:46.196404 20669 net.cpp:338] loss1/classifier_kaggle -> loss1/classifier_kaggle
I1217 18:15:46.196420 20669 net.cpp:113] Setting up loss1/classifier_kaggle
I1217 18:15:46.210886 20669 net.cpp:120] Top shape: 80 447 (35760)
I1217 18:15:46.210958 20669 layer_factory.hpp:74] Creating layer loss1/loss
I1217 18:15:46.210984 20669 net.cpp:84] Creating Layer loss1/loss
I1217 18:15:46.211000 20669 net.cpp:380] loss1/loss <- loss1/classifier_kaggle
I1217 18:15:46.211014 20669 net.cpp:380] loss1/loss <- label_data_1_split_0
I1217 18:15:46.211031 20669 net.cpp:338] loss1/loss -> loss1/loss1
I1217 18:15:46.211050 20669 net.cpp:113] Setting up loss1/loss
I1217 18:15:46.211071 20669 layer_factory.hpp:74] Creating layer loss1/loss
I1217 18:15:46.211333 20669 net.cpp:120] Top shape: (1)
I1217 18:15:46.211346 20669 net.cpp:122]     with loss weight 0.3
I1217 18:15:46.211375 20669 layer_factory.hpp:74] Creating layer inception_4b/1x1
I1217 18:15:46.211392 20669 net.cpp:84] Creating Layer inception_4b/1x1
I1217 18:15:46.211401 20669 net.cpp:380] inception_4b/1x1 <- inception_4a/output_inception_4a/output_0_split_1
I1217 18:15:46.211416 20669 net.cpp:338] inception_4b/1x1 -> inception_4b/1x1
I1217 18:15:46.211431 20669 net.cpp:113] Setting up inception_4b/1x1
I1217 18:15:46.220593 20669 net.cpp:120] Top shape: 80 160 14 14 (2508800)
I1217 18:15:46.220638 20669 layer_factory.hpp:74] Creating layer inception_4b/relu_1x1
I1217 18:15:46.220654 20669 net.cpp:84] Creating Layer inception_4b/relu_1x1
I1217 18:15:46.220674 20669 net.cpp:380] inception_4b/relu_1x1 <- inception_4b/1x1
I1217 18:15:46.220710 20669 net.cpp:327] inception_4b/relu_1x1 -> inception_4b/1x1 (in-place)
I1217 18:15:46.220746 20669 net.cpp:113] Setting up inception_4b/relu_1x1
I1217 18:15:46.220845 20669 net.cpp:120] Top shape: 80 160 14 14 (2508800)
I1217 18:15:46.220875 20669 layer_factory.hpp:74] Creating layer inception_4b/3x3_reduce
I1217 18:15:46.220921 20669 net.cpp:84] Creating Layer inception_4b/3x3_reduce
I1217 18:15:46.220932 20669 net.cpp:380] inception_4b/3x3_reduce <- inception_4a/output_inception_4a/output_0_split_2
I1217 18:15:46.220943 20669 net.cpp:338] inception_4b/3x3_reduce -> inception_4b/3x3_reduce
I1217 18:15:46.220962 20669 net.cpp:113] Setting up inception_4b/3x3_reduce
I1217 18:15:46.222257 20669 net.cpp:120] Top shape: 80 112 14 14 (1756160)
I1217 18:15:46.222280 20669 layer_factory.hpp:74] Creating layer inception_4b/relu_3x3_reduce
I1217 18:15:46.222308 20669 net.cpp:84] Creating Layer inception_4b/relu_3x3_reduce
I1217 18:15:46.222337 20669 net.cpp:380] inception_4b/relu_3x3_reduce <- inception_4b/3x3_reduce
I1217 18:15:46.222357 20669 net.cpp:327] inception_4b/relu_3x3_reduce -> inception_4b/3x3_reduce (in-place)
I1217 18:15:46.222371 20669 net.cpp:113] Setting up inception_4b/relu_3x3_reduce
I1217 18:15:46.222468 20669 net.cpp:120] Top shape: 80 112 14 14 (1756160)
I1217 18:15:46.222481 20669 layer_factory.hpp:74] Creating layer inception_4b/3x3
I1217 18:15:46.222494 20669 net.cpp:84] Creating Layer inception_4b/3x3
I1217 18:15:46.222503 20669 net.cpp:380] inception_4b/3x3 <- inception_4b/3x3_reduce
I1217 18:15:46.222517 20669 net.cpp:338] inception_4b/3x3 -> inception_4b/3x3
I1217 18:15:46.222532 20669 net.cpp:113] Setting up inception_4b/3x3
I1217 18:15:46.226510 20669 net.cpp:120] Top shape: 80 224 14 14 (3512320)
I1217 18:15:46.226572 20669 layer_factory.hpp:74] Creating layer inception_4b/relu_3x3
I1217 18:15:46.226596 20669 net.cpp:84] Creating Layer inception_4b/relu_3x3
I1217 18:15:46.226611 20669 net.cpp:380] inception_4b/relu_3x3 <- inception_4b/3x3
I1217 18:15:46.226639 20669 net.cpp:327] inception_4b/relu_3x3 -> inception_4b/3x3 (in-place)
I1217 18:15:46.226651 20669 net.cpp:113] Setting up inception_4b/relu_3x3
I1217 18:15:46.226956 20669 net.cpp:120] Top shape: 80 224 14 14 (3512320)
I1217 18:15:46.226974 20669 layer_factory.hpp:74] Creating layer inception_4b/5x5_reduce
I1217 18:15:46.226992 20669 net.cpp:84] Creating Layer inception_4b/5x5_reduce
I1217 18:15:46.227007 20669 net.cpp:380] inception_4b/5x5_reduce <- inception_4a/output_inception_4a/output_0_split_3
I1217 18:15:46.227020 20669 net.cpp:338] inception_4b/5x5_reduce -> inception_4b/5x5_reduce
I1217 18:15:46.227035 20669 net.cpp:113] Setting up inception_4b/5x5_reduce
I1217 18:15:46.227790 20669 net.cpp:120] Top shape: 80 24 14 14 (376320)
I1217 18:15:46.227812 20669 layer_factory.hpp:74] Creating layer inception_4b/relu_5x5_reduce
I1217 18:15:46.227828 20669 net.cpp:84] Creating Layer inception_4b/relu_5x5_reduce
I1217 18:15:46.227836 20669 net.cpp:380] inception_4b/relu_5x5_reduce <- inception_4b/5x5_reduce
I1217 18:15:46.227848 20669 net.cpp:327] inception_4b/relu_5x5_reduce -> inception_4b/5x5_reduce (in-place)
I1217 18:15:46.227859 20669 net.cpp:113] Setting up inception_4b/relu_5x5_reduce
I1217 18:15:46.227954 20669 net.cpp:120] Top shape: 80 24 14 14 (376320)
I1217 18:15:46.227967 20669 layer_factory.hpp:74] Creating layer inception_4b/5x5
I1217 18:15:46.227987 20669 net.cpp:84] Creating Layer inception_4b/5x5
I1217 18:15:46.227996 20669 net.cpp:380] inception_4b/5x5 <- inception_4b/5x5_reduce
I1217 18:15:46.228010 20669 net.cpp:338] inception_4b/5x5 -> inception_4b/5x5
I1217 18:15:46.228024 20669 net.cpp:113] Setting up inception_4b/5x5
I1217 18:15:46.229128 20669 net.cpp:120] Top shape: 80 64 14 14 (1003520)
I1217 18:15:46.229151 20669 layer_factory.hpp:74] Creating layer inception_4b/relu_5x5
I1217 18:15:46.229163 20669 net.cpp:84] Creating Layer inception_4b/relu_5x5
I1217 18:15:46.229172 20669 net.cpp:380] inception_4b/relu_5x5 <- inception_4b/5x5
I1217 18:15:46.229183 20669 net.cpp:327] inception_4b/relu_5x5 -> inception_4b/5x5 (in-place)
I1217 18:15:46.229195 20669 net.cpp:113] Setting up inception_4b/relu_5x5
I1217 18:15:46.229290 20669 net.cpp:120] Top shape: 80 64 14 14 (1003520)
I1217 18:15:46.229302 20669 layer_factory.hpp:74] Creating layer inception_4b/pool
I1217 18:15:46.229323 20669 layer_factory.cpp:56] CUDNN does not support padding or multiple tops. Using Caffe's own pooling layer.
I1217 18:15:46.229346 20669 net.cpp:84] Creating Layer inception_4b/pool
I1217 18:15:46.229356 20669 net.cpp:380] inception_4b/pool <- inception_4a/output_inception_4a/output_0_split_4
I1217 18:15:46.229367 20669 net.cpp:338] inception_4b/pool -> inception_4b/pool
I1217 18:15:46.229393 20669 net.cpp:113] Setting up inception_4b/pool
I1217 18:15:46.229413 20669 net.cpp:120] Top shape: 80 512 14 14 (8028160)
I1217 18:15:46.229421 20669 layer_factory.hpp:74] Creating layer inception_4b/pool_proj
I1217 18:15:46.229434 20669 net.cpp:84] Creating Layer inception_4b/pool_proj
I1217 18:15:46.229444 20669 net.cpp:380] inception_4b/pool_proj <- inception_4b/pool
I1217 18:15:46.229456 20669 net.cpp:338] inception_4b/pool_proj -> inception_4b/pool_proj
I1217 18:15:46.229470 20669 net.cpp:113] Setting up inception_4b/pool_proj
I1217 18:15:46.230464 20669 net.cpp:120] Top shape: 80 64 14 14 (1003520)
I1217 18:15:46.230486 20669 layer_factory.hpp:74] Creating layer inception_4b/relu_pool_proj
I1217 18:15:46.230514 20669 net.cpp:84] Creating Layer inception_4b/relu_pool_proj
I1217 18:15:46.230541 20669 net.cpp:380] inception_4b/relu_pool_proj <- inception_4b/pool_proj
I1217 18:15:46.230566 20669 net.cpp:327] inception_4b/relu_pool_proj -> inception_4b/pool_proj (in-place)
I1217 18:15:46.230581 20669 net.cpp:113] Setting up inception_4b/relu_pool_proj
I1217 18:15:46.230888 20669 net.cpp:120] Top shape: 80 64 14 14 (1003520)
I1217 18:15:46.230903 20669 layer_factory.hpp:74] Creating layer inception_4b/output
I1217 18:15:46.230917 20669 net.cpp:84] Creating Layer inception_4b/output
I1217 18:15:46.230926 20669 net.cpp:380] inception_4b/output <- inception_4b/1x1
I1217 18:15:46.230937 20669 net.cpp:380] inception_4b/output <- inception_4b/3x3
I1217 18:15:46.230945 20669 net.cpp:380] inception_4b/output <- inception_4b/5x5
I1217 18:15:46.231469 20669 net.cpp:380] inception_4b/output <- inception_4b/pool_proj
I1217 18:15:46.231483 20669 net.cpp:338] inception_4b/output -> inception_4b/output
I1217 18:15:46.231498 20669 net.cpp:113] Setting up inception_4b/output
I1217 18:15:46.231513 20669 net.cpp:120] Top shape: 80 512 14 14 (8028160)
I1217 18:15:46.231523 20669 layer_factory.hpp:74] Creating layer inception_4b/output_inception_4b/output_0_split
I1217 18:15:46.231534 20669 net.cpp:84] Creating Layer inception_4b/output_inception_4b/output_0_split
I1217 18:15:46.231542 20669 net.cpp:380] inception_4b/output_inception_4b/output_0_split <- inception_4b/output
I1217 18:15:46.231554 20669 net.cpp:338] inception_4b/output_inception_4b/output_0_split -> inception_4b/output_inception_4b/output_0_split_0
I1217 18:15:46.231569 20669 net.cpp:338] inception_4b/output_inception_4b/output_0_split -> inception_4b/output_inception_4b/output_0_split_1
I1217 18:15:46.231581 20669 net.cpp:338] inception_4b/output_inception_4b/output_0_split -> inception_4b/output_inception_4b/output_0_split_2
I1217 18:15:46.231595 20669 net.cpp:338] inception_4b/output_inception_4b/output_0_split -> inception_4b/output_inception_4b/output_0_split_3
I1217 18:15:46.231606 20669 net.cpp:113] Setting up inception_4b/output_inception_4b/output_0_split
I1217 18:15:46.231621 20669 net.cpp:120] Top shape: 80 512 14 14 (8028160)
I1217 18:15:46.231632 20669 net.cpp:120] Top shape: 80 512 14 14 (8028160)
I1217 18:15:46.231642 20669 net.cpp:120] Top shape: 80 512 14 14 (8028160)
I1217 18:15:46.231652 20669 net.cpp:120] Top shape: 80 512 14 14 (8028160)
I1217 18:15:46.231660 20669 layer_factory.hpp:74] Creating layer inception_4c/1x1
I1217 18:15:46.231673 20669 net.cpp:84] Creating Layer inception_4c/1x1
I1217 18:15:46.231683 20669 net.cpp:380] inception_4c/1x1 <- inception_4b/output_inception_4b/output_0_split_0
I1217 18:15:46.231695 20669 net.cpp:338] inception_4c/1x1 -> inception_4c/1x1
I1217 18:15:46.231709 20669 net.cpp:113] Setting up inception_4c/1x1
I1217 18:15:46.233052 20669 net.cpp:120] Top shape: 80 128 14 14 (2007040)
I1217 18:15:46.233091 20669 layer_factory.hpp:74] Creating layer inception_4c/relu_1x1
I1217 18:15:46.233119 20669 net.cpp:84] Creating Layer inception_4c/relu_1x1
I1217 18:15:46.233129 20669 net.cpp:380] inception_4c/relu_1x1 <- inception_4c/1x1
I1217 18:15:46.233141 20669 net.cpp:327] inception_4c/relu_1x1 -> inception_4c/1x1 (in-place)
I1217 18:15:46.233155 20669 net.cpp:113] Setting up inception_4c/relu_1x1
I1217 18:15:46.233252 20669 net.cpp:120] Top shape: 80 128 14 14 (2007040)
I1217 18:15:46.233263 20669 layer_factory.hpp:74] Creating layer inception_4c/3x3_reduce
I1217 18:15:46.233276 20669 net.cpp:84] Creating Layer inception_4c/3x3_reduce
I1217 18:15:46.233285 20669 net.cpp:380] inception_4c/3x3_reduce <- inception_4b/output_inception_4b/output_0_split_1
I1217 18:15:46.233300 20669 net.cpp:338] inception_4c/3x3_reduce -> inception_4c/3x3_reduce
I1217 18:15:46.233314 20669 net.cpp:113] Setting up inception_4c/3x3_reduce
I1217 18:15:46.234699 20669 net.cpp:120] Top shape: 80 128 14 14 (2007040)
I1217 18:15:46.234725 20669 layer_factory.hpp:74] Creating layer inception_4c/relu_3x3_reduce
I1217 18:15:46.234741 20669 net.cpp:84] Creating Layer inception_4c/relu_3x3_reduce
I1217 18:15:46.234750 20669 net.cpp:380] inception_4c/relu_3x3_reduce <- inception_4c/3x3_reduce
I1217 18:15:46.234761 20669 net.cpp:327] inception_4c/relu_3x3_reduce -> inception_4c/3x3_reduce (in-place)
I1217 18:15:46.234773 20669 net.cpp:113] Setting up inception_4c/relu_3x3_reduce
I1217 18:15:46.234866 20669 net.cpp:120] Top shape: 80 128 14 14 (2007040)
I1217 18:15:46.234877 20669 layer_factory.hpp:74] Creating layer inception_4c/3x3
I1217 18:15:46.234892 20669 net.cpp:84] Creating Layer inception_4c/3x3
I1217 18:15:46.234901 20669 net.cpp:380] inception_4c/3x3 <- inception_4c/3x3_reduce
I1217 18:15:46.234916 20669 net.cpp:338] inception_4c/3x3 -> inception_4c/3x3
I1217 18:15:46.234930 20669 net.cpp:113] Setting up inception_4c/3x3
I1217 18:15:46.247208 20669 net.cpp:120] Top shape: 80 256 14 14 (4014080)
I1217 18:15:46.247298 20669 layer_factory.hpp:74] Creating layer inception_4c/relu_3x3
I1217 18:15:46.247318 20669 net.cpp:84] Creating Layer inception_4c/relu_3x3
I1217 18:15:46.247328 20669 net.cpp:380] inception_4c/relu_3x3 <- inception_4c/3x3
I1217 18:15:46.247339 20669 net.cpp:327] inception_4c/relu_3x3 -> inception_4c/3x3 (in-place)
I1217 18:15:46.247355 20669 net.cpp:113] Setting up inception_4c/relu_3x3
I1217 18:15:46.247454 20669 net.cpp:120] Top shape: 80 256 14 14 (4014080)
I1217 18:15:46.247467 20669 layer_factory.hpp:74] Creating layer inception_4c/5x5_reduce
I1217 18:15:46.247483 20669 net.cpp:84] Creating Layer inception_4c/5x5_reduce
I1217 18:15:46.247493 20669 net.cpp:380] inception_4c/5x5_reduce <- inception_4b/output_inception_4b/output_0_split_2
I1217 18:15:46.247509 20669 net.cpp:338] inception_4c/5x5_reduce -> inception_4c/5x5_reduce
I1217 18:15:46.247526 20669 net.cpp:113] Setting up inception_4c/5x5_reduce
I1217 18:15:46.248224 20669 net.cpp:120] Top shape: 80 24 14 14 (376320)
I1217 18:15:46.248248 20669 layer_factory.hpp:74] Creating layer inception_4c/relu_5x5_reduce
I1217 18:15:46.248262 20669 net.cpp:84] Creating Layer inception_4c/relu_5x5_reduce
I1217 18:15:46.248272 20669 net.cpp:380] inception_4c/relu_5x5_reduce <- inception_4c/5x5_reduce
I1217 18:15:46.248284 20669 net.cpp:327] inception_4c/relu_5x5_reduce -> inception_4c/5x5_reduce (in-place)
I1217 18:15:46.248298 20669 net.cpp:113] Setting up inception_4c/relu_5x5_reduce
I1217 18:15:46.248613 20669 net.cpp:120] Top shape: 80 24 14 14 (376320)
I1217 18:15:46.248631 20669 layer_factory.hpp:74] Creating layer inception_4c/5x5
I1217 18:15:46.248647 20669 net.cpp:84] Creating Layer inception_4c/5x5
I1217 18:15:46.248658 20669 net.cpp:380] inception_4c/5x5 <- inception_4c/5x5_reduce
I1217 18:15:46.248672 20669 net.cpp:338] inception_4c/5x5 -> inception_4c/5x5
I1217 18:15:46.248687 20669 net.cpp:113] Setting up inception_4c/5x5
I1217 18:15:46.250509 20669 net.cpp:120] Top shape: 80 64 14 14 (1003520)
I1217 18:15:46.250535 20669 layer_factory.hpp:74] Creating layer inception_4c/relu_5x5
I1217 18:15:46.250558 20669 net.cpp:84] Creating Layer inception_4c/relu_5x5
I1217 18:15:46.250581 20669 net.cpp:380] inception_4c/relu_5x5 <- inception_4c/5x5
I1217 18:15:46.250598 20669 net.cpp:327] inception_4c/relu_5x5 -> inception_4c/5x5 (in-place)
I1217 18:15:46.250613 20669 net.cpp:113] Setting up inception_4c/relu_5x5
I1217 18:15:46.250696 20669 net.cpp:120] Top shape: 80 64 14 14 (1003520)
I1217 18:15:46.250705 20669 layer_factory.hpp:74] Creating layer inception_4c/pool
I1217 18:15:46.250711 20669 layer_factory.cpp:56] CUDNN does not support padding or multiple tops. Using Caffe's own pooling layer.
I1217 18:15:46.250723 20669 net.cpp:84] Creating Layer inception_4c/pool
I1217 18:15:46.250732 20669 net.cpp:380] inception_4c/pool <- inception_4b/output_inception_4b/output_0_split_3
I1217 18:15:46.250746 20669 net.cpp:338] inception_4c/pool -> inception_4c/pool
I1217 18:15:46.250756 20669 net.cpp:113] Setting up inception_4c/pool
I1217 18:15:46.250766 20669 net.cpp:120] Top shape: 80 512 14 14 (8028160)
I1217 18:15:46.250771 20669 layer_factory.hpp:74] Creating layer inception_4c/pool_proj
I1217 18:15:46.250782 20669 net.cpp:84] Creating Layer inception_4c/pool_proj
I1217 18:15:46.250787 20669 net.cpp:380] inception_4c/pool_proj <- inception_4c/pool
I1217 18:15:46.250795 20669 net.cpp:338] inception_4c/pool_proj -> inception_4c/pool_proj
I1217 18:15:46.250803 20669 net.cpp:113] Setting up inception_4c/pool_proj
I1217 18:15:46.251663 20669 net.cpp:120] Top shape: 80 64 14 14 (1003520)
I1217 18:15:46.251680 20669 layer_factory.hpp:74] Creating layer inception_4c/relu_pool_proj
I1217 18:15:46.251689 20669 net.cpp:84] Creating Layer inception_4c/relu_pool_proj
I1217 18:15:46.251695 20669 net.cpp:380] inception_4c/relu_pool_proj <- inception_4c/pool_proj
I1217 18:15:46.251708 20669 net.cpp:327] inception_4c/relu_pool_proj -> inception_4c/pool_proj (in-place)
I1217 18:15:46.251724 20669 net.cpp:113] Setting up inception_4c/relu_pool_proj
I1217 18:15:46.251801 20669 net.cpp:120] Top shape: 80 64 14 14 (1003520)
I1217 18:15:46.251814 20669 layer_factory.hpp:74] Creating layer inception_4c/output
I1217 18:15:46.251829 20669 net.cpp:84] Creating Layer inception_4c/output
I1217 18:15:46.251839 20669 net.cpp:380] inception_4c/output <- inception_4c/1x1
I1217 18:15:46.251849 20669 net.cpp:380] inception_4c/output <- inception_4c/3x3
I1217 18:15:46.251859 20669 net.cpp:380] inception_4c/output <- inception_4c/5x5
I1217 18:15:46.251868 20669 net.cpp:380] inception_4c/output <- inception_4c/pool_proj
I1217 18:15:46.251879 20669 net.cpp:338] inception_4c/output -> inception_4c/output
I1217 18:15:46.251893 20669 net.cpp:113] Setting up inception_4c/output
I1217 18:15:46.251907 20669 net.cpp:120] Top shape: 80 512 14 14 (8028160)
I1217 18:15:46.251917 20669 layer_factory.hpp:74] Creating layer inception_4c/output_inception_4c/output_0_split
I1217 18:15:46.251929 20669 net.cpp:84] Creating Layer inception_4c/output_inception_4c/output_0_split
I1217 18:15:46.251937 20669 net.cpp:380] inception_4c/output_inception_4c/output_0_split <- inception_4c/output
I1217 18:15:46.251950 20669 net.cpp:338] inception_4c/output_inception_4c/output_0_split -> inception_4c/output_inception_4c/output_0_split_0
I1217 18:15:46.251958 20669 net.cpp:338] inception_4c/output_inception_4c/output_0_split -> inception_4c/output_inception_4c/output_0_split_1
I1217 18:15:46.251965 20669 net.cpp:338] inception_4c/output_inception_4c/output_0_split -> inception_4c/output_inception_4c/output_0_split_2
I1217 18:15:46.251972 20669 net.cpp:338] inception_4c/output_inception_4c/output_0_split -> inception_4c/output_inception_4c/output_0_split_3
I1217 18:15:46.251979 20669 net.cpp:113] Setting up inception_4c/output_inception_4c/output_0_split
I1217 18:15:46.251986 20669 net.cpp:120] Top shape: 80 512 14 14 (8028160)
I1217 18:15:46.251991 20669 net.cpp:120] Top shape: 80 512 14 14 (8028160)
I1217 18:15:46.251996 20669 net.cpp:120] Top shape: 80 512 14 14 (8028160)
I1217 18:15:46.252002 20669 net.cpp:120] Top shape: 80 512 14 14 (8028160)
I1217 18:15:46.252010 20669 layer_factory.hpp:74] Creating layer inception_4d/1x1
I1217 18:15:46.252032 20669 net.cpp:84] Creating Layer inception_4d/1x1
I1217 18:15:46.252043 20669 net.cpp:380] inception_4d/1x1 <- inception_4c/output_inception_4c/output_0_split_0
I1217 18:15:46.252055 20669 net.cpp:338] inception_4d/1x1 -> inception_4d/1x1
I1217 18:15:46.252064 20669 net.cpp:113] Setting up inception_4d/1x1
I1217 18:15:46.253252 20669 net.cpp:120] Top shape: 80 112 14 14 (1756160)
I1217 18:15:46.253278 20669 layer_factory.hpp:74] Creating layer inception_4d/relu_1x1
I1217 18:15:46.253295 20669 net.cpp:84] Creating Layer inception_4d/relu_1x1
I1217 18:15:46.253307 20669 net.cpp:380] inception_4d/relu_1x1 <- inception_4d/1x1
I1217 18:15:46.253319 20669 net.cpp:327] inception_4d/relu_1x1 -> inception_4d/1x1 (in-place)
I1217 18:15:46.253331 20669 net.cpp:113] Setting up inception_4d/relu_1x1
I1217 18:15:46.253417 20669 net.cpp:120] Top shape: 80 112 14 14 (1756160)
I1217 18:15:46.253427 20669 layer_factory.hpp:74] Creating layer inception_4d/3x3_reduce
I1217 18:15:46.253437 20669 net.cpp:84] Creating Layer inception_4d/3x3_reduce
I1217 18:15:46.253445 20669 net.cpp:380] inception_4d/3x3_reduce <- inception_4c/output_inception_4c/output_0_split_1
I1217 18:15:46.253463 20669 net.cpp:338] inception_4d/3x3_reduce -> inception_4d/3x3_reduce
I1217 18:15:46.253479 20669 net.cpp:113] Setting up inception_4d/3x3_reduce
I1217 18:15:46.254858 20669 net.cpp:120] Top shape: 80 144 14 14 (2257920)
I1217 18:15:46.254881 20669 layer_factory.hpp:74] Creating layer inception_4d/relu_3x3_reduce
I1217 18:15:46.254899 20669 net.cpp:84] Creating Layer inception_4d/relu_3x3_reduce
I1217 18:15:46.254909 20669 net.cpp:380] inception_4d/relu_3x3_reduce <- inception_4d/3x3_reduce
I1217 18:15:46.254922 20669 net.cpp:327] inception_4d/relu_3x3_reduce -> inception_4d/3x3_reduce (in-place)
I1217 18:15:46.254937 20669 net.cpp:113] Setting up inception_4d/relu_3x3_reduce
I1217 18:15:46.255236 20669 net.cpp:120] Top shape: 80 144 14 14 (2257920)
I1217 18:15:46.255249 20669 layer_factory.hpp:74] Creating layer inception_4d/3x3
I1217 18:15:46.255262 20669 net.cpp:84] Creating Layer inception_4d/3x3
I1217 18:15:46.255272 20669 net.cpp:380] inception_4d/3x3 <- inception_4d/3x3_reduce
I1217 18:15:46.255292 20669 net.cpp:338] inception_4d/3x3 -> inception_4d/3x3
I1217 18:15:46.255307 20669 net.cpp:113] Setting up inception_4d/3x3
I1217 18:15:46.260397 20669 net.cpp:120] Top shape: 80 288 14 14 (4515840)
I1217 18:15:46.260457 20669 layer_factory.hpp:74] Creating layer inception_4d/relu_3x3
I1217 18:15:46.260470 20669 net.cpp:84] Creating Layer inception_4d/relu_3x3
I1217 18:15:46.260478 20669 net.cpp:380] inception_4d/relu_3x3 <- inception_4d/3x3
I1217 18:15:46.260489 20669 net.cpp:327] inception_4d/relu_3x3 -> inception_4d/3x3 (in-place)
I1217 18:15:46.260504 20669 net.cpp:113] Setting up inception_4d/relu_3x3
I1217 18:15:46.260609 20669 net.cpp:120] Top shape: 80 288 14 14 (4515840)
I1217 18:15:46.260623 20669 layer_factory.hpp:74] Creating layer inception_4d/5x5_reduce
I1217 18:15:46.260646 20669 net.cpp:84] Creating Layer inception_4d/5x5_reduce
I1217 18:15:46.260658 20669 net.cpp:380] inception_4d/5x5_reduce <- inception_4c/output_inception_4c/output_0_split_2
I1217 18:15:46.260668 20669 net.cpp:338] inception_4d/5x5_reduce -> inception_4d/5x5_reduce
I1217 18:15:46.260678 20669 net.cpp:113] Setting up inception_4d/5x5_reduce
I1217 18:15:46.261694 20669 net.cpp:120] Top shape: 80 32 14 14 (501760)
I1217 18:15:46.261720 20669 layer_factory.hpp:74] Creating layer inception_4d/relu_5x5_reduce
I1217 18:15:46.261736 20669 net.cpp:84] Creating Layer inception_4d/relu_5x5_reduce
I1217 18:15:46.261745 20669 net.cpp:380] inception_4d/relu_5x5_reduce <- inception_4d/5x5_reduce
I1217 18:15:46.261757 20669 net.cpp:327] inception_4d/relu_5x5_reduce -> inception_4d/5x5_reduce (in-place)
I1217 18:15:46.261771 20669 net.cpp:113] Setting up inception_4d/relu_5x5_reduce
I1217 18:15:46.261869 20669 net.cpp:120] Top shape: 80 32 14 14 (501760)
I1217 18:15:46.261880 20669 layer_factory.hpp:74] Creating layer inception_4d/5x5
I1217 18:15:46.261912 20669 net.cpp:84] Creating Layer inception_4d/5x5
I1217 18:15:46.261935 20669 net.cpp:380] inception_4d/5x5 <- inception_4d/5x5_reduce
I1217 18:15:46.261950 20669 net.cpp:338] inception_4d/5x5 -> inception_4d/5x5
I1217 18:15:46.261965 20669 net.cpp:113] Setting up inception_4d/5x5
I1217 18:15:46.265636 20669 net.cpp:120] Top shape: 80 64 14 14 (1003520)
I1217 18:15:46.265661 20669 layer_factory.hpp:74] Creating layer inception_4d/relu_5x5
I1217 18:15:46.265674 20669 net.cpp:84] Creating Layer inception_4d/relu_5x5
I1217 18:15:46.265684 20669 net.cpp:380] inception_4d/relu_5x5 <- inception_4d/5x5
I1217 18:15:46.265697 20669 net.cpp:327] inception_4d/relu_5x5 -> inception_4d/5x5 (in-place)
I1217 18:15:46.265712 20669 net.cpp:113] Setting up inception_4d/relu_5x5
I1217 18:15:46.265813 20669 net.cpp:120] Top shape: 80 64 14 14 (1003520)
I1217 18:15:46.265827 20669 layer_factory.hpp:74] Creating layer inception_4d/pool
I1217 18:15:46.265837 20669 layer_factory.cpp:56] CUDNN does not support padding or multiple tops. Using Caffe's own pooling layer.
I1217 18:15:46.265851 20669 net.cpp:84] Creating Layer inception_4d/pool
I1217 18:15:46.265861 20669 net.cpp:380] inception_4d/pool <- inception_4c/output_inception_4c/output_0_split_3
I1217 18:15:46.265874 20669 net.cpp:338] inception_4d/pool -> inception_4d/pool
I1217 18:15:46.265887 20669 net.cpp:113] Setting up inception_4d/pool
I1217 18:15:46.265903 20669 net.cpp:120] Top shape: 80 512 14 14 (8028160)
I1217 18:15:46.265913 20669 layer_factory.hpp:74] Creating layer inception_4d/pool_proj
I1217 18:15:46.265931 20669 net.cpp:84] Creating Layer inception_4d/pool_proj
I1217 18:15:46.265938 20669 net.cpp:380] inception_4d/pool_proj <- inception_4d/pool
I1217 18:15:46.265949 20669 net.cpp:338] inception_4d/pool_proj -> inception_4d/pool_proj
I1217 18:15:46.265957 20669 net.cpp:113] Setting up inception_4d/pool_proj
I1217 18:15:46.266882 20669 net.cpp:120] Top shape: 80 64 14 14 (1003520)
I1217 18:15:46.266906 20669 layer_factory.hpp:74] Creating layer inception_4d/relu_pool_proj
I1217 18:15:46.266919 20669 net.cpp:84] Creating Layer inception_4d/relu_pool_proj
I1217 18:15:46.266929 20669 net.cpp:380] inception_4d/relu_pool_proj <- inception_4d/pool_proj
I1217 18:15:46.266938 20669 net.cpp:327] inception_4d/relu_pool_proj -> inception_4d/pool_proj (in-place)
I1217 18:15:46.266947 20669 net.cpp:113] Setting up inception_4d/relu_pool_proj
I1217 18:15:46.267247 20669 net.cpp:120] Top shape: 80 64 14 14 (1003520)
I1217 18:15:46.267268 20669 layer_factory.hpp:74] Creating layer inception_4d/output
I1217 18:15:46.267279 20669 net.cpp:84] Creating Layer inception_4d/output
I1217 18:15:46.267284 20669 net.cpp:380] inception_4d/output <- inception_4d/1x1
I1217 18:15:46.267295 20669 net.cpp:380] inception_4d/output <- inception_4d/3x3
I1217 18:15:46.267305 20669 net.cpp:380] inception_4d/output <- inception_4d/5x5
I1217 18:15:46.267314 20669 net.cpp:380] inception_4d/output <- inception_4d/pool_proj
I1217 18:15:46.267328 20669 net.cpp:338] inception_4d/output -> inception_4d/output
I1217 18:15:46.267343 20669 net.cpp:113] Setting up inception_4d/output
I1217 18:15:46.267359 20669 net.cpp:120] Top shape: 80 528 14 14 (8279040)
I1217 18:15:46.267369 20669 layer_factory.hpp:74] Creating layer inception_4d/output_inception_4d/output_0_split
I1217 18:15:46.267380 20669 net.cpp:84] Creating Layer inception_4d/output_inception_4d/output_0_split
I1217 18:15:46.267388 20669 net.cpp:380] inception_4d/output_inception_4d/output_0_split <- inception_4d/output
I1217 18:15:46.267401 20669 net.cpp:338] inception_4d/output_inception_4d/output_0_split -> inception_4d/output_inception_4d/output_0_split_0
I1217 18:15:46.267416 20669 net.cpp:338] inception_4d/output_inception_4d/output_0_split -> inception_4d/output_inception_4d/output_0_split_1
I1217 18:15:46.267431 20669 net.cpp:338] inception_4d/output_inception_4d/output_0_split -> inception_4d/output_inception_4d/output_0_split_2
I1217 18:15:46.267443 20669 net.cpp:338] inception_4d/output_inception_4d/output_0_split -> inception_4d/output_inception_4d/output_0_split_3
I1217 18:15:46.267472 20669 net.cpp:338] inception_4d/output_inception_4d/output_0_split -> inception_4d/output_inception_4d/output_0_split_4
I1217 18:15:46.267488 20669 net.cpp:113] Setting up inception_4d/output_inception_4d/output_0_split
I1217 18:15:46.267498 20669 net.cpp:120] Top shape: 80 528 14 14 (8279040)
I1217 18:15:46.267503 20669 net.cpp:120] Top shape: 80 528 14 14 (8279040)
I1217 18:15:46.267508 20669 net.cpp:120] Top shape: 80 528 14 14 (8279040)
I1217 18:15:46.267513 20669 net.cpp:120] Top shape: 80 528 14 14 (8279040)
I1217 18:15:46.267518 20669 net.cpp:120] Top shape: 80 528 14 14 (8279040)
I1217 18:15:46.267524 20669 layer_factory.hpp:74] Creating layer loss2/ave_pool
I1217 18:15:46.267539 20669 net.cpp:84] Creating Layer loss2/ave_pool
I1217 18:15:46.267549 20669 net.cpp:380] loss2/ave_pool <- inception_4d/output_inception_4d/output_0_split_0
I1217 18:15:46.267562 20669 net.cpp:338] loss2/ave_pool -> loss2/ave_pool
I1217 18:15:46.267575 20669 net.cpp:113] Setting up loss2/ave_pool
I1217 18:15:46.267683 20669 net.cpp:120] Top shape: 80 528 4 4 (675840)
I1217 18:15:46.267695 20669 layer_factory.hpp:74] Creating layer loss2/conv
I1217 18:15:46.267705 20669 net.cpp:84] Creating Layer loss2/conv
I1217 18:15:46.267710 20669 net.cpp:380] loss2/conv <- loss2/ave_pool
I1217 18:15:46.267719 20669 net.cpp:338] loss2/conv -> loss2/conv
I1217 18:15:46.267726 20669 net.cpp:113] Setting up loss2/conv
I1217 18:15:46.269024 20669 net.cpp:120] Top shape: 80 128 4 4 (163840)
I1217 18:15:46.269047 20669 layer_factory.hpp:74] Creating layer loss2/relu_conv
I1217 18:15:46.269088 20669 net.cpp:84] Creating Layer loss2/relu_conv
I1217 18:15:46.269101 20669 net.cpp:380] loss2/relu_conv <- loss2/conv
I1217 18:15:46.269114 20669 net.cpp:327] loss2/relu_conv -> loss2/conv (in-place)
I1217 18:15:46.269126 20669 net.cpp:113] Setting up loss2/relu_conv
I1217 18:15:46.269212 20669 net.cpp:120] Top shape: 80 128 4 4 (163840)
I1217 18:15:46.269222 20669 layer_factory.hpp:74] Creating layer loss2/fc
I1217 18:15:46.269233 20669 net.cpp:84] Creating Layer loss2/fc
I1217 18:15:46.269243 20669 net.cpp:380] loss2/fc <- loss2/conv
I1217 18:15:46.269258 20669 net.cpp:338] loss2/fc -> loss2/fc
I1217 18:15:46.269273 20669 net.cpp:113] Setting up loss2/fc
I1217 18:15:46.294010 20669 net.cpp:120] Top shape: 80 1024 (81920)
I1217 18:15:46.294035 20669 layer_factory.hpp:74] Creating layer loss2/relu_fc
I1217 18:15:46.294051 20669 net.cpp:84] Creating Layer loss2/relu_fc
I1217 18:15:46.294064 20669 net.cpp:380] loss2/relu_fc <- loss2/fc
I1217 18:15:46.294078 20669 net.cpp:327] loss2/relu_fc -> loss2/fc (in-place)
I1217 18:15:46.294087 20669 net.cpp:113] Setting up loss2/relu_fc
I1217 18:15:46.294459 20669 net.cpp:120] Top shape: 80 1024 (81920)
I1217 18:15:46.294477 20669 layer_factory.hpp:74] Creating layer loss2/drop_fc
I1217 18:15:46.294494 20669 net.cpp:84] Creating Layer loss2/drop_fc
I1217 18:15:46.294505 20669 net.cpp:380] loss2/drop_fc <- loss2/fc
I1217 18:15:46.294517 20669 net.cpp:327] loss2/drop_fc -> loss2/fc (in-place)
I1217 18:15:46.294533 20669 net.cpp:113] Setting up loss2/drop_fc
I1217 18:15:46.294544 20669 net.cpp:120] Top shape: 80 1024 (81920)
I1217 18:15:46.294549 20669 layer_factory.hpp:74] Creating layer loss2/classifier_kaggle
I1217 18:15:46.294559 20669 net.cpp:84] Creating Layer loss2/classifier_kaggle
I1217 18:15:46.294564 20669 net.cpp:380] loss2/classifier_kaggle <- loss2/fc
I1217 18:15:46.294571 20669 net.cpp:338] loss2/classifier_kaggle -> loss2/classifier_kaggle
I1217 18:15:46.294580 20669 net.cpp:113] Setting up loss2/classifier_kaggle
I1217 18:15:46.301561 20669 net.cpp:120] Top shape: 80 447 (35760)
I1217 18:15:46.301586 20669 layer_factory.hpp:74] Creating layer loss2/loss
I1217 18:15:46.301604 20669 net.cpp:84] Creating Layer loss2/loss
I1217 18:15:46.301615 20669 net.cpp:380] loss2/loss <- loss2/classifier_kaggle
I1217 18:15:46.301627 20669 net.cpp:380] loss2/loss <- label_data_1_split_1
I1217 18:15:46.301640 20669 net.cpp:338] loss2/loss -> loss2/loss1
I1217 18:15:46.301666 20669 net.cpp:113] Setting up loss2/loss
I1217 18:15:46.301692 20669 layer_factory.hpp:74] Creating layer loss2/loss
I1217 18:15:46.301923 20669 net.cpp:120] Top shape: (1)
I1217 18:15:46.301937 20669 net.cpp:122]     with loss weight 0.3
I1217 18:15:46.301959 20669 layer_factory.hpp:74] Creating layer inception_4e/1x1
I1217 18:15:46.301978 20669 net.cpp:84] Creating Layer inception_4e/1x1
I1217 18:15:46.301990 20669 net.cpp:380] inception_4e/1x1 <- inception_4d/output_inception_4d/output_0_split_1
I1217 18:15:46.302006 20669 net.cpp:338] inception_4e/1x1 -> inception_4e/1x1
I1217 18:15:46.302023 20669 net.cpp:113] Setting up inception_4e/1x1
I1217 18:15:46.304244 20669 net.cpp:120] Top shape: 80 256 14 14 (4014080)
I1217 18:15:46.304270 20669 layer_factory.hpp:74] Creating layer inception_4e/relu_1x1
I1217 18:15:46.304285 20669 net.cpp:84] Creating Layer inception_4e/relu_1x1
I1217 18:15:46.304296 20669 net.cpp:380] inception_4e/relu_1x1 <- inception_4e/1x1
I1217 18:15:46.304308 20669 net.cpp:327] inception_4e/relu_1x1 -> inception_4e/1x1 (in-place)
I1217 18:15:46.304322 20669 net.cpp:113] Setting up inception_4e/relu_1x1
I1217 18:15:46.304427 20669 net.cpp:120] Top shape: 80 256 14 14 (4014080)
I1217 18:15:46.304440 20669 layer_factory.hpp:74] Creating layer inception_4e/3x3_reduce
I1217 18:15:46.304455 20669 net.cpp:84] Creating Layer inception_4e/3x3_reduce
I1217 18:15:46.304466 20669 net.cpp:380] inception_4e/3x3_reduce <- inception_4d/output_inception_4d/output_0_split_2
I1217 18:15:46.304482 20669 net.cpp:338] inception_4e/3x3_reduce -> inception_4e/3x3_reduce
I1217 18:15:46.304498 20669 net.cpp:113] Setting up inception_4e/3x3_reduce
I1217 18:15:46.306143 20669 net.cpp:120] Top shape: 80 160 14 14 (2508800)
I1217 18:15:46.306169 20669 layer_factory.hpp:74] Creating layer inception_4e/relu_3x3_reduce
I1217 18:15:46.306181 20669 net.cpp:84] Creating Layer inception_4e/relu_3x3_reduce
I1217 18:15:46.306191 20669 net.cpp:380] inception_4e/relu_3x3_reduce <- inception_4e/3x3_reduce
I1217 18:15:46.306206 20669 net.cpp:327] inception_4e/relu_3x3_reduce -> inception_4e/3x3_reduce (in-place)
I1217 18:15:46.306219 20669 net.cpp:113] Setting up inception_4e/relu_3x3_reduce
I1217 18:15:46.306365 20669 net.cpp:120] Top shape: 80 160 14 14 (2508800)
I1217 18:15:46.306380 20669 layer_factory.hpp:74] Creating layer inception_4e/3x3
I1217 18:15:46.306397 20669 net.cpp:84] Creating Layer inception_4e/3x3
I1217 18:15:46.306406 20669 net.cpp:380] inception_4e/3x3 <- inception_4e/3x3_reduce
I1217 18:15:46.306421 20669 net.cpp:338] inception_4e/3x3 -> inception_4e/3x3
I1217 18:15:46.306437 20669 net.cpp:113] Setting up inception_4e/3x3
I1217 18:15:46.315179 20669 net.cpp:120] Top shape: 80 320 14 14 (5017600)
I1217 18:15:46.315206 20669 layer_factory.hpp:74] Creating layer inception_4e/relu_3x3
I1217 18:15:46.315219 20669 net.cpp:84] Creating Layer inception_4e/relu_3x3
I1217 18:15:46.315229 20669 net.cpp:380] inception_4e/relu_3x3 <- inception_4e/3x3
I1217 18:15:46.315242 20669 net.cpp:327] inception_4e/relu_3x3 -> inception_4e/3x3 (in-place)
I1217 18:15:46.315254 20669 net.cpp:113] Setting up inception_4e/relu_3x3
I1217 18:15:46.315582 20669 net.cpp:120] Top shape: 80 320 14 14 (5017600)
I1217 18:15:46.315598 20669 layer_factory.hpp:74] Creating layer inception_4e/5x5_reduce
I1217 18:15:46.315613 20669 net.cpp:84] Creating Layer inception_4e/5x5_reduce
I1217 18:15:46.315623 20669 net.cpp:380] inception_4e/5x5_reduce <- inception_4d/output_inception_4d/output_0_split_3
I1217 18:15:46.315639 20669 net.cpp:338] inception_4e/5x5_reduce -> inception_4e/5x5_reduce
I1217 18:15:46.315654 20669 net.cpp:113] Setting up inception_4e/5x5_reduce
I1217 18:15:46.316406 20669 net.cpp:120] Top shape: 80 32 14 14 (501760)
I1217 18:15:46.316429 20669 layer_factory.hpp:74] Creating layer inception_4e/relu_5x5_reduce
I1217 18:15:46.316448 20669 net.cpp:84] Creating Layer inception_4e/relu_5x5_reduce
I1217 18:15:46.316458 20669 net.cpp:380] inception_4e/relu_5x5_reduce <- inception_4e/5x5_reduce
I1217 18:15:46.316470 20669 net.cpp:327] inception_4e/relu_5x5_reduce -> inception_4e/5x5_reduce (in-place)
I1217 18:15:46.316499 20669 net.cpp:113] Setting up inception_4e/relu_5x5_reduce
I1217 18:15:46.316606 20669 net.cpp:120] Top shape: 80 32 14 14 (501760)
I1217 18:15:46.316617 20669 layer_factory.hpp:74] Creating layer inception_4e/5x5
I1217 18:15:46.316655 20669 net.cpp:84] Creating Layer inception_4e/5x5
I1217 18:15:46.316665 20669 net.cpp:380] inception_4e/5x5 <- inception_4e/5x5_reduce
I1217 18:15:46.316679 20669 net.cpp:338] inception_4e/5x5 -> inception_4e/5x5
I1217 18:15:46.316692 20669 net.cpp:113] Setting up inception_4e/5x5
I1217 18:15:46.318903 20669 net.cpp:120] Top shape: 80 128 14 14 (2007040)
I1217 18:15:46.318928 20669 layer_factory.hpp:74] Creating layer inception_4e/relu_5x5
I1217 18:15:46.318940 20669 net.cpp:84] Creating Layer inception_4e/relu_5x5
I1217 18:15:46.318950 20669 net.cpp:380] inception_4e/relu_5x5 <- inception_4e/5x5
I1217 18:15:46.318961 20669 net.cpp:327] inception_4e/relu_5x5 -> inception_4e/5x5 (in-place)
I1217 18:15:46.318974 20669 net.cpp:113] Setting up inception_4e/relu_5x5
I1217 18:15:46.319074 20669 net.cpp:120] Top shape: 80 128 14 14 (2007040)
I1217 18:15:46.319087 20669 layer_factory.hpp:74] Creating layer inception_4e/pool
I1217 18:15:46.319097 20669 layer_factory.cpp:56] CUDNN does not support padding or multiple tops. Using Caffe's own pooling layer.
I1217 18:15:46.319110 20669 net.cpp:84] Creating Layer inception_4e/pool
I1217 18:15:46.319119 20669 net.cpp:380] inception_4e/pool <- inception_4d/output_inception_4d/output_0_split_4
I1217 18:15:46.319131 20669 net.cpp:338] inception_4e/pool -> inception_4e/pool
I1217 18:15:46.319144 20669 net.cpp:113] Setting up inception_4e/pool
I1217 18:15:46.319160 20669 net.cpp:120] Top shape: 80 528 14 14 (8279040)
I1217 18:15:46.319169 20669 layer_factory.hpp:74] Creating layer inception_4e/pool_proj
I1217 18:15:46.319188 20669 net.cpp:84] Creating Layer inception_4e/pool_proj
I1217 18:15:46.319197 20669 net.cpp:380] inception_4e/pool_proj <- inception_4e/pool
I1217 18:15:46.319211 20669 net.cpp:338] inception_4e/pool_proj -> inception_4e/pool_proj
I1217 18:15:46.319224 20669 net.cpp:113] Setting up inception_4e/pool_proj
I1217 18:15:46.320633 20669 net.cpp:120] Top shape: 80 128 14 14 (2007040)
I1217 18:15:46.320655 20669 layer_factory.hpp:74] Creating layer inception_4e/relu_pool_proj
I1217 18:15:46.320670 20669 net.cpp:84] Creating Layer inception_4e/relu_pool_proj
I1217 18:15:46.320680 20669 net.cpp:380] inception_4e/relu_pool_proj <- inception_4e/pool_proj
I1217 18:15:46.320691 20669 net.cpp:327] inception_4e/relu_pool_proj -> inception_4e/pool_proj (in-place)
I1217 18:15:46.320704 20669 net.cpp:113] Setting up inception_4e/relu_pool_proj
I1217 18:15:46.320803 20669 net.cpp:120] Top shape: 80 128 14 14 (2007040)
I1217 18:15:46.320814 20669 layer_factory.hpp:74] Creating layer inception_4e/output
I1217 18:15:46.320830 20669 net.cpp:84] Creating Layer inception_4e/output
I1217 18:15:46.320839 20669 net.cpp:380] inception_4e/output <- inception_4e/1x1
I1217 18:15:46.320849 20669 net.cpp:380] inception_4e/output <- inception_4e/3x3
I1217 18:15:46.320858 20669 net.cpp:380] inception_4e/output <- inception_4e/5x5
I1217 18:15:46.320868 20669 net.cpp:380] inception_4e/output <- inception_4e/pool_proj
I1217 18:15:46.320879 20669 net.cpp:338] inception_4e/output -> inception_4e/output
I1217 18:15:46.320891 20669 net.cpp:113] Setting up inception_4e/output
I1217 18:15:46.320905 20669 net.cpp:120] Top shape: 80 832 14 14 (13045760)
I1217 18:15:46.320914 20669 layer_factory.hpp:74] Creating layer pool4/3x3_s2
I1217 18:15:46.320929 20669 net.cpp:84] Creating Layer pool4/3x3_s2
I1217 18:15:46.320937 20669 net.cpp:380] pool4/3x3_s2 <- inception_4e/output
I1217 18:15:46.320948 20669 net.cpp:338] pool4/3x3_s2 -> pool4/3x3_s2
I1217 18:15:46.320960 20669 net.cpp:113] Setting up pool4/3x3_s2
I1217 18:15:46.321300 20669 net.cpp:120] Top shape: 80 832 7 7 (3261440)
I1217 18:15:46.321321 20669 layer_factory.hpp:74] Creating layer pool4/3x3_s2_pool4/3x3_s2_0_split
I1217 18:15:46.321341 20669 net.cpp:84] Creating Layer pool4/3x3_s2_pool4/3x3_s2_0_split
I1217 18:15:46.321358 20669 net.cpp:380] pool4/3x3_s2_pool4/3x3_s2_0_split <- pool4/3x3_s2
I1217 18:15:46.321372 20669 net.cpp:338] pool4/3x3_s2_pool4/3x3_s2_0_split -> pool4/3x3_s2_pool4/3x3_s2_0_split_0
I1217 18:15:46.321387 20669 net.cpp:338] pool4/3x3_s2_pool4/3x3_s2_0_split -> pool4/3x3_s2_pool4/3x3_s2_0_split_1
I1217 18:15:46.321400 20669 net.cpp:338] pool4/3x3_s2_pool4/3x3_s2_0_split -> pool4/3x3_s2_pool4/3x3_s2_0_split_2
I1217 18:15:46.321415 20669 net.cpp:338] pool4/3x3_s2_pool4/3x3_s2_0_split -> pool4/3x3_s2_pool4/3x3_s2_0_split_3
I1217 18:15:46.321427 20669 net.cpp:113] Setting up pool4/3x3_s2_pool4/3x3_s2_0_split
I1217 18:15:46.321441 20669 net.cpp:120] Top shape: 80 832 7 7 (3261440)
I1217 18:15:46.321451 20669 net.cpp:120] Top shape: 80 832 7 7 (3261440)
I1217 18:15:46.321461 20669 net.cpp:120] Top shape: 80 832 7 7 (3261440)
I1217 18:15:46.321470 20669 net.cpp:120] Top shape: 80 832 7 7 (3261440)
I1217 18:15:46.321480 20669 layer_factory.hpp:74] Creating layer inception_5a/1x1
I1217 18:15:46.321494 20669 net.cpp:84] Creating Layer inception_5a/1x1
I1217 18:15:46.321503 20669 net.cpp:380] inception_5a/1x1 <- pool4/3x3_s2_pool4/3x3_s2_0_split_0
I1217 18:15:46.321516 20669 net.cpp:338] inception_5a/1x1 -> inception_5a/1x1
I1217 18:15:46.321528 20669 net.cpp:113] Setting up inception_5a/1x1
I1217 18:15:46.324728 20669 net.cpp:120] Top shape: 80 256 7 7 (1003520)
I1217 18:15:46.324749 20669 layer_factory.hpp:74] Creating layer inception_5a/relu_1x1
I1217 18:15:46.324761 20669 net.cpp:84] Creating Layer inception_5a/relu_1x1
I1217 18:15:46.324771 20669 net.cpp:380] inception_5a/relu_1x1 <- inception_5a/1x1
I1217 18:15:46.324785 20669 net.cpp:327] inception_5a/relu_1x1 -> inception_5a/1x1 (in-place)
I1217 18:15:46.324797 20669 net.cpp:113] Setting up inception_5a/relu_1x1
I1217 18:15:46.324898 20669 net.cpp:120] Top shape: 80 256 7 7 (1003520)
I1217 18:15:46.324909 20669 layer_factory.hpp:74] Creating layer inception_5a/3x3_reduce
I1217 18:15:46.324926 20669 net.cpp:84] Creating Layer inception_5a/3x3_reduce
I1217 18:15:46.324935 20669 net.cpp:380] inception_5a/3x3_reduce <- pool4/3x3_s2_pool4/3x3_s2_0_split_1
I1217 18:15:46.324949 20669 net.cpp:338] inception_5a/3x3_reduce -> inception_5a/3x3_reduce
I1217 18:15:46.324962 20669 net.cpp:113] Setting up inception_5a/3x3_reduce
I1217 18:15:46.327169 20669 net.cpp:120] Top shape: 80 160 7 7 (627200)
I1217 18:15:46.327195 20669 layer_factory.hpp:74] Creating layer inception_5a/relu_3x3_reduce
I1217 18:15:46.327208 20669 net.cpp:84] Creating Layer inception_5a/relu_3x3_reduce
I1217 18:15:46.327217 20669 net.cpp:380] inception_5a/relu_3x3_reduce <- inception_5a/3x3_reduce
I1217 18:15:46.327231 20669 net.cpp:327] inception_5a/relu_3x3_reduce -> inception_5a/3x3_reduce (in-place)
I1217 18:15:46.327244 20669 net.cpp:113] Setting up inception_5a/relu_3x3_reduce
I1217 18:15:46.327343 20669 net.cpp:120] Top shape: 80 160 7 7 (627200)
I1217 18:15:46.327353 20669 layer_factory.hpp:74] Creating layer inception_5a/3x3
I1217 18:15:46.327369 20669 net.cpp:84] Creating Layer inception_5a/3x3
I1217 18:15:46.327379 20669 net.cpp:380] inception_5a/3x3 <- inception_5a/3x3_reduce
I1217 18:15:46.327394 20669 net.cpp:338] inception_5a/3x3 -> inception_5a/3x3
I1217 18:15:46.327407 20669 net.cpp:113] Setting up inception_5a/3x3
I1217 18:15:46.333665 20669 net.cpp:120] Top shape: 80 320 7 7 (1254400)
I1217 18:15:46.333690 20669 layer_factory.hpp:74] Creating layer inception_5a/relu_3x3
I1217 18:15:46.333704 20669 net.cpp:84] Creating Layer inception_5a/relu_3x3
I1217 18:15:46.333714 20669 net.cpp:380] inception_5a/relu_3x3 <- inception_5a/3x3
I1217 18:15:46.333727 20669 net.cpp:327] inception_5a/relu_3x3 -> inception_5a/3x3 (in-place)
I1217 18:15:46.333740 20669 net.cpp:113] Setting up inception_5a/relu_3x3
I1217 18:15:46.333842 20669 net.cpp:120] Top shape: 80 320 7 7 (1254400)
I1217 18:15:46.333853 20669 layer_factory.hpp:74] Creating layer inception_5a/5x5_reduce
I1217 18:15:46.333868 20669 net.cpp:84] Creating Layer inception_5a/5x5_reduce
I1217 18:15:46.333884 20669 net.cpp:380] inception_5a/5x5_reduce <- pool4/3x3_s2_pool4/3x3_s2_0_split_2
I1217 18:15:46.333907 20669 net.cpp:338] inception_5a/5x5_reduce -> inception_5a/5x5_reduce
I1217 18:15:46.333922 20669 net.cpp:113] Setting up inception_5a/5x5_reduce
I1217 18:15:46.334813 20669 net.cpp:120] Top shape: 80 32 7 7 (125440)
I1217 18:15:46.334836 20669 layer_factory.hpp:74] Creating layer inception_5a/relu_5x5_reduce
I1217 18:15:46.334849 20669 net.cpp:84] Creating Layer inception_5a/relu_5x5_reduce
I1217 18:15:46.334858 20669 net.cpp:380] inception_5a/relu_5x5_reduce <- inception_5a/5x5_reduce
I1217 18:15:46.334872 20669 net.cpp:327] inception_5a/relu_5x5_reduce -> inception_5a/5x5_reduce (in-place)
I1217 18:15:46.334885 20669 net.cpp:113] Setting up inception_5a/relu_5x5_reduce
I1217 18:15:46.335196 20669 net.cpp:120] Top shape: 80 32 7 7 (125440)
I1217 18:15:46.335212 20669 layer_factory.hpp:74] Creating layer inception_5a/5x5
I1217 18:15:46.335228 20669 net.cpp:84] Creating Layer inception_5a/5x5
I1217 18:15:46.335238 20669 net.cpp:380] inception_5a/5x5 <- inception_5a/5x5_reduce
I1217 18:15:46.335253 20669 net.cpp:338] inception_5a/5x5 -> inception_5a/5x5
I1217 18:15:46.335268 20669 net.cpp:113] Setting up inception_5a/5x5
I1217 18:15:46.337488 20669 net.cpp:120] Top shape: 80 128 7 7 (501760)
I1217 18:15:46.337512 20669 layer_factory.hpp:74] Creating layer inception_5a/relu_5x5
I1217 18:15:46.337529 20669 net.cpp:84] Creating Layer inception_5a/relu_5x5
I1217 18:15:46.337538 20669 net.cpp:380] inception_5a/relu_5x5 <- inception_5a/5x5
I1217 18:15:46.337550 20669 net.cpp:327] inception_5a/relu_5x5 -> inception_5a/5x5 (in-place)
I1217 18:15:46.337563 20669 net.cpp:113] Setting up inception_5a/relu_5x5
I1217 18:15:46.337667 20669 net.cpp:120] Top shape: 80 128 7 7 (501760)
I1217 18:15:46.337678 20669 layer_factory.hpp:74] Creating layer inception_5a/pool
I1217 18:15:46.337687 20669 layer_factory.cpp:56] CUDNN does not support padding or multiple tops. Using Caffe's own pooling layer.
I1217 18:15:46.337698 20669 net.cpp:84] Creating Layer inception_5a/pool
I1217 18:15:46.337707 20669 net.cpp:380] inception_5a/pool <- pool4/3x3_s2_pool4/3x3_s2_0_split_3
I1217 18:15:46.337721 20669 net.cpp:338] inception_5a/pool -> inception_5a/pool
I1217 18:15:46.337734 20669 net.cpp:113] Setting up inception_5a/pool
I1217 18:15:46.337749 20669 net.cpp:120] Top shape: 80 832 7 7 (3261440)
I1217 18:15:46.337759 20669 layer_factory.hpp:74] Creating layer inception_5a/pool_proj
I1217 18:15:46.337774 20669 net.cpp:84] Creating Layer inception_5a/pool_proj
I1217 18:15:46.337781 20669 net.cpp:380] inception_5a/pool_proj <- inception_5a/pool
I1217 18:15:46.337793 20669 net.cpp:338] inception_5a/pool_proj -> inception_5a/pool_proj
I1217 18:15:46.337807 20669 net.cpp:113] Setting up inception_5a/pool_proj
I1217 18:15:46.339674 20669 net.cpp:120] Top shape: 80 128 7 7 (501760)
I1217 18:15:46.339697 20669 layer_factory.hpp:74] Creating layer inception_5a/relu_pool_proj
I1217 18:15:46.339712 20669 net.cpp:84] Creating Layer inception_5a/relu_pool_proj
I1217 18:15:46.339722 20669 net.cpp:380] inception_5a/relu_pool_proj <- inception_5a/pool_proj
I1217 18:15:46.339735 20669 net.cpp:327] inception_5a/relu_pool_proj -> inception_5a/pool_proj (in-place)
I1217 18:15:46.339746 20669 net.cpp:113] Setting up inception_5a/relu_pool_proj
I1217 18:15:46.339845 20669 net.cpp:120] Top shape: 80 128 7 7 (501760)
I1217 18:15:46.339855 20669 layer_factory.hpp:74] Creating layer inception_5a/output
I1217 18:15:46.339869 20669 net.cpp:84] Creating Layer inception_5a/output
I1217 18:15:46.339879 20669 net.cpp:380] inception_5a/output <- inception_5a/1x1
I1217 18:15:46.339889 20669 net.cpp:380] inception_5a/output <- inception_5a/3x3
I1217 18:15:46.339898 20669 net.cpp:380] inception_5a/output <- inception_5a/5x5
I1217 18:15:46.339907 20669 net.cpp:380] inception_5a/output <- inception_5a/pool_proj
I1217 18:15:46.339917 20669 net.cpp:338] inception_5a/output -> inception_5a/output
I1217 18:15:46.339931 20669 net.cpp:113] Setting up inception_5a/output
I1217 18:15:46.339952 20669 net.cpp:120] Top shape: 80 832 7 7 (3261440)
I1217 18:15:46.339969 20669 layer_factory.hpp:74] Creating layer inception_5a/output_inception_5a/output_0_split
I1217 18:15:46.339983 20669 net.cpp:84] Creating Layer inception_5a/output_inception_5a/output_0_split
I1217 18:15:46.339993 20669 net.cpp:380] inception_5a/output_inception_5a/output_0_split <- inception_5a/output
I1217 18:15:46.340003 20669 net.cpp:338] inception_5a/output_inception_5a/output_0_split -> inception_5a/output_inception_5a/output_0_split_0
I1217 18:15:46.340018 20669 net.cpp:338] inception_5a/output_inception_5a/output_0_split -> inception_5a/output_inception_5a/output_0_split_1
I1217 18:15:46.340030 20669 net.cpp:338] inception_5a/output_inception_5a/output_0_split -> inception_5a/output_inception_5a/output_0_split_2
I1217 18:15:46.340044 20669 net.cpp:338] inception_5a/output_inception_5a/output_0_split -> inception_5a/output_inception_5a/output_0_split_3
I1217 18:15:46.340054 20669 net.cpp:113] Setting up inception_5a/output_inception_5a/output_0_split
I1217 18:15:46.340067 20669 net.cpp:120] Top shape: 80 832 7 7 (3261440)
I1217 18:15:46.340077 20669 net.cpp:120] Top shape: 80 832 7 7 (3261440)
I1217 18:15:46.340087 20669 net.cpp:120] Top shape: 80 832 7 7 (3261440)
I1217 18:15:46.340097 20669 net.cpp:120] Top shape: 80 832 7 7 (3261440)
I1217 18:15:46.340106 20669 layer_factory.hpp:74] Creating layer inception_5b/1x1
I1217 18:15:46.340119 20669 net.cpp:84] Creating Layer inception_5b/1x1
I1217 18:15:46.340128 20669 net.cpp:380] inception_5b/1x1 <- inception_5a/output_inception_5a/output_0_split_0
I1217 18:15:46.340142 20669 net.cpp:338] inception_5b/1x1 -> inception_5b/1x1
I1217 18:15:46.340155 20669 net.cpp:113] Setting up inception_5b/1x1
I1217 18:15:46.344699 20669 net.cpp:120] Top shape: 80 384 7 7 (1505280)
I1217 18:15:46.344722 20669 layer_factory.hpp:74] Creating layer inception_5b/relu_1x1
I1217 18:15:46.344737 20669 net.cpp:84] Creating Layer inception_5b/relu_1x1
I1217 18:15:46.344745 20669 net.cpp:380] inception_5b/relu_1x1 <- inception_5b/1x1
I1217 18:15:46.344759 20669 net.cpp:327] inception_5b/relu_1x1 -> inception_5b/1x1 (in-place)
I1217 18:15:46.344772 20669 net.cpp:113] Setting up inception_5b/relu_1x1
I1217 18:15:46.345088 20669 net.cpp:120] Top shape: 80 384 7 7 (1505280)
I1217 18:15:46.345105 20669 layer_factory.hpp:74] Creating layer inception_5b/3x3_reduce
I1217 18:15:46.345119 20669 net.cpp:84] Creating Layer inception_5b/3x3_reduce
I1217 18:15:46.345129 20669 net.cpp:380] inception_5b/3x3_reduce <- inception_5a/output_inception_5a/output_0_split_1
I1217 18:15:46.345144 20669 net.cpp:338] inception_5b/3x3_reduce -> inception_5b/3x3_reduce
I1217 18:15:46.345160 20669 net.cpp:113] Setting up inception_5b/3x3_reduce
I1217 18:15:46.347686 20669 net.cpp:120] Top shape: 80 192 7 7 (752640)
I1217 18:15:46.347707 20669 layer_factory.hpp:74] Creating layer inception_5b/relu_3x3_reduce
I1217 18:15:46.347718 20669 net.cpp:84] Creating Layer inception_5b/relu_3x3_reduce
I1217 18:15:46.347728 20669 net.cpp:380] inception_5b/relu_3x3_reduce <- inception_5b/3x3_reduce
I1217 18:15:46.347739 20669 net.cpp:327] inception_5b/relu_3x3_reduce -> inception_5b/3x3_reduce (in-place)
I1217 18:15:46.347751 20669 net.cpp:113] Setting up inception_5b/relu_3x3_reduce
I1217 18:15:46.347854 20669 net.cpp:120] Top shape: 80 192 7 7 (752640)
I1217 18:15:46.347865 20669 layer_factory.hpp:74] Creating layer inception_5b/3x3
I1217 18:15:46.347880 20669 net.cpp:84] Creating Layer inception_5b/3x3
I1217 18:15:46.347889 20669 net.cpp:380] inception_5b/3x3 <- inception_5b/3x3_reduce
I1217 18:15:46.347901 20669 net.cpp:338] inception_5b/3x3 -> inception_5b/3x3
I1217 18:15:46.347939 20669 net.cpp:113] Setting up inception_5b/3x3
I1217 18:15:46.356762 20669 net.cpp:120] Top shape: 80 384 7 7 (1505280)
I1217 18:15:46.356789 20669 layer_factory.hpp:74] Creating layer inception_5b/relu_3x3
I1217 18:15:46.356804 20669 net.cpp:84] Creating Layer inception_5b/relu_3x3
I1217 18:15:46.356814 20669 net.cpp:380] inception_5b/relu_3x3 <- inception_5b/3x3
I1217 18:15:46.356837 20669 net.cpp:327] inception_5b/relu_3x3 -> inception_5b/3x3 (in-place)
I1217 18:15:46.356860 20669 net.cpp:113] Setting up inception_5b/relu_3x3
I1217 18:15:46.356961 20669 net.cpp:120] Top shape: 80 384 7 7 (1505280)
I1217 18:15:46.356972 20669 layer_factory.hpp:74] Creating layer inception_5b/5x5_reduce
I1217 18:15:46.356992 20669 net.cpp:84] Creating Layer inception_5b/5x5_reduce
I1217 18:15:46.357002 20669 net.cpp:380] inception_5b/5x5_reduce <- inception_5a/output_inception_5a/output_0_split_2
I1217 18:15:46.357013 20669 net.cpp:338] inception_5b/5x5_reduce -> inception_5b/5x5_reduce
I1217 18:15:46.357028 20669 net.cpp:113] Setting up inception_5b/5x5_reduce
I1217 18:15:46.358084 20669 net.cpp:120] Top shape: 80 48 7 7 (188160)
I1217 18:15:46.358108 20669 layer_factory.hpp:74] Creating layer inception_5b/relu_5x5_reduce
I1217 18:15:46.358121 20669 net.cpp:84] Creating Layer inception_5b/relu_5x5_reduce
I1217 18:15:46.358131 20669 net.cpp:380] inception_5b/relu_5x5_reduce <- inception_5b/5x5_reduce
I1217 18:15:46.358144 20669 net.cpp:327] inception_5b/relu_5x5_reduce -> inception_5b/5x5_reduce (in-place)
I1217 18:15:46.358156 20669 net.cpp:113] Setting up inception_5b/relu_5x5_reduce
I1217 18:15:46.358258 20669 net.cpp:120] Top shape: 80 48 7 7 (188160)
I1217 18:15:46.358268 20669 layer_factory.hpp:74] Creating layer inception_5b/5x5
I1217 18:15:46.358284 20669 net.cpp:84] Creating Layer inception_5b/5x5
I1217 18:15:46.358294 20669 net.cpp:380] inception_5b/5x5 <- inception_5b/5x5_reduce
I1217 18:15:46.358306 20669 net.cpp:338] inception_5b/5x5 -> inception_5b/5x5
I1217 18:15:46.358320 20669 net.cpp:113] Setting up inception_5b/5x5
I1217 18:15:46.360772 20669 net.cpp:120] Top shape: 80 128 7 7 (501760)
I1217 18:15:46.360795 20669 layer_factory.hpp:74] Creating layer inception_5b/relu_5x5
I1217 18:15:46.360811 20669 net.cpp:84] Creating Layer inception_5b/relu_5x5
I1217 18:15:46.360821 20669 net.cpp:380] inception_5b/relu_5x5 <- inception_5b/5x5
I1217 18:15:46.360832 20669 net.cpp:327] inception_5b/relu_5x5 -> inception_5b/5x5 (in-place)
I1217 18:15:46.360846 20669 net.cpp:113] Setting up inception_5b/relu_5x5
I1217 18:15:46.361166 20669 net.cpp:120] Top shape: 80 128 7 7 (501760)
I1217 18:15:46.361183 20669 layer_factory.hpp:74] Creating layer inception_5b/pool
I1217 18:15:46.361193 20669 layer_factory.cpp:56] CUDNN does not support padding or multiple tops. Using Caffe's own pooling layer.
I1217 18:15:46.361207 20669 net.cpp:84] Creating Layer inception_5b/pool
I1217 18:15:46.361217 20669 net.cpp:380] inception_5b/pool <- inception_5a/output_inception_5a/output_0_split_3
I1217 18:15:46.361228 20669 net.cpp:338] inception_5b/pool -> inception_5b/pool
I1217 18:15:46.361243 20669 net.cpp:113] Setting up inception_5b/pool
I1217 18:15:46.361260 20669 net.cpp:120] Top shape: 80 832 7 7 (3261440)
I1217 18:15:46.361269 20669 layer_factory.hpp:74] Creating layer inception_5b/pool_proj
I1217 18:15:46.361284 20669 net.cpp:84] Creating Layer inception_5b/pool_proj
I1217 18:15:46.361291 20669 net.cpp:380] inception_5b/pool_proj <- inception_5b/pool
I1217 18:15:46.361305 20669 net.cpp:338] inception_5b/pool_proj -> inception_5b/pool_proj
I1217 18:15:46.361320 20669 net.cpp:113] Setting up inception_5b/pool_proj
I1217 18:15:46.363188 20669 net.cpp:120] Top shape: 80 128 7 7 (501760)
I1217 18:15:46.363211 20669 layer_factory.hpp:74] Creating layer inception_5b/relu_pool_proj
I1217 18:15:46.363227 20669 net.cpp:84] Creating Layer inception_5b/relu_pool_proj
I1217 18:15:46.363236 20669 net.cpp:380] inception_5b/relu_pool_proj <- inception_5b/pool_proj
I1217 18:15:46.363248 20669 net.cpp:327] inception_5b/relu_pool_proj -> inception_5b/pool_proj (in-place)
I1217 18:15:46.363261 20669 net.cpp:113] Setting up inception_5b/relu_pool_proj
I1217 18:15:46.363363 20669 net.cpp:120] Top shape: 80 128 7 7 (501760)
I1217 18:15:46.363374 20669 layer_factory.hpp:74] Creating layer inception_5b/output
I1217 18:15:46.363389 20669 net.cpp:84] Creating Layer inception_5b/output
I1217 18:15:46.363404 20669 net.cpp:380] inception_5b/output <- inception_5b/1x1
I1217 18:15:46.363425 20669 net.cpp:380] inception_5b/output <- inception_5b/3x3
I1217 18:15:46.363435 20669 net.cpp:380] inception_5b/output <- inception_5b/5x5
I1217 18:15:46.363443 20669 net.cpp:380] inception_5b/output <- inception_5b/pool_proj
I1217 18:15:46.363454 20669 net.cpp:338] inception_5b/output -> inception_5b/output
I1217 18:15:46.363466 20669 net.cpp:113] Setting up inception_5b/output
I1217 18:15:46.363481 20669 net.cpp:120] Top shape: 80 1024 7 7 (4014080)
I1217 18:15:46.363489 20669 layer_factory.hpp:74] Creating layer pool5/7x7_s1
I1217 18:15:46.363500 20669 net.cpp:84] Creating Layer pool5/7x7_s1
I1217 18:15:46.363509 20669 net.cpp:380] pool5/7x7_s1 <- inception_5b/output
I1217 18:15:46.363523 20669 net.cpp:338] pool5/7x7_s1 -> pool5/7x7_s1
I1217 18:15:46.363535 20669 net.cpp:113] Setting up pool5/7x7_s1
I1217 18:15:46.363641 20669 net.cpp:120] Top shape: 80 1024 1 1 (81920)
I1217 18:15:46.363652 20669 layer_factory.hpp:74] Creating layer pool5/drop_7x7_s1
I1217 18:15:46.363664 20669 net.cpp:84] Creating Layer pool5/drop_7x7_s1
I1217 18:15:46.363672 20669 net.cpp:380] pool5/drop_7x7_s1 <- pool5/7x7_s1
I1217 18:15:46.363683 20669 net.cpp:327] pool5/drop_7x7_s1 -> pool5/7x7_s1 (in-place)
I1217 18:15:46.363698 20669 net.cpp:113] Setting up pool5/drop_7x7_s1
I1217 18:15:46.363711 20669 net.cpp:120] Top shape: 80 1024 1 1 (81920)
I1217 18:15:46.363719 20669 layer_factory.hpp:74] Creating layer loss3/classifier_kaggle
I1217 18:15:46.363736 20669 net.cpp:84] Creating Layer loss3/classifier_kaggle
I1217 18:15:46.363745 20669 net.cpp:380] loss3/classifier_kaggle <- pool5/7x7_s1
I1217 18:15:46.363757 20669 net.cpp:338] loss3/classifier_kaggle -> loss3/classifier_kaggle
I1217 18:15:46.363773 20669 net.cpp:113] Setting up loss3/classifier_kaggle
I1217 18:15:46.369487 20669 net.cpp:120] Top shape: 80 447 (35760)
I1217 18:15:46.369508 20669 layer_factory.hpp:74] Creating layer loss3/loss3
I1217 18:15:46.369519 20669 net.cpp:84] Creating Layer loss3/loss3
I1217 18:15:46.369529 20669 net.cpp:380] loss3/loss3 <- loss3/classifier_kaggle
I1217 18:15:46.369539 20669 net.cpp:380] loss3/loss3 <- label_data_1_split_2
I1217 18:15:46.369552 20669 net.cpp:338] loss3/loss3 -> loss3/loss3
I1217 18:15:46.369566 20669 net.cpp:113] Setting up loss3/loss3
…
I1217 18:15:46.377846 20669 net.cpp:257] The NetState phase (1) differed from the phase (0) specified by a rule in layer data
I1217 18:15:46.380303 20669 net.cpp:42] Initializing net from parameters: 
name: "MYNET"
state {
  phase: TEST
}
layer {
  name: "data"
  type: "ImageData"
  top: "data"
  top: "label"
  include {
    phase: TEST
  }
  transform_param {
    mirror: false
    crop_size: 224
    mean_value: 129
    mean_value: 129
    mean_value: 129
  }
  image_data_param {
    source: "/home/coldmanck/kaggle/label_val_full.txt"
    batch_size: 50
    shuffle: true
  }
}
layer {
  name: "conv1/7x7_s2"
  type: "Convolution"
  bottom: "data"
  top: "conv1/7x7_s2"
  param {
    lr_mult: 1
    decay_mult: 1
  }
  param {
    lr_mult: 2
    decay_mult: 0
  }
  convolution_param {
    num_output: 64
    pad: 3
    kernel_size: 7
    stride: 2
    weight_filler {
      type: "xavier"
    }
    bias_filler {
      type: "constant"
      value: 0.2
    }
  }
}
layer {
  name: "conv1/relu_7x7"
  type: "ReLU"
  bottom: "conv1/7x7_s2"
  top: "conv1/7x7_s2"
}
layer {
  name: "pool1/3x3_s2"
  type: "Pooling"
  bottom: "conv1/7x7_s2"
  top: "pool1/3x3_s2"
  pooling_param {
    pool: MAX
    kernel_size: 3
    stride: 2
  }
}
layer {
  name: "pool1/norm1"
  type: "LRN"
  bottom: "pool1/3x3_s2"
  top: "pool1/norm1"
  lrn_param {
    local_size: 5
    alpha: 0.0001
    beta: 0.75
  }
}
layer {
  name: "conv2/3x3_reduce"
  type: "Convolution"
  bottom: "pool1/norm1"
  top: "conv2/3x3_reduce"
  param {
    lr_mult: 1
    decay_mult: 1
  }
  param {
    lr_mult: 2
    decay_mult: 0
  }
  convolution_param {
    num_output: 64
    kernel_size: 1
    weight_filler {
      type: "xavier"
    }
    bias_filler {
      type: "constant"
      value: 0.2
    }
  }
}
layer {
  name: "conv2/relu_3x3_reduce"
  type: "ReLU"
  bottom: "conv2/3x3_reduce"
  top: "conv2/3x3_reduce"
}
layer {
  name: "conv2/3x3"
  type: "Convolution"
  bottom: "conv2/3x3_reduce"
  top: "conv2/3x3"
  param {
    lr_mult: 1
    decay_mult: 1
  }
  param {
    lr_mult: 2
    decay_mult: 0
  }
  convolution_param {
    num_output: 192
    pad: 1
    kernel_size: 3
    weight_filler {
      type: "xavier"
    }
    bias_filler {
      type: "constant"
      value: 0.2
    }
  }
}
layer {
  name: "conv2/relu_3x3"
  type: "ReLU"
  bottom: "conv2/3x3"
  top: "conv2/3x3"
}
layer {
  name: "conv2/norm2"
  type: "LRN"
  bottom: "conv2/3x3"
  top: "conv2/norm2"
  lrn_param {
    local_size: 5
    alpha: 0.0001
    beta: 0.75
  }
}
layer {
  name: "pool2/3x3_s2"
  type: "Pooling"
  bottom: "conv2/norm2"
  top: "pool2/3x3_s2"
  pooling_param {
    pool: MAX
    kernel_size: 3
    stride: 2
  }
}
layer {
  name: "inception_3a/1x1"
  type: "Convolution"
  bottom: "pool2/3x3_s2"
  top: "inception_3a/1x1"
  param {
    lr_mult: 1
    decay_mult: 1
  }
  param {
    lr_mult: 2
    decay_mult: 0
  }
  convolution_param {
    num_output: 64
    kernel_size: 1
    weight_filler {
      type: "xavier"
    }
    bias_filler {
      type: "constant"
      value: 0.2
    }
  }
}
layer {
  name: "inception_3a/relu_1x1"
  type: "ReLU"
  bottom: "inception_3a/1x1"
  top: "inception_3a/1x1"
}
layer {
  name: "inception_3a/3x3_reduce"
  type: "Convolution"
  bottom: "pool2/3x3_s2"
  top: "inception_3a/3x3_reduce"
  param {
    lr_mult: 1
    decay_mult: 1
  }
  param {
    lr_mult: 2
    decay_mult: 0
  }
  convolution_param {
    num_output: 96
    kernel_size: 1
    weight_filler {
      type: "xavier"
    }
    bias_filler {
      type: "constant"
      value: 0.2
    }
  }
}
layer {
  name: "inception_3a/relu_3x3_reduce"
  type: "ReLU"
  bottom: "inception_3a/3x3_reduce"
  top: "inception_3a/3x3_reduce"
}
layer {
  name: "inception_3a/3x3"
  type: "Convolution"
  bottom: "inception_3a/3x3_reduce"
  top: "inception_3a/3x3"
  param {
    lr_mult: 1
    decay_mult: 1
  }
  param {
    lr_mult: 2
    decay_mult: 0
  }
  convolution_param {
    num_output: 128
    pad: 1
    kernel_size: 3
    weight_filler {
      type: "xavier"
    }
    bias_filler {
      type: "constant"
      value: 0.2
    }
  }
}
layer {
  name: "inception_3a/relu_3x3"
  type: "ReLU"
  bottom: "inception_3a/3x3"
  top: "inception_3a/3x3"
}
layer {
  name: "inception_3a/5x5_reduce"
  type: "Convolution"
  bottom: "pool2/3x3_s2"
  top: "inception_3a/5x5_reduce"
  param {
    lr_mult: 1
    decay_mult: 1
  }
  param {
    lr_mult: 2
    decay_mult: 0
  }
  convolution_param {
    num_output: 16
    kernel_size: 1
    weight_filler {
      type: "xavier"
    }
    bias_filler {
      type: "constant"
      value: 0.2
    }
  }
}
layer {
  name: "inception_3a/relu_5x5_reduce"
  type: "ReLU"
  bottom: "inception_3a/5x5_reduce"
  top: "inception_3a/5x5_reduce"
}
layer {
  name: "inception_3a/5x5"
  type: "Convolution"
  bottom: "inception_3a/5x5_reduce"
  top: "inception_3a/5x5"
  param {
    lr_mult: 1
    decay_mult: 1
  }
  param {
    lr_mult: 2
    decay_mult: 0
  }
  convolution_param {
    num_output: 32
    pad: 2
    kernel_size: 5
    weight_filler {
      type: "xavier"
    }
    bias_filler {
      type: "constant"
      value: 0.2
    }
  }
}
layer {
  name: "inception_3a/relu_5x5"
  type: "ReLU"
  bottom: "inception_3a/5x5"
  top: "inception_3a/5x5"
}
layer {
  name: "inception_3a/pool"
  type: "Pooling"
  bottom: "pool2/3x3_s2"
  top: "inception_3a/pool"
  pooling_param {
    pool: MAX
    kernel_size: 3
    stride: 1
    pad: 1
  }
}
layer {
  name: "inception_3a/pool_proj"
  type: "Convolution"
  bottom: "inception_3a/pool"
  top: "inception_3a/pool_proj"
  param {
    lr_mult: 1
    decay_mult: 1
  }
  param {
    lr_mult: 2
    decay_mult: 0
  }
  convolution_param {
    num_output: 32
    kernel_size: 1
    weight_filler {
      type: "xavier"
    }
    bias_filler {
      type: "constant"
      value: 0.2
    }
  }
}
layer {
  name: "inception_3a/relu_pool_proj"
  type: "ReLU"
  bottom: "inception_3a/pool_proj"
  top: "inception_3a/pool_proj"
}
layer {
  name: "inception_3a/output"
  type: "Concat"
  bottom: "inception_3a/1x1"
  bottom: "inception_3a/3x3"
  bottom: "inception_3a/5x5"
  bottom: "inception_3a/pool_proj"
  top: "inception_3a/output"
}
layer {
  name: "inception_3b/1x1"
  type: "Convolution"
  bottom: "inception_3a/output"
  top: "inception_3b/1x1"
  param {
    lr_mult: 1
    decay_mult: 1
  }
  param {
    lr_mult: 2
    decay_mult: 0
  }
  convolution_param {
    num_output: 128
    kernel_size: 1
    weight_filler {
      type: "xavier"
    }
    bias_filler {
      type: "constant"
      value: 0.2
    }
  }
}
layer {
  name: "inception_3b/relu_1x1"
  type: "ReLU"
  bottom: "inception_3b/1x1"
  top: "inception_3b/1x1"
}
layer {
  name: "inception_3b/3x3_reduce"
  type: "Convolution"
  bottom: "inception_3a/output"
  top: "inception_3b/3x3_reduce"
  param {
    lr_mult: 1
    decay_mult: 1
  }
  param {
    lr_mult: 2
    decay_mult: 0
  }
  convolution_param {
    num_output: 128
    kernel_size: 1
    weight_filler {
      type: "xavier"
    }
    bias_filler {
      type: "constant"
      value: 0.2
    }
  }
}
layer {
  name: "inception_3b/relu_3x3_reduce"
  type: "ReLU"
  bottom: "inception_3b/3x3_reduce"
  top: "inception_3b/3x3_reduce"
}
layer {
  name: "inception_3b/3x3"
  type: "Convolution"
  bottom: "inception_3b/3x3_reduce"
  top: "inception_3b/3x3"
  param {
    lr_mult: 1
    decay_mult: 1
  }
  param {
    lr_mult: 2
    decay_mult: 0
  }
  convolution_param {
    num_output: 192
    pad: 1
    kernel_size: 3
    weight_filler {
      type: "xavier"
    }
    bias_filler {
      type: "constant"
      value: 0.2
    }
  }
}
layer {
  name: "inception_3b/relu_3x3"
  type: "ReLU"
  bottom: "inception_3b/3x3"
  top: "inception_3b/3x3"
}
layer {
  name: "inception_3b/5x5_reduce"
  type: "Convolution"
  bottom: "inception_3a/output"
  top: "inception_3b/5x5_reduce"
  param {
    lr_mult: 1
    decay_mult: 1
  }
  param {
    lr_mult: 2
    decay_mult: 0
  }
  convolution_param {
    num_output: 32
    kernel_size: 1
    weight_filler {
      type: "xavier"
    }
    bias_filler {
      type: "constant"
      value: 0.2
    }
  }
}
layer {
  name: "inception_3b/relu_5x5_reduce"
  type: "ReLU"
  bottom: "inception_3b/5x5_reduce"
  top: "inception_3b/5x5_reduce"
}
layer {
  name: "inception_3b/5x5"
  type: "Convolution"
  bottom: "inception_3b/5x5_reduce"
  top: "inception_3b/5x5"
  param {
    lr_mult: 1
    decay_mult: 1
  }
  param {
    lr_mult: 2
    decay_mult: 0
  }
  convolution_param {
    num_output: 96
    pad: 2
    kernel_size: 5
    weight_filler {
      type: "xavier"
    }
    bias_filler {
      type: "constant"
      value: 0.2
    }
  }
}
layer {
  name: "inception_3b/relu_5x5"
  type: "ReLU"
  bottom: "inception_3b/5x5"
  top: "inception_3b/5x5"
}
layer {
  name: "inception_3b/pool"
  type: "Pooling"
  bottom: "inception_3a/output"
  top: "inception_3b/pool"
  pooling_param {
    pool: MAX
    kernel_size: 3
    stride: 1
    pad: 1
  }
}
layer {
  name: "inception_3b/pool_proj"
  type: "Convolution"
  bottom: "inception_3b/pool"
  top: "inception_3b/pool_proj"
  param {
    lr_mult: 1
    decay_mult: 1
  }
  param {
    lr_mult: 2
    decay_mult: 0
  }
  convolution_param {
    num_output: 64
    kernel_size: 1
    weight_filler {
      type: "xavier"
    }
    bias_filler {
      type: "constant"
      value: 0.2
    }
  }
}
layer {
  name: "inception_3b/relu_pool_proj"
  type: "ReLU"
  bottom: "inception_3b/pool_proj"
  top: "inception_3b/pool_proj"
}
layer {
  name: "inception_3b/output"
  type: "Concat"
  bottom: "inception_3b/1x1"
  bottom: "inception_3b/3x3"
  bottom: "inception_3b/5x5"
  bottom: "inception_3b/pool_proj"
  top: "inception_3b/output"
}
layer {
  name: "pool3/3x3_s2"
  type: "Pooling"
  bottom: "inception_3b/output"
  top: "pool3/3x3_s2"
  pooling_param {
    pool: MAX
    kernel_size: 3
    stride: 2
  }
}
layer {
  name: "inception_4a/1x1"
  type: "Convolution"
  bottom: "pool3/3x3_s2"
  top: "inception_4a/1x1"
  param {
    lr_mult: 1
    decay_mult: 1
  }
  param {
    lr_mult: 2
    decay_mult: 0
  }
  convolution_param {
    num_output: 192
    kernel_size: 1
    weight_filler {
      type: "xavier"
    }
    bias_filler {
      type: "constant"
      value: 0.2
    }
  }
}
layer {
  name: "inception_4a/relu_1x1"
  type: "ReLU"
  bottom: "inception_4a/1x1"
  top: "inception_4a/1x1"
}
layer {
  name: "inception_4a/3x3_reduce"
  type: "Convolution"
  bottom: "pool3/3x3_s2"
  top: "inception_4a/3x3_reduce"
  param {
    lr_mult: 1
    decay_mult: 1
  }
  param {
    lr_mult: 2
    decay_mult: 0
  }
  convolution_param {
    num_output: 96
    kernel_size: 1
    weight_filler {
      type: "xavier"
    }
    bias_filler {
      type: "constant"
      value: 0.2
    }
  }
}
layer {
  name: "inception_4a/relu_3x3_reduce"
  type: "ReLU"
  bottom: "inception_4a/3x3_reduce"
  top: "inception_4a/3x3_reduce"
}
layer {
  name: "inception_4a/3x3"
  type: "Convolution"
  bottom: "inception_4a/3x3_reduce"
  top: "inception_4a/3x3"
  param {
    lr_mult: 1
    decay_mult: 1
  }
  param {
    lr_mult: 2
    decay_mult: 0
  }
  convolution_param {
    num_output: 208
    pad: 1
    kernel_size: 3
    weight_filler {
      type: "xavier"
    }
    bias_filler {
      type: "constant"
      value: 0.2
    }
  }
}
layer {
  name: "inception_4a/relu_3x3"
  type: "ReLU"
  bottom: "inception_4a/3x3"
  top: "inception_4a/3x3"
}
layer {
  name: "inception_4a/5x5_reduce"
  type: "Convolution"
  bottom: "pool3/3x3_s2"
  top: "inception_4a/5x5_reduce"
  param {
    lr_mult: 1
    decay_mult: 1
  }
  param {
    lr_mult: 2
    decay_mult: 0
  }
  convolution_param {
    num_output: 16
    kernel_size: 1
    weight_filler {
      type: "xavier"
    }
    bias_filler {
      type: "constant"
      value: 0.2
    }
  }
}
layer {
  name: "inception_4a/relu_5x5_reduce"
  type: "ReLU"
  bottom: "inception_4a/5x5_reduce"
  top: "inception_4a/5x5_reduce"
}
layer {
  name: "inception_4a/5x5"
  type: "Convolution"
  bottom: "inception_4a/5x5_reduce"
  top: "inception_4a/5x5"
  param {
    lr_mult: 1
    decay_mult: 1
  }
  param {
    lr_mult: 2
    decay_mult: 0
  }
  convolution_param {
    num_output: 48
    pad: 2
    kernel_size: 5
    weight_filler {
      type: "xavier"
    }
    bias_filler {
      type: "constant"
      value: 0.2
    }
  }
}
layer {
  name: "inception_4a/relu_5x5"
  type: "ReLU"
  bottom: "inception_4a/5x5"
  top: "inception_4a/5x5"
}
layer {
  name: "inception_4a/pool"
  type: "Pooling"
  bottom: "pool3/3x3_s2"
  top: "inception_4a/pool"
  pooling_param {
    pool: MAX
    kernel_size: 3
    stride: 1
    pad: 1
  }
}
layer {
  name: "inception_4a/pool_proj"
  type: "Convolution"
  bottom: "inception_4a/pool"
  top: "inception_4a/pool_proj"
  param {
    lr_mult: 1
    decay_mult: 1
  }
  param {
    lr_mult: 2
    decay_mult: 0
  }
  convolution_param {
    num_output: 64
    kernel_size: 1
    weight_filler {
      type: "xavier"
    }
    bias_filler {
      type: "constant"
      value: 0.2
    }
  }
}
layer {
  name: "inception_4a/relu_pool_proj"
  type: "ReLU"
  bottom: "inception_4a/pool_proj"
  top: "inception_4a/pool_proj"
}
layer {
  name: "inception_4a/output"
  type: "Concat"
  bottom: "inception_4a/1x1"
  bottom: "inception_4a/3x3"
  bottom: "inception_4a/5x5"
  bottom: "inception_4a/pool_proj"
  top: "inception_4a/output"
}
layer {
  name: "loss1/ave_pool"
  type: "Pooling"
  bottom: "inception_4a/output"
  top: "loss1/ave_pool"
  pooling_param {
    pool: AVE
    kernel_size: 5
    stride: 3
  }
}
layer {
  name: "loss1/conv"
  type: "Convolution"
  bottom: "loss1/ave_pool"
  top: "loss1/conv"
  param {
    lr_mult: 1
    decay_mult: 1
  }
  param {
    lr_mult: 2
    decay_mult: 0
  }
  convolution_param {
    num_output: 128
    kernel_size: 1
    weight_filler {
      type: "xavier"
    }
    bias_filler {
      type: "constant"
      value: 0.2
    }
  }
}
layer {
  name: "loss1/relu_conv"
  type: "ReLU"
  bottom: "loss1/conv"
  top: "loss1/conv"
}
layer {
  name: "loss1/fc"
  type: "InnerProduct"
  bottom: "loss1/conv"
  top: "loss1/fc"
  param {
    lr_mult: 1
    decay_mult: 1
  }
  param {
    lr_mult: 2
    decay_mult: 0
  }
  inner_product_param {
    num_output: 1024
    weight_filler {
      type: "xavier"
    }
    bias_filler {
      type: "constant"
      value: 0.2
    }
  }
}
layer {
  name: "loss1/relu_fc"
  type: "ReLU"
  bottom: "loss1/fc"
  top: "loss1/fc"
}
layer {
  name: "loss1/drop_fc"
  type: "Dropout"
  bottom: "loss1/fc"
  top: "loss1/fc"
  dropout_param {
    dropout_ratio: 0.7
  }
}
layer {
  name: "loss1/classifier_kaggle"
  type: "InnerProduct"
  bottom: "loss1/fc"
  top: "loss1/classifier_kaggle"
  param {
    lr_mult: 1
    decay_mult: 1
  }
  param {
    lr_mult: 2
    decay_mult: 0
  }
  inner_product_param {
    num_output: 447
    weight_filler {
      type: "xavier"
    }
    bias_filler {
      type: "constant"
      value: 0
    }
  }
}
layer {
  name: "loss1/loss"
  type: "SoftmaxWithLoss"
  bottom: "loss1/classifier_kaggle"
  bottom: "label"
  top: "loss1/loss1"
  loss_weight: 0.3
}
layer {
  name: "loss1/top-1"
  type: "Accuracy"
  bottom: "loss1/classifier_kaggle"
  bottom: "label"
  top: "loss1/top-1"
  include {
    phase: TEST
  }
}
layer {
  name: "loss1/top-5"
  type: "Accuracy"
  bottom: "loss1/classifier_kaggle"
  bottom: "label"
  top: "loss1/top-5"
  include {
    phase: TEST
  }
  accuracy_param {
    top_k: 5
  }
}
layer {
  name: "inception_4b/1x1"
  type: "Convolution"
  bottom: "inception_4a/output"
  top: "inception_4b/1x1"
  param {
    lr_mult: 1
    decay_mult: 1
  }
  param {
    lr_mult: 2
    decay_mult: 0
  }
  convolution_param {
    num_output: 160
    kernel_size: 1
    weight_filler {
      type: "xavier"
    }
    bias_filler {
      type: "constant"
      value: 0.2
    }
  }
}
layer {
  name: "inception_4b/relu_1x1"
  type: "ReLU"
  bottom: "inception_4b/1x1"
  top: "inception_4b/1x1"
}
layer {
  name: "inception_4b/3x3_reduce"
  type: "Convolution"
  bottom: "inception_4a/output"
  top: "inception_4b/3x3_reduce"
  param {
    lr_mult: 1
    decay_mult: 1
  }
  param {
    lr_mult: 2
    decay_mult: 0
  }
  convolution_param {
    num_output: 112
    kernel_size: 1
    weight_filler {
      type: "xavier"
    }
    bias_filler {
      type: "constant"
      value: 0.2
    }
  }
}
layer {
  name: "inception_4b/relu_3x3_reduce"
  type: "ReLU"
  bottom: "inception_4b/3x3_reduce"
  top: "inception_4b/3x3_reduce"
}
layer {
  name: "inception_4b/3x3"
  type: "Convolution"
  bottom: "inception_4b/3x3_reduce"
  top: "inception_4b/3x3"
  param {
    lr_mult: 1
    decay_mult: 1
  }
  param {
    lr_mult: 2
    decay_mult: 0
  }
  convolution_param {
    num_output: 224
    pad: 1
    kernel_size: 3
    weight_filler {
      type: "xavier"
    }
    bias_filler {
      type: "constant"
      value: 0.2
    }
  }
}
layer {
  name: "inception_4b/relu_3x3"
  type: "ReLU"
  bottom: "inception_4b/3x3"
  top: "inception_4b/3x3"
}
layer {
  name: "inception_4b/5x5_reduce"
  type: "Convolution"
  bottom: "inception_4a/output"
  top: "inception_4b/5x5_reduce"
  param {
    lr_mult: 1
    decay_mult: 1
  }
  param {
    lr_mult: 2
    decay_mult: 0
  }
  convolution_param {
    num_output: 24
    kernel_size: 1
    weight_filler {
      type: "xavier"
    }
    bias_filler {
      type: "constant"
      value: 0.2
    }
  }
}
layer {
  name: "inception_4b/relu_5x5_reduce"
  type: "ReLU"
  bottom: "inception_4b/5x5_reduce"
  top: "inception_4b/5x5_reduce"
}
layer {
  name: "inception_4b/5x5"
  type: "Convolution"
  bottom: "inception_4b/5x5_reduce"
  top: "inception_4b/5x5"
  param {
    lr_mult: 1
    decay_mult: 1
  }
  param {
    lr_mult: 2
    decay_mult: 0
  }
  convolution_param {
    num_output: 64
    pad: 2
    kernel_size: 5
    weight_filler {
      type: "xavier"
    }
    bias_filler {
      type: "constant"
      value: 0.2
    }
  }
}
layer {
  name: "inception_4b/relu_5x5"
  type: "ReLU"
  bottom: "inception_4b/5x5"
  top: "inception_4b/5x5"
}
layer {
  name: "inception_4b/pool"
  type: "Pooling"
  bottom: "inception_4a/output"
  top: "inception_4b/pool"
  pooling_param {
    pool: MAX
    kernel_size: 3
    stride: 1
    pad: 1
  }
}
layer {
  name: "inception_4b/pool_proj"
  type: "Convolution"
  bottom: "inception_4b/pool"
  top: "inception_4b/pool_proj"
  param {
    lr_mult: 1
    decay_mult: 1
  }
  param {
    lr_mult: 2
    decay_mult: 0
  }
  convolution_param {
    num_output: 64
    kernel_size: 1
    weight_filler {
      type: "xavier"
    }
    bias_filler {
      type: "constant"
      value: 0.2
    }
  }
}
layer {
  name: "inception_4b/relu_pool_proj"
  type: "ReLU"
  bottom: "inception_4b/pool_proj"
  top: "inception_4b/pool_proj"
}
layer {
  name: "inception_4b/output"
  type: "Concat"
  bottom: "inception_4b/1x1"
  bottom: "inception_4b/3x3"
  bottom: "inception_4b/5x5"
  bottom: "inception_4b/pool_proj"
  top: "inception_4b/output"
}
layer {
  name: "inception_4c/1x1"
  type: "Convolution"
  bottom: "inception_4b/output"
  top: "inception_4c/1x1"
  param {
    lr_mult: 1
    decay_mult: 1
  }
  param {
    lr_mult: 2
    decay_mult: 0
  }
  convolution_param {
    num_output: 128
    kernel_size: 1
    weight_filler {
      type: "xavier"
    }
    bias_filler {
      type: "constant"
      value: 0.2
    }
  }
}
layer {
  name: "inception_4c/relu_1x1"
  type: "ReLU"
  bottom: "inception_4c/1x1"
  top: "inception_4c/1x1"
}
layer {
  name: "inception_4c/3x3_reduce"
  type: "Convolution"
  bottom: "inception_4b/output"
  top: "inception_4c/3x3_reduce"
  param {
    lr_mult: 1
    decay_mult: 1
  }
  param {
    lr_mult: 2
    decay_mult: 0
  }
  convolution_param {
    num_output: 128
    kernel_size: 1
    weight_filler {
      type: "xavier"
    }
    bias_filler {
      type: "constant"
      value: 0.2
    }
  }
}
layer {
  name: "inception_4c/relu_3x3_reduce"
  type: "ReLU"
  bottom: "inception_4c/3x3_reduce"
  top: "inception_4c/3x3_reduce"
}
layer {
  name: "inception_4c/3x3"
  type: "Convolution"
  bottom: "inception_4c/3x3_reduce"
  top: "inception_4c/3x3"
  param {
    lr_mult: 1
    decay_mult: 1
  }
  param {
    lr_mult: 2
    decay_mult: 0
  }
  convolution_param {
    num_output: 256
    pad: 1
    kernel_size: 3
    weight_filler {
      type: "xavier"
    }
    bias_filler {
      type: "constant"
      value: 0.2
    }
  }
}
layer {
  name: "inception_4c/relu_3x3"
  type: "ReLU"
  bottom: "inception_4c/3x3"
  top: "inception_4c/3x3"
}
layer {
  name: "inception_4c/5x5_reduce"
  type: "Convolution"
  bottom: "inception_4b/output"
  top: "inception_4c/5x5_reduce"
  param {
    lr_mult: 1
    decay_mult: 1
  }
  param {
    lr_mult: 2
    decay_mult: 0
  }
  convolution_param {
    num_output: 24
    kernel_size: 1
    weight_filler {
      type: "xavier"
    }
    bias_filler {
      type: "constant"
      value: 0.2
    }
  }
}
layer {
  name: "inception_4c/relu_5x5_reduce"
  type: "ReLU"
  bottom: "inception_4c/5x5_reduce"
  top: "inception_4c/5x5_reduce"
}
layer {
  name: "inception_4c/5x5"
  type: "Convolution"
  bottom: "inception_4c/5x5_reduce"
  top: "inception_4c/5x5"
  param {
    lr_mult: 1
    decay_mult: 1
  }
  param {
    lr_mult: 2
    decay_mult: 0
  }
  convolution_param {
    num_output: 64
    pad: 2
    kernel_size: 5
    weight_filler {
      type: "xavier"
    }
    bias_filler {
      type: "constant"
      value: 0.2
    }
  }
}
layer {
  name: "inception_4c/relu_5x5"
  type: "ReLU"
  bottom: "inception_4c/5x5"
  top: "inception_4c/5x5"
}
layer {
  name: "inception_4c/pool"
  type: "Pooling"
  bottom: "inception_4b/output"
  top: "inception_4c/pool"
  pooling_param {
    pool: MAX
    kernel_size: 3
    stride: 1
    pad: 1
  }
}
layer {
  name: "inception_4c/pool_proj"
  type: "Convolution"
  bottom: "inception_4c/pool"
  top: "inception_4c/pool_proj"
  param {
    lr_mult: 1
    decay_mult: 1
  }
  param {
    lr_mult: 2
    decay_mult: 0
  }
  convolution_param {
    num_output: 64
    kernel_size: 1
    weight_filler {
      type: "xavier"
    }
    bias_filler {
      type: "constant"
      value: 0.2
    }
  }
}
layer {
  name: "inception_4c/relu_pool_proj"
  type: "ReLU"
  bottom: "inception_4c/pool_proj"
  top: "inception_4c/pool_proj"
}
layer {
  name: "inception_4c/output"
  type: "Concat"
  bottom: "inception_4c/1x1"
  bottom: "inception_4c/3x3"
  bottom: "inception_4c/5x5"
  bottom: "inception_4c/pool_proj"
  top: "inception_4c/output"
}
layer {
  name: "inception_4d/1x1"
  type: "Convolution"
  bottom: "inception_4c/output"
  top: "inception_4d/1x1"
  param {
    lr_mult: 1
    decay_mult: 1
  }
  param {
    lr_mult: 2
    decay_mult: 0
  }
  convolution_param {
    num_output: 112
    kernel_size: 1
    weight_filler {
      type: "xavier"
    }
    bias_filler {
      type: "constant"
      value: 0.2
    }
  }
}
layer {
  name: "inception_4d/relu_1x1"
  type: "ReLU"
  bottom: "inception_4d/1x1"
  top: "inception_4d/1x1"
}
layer {
  name: "inception_4d/3x3_reduce"
  type: "Convolution"
  bottom: "inception_4c/output"
  top: "inception_4d/3x3_reduce"
  param {
    lr_mult: 1
    decay_mult: 1
  }
  param {
    lr_mult: 2
    decay_mult: 0
  }
  convolution_param {
    num_output: 144
    kernel_size: 1
    weight_filler {
      type: "xavier"
    }
    bias_filler {
      type: "constant"
      value: 0.2
    }
  }
}
layer {
  name: "inception_4d/relu_3x3_reduce"
  type: "ReLU"
  bottom: "inception_4d/3x3_reduce"
  top: "inception_4d/3x3_reduce"
}
layer {
  name: "inception_4d/3x3"
  type: "Convolution"
  bottom: "inception_4d/3x3_reduce"
  top: "inception_4d/3x3"
  param {
    lr_mult: 1
    decay_mult: 1
  }
  param {
    lr_mult: 2
    decay_mult: 0
  }
  convolution_param {
    num_output: 288
    pad: 1
    kernel_size: 3
    weight_filler {
      type: "xavier"
    }
    bias_filler {
      type: "constant"
      value: 0.2
    }
  }
}
layer {
  name: "inception_4d/relu_3x3"
  type: "ReLU"
  bottom: "inception_4d/3x3"
  top: "inception_4d/3x3"
}
layer {
  name: "inception_4d/5x5_reduce"
  type: "Convolution"
  bottom: "inception_4c/output"
  top: "inception_4d/5x5_reduce"
  param {
    lr_mult: 1
    decay_mult: 1
  }
  param {
    lr_mult: 2
    decay_mult: 0
  }
  convolution_param {
    num_output: 32
    kernel_size: 1
    weight_filler {
      type: "xavier"
    }
    bias_filler {
      type: "constant"
      value: 0.2
    }
  }
}
layer {
  name: "inception_4d/relu_5x5_reduce"
  type: "ReLU"
  bottom: "inception_4d/5x5_reduce"
  top: "inception_4d/5x5_reduce"
}
layer {
  name: "inception_4d/5x5"
  type: "Convolution"
  bottom: "inception_4d/5x5_reduce"
  top: "inception_4d/5x5"
  param {
    lr_mult: 1
    decay_mult: 1
  }
  param {
    lr_mult: 2
    decay_mult: 0
  }
  convolution_param {
    num_output: 64
    pad: 2
    kernel_size: 5
    weight_filler {
      type: "xavier"
    }
    bias_filler {
      type: "constant"
      value: 0.2
    }
  }
}
layer {
  name: "inception_4d/relu_5x5"
  type: "ReLU"
  bottom: "inception_4d/5x5"
  top: "inception_4d/5x5"
}
layer {
  name: "inception_4d/pool"
  type: "Pooling"
  bottom: "inception_4c/output"
  top: "inception_4d/pool"
  pooling_param {
    pool: MAX
    kernel_size: 3
    stride: 1
    pad: 1
  }
}
layer {
  name: "inception_4d/pool_proj"
  type: "Convolution"
  bottom: "inception_4d/pool"
  top: "inception_4d/pool_proj"
  param {
    lr_mult: 1
    decay_mult: 1
  }
  param {
    lr_mult: 2
    decay_mult: 0
  }
  convolution_param {
    num_output: 64
    kernel_size: 1
    weight_filler {
      type: "xavier"
    }
    bias_filler {
      type: "constant"
      value: 0.2
    }
  }
}
layer {
  name: "inception_4d/relu_pool_proj"
  type: "ReLU"
  bottom: "inception_4d/pool_proj"
  top: "inception_4d/pool_proj"
}
layer {
  name: "inception_4d/output"
  type: "Concat"
  bottom: "inception_4d/1x1"
  bottom: "inception_4d/3x3"
  bottom: "inception_4d/5x5"
  bottom: "inception_4d/pool_proj"
  top: "inception_4d/output"
}
layer {
  name: "loss2/ave_pool"
  type: "Pooling"
  bottom: "inception_4d/output"
  top: "loss2/ave_pool"
  pooling_param {
    pool: AVE
    kernel_size: 5
    stride: 3
  }
}
layer {
  name: "loss2/conv"
  type: "Convolution"
…
I1217 18:15:46.505836 20669 net.cpp:84] Creating Layer inception_4c/1x1
I1217 18:15:46.505844 20669 net.cpp:380] inception_4c/1x1 <- inception_4b/output_inception_4b/output_0_split_0
I1217 18:15:46.505858 20669 net.cpp:338] inception_4c/1x1 -> inception_4c/1x1
I1217 18:15:46.505872 20669 net.cpp:113] Setting up inception_4c/1x1
I1217 18:15:46.507246 20669 net.cpp:120] Top shape: 50 128 14 14 (1254400)
I1217 18:15:46.507268 20669 layer_factory.hpp:74] Creating layer inception_4c/relu_1x1
I1217 18:15:46.507279 20669 net.cpp:84] Creating Layer inception_4c/relu_1x1
I1217 18:15:46.507288 20669 net.cpp:380] inception_4c/relu_1x1 <- inception_4c/1x1
I1217 18:15:46.507300 20669 net.cpp:327] inception_4c/relu_1x1 -> inception_4c/1x1 (in-place)
I1217 18:15:46.507313 20669 net.cpp:113] Setting up inception_4c/relu_1x1
I1217 18:15:46.507642 20669 net.cpp:120] Top shape: 50 128 14 14 (1254400)
I1217 18:15:46.507668 20669 layer_factory.hpp:74] Creating layer inception_4c/3x3_reduce
I1217 18:15:46.507683 20669 net.cpp:84] Creating Layer inception_4c/3x3_reduce
I1217 18:15:46.507697 20669 net.cpp:380] inception_4c/3x3_reduce <- inception_4b/output_inception_4b/output_0_split_1
I1217 18:15:46.507712 20669 net.cpp:338] inception_4c/3x3_reduce -> inception_4c/3x3_reduce
I1217 18:15:46.507726 20669 net.cpp:113] Setting up inception_4c/3x3_reduce
I1217 18:15:46.509111 20669 net.cpp:120] Top shape: 50 128 14 14 (1254400)
I1217 18:15:46.509135 20669 layer_factory.hpp:74] Creating layer inception_4c/relu_3x3_reduce
I1217 18:15:46.509150 20669 net.cpp:84] Creating Layer inception_4c/relu_3x3_reduce
I1217 18:15:46.509160 20669 net.cpp:380] inception_4c/relu_3x3_reduce <- inception_4c/3x3_reduce
I1217 18:15:46.509171 20669 net.cpp:327] inception_4c/relu_3x3_reduce -> inception_4c/3x3_reduce (in-place)
I1217 18:15:46.509183 20669 net.cpp:113] Setting up inception_4c/relu_3x3_reduce
I1217 18:15:46.509289 20669 net.cpp:120] Top shape: 50 128 14 14 (1254400)
I1217 18:15:46.509300 20669 layer_factory.hpp:74] Creating layer inception_4c/3x3
I1217 18:15:46.509315 20669 net.cpp:84] Creating Layer inception_4c/3x3
I1217 18:15:46.509325 20669 net.cpp:380] inception_4c/3x3 <- inception_4c/3x3_reduce
I1217 18:15:46.509335 20669 net.cpp:338] inception_4c/3x3 -> inception_4c/3x3
I1217 18:15:46.509349 20669 net.cpp:113] Setting up inception_4c/3x3
I1217 18:15:46.521456 20669 net.cpp:120] Top shape: 50 256 14 14 (2508800)
I1217 18:15:46.521502 20669 layer_factory.hpp:74] Creating layer inception_4c/relu_3x3
I1217 18:15:46.521518 20669 net.cpp:84] Creating Layer inception_4c/relu_3x3
I1217 18:15:46.521528 20669 net.cpp:380] inception_4c/relu_3x3 <- inception_4c/3x3
I1217 18:15:46.521540 20669 net.cpp:327] inception_4c/relu_3x3 -> inception_4c/3x3 (in-place)
I1217 18:15:46.521555 20669 net.cpp:113] Setting up inception_4c/relu_3x3
I1217 18:15:46.521666 20669 net.cpp:120] Top shape: 50 256 14 14 (2508800)
I1217 18:15:46.521677 20669 layer_factory.hpp:74] Creating layer inception_4c/5x5_reduce
I1217 18:15:46.521690 20669 net.cpp:84] Creating Layer inception_4c/5x5_reduce
I1217 18:15:46.521699 20669 net.cpp:380] inception_4c/5x5_reduce <- inception_4b/output_inception_4b/output_0_split_2
I1217 18:15:46.521714 20669 net.cpp:338] inception_4c/5x5_reduce -> inception_4c/5x5_reduce
I1217 18:15:46.521729 20669 net.cpp:113] Setting up inception_4c/5x5_reduce
I1217 18:15:46.522474 20669 net.cpp:120] Top shape: 50 24 14 14 (235200)
I1217 18:15:46.522497 20669 layer_factory.hpp:74] Creating layer inception_4c/relu_5x5_reduce
I1217 18:15:46.522510 20669 net.cpp:84] Creating Layer inception_4c/relu_5x5_reduce
I1217 18:15:46.522518 20669 net.cpp:380] inception_4c/relu_5x5_reduce <- inception_4c/5x5_reduce
I1217 18:15:46.522531 20669 net.cpp:327] inception_4c/relu_5x5_reduce -> inception_4c/5x5_reduce (in-place)
I1217 18:15:46.522543 20669 net.cpp:113] Setting up inception_4c/relu_5x5_reduce
I1217 18:15:46.522869 20669 net.cpp:120] Top shape: 50 24 14 14 (235200)
I1217 18:15:46.522884 20669 layer_factory.hpp:74] Creating layer inception_4c/5x5
I1217 18:15:46.522900 20669 net.cpp:84] Creating Layer inception_4c/5x5
I1217 18:15:46.522910 20669 net.cpp:380] inception_4c/5x5 <- inception_4c/5x5_reduce
I1217 18:15:46.522922 20669 net.cpp:338] inception_4c/5x5 -> inception_4c/5x5
I1217 18:15:46.522939 20669 net.cpp:113] Setting up inception_4c/5x5
I1217 18:15:46.523978 20669 net.cpp:120] Top shape: 50 64 14 14 (627200)
I1217 18:15:46.523999 20669 layer_factory.hpp:74] Creating layer inception_4c/relu_5x5
I1217 18:15:46.524011 20669 net.cpp:84] Creating Layer inception_4c/relu_5x5
I1217 18:15:46.524024 20669 net.cpp:380] inception_4c/relu_5x5 <- inception_4c/5x5
I1217 18:15:46.524034 20669 net.cpp:327] inception_4c/relu_5x5 -> inception_4c/5x5 (in-place)
I1217 18:15:46.524047 20669 net.cpp:113] Setting up inception_4c/relu_5x5
I1217 18:15:46.524152 20669 net.cpp:120] Top shape: 50 64 14 14 (627200)
I1217 18:15:46.524169 20669 layer_factory.hpp:74] Creating layer inception_4c/pool
I1217 18:15:46.524189 20669 layer_factory.cpp:56] CUDNN does not support padding or multiple tops. Using Caffe's own pooling layer.
I1217 18:15:46.524204 20669 net.cpp:84] Creating Layer inception_4c/pool
I1217 18:15:46.524212 20669 net.cpp:380] inception_4c/pool <- inception_4b/output_inception_4b/output_0_split_3
I1217 18:15:46.524224 20669 net.cpp:338] inception_4c/pool -> inception_4c/pool
I1217 18:15:46.524237 20669 net.cpp:113] Setting up inception_4c/pool
I1217 18:15:46.524255 20669 net.cpp:120] Top shape: 50 512 14 14 (5017600)
I1217 18:15:46.524265 20669 layer_factory.hpp:74] Creating layer inception_4c/pool_proj
I1217 18:15:46.524277 20669 net.cpp:84] Creating Layer inception_4c/pool_proj
I1217 18:15:46.524286 20669 net.cpp:380] inception_4c/pool_proj <- inception_4c/pool
I1217 18:15:46.524301 20669 net.cpp:338] inception_4c/pool_proj -> inception_4c/pool_proj
I1217 18:15:46.524313 20669 net.cpp:113] Setting up inception_4c/pool_proj
I1217 18:15:46.525331 20669 net.cpp:120] Top shape: 50 64 14 14 (627200)
I1217 18:15:46.525354 20669 layer_factory.hpp:74] Creating layer inception_4c/relu_pool_proj
I1217 18:15:46.525368 20669 net.cpp:84] Creating Layer inception_4c/relu_pool_proj
I1217 18:15:46.525378 20669 net.cpp:380] inception_4c/relu_pool_proj <- inception_4c/pool_proj
I1217 18:15:46.525389 20669 net.cpp:327] inception_4c/relu_pool_proj -> inception_4c/pool_proj (in-place)
I1217 18:15:46.525403 20669 net.cpp:113] Setting up inception_4c/relu_pool_proj
I1217 18:15:46.525507 20669 net.cpp:120] Top shape: 50 64 14 14 (627200)
I1217 18:15:46.525518 20669 layer_factory.hpp:74] Creating layer inception_4c/output
I1217 18:15:46.525529 20669 net.cpp:84] Creating Layer inception_4c/output
I1217 18:15:46.525538 20669 net.cpp:380] inception_4c/output <- inception_4c/1x1
I1217 18:15:46.525548 20669 net.cpp:380] inception_4c/output <- inception_4c/3x3
I1217 18:15:46.525558 20669 net.cpp:380] inception_4c/output <- inception_4c/5x5
I1217 18:15:46.525568 20669 net.cpp:380] inception_4c/output <- inception_4c/pool_proj
I1217 18:15:46.525578 20669 net.cpp:338] inception_4c/output -> inception_4c/output
I1217 18:15:46.525590 20669 net.cpp:113] Setting up inception_4c/output
I1217 18:15:46.525604 20669 net.cpp:120] Top shape: 50 512 14 14 (5017600)
I1217 18:15:46.525612 20669 layer_factory.hpp:74] Creating layer inception_4c/output_inception_4c/output_0_split
I1217 18:15:46.525624 20669 net.cpp:84] Creating Layer inception_4c/output_inception_4c/output_0_split
I1217 18:15:46.525631 20669 net.cpp:380] inception_4c/output_inception_4c/output_0_split <- inception_4c/output
I1217 18:15:46.525645 20669 net.cpp:338] inception_4c/output_inception_4c/output_0_split -> inception_4c/output_inception_4c/output_0_split_0
I1217 18:15:46.525658 20669 net.cpp:338] inception_4c/output_inception_4c/output_0_split -> inception_4c/output_inception_4c/output_0_split_1
I1217 18:15:46.525671 20669 net.cpp:338] inception_4c/output_inception_4c/output_0_split -> inception_4c/output_inception_4c/output_0_split_2
I1217 18:15:46.525684 20669 net.cpp:338] inception_4c/output_inception_4c/output_0_split -> inception_4c/output_inception_4c/output_0_split_3
I1217 18:15:46.525696 20669 net.cpp:113] Setting up inception_4c/output_inception_4c/output_0_split
I1217 18:15:46.525710 20669 net.cpp:120] Top shape: 50 512 14 14 (5017600)
I1217 18:15:46.525720 20669 net.cpp:120] Top shape: 50 512 14 14 (5017600)
I1217 18:15:46.525730 20669 net.cpp:120] Top shape: 50 512 14 14 (5017600)
I1217 18:15:46.525739 20669 net.cpp:120] Top shape: 50 512 14 14 (5017600)
I1217 18:15:46.525748 20669 layer_factory.hpp:74] Creating layer inception_4d/1x1
I1217 18:15:46.525760 20669 net.cpp:84] Creating Layer inception_4d/1x1
I1217 18:15:46.525768 20669 net.cpp:380] inception_4d/1x1 <- inception_4c/output_inception_4c/output_0_split_0
I1217 18:15:46.525782 20669 net.cpp:338] inception_4d/1x1 -> inception_4d/1x1
I1217 18:15:46.525796 20669 net.cpp:113] Setting up inception_4d/1x1
I1217 18:15:46.527088 20669 net.cpp:120] Top shape: 50 112 14 14 (1097600)
I1217 18:15:46.527122 20669 layer_factory.hpp:74] Creating layer inception_4d/relu_1x1
I1217 18:15:46.527135 20669 net.cpp:84] Creating Layer inception_4d/relu_1x1
I1217 18:15:46.527144 20669 net.cpp:380] inception_4d/relu_1x1 <- inception_4d/1x1
I1217 18:15:46.527156 20669 net.cpp:327] inception_4d/relu_1x1 -> inception_4d/1x1 (in-place)
I1217 18:15:46.527168 20669 net.cpp:113] Setting up inception_4d/relu_1x1
I1217 18:15:46.527271 20669 net.cpp:120] Top shape: 50 112 14 14 (1097600)
I1217 18:15:46.527282 20669 layer_factory.hpp:74] Creating layer inception_4d/3x3_reduce
I1217 18:15:46.527295 20669 net.cpp:84] Creating Layer inception_4d/3x3_reduce
I1217 18:15:46.527304 20669 net.cpp:380] inception_4d/3x3_reduce <- inception_4c/output_inception_4c/output_0_split_1
I1217 18:15:46.527319 20669 net.cpp:338] inception_4d/3x3_reduce -> inception_4d/3x3_reduce
I1217 18:15:46.527333 20669 net.cpp:113] Setting up inception_4d/3x3_reduce
I1217 18:15:46.528818 20669 net.cpp:120] Top shape: 50 144 14 14 (1411200)
I1217 18:15:46.528841 20669 layer_factory.hpp:74] Creating layer inception_4d/relu_3x3_reduce
I1217 18:15:46.528852 20669 net.cpp:84] Creating Layer inception_4d/relu_3x3_reduce
I1217 18:15:46.528861 20669 net.cpp:380] inception_4d/relu_3x3_reduce <- inception_4d/3x3_reduce
I1217 18:15:46.528873 20669 net.cpp:327] inception_4d/relu_3x3_reduce -> inception_4d/3x3_reduce (in-place)
I1217 18:15:46.528887 20669 net.cpp:113] Setting up inception_4d/relu_3x3_reduce
I1217 18:15:46.529218 20669 net.cpp:120] Top shape: 50 144 14 14 (1411200)
I1217 18:15:46.529235 20669 layer_factory.hpp:74] Creating layer inception_4d/3x3
I1217 18:15:46.529249 20669 net.cpp:84] Creating Layer inception_4d/3x3
I1217 18:15:46.529258 20669 net.cpp:380] inception_4d/3x3 <- inception_4d/3x3_reduce
I1217 18:15:46.529275 20669 net.cpp:338] inception_4d/3x3 -> inception_4d/3x3
I1217 18:15:46.529290 20669 net.cpp:113] Setting up inception_4d/3x3
I1217 18:15:46.534505 20669 net.cpp:120] Top shape: 50 288 14 14 (2822400)
I1217 18:15:46.534528 20669 layer_factory.hpp:74] Creating layer inception_4d/relu_3x3
I1217 18:15:46.534539 20669 net.cpp:84] Creating Layer inception_4d/relu_3x3
I1217 18:15:46.534549 20669 net.cpp:380] inception_4d/relu_3x3 <- inception_4d/3x3
I1217 18:15:46.534562 20669 net.cpp:327] inception_4d/relu_3x3 -> inception_4d/3x3 (in-place)
I1217 18:15:46.534575 20669 net.cpp:113] Setting up inception_4d/relu_3x3
I1217 18:15:46.534677 20669 net.cpp:120] Top shape: 50 288 14 14 (2822400)
I1217 18:15:46.534688 20669 layer_factory.hpp:74] Creating layer inception_4d/5x5_reduce
I1217 18:15:46.534703 20669 net.cpp:84] Creating Layer inception_4d/5x5_reduce
I1217 18:15:46.534713 20669 net.cpp:380] inception_4d/5x5_reduce <- inception_4c/output_inception_4c/output_0_split_2
I1217 18:15:46.534725 20669 net.cpp:338] inception_4d/5x5_reduce -> inception_4d/5x5_reduce
I1217 18:15:46.534739 20669 net.cpp:113] Setting up inception_4d/5x5_reduce
I1217 18:15:46.535572 20669 net.cpp:120] Top shape: 50 32 14 14 (313600)
I1217 18:15:46.535594 20669 layer_factory.hpp:74] Creating layer inception_4d/relu_5x5_reduce
I1217 18:15:46.535608 20669 net.cpp:84] Creating Layer inception_4d/relu_5x5_reduce
I1217 18:15:46.535616 20669 net.cpp:380] inception_4d/relu_5x5_reduce <- inception_4d/5x5_reduce
I1217 18:15:46.535630 20669 net.cpp:327] inception_4d/relu_5x5_reduce -> inception_4d/5x5_reduce (in-place)
I1217 18:15:46.535643 20669 net.cpp:113] Setting up inception_4d/relu_5x5_reduce
I1217 18:15:46.535748 20669 net.cpp:120] Top shape: 50 32 14 14 (313600)
I1217 18:15:46.535758 20669 layer_factory.hpp:74] Creating layer inception_4d/5x5
I1217 18:15:46.535773 20669 net.cpp:84] Creating Layer inception_4d/5x5
I1217 18:15:46.535783 20669 net.cpp:380] inception_4d/5x5 <- inception_4d/5x5_reduce
I1217 18:15:46.535797 20669 net.cpp:338] inception_4d/5x5 -> inception_4d/5x5
I1217 18:15:46.535811 20669 net.cpp:113] Setting up inception_4d/5x5
I1217 18:15:46.537338 20669 net.cpp:120] Top shape: 50 64 14 14 (627200)
I1217 18:15:46.537366 20669 layer_factory.hpp:74] Creating layer inception_4d/relu_5x5
I1217 18:15:46.537389 20669 net.cpp:84] Creating Layer inception_4d/relu_5x5
I1217 18:15:46.537399 20669 net.cpp:380] inception_4d/relu_5x5 <- inception_4d/5x5
I1217 18:15:46.537413 20669 net.cpp:327] inception_4d/relu_5x5 -> inception_4d/5x5 (in-place)
I1217 18:15:46.537427 20669 net.cpp:113] Setting up inception_4d/relu_5x5
I1217 18:15:46.537531 20669 net.cpp:120] Top shape: 50 64 14 14 (627200)
I1217 18:15:46.537542 20669 layer_factory.hpp:74] Creating layer inception_4d/pool
I1217 18:15:46.537551 20669 layer_factory.cpp:56] CUDNN does not support padding or multiple tops. Using Caffe's own pooling layer.
I1217 18:15:46.537564 20669 net.cpp:84] Creating Layer inception_4d/pool
I1217 18:15:46.537574 20669 net.cpp:380] inception_4d/pool <- inception_4c/output_inception_4c/output_0_split_3
I1217 18:15:46.537585 20669 net.cpp:338] inception_4d/pool -> inception_4d/pool
I1217 18:15:46.537597 20669 net.cpp:113] Setting up inception_4d/pool
I1217 18:15:46.537614 20669 net.cpp:120] Top shape: 50 512 14 14 (5017600)
I1217 18:15:46.537623 20669 layer_factory.hpp:74] Creating layer inception_4d/pool_proj
I1217 18:15:46.537636 20669 net.cpp:84] Creating Layer inception_4d/pool_proj
I1217 18:15:46.537645 20669 net.cpp:380] inception_4d/pool_proj <- inception_4d/pool
I1217 18:15:46.537657 20669 net.cpp:338] inception_4d/pool_proj -> inception_4d/pool_proj
I1217 18:15:46.537669 20669 net.cpp:113] Setting up inception_4d/pool_proj
I1217 18:15:46.540015 20669 net.cpp:120] Top shape: 50 64 14 14 (627200)
I1217 18:15:46.540040 20669 layer_factory.hpp:74] Creating layer inception_4d/relu_pool_proj
I1217 18:15:46.540055 20669 net.cpp:84] Creating Layer inception_4d/relu_pool_proj
I1217 18:15:46.540063 20669 net.cpp:380] inception_4d/relu_pool_proj <- inception_4d/pool_proj
I1217 18:15:46.540076 20669 net.cpp:327] inception_4d/relu_pool_proj -> inception_4d/pool_proj (in-place)
I1217 18:15:46.540088 20669 net.cpp:113] Setting up inception_4d/relu_pool_proj
I1217 18:15:46.540410 20669 net.cpp:120] Top shape: 50 64 14 14 (627200)
I1217 18:15:46.540426 20669 layer_factory.hpp:74] Creating layer inception_4d/output
I1217 18:15:46.540437 20669 net.cpp:84] Creating Layer inception_4d/output
I1217 18:15:46.540446 20669 net.cpp:380] inception_4d/output <- inception_4d/1x1
I1217 18:15:46.540457 20669 net.cpp:380] inception_4d/output <- inception_4d/3x3
I1217 18:15:46.540467 20669 net.cpp:380] inception_4d/output <- inception_4d/5x5
I1217 18:15:46.540477 20669 net.cpp:380] inception_4d/output <- inception_4d/pool_proj
I1217 18:15:46.540488 20669 net.cpp:338] inception_4d/output -> inception_4d/output
I1217 18:15:46.540500 20669 net.cpp:113] Setting up inception_4d/output
I1217 18:15:46.540513 20669 net.cpp:120] Top shape: 50 528 14 14 (5174400)
I1217 18:15:46.540523 20669 layer_factory.hpp:74] Creating layer inception_4d/output_inception_4d/output_0_split
I1217 18:15:46.540535 20669 net.cpp:84] Creating Layer inception_4d/output_inception_4d/output_0_split
I1217 18:15:46.540544 20669 net.cpp:380] inception_4d/output_inception_4d/output_0_split <- inception_4d/output
I1217 18:15:46.540555 20669 net.cpp:338] inception_4d/output_inception_4d/output_0_split -> inception_4d/output_inception_4d/output_0_split_0
I1217 18:15:46.540568 20669 net.cpp:338] inception_4d/output_inception_4d/output_0_split -> inception_4d/output_inception_4d/output_0_split_1
I1217 18:15:46.540585 20669 net.cpp:338] inception_4d/output_inception_4d/output_0_split -> inception_4d/output_inception_4d/output_0_split_2
I1217 18:15:46.540597 20669 net.cpp:338] inception_4d/output_inception_4d/output_0_split -> inception_4d/output_inception_4d/output_0_split_3
I1217 18:15:46.540611 20669 net.cpp:338] inception_4d/output_inception_4d/output_0_split -> inception_4d/output_inception_4d/output_0_split_4
I1217 18:15:46.540622 20669 net.cpp:113] Setting up inception_4d/output_inception_4d/output_0_split
I1217 18:15:46.540637 20669 net.cpp:120] Top shape: 50 528 14 14 (5174400)
I1217 18:15:46.540653 20669 net.cpp:120] Top shape: 50 528 14 14 (5174400)
I1217 18:15:46.540671 20669 net.cpp:120] Top shape: 50 528 14 14 (5174400)
I1217 18:15:46.540681 20669 net.cpp:120] Top shape: 50 528 14 14 (5174400)
I1217 18:15:46.540690 20669 net.cpp:120] Top shape: 50 528 14 14 (5174400)
I1217 18:15:46.540699 20669 layer_factory.hpp:74] Creating layer loss2/ave_pool
I1217 18:15:46.540710 20669 net.cpp:84] Creating Layer loss2/ave_pool
I1217 18:15:46.540719 20669 net.cpp:380] loss2/ave_pool <- inception_4d/output_inception_4d/output_0_split_0
I1217 18:15:46.540732 20669 net.cpp:338] loss2/ave_pool -> loss2/ave_pool
I1217 18:15:46.540745 20669 net.cpp:113] Setting up loss2/ave_pool
I1217 18:15:46.540855 20669 net.cpp:120] Top shape: 50 528 4 4 (422400)
I1217 18:15:46.540868 20669 layer_factory.hpp:74] Creating layer loss2/conv
I1217 18:15:46.540882 20669 net.cpp:84] Creating Layer loss2/conv
I1217 18:15:46.540891 20669 net.cpp:380] loss2/conv <- loss2/ave_pool
I1217 18:15:46.540904 20669 net.cpp:338] loss2/conv -> loss2/conv
I1217 18:15:46.540917 20669 net.cpp:113] Setting up loss2/conv
I1217 18:15:46.542348 20669 net.cpp:120] Top shape: 50 128 4 4 (102400)
I1217 18:15:46.542373 20669 layer_factory.hpp:74] Creating layer loss2/relu_conv
I1217 18:15:46.542384 20669 net.cpp:84] Creating Layer loss2/relu_conv
I1217 18:15:46.542394 20669 net.cpp:380] loss2/relu_conv <- loss2/conv
I1217 18:15:46.542405 20669 net.cpp:327] loss2/relu_conv -> loss2/conv (in-place)
I1217 18:15:46.542418 20669 net.cpp:113] Setting up loss2/relu_conv
I1217 18:15:46.542521 20669 net.cpp:120] Top shape: 50 128 4 4 (102400)
I1217 18:15:46.542532 20669 layer_factory.hpp:74] Creating layer loss2/fc
I1217 18:15:46.542547 20669 net.cpp:84] Creating Layer loss2/fc
I1217 18:15:46.542556 20669 net.cpp:380] loss2/fc <- loss2/conv
I1217 18:15:46.542569 20669 net.cpp:338] loss2/fc -> loss2/fc
I1217 18:15:46.542584 20669 net.cpp:113] Setting up loss2/fc
I1217 18:15:46.567556 20669 net.cpp:120] Top shape: 50 1024 (51200)
I1217 18:15:46.567596 20669 layer_factory.hpp:74] Creating layer loss2/relu_fc
I1217 18:15:46.567610 20669 net.cpp:84] Creating Layer loss2/relu_fc
I1217 18:15:46.567617 20669 net.cpp:380] loss2/relu_fc <- loss2/fc
I1217 18:15:46.567625 20669 net.cpp:327] loss2/relu_fc -> loss2/fc (in-place)
I1217 18:15:46.567636 20669 net.cpp:113] Setting up loss2/relu_fc
I1217 18:15:46.567760 20669 net.cpp:120] Top shape: 50 1024 (51200)
I1217 18:15:46.567767 20669 layer_factory.hpp:74] Creating layer loss2/drop_fc
I1217 18:15:46.567780 20669 net.cpp:84] Creating Layer loss2/drop_fc
I1217 18:15:46.567785 20669 net.cpp:380] loss2/drop_fc <- loss2/fc
I1217 18:15:46.567790 20669 net.cpp:327] loss2/drop_fc -> loss2/fc (in-place)
I1217 18:15:46.567798 20669 net.cpp:113] Setting up loss2/drop_fc
I1217 18:15:46.567807 20669 net.cpp:120] Top shape: 50 1024 (51200)
I1217 18:15:46.567812 20669 layer_factory.hpp:74] Creating layer loss2/classifier_kaggle
I1217 18:15:46.567821 20669 net.cpp:84] Creating Layer loss2/classifier_kaggle
I1217 18:15:46.567826 20669 net.cpp:380] loss2/classifier_kaggle <- loss2/fc
I1217 18:15:46.567832 20669 net.cpp:338] loss2/classifier_kaggle -> loss2/classifier_kaggle
I1217 18:15:46.567842 20669 net.cpp:113] Setting up loss2/classifier_kaggle
I1217 18:15:46.572721 20669 net.cpp:120] Top shape: 50 447 (22350)
I1217 18:15:46.572733 20669 layer_factory.hpp:74] Creating layer loss2/classifier_kaggle_loss2/classifier_kaggle_0_split
I1217 18:15:46.572741 20669 net.cpp:84] Creating Layer loss2/classifier_kaggle_loss2/classifier_kaggle_0_split
I1217 18:15:46.572747 20669 net.cpp:380] loss2/classifier_kaggle_loss2/classifier_kaggle_0_split <- loss2/classifier_kaggle
I1217 18:15:46.572754 20669 net.cpp:338] loss2/classifier_kaggle_loss2/classifier_kaggle_0_split -> loss2/classifier_kaggle_loss2/classifier_kaggle_0_split_0
I1217 18:15:46.572762 20669 net.cpp:338] loss2/classifier_kaggle_loss2/classifier_kaggle_0_split -> loss2/classifier_kaggle_loss2/classifier_kaggle_0_split_1
I1217 18:15:46.572772 20669 net.cpp:338] loss2/classifier_kaggle_loss2/classifier_kaggle_0_split -> loss2/classifier_kaggle_loss2/classifier_kaggle_0_split_2
I1217 18:15:46.572804 20669 net.cpp:113] Setting up loss2/classifier_kaggle_loss2/classifier_kaggle_0_split
I1217 18:15:46.572813 20669 net.cpp:120] Top shape: 50 447 (22350)
I1217 18:15:46.572818 20669 net.cpp:120] Top shape: 50 447 (22350)
I1217 18:15:46.572821 20669 net.cpp:120] Top shape: 50 447 (22350)
I1217 18:15:46.572826 20669 layer_factory.hpp:74] Creating layer loss2/loss
I1217 18:15:46.572834 20669 net.cpp:84] Creating Layer loss2/loss
I1217 18:15:46.572839 20669 net.cpp:380] loss2/loss <- loss2/classifier_kaggle_loss2/classifier_kaggle_0_split_0
I1217 18:15:46.572846 20669 net.cpp:380] loss2/loss <- label_data_1_split_3
I1217 18:15:46.572856 20669 net.cpp:338] loss2/loss -> loss2/loss1
…
I1217 18:15:46.574709 20669 net.cpp:338] loss2/top-5 -> loss2/top-5
I1217 18:15:46.574717 20669 net.cpp:113] Setting up loss2/top-5
I1217 18:15:46.574723 20669 net.cpp:120] Top shape: (1)
I1217 18:15:46.574726 20669 layer_factory.hpp:74] Creating layer inception_4e/1x1
I1217 18:15:46.574735 20669 net.cpp:84] Creating Layer inception_4e/1x1
I1217 18:15:46.574740 20669 net.cpp:380] inception_4e/1x1 <- inception_4d/output_inception_4d/output_0_split_1
I1217 18:15:46.574749 20669 net.cpp:338] inception_4e/1x1 -> inception_4e/1x1
I1217 18:15:46.574756 20669 net.cpp:113] Setting up inception_4e/1x1
I1217 18:15:46.576632 20669 net.cpp:120] Top shape: 50 256 14 14 (2508800)
I1217 18:15:46.576647 20669 layer_factory.hpp:74] Creating layer inception_4e/relu_1x1
I1217 18:15:46.576654 20669 net.cpp:84] Creating Layer inception_4e/relu_1x1
I1217 18:15:46.576660 20669 net.cpp:380] inception_4e/relu_1x1 <- inception_4e/1x1
I1217 18:15:46.576669 20669 net.cpp:327] inception_4e/relu_1x1 -> inception_4e/1x1 (in-place)
I1217 18:15:46.576676 20669 net.cpp:113] Setting up inception_4e/relu_1x1
I1217 18:15:46.576746 20669 net.cpp:120] Top shape: 50 256 14 14 (2508800)
I1217 18:15:46.576752 20669 layer_factory.hpp:74] Creating layer inception_4e/3x3_reduce
I1217 18:15:46.576784 20669 net.cpp:84] Creating Layer inception_4e/3x3_reduce
I1217 18:15:46.576789 20669 net.cpp:380] inception_4e/3x3_reduce <- inception_4d/output_inception_4d/output_0_split_2
I1217 18:15:46.576797 20669 net.cpp:338] inception_4e/3x3_reduce -> inception_4e/3x3_reduce
I1217 18:15:46.576805 20669 net.cpp:113] Setting up inception_4e/3x3_reduce
I1217 18:15:46.581192 20669 net.cpp:120] Top shape: 50 160 14 14 (1568000)
I1217 18:15:46.581218 20669 layer_factory.hpp:74] Creating layer inception_4e/relu_3x3_reduce
I1217 18:15:46.581230 20669 net.cpp:84] Creating Layer inception_4e/relu_3x3_reduce
I1217 18:15:46.581238 20669 net.cpp:380] inception_4e/relu_3x3_reduce <- inception_4e/3x3_reduce
I1217 18:15:46.581248 20669 net.cpp:327] inception_4e/relu_3x3_reduce -> inception_4e/3x3_reduce (in-place)
I1217 18:15:46.581259 20669 net.cpp:113] Setting up inception_4e/relu_3x3_reduce
I1217 18:15:46.581362 20669 net.cpp:120] Top shape: 50 160 14 14 (1568000)
I1217 18:15:46.581387 20669 layer_factory.hpp:74] Creating layer inception_4e/3x3
I1217 18:15:46.581401 20669 net.cpp:84] Creating Layer inception_4e/3x3
I1217 18:15:46.581408 20669 net.cpp:380] inception_4e/3x3 <- inception_4e/3x3_reduce
I1217 18:15:46.581419 20669 net.cpp:338] inception_4e/3x3 -> inception_4e/3x3
I1217 18:15:46.581430 20669 net.cpp:113] Setting up inception_4e/3x3
I1217 18:15:46.587028 20669 net.cpp:120] Top shape: 50 320 14 14 (3136000)
I1217 18:15:46.587051 20669 layer_factory.hpp:74] Creating layer inception_4e/relu_3x3
I1217 18:15:46.587064 20669 net.cpp:84] Creating Layer inception_4e/relu_3x3
I1217 18:15:46.587072 20669 net.cpp:380] inception_4e/relu_3x3 <- inception_4e/3x3
I1217 18:15:46.587082 20669 net.cpp:327] inception_4e/relu_3x3 -> inception_4e/3x3 (in-place)
I1217 18:15:46.587093 20669 net.cpp:113] Setting up inception_4e/relu_3x3
I1217 18:15:46.587405 20669 net.cpp:120] Top shape: 50 320 14 14 (3136000)
I1217 18:15:46.587421 20669 layer_factory.hpp:74] Creating layer inception_4e/5x5_reduce
I1217 18:15:46.587434 20669 net.cpp:84] Creating Layer inception_4e/5x5_reduce
I1217 18:15:46.587442 20669 net.cpp:380] inception_4e/5x5_reduce <- inception_4d/output_inception_4d/output_0_split_3
I1217 18:15:46.587455 20669 net.cpp:338] inception_4e/5x5_reduce -> inception_4e/5x5_reduce
I1217 18:15:46.587466 20669 net.cpp:113] Setting up inception_4e/5x5_reduce
I1217 18:15:46.588369 20669 net.cpp:120] Top shape: 50 32 14 14 (313600)
I1217 18:15:46.588390 20669 layer_factory.hpp:74] Creating layer inception_4e/relu_5x5_reduce
I1217 18:15:46.588402 20669 net.cpp:84] Creating Layer inception_4e/relu_5x5_reduce
I1217 18:15:46.588412 20669 net.cpp:380] inception_4e/relu_5x5_reduce <- inception_4e/5x5_reduce
I1217 18:15:46.588423 20669 net.cpp:327] inception_4e/relu_5x5_reduce -> inception_4e/5x5_reduce (in-place)
I1217 18:15:46.588434 20669 net.cpp:113] Setting up inception_4e/relu_5x5_reduce
I1217 18:15:46.588541 20669 net.cpp:120] Top shape: 50 32 14 14 (313600)
I1217 18:15:46.588552 20669 layer_factory.hpp:74] Creating layer inception_4e/5x5
I1217 18:15:46.588568 20669 net.cpp:84] Creating Layer inception_4e/5x5
I1217 18:15:46.588577 20669 net.cpp:380] inception_4e/5x5 <- inception_4e/5x5_reduce
I1217 18:15:46.588588 20669 net.cpp:338] inception_4e/5x5 -> inception_4e/5x5
I1217 18:15:46.588598 20669 net.cpp:113] Setting up inception_4e/5x5
I1217 18:15:46.590785 20669 net.cpp:120] Top shape: 50 128 14 14 (1254400)
I1217 18:15:46.590804 20669 layer_factory.hpp:74] Creating layer inception_4e/relu_5x5
I1217 18:15:46.590814 20669 net.cpp:84] Creating Layer inception_4e/relu_5x5
I1217 18:15:46.590821 20669 net.cpp:380] inception_4e/relu_5x5 <- inception_4e/5x5
I1217 18:15:46.590826 20669 net.cpp:327] inception_4e/relu_5x5 -> inception_4e/5x5 (in-place)
I1217 18:15:46.590834 20669 net.cpp:113] Setting up inception_4e/relu_5x5
I1217 18:15:46.590908 20669 net.cpp:120] Top shape: 50 128 14 14 (1254400)
I1217 18:15:46.590914 20669 layer_factory.hpp:74] Creating layer inception_4e/pool
I1217 18:15:46.590920 20669 layer_factory.cpp:56] CUDNN does not support padding or multiple tops. Using Caffe's own pooling layer.
I1217 18:15:46.590927 20669 net.cpp:84] Creating Layer inception_4e/pool
I1217 18:15:46.590932 20669 net.cpp:380] inception_4e/pool <- inception_4d/output_inception_4d/output_0_split_4
I1217 18:15:46.590939 20669 net.cpp:338] inception_4e/pool -> inception_4e/pool
I1217 18:15:46.590948 20669 net.cpp:113] Setting up inception_4e/pool
I1217 18:15:46.590957 20669 net.cpp:120] Top shape: 50 528 14 14 (5174400)
I1217 18:15:46.590962 20669 layer_factory.hpp:74] Creating layer inception_4e/pool_proj
I1217 18:15:46.590970 20669 net.cpp:84] Creating Layer inception_4e/pool_proj
I1217 18:15:46.590975 20669 net.cpp:380] inception_4e/pool_proj <- inception_4e/pool
I1217 18:15:46.590983 20669 net.cpp:338] inception_4e/pool_proj -> inception_4e/pool_proj
I1217 18:15:46.590991 20669 net.cpp:113] Setting up inception_4e/pool_proj
I1217 18:15:46.592136 20669 net.cpp:120] Top shape: 50 128 14 14 (1254400)
I1217 18:15:46.592159 20669 layer_factory.hpp:74] Creating layer inception_4e/relu_pool_proj
I1217 18:15:46.592172 20669 net.cpp:84] Creating Layer inception_4e/relu_pool_proj
I1217 18:15:46.592178 20669 net.cpp:380] inception_4e/relu_pool_proj <- inception_4e/pool_proj
I1217 18:15:46.592185 20669 net.cpp:327] inception_4e/relu_pool_proj -> inception_4e/pool_proj (in-place)
I1217 18:15:46.592192 20669 net.cpp:113] Setting up inception_4e/relu_pool_proj
I1217 18:15:46.592263 20669 net.cpp:120] Top shape: 50 128 14 14 (1254400)
I1217 18:15:46.592269 20669 layer_factory.hpp:74] Creating layer inception_4e/output
I1217 18:15:46.592277 20669 net.cpp:84] Creating Layer inception_4e/output
I1217 18:15:46.592281 20669 net.cpp:380] inception_4e/output <- inception_4e/1x1
I1217 18:15:46.592286 20669 net.cpp:380] inception_4e/output <- inception_4e/3x3
I1217 18:15:46.592293 20669 net.cpp:380] inception_4e/output <- inception_4e/5x5
I1217 18:15:46.592298 20669 net.cpp:380] inception_4e/output <- inception_4e/pool_proj
I1217 18:15:46.592303 20669 net.cpp:338] inception_4e/output -> inception_4e/output
I1217 18:15:46.592310 20669 net.cpp:113] Setting up inception_4e/output
I1217 18:15:46.592319 20669 net.cpp:120] Top shape: 50 832 14 14 (8153600)
I1217 18:15:46.592322 20669 layer_factory.hpp:74] Creating layer pool4/3x3_s2
I1217 18:15:46.592330 20669 net.cpp:84] Creating Layer pool4/3x3_s2
I1217 18:15:46.592335 20669 net.cpp:380] pool4/3x3_s2 <- inception_4e/output
I1217 18:15:46.592341 20669 net.cpp:338] pool4/3x3_s2 -> pool4/3x3_s2
I1217 18:15:46.592349 20669 net.cpp:113] Setting up pool4/3x3_s2
I1217 18:15:46.592608 20669 net.cpp:120] Top shape: 50 832 7 7 (2038400)
I1217 18:15:46.592620 20669 layer_factory.hpp:74] Creating layer pool4/3x3_s2_pool4/3x3_s2_0_split
I1217 18:15:46.592628 20669 net.cpp:84] Creating Layer pool4/3x3_s2_pool4/3x3_s2_0_split
I1217 18:15:46.592633 20669 net.cpp:380] pool4/3x3_s2_pool4/3x3_s2_0_split <- pool4/3x3_s2
I1217 18:15:46.592641 20669 net.cpp:338] pool4/3x3_s2_pool4/3x3_s2_0_split -> pool4/3x3_s2_pool4/3x3_s2_0_split_0
I1217 18:15:46.592650 20669 net.cpp:338] pool4/3x3_s2_pool4/3x3_s2_0_split -> pool4/3x3_s2_pool4/3x3_s2_0_split_1
I1217 18:15:46.592658 20669 net.cpp:338] pool4/3x3_s2_pool4/3x3_s2_0_split -> pool4/3x3_s2_pool4/3x3_s2_0_split_2
I1217 18:15:46.592680 20669 net.cpp:338] pool4/3x3_s2_pool4/3x3_s2_0_split -> pool4/3x3_s2_pool4/3x3_s2_0_split_3
I1217 18:15:46.592687 20669 net.cpp:113] Setting up pool4/3x3_s2_pool4/3x3_s2_0_split
I1217 18:15:46.592695 20669 net.cpp:120] Top shape: 50 832 7 7 (2038400)
I1217 18:15:46.592700 20669 net.cpp:120] Top shape: 50 832 7 7 (2038400)
I1217 18:15:46.592705 20669 net.cpp:120] Top shape: 50 832 7 7 (2038400)
I1217 18:15:46.592710 20669 net.cpp:120] Top shape: 50 832 7 7 (2038400)
I1217 18:15:46.592715 20669 layer_factory.hpp:74] Creating layer inception_5a/1x1
I1217 18:15:46.592725 20669 net.cpp:84] Creating Layer inception_5a/1x1
I1217 18:15:46.592730 20669 net.cpp:380] inception_5a/1x1 <- pool4/3x3_s2_pool4/3x3_s2_0_split_0
I1217 18:15:46.592736 20669 net.cpp:338] inception_5a/1x1 -> inception_5a/1x1
I1217 18:15:46.592743 20669 net.cpp:113] Setting up inception_5a/1x1
I1217 18:15:46.595566 20669 net.cpp:120] Top shape: 50 256 7 7 (627200)
I1217 18:15:46.595588 20669 layer_factory.hpp:74] Creating layer inception_5a/relu_1x1
I1217 18:15:46.595600 20669 net.cpp:84] Creating Layer inception_5a/relu_1x1
I1217 18:15:46.595608 20669 net.cpp:380] inception_5a/relu_1x1 <- inception_5a/1x1
I1217 18:15:46.595620 20669 net.cpp:327] inception_5a/relu_1x1 -> inception_5a/1x1 (in-place)
I1217 18:15:46.595631 20669 net.cpp:113] Setting up inception_5a/relu_1x1
I1217 18:15:46.595729 20669 net.cpp:120] Top shape: 50 256 7 7 (627200)
I1217 18:15:46.595739 20669 layer_factory.hpp:74] Creating layer inception_5a/3x3_reduce
I1217 18:15:46.595757 20669 net.cpp:84] Creating Layer inception_5a/3x3_reduce
I1217 18:15:46.595765 20669 net.cpp:380] inception_5a/3x3_reduce <- pool4/3x3_s2_pool4/3x3_s2_0_split_1
I1217 18:15:46.595777 20669 net.cpp:338] inception_5a/3x3_reduce -> inception_5a/3x3_reduce
I1217 18:15:46.595803 20669 net.cpp:113] Setting up inception_5a/3x3_reduce
I1217 18:15:46.597836 20669 net.cpp:120] Top shape: 50 160 7 7 (392000)
I1217 18:15:46.597854 20669 layer_factory.hpp:74] Creating layer inception_5a/relu_3x3_reduce
I1217 18:15:46.597862 20669 net.cpp:84] Creating Layer inception_5a/relu_3x3_reduce
I1217 18:15:46.597867 20669 net.cpp:380] inception_5a/relu_3x3_reduce <- inception_5a/3x3_reduce
I1217 18:15:46.597874 20669 net.cpp:327] inception_5a/relu_3x3_reduce -> inception_5a/3x3_reduce (in-place)
I1217 18:15:46.597882 20669 net.cpp:113] Setting up inception_5a/relu_3x3_reduce
I1217 18:15:46.597952 20669 net.cpp:120] Top shape: 50 160 7 7 (392000)
I1217 18:15:46.597959 20669 layer_factory.hpp:74] Creating layer inception_5a/3x3
I1217 18:15:46.597968 20669 net.cpp:84] Creating Layer inception_5a/3x3
I1217 18:15:46.597973 20669 net.cpp:380] inception_5a/3x3 <- inception_5a/3x3_reduce
I1217 18:15:46.597980 20669 net.cpp:338] inception_5a/3x3 -> inception_5a/3x3
I1217 18:15:46.597987 20669 net.cpp:113] Setting up inception_5a/3x3
I1217 18:15:46.603581 20669 net.cpp:120] Top shape: 50 320 7 7 (784000)
I1217 18:15:46.603600 20669 layer_factory.hpp:74] Creating layer inception_5a/relu_3x3
I1217 18:15:46.603608 20669 net.cpp:84] Creating Layer inception_5a/relu_3x3
I1217 18:15:46.603615 20669 net.cpp:380] inception_5a/relu_3x3 <- inception_5a/3x3
I1217 18:15:46.603621 20669 net.cpp:327] inception_5a/relu_3x3 -> inception_5a/3x3 (in-place)
I1217 18:15:46.603629 20669 net.cpp:113] Setting up inception_5a/relu_3x3
I1217 18:15:46.603698 20669 net.cpp:120] Top shape: 50 320 7 7 (784000)
I1217 18:15:46.603704 20669 layer_factory.hpp:74] Creating layer inception_5a/5x5_reduce
I1217 18:15:46.603713 20669 net.cpp:84] Creating Layer inception_5a/5x5_reduce
I1217 18:15:46.603718 20669 net.cpp:380] inception_5a/5x5_reduce <- pool4/3x3_s2_pool4/3x3_s2_0_split_2
I1217 18:15:46.603726 20669 net.cpp:338] inception_5a/5x5_reduce -> inception_5a/5x5_reduce
I1217 18:15:46.603734 20669 net.cpp:113] Setting up inception_5a/5x5_reduce
I1217 18:15:46.604437 20669 net.cpp:120] Top shape: 50 32 7 7 (78400)
I1217 18:15:46.604451 20669 layer_factory.hpp:74] Creating layer inception_5a/relu_5x5_reduce
I1217 18:15:46.604459 20669 net.cpp:84] Creating Layer inception_5a/relu_5x5_reduce
I1217 18:15:46.604468 20669 net.cpp:380] inception_5a/relu_5x5_reduce <- inception_5a/5x5_reduce
I1217 18:15:46.604475 20669 net.cpp:327] inception_5a/relu_5x5_reduce -> inception_5a/5x5_reduce (in-place)
I1217 18:15:46.604482 20669 net.cpp:113] Setting up inception_5a/relu_5x5_reduce
I1217 18:15:46.604734 20669 net.cpp:120] Top shape: 50 32 7 7 (78400)
I1217 18:15:46.604744 20669 layer_factory.hpp:74] Creating layer inception_5a/5x5
I1217 18:15:46.604753 20669 net.cpp:84] Creating Layer inception_5a/5x5
I1217 18:15:46.604758 20669 net.cpp:380] inception_5a/5x5 <- inception_5a/5x5_reduce
I1217 18:15:46.604768 20669 net.cpp:338] inception_5a/5x5 -> inception_5a/5x5
I1217 18:15:46.604776 20669 net.cpp:113] Setting up inception_5a/5x5
I1217 18:15:46.606287 20669 net.cpp:120] Top shape: 50 128 7 7 (313600)
I1217 18:15:46.606302 20669 layer_factory.hpp:74] Creating layer inception_5a/relu_5x5
I1217 18:15:46.606309 20669 net.cpp:84] Creating Layer inception_5a/relu_5x5
I1217 18:15:46.606314 20669 net.cpp:380] inception_5a/relu_5x5 <- inception_5a/5x5
I1217 18:15:46.606320 20669 net.cpp:327] inception_5a/relu_5x5 -> inception_5a/5x5 (in-place)
I1217 18:15:46.606328 20669 net.cpp:113] Setting up inception_5a/relu_5x5
I1217 18:15:46.606400 20669 net.cpp:120] Top shape: 50 128 7 7 (313600)
I1217 18:15:46.606405 20669 layer_factory.hpp:74] Creating layer inception_5a/pool
I1217 18:15:46.606411 20669 layer_factory.cpp:56] CUDNN does not support padding or multiple tops. Using Caffe's own pooling layer.
I1217 18:15:46.606417 20669 net.cpp:84] Creating Layer inception_5a/pool
I1217 18:15:46.606422 20669 net.cpp:380] inception_5a/pool <- pool4/3x3_s2_pool4/3x3_s2_0_split_3
I1217 18:15:46.606431 20669 net.cpp:338] inception_5a/pool -> inception_5a/pool
I1217 18:15:46.606446 20669 net.cpp:113] Setting up inception_5a/pool
I1217 18:15:46.606463 20669 net.cpp:120] Top shape: 50 832 7 7 (2038400)
I1217 18:15:46.606468 20669 layer_factory.hpp:74] Creating layer inception_5a/pool_proj
I1217 18:15:46.606477 20669 net.cpp:84] Creating Layer inception_5a/pool_proj
I1217 18:15:46.606480 20669 net.cpp:380] inception_5a/pool_proj <- inception_5a/pool
I1217 18:15:46.606492 20669 net.cpp:338] inception_5a/pool_proj -> inception_5a/pool_proj
I1217 18:15:46.606499 20669 net.cpp:113] Setting up inception_5a/pool_proj
I1217 18:15:46.608052 20669 net.cpp:120] Top shape: 50 128 7 7 (313600)
I1217 18:15:46.608067 20669 layer_factory.hpp:74] Creating layer inception_5a/relu_pool_proj
I1217 18:15:46.608074 20669 net.cpp:84] Creating Layer inception_5a/relu_pool_proj
I1217 18:15:46.608079 20669 net.cpp:380] inception_5a/relu_pool_proj <- inception_5a/pool_proj
I1217 18:15:46.608086 20669 net.cpp:327] inception_5a/relu_pool_proj -> inception_5a/pool_proj (in-place)
I1217 18:15:46.608093 20669 net.cpp:113] Setting up inception_5a/relu_pool_proj
I1217 18:15:46.608161 20669 net.cpp:120] Top shape: 50 128 7 7 (313600)
I1217 18:15:46.608167 20669 layer_factory.hpp:74] Creating layer inception_5a/output
I1217 18:15:46.608175 20669 net.cpp:84] Creating Layer inception_5a/output
I1217 18:15:46.608178 20669 net.cpp:380] inception_5a/output <- inception_5a/1x1
I1217 18:15:46.608185 20669 net.cpp:380] inception_5a/output <- inception_5a/3x3
I1217 18:15:46.608189 20669 net.cpp:380] inception_5a/output <- inception_5a/5x5
I1217 18:15:46.608194 20669 net.cpp:380] inception_5a/output <- inception_5a/pool_proj
I1217 18:15:46.608201 20669 net.cpp:338] inception_5a/output -> inception_5a/output
I1217 18:15:46.608207 20669 net.cpp:113] Setting up inception_5a/output
I1217 18:15:46.608214 20669 net.cpp:120] Top shape: 50 832 7 7 (2038400)
I1217 18:15:46.608218 20669 layer_factory.hpp:74] Creating layer inception_5a/output_inception_5a/output_0_split
I1217 18:15:46.608227 20669 net.cpp:84] Creating Layer inception_5a/output_inception_5a/output_0_split
I1217 18:15:46.608232 20669 net.cpp:380] inception_5a/output_inception_5a/output_0_split <- inception_5a/output
I1217 18:15:46.608237 20669 net.cpp:338] inception_5a/output_inception_5a/output_0_split -> inception_5a/output_inception_5a/output_0_split_0
I1217 18:15:46.608244 20669 net.cpp:338] inception_5a/output_inception_5a/output_0_split -> inception_5a/output_inception_5a/output_0_split_1
I1217 18:15:46.608252 20669 net.cpp:338] inception_5a/output_inception_5a/output_0_split -> inception_5a/output_inception_5a/output_0_split_2
I1217 18:15:46.608259 20669 net.cpp:338] inception_5a/output_inception_5a/output_0_split -> inception_5a/output_inception_5a/output_0_split_3
I1217 18:15:46.608265 20669 net.cpp:113] Setting up inception_5a/output_inception_5a/output_0_split
I1217 18:15:46.608273 20669 net.cpp:120] Top shape: 50 832 7 7 (2038400)
I1217 18:15:46.608278 20669 net.cpp:120] Top shape: 50 832 7 7 (2038400)
I1217 18:15:46.608283 20669 net.cpp:120] Top shape: 50 832 7 7 (2038400)
I1217 18:15:46.608288 20669 net.cpp:120] Top shape: 50 832 7 7 (2038400)
I1217 18:15:46.608291 20669 layer_factory.hpp:74] Creating layer inception_5b/1x1
I1217 18:15:46.608299 20669 net.cpp:84] Creating Layer inception_5b/1x1
I1217 18:15:46.608302 20669 net.cpp:380] inception_5b/1x1 <- inception_5a/output_inception_5a/output_0_split_0
I1217 18:15:46.608310 20669 net.cpp:338] inception_5b/1x1 -> inception_5b/1x1
I1217 18:15:46.608317 20669 net.cpp:113] Setting up inception_5b/1x1
I1217 18:15:46.612375 20669 net.cpp:120] Top shape: 50 384 7 7 (940800)
I1217 18:15:46.612397 20669 layer_factory.hpp:74] Creating layer inception_5b/relu_1x1
I1217 18:15:46.612409 20669 net.cpp:84] Creating Layer inception_5b/relu_1x1
I1217 18:15:46.612417 20669 net.cpp:380] inception_5b/relu_1x1 <- inception_5b/1x1
I1217 18:15:46.612432 20669 net.cpp:327] inception_5b/relu_1x1 -> inception_5b/1x1 (in-place)
I1217 18:15:46.612442 20669 net.cpp:113] Setting up inception_5b/relu_1x1
I1217 18:15:46.612552 20669 net.cpp:120] Top shape: 50 384 7 7 (940800)
I1217 18:15:46.612572 20669 layer_factory.hpp:74] Creating layer inception_5b/3x3_reduce
I1217 18:15:46.612584 20669 net.cpp:84] Creating Layer inception_5b/3x3_reduce
I1217 18:15:46.612593 20669 net.cpp:380] inception_5b/3x3_reduce <- inception_5a/output_inception_5a/output_0_split_1
I1217 18:15:46.612607 20669 net.cpp:338] inception_5b/3x3_reduce -> inception_5b/3x3_reduce
I1217 18:15:46.612619 20669 net.cpp:113] Setting up inception_5b/3x3_reduce
I1217 18:15:46.614845 20669 net.cpp:120] Top shape: 50 192 7 7 (470400)
I1217 18:15:46.614863 20669 layer_factory.hpp:74] Creating layer inception_5b/relu_3x3_reduce
I1217 18:15:46.614871 20669 net.cpp:84] Creating Layer inception_5b/relu_3x3_reduce
I1217 18:15:46.614876 20669 net.cpp:380] inception_5b/relu_3x3_reduce <- inception_5b/3x3_reduce
I1217 18:15:46.614882 20669 net.cpp:327] inception_5b/relu_3x3_reduce -> inception_5b/3x3_reduce (in-place)
I1217 18:15:46.614891 20669 net.cpp:113] Setting up inception_5b/relu_3x3_reduce
I1217 18:15:46.615145 20669 net.cpp:120] Top shape: 50 192 7 7 (470400)
I1217 18:15:46.615155 20669 layer_factory.hpp:74] Creating layer inception_5b/3x3
I1217 18:15:46.615165 20669 net.cpp:84] Creating Layer inception_5b/3x3
I1217 18:15:46.615171 20669 net.cpp:380] inception_5b/3x3 <- inception_5b/3x3_reduce
I1217 18:15:46.615178 20669 net.cpp:338] inception_5b/3x3 -> inception_5b/3x3
I1217 18:15:46.615188 20669 net.cpp:113] Setting up inception_5b/3x3
I1217 18:15:46.623035 20669 net.cpp:120] Top shape: 50 384 7 7 (940800)
I1217 18:15:46.623054 20669 layer_factory.hpp:74] Creating layer inception_5b/relu_3x3
I1217 18:15:46.623064 20669 net.cpp:84] Creating Layer inception_5b/relu_3x3
I1217 18:15:46.623070 20669 net.cpp:380] inception_5b/relu_3x3 <- inception_5b/3x3
I1217 18:15:46.623077 20669 net.cpp:327] inception_5b/relu_3x3 -> inception_5b/3x3 (in-place)
I1217 18:15:46.623085 20669 net.cpp:113] Setting up inception_5b/relu_3x3
I1217 18:15:46.623154 20669 net.cpp:120] Top shape: 50 384 7 7 (940800)
I1217 18:15:46.623162 20669 layer_factory.hpp:74] Creating layer inception_5b/5x5_reduce
I1217 18:15:46.623170 20669 net.cpp:84] Creating Layer inception_5b/5x5_reduce
I1217 18:15:46.623177 20669 net.cpp:380] inception_5b/5x5_reduce <- inception_5a/output_inception_5a/output_0_split_2
I1217 18:15:46.623185 20669 net.cpp:338] inception_5b/5x5_reduce -> inception_5b/5x5_reduce
I1217 18:15:46.623193 20669 net.cpp:113] Setting up inception_5b/5x5_reduce
I1217 18:15:46.624038 20669 net.cpp:120] Top shape: 50 48 7 7 (117600)
I1217 18:15:46.624053 20669 layer_factory.hpp:74] Creating layer inception_5b/relu_5x5_reduce
I1217 18:15:46.624061 20669 net.cpp:84] Creating Layer inception_5b/relu_5x5_reduce
I1217 18:15:46.624066 20669 net.cpp:380] inception_5b/relu_5x5_reduce <- inception_5b/5x5_reduce
I1217 18:15:46.624073 20669 net.cpp:327] inception_5b/relu_5x5_reduce -> inception_5b/5x5_reduce (in-place)
I1217 18:15:46.624080 20669 net.cpp:113] Setting up inception_5b/relu_5x5_reduce
I1217 18:15:46.624151 20669 net.cpp:120] Top shape: 50 48 7 7 (117600)
I1217 18:15:46.624157 20669 layer_factory.hpp:74] Creating layer inception_5b/5x5
I1217 18:15:46.624166 20669 net.cpp:84] Creating Layer inception_5b/5x5
I1217 18:15:46.624171 20669 net.cpp:380] inception_5b/5x5 <- inception_5b/5x5_reduce
I1217 18:15:46.624178 20669 net.cpp:338] inception_5b/5x5 -> inception_5b/5x5
I1217 18:15:46.624186 20669 net.cpp:113] Setting up inception_5b/5x5
I1217 18:15:46.626243 20669 net.cpp:120] Top shape: 50 128 7 7 (313600)
I1217 18:15:46.626260 20669 layer_factory.hpp:74] Creating layer inception_5b/relu_5x5
I1217 18:15:46.626268 20669 net.cpp:84] Creating Layer inception_5b/relu_5x5
I1217 18:15:46.626273 20669 net.cpp:380] inception_5b/relu_5x5 <- inception_5b/5x5
I1217 18:15:46.626281 20669 net.cpp:327] inception_5b/relu_5x5 -> inception_5b/5x5 (in-place)
I1217 18:15:46.626287 20669 net.cpp:113] Setting up inception_5b/relu_5x5
I1217 18:15:46.626538 20669 net.cpp:120] Top shape: 50 128 7 7 (313600)
I1217 18:15:46.626554 20669 layer_factory.hpp:74] Creating layer inception_5b/pool
I1217 18:15:46.626571 20669 layer_factory.cpp:56] CUDNN does not support padding or multiple tops. Using Caffe's own pooling layer.
I1217 18:15:46.626577 20669 net.cpp:84] Creating Layer inception_5b/pool
I1217 18:15:46.626584 20669 net.cpp:380] inception_5b/pool <- inception_5a/output_inception_5a/output_0_split_3
I1217 18:15:46.626593 20669 net.cpp:338] inception_5b/pool -> inception_5b/pool
I1217 18:15:46.626601 20669 net.cpp:113] Setting up inception_5b/pool
I1217 18:15:46.626611 20669 net.cpp:120] Top shape: 50 832 7 7 (2038400)
I1217 18:15:46.626616 20669 layer_factory.hpp:74] Creating layer inception_5b/pool_proj
I1217 18:15:46.626624 20669 net.cpp:84] Creating Layer inception_5b/pool_proj
I1217 18:15:46.626628 20669 net.cpp:380] inception_5b/pool_proj <- inception_5b/pool
I1217 18:15:46.626637 20669 net.cpp:338] inception_5b/pool_proj -> inception_5b/pool_proj
I1217 18:15:46.626644 20669 net.cpp:113] Setting up inception_5b/pool_proj
I1217 18:15:46.628196 20669 net.cpp:120] Top shape: 50 128 7 7 (313600)
I1217 18:15:46.628209 20669 layer_factory.hpp:74] Creating layer inception_5b/relu_pool_proj
I1217 18:15:46.628218 20669 net.cpp:84] Creating Layer inception_5b/relu_pool_proj
I1217 18:15:46.628223 20669 net.cpp:380] inception_5b/relu_pool_proj <- inception_5b/pool_proj
I1217 18:15:46.628229 20669 net.cpp:327] inception_5b/relu_pool_proj -> inception_5b/pool_proj (in-place)
I1217 18:15:46.628237 20669 net.cpp:113] Setting up inception_5b/relu_pool_proj
I1217 18:15:46.628305 20669 net.cpp:120] Top shape: 50 128 7 7 (313600)
I1217 18:15:46.628311 20669 layer_factory.hpp:74] Creating layer inception_5b/output
I1217 18:15:46.628319 20669 net.cpp:84] Creating Layer inception_5b/output
I1217 18:15:46.628324 20669 net.cpp:380] inception_5b/output <- inception_5b/1x1
I1217 18:15:46.628330 20669 net.cpp:380] inception_5b/output <- inception_5b/3x3
I1217 18:15:46.628335 20669 net.cpp:380] inception_5b/output <- inception_5b/5x5
I1217 18:15:46.628340 20669 net.cpp:380] inception_5b/output <- inception_5b/pool_proj
I1217 18:15:46.628347 20669 net.cpp:338] inception_5b/output -> inception_5b/output
I1217 18:15:46.628355 20669 net.cpp:113] Setting up inception_5b/output
I1217 18:15:46.628362 20669 net.cpp:120] Top shape: 50 1024 7 7 (2508800)
I1217 18:15:46.628366 20669 layer_factory.hpp:74] Creating layer pool5/7x7_s1
I1217 18:15:46.628375 20669 net.cpp:84] Creating Layer pool5/7x7_s1
I1217 18:15:46.628379 20669 net.cpp:380] pool5/7x7_s1 <- inception_5b/output
I1217 18:15:46.628386 20669 net.cpp:338] pool5/7x7_s1 -> pool5/7x7_s1
I1217 18:15:46.628392 20669 net.cpp:113] Setting up pool5/7x7_s1
I1217 18:15:46.628463 20669 net.cpp:120] Top shape: 50 1024 1 1 (51200)
I1217 18:15:46.628468 20669 layer_factory.hpp:74] Creating layer pool5/drop_7x7_s1
I1217 18:15:46.628475 20669 net.cpp:84] Creating Layer pool5/drop_7x7_s1
I1217 18:15:46.628479 20669 net.cpp:380] pool5/drop_7x7_s1 <- pool5/7x7_s1
I1217 18:15:46.628485 20669 net.cpp:327] pool5/drop_7x7_s1 -> pool5/7x7_s1 (in-place)
I1217 18:15:46.628492 20669 net.cpp:113] Setting up pool5/drop_7x7_s1
I1217 18:15:46.628499 20669 net.cpp:120] Top shape: 50 1024 1 1 (51200)
I1217 18:15:46.628504 20669 layer_factory.hpp:74] Creating layer loss3/classifier_kaggle
I1217 18:15:46.628511 20669 net.cpp:84] Creating Layer loss3/classifier_kaggle
I1217 18:15:46.628515 20669 net.cpp:380] loss3/classifier_kaggle <- pool5/7x7_s1
I1217 18:15:46.628525 20669 net.cpp:338] loss3/classifier_kaggle -> loss3/classifier_kaggle
I1217 18:15:46.628532 20669 net.cpp:113] Setting up loss3/classifier_kaggle
I1217 18:15:46.633908 20669 net.cpp:120] Top shape: 50 447 (22350)
I1217 18:15:46.633926 20669 layer_factory.hpp:74] Creating layer loss3/classifier_kaggle_loss3/classifier_kaggle_0_split
I1217 18:15:46.633934 20669 net.cpp:84] Creating Layer loss3/classifier_kaggle_loss3/classifier_kaggle_0_split
I1217 18:15:46.633940 20669 net.cpp:380] loss3/classifier_kaggle_loss3/classifier_kaggle_0_split <- loss3/classifier_kaggle
I1217 18:15:46.633956 20669 net.cpp:338] loss3/classifier_kaggle_loss3/classifier_kaggle_0_split -> loss3/classifier_kaggle_loss3/classifier_kaggle_0_split_0
I1217 18:15:46.633975 20669 net.cpp:338] loss3/classifier_kaggle_loss3/classifier_kaggle_0_split -> loss3/classifier_kaggle_loss3/classifier_kaggle_0_split_1
I1217 18:15:46.633981 20669 net.cpp:338] loss3/classifier_kaggle_loss3/classifier_kaggle_0_split -> loss3/classifier_kaggle_loss3/classifier_kaggle_0_split_2
I1217 18:15:46.633988 20669 net.cpp:113] Setting up loss3/classifier_kaggle_loss3/classifier_kaggle_0_split
I1217 18:15:46.633997 20669 net.cpp:120] Top shape: 50 447 (22350)
I1217 18:15:46.634002 20669 net.cpp:120] Top shape: 50 447 (22350)
I1217 18:15:46.634007 20669 net.cpp:120] Top shape: 50 447 (22350)
I1217 18:15:46.634011 20669 layer_factory.hpp:74] Creating layer loss3/loss3
I1217 18:15:46.634019 20669 net.cpp:84] Creating Layer loss3/loss3
I1217 18:15:46.634024 20669 net.cpp:380] loss3/loss3 <- loss3/classifier_kaggle_loss3/classifier_kaggle_0_split_0
I1217 18:15:46.634029 20669 net.cpp:380] loss3/loss3 <- label_data_1_split_6
I1217 18:15:46.634035 20669 net.cpp:338] loss3/loss3 -> loss3/loss3
…
