…
I1217 21:43:39.991331 26585 net.cpp:257] The NetState phase (0) differed from the phase (1) specified by a rule in layer loss3/top-5
I1217 21:43:39.992604 26585 net.cpp:42] Initializing net from parameters: 
name: "MYNET"
state {
  phase: TRAIN
}
layer {
  name: "data"
  type: "ImageData"
  top: "data"
  top: "label"
  include {
    phase: TRAIN
  }
  transform_param {
    mirror: false
    crop_size: 224
    mean_value: 129
    mean_value: 129
    mean_value: 129
  }
  image_data_param {
    source: "/home/coldmanck/kaggle/label_train_full.txt"
    batch_size: 80
    shuffle: true
  }
}
layer {
  name: "conv1/7x7_s2"
  type: "Convolution"
  bottom: "data"
  top: "conv1/7x7_s2"
  param {
    lr_mult: 1
    decay_mult: 1
  }
  param {
    lr_mult: 2
    decay_mult: 0
  }
  convolution_param {
    num_output: 64
    pad: 3
    kernel_size: 7
    stride: 2
    weight_filler {
      type: "xavier"
    }
    bias_filler {
      type: "constant"
      value: 0.2
    }
  }
}
layer {
  name: "conv1/relu_7x7"
  type: "ReLU"
  bottom: "conv1/7x7_s2"
  top: "conv1/7x7_s2"
}
layer {
  name: "pool1/3x3_s2"
  type: "Pooling"
  bottom: "conv1/7x7_s2"
  top: "pool1/3x3_s2"
  pooling_param {
    pool: MAX
    kernel_size: 3
    stride: 2
  }
}
layer {
  name: "pool1/norm1"
  type: "LRN"
  bottom: "pool1/3x3_s2"
  top: "pool1/norm1"
  lrn_param {
    local_size: 5
    alpha: 0.0001
    beta: 0.75
  }
}
layer {
  name: "conv2/3x3_reduce"
  type: "Convolution"
  bottom: "pool1/norm1"
  top: "conv2/3x3_reduce"
  param {
    lr_mult: 1
    decay_mult: 1
  }
  param {
    lr_mult: 2
    decay_mult: 0
  }
  convolution_param {
    num_output: 64
    kernel_size: 1
    weight_filler {
      type: "xavier"
    }
    bias_filler {
      type: "constant"
      value: 0.2
    }
  }
}
layer {
  name: "conv2/relu_3x3_reduce"
  type: "ReLU"
  bottom: "conv2/3x3_reduce"
  top: "conv2/3x3_reduce"
}
layer {
  name: "conv2/3x3"
  type: "Convolution"
  bottom: "conv2/3x3_reduce"
  top: "conv2/3x3"
  param {
    lr_mult: 1
    decay_mult: 1
  }
  param {
    lr_mult: 2
    decay_mult: 0
  }
  convolution_param {
    num_output: 192
    pad: 1
    kernel_size: 3
    weight_filler {
      type: "xavier"
    }
    bias_filler {
      type: "constant"
      value: 0.2
    }
  }
}
layer {
  name: "conv2/relu_3x3"
  type: "ReLU"
  bottom: "conv2/3x3"
  top: "conv2/3x3"
}
layer {
  name: "conv2/norm2"
  type: "LRN"
  bottom: "conv2/3x3"
  top: "conv2/norm2"
  lrn_param {
    local_size: 5
    alpha: 0.0001
    beta: 0.75
  }
}
layer {
  name: "pool2/3x3_s2"
  type: "Pooling"
  bottom: "conv2/norm2"
  top: "pool2/3x3_s2"
  pooling_param {
    pool: MAX
    kernel_size: 3
    stride: 2
  }
}
layer {
  name: "inception_3a/1x1"
  type: "Convolution"
  bottom: "pool2/3x3_s2"
  top: "inception_3a/1x1"
  param {
    lr_mult: 1
    decay_mult: 1
  }
  param {
    lr_mult: 2
    decay_mult: 0
  }
  convolution_param {
    num_output: 64
    kernel_size: 1
    weight_filler {
      type: "xavier"
    }
    bias_filler {
      type: "constant"
      value: 0.2
    }
  }
}
layer {
  name: "inception_3a/relu_1x1"
  type: "ReLU"
  bottom: "inception_3a/1x1"
  top: "inception_3a/1x1"
}
layer {
  name: "inception_3a/3x3_reduce"
  type: "Convolution"
  bottom: "pool2/3x3_s2"
  top: "inception_3a/3x3_reduce"
  param {
    lr_mult: 1
    decay_mult: 1
  }
  param {
    lr_mult: 2
    decay_mult: 0
  }
  convolution_param {
    num_output: 96
    kernel_size: 1
    weight_filler {
      type: "xavier"
    }
    bias_filler {
      type: "constant"
      value: 0.2
    }
  }
}
layer {
  name: "inception_3a/relu_3x3_reduce"
  type: "ReLU"
  bottom: "inception_3a/3x3_reduce"
  top: "inception_3a/3x3_reduce"
}
layer {
  name: "inception_3a/3x3"
  type: "Convolution"
  bottom: "inception_3a/3x3_reduce"
  top: "inception_3a/3x3"
  param {
    lr_mult: 1
    decay_mult: 1
  }
  param {
    lr_mult: 2
    decay_mult: 0
  }
  convolution_param {
    num_output: 128
    pad: 1
    kernel_size: 3
    weight_filler {
      type: "xavier"
    }
    bias_filler {
      type: "constant"
      value: 0.2
    }
  }
}
layer {
  name: "inception_3a/relu_3x3"
  type: "ReLU"
  bottom: "inception_3a/3x3"
  top: "inception_3a/3x3"
}
layer {
  name: "inception_3a/5x5_reduce"
  type: "Convolution"
  bottom: "pool2/3x3_s2"
  top: "inception_3a/5x5_reduce"
  param {
    lr_mult: 1
    decay_mult: 1
  }
  param {
    lr_mult: 2
    decay_mult: 0
  }
  convolution_param {
    num_output: 16
    kernel_size: 1
    weight_filler {
      type: "xavier"
    }
    bias_filler {
      type: "constant"
      value: 0.2
    }
  }
}
layer {
  name: "inception_3a/relu_5x5_reduce"
  type: "ReLU"
  bottom: "inception_3a/5x5_reduce"
  top: "inception_3a/5x5_reduce"
}
layer {
  name: "inception_3a/5x5"
  type: "Convolution"
  bottom: "inception_3a/5x5_reduce"
  top: "inception_3a/5x5"
  param {
    lr_mult: 1
    decay_mult: 1
  }
  param {
    lr_mult: 2
    decay_mult: 0
  }
  convolution_param {
    num_output: 32
    pad: 2
    kernel_size: 5
    weight_filler {
      type: "xavier"
    }
    bias_filler {
      type: "constant"
      value: 0.2
    }
  }
}
layer {
  name: "inception_3a/relu_5x5"
  type: "ReLU"
  bottom: "inception_3a/5x5"
  top: "inception_3a/5x5"
}
layer {
  name: "inception_3a/pool"
  type: "Pooling"
  bottom: "pool2/3x3_s2"
  top: "inception_3a/pool"
  pooling_param {
    pool: MAX
    kernel_size: 3
    stride: 1
    pad: 1
  }
}
layer {
  name: "inception_3a/pool_proj"
  type: "Convolution"
  bottom: "inception_3a/pool"
  top: "inception_3a/pool_proj"
  param {
    lr_mult: 1
    decay_mult: 1
  }
  param {
    lr_mult: 2
    decay_mult: 0
  }
  convolution_param {
    num_output: 32
    kernel_size: 1
    weight_filler {
      type: "xavier"
    }
    bias_filler {
      type: "constant"
      value: 0.2
    }
  }
}
layer {
  name: "inception_3a/relu_pool_proj"
  type: "ReLU"
  bottom: "inception_3a/pool_proj"
  top: "inception_3a/pool_proj"
}
layer {
  name: "inception_3a/output"
  type: "Concat"
  bottom: "inception_3a/1x1"
  bottom: "inception_3a/3x3"
  bottom: "inception_3a/5x5"
  bottom: "inception_3a/pool_proj"
  top: "inception_3a/output"
}
layer {
  name: "inception_3b/1x1"
  type: "Convolution"
  bottom: "inception_3a/output"
  top: "inception_3b/1x1"
  param {
    lr_mult: 1
    decay_mult: 1
  }
  param {
    lr_mult: 2
    decay_mult: 0
  }
  convolution_param {
    num_output: 128
    kernel_size: 1
    weight_filler {
      type: "xavier"
    }
    bias_filler {
      type: "constant"
      value: 0.2
    }
  }
}
layer {
  name: "inception_3b/relu_1x1"
  type: "ReLU"
  bottom: "inception_3b/1x1"
  top: "inception_3b/1x1"
}
layer {
  name: "inception_3b/3x3_reduce"
  type: "Convolution"
  bottom: "inception_3a/output"
  top: "inception_3b/3x3_reduce"
  param {
    lr_mult: 1
    decay_mult: 1
  }
  param {
    lr_mult: 2
    decay_mult: 0
  }
  convolution_param {
    num_output: 128
    kernel_size: 1
    weight_filler {
      type: "xavier"
    }
    bias_filler {
      type: "constant"
      value: 0.2
    }
  }
}
layer {
  name: "inception_3b/relu_3x3_reduce"
  type: "ReLU"
  bottom: "inception_3b/3x3_reduce"
  top: "inception_3b/3x3_reduce"
}
layer {
  name: "inception_3b/3x3"
  type: "Convolution"
  bottom: "inception_3b/3x3_reduce"
  top: "inception_3b/3x3"
  param {
    lr_mult: 1
    decay_mult: 1
  }
  param {
    lr_mult: 2
    decay_mult: 0
  }
  convolution_param {
    num_output: 192
    pad: 1
    kernel_size: 3
    weight_filler {
      type: "xavier"
    }
    bias_filler {
      type: "constant"
      value: 0.2
    }
  }
}
layer {
  name: "inception_3b/relu_3x3"
  type: "ReLU"
  bottom: "inception_3b/3x3"
  top: "inception_3b/3x3"
}
layer {
  name: "inception_3b/5x5_reduce"
  type: "Convolution"
  bottom: "inception_3a/output"
  top: "inception_3b/5x5_reduce"
  param {
    lr_mult: 1
    decay_mult: 1
  }
  param {
    lr_mult: 2
    decay_mult: 0
  }
  convolution_param {
    num_output: 32
    kernel_size: 1
    weight_filler {
      type: "xavier"
    }
    bias_filler {
      type: "constant"
      value: 0.2
    }
  }
}
layer {
  name: "inception_3b/relu_5x5_reduce"
  type: "ReLU"
  bottom: "inception_3b/5x5_reduce"
  top: "inception_3b/5x5_reduce"
}
layer {
  name: "inception_3b/5x5"
  type: "Convolution"
  bottom: "inception_3b/5x5_reduce"
  top: "inception_3b/5x5"
  param {
    lr_mult: 1
    decay_mult: 1
  }
  param {
    lr_mult: 2
    decay_mult: 0
  }
  convolution_param {
    num_output: 96
    pad: 2
    kernel_size: 5
    weight_filler {
      type: "xavier"
    }
    bias_filler {
      type: "constant"
      value: 0.2
    }
  }
}
layer {
  name: "inception_3b/relu_5x5"
  type: "ReLU"
  bottom: "inception_3b/5x5"
  top: "inception_3b/5x5"
}
layer {
  name: "inception_3b/pool"
  type: "Pooling"
  bottom: "inception_3a/output"
  top: "inception_3b/pool"
  pooling_param {
    pool: MAX
    kernel_size: 3
    stride: 1
    pad: 1
  }
}
layer {
  name: "inception_3b/pool_proj"
  type: "Convolution"
  bottom: "inception_3b/pool"
  top: "inception_3b/pool_proj"
  param {
    lr_mult: 1
    decay_mult: 1
  }
  param {
    lr_mult: 2
    decay_mult: 0
  }
  convolution_param {
    num_output: 64
    kernel_size: 1
    weight_filler {
      type: "xavier"
    }
    bias_filler {
      type: "constant"
      value: 0.2
    }
  }
}
layer {
  name: "inception_3b/relu_pool_proj"
  type: "ReLU"
  bottom: "inception_3b/pool_proj"
  top: "inception_3b/pool_proj"
}
layer {
  name: "inception_3b/output"
  type: "Concat"
  bottom: "inception_3b/1x1"
  bottom: "inception_3b/3x3"
  bottom: "inception_3b/5x5"
  bottom: "inception_3b/pool_proj"
  top: "inception_3b/output"
}
layer {
  name: "pool3/3x3_s2"
  type: "Pooling"
  bottom: "inception_3b/output"
  top: "pool3/3x3_s2"
  pooling_param {
    pool: MAX
    kernel_size: 3
    stride: 2
  }
}
layer {
  name: "inception_4a/1x1"
  type: "Convolution"
  bottom: "pool3/3x3_s2"
  top: "inception_4a/1x1"
  param {
    lr_mult: 1
    decay_mult: 1
  }
  param {
    lr_mult: 2
    decay_mult: 0
  }
  convolution_param {
    num_output: 192
    kernel_size: 1
    weight_filler {
      type: "xavier"
    }
    bias_filler {
      type: "constant"
      value: 0.2
    }
  }
}
layer {
  name: "inception_4a/relu_1x1"
  type: "ReLU"
  bottom: "inception_4a/1x1"
  top: "inception_4a/1x1"
}
layer {
  name: "inception_4a/3x3_reduce"
  type: "Convolution"
  bottom: "pool3/3x3_s2"
  top: "inception_4a/3x3_reduce"
  param {
    lr_mult: 1
    decay_mult: 1
  }
  param {
    lr_mult: 2
    decay_mult: 0
  }
  convolution_param {
    num_output: 96
    kernel_size: 1
    weight_filler {
      type: "xavier"
    }
    bias_filler {
      type: "constant"
      value: 0.2
    }
  }
}
layer {
  name: "inception_4a/relu_3x3_reduce"
  type: "ReLU"
  bottom: "inception_4a/3x3_reduce"
  top: "inception_4a/3x3_reduce"
}
layer {
  name: "inception_4a/3x3"
  type: "Convolution"
  bottom: "inception_4a/3x3_reduce"
  top: "inception_4a/3x3"
  param {
    lr_mult: 1
    decay_mult: 1
  }
  param {
    lr_mult: 2
    decay_mult: 0
  }
  convolution_param {
    num_output: 208
    pad: 1
    kernel_size: 3
    weight_filler {
      type: "xavier"
    }
    bias_filler {
      type: "constant"
      value: 0.2
    }
  }
}
layer {
  name: "inception_4a/relu_3x3"
  type: "ReLU"
  bottom: "inception_4a/3x3"
  top: "inception_4a/3x3"
}
layer {
  name: "inception_4a/5x5_reduce"
  type: "Convolution"
  bottom: "pool3/3x3_s2"
  top: "inception_4a/5x5_reduce"
  param {
    lr_mult: 1
    decay_mult: 1
  }
  param {
    lr_mult: 2
    decay_mult: 0
  }
  convolution_param {
    num_output: 16
    kernel_size: 1
    weight_filler {
      type: "xavier"
    }
    bias_filler {
      type: "constant"
      value: 0.2
    }
  }
}
layer {
  name: "inception_4a/relu_5x5_reduce"
  type: "ReLU"
  bottom: "inception_4a/5x5_reduce"
  top: "inception_4a/5x5_reduce"
}
layer {
  name: "inception_4a/5x5"
  type: "Convolution"
  bottom: "inception_4a/5x5_reduce"
  top: "inception_4a/5x5"
  param {
    lr_mult: 1
    decay_mult: 1
  }
  param {
    lr_mult: 2
    decay_mult: 0
  }
  convolution_param {
    num_output: 48
    pad: 2
    kernel_size: 5
    weight_filler {
      type: "xavier"
    }
    bias_filler {
      type: "constant"
      value: 0.2
    }
  }
}
layer {
  name: "inception_4a/relu_5x5"
  type: "ReLU"
  bottom: "inception_4a/5x5"
  top: "inception_4a/5x5"
}
layer {
  name: "inception_4a/pool"
  type: "Pooling"
  bottom: "pool3/3x3_s2"
  top: "inception_4a/pool"
  pooling_param {
    pool: MAX
    kernel_size: 3
    stride: 1
    pad: 1
  }
}
layer {
  name: "inception_4a/pool_proj"
  type: "Convolution"
  bottom: "inception_4a/pool"
  top: "inception_4a/pool_proj"
  param {
    lr_mult: 1
    decay_mult: 1
  }
  param {
    lr_mult: 2
    decay_mult: 0
  }
  convolution_param {
    num_output: 64
    kernel_size: 1
    weight_filler {
      type: "xavier"
    }
    bias_filler {
      type: "constant"
      value: 0.2
    }
  }
}
layer {
  name: "inception_4a/relu_pool_proj"
  type: "ReLU"
  bottom: "inception_4a/pool_proj"
  top: "inception_4a/pool_proj"
}
layer {
  name: "inception_4a/output"
  type: "Concat"
  bottom: "inception_4a/1x1"
  bottom: "inception_4a/3x3"
  bottom: "inception_4a/5x5"
  bottom: "inception_4a/pool_proj"
  top: "inception_4a/output"
}
layer {
  name: "loss1/ave_pool"
  type: "Pooling"
  bottom: "inception_4a/output"
  top: "loss1/ave_pool"
  pooling_param {
    pool: AVE
    kernel_size: 5
    stride: 3
  }
}
layer {
  name: "loss1/conv"
  type: "Convolution"
  bottom: "loss1/ave_pool"
  top: "loss1/conv"
  param {
    lr_mult: 1
    decay_mult: 1
  }
  param {
    lr_mult: 2
    decay_mult: 0
  }
  convolution_param {
    num_output: 128
    kernel_size: 1
    weight_filler {
      type: "xavier"
    }
    bias_filler {
      type: "constant"
      value: 0.2
    }
  }
}
layer {
  name: "loss1/relu_conv"
  type: "ReLU"
  bottom: "loss1/conv"
  top: "loss1/conv"
}
layer {
  name: "loss1/fc"
  type: "InnerProduct"
  bottom: "loss1/conv"
  top: "loss1/fc"
  param {
    lr_mult: 1
    decay_mult: 1
  }
  param {
    lr_mult: 2
    decay_mult: 0
  }
  inner_product_param {
    num_output: 1024
    weight_filler {
      type: "xavier"
    }
    bias_filler {
      type: "constant"
      value: 0.2
    }
  }
}
layer {
  name: "loss1/relu_fc"
  type: "ReLU"
  bottom: "loss1/fc"
  top: "loss1/fc"
}
layer {
  name: "loss1/drop_fc"
  type: "Dropout"
  bottom: "loss1/fc"
  top: "loss1/fc"
  dropout_param {
    dropout_ratio: 0.7
  }
}
layer {
  name: "loss1/classifier_kaggle"
  type: "InnerProduct"
  bottom: "loss1/fc"
  top: "loss1/classifier_kaggle"
  param {
    lr_mult: 1
    decay_mult: 1
  }
  param {
    lr_mult: 2
    decay_mult: 0
  }
  inner_product_param {
    num_output: 447
    weight_filler {
      type: "xavier"
    }
    bias_filler {
      type: "constant"
      value: 0
    }
  }
}
layer {
  name: "loss1/loss"
  type: "SoftmaxWithLoss"
  bottom: "loss1/classifier_kaggle"
  bottom: "label"
  top: "loss1/loss1"
  loss_weight: 0.3
}
layer {
  name: "inception_4b/1x1"
  type: "Convolution"
  bottom: "inception_4a/output"
  top: "inception_4b/1x1"
  param {
    lr_mult: 1
    decay_mult: 1
  }
  param {
    lr_mult: 2
    decay_mult: 0
  }
  convolution_param {
    num_output: 160
    kernel_size: 1
    weight_filler {
      type: "xavier"
    }
    bias_filler {
      type: "constant"
      value: 0.2
    }
  }
}
layer {
  name: "inception_4b/relu_1x1"
  type: "ReLU"
  bottom: "inception_4b/1x1"
  top: "inception_4b/1x1"
}
layer {
  name: "inception_4b/3x3_reduce"
  type: "Convolution"
  bottom: "inception_4a/output"
  top: "inception_4b/3x3_reduce"
  param {
    lr_mult: 1
    decay_mult: 1
  }
  param {
    lr_mult: 2
    decay_mult: 0
  }
  convolution_param {
    num_output: 112
    kernel_size: 1
    weight_filler {
      type: "xavier"
    }
    bias_filler {
      type: "constant"
      value: 0.2
    }
  }
}
layer {
  name: "inception_4b/relu_3x3_reduce"
  type: "ReLU"
  bottom: "inception_4b/3x3_reduce"
  top: "inception_4b/3x3_reduce"
}
layer {
  name: "inception_4b/3x3"
  type: "Convolution"
  bottom: "inception_4b/3x3_reduce"
  top: "inception_4b/3x3"
  param {
    lr_mult: 1
    decay_mult: 1
  }
  param {
    lr_mult: 2
    decay_mult: 0
  }
  convolution_param {
    num_output: 224
    pad: 1
    kernel_size: 3
    weight_filler {
      type: "xavier"
    }
    bias_filler {
      type: "constant"
      value: 0.2
    }
  }
}
layer {
  name: "inception_4b/relu_3x3"
  type: "ReLU"
  bottom: "inception_4b/3x3"
  top: "inception_4b/3x3"
}
layer {
  name: "inception_4b/5x5_reduce"
  type: "Convolution"
  bottom: "inception_4a/output"
  top: "inception_4b/5x5_reduce"
  param {
    lr_mult: 1
    decay_mult: 1
  }
  param {
    lr_mult: 2
    decay_mult: 0
  }
  convolution_param {
    num_output: 24
    kernel_size: 1
    weight_filler {
      type: "xavier"
    }
    bias_filler {
      type: "constant"
      value: 0.2
    }
  }
}
layer {
  name: "inception_4b/relu_5x5_reduce"
  type: "ReLU"
  bottom: "inception_4b/5x5_reduce"
  top: "inception_4b/5x5_reduce"
}
layer {
  name: "inception_4b/5x5"
  type: "Convolution"
  bottom: "inception_4b/5x5_reduce"
  top: "inception_4b/5x5"
  param {
    lr_mult: 1
    decay_mult: 1
  }
  param {
    lr_mult: 2
    decay_mult: 0
  }
  convolution_param {
    num_output: 64
    pad: 2
    kernel_size: 5
    weight_filler {
      type: "xavier"
    }
    bias_filler {
      type: "constant"
      value: 0.2
    }
  }
}
layer {
  name: "inception_4b/relu_5x5"
  type: "ReLU"
  bottom: "inception_4b/5x5"
  top: "inception_4b/5x5"
}
layer {
  name: "inception_4b/pool"
  type: "Pooling"
  bottom: "inception_4a/output"
  top: "inception_4b/pool"
  pooling_param {
    pool: MAX
    kernel_size: 3
    stride: 1
    pad: 1
  }
}
layer {
  name: "inception_4b/pool_proj"
  type: "Convolution"
  bottom: "inception_4b/pool"
  top: "inception_4b/pool_proj"
  param {
    lr_mult: 1
    decay_mult: 1
  }
  param {
    lr_mult: 2
    decay_mult: 0
  }
  convolution_param {
    num_output: 64
    kernel_size: 1
    weight_filler {
      type: "xavier"
    }
    bias_filler {
      type: "constant"
      value: 0.2
    }
  }
}
layer {
  name: "inception_4b/relu_pool_proj"
  type: "ReLU"
  bottom: "inception_4b/pool_proj"
  top: "inception_4b/pool_proj"
}
layer {
  name: "inception_4b/output"
  type: "Concat"
  bottom: "inception_4b/1x1"
  bottom: "inception_4b/3x3"
  bottom: "inception_4b/5x5"
  bottom: "inception_4b/pool_proj"
  top: "inception_4b/output"
}
layer {
  name: "inception_4c/1x1"
  type: "Convolution"
  bottom: "inception_4b/output"
  top: "inception_4c/1x1"
  param {
    lr_mult: 1
    decay_mult: 1
  }
  param {
    lr_mult: 2
    decay_mult: 0
  }
  convolution_param {
    num_output: 128
    kernel_size: 1
    weight_filler {
      type: "xavier"
    }
    bias_filler {
      type: "constant"
      value: 0.2
    }
  }
}
layer {
  name: "inception_4c/relu_1x1"
  type: "ReLU"
  bottom: "inception_4c/1x1"
  top: "inception_4c/1x1"
}
layer {
  name: "inception_4c/3x3_reduce"
  type: "Convolution"
  bottom: "inception_4b/output"
  top: "inception_4c/3x3_reduce"
  param {
    lr_mult: 1
    decay_mult: 1
  }
  param {
    lr_mult: 2
    decay_mult: 0
  }
  convolution_param {
    num_output: 128
    kernel_size: 1
    weight_filler {
      type: "xavier"
    }
    bias_filler {
      type: "constant"
      value: 0.2
    }
  }
}
layer {
  name: "inception_4c/relu_3x3_reduce"
  type: "ReLU"
  bottom: "inception_4c/3x3_reduce"
  top: "inception_4c/3x3_reduce"
}
layer {
  name: "inception_4c/3x3"
  type: "Convolution"
  bottom: "inception_4c/3x3_reduce"
  top: "inception_4c/3x3"
  param {
    lr_mult: 1
    decay_mult: 1
  }
  param {
    lr_mult: 2
    decay_mult: 0
  }
  convolution_param {
    num_output: 256
    pad: 1
    kernel_size: 3
    weight_filler {
      type: "xavier"
    }
    bias_filler {
      type: "constant"
      value: 0.2
    }
  }
}
layer {
  name: "inception_4c/relu_3x3"
  type: "ReLU"
  bottom: "inception_4c/3x3"
  top: "inception_4c/3x3"
}
layer {
  name: "inception_4c/5x5_reduce"
  type: "Convolution"
  bottom: "inception_4b/output"
  top: "inception_4c/5x5_reduce"
  param {
    lr_mult: 1
    decay_mult: 1
  }
  param {
    lr_mult: 2
    decay_mult: 0
  }
  convolution_param {
    num_output: 24
    kernel_size: 1
    weight_filler {
      type: "xavier"
    }
    bias_filler {
      type: "constant"
      value: 0.2
    }
  }
}
layer {
  name: "inception_4c/relu_5x5_reduce"
  type: "ReLU"
  bottom: "inception_4c/5x5_reduce"
  top: "inception_4c/5x5_reduce"
}
layer {
  name: "inception_4c/5x5"
  type: "Convolution"
  bottom: "inception_4c/5x5_reduce"
  top: "inception_4c/5x5"
  param {
    lr_mult: 1
    decay_mult: 1
  }
  param {
    lr_mult: 2
    decay_mult: 0
  }
  convolution_param {
    num_output: 64
    pad: 2
    kernel_size: 5
    weight_filler {
      type: "xavier"
    }
    bias_filler {
      type: "constant"
      value: 0.2
    }
  }
}
layer {
  name: "inception_4c/relu_5x5"
  type: "ReLU"
  bottom: "inception_4c/5x5"
  top: "inception_4c/5x5"
}
layer {
  name: "inception_4c/pool"
  type: "Pooling"
  bottom: "inception_4b/output"
  top: "inception_4c/pool"
  pooling_param {
    pool: MAX
    kernel_size: 3
    stride: 1
    pad: 1
  }
}
layer {
  name: "inception_4c/pool_proj"
  type: "Convolution"
  bottom: "inception_4c/pool"
  top: "inception_4c/pool_proj"
  param {
    lr_mult: 1
    decay_mult: 1
  }
  param {
    lr_mult: 2
    decay_mult: 0
  }
  convolution_param {
    num_output: 64
    kernel_size: 1
    weight_filler {
      type: "xavier"
    }
    bias_filler {
      type: "constant"
      value: 0.2
    }
  }
}
layer {
  name: "inception_4c/relu_pool_proj"
  type: "ReLU"
  bottom: "inception_4c/pool_proj"
  top: "inception_4c/pool_proj"
}
layer {
  name: "inception_4c/output"
  type: "Concat"
  bottom: "inception_4c/1x1"
  bottom: "inception_4c/3x3"
  bottom: "inception_4c/5x5"
  bottom: "inception_4c/pool_proj"
  top: "inception_4c/output"
}
layer {
  name: "inception_4d/1x1"
  type: "Convolution"
  bottom: "inception_4c/output"
  top: "inception_4d/1x1"
  param {
    lr_mult: 1
    decay_mult: 1
  }
  param {
    lr_mult: 2
    decay_mult: 0
  }
  convolution_param {
    num_output: 112
    kernel_size: 1
    weight_filler {
      type: "xavier"
    }
    bias_filler {
      type: "constant"
      value: 0.2
    }
  }
}
layer {
  name: "inception_4d/relu_1x1"
  type: "ReLU"
  bottom: "inception_4d/1x1"
  top: "inception_4d/1x1"
}
layer {
  name: "inception_4d/3x3_reduce"
  type: "Convolution"
  bottom: "inception_4c/output"
  top: "inception_4d/3x3_reduce"
  param {
    lr_mult: 1
    decay_mult: 1
  }
  param {
    lr_mult: 2
    decay_mult: 0
  }
  convolution_param {
    num_output: 144
    kernel_size: 1
    weight_filler {
      type: "xavier"
    }
    bias_filler {
      type: "constant"
      value: 0.2
    }
  }
}
layer {
  name: "inception_4d/relu_3x3_reduce"
  type: "ReLU"
  bottom: "inception_4d/3x3_reduce"
  top: "inception_4d/3x3_reduce"
}
layer {
  name: "inception_4d/3x3"
  type: "Convolution"
  bottom: "inception_4d/3x3_reduce"
  top: "inception_4d/3x3"
  param {
    lr_mult: 1
    decay_mult: 1
  }
  param {
    lr_mult: 2
    decay_mult: 0
  }
  convolution_param {
    num_output: 288
    pad: 1
    kernel_size: 3
    weight_filler {
      type: "xavier"
    }
    bias_filler {
      type: "constant"
      value: 0.2
    }
  }
}
layer {
  name: "inception_4d/relu_3x3"
  type: "ReLU"
  bottom: "inception_4d/3x3"
  top: "inception_4d/3x3"
}
layer {
  name: "inception_4d/5x5_reduce"
  type: "Convolution"
  bottom: "inception_4c/output"
  top: "inception_4d/5x5_reduce"
  param {
    lr_mult: 1
    decay_mult: 1
  }
  param {
    lr_mult: 2
    decay_mult: 0
  }
  convolution_param {
    num_output: 32
    kernel_size: 1
    weight_filler {
      type: "xavier"
    }
    bias_filler {
      type: "constant"
      value: 0.2
    }
  }
}
layer {
  name: "inception_4d/relu_5x5_reduce"
  type: "ReLU"
  bottom: "inception_4d/5x5_reduce"
  top: "inception_4d/5x5_reduce"
}
layer {
  name: "inception_4d/5x5"
  type: "Convolution"
  bottom: "inception_4d/5x5_reduce"
  top: "inception_4d/5x5"
  param {
    lr_mult: 1
    decay_mult: 1
  }
  param {
    lr_mult: 2
    decay_mult: 0
  }
  convolution_param {
    num_output: 64
    pad: 2
    kernel_size: 5
    weight_filler {
      type: "xavier"
    }
    bias_filler {
      type: "constant"
      value: 0.2
    }
  }
}
layer {
  name: "inception_4d/relu_5x5"
  type: "ReLU"
  bottom: "inception_4d/5x5"
  top: "inception_4d/5x5"
}
layer {
  name: "inception_4d/pool"
  type: "Pooling"
  bottom: "inception_4c/output"
  top: "inception_4d/pool"
  pooling_param {
    pool: MAX
    kernel_size: 3
    stride: 1
    pad: 1
  }
}
layer {
  name: "inception_4d/pool_proj"
  type: "Convolution"
  bottom: "inception_4d/pool"
  top: "inception_4d/pool_proj"
  param {
    lr_mult: 1
    decay_mult: 1
  }
  param {
    lr_mult: 2
    decay_mult: 0
  }
  convolution_param {
    num_output: 64
    kernel_size: 1
    weight_filler {
      type: "xavier"
    }
    bias_filler {
      type: "constant"
      value: 0.2
    }
  }
}
layer {
  name: "inception_4d/relu_pool_proj"
  type: "ReLU"
  bottom: "inception_4d/pool_proj"
  top: "inception_4d/pool_proj"
}
layer {
  name: "inception_4d/output"
  type: "Concat"
  bottom: "inception_4d/1x1"
  bottom: "inception_4d/3x3"
  bottom: "inception_4d/5x5"
  bottom: "inception_4d/pool_proj"
  top: "inception_4d/output"
}
layer {
  name: "loss2/ave_pool"
  type: "Pooling"
  bottom: "inception_4d/output"
  top: "loss2/ave_pool"
  pooling_param {
    pool: AVE
    kernel_size: 5
    stride: 3
  }
}
layer {
  name: "loss2/conv"
  type: "Convolution"
  bottom: "loss2/ave_pool"
  top: "loss2/conv"
  param {
    lr_mult: 1
    decay_mult: 1
  }
  param {
    lr_mult: 2
    decay_mult: 0
  }
  convolution_param {
    num_output: 128
    kernel_size: 1
    weight_filler {
      type: "xavier"
    }
    bias_filler {
      type: "constant"
      value: 0.2
    }
  }
}
layer {
  name: "loss2/relu_conv"
  type: "ReLU"
  bottom: "loss2/conv"
  top: "loss2/conv"
}
layer {
  name: "loss2/fc"
  type: "InnerProduct"
  bottom: "loss2/conv"
  top: "loss2/fc"
  param {
    lr_mult: 1
    decay_mult: 1
  }
  param {
    lr_mult: 2
    decay_mult: 0
  }
  inner_product_param {
    num_output: 1024
    weight_filler {
      type: "xavier"
    }
    bias_filler {
      type: "constant"
      value: 0.2
    }
  }
}
layer {
  name: "loss2/relu_fc"
  type: "ReLU"
  bottom: "loss2/fc"
  top: "loss2/fc"
}
layer {
  name: "loss2/drop_fc"
  type: "Dropout"
  bottom: "loss2/fc"
  top: "loss2/fc"
  dropout_param {
    dropout_ratio: 0.7
  }
}
layer {
  name: "loss2/classifier_kaggle"
  type: "InnerProduct"
  bottom: "loss2/fc"
  top: "loss2/classifier_kaggle"
  param {
    lr_mult: 1
    decay_mult: 1
  }
  param {
    lr_mult: 2
    decay_mult: 0
  }
  inner_product_param {
    num_output: 447
    weight_filler {
      type: "xavier"
    }
    bias_filler {
      type: "constant"
      value: 0
    }
  }
}
layer {
  name: "loss2/loss"
  type: "SoftmaxWithLoss"
  bottom: "loss2/classifier_kaggle"
  bottom: "label"
  top: "loss2/loss1"
  loss_weight: 0.3
}
layer {
  name: "inception_4e/1x1"
  type: "Convolution"
  bottom: "inception_4d/output"
  top: "inception_4e/1x1"
  param {
    lr_mult: 1
    decay_mult: 1
  }
  param {
    lr_mult: 2
    decay_mult: 0
  }
  convolution_param {
    num_output: 256
    kernel_size: 1
    weight_filler {
      type: "xavier"
    }
    bias_filler {
      type: "constant"
      value: 0.2
    }
  }
}
layer {
  name: "inception_4e/relu_1x1"
  type: "ReLU"
  bottom: "inception_4e/1x1"
  top: "inception_4e/1x1"
}
layer {
  name: "inception_4e/3x3_reduce"
  type: "Convolution"
  bottom: "inception_4d/output"
  top: "inception_4e/3x3_reduce"
  param {
    lr_mult: 1
    decay_mult: 1
  }
  param {
    lr_mult: 2
    decay_mult: 0
  }
  convolution_param {
    num_output: 160
    kernel_size: 1
    weight_filler {
      type: "xavier"
    }
    bias_filler {
      type: "constant"
      value: 0.2
    }
  }
}
layer {
  name: "inception_4e/relu_3x3_reduce"
  type: "ReLU"
  bottom: "inception_4e/3x3_reduce"
  top: "inception_4e/3x3_reduce"
}
layer {
  name: "inception_4e/3x3"
  type: "Convolution"
  bottom: "inception_4e/3x3_reduce"
  top: "inception_4e/3x3"
  param {
    lr_mult: 1
    decay_mult: 1
  }
  param {
    lr_mult: 2
    decay_mult: 0
  }
  convolution_param {
    num_output: 320
    pad: 1
    kernel_size: 3
    weight_filler {
      type: "xavier"
    }
    bias_filler {
      type: "constant"
      value: 0.2
    }
  }
}
layer {
  name: "inception_4e/relu_3x3"
  type: "ReLU"
  bottom: "inception_4e/3x3"
  top: "inception_4e/3x3"
}
layer {
  name: "inception_4e/5x5_reduce"
  type: "Convolution"
  bottom: "inception_4d/output"
  top: "inception_4e/5x5_reduce"
  param {
    lr_mult: 1
    decay_mult: 1
  }
  param {
    lr_mult: 2
    decay_mult: 0
  }
  convolution_param {
    num_output: 32
    kernel_size: 1
    weight_filler {
      type: "xavier"
    }
    bias_filler {
      type: "constant"
      value: 0.2
    }
  }
}
layer {
  name: "inception_4e/relu_5x5_reduce"
  type: "ReLU"
  bottom: "inception_4e/5x5_reduce"
  top: "inception_4e/5x5_reduce"
}
layer {
  name: "inception_4e/5x5"
  type: "Convolution"
  bottom: "inception_4e/5x5_reduce"
  top: "inception_4e/5x5"
  param {
    lr_mult: 1
    decay_mult: 1
  }
  param {
    lr_mult: 2
    decay_mult: 0
  }
  convolution_param {
    num_output: 128
    pad: 2
    kernel_size: 5
    weight_filler {
      type: "xavier"
    }
    bias_filler {
      type: "constant"
      value: 0.2
    }
  }
}
layer {
  name: "inception_4e/relu_5x5"
  type: "ReLU"
  bottom: "inception_4e/5x5"
  top: "inception_4e/5x5"
}
layer {
  name: "inception_4e/pool"
  type: "Pooling"
  bottom: "inception_4d/output"
  top: "inception_4e/pool"
  pooling_p
I1217 21:43:39.993324 26585 layer_factory.hpp:74] Creating layer data
I1217 21:43:39.993355 26585 net.cpp:84] Creating Layer data
I1217 21:43:39.993363 26585 net.cpp:338] data -> data
I1217 21:43:39.993396 26585 net.cpp:338] data -> label
I1217 21:43:39.993408 26585 net.cpp:113] Setting up data
I1217 21:43:39.993415 26585 image_data_layer.cpp:36] Opening file /home/coldmanck/kaggle/label_train_full.txt
I1217 21:43:39.995405 26585 image_data_layer.cpp:46] Shuffling data
I1217 21:43:39.996125 26585 image_data_layer.cpp:51] A total of 4235 images.
I1217 21:43:39.996772 26585 image_data_layer.cpp:80] output data size: 80,3,224,224
I1217 21:43:40.009745 26585 net.cpp:120] Top shape: 80 3 224 224 (12042240)
I1217 21:43:40.009783 26585 net.cpp:120] Top shape: 80 (80)
I1217 21:43:40.009794 26585 layer_factory.hpp:74] Creating layer label_data_1_split
I1217 21:43:40.009821 26585 net.cpp:84] Creating Layer label_data_1_split
I1217 21:43:40.009829 26585 net.cpp:380] label_data_1_split <- label
I1217 21:43:40.009845 26585 net.cpp:338] label_data_1_split -> label_data_1_split_0
I1217 21:43:40.009862 26585 net.cpp:338] label_data_1_split -> label_data_1_split_1
I1217 21:43:40.009879 26585 net.cpp:338] label_data_1_split -> label_data_1_split_2
I1217 21:43:40.009897 26585 net.cpp:113] Setting up label_data_1_split
I1217 21:43:40.009908 26585 net.cpp:120] Top shape: 80 (80)
I1217 21:43:40.009913 26585 net.cpp:120] Top shape: 80 (80)
I1217 21:43:40.009918 26585 net.cpp:120] Top shape: 80 (80)
I1217 21:43:40.009922 26585 layer_factory.hpp:74] Creating layer conv1/7x7_s2
I1217 21:43:40.009935 26585 net.cpp:84] Creating Layer conv1/7x7_s2
I1217 21:43:40.009940 26585 net.cpp:380] conv1/7x7_s2 <- data
I1217 21:43:40.009948 26585 net.cpp:338] conv1/7x7_s2 -> conv1/7x7_s2
I1217 21:43:40.009958 26585 net.cpp:113] Setting up conv1/7x7_s2
I1217 21:43:40.347350 26585 net.cpp:120] Top shape: 80 64 112 112 (64225280)
I1217 21:43:40.347434 26585 layer_factory.hpp:74] Creating layer conv1/relu_7x7
I1217 21:43:40.347482 26585 net.cpp:84] Creating Layer conv1/relu_7x7
I1217 21:43:40.347491 26585 net.cpp:380] conv1/relu_7x7 <- conv1/7x7_s2
I1217 21:43:40.347501 26585 net.cpp:327] conv1/relu_7x7 -> conv1/7x7_s2 (in-place)
I1217 21:43:40.347514 26585 net.cpp:113] Setting up conv1/relu_7x7
I1217 21:43:40.352140 26585 net.cpp:120] Top shape: 80 64 112 112 (64225280)
I1217 21:43:40.352182 26585 layer_factory.hpp:74] Creating layer pool1/3x3_s2
I1217 21:43:40.352231 26585 net.cpp:84] Creating Layer pool1/3x3_s2
I1217 21:43:40.352241 26585 net.cpp:380] pool1/3x3_s2 <- conv1/7x7_s2
I1217 21:43:40.352254 26585 net.cpp:338] pool1/3x3_s2 -> pool1/3x3_s2
I1217 21:43:40.352267 26585 net.cpp:113] Setting up pool1/3x3_s2
I1217 21:43:40.352367 26585 net.cpp:120] Top shape: 80 64 56 56 (16056320)
I1217 21:43:40.352376 26585 layer_factory.hpp:74] Creating layer pool1/norm1
I1217 21:43:40.352396 26585 net.cpp:84] Creating Layer pool1/norm1
I1217 21:43:40.352401 26585 net.cpp:380] pool1/norm1 <- pool1/3x3_s2
I1217 21:43:40.352407 26585 net.cpp:338] pool1/norm1 -> pool1/norm1
I1217 21:43:40.352416 26585 net.cpp:113] Setting up pool1/norm1
I1217 21:43:40.352424 26585 net.cpp:120] Top shape: 80 64 56 56 (16056320)
I1217 21:43:40.352430 26585 layer_factory.hpp:74] Creating layer conv2/3x3_reduce
I1217 21:43:40.352442 26585 net.cpp:84] Creating Layer conv2/3x3_reduce
I1217 21:43:40.352447 26585 net.cpp:380] conv2/3x3_reduce <- pool1/norm1
I1217 21:43:40.352455 26585 net.cpp:338] conv2/3x3_reduce -> conv2/3x3_reduce
I1217 21:43:40.352468 26585 net.cpp:113] Setting up conv2/3x3_reduce
I1217 21:43:40.353518 26585 net.cpp:120] Top shape: 80 64 56 56 (16056320)
I1217 21:43:40.353538 26585 layer_factory.hpp:74] Creating layer conv2/relu_3x3_reduce
I1217 21:43:40.353548 26585 net.cpp:84] Creating Layer conv2/relu_3x3_reduce
I1217 21:43:40.353552 26585 net.cpp:380] conv2/relu_3x3_reduce <- conv2/3x3_reduce
I1217 21:43:40.353559 26585 net.cpp:327] conv2/relu_3x3_reduce -> conv2/3x3_reduce (in-place)
I1217 21:43:40.353567 26585 net.cpp:113] Setting up conv2/relu_3x3_reduce
I1217 21:43:40.353629 26585 net.cpp:120] Top shape: 80 64 56 56 (16056320)
I1217 21:43:40.353636 26585 layer_factory.hpp:74] Creating layer conv2/3x3
I1217 21:43:40.353646 26585 net.cpp:84] Creating Layer conv2/3x3
I1217 21:43:40.353651 26585 net.cpp:380] conv2/3x3 <- conv2/3x3_reduce
I1217 21:43:40.353659 26585 net.cpp:338] conv2/3x3 -> conv2/3x3
I1217 21:43:40.353667 26585 net.cpp:113] Setting up conv2/3x3
I1217 21:43:40.355408 26585 net.cpp:120] Top shape: 80 192 56 56 (48168960)
I1217 21:43:40.355427 26585 layer_factory.hpp:74] Creating layer conv2/relu_3x3
I1217 21:43:40.355438 26585 net.cpp:84] Creating Layer conv2/relu_3x3
I1217 21:43:40.355443 26585 net.cpp:380] conv2/relu_3x3 <- conv2/3x3
I1217 21:43:40.355449 26585 net.cpp:327] conv2/relu_3x3 -> conv2/3x3 (in-place)
I1217 21:43:40.355456 26585 net.cpp:113] Setting up conv2/relu_3x3
I1217 21:43:40.355702 26585 net.cpp:120] Top shape: 80 192 56 56 (48168960)
I1217 21:43:40.355715 26585 layer_factory.hpp:74] Creating layer conv2/norm2
I1217 21:43:40.355721 26585 net.cpp:84] Creating Layer conv2/norm2
I1217 21:43:40.355726 26585 net.cpp:380] conv2/norm2 <- conv2/3x3
I1217 21:43:40.355736 26585 net.cpp:338] conv2/norm2 -> conv2/norm2
I1217 21:43:40.355751 26585 net.cpp:113] Setting up conv2/norm2
I1217 21:43:40.355772 26585 net.cpp:120] Top shape: 80 192 56 56 (48168960)
I1217 21:43:40.355777 26585 layer_factory.hpp:74] Creating layer pool2/3x3_s2
I1217 21:43:40.355788 26585 net.cpp:84] Creating Layer pool2/3x3_s2
I1217 21:43:40.355793 26585 net.cpp:380] pool2/3x3_s2 <- conv2/norm2
I1217 21:43:40.355799 26585 net.cpp:338] pool2/3x3_s2 -> pool2/3x3_s2
I1217 21:43:40.355805 26585 net.cpp:113] Setting up pool2/3x3_s2
I1217 21:43:40.355872 26585 net.cpp:120] Top shape: 80 192 28 28 (12042240)
I1217 21:43:40.355880 26585 layer_factory.hpp:74] Creating layer pool2/3x3_s2_pool2/3x3_s2_0_split
I1217 21:43:40.355887 26585 net.cpp:84] Creating Layer pool2/3x3_s2_pool2/3x3_s2_0_split
I1217 21:43:40.355892 26585 net.cpp:380] pool2/3x3_s2_pool2/3x3_s2_0_split <- pool2/3x3_s2
I1217 21:43:40.355898 26585 net.cpp:338] pool2/3x3_s2_pool2/3x3_s2_0_split -> pool2/3x3_s2_pool2/3x3_s2_0_split_0
I1217 21:43:40.355906 26585 net.cpp:338] pool2/3x3_s2_pool2/3x3_s2_0_split -> pool2/3x3_s2_pool2/3x3_s2_0_split_1
I1217 21:43:40.355911 26585 net.cpp:338] pool2/3x3_s2_pool2/3x3_s2_0_split -> pool2/3x3_s2_pool2/3x3_s2_0_split_2
I1217 21:43:40.355919 26585 net.cpp:338] pool2/3x3_s2_pool2/3x3_s2_0_split -> pool2/3x3_s2_pool2/3x3_s2_0_split_3
I1217 21:43:40.355924 26585 net.cpp:113] Setting up pool2/3x3_s2_pool2/3x3_s2_0_split
I1217 21:43:40.355932 26585 net.cpp:120] Top shape: 80 192 28 28 (12042240)
I1217 21:43:40.355937 26585 net.cpp:120] Top shape: 80 192 28 28 (12042240)
I1217 21:43:40.355942 26585 net.cpp:120] Top shape: 80 192 28 28 (12042240)
I1217 21:43:40.355947 26585 net.cpp:120] Top shape: 80 192 28 28 (12042240)
I1217 21:43:40.355950 26585 layer_factory.hpp:74] Creating layer inception_3a/1x1
I1217 21:43:40.355959 26585 net.cpp:84] Creating Layer inception_3a/1x1
I1217 21:43:40.355963 26585 net.cpp:380] inception_3a/1x1 <- pool2/3x3_s2_pool2/3x3_s2_0_split_0
I1217 21:43:40.355969 26585 net.cpp:338] inception_3a/1x1 -> inception_3a/1x1
I1217 21:43:40.355978 26585 net.cpp:113] Setting up inception_3a/1x1
I1217 21:43:40.356545 26585 net.cpp:120] Top shape: 80 64 28 28 (4014080)
I1217 21:43:40.356560 26585 layer_factory.hpp:74] Creating layer inception_3a/relu_1x1
I1217 21:43:40.356570 26585 net.cpp:84] Creating Layer inception_3a/relu_1x1
I1217 21:43:40.356575 26585 net.cpp:380] inception_3a/relu_1x1 <- inception_3a/1x1
I1217 21:43:40.356582 26585 net.cpp:327] inception_3a/relu_1x1 -> inception_3a/1x1 (in-place)
I1217 21:43:40.356590 26585 net.cpp:113] Setting up inception_3a/relu_1x1
I1217 21:43:40.356657 26585 net.cpp:120] Top shape: 80 64 28 28 (4014080)
I1217 21:43:40.356663 26585 layer_factory.hpp:74] Creating layer inception_3a/3x3_reduce
I1217 21:43:40.356672 26585 net.cpp:84] Creating Layer inception_3a/3x3_reduce
I1217 21:43:40.356675 26585 net.cpp:380] inception_3a/3x3_reduce <- pool2/3x3_s2_pool2/3x3_s2_0_split_1
I1217 21:43:40.356683 26585 net.cpp:338] inception_3a/3x3_reduce -> inception_3a/3x3_reduce
I1217 21:43:40.356691 26585 net.cpp:113] Setting up inception_3a/3x3_reduce
I1217 21:43:40.357285 26585 net.cpp:120] Top shape: 80 96 28 28 (6021120)
I1217 21:43:40.357303 26585 layer_factory.hpp:74] Creating layer inception_3a/relu_3x3_reduce
I1217 21:43:40.357313 26585 net.cpp:84] Creating Layer inception_3a/relu_3x3_reduce
I1217 21:43:40.357318 26585 net.cpp:380] inception_3a/relu_3x3_reduce <- inception_3a/3x3_reduce
I1217 21:43:40.357331 26585 net.cpp:327] inception_3a/relu_3x3_reduce -> inception_3a/3x3_reduce (in-place)
I1217 21:43:40.357342 26585 net.cpp:113] Setting up inception_3a/relu_3x3_reduce
I1217 21:43:40.357420 26585 net.cpp:120] Top shape: 80 96 28 28 (6021120)
I1217 21:43:40.357429 26585 layer_factory.hpp:74] Creating layer inception_3a/3x3
I1217 21:43:40.357440 26585 net.cpp:84] Creating Layer inception_3a/3x3
I1217 21:43:40.357447 26585 net.cpp:380] inception_3a/3x3 <- inception_3a/3x3_reduce
I1217 21:43:40.357460 26585 net.cpp:338] inception_3a/3x3 -> inception_3a/3x3
I1217 21:43:40.357468 26585 net.cpp:113] Setting up inception_3a/3x3
I1217 21:43:40.359653 26585 net.cpp:120] Top shape: 80 128 28 28 (8028160)
I1217 21:43:40.359678 26585 layer_factory.hpp:74] Creating layer inception_3a/relu_3x3
I1217 21:43:40.359688 26585 net.cpp:84] Creating Layer inception_3a/relu_3x3
I1217 21:43:40.359693 26585 net.cpp:380] inception_3a/relu_3x3 <- inception_3a/3x3
I1217 21:43:40.359699 26585 net.cpp:327] inception_3a/relu_3x3 -> inception_3a/3x3 (in-place)
I1217 21:43:40.359706 26585 net.cpp:113] Setting up inception_3a/relu_3x3
I1217 21:43:40.359943 26585 net.cpp:120] Top shape: 80 128 28 28 (8028160)
I1217 21:43:40.359954 26585 layer_factory.hpp:74] Creating layer inception_3a/5x5_reduce
I1217 21:43:40.359966 26585 net.cpp:84] Creating Layer inception_3a/5x5_reduce
I1217 21:43:40.359971 26585 net.cpp:380] inception_3a/5x5_reduce <- pool2/3x3_s2_pool2/3x3_s2_0_split_2
I1217 21:43:40.359977 26585 net.cpp:338] inception_3a/5x5_reduce -> inception_3a/5x5_reduce
I1217 21:43:40.359987 26585 net.cpp:113] Setting up inception_3a/5x5_reduce
I1217 21:43:40.360416 26585 net.cpp:120] Top shape: 80 16 28 28 (1003520)
I1217 21:43:40.360430 26585 layer_factory.hpp:74] Creating layer inception_3a/relu_5x5_reduce
I1217 21:43:40.360437 26585 net.cpp:84] Creating Layer inception_3a/relu_5x5_reduce
I1217 21:43:40.360442 26585 net.cpp:380] inception_3a/relu_5x5_reduce <- inception_3a/5x5_reduce
I1217 21:43:40.360450 26585 net.cpp:327] inception_3a/relu_5x5_reduce -> inception_3a/5x5_reduce (in-place)
I1217 21:43:40.360458 26585 net.cpp:113] Setting up inception_3a/relu_5x5_reduce
I1217 21:43:40.360523 26585 net.cpp:120] Top shape: 80 16 28 28 (1003520)
I1217 21:43:40.360529 26585 layer_factory.hpp:74] Creating layer inception_3a/5x5
I1217 21:43:40.360538 26585 net.cpp:84] Creating Layer inception_3a/5x5
I1217 21:43:40.360543 26585 net.cpp:380] inception_3a/5x5 <- inception_3a/5x5_reduce
I1217 21:43:40.360550 26585 net.cpp:338] inception_3a/5x5 -> inception_3a/5x5
I1217 21:43:40.360558 26585 net.cpp:113] Setting up inception_3a/5x5
I1217 21:43:40.361136 26585 net.cpp:120] Top shape: 80 32 28 28 (2007040)
I1217 21:43:40.361152 26585 layer_factory.hpp:74] Creating layer inception_3a/relu_5x5
I1217 21:43:40.361160 26585 net.cpp:84] Creating Layer inception_3a/relu_5x5
I1217 21:43:40.361165 26585 net.cpp:380] inception_3a/relu_5x5 <- inception_3a/5x5
I1217 21:43:40.361171 26585 net.cpp:327] inception_3a/relu_5x5 -> inception_3a/5x5 (in-place)
I1217 21:43:40.361178 26585 net.cpp:113] Setting up inception_3a/relu_5x5
I1217 21:43:40.361243 26585 net.cpp:120] Top shape: 80 32 28 28 (2007040)
I1217 21:43:40.361250 26585 layer_factory.hpp:74] Creating layer inception_3a/pool
I1217 21:43:40.361255 26585 layer_factory.cpp:56] CUDNN does not support padding or multiple tops. Using Caffe's own pooling layer.
I1217 21:43:40.361263 26585 net.cpp:84] Creating Layer inception_3a/pool
I1217 21:43:40.361268 26585 net.cpp:380] inception_3a/pool <- pool2/3x3_s2_pool2/3x3_s2_0_split_3
I1217 21:43:40.361274 26585 net.cpp:338] inception_3a/pool -> inception_3a/pool
I1217 21:43:40.361281 26585 net.cpp:113] Setting up inception_3a/pool
I1217 21:43:40.361289 26585 net.cpp:120] Top shape: 80 192 28 28 (12042240)
I1217 21:43:40.361294 26585 layer_factory.hpp:74] Creating layer inception_3a/pool_proj
I1217 21:43:40.361304 26585 net.cpp:84] Creating Layer inception_3a/pool_proj
I1217 21:43:40.361309 26585 net.cpp:380] inception_3a/pool_proj <- inception_3a/pool
I1217 21:43:40.361316 26585 net.cpp:338] inception_3a/pool_proj -> inception_3a/pool_proj
I1217 21:43:40.361323 26585 net.cpp:113] Setting up inception_3a/pool_proj
I1217 21:43:40.362253 26585 net.cpp:120] Top shape: 80 32 28 28 (2007040)
I1217 21:43:40.362272 26585 layer_factory.hpp:74] Creating layer inception_3a/relu_pool_proj
I1217 21:43:40.362278 26585 net.cpp:84] Creating Layer inception_3a/relu_pool_proj
I1217 21:43:40.362283 26585 net.cpp:380] inception_3a/relu_pool_proj <- inception_3a/pool_proj
I1217 21:43:40.362289 26585 net.cpp:327] inception_3a/relu_pool_proj -> inception_3a/pool_proj (in-place)
I1217 21:43:40.362301 26585 net.cpp:113] Setting up inception_3a/relu_pool_proj
I1217 21:43:40.362376 26585 net.cpp:120] Top shape: 80 32 28 28 (2007040)
I1217 21:43:40.362383 26585 layer_factory.hpp:74] Creating layer inception_3a/output
I1217 21:43:40.362396 26585 net.cpp:84] Creating Layer inception_3a/output
I1217 21:43:40.362401 26585 net.cpp:380] inception_3a/output <- inception_3a/1x1
I1217 21:43:40.362406 26585 net.cpp:380] inception_3a/output <- inception_3a/3x3
I1217 21:43:40.362411 26585 net.cpp:380] inception_3a/output <- inception_3a/5x5
I1217 21:43:40.362414 26585 net.cpp:380] inception_3a/output <- inception_3a/pool_proj
I1217 21:43:40.362421 26585 net.cpp:338] inception_3a/output -> inception_3a/output
I1217 21:43:40.362427 26585 net.cpp:113] Setting up inception_3a/output
I1217 21:43:40.362435 26585 net.cpp:120] Top shape: 80 256 28 28 (16056320)
I1217 21:43:40.362439 26585 layer_factory.hpp:74] Creating layer inception_3a/output_inception_3a/output_0_split
I1217 21:43:40.362445 26585 net.cpp:84] Creating Layer inception_3a/output_inception_3a/output_0_split
I1217 21:43:40.362449 26585 net.cpp:380] inception_3a/output_inception_3a/output_0_split <- inception_3a/output
I1217 21:43:40.362457 26585 net.cpp:338] inception_3a/output_inception_3a/output_0_split -> inception_3a/output_inception_3a/output_0_split_0
I1217 21:43:40.362463 26585 net.cpp:338] inception_3a/output_inception_3a/output_0_split -> inception_3a/output_inception_3a/output_0_split_1
I1217 21:43:40.362469 26585 net.cpp:338] inception_3a/output_inception_3a/output_0_split -> inception_3a/output_inception_3a/output_0_split_2
I1217 21:43:40.362476 26585 net.cpp:338] inception_3a/output_inception_3a/output_0_split -> inception_3a/output_inception_3a/output_0_split_3
I1217 21:43:40.362481 26585 net.cpp:113] Setting up inception_3a/output_inception_3a/output_0_split
I1217 21:43:40.362488 26585 net.cpp:120] Top shape: 80 256 28 28 (16056320)
I1217 21:43:40.362493 26585 net.cpp:120] Top shape: 80 256 28 28 (16056320)
I1217 21:43:40.362498 26585 net.cpp:120] Top shape: 80 256 28 28 (16056320)
I1217 21:43:40.362503 26585 net.cpp:120] Top shape: 80 256 28 28 (16056320)
I1217 21:43:40.362507 26585 layer_factory.hpp:74] Creating layer inception_3b/1x1
I1217 21:43:40.362517 26585 net.cpp:84] Creating Layer inception_3b/1x1
I1217 21:43:40.362521 26585 net.cpp:380] inception_3b/1x1 <- inception_3a/output_inception_3a/output_0_split_0
I1217 21:43:40.362527 26585 net.cpp:338] inception_3b/1x1 -> inception_3b/1x1
I1217 21:43:40.362534 26585 net.cpp:113] Setting up inception_3b/1x1
I1217 21:43:40.364477 26585 net.cpp:120] Top shape: 80 128 28 28 (8028160)
I1217 21:43:40.364493 26585 layer_factory.hpp:74] Creating layer inception_3b/relu_1x1
I1217 21:43:40.364500 26585 net.cpp:84] Creating Layer inception_3b/relu_1x1
I1217 21:43:40.364506 26585 net.cpp:380] inception_3b/relu_1x1 <- inception_3b/1x1
I1217 21:43:40.364518 26585 net.cpp:327] inception_3b/relu_1x1 -> inception_3b/1x1 (in-place)
I1217 21:43:40.364526 26585 net.cpp:113] Setting up inception_3b/relu_1x1
I1217 21:43:40.364789 26585 net.cpp:120] Top shape: 80 128 28 28 (8028160)
I1217 21:43:40.364801 26585 layer_factory.hpp:74] Creating layer inception_3b/3x3_reduce
I1217 21:43:40.364811 26585 net.cpp:84] Creating Layer inception_3b/3x3_reduce
I1217 21:43:40.364816 26585 net.cpp:380] inception_3b/3x3_reduce <- inception_3a/output_inception_3a/output_0_split_1
I1217 21:43:40.364823 26585 net.cpp:338] inception_3b/3x3_reduce -> inception_3b/3x3_reduce
I1217 21:43:40.364831 26585 net.cpp:113] Setting up inception_3b/3x3_reduce
I1217 21:43:40.365640 26585 net.cpp:120] Top shape: 80 128 28 28 (8028160)
I1217 21:43:40.365656 26585 layer_factory.hpp:74] Creating layer inception_3b/relu_3x3_reduce
I1217 21:43:40.365665 26585 net.cpp:84] Creating Layer inception_3b/relu_3x3_reduce
I1217 21:43:40.365670 26585 net.cpp:380] inception_3b/relu_3x3_reduce <- inception_3b/3x3_reduce
I1217 21:43:40.365676 26585 net.cpp:327] inception_3b/relu_3x3_reduce -> inception_3b/3x3_reduce (in-place)
I1217 21:43:40.365684 26585 net.cpp:113] Setting up inception_3b/relu_3x3_reduce
I1217 21:43:40.365754 26585 net.cpp:120] Top shape: 80 128 28 28 (8028160)
I1217 21:43:40.365769 26585 layer_factory.hpp:74] Creating layer inception_3b/3x3
I1217 21:43:40.365784 26585 net.cpp:84] Creating Layer inception_3b/3x3
I1217 21:43:40.365789 26585 net.cpp:380] inception_3b/3x3 <- inception_3b/3x3_reduce
I1217 21:43:40.365797 26585 net.cpp:338] inception_3b/3x3 -> inception_3b/3x3
I1217 21:43:40.365804 26585 net.cpp:113] Setting up inception_3b/3x3
I1217 21:43:40.368993 26585 net.cpp:120] Top shape: 80 192 28 28 (12042240)
I1217 21:43:40.369010 26585 layer_factory.hpp:74] Creating layer inception_3b/relu_3x3
I1217 21:43:40.369017 26585 net.cpp:84] Creating Layer inception_3b/relu_3x3
I1217 21:43:40.369021 26585 net.cpp:380] inception_3b/relu_3x3 <- inception_3b/3x3
I1217 21:43:40.369032 26585 net.cpp:327] inception_3b/relu_3x3 -> inception_3b/3x3 (in-place)
I1217 21:43:40.369040 26585 net.cpp:113] Setting up inception_3b/relu_3x3
I1217 21:43:40.369148 26585 net.cpp:120] Top shape: 80 192 28 28 (12042240)
I1217 21:43:40.369158 26585 layer_factory.hpp:74] Creating layer inception_3b/5x5_reduce
I1217 21:43:40.369165 26585 net.cpp:84] Creating Layer inception_3b/5x5_reduce
I1217 21:43:40.369170 26585 net.cpp:380] inception_3b/5x5_reduce <- inception_3a/output_inception_3a/output_0_split_2
I1217 21:43:40.369181 26585 net.cpp:338] inception_3b/5x5_reduce -> inception_3b/5x5_reduce
I1217 21:43:40.369190 26585 net.cpp:113] Setting up inception_3b/5x5_reduce
I1217 21:43:40.369734 26585 net.cpp:120] Top shape: 80 32 28 28 (2007040)
I1217 21:43:40.369748 26585 layer_factory.hpp:74] Creating layer inception_3b/relu_5x5_reduce
I1217 21:43:40.369758 26585 net.cpp:84] Creating Layer inception_3b/relu_5x5_reduce
I1217 21:43:40.369765 26585 net.cpp:380] inception_3b/relu_5x5_reduce <- inception_3b/5x5_reduce
I1217 21:43:40.369771 26585 net.cpp:327] inception_3b/relu_5x5_reduce -> inception_3b/5x5_reduce (in-place)
I1217 21:43:40.369777 26585 net.cpp:113] Setting up inception_3b/relu_5x5_reduce
I1217 21:43:40.369860 26585 net.cpp:120] Top shape: 80 32 28 28 (2007040)
I1217 21:43:40.369868 26585 layer_factory.hpp:74] Creating layer inception_3b/5x5
I1217 21:43:40.369879 26585 net.cpp:84] Creating Layer inception_3b/5x5
I1217 21:43:40.369884 26585 net.cpp:380] inception_3b/5x5 <- inception_3b/5x5_reduce
I1217 21:43:40.369891 26585 net.cpp:338] inception_3b/5x5 -> inception_3b/5x5
I1217 21:43:40.369902 26585 net.cpp:113] Setting up inception_3b/5x5
I1217 21:43:40.371150 26585 net.cpp:120] Top shape: 80 96 28 28 (6021120)
I1217 21:43:40.371165 26585 layer_factory.hpp:74] Creating layer inception_3b/relu_5x5
I1217 21:43:40.371171 26585 net.cpp:84] Creating Layer inception_3b/relu_5x5
I1217 21:43:40.371176 26585 net.cpp:380] inception_3b/relu_5x5 <- inception_3b/5x5
I1217 21:43:40.371188 26585 net.cpp:327] inception_3b/relu_5x5 -> inception_3b/5x5 (in-place)
I1217 21:43:40.371196 26585 net.cpp:113] Setting up inception_3b/relu_5x5
I1217 21:43:40.371440 26585 net.cpp:120] Top shape: 80 96 28 28 (6021120)
I1217 21:43:40.371454 26585 layer_factory.hpp:74] Creating layer inception_3b/pool
I1217 21:43:40.371459 26585 layer_factory.cpp:56] CUDNN does not support padding or multiple tops. Using Caffe's own pooling layer.
I1217 21:43:40.371466 26585 net.cpp:84] Creating Layer inception_3b/pool
I1217 21:43:40.371471 26585 net.cpp:380] inception_3b/pool <- inception_3a/output_inception_3a/output_0_split_3
I1217 21:43:40.371480 26585 net.cpp:338] inception_3b/pool -> inception_3b/pool
I1217 21:43:40.371489 26585 net.cpp:113] Setting up inception_3b/pool
I1217 21:43:40.371497 26585 net.cpp:120] Top shape: 80 256 28 28 (16056320)
I1217 21:43:40.371501 26585 layer_factory.hpp:74] Creating layer inception_3b/pool_proj
I1217 21:43:40.371508 26585 net.cpp:84] Creating Layer inception_3b/pool_proj
I1217 21:43:40.371513 26585 net.cpp:380] inception_3b/pool_proj <- inception_3b/pool
I1217 21:43:40.371521 26585 net.cpp:338] inception_3b/pool_proj -> inception_3b/pool_proj
I1217 21:43:40.371528 26585 net.cpp:113] Setting up inception_3b/pool_proj
I1217 21:43:40.372131 26585 net.cpp:120] Top shape: 80 64 28 28 (4014080)
I1217 21:43:40.372155 26585 layer_factory.hpp:74] Creating layer inception_3b/relu_pool_proj
I1217 21:43:40.372162 26585 net.cpp:84] Creating Layer inception_3b/relu_pool_proj
I1217 21:43:40.372167 26585 net.cpp:380] inception_3b/relu_pool_proj <- inception_3b/pool_proj
I1217 21:43:40.372175 26585 net.cpp:327] inception_3b/relu_pool_proj -> inception_3b/pool_proj (in-place)
I1217 21:43:40.372184 26585 net.cpp:113] Setting up inception_3b/relu_pool_proj
I1217 21:43:40.372275 26585 net.cpp:120] Top shape: 80 64 28 28 (4014080)
I1217 21:43:40.372287 26585 layer_factory.hpp:74] Creating layer inception_3b/output
I1217 21:43:40.372295 26585 net.cpp:84] Creating Layer inception_3b/output
I1217 21:43:40.372299 26585 net.cpp:380] inception_3b/output <- inception_3b/1x1
I1217 21:43:40.372305 26585 net.cpp:380] inception_3b/output <- inception_3b/3x3
I1217 21:43:40.372310 26585 net.cpp:380] inception_3b/output <- inception_3b/5x5
I1217 21:43:40.372315 26585 net.cpp:380] inception_3b/output <- inception_3b/pool_proj
I1217 21:43:40.372321 26585 net.cpp:338] inception_3b/output -> inception_3b/output
I1217 21:43:40.372328 26585 net.cpp:113] Setting up inception_3b/output
I1217 21:43:40.372335 26585 net.cpp:120] Top shape: 80 480 28 28 (30105600)
I1217 21:43:40.372340 26585 layer_factory.hpp:74] Creating layer pool3/3x3_s2
I1217 21:43:40.372349 26585 net.cpp:84] Creating Layer pool3/3x3_s2
I1217 21:43:40.372354 26585 net.cpp:380] pool3/3x3_s2 <- inception_3b/output
I1217 21:43:40.372360 26585 net.cpp:338] pool3/3x3_s2 -> pool3/3x3_s2
I1217 21:43:40.372366 26585 net.cpp:113] Setting up pool3/3x3_s2
I1217 21:43:40.372462 26585 net.cpp:120] Top shape: 80 480 14 14 (7526400)
I1217 21:43:40.372470 26585 layer_factory.hpp:74] Creating layer pool3/3x3_s2_pool3/3x3_s2_0_split
I1217 21:43:40.372476 26585 net.cpp:84] Creating Layer pool3/3x3_s2_pool3/3x3_s2_0_split
I1217 21:43:40.372480 26585 net.cpp:380] pool3/3x3_s2_pool3/3x3_s2_0_split <- pool3/3x3_s2
I1217 21:43:40.372488 26585 net.cpp:338] pool3/3x3_s2_pool3/3x3_s2_0_split -> pool3/3x3_s2_pool3/3x3_s2_0_split_0
I1217 21:43:40.372494 26585 net.cpp:338] pool3/3x3_s2_pool3/3x3_s2_0_split -> pool3/3x3_s2_pool3/3x3_s2_0_split_1
I1217 21:43:40.372500 26585 net.cpp:338] pool3/3x3_s2_pool3/3x3_s2_0_split -> pool3/3x3_s2_pool3/3x3_s2_0_split_2
I1217 21:43:40.372506 26585 net.cpp:338] pool3/3x3_s2_pool3/3x3_s2_0_split -> pool3/3x3_s2_pool3/3x3_s2_0_split_3
I1217 21:43:40.372511 26585 net.cpp:113] Setting up pool3/3x3_s2_pool3/3x3_s2_0_split
I1217 21:43:40.372520 26585 net.cpp:120] Top shape: 80 480 14 14 (7526400)
I1217 21:43:40.372525 26585 net.cpp:120] Top shape: 80 480 14 14 (7526400)
I1217 21:43:40.372530 26585 net.cpp:120] Top shape: 80 480 14 14 (7526400)
I1217 21:43:40.372535 26585 net.cpp:120] Top shape: 80 480 14 14 (7526400)
I1217 21:43:40.372539 26585 layer_factory.hpp:74] Creating layer inception_4a/1x1
I1217 21:43:40.372547 26585 net.cpp:84] Creating Layer inception_4a/1x1
I1217 21:43:40.372552 26585 net.cpp:380] inception_4a/1x1 <- pool3/3x3_s2_pool3/3x3_s2_0_split_0
I1217 21:43:40.372558 26585 net.cpp:338] inception_4a/1x1 -> inception_4a/1x1
I1217 21:43:40.372565 26585 net.cpp:113] Setting up inception_4a/1x1
I1217 21:43:40.374019 26585 net.cpp:120] Top shape: 80 192 14 14 (3010560)
I1217 21:43:40.374035 26585 layer_factory.hpp:74] Creating layer inception_4a/relu_1x1
I1217 21:43:40.374043 26585 net.cpp:84] Creating Layer inception_4a/relu_1x1
I1217 21:43:40.374048 26585 net.cpp:380] inception_4a/relu_1x1 <- inception_4a/1x1
I1217 21:43:40.374056 26585 net.cpp:327] inception_4a/relu_1x1 -> inception_4a/1x1 (in-place)
I1217 21:43:40.374063 26585 net.cpp:113] Setting up inception_4a/relu_1x1
I1217 21:43:40.374308 26585 net.cpp:120] Top shape: 80 192 14 14 (3010560)
I1217 21:43:40.374320 26585 layer_factory.hpp:74] Creating layer inception_4a/3x3_reduce
I1217 21:43:40.374330 26585 net.cpp:84] Creating Layer inception_4a/3x3_reduce
I1217 21:43:40.374336 26585 net.cpp:380] inception_4a/3x3_reduce <- pool3/3x3_s2_pool3/3x3_s2_0_split_1
I1217 21:43:40.374348 26585 net.cpp:338] inception_4a/3x3_reduce -> inception_4a/3x3_reduce
I1217 21:43:40.374363 26585 net.cpp:113] Setting up inception_4a/3x3_reduce
I1217 21:43:40.375309 26585 net.cpp:120] Top shape: 80 96 14 14 (1505280)
I1217 21:43:40.375331 26585 layer_factory.hpp:74] Creating layer inception_4a/relu_3x3_reduce
I1217 21:43:40.375339 26585 net.cpp:84] Creating Layer inception_4a/relu_3x3_reduce
I1217 21:43:40.375344 26585 net.cpp:380] inception_4a/relu_3x3_reduce <- inception_4a/3x3_reduce
I1217 21:43:40.375350 26585 net.cpp:327] inception_4a/relu_3x3_reduce -> inception_4a/3x3_reduce (in-place)
I1217 21:43:40.375356 26585 net.cpp:113] Setting up inception_4a/relu_3x3_reduce
I1217 21:43:40.375422 26585 net.cpp:120] Top shape: 80 96 14 14 (1505280)
I1217 21:43:40.375428 26585 layer_factory.hpp:74] Creating layer inception_4a/3x3
I1217 21:43:40.375437 26585 net.cpp:84] Creating Layer inception_4a/3x3
I1217 21:43:40.375440 26585 net.cpp:380] inception_4a/3x3 <- inception_4a/3x3_reduce
I1217 21:43:40.375449 26585 net.cpp:338] inception_4a/3x3 -> inception_4a/3x3
I1217 21:43:40.375458 26585 net.cpp:113] Setting up inception_4a/3x3
I1217 21:43:40.377776 26585 net.cpp:120] Top shape: 80 208 14 14 (3261440)
I1217 21:43:40.377792 26585 layer_factory.hpp:74] Creating layer inception_4a/relu_3x3
I1217 21:43:40.377800 26585 net.cpp:84] Creating Layer inception_4a/relu_3x3
I1217 21:43:40.377805 26585 net.cpp:380] inception_4a/relu_3x3 <- inception_4a/3x3
I1217 21:43:40.377813 26585 net.cpp:327] inception_4a/relu_3x3 -> inception_4a/3x3 (in-place)
I1217 21:43:40.377820 26585 net.cpp:113] Setting up inception_4a/relu_3x3
I1217 21:43:40.377883 26585 net.cpp:120] Top shape: 80 208 14 14 (3261440)
I1217 21:43:40.377890 26585 layer_factory.hpp:74] Creating layer inception_4a/5x5_reduce
I1217 21:43:40.377899 26585 net.cpp:84] Creating Layer inception_4a/5x5_reduce
I1217 21:43:40.377904 26585 net.cpp:380] inception_4a/5x5_reduce <- pool3/3x3_s2_pool3/3x3_s2_0_split_2
I1217 21:43:40.377910 26585 net.cpp:338] inception_4a/5x5_reduce -> inception_4a/5x5_reduce
I1217 21:43:40.377918 26585 net.cpp:113] Setting up inception_4a/5x5_reduce
I1217 21:43:40.378384 26585 net.cpp:120] Top shape: 80 16 14 14 (250880)
I1217 21:43:40.378398 26585 layer_factory.hpp:74] Creating layer inception_4a/relu_5x5_reduce
I1217 21:43:40.378406 26585 net.cpp:84] Creating Layer inception_4a/relu_5x5_reduce
I1217 21:43:40.378410 26585 net.cpp:380] inception_4a/relu_5x5_reduce <- inception_4a/5x5_reduce
I1217 21:43:40.378417 26585 net.cpp:327] inception_4a/relu_5x5_reduce -> inception_4a/5x5_reduce (in-place)
I1217 21:43:40.378423 26585 net.cpp:113] Setting up inception_4a/relu_5x5_reduce
I1217 21:43:40.378492 26585 net.cpp:120] Top shape: 80 16 14 14 (250880)
I1217 21:43:40.378499 26585 layer_factory.hpp:74] Creating layer inception_4a/5x5
I1217 21:43:40.378507 26585 net.cpp:84] Creating Layer inception_4a/5x5
I1217 21:43:40.378512 26585 net.cpp:380] inception_4a/5x5 <- inception_4a/5x5_reduce
I1217 21:43:40.378518 26585 net.cpp:338] inception_4a/5x5 -> inception_4a/5x5
I1217 21:43:40.378525 26585 net.cpp:113] Setting up inception_4a/5x5
I1217 21:43:40.379115 26585 net.cpp:120] Top shape: 80 48 14 14 (752640)
I1217 21:43:40.379129 26585 layer_factory.hpp:74] Creating layer inception_4a/relu_5x5
I1217 21:43:40.379145 26585 net.cpp:84] Creating Layer inception_4a/relu_5x5
I1217 21:43:40.379150 26585 net.cpp:380] inception_4a/relu_5x5 <- inception_4a/5x5
I1217 21:43:40.379156 26585 net.cpp:327] inception_4a/relu_5x5 -> inception_4a/5x5 (in-place)
I1217 21:43:40.379163 26585 net.cpp:113] Setting up inception_4a/relu_5x5
I1217 21:43:40.379395 26585 net.cpp:120] Top shape: 80 48 14 14 (752640)
I1217 21:43:40.379407 26585 layer_factory.hpp:74] Creating layer inception_4a/pool
I1217 21:43:40.379412 26585 layer_factory.cpp:56] CUDNN does not support padding or multiple tops. Using Caffe's own pooling layer.
I1217 21:43:40.379418 26585 net.cpp:84] Creating Layer inception_4a/pool
I1217 21:43:40.379423 26585 net.cpp:380] inception_4a/pool <- pool3/3x3_s2_pool3/3x3_s2_0_split_3
I1217 21:43:40.379443 26585 net.cpp:338] inception_4a/pool -> inception_4a/pool
I1217 21:43:40.379452 26585 net.cpp:113] Setting up inception_4a/pool
I1217 21:43:40.379461 26585 net.cpp:120] Top shape: 80 480 14 14 (7526400)
I1217 21:43:40.379467 26585 layer_factory.hpp:74] Creating layer inception_4a/pool_proj
I1217 21:43:40.379475 26585 net.cpp:84] Creating Layer inception_4a/pool_proj
I1217 21:43:40.379480 26585 net.cpp:380] inception_4a/pool_proj <- inception_4a/pool
I1217 21:43:40.379488 26585 net.cpp:338] inception_4a/pool_proj -> inception_4a/pool_proj
I1217 21:43:40.379495 26585 net.cpp:113] Setting up inception_4a/pool_proj
I1217 21:43:40.380218 26585 net.cpp:120] Top shape: 80 64 14 14 (1003520)
I1217 21:43:40.380231 26585 layer_factory.hpp:74] Creating layer inception_4a/relu_pool_proj
I1217 21:43:40.380239 26585 net.cpp:84] Creating Layer inception_4a/relu_pool_proj
I1217 21:43:40.380245 26585 net.cpp:380] inception_4a/relu_pool_proj <- inception_4a/pool_proj
I1217 21:43:40.380252 26585 net.cpp:327] inception_4a/relu_pool_proj -> inception_4a/pool_proj (in-place)
I1217 21:43:40.380260 26585 net.cpp:113] Setting up inception_4a/relu_pool_proj
I1217 21:43:40.380326 26585 net.cpp:120] Top shape: 80 64 14 14 (1003520)
I1217 21:43:40.380332 26585 layer_factory.hpp:74] Creating layer inception_4a/output
I1217 21:43:40.380338 26585 net.cpp:84] Creating Layer inception_4a/output
I1217 21:43:40.380343 26585 net.cpp:380] inception_4a/output <- inception_4a/1x1
I1217 21:43:40.380348 26585 net.cpp:380] inception_4a/output <- inception_4a/3x3
I1217 21:43:40.380353 26585 net.cpp:380] inception_4a/output <- inception_4a/5x5
I1217 21:43:40.380357 26585 net.cpp:380] inception_4a/output <- inception_4a/pool_proj
I1217 21:43:40.380363 26585 net.cpp:338] inception_4a/output -> inception_4a/output
I1217 21:43:40.380369 26585 net.cpp:113] Setting up inception_4a/output
I1217 21:43:40.380376 26585 net.cpp:120] Top shape: 80 512 14 14 (8028160)
I1217 21:43:40.380380 26585 layer_factory.hpp:74] Creating layer inception_4a/output_inception_4a/output_0_split
I1217 21:43:40.380389 26585 net.cpp:84] Creating Layer inception_4a/output_inception_4a/output_0_split
I1217 21:43:40.380394 26585 net.cpp:380] inception_4a/output_inception_4a/output_0_split <- inception_4a/output
I1217 21:43:40.380399 26585 net.cpp:338] inception_4a/output_inception_4a/output_0_split -> inception_4a/output_inception_4a/output_0_split_0
I1217 21:43:40.380406 26585 net.cpp:338] inception_4a/output_inception_4a/output_0_split -> inception_4a/output_inception_4a/output_0_split_1
I1217 21:43:40.380412 26585 net.cpp:338] inception_4a/output_inception_4a/output_0_split -> inception_4a/output_inception_4a/output_0_split_2
I1217 21:43:40.380420 26585 net.cpp:338] inception_4a/output_inception_4a/output_0_split -> inception_4a/output_inception_4a/output_0_split_3
I1217 21:43:40.380426 26585 net.cpp:338] inception_4a/output_inception_4a/output_0_split -> inception_4a/output_inception_4a/output_0_split_4
I1217 21:43:40.380432 26585 net.cpp:113] Setting up inception_4a/output_inception_4a/output_0_split
I1217 21:43:40.380439 26585 net.cpp:120] Top shape: 80 512 14 14 (8028160)
I1217 21:43:40.380445 26585 net.cpp:120] Top shape: 80 512 14 14 (8028160)
I1217 21:43:40.380450 26585 net.cpp:120] Top shape: 80 512 14 14 (8028160)
I1217 21:43:40.380453 26585 net.cpp:120] Top shape: 80 512 14 14 (8028160)
I1217 21:43:40.380458 26585 net.cpp:120] Top shape: 80 512 14 14 (8028160)
I1217 21:43:40.380463 26585 layer_factory.hpp:74] Creating layer loss1/ave_pool
I1217 21:43:40.380470 26585 net.cpp:84] Creating Layer loss1/ave_pool
I1217 21:43:40.380473 26585 net.cpp:380] loss1/ave_pool <- inception_4a/output_inception_4a/output_0_split_0
I1217 21:43:40.380481 26585 net.cpp:338] loss1/ave_pool -> loss1/ave_pool
I1217 21:43:40.380486 26585 net.cpp:113] Setting up loss1/ave_pool
I1217 21:43:40.380549 26585 net.cpp:120] Top shape: 80 512 4 4 (655360)
I1217 21:43:40.380555 26585 layer_factory.hpp:74] Creating layer loss1/conv
I1217 21:43:40.380569 26585 net.cpp:84] Creating Layer loss1/conv
I1217 21:43:40.380581 26585 net.cpp:380] loss1/conv <- loss1/ave_pool
I1217 21:43:40.380589 26585 net.cpp:338] loss1/conv -> loss1/conv
I1217 21:43:40.380597 26585 net.cpp:113] Setting up loss1/conv
I1217 21:43:40.381705 26585 net.cpp:120] Top shape: 80 128 4 4 (163840)
I1217 21:43:40.381721 26585 layer_factory.hpp:74] Creating layer loss1/relu_conv
I1217 21:43:40.381729 26585 net.cpp:84] Creating Layer loss1/relu_conv
I1217 21:43:40.381734 26585 net.cpp:380] loss1/relu_conv <- loss1/conv
I1217 21:43:40.381742 26585 net.cpp:327] loss1/relu_conv -> loss1/conv (in-place)
I1217 21:43:40.381749 26585 net.cpp:113] Setting up loss1/relu_conv
I1217 21:43:40.381814 26585 net.cpp:120] Top shape: 80 128 4 4 (163840)
I1217 21:43:40.381819 26585 layer_factory.hpp:74] Creating layer loss1/fc
I1217 21:43:40.381827 26585 net.cpp:84] Creating Layer loss1/fc
I1217 21:43:40.381831 26585 net.cpp:380] loss1/fc <- loss1/conv
I1217 21:43:40.381842 26585 net.cpp:338] loss1/fc -> loss1/fc
I1217 21:43:40.381852 26585 net.cpp:113] Setting up loss1/fc
I1217 21:43:40.403415 26585 net.cpp:120] Top shape: 80 1024 (81920)
I1217 21:43:40.403447 26585 layer_factory.hpp:74] Creating layer loss1/relu_fc
I1217 21:43:40.403460 26585 net.cpp:84] Creating Layer loss1/relu_fc
I1217 21:43:40.403466 26585 net.cpp:380] loss1/relu_fc <- loss1/fc
I1217 21:43:40.403476 26585 net.cpp:327] loss1/relu_fc -> loss1/fc (in-place)
I1217 21:43:40.403489 26585 net.cpp:113] Setting up loss1/relu_fc
I1217 21:43:40.403973 26585 net.cpp:120] Top shape: 80 1024 (81920)
I1217 21:43:40.403986 26585 layer_factory.hpp:74] Creating layer loss1/drop_fc
I1217 21:43:40.404008 26585 net.cpp:84] Creating Layer loss1/drop_fc
I1217 21:43:40.404013 26585 net.cpp:380] loss1/drop_fc <- loss1/fc
I1217 21:43:40.404021 26585 net.cpp:327] loss1/drop_fc -> loss1/fc (in-place)
I1217 21:43:40.404029 26585 net.cpp:113] Setting up loss1/drop_fc
I1217 21:43:40.404038 26585 net.cpp:120] Top shape: 80 1024 (81920)
I1217 21:43:40.404043 26585 layer_factory.hpp:74] Creating layer loss1/classifier_kaggle
I1217 21:43:40.404054 26585 net.cpp:84] Creating Layer loss1/classifier_kaggle
I1217 21:43:40.404058 26585 net.cpp:380] loss1/classifier_kaggle <- loss1/fc
I1217 21:43:40.404065 26585 net.cpp:338] loss1/classifier_kaggle -> loss1/classifier_kaggle
I1217 21:43:40.404074 26585 net.cpp:113] Setting up loss1/classifier_kaggle
I1217 21:43:40.409008 26585 net.cpp:120] Top shape: 80 447 (35760)
I1217 21:43:40.409024 26585 layer_factory.hpp:74] Creating layer loss1/loss
I1217 21:43:40.409030 26585 net.cpp:84] Creating Layer loss1/loss
I1217 21:43:40.409035 26585 net.cpp:380] loss1/loss <- loss1/classifier_kaggle
I1217 21:43:40.409042 26585 net.cpp:380] loss1/loss <- label_data_1_split_0
I1217 21:43:40.409049 26585 net.cpp:338] loss1/loss -> loss1/loss1
I1217 21:43:40.409062 26585 net.cpp:113] Setting up loss1/loss
I1217 21:43:40.409072 26585 layer_factory.hpp:74] Creating layer loss1/loss
I1217 21:43:40.409236 26585 net.cpp:120] Top shape: (1)
I1217 21:43:40.409245 26585 net.cpp:122]     with loss weight 0.3
I1217 21:43:40.409263 26585 layer_factory.hpp:74] Creating layer inception_4b/1x1
I1217 21:43:40.409274 26585 net.cpp:84] Creating Layer inception_4b/1x1
I1217 21:43:40.409281 26585 net.cpp:380] inception_4b/1x1 <- inception_4a/output_inception_4a/output_0_split_1
I1217 21:43:40.409289 26585 net.cpp:338] inception_4b/1x1 -> inception_4b/1x1
I1217 21:43:40.409298 26585 net.cpp:113] Setting up inception_4b/1x1
I1217 21:43:40.410598 26585 net.cpp:120] Top shape: 80 160 14 14 (2508800)
I1217 21:43:40.410615 26585 layer_factory.hpp:74] Creating layer inception_4b/relu_1x1
I1217 21:43:40.410622 26585 net.cpp:84] Creating Layer inception_4b/relu_1x1
I1217 21:43:40.410629 26585 net.cpp:380] inception_4b/relu_1x1 <- inception_4b/1x1
I1217 21:43:40.410634 26585 net.cpp:327] inception_4b/relu_1x1 -> inception_4b/1x1 (in-place)
I1217 21:43:40.410641 26585 net.cpp:113] Setting up inception_4b/relu_1x1
I1217 21:43:40.410707 26585 net.cpp:120] Top shape: 80 160 14 14 (2508800)
I1217 21:43:40.410722 26585 layer_factory.hpp:74] Creating layer inception_4b/3x3_reduce
I1217 21:43:40.410744 26585 net.cpp:84] Creating Layer inception_4b/3x3_reduce
I1217 21:43:40.410750 26585 net.cpp:380] inception_4b/3x3_reduce <- inception_4a/output_inception_4a/output_0_split_2
I1217 21:43:40.410756 26585 net.cpp:338] inception_4b/3x3_reduce -> inception_4b/3x3_reduce
I1217 21:43:40.410764 26585 net.cpp:113] Setting up inception_4b/3x3_reduce
I1217 21:43:40.411778 26585 net.cpp:120] Top shape: 80 112 14 14 (1756160)
I1217 21:43:40.411792 26585 layer_factory.hpp:74] Creating layer inception_4b/relu_3x3_reduce
I1217 21:43:40.411802 26585 net.cpp:84] Creating Layer inception_4b/relu_3x3_reduce
I1217 21:43:40.411806 26585 net.cpp:380] inception_4b/relu_3x3_reduce <- inception_4b/3x3_reduce
I1217 21:43:40.411813 26585 net.cpp:327] inception_4b/relu_3x3_reduce -> inception_4b/3x3_reduce (in-place)
I1217 21:43:40.411819 26585 net.cpp:113] Setting up inception_4b/relu_3x3_reduce
I1217 21:43:40.411882 26585 net.cpp:120] Top shape: 80 112 14 14 (1756160)
I1217 21:43:40.411888 26585 layer_factory.hpp:74] Creating layer inception_4b/3x3
I1217 21:43:40.411897 26585 net.cpp:84] Creating Layer inception_4b/3x3
I1217 21:43:40.411902 26585 net.cpp:380] inception_4b/3x3 <- inception_4b/3x3_reduce
I1217 21:43:40.411908 26585 net.cpp:338] inception_4b/3x3 -> inception_4b/3x3
I1217 21:43:40.411916 26585 net.cpp:113] Setting up inception_4b/3x3
I1217 21:43:40.414746 26585 net.cpp:120] Top shape: 80 224 14 14 (3512320)
I1217 21:43:40.414760 26585 layer_factory.hpp:74] Creating layer inception_4b/relu_3x3
I1217 21:43:40.414772 26585 net.cpp:84] Creating Layer inception_4b/relu_3x3
I1217 21:43:40.414777 26585 net.cpp:380] inception_4b/relu_3x3 <- inception_4b/3x3
I1217 21:43:40.414783 26585 net.cpp:327] inception_4b/relu_3x3 -> inception_4b/3x3 (in-place)
I1217 21:43:40.414790 26585 net.cpp:113] Setting up inception_4b/relu_3x3
I1217 21:43:40.415025 26585 net.cpp:120] Top shape: 80 224 14 14 (3512320)
I1217 21:43:40.415035 26585 layer_factory.hpp:74] Creating layer inception_4b/5x5_reduce
I1217 21:43:40.415045 26585 net.cpp:84] Creating Layer inception_4b/5x5_reduce
I1217 21:43:40.415050 26585 net.cpp:380] inception_4b/5x5_reduce <- inception_4a/output_inception_4a/output_0_split_3
I1217 21:43:40.415060 26585 net.cpp:338] inception_4b/5x5_reduce -> inception_4b/5x5_reduce
I1217 21:43:40.415068 26585 net.cpp:113] Setting up inception_4b/5x5_reduce
I1217 21:43:40.415603 26585 net.cpp:120] Top shape: 80 24 14 14 (376320)
I1217 21:43:40.415617 26585 layer_factory.hpp:74] Creating layer inception_4b/relu_5x5_reduce
I1217 21:43:40.415624 26585 net.cpp:84] Creating Layer inception_4b/relu_5x5_reduce
I1217 21:43:40.415629 26585 net.cpp:380] inception_4b/relu_5x5_reduce <- inception_4b/5x5_reduce
I1217 21:43:40.415637 26585 net.cpp:327] inception_4b/relu_5x5_reduce -> inception_4b/5x5_reduce (in-place)
I1217 21:43:40.415644 26585 net.cpp:113] Setting up inception_4b/relu_5x5_reduce
I1217 21:43:40.415712 26585 net.cpp:120] Top shape: 80 24 14 14 (376320)
I1217 21:43:40.415719 26585 layer_factory.hpp:74] Creating layer inception_4b/5x5
I1217 21:43:40.415727 26585 net.cpp:84] Creating Layer inception_4b/5x5
I1217 21:43:40.415732 26585 net.cpp:380] inception_4b/5x5 <- inception_4b/5x5_reduce
I1217 21:43:40.415740 26585 net.cpp:338] inception_4b/5x5 -> inception_4b/5x5
I1217 21:43:40.415747 26585 net.cpp:113] Setting up inception_4b/5x5
I1217 21:43:40.416551 26585 net.cpp:120] Top shape: 80 64 14 14 (1003520)
I1217 21:43:40.416566 26585 layer_factory.hpp:74] Creating layer inception_4b/relu_5x5
I1217 21:43:40.416576 26585 net.cpp:84] Creating Layer inception_4b/relu_5x5
I1217 21:43:40.416580 26585 net.cpp:380] inception_4b/relu_5x5 <- inception_4b/5x5
I1217 21:43:40.416587 26585 net.cpp:327] inception_4b/relu_5x5 -> inception_4b/5x5 (in-place)
I1217 21:43:40.416594 26585 net.cpp:113] Setting up inception_4b/relu_5x5
I1217 21:43:40.416663 26585 net.cpp:120] Top shape: 80 64 14 14 (1003520)
I1217 21:43:40.416671 26585 layer_factory.hpp:74] Creating layer inception_4b/pool
I1217 21:43:40.416684 26585 layer_factory.cpp:56] CUDNN does not support padding or multiple tops. Using Caffe's own pooling layer.
I1217 21:43:40.416697 26585 net.cpp:84] Creating Layer inception_4b/pool
I1217 21:43:40.416703 26585 net.cpp:380] inception_4b/pool <- inception_4a/output_inception_4a/output_0_split_4
I1217 21:43:40.416709 26585 net.cpp:338] inception_4b/pool -> inception_4b/pool
I1217 21:43:40.416726 26585 net.cpp:113] Setting up inception_4b/pool
I1217 21:43:40.416736 26585 net.cpp:120] Top shape: 80 512 14 14 (8028160)
I1217 21:43:40.416741 26585 layer_factory.hpp:74] Creating layer inception_4b/pool_proj
I1217 21:43:40.416750 26585 net.cpp:84] Creating Layer inception_4b/pool_proj
I1217 21:43:40.416754 26585 net.cpp:380] inception_4b/pool_proj <- inception_4b/pool
I1217 21:43:40.416761 26585 net.cpp:338] inception_4b/pool_proj -> inception_4b/pool_proj
I1217 21:43:40.416767 26585 net.cpp:113] Setting up inception_4b/pool_proj
I1217 21:43:40.417522 26585 net.cpp:120] Top shape: 80 64 14 14 (1003520)
I1217 21:43:40.417538 26585 layer_factory.hpp:74] Creating layer inception_4b/relu_pool_proj
I1217 21:43:40.417549 26585 net.cpp:84] Creating Layer inception_4b/relu_pool_proj
I1217 21:43:40.417554 26585 net.cpp:380] inception_4b/relu_pool_proj <- inception_4b/pool_proj
I1217 21:43:40.417562 26585 net.cpp:327] inception_4b/relu_pool_proj -> inception_4b/pool_proj (in-place)
I1217 21:43:40.417568 26585 net.cpp:113] Setting up inception_4b/relu_pool_proj
I1217 21:43:40.417805 26585 net.cpp:120] Top shape: 80 64 14 14 (1003520)
I1217 21:43:40.417815 26585 layer_factory.hpp:74] Creating layer inception_4b/output
I1217 21:43:40.417824 26585 net.cpp:84] Creating Layer inception_4b/output
I1217 21:43:40.417829 26585 net.cpp:380] inception_4b/output <- inception_4b/1x1
I1217 21:43:40.417835 26585 net.cpp:380] inception_4b/output <- inception_4b/3x3
I1217 21:43:40.417840 26585 net.cpp:380] inception_4b/output <- inception_4b/5x5
I1217 21:43:40.417845 26585 net.cpp:380] inception_4b/output <- inception_4b/pool_proj
I1217 21:43:40.417850 26585 net.cpp:338] inception_4b/output -> inception_4b/output
I1217 21:43:40.417857 26585 net.cpp:113] Setting up inception_4b/output
I1217 21:43:40.417865 26585 net.cpp:120] Top shape: 80 512 14 14 (8028160)
I1217 21:43:40.417871 26585 layer_factory.hpp:74] Creating layer inception_4b/output_inception_4b/output_0_split
I1217 21:43:40.417877 26585 net.cpp:84] Creating Layer inception_4b/output_inception_4b/output_0_split
I1217 21:43:40.417881 26585 net.cpp:380] inception_4b/output_inception_4b/output_0_split <- inception_4b/output
I1217 21:43:40.417888 26585 net.cpp:338] inception_4b/output_inception_4b/output_0_split -> inception_4b/output_inception_4b/output_0_split_0
I1217 21:43:40.417896 26585 net.cpp:338] inception_4b/output_inception_4b/output_0_split -> inception_4b/output_inception_4b/output_0_split_1
I1217 21:43:40.417902 26585 net.cpp:338] inception_4b/output_inception_4b/output_0_split -> inception_4b/output_inception_4b/output_0_split_2
I1217 21:43:40.417908 26585 net.cpp:338] inception_4b/output_inception_4b/output_0_split -> inception_4b/output_inception_4b/output_0_split_3
I1217 21:43:40.417914 26585 net.cpp:113] Setting up inception_4b/output_inception_4b/output_0_split
I1217 21:43:40.417922 26585 net.cpp:120] Top shape: 80 512 14 14 (8028160)
I1217 21:43:40.417927 26585 net.cpp:120] Top shape: 80 512 14 14 (8028160)
I1217 21:43:40.417932 26585 net.cpp:120] Top shape: 80 512 14 14 (8028160)
I1217 21:43:40.417935 26585 net.cpp:120] Top shape: 80 512 14 14 (8028160)
I1217 21:43:40.417940 26585 layer_factory.hpp:74] Creating layer inception_4c/1x1
I1217 21:43:40.417949 26585 net.cpp:84] Creating Layer inception_4c/1x1
I1217 21:43:40.417953 26585 net.cpp:380] inception_4c/1x1 <- inception_4b/output_inception_4b/output_0_split_0
I1217 21:43:40.417959 26585 net.cpp:338] inception_4c/1x1 -> inception_4c/1x1
I1217 21:43:40.417966 26585 net.cpp:113] Setting up inception_4c/1x1
I1217 21:43:40.419095 26585 net.cpp:120] Top shape: 80 128 14 14 (2007040)
I1217 21:43:40.419114 26585 layer_factory.hpp:74] Creating layer inception_4c/relu_1x1
I1217 21:43:40.419131 26585 net.cpp:84] Creating Layer inception_4c/relu_1x1
I1217 21:43:40.419137 26585 net.cpp:380] inception_4c/relu_1x1 <- inception_4c/1x1
I1217 21:43:40.419144 26585 net.cpp:327] inception_4c/relu_1x1 -> inception_4c/1x1 (in-place)
I1217 21:43:40.419152 26585 net.cpp:113] Setting up inception_4c/relu_1x1
I1217 21:43:40.419217 26585 net.cpp:120] Top shape: 80 128 14 14 (2007040)
I1217 21:43:40.419225 26585 layer_factory.hpp:74] Creating layer inception_4c/3x3_reduce
I1217 21:43:40.419232 26585 net.cpp:84] Creating Layer inception_4c/3x3_reduce
I1217 21:43:40.419237 26585 net.cpp:380] inception_4c/3x3_reduce <- inception_4b/output_inception_4b/output_0_split_1
I1217 21:43:40.419244 26585 net.cpp:338] inception_4c/3x3_reduce -> inception_4c/3x3_reduce
I1217 21:43:40.419251 26585 net.cpp:113] Setting up inception_4c/3x3_reduce
I1217 21:43:40.420346 26585 net.cpp:120] Top shape: 80 128 14 14 (2007040)
I1217 21:43:40.420361 26585 layer_factory.hpp:74] Creating layer inception_4c/relu_3x3_reduce
I1217 21:43:40.420369 26585 net.cpp:84] Creating Layer inception_4c/relu_3x3_reduce
I1217 21:43:40.420374 26585 net.cpp:380] inception_4c/relu_3x3_reduce <- inception_4c/3x3_reduce
I1217 21:43:40.420380 26585 net.cpp:327] inception_4c/relu_3x3_reduce -> inception_4c/3x3_reduce (in-place)
I1217 21:43:40.420388 26585 net.cpp:113] Setting up inception_4c/relu_3x3_reduce
I1217 21:43:40.420454 26585 net.cpp:120] Top shape: 80 128 14 14 (2007040)
I1217 21:43:40.420460 26585 layer_factory.hpp:74] Creating layer inception_4c/3x3
I1217 21:43:40.420467 26585 net.cpp:84] Creating Layer inception_4c/3x3
I1217 21:43:40.420471 26585 net.cpp:380] inception_4c/3x3 <- inception_4c/3x3_reduce
I1217 21:43:40.420480 26585 net.cpp:338] inception_4c/3x3 -> inception_4c/3x3
I1217 21:43:40.420487 26585 net.cpp:113] Setting up inception_4c/3x3
I1217 21:43:40.424077 26585 net.cpp:120] Top shape: 80 256 14 14 (4014080)
I1217 21:43:40.424111 26585 layer_factory.hpp:74] Creating layer inception_4c/relu_3x3
I1217 21:43:40.424121 26585 net.cpp:84] Creating Layer inception_4c/relu_3x3
I1217 21:43:40.424127 26585 net.cpp:380] inception_4c/relu_3x3 <- inception_4c/3x3
I1217 21:43:40.424134 26585 net.cpp:327] inception_4c/relu_3x3 -> inception_4c/3x3 (in-place)
I1217 21:43:40.424141 26585 net.cpp:113] Setting up inception_4c/relu_3x3
I1217 21:43:40.424211 26585 net.cpp:120] Top shape: 80 256 14 14 (4014080)
I1217 21:43:40.424216 26585 layer_factory.hpp:74] Creating layer inception_4c/5x5_reduce
I1217 21:43:40.424226 26585 net.cpp:84] Creating Layer inception_4c/5x5_reduce
I1217 21:43:40.424231 26585 net.cpp:380] inception_4c/5x5_reduce <- inception_4b/output_inception_4b/output_0_split_2
I1217 21:43:40.424238 26585 net.cpp:338] inception_4c/5x5_reduce -> inception_4c/5x5_reduce
I1217 21:43:40.424247 26585 net.cpp:113] Setting up inception_4c/5x5_reduce
I1217 21:43:40.424762 26585 net.cpp:120] Top shape: 80 24 14 14 (376320)
I1217 21:43:40.424774 26585 layer_factory.hpp:74] Creating layer inception_4c/relu_5x5_reduce
I1217 21:43:40.424782 26585 net.cpp:84] Creating Layer inception_4c/relu_5x5_reduce
I1217 21:43:40.424787 26585 net.cpp:380] inception_4c/relu_5x5_reduce <- inception_4c/5x5_reduce
I1217 21:43:40.424794 26585 net.cpp:327] inception_4c/relu_5x5_reduce -> inception_4c/5x5_reduce (in-place)
I1217 21:43:40.424801 26585 net.cpp:113] Setting up inception_4c/relu_5x5_reduce
I1217 21:43:40.425042 26585 net.cpp:120] Top shape: 80 24 14 14 (376320)
I1217 21:43:40.425060 26585 layer_factory.hpp:74] Creating layer inception_4c/5x5
I1217 21:43:40.425073 26585 net.cpp:84] Creating Layer inception_4c/5x5
I1217 21:43:40.425078 26585 net.cpp:380] inception_4c/5x5 <- inception_4c/5x5_reduce
I1217 21:43:40.425086 26585 net.cpp:338] inception_4c/5x5 -> inception_4c/5x5
I1217 21:43:40.425093 26585 net.cpp:113] Setting up inception_4c/5x5
I1217 21:43:40.432045 26585 net.cpp:120] Top shape: 80 64 14 14 (1003520)
I1217 21:43:40.432062 26585 layer_factory.hpp:74] Creating layer inception_4c/relu_5x5
I1217 21:43:40.432075 26585 net.cpp:84] Creating Layer inception_4c/relu_5x5
I1217 21:43:40.432087 26585 net.cpp:380] inception_4c/relu_5x5 <- inception_4c/5x5
I1217 21:43:40.432095 26585 net.cpp:327] inception_4c/relu_5x5 -> inception_4c/5x5 (in-place)
I1217 21:43:40.432101 26585 net.cpp:113] Setting up inception_4c/relu_5x5
I1217 21:43:40.432169 26585 net.cpp:120] Top shape: 80 64 14 14 (1003520)
I1217 21:43:40.432175 26585 layer_factory.hpp:74] Creating layer inception_4c/pool
I1217 21:43:40.432181 26585 layer_factory.cpp:56] CUDNN does not support padding or multiple tops. Using Caffe's own pooling layer.
I1217 21:43:40.432188 26585 net.cpp:84] Creating Layer inception_4c/pool
I1217 21:43:40.432193 26585 net.cpp:380] inception_4c/pool <- inception_4b/output_inception_4b/output_0_split_3
I1217 21:43:40.432199 26585 net.cpp:338] inception_4c/pool -> inception_4c/pool
I1217 21:43:40.432207 26585 net.cpp:113] Setting up inception_4c/pool
I1217 21:43:40.432216 26585 net.cpp:120] Top shape: 80 512 14 14 (8028160)
I1217 21:43:40.432220 26585 layer_factory.hpp:74] Creating layer inception_4c/pool_proj
I1217 21:43:40.432229 26585 net.cpp:84] Creating Layer inception_4c/pool_proj
I1217 21:43:40.432235 26585 net.cpp:380] inception_4c/pool_proj <- inception_4c/pool
I1217 21:43:40.432242 26585 net.cpp:338] inception_4c/pool_proj -> inception_4c/pool_proj
I1217 21:43:40.432250 26585 net.cpp:113] Setting up inception_4c/pool_proj
I1217 21:43:40.432996 26585 net.cpp:120] Top shape: 80 64 14 14 (1003520)
I1217 21:43:40.433010 26585 layer_factory.hpp:74] Creating layer inception_4c/relu_pool_proj
I1217 21:43:40.433020 26585 net.cpp:84] Creating Layer inception_4c/relu_pool_proj
I1217 21:43:40.433027 26585 net.cpp:380] inception_4c/relu_pool_proj <- inception_4c/pool_proj
I1217 21:43:40.433032 26585 net.cpp:327] inception_4c/relu_pool_proj -> inception_4c/pool_proj (in-place)
I1217 21:43:40.433039 26585 net.cpp:113] Setting up inception_4c/relu_pool_proj
I1217 21:43:40.433126 26585 net.cpp:120] Top shape: 80 64 14 14 (1003520)
I1217 21:43:40.433136 26585 layer_factory.hpp:74] Creating layer inception_4c/output
I1217 21:43:40.433143 26585 net.cpp:84] Creating Layer inception_4c/output
I1217 21:43:40.433148 26585 net.cpp:380] inception_4c/output <- inception_4c/1x1
I1217 21:43:40.433154 26585 net.cpp:380] inception_4c/output <- inception_4c/3x3
I1217 21:43:40.433159 26585 net.cpp:380] inception_4c/output <- inception_4c/5x5
I1217 21:43:40.433164 26585 net.cpp:380] inception_4c/output <- inception_4c/pool_proj
I1217 21:43:40.433171 26585 net.cpp:338] inception_4c/output -> inception_4c/output
I1217 21:43:40.433178 26585 net.cpp:113] Setting up inception_4c/output
I1217 21:43:40.433187 26585 net.cpp:120] Top shape: 80 512 14 14 (8028160)
I1217 21:43:40.433190 26585 layer_factory.hpp:74] Creating layer inception_4c/output_inception_4c/output_0_split
I1217 21:43:40.433197 26585 net.cpp:84] Creating Layer inception_4c/output_inception_4c/output_0_split
I1217 21:43:40.433202 26585 net.cpp:380] inception_4c/output_inception_4c/output_0_split <- inception_4c/output
I1217 21:43:40.433208 26585 net.cpp:338] inception_4c/output_inception_4c/output_0_split -> inception_4c/output_inception_4c/output_0_split_0
I1217 21:43:40.433215 26585 net.cpp:338] inception_4c/output_inception_4c/output_0_split -> inception_4c/output_inception_4c/output_0_split_1
I1217 21:43:40.433223 26585 net.cpp:338] inception_4c/output_inception_4c/output_0_split -> inception_4c/output_inception_4c/output_0_split_2
I1217 21:43:40.433228 26585 net.cpp:338] inception_4c/output_inception_4c/output_0_split -> inception_4c/output_inception_4c/output_0_split_3
I1217 21:43:40.433234 26585 net.cpp:113] Setting up inception_4c/output_inception_4c/output_0_split
I1217 21:43:40.433241 26585 net.cpp:120] Top shape: 80 512 14 14 (8028160)
I1217 21:43:40.433245 26585 net.cpp:120] Top shape: 80 512 14 14 (8028160)
I1217 21:43:40.433250 26585 net.cpp:120] Top shape: 80 512 14 14 (8028160)
I1217 21:43:40.433255 26585 net.cpp:120] Top shape: 80 512 14 14 (8028160)
I1217 21:43:40.433264 26585 layer_factory.hpp:74] Creating layer inception_4d/1x1
I1217 21:43:40.433280 26585 net.cpp:84] Creating Layer inception_4d/1x1
I1217 21:43:40.433286 26585 net.cpp:380] inception_4d/1x1 <- inception_4c/output_inception_4c/output_0_split_0
I1217 21:43:40.433292 26585 net.cpp:338] inception_4d/1x1 -> inception_4d/1x1
I1217 21:43:40.433300 26585 net.cpp:113] Setting up inception_4d/1x1
I1217 21:43:40.434312 26585 net.cpp:120] Top shape: 80 112 14 14 (1756160)
I1217 21:43:40.434326 26585 layer_factory.hpp:74] Creating layer inception_4d/relu_1x1
I1217 21:43:40.434335 26585 net.cpp:84] Creating Layer inception_4d/relu_1x1
I1217 21:43:40.434340 26585 net.cpp:380] inception_4d/relu_1x1 <- inception_4d/1x1
I1217 21:43:40.434348 26585 net.cpp:327] inception_4d/relu_1x1 -> inception_4d/1x1 (in-place)
I1217 21:43:40.434356 26585 net.cpp:113] Setting up inception_4d/relu_1x1
I1217 21:43:40.434423 26585 net.cpp:120] Top shape: 80 112 14 14 (1756160)
I1217 21:43:40.434430 26585 layer_factory.hpp:74] Creating layer inception_4d/3x3_reduce
I1217 21:43:40.434456 26585 net.cpp:84] Creating Layer inception_4d/3x3_reduce
I1217 21:43:40.434464 26585 net.cpp:380] inception_4d/3x3_reduce <- inception_4c/output_inception_4c/output_0_split_1
I1217 21:43:40.434473 26585 net.cpp:338] inception_4d/3x3_reduce -> inception_4d/3x3_reduce
I1217 21:43:40.434481 26585 net.cpp:113] Setting up inception_4d/3x3_reduce
I1217 21:43:40.435684 26585 net.cpp:120] Top shape: 80 144 14 14 (2257920)
I1217 21:43:40.435699 26585 layer_factory.hpp:74] Creating layer inception_4d/relu_3x3_reduce
I1217 21:43:40.435709 26585 net.cpp:84] Creating Layer inception_4d/relu_3x3_reduce
I1217 21:43:40.435715 26585 net.cpp:380] inception_4d/relu_3x3_reduce <- inception_4d/3x3_reduce
I1217 21:43:40.435721 26585 net.cpp:327] inception_4d/relu_3x3_reduce -> inception_4d/3x3_reduce (in-place)
I1217 21:43:40.435729 26585 net.cpp:113] Setting up inception_4d/relu_3x3_reduce
I1217 21:43:40.435967 26585 net.cpp:120] Top shape: 80 144 14 14 (2257920)
I1217 21:43:40.435977 26585 layer_factory.hpp:74] Creating layer inception_4d/3x3
I1217 21:43:40.435987 26585 net.cpp:84] Creating Layer inception_4d/3x3
I1217 21:43:40.435993 26585 net.cpp:380] inception_4d/3x3 <- inception_4d/3x3_reduce
I1217 21:43:40.436002 26585 net.cpp:338] inception_4d/3x3 -> inception_4d/3x3
I1217 21:43:40.436009 26585 net.cpp:113] Setting up inception_4d/3x3
I1217 21:43:40.440402 26585 net.cpp:120] Top shape: 80 288 14 14 (4515840)
I1217 21:43:40.440418 26585 layer_factory.hpp:74] Creating layer inception_4d/relu_3x3
I1217 21:43:40.440425 26585 net.cpp:84] Creating Layer inception_4d/relu_3x3
I1217 21:43:40.440431 26585 net.cpp:380] inception_4d/relu_3x3 <- inception_4d/3x3
I1217 21:43:40.440438 26585 net.cpp:327] inception_4d/relu_3x3 -> inception_4d/3x3 (in-place)
I1217 21:43:40.440444 26585 net.cpp:113] Setting up inception_4d/relu_3x3
I1217 21:43:40.440513 26585 net.cpp:120] Top shape: 80 288 14 14 (4515840)
I1217 21:43:40.440521 26585 layer_factory.hpp:74] Creating layer inception_4d/5x5_reduce
I1217 21:43:40.440527 26585 net.cpp:84] Creating Layer inception_4d/5x5_reduce
I1217 21:43:40.440532 26585 net.cpp:380] inception_4d/5x5_reduce <- inception_4c/output_inception_4c/output_0_split_2
I1217 21:43:40.440541 26585 net.cpp:338] inception_4d/5x5_reduce -> inception_4d/5x5_reduce
I1217 21:43:40.440549 26585 net.cpp:113] Setting up inception_4d/5x5_reduce
I1217 21:43:40.441126 26585 net.cpp:120] Top shape: 80 32 14 14 (501760)
I1217 21:43:40.441143 26585 layer_factory.hpp:74] Creating layer inception_4d/relu_5x5_reduce
I1217 21:43:40.441150 26585 net.cpp:84] Creating Layer inception_4d/relu_5x5_reduce
I1217 21:43:40.441156 26585 net.cpp:380] inception_4d/relu_5x5_reduce <- inception_4d/5x5_reduce
I1217 21:43:40.441162 26585 net.cpp:327] inception_4d/relu_5x5_reduce -> inception_4d/5x5_reduce (in-place)
I1217 21:43:40.441170 26585 net.cpp:113] Setting up inception_4d/relu_5x5_reduce
I1217 21:43:40.441236 26585 net.cpp:120] Top shape: 80 32 14 14 (501760)
I1217 21:43:40.441242 26585 layer_factory.hpp:74] Creating layer inception_4d/5x5
I1217 21:43:40.441256 26585 net.cpp:84] Creating Layer inception_4d/5x5
I1217 21:43:40.441267 26585 net.cpp:380] inception_4d/5x5 <- inception_4d/5x5_reduce
I1217 21:43:40.441277 26585 net.cpp:338] inception_4d/5x5 -> inception_4d/5x5
I1217 21:43:40.441285 26585 net.cpp:113] Setting up inception_4d/5x5
I1217 21:43:40.442267 26585 net.cpp:120] Top shape: 80 64 14 14 (1003520)
I1217 21:43:40.442283 26585 layer_factory.hpp:74] Creating layer inception_4d/relu_5x5
I1217 21:43:40.442289 26585 net.cpp:84] Creating Layer inception_4d/relu_5x5
I1217 21:43:40.442296 26585 net.cpp:380] inception_4d/relu_5x5 <- inception_4d/5x5
I1217 21:43:40.442301 26585 net.cpp:327] inception_4d/relu_5x5 -> inception_4d/5x5 (in-place)
I1217 21:43:40.442308 26585 net.cpp:113] Setting up inception_4d/relu_5x5
I1217 21:43:40.442373 26585 net.cpp:120] Top shape: 80 64 14 14 (1003520)
I1217 21:43:40.442379 26585 layer_factory.hpp:74] Creating layer inception_4d/pool
I1217 21:43:40.442384 26585 layer_factory.cpp:56] CUDNN does not support padding or multiple tops. Using Caffe's own pooling layer.
I1217 21:43:40.442391 26585 net.cpp:84] Creating Layer inception_4d/pool
I1217 21:43:40.442396 26585 net.cpp:380] inception_4d/pool <- inception_4c/output_inception_4c/output_0_split_3
I1217 21:43:40.442404 26585 net.cpp:338] inception_4d/pool -> inception_4d/pool
I1217 21:43:40.442410 26585 net.cpp:113] Setting up inception_4d/pool
I1217 21:43:40.442420 26585 net.cpp:120] Top shape: 80 512 14 14 (8028160)
I1217 21:43:40.442425 26585 layer_factory.hpp:74] Creating layer inception_4d/pool_proj
I1217 21:43:40.442435 26585 net.cpp:84] Creating Layer inception_4d/pool_proj
I1217 21:43:40.442440 26585 net.cpp:380] inception_4d/pool_proj <- inception_4d/pool
I1217 21:43:40.442445 26585 net.cpp:338] inception_4d/pool_proj -> inception_4d/pool_proj
I1217 21:43:40.442452 26585 net.cpp:113] Setting up inception_4d/pool_proj
I1217 21:43:40.443199 26585 net.cpp:120] Top shape: 80 64 14 14 (1003520)
I1217 21:43:40.443214 26585 layer_factory.hpp:74] Creating layer inception_4d/relu_pool_proj
I1217 21:43:40.443222 26585 net.cpp:84] Creating Layer inception_4d/relu_pool_proj
I1217 21:43:40.443227 26585 net.cpp:380] inception_4d/relu_pool_proj <- inception_4d/pool_proj
I1217 21:43:40.443233 26585 net.cpp:327] inception_4d/relu_pool_proj -> inception_4d/pool_proj (in-place)
I1217 21:43:40.443238 26585 net.cpp:113] Setting up inception_4d/relu_pool_proj
I1217 21:43:40.443473 26585 net.cpp:120] Top shape: 80 64 14 14 (1003520)
I1217 21:43:40.443485 26585 layer_factory.hpp:74] Creating layer inception_4d/output
I1217 21:43:40.443492 26585 net.cpp:84] Creating Layer inception_4d/output
I1217 21:43:40.443498 26585 net.cpp:380] inception_4d/output <- inception_4d/1x1
I1217 21:43:40.443505 26585 net.cpp:380] inception_4d/output <- inception_4d/3x3
I1217 21:43:40.443509 26585 net.cpp:380] inception_4d/output <- inception_4d/5x5
I1217 21:43:40.443513 26585 net.cpp:380] inception_4d/output <- inception_4d/pool_proj
I1217 21:43:40.443519 26585 net.cpp:338] inception_4d/output -> inception_4d/output
I1217 21:43:40.443526 26585 net.cpp:113] Setting up inception_4d/output
I1217 21:43:40.443534 26585 net.cpp:120] Top shape: 80 528 14 14 (8279040)
I1217 21:43:40.443538 26585 layer_factory.hpp:74] Creating layer inception_4d/output_inception_4d/output_0_split
I1217 21:43:40.443547 26585 net.cpp:84] Creating Layer inception_4d/output_inception_4d/output_0_split
I1217 21:43:40.443552 26585 net.cpp:380] inception_4d/output_inception_4d/output_0_split <- inception_4d/output
I1217 21:43:40.443557 26585 net.cpp:338] inception_4d/output_inception_4d/output_0_split -> inception_4d/output_inception_4d/output_0_split_0
I1217 21:43:40.443563 26585 net.cpp:338] inception_4d/output_inception_4d/output_0_split -> inception_4d/output_inception_4d/output_0_split_1
I1217 21:43:40.443570 26585 net.cpp:338] inception_4d/output_inception_4d/output_0_split -> inception_4d/output_inception_4d/output_0_split_2
I1217 21:43:40.443577 26585 net.cpp:338] inception_4d/output_inception_4d/output_0_split -> inception_4d/output_inception_4d/output_0_split_3
I1217 21:43:40.443593 26585 net.cpp:338] inception_4d/output_inception_4d/output_0_split -> inception_4d/output_inception_4d/output_0_split_4
I1217 21:43:40.443600 26585 net.cpp:113] Setting up inception_4d/output_inception_4d/output_0_split
I1217 21:43:40.443610 26585 net.cpp:120] Top shape: 80 528 14 14 (8279040)
I1217 21:43:40.443615 26585 net.cpp:120] Top shape: 80 528 14 14 (8279040)
I1217 21:43:40.443620 26585 net.cpp:120] Top shape: 80 528 14 14 (8279040)
I1217 21:43:40.443625 26585 net.cpp:120] Top shape: 80 528 14 14 (8279040)
I1217 21:43:40.443629 26585 net.cpp:120] Top shape: 80 528 14 14 (8279040)
I1217 21:43:40.443634 26585 layer_factory.hpp:74] Creating layer loss2/ave_pool
I1217 21:43:40.443640 26585 net.cpp:84] Creating Layer loss2/ave_pool
I1217 21:43:40.443645 26585 net.cpp:380] loss2/ave_pool <- inception_4d/output_inception_4d/output_0_split_0
I1217 21:43:40.443655 26585 net.cpp:338] loss2/ave_pool -> loss2/ave_pool
I1217 21:43:40.443661 26585 net.cpp:113] Setting up loss2/ave_pool
I1217 21:43:40.443730 26585 net.cpp:120] Top shape: 80 528 4 4 (675840)
I1217 21:43:40.443737 26585 layer_factory.hpp:74] Creating layer loss2/conv
I1217 21:43:40.443747 26585 net.cpp:84] Creating Layer loss2/conv
I1217 21:43:40.443753 26585 net.cpp:380] loss2/conv <- loss2/ave_pool
I1217 21:43:40.443760 26585 net.cpp:338] loss2/conv -> loss2/conv
I1217 21:43:40.443768 26585 net.cpp:113] Setting up loss2/conv
I1217 21:43:40.444890 26585 net.cpp:120] Top shape: 80 128 4 4 (163840)
I1217 21:43:40.444905 26585 layer_factory.hpp:74] Creating layer loss2/relu_conv
I1217 21:43:40.444913 26585 net.cpp:84] Creating Layer loss2/relu_conv
I1217 21:43:40.444918 26585 net.cpp:380] loss2/relu_conv <- loss2/conv
I1217 21:43:40.444924 26585 net.cpp:327] loss2/relu_conv -> loss2/conv (in-place)
I1217 21:43:40.444931 26585 net.cpp:113] Setting up loss2/relu_conv
I1217 21:43:40.444998 26585 net.cpp:120] Top shape: 80 128 4 4 (163840)
I1217 21:43:40.445003 26585 layer_factory.hpp:74] Creating layer loss2/fc
I1217 21:43:40.445013 26585 net.cpp:84] Creating Layer loss2/fc
I1217 21:43:40.445019 26585 net.cpp:380] loss2/fc <- loss2/conv
I1217 21:43:40.445026 26585 net.cpp:338] loss2/fc -> loss2/fc
I1217 21:43:40.445034 26585 net.cpp:113] Setting up loss2/fc
I1217 21:43:40.466719 26585 net.cpp:120] Top shape: 80 1024 (81920)
I1217 21:43:40.466753 26585 layer_factory.hpp:74] Creating layer loss2/relu_fc
I1217 21:43:40.466765 26585 net.cpp:84] Creating Layer loss2/relu_fc
I1217 21:43:40.466773 26585 net.cpp:380] loss2/relu_fc <- loss2/fc
I1217 21:43:40.466785 26585 net.cpp:327] loss2/relu_fc -> loss2/fc (in-place)
I1217 21:43:40.466796 26585 net.cpp:113] Setting up loss2/relu_fc
I1217 21:43:40.467216 26585 net.cpp:120] Top shape: 80 1024 (81920)
I1217 21:43:40.467229 26585 layer_factory.hpp:74] Creating layer loss2/drop_fc
I1217 21:43:40.467239 26585 net.cpp:84] Creating Layer loss2/drop_fc
I1217 21:43:40.467244 26585 net.cpp:380] loss2/drop_fc <- loss2/fc
I1217 21:43:40.467252 26585 net.cpp:327] loss2/drop_fc -> loss2/fc (in-place)
I1217 21:43:40.467259 26585 net.cpp:113] Setting up loss2/drop_fc
I1217 21:43:40.467267 26585 net.cpp:120] Top shape: 80 1024 (81920)
I1217 21:43:40.467272 26585 layer_factory.hpp:74] Creating layer loss2/classifier_kaggle
I1217 21:43:40.467281 26585 net.cpp:84] Creating Layer loss2/classifier_kaggle
I1217 21:43:40.467285 26585 net.cpp:380] loss2/classifier_kaggle <- loss2/fc
I1217 21:43:40.467293 26585 net.cpp:338] loss2/classifier_kaggle -> loss2/classifier_kaggle
I1217 21:43:40.467303 26585 net.cpp:113] Setting up loss2/classifier_kaggle
I1217 21:43:40.472252 26585 net.cpp:120] Top shape: 80 447 (35760)
I1217 21:43:40.472272 26585 layer_factory.hpp:74] Creating layer loss2/loss
I1217 21:43:40.472283 26585 net.cpp:84] Creating Layer loss2/loss
I1217 21:43:40.472290 26585 net.cpp:380] loss2/loss <- loss2/classifier_kaggle
I1217 21:43:40.472296 26585 net.cpp:380] loss2/loss <- label_data_1_split_1
I1217 21:43:40.472303 26585 net.cpp:338] loss2/loss -> loss2/loss1
I1217 21:43:40.472321 26585 net.cpp:113] Setting up loss2/loss
I1217 21:43:40.472340 26585 layer_factory.hpp:74] Creating layer loss2/loss
I1217 21:43:40.472522 26585 net.cpp:120] Top shape: (1)
I1217 21:43:40.472529 26585 net.cpp:122]     with loss weight 0.3
I1217 21:43:40.472542 26585 layer_factory.hpp:74] Creating layer inception_4e/1x1
I1217 21:43:40.472553 26585 net.cpp:84] Creating Layer inception_4e/1x1
I1217 21:43:40.472559 26585 net.cpp:380] inception_4e/1x1 <- inception_4d/output_inception_4d/output_0_split_1
I1217 21:43:40.472566 26585 net.cpp:338] inception_4e/1x1 -> inception_4e/1x1
I1217 21:43:40.472574 26585 net.cpp:113] Setting up inception_4e/1x1
I1217 21:43:40.474586 26585 net.cpp:120] Top shape: 80 256 14 14 (4014080)
I1217 21:43:40.474604 26585 layer_factory.hpp:74] Creating layer inception_4e/relu_1x1
I1217 21:43:40.474614 26585 net.cpp:84] Creating Layer inception_4e/relu_1x1
I1217 21:43:40.474619 26585 net.cpp:380] inception_4e/relu_1x1 <- inception_4e/1x1
I1217 21:43:40.474627 26585 net.cpp:327] inception_4e/relu_1x1 -> inception_4e/1x1 (in-place)
I1217 21:43:40.474633 26585 net.cpp:113] Setting up inception_4e/relu_1x1
I1217 21:43:40.474702 26585 net.cpp:120] Top shape: 80 256 14 14 (4014080)
I1217 21:43:40.474709 26585 layer_factory.hpp:74] Creating layer inception_4e/3x3_reduce
I1217 21:43:40.474716 26585 net.cpp:84] Creating Layer inception_4e/3x3_reduce
I1217 21:43:40.474720 26585 net.cpp:380] inception_4e/3x3_reduce <- inception_4d/output_inception_4d/output_0_split_2
I1217 21:43:40.474730 26585 net.cpp:338] inception_4e/3x3_reduce -> inception_4e/3x3_reduce
I1217 21:43:40.474736 26585 net.cpp:113] Setting up inception_4e/3x3_reduce
I1217 21:43:40.476052 26585 net.cpp:120] Top shape: 80 160 14 14 (2508800)
I1217 21:43:40.476066 26585 layer_factory.hpp:74] Creating layer inception_4e/relu_3x3_reduce
I1217 21:43:40.476074 26585 net.cpp:84] Creating Layer inception_4e/relu_3x3_reduce
I1217 21:43:40.476079 26585 net.cpp:380] inception_4e/relu_3x3_reduce <- inception_4e/3x3_reduce
I1217 21:43:40.476086 26585 net.cpp:327] inception_4e/relu_3x3_reduce -> inception_4e/3x3_reduce (in-place)
I1217 21:43:40.476094 26585 net.cpp:113] Setting up inception_4e/relu_3x3_reduce
I1217 21:43:40.476162 26585 net.cpp:120] Top shape: 80 160 14 14 (2508800)
I1217 21:43:40.476168 26585 layer_factory.hpp:74] Creating layer inception_4e/3x3
I1217 21:43:40.476178 26585 net.cpp:84] Creating Layer inception_4e/3x3
I1217 21:43:40.476183 26585 net.cpp:380] inception_4e/3x3 <- inception_4e/3x3_reduce
I1217 21:43:40.476191 26585 net.cpp:338] inception_4e/3x3 -> inception_4e/3x3
I1217 21:43:40.476197 26585 net.cpp:113] Setting up inception_4e/3x3
I1217 21:43:40.481590 26585 net.cpp:120] Top shape: 80 320 14 14 (5017600)
I1217 21:43:40.481609 26585 layer_factory.hpp:74] Creating layer inception_4e/relu_3x3
I1217 21:43:40.481619 26585 net.cpp:84] Creating Layer inception_4e/relu_3x3
I1217 21:43:40.481626 26585 net.cpp:380] inception_4e/relu_3x3 <- inception_4e/3x3
I1217 21:43:40.481632 26585 net.cpp:327] inception_4e/relu_3x3 -> inception_4e/3x3 (in-place)
I1217 21:43:40.481639 26585 net.cpp:113] Setting up inception_4e/relu_3x3
I1217 21:43:40.481883 26585 net.cpp:120] Top shape: 80 320 14 14 (5017600)
I1217 21:43:40.481894 26585 layer_factory.hpp:74] Creating layer inception_4e/5x5_reduce
I1217 21:43:40.481904 26585 net.cpp:84] Creating Layer inception_4e/5x5_reduce
I1217 21:43:40.481909 26585 net.cpp:380] inception_4e/5x5_reduce <- inception_4d/output_inception_4d/output_0_split_3
I1217 21:43:40.481917 26585 net.cpp:338] inception_4e/5x5_reduce -> inception_4e/5x5_reduce
I1217 21:43:40.481925 26585 net.cpp:113] Setting up inception_4e/5x5_reduce
I1217 21:43:40.482504 26585 net.cpp:120] Top shape: 80 32 14 14 (501760)
I1217 21:43:40.482518 26585 layer_factory.hpp:74] Creating layer inception_4e/relu_5x5_reduce
I1217 21:43:40.482525 26585 net.cpp:84] Creating Layer inception_4e/relu_5x5_reduce
I1217 21:43:40.482530 26585 net.cpp:380] inception_4e/relu_5x5_reduce <- inception_4e/5x5_reduce
I1217 21:43:40.482538 26585 net.cpp:327] inception_4e/relu_5x5_reduce -> inception_4e/5x5_reduce (in-place)
I1217 21:43:40.482564 26585 net.cpp:113] Setting up inception_4e/relu_5x5_reduce
I1217 21:43:40.482635 26585 net.cpp:120] Top shape: 80 32 14 14 (501760)
I1217 21:43:40.482640 26585 layer_factory.hpp:74] Creating layer inception_4e/5x5
I1217 21:43:40.482669 26585 net.cpp:84] Creating Layer inception_4e/5x5
I1217 21:43:40.482674 26585 net.cpp:380] inception_4e/5x5 <- inception_4e/5x5_reduce
I1217 21:43:40.482682 26585 net.cpp:338] inception_4e/5x5 -> inception_4e/5x5
I1217 21:43:40.482689 26585 net.cpp:113] Setting up inception_4e/5x5
I1217 21:43:40.484186 26585 net.cpp:120] Top shape: 80 128 14 14 (2007040)
I1217 21:43:40.484201 26585 layer_factory.hpp:74] Creating layer inception_4e/relu_5x5
I1217 21:43:40.484208 26585 net.cpp:84] Creating Layer inception_4e/relu_5x5
I1217 21:43:40.484213 26585 net.cpp:380] inception_4e/relu_5x5 <- inception_4e/5x5
I1217 21:43:40.484220 26585 net.cpp:327] inception_4e/relu_5x5 -> inception_4e/5x5 (in-place)
I1217 21:43:40.484226 26585 net.cpp:113] Setting up inception_4e/relu_5x5
I1217 21:43:40.484293 26585 net.cpp:120] Top shape: 80 128 14 14 (2007040)
I1217 21:43:40.484300 26585 layer_factory.hpp:74] Creating layer inception_4e/pool
I1217 21:43:40.484307 26585 layer_factory.cpp:56] CUDNN does not support padding or multiple tops. Using Caffe's own pooling layer.
I1217 21:43:40.484314 26585 net.cpp:84] Creating Layer inception_4e/pool
I1217 21:43:40.484319 26585 net.cpp:380] inception_4e/pool <- inception_4d/output_inception_4d/output_0_split_4
I1217 21:43:40.484325 26585 net.cpp:338] inception_4e/pool -> inception_4e/pool
I1217 21:43:40.484333 26585 net.cpp:113] Setting up inception_4e/pool
I1217 21:43:40.484341 26585 net.cpp:120] Top shape: 80 528 14 14 (8279040)
I1217 21:43:40.484346 26585 layer_factory.hpp:74] Creating layer inception_4e/pool_proj
I1217 21:43:40.484355 26585 net.cpp:84] Creating Layer inception_4e/pool_proj
I1217 21:43:40.484359 26585 net.cpp:380] inception_4e/pool_proj <- inception_4e/pool
I1217 21:43:40.484366 26585 net.cpp:338] inception_4e/pool_proj -> inception_4e/pool_proj
I1217 21:43:40.484372 26585 net.cpp:113] Setting up inception_4e/pool_proj
I1217 21:43:40.485512 26585 net.cpp:120] Top shape: 80 128 14 14 (2007040)
I1217 21:43:40.485527 26585 layer_factory.hpp:74] Creating layer inception_4e/relu_pool_proj
I1217 21:43:40.485535 26585 net.cpp:84] Creating Layer inception_4e/relu_pool_proj
I1217 21:43:40.485540 26585 net.cpp:380] inception_4e/relu_pool_proj <- inception_4e/pool_proj
I1217 21:43:40.485549 26585 net.cpp:327] inception_4e/relu_pool_proj -> inception_4e/pool_proj (in-place)
I1217 21:43:40.485556 26585 net.cpp:113] Setting up inception_4e/relu_pool_proj
I1217 21:43:40.485622 26585 net.cpp:120] Top shape: 80 128 14 14 (2007040)
I1217 21:43:40.485628 26585 layer_factory.hpp:74] Creating layer inception_4e/output
I1217 21:43:40.485635 26585 net.cpp:84] Creating Layer inception_4e/output
I1217 21:43:40.485640 26585 net.cpp:380] inception_4e/output <- inception_4e/1x1
I1217 21:43:40.485646 26585 net.cpp:380] inception_4e/output <- inception_4e/3x3
I1217 21:43:40.485651 26585 net.cpp:380] inception_4e/output <- inception_4e/5x5
I1217 21:43:40.485654 26585 net.cpp:380] inception_4e/output <- inception_4e/pool_proj
I1217 21:43:40.485662 26585 net.cpp:338] inception_4e/output -> inception_4e/output
I1217 21:43:40.485669 26585 net.cpp:113] Setting up inception_4e/output
I1217 21:43:40.485677 26585 net.cpp:120] Top shape: 80 832 14 14 (13045760)
I1217 21:43:40.485682 26585 layer_factory.hpp:74] Creating layer pool4/3x3_s2
I1217 21:43:40.485688 26585 net.cpp:84] Creating Layer pool4/3x3_s2
I1217 21:43:40.485693 26585 net.cpp:380] pool4/3x3_s2 <- inception_4e/output
I1217 21:43:40.485702 26585 net.cpp:338] pool4/3x3_s2 -> pool4/3x3_s2
I1217 21:43:40.485708 26585 net.cpp:113] Setting up pool4/3x3_s2
I1217 21:43:40.485951 26585 net.cpp:120] Top shape: 80 832 7 7 (3261440)
I1217 21:43:40.485963 26585 layer_factory.hpp:74] Creating layer pool4/3x3_s2_pool4/3x3_s2_0_split
I1217 21:43:40.485978 26585 net.cpp:84] Creating Layer pool4/3x3_s2_pool4/3x3_s2_0_split
I1217 21:43:40.485991 26585 net.cpp:380] pool4/3x3_s2_pool4/3x3_s2_0_split <- pool4/3x3_s2
I1217 21:43:40.485998 26585 net.cpp:338] pool4/3x3_s2_pool4/3x3_s2_0_split -> pool4/3x3_s2_pool4/3x3_s2_0_split_0
I1217 21:43:40.486006 26585 net.cpp:338] pool4/3x3_s2_pool4/3x3_s2_0_split -> pool4/3x3_s2_pool4/3x3_s2_0_split_1
I1217 21:43:40.486012 26585 net.cpp:338] pool4/3x3_s2_pool4/3x3_s2_0_split -> pool4/3x3_s2_pool4/3x3_s2_0_split_2
I1217 21:43:40.486018 26585 net.cpp:338] pool4/3x3_s2_pool4/3x3_s2_0_split -> pool4/3x3_s2_pool4/3x3_s2_0_split_3
I1217 21:43:40.486024 26585 net.cpp:113] Setting up pool4/3x3_s2_pool4/3x3_s2_0_split
I1217 21:43:40.486032 26585 net.cpp:120] Top shape: 80 832 7 7 (3261440)
I1217 21:43:40.486037 26585 net.cpp:120] Top shape: 80 832 7 7 (3261440)
I1217 21:43:40.486042 26585 net.cpp:120] Top shape: 80 832 7 7 (3261440)
I1217 21:43:40.486045 26585 net.cpp:120] Top shape: 80 832 7 7 (3261440)
I1217 21:43:40.486050 26585 layer_factory.hpp:74] Creating layer inception_5a/1x1
I1217 21:43:40.486059 26585 net.cpp:84] Creating Layer inception_5a/1x1
I1217 21:43:40.486063 26585 net.cpp:380] inception_5a/1x1 <- pool4/3x3_s2_pool4/3x3_s2_0_split_0
I1217 21:43:40.486071 26585 net.cpp:338] inception_5a/1x1 -> inception_5a/1x1
I1217 21:43:40.486079 26585 net.cpp:113] Setting up inception_5a/1x1
I1217 21:43:40.488801 26585 net.cpp:120] Top shape: 80 256 7 7 (1003520)
I1217 21:43:40.488816 26585 layer_factory.hpp:74] Creating layer inception_5a/relu_1x1
I1217 21:43:40.488826 26585 net.cpp:84] Creating Layer inception_5a/relu_1x1
I1217 21:43:40.488831 26585 net.cpp:380] inception_5a/relu_1x1 <- inception_5a/1x1
I1217 21:43:40.488837 26585 net.cpp:327] inception_5a/relu_1x1 -> inception_5a/1x1 (in-place)
I1217 21:43:40.488847 26585 net.cpp:113] Setting up inception_5a/relu_1x1
I1217 21:43:40.488911 26585 net.cpp:120] Top shape: 80 256 7 7 (1003520)
I1217 21:43:40.488919 26585 layer_factory.hpp:74] Creating layer inception_5a/3x3_reduce
I1217 21:43:40.488929 26585 net.cpp:84] Creating Layer inception_5a/3x3_reduce
I1217 21:43:40.488934 26585 net.cpp:380] inception_5a/3x3_reduce <- pool4/3x3_s2_pool4/3x3_s2_0_split_1
I1217 21:43:40.488941 26585 net.cpp:338] inception_5a/3x3_reduce -> inception_5a/3x3_reduce
I1217 21:43:40.488950 26585 net.cpp:113] Setting up inception_5a/3x3_reduce
I1217 21:43:40.490792 26585 net.cpp:120] Top shape: 80 160 7 7 (627200)
I1217 21:43:40.490808 26585 layer_factory.hpp:74] Creating layer inception_5a/relu_3x3_reduce
I1217 21:43:40.490818 26585 net.cpp:84] Creating Layer inception_5a/relu_3x3_reduce
I1217 21:43:40.490824 26585 net.cpp:380] inception_5a/relu_3x3_reduce <- inception_5a/3x3_reduce
I1217 21:43:40.490830 26585 net.cpp:327] inception_5a/relu_3x3_reduce -> inception_5a/3x3_reduce (in-place)
I1217 21:43:40.490838 26585 net.cpp:113] Setting up inception_5a/relu_3x3_reduce
I1217 21:43:40.490912 26585 net.cpp:120] Top shape: 80 160 7 7 (627200)
I1217 21:43:40.490918 26585 layer_factory.hpp:74] Creating layer inception_5a/3x3
I1217 21:43:40.490928 26585 net.cpp:84] Creating Layer inception_5a/3x3
I1217 21:43:40.490932 26585 net.cpp:380] inception_5a/3x3 <- inception_5a/3x3_reduce
I1217 21:43:40.490939 26585 net.cpp:338] inception_5a/3x3 -> inception_5a/3x3
I1217 21:43:40.490947 26585 net.cpp:113] Setting up inception_5a/3x3
I1217 21:43:40.496315 26585 net.cpp:120] Top shape: 80 320 7 7 (1254400)
I1217 21:43:40.496333 26585 layer_factory.hpp:74] Creating layer inception_5a/relu_3x3
I1217 21:43:40.496342 26585 net.cpp:84] Creating Layer inception_5a/relu_3x3
I1217 21:43:40.496347 26585 net.cpp:380] inception_5a/relu_3x3 <- inception_5a/3x3
I1217 21:43:40.496354 26585 net.cpp:327] inception_5a/relu_3x3 -> inception_5a/3x3 (in-place)
I1217 21:43:40.496363 26585 net.cpp:113] Setting up inception_5a/relu_3x3
I1217 21:43:40.496433 26585 net.cpp:120] Top shape: 80 320 7 7 (1254400)
I1217 21:43:40.496438 26585 layer_factory.hpp:74] Creating layer inception_5a/5x5_reduce
I1217 21:43:40.496448 26585 net.cpp:84] Creating Layer inception_5a/5x5_reduce
I1217 21:43:40.496460 26585 net.cpp:380] inception_5a/5x5_reduce <- pool4/3x3_s2_pool4/3x3_s2_0_split_2
I1217 21:43:40.496479 26585 net.cpp:338] inception_5a/5x5_reduce -> inception_5a/5x5_reduce
I1217 21:43:40.496486 26585 net.cpp:113] Setting up inception_5a/5x5_reduce
I1217 21:43:40.497169 26585 net.cpp:120] Top shape: 80 32 7 7 (125440)
I1217 21:43:40.497184 26585 layer_factory.hpp:74] Creating layer inception_5a/relu_5x5_reduce
I1217 21:43:40.497190 26585 net.cpp:84] Creating Layer inception_5a/relu_5x5_reduce
I1217 21:43:40.497195 26585 net.cpp:380] inception_5a/relu_5x5_reduce <- inception_5a/5x5_reduce
I1217 21:43:40.497202 26585 net.cpp:327] inception_5a/relu_5x5_reduce -> inception_5a/5x5_reduce (in-place)
I1217 21:43:40.497210 26585 net.cpp:113] Setting up inception_5a/relu_5x5_reduce
I1217 21:43:40.497444 26585 net.cpp:120] Top shape: 80 32 7 7 (125440)
I1217 21:43:40.497455 26585 layer_factory.hpp:74] Creating layer inception_5a/5x5
I1217 21:43:40.497467 26585 net.cpp:84] Creating Layer inception_5a/5x5
I1217 21:43:40.497472 26585 net.cpp:380] inception_5a/5x5 <- inception_5a/5x5_reduce
I1217 21:43:40.497480 26585 net.cpp:338] inception_5a/5x5 -> inception_5a/5x5
I1217 21:43:40.497488 26585 net.cpp:113] Setting up inception_5a/5x5
I1217 21:43:40.499007 26585 net.cpp:120] Top shape: 80 128 7 7 (501760)
I1217 21:43:40.499022 26585 layer_factory.hpp:74] Creating layer inception_5a/relu_5x5
I1217 21:43:40.499032 26585 net.cpp:84] Creating Layer inception_5a/relu_5x5
I1217 21:43:40.499037 26585 net.cpp:380] inception_5a/relu_5x5 <- inception_5a/5x5
I1217 21:43:40.499042 26585 net.cpp:327] inception_5a/relu_5x5 -> inception_5a/5x5 (in-place)
I1217 21:43:40.499049 26585 net.cpp:113] Setting up inception_5a/relu_5x5
I1217 21:43:40.499117 26585 net.cpp:120] Top shape: 80 128 7 7 (501760)
I1217 21:43:40.499124 26585 layer_factory.hpp:74] Creating layer inception_5a/pool
I1217 21:43:40.499128 26585 layer_factory.cpp:56] CUDNN does not support padding or multiple tops. Using Caffe's own pooling layer.
I1217 21:43:40.499135 26585 net.cpp:84] Creating Layer inception_5a/pool
I1217 21:43:40.499140 26585 net.cpp:380] inception_5a/pool <- pool4/3x3_s2_pool4/3x3_s2_0_split_3
I1217 21:43:40.499145 26585 net.cpp:338] inception_5a/pool -> inception_5a/pool
I1217 21:43:40.499153 26585 net.cpp:113] Setting up inception_5a/pool
I1217 21:43:40.499161 26585 net.cpp:120] Top shape: 80 832 7 7 (3261440)
I1217 21:43:40.499166 26585 layer_factory.hpp:74] Creating layer inception_5a/pool_proj
I1217 21:43:40.499176 26585 net.cpp:84] Creating Layer inception_5a/pool_proj
I1217 21:43:40.499181 26585 net.cpp:380] inception_5a/pool_proj <- inception_5a/pool
I1217 21:43:40.499188 26585 net.cpp:338] inception_5a/pool_proj -> inception_5a/pool_proj
I1217 21:43:40.499196 26585 net.cpp:113] Setting up inception_5a/pool_proj
I1217 21:43:40.500727 26585 net.cpp:120] Top shape: 80 128 7 7 (501760)
I1217 21:43:40.500742 26585 layer_factory.hpp:74] Creating layer inception_5a/relu_pool_proj
I1217 21:43:40.500752 26585 net.cpp:84] Creating Layer inception_5a/relu_pool_proj
I1217 21:43:40.500757 26585 net.cpp:380] inception_5a/relu_pool_proj <- inception_5a/pool_proj
I1217 21:43:40.500764 26585 net.cpp:327] inception_5a/relu_pool_proj -> inception_5a/pool_proj (in-place)
I1217 21:43:40.500771 26585 net.cpp:113] Setting up inception_5a/relu_pool_proj
I1217 21:43:40.500838 26585 net.cpp:120] Top shape: 80 128 7 7 (501760)
I1217 21:43:40.500844 26585 layer_factory.hpp:74] Creating layer inception_5a/output
I1217 21:43:40.500852 26585 net.cpp:84] Creating Layer inception_5a/output
I1217 21:43:40.500856 26585 net.cpp:380] inception_5a/output <- inception_5a/1x1
I1217 21:43:40.500862 26585 net.cpp:380] inception_5a/output <- inception_5a/3x3
I1217 21:43:40.500867 26585 net.cpp:380] inception_5a/output <- inception_5a/5x5
I1217 21:43:40.500872 26585 net.cpp:380] inception_5a/output <- inception_5a/pool_proj
I1217 21:43:40.500877 26585 net.cpp:338] inception_5a/output -> inception_5a/output
I1217 21:43:40.500885 26585 net.cpp:113] Setting up inception_5a/output
I1217 21:43:40.500896 26585 net.cpp:120] Top shape: 80 832 7 7 (3261440)
I1217 21:43:40.500908 26585 layer_factory.hpp:74] Creating layer inception_5a/output_inception_5a/output_0_split
I1217 21:43:40.500915 26585 net.cpp:84] Creating Layer inception_5a/output_inception_5a/output_0_split
I1217 21:43:40.500919 26585 net.cpp:380] inception_5a/output_inception_5a/output_0_split <- inception_5a/output
I1217 21:43:40.500926 26585 net.cpp:338] inception_5a/output_inception_5a/output_0_split -> inception_5a/output_inception_5a/output_0_split_0
I1217 21:43:40.500933 26585 net.cpp:338] inception_5a/output_inception_5a/output_0_split -> inception_5a/output_inception_5a/output_0_split_1
I1217 21:43:40.500941 26585 net.cpp:338] inception_5a/output_inception_5a/output_0_split -> inception_5a/output_inception_5a/output_0_split_2
I1217 21:43:40.500946 26585 net.cpp:338] inception_5a/output_inception_5a/output_0_split -> inception_5a/output_inception_5a/output_0_split_3
I1217 21:43:40.500952 26585 net.cpp:113] Setting up inception_5a/output_inception_5a/output_0_split
I1217 21:43:40.500959 26585 net.cpp:120] Top shape: 80 832 7 7 (3261440)
I1217 21:43:40.500964 26585 net.cpp:120] Top shape: 80 832 7 7 (3261440)
I1217 21:43:40.500968 26585 net.cpp:120] Top shape: 80 832 7 7 (3261440)
I1217 21:43:40.500973 26585 net.cpp:120] Top shape: 80 832 7 7 (3261440)
I1217 21:43:40.500977 26585 layer_factory.hpp:74] Creating layer inception_5b/1x1
I1217 21:43:40.500985 26585 net.cpp:84] Creating Layer inception_5b/1x1
I1217 21:43:40.500990 26585 net.cpp:380] inception_5b/1x1 <- inception_5a/output_inception_5a/output_0_split_0
I1217 21:43:40.500998 26585 net.cpp:338] inception_5b/1x1 -> inception_5b/1x1
I1217 21:43:40.501004 26585 net.cpp:113] Setting up inception_5b/1x1
I1217 21:43:40.504832 26585 net.cpp:120] Top shape: 80 384 7 7 (1505280)
I1217 21:43:40.504848 26585 layer_factory.hpp:74] Creating layer inception_5b/relu_1x1
I1217 21:43:40.504858 26585 net.cpp:84] Creating Layer inception_5b/relu_1x1
I1217 21:43:40.504863 26585 net.cpp:380] inception_5b/relu_1x1 <- inception_5b/1x1
I1217 21:43:40.504869 26585 net.cpp:327] inception_5b/relu_1x1 -> inception_5b/1x1 (in-place)
I1217 21:43:40.504876 26585 net.cpp:113] Setting up inception_5b/relu_1x1
I1217 21:43:40.505125 26585 net.cpp:120] Top shape: 80 384 7 7 (1505280)
I1217 21:43:40.505138 26585 layer_factory.hpp:74] Creating layer inception_5b/3x3_reduce
I1217 21:43:40.505147 26585 net.cpp:84] Creating Layer inception_5b/3x3_reduce
I1217 21:43:40.505152 26585 net.cpp:380] inception_5b/3x3_reduce <- inception_5a/output_inception_5a/output_0_split_1
I1217 21:43:40.505162 26585 net.cpp:338] inception_5b/3x3_reduce -> inception_5b/3x3_reduce
I1217 21:43:40.505169 26585 net.cpp:113] Setting up inception_5b/3x3_reduce
I1217 21:43:40.507271 26585 net.cpp:120] Top shape: 80 192 7 7 (752640)
I1217 21:43:40.507285 26585 layer_factory.hpp:74] Creating layer inception_5b/relu_3x3_reduce
I1217 21:43:40.507293 26585 net.cpp:84] Creating Layer inception_5b/relu_3x3_reduce
I1217 21:43:40.507298 26585 net.cpp:380] inception_5b/relu_3x3_reduce <- inception_5b/3x3_reduce
I1217 21:43:40.507305 26585 net.cpp:327] inception_5b/relu_3x3_reduce -> inception_5b/3x3_reduce (in-place)
I1217 21:43:40.507313 26585 net.cpp:113] Setting up inception_5b/relu_3x3_reduce
I1217 21:43:40.507380 26585 net.cpp:120] Top shape: 80 192 7 7 (752640)
I1217 21:43:40.507386 26585 layer_factory.hpp:74] Creating layer inception_5b/3x3
I1217 21:43:40.507395 26585 net.cpp:84] Creating Layer inception_5b/3x3
I1217 21:43:40.507398 26585 net.cpp:380] inception_5b/3x3 <- inception_5b/3x3_reduce
I1217 21:43:40.507406 26585 net.cpp:338] inception_5b/3x3 -> inception_5b/3x3
I1217 21:43:40.507432 26585 net.cpp:113] Setting up inception_5b/3x3
I1217 21:43:40.514955 26585 net.cpp:120] Top shape: 80 384 7 7 (1505280)
I1217 21:43:40.514977 26585 layer_factory.hpp:74] Creating layer inception_5b/relu_3x3
I1217 21:43:40.514988 26585 net.cpp:84] Creating Layer inception_5b/relu_3x3
I1217 21:43:40.514993 26585 net.cpp:380] inception_5b/relu_3x3 <- inception_5b/3x3
I1217 21:43:40.515008 26585 net.cpp:327] inception_5b/relu_3x3 -> inception_5b/3x3 (in-place)
I1217 21:43:40.515027 26585 net.cpp:113] Setting up inception_5b/relu_3x3
I1217 21:43:40.515096 26585 net.cpp:120] Top shape: 80 384 7 7 (1505280)
I1217 21:43:40.515105 26585 layer_factory.hpp:74] Creating layer inception_5b/5x5_reduce
I1217 21:43:40.515115 26585 net.cpp:84] Creating Layer inception_5b/5x5_reduce
I1217 21:43:40.515120 26585 net.cpp:380] inception_5b/5x5_reduce <- inception_5a/output_inception_5a/output_0_split_2
I1217 21:43:40.515127 26585 net.cpp:338] inception_5b/5x5_reduce -> inception_5b/5x5_reduce
I1217 21:43:40.515136 26585 net.cpp:113] Setting up inception_5b/5x5_reduce
I1217 21:43:40.515970 26585 net.cpp:120] Top shape: 80 48 7 7 (188160)
I1217 21:43:40.515986 26585 layer_factory.hpp:74] Creating layer inception_5b/relu_5x5_reduce
I1217 21:43:40.515995 26585 net.cpp:84] Creating Layer inception_5b/relu_5x5_reduce
I1217 21:43:40.516001 26585 net.cpp:380] inception_5b/relu_5x5_reduce <- inception_5b/5x5_reduce
I1217 21:43:40.516008 26585 net.cpp:327] inception_5b/relu_5x5_reduce -> inception_5b/5x5_reduce (in-place)
I1217 21:43:40.516016 26585 net.cpp:113] Setting up inception_5b/relu_5x5_reduce
I1217 21:43:40.516086 26585 net.cpp:120] Top shape: 80 48 7 7 (188160)
I1217 21:43:40.516093 26585 layer_factory.hpp:74] Creating layer inception_5b/5x5
I1217 21:43:40.516101 26585 net.cpp:84] Creating Layer inception_5b/5x5
I1217 21:43:40.516106 26585 net.cpp:380] inception_5b/5x5 <- inception_5b/5x5_reduce
I1217 21:43:40.516114 26585 net.cpp:338] inception_5b/5x5 -> inception_5b/5x5
I1217 21:43:40.516122 26585 net.cpp:113] Setting up inception_5b/5x5
I1217 21:43:40.518183 26585 net.cpp:120] Top shape: 80 128 7 7 (501760)
I1217 21:43:40.518199 26585 layer_factory.hpp:74] Creating layer inception_5b/relu_5x5
I1217 21:43:40.518208 26585 net.cpp:84] Creating Layer inception_5b/relu_5x5
I1217 21:43:40.518213 26585 net.cpp:380] inception_5b/relu_5x5 <- inception_5b/5x5
I1217 21:43:40.518220 26585 net.cpp:327] inception_5b/relu_5x5 -> inception_5b/5x5 (in-place)
I1217 21:43:40.518227 26585 net.cpp:113] Setting up inception_5b/relu_5x5
I1217 21:43:40.518472 26585 net.cpp:120] Top shape: 80 128 7 7 (501760)
I1217 21:43:40.518483 26585 layer_factory.hpp:74] Creating layer inception_5b/pool
I1217 21:43:40.518488 26585 layer_factory.cpp:56] CUDNN does not support padding or multiple tops. Using Caffe's own pooling layer.
I1217 21:43:40.518497 26585 net.cpp:84] Creating Layer inception_5b/pool
I1217 21:43:40.518502 26585 net.cpp:380] inception_5b/pool <- inception_5a/output_inception_5a/output_0_split_3
I1217 21:43:40.518509 26585 net.cpp:338] inception_5b/pool -> inception_5b/pool
I1217 21:43:40.518517 26585 net.cpp:113] Setting up inception_5b/pool
I1217 21:43:40.518527 26585 net.cpp:120] Top shape: 80 832 7 7 (3261440)
I1217 21:43:40.518530 26585 layer_factory.hpp:74] Creating layer inception_5b/pool_proj
I1217 21:43:40.518539 26585 net.cpp:84] Creating Layer inception_5b/pool_proj
I1217 21:43:40.518544 26585 net.cpp:380] inception_5b/pool_proj <- inception_5b/pool
I1217 21:43:40.518550 26585 net.cpp:338] inception_5b/pool_proj -> inception_5b/pool_proj
I1217 21:43:40.518558 26585 net.cpp:113] Setting up inception_5b/pool_proj
I1217 21:43:40.520102 26585 net.cpp:120] Top shape: 80 128 7 7 (501760)
I1217 21:43:40.520115 26585 layer_factory.hpp:74] Creating layer inception_5b/relu_pool_proj
I1217 21:43:40.520123 26585 net.cpp:84] Creating Layer inception_5b/relu_pool_proj
I1217 21:43:40.520129 26585 net.cpp:380] inception_5b/relu_pool_proj <- inception_5b/pool_proj
I1217 21:43:40.520138 26585 net.cpp:327] inception_5b/relu_pool_proj -> inception_5b/pool_proj (in-place)
I1217 21:43:40.520145 26585 net.cpp:113] Setting up inception_5b/relu_pool_proj
I1217 21:43:40.520210 26585 net.cpp:120] Top shape: 80 128 7 7 (501760)
I1217 21:43:40.520216 26585 layer_factory.hpp:74] Creating layer inception_5b/output
I1217 21:43:40.520223 26585 net.cpp:84] Creating Layer inception_5b/output
I1217 21:43:40.520233 26585 net.cpp:380] inception_5b/output <- inception_5b/1x1
I1217 21:43:40.520251 26585 net.cpp:380] inception_5b/output <- inception_5b/3x3
I1217 21:43:40.520256 26585 net.cpp:380] inception_5b/output <- inception_5b/5x5
I1217 21:43:40.520261 26585 net.cpp:380] inception_5b/output <- inception_5b/pool_proj
I1217 21:43:40.520268 26585 net.cpp:338] inception_5b/output -> inception_5b/output
I1217 21:43:40.520275 26585 net.cpp:113] Setting up inception_5b/output
I1217 21:43:40.520282 26585 net.cpp:120] Top shape: 80 1024 7 7 (4014080)
I1217 21:43:40.520287 26585 layer_factory.hpp:74] Creating layer pool5/7x7_s1
I1217 21:43:40.520293 26585 net.cpp:84] Creating Layer pool5/7x7_s1
I1217 21:43:40.520298 26585 net.cpp:380] pool5/7x7_s1 <- inception_5b/output
I1217 21:43:40.520304 26585 net.cpp:338] pool5/7x7_s1 -> pool5/7x7_s1
I1217 21:43:40.520310 26585 net.cpp:113] Setting up pool5/7x7_s1
I1217 21:43:40.520380 26585 net.cpp:120] Top shape: 80 1024 1 1 (81920)
I1217 21:43:40.520387 26585 layer_factory.hpp:74] Creating layer pool5/drop_7x7_s1
I1217 21:43:40.520395 26585 net.cpp:84] Creating Layer pool5/drop_7x7_s1
I1217 21:43:40.520400 26585 net.cpp:380] pool5/drop_7x7_s1 <- pool5/7x7_s1
I1217 21:43:40.520404 26585 net.cpp:327] pool5/drop_7x7_s1 -> pool5/7x7_s1 (in-place)
I1217 21:43:40.520411 26585 net.cpp:113] Setting up pool5/drop_7x7_s1
I1217 21:43:40.520418 26585 net.cpp:120] Top shape: 80 1024 1 1 (81920)
I1217 21:43:40.520422 26585 layer_factory.hpp:74] Creating layer loss3/classifier_kaggle
I1217 21:43:40.520433 26585 net.cpp:84] Creating Layer loss3/classifier_kaggle
I1217 21:43:40.520437 26585 net.cpp:380] loss3/classifier_kaggle <- pool5/7x7_s1
I1217 21:43:40.520444 26585 net.cpp:338] loss3/classifier_kaggle -> loss3/classifier_kaggle
I1217 21:43:40.520452 26585 net.cpp:113] Setting up loss3/classifier_kaggle
I1217 21:43:40.525348 26585 net.cpp:120] Top shape: 80 447 (35760)
I1217 21:43:40.525360 26585 layer_factory.hpp:74] Creating layer loss3/loss3
I1217 21:43:40.525369 26585 net.cpp:84] Creating Layer loss3/loss3
I1217 21:43:40.525375 26585 net.cpp:380] loss3/loss3 <- loss3/classifier_kaggle
I1217 21:43:40.525380 26585 net.cpp:380] loss3/loss3 <- label_data_1_split_2
I1217 21:43:40.525387 26585 net.cpp:338] loss3/loss3 -> loss3/loss3
I1217 21:43:40.525394 26585 net.cpp:113] Setting up loss3/loss3
…
I1217 21:43:40.532371 26585 net.cpp:257] The NetState phase (1) differed from the phase (0) specified by a rule in layer data
I1217 21:43:40.534540 26585 net.cpp:42] Initializing net from parameters: 
name: "MYNET"
state {
  phase: TEST
}
layer {
  name: "data"
  type: "ImageData"
  top: "data"
  top: "label"
  include {
    phase: TEST
  }
  transform_param {
    mirror: false
    crop_size: 224
    mean_value: 129
    mean_value: 129
    mean_value: 129
  }
  image_data_param {
    source: "/home/coldmanck/kaggle/label_val_full.txt"
    batch_size: 50
    shuffle: true
  }
}
layer {
  name: "conv1/7x7_s2"
  type: "Convolution"
  bottom: "data"
  top: "conv1/7x7_s2"
  param {
    lr_mult: 1
    decay_mult: 1
  }
  param {
    lr_mult: 2
    decay_mult: 0
  }
  convolution_param {
    num_output: 64
    pad: 3
    kernel_size: 7
    stride: 2
    weight_filler {
      type: "xavier"
    }
    bias_filler {
      type: "constant"
      value: 0.2
    }
  }
}
layer {
  name: "conv1/relu_7x7"
  type: "ReLU"
  bottom: "conv1/7x7_s2"
  top: "conv1/7x7_s2"
}
layer {
  name: "pool1/3x3_s2"
  type: "Pooling"
  bottom: "conv1/7x7_s2"
  top: "pool1/3x3_s2"
  pooling_param {
    pool: MAX
    kernel_size: 3
    stride: 2
  }
}
layer {
  name: "pool1/norm1"
  type: "LRN"
  bottom: "pool1/3x3_s2"
  top: "pool1/norm1"
  lrn_param {
    local_size: 5
    alpha: 0.0001
    beta: 0.75
  }
}
layer {
  name: "conv2/3x3_reduce"
  type: "Convolution"
  bottom: "pool1/norm1"
  top: "conv2/3x3_reduce"
  param {
    lr_mult: 1
    decay_mult: 1
  }
  param {
    lr_mult: 2
    decay_mult: 0
  }
  convolution_param {
    num_output: 64
    kernel_size: 1
    weight_filler {
      type: "xavier"
    }
    bias_filler {
      type: "constant"
      value: 0.2
    }
  }
}
layer {
  name: "conv2/relu_3x3_reduce"
  type: "ReLU"
  bottom: "conv2/3x3_reduce"
  top: "conv2/3x3_reduce"
}
layer {
  name: "conv2/3x3"
  type: "Convolution"
  bottom: "conv2/3x3_reduce"
  top: "conv2/3x3"
  param {
    lr_mult: 1
    decay_mult: 1
  }
  param {
    lr_mult: 2
    decay_mult: 0
  }
  convolution_param {
    num_output: 192
    pad: 1
    kernel_size: 3
    weight_filler {
      type: "xavier"
    }
    bias_filler {
      type: "constant"
      value: 0.2
    }
  }
}
layer {
  name: "conv2/relu_3x3"
  type: "ReLU"
  bottom: "conv2/3x3"
  top: "conv2/3x3"
}
layer {
  name: "conv2/norm2"
  type: "LRN"
  bottom: "conv2/3x3"
  top: "conv2/norm2"
  lrn_param {
    local_size: 5
    alpha: 0.0001
    beta: 0.75
  }
}
layer {
  name: "pool2/3x3_s2"
  type: "Pooling"
  bottom: "conv2/norm2"
  top: "pool2/3x3_s2"
  pooling_param {
    pool: MAX
    kernel_size: 3
    stride: 2
  }
}
layer {
  name: "inception_3a/1x1"
  type: "Convolution"
  bottom: "pool2/3x3_s2"
  top: "inception_3a/1x1"
  param {
    lr_mult: 1
    decay_mult: 1
  }
  param {
    lr_mult: 2
    decay_mult: 0
  }
  convolution_param {
    num_output: 64
    kernel_size: 1
    weight_filler {
      type: "xavier"
    }
    bias_filler {
      type: "constant"
      value: 0.2
    }
  }
}
layer {
  name: "inception_3a/relu_1x1"
  type: "ReLU"
  bottom: "inception_3a/1x1"
  top: "inception_3a/1x1"
}
layer {
  name: "inception_3a/3x3_reduce"
  type: "Convolution"
  bottom: "pool2/3x3_s2"
  top: "inception_3a/3x3_reduce"
  param {
    lr_mult: 1
    decay_mult: 1
  }
  param {
    lr_mult: 2
    decay_mult: 0
  }
  convolution_param {
    num_output: 96
    kernel_size: 1
    weight_filler {
      type: "xavier"
    }
    bias_filler {
      type: "constant"
      value: 0.2
    }
  }
}
layer {
  name: "inception_3a/relu_3x3_reduce"
  type: "ReLU"
  bottom: "inception_3a/3x3_reduce"
  top: "inception_3a/3x3_reduce"
}
layer {
  name: "inception_3a/3x3"
  type: "Convolution"
  bottom: "inception_3a/3x3_reduce"
  top: "inception_3a/3x3"
  param {
    lr_mult: 1
    decay_mult: 1
  }
  param {
    lr_mult: 2
    decay_mult: 0
  }
  convolution_param {
    num_output: 128
    pad: 1
    kernel_size: 3
    weight_filler {
      type: "xavier"
    }
    bias_filler {
      type: "constant"
      value: 0.2
    }
  }
}
layer {
  name: "inception_3a/relu_3x3"
  type: "ReLU"
  bottom: "inception_3a/3x3"
  top: "inception_3a/3x3"
}
layer {
  name: "inception_3a/5x5_reduce"
  type: "Convolution"
  bottom: "pool2/3x3_s2"
  top: "inception_3a/5x5_reduce"
  param {
    lr_mult: 1
    decay_mult: 1
  }
  param {
    lr_mult: 2
    decay_mult: 0
  }
  convolution_param {
    num_output: 16
    kernel_size: 1
    weight_filler {
      type: "xavier"
    }
    bias_filler {
      type: "constant"
      value: 0.2
    }
  }
}
layer {
  name: "inception_3a/relu_5x5_reduce"
  type: "ReLU"
  bottom: "inception_3a/5x5_reduce"
  top: "inception_3a/5x5_reduce"
}
layer {
  name: "inception_3a/5x5"
  type: "Convolution"
  bottom: "inception_3a/5x5_reduce"
  top: "inception_3a/5x5"
  param {
    lr_mult: 1
    decay_mult: 1
  }
  param {
    lr_mult: 2
    decay_mult: 0
  }
  convolution_param {
    num_output: 32
    pad: 2
    kernel_size: 5
    weight_filler {
      type: "xavier"
    }
    bias_filler {
      type: "constant"
      value: 0.2
    }
  }
}
layer {
  name: "inception_3a/relu_5x5"
  type: "ReLU"
  bottom: "inception_3a/5x5"
  top: "inception_3a/5x5"
}
layer {
  name: "inception_3a/pool"
  type: "Pooling"
  bottom: "pool2/3x3_s2"
  top: "inception_3a/pool"
  pooling_param {
    pool: MAX
    kernel_size: 3
    stride: 1
    pad: 1
  }
}
layer {
  name: "inception_3a/pool_proj"
  type: "Convolution"
  bottom: "inception_3a/pool"
  top: "inception_3a/pool_proj"
  param {
    lr_mult: 1
    decay_mult: 1
  }
  param {
    lr_mult: 2
    decay_mult: 0
  }
  convolution_param {
    num_output: 32
    kernel_size: 1
    weight_filler {
      type: "xavier"
    }
    bias_filler {
      type: "constant"
      value: 0.2
    }
  }
}
layer {
  name: "inception_3a/relu_pool_proj"
  type: "ReLU"
  bottom: "inception_3a/pool_proj"
  top: "inception_3a/pool_proj"
}
layer {
  name: "inception_3a/output"
  type: "Concat"
  bottom: "inception_3a/1x1"
  bottom: "inception_3a/3x3"
  bottom: "inception_3a/5x5"
  bottom: "inception_3a/pool_proj"
  top: "inception_3a/output"
}
layer {
  name: "inception_3b/1x1"
  type: "Convolution"
  bottom: "inception_3a/output"
  top: "inception_3b/1x1"
  param {
    lr_mult: 1
    decay_mult: 1
  }
  param {
    lr_mult: 2
    decay_mult: 0
  }
  convolution_param {
    num_output: 128
    kernel_size: 1
    weight_filler {
      type: "xavier"
    }
    bias_filler {
      type: "constant"
      value: 0.2
    }
  }
}
layer {
  name: "inception_3b/relu_1x1"
  type: "ReLU"
  bottom: "inception_3b/1x1"
  top: "inception_3b/1x1"
}
layer {
  name: "inception_3b/3x3_reduce"
  type: "Convolution"
  bottom: "inception_3a/output"
  top: "inception_3b/3x3_reduce"
  param {
    lr_mult: 1
    decay_mult: 1
  }
  param {
    lr_mult: 2
    decay_mult: 0
  }
  convolution_param {
    num_output: 128
    kernel_size: 1
    weight_filler {
      type: "xavier"
    }
    bias_filler {
      type: "constant"
      value: 0.2
    }
  }
}
layer {
  name: "inception_3b/relu_3x3_reduce"
  type: "ReLU"
  bottom: "inception_3b/3x3_reduce"
  top: "inception_3b/3x3_reduce"
}
layer {
  name: "inception_3b/3x3"
  type: "Convolution"
  bottom: "inception_3b/3x3_reduce"
  top: "inception_3b/3x3"
  param {
    lr_mult: 1
    decay_mult: 1
  }
  param {
    lr_mult: 2
    decay_mult: 0
  }
  convolution_param {
    num_output: 192
    pad: 1
    kernel_size: 3
    weight_filler {
      type: "xavier"
    }
    bias_filler {
      type: "constant"
      value: 0.2
    }
  }
}
layer {
  name: "inception_3b/relu_3x3"
  type: "ReLU"
  bottom: "inception_3b/3x3"
  top: "inception_3b/3x3"
}
layer {
  name: "inception_3b/5x5_reduce"
  type: "Convolution"
  bottom: "inception_3a/output"
  top: "inception_3b/5x5_reduce"
  param {
    lr_mult: 1
    decay_mult: 1
  }
  param {
    lr_mult: 2
    decay_mult: 0
  }
  convolution_param {
    num_output: 32
    kernel_size: 1
    weight_filler {
      type: "xavier"
    }
    bias_filler {
      type: "constant"
      value: 0.2
    }
  }
}
layer {
  name: "inception_3b/relu_5x5_reduce"
  type: "ReLU"
  bottom: "inception_3b/5x5_reduce"
  top: "inception_3b/5x5_reduce"
}
layer {
  name: "inception_3b/5x5"
  type: "Convolution"
  bottom: "inception_3b/5x5_reduce"
  top: "inception_3b/5x5"
  param {
    lr_mult: 1
    decay_mult: 1
  }
  param {
    lr_mult: 2
    decay_mult: 0
  }
  convolution_param {
    num_output: 96
    pad: 2
    kernel_size: 5
    weight_filler {
      type: "xavier"
    }
    bias_filler {
      type: "constant"
      value: 0.2
    }
  }
}
layer {
  name: "inception_3b/relu_5x5"
  type: "ReLU"
  bottom: "inception_3b/5x5"
  top: "inception_3b/5x5"
}
layer {
  name: "inception_3b/pool"
  type: "Pooling"
  bottom: "inception_3a/output"
  top: "inception_3b/pool"
  pooling_param {
    pool: MAX
    kernel_size: 3
    stride: 1
    pad: 1
  }
}
layer {
  name: "inception_3b/pool_proj"
  type: "Convolution"
  bottom: "inception_3b/pool"
  top: "inception_3b/pool_proj"
  param {
    lr_mult: 1
    decay_mult: 1
  }
  param {
    lr_mult: 2
    decay_mult: 0
  }
  convolution_param {
    num_output: 64
    kernel_size: 1
    weight_filler {
      type: "xavier"
    }
    bias_filler {
      type: "constant"
      value: 0.2
    }
  }
}
layer {
  name: "inception_3b/relu_pool_proj"
  type: "ReLU"
  bottom: "inception_3b/pool_proj"
  top: "inception_3b/pool_proj"
}
layer {
  name: "inception_3b/output"
  type: "Concat"
  bottom: "inception_3b/1x1"
  bottom: "inception_3b/3x3"
  bottom: "inception_3b/5x5"
  bottom: "inception_3b/pool_proj"
  top: "inception_3b/output"
}
layer {
  name: "pool3/3x3_s2"
  type: "Pooling"
  bottom: "inception_3b/output"
  top: "pool3/3x3_s2"
  pooling_param {
    pool: MAX
    kernel_size: 3
    stride: 2
  }
}
layer {
  name: "inception_4a/1x1"
  type: "Convolution"
  bottom: "pool3/3x3_s2"
  top: "inception_4a/1x1"
  param {
    lr_mult: 1
    decay_mult: 1
  }
  param {
    lr_mult: 2
    decay_mult: 0
  }
  convolution_param {
    num_output: 192
    kernel_size: 1
    weight_filler {
      type: "xavier"
    }
    bias_filler {
      type: "constant"
      value: 0.2
    }
  }
}
layer {
  name: "inception_4a/relu_1x1"
  type: "ReLU"
  bottom: "inception_4a/1x1"
  top: "inception_4a/1x1"
}
layer {
  name: "inception_4a/3x3_reduce"
  type: "Convolution"
  bottom: "pool3/3x3_s2"
  top: "inception_4a/3x3_reduce"
  param {
    lr_mult: 1
    decay_mult: 1
  }
  param {
    lr_mult: 2
    decay_mult: 0
  }
  convolution_param {
    num_output: 96
    kernel_size: 1
    weight_filler {
      type: "xavier"
    }
    bias_filler {
      type: "constant"
      value: 0.2
    }
  }
}
layer {
  name: "inception_4a/relu_3x3_reduce"
  type: "ReLU"
  bottom: "inception_4a/3x3_reduce"
  top: "inception_4a/3x3_reduce"
}
layer {
  name: "inception_4a/3x3"
  type: "Convolution"
  bottom: "inception_4a/3x3_reduce"
  top: "inception_4a/3x3"
  param {
    lr_mult: 1
    decay_mult: 1
  }
  param {
    lr_mult: 2
    decay_mult: 0
  }
  convolution_param {
    num_output: 208
    pad: 1
    kernel_size: 3
    weight_filler {
      type: "xavier"
    }
    bias_filler {
      type: "constant"
      value: 0.2
    }
  }
}
layer {
  name: "inception_4a/relu_3x3"
  type: "ReLU"
  bottom: "inception_4a/3x3"
  top: "inception_4a/3x3"
}
layer {
  name: "inception_4a/5x5_reduce"
  type: "Convolution"
  bottom: "pool3/3x3_s2"
  top: "inception_4a/5x5_reduce"
  param {
    lr_mult: 1
    decay_mult: 1
  }
  param {
    lr_mult: 2
    decay_mult: 0
  }
  convolution_param {
    num_output: 16
    kernel_size: 1
    weight_filler {
      type: "xavier"
    }
    bias_filler {
      type: "constant"
      value: 0.2
    }
  }
}
layer {
  name: "inception_4a/relu_5x5_reduce"
  type: "ReLU"
  bottom: "inception_4a/5x5_reduce"
  top: "inception_4a/5x5_reduce"
}
layer {
  name: "inception_4a/5x5"
  type: "Convolution"
  bottom: "inception_4a/5x5_reduce"
  top: "inception_4a/5x5"
  param {
    lr_mult: 1
    decay_mult: 1
  }
  param {
    lr_mult: 2
    decay_mult: 0
  }
  convolution_param {
    num_output: 48
    pad: 2
    kernel_size: 5
    weight_filler {
      type: "xavier"
    }
    bias_filler {
      type: "constant"
      value: 0.2
    }
  }
}
layer {
  name: "inception_4a/relu_5x5"
  type: "ReLU"
  bottom: "inception_4a/5x5"
  top: "inception_4a/5x5"
}
layer {
  name: "inception_4a/pool"
  type: "Pooling"
  bottom: "pool3/3x3_s2"
  top: "inception_4a/pool"
  pooling_param {
    pool: MAX
    kernel_size: 3
    stride: 1
    pad: 1
  }
}
layer {
  name: "inception_4a/pool_proj"
  type: "Convolution"
  bottom: "inception_4a/pool"
  top: "inception_4a/pool_proj"
  param {
    lr_mult: 1
    decay_mult: 1
  }
  param {
    lr_mult: 2
    decay_mult: 0
  }
  convolution_param {
    num_output: 64
    kernel_size: 1
    weight_filler {
      type: "xavier"
    }
    bias_filler {
      type: "constant"
      value: 0.2
    }
  }
}
layer {
  name: "inception_4a/relu_pool_proj"
  type: "ReLU"
  bottom: "inception_4a/pool_proj"
  top: "inception_4a/pool_proj"
}
layer {
  name: "inception_4a/output"
  type: "Concat"
  bottom: "inception_4a/1x1"
  bottom: "inception_4a/3x3"
  bottom: "inception_4a/5x5"
  bottom: "inception_4a/pool_proj"
  top: "inception_4a/output"
}
layer {
  name: "loss1/ave_pool"
  type: "Pooling"
  bottom: "inception_4a/output"
  top: "loss1/ave_pool"
  pooling_param {
    pool: AVE
    kernel_size: 5
    stride: 3
  }
}
layer {
  name: "loss1/conv"
  type: "Convolution"
  bottom: "loss1/ave_pool"
  top: "loss1/conv"
  param {
    lr_mult: 1
    decay_mult: 1
  }
  param {
    lr_mult: 2
    decay_mult: 0
  }
  convolution_param {
    num_output: 128
    kernel_size: 1
    weight_filler {
      type: "xavier"
    }
    bias_filler {
      type: "constant"
      value: 0.2
    }
  }
}
layer {
  name: "loss1/relu_conv"
  type: "ReLU"
  bottom: "loss1/conv"
  top: "loss1/conv"
}
layer {
  name: "loss1/fc"
  type: "InnerProduct"
  bottom: "loss1/conv"
  top: "loss1/fc"
  param {
    lr_mult: 1
    decay_mult: 1
  }
  param {
    lr_mult: 2
    decay_mult: 0
  }
  inner_product_param {
    num_output: 1024
    weight_filler {
      type: "xavier"
    }
    bias_filler {
      type: "constant"
      value: 0.2
    }
  }
}
layer {
  name: "loss1/relu_fc"
  type: "ReLU"
  bottom: "loss1/fc"
  top: "loss1/fc"
}
layer {
  name: "loss1/drop_fc"
  type: "Dropout"
  bottom: "loss1/fc"
  top: "loss1/fc"
  dropout_param {
    dropout_ratio: 0.7
  }
}
layer {
  name: "loss1/classifier_kaggle"
  type: "InnerProduct"
  bottom: "loss1/fc"
  top: "loss1/classifier_kaggle"
  param {
    lr_mult: 1
    decay_mult: 1
  }
  param {
    lr_mult: 2
    decay_mult: 0
  }
  inner_product_param {
    num_output: 447
    weight_filler {
      type: "xavier"
    }
    bias_filler {
      type: "constant"
      value: 0
    }
  }
}
layer {
  name: "loss1/loss"
  type: "SoftmaxWithLoss"
  bottom: "loss1/classifier_kaggle"
  bottom: "label"
  top: "loss1/loss1"
  loss_weight: 0.3
}
layer {
  name: "loss1/top-1"
  type: "Accuracy"
  bottom: "loss1/classifier_kaggle"
  bottom: "label"
  top: "loss1/top-1"
  include {
    phase: TEST
  }
}
layer {
  name: "loss1/top-5"
  type: "Accuracy"
  bottom: "loss1/classifier_kaggle"
  bottom: "label"
  top: "loss1/top-5"
  include {
    phase: TEST
  }
  accuracy_param {
    top_k: 5
  }
}
layer {
  name: "inception_4b/1x1"
  type: "Convolution"
  bottom: "inception_4a/output"
  top: "inception_4b/1x1"
  param {
    lr_mult: 1
    decay_mult: 1
  }
  param {
    lr_mult: 2
    decay_mult: 0
  }
  convolution_param {
    num_output: 160
    kernel_size: 1
    weight_filler {
      type: "xavier"
    }
    bias_filler {
      type: "constant"
      value: 0.2
    }
  }
}
layer {
  name: "inception_4b/relu_1x1"
  type: "ReLU"
  bottom: "inception_4b/1x1"
  top: "inception_4b/1x1"
}
layer {
  name: "inception_4b/3x3_reduce"
  type: "Convolution"
  bottom: "inception_4a/output"
  top: "inception_4b/3x3_reduce"
  param {
    lr_mult: 1
    decay_mult: 1
  }
  param {
    lr_mult: 2
    decay_mult: 0
  }
  convolution_param {
    num_output: 112
    kernel_size: 1
    weight_filler {
      type: "xavier"
    }
    bias_filler {
      type: "constant"
      value: 0.2
    }
  }
}
layer {
  name: "inception_4b/relu_3x3_reduce"
  type: "ReLU"
  bottom: "inception_4b/3x3_reduce"
  top: "inception_4b/3x3_reduce"
}
layer {
  name: "inception_4b/3x3"
  type: "Convolution"
  bottom: "inception_4b/3x3_reduce"
  top: "inception_4b/3x3"
  param {
    lr_mult: 1
    decay_mult: 1
  }
  param {
    lr_mult: 2
    decay_mult: 0
  }
  convolution_param {
    num_output: 224
    pad: 1
    kernel_size: 3
    weight_filler {
      type: "xavier"
    }
    bias_filler {
      type: "constant"
      value: 0.2
    }
  }
}
layer {
  name: "inception_4b/relu_3x3"
  type: "ReLU"
  bottom: "inception_4b/3x3"
  top: "inception_4b/3x3"
}
layer {
  name: "inception_4b/5x5_reduce"
  type: "Convolution"
  bottom: "inception_4a/output"
  top: "inception_4b/5x5_reduce"
  param {
    lr_mult: 1
    decay_mult: 1
  }
  param {
    lr_mult: 2
    decay_mult: 0
  }
  convolution_param {
    num_output: 24
    kernel_size: 1
    weight_filler {
      type: "xavier"
    }
    bias_filler {
      type: "constant"
      value: 0.2
    }
  }
}
layer {
  name: "inception_4b/relu_5x5_reduce"
  type: "ReLU"
  bottom: "inception_4b/5x5_reduce"
  top: "inception_4b/5x5_reduce"
}
layer {
  name: "inception_4b/5x5"
  type: "Convolution"
  bottom: "inception_4b/5x5_reduce"
  top: "inception_4b/5x5"
  param {
    lr_mult: 1
    decay_mult: 1
  }
  param {
    lr_mult: 2
    decay_mult: 0
  }
  convolution_param {
    num_output: 64
    pad: 2
    kernel_size: 5
    weight_filler {
      type: "xavier"
    }
    bias_filler {
      type: "constant"
      value: 0.2
    }
  }
}
layer {
  name: "inception_4b/relu_5x5"
  type: "ReLU"
  bottom: "inception_4b/5x5"
  top: "inception_4b/5x5"
}
layer {
  name: "inception_4b/pool"
  type: "Pooling"
  bottom: "inception_4a/output"
  top: "inception_4b/pool"
  pooling_param {
    pool: MAX
    kernel_size: 3
    stride: 1
    pad: 1
  }
}
layer {
  name: "inception_4b/pool_proj"
  type: "Convolution"
  bottom: "inception_4b/pool"
  top: "inception_4b/pool_proj"
  param {
    lr_mult: 1
    decay_mult: 1
  }
  param {
    lr_mult: 2
    decay_mult: 0
  }
  convolution_param {
    num_output: 64
    kernel_size: 1
    weight_filler {
      type: "xavier"
    }
    bias_filler {
      type: "constant"
      value: 0.2
    }
  }
}
layer {
  name: "inception_4b/relu_pool_proj"
  type: "ReLU"
  bottom: "inception_4b/pool_proj"
  top: "inception_4b/pool_proj"
}
layer {
  name: "inception_4b/output"
  type: "Concat"
  bottom: "inception_4b/1x1"
  bottom: "inception_4b/3x3"
  bottom: "inception_4b/5x5"
  bottom: "inception_4b/pool_proj"
  top: "inception_4b/output"
}
layer {
  name: "inception_4c/1x1"
  type: "Convolution"
  bottom: "inception_4b/output"
  top: "inception_4c/1x1"
  param {
    lr_mult: 1
    decay_mult: 1
  }
  param {
    lr_mult: 2
    decay_mult: 0
  }
  convolution_param {
    num_output: 128
    kernel_size: 1
    weight_filler {
      type: "xavier"
    }
    bias_filler {
      type: "constant"
      value: 0.2
    }
  }
}
layer {
  name: "inception_4c/relu_1x1"
  type: "ReLU"
  bottom: "inception_4c/1x1"
  top: "inception_4c/1x1"
}
layer {
  name: "inception_4c/3x3_reduce"
  type: "Convolution"
  bottom: "inception_4b/output"
  top: "inception_4c/3x3_reduce"
  param {
    lr_mult: 1
    decay_mult: 1
  }
  param {
    lr_mult: 2
    decay_mult: 0
  }
  convolution_param {
    num_output: 128
    kernel_size: 1
    weight_filler {
      type: "xavier"
    }
    bias_filler {
      type: "constant"
      value: 0.2
    }
  }
}
layer {
  name: "inception_4c/relu_3x3_reduce"
  type: "ReLU"
  bottom: "inception_4c/3x3_reduce"
  top: "inception_4c/3x3_reduce"
}
layer {
  name: "inception_4c/3x3"
  type: "Convolution"
  bottom: "inception_4c/3x3_reduce"
  top: "inception_4c/3x3"
  param {
    lr_mult: 1
    decay_mult: 1
  }
  param {
    lr_mult: 2
    decay_mult: 0
  }
  convolution_param {
    num_output: 256
    pad: 1
    kernel_size: 3
    weight_filler {
      type: "xavier"
    }
    bias_filler {
      type: "constant"
      value: 0.2
    }
  }
}
layer {
  name: "inception_4c/relu_3x3"
  type: "ReLU"
  bottom: "inception_4c/3x3"
  top: "inception_4c/3x3"
}
layer {
  name: "inception_4c/5x5_reduce"
  type: "Convolution"
  bottom: "inception_4b/output"
  top: "inception_4c/5x5_reduce"
  param {
    lr_mult: 1
    decay_mult: 1
  }
  param {
    lr_mult: 2
    decay_mult: 0
  }
  convolution_param {
    num_output: 24
    kernel_size: 1
    weight_filler {
      type: "xavier"
    }
    bias_filler {
      type: "constant"
      value: 0.2
    }
  }
}
layer {
  name: "inception_4c/relu_5x5_reduce"
  type: "ReLU"
  bottom: "inception_4c/5x5_reduce"
  top: "inception_4c/5x5_reduce"
}
layer {
  name: "inception_4c/5x5"
  type: "Convolution"
  bottom: "inception_4c/5x5_reduce"
  top: "inception_4c/5x5"
  param {
    lr_mult: 1
    decay_mult: 1
  }
  param {
    lr_mult: 2
    decay_mult: 0
  }
  convolution_param {
    num_output: 64
    pad: 2
    kernel_size: 5
    weight_filler {
      type: "xavier"
    }
    bias_filler {
      type: "constant"
      value: 0.2
    }
  }
}
layer {
  name: "inception_4c/relu_5x5"
  type: "ReLU"
  bottom: "inception_4c/5x5"
  top: "inception_4c/5x5"
}
layer {
  name: "inception_4c/pool"
  type: "Pooling"
  bottom: "inception_4b/output"
  top: "inception_4c/pool"
  pooling_param {
    pool: MAX
    kernel_size: 3
    stride: 1
    pad: 1
  }
}
layer {
  name: "inception_4c/pool_proj"
  type: "Convolution"
  bottom: "inception_4c/pool"
  top: "inception_4c/pool_proj"
  param {
    lr_mult: 1
    decay_mult: 1
  }
  param {
    lr_mult: 2
    decay_mult: 0
  }
  convolution_param {
    num_output: 64
    kernel_size: 1
    weight_filler {
      type: "xavier"
    }
    bias_filler {
      type: "constant"
      value: 0.2
    }
  }
}
layer {
  name: "inception_4c/relu_pool_proj"
  type: "ReLU"
  bottom: "inception_4c/pool_proj"
  top: "inception_4c/pool_proj"
}
layer {
  name: "inception_4c/output"
  type: "Concat"
  bottom: "inception_4c/1x1"
  bottom: "inception_4c/3x3"
  bottom: "inception_4c/5x5"
  bottom: "inception_4c/pool_proj"
  top: "inception_4c/output"
}
layer {
  name: "inception_4d/1x1"
  type: "Convolution"
  bottom: "inception_4c/output"
  top: "inception_4d/1x1"
  param {
    lr_mult: 1
    decay_mult: 1
  }
  param {
    lr_mult: 2
    decay_mult: 0
  }
  convolution_param {
    num_output: 112
    kernel_size: 1
    weight_filler {
      type: "xavier"
    }
    bias_filler {
      type: "constant"
      value: 0.2
    }
  }
}
layer {
  name: "inception_4d/relu_1x1"
  type: "ReLU"
  bottom: "inception_4d/1x1"
  top: "inception_4d/1x1"
}
layer {
  name: "inception_4d/3x3_reduce"
  type: "Convolution"
  bottom: "inception_4c/output"
  top: "inception_4d/3x3_reduce"
  param {
    lr_mult: 1
    decay_mult: 1
  }
  param {
    lr_mult: 2
    decay_mult: 0
  }
  convolution_param {
    num_output: 144
    kernel_size: 1
    weight_filler {
      type: "xavier"
    }
    bias_filler {
      type: "constant"
      value: 0.2
    }
  }
}
layer {
  name: "inception_4d/relu_3x3_reduce"
  type: "ReLU"
  bottom: "inception_4d/3x3_reduce"
  top: "inception_4d/3x3_reduce"
}
layer {
  name: "inception_4d/3x3"
  type: "Convolution"
  bottom: "inception_4d/3x3_reduce"
  top: "inception_4d/3x3"
  param {
    lr_mult: 1
    decay_mult: 1
  }
  param {
    lr_mult: 2
    decay_mult: 0
  }
  convolution_param {
    num_output: 288
    pad: 1
    kernel_size: 3
    weight_filler {
      type: "xavier"
    }
    bias_filler {
      type: "constant"
      value: 0.2
    }
  }
}
layer {
  name: "inception_4d/relu_3x3"
  type: "ReLU"
  bottom: "inception_4d/3x3"
  top: "inception_4d/3x3"
}
layer {
  name: "inception_4d/5x5_reduce"
  type: "Convolution"
  bottom: "inception_4c/output"
  top: "inception_4d/5x5_reduce"
  param {
    lr_mult: 1
    decay_mult: 1
  }
  param {
    lr_mult: 2
    decay_mult: 0
  }
  convolution_param {
    num_output: 32
    kernel_size: 1
    weight_filler {
      type: "xavier"
    }
    bias_filler {
      type: "constant"
      value: 0.2
    }
  }
}
layer {
  name: "inception_4d/relu_5x5_reduce"
  type: "ReLU"
  bottom: "inception_4d/5x5_reduce"
  top: "inception_4d/5x5_reduce"
}
layer {
  name: "inception_4d/5x5"
  type: "Convolution"
  bottom: "inception_4d/5x5_reduce"
  top: "inception_4d/5x5"
  param {
    lr_mult: 1
    decay_mult: 1
  }
  param {
    lr_mult: 2
    decay_mult: 0
  }
  convolution_param {
    num_output: 64
    pad: 2
    kernel_size: 5
    weight_filler {
      type: "xavier"
    }
    bias_filler {
      type: "constant"
      value: 0.2
    }
  }
}
layer {
  name: "inception_4d/relu_5x5"
  type: "ReLU"
  bottom: "inception_4d/5x5"
  top: "inception_4d/5x5"
}
layer {
  name: "inception_4d/pool"
  type: "Pooling"
  bottom: "inception_4c/output"
  top: "inception_4d/pool"
  pooling_param {
    pool: MAX
    kernel_size: 3
    stride: 1
    pad: 1
  }
}
layer {
  name: "inception_4d/pool_proj"
  type: "Convolution"
  bottom: "inception_4d/pool"
  top: "inception_4d/pool_proj"
  param {
    lr_mult: 1
    decay_mult: 1
  }
  param {
    lr_mult: 2
    decay_mult: 0
  }
  convolution_param {
    num_output: 64
    kernel_size: 1
    weight_filler {
      type: "xavier"
    }
    bias_filler {
      type: "constant"
      value: 0.2
    }
  }
}
layer {
  name: "inception_4d/relu_pool_proj"
  type: "ReLU"
  bottom: "inception_4d/pool_proj"
  top: "inception_4d/pool_proj"
}
layer {
  name: "inception_4d/output"
  type: "Concat"
  bottom: "inception_4d/1x1"
  bottom: "inception_4d/3x3"
  bottom: "inception_4d/5x5"
  bottom: "inception_4d/pool_proj"
  top: "inception_4d/output"
}
layer {
  name: "loss2/ave_pool"
  type: "Pooling"
  bottom: "inception_4d/output"
  top: "loss2/ave_pool"
  pooling_param {
    pool: AVE
    kernel_size: 5
    stride: 3
  }
}
layer {
  name: "loss2/conv"
  type: "Convolution"
…
I1217 21:43:40.642360 26585 net.cpp:84] Creating Layer inception_4c/1x1
I1217 21:43:40.642369 26585 net.cpp:380] inception_4c/1x1 <- inception_4b/output_inception_4b/output_0_split_0
I1217 21:43:40.642381 26585 net.cpp:338] inception_4c/1x1 -> inception_4c/1x1
I1217 21:43:40.642393 26585 net.cpp:113] Setting up inception_4c/1x1
I1217 21:43:40.643892 26585 net.cpp:120] Top shape: 50 128 14 14 (1254400)
I1217 21:43:40.643908 26585 layer_factory.hpp:74] Creating layer inception_4c/relu_1x1
I1217 21:43:40.643915 26585 net.cpp:84] Creating Layer inception_4c/relu_1x1
I1217 21:43:40.643920 26585 net.cpp:380] inception_4c/relu_1x1 <- inception_4c/1x1
I1217 21:43:40.643929 26585 net.cpp:327] inception_4c/relu_1x1 -> inception_4c/1x1 (in-place)
I1217 21:43:40.643940 26585 net.cpp:113] Setting up inception_4c/relu_1x1
I1217 21:43:40.644469 26585 net.cpp:120] Top shape: 50 128 14 14 (1254400)
I1217 21:43:40.644495 26585 layer_factory.hpp:74] Creating layer inception_4c/3x3_reduce
I1217 21:43:40.644511 26585 net.cpp:84] Creating Layer inception_4c/3x3_reduce
I1217 21:43:40.644521 26585 net.cpp:380] inception_4c/3x3_reduce <- inception_4b/output_inception_4b/output_0_split_1
I1217 21:43:40.644536 26585 net.cpp:338] inception_4c/3x3_reduce -> inception_4c/3x3_reduce
I1217 21:43:40.644548 26585 net.cpp:113] Setting up inception_4c/3x3_reduce
I1217 21:43:40.646065 26585 net.cpp:120] Top shape: 50 128 14 14 (1254400)
I1217 21:43:40.646088 26585 layer_factory.hpp:74] Creating layer inception_4c/relu_3x3_reduce
I1217 21:43:40.646102 26585 net.cpp:84] Creating Layer inception_4c/relu_3x3_reduce
I1217 21:43:40.646112 26585 net.cpp:380] inception_4c/relu_3x3_reduce <- inception_4c/3x3_reduce
I1217 21:43:40.646123 26585 net.cpp:327] inception_4c/relu_3x3_reduce -> inception_4c/3x3_reduce (in-place)
I1217 21:43:40.646138 26585 net.cpp:113] Setting up inception_4c/relu_3x3_reduce
I1217 21:43:40.646224 26585 net.cpp:120] Top shape: 50 128 14 14 (1254400)
I1217 21:43:40.646234 26585 layer_factory.hpp:74] Creating layer inception_4c/3x3
I1217 21:43:40.646241 26585 net.cpp:84] Creating Layer inception_4c/3x3
I1217 21:43:40.646246 26585 net.cpp:380] inception_4c/3x3 <- inception_4c/3x3_reduce
I1217 21:43:40.646255 26585 net.cpp:338] inception_4c/3x3 -> inception_4c/3x3
I1217 21:43:40.646265 26585 net.cpp:113] Setting up inception_4c/3x3
I1217 21:43:40.650542 26585 net.cpp:120] Top shape: 50 256 14 14 (2508800)
I1217 21:43:40.650578 26585 layer_factory.hpp:74] Creating layer inception_4c/relu_3x3
I1217 21:43:40.650591 26585 net.cpp:84] Creating Layer inception_4c/relu_3x3
I1217 21:43:40.650599 26585 net.cpp:380] inception_4c/relu_3x3 <- inception_4c/3x3
I1217 21:43:40.650605 26585 net.cpp:327] inception_4c/relu_3x3 -> inception_4c/3x3 (in-place)
I1217 21:43:40.650612 26585 net.cpp:113] Setting up inception_4c/relu_3x3
I1217 21:43:40.650687 26585 net.cpp:120] Top shape: 50 256 14 14 (2508800)
I1217 21:43:40.650697 26585 layer_factory.hpp:74] Creating layer inception_4c/5x5_reduce
I1217 21:43:40.650712 26585 net.cpp:84] Creating Layer inception_4c/5x5_reduce
I1217 21:43:40.650718 26585 net.cpp:380] inception_4c/5x5_reduce <- inception_4b/output_inception_4b/output_0_split_2
I1217 21:43:40.650725 26585 net.cpp:338] inception_4c/5x5_reduce -> inception_4c/5x5_reduce
I1217 21:43:40.650733 26585 net.cpp:113] Setting up inception_4c/5x5_reduce
I1217 21:43:40.651866 26585 net.cpp:120] Top shape: 50 24 14 14 (235200)
I1217 21:43:40.651887 26585 layer_factory.hpp:74] Creating layer inception_4c/relu_5x5_reduce
I1217 21:43:40.651897 26585 net.cpp:84] Creating Layer inception_4c/relu_5x5_reduce
I1217 21:43:40.651906 26585 net.cpp:380] inception_4c/relu_5x5_reduce <- inception_4c/5x5_reduce
I1217 21:43:40.651912 26585 net.cpp:327] inception_4c/relu_5x5_reduce -> inception_4c/5x5_reduce (in-place)
I1217 21:43:40.651919 26585 net.cpp:113] Setting up inception_4c/relu_5x5_reduce
I1217 21:43:40.652515 26585 net.cpp:120] Top shape: 50 24 14 14 (235200)
I1217 21:43:40.652529 26585 layer_factory.hpp:74] Creating layer inception_4c/5x5
I1217 21:43:40.652541 26585 net.cpp:84] Creating Layer inception_4c/5x5
I1217 21:43:40.652549 26585 net.cpp:380] inception_4c/5x5 <- inception_4c/5x5_reduce
I1217 21:43:40.652565 26585 net.cpp:338] inception_4c/5x5 -> inception_4c/5x5
I1217 21:43:40.652578 26585 net.cpp:113] Setting up inception_4c/5x5
I1217 21:43:40.653823 26585 net.cpp:120] Top shape: 50 64 14 14 (627200)
I1217 21:43:40.653846 26585 layer_factory.hpp:74] Creating layer inception_4c/relu_5x5
I1217 21:43:40.653859 26585 net.cpp:84] Creating Layer inception_4c/relu_5x5
I1217 21:43:40.653868 26585 net.cpp:380] inception_4c/relu_5x5 <- inception_4c/5x5
I1217 21:43:40.653878 26585 net.cpp:327] inception_4c/relu_5x5 -> inception_4c/5x5 (in-place)
I1217 21:43:40.653889 26585 net.cpp:113] Setting up inception_4c/relu_5x5
I1217 21:43:40.653971 26585 net.cpp:120] Top shape: 50 64 14 14 (627200)
I1217 21:43:40.653985 26585 layer_factory.hpp:74] Creating layer inception_4c/pool
I1217 21:43:40.654000 26585 layer_factory.cpp:56] CUDNN does not support padding or multiple tops. Using Caffe's own pooling layer.
I1217 21:43:40.654009 26585 net.cpp:84] Creating Layer inception_4c/pool
I1217 21:43:40.654017 26585 net.cpp:380] inception_4c/pool <- inception_4b/output_inception_4b/output_0_split_3
I1217 21:43:40.654031 26585 net.cpp:338] inception_4c/pool -> inception_4c/pool
I1217 21:43:40.654041 26585 net.cpp:113] Setting up inception_4c/pool
I1217 21:43:40.654048 26585 net.cpp:120] Top shape: 50 512 14 14 (5017600)
I1217 21:43:40.654053 26585 layer_factory.hpp:74] Creating layer inception_4c/pool_proj
I1217 21:43:40.654063 26585 net.cpp:84] Creating Layer inception_4c/pool_proj
I1217 21:43:40.654068 26585 net.cpp:380] inception_4c/pool_proj <- inception_4c/pool
I1217 21:43:40.654074 26585 net.cpp:338] inception_4c/pool_proj -> inception_4c/pool_proj
I1217 21:43:40.654083 26585 net.cpp:113] Setting up inception_4c/pool_proj
I1217 21:43:40.655246 26585 net.cpp:120] Top shape: 50 64 14 14 (627200)
I1217 21:43:40.655268 26585 layer_factory.hpp:74] Creating layer inception_4c/relu_pool_proj
I1217 21:43:40.655279 26585 net.cpp:84] Creating Layer inception_4c/relu_pool_proj
I1217 21:43:40.655288 26585 net.cpp:380] inception_4c/relu_pool_proj <- inception_4c/pool_proj
I1217 21:43:40.655303 26585 net.cpp:327] inception_4c/relu_pool_proj -> inception_4c/pool_proj (in-place)
I1217 21:43:40.655314 26585 net.cpp:113] Setting up inception_4c/relu_pool_proj
I1217 21:43:40.655411 26585 net.cpp:120] Top shape: 50 64 14 14 (627200)
I1217 21:43:40.655419 26585 layer_factory.hpp:74] Creating layer inception_4c/output
I1217 21:43:40.655426 26585 net.cpp:84] Creating Layer inception_4c/output
I1217 21:43:40.655431 26585 net.cpp:380] inception_4c/output <- inception_4c/1x1
I1217 21:43:40.655436 26585 net.cpp:380] inception_4c/output <- inception_4c/3x3
I1217 21:43:40.655441 26585 net.cpp:380] inception_4c/output <- inception_4c/5x5
I1217 21:43:40.655447 26585 net.cpp:380] inception_4c/output <- inception_4c/pool_proj
I1217 21:43:40.655455 26585 net.cpp:338] inception_4c/output -> inception_4c/output
I1217 21:43:40.655467 26585 net.cpp:113] Setting up inception_4c/output
I1217 21:43:40.655479 26585 net.cpp:120] Top shape: 50 512 14 14 (5017600)
I1217 21:43:40.655485 26585 layer_factory.hpp:74] Creating layer inception_4c/output_inception_4c/output_0_split
I1217 21:43:40.655491 26585 net.cpp:84] Creating Layer inception_4c/output_inception_4c/output_0_split
I1217 21:43:40.655496 26585 net.cpp:380] inception_4c/output_inception_4c/output_0_split <- inception_4c/output
I1217 21:43:40.655503 26585 net.cpp:338] inception_4c/output_inception_4c/output_0_split -> inception_4c/output_inception_4c/output_0_split_0
I1217 21:43:40.655509 26585 net.cpp:338] inception_4c/output_inception_4c/output_0_split -> inception_4c/output_inception_4c/output_0_split_1
I1217 21:43:40.655522 26585 net.cpp:338] inception_4c/output_inception_4c/output_0_split -> inception_4c/output_inception_4c/output_0_split_2
I1217 21:43:40.655534 26585 net.cpp:338] inception_4c/output_inception_4c/output_0_split -> inception_4c/output_inception_4c/output_0_split_3
I1217 21:43:40.655544 26585 net.cpp:113] Setting up inception_4c/output_inception_4c/output_0_split
I1217 21:43:40.655555 26585 net.cpp:120] Top shape: 50 512 14 14 (5017600)
I1217 21:43:40.655565 26585 net.cpp:120] Top shape: 50 512 14 14 (5017600)
I1217 21:43:40.655572 26585 net.cpp:120] Top shape: 50 512 14 14 (5017600)
I1217 21:43:40.655580 26585 net.cpp:120] Top shape: 50 512 14 14 (5017600)
I1217 21:43:40.655587 26585 layer_factory.hpp:74] Creating layer inception_4d/1x1
I1217 21:43:40.655601 26585 net.cpp:84] Creating Layer inception_4d/1x1
I1217 21:43:40.655611 26585 net.cpp:380] inception_4d/1x1 <- inception_4c/output_inception_4c/output_0_split_0
I1217 21:43:40.655621 26585 net.cpp:338] inception_4d/1x1 -> inception_4d/1x1
I1217 21:43:40.655633 26585 net.cpp:113] Setting up inception_4d/1x1
I1217 21:43:40.657085 26585 net.cpp:120] Top shape: 50 112 14 14 (1097600)
I1217 21:43:40.657115 26585 layer_factory.hpp:74] Creating layer inception_4d/relu_1x1
I1217 21:43:40.657124 26585 net.cpp:84] Creating Layer inception_4d/relu_1x1
I1217 21:43:40.657130 26585 net.cpp:380] inception_4d/relu_1x1 <- inception_4d/1x1
I1217 21:43:40.657143 26585 net.cpp:327] inception_4d/relu_1x1 -> inception_4d/1x1 (in-place)
I1217 21:43:40.657155 26585 net.cpp:113] Setting up inception_4d/relu_1x1
I1217 21:43:40.657244 26585 net.cpp:120] Top shape: 50 112 14 14 (1097600)
I1217 21:43:40.657256 26585 layer_factory.hpp:74] Creating layer inception_4d/3x3_reduce
I1217 21:43:40.657271 26585 net.cpp:84] Creating Layer inception_4d/3x3_reduce
I1217 21:43:40.657279 26585 net.cpp:380] inception_4d/3x3_reduce <- inception_4c/output_inception_4c/output_0_split_1
I1217 21:43:40.657291 26585 net.cpp:338] inception_4d/3x3_reduce -> inception_4d/3x3_reduce
I1217 21:43:40.657306 26585 net.cpp:113] Setting up inception_4d/3x3_reduce
I1217 21:43:40.658892 26585 net.cpp:120] Top shape: 50 144 14 14 (1411200)
I1217 21:43:40.658915 26585 layer_factory.hpp:74] Creating layer inception_4d/relu_3x3_reduce
I1217 21:43:40.658928 26585 net.cpp:84] Creating Layer inception_4d/relu_3x3_reduce
I1217 21:43:40.658936 26585 net.cpp:380] inception_4d/relu_3x3_reduce <- inception_4d/3x3_reduce
I1217 21:43:40.658942 26585 net.cpp:327] inception_4d/relu_3x3_reduce -> inception_4d/3x3_reduce (in-place)
I1217 21:43:40.658949 26585 net.cpp:113] Setting up inception_4d/relu_3x3_reduce
I1217 21:43:40.659492 26585 net.cpp:120] Top shape: 50 144 14 14 (1411200)
I1217 21:43:40.659504 26585 layer_factory.hpp:74] Creating layer inception_4d/3x3
I1217 21:43:40.659515 26585 net.cpp:84] Creating Layer inception_4d/3x3
I1217 21:43:40.659521 26585 net.cpp:380] inception_4d/3x3 <- inception_4d/3x3_reduce
I1217 21:43:40.659528 26585 net.cpp:338] inception_4d/3x3 -> inception_4d/3x3
I1217 21:43:40.659539 26585 net.cpp:113] Setting up inception_4d/3x3
I1217 21:43:40.664964 26585 net.cpp:120] Top shape: 50 288 14 14 (2822400)
I1217 21:43:40.664983 26585 layer_factory.hpp:74] Creating layer inception_4d/relu_3x3
I1217 21:43:40.664994 26585 net.cpp:84] Creating Layer inception_4d/relu_3x3
I1217 21:43:40.665000 26585 net.cpp:380] inception_4d/relu_3x3 <- inception_4d/3x3
I1217 21:43:40.665009 26585 net.cpp:327] inception_4d/relu_3x3 -> inception_4d/3x3 (in-place)
I1217 21:43:40.665019 26585 net.cpp:113] Setting up inception_4d/relu_3x3
I1217 21:43:40.665133 26585 net.cpp:120] Top shape: 50 288 14 14 (2822400)
I1217 21:43:40.665148 26585 layer_factory.hpp:74] Creating layer inception_4d/5x5_reduce
I1217 21:43:40.665163 26585 net.cpp:84] Creating Layer inception_4d/5x5_reduce
I1217 21:43:40.665172 26585 net.cpp:380] inception_4d/5x5_reduce <- inception_4c/output_inception_4c/output_0_split_2
I1217 21:43:40.665186 26585 net.cpp:338] inception_4d/5x5_reduce -> inception_4d/5x5_reduce
I1217 21:43:40.665200 26585 net.cpp:113] Setting up inception_4d/5x5_reduce
I1217 21:43:40.666692 26585 net.cpp:120] Top shape: 50 32 14 14 (313600)
I1217 21:43:40.666712 26585 layer_factory.hpp:74] Creating layer inception_4d/relu_5x5_reduce
I1217 21:43:40.666726 26585 net.cpp:84] Creating Layer inception_4d/relu_5x5_reduce
I1217 21:43:40.666736 26585 net.cpp:380] inception_4d/relu_5x5_reduce <- inception_4d/5x5_reduce
I1217 21:43:40.666745 26585 net.cpp:327] inception_4d/relu_5x5_reduce -> inception_4d/5x5_reduce (in-place)
I1217 21:43:40.666754 26585 net.cpp:113] Setting up inception_4d/relu_5x5_reduce
I1217 21:43:40.666851 26585 net.cpp:120] Top shape: 50 32 14 14 (313600)
I1217 21:43:40.666862 26585 layer_factory.hpp:74] Creating layer inception_4d/5x5
I1217 21:43:40.666878 26585 net.cpp:84] Creating Layer inception_4d/5x5
I1217 21:43:40.666887 26585 net.cpp:380] inception_4d/5x5 <- inception_4d/5x5_reduce
I1217 21:43:40.666898 26585 net.cpp:338] inception_4d/5x5 -> inception_4d/5x5
I1217 21:43:40.666913 26585 net.cpp:113] Setting up inception_4d/5x5
I1217 21:43:40.668277 26585 net.cpp:120] Top shape: 50 64 14 14 (627200)
I1217 21:43:40.668310 26585 layer_factory.hpp:74] Creating layer inception_4d/relu_5x5
I1217 21:43:40.668336 26585 net.cpp:84] Creating Layer inception_4d/relu_5x5
I1217 21:43:40.668342 26585 net.cpp:380] inception_4d/relu_5x5 <- inception_4d/5x5
I1217 21:43:40.668349 26585 net.cpp:327] inception_4d/relu_5x5 -> inception_4d/5x5 (in-place)
I1217 21:43:40.668359 26585 net.cpp:113] Setting up inception_4d/relu_5x5
I1217 21:43:40.668464 26585 net.cpp:120] Top shape: 50 64 14 14 (627200)
I1217 21:43:40.668476 26585 layer_factory.hpp:74] Creating layer inception_4d/pool
I1217 21:43:40.668485 26585 layer_factory.cpp:56] CUDNN does not support padding or multiple tops. Using Caffe's own pooling layer.
I1217 21:43:40.668496 26585 net.cpp:84] Creating Layer inception_4d/pool
I1217 21:43:40.668504 26585 net.cpp:380] inception_4d/pool <- inception_4c/output_inception_4c/output_0_split_3
I1217 21:43:40.668514 26585 net.cpp:338] inception_4d/pool -> inception_4d/pool
I1217 21:43:40.668524 26585 net.cpp:113] Setting up inception_4d/pool
I1217 21:43:40.668534 26585 net.cpp:120] Top shape: 50 512 14 14 (5017600)
I1217 21:43:40.668537 26585 layer_factory.hpp:74] Creating layer inception_4d/pool_proj
I1217 21:43:40.668547 26585 net.cpp:84] Creating Layer inception_4d/pool_proj
I1217 21:43:40.668552 26585 net.cpp:380] inception_4d/pool_proj <- inception_4d/pool
I1217 21:43:40.668558 26585 net.cpp:338] inception_4d/pool_proj -> inception_4d/pool_proj
I1217 21:43:40.668566 26585 net.cpp:113] Setting up inception_4d/pool_proj
I1217 21:43:40.669994 26585 net.cpp:120] Top shape: 50 64 14 14 (627200)
I1217 21:43:40.670023 26585 layer_factory.hpp:74] Creating layer inception_4d/relu_pool_proj
I1217 21:43:40.670037 26585 net.cpp:84] Creating Layer inception_4d/relu_pool_proj
I1217 21:43:40.670047 26585 net.cpp:380] inception_4d/relu_pool_proj <- inception_4d/pool_proj
I1217 21:43:40.670060 26585 net.cpp:327] inception_4d/relu_pool_proj -> inception_4d/pool_proj (in-place)
I1217 21:43:40.670073 26585 net.cpp:113] Setting up inception_4d/relu_pool_proj
I1217 21:43:40.670402 26585 net.cpp:120] Top shape: 50 64 14 14 (627200)
I1217 21:43:40.670414 26585 layer_factory.hpp:74] Creating layer inception_4d/output
I1217 21:43:40.670423 26585 net.cpp:84] Creating Layer inception_4d/output
I1217 21:43:40.670428 26585 net.cpp:380] inception_4d/output <- inception_4d/1x1
I1217 21:43:40.670435 26585 net.cpp:380] inception_4d/output <- inception_4d/3x3
I1217 21:43:40.670440 26585 net.cpp:380] inception_4d/output <- inception_4d/5x5
I1217 21:43:40.670446 26585 net.cpp:380] inception_4d/output <- inception_4d/pool_proj
I1217 21:43:40.670454 26585 net.cpp:338] inception_4d/output -> inception_4d/output
I1217 21:43:40.670466 26585 net.cpp:113] Setting up inception_4d/output
I1217 21:43:40.670480 26585 net.cpp:120] Top shape: 50 528 14 14 (5174400)
I1217 21:43:40.670485 26585 layer_factory.hpp:74] Creating layer inception_4d/output_inception_4d/output_0_split
I1217 21:43:40.670493 26585 net.cpp:84] Creating Layer inception_4d/output_inception_4d/output_0_split
I1217 21:43:40.670498 26585 net.cpp:380] inception_4d/output_inception_4d/output_0_split <- inception_4d/output
I1217 21:43:40.670506 26585 net.cpp:338] inception_4d/output_inception_4d/output_0_split -> inception_4d/output_inception_4d/output_0_split_0
I1217 21:43:40.670517 26585 net.cpp:338] inception_4d/output_inception_4d/output_0_split -> inception_4d/output_inception_4d/output_0_split_1
I1217 21:43:40.670529 26585 net.cpp:338] inception_4d/output_inception_4d/output_0_split -> inception_4d/output_inception_4d/output_0_split_2
I1217 21:43:40.670542 26585 net.cpp:338] inception_4d/output_inception_4d/output_0_split -> inception_4d/output_inception_4d/output_0_split_3
I1217 21:43:40.670552 26585 net.cpp:338] inception_4d/output_inception_4d/output_0_split -> inception_4d/output_inception_4d/output_0_split_4
I1217 21:43:40.670572 26585 net.cpp:113] Setting up inception_4d/output_inception_4d/output_0_split
I1217 21:43:40.670584 26585 net.cpp:120] Top shape: 50 528 14 14 (5174400)
I1217 21:43:40.670603 26585 net.cpp:120] Top shape: 50 528 14 14 (5174400)
I1217 21:43:40.670625 26585 net.cpp:120] Top shape: 50 528 14 14 (5174400)
I1217 21:43:40.670634 26585 net.cpp:120] Top shape: 50 528 14 14 (5174400)
I1217 21:43:40.670644 26585 net.cpp:120] Top shape: 50 528 14 14 (5174400)
I1217 21:43:40.670651 26585 layer_factory.hpp:74] Creating layer loss2/ave_pool
I1217 21:43:40.670662 26585 net.cpp:84] Creating Layer loss2/ave_pool
I1217 21:43:40.670668 26585 net.cpp:380] loss2/ave_pool <- inception_4d/output_inception_4d/output_0_split_0
I1217 21:43:40.670675 26585 net.cpp:338] loss2/ave_pool -> loss2/ave_pool
I1217 21:43:40.670683 26585 net.cpp:113] Setting up loss2/ave_pool
I1217 21:43:40.670785 26585 net.cpp:120] Top shape: 50 528 4 4 (422400)
I1217 21:43:40.670794 26585 layer_factory.hpp:74] Creating layer loss2/conv
I1217 21:43:40.670806 26585 net.cpp:84] Creating Layer loss2/conv
I1217 21:43:40.670815 26585 net.cpp:380] loss2/conv <- loss2/ave_pool
I1217 21:43:40.670828 26585 net.cpp:338] loss2/conv -> loss2/conv
I1217 21:43:40.670841 26585 net.cpp:113] Setting up loss2/conv
I1217 21:43:40.672529 26585 net.cpp:120] Top shape: 50 128 4 4 (102400)
I1217 21:43:40.672546 26585 layer_factory.hpp:74] Creating layer loss2/relu_conv
I1217 21:43:40.672559 26585 net.cpp:84] Creating Layer loss2/relu_conv
I1217 21:43:40.672567 26585 net.cpp:380] loss2/relu_conv <- loss2/conv
I1217 21:43:40.672577 26585 net.cpp:327] loss2/relu_conv -> loss2/conv (in-place)
I1217 21:43:40.672587 26585 net.cpp:113] Setting up loss2/relu_conv
I1217 21:43:40.672672 26585 net.cpp:120] Top shape: 50 128 4 4 (102400)
I1217 21:43:40.672684 26585 layer_factory.hpp:74] Creating layer loss2/fc
I1217 21:43:40.672698 26585 net.cpp:84] Creating Layer loss2/fc
I1217 21:43:40.672705 26585 net.cpp:380] loss2/fc <- loss2/conv
I1217 21:43:40.672716 26585 net.cpp:338] loss2/fc -> loss2/fc
I1217 21:43:40.672729 26585 net.cpp:113] Setting up loss2/fc
I1217 21:43:40.696192 26585 net.cpp:120] Top shape: 50 1024 (51200)
I1217 21:43:40.696239 26585 layer_factory.hpp:74] Creating layer loss2/relu_fc
I1217 21:43:40.696257 26585 net.cpp:84] Creating Layer loss2/relu_fc
I1217 21:43:40.696269 26585 net.cpp:380] loss2/relu_fc <- loss2/fc
I1217 21:43:40.696286 26585 net.cpp:327] loss2/relu_fc -> loss2/fc (in-place)
I1217 21:43:40.696302 26585 net.cpp:113] Setting up loss2/relu_fc
I1217 21:43:40.696452 26585 net.cpp:120] Top shape: 50 1024 (51200)
I1217 21:43:40.696465 26585 layer_factory.hpp:74] Creating layer loss2/drop_fc
I1217 21:43:40.696480 26585 net.cpp:84] Creating Layer loss2/drop_fc
I1217 21:43:40.696488 26585 net.cpp:380] loss2/drop_fc <- loss2/fc
I1217 21:43:40.696498 26585 net.cpp:327] loss2/drop_fc -> loss2/fc (in-place)
I1217 21:43:40.696509 26585 net.cpp:113] Setting up loss2/drop_fc
I1217 21:43:40.696522 26585 net.cpp:120] Top shape: 50 1024 (51200)
I1217 21:43:40.696530 26585 layer_factory.hpp:74] Creating layer loss2/classifier_kaggle
I1217 21:43:40.696547 26585 net.cpp:84] Creating Layer loss2/classifier_kaggle
I1217 21:43:40.696555 26585 net.cpp:380] loss2/classifier_kaggle <- loss2/fc
I1217 21:43:40.696565 26585 net.cpp:338] loss2/classifier_kaggle -> loss2/classifier_kaggle
I1217 21:43:40.696575 26585 net.cpp:113] Setting up loss2/classifier_kaggle
I1217 21:43:40.702059 26585 net.cpp:120] Top shape: 50 447 (22350)
I1217 21:43:40.702086 26585 layer_factory.hpp:74] Creating layer loss2/classifier_kaggle_loss2/classifier_kaggle_0_split
I1217 21:43:40.702096 26585 net.cpp:84] Creating Layer loss2/classifier_kaggle_loss2/classifier_kaggle_0_split
I1217 21:43:40.702103 26585 net.cpp:380] loss2/classifier_kaggle_loss2/classifier_kaggle_0_split <- loss2/classifier_kaggle
I1217 21:43:40.702111 26585 net.cpp:338] loss2/classifier_kaggle_loss2/classifier_kaggle_0_split -> loss2/classifier_kaggle_loss2/classifier_kaggle_0_split_0
I1217 21:43:40.702123 26585 net.cpp:338] loss2/classifier_kaggle_loss2/classifier_kaggle_0_split -> loss2/classifier_kaggle_loss2/classifier_kaggle_0_split_1
I1217 21:43:40.702136 26585 net.cpp:338] loss2/classifier_kaggle_loss2/classifier_kaggle_0_split -> loss2/classifier_kaggle_loss2/classifier_kaggle_0_split_2
I1217 21:43:40.702169 26585 net.cpp:113] Setting up loss2/classifier_kaggle_loss2/classifier_kaggle_0_split
I1217 21:43:40.702178 26585 net.cpp:120] Top shape: 50 447 (22350)
I1217 21:43:40.702183 26585 net.cpp:120] Top shape: 50 447 (22350)
I1217 21:43:40.702190 26585 net.cpp:120] Top shape: 50 447 (22350)
I1217 21:43:40.702198 26585 layer_factory.hpp:74] Creating layer loss2/loss
I1217 21:43:40.702211 26585 net.cpp:84] Creating Layer loss2/loss
I1217 21:43:40.702219 26585 net.cpp:380] loss2/loss <- loss2/classifier_kaggle_loss2/classifier_kaggle_0_split_0
I1217 21:43:40.702229 26585 net.cpp:380] loss2/loss <- label_data_1_split_3
I1217 21:43:40.702239 26585 net.cpp:338] loss2/loss -> loss2/loss1
…
I1217 21:43:40.703315 26585 net.cpp:338] loss2/top-5 -> loss2/top-5
I1217 21:43:40.703322 26585 net.cpp:113] Setting up loss2/top-5
I1217 21:43:40.703328 26585 net.cpp:120] Top shape: (1)
I1217 21:43:40.703332 26585 layer_factory.hpp:74] Creating layer inception_4e/1x1
I1217 21:43:40.703343 26585 net.cpp:84] Creating Layer inception_4e/1x1
I1217 21:43:40.703349 26585 net.cpp:380] inception_4e/1x1 <- inception_4d/output_inception_4d/output_0_split_1
I1217 21:43:40.703368 26585 net.cpp:338] inception_4e/1x1 -> inception_4e/1x1
I1217 21:43:40.703380 26585 net.cpp:113] Setting up inception_4e/1x1
I1217 21:43:40.705965 26585 net.cpp:120] Top shape: 50 256 14 14 (2508800)
I1217 21:43:40.705981 26585 layer_factory.hpp:74] Creating layer inception_4e/relu_1x1
I1217 21:43:40.705996 26585 net.cpp:84] Creating Layer inception_4e/relu_1x1
I1217 21:43:40.706006 26585 net.cpp:380] inception_4e/relu_1x1 <- inception_4e/1x1
I1217 21:43:40.706015 26585 net.cpp:327] inception_4e/relu_1x1 -> inception_4e/1x1 (in-place)
I1217 21:43:40.706027 26585 net.cpp:113] Setting up inception_4e/relu_1x1
I1217 21:43:40.706135 26585 net.cpp:120] Top shape: 50 256 14 14 (2508800)
I1217 21:43:40.706147 26585 layer_factory.hpp:74] Creating layer inception_4e/3x3_reduce
I1217 21:43:40.706187 26585 net.cpp:84] Creating Layer inception_4e/3x3_reduce
I1217 21:43:40.706195 26585 net.cpp:380] inception_4e/3x3_reduce <- inception_4d/output_inception_4d/output_0_split_2
I1217 21:43:40.706207 26585 net.cpp:338] inception_4e/3x3_reduce -> inception_4e/3x3_reduce
I1217 21:43:40.706214 26585 net.cpp:113] Setting up inception_4e/3x3_reduce
I1217 21:43:40.709516 26585 net.cpp:120] Top shape: 50 160 14 14 (1568000)
I1217 21:43:40.709537 26585 layer_factory.hpp:74] Creating layer inception_4e/relu_3x3_reduce
I1217 21:43:40.709553 26585 net.cpp:84] Creating Layer inception_4e/relu_3x3_reduce
I1217 21:43:40.709560 26585 net.cpp:380] inception_4e/relu_3x3_reduce <- inception_4e/3x3_reduce
I1217 21:43:40.709568 26585 net.cpp:327] inception_4e/relu_3x3_reduce -> inception_4e/3x3_reduce (in-place)
I1217 21:43:40.709574 26585 net.cpp:113] Setting up inception_4e/relu_3x3_reduce
I1217 21:43:40.709673 26585 net.cpp:120] Top shape: 50 160 14 14 (1568000)
I1217 21:43:40.709707 26585 layer_factory.hpp:74] Creating layer inception_4e/3x3
I1217 21:43:40.709722 26585 net.cpp:84] Creating Layer inception_4e/3x3
I1217 21:43:40.709733 26585 net.cpp:380] inception_4e/3x3 <- inception_4e/3x3_reduce
I1217 21:43:40.709743 26585 net.cpp:338] inception_4e/3x3 -> inception_4e/3x3
I1217 21:43:40.709751 26585 net.cpp:113] Setting up inception_4e/3x3
I1217 21:43:40.716001 26585 net.cpp:120] Top shape: 50 320 14 14 (3136000)
I1217 21:43:40.716023 26585 layer_factory.hpp:74] Creating layer inception_4e/relu_3x3
I1217 21:43:40.716032 26585 net.cpp:84] Creating Layer inception_4e/relu_3x3
I1217 21:43:40.716042 26585 net.cpp:380] inception_4e/relu_3x3 <- inception_4e/3x3
I1217 21:43:40.716053 26585 net.cpp:327] inception_4e/relu_3x3 -> inception_4e/3x3 (in-place)
I1217 21:43:40.716064 26585 net.cpp:113] Setting up inception_4e/relu_3x3
I1217 21:43:40.716605 26585 net.cpp:120] Top shape: 50 320 14 14 (3136000)
I1217 21:43:40.716621 26585 layer_factory.hpp:74] Creating layer inception_4e/5x5_reduce
I1217 21:43:40.716635 26585 net.cpp:84] Creating Layer inception_4e/5x5_reduce
I1217 21:43:40.716645 26585 net.cpp:380] inception_4e/5x5_reduce <- inception_4d/output_inception_4d/output_0_split_3
I1217 21:43:40.716658 26585 net.cpp:338] inception_4e/5x5_reduce -> inception_4e/5x5_reduce
I1217 21:43:40.716673 26585 net.cpp:113] Setting up inception_4e/5x5_reduce
I1217 21:43:40.717941 26585 net.cpp:120] Top shape: 50 32 14 14 (313600)
I1217 21:43:40.717962 26585 layer_factory.hpp:74] Creating layer inception_4e/relu_5x5_reduce
I1217 21:43:40.717978 26585 net.cpp:84] Creating Layer inception_4e/relu_5x5_reduce
I1217 21:43:40.717986 26585 net.cpp:380] inception_4e/relu_5x5_reduce <- inception_4e/5x5_reduce
I1217 21:43:40.717998 26585 net.cpp:327] inception_4e/relu_5x5_reduce -> inception_4e/5x5_reduce (in-place)
I1217 21:43:40.718011 26585 net.cpp:113] Setting up inception_4e/relu_5x5_reduce
I1217 21:43:40.718094 26585 net.cpp:120] Top shape: 50 32 14 14 (313600)
I1217 21:43:40.718102 26585 layer_factory.hpp:74] Creating layer inception_4e/5x5
I1217 21:43:40.718112 26585 net.cpp:84] Creating Layer inception_4e/5x5
I1217 21:43:40.718117 26585 net.cpp:380] inception_4e/5x5 <- inception_4e/5x5_reduce
I1217 21:43:40.718127 26585 net.cpp:338] inception_4e/5x5 -> inception_4e/5x5
I1217 21:43:40.718138 26585 net.cpp:113] Setting up inception_4e/5x5
I1217 21:43:40.729909 26585 net.cpp:120] Top shape: 50 128 14 14 (1254400)
I1217 21:43:40.729943 26585 layer_factory.hpp:74] Creating layer inception_4e/relu_5x5
I1217 21:43:40.729966 26585 net.cpp:84] Creating Layer inception_4e/relu_5x5
I1217 21:43:40.729977 26585 net.cpp:380] inception_4e/relu_5x5 <- inception_4e/5x5
I1217 21:43:40.729990 26585 net.cpp:327] inception_4e/relu_5x5 -> inception_4e/5x5 (in-place)
I1217 21:43:40.730005 26585 net.cpp:113] Setting up inception_4e/relu_5x5
I1217 21:43:40.730093 26585 net.cpp:120] Top shape: 50 128 14 14 (1254400)
I1217 21:43:40.730100 26585 layer_factory.hpp:74] Creating layer inception_4e/pool
I1217 21:43:40.730108 26585 layer_factory.cpp:56] CUDNN does not support padding or multiple tops. Using Caffe's own pooling layer.
I1217 21:43:40.730116 26585 net.cpp:84] Creating Layer inception_4e/pool
I1217 21:43:40.730123 26585 net.cpp:380] inception_4e/pool <- inception_4d/output_inception_4d/output_0_split_4
I1217 21:43:40.730129 26585 net.cpp:338] inception_4e/pool -> inception_4e/pool
I1217 21:43:40.730139 26585 net.cpp:113] Setting up inception_4e/pool
I1217 21:43:40.730149 26585 net.cpp:120] Top shape: 50 528 14 14 (5174400)
I1217 21:43:40.730154 26585 layer_factory.hpp:74] Creating layer inception_4e/pool_proj
I1217 21:43:40.730166 26585 net.cpp:84] Creating Layer inception_4e/pool_proj
I1217 21:43:40.730171 26585 net.cpp:380] inception_4e/pool_proj <- inception_4e/pool
I1217 21:43:40.730178 26585 net.cpp:338] inception_4e/pool_proj -> inception_4e/pool_proj
I1217 21:43:40.730186 26585 net.cpp:113] Setting up inception_4e/pool_proj
I1217 21:43:40.731847 26585 net.cpp:120] Top shape: 50 128 14 14 (1254400)
I1217 21:43:40.731873 26585 layer_factory.hpp:74] Creating layer inception_4e/relu_pool_proj
I1217 21:43:40.731896 26585 net.cpp:84] Creating Layer inception_4e/relu_pool_proj
I1217 21:43:40.731904 26585 net.cpp:380] inception_4e/relu_pool_proj <- inception_4e/pool_proj
I1217 21:43:40.731910 26585 net.cpp:327] inception_4e/relu_pool_proj -> inception_4e/pool_proj (in-place)
I1217 21:43:40.731919 26585 net.cpp:113] Setting up inception_4e/relu_pool_proj
I1217 21:43:40.732005 26585 net.cpp:120] Top shape: 50 128 14 14 (1254400)
I1217 21:43:40.732017 26585 layer_factory.hpp:74] Creating layer inception_4e/output
I1217 21:43:40.732030 26585 net.cpp:84] Creating Layer inception_4e/output
I1217 21:43:40.732036 26585 net.cpp:380] inception_4e/output <- inception_4e/1x1
I1217 21:43:40.732043 26585 net.cpp:380] inception_4e/output <- inception_4e/3x3
I1217 21:43:40.732048 26585 net.cpp:380] inception_4e/output <- inception_4e/5x5
I1217 21:43:40.732053 26585 net.cpp:380] inception_4e/output <- inception_4e/pool_proj
I1217 21:43:40.732060 26585 net.cpp:338] inception_4e/output -> inception_4e/output
I1217 21:43:40.732067 26585 net.cpp:113] Setting up inception_4e/output
I1217 21:43:40.732076 26585 net.cpp:120] Top shape: 50 832 14 14 (8153600)
I1217 21:43:40.732081 26585 layer_factory.hpp:74] Creating layer pool4/3x3_s2
I1217 21:43:40.732089 26585 net.cpp:84] Creating Layer pool4/3x3_s2
I1217 21:43:40.732094 26585 net.cpp:380] pool4/3x3_s2 <- inception_4e/output
I1217 21:43:40.732102 26585 net.cpp:338] pool4/3x3_s2 -> pool4/3x3_s2
I1217 21:43:40.732110 26585 net.cpp:113] Setting up pool4/3x3_s2
I1217 21:43:40.732779 26585 net.cpp:120] Top shape: 50 832 7 7 (2038400)
I1217 21:43:40.732794 26585 layer_factory.hpp:74] Creating layer pool4/3x3_s2_pool4/3x3_s2_0_split
I1217 21:43:40.732803 26585 net.cpp:84] Creating Layer pool4/3x3_s2_pool4/3x3_s2_0_split
I1217 21:43:40.732808 26585 net.cpp:380] pool4/3x3_s2_pool4/3x3_s2_0_split <- pool4/3x3_s2
I1217 21:43:40.732816 26585 net.cpp:338] pool4/3x3_s2_pool4/3x3_s2_0_split -> pool4/3x3_s2_pool4/3x3_s2_0_split_0
I1217 21:43:40.732825 26585 net.cpp:338] pool4/3x3_s2_pool4/3x3_s2_0_split -> pool4/3x3_s2_pool4/3x3_s2_0_split_1
I1217 21:43:40.732833 26585 net.cpp:338] pool4/3x3_s2_pool4/3x3_s2_0_split -> pool4/3x3_s2_pool4/3x3_s2_0_split_2
I1217 21:43:40.732862 26585 net.cpp:338] pool4/3x3_s2_pool4/3x3_s2_0_split -> pool4/3x3_s2_pool4/3x3_s2_0_split_3
I1217 21:43:40.732869 26585 net.cpp:113] Setting up pool4/3x3_s2_pool4/3x3_s2_0_split
I1217 21:43:40.732877 26585 net.cpp:120] Top shape: 50 832 7 7 (2038400)
I1217 21:43:40.732883 26585 net.cpp:120] Top shape: 50 832 7 7 (2038400)
I1217 21:43:40.732892 26585 net.cpp:120] Top shape: 50 832 7 7 (2038400)
I1217 21:43:40.732900 26585 net.cpp:120] Top shape: 50 832 7 7 (2038400)
I1217 21:43:40.732908 26585 layer_factory.hpp:74] Creating layer inception_5a/1x1
I1217 21:43:40.732920 26585 net.cpp:84] Creating Layer inception_5a/1x1
I1217 21:43:40.732928 26585 net.cpp:380] inception_5a/1x1 <- pool4/3x3_s2_pool4/3x3_s2_0_split_0
I1217 21:43:40.732944 26585 net.cpp:338] inception_5a/1x1 -> inception_5a/1x1
I1217 21:43:40.732955 26585 net.cpp:113] Setting up inception_5a/1x1
I1217 21:43:40.736457 26585 net.cpp:120] Top shape: 50 256 7 7 (627200)
I1217 21:43:40.736482 26585 layer_factory.hpp:74] Creating layer inception_5a/relu_1x1
I1217 21:43:40.736493 26585 net.cpp:84] Creating Layer inception_5a/relu_1x1
I1217 21:43:40.736500 26585 net.cpp:380] inception_5a/relu_1x1 <- inception_5a/1x1
I1217 21:43:40.736507 26585 net.cpp:327] inception_5a/relu_1x1 -> inception_5a/1x1 (in-place)
I1217 21:43:40.736515 26585 net.cpp:113] Setting up inception_5a/relu_1x1
I1217 21:43:40.736593 26585 net.cpp:120] Top shape: 50 256 7 7 (627200)
I1217 21:43:40.736599 26585 layer_factory.hpp:74] Creating layer inception_5a/3x3_reduce
I1217 21:43:40.736610 26585 net.cpp:84] Creating Layer inception_5a/3x3_reduce
I1217 21:43:40.736619 26585 net.cpp:380] inception_5a/3x3_reduce <- pool4/3x3_s2_pool4/3x3_s2_0_split_1
I1217 21:43:40.736634 26585 net.cpp:338] inception_5a/3x3_reduce -> inception_5a/3x3_reduce
I1217 21:43:40.736666 26585 net.cpp:113] Setting up inception_5a/3x3_reduce
I1217 21:43:40.739071 26585 net.cpp:120] Top shape: 50 160 7 7 (392000)
I1217 21:43:40.739095 26585 layer_factory.hpp:74] Creating layer inception_5a/relu_3x3_reduce
I1217 21:43:40.739107 26585 net.cpp:84] Creating Layer inception_5a/relu_3x3_reduce
I1217 21:43:40.739116 26585 net.cpp:380] inception_5a/relu_3x3_reduce <- inception_5a/3x3_reduce
I1217 21:43:40.739127 26585 net.cpp:327] inception_5a/relu_3x3_reduce -> inception_5a/3x3_reduce (in-place)
I1217 21:43:40.739138 26585 net.cpp:113] Setting up inception_5a/relu_3x3_reduce
I1217 21:43:40.739225 26585 net.cpp:120] Top shape: 50 160 7 7 (392000)
I1217 21:43:40.739233 26585 layer_factory.hpp:74] Creating layer inception_5a/3x3
I1217 21:43:40.739243 26585 net.cpp:84] Creating Layer inception_5a/3x3
I1217 21:43:40.739248 26585 net.cpp:380] inception_5a/3x3 <- inception_5a/3x3_reduce
I1217 21:43:40.739255 26585 net.cpp:338] inception_5a/3x3 -> inception_5a/3x3
I1217 21:43:40.739264 26585 net.cpp:113] Setting up inception_5a/3x3
I1217 21:43:40.747761 26585 net.cpp:120] Top shape: 50 320 7 7 (784000)
I1217 21:43:40.747805 26585 layer_factory.hpp:74] Creating layer inception_5a/relu_3x3
I1217 21:43:40.747823 26585 net.cpp:84] Creating Layer inception_5a/relu_3x3
I1217 21:43:40.747835 26585 net.cpp:380] inception_5a/relu_3x3 <- inception_5a/3x3
I1217 21:43:40.747848 26585 net.cpp:327] inception_5a/relu_3x3 -> inception_5a/3x3 (in-place)
I1217 21:43:40.747859 26585 net.cpp:113] Setting up inception_5a/relu_3x3
I1217 21:43:40.747948 26585 net.cpp:120] Top shape: 50 320 7 7 (784000)
I1217 21:43:40.747957 26585 layer_factory.hpp:74] Creating layer inception_5a/5x5_reduce
I1217 21:43:40.747969 26585 net.cpp:84] Creating Layer inception_5a/5x5_reduce
I1217 21:43:40.747977 26585 net.cpp:380] inception_5a/5x5_reduce <- pool4/3x3_s2_pool4/3x3_s2_0_split_2
I1217 21:43:40.747983 26585 net.cpp:338] inception_5a/5x5_reduce -> inception_5a/5x5_reduce
I1217 21:43:40.747993 26585 net.cpp:113] Setting up inception_5a/5x5_reduce
I1217 21:43:40.749197 26585 net.cpp:120] Top shape: 50 32 7 7 (78400)
I1217 21:43:40.749215 26585 layer_factory.hpp:74] Creating layer inception_5a/relu_5x5_reduce
I1217 21:43:40.749225 26585 net.cpp:84] Creating Layer inception_5a/relu_5x5_reduce
I1217 21:43:40.749231 26585 net.cpp:380] inception_5a/relu_5x5_reduce <- inception_5a/5x5_reduce
I1217 21:43:40.749239 26585 net.cpp:327] inception_5a/relu_5x5_reduce -> inception_5a/5x5_reduce (in-place)
I1217 21:43:40.749248 26585 net.cpp:113] Setting up inception_5a/relu_5x5_reduce
I1217 21:43:40.749788 26585 net.cpp:120] Top shape: 50 32 7 7 (78400)
I1217 21:43:40.749801 26585 layer_factory.hpp:74] Creating layer inception_5a/5x5
I1217 21:43:40.749811 26585 net.cpp:84] Creating Layer inception_5a/5x5
I1217 21:43:40.749817 26585 net.cpp:380] inception_5a/5x5 <- inception_5a/5x5_reduce
I1217 21:43:40.749827 26585 net.cpp:338] inception_5a/5x5 -> inception_5a/5x5
I1217 21:43:40.749836 26585 net.cpp:113] Setting up inception_5a/5x5
I1217 21:43:40.762380 26585 net.cpp:120] Top shape: 50 128 7 7 (313600)
I1217 21:43:40.762400 26585 layer_factory.hpp:74] Creating layer inception_5a/relu_5x5
I1217 21:43:40.762411 26585 net.cpp:84] Creating Layer inception_5a/relu_5x5
I1217 21:43:40.762418 26585 net.cpp:380] inception_5a/relu_5x5 <- inception_5a/5x5
I1217 21:43:40.762425 26585 net.cpp:327] inception_5a/relu_5x5 -> inception_5a/5x5 (in-place)
I1217 21:43:40.762434 26585 net.cpp:113] Setting up inception_5a/relu_5x5
I1217 21:43:40.762539 26585 net.cpp:120] Top shape: 50 128 7 7 (313600)
I1217 21:43:40.762548 26585 layer_factory.hpp:74] Creating layer inception_5a/pool
I1217 21:43:40.762555 26585 layer_factory.cpp:56] CUDNN does not support padding or multiple tops. Using Caffe's own pooling layer.
I1217 21:43:40.762564 26585 net.cpp:84] Creating Layer inception_5a/pool
I1217 21:43:40.762570 26585 net.cpp:380] inception_5a/pool <- pool4/3x3_s2_pool4/3x3_s2_0_split_3
I1217 21:43:40.762578 26585 net.cpp:338] inception_5a/pool -> inception_5a/pool
I1217 21:43:40.762599 26585 net.cpp:113] Setting up inception_5a/pool
I1217 21:43:40.762629 26585 net.cpp:120] Top shape: 50 832 7 7 (2038400)
I1217 21:43:40.762639 26585 layer_factory.hpp:74] Creating layer inception_5a/pool_proj
I1217 21:43:40.762650 26585 net.cpp:84] Creating Layer inception_5a/pool_proj
I1217 21:43:40.762660 26585 net.cpp:380] inception_5a/pool_proj <- inception_5a/pool
I1217 21:43:40.762670 26585 net.cpp:338] inception_5a/pool_proj -> inception_5a/pool_proj
I1217 21:43:40.762677 26585 net.cpp:113] Setting up inception_5a/pool_proj
I1217 21:43:40.764883 26585 net.cpp:120] Top shape: 50 128 7 7 (313600)
I1217 21:43:40.764900 26585 layer_factory.hpp:74] Creating layer inception_5a/relu_pool_proj
I1217 21:43:40.764910 26585 net.cpp:84] Creating Layer inception_5a/relu_pool_proj
I1217 21:43:40.764916 26585 net.cpp:380] inception_5a/relu_pool_proj <- inception_5a/pool_proj
I1217 21:43:40.764924 26585 net.cpp:327] inception_5a/relu_pool_proj -> inception_5a/pool_proj (in-place)
I1217 21:43:40.764931 26585 net.cpp:113] Setting up inception_5a/relu_pool_proj
I1217 21:43:40.765004 26585 net.cpp:120] Top shape: 50 128 7 7 (313600)
I1217 21:43:40.765010 26585 layer_factory.hpp:74] Creating layer inception_5a/output
I1217 21:43:40.765019 26585 net.cpp:84] Creating Layer inception_5a/output
I1217 21:43:40.765024 26585 net.cpp:380] inception_5a/output <- inception_5a/1x1
I1217 21:43:40.765032 26585 net.cpp:380] inception_5a/output <- inception_5a/3x3
I1217 21:43:40.765036 26585 net.cpp:380] inception_5a/output <- inception_5a/5x5
I1217 21:43:40.765041 26585 net.cpp:380] inception_5a/output <- inception_5a/pool_proj
I1217 21:43:40.765048 26585 net.cpp:338] inception_5a/output -> inception_5a/output
I1217 21:43:40.765069 26585 net.cpp:113] Setting up inception_5a/output
I1217 21:43:40.765084 26585 net.cpp:120] Top shape: 50 832 7 7 (2038400)
I1217 21:43:40.765094 26585 layer_factory.hpp:74] Creating layer inception_5a/output_inception_5a/output_0_split
I1217 21:43:40.765103 26585 net.cpp:84] Creating Layer inception_5a/output_inception_5a/output_0_split
I1217 21:43:40.765111 26585 net.cpp:380] inception_5a/output_inception_5a/output_0_split <- inception_5a/output
I1217 21:43:40.765125 26585 net.cpp:338] inception_5a/output_inception_5a/output_0_split -> inception_5a/output_inception_5a/output_0_split_0
I1217 21:43:40.765137 26585 net.cpp:338] inception_5a/output_inception_5a/output_0_split -> inception_5a/output_inception_5a/output_0_split_1
I1217 21:43:40.765149 26585 net.cpp:338] inception_5a/output_inception_5a/output_0_split -> inception_5a/output_inception_5a/output_0_split_2
I1217 21:43:40.765161 26585 net.cpp:338] inception_5a/output_inception_5a/output_0_split -> inception_5a/output_inception_5a/output_0_split_3
I1217 21:43:40.765169 26585 net.cpp:113] Setting up inception_5a/output_inception_5a/output_0_split
I1217 21:43:40.765177 26585 net.cpp:120] Top shape: 50 832 7 7 (2038400)
I1217 21:43:40.765183 26585 net.cpp:120] Top shape: 50 832 7 7 (2038400)
I1217 21:43:40.765188 26585 net.cpp:120] Top shape: 50 832 7 7 (2038400)
I1217 21:43:40.765193 26585 net.cpp:120] Top shape: 50 832 7 7 (2038400)
I1217 21:43:40.765197 26585 layer_factory.hpp:74] Creating layer inception_5b/1x1
I1217 21:43:40.765208 26585 net.cpp:84] Creating Layer inception_5b/1x1
I1217 21:43:40.765214 26585 net.cpp:380] inception_5b/1x1 <- inception_5a/output_inception_5a/output_0_split_0
I1217 21:43:40.765221 26585 net.cpp:338] inception_5b/1x1 -> inception_5b/1x1
I1217 21:43:40.765228 26585 net.cpp:113] Setting up inception_5b/1x1
I1217 21:43:40.769984 26585 net.cpp:120] Top shape: 50 384 7 7 (940800)
I1217 21:43:40.770004 26585 layer_factory.hpp:74] Creating layer inception_5b/relu_1x1
I1217 21:43:40.770010 26585 net.cpp:84] Creating Layer inception_5b/relu_1x1
I1217 21:43:40.770016 26585 net.cpp:380] inception_5b/relu_1x1 <- inception_5b/1x1
I1217 21:43:40.770023 26585 net.cpp:327] inception_5b/relu_1x1 -> inception_5b/1x1 (in-place)
I1217 21:43:40.770031 26585 net.cpp:113] Setting up inception_5b/relu_1x1
I1217 21:43:40.770139 26585 net.cpp:120] Top shape: 50 384 7 7 (940800)
I1217 21:43:40.770160 26585 layer_factory.hpp:74] Creating layer inception_5b/3x3_reduce
I1217 21:43:40.770172 26585 net.cpp:84] Creating Layer inception_5b/3x3_reduce
I1217 21:43:40.770179 26585 net.cpp:380] inception_5b/3x3_reduce <- inception_5a/output_inception_5a/output_0_split_1
I1217 21:43:40.770186 26585 net.cpp:338] inception_5b/3x3_reduce -> inception_5b/3x3_reduce
I1217 21:43:40.770195 26585 net.cpp:113] Setting up inception_5b/3x3_reduce
I1217 21:43:40.772864 26585 net.cpp:120] Top shape: 50 192 7 7 (470400)
I1217 21:43:40.772883 26585 layer_factory.hpp:74] Creating layer inception_5b/relu_3x3_reduce
I1217 21:43:40.772896 26585 net.cpp:84] Creating Layer inception_5b/relu_3x3_reduce
I1217 21:43:40.772904 26585 net.cpp:380] inception_5b/relu_3x3_reduce <- inception_5b/3x3_reduce
I1217 21:43:40.772914 26585 net.cpp:327] inception_5b/relu_3x3_reduce -> inception_5b/3x3_reduce (in-place)
I1217 21:43:40.772927 26585 net.cpp:113] Setting up inception_5b/relu_3x3_reduce
I1217 21:43:40.773509 26585 net.cpp:120] Top shape: 50 192 7 7 (470400)
I1217 21:43:40.773522 26585 layer_factory.hpp:74] Creating layer inception_5b/3x3
I1217 21:43:40.773531 26585 net.cpp:84] Creating Layer inception_5b/3x3
I1217 21:43:40.773536 26585 net.cpp:380] inception_5b/3x3 <- inception_5b/3x3_reduce
I1217 21:43:40.773546 26585 net.cpp:338] inception_5b/3x3 -> inception_5b/3x3
I1217 21:43:40.773556 26585 net.cpp:113] Setting up inception_5b/3x3
I1217 21:43:40.782341 26585 net.cpp:120] Top shape: 50 384 7 7 (940800)
I1217 21:43:40.782361 26585 layer_factory.hpp:74] Creating layer inception_5b/relu_3x3
I1217 21:43:40.782371 26585 net.cpp:84] Creating Layer inception_5b/relu_3x3
I1217 21:43:40.782380 26585 net.cpp:380] inception_5b/relu_3x3 <- inception_5b/3x3
I1217 21:43:40.782392 26585 net.cpp:327] inception_5b/relu_3x3 -> inception_5b/3x3 (in-place)
I1217 21:43:40.782403 26585 net.cpp:113] Setting up inception_5b/relu_3x3
I1217 21:43:40.782503 26585 net.cpp:120] Top shape: 50 384 7 7 (940800)
I1217 21:43:40.782516 26585 layer_factory.hpp:74] Creating layer inception_5b/5x5_reduce
I1217 21:43:40.782528 26585 net.cpp:84] Creating Layer inception_5b/5x5_reduce
I1217 21:43:40.782537 26585 net.cpp:380] inception_5b/5x5_reduce <- inception_5a/output_inception_5a/output_0_split_2
I1217 21:43:40.782549 26585 net.cpp:338] inception_5b/5x5_reduce -> inception_5b/5x5_reduce
I1217 21:43:40.782558 26585 net.cpp:113] Setting up inception_5b/5x5_reduce
I1217 21:43:40.783768 26585 net.cpp:120] Top shape: 50 48 7 7 (117600)
I1217 21:43:40.783792 26585 layer_factory.hpp:74] Creating layer inception_5b/relu_5x5_reduce
I1217 21:43:40.783802 26585 net.cpp:84] Creating Layer inception_5b/relu_5x5_reduce
I1217 21:43:40.783812 26585 net.cpp:380] inception_5b/relu_5x5_reduce <- inception_5b/5x5_reduce
I1217 21:43:40.783823 26585 net.cpp:327] inception_5b/relu_5x5_reduce -> inception_5b/5x5_reduce (in-place)
I1217 21:43:40.783833 26585 net.cpp:113] Setting up inception_5b/relu_5x5_reduce
I1217 21:43:40.783910 26585 net.cpp:120] Top shape: 50 48 7 7 (117600)
I1217 21:43:40.783917 26585 layer_factory.hpp:74] Creating layer inception_5b/5x5
I1217 21:43:40.783927 26585 net.cpp:84] Creating Layer inception_5b/5x5
I1217 21:43:40.783932 26585 net.cpp:380] inception_5b/5x5 <- inception_5b/5x5_reduce
I1217 21:43:40.783939 26585 net.cpp:338] inception_5b/5x5 -> inception_5b/5x5
I1217 21:43:40.783948 26585 net.cpp:113] Setting up inception_5b/5x5
I1217 21:43:40.786682 26585 net.cpp:120] Top shape: 50 128 7 7 (313600)
I1217 21:43:40.786702 26585 layer_factory.hpp:74] Creating layer inception_5b/relu_5x5
I1217 21:43:40.786710 26585 net.cpp:84] Creating Layer inception_5b/relu_5x5
I1217 21:43:40.786716 26585 net.cpp:380] inception_5b/relu_5x5 <- inception_5b/5x5
I1217 21:43:40.786726 26585 net.cpp:327] inception_5b/relu_5x5 -> inception_5b/5x5 (in-place)
I1217 21:43:40.786739 26585 net.cpp:113] Setting up inception_5b/relu_5x5
I1217 21:43:40.787325 26585 net.cpp:120] Top shape: 50 128 7 7 (313600)
I1217 21:43:40.787343 26585 layer_factory.hpp:74] Creating layer inception_5b/pool
I1217 21:43:40.787358 26585 layer_factory.cpp:56] CUDNN does not support padding or multiple tops. Using Caffe's own pooling layer.
I1217 21:43:40.787365 26585 net.cpp:84] Creating Layer inception_5b/pool
I1217 21:43:40.787371 26585 net.cpp:380] inception_5b/pool <- inception_5a/output_inception_5a/output_0_split_3
I1217 21:43:40.787379 26585 net.cpp:338] inception_5b/pool -> inception_5b/pool
I1217 21:43:40.787387 26585 net.cpp:113] Setting up inception_5b/pool
I1217 21:43:40.787397 26585 net.cpp:120] Top shape: 50 832 7 7 (2038400)
I1217 21:43:40.787402 26585 layer_factory.hpp:74] Creating layer inception_5b/pool_proj
I1217 21:43:40.787412 26585 net.cpp:84] Creating Layer inception_5b/pool_proj
I1217 21:43:40.787417 26585 net.cpp:380] inception_5b/pool_proj <- inception_5b/pool
I1217 21:43:40.787426 26585 net.cpp:338] inception_5b/pool_proj -> inception_5b/pool_proj
I1217 21:43:40.787438 26585 net.cpp:113] Setting up inception_5b/pool_proj
I1217 21:43:40.789510 26585 net.cpp:120] Top shape: 50 128 7 7 (313600)
I1217 21:43:40.789527 26585 layer_factory.hpp:74] Creating layer inception_5b/relu_pool_proj
I1217 21:43:40.789535 26585 net.cpp:84] Creating Layer inception_5b/relu_pool_proj
I1217 21:43:40.789541 26585 net.cpp:380] inception_5b/relu_pool_proj <- inception_5b/pool_proj
I1217 21:43:40.789551 26585 net.cpp:327] inception_5b/relu_pool_proj -> inception_5b/pool_proj (in-place)
I1217 21:43:40.789564 26585 net.cpp:113] Setting up inception_5b/relu_pool_proj
I1217 21:43:40.789666 26585 net.cpp:120] Top shape: 50 128 7 7 (313600)
I1217 21:43:40.789674 26585 layer_factory.hpp:74] Creating layer inception_5b/output
I1217 21:43:40.789682 26585 net.cpp:84] Creating Layer inception_5b/output
I1217 21:43:40.789687 26585 net.cpp:380] inception_5b/output <- inception_5b/1x1
I1217 21:43:40.789693 26585 net.cpp:380] inception_5b/output <- inception_5b/3x3
I1217 21:43:40.789700 26585 net.cpp:380] inception_5b/output <- inception_5b/5x5
I1217 21:43:40.789705 26585 net.cpp:380] inception_5b/output <- inception_5b/pool_proj
I1217 21:43:40.789712 26585 net.cpp:338] inception_5b/output -> inception_5b/output
I1217 21:43:40.789721 26585 net.cpp:113] Setting up inception_5b/output
I1217 21:43:40.789731 26585 net.cpp:120] Top shape: 50 1024 7 7 (2508800)
I1217 21:43:40.789739 26585 layer_factory.hpp:74] Creating layer pool5/7x7_s1
I1217 21:43:40.789751 26585 net.cpp:84] Creating Layer pool5/7x7_s1
I1217 21:43:40.789757 26585 net.cpp:380] pool5/7x7_s1 <- inception_5b/output
I1217 21:43:40.789772 26585 net.cpp:338] pool5/7x7_s1 -> pool5/7x7_s1
I1217 21:43:40.789783 26585 net.cpp:113] Setting up pool5/7x7_s1
I1217 21:43:40.789863 26585 net.cpp:120] Top shape: 50 1024 1 1 (51200)
I1217 21:43:40.789870 26585 layer_factory.hpp:74] Creating layer pool5/drop_7x7_s1
I1217 21:43:40.789880 26585 net.cpp:84] Creating Layer pool5/drop_7x7_s1
I1217 21:43:40.789885 26585 net.cpp:380] pool5/drop_7x7_s1 <- pool5/7x7_s1
I1217 21:43:40.789891 26585 net.cpp:327] pool5/drop_7x7_s1 -> pool5/7x7_s1 (in-place)
I1217 21:43:40.789898 26585 net.cpp:113] Setting up pool5/drop_7x7_s1
I1217 21:43:40.789906 26585 net.cpp:120] Top shape: 50 1024 1 1 (51200)
I1217 21:43:40.789911 26585 layer_factory.hpp:74] Creating layer loss3/classifier_kaggle
I1217 21:43:40.789919 26585 net.cpp:84] Creating Layer loss3/classifier_kaggle
I1217 21:43:40.789923 26585 net.cpp:380] loss3/classifier_kaggle <- pool5/7x7_s1
I1217 21:43:40.789930 26585 net.cpp:338] loss3/classifier_kaggle -> loss3/classifier_kaggle
I1217 21:43:40.789938 26585 net.cpp:113] Setting up loss3/classifier_kaggle
I1217 21:43:40.795493 26585 net.cpp:120] Top shape: 50 447 (22350)
I1217 21:43:40.795512 26585 layer_factory.hpp:74] Creating layer loss3/classifier_kaggle_loss3/classifier_kaggle_0_split
I1217 21:43:40.795521 26585 net.cpp:84] Creating Layer loss3/classifier_kaggle_loss3/classifier_kaggle_0_split
I1217 21:43:40.795526 26585 net.cpp:380] loss3/classifier_kaggle_loss3/classifier_kaggle_0_split <- loss3/classifier_kaggle
I1217 21:43:40.795538 26585 net.cpp:338] loss3/classifier_kaggle_loss3/classifier_kaggle_0_split -> loss3/classifier_kaggle_loss3/classifier_kaggle_0_split_0
I1217 21:43:40.795554 26585 net.cpp:338] loss3/classifier_kaggle_loss3/classifier_kaggle_0_split -> loss3/classifier_kaggle_loss3/classifier_kaggle_0_split_1
I1217 21:43:40.795564 26585 net.cpp:338] loss3/classifier_kaggle_loss3/classifier_kaggle_0_split -> loss3/classifier_kaggle_loss3/classifier_kaggle_0_split_2
I1217 21:43:40.795572 26585 net.cpp:113] Setting up loss3/classifier_kaggle_loss3/classifier_kaggle_0_split
I1217 21:43:40.795578 26585 net.cpp:120] Top shape: 50 447 (22350)
I1217 21:43:40.795583 26585 net.cpp:120] Top shape: 50 447 (22350)
I1217 21:43:40.795588 26585 net.cpp:120] Top shape: 50 447 (22350)
I1217 21:43:40.795593 26585 layer_factory.hpp:74] Creating layer loss3/loss3
I1217 21:43:40.795601 26585 net.cpp:84] Creating Layer loss3/loss3
I1217 21:43:40.795609 26585 net.cpp:380] loss3/loss3 <- loss3/classifier_kaggle_loss3/classifier_kaggle_0_split_0
I1217 21:43:40.795619 26585 net.cpp:380] loss3/loss3 <- label_data_1_split_6
I1217 21:43:40.795631 26585 net.cpp:338] loss3/loss3 -> loss3/loss3
…
