…
I1220 02:04:45.320221 27931 net.cpp:257] The NetState phase (0) differed from the phase (1) specified by a rule in layer loss3/top-5
I1220 02:04:45.322935 27931 net.cpp:42] Initializing net from parameters: 
name: "MYNET"
state {
  phase: TRAIN
}
layer {
  name: "data"
  type: "ImageData"
  top: "data"
  top: "label"
  include {
    phase: TRAIN
  }
  transform_param {
    mirror: false
    crop_size: 224
    mean_value: 129
    mean_value: 129
    mean_value: 129
  }
  image_data_param {
    source: "/home/coldmanck/kaggle/label_train_full.txt"
    batch_size: 80
    shuffle: true
  }
}
layer {
  name: "conv1/7x7_s2"
  type: "Convolution"
  bottom: "data"
  top: "conv1/7x7_s2"
  param {
    lr_mult: 1
    decay_mult: 1
  }
  param {
    lr_mult: 2
    decay_mult: 0
  }
  convolution_param {
    num_output: 64
    pad: 3
    kernel_size: 7
    stride: 2
    weight_filler {
      type: "xavier"
    }
    bias_filler {
      type: "constant"
      value: 0.2
    }
  }
}
layer {
  name: "conv1/relu_7x7"
  type: "ReLU"
  bottom: "conv1/7x7_s2"
  top: "conv1/7x7_s2"
}
layer {
  name: "pool1/3x3_s2"
  type: "Pooling"
  bottom: "conv1/7x7_s2"
  top: "pool1/3x3_s2"
  pooling_param {
    pool: MAX
    kernel_size: 3
    stride: 2
  }
}
layer {
  name: "pool1/norm1"
  type: "LRN"
  bottom: "pool1/3x3_s2"
  top: "pool1/norm1"
  lrn_param {
    local_size: 5
    alpha: 0.0001
    beta: 0.75
  }
}
layer {
  name: "conv2/3x3_reduce"
  type: "Convolution"
  bottom: "pool1/norm1"
  top: "conv2/3x3_reduce"
  param {
    lr_mult: 1
    decay_mult: 1
  }
  param {
    lr_mult: 2
    decay_mult: 0
  }
  convolution_param {
    num_output: 64
    kernel_size: 1
    weight_filler {
      type: "xavier"
    }
    bias_filler {
      type: "constant"
      value: 0.2
    }
  }
}
layer {
  name: "conv2/relu_3x3_reduce"
  type: "ReLU"
  bottom: "conv2/3x3_reduce"
  top: "conv2/3x3_reduce"
}
layer {
  name: "conv2/3x3"
  type: "Convolution"
  bottom: "conv2/3x3_reduce"
  top: "conv2/3x3"
  param {
    lr_mult: 1
    decay_mult: 1
  }
  param {
    lr_mult: 2
    decay_mult: 0
  }
  convolution_param {
    num_output: 192
    pad: 1
    kernel_size: 3
    weight_filler {
      type: "xavier"
    }
    bias_filler {
      type: "constant"
      value: 0.2
    }
  }
}
layer {
  name: "conv2/relu_3x3"
  type: "ReLU"
  bottom: "conv2/3x3"
  top: "conv2/3x3"
}
layer {
  name: "conv2/norm2"
  type: "LRN"
  bottom: "conv2/3x3"
  top: "conv2/norm2"
  lrn_param {
    local_size: 5
    alpha: 0.0001
    beta: 0.75
  }
}
layer {
  name: "pool2/3x3_s2"
  type: "Pooling"
  bottom: "conv2/norm2"
  top: "pool2/3x3_s2"
  pooling_param {
    pool: MAX
    kernel_size: 3
    stride: 2
  }
}
layer {
  name: "inception_3a/1x1"
  type: "Convolution"
  bottom: "pool2/3x3_s2"
  top: "inception_3a/1x1"
  param {
    lr_mult: 1
    decay_mult: 1
  }
  param {
    lr_mult: 2
    decay_mult: 0
  }
  convolution_param {
    num_output: 64
    kernel_size: 1
    weight_filler {
      type: "xavier"
    }
    bias_filler {
      type: "constant"
      value: 0.2
    }
  }
}
layer {
  name: "inception_3a/relu_1x1"
  type: "ReLU"
  bottom: "inception_3a/1x1"
  top: "inception_3a/1x1"
}
layer {
  name: "inception_3a/3x3_reduce"
  type: "Convolution"
  bottom: "pool2/3x3_s2"
  top: "inception_3a/3x3_reduce"
  param {
    lr_mult: 1
    decay_mult: 1
  }
  param {
    lr_mult: 2
    decay_mult: 0
  }
  convolution_param {
    num_output: 96
    kernel_size: 1
    weight_filler {
      type: "xavier"
    }
    bias_filler {
      type: "constant"
      value: 0.2
    }
  }
}
layer {
  name: "inception_3a/relu_3x3_reduce"
  type: "ReLU"
  bottom: "inception_3a/3x3_reduce"
  top: "inception_3a/3x3_reduce"
}
layer {
  name: "inception_3a/3x3"
  type: "Convolution"
  bottom: "inception_3a/3x3_reduce"
  top: "inception_3a/3x3"
  param {
    lr_mult: 1
    decay_mult: 1
  }
  param {
    lr_mult: 2
    decay_mult: 0
  }
  convolution_param {
    num_output: 128
    pad: 1
    kernel_size: 3
    weight_filler {
      type: "xavier"
    }
    bias_filler {
      type: "constant"
      value: 0.2
    }
  }
}
layer {
  name: "inception_3a/relu_3x3"
  type: "ReLU"
  bottom: "inception_3a/3x3"
  top: "inception_3a/3x3"
}
layer {
  name: "inception_3a/5x5_reduce"
  type: "Convolution"
  bottom: "pool2/3x3_s2"
  top: "inception_3a/5x5_reduce"
  param {
    lr_mult: 1
    decay_mult: 1
  }
  param {
    lr_mult: 2
    decay_mult: 0
  }
  convolution_param {
    num_output: 16
    kernel_size: 1
    weight_filler {
      type: "xavier"
    }
    bias_filler {
      type: "constant"
      value: 0.2
    }
  }
}
layer {
  name: "inception_3a/relu_5x5_reduce"
  type: "ReLU"
  bottom: "inception_3a/5x5_reduce"
  top: "inception_3a/5x5_reduce"
}
layer {
  name: "inception_3a/5x5"
  type: "Convolution"
  bottom: "inception_3a/5x5_reduce"
  top: "inception_3a/5x5"
  param {
    lr_mult: 1
    decay_mult: 1
  }
  param {
    lr_mult: 2
    decay_mult: 0
  }
  convolution_param {
    num_output: 32
    pad: 2
    kernel_size: 5
    weight_filler {
      type: "xavier"
    }
    bias_filler {
      type: "constant"
      value: 0.2
    }
  }
}
layer {
  name: "inception_3a/relu_5x5"
  type: "ReLU"
  bottom: "inception_3a/5x5"
  top: "inception_3a/5x5"
}
layer {
  name: "inception_3a/pool"
  type: "Pooling"
  bottom: "pool2/3x3_s2"
  top: "inception_3a/pool"
  pooling_param {
    pool: MAX
    kernel_size: 3
    stride: 1
    pad: 1
  }
}
layer {
  name: "inception_3a/pool_proj"
  type: "Convolution"
  bottom: "inception_3a/pool"
  top: "inception_3a/pool_proj"
  param {
    lr_mult: 1
    decay_mult: 1
  }
  param {
    lr_mult: 2
    decay_mult: 0
  }
  convolution_param {
    num_output: 32
    kernel_size: 1
    weight_filler {
      type: "xavier"
    }
    bias_filler {
      type: "constant"
      value: 0.2
    }
  }
}
layer {
  name: "inception_3a/relu_pool_proj"
  type: "ReLU"
  bottom: "inception_3a/pool_proj"
  top: "inception_3a/pool_proj"
}
layer {
  name: "inception_3a/output"
  type: "Concat"
  bottom: "inception_3a/1x1"
  bottom: "inception_3a/3x3"
  bottom: "inception_3a/5x5"
  bottom: "inception_3a/pool_proj"
  top: "inception_3a/output"
}
layer {
  name: "inception_3b/1x1"
  type: "Convolution"
  bottom: "inception_3a/output"
  top: "inception_3b/1x1"
  param {
    lr_mult: 1
    decay_mult: 1
  }
  param {
    lr_mult: 2
    decay_mult: 0
  }
  convolution_param {
    num_output: 128
    kernel_size: 1
    weight_filler {
      type: "xavier"
    }
    bias_filler {
      type: "constant"
      value: 0.2
    }
  }
}
layer {
  name: "inception_3b/relu_1x1"
  type: "ReLU"
  bottom: "inception_3b/1x1"
  top: "inception_3b/1x1"
}
layer {
  name: "inception_3b/3x3_reduce"
  type: "Convolution"
  bottom: "inception_3a/output"
  top: "inception_3b/3x3_reduce"
  param {
    lr_mult: 1
    decay_mult: 1
  }
  param {
    lr_mult: 2
    decay_mult: 0
  }
  convolution_param {
    num_output: 128
    kernel_size: 1
    weight_filler {
      type: "xavier"
    }
    bias_filler {
      type: "constant"
      value: 0.2
    }
  }
}
layer {
  name: "inception_3b/relu_3x3_reduce"
  type: "ReLU"
  bottom: "inception_3b/3x3_reduce"
  top: "inception_3b/3x3_reduce"
}
layer {
  name: "inception_3b/3x3"
  type: "Convolution"
  bottom: "inception_3b/3x3_reduce"
  top: "inception_3b/3x3"
  param {
    lr_mult: 1
    decay_mult: 1
  }
  param {
    lr_mult: 2
    decay_mult: 0
  }
  convolution_param {
    num_output: 192
    pad: 1
    kernel_size: 3
    weight_filler {
      type: "xavier"
    }
    bias_filler {
      type: "constant"
      value: 0.2
    }
  }
}
layer {
  name: "inception_3b/relu_3x3"
  type: "ReLU"
  bottom: "inception_3b/3x3"
  top: "inception_3b/3x3"
}
layer {
  name: "inception_3b/5x5_reduce"
  type: "Convolution"
  bottom: "inception_3a/output"
  top: "inception_3b/5x5_reduce"
  param {
    lr_mult: 1
    decay_mult: 1
  }
  param {
    lr_mult: 2
    decay_mult: 0
  }
  convolution_param {
    num_output: 32
    kernel_size: 1
    weight_filler {
      type: "xavier"
    }
    bias_filler {
      type: "constant"
      value: 0.2
    }
  }
}
layer {
  name: "inception_3b/relu_5x5_reduce"
  type: "ReLU"
  bottom: "inception_3b/5x5_reduce"
  top: "inception_3b/5x5_reduce"
}
layer {
  name: "inception_3b/5x5"
  type: "Convolution"
  bottom: "inception_3b/5x5_reduce"
  top: "inception_3b/5x5"
  param {
    lr_mult: 1
    decay_mult: 1
  }
  param {
    lr_mult: 2
    decay_mult: 0
  }
  convolution_param {
    num_output: 96
    pad: 2
    kernel_size: 5
    weight_filler {
      type: "xavier"
    }
    bias_filler {
      type: "constant"
      value: 0.2
    }
  }
}
layer {
  name: "inception_3b/relu_5x5"
  type: "ReLU"
  bottom: "inception_3b/5x5"
  top: "inception_3b/5x5"
}
layer {
  name: "inception_3b/pool"
  type: "Pooling"
  bottom: "inception_3a/output"
  top: "inception_3b/pool"
  pooling_param {
    pool: MAX
    kernel_size: 3
    stride: 1
    pad: 1
  }
}
layer {
  name: "inception_3b/pool_proj"
  type: "Convolution"
  bottom: "inception_3b/pool"
  top: "inception_3b/pool_proj"
  param {
    lr_mult: 1
    decay_mult: 1
  }
  param {
    lr_mult: 2
    decay_mult: 0
  }
  convolution_param {
    num_output: 64
    kernel_size: 1
    weight_filler {
      type: "xavier"
    }
    bias_filler {
      type: "constant"
      value: 0.2
    }
  }
}
layer {
  name: "inception_3b/relu_pool_proj"
  type: "ReLU"
  bottom: "inception_3b/pool_proj"
  top: "inception_3b/pool_proj"
}
layer {
  name: "inception_3b/output"
  type: "Concat"
  bottom: "inception_3b/1x1"
  bottom: "inception_3b/3x3"
  bottom: "inception_3b/5x5"
  bottom: "inception_3b/pool_proj"
  top: "inception_3b/output"
}
layer {
  name: "pool3/3x3_s2"
  type: "Pooling"
  bottom: "inception_3b/output"
  top: "pool3/3x3_s2"
  pooling_param {
    pool: MAX
    kernel_size: 3
    stride: 2
  }
}
layer {
  name: "inception_4a/1x1"
  type: "Convolution"
  bottom: "pool3/3x3_s2"
  top: "inception_4a/1x1"
  param {
    lr_mult: 1
    decay_mult: 1
  }
  param {
    lr_mult: 2
    decay_mult: 0
  }
  convolution_param {
    num_output: 192
    kernel_size: 1
    weight_filler {
      type: "xavier"
    }
    bias_filler {
      type: "constant"
      value: 0.2
    }
  }
}
layer {
  name: "inception_4a/relu_1x1"
  type: "ReLU"
  bottom: "inception_4a/1x1"
  top: "inception_4a/1x1"
}
layer {
  name: "inception_4a/3x3_reduce"
  type: "Convolution"
  bottom: "pool3/3x3_s2"
  top: "inception_4a/3x3_reduce"
  param {
    lr_mult: 1
    decay_mult: 1
  }
  param {
    lr_mult: 2
    decay_mult: 0
  }
  convolution_param {
    num_output: 96
    kernel_size: 1
    weight_filler {
      type: "xavier"
    }
    bias_filler {
      type: "constant"
      value: 0.2
    }
  }
}
layer {
  name: "inception_4a/relu_3x3_reduce"
  type: "ReLU"
  bottom: "inception_4a/3x3_reduce"
  top: "inception_4a/3x3_reduce"
}
layer {
  name: "inception_4a/3x3"
  type: "Convolution"
  bottom: "inception_4a/3x3_reduce"
  top: "inception_4a/3x3"
  param {
    lr_mult: 1
    decay_mult: 1
  }
  param {
    lr_mult: 2
    decay_mult: 0
  }
  convolution_param {
    num_output: 208
    pad: 1
    kernel_size: 3
    weight_filler {
      type: "xavier"
    }
    bias_filler {
      type: "constant"
      value: 0.2
    }
  }
}
layer {
  name: "inception_4a/relu_3x3"
  type: "ReLU"
  bottom: "inception_4a/3x3"
  top: "inception_4a/3x3"
}
layer {
  name: "inception_4a/5x5_reduce"
  type: "Convolution"
  bottom: "pool3/3x3_s2"
  top: "inception_4a/5x5_reduce"
  param {
    lr_mult: 1
    decay_mult: 1
  }
  param {
    lr_mult: 2
    decay_mult: 0
  }
  convolution_param {
    num_output: 16
    kernel_size: 1
    weight_filler {
      type: "xavier"
    }
    bias_filler {
      type: "constant"
      value: 0.2
    }
  }
}
layer {
  name: "inception_4a/relu_5x5_reduce"
  type: "ReLU"
  bottom: "inception_4a/5x5_reduce"
  top: "inception_4a/5x5_reduce"
}
layer {
  name: "inception_4a/5x5"
  type: "Convolution"
  bottom: "inception_4a/5x5_reduce"
  top: "inception_4a/5x5"
  param {
    lr_mult: 1
    decay_mult: 1
  }
  param {
    lr_mult: 2
    decay_mult: 0
  }
  convolution_param {
    num_output: 48
    pad: 2
    kernel_size: 5
    weight_filler {
      type: "xavier"
    }
    bias_filler {
      type: "constant"
      value: 0.2
    }
  }
}
layer {
  name: "inception_4a/relu_5x5"
  type: "ReLU"
  bottom: "inception_4a/5x5"
  top: "inception_4a/5x5"
}
layer {
  name: "inception_4a/pool"
  type: "Pooling"
  bottom: "pool3/3x3_s2"
  top: "inception_4a/pool"
  pooling_param {
    pool: MAX
    kernel_size: 3
    stride: 1
    pad: 1
  }
}
layer {
  name: "inception_4a/pool_proj"
  type: "Convolution"
  bottom: "inception_4a/pool"
  top: "inception_4a/pool_proj"
  param {
    lr_mult: 1
    decay_mult: 1
  }
  param {
    lr_mult: 2
    decay_mult: 0
  }
  convolution_param {
    num_output: 64
    kernel_size: 1
    weight_filler {
      type: "xavier"
    }
    bias_filler {
      type: "constant"
      value: 0.2
    }
  }
}
layer {
  name: "inception_4a/relu_pool_proj"
  type: "ReLU"
  bottom: "inception_4a/pool_proj"
  top: "inception_4a/pool_proj"
}
layer {
  name: "inception_4a/output"
  type: "Concat"
  bottom: "inception_4a/1x1"
  bottom: "inception_4a/3x3"
  bottom: "inception_4a/5x5"
  bottom: "inception_4a/pool_proj"
  top: "inception_4a/output"
}
layer {
  name: "loss1/ave_pool"
  type: "Pooling"
  bottom: "inception_4a/output"
  top: "loss1/ave_pool"
  pooling_param {
    pool: AVE
    kernel_size: 5
    stride: 3
  }
}
layer {
  name: "loss1/conv"
  type: "Convolution"
  bottom: "loss1/ave_pool"
  top: "loss1/conv"
  param {
    lr_mult: 1
    decay_mult: 1
  }
  param {
    lr_mult: 2
    decay_mult: 0
  }
  convolution_param {
    num_output: 128
    kernel_size: 1
    weight_filler {
      type: "xavier"
    }
    bias_filler {
      type: "constant"
      value: 0.2
    }
  }
}
layer {
  name: "loss1/relu_conv"
  type: "ReLU"
  bottom: "loss1/conv"
  top: "loss1/conv"
}
layer {
  name: "loss1/fc"
  type: "InnerProduct"
  bottom: "loss1/conv"
  top: "loss1/fc"
  param {
    lr_mult: 1
    decay_mult: 1
  }
  param {
    lr_mult: 2
    decay_mult: 0
  }
  inner_product_param {
    num_output: 1024
    weight_filler {
      type: "xavier"
    }
    bias_filler {
      type: "constant"
      value: 0.2
    }
  }
}
layer {
  name: "loss1/relu_fc"
  type: "ReLU"
  bottom: "loss1/fc"
  top: "loss1/fc"
}
layer {
  name: "loss1/drop_fc"
  type: "Dropout"
  bottom: "loss1/fc"
  top: "loss1/fc"
  dropout_param {
    dropout_ratio: 0.7
  }
}
layer {
  name: "loss1/classifier_kaggle"
  type: "InnerProduct"
  bottom: "loss1/fc"
  top: "loss1/classifier_kaggle"
  param {
    lr_mult: 1
    decay_mult: 1
  }
  param {
    lr_mult: 2
    decay_mult: 0
  }
  inner_product_param {
    num_output: 447
    weight_filler {
      type: "xavier"
    }
    bias_filler {
      type: "constant"
      value: 0
    }
  }
}
layer {
  name: "loss1/loss"
  type: "SoftmaxWithLoss"
  bottom: "loss1/classifier_kaggle"
  bottom: "label"
  top: "loss1/loss1"
  loss_weight: 0.3
}
layer {
  name: "inception_4b/1x1"
  type: "Convolution"
  bottom: "inception_4a/output"
  top: "inception_4b/1x1"
  param {
    lr_mult: 1
    decay_mult: 1
  }
  param {
    lr_mult: 2
    decay_mult: 0
  }
  convolution_param {
    num_output: 160
    kernel_size: 1
    weight_filler {
      type: "xavier"
    }
    bias_filler {
      type: "constant"
      value: 0.2
    }
  }
}
layer {
  name: "inception_4b/relu_1x1"
  type: "ReLU"
  bottom: "inception_4b/1x1"
  top: "inception_4b/1x1"
}
layer {
  name: "inception_4b/3x3_reduce"
  type: "Convolution"
  bottom: "inception_4a/output"
  top: "inception_4b/3x3_reduce"
  param {
    lr_mult: 1
    decay_mult: 1
  }
  param {
    lr_mult: 2
    decay_mult: 0
  }
  convolution_param {
    num_output: 112
    kernel_size: 1
    weight_filler {
      type: "xavier"
    }
    bias_filler {
      type: "constant"
      value: 0.2
    }
  }
}
layer {
  name: "inception_4b/relu_3x3_reduce"
  type: "ReLU"
  bottom: "inception_4b/3x3_reduce"
  top: "inception_4b/3x3_reduce"
}
layer {
  name: "inception_4b/3x3"
  type: "Convolution"
  bottom: "inception_4b/3x3_reduce"
  top: "inception_4b/3x3"
  param {
    lr_mult: 1
    decay_mult: 1
  }
  param {
    lr_mult: 2
    decay_mult: 0
  }
  convolution_param {
    num_output: 224
    pad: 1
    kernel_size: 3
    weight_filler {
      type: "xavier"
    }
    bias_filler {
      type: "constant"
      value: 0.2
    }
  }
}
layer {
  name: "inception_4b/relu_3x3"
  type: "ReLU"
  bottom: "inception_4b/3x3"
  top: "inception_4b/3x3"
}
layer {
  name: "inception_4b/5x5_reduce"
  type: "Convolution"
  bottom: "inception_4a/output"
  top: "inception_4b/5x5_reduce"
  param {
    lr_mult: 1
    decay_mult: 1
  }
  param {
    lr_mult: 2
    decay_mult: 0
  }
  convolution_param {
    num_output: 24
    kernel_size: 1
    weight_filler {
      type: "xavier"
    }
    bias_filler {
      type: "constant"
      value: 0.2
    }
  }
}
layer {
  name: "inception_4b/relu_5x5_reduce"
  type: "ReLU"
  bottom: "inception_4b/5x5_reduce"
  top: "inception_4b/5x5_reduce"
}
layer {
  name: "inception_4b/5x5"
  type: "Convolution"
  bottom: "inception_4b/5x5_reduce"
  top: "inception_4b/5x5"
  param {
    lr_mult: 1
    decay_mult: 1
  }
  param {
    lr_mult: 2
    decay_mult: 0
  }
  convolution_param {
    num_output: 64
    pad: 2
    kernel_size: 5
    weight_filler {
      type: "xavier"
    }
    bias_filler {
      type: "constant"
      value: 0.2
    }
  }
}
layer {
  name: "inception_4b/relu_5x5"
  type: "ReLU"
  bottom: "inception_4b/5x5"
  top: "inception_4b/5x5"
}
layer {
  name: "inception_4b/pool"
  type: "Pooling"
  bottom: "inception_4a/output"
  top: "inception_4b/pool"
  pooling_param {
    pool: MAX
    kernel_size: 3
    stride: 1
    pad: 1
  }
}
layer {
  name: "inception_4b/pool_proj"
  type: "Convolution"
  bottom: "inception_4b/pool"
  top: "inception_4b/pool_proj"
  param {
    lr_mult: 1
    decay_mult: 1
  }
  param {
    lr_mult: 2
    decay_mult: 0
  }
  convolution_param {
    num_output: 64
    kernel_size: 1
    weight_filler {
      type: "xavier"
    }
    bias_filler {
      type: "constant"
      value: 0.2
    }
  }
}
layer {
  name: "inception_4b/relu_pool_proj"
  type: "ReLU"
  bottom: "inception_4b/pool_proj"
  top: "inception_4b/pool_proj"
}
layer {
  name: "inception_4b/output"
  type: "Concat"
  bottom: "inception_4b/1x1"
  bottom: "inception_4b/3x3"
  bottom: "inception_4b/5x5"
  bottom: "inception_4b/pool_proj"
  top: "inception_4b/output"
}
layer {
  name: "inception_4c/1x1"
  type: "Convolution"
  bottom: "inception_4b/output"
  top: "inception_4c/1x1"
  param {
    lr_mult: 1
    decay_mult: 1
  }
  param {
    lr_mult: 2
    decay_mult: 0
  }
  convolution_param {
    num_output: 128
    kernel_size: 1
    weight_filler {
      type: "xavier"
    }
    bias_filler {
      type: "constant"
      value: 0.2
    }
  }
}
layer {
  name: "inception_4c/relu_1x1"
  type: "ReLU"
  bottom: "inception_4c/1x1"
  top: "inception_4c/1x1"
}
layer {
  name: "inception_4c/3x3_reduce"
  type: "Convolution"
  bottom: "inception_4b/output"
  top: "inception_4c/3x3_reduce"
  param {
    lr_mult: 1
    decay_mult: 1
  }
  param {
    lr_mult: 2
    decay_mult: 0
  }
  convolution_param {
    num_output: 128
    kernel_size: 1
    weight_filler {
      type: "xavier"
    }
    bias_filler {
      type: "constant"
      value: 0.2
    }
  }
}
layer {
  name: "inception_4c/relu_3x3_reduce"
  type: "ReLU"
  bottom: "inception_4c/3x3_reduce"
  top: "inception_4c/3x3_reduce"
}
layer {
  name: "inception_4c/3x3"
  type: "Convolution"
  bottom: "inception_4c/3x3_reduce"
  top: "inception_4c/3x3"
  param {
    lr_mult: 1
    decay_mult: 1
  }
  param {
    lr_mult: 2
    decay_mult: 0
  }
  convolution_param {
    num_output: 256
    pad: 1
    kernel_size: 3
    weight_filler {
      type: "xavier"
    }
    bias_filler {
      type: "constant"
      value: 0.2
    }
  }
}
layer {
  name: "inception_4c/relu_3x3"
  type: "ReLU"
  bottom: "inception_4c/3x3"
  top: "inception_4c/3x3"
}
layer {
  name: "inception_4c/5x5_reduce"
  type: "Convolution"
  bottom: "inception_4b/output"
  top: "inception_4c/5x5_reduce"
  param {
    lr_mult: 1
    decay_mult: 1
  }
  param {
    lr_mult: 2
    decay_mult: 0
  }
  convolution_param {
    num_output: 24
    kernel_size: 1
    weight_filler {
      type: "xavier"
    }
    bias_filler {
      type: "constant"
      value: 0.2
    }
  }
}
layer {
  name: "inception_4c/relu_5x5_reduce"
  type: "ReLU"
  bottom: "inception_4c/5x5_reduce"
  top: "inception_4c/5x5_reduce"
}
layer {
  name: "inception_4c/5x5"
  type: "Convolution"
  bottom: "inception_4c/5x5_reduce"
  top: "inception_4c/5x5"
  param {
    lr_mult: 1
    decay_mult: 1
  }
  param {
    lr_mult: 2
    decay_mult: 0
  }
  convolution_param {
    num_output: 64
    pad: 2
    kernel_size: 5
    weight_filler {
      type: "xavier"
    }
    bias_filler {
      type: "constant"
      value: 0.2
    }
  }
}
layer {
  name: "inception_4c/relu_5x5"
  type: "ReLU"
  bottom: "inception_4c/5x5"
  top: "inception_4c/5x5"
}
layer {
  name: "inception_4c/pool"
  type: "Pooling"
  bottom: "inception_4b/output"
  top: "inception_4c/pool"
  pooling_param {
    pool: MAX
    kernel_size: 3
    stride: 1
    pad: 1
  }
}
layer {
  name: "inception_4c/pool_proj"
  type: "Convolution"
  bottom: "inception_4c/pool"
  top: "inception_4c/pool_proj"
  param {
    lr_mult: 1
    decay_mult: 1
  }
  param {
    lr_mult: 2
    decay_mult: 0
  }
  convolution_param {
    num_output: 64
    kernel_size: 1
    weight_filler {
      type: "xavier"
    }
    bias_filler {
      type: "constant"
      value: 0.2
    }
  }
}
layer {
  name: "inception_4c/relu_pool_proj"
  type: "ReLU"
  bottom: "inception_4c/pool_proj"
  top: "inception_4c/pool_proj"
}
layer {
  name: "inception_4c/output"
  type: "Concat"
  bottom: "inception_4c/1x1"
  bottom: "inception_4c/3x3"
  bottom: "inception_4c/5x5"
  bottom: "inception_4c/pool_proj"
  top: "inception_4c/output"
}
layer {
  name: "inception_4d/1x1"
  type: "Convolution"
  bottom: "inception_4c/output"
  top: "inception_4d/1x1"
  param {
    lr_mult: 1
    decay_mult: 1
  }
  param {
    lr_mult: 2
    decay_mult: 0
  }
  convolution_param {
    num_output: 112
    kernel_size: 1
    weight_filler {
      type: "xavier"
    }
    bias_filler {
      type: "constant"
      value: 0.2
    }
  }
}
layer {
  name: "inception_4d/relu_1x1"
  type: "ReLU"
  bottom: "inception_4d/1x1"
  top: "inception_4d/1x1"
}
layer {
  name: "inception_4d/3x3_reduce"
  type: "Convolution"
  bottom: "inception_4c/output"
  top: "inception_4d/3x3_reduce"
  param {
    lr_mult: 1
    decay_mult: 1
  }
  param {
    lr_mult: 2
    decay_mult: 0
  }
  convolution_param {
    num_output: 144
    kernel_size: 1
    weight_filler {
      type: "xavier"
    }
    bias_filler {
      type: "constant"
      value: 0.2
    }
  }
}
layer {
  name: "inception_4d/relu_3x3_reduce"
  type: "ReLU"
  bottom: "inception_4d/3x3_reduce"
  top: "inception_4d/3x3_reduce"
}
layer {
  name: "inception_4d/3x3"
  type: "Convolution"
  bottom: "inception_4d/3x3_reduce"
  top: "inception_4d/3x3"
  param {
    lr_mult: 1
    decay_mult: 1
  }
  param {
    lr_mult: 2
    decay_mult: 0
  }
  convolution_param {
    num_output: 288
    pad: 1
    kernel_size: 3
    weight_filler {
      type: "xavier"
    }
    bias_filler {
      type: "constant"
      value: 0.2
    }
  }
}
layer {
  name: "inception_4d/relu_3x3"
  type: "ReLU"
  bottom: "inception_4d/3x3"
  top: "inception_4d/3x3"
}
layer {
  name: "inception_4d/5x5_reduce"
  type: "Convolution"
  bottom: "inception_4c/output"
  top: "inception_4d/5x5_reduce"
  param {
    lr_mult: 1
    decay_mult: 1
  }
  param {
    lr_mult: 2
    decay_mult: 0
  }
  convolution_param {
    num_output: 32
    kernel_size: 1
    weight_filler {
      type: "xavier"
    }
    bias_filler {
      type: "constant"
      value: 0.2
    }
  }
}
layer {
  name: "inception_4d/relu_5x5_reduce"
  type: "ReLU"
  bottom: "inception_4d/5x5_reduce"
  top: "inception_4d/5x5_reduce"
}
layer {
  name: "inception_4d/5x5"
  type: "Convolution"
  bottom: "inception_4d/5x5_reduce"
  top: "inception_4d/5x5"
  param {
    lr_mult: 1
    decay_mult: 1
  }
  param {
    lr_mult: 2
    decay_mult: 0
  }
  convolution_param {
    num_output: 64
    pad: 2
    kernel_size: 5
    weight_filler {
      type: "xavier"
    }
    bias_filler {
      type: "constant"
      value: 0.2
    }
  }
}
layer {
  name: "inception_4d/relu_5x5"
  type: "ReLU"
  bottom: "inception_4d/5x5"
  top: "inception_4d/5x5"
}
layer {
  name: "inception_4d/pool"
  type: "Pooling"
  bottom: "inception_4c/output"
  top: "inception_4d/pool"
  pooling_param {
    pool: MAX
    kernel_size: 3
    stride: 1
    pad: 1
  }
}
layer {
  name: "inception_4d/pool_proj"
  type: "Convolution"
  bottom: "inception_4d/pool"
  top: "inception_4d/pool_proj"
  param {
    lr_mult: 1
    decay_mult: 1
  }
  param {
    lr_mult: 2
    decay_mult: 0
  }
  convolution_param {
    num_output: 64
    kernel_size: 1
    weight_filler {
      type: "xavier"
    }
    bias_filler {
      type: "constant"
      value: 0.2
    }
  }
}
layer {
  name: "inception_4d/relu_pool_proj"
  type: "ReLU"
  bottom: "inception_4d/pool_proj"
  top: "inception_4d/pool_proj"
}
layer {
  name: "inception_4d/output"
  type: "Concat"
  bottom: "inception_4d/1x1"
  bottom: "inception_4d/3x3"
  bottom: "inception_4d/5x5"
  bottom: "inception_4d/pool_proj"
  top: "inception_4d/output"
}
layer {
  name: "loss2/ave_pool"
  type: "Pooling"
  bottom: "inception_4d/output"
  top: "loss2/ave_pool"
  pooling_param {
    pool: AVE
    kernel_size: 5
    stride: 3
  }
}
layer {
  name: "loss2/conv"
  type: "Convolution"
  bottom: "loss2/ave_pool"
  top: "loss2/conv"
  param {
    lr_mult: 1
    decay_mult: 1
  }
  param {
    lr_mult: 2
    decay_mult: 0
  }
  convolution_param {
    num_output: 128
    kernel_size: 1
    weight_filler {
      type: "xavier"
    }
    bias_filler {
      type: "constant"
      value: 0.2
    }
  }
}
layer {
  name: "loss2/relu_conv"
  type: "ReLU"
  bottom: "loss2/conv"
  top: "loss2/conv"
}
layer {
  name: "loss2/fc"
  type: "InnerProduct"
  bottom: "loss2/conv"
  top: "loss2/fc"
  param {
    lr_mult: 1
    decay_mult: 1
  }
  param {
    lr_mult: 2
    decay_mult: 0
  }
  inner_product_param {
    num_output: 1024
    weight_filler {
      type: "xavier"
    }
    bias_filler {
      type: "constant"
      value: 0.2
    }
  }
}
layer {
  name: "loss2/relu_fc"
  type: "ReLU"
  bottom: "loss2/fc"
  top: "loss2/fc"
}
layer {
  name: "loss2/drop_fc"
  type: "Dropout"
  bottom: "loss2/fc"
  top: "loss2/fc"
  dropout_param {
    dropout_ratio: 0.7
  }
}
layer {
  name: "loss2/classifier_kaggle"
  type: "InnerProduct"
  bottom: "loss2/fc"
  top: "loss2/classifier_kaggle"
  param {
    lr_mult: 1
    decay_mult: 1
  }
  param {
    lr_mult: 2
    decay_mult: 0
  }
  inner_product_param {
    num_output: 447
    weight_filler {
      type: "xavier"
    }
    bias_filler {
      type: "constant"
      value: 0
    }
  }
}
layer {
  name: "loss2/loss"
  type: "SoftmaxWithLoss"
  bottom: "loss2/classifier_kaggle"
  bottom: "label"
  top: "loss2/loss1"
  loss_weight: 0.3
}
layer {
  name: "inception_4e/1x1"
  type: "Convolution"
  bottom: "inception_4d/output"
  top: "inception_4e/1x1"
  param {
    lr_mult: 1
    decay_mult: 1
  }
  param {
    lr_mult: 2
    decay_mult: 0
  }
  convolution_param {
    num_output: 256
    kernel_size: 1
    weight_filler {
      type: "xavier"
    }
    bias_filler {
      type: "constant"
      value: 0.2
    }
  }
}
layer {
  name: "inception_4e/relu_1x1"
  type: "ReLU"
  bottom: "inception_4e/1x1"
  top: "inception_4e/1x1"
}
layer {
  name: "inception_4e/3x3_reduce"
  type: "Convolution"
  bottom: "inception_4d/output"
  top: "inception_4e/3x3_reduce"
  param {
    lr_mult: 1
    decay_mult: 1
  }
  param {
    lr_mult: 2
    decay_mult: 0
  }
  convolution_param {
    num_output: 160
    kernel_size: 1
    weight_filler {
      type: "xavier"
    }
    bias_filler {
      type: "constant"
      value: 0.2
    }
  }
}
layer {
  name: "inception_4e/relu_3x3_reduce"
  type: "ReLU"
  bottom: "inception_4e/3x3_reduce"
  top: "inception_4e/3x3_reduce"
}
layer {
  name: "inception_4e/3x3"
  type: "Convolution"
  bottom: "inception_4e/3x3_reduce"
  top: "inception_4e/3x3"
  param {
    lr_mult: 1
    decay_mult: 1
  }
  param {
    lr_mult: 2
    decay_mult: 0
  }
  convolution_param {
    num_output: 320
    pad: 1
    kernel_size: 3
    weight_filler {
      type: "xavier"
    }
    bias_filler {
      type: "constant"
      value: 0.2
    }
  }
}
layer {
  name: "inception_4e/relu_3x3"
  type: "ReLU"
  bottom: "inception_4e/3x3"
  top: "inception_4e/3x3"
}
layer {
  name: "inception_4e/5x5_reduce"
  type: "Convolution"
  bottom: "inception_4d/output"
  top: "inception_4e/5x5_reduce"
  param {
    lr_mult: 1
    decay_mult: 1
  }
  param {
    lr_mult: 2
    decay_mult: 0
  }
  convolution_param {
    num_output: 32
    kernel_size: 1
    weight_filler {
      type: "xavier"
    }
    bias_filler {
      type: "constant"
      value: 0.2
    }
  }
}
layer {
  name: "inception_4e/relu_5x5_reduce"
  type: "ReLU"
  bottom: "inception_4e/5x5_reduce"
  top: "inception_4e/5x5_reduce"
}
layer {
  name: "inception_4e/5x5"
  type: "Convolution"
  bottom: "inception_4e/5x5_reduce"
  top: "inception_4e/5x5"
  param {
    lr_mult: 1
    decay_mult: 1
  }
  param {
    lr_mult: 2
    decay_mult: 0
  }
  convolution_param {
    num_output: 128
    pad: 2
    kernel_size: 5
    weight_filler {
      type: "xavier"
    }
    bias_filler {
      type: "constant"
      value: 0.2
    }
  }
}
layer {
  name: "inception_4e/relu_5x5"
  type: "ReLU"
  bottom: "inception_4e/5x5"
  top: "inception_4e/5x5"
}
layer {
  name: "inception_4e/pool"
  type: "Pooling"
  bottom: "inception_4d/output"
  top: "inception_4e/pool"
  pooling_p
I1220 02:04:45.324201 27931 layer_factory.hpp:74] Creating layer data
I1220 02:04:45.324259 27931 net.cpp:84] Creating Layer data
I1220 02:04:45.324275 27931 net.cpp:338] data -> data
I1220 02:04:45.324327 27931 net.cpp:338] data -> label
I1220 02:04:45.324345 27931 net.cpp:113] Setting up data
I1220 02:04:45.324357 27931 image_data_layer.cpp:36] Opening file /home/coldmanck/kaggle/label_train_full.txt
I1220 02:04:45.327636 27931 image_data_layer.cpp:46] Shuffling data
I1220 02:04:45.328891 27931 image_data_layer.cpp:51] A total of 4235 images.
I1220 02:04:45.330065 27931 image_data_layer.cpp:80] output data size: 80,3,224,224
I1220 02:04:45.344082 27931 net.cpp:120] Top shape: 80 3 224 224 (12042240)
I1220 02:04:45.344131 27931 net.cpp:120] Top shape: 80 (80)
I1220 02:04:45.344151 27931 layer_factory.hpp:74] Creating layer label_data_1_split
I1220 02:04:45.344221 27931 net.cpp:84] Creating Layer label_data_1_split
I1220 02:04:45.344238 27931 net.cpp:380] label_data_1_split <- label
I1220 02:04:45.344261 27931 net.cpp:338] label_data_1_split -> label_data_1_split_0
I1220 02:04:45.344286 27931 net.cpp:338] label_data_1_split -> label_data_1_split_1
I1220 02:04:45.344317 27931 net.cpp:338] label_data_1_split -> label_data_1_split_2
I1220 02:04:45.344349 27931 net.cpp:113] Setting up label_data_1_split
I1220 02:04:45.344368 27931 net.cpp:120] Top shape: 80 (80)
I1220 02:04:45.344378 27931 net.cpp:120] Top shape: 80 (80)
I1220 02:04:45.344388 27931 net.cpp:120] Top shape: 80 (80)
I1220 02:04:45.344398 27931 layer_factory.hpp:74] Creating layer conv1/7x7_s2
I1220 02:04:45.344420 27931 net.cpp:84] Creating Layer conv1/7x7_s2
I1220 02:04:45.344430 27931 net.cpp:380] conv1/7x7_s2 <- data
I1220 02:04:45.344444 27931 net.cpp:338] conv1/7x7_s2 -> conv1/7x7_s2
I1220 02:04:45.344462 27931 net.cpp:113] Setting up conv1/7x7_s2
I1220 02:04:45.710947 27931 net.cpp:120] Top shape: 80 64 112 112 (64225280)
I1220 02:04:45.711061 27931 layer_factory.hpp:74] Creating layer conv1/relu_7x7
I1220 02:04:45.711088 27931 net.cpp:84] Creating Layer conv1/relu_7x7
I1220 02:04:45.711102 27931 net.cpp:380] conv1/relu_7x7 <- conv1/7x7_s2
I1220 02:04:45.711127 27931 net.cpp:327] conv1/relu_7x7 -> conv1/7x7_s2 (in-place)
I1220 02:04:45.711144 27931 net.cpp:113] Setting up conv1/relu_7x7
I1220 02:04:45.713176 27931 net.cpp:120] Top shape: 80 64 112 112 (64225280)
I1220 02:04:45.713193 27931 layer_factory.hpp:74] Creating layer pool1/3x3_s2
I1220 02:04:45.713227 27931 net.cpp:84] Creating Layer pool1/3x3_s2
I1220 02:04:45.713235 27931 net.cpp:380] pool1/3x3_s2 <- conv1/7x7_s2
I1220 02:04:45.713248 27931 net.cpp:338] pool1/3x3_s2 -> pool1/3x3_s2
I1220 02:04:45.713259 27931 net.cpp:113] Setting up pool1/3x3_s2
I1220 02:04:45.713364 27931 net.cpp:120] Top shape: 80 64 56 56 (16056320)
I1220 02:04:45.713388 27931 layer_factory.hpp:74] Creating layer pool1/norm1
I1220 02:04:45.713404 27931 net.cpp:84] Creating Layer pool1/norm1
I1220 02:04:45.713413 27931 net.cpp:380] pool1/norm1 <- pool1/3x3_s2
I1220 02:04:45.713423 27931 net.cpp:338] pool1/norm1 -> pool1/norm1
I1220 02:04:45.713435 27931 net.cpp:113] Setting up pool1/norm1
I1220 02:04:45.713449 27931 net.cpp:120] Top shape: 80 64 56 56 (16056320)
I1220 02:04:45.713464 27931 layer_factory.hpp:74] Creating layer conv2/3x3_reduce
I1220 02:04:45.713477 27931 net.cpp:84] Creating Layer conv2/3x3_reduce
I1220 02:04:45.713485 27931 net.cpp:380] conv2/3x3_reduce <- pool1/norm1
I1220 02:04:45.713505 27931 net.cpp:338] conv2/3x3_reduce -> conv2/3x3_reduce
I1220 02:04:45.713521 27931 net.cpp:113] Setting up conv2/3x3_reduce
I1220 02:04:45.726827 27931 net.cpp:120] Top shape: 80 64 56 56 (16056320)
I1220 02:04:45.727046 27931 layer_factory.hpp:74] Creating layer conv2/relu_3x3_reduce
I1220 02:04:45.727078 27931 net.cpp:84] Creating Layer conv2/relu_3x3_reduce
I1220 02:04:45.727092 27931 net.cpp:380] conv2/relu_3x3_reduce <- conv2/3x3_reduce
I1220 02:04:45.727110 27931 net.cpp:327] conv2/relu_3x3_reduce -> conv2/3x3_reduce (in-place)
I1220 02:04:45.727133 27931 net.cpp:113] Setting up conv2/relu_3x3_reduce
I1220 02:04:45.727334 27931 net.cpp:120] Top shape: 80 64 56 56 (16056320)
I1220 02:04:45.727354 27931 layer_factory.hpp:74] Creating layer conv2/3x3
I1220 02:04:45.727380 27931 net.cpp:84] Creating Layer conv2/3x3
I1220 02:04:45.727391 27931 net.cpp:380] conv2/3x3 <- conv2/3x3_reduce
I1220 02:04:45.727411 27931 net.cpp:338] conv2/3x3 -> conv2/3x3
I1220 02:04:45.727430 27931 net.cpp:113] Setting up conv2/3x3
I1220 02:04:45.731076 27931 net.cpp:120] Top shape: 80 192 56 56 (48168960)
I1220 02:04:45.731147 27931 layer_factory.hpp:74] Creating layer conv2/relu_3x3
I1220 02:04:45.731168 27931 net.cpp:84] Creating Layer conv2/relu_3x3
I1220 02:04:45.731180 27931 net.cpp:380] conv2/relu_3x3 <- conv2/3x3
I1220 02:04:45.731199 27931 net.cpp:327] conv2/relu_3x3 -> conv2/3x3 (in-place)
I1220 02:04:45.731219 27931 net.cpp:113] Setting up conv2/relu_3x3
I1220 02:04:45.731806 27931 net.cpp:120] Top shape: 80 192 56 56 (48168960)
I1220 02:04:45.731844 27931 layer_factory.hpp:74] Creating layer conv2/norm2
I1220 02:04:45.731868 27931 net.cpp:84] Creating Layer conv2/norm2
I1220 02:04:45.731878 27931 net.cpp:380] conv2/norm2 <- conv2/3x3
I1220 02:04:45.731899 27931 net.cpp:338] conv2/norm2 -> conv2/norm2
I1220 02:04:45.731937 27931 net.cpp:113] Setting up conv2/norm2
I1220 02:04:45.731984 27931 net.cpp:120] Top shape: 80 192 56 56 (48168960)
I1220 02:04:45.731995 27931 layer_factory.hpp:74] Creating layer pool2/3x3_s2
I1220 02:04:45.732015 27931 net.cpp:84] Creating Layer pool2/3x3_s2
I1220 02:04:45.732033 27931 net.cpp:380] pool2/3x3_s2 <- conv2/norm2
I1220 02:04:45.732040 27931 net.cpp:338] pool2/3x3_s2 -> pool2/3x3_s2
I1220 02:04:45.732048 27931 net.cpp:113] Setting up pool2/3x3_s2
I1220 02:04:45.732122 27931 net.cpp:120] Top shape: 80 192 28 28 (12042240)
I1220 02:04:45.732128 27931 layer_factory.hpp:74] Creating layer pool2/3x3_s2_pool2/3x3_s2_0_split
I1220 02:04:45.732137 27931 net.cpp:84] Creating Layer pool2/3x3_s2_pool2/3x3_s2_0_split
I1220 02:04:45.732142 27931 net.cpp:380] pool2/3x3_s2_pool2/3x3_s2_0_split <- pool2/3x3_s2
I1220 02:04:45.732151 27931 net.cpp:338] pool2/3x3_s2_pool2/3x3_s2_0_split -> pool2/3x3_s2_pool2/3x3_s2_0_split_0
I1220 02:04:45.732159 27931 net.cpp:338] pool2/3x3_s2_pool2/3x3_s2_0_split -> pool2/3x3_s2_pool2/3x3_s2_0_split_1
I1220 02:04:45.732167 27931 net.cpp:338] pool2/3x3_s2_pool2/3x3_s2_0_split -> pool2/3x3_s2_pool2/3x3_s2_0_split_2
I1220 02:04:45.732174 27931 net.cpp:338] pool2/3x3_s2_pool2/3x3_s2_0_split -> pool2/3x3_s2_pool2/3x3_s2_0_split_3
I1220 02:04:45.732180 27931 net.cpp:113] Setting up pool2/3x3_s2_pool2/3x3_s2_0_split
I1220 02:04:45.732188 27931 net.cpp:120] Top shape: 80 192 28 28 (12042240)
I1220 02:04:45.732193 27931 net.cpp:120] Top shape: 80 192 28 28 (12042240)
I1220 02:04:45.732198 27931 net.cpp:120] Top shape: 80 192 28 28 (12042240)
I1220 02:04:45.732203 27931 net.cpp:120] Top shape: 80 192 28 28 (12042240)
I1220 02:04:45.732208 27931 layer_factory.hpp:74] Creating layer inception_3a/1x1
I1220 02:04:45.732220 27931 net.cpp:84] Creating Layer inception_3a/1x1
I1220 02:04:45.732226 27931 net.cpp:380] inception_3a/1x1 <- pool2/3x3_s2_pool2/3x3_s2_0_split_0
I1220 02:04:45.732234 27931 net.cpp:338] inception_3a/1x1 -> inception_3a/1x1
I1220 02:04:45.732246 27931 net.cpp:113] Setting up inception_3a/1x1
I1220 02:04:45.732908 27931 net.cpp:120] Top shape: 80 64 28 28 (4014080)
I1220 02:04:45.732933 27931 layer_factory.hpp:74] Creating layer inception_3a/relu_1x1
I1220 02:04:45.732944 27931 net.cpp:84] Creating Layer inception_3a/relu_1x1
I1220 02:04:45.732949 27931 net.cpp:380] inception_3a/relu_1x1 <- inception_3a/1x1
I1220 02:04:45.732959 27931 net.cpp:327] inception_3a/relu_1x1 -> inception_3a/1x1 (in-place)
I1220 02:04:45.732969 27931 net.cpp:113] Setting up inception_3a/relu_1x1
I1220 02:04:45.733036 27931 net.cpp:120] Top shape: 80 64 28 28 (4014080)
I1220 02:04:45.733042 27931 layer_factory.hpp:74] Creating layer inception_3a/3x3_reduce
I1220 02:04:45.733072 27931 net.cpp:84] Creating Layer inception_3a/3x3_reduce
I1220 02:04:45.733078 27931 net.cpp:380] inception_3a/3x3_reduce <- pool2/3x3_s2_pool2/3x3_s2_0_split_1
I1220 02:04:45.733088 27931 net.cpp:338] inception_3a/3x3_reduce -> inception_3a/3x3_reduce
I1220 02:04:45.733098 27931 net.cpp:113] Setting up inception_3a/3x3_reduce
I1220 02:04:45.733788 27931 net.cpp:120] Top shape: 80 96 28 28 (6021120)
I1220 02:04:45.733820 27931 layer_factory.hpp:74] Creating layer inception_3a/relu_3x3_reduce
I1220 02:04:45.733835 27931 net.cpp:84] Creating Layer inception_3a/relu_3x3_reduce
I1220 02:04:45.733840 27931 net.cpp:380] inception_3a/relu_3x3_reduce <- inception_3a/3x3_reduce
I1220 02:04:45.733850 27931 net.cpp:327] inception_3a/relu_3x3_reduce -> inception_3a/3x3_reduce (in-place)
I1220 02:04:45.733858 27931 net.cpp:113] Setting up inception_3a/relu_3x3_reduce
I1220 02:04:45.733917 27931 net.cpp:120] Top shape: 80 96 28 28 (6021120)
I1220 02:04:45.733923 27931 layer_factory.hpp:74] Creating layer inception_3a/3x3
I1220 02:04:45.733933 27931 net.cpp:84] Creating Layer inception_3a/3x3
I1220 02:04:45.733938 27931 net.cpp:380] inception_3a/3x3 <- inception_3a/3x3_reduce
I1220 02:04:45.733947 27931 net.cpp:338] inception_3a/3x3 -> inception_3a/3x3
I1220 02:04:45.733955 27931 net.cpp:113] Setting up inception_3a/3x3
I1220 02:04:45.735914 27931 net.cpp:120] Top shape: 80 128 28 28 (8028160)
I1220 02:04:45.735996 27931 layer_factory.hpp:74] Creating layer inception_3a/relu_3x3
I1220 02:04:45.736013 27931 net.cpp:84] Creating Layer inception_3a/relu_3x3
I1220 02:04:45.736021 27931 net.cpp:380] inception_3a/relu_3x3 <- inception_3a/3x3
I1220 02:04:45.736032 27931 net.cpp:327] inception_3a/relu_3x3 -> inception_3a/3x3 (in-place)
I1220 02:04:45.736044 27931 net.cpp:113] Setting up inception_3a/relu_3x3
I1220 02:04:45.736865 27931 net.cpp:120] Top shape: 80 128 28 28 (8028160)
I1220 02:04:45.736891 27931 layer_factory.hpp:74] Creating layer inception_3a/5x5_reduce
I1220 02:04:45.737334 27931 net.cpp:84] Creating Layer inception_3a/5x5_reduce
I1220 02:04:45.737342 27931 net.cpp:380] inception_3a/5x5_reduce <- pool2/3x3_s2_pool2/3x3_s2_0_split_2
I1220 02:04:45.737356 27931 net.cpp:338] inception_3a/5x5_reduce -> inception_3a/5x5_reduce
I1220 02:04:45.737380 27931 net.cpp:113] Setting up inception_3a/5x5_reduce
I1220 02:04:45.737972 27931 net.cpp:120] Top shape: 80 16 28 28 (1003520)
I1220 02:04:45.738000 27931 layer_factory.hpp:74] Creating layer inception_3a/relu_5x5_reduce
I1220 02:04:45.738015 27931 net.cpp:84] Creating Layer inception_3a/relu_5x5_reduce
I1220 02:04:45.738021 27931 net.cpp:380] inception_3a/relu_5x5_reduce <- inception_3a/5x5_reduce
I1220 02:04:45.738030 27931 net.cpp:327] inception_3a/relu_5x5_reduce -> inception_3a/5x5_reduce (in-place)
I1220 02:04:45.738041 27931 net.cpp:113] Setting up inception_3a/relu_5x5_reduce
I1220 02:04:45.738114 27931 net.cpp:120] Top shape: 80 16 28 28 (1003520)
I1220 02:04:45.738121 27931 layer_factory.hpp:74] Creating layer inception_3a/5x5
I1220 02:04:45.738131 27931 net.cpp:84] Creating Layer inception_3a/5x5
I1220 02:04:45.738137 27931 net.cpp:380] inception_3a/5x5 <- inception_3a/5x5_reduce
I1220 02:04:45.738145 27931 net.cpp:338] inception_3a/5x5 -> inception_3a/5x5
I1220 02:04:45.738154 27931 net.cpp:113] Setting up inception_3a/5x5
I1220 02:04:45.738881 27931 net.cpp:120] Top shape: 80 32 28 28 (2007040)
I1220 02:04:45.738905 27931 layer_factory.hpp:74] Creating layer inception_3a/relu_5x5
I1220 02:04:45.738919 27931 net.cpp:84] Creating Layer inception_3a/relu_5x5
I1220 02:04:45.738924 27931 net.cpp:380] inception_3a/relu_5x5 <- inception_3a/5x5
I1220 02:04:45.738932 27931 net.cpp:327] inception_3a/relu_5x5 -> inception_3a/5x5 (in-place)
I1220 02:04:45.738940 27931 net.cpp:113] Setting up inception_3a/relu_5x5
I1220 02:04:45.739006 27931 net.cpp:120] Top shape: 80 32 28 28 (2007040)
I1220 02:04:45.739012 27931 layer_factory.hpp:74] Creating layer inception_3a/pool
I1220 02:04:45.739019 27931 layer_factory.cpp:56] CUDNN does not support padding or multiple tops. Using Caffe's own pooling layer.
I1220 02:04:45.739029 27931 net.cpp:84] Creating Layer inception_3a/pool
I1220 02:04:45.739035 27931 net.cpp:380] inception_3a/pool <- pool2/3x3_s2_pool2/3x3_s2_0_split_3
I1220 02:04:45.739043 27931 net.cpp:338] inception_3a/pool -> inception_3a/pool
I1220 02:04:45.739051 27931 net.cpp:113] Setting up inception_3a/pool
I1220 02:04:45.739061 27931 net.cpp:120] Top shape: 80 192 28 28 (12042240)
I1220 02:04:45.739066 27931 layer_factory.hpp:74] Creating layer inception_3a/pool_proj
I1220 02:04:45.739078 27931 net.cpp:84] Creating Layer inception_3a/pool_proj
I1220 02:04:45.739083 27931 net.cpp:380] inception_3a/pool_proj <- inception_3a/pool
I1220 02:04:45.739089 27931 net.cpp:338] inception_3a/pool_proj -> inception_3a/pool_proj
I1220 02:04:45.739097 27931 net.cpp:113] Setting up inception_3a/pool_proj
I1220 02:04:45.739754 27931 net.cpp:120] Top shape: 80 32 28 28 (2007040)
I1220 02:04:45.739794 27931 layer_factory.hpp:74] Creating layer inception_3a/relu_pool_proj
I1220 02:04:45.739807 27931 net.cpp:84] Creating Layer inception_3a/relu_pool_proj
I1220 02:04:45.739814 27931 net.cpp:380] inception_3a/relu_pool_proj <- inception_3a/pool_proj
I1220 02:04:45.739823 27931 net.cpp:327] inception_3a/relu_pool_proj -> inception_3a/pool_proj (in-place)
I1220 02:04:45.739845 27931 net.cpp:113] Setting up inception_3a/relu_pool_proj
I1220 02:04:45.739936 27931 net.cpp:120] Top shape: 80 32 28 28 (2007040)
I1220 02:04:45.739944 27931 layer_factory.hpp:74] Creating layer inception_3a/output
I1220 02:04:45.739958 27931 net.cpp:84] Creating Layer inception_3a/output
I1220 02:04:45.739961 27931 net.cpp:380] inception_3a/output <- inception_3a/1x1
I1220 02:04:45.739969 27931 net.cpp:380] inception_3a/output <- inception_3a/3x3
I1220 02:04:45.739974 27931 net.cpp:380] inception_3a/output <- inception_3a/5x5
I1220 02:04:45.739979 27931 net.cpp:380] inception_3a/output <- inception_3a/pool_proj
I1220 02:04:45.739986 27931 net.cpp:338] inception_3a/output -> inception_3a/output
I1220 02:04:45.739995 27931 net.cpp:113] Setting up inception_3a/output
I1220 02:04:45.740003 27931 net.cpp:120] Top shape: 80 256 28 28 (16056320)
I1220 02:04:45.740008 27931 layer_factory.hpp:74] Creating layer inception_3a/output_inception_3a/output_0_split
I1220 02:04:45.740020 27931 net.cpp:84] Creating Layer inception_3a/output_inception_3a/output_0_split
I1220 02:04:45.740023 27931 net.cpp:380] inception_3a/output_inception_3a/output_0_split <- inception_3a/output
I1220 02:04:45.740032 27931 net.cpp:338] inception_3a/output_inception_3a/output_0_split -> inception_3a/output_inception_3a/output_0_split_0
I1220 02:04:45.740039 27931 net.cpp:338] inception_3a/output_inception_3a/output_0_split -> inception_3a/output_inception_3a/output_0_split_1
I1220 02:04:45.740047 27931 net.cpp:338] inception_3a/output_inception_3a/output_0_split -> inception_3a/output_inception_3a/output_0_split_2
I1220 02:04:45.740054 27931 net.cpp:338] inception_3a/output_inception_3a/output_0_split -> inception_3a/output_inception_3a/output_0_split_3
I1220 02:04:45.740061 27931 net.cpp:113] Setting up inception_3a/output_inception_3a/output_0_split
I1220 02:04:45.740068 27931 net.cpp:120] Top shape: 80 256 28 28 (16056320)
I1220 02:04:45.740073 27931 net.cpp:120] Top shape: 80 256 28 28 (16056320)
I1220 02:04:45.740077 27931 net.cpp:120] Top shape: 80 256 28 28 (16056320)
I1220 02:04:45.740082 27931 net.cpp:120] Top shape: 80 256 28 28 (16056320)
I1220 02:04:45.740087 27931 layer_factory.hpp:74] Creating layer inception_3b/1x1
I1220 02:04:45.740099 27931 net.cpp:84] Creating Layer inception_3b/1x1
I1220 02:04:45.740104 27931 net.cpp:380] inception_3b/1x1 <- inception_3a/output_inception_3a/output_0_split_0
I1220 02:04:45.740114 27931 net.cpp:338] inception_3b/1x1 -> inception_3b/1x1
I1220 02:04:45.740123 27931 net.cpp:113] Setting up inception_3b/1x1
I1220 02:04:45.741448 27931 net.cpp:120] Top shape: 80 128 28 28 (8028160)
I1220 02:04:45.741487 27931 layer_factory.hpp:74] Creating layer inception_3b/relu_1x1
I1220 02:04:45.741503 27931 net.cpp:84] Creating Layer inception_3b/relu_1x1
I1220 02:04:45.741509 27931 net.cpp:380] inception_3b/relu_1x1 <- inception_3b/1x1
I1220 02:04:45.741519 27931 net.cpp:327] inception_3b/relu_1x1 -> inception_3b/1x1 (in-place)
I1220 02:04:45.741531 27931 net.cpp:113] Setting up inception_3b/relu_1x1
I1220 02:04:45.743983 27931 net.cpp:120] Top shape: 80 128 28 28 (8028160)
I1220 02:04:45.744025 27931 layer_factory.hpp:74] Creating layer inception_3b/3x3_reduce
I1220 02:04:45.744050 27931 net.cpp:84] Creating Layer inception_3b/3x3_reduce
I1220 02:04:45.744058 27931 net.cpp:380] inception_3b/3x3_reduce <- inception_3a/output_inception_3a/output_0_split_1
I1220 02:04:45.744074 27931 net.cpp:338] inception_3b/3x3_reduce -> inception_3b/3x3_reduce
I1220 02:04:45.744092 27931 net.cpp:113] Setting up inception_3b/3x3_reduce
I1220 02:04:45.752872 27931 net.cpp:120] Top shape: 80 128 28 28 (8028160)
I1220 02:04:45.752939 27931 layer_factory.hpp:74] Creating layer inception_3b/relu_3x3_reduce
I1220 02:04:45.752959 27931 net.cpp:84] Creating Layer inception_3b/relu_3x3_reduce
I1220 02:04:45.752969 27931 net.cpp:380] inception_3b/relu_3x3_reduce <- inception_3b/3x3_reduce
I1220 02:04:45.752985 27931 net.cpp:327] inception_3b/relu_3x3_reduce -> inception_3b/3x3_reduce (in-place)
I1220 02:04:45.753002 27931 net.cpp:113] Setting up inception_3b/relu_3x3_reduce
I1220 02:04:45.753129 27931 net.cpp:120] Top shape: 80 128 28 28 (8028160)
I1220 02:04:45.753159 27931 layer_factory.hpp:74] Creating layer inception_3b/3x3
I1220 02:04:45.753185 27931 net.cpp:84] Creating Layer inception_3b/3x3
I1220 02:04:45.753193 27931 net.cpp:380] inception_3b/3x3 <- inception_3b/3x3_reduce
I1220 02:04:45.753208 27931 net.cpp:338] inception_3b/3x3 -> inception_3b/3x3
I1220 02:04:45.753224 27931 net.cpp:113] Setting up inception_3b/3x3
I1220 02:04:45.757239 27931 net.cpp:120] Top shape: 80 192 28 28 (12042240)
I1220 02:04:45.757294 27931 layer_factory.hpp:74] Creating layer inception_3b/relu_3x3
I1220 02:04:45.757318 27931 net.cpp:84] Creating Layer inception_3b/relu_3x3
I1220 02:04:45.757328 27931 net.cpp:380] inception_3b/relu_3x3 <- inception_3b/3x3
I1220 02:04:45.757341 27931 net.cpp:327] inception_3b/relu_3x3 -> inception_3b/3x3 (in-place)
I1220 02:04:45.757356 27931 net.cpp:113] Setting up inception_3b/relu_3x3
I1220 02:04:45.757454 27931 net.cpp:120] Top shape: 80 192 28 28 (12042240)
I1220 02:04:45.757467 27931 layer_factory.hpp:74] Creating layer inception_3b/5x5_reduce
I1220 02:04:45.757484 27931 net.cpp:84] Creating Layer inception_3b/5x5_reduce
I1220 02:04:45.757493 27931 net.cpp:380] inception_3b/5x5_reduce <- inception_3a/output_inception_3a/output_0_split_2
I1220 02:04:45.757509 27931 net.cpp:338] inception_3b/5x5_reduce -> inception_3b/5x5_reduce
I1220 02:04:45.757525 27931 net.cpp:113] Setting up inception_3b/5x5_reduce
I1220 02:04:45.759078 27931 net.cpp:120] Top shape: 80 32 28 28 (2007040)
I1220 02:04:45.759155 27931 layer_factory.hpp:74] Creating layer inception_3b/relu_5x5_reduce
I1220 02:04:45.759186 27931 net.cpp:84] Creating Layer inception_3b/relu_5x5_reduce
I1220 02:04:45.759207 27931 net.cpp:380] inception_3b/relu_5x5_reduce <- inception_3b/5x5_reduce
I1220 02:04:45.759232 27931 net.cpp:327] inception_3b/relu_5x5_reduce -> inception_3b/5x5_reduce (in-place)
I1220 02:04:45.759260 27931 net.cpp:113] Setting up inception_3b/relu_5x5_reduce
I1220 02:04:45.759459 27931 net.cpp:120] Top shape: 80 32 28 28 (2007040)
I1220 02:04:45.759480 27931 layer_factory.hpp:74] Creating layer inception_3b/5x5
I1220 02:04:45.759513 27931 net.cpp:84] Creating Layer inception_3b/5x5
I1220 02:04:45.759531 27931 net.cpp:380] inception_3b/5x5 <- inception_3b/5x5_reduce
I1220 02:04:45.759562 27931 net.cpp:338] inception_3b/5x5 -> inception_3b/5x5
I1220 02:04:45.759610 27931 net.cpp:113] Setting up inception_3b/5x5
I1220 02:04:45.763216 27931 net.cpp:120] Top shape: 80 96 28 28 (6021120)
I1220 02:04:45.763295 27931 layer_factory.hpp:74] Creating layer inception_3b/relu_5x5
I1220 02:04:45.763327 27931 net.cpp:84] Creating Layer inception_3b/relu_5x5
I1220 02:04:45.763348 27931 net.cpp:380] inception_3b/relu_5x5 <- inception_3b/5x5
I1220 02:04:45.763376 27931 net.cpp:327] inception_3b/relu_5x5 -> inception_3b/5x5 (in-place)
I1220 02:04:45.763404 27931 net.cpp:113] Setting up inception_3b/relu_5x5
I1220 02:04:45.764134 27931 net.cpp:120] Top shape: 80 96 28 28 (6021120)
I1220 02:04:45.764171 27931 layer_factory.hpp:74] Creating layer inception_3b/pool
I1220 02:04:45.764195 27931 layer_factory.cpp:56] CUDNN does not support padding or multiple tops. Using Caffe's own pooling layer.
I1220 02:04:45.764217 27931 net.cpp:84] Creating Layer inception_3b/pool
I1220 02:04:45.764235 27931 net.cpp:380] inception_3b/pool <- inception_3a/output_inception_3a/output_0_split_3
I1220 02:04:45.764266 27931 net.cpp:338] inception_3b/pool -> inception_3b/pool
I1220 02:04:45.764294 27931 net.cpp:113] Setting up inception_3b/pool
I1220 02:04:45.764325 27931 net.cpp:120] Top shape: 80 256 28 28 (16056320)
I1220 02:04:45.764340 27931 layer_factory.hpp:74] Creating layer inception_3b/pool_proj
I1220 02:04:45.764371 27931 net.cpp:84] Creating Layer inception_3b/pool_proj
I1220 02:04:45.764387 27931 net.cpp:380] inception_3b/pool_proj <- inception_3b/pool
I1220 02:04:45.764410 27931 net.cpp:338] inception_3b/pool_proj -> inception_3b/pool_proj
I1220 02:04:45.764436 27931 net.cpp:113] Setting up inception_3b/pool_proj
I1220 02:04:45.771926 27931 net.cpp:120] Top shape: 80 64 28 28 (4014080)
I1220 02:04:45.772030 27931 layer_factory.hpp:74] Creating layer inception_3b/relu_pool_proj
I1220 02:04:45.772059 27931 net.cpp:84] Creating Layer inception_3b/relu_pool_proj
I1220 02:04:45.772078 27931 net.cpp:380] inception_3b/relu_pool_proj <- inception_3b/pool_proj
I1220 02:04:45.772104 27931 net.cpp:327] inception_3b/relu_pool_proj -> inception_3b/pool_proj (in-place)
I1220 02:04:45.772131 27931 net.cpp:113] Setting up inception_3b/relu_pool_proj
I1220 02:04:45.772323 27931 net.cpp:120] Top shape: 80 64 28 28 (4014080)
I1220 02:04:45.772341 27931 layer_factory.hpp:74] Creating layer inception_3b/output
I1220 02:04:45.772361 27931 net.cpp:84] Creating Layer inception_3b/output
I1220 02:04:45.772375 27931 net.cpp:380] inception_3b/output <- inception_3b/1x1
I1220 02:04:45.772392 27931 net.cpp:380] inception_3b/output <- inception_3b/3x3
I1220 02:04:45.772408 27931 net.cpp:380] inception_3b/output <- inception_3b/5x5
I1220 02:04:45.772423 27931 net.cpp:380] inception_3b/output <- inception_3b/pool_proj
I1220 02:04:45.772439 27931 net.cpp:338] inception_3b/output -> inception_3b/output
I1220 02:04:45.772460 27931 net.cpp:113] Setting up inception_3b/output
I1220 02:04:45.772483 27931 net.cpp:120] Top shape: 80 480 28 28 (30105600)
I1220 02:04:45.772496 27931 layer_factory.hpp:74] Creating layer pool3/3x3_s2
I1220 02:04:45.772517 27931 net.cpp:84] Creating Layer pool3/3x3_s2
I1220 02:04:45.772531 27931 net.cpp:380] pool3/3x3_s2 <- inception_3b/output
I1220 02:04:45.772553 27931 net.cpp:338] pool3/3x3_s2 -> pool3/3x3_s2
I1220 02:04:45.772572 27931 net.cpp:113] Setting up pool3/3x3_s2
I1220 02:04:45.772743 27931 net.cpp:120] Top shape: 80 480 14 14 (7526400)
I1220 02:04:45.772764 27931 layer_factory.hpp:74] Creating layer pool3/3x3_s2_pool3/3x3_s2_0_split
I1220 02:04:45.772788 27931 net.cpp:84] Creating Layer pool3/3x3_s2_pool3/3x3_s2_0_split
I1220 02:04:45.772800 27931 net.cpp:380] pool3/3x3_s2_pool3/3x3_s2_0_split <- pool3/3x3_s2
I1220 02:04:45.772825 27931 net.cpp:338] pool3/3x3_s2_pool3/3x3_s2_0_split -> pool3/3x3_s2_pool3/3x3_s2_0_split_0
I1220 02:04:45.772846 27931 net.cpp:338] pool3/3x3_s2_pool3/3x3_s2_0_split -> pool3/3x3_s2_pool3/3x3_s2_0_split_1
I1220 02:04:45.772866 27931 net.cpp:338] pool3/3x3_s2_pool3/3x3_s2_0_split -> pool3/3x3_s2_pool3/3x3_s2_0_split_2
I1220 02:04:45.772884 27931 net.cpp:338] pool3/3x3_s2_pool3/3x3_s2_0_split -> pool3/3x3_s2_pool3/3x3_s2_0_split_3
I1220 02:04:45.772902 27931 net.cpp:113] Setting up pool3/3x3_s2_pool3/3x3_s2_0_split
I1220 02:04:45.772925 27931 net.cpp:120] Top shape: 80 480 14 14 (7526400)
I1220 02:04:45.772941 27931 net.cpp:120] Top shape: 80 480 14 14 (7526400)
I1220 02:04:45.772956 27931 net.cpp:120] Top shape: 80 480 14 14 (7526400)
I1220 02:04:45.772971 27931 net.cpp:120] Top shape: 80 480 14 14 (7526400)
I1220 02:04:45.772984 27931 layer_factory.hpp:74] Creating layer inception_4a/1x1
I1220 02:04:45.773010 27931 net.cpp:84] Creating Layer inception_4a/1x1
I1220 02:04:45.773025 27931 net.cpp:380] inception_4a/1x1 <- pool3/3x3_s2_pool3/3x3_s2_0_split_0
I1220 02:04:45.773048 27931 net.cpp:338] inception_4a/1x1 -> inception_4a/1x1
I1220 02:04:45.773102 27931 net.cpp:113] Setting up inception_4a/1x1
I1220 02:04:45.776584 27931 net.cpp:120] Top shape: 80 192 14 14 (3010560)
I1220 02:04:45.776650 27931 layer_factory.hpp:74] Creating layer inception_4a/relu_1x1
I1220 02:04:45.776676 27931 net.cpp:84] Creating Layer inception_4a/relu_1x1
I1220 02:04:45.776693 27931 net.cpp:380] inception_4a/relu_1x1 <- inception_4a/1x1
I1220 02:04:45.776721 27931 net.cpp:327] inception_4a/relu_1x1 -> inception_4a/1x1 (in-place)
I1220 02:04:45.776746 27931 net.cpp:113] Setting up inception_4a/relu_1x1
I1220 02:04:45.777420 27931 net.cpp:120] Top shape: 80 192 14 14 (3010560)
I1220 02:04:45.777456 27931 layer_factory.hpp:74] Creating layer inception_4a/3x3_reduce
I1220 02:04:45.777490 27931 net.cpp:84] Creating Layer inception_4a/3x3_reduce
I1220 02:04:45.777508 27931 net.cpp:380] inception_4a/3x3_reduce <- pool3/3x3_s2_pool3/3x3_s2_0_split_1
I1220 02:04:45.777552 27931 net.cpp:338] inception_4a/3x3_reduce -> inception_4a/3x3_reduce
I1220 02:04:45.777603 27931 net.cpp:113] Setting up inception_4a/3x3_reduce
I1220 02:04:45.779875 27931 net.cpp:120] Top shape: 80 96 14 14 (1505280)
I1220 02:04:45.779960 27931 layer_factory.hpp:74] Creating layer inception_4a/relu_3x3_reduce
I1220 02:04:45.779989 27931 net.cpp:84] Creating Layer inception_4a/relu_3x3_reduce
I1220 02:04:45.780004 27931 net.cpp:380] inception_4a/relu_3x3_reduce <- inception_4a/3x3_reduce
I1220 02:04:45.780031 27931 net.cpp:327] inception_4a/relu_3x3_reduce -> inception_4a/3x3_reduce (in-place)
I1220 02:04:45.780056 27931 net.cpp:113] Setting up inception_4a/relu_3x3_reduce
I1220 02:04:45.780251 27931 net.cpp:120] Top shape: 80 96 14 14 (1505280)
I1220 02:04:45.780277 27931 layer_factory.hpp:74] Creating layer inception_4a/3x3
I1220 02:04:45.780304 27931 net.cpp:84] Creating Layer inception_4a/3x3
I1220 02:04:45.780319 27931 net.cpp:380] inception_4a/3x3 <- inception_4a/3x3_reduce
I1220 02:04:45.780339 27931 net.cpp:338] inception_4a/3x3 -> inception_4a/3x3
I1220 02:04:45.780364 27931 net.cpp:113] Setting up inception_4a/3x3
I1220 02:04:45.785974 27931 net.cpp:120] Top shape: 80 208 14 14 (3261440)
I1220 02:04:45.786044 27931 layer_factory.hpp:74] Creating layer inception_4a/relu_3x3
I1220 02:04:45.786070 27931 net.cpp:84] Creating Layer inception_4a/relu_3x3
I1220 02:04:45.786087 27931 net.cpp:380] inception_4a/relu_3x3 <- inception_4a/3x3
I1220 02:04:45.786114 27931 net.cpp:327] inception_4a/relu_3x3 -> inception_4a/3x3 (in-place)
I1220 02:04:45.786139 27931 net.cpp:113] Setting up inception_4a/relu_3x3
I1220 02:04:45.786309 27931 net.cpp:120] Top shape: 80 208 14 14 (3261440)
I1220 02:04:45.786324 27931 layer_factory.hpp:74] Creating layer inception_4a/5x5_reduce
I1220 02:04:45.786351 27931 net.cpp:84] Creating Layer inception_4a/5x5_reduce
I1220 02:04:45.786366 27931 net.cpp:380] inception_4a/5x5_reduce <- pool3/3x3_s2_pool3/3x3_s2_0_split_2
I1220 02:04:45.786386 27931 net.cpp:338] inception_4a/5x5_reduce -> inception_4a/5x5_reduce
I1220 02:04:45.786409 27931 net.cpp:113] Setting up inception_4a/5x5_reduce
I1220 02:04:45.787683 27931 net.cpp:120] Top shape: 80 16 14 14 (250880)
I1220 02:04:45.787731 27931 layer_factory.hpp:74] Creating layer inception_4a/relu_5x5_reduce
I1220 02:04:45.787755 27931 net.cpp:84] Creating Layer inception_4a/relu_5x5_reduce
I1220 02:04:45.787771 27931 net.cpp:380] inception_4a/relu_5x5_reduce <- inception_4a/5x5_reduce
I1220 02:04:45.787794 27931 net.cpp:327] inception_4a/relu_5x5_reduce -> inception_4a/5x5_reduce (in-place)
I1220 02:04:45.787814 27931 net.cpp:113] Setting up inception_4a/relu_5x5_reduce
I1220 02:04:45.787976 27931 net.cpp:120] Top shape: 80 16 14 14 (250880)
I1220 02:04:45.787993 27931 layer_factory.hpp:74] Creating layer inception_4a/5x5
I1220 02:04:45.788019 27931 net.cpp:84] Creating Layer inception_4a/5x5
I1220 02:04:45.788033 27931 net.cpp:380] inception_4a/5x5 <- inception_4a/5x5_reduce
I1220 02:04:45.788053 27931 net.cpp:338] inception_4a/5x5 -> inception_4a/5x5
I1220 02:04:45.788076 27931 net.cpp:113] Setting up inception_4a/5x5
I1220 02:04:45.796135 27931 net.cpp:120] Top shape: 80 48 14 14 (752640)
I1220 02:04:45.796200 27931 layer_factory.hpp:74] Creating layer inception_4a/relu_5x5
I1220 02:04:45.796227 27931 net.cpp:84] Creating Layer inception_4a/relu_5x5
I1220 02:04:45.796244 27931 net.cpp:380] inception_4a/relu_5x5 <- inception_4a/5x5
I1220 02:04:45.796267 27931 net.cpp:327] inception_4a/relu_5x5 -> inception_4a/5x5 (in-place)
I1220 02:04:45.796289 27931 net.cpp:113] Setting up inception_4a/relu_5x5
I1220 02:04:45.796922 27931 net.cpp:120] Top shape: 80 48 14 14 (752640)
I1220 02:04:45.796952 27931 layer_factory.hpp:74] Creating layer inception_4a/pool
I1220 02:04:45.796968 27931 layer_factory.cpp:56] CUDNN does not support padding or multiple tops. Using Caffe's own pooling layer.
I1220 02:04:45.796991 27931 net.cpp:84] Creating Layer inception_4a/pool
I1220 02:04:45.797008 27931 net.cpp:380] inception_4a/pool <- pool3/3x3_s2_pool3/3x3_s2_0_split_3
I1220 02:04:45.797093 27931 net.cpp:338] inception_4a/pool -> inception_4a/pool
I1220 02:04:45.797124 27931 net.cpp:113] Setting up inception_4a/pool
I1220 02:04:45.797158 27931 net.cpp:120] Top shape: 80 480 14 14 (7526400)
I1220 02:04:45.797170 27931 layer_factory.hpp:74] Creating layer inception_4a/pool_proj
I1220 02:04:45.797194 27931 net.cpp:84] Creating Layer inception_4a/pool_proj
I1220 02:04:45.797207 27931 net.cpp:380] inception_4a/pool_proj <- inception_4a/pool
I1220 02:04:45.797231 27931 net.cpp:338] inception_4a/pool_proj -> inception_4a/pool_proj
I1220 02:04:45.797253 27931 net.cpp:113] Setting up inception_4a/pool_proj
I1220 02:04:45.799003 27931 net.cpp:120] Top shape: 80 64 14 14 (1003520)
I1220 02:04:45.799054 27931 layer_factory.hpp:74] Creating layer inception_4a/relu_pool_proj
I1220 02:04:45.799082 27931 net.cpp:84] Creating Layer inception_4a/relu_pool_proj
I1220 02:04:45.799098 27931 net.cpp:380] inception_4a/relu_pool_proj <- inception_4a/pool_proj
I1220 02:04:45.799116 27931 net.cpp:327] inception_4a/relu_pool_proj -> inception_4a/pool_proj (in-place)
I1220 02:04:45.799136 27931 net.cpp:113] Setting up inception_4a/relu_pool_proj
I1220 02:04:45.799296 27931 net.cpp:120] Top shape: 80 64 14 14 (1003520)
I1220 02:04:45.799315 27931 layer_factory.hpp:74] Creating layer inception_4a/output
I1220 02:04:45.799332 27931 net.cpp:84] Creating Layer inception_4a/output
I1220 02:04:45.799345 27931 net.cpp:380] inception_4a/output <- inception_4a/1x1
I1220 02:04:45.799360 27931 net.cpp:380] inception_4a/output <- inception_4a/3x3
I1220 02:04:45.799373 27931 net.cpp:380] inception_4a/output <- inception_4a/5x5
I1220 02:04:45.799386 27931 net.cpp:380] inception_4a/output <- inception_4a/pool_proj
I1220 02:04:45.799404 27931 net.cpp:338] inception_4a/output -> inception_4a/output
I1220 02:04:45.799422 27931 net.cpp:113] Setting up inception_4a/output
I1220 02:04:45.799443 27931 net.cpp:120] Top shape: 80 512 14 14 (8028160)
I1220 02:04:45.799454 27931 layer_factory.hpp:74] Creating layer inception_4a/output_inception_4a/output_0_split
I1220 02:04:45.799470 27931 net.cpp:84] Creating Layer inception_4a/output_inception_4a/output_0_split
I1220 02:04:45.799481 27931 net.cpp:380] inception_4a/output_inception_4a/output_0_split <- inception_4a/output
I1220 02:04:45.799496 27931 net.cpp:338] inception_4a/output_inception_4a/output_0_split -> inception_4a/output_inception_4a/output_0_split_0
I1220 02:04:45.799515 27931 net.cpp:338] inception_4a/output_inception_4a/output_0_split -> inception_4a/output_inception_4a/output_0_split_1
I1220 02:04:45.799532 27931 net.cpp:338] inception_4a/output_inception_4a/output_0_split -> inception_4a/output_inception_4a/output_0_split_2
I1220 02:04:45.799551 27931 net.cpp:338] inception_4a/output_inception_4a/output_0_split -> inception_4a/output_inception_4a/output_0_split_3
I1220 02:04:45.799573 27931 net.cpp:338] inception_4a/output_inception_4a/output_0_split -> inception_4a/output_inception_4a/output_0_split_4
I1220 02:04:45.799590 27931 net.cpp:113] Setting up inception_4a/output_inception_4a/output_0_split
I1220 02:04:45.799610 27931 net.cpp:120] Top shape: 80 512 14 14 (8028160)
I1220 02:04:45.799624 27931 net.cpp:120] Top shape: 80 512 14 14 (8028160)
I1220 02:04:45.799638 27931 net.cpp:120] Top shape: 80 512 14 14 (8028160)
I1220 02:04:45.799651 27931 net.cpp:120] Top shape: 80 512 14 14 (8028160)
I1220 02:04:45.799664 27931 net.cpp:120] Top shape: 80 512 14 14 (8028160)
I1220 02:04:45.799675 27931 layer_factory.hpp:74] Creating layer loss1/ave_pool
I1220 02:04:45.799695 27931 net.cpp:84] Creating Layer loss1/ave_pool
I1220 02:04:45.799710 27931 net.cpp:380] loss1/ave_pool <- inception_4a/output_inception_4a/output_0_split_0
I1220 02:04:45.799726 27931 net.cpp:338] loss1/ave_pool -> loss1/ave_pool
I1220 02:04:45.799741 27931 net.cpp:113] Setting up loss1/ave_pool
I1220 02:04:45.799901 27931 net.cpp:120] Top shape: 80 512 4 4 (655360)
I1220 02:04:45.799918 27931 layer_factory.hpp:74] Creating layer loss1/conv
I1220 02:04:45.799955 27931 net.cpp:84] Creating Layer loss1/conv
I1220 02:04:45.799988 27931 net.cpp:380] loss1/conv <- loss1/ave_pool
I1220 02:04:45.800009 27931 net.cpp:338] loss1/conv -> loss1/conv
I1220 02:04:45.800029 27931 net.cpp:113] Setting up loss1/conv
I1220 02:04:45.802551 27931 net.cpp:120] Top shape: 80 128 4 4 (163840)
I1220 02:04:45.802613 27931 layer_factory.hpp:74] Creating layer loss1/relu_conv
I1220 02:04:45.802640 27931 net.cpp:84] Creating Layer loss1/relu_conv
I1220 02:04:45.802656 27931 net.cpp:380] loss1/relu_conv <- loss1/conv
I1220 02:04:45.802677 27931 net.cpp:327] loss1/relu_conv -> loss1/conv (in-place)
I1220 02:04:45.802698 27931 net.cpp:113] Setting up loss1/relu_conv
I1220 02:04:45.802847 27931 net.cpp:120] Top shape: 80 128 4 4 (163840)
I1220 02:04:45.802862 27931 layer_factory.hpp:74] Creating layer loss1/fc
I1220 02:04:45.802891 27931 net.cpp:84] Creating Layer loss1/fc
I1220 02:04:45.802903 27931 net.cpp:380] loss1/fc <- loss1/conv
I1220 02:04:45.802920 27931 net.cpp:338] loss1/fc -> loss1/fc
I1220 02:04:45.802947 27931 net.cpp:113] Setting up loss1/fc
I1220 02:04:45.840492 27931 net.cpp:120] Top shape: 80 1024 (81920)
I1220 02:04:45.840551 27931 layer_factory.hpp:74] Creating layer loss1/relu_fc
I1220 02:04:45.840574 27931 net.cpp:84] Creating Layer loss1/relu_fc
I1220 02:04:45.840587 27931 net.cpp:380] loss1/relu_fc <- loss1/fc
I1220 02:04:45.840605 27931 net.cpp:327] loss1/relu_fc -> loss1/fc (in-place)
I1220 02:04:45.840631 27931 net.cpp:113] Setting up loss1/relu_fc
I1220 02:04:45.841387 27931 net.cpp:120] Top shape: 80 1024 (81920)
I1220 02:04:45.841419 27931 layer_factory.hpp:74] Creating layer loss1/drop_fc
I1220 02:04:45.841459 27931 net.cpp:84] Creating Layer loss1/drop_fc
I1220 02:04:45.841471 27931 net.cpp:380] loss1/drop_fc <- loss1/fc
I1220 02:04:45.841487 27931 net.cpp:327] loss1/drop_fc -> loss1/fc (in-place)
I1220 02:04:45.841509 27931 net.cpp:113] Setting up loss1/drop_fc
I1220 02:04:45.841529 27931 net.cpp:120] Top shape: 80 1024 (81920)
I1220 02:04:45.841544 27931 layer_factory.hpp:74] Creating layer loss1/classifier_kaggle
I1220 02:04:45.841572 27931 net.cpp:84] Creating Layer loss1/classifier_kaggle
I1220 02:04:45.841581 27931 net.cpp:380] loss1/classifier_kaggle <- loss1/fc
I1220 02:04:45.841596 27931 net.cpp:338] loss1/classifier_kaggle -> loss1/classifier_kaggle
I1220 02:04:45.841616 27931 net.cpp:113] Setting up loss1/classifier_kaggle
I1220 02:04:45.849669 27931 net.cpp:120] Top shape: 80 447 (35760)
I1220 02:04:45.849723 27931 layer_factory.hpp:74] Creating layer loss1/loss
I1220 02:04:45.849746 27931 net.cpp:84] Creating Layer loss1/loss
I1220 02:04:45.849761 27931 net.cpp:380] loss1/loss <- loss1/classifier_kaggle
I1220 02:04:45.849776 27931 net.cpp:380] loss1/loss <- label_data_1_split_0
I1220 02:04:45.849793 27931 net.cpp:338] loss1/loss -> loss1/loss1
I1220 02:04:45.849813 27931 net.cpp:113] Setting up loss1/loss
I1220 02:04:45.849830 27931 layer_factory.hpp:74] Creating layer loss1/loss
I1220 02:04:45.850203 27931 net.cpp:120] Top shape: (1)
I1220 02:04:45.850219 27931 net.cpp:122]     with loss weight 0.3
I1220 02:04:45.850251 27931 layer_factory.hpp:74] Creating layer inception_4b/1x1
I1220 02:04:45.850275 27931 net.cpp:84] Creating Layer inception_4b/1x1
I1220 02:04:45.850286 27931 net.cpp:380] inception_4b/1x1 <- inception_4a/output_inception_4a/output_0_split_1
I1220 02:04:45.850304 27931 net.cpp:338] inception_4b/1x1 -> inception_4b/1x1
I1220 02:04:45.850322 27931 net.cpp:113] Setting up inception_4b/1x1
I1220 02:04:45.854781 27931 net.cpp:120] Top shape: 80 160 14 14 (2508800)
I1220 02:04:45.854840 27931 layer_factory.hpp:74] Creating layer inception_4b/relu_1x1
I1220 02:04:45.854863 27931 net.cpp:84] Creating Layer inception_4b/relu_1x1
I1220 02:04:45.854878 27931 net.cpp:380] inception_4b/relu_1x1 <- inception_4b/1x1
I1220 02:04:45.854895 27931 net.cpp:327] inception_4b/relu_1x1 -> inception_4b/1x1 (in-place)
I1220 02:04:45.854918 27931 net.cpp:113] Setting up inception_4b/relu_1x1
I1220 02:04:45.855047 27931 net.cpp:120] Top shape: 80 160 14 14 (2508800)
I1220 02:04:45.855074 27931 layer_factory.hpp:74] Creating layer inception_4b/3x3_reduce
I1220 02:04:45.855118 27931 net.cpp:84] Creating Layer inception_4b/3x3_reduce
I1220 02:04:45.855130 27931 net.cpp:380] inception_4b/3x3_reduce <- inception_4a/output_inception_4a/output_0_split_2
I1220 02:04:45.855147 27931 net.cpp:338] inception_4b/3x3_reduce -> inception_4b/3x3_reduce
I1220 02:04:45.855165 27931 net.cpp:113] Setting up inception_4b/3x3_reduce
I1220 02:04:45.857126 27931 net.cpp:120] Top shape: 80 112 14 14 (1756160)
I1220 02:04:45.857178 27931 layer_factory.hpp:74] Creating layer inception_4b/relu_3x3_reduce
I1220 02:04:45.857197 27931 net.cpp:84] Creating Layer inception_4b/relu_3x3_reduce
I1220 02:04:45.857219 27931 net.cpp:380] inception_4b/relu_3x3_reduce <- inception_4b/3x3_reduce
I1220 02:04:45.857239 27931 net.cpp:327] inception_4b/relu_3x3_reduce -> inception_4b/3x3_reduce (in-place)
I1220 02:04:45.857255 27931 net.cpp:113] Setting up inception_4b/relu_3x3_reduce
I1220 02:04:45.857378 27931 net.cpp:120] Top shape: 80 112 14 14 (1756160)
I1220 02:04:45.857389 27931 layer_factory.hpp:74] Creating layer inception_4b/3x3
I1220 02:04:45.857409 27931 net.cpp:84] Creating Layer inception_4b/3x3
I1220 02:04:45.857419 27931 net.cpp:380] inception_4b/3x3 <- inception_4b/3x3_reduce
I1220 02:04:45.857437 27931 net.cpp:338] inception_4b/3x3 -> inception_4b/3x3
I1220 02:04:45.857455 27931 net.cpp:113] Setting up inception_4b/3x3
I1220 02:04:45.862112 27931 net.cpp:120] Top shape: 80 224 14 14 (3512320)
I1220 02:04:45.862169 27931 layer_factory.hpp:74] Creating layer inception_4b/relu_3x3
I1220 02:04:45.862188 27931 net.cpp:84] Creating Layer inception_4b/relu_3x3
I1220 02:04:45.862203 27931 net.cpp:380] inception_4b/relu_3x3 <- inception_4b/3x3
I1220 02:04:45.862221 27931 net.cpp:327] inception_4b/relu_3x3 -> inception_4b/3x3 (in-place)
I1220 02:04:45.862238 27931 net.cpp:113] Setting up inception_4b/relu_3x3
I1220 02:04:45.862738 27931 net.cpp:120] Top shape: 80 224 14 14 (3512320)
I1220 02:04:45.862761 27931 layer_factory.hpp:74] Creating layer inception_4b/5x5_reduce
I1220 02:04:45.862782 27931 net.cpp:84] Creating Layer inception_4b/5x5_reduce
I1220 02:04:45.862797 27931 net.cpp:380] inception_4b/5x5_reduce <- inception_4a/output_inception_4a/output_0_split_3
I1220 02:04:45.862818 27931 net.cpp:338] inception_4b/5x5_reduce -> inception_4b/5x5_reduce
I1220 02:04:45.862838 27931 net.cpp:113] Setting up inception_4b/5x5_reduce
I1220 02:04:45.864125 27931 net.cpp:120] Top shape: 80 24 14 14 (376320)
I1220 02:04:45.864168 27931 layer_factory.hpp:74] Creating layer inception_4b/relu_5x5_reduce
I1220 02:04:45.864187 27931 net.cpp:84] Creating Layer inception_4b/relu_5x5_reduce
I1220 02:04:45.864198 27931 net.cpp:380] inception_4b/relu_5x5_reduce <- inception_4b/5x5_reduce
I1220 02:04:45.864217 27931 net.cpp:327] inception_4b/relu_5x5_reduce -> inception_4b/5x5_reduce (in-place)
I1220 02:04:45.864233 27931 net.cpp:113] Setting up inception_4b/relu_5x5_reduce
I1220 02:04:45.864364 27931 net.cpp:120] Top shape: 80 24 14 14 (376320)
I1220 02:04:45.864377 27931 layer_factory.hpp:74] Creating layer inception_4b/5x5
I1220 02:04:45.864393 27931 net.cpp:84] Creating Layer inception_4b/5x5
I1220 02:04:45.864403 27931 net.cpp:380] inception_4b/5x5 <- inception_4b/5x5_reduce
I1220 02:04:45.864419 27931 net.cpp:338] inception_4b/5x5 -> inception_4b/5x5
I1220 02:04:45.864436 27931 net.cpp:113] Setting up inception_4b/5x5
I1220 02:04:45.865896 27931 net.cpp:120] Top shape: 80 64 14 14 (1003520)
I1220 02:04:45.865939 27931 layer_factory.hpp:74] Creating layer inception_4b/relu_5x5
I1220 02:04:45.865960 27931 net.cpp:84] Creating Layer inception_4b/relu_5x5
I1220 02:04:45.865972 27931 net.cpp:380] inception_4b/relu_5x5 <- inception_4b/5x5
I1220 02:04:45.865986 27931 net.cpp:327] inception_4b/relu_5x5 -> inception_4b/5x5 (in-place)
I1220 02:04:45.866003 27931 net.cpp:113] Setting up inception_4b/relu_5x5
I1220 02:04:45.866117 27931 net.cpp:120] Top shape: 80 64 14 14 (1003520)
I1220 02:04:45.866129 27931 layer_factory.hpp:74] Creating layer inception_4b/pool
I1220 02:04:45.866158 27931 layer_factory.cpp:56] CUDNN does not support padding or multiple tops. Using Caffe's own pooling layer.
I1220 02:04:45.866191 27931 net.cpp:84] Creating Layer inception_4b/pool
I1220 02:04:45.866202 27931 net.cpp:380] inception_4b/pool <- inception_4a/output_inception_4a/output_0_split_4
I1220 02:04:45.866215 27931 net.cpp:338] inception_4b/pool -> inception_4b/pool
I1220 02:04:45.866250 27931 net.cpp:113] Setting up inception_4b/pool
I1220 02:04:45.866268 27931 net.cpp:120] Top shape: 80 512 14 14 (8028160)
I1220 02:04:45.866278 27931 layer_factory.hpp:74] Creating layer inception_4b/pool_proj
I1220 02:04:45.866299 27931 net.cpp:84] Creating Layer inception_4b/pool_proj
I1220 02:04:45.866309 27931 net.cpp:380] inception_4b/pool_proj <- inception_4b/pool
I1220 02:04:45.866324 27931 net.cpp:338] inception_4b/pool_proj -> inception_4b/pool_proj
I1220 02:04:45.866339 27931 net.cpp:113] Setting up inception_4b/pool_proj
I1220 02:04:45.867645 27931 net.cpp:120] Top shape: 80 64 14 14 (1003520)
I1220 02:04:45.867683 27931 layer_factory.hpp:74] Creating layer inception_4b/relu_pool_proj
I1220 02:04:45.867702 27931 net.cpp:84] Creating Layer inception_4b/relu_pool_proj
I1220 02:04:45.867713 27931 net.cpp:380] inception_4b/relu_pool_proj <- inception_4b/pool_proj
I1220 02:04:45.867732 27931 net.cpp:327] inception_4b/relu_pool_proj -> inception_4b/pool_proj (in-place)
I1220 02:04:45.867746 27931 net.cpp:113] Setting up inception_4b/relu_pool_proj
I1220 02:04:45.868171 27931 net.cpp:120] Top shape: 80 64 14 14 (1003520)
I1220 02:04:45.868190 27931 layer_factory.hpp:74] Creating layer inception_4b/output
I1220 02:04:45.868209 27931 net.cpp:84] Creating Layer inception_4b/output
I1220 02:04:45.868219 27931 net.cpp:380] inception_4b/output <- inception_4b/1x1
I1220 02:04:45.868232 27931 net.cpp:380] inception_4b/output <- inception_4b/3x3
I1220 02:04:45.868242 27931 net.cpp:380] inception_4b/output <- inception_4b/5x5
I1220 02:04:45.868253 27931 net.cpp:380] inception_4b/output <- inception_4b/pool_proj
I1220 02:04:45.868265 27931 net.cpp:338] inception_4b/output -> inception_4b/output
I1220 02:04:45.868280 27931 net.cpp:113] Setting up inception_4b/output
I1220 02:04:45.868295 27931 net.cpp:120] Top shape: 80 512 14 14 (8028160)
I1220 02:04:45.868304 27931 layer_factory.hpp:74] Creating layer inception_4b/output_inception_4b/output_0_split
I1220 02:04:45.868317 27931 net.cpp:84] Creating Layer inception_4b/output_inception_4b/output_0_split
I1220 02:04:45.868326 27931 net.cpp:380] inception_4b/output_inception_4b/output_0_split <- inception_4b/output
I1220 02:04:45.868341 27931 net.cpp:338] inception_4b/output_inception_4b/output_0_split -> inception_4b/output_inception_4b/output_0_split_0
I1220 02:04:45.868356 27931 net.cpp:338] inception_4b/output_inception_4b/output_0_split -> inception_4b/output_inception_4b/output_0_split_1
I1220 02:04:45.868371 27931 net.cpp:338] inception_4b/output_inception_4b/output_0_split -> inception_4b/output_inception_4b/output_0_split_2
I1220 02:04:45.868384 27931 net.cpp:338] inception_4b/output_inception_4b/output_0_split -> inception_4b/output_inception_4b/output_0_split_3
I1220 02:04:45.868396 27931 net.cpp:113] Setting up inception_4b/output_inception_4b/output_0_split
I1220 02:04:45.868410 27931 net.cpp:120] Top shape: 80 512 14 14 (8028160)
I1220 02:04:45.868422 27931 net.cpp:120] Top shape: 80 512 14 14 (8028160)
I1220 02:04:45.868432 27931 net.cpp:120] Top shape: 80 512 14 14 (8028160)
I1220 02:04:45.868441 27931 net.cpp:120] Top shape: 80 512 14 14 (8028160)
I1220 02:04:45.868450 27931 layer_factory.hpp:74] Creating layer inception_4c/1x1
I1220 02:04:45.868469 27931 net.cpp:84] Creating Layer inception_4c/1x1
I1220 02:04:45.868479 27931 net.cpp:380] inception_4c/1x1 <- inception_4b/output_inception_4b/output_0_split_0
I1220 02:04:45.868494 27931 net.cpp:338] inception_4c/1x1 -> inception_4c/1x1
I1220 02:04:45.868510 27931 net.cpp:113] Setting up inception_4c/1x1
I1220 02:04:45.870431 27931 net.cpp:120] Top shape: 80 128 14 14 (2007040)
I1220 02:04:45.870493 27931 layer_factory.hpp:74] Creating layer inception_4c/relu_1x1
I1220 02:04:45.870532 27931 net.cpp:84] Creating Layer inception_4c/relu_1x1
I1220 02:04:45.870544 27931 net.cpp:380] inception_4c/relu_1x1 <- inception_4c/1x1
I1220 02:04:45.870559 27931 net.cpp:327] inception_4c/relu_1x1 -> inception_4c/1x1 (in-place)
I1220 02:04:45.870576 27931 net.cpp:113] Setting up inception_4c/relu_1x1
I1220 02:04:45.870699 27931 net.cpp:120] Top shape: 80 128 14 14 (2007040)
I1220 02:04:45.870710 27931 layer_factory.hpp:74] Creating layer inception_4c/3x3_reduce
I1220 02:04:45.870730 27931 net.cpp:84] Creating Layer inception_4c/3x3_reduce
I1220 02:04:45.870743 27931 net.cpp:380] inception_4c/3x3_reduce <- inception_4b/output_inception_4b/output_0_split_1
I1220 02:04:45.870760 27931 net.cpp:338] inception_4c/3x3_reduce -> inception_4c/3x3_reduce
I1220 02:04:45.870777 27931 net.cpp:113] Setting up inception_4c/3x3_reduce
I1220 02:04:45.872695 27931 net.cpp:120] Top shape: 80 128 14 14 (2007040)
I1220 02:04:45.872742 27931 layer_factory.hpp:74] Creating layer inception_4c/relu_3x3_reduce
I1220 02:04:45.872771 27931 net.cpp:84] Creating Layer inception_4c/relu_3x3_reduce
I1220 02:04:45.872786 27931 net.cpp:380] inception_4c/relu_3x3_reduce <- inception_4c/3x3_reduce
I1220 02:04:45.872800 27931 net.cpp:327] inception_4c/relu_3x3_reduce -> inception_4c/3x3_reduce (in-place)
I1220 02:04:45.872817 27931 net.cpp:113] Setting up inception_4c/relu_3x3_reduce
I1220 02:04:45.872936 27931 net.cpp:120] Top shape: 80 128 14 14 (2007040)
I1220 02:04:45.872948 27931 layer_factory.hpp:74] Creating layer inception_4c/3x3
I1220 02:04:45.872968 27931 net.cpp:84] Creating Layer inception_4c/3x3
I1220 02:04:45.872977 27931 net.cpp:380] inception_4c/3x3 <- inception_4c/3x3_reduce
I1220 02:04:45.872992 27931 net.cpp:338] inception_4c/3x3 -> inception_4c/3x3
I1220 02:04:45.873008 27931 net.cpp:113] Setting up inception_4c/3x3
I1220 02:04:45.878597 27931 net.cpp:120] Top shape: 80 256 14 14 (4014080)
I1220 02:04:45.878670 27931 layer_factory.hpp:74] Creating layer inception_4c/relu_3x3
I1220 02:04:45.878690 27931 net.cpp:84] Creating Layer inception_4c/relu_3x3
I1220 02:04:45.878703 27931 net.cpp:380] inception_4c/relu_3x3 <- inception_4c/3x3
I1220 02:04:45.878723 27931 net.cpp:327] inception_4c/relu_3x3 -> inception_4c/3x3 (in-place)
I1220 02:04:45.878741 27931 net.cpp:113] Setting up inception_4c/relu_3x3
I1220 02:04:45.878864 27931 net.cpp:120] Top shape: 80 256 14 14 (4014080)
I1220 02:04:45.878876 27931 layer_factory.hpp:74] Creating layer inception_4c/5x5_reduce
I1220 02:04:45.878896 27931 net.cpp:84] Creating Layer inception_4c/5x5_reduce
I1220 02:04:45.878907 27931 net.cpp:380] inception_4c/5x5_reduce <- inception_4b/output_inception_4b/output_0_split_2
I1220 02:04:45.878923 27931 net.cpp:338] inception_4c/5x5_reduce -> inception_4c/5x5_reduce
I1220 02:04:45.878940 27931 net.cpp:113] Setting up inception_4c/5x5_reduce
I1220 02:04:45.879930 27931 net.cpp:120] Top shape: 80 24 14 14 (376320)
I1220 02:04:45.879966 27931 layer_factory.hpp:74] Creating layer inception_4c/relu_5x5_reduce
I1220 02:04:45.879984 27931 net.cpp:84] Creating Layer inception_4c/relu_5x5_reduce
I1220 02:04:45.879995 27931 net.cpp:380] inception_4c/relu_5x5_reduce <- inception_4c/5x5_reduce
I1220 02:04:45.880009 27931 net.cpp:327] inception_4c/relu_5x5_reduce -> inception_4c/5x5_reduce (in-place)
I1220 02:04:45.880023 27931 net.cpp:113] Setting up inception_4c/relu_5x5_reduce
I1220 02:04:45.880476 27931 net.cpp:120] Top shape: 80 24 14 14 (376320)
I1220 02:04:45.880497 27931 layer_factory.hpp:74] Creating layer inception_4c/5x5
I1220 02:04:45.880519 27931 net.cpp:84] Creating Layer inception_4c/5x5
I1220 02:04:45.880530 27931 net.cpp:380] inception_4c/5x5 <- inception_4c/5x5_reduce
I1220 02:04:45.880544 27931 net.cpp:338] inception_4c/5x5 -> inception_4c/5x5
I1220 02:04:45.880561 27931 net.cpp:113] Setting up inception_4c/5x5
I1220 02:04:45.882005 27931 net.cpp:120] Top shape: 80 64 14 14 (1003520)
I1220 02:04:45.882050 27931 layer_factory.hpp:74] Creating layer inception_4c/relu_5x5
I1220 02:04:45.882088 27931 net.cpp:84] Creating Layer inception_4c/relu_5x5
I1220 02:04:45.882117 27931 net.cpp:380] inception_4c/relu_5x5 <- inception_4c/5x5
I1220 02:04:45.882134 27931 net.cpp:327] inception_4c/relu_5x5 -> inception_4c/5x5 (in-place)
I1220 02:04:45.882150 27931 net.cpp:113] Setting up inception_4c/relu_5x5
I1220 02:04:45.882264 27931 net.cpp:120] Top shape: 80 64 14 14 (1003520)
I1220 02:04:45.882278 27931 layer_factory.hpp:74] Creating layer inception_4c/pool
I1220 02:04:45.882295 27931 layer_factory.cpp:56] CUDNN does not support padding or multiple tops. Using Caffe's own pooling layer.
I1220 02:04:45.882308 27931 net.cpp:84] Creating Layer inception_4c/pool
I1220 02:04:45.882318 27931 net.cpp:380] inception_4c/pool <- inception_4b/output_inception_4b/output_0_split_3
I1220 02:04:45.882329 27931 net.cpp:338] inception_4c/pool -> inception_4c/pool
I1220 02:04:45.882344 27931 net.cpp:113] Setting up inception_4c/pool
I1220 02:04:45.882366 27931 net.cpp:120] Top shape: 80 512 14 14 (8028160)
I1220 02:04:45.882375 27931 layer_factory.hpp:74] Creating layer inception_4c/pool_proj
I1220 02:04:45.882392 27931 net.cpp:84] Creating Layer inception_4c/pool_proj
I1220 02:04:45.882401 27931 net.cpp:380] inception_4c/pool_proj <- inception_4c/pool
I1220 02:04:45.882414 27931 net.cpp:338] inception_4c/pool_proj -> inception_4c/pool_proj
I1220 02:04:45.882428 27931 net.cpp:113] Setting up inception_4c/pool_proj
I1220 02:04:45.883754 27931 net.cpp:120] Top shape: 80 64 14 14 (1003520)
I1220 02:04:45.883792 27931 layer_factory.hpp:74] Creating layer inception_4c/relu_pool_proj
I1220 02:04:45.883810 27931 net.cpp:84] Creating Layer inception_4c/relu_pool_proj
I1220 02:04:45.883821 27931 net.cpp:380] inception_4c/relu_pool_proj <- inception_4c/pool_proj
I1220 02:04:45.883834 27931 net.cpp:327] inception_4c/relu_pool_proj -> inception_4c/pool_proj (in-place)
I1220 02:04:45.883849 27931 net.cpp:113] Setting up inception_4c/relu_pool_proj
I1220 02:04:45.883958 27931 net.cpp:120] Top shape: 80 64 14 14 (1003520)
I1220 02:04:45.883968 27931 layer_factory.hpp:74] Creating layer inception_4c/output
I1220 02:04:45.883986 27931 net.cpp:84] Creating Layer inception_4c/output
I1220 02:04:45.883996 27931 net.cpp:380] inception_4c/output <- inception_4c/1x1
I1220 02:04:45.884006 27931 net.cpp:380] inception_4c/output <- inception_4c/3x3
I1220 02:04:45.884016 27931 net.cpp:380] inception_4c/output <- inception_4c/5x5
I1220 02:04:45.884027 27931 net.cpp:380] inception_4c/output <- inception_4c/pool_proj
I1220 02:04:45.884037 27931 net.cpp:338] inception_4c/output -> inception_4c/output
I1220 02:04:45.884049 27931 net.cpp:113] Setting up inception_4c/output
I1220 02:04:45.884065 27931 net.cpp:120] Top shape: 80 512 14 14 (8028160)
I1220 02:04:45.884073 27931 layer_factory.hpp:74] Creating layer inception_4c/output_inception_4c/output_0_split
I1220 02:04:45.884088 27931 net.cpp:84] Creating Layer inception_4c/output_inception_4c/output_0_split
I1220 02:04:45.884096 27931 net.cpp:380] inception_4c/output_inception_4c/output_0_split <- inception_4c/output
I1220 02:04:45.884107 27931 net.cpp:338] inception_4c/output_inception_4c/output_0_split -> inception_4c/output_inception_4c/output_0_split_0
I1220 02:04:45.884124 27931 net.cpp:338] inception_4c/output_inception_4c/output_0_split -> inception_4c/output_inception_4c/output_0_split_1
I1220 02:04:45.884137 27931 net.cpp:338] inception_4c/output_inception_4c/output_0_split -> inception_4c/output_inception_4c/output_0_split_2
I1220 02:04:45.884150 27931 net.cpp:338] inception_4c/output_inception_4c/output_0_split -> inception_4c/output_inception_4c/output_0_split_3
I1220 02:04:45.884160 27931 net.cpp:113] Setting up inception_4c/output_inception_4c/output_0_split
I1220 02:04:45.884174 27931 net.cpp:120] Top shape: 80 512 14 14 (8028160)
I1220 02:04:45.884183 27931 net.cpp:120] Top shape: 80 512 14 14 (8028160)
I1220 02:04:45.884193 27931 net.cpp:120] Top shape: 80 512 14 14 (8028160)
I1220 02:04:45.884202 27931 net.cpp:120] Top shape: 80 512 14 14 (8028160)
I1220 02:04:45.884223 27931 layer_factory.hpp:74] Creating layer inception_4d/1x1
I1220 02:04:45.884255 27931 net.cpp:84] Creating Layer inception_4d/1x1
I1220 02:04:45.884265 27931 net.cpp:380] inception_4d/1x1 <- inception_4c/output_inception_4c/output_0_split_0
I1220 02:04:45.884276 27931 net.cpp:338] inception_4d/1x1 -> inception_4d/1x1
I1220 02:04:45.884290 27931 net.cpp:113] Setting up inception_4d/1x1
I1220 02:04:45.886093 27931 net.cpp:120] Top shape: 80 112 14 14 (1756160)
I1220 02:04:45.886142 27931 layer_factory.hpp:74] Creating layer inception_4d/relu_1x1
I1220 02:04:45.886163 27931 net.cpp:84] Creating Layer inception_4d/relu_1x1
I1220 02:04:45.886175 27931 net.cpp:380] inception_4d/relu_1x1 <- inception_4d/1x1
I1220 02:04:45.886190 27931 net.cpp:327] inception_4d/relu_1x1 -> inception_4d/1x1 (in-place)
I1220 02:04:45.886205 27931 net.cpp:113] Setting up inception_4d/relu_1x1
I1220 02:04:45.886330 27931 net.cpp:120] Top shape: 80 112 14 14 (1756160)
I1220 02:04:45.886346 27931 layer_factory.hpp:74] Creating layer inception_4d/3x3_reduce
I1220 02:04:45.886378 27931 net.cpp:84] Creating Layer inception_4d/3x3_reduce
I1220 02:04:45.886389 27931 net.cpp:380] inception_4d/3x3_reduce <- inception_4c/output_inception_4c/output_0_split_1
I1220 02:04:45.886402 27931 net.cpp:338] inception_4d/3x3_reduce -> inception_4d/3x3_reduce
I1220 02:04:45.886420 27931 net.cpp:113] Setting up inception_4d/3x3_reduce
I1220 02:04:45.888437 27931 net.cpp:120] Top shape: 80 144 14 14 (2257920)
I1220 02:04:45.888485 27931 layer_factory.hpp:74] Creating layer inception_4d/relu_3x3_reduce
I1220 02:04:45.888509 27931 net.cpp:84] Creating Layer inception_4d/relu_3x3_reduce
I1220 02:04:45.888520 27931 net.cpp:380] inception_4d/relu_3x3_reduce <- inception_4d/3x3_reduce
I1220 02:04:45.888537 27931 net.cpp:327] inception_4d/relu_3x3_reduce -> inception_4d/3x3_reduce (in-place)
I1220 02:04:45.888553 27931 net.cpp:113] Setting up inception_4d/relu_3x3_reduce
I1220 02:04:45.888955 27931 net.cpp:120] Top shape: 80 144 14 14 (2257920)
I1220 02:04:45.888975 27931 layer_factory.hpp:74] Creating layer inception_4d/3x3
I1220 02:04:45.888993 27931 net.cpp:84] Creating Layer inception_4d/3x3
I1220 02:04:45.889003 27931 net.cpp:380] inception_4d/3x3 <- inception_4d/3x3_reduce
I1220 02:04:45.889017 27931 net.cpp:338] inception_4d/3x3 -> inception_4d/3x3
I1220 02:04:45.889035 27931 net.cpp:113] Setting up inception_4d/3x3
I1220 02:04:45.895573 27931 net.cpp:120] Top shape: 80 288 14 14 (4515840)
I1220 02:04:45.895625 27931 layer_factory.hpp:74] Creating layer inception_4d/relu_3x3
I1220 02:04:45.895647 27931 net.cpp:84] Creating Layer inception_4d/relu_3x3
I1220 02:04:45.895659 27931 net.cpp:380] inception_4d/relu_3x3 <- inception_4d/3x3
I1220 02:04:45.895678 27931 net.cpp:327] inception_4d/relu_3x3 -> inception_4d/3x3 (in-place)
I1220 02:04:45.895694 27931 net.cpp:113] Setting up inception_4d/relu_3x3
I1220 02:04:45.895798 27931 net.cpp:120] Top shape: 80 288 14 14 (4515840)
I1220 02:04:45.895812 27931 layer_factory.hpp:74] Creating layer inception_4d/5x5_reduce
I1220 02:04:45.895830 27931 net.cpp:84] Creating Layer inception_4d/5x5_reduce
I1220 02:04:45.895839 27931 net.cpp:380] inception_4d/5x5_reduce <- inception_4c/output_inception_4c/output_0_split_2
I1220 02:04:45.895853 27931 net.cpp:338] inception_4d/5x5_reduce -> inception_4d/5x5_reduce
I1220 02:04:45.895869 27931 net.cpp:113] Setting up inception_4d/5x5_reduce
I1220 02:04:45.896773 27931 net.cpp:120] Top shape: 80 32 14 14 (501760)
I1220 02:04:45.896805 27931 layer_factory.hpp:74] Creating layer inception_4d/relu_5x5_reduce
I1220 02:04:45.896818 27931 net.cpp:84] Creating Layer inception_4d/relu_5x5_reduce
I1220 02:04:45.896827 27931 net.cpp:380] inception_4d/relu_5x5_reduce <- inception_4d/5x5_reduce
I1220 02:04:45.896838 27931 net.cpp:327] inception_4d/relu_5x5_reduce -> inception_4d/5x5_reduce (in-place)
I1220 02:04:45.896853 27931 net.cpp:113] Setting up inception_4d/relu_5x5_reduce
I1220 02:04:45.896952 27931 net.cpp:120] Top shape: 80 32 14 14 (501760)
I1220 02:04:45.896965 27931 layer_factory.hpp:74] Creating layer inception_4d/5x5
I1220 02:04:45.896998 27931 net.cpp:84] Creating Layer inception_4d/5x5
I1220 02:04:45.897023 27931 net.cpp:380] inception_4d/5x5 <- inception_4d/5x5_reduce
I1220 02:04:45.897037 27931 net.cpp:338] inception_4d/5x5 -> inception_4d/5x5
I1220 02:04:45.897050 27931 net.cpp:113] Setting up inception_4d/5x5
I1220 02:04:45.898568 27931 net.cpp:120] Top shape: 80 64 14 14 (1003520)
I1220 02:04:45.898609 27931 layer_factory.hpp:74] Creating layer inception_4d/relu_5x5
I1220 02:04:45.898630 27931 net.cpp:84] Creating Layer inception_4d/relu_5x5
I1220 02:04:45.898643 27931 net.cpp:380] inception_4d/relu_5x5 <- inception_4d/5x5
I1220 02:04:45.898656 27931 net.cpp:327] inception_4d/relu_5x5 -> inception_4d/5x5 (in-place)
I1220 02:04:45.898674 27931 net.cpp:113] Setting up inception_4d/relu_5x5
I1220 02:04:45.898784 27931 net.cpp:120] Top shape: 80 64 14 14 (1003520)
I1220 02:04:45.898795 27931 layer_factory.hpp:74] Creating layer inception_4d/pool
I1220 02:04:45.898805 27931 layer_factory.cpp:56] CUDNN does not support padding or multiple tops. Using Caffe's own pooling layer.
I1220 02:04:45.898816 27931 net.cpp:84] Creating Layer inception_4d/pool
I1220 02:04:45.898825 27931 net.cpp:380] inception_4d/pool <- inception_4c/output_inception_4c/output_0_split_3
I1220 02:04:45.898839 27931 net.cpp:338] inception_4d/pool -> inception_4d/pool
I1220 02:04:45.898852 27931 net.cpp:113] Setting up inception_4d/pool
I1220 02:04:45.898869 27931 net.cpp:120] Top shape: 80 512 14 14 (8028160)
I1220 02:04:45.898876 27931 layer_factory.hpp:74] Creating layer inception_4d/pool_proj
I1220 02:04:45.898895 27931 net.cpp:84] Creating Layer inception_4d/pool_proj
I1220 02:04:45.898903 27931 net.cpp:380] inception_4d/pool_proj <- inception_4d/pool
I1220 02:04:45.898915 27931 net.cpp:338] inception_4d/pool_proj -> inception_4d/pool_proj
I1220 02:04:45.898928 27931 net.cpp:113] Setting up inception_4d/pool_proj
I1220 02:04:45.900131 27931 net.cpp:120] Top shape: 80 64 14 14 (1003520)
I1220 02:04:45.900166 27931 layer_factory.hpp:74] Creating layer inception_4d/relu_pool_proj
I1220 02:04:45.900182 27931 net.cpp:84] Creating Layer inception_4d/relu_pool_proj
I1220 02:04:45.900192 27931 net.cpp:380] inception_4d/relu_pool_proj <- inception_4d/pool_proj
I1220 02:04:45.900207 27931 net.cpp:327] inception_4d/relu_pool_proj -> inception_4d/pool_proj (in-place)
I1220 02:04:45.900223 27931 net.cpp:113] Setting up inception_4d/relu_pool_proj
I1220 02:04:45.900563 27931 net.cpp:120] Top shape: 80 64 14 14 (1003520)
I1220 02:04:45.900578 27931 layer_factory.hpp:74] Creating layer inception_4d/output
I1220 02:04:45.900593 27931 net.cpp:84] Creating Layer inception_4d/output
I1220 02:04:45.900602 27931 net.cpp:380] inception_4d/output <- inception_4d/1x1
I1220 02:04:45.900612 27931 net.cpp:380] inception_4d/output <- inception_4d/3x3
I1220 02:04:45.900622 27931 net.cpp:380] inception_4d/output <- inception_4d/5x5
I1220 02:04:45.900631 27931 net.cpp:380] inception_4d/output <- inception_4d/pool_proj
I1220 02:04:45.900641 27931 net.cpp:338] inception_4d/output -> inception_4d/output
I1220 02:04:45.900655 27931 net.cpp:113] Setting up inception_4d/output
I1220 02:04:45.900670 27931 net.cpp:120] Top shape: 80 528 14 14 (8279040)
I1220 02:04:45.900677 27931 layer_factory.hpp:74] Creating layer inception_4d/output_inception_4d/output_0_split
I1220 02:04:45.900693 27931 net.cpp:84] Creating Layer inception_4d/output_inception_4d/output_0_split
I1220 02:04:45.900701 27931 net.cpp:380] inception_4d/output_inception_4d/output_0_split <- inception_4d/output
I1220 02:04:45.900712 27931 net.cpp:338] inception_4d/output_inception_4d/output_0_split -> inception_4d/output_inception_4d/output_0_split_0
I1220 02:04:45.900725 27931 net.cpp:338] inception_4d/output_inception_4d/output_0_split -> inception_4d/output_inception_4d/output_0_split_1
I1220 02:04:45.900738 27931 net.cpp:338] inception_4d/output_inception_4d/output_0_split -> inception_4d/output_inception_4d/output_0_split_2
I1220 02:04:45.900753 27931 net.cpp:338] inception_4d/output_inception_4d/output_0_split -> inception_4d/output_inception_4d/output_0_split_3
I1220 02:04:45.900796 27931 net.cpp:338] inception_4d/output_inception_4d/output_0_split -> inception_4d/output_inception_4d/output_0_split_4
I1220 02:04:45.900809 27931 net.cpp:113] Setting up inception_4d/output_inception_4d/output_0_split
I1220 02:04:45.900821 27931 net.cpp:120] Top shape: 80 528 14 14 (8279040)
I1220 02:04:45.900835 27931 net.cpp:120] Top shape: 80 528 14 14 (8279040)
I1220 02:04:45.900841 27931 net.cpp:120] Top shape: 80 528 14 14 (8279040)
I1220 02:04:45.900849 27931 net.cpp:120] Top shape: 80 528 14 14 (8279040)
I1220 02:04:45.900856 27931 net.cpp:120] Top shape: 80 528 14 14 (8279040)
I1220 02:04:45.900864 27931 layer_factory.hpp:74] Creating layer loss2/ave_pool
I1220 02:04:45.900876 27931 net.cpp:84] Creating Layer loss2/ave_pool
I1220 02:04:45.900885 27931 net.cpp:380] loss2/ave_pool <- inception_4d/output_inception_4d/output_0_split_0
I1220 02:04:45.900902 27931 net.cpp:338] loss2/ave_pool -> loss2/ave_pool
I1220 02:04:45.900915 27931 net.cpp:113] Setting up loss2/ave_pool
I1220 02:04:45.901031 27931 net.cpp:120] Top shape: 80 528 4 4 (675840)
I1220 02:04:45.901042 27931 layer_factory.hpp:74] Creating layer loss2/conv
I1220 02:04:45.901069 27931 net.cpp:84] Creating Layer loss2/conv
I1220 02:04:45.901080 27931 net.cpp:380] loss2/conv <- loss2/ave_pool
I1220 02:04:45.901095 27931 net.cpp:338] loss2/conv -> loss2/conv
I1220 02:04:45.901109 27931 net.cpp:113] Setting up loss2/conv
I1220 02:04:45.902925 27931 net.cpp:120] Top shape: 80 128 4 4 (163840)
I1220 02:04:45.902966 27931 layer_factory.hpp:74] Creating layer loss2/relu_conv
I1220 02:04:45.902987 27931 net.cpp:84] Creating Layer loss2/relu_conv
I1220 02:04:45.902999 27931 net.cpp:380] loss2/relu_conv <- loss2/conv
I1220 02:04:45.903013 27931 net.cpp:327] loss2/relu_conv -> loss2/conv (in-place)
I1220 02:04:45.903026 27931 net.cpp:113] Setting up loss2/relu_conv
I1220 02:04:45.903137 27931 net.cpp:120] Top shape: 80 128 4 4 (163840)
I1220 02:04:45.903149 27931 layer_factory.hpp:74] Creating layer loss2/fc
I1220 02:04:45.903163 27931 net.cpp:84] Creating Layer loss2/fc
I1220 02:04:45.903172 27931 net.cpp:380] loss2/fc <- loss2/conv
I1220 02:04:45.903183 27931 net.cpp:338] loss2/fc -> loss2/fc
I1220 02:04:45.903198 27931 net.cpp:113] Setting up loss2/fc
I1220 02:04:45.929636 27931 net.cpp:120] Top shape: 80 1024 (81920)
I1220 02:04:45.929677 27931 layer_factory.hpp:74] Creating layer loss2/relu_fc
I1220 02:04:45.929692 27931 net.cpp:84] Creating Layer loss2/relu_fc
I1220 02:04:45.929702 27931 net.cpp:380] loss2/relu_fc <- loss2/fc
I1220 02:04:45.929713 27931 net.cpp:327] loss2/relu_fc -> loss2/fc (in-place)
I1220 02:04:45.929723 27931 net.cpp:113] Setting up loss2/relu_fc
I1220 02:04:45.930207 27931 net.cpp:120] Top shape: 80 1024 (81920)
I1220 02:04:45.930219 27931 layer_factory.hpp:74] Creating layer loss2/drop_fc
I1220 02:04:45.930233 27931 net.cpp:84] Creating Layer loss2/drop_fc
I1220 02:04:45.930238 27931 net.cpp:380] loss2/drop_fc <- loss2/fc
I1220 02:04:45.930244 27931 net.cpp:327] loss2/drop_fc -> loss2/fc (in-place)
I1220 02:04:45.930251 27931 net.cpp:113] Setting up loss2/drop_fc
I1220 02:04:45.930260 27931 net.cpp:120] Top shape: 80 1024 (81920)
I1220 02:04:45.930265 27931 layer_factory.hpp:74] Creating layer loss2/classifier_kaggle
I1220 02:04:45.930277 27931 net.cpp:84] Creating Layer loss2/classifier_kaggle
I1220 02:04:45.930281 27931 net.cpp:380] loss2/classifier_kaggle <- loss2/fc
I1220 02:04:45.930290 27931 net.cpp:338] loss2/classifier_kaggle -> loss2/classifier_kaggle
I1220 02:04:45.930301 27931 net.cpp:113] Setting up loss2/classifier_kaggle
I1220 02:04:45.935653 27931 net.cpp:120] Top shape: 80 447 (35760)
I1220 02:04:45.935724 27931 layer_factory.hpp:74] Creating layer loss2/loss
I1220 02:04:45.935745 27931 net.cpp:84] Creating Layer loss2/loss
I1220 02:04:45.935760 27931 net.cpp:380] loss2/loss <- loss2/classifier_kaggle
I1220 02:04:45.935775 27931 net.cpp:380] loss2/loss <- label_data_1_split_1
I1220 02:04:45.935789 27931 net.cpp:338] loss2/loss -> loss2/loss1
I1220 02:04:45.935822 27931 net.cpp:113] Setting up loss2/loss
I1220 02:04:45.935849 27931 layer_factory.hpp:74] Creating layer loss2/loss
I1220 02:04:45.936159 27931 net.cpp:120] Top shape: (1)
I1220 02:04:45.936172 27931 net.cpp:122]     with loss weight 0.3
I1220 02:04:45.936194 27931 layer_factory.hpp:74] Creating layer inception_4e/1x1
I1220 02:04:45.936221 27931 net.cpp:84] Creating Layer inception_4e/1x1
I1220 02:04:45.936233 27931 net.cpp:380] inception_4e/1x1 <- inception_4d/output_inception_4d/output_0_split_1
I1220 02:04:45.936249 27931 net.cpp:338] inception_4e/1x1 -> inception_4e/1x1
I1220 02:04:45.936264 27931 net.cpp:113] Setting up inception_4e/1x1
I1220 02:04:45.938670 27931 net.cpp:120] Top shape: 80 256 14 14 (4014080)
I1220 02:04:45.938695 27931 layer_factory.hpp:74] Creating layer inception_4e/relu_1x1
I1220 02:04:45.938711 27931 net.cpp:84] Creating Layer inception_4e/relu_1x1
I1220 02:04:45.938722 27931 net.cpp:380] inception_4e/relu_1x1 <- inception_4e/1x1
I1220 02:04:45.938735 27931 net.cpp:327] inception_4e/relu_1x1 -> inception_4e/1x1 (in-place)
I1220 02:04:45.938748 27931 net.cpp:113] Setting up inception_4e/relu_1x1
I1220 02:04:45.938868 27931 net.cpp:120] Top shape: 80 256 14 14 (4014080)
I1220 02:04:45.938879 27931 layer_factory.hpp:74] Creating layer inception_4e/3x3_reduce
I1220 02:04:45.938904 27931 net.cpp:84] Creating Layer inception_4e/3x3_reduce
I1220 02:04:45.938915 27931 net.cpp:380] inception_4e/3x3_reduce <- inception_4d/output_inception_4d/output_0_split_2
I1220 02:04:45.938932 27931 net.cpp:338] inception_4e/3x3_reduce -> inception_4e/3x3_reduce
I1220 02:04:45.938947 27931 net.cpp:113] Setting up inception_4e/3x3_reduce
I1220 02:04:45.940598 27931 net.cpp:120] Top shape: 80 160 14 14 (2508800)
I1220 02:04:45.940620 27931 layer_factory.hpp:74] Creating layer inception_4e/relu_3x3_reduce
I1220 02:04:45.940644 27931 net.cpp:84] Creating Layer inception_4e/relu_3x3_reduce
I1220 02:04:45.940654 27931 net.cpp:380] inception_4e/relu_3x3_reduce <- inception_4e/3x3_reduce
I1220 02:04:45.940665 27931 net.cpp:327] inception_4e/relu_3x3_reduce -> inception_4e/3x3_reduce (in-place)
I1220 02:04:45.940680 27931 net.cpp:113] Setting up inception_4e/relu_3x3_reduce
I1220 02:04:45.940795 27931 net.cpp:120] Top shape: 80 160 14 14 (2508800)
I1220 02:04:45.940807 27931 layer_factory.hpp:74] Creating layer inception_4e/3x3
I1220 02:04:45.940822 27931 net.cpp:84] Creating Layer inception_4e/3x3
I1220 02:04:45.940832 27931 net.cpp:380] inception_4e/3x3 <- inception_4e/3x3_reduce
I1220 02:04:45.940845 27931 net.cpp:338] inception_4e/3x3 -> inception_4e/3x3
I1220 02:04:45.940860 27931 net.cpp:113] Setting up inception_4e/3x3
I1220 02:04:45.947348 27931 net.cpp:120] Top shape: 80 320 14 14 (5017600)
I1220 02:04:45.947387 27931 layer_factory.hpp:74] Creating layer inception_4e/relu_3x3
I1220 02:04:45.947403 27931 net.cpp:84] Creating Layer inception_4e/relu_3x3
I1220 02:04:45.947414 27931 net.cpp:380] inception_4e/relu_3x3 <- inception_4e/3x3
I1220 02:04:45.947428 27931 net.cpp:327] inception_4e/relu_3x3 -> inception_4e/3x3 (in-place)
I1220 02:04:45.947443 27931 net.cpp:113] Setting up inception_4e/relu_3x3
I1220 02:04:45.947768 27931 net.cpp:120] Top shape: 80 320 14 14 (5017600)
I1220 02:04:45.947783 27931 layer_factory.hpp:74] Creating layer inception_4e/5x5_reduce
I1220 02:04:45.947814 27931 net.cpp:84] Creating Layer inception_4e/5x5_reduce
I1220 02:04:45.947825 27931 net.cpp:380] inception_4e/5x5_reduce <- inception_4d/output_inception_4d/output_0_split_3
I1220 02:04:45.947841 27931 net.cpp:338] inception_4e/5x5_reduce -> inception_4e/5x5_reduce
I1220 02:04:45.947857 27931 net.cpp:113] Setting up inception_4e/5x5_reduce
I1220 02:04:45.948638 27931 net.cpp:120] Top shape: 80 32 14 14 (501760)
I1220 02:04:45.948659 27931 layer_factory.hpp:74] Creating layer inception_4e/relu_5x5_reduce
I1220 02:04:45.948673 27931 net.cpp:84] Creating Layer inception_4e/relu_5x5_reduce
I1220 02:04:45.948684 27931 net.cpp:380] inception_4e/relu_5x5_reduce <- inception_4e/5x5_reduce
I1220 02:04:45.948696 27931 net.cpp:327] inception_4e/relu_5x5_reduce -> inception_4e/5x5_reduce (in-place)
I1220 02:04:45.948739 27931 net.cpp:113] Setting up inception_4e/relu_5x5_reduce
I1220 02:04:45.948856 27931 net.cpp:120] Top shape: 80 32 14 14 (501760)
I1220 02:04:45.948876 27931 layer_factory.hpp:74] Creating layer inception_4e/5x5
I1220 02:04:45.948923 27931 net.cpp:84] Creating Layer inception_4e/5x5
I1220 02:04:45.948933 27931 net.cpp:380] inception_4e/5x5 <- inception_4e/5x5_reduce
I1220 02:04:45.948946 27931 net.cpp:338] inception_4e/5x5 -> inception_4e/5x5
I1220 02:04:45.948963 27931 net.cpp:113] Setting up inception_4e/5x5
I1220 02:04:45.950837 27931 net.cpp:120] Top shape: 80 128 14 14 (2007040)
I1220 02:04:45.950863 27931 layer_factory.hpp:74] Creating layer inception_4e/relu_5x5
I1220 02:04:45.950886 27931 net.cpp:84] Creating Layer inception_4e/relu_5x5
I1220 02:04:45.950896 27931 net.cpp:380] inception_4e/relu_5x5 <- inception_4e/5x5
I1220 02:04:45.950906 27931 net.cpp:327] inception_4e/relu_5x5 -> inception_4e/5x5 (in-place)
I1220 02:04:45.950923 27931 net.cpp:113] Setting up inception_4e/relu_5x5
I1220 02:04:45.951031 27931 net.cpp:120] Top shape: 80 128 14 14 (2007040)
I1220 02:04:45.951045 27931 layer_factory.hpp:74] Creating layer inception_4e/pool
I1220 02:04:45.951056 27931 layer_factory.cpp:56] CUDNN does not support padding or multiple tops. Using Caffe's own pooling layer.
I1220 02:04:45.951069 27931 net.cpp:84] Creating Layer inception_4e/pool
I1220 02:04:45.951078 27931 net.cpp:380] inception_4e/pool <- inception_4d/output_inception_4d/output_0_split_4
I1220 02:04:45.951091 27931 net.cpp:338] inception_4e/pool -> inception_4e/pool
I1220 02:04:45.951104 27931 net.cpp:113] Setting up inception_4e/pool
I1220 02:04:45.951130 27931 net.cpp:120] Top shape: 80 528 14 14 (8279040)
I1220 02:04:45.951139 27931 layer_factory.hpp:74] Creating layer inception_4e/pool_proj
I1220 02:04:45.951154 27931 net.cpp:84] Creating Layer inception_4e/pool_proj
I1220 02:04:45.951164 27931 net.cpp:380] inception_4e/pool_proj <- inception_4e/pool
I1220 02:04:45.951176 27931 net.cpp:338] inception_4e/pool_proj -> inception_4e/pool_proj
I1220 02:04:45.951189 27931 net.cpp:113] Setting up inception_4e/pool_proj
I1220 02:04:45.952635 27931 net.cpp:120] Top shape: 80 128 14 14 (2007040)
I1220 02:04:45.952669 27931 layer_factory.hpp:74] Creating layer inception_4e/relu_pool_proj
I1220 02:04:45.952692 27931 net.cpp:84] Creating Layer inception_4e/relu_pool_proj
I1220 02:04:45.952703 27931 net.cpp:380] inception_4e/relu_pool_proj <- inception_4e/pool_proj
I1220 02:04:45.952714 27931 net.cpp:327] inception_4e/relu_pool_proj -> inception_4e/pool_proj (in-place)
I1220 02:04:45.952728 27931 net.cpp:113] Setting up inception_4e/relu_pool_proj
I1220 02:04:45.952843 27931 net.cpp:120] Top shape: 80 128 14 14 (2007040)
I1220 02:04:45.952854 27931 layer_factory.hpp:74] Creating layer inception_4e/output
I1220 02:04:45.952868 27931 net.cpp:84] Creating Layer inception_4e/output
I1220 02:04:45.952878 27931 net.cpp:380] inception_4e/output <- inception_4e/1x1
I1220 02:04:45.952889 27931 net.cpp:380] inception_4e/output <- inception_4e/3x3
I1220 02:04:45.952898 27931 net.cpp:380] inception_4e/output <- inception_4e/5x5
I1220 02:04:45.952908 27931 net.cpp:380] inception_4e/output <- inception_4e/pool_proj
I1220 02:04:45.952919 27931 net.cpp:338] inception_4e/output -> inception_4e/output
I1220 02:04:45.952931 27931 net.cpp:113] Setting up inception_4e/output
I1220 02:04:45.952955 27931 net.cpp:120] Top shape: 80 832 14 14 (13045760)
I1220 02:04:45.952963 27931 layer_factory.hpp:74] Creating layer pool4/3x3_s2
I1220 02:04:45.952975 27931 net.cpp:84] Creating Layer pool4/3x3_s2
I1220 02:04:45.952985 27931 net.cpp:380] pool4/3x3_s2 <- inception_4e/output
I1220 02:04:45.952998 27931 net.cpp:338] pool4/3x3_s2 -> pool4/3x3_s2
I1220 02:04:45.953012 27931 net.cpp:113] Setting up pool4/3x3_s2
I1220 02:04:45.953357 27931 net.cpp:120] Top shape: 80 832 7 7 (3261440)
I1220 02:04:45.953375 27931 layer_factory.hpp:74] Creating layer pool4/3x3_s2_pool4/3x3_s2_0_split
I1220 02:04:45.953404 27931 net.cpp:84] Creating Layer pool4/3x3_s2_pool4/3x3_s2_0_split
I1220 02:04:45.953428 27931 net.cpp:380] pool4/3x3_s2_pool4/3x3_s2_0_split <- pool4/3x3_s2
I1220 02:04:45.953440 27931 net.cpp:338] pool4/3x3_s2_pool4/3x3_s2_0_split -> pool4/3x3_s2_pool4/3x3_s2_0_split_0
I1220 02:04:45.953455 27931 net.cpp:338] pool4/3x3_s2_pool4/3x3_s2_0_split -> pool4/3x3_s2_pool4/3x3_s2_0_split_1
I1220 02:04:45.953471 27931 net.cpp:338] pool4/3x3_s2_pool4/3x3_s2_0_split -> pool4/3x3_s2_pool4/3x3_s2_0_split_2
I1220 02:04:45.953485 27931 net.cpp:338] pool4/3x3_s2_pool4/3x3_s2_0_split -> pool4/3x3_s2_pool4/3x3_s2_0_split_3
I1220 02:04:45.953495 27931 net.cpp:113] Setting up pool4/3x3_s2_pool4/3x3_s2_0_split
I1220 02:04:45.953519 27931 net.cpp:120] Top shape: 80 832 7 7 (3261440)
I1220 02:04:45.953536 27931 net.cpp:120] Top shape: 80 832 7 7 (3261440)
I1220 02:04:45.953554 27931 net.cpp:120] Top shape: 80 832 7 7 (3261440)
I1220 02:04:45.953572 27931 net.cpp:120] Top shape: 80 832 7 7 (3261440)
I1220 02:04:45.953580 27931 layer_factory.hpp:74] Creating layer inception_5a/1x1
I1220 02:04:45.953603 27931 net.cpp:84] Creating Layer inception_5a/1x1
I1220 02:04:45.953613 27931 net.cpp:380] inception_5a/1x1 <- pool4/3x3_s2_pool4/3x3_s2_0_split_0
I1220 02:04:45.953629 27931 net.cpp:338] inception_5a/1x1 -> inception_5a/1x1
I1220 02:04:45.953644 27931 net.cpp:113] Setting up inception_5a/1x1
I1220 02:04:45.956951 27931 net.cpp:120] Top shape: 80 256 7 7 (1003520)
I1220 02:04:45.956990 27931 layer_factory.hpp:74] Creating layer inception_5a/relu_1x1
I1220 02:04:45.957003 27931 net.cpp:84] Creating Layer inception_5a/relu_1x1
I1220 02:04:45.957013 27931 net.cpp:380] inception_5a/relu_1x1 <- inception_5a/1x1
I1220 02:04:45.957026 27931 net.cpp:327] inception_5a/relu_1x1 -> inception_5a/1x1 (in-place)
I1220 02:04:45.957039 27931 net.cpp:113] Setting up inception_5a/relu_1x1
I1220 02:04:45.957159 27931 net.cpp:120] Top shape: 80 256 7 7 (1003520)
I1220 02:04:45.957172 27931 layer_factory.hpp:74] Creating layer inception_5a/3x3_reduce
I1220 02:04:45.957185 27931 net.cpp:84] Creating Layer inception_5a/3x3_reduce
I1220 02:04:45.957195 27931 net.cpp:380] inception_5a/3x3_reduce <- pool4/3x3_s2_pool4/3x3_s2_0_split_1
I1220 02:04:45.957213 27931 net.cpp:338] inception_5a/3x3_reduce -> inception_5a/3x3_reduce
I1220 02:04:45.957228 27931 net.cpp:113] Setting up inception_5a/3x3_reduce
I1220 02:04:45.959538 27931 net.cpp:120] Top shape: 80 160 7 7 (627200)
I1220 02:04:45.959563 27931 layer_factory.hpp:74] Creating layer inception_5a/relu_3x3_reduce
I1220 02:04:45.959585 27931 net.cpp:84] Creating Layer inception_5a/relu_3x3_reduce
I1220 02:04:45.959596 27931 net.cpp:380] inception_5a/relu_3x3_reduce <- inception_5a/3x3_reduce
I1220 02:04:45.959609 27931 net.cpp:327] inception_5a/relu_3x3_reduce -> inception_5a/3x3_reduce (in-place)
I1220 02:04:45.959622 27931 net.cpp:113] Setting up inception_5a/relu_3x3_reduce
I1220 02:04:45.959728 27931 net.cpp:120] Top shape: 80 160 7 7 (627200)
I1220 02:04:45.959739 27931 layer_factory.hpp:74] Creating layer inception_5a/3x3
I1220 02:04:45.959755 27931 net.cpp:84] Creating Layer inception_5a/3x3
I1220 02:04:45.959765 27931 net.cpp:380] inception_5a/3x3 <- inception_5a/3x3_reduce
I1220 02:04:45.959777 27931 net.cpp:338] inception_5a/3x3 -> inception_5a/3x3
I1220 02:04:45.959791 27931 net.cpp:113] Setting up inception_5a/3x3
I1220 02:04:45.966411 27931 net.cpp:120] Top shape: 80 320 7 7 (1254400)
I1220 02:04:45.966449 27931 layer_factory.hpp:74] Creating layer inception_5a/relu_3x3
I1220 02:04:45.966473 27931 net.cpp:84] Creating Layer inception_5a/relu_3x3
I1220 02:04:45.966485 27931 net.cpp:380] inception_5a/relu_3x3 <- inception_5a/3x3
I1220 02:04:45.966496 27931 net.cpp:327] inception_5a/relu_3x3 -> inception_5a/3x3 (in-place)
I1220 02:04:45.966509 27931 net.cpp:113] Setting up inception_5a/relu_3x3
I1220 02:04:45.966610 27931 net.cpp:120] Top shape: 80 320 7 7 (1254400)
I1220 02:04:45.966626 27931 layer_factory.hpp:74] Creating layer inception_5a/5x5_reduce
I1220 02:04:45.966640 27931 net.cpp:84] Creating Layer inception_5a/5x5_reduce
I1220 02:04:45.966666 27931 net.cpp:380] inception_5a/5x5_reduce <- pool4/3x3_s2_pool4/3x3_s2_0_split_2
I1220 02:04:45.966692 27931 net.cpp:338] inception_5a/5x5_reduce -> inception_5a/5x5_reduce
I1220 02:04:45.966706 27931 net.cpp:113] Setting up inception_5a/5x5_reduce
I1220 02:04:45.967591 27931 net.cpp:120] Top shape: 80 32 7 7 (125440)
I1220 02:04:45.967612 27931 layer_factory.hpp:74] Creating layer inception_5a/relu_5x5_reduce
I1220 02:04:45.967629 27931 net.cpp:84] Creating Layer inception_5a/relu_5x5_reduce
I1220 02:04:45.967638 27931 net.cpp:380] inception_5a/relu_5x5_reduce <- inception_5a/5x5_reduce
I1220 02:04:45.967653 27931 net.cpp:327] inception_5a/relu_5x5_reduce -> inception_5a/5x5_reduce (in-place)
I1220 02:04:45.967664 27931 net.cpp:113] Setting up inception_5a/relu_5x5_reduce
I1220 02:04:45.967970 27931 net.cpp:120] Top shape: 80 32 7 7 (125440)
I1220 02:04:45.967985 27931 layer_factory.hpp:74] Creating layer inception_5a/5x5
I1220 02:04:45.967998 27931 net.cpp:84] Creating Layer inception_5a/5x5
I1220 02:04:45.968008 27931 net.cpp:380] inception_5a/5x5 <- inception_5a/5x5_reduce
I1220 02:04:45.968020 27931 net.cpp:338] inception_5a/5x5 -> inception_5a/5x5
I1220 02:04:45.968034 27931 net.cpp:113] Setting up inception_5a/5x5
I1220 02:04:45.969909 27931 net.cpp:120] Top shape: 80 128 7 7 (501760)
I1220 02:04:45.969933 27931 layer_factory.hpp:74] Creating layer inception_5a/relu_5x5
I1220 02:04:45.969945 27931 net.cpp:84] Creating Layer inception_5a/relu_5x5
I1220 02:04:45.969954 27931 net.cpp:380] inception_5a/relu_5x5 <- inception_5a/5x5
I1220 02:04:45.969964 27931 net.cpp:327] inception_5a/relu_5x5 -> inception_5a/5x5 (in-place)
I1220 02:04:45.969976 27931 net.cpp:113] Setting up inception_5a/relu_5x5
I1220 02:04:45.970078 27931 net.cpp:120] Top shape: 80 128 7 7 (501760)
I1220 02:04:45.970098 27931 layer_factory.hpp:74] Creating layer inception_5a/pool
I1220 02:04:45.970108 27931 layer_factory.cpp:56] CUDNN does not support padding or multiple tops. Using Caffe's own pooling layer.
I1220 02:04:45.970124 27931 net.cpp:84] Creating Layer inception_5a/pool
I1220 02:04:45.970134 27931 net.cpp:380] inception_5a/pool <- pool4/3x3_s2_pool4/3x3_s2_0_split_3
I1220 02:04:45.970145 27931 net.cpp:338] inception_5a/pool -> inception_5a/pool
I1220 02:04:45.970158 27931 net.cpp:113] Setting up inception_5a/pool
I1220 02:04:45.970172 27931 net.cpp:120] Top shape: 80 832 7 7 (3261440)
I1220 02:04:45.970180 27931 layer_factory.hpp:74] Creating layer inception_5a/pool_proj
I1220 02:04:45.970191 27931 net.cpp:84] Creating Layer inception_5a/pool_proj
I1220 02:04:45.970197 27931 net.cpp:380] inception_5a/pool_proj <- inception_5a/pool
I1220 02:04:45.970213 27931 net.cpp:338] inception_5a/pool_proj -> inception_5a/pool_proj
I1220 02:04:45.970227 27931 net.cpp:113] Setting up inception_5a/pool_proj
I1220 02:04:45.972103 27931 net.cpp:120] Top shape: 80 128 7 7 (501760)
I1220 02:04:45.972125 27931 layer_factory.hpp:74] Creating layer inception_5a/relu_pool_proj
I1220 02:04:45.972134 27931 net.cpp:84] Creating Layer inception_5a/relu_pool_proj
I1220 02:04:45.972142 27931 net.cpp:380] inception_5a/relu_pool_proj <- inception_5a/pool_proj
I1220 02:04:45.972152 27931 net.cpp:327] inception_5a/relu_pool_proj -> inception_5a/pool_proj (in-place)
I1220 02:04:45.972164 27931 net.cpp:113] Setting up inception_5a/relu_pool_proj
I1220 02:04:45.972265 27931 net.cpp:120] Top shape: 80 128 7 7 (501760)
I1220 02:04:45.972275 27931 layer_factory.hpp:74] Creating layer inception_5a/output
I1220 02:04:45.972285 27931 net.cpp:84] Creating Layer inception_5a/output
I1220 02:04:45.972292 27931 net.cpp:380] inception_5a/output <- inception_5a/1x1
I1220 02:04:45.972301 27931 net.cpp:380] inception_5a/output <- inception_5a/3x3
I1220 02:04:45.972309 27931 net.cpp:380] inception_5a/output <- inception_5a/5x5
I1220 02:04:45.972317 27931 net.cpp:380] inception_5a/output <- inception_5a/pool_proj
I1220 02:04:45.972326 27931 net.cpp:338] inception_5a/output -> inception_5a/output
I1220 02:04:45.972337 27931 net.cpp:113] Setting up inception_5a/output
I1220 02:04:45.972369 27931 net.cpp:120] Top shape: 80 832 7 7 (3261440)
I1220 02:04:45.972396 27931 layer_factory.hpp:74] Creating layer inception_5a/output_inception_5a/output_0_split
I1220 02:04:45.972409 27931 net.cpp:84] Creating Layer inception_5a/output_inception_5a/output_0_split
I1220 02:04:45.972416 27931 net.cpp:380] inception_5a/output_inception_5a/output_0_split <- inception_5a/output
I1220 02:04:45.972429 27931 net.cpp:338] inception_5a/output_inception_5a/output_0_split -> inception_5a/output_inception_5a/output_0_split_0
I1220 02:04:45.972441 27931 net.cpp:338] inception_5a/output_inception_5a/output_0_split -> inception_5a/output_inception_5a/output_0_split_1
I1220 02:04:45.972452 27931 net.cpp:338] inception_5a/output_inception_5a/output_0_split -> inception_5a/output_inception_5a/output_0_split_2
I1220 02:04:45.972465 27931 net.cpp:338] inception_5a/output_inception_5a/output_0_split -> inception_5a/output_inception_5a/output_0_split_3
I1220 02:04:45.972475 27931 net.cpp:113] Setting up inception_5a/output_inception_5a/output_0_split
I1220 02:04:45.972488 27931 net.cpp:120] Top shape: 80 832 7 7 (3261440)
I1220 02:04:45.972497 27931 net.cpp:120] Top shape: 80 832 7 7 (3261440)
I1220 02:04:45.972506 27931 net.cpp:120] Top shape: 80 832 7 7 (3261440)
I1220 02:04:45.972514 27931 net.cpp:120] Top shape: 80 832 7 7 (3261440)
I1220 02:04:45.972522 27931 layer_factory.hpp:74] Creating layer inception_5b/1x1
I1220 02:04:45.972539 27931 net.cpp:84] Creating Layer inception_5b/1x1
I1220 02:04:45.972548 27931 net.cpp:380] inception_5b/1x1 <- inception_5a/output_inception_5a/output_0_split_0
I1220 02:04:45.972559 27931 net.cpp:338] inception_5b/1x1 -> inception_5b/1x1
I1220 02:04:45.972571 27931 net.cpp:113] Setting up inception_5b/1x1
I1220 02:04:45.981222 27931 net.cpp:120] Top shape: 80 384 7 7 (1505280)
I1220 02:04:45.981247 27931 layer_factory.hpp:74] Creating layer inception_5b/relu_1x1
I1220 02:04:45.981258 27931 net.cpp:84] Creating Layer inception_5b/relu_1x1
I1220 02:04:45.981266 27931 net.cpp:380] inception_5b/relu_1x1 <- inception_5b/1x1
I1220 02:04:45.981277 27931 net.cpp:327] inception_5b/relu_1x1 -> inception_5b/1x1 (in-place)
I1220 02:04:45.981289 27931 net.cpp:113] Setting up inception_5b/relu_1x1
I1220 02:04:45.981600 27931 net.cpp:120] Top shape: 80 384 7 7 (1505280)
I1220 02:04:45.981616 27931 layer_factory.hpp:74] Creating layer inception_5b/3x3_reduce
I1220 02:04:45.981631 27931 net.cpp:84] Creating Layer inception_5b/3x3_reduce
I1220 02:04:45.981639 27931 net.cpp:380] inception_5b/3x3_reduce <- inception_5a/output_inception_5a/output_0_split_1
I1220 02:04:45.981653 27931 net.cpp:338] inception_5b/3x3_reduce -> inception_5b/3x3_reduce
I1220 02:04:45.981667 27931 net.cpp:113] Setting up inception_5b/3x3_reduce
I1220 02:04:45.984526 27931 net.cpp:120] Top shape: 80 192 7 7 (752640)
I1220 02:04:45.984582 27931 layer_factory.hpp:74] Creating layer inception_5b/relu_3x3_reduce
I1220 02:04:45.984623 27931 net.cpp:84] Creating Layer inception_5b/relu_3x3_reduce
I1220 02:04:45.984635 27931 net.cpp:380] inception_5b/relu_3x3_reduce <- inception_5b/3x3_reduce
I1220 02:04:45.984649 27931 net.cpp:327] inception_5b/relu_3x3_reduce -> inception_5b/3x3_reduce (in-place)
I1220 02:04:45.984664 27931 net.cpp:113] Setting up inception_5b/relu_3x3_reduce
I1220 02:04:45.984776 27931 net.cpp:120] Top shape: 80 192 7 7 (752640)
I1220 02:04:45.984784 27931 layer_factory.hpp:74] Creating layer inception_5b/3x3
I1220 02:04:45.984799 27931 net.cpp:84] Creating Layer inception_5b/3x3
I1220 02:04:45.984807 27931 net.cpp:380] inception_5b/3x3 <- inception_5b/3x3_reduce
I1220 02:04:45.984820 27931 net.cpp:338] inception_5b/3x3 -> inception_5b/3x3
I1220 02:04:45.984865 27931 net.cpp:113] Setting up inception_5b/3x3
I1220 02:04:45.993798 27931 net.cpp:120] Top shape: 80 384 7 7 (1505280)
I1220 02:04:45.993861 27931 layer_factory.hpp:74] Creating layer inception_5b/relu_3x3
I1220 02:04:45.993878 27931 net.cpp:84] Creating Layer inception_5b/relu_3x3
I1220 02:04:45.993891 27931 net.cpp:380] inception_5b/relu_3x3 <- inception_5b/3x3
I1220 02:04:45.993921 27931 net.cpp:327] inception_5b/relu_3x3 -> inception_5b/3x3 (in-place)
I1220 02:04:45.993949 27931 net.cpp:113] Setting up inception_5b/relu_3x3
I1220 02:04:45.994053 27931 net.cpp:120] Top shape: 80 384 7 7 (1505280)
I1220 02:04:45.994063 27931 layer_factory.hpp:74] Creating layer inception_5b/5x5_reduce
I1220 02:04:45.994096 27931 net.cpp:84] Creating Layer inception_5b/5x5_reduce
I1220 02:04:45.994108 27931 net.cpp:380] inception_5b/5x5_reduce <- inception_5a/output_inception_5a/output_0_split_2
I1220 02:04:45.994122 27931 net.cpp:338] inception_5b/5x5_reduce -> inception_5b/5x5_reduce
I1220 02:04:45.994137 27931 net.cpp:113] Setting up inception_5b/5x5_reduce
I1220 02:04:45.995223 27931 net.cpp:120] Top shape: 80 48 7 7 (188160)
I1220 02:04:45.995244 27931 layer_factory.hpp:74] Creating layer inception_5b/relu_5x5_reduce
I1220 02:04:45.995255 27931 net.cpp:84] Creating Layer inception_5b/relu_5x5_reduce
I1220 02:04:45.995265 27931 net.cpp:380] inception_5b/relu_5x5_reduce <- inception_5b/5x5_reduce
I1220 02:04:45.995275 27931 net.cpp:327] inception_5b/relu_5x5_reduce -> inception_5b/5x5_reduce (in-place)
I1220 02:04:45.995286 27931 net.cpp:113] Setting up inception_5b/relu_5x5_reduce
I1220 02:04:45.995386 27931 net.cpp:120] Top shape: 80 48 7 7 (188160)
I1220 02:04:45.995396 27931 layer_factory.hpp:74] Creating layer inception_5b/5x5
I1220 02:04:45.995410 27931 net.cpp:84] Creating Layer inception_5b/5x5
I1220 02:04:45.995419 27931 net.cpp:380] inception_5b/5x5 <- inception_5b/5x5_reduce
I1220 02:04:45.995429 27931 net.cpp:338] inception_5b/5x5 -> inception_5b/5x5
I1220 02:04:45.995441 27931 net.cpp:113] Setting up inception_5b/5x5
I1220 02:04:45.997972 27931 net.cpp:120] Top shape: 80 128 7 7 (501760)
I1220 02:04:45.997995 27931 layer_factory.hpp:74] Creating layer inception_5b/relu_5x5
I1220 02:04:45.998008 27931 net.cpp:84] Creating Layer inception_5b/relu_5x5
I1220 02:04:45.998018 27931 net.cpp:380] inception_5b/relu_5x5 <- inception_5b/5x5
I1220 02:04:45.998028 27931 net.cpp:327] inception_5b/relu_5x5 -> inception_5b/5x5 (in-place)
I1220 02:04:45.998039 27931 net.cpp:113] Setting up inception_5b/relu_5x5
I1220 02:04:45.998352 27931 net.cpp:120] Top shape: 80 128 7 7 (501760)
I1220 02:04:45.998365 27931 layer_factory.hpp:74] Creating layer inception_5b/pool
I1220 02:04:45.998391 27931 layer_factory.cpp:56] CUDNN does not support padding or multiple tops. Using Caffe's own pooling layer.
I1220 02:04:45.998404 27931 net.cpp:84] Creating Layer inception_5b/pool
I1220 02:04:45.998412 27931 net.cpp:380] inception_5b/pool <- inception_5a/output_inception_5a/output_0_split_3
I1220 02:04:45.998424 27931 net.cpp:338] inception_5b/pool -> inception_5b/pool
I1220 02:04:45.998435 27931 net.cpp:113] Setting up inception_5b/pool
I1220 02:04:45.998450 27931 net.cpp:120] Top shape: 80 832 7 7 (3261440)
I1220 02:04:45.998458 27931 layer_factory.hpp:74] Creating layer inception_5b/pool_proj
I1220 02:04:45.998472 27931 net.cpp:84] Creating Layer inception_5b/pool_proj
I1220 02:04:45.998481 27931 net.cpp:380] inception_5b/pool_proj <- inception_5b/pool
I1220 02:04:45.998497 27931 net.cpp:338] inception_5b/pool_proj -> inception_5b/pool_proj
I1220 02:04:45.998509 27931 net.cpp:113] Setting up inception_5b/pool_proj
I1220 02:04:46.000432 27931 net.cpp:120] Top shape: 80 128 7 7 (501760)
I1220 02:04:46.000464 27931 layer_factory.hpp:74] Creating layer inception_5b/relu_pool_proj
I1220 02:04:46.000475 27931 net.cpp:84] Creating Layer inception_5b/relu_pool_proj
I1220 02:04:46.000484 27931 net.cpp:380] inception_5b/relu_pool_proj <- inception_5b/pool_proj
I1220 02:04:46.000497 27931 net.cpp:327] inception_5b/relu_pool_proj -> inception_5b/pool_proj (in-place)
I1220 02:04:46.000509 27931 net.cpp:113] Setting up inception_5b/relu_pool_proj
I1220 02:04:46.000610 27931 net.cpp:120] Top shape: 80 128 7 7 (501760)
I1220 02:04:46.000619 27931 layer_factory.hpp:74] Creating layer inception_5b/output
I1220 02:04:46.000636 27931 net.cpp:84] Creating Layer inception_5b/output
I1220 02:04:46.000660 27931 net.cpp:380] inception_5b/output <- inception_5b/1x1
I1220 02:04:46.000684 27931 net.cpp:380] inception_5b/output <- inception_5b/3x3
I1220 02:04:46.000692 27931 net.cpp:380] inception_5b/output <- inception_5b/5x5
I1220 02:04:46.000700 27931 net.cpp:380] inception_5b/output <- inception_5b/pool_proj
I1220 02:04:46.000715 27931 net.cpp:338] inception_5b/output -> inception_5b/output
I1220 02:04:46.000727 27931 net.cpp:113] Setting up inception_5b/output
I1220 02:04:46.000741 27931 net.cpp:120] Top shape: 80 1024 7 7 (4014080)
I1220 02:04:46.000747 27931 layer_factory.hpp:74] Creating layer pool5/7x7_s1
I1220 02:04:46.000757 27931 net.cpp:84] Creating Layer pool5/7x7_s1
I1220 02:04:46.000764 27931 net.cpp:380] pool5/7x7_s1 <- inception_5b/output
I1220 02:04:46.000778 27931 net.cpp:338] pool5/7x7_s1 -> pool5/7x7_s1
I1220 02:04:46.000789 27931 net.cpp:113] Setting up pool5/7x7_s1
I1220 02:04:46.000893 27931 net.cpp:120] Top shape: 80 1024 1 1 (81920)
I1220 02:04:46.000903 27931 layer_factory.hpp:74] Creating layer pool5/drop_7x7_s1
I1220 02:04:46.000916 27931 net.cpp:84] Creating Layer pool5/drop_7x7_s1
I1220 02:04:46.000924 27931 net.cpp:380] pool5/drop_7x7_s1 <- pool5/7x7_s1
I1220 02:04:46.000933 27931 net.cpp:327] pool5/drop_7x7_s1 -> pool5/7x7_s1 (in-place)
I1220 02:04:46.000944 27931 net.cpp:113] Setting up pool5/drop_7x7_s1
I1220 02:04:46.000955 27931 net.cpp:120] Top shape: 80 1024 1 1 (81920)
I1220 02:04:46.000962 27931 layer_factory.hpp:74] Creating layer loss3/classifier_kaggle
I1220 02:04:46.000974 27931 net.cpp:84] Creating Layer loss3/classifier_kaggle
I1220 02:04:46.000982 27931 net.cpp:380] loss3/classifier_kaggle <- pool5/7x7_s1
I1220 02:04:46.000993 27931 net.cpp:338] loss3/classifier_kaggle -> loss3/classifier_kaggle
I1220 02:04:46.001005 27931 net.cpp:113] Setting up loss3/classifier_kaggle
I1220 02:04:46.006942 27931 net.cpp:120] Top shape: 80 447 (35760)
I1220 02:04:46.006989 27931 layer_factory.hpp:74] Creating layer loss3/loss3
I1220 02:04:46.007021 27931 net.cpp:84] Creating Layer loss3/loss3
I1220 02:04:46.007033 27931 net.cpp:380] loss3/loss3 <- loss3/classifier_kaggle
I1220 02:04:46.007046 27931 net.cpp:380] loss3/loss3 <- label_data_1_split_2
I1220 02:04:46.007058 27931 net.cpp:338] loss3/loss3 -> loss3/loss3
I1220 02:04:46.007072 27931 net.cpp:113] Setting up loss3/loss3
…
I1220 02:04:46.015529 27931 net.cpp:257] The NetState phase (1) differed from the phase (0) specified by a rule in layer data
I1220 02:04:46.017984 27931 net.cpp:42] Initializing net from parameters: 
name: "MYNET"
state {
  phase: TEST
}
layer {
  name: "data"
  type: "ImageData"
  top: "data"
  top: "label"
  include {
    phase: TEST
  }
  transform_param {
    mirror: false
    crop_size: 224
    mean_value: 129
    mean_value: 129
    mean_value: 129
  }
  image_data_param {
    source: "/home/coldmanck/kaggle/label_val_full.txt"
    batch_size: 50
    shuffle: true
  }
}
layer {
  name: "conv1/7x7_s2"
  type: "Convolution"
  bottom: "data"
  top: "conv1/7x7_s2"
  param {
    lr_mult: 1
    decay_mult: 1
  }
  param {
    lr_mult: 2
    decay_mult: 0
  }
  convolution_param {
    num_output: 64
    pad: 3
    kernel_size: 7
    stride: 2
    weight_filler {
      type: "xavier"
    }
    bias_filler {
      type: "constant"
      value: 0.2
    }
  }
}
layer {
  name: "conv1/relu_7x7"
  type: "ReLU"
  bottom: "conv1/7x7_s2"
  top: "conv1/7x7_s2"
}
layer {
  name: "pool1/3x3_s2"
  type: "Pooling"
  bottom: "conv1/7x7_s2"
  top: "pool1/3x3_s2"
  pooling_param {
    pool: MAX
    kernel_size: 3
    stride: 2
  }
}
layer {
  name: "pool1/norm1"
  type: "LRN"
  bottom: "pool1/3x3_s2"
  top: "pool1/norm1"
  lrn_param {
    local_size: 5
    alpha: 0.0001
    beta: 0.75
  }
}
layer {
  name: "conv2/3x3_reduce"
  type: "Convolution"
  bottom: "pool1/norm1"
  top: "conv2/3x3_reduce"
  param {
    lr_mult: 1
    decay_mult: 1
  }
  param {
    lr_mult: 2
    decay_mult: 0
  }
  convolution_param {
    num_output: 64
    kernel_size: 1
    weight_filler {
      type: "xavier"
    }
    bias_filler {
      type: "constant"
      value: 0.2
    }
  }
}
layer {
  name: "conv2/relu_3x3_reduce"
  type: "ReLU"
  bottom: "conv2/3x3_reduce"
  top: "conv2/3x3_reduce"
}
layer {
  name: "conv2/3x3"
  type: "Convolution"
  bottom: "conv2/3x3_reduce"
  top: "conv2/3x3"
  param {
    lr_mult: 1
    decay_mult: 1
  }
  param {
    lr_mult: 2
    decay_mult: 0
  }
  convolution_param {
    num_output: 192
    pad: 1
    kernel_size: 3
    weight_filler {
      type: "xavier"
    }
    bias_filler {
      type: "constant"
      value: 0.2
    }
  }
}
layer {
  name: "conv2/relu_3x3"
  type: "ReLU"
  bottom: "conv2/3x3"
  top: "conv2/3x3"
}
layer {
  name: "conv2/norm2"
  type: "LRN"
  bottom: "conv2/3x3"
  top: "conv2/norm2"
  lrn_param {
    local_size: 5
    alpha: 0.0001
    beta: 0.75
  }
}
layer {
  name: "pool2/3x3_s2"
  type: "Pooling"
  bottom: "conv2/norm2"
  top: "pool2/3x3_s2"
  pooling_param {
    pool: MAX
    kernel_size: 3
    stride: 2
  }
}
layer {
  name: "inception_3a/1x1"
  type: "Convolution"
  bottom: "pool2/3x3_s2"
  top: "inception_3a/1x1"
  param {
    lr_mult: 1
    decay_mult: 1
  }
  param {
    lr_mult: 2
    decay_mult: 0
  }
  convolution_param {
    num_output: 64
    kernel_size: 1
    weight_filler {
      type: "xavier"
    }
    bias_filler {
      type: "constant"
      value: 0.2
    }
  }
}
layer {
  name: "inception_3a/relu_1x1"
  type: "ReLU"
  bottom: "inception_3a/1x1"
  top: "inception_3a/1x1"
}
layer {
  name: "inception_3a/3x3_reduce"
  type: "Convolution"
  bottom: "pool2/3x3_s2"
  top: "inception_3a/3x3_reduce"
  param {
    lr_mult: 1
    decay_mult: 1
  }
  param {
    lr_mult: 2
    decay_mult: 0
  }
  convolution_param {
    num_output: 96
    kernel_size: 1
    weight_filler {
      type: "xavier"
    }
    bias_filler {
      type: "constant"
      value: 0.2
    }
  }
}
layer {
  name: "inception_3a/relu_3x3_reduce"
  type: "ReLU"
  bottom: "inception_3a/3x3_reduce"
  top: "inception_3a/3x3_reduce"
}
layer {
  name: "inception_3a/3x3"
  type: "Convolution"
  bottom: "inception_3a/3x3_reduce"
  top: "inception_3a/3x3"
  param {
    lr_mult: 1
    decay_mult: 1
  }
  param {
    lr_mult: 2
    decay_mult: 0
  }
  convolution_param {
    num_output: 128
    pad: 1
    kernel_size: 3
    weight_filler {
      type: "xavier"
    }
    bias_filler {
      type: "constant"
      value: 0.2
    }
  }
}
layer {
  name: "inception_3a/relu_3x3"
  type: "ReLU"
  bottom: "inception_3a/3x3"
  top: "inception_3a/3x3"
}
layer {
  name: "inception_3a/5x5_reduce"
  type: "Convolution"
  bottom: "pool2/3x3_s2"
  top: "inception_3a/5x5_reduce"
  param {
    lr_mult: 1
    decay_mult: 1
  }
  param {
    lr_mult: 2
    decay_mult: 0
  }
  convolution_param {
    num_output: 16
    kernel_size: 1
    weight_filler {
      type: "xavier"
    }
    bias_filler {
      type: "constant"
      value: 0.2
    }
  }
}
layer {
  name: "inception_3a/relu_5x5_reduce"
  type: "ReLU"
  bottom: "inception_3a/5x5_reduce"
  top: "inception_3a/5x5_reduce"
}
layer {
  name: "inception_3a/5x5"
  type: "Convolution"
  bottom: "inception_3a/5x5_reduce"
  top: "inception_3a/5x5"
  param {
    lr_mult: 1
    decay_mult: 1
  }
  param {
    lr_mult: 2
    decay_mult: 0
  }
  convolution_param {
    num_output: 32
    pad: 2
    kernel_size: 5
    weight_filler {
      type: "xavier"
    }
    bias_filler {
      type: "constant"
      value: 0.2
    }
  }
}
layer {
  name: "inception_3a/relu_5x5"
  type: "ReLU"
  bottom: "inception_3a/5x5"
  top: "inception_3a/5x5"
}
layer {
  name: "inception_3a/pool"
  type: "Pooling"
  bottom: "pool2/3x3_s2"
  top: "inception_3a/pool"
  pooling_param {
    pool: MAX
    kernel_size: 3
    stride: 1
    pad: 1
  }
}
layer {
  name: "inception_3a/pool_proj"
  type: "Convolution"
  bottom: "inception_3a/pool"
  top: "inception_3a/pool_proj"
  param {
    lr_mult: 1
    decay_mult: 1
  }
  param {
    lr_mult: 2
    decay_mult: 0
  }
  convolution_param {
    num_output: 32
    kernel_size: 1
    weight_filler {
      type: "xavier"
    }
    bias_filler {
      type: "constant"
      value: 0.2
    }
  }
}
layer {
  name: "inception_3a/relu_pool_proj"
  type: "ReLU"
  bottom: "inception_3a/pool_proj"
  top: "inception_3a/pool_proj"
}
layer {
  name: "inception_3a/output"
  type: "Concat"
  bottom: "inception_3a/1x1"
  bottom: "inception_3a/3x3"
  bottom: "inception_3a/5x5"
  bottom: "inception_3a/pool_proj"
  top: "inception_3a/output"
}
layer {
  name: "inception_3b/1x1"
  type: "Convolution"
  bottom: "inception_3a/output"
  top: "inception_3b/1x1"
  param {
    lr_mult: 1
    decay_mult: 1
  }
  param {
    lr_mult: 2
    decay_mult: 0
  }
  convolution_param {
    num_output: 128
    kernel_size: 1
    weight_filler {
      type: "xavier"
    }
    bias_filler {
      type: "constant"
      value: 0.2
    }
  }
}
layer {
  name: "inception_3b/relu_1x1"
  type: "ReLU"
  bottom: "inception_3b/1x1"
  top: "inception_3b/1x1"
}
layer {
  name: "inception_3b/3x3_reduce"
  type: "Convolution"
  bottom: "inception_3a/output"
  top: "inception_3b/3x3_reduce"
  param {
    lr_mult: 1
    decay_mult: 1
  }
  param {
    lr_mult: 2
    decay_mult: 0
  }
  convolution_param {
    num_output: 128
    kernel_size: 1
    weight_filler {
      type: "xavier"
    }
    bias_filler {
      type: "constant"
      value: 0.2
    }
  }
}
layer {
  name: "inception_3b/relu_3x3_reduce"
  type: "ReLU"
  bottom: "inception_3b/3x3_reduce"
  top: "inception_3b/3x3_reduce"
}
layer {
  name: "inception_3b/3x3"
  type: "Convolution"
  bottom: "inception_3b/3x3_reduce"
  top: "inception_3b/3x3"
  param {
    lr_mult: 1
    decay_mult: 1
  }
  param {
    lr_mult: 2
    decay_mult: 0
  }
  convolution_param {
    num_output: 192
    pad: 1
    kernel_size: 3
    weight_filler {
      type: "xavier"
    }
    bias_filler {
      type: "constant"
      value: 0.2
    }
  }
}
layer {
  name: "inception_3b/relu_3x3"
  type: "ReLU"
  bottom: "inception_3b/3x3"
  top: "inception_3b/3x3"
}
layer {
  name: "inception_3b/5x5_reduce"
  type: "Convolution"
  bottom: "inception_3a/output"
  top: "inception_3b/5x5_reduce"
  param {
    lr_mult: 1
    decay_mult: 1
  }
  param {
    lr_mult: 2
    decay_mult: 0
  }
  convolution_param {
    num_output: 32
    kernel_size: 1
    weight_filler {
      type: "xavier"
    }
    bias_filler {
      type: "constant"
      value: 0.2
    }
  }
}
layer {
  name: "inception_3b/relu_5x5_reduce"
  type: "ReLU"
  bottom: "inception_3b/5x5_reduce"
  top: "inception_3b/5x5_reduce"
}
layer {
  name: "inception_3b/5x5"
  type: "Convolution"
  bottom: "inception_3b/5x5_reduce"
  top: "inception_3b/5x5"
  param {
    lr_mult: 1
    decay_mult: 1
  }
  param {
    lr_mult: 2
    decay_mult: 0
  }
  convolution_param {
    num_output: 96
    pad: 2
    kernel_size: 5
    weight_filler {
      type: "xavier"
    }
    bias_filler {
      type: "constant"
      value: 0.2
    }
  }
}
layer {
  name: "inception_3b/relu_5x5"
  type: "ReLU"
  bottom: "inception_3b/5x5"
  top: "inception_3b/5x5"
}
layer {
  name: "inception_3b/pool"
  type: "Pooling"
  bottom: "inception_3a/output"
  top: "inception_3b/pool"
  pooling_param {
    pool: MAX
    kernel_size: 3
    stride: 1
    pad: 1
  }
}
layer {
  name: "inception_3b/pool_proj"
  type: "Convolution"
  bottom: "inception_3b/pool"
  top: "inception_3b/pool_proj"
  param {
    lr_mult: 1
    decay_mult: 1
  }
  param {
    lr_mult: 2
    decay_mult: 0
  }
  convolution_param {
    num_output: 64
    kernel_size: 1
    weight_filler {
      type: "xavier"
    }
    bias_filler {
      type: "constant"
      value: 0.2
    }
  }
}
layer {
  name: "inception_3b/relu_pool_proj"
  type: "ReLU"
  bottom: "inception_3b/pool_proj"
  top: "inception_3b/pool_proj"
}
layer {
  name: "inception_3b/output"
  type: "Concat"
  bottom: "inception_3b/1x1"
  bottom: "inception_3b/3x3"
  bottom: "inception_3b/5x5"
  bottom: "inception_3b/pool_proj"
  top: "inception_3b/output"
}
layer {
  name: "pool3/3x3_s2"
  type: "Pooling"
  bottom: "inception_3b/output"
  top: "pool3/3x3_s2"
  pooling_param {
    pool: MAX
    kernel_size: 3
    stride: 2
  }
}
layer {
  name: "inception_4a/1x1"
  type: "Convolution"
  bottom: "pool3/3x3_s2"
  top: "inception_4a/1x1"
  param {
    lr_mult: 1
    decay_mult: 1
  }
  param {
    lr_mult: 2
    decay_mult: 0
  }
  convolution_param {
    num_output: 192
    kernel_size: 1
    weight_filler {
      type: "xavier"
    }
    bias_filler {
      type: "constant"
      value: 0.2
    }
  }
}
layer {
  name: "inception_4a/relu_1x1"
  type: "ReLU"
  bottom: "inception_4a/1x1"
  top: "inception_4a/1x1"
}
layer {
  name: "inception_4a/3x3_reduce"
  type: "Convolution"
  bottom: "pool3/3x3_s2"
  top: "inception_4a/3x3_reduce"
  param {
    lr_mult: 1
    decay_mult: 1
  }
  param {
    lr_mult: 2
    decay_mult: 0
  }
  convolution_param {
    num_output: 96
    kernel_size: 1
    weight_filler {
      type: "xavier"
    }
    bias_filler {
      type: "constant"
      value: 0.2
    }
  }
}
layer {
  name: "inception_4a/relu_3x3_reduce"
  type: "ReLU"
  bottom: "inception_4a/3x3_reduce"
  top: "inception_4a/3x3_reduce"
}
layer {
  name: "inception_4a/3x3"
  type: "Convolution"
  bottom: "inception_4a/3x3_reduce"
  top: "inception_4a/3x3"
  param {
    lr_mult: 1
    decay_mult: 1
  }
  param {
    lr_mult: 2
    decay_mult: 0
  }
  convolution_param {
    num_output: 208
    pad: 1
    kernel_size: 3
    weight_filler {
      type: "xavier"
    }
    bias_filler {
      type: "constant"
      value: 0.2
    }
  }
}
layer {
  name: "inception_4a/relu_3x3"
  type: "ReLU"
  bottom: "inception_4a/3x3"
  top: "inception_4a/3x3"
}
layer {
  name: "inception_4a/5x5_reduce"
  type: "Convolution"
  bottom: "pool3/3x3_s2"
  top: "inception_4a/5x5_reduce"
  param {
    lr_mult: 1
    decay_mult: 1
  }
  param {
    lr_mult: 2
    decay_mult: 0
  }
  convolution_param {
    num_output: 16
    kernel_size: 1
    weight_filler {
      type: "xavier"
    }
    bias_filler {
      type: "constant"
      value: 0.2
    }
  }
}
layer {
  name: "inception_4a/relu_5x5_reduce"
  type: "ReLU"
  bottom: "inception_4a/5x5_reduce"
  top: "inception_4a/5x5_reduce"
}
layer {
  name: "inception_4a/5x5"
  type: "Convolution"
  bottom: "inception_4a/5x5_reduce"
  top: "inception_4a/5x5"
  param {
    lr_mult: 1
    decay_mult: 1
  }
  param {
    lr_mult: 2
    decay_mult: 0
  }
  convolution_param {
    num_output: 48
    pad: 2
    kernel_size: 5
    weight_filler {
      type: "xavier"
    }
    bias_filler {
      type: "constant"
      value: 0.2
    }
  }
}
layer {
  name: "inception_4a/relu_5x5"
  type: "ReLU"
  bottom: "inception_4a/5x5"
  top: "inception_4a/5x5"
}
layer {
  name: "inception_4a/pool"
  type: "Pooling"
  bottom: "pool3/3x3_s2"
  top: "inception_4a/pool"
  pooling_param {
    pool: MAX
    kernel_size: 3
    stride: 1
    pad: 1
  }
}
layer {
  name: "inception_4a/pool_proj"
  type: "Convolution"
  bottom: "inception_4a/pool"
  top: "inception_4a/pool_proj"
  param {
    lr_mult: 1
    decay_mult: 1
  }
  param {
    lr_mult: 2
    decay_mult: 0
  }
  convolution_param {
    num_output: 64
    kernel_size: 1
    weight_filler {
      type: "xavier"
    }
    bias_filler {
      type: "constant"
      value: 0.2
    }
  }
}
layer {
  name: "inception_4a/relu_pool_proj"
  type: "ReLU"
  bottom: "inception_4a/pool_proj"
  top: "inception_4a/pool_proj"
}
layer {
  name: "inception_4a/output"
  type: "Concat"
  bottom: "inception_4a/1x1"
  bottom: "inception_4a/3x3"
  bottom: "inception_4a/5x5"
  bottom: "inception_4a/pool_proj"
  top: "inception_4a/output"
}
layer {
  name: "loss1/ave_pool"
  type: "Pooling"
  bottom: "inception_4a/output"
  top: "loss1/ave_pool"
  pooling_param {
    pool: AVE
    kernel_size: 5
    stride: 3
  }
}
layer {
  name: "loss1/conv"
  type: "Convolution"
  bottom: "loss1/ave_pool"
  top: "loss1/conv"
  param {
    lr_mult: 1
    decay_mult: 1
  }
  param {
    lr_mult: 2
    decay_mult: 0
  }
  convolution_param {
    num_output: 128
    kernel_size: 1
    weight_filler {
      type: "xavier"
    }
    bias_filler {
      type: "constant"
      value: 0.2
    }
  }
}
layer {
  name: "loss1/relu_conv"
  type: "ReLU"
  bottom: "loss1/conv"
  top: "loss1/conv"
}
layer {
  name: "loss1/fc"
  type: "InnerProduct"
  bottom: "loss1/conv"
  top: "loss1/fc"
  param {
    lr_mult: 1
    decay_mult: 1
  }
  param {
    lr_mult: 2
    decay_mult: 0
  }
  inner_product_param {
    num_output: 1024
    weight_filler {
      type: "xavier"
    }
    bias_filler {
      type: "constant"
      value: 0.2
    }
  }
}
layer {
  name: "loss1/relu_fc"
  type: "ReLU"
  bottom: "loss1/fc"
  top: "loss1/fc"
}
layer {
  name: "loss1/drop_fc"
  type: "Dropout"
  bottom: "loss1/fc"
  top: "loss1/fc"
  dropout_param {
    dropout_ratio: 0.7
  }
}
layer {
  name: "loss1/classifier_kaggle"
  type: "InnerProduct"
  bottom: "loss1/fc"
  top: "loss1/classifier_kaggle"
  param {
    lr_mult: 1
    decay_mult: 1
  }
  param {
    lr_mult: 2
    decay_mult: 0
  }
  inner_product_param {
    num_output: 447
    weight_filler {
      type: "xavier"
    }
    bias_filler {
      type: "constant"
      value: 0
    }
  }
}
layer {
  name: "loss1/loss"
  type: "SoftmaxWithLoss"
  bottom: "loss1/classifier_kaggle"
  bottom: "label"
  top: "loss1/loss1"
  loss_weight: 0.3
}
layer {
  name: "loss1/top-1"
  type: "Accuracy"
  bottom: "loss1/classifier_kaggle"
  bottom: "label"
  top: "loss1/top-1"
  include {
    phase: TEST
  }
}
layer {
  name: "loss1/top-5"
  type: "Accuracy"
  bottom: "loss1/classifier_kaggle"
  bottom: "label"
  top: "loss1/top-5"
  include {
    phase: TEST
  }
  accuracy_param {
    top_k: 5
  }
}
layer {
  name: "inception_4b/1x1"
  type: "Convolution"
  bottom: "inception_4a/output"
  top: "inception_4b/1x1"
  param {
    lr_mult: 1
    decay_mult: 1
  }
  param {
    lr_mult: 2
    decay_mult: 0
  }
  convolution_param {
    num_output: 160
    kernel_size: 1
    weight_filler {
      type: "xavier"
    }
    bias_filler {
      type: "constant"
      value: 0.2
    }
  }
}
layer {
  name: "inception_4b/relu_1x1"
  type: "ReLU"
  bottom: "inception_4b/1x1"
  top: "inception_4b/1x1"
}
layer {
  name: "inception_4b/3x3_reduce"
  type: "Convolution"
  bottom: "inception_4a/output"
  top: "inception_4b/3x3_reduce"
  param {
    lr_mult: 1
    decay_mult: 1
  }
  param {
    lr_mult: 2
    decay_mult: 0
  }
  convolution_param {
    num_output: 112
    kernel_size: 1
    weight_filler {
      type: "xavier"
    }
    bias_filler {
      type: "constant"
      value: 0.2
    }
  }
}
layer {
  name: "inception_4b/relu_3x3_reduce"
  type: "ReLU"
  bottom: "inception_4b/3x3_reduce"
  top: "inception_4b/3x3_reduce"
}
layer {
  name: "inception_4b/3x3"
  type: "Convolution"
  bottom: "inception_4b/3x3_reduce"
  top: "inception_4b/3x3"
  param {
    lr_mult: 1
    decay_mult: 1
  }
  param {
    lr_mult: 2
    decay_mult: 0
  }
  convolution_param {
    num_output: 224
    pad: 1
    kernel_size: 3
    weight_filler {
      type: "xavier"
    }
    bias_filler {
      type: "constant"
      value: 0.2
    }
  }
}
layer {
  name: "inception_4b/relu_3x3"
  type: "ReLU"
  bottom: "inception_4b/3x3"
  top: "inception_4b/3x3"
}
layer {
  name: "inception_4b/5x5_reduce"
  type: "Convolution"
  bottom: "inception_4a/output"
  top: "inception_4b/5x5_reduce"
  param {
    lr_mult: 1
    decay_mult: 1
  }
  param {
    lr_mult: 2
    decay_mult: 0
  }
  convolution_param {
    num_output: 24
    kernel_size: 1
    weight_filler {
      type: "xavier"
    }
    bias_filler {
      type: "constant"
      value: 0.2
    }
  }
}
layer {
  name: "inception_4b/relu_5x5_reduce"
  type: "ReLU"
  bottom: "inception_4b/5x5_reduce"
  top: "inception_4b/5x5_reduce"
}
layer {
  name: "inception_4b/5x5"
  type: "Convolution"
  bottom: "inception_4b/5x5_reduce"
  top: "inception_4b/5x5"
  param {
    lr_mult: 1
    decay_mult: 1
  }
  param {
    lr_mult: 2
    decay_mult: 0
  }
  convolution_param {
    num_output: 64
    pad: 2
    kernel_size: 5
    weight_filler {
      type: "xavier"
    }
    bias_filler {
      type: "constant"
      value: 0.2
    }
  }
}
layer {
  name: "inception_4b/relu_5x5"
  type: "ReLU"
  bottom: "inception_4b/5x5"
  top: "inception_4b/5x5"
}
layer {
  name: "inception_4b/pool"
  type: "Pooling"
  bottom: "inception_4a/output"
  top: "inception_4b/pool"
  pooling_param {
    pool: MAX
    kernel_size: 3
    stride: 1
    pad: 1
  }
}
layer {
  name: "inception_4b/pool_proj"
  type: "Convolution"
  bottom: "inception_4b/pool"
  top: "inception_4b/pool_proj"
  param {
    lr_mult: 1
    decay_mult: 1
  }
  param {
    lr_mult: 2
    decay_mult: 0
  }
  convolution_param {
    num_output: 64
    kernel_size: 1
    weight_filler {
      type: "xavier"
    }
    bias_filler {
      type: "constant"
      value: 0.2
    }
  }
}
layer {
  name: "inception_4b/relu_pool_proj"
  type: "ReLU"
  bottom: "inception_4b/pool_proj"
  top: "inception_4b/pool_proj"
}
layer {
  name: "inception_4b/output"
  type: "Concat"
  bottom: "inception_4b/1x1"
  bottom: "inception_4b/3x3"
  bottom: "inception_4b/5x5"
  bottom: "inception_4b/pool_proj"
  top: "inception_4b/output"
}
layer {
  name: "inception_4c/1x1"
  type: "Convolution"
  bottom: "inception_4b/output"
  top: "inception_4c/1x1"
  param {
    lr_mult: 1
    decay_mult: 1
  }
  param {
    lr_mult: 2
    decay_mult: 0
  }
  convolution_param {
    num_output: 128
    kernel_size: 1
    weight_filler {
      type: "xavier"
    }
    bias_filler {
      type: "constant"
      value: 0.2
    }
  }
}
layer {
  name: "inception_4c/relu_1x1"
  type: "ReLU"
  bottom: "inception_4c/1x1"
  top: "inception_4c/1x1"
}
layer {
  name: "inception_4c/3x3_reduce"
  type: "Convolution"
  bottom: "inception_4b/output"
  top: "inception_4c/3x3_reduce"
  param {
    lr_mult: 1
    decay_mult: 1
  }
  param {
    lr_mult: 2
    decay_mult: 0
  }
  convolution_param {
    num_output: 128
    kernel_size: 1
    weight_filler {
      type: "xavier"
    }
    bias_filler {
      type: "constant"
      value: 0.2
    }
  }
}
layer {
  name: "inception_4c/relu_3x3_reduce"
  type: "ReLU"
  bottom: "inception_4c/3x3_reduce"
  top: "inception_4c/3x3_reduce"
}
layer {
  name: "inception_4c/3x3"
  type: "Convolution"
  bottom: "inception_4c/3x3_reduce"
  top: "inception_4c/3x3"
  param {
    lr_mult: 1
    decay_mult: 1
  }
  param {
    lr_mult: 2
    decay_mult: 0
  }
  convolution_param {
    num_output: 256
    pad: 1
    kernel_size: 3
    weight_filler {
      type: "xavier"
    }
    bias_filler {
      type: "constant"
      value: 0.2
    }
  }
}
layer {
  name: "inception_4c/relu_3x3"
  type: "ReLU"
  bottom: "inception_4c/3x3"
  top: "inception_4c/3x3"
}
layer {
  name: "inception_4c/5x5_reduce"
  type: "Convolution"
  bottom: "inception_4b/output"
  top: "inception_4c/5x5_reduce"
  param {
    lr_mult: 1
    decay_mult: 1
  }
  param {
    lr_mult: 2
    decay_mult: 0
  }
  convolution_param {
    num_output: 24
    kernel_size: 1
    weight_filler {
      type: "xavier"
    }
    bias_filler {
      type: "constant"
      value: 0.2
    }
  }
}
layer {
  name: "inception_4c/relu_5x5_reduce"
  type: "ReLU"
  bottom: "inception_4c/5x5_reduce"
  top: "inception_4c/5x5_reduce"
}
layer {
  name: "inception_4c/5x5"
  type: "Convolution"
  bottom: "inception_4c/5x5_reduce"
  top: "inception_4c/5x5"
  param {
    lr_mult: 1
    decay_mult: 1
  }
  param {
    lr_mult: 2
    decay_mult: 0
  }
  convolution_param {
    num_output: 64
    pad: 2
    kernel_size: 5
    weight_filler {
      type: "xavier"
    }
    bias_filler {
      type: "constant"
      value: 0.2
    }
  }
}
layer {
  name: "inception_4c/relu_5x5"
  type: "ReLU"
  bottom: "inception_4c/5x5"
  top: "inception_4c/5x5"
}
layer {
  name: "inception_4c/pool"
  type: "Pooling"
  bottom: "inception_4b/output"
  top: "inception_4c/pool"
  pooling_param {
    pool: MAX
    kernel_size: 3
    stride: 1
    pad: 1
  }
}
layer {
  name: "inception_4c/pool_proj"
  type: "Convolution"
  bottom: "inception_4c/pool"
  top: "inception_4c/pool_proj"
  param {
    lr_mult: 1
    decay_mult: 1
  }
  param {
    lr_mult: 2
    decay_mult: 0
  }
  convolution_param {
    num_output: 64
    kernel_size: 1
    weight_filler {
      type: "xavier"
    }
    bias_filler {
      type: "constant"
      value: 0.2
    }
  }
}
layer {
  name: "inception_4c/relu_pool_proj"
  type: "ReLU"
  bottom: "inception_4c/pool_proj"
  top: "inception_4c/pool_proj"
}
layer {
  name: "inception_4c/output"
  type: "Concat"
  bottom: "inception_4c/1x1"
  bottom: "inception_4c/3x3"
  bottom: "inception_4c/5x5"
  bottom: "inception_4c/pool_proj"
  top: "inception_4c/output"
}
layer {
  name: "inception_4d/1x1"
  type: "Convolution"
  bottom: "inception_4c/output"
  top: "inception_4d/1x1"
  param {
    lr_mult: 1
    decay_mult: 1
  }
  param {
    lr_mult: 2
    decay_mult: 0
  }
  convolution_param {
    num_output: 112
    kernel_size: 1
    weight_filler {
      type: "xavier"
    }
    bias_filler {
      type: "constant"
      value: 0.2
    }
  }
}
layer {
  name: "inception_4d/relu_1x1"
  type: "ReLU"
  bottom: "inception_4d/1x1"
  top: "inception_4d/1x1"
}
layer {
  name: "inception_4d/3x3_reduce"
  type: "Convolution"
  bottom: "inception_4c/output"
  top: "inception_4d/3x3_reduce"
  param {
    lr_mult: 1
    decay_mult: 1
  }
  param {
    lr_mult: 2
    decay_mult: 0
  }
  convolution_param {
    num_output: 144
    kernel_size: 1
    weight_filler {
      type: "xavier"
    }
    bias_filler {
      type: "constant"
      value: 0.2
    }
  }
}
layer {
  name: "inception_4d/relu_3x3_reduce"
  type: "ReLU"
  bottom: "inception_4d/3x3_reduce"
  top: "inception_4d/3x3_reduce"
}
layer {
  name: "inception_4d/3x3"
  type: "Convolution"
  bottom: "inception_4d/3x3_reduce"
  top: "inception_4d/3x3"
  param {
    lr_mult: 1
    decay_mult: 1
  }
  param {
    lr_mult: 2
    decay_mult: 0
  }
  convolution_param {
    num_output: 288
    pad: 1
    kernel_size: 3
    weight_filler {
      type: "xavier"
    }
    bias_filler {
      type: "constant"
      value: 0.2
    }
  }
}
layer {
  name: "inception_4d/relu_3x3"
  type: "ReLU"
  bottom: "inception_4d/3x3"
  top: "inception_4d/3x3"
}
layer {
  name: "inception_4d/5x5_reduce"
  type: "Convolution"
  bottom: "inception_4c/output"
  top: "inception_4d/5x5_reduce"
  param {
    lr_mult: 1
    decay_mult: 1
  }
  param {
    lr_mult: 2
    decay_mult: 0
  }
  convolution_param {
    num_output: 32
    kernel_size: 1
    weight_filler {
      type: "xavier"
    }
    bias_filler {
      type: "constant"
      value: 0.2
    }
  }
}
layer {
  name: "inception_4d/relu_5x5_reduce"
  type: "ReLU"
  bottom: "inception_4d/5x5_reduce"
  top: "inception_4d/5x5_reduce"
}
layer {
  name: "inception_4d/5x5"
  type: "Convolution"
  bottom: "inception_4d/5x5_reduce"
  top: "inception_4d/5x5"
  param {
    lr_mult: 1
    decay_mult: 1
  }
  param {
    lr_mult: 2
    decay_mult: 0
  }
  convolution_param {
    num_output: 64
    pad: 2
    kernel_size: 5
    weight_filler {
      type: "xavier"
    }
    bias_filler {
      type: "constant"
      value: 0.2
    }
  }
}
layer {
  name: "inception_4d/relu_5x5"
  type: "ReLU"
  bottom: "inception_4d/5x5"
  top: "inception_4d/5x5"
}
layer {
  name: "inception_4d/pool"
  type: "Pooling"
  bottom: "inception_4c/output"
  top: "inception_4d/pool"
  pooling_param {
    pool: MAX
    kernel_size: 3
    stride: 1
    pad: 1
  }
}
layer {
  name: "inception_4d/pool_proj"
  type: "Convolution"
  bottom: "inception_4d/pool"
  top: "inception_4d/pool_proj"
  param {
    lr_mult: 1
    decay_mult: 1
  }
  param {
    lr_mult: 2
    decay_mult: 0
  }
  convolution_param {
    num_output: 64
    kernel_size: 1
    weight_filler {
      type: "xavier"
    }
    bias_filler {
      type: "constant"
      value: 0.2
    }
  }
}
layer {
  name: "inception_4d/relu_pool_proj"
  type: "ReLU"
  bottom: "inception_4d/pool_proj"
  top: "inception_4d/pool_proj"
}
layer {
  name: "inception_4d/output"
  type: "Concat"
  bottom: "inception_4d/1x1"
  bottom: "inception_4d/3x3"
  bottom: "inception_4d/5x5"
  bottom: "inception_4d/pool_proj"
  top: "inception_4d/output"
}
layer {
  name: "loss2/ave_pool"
  type: "Pooling"
  bottom: "inception_4d/output"
  top: "loss2/ave_pool"
  pooling_param {
    pool: AVE
    kernel_size: 5
    stride: 3
  }
}
layer {
  name: "loss2/conv"
  type: "Convolution"
…
I1220 02:04:46.334997 27931 net.cpp:84] Creating Layer inception_4c/1x1
I1220 02:04:46.335005 27931 net.cpp:380] inception_4c/1x1 <- inception_4b/output_inception_4b/output_0_split_0
I1220 02:04:46.335018 27931 net.cpp:338] inception_4c/1x1 -> inception_4c/1x1
I1220 02:04:46.335029 27931 net.cpp:113] Setting up inception_4c/1x1
I1220 02:04:46.336429 27931 net.cpp:120] Top shape: 50 128 14 14 (1254400)
I1220 02:04:46.336450 27931 layer_factory.hpp:74] Creating layer inception_4c/relu_1x1
I1220 02:04:46.336464 27931 net.cpp:84] Creating Layer inception_4c/relu_1x1
I1220 02:04:46.336472 27931 net.cpp:380] inception_4c/relu_1x1 <- inception_4c/1x1
I1220 02:04:46.336483 27931 net.cpp:327] inception_4c/relu_1x1 -> inception_4c/1x1 (in-place)
I1220 02:04:46.336493 27931 net.cpp:113] Setting up inception_4c/relu_1x1
I1220 02:04:46.336835 27931 net.cpp:120] Top shape: 50 128 14 14 (1254400)
I1220 02:04:46.336863 27931 layer_factory.hpp:74] Creating layer inception_4c/3x3_reduce
I1220 02:04:46.336877 27931 net.cpp:84] Creating Layer inception_4c/3x3_reduce
I1220 02:04:46.336885 27931 net.cpp:380] inception_4c/3x3_reduce <- inception_4b/output_inception_4b/output_0_split_1
I1220 02:04:46.336899 27931 net.cpp:338] inception_4c/3x3_reduce -> inception_4c/3x3_reduce
I1220 02:04:46.336912 27931 net.cpp:113] Setting up inception_4c/3x3_reduce
I1220 02:04:46.338335 27931 net.cpp:120] Top shape: 50 128 14 14 (1254400)
I1220 02:04:46.338357 27931 layer_factory.hpp:74] Creating layer inception_4c/relu_3x3_reduce
I1220 02:04:46.338371 27931 net.cpp:84] Creating Layer inception_4c/relu_3x3_reduce
I1220 02:04:46.338378 27931 net.cpp:380] inception_4c/relu_3x3_reduce <- inception_4c/3x3_reduce
I1220 02:04:46.338389 27931 net.cpp:327] inception_4c/relu_3x3_reduce -> inception_4c/3x3_reduce (in-place)
I1220 02:04:46.338400 27931 net.cpp:113] Setting up inception_4c/relu_3x3_reduce
I1220 02:04:46.338501 27931 net.cpp:120] Top shape: 50 128 14 14 (1254400)
I1220 02:04:46.338513 27931 layer_factory.hpp:74] Creating layer inception_4c/3x3
I1220 02:04:46.338528 27931 net.cpp:84] Creating Layer inception_4c/3x3
I1220 02:04:46.338536 27931 net.cpp:380] inception_4c/3x3 <- inception_4c/3x3_reduce
I1220 02:04:46.338547 27931 net.cpp:338] inception_4c/3x3 -> inception_4c/3x3
I1220 02:04:46.338558 27931 net.cpp:113] Setting up inception_4c/3x3
I1220 02:04:46.343029 27931 net.cpp:120] Top shape: 50 256 14 14 (2508800)
I1220 02:04:46.343096 27931 layer_factory.hpp:74] Creating layer inception_4c/relu_3x3
I1220 02:04:46.343116 27931 net.cpp:84] Creating Layer inception_4c/relu_3x3
I1220 02:04:46.343127 27931 net.cpp:380] inception_4c/relu_3x3 <- inception_4c/3x3
I1220 02:04:46.343139 27931 net.cpp:327] inception_4c/relu_3x3 -> inception_4c/3x3 (in-place)
I1220 02:04:46.343152 27931 net.cpp:113] Setting up inception_4c/relu_3x3
I1220 02:04:46.343257 27931 net.cpp:120] Top shape: 50 256 14 14 (2508800)
I1220 02:04:46.343266 27931 layer_factory.hpp:74] Creating layer inception_4c/5x5_reduce
I1220 02:04:46.343283 27931 net.cpp:84] Creating Layer inception_4c/5x5_reduce
I1220 02:04:46.343292 27931 net.cpp:380] inception_4c/5x5_reduce <- inception_4b/output_inception_4b/output_0_split_2
I1220 02:04:46.343305 27931 net.cpp:338] inception_4c/5x5_reduce -> inception_4c/5x5_reduce
I1220 02:04:46.343318 27931 net.cpp:113] Setting up inception_4c/5x5_reduce
I1220 02:04:46.344055 27931 net.cpp:120] Top shape: 50 24 14 14 (235200)
I1220 02:04:46.344076 27931 layer_factory.hpp:74] Creating layer inception_4c/relu_5x5_reduce
I1220 02:04:46.344091 27931 net.cpp:84] Creating Layer inception_4c/relu_5x5_reduce
I1220 02:04:46.344100 27931 net.cpp:380] inception_4c/relu_5x5_reduce <- inception_4c/5x5_reduce
I1220 02:04:46.344110 27931 net.cpp:327] inception_4c/relu_5x5_reduce -> inception_4c/5x5_reduce (in-place)
I1220 02:04:46.344121 27931 net.cpp:113] Setting up inception_4c/relu_5x5_reduce
I1220 02:04:46.344444 27931 net.cpp:120] Top shape: 50 24 14 14 (235200)
I1220 02:04:46.344460 27931 layer_factory.hpp:74] Creating layer inception_4c/5x5
I1220 02:04:46.344475 27931 net.cpp:84] Creating Layer inception_4c/5x5
I1220 02:04:46.344483 27931 net.cpp:380] inception_4c/5x5 <- inception_4c/5x5_reduce
I1220 02:04:46.344494 27931 net.cpp:338] inception_4c/5x5 -> inception_4c/5x5
I1220 02:04:46.344507 27931 net.cpp:113] Setting up inception_4c/5x5
I1220 02:04:46.349745 27931 net.cpp:120] Top shape: 50 64 14 14 (627200)
I1220 02:04:46.349804 27931 layer_factory.hpp:74] Creating layer inception_4c/relu_5x5
I1220 02:04:46.349820 27931 net.cpp:84] Creating Layer inception_4c/relu_5x5
I1220 02:04:46.349829 27931 net.cpp:380] inception_4c/relu_5x5 <- inception_4c/5x5
I1220 02:04:46.349841 27931 net.cpp:327] inception_4c/relu_5x5 -> inception_4c/5x5 (in-place)
I1220 02:04:46.349853 27931 net.cpp:113] Setting up inception_4c/relu_5x5
I1220 02:04:46.349941 27931 net.cpp:120] Top shape: 50 64 14 14 (627200)
I1220 02:04:46.349964 27931 layer_factory.hpp:74] Creating layer inception_4c/pool
I1220 02:04:46.349982 27931 layer_factory.cpp:56] CUDNN does not support padding or multiple tops. Using Caffe's own pooling layer.
I1220 02:04:46.349990 27931 net.cpp:84] Creating Layer inception_4c/pool
I1220 02:04:46.349997 27931 net.cpp:380] inception_4c/pool <- inception_4b/output_inception_4b/output_0_split_3
I1220 02:04:46.350004 27931 net.cpp:338] inception_4c/pool -> inception_4c/pool
I1220 02:04:46.350013 27931 net.cpp:113] Setting up inception_4c/pool
I1220 02:04:46.350023 27931 net.cpp:120] Top shape: 50 512 14 14 (5017600)
I1220 02:04:46.350028 27931 layer_factory.hpp:74] Creating layer inception_4c/pool_proj
I1220 02:04:46.350044 27931 net.cpp:84] Creating Layer inception_4c/pool_proj
I1220 02:04:46.350050 27931 net.cpp:380] inception_4c/pool_proj <- inception_4c/pool
I1220 02:04:46.350059 27931 net.cpp:338] inception_4c/pool_proj -> inception_4c/pool_proj
I1220 02:04:46.350069 27931 net.cpp:113] Setting up inception_4c/pool_proj
I1220 02:04:46.350941 27931 net.cpp:120] Top shape: 50 64 14 14 (627200)
I1220 02:04:46.350961 27931 layer_factory.hpp:74] Creating layer inception_4c/relu_pool_proj
I1220 02:04:46.350970 27931 net.cpp:84] Creating Layer inception_4c/relu_pool_proj
I1220 02:04:46.350975 27931 net.cpp:380] inception_4c/relu_pool_proj <- inception_4c/pool_proj
I1220 02:04:46.350985 27931 net.cpp:327] inception_4c/relu_pool_proj -> inception_4c/pool_proj (in-place)
I1220 02:04:46.350993 27931 net.cpp:113] Setting up inception_4c/relu_pool_proj
I1220 02:04:46.351063 27931 net.cpp:120] Top shape: 50 64 14 14 (627200)
I1220 02:04:46.351069 27931 layer_factory.hpp:74] Creating layer inception_4c/output
I1220 02:04:46.351078 27931 net.cpp:84] Creating Layer inception_4c/output
I1220 02:04:46.351083 27931 net.cpp:380] inception_4c/output <- inception_4c/1x1
I1220 02:04:46.351089 27931 net.cpp:380] inception_4c/output <- inception_4c/3x3
I1220 02:04:46.351095 27931 net.cpp:380] inception_4c/output <- inception_4c/5x5
I1220 02:04:46.351100 27931 net.cpp:380] inception_4c/output <- inception_4c/pool_proj
I1220 02:04:46.351109 27931 net.cpp:338] inception_4c/output -> inception_4c/output
I1220 02:04:46.351116 27931 net.cpp:113] Setting up inception_4c/output
I1220 02:04:46.351125 27931 net.cpp:120] Top shape: 50 512 14 14 (5017600)
I1220 02:04:46.351130 27931 layer_factory.hpp:74] Creating layer inception_4c/output_inception_4c/output_0_split
I1220 02:04:46.351136 27931 net.cpp:84] Creating Layer inception_4c/output_inception_4c/output_0_split
I1220 02:04:46.351141 27931 net.cpp:380] inception_4c/output_inception_4c/output_0_split <- inception_4c/output
I1220 02:04:46.351150 27931 net.cpp:338] inception_4c/output_inception_4c/output_0_split -> inception_4c/output_inception_4c/output_0_split_0
I1220 02:04:46.351157 27931 net.cpp:338] inception_4c/output_inception_4c/output_0_split -> inception_4c/output_inception_4c/output_0_split_1
I1220 02:04:46.351164 27931 net.cpp:338] inception_4c/output_inception_4c/output_0_split -> inception_4c/output_inception_4c/output_0_split_2
I1220 02:04:46.351171 27931 net.cpp:338] inception_4c/output_inception_4c/output_0_split -> inception_4c/output_inception_4c/output_0_split_3
I1220 02:04:46.351177 27931 net.cpp:113] Setting up inception_4c/output_inception_4c/output_0_split
I1220 02:04:46.351186 27931 net.cpp:120] Top shape: 50 512 14 14 (5017600)
I1220 02:04:46.351191 27931 net.cpp:120] Top shape: 50 512 14 14 (5017600)
I1220 02:04:46.351196 27931 net.cpp:120] Top shape: 50 512 14 14 (5017600)
I1220 02:04:46.351200 27931 net.cpp:120] Top shape: 50 512 14 14 (5017600)
I1220 02:04:46.351204 27931 layer_factory.hpp:74] Creating layer inception_4d/1x1
I1220 02:04:46.351215 27931 net.cpp:84] Creating Layer inception_4d/1x1
I1220 02:04:46.351220 27931 net.cpp:380] inception_4d/1x1 <- inception_4c/output_inception_4c/output_0_split_0
I1220 02:04:46.351232 27931 net.cpp:338] inception_4d/1x1 -> inception_4d/1x1
I1220 02:04:46.351239 27931 net.cpp:113] Setting up inception_4d/1x1
I1220 02:04:46.352334 27931 net.cpp:120] Top shape: 50 112 14 14 (1097600)
I1220 02:04:46.352361 27931 layer_factory.hpp:74] Creating layer inception_4d/relu_1x1
I1220 02:04:46.352370 27931 net.cpp:84] Creating Layer inception_4d/relu_1x1
I1220 02:04:46.352376 27931 net.cpp:380] inception_4d/relu_1x1 <- inception_4d/1x1
I1220 02:04:46.352385 27931 net.cpp:327] inception_4d/relu_1x1 -> inception_4d/1x1 (in-place)
I1220 02:04:46.352393 27931 net.cpp:113] Setting up inception_4d/relu_1x1
I1220 02:04:46.352463 27931 net.cpp:120] Top shape: 50 112 14 14 (1097600)
I1220 02:04:46.352468 27931 layer_factory.hpp:74] Creating layer inception_4d/3x3_reduce
I1220 02:04:46.352480 27931 net.cpp:84] Creating Layer inception_4d/3x3_reduce
I1220 02:04:46.352485 27931 net.cpp:380] inception_4d/3x3_reduce <- inception_4c/output_inception_4c/output_0_split_1
I1220 02:04:46.352494 27931 net.cpp:338] inception_4d/3x3_reduce -> inception_4d/3x3_reduce
I1220 02:04:46.352510 27931 net.cpp:113] Setting up inception_4d/3x3_reduce
I1220 02:04:46.353971 27931 net.cpp:120] Top shape: 50 144 14 14 (1411200)
I1220 02:04:46.354007 27931 layer_factory.hpp:74] Creating layer inception_4d/relu_3x3_reduce
I1220 02:04:46.354027 27931 net.cpp:84] Creating Layer inception_4d/relu_3x3_reduce
I1220 02:04:46.354038 27931 net.cpp:380] inception_4d/relu_3x3_reduce <- inception_4d/3x3_reduce
I1220 02:04:46.354050 27931 net.cpp:327] inception_4d/relu_3x3_reduce -> inception_4d/3x3_reduce (in-place)
I1220 02:04:46.354063 27931 net.cpp:113] Setting up inception_4d/relu_3x3_reduce
I1220 02:04:46.354430 27931 net.cpp:120] Top shape: 50 144 14 14 (1411200)
I1220 02:04:46.354449 27931 layer_factory.hpp:74] Creating layer inception_4d/3x3
I1220 02:04:46.354467 27931 net.cpp:84] Creating Layer inception_4d/3x3
I1220 02:04:46.354477 27931 net.cpp:380] inception_4d/3x3 <- inception_4d/3x3_reduce
I1220 02:04:46.354492 27931 net.cpp:338] inception_4d/3x3 -> inception_4d/3x3
I1220 02:04:46.354507 27931 net.cpp:113] Setting up inception_4d/3x3
I1220 02:04:46.359514 27931 net.cpp:120] Top shape: 50 288 14 14 (2822400)
I1220 02:04:46.359596 27931 layer_factory.hpp:74] Creating layer inception_4d/relu_3x3
I1220 02:04:46.359616 27931 net.cpp:84] Creating Layer inception_4d/relu_3x3
I1220 02:04:46.359628 27931 net.cpp:380] inception_4d/relu_3x3 <- inception_4d/3x3
I1220 02:04:46.359644 27931 net.cpp:327] inception_4d/relu_3x3 -> inception_4d/3x3 (in-place)
I1220 02:04:46.359663 27931 net.cpp:113] Setting up inception_4d/relu_3x3
I1220 02:04:46.359762 27931 net.cpp:120] Top shape: 50 288 14 14 (2822400)
I1220 02:04:46.359774 27931 layer_factory.hpp:74] Creating layer inception_4d/5x5_reduce
I1220 02:04:46.359792 27931 net.cpp:84] Creating Layer inception_4d/5x5_reduce
I1220 02:04:46.359802 27931 net.cpp:380] inception_4d/5x5_reduce <- inception_4c/output_inception_4c/output_0_split_2
I1220 02:04:46.359817 27931 net.cpp:338] inception_4d/5x5_reduce -> inception_4d/5x5_reduce
I1220 02:04:46.359833 27931 net.cpp:113] Setting up inception_4d/5x5_reduce
I1220 02:04:46.360611 27931 net.cpp:120] Top shape: 50 32 14 14 (313600)
I1220 02:04:46.360635 27931 layer_factory.hpp:74] Creating layer inception_4d/relu_5x5_reduce
I1220 02:04:46.360643 27931 net.cpp:84] Creating Layer inception_4d/relu_5x5_reduce
I1220 02:04:46.360651 27931 net.cpp:380] inception_4d/relu_5x5_reduce <- inception_4d/5x5_reduce
I1220 02:04:46.360657 27931 net.cpp:327] inception_4d/relu_5x5_reduce -> inception_4d/5x5_reduce (in-place)
I1220 02:04:46.360666 27931 net.cpp:113] Setting up inception_4d/relu_5x5_reduce
I1220 02:04:46.360738 27931 net.cpp:120] Top shape: 50 32 14 14 (313600)
I1220 02:04:46.360745 27931 layer_factory.hpp:74] Creating layer inception_4d/5x5
I1220 02:04:46.360756 27931 net.cpp:84] Creating Layer inception_4d/5x5
I1220 02:04:46.360762 27931 net.cpp:380] inception_4d/5x5 <- inception_4d/5x5_reduce
I1220 02:04:46.360769 27931 net.cpp:338] inception_4d/5x5 -> inception_4d/5x5
I1220 02:04:46.360779 27931 net.cpp:113] Setting up inception_4d/5x5
I1220 02:04:46.361937 27931 net.cpp:120] Top shape: 50 64 14 14 (627200)
I1220 02:04:46.362013 27931 layer_factory.hpp:74] Creating layer inception_4d/relu_5x5
I1220 02:04:46.362043 27931 net.cpp:84] Creating Layer inception_4d/relu_5x5
I1220 02:04:46.362052 27931 net.cpp:380] inception_4d/relu_5x5 <- inception_4d/5x5
I1220 02:04:46.362059 27931 net.cpp:327] inception_4d/relu_5x5 -> inception_4d/5x5 (in-place)
I1220 02:04:46.362067 27931 net.cpp:113] Setting up inception_4d/relu_5x5
I1220 02:04:46.362138 27931 net.cpp:120] Top shape: 50 64 14 14 (627200)
I1220 02:04:46.362145 27931 layer_factory.hpp:74] Creating layer inception_4d/pool
I1220 02:04:46.362155 27931 layer_factory.cpp:56] CUDNN does not support padding or multiple tops. Using Caffe's own pooling layer.
I1220 02:04:46.362169 27931 net.cpp:84] Creating Layer inception_4d/pool
I1220 02:04:46.362175 27931 net.cpp:380] inception_4d/pool <- inception_4c/output_inception_4c/output_0_split_3
I1220 02:04:46.362184 27931 net.cpp:338] inception_4d/pool -> inception_4d/pool
I1220 02:04:46.362191 27931 net.cpp:113] Setting up inception_4d/pool
I1220 02:04:46.362201 27931 net.cpp:120] Top shape: 50 512 14 14 (5017600)
I1220 02:04:46.362206 27931 layer_factory.hpp:74] Creating layer inception_4d/pool_proj
I1220 02:04:46.362221 27931 net.cpp:84] Creating Layer inception_4d/pool_proj
I1220 02:04:46.362226 27931 net.cpp:380] inception_4d/pool_proj <- inception_4d/pool
I1220 02:04:46.362233 27931 net.cpp:338] inception_4d/pool_proj -> inception_4d/pool_proj
I1220 02:04:46.362241 27931 net.cpp:113] Setting up inception_4d/pool_proj
I1220 02:04:46.363142 27931 net.cpp:120] Top shape: 50 64 14 14 (627200)
I1220 02:04:46.363162 27931 layer_factory.hpp:74] Creating layer inception_4d/relu_pool_proj
I1220 02:04:46.363169 27931 net.cpp:84] Creating Layer inception_4d/relu_pool_proj
I1220 02:04:46.363175 27931 net.cpp:380] inception_4d/relu_pool_proj <- inception_4d/pool_proj
I1220 02:04:46.363184 27931 net.cpp:327] inception_4d/relu_pool_proj -> inception_4d/pool_proj (in-place)
I1220 02:04:46.363193 27931 net.cpp:113] Setting up inception_4d/relu_pool_proj
I1220 02:04:46.363464 27931 net.cpp:120] Top shape: 50 64 14 14 (627200)
I1220 02:04:46.363477 27931 layer_factory.hpp:74] Creating layer inception_4d/output
I1220 02:04:46.363488 27931 net.cpp:84] Creating Layer inception_4d/output
I1220 02:04:46.363494 27931 net.cpp:380] inception_4d/output <- inception_4d/1x1
I1220 02:04:46.363502 27931 net.cpp:380] inception_4d/output <- inception_4d/3x3
I1220 02:04:46.363507 27931 net.cpp:380] inception_4d/output <- inception_4d/5x5
I1220 02:04:46.363512 27931 net.cpp:380] inception_4d/output <- inception_4d/pool_proj
I1220 02:04:46.363519 27931 net.cpp:338] inception_4d/output -> inception_4d/output
I1220 02:04:46.363528 27931 net.cpp:113] Setting up inception_4d/output
I1220 02:04:46.363539 27931 net.cpp:120] Top shape: 50 528 14 14 (5174400)
I1220 02:04:46.363544 27931 layer_factory.hpp:74] Creating layer inception_4d/output_inception_4d/output_0_split
I1220 02:04:46.363551 27931 net.cpp:84] Creating Layer inception_4d/output_inception_4d/output_0_split
I1220 02:04:46.363556 27931 net.cpp:380] inception_4d/output_inception_4d/output_0_split <- inception_4d/output
I1220 02:04:46.363562 27931 net.cpp:338] inception_4d/output_inception_4d/output_0_split -> inception_4d/output_inception_4d/output_0_split_0
I1220 02:04:46.363570 27931 net.cpp:338] inception_4d/output_inception_4d/output_0_split -> inception_4d/output_inception_4d/output_0_split_1
I1220 02:04:46.363577 27931 net.cpp:338] inception_4d/output_inception_4d/output_0_split -> inception_4d/output_inception_4d/output_0_split_2
I1220 02:04:46.363585 27931 net.cpp:338] inception_4d/output_inception_4d/output_0_split -> inception_4d/output_inception_4d/output_0_split_3
I1220 02:04:46.363591 27931 net.cpp:338] inception_4d/output_inception_4d/output_0_split -> inception_4d/output_inception_4d/output_0_split_4
I1220 02:04:46.363598 27931 net.cpp:113] Setting up inception_4d/output_inception_4d/output_0_split
I1220 02:04:46.363607 27931 net.cpp:120] Top shape: 50 528 14 14 (5174400)
I1220 02:04:46.363629 27931 net.cpp:120] Top shape: 50 528 14 14 (5174400)
I1220 02:04:46.363644 27931 net.cpp:120] Top shape: 50 528 14 14 (5174400)
I1220 02:04:46.363649 27931 net.cpp:120] Top shape: 50 528 14 14 (5174400)
I1220 02:04:46.363654 27931 net.cpp:120] Top shape: 50 528 14 14 (5174400)
I1220 02:04:46.363658 27931 layer_factory.hpp:74] Creating layer loss2/ave_pool
I1220 02:04:46.363667 27931 net.cpp:84] Creating Layer loss2/ave_pool
I1220 02:04:46.363670 27931 net.cpp:380] loss2/ave_pool <- inception_4d/output_inception_4d/output_0_split_0
I1220 02:04:46.363682 27931 net.cpp:338] loss2/ave_pool -> loss2/ave_pool
I1220 02:04:46.363689 27931 net.cpp:113] Setting up loss2/ave_pool
I1220 02:04:46.363759 27931 net.cpp:120] Top shape: 50 528 4 4 (422400)
I1220 02:04:46.363767 27931 layer_factory.hpp:74] Creating layer loss2/conv
I1220 02:04:46.363776 27931 net.cpp:84] Creating Layer loss2/conv
I1220 02:04:46.363783 27931 net.cpp:380] loss2/conv <- loss2/ave_pool
I1220 02:04:46.363790 27931 net.cpp:338] loss2/conv -> loss2/conv
I1220 02:04:46.363798 27931 net.cpp:113] Setting up loss2/conv
I1220 02:04:46.365134 27931 net.cpp:120] Top shape: 50 128 4 4 (102400)
I1220 02:04:46.365161 27931 layer_factory.hpp:74] Creating layer loss2/relu_conv
I1220 02:04:46.365178 27931 net.cpp:84] Creating Layer loss2/relu_conv
I1220 02:04:46.365187 27931 net.cpp:380] loss2/relu_conv <- loss2/conv
I1220 02:04:46.365200 27931 net.cpp:327] loss2/relu_conv -> loss2/conv (in-place)
I1220 02:04:46.365211 27931 net.cpp:113] Setting up loss2/relu_conv
I1220 02:04:46.365306 27931 net.cpp:120] Top shape: 50 128 4 4 (102400)
I1220 02:04:46.365317 27931 layer_factory.hpp:74] Creating layer loss2/fc
I1220 02:04:46.365332 27931 net.cpp:84] Creating Layer loss2/fc
I1220 02:04:46.365340 27931 net.cpp:380] loss2/fc <- loss2/conv
I1220 02:04:46.365355 27931 net.cpp:338] loss2/fc -> loss2/fc
I1220 02:04:46.365367 27931 net.cpp:113] Setting up loss2/fc
I1220 02:04:46.483351 27931 net.cpp:120] Top shape: 50 1024 (51200)
I1220 02:04:46.483418 27931 layer_factory.hpp:74] Creating layer loss2/relu_fc
I1220 02:04:46.483433 27931 net.cpp:84] Creating Layer loss2/relu_fc
I1220 02:04:46.483441 27931 net.cpp:380] loss2/relu_fc <- loss2/fc
I1220 02:04:46.483454 27931 net.cpp:327] loss2/relu_fc -> loss2/fc (in-place)
I1220 02:04:46.483465 27931 net.cpp:113] Setting up loss2/relu_fc
I1220 02:04:46.483594 27931 net.cpp:120] Top shape: 50 1024 (51200)
I1220 02:04:46.483603 27931 layer_factory.hpp:74] Creating layer loss2/drop_fc
I1220 02:04:46.483610 27931 net.cpp:84] Creating Layer loss2/drop_fc
I1220 02:04:46.483615 27931 net.cpp:380] loss2/drop_fc <- loss2/fc
I1220 02:04:46.483621 27931 net.cpp:327] loss2/drop_fc -> loss2/fc (in-place)
I1220 02:04:46.483629 27931 net.cpp:113] Setting up loss2/drop_fc
I1220 02:04:46.483638 27931 net.cpp:120] Top shape: 50 1024 (51200)
I1220 02:04:46.483642 27931 layer_factory.hpp:74] Creating layer loss2/classifier_kaggle
I1220 02:04:46.483654 27931 net.cpp:84] Creating Layer loss2/classifier_kaggle
I1220 02:04:46.483657 27931 net.cpp:380] loss2/classifier_kaggle <- loss2/fc
I1220 02:04:46.483665 27931 net.cpp:338] loss2/classifier_kaggle -> loss2/classifier_kaggle
I1220 02:04:46.483675 27931 net.cpp:113] Setting up loss2/classifier_kaggle
I1220 02:04:46.488714 27931 net.cpp:120] Top shape: 50 447 (22350)
I1220 02:04:46.488765 27931 layer_factory.hpp:74] Creating layer loss2/classifier_kaggle_loss2/classifier_kaggle_0_split
I1220 02:04:46.488778 27931 net.cpp:84] Creating Layer loss2/classifier_kaggle_loss2/classifier_kaggle_0_split
I1220 02:04:46.488786 27931 net.cpp:380] loss2/classifier_kaggle_loss2/classifier_kaggle_0_split <- loss2/classifier_kaggle
I1220 02:04:46.488796 27931 net.cpp:338] loss2/classifier_kaggle_loss2/classifier_kaggle_0_split -> loss2/classifier_kaggle_loss2/classifier_kaggle_0_split_0
I1220 02:04:46.488809 27931 net.cpp:338] loss2/classifier_kaggle_loss2/classifier_kaggle_0_split -> loss2/classifier_kaggle_loss2/classifier_kaggle_0_split_1
I1220 02:04:46.488819 27931 net.cpp:338] loss2/classifier_kaggle_loss2/classifier_kaggle_0_split -> loss2/classifier_kaggle_loss2/classifier_kaggle_0_split_2
I1220 02:04:46.488858 27931 net.cpp:113] Setting up loss2/classifier_kaggle_loss2/classifier_kaggle_0_split
I1220 02:04:46.488867 27931 net.cpp:120] Top shape: 50 447 (22350)
I1220 02:04:46.488873 27931 net.cpp:120] Top shape: 50 447 (22350)
I1220 02:04:46.488878 27931 net.cpp:120] Top shape: 50 447 (22350)
I1220 02:04:46.488883 27931 layer_factory.hpp:74] Creating layer loss2/loss
I1220 02:04:46.488889 27931 net.cpp:84] Creating Layer loss2/loss
I1220 02:04:46.488894 27931 net.cpp:380] loss2/loss <- loss2/classifier_kaggle_loss2/classifier_kaggle_0_split_0
I1220 02:04:46.488901 27931 net.cpp:380] loss2/loss <- label_data_1_split_3
I1220 02:04:46.488909 27931 net.cpp:338] loss2/loss -> loss2/loss1
…
I1220 02:04:46.489548 27931 net.cpp:338] loss2/top-5 -> loss2/top-5
I1220 02:04:46.489557 27931 net.cpp:113] Setting up loss2/top-5
I1220 02:04:46.489562 27931 net.cpp:120] Top shape: (1)
I1220 02:04:46.489567 27931 layer_factory.hpp:74] Creating layer inception_4e/1x1
I1220 02:04:46.489578 27931 net.cpp:84] Creating Layer inception_4e/1x1
I1220 02:04:46.489583 27931 net.cpp:380] inception_4e/1x1 <- inception_4d/output_inception_4d/output_0_split_1
I1220 02:04:46.489593 27931 net.cpp:338] inception_4e/1x1 -> inception_4e/1x1
I1220 02:04:46.489601 27931 net.cpp:113] Setting up inception_4e/1x1
I1220 02:04:46.497835 27931 net.cpp:120] Top shape: 50 256 14 14 (2508800)
I1220 02:04:46.497897 27931 layer_factory.hpp:74] Creating layer inception_4e/relu_1x1
I1220 02:04:46.497912 27931 net.cpp:84] Creating Layer inception_4e/relu_1x1
I1220 02:04:46.497921 27931 net.cpp:380] inception_4e/relu_1x1 <- inception_4e/1x1
I1220 02:04:46.497932 27931 net.cpp:327] inception_4e/relu_1x1 -> inception_4e/1x1 (in-place)
I1220 02:04:46.497944 27931 net.cpp:113] Setting up inception_4e/relu_1x1
I1220 02:04:46.498019 27931 net.cpp:120] Top shape: 50 256 14 14 (2508800)
I1220 02:04:46.498026 27931 layer_factory.hpp:74] Creating layer inception_4e/3x3_reduce
I1220 02:04:46.498064 27931 net.cpp:84] Creating Layer inception_4e/3x3_reduce
I1220 02:04:46.498070 27931 net.cpp:380] inception_4e/3x3_reduce <- inception_4d/output_inception_4d/output_0_split_2
I1220 02:04:46.498080 27931 net.cpp:338] inception_4e/3x3_reduce -> inception_4e/3x3_reduce
I1220 02:04:46.498090 27931 net.cpp:113] Setting up inception_4e/3x3_reduce
I1220 02:04:46.499685 27931 net.cpp:120] Top shape: 50 160 14 14 (1568000)
I1220 02:04:46.499711 27931 layer_factory.hpp:74] Creating layer inception_4e/relu_3x3_reduce
I1220 02:04:46.499727 27931 net.cpp:84] Creating Layer inception_4e/relu_3x3_reduce
I1220 02:04:46.499737 27931 net.cpp:380] inception_4e/relu_3x3_reduce <- inception_4e/3x3_reduce
I1220 02:04:46.499749 27931 net.cpp:327] inception_4e/relu_3x3_reduce -> inception_4e/3x3_reduce (in-place)
I1220 02:04:46.499763 27931 net.cpp:113] Setting up inception_4e/relu_3x3_reduce
I1220 02:04:46.499855 27931 net.cpp:120] Top shape: 50 160 14 14 (1568000)
I1220 02:04:46.499872 27931 layer_factory.hpp:74] Creating layer inception_4e/3x3
I1220 02:04:46.499882 27931 net.cpp:84] Creating Layer inception_4e/3x3
I1220 02:04:46.499888 27931 net.cpp:380] inception_4e/3x3 <- inception_4e/3x3_reduce
I1220 02:04:46.499897 27931 net.cpp:338] inception_4e/3x3 -> inception_4e/3x3
I1220 02:04:46.499907 27931 net.cpp:113] Setting up inception_4e/3x3
I1220 02:04:46.505769 27931 net.cpp:120] Top shape: 50 320 14 14 (3136000)
I1220 02:04:46.505841 27931 layer_factory.hpp:74] Creating layer inception_4e/relu_3x3
I1220 02:04:46.505862 27931 net.cpp:84] Creating Layer inception_4e/relu_3x3
I1220 02:04:46.505874 27931 net.cpp:380] inception_4e/relu_3x3 <- inception_4e/3x3
I1220 02:04:46.505889 27931 net.cpp:327] inception_4e/relu_3x3 -> inception_4e/3x3 (in-place)
I1220 02:04:46.505904 27931 net.cpp:113] Setting up inception_4e/relu_3x3
I1220 02:04:46.507539 27931 net.cpp:120] Top shape: 50 320 14 14 (3136000)
I1220 02:04:46.507570 27931 layer_factory.hpp:74] Creating layer inception_4e/5x5_reduce
I1220 02:04:46.507593 27931 net.cpp:84] Creating Layer inception_4e/5x5_reduce
I1220 02:04:46.507606 27931 net.cpp:380] inception_4e/5x5_reduce <- inception_4d/output_inception_4d/output_0_split_3
I1220 02:04:46.507622 27931 net.cpp:338] inception_4e/5x5_reduce -> inception_4e/5x5_reduce
I1220 02:04:46.507640 27931 net.cpp:113] Setting up inception_4e/5x5_reduce
I1220 02:04:46.508296 27931 net.cpp:120] Top shape: 50 32 14 14 (313600)
I1220 02:04:46.508316 27931 layer_factory.hpp:74] Creating layer inception_4e/relu_5x5_reduce
I1220 02:04:46.508323 27931 net.cpp:84] Creating Layer inception_4e/relu_5x5_reduce
I1220 02:04:46.508329 27931 net.cpp:380] inception_4e/relu_5x5_reduce <- inception_4e/5x5_reduce
I1220 02:04:46.508337 27931 net.cpp:327] inception_4e/relu_5x5_reduce -> inception_4e/5x5_reduce (in-place)
I1220 02:04:46.508345 27931 net.cpp:113] Setting up inception_4e/relu_5x5_reduce
I1220 02:04:46.508417 27931 net.cpp:120] Top shape: 50 32 14 14 (313600)
I1220 02:04:46.508426 27931 layer_factory.hpp:74] Creating layer inception_4e/5x5
I1220 02:04:46.508435 27931 net.cpp:84] Creating Layer inception_4e/5x5
I1220 02:04:46.508441 27931 net.cpp:380] inception_4e/5x5 <- inception_4e/5x5_reduce
I1220 02:04:46.508450 27931 net.cpp:338] inception_4e/5x5 -> inception_4e/5x5
I1220 02:04:46.508460 27931 net.cpp:113] Setting up inception_4e/5x5
I1220 02:04:46.510087 27931 net.cpp:120] Top shape: 50 128 14 14 (1254400)
I1220 02:04:46.510118 27931 layer_factory.hpp:74] Creating layer inception_4e/relu_5x5
I1220 02:04:46.510128 27931 net.cpp:84] Creating Layer inception_4e/relu_5x5
I1220 02:04:46.510134 27931 net.cpp:380] inception_4e/relu_5x5 <- inception_4e/5x5
I1220 02:04:46.510143 27931 net.cpp:327] inception_4e/relu_5x5 -> inception_4e/5x5 (in-place)
I1220 02:04:46.510151 27931 net.cpp:113] Setting up inception_4e/relu_5x5
I1220 02:04:46.510222 27931 net.cpp:120] Top shape: 50 128 14 14 (1254400)
I1220 02:04:46.510228 27931 layer_factory.hpp:74] Creating layer inception_4e/pool
I1220 02:04:46.510239 27931 layer_factory.cpp:56] CUDNN does not support padding or multiple tops. Using Caffe's own pooling layer.
I1220 02:04:46.510248 27931 net.cpp:84] Creating Layer inception_4e/pool
I1220 02:04:46.510254 27931 net.cpp:380] inception_4e/pool <- inception_4d/output_inception_4d/output_0_split_4
I1220 02:04:46.510262 27931 net.cpp:338] inception_4e/pool -> inception_4e/pool
I1220 02:04:46.510272 27931 net.cpp:113] Setting up inception_4e/pool
I1220 02:04:46.510282 27931 net.cpp:120] Top shape: 50 528 14 14 (5174400)
I1220 02:04:46.510287 27931 layer_factory.hpp:74] Creating layer inception_4e/pool_proj
I1220 02:04:46.510299 27931 net.cpp:84] Creating Layer inception_4e/pool_proj
I1220 02:04:46.510304 27931 net.cpp:380] inception_4e/pool_proj <- inception_4e/pool
I1220 02:04:46.510316 27931 net.cpp:338] inception_4e/pool_proj -> inception_4e/pool_proj
I1220 02:04:46.510324 27931 net.cpp:113] Setting up inception_4e/pool_proj
I1220 02:04:46.511545 27931 net.cpp:120] Top shape: 50 128 14 14 (1254400)
I1220 02:04:46.511596 27931 layer_factory.hpp:74] Creating layer inception_4e/relu_pool_proj
I1220 02:04:46.511638 27931 net.cpp:84] Creating Layer inception_4e/relu_pool_proj
I1220 02:04:46.511646 27931 net.cpp:380] inception_4e/relu_pool_proj <- inception_4e/pool_proj
I1220 02:04:46.511653 27931 net.cpp:327] inception_4e/relu_pool_proj -> inception_4e/pool_proj (in-place)
I1220 02:04:46.511662 27931 net.cpp:113] Setting up inception_4e/relu_pool_proj
I1220 02:04:46.511732 27931 net.cpp:120] Top shape: 50 128 14 14 (1254400)
I1220 02:04:46.511739 27931 layer_factory.hpp:74] Creating layer inception_4e/output
I1220 02:04:46.511751 27931 net.cpp:84] Creating Layer inception_4e/output
I1220 02:04:46.511756 27931 net.cpp:380] inception_4e/output <- inception_4e/1x1
I1220 02:04:46.511765 27931 net.cpp:380] inception_4e/output <- inception_4e/3x3
I1220 02:04:46.511771 27931 net.cpp:380] inception_4e/output <- inception_4e/5x5
I1220 02:04:46.511777 27931 net.cpp:380] inception_4e/output <- inception_4e/pool_proj
I1220 02:04:46.511783 27931 net.cpp:338] inception_4e/output -> inception_4e/output
I1220 02:04:46.511792 27931 net.cpp:113] Setting up inception_4e/output
I1220 02:04:46.511801 27931 net.cpp:120] Top shape: 50 832 14 14 (8153600)
I1220 02:04:46.511806 27931 layer_factory.hpp:74] Creating layer pool4/3x3_s2
I1220 02:04:46.511818 27931 net.cpp:84] Creating Layer pool4/3x3_s2
I1220 02:04:46.511823 27931 net.cpp:380] pool4/3x3_s2 <- inception_4e/output
I1220 02:04:46.511831 27931 net.cpp:338] pool4/3x3_s2 -> pool4/3x3_s2
I1220 02:04:46.511838 27931 net.cpp:113] Setting up pool4/3x3_s2
I1220 02:04:46.512123 27931 net.cpp:120] Top shape: 50 832 7 7 (2038400)
I1220 02:04:46.512136 27931 layer_factory.hpp:74] Creating layer pool4/3x3_s2_pool4/3x3_s2_0_split
I1220 02:04:46.512143 27931 net.cpp:84] Creating Layer pool4/3x3_s2_pool4/3x3_s2_0_split
I1220 02:04:46.512150 27931 net.cpp:380] pool4/3x3_s2_pool4/3x3_s2_0_split <- pool4/3x3_s2
I1220 02:04:46.512156 27931 net.cpp:338] pool4/3x3_s2_pool4/3x3_s2_0_split -> pool4/3x3_s2_pool4/3x3_s2_0_split_0
I1220 02:04:46.512164 27931 net.cpp:338] pool4/3x3_s2_pool4/3x3_s2_0_split -> pool4/3x3_s2_pool4/3x3_s2_0_split_1
I1220 02:04:46.512174 27931 net.cpp:338] pool4/3x3_s2_pool4/3x3_s2_0_split -> pool4/3x3_s2_pool4/3x3_s2_0_split_2
I1220 02:04:46.512213 27931 net.cpp:338] pool4/3x3_s2_pool4/3x3_s2_0_split -> pool4/3x3_s2_pool4/3x3_s2_0_split_3
I1220 02:04:46.512220 27931 net.cpp:113] Setting up pool4/3x3_s2_pool4/3x3_s2_0_split
I1220 02:04:46.512228 27931 net.cpp:120] Top shape: 50 832 7 7 (2038400)
I1220 02:04:46.512233 27931 net.cpp:120] Top shape: 50 832 7 7 (2038400)
I1220 02:04:46.512246 27931 net.cpp:120] Top shape: 50 832 7 7 (2038400)
I1220 02:04:46.512253 27931 net.cpp:120] Top shape: 50 832 7 7 (2038400)
I1220 02:04:46.512256 27931 layer_factory.hpp:74] Creating layer inception_5a/1x1
I1220 02:04:46.512267 27931 net.cpp:84] Creating Layer inception_5a/1x1
I1220 02:04:46.512272 27931 net.cpp:380] inception_5a/1x1 <- pool4/3x3_s2_pool4/3x3_s2_0_split_0
I1220 02:04:46.512279 27931 net.cpp:338] inception_5a/1x1 -> inception_5a/1x1
I1220 02:04:46.512287 27931 net.cpp:113] Setting up inception_5a/1x1
I1220 02:04:46.518980 27931 net.cpp:120] Top shape: 50 256 7 7 (627200)
I1220 02:04:46.519088 27931 layer_factory.hpp:74] Creating layer inception_5a/relu_1x1
I1220 02:04:46.519103 27931 net.cpp:84] Creating Layer inception_5a/relu_1x1
I1220 02:04:46.519111 27931 net.cpp:380] inception_5a/relu_1x1 <- inception_5a/1x1
I1220 02:04:46.519129 27931 net.cpp:327] inception_5a/relu_1x1 -> inception_5a/1x1 (in-place)
I1220 02:04:46.519143 27931 net.cpp:113] Setting up inception_5a/relu_1x1
I1220 02:04:46.519220 27931 net.cpp:120] Top shape: 50 256 7 7 (627200)
I1220 02:04:46.519229 27931 layer_factory.hpp:74] Creating layer inception_5a/3x3_reduce
I1220 02:04:46.519244 27931 net.cpp:84] Creating Layer inception_5a/3x3_reduce
I1220 02:04:46.519251 27931 net.cpp:380] inception_5a/3x3_reduce <- pool4/3x3_s2_pool4/3x3_s2_0_split_1
I1220 02:04:46.519259 27931 net.cpp:338] inception_5a/3x3_reduce -> inception_5a/3x3_reduce
I1220 02:04:46.519318 27931 net.cpp:113] Setting up inception_5a/3x3_reduce
I1220 02:04:46.521523 27931 net.cpp:120] Top shape: 50 160 7 7 (392000)
I1220 02:04:46.521566 27931 layer_factory.hpp:74] Creating layer inception_5a/relu_3x3_reduce
I1220 02:04:46.521579 27931 net.cpp:84] Creating Layer inception_5a/relu_3x3_reduce
I1220 02:04:46.521584 27931 net.cpp:380] inception_5a/relu_3x3_reduce <- inception_5a/3x3_reduce
I1220 02:04:46.521592 27931 net.cpp:327] inception_5a/relu_3x3_reduce -> inception_5a/3x3_reduce (in-place)
I1220 02:04:46.521600 27931 net.cpp:113] Setting up inception_5a/relu_3x3_reduce
I1220 02:04:46.521674 27931 net.cpp:120] Top shape: 50 160 7 7 (392000)
I1220 02:04:46.521682 27931 layer_factory.hpp:74] Creating layer inception_5a/3x3
I1220 02:04:46.521694 27931 net.cpp:84] Creating Layer inception_5a/3x3
I1220 02:04:46.521699 27931 net.cpp:380] inception_5a/3x3 <- inception_5a/3x3_reduce
I1220 02:04:46.521706 27931 net.cpp:338] inception_5a/3x3 -> inception_5a/3x3
I1220 02:04:46.521715 27931 net.cpp:113] Setting up inception_5a/3x3
I1220 02:04:46.527492 27931 net.cpp:120] Top shape: 50 320 7 7 (784000)
I1220 02:04:46.527606 27931 layer_factory.hpp:74] Creating layer inception_5a/relu_3x3
I1220 02:04:46.527628 27931 net.cpp:84] Creating Layer inception_5a/relu_3x3
I1220 02:04:46.527637 27931 net.cpp:380] inception_5a/relu_3x3 <- inception_5a/3x3
I1220 02:04:46.527648 27931 net.cpp:327] inception_5a/relu_3x3 -> inception_5a/3x3 (in-place)
I1220 02:04:46.527658 27931 net.cpp:113] Setting up inception_5a/relu_3x3
I1220 02:04:46.527729 27931 net.cpp:120] Top shape: 50 320 7 7 (784000)
I1220 02:04:46.527736 27931 layer_factory.hpp:74] Creating layer inception_5a/5x5_reduce
I1220 02:04:46.527750 27931 net.cpp:84] Creating Layer inception_5a/5x5_reduce
I1220 02:04:46.527758 27931 net.cpp:380] inception_5a/5x5_reduce <- pool4/3x3_s2_pool4/3x3_s2_0_split_2
I1220 02:04:46.527767 27931 net.cpp:338] inception_5a/5x5_reduce -> inception_5a/5x5_reduce
I1220 02:04:46.527782 27931 net.cpp:113] Setting up inception_5a/5x5_reduce
I1220 02:04:46.528547 27931 net.cpp:120] Top shape: 50 32 7 7 (78400)
I1220 02:04:46.528563 27931 layer_factory.hpp:74] Creating layer inception_5a/relu_5x5_reduce
I1220 02:04:46.528571 27931 net.cpp:84] Creating Layer inception_5a/relu_5x5_reduce
I1220 02:04:46.528578 27931 net.cpp:380] inception_5a/relu_5x5_reduce <- inception_5a/5x5_reduce
I1220 02:04:46.528584 27931 net.cpp:327] inception_5a/relu_5x5_reduce -> inception_5a/5x5_reduce (in-place)
I1220 02:04:46.528591 27931 net.cpp:113] Setting up inception_5a/relu_5x5_reduce
I1220 02:04:46.528862 27931 net.cpp:120] Top shape: 50 32 7 7 (78400)
I1220 02:04:46.528874 27931 layer_factory.hpp:74] Creating layer inception_5a/5x5
I1220 02:04:46.528885 27931 net.cpp:84] Creating Layer inception_5a/5x5
I1220 02:04:46.528892 27931 net.cpp:380] inception_5a/5x5 <- inception_5a/5x5_reduce
I1220 02:04:46.528901 27931 net.cpp:338] inception_5a/5x5 -> inception_5a/5x5
I1220 02:04:46.528910 27931 net.cpp:113] Setting up inception_5a/5x5
I1220 02:04:46.530493 27931 net.cpp:120] Top shape: 50 128 7 7 (313600)
I1220 02:04:46.530519 27931 layer_factory.hpp:74] Creating layer inception_5a/relu_5x5
I1220 02:04:46.530529 27931 net.cpp:84] Creating Layer inception_5a/relu_5x5
I1220 02:04:46.530535 27931 net.cpp:380] inception_5a/relu_5x5 <- inception_5a/5x5
I1220 02:04:46.530544 27931 net.cpp:327] inception_5a/relu_5x5 -> inception_5a/5x5 (in-place)
I1220 02:04:46.530551 27931 net.cpp:113] Setting up inception_5a/relu_5x5
I1220 02:04:46.530623 27931 net.cpp:120] Top shape: 50 128 7 7 (313600)
I1220 02:04:46.530630 27931 layer_factory.hpp:74] Creating layer inception_5a/pool
I1220 02:04:46.530637 27931 layer_factory.cpp:56] CUDNN does not support padding or multiple tops. Using Caffe's own pooling layer.
I1220 02:04:46.530643 27931 net.cpp:84] Creating Layer inception_5a/pool
I1220 02:04:46.530650 27931 net.cpp:380] inception_5a/pool <- pool4/3x3_s2_pool4/3x3_s2_0_split_3
I1220 02:04:46.530658 27931 net.cpp:338] inception_5a/pool -> inception_5a/pool
I1220 02:04:46.530690 27931 net.cpp:113] Setting up inception_5a/pool
I1220 02:04:46.530702 27931 net.cpp:120] Top shape: 50 832 7 7 (2038400)
I1220 02:04:46.530707 27931 layer_factory.hpp:74] Creating layer inception_5a/pool_proj
I1220 02:04:46.530716 27931 net.cpp:84] Creating Layer inception_5a/pool_proj
I1220 02:04:46.530721 27931 net.cpp:380] inception_5a/pool_proj <- inception_5a/pool
I1220 02:04:46.530731 27931 net.cpp:338] inception_5a/pool_proj -> inception_5a/pool_proj
I1220 02:04:46.530740 27931 net.cpp:113] Setting up inception_5a/pool_proj
I1220 02:04:46.532373 27931 net.cpp:120] Top shape: 50 128 7 7 (313600)
I1220 02:04:46.532395 27931 layer_factory.hpp:74] Creating layer inception_5a/relu_pool_proj
I1220 02:04:46.532405 27931 net.cpp:84] Creating Layer inception_5a/relu_pool_proj
I1220 02:04:46.532412 27931 net.cpp:380] inception_5a/relu_pool_proj <- inception_5a/pool_proj
I1220 02:04:46.532418 27931 net.cpp:327] inception_5a/relu_pool_proj -> inception_5a/pool_proj (in-place)
I1220 02:04:46.532426 27931 net.cpp:113] Setting up inception_5a/relu_pool_proj
I1220 02:04:46.532496 27931 net.cpp:120] Top shape: 50 128 7 7 (313600)
I1220 02:04:46.532503 27931 layer_factory.hpp:74] Creating layer inception_5a/output
I1220 02:04:46.532513 27931 net.cpp:84] Creating Layer inception_5a/output
I1220 02:04:46.532518 27931 net.cpp:380] inception_5a/output <- inception_5a/1x1
I1220 02:04:46.532526 27931 net.cpp:380] inception_5a/output <- inception_5a/3x3
I1220 02:04:46.532532 27931 net.cpp:380] inception_5a/output <- inception_5a/5x5
I1220 02:04:46.532537 27931 net.cpp:380] inception_5a/output <- inception_5a/pool_proj
I1220 02:04:46.532543 27931 net.cpp:338] inception_5a/output -> inception_5a/output
I1220 02:04:46.532552 27931 net.cpp:113] Setting up inception_5a/output
I1220 02:04:46.532559 27931 net.cpp:120] Top shape: 50 832 7 7 (2038400)
I1220 02:04:46.532564 27931 layer_factory.hpp:74] Creating layer inception_5a/output_inception_5a/output_0_split
I1220 02:04:46.532574 27931 net.cpp:84] Creating Layer inception_5a/output_inception_5a/output_0_split
I1220 02:04:46.532579 27931 net.cpp:380] inception_5a/output_inception_5a/output_0_split <- inception_5a/output
I1220 02:04:46.532585 27931 net.cpp:338] inception_5a/output_inception_5a/output_0_split -> inception_5a/output_inception_5a/output_0_split_0
I1220 02:04:46.532593 27931 net.cpp:338] inception_5a/output_inception_5a/output_0_split -> inception_5a/output_inception_5a/output_0_split_1
I1220 02:04:46.532601 27931 net.cpp:338] inception_5a/output_inception_5a/output_0_split -> inception_5a/output_inception_5a/output_0_split_2
I1220 02:04:46.532608 27931 net.cpp:338] inception_5a/output_inception_5a/output_0_split -> inception_5a/output_inception_5a/output_0_split_3
I1220 02:04:46.532614 27931 net.cpp:113] Setting up inception_5a/output_inception_5a/output_0_split
I1220 02:04:46.532621 27931 net.cpp:120] Top shape: 50 832 7 7 (2038400)
I1220 02:04:46.532626 27931 net.cpp:120] Top shape: 50 832 7 7 (2038400)
I1220 02:04:46.532631 27931 net.cpp:120] Top shape: 50 832 7 7 (2038400)
I1220 02:04:46.532636 27931 net.cpp:120] Top shape: 50 832 7 7 (2038400)
I1220 02:04:46.532640 27931 layer_factory.hpp:74] Creating layer inception_5b/1x1
I1220 02:04:46.532651 27931 net.cpp:84] Creating Layer inception_5b/1x1
I1220 02:04:46.532656 27931 net.cpp:380] inception_5b/1x1 <- inception_5a/output_inception_5a/output_0_split_0
I1220 02:04:46.532665 27931 net.cpp:338] inception_5b/1x1 -> inception_5b/1x1
I1220 02:04:46.532673 27931 net.cpp:113] Setting up inception_5b/1x1
I1220 02:04:46.536742 27931 net.cpp:120] Top shape: 50 384 7 7 (940800)
I1220 02:04:46.536780 27931 layer_factory.hpp:74] Creating layer inception_5b/relu_1x1
I1220 02:04:46.536792 27931 net.cpp:84] Creating Layer inception_5b/relu_1x1
I1220 02:04:46.536799 27931 net.cpp:380] inception_5b/relu_1x1 <- inception_5b/1x1
I1220 02:04:46.536808 27931 net.cpp:327] inception_5b/relu_1x1 -> inception_5b/1x1 (in-place)
I1220 02:04:46.536820 27931 net.cpp:113] Setting up inception_5b/relu_1x1
I1220 02:04:46.536911 27931 net.cpp:120] Top shape: 50 384 7 7 (940800)
I1220 02:04:46.536929 27931 layer_factory.hpp:74] Creating layer inception_5b/3x3_reduce
I1220 02:04:46.536942 27931 net.cpp:84] Creating Layer inception_5b/3x3_reduce
I1220 02:04:46.536947 27931 net.cpp:380] inception_5b/3x3_reduce <- inception_5a/output_inception_5a/output_0_split_1
I1220 02:04:46.536957 27931 net.cpp:338] inception_5b/3x3_reduce -> inception_5b/3x3_reduce
I1220 02:04:46.536967 27931 net.cpp:113] Setting up inception_5b/3x3_reduce
I1220 02:04:46.539217 27931 net.cpp:120] Top shape: 50 192 7 7 (470400)
I1220 02:04:46.539239 27931 layer_factory.hpp:74] Creating layer inception_5b/relu_3x3_reduce
I1220 02:04:46.539249 27931 net.cpp:84] Creating Layer inception_5b/relu_3x3_reduce
I1220 02:04:46.539257 27931 net.cpp:380] inception_5b/relu_3x3_reduce <- inception_5b/3x3_reduce
I1220 02:04:46.539263 27931 net.cpp:327] inception_5b/relu_3x3_reduce -> inception_5b/3x3_reduce (in-place)
I1220 02:04:46.539271 27931 net.cpp:113] Setting up inception_5b/relu_3x3_reduce
I1220 02:04:46.539538 27931 net.cpp:120] Top shape: 50 192 7 7 (470400)
I1220 02:04:46.539551 27931 layer_factory.hpp:74] Creating layer inception_5b/3x3
I1220 02:04:46.539564 27931 net.cpp:84] Creating Layer inception_5b/3x3
I1220 02:04:46.539572 27931 net.cpp:380] inception_5b/3x3 <- inception_5b/3x3_reduce
I1220 02:04:46.539580 27931 net.cpp:338] inception_5b/3x3 -> inception_5b/3x3
I1220 02:04:46.539589 27931 net.cpp:113] Setting up inception_5b/3x3
I1220 02:04:46.579221 27931 net.cpp:120] Top shape: 50 384 7 7 (940800)
I1220 02:04:46.579298 27931 layer_factory.hpp:74] Creating layer inception_5b/relu_3x3
I1220 02:04:46.579318 27931 net.cpp:84] Creating Layer inception_5b/relu_3x3
I1220 02:04:46.579335 27931 net.cpp:380] inception_5b/relu_3x3 <- inception_5b/3x3
I1220 02:04:46.579352 27931 net.cpp:327] inception_5b/relu_3x3 -> inception_5b/3x3 (in-place)
I1220 02:04:46.579368 27931 net.cpp:113] Setting up inception_5b/relu_3x3
I1220 02:04:46.579468 27931 net.cpp:120] Top shape: 50 384 7 7 (940800)
I1220 02:04:46.579481 27931 layer_factory.hpp:74] Creating layer inception_5b/5x5_reduce
I1220 02:04:46.579501 27931 net.cpp:84] Creating Layer inception_5b/5x5_reduce
I1220 02:04:46.579512 27931 net.cpp:380] inception_5b/5x5_reduce <- inception_5a/output_inception_5a/output_0_split_2
I1220 02:04:46.579526 27931 net.cpp:338] inception_5b/5x5_reduce -> inception_5b/5x5_reduce
I1220 02:04:46.579542 27931 net.cpp:113] Setting up inception_5b/5x5_reduce
I1220 02:04:46.597148 27931 net.cpp:120] Top shape: 50 48 7 7 (117600)
I1220 02:04:46.597213 27931 layer_factory.hpp:74] Creating layer inception_5b/relu_5x5_reduce
I1220 02:04:46.597230 27931 net.cpp:84] Creating Layer inception_5b/relu_5x5_reduce
I1220 02:04:46.597241 27931 net.cpp:380] inception_5b/relu_5x5_reduce <- inception_5b/5x5_reduce
I1220 02:04:46.597252 27931 net.cpp:327] inception_5b/relu_5x5_reduce -> inception_5b/5x5_reduce (in-place)
I1220 02:04:46.597266 27931 net.cpp:113] Setting up inception_5b/relu_5x5_reduce
I1220 02:04:46.597342 27931 net.cpp:120] Top shape: 50 48 7 7 (117600)
I1220 02:04:46.597348 27931 layer_factory.hpp:74] Creating layer inception_5b/5x5
I1220 02:04:46.597362 27931 net.cpp:84] Creating Layer inception_5b/5x5
I1220 02:04:46.597368 27931 net.cpp:380] inception_5b/5x5 <- inception_5b/5x5_reduce
I1220 02:04:46.597378 27931 net.cpp:338] inception_5b/5x5 -> inception_5b/5x5
I1220 02:04:46.597389 27931 net.cpp:113] Setting up inception_5b/5x5
I1220 02:04:46.606323 27931 net.cpp:120] Top shape: 50 128 7 7 (313600)
I1220 02:04:46.606374 27931 layer_factory.hpp:74] Creating layer inception_5b/relu_5x5
I1220 02:04:46.606389 27931 net.cpp:84] Creating Layer inception_5b/relu_5x5
I1220 02:04:46.606400 27931 net.cpp:380] inception_5b/relu_5x5 <- inception_5b/5x5
I1220 02:04:46.606413 27931 net.cpp:327] inception_5b/relu_5x5 -> inception_5b/5x5 (in-place)
I1220 02:04:46.606426 27931 net.cpp:113] Setting up inception_5b/relu_5x5
I1220 02:04:46.606876 27931 net.cpp:120] Top shape: 50 128 7 7 (313600)
I1220 02:04:46.606904 27931 layer_factory.hpp:74] Creating layer inception_5b/pool
I1220 02:04:46.606921 27931 layer_factory.cpp:56] CUDNN does not support padding or multiple tops. Using Caffe's own pooling layer.
I1220 02:04:46.606930 27931 net.cpp:84] Creating Layer inception_5b/pool
I1220 02:04:46.606937 27931 net.cpp:380] inception_5b/pool <- inception_5a/output_inception_5a/output_0_split_3
I1220 02:04:46.606946 27931 net.cpp:338] inception_5b/pool -> inception_5b/pool
I1220 02:04:46.606957 27931 net.cpp:113] Setting up inception_5b/pool
I1220 02:04:46.606968 27931 net.cpp:120] Top shape: 50 832 7 7 (2038400)
I1220 02:04:46.606972 27931 layer_factory.hpp:74] Creating layer inception_5b/pool_proj
I1220 02:04:46.606984 27931 net.cpp:84] Creating Layer inception_5b/pool_proj
I1220 02:04:46.606989 27931 net.cpp:380] inception_5b/pool_proj <- inception_5b/pool
I1220 02:04:46.606998 27931 net.cpp:338] inception_5b/pool_proj -> inception_5b/pool_proj
I1220 02:04:46.607008 27931 net.cpp:113] Setting up inception_5b/pool_proj
I1220 02:04:46.609328 27931 net.cpp:120] Top shape: 50 128 7 7 (313600)
I1220 02:04:46.609355 27931 layer_factory.hpp:74] Creating layer inception_5b/relu_pool_proj
I1220 02:04:46.609367 27931 net.cpp:84] Creating Layer inception_5b/relu_pool_proj
I1220 02:04:46.609375 27931 net.cpp:380] inception_5b/relu_pool_proj <- inception_5b/pool_proj
I1220 02:04:46.609381 27931 net.cpp:327] inception_5b/relu_pool_proj -> inception_5b/pool_proj (in-place)
I1220 02:04:46.609390 27931 net.cpp:113] Setting up inception_5b/relu_pool_proj
I1220 02:04:46.609469 27931 net.cpp:120] Top shape: 50 128 7 7 (313600)
I1220 02:04:46.609478 27931 layer_factory.hpp:74] Creating layer inception_5b/output
I1220 02:04:46.609486 27931 net.cpp:84] Creating Layer inception_5b/output
I1220 02:04:46.609493 27931 net.cpp:380] inception_5b/output <- inception_5b/1x1
I1220 02:04:46.609499 27931 net.cpp:380] inception_5b/output <- inception_5b/3x3
I1220 02:04:46.609505 27931 net.cpp:380] inception_5b/output <- inception_5b/5x5
I1220 02:04:46.609510 27931 net.cpp:380] inception_5b/output <- inception_5b/pool_proj
I1220 02:04:46.609518 27931 net.cpp:338] inception_5b/output -> inception_5b/output
I1220 02:04:46.609525 27931 net.cpp:113] Setting up inception_5b/output
I1220 02:04:46.609534 27931 net.cpp:120] Top shape: 50 1024 7 7 (2508800)
I1220 02:04:46.609539 27931 layer_factory.hpp:74] Creating layer pool5/7x7_s1
I1220 02:04:46.609546 27931 net.cpp:84] Creating Layer pool5/7x7_s1
I1220 02:04:46.609551 27931 net.cpp:380] pool5/7x7_s1 <- inception_5b/output
I1220 02:04:46.609560 27931 net.cpp:338] pool5/7x7_s1 -> pool5/7x7_s1
I1220 02:04:46.609568 27931 net.cpp:113] Setting up pool5/7x7_s1
I1220 02:04:46.609643 27931 net.cpp:120] Top shape: 50 1024 1 1 (51200)
I1220 02:04:46.609650 27931 layer_factory.hpp:74] Creating layer pool5/drop_7x7_s1
I1220 02:04:46.609658 27931 net.cpp:84] Creating Layer pool5/drop_7x7_s1
I1220 02:04:46.609663 27931 net.cpp:380] pool5/drop_7x7_s1 <- pool5/7x7_s1
I1220 02:04:46.609670 27931 net.cpp:327] pool5/drop_7x7_s1 -> pool5/7x7_s1 (in-place)
I1220 02:04:46.609678 27931 net.cpp:113] Setting up pool5/drop_7x7_s1
I1220 02:04:46.609684 27931 net.cpp:120] Top shape: 50 1024 1 1 (51200)
I1220 02:04:46.609689 27931 layer_factory.hpp:74] Creating layer loss3/classifier_kaggle
I1220 02:04:46.609700 27931 net.cpp:84] Creating Layer loss3/classifier_kaggle
I1220 02:04:46.609705 27931 net.cpp:380] loss3/classifier_kaggle <- pool5/7x7_s1
I1220 02:04:46.609715 27931 net.cpp:338] loss3/classifier_kaggle -> loss3/classifier_kaggle
I1220 02:04:46.609724 27931 net.cpp:113] Setting up loss3/classifier_kaggle
I1220 02:04:46.616770 27931 net.cpp:120] Top shape: 50 447 (22350)
I1220 02:04:46.616827 27931 layer_factory.hpp:74] Creating layer loss3/classifier_kaggle_loss3/classifier_kaggle_0_split
I1220 02:04:46.616844 27931 net.cpp:84] Creating Layer loss3/classifier_kaggle_loss3/classifier_kaggle_0_split
I1220 02:04:46.616866 27931 net.cpp:380] loss3/classifier_kaggle_loss3/classifier_kaggle_0_split <- loss3/classifier_kaggle
I1220 02:04:46.616894 27931 net.cpp:338] loss3/classifier_kaggle_loss3/classifier_kaggle_0_split -> loss3/classifier_kaggle_loss3/classifier_kaggle_0_split_0
I1220 02:04:46.616920 27931 net.cpp:338] loss3/classifier_kaggle_loss3/classifier_kaggle_0_split -> loss3/classifier_kaggle_loss3/classifier_kaggle_0_split_1
I1220 02:04:46.616930 27931 net.cpp:338] loss3/classifier_kaggle_loss3/classifier_kaggle_0_split -> loss3/classifier_kaggle_loss3/classifier_kaggle_0_split_2
I1220 02:04:46.616937 27931 net.cpp:113] Setting up loss3/classifier_kaggle_loss3/classifier_kaggle_0_split
I1220 02:04:46.616945 27931 net.cpp:120] Top shape: 50 447 (22350)
I1220 02:04:46.616950 27931 net.cpp:120] Top shape: 50 447 (22350)
I1220 02:04:46.616955 27931 net.cpp:120] Top shape: 50 447 (22350)
I1220 02:04:46.616960 27931 layer_factory.hpp:74] Creating layer loss3/loss3
I1220 02:04:46.616967 27931 net.cpp:84] Creating Layer loss3/loss3
I1220 02:04:46.616971 27931 net.cpp:380] loss3/loss3 <- loss3/classifier_kaggle_loss3/classifier_kaggle_0_split_0
I1220 02:04:46.616981 27931 net.cpp:380] loss3/loss3 <- label_data_1_split_6
I1220 02:04:46.616991 27931 net.cpp:338] loss3/loss3 -> loss3/loss3
…
