…
I1219 15:02:21.050091 16918 net.cpp:257] The NetState phase (0) differed from the phase (1) specified by a rule in layer loss3/top-5
I1219 15:02:21.052588 16918 net.cpp:42] Initializing net from parameters: 
name: "MYNET"
state {
  phase: TRAIN
}
layer {
  name: "data"
  type: "ImageData"
  top: "data"
  top: "label"
  include {
    phase: TRAIN
  }
  transform_param {
    mirror: false
    crop_size: 224
    mean_value: 129
    mean_value: 129
    mean_value: 129
  }
  image_data_param {
    source: "/home/coldmanck/kaggle/label_train_full.txt"
    batch_size: 80
    shuffle: true
  }
}
layer {
  name: "conv1/7x7_s2"
  type: "Convolution"
  bottom: "data"
  top: "conv1/7x7_s2"
  param {
    lr_mult: 1
    decay_mult: 1
  }
  param {
    lr_mult: 2
    decay_mult: 0
  }
  convolution_param {
    num_output: 64
    pad: 3
    kernel_size: 7
    stride: 2
    weight_filler {
      type: "xavier"
    }
    bias_filler {
      type: "constant"
      value: 0.2
    }
  }
}
layer {
  name: "conv1/relu_7x7"
  type: "ReLU"
  bottom: "conv1/7x7_s2"
  top: "conv1/7x7_s2"
}
layer {
  name: "pool1/3x3_s2"
  type: "Pooling"
  bottom: "conv1/7x7_s2"
  top: "pool1/3x3_s2"
  pooling_param {
    pool: MAX
    kernel_size: 3
    stride: 2
  }
}
layer {
  name: "pool1/norm1"
  type: "LRN"
  bottom: "pool1/3x3_s2"
  top: "pool1/norm1"
  lrn_param {
    local_size: 5
    alpha: 0.0001
    beta: 0.75
  }
}
layer {
  name: "conv2/3x3_reduce"
  type: "Convolution"
  bottom: "pool1/norm1"
  top: "conv2/3x3_reduce"
  param {
    lr_mult: 1
    decay_mult: 1
  }
  param {
    lr_mult: 2
    decay_mult: 0
  }
  convolution_param {
    num_output: 64
    kernel_size: 1
    weight_filler {
      type: "xavier"
    }
    bias_filler {
      type: "constant"
      value: 0.2
    }
  }
}
layer {
  name: "conv2/relu_3x3_reduce"
  type: "ReLU"
  bottom: "conv2/3x3_reduce"
  top: "conv2/3x3_reduce"
}
layer {
  name: "conv2/3x3"
  type: "Convolution"
  bottom: "conv2/3x3_reduce"
  top: "conv2/3x3"
  param {
    lr_mult: 1
    decay_mult: 1
  }
  param {
    lr_mult: 2
    decay_mult: 0
  }
  convolution_param {
    num_output: 192
    pad: 1
    kernel_size: 3
    weight_filler {
      type: "xavier"
    }
    bias_filler {
      type: "constant"
      value: 0.2
    }
  }
}
layer {
  name: "conv2/relu_3x3"
  type: "ReLU"
  bottom: "conv2/3x3"
  top: "conv2/3x3"
}
layer {
  name: "conv2/norm2"
  type: "LRN"
  bottom: "conv2/3x3"
  top: "conv2/norm2"
  lrn_param {
    local_size: 5
    alpha: 0.0001
    beta: 0.75
  }
}
layer {
  name: "pool2/3x3_s2"
  type: "Pooling"
  bottom: "conv2/norm2"
  top: "pool2/3x3_s2"
  pooling_param {
    pool: MAX
    kernel_size: 3
    stride: 2
  }
}
layer {
  name: "inception_3a/1x1"
  type: "Convolution"
  bottom: "pool2/3x3_s2"
  top: "inception_3a/1x1"
  param {
    lr_mult: 1
    decay_mult: 1
  }
  param {
    lr_mult: 2
    decay_mult: 0
  }
  convolution_param {
    num_output: 64
    kernel_size: 1
    weight_filler {
      type: "xavier"
    }
    bias_filler {
      type: "constant"
      value: 0.2
    }
  }
}
layer {
  name: "inception_3a/relu_1x1"
  type: "ReLU"
  bottom: "inception_3a/1x1"
  top: "inception_3a/1x1"
}
layer {
  name: "inception_3a/3x3_reduce"
  type: "Convolution"
  bottom: "pool2/3x3_s2"
  top: "inception_3a/3x3_reduce"
  param {
    lr_mult: 1
    decay_mult: 1
  }
  param {
    lr_mult: 2
    decay_mult: 0
  }
  convolution_param {
    num_output: 96
    kernel_size: 1
    weight_filler {
      type: "xavier"
    }
    bias_filler {
      type: "constant"
      value: 0.2
    }
  }
}
layer {
  name: "inception_3a/relu_3x3_reduce"
  type: "ReLU"
  bottom: "inception_3a/3x3_reduce"
  top: "inception_3a/3x3_reduce"
}
layer {
  name: "inception_3a/3x3"
  type: "Convolution"
  bottom: "inception_3a/3x3_reduce"
  top: "inception_3a/3x3"
  param {
    lr_mult: 1
    decay_mult: 1
  }
  param {
    lr_mult: 2
    decay_mult: 0
  }
  convolution_param {
    num_output: 128
    pad: 1
    kernel_size: 3
    weight_filler {
      type: "xavier"
    }
    bias_filler {
      type: "constant"
      value: 0.2
    }
  }
}
layer {
  name: "inception_3a/relu_3x3"
  type: "ReLU"
  bottom: "inception_3a/3x3"
  top: "inception_3a/3x3"
}
layer {
  name: "inception_3a/5x5_reduce"
  type: "Convolution"
  bottom: "pool2/3x3_s2"
  top: "inception_3a/5x5_reduce"
  param {
    lr_mult: 1
    decay_mult: 1
  }
  param {
    lr_mult: 2
    decay_mult: 0
  }
  convolution_param {
    num_output: 16
    kernel_size: 1
    weight_filler {
      type: "xavier"
    }
    bias_filler {
      type: "constant"
      value: 0.2
    }
  }
}
layer {
  name: "inception_3a/relu_5x5_reduce"
  type: "ReLU"
  bottom: "inception_3a/5x5_reduce"
  top: "inception_3a/5x5_reduce"
}
layer {
  name: "inception_3a/5x5"
  type: "Convolution"
  bottom: "inception_3a/5x5_reduce"
  top: "inception_3a/5x5"
  param {
    lr_mult: 1
    decay_mult: 1
  }
  param {
    lr_mult: 2
    decay_mult: 0
  }
  convolution_param {
    num_output: 32
    pad: 2
    kernel_size: 5
    weight_filler {
      type: "xavier"
    }
    bias_filler {
      type: "constant"
      value: 0.2
    }
  }
}
layer {
  name: "inception_3a/relu_5x5"
  type: "ReLU"
  bottom: "inception_3a/5x5"
  top: "inception_3a/5x5"
}
layer {
  name: "inception_3a/pool"
  type: "Pooling"
  bottom: "pool2/3x3_s2"
  top: "inception_3a/pool"
  pooling_param {
    pool: MAX
    kernel_size: 3
    stride: 1
    pad: 1
  }
}
layer {
  name: "inception_3a/pool_proj"
  type: "Convolution"
  bottom: "inception_3a/pool"
  top: "inception_3a/pool_proj"
  param {
    lr_mult: 1
    decay_mult: 1
  }
  param {
    lr_mult: 2
    decay_mult: 0
  }
  convolution_param {
    num_output: 32
    kernel_size: 1
    weight_filler {
      type: "xavier"
    }
    bias_filler {
      type: "constant"
      value: 0.2
    }
  }
}
layer {
  name: "inception_3a/relu_pool_proj"
  type: "ReLU"
  bottom: "inception_3a/pool_proj"
  top: "inception_3a/pool_proj"
}
layer {
  name: "inception_3a/output"
  type: "Concat"
  bottom: "inception_3a/1x1"
  bottom: "inception_3a/3x3"
  bottom: "inception_3a/5x5"
  bottom: "inception_3a/pool_proj"
  top: "inception_3a/output"
}
layer {
  name: "inception_3b/1x1"
  type: "Convolution"
  bottom: "inception_3a/output"
  top: "inception_3b/1x1"
  param {
    lr_mult: 1
    decay_mult: 1
  }
  param {
    lr_mult: 2
    decay_mult: 0
  }
  convolution_param {
    num_output: 128
    kernel_size: 1
    weight_filler {
      type: "xavier"
    }
    bias_filler {
      type: "constant"
      value: 0.2
    }
  }
}
layer {
  name: "inception_3b/relu_1x1"
  type: "ReLU"
  bottom: "inception_3b/1x1"
  top: "inception_3b/1x1"
}
layer {
  name: "inception_3b/3x3_reduce"
  type: "Convolution"
  bottom: "inception_3a/output"
  top: "inception_3b/3x3_reduce"
  param {
    lr_mult: 1
    decay_mult: 1
  }
  param {
    lr_mult: 2
    decay_mult: 0
  }
  convolution_param {
    num_output: 128
    kernel_size: 1
    weight_filler {
      type: "xavier"
    }
    bias_filler {
      type: "constant"
      value: 0.2
    }
  }
}
layer {
  name: "inception_3b/relu_3x3_reduce"
  type: "ReLU"
  bottom: "inception_3b/3x3_reduce"
  top: "inception_3b/3x3_reduce"
}
layer {
  name: "inception_3b/3x3"
  type: "Convolution"
  bottom: "inception_3b/3x3_reduce"
  top: "inception_3b/3x3"
  param {
    lr_mult: 1
    decay_mult: 1
  }
  param {
    lr_mult: 2
    decay_mult: 0
  }
  convolution_param {
    num_output: 192
    pad: 1
    kernel_size: 3
    weight_filler {
      type: "xavier"
    }
    bias_filler {
      type: "constant"
      value: 0.2
    }
  }
}
layer {
  name: "inception_3b/relu_3x3"
  type: "ReLU"
  bottom: "inception_3b/3x3"
  top: "inception_3b/3x3"
}
layer {
  name: "inception_3b/5x5_reduce"
  type: "Convolution"
  bottom: "inception_3a/output"
  top: "inception_3b/5x5_reduce"
  param {
    lr_mult: 1
    decay_mult: 1
  }
  param {
    lr_mult: 2
    decay_mult: 0
  }
  convolution_param {
    num_output: 32
    kernel_size: 1
    weight_filler {
      type: "xavier"
    }
    bias_filler {
      type: "constant"
      value: 0.2
    }
  }
}
layer {
  name: "inception_3b/relu_5x5_reduce"
  type: "ReLU"
  bottom: "inception_3b/5x5_reduce"
  top: "inception_3b/5x5_reduce"
}
layer {
  name: "inception_3b/5x5"
  type: "Convolution"
  bottom: "inception_3b/5x5_reduce"
  top: "inception_3b/5x5"
  param {
    lr_mult: 1
    decay_mult: 1
  }
  param {
    lr_mult: 2
    decay_mult: 0
  }
  convolution_param {
    num_output: 96
    pad: 2
    kernel_size: 5
    weight_filler {
      type: "xavier"
    }
    bias_filler {
      type: "constant"
      value: 0.2
    }
  }
}
layer {
  name: "inception_3b/relu_5x5"
  type: "ReLU"
  bottom: "inception_3b/5x5"
  top: "inception_3b/5x5"
}
layer {
  name: "inception_3b/pool"
  type: "Pooling"
  bottom: "inception_3a/output"
  top: "inception_3b/pool"
  pooling_param {
    pool: MAX
    kernel_size: 3
    stride: 1
    pad: 1
  }
}
layer {
  name: "inception_3b/pool_proj"
  type: "Convolution"
  bottom: "inception_3b/pool"
  top: "inception_3b/pool_proj"
  param {
    lr_mult: 1
    decay_mult: 1
  }
  param {
    lr_mult: 2
    decay_mult: 0
  }
  convolution_param {
    num_output: 64
    kernel_size: 1
    weight_filler {
      type: "xavier"
    }
    bias_filler {
      type: "constant"
      value: 0.2
    }
  }
}
layer {
  name: "inception_3b/relu_pool_proj"
  type: "ReLU"
  bottom: "inception_3b/pool_proj"
  top: "inception_3b/pool_proj"
}
layer {
  name: "inception_3b/output"
  type: "Concat"
  bottom: "inception_3b/1x1"
  bottom: "inception_3b/3x3"
  bottom: "inception_3b/5x5"
  bottom: "inception_3b/pool_proj"
  top: "inception_3b/output"
}
layer {
  name: "pool3/3x3_s2"
  type: "Pooling"
  bottom: "inception_3b/output"
  top: "pool3/3x3_s2"
  pooling_param {
    pool: MAX
    kernel_size: 3
    stride: 2
  }
}
layer {
  name: "inception_4a/1x1"
  type: "Convolution"
  bottom: "pool3/3x3_s2"
  top: "inception_4a/1x1"
  param {
    lr_mult: 1
    decay_mult: 1
  }
  param {
    lr_mult: 2
    decay_mult: 0
  }
  convolution_param {
    num_output: 192
    kernel_size: 1
    weight_filler {
      type: "xavier"
    }
    bias_filler {
      type: "constant"
      value: 0.2
    }
  }
}
layer {
  name: "inception_4a/relu_1x1"
  type: "ReLU"
  bottom: "inception_4a/1x1"
  top: "inception_4a/1x1"
}
layer {
  name: "inception_4a/3x3_reduce"
  type: "Convolution"
  bottom: "pool3/3x3_s2"
  top: "inception_4a/3x3_reduce"
  param {
    lr_mult: 1
    decay_mult: 1
  }
  param {
    lr_mult: 2
    decay_mult: 0
  }
  convolution_param {
    num_output: 96
    kernel_size: 1
    weight_filler {
      type: "xavier"
    }
    bias_filler {
      type: "constant"
      value: 0.2
    }
  }
}
layer {
  name: "inception_4a/relu_3x3_reduce"
  type: "ReLU"
  bottom: "inception_4a/3x3_reduce"
  top: "inception_4a/3x3_reduce"
}
layer {
  name: "inception_4a/3x3"
  type: "Convolution"
  bottom: "inception_4a/3x3_reduce"
  top: "inception_4a/3x3"
  param {
    lr_mult: 1
    decay_mult: 1
  }
  param {
    lr_mult: 2
    decay_mult: 0
  }
  convolution_param {
    num_output: 208
    pad: 1
    kernel_size: 3
    weight_filler {
      type: "xavier"
    }
    bias_filler {
      type: "constant"
      value: 0.2
    }
  }
}
layer {
  name: "inception_4a/relu_3x3"
  type: "ReLU"
  bottom: "inception_4a/3x3"
  top: "inception_4a/3x3"
}
layer {
  name: "inception_4a/5x5_reduce"
  type: "Convolution"
  bottom: "pool3/3x3_s2"
  top: "inception_4a/5x5_reduce"
  param {
    lr_mult: 1
    decay_mult: 1
  }
  param {
    lr_mult: 2
    decay_mult: 0
  }
  convolution_param {
    num_output: 16
    kernel_size: 1
    weight_filler {
      type: "xavier"
    }
    bias_filler {
      type: "constant"
      value: 0.2
    }
  }
}
layer {
  name: "inception_4a/relu_5x5_reduce"
  type: "ReLU"
  bottom: "inception_4a/5x5_reduce"
  top: "inception_4a/5x5_reduce"
}
layer {
  name: "inception_4a/5x5"
  type: "Convolution"
  bottom: "inception_4a/5x5_reduce"
  top: "inception_4a/5x5"
  param {
    lr_mult: 1
    decay_mult: 1
  }
  param {
    lr_mult: 2
    decay_mult: 0
  }
  convolution_param {
    num_output: 48
    pad: 2
    kernel_size: 5
    weight_filler {
      type: "xavier"
    }
    bias_filler {
      type: "constant"
      value: 0.2
    }
  }
}
layer {
  name: "inception_4a/relu_5x5"
  type: "ReLU"
  bottom: "inception_4a/5x5"
  top: "inception_4a/5x5"
}
layer {
  name: "inception_4a/pool"
  type: "Pooling"
  bottom: "pool3/3x3_s2"
  top: "inception_4a/pool"
  pooling_param {
    pool: MAX
    kernel_size: 3
    stride: 1
    pad: 1
  }
}
layer {
  name: "inception_4a/pool_proj"
  type: "Convolution"
  bottom: "inception_4a/pool"
  top: "inception_4a/pool_proj"
  param {
    lr_mult: 1
    decay_mult: 1
  }
  param {
    lr_mult: 2
    decay_mult: 0
  }
  convolution_param {
    num_output: 64
    kernel_size: 1
    weight_filler {
      type: "xavier"
    }
    bias_filler {
      type: "constant"
      value: 0.2
    }
  }
}
layer {
  name: "inception_4a/relu_pool_proj"
  type: "ReLU"
  bottom: "inception_4a/pool_proj"
  top: "inception_4a/pool_proj"
}
layer {
  name: "inception_4a/output"
  type: "Concat"
  bottom: "inception_4a/1x1"
  bottom: "inception_4a/3x3"
  bottom: "inception_4a/5x5"
  bottom: "inception_4a/pool_proj"
  top: "inception_4a/output"
}
layer {
  name: "loss1/ave_pool"
  type: "Pooling"
  bottom: "inception_4a/output"
  top: "loss1/ave_pool"
  pooling_param {
    pool: AVE
    kernel_size: 5
    stride: 3
  }
}
layer {
  name: "loss1/conv"
  type: "Convolution"
  bottom: "loss1/ave_pool"
  top: "loss1/conv"
  param {
    lr_mult: 1
    decay_mult: 1
  }
  param {
    lr_mult: 2
    decay_mult: 0
  }
  convolution_param {
    num_output: 128
    kernel_size: 1
    weight_filler {
      type: "xavier"
    }
    bias_filler {
      type: "constant"
      value: 0.2
    }
  }
}
layer {
  name: "loss1/relu_conv"
  type: "ReLU"
  bottom: "loss1/conv"
  top: "loss1/conv"
}
layer {
  name: "loss1/fc"
  type: "InnerProduct"
  bottom: "loss1/conv"
  top: "loss1/fc"
  param {
    lr_mult: 1
    decay_mult: 1
  }
  param {
    lr_mult: 2
    decay_mult: 0
  }
  inner_product_param {
    num_output: 1024
    weight_filler {
      type: "xavier"
    }
    bias_filler {
      type: "constant"
      value: 0.2
    }
  }
}
layer {
  name: "loss1/relu_fc"
  type: "ReLU"
  bottom: "loss1/fc"
  top: "loss1/fc"
}
layer {
  name: "loss1/drop_fc"
  type: "Dropout"
  bottom: "loss1/fc"
  top: "loss1/fc"
  dropout_param {
    dropout_ratio: 0.7
  }
}
layer {
  name: "loss1/classifier_kaggle"
  type: "InnerProduct"
  bottom: "loss1/fc"
  top: "loss1/classifier_kaggle"
  param {
    lr_mult: 1
    decay_mult: 1
  }
  param {
    lr_mult: 2
    decay_mult: 0
  }
  inner_product_param {
    num_output: 447
    weight_filler {
      type: "xavier"
    }
    bias_filler {
      type: "constant"
      value: 0
    }
  }
}
layer {
  name: "loss1/loss"
  type: "SoftmaxWithLoss"
  bottom: "loss1/classifier_kaggle"
  bottom: "label"
  top: "loss1/loss1"
  loss_weight: 0.3
}
layer {
  name: "inception_4b/1x1"
  type: "Convolution"
  bottom: "inception_4a/output"
  top: "inception_4b/1x1"
  param {
    lr_mult: 1
    decay_mult: 1
  }
  param {
    lr_mult: 2
    decay_mult: 0
  }
  convolution_param {
    num_output: 160
    kernel_size: 1
    weight_filler {
      type: "xavier"
    }
    bias_filler {
      type: "constant"
      value: 0.2
    }
  }
}
layer {
  name: "inception_4b/relu_1x1"
  type: "ReLU"
  bottom: "inception_4b/1x1"
  top: "inception_4b/1x1"
}
layer {
  name: "inception_4b/3x3_reduce"
  type: "Convolution"
  bottom: "inception_4a/output"
  top: "inception_4b/3x3_reduce"
  param {
    lr_mult: 1
    decay_mult: 1
  }
  param {
    lr_mult: 2
    decay_mult: 0
  }
  convolution_param {
    num_output: 112
    kernel_size: 1
    weight_filler {
      type: "xavier"
    }
    bias_filler {
      type: "constant"
      value: 0.2
    }
  }
}
layer {
  name: "inception_4b/relu_3x3_reduce"
  type: "ReLU"
  bottom: "inception_4b/3x3_reduce"
  top: "inception_4b/3x3_reduce"
}
layer {
  name: "inception_4b/3x3"
  type: "Convolution"
  bottom: "inception_4b/3x3_reduce"
  top: "inception_4b/3x3"
  param {
    lr_mult: 1
    decay_mult: 1
  }
  param {
    lr_mult: 2
    decay_mult: 0
  }
  convolution_param {
    num_output: 224
    pad: 1
    kernel_size: 3
    weight_filler {
      type: "xavier"
    }
    bias_filler {
      type: "constant"
      value: 0.2
    }
  }
}
layer {
  name: "inception_4b/relu_3x3"
  type: "ReLU"
  bottom: "inception_4b/3x3"
  top: "inception_4b/3x3"
}
layer {
  name: "inception_4b/5x5_reduce"
  type: "Convolution"
  bottom: "inception_4a/output"
  top: "inception_4b/5x5_reduce"
  param {
    lr_mult: 1
    decay_mult: 1
  }
  param {
    lr_mult: 2
    decay_mult: 0
  }
  convolution_param {
    num_output: 24
    kernel_size: 1
    weight_filler {
      type: "xavier"
    }
    bias_filler {
      type: "constant"
      value: 0.2
    }
  }
}
layer {
  name: "inception_4b/relu_5x5_reduce"
  type: "ReLU"
  bottom: "inception_4b/5x5_reduce"
  top: "inception_4b/5x5_reduce"
}
layer {
  name: "inception_4b/5x5"
  type: "Convolution"
  bottom: "inception_4b/5x5_reduce"
  top: "inception_4b/5x5"
  param {
    lr_mult: 1
    decay_mult: 1
  }
  param {
    lr_mult: 2
    decay_mult: 0
  }
  convolution_param {
    num_output: 64
    pad: 2
    kernel_size: 5
    weight_filler {
      type: "xavier"
    }
    bias_filler {
      type: "constant"
      value: 0.2
    }
  }
}
layer {
  name: "inception_4b/relu_5x5"
  type: "ReLU"
  bottom: "inception_4b/5x5"
  top: "inception_4b/5x5"
}
layer {
  name: "inception_4b/pool"
  type: "Pooling"
  bottom: "inception_4a/output"
  top: "inception_4b/pool"
  pooling_param {
    pool: MAX
    kernel_size: 3
    stride: 1
    pad: 1
  }
}
layer {
  name: "inception_4b/pool_proj"
  type: "Convolution"
  bottom: "inception_4b/pool"
  top: "inception_4b/pool_proj"
  param {
    lr_mult: 1
    decay_mult: 1
  }
  param {
    lr_mult: 2
    decay_mult: 0
  }
  convolution_param {
    num_output: 64
    kernel_size: 1
    weight_filler {
      type: "xavier"
    }
    bias_filler {
      type: "constant"
      value: 0.2
    }
  }
}
layer {
  name: "inception_4b/relu_pool_proj"
  type: "ReLU"
  bottom: "inception_4b/pool_proj"
  top: "inception_4b/pool_proj"
}
layer {
  name: "inception_4b/output"
  type: "Concat"
  bottom: "inception_4b/1x1"
  bottom: "inception_4b/3x3"
  bottom: "inception_4b/5x5"
  bottom: "inception_4b/pool_proj"
  top: "inception_4b/output"
}
layer {
  name: "inception_4c/1x1"
  type: "Convolution"
  bottom: "inception_4b/output"
  top: "inception_4c/1x1"
  param {
    lr_mult: 1
    decay_mult: 1
  }
  param {
    lr_mult: 2
    decay_mult: 0
  }
  convolution_param {
    num_output: 128
    kernel_size: 1
    weight_filler {
      type: "xavier"
    }
    bias_filler {
      type: "constant"
      value: 0.2
    }
  }
}
layer {
  name: "inception_4c/relu_1x1"
  type: "ReLU"
  bottom: "inception_4c/1x1"
  top: "inception_4c/1x1"
}
layer {
  name: "inception_4c/3x3_reduce"
  type: "Convolution"
  bottom: "inception_4b/output"
  top: "inception_4c/3x3_reduce"
  param {
    lr_mult: 1
    decay_mult: 1
  }
  param {
    lr_mult: 2
    decay_mult: 0
  }
  convolution_param {
    num_output: 128
    kernel_size: 1
    weight_filler {
      type: "xavier"
    }
    bias_filler {
      type: "constant"
      value: 0.2
    }
  }
}
layer {
  name: "inception_4c/relu_3x3_reduce"
  type: "ReLU"
  bottom: "inception_4c/3x3_reduce"
  top: "inception_4c/3x3_reduce"
}
layer {
  name: "inception_4c/3x3"
  type: "Convolution"
  bottom: "inception_4c/3x3_reduce"
  top: "inception_4c/3x3"
  param {
    lr_mult: 1
    decay_mult: 1
  }
  param {
    lr_mult: 2
    decay_mult: 0
  }
  convolution_param {
    num_output: 256
    pad: 1
    kernel_size: 3
    weight_filler {
      type: "xavier"
    }
    bias_filler {
      type: "constant"
      value: 0.2
    }
  }
}
layer {
  name: "inception_4c/relu_3x3"
  type: "ReLU"
  bottom: "inception_4c/3x3"
  top: "inception_4c/3x3"
}
layer {
  name: "inception_4c/5x5_reduce"
  type: "Convolution"
  bottom: "inception_4b/output"
  top: "inception_4c/5x5_reduce"
  param {
    lr_mult: 1
    decay_mult: 1
  }
  param {
    lr_mult: 2
    decay_mult: 0
  }
  convolution_param {
    num_output: 24
    kernel_size: 1
    weight_filler {
      type: "xavier"
    }
    bias_filler {
      type: "constant"
      value: 0.2
    }
  }
}
layer {
  name: "inception_4c/relu_5x5_reduce"
  type: "ReLU"
  bottom: "inception_4c/5x5_reduce"
  top: "inception_4c/5x5_reduce"
}
layer {
  name: "inception_4c/5x5"
  type: "Convolution"
  bottom: "inception_4c/5x5_reduce"
  top: "inception_4c/5x5"
  param {
    lr_mult: 1
    decay_mult: 1
  }
  param {
    lr_mult: 2
    decay_mult: 0
  }
  convolution_param {
    num_output: 64
    pad: 2
    kernel_size: 5
    weight_filler {
      type: "xavier"
    }
    bias_filler {
      type: "constant"
      value: 0.2
    }
  }
}
layer {
  name: "inception_4c/relu_5x5"
  type: "ReLU"
  bottom: "inception_4c/5x5"
  top: "inception_4c/5x5"
}
layer {
  name: "inception_4c/pool"
  type: "Pooling"
  bottom: "inception_4b/output"
  top: "inception_4c/pool"
  pooling_param {
    pool: MAX
    kernel_size: 3
    stride: 1
    pad: 1
  }
}
layer {
  name: "inception_4c/pool_proj"
  type: "Convolution"
  bottom: "inception_4c/pool"
  top: "inception_4c/pool_proj"
  param {
    lr_mult: 1
    decay_mult: 1
  }
  param {
    lr_mult: 2
    decay_mult: 0
  }
  convolution_param {
    num_output: 64
    kernel_size: 1
    weight_filler {
      type: "xavier"
    }
    bias_filler {
      type: "constant"
      value: 0.2
    }
  }
}
layer {
  name: "inception_4c/relu_pool_proj"
  type: "ReLU"
  bottom: "inception_4c/pool_proj"
  top: "inception_4c/pool_proj"
}
layer {
  name: "inception_4c/output"
  type: "Concat"
  bottom: "inception_4c/1x1"
  bottom: "inception_4c/3x3"
  bottom: "inception_4c/5x5"
  bottom: "inception_4c/pool_proj"
  top: "inception_4c/output"
}
layer {
  name: "inception_4d/1x1"
  type: "Convolution"
  bottom: "inception_4c/output"
  top: "inception_4d/1x1"
  param {
    lr_mult: 1
    decay_mult: 1
  }
  param {
    lr_mult: 2
    decay_mult: 0
  }
  convolution_param {
    num_output: 112
    kernel_size: 1
    weight_filler {
      type: "xavier"
    }
    bias_filler {
      type: "constant"
      value: 0.2
    }
  }
}
layer {
  name: "inception_4d/relu_1x1"
  type: "ReLU"
  bottom: "inception_4d/1x1"
  top: "inception_4d/1x1"
}
layer {
  name: "inception_4d/3x3_reduce"
  type: "Convolution"
  bottom: "inception_4c/output"
  top: "inception_4d/3x3_reduce"
  param {
    lr_mult: 1
    decay_mult: 1
  }
  param {
    lr_mult: 2
    decay_mult: 0
  }
  convolution_param {
    num_output: 144
    kernel_size: 1
    weight_filler {
      type: "xavier"
    }
    bias_filler {
      type: "constant"
      value: 0.2
    }
  }
}
layer {
  name: "inception_4d/relu_3x3_reduce"
  type: "ReLU"
  bottom: "inception_4d/3x3_reduce"
  top: "inception_4d/3x3_reduce"
}
layer {
  name: "inception_4d/3x3"
  type: "Convolution"
  bottom: "inception_4d/3x3_reduce"
  top: "inception_4d/3x3"
  param {
    lr_mult: 1
    decay_mult: 1
  }
  param {
    lr_mult: 2
    decay_mult: 0
  }
  convolution_param {
    num_output: 288
    pad: 1
    kernel_size: 3
    weight_filler {
      type: "xavier"
    }
    bias_filler {
      type: "constant"
      value: 0.2
    }
  }
}
layer {
  name: "inception_4d/relu_3x3"
  type: "ReLU"
  bottom: "inception_4d/3x3"
  top: "inception_4d/3x3"
}
layer {
  name: "inception_4d/5x5_reduce"
  type: "Convolution"
  bottom: "inception_4c/output"
  top: "inception_4d/5x5_reduce"
  param {
    lr_mult: 1
    decay_mult: 1
  }
  param {
    lr_mult: 2
    decay_mult: 0
  }
  convolution_param {
    num_output: 32
    kernel_size: 1
    weight_filler {
      type: "xavier"
    }
    bias_filler {
      type: "constant"
      value: 0.2
    }
  }
}
layer {
  name: "inception_4d/relu_5x5_reduce"
  type: "ReLU"
  bottom: "inception_4d/5x5_reduce"
  top: "inception_4d/5x5_reduce"
}
layer {
  name: "inception_4d/5x5"
  type: "Convolution"
  bottom: "inception_4d/5x5_reduce"
  top: "inception_4d/5x5"
  param {
    lr_mult: 1
    decay_mult: 1
  }
  param {
    lr_mult: 2
    decay_mult: 0
  }
  convolution_param {
    num_output: 64
    pad: 2
    kernel_size: 5
    weight_filler {
      type: "xavier"
    }
    bias_filler {
      type: "constant"
      value: 0.2
    }
  }
}
layer {
  name: "inception_4d/relu_5x5"
  type: "ReLU"
  bottom: "inception_4d/5x5"
  top: "inception_4d/5x5"
}
layer {
  name: "inception_4d/pool"
  type: "Pooling"
  bottom: "inception_4c/output"
  top: "inception_4d/pool"
  pooling_param {
    pool: MAX
    kernel_size: 3
    stride: 1
    pad: 1
  }
}
layer {
  name: "inception_4d/pool_proj"
  type: "Convolution"
  bottom: "inception_4d/pool"
  top: "inception_4d/pool_proj"
  param {
    lr_mult: 1
    decay_mult: 1
  }
  param {
    lr_mult: 2
    decay_mult: 0
  }
  convolution_param {
    num_output: 64
    kernel_size: 1
    weight_filler {
      type: "xavier"
    }
    bias_filler {
      type: "constant"
      value: 0.2
    }
  }
}
layer {
  name: "inception_4d/relu_pool_proj"
  type: "ReLU"
  bottom: "inception_4d/pool_proj"
  top: "inception_4d/pool_proj"
}
layer {
  name: "inception_4d/output"
  type: "Concat"
  bottom: "inception_4d/1x1"
  bottom: "inception_4d/3x3"
  bottom: "inception_4d/5x5"
  bottom: "inception_4d/pool_proj"
  top: "inception_4d/output"
}
layer {
  name: "loss2/ave_pool"
  type: "Pooling"
  bottom: "inception_4d/output"
  top: "loss2/ave_pool"
  pooling_param {
    pool: AVE
    kernel_size: 5
    stride: 3
  }
}
layer {
  name: "loss2/conv"
  type: "Convolution"
  bottom: "loss2/ave_pool"
  top: "loss2/conv"
  param {
    lr_mult: 1
    decay_mult: 1
  }
  param {
    lr_mult: 2
    decay_mult: 0
  }
  convolution_param {
    num_output: 128
    kernel_size: 1
    weight_filler {
      type: "xavier"
    }
    bias_filler {
      type: "constant"
      value: 0.2
    }
  }
}
layer {
  name: "loss2/relu_conv"
  type: "ReLU"
  bottom: "loss2/conv"
  top: "loss2/conv"
}
layer {
  name: "loss2/fc"
  type: "InnerProduct"
  bottom: "loss2/conv"
  top: "loss2/fc"
  param {
    lr_mult: 1
    decay_mult: 1
  }
  param {
    lr_mult: 2
    decay_mult: 0
  }
  inner_product_param {
    num_output: 1024
    weight_filler {
      type: "xavier"
    }
    bias_filler {
      type: "constant"
      value: 0.2
    }
  }
}
layer {
  name: "loss2/relu_fc"
  type: "ReLU"
  bottom: "loss2/fc"
  top: "loss2/fc"
}
layer {
  name: "loss2/drop_fc"
  type: "Dropout"
  bottom: "loss2/fc"
  top: "loss2/fc"
  dropout_param {
    dropout_ratio: 0.7
  }
}
layer {
  name: "loss2/classifier_kaggle"
  type: "InnerProduct"
  bottom: "loss2/fc"
  top: "loss2/classifier_kaggle"
  param {
    lr_mult: 1
    decay_mult: 1
  }
  param {
    lr_mult: 2
    decay_mult: 0
  }
  inner_product_param {
    num_output: 447
    weight_filler {
      type: "xavier"
    }
    bias_filler {
      type: "constant"
      value: 0
    }
  }
}
layer {
  name: "loss2/loss"
  type: "SoftmaxWithLoss"
  bottom: "loss2/classifier_kaggle"
  bottom: "label"
  top: "loss2/loss1"
  loss_weight: 0.3
}
layer {
  name: "inception_4e/1x1"
  type: "Convolution"
  bottom: "inception_4d/output"
  top: "inception_4e/1x1"
  param {
    lr_mult: 1
    decay_mult: 1
  }
  param {
    lr_mult: 2
    decay_mult: 0
  }
  convolution_param {
    num_output: 256
    kernel_size: 1
    weight_filler {
      type: "xavier"
    }
    bias_filler {
      type: "constant"
      value: 0.2
    }
  }
}
layer {
  name: "inception_4e/relu_1x1"
  type: "ReLU"
  bottom: "inception_4e/1x1"
  top: "inception_4e/1x1"
}
layer {
  name: "inception_4e/3x3_reduce"
  type: "Convolution"
  bottom: "inception_4d/output"
  top: "inception_4e/3x3_reduce"
  param {
    lr_mult: 1
    decay_mult: 1
  }
  param {
    lr_mult: 2
    decay_mult: 0
  }
  convolution_param {
    num_output: 160
    kernel_size: 1
    weight_filler {
      type: "xavier"
    }
    bias_filler {
      type: "constant"
      value: 0.2
    }
  }
}
layer {
  name: "inception_4e/relu_3x3_reduce"
  type: "ReLU"
  bottom: "inception_4e/3x3_reduce"
  top: "inception_4e/3x3_reduce"
}
layer {
  name: "inception_4e/3x3"
  type: "Convolution"
  bottom: "inception_4e/3x3_reduce"
  top: "inception_4e/3x3"
  param {
    lr_mult: 1
    decay_mult: 1
  }
  param {
    lr_mult: 2
    decay_mult: 0
  }
  convolution_param {
    num_output: 320
    pad: 1
    kernel_size: 3
    weight_filler {
      type: "xavier"
    }
    bias_filler {
      type: "constant"
      value: 0.2
    }
  }
}
layer {
  name: "inception_4e/relu_3x3"
  type: "ReLU"
  bottom: "inception_4e/3x3"
  top: "inception_4e/3x3"
}
layer {
  name: "inception_4e/5x5_reduce"
  type: "Convolution"
  bottom: "inception_4d/output"
  top: "inception_4e/5x5_reduce"
  param {
    lr_mult: 1
    decay_mult: 1
  }
  param {
    lr_mult: 2
    decay_mult: 0
  }
  convolution_param {
    num_output: 32
    kernel_size: 1
    weight_filler {
      type: "xavier"
    }
    bias_filler {
      type: "constant"
      value: 0.2
    }
  }
}
layer {
  name: "inception_4e/relu_5x5_reduce"
  type: "ReLU"
  bottom: "inception_4e/5x5_reduce"
  top: "inception_4e/5x5_reduce"
}
layer {
  name: "inception_4e/5x5"
  type: "Convolution"
  bottom: "inception_4e/5x5_reduce"
  top: "inception_4e/5x5"
  param {
    lr_mult: 1
    decay_mult: 1
  }
  param {
    lr_mult: 2
    decay_mult: 0
  }
  convolution_param {
    num_output: 128
    pad: 2
    kernel_size: 5
    weight_filler {
      type: "xavier"
    }
    bias_filler {
      type: "constant"
      value: 0.2
    }
  }
}
layer {
  name: "inception_4e/relu_5x5"
  type: "ReLU"
  bottom: "inception_4e/5x5"
  top: "inception_4e/5x5"
}
layer {
  name: "inception_4e/pool"
  type: "Pooling"
  bottom: "inception_4d/output"
  top: "inception_4e/pool"
  pooling_p
I1219 15:02:21.053961 16918 layer_factory.hpp:74] Creating layer data
I1219 15:02:21.054009 16918 net.cpp:84] Creating Layer data
I1219 15:02:21.054025 16918 net.cpp:338] data -> data
I1219 15:02:21.054078 16918 net.cpp:338] data -> label
I1219 15:02:21.054098 16918 net.cpp:113] Setting up data
I1219 15:02:21.054111 16918 image_data_layer.cpp:36] Opening file /home/coldmanck/kaggle/label_train_full.txt
I1219 15:02:21.059079 16918 image_data_layer.cpp:46] Shuffling data
I1219 15:02:21.060381 16918 image_data_layer.cpp:51] A total of 4235 images.
I1219 15:02:21.061542 16918 image_data_layer.cpp:80] output data size: 80,3,224,224
I1219 15:02:21.589802 16918 net.cpp:120] Top shape: 80 3 224 224 (12042240)
I1219 15:02:21.589843 16918 net.cpp:120] Top shape: 80 (80)
I1219 15:02:21.589870 16918 layer_factory.hpp:74] Creating layer label_data_1_split
I1219 15:02:21.589977 16918 net.cpp:84] Creating Layer label_data_1_split
I1219 15:02:21.589989 16918 net.cpp:380] label_data_1_split <- label
I1219 15:02:21.590028 16918 net.cpp:338] label_data_1_split -> label_data_1_split_0
I1219 15:02:21.590044 16918 net.cpp:338] label_data_1_split -> label_data_1_split_1
I1219 15:02:21.590065 16918 net.cpp:338] label_data_1_split -> label_data_1_split_2
I1219 15:02:21.590086 16918 net.cpp:113] Setting up label_data_1_split
I1219 15:02:21.590098 16918 net.cpp:120] Top shape: 80 (80)
I1219 15:02:21.590104 16918 net.cpp:120] Top shape: 80 (80)
I1219 15:02:21.590111 16918 net.cpp:120] Top shape: 80 (80)
I1219 15:02:21.590116 16918 layer_factory.hpp:74] Creating layer conv1/7x7_s2
I1219 15:02:21.590131 16918 net.cpp:84] Creating Layer conv1/7x7_s2
I1219 15:02:21.590137 16918 net.cpp:380] conv1/7x7_s2 <- data
I1219 15:02:21.590147 16918 net.cpp:338] conv1/7x7_s2 -> conv1/7x7_s2
I1219 15:02:21.590159 16918 net.cpp:113] Setting up conv1/7x7_s2
I1219 15:02:22.090050 16918 net.cpp:120] Top shape: 80 64 112 112 (64225280)
I1219 15:02:22.090129 16918 layer_factory.hpp:74] Creating layer conv1/relu_7x7
I1219 15:02:22.090147 16918 net.cpp:84] Creating Layer conv1/relu_7x7
I1219 15:02:22.090154 16918 net.cpp:380] conv1/relu_7x7 <- conv1/7x7_s2
I1219 15:02:22.090167 16918 net.cpp:327] conv1/relu_7x7 -> conv1/7x7_s2 (in-place)
I1219 15:02:22.090180 16918 net.cpp:113] Setting up conv1/relu_7x7
I1219 15:02:22.098224 16918 net.cpp:120] Top shape: 80 64 112 112 (64225280)
I1219 15:02:22.098248 16918 layer_factory.hpp:74] Creating layer pool1/3x3_s2
I1219 15:02:22.098270 16918 net.cpp:84] Creating Layer pool1/3x3_s2
I1219 15:02:22.098278 16918 net.cpp:380] pool1/3x3_s2 <- conv1/7x7_s2
I1219 15:02:22.098307 16918 net.cpp:338] pool1/3x3_s2 -> pool1/3x3_s2
I1219 15:02:22.098320 16918 net.cpp:113] Setting up pool1/3x3_s2
I1219 15:02:22.098439 16918 net.cpp:120] Top shape: 80 64 56 56 (16056320)
I1219 15:02:22.098464 16918 layer_factory.hpp:74] Creating layer pool1/norm1
I1219 15:02:22.098481 16918 net.cpp:84] Creating Layer pool1/norm1
I1219 15:02:22.098490 16918 net.cpp:380] pool1/norm1 <- pool1/3x3_s2
I1219 15:02:22.098502 16918 net.cpp:338] pool1/norm1 -> pool1/norm1
I1219 15:02:22.098518 16918 net.cpp:113] Setting up pool1/norm1
I1219 15:02:22.098529 16918 net.cpp:120] Top shape: 80 64 56 56 (16056320)
I1219 15:02:22.098542 16918 layer_factory.hpp:74] Creating layer conv2/3x3_reduce
I1219 15:02:22.098553 16918 net.cpp:84] Creating Layer conv2/3x3_reduce
I1219 15:02:22.098559 16918 net.cpp:380] conv2/3x3_reduce <- pool1/norm1
I1219 15:02:22.098572 16918 net.cpp:338] conv2/3x3_reduce -> conv2/3x3_reduce
I1219 15:02:22.098587 16918 net.cpp:113] Setting up conv2/3x3_reduce
I1219 15:02:22.110496 16918 net.cpp:120] Top shape: 80 64 56 56 (16056320)
I1219 15:02:22.110570 16918 layer_factory.hpp:74] Creating layer conv2/relu_3x3_reduce
I1219 15:02:22.110731 16918 net.cpp:84] Creating Layer conv2/relu_3x3_reduce
I1219 15:02:22.110743 16918 net.cpp:380] conv2/relu_3x3_reduce <- conv2/3x3_reduce
I1219 15:02:22.110755 16918 net.cpp:327] conv2/relu_3x3_reduce -> conv2/3x3_reduce (in-place)
I1219 15:02:22.110769 16918 net.cpp:113] Setting up conv2/relu_3x3_reduce
I1219 15:02:22.110843 16918 net.cpp:120] Top shape: 80 64 56 56 (16056320)
I1219 15:02:22.110852 16918 layer_factory.hpp:74] Creating layer conv2/3x3
I1219 15:02:22.110867 16918 net.cpp:84] Creating Layer conv2/3x3
I1219 15:02:22.110872 16918 net.cpp:380] conv2/3x3 <- conv2/3x3_reduce
I1219 15:02:22.110894 16918 net.cpp:338] conv2/3x3 -> conv2/3x3
I1219 15:02:22.110906 16918 net.cpp:113] Setting up conv2/3x3
I1219 15:02:22.113085 16918 net.cpp:120] Top shape: 80 192 56 56 (48168960)
I1219 15:02:22.113113 16918 layer_factory.hpp:74] Creating layer conv2/relu_3x3
I1219 15:02:22.113126 16918 net.cpp:84] Creating Layer conv2/relu_3x3
I1219 15:02:22.113136 16918 net.cpp:380] conv2/relu_3x3 <- conv2/3x3
I1219 15:02:22.113147 16918 net.cpp:327] conv2/relu_3x3 -> conv2/3x3 (in-place)
I1219 15:02:22.113160 16918 net.cpp:113] Setting up conv2/relu_3x3
I1219 15:02:22.114614 16918 net.cpp:120] Top shape: 80 192 56 56 (48168960)
I1219 15:02:22.114652 16918 layer_factory.hpp:74] Creating layer conv2/norm2
I1219 15:02:22.114665 16918 net.cpp:84] Creating Layer conv2/norm2
I1219 15:02:22.114671 16918 net.cpp:380] conv2/norm2 <- conv2/3x3
I1219 15:02:22.114681 16918 net.cpp:338] conv2/norm2 -> conv2/norm2
I1219 15:02:22.114702 16918 net.cpp:113] Setting up conv2/norm2
I1219 15:02:22.114727 16918 net.cpp:120] Top shape: 80 192 56 56 (48168960)
I1219 15:02:22.114732 16918 layer_factory.hpp:74] Creating layer pool2/3x3_s2
I1219 15:02:22.114742 16918 net.cpp:84] Creating Layer pool2/3x3_s2
I1219 15:02:22.114748 16918 net.cpp:380] pool2/3x3_s2 <- conv2/norm2
I1219 15:02:22.114755 16918 net.cpp:338] pool2/3x3_s2 -> pool2/3x3_s2
I1219 15:02:22.114764 16918 net.cpp:113] Setting up pool2/3x3_s2
I1219 15:02:22.114857 16918 net.cpp:120] Top shape: 80 192 28 28 (12042240)
I1219 15:02:22.114869 16918 layer_factory.hpp:74] Creating layer pool2/3x3_s2_pool2/3x3_s2_0_split
I1219 15:02:22.114881 16918 net.cpp:84] Creating Layer pool2/3x3_s2_pool2/3x3_s2_0_split
I1219 15:02:22.114889 16918 net.cpp:380] pool2/3x3_s2_pool2/3x3_s2_0_split <- pool2/3x3_s2
I1219 15:02:22.114910 16918 net.cpp:338] pool2/3x3_s2_pool2/3x3_s2_0_split -> pool2/3x3_s2_pool2/3x3_s2_0_split_0
I1219 15:02:22.114924 16918 net.cpp:338] pool2/3x3_s2_pool2/3x3_s2_0_split -> pool2/3x3_s2_pool2/3x3_s2_0_split_1
I1219 15:02:22.114936 16918 net.cpp:338] pool2/3x3_s2_pool2/3x3_s2_0_split -> pool2/3x3_s2_pool2/3x3_s2_0_split_2
I1219 15:02:22.114948 16918 net.cpp:338] pool2/3x3_s2_pool2/3x3_s2_0_split -> pool2/3x3_s2_pool2/3x3_s2_0_split_3
I1219 15:02:22.114956 16918 net.cpp:113] Setting up pool2/3x3_s2_pool2/3x3_s2_0_split
I1219 15:02:22.114969 16918 net.cpp:120] Top shape: 80 192 28 28 (12042240)
I1219 15:02:22.114979 16918 net.cpp:120] Top shape: 80 192 28 28 (12042240)
I1219 15:02:22.114987 16918 net.cpp:120] Top shape: 80 192 28 28 (12042240)
I1219 15:02:22.114995 16918 net.cpp:120] Top shape: 80 192 28 28 (12042240)
I1219 15:02:22.115003 16918 layer_factory.hpp:74] Creating layer inception_3a/1x1
I1219 15:02:22.115018 16918 net.cpp:84] Creating Layer inception_3a/1x1
I1219 15:02:22.115026 16918 net.cpp:380] inception_3a/1x1 <- pool2/3x3_s2_pool2/3x3_s2_0_split_0
I1219 15:02:22.115039 16918 net.cpp:338] inception_3a/1x1 -> inception_3a/1x1
I1219 15:02:22.115051 16918 net.cpp:113] Setting up inception_3a/1x1
I1219 15:02:22.116850 16918 net.cpp:120] Top shape: 80 64 28 28 (4014080)
I1219 15:02:22.116869 16918 layer_factory.hpp:74] Creating layer inception_3a/relu_1x1
I1219 15:02:22.116878 16918 net.cpp:84] Creating Layer inception_3a/relu_1x1
I1219 15:02:22.116884 16918 net.cpp:380] inception_3a/relu_1x1 <- inception_3a/1x1
I1219 15:02:22.116900 16918 net.cpp:327] inception_3a/relu_1x1 -> inception_3a/1x1 (in-place)
I1219 15:02:22.116910 16918 net.cpp:113] Setting up inception_3a/relu_1x1
I1219 15:02:22.116987 16918 net.cpp:120] Top shape: 80 64 28 28 (4014080)
I1219 15:02:22.116998 16918 layer_factory.hpp:74] Creating layer inception_3a/3x3_reduce
I1219 15:02:22.117013 16918 net.cpp:84] Creating Layer inception_3a/3x3_reduce
I1219 15:02:22.117022 16918 net.cpp:380] inception_3a/3x3_reduce <- pool2/3x3_s2_pool2/3x3_s2_0_split_1
I1219 15:02:22.117033 16918 net.cpp:338] inception_3a/3x3_reduce -> inception_3a/3x3_reduce
I1219 15:02:22.117046 16918 net.cpp:113] Setting up inception_3a/3x3_reduce
I1219 15:02:22.118657 16918 net.cpp:120] Top shape: 80 96 28 28 (6021120)
I1219 15:02:22.118679 16918 layer_factory.hpp:74] Creating layer inception_3a/relu_3x3_reduce
I1219 15:02:22.118690 16918 net.cpp:84] Creating Layer inception_3a/relu_3x3_reduce
I1219 15:02:22.118695 16918 net.cpp:380] inception_3a/relu_3x3_reduce <- inception_3a/3x3_reduce
I1219 15:02:22.118713 16918 net.cpp:327] inception_3a/relu_3x3_reduce -> inception_3a/3x3_reduce (in-place)
I1219 15:02:22.118731 16918 net.cpp:113] Setting up inception_3a/relu_3x3_reduce
I1219 15:02:22.118819 16918 net.cpp:120] Top shape: 80 96 28 28 (6021120)
I1219 15:02:22.118830 16918 layer_factory.hpp:74] Creating layer inception_3a/3x3
I1219 15:02:22.118855 16918 net.cpp:84] Creating Layer inception_3a/3x3
I1219 15:02:22.118865 16918 net.cpp:380] inception_3a/3x3 <- inception_3a/3x3_reduce
I1219 15:02:22.118878 16918 net.cpp:338] inception_3a/3x3 -> inception_3a/3x3
I1219 15:02:22.118892 16918 net.cpp:113] Setting up inception_3a/3x3
I1219 15:02:22.121353 16918 net.cpp:120] Top shape: 80 128 28 28 (8028160)
I1219 15:02:22.121392 16918 layer_factory.hpp:74] Creating layer inception_3a/relu_3x3
I1219 15:02:22.121407 16918 net.cpp:84] Creating Layer inception_3a/relu_3x3
I1219 15:02:22.121413 16918 net.cpp:380] inception_3a/relu_3x3 <- inception_3a/3x3
I1219 15:02:22.121422 16918 net.cpp:327] inception_3a/relu_3x3 -> inception_3a/3x3 (in-place)
I1219 15:02:22.121430 16918 net.cpp:113] Setting up inception_3a/relu_3x3
I1219 15:02:22.129484 16918 net.cpp:120] Top shape: 80 128 28 28 (8028160)
I1219 15:02:22.129509 16918 layer_factory.hpp:74] Creating layer inception_3a/5x5_reduce
I1219 15:02:22.129521 16918 net.cpp:84] Creating Layer inception_3a/5x5_reduce
I1219 15:02:22.129528 16918 net.cpp:380] inception_3a/5x5_reduce <- pool2/3x3_s2_pool2/3x3_s2_0_split_2
I1219 15:02:22.129539 16918 net.cpp:338] inception_3a/5x5_reduce -> inception_3a/5x5_reduce
I1219 15:02:22.129554 16918 net.cpp:113] Setting up inception_3a/5x5_reduce
I1219 15:02:22.131347 16918 net.cpp:120] Top shape: 80 16 28 28 (1003520)
I1219 15:02:22.131378 16918 layer_factory.hpp:74] Creating layer inception_3a/relu_5x5_reduce
I1219 15:02:22.131397 16918 net.cpp:84] Creating Layer inception_3a/relu_5x5_reduce
I1219 15:02:22.131409 16918 net.cpp:380] inception_3a/relu_5x5_reduce <- inception_3a/5x5_reduce
I1219 15:02:22.131425 16918 net.cpp:327] inception_3a/relu_5x5_reduce -> inception_3a/5x5_reduce (in-place)
I1219 15:02:22.131443 16918 net.cpp:113] Setting up inception_3a/relu_5x5_reduce
I1219 15:02:22.131547 16918 net.cpp:120] Top shape: 80 16 28 28 (1003520)
I1219 15:02:22.131561 16918 layer_factory.hpp:74] Creating layer inception_3a/5x5
I1219 15:02:22.131577 16918 net.cpp:84] Creating Layer inception_3a/5x5
I1219 15:02:22.131584 16918 net.cpp:380] inception_3a/5x5 <- inception_3a/5x5_reduce
I1219 15:02:22.131592 16918 net.cpp:338] inception_3a/5x5 -> inception_3a/5x5
I1219 15:02:22.131603 16918 net.cpp:113] Setting up inception_3a/5x5
I1219 15:02:22.138345 16918 net.cpp:120] Top shape: 80 32 28 28 (2007040)
I1219 15:02:22.138419 16918 layer_factory.hpp:74] Creating layer inception_3a/relu_5x5
I1219 15:02:22.138452 16918 net.cpp:84] Creating Layer inception_3a/relu_5x5
I1219 15:02:22.138465 16918 net.cpp:380] inception_3a/relu_5x5 <- inception_3a/5x5
I1219 15:02:22.138485 16918 net.cpp:327] inception_3a/relu_5x5 -> inception_3a/5x5 (in-place)
I1219 15:02:22.138506 16918 net.cpp:113] Setting up inception_3a/relu_5x5
I1219 15:02:22.138640 16918 net.cpp:120] Top shape: 80 32 28 28 (2007040)
I1219 15:02:22.138653 16918 layer_factory.hpp:74] Creating layer inception_3a/pool
I1219 15:02:22.138665 16918 layer_factory.cpp:56] CUDNN does not support padding or multiple tops. Using Caffe's own pooling layer.
I1219 15:02:22.138684 16918 net.cpp:84] Creating Layer inception_3a/pool
I1219 15:02:22.138695 16918 net.cpp:380] inception_3a/pool <- pool2/3x3_s2_pool2/3x3_s2_0_split_3
I1219 15:02:22.138711 16918 net.cpp:338] inception_3a/pool -> inception_3a/pool
I1219 15:02:22.138731 16918 net.cpp:113] Setting up inception_3a/pool
I1219 15:02:22.138751 16918 net.cpp:120] Top shape: 80 192 28 28 (12042240)
I1219 15:02:22.138761 16918 layer_factory.hpp:74] Creating layer inception_3a/pool_proj
I1219 15:02:22.138782 16918 net.cpp:84] Creating Layer inception_3a/pool_proj
I1219 15:02:22.138793 16918 net.cpp:380] inception_3a/pool_proj <- inception_3a/pool
I1219 15:02:22.138809 16918 net.cpp:338] inception_3a/pool_proj -> inception_3a/pool_proj
I1219 15:02:22.138828 16918 net.cpp:113] Setting up inception_3a/pool_proj
I1219 15:02:22.141139 16918 net.cpp:120] Top shape: 80 32 28 28 (2007040)
I1219 15:02:22.141222 16918 layer_factory.hpp:74] Creating layer inception_3a/relu_pool_proj
I1219 15:02:22.141266 16918 net.cpp:84] Creating Layer inception_3a/relu_pool_proj
I1219 15:02:22.141279 16918 net.cpp:380] inception_3a/relu_pool_proj <- inception_3a/pool_proj
I1219 15:02:22.141296 16918 net.cpp:327] inception_3a/relu_pool_proj -> inception_3a/pool_proj (in-place)
I1219 15:02:22.141314 16918 net.cpp:113] Setting up inception_3a/relu_pool_proj
I1219 15:02:22.141480 16918 net.cpp:120] Top shape: 80 32 28 28 (2007040)
I1219 15:02:22.141495 16918 layer_factory.hpp:74] Creating layer inception_3a/output
I1219 15:02:22.141510 16918 net.cpp:84] Creating Layer inception_3a/output
I1219 15:02:22.141520 16918 net.cpp:380] inception_3a/output <- inception_3a/1x1
I1219 15:02:22.141533 16918 net.cpp:380] inception_3a/output <- inception_3a/3x3
I1219 15:02:22.141546 16918 net.cpp:380] inception_3a/output <- inception_3a/5x5
I1219 15:02:22.141556 16918 net.cpp:380] inception_3a/output <- inception_3a/pool_proj
I1219 15:02:22.141569 16918 net.cpp:338] inception_3a/output -> inception_3a/output
I1219 15:02:22.141597 16918 net.cpp:113] Setting up inception_3a/output
I1219 15:02:22.141613 16918 net.cpp:120] Top shape: 80 256 28 28 (16056320)
I1219 15:02:22.141800 16918 layer_factory.hpp:74] Creating layer inception_3a/output_inception_3a/output_0_split
I1219 15:02:22.141819 16918 net.cpp:84] Creating Layer inception_3a/output_inception_3a/output_0_split
I1219 15:02:22.141829 16918 net.cpp:380] inception_3a/output_inception_3a/output_0_split <- inception_3a/output
I1219 15:02:22.141844 16918 net.cpp:338] inception_3a/output_inception_3a/output_0_split -> inception_3a/output_inception_3a/output_0_split_0
I1219 15:02:22.141860 16918 net.cpp:338] inception_3a/output_inception_3a/output_0_split -> inception_3a/output_inception_3a/output_0_split_1
I1219 15:02:22.141875 16918 net.cpp:338] inception_3a/output_inception_3a/output_0_split -> inception_3a/output_inception_3a/output_0_split_2
I1219 15:02:22.141890 16918 net.cpp:338] inception_3a/output_inception_3a/output_0_split -> inception_3a/output_inception_3a/output_0_split_3
I1219 15:02:22.141902 16918 net.cpp:113] Setting up inception_3a/output_inception_3a/output_0_split
I1219 15:02:22.141918 16918 net.cpp:120] Top shape: 80 256 28 28 (16056320)
I1219 15:02:22.141929 16918 net.cpp:120] Top shape: 80 256 28 28 (16056320)
I1219 15:02:22.141939 16918 net.cpp:120] Top shape: 80 256 28 28 (16056320)
I1219 15:02:22.141950 16918 net.cpp:120] Top shape: 80 256 28 28 (16056320)
I1219 15:02:22.141959 16918 layer_factory.hpp:74] Creating layer inception_3b/1x1
I1219 15:02:22.141975 16918 net.cpp:84] Creating Layer inception_3b/1x1
I1219 15:02:22.141985 16918 net.cpp:380] inception_3b/1x1 <- inception_3a/output_inception_3a/output_0_split_0
I1219 15:02:22.141999 16918 net.cpp:338] inception_3b/1x1 -> inception_3b/1x1
I1219 15:02:22.142015 16918 net.cpp:113] Setting up inception_3b/1x1
I1219 15:02:22.151666 16918 net.cpp:120] Top shape: 80 128 28 28 (8028160)
I1219 15:02:22.151736 16918 layer_factory.hpp:74] Creating layer inception_3b/relu_1x1
I1219 15:02:22.151788 16918 net.cpp:84] Creating Layer inception_3b/relu_1x1
I1219 15:02:22.151803 16918 net.cpp:380] inception_3b/relu_1x1 <- inception_3b/1x1
I1219 15:02:22.151821 16918 net.cpp:327] inception_3b/relu_1x1 -> inception_3b/1x1 (in-place)
I1219 15:02:22.151842 16918 net.cpp:113] Setting up inception_3b/relu_1x1
I1219 15:02:22.153457 16918 net.cpp:120] Top shape: 80 128 28 28 (8028160)
I1219 15:02:22.153491 16918 layer_factory.hpp:74] Creating layer inception_3b/3x3_reduce
I1219 15:02:22.153515 16918 net.cpp:84] Creating Layer inception_3b/3x3_reduce
I1219 15:02:22.153528 16918 net.cpp:380] inception_3b/3x3_reduce <- inception_3a/output_inception_3a/output_0_split_1
I1219 15:02:22.153548 16918 net.cpp:338] inception_3b/3x3_reduce -> inception_3b/3x3_reduce
I1219 15:02:22.153571 16918 net.cpp:113] Setting up inception_3b/3x3_reduce
I1219 15:02:22.158391 16918 net.cpp:120] Top shape: 80 128 28 28 (8028160)
I1219 15:02:22.158437 16918 layer_factory.hpp:74] Creating layer inception_3b/relu_3x3_reduce
I1219 15:02:22.158454 16918 net.cpp:84] Creating Layer inception_3b/relu_3x3_reduce
I1219 15:02:22.158468 16918 net.cpp:380] inception_3b/relu_3x3_reduce <- inception_3b/3x3_reduce
I1219 15:02:22.158484 16918 net.cpp:327] inception_3b/relu_3x3_reduce -> inception_3b/3x3_reduce (in-place)
I1219 15:02:22.158504 16918 net.cpp:113] Setting up inception_3b/relu_3x3_reduce
I1219 15:02:22.158658 16918 net.cpp:120] Top shape: 80 128 28 28 (8028160)
I1219 15:02:22.158694 16918 layer_factory.hpp:74] Creating layer inception_3b/3x3
I1219 15:02:22.158736 16918 net.cpp:84] Creating Layer inception_3b/3x3
I1219 15:02:22.158749 16918 net.cpp:380] inception_3b/3x3 <- inception_3b/3x3_reduce
I1219 15:02:22.158767 16918 net.cpp:338] inception_3b/3x3 -> inception_3b/3x3
I1219 15:02:22.158787 16918 net.cpp:113] Setting up inception_3b/3x3
I1219 15:02:22.170307 16918 net.cpp:120] Top shape: 80 192 28 28 (12042240)
I1219 15:02:22.170353 16918 layer_factory.hpp:74] Creating layer inception_3b/relu_3x3
I1219 15:02:22.170377 16918 net.cpp:84] Creating Layer inception_3b/relu_3x3
I1219 15:02:22.170389 16918 net.cpp:380] inception_3b/relu_3x3 <- inception_3b/3x3
I1219 15:02:22.170405 16918 net.cpp:327] inception_3b/relu_3x3 -> inception_3b/3x3 (in-place)
I1219 15:02:22.170424 16918 net.cpp:113] Setting up inception_3b/relu_3x3
I1219 15:02:22.170567 16918 net.cpp:120] Top shape: 80 192 28 28 (12042240)
I1219 15:02:22.170580 16918 layer_factory.hpp:74] Creating layer inception_3b/5x5_reduce
I1219 15:02:22.170600 16918 net.cpp:84] Creating Layer inception_3b/5x5_reduce
I1219 15:02:22.170610 16918 net.cpp:380] inception_3b/5x5_reduce <- inception_3a/output_inception_3a/output_0_split_2
I1219 15:02:22.170626 16918 net.cpp:338] inception_3b/5x5_reduce -> inception_3b/5x5_reduce
I1219 15:02:22.170644 16918 net.cpp:113] Setting up inception_3b/5x5_reduce
I1219 15:02:22.171875 16918 net.cpp:120] Top shape: 80 32 28 28 (2007040)
I1219 15:02:22.171905 16918 layer_factory.hpp:74] Creating layer inception_3b/relu_5x5_reduce
I1219 15:02:22.172022 16918 net.cpp:84] Creating Layer inception_3b/relu_5x5_reduce
I1219 15:02:22.172035 16918 net.cpp:380] inception_3b/relu_5x5_reduce <- inception_3b/5x5_reduce
I1219 15:02:22.172055 16918 net.cpp:327] inception_3b/relu_5x5_reduce -> inception_3b/5x5_reduce (in-place)
I1219 15:02:22.172071 16918 net.cpp:113] Setting up inception_3b/relu_5x5_reduce
I1219 15:02:22.172194 16918 net.cpp:120] Top shape: 80 32 28 28 (2007040)
I1219 15:02:22.172209 16918 layer_factory.hpp:74] Creating layer inception_3b/5x5
I1219 15:02:22.172226 16918 net.cpp:84] Creating Layer inception_3b/5x5
I1219 15:02:22.172236 16918 net.cpp:380] inception_3b/5x5 <- inception_3b/5x5_reduce
I1219 15:02:22.172250 16918 net.cpp:338] inception_3b/5x5 -> inception_3b/5x5
I1219 15:02:22.172278 16918 net.cpp:113] Setting up inception_3b/5x5
I1219 15:02:22.177460 16918 net.cpp:120] Top shape: 80 96 28 28 (6021120)
I1219 15:02:22.177498 16918 layer_factory.hpp:74] Creating layer inception_3b/relu_5x5
I1219 15:02:22.177518 16918 net.cpp:84] Creating Layer inception_3b/relu_5x5
I1219 15:02:22.177531 16918 net.cpp:380] inception_3b/relu_5x5 <- inception_3b/5x5
I1219 15:02:22.177544 16918 net.cpp:327] inception_3b/relu_5x5 -> inception_3b/5x5 (in-place)
I1219 15:02:22.177562 16918 net.cpp:113] Setting up inception_3b/relu_5x5
I1219 15:02:22.178191 16918 net.cpp:120] Top shape: 80 96 28 28 (6021120)
I1219 15:02:22.178213 16918 layer_factory.hpp:74] Creating layer inception_3b/pool
I1219 15:02:22.178225 16918 layer_factory.cpp:56] CUDNN does not support padding or multiple tops. Using Caffe's own pooling layer.
I1219 15:02:22.178241 16918 net.cpp:84] Creating Layer inception_3b/pool
I1219 15:02:22.178253 16918 net.cpp:380] inception_3b/pool <- inception_3a/output_inception_3a/output_0_split_3
I1219 15:02:22.178268 16918 net.cpp:338] inception_3b/pool -> inception_3b/pool
I1219 15:02:22.178287 16918 net.cpp:113] Setting up inception_3b/pool
I1219 15:02:22.178306 16918 net.cpp:120] Top shape: 80 256 28 28 (16056320)
I1219 15:02:22.178316 16918 layer_factory.hpp:74] Creating layer inception_3b/pool_proj
I1219 15:02:22.178339 16918 net.cpp:84] Creating Layer inception_3b/pool_proj
I1219 15:02:22.178349 16918 net.cpp:380] inception_3b/pool_proj <- inception_3b/pool
I1219 15:02:22.178372 16918 net.cpp:338] inception_3b/pool_proj -> inception_3b/pool_proj
I1219 15:02:22.178390 16918 net.cpp:113] Setting up inception_3b/pool_proj
I1219 15:02:22.179769 16918 net.cpp:120] Top shape: 80 64 28 28 (4014080)
I1219 15:02:22.179819 16918 layer_factory.hpp:74] Creating layer inception_3b/relu_pool_proj
I1219 15:02:22.179841 16918 net.cpp:84] Creating Layer inception_3b/relu_pool_proj
I1219 15:02:22.179852 16918 net.cpp:380] inception_3b/relu_pool_proj <- inception_3b/pool_proj
I1219 15:02:22.179867 16918 net.cpp:327] inception_3b/relu_pool_proj -> inception_3b/pool_proj (in-place)
I1219 15:02:22.179883 16918 net.cpp:113] Setting up inception_3b/relu_pool_proj
I1219 15:02:22.180060 16918 net.cpp:120] Top shape: 80 64 28 28 (4014080)
I1219 15:02:22.180078 16918 layer_factory.hpp:74] Creating layer inception_3b/output
I1219 15:02:22.180095 16918 net.cpp:84] Creating Layer inception_3b/output
I1219 15:02:22.180105 16918 net.cpp:380] inception_3b/output <- inception_3b/1x1
I1219 15:02:22.180119 16918 net.cpp:380] inception_3b/output <- inception_3b/3x3
I1219 15:02:22.180131 16918 net.cpp:380] inception_3b/output <- inception_3b/5x5
I1219 15:02:22.180143 16918 net.cpp:380] inception_3b/output <- inception_3b/pool_proj
I1219 15:02:22.180160 16918 net.cpp:338] inception_3b/output -> inception_3b/output
I1219 15:02:22.180174 16918 net.cpp:113] Setting up inception_3b/output
I1219 15:02:22.180192 16918 net.cpp:120] Top shape: 80 480 28 28 (30105600)
I1219 15:02:22.180202 16918 layer_factory.hpp:74] Creating layer pool3/3x3_s2
I1219 15:02:22.180215 16918 net.cpp:84] Creating Layer pool3/3x3_s2
I1219 15:02:22.180225 16918 net.cpp:380] pool3/3x3_s2 <- inception_3b/output
I1219 15:02:22.180239 16918 net.cpp:338] pool3/3x3_s2 -> pool3/3x3_s2
I1219 15:02:22.180253 16918 net.cpp:113] Setting up pool3/3x3_s2
I1219 15:02:22.180452 16918 net.cpp:120] Top shape: 80 480 14 14 (7526400)
I1219 15:02:22.180467 16918 layer_factory.hpp:74] Creating layer pool3/3x3_s2_pool3/3x3_s2_0_split
I1219 15:02:22.180482 16918 net.cpp:84] Creating Layer pool3/3x3_s2_pool3/3x3_s2_0_split
I1219 15:02:22.180493 16918 net.cpp:380] pool3/3x3_s2_pool3/3x3_s2_0_split <- pool3/3x3_s2
I1219 15:02:22.180510 16918 net.cpp:338] pool3/3x3_s2_pool3/3x3_s2_0_split -> pool3/3x3_s2_pool3/3x3_s2_0_split_0
I1219 15:02:22.180527 16918 net.cpp:338] pool3/3x3_s2_pool3/3x3_s2_0_split -> pool3/3x3_s2_pool3/3x3_s2_0_split_1
I1219 15:02:22.180542 16918 net.cpp:338] pool3/3x3_s2_pool3/3x3_s2_0_split -> pool3/3x3_s2_pool3/3x3_s2_0_split_2
I1219 15:02:22.180555 16918 net.cpp:338] pool3/3x3_s2_pool3/3x3_s2_0_split -> pool3/3x3_s2_pool3/3x3_s2_0_split_3
I1219 15:02:22.180568 16918 net.cpp:113] Setting up pool3/3x3_s2_pool3/3x3_s2_0_split
I1219 15:02:22.180583 16918 net.cpp:120] Top shape: 80 480 14 14 (7526400)
I1219 15:02:22.180594 16918 net.cpp:120] Top shape: 80 480 14 14 (7526400)
I1219 15:02:22.180604 16918 net.cpp:120] Top shape: 80 480 14 14 (7526400)
I1219 15:02:22.180614 16918 net.cpp:120] Top shape: 80 480 14 14 (7526400)
I1219 15:02:22.180624 16918 layer_factory.hpp:74] Creating layer inception_4a/1x1
I1219 15:02:22.180642 16918 net.cpp:84] Creating Layer inception_4a/1x1
I1219 15:02:22.180652 16918 net.cpp:380] inception_4a/1x1 <- pool3/3x3_s2_pool3/3x3_s2_0_split_0
I1219 15:02:22.180666 16918 net.cpp:338] inception_4a/1x1 -> inception_4a/1x1
I1219 15:02:22.180681 16918 net.cpp:113] Setting up inception_4a/1x1
I1219 15:02:22.183843 16918 net.cpp:120] Top shape: 80 192 14 14 (3010560)
I1219 15:02:22.183881 16918 layer_factory.hpp:74] Creating layer inception_4a/relu_1x1
I1219 15:02:22.183898 16918 net.cpp:84] Creating Layer inception_4a/relu_1x1
I1219 15:02:22.183909 16918 net.cpp:380] inception_4a/relu_1x1 <- inception_4a/1x1
I1219 15:02:22.183924 16918 net.cpp:327] inception_4a/relu_1x1 -> inception_4a/1x1 (in-place)
I1219 15:02:22.183940 16918 net.cpp:113] Setting up inception_4a/relu_1x1
I1219 15:02:22.184617 16918 net.cpp:120] Top shape: 80 192 14 14 (3010560)
I1219 15:02:22.184638 16918 layer_factory.hpp:74] Creating layer inception_4a/3x3_reduce
I1219 15:02:22.184655 16918 net.cpp:84] Creating Layer inception_4a/3x3_reduce
I1219 15:02:22.184666 16918 net.cpp:380] inception_4a/3x3_reduce <- pool3/3x3_s2_pool3/3x3_s2_0_split_1
I1219 15:02:22.184695 16918 net.cpp:338] inception_4a/3x3_reduce -> inception_4a/3x3_reduce
I1219 15:02:22.184727 16918 net.cpp:113] Setting up inception_4a/3x3_reduce
I1219 15:02:22.193254 16918 net.cpp:120] Top shape: 80 96 14 14 (1505280)
I1219 15:02:22.193296 16918 layer_factory.hpp:74] Creating layer inception_4a/relu_3x3_reduce
I1219 15:02:22.193312 16918 net.cpp:84] Creating Layer inception_4a/relu_3x3_reduce
I1219 15:02:22.193323 16918 net.cpp:380] inception_4a/relu_3x3_reduce <- inception_4a/3x3_reduce
I1219 15:02:22.193341 16918 net.cpp:327] inception_4a/relu_3x3_reduce -> inception_4a/3x3_reduce (in-place)
I1219 15:02:22.193356 16918 net.cpp:113] Setting up inception_4a/relu_3x3_reduce
I1219 15:02:22.193486 16918 net.cpp:120] Top shape: 80 96 14 14 (1505280)
I1219 15:02:22.193498 16918 layer_factory.hpp:74] Creating layer inception_4a/3x3
I1219 15:02:22.193518 16918 net.cpp:84] Creating Layer inception_4a/3x3
I1219 15:02:22.193529 16918 net.cpp:380] inception_4a/3x3 <- inception_4a/3x3_reduce
I1219 15:02:22.193545 16918 net.cpp:338] inception_4a/3x3 -> inception_4a/3x3
I1219 15:02:22.193562 16918 net.cpp:113] Setting up inception_4a/3x3
I1219 15:02:22.200124 16918 net.cpp:120] Top shape: 80 208 14 14 (3261440)
I1219 15:02:22.200162 16918 layer_factory.hpp:74] Creating layer inception_4a/relu_3x3
I1219 15:02:22.200183 16918 net.cpp:84] Creating Layer inception_4a/relu_3x3
I1219 15:02:22.200194 16918 net.cpp:380] inception_4a/relu_3x3 <- inception_4a/3x3
I1219 15:02:22.200207 16918 net.cpp:327] inception_4a/relu_3x3 -> inception_4a/3x3 (in-place)
I1219 15:02:22.200222 16918 net.cpp:113] Setting up inception_4a/relu_3x3
I1219 15:02:22.200363 16918 net.cpp:120] Top shape: 80 208 14 14 (3261440)
I1219 15:02:22.200376 16918 layer_factory.hpp:74] Creating layer inception_4a/5x5_reduce
I1219 15:02:22.200392 16918 net.cpp:84] Creating Layer inception_4a/5x5_reduce
I1219 15:02:22.200402 16918 net.cpp:380] inception_4a/5x5_reduce <- pool3/3x3_s2_pool3/3x3_s2_0_split_2
I1219 15:02:22.200417 16918 net.cpp:338] inception_4a/5x5_reduce -> inception_4a/5x5_reduce
I1219 15:02:22.200434 16918 net.cpp:113] Setting up inception_4a/5x5_reduce
I1219 15:02:22.201491 16918 net.cpp:120] Top shape: 80 16 14 14 (250880)
I1219 15:02:22.201525 16918 layer_factory.hpp:74] Creating layer inception_4a/relu_5x5_reduce
I1219 15:02:22.201541 16918 net.cpp:84] Creating Layer inception_4a/relu_5x5_reduce
I1219 15:02:22.201551 16918 net.cpp:380] inception_4a/relu_5x5_reduce <- inception_4a/5x5_reduce
I1219 15:02:22.201570 16918 net.cpp:327] inception_4a/relu_5x5_reduce -> inception_4a/5x5_reduce (in-place)
I1219 15:02:22.201586 16918 net.cpp:113] Setting up inception_4a/relu_5x5_reduce
I1219 15:02:22.201712 16918 net.cpp:120] Top shape: 80 16 14 14 (250880)
I1219 15:02:22.201725 16918 layer_factory.hpp:74] Creating layer inception_4a/5x5
I1219 15:02:22.201783 16918 net.cpp:84] Creating Layer inception_4a/5x5
I1219 15:02:22.201822 16918 net.cpp:380] inception_4a/5x5 <- inception_4a/5x5_reduce
I1219 15:02:22.201858 16918 net.cpp:338] inception_4a/5x5 -> inception_4a/5x5
I1219 15:02:22.201881 16918 net.cpp:113] Setting up inception_4a/5x5
I1219 15:02:22.205483 16918 net.cpp:120] Top shape: 80 48 14 14 (752640)
I1219 15:02:22.205513 16918 layer_factory.hpp:74] Creating layer inception_4a/relu_5x5
I1219 15:02:22.205543 16918 net.cpp:84] Creating Layer inception_4a/relu_5x5
I1219 15:02:22.205552 16918 net.cpp:380] inception_4a/relu_5x5 <- inception_4a/5x5
I1219 15:02:22.205564 16918 net.cpp:327] inception_4a/relu_5x5 -> inception_4a/5x5 (in-place)
I1219 15:02:22.205577 16918 net.cpp:113] Setting up inception_4a/relu_5x5
I1219 15:02:22.208262 16918 net.cpp:120] Top shape: 80 48 14 14 (752640)
I1219 15:02:22.208282 16918 layer_factory.hpp:74] Creating layer inception_4a/pool
I1219 15:02:22.208292 16918 layer_factory.cpp:56] CUDNN does not support padding or multiple tops. Using Caffe's own pooling layer.
I1219 15:02:22.208303 16918 net.cpp:84] Creating Layer inception_4a/pool
I1219 15:02:22.208313 16918 net.cpp:380] inception_4a/pool <- pool3/3x3_s2_pool3/3x3_s2_0_split_3
I1219 15:02:22.208359 16918 net.cpp:338] inception_4a/pool -> inception_4a/pool
I1219 15:02:22.208374 16918 net.cpp:113] Setting up inception_4a/pool
I1219 15:02:22.208391 16918 net.cpp:120] Top shape: 80 480 14 14 (7526400)
I1219 15:02:22.208400 16918 layer_factory.hpp:74] Creating layer inception_4a/pool_proj
I1219 15:02:22.208413 16918 net.cpp:84] Creating Layer inception_4a/pool_proj
I1219 15:02:22.208421 16918 net.cpp:380] inception_4a/pool_proj <- inception_4a/pool
I1219 15:02:22.208436 16918 net.cpp:338] inception_4a/pool_proj -> inception_4a/pool_proj
I1219 15:02:22.208449 16918 net.cpp:113] Setting up inception_4a/pool_proj
I1219 15:02:22.213482 16918 net.cpp:120] Top shape: 80 64 14 14 (1003520)
I1219 15:02:22.213510 16918 layer_factory.hpp:74] Creating layer inception_4a/relu_pool_proj
I1219 15:02:22.213536 16918 net.cpp:84] Creating Layer inception_4a/relu_pool_proj
I1219 15:02:22.213546 16918 net.cpp:380] inception_4a/relu_pool_proj <- inception_4a/pool_proj
I1219 15:02:22.213558 16918 net.cpp:327] inception_4a/relu_pool_proj -> inception_4a/pool_proj (in-place)
I1219 15:02:22.213570 16918 net.cpp:113] Setting up inception_4a/relu_pool_proj
I1219 15:02:22.213682 16918 net.cpp:120] Top shape: 80 64 14 14 (1003520)
I1219 15:02:22.213695 16918 layer_factory.hpp:74] Creating layer inception_4a/output
I1219 15:02:22.213706 16918 net.cpp:84] Creating Layer inception_4a/output
I1219 15:02:22.213714 16918 net.cpp:380] inception_4a/output <- inception_4a/1x1
I1219 15:02:22.213726 16918 net.cpp:380] inception_4a/output <- inception_4a/3x3
I1219 15:02:22.213735 16918 net.cpp:380] inception_4a/output <- inception_4a/5x5
I1219 15:02:22.213743 16918 net.cpp:380] inception_4a/output <- inception_4a/pool_proj
I1219 15:02:22.213757 16918 net.cpp:338] inception_4a/output -> inception_4a/output
I1219 15:02:22.213769 16918 net.cpp:113] Setting up inception_4a/output
I1219 15:02:22.213784 16918 net.cpp:120] Top shape: 80 512 14 14 (8028160)
I1219 15:02:22.213800 16918 layer_factory.hpp:74] Creating layer inception_4a/output_inception_4a/output_0_split
I1219 15:02:22.213812 16918 net.cpp:84] Creating Layer inception_4a/output_inception_4a/output_0_split
I1219 15:02:22.213821 16918 net.cpp:380] inception_4a/output_inception_4a/output_0_split <- inception_4a/output
I1219 15:02:22.213835 16918 net.cpp:338] inception_4a/output_inception_4a/output_0_split -> inception_4a/output_inception_4a/output_0_split_0
I1219 15:02:22.213848 16918 net.cpp:338] inception_4a/output_inception_4a/output_0_split -> inception_4a/output_inception_4a/output_0_split_1
I1219 15:02:22.213861 16918 net.cpp:338] inception_4a/output_inception_4a/output_0_split -> inception_4a/output_inception_4a/output_0_split_2
I1219 15:02:22.213874 16918 net.cpp:338] inception_4a/output_inception_4a/output_0_split -> inception_4a/output_inception_4a/output_0_split_3
I1219 15:02:22.213899 16918 net.cpp:338] inception_4a/output_inception_4a/output_0_split -> inception_4a/output_inception_4a/output_0_split_4
I1219 15:02:22.213912 16918 net.cpp:113] Setting up inception_4a/output_inception_4a/output_0_split
I1219 15:02:22.213925 16918 net.cpp:120] Top shape: 80 512 14 14 (8028160)
I1219 15:02:22.213934 16918 net.cpp:120] Top shape: 80 512 14 14 (8028160)
I1219 15:02:22.213943 16918 net.cpp:120] Top shape: 80 512 14 14 (8028160)
I1219 15:02:22.213953 16918 net.cpp:120] Top shape: 80 512 14 14 (8028160)
I1219 15:02:22.213961 16918 net.cpp:120] Top shape: 80 512 14 14 (8028160)
I1219 15:02:22.213969 16918 layer_factory.hpp:74] Creating layer loss1/ave_pool
I1219 15:02:22.213984 16918 net.cpp:84] Creating Layer loss1/ave_pool
I1219 15:02:22.213992 16918 net.cpp:380] loss1/ave_pool <- inception_4a/output_inception_4a/output_0_split_0
I1219 15:02:22.214002 16918 net.cpp:338] loss1/ave_pool -> loss1/ave_pool
I1219 15:02:22.214015 16918 net.cpp:113] Setting up loss1/ave_pool
I1219 15:02:22.214115 16918 net.cpp:120] Top shape: 80 512 4 4 (655360)
I1219 15:02:22.214128 16918 layer_factory.hpp:74] Creating layer loss1/conv
I1219 15:02:22.214155 16918 net.cpp:84] Creating Layer loss1/conv
I1219 15:02:22.214167 16918 net.cpp:380] loss1/conv <- loss1/ave_pool
I1219 15:02:22.214190 16918 net.cpp:338] loss1/conv -> loss1/conv
I1219 15:02:22.214202 16918 net.cpp:113] Setting up loss1/conv
I1219 15:02:22.217782 16918 net.cpp:120] Top shape: 80 128 4 4 (163840)
I1219 15:02:22.217808 16918 layer_factory.hpp:74] Creating layer loss1/relu_conv
I1219 15:02:22.217844 16918 net.cpp:84] Creating Layer loss1/relu_conv
I1219 15:02:22.217854 16918 net.cpp:380] loss1/relu_conv <- loss1/conv
I1219 15:02:22.217866 16918 net.cpp:327] loss1/relu_conv -> loss1/conv (in-place)
I1219 15:02:22.217878 16918 net.cpp:113] Setting up loss1/relu_conv
I1219 15:02:22.217981 16918 net.cpp:120] Top shape: 80 128 4 4 (163840)
I1219 15:02:22.217991 16918 layer_factory.hpp:74] Creating layer loss1/fc
I1219 15:02:22.218008 16918 net.cpp:84] Creating Layer loss1/fc
I1219 15:02:22.218017 16918 net.cpp:380] loss1/fc <- loss1/conv
I1219 15:02:22.218030 16918 net.cpp:338] loss1/fc -> loss1/fc
I1219 15:02:22.218049 16918 net.cpp:113] Setting up loss1/fc
I1219 15:02:22.318596 16918 net.cpp:120] Top shape: 80 1024 (81920)
I1219 15:02:22.318665 16918 layer_factory.hpp:74] Creating layer loss1/relu_fc
I1219 15:02:22.318683 16918 net.cpp:84] Creating Layer loss1/relu_fc
I1219 15:02:22.318694 16918 net.cpp:380] loss1/relu_fc <- loss1/fc
I1219 15:02:22.318713 16918 net.cpp:327] loss1/relu_fc -> loss1/fc (in-place)
I1219 15:02:22.318729 16918 net.cpp:113] Setting up loss1/relu_fc
I1219 15:02:22.340862 16918 net.cpp:120] Top shape: 80 1024 (81920)
I1219 15:02:22.340906 16918 layer_factory.hpp:74] Creating layer loss1/drop_fc
I1219 15:02:22.340963 16918 net.cpp:84] Creating Layer loss1/drop_fc
I1219 15:02:22.340976 16918 net.cpp:380] loss1/drop_fc <- loss1/fc
I1219 15:02:22.340993 16918 net.cpp:327] loss1/drop_fc -> loss1/fc (in-place)
I1219 15:02:22.341013 16918 net.cpp:113] Setting up loss1/drop_fc
I1219 15:02:22.341030 16918 net.cpp:120] Top shape: 80 1024 (81920)
I1219 15:02:22.341039 16918 layer_factory.hpp:74] Creating layer loss1/classifier_kaggle
I1219 15:02:22.341068 16918 net.cpp:84] Creating Layer loss1/classifier_kaggle
I1219 15:02:22.341079 16918 net.cpp:380] loss1/classifier_kaggle <- loss1/fc
I1219 15:02:22.341096 16918 net.cpp:338] loss1/classifier_kaggle -> loss1/classifier_kaggle
I1219 15:02:22.341112 16918 net.cpp:113] Setting up loss1/classifier_kaggle
I1219 15:02:22.347492 16918 net.cpp:120] Top shape: 80 447 (35760)
I1219 15:02:22.347530 16918 layer_factory.hpp:74] Creating layer loss1/loss
I1219 15:02:22.347546 16918 net.cpp:84] Creating Layer loss1/loss
I1219 15:02:22.347556 16918 net.cpp:380] loss1/loss <- loss1/classifier_kaggle
I1219 15:02:22.347568 16918 net.cpp:380] loss1/loss <- label_data_1_split_0
I1219 15:02:22.347584 16918 net.cpp:338] loss1/loss -> loss1/loss1
I1219 15:02:22.347599 16918 net.cpp:113] Setting up loss1/loss
I1219 15:02:22.347614 16918 layer_factory.hpp:74] Creating layer loss1/loss
I1219 15:02:22.347904 16918 net.cpp:120] Top shape: (1)
I1219 15:02:22.347918 16918 net.cpp:122]     with loss weight 0.3
I1219 15:02:22.347959 16918 layer_factory.hpp:74] Creating layer inception_4b/1x1
I1219 15:02:22.347986 16918 net.cpp:84] Creating Layer inception_4b/1x1
I1219 15:02:22.347996 16918 net.cpp:380] inception_4b/1x1 <- inception_4a/output_inception_4a/output_0_split_1
I1219 15:02:22.348011 16918 net.cpp:338] inception_4b/1x1 -> inception_4b/1x1
I1219 15:02:22.348026 16918 net.cpp:113] Setting up inception_4b/1x1
I1219 15:02:22.353049 16918 net.cpp:120] Top shape: 80 160 14 14 (2508800)
I1219 15:02:22.353102 16918 layer_factory.hpp:74] Creating layer inception_4b/relu_1x1
I1219 15:02:22.353128 16918 net.cpp:84] Creating Layer inception_4b/relu_1x1
I1219 15:02:22.353139 16918 net.cpp:380] inception_4b/relu_1x1 <- inception_4b/1x1
I1219 15:02:22.353154 16918 net.cpp:327] inception_4b/relu_1x1 -> inception_4b/1x1 (in-place)
I1219 15:02:22.353168 16918 net.cpp:113] Setting up inception_4b/relu_1x1
I1219 15:02:22.353283 16918 net.cpp:120] Top shape: 80 160 14 14 (2508800)
I1219 15:02:22.353308 16918 layer_factory.hpp:74] Creating layer inception_4b/3x3_reduce
I1219 15:02:22.353337 16918 net.cpp:84] Creating Layer inception_4b/3x3_reduce
I1219 15:02:22.353345 16918 net.cpp:380] inception_4b/3x3_reduce <- inception_4a/output_inception_4a/output_0_split_2
I1219 15:02:22.353360 16918 net.cpp:338] inception_4b/3x3_reduce -> inception_4b/3x3_reduce
I1219 15:02:22.353375 16918 net.cpp:113] Setting up inception_4b/3x3_reduce
I1219 15:02:22.364027 16918 net.cpp:120] Top shape: 80 112 14 14 (1756160)
I1219 15:02:22.364065 16918 layer_factory.hpp:74] Creating layer inception_4b/relu_3x3_reduce
I1219 15:02:22.364079 16918 net.cpp:84] Creating Layer inception_4b/relu_3x3_reduce
I1219 15:02:22.364089 16918 net.cpp:380] inception_4b/relu_3x3_reduce <- inception_4b/3x3_reduce
I1219 15:02:22.364104 16918 net.cpp:327] inception_4b/relu_3x3_reduce -> inception_4b/3x3_reduce (in-place)
I1219 15:02:22.364117 16918 net.cpp:113] Setting up inception_4b/relu_3x3_reduce
I1219 15:02:22.364228 16918 net.cpp:120] Top shape: 80 112 14 14 (1756160)
I1219 15:02:22.364250 16918 layer_factory.hpp:74] Creating layer inception_4b/3x3
I1219 15:02:22.364271 16918 net.cpp:84] Creating Layer inception_4b/3x3
I1219 15:02:22.364281 16918 net.cpp:380] inception_4b/3x3 <- inception_4b/3x3_reduce
I1219 15:02:22.364298 16918 net.cpp:338] inception_4b/3x3 -> inception_4b/3x3
I1219 15:02:22.364312 16918 net.cpp:113] Setting up inception_4b/3x3
I1219 15:02:22.369623 16918 net.cpp:120] Top shape: 80 224 14 14 (3512320)
I1219 15:02:22.369649 16918 layer_factory.hpp:74] Creating layer inception_4b/relu_3x3
I1219 15:02:22.369671 16918 net.cpp:84] Creating Layer inception_4b/relu_3x3
I1219 15:02:22.369681 16918 net.cpp:380] inception_4b/relu_3x3 <- inception_4b/3x3
I1219 15:02:22.369695 16918 net.cpp:327] inception_4b/relu_3x3 -> inception_4b/3x3 (in-place)
I1219 15:02:22.369709 16918 net.cpp:113] Setting up inception_4b/relu_3x3
I1219 15:02:22.370036 16918 net.cpp:120] Top shape: 80 224 14 14 (3512320)
I1219 15:02:22.370053 16918 layer_factory.hpp:74] Creating layer inception_4b/5x5_reduce
I1219 15:02:22.370069 16918 net.cpp:84] Creating Layer inception_4b/5x5_reduce
I1219 15:02:22.370079 16918 net.cpp:380] inception_4b/5x5_reduce <- inception_4a/output_inception_4a/output_0_split_3
I1219 15:02:22.370091 16918 net.cpp:338] inception_4b/5x5_reduce -> inception_4b/5x5_reduce
I1219 15:02:22.370106 16918 net.cpp:113] Setting up inception_4b/5x5_reduce
I1219 15:02:22.370869 16918 net.cpp:120] Top shape: 80 24 14 14 (376320)
I1219 15:02:22.370893 16918 layer_factory.hpp:74] Creating layer inception_4b/relu_5x5_reduce
I1219 15:02:22.370904 16918 net.cpp:84] Creating Layer inception_4b/relu_5x5_reduce
I1219 15:02:22.370913 16918 net.cpp:380] inception_4b/relu_5x5_reduce <- inception_4b/5x5_reduce
I1219 15:02:22.370925 16918 net.cpp:327] inception_4b/relu_5x5_reduce -> inception_4b/5x5_reduce (in-place)
I1219 15:02:22.370937 16918 net.cpp:113] Setting up inception_4b/relu_5x5_reduce
I1219 15:02:22.371042 16918 net.cpp:120] Top shape: 80 24 14 14 (376320)
I1219 15:02:22.371054 16918 layer_factory.hpp:74] Creating layer inception_4b/5x5
I1219 15:02:22.371079 16918 net.cpp:84] Creating Layer inception_4b/5x5
I1219 15:02:22.371089 16918 net.cpp:380] inception_4b/5x5 <- inception_4b/5x5_reduce
I1219 15:02:22.371101 16918 net.cpp:338] inception_4b/5x5 -> inception_4b/5x5
I1219 15:02:22.371114 16918 net.cpp:113] Setting up inception_4b/5x5
I1219 15:02:22.372205 16918 net.cpp:120] Top shape: 80 64 14 14 (1003520)
I1219 15:02:22.372234 16918 layer_factory.hpp:74] Creating layer inception_4b/relu_5x5
I1219 15:02:22.372247 16918 net.cpp:84] Creating Layer inception_4b/relu_5x5
I1219 15:02:22.372256 16918 net.cpp:380] inception_4b/relu_5x5 <- inception_4b/5x5
I1219 15:02:22.372267 16918 net.cpp:327] inception_4b/relu_5x5 -> inception_4b/5x5 (in-place)
I1219 15:02:22.372279 16918 net.cpp:113] Setting up inception_4b/relu_5x5
I1219 15:02:22.372386 16918 net.cpp:120] Top shape: 80 64 14 14 (1003520)
I1219 15:02:22.372396 16918 layer_factory.hpp:74] Creating layer inception_4b/pool
I1219 15:02:22.372421 16918 layer_factory.cpp:56] CUDNN does not support padding or multiple tops. Using Caffe's own pooling layer.
I1219 15:02:22.372447 16918 net.cpp:84] Creating Layer inception_4b/pool
I1219 15:02:22.372455 16918 net.cpp:380] inception_4b/pool <- inception_4a/output_inception_4a/output_0_split_4
I1219 15:02:22.372469 16918 net.cpp:338] inception_4b/pool -> inception_4b/pool
I1219 15:02:22.372498 16918 net.cpp:113] Setting up inception_4b/pool
I1219 15:02:22.372514 16918 net.cpp:120] Top shape: 80 512 14 14 (8028160)
I1219 15:02:22.372522 16918 layer_factory.hpp:74] Creating layer inception_4b/pool_proj
I1219 15:02:22.372542 16918 net.cpp:84] Creating Layer inception_4b/pool_proj
I1219 15:02:22.372552 16918 net.cpp:380] inception_4b/pool_proj <- inception_4b/pool
I1219 15:02:22.372566 16918 net.cpp:338] inception_4b/pool_proj -> inception_4b/pool_proj
I1219 15:02:22.372581 16918 net.cpp:113] Setting up inception_4b/pool_proj
I1219 15:02:22.373605 16918 net.cpp:120] Top shape: 80 64 14 14 (1003520)
I1219 15:02:22.373628 16918 layer_factory.hpp:74] Creating layer inception_4b/relu_pool_proj
I1219 15:02:22.373639 16918 net.cpp:84] Creating Layer inception_4b/relu_pool_proj
I1219 15:02:22.373649 16918 net.cpp:380] inception_4b/relu_pool_proj <- inception_4b/pool_proj
I1219 15:02:22.373661 16918 net.cpp:327] inception_4b/relu_pool_proj -> inception_4b/pool_proj (in-place)
I1219 15:02:22.373672 16918 net.cpp:113] Setting up inception_4b/relu_pool_proj
I1219 15:02:22.373994 16918 net.cpp:120] Top shape: 80 64 14 14 (1003520)
I1219 15:02:22.374009 16918 layer_factory.hpp:74] Creating layer inception_4b/output
I1219 15:02:22.374033 16918 net.cpp:84] Creating Layer inception_4b/output
I1219 15:02:22.374043 16918 net.cpp:380] inception_4b/output <- inception_4b/1x1
I1219 15:02:22.374054 16918 net.cpp:380] inception_4b/output <- inception_4b/3x3
I1219 15:02:22.374063 16918 net.cpp:380] inception_4b/output <- inception_4b/5x5
I1219 15:02:22.374073 16918 net.cpp:380] inception_4b/output <- inception_4b/pool_proj
I1219 15:02:22.374083 16918 net.cpp:338] inception_4b/output -> inception_4b/output
I1219 15:02:22.374095 16918 net.cpp:113] Setting up inception_4b/output
I1219 15:02:22.374110 16918 net.cpp:120] Top shape: 80 512 14 14 (8028160)
I1219 15:02:22.374119 16918 layer_factory.hpp:74] Creating layer inception_4b/output_inception_4b/output_0_split
I1219 15:02:22.374132 16918 net.cpp:84] Creating Layer inception_4b/output_inception_4b/output_0_split
I1219 15:02:22.374140 16918 net.cpp:380] inception_4b/output_inception_4b/output_0_split <- inception_4b/output
I1219 15:02:22.374151 16918 net.cpp:338] inception_4b/output_inception_4b/output_0_split -> inception_4b/output_inception_4b/output_0_split_0
I1219 15:02:22.374164 16918 net.cpp:338] inception_4b/output_inception_4b/output_0_split -> inception_4b/output_inception_4b/output_0_split_1
I1219 15:02:22.374177 16918 net.cpp:338] inception_4b/output_inception_4b/output_0_split -> inception_4b/output_inception_4b/output_0_split_2
I1219 15:02:22.374192 16918 net.cpp:338] inception_4b/output_inception_4b/output_0_split -> inception_4b/output_inception_4b/output_0_split_3
I1219 15:02:22.374203 16918 net.cpp:113] Setting up inception_4b/output_inception_4b/output_0_split
I1219 15:02:22.374217 16918 net.cpp:120] Top shape: 80 512 14 14 (8028160)
I1219 15:02:22.374227 16918 net.cpp:120] Top shape: 80 512 14 14 (8028160)
I1219 15:02:22.374236 16918 net.cpp:120] Top shape: 80 512 14 14 (8028160)
I1219 15:02:22.374245 16918 net.cpp:120] Top shape: 80 512 14 14 (8028160)
I1219 15:02:22.374253 16918 layer_factory.hpp:74] Creating layer inception_4c/1x1
I1219 15:02:22.374265 16918 net.cpp:84] Creating Layer inception_4c/1x1
I1219 15:02:22.374274 16918 net.cpp:380] inception_4c/1x1 <- inception_4b/output_inception_4b/output_0_split_0
I1219 15:02:22.374289 16918 net.cpp:338] inception_4c/1x1 -> inception_4c/1x1
I1219 15:02:22.374301 16918 net.cpp:113] Setting up inception_4c/1x1
I1219 15:02:22.375758 16918 net.cpp:120] Top shape: 80 128 14 14 (2007040)
I1219 15:02:22.375787 16918 layer_factory.hpp:74] Creating layer inception_4c/relu_1x1
I1219 15:02:22.375818 16918 net.cpp:84] Creating Layer inception_4c/relu_1x1
I1219 15:02:22.375828 16918 net.cpp:380] inception_4c/relu_1x1 <- inception_4c/1x1
I1219 15:02:22.375839 16918 net.cpp:327] inception_4c/relu_1x1 -> inception_4c/1x1 (in-place)
I1219 15:02:22.375852 16918 net.cpp:113] Setting up inception_4c/relu_1x1
I1219 15:02:22.375960 16918 net.cpp:120] Top shape: 80 128 14 14 (2007040)
I1219 15:02:22.375970 16918 layer_factory.hpp:74] Creating layer inception_4c/3x3_reduce
I1219 15:02:22.375988 16918 net.cpp:84] Creating Layer inception_4c/3x3_reduce
I1219 15:02:22.375998 16918 net.cpp:380] inception_4c/3x3_reduce <- inception_4b/output_inception_4b/output_0_split_1
I1219 15:02:22.376014 16918 net.cpp:338] inception_4c/3x3_reduce -> inception_4c/3x3_reduce
I1219 15:02:22.376029 16918 net.cpp:113] Setting up inception_4c/3x3_reduce
I1219 15:02:22.377517 16918 net.cpp:120] Top shape: 80 128 14 14 (2007040)
I1219 15:02:22.377542 16918 layer_factory.hpp:74] Creating layer inception_4c/relu_3x3_reduce
I1219 15:02:22.377553 16918 net.cpp:84] Creating Layer inception_4c/relu_3x3_reduce
I1219 15:02:22.377562 16918 net.cpp:380] inception_4c/relu_3x3_reduce <- inception_4c/3x3_reduce
I1219 15:02:22.377574 16918 net.cpp:327] inception_4c/relu_3x3_reduce -> inception_4c/3x3_reduce (in-place)
I1219 15:02:22.377588 16918 net.cpp:113] Setting up inception_4c/relu_3x3_reduce
I1219 15:02:22.377691 16918 net.cpp:120] Top shape: 80 128 14 14 (2007040)
I1219 15:02:22.377701 16918 layer_factory.hpp:74] Creating layer inception_4c/3x3
I1219 15:02:22.377725 16918 net.cpp:84] Creating Layer inception_4c/3x3
I1219 15:02:22.377735 16918 net.cpp:380] inception_4c/3x3 <- inception_4c/3x3_reduce
I1219 15:02:22.377750 16918 net.cpp:338] inception_4c/3x3 -> inception_4c/3x3
I1219 15:02:22.377764 16918 net.cpp:113] Setting up inception_4c/3x3
I1219 15:02:22.382366 16918 net.cpp:120] Top shape: 80 256 14 14 (4014080)
I1219 15:02:22.382411 16918 layer_factory.hpp:74] Creating layer inception_4c/relu_3x3
I1219 15:02:22.382423 16918 net.cpp:84] Creating Layer inception_4c/relu_3x3
I1219 15:02:22.382432 16918 net.cpp:380] inception_4c/relu_3x3 <- inception_4c/3x3
I1219 15:02:22.382444 16918 net.cpp:327] inception_4c/relu_3x3 -> inception_4c/3x3 (in-place)
I1219 15:02:22.382457 16918 net.cpp:113] Setting up inception_4c/relu_3x3
I1219 15:02:22.382565 16918 net.cpp:120] Top shape: 80 256 14 14 (4014080)
I1219 15:02:22.382578 16918 layer_factory.hpp:74] Creating layer inception_4c/5x5_reduce
I1219 15:02:22.382591 16918 net.cpp:84] Creating Layer inception_4c/5x5_reduce
I1219 15:02:22.382602 16918 net.cpp:380] inception_4c/5x5_reduce <- inception_4b/output_inception_4b/output_0_split_2
I1219 15:02:22.382616 16918 net.cpp:338] inception_4c/5x5_reduce -> inception_4c/5x5_reduce
I1219 15:02:22.382628 16918 net.cpp:113] Setting up inception_4c/5x5_reduce
I1219 15:02:22.383358 16918 net.cpp:120] Top shape: 80 24 14 14 (376320)
I1219 15:02:22.383379 16918 layer_factory.hpp:74] Creating layer inception_4c/relu_5x5_reduce
I1219 15:02:22.383409 16918 net.cpp:84] Creating Layer inception_4c/relu_5x5_reduce
I1219 15:02:22.383419 16918 net.cpp:380] inception_4c/relu_5x5_reduce <- inception_4c/5x5_reduce
I1219 15:02:22.383430 16918 net.cpp:327] inception_4c/relu_5x5_reduce -> inception_4c/5x5_reduce (in-place)
I1219 15:02:22.383443 16918 net.cpp:113] Setting up inception_4c/relu_5x5_reduce
I1219 15:02:22.383767 16918 net.cpp:120] Top shape: 80 24 14 14 (376320)
I1219 15:02:22.383783 16918 layer_factory.hpp:74] Creating layer inception_4c/5x5
I1219 15:02:22.383798 16918 net.cpp:84] Creating Layer inception_4c/5x5
I1219 15:02:22.383807 16918 net.cpp:380] inception_4c/5x5 <- inception_4c/5x5_reduce
I1219 15:02:22.383821 16918 net.cpp:338] inception_4c/5x5 -> inception_4c/5x5
I1219 15:02:22.383834 16918 net.cpp:113] Setting up inception_4c/5x5
I1219 15:02:22.384917 16918 net.cpp:120] Top shape: 80 64 14 14 (1003520)
I1219 15:02:22.384938 16918 layer_factory.hpp:74] Creating layer inception_4c/relu_5x5
I1219 15:02:22.384958 16918 net.cpp:84] Creating Layer inception_4c/relu_5x5
I1219 15:02:22.384981 16918 net.cpp:380] inception_4c/relu_5x5 <- inception_4c/5x5
I1219 15:02:22.384995 16918 net.cpp:327] inception_4c/relu_5x5 -> inception_4c/5x5 (in-place)
I1219 15:02:22.385009 16918 net.cpp:113] Setting up inception_4c/relu_5x5
I1219 15:02:22.385126 16918 net.cpp:120] Top shape: 80 64 14 14 (1003520)
I1219 15:02:22.385139 16918 layer_factory.hpp:74] Creating layer inception_4c/pool
I1219 15:02:22.385149 16918 layer_factory.cpp:56] CUDNN does not support padding or multiple tops. Using Caffe's own pooling layer.
I1219 15:02:22.385159 16918 net.cpp:84] Creating Layer inception_4c/pool
I1219 15:02:22.385169 16918 net.cpp:380] inception_4c/pool <- inception_4b/output_inception_4b/output_0_split_3
I1219 15:02:22.385180 16918 net.cpp:338] inception_4c/pool -> inception_4c/pool
I1219 15:02:22.385193 16918 net.cpp:113] Setting up inception_4c/pool
I1219 15:02:22.385208 16918 net.cpp:120] Top shape: 80 512 14 14 (8028160)
I1219 15:02:22.385216 16918 layer_factory.hpp:74] Creating layer inception_4c/pool_proj
I1219 15:02:22.385242 16918 net.cpp:84] Creating Layer inception_4c/pool_proj
I1219 15:02:22.385252 16918 net.cpp:380] inception_4c/pool_proj <- inception_4c/pool
I1219 15:02:22.385267 16918 net.cpp:338] inception_4c/pool_proj -> inception_4c/pool_proj
I1219 15:02:22.385280 16918 net.cpp:113] Setting up inception_4c/pool_proj
I1219 15:02:22.390411 16918 net.cpp:120] Top shape: 80 64 14 14 (1003520)
I1219 15:02:22.390446 16918 layer_factory.hpp:74] Creating layer inception_4c/relu_pool_proj
I1219 15:02:22.390467 16918 net.cpp:84] Creating Layer inception_4c/relu_pool_proj
I1219 15:02:22.390477 16918 net.cpp:380] inception_4c/relu_pool_proj <- inception_4c/pool_proj
I1219 15:02:22.390488 16918 net.cpp:327] inception_4c/relu_pool_proj -> inception_4c/pool_proj (in-place)
I1219 15:02:22.390501 16918 net.cpp:113] Setting up inception_4c/relu_pool_proj
I1219 15:02:22.390610 16918 net.cpp:120] Top shape: 80 64 14 14 (1003520)
I1219 15:02:22.390620 16918 layer_factory.hpp:74] Creating layer inception_4c/output
I1219 15:02:22.390636 16918 net.cpp:84] Creating Layer inception_4c/output
I1219 15:02:22.390645 16918 net.cpp:380] inception_4c/output <- inception_4c/1x1
I1219 15:02:22.390655 16918 net.cpp:380] inception_4c/output <- inception_4c/3x3
I1219 15:02:22.390664 16918 net.cpp:380] inception_4c/output <- inception_4c/5x5
I1219 15:02:22.390673 16918 net.cpp:380] inception_4c/output <- inception_4c/pool_proj
I1219 15:02:22.390684 16918 net.cpp:338] inception_4c/output -> inception_4c/output
I1219 15:02:22.390697 16918 net.cpp:113] Setting up inception_4c/output
I1219 15:02:22.390710 16918 net.cpp:120] Top shape: 80 512 14 14 (8028160)
I1219 15:02:22.390718 16918 layer_factory.hpp:74] Creating layer inception_4c/output_inception_4c/output_0_split
I1219 15:02:22.390732 16918 net.cpp:84] Creating Layer inception_4c/output_inception_4c/output_0_split
I1219 15:02:22.390740 16918 net.cpp:380] inception_4c/output_inception_4c/output_0_split <- inception_4c/output
I1219 15:02:22.390751 16918 net.cpp:338] inception_4c/output_inception_4c/output_0_split -> inception_4c/output_inception_4c/output_0_split_0
I1219 15:02:22.390764 16918 net.cpp:338] inception_4c/output_inception_4c/output_0_split -> inception_4c/output_inception_4c/output_0_split_1
I1219 15:02:22.390777 16918 net.cpp:338] inception_4c/output_inception_4c/output_0_split -> inception_4c/output_inception_4c/output_0_split_2
I1219 15:02:22.390789 16918 net.cpp:338] inception_4c/output_inception_4c/output_0_split -> inception_4c/output_inception_4c/output_0_split_3
I1219 15:02:22.390800 16918 net.cpp:113] Setting up inception_4c/output_inception_4c/output_0_split
I1219 15:02:22.390813 16918 net.cpp:120] Top shape: 80 512 14 14 (8028160)
I1219 15:02:22.390823 16918 net.cpp:120] Top shape: 80 512 14 14 (8028160)
I1219 15:02:22.390833 16918 net.cpp:120] Top shape: 80 512 14 14 (8028160)
I1219 15:02:22.390842 16918 net.cpp:120] Top shape: 80 512 14 14 (8028160)
I1219 15:02:22.390851 16918 layer_factory.hpp:74] Creating layer inception_4d/1x1
I1219 15:02:22.390888 16918 net.cpp:84] Creating Layer inception_4d/1x1
I1219 15:02:22.390898 16918 net.cpp:380] inception_4d/1x1 <- inception_4c/output_inception_4c/output_0_split_0
I1219 15:02:22.390916 16918 net.cpp:338] inception_4d/1x1 -> inception_4d/1x1
I1219 15:02:22.390930 16918 net.cpp:113] Setting up inception_4d/1x1
I1219 15:02:22.392319 16918 net.cpp:120] Top shape: 80 112 14 14 (1756160)
I1219 15:02:22.392351 16918 layer_factory.hpp:74] Creating layer inception_4d/relu_1x1
I1219 15:02:22.392366 16918 net.cpp:84] Creating Layer inception_4d/relu_1x1
I1219 15:02:22.392375 16918 net.cpp:380] inception_4d/relu_1x1 <- inception_4d/1x1
I1219 15:02:22.392387 16918 net.cpp:327] inception_4d/relu_1x1 -> inception_4d/1x1 (in-place)
I1219 15:02:22.392400 16918 net.cpp:113] Setting up inception_4d/relu_1x1
I1219 15:02:22.392505 16918 net.cpp:120] Top shape: 80 112 14 14 (1756160)
I1219 15:02:22.392516 16918 layer_factory.hpp:74] Creating layer inception_4d/3x3_reduce
I1219 15:02:22.392531 16918 net.cpp:84] Creating Layer inception_4d/3x3_reduce
I1219 15:02:22.392540 16918 net.cpp:380] inception_4d/3x3_reduce <- inception_4c/output_inception_4c/output_0_split_1
I1219 15:02:22.392555 16918 net.cpp:338] inception_4d/3x3_reduce -> inception_4d/3x3_reduce
I1219 15:02:22.392570 16918 net.cpp:113] Setting up inception_4d/3x3_reduce
I1219 15:02:22.394187 16918 net.cpp:120] Top shape: 80 144 14 14 (2257920)
I1219 15:02:22.394212 16918 layer_factory.hpp:74] Creating layer inception_4d/relu_3x3_reduce
I1219 15:02:22.394233 16918 net.cpp:84] Creating Layer inception_4d/relu_3x3_reduce
I1219 15:02:22.394245 16918 net.cpp:380] inception_4d/relu_3x3_reduce <- inception_4d/3x3_reduce
I1219 15:02:22.394258 16918 net.cpp:327] inception_4d/relu_3x3_reduce -> inception_4d/3x3_reduce (in-place)
I1219 15:02:22.394270 16918 net.cpp:113] Setting up inception_4d/relu_3x3_reduce
I1219 15:02:22.394603 16918 net.cpp:120] Top shape: 80 144 14 14 (2257920)
I1219 15:02:22.394620 16918 layer_factory.hpp:74] Creating layer inception_4d/3x3
I1219 15:02:22.394636 16918 net.cpp:84] Creating Layer inception_4d/3x3
I1219 15:02:22.394645 16918 net.cpp:380] inception_4d/3x3 <- inception_4d/3x3_reduce
I1219 15:02:22.394659 16918 net.cpp:338] inception_4d/3x3 -> inception_4d/3x3
I1219 15:02:22.394672 16918 net.cpp:113] Setting up inception_4d/3x3
I1219 15:02:22.400329 16918 net.cpp:120] Top shape: 80 288 14 14 (4515840)
I1219 15:02:22.400352 16918 layer_factory.hpp:74] Creating layer inception_4d/relu_3x3
I1219 15:02:22.400373 16918 net.cpp:84] Creating Layer inception_4d/relu_3x3
I1219 15:02:22.400383 16918 net.cpp:380] inception_4d/relu_3x3 <- inception_4d/3x3
I1219 15:02:22.400398 16918 net.cpp:327] inception_4d/relu_3x3 -> inception_4d/3x3 (in-place)
I1219 15:02:22.400410 16918 net.cpp:113] Setting up inception_4d/relu_3x3
I1219 15:02:22.400519 16918 net.cpp:120] Top shape: 80 288 14 14 (4515840)
I1219 15:02:22.400529 16918 layer_factory.hpp:74] Creating layer inception_4d/5x5_reduce
I1219 15:02:22.400544 16918 net.cpp:84] Creating Layer inception_4d/5x5_reduce
I1219 15:02:22.400553 16918 net.cpp:380] inception_4d/5x5_reduce <- inception_4c/output_inception_4c/output_0_split_2
I1219 15:02:22.400568 16918 net.cpp:338] inception_4d/5x5_reduce -> inception_4d/5x5_reduce
I1219 15:02:22.400581 16918 net.cpp:113] Setting up inception_4d/5x5_reduce
I1219 15:02:22.401432 16918 net.cpp:120] Top shape: 80 32 14 14 (501760)
I1219 15:02:22.401461 16918 layer_factory.hpp:74] Creating layer inception_4d/relu_5x5_reduce
I1219 15:02:22.401484 16918 net.cpp:84] Creating Layer inception_4d/relu_5x5_reduce
I1219 15:02:22.401494 16918 net.cpp:380] inception_4d/relu_5x5_reduce <- inception_4d/5x5_reduce
I1219 15:02:22.401509 16918 net.cpp:327] inception_4d/relu_5x5_reduce -> inception_4d/5x5_reduce (in-place)
I1219 15:02:22.401521 16918 net.cpp:113] Setting up inception_4d/relu_5x5_reduce
I1219 15:02:22.401624 16918 net.cpp:120] Top shape: 80 32 14 14 (501760)
I1219 15:02:22.401634 16918 layer_factory.hpp:74] Creating layer inception_4d/5x5
I1219 15:02:22.401656 16918 net.cpp:84] Creating Layer inception_4d/5x5
I1219 15:02:22.401674 16918 net.cpp:380] inception_4d/5x5 <- inception_4d/5x5_reduce
I1219 15:02:22.401686 16918 net.cpp:338] inception_4d/5x5 -> inception_4d/5x5
I1219 15:02:22.401702 16918 net.cpp:113] Setting up inception_4d/5x5
I1219 15:02:22.402874 16918 net.cpp:120] Top shape: 80 64 14 14 (1003520)
I1219 15:02:22.402895 16918 layer_factory.hpp:74] Creating layer inception_4d/relu_5x5
I1219 15:02:22.402905 16918 net.cpp:84] Creating Layer inception_4d/relu_5x5
I1219 15:02:22.402914 16918 net.cpp:380] inception_4d/relu_5x5 <- inception_4d/5x5
I1219 15:02:22.402926 16918 net.cpp:327] inception_4d/relu_5x5 -> inception_4d/5x5 (in-place)
I1219 15:02:22.402940 16918 net.cpp:113] Setting up inception_4d/relu_5x5
I1219 15:02:22.403039 16918 net.cpp:120] Top shape: 80 64 14 14 (1003520)
I1219 15:02:22.403049 16918 layer_factory.hpp:74] Creating layer inception_4d/pool
I1219 15:02:22.403065 16918 layer_factory.cpp:56] CUDNN does not support padding or multiple tops. Using Caffe's own pooling layer.
I1219 15:02:22.403080 16918 net.cpp:84] Creating Layer inception_4d/pool
I1219 15:02:22.403090 16918 net.cpp:380] inception_4d/pool <- inception_4c/output_inception_4c/output_0_split_3
I1219 15:02:22.403100 16918 net.cpp:338] inception_4d/pool -> inception_4d/pool
I1219 15:02:22.403112 16918 net.cpp:113] Setting up inception_4d/pool
I1219 15:02:22.403126 16918 net.cpp:120] Top shape: 80 512 14 14 (8028160)
I1219 15:02:22.403134 16918 layer_factory.hpp:74] Creating layer inception_4d/pool_proj
I1219 15:02:22.403147 16918 net.cpp:84] Creating Layer inception_4d/pool_proj
I1219 15:02:22.403156 16918 net.cpp:380] inception_4d/pool_proj <- inception_4d/pool
I1219 15:02:22.403168 16918 net.cpp:338] inception_4d/pool_proj -> inception_4d/pool_proj
I1219 15:02:22.403182 16918 net.cpp:113] Setting up inception_4d/pool_proj
I1219 15:02:22.404111 16918 net.cpp:120] Top shape: 80 64 14 14 (1003520)
I1219 15:02:22.404130 16918 layer_factory.hpp:74] Creating layer inception_4d/relu_pool_proj
I1219 15:02:22.404144 16918 net.cpp:84] Creating Layer inception_4d/relu_pool_proj
I1219 15:02:22.404152 16918 net.cpp:380] inception_4d/relu_pool_proj <- inception_4d/pool_proj
I1219 15:02:22.404162 16918 net.cpp:327] inception_4d/relu_pool_proj -> inception_4d/pool_proj (in-place)
I1219 15:02:22.404175 16918 net.cpp:113] Setting up inception_4d/relu_pool_proj
I1219 15:02:22.404472 16918 net.cpp:120] Top shape: 80 64 14 14 (1003520)
I1219 15:02:22.404486 16918 layer_factory.hpp:74] Creating layer inception_4d/output
I1219 15:02:22.404496 16918 net.cpp:84] Creating Layer inception_4d/output
I1219 15:02:22.404505 16918 net.cpp:380] inception_4d/output <- inception_4d/1x1
I1219 15:02:22.404515 16918 net.cpp:380] inception_4d/output <- inception_4d/3x3
I1219 15:02:22.404525 16918 net.cpp:380] inception_4d/output <- inception_4d/5x5
I1219 15:02:22.404534 16918 net.cpp:380] inception_4d/output <- inception_4d/pool_proj
I1219 15:02:22.404544 16918 net.cpp:338] inception_4d/output -> inception_4d/output
I1219 15:02:22.404556 16918 net.cpp:113] Setting up inception_4d/output
I1219 15:02:22.404568 16918 net.cpp:120] Top shape: 80 528 14 14 (8279040)
I1219 15:02:22.404575 16918 layer_factory.hpp:74] Creating layer inception_4d/output_inception_4d/output_0_split
I1219 15:02:22.404585 16918 net.cpp:84] Creating Layer inception_4d/output_inception_4d/output_0_split
I1219 15:02:22.404592 16918 net.cpp:380] inception_4d/output_inception_4d/output_0_split <- inception_4d/output
I1219 15:02:22.404603 16918 net.cpp:338] inception_4d/output_inception_4d/output_0_split -> inception_4d/output_inception_4d/output_0_split_0
I1219 15:02:22.404614 16918 net.cpp:338] inception_4d/output_inception_4d/output_0_split -> inception_4d/output_inception_4d/output_0_split_1
I1219 15:02:22.404629 16918 net.cpp:338] inception_4d/output_inception_4d/output_0_split -> inception_4d/output_inception_4d/output_0_split_2
I1219 15:02:22.404641 16918 net.cpp:338] inception_4d/output_inception_4d/output_0_split -> inception_4d/output_inception_4d/output_0_split_3
I1219 15:02:22.404669 16918 net.cpp:338] inception_4d/output_inception_4d/output_0_split -> inception_4d/output_inception_4d/output_0_split_4
I1219 15:02:22.404680 16918 net.cpp:113] Setting up inception_4d/output_inception_4d/output_0_split
I1219 15:02:22.404692 16918 net.cpp:120] Top shape: 80 528 14 14 (8279040)
I1219 15:02:22.404701 16918 net.cpp:120] Top shape: 80 528 14 14 (8279040)
I1219 15:02:22.404711 16918 net.cpp:120] Top shape: 80 528 14 14 (8279040)
I1219 15:02:22.404718 16918 net.cpp:120] Top shape: 80 528 14 14 (8279040)
I1219 15:02:22.404727 16918 net.cpp:120] Top shape: 80 528 14 14 (8279040)
I1219 15:02:22.404742 16918 layer_factory.hpp:74] Creating layer loss2/ave_pool
I1219 15:02:22.404759 16918 net.cpp:84] Creating Layer loss2/ave_pool
I1219 15:02:22.404767 16918 net.cpp:380] loss2/ave_pool <- inception_4d/output_inception_4d/output_0_split_0
I1219 15:02:22.404778 16918 net.cpp:338] loss2/ave_pool -> loss2/ave_pool
I1219 15:02:22.404789 16918 net.cpp:113] Setting up loss2/ave_pool
I1219 15:02:22.404888 16918 net.cpp:120] Top shape: 80 528 4 4 (675840)
I1219 15:02:22.404897 16918 layer_factory.hpp:74] Creating layer loss2/conv
I1219 15:02:22.404911 16918 net.cpp:84] Creating Layer loss2/conv
I1219 15:02:22.404918 16918 net.cpp:380] loss2/conv <- loss2/ave_pool
I1219 15:02:22.404929 16918 net.cpp:338] loss2/conv -> loss2/conv
I1219 15:02:22.404942 16918 net.cpp:113] Setting up loss2/conv
I1219 15:02:22.406358 16918 net.cpp:120] Top shape: 80 128 4 4 (163840)
I1219 15:02:22.406378 16918 layer_factory.hpp:74] Creating layer loss2/relu_conv
I1219 15:02:22.406389 16918 net.cpp:84] Creating Layer loss2/relu_conv
I1219 15:02:22.406397 16918 net.cpp:380] loss2/relu_conv <- loss2/conv
I1219 15:02:22.406410 16918 net.cpp:327] loss2/relu_conv -> loss2/conv (in-place)
I1219 15:02:22.406421 16918 net.cpp:113] Setting up loss2/relu_conv
I1219 15:02:22.406515 16918 net.cpp:120] Top shape: 80 128 4 4 (163840)
I1219 15:02:22.406527 16918 layer_factory.hpp:74] Creating layer loss2/fc
I1219 15:02:22.406546 16918 net.cpp:84] Creating Layer loss2/fc
I1219 15:02:22.406556 16918 net.cpp:380] loss2/fc <- loss2/conv
I1219 15:02:22.406569 16918 net.cpp:338] loss2/fc -> loss2/fc
I1219 15:02:22.406584 16918 net.cpp:113] Setting up loss2/fc
I1219 15:02:22.500481 16918 net.cpp:120] Top shape: 80 1024 (81920)
I1219 15:02:22.500550 16918 layer_factory.hpp:74] Creating layer loss2/relu_fc
I1219 15:02:22.500569 16918 net.cpp:84] Creating Layer loss2/relu_fc
I1219 15:02:22.500581 16918 net.cpp:380] loss2/relu_fc <- loss2/fc
I1219 15:02:22.500596 16918 net.cpp:327] loss2/relu_fc -> loss2/fc (in-place)
I1219 15:02:22.500609 16918 net.cpp:113] Setting up loss2/relu_fc
I1219 15:02:22.501605 16918 net.cpp:120] Top shape: 80 1024 (81920)
I1219 15:02:22.501622 16918 layer_factory.hpp:74] Creating layer loss2/drop_fc
I1219 15:02:22.501639 16918 net.cpp:84] Creating Layer loss2/drop_fc
I1219 15:02:22.501648 16918 net.cpp:380] loss2/drop_fc <- loss2/fc
I1219 15:02:22.501658 16918 net.cpp:327] loss2/drop_fc -> loss2/fc (in-place)
I1219 15:02:22.501670 16918 net.cpp:113] Setting up loss2/drop_fc
I1219 15:02:22.501682 16918 net.cpp:120] Top shape: 80 1024 (81920)
I1219 15:02:22.501690 16918 layer_factory.hpp:74] Creating layer loss2/classifier_kaggle
I1219 15:02:22.501703 16918 net.cpp:84] Creating Layer loss2/classifier_kaggle
I1219 15:02:22.501711 16918 net.cpp:380] loss2/classifier_kaggle <- loss2/fc
I1219 15:02:22.501724 16918 net.cpp:338] loss2/classifier_kaggle -> loss2/classifier_kaggle
I1219 15:02:22.501737 16918 net.cpp:113] Setting up loss2/classifier_kaggle
I1219 15:02:22.507397 16918 net.cpp:120] Top shape: 80 447 (35760)
I1219 15:02:22.507417 16918 layer_factory.hpp:74] Creating layer loss2/loss
I1219 15:02:22.507438 16918 net.cpp:84] Creating Layer loss2/loss
I1219 15:02:22.507447 16918 net.cpp:380] loss2/loss <- loss2/classifier_kaggle
I1219 15:02:22.507458 16918 net.cpp:380] loss2/loss <- label_data_1_split_1
I1219 15:02:22.507469 16918 net.cpp:338] loss2/loss -> loss2/loss1
I1219 15:02:22.507495 16918 net.cpp:113] Setting up loss2/loss
I1219 15:02:22.507520 16918 layer_factory.hpp:74] Creating layer loss2/loss
I1219 15:02:22.507762 16918 net.cpp:120] Top shape: (1)
I1219 15:02:22.507773 16918 net.cpp:122]     with loss weight 0.3
I1219 15:02:22.507793 16918 layer_factory.hpp:74] Creating layer inception_4e/1x1
I1219 15:02:22.507825 16918 net.cpp:84] Creating Layer inception_4e/1x1
I1219 15:02:22.507835 16918 net.cpp:380] inception_4e/1x1 <- inception_4d/output_inception_4d/output_0_split_1
I1219 15:02:22.507850 16918 net.cpp:338] inception_4e/1x1 -> inception_4e/1x1
I1219 15:02:22.507863 16918 net.cpp:113] Setting up inception_4e/1x1
I1219 15:02:22.510175 16918 net.cpp:120] Top shape: 80 256 14 14 (4014080)
I1219 15:02:22.510200 16918 layer_factory.hpp:74] Creating layer inception_4e/relu_1x1
I1219 15:02:22.510210 16918 net.cpp:84] Creating Layer inception_4e/relu_1x1
I1219 15:02:22.510220 16918 net.cpp:380] inception_4e/relu_1x1 <- inception_4e/1x1
I1219 15:02:22.510231 16918 net.cpp:327] inception_4e/relu_1x1 -> inception_4e/1x1 (in-place)
I1219 15:02:22.510241 16918 net.cpp:113] Setting up inception_4e/relu_1x1
I1219 15:02:22.510340 16918 net.cpp:120] Top shape: 80 256 14 14 (4014080)
I1219 15:02:22.510350 16918 layer_factory.hpp:74] Creating layer inception_4e/3x3_reduce
I1219 15:02:22.510362 16918 net.cpp:84] Creating Layer inception_4e/3x3_reduce
I1219 15:02:22.510370 16918 net.cpp:380] inception_4e/3x3_reduce <- inception_4d/output_inception_4d/output_0_split_2
I1219 15:02:22.510385 16918 net.cpp:338] inception_4e/3x3_reduce -> inception_4e/3x3_reduce
I1219 15:02:22.510397 16918 net.cpp:113] Setting up inception_4e/3x3_reduce
I1219 15:02:22.512089 16918 net.cpp:120] Top shape: 80 160 14 14 (2508800)
I1219 15:02:22.512111 16918 layer_factory.hpp:74] Creating layer inception_4e/relu_3x3_reduce
I1219 15:02:22.512131 16918 net.cpp:84] Creating Layer inception_4e/relu_3x3_reduce
I1219 15:02:22.512142 16918 net.cpp:380] inception_4e/relu_3x3_reduce <- inception_4e/3x3_reduce
I1219 15:02:22.512159 16918 net.cpp:327] inception_4e/relu_3x3_reduce -> inception_4e/3x3_reduce (in-place)
I1219 15:02:22.512171 16918 net.cpp:113] Setting up inception_4e/relu_3x3_reduce
I1219 15:02:22.512279 16918 net.cpp:120] Top shape: 80 160 14 14 (2508800)
I1219 15:02:22.512289 16918 layer_factory.hpp:74] Creating layer inception_4e/3x3
I1219 15:02:22.512305 16918 net.cpp:84] Creating Layer inception_4e/3x3
I1219 15:02:22.512313 16918 net.cpp:380] inception_4e/3x3 <- inception_4e/3x3_reduce
I1219 15:02:22.512326 16918 net.cpp:338] inception_4e/3x3 -> inception_4e/3x3
I1219 15:02:22.512339 16918 net.cpp:113] Setting up inception_4e/3x3
I1219 15:02:22.518746 16918 net.cpp:120] Top shape: 80 320 14 14 (5017600)
I1219 15:02:22.518779 16918 layer_factory.hpp:74] Creating layer inception_4e/relu_3x3
I1219 15:02:22.518792 16918 net.cpp:84] Creating Layer inception_4e/relu_3x3
I1219 15:02:22.518801 16918 net.cpp:380] inception_4e/relu_3x3 <- inception_4e/3x3
I1219 15:02:22.518815 16918 net.cpp:327] inception_4e/relu_3x3 -> inception_4e/3x3 (in-place)
I1219 15:02:22.518826 16918 net.cpp:113] Setting up inception_4e/relu_3x3
I1219 15:02:22.519139 16918 net.cpp:120] Top shape: 80 320 14 14 (5017600)
I1219 15:02:22.519152 16918 layer_factory.hpp:74] Creating layer inception_4e/5x5_reduce
I1219 15:02:22.519165 16918 net.cpp:84] Creating Layer inception_4e/5x5_reduce
I1219 15:02:22.519173 16918 net.cpp:380] inception_4e/5x5_reduce <- inception_4d/output_inception_4d/output_0_split_3
I1219 15:02:22.519188 16918 net.cpp:338] inception_4e/5x5_reduce -> inception_4e/5x5_reduce
I1219 15:02:22.519201 16918 net.cpp:113] Setting up inception_4e/5x5_reduce
I1219 15:02:22.519958 16918 net.cpp:120] Top shape: 80 32 14 14 (501760)
I1219 15:02:22.519979 16918 layer_factory.hpp:74] Creating layer inception_4e/relu_5x5_reduce
I1219 15:02:22.519999 16918 net.cpp:84] Creating Layer inception_4e/relu_5x5_reduce
I1219 15:02:22.520009 16918 net.cpp:380] inception_4e/relu_5x5_reduce <- inception_4e/5x5_reduce
I1219 15:02:22.520020 16918 net.cpp:327] inception_4e/relu_5x5_reduce -> inception_4e/5x5_reduce (in-place)
I1219 15:02:22.520052 16918 net.cpp:113] Setting up inception_4e/relu_5x5_reduce
I1219 15:02:22.520160 16918 net.cpp:120] Top shape: 80 32 14 14 (501760)
I1219 15:02:22.520170 16918 layer_factory.hpp:74] Creating layer inception_4e/5x5
I1219 15:02:22.520208 16918 net.cpp:84] Creating Layer inception_4e/5x5
I1219 15:02:22.520217 16918 net.cpp:380] inception_4e/5x5 <- inception_4e/5x5_reduce
I1219 15:02:22.520231 16918 net.cpp:338] inception_4e/5x5 -> inception_4e/5x5
I1219 15:02:22.520244 16918 net.cpp:113] Setting up inception_4e/5x5
I1219 15:02:22.522095 16918 net.cpp:120] Top shape: 80 128 14 14 (2007040)
I1219 15:02:22.522117 16918 layer_factory.hpp:74] Creating layer inception_4e/relu_5x5
I1219 15:02:22.522128 16918 net.cpp:84] Creating Layer inception_4e/relu_5x5
I1219 15:02:22.522136 16918 net.cpp:380] inception_4e/relu_5x5 <- inception_4e/5x5
I1219 15:02:22.522150 16918 net.cpp:327] inception_4e/relu_5x5 -> inception_4e/5x5 (in-place)
I1219 15:02:22.522161 16918 net.cpp:113] Setting up inception_4e/relu_5x5
I1219 15:02:22.522264 16918 net.cpp:120] Top shape: 80 128 14 14 (2007040)
I1219 15:02:22.522281 16918 layer_factory.hpp:74] Creating layer inception_4e/pool
I1219 15:02:22.522292 16918 layer_factory.cpp:56] CUDNN does not support padding or multiple tops. Using Caffe's own pooling layer.
I1219 15:02:22.522307 16918 net.cpp:84] Creating Layer inception_4e/pool
I1219 15:02:22.522316 16918 net.cpp:380] inception_4e/pool <- inception_4d/output_inception_4d/output_0_split_4
I1219 15:02:22.522328 16918 net.cpp:338] inception_4e/pool -> inception_4e/pool
I1219 15:02:22.522339 16918 net.cpp:113] Setting up inception_4e/pool
I1219 15:02:22.522354 16918 net.cpp:120] Top shape: 80 528 14 14 (8279040)
I1219 15:02:22.522362 16918 layer_factory.hpp:74] Creating layer inception_4e/pool_proj
I1219 15:02:22.522375 16918 net.cpp:84] Creating Layer inception_4e/pool_proj
I1219 15:02:22.522383 16918 net.cpp:380] inception_4e/pool_proj <- inception_4e/pool
I1219 15:02:22.522397 16918 net.cpp:338] inception_4e/pool_proj -> inception_4e/pool_proj
I1219 15:02:22.522408 16918 net.cpp:113] Setting up inception_4e/pool_proj
I1219 15:02:22.523818 16918 net.cpp:120] Top shape: 80 128 14 14 (2007040)
I1219 15:02:22.523838 16918 layer_factory.hpp:74] Creating layer inception_4e/relu_pool_proj
I1219 15:02:22.523850 16918 net.cpp:84] Creating Layer inception_4e/relu_pool_proj
I1219 15:02:22.523859 16918 net.cpp:380] inception_4e/relu_pool_proj <- inception_4e/pool_proj
I1219 15:02:22.523870 16918 net.cpp:327] inception_4e/relu_pool_proj -> inception_4e/pool_proj (in-place)
I1219 15:02:22.523881 16918 net.cpp:113] Setting up inception_4e/relu_pool_proj
I1219 15:02:22.523979 16918 net.cpp:120] Top shape: 80 128 14 14 (2007040)
I1219 15:02:22.523988 16918 layer_factory.hpp:74] Creating layer inception_4e/output
I1219 15:02:22.524009 16918 net.cpp:84] Creating Layer inception_4e/output
I1219 15:02:22.524019 16918 net.cpp:380] inception_4e/output <- inception_4e/1x1
I1219 15:02:22.524027 16918 net.cpp:380] inception_4e/output <- inception_4e/3x3
I1219 15:02:22.524036 16918 net.cpp:380] inception_4e/output <- inception_4e/5x5
I1219 15:02:22.524044 16918 net.cpp:380] inception_4e/output <- inception_4e/pool_proj
I1219 15:02:22.524055 16918 net.cpp:338] inception_4e/output -> inception_4e/output
I1219 15:02:22.524066 16918 net.cpp:113] Setting up inception_4e/output
I1219 15:02:22.524080 16918 net.cpp:120] Top shape: 80 832 14 14 (13045760)
I1219 15:02:22.524096 16918 layer_factory.hpp:74] Creating layer pool4/3x3_s2
I1219 15:02:22.524108 16918 net.cpp:84] Creating Layer pool4/3x3_s2
I1219 15:02:22.524116 16918 net.cpp:380] pool4/3x3_s2 <- inception_4e/output
I1219 15:02:22.524127 16918 net.cpp:338] pool4/3x3_s2 -> pool4/3x3_s2
I1219 15:02:22.524138 16918 net.cpp:113] Setting up pool4/3x3_s2
I1219 15:02:22.524451 16918 net.cpp:120] Top shape: 80 832 7 7 (3261440)
I1219 15:02:22.524464 16918 layer_factory.hpp:74] Creating layer pool4/3x3_s2_pool4/3x3_s2_0_split
I1219 15:02:22.524483 16918 net.cpp:84] Creating Layer pool4/3x3_s2_pool4/3x3_s2_0_split
I1219 15:02:22.524500 16918 net.cpp:380] pool4/3x3_s2_pool4/3x3_s2_0_split <- pool4/3x3_s2
I1219 15:02:22.524513 16918 net.cpp:338] pool4/3x3_s2_pool4/3x3_s2_0_split -> pool4/3x3_s2_pool4/3x3_s2_0_split_0
I1219 15:02:22.524528 16918 net.cpp:338] pool4/3x3_s2_pool4/3x3_s2_0_split -> pool4/3x3_s2_pool4/3x3_s2_0_split_1
I1219 15:02:22.524540 16918 net.cpp:338] pool4/3x3_s2_pool4/3x3_s2_0_split -> pool4/3x3_s2_pool4/3x3_s2_0_split_2
I1219 15:02:22.524551 16918 net.cpp:338] pool4/3x3_s2_pool4/3x3_s2_0_split -> pool4/3x3_s2_pool4/3x3_s2_0_split_3
I1219 15:02:22.524562 16918 net.cpp:113] Setting up pool4/3x3_s2_pool4/3x3_s2_0_split
I1219 15:02:22.524575 16918 net.cpp:120] Top shape: 80 832 7 7 (3261440)
I1219 15:02:22.524585 16918 net.cpp:120] Top shape: 80 832 7 7 (3261440)
I1219 15:02:22.524593 16918 net.cpp:120] Top shape: 80 832 7 7 (3261440)
I1219 15:02:22.524601 16918 net.cpp:120] Top shape: 80 832 7 7 (3261440)
I1219 15:02:22.524610 16918 layer_factory.hpp:74] Creating layer inception_5a/1x1
I1219 15:02:22.524622 16918 net.cpp:84] Creating Layer inception_5a/1x1
I1219 15:02:22.524631 16918 net.cpp:380] inception_5a/1x1 <- pool4/3x3_s2_pool4/3x3_s2_0_split_0
I1219 15:02:22.524642 16918 net.cpp:338] inception_5a/1x1 -> inception_5a/1x1
I1219 15:02:22.524654 16918 net.cpp:113] Setting up inception_5a/1x1
I1219 15:02:22.527909 16918 net.cpp:120] Top shape: 80 256 7 7 (1003520)
I1219 15:02:22.527931 16918 layer_factory.hpp:74] Creating layer inception_5a/relu_1x1
I1219 15:02:22.527956 16918 net.cpp:84] Creating Layer inception_5a/relu_1x1
I1219 15:02:22.527966 16918 net.cpp:380] inception_5a/relu_1x1 <- inception_5a/1x1
I1219 15:02:22.527976 16918 net.cpp:327] inception_5a/relu_1x1 -> inception_5a/1x1 (in-place)
I1219 15:02:22.527988 16918 net.cpp:113] Setting up inception_5a/relu_1x1
I1219 15:02:22.528089 16918 net.cpp:120] Top shape: 80 256 7 7 (1003520)
I1219 15:02:22.528098 16918 layer_factory.hpp:74] Creating layer inception_5a/3x3_reduce
I1219 15:02:22.528118 16918 net.cpp:84] Creating Layer inception_5a/3x3_reduce
I1219 15:02:22.528127 16918 net.cpp:380] inception_5a/3x3_reduce <- pool4/3x3_s2_pool4/3x3_s2_0_split_1
I1219 15:02:22.528138 16918 net.cpp:338] inception_5a/3x3_reduce -> inception_5a/3x3_reduce
I1219 15:02:22.528151 16918 net.cpp:113] Setting up inception_5a/3x3_reduce
I1219 15:02:22.530395 16918 net.cpp:120] Top shape: 80 160 7 7 (627200)
I1219 15:02:22.530416 16918 layer_factory.hpp:74] Creating layer inception_5a/relu_3x3_reduce
I1219 15:02:22.530426 16918 net.cpp:84] Creating Layer inception_5a/relu_3x3_reduce
I1219 15:02:22.530436 16918 net.cpp:380] inception_5a/relu_3x3_reduce <- inception_5a/3x3_reduce
I1219 15:02:22.530448 16918 net.cpp:327] inception_5a/relu_3x3_reduce -> inception_5a/3x3_reduce (in-place)
I1219 15:02:22.530462 16918 net.cpp:113] Setting up inception_5a/relu_3x3_reduce
I1219 15:02:22.530561 16918 net.cpp:120] Top shape: 80 160 7 7 (627200)
I1219 15:02:22.530571 16918 layer_factory.hpp:74] Creating layer inception_5a/3x3
I1219 15:02:22.530586 16918 net.cpp:84] Creating Layer inception_5a/3x3
I1219 15:02:22.530593 16918 net.cpp:380] inception_5a/3x3 <- inception_5a/3x3_reduce
I1219 15:02:22.530606 16918 net.cpp:338] inception_5a/3x3 -> inception_5a/3x3
I1219 15:02:22.530619 16918 net.cpp:113] Setting up inception_5a/3x3
I1219 15:02:22.536998 16918 net.cpp:120] Top shape: 80 320 7 7 (1254400)
I1219 15:02:22.537019 16918 layer_factory.hpp:74] Creating layer inception_5a/relu_3x3
I1219 15:02:22.537044 16918 net.cpp:84] Creating Layer inception_5a/relu_3x3
I1219 15:02:22.537052 16918 net.cpp:380] inception_5a/relu_3x3 <- inception_5a/3x3
I1219 15:02:22.537071 16918 net.cpp:327] inception_5a/relu_3x3 -> inception_5a/3x3 (in-place)
I1219 15:02:22.537083 16918 net.cpp:113] Setting up inception_5a/relu_3x3
I1219 15:02:22.537188 16918 net.cpp:120] Top shape: 80 320 7 7 (1254400)
I1219 15:02:22.537197 16918 layer_factory.hpp:74] Creating layer inception_5a/5x5_reduce
I1219 15:02:22.537211 16918 net.cpp:84] Creating Layer inception_5a/5x5_reduce
I1219 15:02:22.537230 16918 net.cpp:380] inception_5a/5x5_reduce <- pool4/3x3_s2_pool4/3x3_s2_0_split_2
I1219 15:02:22.537255 16918 net.cpp:338] inception_5a/5x5_reduce -> inception_5a/5x5_reduce
I1219 15:02:22.537268 16918 net.cpp:113] Setting up inception_5a/5x5_reduce
I1219 15:02:22.538161 16918 net.cpp:120] Top shape: 80 32 7 7 (125440)
I1219 15:02:22.538188 16918 layer_factory.hpp:74] Creating layer inception_5a/relu_5x5_reduce
I1219 15:02:22.538199 16918 net.cpp:84] Creating Layer inception_5a/relu_5x5_reduce
I1219 15:02:22.538208 16918 net.cpp:380] inception_5a/relu_5x5_reduce <- inception_5a/5x5_reduce
I1219 15:02:22.538221 16918 net.cpp:327] inception_5a/relu_5x5_reduce -> inception_5a/5x5_reduce (in-place)
I1219 15:02:22.538233 16918 net.cpp:113] Setting up inception_5a/relu_5x5_reduce
I1219 15:02:22.538544 16918 net.cpp:120] Top shape: 80 32 7 7 (125440)
I1219 15:02:22.538563 16918 layer_factory.hpp:74] Creating layer inception_5a/5x5
I1219 15:02:22.538584 16918 net.cpp:84] Creating Layer inception_5a/5x5
I1219 15:02:22.538594 16918 net.cpp:380] inception_5a/5x5 <- inception_5a/5x5_reduce
I1219 15:02:22.538606 16918 net.cpp:338] inception_5a/5x5 -> inception_5a/5x5
I1219 15:02:22.538619 16918 net.cpp:113] Setting up inception_5a/5x5
I1219 15:02:22.540501 16918 net.cpp:120] Top shape: 80 128 7 7 (501760)
I1219 15:02:22.540521 16918 layer_factory.hpp:74] Creating layer inception_5a/relu_5x5
I1219 15:02:22.540539 16918 net.cpp:84] Creating Layer inception_5a/relu_5x5
I1219 15:02:22.540547 16918 net.cpp:380] inception_5a/relu_5x5 <- inception_5a/5x5
I1219 15:02:22.540559 16918 net.cpp:327] inception_5a/relu_5x5 -> inception_5a/5x5 (in-place)
I1219 15:02:22.540570 16918 net.cpp:113] Setting up inception_5a/relu_5x5
I1219 15:02:22.540673 16918 net.cpp:120] Top shape: 80 128 7 7 (501760)
I1219 15:02:22.540683 16918 layer_factory.hpp:74] Creating layer inception_5a/pool
I1219 15:02:22.540693 16918 layer_factory.cpp:56] CUDNN does not support padding or multiple tops. Using Caffe's own pooling layer.
I1219 15:02:22.540702 16918 net.cpp:84] Creating Layer inception_5a/pool
I1219 15:02:22.540710 16918 net.cpp:380] inception_5a/pool <- pool4/3x3_s2_pool4/3x3_s2_0_split_3
I1219 15:02:22.540724 16918 net.cpp:338] inception_5a/pool -> inception_5a/pool
I1219 15:02:22.540774 16918 net.cpp:113] Setting up inception_5a/pool
I1219 15:02:22.540789 16918 net.cpp:120] Top shape: 80 832 7 7 (3261440)
I1219 15:02:22.540796 16918 layer_factory.hpp:74] Creating layer inception_5a/pool_proj
I1219 15:02:22.540818 16918 net.cpp:84] Creating Layer inception_5a/pool_proj
I1219 15:02:22.540827 16918 net.cpp:380] inception_5a/pool_proj <- inception_5a/pool
I1219 15:02:22.540838 16918 net.cpp:338] inception_5a/pool_proj -> inception_5a/pool_proj
I1219 15:02:22.540851 16918 net.cpp:113] Setting up inception_5a/pool_proj
I1219 15:02:22.542755 16918 net.cpp:120] Top shape: 80 128 7 7 (501760)
I1219 15:02:22.542778 16918 layer_factory.hpp:74] Creating layer inception_5a/relu_pool_proj
I1219 15:02:22.542798 16918 net.cpp:84] Creating Layer inception_5a/relu_pool_proj
I1219 15:02:22.542807 16918 net.cpp:380] inception_5a/relu_pool_proj <- inception_5a/pool_proj
I1219 15:02:22.542821 16918 net.cpp:327] inception_5a/relu_pool_proj -> inception_5a/pool_proj (in-place)
I1219 15:02:22.542834 16918 net.cpp:113] Setting up inception_5a/relu_pool_proj
I1219 15:02:22.542933 16918 net.cpp:120] Top shape: 80 128 7 7 (501760)
I1219 15:02:22.542945 16918 layer_factory.hpp:74] Creating layer inception_5a/output
I1219 15:02:22.542955 16918 net.cpp:84] Creating Layer inception_5a/output
I1219 15:02:22.542963 16918 net.cpp:380] inception_5a/output <- inception_5a/1x1
I1219 15:02:22.542973 16918 net.cpp:380] inception_5a/output <- inception_5a/3x3
I1219 15:02:22.542982 16918 net.cpp:380] inception_5a/output <- inception_5a/5x5
I1219 15:02:22.542990 16918 net.cpp:380] inception_5a/output <- inception_5a/pool_proj
I1219 15:02:22.543002 16918 net.cpp:338] inception_5a/output -> inception_5a/output
I1219 15:02:22.543015 16918 net.cpp:113] Setting up inception_5a/output
I1219 15:02:22.543036 16918 net.cpp:120] Top shape: 80 832 7 7 (3261440)
I1219 15:02:22.543056 16918 layer_factory.hpp:74] Creating layer inception_5a/output_inception_5a/output_0_split
I1219 15:02:22.543067 16918 net.cpp:84] Creating Layer inception_5a/output_inception_5a/output_0_split
I1219 15:02:22.543076 16918 net.cpp:380] inception_5a/output_inception_5a/output_0_split <- inception_5a/output
I1219 15:02:22.543086 16918 net.cpp:338] inception_5a/output_inception_5a/output_0_split -> inception_5a/output_inception_5a/output_0_split_0
I1219 15:02:22.543098 16918 net.cpp:338] inception_5a/output_inception_5a/output_0_split -> inception_5a/output_inception_5a/output_0_split_1
I1219 15:02:22.543110 16918 net.cpp:338] inception_5a/output_inception_5a/output_0_split -> inception_5a/output_inception_5a/output_0_split_2
I1219 15:02:22.543128 16918 net.cpp:338] inception_5a/output_inception_5a/output_0_split -> inception_5a/output_inception_5a/output_0_split_3
I1219 15:02:22.543139 16918 net.cpp:113] Setting up inception_5a/output_inception_5a/output_0_split
I1219 15:02:22.543153 16918 net.cpp:120] Top shape: 80 832 7 7 (3261440)
I1219 15:02:22.543161 16918 net.cpp:120] Top shape: 80 832 7 7 (3261440)
I1219 15:02:22.543170 16918 net.cpp:120] Top shape: 80 832 7 7 (3261440)
I1219 15:02:22.543179 16918 net.cpp:120] Top shape: 80 832 7 7 (3261440)
I1219 15:02:22.543186 16918 layer_factory.hpp:74] Creating layer inception_5b/1x1
I1219 15:02:22.543200 16918 net.cpp:84] Creating Layer inception_5b/1x1
I1219 15:02:22.543208 16918 net.cpp:380] inception_5b/1x1 <- inception_5a/output_inception_5a/output_0_split_0
I1219 15:02:22.543220 16918 net.cpp:338] inception_5b/1x1 -> inception_5b/1x1
I1219 15:02:22.543231 16918 net.cpp:113] Setting up inception_5b/1x1
I1219 15:02:22.547829 16918 net.cpp:120] Top shape: 80 384 7 7 (1505280)
I1219 15:02:22.547860 16918 layer_factory.hpp:74] Creating layer inception_5b/relu_1x1
I1219 15:02:22.547880 16918 net.cpp:84] Creating Layer inception_5b/relu_1x1
I1219 15:02:22.547890 16918 net.cpp:380] inception_5b/relu_1x1 <- inception_5b/1x1
I1219 15:02:22.547901 16918 net.cpp:327] inception_5b/relu_1x1 -> inception_5b/1x1 (in-place)
I1219 15:02:22.547912 16918 net.cpp:113] Setting up inception_5b/relu_1x1
I1219 15:02:22.548421 16918 net.cpp:120] Top shape: 80 384 7 7 (1505280)
I1219 15:02:22.548436 16918 layer_factory.hpp:74] Creating layer inception_5b/3x3_reduce
I1219 15:02:22.548449 16918 net.cpp:84] Creating Layer inception_5b/3x3_reduce
I1219 15:02:22.548459 16918 net.cpp:380] inception_5b/3x3_reduce <- inception_5a/output_inception_5a/output_0_split_1
I1219 15:02:22.548472 16918 net.cpp:338] inception_5b/3x3_reduce -> inception_5b/3x3_reduce
I1219 15:02:22.548486 16918 net.cpp:113] Setting up inception_5b/3x3_reduce
I1219 15:02:22.551100 16918 net.cpp:120] Top shape: 80 192 7 7 (752640)
I1219 15:02:22.551127 16918 layer_factory.hpp:74] Creating layer inception_5b/relu_3x3_reduce
I1219 15:02:22.551141 16918 net.cpp:84] Creating Layer inception_5b/relu_3x3_reduce
I1219 15:02:22.551151 16918 net.cpp:380] inception_5b/relu_3x3_reduce <- inception_5b/3x3_reduce
I1219 15:02:22.551164 16918 net.cpp:327] inception_5b/relu_3x3_reduce -> inception_5b/3x3_reduce (in-place)
I1219 15:02:22.551179 16918 net.cpp:113] Setting up inception_5b/relu_3x3_reduce
I1219 15:02:22.551292 16918 net.cpp:120] Top shape: 80 192 7 7 (752640)
I1219 15:02:22.551306 16918 layer_factory.hpp:74] Creating layer inception_5b/3x3
I1219 15:02:22.551332 16918 net.cpp:84] Creating Layer inception_5b/3x3
I1219 15:02:22.551345 16918 net.cpp:380] inception_5b/3x3 <- inception_5b/3x3_reduce
I1219 15:02:22.551360 16918 net.cpp:338] inception_5b/3x3 -> inception_5b/3x3
I1219 15:02:22.551404 16918 net.cpp:113] Setting up inception_5b/3x3
I1219 15:02:22.561339 16918 net.cpp:120] Top shape: 80 384 7 7 (1505280)
I1219 15:02:22.561375 16918 layer_factory.hpp:74] Creating layer inception_5b/relu_3x3
I1219 15:02:22.561393 16918 net.cpp:84] Creating Layer inception_5b/relu_3x3
I1219 15:02:22.561405 16918 net.cpp:380] inception_5b/relu_3x3 <- inception_5b/3x3
I1219 15:02:22.561431 16918 net.cpp:327] inception_5b/relu_3x3 -> inception_5b/3x3 (in-place)
I1219 15:02:22.561460 16918 net.cpp:113] Setting up inception_5b/relu_3x3
I1219 15:02:22.561563 16918 net.cpp:120] Top shape: 80 384 7 7 (1505280)
I1219 15:02:22.561575 16918 layer_factory.hpp:74] Creating layer inception_5b/5x5_reduce
I1219 15:02:22.561594 16918 net.cpp:84] Creating Layer inception_5b/5x5_reduce
I1219 15:02:22.561605 16918 net.cpp:380] inception_5b/5x5_reduce <- inception_5a/output_inception_5a/output_0_split_2
I1219 15:02:22.561619 16918 net.cpp:338] inception_5b/5x5_reduce -> inception_5b/5x5_reduce
I1219 15:02:22.561635 16918 net.cpp:113] Setting up inception_5b/5x5_reduce
I1219 15:02:22.562713 16918 net.cpp:120] Top shape: 80 48 7 7 (188160)
I1219 15:02:22.562736 16918 layer_factory.hpp:74] Creating layer inception_5b/relu_5x5_reduce
I1219 15:02:22.562759 16918 net.cpp:84] Creating Layer inception_5b/relu_5x5_reduce
I1219 15:02:22.562773 16918 net.cpp:380] inception_5b/relu_5x5_reduce <- inception_5b/5x5_reduce
I1219 15:02:22.562788 16918 net.cpp:327] inception_5b/relu_5x5_reduce -> inception_5b/5x5_reduce (in-place)
I1219 15:02:22.562803 16918 net.cpp:113] Setting up inception_5b/relu_5x5_reduce
I1219 15:02:22.562916 16918 net.cpp:120] Top shape: 80 48 7 7 (188160)
I1219 15:02:22.562927 16918 layer_factory.hpp:74] Creating layer inception_5b/5x5
I1219 15:02:22.562943 16918 net.cpp:84] Creating Layer inception_5b/5x5
I1219 15:02:22.562954 16918 net.cpp:380] inception_5b/5x5 <- inception_5b/5x5_reduce
I1219 15:02:22.562969 16918 net.cpp:338] inception_5b/5x5 -> inception_5b/5x5
I1219 15:02:22.562984 16918 net.cpp:113] Setting up inception_5b/5x5
I1219 15:02:22.565492 16918 net.cpp:120] Top shape: 80 128 7 7 (501760)
I1219 15:02:22.565515 16918 layer_factory.hpp:74] Creating layer inception_5b/relu_5x5
I1219 15:02:22.565531 16918 net.cpp:84] Creating Layer inception_5b/relu_5x5
I1219 15:02:22.565542 16918 net.cpp:380] inception_5b/relu_5x5 <- inception_5b/5x5
I1219 15:02:22.565556 16918 net.cpp:327] inception_5b/relu_5x5 -> inception_5b/5x5 (in-place)
I1219 15:02:22.565569 16918 net.cpp:113] Setting up inception_5b/relu_5x5
I1219 15:02:22.565893 16918 net.cpp:120] Top shape: 80 128 7 7 (501760)
I1219 15:02:22.565912 16918 layer_factory.hpp:74] Creating layer inception_5b/pool
I1219 15:02:22.565923 16918 layer_factory.cpp:56] CUDNN does not support padding or multiple tops. Using Caffe's own pooling layer.
I1219 15:02:22.565935 16918 net.cpp:84] Creating Layer inception_5b/pool
I1219 15:02:22.565946 16918 net.cpp:380] inception_5b/pool <- inception_5a/output_inception_5a/output_0_split_3
I1219 15:02:22.565961 16918 net.cpp:338] inception_5b/pool -> inception_5b/pool
I1219 15:02:22.565976 16918 net.cpp:113] Setting up inception_5b/pool
I1219 15:02:22.565994 16918 net.cpp:120] Top shape: 80 832 7 7 (3261440)
I1219 15:02:22.566002 16918 layer_factory.hpp:74] Creating layer inception_5b/pool_proj
I1219 15:02:22.566030 16918 net.cpp:84] Creating Layer inception_5b/pool_proj
I1219 15:02:22.566040 16918 net.cpp:380] inception_5b/pool_proj <- inception_5b/pool
I1219 15:02:22.566056 16918 net.cpp:338] inception_5b/pool_proj -> inception_5b/pool_proj
I1219 15:02:22.566072 16918 net.cpp:113] Setting up inception_5b/pool_proj
I1219 15:02:22.567982 16918 net.cpp:120] Top shape: 80 128 7 7 (501760)
I1219 15:02:22.568007 16918 layer_factory.hpp:74] Creating layer inception_5b/relu_pool_proj
I1219 15:02:22.568020 16918 net.cpp:84] Creating Layer inception_5b/relu_pool_proj
I1219 15:02:22.568029 16918 net.cpp:380] inception_5b/relu_pool_proj <- inception_5b/pool_proj
I1219 15:02:22.568052 16918 net.cpp:327] inception_5b/relu_pool_proj -> inception_5b/pool_proj (in-place)
I1219 15:02:22.568065 16918 net.cpp:113] Setting up inception_5b/relu_pool_proj
I1219 15:02:22.568176 16918 net.cpp:120] Top shape: 80 128 7 7 (501760)
I1219 15:02:22.568188 16918 layer_factory.hpp:74] Creating layer inception_5b/output
I1219 15:02:22.568199 16918 net.cpp:84] Creating Layer inception_5b/output
I1219 15:02:22.568208 16918 net.cpp:380] inception_5b/output <- inception_5b/1x1
I1219 15:02:22.568236 16918 net.cpp:380] inception_5b/output <- inception_5b/3x3
I1219 15:02:22.568245 16918 net.cpp:380] inception_5b/output <- inception_5b/5x5
I1219 15:02:22.568254 16918 net.cpp:380] inception_5b/output <- inception_5b/pool_proj
I1219 15:02:22.568264 16918 net.cpp:338] inception_5b/output -> inception_5b/output
I1219 15:02:22.568276 16918 net.cpp:113] Setting up inception_5b/output
I1219 15:02:22.568289 16918 net.cpp:120] Top shape: 80 1024 7 7 (4014080)
I1219 15:02:22.568297 16918 layer_factory.hpp:74] Creating layer pool5/7x7_s1
I1219 15:02:22.568308 16918 net.cpp:84] Creating Layer pool5/7x7_s1
I1219 15:02:22.568315 16918 net.cpp:380] pool5/7x7_s1 <- inception_5b/output
I1219 15:02:22.568331 16918 net.cpp:338] pool5/7x7_s1 -> pool5/7x7_s1
I1219 15:02:22.568341 16918 net.cpp:113] Setting up pool5/7x7_s1
I1219 15:02:22.568449 16918 net.cpp:120] Top shape: 80 1024 1 1 (81920)
I1219 15:02:22.568459 16918 layer_factory.hpp:74] Creating layer pool5/drop_7x7_s1
I1219 15:02:22.568478 16918 net.cpp:84] Creating Layer pool5/drop_7x7_s1
I1219 15:02:22.568486 16918 net.cpp:380] pool5/drop_7x7_s1 <- pool5/7x7_s1
I1219 15:02:22.568500 16918 net.cpp:327] pool5/drop_7x7_s1 -> pool5/7x7_s1 (in-place)
I1219 15:02:22.568511 16918 net.cpp:113] Setting up pool5/drop_7x7_s1
I1219 15:02:22.568522 16918 net.cpp:120] Top shape: 80 1024 1 1 (81920)
I1219 15:02:22.568531 16918 layer_factory.hpp:74] Creating layer loss3/classifier_kaggle
I1219 15:02:22.568542 16918 net.cpp:84] Creating Layer loss3/classifier_kaggle
I1219 15:02:22.568550 16918 net.cpp:380] loss3/classifier_kaggle <- pool5/7x7_s1
I1219 15:02:22.568563 16918 net.cpp:338] loss3/classifier_kaggle -> loss3/classifier_kaggle
I1219 15:02:22.568577 16918 net.cpp:113] Setting up loss3/classifier_kaggle
I1219 15:02:22.574404 16918 net.cpp:120] Top shape: 80 447 (35760)
I1219 15:02:22.574424 16918 layer_factory.hpp:74] Creating layer loss3/loss3
I1219 15:02:22.574440 16918 net.cpp:84] Creating Layer loss3/loss3
I1219 15:02:22.574448 16918 net.cpp:380] loss3/loss3 <- loss3/classifier_kaggle
I1219 15:02:22.574458 16918 net.cpp:380] loss3/loss3 <- label_data_1_split_2
I1219 15:02:22.574468 16918 net.cpp:338] loss3/loss3 -> loss3/loss3
I1219 15:02:22.574481 16918 net.cpp:113] Setting up loss3/loss3
…
I1219 15:02:22.582782 16918 net.cpp:257] The NetState phase (1) differed from the phase (0) specified by a rule in layer data
I1219 15:02:22.585197 16918 net.cpp:42] Initializing net from parameters: 
name: "MYNET"
state {
  phase: TEST
}
layer {
  name: "data"
  type: "ImageData"
  top: "data"
  top: "label"
  include {
    phase: TEST
  }
  transform_param {
    mirror: false
    crop_size: 224
    mean_value: 129
    mean_value: 129
    mean_value: 129
  }
  image_data_param {
    source: "/home/coldmanck/kaggle/label_val_full.txt"
    batch_size: 50
    shuffle: true
  }
}
layer {
  name: "conv1/7x7_s2"
  type: "Convolution"
  bottom: "data"
  top: "conv1/7x7_s2"
  param {
    lr_mult: 1
    decay_mult: 1
  }
  param {
    lr_mult: 2
    decay_mult: 0
  }
  convolution_param {
    num_output: 64
    pad: 3
    kernel_size: 7
    stride: 2
    weight_filler {
      type: "xavier"
    }
    bias_filler {
      type: "constant"
      value: 0.2
    }
  }
}
layer {
  name: "conv1/relu_7x7"
  type: "ReLU"
  bottom: "conv1/7x7_s2"
  top: "conv1/7x7_s2"
}
layer {
  name: "pool1/3x3_s2"
  type: "Pooling"
  bottom: "conv1/7x7_s2"
  top: "pool1/3x3_s2"
  pooling_param {
    pool: MAX
    kernel_size: 3
    stride: 2
  }
}
layer {
  name: "pool1/norm1"
  type: "LRN"
  bottom: "pool1/3x3_s2"
  top: "pool1/norm1"
  lrn_param {
    local_size: 5
    alpha: 0.0001
    beta: 0.75
  }
}
layer {
  name: "conv2/3x3_reduce"
  type: "Convolution"
  bottom: "pool1/norm1"
  top: "conv2/3x3_reduce"
  param {
    lr_mult: 1
    decay_mult: 1
  }
  param {
    lr_mult: 2
    decay_mult: 0
  }
  convolution_param {
    num_output: 64
    kernel_size: 1
    weight_filler {
      type: "xavier"
    }
    bias_filler {
      type: "constant"
      value: 0.2
    }
  }
}
layer {
  name: "conv2/relu_3x3_reduce"
  type: "ReLU"
  bottom: "conv2/3x3_reduce"
  top: "conv2/3x3_reduce"
}
layer {
  name: "conv2/3x3"
  type: "Convolution"
  bottom: "conv2/3x3_reduce"
  top: "conv2/3x3"
  param {
    lr_mult: 1
    decay_mult: 1
  }
  param {
    lr_mult: 2
    decay_mult: 0
  }
  convolution_param {
    num_output: 192
    pad: 1
    kernel_size: 3
    weight_filler {
      type: "xavier"
    }
    bias_filler {
      type: "constant"
      value: 0.2
    }
  }
}
layer {
  name: "conv2/relu_3x3"
  type: "ReLU"
  bottom: "conv2/3x3"
  top: "conv2/3x3"
}
layer {
  name: "conv2/norm2"
  type: "LRN"
  bottom: "conv2/3x3"
  top: "conv2/norm2"
  lrn_param {
    local_size: 5
    alpha: 0.0001
    beta: 0.75
  }
}
layer {
  name: "pool2/3x3_s2"
  type: "Pooling"
  bottom: "conv2/norm2"
  top: "pool2/3x3_s2"
  pooling_param {
    pool: MAX
    kernel_size: 3
    stride: 2
  }
}
layer {
  name: "inception_3a/1x1"
  type: "Convolution"
  bottom: "pool2/3x3_s2"
  top: "inception_3a/1x1"
  param {
    lr_mult: 1
    decay_mult: 1
  }
  param {
    lr_mult: 2
    decay_mult: 0
  }
  convolution_param {
    num_output: 64
    kernel_size: 1
    weight_filler {
      type: "xavier"
    }
    bias_filler {
      type: "constant"
      value: 0.2
    }
  }
}
layer {
  name: "inception_3a/relu_1x1"
  type: "ReLU"
  bottom: "inception_3a/1x1"
  top: "inception_3a/1x1"
}
layer {
  name: "inception_3a/3x3_reduce"
  type: "Convolution"
  bottom: "pool2/3x3_s2"
  top: "inception_3a/3x3_reduce"
  param {
    lr_mult: 1
    decay_mult: 1
  }
  param {
    lr_mult: 2
    decay_mult: 0
  }
  convolution_param {
    num_output: 96
    kernel_size: 1
    weight_filler {
      type: "xavier"
    }
    bias_filler {
      type: "constant"
      value: 0.2
    }
  }
}
layer {
  name: "inception_3a/relu_3x3_reduce"
  type: "ReLU"
  bottom: "inception_3a/3x3_reduce"
  top: "inception_3a/3x3_reduce"
}
layer {
  name: "inception_3a/3x3"
  type: "Convolution"
  bottom: "inception_3a/3x3_reduce"
  top: "inception_3a/3x3"
  param {
    lr_mult: 1
    decay_mult: 1
  }
  param {
    lr_mult: 2
    decay_mult: 0
  }
  convolution_param {
    num_output: 128
    pad: 1
    kernel_size: 3
    weight_filler {
      type: "xavier"
    }
    bias_filler {
      type: "constant"
      value: 0.2
    }
  }
}
layer {
  name: "inception_3a/relu_3x3"
  type: "ReLU"
  bottom: "inception_3a/3x3"
  top: "inception_3a/3x3"
}
layer {
  name: "inception_3a/5x5_reduce"
  type: "Convolution"
  bottom: "pool2/3x3_s2"
  top: "inception_3a/5x5_reduce"
  param {
    lr_mult: 1
    decay_mult: 1
  }
  param {
    lr_mult: 2
    decay_mult: 0
  }
  convolution_param {
    num_output: 16
    kernel_size: 1
    weight_filler {
      type: "xavier"
    }
    bias_filler {
      type: "constant"
      value: 0.2
    }
  }
}
layer {
  name: "inception_3a/relu_5x5_reduce"
  type: "ReLU"
  bottom: "inception_3a/5x5_reduce"
  top: "inception_3a/5x5_reduce"
}
layer {
  name: "inception_3a/5x5"
  type: "Convolution"
  bottom: "inception_3a/5x5_reduce"
  top: "inception_3a/5x5"
  param {
    lr_mult: 1
    decay_mult: 1
  }
  param {
    lr_mult: 2
    decay_mult: 0
  }
  convolution_param {
    num_output: 32
    pad: 2
    kernel_size: 5
    weight_filler {
      type: "xavier"
    }
    bias_filler {
      type: "constant"
      value: 0.2
    }
  }
}
layer {
  name: "inception_3a/relu_5x5"
  type: "ReLU"
  bottom: "inception_3a/5x5"
  top: "inception_3a/5x5"
}
layer {
  name: "inception_3a/pool"
  type: "Pooling"
  bottom: "pool2/3x3_s2"
  top: "inception_3a/pool"
  pooling_param {
    pool: MAX
    kernel_size: 3
    stride: 1
    pad: 1
  }
}
layer {
  name: "inception_3a/pool_proj"
  type: "Convolution"
  bottom: "inception_3a/pool"
  top: "inception_3a/pool_proj"
  param {
    lr_mult: 1
    decay_mult: 1
  }
  param {
    lr_mult: 2
    decay_mult: 0
  }
  convolution_param {
    num_output: 32
    kernel_size: 1
    weight_filler {
      type: "xavier"
    }
    bias_filler {
      type: "constant"
      value: 0.2
    }
  }
}
layer {
  name: "inception_3a/relu_pool_proj"
  type: "ReLU"
  bottom: "inception_3a/pool_proj"
  top: "inception_3a/pool_proj"
}
layer {
  name: "inception_3a/output"
  type: "Concat"
  bottom: "inception_3a/1x1"
  bottom: "inception_3a/3x3"
  bottom: "inception_3a/5x5"
  bottom: "inception_3a/pool_proj"
  top: "inception_3a/output"
}
layer {
  name: "inception_3b/1x1"
  type: "Convolution"
  bottom: "inception_3a/output"
  top: "inception_3b/1x1"
  param {
    lr_mult: 1
    decay_mult: 1
  }
  param {
    lr_mult: 2
    decay_mult: 0
  }
  convolution_param {
    num_output: 128
    kernel_size: 1
    weight_filler {
      type: "xavier"
    }
    bias_filler {
      type: "constant"
      value: 0.2
    }
  }
}
layer {
  name: "inception_3b/relu_1x1"
  type: "ReLU"
  bottom: "inception_3b/1x1"
  top: "inception_3b/1x1"
}
layer {
  name: "inception_3b/3x3_reduce"
  type: "Convolution"
  bottom: "inception_3a/output"
  top: "inception_3b/3x3_reduce"
  param {
    lr_mult: 1
    decay_mult: 1
  }
  param {
    lr_mult: 2
    decay_mult: 0
  }
  convolution_param {
    num_output: 128
    kernel_size: 1
    weight_filler {
      type: "xavier"
    }
    bias_filler {
      type: "constant"
      value: 0.2
    }
  }
}
layer {
  name: "inception_3b/relu_3x3_reduce"
  type: "ReLU"
  bottom: "inception_3b/3x3_reduce"
  top: "inception_3b/3x3_reduce"
}
layer {
  name: "inception_3b/3x3"
  type: "Convolution"
  bottom: "inception_3b/3x3_reduce"
  top: "inception_3b/3x3"
  param {
    lr_mult: 1
    decay_mult: 1
  }
  param {
    lr_mult: 2
    decay_mult: 0
  }
  convolution_param {
    num_output: 192
    pad: 1
    kernel_size: 3
    weight_filler {
      type: "xavier"
    }
    bias_filler {
      type: "constant"
      value: 0.2
    }
  }
}
layer {
  name: "inception_3b/relu_3x3"
  type: "ReLU"
  bottom: "inception_3b/3x3"
  top: "inception_3b/3x3"
}
layer {
  name: "inception_3b/5x5_reduce"
  type: "Convolution"
  bottom: "inception_3a/output"
  top: "inception_3b/5x5_reduce"
  param {
    lr_mult: 1
    decay_mult: 1
  }
  param {
    lr_mult: 2
    decay_mult: 0
  }
  convolution_param {
    num_output: 32
    kernel_size: 1
    weight_filler {
      type: "xavier"
    }
    bias_filler {
      type: "constant"
      value: 0.2
    }
  }
}
layer {
  name: "inception_3b/relu_5x5_reduce"
  type: "ReLU"
  bottom: "inception_3b/5x5_reduce"
  top: "inception_3b/5x5_reduce"
}
layer {
  name: "inception_3b/5x5"
  type: "Convolution"
  bottom: "inception_3b/5x5_reduce"
  top: "inception_3b/5x5"
  param {
    lr_mult: 1
    decay_mult: 1
  }
  param {
    lr_mult: 2
    decay_mult: 0
  }
  convolution_param {
    num_output: 96
    pad: 2
    kernel_size: 5
    weight_filler {
      type: "xavier"
    }
    bias_filler {
      type: "constant"
      value: 0.2
    }
  }
}
layer {
  name: "inception_3b/relu_5x5"
  type: "ReLU"
  bottom: "inception_3b/5x5"
  top: "inception_3b/5x5"
}
layer {
  name: "inception_3b/pool"
  type: "Pooling"
  bottom: "inception_3a/output"
  top: "inception_3b/pool"
  pooling_param {
    pool: MAX
    kernel_size: 3
    stride: 1
    pad: 1
  }
}
layer {
  name: "inception_3b/pool_proj"
  type: "Convolution"
  bottom: "inception_3b/pool"
  top: "inception_3b/pool_proj"
  param {
    lr_mult: 1
    decay_mult: 1
  }
  param {
    lr_mult: 2
    decay_mult: 0
  }
  convolution_param {
    num_output: 64
    kernel_size: 1
    weight_filler {
      type: "xavier"
    }
    bias_filler {
      type: "constant"
      value: 0.2
    }
  }
}
layer {
  name: "inception_3b/relu_pool_proj"
  type: "ReLU"
  bottom: "inception_3b/pool_proj"
  top: "inception_3b/pool_proj"
}
layer {
  name: "inception_3b/output"
  type: "Concat"
  bottom: "inception_3b/1x1"
  bottom: "inception_3b/3x3"
  bottom: "inception_3b/5x5"
  bottom: "inception_3b/pool_proj"
  top: "inception_3b/output"
}
layer {
  name: "pool3/3x3_s2"
  type: "Pooling"
  bottom: "inception_3b/output"
  top: "pool3/3x3_s2"
  pooling_param {
    pool: MAX
    kernel_size: 3
    stride: 2
  }
}
layer {
  name: "inception_4a/1x1"
  type: "Convolution"
  bottom: "pool3/3x3_s2"
  top: "inception_4a/1x1"
  param {
    lr_mult: 1
    decay_mult: 1
  }
  param {
    lr_mult: 2
    decay_mult: 0
  }
  convolution_param {
    num_output: 192
    kernel_size: 1
    weight_filler {
      type: "xavier"
    }
    bias_filler {
      type: "constant"
      value: 0.2
    }
  }
}
layer {
  name: "inception_4a/relu_1x1"
  type: "ReLU"
  bottom: "inception_4a/1x1"
  top: "inception_4a/1x1"
}
layer {
  name: "inception_4a/3x3_reduce"
  type: "Convolution"
  bottom: "pool3/3x3_s2"
  top: "inception_4a/3x3_reduce"
  param {
    lr_mult: 1
    decay_mult: 1
  }
  param {
    lr_mult: 2
    decay_mult: 0
  }
  convolution_param {
    num_output: 96
    kernel_size: 1
    weight_filler {
      type: "xavier"
    }
    bias_filler {
      type: "constant"
      value: 0.2
    }
  }
}
layer {
  name: "inception_4a/relu_3x3_reduce"
  type: "ReLU"
  bottom: "inception_4a/3x3_reduce"
  top: "inception_4a/3x3_reduce"
}
layer {
  name: "inception_4a/3x3"
  type: "Convolution"
  bottom: "inception_4a/3x3_reduce"
  top: "inception_4a/3x3"
  param {
    lr_mult: 1
    decay_mult: 1
  }
  param {
    lr_mult: 2
    decay_mult: 0
  }
  convolution_param {
    num_output: 208
    pad: 1
    kernel_size: 3
    weight_filler {
      type: "xavier"
    }
    bias_filler {
      type: "constant"
      value: 0.2
    }
  }
}
layer {
  name: "inception_4a/relu_3x3"
  type: "ReLU"
  bottom: "inception_4a/3x3"
  top: "inception_4a/3x3"
}
layer {
  name: "inception_4a/5x5_reduce"
  type: "Convolution"
  bottom: "pool3/3x3_s2"
  top: "inception_4a/5x5_reduce"
  param {
    lr_mult: 1
    decay_mult: 1
  }
  param {
    lr_mult: 2
    decay_mult: 0
  }
  convolution_param {
    num_output: 16
    kernel_size: 1
    weight_filler {
      type: "xavier"
    }
    bias_filler {
      type: "constant"
      value: 0.2
    }
  }
}
layer {
  name: "inception_4a/relu_5x5_reduce"
  type: "ReLU"
  bottom: "inception_4a/5x5_reduce"
  top: "inception_4a/5x5_reduce"
}
layer {
  name: "inception_4a/5x5"
  type: "Convolution"
  bottom: "inception_4a/5x5_reduce"
  top: "inception_4a/5x5"
  param {
    lr_mult: 1
    decay_mult: 1
  }
  param {
    lr_mult: 2
    decay_mult: 0
  }
  convolution_param {
    num_output: 48
    pad: 2
    kernel_size: 5
    weight_filler {
      type: "xavier"
    }
    bias_filler {
      type: "constant"
      value: 0.2
    }
  }
}
layer {
  name: "inception_4a/relu_5x5"
  type: "ReLU"
  bottom: "inception_4a/5x5"
  top: "inception_4a/5x5"
}
layer {
  name: "inception_4a/pool"
  type: "Pooling"
  bottom: "pool3/3x3_s2"
  top: "inception_4a/pool"
  pooling_param {
    pool: MAX
    kernel_size: 3
    stride: 1
    pad: 1
  }
}
layer {
  name: "inception_4a/pool_proj"
  type: "Convolution"
  bottom: "inception_4a/pool"
  top: "inception_4a/pool_proj"
  param {
    lr_mult: 1
    decay_mult: 1
  }
  param {
    lr_mult: 2
    decay_mult: 0
  }
  convolution_param {
    num_output: 64
    kernel_size: 1
    weight_filler {
      type: "xavier"
    }
    bias_filler {
      type: "constant"
      value: 0.2
    }
  }
}
layer {
  name: "inception_4a/relu_pool_proj"
  type: "ReLU"
  bottom: "inception_4a/pool_proj"
  top: "inception_4a/pool_proj"
}
layer {
  name: "inception_4a/output"
  type: "Concat"
  bottom: "inception_4a/1x1"
  bottom: "inception_4a/3x3"
  bottom: "inception_4a/5x5"
  bottom: "inception_4a/pool_proj"
  top: "inception_4a/output"
}
layer {
  name: "loss1/ave_pool"
  type: "Pooling"
  bottom: "inception_4a/output"
  top: "loss1/ave_pool"
  pooling_param {
    pool: AVE
    kernel_size: 5
    stride: 3
  }
}
layer {
  name: "loss1/conv"
  type: "Convolution"
  bottom: "loss1/ave_pool"
  top: "loss1/conv"
  param {
    lr_mult: 1
    decay_mult: 1
  }
  param {
    lr_mult: 2
    decay_mult: 0
  }
  convolution_param {
    num_output: 128
    kernel_size: 1
    weight_filler {
      type: "xavier"
    }
    bias_filler {
      type: "constant"
      value: 0.2
    }
  }
}
layer {
  name: "loss1/relu_conv"
  type: "ReLU"
  bottom: "loss1/conv"
  top: "loss1/conv"
}
layer {
  name: "loss1/fc"
  type: "InnerProduct"
  bottom: "loss1/conv"
  top: "loss1/fc"
  param {
    lr_mult: 1
    decay_mult: 1
  }
  param {
    lr_mult: 2
    decay_mult: 0
  }
  inner_product_param {
    num_output: 1024
    weight_filler {
      type: "xavier"
    }
    bias_filler {
      type: "constant"
      value: 0.2
    }
  }
}
layer {
  name: "loss1/relu_fc"
  type: "ReLU"
  bottom: "loss1/fc"
  top: "loss1/fc"
}
layer {
  name: "loss1/drop_fc"
  type: "Dropout"
  bottom: "loss1/fc"
  top: "loss1/fc"
  dropout_param {
    dropout_ratio: 0.7
  }
}
layer {
  name: "loss1/classifier_kaggle"
  type: "InnerProduct"
  bottom: "loss1/fc"
  top: "loss1/classifier_kaggle"
  param {
    lr_mult: 1
    decay_mult: 1
  }
  param {
    lr_mult: 2
    decay_mult: 0
  }
  inner_product_param {
    num_output: 447
    weight_filler {
      type: "xavier"
    }
    bias_filler {
      type: "constant"
      value: 0
    }
  }
}
layer {
  name: "loss1/loss"
  type: "SoftmaxWithLoss"
  bottom: "loss1/classifier_kaggle"
  bottom: "label"
  top: "loss1/loss1"
  loss_weight: 0.3
}
layer {
  name: "loss1/top-1"
  type: "Accuracy"
  bottom: "loss1/classifier_kaggle"
  bottom: "label"
  top: "loss1/top-1"
  include {
    phase: TEST
  }
}
layer {
  name: "loss1/top-5"
  type: "Accuracy"
  bottom: "loss1/classifier_kaggle"
  bottom: "label"
  top: "loss1/top-5"
  include {
    phase: TEST
  }
  accuracy_param {
    top_k: 5
  }
}
layer {
  name: "inception_4b/1x1"
  type: "Convolution"
  bottom: "inception_4a/output"
  top: "inception_4b/1x1"
  param {
    lr_mult: 1
    decay_mult: 1
  }
  param {
    lr_mult: 2
    decay_mult: 0
  }
  convolution_param {
    num_output: 160
    kernel_size: 1
    weight_filler {
      type: "xavier"
    }
    bias_filler {
      type: "constant"
      value: 0.2
    }
  }
}
layer {
  name: "inception_4b/relu_1x1"
  type: "ReLU"
  bottom: "inception_4b/1x1"
  top: "inception_4b/1x1"
}
layer {
  name: "inception_4b/3x3_reduce"
  type: "Convolution"
  bottom: "inception_4a/output"
  top: "inception_4b/3x3_reduce"
  param {
    lr_mult: 1
    decay_mult: 1
  }
  param {
    lr_mult: 2
    decay_mult: 0
  }
  convolution_param {
    num_output: 112
    kernel_size: 1
    weight_filler {
      type: "xavier"
    }
    bias_filler {
      type: "constant"
      value: 0.2
    }
  }
}
layer {
  name: "inception_4b/relu_3x3_reduce"
  type: "ReLU"
  bottom: "inception_4b/3x3_reduce"
  top: "inception_4b/3x3_reduce"
}
layer {
  name: "inception_4b/3x3"
  type: "Convolution"
  bottom: "inception_4b/3x3_reduce"
  top: "inception_4b/3x3"
  param {
    lr_mult: 1
    decay_mult: 1
  }
  param {
    lr_mult: 2
    decay_mult: 0
  }
  convolution_param {
    num_output: 224
    pad: 1
    kernel_size: 3
    weight_filler {
      type: "xavier"
    }
    bias_filler {
      type: "constant"
      value: 0.2
    }
  }
}
layer {
  name: "inception_4b/relu_3x3"
  type: "ReLU"
  bottom: "inception_4b/3x3"
  top: "inception_4b/3x3"
}
layer {
  name: "inception_4b/5x5_reduce"
  type: "Convolution"
  bottom: "inception_4a/output"
  top: "inception_4b/5x5_reduce"
  param {
    lr_mult: 1
    decay_mult: 1
  }
  param {
    lr_mult: 2
    decay_mult: 0
  }
  convolution_param {
    num_output: 24
    kernel_size: 1
    weight_filler {
      type: "xavier"
    }
    bias_filler {
      type: "constant"
      value: 0.2
    }
  }
}
layer {
  name: "inception_4b/relu_5x5_reduce"
  type: "ReLU"
  bottom: "inception_4b/5x5_reduce"
  top: "inception_4b/5x5_reduce"
}
layer {
  name: "inception_4b/5x5"
  type: "Convolution"
  bottom: "inception_4b/5x5_reduce"
  top: "inception_4b/5x5"
  param {
    lr_mult: 1
    decay_mult: 1
  }
  param {
    lr_mult: 2
    decay_mult: 0
  }
  convolution_param {
    num_output: 64
    pad: 2
    kernel_size: 5
    weight_filler {
      type: "xavier"
    }
    bias_filler {
      type: "constant"
      value: 0.2
    }
  }
}
layer {
  name: "inception_4b/relu_5x5"
  type: "ReLU"
  bottom: "inception_4b/5x5"
  top: "inception_4b/5x5"
}
layer {
  name: "inception_4b/pool"
  type: "Pooling"
  bottom: "inception_4a/output"
  top: "inception_4b/pool"
  pooling_param {
    pool: MAX
    kernel_size: 3
    stride: 1
    pad: 1
  }
}
layer {
  name: "inception_4b/pool_proj"
  type: "Convolution"
  bottom: "inception_4b/pool"
  top: "inception_4b/pool_proj"
  param {
    lr_mult: 1
    decay_mult: 1
  }
  param {
    lr_mult: 2
    decay_mult: 0
  }
  convolution_param {
    num_output: 64
    kernel_size: 1
    weight_filler {
      type: "xavier"
    }
    bias_filler {
      type: "constant"
      value: 0.2
    }
  }
}
layer {
  name: "inception_4b/relu_pool_proj"
  type: "ReLU"
  bottom: "inception_4b/pool_proj"
  top: "inception_4b/pool_proj"
}
layer {
  name: "inception_4b/output"
  type: "Concat"
  bottom: "inception_4b/1x1"
  bottom: "inception_4b/3x3"
  bottom: "inception_4b/5x5"
  bottom: "inception_4b/pool_proj"
  top: "inception_4b/output"
}
layer {
  name: "inception_4c/1x1"
  type: "Convolution"
  bottom: "inception_4b/output"
  top: "inception_4c/1x1"
  param {
    lr_mult: 1
    decay_mult: 1
  }
  param {
    lr_mult: 2
    decay_mult: 0
  }
  convolution_param {
    num_output: 128
    kernel_size: 1
    weight_filler {
      type: "xavier"
    }
    bias_filler {
      type: "constant"
      value: 0.2
    }
  }
}
layer {
  name: "inception_4c/relu_1x1"
  type: "ReLU"
  bottom: "inception_4c/1x1"
  top: "inception_4c/1x1"
}
layer {
  name: "inception_4c/3x3_reduce"
  type: "Convolution"
  bottom: "inception_4b/output"
  top: "inception_4c/3x3_reduce"
  param {
    lr_mult: 1
    decay_mult: 1
  }
  param {
    lr_mult: 2
    decay_mult: 0
  }
  convolution_param {
    num_output: 128
    kernel_size: 1
    weight_filler {
      type: "xavier"
    }
    bias_filler {
      type: "constant"
      value: 0.2
    }
  }
}
layer {
  name: "inception_4c/relu_3x3_reduce"
  type: "ReLU"
  bottom: "inception_4c/3x3_reduce"
  top: "inception_4c/3x3_reduce"
}
layer {
  name: "inception_4c/3x3"
  type: "Convolution"
  bottom: "inception_4c/3x3_reduce"
  top: "inception_4c/3x3"
  param {
    lr_mult: 1
    decay_mult: 1
  }
  param {
    lr_mult: 2
    decay_mult: 0
  }
  convolution_param {
    num_output: 256
    pad: 1
    kernel_size: 3
    weight_filler {
      type: "xavier"
    }
    bias_filler {
      type: "constant"
      value: 0.2
    }
  }
}
layer {
  name: "inception_4c/relu_3x3"
  type: "ReLU"
  bottom: "inception_4c/3x3"
  top: "inception_4c/3x3"
}
layer {
  name: "inception_4c/5x5_reduce"
  type: "Convolution"
  bottom: "inception_4b/output"
  top: "inception_4c/5x5_reduce"
  param {
    lr_mult: 1
    decay_mult: 1
  }
  param {
    lr_mult: 2
    decay_mult: 0
  }
  convolution_param {
    num_output: 24
    kernel_size: 1
    weight_filler {
      type: "xavier"
    }
    bias_filler {
      type: "constant"
      value: 0.2
    }
  }
}
layer {
  name: "inception_4c/relu_5x5_reduce"
  type: "ReLU"
  bottom: "inception_4c/5x5_reduce"
  top: "inception_4c/5x5_reduce"
}
layer {
  name: "inception_4c/5x5"
  type: "Convolution"
  bottom: "inception_4c/5x5_reduce"
  top: "inception_4c/5x5"
  param {
    lr_mult: 1
    decay_mult: 1
  }
  param {
    lr_mult: 2
    decay_mult: 0
  }
  convolution_param {
    num_output: 64
    pad: 2
    kernel_size: 5
    weight_filler {
      type: "xavier"
    }
    bias_filler {
      type: "constant"
      value: 0.2
    }
  }
}
layer {
  name: "inception_4c/relu_5x5"
  type: "ReLU"
  bottom: "inception_4c/5x5"
  top: "inception_4c/5x5"
}
layer {
  name: "inception_4c/pool"
  type: "Pooling"
  bottom: "inception_4b/output"
  top: "inception_4c/pool"
  pooling_param {
    pool: MAX
    kernel_size: 3
    stride: 1
    pad: 1
  }
}
layer {
  name: "inception_4c/pool_proj"
  type: "Convolution"
  bottom: "inception_4c/pool"
  top: "inception_4c/pool_proj"
  param {
    lr_mult: 1
    decay_mult: 1
  }
  param {
    lr_mult: 2
    decay_mult: 0
  }
  convolution_param {
    num_output: 64
    kernel_size: 1
    weight_filler {
      type: "xavier"
    }
    bias_filler {
      type: "constant"
      value: 0.2
    }
  }
}
layer {
  name: "inception_4c/relu_pool_proj"
  type: "ReLU"
  bottom: "inception_4c/pool_proj"
  top: "inception_4c/pool_proj"
}
layer {
  name: "inception_4c/output"
  type: "Concat"
  bottom: "inception_4c/1x1"
  bottom: "inception_4c/3x3"
  bottom: "inception_4c/5x5"
  bottom: "inception_4c/pool_proj"
  top: "inception_4c/output"
}
layer {
  name: "inception_4d/1x1"
  type: "Convolution"
  bottom: "inception_4c/output"
  top: "inception_4d/1x1"
  param {
    lr_mult: 1
    decay_mult: 1
  }
  param {
    lr_mult: 2
    decay_mult: 0
  }
  convolution_param {
    num_output: 112
    kernel_size: 1
    weight_filler {
      type: "xavier"
    }
    bias_filler {
      type: "constant"
      value: 0.2
    }
  }
}
layer {
  name: "inception_4d/relu_1x1"
  type: "ReLU"
  bottom: "inception_4d/1x1"
  top: "inception_4d/1x1"
}
layer {
  name: "inception_4d/3x3_reduce"
  type: "Convolution"
  bottom: "inception_4c/output"
  top: "inception_4d/3x3_reduce"
  param {
    lr_mult: 1
    decay_mult: 1
  }
  param {
    lr_mult: 2
    decay_mult: 0
  }
  convolution_param {
    num_output: 144
    kernel_size: 1
    weight_filler {
      type: "xavier"
    }
    bias_filler {
      type: "constant"
      value: 0.2
    }
  }
}
layer {
  name: "inception_4d/relu_3x3_reduce"
  type: "ReLU"
  bottom: "inception_4d/3x3_reduce"
  top: "inception_4d/3x3_reduce"
}
layer {
  name: "inception_4d/3x3"
  type: "Convolution"
  bottom: "inception_4d/3x3_reduce"
  top: "inception_4d/3x3"
  param {
    lr_mult: 1
    decay_mult: 1
  }
  param {
    lr_mult: 2
    decay_mult: 0
  }
  convolution_param {
    num_output: 288
    pad: 1
    kernel_size: 3
    weight_filler {
      type: "xavier"
    }
    bias_filler {
      type: "constant"
      value: 0.2
    }
  }
}
layer {
  name: "inception_4d/relu_3x3"
  type: "ReLU"
  bottom: "inception_4d/3x3"
  top: "inception_4d/3x3"
}
layer {
  name: "inception_4d/5x5_reduce"
  type: "Convolution"
  bottom: "inception_4c/output"
  top: "inception_4d/5x5_reduce"
  param {
    lr_mult: 1
    decay_mult: 1
  }
  param {
    lr_mult: 2
    decay_mult: 0
  }
  convolution_param {
    num_output: 32
    kernel_size: 1
    weight_filler {
      type: "xavier"
    }
    bias_filler {
      type: "constant"
      value: 0.2
    }
  }
}
layer {
  name: "inception_4d/relu_5x5_reduce"
  type: "ReLU"
  bottom: "inception_4d/5x5_reduce"
  top: "inception_4d/5x5_reduce"
}
layer {
  name: "inception_4d/5x5"
  type: "Convolution"
  bottom: "inception_4d/5x5_reduce"
  top: "inception_4d/5x5"
  param {
    lr_mult: 1
    decay_mult: 1
  }
  param {
    lr_mult: 2
    decay_mult: 0
  }
  convolution_param {
    num_output: 64
    pad: 2
    kernel_size: 5
    weight_filler {
      type: "xavier"
    }
    bias_filler {
      type: "constant"
      value: 0.2
    }
  }
}
layer {
  name: "inception_4d/relu_5x5"
  type: "ReLU"
  bottom: "inception_4d/5x5"
  top: "inception_4d/5x5"
}
layer {
  name: "inception_4d/pool"
  type: "Pooling"
  bottom: "inception_4c/output"
  top: "inception_4d/pool"
  pooling_param {
    pool: MAX
    kernel_size: 3
    stride: 1
    pad: 1
  }
}
layer {
  name: "inception_4d/pool_proj"
  type: "Convolution"
  bottom: "inception_4d/pool"
  top: "inception_4d/pool_proj"
  param {
    lr_mult: 1
    decay_mult: 1
  }
  param {
    lr_mult: 2
    decay_mult: 0
  }
  convolution_param {
    num_output: 64
    kernel_size: 1
    weight_filler {
      type: "xavier"
    }
    bias_filler {
      type: "constant"
      value: 0.2
    }
  }
}
layer {
  name: "inception_4d/relu_pool_proj"
  type: "ReLU"
  bottom: "inception_4d/pool_proj"
  top: "inception_4d/pool_proj"
}
layer {
  name: "inception_4d/output"
  type: "Concat"
  bottom: "inception_4d/1x1"
  bottom: "inception_4d/3x3"
  bottom: "inception_4d/5x5"
  bottom: "inception_4d/pool_proj"
  top: "inception_4d/output"
}
layer {
  name: "loss2/ave_pool"
  type: "Pooling"
  bottom: "inception_4d/output"
  top: "loss2/ave_pool"
  pooling_param {
    pool: AVE
    kernel_size: 5
    stride: 3
  }
}
layer {
  name: "loss2/conv"
  type: "Convolution"
…
I1219 15:02:23.122676 16918 net.cpp:84] Creating Layer inception_4c/1x1
I1219 15:02:23.122684 16918 net.cpp:380] inception_4c/1x1 <- inception_4b/output_inception_4b/output_0_split_0
I1219 15:02:23.122695 16918 net.cpp:338] inception_4c/1x1 -> inception_4c/1x1
I1219 15:02:23.122706 16918 net.cpp:113] Setting up inception_4c/1x1
I1219 15:02:23.128909 16918 net.cpp:120] Top shape: 50 128 14 14 (1254400)
I1219 15:02:23.128932 16918 layer_factory.hpp:74] Creating layer inception_4c/relu_1x1
I1219 15:02:23.128943 16918 net.cpp:84] Creating Layer inception_4c/relu_1x1
I1219 15:02:23.128952 16918 net.cpp:380] inception_4c/relu_1x1 <- inception_4c/1x1
I1219 15:02:23.128964 16918 net.cpp:327] inception_4c/relu_1x1 -> inception_4c/1x1 (in-place)
I1219 15:02:23.128976 16918 net.cpp:113] Setting up inception_4c/relu_1x1
I1219 15:02:23.129305 16918 net.cpp:120] Top shape: 50 128 14 14 (1254400)
I1219 15:02:23.129335 16918 layer_factory.hpp:74] Creating layer inception_4c/3x3_reduce
I1219 15:02:23.129350 16918 net.cpp:84] Creating Layer inception_4c/3x3_reduce
I1219 15:02:23.129359 16918 net.cpp:380] inception_4c/3x3_reduce <- inception_4b/output_inception_4b/output_0_split_1
I1219 15:02:23.129372 16918 net.cpp:338] inception_4c/3x3_reduce -> inception_4c/3x3_reduce
I1219 15:02:23.129385 16918 net.cpp:113] Setting up inception_4c/3x3_reduce
I1219 15:02:23.130756 16918 net.cpp:120] Top shape: 50 128 14 14 (1254400)
I1219 15:02:23.130776 16918 layer_factory.hpp:74] Creating layer inception_4c/relu_3x3_reduce
I1219 15:02:23.130787 16918 net.cpp:84] Creating Layer inception_4c/relu_3x3_reduce
I1219 15:02:23.130795 16918 net.cpp:380] inception_4c/relu_3x3_reduce <- inception_4c/3x3_reduce
I1219 15:02:23.130810 16918 net.cpp:327] inception_4c/relu_3x3_reduce -> inception_4c/3x3_reduce (in-place)
I1219 15:02:23.130820 16918 net.cpp:113] Setting up inception_4c/relu_3x3_reduce
I1219 15:02:23.130921 16918 net.cpp:120] Top shape: 50 128 14 14 (1254400)
I1219 15:02:23.130933 16918 layer_factory.hpp:74] Creating layer inception_4c/3x3
I1219 15:02:23.130947 16918 net.cpp:84] Creating Layer inception_4c/3x3
I1219 15:02:23.130955 16918 net.cpp:380] inception_4c/3x3 <- inception_4c/3x3_reduce
I1219 15:02:23.130970 16918 net.cpp:338] inception_4c/3x3 -> inception_4c/3x3
I1219 15:02:23.130981 16918 net.cpp:113] Setting up inception_4c/3x3
I1219 15:02:23.135236 16918 net.cpp:120] Top shape: 50 256 14 14 (2508800)
I1219 15:02:23.135273 16918 layer_factory.hpp:74] Creating layer inception_4c/relu_3x3
I1219 15:02:23.135288 16918 net.cpp:84] Creating Layer inception_4c/relu_3x3
I1219 15:02:23.135298 16918 net.cpp:380] inception_4c/relu_3x3 <- inception_4c/3x3
I1219 15:02:23.135308 16918 net.cpp:327] inception_4c/relu_3x3 -> inception_4c/3x3 (in-place)
I1219 15:02:23.135320 16918 net.cpp:113] Setting up inception_4c/relu_3x3
I1219 15:02:23.135426 16918 net.cpp:120] Top shape: 50 256 14 14 (2508800)
I1219 15:02:23.135437 16918 layer_factory.hpp:74] Creating layer inception_4c/5x5_reduce
I1219 15:02:23.135450 16918 net.cpp:84] Creating Layer inception_4c/5x5_reduce
I1219 15:02:23.135458 16918 net.cpp:380] inception_4c/5x5_reduce <- inception_4b/output_inception_4b/output_0_split_2
I1219 15:02:23.135473 16918 net.cpp:338] inception_4c/5x5_reduce -> inception_4c/5x5_reduce
I1219 15:02:23.135484 16918 net.cpp:113] Setting up inception_4c/5x5_reduce
I1219 15:02:23.136183 16918 net.cpp:120] Top shape: 50 24 14 14 (235200)
I1219 15:02:23.136203 16918 layer_factory.hpp:74] Creating layer inception_4c/relu_5x5_reduce
I1219 15:02:23.136214 16918 net.cpp:84] Creating Layer inception_4c/relu_5x5_reduce
I1219 15:02:23.136224 16918 net.cpp:380] inception_4c/relu_5x5_reduce <- inception_4c/5x5_reduce
I1219 15:02:23.136234 16918 net.cpp:327] inception_4c/relu_5x5_reduce -> inception_4c/5x5_reduce (in-place)
I1219 15:02:23.136245 16918 net.cpp:113] Setting up inception_4c/relu_5x5_reduce
I1219 15:02:23.136554 16918 net.cpp:120] Top shape: 50 24 14 14 (235200)
I1219 15:02:23.136570 16918 layer_factory.hpp:74] Creating layer inception_4c/5x5
I1219 15:02:23.136584 16918 net.cpp:84] Creating Layer inception_4c/5x5
I1219 15:02:23.136593 16918 net.cpp:380] inception_4c/5x5 <- inception_4c/5x5_reduce
I1219 15:02:23.136610 16918 net.cpp:338] inception_4c/5x5 -> inception_4c/5x5
I1219 15:02:23.136631 16918 net.cpp:113] Setting up inception_4c/5x5
I1219 15:02:23.137667 16918 net.cpp:120] Top shape: 50 64 14 14 (627200)
I1219 15:02:23.137688 16918 layer_factory.hpp:74] Creating layer inception_4c/relu_5x5
I1219 15:02:23.137702 16918 net.cpp:84] Creating Layer inception_4c/relu_5x5
I1219 15:02:23.137712 16918 net.cpp:380] inception_4c/relu_5x5 <- inception_4c/5x5
I1219 15:02:23.137722 16918 net.cpp:327] inception_4c/relu_5x5 -> inception_4c/5x5 (in-place)
I1219 15:02:23.137733 16918 net.cpp:113] Setting up inception_4c/relu_5x5
I1219 15:02:23.137833 16918 net.cpp:120] Top shape: 50 64 14 14 (627200)
I1219 15:02:23.137851 16918 layer_factory.hpp:74] Creating layer inception_4c/pool
I1219 15:02:23.137869 16918 layer_factory.cpp:56] CUDNN does not support padding or multiple tops. Using Caffe's own pooling layer.
I1219 15:02:23.137879 16918 net.cpp:84] Creating Layer inception_4c/pool
I1219 15:02:23.137888 16918 net.cpp:380] inception_4c/pool <- inception_4b/output_inception_4b/output_0_split_3
I1219 15:02:23.137902 16918 net.cpp:338] inception_4c/pool -> inception_4c/pool
I1219 15:02:23.137913 16918 net.cpp:113] Setting up inception_4c/pool
I1219 15:02:23.137928 16918 net.cpp:120] Top shape: 50 512 14 14 (5017600)
I1219 15:02:23.137935 16918 layer_factory.hpp:74] Creating layer inception_4c/pool_proj
I1219 15:02:23.137949 16918 net.cpp:84] Creating Layer inception_4c/pool_proj
I1219 15:02:23.137958 16918 net.cpp:380] inception_4c/pool_proj <- inception_4c/pool
I1219 15:02:23.137971 16918 net.cpp:338] inception_4c/pool_proj -> inception_4c/pool_proj
I1219 15:02:23.137984 16918 net.cpp:113] Setting up inception_4c/pool_proj
I1219 15:02:23.138947 16918 net.cpp:120] Top shape: 50 64 14 14 (627200)
I1219 15:02:23.138967 16918 layer_factory.hpp:74] Creating layer inception_4c/relu_pool_proj
I1219 15:02:23.138979 16918 net.cpp:84] Creating Layer inception_4c/relu_pool_proj
I1219 15:02:23.138988 16918 net.cpp:380] inception_4c/relu_pool_proj <- inception_4c/pool_proj
I1219 15:02:23.138998 16918 net.cpp:327] inception_4c/relu_pool_proj -> inception_4c/pool_proj (in-place)
I1219 15:02:23.139010 16918 net.cpp:113] Setting up inception_4c/relu_pool_proj
I1219 15:02:23.139111 16918 net.cpp:120] Top shape: 50 64 14 14 (627200)
I1219 15:02:23.139120 16918 layer_factory.hpp:74] Creating layer inception_4c/output
I1219 15:02:23.139132 16918 net.cpp:84] Creating Layer inception_4c/output
I1219 15:02:23.139139 16918 net.cpp:380] inception_4c/output <- inception_4c/1x1
I1219 15:02:23.139149 16918 net.cpp:380] inception_4c/output <- inception_4c/3x3
I1219 15:02:23.139158 16918 net.cpp:380] inception_4c/output <- inception_4c/5x5
I1219 15:02:23.139166 16918 net.cpp:380] inception_4c/output <- inception_4c/pool_proj
I1219 15:02:23.139176 16918 net.cpp:338] inception_4c/output -> inception_4c/output
I1219 15:02:23.139188 16918 net.cpp:113] Setting up inception_4c/output
I1219 15:02:23.139199 16918 net.cpp:120] Top shape: 50 512 14 14 (5017600)
I1219 15:02:23.139207 16918 layer_factory.hpp:74] Creating layer inception_4c/output_inception_4c/output_0_split
I1219 15:02:23.139219 16918 net.cpp:84] Creating Layer inception_4c/output_inception_4c/output_0_split
I1219 15:02:23.139227 16918 net.cpp:380] inception_4c/output_inception_4c/output_0_split <- inception_4c/output
I1219 15:02:23.139237 16918 net.cpp:338] inception_4c/output_inception_4c/output_0_split -> inception_4c/output_inception_4c/output_0_split_0
I1219 15:02:23.139250 16918 net.cpp:338] inception_4c/output_inception_4c/output_0_split -> inception_4c/output_inception_4c/output_0_split_1
I1219 15:02:23.139261 16918 net.cpp:338] inception_4c/output_inception_4c/output_0_split -> inception_4c/output_inception_4c/output_0_split_2
I1219 15:02:23.139273 16918 net.cpp:338] inception_4c/output_inception_4c/output_0_split -> inception_4c/output_inception_4c/output_0_split_3
I1219 15:02:23.139286 16918 net.cpp:113] Setting up inception_4c/output_inception_4c/output_0_split
I1219 15:02:23.139297 16918 net.cpp:120] Top shape: 50 512 14 14 (5017600)
I1219 15:02:23.139307 16918 net.cpp:120] Top shape: 50 512 14 14 (5017600)
I1219 15:02:23.139315 16918 net.cpp:120] Top shape: 50 512 14 14 (5017600)
I1219 15:02:23.139324 16918 net.cpp:120] Top shape: 50 512 14 14 (5017600)
I1219 15:02:23.139331 16918 layer_factory.hpp:74] Creating layer inception_4d/1x1
I1219 15:02:23.139346 16918 net.cpp:84] Creating Layer inception_4d/1x1
I1219 15:02:23.139354 16918 net.cpp:380] inception_4d/1x1 <- inception_4c/output_inception_4c/output_0_split_0
I1219 15:02:23.139367 16918 net.cpp:338] inception_4d/1x1 -> inception_4d/1x1
I1219 15:02:23.139379 16918 net.cpp:113] Setting up inception_4d/1x1
I1219 15:02:23.140662 16918 net.cpp:120] Top shape: 50 112 14 14 (1097600)
I1219 15:02:23.140692 16918 layer_factory.hpp:74] Creating layer inception_4d/relu_1x1
I1219 15:02:23.140703 16918 net.cpp:84] Creating Layer inception_4d/relu_1x1
I1219 15:02:23.140712 16918 net.cpp:380] inception_4d/relu_1x1 <- inception_4d/1x1
I1219 15:02:23.140722 16918 net.cpp:327] inception_4d/relu_1x1 -> inception_4d/1x1 (in-place)
I1219 15:02:23.140734 16918 net.cpp:113] Setting up inception_4d/relu_1x1
I1219 15:02:23.140832 16918 net.cpp:120] Top shape: 50 112 14 14 (1097600)
I1219 15:02:23.140842 16918 layer_factory.hpp:74] Creating layer inception_4d/3x3_reduce
I1219 15:02:23.140856 16918 net.cpp:84] Creating Layer inception_4d/3x3_reduce
I1219 15:02:23.140864 16918 net.cpp:380] inception_4d/3x3_reduce <- inception_4c/output_inception_4c/output_0_split_1
I1219 15:02:23.140878 16918 net.cpp:338] inception_4d/3x3_reduce -> inception_4d/3x3_reduce
I1219 15:02:23.140892 16918 net.cpp:113] Setting up inception_4d/3x3_reduce
I1219 15:02:23.142380 16918 net.cpp:120] Top shape: 50 144 14 14 (1411200)
I1219 15:02:23.142401 16918 layer_factory.hpp:74] Creating layer inception_4d/relu_3x3_reduce
I1219 15:02:23.142412 16918 net.cpp:84] Creating Layer inception_4d/relu_3x3_reduce
I1219 15:02:23.142421 16918 net.cpp:380] inception_4d/relu_3x3_reduce <- inception_4d/3x3_reduce
I1219 15:02:23.142432 16918 net.cpp:327] inception_4d/relu_3x3_reduce -> inception_4d/3x3_reduce (in-place)
I1219 15:02:23.142444 16918 net.cpp:113] Setting up inception_4d/relu_3x3_reduce
I1219 15:02:23.142760 16918 net.cpp:120] Top shape: 50 144 14 14 (1411200)
I1219 15:02:23.142773 16918 layer_factory.hpp:74] Creating layer inception_4d/3x3
I1219 15:02:23.142788 16918 net.cpp:84] Creating Layer inception_4d/3x3
I1219 15:02:23.142796 16918 net.cpp:380] inception_4d/3x3 <- inception_4d/3x3_reduce
I1219 15:02:23.142810 16918 net.cpp:338] inception_4d/3x3 -> inception_4d/3x3
I1219 15:02:23.142824 16918 net.cpp:113] Setting up inception_4d/3x3
I1219 15:02:23.147892 16918 net.cpp:120] Top shape: 50 288 14 14 (2822400)
I1219 15:02:23.147919 16918 layer_factory.hpp:74] Creating layer inception_4d/relu_3x3
I1219 15:02:23.147932 16918 net.cpp:84] Creating Layer inception_4d/relu_3x3
I1219 15:02:23.147939 16918 net.cpp:380] inception_4d/relu_3x3 <- inception_4d/3x3
I1219 15:02:23.147948 16918 net.cpp:327] inception_4d/relu_3x3 -> inception_4d/3x3 (in-place)
I1219 15:02:23.147958 16918 net.cpp:113] Setting up inception_4d/relu_3x3
I1219 15:02:23.148033 16918 net.cpp:120] Top shape: 50 288 14 14 (2822400)
I1219 15:02:23.148041 16918 layer_factory.hpp:74] Creating layer inception_4d/5x5_reduce
I1219 15:02:23.148053 16918 net.cpp:84] Creating Layer inception_4d/5x5_reduce
I1219 15:02:23.148059 16918 net.cpp:380] inception_4d/5x5_reduce <- inception_4c/output_inception_4c/output_0_split_2
I1219 15:02:23.148068 16918 net.cpp:338] inception_4d/5x5_reduce -> inception_4d/5x5_reduce
I1219 15:02:23.148079 16918 net.cpp:113] Setting up inception_4d/5x5_reduce
I1219 15:02:23.149952 16918 net.cpp:120] Top shape: 50 32 14 14 (313600)
I1219 15:02:23.149976 16918 layer_factory.hpp:74] Creating layer inception_4d/relu_5x5_reduce
I1219 15:02:23.149986 16918 net.cpp:84] Creating Layer inception_4d/relu_5x5_reduce
I1219 15:02:23.149993 16918 net.cpp:380] inception_4d/relu_5x5_reduce <- inception_4d/5x5_reduce
I1219 15:02:23.150002 16918 net.cpp:327] inception_4d/relu_5x5_reduce -> inception_4d/5x5_reduce (in-place)
I1219 15:02:23.150010 16918 net.cpp:113] Setting up inception_4d/relu_5x5_reduce
I1219 15:02:23.150089 16918 net.cpp:120] Top shape: 50 32 14 14 (313600)
I1219 15:02:23.150095 16918 layer_factory.hpp:74] Creating layer inception_4d/5x5
I1219 15:02:23.150109 16918 net.cpp:84] Creating Layer inception_4d/5x5
I1219 15:02:23.150115 16918 net.cpp:380] inception_4d/5x5 <- inception_4d/5x5_reduce
I1219 15:02:23.150125 16918 net.cpp:338] inception_4d/5x5 -> inception_4d/5x5
I1219 15:02:23.150135 16918 net.cpp:113] Setting up inception_4d/5x5
I1219 15:02:23.151173 16918 net.cpp:120] Top shape: 50 64 14 14 (627200)
I1219 15:02:23.151197 16918 layer_factory.hpp:74] Creating layer inception_4d/relu_5x5
I1219 15:02:23.151216 16918 net.cpp:84] Creating Layer inception_4d/relu_5x5
I1219 15:02:23.151223 16918 net.cpp:380] inception_4d/relu_5x5 <- inception_4d/5x5
I1219 15:02:23.151232 16918 net.cpp:327] inception_4d/relu_5x5 -> inception_4d/5x5 (in-place)
I1219 15:02:23.151240 16918 net.cpp:113] Setting up inception_4d/relu_5x5
I1219 15:02:23.151315 16918 net.cpp:120] Top shape: 50 64 14 14 (627200)
I1219 15:02:23.151324 16918 layer_factory.hpp:74] Creating layer inception_4d/pool
I1219 15:02:23.151329 16918 layer_factory.cpp:56] CUDNN does not support padding or multiple tops. Using Caffe's own pooling layer.
I1219 15:02:23.151338 16918 net.cpp:84] Creating Layer inception_4d/pool
I1219 15:02:23.151345 16918 net.cpp:380] inception_4d/pool <- inception_4c/output_inception_4c/output_0_split_3
I1219 15:02:23.151352 16918 net.cpp:338] inception_4d/pool -> inception_4d/pool
I1219 15:02:23.151363 16918 net.cpp:113] Setting up inception_4d/pool
I1219 15:02:23.151374 16918 net.cpp:120] Top shape: 50 512 14 14 (5017600)
I1219 15:02:23.151381 16918 layer_factory.hpp:74] Creating layer inception_4d/pool_proj
I1219 15:02:23.151392 16918 net.cpp:84] Creating Layer inception_4d/pool_proj
I1219 15:02:23.151397 16918 net.cpp:380] inception_4d/pool_proj <- inception_4d/pool
I1219 15:02:23.151408 16918 net.cpp:338] inception_4d/pool_proj -> inception_4d/pool_proj
I1219 15:02:23.151418 16918 net.cpp:113] Setting up inception_4d/pool_proj
I1219 15:02:23.152242 16918 net.cpp:120] Top shape: 50 64 14 14 (627200)
I1219 15:02:23.152262 16918 layer_factory.hpp:74] Creating layer inception_4d/relu_pool_proj
I1219 15:02:23.152271 16918 net.cpp:84] Creating Layer inception_4d/relu_pool_proj
I1219 15:02:23.152277 16918 net.cpp:380] inception_4d/relu_pool_proj <- inception_4d/pool_proj
I1219 15:02:23.152286 16918 net.cpp:327] inception_4d/relu_pool_proj -> inception_4d/pool_proj (in-place)
I1219 15:02:23.152294 16918 net.cpp:113] Setting up inception_4d/relu_pool_proj
I1219 15:02:23.156375 16918 net.cpp:120] Top shape: 50 64 14 14 (627200)
I1219 15:02:23.156389 16918 layer_factory.hpp:74] Creating layer inception_4d/output
I1219 15:02:23.156399 16918 net.cpp:84] Creating Layer inception_4d/output
I1219 15:02:23.156405 16918 net.cpp:380] inception_4d/output <- inception_4d/1x1
I1219 15:02:23.156412 16918 net.cpp:380] inception_4d/output <- inception_4d/3x3
I1219 15:02:23.156419 16918 net.cpp:380] inception_4d/output <- inception_4d/5x5
I1219 15:02:23.156425 16918 net.cpp:380] inception_4d/output <- inception_4d/pool_proj
I1219 15:02:23.156435 16918 net.cpp:338] inception_4d/output -> inception_4d/output
I1219 15:02:23.156443 16918 net.cpp:113] Setting up inception_4d/output
I1219 15:02:23.156453 16918 net.cpp:120] Top shape: 50 528 14 14 (5174400)
I1219 15:02:23.156458 16918 layer_factory.hpp:74] Creating layer inception_4d/output_inception_4d/output_0_split
I1219 15:02:23.156466 16918 net.cpp:84] Creating Layer inception_4d/output_inception_4d/output_0_split
I1219 15:02:23.156471 16918 net.cpp:380] inception_4d/output_inception_4d/output_0_split <- inception_4d/output
I1219 15:02:23.156481 16918 net.cpp:338] inception_4d/output_inception_4d/output_0_split -> inception_4d/output_inception_4d/output_0_split_0
I1219 15:02:23.156489 16918 net.cpp:338] inception_4d/output_inception_4d/output_0_split -> inception_4d/output_inception_4d/output_0_split_1
I1219 15:02:23.156498 16918 net.cpp:338] inception_4d/output_inception_4d/output_0_split -> inception_4d/output_inception_4d/output_0_split_2
I1219 15:02:23.156507 16918 net.cpp:338] inception_4d/output_inception_4d/output_0_split -> inception_4d/output_inception_4d/output_0_split_3
I1219 15:02:23.156515 16918 net.cpp:338] inception_4d/output_inception_4d/output_0_split -> inception_4d/output_inception_4d/output_0_split_4
I1219 15:02:23.156522 16918 net.cpp:113] Setting up inception_4d/output_inception_4d/output_0_split
I1219 15:02:23.156532 16918 net.cpp:120] Top shape: 50 528 14 14 (5174400)
I1219 15:02:23.156543 16918 net.cpp:120] Top shape: 50 528 14 14 (5174400)
I1219 15:02:23.156556 16918 net.cpp:120] Top shape: 50 528 14 14 (5174400)
I1219 15:02:23.156563 16918 net.cpp:120] Top shape: 50 528 14 14 (5174400)
I1219 15:02:23.156569 16918 net.cpp:120] Top shape: 50 528 14 14 (5174400)
I1219 15:02:23.156574 16918 layer_factory.hpp:74] Creating layer loss2/ave_pool
I1219 15:02:23.156584 16918 net.cpp:84] Creating Layer loss2/ave_pool
I1219 15:02:23.156589 16918 net.cpp:380] loss2/ave_pool <- inception_4d/output_inception_4d/output_0_split_0
I1219 15:02:23.156597 16918 net.cpp:338] loss2/ave_pool -> loss2/ave_pool
I1219 15:02:23.156605 16918 net.cpp:113] Setting up loss2/ave_pool
I1219 15:02:23.156687 16918 net.cpp:120] Top shape: 50 528 4 4 (422400)
I1219 15:02:23.156697 16918 layer_factory.hpp:74] Creating layer loss2/conv
I1219 15:02:23.156708 16918 net.cpp:84] Creating Layer loss2/conv
I1219 15:02:23.156714 16918 net.cpp:380] loss2/conv <- loss2/ave_pool
I1219 15:02:23.156724 16918 net.cpp:338] loss2/conv -> loss2/conv
I1219 15:02:23.156734 16918 net.cpp:113] Setting up loss2/conv
I1219 15:02:23.157973 16918 net.cpp:120] Top shape: 50 128 4 4 (102400)
I1219 15:02:23.157992 16918 layer_factory.hpp:74] Creating layer loss2/relu_conv
I1219 15:02:23.158000 16918 net.cpp:84] Creating Layer loss2/relu_conv
I1219 15:02:23.158006 16918 net.cpp:380] loss2/relu_conv <- loss2/conv
I1219 15:02:23.158015 16918 net.cpp:327] loss2/relu_conv -> loss2/conv (in-place)
I1219 15:02:23.158023 16918 net.cpp:113] Setting up loss2/relu_conv
I1219 15:02:23.158099 16918 net.cpp:120] Top shape: 50 128 4 4 (102400)
I1219 15:02:23.158107 16918 layer_factory.hpp:74] Creating layer loss2/fc
I1219 15:02:23.158118 16918 net.cpp:84] Creating Layer loss2/fc
I1219 15:02:23.158123 16918 net.cpp:380] loss2/fc <- loss2/conv
I1219 15:02:23.158133 16918 net.cpp:338] loss2/fc -> loss2/fc
I1219 15:02:23.158143 16918 net.cpp:113] Setting up loss2/fc
I1219 15:02:23.233333 16918 net.cpp:120] Top shape: 50 1024 (51200)
I1219 15:02:23.233397 16918 layer_factory.hpp:74] Creating layer loss2/relu_fc
I1219 15:02:23.233412 16918 net.cpp:84] Creating Layer loss2/relu_fc
I1219 15:02:23.233422 16918 net.cpp:380] loss2/relu_fc <- loss2/fc
I1219 15:02:23.233438 16918 net.cpp:327] loss2/relu_fc -> loss2/fc (in-place)
I1219 15:02:23.233453 16918 net.cpp:113] Setting up loss2/relu_fc
I1219 15:02:23.233610 16918 net.cpp:120] Top shape: 50 1024 (51200)
I1219 15:02:23.233623 16918 layer_factory.hpp:74] Creating layer loss2/drop_fc
I1219 15:02:23.233636 16918 net.cpp:84] Creating Layer loss2/drop_fc
I1219 15:02:23.233644 16918 net.cpp:380] loss2/drop_fc <- loss2/fc
I1219 15:02:23.233656 16918 net.cpp:327] loss2/drop_fc -> loss2/fc (in-place)
I1219 15:02:23.233667 16918 net.cpp:113] Setting up loss2/drop_fc
I1219 15:02:23.233680 16918 net.cpp:120] Top shape: 50 1024 (51200)
I1219 15:02:23.233687 16918 layer_factory.hpp:74] Creating layer loss2/classifier_kaggle
I1219 15:02:23.233701 16918 net.cpp:84] Creating Layer loss2/classifier_kaggle
I1219 15:02:23.233710 16918 net.cpp:380] loss2/classifier_kaggle <- loss2/fc
I1219 15:02:23.233723 16918 net.cpp:338] loss2/classifier_kaggle -> loss2/classifier_kaggle
I1219 15:02:23.233737 16918 net.cpp:113] Setting up loss2/classifier_kaggle
I1219 15:02:23.239572 16918 net.cpp:120] Top shape: 50 447 (22350)
I1219 15:02:23.239590 16918 layer_factory.hpp:74] Creating layer loss2/classifier_kaggle_loss2/classifier_kaggle_0_split
I1219 15:02:23.239603 16918 net.cpp:84] Creating Layer loss2/classifier_kaggle_loss2/classifier_kaggle_0_split
I1219 15:02:23.239611 16918 net.cpp:380] loss2/classifier_kaggle_loss2/classifier_kaggle_0_split <- loss2/classifier_kaggle
I1219 15:02:23.239625 16918 net.cpp:338] loss2/classifier_kaggle_loss2/classifier_kaggle_0_split -> loss2/classifier_kaggle_loss2/classifier_kaggle_0_split_0
I1219 15:02:23.239639 16918 net.cpp:338] loss2/classifier_kaggle_loss2/classifier_kaggle_0_split -> loss2/classifier_kaggle_loss2/classifier_kaggle_0_split_1
I1219 15:02:23.239651 16918 net.cpp:338] loss2/classifier_kaggle_loss2/classifier_kaggle_0_split -> loss2/classifier_kaggle_loss2/classifier_kaggle_0_split_2
I1219 15:02:23.239689 16918 net.cpp:113] Setting up loss2/classifier_kaggle_loss2/classifier_kaggle_0_split
I1219 15:02:23.239701 16918 net.cpp:120] Top shape: 50 447 (22350)
I1219 15:02:23.239711 16918 net.cpp:120] Top shape: 50 447 (22350)
I1219 15:02:23.239719 16918 net.cpp:120] Top shape: 50 447 (22350)
I1219 15:02:23.239727 16918 layer_factory.hpp:74] Creating layer loss2/loss
I1219 15:02:23.239740 16918 net.cpp:84] Creating Layer loss2/loss
I1219 15:02:23.239748 16918 net.cpp:380] loss2/loss <- loss2/classifier_kaggle_loss2/classifier_kaggle_0_split_0
I1219 15:02:23.239758 16918 net.cpp:380] loss2/loss <- label_data_1_split_3
I1219 15:02:23.239768 16918 net.cpp:338] loss2/loss -> loss2/loss1
…
I1219 15:02:23.240448 16918 net.cpp:338] loss2/top-5 -> loss2/top-5
I1219 15:02:23.240459 16918 net.cpp:113] Setting up loss2/top-5
I1219 15:02:23.240468 16918 net.cpp:120] Top shape: (1)
I1219 15:02:23.240476 16918 layer_factory.hpp:74] Creating layer inception_4e/1x1
I1219 15:02:23.240491 16918 net.cpp:84] Creating Layer inception_4e/1x1
I1219 15:02:23.240500 16918 net.cpp:380] inception_4e/1x1 <- inception_4d/output_inception_4d/output_0_split_1
I1219 15:02:23.240512 16918 net.cpp:338] inception_4e/1x1 -> inception_4e/1x1
I1219 15:02:23.240525 16918 net.cpp:113] Setting up inception_4e/1x1
I1219 15:02:23.242817 16918 net.cpp:120] Top shape: 50 256 14 14 (2508800)
I1219 15:02:23.242840 16918 layer_factory.hpp:74] Creating layer inception_4e/relu_1x1
I1219 15:02:23.242853 16918 net.cpp:84] Creating Layer inception_4e/relu_1x1
I1219 15:02:23.242862 16918 net.cpp:380] inception_4e/relu_1x1 <- inception_4e/1x1
I1219 15:02:23.242872 16918 net.cpp:327] inception_4e/relu_1x1 -> inception_4e/1x1 (in-place)
I1219 15:02:23.242883 16918 net.cpp:113] Setting up inception_4e/relu_1x1
I1219 15:02:23.242986 16918 net.cpp:120] Top shape: 50 256 14 14 (2508800)
I1219 15:02:23.242996 16918 layer_factory.hpp:74] Creating layer inception_4e/3x3_reduce
I1219 15:02:23.243038 16918 net.cpp:84] Creating Layer inception_4e/3x3_reduce
I1219 15:02:23.243047 16918 net.cpp:380] inception_4e/3x3_reduce <- inception_4d/output_inception_4d/output_0_split_2
I1219 15:02:23.243062 16918 net.cpp:338] inception_4e/3x3_reduce -> inception_4e/3x3_reduce
I1219 15:02:23.243075 16918 net.cpp:113] Setting up inception_4e/3x3_reduce
I1219 15:02:23.244699 16918 net.cpp:120] Top shape: 50 160 14 14 (1568000)
I1219 15:02:23.244721 16918 layer_factory.hpp:74] Creating layer inception_4e/relu_3x3_reduce
I1219 15:02:23.244732 16918 net.cpp:84] Creating Layer inception_4e/relu_3x3_reduce
I1219 15:02:23.244741 16918 net.cpp:380] inception_4e/relu_3x3_reduce <- inception_4e/3x3_reduce
I1219 15:02:23.244751 16918 net.cpp:327] inception_4e/relu_3x3_reduce -> inception_4e/3x3_reduce (in-place)
I1219 15:02:23.244762 16918 net.cpp:113] Setting up inception_4e/relu_3x3_reduce
I1219 15:02:23.244868 16918 net.cpp:120] Top shape: 50 160 14 14 (1568000)
I1219 15:02:23.244886 16918 layer_factory.hpp:74] Creating layer inception_4e/3x3
I1219 15:02:23.244909 16918 net.cpp:84] Creating Layer inception_4e/3x3
I1219 15:02:23.244916 16918 net.cpp:380] inception_4e/3x3 <- inception_4e/3x3_reduce
I1219 15:02:23.244930 16918 net.cpp:338] inception_4e/3x3 -> inception_4e/3x3
I1219 15:02:23.244942 16918 net.cpp:113] Setting up inception_4e/3x3
I1219 15:02:23.253360 16918 net.cpp:120] Top shape: 50 320 14 14 (3136000)
I1219 15:02:23.253417 16918 layer_factory.hpp:74] Creating layer inception_4e/relu_3x3
I1219 15:02:23.253433 16918 net.cpp:84] Creating Layer inception_4e/relu_3x3
I1219 15:02:23.253445 16918 net.cpp:380] inception_4e/relu_3x3 <- inception_4e/3x3
I1219 15:02:23.253460 16918 net.cpp:327] inception_4e/relu_3x3 -> inception_4e/3x3 (in-place)
I1219 15:02:23.253478 16918 net.cpp:113] Setting up inception_4e/relu_3x3
I1219 15:02:23.253847 16918 net.cpp:120] Top shape: 50 320 14 14 (3136000)
I1219 15:02:23.253868 16918 layer_factory.hpp:74] Creating layer inception_4e/5x5_reduce
I1219 15:02:23.253885 16918 net.cpp:84] Creating Layer inception_4e/5x5_reduce
I1219 15:02:23.253896 16918 net.cpp:380] inception_4e/5x5_reduce <- inception_4d/output_inception_4d/output_0_split_3
I1219 15:02:23.253911 16918 net.cpp:338] inception_4e/5x5_reduce -> inception_4e/5x5_reduce
I1219 15:02:23.253929 16918 net.cpp:113] Setting up inception_4e/5x5_reduce
I1219 15:02:23.271142 16918 net.cpp:120] Top shape: 50 32 14 14 (313600)
I1219 15:02:23.271212 16918 layer_factory.hpp:74] Creating layer inception_4e/relu_5x5_reduce
I1219 15:02:23.271245 16918 net.cpp:84] Creating Layer inception_4e/relu_5x5_reduce
I1219 15:02:23.271265 16918 net.cpp:380] inception_4e/relu_5x5_reduce <- inception_4e/5x5_reduce
I1219 15:02:23.271291 16918 net.cpp:327] inception_4e/relu_5x5_reduce -> inception_4e/5x5_reduce (in-place)
I1219 15:02:23.271317 16918 net.cpp:113] Setting up inception_4e/relu_5x5_reduce
I1219 15:02:23.271514 16918 net.cpp:120] Top shape: 50 32 14 14 (313600)
I1219 15:02:23.271538 16918 layer_factory.hpp:74] Creating layer inception_4e/5x5
I1219 15:02:23.271567 16918 net.cpp:84] Creating Layer inception_4e/5x5
I1219 15:02:23.271584 16918 net.cpp:380] inception_4e/5x5 <- inception_4e/5x5_reduce
I1219 15:02:23.271605 16918 net.cpp:338] inception_4e/5x5 -> inception_4e/5x5
I1219 15:02:23.271633 16918 net.cpp:113] Setting up inception_4e/5x5
I1219 15:02:23.275377 16918 net.cpp:120] Top shape: 50 128 14 14 (1254400)
I1219 15:02:23.275413 16918 layer_factory.hpp:74] Creating layer inception_4e/relu_5x5
I1219 15:02:23.275431 16918 net.cpp:84] Creating Layer inception_4e/relu_5x5
I1219 15:02:23.275445 16918 net.cpp:380] inception_4e/relu_5x5 <- inception_4e/5x5
I1219 15:02:23.275466 16918 net.cpp:327] inception_4e/relu_5x5 -> inception_4e/5x5 (in-place)
I1219 15:02:23.275485 16918 net.cpp:113] Setting up inception_4e/relu_5x5
I1219 15:02:23.275631 16918 net.cpp:120] Top shape: 50 128 14 14 (1254400)
I1219 15:02:23.275650 16918 layer_factory.hpp:74] Creating layer inception_4e/pool
I1219 15:02:23.275665 16918 layer_factory.cpp:56] CUDNN does not support padding or multiple tops. Using Caffe's own pooling layer.
I1219 15:02:23.275681 16918 net.cpp:84] Creating Layer inception_4e/pool
I1219 15:02:23.275694 16918 net.cpp:380] inception_4e/pool <- inception_4d/output_inception_4d/output_0_split_4
I1219 15:02:23.275719 16918 net.cpp:338] inception_4e/pool -> inception_4e/pool
I1219 15:02:23.275740 16918 net.cpp:113] Setting up inception_4e/pool
I1219 15:02:23.275764 16918 net.cpp:120] Top shape: 50 528 14 14 (5174400)
I1219 15:02:23.275779 16918 layer_factory.hpp:74] Creating layer inception_4e/pool_proj
I1219 15:02:23.275804 16918 net.cpp:84] Creating Layer inception_4e/pool_proj
I1219 15:02:23.275820 16918 net.cpp:380] inception_4e/pool_proj <- inception_4e/pool
I1219 15:02:23.275843 16918 net.cpp:338] inception_4e/pool_proj -> inception_4e/pool_proj
I1219 15:02:23.275866 16918 net.cpp:113] Setting up inception_4e/pool_proj
I1219 15:02:23.277884 16918 net.cpp:120] Top shape: 50 128 14 14 (1254400)
I1219 15:02:23.277933 16918 layer_factory.hpp:74] Creating layer inception_4e/relu_pool_proj
I1219 15:02:23.277968 16918 net.cpp:84] Creating Layer inception_4e/relu_pool_proj
I1219 15:02:23.277984 16918 net.cpp:380] inception_4e/relu_pool_proj <- inception_4e/pool_proj
I1219 15:02:23.278003 16918 net.cpp:327] inception_4e/relu_pool_proj -> inception_4e/pool_proj (in-place)
I1219 15:02:23.278025 16918 net.cpp:113] Setting up inception_4e/relu_pool_proj
I1219 15:02:23.278178 16918 net.cpp:120] Top shape: 50 128 14 14 (1254400)
I1219 15:02:23.278197 16918 layer_factory.hpp:74] Creating layer inception_4e/output
I1219 15:02:23.278213 16918 net.cpp:84] Creating Layer inception_4e/output
I1219 15:02:23.278226 16918 net.cpp:380] inception_4e/output <- inception_4e/1x1
I1219 15:02:23.278241 16918 net.cpp:380] inception_4e/output <- inception_4e/3x3
I1219 15:02:23.278256 16918 net.cpp:380] inception_4e/output <- inception_4e/5x5
I1219 15:02:23.278270 16918 net.cpp:380] inception_4e/output <- inception_4e/pool_proj
I1219 15:02:23.278286 16918 net.cpp:338] inception_4e/output -> inception_4e/output
I1219 15:02:23.278304 16918 net.cpp:113] Setting up inception_4e/output
I1219 15:02:23.278326 16918 net.cpp:120] Top shape: 50 832 14 14 (8153600)
I1219 15:02:23.278337 16918 layer_factory.hpp:74] Creating layer pool4/3x3_s2
I1219 15:02:23.278357 16918 net.cpp:84] Creating Layer pool4/3x3_s2
I1219 15:02:23.278369 16918 net.cpp:380] pool4/3x3_s2 <- inception_4e/output
I1219 15:02:23.278388 16918 net.cpp:338] pool4/3x3_s2 -> pool4/3x3_s2
I1219 15:02:23.278405 16918 net.cpp:113] Setting up pool4/3x3_s2
I1219 15:02:23.278842 16918 net.cpp:120] Top shape: 50 832 7 7 (2038400)
I1219 15:02:23.278866 16918 layer_factory.hpp:74] Creating layer pool4/3x3_s2_pool4/3x3_s2_0_split
I1219 15:02:23.278883 16918 net.cpp:84] Creating Layer pool4/3x3_s2_pool4/3x3_s2_0_split
I1219 15:02:23.278899 16918 net.cpp:380] pool4/3x3_s2_pool4/3x3_s2_0_split <- pool4/3x3_s2
I1219 15:02:23.278916 16918 net.cpp:338] pool4/3x3_s2_pool4/3x3_s2_0_split -> pool4/3x3_s2_pool4/3x3_s2_0_split_0
I1219 15:02:23.278937 16918 net.cpp:338] pool4/3x3_s2_pool4/3x3_s2_0_split -> pool4/3x3_s2_pool4/3x3_s2_0_split_1
I1219 15:02:23.278959 16918 net.cpp:338] pool4/3x3_s2_pool4/3x3_s2_0_split -> pool4/3x3_s2_pool4/3x3_s2_0_split_2
I1219 15:02:23.279009 16918 net.cpp:338] pool4/3x3_s2_pool4/3x3_s2_0_split -> pool4/3x3_s2_pool4/3x3_s2_0_split_3
I1219 15:02:23.279028 16918 net.cpp:113] Setting up pool4/3x3_s2_pool4/3x3_s2_0_split
I1219 15:02:23.279049 16918 net.cpp:120] Top shape: 50 832 7 7 (2038400)
I1219 15:02:23.279064 16918 net.cpp:120] Top shape: 50 832 7 7 (2038400)
I1219 15:02:23.279080 16918 net.cpp:120] Top shape: 50 832 7 7 (2038400)
I1219 15:02:23.279095 16918 net.cpp:120] Top shape: 50 832 7 7 (2038400)
I1219 15:02:23.279108 16918 layer_factory.hpp:74] Creating layer inception_5a/1x1
I1219 15:02:23.279132 16918 net.cpp:84] Creating Layer inception_5a/1x1
I1219 15:02:23.279145 16918 net.cpp:380] inception_5a/1x1 <- pool4/3x3_s2_pool4/3x3_s2_0_split_0
I1219 15:02:23.279165 16918 net.cpp:338] inception_5a/1x1 -> inception_5a/1x1
I1219 15:02:23.279186 16918 net.cpp:113] Setting up inception_5a/1x1
I1219 15:02:23.283810 16918 net.cpp:120] Top shape: 50 256 7 7 (627200)
I1219 15:02:23.283846 16918 layer_factory.hpp:74] Creating layer inception_5a/relu_1x1
I1219 15:02:23.283864 16918 net.cpp:84] Creating Layer inception_5a/relu_1x1
I1219 15:02:23.283879 16918 net.cpp:380] inception_5a/relu_1x1 <- inception_5a/1x1
I1219 15:02:23.283900 16918 net.cpp:327] inception_5a/relu_1x1 -> inception_5a/1x1 (in-place)
I1219 15:02:23.283918 16918 net.cpp:113] Setting up inception_5a/relu_1x1
I1219 15:02:23.284068 16918 net.cpp:120] Top shape: 50 256 7 7 (627200)
I1219 15:02:23.284085 16918 layer_factory.hpp:74] Creating layer inception_5a/3x3_reduce
I1219 15:02:23.284109 16918 net.cpp:84] Creating Layer inception_5a/3x3_reduce
I1219 15:02:23.284123 16918 net.cpp:380] inception_5a/3x3_reduce <- pool4/3x3_s2_pool4/3x3_s2_0_split_1
I1219 15:02:23.284145 16918 net.cpp:338] inception_5a/3x3_reduce -> inception_5a/3x3_reduce
I1219 15:02:23.284188 16918 net.cpp:113] Setting up inception_5a/3x3_reduce
I1219 15:02:23.293596 16918 net.cpp:120] Top shape: 50 160 7 7 (392000)
I1219 15:02:23.293627 16918 layer_factory.hpp:74] Creating layer inception_5a/relu_3x3_reduce
I1219 15:02:23.293638 16918 net.cpp:84] Creating Layer inception_5a/relu_3x3_reduce
I1219 15:02:23.293649 16918 net.cpp:380] inception_5a/relu_3x3_reduce <- inception_5a/3x3_reduce
I1219 15:02:23.293663 16918 net.cpp:327] inception_5a/relu_3x3_reduce -> inception_5a/3x3_reduce (in-place)
I1219 15:02:23.293675 16918 net.cpp:113] Setting up inception_5a/relu_3x3_reduce
I1219 15:02:23.293779 16918 net.cpp:120] Top shape: 50 160 7 7 (392000)
I1219 15:02:23.293789 16918 layer_factory.hpp:74] Creating layer inception_5a/3x3
I1219 15:02:23.293803 16918 net.cpp:84] Creating Layer inception_5a/3x3
I1219 15:02:23.293812 16918 net.cpp:380] inception_5a/3x3 <- inception_5a/3x3_reduce
I1219 15:02:23.293825 16918 net.cpp:338] inception_5a/3x3 -> inception_5a/3x3
I1219 15:02:23.293838 16918 net.cpp:113] Setting up inception_5a/3x3
I1219 15:02:23.300649 16918 net.cpp:120] Top shape: 50 320 7 7 (784000)
I1219 15:02:23.300696 16918 layer_factory.hpp:74] Creating layer inception_5a/relu_3x3
I1219 15:02:23.300711 16918 net.cpp:84] Creating Layer inception_5a/relu_3x3
I1219 15:02:23.300724 16918 net.cpp:380] inception_5a/relu_3x3 <- inception_5a/3x3
I1219 15:02:23.300737 16918 net.cpp:327] inception_5a/relu_3x3 -> inception_5a/3x3 (in-place)
I1219 15:02:23.300751 16918 net.cpp:113] Setting up inception_5a/relu_3x3
I1219 15:02:23.300853 16918 net.cpp:120] Top shape: 50 320 7 7 (784000)
I1219 15:02:23.300863 16918 layer_factory.hpp:74] Creating layer inception_5a/5x5_reduce
I1219 15:02:23.300879 16918 net.cpp:84] Creating Layer inception_5a/5x5_reduce
I1219 15:02:23.300889 16918 net.cpp:380] inception_5a/5x5_reduce <- pool4/3x3_s2_pool4/3x3_s2_0_split_2
I1219 15:02:23.300904 16918 net.cpp:338] inception_5a/5x5_reduce -> inception_5a/5x5_reduce
I1219 15:02:23.300918 16918 net.cpp:113] Setting up inception_5a/5x5_reduce
I1219 15:02:23.302453 16918 net.cpp:120] Top shape: 50 32 7 7 (78400)
I1219 15:02:23.302476 16918 layer_factory.hpp:74] Creating layer inception_5a/relu_5x5_reduce
I1219 15:02:23.302492 16918 net.cpp:84] Creating Layer inception_5a/relu_5x5_reduce
I1219 15:02:23.302501 16918 net.cpp:380] inception_5a/relu_5x5_reduce <- inception_5a/5x5_reduce
I1219 15:02:23.302512 16918 net.cpp:327] inception_5a/relu_5x5_reduce -> inception_5a/5x5_reduce (in-place)
I1219 15:02:23.302525 16918 net.cpp:113] Setting up inception_5a/relu_5x5_reduce
I1219 15:02:23.302846 16918 net.cpp:120] Top shape: 50 32 7 7 (78400)
I1219 15:02:23.302861 16918 layer_factory.hpp:74] Creating layer inception_5a/5x5
I1219 15:02:23.302877 16918 net.cpp:84] Creating Layer inception_5a/5x5
I1219 15:02:23.302886 16918 net.cpp:380] inception_5a/5x5 <- inception_5a/5x5_reduce
I1219 15:02:23.302897 16918 net.cpp:338] inception_5a/5x5 -> inception_5a/5x5
I1219 15:02:23.302911 16918 net.cpp:113] Setting up inception_5a/5x5
I1219 15:02:23.304782 16918 net.cpp:120] Top shape: 50 128 7 7 (313600)
I1219 15:02:23.304802 16918 layer_factory.hpp:74] Creating layer inception_5a/relu_5x5
I1219 15:02:23.304814 16918 net.cpp:84] Creating Layer inception_5a/relu_5x5
I1219 15:02:23.304823 16918 net.cpp:380] inception_5a/relu_5x5 <- inception_5a/5x5
I1219 15:02:23.304834 16918 net.cpp:327] inception_5a/relu_5x5 -> inception_5a/5x5 (in-place)
I1219 15:02:23.304846 16918 net.cpp:113] Setting up inception_5a/relu_5x5
I1219 15:02:23.304949 16918 net.cpp:120] Top shape: 50 128 7 7 (313600)
I1219 15:02:23.304960 16918 layer_factory.hpp:74] Creating layer inception_5a/pool
I1219 15:02:23.304970 16918 layer_factory.cpp:56] CUDNN does not support padding or multiple tops. Using Caffe's own pooling layer.
I1219 15:02:23.304982 16918 net.cpp:84] Creating Layer inception_5a/pool
I1219 15:02:23.304991 16918 net.cpp:380] inception_5a/pool <- pool4/3x3_s2_pool4/3x3_s2_0_split_3
I1219 15:02:23.305001 16918 net.cpp:338] inception_5a/pool -> inception_5a/pool
I1219 15:02:23.305028 16918 net.cpp:113] Setting up inception_5a/pool
I1219 15:02:23.305073 16918 net.cpp:120] Top shape: 50 832 7 7 (2038400)
I1219 15:02:23.305084 16918 layer_factory.hpp:74] Creating layer inception_5a/pool_proj
I1219 15:02:23.305099 16918 net.cpp:84] Creating Layer inception_5a/pool_proj
I1219 15:02:23.305109 16918 net.cpp:380] inception_5a/pool_proj <- inception_5a/pool
I1219 15:02:23.305119 16918 net.cpp:338] inception_5a/pool_proj -> inception_5a/pool_proj
I1219 15:02:23.305135 16918 net.cpp:113] Setting up inception_5a/pool_proj
I1219 15:02:23.307052 16918 net.cpp:120] Top shape: 50 128 7 7 (313600)
I1219 15:02:23.307075 16918 layer_factory.hpp:74] Creating layer inception_5a/relu_pool_proj
I1219 15:02:23.307087 16918 net.cpp:84] Creating Layer inception_5a/relu_pool_proj
I1219 15:02:23.307096 16918 net.cpp:380] inception_5a/relu_pool_proj <- inception_5a/pool_proj
I1219 15:02:23.307106 16918 net.cpp:327] inception_5a/relu_pool_proj -> inception_5a/pool_proj (in-place)
I1219 15:02:23.307118 16918 net.cpp:113] Setting up inception_5a/relu_pool_proj
I1219 15:02:23.307219 16918 net.cpp:120] Top shape: 50 128 7 7 (313600)
I1219 15:02:23.307229 16918 layer_factory.hpp:74] Creating layer inception_5a/output
I1219 15:02:23.307240 16918 net.cpp:84] Creating Layer inception_5a/output
I1219 15:02:23.307248 16918 net.cpp:380] inception_5a/output <- inception_5a/1x1
I1219 15:02:23.307258 16918 net.cpp:380] inception_5a/output <- inception_5a/3x3
I1219 15:02:23.307267 16918 net.cpp:380] inception_5a/output <- inception_5a/5x5
I1219 15:02:23.307276 16918 net.cpp:380] inception_5a/output <- inception_5a/pool_proj
I1219 15:02:23.307287 16918 net.cpp:338] inception_5a/output -> inception_5a/output
I1219 15:02:23.307299 16918 net.cpp:113] Setting up inception_5a/output
I1219 15:02:23.307312 16918 net.cpp:120] Top shape: 50 832 7 7 (2038400)
I1219 15:02:23.307319 16918 layer_factory.hpp:74] Creating layer inception_5a/output_inception_5a/output_0_split
I1219 15:02:23.307332 16918 net.cpp:84] Creating Layer inception_5a/output_inception_5a/output_0_split
I1219 15:02:23.307339 16918 net.cpp:380] inception_5a/output_inception_5a/output_0_split <- inception_5a/output
I1219 15:02:23.307349 16918 net.cpp:338] inception_5a/output_inception_5a/output_0_split -> inception_5a/output_inception_5a/output_0_split_0
I1219 15:02:23.307364 16918 net.cpp:338] inception_5a/output_inception_5a/output_0_split -> inception_5a/output_inception_5a/output_0_split_1
I1219 15:02:23.307376 16918 net.cpp:338] inception_5a/output_inception_5a/output_0_split -> inception_5a/output_inception_5a/output_0_split_2
I1219 15:02:23.307389 16918 net.cpp:338] inception_5a/output_inception_5a/output_0_split -> inception_5a/output_inception_5a/output_0_split_3
I1219 15:02:23.307399 16918 net.cpp:113] Setting up inception_5a/output_inception_5a/output_0_split
I1219 15:02:23.307410 16918 net.cpp:120] Top shape: 50 832 7 7 (2038400)
I1219 15:02:23.307420 16918 net.cpp:120] Top shape: 50 832 7 7 (2038400)
I1219 15:02:23.307428 16918 net.cpp:120] Top shape: 50 832 7 7 (2038400)
I1219 15:02:23.307437 16918 net.cpp:120] Top shape: 50 832 7 7 (2038400)
I1219 15:02:23.307445 16918 layer_factory.hpp:74] Creating layer inception_5b/1x1
I1219 15:02:23.307456 16918 net.cpp:84] Creating Layer inception_5b/1x1
I1219 15:02:23.307464 16918 net.cpp:380] inception_5b/1x1 <- inception_5a/output_inception_5a/output_0_split_0
I1219 15:02:23.307477 16918 net.cpp:338] inception_5b/1x1 -> inception_5b/1x1
I1219 15:02:23.307489 16918 net.cpp:113] Setting up inception_5b/1x1
I1219 15:02:23.312110 16918 net.cpp:120] Top shape: 50 384 7 7 (940800)
I1219 15:02:23.312134 16918 layer_factory.hpp:74] Creating layer inception_5b/relu_1x1
I1219 15:02:23.312147 16918 net.cpp:84] Creating Layer inception_5b/relu_1x1
I1219 15:02:23.312157 16918 net.cpp:380] inception_5b/relu_1x1 <- inception_5b/1x1
I1219 15:02:23.312175 16918 net.cpp:327] inception_5b/relu_1x1 -> inception_5b/1x1 (in-place)
I1219 15:02:23.312186 16918 net.cpp:113] Setting up inception_5b/relu_1x1
I1219 15:02:23.312302 16918 net.cpp:120] Top shape: 50 384 7 7 (940800)
I1219 15:02:23.312325 16918 layer_factory.hpp:74] Creating layer inception_5b/3x3_reduce
I1219 15:02:23.312337 16918 net.cpp:84] Creating Layer inception_5b/3x3_reduce
I1219 15:02:23.312345 16918 net.cpp:380] inception_5b/3x3_reduce <- inception_5a/output_inception_5a/output_0_split_1
I1219 15:02:23.312361 16918 net.cpp:338] inception_5b/3x3_reduce -> inception_5b/3x3_reduce
I1219 15:02:23.312374 16918 net.cpp:113] Setting up inception_5b/3x3_reduce
I1219 15:02:23.314971 16918 net.cpp:120] Top shape: 50 192 7 7 (470400)
I1219 15:02:23.314993 16918 layer_factory.hpp:74] Creating layer inception_5b/relu_3x3_reduce
I1219 15:02:23.315004 16918 net.cpp:84] Creating Layer inception_5b/relu_3x3_reduce
I1219 15:02:23.315013 16918 net.cpp:380] inception_5b/relu_3x3_reduce <- inception_5b/3x3_reduce
I1219 15:02:23.315027 16918 net.cpp:327] inception_5b/relu_3x3_reduce -> inception_5b/3x3_reduce (in-place)
I1219 15:02:23.315038 16918 net.cpp:113] Setting up inception_5b/relu_3x3_reduce
I1219 15:02:23.315359 16918 net.cpp:120] Top shape: 50 192 7 7 (470400)
I1219 15:02:23.315374 16918 layer_factory.hpp:74] Creating layer inception_5b/3x3
I1219 15:02:23.315389 16918 net.cpp:84] Creating Layer inception_5b/3x3
I1219 15:02:23.315398 16918 net.cpp:380] inception_5b/3x3 <- inception_5b/3x3_reduce
I1219 15:02:23.315412 16918 net.cpp:338] inception_5b/3x3 -> inception_5b/3x3
I1219 15:02:23.315425 16918 net.cpp:113] Setting up inception_5b/3x3
I1219 15:02:23.330423 16918 net.cpp:120] Top shape: 50 384 7 7 (940800)
I1219 15:02:23.330471 16918 layer_factory.hpp:74] Creating layer inception_5b/relu_3x3
I1219 15:02:23.330492 16918 net.cpp:84] Creating Layer inception_5b/relu_3x3
I1219 15:02:23.330505 16918 net.cpp:380] inception_5b/relu_3x3 <- inception_5b/3x3
I1219 15:02:23.330523 16918 net.cpp:327] inception_5b/relu_3x3 -> inception_5b/3x3 (in-place)
I1219 15:02:23.330539 16918 net.cpp:113] Setting up inception_5b/relu_3x3
I1219 15:02:23.330653 16918 net.cpp:120] Top shape: 50 384 7 7 (940800)
I1219 15:02:23.330665 16918 layer_factory.hpp:74] Creating layer inception_5b/5x5_reduce
I1219 15:02:23.330683 16918 net.cpp:84] Creating Layer inception_5b/5x5_reduce
I1219 15:02:23.330695 16918 net.cpp:380] inception_5b/5x5_reduce <- inception_5a/output_inception_5a/output_0_split_2
I1219 15:02:23.330711 16918 net.cpp:338] inception_5b/5x5_reduce -> inception_5b/5x5_reduce
I1219 15:02:23.330727 16918 net.cpp:113] Setting up inception_5b/5x5_reduce
I1219 15:02:23.331848 16918 net.cpp:120] Top shape: 50 48 7 7 (117600)
I1219 15:02:23.331872 16918 layer_factory.hpp:74] Creating layer inception_5b/relu_5x5_reduce
I1219 15:02:23.331886 16918 net.cpp:84] Creating Layer inception_5b/relu_5x5_reduce
I1219 15:02:23.331897 16918 net.cpp:380] inception_5b/relu_5x5_reduce <- inception_5b/5x5_reduce
I1219 15:02:23.331912 16918 net.cpp:327] inception_5b/relu_5x5_reduce -> inception_5b/5x5_reduce (in-place)
I1219 15:02:23.331926 16918 net.cpp:113] Setting up inception_5b/relu_5x5_reduce
I1219 15:02:23.332041 16918 net.cpp:120] Top shape: 50 48 7 7 (117600)
I1219 15:02:23.332052 16918 layer_factory.hpp:74] Creating layer inception_5b/5x5
I1219 15:02:23.332067 16918 net.cpp:84] Creating Layer inception_5b/5x5
I1219 15:02:23.332077 16918 net.cpp:380] inception_5b/5x5 <- inception_5b/5x5_reduce
I1219 15:02:23.332093 16918 net.cpp:338] inception_5b/5x5 -> inception_5b/5x5
I1219 15:02:23.332108 16918 net.cpp:113] Setting up inception_5b/5x5
I1219 15:02:23.334661 16918 net.cpp:120] Top shape: 50 128 7 7 (313600)
I1219 15:02:23.334686 16918 layer_factory.hpp:74] Creating layer inception_5b/relu_5x5
I1219 15:02:23.334705 16918 net.cpp:84] Creating Layer inception_5b/relu_5x5
I1219 15:02:23.334717 16918 net.cpp:380] inception_5b/relu_5x5 <- inception_5b/5x5
I1219 15:02:23.334729 16918 net.cpp:327] inception_5b/relu_5x5 -> inception_5b/5x5 (in-place)
I1219 15:02:23.334743 16918 net.cpp:113] Setting up inception_5b/relu_5x5
I1219 15:02:23.335079 16918 net.cpp:120] Top shape: 50 128 7 7 (313600)
I1219 15:02:23.335114 16918 layer_factory.hpp:74] Creating layer inception_5b/pool
I1219 15:02:23.335142 16918 layer_factory.cpp:56] CUDNN does not support padding or multiple tops. Using Caffe's own pooling layer.
I1219 15:02:23.335155 16918 net.cpp:84] Creating Layer inception_5b/pool
I1219 15:02:23.335166 16918 net.cpp:380] inception_5b/pool <- inception_5a/output_inception_5a/output_0_split_3
I1219 15:02:23.335182 16918 net.cpp:338] inception_5b/pool -> inception_5b/pool
I1219 15:02:23.335197 16918 net.cpp:113] Setting up inception_5b/pool
I1219 15:02:23.335214 16918 net.cpp:120] Top shape: 50 832 7 7 (2038400)
I1219 15:02:23.335224 16918 layer_factory.hpp:74] Creating layer inception_5b/pool_proj
I1219 15:02:23.335240 16918 net.cpp:84] Creating Layer inception_5b/pool_proj
I1219 15:02:23.335252 16918 net.cpp:380] inception_5b/pool_proj <- inception_5b/pool
I1219 15:02:23.335264 16918 net.cpp:338] inception_5b/pool_proj -> inception_5b/pool_proj
I1219 15:02:23.335278 16918 net.cpp:113] Setting up inception_5b/pool_proj
I1219 15:02:23.337229 16918 net.cpp:120] Top shape: 50 128 7 7 (313600)
I1219 15:02:23.337255 16918 layer_factory.hpp:74] Creating layer inception_5b/relu_pool_proj
I1219 15:02:23.337271 16918 net.cpp:84] Creating Layer inception_5b/relu_pool_proj
I1219 15:02:23.337281 16918 net.cpp:380] inception_5b/relu_pool_proj <- inception_5b/pool_proj
I1219 15:02:23.337293 16918 net.cpp:327] inception_5b/relu_pool_proj -> inception_5b/pool_proj (in-place)
I1219 15:02:23.337312 16918 net.cpp:113] Setting up inception_5b/relu_pool_proj
I1219 15:02:23.337421 16918 net.cpp:120] Top shape: 50 128 7 7 (313600)
I1219 15:02:23.337435 16918 layer_factory.hpp:74] Creating layer inception_5b/output
I1219 15:02:23.337448 16918 net.cpp:84] Creating Layer inception_5b/output
I1219 15:02:23.337458 16918 net.cpp:380] inception_5b/output <- inception_5b/1x1
I1219 15:02:23.337469 16918 net.cpp:380] inception_5b/output <- inception_5b/3x3
I1219 15:02:23.337481 16918 net.cpp:380] inception_5b/output <- inception_5b/5x5
I1219 15:02:23.337491 16918 net.cpp:380] inception_5b/output <- inception_5b/pool_proj
I1219 15:02:23.337509 16918 net.cpp:338] inception_5b/output -> inception_5b/output
I1219 15:02:23.337523 16918 net.cpp:113] Setting up inception_5b/output
I1219 15:02:23.337539 16918 net.cpp:120] Top shape: 50 1024 7 7 (2508800)
I1219 15:02:23.337548 16918 layer_factory.hpp:74] Creating layer pool5/7x7_s1
I1219 15:02:23.337561 16918 net.cpp:84] Creating Layer pool5/7x7_s1
I1219 15:02:23.337570 16918 net.cpp:380] pool5/7x7_s1 <- inception_5b/output
I1219 15:02:23.337584 16918 net.cpp:338] pool5/7x7_s1 -> pool5/7x7_s1
I1219 15:02:23.337596 16918 net.cpp:113] Setting up pool5/7x7_s1
I1219 15:02:23.337708 16918 net.cpp:120] Top shape: 50 1024 1 1 (51200)
I1219 15:02:23.337719 16918 layer_factory.hpp:74] Creating layer pool5/drop_7x7_s1
I1219 15:02:23.337731 16918 net.cpp:84] Creating Layer pool5/drop_7x7_s1
I1219 15:02:23.337741 16918 net.cpp:380] pool5/drop_7x7_s1 <- pool5/7x7_s1
I1219 15:02:23.337752 16918 net.cpp:327] pool5/drop_7x7_s1 -> pool5/7x7_s1 (in-place)
I1219 15:02:23.337765 16918 net.cpp:113] Setting up pool5/drop_7x7_s1
I1219 15:02:23.337779 16918 net.cpp:120] Top shape: 50 1024 1 1 (51200)
I1219 15:02:23.337788 16918 layer_factory.hpp:74] Creating layer loss3/classifier_kaggle
I1219 15:02:23.337802 16918 net.cpp:84] Creating Layer loss3/classifier_kaggle
I1219 15:02:23.337811 16918 net.cpp:380] loss3/classifier_kaggle <- pool5/7x7_s1
I1219 15:02:23.337827 16918 net.cpp:338] loss3/classifier_kaggle -> loss3/classifier_kaggle
I1219 15:02:23.337841 16918 net.cpp:113] Setting up loss3/classifier_kaggle
I1219 15:02:23.343616 16918 net.cpp:120] Top shape: 50 447 (22350)
I1219 15:02:23.343637 16918 layer_factory.hpp:74] Creating layer loss3/classifier_kaggle_loss3/classifier_kaggle_0_split
I1219 15:02:23.343654 16918 net.cpp:84] Creating Layer loss3/classifier_kaggle_loss3/classifier_kaggle_0_split
I1219 15:02:23.343664 16918 net.cpp:380] loss3/classifier_kaggle_loss3/classifier_kaggle_0_split <- loss3/classifier_kaggle
I1219 15:02:23.343688 16918 net.cpp:338] loss3/classifier_kaggle_loss3/classifier_kaggle_0_split -> loss3/classifier_kaggle_loss3/classifier_kaggle_0_split_0
I1219 15:02:23.343715 16918 net.cpp:338] loss3/classifier_kaggle_loss3/classifier_kaggle_0_split -> loss3/classifier_kaggle_loss3/classifier_kaggle_0_split_1
I1219 15:02:23.343730 16918 net.cpp:338] loss3/classifier_kaggle_loss3/classifier_kaggle_0_split -> loss3/classifier_kaggle_loss3/classifier_kaggle_0_split_2
I1219 15:02:23.343744 16918 net.cpp:113] Setting up loss3/classifier_kaggle_loss3/classifier_kaggle_0_split
I1219 15:02:23.343760 16918 net.cpp:120] Top shape: 50 447 (22350)
I1219 15:02:23.343771 16918 net.cpp:120] Top shape: 50 447 (22350)
I1219 15:02:23.343781 16918 net.cpp:120] Top shape: 50 447 (22350)
I1219 15:02:23.343789 16918 layer_factory.hpp:74] Creating layer loss3/loss3
I1219 15:02:23.343801 16918 net.cpp:84] Creating Layer loss3/loss3
I1219 15:02:23.343811 16918 net.cpp:380] loss3/loss3 <- loss3/classifier_kaggle_loss3/classifier_kaggle_0_split_0
I1219 15:02:23.343822 16918 net.cpp:380] loss3/loss3 <- label_data_1_split_6
I1219 15:02:23.343833 16918 net.cpp:338] loss3/loss3 -> loss3/loss3
…
