…
I0106 23:17:19.916303 16704 net.cpp:257] The NetState phase (0) differed from the phase (1) specified by a rule in layer loss3/top-5
I0106 23:17:19.918792 16704 net.cpp:42] Initializing net from parameters: 
name: "MYNET"
state {
  phase: TRAIN
}
layer {
  name: "data"
  type: "ImageData"
  top: "data"
  top: "label"
  include {
    phase: TRAIN
  }
  transform_param {
    mirror: false
    crop_size: 224
    mean_value: 129
    mean_value: 129
    mean_value: 129
  }
  image_data_param {
    source: "/home/coldmanck/kaggle/label_train_full_resize_rotated.txt"
    batch_size: 80
    shuffle: true
  }
}
layer {
  name: "conv1/7x7_s2"
  type: "Convolution"
  bottom: "data"
  top: "conv1/7x7_s2"
  param {
    lr_mult: 1
    decay_mult: 1
  }
  param {
    lr_mult: 2
    decay_mult: 0
  }
  convolution_param {
    num_output: 64
    pad: 3
    kernel_size: 7
    stride: 2
    weight_filler {
      type: "xavier"
    }
    bias_filler {
      type: "constant"
      value: 0.2
    }
  }
}
layer {
  name: "conv1/relu_7x7"
  type: "ReLU"
  bottom: "conv1/7x7_s2"
  top: "conv1/7x7_s2"
}
layer {
  name: "pool1/3x3_s2"
  type: "Pooling"
  bottom: "conv1/7x7_s2"
  top: "pool1/3x3_s2"
  pooling_param {
    pool: MAX
    kernel_size: 3
    stride: 2
  }
}
layer {
  name: "pool1/norm1"
  type: "LRN"
  bottom: "pool1/3x3_s2"
  top: "pool1/norm1"
  lrn_param {
    local_size: 5
    alpha: 0.0001
    beta: 0.75
  }
}
layer {
  name: "conv2/3x3_reduce"
  type: "Convolution"
  bottom: "pool1/norm1"
  top: "conv2/3x3_reduce"
  param {
    lr_mult: 1
    decay_mult: 1
  }
  param {
    lr_mult: 2
    decay_mult: 0
  }
  convolution_param {
    num_output: 64
    kernel_size: 1
    weight_filler {
      type: "xavier"
    }
    bias_filler {
      type: "constant"
      value: 0.2
    }
  }
}
layer {
  name: "conv2/relu_3x3_reduce"
  type: "ReLU"
  bottom: "conv2/3x3_reduce"
  top: "conv2/3x3_reduce"
}
layer {
  name: "conv2/3x3"
  type: "Convolution"
  bottom: "conv2/3x3_reduce"
  top: "conv2/3x3"
  param {
    lr_mult: 1
    decay_mult: 1
  }
  param {
    lr_mult: 2
    decay_mult: 0
  }
  convolution_param {
    num_output: 192
    pad: 1
    kernel_size: 3
    weight_filler {
      type: "xavier"
    }
    bias_filler {
      type: "constant"
      value: 0.2
    }
  }
}
layer {
  name: "conv2/relu_3x3"
  type: "ReLU"
  bottom: "conv2/3x3"
  top: "conv2/3x3"
}
layer {
  name: "conv2/norm2"
  type: "LRN"
  bottom: "conv2/3x3"
  top: "conv2/norm2"
  lrn_param {
    local_size: 5
    alpha: 0.0001
    beta: 0.75
  }
}
layer {
  name: "pool2/3x3_s2"
  type: "Pooling"
  bottom: "conv2/norm2"
  top: "pool2/3x3_s2"
  pooling_param {
    pool: MAX
    kernel_size: 3
    stride: 2
  }
}
layer {
  name: "inception_3a/1x1"
  type: "Convolution"
  bottom: "pool2/3x3_s2"
  top: "inception_3a/1x1"
  param {
    lr_mult: 1
    decay_mult: 1
  }
  param {
    lr_mult: 2
    decay_mult: 0
  }
  convolution_param {
    num_output: 64
    kernel_size: 1
    weight_filler {
      type: "xavier"
    }
    bias_filler {
      type: "constant"
      value: 0.2
    }
  }
}
layer {
  name: "inception_3a/relu_1x1"
  type: "ReLU"
  bottom: "inception_3a/1x1"
  top: "inception_3a/1x1"
}
layer {
  name: "inception_3a/3x3_reduce"
  type: "Convolution"
  bottom: "pool2/3x3_s2"
  top: "inception_3a/3x3_reduce"
  param {
    lr_mult: 1
    decay_mult: 1
  }
  param {
    lr_mult: 2
    decay_mult: 0
  }
  convolution_param {
    num_output: 96
    kernel_size: 1
    weight_filler {
      type: "xavier"
    }
    bias_filler {
      type: "constant"
      value: 0.2
    }
  }
}
layer {
  name: "inception_3a/relu_3x3_reduce"
  type: "ReLU"
  bottom: "inception_3a/3x3_reduce"
  top: "inception_3a/3x3_reduce"
}
layer {
  name: "inception_3a/3x3"
  type: "Convolution"
  bottom: "inception_3a/3x3_reduce"
  top: "inception_3a/3x3"
  param {
    lr_mult: 1
    decay_mult: 1
  }
  param {
    lr_mult: 2
    decay_mult: 0
  }
  convolution_param {
    num_output: 128
    pad: 1
    kernel_size: 3
    weight_filler {
      type: "xavier"
    }
    bias_filler {
      type: "constant"
      value: 0.2
    }
  }
}
layer {
  name: "inception_3a/relu_3x3"
  type: "ReLU"
  bottom: "inception_3a/3x3"
  top: "inception_3a/3x3"
}
layer {
  name: "inception_3a/5x5_reduce"
  type: "Convolution"
  bottom: "pool2/3x3_s2"
  top: "inception_3a/5x5_reduce"
  param {
    lr_mult: 1
    decay_mult: 1
  }
  param {
    lr_mult: 2
    decay_mult: 0
  }
  convolution_param {
    num_output: 16
    kernel_size: 1
    weight_filler {
      type: "xavier"
    }
    bias_filler {
      type: "constant"
      value: 0.2
    }
  }
}
layer {
  name: "inception_3a/relu_5x5_reduce"
  type: "ReLU"
  bottom: "inception_3a/5x5_reduce"
  top: "inception_3a/5x5_reduce"
}
layer {
  name: "inception_3a/5x5"
  type: "Convolution"
  bottom: "inception_3a/5x5_reduce"
  top: "inception_3a/5x5"
  param {
    lr_mult: 1
    decay_mult: 1
  }
  param {
    lr_mult: 2
    decay_mult: 0
  }
  convolution_param {
    num_output: 32
    pad: 2
    kernel_size: 5
    weight_filler {
      type: "xavier"
    }
    bias_filler {
      type: "constant"
      value: 0.2
    }
  }
}
layer {
  name: "inception_3a/relu_5x5"
  type: "ReLU"
  bottom: "inception_3a/5x5"
  top: "inception_3a/5x5"
}
layer {
  name: "inception_3a/pool"
  type: "Pooling"
  bottom: "pool2/3x3_s2"
  top: "inception_3a/pool"
  pooling_param {
    pool: MAX
    kernel_size: 3
    stride: 1
    pad: 1
  }
}
layer {
  name: "inception_3a/pool_proj"
  type: "Convolution"
  bottom: "inception_3a/pool"
  top: "inception_3a/pool_proj"
  param {
    lr_mult: 1
    decay_mult: 1
  }
  param {
    lr_mult: 2
    decay_mult: 0
  }
  convolution_param {
    num_output: 32
    kernel_size: 1
    weight_filler {
      type: "xavier"
    }
    bias_filler {
      type: "constant"
      value: 0.2
    }
  }
}
layer {
  name: "inception_3a/relu_pool_proj"
  type: "ReLU"
  bottom: "inception_3a/pool_proj"
  top: "inception_3a/pool_proj"
}
layer {
  name: "inception_3a/output"
  type: "Concat"
  bottom: "inception_3a/1x1"
  bottom: "inception_3a/3x3"
  bottom: "inception_3a/5x5"
  bottom: "inception_3a/pool_proj"
  top: "inception_3a/output"
}
layer {
  name: "inception_3b/1x1"
  type: "Convolution"
  bottom: "inception_3a/output"
  top: "inception_3b/1x1"
  param {
    lr_mult: 1
    decay_mult: 1
  }
  param {
    lr_mult: 2
    decay_mult: 0
  }
  convolution_param {
    num_output: 128
    kernel_size: 1
    weight_filler {
      type: "xavier"
    }
    bias_filler {
      type: "constant"
      value: 0.2
    }
  }
}
layer {
  name: "inception_3b/relu_1x1"
  type: "ReLU"
  bottom: "inception_3b/1x1"
  top: "inception_3b/1x1"
}
layer {
  name: "inception_3b/3x3_reduce"
  type: "Convolution"
  bottom: "inception_3a/output"
  top: "inception_3b/3x3_reduce"
  param {
    lr_mult: 1
    decay_mult: 1
  }
  param {
    lr_mult: 2
    decay_mult: 0
  }
  convolution_param {
    num_output: 128
    kernel_size: 1
    weight_filler {
      type: "xavier"
    }
    bias_filler {
      type: "constant"
      value: 0.2
    }
  }
}
layer {
  name: "inception_3b/relu_3x3_reduce"
  type: "ReLU"
  bottom: "inception_3b/3x3_reduce"
  top: "inception_3b/3x3_reduce"
}
layer {
  name: "inception_3b/3x3"
  type: "Convolution"
  bottom: "inception_3b/3x3_reduce"
  top: "inception_3b/3x3"
  param {
    lr_mult: 1
    decay_mult: 1
  }
  param {
    lr_mult: 2
    decay_mult: 0
  }
  convolution_param {
    num_output: 192
    pad: 1
    kernel_size: 3
    weight_filler {
      type: "xavier"
    }
    bias_filler {
      type: "constant"
      value: 0.2
    }
  }
}
layer {
  name: "inception_3b/relu_3x3"
  type: "ReLU"
  bottom: "inception_3b/3x3"
  top: "inception_3b/3x3"
}
layer {
  name: "inception_3b/5x5_reduce"
  type: "Convolution"
  bottom: "inception_3a/output"
  top: "inception_3b/5x5_reduce"
  param {
    lr_mult: 1
    decay_mult: 1
  }
  param {
    lr_mult: 2
    decay_mult: 0
  }
  convolution_param {
    num_output: 32
    kernel_size: 1
    weight_filler {
      type: "xavier"
    }
    bias_filler {
      type: "constant"
      value: 0.2
    }
  }
}
layer {
  name: "inception_3b/relu_5x5_reduce"
  type: "ReLU"
  bottom: "inception_3b/5x5_reduce"
  top: "inception_3b/5x5_reduce"
}
layer {
  name: "inception_3b/5x5"
  type: "Convolution"
  bottom: "inception_3b/5x5_reduce"
  top: "inception_3b/5x5"
  param {
    lr_mult: 1
    decay_mult: 1
  }
  param {
    lr_mult: 2
    decay_mult: 0
  }
  convolution_param {
    num_output: 96
    pad: 2
    kernel_size: 5
    weight_filler {
      type: "xavier"
    }
    bias_filler {
      type: "constant"
      value: 0.2
    }
  }
}
layer {
  name: "inception_3b/relu_5x5"
  type: "ReLU"
  bottom: "inception_3b/5x5"
  top: "inception_3b/5x5"
}
layer {
  name: "inception_3b/pool"
  type: "Pooling"
  bottom: "inception_3a/output"
  top: "inception_3b/pool"
  pooling_param {
    pool: MAX
    kernel_size: 3
    stride: 1
    pad: 1
  }
}
layer {
  name: "inception_3b/pool_proj"
  type: "Convolution"
  bottom: "inception_3b/pool"
  top: "inception_3b/pool_proj"
  param {
    lr_mult: 1
    decay_mult: 1
  }
  param {
    lr_mult: 2
    decay_mult: 0
  }
  convolution_param {
    num_output: 64
    kernel_size: 1
    weight_filler {
      type: "xavier"
    }
    bias_filler {
      type: "constant"
      value: 0.2
    }
  }
}
layer {
  name: "inception_3b/relu_pool_proj"
  type: "ReLU"
  bottom: "inception_3b/pool_proj"
  top: "inception_3b/pool_proj"
}
layer {
  name: "inception_3b/output"
  type: "Concat"
  bottom: "inception_3b/1x1"
  bottom: "inception_3b/3x3"
  bottom: "inception_3b/5x5"
  bottom: "inception_3b/pool_proj"
  top: "inception_3b/output"
}
layer {
  name: "pool3/3x3_s2"
  type: "Pooling"
  bottom: "inception_3b/output"
  top: "pool3/3x3_s2"
  pooling_param {
    pool: MAX
    kernel_size: 3
    stride: 2
  }
}
layer {
  name: "inception_4a/1x1"
  type: "Convolution"
  bottom: "pool3/3x3_s2"
  top: "inception_4a/1x1"
  param {
    lr_mult: 1
    decay_mult: 1
  }
  param {
    lr_mult: 2
    decay_mult: 0
  }
  convolution_param {
    num_output: 192
    kernel_size: 1
    weight_filler {
      type: "xavier"
    }
    bias_filler {
      type: "constant"
      value: 0.2
    }
  }
}
layer {
  name: "inception_4a/relu_1x1"
  type: "ReLU"
  bottom: "inception_4a/1x1"
  top: "inception_4a/1x1"
}
layer {
  name: "inception_4a/3x3_reduce"
  type: "Convolution"
  bottom: "pool3/3x3_s2"
  top: "inception_4a/3x3_reduce"
  param {
    lr_mult: 1
    decay_mult: 1
  }
  param {
    lr_mult: 2
    decay_mult: 0
  }
  convolution_param {
    num_output: 96
    kernel_size: 1
    weight_filler {
      type: "xavier"
    }
    bias_filler {
      type: "constant"
      value: 0.2
    }
  }
}
layer {
  name: "inception_4a/relu_3x3_reduce"
  type: "ReLU"
  bottom: "inception_4a/3x3_reduce"
  top: "inception_4a/3x3_reduce"
}
layer {
  name: "inception_4a/3x3"
  type: "Convolution"
  bottom: "inception_4a/3x3_reduce"
  top: "inception_4a/3x3"
  param {
    lr_mult: 1
    decay_mult: 1
  }
  param {
    lr_mult: 2
    decay_mult: 0
  }
  convolution_param {
    num_output: 208
    pad: 1
    kernel_size: 3
    weight_filler {
      type: "xavier"
    }
    bias_filler {
      type: "constant"
      value: 0.2
    }
  }
}
layer {
  name: "inception_4a/relu_3x3"
  type: "ReLU"
  bottom: "inception_4a/3x3"
  top: "inception_4a/3x3"
}
layer {
  name: "inception_4a/5x5_reduce"
  type: "Convolution"
  bottom: "pool3/3x3_s2"
  top: "inception_4a/5x5_reduce"
  param {
    lr_mult: 1
    decay_mult: 1
  }
  param {
    lr_mult: 2
    decay_mult: 0
  }
  convolution_param {
    num_output: 16
    kernel_size: 1
    weight_filler {
      type: "xavier"
    }
    bias_filler {
      type: "constant"
      value: 0.2
    }
  }
}
layer {
  name: "inception_4a/relu_5x5_reduce"
  type: "ReLU"
  bottom: "inception_4a/5x5_reduce"
  top: "inception_4a/5x5_reduce"
}
layer {
  name: "inception_4a/5x5"
  type: "Convolution"
  bottom: "inception_4a/5x5_reduce"
  top: "inception_4a/5x5"
  param {
    lr_mult: 1
    decay_mult: 1
  }
  param {
    lr_mult: 2
    decay_mult: 0
  }
  convolution_param {
    num_output: 48
    pad: 2
    kernel_size: 5
    weight_filler {
      type: "xavier"
    }
    bias_filler {
      type: "constant"
      value: 0.2
    }
  }
}
layer {
  name: "inception_4a/relu_5x5"
  type: "ReLU"
  bottom: "inception_4a/5x5"
  top: "inception_4a/5x5"
}
layer {
  name: "inception_4a/pool"
  type: "Pooling"
  bottom: "pool3/3x3_s2"
  top: "inception_4a/pool"
  pooling_param {
    pool: MAX
    kernel_size: 3
    stride: 1
    pad: 1
  }
}
layer {
  name: "inception_4a/pool_proj"
  type: "Convolution"
  bottom: "inception_4a/pool"
  top: "inception_4a/pool_proj"
  param {
    lr_mult: 1
    decay_mult: 1
  }
  param {
    lr_mult: 2
    decay_mult: 0
  }
  convolution_param {
    num_output: 64
    kernel_size: 1
    weight_filler {
      type: "xavier"
    }
    bias_filler {
      type: "constant"
      value: 0.2
    }
  }
}
layer {
  name: "inception_4a/relu_pool_proj"
  type: "ReLU"
  bottom: "inception_4a/pool_proj"
  top: "inception_4a/pool_proj"
}
layer {
  name: "inception_4a/output"
  type: "Concat"
  bottom: "inception_4a/1x1"
  bottom: "inception_4a/3x3"
  bottom: "inception_4a/5x5"
  bottom: "inception_4a/pool_proj"
  top: "inception_4a/output"
}
layer {
  name: "loss1/ave_pool"
  type: "Pooling"
  bottom: "inception_4a/output"
  top: "loss1/ave_pool"
  pooling_param {
    pool: AVE
    kernel_size: 5
    stride: 3
  }
}
layer {
  name: "loss1/conv"
  type: "Convolution"
  bottom: "loss1/ave_pool"
  top: "loss1/conv"
  param {
    lr_mult: 1
    decay_mult: 1
  }
  param {
    lr_mult: 2
    decay_mult: 0
  }
  convolution_param {
    num_output: 128
    kernel_size: 1
    weight_filler {
      type: "xavier"
    }
    bias_filler {
      type: "constant"
      value: 0.2
    }
  }
}
layer {
  name: "loss1/relu_conv"
  type: "ReLU"
  bottom: "loss1/conv"
  top: "loss1/conv"
}
layer {
  name: "loss1/fc"
  type: "InnerProduct"
  bottom: "loss1/conv"
  top: "loss1/fc"
  param {
    lr_mult: 1
    decay_mult: 1
  }
  param {
    lr_mult: 2
    decay_mult: 0
  }
  inner_product_param {
    num_output: 1024
    weight_filler {
      type: "xavier"
    }
    bias_filler {
      type: "constant"
      value: 0.2
    }
  }
}
layer {
  name: "loss1/relu_fc"
  type: "ReLU"
  bottom: "loss1/fc"
  top: "loss1/fc"
}
layer {
  name: "loss1/drop_fc"
  type: "Dropout"
  bottom: "loss1/fc"
  top: "loss1/fc"
  dropout_param {
    dropout_ratio: 0.7
  }
}
layer {
  name: "loss1/classifier_kaggle"
  type: "InnerProduct"
  bottom: "loss1/fc"
  top: "loss1/classifier_kaggle"
  param {
    lr_mult: 1
    decay_mult: 1
  }
  param {
    lr_mult: 2
    decay_mult: 0
  }
  inner_product_param {
    num_output: 447
    weight_filler {
      type: "xavier"
    }
    bias_filler {
      type: "constant"
      value: 0
    }
  }
}
layer {
  name: "loss1/loss"
  type: "SoftmaxWithLoss"
  bottom: "loss1/classifier_kaggle"
  bottom: "label"
  top: "loss1/loss1"
  loss_weight: 0.3
}
layer {
  name: "inception_4b/1x1"
  type: "Convolution"
  bottom: "inception_4a/output"
  top: "inception_4b/1x1"
  param {
    lr_mult: 1
    decay_mult: 1
  }
  param {
    lr_mult: 2
    decay_mult: 0
  }
  convolution_param {
    num_output: 160
    kernel_size: 1
    weight_filler {
      type: "xavier"
    }
    bias_filler {
      type: "constant"
      value: 0.2
    }
  }
}
layer {
  name: "inception_4b/relu_1x1"
  type: "ReLU"
  bottom: "inception_4b/1x1"
  top: "inception_4b/1x1"
}
layer {
  name: "inception_4b/3x3_reduce"
  type: "Convolution"
  bottom: "inception_4a/output"
  top: "inception_4b/3x3_reduce"
  param {
    lr_mult: 1
    decay_mult: 1
  }
  param {
    lr_mult: 2
    decay_mult: 0
  }
  convolution_param {
    num_output: 112
    kernel_size: 1
    weight_filler {
      type: "xavier"
    }
    bias_filler {
      type: "constant"
      value: 0.2
    }
  }
}
layer {
  name: "inception_4b/relu_3x3_reduce"
  type: "ReLU"
  bottom: "inception_4b/3x3_reduce"
  top: "inception_4b/3x3_reduce"
}
layer {
  name: "inception_4b/3x3"
  type: "Convolution"
  bottom: "inception_4b/3x3_reduce"
  top: "inception_4b/3x3"
  param {
    lr_mult: 1
    decay_mult: 1
  }
  param {
    lr_mult: 2
    decay_mult: 0
  }
  convolution_param {
    num_output: 224
    pad: 1
    kernel_size: 3
    weight_filler {
      type: "xavier"
    }
    bias_filler {
      type: "constant"
      value: 0.2
    }
  }
}
layer {
  name: "inception_4b/relu_3x3"
  type: "ReLU"
  bottom: "inception_4b/3x3"
  top: "inception_4b/3x3"
}
layer {
  name: "inception_4b/5x5_reduce"
  type: "Convolution"
  bottom: "inception_4a/output"
  top: "inception_4b/5x5_reduce"
  param {
    lr_mult: 1
    decay_mult: 1
  }
  param {
    lr_mult: 2
    decay_mult: 0
  }
  convolution_param {
    num_output: 24
    kernel_size: 1
    weight_filler {
      type: "xavier"
    }
    bias_filler {
      type: "constant"
      value: 0.2
    }
  }
}
layer {
  name: "inception_4b/relu_5x5_reduce"
  type: "ReLU"
  bottom: "inception_4b/5x5_reduce"
  top: "inception_4b/5x5_reduce"
}
layer {
  name: "inception_4b/5x5"
  type: "Convolution"
  bottom: "inception_4b/5x5_reduce"
  top: "inception_4b/5x5"
  param {
    lr_mult: 1
    decay_mult: 1
  }
  param {
    lr_mult: 2
    decay_mult: 0
  }
  convolution_param {
    num_output: 64
    pad: 2
    kernel_size: 5
    weight_filler {
      type: "xavier"
    }
    bias_filler {
      type: "constant"
      value: 0.2
    }
  }
}
layer {
  name: "inception_4b/relu_5x5"
  type: "ReLU"
  bottom: "inception_4b/5x5"
  top: "inception_4b/5x5"
}
layer {
  name: "inception_4b/pool"
  type: "Pooling"
  bottom: "inception_4a/output"
  top: "inception_4b/pool"
  pooling_param {
    pool: MAX
    kernel_size: 3
    stride: 1
    pad: 1
  }
}
layer {
  name: "inception_4b/pool_proj"
  type: "Convolution"
  bottom: "inception_4b/pool"
  top: "inception_4b/pool_proj"
  param {
    lr_mult: 1
    decay_mult: 1
  }
  param {
    lr_mult: 2
    decay_mult: 0
  }
  convolution_param {
    num_output: 64
    kernel_size: 1
    weight_filler {
      type: "xavier"
    }
    bias_filler {
      type: "constant"
      value: 0.2
    }
  }
}
layer {
  name: "inception_4b/relu_pool_proj"
  type: "ReLU"
  bottom: "inception_4b/pool_proj"
  top: "inception_4b/pool_proj"
}
layer {
  name: "inception_4b/output"
  type: "Concat"
  bottom: "inception_4b/1x1"
  bottom: "inception_4b/3x3"
  bottom: "inception_4b/5x5"
  bottom: "inception_4b/pool_proj"
  top: "inception_4b/output"
}
layer {
  name: "inception_4c/1x1"
  type: "Convolution"
  bottom: "inception_4b/output"
  top: "inception_4c/1x1"
  param {
    lr_mult: 1
    decay_mult: 1
  }
  param {
    lr_mult: 2
    decay_mult: 0
  }
  convolution_param {
    num_output: 128
    kernel_size: 1
    weight_filler {
      type: "xavier"
    }
    bias_filler {
      type: "constant"
      value: 0.2
    }
  }
}
layer {
  name: "inception_4c/relu_1x1"
  type: "ReLU"
  bottom: "inception_4c/1x1"
  top: "inception_4c/1x1"
}
layer {
  name: "inception_4c/3x3_reduce"
  type: "Convolution"
  bottom: "inception_4b/output"
  top: "inception_4c/3x3_reduce"
  param {
    lr_mult: 1
    decay_mult: 1
  }
  param {
    lr_mult: 2
    decay_mult: 0
  }
  convolution_param {
    num_output: 128
    kernel_size: 1
    weight_filler {
      type: "xavier"
    }
    bias_filler {
      type: "constant"
      value: 0.2
    }
  }
}
layer {
  name: "inception_4c/relu_3x3_reduce"
  type: "ReLU"
  bottom: "inception_4c/3x3_reduce"
  top: "inception_4c/3x3_reduce"
}
layer {
  name: "inception_4c/3x3"
  type: "Convolution"
  bottom: "inception_4c/3x3_reduce"
  top: "inception_4c/3x3"
  param {
    lr_mult: 1
    decay_mult: 1
  }
  param {
    lr_mult: 2
    decay_mult: 0
  }
  convolution_param {
    num_output: 256
    pad: 1
    kernel_size: 3
    weight_filler {
      type: "xavier"
    }
    bias_filler {
      type: "constant"
      value: 0.2
    }
  }
}
layer {
  name: "inception_4c/relu_3x3"
  type: "ReLU"
  bottom: "inception_4c/3x3"
  top: "inception_4c/3x3"
}
layer {
  name: "inception_4c/5x5_reduce"
  type: "Convolution"
  bottom: "inception_4b/output"
  top: "inception_4c/5x5_reduce"
  param {
    lr_mult: 1
    decay_mult: 1
  }
  param {
    lr_mult: 2
    decay_mult: 0
  }
  convolution_param {
    num_output: 24
    kernel_size: 1
    weight_filler {
      type: "xavier"
    }
    bias_filler {
      type: "constant"
      value: 0.2
    }
  }
}
layer {
  name: "inception_4c/relu_5x5_reduce"
  type: "ReLU"
  bottom: "inception_4c/5x5_reduce"
  top: "inception_4c/5x5_reduce"
}
layer {
  name: "inception_4c/5x5"
  type: "Convolution"
  bottom: "inception_4c/5x5_reduce"
  top: "inception_4c/5x5"
  param {
    lr_mult: 1
    decay_mult: 1
  }
  param {
    lr_mult: 2
    decay_mult: 0
  }
  convolution_param {
    num_output: 64
    pad: 2
    kernel_size: 5
    weight_filler {
      type: "xavier"
    }
    bias_filler {
      type: "constant"
      value: 0.2
    }
  }
}
layer {
  name: "inception_4c/relu_5x5"
  type: "ReLU"
  bottom: "inception_4c/5x5"
  top: "inception_4c/5x5"
}
layer {
  name: "inception_4c/pool"
  type: "Pooling"
  bottom: "inception_4b/output"
  top: "inception_4c/pool"
  pooling_param {
    pool: MAX
    kernel_size: 3
    stride: 1
    pad: 1
  }
}
layer {
  name: "inception_4c/pool_proj"
  type: "Convolution"
  bottom: "inception_4c/pool"
  top: "inception_4c/pool_proj"
  param {
    lr_mult: 1
    decay_mult: 1
  }
  param {
    lr_mult: 2
    decay_mult: 0
  }
  convolution_param {
    num_output: 64
    kernel_size: 1
    weight_filler {
      type: "xavier"
    }
    bias_filler {
      type: "constant"
      value: 0.2
    }
  }
}
layer {
  name: "inception_4c/relu_pool_proj"
  type: "ReLU"
  bottom: "inception_4c/pool_proj"
  top: "inception_4c/pool_proj"
}
layer {
  name: "inception_4c/output"
  type: "Concat"
  bottom: "inception_4c/1x1"
  bottom: "inception_4c/3x3"
  bottom: "inception_4c/5x5"
  bottom: "inception_4c/pool_proj"
  top: "inception_4c/output"
}
layer {
  name: "inception_4d/1x1"
  type: "Convolution"
  bottom: "inception_4c/output"
  top: "inception_4d/1x1"
  param {
    lr_mult: 1
    decay_mult: 1
  }
  param {
    lr_mult: 2
    decay_mult: 0
  }
  convolution_param {
    num_output: 112
    kernel_size: 1
    weight_filler {
      type: "xavier"
    }
    bias_filler {
      type: "constant"
      value: 0.2
    }
  }
}
layer {
  name: "inception_4d/relu_1x1"
  type: "ReLU"
  bottom: "inception_4d/1x1"
  top: "inception_4d/1x1"
}
layer {
  name: "inception_4d/3x3_reduce"
  type: "Convolution"
  bottom: "inception_4c/output"
  top: "inception_4d/3x3_reduce"
  param {
    lr_mult: 1
    decay_mult: 1
  }
  param {
    lr_mult: 2
    decay_mult: 0
  }
  convolution_param {
    num_output: 144
    kernel_size: 1
    weight_filler {
      type: "xavier"
    }
    bias_filler {
      type: "constant"
      value: 0.2
    }
  }
}
layer {
  name: "inception_4d/relu_3x3_reduce"
  type: "ReLU"
  bottom: "inception_4d/3x3_reduce"
  top: "inception_4d/3x3_reduce"
}
layer {
  name: "inception_4d/3x3"
  type: "Convolution"
  bottom: "inception_4d/3x3_reduce"
  top: "inception_4d/3x3"
  param {
    lr_mult: 1
    decay_mult: 1
  }
  param {
    lr_mult: 2
    decay_mult: 0
  }
  convolution_param {
    num_output: 288
    pad: 1
    kernel_size: 3
    weight_filler {
      type: "xavier"
    }
    bias_filler {
      type: "constant"
      value: 0.2
    }
  }
}
layer {
  name: "inception_4d/relu_3x3"
  type: "ReLU"
  bottom: "inception_4d/3x3"
  top: "inception_4d/3x3"
}
layer {
  name: "inception_4d/5x5_reduce"
  type: "Convolution"
  bottom: "inception_4c/output"
  top: "inception_4d/5x5_reduce"
  param {
    lr_mult: 1
    decay_mult: 1
  }
  param {
    lr_mult: 2
    decay_mult: 0
  }
  convolution_param {
    num_output: 32
    kernel_size: 1
    weight_filler {
      type: "xavier"
    }
    bias_filler {
      type: "constant"
      value: 0.2
    }
  }
}
layer {
  name: "inception_4d/relu_5x5_reduce"
  type: "ReLU"
  bottom: "inception_4d/5x5_reduce"
  top: "inception_4d/5x5_reduce"
}
layer {
  name: "inception_4d/5x5"
  type: "Convolution"
  bottom: "inception_4d/5x5_reduce"
  top: "inception_4d/5x5"
  param {
    lr_mult: 1
    decay_mult: 1
  }
  param {
    lr_mult: 2
    decay_mult: 0
  }
  convolution_param {
    num_output: 64
    pad: 2
    kernel_size: 5
    weight_filler {
      type: "xavier"
    }
    bias_filler {
      type: "constant"
      value: 0.2
    }
  }
}
layer {
  name: "inception_4d/relu_5x5"
  type: "ReLU"
  bottom: "inception_4d/5x5"
  top: "inception_4d/5x5"
}
layer {
  name: "inception_4d/pool"
  type: "Pooling"
  bottom: "inception_4c/output"
  top: "inception_4d/pool"
  pooling_param {
    pool: MAX
    kernel_size: 3
    stride: 1
    pad: 1
  }
}
layer {
  name: "inception_4d/pool_proj"
  type: "Convolution"
  bottom: "inception_4d/pool"
  top: "inception_4d/pool_proj"
  param {
    lr_mult: 1
    decay_mult: 1
  }
  param {
    lr_mult: 2
    decay_mult: 0
  }
  convolution_param {
    num_output: 64
    kernel_size: 1
    weight_filler {
      type: "xavier"
    }
    bias_filler {
      type: "constant"
      value: 0.2
    }
  }
}
layer {
  name: "inception_4d/relu_pool_proj"
  type: "ReLU"
  bottom: "inception_4d/pool_proj"
  top: "inception_4d/pool_proj"
}
layer {
  name: "inception_4d/output"
  type: "Concat"
  bottom: "inception_4d/1x1"
  bottom: "inception_4d/3x3"
  bottom: "inception_4d/5x5"
  bottom: "inception_4d/pool_proj"
  top: "inception_4d/output"
}
layer {
  name: "loss2/ave_pool"
  type: "Pooling"
  bottom: "inception_4d/output"
  top: "loss2/ave_pool"
  pooling_param {
    pool: AVE
    kernel_size: 5
    stride: 3
  }
}
layer {
  name: "loss2/conv"
  type: "Convolution"
  bottom: "loss2/ave_pool"
  top: "loss2/conv"
  param {
    lr_mult: 1
    decay_mult: 1
  }
  param {
    lr_mult: 2
    decay_mult: 0
  }
  convolution_param {
    num_output: 128
    kernel_size: 1
    weight_filler {
      type: "xavier"
    }
    bias_filler {
      type: "constant"
      value: 0.2
    }
  }
}
layer {
  name: "loss2/relu_conv"
  type: "ReLU"
  bottom: "loss2/conv"
  top: "loss2/conv"
}
layer {
  name: "loss2/fc"
  type: "InnerProduct"
  bottom: "loss2/conv"
  top: "loss2/fc"
  param {
    lr_mult: 1
    decay_mult: 1
  }
  param {
    lr_mult: 2
    decay_mult: 0
  }
  inner_product_param {
    num_output: 1024
    weight_filler {
      type: "xavier"
    }
    bias_filler {
      type: "constant"
      value: 0.2
    }
  }
}
layer {
  name: "loss2/relu_fc"
  type: "ReLU"
  bottom: "loss2/fc"
  top: "loss2/fc"
}
layer {
  name: "loss2/drop_fc"
  type: "Dropout"
  bottom: "loss2/fc"
  top: "loss2/fc"
  dropout_param {
    dropout_ratio: 0.7
  }
}
layer {
  name: "loss2/classifier_kaggle"
  type: "InnerProduct"
  bottom: "loss2/fc"
  top: "loss2/classifier_kaggle"
  param {
    lr_mult: 1
    decay_mult: 1
  }
  param {
    lr_mult: 2
    decay_mult: 0
  }
  inner_product_param {
    num_output: 447
    weight_filler {
      type: "xavier"
    }
    bias_filler {
      type: "constant"
      value: 0
    }
  }
}
layer {
  name: "loss2/loss"
  type: "SoftmaxWithLoss"
  bottom: "loss2/classifier_kaggle"
  bottom: "label"
  top: "loss2/loss1"
  loss_weight: 0.3
}
layer {
  name: "inception_4e/1x1"
  type: "Convolution"
  bottom: "inception_4d/output"
  top: "inception_4e/1x1"
  param {
    lr_mult: 1
    decay_mult: 1
  }
  param {
    lr_mult: 2
    decay_mult: 0
  }
  convolution_param {
    num_output: 256
    kernel_size: 1
    weight_filler {
      type: "xavier"
    }
    bias_filler {
      type: "constant"
      value: 0.2
    }
  }
}
layer {
  name: "inception_4e/relu_1x1"
  type: "ReLU"
  bottom: "inception_4e/1x1"
  top: "inception_4e/1x1"
}
layer {
  name: "inception_4e/3x3_reduce"
  type: "Convolution"
  bottom: "inception_4d/output"
  top: "inception_4e/3x3_reduce"
  param {
    lr_mult: 1
    decay_mult: 1
  }
  param {
    lr_mult: 2
    decay_mult: 0
  }
  convolution_param {
    num_output: 160
    kernel_size: 1
    weight_filler {
      type: "xavier"
    }
    bias_filler {
      type: "constant"
      value: 0.2
    }
  }
}
layer {
  name: "inception_4e/relu_3x3_reduce"
  type: "ReLU"
  bottom: "inception_4e/3x3_reduce"
  top: "inception_4e/3x3_reduce"
}
layer {
  name: "inception_4e/3x3"
  type: "Convolution"
  bottom: "inception_4e/3x3_reduce"
  top: "inception_4e/3x3"
  param {
    lr_mult: 1
    decay_mult: 1
  }
  param {
    lr_mult: 2
    decay_mult: 0
  }
  convolution_param {
    num_output: 320
    pad: 1
    kernel_size: 3
    weight_filler {
      type: "xavier"
    }
    bias_filler {
      type: "constant"
      value: 0.2
    }
  }
}
layer {
  name: "inception_4e/relu_3x3"
  type: "ReLU"
  bottom: "inception_4e/3x3"
  top: "inception_4e/3x3"
}
layer {
  name: "inception_4e/5x5_reduce"
  type: "Convolution"
  bottom: "inception_4d/output"
  top: "inception_4e/5x5_reduce"
  param {
    lr_mult: 1
    decay_mult: 1
  }
  param {
    lr_mult: 2
    decay_mult: 0
  }
  convolution_param {
    num_output: 32
    kernel_size: 1
    weight_filler {
      type: "xavier"
    }
    bias_filler {
      type: "constant"
      value: 0.2
    }
  }
}
layer {
  name: "inception_4e/relu_5x5_reduce"
  type: "ReLU"
  bottom: "inception_4e/5x5_reduce"
  top: "inception_4e/5x5_reduce"
}
layer {
  name: "inception_4e/5x5"
  type: "Convolution"
  bottom: "inception_4e/5x5_reduce"
  top: "inception_4e/5x5"
  param {
    lr_mult: 1
    decay_mult: 1
  }
  param {
    lr_mult: 2
    decay_mult: 0
  }
  convolution_param {
    num_output: 128
    pad: 2
    kernel_size: 5
    weight_filler {
      type: "xavier"
    }
    bias_filler {
      type: "constant"
      value: 0.2
    }
  }
}
layer {
  name: "inception_4e/relu_5x5"
  type: "ReLU"
  bottom: "inception_4e/5x5"
  top: "inception_4e/5x5"
}
layer {
  name: "inception_4e/pool"
  type: "Pooling"
  bottom: "inception_4d/output"
  top: "inception_4e/po
I0106 23:17:19.920115 16704 layer_factory.hpp:74] Creating layer data
I0106 23:17:19.920166 16704 net.cpp:84] Creating Layer data
I0106 23:17:19.920182 16704 net.cpp:338] data -> data
I0106 23:17:19.920240 16704 net.cpp:338] data -> label
I0106 23:17:19.920258 16704 net.cpp:113] Setting up data
I0106 23:17:19.920274 16704 image_data_layer.cpp:36] Opening file /home/coldmanck/kaggle/label_train_full_resize_rotated.txt
I0106 23:17:19.924131 16704 image_data_layer.cpp:46] Shuffling data
I0106 23:17:19.925391 16704 image_data_layer.cpp:51] A total of 4235 images.
I0106 23:17:19.931521 16704 image_data_layer.cpp:80] output data size: 80,3,224,224
I0106 23:17:19.946249 16704 net.cpp:120] Top shape: 80 3 224 224 (12042240)
I0106 23:17:19.946287 16704 net.cpp:120] Top shape: 80 (80)
I0106 23:17:19.946303 16704 layer_factory.hpp:74] Creating layer label_data_1_split
I0106 23:17:19.946331 16704 net.cpp:84] Creating Layer label_data_1_split
I0106 23:17:19.946342 16704 net.cpp:380] label_data_1_split <- label
I0106 23:17:19.946365 16704 net.cpp:338] label_data_1_split -> label_data_1_split_0
I0106 23:17:19.946394 16704 net.cpp:338] label_data_1_split -> label_data_1_split_1
I0106 23:17:19.946419 16704 net.cpp:338] label_data_1_split -> label_data_1_split_2
I0106 23:17:19.946430 16704 net.cpp:113] Setting up label_data_1_split
I0106 23:17:19.946445 16704 net.cpp:120] Top shape: 80 (80)
I0106 23:17:19.946455 16704 net.cpp:120] Top shape: 80 (80)
I0106 23:17:19.946462 16704 net.cpp:120] Top shape: 80 (80)
I0106 23:17:19.946470 16704 layer_factory.hpp:74] Creating layer conv1/7x7_s2
I0106 23:17:19.946487 16704 net.cpp:84] Creating Layer conv1/7x7_s2
I0106 23:17:19.946496 16704 net.cpp:380] conv1/7x7_s2 <- data
I0106 23:17:19.946507 16704 net.cpp:338] conv1/7x7_s2 -> conv1/7x7_s2
I0106 23:17:19.946524 16704 net.cpp:113] Setting up conv1/7x7_s2
I0106 23:17:20.299412 16704 net.cpp:120] Top shape: 80 64 112 112 (64225280)
I0106 23:17:20.299502 16704 layer_factory.hpp:74] Creating layer conv1/relu_7x7
I0106 23:17:20.299530 16704 net.cpp:84] Creating Layer conv1/relu_7x7
I0106 23:17:20.299561 16704 net.cpp:380] conv1/relu_7x7 <- conv1/7x7_s2
I0106 23:17:20.299582 16704 net.cpp:327] conv1/relu_7x7 -> conv1/7x7_s2 (in-place)
I0106 23:17:20.299594 16704 net.cpp:113] Setting up conv1/relu_7x7
I0106 23:17:20.300006 16704 net.cpp:120] Top shape: 80 64 112 112 (64225280)
I0106 23:17:20.300031 16704 layer_factory.hpp:74] Creating layer pool1/3x3_s2
I0106 23:17:20.300055 16704 net.cpp:84] Creating Layer pool1/3x3_s2
I0106 23:17:20.300060 16704 net.cpp:380] pool1/3x3_s2 <- conv1/7x7_s2
I0106 23:17:20.300077 16704 net.cpp:338] pool1/3x3_s2 -> pool1/3x3_s2
I0106 23:17:20.300086 16704 net.cpp:113] Setting up pool1/3x3_s2
I0106 23:17:20.300161 16704 net.cpp:120] Top shape: 80 64 56 56 (16056320)
I0106 23:17:20.300175 16704 layer_factory.hpp:74] Creating layer pool1/norm1
I0106 23:17:20.300192 16704 net.cpp:84] Creating Layer pool1/norm1
I0106 23:17:20.300199 16704 net.cpp:380] pool1/norm1 <- pool1/3x3_s2
I0106 23:17:20.300205 16704 net.cpp:338] pool1/norm1 -> pool1/norm1
I0106 23:17:20.300215 16704 net.cpp:113] Setting up pool1/norm1
I0106 23:17:20.300223 16704 net.cpp:120] Top shape: 80 64 56 56 (16056320)
I0106 23:17:20.300237 16704 layer_factory.hpp:74] Creating layer conv2/3x3_reduce
I0106 23:17:20.300247 16704 net.cpp:84] Creating Layer conv2/3x3_reduce
I0106 23:17:20.300253 16704 net.cpp:380] conv2/3x3_reduce <- pool1/norm1
I0106 23:17:20.300261 16704 net.cpp:338] conv2/3x3_reduce -> conv2/3x3_reduce
I0106 23:17:20.300271 16704 net.cpp:113] Setting up conv2/3x3_reduce
I0106 23:17:20.300911 16704 net.cpp:120] Top shape: 80 64 56 56 (16056320)
I0106 23:17:20.300930 16704 layer_factory.hpp:74] Creating layer conv2/relu_3x3_reduce
I0106 23:17:20.300937 16704 net.cpp:84] Creating Layer conv2/relu_3x3_reduce
I0106 23:17:20.300942 16704 net.cpp:380] conv2/relu_3x3_reduce <- conv2/3x3_reduce
I0106 23:17:20.300951 16704 net.cpp:327] conv2/relu_3x3_reduce -> conv2/3x3_reduce (in-place)
I0106 23:17:20.300958 16704 net.cpp:113] Setting up conv2/relu_3x3_reduce
I0106 23:17:20.301017 16704 net.cpp:120] Top shape: 80 64 56 56 (16056320)
I0106 23:17:20.301024 16704 layer_factory.hpp:74] Creating layer conv2/3x3
I0106 23:17:20.301043 16704 net.cpp:84] Creating Layer conv2/3x3
I0106 23:17:20.301049 16704 net.cpp:380] conv2/3x3 <- conv2/3x3_reduce
I0106 23:17:20.301064 16704 net.cpp:338] conv2/3x3 -> conv2/3x3
I0106 23:17:20.301074 16704 net.cpp:113] Setting up conv2/3x3
I0106 23:17:20.303059 16704 net.cpp:120] Top shape: 80 192 56 56 (48168960)
I0106 23:17:20.303079 16704 layer_factory.hpp:74] Creating layer conv2/relu_3x3
I0106 23:17:20.303087 16704 net.cpp:84] Creating Layer conv2/relu_3x3
I0106 23:17:20.303093 16704 net.cpp:380] conv2/relu_3x3 <- conv2/3x3
I0106 23:17:20.303100 16704 net.cpp:327] conv2/relu_3x3 -> conv2/3x3 (in-place)
I0106 23:17:20.303108 16704 net.cpp:113] Setting up conv2/relu_3x3
I0106 23:17:20.303462 16704 net.cpp:120] Top shape: 80 192 56 56 (48168960)
I0106 23:17:20.303534 16704 layer_factory.hpp:74] Creating layer conv2/norm2
I0106 23:17:20.303544 16704 net.cpp:84] Creating Layer conv2/norm2
I0106 23:17:20.303557 16704 net.cpp:380] conv2/norm2 <- conv2/3x3
I0106 23:17:20.303668 16704 net.cpp:338] conv2/norm2 -> conv2/norm2
I0106 23:17:20.303678 16704 net.cpp:113] Setting up conv2/norm2
I0106 23:17:20.303686 16704 net.cpp:120] Top shape: 80 192 56 56 (48168960)
I0106 23:17:20.303691 16704 layer_factory.hpp:74] Creating layer pool2/3x3_s2
I0106 23:17:20.303699 16704 net.cpp:84] Creating Layer pool2/3x3_s2
I0106 23:17:20.303704 16704 net.cpp:380] pool2/3x3_s2 <- conv2/norm2
I0106 23:17:20.303710 16704 net.cpp:338] pool2/3x3_s2 -> pool2/3x3_s2
I0106 23:17:20.303717 16704 net.cpp:113] Setting up pool2/3x3_s2
I0106 23:17:20.303793 16704 net.cpp:120] Top shape: 80 192 28 28 (12042240)
I0106 23:17:20.303800 16704 layer_factory.hpp:74] Creating layer pool2/3x3_s2_pool2/3x3_s2_0_split
I0106 23:17:20.303807 16704 net.cpp:84] Creating Layer pool2/3x3_s2_pool2/3x3_s2_0_split
I0106 23:17:20.303812 16704 net.cpp:380] pool2/3x3_s2_pool2/3x3_s2_0_split <- pool2/3x3_s2
I0106 23:17:20.303889 16704 net.cpp:338] pool2/3x3_s2_pool2/3x3_s2_0_split -> pool2/3x3_s2_pool2/3x3_s2_0_split_0
I0106 23:17:20.303897 16704 net.cpp:338] pool2/3x3_s2_pool2/3x3_s2_0_split -> pool2/3x3_s2_pool2/3x3_s2_0_split_1
I0106 23:17:20.303905 16704 net.cpp:338] pool2/3x3_s2_pool2/3x3_s2_0_split -> pool2/3x3_s2_pool2/3x3_s2_0_split_2
I0106 23:17:20.303912 16704 net.cpp:338] pool2/3x3_s2_pool2/3x3_s2_0_split -> pool2/3x3_s2_pool2/3x3_s2_0_split_3
I0106 23:17:20.303920 16704 net.cpp:113] Setting up pool2/3x3_s2_pool2/3x3_s2_0_split
I0106 23:17:20.303927 16704 net.cpp:120] Top shape: 80 192 28 28 (12042240)
I0106 23:17:20.303933 16704 net.cpp:120] Top shape: 80 192 28 28 (12042240)
I0106 23:17:20.303938 16704 net.cpp:120] Top shape: 80 192 28 28 (12042240)
I0106 23:17:20.303943 16704 net.cpp:120] Top shape: 80 192 28 28 (12042240)
I0106 23:17:20.303948 16704 layer_factory.hpp:74] Creating layer inception_3a/1x1
I0106 23:17:20.304025 16704 net.cpp:84] Creating Layer inception_3a/1x1
I0106 23:17:20.304031 16704 net.cpp:380] inception_3a/1x1 <- pool2/3x3_s2_pool2/3x3_s2_0_split_0
I0106 23:17:20.304039 16704 net.cpp:338] inception_3a/1x1 -> inception_3a/1x1
I0106 23:17:20.304049 16704 net.cpp:113] Setting up inception_3a/1x1
I0106 23:17:20.305369 16704 net.cpp:120] Top shape: 80 64 28 28 (4014080)
I0106 23:17:20.305398 16704 layer_factory.hpp:74] Creating layer inception_3a/relu_1x1
I0106 23:17:20.305408 16704 net.cpp:84] Creating Layer inception_3a/relu_1x1
I0106 23:17:20.305414 16704 net.cpp:380] inception_3a/relu_1x1 <- inception_3a/1x1
I0106 23:17:20.305426 16704 net.cpp:327] inception_3a/relu_1x1 -> inception_3a/1x1 (in-place)
I0106 23:17:20.305435 16704 net.cpp:113] Setting up inception_3a/relu_1x1
I0106 23:17:20.305508 16704 net.cpp:120] Top shape: 80 64 28 28 (4014080)
I0106 23:17:20.305517 16704 layer_factory.hpp:74] Creating layer inception_3a/3x3_reduce
I0106 23:17:20.305526 16704 net.cpp:84] Creating Layer inception_3a/3x3_reduce
I0106 23:17:20.305531 16704 net.cpp:380] inception_3a/3x3_reduce <- pool2/3x3_s2_pool2/3x3_s2_0_split_1
I0106 23:17:20.305539 16704 net.cpp:338] inception_3a/3x3_reduce -> inception_3a/3x3_reduce
I0106 23:17:20.305548 16704 net.cpp:113] Setting up inception_3a/3x3_reduce
I0106 23:17:20.307780 16704 net.cpp:120] Top shape: 80 96 28 28 (6021120)
I0106 23:17:20.307806 16704 layer_factory.hpp:74] Creating layer inception_3a/relu_3x3_reduce
I0106 23:17:20.307827 16704 net.cpp:84] Creating Layer inception_3a/relu_3x3_reduce
I0106 23:17:20.307833 16704 net.cpp:380] inception_3a/relu_3x3_reduce <- inception_3a/3x3_reduce
I0106 23:17:20.307843 16704 net.cpp:327] inception_3a/relu_3x3_reduce -> inception_3a/3x3_reduce (in-place)
I0106 23:17:20.307852 16704 net.cpp:113] Setting up inception_3a/relu_3x3_reduce
I0106 23:17:20.307927 16704 net.cpp:120] Top shape: 80 96 28 28 (6021120)
I0106 23:17:20.307936 16704 layer_factory.hpp:74] Creating layer inception_3a/3x3
I0106 23:17:20.307946 16704 net.cpp:84] Creating Layer inception_3a/3x3
I0106 23:17:20.307951 16704 net.cpp:380] inception_3a/3x3 <- inception_3a/3x3_reduce
I0106 23:17:20.307966 16704 net.cpp:338] inception_3a/3x3 -> inception_3a/3x3
I0106 23:17:20.307982 16704 net.cpp:113] Setting up inception_3a/3x3
I0106 23:17:20.309798 16704 net.cpp:120] Top shape: 80 128 28 28 (8028160)
I0106 23:17:20.309816 16704 layer_factory.hpp:74] Creating layer inception_3a/relu_3x3
I0106 23:17:20.309828 16704 net.cpp:84] Creating Layer inception_3a/relu_3x3
I0106 23:17:20.309834 16704 net.cpp:380] inception_3a/relu_3x3 <- inception_3a/3x3
I0106 23:17:20.309854 16704 net.cpp:327] inception_3a/relu_3x3 -> inception_3a/3x3 (in-place)
I0106 23:17:20.309864 16704 net.cpp:113] Setting up inception_3a/relu_3x3
I0106 23:17:20.310109 16704 net.cpp:120] Top shape: 80 128 28 28 (8028160)
I0106 23:17:20.310122 16704 layer_factory.hpp:74] Creating layer inception_3a/5x5_reduce
I0106 23:17:20.310143 16704 net.cpp:84] Creating Layer inception_3a/5x5_reduce
I0106 23:17:20.310150 16704 net.cpp:380] inception_3a/5x5_reduce <- pool2/3x3_s2_pool2/3x3_s2_0_split_2
I0106 23:17:20.310158 16704 net.cpp:338] inception_3a/5x5_reduce -> inception_3a/5x5_reduce
I0106 23:17:20.310170 16704 net.cpp:113] Setting up inception_3a/5x5_reduce
I0106 23:17:20.310606 16704 net.cpp:120] Top shape: 80 16 28 28 (1003520)
I0106 23:17:20.310623 16704 layer_factory.hpp:74] Creating layer inception_3a/relu_5x5_reduce
I0106 23:17:20.310631 16704 net.cpp:84] Creating Layer inception_3a/relu_5x5_reduce
I0106 23:17:20.310636 16704 net.cpp:380] inception_3a/relu_5x5_reduce <- inception_3a/5x5_reduce
I0106 23:17:20.310645 16704 net.cpp:327] inception_3a/relu_5x5_reduce -> inception_3a/5x5_reduce (in-place)
I0106 23:17:20.310653 16704 net.cpp:113] Setting up inception_3a/relu_5x5_reduce
I0106 23:17:20.310756 16704 net.cpp:120] Top shape: 80 16 28 28 (1003520)
I0106 23:17:20.310765 16704 layer_factory.hpp:74] Creating layer inception_3a/5x5
I0106 23:17:20.310775 16704 net.cpp:84] Creating Layer inception_3a/5x5
I0106 23:17:20.310781 16704 net.cpp:380] inception_3a/5x5 <- inception_3a/5x5_reduce
I0106 23:17:20.310789 16704 net.cpp:338] inception_3a/5x5 -> inception_3a/5x5
I0106 23:17:20.310798 16704 net.cpp:113] Setting up inception_3a/5x5
I0106 23:17:20.311403 16704 net.cpp:120] Top shape: 80 32 28 28 (2007040)
I0106 23:17:20.311421 16704 layer_factory.hpp:74] Creating layer inception_3a/relu_5x5
I0106 23:17:20.311430 16704 net.cpp:84] Creating Layer inception_3a/relu_5x5
I0106 23:17:20.311436 16704 net.cpp:380] inception_3a/relu_5x5 <- inception_3a/5x5
I0106 23:17:20.311453 16704 net.cpp:327] inception_3a/relu_5x5 -> inception_3a/5x5 (in-place)
I0106 23:17:20.311462 16704 net.cpp:113] Setting up inception_3a/relu_5x5
I0106 23:17:20.311550 16704 net.cpp:120] Top shape: 80 32 28 28 (2007040)
I0106 23:17:20.311558 16704 layer_factory.hpp:74] Creating layer inception_3a/pool
I0106 23:17:20.311564 16704 layer_factory.cpp:56] CUDNN does not support padding or multiple tops. Using Caffe's own pooling layer.
I0106 23:17:20.311574 16704 net.cpp:84] Creating Layer inception_3a/pool
I0106 23:17:20.311580 16704 net.cpp:380] inception_3a/pool <- pool2/3x3_s2_pool2/3x3_s2_0_split_3
I0106 23:17:20.311588 16704 net.cpp:338] inception_3a/pool -> inception_3a/pool
I0106 23:17:20.311595 16704 net.cpp:113] Setting up inception_3a/pool
I0106 23:17:20.311607 16704 net.cpp:120] Top shape: 80 192 28 28 (12042240)
I0106 23:17:20.311612 16704 layer_factory.hpp:74] Creating layer inception_3a/pool_proj
I0106 23:17:20.311627 16704 net.cpp:84] Creating Layer inception_3a/pool_proj
I0106 23:17:20.311632 16704 net.cpp:380] inception_3a/pool_proj <- inception_3a/pool
I0106 23:17:20.311641 16704 net.cpp:338] inception_3a/pool_proj -> inception_3a/pool_proj
I0106 23:17:20.311650 16704 net.cpp:113] Setting up inception_3a/pool_proj
I0106 23:17:20.312170 16704 net.cpp:120] Top shape: 80 32 28 28 (2007040)
I0106 23:17:20.312191 16704 layer_factory.hpp:74] Creating layer inception_3a/relu_pool_proj
I0106 23:17:20.312201 16704 net.cpp:84] Creating Layer inception_3a/relu_pool_proj
I0106 23:17:20.312206 16704 net.cpp:380] inception_3a/relu_pool_proj <- inception_3a/pool_proj
I0106 23:17:20.312212 16704 net.cpp:327] inception_3a/relu_pool_proj -> inception_3a/pool_proj (in-place)
I0106 23:17:20.312232 16704 net.cpp:113] Setting up inception_3a/relu_pool_proj
I0106 23:17:20.312327 16704 net.cpp:120] Top shape: 80 32 28 28 (2007040)
I0106 23:17:20.312336 16704 layer_factory.hpp:74] Creating layer inception_3a/output
I0106 23:17:20.312351 16704 net.cpp:84] Creating Layer inception_3a/output
I0106 23:17:20.312357 16704 net.cpp:380] inception_3a/output <- inception_3a/1x1
I0106 23:17:20.312363 16704 net.cpp:380] inception_3a/output <- inception_3a/3x3
I0106 23:17:20.312369 16704 net.cpp:380] inception_3a/output <- inception_3a/5x5
I0106 23:17:20.312374 16704 net.cpp:380] inception_3a/output <- inception_3a/pool_proj
I0106 23:17:20.312382 16704 net.cpp:338] inception_3a/output -> inception_3a/output
I0106 23:17:20.312391 16704 net.cpp:113] Setting up inception_3a/output
I0106 23:17:20.312399 16704 net.cpp:120] Top shape: 80 256 28 28 (16056320)
I0106 23:17:20.312404 16704 layer_factory.hpp:74] Creating layer inception_3a/output_inception_3a/output_0_split
I0106 23:17:20.312410 16704 net.cpp:84] Creating Layer inception_3a/output_inception_3a/output_0_split
I0106 23:17:20.312415 16704 net.cpp:380] inception_3a/output_inception_3a/output_0_split <- inception_3a/output
I0106 23:17:20.312423 16704 net.cpp:338] inception_3a/output_inception_3a/output_0_split -> inception_3a/output_inception_3a/output_0_split_0
I0106 23:17:20.312432 16704 net.cpp:338] inception_3a/output_inception_3a/output_0_split -> inception_3a/output_inception_3a/output_0_split_1
I0106 23:17:20.312439 16704 net.cpp:338] inception_3a/output_inception_3a/output_0_split -> inception_3a/output_inception_3a/output_0_split_2
I0106 23:17:20.312446 16704 net.cpp:338] inception_3a/output_inception_3a/output_0_split -> inception_3a/output_inception_3a/output_0_split_3
I0106 23:17:20.312453 16704 net.cpp:113] Setting up inception_3a/output_inception_3a/output_0_split
I0106 23:17:20.312460 16704 net.cpp:120] Top shape: 80 256 28 28 (16056320)
I0106 23:17:20.312466 16704 net.cpp:120] Top shape: 80 256 28 28 (16056320)
I0106 23:17:20.312471 16704 net.cpp:120] Top shape: 80 256 28 28 (16056320)
I0106 23:17:20.312477 16704 net.cpp:120] Top shape: 80 256 28 28 (16056320)
I0106 23:17:20.312481 16704 layer_factory.hpp:74] Creating layer inception_3b/1x1
I0106 23:17:20.312490 16704 net.cpp:84] Creating Layer inception_3b/1x1
I0106 23:17:20.312496 16704 net.cpp:380] inception_3b/1x1 <- inception_3a/output_inception_3a/output_0_split_0
I0106 23:17:20.312504 16704 net.cpp:338] inception_3b/1x1 -> inception_3b/1x1
I0106 23:17:20.312513 16704 net.cpp:113] Setting up inception_3b/1x1
I0106 23:17:20.313329 16704 net.cpp:120] Top shape: 80 128 28 28 (8028160)
I0106 23:17:20.313354 16704 layer_factory.hpp:74] Creating layer inception_3b/relu_1x1
I0106 23:17:20.313362 16704 net.cpp:84] Creating Layer inception_3b/relu_1x1
I0106 23:17:20.313369 16704 net.cpp:380] inception_3b/relu_1x1 <- inception_3b/1x1
I0106 23:17:20.313375 16704 net.cpp:327] inception_3b/relu_1x1 -> inception_3b/1x1 (in-place)
I0106 23:17:20.313383 16704 net.cpp:113] Setting up inception_3b/relu_1x1
I0106 23:17:20.313640 16704 net.cpp:120] Top shape: 80 128 28 28 (8028160)
I0106 23:17:20.313653 16704 layer_factory.hpp:74] Creating layer inception_3b/3x3_reduce
I0106 23:17:20.313674 16704 net.cpp:84] Creating Layer inception_3b/3x3_reduce
I0106 23:17:20.313683 16704 net.cpp:380] inception_3b/3x3_reduce <- inception_3a/output_inception_3a/output_0_split_1
I0106 23:17:20.313691 16704 net.cpp:338] inception_3b/3x3_reduce -> inception_3b/3x3_reduce
I0106 23:17:20.313700 16704 net.cpp:113] Setting up inception_3b/3x3_reduce
I0106 23:17:20.314553 16704 net.cpp:120] Top shape: 80 128 28 28 (8028160)
I0106 23:17:20.314568 16704 layer_factory.hpp:74] Creating layer inception_3b/relu_3x3_reduce
I0106 23:17:20.314579 16704 net.cpp:84] Creating Layer inception_3b/relu_3x3_reduce
I0106 23:17:20.314584 16704 net.cpp:380] inception_3b/relu_3x3_reduce <- inception_3b/3x3_reduce
I0106 23:17:20.314591 16704 net.cpp:327] inception_3b/relu_3x3_reduce -> inception_3b/3x3_reduce (in-place)
I0106 23:17:20.314611 16704 net.cpp:113] Setting up inception_3b/relu_3x3_reduce
I0106 23:17:20.314693 16704 net.cpp:120] Top shape: 80 128 28 28 (8028160)
I0106 23:17:20.314702 16704 layer_factory.hpp:74] Creating layer inception_3b/3x3
I0106 23:17:20.314714 16704 net.cpp:84] Creating Layer inception_3b/3x3
I0106 23:17:20.314719 16704 net.cpp:380] inception_3b/3x3 <- inception_3b/3x3_reduce
I0106 23:17:20.314731 16704 net.cpp:338] inception_3b/3x3 -> inception_3b/3x3
I0106 23:17:20.314740 16704 net.cpp:113] Setting up inception_3b/3x3
I0106 23:17:20.317730 16704 net.cpp:120] Top shape: 80 192 28 28 (12042240)
I0106 23:17:20.317759 16704 layer_factory.hpp:74] Creating layer inception_3b/relu_3x3
I0106 23:17:20.317769 16704 net.cpp:84] Creating Layer inception_3b/relu_3x3
I0106 23:17:20.317775 16704 net.cpp:380] inception_3b/relu_3x3 <- inception_3b/3x3
I0106 23:17:20.317783 16704 net.cpp:327] inception_3b/relu_3x3 -> inception_3b/3x3 (in-place)
I0106 23:17:20.317791 16704 net.cpp:113] Setting up inception_3b/relu_3x3
I0106 23:17:20.317865 16704 net.cpp:120] Top shape: 80 192 28 28 (12042240)
I0106 23:17:20.317873 16704 layer_factory.hpp:74] Creating layer inception_3b/5x5_reduce
I0106 23:17:20.317888 16704 net.cpp:84] Creating Layer inception_3b/5x5_reduce
I0106 23:17:20.317894 16704 net.cpp:380] inception_3b/5x5_reduce <- inception_3a/output_inception_3a/output_0_split_2
I0106 23:17:20.317903 16704 net.cpp:338] inception_3b/5x5_reduce -> inception_3b/5x5_reduce
I0106 23:17:20.317912 16704 net.cpp:113] Setting up inception_3b/5x5_reduce
I0106 23:17:20.318421 16704 net.cpp:120] Top shape: 80 32 28 28 (2007040)
I0106 23:17:20.318436 16704 layer_factory.hpp:74] Creating layer inception_3b/relu_5x5_reduce
I0106 23:17:20.318444 16704 net.cpp:84] Creating Layer inception_3b/relu_5x5_reduce
I0106 23:17:20.318449 16704 net.cpp:380] inception_3b/relu_5x5_reduce <- inception_3b/5x5_reduce
I0106 23:17:20.318456 16704 net.cpp:327] inception_3b/relu_5x5_reduce -> inception_3b/5x5_reduce (in-place)
I0106 23:17:20.318464 16704 net.cpp:113] Setting up inception_3b/relu_5x5_reduce
I0106 23:17:20.318533 16704 net.cpp:120] Top shape: 80 32 28 28 (2007040)
I0106 23:17:20.318541 16704 layer_factory.hpp:74] Creating layer inception_3b/5x5
I0106 23:17:20.318547 16704 net.cpp:84] Creating Layer inception_3b/5x5
I0106 23:17:20.318552 16704 net.cpp:380] inception_3b/5x5 <- inception_3b/5x5_reduce
I0106 23:17:20.318562 16704 net.cpp:338] inception_3b/5x5 -> inception_3b/5x5
I0106 23:17:20.318573 16704 net.cpp:113] Setting up inception_3b/5x5
I0106 23:17:20.319849 16704 net.cpp:120] Top shape: 80 96 28 28 (6021120)
I0106 23:17:20.319864 16704 layer_factory.hpp:74] Creating layer inception_3b/relu_5x5
I0106 23:17:20.319885 16704 net.cpp:84] Creating Layer inception_3b/relu_5x5
I0106 23:17:20.319890 16704 net.cpp:380] inception_3b/relu_5x5 <- inception_3b/5x5
I0106 23:17:20.319898 16704 net.cpp:327] inception_3b/relu_5x5 -> inception_3b/5x5 (in-place)
I0106 23:17:20.319906 16704 net.cpp:113] Setting up inception_3b/relu_5x5
I0106 23:17:20.320140 16704 net.cpp:120] Top shape: 80 96 28 28 (6021120)
I0106 23:17:20.320152 16704 layer_factory.hpp:74] Creating layer inception_3b/pool
I0106 23:17:20.320158 16704 layer_factory.cpp:56] CUDNN does not support padding or multiple tops. Using Caffe's own pooling layer.
I0106 23:17:20.320164 16704 net.cpp:84] Creating Layer inception_3b/pool
I0106 23:17:20.320169 16704 net.cpp:380] inception_3b/pool <- inception_3a/output_inception_3a/output_0_split_3
I0106 23:17:20.320176 16704 net.cpp:338] inception_3b/pool -> inception_3b/pool
I0106 23:17:20.320185 16704 net.cpp:113] Setting up inception_3b/pool
I0106 23:17:20.320194 16704 net.cpp:120] Top shape: 80 256 28 28 (16056320)
I0106 23:17:20.320199 16704 layer_factory.hpp:74] Creating layer inception_3b/pool_proj
I0106 23:17:20.320209 16704 net.cpp:84] Creating Layer inception_3b/pool_proj
I0106 23:17:20.320214 16704 net.cpp:380] inception_3b/pool_proj <- inception_3b/pool
I0106 23:17:20.320222 16704 net.cpp:338] inception_3b/pool_proj -> inception_3b/pool_proj
I0106 23:17:20.320236 16704 net.cpp:113] Setting up inception_3b/pool_proj
I0106 23:17:20.320837 16704 net.cpp:120] Top shape: 80 64 28 28 (4014080)
I0106 23:17:20.320852 16704 layer_factory.hpp:74] Creating layer inception_3b/relu_pool_proj
I0106 23:17:20.320859 16704 net.cpp:84] Creating Layer inception_3b/relu_pool_proj
I0106 23:17:20.320865 16704 net.cpp:380] inception_3b/relu_pool_proj <- inception_3b/pool_proj
I0106 23:17:20.320873 16704 net.cpp:327] inception_3b/relu_pool_proj -> inception_3b/pool_proj (in-place)
I0106 23:17:20.320880 16704 net.cpp:113] Setting up inception_3b/relu_pool_proj
I0106 23:17:20.320952 16704 net.cpp:120] Top shape: 80 64 28 28 (4014080)
I0106 23:17:20.320960 16704 layer_factory.hpp:74] Creating layer inception_3b/output
I0106 23:17:20.320967 16704 net.cpp:84] Creating Layer inception_3b/output
I0106 23:17:20.320972 16704 net.cpp:380] inception_3b/output <- inception_3b/1x1
I0106 23:17:20.320979 16704 net.cpp:380] inception_3b/output <- inception_3b/3x3
I0106 23:17:20.320984 16704 net.cpp:380] inception_3b/output <- inception_3b/5x5
I0106 23:17:20.320991 16704 net.cpp:380] inception_3b/output <- inception_3b/pool_proj
I0106 23:17:20.320996 16704 net.cpp:338] inception_3b/output -> inception_3b/output
I0106 23:17:20.321003 16704 net.cpp:113] Setting up inception_3b/output
I0106 23:17:20.321012 16704 net.cpp:120] Top shape: 80 480 28 28 (30105600)
I0106 23:17:20.321017 16704 layer_factory.hpp:74] Creating layer pool3/3x3_s2
I0106 23:17:20.321032 16704 net.cpp:84] Creating Layer pool3/3x3_s2
I0106 23:17:20.321036 16704 net.cpp:380] pool3/3x3_s2 <- inception_3b/output
I0106 23:17:20.321045 16704 net.cpp:338] pool3/3x3_s2 -> pool3/3x3_s2
I0106 23:17:20.321053 16704 net.cpp:113] Setting up pool3/3x3_s2
I0106 23:17:20.321123 16704 net.cpp:120] Top shape: 80 480 14 14 (7526400)
I0106 23:17:20.321130 16704 layer_factory.hpp:74] Creating layer pool3/3x3_s2_pool3/3x3_s2_0_split
I0106 23:17:20.321142 16704 net.cpp:84] Creating Layer pool3/3x3_s2_pool3/3x3_s2_0_split
I0106 23:17:20.321148 16704 net.cpp:380] pool3/3x3_s2_pool3/3x3_s2_0_split <- pool3/3x3_s2
I0106 23:17:20.321154 16704 net.cpp:338] pool3/3x3_s2_pool3/3x3_s2_0_split -> pool3/3x3_s2_pool3/3x3_s2_0_split_0
I0106 23:17:20.321162 16704 net.cpp:338] pool3/3x3_s2_pool3/3x3_s2_0_split -> pool3/3x3_s2_pool3/3x3_s2_0_split_1
I0106 23:17:20.321171 16704 net.cpp:338] pool3/3x3_s2_pool3/3x3_s2_0_split -> pool3/3x3_s2_pool3/3x3_s2_0_split_2
I0106 23:17:20.321178 16704 net.cpp:338] pool3/3x3_s2_pool3/3x3_s2_0_split -> pool3/3x3_s2_pool3/3x3_s2_0_split_3
I0106 23:17:20.321185 16704 net.cpp:113] Setting up pool3/3x3_s2_pool3/3x3_s2_0_split
I0106 23:17:20.321193 16704 net.cpp:120] Top shape: 80 480 14 14 (7526400)
I0106 23:17:20.321198 16704 net.cpp:120] Top shape: 80 480 14 14 (7526400)
I0106 23:17:20.321203 16704 net.cpp:120] Top shape: 80 480 14 14 (7526400)
I0106 23:17:20.321209 16704 net.cpp:120] Top shape: 80 480 14 14 (7526400)
I0106 23:17:20.321213 16704 layer_factory.hpp:74] Creating layer inception_4a/1x1
I0106 23:17:20.321225 16704 net.cpp:84] Creating Layer inception_4a/1x1
I0106 23:17:20.321230 16704 net.cpp:380] inception_4a/1x1 <- pool3/3x3_s2_pool3/3x3_s2_0_split_0
I0106 23:17:20.321239 16704 net.cpp:338] inception_4a/1x1 -> inception_4a/1x1
I0106 23:17:20.321247 16704 net.cpp:113] Setting up inception_4a/1x1
I0106 23:17:20.322728 16704 net.cpp:120] Top shape: 80 192 14 14 (3010560)
I0106 23:17:20.322749 16704 layer_factory.hpp:74] Creating layer inception_4a/relu_1x1
I0106 23:17:20.322758 16704 net.cpp:84] Creating Layer inception_4a/relu_1x1
I0106 23:17:20.322765 16704 net.cpp:380] inception_4a/relu_1x1 <- inception_4a/1x1
I0106 23:17:20.322772 16704 net.cpp:327] inception_4a/relu_1x1 -> inception_4a/1x1 (in-place)
I0106 23:17:20.322782 16704 net.cpp:113] Setting up inception_4a/relu_1x1
I0106 23:17:20.323034 16704 net.cpp:120] Top shape: 80 192 14 14 (3010560)
I0106 23:17:20.323045 16704 layer_factory.hpp:74] Creating layer inception_4a/3x3_reduce
I0106 23:17:20.323065 16704 net.cpp:84] Creating Layer inception_4a/3x3_reduce
I0106 23:17:20.323076 16704 net.cpp:380] inception_4a/3x3_reduce <- pool3/3x3_s2_pool3/3x3_s2_0_split_1
I0106 23:17:20.323091 16704 net.cpp:338] inception_4a/3x3_reduce -> inception_4a/3x3_reduce
I0106 23:17:20.323102 16704 net.cpp:113] Setting up inception_4a/3x3_reduce
I0106 23:17:20.324174 16704 net.cpp:120] Top shape: 80 96 14 14 (1505280)
I0106 23:17:20.324194 16704 layer_factory.hpp:74] Creating layer inception_4a/relu_3x3_reduce
I0106 23:17:20.324213 16704 net.cpp:84] Creating Layer inception_4a/relu_3x3_reduce
I0106 23:17:20.324219 16704 net.cpp:380] inception_4a/relu_3x3_reduce <- inception_4a/3x3_reduce
I0106 23:17:20.324228 16704 net.cpp:327] inception_4a/relu_3x3_reduce -> inception_4a/3x3_reduce (in-place)
I0106 23:17:20.324234 16704 net.cpp:113] Setting up inception_4a/relu_3x3_reduce
I0106 23:17:20.324309 16704 net.cpp:120] Top shape: 80 96 14 14 (1505280)
I0106 23:17:20.324316 16704 layer_factory.hpp:74] Creating layer inception_4a/3x3
I0106 23:17:20.324326 16704 net.cpp:84] Creating Layer inception_4a/3x3
I0106 23:17:20.324331 16704 net.cpp:380] inception_4a/3x3 <- inception_4a/3x3_reduce
I0106 23:17:20.324338 16704 net.cpp:338] inception_4a/3x3 -> inception_4a/3x3
I0106 23:17:20.324347 16704 net.cpp:113] Setting up inception_4a/3x3
I0106 23:17:20.326848 16704 net.cpp:120] Top shape: 80 208 14 14 (3261440)
I0106 23:17:20.326865 16704 layer_factory.hpp:74] Creating layer inception_4a/relu_3x3
I0106 23:17:20.326872 16704 net.cpp:84] Creating Layer inception_4a/relu_3x3
I0106 23:17:20.326879 16704 net.cpp:380] inception_4a/relu_3x3 <- inception_4a/3x3
I0106 23:17:20.326885 16704 net.cpp:327] inception_4a/relu_3x3 -> inception_4a/3x3 (in-place)
I0106 23:17:20.326892 16704 net.cpp:113] Setting up inception_4a/relu_3x3
I0106 23:17:20.326963 16704 net.cpp:120] Top shape: 80 208 14 14 (3261440)
I0106 23:17:20.326970 16704 layer_factory.hpp:74] Creating layer inception_4a/5x5_reduce
I0106 23:17:20.326985 16704 net.cpp:84] Creating Layer inception_4a/5x5_reduce
I0106 23:17:20.326992 16704 net.cpp:380] inception_4a/5x5_reduce <- pool3/3x3_s2_pool3/3x3_s2_0_split_2
I0106 23:17:20.327003 16704 net.cpp:338] inception_4a/5x5_reduce -> inception_4a/5x5_reduce
I0106 23:17:20.327013 16704 net.cpp:113] Setting up inception_4a/5x5_reduce
I0106 23:17:20.327507 16704 net.cpp:120] Top shape: 80 16 14 14 (250880)
I0106 23:17:20.327529 16704 layer_factory.hpp:74] Creating layer inception_4a/relu_5x5_reduce
I0106 23:17:20.327539 16704 net.cpp:84] Creating Layer inception_4a/relu_5x5_reduce
I0106 23:17:20.327545 16704 net.cpp:380] inception_4a/relu_5x5_reduce <- inception_4a/5x5_reduce
I0106 23:17:20.327553 16704 net.cpp:327] inception_4a/relu_5x5_reduce -> inception_4a/5x5_reduce (in-place)
I0106 23:17:20.327559 16704 net.cpp:113] Setting up inception_4a/relu_5x5_reduce
I0106 23:17:20.327633 16704 net.cpp:120] Top shape: 80 16 14 14 (250880)
I0106 23:17:20.327641 16704 layer_factory.hpp:74] Creating layer inception_4a/5x5
I0106 23:17:20.327649 16704 net.cpp:84] Creating Layer inception_4a/5x5
I0106 23:17:20.327654 16704 net.cpp:380] inception_4a/5x5 <- inception_4a/5x5_reduce
I0106 23:17:20.327661 16704 net.cpp:338] inception_4a/5x5 -> inception_4a/5x5
I0106 23:17:20.327672 16704 net.cpp:113] Setting up inception_4a/5x5
I0106 23:17:20.328294 16704 net.cpp:120] Top shape: 80 48 14 14 (752640)
I0106 23:17:20.328310 16704 layer_factory.hpp:74] Creating layer inception_4a/relu_5x5
I0106 23:17:20.328323 16704 net.cpp:84] Creating Layer inception_4a/relu_5x5
I0106 23:17:20.328330 16704 net.cpp:380] inception_4a/relu_5x5 <- inception_4a/5x5
I0106 23:17:20.328336 16704 net.cpp:327] inception_4a/relu_5x5 -> inception_4a/5x5 (in-place)
I0106 23:17:20.328343 16704 net.cpp:113] Setting up inception_4a/relu_5x5
I0106 23:17:20.328582 16704 net.cpp:120] Top shape: 80 48 14 14 (752640)
I0106 23:17:20.328593 16704 layer_factory.hpp:74] Creating layer inception_4a/pool
I0106 23:17:20.328598 16704 layer_factory.cpp:56] CUDNN does not support padding or multiple tops. Using Caffe's own pooling layer.
I0106 23:17:20.328610 16704 net.cpp:84] Creating Layer inception_4a/pool
I0106 23:17:20.328624 16704 net.cpp:380] inception_4a/pool <- pool3/3x3_s2_pool3/3x3_s2_0_split_3
I0106 23:17:20.328632 16704 net.cpp:338] inception_4a/pool -> inception_4a/pool
I0106 23:17:20.328641 16704 net.cpp:113] Setting up inception_4a/pool
I0106 23:17:20.328650 16704 net.cpp:120] Top shape: 80 480 14 14 (7526400)
I0106 23:17:20.328655 16704 layer_factory.hpp:74] Creating layer inception_4a/pool_proj
I0106 23:17:20.328670 16704 net.cpp:84] Creating Layer inception_4a/pool_proj
I0106 23:17:20.328675 16704 net.cpp:380] inception_4a/pool_proj <- inception_4a/pool
I0106 23:17:20.328682 16704 net.cpp:338] inception_4a/pool_proj -> inception_4a/pool_proj
I0106 23:17:20.328691 16704 net.cpp:113] Setting up inception_4a/pool_proj
I0106 23:17:20.329454 16704 net.cpp:120] Top shape: 80 64 14 14 (1003520)
I0106 23:17:20.329471 16704 layer_factory.hpp:74] Creating layer inception_4a/relu_pool_proj
I0106 23:17:20.329479 16704 net.cpp:84] Creating Layer inception_4a/relu_pool_proj
I0106 23:17:20.329488 16704 net.cpp:380] inception_4a/relu_pool_proj <- inception_4a/pool_proj
I0106 23:17:20.329494 16704 net.cpp:327] inception_4a/relu_pool_proj -> inception_4a/pool_proj (in-place)
I0106 23:17:20.329502 16704 net.cpp:113] Setting up inception_4a/relu_pool_proj
I0106 23:17:20.329576 16704 net.cpp:120] Top shape: 80 64 14 14 (1003520)
I0106 23:17:20.329582 16704 layer_factory.hpp:74] Creating layer inception_4a/output
I0106 23:17:20.329601 16704 net.cpp:84] Creating Layer inception_4a/output
I0106 23:17:20.329607 16704 net.cpp:380] inception_4a/output <- inception_4a/1x1
I0106 23:17:20.329612 16704 net.cpp:380] inception_4a/output <- inception_4a/3x3
I0106 23:17:20.329617 16704 net.cpp:380] inception_4a/output <- inception_4a/5x5
I0106 23:17:20.329623 16704 net.cpp:380] inception_4a/output <- inception_4a/pool_proj
I0106 23:17:20.329629 16704 net.cpp:338] inception_4a/output -> inception_4a/output
I0106 23:17:20.329638 16704 net.cpp:113] Setting up inception_4a/output
I0106 23:17:20.329645 16704 net.cpp:120] Top shape: 80 512 14 14 (8028160)
I0106 23:17:20.329649 16704 layer_factory.hpp:74] Creating layer inception_4a/output_inception_4a/output_0_split
I0106 23:17:20.329658 16704 net.cpp:84] Creating Layer inception_4a/output_inception_4a/output_0_split
I0106 23:17:20.329663 16704 net.cpp:380] inception_4a/output_inception_4a/output_0_split <- inception_4a/output
I0106 23:17:20.329670 16704 net.cpp:338] inception_4a/output_inception_4a/output_0_split -> inception_4a/output_inception_4a/output_0_split_0
I0106 23:17:20.329677 16704 net.cpp:338] inception_4a/output_inception_4a/output_0_split -> inception_4a/output_inception_4a/output_0_split_1
I0106 23:17:20.329685 16704 net.cpp:338] inception_4a/output_inception_4a/output_0_split -> inception_4a/output_inception_4a/output_0_split_2
I0106 23:17:20.329692 16704 net.cpp:338] inception_4a/output_inception_4a/output_0_split -> inception_4a/output_inception_4a/output_0_split_3
I0106 23:17:20.329699 16704 net.cpp:338] inception_4a/output_inception_4a/output_0_split -> inception_4a/output_inception_4a/output_0_split_4
I0106 23:17:20.329706 16704 net.cpp:113] Setting up inception_4a/output_inception_4a/output_0_split
I0106 23:17:20.329715 16704 net.cpp:120] Top shape: 80 512 14 14 (8028160)
I0106 23:17:20.329721 16704 net.cpp:120] Top shape: 80 512 14 14 (8028160)
I0106 23:17:20.329726 16704 net.cpp:120] Top shape: 80 512 14 14 (8028160)
I0106 23:17:20.329732 16704 net.cpp:120] Top shape: 80 512 14 14 (8028160)
I0106 23:17:20.329737 16704 net.cpp:120] Top shape: 80 512 14 14 (8028160)
I0106 23:17:20.329741 16704 layer_factory.hpp:74] Creating layer loss1/ave_pool
I0106 23:17:20.329748 16704 net.cpp:84] Creating Layer loss1/ave_pool
I0106 23:17:20.329753 16704 net.cpp:380] loss1/ave_pool <- inception_4a/output_inception_4a/output_0_split_0
I0106 23:17:20.329761 16704 net.cpp:338] loss1/ave_pool -> loss1/ave_pool
I0106 23:17:20.329768 16704 net.cpp:113] Setting up loss1/ave_pool
I0106 23:17:20.329840 16704 net.cpp:120] Top shape: 80 512 4 4 (655360)
I0106 23:17:20.329852 16704 layer_factory.hpp:74] Creating layer loss1/conv
I0106 23:17:20.329876 16704 net.cpp:84] Creating Layer loss1/conv
I0106 23:17:20.329882 16704 net.cpp:380] loss1/conv <- loss1/ave_pool
I0106 23:17:20.329890 16704 net.cpp:338] loss1/conv -> loss1/conv
I0106 23:17:20.329897 16704 net.cpp:113] Setting up loss1/conv
I0106 23:17:20.331053 16704 net.cpp:120] Top shape: 80 128 4 4 (163840)
I0106 23:17:20.331069 16704 layer_factory.hpp:74] Creating layer loss1/relu_conv
I0106 23:17:20.331076 16704 net.cpp:84] Creating Layer loss1/relu_conv
I0106 23:17:20.331081 16704 net.cpp:380] loss1/relu_conv <- loss1/conv
I0106 23:17:20.331090 16704 net.cpp:327] loss1/relu_conv -> loss1/conv (in-place)
I0106 23:17:20.331099 16704 net.cpp:113] Setting up loss1/relu_conv
I0106 23:17:20.331166 16704 net.cpp:120] Top shape: 80 128 4 4 (163840)
I0106 23:17:20.331174 16704 layer_factory.hpp:74] Creating layer loss1/fc
I0106 23:17:20.331188 16704 net.cpp:84] Creating Layer loss1/fc
I0106 23:17:20.331197 16704 net.cpp:380] loss1/fc <- loss1/conv
I0106 23:17:20.331203 16704 net.cpp:338] loss1/fc -> loss1/fc
I0106 23:17:20.331214 16704 net.cpp:113] Setting up loss1/fc
I0106 23:17:20.354094 16704 net.cpp:120] Top shape: 80 1024 (81920)
I0106 23:17:20.354110 16704 layer_factory.hpp:74] Creating layer loss1/relu_fc
I0106 23:17:20.354117 16704 net.cpp:84] Creating Layer loss1/relu_fc
I0106 23:17:20.354123 16704 net.cpp:380] loss1/relu_fc <- loss1/fc
I0106 23:17:20.354130 16704 net.cpp:327] loss1/relu_fc -> loss1/fc (in-place)
I0106 23:17:20.354137 16704 net.cpp:113] Setting up loss1/relu_fc
I0106 23:17:20.354389 16704 net.cpp:120] Top shape: 80 1024 (81920)
I0106 23:17:20.354400 16704 layer_factory.hpp:74] Creating layer loss1/drop_fc
I0106 23:17:20.354425 16704 net.cpp:84] Creating Layer loss1/drop_fc
I0106 23:17:20.354432 16704 net.cpp:380] loss1/drop_fc <- loss1/fc
I0106 23:17:20.354440 16704 net.cpp:327] loss1/drop_fc -> loss1/fc (in-place)
I0106 23:17:20.354449 16704 net.cpp:113] Setting up loss1/drop_fc
I0106 23:17:20.354460 16704 net.cpp:120] Top shape: 80 1024 (81920)
I0106 23:17:20.354470 16704 layer_factory.hpp:74] Creating layer loss1/classifier_kaggle
I0106 23:17:20.354481 16704 net.cpp:84] Creating Layer loss1/classifier_kaggle
I0106 23:17:20.354486 16704 net.cpp:380] loss1/classifier_kaggle <- loss1/fc
I0106 23:17:20.354496 16704 net.cpp:338] loss1/classifier_kaggle -> loss1/classifier_kaggle
I0106 23:17:20.354503 16704 net.cpp:113] Setting up loss1/classifier_kaggle
I0106 23:17:20.359797 16704 net.cpp:120] Top shape: 80 447 (35760)
I0106 23:17:20.359812 16704 layer_factory.hpp:74] Creating layer loss1/loss
I0106 23:17:20.359822 16704 net.cpp:84] Creating Layer loss1/loss
I0106 23:17:20.359827 16704 net.cpp:380] loss1/loss <- loss1/classifier_kaggle
I0106 23:17:20.359834 16704 net.cpp:380] loss1/loss <- label_data_1_split_0
I0106 23:17:20.359840 16704 net.cpp:338] loss1/loss -> loss1/loss1
I0106 23:17:20.359849 16704 net.cpp:113] Setting up loss1/loss
I0106 23:17:20.359858 16704 layer_factory.hpp:74] Creating layer loss1/loss
I0106 23:17:20.360025 16704 net.cpp:120] Top shape: (1)
I0106 23:17:20.360034 16704 net.cpp:122]     with loss weight 0.3
I0106 23:17:20.360051 16704 layer_factory.hpp:74] Creating layer inception_4b/1x1
I0106 23:17:20.360074 16704 net.cpp:84] Creating Layer inception_4b/1x1
I0106 23:17:20.360080 16704 net.cpp:380] inception_4b/1x1 <- inception_4a/output_inception_4a/output_0_split_1
I0106 23:17:20.360090 16704 net.cpp:338] inception_4b/1x1 -> inception_4b/1x1
I0106 23:17:20.360097 16704 net.cpp:113] Setting up inception_4b/1x1
I0106 23:17:20.361464 16704 net.cpp:120] Top shape: 80 160 14 14 (2508800)
I0106 23:17:20.361480 16704 layer_factory.hpp:74] Creating layer inception_4b/relu_1x1
I0106 23:17:20.361490 16704 net.cpp:84] Creating Layer inception_4b/relu_1x1
I0106 23:17:20.361496 16704 net.cpp:380] inception_4b/relu_1x1 <- inception_4b/1x1
I0106 23:17:20.361505 16704 net.cpp:327] inception_4b/relu_1x1 -> inception_4b/1x1 (in-place)
I0106 23:17:20.361512 16704 net.cpp:113] Setting up inception_4b/relu_1x1
I0106 23:17:20.361591 16704 net.cpp:120] Top shape: 80 160 14 14 (2508800)
I0106 23:17:20.361613 16704 layer_factory.hpp:74] Creating layer inception_4b/3x3_reduce
I0106 23:17:20.361624 16704 net.cpp:84] Creating Layer inception_4b/3x3_reduce
I0106 23:17:20.361630 16704 net.cpp:380] inception_4b/3x3_reduce <- inception_4a/output_inception_4a/output_0_split_2
I0106 23:17:20.361639 16704 net.cpp:338] inception_4b/3x3_reduce -> inception_4b/3x3_reduce
I0106 23:17:20.361646 16704 net.cpp:113] Setting up inception_4b/3x3_reduce
I0106 23:17:20.362725 16704 net.cpp:120] Top shape: 80 112 14 14 (1756160)
I0106 23:17:20.362740 16704 layer_factory.hpp:74] Creating layer inception_4b/relu_3x3_reduce
I0106 23:17:20.362756 16704 net.cpp:84] Creating Layer inception_4b/relu_3x3_reduce
I0106 23:17:20.362761 16704 net.cpp:380] inception_4b/relu_3x3_reduce <- inception_4b/3x3_reduce
I0106 23:17:20.362771 16704 net.cpp:327] inception_4b/relu_3x3_reduce -> inception_4b/3x3_reduce (in-place)
I0106 23:17:20.362778 16704 net.cpp:113] Setting up inception_4b/relu_3x3_reduce
I0106 23:17:20.362850 16704 net.cpp:120] Top shape: 80 112 14 14 (1756160)
I0106 23:17:20.362856 16704 layer_factory.hpp:74] Creating layer inception_4b/3x3
I0106 23:17:20.362867 16704 net.cpp:84] Creating Layer inception_4b/3x3
I0106 23:17:20.362872 16704 net.cpp:380] inception_4b/3x3 <- inception_4b/3x3_reduce
I0106 23:17:20.362879 16704 net.cpp:338] inception_4b/3x3 -> inception_4b/3x3
I0106 23:17:20.362887 16704 net.cpp:113] Setting up inception_4b/3x3
I0106 23:17:20.365881 16704 net.cpp:120] Top shape: 80 224 14 14 (3512320)
I0106 23:17:20.365898 16704 layer_factory.hpp:74] Creating layer inception_4b/relu_3x3
I0106 23:17:20.365907 16704 net.cpp:84] Creating Layer inception_4b/relu_3x3
I0106 23:17:20.365913 16704 net.cpp:380] inception_4b/relu_3x3 <- inception_4b/3x3
I0106 23:17:20.365921 16704 net.cpp:327] inception_4b/relu_3x3 -> inception_4b/3x3 (in-place)
I0106 23:17:20.365928 16704 net.cpp:113] Setting up inception_4b/relu_3x3
I0106 23:17:20.366168 16704 net.cpp:120] Top shape: 80 224 14 14 (3512320)
I0106 23:17:20.366178 16704 layer_factory.hpp:74] Creating layer inception_4b/5x5_reduce
I0106 23:17:20.366204 16704 net.cpp:84] Creating Layer inception_4b/5x5_reduce
I0106 23:17:20.366210 16704 net.cpp:380] inception_4b/5x5_reduce <- inception_4a/output_inception_4a/output_0_split_3
I0106 23:17:20.366220 16704 net.cpp:338] inception_4b/5x5_reduce -> inception_4b/5x5_reduce
I0106 23:17:20.366230 16704 net.cpp:113] Setting up inception_4b/5x5_reduce
I0106 23:17:20.366801 16704 net.cpp:120] Top shape: 80 24 14 14 (376320)
I0106 23:17:20.366817 16704 layer_factory.hpp:74] Creating layer inception_4b/relu_5x5_reduce
I0106 23:17:20.366824 16704 net.cpp:84] Creating Layer inception_4b/relu_5x5_reduce
I0106 23:17:20.366830 16704 net.cpp:380] inception_4b/relu_5x5_reduce <- inception_4b/5x5_reduce
I0106 23:17:20.366837 16704 net.cpp:327] inception_4b/relu_5x5_reduce -> inception_4b/5x5_reduce (in-place)
I0106 23:17:20.366844 16704 net.cpp:113] Setting up inception_4b/relu_5x5_reduce
I0106 23:17:20.366915 16704 net.cpp:120] Top shape: 80 24 14 14 (376320)
I0106 23:17:20.366922 16704 layer_factory.hpp:74] Creating layer inception_4b/5x5
I0106 23:17:20.366931 16704 net.cpp:84] Creating Layer inception_4b/5x5
I0106 23:17:20.366936 16704 net.cpp:380] inception_4b/5x5 <- inception_4b/5x5_reduce
I0106 23:17:20.366943 16704 net.cpp:338] inception_4b/5x5 -> inception_4b/5x5
I0106 23:17:20.366951 16704 net.cpp:113] Setting up inception_4b/5x5
I0106 23:17:20.367799 16704 net.cpp:120] Top shape: 80 64 14 14 (1003520)
I0106 23:17:20.367813 16704 layer_factory.hpp:74] Creating layer inception_4b/relu_5x5
I0106 23:17:20.367828 16704 net.cpp:84] Creating Layer inception_4b/relu_5x5
I0106 23:17:20.367835 16704 net.cpp:380] inception_4b/relu_5x5 <- inception_4b/5x5
I0106 23:17:20.367843 16704 net.cpp:327] inception_4b/relu_5x5 -> inception_4b/5x5 (in-place)
I0106 23:17:20.367851 16704 net.cpp:113] Setting up inception_4b/relu_5x5
I0106 23:17:20.367921 16704 net.cpp:120] Top shape: 80 64 14 14 (1003520)
I0106 23:17:20.367933 16704 layer_factory.hpp:74] Creating layer inception_4b/pool
I0106 23:17:20.367945 16704 layer_factory.cpp:56] CUDNN does not support padding or multiple tops. Using Caffe's own pooling layer.
I0106 23:17:20.367954 16704 net.cpp:84] Creating Layer inception_4b/pool
I0106 23:17:20.367959 16704 net.cpp:380] inception_4b/pool <- inception_4a/output_inception_4a/output_0_split_4
I0106 23:17:20.367966 16704 net.cpp:338] inception_4b/pool -> inception_4b/pool
I0106 23:17:20.367982 16704 net.cpp:113] Setting up inception_4b/pool
I0106 23:17:20.367992 16704 net.cpp:120] Top shape: 80 512 14 14 (8028160)
I0106 23:17:20.368002 16704 layer_factory.hpp:74] Creating layer inception_4b/pool_proj
I0106 23:17:20.368011 16704 net.cpp:84] Creating Layer inception_4b/pool_proj
I0106 23:17:20.368017 16704 net.cpp:380] inception_4b/pool_proj <- inception_4b/pool
I0106 23:17:20.368029 16704 net.cpp:338] inception_4b/pool_proj -> inception_4b/pool_proj
I0106 23:17:20.368038 16704 net.cpp:113] Setting up inception_4b/pool_proj
I0106 23:17:20.374377 16704 net.cpp:120] Top shape: 80 64 14 14 (1003520)
I0106 23:17:20.374393 16704 layer_factory.hpp:74] Creating layer inception_4b/relu_pool_proj
I0106 23:17:20.374402 16704 net.cpp:84] Creating Layer inception_4b/relu_pool_proj
I0106 23:17:20.374407 16704 net.cpp:380] inception_4b/relu_pool_proj <- inception_4b/pool_proj
I0106 23:17:20.374415 16704 net.cpp:327] inception_4b/relu_pool_proj -> inception_4b/pool_proj (in-place)
I0106 23:17:20.374423 16704 net.cpp:113] Setting up inception_4b/relu_pool_proj
I0106 23:17:20.374665 16704 net.cpp:120] Top shape: 80 64 14 14 (1003520)
I0106 23:17:20.374676 16704 layer_factory.hpp:74] Creating layer inception_4b/output
I0106 23:17:20.374694 16704 net.cpp:84] Creating Layer inception_4b/output
I0106 23:17:20.374701 16704 net.cpp:380] inception_4b/output <- inception_4b/1x1
I0106 23:17:20.374707 16704 net.cpp:380] inception_4b/output <- inception_4b/3x3
I0106 23:17:20.374713 16704 net.cpp:380] inception_4b/output <- inception_4b/5x5
I0106 23:17:20.374718 16704 net.cpp:380] inception_4b/output <- inception_4b/pool_proj
I0106 23:17:20.374727 16704 net.cpp:338] inception_4b/output -> inception_4b/output
I0106 23:17:20.374735 16704 net.cpp:113] Setting up inception_4b/output
I0106 23:17:20.374743 16704 net.cpp:120] Top shape: 80 512 14 14 (8028160)
I0106 23:17:20.374748 16704 layer_factory.hpp:74] Creating layer inception_4b/output_inception_4b/output_0_split
I0106 23:17:20.374759 16704 net.cpp:84] Creating Layer inception_4b/output_inception_4b/output_0_split
I0106 23:17:20.374764 16704 net.cpp:380] inception_4b/output_inception_4b/output_0_split <- inception_4b/output
I0106 23:17:20.374773 16704 net.cpp:338] inception_4b/output_inception_4b/output_0_split -> inception_4b/output_inception_4b/output_0_split_0
I0106 23:17:20.374781 16704 net.cpp:338] inception_4b/output_inception_4b/output_0_split -> inception_4b/output_inception_4b/output_0_split_1
I0106 23:17:20.374788 16704 net.cpp:338] inception_4b/output_inception_4b/output_0_split -> inception_4b/output_inception_4b/output_0_split_2
I0106 23:17:20.374796 16704 net.cpp:338] inception_4b/output_inception_4b/output_0_split -> inception_4b/output_inception_4b/output_0_split_3
I0106 23:17:20.374802 16704 net.cpp:113] Setting up inception_4b/output_inception_4b/output_0_split
I0106 23:17:20.374810 16704 net.cpp:120] Top shape: 80 512 14 14 (8028160)
I0106 23:17:20.374816 16704 net.cpp:120] Top shape: 80 512 14 14 (8028160)
I0106 23:17:20.374821 16704 net.cpp:120] Top shape: 80 512 14 14 (8028160)
I0106 23:17:20.374827 16704 net.cpp:120] Top shape: 80 512 14 14 (8028160)
I0106 23:17:20.374831 16704 layer_factory.hpp:74] Creating layer inception_4c/1x1
I0106 23:17:20.374846 16704 net.cpp:84] Creating Layer inception_4c/1x1
I0106 23:17:20.374852 16704 net.cpp:380] inception_4c/1x1 <- inception_4b/output_inception_4b/output_0_split_0
I0106 23:17:20.374858 16704 net.cpp:338] inception_4c/1x1 -> inception_4c/1x1
I0106 23:17:20.374866 16704 net.cpp:113] Setting up inception_4c/1x1
I0106 23:17:20.376022 16704 net.cpp:120] Top shape: 80 128 14 14 (2007040)
I0106 23:17:20.376046 16704 layer_factory.hpp:74] Creating layer inception_4c/relu_1x1
I0106 23:17:20.376055 16704 net.cpp:84] Creating Layer inception_4c/relu_1x1
I0106 23:17:20.376060 16704 net.cpp:380] inception_4c/relu_1x1 <- inception_4c/1x1
I0106 23:17:20.376068 16704 net.cpp:327] inception_4c/relu_1x1 -> inception_4c/1x1 (in-place)
I0106 23:17:20.376077 16704 net.cpp:113] Setting up inception_4c/relu_1x1
I0106 23:17:20.376148 16704 net.cpp:120] Top shape: 80 128 14 14 (2007040)
I0106 23:17:20.376157 16704 layer_factory.hpp:74] Creating layer inception_4c/3x3_reduce
I0106 23:17:20.376173 16704 net.cpp:84] Creating Layer inception_4c/3x3_reduce
I0106 23:17:20.376179 16704 net.cpp:380] inception_4c/3x3_reduce <- inception_4b/output_inception_4b/output_0_split_1
I0106 23:17:20.376188 16704 net.cpp:338] inception_4c/3x3_reduce -> inception_4c/3x3_reduce
I0106 23:17:20.376198 16704 net.cpp:113] Setting up inception_4c/3x3_reduce
I0106 23:17:20.377351 16704 net.cpp:120] Top shape: 80 128 14 14 (2007040)
I0106 23:17:20.377367 16704 layer_factory.hpp:74] Creating layer inception_4c/relu_3x3_reduce
I0106 23:17:20.377374 16704 net.cpp:84] Creating Layer inception_4c/relu_3x3_reduce
I0106 23:17:20.377380 16704 net.cpp:380] inception_4c/relu_3x3_reduce <- inception_4c/3x3_reduce
I0106 23:17:20.377389 16704 net.cpp:327] inception_4c/relu_3x3_reduce -> inception_4c/3x3_reduce (in-place)
I0106 23:17:20.377398 16704 net.cpp:113] Setting up inception_4c/relu_3x3_reduce
I0106 23:17:20.377476 16704 net.cpp:120] Top shape: 80 128 14 14 (2007040)
I0106 23:17:20.377485 16704 layer_factory.hpp:74] Creating layer inception_4c/3x3
I0106 23:17:20.377495 16704 net.cpp:84] Creating Layer inception_4c/3x3
I0106 23:17:20.377499 16704 net.cpp:380] inception_4c/3x3 <- inception_4c/3x3_reduce
I0106 23:17:20.377508 16704 net.cpp:338] inception_4c/3x3 -> inception_4c/3x3
I0106 23:17:20.377517 16704 net.cpp:113] Setting up inception_4c/3x3
I0106 23:17:20.381314 16704 net.cpp:120] Top shape: 80 256 14 14 (4014080)
I0106 23:17:20.381347 16704 layer_factory.hpp:74] Creating layer inception_4c/relu_3x3
I0106 23:17:20.381361 16704 net.cpp:84] Creating Layer inception_4c/relu_3x3
I0106 23:17:20.381366 16704 net.cpp:380] inception_4c/relu_3x3 <- inception_4c/3x3
I0106 23:17:20.381373 16704 net.cpp:327] inception_4c/relu_3x3 -> inception_4c/3x3 (in-place)
I0106 23:17:20.381381 16704 net.cpp:113] Setting up inception_4c/relu_3x3
I0106 23:17:20.381461 16704 net.cpp:120] Top shape: 80 256 14 14 (4014080)
I0106 23:17:20.381469 16704 layer_factory.hpp:74] Creating layer inception_4c/5x5_reduce
I0106 23:17:20.381479 16704 net.cpp:84] Creating Layer inception_4c/5x5_reduce
I0106 23:17:20.381484 16704 net.cpp:380] inception_4c/5x5_reduce <- inception_4b/output_inception_4b/output_0_split_2
I0106 23:17:20.381492 16704 net.cpp:338] inception_4c/5x5_reduce -> inception_4c/5x5_reduce
I0106 23:17:20.381500 16704 net.cpp:113] Setting up inception_4c/5x5_reduce
I0106 23:17:20.382052 16704 net.cpp:120] Top shape: 80 24 14 14 (376320)
I0106 23:17:20.382068 16704 layer_factory.hpp:74] Creating layer inception_4c/relu_5x5_reduce
I0106 23:17:20.382076 16704 net.cpp:84] Creating Layer inception_4c/relu_5x5_reduce
I0106 23:17:20.382083 16704 net.cpp:380] inception_4c/relu_5x5_reduce <- inception_4c/5x5_reduce
I0106 23:17:20.382091 16704 net.cpp:327] inception_4c/relu_5x5_reduce -> inception_4c/5x5_reduce (in-place)
I0106 23:17:20.382098 16704 net.cpp:113] Setting up inception_4c/relu_5x5_reduce
I0106 23:17:20.382339 16704 net.cpp:120] Top shape: 80 24 14 14 (376320)
I0106 23:17:20.382350 16704 layer_factory.hpp:74] Creating layer inception_4c/5x5
I0106 23:17:20.382359 16704 net.cpp:84] Creating Layer inception_4c/5x5
I0106 23:17:20.382364 16704 net.cpp:380] inception_4c/5x5 <- inception_4c/5x5_reduce
I0106 23:17:20.382374 16704 net.cpp:338] inception_4c/5x5 -> inception_4c/5x5
I0106 23:17:20.382382 16704 net.cpp:113] Setting up inception_4c/5x5
I0106 23:17:20.383222 16704 net.cpp:120] Top shape: 80 64 14 14 (1003520)
I0106 23:17:20.383249 16704 layer_factory.hpp:74] Creating layer inception_4c/relu_5x5
I0106 23:17:20.383271 16704 net.cpp:84] Creating Layer inception_4c/relu_5x5
I0106 23:17:20.383277 16704 net.cpp:380] inception_4c/relu_5x5 <- inception_4c/5x5
I0106 23:17:20.383285 16704 net.cpp:327] inception_4c/relu_5x5 -> inception_4c/5x5 (in-place)
I0106 23:17:20.383292 16704 net.cpp:113] Setting up inception_4c/relu_5x5
I0106 23:17:20.383371 16704 net.cpp:120] Top shape: 80 64 14 14 (1003520)
I0106 23:17:20.383378 16704 layer_factory.hpp:74] Creating layer inception_4c/pool
I0106 23:17:20.383384 16704 layer_factory.cpp:56] CUDNN does not support padding or multiple tops. Using Caffe's own pooling layer.
I0106 23:17:20.383390 16704 net.cpp:84] Creating Layer inception_4c/pool
I0106 23:17:20.383395 16704 net.cpp:380] inception_4c/pool <- inception_4b/output_inception_4b/output_0_split_3
I0106 23:17:20.383404 16704 net.cpp:338] inception_4c/pool -> inception_4c/pool
I0106 23:17:20.383412 16704 net.cpp:113] Setting up inception_4c/pool
I0106 23:17:20.383421 16704 net.cpp:120] Top shape: 80 512 14 14 (8028160)
I0106 23:17:20.383426 16704 layer_factory.hpp:74] Creating layer inception_4c/pool_proj
I0106 23:17:20.383435 16704 net.cpp:84] Creating Layer inception_4c/pool_proj
I0106 23:17:20.383440 16704 net.cpp:380] inception_4c/pool_proj <- inception_4c/pool
I0106 23:17:20.383447 16704 net.cpp:338] inception_4c/pool_proj -> inception_4c/pool_proj
I0106 23:17:20.383455 16704 net.cpp:113] Setting up inception_4c/pool_proj
I0106 23:17:20.384243 16704 net.cpp:120] Top shape: 80 64 14 14 (1003520)
I0106 23:17:20.384258 16704 layer_factory.hpp:74] Creating layer inception_4c/relu_pool_proj
I0106 23:17:20.384276 16704 net.cpp:84] Creating Layer inception_4c/relu_pool_proj
I0106 23:17:20.384282 16704 net.cpp:380] inception_4c/relu_pool_proj <- inception_4c/pool_proj
I0106 23:17:20.384289 16704 net.cpp:327] inception_4c/relu_pool_proj -> inception_4c/pool_proj (in-place)
I0106 23:17:20.384297 16704 net.cpp:113] Setting up inception_4c/relu_pool_proj
I0106 23:17:20.384371 16704 net.cpp:120] Top shape: 80 64 14 14 (1003520)
I0106 23:17:20.384377 16704 layer_factory.hpp:74] Creating layer inception_4c/output
I0106 23:17:20.384388 16704 net.cpp:84] Creating Layer inception_4c/output
I0106 23:17:20.384393 16704 net.cpp:380] inception_4c/output <- inception_4c/1x1
I0106 23:17:20.384400 16704 net.cpp:380] inception_4c/output <- inception_4c/3x3
I0106 23:17:20.384405 16704 net.cpp:380] inception_4c/output <- inception_4c/5x5
I0106 23:17:20.384410 16704 net.cpp:380] inception_4c/output <- inception_4c/pool_proj
I0106 23:17:20.384418 16704 net.cpp:338] inception_4c/output -> inception_4c/output
I0106 23:17:20.384426 16704 net.cpp:113] Setting up inception_4c/output
I0106 23:17:20.384434 16704 net.cpp:120] Top shape: 80 512 14 14 (8028160)
I0106 23:17:20.384439 16704 layer_factory.hpp:74] Creating layer inception_4c/output_inception_4c/output_0_split
I0106 23:17:20.384446 16704 net.cpp:84] Creating Layer inception_4c/output_inception_4c/output_0_split
I0106 23:17:20.384450 16704 net.cpp:380] inception_4c/output_inception_4c/output_0_split <- inception_4c/output
I0106 23:17:20.384457 16704 net.cpp:338] inception_4c/output_inception_4c/output_0_split -> inception_4c/output_inception_4c/output_0_split_0
I0106 23:17:20.384465 16704 net.cpp:338] inception_4c/output_inception_4c/output_0_split -> inception_4c/output_inception_4c/output_0_split_1
I0106 23:17:20.384474 16704 net.cpp:338] inception_4c/output_inception_4c/output_0_split -> inception_4c/output_inception_4c/output_0_split_2
I0106 23:17:20.384481 16704 net.cpp:338] inception_4c/output_inception_4c/output_0_split -> inception_4c/output_inception_4c/output_0_split_3
I0106 23:17:20.384488 16704 net.cpp:113] Setting up inception_4c/output_inception_4c/output_0_split
I0106 23:17:20.384495 16704 net.cpp:120] Top shape: 80 512 14 14 (8028160)
I0106 23:17:20.384501 16704 net.cpp:120] Top shape: 80 512 14 14 (8028160)
I0106 23:17:20.384506 16704 net.cpp:120] Top shape: 80 512 14 14 (8028160)
I0106 23:17:20.384516 16704 net.cpp:120] Top shape: 80 512 14 14 (8028160)
I0106 23:17:20.384529 16704 layer_factory.hpp:74] Creating layer inception_4d/1x1
I0106 23:17:20.384538 16704 net.cpp:84] Creating Layer inception_4d/1x1
I0106 23:17:20.384543 16704 net.cpp:380] inception_4d/1x1 <- inception_4c/output_inception_4c/output_0_split_0
I0106 23:17:20.384551 16704 net.cpp:338] inception_4d/1x1 -> inception_4d/1x1
I0106 23:17:20.384558 16704 net.cpp:113] Setting up inception_4d/1x1
I0106 23:17:20.385632 16704 net.cpp:120] Top shape: 80 112 14 14 (1756160)
I0106 23:17:20.385648 16704 layer_factory.hpp:74] Creating layer inception_4d/relu_1x1
I0106 23:17:20.385656 16704 net.cpp:84] Creating Layer inception_4d/relu_1x1
I0106 23:17:20.385663 16704 net.cpp:380] inception_4d/relu_1x1 <- inception_4d/1x1
I0106 23:17:20.385673 16704 net.cpp:327] inception_4d/relu_1x1 -> inception_4d/1x1 (in-place)
I0106 23:17:20.385680 16704 net.cpp:113] Setting up inception_4d/relu_1x1
I0106 23:17:20.385751 16704 net.cpp:120] Top shape: 80 112 14 14 (1756160)
I0106 23:17:20.385757 16704 layer_factory.hpp:74] Creating layer inception_4d/3x3_reduce
I0106 23:17:20.385776 16704 net.cpp:84] Creating Layer inception_4d/3x3_reduce
I0106 23:17:20.385782 16704 net.cpp:380] inception_4d/3x3_reduce <- inception_4c/output_inception_4c/output_0_split_1
I0106 23:17:20.385789 16704 net.cpp:338] inception_4d/3x3_reduce -> inception_4d/3x3_reduce
I0106 23:17:20.385798 16704 net.cpp:113] Setting up inception_4d/3x3_reduce
I0106 23:17:20.387054 16704 net.cpp:120] Top shape: 80 144 14 14 (2257920)
I0106 23:17:20.387076 16704 layer_factory.hpp:74] Creating layer inception_4d/relu_3x3_reduce
I0106 23:17:20.387086 16704 net.cpp:84] Creating Layer inception_4d/relu_3x3_reduce
I0106 23:17:20.387092 16704 net.cpp:380] inception_4d/relu_3x3_reduce <- inception_4d/3x3_reduce
I0106 23:17:20.387099 16704 net.cpp:327] inception_4d/relu_3x3_reduce -> inception_4d/3x3_reduce (in-place)
I0106 23:17:20.387107 16704 net.cpp:113] Setting up inception_4d/relu_3x3_reduce
I0106 23:17:20.387348 16704 net.cpp:120] Top shape: 80 144 14 14 (2257920)
I0106 23:17:20.387359 16704 layer_factory.hpp:74] Creating layer inception_4d/3x3
I0106 23:17:20.387369 16704 net.cpp:84] Creating Layer inception_4d/3x3
I0106 23:17:20.387375 16704 net.cpp:380] inception_4d/3x3 <- inception_4d/3x3_reduce
I0106 23:17:20.387382 16704 net.cpp:338] inception_4d/3x3 -> inception_4d/3x3
I0106 23:17:20.387392 16704 net.cpp:113] Setting up inception_4d/3x3
I0106 23:17:20.392076 16704 net.cpp:120] Top shape: 80 288 14 14 (4515840)
I0106 23:17:20.392093 16704 layer_factory.hpp:74] Creating layer inception_4d/relu_3x3
I0106 23:17:20.392109 16704 net.cpp:84] Creating Layer inception_4d/relu_3x3
I0106 23:17:20.392117 16704 net.cpp:380] inception_4d/relu_3x3 <- inception_4d/3x3
I0106 23:17:20.392123 16704 net.cpp:327] inception_4d/relu_3x3 -> inception_4d/3x3 (in-place)
I0106 23:17:20.392130 16704 net.cpp:113] Setting up inception_4d/relu_3x3
I0106 23:17:20.392204 16704 net.cpp:120] Top shape: 80 288 14 14 (4515840)
I0106 23:17:20.392211 16704 layer_factory.hpp:74] Creating layer inception_4d/5x5_reduce
I0106 23:17:20.392220 16704 net.cpp:84] Creating Layer inception_4d/5x5_reduce
I0106 23:17:20.392225 16704 net.cpp:380] inception_4d/5x5_reduce <- inception_4c/output_inception_4c/output_0_split_2
I0106 23:17:20.392235 16704 net.cpp:338] inception_4d/5x5_reduce -> inception_4d/5x5_reduce
I0106 23:17:20.392243 16704 net.cpp:113] Setting up inception_4d/5x5_reduce
I0106 23:17:20.392833 16704 net.cpp:120] Top shape: 80 32 14 14 (501760)
I0106 23:17:20.392848 16704 layer_factory.hpp:74] Creating layer inception_4d/relu_5x5_reduce
I0106 23:17:20.392858 16704 net.cpp:84] Creating Layer inception_4d/relu_5x5_reduce
I0106 23:17:20.392864 16704 net.cpp:380] inception_4d/relu_5x5_reduce <- inception_4d/5x5_reduce
I0106 23:17:20.392871 16704 net.cpp:327] inception_4d/relu_5x5_reduce -> inception_4d/5x5_reduce (in-place)
I0106 23:17:20.392879 16704 net.cpp:113] Setting up inception_4d/relu_5x5_reduce
I0106 23:17:20.392947 16704 net.cpp:120] Top shape: 80 32 14 14 (501760)
I0106 23:17:20.392971 16704 layer_factory.hpp:74] Creating layer inception_4d/5x5
I0106 23:17:20.392987 16704 net.cpp:84] Creating Layer inception_4d/5x5
I0106 23:17:20.392992 16704 net.cpp:380] inception_4d/5x5 <- inception_4d/5x5_reduce
I0106 23:17:20.393002 16704 net.cpp:338] inception_4d/5x5 -> inception_4d/5x5
I0106 23:17:20.393010 16704 net.cpp:113] Setting up inception_4d/5x5
I0106 23:17:20.394011 16704 net.cpp:120] Top shape: 80 64 14 14 (1003520)
I0106 23:17:20.394028 16704 layer_factory.hpp:74] Creating layer inception_4d/relu_5x5
I0106 23:17:20.394037 16704 net.cpp:84] Creating Layer inception_4d/relu_5x5
I0106 23:17:20.394043 16704 net.cpp:380] inception_4d/relu_5x5 <- inception_4d/5x5
I0106 23:17:20.394050 16704 net.cpp:327] inception_4d/relu_5x5 -> inception_4d/5x5 (in-place)
I0106 23:17:20.394058 16704 net.cpp:113] Setting up inception_4d/relu_5x5
I0106 23:17:20.394132 16704 net.cpp:120] Top shape: 80 64 14 14 (1003520)
I0106 23:17:20.394139 16704 layer_factory.hpp:74] Creating layer inception_4d/pool
I0106 23:17:20.394145 16704 layer_factory.cpp:56] CUDNN does not support padding or multiple tops. Using Caffe's own pooling layer.
I0106 23:17:20.394150 16704 net.cpp:84] Creating Layer inception_4d/pool
I0106 23:17:20.394155 16704 net.cpp:380] inception_4d/pool <- inception_4c/output_inception_4c/output_0_split_3
I0106 23:17:20.394163 16704 net.cpp:338] inception_4d/pool -> inception_4d/pool
I0106 23:17:20.394171 16704 net.cpp:113] Setting up inception_4d/pool
I0106 23:17:20.394181 16704 net.cpp:120] Top shape: 80 512 14 14 (8028160)
I0106 23:17:20.394186 16704 layer_factory.hpp:74] Creating layer inception_4d/pool_proj
I0106 23:17:20.394194 16704 net.cpp:84] Creating Layer inception_4d/pool_proj
I0106 23:17:20.394199 16704 net.cpp:380] inception_4d/pool_proj <- inception_4d/pool
I0106 23:17:20.394207 16704 net.cpp:338] inception_4d/pool_proj -> inception_4d/pool_proj
I0106 23:17:20.394214 16704 net.cpp:113] Setting up inception_4d/pool_proj
I0106 23:17:20.394992 16704 net.cpp:120] Top shape: 80 64 14 14 (1003520)
I0106 23:17:20.395009 16704 layer_factory.hpp:74] Creating layer inception_4d/relu_pool_proj
I0106 23:17:20.395030 16704 net.cpp:84] Creating Layer inception_4d/relu_pool_proj
I0106 23:17:20.395037 16704 net.cpp:380] inception_4d/relu_pool_proj <- inception_4d/pool_proj
I0106 23:17:20.395046 16704 net.cpp:327] inception_4d/relu_pool_proj -> inception_4d/pool_proj (in-place)
I0106 23:17:20.395054 16704 net.cpp:113] Setting up inception_4d/relu_pool_proj
I0106 23:17:20.395301 16704 net.cpp:120] Top shape: 80 64 14 14 (1003520)
I0106 23:17:20.395313 16704 layer_factory.hpp:74] Creating layer inception_4d/output
I0106 23:17:20.395320 16704 net.cpp:84] Creating Layer inception_4d/output
I0106 23:17:20.395325 16704 net.cpp:380] inception_4d/output <- inception_4d/1x1
I0106 23:17:20.395331 16704 net.cpp:380] inception_4d/output <- inception_4d/3x3
I0106 23:17:20.395337 16704 net.cpp:380] inception_4d/output <- inception_4d/5x5
I0106 23:17:20.395344 16704 net.cpp:380] inception_4d/output <- inception_4d/pool_proj
I0106 23:17:20.395349 16704 net.cpp:338] inception_4d/output -> inception_4d/output
I0106 23:17:20.395357 16704 net.cpp:113] Setting up inception_4d/output
I0106 23:17:20.395365 16704 net.cpp:120] Top shape: 80 528 14 14 (8279040)
I0106 23:17:20.395370 16704 layer_factory.hpp:74] Creating layer inception_4d/output_inception_4d/output_0_split
I0106 23:17:20.395376 16704 net.cpp:84] Creating Layer inception_4d/output_inception_4d/output_0_split
I0106 23:17:20.395381 16704 net.cpp:380] inception_4d/output_inception_4d/output_0_split <- inception_4d/output
I0106 23:17:20.395390 16704 net.cpp:338] inception_4d/output_inception_4d/output_0_split -> inception_4d/output_inception_4d/output_0_split_0
I0106 23:17:20.395398 16704 net.cpp:338] inception_4d/output_inception_4d/output_0_split -> inception_4d/output_inception_4d/output_0_split_1
I0106 23:17:20.395406 16704 net.cpp:338] inception_4d/output_inception_4d/output_0_split -> inception_4d/output_inception_4d/output_0_split_2
I0106 23:17:20.395418 16704 net.cpp:338] inception_4d/output_inception_4d/output_0_split -> inception_4d/output_inception_4d/output_0_split_3
I0106 23:17:20.395432 16704 net.cpp:338] inception_4d/output_inception_4d/output_0_split -> inception_4d/output_inception_4d/output_0_split_4
I0106 23:17:20.395442 16704 net.cpp:113] Setting up inception_4d/output_inception_4d/output_0_split
I0106 23:17:20.395450 16704 net.cpp:120] Top shape: 80 528 14 14 (8279040)
I0106 23:17:20.395457 16704 net.cpp:120] Top shape: 80 528 14 14 (8279040)
I0106 23:17:20.395462 16704 net.cpp:120] Top shape: 80 528 14 14 (8279040)
I0106 23:17:20.395467 16704 net.cpp:120] Top shape: 80 528 14 14 (8279040)
I0106 23:17:20.395472 16704 net.cpp:120] Top shape: 80 528 14 14 (8279040)
I0106 23:17:20.395476 16704 layer_factory.hpp:74] Creating layer loss2/ave_pool
I0106 23:17:20.395483 16704 net.cpp:84] Creating Layer loss2/ave_pool
I0106 23:17:20.395488 16704 net.cpp:380] loss2/ave_pool <- inception_4d/output_inception_4d/output_0_split_0
I0106 23:17:20.395494 16704 net.cpp:338] loss2/ave_pool -> loss2/ave_pool
I0106 23:17:20.395501 16704 net.cpp:113] Setting up loss2/ave_pool
I0106 23:17:20.395576 16704 net.cpp:120] Top shape: 80 528 4 4 (675840)
I0106 23:17:20.395582 16704 layer_factory.hpp:74] Creating layer loss2/conv
I0106 23:17:20.395597 16704 net.cpp:84] Creating Layer loss2/conv
I0106 23:17:20.395604 16704 net.cpp:380] loss2/conv <- loss2/ave_pool
I0106 23:17:20.395613 16704 net.cpp:338] loss2/conv -> loss2/conv
I0106 23:17:20.395622 16704 net.cpp:113] Setting up loss2/conv
I0106 23:17:20.396806 16704 net.cpp:120] Top shape: 80 128 4 4 (163840)
I0106 23:17:20.396831 16704 layer_factory.hpp:74] Creating layer loss2/relu_conv
I0106 23:17:20.396841 16704 net.cpp:84] Creating Layer loss2/relu_conv
I0106 23:17:20.396847 16704 net.cpp:380] loss2/relu_conv <- loss2/conv
I0106 23:17:20.396853 16704 net.cpp:327] loss2/relu_conv -> loss2/conv (in-place)
I0106 23:17:20.396860 16704 net.cpp:113] Setting up loss2/relu_conv
I0106 23:17:20.396930 16704 net.cpp:120] Top shape: 80 128 4 4 (163840)
I0106 23:17:20.396936 16704 layer_factory.hpp:74] Creating layer loss2/fc
I0106 23:17:20.396947 16704 net.cpp:84] Creating Layer loss2/fc
I0106 23:17:20.396952 16704 net.cpp:380] loss2/fc <- loss2/conv
I0106 23:17:20.396960 16704 net.cpp:338] loss2/fc -> loss2/fc
I0106 23:17:20.396968 16704 net.cpp:113] Setting up loss2/fc
I0106 23:17:20.419479 16704 net.cpp:120] Top shape: 80 1024 (81920)
I0106 23:17:20.419492 16704 layer_factory.hpp:74] Creating layer loss2/relu_fc
I0106 23:17:20.419499 16704 net.cpp:84] Creating Layer loss2/relu_fc
I0106 23:17:20.419505 16704 net.cpp:380] loss2/relu_fc <- loss2/fc
I0106 23:17:20.419513 16704 net.cpp:327] loss2/relu_fc -> loss2/fc (in-place)
I0106 23:17:20.419522 16704 net.cpp:113] Setting up loss2/relu_fc
I0106 23:17:20.419772 16704 net.cpp:120] Top shape: 80 1024 (81920)
I0106 23:17:20.419785 16704 layer_factory.hpp:74] Creating layer loss2/drop_fc
I0106 23:17:20.419802 16704 net.cpp:84] Creating Layer loss2/drop_fc
I0106 23:17:20.419808 16704 net.cpp:380] loss2/drop_fc <- loss2/fc
I0106 23:17:20.419819 16704 net.cpp:327] loss2/drop_fc -> loss2/fc (in-place)
I0106 23:17:20.419827 16704 net.cpp:113] Setting up loss2/drop_fc
I0106 23:17:20.419836 16704 net.cpp:120] Top shape: 80 1024 (81920)
I0106 23:17:20.419847 16704 layer_factory.hpp:74] Creating layer loss2/classifier_kaggle
I0106 23:17:20.419854 16704 net.cpp:84] Creating Layer loss2/classifier_kaggle
I0106 23:17:20.419859 16704 net.cpp:380] loss2/classifier_kaggle <- loss2/fc
I0106 23:17:20.419868 16704 net.cpp:338] loss2/classifier_kaggle -> loss2/classifier_kaggle
I0106 23:17:20.419878 16704 net.cpp:113] Setting up loss2/classifier_kaggle
I0106 23:17:20.425127 16704 net.cpp:120] Top shape: 80 447 (35760)
I0106 23:17:20.425142 16704 layer_factory.hpp:74] Creating layer loss2/loss
I0106 23:17:20.425148 16704 net.cpp:84] Creating Layer loss2/loss
I0106 23:17:20.425154 16704 net.cpp:380] loss2/loss <- loss2/classifier_kaggle
I0106 23:17:20.425160 16704 net.cpp:380] loss2/loss <- label_data_1_split_1
I0106 23:17:20.425178 16704 net.cpp:338] loss2/loss -> loss2/loss1
I0106 23:17:20.425194 16704 net.cpp:113] Setting up loss2/loss
I0106 23:17:20.425199 16704 layer_factory.hpp:74] Creating layer loss2/loss
I0106 23:17:20.425364 16704 net.cpp:120] Top shape: (1)
I0106 23:17:20.425372 16704 net.cpp:122]     with loss weight 0.3
I0106 23:17:20.425381 16704 layer_factory.hpp:74] Creating layer inception_4e/1x1
I0106 23:17:20.425401 16704 net.cpp:84] Creating Layer inception_4e/1x1
I0106 23:17:20.425407 16704 net.cpp:380] inception_4e/1x1 <- inception_4d/output_inception_4d/output_0_split_1
I0106 23:17:20.425415 16704 net.cpp:338] inception_4e/1x1 -> inception_4e/1x1
I0106 23:17:20.425425 16704 net.cpp:113] Setting up inception_4e/1x1
I0106 23:17:20.427397 16704 net.cpp:120] Top shape: 80 256 14 14 (4014080)
I0106 23:17:20.427414 16704 layer_factory.hpp:74] Creating layer inception_4e/relu_1x1
I0106 23:17:20.427424 16704 net.cpp:84] Creating Layer inception_4e/relu_1x1
I0106 23:17:20.427430 16704 net.cpp:380] inception_4e/relu_1x1 <- inception_4e/1x1
I0106 23:17:20.427438 16704 net.cpp:327] inception_4e/relu_1x1 -> inception_4e/1x1 (in-place)
I0106 23:17:20.427445 16704 net.cpp:113] Setting up inception_4e/relu_1x1
I0106 23:17:20.427516 16704 net.cpp:120] Top shape: 80 256 14 14 (4014080)
I0106 23:17:20.427522 16704 layer_factory.hpp:74] Creating layer inception_4e/3x3_reduce
I0106 23:17:20.427546 16704 net.cpp:84] Creating Layer inception_4e/3x3_reduce
I0106 23:17:20.427552 16704 net.cpp:380] inception_4e/3x3_reduce <- inception_4d/output_inception_4d/output_0_split_2
I0106 23:17:20.427561 16704 net.cpp:338] inception_4e/3x3_reduce -> inception_4e/3x3_reduce
I0106 23:17:20.427570 16704 net.cpp:113] Setting up inception_4e/3x3_reduce
I0106 23:17:20.428948 16704 net.cpp:120] Top shape: 80 160 14 14 (2508800)
I0106 23:17:20.428964 16704 layer_factory.hpp:74] Creating layer inception_4e/relu_3x3_reduce
I0106 23:17:20.428972 16704 net.cpp:84] Creating Layer inception_4e/relu_3x3_reduce
I0106 23:17:20.428977 16704 net.cpp:380] inception_4e/relu_3x3_reduce <- inception_4e/3x3_reduce
I0106 23:17:20.428984 16704 net.cpp:327] inception_4e/relu_3x3_reduce -> inception_4e/3x3_reduce (in-place)
I0106 23:17:20.428992 16704 net.cpp:113] Setting up inception_4e/relu_3x3_reduce
I0106 23:17:20.429064 16704 net.cpp:120] Top shape: 80 160 14 14 (2508800)
I0106 23:17:20.429071 16704 layer_factory.hpp:74] Creating layer inception_4e/3x3
I0106 23:17:20.429080 16704 net.cpp:84] Creating Layer inception_4e/3x3
I0106 23:17:20.429086 16704 net.cpp:380] inception_4e/3x3 <- inception_4e/3x3_reduce
I0106 23:17:20.429093 16704 net.cpp:338] inception_4e/3x3 -> inception_4e/3x3
I0106 23:17:20.429101 16704 net.cpp:113] Setting up inception_4e/3x3
I0106 23:17:20.434818 16704 net.cpp:120] Top shape: 80 320 14 14 (5017600)
I0106 23:17:20.434835 16704 layer_factory.hpp:74] Creating layer inception_4e/relu_3x3
I0106 23:17:20.434854 16704 net.cpp:84] Creating Layer inception_4e/relu_3x3
I0106 23:17:20.434860 16704 net.cpp:380] inception_4e/relu_3x3 <- inception_4e/3x3
I0106 23:17:20.434869 16704 net.cpp:327] inception_4e/relu_3x3 -> inception_4e/3x3 (in-place)
I0106 23:17:20.434875 16704 net.cpp:113] Setting up inception_4e/relu_3x3
I0106 23:17:20.435120 16704 net.cpp:120] Top shape: 80 320 14 14 (5017600)
I0106 23:17:20.435132 16704 layer_factory.hpp:74] Creating layer inception_4e/5x5_reduce
I0106 23:17:20.435142 16704 net.cpp:84] Creating Layer inception_4e/5x5_reduce
I0106 23:17:20.435148 16704 net.cpp:380] inception_4e/5x5_reduce <- inception_4d/output_inception_4d/output_0_split_3
I0106 23:17:20.435155 16704 net.cpp:338] inception_4e/5x5_reduce -> inception_4e/5x5_reduce
I0106 23:17:20.435164 16704 net.cpp:113] Setting up inception_4e/5x5_reduce
I0106 23:17:20.435765 16704 net.cpp:120] Top shape: 80 32 14 14 (501760)
I0106 23:17:20.435781 16704 layer_factory.hpp:74] Creating layer inception_4e/relu_5x5_reduce
I0106 23:17:20.435798 16704 net.cpp:84] Creating Layer inception_4e/relu_5x5_reduce
I0106 23:17:20.435804 16704 net.cpp:380] inception_4e/relu_5x5_reduce <- inception_4e/5x5_reduce
I0106 23:17:20.435825 16704 net.cpp:327] inception_4e/relu_5x5_reduce -> inception_4e/5x5_reduce (in-place)
I0106 23:17:20.435834 16704 net.cpp:113] Setting up inception_4e/relu_5x5_reduce
I0106 23:17:20.435909 16704 net.cpp:120] Top shape: 80 32 14 14 (501760)
I0106 23:17:20.435915 16704 layer_factory.hpp:74] Creating layer inception_4e/5x5
I0106 23:17:20.435945 16704 net.cpp:84] Creating Layer inception_4e/5x5
I0106 23:17:20.435951 16704 net.cpp:380] inception_4e/5x5 <- inception_4e/5x5_reduce
I0106 23:17:20.435959 16704 net.cpp:338] inception_4e/5x5 -> inception_4e/5x5
I0106 23:17:20.435968 16704 net.cpp:113] Setting up inception_4e/5x5
I0106 23:17:20.437561 16704 net.cpp:120] Top shape: 80 128 14 14 (2007040)
I0106 23:17:20.437578 16704 layer_factory.hpp:74] Creating layer inception_4e/relu_5x5
I0106 23:17:20.437587 16704 net.cpp:84] Creating Layer inception_4e/relu_5x5
I0106 23:17:20.437593 16704 net.cpp:380] inception_4e/relu_5x5 <- inception_4e/5x5
I0106 23:17:20.437600 16704 net.cpp:327] inception_4e/relu_5x5 -> inception_4e/5x5 (in-place)
I0106 23:17:20.437608 16704 net.cpp:113] Setting up inception_4e/relu_5x5
I0106 23:17:20.437681 16704 net.cpp:120] Top shape: 80 128 14 14 (2007040)
I0106 23:17:20.437688 16704 layer_factory.hpp:74] Creating layer inception_4e/pool
I0106 23:17:20.437693 16704 layer_factory.cpp:56] CUDNN does not support padding or multiple tops. Using Caffe's own pooling layer.
I0106 23:17:20.437700 16704 net.cpp:84] Creating Layer inception_4e/pool
I0106 23:17:20.437705 16704 net.cpp:380] inception_4e/pool <- inception_4d/output_inception_4d/output_0_split_4
I0106 23:17:20.437714 16704 net.cpp:338] inception_4e/pool -> inception_4e/pool
I0106 23:17:20.437722 16704 net.cpp:113] Setting up inception_4e/pool
I0106 23:17:20.437731 16704 net.cpp:120] Top shape: 80 528 14 14 (8279040)
I0106 23:17:20.437736 16704 layer_factory.hpp:74] Creating layer inception_4e/pool_proj
I0106 23:17:20.437753 16704 net.cpp:84] Creating Layer inception_4e/pool_proj
I0106 23:17:20.437762 16704 net.cpp:380] inception_4e/pool_proj <- inception_4e/pool
I0106 23:17:20.437768 16704 net.cpp:338] inception_4e/pool_proj -> inception_4e/pool_proj
I0106 23:17:20.437777 16704 net.cpp:113] Setting up inception_4e/pool_proj
I0106 23:17:20.438961 16704 net.cpp:120] Top shape: 80 128 14 14 (2007040)
I0106 23:17:20.438977 16704 layer_factory.hpp:74] Creating layer inception_4e/relu_pool_proj
I0106 23:17:20.438992 16704 net.cpp:84] Creating Layer inception_4e/relu_pool_proj
I0106 23:17:20.438997 16704 net.cpp:380] inception_4e/relu_pool_proj <- inception_4e/pool_proj
I0106 23:17:20.439005 16704 net.cpp:327] inception_4e/relu_pool_proj -> inception_4e/pool_proj (in-place)
I0106 23:17:20.439013 16704 net.cpp:113] Setting up inception_4e/relu_pool_proj
I0106 23:17:20.439082 16704 net.cpp:120] Top shape: 80 128 14 14 (2007040)
I0106 23:17:20.439090 16704 layer_factory.hpp:74] Creating layer inception_4e/output
I0106 23:17:20.439095 16704 net.cpp:84] Creating Layer inception_4e/output
I0106 23:17:20.439101 16704 net.cpp:380] inception_4e/output <- inception_4e/1x1
I0106 23:17:20.439107 16704 net.cpp:380] inception_4e/output <- inception_4e/3x3
I0106 23:17:20.439112 16704 net.cpp:380] inception_4e/output <- inception_4e/5x5
I0106 23:17:20.439117 16704 net.cpp:380] inception_4e/output <- inception_4e/pool_proj
I0106 23:17:20.439126 16704 net.cpp:338] inception_4e/output -> inception_4e/output
I0106 23:17:20.439133 16704 net.cpp:113] Setting up inception_4e/output
I0106 23:17:20.439141 16704 net.cpp:120] Top shape: 80 832 14 14 (13045760)
I0106 23:17:20.439146 16704 layer_factory.hpp:74] Creating layer pool4/3x3_s2
I0106 23:17:20.439153 16704 net.cpp:84] Creating Layer pool4/3x3_s2
I0106 23:17:20.439158 16704 net.cpp:380] pool4/3x3_s2 <- inception_4e/output
I0106 23:17:20.439164 16704 net.cpp:338] pool4/3x3_s2 -> pool4/3x3_s2
I0106 23:17:20.439172 16704 net.cpp:113] Setting up pool4/3x3_s2
I0106 23:17:20.439419 16704 net.cpp:120] Top shape: 80 832 7 7 (3261440)
I0106 23:17:20.439435 16704 layer_factory.hpp:74] Creating layer pool4/3x3_s2_pool4/3x3_s2_0_split
I0106 23:17:20.439448 16704 net.cpp:84] Creating Layer pool4/3x3_s2_pool4/3x3_s2_0_split
I0106 23:17:20.439455 16704 net.cpp:380] pool4/3x3_s2_pool4/3x3_s2_0_split <- pool4/3x3_s2
I0106 23:17:20.439463 16704 net.cpp:338] pool4/3x3_s2_pool4/3x3_s2_0_split -> pool4/3x3_s2_pool4/3x3_s2_0_split_0
I0106 23:17:20.439472 16704 net.cpp:338] pool4/3x3_s2_pool4/3x3_s2_0_split -> pool4/3x3_s2_pool4/3x3_s2_0_split_1
I0106 23:17:20.439481 16704 net.cpp:338] pool4/3x3_s2_pool4/3x3_s2_0_split -> pool4/3x3_s2_pool4/3x3_s2_0_split_2
I0106 23:17:20.439487 16704 net.cpp:338] pool4/3x3_s2_pool4/3x3_s2_0_split -> pool4/3x3_s2_pool4/3x3_s2_0_split_3
I0106 23:17:20.439493 16704 net.cpp:113] Setting up pool4/3x3_s2_pool4/3x3_s2_0_split
I0106 23:17:20.439503 16704 net.cpp:120] Top shape: 80 832 7 7 (3261440)
I0106 23:17:20.439509 16704 net.cpp:120] Top shape: 80 832 7 7 (3261440)
I0106 23:17:20.439514 16704 net.cpp:120] Top shape: 80 832 7 7 (3261440)
I0106 23:17:20.439520 16704 net.cpp:120] Top shape: 80 832 7 7 (3261440)
I0106 23:17:20.439532 16704 layer_factory.hpp:74] Creating layer inception_5a/1x1
I0106 23:17:20.439543 16704 net.cpp:84] Creating Layer inception_5a/1x1
I0106 23:17:20.439548 16704 net.cpp:380] inception_5a/1x1 <- pool4/3x3_s2_pool4/3x3_s2_0_split_0
I0106 23:17:20.439558 16704 net.cpp:338] inception_5a/1x1 -> inception_5a/1x1
I0106 23:17:20.439565 16704 net.cpp:113] Setting up inception_5a/1x1
I0106 23:17:20.442427 16704 net.cpp:120] Top shape: 80 256 7 7 (1003520)
I0106 23:17:20.442445 16704 layer_factory.hpp:74] Creating layer inception_5a/relu_1x1
I0106 23:17:20.442452 16704 net.cpp:84] Creating Layer inception_5a/relu_1x1
I0106 23:17:20.442458 16704 net.cpp:380] inception_5a/relu_1x1 <- inception_5a/1x1
I0106 23:17:20.442466 16704 net.cpp:327] inception_5a/relu_1x1 -> inception_5a/1x1 (in-place)
I0106 23:17:20.442473 16704 net.cpp:113] Setting up inception_5a/relu_1x1
I0106 23:17:20.442545 16704 net.cpp:120] Top shape: 80 256 7 7 (1003520)
I0106 23:17:20.442551 16704 layer_factory.hpp:74] Creating layer inception_5a/3x3_reduce
I0106 23:17:20.442559 16704 net.cpp:84] Creating Layer inception_5a/3x3_reduce
I0106 23:17:20.442564 16704 net.cpp:380] inception_5a/3x3_reduce <- pool4/3x3_s2_pool4/3x3_s2_0_split_1
I0106 23:17:20.442574 16704 net.cpp:338] inception_5a/3x3_reduce -> inception_5a/3x3_reduce
I0106 23:17:20.442584 16704 net.cpp:113] Setting up inception_5a/3x3_reduce
I0106 23:17:20.444514 16704 net.cpp:120] Top shape: 80 160 7 7 (627200)
I0106 23:17:20.444531 16704 layer_factory.hpp:74] Creating layer inception_5a/relu_3x3_reduce
I0106 23:17:20.444550 16704 net.cpp:84] Creating Layer inception_5a/relu_3x3_reduce
I0106 23:17:20.444556 16704 net.cpp:380] inception_5a/relu_3x3_reduce <- inception_5a/3x3_reduce
I0106 23:17:20.444563 16704 net.cpp:327] inception_5a/relu_3x3_reduce -> inception_5a/3x3_reduce (in-place)
I0106 23:17:20.444571 16704 net.cpp:113] Setting up inception_5a/relu_3x3_reduce
I0106 23:17:20.444648 16704 net.cpp:120] Top shape: 80 160 7 7 (627200)
I0106 23:17:20.444655 16704 layer_factory.hpp:74] Creating layer inception_5a/3x3
I0106 23:17:20.444670 16704 net.cpp:84] Creating Layer inception_5a/3x3
I0106 23:17:20.444675 16704 net.cpp:380] inception_5a/3x3 <- inception_5a/3x3_reduce
I0106 23:17:20.444682 16704 net.cpp:338] inception_5a/3x3 -> inception_5a/3x3
I0106 23:17:20.444691 16704 net.cpp:113] Setting up inception_5a/3x3
I0106 23:17:20.450384 16704 net.cpp:120] Top shape: 80 320 7 7 (1254400)
I0106 23:17:20.450402 16704 layer_factory.hpp:74] Creating layer inception_5a/relu_3x3
I0106 23:17:20.450409 16704 net.cpp:84] Creating Layer inception_5a/relu_3x3
I0106 23:17:20.450415 16704 net.cpp:380] inception_5a/relu_3x3 <- inception_5a/3x3
I0106 23:17:20.450423 16704 net.cpp:327] inception_5a/relu_3x3 -> inception_5a/3x3 (in-place)
I0106 23:17:20.450430 16704 net.cpp:113] Setting up inception_5a/relu_3x3
I0106 23:17:20.450503 16704 net.cpp:120] Top shape: 80 320 7 7 (1254400)
I0106 23:17:20.450510 16704 layer_factory.hpp:74] Creating layer inception_5a/5x5_reduce
I0106 23:17:20.450541 16704 net.cpp:84] Creating Layer inception_5a/5x5_reduce
I0106 23:17:20.450548 16704 net.cpp:380] inception_5a/5x5_reduce <- pool4/3x3_s2_pool4/3x3_s2_0_split_2
I0106 23:17:20.450556 16704 net.cpp:338] inception_5a/5x5_reduce -> inception_5a/5x5_reduce
I0106 23:17:20.450566 16704 net.cpp:113] Setting up inception_5a/5x5_reduce
I0106 23:17:20.451285 16704 net.cpp:120] Top shape: 80 32 7 7 (125440)
I0106 23:17:20.451302 16704 layer_factory.hpp:74] Creating layer inception_5a/relu_5x5_reduce
I0106 23:17:20.451310 16704 net.cpp:84] Creating Layer inception_5a/relu_5x5_reduce
I0106 23:17:20.451316 16704 net.cpp:380] inception_5a/relu_5x5_reduce <- inception_5a/5x5_reduce
I0106 23:17:20.451323 16704 net.cpp:327] inception_5a/relu_5x5_reduce -> inception_5a/5x5_reduce (in-place)
I0106 23:17:20.451331 16704 net.cpp:113] Setting up inception_5a/relu_5x5_reduce
I0106 23:17:20.451572 16704 net.cpp:120] Top shape: 80 32 7 7 (125440)
I0106 23:17:20.451586 16704 layer_factory.hpp:74] Creating layer inception_5a/5x5
I0106 23:17:20.451593 16704 net.cpp:84] Creating Layer inception_5a/5x5
I0106 23:17:20.451599 16704 net.cpp:380] inception_5a/5x5 <- inception_5a/5x5_reduce
I0106 23:17:20.451608 16704 net.cpp:338] inception_5a/5x5 -> inception_5a/5x5
I0106 23:17:20.451619 16704 net.cpp:113] Setting up inception_5a/5x5
I0106 23:17:20.453230 16704 net.cpp:120] Top shape: 80 128 7 7 (501760)
I0106 23:17:20.453253 16704 layer_factory.hpp:74] Creating layer inception_5a/relu_5x5
I0106 23:17:20.453268 16704 net.cpp:84] Creating Layer inception_5a/relu_5x5
I0106 23:17:20.453274 16704 net.cpp:380] inception_5a/relu_5x5 <- inception_5a/5x5
I0106 23:17:20.453280 16704 net.cpp:327] inception_5a/relu_5x5 -> inception_5a/5x5 (in-place)
I0106 23:17:20.453289 16704 net.cpp:113] Setting up inception_5a/relu_5x5
I0106 23:17:20.453366 16704 net.cpp:120] Top shape: 80 128 7 7 (501760)
I0106 23:17:20.453372 16704 layer_factory.hpp:74] Creating layer inception_5a/pool
I0106 23:17:20.453378 16704 layer_factory.cpp:56] CUDNN does not support padding or multiple tops. Using Caffe's own pooling layer.
I0106 23:17:20.453387 16704 net.cpp:84] Creating Layer inception_5a/pool
I0106 23:17:20.453392 16704 net.cpp:380] inception_5a/pool <- pool4/3x3_s2_pool4/3x3_s2_0_split_3
I0106 23:17:20.453399 16704 net.cpp:338] inception_5a/pool -> inception_5a/pool
I0106 23:17:20.453408 16704 net.cpp:113] Setting up inception_5a/pool
I0106 23:17:20.453418 16704 net.cpp:120] Top shape: 80 832 7 7 (3261440)
I0106 23:17:20.453423 16704 layer_factory.hpp:74] Creating layer inception_5a/pool_proj
I0106 23:17:20.453430 16704 net.cpp:84] Creating Layer inception_5a/pool_proj
I0106 23:17:20.453435 16704 net.cpp:380] inception_5a/pool_proj <- inception_5a/pool
I0106 23:17:20.453445 16704 net.cpp:338] inception_5a/pool_proj -> inception_5a/pool_proj
I0106 23:17:20.453464 16704 net.cpp:113] Setting up inception_5a/pool_proj
I0106 23:17:20.455091 16704 net.cpp:120] Top shape: 80 128 7 7 (501760)
I0106 23:17:20.455107 16704 layer_factory.hpp:74] Creating layer inception_5a/relu_pool_proj
I0106 23:17:20.455116 16704 net.cpp:84] Creating Layer inception_5a/relu_pool_proj
I0106 23:17:20.455123 16704 net.cpp:380] inception_5a/relu_pool_proj <- inception_5a/pool_proj
I0106 23:17:20.455130 16704 net.cpp:327] inception_5a/relu_pool_proj -> inception_5a/pool_proj (in-place)
I0106 23:17:20.455138 16704 net.cpp:113] Setting up inception_5a/relu_pool_proj
I0106 23:17:20.455207 16704 net.cpp:120] Top shape: 80 128 7 7 (501760)
I0106 23:17:20.455214 16704 layer_factory.hpp:74] Creating layer inception_5a/output
I0106 23:17:20.455243 16704 net.cpp:84] Creating Layer inception_5a/output
I0106 23:17:20.455250 16704 net.cpp:380] inception_5a/output <- inception_5a/1x1
I0106 23:17:20.455256 16704 net.cpp:380] inception_5a/output <- inception_5a/3x3
I0106 23:17:20.455261 16704 net.cpp:380] inception_5a/output <- inception_5a/5x5
I0106 23:17:20.455267 16704 net.cpp:380] inception_5a/output <- inception_5a/pool_proj
I0106 23:17:20.455273 16704 net.cpp:338] inception_5a/output -> inception_5a/output
I0106 23:17:20.455298 16704 net.cpp:113] Setting up inception_5a/output
I0106 23:17:20.455307 16704 net.cpp:120] Top shape: 80 832 7 7 (3261440)
I0106 23:17:20.455312 16704 layer_factory.hpp:74] Creating layer inception_5a/output_inception_5a/output_0_split
I0106 23:17:20.455319 16704 net.cpp:84] Creating Layer inception_5a/output_inception_5a/output_0_split
I0106 23:17:20.455324 16704 net.cpp:380] inception_5a/output_inception_5a/output_0_split <- inception_5a/output
I0106 23:17:20.455332 16704 net.cpp:338] inception_5a/output_inception_5a/output_0_split -> inception_5a/output_inception_5a/output_0_split_0
I0106 23:17:20.455340 16704 net.cpp:338] inception_5a/output_inception_5a/output_0_split -> inception_5a/output_inception_5a/output_0_split_1
I0106 23:17:20.455348 16704 net.cpp:338] inception_5a/output_inception_5a/output_0_split -> inception_5a/output_inception_5a/output_0_split_2
I0106 23:17:20.455356 16704 net.cpp:338] inception_5a/output_inception_5a/output_0_split -> inception_5a/output_inception_5a/output_0_split_3
I0106 23:17:20.455363 16704 net.cpp:113] Setting up inception_5a/output_inception_5a/output_0_split
I0106 23:17:20.455370 16704 net.cpp:120] Top shape: 80 832 7 7 (3261440)
I0106 23:17:20.455376 16704 net.cpp:120] Top shape: 80 832 7 7 (3261440)
I0106 23:17:20.455381 16704 net.cpp:120] Top shape: 80 832 7 7 (3261440)
I0106 23:17:20.455386 16704 net.cpp:120] Top shape: 80 832 7 7 (3261440)
I0106 23:17:20.455391 16704 layer_factory.hpp:74] Creating layer inception_5b/1x1
I0106 23:17:20.455400 16704 net.cpp:84] Creating Layer inception_5b/1x1
I0106 23:17:20.455405 16704 net.cpp:380] inception_5b/1x1 <- inception_5a/output_inception_5a/output_0_split_0
I0106 23:17:20.455411 16704 net.cpp:338] inception_5b/1x1 -> inception_5b/1x1
I0106 23:17:20.455420 16704 net.cpp:113] Setting up inception_5b/1x1
I0106 23:17:20.459530 16704 net.cpp:120] Top shape: 80 384 7 7 (1505280)
I0106 23:17:20.459558 16704 layer_factory.hpp:74] Creating layer inception_5b/relu_1x1
I0106 23:17:20.459565 16704 net.cpp:84] Creating Layer inception_5b/relu_1x1
I0106 23:17:20.459573 16704 net.cpp:380] inception_5b/relu_1x1 <- inception_5b/1x1
I0106 23:17:20.459579 16704 net.cpp:327] inception_5b/relu_1x1 -> inception_5b/1x1 (in-place)
I0106 23:17:20.459588 16704 net.cpp:113] Setting up inception_5b/relu_1x1
I0106 23:17:20.459832 16704 net.cpp:120] Top shape: 80 384 7 7 (1505280)
I0106 23:17:20.459843 16704 layer_factory.hpp:74] Creating layer inception_5b/3x3_reduce
I0106 23:17:20.459863 16704 net.cpp:84] Creating Layer inception_5b/3x3_reduce
I0106 23:17:20.459870 16704 net.cpp:380] inception_5b/3x3_reduce <- inception_5a/output_inception_5a/output_0_split_1
I0106 23:17:20.459880 16704 net.cpp:338] inception_5b/3x3_reduce -> inception_5b/3x3_reduce
I0106 23:17:20.459890 16704 net.cpp:113] Setting up inception_5b/3x3_reduce
I0106 23:17:20.462141 16704 net.cpp:120] Top shape: 80 192 7 7 (752640)
I0106 23:17:20.462164 16704 layer_factory.hpp:74] Creating layer inception_5b/relu_3x3_reduce
I0106 23:17:20.462173 16704 net.cpp:84] Creating Layer inception_5b/relu_3x3_reduce
I0106 23:17:20.462180 16704 net.cpp:380] inception_5b/relu_3x3_reduce <- inception_5b/3x3_reduce
I0106 23:17:20.462189 16704 net.cpp:327] inception_5b/relu_3x3_reduce -> inception_5b/3x3_reduce (in-place)
I0106 23:17:20.462198 16704 net.cpp:113] Setting up inception_5b/relu_3x3_reduce
I0106 23:17:20.462277 16704 net.cpp:120] Top shape: 80 192 7 7 (752640)
I0106 23:17:20.462283 16704 layer_factory.hpp:74] Creating layer inception_5b/3x3
I0106 23:17:20.462291 16704 net.cpp:84] Creating Layer inception_5b/3x3
I0106 23:17:20.462296 16704 net.cpp:380] inception_5b/3x3 <- inception_5b/3x3_reduce
I0106 23:17:20.462306 16704 net.cpp:338] inception_5b/3x3 -> inception_5b/3x3
I0106 23:17:20.462330 16704 net.cpp:113] Setting up inception_5b/3x3
I0106 23:17:20.474625 16704 net.cpp:120] Top shape: 80 384 7 7 (1505280)
I0106 23:17:20.474648 16704 layer_factory.hpp:74] Creating layer inception_5b/relu_3x3
I0106 23:17:20.474656 16704 net.cpp:84] Creating Layer inception_5b/relu_3x3
I0106 23:17:20.474675 16704 net.cpp:380] inception_5b/relu_3x3 <- inception_5b/3x3
I0106 23:17:20.474684 16704 net.cpp:327] inception_5b/relu_3x3 -> inception_5b/3x3 (in-place)
I0106 23:17:20.474692 16704 net.cpp:113] Setting up inception_5b/relu_3x3
I0106 23:17:20.474768 16704 net.cpp:120] Top shape: 80 384 7 7 (1505280)
I0106 23:17:20.474776 16704 layer_factory.hpp:74] Creating layer inception_5b/5x5_reduce
I0106 23:17:20.474792 16704 net.cpp:84] Creating Layer inception_5b/5x5_reduce
I0106 23:17:20.474798 16704 net.cpp:380] inception_5b/5x5_reduce <- inception_5a/output_inception_5a/output_0_split_2
I0106 23:17:20.474810 16704 net.cpp:338] inception_5b/5x5_reduce -> inception_5b/5x5_reduce
I0106 23:17:20.474820 16704 net.cpp:113] Setting up inception_5b/5x5_reduce
I0106 23:17:20.475703 16704 net.cpp:120] Top shape: 80 48 7 7 (188160)
I0106 23:17:20.475720 16704 layer_factory.hpp:74] Creating layer inception_5b/relu_5x5_reduce
I0106 23:17:20.475729 16704 net.cpp:84] Creating Layer inception_5b/relu_5x5_reduce
I0106 23:17:20.475736 16704 net.cpp:380] inception_5b/relu_5x5_reduce <- inception_5b/5x5_reduce
I0106 23:17:20.475744 16704 net.cpp:327] inception_5b/relu_5x5_reduce -> inception_5b/5x5_reduce (in-place)
I0106 23:17:20.475751 16704 net.cpp:113] Setting up inception_5b/relu_5x5_reduce
I0106 23:17:20.475824 16704 net.cpp:120] Top shape: 80 48 7 7 (188160)
I0106 23:17:20.475833 16704 layer_factory.hpp:74] Creating layer inception_5b/5x5
I0106 23:17:20.475841 16704 net.cpp:84] Creating Layer inception_5b/5x5
I0106 23:17:20.475847 16704 net.cpp:380] inception_5b/5x5 <- inception_5b/5x5_reduce
I0106 23:17:20.475855 16704 net.cpp:338] inception_5b/5x5 -> inception_5b/5x5
I0106 23:17:20.475864 16704 net.cpp:113] Setting up inception_5b/5x5
I0106 23:17:20.478041 16704 net.cpp:120] Top shape: 80 128 7 7 (501760)
I0106 23:17:20.478059 16704 layer_factory.hpp:74] Creating layer inception_5b/relu_5x5
I0106 23:17:20.478077 16704 net.cpp:84] Creating Layer inception_5b/relu_5x5
I0106 23:17:20.478085 16704 net.cpp:380] inception_5b/relu_5x5 <- inception_5b/5x5
I0106 23:17:20.478094 16704 net.cpp:327] inception_5b/relu_5x5 -> inception_5b/5x5 (in-place)
I0106 23:17:20.478103 16704 net.cpp:113] Setting up inception_5b/relu_5x5
I0106 23:17:20.478353 16704 net.cpp:120] Top shape: 80 128 7 7 (501760)
I0106 23:17:20.478364 16704 layer_factory.hpp:74] Creating layer inception_5b/pool
I0106 23:17:20.478369 16704 layer_factory.cpp:56] CUDNN does not support padding or multiple tops. Using Caffe's own pooling layer.
I0106 23:17:20.478379 16704 net.cpp:84] Creating Layer inception_5b/pool
I0106 23:17:20.478384 16704 net.cpp:380] inception_5b/pool <- inception_5a/output_inception_5a/output_0_split_3
I0106 23:17:20.478391 16704 net.cpp:338] inception_5b/pool -> inception_5b/pool
I0106 23:17:20.478400 16704 net.cpp:113] Setting up inception_5b/pool
I0106 23:17:20.478410 16704 net.cpp:120] Top shape: 80 832 7 7 (3261440)
I0106 23:17:20.478415 16704 layer_factory.hpp:74] Creating layer inception_5b/pool_proj
I0106 23:17:20.478425 16704 net.cpp:84] Creating Layer inception_5b/pool_proj
I0106 23:17:20.478430 16704 net.cpp:380] inception_5b/pool_proj <- inception_5b/pool
I0106 23:17:20.478437 16704 net.cpp:338] inception_5b/pool_proj -> inception_5b/pool_proj
I0106 23:17:20.478446 16704 net.cpp:113] Setting up inception_5b/pool_proj
I0106 23:17:20.480077 16704 net.cpp:120] Top shape: 80 128 7 7 (501760)
I0106 23:17:20.480093 16704 layer_factory.hpp:74] Creating layer inception_5b/relu_pool_proj
I0106 23:17:20.480108 16704 net.cpp:84] Creating Layer inception_5b/relu_pool_proj
I0106 23:17:20.480118 16704 net.cpp:380] inception_5b/relu_pool_proj <- inception_5b/pool_proj
I0106 23:17:20.480124 16704 net.cpp:327] inception_5b/relu_pool_proj -> inception_5b/pool_proj (in-place)
I0106 23:17:20.480132 16704 net.cpp:113] Setting up inception_5b/relu_pool_proj
I0106 23:17:20.480211 16704 net.cpp:120] Top shape: 80 128 7 7 (501760)
I0106 23:17:20.480218 16704 layer_factory.hpp:74] Creating layer inception_5b/output
I0106 23:17:20.480231 16704 net.cpp:84] Creating Layer inception_5b/output
I0106 23:17:20.480243 16704 net.cpp:380] inception_5b/output <- inception_5b/1x1
I0106 23:17:20.480249 16704 net.cpp:380] inception_5b/output <- inception_5b/3x3
I0106 23:17:20.480255 16704 net.cpp:380] inception_5b/output <- inception_5b/5x5
I0106 23:17:20.480260 16704 net.cpp:380] inception_5b/output <- inception_5b/pool_proj
I0106 23:17:20.480268 16704 net.cpp:338] inception_5b/output -> inception_5b/output
I0106 23:17:20.480275 16704 net.cpp:113] Setting up inception_5b/output
I0106 23:17:20.480283 16704 net.cpp:120] Top shape: 80 1024 7 7 (4014080)
I0106 23:17:20.480288 16704 layer_factory.hpp:74] Creating layer pool5/7x7_s1
I0106 23:17:20.480298 16704 net.cpp:84] Creating Layer pool5/7x7_s1
I0106 23:17:20.480303 16704 net.cpp:380] pool5/7x7_s1 <- inception_5b/output
I0106 23:17:20.480309 16704 net.cpp:338] pool5/7x7_s1 -> pool5/7x7_s1
I0106 23:17:20.480316 16704 net.cpp:113] Setting up pool5/7x7_s1
I0106 23:17:20.480391 16704 net.cpp:120] Top shape: 80 1024 1 1 (81920)
I0106 23:17:20.480397 16704 layer_factory.hpp:74] Creating layer pool5/drop_7x7_s1
I0106 23:17:20.480406 16704 net.cpp:84] Creating Layer pool5/drop_7x7_s1
I0106 23:17:20.480411 16704 net.cpp:380] pool5/drop_7x7_s1 <- pool5/7x7_s1
I0106 23:17:20.480417 16704 net.cpp:327] pool5/drop_7x7_s1 -> pool5/7x7_s1 (in-place)
I0106 23:17:20.480424 16704 net.cpp:113] Setting up pool5/drop_7x7_s1
I0106 23:17:20.480432 16704 net.cpp:120] Top shape: 80 1024 1 1 (81920)
I0106 23:17:20.480437 16704 layer_factory.hpp:74] Creating layer loss3/classifier_kaggle
I0106 23:17:20.480458 16704 net.cpp:84] Creating Layer loss3/classifier_kaggle
I0106 23:17:20.480463 16704 net.cpp:380] loss3/classifier_kaggle <- pool5/7x7_s1
I0106 23:17:20.480470 16704 net.cpp:338] loss3/classifier_kaggle -> loss3/classifier_kaggle
I0106 23:17:20.480479 16704 net.cpp:113] Setting up loss3/classifier_kaggle
I0106 23:17:20.485739 16704 net.cpp:120] Top shape: 80 447 (35760)
I0106 23:17:20.485754 16704 layer_factory.hpp:74] Creating layer loss3/loss3
I0106 23:17:20.485761 16704 net.cpp:84] Creating Layer loss3/loss3
I0106 23:17:20.485766 16704 net.cpp:380] loss3/loss3 <- loss3/classifier_kaggle
I0106 23:17:20.485774 16704 net.cpp:380] loss3/loss3 <- label_data_1_split_2
I0106 23:17:20.485780 16704 net.cpp:338] loss3/loss3 -> loss3/loss3
I0106 23:17:20.485787 16704 net.cpp:113] Setting up loss3/loss3
…
I0106 23:17:20.491186 16704 net.cpp:257] The NetState phase (1) differed from the phase (0) specified by a rule in layer data
I0106 23:17:20.492661 16704 net.cpp:42] Initializing net from parameters: 
name: "MYNET"
state {
  phase: TEST
}
layer {
  name: "data"
  type: "ImageData"
  top: "data"
  top: "label"
  include {
    phase: TEST
  }
  transform_param {
    mirror: false
    crop_size: 224
    mean_value: 129
    mean_value: 129
    mean_value: 129
  }
  image_data_param {
    source: "/home/coldmanck/kaggle/label_val_full_resize_rotated.txt"
    batch_size: 50
    shuffle: true
  }
}
layer {
  name: "conv1/7x7_s2"
  type: "Convolution"
  bottom: "data"
  top: "conv1/7x7_s2"
  param {
    lr_mult: 1
    decay_mult: 1
  }
  param {
    lr_mult: 2
    decay_mult: 0
  }
  convolution_param {
    num_output: 64
    pad: 3
    kernel_size: 7
    stride: 2
    weight_filler {
      type: "xavier"
    }
    bias_filler {
      type: "constant"
      value: 0.2
    }
  }
}
layer {
  name: "conv1/relu_7x7"
  type: "ReLU"
  bottom: "conv1/7x7_s2"
  top: "conv1/7x7_s2"
}
layer {
  name: "pool1/3x3_s2"
  type: "Pooling"
  bottom: "conv1/7x7_s2"
  top: "pool1/3x3_s2"
  pooling_param {
    pool: MAX
    kernel_size: 3
    stride: 2
  }
}
layer {
  name: "pool1/norm1"
  type: "LRN"
  bottom: "pool1/3x3_s2"
  top: "pool1/norm1"
  lrn_param {
    local_size: 5
    alpha: 0.0001
    beta: 0.75
  }
}
layer {
  name: "conv2/3x3_reduce"
  type: "Convolution"
  bottom: "pool1/norm1"
  top: "conv2/3x3_reduce"
  param {
    lr_mult: 1
    decay_mult: 1
  }
  param {
    lr_mult: 2
    decay_mult: 0
  }
  convolution_param {
    num_output: 64
    kernel_size: 1
    weight_filler {
      type: "xavier"
    }
    bias_filler {
      type: "constant"
      value: 0.2
    }
  }
}
layer {
  name: "conv2/relu_3x3_reduce"
  type: "ReLU"
  bottom: "conv2/3x3_reduce"
  top: "conv2/3x3_reduce"
}
layer {
  name: "conv2/3x3"
  type: "Convolution"
  bottom: "conv2/3x3_reduce"
  top: "conv2/3x3"
  param {
    lr_mult: 1
    decay_mult: 1
  }
  param {
    lr_mult: 2
    decay_mult: 0
  }
  convolution_param {
    num_output: 192
    pad: 1
    kernel_size: 3
    weight_filler {
      type: "xavier"
    }
    bias_filler {
      type: "constant"
      value: 0.2
    }
  }
}
layer {
  name: "conv2/relu_3x3"
  type: "ReLU"
  bottom: "conv2/3x3"
  top: "conv2/3x3"
}
layer {
  name: "conv2/norm2"
  type: "LRN"
  bottom: "conv2/3x3"
  top: "conv2/norm2"
  lrn_param {
    local_size: 5
    alpha: 0.0001
    beta: 0.75
  }
}
layer {
  name: "pool2/3x3_s2"
  type: "Pooling"
  bottom: "conv2/norm2"
  top: "pool2/3x3_s2"
  pooling_param {
    pool: MAX
    kernel_size: 3
    stride: 2
  }
}
layer {
  name: "inception_3a/1x1"
  type: "Convolution"
  bottom: "pool2/3x3_s2"
  top: "inception_3a/1x1"
  param {
    lr_mult: 1
    decay_mult: 1
  }
  param {
    lr_mult: 2
    decay_mult: 0
  }
  convolution_param {
    num_output: 64
    kernel_size: 1
    weight_filler {
      type: "xavier"
    }
    bias_filler {
      type: "constant"
      value: 0.2
    }
  }
}
layer {
  name: "inception_3a/relu_1x1"
  type: "ReLU"
  bottom: "inception_3a/1x1"
  top: "inception_3a/1x1"
}
layer {
  name: "inception_3a/3x3_reduce"
  type: "Convolution"
  bottom: "pool2/3x3_s2"
  top: "inception_3a/3x3_reduce"
  param {
    lr_mult: 1
    decay_mult: 1
  }
  param {
    lr_mult: 2
    decay_mult: 0
  }
  convolution_param {
    num_output: 96
    kernel_size: 1
    weight_filler {
      type: "xavier"
    }
    bias_filler {
      type: "constant"
      value: 0.2
    }
  }
}
layer {
  name: "inception_3a/relu_3x3_reduce"
  type: "ReLU"
  bottom: "inception_3a/3x3_reduce"
  top: "inception_3a/3x3_reduce"
}
layer {
  name: "inception_3a/3x3"
  type: "Convolution"
  bottom: "inception_3a/3x3_reduce"
  top: "inception_3a/3x3"
  param {
    lr_mult: 1
    decay_mult: 1
  }
  param {
    lr_mult: 2
    decay_mult: 0
  }
  convolution_param {
    num_output: 128
    pad: 1
    kernel_size: 3
    weight_filler {
      type: "xavier"
    }
    bias_filler {
      type: "constant"
      value: 0.2
    }
  }
}
layer {
  name: "inception_3a/relu_3x3"
  type: "ReLU"
  bottom: "inception_3a/3x3"
  top: "inception_3a/3x3"
}
layer {
  name: "inception_3a/5x5_reduce"
  type: "Convolution"
  bottom: "pool2/3x3_s2"
  top: "inception_3a/5x5_reduce"
  param {
    lr_mult: 1
    decay_mult: 1
  }
  param {
    lr_mult: 2
    decay_mult: 0
  }
  convolution_param {
    num_output: 16
    kernel_size: 1
    weight_filler {
      type: "xavier"
    }
    bias_filler {
      type: "constant"
      value: 0.2
    }
  }
}
layer {
  name: "inception_3a/relu_5x5_reduce"
  type: "ReLU"
  bottom: "inception_3a/5x5_reduce"
  top: "inception_3a/5x5_reduce"
}
layer {
  name: "inception_3a/5x5"
  type: "Convolution"
  bottom: "inception_3a/5x5_reduce"
  top: "inception_3a/5x5"
  param {
    lr_mult: 1
    decay_mult: 1
  }
  param {
    lr_mult: 2
    decay_mult: 0
  }
  convolution_param {
    num_output: 32
    pad: 2
    kernel_size: 5
    weight_filler {
      type: "xavier"
    }
    bias_filler {
      type: "constant"
      value: 0.2
    }
  }
}
layer {
  name: "inception_3a/relu_5x5"
  type: "ReLU"
  bottom: "inception_3a/5x5"
  top: "inception_3a/5x5"
}
layer {
  name: "inception_3a/pool"
  type: "Pooling"
  bottom: "pool2/3x3_s2"
  top: "inception_3a/pool"
  pooling_param {
    pool: MAX
    kernel_size: 3
    stride: 1
    pad: 1
  }
}
layer {
  name: "inception_3a/pool_proj"
  type: "Convolution"
  bottom: "inception_3a/pool"
  top: "inception_3a/pool_proj"
  param {
    lr_mult: 1
    decay_mult: 1
  }
  param {
    lr_mult: 2
    decay_mult: 0
  }
  convolution_param {
    num_output: 32
    kernel_size: 1
    weight_filler {
      type: "xavier"
    }
    bias_filler {
      type: "constant"
      value: 0.2
    }
  }
}
layer {
  name: "inception_3a/relu_pool_proj"
  type: "ReLU"
  bottom: "inception_3a/pool_proj"
  top: "inception_3a/pool_proj"
}
layer {
  name: "inception_3a/output"
  type: "Concat"
  bottom: "inception_3a/1x1"
  bottom: "inception_3a/3x3"
  bottom: "inception_3a/5x5"
  bottom: "inception_3a/pool_proj"
  top: "inception_3a/output"
}
layer {
  name: "inception_3b/1x1"
  type: "Convolution"
  bottom: "inception_3a/output"
  top: "inception_3b/1x1"
  param {
    lr_mult: 1
    decay_mult: 1
  }
  param {
    lr_mult: 2
    decay_mult: 0
  }
  convolution_param {
    num_output: 128
    kernel_size: 1
    weight_filler {
      type: "xavier"
    }
    bias_filler {
      type: "constant"
      value: 0.2
    }
  }
}
layer {
  name: "inception_3b/relu_1x1"
  type: "ReLU"
  bottom: "inception_3b/1x1"
  top: "inception_3b/1x1"
}
layer {
  name: "inception_3b/3x3_reduce"
  type: "Convolution"
  bottom: "inception_3a/output"
  top: "inception_3b/3x3_reduce"
  param {
    lr_mult: 1
    decay_mult: 1
  }
  param {
    lr_mult: 2
    decay_mult: 0
  }
  convolution_param {
    num_output: 128
    kernel_size: 1
    weight_filler {
      type: "xavier"
    }
    bias_filler {
      type: "constant"
      value: 0.2
    }
  }
}
layer {
  name: "inception_3b/relu_3x3_reduce"
  type: "ReLU"
  bottom: "inception_3b/3x3_reduce"
  top: "inception_3b/3x3_reduce"
}
layer {
  name: "inception_3b/3x3"
  type: "Convolution"
  bottom: "inception_3b/3x3_reduce"
  top: "inception_3b/3x3"
  param {
    lr_mult: 1
    decay_mult: 1
  }
  param {
    lr_mult: 2
    decay_mult: 0
  }
  convolution_param {
    num_output: 192
    pad: 1
    kernel_size: 3
    weight_filler {
      type: "xavier"
    }
    bias_filler {
      type: "constant"
      value: 0.2
    }
  }
}
layer {
  name: "inception_3b/relu_3x3"
  type: "ReLU"
  bottom: "inception_3b/3x3"
  top: "inception_3b/3x3"
}
layer {
  name: "inception_3b/5x5_reduce"
  type: "Convolution"
  bottom: "inception_3a/output"
  top: "inception_3b/5x5_reduce"
  param {
    lr_mult: 1
    decay_mult: 1
  }
  param {
    lr_mult: 2
    decay_mult: 0
  }
  convolution_param {
    num_output: 32
    kernel_size: 1
    weight_filler {
      type: "xavier"
    }
    bias_filler {
      type: "constant"
      value: 0.2
    }
  }
}
layer {
  name: "inception_3b/relu_5x5_reduce"
  type: "ReLU"
  bottom: "inception_3b/5x5_reduce"
  top: "inception_3b/5x5_reduce"
}
layer {
  name: "inception_3b/5x5"
  type: "Convolution"
  bottom: "inception_3b/5x5_reduce"
  top: "inception_3b/5x5"
  param {
    lr_mult: 1
    decay_mult: 1
  }
  param {
    lr_mult: 2
    decay_mult: 0
  }
  convolution_param {
    num_output: 96
    pad: 2
    kernel_size: 5
    weight_filler {
      type: "xavier"
    }
    bias_filler {
      type: "constant"
      value: 0.2
    }
  }
}
layer {
  name: "inception_3b/relu_5x5"
  type: "ReLU"
  bottom: "inception_3b/5x5"
  top: "inception_3b/5x5"
}
layer {
  name: "inception_3b/pool"
  type: "Pooling"
  bottom: "inception_3a/output"
  top: "inception_3b/pool"
  pooling_param {
    pool: MAX
    kernel_size: 3
    stride: 1
    pad: 1
  }
}
layer {
  name: "inception_3b/pool_proj"
  type: "Convolution"
  bottom: "inception_3b/pool"
  top: "inception_3b/pool_proj"
  param {
    lr_mult: 1
    decay_mult: 1
  }
  param {
    lr_mult: 2
    decay_mult: 0
  }
  convolution_param {
    num_output: 64
    kernel_size: 1
    weight_filler {
      type: "xavier"
    }
    bias_filler {
      type: "constant"
      value: 0.2
    }
  }
}
layer {
  name: "inception_3b/relu_pool_proj"
  type: "ReLU"
  bottom: "inception_3b/pool_proj"
  top: "inception_3b/pool_proj"
}
layer {
  name: "inception_3b/output"
  type: "Concat"
  bottom: "inception_3b/1x1"
  bottom: "inception_3b/3x3"
  bottom: "inception_3b/5x5"
  bottom: "inception_3b/pool_proj"
  top: "inception_3b/output"
}
layer {
  name: "pool3/3x3_s2"
  type: "Pooling"
  bottom: "inception_3b/output"
  top: "pool3/3x3_s2"
  pooling_param {
    pool: MAX
    kernel_size: 3
    stride: 2
  }
}
layer {
  name: "inception_4a/1x1"
  type: "Convolution"
  bottom: "pool3/3x3_s2"
  top: "inception_4a/1x1"
  param {
    lr_mult: 1
    decay_mult: 1
  }
  param {
    lr_mult: 2
    decay_mult: 0
  }
  convolution_param {
    num_output: 192
    kernel_size: 1
    weight_filler {
      type: "xavier"
    }
    bias_filler {
      type: "constant"
      value: 0.2
    }
  }
}
layer {
  name: "inception_4a/relu_1x1"
  type: "ReLU"
  bottom: "inception_4a/1x1"
  top: "inception_4a/1x1"
}
layer {
  name: "inception_4a/3x3_reduce"
  type: "Convolution"
  bottom: "pool3/3x3_s2"
  top: "inception_4a/3x3_reduce"
  param {
    lr_mult: 1
    decay_mult: 1
  }
  param {
    lr_mult: 2
    decay_mult: 0
  }
  convolution_param {
    num_output: 96
    kernel_size: 1
    weight_filler {
      type: "xavier"
    }
    bias_filler {
      type: "constant"
      value: 0.2
    }
  }
}
layer {
  name: "inception_4a/relu_3x3_reduce"
  type: "ReLU"
  bottom: "inception_4a/3x3_reduce"
  top: "inception_4a/3x3_reduce"
}
layer {
  name: "inception_4a/3x3"
  type: "Convolution"
  bottom: "inception_4a/3x3_reduce"
  top: "inception_4a/3x3"
  param {
    lr_mult: 1
    decay_mult: 1
  }
  param {
    lr_mult: 2
    decay_mult: 0
  }
  convolution_param {
    num_output: 208
    pad: 1
    kernel_size: 3
    weight_filler {
      type: "xavier"
    }
    bias_filler {
      type: "constant"
      value: 0.2
    }
  }
}
layer {
  name: "inception_4a/relu_3x3"
  type: "ReLU"
  bottom: "inception_4a/3x3"
  top: "inception_4a/3x3"
}
layer {
  name: "inception_4a/5x5_reduce"
  type: "Convolution"
  bottom: "pool3/3x3_s2"
  top: "inception_4a/5x5_reduce"
  param {
    lr_mult: 1
    decay_mult: 1
  }
  param {
    lr_mult: 2
    decay_mult: 0
  }
  convolution_param {
    num_output: 16
    kernel_size: 1
    weight_filler {
      type: "xavier"
    }
    bias_filler {
      type: "constant"
      value: 0.2
    }
  }
}
layer {
  name: "inception_4a/relu_5x5_reduce"
  type: "ReLU"
  bottom: "inception_4a/5x5_reduce"
  top: "inception_4a/5x5_reduce"
}
layer {
  name: "inception_4a/5x5"
  type: "Convolution"
  bottom: "inception_4a/5x5_reduce"
  top: "inception_4a/5x5"
  param {
    lr_mult: 1
    decay_mult: 1
  }
  param {
    lr_mult: 2
    decay_mult: 0
  }
  convolution_param {
    num_output: 48
    pad: 2
    kernel_size: 5
    weight_filler {
      type: "xavier"
    }
    bias_filler {
      type: "constant"
      value: 0.2
    }
  }
}
layer {
  name: "inception_4a/relu_5x5"
  type: "ReLU"
  bottom: "inception_4a/5x5"
  top: "inception_4a/5x5"
}
layer {
  name: "inception_4a/pool"
  type: "Pooling"
  bottom: "pool3/3x3_s2"
  top: "inception_4a/pool"
  pooling_param {
    pool: MAX
    kernel_size: 3
    stride: 1
    pad: 1
  }
}
layer {
  name: "inception_4a/pool_proj"
  type: "Convolution"
  bottom: "inception_4a/pool"
  top: "inception_4a/pool_proj"
  param {
    lr_mult: 1
    decay_mult: 1
  }
  param {
    lr_mult: 2
    decay_mult: 0
  }
  convolution_param {
    num_output: 64
    kernel_size: 1
    weight_filler {
      type: "xavier"
    }
    bias_filler {
      type: "constant"
      value: 0.2
    }
  }
}
layer {
  name: "inception_4a/relu_pool_proj"
  type: "ReLU"
  bottom: "inception_4a/pool_proj"
  top: "inception_4a/pool_proj"
}
layer {
  name: "inception_4a/output"
  type: "Concat"
  bottom: "inception_4a/1x1"
  bottom: "inception_4a/3x3"
  bottom: "inception_4a/5x5"
  bottom: "inception_4a/pool_proj"
  top: "inception_4a/output"
}
layer {
  name: "loss1/ave_pool"
  type: "Pooling"
  bottom: "inception_4a/output"
  top: "loss1/ave_pool"
  pooling_param {
    pool: AVE
    kernel_size: 5
    stride: 3
  }
}
layer {
  name: "loss1/conv"
  type: "Convolution"
  bottom: "loss1/ave_pool"
  top: "loss1/conv"
  param {
    lr_mult: 1
    decay_mult: 1
  }
  param {
    lr_mult: 2
    decay_mult: 0
  }
  convolution_param {
    num_output: 128
    kernel_size: 1
    weight_filler {
      type: "xavier"
    }
    bias_filler {
      type: "constant"
      value: 0.2
    }
  }
}
layer {
  name: "loss1/relu_conv"
  type: "ReLU"
  bottom: "loss1/conv"
  top: "loss1/conv"
}
layer {
  name: "loss1/fc"
  type: "InnerProduct"
  bottom: "loss1/conv"
  top: "loss1/fc"
  param {
    lr_mult: 1
    decay_mult: 1
  }
  param {
    lr_mult: 2
    decay_mult: 0
  }
  inner_product_param {
    num_output: 1024
    weight_filler {
      type: "xavier"
    }
    bias_filler {
      type: "constant"
      value: 0.2
    }
  }
}
layer {
  name: "loss1/relu_fc"
  type: "ReLU"
  bottom: "loss1/fc"
  top: "loss1/fc"
}
layer {
  name: "loss1/drop_fc"
  type: "Dropout"
  bottom: "loss1/fc"
  top: "loss1/fc"
  dropout_param {
    dropout_ratio: 0.7
  }
}
layer {
  name: "loss1/classifier_kaggle"
  type: "InnerProduct"
  bottom: "loss1/fc"
  top: "loss1/classifier_kaggle"
  param {
    lr_mult: 1
    decay_mult: 1
  }
  param {
    lr_mult: 2
    decay_mult: 0
  }
  inner_product_param {
    num_output: 447
    weight_filler {
      type: "xavier"
    }
    bias_filler {
      type: "constant"
      value: 0
    }
  }
}
layer {
  name: "loss1/loss"
  type: "SoftmaxWithLoss"
  bottom: "loss1/classifier_kaggle"
  bottom: "label"
  top: "loss1/loss1"
  loss_weight: 0.3
}
layer {
  name: "loss1/top-1"
  type: "Accuracy"
  bottom: "loss1/classifier_kaggle"
  bottom: "label"
  top: "loss1/top-1"
  include {
    phase: TEST
  }
}
layer {
  name: "loss1/top-5"
  type: "Accuracy"
  bottom: "loss1/classifier_kaggle"
  bottom: "label"
  top: "loss1/top-5"
  include {
    phase: TEST
  }
  accuracy_param {
    top_k: 5
  }
}
layer {
  name: "inception_4b/1x1"
  type: "Convolution"
  bottom: "inception_4a/output"
  top: "inception_4b/1x1"
  param {
    lr_mult: 1
    decay_mult: 1
  }
  param {
    lr_mult: 2
    decay_mult: 0
  }
  convolution_param {
    num_output: 160
    kernel_size: 1
    weight_filler {
      type: "xavier"
    }
    bias_filler {
      type: "constant"
      value: 0.2
    }
  }
}
layer {
  name: "inception_4b/relu_1x1"
  type: "ReLU"
  bottom: "inception_4b/1x1"
  top: "inception_4b/1x1"
}
layer {
  name: "inception_4b/3x3_reduce"
  type: "Convolution"
  bottom: "inception_4a/output"
  top: "inception_4b/3x3_reduce"
  param {
    lr_mult: 1
    decay_mult: 1
  }
  param {
    lr_mult: 2
    decay_mult: 0
  }
  convolution_param {
    num_output: 112
    kernel_size: 1
    weight_filler {
      type: "xavier"
    }
    bias_filler {
      type: "constant"
      value: 0.2
    }
  }
}
layer {
  name: "inception_4b/relu_3x3_reduce"
  type: "ReLU"
  bottom: "inception_4b/3x3_reduce"
  top: "inception_4b/3x3_reduce"
}
layer {
  name: "inception_4b/3x3"
  type: "Convolution"
  bottom: "inception_4b/3x3_reduce"
  top: "inception_4b/3x3"
  param {
    lr_mult: 1
    decay_mult: 1
  }
  param {
    lr_mult: 2
    decay_mult: 0
  }
  convolution_param {
    num_output: 224
    pad: 1
    kernel_size: 3
    weight_filler {
      type: "xavier"
    }
    bias_filler {
      type: "constant"
      value: 0.2
    }
  }
}
layer {
  name: "inception_4b/relu_3x3"
  type: "ReLU"
  bottom: "inception_4b/3x3"
  top: "inception_4b/3x3"
}
layer {
  name: "inception_4b/5x5_reduce"
  type: "Convolution"
  bottom: "inception_4a/output"
  top: "inception_4b/5x5_reduce"
  param {
    lr_mult: 1
    decay_mult: 1
  }
  param {
    lr_mult: 2
    decay_mult: 0
  }
  convolution_param {
    num_output: 24
    kernel_size: 1
    weight_filler {
      type: "xavier"
    }
    bias_filler {
      type: "constant"
      value: 0.2
    }
  }
}
layer {
  name: "inception_4b/relu_5x5_reduce"
  type: "ReLU"
  bottom: "inception_4b/5x5_reduce"
  top: "inception_4b/5x5_reduce"
}
layer {
  name: "inception_4b/5x5"
  type: "Convolution"
  bottom: "inception_4b/5x5_reduce"
  top: "inception_4b/5x5"
  param {
    lr_mult: 1
    decay_mult: 1
  }
  param {
    lr_mult: 2
    decay_mult: 0
  }
  convolution_param {
    num_output: 64
    pad: 2
    kernel_size: 5
    weight_filler {
      type: "xavier"
    }
    bias_filler {
      type: "constant"
      value: 0.2
    }
  }
}
layer {
  name: "inception_4b/relu_5x5"
  type: "ReLU"
  bottom: "inception_4b/5x5"
  top: "inception_4b/5x5"
}
layer {
  name: "inception_4b/pool"
  type: "Pooling"
  bottom: "inception_4a/output"
  top: "inception_4b/pool"
  pooling_param {
    pool: MAX
    kernel_size: 3
    stride: 1
    pad: 1
  }
}
layer {
  name: "inception_4b/pool_proj"
  type: "Convolution"
  bottom: "inception_4b/pool"
  top: "inception_4b/pool_proj"
  param {
    lr_mult: 1
    decay_mult: 1
  }
  param {
    lr_mult: 2
    decay_mult: 0
  }
  convolution_param {
    num_output: 64
    kernel_size: 1
    weight_filler {
      type: "xavier"
    }
    bias_filler {
      type: "constant"
      value: 0.2
    }
  }
}
layer {
  name: "inception_4b/relu_pool_proj"
  type: "ReLU"
  bottom: "inception_4b/pool_proj"
  top: "inception_4b/pool_proj"
}
layer {
  name: "inception_4b/output"
  type: "Concat"
  bottom: "inception_4b/1x1"
  bottom: "inception_4b/3x3"
  bottom: "inception_4b/5x5"
  bottom: "inception_4b/pool_proj"
  top: "inception_4b/output"
}
layer {
  name: "inception_4c/1x1"
  type: "Convolution"
  bottom: "inception_4b/output"
  top: "inception_4c/1x1"
  param {
    lr_mult: 1
    decay_mult: 1
  }
  param {
    lr_mult: 2
    decay_mult: 0
  }
  convolution_param {
    num_output: 128
    kernel_size: 1
    weight_filler {
      type: "xavier"
    }
    bias_filler {
      type: "constant"
      value: 0.2
    }
  }
}
layer {
  name: "inception_4c/relu_1x1"
  type: "ReLU"
  bottom: "inception_4c/1x1"
  top: "inception_4c/1x1"
}
layer {
  name: "inception_4c/3x3_reduce"
  type: "Convolution"
  bottom: "inception_4b/output"
  top: "inception_4c/3x3_reduce"
  param {
    lr_mult: 1
    decay_mult: 1
  }
  param {
    lr_mult: 2
    decay_mult: 0
  }
  convolution_param {
    num_output: 128
    kernel_size: 1
    weight_filler {
      type: "xavier"
    }
    bias_filler {
      type: "constant"
      value: 0.2
    }
  }
}
layer {
  name: "inception_4c/relu_3x3_reduce"
  type: "ReLU"
  bottom: "inception_4c/3x3_reduce"
  top: "inception_4c/3x3_reduce"
}
layer {
  name: "inception_4c/3x3"
  type: "Convolution"
  bottom: "inception_4c/3x3_reduce"
  top: "inception_4c/3x3"
  param {
    lr_mult: 1
    decay_mult: 1
  }
  param {
    lr_mult: 2
    decay_mult: 0
  }
  convolution_param {
    num_output: 256
    pad: 1
    kernel_size: 3
    weight_filler {
      type: "xavier"
    }
    bias_filler {
      type: "constant"
      value: 0.2
    }
  }
}
layer {
  name: "inception_4c/relu_3x3"
  type: "ReLU"
  bottom: "inception_4c/3x3"
  top: "inception_4c/3x3"
}
layer {
  name: "inception_4c/5x5_reduce"
  type: "Convolution"
  bottom: "inception_4b/output"
  top: "inception_4c/5x5_reduce"
  param {
    lr_mult: 1
    decay_mult: 1
  }
  param {
    lr_mult: 2
    decay_mult: 0
  }
  convolution_param {
    num_output: 24
    kernel_size: 1
    weight_filler {
      type: "xavier"
    }
    bias_filler {
      type: "constant"
      value: 0.2
    }
  }
}
layer {
  name: "inception_4c/relu_5x5_reduce"
  type: "ReLU"
  bottom: "inception_4c/5x5_reduce"
  top: "inception_4c/5x5_reduce"
}
layer {
  name: "inception_4c/5x5"
  type: "Convolution"
  bottom: "inception_4c/5x5_reduce"
  top: "inception_4c/5x5"
  param {
    lr_mult: 1
    decay_mult: 1
  }
  param {
    lr_mult: 2
    decay_mult: 0
  }
  convolution_param {
    num_output: 64
    pad: 2
    kernel_size: 5
    weight_filler {
      type: "xavier"
    }
    bias_filler {
      type: "constant"
      value: 0.2
    }
  }
}
layer {
  name: "inception_4c/relu_5x5"
  type: "ReLU"
  bottom: "inception_4c/5x5"
  top: "inception_4c/5x5"
}
layer {
  name: "inception_4c/pool"
  type: "Pooling"
  bottom: "inception_4b/output"
  top: "inception_4c/pool"
  pooling_param {
    pool: MAX
    kernel_size: 3
    stride: 1
    pad: 1
  }
}
layer {
  name: "inception_4c/pool_proj"
  type: "Convolution"
  bottom: "inception_4c/pool"
  top: "inception_4c/pool_proj"
  param {
    lr_mult: 1
    decay_mult: 1
  }
  param {
    lr_mult: 2
    decay_mult: 0
  }
  convolution_param {
    num_output: 64
    kernel_size: 1
    weight_filler {
      type: "xavier"
    }
    bias_filler {
      type: "constant"
      value: 0.2
    }
  }
}
layer {
  name: "inception_4c/relu_pool_proj"
  type: "ReLU"
  bottom: "inception_4c/pool_proj"
  top: "inception_4c/pool_proj"
}
layer {
  name: "inception_4c/output"
  type: "Concat"
  bottom: "inception_4c/1x1"
  bottom: "inception_4c/3x3"
  bottom: "inception_4c/5x5"
  bottom: "inception_4c/pool_proj"
  top: "inception_4c/output"
}
layer {
  name: "inception_4d/1x1"
  type: "Convolution"
  bottom: "inception_4c/output"
  top: "inception_4d/1x1"
  param {
    lr_mult: 1
    decay_mult: 1
  }
  param {
    lr_mult: 2
    decay_mult: 0
  }
  convolution_param {
    num_output: 112
    kernel_size: 1
    weight_filler {
      type: "xavier"
    }
    bias_filler {
      type: "constant"
      value: 0.2
    }
  }
}
layer {
  name: "inception_4d/relu_1x1"
  type: "ReLU"
  bottom: "inception_4d/1x1"
  top: "inception_4d/1x1"
}
layer {
  name: "inception_4d/3x3_reduce"
  type: "Convolution"
  bottom: "inception_4c/output"
  top: "inception_4d/3x3_reduce"
  param {
    lr_mult: 1
    decay_mult: 1
  }
  param {
    lr_mult: 2
    decay_mult: 0
  }
  convolution_param {
    num_output: 144
    kernel_size: 1
    weight_filler {
      type: "xavier"
    }
    bias_filler {
      type: "constant"
      value: 0.2
    }
  }
}
layer {
  name: "inception_4d/relu_3x3_reduce"
  type: "ReLU"
  bottom: "inception_4d/3x3_reduce"
  top: "inception_4d/3x3_reduce"
}
layer {
  name: "inception_4d/3x3"
  type: "Convolution"
  bottom: "inception_4d/3x3_reduce"
  top: "inception_4d/3x3"
  param {
    lr_mult: 1
    decay_mult: 1
  }
  param {
    lr_mult: 2
    decay_mult: 0
  }
  convolution_param {
    num_output: 288
    pad: 1
    kernel_size: 3
    weight_filler {
      type: "xavier"
    }
    bias_filler {
      type: "constant"
      value: 0.2
    }
  }
}
layer {
  name: "inception_4d/relu_3x3"
  type: "ReLU"
  bottom: "inception_4d/3x3"
  top: "inception_4d/3x3"
}
layer {
  name: "inception_4d/5x5_reduce"
  type: "Convolution"
  bottom: "inception_4c/output"
  top: "inception_4d/5x5_reduce"
  param {
    lr_mult: 1
    decay_mult: 1
  }
  param {
    lr_mult: 2
    decay_mult: 0
  }
  convolution_param {
    num_output: 32
    kernel_size: 1
    weight_filler {
      type: "xavier"
    }
    bias_filler {
      type: "constant"
      value: 0.2
    }
  }
}
layer {
  name: "inception_4d/relu_5x5_reduce"
  type: "ReLU"
  bottom: "inception_4d/5x5_reduce"
  top: "inception_4d/5x5_reduce"
}
layer {
  name: "inception_4d/5x5"
  type: "Convolution"
  bottom: "inception_4d/5x5_reduce"
  top: "inception_4d/5x5"
  param {
    lr_mult: 1
    decay_mult: 1
  }
  param {
    lr_mult: 2
    decay_mult: 0
  }
  convolution_param {
    num_output: 64
    pad: 2
    kernel_size: 5
    weight_filler {
      type: "xavier"
    }
    bias_filler {
      type: "constant"
      value: 0.2
    }
  }
}
layer {
  name: "inception_4d/relu_5x5"
  type: "ReLU"
  bottom: "inception_4d/5x5"
  top: "inception_4d/5x5"
}
layer {
  name: "inception_4d/pool"
  type: "Pooling"
  bottom: "inception_4c/output"
  top: "inception_4d/pool"
  pooling_param {
    pool: MAX
    kernel_size: 3
    stride: 1
    pad: 1
  }
}
layer {
  name: "inception_4d/pool_proj"
  type: "Convolution"
  bottom: "inception_4d/pool"
  top: "inception_4d/pool_proj"
  param {
    lr_mult: 1
    decay_mult: 1
  }
  param {
    lr_mult: 2
    decay_mult: 0
  }
  convolution_param {
    num_output: 64
    kernel_size: 1
    weight_filler {
      type: "xavier"
    }
    bias_filler {
      type: "constant"
      value: 0.2
    }
  }
}
layer {
  name: "inception_4d/relu_pool_proj"
  type: "ReLU"
  bottom: "inception_4d/pool_proj"
  top: "inception_4d/pool_proj"
}
layer {
  name: "inception_4d/output"
  type: "Concat"
  bottom: "inception_4d/1x1"
  bottom: "inception_4d/3x3"
  bottom: "inception_4d/5x5"
  bottom: "inception_4d/pool_proj"
  top: "inception_4d/output"
}
layer {
  name: "loss2/ave_pool"
  type: "Pooling"
  bottom: "inception_4d/output"
  top: "loss2/ave_pool"
  pooling_param {
    pool: AVE
    kernel_size: 5
    stride: 3
  }
}
layer {
…
I0106 23:17:20.607866 16704 net.cpp:84] Creating Layer inception_4c/1x1
I0106 23:17:20.607872 16704 net.cpp:380] inception_4c/1x1 <- inception_4b/output_inception_4b/output_0_split_0
I0106 23:17:20.607879 16704 net.cpp:338] inception_4c/1x1 -> inception_4c/1x1
I0106 23:17:20.607888 16704 net.cpp:113] Setting up inception_4c/1x1
I0106 23:17:20.609261 16704 net.cpp:120] Top shape: 50 128 14 14 (1254400)
I0106 23:17:20.609279 16704 layer_factory.hpp:74] Creating layer inception_4c/relu_1x1
I0106 23:17:20.609288 16704 net.cpp:84] Creating Layer inception_4c/relu_1x1
I0106 23:17:20.609297 16704 net.cpp:380] inception_4c/relu_1x1 <- inception_4c/1x1
I0106 23:17:20.609313 16704 net.cpp:327] inception_4c/relu_1x1 -> inception_4c/1x1 (in-place)
I0106 23:17:20.609330 16704 net.cpp:113] Setting up inception_4c/relu_1x1
I0106 23:17:20.609614 16704 net.cpp:120] Top shape: 50 128 14 14 (1254400)
I0106 23:17:20.609629 16704 layer_factory.hpp:74] Creating layer inception_4c/3x3_reduce
I0106 23:17:20.609639 16704 net.cpp:84] Creating Layer inception_4c/3x3_reduce
I0106 23:17:20.609648 16704 net.cpp:380] inception_4c/3x3_reduce <- inception_4b/output_inception_4b/output_0_split_1
I0106 23:17:20.609660 16704 net.cpp:338] inception_4c/3x3_reduce -> inception_4c/3x3_reduce
I0106 23:17:20.609671 16704 net.cpp:113] Setting up inception_4c/3x3_reduce
I0106 23:17:20.610998 16704 net.cpp:120] Top shape: 50 128 14 14 (1254400)
I0106 23:17:20.611016 16704 layer_factory.hpp:74] Creating layer inception_4c/relu_3x3_reduce
I0106 23:17:20.611024 16704 net.cpp:84] Creating Layer inception_4c/relu_3x3_reduce
I0106 23:17:20.611032 16704 net.cpp:380] inception_4c/relu_3x3_reduce <- inception_4c/3x3_reduce
I0106 23:17:20.611039 16704 net.cpp:327] inception_4c/relu_3x3_reduce -> inception_4c/3x3_reduce (in-place)
I0106 23:17:20.611048 16704 net.cpp:113] Setting up inception_4c/relu_3x3_reduce
I0106 23:17:20.611135 16704 net.cpp:120] Top shape: 50 128 14 14 (1254400)
I0106 23:17:20.611143 16704 layer_factory.hpp:74] Creating layer inception_4c/3x3
I0106 23:17:20.611155 16704 net.cpp:84] Creating Layer inception_4c/3x3
I0106 23:17:20.611160 16704 net.cpp:380] inception_4c/3x3 <- inception_4c/3x3_reduce
I0106 23:17:20.611168 16704 net.cpp:338] inception_4c/3x3 -> inception_4c/3x3
I0106 23:17:20.611177 16704 net.cpp:113] Setting up inception_4c/3x3
I0106 23:17:20.615514 16704 net.cpp:120] Top shape: 50 256 14 14 (2508800)
I0106 23:17:20.615547 16704 layer_factory.hpp:74] Creating layer inception_4c/relu_3x3
I0106 23:17:20.615557 16704 net.cpp:84] Creating Layer inception_4c/relu_3x3
I0106 23:17:20.615564 16704 net.cpp:380] inception_4c/relu_3x3 <- inception_4c/3x3
I0106 23:17:20.615572 16704 net.cpp:327] inception_4c/relu_3x3 -> inception_4c/3x3 (in-place)
I0106 23:17:20.615581 16704 net.cpp:113] Setting up inception_4c/relu_3x3
I0106 23:17:20.615665 16704 net.cpp:120] Top shape: 50 256 14 14 (2508800)
I0106 23:17:20.615675 16704 layer_factory.hpp:74] Creating layer inception_4c/5x5_reduce
I0106 23:17:20.615684 16704 net.cpp:84] Creating Layer inception_4c/5x5_reduce
I0106 23:17:20.615695 16704 net.cpp:380] inception_4c/5x5_reduce <- inception_4b/output_inception_4b/output_0_split_2
I0106 23:17:20.615705 16704 net.cpp:338] inception_4c/5x5_reduce -> inception_4c/5x5_reduce
I0106 23:17:20.615715 16704 net.cpp:113] Setting up inception_4c/5x5_reduce
I0106 23:17:20.616333 16704 net.cpp:120] Top shape: 50 24 14 14 (235200)
I0106 23:17:20.616351 16704 layer_factory.hpp:74] Creating layer inception_4c/relu_5x5_reduce
I0106 23:17:20.616363 16704 net.cpp:84] Creating Layer inception_4c/relu_5x5_reduce
I0106 23:17:20.616369 16704 net.cpp:380] inception_4c/relu_5x5_reduce <- inception_4c/5x5_reduce
I0106 23:17:20.616376 16704 net.cpp:327] inception_4c/relu_5x5_reduce -> inception_4c/5x5_reduce (in-place)
I0106 23:17:20.616385 16704 net.cpp:113] Setting up inception_4c/relu_5x5_reduce
I0106 23:17:20.616647 16704 net.cpp:120] Top shape: 50 24 14 14 (235200)
I0106 23:17:20.616659 16704 layer_factory.hpp:74] Creating layer inception_4c/5x5
I0106 23:17:20.616672 16704 net.cpp:84] Creating Layer inception_4c/5x5
I0106 23:17:20.616677 16704 net.cpp:380] inception_4c/5x5 <- inception_4c/5x5_reduce
I0106 23:17:20.616686 16704 net.cpp:338] inception_4c/5x5 -> inception_4c/5x5
I0106 23:17:20.616696 16704 net.cpp:113] Setting up inception_4c/5x5
I0106 23:17:20.617678 16704 net.cpp:120] Top shape: 50 64 14 14 (627200)
I0106 23:17:20.617697 16704 layer_factory.hpp:74] Creating layer inception_4c/relu_5x5
I0106 23:17:20.617705 16704 net.cpp:84] Creating Layer inception_4c/relu_5x5
I0106 23:17:20.617712 16704 net.cpp:380] inception_4c/relu_5x5 <- inception_4c/5x5
I0106 23:17:20.617722 16704 net.cpp:327] inception_4c/relu_5x5 -> inception_4c/5x5 (in-place)
I0106 23:17:20.617738 16704 net.cpp:113] Setting up inception_4c/relu_5x5
I0106 23:17:20.617832 16704 net.cpp:120] Top shape: 50 64 14 14 (627200)
I0106 23:17:20.617841 16704 layer_factory.hpp:74] Creating layer inception_4c/pool
I0106 23:17:20.617847 16704 layer_factory.cpp:56] CUDNN does not support padding or multiple tops. Using Caffe's own pooling layer.
I0106 23:17:20.617854 16704 net.cpp:84] Creating Layer inception_4c/pool
I0106 23:17:20.617861 16704 net.cpp:380] inception_4c/pool <- inception_4b/output_inception_4b/output_0_split_3
I0106 23:17:20.617868 16704 net.cpp:338] inception_4c/pool -> inception_4c/pool
I0106 23:17:20.617877 16704 net.cpp:113] Setting up inception_4c/pool
I0106 23:17:20.617887 16704 net.cpp:120] Top shape: 50 512 14 14 (5017600)
I0106 23:17:20.617893 16704 layer_factory.hpp:74] Creating layer inception_4c/pool_proj
I0106 23:17:20.617905 16704 net.cpp:84] Creating Layer inception_4c/pool_proj
I0106 23:17:20.617911 16704 net.cpp:380] inception_4c/pool_proj <- inception_4c/pool
I0106 23:17:20.617920 16704 net.cpp:338] inception_4c/pool_proj -> inception_4c/pool_proj
I0106 23:17:20.617929 16704 net.cpp:113] Setting up inception_4c/pool_proj
I0106 23:17:20.618816 16704 net.cpp:120] Top shape: 50 64 14 14 (627200)
I0106 23:17:20.618834 16704 layer_factory.hpp:74] Creating layer inception_4c/relu_pool_proj
I0106 23:17:20.618844 16704 net.cpp:84] Creating Layer inception_4c/relu_pool_proj
I0106 23:17:20.618851 16704 net.cpp:380] inception_4c/relu_pool_proj <- inception_4c/pool_proj
I0106 23:17:20.618860 16704 net.cpp:327] inception_4c/relu_pool_proj -> inception_4c/pool_proj (in-place)
I0106 23:17:20.618868 16704 net.cpp:113] Setting up inception_4c/relu_pool_proj
I0106 23:17:20.618952 16704 net.cpp:120] Top shape: 50 64 14 14 (627200)
I0106 23:17:20.618959 16704 layer_factory.hpp:74] Creating layer inception_4c/output
I0106 23:17:20.618968 16704 net.cpp:84] Creating Layer inception_4c/output
I0106 23:17:20.618974 16704 net.cpp:380] inception_4c/output <- inception_4c/1x1
I0106 23:17:20.618983 16704 net.cpp:380] inception_4c/output <- inception_4c/3x3
I0106 23:17:20.618988 16704 net.cpp:380] inception_4c/output <- inception_4c/5x5
I0106 23:17:20.618995 16704 net.cpp:380] inception_4c/output <- inception_4c/pool_proj
I0106 23:17:20.619002 16704 net.cpp:338] inception_4c/output -> inception_4c/output
I0106 23:17:20.619010 16704 net.cpp:113] Setting up inception_4c/output
I0106 23:17:20.619020 16704 net.cpp:120] Top shape: 50 512 14 14 (5017600)
I0106 23:17:20.619025 16704 layer_factory.hpp:74] Creating layer inception_4c/output_inception_4c/output_0_split
I0106 23:17:20.619035 16704 net.cpp:84] Creating Layer inception_4c/output_inception_4c/output_0_split
I0106 23:17:20.619040 16704 net.cpp:380] inception_4c/output_inception_4c/output_0_split <- inception_4c/output
I0106 23:17:20.619048 16704 net.cpp:338] inception_4c/output_inception_4c/output_0_split -> inception_4c/output_inception_4c/output_0_split_0
I0106 23:17:20.619056 16704 net.cpp:338] inception_4c/output_inception_4c/output_0_split -> inception_4c/output_inception_4c/output_0_split_1
I0106 23:17:20.619065 16704 net.cpp:338] inception_4c/output_inception_4c/output_0_split -> inception_4c/output_inception_4c/output_0_split_2
I0106 23:17:20.619074 16704 net.cpp:338] inception_4c/output_inception_4c/output_0_split -> inception_4c/output_inception_4c/output_0_split_3
I0106 23:17:20.619081 16704 net.cpp:113] Setting up inception_4c/output_inception_4c/output_0_split
I0106 23:17:20.619091 16704 net.cpp:120] Top shape: 50 512 14 14 (5017600)
I0106 23:17:20.619096 16704 net.cpp:120] Top shape: 50 512 14 14 (5017600)
I0106 23:17:20.619102 16704 net.cpp:120] Top shape: 50 512 14 14 (5017600)
I0106 23:17:20.619108 16704 net.cpp:120] Top shape: 50 512 14 14 (5017600)
I0106 23:17:20.619114 16704 layer_factory.hpp:74] Creating layer inception_4d/1x1
I0106 23:17:20.619124 16704 net.cpp:84] Creating Layer inception_4d/1x1
I0106 23:17:20.619130 16704 net.cpp:380] inception_4d/1x1 <- inception_4c/output_inception_4c/output_0_split_0
I0106 23:17:20.619145 16704 net.cpp:338] inception_4d/1x1 -> inception_4d/1x1
I0106 23:17:20.619161 16704 net.cpp:113] Setting up inception_4d/1x1
I0106 23:17:20.620368 16704 net.cpp:120] Top shape: 50 112 14 14 (1097600)
I0106 23:17:20.620386 16704 layer_factory.hpp:74] Creating layer inception_4d/relu_1x1
I0106 23:17:20.620398 16704 net.cpp:84] Creating Layer inception_4d/relu_1x1
I0106 23:17:20.620405 16704 net.cpp:380] inception_4d/relu_1x1 <- inception_4d/1x1
I0106 23:17:20.620414 16704 net.cpp:327] inception_4d/relu_1x1 -> inception_4d/1x1 (in-place)
I0106 23:17:20.620422 16704 net.cpp:113] Setting up inception_4d/relu_1x1
I0106 23:17:20.620502 16704 net.cpp:120] Top shape: 50 112 14 14 (1097600)
I0106 23:17:20.620510 16704 layer_factory.hpp:74] Creating layer inception_4d/3x3_reduce
I0106 23:17:20.620522 16704 net.cpp:84] Creating Layer inception_4d/3x3_reduce
I0106 23:17:20.620527 16704 net.cpp:380] inception_4d/3x3_reduce <- inception_4c/output_inception_4c/output_0_split_1
I0106 23:17:20.620537 16704 net.cpp:338] inception_4d/3x3_reduce -> inception_4d/3x3_reduce
I0106 23:17:20.620548 16704 net.cpp:113] Setting up inception_4d/3x3_reduce
I0106 23:17:20.621985 16704 net.cpp:120] Top shape: 50 144 14 14 (1411200)
I0106 23:17:20.622004 16704 layer_factory.hpp:74] Creating layer inception_4d/relu_3x3_reduce
I0106 23:17:20.622014 16704 net.cpp:84] Creating Layer inception_4d/relu_3x3_reduce
I0106 23:17:20.622020 16704 net.cpp:380] inception_4d/relu_3x3_reduce <- inception_4d/3x3_reduce
I0106 23:17:20.622027 16704 net.cpp:327] inception_4d/relu_3x3_reduce -> inception_4d/3x3_reduce (in-place)
I0106 23:17:20.622036 16704 net.cpp:113] Setting up inception_4d/relu_3x3_reduce
I0106 23:17:20.622295 16704 net.cpp:120] Top shape: 50 144 14 14 (1411200)
I0106 23:17:20.622309 16704 layer_factory.hpp:74] Creating layer inception_4d/3x3
I0106 23:17:20.622320 16704 net.cpp:84] Creating Layer inception_4d/3x3
I0106 23:17:20.622326 16704 net.cpp:380] inception_4d/3x3 <- inception_4d/3x3_reduce
I0106 23:17:20.622334 16704 net.cpp:338] inception_4d/3x3 -> inception_4d/3x3
I0106 23:17:20.622344 16704 net.cpp:113] Setting up inception_4d/3x3
I0106 23:17:20.627424 16704 net.cpp:120] Top shape: 50 288 14 14 (2822400)
I0106 23:17:20.627441 16704 layer_factory.hpp:74] Creating layer inception_4d/relu_3x3
I0106 23:17:20.627449 16704 net.cpp:84] Creating Layer inception_4d/relu_3x3
I0106 23:17:20.627455 16704 net.cpp:380] inception_4d/relu_3x3 <- inception_4d/3x3
I0106 23:17:20.627466 16704 net.cpp:327] inception_4d/relu_3x3 -> inception_4d/3x3 (in-place)
I0106 23:17:20.627475 16704 net.cpp:113] Setting up inception_4d/relu_3x3
I0106 23:17:20.627554 16704 net.cpp:120] Top shape: 50 288 14 14 (2822400)
I0106 23:17:20.627562 16704 layer_factory.hpp:74] Creating layer inception_4d/5x5_reduce
I0106 23:17:20.627573 16704 net.cpp:84] Creating Layer inception_4d/5x5_reduce
I0106 23:17:20.627578 16704 net.cpp:380] inception_4d/5x5_reduce <- inception_4c/output_inception_4c/output_0_split_2
I0106 23:17:20.627588 16704 net.cpp:338] inception_4d/5x5_reduce -> inception_4d/5x5_reduce
I0106 23:17:20.627598 16704 net.cpp:113] Setting up inception_4d/5x5_reduce
I0106 23:17:20.628274 16704 net.cpp:120] Top shape: 50 32 14 14 (313600)
I0106 23:17:20.628291 16704 layer_factory.hpp:74] Creating layer inception_4d/relu_5x5_reduce
I0106 23:17:20.628299 16704 net.cpp:84] Creating Layer inception_4d/relu_5x5_reduce
I0106 23:17:20.628305 16704 net.cpp:380] inception_4d/relu_5x5_reduce <- inception_4d/5x5_reduce
I0106 23:17:20.628315 16704 net.cpp:327] inception_4d/relu_5x5_reduce -> inception_4d/5x5_reduce (in-place)
I0106 23:17:20.628324 16704 net.cpp:113] Setting up inception_4d/relu_5x5_reduce
I0106 23:17:20.628407 16704 net.cpp:120] Top shape: 50 32 14 14 (313600)
I0106 23:17:20.628413 16704 layer_factory.hpp:74] Creating layer inception_4d/5x5
I0106 23:17:20.628422 16704 net.cpp:84] Creating Layer inception_4d/5x5
I0106 23:17:20.628428 16704 net.cpp:380] inception_4d/5x5 <- inception_4d/5x5_reduce
I0106 23:17:20.628437 16704 net.cpp:338] inception_4d/5x5 -> inception_4d/5x5
I0106 23:17:20.628453 16704 net.cpp:113] Setting up inception_4d/5x5
I0106 23:17:20.629549 16704 net.cpp:120] Top shape: 50 64 14 14 (627200)
I0106 23:17:20.629567 16704 layer_factory.hpp:74] Creating layer inception_4d/relu_5x5
I0106 23:17:20.629576 16704 net.cpp:84] Creating Layer inception_4d/relu_5x5
I0106 23:17:20.629582 16704 net.cpp:380] inception_4d/relu_5x5 <- inception_4d/5x5
I0106 23:17:20.629592 16704 net.cpp:327] inception_4d/relu_5x5 -> inception_4d/5x5 (in-place)
I0106 23:17:20.629601 16704 net.cpp:113] Setting up inception_4d/relu_5x5
I0106 23:17:20.629729 16704 net.cpp:120] Top shape: 50 64 14 14 (627200)
I0106 23:17:20.629740 16704 layer_factory.hpp:74] Creating layer inception_4d/pool
I0106 23:17:20.629746 16704 layer_factory.cpp:56] CUDNN does not support padding or multiple tops. Using Caffe's own pooling layer.
I0106 23:17:20.629753 16704 net.cpp:84] Creating Layer inception_4d/pool
I0106 23:17:20.629760 16704 net.cpp:380] inception_4d/pool <- inception_4c/output_inception_4c/output_0_split_3
I0106 23:17:20.629768 16704 net.cpp:338] inception_4d/pool -> inception_4d/pool
I0106 23:17:20.629777 16704 net.cpp:113] Setting up inception_4d/pool
I0106 23:17:20.629787 16704 net.cpp:120] Top shape: 50 512 14 14 (5017600)
I0106 23:17:20.629793 16704 layer_factory.hpp:74] Creating layer inception_4d/pool_proj
I0106 23:17:20.629804 16704 net.cpp:84] Creating Layer inception_4d/pool_proj
I0106 23:17:20.629809 16704 net.cpp:380] inception_4d/pool_proj <- inception_4d/pool
I0106 23:17:20.629819 16704 net.cpp:338] inception_4d/pool_proj -> inception_4d/pool_proj
I0106 23:17:20.629827 16704 net.cpp:113] Setting up inception_4d/pool_proj
I0106 23:17:20.630692 16704 net.cpp:120] Top shape: 50 64 14 14 (627200)
I0106 23:17:20.630708 16704 layer_factory.hpp:74] Creating layer inception_4d/relu_pool_proj
I0106 23:17:20.630718 16704 net.cpp:84] Creating Layer inception_4d/relu_pool_proj
I0106 23:17:20.630725 16704 net.cpp:380] inception_4d/relu_pool_proj <- inception_4d/pool_proj
I0106 23:17:20.630733 16704 net.cpp:327] inception_4d/relu_pool_proj -> inception_4d/pool_proj (in-place)
I0106 23:17:20.630741 16704 net.cpp:113] Setting up inception_4d/relu_pool_proj
I0106 23:17:20.630997 16704 net.cpp:120] Top shape: 50 64 14 14 (627200)
I0106 23:17:20.631009 16704 layer_factory.hpp:74] Creating layer inception_4d/output
I0106 23:17:20.631017 16704 net.cpp:84] Creating Layer inception_4d/output
I0106 23:17:20.631023 16704 net.cpp:380] inception_4d/output <- inception_4d/1x1
I0106 23:17:20.631031 16704 net.cpp:380] inception_4d/output <- inception_4d/3x3
I0106 23:17:20.631041 16704 net.cpp:380] inception_4d/output <- inception_4d/5x5
I0106 23:17:20.631047 16704 net.cpp:380] inception_4d/output <- inception_4d/pool_proj
I0106 23:17:20.631054 16704 net.cpp:338] inception_4d/output -> inception_4d/output
I0106 23:17:20.631062 16704 net.cpp:113] Setting up inception_4d/output
I0106 23:17:20.631072 16704 net.cpp:120] Top shape: 50 528 14 14 (5174400)
I0106 23:17:20.631078 16704 layer_factory.hpp:74] Creating layer inception_4d/output_inception_4d/output_0_split
I0106 23:17:20.631084 16704 net.cpp:84] Creating Layer inception_4d/output_inception_4d/output_0_split
I0106 23:17:20.631089 16704 net.cpp:380] inception_4d/output_inception_4d/output_0_split <- inception_4d/output
I0106 23:17:20.631098 16704 net.cpp:338] inception_4d/output_inception_4d/output_0_split -> inception_4d/output_inception_4d/output_0_split_0
I0106 23:17:20.631108 16704 net.cpp:338] inception_4d/output_inception_4d/output_0_split -> inception_4d/output_inception_4d/output_0_split_1
I0106 23:17:20.631116 16704 net.cpp:338] inception_4d/output_inception_4d/output_0_split -> inception_4d/output_inception_4d/output_0_split_2
I0106 23:17:20.631124 16704 net.cpp:338] inception_4d/output_inception_4d/output_0_split -> inception_4d/output_inception_4d/output_0_split_3
I0106 23:17:20.631132 16704 net.cpp:338] inception_4d/output_inception_4d/output_0_split -> inception_4d/output_inception_4d/output_0_split_4
I0106 23:17:20.631139 16704 net.cpp:113] Setting up inception_4d/output_inception_4d/output_0_split
I0106 23:17:20.631160 16704 net.cpp:120] Top shape: 50 528 14 14 (5174400)
I0106 23:17:20.631167 16704 net.cpp:120] Top shape: 50 528 14 14 (5174400)
I0106 23:17:20.631173 16704 net.cpp:120] Top shape: 50 528 14 14 (5174400)
I0106 23:17:20.631180 16704 net.cpp:120] Top shape: 50 528 14 14 (5174400)
I0106 23:17:20.631184 16704 net.cpp:120] Top shape: 50 528 14 14 (5174400)
I0106 23:17:20.631189 16704 layer_factory.hpp:74] Creating layer loss2/ave_pool
I0106 23:17:20.631199 16704 net.cpp:84] Creating Layer loss2/ave_pool
I0106 23:17:20.631206 16704 net.cpp:380] loss2/ave_pool <- inception_4d/output_inception_4d/output_0_split_0
I0106 23:17:20.631213 16704 net.cpp:338] loss2/ave_pool -> loss2/ave_pool
I0106 23:17:20.631220 16704 net.cpp:113] Setting up loss2/ave_pool
I0106 23:17:20.631301 16704 net.cpp:120] Top shape: 50 528 4 4 (422400)
I0106 23:17:20.631309 16704 layer_factory.hpp:74] Creating layer loss2/conv
I0106 23:17:20.631319 16704 net.cpp:84] Creating Layer loss2/conv
I0106 23:17:20.631325 16704 net.cpp:380] loss2/conv <- loss2/ave_pool
I0106 23:17:20.631332 16704 net.cpp:338] loss2/conv -> loss2/conv
I0106 23:17:20.631341 16704 net.cpp:113] Setting up loss2/conv
I0106 23:17:20.632627 16704 net.cpp:120] Top shape: 50 128 4 4 (102400)
I0106 23:17:20.632644 16704 layer_factory.hpp:74] Creating layer loss2/relu_conv
I0106 23:17:20.632653 16704 net.cpp:84] Creating Layer loss2/relu_conv
I0106 23:17:20.632659 16704 net.cpp:380] loss2/relu_conv <- loss2/conv
I0106 23:17:20.632670 16704 net.cpp:327] loss2/relu_conv -> loss2/conv (in-place)
I0106 23:17:20.632678 16704 net.cpp:113] Setting up loss2/relu_conv
I0106 23:17:20.632755 16704 net.cpp:120] Top shape: 50 128 4 4 (102400)
I0106 23:17:20.632763 16704 layer_factory.hpp:74] Creating layer loss2/fc
I0106 23:17:20.632772 16704 net.cpp:84] Creating Layer loss2/fc
I0106 23:17:20.632778 16704 net.cpp:380] loss2/fc <- loss2/conv
I0106 23:17:20.632787 16704 net.cpp:338] loss2/fc -> loss2/fc
I0106 23:17:20.632797 16704 net.cpp:113] Setting up loss2/fc
I0106 23:17:20.656412 16704 net.cpp:120] Top shape: 50 1024 (51200)
I0106 23:17:20.656429 16704 layer_factory.hpp:74] Creating layer loss2/relu_fc
I0106 23:17:20.656437 16704 net.cpp:84] Creating Layer loss2/relu_fc
I0106 23:17:20.656443 16704 net.cpp:380] loss2/relu_fc <- loss2/fc
I0106 23:17:20.656450 16704 net.cpp:327] loss2/relu_fc -> loss2/fc (in-place)
I0106 23:17:20.656457 16704 net.cpp:113] Setting up loss2/relu_fc
I0106 23:17:20.656541 16704 net.cpp:120] Top shape: 50 1024 (51200)
I0106 23:17:20.656548 16704 layer_factory.hpp:74] Creating layer loss2/drop_fc
I0106 23:17:20.656556 16704 net.cpp:84] Creating Layer loss2/drop_fc
I0106 23:17:20.656561 16704 net.cpp:380] loss2/drop_fc <- loss2/fc
I0106 23:17:20.656568 16704 net.cpp:327] loss2/drop_fc -> loss2/fc (in-place)
I0106 23:17:20.656574 16704 net.cpp:113] Setting up loss2/drop_fc
I0106 23:17:20.656581 16704 net.cpp:120] Top shape: 50 1024 (51200)
I0106 23:17:20.656586 16704 layer_factory.hpp:74] Creating layer loss2/classifier_kaggle
I0106 23:17:20.656596 16704 net.cpp:84] Creating Layer loss2/classifier_kaggle
I0106 23:17:20.656601 16704 net.cpp:380] loss2/classifier_kaggle <- loss2/fc
I0106 23:17:20.656608 16704 net.cpp:338] loss2/classifier_kaggle -> loss2/classifier_kaggle
I0106 23:17:20.656616 16704 net.cpp:113] Setting up loss2/classifier_kaggle
I0106 23:17:20.661870 16704 net.cpp:120] Top shape: 50 447 (22350)
I0106 23:17:20.661885 16704 layer_factory.hpp:74] Creating layer loss2/classifier_kaggle_loss2/classifier_kaggle_0_split
I0106 23:17:20.661891 16704 net.cpp:84] Creating Layer loss2/classifier_kaggle_loss2/classifier_kaggle_0_split
I0106 23:17:20.661897 16704 net.cpp:380] loss2/classifier_kaggle_loss2/classifier_kaggle_0_split <- loss2/classifier_kaggle
I0106 23:17:20.661906 16704 net.cpp:338] loss2/classifier_kaggle_loss2/classifier_kaggle_0_split -> loss2/classifier_kaggle_loss2/classifier_kaggle_0_split_0
I0106 23:17:20.661914 16704 net.cpp:338] loss2/classifier_kaggle_loss2/classifier_kaggle_0_split -> loss2/classifier_kaggle_loss2/classifier_kaggle_0_split_1
I0106 23:17:20.661934 16704 net.cpp:338] loss2/classifier_kaggle_loss2/classifier_kaggle_0_split -> loss2/classifier_kaggle_loss2/classifier_kaggle_0_split_2
I0106 23:17:20.661942 16704 net.cpp:113] Setting up loss2/classifier_kaggle_loss2/classifier_kaggle_0_split
I0106 23:17:20.661949 16704 net.cpp:120] Top shape: 50 447 (22350)
I0106 23:17:20.661955 16704 net.cpp:120] Top shape: 50 447 (22350)
I0106 23:17:20.661960 16704 net.cpp:120] Top shape: 50 447 (22350)
I0106 23:17:20.661965 16704 layer_factory.hpp:74] Creating layer loss2/loss
I0106 23:17:20.661972 16704 net.cpp:84] Creating Layer loss2/loss
I0106 23:17:20.661978 16704 net.cpp:380] loss2/loss <- loss2/classifier_kaggle_loss2/classifier_kaggle_0_split_0
I0106 23:17:20.661984 16704 net.cpp:380] loss2/loss <- label_data_1_split_3
I0106 23:17:20.661993 16704 net.cpp:338] loss2/loss -> loss2/loss1
…
I0106 23:17:20.662438 16704 net.cpp:338] loss2/top-5 -> loss2/top-5
I0106 23:17:20.662446 16704 net.cpp:113] Setting up loss2/top-5
I0106 23:17:20.662451 16704 net.cpp:120] Top shape: (1)
I0106 23:17:20.662456 16704 layer_factory.hpp:74] Creating layer inception_4e/1x1
I0106 23:17:20.662466 16704 net.cpp:84] Creating Layer inception_4e/1x1
I0106 23:17:20.662470 16704 net.cpp:380] inception_4e/1x1 <- inception_4d/output_inception_4d/output_0_split_1
I0106 23:17:20.662479 16704 net.cpp:338] inception_4e/1x1 -> inception_4e/1x1
I0106 23:17:20.662487 16704 net.cpp:113] Setting up inception_4e/1x1
I0106 23:17:20.664463 16704 net.cpp:120] Top shape: 50 256 14 14 (2508800)
I0106 23:17:20.664479 16704 layer_factory.hpp:74] Creating layer inception_4e/relu_1x1
I0106 23:17:20.664489 16704 net.cpp:84] Creating Layer inception_4e/relu_1x1
I0106 23:17:20.664494 16704 net.cpp:380] inception_4e/relu_1x1 <- inception_4e/1x1
I0106 23:17:20.664504 16704 net.cpp:327] inception_4e/relu_1x1 -> inception_4e/1x1 (in-place)
I0106 23:17:20.664512 16704 net.cpp:113] Setting up inception_4e/relu_1x1
I0106 23:17:20.664588 16704 net.cpp:120] Top shape: 50 256 14 14 (2508800)
I0106 23:17:20.664595 16704 layer_factory.hpp:74] Creating layer inception_4e/3x3_reduce
I0106 23:17:20.664624 16704 net.cpp:84] Creating Layer inception_4e/3x3_reduce
I0106 23:17:20.664630 16704 net.cpp:380] inception_4e/3x3_reduce <- inception_4d/output_inception_4d/output_0_split_2
I0106 23:17:20.664638 16704 net.cpp:338] inception_4e/3x3_reduce -> inception_4e/3x3_reduce
I0106 23:17:20.664647 16704 net.cpp:113] Setting up inception_4e/3x3_reduce
I0106 23:17:20.666055 16704 net.cpp:120] Top shape: 50 160 14 14 (1568000)
I0106 23:17:20.666074 16704 layer_factory.hpp:74] Creating layer inception_4e/relu_3x3_reduce
I0106 23:17:20.666081 16704 net.cpp:84] Creating Layer inception_4e/relu_3x3_reduce
I0106 23:17:20.666087 16704 net.cpp:380] inception_4e/relu_3x3_reduce <- inception_4e/3x3_reduce
I0106 23:17:20.666095 16704 net.cpp:327] inception_4e/relu_3x3_reduce -> inception_4e/3x3_reduce (in-place)
I0106 23:17:20.666110 16704 net.cpp:113] Setting up inception_4e/relu_3x3_reduce
I0106 23:17:20.666193 16704 net.cpp:120] Top shape: 50 160 14 14 (1568000)
I0106 23:17:20.666198 16704 layer_factory.hpp:74] Creating layer inception_4e/3x3
I0106 23:17:20.666209 16704 net.cpp:84] Creating Layer inception_4e/3x3
I0106 23:17:20.666214 16704 net.cpp:380] inception_4e/3x3 <- inception_4e/3x3_reduce
I0106 23:17:20.666224 16704 net.cpp:338] inception_4e/3x3 -> inception_4e/3x3
I0106 23:17:20.666232 16704 net.cpp:113] Setting up inception_4e/3x3
I0106 23:17:20.672019 16704 net.cpp:120] Top shape: 50 320 14 14 (3136000)
I0106 23:17:20.672035 16704 layer_factory.hpp:74] Creating layer inception_4e/relu_3x3
I0106 23:17:20.672044 16704 net.cpp:84] Creating Layer inception_4e/relu_3x3
I0106 23:17:20.672050 16704 net.cpp:380] inception_4e/relu_3x3 <- inception_4e/3x3
I0106 23:17:20.672057 16704 net.cpp:327] inception_4e/relu_3x3 -> inception_4e/3x3 (in-place)
I0106 23:17:20.672065 16704 net.cpp:113] Setting up inception_4e/relu_3x3
I0106 23:17:20.672300 16704 net.cpp:120] Top shape: 50 320 14 14 (3136000)
I0106 23:17:20.672312 16704 layer_factory.hpp:74] Creating layer inception_4e/5x5_reduce
I0106 23:17:20.672320 16704 net.cpp:84] Creating Layer inception_4e/5x5_reduce
I0106 23:17:20.672327 16704 net.cpp:380] inception_4e/5x5_reduce <- inception_4d/output_inception_4d/output_0_split_3
I0106 23:17:20.672334 16704 net.cpp:338] inception_4e/5x5_reduce -> inception_4e/5x5_reduce
I0106 23:17:20.672343 16704 net.cpp:113] Setting up inception_4e/5x5_reduce
I0106 23:17:20.672937 16704 net.cpp:120] Top shape: 50 32 14 14 (313600)
I0106 23:17:20.672952 16704 layer_factory.hpp:74] Creating layer inception_4e/relu_5x5_reduce
I0106 23:17:20.672962 16704 net.cpp:84] Creating Layer inception_4e/relu_5x5_reduce
I0106 23:17:20.672968 16704 net.cpp:380] inception_4e/relu_5x5_reduce <- inception_4e/5x5_reduce
I0106 23:17:20.672976 16704 net.cpp:327] inception_4e/relu_5x5_reduce -> inception_4e/5x5_reduce (in-place)
I0106 23:17:20.672982 16704 net.cpp:113] Setting up inception_4e/relu_5x5_reduce
I0106 23:17:20.673069 16704 net.cpp:120] Top shape: 50 32 14 14 (313600)
I0106 23:17:20.673077 16704 layer_factory.hpp:74] Creating layer inception_4e/5x5
I0106 23:17:20.673086 16704 net.cpp:84] Creating Layer inception_4e/5x5
I0106 23:17:20.673091 16704 net.cpp:380] inception_4e/5x5 <- inception_4e/5x5_reduce
I0106 23:17:20.673100 16704 net.cpp:338] inception_4e/5x5 -> inception_4e/5x5
I0106 23:17:20.673110 16704 net.cpp:113] Setting up inception_4e/5x5
I0106 23:17:20.674747 16704 net.cpp:120] Top shape: 50 128 14 14 (1254400)
I0106 23:17:20.674765 16704 layer_factory.hpp:74] Creating layer inception_4e/relu_5x5
I0106 23:17:20.674773 16704 net.cpp:84] Creating Layer inception_4e/relu_5x5
I0106 23:17:20.674779 16704 net.cpp:380] inception_4e/relu_5x5 <- inception_4e/5x5
I0106 23:17:20.674787 16704 net.cpp:327] inception_4e/relu_5x5 -> inception_4e/5x5 (in-place)
I0106 23:17:20.674793 16704 net.cpp:113] Setting up inception_4e/relu_5x5
I0106 23:17:20.674868 16704 net.cpp:120] Top shape: 50 128 14 14 (1254400)
I0106 23:17:20.674875 16704 layer_factory.hpp:74] Creating layer inception_4e/pool
I0106 23:17:20.674881 16704 layer_factory.cpp:56] CUDNN does not support padding or multiple tops. Using Caffe's own pooling layer.
I0106 23:17:20.674888 16704 net.cpp:84] Creating Layer inception_4e/pool
I0106 23:17:20.674893 16704 net.cpp:380] inception_4e/pool <- inception_4d/output_inception_4d/output_0_split_4
I0106 23:17:20.674902 16704 net.cpp:338] inception_4e/pool -> inception_4e/pool
I0106 23:17:20.674911 16704 net.cpp:113] Setting up inception_4e/pool
I0106 23:17:20.674919 16704 net.cpp:120] Top shape: 50 528 14 14 (5174400)
I0106 23:17:20.674924 16704 layer_factory.hpp:74] Creating layer inception_4e/pool_proj
I0106 23:17:20.674933 16704 net.cpp:84] Creating Layer inception_4e/pool_proj
I0106 23:17:20.674938 16704 net.cpp:380] inception_4e/pool_proj <- inception_4e/pool
I0106 23:17:20.674947 16704 net.cpp:338] inception_4e/pool_proj -> inception_4e/pool_proj
I0106 23:17:20.674959 16704 net.cpp:113] Setting up inception_4e/pool_proj
I0106 23:17:20.676172 16704 net.cpp:120] Top shape: 50 128 14 14 (1254400)
I0106 23:17:20.676190 16704 layer_factory.hpp:74] Creating layer inception_4e/relu_pool_proj
I0106 23:17:20.676198 16704 net.cpp:84] Creating Layer inception_4e/relu_pool_proj
I0106 23:17:20.676204 16704 net.cpp:380] inception_4e/relu_pool_proj <- inception_4e/pool_proj
I0106 23:17:20.676213 16704 net.cpp:327] inception_4e/relu_pool_proj -> inception_4e/pool_proj (in-place)
I0106 23:17:20.676220 16704 net.cpp:113] Setting up inception_4e/relu_pool_proj
I0106 23:17:20.676292 16704 net.cpp:120] Top shape: 50 128 14 14 (1254400)
I0106 23:17:20.676301 16704 layer_factory.hpp:74] Creating layer inception_4e/output
I0106 23:17:20.676308 16704 net.cpp:84] Creating Layer inception_4e/output
I0106 23:17:20.676314 16704 net.cpp:380] inception_4e/output <- inception_4e/1x1
I0106 23:17:20.676321 16704 net.cpp:380] inception_4e/output <- inception_4e/3x3
I0106 23:17:20.676326 16704 net.cpp:380] inception_4e/output <- inception_4e/5x5
I0106 23:17:20.676331 16704 net.cpp:380] inception_4e/output <- inception_4e/pool_proj
I0106 23:17:20.676340 16704 net.cpp:338] inception_4e/output -> inception_4e/output
I0106 23:17:20.676347 16704 net.cpp:113] Setting up inception_4e/output
I0106 23:17:20.676357 16704 net.cpp:120] Top shape: 50 832 14 14 (8153600)
I0106 23:17:20.676362 16704 layer_factory.hpp:74] Creating layer pool4/3x3_s2
I0106 23:17:20.676368 16704 net.cpp:84] Creating Layer pool4/3x3_s2
I0106 23:17:20.676373 16704 net.cpp:380] pool4/3x3_s2 <- inception_4e/output
I0106 23:17:20.676380 16704 net.cpp:338] pool4/3x3_s2 -> pool4/3x3_s2
I0106 23:17:20.676388 16704 net.cpp:113] Setting up pool4/3x3_s2
I0106 23:17:20.676635 16704 net.cpp:120] Top shape: 50 832 7 7 (2038400)
I0106 23:17:20.676646 16704 layer_factory.hpp:74] Creating layer pool4/3x3_s2_pool4/3x3_s2_0_split
I0106 23:17:20.676653 16704 net.cpp:84] Creating Layer pool4/3x3_s2_pool4/3x3_s2_0_split
I0106 23:17:20.676659 16704 net.cpp:380] pool4/3x3_s2_pool4/3x3_s2_0_split <- pool4/3x3_s2
I0106 23:17:20.676671 16704 net.cpp:338] pool4/3x3_s2_pool4/3x3_s2_0_split -> pool4/3x3_s2_pool4/3x3_s2_0_split_0
I0106 23:17:20.676679 16704 net.cpp:338] pool4/3x3_s2_pool4/3x3_s2_0_split -> pool4/3x3_s2_pool4/3x3_s2_0_split_1
I0106 23:17:20.676687 16704 net.cpp:338] pool4/3x3_s2_pool4/3x3_s2_0_split -> pool4/3x3_s2_pool4/3x3_s2_0_split_2
I0106 23:17:20.676713 16704 net.cpp:338] pool4/3x3_s2_pool4/3x3_s2_0_split -> pool4/3x3_s2_pool4/3x3_s2_0_split_3
I0106 23:17:20.676722 16704 net.cpp:113] Setting up pool4/3x3_s2_pool4/3x3_s2_0_split
I0106 23:17:20.676729 16704 net.cpp:120] Top shape: 50 832 7 7 (2038400)
I0106 23:17:20.676735 16704 net.cpp:120] Top shape: 50 832 7 7 (2038400)
I0106 23:17:20.676741 16704 net.cpp:120] Top shape: 50 832 7 7 (2038400)
I0106 23:17:20.676746 16704 net.cpp:120] Top shape: 50 832 7 7 (2038400)
I0106 23:17:20.676751 16704 layer_factory.hpp:74] Creating layer inception_5a/1x1
I0106 23:17:20.676760 16704 net.cpp:84] Creating Layer inception_5a/1x1
I0106 23:17:20.676765 16704 net.cpp:380] inception_5a/1x1 <- pool4/3x3_s2_pool4/3x3_s2_0_split_0
I0106 23:17:20.676774 16704 net.cpp:338] inception_5a/1x1 -> inception_5a/1x1
I0106 23:17:20.676781 16704 net.cpp:113] Setting up inception_5a/1x1
I0106 23:17:20.679651 16704 net.cpp:120] Top shape: 50 256 7 7 (627200)
I0106 23:17:20.679667 16704 layer_factory.hpp:74] Creating layer inception_5a/relu_1x1
I0106 23:17:20.679677 16704 net.cpp:84] Creating Layer inception_5a/relu_1x1
I0106 23:17:20.679683 16704 net.cpp:380] inception_5a/relu_1x1 <- inception_5a/1x1
I0106 23:17:20.679690 16704 net.cpp:327] inception_5a/relu_1x1 -> inception_5a/1x1 (in-place)
I0106 23:17:20.679697 16704 net.cpp:113] Setting up inception_5a/relu_1x1
I0106 23:17:20.679770 16704 net.cpp:120] Top shape: 50 256 7 7 (627200)
I0106 23:17:20.679777 16704 layer_factory.hpp:74] Creating layer inception_5a/3x3_reduce
I0106 23:17:20.679787 16704 net.cpp:84] Creating Layer inception_5a/3x3_reduce
I0106 23:17:20.679798 16704 net.cpp:380] inception_5a/3x3_reduce <- pool4/3x3_s2_pool4/3x3_s2_0_split_1
I0106 23:17:20.679812 16704 net.cpp:338] inception_5a/3x3_reduce -> inception_5a/3x3_reduce
I0106 23:17:20.679821 16704 net.cpp:113] Setting up inception_5a/3x3_reduce
I0106 23:17:20.681777 16704 net.cpp:120] Top shape: 50 160 7 7 (392000)
I0106 23:17:20.681792 16704 layer_factory.hpp:74] Creating layer inception_5a/relu_3x3_reduce
I0106 23:17:20.681800 16704 net.cpp:84] Creating Layer inception_5a/relu_3x3_reduce
I0106 23:17:20.681807 16704 net.cpp:380] inception_5a/relu_3x3_reduce <- inception_5a/3x3_reduce
I0106 23:17:20.681815 16704 net.cpp:327] inception_5a/relu_3x3_reduce -> inception_5a/3x3_reduce (in-place)
I0106 23:17:20.681823 16704 net.cpp:113] Setting up inception_5a/relu_3x3_reduce
I0106 23:17:20.681900 16704 net.cpp:120] Top shape: 50 160 7 7 (392000)
I0106 23:17:20.681906 16704 layer_factory.hpp:74] Creating layer inception_5a/3x3
I0106 23:17:20.681916 16704 net.cpp:84] Creating Layer inception_5a/3x3
I0106 23:17:20.681921 16704 net.cpp:380] inception_5a/3x3 <- inception_5a/3x3_reduce
I0106 23:17:20.681931 16704 net.cpp:338] inception_5a/3x3 -> inception_5a/3x3
I0106 23:17:20.681938 16704 net.cpp:113] Setting up inception_5a/3x3
I0106 23:17:20.687638 16704 net.cpp:120] Top shape: 50 320 7 7 (784000)
I0106 23:17:20.687654 16704 layer_factory.hpp:74] Creating layer inception_5a/relu_3x3
I0106 23:17:20.687664 16704 net.cpp:84] Creating Layer inception_5a/relu_3x3
I0106 23:17:20.687670 16704 net.cpp:380] inception_5a/relu_3x3 <- inception_5a/3x3
I0106 23:17:20.687677 16704 net.cpp:327] inception_5a/relu_3x3 -> inception_5a/3x3 (in-place)
I0106 23:17:20.687685 16704 net.cpp:113] Setting up inception_5a/relu_3x3
I0106 23:17:20.687760 16704 net.cpp:120] Top shape: 50 320 7 7 (784000)
I0106 23:17:20.687767 16704 layer_factory.hpp:74] Creating layer inception_5a/5x5_reduce
I0106 23:17:20.687777 16704 net.cpp:84] Creating Layer inception_5a/5x5_reduce
I0106 23:17:20.687783 16704 net.cpp:380] inception_5a/5x5_reduce <- pool4/3x3_s2_pool4/3x3_s2_0_split_2
I0106 23:17:20.687791 16704 net.cpp:338] inception_5a/5x5_reduce -> inception_5a/5x5_reduce
I0106 23:17:20.687799 16704 net.cpp:113] Setting up inception_5a/5x5_reduce
I0106 23:17:20.688519 16704 net.cpp:120] Top shape: 50 32 7 7 (78400)
I0106 23:17:20.688535 16704 layer_factory.hpp:74] Creating layer inception_5a/relu_5x5_reduce
I0106 23:17:20.688542 16704 net.cpp:84] Creating Layer inception_5a/relu_5x5_reduce
I0106 23:17:20.688549 16704 net.cpp:380] inception_5a/relu_5x5_reduce <- inception_5a/5x5_reduce
I0106 23:17:20.688557 16704 net.cpp:327] inception_5a/relu_5x5_reduce -> inception_5a/5x5_reduce (in-place)
I0106 23:17:20.688565 16704 net.cpp:113] Setting up inception_5a/relu_5x5_reduce
I0106 23:17:20.688810 16704 net.cpp:120] Top shape: 50 32 7 7 (78400)
I0106 23:17:20.688822 16704 layer_factory.hpp:74] Creating layer inception_5a/5x5
I0106 23:17:20.688832 16704 net.cpp:84] Creating Layer inception_5a/5x5
I0106 23:17:20.688838 16704 net.cpp:380] inception_5a/5x5 <- inception_5a/5x5_reduce
I0106 23:17:20.688845 16704 net.cpp:338] inception_5a/5x5 -> inception_5a/5x5
I0106 23:17:20.688854 16704 net.cpp:113] Setting up inception_5a/5x5
I0106 23:17:20.690453 16704 net.cpp:120] Top shape: 50 128 7 7 (313600)
I0106 23:17:20.690469 16704 layer_factory.hpp:74] Creating layer inception_5a/relu_5x5
I0106 23:17:20.690479 16704 net.cpp:84] Creating Layer inception_5a/relu_5x5
I0106 23:17:20.690485 16704 net.cpp:380] inception_5a/relu_5x5 <- inception_5a/5x5
I0106 23:17:20.690491 16704 net.cpp:327] inception_5a/relu_5x5 -> inception_5a/5x5 (in-place)
I0106 23:17:20.690500 16704 net.cpp:113] Setting up inception_5a/relu_5x5
I0106 23:17:20.690577 16704 net.cpp:120] Top shape: 50 128 7 7 (313600)
I0106 23:17:20.690582 16704 layer_factory.hpp:74] Creating layer inception_5a/pool
I0106 23:17:20.690588 16704 layer_factory.cpp:56] CUDNN does not support padding or multiple tops. Using Caffe's own pooling layer.
I0106 23:17:20.690594 16704 net.cpp:84] Creating Layer inception_5a/pool
I0106 23:17:20.690605 16704 net.cpp:380] inception_5a/pool <- pool4/3x3_s2_pool4/3x3_s2_0_split_3
I0106 23:17:20.690621 16704 net.cpp:338] inception_5a/pool -> inception_5a/pool
I0106 23:17:20.690629 16704 net.cpp:113] Setting up inception_5a/pool
I0106 23:17:20.690639 16704 net.cpp:120] Top shape: 50 832 7 7 (2038400)
I0106 23:17:20.690644 16704 layer_factory.hpp:74] Creating layer inception_5a/pool_proj
I0106 23:17:20.690654 16704 net.cpp:84] Creating Layer inception_5a/pool_proj
I0106 23:17:20.690659 16704 net.cpp:380] inception_5a/pool_proj <- inception_5a/pool
I0106 23:17:20.690665 16704 net.cpp:338] inception_5a/pool_proj -> inception_5a/pool_proj
I0106 23:17:20.690673 16704 net.cpp:113] Setting up inception_5a/pool_proj
I0106 23:17:20.692309 16704 net.cpp:120] Top shape: 50 128 7 7 (313600)
I0106 23:17:20.692325 16704 layer_factory.hpp:74] Creating layer inception_5a/relu_pool_proj
I0106 23:17:20.692333 16704 net.cpp:84] Creating Layer inception_5a/relu_pool_proj
I0106 23:17:20.692338 16704 net.cpp:380] inception_5a/relu_pool_proj <- inception_5a/pool_proj
I0106 23:17:20.692350 16704 net.cpp:327] inception_5a/relu_pool_proj -> inception_5a/pool_proj (in-place)
I0106 23:17:20.692358 16704 net.cpp:113] Setting up inception_5a/relu_pool_proj
I0106 23:17:20.692430 16704 net.cpp:120] Top shape: 50 128 7 7 (313600)
I0106 23:17:20.692438 16704 layer_factory.hpp:74] Creating layer inception_5a/output
I0106 23:17:20.692446 16704 net.cpp:84] Creating Layer inception_5a/output
I0106 23:17:20.692451 16704 net.cpp:380] inception_5a/output <- inception_5a/1x1
I0106 23:17:20.692457 16704 net.cpp:380] inception_5a/output <- inception_5a/3x3
I0106 23:17:20.692463 16704 net.cpp:380] inception_5a/output <- inception_5a/5x5
I0106 23:17:20.692468 16704 net.cpp:380] inception_5a/output <- inception_5a/pool_proj
I0106 23:17:20.692476 16704 net.cpp:338] inception_5a/output -> inception_5a/output
I0106 23:17:20.692484 16704 net.cpp:113] Setting up inception_5a/output
I0106 23:17:20.692492 16704 net.cpp:120] Top shape: 50 832 7 7 (2038400)
I0106 23:17:20.692497 16704 layer_factory.hpp:74] Creating layer inception_5a/output_inception_5a/output_0_split
I0106 23:17:20.692503 16704 net.cpp:84] Creating Layer inception_5a/output_inception_5a/output_0_split
I0106 23:17:20.692508 16704 net.cpp:380] inception_5a/output_inception_5a/output_0_split <- inception_5a/output
I0106 23:17:20.692515 16704 net.cpp:338] inception_5a/output_inception_5a/output_0_split -> inception_5a/output_inception_5a/output_0_split_0
I0106 23:17:20.692523 16704 net.cpp:338] inception_5a/output_inception_5a/output_0_split -> inception_5a/output_inception_5a/output_0_split_1
I0106 23:17:20.692530 16704 net.cpp:338] inception_5a/output_inception_5a/output_0_split -> inception_5a/output_inception_5a/output_0_split_2
I0106 23:17:20.692540 16704 net.cpp:338] inception_5a/output_inception_5a/output_0_split -> inception_5a/output_inception_5a/output_0_split_3
I0106 23:17:20.692546 16704 net.cpp:113] Setting up inception_5a/output_inception_5a/output_0_split
I0106 23:17:20.692554 16704 net.cpp:120] Top shape: 50 832 7 7 (2038400)
I0106 23:17:20.692560 16704 net.cpp:120] Top shape: 50 832 7 7 (2038400)
I0106 23:17:20.692565 16704 net.cpp:120] Top shape: 50 832 7 7 (2038400)
I0106 23:17:20.692570 16704 net.cpp:120] Top shape: 50 832 7 7 (2038400)
I0106 23:17:20.692575 16704 layer_factory.hpp:74] Creating layer inception_5b/1x1
I0106 23:17:20.692584 16704 net.cpp:84] Creating Layer inception_5b/1x1
I0106 23:17:20.692590 16704 net.cpp:380] inception_5b/1x1 <- inception_5a/output_inception_5a/output_0_split_0
I0106 23:17:20.692597 16704 net.cpp:338] inception_5b/1x1 -> inception_5b/1x1
I0106 23:17:20.692605 16704 net.cpp:113] Setting up inception_5b/1x1
I0106 23:17:20.696698 16704 net.cpp:120] Top shape: 50 384 7 7 (940800)
I0106 23:17:20.696715 16704 layer_factory.hpp:74] Creating layer inception_5b/relu_1x1
I0106 23:17:20.696724 16704 net.cpp:84] Creating Layer inception_5b/relu_1x1
I0106 23:17:20.696732 16704 net.cpp:380] inception_5b/relu_1x1 <- inception_5b/1x1
I0106 23:17:20.696738 16704 net.cpp:327] inception_5b/relu_1x1 -> inception_5b/1x1 (in-place)
I0106 23:17:20.696758 16704 net.cpp:113] Setting up inception_5b/relu_1x1
I0106 23:17:20.696835 16704 net.cpp:120] Top shape: 50 384 7 7 (940800)
I0106 23:17:20.696841 16704 layer_factory.hpp:74] Creating layer inception_5b/3x3_reduce
I0106 23:17:20.696851 16704 net.cpp:84] Creating Layer inception_5b/3x3_reduce
I0106 23:17:20.696856 16704 net.cpp:380] inception_5b/3x3_reduce <- inception_5a/output_inception_5a/output_0_split_1
I0106 23:17:20.696866 16704 net.cpp:338] inception_5b/3x3_reduce -> inception_5b/3x3_reduce
I0106 23:17:20.696874 16704 net.cpp:113] Setting up inception_5b/3x3_reduce
I0106 23:17:20.699173 16704 net.cpp:120] Top shape: 50 192 7 7 (470400)
I0106 23:17:20.699190 16704 layer_factory.hpp:74] Creating layer inception_5b/relu_3x3_reduce
I0106 23:17:20.699198 16704 net.cpp:84] Creating Layer inception_5b/relu_3x3_reduce
I0106 23:17:20.699206 16704 net.cpp:380] inception_5b/relu_3x3_reduce <- inception_5b/3x3_reduce
I0106 23:17:20.699214 16704 net.cpp:327] inception_5b/relu_3x3_reduce -> inception_5b/3x3_reduce (in-place)
I0106 23:17:20.699223 16704 net.cpp:113] Setting up inception_5b/relu_3x3_reduce
I0106 23:17:20.699686 16704 net.cpp:120] Top shape: 50 192 7 7 (470400)
I0106 23:17:20.699697 16704 layer_factory.hpp:74] Creating layer inception_5b/3x3
I0106 23:17:20.699707 16704 net.cpp:84] Creating Layer inception_5b/3x3
I0106 23:17:20.699713 16704 net.cpp:380] inception_5b/3x3 <- inception_5b/3x3_reduce
I0106 23:17:20.699722 16704 net.cpp:338] inception_5b/3x3 -> inception_5b/3x3
I0106 23:17:20.699730 16704 net.cpp:113] Setting up inception_5b/3x3
I0106 23:17:20.707772 16704 net.cpp:120] Top shape: 50 384 7 7 (940800)
I0106 23:17:20.707789 16704 layer_factory.hpp:74] Creating layer inception_5b/relu_3x3
I0106 23:17:20.707798 16704 net.cpp:84] Creating Layer inception_5b/relu_3x3
I0106 23:17:20.707803 16704 net.cpp:380] inception_5b/relu_3x3 <- inception_5b/3x3
I0106 23:17:20.707810 16704 net.cpp:327] inception_5b/relu_3x3 -> inception_5b/3x3 (in-place)
I0106 23:17:20.707818 16704 net.cpp:113] Setting up inception_5b/relu_3x3
I0106 23:17:20.707892 16704 net.cpp:120] Top shape: 50 384 7 7 (940800)
I0106 23:17:20.707900 16704 layer_factory.hpp:74] Creating layer inception_5b/5x5_reduce
I0106 23:17:20.707908 16704 net.cpp:84] Creating Layer inception_5b/5x5_reduce
I0106 23:17:20.707913 16704 net.cpp:380] inception_5b/5x5_reduce <- inception_5a/output_inception_5a/output_0_split_2
I0106 23:17:20.707922 16704 net.cpp:338] inception_5b/5x5_reduce -> inception_5b/5x5_reduce
I0106 23:17:20.707931 16704 net.cpp:113] Setting up inception_5b/5x5_reduce
I0106 23:17:20.708809 16704 net.cpp:120] Top shape: 50 48 7 7 (117600)
I0106 23:17:20.708825 16704 layer_factory.hpp:74] Creating layer inception_5b/relu_5x5_reduce
I0106 23:17:20.708832 16704 net.cpp:84] Creating Layer inception_5b/relu_5x5_reduce
I0106 23:17:20.708840 16704 net.cpp:380] inception_5b/relu_5x5_reduce <- inception_5b/5x5_reduce
I0106 23:17:20.708848 16704 net.cpp:327] inception_5b/relu_5x5_reduce -> inception_5b/5x5_reduce (in-place)
I0106 23:17:20.708855 16704 net.cpp:113] Setting up inception_5b/relu_5x5_reduce
I0106 23:17:20.708930 16704 net.cpp:120] Top shape: 50 48 7 7 (117600)
I0106 23:17:20.708935 16704 layer_factory.hpp:74] Creating layer inception_5b/5x5
I0106 23:17:20.708945 16704 net.cpp:84] Creating Layer inception_5b/5x5
I0106 23:17:20.708951 16704 net.cpp:380] inception_5b/5x5 <- inception_5b/5x5_reduce
I0106 23:17:20.708959 16704 net.cpp:338] inception_5b/5x5 -> inception_5b/5x5
I0106 23:17:20.708968 16704 net.cpp:113] Setting up inception_5b/5x5
I0106 23:17:20.711148 16704 net.cpp:120] Top shape: 50 128 7 7 (313600)
I0106 23:17:20.711165 16704 layer_factory.hpp:74] Creating layer inception_5b/relu_5x5
I0106 23:17:20.711174 16704 net.cpp:84] Creating Layer inception_5b/relu_5x5
I0106 23:17:20.711181 16704 net.cpp:380] inception_5b/relu_5x5 <- inception_5b/5x5
I0106 23:17:20.711189 16704 net.cpp:327] inception_5b/relu_5x5 -> inception_5b/5x5 (in-place)
I0106 23:17:20.711201 16704 net.cpp:113] Setting up inception_5b/relu_5x5
I0106 23:17:20.711454 16704 net.cpp:120] Top shape: 50 128 7 7 (313600)
I0106 23:17:20.711467 16704 layer_factory.hpp:74] Creating layer inception_5b/pool
I0106 23:17:20.711472 16704 layer_factory.cpp:56] CUDNN does not support padding or multiple tops. Using Caffe's own pooling layer.
I0106 23:17:20.711478 16704 net.cpp:84] Creating Layer inception_5b/pool
I0106 23:17:20.711486 16704 net.cpp:380] inception_5b/pool <- inception_5a/output_inception_5a/output_0_split_3
I0106 23:17:20.711494 16704 net.cpp:338] inception_5b/pool -> inception_5b/pool
I0106 23:17:20.711503 16704 net.cpp:113] Setting up inception_5b/pool
I0106 23:17:20.711511 16704 net.cpp:120] Top shape: 50 832 7 7 (2038400)
I0106 23:17:20.711516 16704 layer_factory.hpp:74] Creating layer inception_5b/pool_proj
I0106 23:17:20.711524 16704 net.cpp:84] Creating Layer inception_5b/pool_proj
I0106 23:17:20.711529 16704 net.cpp:380] inception_5b/pool_proj <- inception_5b/pool
I0106 23:17:20.711539 16704 net.cpp:338] inception_5b/pool_proj -> inception_5b/pool_proj
I0106 23:17:20.711546 16704 net.cpp:113] Setting up inception_5b/pool_proj
I0106 23:17:20.713186 16704 net.cpp:120] Top shape: 50 128 7 7 (313600)
I0106 23:17:20.713201 16704 layer_factory.hpp:74] Creating layer inception_5b/relu_pool_proj
I0106 23:17:20.713209 16704 net.cpp:84] Creating Layer inception_5b/relu_pool_proj
I0106 23:17:20.713215 16704 net.cpp:380] inception_5b/relu_pool_proj <- inception_5b/pool_proj
I0106 23:17:20.713222 16704 net.cpp:327] inception_5b/relu_pool_proj -> inception_5b/pool_proj (in-place)
I0106 23:17:20.713229 16704 net.cpp:113] Setting up inception_5b/relu_pool_proj
I0106 23:17:20.713305 16704 net.cpp:120] Top shape: 50 128 7 7 (313600)
I0106 23:17:20.713312 16704 layer_factory.hpp:74] Creating layer inception_5b/output
I0106 23:17:20.713320 16704 net.cpp:84] Creating Layer inception_5b/output
I0106 23:17:20.713325 16704 net.cpp:380] inception_5b/output <- inception_5b/1x1
I0106 23:17:20.713331 16704 net.cpp:380] inception_5b/output <- inception_5b/3x3
I0106 23:17:20.713336 16704 net.cpp:380] inception_5b/output <- inception_5b/5x5
I0106 23:17:20.713342 16704 net.cpp:380] inception_5b/output <- inception_5b/pool_proj
I0106 23:17:20.713348 16704 net.cpp:338] inception_5b/output -> inception_5b/output
I0106 23:17:20.713356 16704 net.cpp:113] Setting up inception_5b/output
I0106 23:17:20.713364 16704 net.cpp:120] Top shape: 50 1024 7 7 (2508800)
I0106 23:17:20.713369 16704 layer_factory.hpp:74] Creating layer pool5/7x7_s1
I0106 23:17:20.713378 16704 net.cpp:84] Creating Layer pool5/7x7_s1
I0106 23:17:20.713384 16704 net.cpp:380] pool5/7x7_s1 <- inception_5b/output
I0106 23:17:20.713390 16704 net.cpp:338] pool5/7x7_s1 -> pool5/7x7_s1
I0106 23:17:20.713398 16704 net.cpp:113] Setting up pool5/7x7_s1
I0106 23:17:20.713485 16704 net.cpp:120] Top shape: 50 1024 1 1 (51200)
I0106 23:17:20.713492 16704 layer_factory.hpp:74] Creating layer pool5/drop_7x7_s1
I0106 23:17:20.713500 16704 net.cpp:84] Creating Layer pool5/drop_7x7_s1
I0106 23:17:20.713505 16704 net.cpp:380] pool5/drop_7x7_s1 <- pool5/7x7_s1
I0106 23:17:20.713513 16704 net.cpp:327] pool5/drop_7x7_s1 -> pool5/7x7_s1 (in-place)
I0106 23:17:20.713521 16704 net.cpp:113] Setting up pool5/drop_7x7_s1
I0106 23:17:20.713528 16704 net.cpp:120] Top shape: 50 1024 1 1 (51200)
I0106 23:17:20.713534 16704 layer_factory.hpp:74] Creating layer loss3/classifier_kaggle
I0106 23:17:20.713542 16704 net.cpp:84] Creating Layer loss3/classifier_kaggle
I0106 23:17:20.713547 16704 net.cpp:380] loss3/classifier_kaggle <- pool5/7x7_s1
I0106 23:17:20.713557 16704 net.cpp:338] loss3/classifier_kaggle -> loss3/classifier_kaggle
I0106 23:17:20.713565 16704 net.cpp:113] Setting up loss3/classifier_kaggle
I0106 23:17:20.718821 16704 net.cpp:120] Top shape: 50 447 (22350)
I0106 23:17:20.718834 16704 layer_factory.hpp:74] Creating layer loss3/classifier_kaggle_loss3/classifier_kaggle_0_split
I0106 23:17:20.718844 16704 net.cpp:84] Creating Layer loss3/classifier_kaggle_loss3/classifier_kaggle_0_split
I0106 23:17:20.718854 16704 net.cpp:380] loss3/classifier_kaggle_loss3/classifier_kaggle_0_split <- loss3/classifier_kaggle
I0106 23:17:20.718868 16704 net.cpp:338] loss3/classifier_kaggle_loss3/classifier_kaggle_0_split -> loss3/classifier_kaggle_loss3/classifier_kaggle_0_split_0
I0106 23:17:20.718878 16704 net.cpp:338] loss3/classifier_kaggle_loss3/classifier_kaggle_0_split -> loss3/classifier_kaggle_loss3/classifier_kaggle_0_split_1
I0106 23:17:20.718885 16704 net.cpp:338] loss3/classifier_kaggle_loss3/classifier_kaggle_0_split -> loss3/classifier_kaggle_loss3/classifier_kaggle_0_split_2
I0106 23:17:20.718891 16704 net.cpp:113] Setting up loss3/classifier_kaggle_loss3/classifier_kaggle_0_split
I0106 23:17:20.718899 16704 net.cpp:120] Top shape: 50 447 (22350)
I0106 23:17:20.718905 16704 net.cpp:120] Top shape: 50 447 (22350)
I0106 23:17:20.718910 16704 net.cpp:120] Top shape: 50 447 (22350)
I0106 23:17:20.718915 16704 layer_factory.hpp:74] Creating layer loss3/loss3
I0106 23:17:20.718924 16704 net.cpp:84] Creating Layer loss3/loss3
I0106 23:17:20.718930 16704 net.cpp:380] loss3/loss3 <- loss3/classifier_kaggle_loss3/classifier_kaggle_0_split_0
I0106 23:17:20.718935 16704 net.cpp:380] loss3/loss3 <- label_data_1_split_6
I0106 23:17:20.718942 16704 net.cpp:338] loss3/loss3 -> loss3/loss3
…
