…
I1218 11:18:45.599892 17819 net.cpp:257] The NetState phase (0) differed from the phase (1) specified by a rule in layer loss3/top-5
I1218 11:18:45.601698 17819 net.cpp:42] Initializing net from parameters: 
name: "MYNET"
state {
  phase: TRAIN
}
layer {
  name: "data"
  type: "ImageData"
  top: "data"
  top: "label"
  include {
    phase: TRAIN
  }
  transform_param {
    mirror: false
    crop_size: 224
    mean_value: 129
    mean_value: 129
    mean_value: 129
  }
  image_data_param {
    source: "/home/coldmanck/kaggle/label_train_full.txt"
    batch_size: 80
    shuffle: true
  }
}
layer {
  name: "conv1/7x7_s2"
  type: "Convolution"
  bottom: "data"
  top: "conv1/7x7_s2"
  param {
    lr_mult: 1
    decay_mult: 1
  }
  param {
    lr_mult: 2
    decay_mult: 0
  }
  convolution_param {
    num_output: 64
    pad: 3
    kernel_size: 7
    stride: 2
    weight_filler {
      type: "xavier"
    }
    bias_filler {
      type: "constant"
      value: 0.2
    }
  }
}
layer {
  name: "conv1/relu_7x7"
  type: "ReLU"
  bottom: "conv1/7x7_s2"
  top: "conv1/7x7_s2"
}
layer {
  name: "pool1/3x3_s2"
  type: "Pooling"
  bottom: "conv1/7x7_s2"
  top: "pool1/3x3_s2"
  pooling_param {
    pool: MAX
    kernel_size: 3
    stride: 2
  }
}
layer {
  name: "pool1/norm1"
  type: "LRN"
  bottom: "pool1/3x3_s2"
  top: "pool1/norm1"
  lrn_param {
    local_size: 5
    alpha: 0.0001
    beta: 0.75
  }
}
layer {
  name: "conv2/3x3_reduce"
  type: "Convolution"
  bottom: "pool1/norm1"
  top: "conv2/3x3_reduce"
  param {
    lr_mult: 1
    decay_mult: 1
  }
  param {
    lr_mult: 2
    decay_mult: 0
  }
  convolution_param {
    num_output: 64
    kernel_size: 1
    weight_filler {
      type: "xavier"
    }
    bias_filler {
      type: "constant"
      value: 0.2
    }
  }
}
layer {
  name: "conv2/relu_3x3_reduce"
  type: "ReLU"
  bottom: "conv2/3x3_reduce"
  top: "conv2/3x3_reduce"
}
layer {
  name: "conv2/3x3"
  type: "Convolution"
  bottom: "conv2/3x3_reduce"
  top: "conv2/3x3"
  param {
    lr_mult: 1
    decay_mult: 1
  }
  param {
    lr_mult: 2
    decay_mult: 0
  }
  convolution_param {
    num_output: 192
    pad: 1
    kernel_size: 3
    weight_filler {
      type: "xavier"
    }
    bias_filler {
      type: "constant"
      value: 0.2
    }
  }
}
layer {
  name: "conv2/relu_3x3"
  type: "ReLU"
  bottom: "conv2/3x3"
  top: "conv2/3x3"
}
layer {
  name: "conv2/norm2"
  type: "LRN"
  bottom: "conv2/3x3"
  top: "conv2/norm2"
  lrn_param {
    local_size: 5
    alpha: 0.0001
    beta: 0.75
  }
}
layer {
  name: "pool2/3x3_s2"
  type: "Pooling"
  bottom: "conv2/norm2"
  top: "pool2/3x3_s2"
  pooling_param {
    pool: MAX
    kernel_size: 3
    stride: 2
  }
}
layer {
  name: "inception_3a/1x1"
  type: "Convolution"
  bottom: "pool2/3x3_s2"
  top: "inception_3a/1x1"
  param {
    lr_mult: 1
    decay_mult: 1
  }
  param {
    lr_mult: 2
    decay_mult: 0
  }
  convolution_param {
    num_output: 64
    kernel_size: 1
    weight_filler {
      type: "xavier"
    }
    bias_filler {
      type: "constant"
      value: 0.2
    }
  }
}
layer {
  name: "inception_3a/relu_1x1"
  type: "ReLU"
  bottom: "inception_3a/1x1"
  top: "inception_3a/1x1"
}
layer {
  name: "inception_3a/3x3_reduce"
  type: "Convolution"
  bottom: "pool2/3x3_s2"
  top: "inception_3a/3x3_reduce"
  param {
    lr_mult: 1
    decay_mult: 1
  }
  param {
    lr_mult: 2
    decay_mult: 0
  }
  convolution_param {
    num_output: 96
    kernel_size: 1
    weight_filler {
      type: "xavier"
    }
    bias_filler {
      type: "constant"
      value: 0.2
    }
  }
}
layer {
  name: "inception_3a/relu_3x3_reduce"
  type: "ReLU"
  bottom: "inception_3a/3x3_reduce"
  top: "inception_3a/3x3_reduce"
}
layer {
  name: "inception_3a/3x3"
  type: "Convolution"
  bottom: "inception_3a/3x3_reduce"
  top: "inception_3a/3x3"
  param {
    lr_mult: 1
    decay_mult: 1
  }
  param {
    lr_mult: 2
    decay_mult: 0
  }
  convolution_param {
    num_output: 128
    pad: 1
    kernel_size: 3
    weight_filler {
      type: "xavier"
    }
    bias_filler {
      type: "constant"
      value: 0.2
    }
  }
}
layer {
  name: "inception_3a/relu_3x3"
  type: "ReLU"
  bottom: "inception_3a/3x3"
  top: "inception_3a/3x3"
}
layer {
  name: "inception_3a/5x5_reduce"
  type: "Convolution"
  bottom: "pool2/3x3_s2"
  top: "inception_3a/5x5_reduce"
  param {
    lr_mult: 1
    decay_mult: 1
  }
  param {
    lr_mult: 2
    decay_mult: 0
  }
  convolution_param {
    num_output: 16
    kernel_size: 1
    weight_filler {
      type: "xavier"
    }
    bias_filler {
      type: "constant"
      value: 0.2
    }
  }
}
layer {
  name: "inception_3a/relu_5x5_reduce"
  type: "ReLU"
  bottom: "inception_3a/5x5_reduce"
  top: "inception_3a/5x5_reduce"
}
layer {
  name: "inception_3a/5x5"
  type: "Convolution"
  bottom: "inception_3a/5x5_reduce"
  top: "inception_3a/5x5"
  param {
    lr_mult: 1
    decay_mult: 1
  }
  param {
    lr_mult: 2
    decay_mult: 0
  }
  convolution_param {
    num_output: 32
    pad: 2
    kernel_size: 5
    weight_filler {
      type: "xavier"
    }
    bias_filler {
      type: "constant"
      value: 0.2
    }
  }
}
layer {
  name: "inception_3a/relu_5x5"
  type: "ReLU"
  bottom: "inception_3a/5x5"
  top: "inception_3a/5x5"
}
layer {
  name: "inception_3a/pool"
  type: "Pooling"
  bottom: "pool2/3x3_s2"
  top: "inception_3a/pool"
  pooling_param {
    pool: MAX
    kernel_size: 3
    stride: 1
    pad: 1
  }
}
layer {
  name: "inception_3a/pool_proj"
  type: "Convolution"
  bottom: "inception_3a/pool"
  top: "inception_3a/pool_proj"
  param {
    lr_mult: 1
    decay_mult: 1
  }
  param {
    lr_mult: 2
    decay_mult: 0
  }
  convolution_param {
    num_output: 32
    kernel_size: 1
    weight_filler {
      type: "xavier"
    }
    bias_filler {
      type: "constant"
      value: 0.2
    }
  }
}
layer {
  name: "inception_3a/relu_pool_proj"
  type: "ReLU"
  bottom: "inception_3a/pool_proj"
  top: "inception_3a/pool_proj"
}
layer {
  name: "inception_3a/output"
  type: "Concat"
  bottom: "inception_3a/1x1"
  bottom: "inception_3a/3x3"
  bottom: "inception_3a/5x5"
  bottom: "inception_3a/pool_proj"
  top: "inception_3a/output"
}
layer {
  name: "inception_3b/1x1"
  type: "Convolution"
  bottom: "inception_3a/output"
  top: "inception_3b/1x1"
  param {
    lr_mult: 1
    decay_mult: 1
  }
  param {
    lr_mult: 2
    decay_mult: 0
  }
  convolution_param {
    num_output: 128
    kernel_size: 1
    weight_filler {
      type: "xavier"
    }
    bias_filler {
      type: "constant"
      value: 0.2
    }
  }
}
layer {
  name: "inception_3b/relu_1x1"
  type: "ReLU"
  bottom: "inception_3b/1x1"
  top: "inception_3b/1x1"
}
layer {
  name: "inception_3b/3x3_reduce"
  type: "Convolution"
  bottom: "inception_3a/output"
  top: "inception_3b/3x3_reduce"
  param {
    lr_mult: 1
    decay_mult: 1
  }
  param {
    lr_mult: 2
    decay_mult: 0
  }
  convolution_param {
    num_output: 128
    kernel_size: 1
    weight_filler {
      type: "xavier"
    }
    bias_filler {
      type: "constant"
      value: 0.2
    }
  }
}
layer {
  name: "inception_3b/relu_3x3_reduce"
  type: "ReLU"
  bottom: "inception_3b/3x3_reduce"
  top: "inception_3b/3x3_reduce"
}
layer {
  name: "inception_3b/3x3"
  type: "Convolution"
  bottom: "inception_3b/3x3_reduce"
  top: "inception_3b/3x3"
  param {
    lr_mult: 1
    decay_mult: 1
  }
  param {
    lr_mult: 2
    decay_mult: 0
  }
  convolution_param {
    num_output: 192
    pad: 1
    kernel_size: 3
    weight_filler {
      type: "xavier"
    }
    bias_filler {
      type: "constant"
      value: 0.2
    }
  }
}
layer {
  name: "inception_3b/relu_3x3"
  type: "ReLU"
  bottom: "inception_3b/3x3"
  top: "inception_3b/3x3"
}
layer {
  name: "inception_3b/5x5_reduce"
  type: "Convolution"
  bottom: "inception_3a/output"
  top: "inception_3b/5x5_reduce"
  param {
    lr_mult: 1
    decay_mult: 1
  }
  param {
    lr_mult: 2
    decay_mult: 0
  }
  convolution_param {
    num_output: 32
    kernel_size: 1
    weight_filler {
      type: "xavier"
    }
    bias_filler {
      type: "constant"
      value: 0.2
    }
  }
}
layer {
  name: "inception_3b/relu_5x5_reduce"
  type: "ReLU"
  bottom: "inception_3b/5x5_reduce"
  top: "inception_3b/5x5_reduce"
}
layer {
  name: "inception_3b/5x5"
  type: "Convolution"
  bottom: "inception_3b/5x5_reduce"
  top: "inception_3b/5x5"
  param {
    lr_mult: 1
    decay_mult: 1
  }
  param {
    lr_mult: 2
    decay_mult: 0
  }
  convolution_param {
    num_output: 96
    pad: 2
    kernel_size: 5
    weight_filler {
      type: "xavier"
    }
    bias_filler {
      type: "constant"
      value: 0.2
    }
  }
}
layer {
  name: "inception_3b/relu_5x5"
  type: "ReLU"
  bottom: "inception_3b/5x5"
  top: "inception_3b/5x5"
}
layer {
  name: "inception_3b/pool"
  type: "Pooling"
  bottom: "inception_3a/output"
  top: "inception_3b/pool"
  pooling_param {
    pool: MAX
    kernel_size: 3
    stride: 1
    pad: 1
  }
}
layer {
  name: "inception_3b/pool_proj"
  type: "Convolution"
  bottom: "inception_3b/pool"
  top: "inception_3b/pool_proj"
  param {
    lr_mult: 1
    decay_mult: 1
  }
  param {
    lr_mult: 2
    decay_mult: 0
  }
  convolution_param {
    num_output: 64
    kernel_size: 1
    weight_filler {
      type: "xavier"
    }
    bias_filler {
      type: "constant"
      value: 0.2
    }
  }
}
layer {
  name: "inception_3b/relu_pool_proj"
  type: "ReLU"
  bottom: "inception_3b/pool_proj"
  top: "inception_3b/pool_proj"
}
layer {
  name: "inception_3b/output"
  type: "Concat"
  bottom: "inception_3b/1x1"
  bottom: "inception_3b/3x3"
  bottom: "inception_3b/5x5"
  bottom: "inception_3b/pool_proj"
  top: "inception_3b/output"
}
layer {
  name: "pool3/3x3_s2"
  type: "Pooling"
  bottom: "inception_3b/output"
  top: "pool3/3x3_s2"
  pooling_param {
    pool: MAX
    kernel_size: 3
    stride: 2
  }
}
layer {
  name: "inception_4a/1x1"
  type: "Convolution"
  bottom: "pool3/3x3_s2"
  top: "inception_4a/1x1"
  param {
    lr_mult: 1
    decay_mult: 1
  }
  param {
    lr_mult: 2
    decay_mult: 0
  }
  convolution_param {
    num_output: 192
    kernel_size: 1
    weight_filler {
      type: "xavier"
    }
    bias_filler {
      type: "constant"
      value: 0.2
    }
  }
}
layer {
  name: "inception_4a/relu_1x1"
  type: "ReLU"
  bottom: "inception_4a/1x1"
  top: "inception_4a/1x1"
}
layer {
  name: "inception_4a/3x3_reduce"
  type: "Convolution"
  bottom: "pool3/3x3_s2"
  top: "inception_4a/3x3_reduce"
  param {
    lr_mult: 1
    decay_mult: 1
  }
  param {
    lr_mult: 2
    decay_mult: 0
  }
  convolution_param {
    num_output: 96
    kernel_size: 1
    weight_filler {
      type: "xavier"
    }
    bias_filler {
      type: "constant"
      value: 0.2
    }
  }
}
layer {
  name: "inception_4a/relu_3x3_reduce"
  type: "ReLU"
  bottom: "inception_4a/3x3_reduce"
  top: "inception_4a/3x3_reduce"
}
layer {
  name: "inception_4a/3x3"
  type: "Convolution"
  bottom: "inception_4a/3x3_reduce"
  top: "inception_4a/3x3"
  param {
    lr_mult: 1
    decay_mult: 1
  }
  param {
    lr_mult: 2
    decay_mult: 0
  }
  convolution_param {
    num_output: 208
    pad: 1
    kernel_size: 3
    weight_filler {
      type: "xavier"
    }
    bias_filler {
      type: "constant"
      value: 0.2
    }
  }
}
layer {
  name: "inception_4a/relu_3x3"
  type: "ReLU"
  bottom: "inception_4a/3x3"
  top: "inception_4a/3x3"
}
layer {
  name: "inception_4a/5x5_reduce"
  type: "Convolution"
  bottom: "pool3/3x3_s2"
  top: "inception_4a/5x5_reduce"
  param {
    lr_mult: 1
    decay_mult: 1
  }
  param {
    lr_mult: 2
    decay_mult: 0
  }
  convolution_param {
    num_output: 16
    kernel_size: 1
    weight_filler {
      type: "xavier"
    }
    bias_filler {
      type: "constant"
      value: 0.2
    }
  }
}
layer {
  name: "inception_4a/relu_5x5_reduce"
  type: "ReLU"
  bottom: "inception_4a/5x5_reduce"
  top: "inception_4a/5x5_reduce"
}
layer {
  name: "inception_4a/5x5"
  type: "Convolution"
  bottom: "inception_4a/5x5_reduce"
  top: "inception_4a/5x5"
  param {
    lr_mult: 1
    decay_mult: 1
  }
  param {
    lr_mult: 2
    decay_mult: 0
  }
  convolution_param {
    num_output: 48
    pad: 2
    kernel_size: 5
    weight_filler {
      type: "xavier"
    }
    bias_filler {
      type: "constant"
      value: 0.2
    }
  }
}
layer {
  name: "inception_4a/relu_5x5"
  type: "ReLU"
  bottom: "inception_4a/5x5"
  top: "inception_4a/5x5"
}
layer {
  name: "inception_4a/pool"
  type: "Pooling"
  bottom: "pool3/3x3_s2"
  top: "inception_4a/pool"
  pooling_param {
    pool: MAX
    kernel_size: 3
    stride: 1
    pad: 1
  }
}
layer {
  name: "inception_4a/pool_proj"
  type: "Convolution"
  bottom: "inception_4a/pool"
  top: "inception_4a/pool_proj"
  param {
    lr_mult: 1
    decay_mult: 1
  }
  param {
    lr_mult: 2
    decay_mult: 0
  }
  convolution_param {
    num_output: 64
    kernel_size: 1
    weight_filler {
      type: "xavier"
    }
    bias_filler {
      type: "constant"
      value: 0.2
    }
  }
}
layer {
  name: "inception_4a/relu_pool_proj"
  type: "ReLU"
  bottom: "inception_4a/pool_proj"
  top: "inception_4a/pool_proj"
}
layer {
  name: "inception_4a/output"
  type: "Concat"
  bottom: "inception_4a/1x1"
  bottom: "inception_4a/3x3"
  bottom: "inception_4a/5x5"
  bottom: "inception_4a/pool_proj"
  top: "inception_4a/output"
}
layer {
  name: "loss1/ave_pool"
  type: "Pooling"
  bottom: "inception_4a/output"
  top: "loss1/ave_pool"
  pooling_param {
    pool: AVE
    kernel_size: 5
    stride: 3
  }
}
layer {
  name: "loss1/conv"
  type: "Convolution"
  bottom: "loss1/ave_pool"
  top: "loss1/conv"
  param {
    lr_mult: 1
    decay_mult: 1
  }
  param {
    lr_mult: 2
    decay_mult: 0
  }
  convolution_param {
    num_output: 128
    kernel_size: 1
    weight_filler {
      type: "xavier"
    }
    bias_filler {
      type: "constant"
      value: 0.2
    }
  }
}
layer {
  name: "loss1/relu_conv"
  type: "ReLU"
  bottom: "loss1/conv"
  top: "loss1/conv"
}
layer {
  name: "loss1/fc"
  type: "InnerProduct"
  bottom: "loss1/conv"
  top: "loss1/fc"
  param {
    lr_mult: 1
    decay_mult: 1
  }
  param {
    lr_mult: 2
    decay_mult: 0
  }
  inner_product_param {
    num_output: 1024
    weight_filler {
      type: "xavier"
    }
    bias_filler {
      type: "constant"
      value: 0.2
    }
  }
}
layer {
  name: "loss1/relu_fc"
  type: "ReLU"
  bottom: "loss1/fc"
  top: "loss1/fc"
}
layer {
  name: "loss1/drop_fc"
  type: "Dropout"
  bottom: "loss1/fc"
  top: "loss1/fc"
  dropout_param {
    dropout_ratio: 0.7
  }
}
layer {
  name: "loss1/classifier_kaggle"
  type: "InnerProduct"
  bottom: "loss1/fc"
  top: "loss1/classifier_kaggle"
  param {
    lr_mult: 1
    decay_mult: 1
  }
  param {
    lr_mult: 2
    decay_mult: 0
  }
  inner_product_param {
    num_output: 447
    weight_filler {
      type: "xavier"
    }
    bias_filler {
      type: "constant"
      value: 0
    }
  }
}
layer {
  name: "loss1/loss"
  type: "SoftmaxWithLoss"
  bottom: "loss1/classifier_kaggle"
  bottom: "label"
  top: "loss1/loss1"
  loss_weight: 0.3
}
layer {
  name: "inception_4b/1x1"
  type: "Convolution"
  bottom: "inception_4a/output"
  top: "inception_4b/1x1"
  param {
    lr_mult: 1
    decay_mult: 1
  }
  param {
    lr_mult: 2
    decay_mult: 0
  }
  convolution_param {
    num_output: 160
    kernel_size: 1
    weight_filler {
      type: "xavier"
    }
    bias_filler {
      type: "constant"
      value: 0.2
    }
  }
}
layer {
  name: "inception_4b/relu_1x1"
  type: "ReLU"
  bottom: "inception_4b/1x1"
  top: "inception_4b/1x1"
}
layer {
  name: "inception_4b/3x3_reduce"
  type: "Convolution"
  bottom: "inception_4a/output"
  top: "inception_4b/3x3_reduce"
  param {
    lr_mult: 1
    decay_mult: 1
  }
  param {
    lr_mult: 2
    decay_mult: 0
  }
  convolution_param {
    num_output: 112
    kernel_size: 1
    weight_filler {
      type: "xavier"
    }
    bias_filler {
      type: "constant"
      value: 0.2
    }
  }
}
layer {
  name: "inception_4b/relu_3x3_reduce"
  type: "ReLU"
  bottom: "inception_4b/3x3_reduce"
  top: "inception_4b/3x3_reduce"
}
layer {
  name: "inception_4b/3x3"
  type: "Convolution"
  bottom: "inception_4b/3x3_reduce"
  top: "inception_4b/3x3"
  param {
    lr_mult: 1
    decay_mult: 1
  }
  param {
    lr_mult: 2
    decay_mult: 0
  }
  convolution_param {
    num_output: 224
    pad: 1
    kernel_size: 3
    weight_filler {
      type: "xavier"
    }
    bias_filler {
      type: "constant"
      value: 0.2
    }
  }
}
layer {
  name: "inception_4b/relu_3x3"
  type: "ReLU"
  bottom: "inception_4b/3x3"
  top: "inception_4b/3x3"
}
layer {
  name: "inception_4b/5x5_reduce"
  type: "Convolution"
  bottom: "inception_4a/output"
  top: "inception_4b/5x5_reduce"
  param {
    lr_mult: 1
    decay_mult: 1
  }
  param {
    lr_mult: 2
    decay_mult: 0
  }
  convolution_param {
    num_output: 24
    kernel_size: 1
    weight_filler {
      type: "xavier"
    }
    bias_filler {
      type: "constant"
      value: 0.2
    }
  }
}
layer {
  name: "inception_4b/relu_5x5_reduce"
  type: "ReLU"
  bottom: "inception_4b/5x5_reduce"
  top: "inception_4b/5x5_reduce"
}
layer {
  name: "inception_4b/5x5"
  type: "Convolution"
  bottom: "inception_4b/5x5_reduce"
  top: "inception_4b/5x5"
  param {
    lr_mult: 1
    decay_mult: 1
  }
  param {
    lr_mult: 2
    decay_mult: 0
  }
  convolution_param {
    num_output: 64
    pad: 2
    kernel_size: 5
    weight_filler {
      type: "xavier"
    }
    bias_filler {
      type: "constant"
      value: 0.2
    }
  }
}
layer {
  name: "inception_4b/relu_5x5"
  type: "ReLU"
  bottom: "inception_4b/5x5"
  top: "inception_4b/5x5"
}
layer {
  name: "inception_4b/pool"
  type: "Pooling"
  bottom: "inception_4a/output"
  top: "inception_4b/pool"
  pooling_param {
    pool: MAX
    kernel_size: 3
    stride: 1
    pad: 1
  }
}
layer {
  name: "inception_4b/pool_proj"
  type: "Convolution"
  bottom: "inception_4b/pool"
  top: "inception_4b/pool_proj"
  param {
    lr_mult: 1
    decay_mult: 1
  }
  param {
    lr_mult: 2
    decay_mult: 0
  }
  convolution_param {
    num_output: 64
    kernel_size: 1
    weight_filler {
      type: "xavier"
    }
    bias_filler {
      type: "constant"
      value: 0.2
    }
  }
}
layer {
  name: "inception_4b/relu_pool_proj"
  type: "ReLU"
  bottom: "inception_4b/pool_proj"
  top: "inception_4b/pool_proj"
}
layer {
  name: "inception_4b/output"
  type: "Concat"
  bottom: "inception_4b/1x1"
  bottom: "inception_4b/3x3"
  bottom: "inception_4b/5x5"
  bottom: "inception_4b/pool_proj"
  top: "inception_4b/output"
}
layer {
  name: "inception_4c/1x1"
  type: "Convolution"
  bottom: "inception_4b/output"
  top: "inception_4c/1x1"
  param {
    lr_mult: 1
    decay_mult: 1
  }
  param {
    lr_mult: 2
    decay_mult: 0
  }
  convolution_param {
    num_output: 128
    kernel_size: 1
    weight_filler {
      type: "xavier"
    }
    bias_filler {
      type: "constant"
      value: 0.2
    }
  }
}
layer {
  name: "inception_4c/relu_1x1"
  type: "ReLU"
  bottom: "inception_4c/1x1"
  top: "inception_4c/1x1"
}
layer {
  name: "inception_4c/3x3_reduce"
  type: "Convolution"
  bottom: "inception_4b/output"
  top: "inception_4c/3x3_reduce"
  param {
    lr_mult: 1
    decay_mult: 1
  }
  param {
    lr_mult: 2
    decay_mult: 0
  }
  convolution_param {
    num_output: 128
    kernel_size: 1
    weight_filler {
      type: "xavier"
    }
    bias_filler {
      type: "constant"
      value: 0.2
    }
  }
}
layer {
  name: "inception_4c/relu_3x3_reduce"
  type: "ReLU"
  bottom: "inception_4c/3x3_reduce"
  top: "inception_4c/3x3_reduce"
}
layer {
  name: "inception_4c/3x3"
  type: "Convolution"
  bottom: "inception_4c/3x3_reduce"
  top: "inception_4c/3x3"
  param {
    lr_mult: 1
    decay_mult: 1
  }
  param {
    lr_mult: 2
    decay_mult: 0
  }
  convolution_param {
    num_output: 256
    pad: 1
    kernel_size: 3
    weight_filler {
      type: "xavier"
    }
    bias_filler {
      type: "constant"
      value: 0.2
    }
  }
}
layer {
  name: "inception_4c/relu_3x3"
  type: "ReLU"
  bottom: "inception_4c/3x3"
  top: "inception_4c/3x3"
}
layer {
  name: "inception_4c/5x5_reduce"
  type: "Convolution"
  bottom: "inception_4b/output"
  top: "inception_4c/5x5_reduce"
  param {
    lr_mult: 1
    decay_mult: 1
  }
  param {
    lr_mult: 2
    decay_mult: 0
  }
  convolution_param {
    num_output: 24
    kernel_size: 1
    weight_filler {
      type: "xavier"
    }
    bias_filler {
      type: "constant"
      value: 0.2
    }
  }
}
layer {
  name: "inception_4c/relu_5x5_reduce"
  type: "ReLU"
  bottom: "inception_4c/5x5_reduce"
  top: "inception_4c/5x5_reduce"
}
layer {
  name: "inception_4c/5x5"
  type: "Convolution"
  bottom: "inception_4c/5x5_reduce"
  top: "inception_4c/5x5"
  param {
    lr_mult: 1
    decay_mult: 1
  }
  param {
    lr_mult: 2
    decay_mult: 0
  }
  convolution_param {
    num_output: 64
    pad: 2
    kernel_size: 5
    weight_filler {
      type: "xavier"
    }
    bias_filler {
      type: "constant"
      value: 0.2
    }
  }
}
layer {
  name: "inception_4c/relu_5x5"
  type: "ReLU"
  bottom: "inception_4c/5x5"
  top: "inception_4c/5x5"
}
layer {
  name: "inception_4c/pool"
  type: "Pooling"
  bottom: "inception_4b/output"
  top: "inception_4c/pool"
  pooling_param {
    pool: MAX
    kernel_size: 3
    stride: 1
    pad: 1
  }
}
layer {
  name: "inception_4c/pool_proj"
  type: "Convolution"
  bottom: "inception_4c/pool"
  top: "inception_4c/pool_proj"
  param {
    lr_mult: 1
    decay_mult: 1
  }
  param {
    lr_mult: 2
    decay_mult: 0
  }
  convolution_param {
    num_output: 64
    kernel_size: 1
    weight_filler {
      type: "xavier"
    }
    bias_filler {
      type: "constant"
      value: 0.2
    }
  }
}
layer {
  name: "inception_4c/relu_pool_proj"
  type: "ReLU"
  bottom: "inception_4c/pool_proj"
  top: "inception_4c/pool_proj"
}
layer {
  name: "inception_4c/output"
  type: "Concat"
  bottom: "inception_4c/1x1"
  bottom: "inception_4c/3x3"
  bottom: "inception_4c/5x5"
  bottom: "inception_4c/pool_proj"
  top: "inception_4c/output"
}
layer {
  name: "inception_4d/1x1"
  type: "Convolution"
  bottom: "inception_4c/output"
  top: "inception_4d/1x1"
  param {
    lr_mult: 1
    decay_mult: 1
  }
  param {
    lr_mult: 2
    decay_mult: 0
  }
  convolution_param {
    num_output: 112
    kernel_size: 1
    weight_filler {
      type: "xavier"
    }
    bias_filler {
      type: "constant"
      value: 0.2
    }
  }
}
layer {
  name: "inception_4d/relu_1x1"
  type: "ReLU"
  bottom: "inception_4d/1x1"
  top: "inception_4d/1x1"
}
layer {
  name: "inception_4d/3x3_reduce"
  type: "Convolution"
  bottom: "inception_4c/output"
  top: "inception_4d/3x3_reduce"
  param {
    lr_mult: 1
    decay_mult: 1
  }
  param {
    lr_mult: 2
    decay_mult: 0
  }
  convolution_param {
    num_output: 144
    kernel_size: 1
    weight_filler {
      type: "xavier"
    }
    bias_filler {
      type: "constant"
      value: 0.2
    }
  }
}
layer {
  name: "inception_4d/relu_3x3_reduce"
  type: "ReLU"
  bottom: "inception_4d/3x3_reduce"
  top: "inception_4d/3x3_reduce"
}
layer {
  name: "inception_4d/3x3"
  type: "Convolution"
  bottom: "inception_4d/3x3_reduce"
  top: "inception_4d/3x3"
  param {
    lr_mult: 1
    decay_mult: 1
  }
  param {
    lr_mult: 2
    decay_mult: 0
  }
  convolution_param {
    num_output: 288
    pad: 1
    kernel_size: 3
    weight_filler {
      type: "xavier"
    }
    bias_filler {
      type: "constant"
      value: 0.2
    }
  }
}
layer {
  name: "inception_4d/relu_3x3"
  type: "ReLU"
  bottom: "inception_4d/3x3"
  top: "inception_4d/3x3"
}
layer {
  name: "inception_4d/5x5_reduce"
  type: "Convolution"
  bottom: "inception_4c/output"
  top: "inception_4d/5x5_reduce"
  param {
    lr_mult: 1
    decay_mult: 1
  }
  param {
    lr_mult: 2
    decay_mult: 0
  }
  convolution_param {
    num_output: 32
    kernel_size: 1
    weight_filler {
      type: "xavier"
    }
    bias_filler {
      type: "constant"
      value: 0.2
    }
  }
}
layer {
  name: "inception_4d/relu_5x5_reduce"
  type: "ReLU"
  bottom: "inception_4d/5x5_reduce"
  top: "inception_4d/5x5_reduce"
}
layer {
  name: "inception_4d/5x5"
  type: "Convolution"
  bottom: "inception_4d/5x5_reduce"
  top: "inception_4d/5x5"
  param {
    lr_mult: 1
    decay_mult: 1
  }
  param {
    lr_mult: 2
    decay_mult: 0
  }
  convolution_param {
    num_output: 64
    pad: 2
    kernel_size: 5
    weight_filler {
      type: "xavier"
    }
    bias_filler {
      type: "constant"
      value: 0.2
    }
  }
}
layer {
  name: "inception_4d/relu_5x5"
  type: "ReLU"
  bottom: "inception_4d/5x5"
  top: "inception_4d/5x5"
}
layer {
  name: "inception_4d/pool"
  type: "Pooling"
  bottom: "inception_4c/output"
  top: "inception_4d/pool"
  pooling_param {
    pool: MAX
    kernel_size: 3
    stride: 1
    pad: 1
  }
}
layer {
  name: "inception_4d/pool_proj"
  type: "Convolution"
  bottom: "inception_4d/pool"
  top: "inception_4d/pool_proj"
  param {
    lr_mult: 1
    decay_mult: 1
  }
  param {
    lr_mult: 2
    decay_mult: 0
  }
  convolution_param {
    num_output: 64
    kernel_size: 1
    weight_filler {
      type: "xavier"
    }
    bias_filler {
      type: "constant"
      value: 0.2
    }
  }
}
layer {
  name: "inception_4d/relu_pool_proj"
  type: "ReLU"
  bottom: "inception_4d/pool_proj"
  top: "inception_4d/pool_proj"
}
layer {
  name: "inception_4d/output"
  type: "Concat"
  bottom: "inception_4d/1x1"
  bottom: "inception_4d/3x3"
  bottom: "inception_4d/5x5"
  bottom: "inception_4d/pool_proj"
  top: "inception_4d/output"
}
layer {
  name: "loss2/ave_pool"
  type: "Pooling"
  bottom: "inception_4d/output"
  top: "loss2/ave_pool"
  pooling_param {
    pool: AVE
    kernel_size: 5
    stride: 3
  }
}
layer {
  name: "loss2/conv"
  type: "Convolution"
  bottom: "loss2/ave_pool"
  top: "loss2/conv"
  param {
    lr_mult: 1
    decay_mult: 1
  }
  param {
    lr_mult: 2
    decay_mult: 0
  }
  convolution_param {
    num_output: 128
    kernel_size: 1
    weight_filler {
      type: "xavier"
    }
    bias_filler {
      type: "constant"
      value: 0.2
    }
  }
}
layer {
  name: "loss2/relu_conv"
  type: "ReLU"
  bottom: "loss2/conv"
  top: "loss2/conv"
}
layer {
  name: "loss2/fc"
  type: "InnerProduct"
  bottom: "loss2/conv"
  top: "loss2/fc"
  param {
    lr_mult: 1
    decay_mult: 1
  }
  param {
    lr_mult: 2
    decay_mult: 0
  }
  inner_product_param {
    num_output: 1024
    weight_filler {
      type: "xavier"
    }
    bias_filler {
      type: "constant"
      value: 0.2
    }
  }
}
layer {
  name: "loss2/relu_fc"
  type: "ReLU"
  bottom: "loss2/fc"
  top: "loss2/fc"
}
layer {
  name: "loss2/drop_fc"
  type: "Dropout"
  bottom: "loss2/fc"
  top: "loss2/fc"
  dropout_param {
    dropout_ratio: 0.7
  }
}
layer {
  name: "loss2/classifier_kaggle"
  type: "InnerProduct"
  bottom: "loss2/fc"
  top: "loss2/classifier_kaggle"
  param {
    lr_mult: 1
    decay_mult: 1
  }
  param {
    lr_mult: 2
    decay_mult: 0
  }
  inner_product_param {
    num_output: 447
    weight_filler {
      type: "xavier"
    }
    bias_filler {
      type: "constant"
      value: 0
    }
  }
}
layer {
  name: "loss2/loss"
  type: "SoftmaxWithLoss"
  bottom: "loss2/classifier_kaggle"
  bottom: "label"
  top: "loss2/loss1"
  loss_weight: 0.3
}
layer {
  name: "inception_4e/1x1"
  type: "Convolution"
  bottom: "inception_4d/output"
  top: "inception_4e/1x1"
  param {
    lr_mult: 1
    decay_mult: 1
  }
  param {
    lr_mult: 2
    decay_mult: 0
  }
  convolution_param {
    num_output: 256
    kernel_size: 1
    weight_filler {
      type: "xavier"
    }
    bias_filler {
      type: "constant"
      value: 0.2
    }
  }
}
layer {
  name: "inception_4e/relu_1x1"
  type: "ReLU"
  bottom: "inception_4e/1x1"
  top: "inception_4e/1x1"
}
layer {
  name: "inception_4e/3x3_reduce"
  type: "Convolution"
  bottom: "inception_4d/output"
  top: "inception_4e/3x3_reduce"
  param {
    lr_mult: 1
    decay_mult: 1
  }
  param {
    lr_mult: 2
    decay_mult: 0
  }
  convolution_param {
    num_output: 160
    kernel_size: 1
    weight_filler {
      type: "xavier"
    }
    bias_filler {
      type: "constant"
      value: 0.2
    }
  }
}
layer {
  name: "inception_4e/relu_3x3_reduce"
  type: "ReLU"
  bottom: "inception_4e/3x3_reduce"
  top: "inception_4e/3x3_reduce"
}
layer {
  name: "inception_4e/3x3"
  type: "Convolution"
  bottom: "inception_4e/3x3_reduce"
  top: "inception_4e/3x3"
  param {
    lr_mult: 1
    decay_mult: 1
  }
  param {
    lr_mult: 2
    decay_mult: 0
  }
  convolution_param {
    num_output: 320
    pad: 1
    kernel_size: 3
    weight_filler {
      type: "xavier"
    }
    bias_filler {
      type: "constant"
      value: 0.2
    }
  }
}
layer {
  name: "inception_4e/relu_3x3"
  type: "ReLU"
  bottom: "inception_4e/3x3"
  top: "inception_4e/3x3"
}
layer {
  name: "inception_4e/5x5_reduce"
  type: "Convolution"
  bottom: "inception_4d/output"
  top: "inception_4e/5x5_reduce"
  param {
    lr_mult: 1
    decay_mult: 1
  }
  param {
    lr_mult: 2
    decay_mult: 0
  }
  convolution_param {
    num_output: 32
    kernel_size: 1
    weight_filler {
      type: "xavier"
    }
    bias_filler {
      type: "constant"
      value: 0.2
    }
  }
}
layer {
  name: "inception_4e/relu_5x5_reduce"
  type: "ReLU"
  bottom: "inception_4e/5x5_reduce"
  top: "inception_4e/5x5_reduce"
}
layer {
  name: "inception_4e/5x5"
  type: "Convolution"
  bottom: "inception_4e/5x5_reduce"
  top: "inception_4e/5x5"
  param {
    lr_mult: 1
    decay_mult: 1
  }
  param {
    lr_mult: 2
    decay_mult: 0
  }
  convolution_param {
    num_output: 128
    pad: 2
    kernel_size: 5
    weight_filler {
      type: "xavier"
    }
    bias_filler {
      type: "constant"
      value: 0.2
    }
  }
}
layer {
  name: "inception_4e/relu_5x5"
  type: "ReLU"
  bottom: "inception_4e/5x5"
  top: "inception_4e/5x5"
}
layer {
  name: "inception_4e/pool"
  type: "Pooling"
  bottom: "inception_4d/output"
  top: "inception_4e/pool"
  pooling_p
I1218 11:18:45.602669 17819 layer_factory.hpp:74] Creating layer data
I1218 11:18:45.602705 17819 net.cpp:84] Creating Layer data
I1218 11:18:45.602716 17819 net.cpp:338] data -> data
I1218 11:18:45.602756 17819 net.cpp:338] data -> label
I1218 11:18:45.602768 17819 net.cpp:113] Setting up data
I1218 11:18:45.602782 17819 image_data_layer.cpp:36] Opening file /home/coldmanck/kaggle/label_train_full.txt
I1218 11:18:45.605602 17819 image_data_layer.cpp:46] Shuffling data
I1218 11:18:45.606603 17819 image_data_layer.cpp:51] A total of 4235 images.
I1218 11:18:45.607470 17819 image_data_layer.cpp:80] output data size: 80,3,224,224
I1218 11:18:45.943342 17819 net.cpp:120] Top shape: 80 3 224 224 (12042240)
I1218 11:18:45.943416 17819 net.cpp:120] Top shape: 80 (80)
I1218 11:18:45.943514 17819 layer_factory.hpp:74] Creating layer label_data_1_split
I1218 11:18:45.943610 17819 net.cpp:84] Creating Layer label_data_1_split
I1218 11:18:45.943622 17819 net.cpp:380] label_data_1_split <- label
I1218 11:18:45.943660 17819 net.cpp:338] label_data_1_split -> label_data_1_split_0
I1218 11:18:45.943681 17819 net.cpp:338] label_data_1_split -> label_data_1_split_1
I1218 11:18:45.943702 17819 net.cpp:338] label_data_1_split -> label_data_1_split_2
I1218 11:18:45.943727 17819 net.cpp:113] Setting up label_data_1_split
I1218 11:18:45.943742 17819 net.cpp:120] Top shape: 80 (80)
I1218 11:18:45.943749 17819 net.cpp:120] Top shape: 80 (80)
I1218 11:18:45.943756 17819 net.cpp:120] Top shape: 80 (80)
I1218 11:18:45.943763 17819 layer_factory.hpp:74] Creating layer conv1/7x7_s2
I1218 11:18:45.943784 17819 net.cpp:84] Creating Layer conv1/7x7_s2
I1218 11:18:45.943792 17819 net.cpp:380] conv1/7x7_s2 <- data
I1218 11:18:45.943811 17819 net.cpp:338] conv1/7x7_s2 -> conv1/7x7_s2
I1218 11:18:45.943827 17819 net.cpp:113] Setting up conv1/7x7_s2
I1218 11:18:46.320469 17819 net.cpp:120] Top shape: 80 64 112 112 (64225280)
I1218 11:18:46.324558 17819 layer_factory.hpp:74] Creating layer conv1/relu_7x7
I1218 11:18:46.324590 17819 net.cpp:84] Creating Layer conv1/relu_7x7
I1218 11:18:46.324597 17819 net.cpp:380] conv1/relu_7x7 <- conv1/7x7_s2
I1218 11:18:46.324610 17819 net.cpp:327] conv1/relu_7x7 -> conv1/7x7_s2 (in-place)
I1218 11:18:46.324625 17819 net.cpp:113] Setting up conv1/relu_7x7
I1218 11:18:46.325511 17819 net.cpp:120] Top shape: 80 64 112 112 (64225280)
I1218 11:18:46.325527 17819 layer_factory.hpp:74] Creating layer pool1/3x3_s2
I1218 11:18:46.325640 17819 net.cpp:84] Creating Layer pool1/3x3_s2
I1218 11:18:46.325647 17819 net.cpp:380] pool1/3x3_s2 <- conv1/7x7_s2
I1218 11:18:46.325657 17819 net.cpp:338] pool1/3x3_s2 -> pool1/3x3_s2
I1218 11:18:46.325667 17819 net.cpp:113] Setting up pool1/3x3_s2
I1218 11:18:46.329329 17819 net.cpp:120] Top shape: 80 64 56 56 (16056320)
I1218 11:18:46.329350 17819 layer_factory.hpp:74] Creating layer pool1/norm1
I1218 11:18:46.329363 17819 net.cpp:84] Creating Layer pool1/norm1
I1218 11:18:46.329370 17819 net.cpp:380] pool1/norm1 <- pool1/3x3_s2
I1218 11:18:46.329377 17819 net.cpp:338] pool1/norm1 -> pool1/norm1
I1218 11:18:46.329390 17819 net.cpp:113] Setting up pool1/norm1
I1218 11:18:46.329398 17819 net.cpp:120] Top shape: 80 64 56 56 (16056320)
I1218 11:18:46.329404 17819 layer_factory.hpp:74] Creating layer conv2/3x3_reduce
I1218 11:18:46.329416 17819 net.cpp:84] Creating Layer conv2/3x3_reduce
I1218 11:18:46.329421 17819 net.cpp:380] conv2/3x3_reduce <- pool1/norm1
I1218 11:18:46.329429 17819 net.cpp:338] conv2/3x3_reduce -> conv2/3x3_reduce
I1218 11:18:46.329442 17819 net.cpp:113] Setting up conv2/3x3_reduce
I1218 11:18:46.330095 17819 net.cpp:120] Top shape: 80 64 56 56 (16056320)
I1218 11:18:46.330116 17819 layer_factory.hpp:74] Creating layer conv2/relu_3x3_reduce
I1218 11:18:46.330128 17819 net.cpp:84] Creating Layer conv2/relu_3x3_reduce
I1218 11:18:46.330134 17819 net.cpp:380] conv2/relu_3x3_reduce <- conv2/3x3_reduce
I1218 11:18:46.330796 17819 net.cpp:327] conv2/relu_3x3_reduce -> conv2/3x3_reduce (in-place)
I1218 11:18:46.330806 17819 net.cpp:113] Setting up conv2/relu_3x3_reduce
I1218 11:18:46.330881 17819 net.cpp:120] Top shape: 80 64 56 56 (16056320)
I1218 11:18:46.330888 17819 layer_factory.hpp:74] Creating layer conv2/3x3
I1218 11:18:46.330899 17819 net.cpp:84] Creating Layer conv2/3x3
I1218 11:18:46.330904 17819 net.cpp:380] conv2/3x3 <- conv2/3x3_reduce
I1218 11:18:46.330914 17819 net.cpp:338] conv2/3x3 -> conv2/3x3
I1218 11:18:46.330924 17819 net.cpp:113] Setting up conv2/3x3
I1218 11:18:46.333662 17819 net.cpp:120] Top shape: 80 192 56 56 (48168960)
I1218 11:18:46.333999 17819 layer_factory.hpp:74] Creating layer conv2/relu_3x3
I1218 11:18:46.334013 17819 net.cpp:84] Creating Layer conv2/relu_3x3
I1218 11:18:46.334019 17819 net.cpp:380] conv2/relu_3x3 <- conv2/3x3
I1218 11:18:46.334028 17819 net.cpp:327] conv2/relu_3x3 -> conv2/3x3 (in-place)
I1218 11:18:46.334036 17819 net.cpp:113] Setting up conv2/relu_3x3
I1218 11:18:46.334357 17819 net.cpp:120] Top shape: 80 192 56 56 (48168960)
I1218 11:18:46.334372 17819 layer_factory.hpp:74] Creating layer conv2/norm2
I1218 11:18:46.334383 17819 net.cpp:84] Creating Layer conv2/norm2
I1218 11:18:46.334388 17819 net.cpp:380] conv2/norm2 <- conv2/3x3
I1218 11:18:46.334398 17819 net.cpp:338] conv2/norm2 -> conv2/norm2
I1218 11:18:46.334417 17819 net.cpp:113] Setting up conv2/norm2
I1218 11:18:46.334439 17819 net.cpp:120] Top shape: 80 192 56 56 (48168960)
I1218 11:18:46.334444 17819 layer_factory.hpp:74] Creating layer pool2/3x3_s2
I1218 11:18:46.334455 17819 net.cpp:84] Creating Layer pool2/3x3_s2
I1218 11:18:46.334460 17819 net.cpp:380] pool2/3x3_s2 <- conv2/norm2
I1218 11:18:46.334468 17819 net.cpp:338] pool2/3x3_s2 -> pool2/3x3_s2
I1218 11:18:46.334475 17819 net.cpp:113] Setting up pool2/3x3_s2
I1218 11:18:46.334558 17819 net.cpp:120] Top shape: 80 192 28 28 (12042240)
I1218 11:18:46.334565 17819 layer_factory.hpp:74] Creating layer pool2/3x3_s2_pool2/3x3_s2_0_split
I1218 11:18:46.334575 17819 net.cpp:84] Creating Layer pool2/3x3_s2_pool2/3x3_s2_0_split
I1218 11:18:46.334580 17819 net.cpp:380] pool2/3x3_s2_pool2/3x3_s2_0_split <- pool2/3x3_s2
I1218 11:18:46.334589 17819 net.cpp:338] pool2/3x3_s2_pool2/3x3_s2_0_split -> pool2/3x3_s2_pool2/3x3_s2_0_split_0
I1218 11:18:46.334597 17819 net.cpp:338] pool2/3x3_s2_pool2/3x3_s2_0_split -> pool2/3x3_s2_pool2/3x3_s2_0_split_1
I1218 11:18:46.334606 17819 net.cpp:338] pool2/3x3_s2_pool2/3x3_s2_0_split -> pool2/3x3_s2_pool2/3x3_s2_0_split_2
I1218 11:18:46.334614 17819 net.cpp:338] pool2/3x3_s2_pool2/3x3_s2_0_split -> pool2/3x3_s2_pool2/3x3_s2_0_split_3
I1218 11:18:46.334619 17819 net.cpp:113] Setting up pool2/3x3_s2_pool2/3x3_s2_0_split
I1218 11:18:46.334627 17819 net.cpp:120] Top shape: 80 192 28 28 (12042240)
I1218 11:18:46.334633 17819 net.cpp:120] Top shape: 80 192 28 28 (12042240)
I1218 11:18:46.334638 17819 net.cpp:120] Top shape: 80 192 28 28 (12042240)
I1218 11:18:46.334643 17819 net.cpp:120] Top shape: 80 192 28 28 (12042240)
I1218 11:18:46.334650 17819 layer_factory.hpp:74] Creating layer inception_3a/1x1
I1218 11:18:46.334661 17819 net.cpp:84] Creating Layer inception_3a/1x1
I1218 11:18:46.334666 17819 net.cpp:380] inception_3a/1x1 <- pool2/3x3_s2_pool2/3x3_s2_0_split_0
I1218 11:18:46.334673 17819 net.cpp:338] inception_3a/1x1 -> inception_3a/1x1
I1218 11:18:46.334682 17819 net.cpp:113] Setting up inception_3a/1x1
I1218 11:18:46.335253 17819 net.cpp:120] Top shape: 80 64 28 28 (4014080)
I1218 11:18:46.335269 17819 layer_factory.hpp:74] Creating layer inception_3a/relu_1x1
I1218 11:18:46.335278 17819 net.cpp:84] Creating Layer inception_3a/relu_1x1
I1218 11:18:46.335284 17819 net.cpp:380] inception_3a/relu_1x1 <- inception_3a/1x1
I1218 11:18:46.335295 17819 net.cpp:327] inception_3a/relu_1x1 -> inception_3a/1x1 (in-place)
I1218 11:18:46.335302 17819 net.cpp:113] Setting up inception_3a/relu_1x1
I1218 11:18:46.335378 17819 net.cpp:120] Top shape: 80 64 28 28 (4014080)
I1218 11:18:46.335386 17819 layer_factory.hpp:74] Creating layer inception_3a/3x3_reduce
I1218 11:18:46.335397 17819 net.cpp:84] Creating Layer inception_3a/3x3_reduce
I1218 11:18:46.335402 17819 net.cpp:380] inception_3a/3x3_reduce <- pool2/3x3_s2_pool2/3x3_s2_0_split_1
I1218 11:18:46.335412 17819 net.cpp:338] inception_3a/3x3_reduce -> inception_3a/3x3_reduce
I1218 11:18:46.335422 17819 net.cpp:113] Setting up inception_3a/3x3_reduce
I1218 11:18:46.336225 17819 net.cpp:120] Top shape: 80 96 28 28 (6021120)
I1218 11:18:46.336246 17819 layer_factory.hpp:74] Creating layer inception_3a/relu_3x3_reduce
I1218 11:18:46.336258 17819 net.cpp:84] Creating Layer inception_3a/relu_3x3_reduce
I1218 11:18:46.336264 17819 net.cpp:380] inception_3a/relu_3x3_reduce <- inception_3a/3x3_reduce
I1218 11:18:46.336273 17819 net.cpp:327] inception_3a/relu_3x3_reduce -> inception_3a/3x3_reduce (in-place)
I1218 11:18:46.336282 17819 net.cpp:113] Setting up inception_3a/relu_3x3_reduce
I1218 11:18:46.336375 17819 net.cpp:120] Top shape: 80 96 28 28 (6021120)
I1218 11:18:46.336383 17819 layer_factory.hpp:74] Creating layer inception_3a/3x3
I1218 11:18:46.336396 17819 net.cpp:84] Creating Layer inception_3a/3x3
I1218 11:18:46.336401 17819 net.cpp:380] inception_3a/3x3 <- inception_3a/3x3_reduce
I1218 11:18:46.336410 17819 net.cpp:338] inception_3a/3x3 -> inception_3a/3x3
I1218 11:18:46.336419 17819 net.cpp:113] Setting up inception_3a/3x3
I1218 11:18:46.338615 17819 net.cpp:120] Top shape: 80 128 28 28 (8028160)
I1218 11:18:46.338649 17819 layer_factory.hpp:74] Creating layer inception_3a/relu_3x3
I1218 11:18:46.338659 17819 net.cpp:84] Creating Layer inception_3a/relu_3x3
I1218 11:18:46.338665 17819 net.cpp:380] inception_3a/relu_3x3 <- inception_3a/3x3
I1218 11:18:46.338673 17819 net.cpp:327] inception_3a/relu_3x3 -> inception_3a/3x3 (in-place)
I1218 11:18:46.338681 17819 net.cpp:113] Setting up inception_3a/relu_3x3
I1218 11:18:46.338994 17819 net.cpp:120] Top shape: 80 128 28 28 (8028160)
I1218 11:18:46.339007 17819 layer_factory.hpp:74] Creating layer inception_3a/5x5_reduce
I1218 11:18:46.339020 17819 net.cpp:84] Creating Layer inception_3a/5x5_reduce
I1218 11:18:46.339026 17819 net.cpp:380] inception_3a/5x5_reduce <- pool2/3x3_s2_pool2/3x3_s2_0_split_2
I1218 11:18:46.339035 17819 net.cpp:338] inception_3a/5x5_reduce -> inception_3a/5x5_reduce
I1218 11:18:46.339047 17819 net.cpp:113] Setting up inception_3a/5x5_reduce
I1218 11:18:46.339530 17819 net.cpp:120] Top shape: 80 16 28 28 (1003520)
I1218 11:18:46.339546 17819 layer_factory.hpp:74] Creating layer inception_3a/relu_5x5_reduce
I1218 11:18:46.339555 17819 net.cpp:84] Creating Layer inception_3a/relu_5x5_reduce
I1218 11:18:46.339560 17819 net.cpp:380] inception_3a/relu_5x5_reduce <- inception_3a/5x5_reduce
I1218 11:18:46.339570 17819 net.cpp:327] inception_3a/relu_5x5_reduce -> inception_3a/5x5_reduce (in-place)
I1218 11:18:46.339577 17819 net.cpp:113] Setting up inception_3a/relu_5x5_reduce
I1218 11:18:46.339661 17819 net.cpp:120] Top shape: 80 16 28 28 (1003520)
I1218 11:18:46.339668 17819 layer_factory.hpp:74] Creating layer inception_3a/5x5
I1218 11:18:46.339678 17819 net.cpp:84] Creating Layer inception_3a/5x5
I1218 11:18:46.339682 17819 net.cpp:380] inception_3a/5x5 <- inception_3a/5x5_reduce
I1218 11:18:46.339691 17819 net.cpp:338] inception_3a/5x5 -> inception_3a/5x5
I1218 11:18:46.339701 17819 net.cpp:113] Setting up inception_3a/5x5
I1218 11:18:46.340323 17819 net.cpp:120] Top shape: 80 32 28 28 (2007040)
I1218 11:18:46.340339 17819 layer_factory.hpp:74] Creating layer inception_3a/relu_5x5
I1218 11:18:46.340348 17819 net.cpp:84] Creating Layer inception_3a/relu_5x5
I1218 11:18:46.340354 17819 net.cpp:380] inception_3a/relu_5x5 <- inception_3a/5x5
I1218 11:18:46.340361 17819 net.cpp:327] inception_3a/relu_5x5 -> inception_3a/5x5 (in-place)
I1218 11:18:46.340369 17819 net.cpp:113] Setting up inception_3a/relu_5x5
I1218 11:18:46.340476 17819 net.cpp:120] Top shape: 80 32 28 28 (2007040)
I1218 11:18:46.340484 17819 layer_factory.hpp:74] Creating layer inception_3a/pool
I1218 11:18:46.340489 17819 layer_factory.cpp:56] CUDNN does not support padding or multiple tops. Using Caffe's own pooling layer.
I1218 11:18:46.340498 17819 net.cpp:84] Creating Layer inception_3a/pool
I1218 11:18:46.340503 17819 net.cpp:380] inception_3a/pool <- pool2/3x3_s2_pool2/3x3_s2_0_split_3
I1218 11:18:46.340512 17819 net.cpp:338] inception_3a/pool -> inception_3a/pool
I1218 11:18:46.340520 17819 net.cpp:113] Setting up inception_3a/pool
I1218 11:18:46.340529 17819 net.cpp:120] Top shape: 80 192 28 28 (12042240)
I1218 11:18:46.340535 17819 layer_factory.hpp:74] Creating layer inception_3a/pool_proj
I1218 11:18:46.340548 17819 net.cpp:84] Creating Layer inception_3a/pool_proj
I1218 11:18:46.340553 17819 net.cpp:380] inception_3a/pool_proj <- inception_3a/pool
I1218 11:18:46.340562 17819 net.cpp:338] inception_3a/pool_proj -> inception_3a/pool_proj
I1218 11:18:46.340570 17819 net.cpp:113] Setting up inception_3a/pool_proj
I1218 11:18:46.341178 17819 net.cpp:120] Top shape: 80 32 28 28 (2007040)
I1218 11:18:46.341198 17819 layer_factory.hpp:74] Creating layer inception_3a/relu_pool_proj
I1218 11:18:46.341207 17819 net.cpp:84] Creating Layer inception_3a/relu_pool_proj
I1218 11:18:46.341212 17819 net.cpp:380] inception_3a/relu_pool_proj <- inception_3a/pool_proj
I1218 11:18:46.341219 17819 net.cpp:327] inception_3a/relu_pool_proj -> inception_3a/pool_proj (in-place)
I1218 11:18:46.341234 17819 net.cpp:113] Setting up inception_3a/relu_pool_proj
I1218 11:18:46.341346 17819 net.cpp:120] Top shape: 80 32 28 28 (2007040)
I1218 11:18:46.341354 17819 layer_factory.hpp:74] Creating layer inception_3a/output
I1218 11:18:46.341366 17819 net.cpp:84] Creating Layer inception_3a/output
I1218 11:18:46.341370 17819 net.cpp:380] inception_3a/output <- inception_3a/1x1
I1218 11:18:46.341377 17819 net.cpp:380] inception_3a/output <- inception_3a/3x3
I1218 11:18:46.341382 17819 net.cpp:380] inception_3a/output <- inception_3a/5x5
I1218 11:18:46.341388 17819 net.cpp:380] inception_3a/output <- inception_3a/pool_proj
I1218 11:18:46.341394 17819 net.cpp:338] inception_3a/output -> inception_3a/output
I1218 11:18:46.341403 17819 net.cpp:113] Setting up inception_3a/output
I1218 11:18:46.341413 17819 net.cpp:120] Top shape: 80 256 28 28 (16056320)
I1218 11:18:46.341418 17819 layer_factory.hpp:74] Creating layer inception_3a/output_inception_3a/output_0_split
I1218 11:18:46.341424 17819 net.cpp:84] Creating Layer inception_3a/output_inception_3a/output_0_split
I1218 11:18:46.341429 17819 net.cpp:380] inception_3a/output_inception_3a/output_0_split <- inception_3a/output
I1218 11:18:46.341437 17819 net.cpp:338] inception_3a/output_inception_3a/output_0_split -> inception_3a/output_inception_3a/output_0_split_0
I1218 11:18:46.341447 17819 net.cpp:338] inception_3a/output_inception_3a/output_0_split -> inception_3a/output_inception_3a/output_0_split_1
I1218 11:18:46.341455 17819 net.cpp:338] inception_3a/output_inception_3a/output_0_split -> inception_3a/output_inception_3a/output_0_split_2
I1218 11:18:46.341462 17819 net.cpp:338] inception_3a/output_inception_3a/output_0_split -> inception_3a/output_inception_3a/output_0_split_3
I1218 11:18:46.341469 17819 net.cpp:113] Setting up inception_3a/output_inception_3a/output_0_split
I1218 11:18:46.341476 17819 net.cpp:120] Top shape: 80 256 28 28 (16056320)
I1218 11:18:46.341481 17819 net.cpp:120] Top shape: 80 256 28 28 (16056320)
I1218 11:18:46.341487 17819 net.cpp:120] Top shape: 80 256 28 28 (16056320)
I1218 11:18:46.341492 17819 net.cpp:120] Top shape: 80 256 28 28 (16056320)
I1218 11:18:46.341498 17819 layer_factory.hpp:74] Creating layer inception_3b/1x1
I1218 11:18:46.341509 17819 net.cpp:84] Creating Layer inception_3b/1x1
I1218 11:18:46.341514 17819 net.cpp:380] inception_3b/1x1 <- inception_3a/output_inception_3a/output_0_split_0
I1218 11:18:46.341521 17819 net.cpp:338] inception_3b/1x1 -> inception_3b/1x1
I1218 11:18:46.341529 17819 net.cpp:113] Setting up inception_3b/1x1
I1218 11:18:46.342453 17819 net.cpp:120] Top shape: 80 128 28 28 (8028160)
I1218 11:18:46.342469 17819 layer_factory.hpp:74] Creating layer inception_3b/relu_1x1
I1218 11:18:46.342476 17819 net.cpp:84] Creating Layer inception_3b/relu_1x1
I1218 11:18:46.342481 17819 net.cpp:380] inception_3b/relu_1x1 <- inception_3b/1x1
I1218 11:18:46.342490 17819 net.cpp:327] inception_3b/relu_1x1 -> inception_3b/1x1 (in-place)
I1218 11:18:46.342499 17819 net.cpp:113] Setting up inception_3b/relu_1x1
I1218 11:18:46.342772 17819 net.cpp:120] Top shape: 80 128 28 28 (8028160)
I1218 11:18:46.342782 17819 layer_factory.hpp:74] Creating layer inception_3b/3x3_reduce
I1218 11:18:46.342794 17819 net.cpp:84] Creating Layer inception_3b/3x3_reduce
I1218 11:18:46.342799 17819 net.cpp:380] inception_3b/3x3_reduce <- inception_3a/output_inception_3a/output_0_split_1
I1218 11:18:46.342808 17819 net.cpp:338] inception_3b/3x3_reduce -> inception_3b/3x3_reduce
I1218 11:18:46.342816 17819 net.cpp:113] Setting up inception_3b/3x3_reduce
I1218 11:18:46.343720 17819 net.cpp:120] Top shape: 80 128 28 28 (8028160)
I1218 11:18:46.343736 17819 layer_factory.hpp:74] Creating layer inception_3b/relu_3x3_reduce
I1218 11:18:46.343746 17819 net.cpp:84] Creating Layer inception_3b/relu_3x3_reduce
I1218 11:18:46.343755 17819 net.cpp:380] inception_3b/relu_3x3_reduce <- inception_3b/3x3_reduce
I1218 11:18:46.343761 17819 net.cpp:327] inception_3b/relu_3x3_reduce -> inception_3b/3x3_reduce (in-place)
I1218 11:18:46.343770 17819 net.cpp:113] Setting up inception_3b/relu_3x3_reduce
I1218 11:18:46.343852 17819 net.cpp:120] Top shape: 80 128 28 28 (8028160)
I1218 11:18:46.343868 17819 layer_factory.hpp:74] Creating layer inception_3b/3x3
I1218 11:18:46.343885 17819 net.cpp:84] Creating Layer inception_3b/3x3
I1218 11:18:46.343890 17819 net.cpp:380] inception_3b/3x3 <- inception_3b/3x3_reduce
I1218 11:18:46.343900 17819 net.cpp:338] inception_3b/3x3 -> inception_3b/3x3
I1218 11:18:46.343910 17819 net.cpp:113] Setting up inception_3b/3x3
I1218 11:18:46.347131 17819 net.cpp:120] Top shape: 80 192 28 28 (12042240)
I1218 11:18:46.347151 17819 layer_factory.hpp:74] Creating layer inception_3b/relu_3x3
I1218 11:18:46.347159 17819 net.cpp:84] Creating Layer inception_3b/relu_3x3
I1218 11:18:46.347167 17819 net.cpp:380] inception_3b/relu_3x3 <- inception_3b/3x3
I1218 11:18:46.347177 17819 net.cpp:327] inception_3b/relu_3x3 -> inception_3b/3x3 (in-place)
I1218 11:18:46.347187 17819 net.cpp:113] Setting up inception_3b/relu_3x3
I1218 11:18:46.347264 17819 net.cpp:120] Top shape: 80 192 28 28 (12042240)
I1218 11:18:46.347271 17819 layer_factory.hpp:74] Creating layer inception_3b/5x5_reduce
I1218 11:18:46.347280 17819 net.cpp:84] Creating Layer inception_3b/5x5_reduce
I1218 11:18:46.347285 17819 net.cpp:380] inception_3b/5x5_reduce <- inception_3a/output_inception_3a/output_0_split_2
I1218 11:18:46.347295 17819 net.cpp:338] inception_3b/5x5_reduce -> inception_3b/5x5_reduce
I1218 11:18:46.347306 17819 net.cpp:113] Setting up inception_3b/5x5_reduce
I1218 11:18:46.347903 17819 net.cpp:120] Top shape: 80 32 28 28 (2007040)
I1218 11:18:46.347919 17819 layer_factory.hpp:74] Creating layer inception_3b/relu_5x5_reduce
I1218 11:18:46.347932 17819 net.cpp:84] Creating Layer inception_3b/relu_5x5_reduce
I1218 11:18:46.347939 17819 net.cpp:380] inception_3b/relu_5x5_reduce <- inception_3b/5x5_reduce
I1218 11:18:46.347945 17819 net.cpp:327] inception_3b/relu_5x5_reduce -> inception_3b/5x5_reduce (in-place)
I1218 11:18:46.347955 17819 net.cpp:113] Setting up inception_3b/relu_5x5_reduce
I1218 11:18:46.348029 17819 net.cpp:120] Top shape: 80 32 28 28 (2007040)
I1218 11:18:46.348037 17819 layer_factory.hpp:74] Creating layer inception_3b/5x5
I1218 11:18:46.348047 17819 net.cpp:84] Creating Layer inception_3b/5x5
I1218 11:18:46.348053 17819 net.cpp:380] inception_3b/5x5 <- inception_3b/5x5_reduce
I1218 11:18:46.348062 17819 net.cpp:338] inception_3b/5x5 -> inception_3b/5x5
I1218 11:18:46.348074 17819 net.cpp:113] Setting up inception_3b/5x5
I1218 11:18:46.349520 17819 net.cpp:120] Top shape: 80 96 28 28 (6021120)
I1218 11:18:46.349540 17819 layer_factory.hpp:74] Creating layer inception_3b/relu_5x5
I1218 11:18:46.349551 17819 net.cpp:84] Creating Layer inception_3b/relu_5x5
I1218 11:18:46.349556 17819 net.cpp:380] inception_3b/relu_5x5 <- inception_3b/5x5
I1218 11:18:46.349565 17819 net.cpp:327] inception_3b/relu_5x5 -> inception_3b/5x5 (in-place)
I1218 11:18:46.349575 17819 net.cpp:113] Setting up inception_3b/relu_5x5
I1218 11:18:46.349854 17819 net.cpp:120] Top shape: 80 96 28 28 (6021120)
I1218 11:18:46.349869 17819 layer_factory.hpp:74] Creating layer inception_3b/pool
I1218 11:18:46.349877 17819 layer_factory.cpp:56] CUDNN does not support padding or multiple tops. Using Caffe's own pooling layer.
I1218 11:18:46.349884 17819 net.cpp:84] Creating Layer inception_3b/pool
I1218 11:18:46.349889 17819 net.cpp:380] inception_3b/pool <- inception_3a/output_inception_3a/output_0_split_3
I1218 11:18:46.349901 17819 net.cpp:338] inception_3b/pool -> inception_3b/pool
I1218 11:18:46.349912 17819 net.cpp:113] Setting up inception_3b/pool
I1218 11:18:46.349921 17819 net.cpp:120] Top shape: 80 256 28 28 (16056320)
I1218 11:18:46.349925 17819 layer_factory.hpp:74] Creating layer inception_3b/pool_proj
I1218 11:18:46.349936 17819 net.cpp:84] Creating Layer inception_3b/pool_proj
I1218 11:18:46.349942 17819 net.cpp:380] inception_3b/pool_proj <- inception_3b/pool
I1218 11:18:46.349951 17819 net.cpp:338] inception_3b/pool_proj -> inception_3b/pool_proj
I1218 11:18:46.349958 17819 net.cpp:113] Setting up inception_3b/pool_proj
I1218 11:18:46.350654 17819 net.cpp:120] Top shape: 80 64 28 28 (4014080)
I1218 11:18:46.350682 17819 layer_factory.hpp:74] Creating layer inception_3b/relu_pool_proj
I1218 11:18:46.350692 17819 net.cpp:84] Creating Layer inception_3b/relu_pool_proj
I1218 11:18:46.350699 17819 net.cpp:380] inception_3b/relu_pool_proj <- inception_3b/pool_proj
I1218 11:18:46.350708 17819 net.cpp:327] inception_3b/relu_pool_proj -> inception_3b/pool_proj (in-place)
I1218 11:18:46.350716 17819 net.cpp:113] Setting up inception_3b/relu_pool_proj
I1218 11:18:46.350817 17819 net.cpp:120] Top shape: 80 64 28 28 (4014080)
I1218 11:18:46.350826 17819 layer_factory.hpp:74] Creating layer inception_3b/output
I1218 11:18:46.350836 17819 net.cpp:84] Creating Layer inception_3b/output
I1218 11:18:46.350841 17819 net.cpp:380] inception_3b/output <- inception_3b/1x1
I1218 11:18:46.350848 17819 net.cpp:380] inception_3b/output <- inception_3b/3x3
I1218 11:18:46.350854 17819 net.cpp:380] inception_3b/output <- inception_3b/5x5
I1218 11:18:46.350859 17819 net.cpp:380] inception_3b/output <- inception_3b/pool_proj
I1218 11:18:46.350865 17819 net.cpp:338] inception_3b/output -> inception_3b/output
I1218 11:18:46.350873 17819 net.cpp:113] Setting up inception_3b/output
I1218 11:18:46.350882 17819 net.cpp:120] Top shape: 80 480 28 28 (30105600)
I1218 11:18:46.350888 17819 layer_factory.hpp:74] Creating layer pool3/3x3_s2
I1218 11:18:46.350898 17819 net.cpp:84] Creating Layer pool3/3x3_s2
I1218 11:18:46.350903 17819 net.cpp:380] pool3/3x3_s2 <- inception_3b/output
I1218 11:18:46.350909 17819 net.cpp:338] pool3/3x3_s2 -> pool3/3x3_s2
I1218 11:18:46.350916 17819 net.cpp:113] Setting up pool3/3x3_s2
I1218 11:18:46.350989 17819 net.cpp:120] Top shape: 80 480 14 14 (7526400)
I1218 11:18:46.350996 17819 layer_factory.hpp:74] Creating layer pool3/3x3_s2_pool3/3x3_s2_0_split
I1218 11:18:46.351003 17819 net.cpp:84] Creating Layer pool3/3x3_s2_pool3/3x3_s2_0_split
I1218 11:18:46.351008 17819 net.cpp:380] pool3/3x3_s2_pool3/3x3_s2_0_split <- pool3/3x3_s2
I1218 11:18:46.351014 17819 net.cpp:338] pool3/3x3_s2_pool3/3x3_s2_0_split -> pool3/3x3_s2_pool3/3x3_s2_0_split_0
I1218 11:18:46.351022 17819 net.cpp:338] pool3/3x3_s2_pool3/3x3_s2_0_split -> pool3/3x3_s2_pool3/3x3_s2_0_split_1
I1218 11:18:46.351029 17819 net.cpp:338] pool3/3x3_s2_pool3/3x3_s2_0_split -> pool3/3x3_s2_pool3/3x3_s2_0_split_2
I1218 11:18:46.351035 17819 net.cpp:338] pool3/3x3_s2_pool3/3x3_s2_0_split -> pool3/3x3_s2_pool3/3x3_s2_0_split_3
I1218 11:18:46.351042 17819 net.cpp:113] Setting up pool3/3x3_s2_pool3/3x3_s2_0_split
I1218 11:18:46.351052 17819 net.cpp:120] Top shape: 80 480 14 14 (7526400)
I1218 11:18:46.351057 17819 net.cpp:120] Top shape: 80 480 14 14 (7526400)
I1218 11:18:46.351063 17819 net.cpp:120] Top shape: 80 480 14 14 (7526400)
I1218 11:18:46.351068 17819 net.cpp:120] Top shape: 80 480 14 14 (7526400)
I1218 11:18:46.351071 17819 layer_factory.hpp:74] Creating layer inception_4a/1x1
I1218 11:18:46.351080 17819 net.cpp:84] Creating Layer inception_4a/1x1
I1218 11:18:46.351085 17819 net.cpp:380] inception_4a/1x1 <- pool3/3x3_s2_pool3/3x3_s2_0_split_0
I1218 11:18:46.351092 17819 net.cpp:338] inception_4a/1x1 -> inception_4a/1x1
I1218 11:18:46.351099 17819 net.cpp:113] Setting up inception_4a/1x1
I1218 11:18:46.352756 17819 net.cpp:120] Top shape: 80 192 14 14 (3010560)
I1218 11:18:46.352772 17819 layer_factory.hpp:74] Creating layer inception_4a/relu_1x1
I1218 11:18:46.352782 17819 net.cpp:84] Creating Layer inception_4a/relu_1x1
I1218 11:18:46.352787 17819 net.cpp:380] inception_4a/relu_1x1 <- inception_4a/1x1
I1218 11:18:46.352797 17819 net.cpp:327] inception_4a/relu_1x1 -> inception_4a/1x1 (in-place)
I1218 11:18:46.352807 17819 net.cpp:113] Setting up inception_4a/relu_1x1
I1218 11:18:46.353097 17819 net.cpp:120] Top shape: 80 192 14 14 (3010560)
I1218 11:18:46.353111 17819 layer_factory.hpp:74] Creating layer inception_4a/3x3_reduce
I1218 11:18:46.353126 17819 net.cpp:84] Creating Layer inception_4a/3x3_reduce
I1218 11:18:46.353130 17819 net.cpp:380] inception_4a/3x3_reduce <- pool3/3x3_s2_pool3/3x3_s2_0_split_1
I1218 11:18:46.353143 17819 net.cpp:338] inception_4a/3x3_reduce -> inception_4a/3x3_reduce
I1218 11:18:46.353160 17819 net.cpp:113] Setting up inception_4a/3x3_reduce
I1218 11:18:46.354552 17819 net.cpp:120] Top shape: 80 96 14 14 (1505280)
I1218 11:18:46.354576 17819 layer_factory.hpp:74] Creating layer inception_4a/relu_3x3_reduce
I1218 11:18:46.354588 17819 net.cpp:84] Creating Layer inception_4a/relu_3x3_reduce
I1218 11:18:46.354595 17819 net.cpp:380] inception_4a/relu_3x3_reduce <- inception_4a/3x3_reduce
I1218 11:18:46.354603 17819 net.cpp:327] inception_4a/relu_3x3_reduce -> inception_4a/3x3_reduce (in-place)
I1218 11:18:46.354610 17819 net.cpp:113] Setting up inception_4a/relu_3x3_reduce
I1218 11:18:46.354694 17819 net.cpp:120] Top shape: 80 96 14 14 (1505280)
I1218 11:18:46.354702 17819 layer_factory.hpp:74] Creating layer inception_4a/3x3
I1218 11:18:46.354712 17819 net.cpp:84] Creating Layer inception_4a/3x3
I1218 11:18:46.354717 17819 net.cpp:380] inception_4a/3x3 <- inception_4a/3x3_reduce
I1218 11:18:46.354727 17819 net.cpp:338] inception_4a/3x3 -> inception_4a/3x3
I1218 11:18:46.354737 17819 net.cpp:113] Setting up inception_4a/3x3
I1218 11:18:46.357635 17819 net.cpp:120] Top shape: 80 208 14 14 (3261440)
I1218 11:18:46.357659 17819 layer_factory.hpp:74] Creating layer inception_4a/relu_3x3
I1218 11:18:46.357671 17819 net.cpp:84] Creating Layer inception_4a/relu_3x3
I1218 11:18:46.357681 17819 net.cpp:380] inception_4a/relu_3x3 <- inception_4a/3x3
I1218 11:18:46.357692 17819 net.cpp:327] inception_4a/relu_3x3 -> inception_4a/3x3 (in-place)
I1218 11:18:46.357700 17819 net.cpp:113] Setting up inception_4a/relu_3x3
I1218 11:18:46.357779 17819 net.cpp:120] Top shape: 80 208 14 14 (3261440)
I1218 11:18:46.357786 17819 layer_factory.hpp:74] Creating layer inception_4a/5x5_reduce
I1218 11:18:46.357801 17819 net.cpp:84] Creating Layer inception_4a/5x5_reduce
I1218 11:18:46.357808 17819 net.cpp:380] inception_4a/5x5_reduce <- pool3/3x3_s2_pool3/3x3_s2_0_split_2
I1218 11:18:46.357815 17819 net.cpp:338] inception_4a/5x5_reduce -> inception_4a/5x5_reduce
I1218 11:18:46.357825 17819 net.cpp:113] Setting up inception_4a/5x5_reduce
I1218 11:18:46.358803 17819 net.cpp:120] Top shape: 80 16 14 14 (250880)
I1218 11:18:46.358824 17819 layer_factory.hpp:74] Creating layer inception_4a/relu_5x5_reduce
I1218 11:18:46.358831 17819 net.cpp:84] Creating Layer inception_4a/relu_5x5_reduce
I1218 11:18:46.358839 17819 net.cpp:380] inception_4a/relu_5x5_reduce <- inception_4a/5x5_reduce
I1218 11:18:46.358847 17819 net.cpp:327] inception_4a/relu_5x5_reduce -> inception_4a/5x5_reduce (in-place)
I1218 11:18:46.358855 17819 net.cpp:113] Setting up inception_4a/relu_5x5_reduce
I1218 11:18:46.358947 17819 net.cpp:120] Top shape: 80 16 14 14 (250880)
I1218 11:18:46.358958 17819 layer_factory.hpp:74] Creating layer inception_4a/5x5
I1218 11:18:46.358970 17819 net.cpp:84] Creating Layer inception_4a/5x5
I1218 11:18:46.358978 17819 net.cpp:380] inception_4a/5x5 <- inception_4a/5x5_reduce
I1218 11:18:46.358986 17819 net.cpp:338] inception_4a/5x5 -> inception_4a/5x5
I1218 11:18:46.358996 17819 net.cpp:113] Setting up inception_4a/5x5
I1218 11:18:46.360049 17819 net.cpp:120] Top shape: 80 48 14 14 (752640)
I1218 11:18:46.360066 17819 layer_factory.hpp:74] Creating layer inception_4a/relu_5x5
I1218 11:18:46.360083 17819 net.cpp:84] Creating Layer inception_4a/relu_5x5
I1218 11:18:46.360090 17819 net.cpp:380] inception_4a/relu_5x5 <- inception_4a/5x5
I1218 11:18:46.360097 17819 net.cpp:327] inception_4a/relu_5x5 -> inception_4a/5x5 (in-place)
I1218 11:18:46.360106 17819 net.cpp:113] Setting up inception_4a/relu_5x5
I1218 11:18:46.360415 17819 net.cpp:120] Top shape: 80 48 14 14 (752640)
I1218 11:18:46.360430 17819 layer_factory.hpp:74] Creating layer inception_4a/pool
I1218 11:18:46.360437 17819 layer_factory.cpp:56] CUDNN does not support padding or multiple tops. Using Caffe's own pooling layer.
I1218 11:18:46.360445 17819 net.cpp:84] Creating Layer inception_4a/pool
I1218 11:18:46.360450 17819 net.cpp:380] inception_4a/pool <- pool3/3x3_s2_pool3/3x3_s2_0_split_3
I1218 11:18:46.360476 17819 net.cpp:338] inception_4a/pool -> inception_4a/pool
I1218 11:18:46.360486 17819 net.cpp:113] Setting up inception_4a/pool
I1218 11:18:46.360496 17819 net.cpp:120] Top shape: 80 480 14 14 (7526400)
I1218 11:18:46.360503 17819 layer_factory.hpp:74] Creating layer inception_4a/pool_proj
I1218 11:18:46.360515 17819 net.cpp:84] Creating Layer inception_4a/pool_proj
I1218 11:18:46.360522 17819 net.cpp:380] inception_4a/pool_proj <- inception_4a/pool
I1218 11:18:46.360529 17819 net.cpp:338] inception_4a/pool_proj -> inception_4a/pool_proj
I1218 11:18:46.360538 17819 net.cpp:113] Setting up inception_4a/pool_proj
I1218 11:18:46.361428 17819 net.cpp:120] Top shape: 80 64 14 14 (1003520)
I1218 11:18:46.361446 17819 layer_factory.hpp:74] Creating layer inception_4a/relu_pool_proj
I1218 11:18:46.361454 17819 net.cpp:84] Creating Layer inception_4a/relu_pool_proj
I1218 11:18:46.361459 17819 net.cpp:380] inception_4a/relu_pool_proj <- inception_4a/pool_proj
I1218 11:18:46.361469 17819 net.cpp:327] inception_4a/relu_pool_proj -> inception_4a/pool_proj (in-place)
I1218 11:18:46.361477 17819 net.cpp:113] Setting up inception_4a/relu_pool_proj
I1218 11:18:46.361549 17819 net.cpp:120] Top shape: 80 64 14 14 (1003520)
I1218 11:18:46.361556 17819 layer_factory.hpp:74] Creating layer inception_4a/output
I1218 11:18:46.361564 17819 net.cpp:84] Creating Layer inception_4a/output
I1218 11:18:46.361569 17819 net.cpp:380] inception_4a/output <- inception_4a/1x1
I1218 11:18:46.361575 17819 net.cpp:380] inception_4a/output <- inception_4a/3x3
I1218 11:18:46.361580 17819 net.cpp:380] inception_4a/output <- inception_4a/5x5
I1218 11:18:46.361585 17819 net.cpp:380] inception_4a/output <- inception_4a/pool_proj
I1218 11:18:46.361591 17819 net.cpp:338] inception_4a/output -> inception_4a/output
I1218 11:18:46.361598 17819 net.cpp:113] Setting up inception_4a/output
I1218 11:18:46.361606 17819 net.cpp:120] Top shape: 80 512 14 14 (8028160)
I1218 11:18:46.361611 17819 layer_factory.hpp:74] Creating layer inception_4a/output_inception_4a/output_0_split
I1218 11:18:46.361621 17819 net.cpp:84] Creating Layer inception_4a/output_inception_4a/output_0_split
I1218 11:18:46.361625 17819 net.cpp:380] inception_4a/output_inception_4a/output_0_split <- inception_4a/output
I1218 11:18:46.361632 17819 net.cpp:338] inception_4a/output_inception_4a/output_0_split -> inception_4a/output_inception_4a/output_0_split_0
I1218 11:18:46.361639 17819 net.cpp:338] inception_4a/output_inception_4a/output_0_split -> inception_4a/output_inception_4a/output_0_split_1
I1218 11:18:46.361647 17819 net.cpp:338] inception_4a/output_inception_4a/output_0_split -> inception_4a/output_inception_4a/output_0_split_2
I1218 11:18:46.361656 17819 net.cpp:338] inception_4a/output_inception_4a/output_0_split -> inception_4a/output_inception_4a/output_0_split_3
I1218 11:18:46.361663 17819 net.cpp:338] inception_4a/output_inception_4a/output_0_split -> inception_4a/output_inception_4a/output_0_split_4
I1218 11:18:46.361670 17819 net.cpp:113] Setting up inception_4a/output_inception_4a/output_0_split
I1218 11:18:46.361677 17819 net.cpp:120] Top shape: 80 512 14 14 (8028160)
I1218 11:18:46.361683 17819 net.cpp:120] Top shape: 80 512 14 14 (8028160)
I1218 11:18:46.361688 17819 net.cpp:120] Top shape: 80 512 14 14 (8028160)
I1218 11:18:46.361693 17819 net.cpp:120] Top shape: 80 512 14 14 (8028160)
I1218 11:18:46.361698 17819 net.cpp:120] Top shape: 80 512 14 14 (8028160)
I1218 11:18:46.361703 17819 layer_factory.hpp:74] Creating layer loss1/ave_pool
I1218 11:18:46.361709 17819 net.cpp:84] Creating Layer loss1/ave_pool
I1218 11:18:46.361714 17819 net.cpp:380] loss1/ave_pool <- inception_4a/output_inception_4a/output_0_split_0
I1218 11:18:46.361722 17819 net.cpp:338] loss1/ave_pool -> loss1/ave_pool
I1218 11:18:46.361729 17819 net.cpp:113] Setting up loss1/ave_pool
I1218 11:18:46.361802 17819 net.cpp:120] Top shape: 80 512 4 4 (655360)
I1218 11:18:46.361810 17819 layer_factory.hpp:74] Creating layer loss1/conv
I1218 11:18:46.361829 17819 net.cpp:84] Creating Layer loss1/conv
I1218 11:18:46.361845 17819 net.cpp:380] loss1/conv <- loss1/ave_pool
I1218 11:18:46.361857 17819 net.cpp:338] loss1/conv -> loss1/conv
I1218 11:18:46.361866 17819 net.cpp:113] Setting up loss1/conv
I1218 11:18:46.363204 17819 net.cpp:120] Top shape: 80 128 4 4 (163840)
I1218 11:18:46.363221 17819 layer_factory.hpp:74] Creating layer loss1/relu_conv
I1218 11:18:46.363232 17819 net.cpp:84] Creating Layer loss1/relu_conv
I1218 11:18:46.363239 17819 net.cpp:380] loss1/relu_conv <- loss1/conv
I1218 11:18:46.363248 17819 net.cpp:327] loss1/relu_conv -> loss1/conv (in-place)
I1218 11:18:46.363256 17819 net.cpp:113] Setting up loss1/relu_conv
I1218 11:18:46.363337 17819 net.cpp:120] Top shape: 80 128 4 4 (163840)
I1218 11:18:46.363343 17819 layer_factory.hpp:74] Creating layer loss1/fc
I1218 11:18:46.363351 17819 net.cpp:84] Creating Layer loss1/fc
I1218 11:18:46.363356 17819 net.cpp:380] loss1/fc <- loss1/conv
I1218 11:18:46.363365 17819 net.cpp:338] loss1/fc -> loss1/fc
I1218 11:18:46.363376 17819 net.cpp:113] Setting up loss1/fc
I1218 11:18:46.440012 17819 net.cpp:120] Top shape: 80 1024 (81920)
I1218 11:18:46.440063 17819 layer_factory.hpp:74] Creating layer loss1/relu_fc
I1218 11:18:46.440084 17819 net.cpp:84] Creating Layer loss1/relu_fc
I1218 11:18:46.440096 17819 net.cpp:380] loss1/relu_fc <- loss1/fc
I1218 11:18:46.440109 17819 net.cpp:327] loss1/relu_fc -> loss1/fc (in-place)
I1218 11:18:46.440124 17819 net.cpp:113] Setting up loss1/relu_fc
I1218 11:18:46.440681 17819 net.cpp:120] Top shape: 80 1024 (81920)
I1218 11:18:46.440716 17819 layer_factory.hpp:74] Creating layer loss1/drop_fc
I1218 11:18:46.440745 17819 net.cpp:84] Creating Layer loss1/drop_fc
I1218 11:18:46.440754 17819 net.cpp:380] loss1/drop_fc <- loss1/fc
I1218 11:18:46.440765 17819 net.cpp:327] loss1/drop_fc -> loss1/fc (in-place)
I1218 11:18:46.440781 17819 net.cpp:113] Setting up loss1/drop_fc
I1218 11:18:46.440796 17819 net.cpp:120] Top shape: 80 1024 (81920)
I1218 11:18:46.440804 17819 layer_factory.hpp:74] Creating layer loss1/classifier_kaggle
I1218 11:18:46.440827 17819 net.cpp:84] Creating Layer loss1/classifier_kaggle
I1218 11:18:46.440834 17819 net.cpp:380] loss1/classifier_kaggle <- loss1/fc
I1218 11:18:46.440846 17819 net.cpp:338] loss1/classifier_kaggle -> loss1/classifier_kaggle
I1218 11:18:46.440860 17819 net.cpp:113] Setting up loss1/classifier_kaggle
I1218 11:18:46.449297 17819 net.cpp:120] Top shape: 80 447 (35760)
I1218 11:18:46.449319 17819 layer_factory.hpp:74] Creating layer loss1/loss
I1218 11:18:46.449331 17819 net.cpp:84] Creating Layer loss1/loss
I1218 11:18:46.449339 17819 net.cpp:380] loss1/loss <- loss1/classifier_kaggle
I1218 11:18:46.449349 17819 net.cpp:380] loss1/loss <- label_data_1_split_0
I1218 11:18:46.449359 17819 net.cpp:338] loss1/loss -> loss1/loss1
I1218 11:18:46.449372 17819 net.cpp:113] Setting up loss1/loss
I1218 11:18:46.449383 17819 layer_factory.hpp:74] Creating layer loss1/loss
I1218 11:18:46.449635 17819 net.cpp:120] Top shape: (1)
I1218 11:18:46.449646 17819 net.cpp:122]     with loss weight 0.3
I1218 11:18:46.449672 17819 layer_factory.hpp:74] Creating layer inception_4b/1x1
I1218 11:18:46.449697 17819 net.cpp:84] Creating Layer inception_4b/1x1
I1218 11:18:46.449707 17819 net.cpp:380] inception_4b/1x1 <- inception_4a/output_inception_4a/output_0_split_1
I1218 11:18:46.449723 17819 net.cpp:338] inception_4b/1x1 -> inception_4b/1x1
I1218 11:18:46.449736 17819 net.cpp:113] Setting up inception_4b/1x1
I1218 11:18:46.451813 17819 net.cpp:120] Top shape: 80 160 14 14 (2508800)
I1218 11:18:46.451839 17819 layer_factory.hpp:74] Creating layer inception_4b/relu_1x1
I1218 11:18:46.451864 17819 net.cpp:84] Creating Layer inception_4b/relu_1x1
I1218 11:18:46.451871 17819 net.cpp:380] inception_4b/relu_1x1 <- inception_4b/1x1
I1218 11:18:46.451882 17819 net.cpp:327] inception_4b/relu_1x1 -> inception_4b/1x1 (in-place)
I1218 11:18:46.451894 17819 net.cpp:113] Setting up inception_4b/relu_1x1
I1218 11:18:46.452004 17819 net.cpp:120] Top shape: 80 160 14 14 (2508800)
I1218 11:18:46.452026 17819 layer_factory.hpp:74] Creating layer inception_4b/3x3_reduce
I1218 11:18:46.452064 17819 net.cpp:84] Creating Layer inception_4b/3x3_reduce
I1218 11:18:46.452072 17819 net.cpp:380] inception_4b/3x3_reduce <- inception_4a/output_inception_4a/output_0_split_2
I1218 11:18:46.452083 17819 net.cpp:338] inception_4b/3x3_reduce -> inception_4b/3x3_reduce
I1218 11:18:46.452095 17819 net.cpp:113] Setting up inception_4b/3x3_reduce
I1218 11:18:46.453719 17819 net.cpp:120] Top shape: 80 112 14 14 (1756160)
I1218 11:18:46.453743 17819 layer_factory.hpp:74] Creating layer inception_4b/relu_3x3_reduce
I1218 11:18:46.453795 17819 net.cpp:84] Creating Layer inception_4b/relu_3x3_reduce
I1218 11:18:46.453805 17819 net.cpp:380] inception_4b/relu_3x3_reduce <- inception_4b/3x3_reduce
I1218 11:18:46.453817 17819 net.cpp:327] inception_4b/relu_3x3_reduce -> inception_4b/3x3_reduce (in-place)
I1218 11:18:46.453830 17819 net.cpp:113] Setting up inception_4b/relu_3x3_reduce
I1218 11:18:46.453934 17819 net.cpp:120] Top shape: 80 112 14 14 (1756160)
I1218 11:18:46.453944 17819 layer_factory.hpp:74] Creating layer inception_4b/3x3
I1218 11:18:46.453958 17819 net.cpp:84] Creating Layer inception_4b/3x3
I1218 11:18:46.453965 17819 net.cpp:380] inception_4b/3x3 <- inception_4b/3x3_reduce
I1218 11:18:46.453975 17819 net.cpp:338] inception_4b/3x3 -> inception_4b/3x3
I1218 11:18:46.453987 17819 net.cpp:113] Setting up inception_4b/3x3
I1218 11:18:46.458464 17819 net.cpp:120] Top shape: 80 224 14 14 (3512320)
I1218 11:18:46.458488 17819 layer_factory.hpp:74] Creating layer inception_4b/relu_3x3
I1218 11:18:46.458500 17819 net.cpp:84] Creating Layer inception_4b/relu_3x3
I1218 11:18:46.458509 17819 net.cpp:380] inception_4b/relu_3x3 <- inception_4b/3x3
I1218 11:18:46.458530 17819 net.cpp:327] inception_4b/relu_3x3 -> inception_4b/3x3 (in-place)
I1218 11:18:46.458542 17819 net.cpp:113] Setting up inception_4b/relu_3x3
I1218 11:18:46.458884 17819 net.cpp:120] Top shape: 80 224 14 14 (3512320)
I1218 11:18:46.458909 17819 layer_factory.hpp:74] Creating layer inception_4b/5x5_reduce
I1218 11:18:46.458923 17819 net.cpp:84] Creating Layer inception_4b/5x5_reduce
I1218 11:18:46.458932 17819 net.cpp:380] inception_4b/5x5_reduce <- inception_4a/output_inception_4a/output_0_split_3
I1218 11:18:46.458945 17819 net.cpp:338] inception_4b/5x5_reduce -> inception_4b/5x5_reduce
I1218 11:18:46.458958 17819 net.cpp:113] Setting up inception_4b/5x5_reduce
I1218 11:18:46.459791 17819 net.cpp:120] Top shape: 80 24 14 14 (376320)
I1218 11:18:46.459812 17819 layer_factory.hpp:74] Creating layer inception_4b/relu_5x5_reduce
I1218 11:18:46.459822 17819 net.cpp:84] Creating Layer inception_4b/relu_5x5_reduce
I1218 11:18:46.459831 17819 net.cpp:380] inception_4b/relu_5x5_reduce <- inception_4b/5x5_reduce
I1218 11:18:46.459843 17819 net.cpp:327] inception_4b/relu_5x5_reduce -> inception_4b/5x5_reduce (in-place)
I1218 11:18:46.459854 17819 net.cpp:113] Setting up inception_4b/relu_5x5_reduce
I1218 11:18:46.459960 17819 net.cpp:120] Top shape: 80 24 14 14 (376320)
I1218 11:18:46.459969 17819 layer_factory.hpp:74] Creating layer inception_4b/5x5
I1218 11:18:46.459983 17819 net.cpp:84] Creating Layer inception_4b/5x5
I1218 11:18:46.459990 17819 net.cpp:380] inception_4b/5x5 <- inception_4b/5x5_reduce
I1218 11:18:46.460002 17819 net.cpp:338] inception_4b/5x5 -> inception_4b/5x5
I1218 11:18:46.460014 17819 net.cpp:113] Setting up inception_4b/5x5
I1218 11:18:46.461284 17819 net.cpp:120] Top shape: 80 64 14 14 (1003520)
I1218 11:18:46.461308 17819 layer_factory.hpp:74] Creating layer inception_4b/relu_5x5
I1218 11:18:46.461336 17819 net.cpp:84] Creating Layer inception_4b/relu_5x5
I1218 11:18:46.461345 17819 net.cpp:380] inception_4b/relu_5x5 <- inception_4b/5x5
I1218 11:18:46.461355 17819 net.cpp:327] inception_4b/relu_5x5 -> inception_4b/5x5 (in-place)
I1218 11:18:46.461369 17819 net.cpp:113] Setting up inception_4b/relu_5x5
I1218 11:18:46.461499 17819 net.cpp:120] Top shape: 80 64 14 14 (1003520)
I1218 11:18:46.461518 17819 layer_factory.hpp:74] Creating layer inception_4b/pool
I1218 11:18:46.461534 17819 layer_factory.cpp:56] CUDNN does not support padding or multiple tops. Using Caffe's own pooling layer.
I1218 11:18:46.461554 17819 net.cpp:84] Creating Layer inception_4b/pool
I1218 11:18:46.461561 17819 net.cpp:380] inception_4b/pool <- inception_4a/output_inception_4a/output_0_split_4
I1218 11:18:46.461571 17819 net.cpp:338] inception_4b/pool -> inception_4b/pool
I1218 11:18:46.461596 17819 net.cpp:113] Setting up inception_4b/pool
I1218 11:18:46.461611 17819 net.cpp:120] Top shape: 80 512 14 14 (8028160)
I1218 11:18:46.461617 17819 layer_factory.hpp:74] Creating layer inception_4b/pool_proj
I1218 11:18:46.461630 17819 net.cpp:84] Creating Layer inception_4b/pool_proj
I1218 11:18:46.461637 17819 net.cpp:380] inception_4b/pool_proj <- inception_4b/pool
I1218 11:18:46.461647 17819 net.cpp:338] inception_4b/pool_proj -> inception_4b/pool_proj
I1218 11:18:46.461658 17819 net.cpp:113] Setting up inception_4b/pool_proj
I1218 11:18:46.462744 17819 net.cpp:120] Top shape: 80 64 14 14 (1003520)
I1218 11:18:46.462765 17819 layer_factory.hpp:74] Creating layer inception_4b/relu_pool_proj
I1218 11:18:46.462788 17819 net.cpp:84] Creating Layer inception_4b/relu_pool_proj
I1218 11:18:46.462796 17819 net.cpp:380] inception_4b/relu_pool_proj <- inception_4b/pool_proj
I1218 11:18:46.462805 17819 net.cpp:327] inception_4b/relu_pool_proj -> inception_4b/pool_proj (in-place)
I1218 11:18:46.462815 17819 net.cpp:113] Setting up inception_4b/relu_pool_proj
I1218 11:18:46.463135 17819 net.cpp:120] Top shape: 80 64 14 14 (1003520)
I1218 11:18:46.463150 17819 layer_factory.hpp:74] Creating layer inception_4b/output
I1218 11:18:46.463163 17819 net.cpp:84] Creating Layer inception_4b/output
I1218 11:18:46.463171 17819 net.cpp:380] inception_4b/output <- inception_4b/1x1
I1218 11:18:46.463179 17819 net.cpp:380] inception_4b/output <- inception_4b/3x3
I1218 11:18:46.463187 17819 net.cpp:380] inception_4b/output <- inception_4b/5x5
I1218 11:18:46.463194 17819 net.cpp:380] inception_4b/output <- inception_4b/pool_proj
I1218 11:18:46.463203 17819 net.cpp:338] inception_4b/output -> inception_4b/output
I1218 11:18:46.463213 17819 net.cpp:113] Setting up inception_4b/output
I1218 11:18:46.463229 17819 net.cpp:120] Top shape: 80 512 14 14 (8028160)
I1218 11:18:46.463237 17819 layer_factory.hpp:74] Creating layer inception_4b/output_inception_4b/output_0_split
I1218 11:18:46.463248 17819 net.cpp:84] Creating Layer inception_4b/output_inception_4b/output_0_split
I1218 11:18:46.463254 17819 net.cpp:380] inception_4b/output_inception_4b/output_0_split <- inception_4b/output
I1218 11:18:46.463266 17819 net.cpp:338] inception_4b/output_inception_4b/output_0_split -> inception_4b/output_inception_4b/output_0_split_0
I1218 11:18:46.463276 17819 net.cpp:338] inception_4b/output_inception_4b/output_0_split -> inception_4b/output_inception_4b/output_0_split_1
I1218 11:18:46.463287 17819 net.cpp:338] inception_4b/output_inception_4b/output_0_split -> inception_4b/output_inception_4b/output_0_split_2
I1218 11:18:46.463297 17819 net.cpp:338] inception_4b/output_inception_4b/output_0_split -> inception_4b/output_inception_4b/output_0_split_3
I1218 11:18:46.463306 17819 net.cpp:113] Setting up inception_4b/output_inception_4b/output_0_split
I1218 11:18:46.463316 17819 net.cpp:120] Top shape: 80 512 14 14 (8028160)
I1218 11:18:46.463325 17819 net.cpp:120] Top shape: 80 512 14 14 (8028160)
I1218 11:18:46.463331 17819 net.cpp:120] Top shape: 80 512 14 14 (8028160)
I1218 11:18:46.463338 17819 net.cpp:120] Top shape: 80 512 14 14 (8028160)
I1218 11:18:46.463354 17819 layer_factory.hpp:74] Creating layer inception_4c/1x1
I1218 11:18:46.463367 17819 net.cpp:84] Creating Layer inception_4c/1x1
I1218 11:18:46.463374 17819 net.cpp:380] inception_4c/1x1 <- inception_4b/output_inception_4b/output_0_split_0
I1218 11:18:46.463383 17819 net.cpp:338] inception_4c/1x1 -> inception_4c/1x1
I1218 11:18:46.463394 17819 net.cpp:113] Setting up inception_4c/1x1
I1218 11:18:46.465015 17819 net.cpp:120] Top shape: 80 128 14 14 (2007040)
I1218 11:18:46.465042 17819 layer_factory.hpp:74] Creating layer inception_4c/relu_1x1
I1218 11:18:46.465075 17819 net.cpp:84] Creating Layer inception_4c/relu_1x1
I1218 11:18:46.465083 17819 net.cpp:380] inception_4c/relu_1x1 <- inception_4c/1x1
I1218 11:18:46.465093 17819 net.cpp:327] inception_4c/relu_1x1 -> inception_4c/1x1 (in-place)
I1218 11:18:46.465103 17819 net.cpp:113] Setting up inception_4c/relu_1x1
I1218 11:18:46.465200 17819 net.cpp:120] Top shape: 80 128 14 14 (2007040)
I1218 11:18:46.465209 17819 layer_factory.hpp:74] Creating layer inception_4c/3x3_reduce
I1218 11:18:46.465236 17819 net.cpp:84] Creating Layer inception_4c/3x3_reduce
I1218 11:18:46.465245 17819 net.cpp:380] inception_4c/3x3_reduce <- inception_4b/output_inception_4b/output_0_split_1
I1218 11:18:46.465255 17819 net.cpp:338] inception_4c/3x3_reduce -> inception_4c/3x3_reduce
I1218 11:18:46.465266 17819 net.cpp:113] Setting up inception_4c/3x3_reduce
I1218 11:18:46.466888 17819 net.cpp:120] Top shape: 80 128 14 14 (2007040)
I1218 11:18:46.466908 17819 layer_factory.hpp:74] Creating layer inception_4c/relu_3x3_reduce
I1218 11:18:46.466924 17819 net.cpp:84] Creating Layer inception_4c/relu_3x3_reduce
I1218 11:18:46.466933 17819 net.cpp:380] inception_4c/relu_3x3_reduce <- inception_4c/3x3_reduce
I1218 11:18:46.466941 17819 net.cpp:327] inception_4c/relu_3x3_reduce -> inception_4c/3x3_reduce (in-place)
I1218 11:18:46.466953 17819 net.cpp:113] Setting up inception_4c/relu_3x3_reduce
I1218 11:18:46.467047 17819 net.cpp:120] Top shape: 80 128 14 14 (2007040)
I1218 11:18:46.467067 17819 layer_factory.hpp:74] Creating layer inception_4c/3x3
I1218 11:18:46.467078 17819 net.cpp:84] Creating Layer inception_4c/3x3
I1218 11:18:46.467085 17819 net.cpp:380] inception_4c/3x3 <- inception_4c/3x3_reduce
I1218 11:18:46.467097 17819 net.cpp:338] inception_4c/3x3 -> inception_4c/3x3
I1218 11:18:46.467108 17819 net.cpp:113] Setting up inception_4c/3x3
I1218 11:18:46.472498 17819 net.cpp:120] Top shape: 80 256 14 14 (4014080)
I1218 11:18:46.472539 17819 layer_factory.hpp:74] Creating layer inception_4c/relu_3x3
I1218 11:18:46.472564 17819 net.cpp:84] Creating Layer inception_4c/relu_3x3
I1218 11:18:46.472573 17819 net.cpp:380] inception_4c/relu_3x3 <- inception_4c/3x3
I1218 11:18:46.472581 17819 net.cpp:327] inception_4c/relu_3x3 -> inception_4c/3x3 (in-place)
I1218 11:18:46.472592 17819 net.cpp:113] Setting up inception_4c/relu_3x3
I1218 11:18:46.472697 17819 net.cpp:120] Top shape: 80 256 14 14 (4014080)
I1218 11:18:46.472707 17819 layer_factory.hpp:74] Creating layer inception_4c/5x5_reduce
I1218 11:18:46.472719 17819 net.cpp:84] Creating Layer inception_4c/5x5_reduce
I1218 11:18:46.472726 17819 net.cpp:380] inception_4c/5x5_reduce <- inception_4b/output_inception_4b/output_0_split_2
I1218 11:18:46.472748 17819 net.cpp:338] inception_4c/5x5_reduce -> inception_4c/5x5_reduce
I1218 11:18:46.472760 17819 net.cpp:113] Setting up inception_4c/5x5_reduce
I1218 11:18:46.473518 17819 net.cpp:120] Top shape: 80 24 14 14 (376320)
I1218 11:18:46.473542 17819 layer_factory.hpp:74] Creating layer inception_4c/relu_5x5_reduce
I1218 11:18:46.473577 17819 net.cpp:84] Creating Layer inception_4c/relu_5x5_reduce
I1218 11:18:46.473584 17819 net.cpp:380] inception_4c/relu_5x5_reduce <- inception_4c/5x5_reduce
I1218 11:18:46.473613 17819 net.cpp:327] inception_4c/relu_5x5_reduce -> inception_4c/5x5_reduce (in-place)
I1218 11:18:46.473624 17819 net.cpp:113] Setting up inception_4c/relu_5x5_reduce
I1218 11:18:46.473947 17819 net.cpp:120] Top shape: 80 24 14 14 (376320)
I1218 11:18:46.473973 17819 layer_factory.hpp:74] Creating layer inception_4c/5x5
I1218 11:18:46.473997 17819 net.cpp:84] Creating Layer inception_4c/5x5
I1218 11:18:46.474005 17819 net.cpp:380] inception_4c/5x5 <- inception_4c/5x5_reduce
I1218 11:18:46.474015 17819 net.cpp:338] inception_4c/5x5 -> inception_4c/5x5
I1218 11:18:46.474027 17819 net.cpp:113] Setting up inception_4c/5x5
I1218 11:18:46.475139 17819 net.cpp:120] Top shape: 80 64 14 14 (1003520)
I1218 11:18:46.475159 17819 layer_factory.hpp:74] Creating layer inception_4c/relu_5x5
I1218 11:18:46.475175 17819 net.cpp:84] Creating Layer inception_4c/relu_5x5
I1218 11:18:46.475191 17819 net.cpp:380] inception_4c/relu_5x5 <- inception_4c/5x5
I1218 11:18:46.475201 17819 net.cpp:327] inception_4c/relu_5x5 -> inception_4c/5x5 (in-place)
I1218 11:18:46.475210 17819 net.cpp:113] Setting up inception_4c/relu_5x5
I1218 11:18:46.475311 17819 net.cpp:120] Top shape: 80 64 14 14 (1003520)
I1218 11:18:46.475318 17819 layer_factory.hpp:74] Creating layer inception_4c/pool
I1218 11:18:46.475325 17819 layer_factory.cpp:56] CUDNN does not support padding or multiple tops. Using Caffe's own pooling layer.
I1218 11:18:46.475335 17819 net.cpp:84] Creating Layer inception_4c/pool
I1218 11:18:46.475342 17819 net.cpp:380] inception_4c/pool <- inception_4b/output_inception_4b/output_0_split_3
I1218 11:18:46.475352 17819 net.cpp:338] inception_4c/pool -> inception_4c/pool
I1218 11:18:46.475361 17819 net.cpp:113] Setting up inception_4c/pool
I1218 11:18:46.475373 17819 net.cpp:120] Top shape: 80 512 14 14 (8028160)
I1218 11:18:46.475379 17819 layer_factory.hpp:74] Creating layer inception_4c/pool_proj
I1218 11:18:46.475391 17819 net.cpp:84] Creating Layer inception_4c/pool_proj
I1218 11:18:46.475399 17819 net.cpp:380] inception_4c/pool_proj <- inception_4c/pool
I1218 11:18:46.475406 17819 net.cpp:338] inception_4c/pool_proj -> inception_4c/pool_proj
I1218 11:18:46.475419 17819 net.cpp:113] Setting up inception_4c/pool_proj
I1218 11:18:46.476444 17819 net.cpp:120] Top shape: 80 64 14 14 (1003520)
I1218 11:18:46.476462 17819 layer_factory.hpp:74] Creating layer inception_4c/relu_pool_proj
I1218 11:18:46.476485 17819 net.cpp:84] Creating Layer inception_4c/relu_pool_proj
I1218 11:18:46.476493 17819 net.cpp:380] inception_4c/relu_pool_proj <- inception_4c/pool_proj
I1218 11:18:46.476502 17819 net.cpp:327] inception_4c/relu_pool_proj -> inception_4c/pool_proj (in-place)
I1218 11:18:46.476511 17819 net.cpp:113] Setting up inception_4c/relu_pool_proj
I1218 11:18:46.476608 17819 net.cpp:120] Top shape: 80 64 14 14 (1003520)
I1218 11:18:46.476624 17819 layer_factory.hpp:74] Creating layer inception_4c/output
I1218 11:18:46.476632 17819 net.cpp:84] Creating Layer inception_4c/output
I1218 11:18:46.476639 17819 net.cpp:380] inception_4c/output <- inception_4c/1x1
I1218 11:18:46.476647 17819 net.cpp:380] inception_4c/output <- inception_4c/3x3
I1218 11:18:46.476655 17819 net.cpp:380] inception_4c/output <- inception_4c/5x5
I1218 11:18:46.476661 17819 net.cpp:380] inception_4c/output <- inception_4c/pool_proj
I1218 11:18:46.476671 17819 net.cpp:338] inception_4c/output -> inception_4c/output
I1218 11:18:46.476681 17819 net.cpp:113] Setting up inception_4c/output
I1218 11:18:46.476691 17819 net.cpp:120] Top shape: 80 512 14 14 (8028160)
I1218 11:18:46.476697 17819 layer_factory.hpp:74] Creating layer inception_4c/output_inception_4c/output_0_split
I1218 11:18:46.476706 17819 net.cpp:84] Creating Layer inception_4c/output_inception_4c/output_0_split
I1218 11:18:46.476712 17819 net.cpp:380] inception_4c/output_inception_4c/output_0_split <- inception_4c/output
I1218 11:18:46.476723 17819 net.cpp:338] inception_4c/output_inception_4c/output_0_split -> inception_4c/output_inception_4c/output_0_split_0
I1218 11:18:46.476733 17819 net.cpp:338] inception_4c/output_inception_4c/output_0_split -> inception_4c/output_inception_4c/output_0_split_1
I1218 11:18:46.476743 17819 net.cpp:338] inception_4c/output_inception_4c/output_0_split -> inception_4c/output_inception_4c/output_0_split_2
I1218 11:18:46.476752 17819 net.cpp:338] inception_4c/output_inception_4c/output_0_split -> inception_4c/output_inception_4c/output_0_split_3
I1218 11:18:46.476760 17819 net.cpp:113] Setting up inception_4c/output_inception_4c/output_0_split
I1218 11:18:46.476770 17819 net.cpp:120] Top shape: 80 512 14 14 (8028160)
I1218 11:18:46.476778 17819 net.cpp:120] Top shape: 80 512 14 14 (8028160)
I1218 11:18:46.476784 17819 net.cpp:120] Top shape: 80 512 14 14 (8028160)
I1218 11:18:46.476791 17819 net.cpp:120] Top shape: 80 512 14 14 (8028160)
I1218 11:18:46.476804 17819 layer_factory.hpp:74] Creating layer inception_4d/1x1
I1218 11:18:46.476824 17819 net.cpp:84] Creating Layer inception_4d/1x1
I1218 11:18:46.476830 17819 net.cpp:380] inception_4d/1x1 <- inception_4c/output_inception_4c/output_0_split_0
I1218 11:18:46.476838 17819 net.cpp:338] inception_4d/1x1 -> inception_4d/1x1
I1218 11:18:46.476848 17819 net.cpp:113] Setting up inception_4d/1x1
I1218 11:18:46.478296 17819 net.cpp:120] Top shape: 80 112 14 14 (1756160)
I1218 11:18:46.478317 17819 layer_factory.hpp:74] Creating layer inception_4d/relu_1x1
I1218 11:18:46.478337 17819 net.cpp:84] Creating Layer inception_4d/relu_1x1
I1218 11:18:46.478344 17819 net.cpp:380] inception_4d/relu_1x1 <- inception_4d/1x1
I1218 11:18:46.478355 17819 net.cpp:327] inception_4d/relu_1x1 -> inception_4d/1x1 (in-place)
I1218 11:18:46.478365 17819 net.cpp:113] Setting up inception_4d/relu_1x1
I1218 11:18:46.478458 17819 net.cpp:120] Top shape: 80 112 14 14 (1756160)
I1218 11:18:46.478466 17819 layer_factory.hpp:74] Creating layer inception_4d/3x3_reduce
I1218 11:18:46.478488 17819 net.cpp:84] Creating Layer inception_4d/3x3_reduce
I1218 11:18:46.478495 17819 net.cpp:380] inception_4d/3x3_reduce <- inception_4c/output_inception_4c/output_0_split_1
I1218 11:18:46.478505 17819 net.cpp:338] inception_4d/3x3_reduce -> inception_4d/3x3_reduce
I1218 11:18:46.478519 17819 net.cpp:113] Setting up inception_4d/3x3_reduce
I1218 11:18:46.480236 17819 net.cpp:120] Top shape: 80 144 14 14 (2257920)
I1218 11:18:46.480257 17819 layer_factory.hpp:74] Creating layer inception_4d/relu_3x3_reduce
I1218 11:18:46.480267 17819 net.cpp:84] Creating Layer inception_4d/relu_3x3_reduce
I1218 11:18:46.480273 17819 net.cpp:380] inception_4d/relu_3x3_reduce <- inception_4d/3x3_reduce
I1218 11:18:46.480289 17819 net.cpp:327] inception_4d/relu_3x3_reduce -> inception_4d/3x3_reduce (in-place)
I1218 11:18:46.480300 17819 net.cpp:113] Setting up inception_4d/relu_3x3_reduce
I1218 11:18:46.480613 17819 net.cpp:120] Top shape: 80 144 14 14 (2257920)
I1218 11:18:46.480626 17819 layer_factory.hpp:74] Creating layer inception_4d/3x3
I1218 11:18:46.480639 17819 net.cpp:84] Creating Layer inception_4d/3x3
I1218 11:18:46.480646 17819 net.cpp:380] inception_4d/3x3 <- inception_4d/3x3_reduce
I1218 11:18:46.480659 17819 net.cpp:338] inception_4d/3x3 -> inception_4d/3x3
I1218 11:18:46.480670 17819 net.cpp:113] Setting up inception_4d/3x3
I1218 11:18:46.486888 17819 net.cpp:120] Top shape: 80 288 14 14 (4515840)
I1218 11:18:46.486909 17819 layer_factory.hpp:74] Creating layer inception_4d/relu_3x3
I1218 11:18:46.486929 17819 net.cpp:84] Creating Layer inception_4d/relu_3x3
I1218 11:18:46.486937 17819 net.cpp:380] inception_4d/relu_3x3 <- inception_4d/3x3
I1218 11:18:46.486945 17819 net.cpp:327] inception_4d/relu_3x3 -> inception_4d/3x3 (in-place)
I1218 11:18:46.486955 17819 net.cpp:113] Setting up inception_4d/relu_3x3
I1218 11:18:46.487045 17819 net.cpp:120] Top shape: 80 288 14 14 (4515840)
I1218 11:18:46.487052 17819 layer_factory.hpp:74] Creating layer inception_4d/5x5_reduce
I1218 11:18:46.487061 17819 net.cpp:84] Creating Layer inception_4d/5x5_reduce
I1218 11:18:46.487068 17819 net.cpp:380] inception_4d/5x5_reduce <- inception_4c/output_inception_4c/output_0_split_2
I1218 11:18:46.487079 17819 net.cpp:338] inception_4d/5x5_reduce -> inception_4d/5x5_reduce
I1218 11:18:46.487089 17819 net.cpp:113] Setting up inception_4d/5x5_reduce
I1218 11:18:46.487839 17819 net.cpp:120] Top shape: 80 32 14 14 (501760)
I1218 11:18:46.487866 17819 layer_factory.hpp:74] Creating layer inception_4d/relu_5x5_reduce
I1218 11:18:46.487876 17819 net.cpp:84] Creating Layer inception_4d/relu_5x5_reduce
I1218 11:18:46.487884 17819 net.cpp:380] inception_4d/relu_5x5_reduce <- inception_4d/5x5_reduce
I1218 11:18:46.487891 17819 net.cpp:327] inception_4d/relu_5x5_reduce -> inception_4d/5x5_reduce (in-place)
I1218 11:18:46.487901 17819 net.cpp:113] Setting up inception_4d/relu_5x5_reduce
I1218 11:18:46.487989 17819 net.cpp:120] Top shape: 80 32 14 14 (501760)
I1218 11:18:46.487998 17819 layer_factory.hpp:74] Creating layer inception_4d/5x5
I1218 11:18:46.488020 17819 net.cpp:84] Creating Layer inception_4d/5x5
I1218 11:18:46.488036 17819 net.cpp:380] inception_4d/5x5 <- inception_4d/5x5_reduce
I1218 11:18:46.488051 17819 net.cpp:338] inception_4d/5x5 -> inception_4d/5x5
I1218 11:18:46.488062 17819 net.cpp:113] Setting up inception_4d/5x5
I1218 11:18:46.492801 17819 net.cpp:120] Top shape: 80 64 14 14 (1003520)
I1218 11:18:46.492825 17819 layer_factory.hpp:74] Creating layer inception_4d/relu_5x5
I1218 11:18:46.492832 17819 net.cpp:84] Creating Layer inception_4d/relu_5x5
I1218 11:18:46.492838 17819 net.cpp:380] inception_4d/relu_5x5 <- inception_4d/5x5
I1218 11:18:46.492846 17819 net.cpp:327] inception_4d/relu_5x5 -> inception_4d/5x5 (in-place)
I1218 11:18:46.492854 17819 net.cpp:113] Setting up inception_4d/relu_5x5
I1218 11:18:46.492947 17819 net.cpp:120] Top shape: 80 64 14 14 (1003520)
I1218 11:18:46.492955 17819 layer_factory.hpp:74] Creating layer inception_4d/pool
I1218 11:18:46.492962 17819 layer_factory.cpp:56] CUDNN does not support padding or multiple tops. Using Caffe's own pooling layer.
I1218 11:18:46.492972 17819 net.cpp:84] Creating Layer inception_4d/pool
I1218 11:18:46.492980 17819 net.cpp:380] inception_4d/pool <- inception_4c/output_inception_4c/output_0_split_3
I1218 11:18:46.492988 17819 net.cpp:338] inception_4d/pool -> inception_4d/pool
I1218 11:18:46.492998 17819 net.cpp:113] Setting up inception_4d/pool
I1218 11:18:46.493010 17819 net.cpp:120] Top shape: 80 512 14 14 (8028160)
I1218 11:18:46.493016 17819 layer_factory.hpp:74] Creating layer inception_4d/pool_proj
I1218 11:18:46.493038 17819 net.cpp:84] Creating Layer inception_4d/pool_proj
I1218 11:18:46.493046 17819 net.cpp:380] inception_4d/pool_proj <- inception_4d/pool
I1218 11:18:46.493073 17819 net.cpp:338] inception_4d/pool_proj -> inception_4d/pool_proj
I1218 11:18:46.493085 17819 net.cpp:113] Setting up inception_4d/pool_proj
I1218 11:18:46.494091 17819 net.cpp:120] Top shape: 80 64 14 14 (1003520)
I1218 11:18:46.494122 17819 layer_factory.hpp:74] Creating layer inception_4d/relu_pool_proj
I1218 11:18:46.494133 17819 net.cpp:84] Creating Layer inception_4d/relu_pool_proj
I1218 11:18:46.494141 17819 net.cpp:380] inception_4d/relu_pool_proj <- inception_4d/pool_proj
I1218 11:18:46.494150 17819 net.cpp:327] inception_4d/relu_pool_proj -> inception_4d/pool_proj (in-place)
I1218 11:18:46.494160 17819 net.cpp:113] Setting up inception_4d/relu_pool_proj
I1218 11:18:46.494472 17819 net.cpp:120] Top shape: 80 64 14 14 (1003520)
I1218 11:18:46.494485 17819 layer_factory.hpp:74] Creating layer inception_4d/output
I1218 11:18:46.494498 17819 net.cpp:84] Creating Layer inception_4d/output
I1218 11:18:46.494505 17819 net.cpp:380] inception_4d/output <- inception_4d/1x1
I1218 11:18:46.494514 17819 net.cpp:380] inception_4d/output <- inception_4d/3x3
I1218 11:18:46.494520 17819 net.cpp:380] inception_4d/output <- inception_4d/5x5
I1218 11:18:46.494527 17819 net.cpp:380] inception_4d/output <- inception_4d/pool_proj
I1218 11:18:46.494534 17819 net.cpp:338] inception_4d/output -> inception_4d/output
I1218 11:18:46.494545 17819 net.cpp:113] Setting up inception_4d/output
I1218 11:18:46.494555 17819 net.cpp:120] Top shape: 80 528 14 14 (8279040)
I1218 11:18:46.494560 17819 layer_factory.hpp:74] Creating layer inception_4d/output_inception_4d/output_0_split
I1218 11:18:46.494572 17819 net.cpp:84] Creating Layer inception_4d/output_inception_4d/output_0_split
I1218 11:18:46.494578 17819 net.cpp:380] inception_4d/output_inception_4d/output_0_split <- inception_4d/output
I1218 11:18:46.494586 17819 net.cpp:338] inception_4d/output_inception_4d/output_0_split -> inception_4d/output_inception_4d/output_0_split_0
I1218 11:18:46.494596 17819 net.cpp:338] inception_4d/output_inception_4d/output_0_split -> inception_4d/output_inception_4d/output_0_split_1
I1218 11:18:46.494604 17819 net.cpp:338] inception_4d/output_inception_4d/output_0_split -> inception_4d/output_inception_4d/output_0_split_2
I1218 11:18:46.494614 17819 net.cpp:338] inception_4d/output_inception_4d/output_0_split -> inception_4d/output_inception_4d/output_0_split_3
I1218 11:18:46.494638 17819 net.cpp:338] inception_4d/output_inception_4d/output_0_split -> inception_4d/output_inception_4d/output_0_split_4
I1218 11:18:46.494648 17819 net.cpp:113] Setting up inception_4d/output_inception_4d/output_0_split
I1218 11:18:46.494660 17819 net.cpp:120] Top shape: 80 528 14 14 (8279040)
I1218 11:18:46.494668 17819 net.cpp:120] Top shape: 80 528 14 14 (8279040)
I1218 11:18:46.494673 17819 net.cpp:120] Top shape: 80 528 14 14 (8279040)
I1218 11:18:46.494680 17819 net.cpp:120] Top shape: 80 528 14 14 (8279040)
I1218 11:18:46.494686 17819 net.cpp:120] Top shape: 80 528 14 14 (8279040)
I1218 11:18:46.494691 17819 layer_factory.hpp:74] Creating layer loss2/ave_pool
I1218 11:18:46.494700 17819 net.cpp:84] Creating Layer loss2/ave_pool
I1218 11:18:46.494706 17819 net.cpp:380] loss2/ave_pool <- inception_4d/output_inception_4d/output_0_split_0
I1218 11:18:46.494717 17819 net.cpp:338] loss2/ave_pool -> loss2/ave_pool
I1218 11:18:46.494726 17819 net.cpp:113] Setting up loss2/ave_pool
I1218 11:18:46.494822 17819 net.cpp:120] Top shape: 80 528 4 4 (675840)
I1218 11:18:46.494837 17819 layer_factory.hpp:74] Creating layer loss2/conv
I1218 11:18:46.494858 17819 net.cpp:84] Creating Layer loss2/conv
I1218 11:18:46.494864 17819 net.cpp:380] loss2/conv <- loss2/ave_pool
I1218 11:18:46.494877 17819 net.cpp:338] loss2/conv -> loss2/conv
I1218 11:18:46.494887 17819 net.cpp:113] Setting up loss2/conv
I1218 11:18:46.496419 17819 net.cpp:120] Top shape: 80 128 4 4 (163840)
I1218 11:18:46.496439 17819 layer_factory.hpp:74] Creating layer loss2/relu_conv
I1218 11:18:46.496451 17819 net.cpp:84] Creating Layer loss2/relu_conv
I1218 11:18:46.496459 17819 net.cpp:380] loss2/relu_conv <- loss2/conv
I1218 11:18:46.496467 17819 net.cpp:327] loss2/relu_conv -> loss2/conv (in-place)
I1218 11:18:46.496484 17819 net.cpp:113] Setting up loss2/relu_conv
I1218 11:18:46.496569 17819 net.cpp:120] Top shape: 80 128 4 4 (163840)
I1218 11:18:46.496577 17819 layer_factory.hpp:74] Creating layer loss2/fc
I1218 11:18:46.496589 17819 net.cpp:84] Creating Layer loss2/fc
I1218 11:18:46.496595 17819 net.cpp:380] loss2/fc <- loss2/conv
I1218 11:18:46.496606 17819 net.cpp:338] loss2/fc -> loss2/fc
I1218 11:18:46.496618 17819 net.cpp:113] Setting up loss2/fc
I1218 11:18:46.566184 17819 net.cpp:120] Top shape: 80 1024 (81920)
I1218 11:18:46.566218 17819 layer_factory.hpp:74] Creating layer loss2/relu_fc
I1218 11:18:46.566229 17819 net.cpp:84] Creating Layer loss2/relu_fc
I1218 11:18:46.566238 17819 net.cpp:380] loss2/relu_fc <- loss2/fc
I1218 11:18:46.566248 17819 net.cpp:327] loss2/relu_fc -> loss2/fc (in-place)
I1218 11:18:46.566258 17819 net.cpp:113] Setting up loss2/relu_fc
I1218 11:18:46.566738 17819 net.cpp:120] Top shape: 80 1024 (81920)
I1218 11:18:46.566751 17819 layer_factory.hpp:74] Creating layer loss2/drop_fc
I1218 11:18:46.566776 17819 net.cpp:84] Creating Layer loss2/drop_fc
I1218 11:18:46.566781 17819 net.cpp:380] loss2/drop_fc <- loss2/fc
I1218 11:18:46.566790 17819 net.cpp:327] loss2/drop_fc -> loss2/fc (in-place)
I1218 11:18:46.566798 17819 net.cpp:113] Setting up loss2/drop_fc
I1218 11:18:46.566807 17819 net.cpp:120] Top shape: 80 1024 (81920)
I1218 11:18:46.566812 17819 layer_factory.hpp:74] Creating layer loss2/classifier_kaggle
I1218 11:18:46.566822 17819 net.cpp:84] Creating Layer loss2/classifier_kaggle
I1218 11:18:46.566826 17819 net.cpp:380] loss2/classifier_kaggle <- loss2/fc
I1218 11:18:46.566834 17819 net.cpp:338] loss2/classifier_kaggle -> loss2/classifier_kaggle
I1218 11:18:46.566844 17819 net.cpp:113] Setting up loss2/classifier_kaggle
I1218 11:18:46.572293 17819 net.cpp:120] Top shape: 80 447 (35760)
I1218 11:18:46.572309 17819 layer_factory.hpp:74] Creating layer loss2/loss
I1218 11:18:46.572319 17819 net.cpp:84] Creating Layer loss2/loss
I1218 11:18:46.572325 17819 net.cpp:380] loss2/loss <- loss2/classifier_kaggle
I1218 11:18:46.572332 17819 net.cpp:380] loss2/loss <- label_data_1_split_1
I1218 11:18:46.572340 17819 net.cpp:338] loss2/loss -> loss2/loss1
I1218 11:18:46.572360 17819 net.cpp:113] Setting up loss2/loss
I1218 11:18:46.572378 17819 layer_factory.hpp:74] Creating layer loss2/loss
I1218 11:18:46.572558 17819 net.cpp:120] Top shape: (1)
I1218 11:18:46.572566 17819 net.cpp:122]     with loss weight 0.3
I1218 11:18:46.572581 17819 layer_factory.hpp:74] Creating layer inception_4e/1x1
I1218 11:18:46.572600 17819 net.cpp:84] Creating Layer inception_4e/1x1
I1218 11:18:46.572607 17819 net.cpp:380] inception_4e/1x1 <- inception_4d/output_inception_4d/output_0_split_1
I1218 11:18:46.572614 17819 net.cpp:338] inception_4e/1x1 -> inception_4e/1x1
I1218 11:18:46.572623 17819 net.cpp:113] Setting up inception_4e/1x1
I1218 11:18:46.574681 17819 net.cpp:120] Top shape: 80 256 14 14 (4014080)
I1218 11:18:46.574698 17819 layer_factory.hpp:74] Creating layer inception_4e/relu_1x1
I1218 11:18:46.574714 17819 net.cpp:84] Creating Layer inception_4e/relu_1x1
I1218 11:18:46.574720 17819 net.cpp:380] inception_4e/relu_1x1 <- inception_4e/1x1
I1218 11:18:46.574728 17819 net.cpp:327] inception_4e/relu_1x1 -> inception_4e/1x1 (in-place)
I1218 11:18:46.574735 17819 net.cpp:113] Setting up inception_4e/relu_1x1
I1218 11:18:46.574811 17819 net.cpp:120] Top shape: 80 256 14 14 (4014080)
I1218 11:18:46.574822 17819 layer_factory.hpp:74] Creating layer inception_4e/3x3_reduce
I1218 11:18:46.574831 17819 net.cpp:84] Creating Layer inception_4e/3x3_reduce
I1218 11:18:46.574836 17819 net.cpp:380] inception_4e/3x3_reduce <- inception_4d/output_inception_4d/output_0_split_2
I1218 11:18:46.574846 17819 net.cpp:338] inception_4e/3x3_reduce -> inception_4e/3x3_reduce
I1218 11:18:46.574854 17819 net.cpp:113] Setting up inception_4e/3x3_reduce
I1218 11:18:46.576272 17819 net.cpp:120] Top shape: 80 160 14 14 (2508800)
I1218 11:18:46.576287 17819 layer_factory.hpp:74] Creating layer inception_4e/relu_3x3_reduce
I1218 11:18:46.576298 17819 net.cpp:84] Creating Layer inception_4e/relu_3x3_reduce
I1218 11:18:46.576304 17819 net.cpp:380] inception_4e/relu_3x3_reduce <- inception_4e/3x3_reduce
I1218 11:18:46.576311 17819 net.cpp:327] inception_4e/relu_3x3_reduce -> inception_4e/3x3_reduce (in-place)
I1218 11:18:46.576318 17819 net.cpp:113] Setting up inception_4e/relu_3x3_reduce
I1218 11:18:46.576396 17819 net.cpp:120] Top shape: 80 160 14 14 (2508800)
I1218 11:18:46.576402 17819 layer_factory.hpp:74] Creating layer inception_4e/3x3
I1218 11:18:46.576411 17819 net.cpp:84] Creating Layer inception_4e/3x3
I1218 11:18:46.576417 17819 net.cpp:380] inception_4e/3x3 <- inception_4e/3x3_reduce
I1218 11:18:46.576423 17819 net.cpp:338] inception_4e/3x3 -> inception_4e/3x3
I1218 11:18:46.576432 17819 net.cpp:113] Setting up inception_4e/3x3
I1218 11:18:46.582283 17819 net.cpp:120] Top shape: 80 320 14 14 (5017600)
I1218 11:18:46.582299 17819 layer_factory.hpp:74] Creating layer inception_4e/relu_3x3
I1218 11:18:46.582317 17819 net.cpp:84] Creating Layer inception_4e/relu_3x3
I1218 11:18:46.582324 17819 net.cpp:380] inception_4e/relu_3x3 <- inception_4e/3x3
I1218 11:18:46.582331 17819 net.cpp:327] inception_4e/relu_3x3 -> inception_4e/3x3 (in-place)
I1218 11:18:46.582340 17819 net.cpp:113] Setting up inception_4e/relu_3x3
I1218 11:18:46.582602 17819 net.cpp:120] Top shape: 80 320 14 14 (5017600)
I1218 11:18:46.582612 17819 layer_factory.hpp:74] Creating layer inception_4e/5x5_reduce
I1218 11:18:46.582623 17819 net.cpp:84] Creating Layer inception_4e/5x5_reduce
I1218 11:18:46.582629 17819 net.cpp:380] inception_4e/5x5_reduce <- inception_4d/output_inception_4d/output_0_split_3
I1218 11:18:46.582638 17819 net.cpp:338] inception_4e/5x5_reduce -> inception_4e/5x5_reduce
I1218 11:18:46.582646 17819 net.cpp:113] Setting up inception_4e/5x5_reduce
I1218 11:18:46.583267 17819 net.cpp:120] Top shape: 80 32 14 14 (501760)
I1218 11:18:46.583289 17819 layer_factory.hpp:74] Creating layer inception_4e/relu_5x5_reduce
I1218 11:18:46.583297 17819 net.cpp:84] Creating Layer inception_4e/relu_5x5_reduce
I1218 11:18:46.583302 17819 net.cpp:380] inception_4e/relu_5x5_reduce <- inception_4e/5x5_reduce
I1218 11:18:46.583312 17819 net.cpp:327] inception_4e/relu_5x5_reduce -> inception_4e/5x5_reduce (in-place)
I1218 11:18:46.583338 17819 net.cpp:113] Setting up inception_4e/relu_5x5_reduce
I1218 11:18:46.583412 17819 net.cpp:120] Top shape: 80 32 14 14 (501760)
I1218 11:18:46.583420 17819 layer_factory.hpp:74] Creating layer inception_4e/5x5
I1218 11:18:46.583456 17819 net.cpp:84] Creating Layer inception_4e/5x5
I1218 11:18:46.583461 17819 net.cpp:380] inception_4e/5x5 <- inception_4e/5x5_reduce
I1218 11:18:46.583468 17819 net.cpp:338] inception_4e/5x5 -> inception_4e/5x5
I1218 11:18:46.583477 17819 net.cpp:113] Setting up inception_4e/5x5
I1218 11:18:46.585103 17819 net.cpp:120] Top shape: 80 128 14 14 (2007040)
I1218 11:18:46.585119 17819 layer_factory.hpp:74] Creating layer inception_4e/relu_5x5
I1218 11:18:46.585126 17819 net.cpp:84] Creating Layer inception_4e/relu_5x5
I1218 11:18:46.585131 17819 net.cpp:380] inception_4e/relu_5x5 <- inception_4e/5x5
I1218 11:18:46.585139 17819 net.cpp:327] inception_4e/relu_5x5 -> inception_4e/5x5 (in-place)
I1218 11:18:46.585145 17819 net.cpp:113] Setting up inception_4e/relu_5x5
I1218 11:18:46.585223 17819 net.cpp:120] Top shape: 80 128 14 14 (2007040)
I1218 11:18:46.585229 17819 layer_factory.hpp:74] Creating layer inception_4e/pool
I1218 11:18:46.585235 17819 layer_factory.cpp:56] CUDNN does not support padding or multiple tops. Using Caffe's own pooling layer.
I1218 11:18:46.585243 17819 net.cpp:84] Creating Layer inception_4e/pool
I1218 11:18:46.585249 17819 net.cpp:380] inception_4e/pool <- inception_4d/output_inception_4d/output_0_split_4
I1218 11:18:46.585257 17819 net.cpp:338] inception_4e/pool -> inception_4e/pool
I1218 11:18:46.585263 17819 net.cpp:113] Setting up inception_4e/pool
I1218 11:18:46.585273 17819 net.cpp:120] Top shape: 80 528 14 14 (8279040)
I1218 11:18:46.585285 17819 layer_factory.hpp:74] Creating layer inception_4e/pool_proj
I1218 11:18:46.585297 17819 net.cpp:84] Creating Layer inception_4e/pool_proj
I1218 11:18:46.585304 17819 net.cpp:380] inception_4e/pool_proj <- inception_4e/pool
I1218 11:18:46.585310 17819 net.cpp:338] inception_4e/pool_proj -> inception_4e/pool_proj
I1218 11:18:46.585319 17819 net.cpp:113] Setting up inception_4e/pool_proj
I1218 11:18:46.586545 17819 net.cpp:120] Top shape: 80 128 14 14 (2007040)
I1218 11:18:46.586560 17819 layer_factory.hpp:74] Creating layer inception_4e/relu_pool_proj
I1218 11:18:46.586573 17819 net.cpp:84] Creating Layer inception_4e/relu_pool_proj
I1218 11:18:46.586580 17819 net.cpp:380] inception_4e/relu_pool_proj <- inception_4e/pool_proj
I1218 11:18:46.586588 17819 net.cpp:327] inception_4e/relu_pool_proj -> inception_4e/pool_proj (in-place)
I1218 11:18:46.586596 17819 net.cpp:113] Setting up inception_4e/relu_pool_proj
I1218 11:18:46.586668 17819 net.cpp:120] Top shape: 80 128 14 14 (2007040)
I1218 11:18:46.586674 17819 layer_factory.hpp:74] Creating layer inception_4e/output
I1218 11:18:46.586681 17819 net.cpp:84] Creating Layer inception_4e/output
I1218 11:18:46.586686 17819 net.cpp:380] inception_4e/output <- inception_4e/1x1
I1218 11:18:46.586693 17819 net.cpp:380] inception_4e/output <- inception_4e/3x3
I1218 11:18:46.586697 17819 net.cpp:380] inception_4e/output <- inception_4e/5x5
I1218 11:18:46.586704 17819 net.cpp:380] inception_4e/output <- inception_4e/pool_proj
I1218 11:18:46.586711 17819 net.cpp:338] inception_4e/output -> inception_4e/output
I1218 11:18:46.586719 17819 net.cpp:113] Setting up inception_4e/output
I1218 11:18:46.586727 17819 net.cpp:120] Top shape: 80 832 14 14 (13045760)
I1218 11:18:46.586731 17819 layer_factory.hpp:74] Creating layer pool4/3x3_s2
I1218 11:18:46.586743 17819 net.cpp:84] Creating Layer pool4/3x3_s2
I1218 11:18:46.586750 17819 net.cpp:380] pool4/3x3_s2 <- inception_4e/output
I1218 11:18:46.586758 17819 net.cpp:338] pool4/3x3_s2 -> pool4/3x3_s2
I1218 11:18:46.586766 17819 net.cpp:113] Setting up pool4/3x3_s2
I1218 11:18:46.587028 17819 net.cpp:120] Top shape: 80 832 7 7 (3261440)
I1218 11:18:46.587038 17819 layer_factory.hpp:74] Creating layer pool4/3x3_s2_pool4/3x3_s2_0_split
I1218 11:18:46.587056 17819 net.cpp:84] Creating Layer pool4/3x3_s2_pool4/3x3_s2_0_split
I1218 11:18:46.587069 17819 net.cpp:380] pool4/3x3_s2_pool4/3x3_s2_0_split <- pool4/3x3_s2
I1218 11:18:46.587077 17819 net.cpp:338] pool4/3x3_s2_pool4/3x3_s2_0_split -> pool4/3x3_s2_pool4/3x3_s2_0_split_0
I1218 11:18:46.587085 17819 net.cpp:338] pool4/3x3_s2_pool4/3x3_s2_0_split -> pool4/3x3_s2_pool4/3x3_s2_0_split_1
I1218 11:18:46.587092 17819 net.cpp:338] pool4/3x3_s2_pool4/3x3_s2_0_split -> pool4/3x3_s2_pool4/3x3_s2_0_split_2
I1218 11:18:46.587100 17819 net.cpp:338] pool4/3x3_s2_pool4/3x3_s2_0_split -> pool4/3x3_s2_pool4/3x3_s2_0_split_3
I1218 11:18:46.587106 17819 net.cpp:113] Setting up pool4/3x3_s2_pool4/3x3_s2_0_split
I1218 11:18:46.587115 17819 net.cpp:120] Top shape: 80 832 7 7 (3261440)
I1218 11:18:46.587119 17819 net.cpp:120] Top shape: 80 832 7 7 (3261440)
I1218 11:18:46.587124 17819 net.cpp:120] Top shape: 80 832 7 7 (3261440)
I1218 11:18:46.587129 17819 net.cpp:120] Top shape: 80 832 7 7 (3261440)
I1218 11:18:46.587134 17819 layer_factory.hpp:74] Creating layer inception_5a/1x1
I1218 11:18:46.587146 17819 net.cpp:84] Creating Layer inception_5a/1x1
I1218 11:18:46.587152 17819 net.cpp:380] inception_5a/1x1 <- pool4/3x3_s2_pool4/3x3_s2_0_split_0
I1218 11:18:46.587160 17819 net.cpp:338] inception_5a/1x1 -> inception_5a/1x1
I1218 11:18:46.587167 17819 net.cpp:113] Setting up inception_5a/1x1
I1218 11:18:46.590095 17819 net.cpp:120] Top shape: 80 256 7 7 (1003520)
I1218 11:18:46.590111 17819 layer_factory.hpp:74] Creating layer inception_5a/relu_1x1
I1218 11:18:46.590121 17819 net.cpp:84] Creating Layer inception_5a/relu_1x1
I1218 11:18:46.590126 17819 net.cpp:380] inception_5a/relu_1x1 <- inception_5a/1x1
I1218 11:18:46.590133 17819 net.cpp:327] inception_5a/relu_1x1 -> inception_5a/1x1 (in-place)
I1218 11:18:46.590142 17819 net.cpp:113] Setting up inception_5a/relu_1x1
I1218 11:18:46.590212 17819 net.cpp:120] Top shape: 80 256 7 7 (1003520)
I1218 11:18:46.590221 17819 layer_factory.hpp:74] Creating layer inception_5a/3x3_reduce
I1218 11:18:46.590229 17819 net.cpp:84] Creating Layer inception_5a/3x3_reduce
I1218 11:18:46.590236 17819 net.cpp:380] inception_5a/3x3_reduce <- pool4/3x3_s2_pool4/3x3_s2_0_split_1
I1218 11:18:46.590243 17819 net.cpp:338] inception_5a/3x3_reduce -> inception_5a/3x3_reduce
I1218 11:18:46.590252 17819 net.cpp:113] Setting up inception_5a/3x3_reduce
I1218 11:18:46.592245 17819 net.cpp:120] Top shape: 80 160 7 7 (627200)
I1218 11:18:46.592262 17819 layer_factory.hpp:74] Creating layer inception_5a/relu_3x3_reduce
I1218 11:18:46.592279 17819 net.cpp:84] Creating Layer inception_5a/relu_3x3_reduce
I1218 11:18:46.592286 17819 net.cpp:380] inception_5a/relu_3x3_reduce <- inception_5a/3x3_reduce
I1218 11:18:46.592293 17819 net.cpp:327] inception_5a/relu_3x3_reduce -> inception_5a/3x3_reduce (in-place)
I1218 11:18:46.592301 17819 net.cpp:113] Setting up inception_5a/relu_3x3_reduce
I1218 11:18:46.592378 17819 net.cpp:120] Top shape: 80 160 7 7 (627200)
I1218 11:18:46.592391 17819 layer_factory.hpp:74] Creating layer inception_5a/3x3
I1218 11:18:46.592401 17819 net.cpp:84] Creating Layer inception_5a/3x3
I1218 11:18:46.592406 17819 net.cpp:380] inception_5a/3x3 <- inception_5a/3x3_reduce
I1218 11:18:46.592412 17819 net.cpp:338] inception_5a/3x3 -> inception_5a/3x3
I1218 11:18:46.592420 17819 net.cpp:113] Setting up inception_5a/3x3
I1218 11:18:46.598381 17819 net.cpp:120] Top shape: 80 320 7 7 (1254400)
I1218 11:18:46.598399 17819 layer_factory.hpp:74] Creating layer inception_5a/relu_3x3
I1218 11:18:46.598408 17819 net.cpp:84] Creating Layer inception_5a/relu_3x3
I1218 11:18:46.598415 17819 net.cpp:380] inception_5a/relu_3x3 <- inception_5a/3x3
I1218 11:18:46.598423 17819 net.cpp:327] inception_5a/relu_3x3 -> inception_5a/3x3 (in-place)
I1218 11:18:46.598433 17819 net.cpp:113] Setting up inception_5a/relu_3x3
I1218 11:18:46.598505 17819 net.cpp:120] Top shape: 80 320 7 7 (1254400)
I1218 11:18:46.598511 17819 layer_factory.hpp:74] Creating layer inception_5a/5x5_reduce
I1218 11:18:46.598531 17819 net.cpp:84] Creating Layer inception_5a/5x5_reduce
I1218 11:18:46.598546 17819 net.cpp:380] inception_5a/5x5_reduce <- pool4/3x3_s2_pool4/3x3_s2_0_split_2
I1218 11:18:46.598563 17819 net.cpp:338] inception_5a/5x5_reduce -> inception_5a/5x5_reduce
I1218 11:18:46.598572 17819 net.cpp:113] Setting up inception_5a/5x5_reduce
I1218 11:18:46.599311 17819 net.cpp:120] Top shape: 80 32 7 7 (125440)
I1218 11:18:46.599328 17819 layer_factory.hpp:74] Creating layer inception_5a/relu_5x5_reduce
I1218 11:18:46.599334 17819 net.cpp:84] Creating Layer inception_5a/relu_5x5_reduce
I1218 11:18:46.599339 17819 net.cpp:380] inception_5a/relu_5x5_reduce <- inception_5a/5x5_reduce
I1218 11:18:46.599346 17819 net.cpp:327] inception_5a/relu_5x5_reduce -> inception_5a/5x5_reduce (in-place)
I1218 11:18:46.599354 17819 net.cpp:113] Setting up inception_5a/relu_5x5_reduce
I1218 11:18:46.599616 17819 net.cpp:120] Top shape: 80 32 7 7 (125440)
I1218 11:18:46.599633 17819 layer_factory.hpp:74] Creating layer inception_5a/5x5
I1218 11:18:46.599643 17819 net.cpp:84] Creating Layer inception_5a/5x5
I1218 11:18:46.599649 17819 net.cpp:380] inception_5a/5x5 <- inception_5a/5x5_reduce
I1218 11:18:46.599659 17819 net.cpp:338] inception_5a/5x5 -> inception_5a/5x5
I1218 11:18:46.599668 17819 net.cpp:113] Setting up inception_5a/5x5
I1218 11:18:46.601337 17819 net.cpp:120] Top shape: 80 128 7 7 (501760)
I1218 11:18:46.601354 17819 layer_factory.hpp:74] Creating layer inception_5a/relu_5x5
I1218 11:18:46.601372 17819 net.cpp:84] Creating Layer inception_5a/relu_5x5
I1218 11:18:46.601377 17819 net.cpp:380] inception_5a/relu_5x5 <- inception_5a/5x5
I1218 11:18:46.601387 17819 net.cpp:327] inception_5a/relu_5x5 -> inception_5a/5x5 (in-place)
I1218 11:18:46.601394 17819 net.cpp:113] Setting up inception_5a/relu_5x5
I1218 11:18:46.601475 17819 net.cpp:120] Top shape: 80 128 7 7 (501760)
I1218 11:18:46.601480 17819 layer_factory.hpp:74] Creating layer inception_5a/pool
I1218 11:18:46.601486 17819 layer_factory.cpp:56] CUDNN does not support padding or multiple tops. Using Caffe's own pooling layer.
I1218 11:18:46.601492 17819 net.cpp:84] Creating Layer inception_5a/pool
I1218 11:18:46.601497 17819 net.cpp:380] inception_5a/pool <- pool4/3x3_s2_pool4/3x3_s2_0_split_3
I1218 11:18:46.601505 17819 net.cpp:338] inception_5a/pool -> inception_5a/pool
I1218 11:18:46.601512 17819 net.cpp:113] Setting up inception_5a/pool
I1218 11:18:46.601521 17819 net.cpp:120] Top shape: 80 832 7 7 (3261440)
I1218 11:18:46.601526 17819 layer_factory.hpp:74] Creating layer inception_5a/pool_proj
I1218 11:18:46.601534 17819 net.cpp:84] Creating Layer inception_5a/pool_proj
I1218 11:18:46.601539 17819 net.cpp:380] inception_5a/pool_proj <- inception_5a/pool
I1218 11:18:46.601548 17819 net.cpp:338] inception_5a/pool_proj -> inception_5a/pool_proj
I1218 11:18:46.601557 17819 net.cpp:113] Setting up inception_5a/pool_proj
I1218 11:18:46.603221 17819 net.cpp:120] Top shape: 80 128 7 7 (501760)
I1218 11:18:46.603237 17819 layer_factory.hpp:74] Creating layer inception_5a/relu_pool_proj
I1218 11:18:46.603246 17819 net.cpp:84] Creating Layer inception_5a/relu_pool_proj
I1218 11:18:46.603252 17819 net.cpp:380] inception_5a/relu_pool_proj <- inception_5a/pool_proj
I1218 11:18:46.603258 17819 net.cpp:327] inception_5a/relu_pool_proj -> inception_5a/pool_proj (in-place)
I1218 11:18:46.603266 17819 net.cpp:113] Setting up inception_5a/relu_pool_proj
I1218 11:18:46.603339 17819 net.cpp:120] Top shape: 80 128 7 7 (501760)
I1218 11:18:46.603353 17819 layer_factory.hpp:74] Creating layer inception_5a/output
I1218 11:18:46.603365 17819 net.cpp:84] Creating Layer inception_5a/output
I1218 11:18:46.603370 17819 net.cpp:380] inception_5a/output <- inception_5a/1x1
I1218 11:18:46.603376 17819 net.cpp:380] inception_5a/output <- inception_5a/3x3
I1218 11:18:46.603381 17819 net.cpp:380] inception_5a/output <- inception_5a/5x5
I1218 11:18:46.603387 17819 net.cpp:380] inception_5a/output <- inception_5a/pool_proj
I1218 11:18:46.603394 17819 net.cpp:338] inception_5a/output -> inception_5a/output
I1218 11:18:46.603400 17819 net.cpp:113] Setting up inception_5a/output
I1218 11:18:46.603413 17819 net.cpp:120] Top shape: 80 832 7 7 (3261440)
I1218 11:18:46.603426 17819 layer_factory.hpp:74] Creating layer inception_5a/output_inception_5a/output_0_split
I1218 11:18:46.603433 17819 net.cpp:84] Creating Layer inception_5a/output_inception_5a/output_0_split
I1218 11:18:46.603437 17819 net.cpp:380] inception_5a/output_inception_5a/output_0_split <- inception_5a/output
I1218 11:18:46.603446 17819 net.cpp:338] inception_5a/output_inception_5a/output_0_split -> inception_5a/output_inception_5a/output_0_split_0
I1218 11:18:46.603454 17819 net.cpp:338] inception_5a/output_inception_5a/output_0_split -> inception_5a/output_inception_5a/output_0_split_1
I1218 11:18:46.603461 17819 net.cpp:338] inception_5a/output_inception_5a/output_0_split -> inception_5a/output_inception_5a/output_0_split_2
I1218 11:18:46.603468 17819 net.cpp:338] inception_5a/output_inception_5a/output_0_split -> inception_5a/output_inception_5a/output_0_split_3
I1218 11:18:46.603476 17819 net.cpp:113] Setting up inception_5a/output_inception_5a/output_0_split
I1218 11:18:46.603483 17819 net.cpp:120] Top shape: 80 832 7 7 (3261440)
I1218 11:18:46.603488 17819 net.cpp:120] Top shape: 80 832 7 7 (3261440)
I1218 11:18:46.603493 17819 net.cpp:120] Top shape: 80 832 7 7 (3261440)
I1218 11:18:46.603498 17819 net.cpp:120] Top shape: 80 832 7 7 (3261440)
I1218 11:18:46.603503 17819 layer_factory.hpp:74] Creating layer inception_5b/1x1
I1218 11:18:46.603513 17819 net.cpp:84] Creating Layer inception_5b/1x1
I1218 11:18:46.603518 17819 net.cpp:380] inception_5b/1x1 <- inception_5a/output_inception_5a/output_0_split_0
I1218 11:18:46.603525 17819 net.cpp:338] inception_5b/1x1 -> inception_5b/1x1
I1218 11:18:46.603533 17819 net.cpp:113] Setting up inception_5b/1x1
I1218 11:18:46.607697 17819 net.cpp:120] Top shape: 80 384 7 7 (1505280)
I1218 11:18:46.607712 17819 layer_factory.hpp:74] Creating layer inception_5b/relu_1x1
I1218 11:18:46.607722 17819 net.cpp:84] Creating Layer inception_5b/relu_1x1
I1218 11:18:46.607728 17819 net.cpp:380] inception_5b/relu_1x1 <- inception_5b/1x1
I1218 11:18:46.607734 17819 net.cpp:327] inception_5b/relu_1x1 -> inception_5b/1x1 (in-place)
I1218 11:18:46.607743 17819 net.cpp:113] Setting up inception_5b/relu_1x1
I1218 11:18:46.608104 17819 net.cpp:120] Top shape: 80 384 7 7 (1505280)
I1218 11:18:46.608124 17819 layer_factory.hpp:74] Creating layer inception_5b/3x3_reduce
I1218 11:18:46.608139 17819 net.cpp:84] Creating Layer inception_5b/3x3_reduce
I1218 11:18:46.608145 17819 net.cpp:380] inception_5b/3x3_reduce <- inception_5a/output_inception_5a/output_0_split_1
I1218 11:18:46.608155 17819 net.cpp:338] inception_5b/3x3_reduce -> inception_5b/3x3_reduce
I1218 11:18:46.608165 17819 net.cpp:113] Setting up inception_5b/3x3_reduce
I1218 11:18:46.610489 17819 net.cpp:120] Top shape: 80 192 7 7 (752640)
I1218 11:18:46.610507 17819 layer_factory.hpp:74] Creating layer inception_5b/relu_3x3_reduce
I1218 11:18:46.610515 17819 net.cpp:84] Creating Layer inception_5b/relu_3x3_reduce
I1218 11:18:46.610522 17819 net.cpp:380] inception_5b/relu_3x3_reduce <- inception_5b/3x3_reduce
I1218 11:18:46.610528 17819 net.cpp:327] inception_5b/relu_3x3_reduce -> inception_5b/3x3_reduce (in-place)
I1218 11:18:46.610535 17819 net.cpp:113] Setting up inception_5b/relu_3x3_reduce
I1218 11:18:46.610607 17819 net.cpp:120] Top shape: 80 192 7 7 (752640)
I1218 11:18:46.610615 17819 layer_factory.hpp:74] Creating layer inception_5b/3x3
I1218 11:18:46.610623 17819 net.cpp:84] Creating Layer inception_5b/3x3
I1218 11:18:46.610628 17819 net.cpp:380] inception_5b/3x3 <- inception_5b/3x3_reduce
I1218 11:18:46.610636 17819 net.cpp:338] inception_5b/3x3 -> inception_5b/3x3
I1218 11:18:46.610668 17819 net.cpp:113] Setting up inception_5b/3x3
I1218 11:18:46.618880 17819 net.cpp:120] Top shape: 80 384 7 7 (1505280)
I1218 11:18:46.618902 17819 layer_factory.hpp:74] Creating layer inception_5b/relu_3x3
I1218 11:18:46.618922 17819 net.cpp:84] Creating Layer inception_5b/relu_3x3
I1218 11:18:46.618930 17819 net.cpp:380] inception_5b/relu_3x3 <- inception_5b/3x3
I1218 11:18:46.618952 17819 net.cpp:327] inception_5b/relu_3x3 -> inception_5b/3x3 (in-place)
I1218 11:18:46.618971 17819 net.cpp:113] Setting up inception_5b/relu_3x3
I1218 11:18:46.619050 17819 net.cpp:120] Top shape: 80 384 7 7 (1505280)
I1218 11:18:46.619057 17819 layer_factory.hpp:74] Creating layer inception_5b/5x5_reduce
I1218 11:18:46.619067 17819 net.cpp:84] Creating Layer inception_5b/5x5_reduce
I1218 11:18:46.619073 17819 net.cpp:380] inception_5b/5x5_reduce <- inception_5a/output_inception_5a/output_0_split_2
I1218 11:18:46.619081 17819 net.cpp:338] inception_5b/5x5_reduce -> inception_5b/5x5_reduce
I1218 11:18:46.619089 17819 net.cpp:113] Setting up inception_5b/5x5_reduce
I1218 11:18:46.619987 17819 net.cpp:120] Top shape: 80 48 7 7 (188160)
I1218 11:18:46.620002 17819 layer_factory.hpp:74] Creating layer inception_5b/relu_5x5_reduce
I1218 11:18:46.620012 17819 net.cpp:84] Creating Layer inception_5b/relu_5x5_reduce
I1218 11:18:46.620018 17819 net.cpp:380] inception_5b/relu_5x5_reduce <- inception_5b/5x5_reduce
I1218 11:18:46.620025 17819 net.cpp:327] inception_5b/relu_5x5_reduce -> inception_5b/5x5_reduce (in-place)
I1218 11:18:46.620033 17819 net.cpp:113] Setting up inception_5b/relu_5x5_reduce
I1218 11:18:46.620105 17819 net.cpp:120] Top shape: 80 48 7 7 (188160)
I1218 11:18:46.620111 17819 layer_factory.hpp:74] Creating layer inception_5b/5x5
I1218 11:18:46.620121 17819 net.cpp:84] Creating Layer inception_5b/5x5
I1218 11:18:46.620126 17819 net.cpp:380] inception_5b/5x5 <- inception_5b/5x5_reduce
I1218 11:18:46.620137 17819 net.cpp:338] inception_5b/5x5 -> inception_5b/5x5
I1218 11:18:46.620146 17819 net.cpp:113] Setting up inception_5b/5x5
I1218 11:18:46.622370 17819 net.cpp:120] Top shape: 80 128 7 7 (501760)
I1218 11:18:46.622385 17819 layer_factory.hpp:74] Creating layer inception_5b/relu_5x5
I1218 11:18:46.622402 17819 net.cpp:84] Creating Layer inception_5b/relu_5x5
I1218 11:18:46.622409 17819 net.cpp:380] inception_5b/relu_5x5 <- inception_5b/5x5
I1218 11:18:46.622418 17819 net.cpp:327] inception_5b/relu_5x5 -> inception_5b/5x5 (in-place)
I1218 11:18:46.622426 17819 net.cpp:113] Setting up inception_5b/relu_5x5
I1218 11:18:46.622692 17819 net.cpp:120] Top shape: 80 128 7 7 (501760)
I1218 11:18:46.622704 17819 layer_factory.hpp:74] Creating layer inception_5b/pool
I1218 11:18:46.622710 17819 layer_factory.cpp:56] CUDNN does not support padding or multiple tops. Using Caffe's own pooling layer.
I1218 11:18:46.622719 17819 net.cpp:84] Creating Layer inception_5b/pool
I1218 11:18:46.622725 17819 net.cpp:380] inception_5b/pool <- inception_5a/output_inception_5a/output_0_split_3
I1218 11:18:46.622731 17819 net.cpp:338] inception_5b/pool -> inception_5b/pool
I1218 11:18:46.622740 17819 net.cpp:113] Setting up inception_5b/pool
I1218 11:18:46.622750 17819 net.cpp:120] Top shape: 80 832 7 7 (3261440)
I1218 11:18:46.622755 17819 layer_factory.hpp:74] Creating layer inception_5b/pool_proj
I1218 11:18:46.622764 17819 net.cpp:84] Creating Layer inception_5b/pool_proj
I1218 11:18:46.622769 17819 net.cpp:380] inception_5b/pool_proj <- inception_5b/pool
I1218 11:18:46.622776 17819 net.cpp:338] inception_5b/pool_proj -> inception_5b/pool_proj
I1218 11:18:46.622784 17819 net.cpp:113] Setting up inception_5b/pool_proj
I1218 11:18:46.624461 17819 net.cpp:120] Top shape: 80 128 7 7 (501760)
I1218 11:18:46.624476 17819 layer_factory.hpp:74] Creating layer inception_5b/relu_pool_proj
I1218 11:18:46.624490 17819 net.cpp:84] Creating Layer inception_5b/relu_pool_proj
I1218 11:18:46.624496 17819 net.cpp:380] inception_5b/relu_pool_proj <- inception_5b/pool_proj
I1218 11:18:46.624505 17819 net.cpp:327] inception_5b/relu_pool_proj -> inception_5b/pool_proj (in-place)
I1218 11:18:46.624513 17819 net.cpp:113] Setting up inception_5b/relu_pool_proj
I1218 11:18:46.624591 17819 net.cpp:120] Top shape: 80 128 7 7 (501760)
I1218 11:18:46.624598 17819 layer_factory.hpp:74] Creating layer inception_5b/output
I1218 11:18:46.624604 17819 net.cpp:84] Creating Layer inception_5b/output
I1218 11:18:46.624615 17819 net.cpp:380] inception_5b/output <- inception_5b/1x1
I1218 11:18:46.624629 17819 net.cpp:380] inception_5b/output <- inception_5b/3x3
I1218 11:18:46.624634 17819 net.cpp:380] inception_5b/output <- inception_5b/5x5
I1218 11:18:46.624640 17819 net.cpp:380] inception_5b/output <- inception_5b/pool_proj
I1218 11:18:46.624647 17819 net.cpp:338] inception_5b/output -> inception_5b/output
I1218 11:18:46.624655 17819 net.cpp:113] Setting up inception_5b/output
I1218 11:18:46.624663 17819 net.cpp:120] Top shape: 80 1024 7 7 (4014080)
I1218 11:18:46.624668 17819 layer_factory.hpp:74] Creating layer pool5/7x7_s1
I1218 11:18:46.624675 17819 net.cpp:84] Creating Layer pool5/7x7_s1
I1218 11:18:46.624680 17819 net.cpp:380] pool5/7x7_s1 <- inception_5b/output
I1218 11:18:46.624687 17819 net.cpp:338] pool5/7x7_s1 -> pool5/7x7_s1
I1218 11:18:46.624694 17819 net.cpp:113] Setting up pool5/7x7_s1
I1218 11:18:46.624769 17819 net.cpp:120] Top shape: 80 1024 1 1 (81920)
I1218 11:18:46.624776 17819 layer_factory.hpp:74] Creating layer pool5/drop_7x7_s1
I1218 11:18:46.624783 17819 net.cpp:84] Creating Layer pool5/drop_7x7_s1
I1218 11:18:46.624788 17819 net.cpp:380] pool5/drop_7x7_s1 <- pool5/7x7_s1
I1218 11:18:46.624799 17819 net.cpp:327] pool5/drop_7x7_s1 -> pool5/7x7_s1 (in-place)
I1218 11:18:46.624805 17819 net.cpp:113] Setting up pool5/drop_7x7_s1
I1218 11:18:46.624812 17819 net.cpp:120] Top shape: 80 1024 1 1 (81920)
I1218 11:18:46.624817 17819 layer_factory.hpp:74] Creating layer loss3/classifier_kaggle
I1218 11:18:46.624833 17819 net.cpp:84] Creating Layer loss3/classifier_kaggle
I1218 11:18:46.624838 17819 net.cpp:380] loss3/classifier_kaggle <- pool5/7x7_s1
I1218 11:18:46.624845 17819 net.cpp:338] loss3/classifier_kaggle -> loss3/classifier_kaggle
I1218 11:18:46.624853 17819 net.cpp:113] Setting up loss3/classifier_kaggle
I1218 11:18:46.630223 17819 net.cpp:120] Top shape: 80 447 (35760)
I1218 11:18:46.630234 17819 layer_factory.hpp:74] Creating layer loss3/loss3
I1218 11:18:46.630244 17819 net.cpp:84] Creating Layer loss3/loss3
I1218 11:18:46.630249 17819 net.cpp:380] loss3/loss3 <- loss3/classifier_kaggle
I1218 11:18:46.630256 17819 net.cpp:380] loss3/loss3 <- label_data_1_split_2
I1218 11:18:46.630262 17819 net.cpp:338] loss3/loss3 -> loss3/loss3
I1218 11:18:46.630270 17819 net.cpp:113] Setting up loss3/loss3
…
I1218 11:18:46.635959 17819 net.cpp:257] The NetState phase (1) differed from the phase (0) specified by a rule in layer data
I1218 11:18:46.637471 17819 net.cpp:42] Initializing net from parameters: 
name: "MYNET"
state {
  phase: TEST
}
layer {
  name: "data"
  type: "ImageData"
  top: "data"
  top: "label"
  include {
    phase: TEST
  }
  transform_param {
    mirror: false
    crop_size: 224
    mean_value: 129
    mean_value: 129
    mean_value: 129
  }
  image_data_param {
    source: "/home/coldmanck/kaggle/label_val_full.txt"
    batch_size: 50
    shuffle: true
  }
}
layer {
  name: "conv1/7x7_s2"
  type: "Convolution"
  bottom: "data"
  top: "conv1/7x7_s2"
  param {
    lr_mult: 1
    decay_mult: 1
  }
  param {
    lr_mult: 2
    decay_mult: 0
  }
  convolution_param {
    num_output: 64
    pad: 3
    kernel_size: 7
    stride: 2
    weight_filler {
      type: "xavier"
    }
    bias_filler {
      type: "constant"
      value: 0.2
    }
  }
}
layer {
  name: "conv1/relu_7x7"
  type: "ReLU"
  bottom: "conv1/7x7_s2"
  top: "conv1/7x7_s2"
}
layer {
  name: "pool1/3x3_s2"
  type: "Pooling"
  bottom: "conv1/7x7_s2"
  top: "pool1/3x3_s2"
  pooling_param {
    pool: MAX
    kernel_size: 3
    stride: 2
  }
}
layer {
  name: "pool1/norm1"
  type: "LRN"
  bottom: "pool1/3x3_s2"
  top: "pool1/norm1"
  lrn_param {
    local_size: 5
    alpha: 0.0001
    beta: 0.75
  }
}
layer {
  name: "conv2/3x3_reduce"
  type: "Convolution"
  bottom: "pool1/norm1"
  top: "conv2/3x3_reduce"
  param {
    lr_mult: 1
    decay_mult: 1
  }
  param {
    lr_mult: 2
    decay_mult: 0
  }
  convolution_param {
    num_output: 64
    kernel_size: 1
    weight_filler {
      type: "xavier"
    }
    bias_filler {
      type: "constant"
      value: 0.2
    }
  }
}
layer {
  name: "conv2/relu_3x3_reduce"
  type: "ReLU"
  bottom: "conv2/3x3_reduce"
  top: "conv2/3x3_reduce"
}
layer {
  name: "conv2/3x3"
  type: "Convolution"
  bottom: "conv2/3x3_reduce"
  top: "conv2/3x3"
  param {
    lr_mult: 1
    decay_mult: 1
  }
  param {
    lr_mult: 2
    decay_mult: 0
  }
  convolution_param {
    num_output: 192
    pad: 1
    kernel_size: 3
    weight_filler {
      type: "xavier"
    }
    bias_filler {
      type: "constant"
      value: 0.2
    }
  }
}
layer {
  name: "conv2/relu_3x3"
  type: "ReLU"
  bottom: "conv2/3x3"
  top: "conv2/3x3"
}
layer {
  name: "conv2/norm2"
  type: "LRN"
  bottom: "conv2/3x3"
  top: "conv2/norm2"
  lrn_param {
    local_size: 5
    alpha: 0.0001
    beta: 0.75
  }
}
layer {
  name: "pool2/3x3_s2"
  type: "Pooling"
  bottom: "conv2/norm2"
  top: "pool2/3x3_s2"
  pooling_param {
    pool: MAX
    kernel_size: 3
    stride: 2
  }
}
layer {
  name: "inception_3a/1x1"
  type: "Convolution"
  bottom: "pool2/3x3_s2"
  top: "inception_3a/1x1"
  param {
    lr_mult: 1
    decay_mult: 1
  }
  param {
    lr_mult: 2
    decay_mult: 0
  }
  convolution_param {
    num_output: 64
    kernel_size: 1
    weight_filler {
      type: "xavier"
    }
    bias_filler {
      type: "constant"
      value: 0.2
    }
  }
}
layer {
  name: "inception_3a/relu_1x1"
  type: "ReLU"
  bottom: "inception_3a/1x1"
  top: "inception_3a/1x1"
}
layer {
  name: "inception_3a/3x3_reduce"
  type: "Convolution"
  bottom: "pool2/3x3_s2"
  top: "inception_3a/3x3_reduce"
  param {
    lr_mult: 1
    decay_mult: 1
  }
  param {
    lr_mult: 2
    decay_mult: 0
  }
  convolution_param {
    num_output: 96
    kernel_size: 1
    weight_filler {
      type: "xavier"
    }
    bias_filler {
      type: "constant"
      value: 0.2
    }
  }
}
layer {
  name: "inception_3a/relu_3x3_reduce"
  type: "ReLU"
  bottom: "inception_3a/3x3_reduce"
  top: "inception_3a/3x3_reduce"
}
layer {
  name: "inception_3a/3x3"
  type: "Convolution"
  bottom: "inception_3a/3x3_reduce"
  top: "inception_3a/3x3"
  param {
    lr_mult: 1
    decay_mult: 1
  }
  param {
    lr_mult: 2
    decay_mult: 0
  }
  convolution_param {
    num_output: 128
    pad: 1
    kernel_size: 3
    weight_filler {
      type: "xavier"
    }
    bias_filler {
      type: "constant"
      value: 0.2
    }
  }
}
layer {
  name: "inception_3a/relu_3x3"
  type: "ReLU"
  bottom: "inception_3a/3x3"
  top: "inception_3a/3x3"
}
layer {
  name: "inception_3a/5x5_reduce"
  type: "Convolution"
  bottom: "pool2/3x3_s2"
  top: "inception_3a/5x5_reduce"
  param {
    lr_mult: 1
    decay_mult: 1
  }
  param {
    lr_mult: 2
    decay_mult: 0
  }
  convolution_param {
    num_output: 16
    kernel_size: 1
    weight_filler {
      type: "xavier"
    }
    bias_filler {
      type: "constant"
      value: 0.2
    }
  }
}
layer {
  name: "inception_3a/relu_5x5_reduce"
  type: "ReLU"
  bottom: "inception_3a/5x5_reduce"
  top: "inception_3a/5x5_reduce"
}
layer {
  name: "inception_3a/5x5"
  type: "Convolution"
  bottom: "inception_3a/5x5_reduce"
  top: "inception_3a/5x5"
  param {
    lr_mult: 1
    decay_mult: 1
  }
  param {
    lr_mult: 2
    decay_mult: 0
  }
  convolution_param {
    num_output: 32
    pad: 2
    kernel_size: 5
    weight_filler {
      type: "xavier"
    }
    bias_filler {
      type: "constant"
      value: 0.2
    }
  }
}
layer {
  name: "inception_3a/relu_5x5"
  type: "ReLU"
  bottom: "inception_3a/5x5"
  top: "inception_3a/5x5"
}
layer {
  name: "inception_3a/pool"
  type: "Pooling"
  bottom: "pool2/3x3_s2"
  top: "inception_3a/pool"
  pooling_param {
    pool: MAX
    kernel_size: 3
    stride: 1
    pad: 1
  }
}
layer {
  name: "inception_3a/pool_proj"
  type: "Convolution"
  bottom: "inception_3a/pool"
  top: "inception_3a/pool_proj"
  param {
    lr_mult: 1
    decay_mult: 1
  }
  param {
    lr_mult: 2
    decay_mult: 0
  }
  convolution_param {
    num_output: 32
    kernel_size: 1
    weight_filler {
      type: "xavier"
    }
    bias_filler {
      type: "constant"
      value: 0.2
    }
  }
}
layer {
  name: "inception_3a/relu_pool_proj"
  type: "ReLU"
  bottom: "inception_3a/pool_proj"
  top: "inception_3a/pool_proj"
}
layer {
  name: "inception_3a/output"
  type: "Concat"
  bottom: "inception_3a/1x1"
  bottom: "inception_3a/3x3"
  bottom: "inception_3a/5x5"
  bottom: "inception_3a/pool_proj"
  top: "inception_3a/output"
}
layer {
  name: "inception_3b/1x1"
  type: "Convolution"
  bottom: "inception_3a/output"
  top: "inception_3b/1x1"
  param {
    lr_mult: 1
    decay_mult: 1
  }
  param {
    lr_mult: 2
    decay_mult: 0
  }
  convolution_param {
    num_output: 128
    kernel_size: 1
    weight_filler {
      type: "xavier"
    }
    bias_filler {
      type: "constant"
      value: 0.2
    }
  }
}
layer {
  name: "inception_3b/relu_1x1"
  type: "ReLU"
  bottom: "inception_3b/1x1"
  top: "inception_3b/1x1"
}
layer {
  name: "inception_3b/3x3_reduce"
  type: "Convolution"
  bottom: "inception_3a/output"
  top: "inception_3b/3x3_reduce"
  param {
    lr_mult: 1
    decay_mult: 1
  }
  param {
    lr_mult: 2
    decay_mult: 0
  }
  convolution_param {
    num_output: 128
    kernel_size: 1
    weight_filler {
      type: "xavier"
    }
    bias_filler {
      type: "constant"
      value: 0.2
    }
  }
}
layer {
  name: "inception_3b/relu_3x3_reduce"
  type: "ReLU"
  bottom: "inception_3b/3x3_reduce"
  top: "inception_3b/3x3_reduce"
}
layer {
  name: "inception_3b/3x3"
  type: "Convolution"
  bottom: "inception_3b/3x3_reduce"
  top: "inception_3b/3x3"
  param {
    lr_mult: 1
    decay_mult: 1
  }
  param {
    lr_mult: 2
    decay_mult: 0
  }
  convolution_param {
    num_output: 192
    pad: 1
    kernel_size: 3
    weight_filler {
      type: "xavier"
    }
    bias_filler {
      type: "constant"
      value: 0.2
    }
  }
}
layer {
  name: "inception_3b/relu_3x3"
  type: "ReLU"
  bottom: "inception_3b/3x3"
  top: "inception_3b/3x3"
}
layer {
  name: "inception_3b/5x5_reduce"
  type: "Convolution"
  bottom: "inception_3a/output"
  top: "inception_3b/5x5_reduce"
  param {
    lr_mult: 1
    decay_mult: 1
  }
  param {
    lr_mult: 2
    decay_mult: 0
  }
  convolution_param {
    num_output: 32
    kernel_size: 1
    weight_filler {
      type: "xavier"
    }
    bias_filler {
      type: "constant"
      value: 0.2
    }
  }
}
layer {
  name: "inception_3b/relu_5x5_reduce"
  type: "ReLU"
  bottom: "inception_3b/5x5_reduce"
  top: "inception_3b/5x5_reduce"
}
layer {
  name: "inception_3b/5x5"
  type: "Convolution"
  bottom: "inception_3b/5x5_reduce"
  top: "inception_3b/5x5"
  param {
    lr_mult: 1
    decay_mult: 1
  }
  param {
    lr_mult: 2
    decay_mult: 0
  }
  convolution_param {
    num_output: 96
    pad: 2
    kernel_size: 5
    weight_filler {
      type: "xavier"
    }
    bias_filler {
      type: "constant"
      value: 0.2
    }
  }
}
layer {
  name: "inception_3b/relu_5x5"
  type: "ReLU"
  bottom: "inception_3b/5x5"
  top: "inception_3b/5x5"
}
layer {
  name: "inception_3b/pool"
  type: "Pooling"
  bottom: "inception_3a/output"
  top: "inception_3b/pool"
  pooling_param {
    pool: MAX
    kernel_size: 3
    stride: 1
    pad: 1
  }
}
layer {
  name: "inception_3b/pool_proj"
  type: "Convolution"
  bottom: "inception_3b/pool"
  top: "inception_3b/pool_proj"
  param {
    lr_mult: 1
    decay_mult: 1
  }
  param {
    lr_mult: 2
    decay_mult: 0
  }
  convolution_param {
    num_output: 64
    kernel_size: 1
    weight_filler {
      type: "xavier"
    }
    bias_filler {
      type: "constant"
      value: 0.2
    }
  }
}
layer {
  name: "inception_3b/relu_pool_proj"
  type: "ReLU"
  bottom: "inception_3b/pool_proj"
  top: "inception_3b/pool_proj"
}
layer {
  name: "inception_3b/output"
  type: "Concat"
  bottom: "inception_3b/1x1"
  bottom: "inception_3b/3x3"
  bottom: "inception_3b/5x5"
  bottom: "inception_3b/pool_proj"
  top: "inception_3b/output"
}
layer {
  name: "pool3/3x3_s2"
  type: "Pooling"
  bottom: "inception_3b/output"
  top: "pool3/3x3_s2"
  pooling_param {
    pool: MAX
    kernel_size: 3
    stride: 2
  }
}
layer {
  name: "inception_4a/1x1"
  type: "Convolution"
  bottom: "pool3/3x3_s2"
  top: "inception_4a/1x1"
  param {
    lr_mult: 1
    decay_mult: 1
  }
  param {
    lr_mult: 2
    decay_mult: 0
  }
  convolution_param {
    num_output: 192
    kernel_size: 1
    weight_filler {
      type: "xavier"
    }
    bias_filler {
      type: "constant"
      value: 0.2
    }
  }
}
layer {
  name: "inception_4a/relu_1x1"
  type: "ReLU"
  bottom: "inception_4a/1x1"
  top: "inception_4a/1x1"
}
layer {
  name: "inception_4a/3x3_reduce"
  type: "Convolution"
  bottom: "pool3/3x3_s2"
  top: "inception_4a/3x3_reduce"
  param {
    lr_mult: 1
    decay_mult: 1
  }
  param {
    lr_mult: 2
    decay_mult: 0
  }
  convolution_param {
    num_output: 96
    kernel_size: 1
    weight_filler {
      type: "xavier"
    }
    bias_filler {
      type: "constant"
      value: 0.2
    }
  }
}
layer {
  name: "inception_4a/relu_3x3_reduce"
  type: "ReLU"
  bottom: "inception_4a/3x3_reduce"
  top: "inception_4a/3x3_reduce"
}
layer {
  name: "inception_4a/3x3"
  type: "Convolution"
  bottom: "inception_4a/3x3_reduce"
  top: "inception_4a/3x3"
  param {
    lr_mult: 1
    decay_mult: 1
  }
  param {
    lr_mult: 2
    decay_mult: 0
  }
  convolution_param {
    num_output: 208
    pad: 1
    kernel_size: 3
    weight_filler {
      type: "xavier"
    }
    bias_filler {
      type: "constant"
      value: 0.2
    }
  }
}
layer {
  name: "inception_4a/relu_3x3"
  type: "ReLU"
  bottom: "inception_4a/3x3"
  top: "inception_4a/3x3"
}
layer {
  name: "inception_4a/5x5_reduce"
  type: "Convolution"
  bottom: "pool3/3x3_s2"
  top: "inception_4a/5x5_reduce"
  param {
    lr_mult: 1
    decay_mult: 1
  }
  param {
    lr_mult: 2
    decay_mult: 0
  }
  convolution_param {
    num_output: 16
    kernel_size: 1
    weight_filler {
      type: "xavier"
    }
    bias_filler {
      type: "constant"
      value: 0.2
    }
  }
}
layer {
  name: "inception_4a/relu_5x5_reduce"
  type: "ReLU"
  bottom: "inception_4a/5x5_reduce"
  top: "inception_4a/5x5_reduce"
}
layer {
  name: "inception_4a/5x5"
  type: "Convolution"
  bottom: "inception_4a/5x5_reduce"
  top: "inception_4a/5x5"
  param {
    lr_mult: 1
    decay_mult: 1
  }
  param {
    lr_mult: 2
    decay_mult: 0
  }
  convolution_param {
    num_output: 48
    pad: 2
    kernel_size: 5
    weight_filler {
      type: "xavier"
    }
    bias_filler {
      type: "constant"
      value: 0.2
    }
  }
}
layer {
  name: "inception_4a/relu_5x5"
  type: "ReLU"
  bottom: "inception_4a/5x5"
  top: "inception_4a/5x5"
}
layer {
  name: "inception_4a/pool"
  type: "Pooling"
  bottom: "pool3/3x3_s2"
  top: "inception_4a/pool"
  pooling_param {
    pool: MAX
    kernel_size: 3
    stride: 1
    pad: 1
  }
}
layer {
  name: "inception_4a/pool_proj"
  type: "Convolution"
  bottom: "inception_4a/pool"
  top: "inception_4a/pool_proj"
  param {
    lr_mult: 1
    decay_mult: 1
  }
  param {
    lr_mult: 2
    decay_mult: 0
  }
  convolution_param {
    num_output: 64
    kernel_size: 1
    weight_filler {
      type: "xavier"
    }
    bias_filler {
      type: "constant"
      value: 0.2
    }
  }
}
layer {
  name: "inception_4a/relu_pool_proj"
  type: "ReLU"
  bottom: "inception_4a/pool_proj"
  top: "inception_4a/pool_proj"
}
layer {
  name: "inception_4a/output"
  type: "Concat"
  bottom: "inception_4a/1x1"
  bottom: "inception_4a/3x3"
  bottom: "inception_4a/5x5"
  bottom: "inception_4a/pool_proj"
  top: "inception_4a/output"
}
layer {
  name: "loss1/ave_pool"
  type: "Pooling"
  bottom: "inception_4a/output"
  top: "loss1/ave_pool"
  pooling_param {
    pool: AVE
    kernel_size: 5
    stride: 3
  }
}
layer {
  name: "loss1/conv"
  type: "Convolution"
  bottom: "loss1/ave_pool"
  top: "loss1/conv"
  param {
    lr_mult: 1
    decay_mult: 1
  }
  param {
    lr_mult: 2
    decay_mult: 0
  }
  convolution_param {
    num_output: 128
    kernel_size: 1
    weight_filler {
      type: "xavier"
    }
    bias_filler {
      type: "constant"
      value: 0.2
    }
  }
}
layer {
  name: "loss1/relu_conv"
  type: "ReLU"
  bottom: "loss1/conv"
  top: "loss1/conv"
}
layer {
  name: "loss1/fc"
  type: "InnerProduct"
  bottom: "loss1/conv"
  top: "loss1/fc"
  param {
    lr_mult: 1
    decay_mult: 1
  }
  param {
    lr_mult: 2
    decay_mult: 0
  }
  inner_product_param {
    num_output: 1024
    weight_filler {
      type: "xavier"
    }
    bias_filler {
      type: "constant"
      value: 0.2
    }
  }
}
layer {
  name: "loss1/relu_fc"
  type: "ReLU"
  bottom: "loss1/fc"
  top: "loss1/fc"
}
layer {
  name: "loss1/drop_fc"
  type: "Dropout"
  bottom: "loss1/fc"
  top: "loss1/fc"
  dropout_param {
    dropout_ratio: 0.7
  }
}
layer {
  name: "loss1/classifier_kaggle"
  type: "InnerProduct"
  bottom: "loss1/fc"
  top: "loss1/classifier_kaggle"
  param {
    lr_mult: 1
    decay_mult: 1
  }
  param {
    lr_mult: 2
    decay_mult: 0
  }
  inner_product_param {
    num_output: 447
    weight_filler {
      type: "xavier"
    }
    bias_filler {
      type: "constant"
      value: 0
    }
  }
}
layer {
  name: "loss1/loss"
  type: "SoftmaxWithLoss"
  bottom: "loss1/classifier_kaggle"
  bottom: "label"
  top: "loss1/loss1"
  loss_weight: 0.3
}
layer {
  name: "loss1/top-1"
  type: "Accuracy"
  bottom: "loss1/classifier_kaggle"
  bottom: "label"
  top: "loss1/top-1"
  include {
    phase: TEST
  }
}
layer {
  name: "loss1/top-5"
  type: "Accuracy"
  bottom: "loss1/classifier_kaggle"
  bottom: "label"
  top: "loss1/top-5"
  include {
    phase: TEST
  }
  accuracy_param {
    top_k: 5
  }
}
layer {
  name: "inception_4b/1x1"
  type: "Convolution"
  bottom: "inception_4a/output"
  top: "inception_4b/1x1"
  param {
    lr_mult: 1
    decay_mult: 1
  }
  param {
    lr_mult: 2
    decay_mult: 0
  }
  convolution_param {
    num_output: 160
    kernel_size: 1
    weight_filler {
      type: "xavier"
    }
    bias_filler {
      type: "constant"
      value: 0.2
    }
  }
}
layer {
  name: "inception_4b/relu_1x1"
  type: "ReLU"
  bottom: "inception_4b/1x1"
  top: "inception_4b/1x1"
}
layer {
  name: "inception_4b/3x3_reduce"
  type: "Convolution"
  bottom: "inception_4a/output"
  top: "inception_4b/3x3_reduce"
  param {
    lr_mult: 1
    decay_mult: 1
  }
  param {
    lr_mult: 2
    decay_mult: 0
  }
  convolution_param {
    num_output: 112
    kernel_size: 1
    weight_filler {
      type: "xavier"
    }
    bias_filler {
      type: "constant"
      value: 0.2
    }
  }
}
layer {
  name: "inception_4b/relu_3x3_reduce"
  type: "ReLU"
  bottom: "inception_4b/3x3_reduce"
  top: "inception_4b/3x3_reduce"
}
layer {
  name: "inception_4b/3x3"
  type: "Convolution"
  bottom: "inception_4b/3x3_reduce"
  top: "inception_4b/3x3"
  param {
    lr_mult: 1
    decay_mult: 1
  }
  param {
    lr_mult: 2
    decay_mult: 0
  }
  convolution_param {
    num_output: 224
    pad: 1
    kernel_size: 3
    weight_filler {
      type: "xavier"
    }
    bias_filler {
      type: "constant"
      value: 0.2
    }
  }
}
layer {
  name: "inception_4b/relu_3x3"
  type: "ReLU"
  bottom: "inception_4b/3x3"
  top: "inception_4b/3x3"
}
layer {
  name: "inception_4b/5x5_reduce"
  type: "Convolution"
  bottom: "inception_4a/output"
  top: "inception_4b/5x5_reduce"
  param {
    lr_mult: 1
    decay_mult: 1
  }
  param {
    lr_mult: 2
    decay_mult: 0
  }
  convolution_param {
    num_output: 24
    kernel_size: 1
    weight_filler {
      type: "xavier"
    }
    bias_filler {
      type: "constant"
      value: 0.2
    }
  }
}
layer {
  name: "inception_4b/relu_5x5_reduce"
  type: "ReLU"
  bottom: "inception_4b/5x5_reduce"
  top: "inception_4b/5x5_reduce"
}
layer {
  name: "inception_4b/5x5"
  type: "Convolution"
  bottom: "inception_4b/5x5_reduce"
  top: "inception_4b/5x5"
  param {
    lr_mult: 1
    decay_mult: 1
  }
  param {
    lr_mult: 2
    decay_mult: 0
  }
  convolution_param {
    num_output: 64
    pad: 2
    kernel_size: 5
    weight_filler {
      type: "xavier"
    }
    bias_filler {
      type: "constant"
      value: 0.2
    }
  }
}
layer {
  name: "inception_4b/relu_5x5"
  type: "ReLU"
  bottom: "inception_4b/5x5"
  top: "inception_4b/5x5"
}
layer {
  name: "inception_4b/pool"
  type: "Pooling"
  bottom: "inception_4a/output"
  top: "inception_4b/pool"
  pooling_param {
    pool: MAX
    kernel_size: 3
    stride: 1
    pad: 1
  }
}
layer {
  name: "inception_4b/pool_proj"
  type: "Convolution"
  bottom: "inception_4b/pool"
  top: "inception_4b/pool_proj"
  param {
    lr_mult: 1
    decay_mult: 1
  }
  param {
    lr_mult: 2
    decay_mult: 0
  }
  convolution_param {
    num_output: 64
    kernel_size: 1
    weight_filler {
      type: "xavier"
    }
    bias_filler {
      type: "constant"
      value: 0.2
    }
  }
}
layer {
  name: "inception_4b/relu_pool_proj"
  type: "ReLU"
  bottom: "inception_4b/pool_proj"
  top: "inception_4b/pool_proj"
}
layer {
  name: "inception_4b/output"
  type: "Concat"
  bottom: "inception_4b/1x1"
  bottom: "inception_4b/3x3"
  bottom: "inception_4b/5x5"
  bottom: "inception_4b/pool_proj"
  top: "inception_4b/output"
}
layer {
  name: "inception_4c/1x1"
  type: "Convolution"
  bottom: "inception_4b/output"
  top: "inception_4c/1x1"
  param {
    lr_mult: 1
    decay_mult: 1
  }
  param {
    lr_mult: 2
    decay_mult: 0
  }
  convolution_param {
    num_output: 128
    kernel_size: 1
    weight_filler {
      type: "xavier"
    }
    bias_filler {
      type: "constant"
      value: 0.2
    }
  }
}
layer {
  name: "inception_4c/relu_1x1"
  type: "ReLU"
  bottom: "inception_4c/1x1"
  top: "inception_4c/1x1"
}
layer {
  name: "inception_4c/3x3_reduce"
  type: "Convolution"
  bottom: "inception_4b/output"
  top: "inception_4c/3x3_reduce"
  param {
    lr_mult: 1
    decay_mult: 1
  }
  param {
    lr_mult: 2
    decay_mult: 0
  }
  convolution_param {
    num_output: 128
    kernel_size: 1
    weight_filler {
      type: "xavier"
    }
    bias_filler {
      type: "constant"
      value: 0.2
    }
  }
}
layer {
  name: "inception_4c/relu_3x3_reduce"
  type: "ReLU"
  bottom: "inception_4c/3x3_reduce"
  top: "inception_4c/3x3_reduce"
}
layer {
  name: "inception_4c/3x3"
  type: "Convolution"
  bottom: "inception_4c/3x3_reduce"
  top: "inception_4c/3x3"
  param {
    lr_mult: 1
    decay_mult: 1
  }
  param {
    lr_mult: 2
    decay_mult: 0
  }
  convolution_param {
    num_output: 256
    pad: 1
    kernel_size: 3
    weight_filler {
      type: "xavier"
    }
    bias_filler {
      type: "constant"
      value: 0.2
    }
  }
}
layer {
  name: "inception_4c/relu_3x3"
  type: "ReLU"
  bottom: "inception_4c/3x3"
  top: "inception_4c/3x3"
}
layer {
  name: "inception_4c/5x5_reduce"
  type: "Convolution"
  bottom: "inception_4b/output"
  top: "inception_4c/5x5_reduce"
  param {
    lr_mult: 1
    decay_mult: 1
  }
  param {
    lr_mult: 2
    decay_mult: 0
  }
  convolution_param {
    num_output: 24
    kernel_size: 1
    weight_filler {
      type: "xavier"
    }
    bias_filler {
      type: "constant"
      value: 0.2
    }
  }
}
layer {
  name: "inception_4c/relu_5x5_reduce"
  type: "ReLU"
  bottom: "inception_4c/5x5_reduce"
  top: "inception_4c/5x5_reduce"
}
layer {
  name: "inception_4c/5x5"
  type: "Convolution"
  bottom: "inception_4c/5x5_reduce"
  top: "inception_4c/5x5"
  param {
    lr_mult: 1
    decay_mult: 1
  }
  param {
    lr_mult: 2
    decay_mult: 0
  }
  convolution_param {
    num_output: 64
    pad: 2
    kernel_size: 5
    weight_filler {
      type: "xavier"
    }
    bias_filler {
      type: "constant"
      value: 0.2
    }
  }
}
layer {
  name: "inception_4c/relu_5x5"
  type: "ReLU"
  bottom: "inception_4c/5x5"
  top: "inception_4c/5x5"
}
layer {
  name: "inception_4c/pool"
  type: "Pooling"
  bottom: "inception_4b/output"
  top: "inception_4c/pool"
  pooling_param {
    pool: MAX
    kernel_size: 3
    stride: 1
    pad: 1
  }
}
layer {
  name: "inception_4c/pool_proj"
  type: "Convolution"
  bottom: "inception_4c/pool"
  top: "inception_4c/pool_proj"
  param {
    lr_mult: 1
    decay_mult: 1
  }
  param {
    lr_mult: 2
    decay_mult: 0
  }
  convolution_param {
    num_output: 64
    kernel_size: 1
    weight_filler {
      type: "xavier"
    }
    bias_filler {
      type: "constant"
      value: 0.2
    }
  }
}
layer {
  name: "inception_4c/relu_pool_proj"
  type: "ReLU"
  bottom: "inception_4c/pool_proj"
  top: "inception_4c/pool_proj"
}
layer {
  name: "inception_4c/output"
  type: "Concat"
  bottom: "inception_4c/1x1"
  bottom: "inception_4c/3x3"
  bottom: "inception_4c/5x5"
  bottom: "inception_4c/pool_proj"
  top: "inception_4c/output"
}
layer {
  name: "inception_4d/1x1"
  type: "Convolution"
  bottom: "inception_4c/output"
  top: "inception_4d/1x1"
  param {
    lr_mult: 1
    decay_mult: 1
  }
  param {
    lr_mult: 2
    decay_mult: 0
  }
  convolution_param {
    num_output: 112
    kernel_size: 1
    weight_filler {
      type: "xavier"
    }
    bias_filler {
      type: "constant"
      value: 0.2
    }
  }
}
layer {
  name: "inception_4d/relu_1x1"
  type: "ReLU"
  bottom: "inception_4d/1x1"
  top: "inception_4d/1x1"
}
layer {
  name: "inception_4d/3x3_reduce"
  type: "Convolution"
  bottom: "inception_4c/output"
  top: "inception_4d/3x3_reduce"
  param {
    lr_mult: 1
    decay_mult: 1
  }
  param {
    lr_mult: 2
    decay_mult: 0
  }
  convolution_param {
    num_output: 144
    kernel_size: 1
    weight_filler {
      type: "xavier"
    }
    bias_filler {
      type: "constant"
      value: 0.2
    }
  }
}
layer {
  name: "inception_4d/relu_3x3_reduce"
  type: "ReLU"
  bottom: "inception_4d/3x3_reduce"
  top: "inception_4d/3x3_reduce"
}
layer {
  name: "inception_4d/3x3"
  type: "Convolution"
  bottom: "inception_4d/3x3_reduce"
  top: "inception_4d/3x3"
  param {
    lr_mult: 1
    decay_mult: 1
  }
  param {
    lr_mult: 2
    decay_mult: 0
  }
  convolution_param {
    num_output: 288
    pad: 1
    kernel_size: 3
    weight_filler {
      type: "xavier"
    }
    bias_filler {
      type: "constant"
      value: 0.2
    }
  }
}
layer {
  name: "inception_4d/relu_3x3"
  type: "ReLU"
  bottom: "inception_4d/3x3"
  top: "inception_4d/3x3"
}
layer {
  name: "inception_4d/5x5_reduce"
  type: "Convolution"
  bottom: "inception_4c/output"
  top: "inception_4d/5x5_reduce"
  param {
    lr_mult: 1
    decay_mult: 1
  }
  param {
    lr_mult: 2
    decay_mult: 0
  }
  convolution_param {
    num_output: 32
    kernel_size: 1
    weight_filler {
      type: "xavier"
    }
    bias_filler {
      type: "constant"
      value: 0.2
    }
  }
}
layer {
  name: "inception_4d/relu_5x5_reduce"
  type: "ReLU"
  bottom: "inception_4d/5x5_reduce"
  top: "inception_4d/5x5_reduce"
}
layer {
  name: "inception_4d/5x5"
  type: "Convolution"
  bottom: "inception_4d/5x5_reduce"
  top: "inception_4d/5x5"
  param {
    lr_mult: 1
    decay_mult: 1
  }
  param {
    lr_mult: 2
    decay_mult: 0
  }
  convolution_param {
    num_output: 64
    pad: 2
    kernel_size: 5
    weight_filler {
      type: "xavier"
    }
    bias_filler {
      type: "constant"
      value: 0.2
    }
  }
}
layer {
  name: "inception_4d/relu_5x5"
  type: "ReLU"
  bottom: "inception_4d/5x5"
  top: "inception_4d/5x5"
}
layer {
  name: "inception_4d/pool"
  type: "Pooling"
  bottom: "inception_4c/output"
  top: "inception_4d/pool"
  pooling_param {
    pool: MAX
    kernel_size: 3
    stride: 1
    pad: 1
  }
}
layer {
  name: "inception_4d/pool_proj"
  type: "Convolution"
  bottom: "inception_4d/pool"
  top: "inception_4d/pool_proj"
  param {
    lr_mult: 1
    decay_mult: 1
  }
  param {
    lr_mult: 2
    decay_mult: 0
  }
  convolution_param {
    num_output: 64
    kernel_size: 1
    weight_filler {
      type: "xavier"
    }
    bias_filler {
      type: "constant"
      value: 0.2
    }
  }
}
layer {
  name: "inception_4d/relu_pool_proj"
  type: "ReLU"
  bottom: "inception_4d/pool_proj"
  top: "inception_4d/pool_proj"
}
layer {
  name: "inception_4d/output"
  type: "Concat"
  bottom: "inception_4d/1x1"
  bottom: "inception_4d/3x3"
  bottom: "inception_4d/5x5"
  bottom: "inception_4d/pool_proj"
  top: "inception_4d/output"
}
layer {
  name: "loss2/ave_pool"
  type: "Pooling"
  bottom: "inception_4d/output"
  top: "loss2/ave_pool"
  pooling_param {
    pool: AVE
    kernel_size: 5
    stride: 3
  }
}
layer {
  name: "loss2/conv"
  type: "Convolution"
…
I1218 11:18:47.027111 17819 net.cpp:84] Creating Layer inception_4c/1x1
I1218 11:18:47.027115 17819 net.cpp:380] inception_4c/1x1 <- inception_4b/output_inception_4b/output_0_split_0
I1218 11:18:47.027124 17819 net.cpp:338] inception_4c/1x1 -> inception_4c/1x1
I1218 11:18:47.027132 17819 net.cpp:113] Setting up inception_4c/1x1
I1218 11:18:47.029161 17819 net.cpp:120] Top shape: 50 128 14 14 (1254400)
I1218 11:18:47.029182 17819 layer_factory.hpp:74] Creating layer inception_4c/relu_1x1
I1218 11:18:47.029191 17819 net.cpp:84] Creating Layer inception_4c/relu_1x1
I1218 11:18:47.029196 17819 net.cpp:380] inception_4c/relu_1x1 <- inception_4c/1x1
I1218 11:18:47.029203 17819 net.cpp:327] inception_4c/relu_1x1 -> inception_4c/1x1 (in-place)
I1218 11:18:47.029212 17819 net.cpp:113] Setting up inception_4c/relu_1x1
I1218 11:18:47.030516 17819 net.cpp:120] Top shape: 50 128 14 14 (1254400)
I1218 11:18:47.030541 17819 layer_factory.hpp:74] Creating layer inception_4c/3x3_reduce
I1218 11:18:47.030553 17819 net.cpp:84] Creating Layer inception_4c/3x3_reduce
I1218 11:18:47.030560 17819 net.cpp:380] inception_4c/3x3_reduce <- inception_4b/output_inception_4b/output_0_split_1
I1218 11:18:47.030570 17819 net.cpp:338] inception_4c/3x3_reduce -> inception_4c/3x3_reduce
I1218 11:18:47.030581 17819 net.cpp:113] Setting up inception_4c/3x3_reduce
I1218 11:18:47.033208 17819 net.cpp:120] Top shape: 50 128 14 14 (1254400)
I1218 11:18:47.033229 17819 layer_factory.hpp:74] Creating layer inception_4c/relu_3x3_reduce
I1218 11:18:47.033241 17819 net.cpp:84] Creating Layer inception_4c/relu_3x3_reduce
I1218 11:18:47.033247 17819 net.cpp:380] inception_4c/relu_3x3_reduce <- inception_4c/3x3_reduce
I1218 11:18:47.033254 17819 net.cpp:327] inception_4c/relu_3x3_reduce -> inception_4c/3x3_reduce (in-place)
I1218 11:18:47.033263 17819 net.cpp:113] Setting up inception_4c/relu_3x3_reduce
I1218 11:18:47.033344 17819 net.cpp:120] Top shape: 50 128 14 14 (1254400)
I1218 11:18:47.033350 17819 layer_factory.hpp:74] Creating layer inception_4c/3x3
I1218 11:18:47.033359 17819 net.cpp:84] Creating Layer inception_4c/3x3
I1218 11:18:47.033365 17819 net.cpp:380] inception_4c/3x3 <- inception_4c/3x3_reduce
I1218 11:18:47.033373 17819 net.cpp:338] inception_4c/3x3 -> inception_4c/3x3
I1218 11:18:47.033382 17819 net.cpp:113] Setting up inception_4c/3x3
I1218 11:18:47.037842 17819 net.cpp:120] Top shape: 50 256 14 14 (2508800)
I1218 11:18:47.037878 17819 layer_factory.hpp:74] Creating layer inception_4c/relu_3x3
I1218 11:18:47.037888 17819 net.cpp:84] Creating Layer inception_4c/relu_3x3
I1218 11:18:47.037894 17819 net.cpp:380] inception_4c/relu_3x3 <- inception_4c/3x3
I1218 11:18:47.037900 17819 net.cpp:327] inception_4c/relu_3x3 -> inception_4c/3x3 (in-place)
I1218 11:18:47.037910 17819 net.cpp:113] Setting up inception_4c/relu_3x3
I1218 11:18:47.037988 17819 net.cpp:120] Top shape: 50 256 14 14 (2508800)
I1218 11:18:47.037995 17819 layer_factory.hpp:74] Creating layer inception_4c/5x5_reduce
I1218 11:18:47.038007 17819 net.cpp:84] Creating Layer inception_4c/5x5_reduce
I1218 11:18:47.038012 17819 net.cpp:380] inception_4c/5x5_reduce <- inception_4b/output_inception_4b/output_0_split_2
I1218 11:18:47.038019 17819 net.cpp:338] inception_4c/5x5_reduce -> inception_4c/5x5_reduce
I1218 11:18:47.038028 17819 net.cpp:113] Setting up inception_4c/5x5_reduce
I1218 11:18:47.039577 17819 net.cpp:120] Top shape: 50 24 14 14 (235200)
I1218 11:18:47.039598 17819 layer_factory.hpp:74] Creating layer inception_4c/relu_5x5_reduce
I1218 11:18:47.039609 17819 net.cpp:84] Creating Layer inception_4c/relu_5x5_reduce
I1218 11:18:47.039615 17819 net.cpp:380] inception_4c/relu_5x5_reduce <- inception_4c/5x5_reduce
I1218 11:18:47.039623 17819 net.cpp:327] inception_4c/relu_5x5_reduce -> inception_4c/5x5_reduce (in-place)
I1218 11:18:47.039631 17819 net.cpp:113] Setting up inception_4c/relu_5x5_reduce
I1218 11:18:47.040910 17819 net.cpp:120] Top shape: 50 24 14 14 (235200)
I1218 11:18:47.040922 17819 layer_factory.hpp:74] Creating layer inception_4c/5x5
I1218 11:18:47.040931 17819 net.cpp:84] Creating Layer inception_4c/5x5
I1218 11:18:47.040937 17819 net.cpp:380] inception_4c/5x5 <- inception_4c/5x5_reduce
I1218 11:18:47.040947 17819 net.cpp:338] inception_4c/5x5 -> inception_4c/5x5
I1218 11:18:47.040957 17819 net.cpp:113] Setting up inception_4c/5x5
I1218 11:18:47.042863 17819 net.cpp:120] Top shape: 50 64 14 14 (627200)
I1218 11:18:47.042886 17819 layer_factory.hpp:74] Creating layer inception_4c/relu_5x5
I1218 11:18:47.042896 17819 net.cpp:84] Creating Layer inception_4c/relu_5x5
I1218 11:18:47.042902 17819 net.cpp:380] inception_4c/relu_5x5 <- inception_4c/5x5
I1218 11:18:47.042911 17819 net.cpp:327] inception_4c/relu_5x5 -> inception_4c/5x5 (in-place)
I1218 11:18:47.042920 17819 net.cpp:113] Setting up inception_4c/relu_5x5
I1218 11:18:47.043004 17819 net.cpp:120] Top shape: 50 64 14 14 (627200)
I1218 11:18:47.043016 17819 layer_factory.hpp:74] Creating layer inception_4c/pool
I1218 11:18:47.043030 17819 layer_factory.cpp:56] CUDNN does not support padding or multiple tops. Using Caffe's own pooling layer.
I1218 11:18:47.043036 17819 net.cpp:84] Creating Layer inception_4c/pool
I1218 11:18:47.043041 17819 net.cpp:380] inception_4c/pool <- inception_4b/output_inception_4b/output_0_split_3
I1218 11:18:47.043051 17819 net.cpp:338] inception_4c/pool -> inception_4c/pool
I1218 11:18:47.043058 17819 net.cpp:113] Setting up inception_4c/pool
I1218 11:18:47.043067 17819 net.cpp:120] Top shape: 50 512 14 14 (5017600)
I1218 11:18:47.043072 17819 layer_factory.hpp:74] Creating layer inception_4c/pool_proj
I1218 11:18:47.043083 17819 net.cpp:84] Creating Layer inception_4c/pool_proj
I1218 11:18:47.043088 17819 net.cpp:380] inception_4c/pool_proj <- inception_4c/pool
I1218 11:18:47.043095 17819 net.cpp:338] inception_4c/pool_proj -> inception_4c/pool_proj
I1218 11:18:47.043103 17819 net.cpp:113] Setting up inception_4c/pool_proj
I1218 11:18:47.045049 17819 net.cpp:120] Top shape: 50 64 14 14 (627200)
I1218 11:18:47.045080 17819 layer_factory.hpp:74] Creating layer inception_4c/relu_pool_proj
I1218 11:18:47.045090 17819 net.cpp:84] Creating Layer inception_4c/relu_pool_proj
I1218 11:18:47.045096 17819 net.cpp:380] inception_4c/relu_pool_proj <- inception_4c/pool_proj
I1218 11:18:47.045106 17819 net.cpp:327] inception_4c/relu_pool_proj -> inception_4c/pool_proj (in-place)
I1218 11:18:47.045115 17819 net.cpp:113] Setting up inception_4c/relu_pool_proj
I1218 11:18:47.045194 17819 net.cpp:120] Top shape: 50 64 14 14 (627200)
I1218 11:18:47.045202 17819 layer_factory.hpp:74] Creating layer inception_4c/output
I1218 11:18:47.045208 17819 net.cpp:84] Creating Layer inception_4c/output
I1218 11:18:47.045214 17819 net.cpp:380] inception_4c/output <- inception_4c/1x1
I1218 11:18:47.045220 17819 net.cpp:380] inception_4c/output <- inception_4c/3x3
I1218 11:18:47.045228 17819 net.cpp:380] inception_4c/output <- inception_4c/5x5
I1218 11:18:47.045233 17819 net.cpp:380] inception_4c/output <- inception_4c/pool_proj
I1218 11:18:47.045239 17819 net.cpp:338] inception_4c/output -> inception_4c/output
I1218 11:18:47.045248 17819 net.cpp:113] Setting up inception_4c/output
I1218 11:18:47.045255 17819 net.cpp:120] Top shape: 50 512 14 14 (5017600)
I1218 11:18:47.045259 17819 layer_factory.hpp:74] Creating layer inception_4c/output_inception_4c/output_0_split
I1218 11:18:47.045266 17819 net.cpp:84] Creating Layer inception_4c/output_inception_4c/output_0_split
I1218 11:18:47.045271 17819 net.cpp:380] inception_4c/output_inception_4c/output_0_split <- inception_4c/output
I1218 11:18:47.045279 17819 net.cpp:338] inception_4c/output_inception_4c/output_0_split -> inception_4c/output_inception_4c/output_0_split_0
I1218 11:18:47.045285 17819 net.cpp:338] inception_4c/output_inception_4c/output_0_split -> inception_4c/output_inception_4c/output_0_split_1
I1218 11:18:47.045295 17819 net.cpp:338] inception_4c/output_inception_4c/output_0_split -> inception_4c/output_inception_4c/output_0_split_2
I1218 11:18:47.045302 17819 net.cpp:338] inception_4c/output_inception_4c/output_0_split -> inception_4c/output_inception_4c/output_0_split_3
I1218 11:18:47.045308 17819 net.cpp:113] Setting up inception_4c/output_inception_4c/output_0_split
I1218 11:18:47.045316 17819 net.cpp:120] Top shape: 50 512 14 14 (5017600)
I1218 11:18:47.045321 17819 net.cpp:120] Top shape: 50 512 14 14 (5017600)
I1218 11:18:47.045326 17819 net.cpp:120] Top shape: 50 512 14 14 (5017600)
I1218 11:18:47.045331 17819 net.cpp:120] Top shape: 50 512 14 14 (5017600)
I1218 11:18:47.045336 17819 layer_factory.hpp:74] Creating layer inception_4d/1x1
I1218 11:18:47.045346 17819 net.cpp:84] Creating Layer inception_4d/1x1
I1218 11:18:47.045351 17819 net.cpp:380] inception_4d/1x1 <- inception_4c/output_inception_4c/output_0_split_0
I1218 11:18:47.045358 17819 net.cpp:338] inception_4d/1x1 -> inception_4d/1x1
I1218 11:18:47.045367 17819 net.cpp:113] Setting up inception_4d/1x1
I1218 11:18:47.048305 17819 net.cpp:120] Top shape: 50 112 14 14 (1097600)
I1218 11:18:47.048364 17819 layer_factory.hpp:74] Creating layer inception_4d/relu_1x1
I1218 11:18:47.048373 17819 net.cpp:84] Creating Layer inception_4d/relu_1x1
I1218 11:18:47.048382 17819 net.cpp:380] inception_4d/relu_1x1 <- inception_4d/1x1
I1218 11:18:47.048389 17819 net.cpp:327] inception_4d/relu_1x1 -> inception_4d/1x1 (in-place)
I1218 11:18:47.048398 17819 net.cpp:113] Setting up inception_4d/relu_1x1
I1218 11:18:47.048477 17819 net.cpp:120] Top shape: 50 112 14 14 (1097600)
I1218 11:18:47.048485 17819 layer_factory.hpp:74] Creating layer inception_4d/3x3_reduce
I1218 11:18:47.048501 17819 net.cpp:84] Creating Layer inception_4d/3x3_reduce
I1218 11:18:47.048507 17819 net.cpp:380] inception_4d/3x3_reduce <- inception_4c/output_inception_4c/output_0_split_1
I1218 11:18:47.048514 17819 net.cpp:338] inception_4d/3x3_reduce -> inception_4d/3x3_reduce
I1218 11:18:47.048523 17819 net.cpp:113] Setting up inception_4d/3x3_reduce
I1218 11:18:47.051108 17819 net.cpp:120] Top shape: 50 144 14 14 (1411200)
I1218 11:18:47.051128 17819 layer_factory.hpp:74] Creating layer inception_4d/relu_3x3_reduce
I1218 11:18:47.051139 17819 net.cpp:84] Creating Layer inception_4d/relu_3x3_reduce
I1218 11:18:47.051146 17819 net.cpp:380] inception_4d/relu_3x3_reduce <- inception_4d/3x3_reduce
I1218 11:18:47.051152 17819 net.cpp:327] inception_4d/relu_3x3_reduce -> inception_4d/3x3_reduce (in-place)
I1218 11:18:47.051161 17819 net.cpp:113] Setting up inception_4d/relu_3x3_reduce
I1218 11:18:47.052479 17819 net.cpp:120] Top shape: 50 144 14 14 (1411200)
I1218 11:18:47.052510 17819 layer_factory.hpp:74] Creating layer inception_4d/3x3
I1218 11:18:47.052532 17819 net.cpp:84] Creating Layer inception_4d/3x3
I1218 11:18:47.052544 17819 net.cpp:380] inception_4d/3x3 <- inception_4d/3x3_reduce
I1218 11:18:47.052561 17819 net.cpp:338] inception_4d/3x3 -> inception_4d/3x3
I1218 11:18:47.052582 17819 net.cpp:113] Setting up inception_4d/3x3
I1218 11:18:47.058527 17819 net.cpp:120] Top shape: 50 288 14 14 (2822400)
I1218 11:18:47.058548 17819 layer_factory.hpp:74] Creating layer inception_4d/relu_3x3
I1218 11:18:47.058559 17819 net.cpp:84] Creating Layer inception_4d/relu_3x3
I1218 11:18:47.058565 17819 net.cpp:380] inception_4d/relu_3x3 <- inception_4d/3x3
I1218 11:18:47.058573 17819 net.cpp:327] inception_4d/relu_3x3 -> inception_4d/3x3 (in-place)
I1218 11:18:47.058581 17819 net.cpp:113] Setting up inception_4d/relu_3x3
I1218 11:18:47.058662 17819 net.cpp:120] Top shape: 50 288 14 14 (2822400)
I1218 11:18:47.058671 17819 layer_factory.hpp:74] Creating layer inception_4d/5x5_reduce
I1218 11:18:47.058681 17819 net.cpp:84] Creating Layer inception_4d/5x5_reduce
I1218 11:18:47.058686 17819 net.cpp:380] inception_4d/5x5_reduce <- inception_4c/output_inception_4c/output_0_split_2
I1218 11:18:47.058696 17819 net.cpp:338] inception_4d/5x5_reduce -> inception_4d/5x5_reduce
I1218 11:18:47.058704 17819 net.cpp:113] Setting up inception_4d/5x5_reduce
I1218 11:18:47.062047 17819 net.cpp:120] Top shape: 50 32 14 14 (313600)
I1218 11:18:47.062068 17819 layer_factory.hpp:74] Creating layer inception_4d/relu_5x5_reduce
I1218 11:18:47.062080 17819 net.cpp:84] Creating Layer inception_4d/relu_5x5_reduce
I1218 11:18:47.062086 17819 net.cpp:380] inception_4d/relu_5x5_reduce <- inception_4d/5x5_reduce
I1218 11:18:47.062094 17819 net.cpp:327] inception_4d/relu_5x5_reduce -> inception_4d/5x5_reduce (in-place)
I1218 11:18:47.062103 17819 net.cpp:113] Setting up inception_4d/relu_5x5_reduce
I1218 11:18:47.062191 17819 net.cpp:120] Top shape: 50 32 14 14 (313600)
I1218 11:18:47.062209 17819 layer_factory.hpp:74] Creating layer inception_4d/5x5
I1218 11:18:47.062224 17819 net.cpp:84] Creating Layer inception_4d/5x5
I1218 11:18:47.062232 17819 net.cpp:380] inception_4d/5x5 <- inception_4d/5x5_reduce
I1218 11:18:47.062242 17819 net.cpp:338] inception_4d/5x5 -> inception_4d/5x5
I1218 11:18:47.062255 17819 net.cpp:113] Setting up inception_4d/5x5
I1218 11:18:47.063944 17819 net.cpp:120] Top shape: 50 64 14 14 (627200)
I1218 11:18:47.063971 17819 layer_factory.hpp:74] Creating layer inception_4d/relu_5x5
I1218 11:18:47.063992 17819 net.cpp:84] Creating Layer inception_4d/relu_5x5
I1218 11:18:47.063997 17819 net.cpp:380] inception_4d/relu_5x5 <- inception_4d/5x5
I1218 11:18:47.064005 17819 net.cpp:327] inception_4d/relu_5x5 -> inception_4d/5x5 (in-place)
I1218 11:18:47.064014 17819 net.cpp:113] Setting up inception_4d/relu_5x5
I1218 11:18:47.064108 17819 net.cpp:120] Top shape: 50 64 14 14 (627200)
I1218 11:18:47.064119 17819 layer_factory.hpp:74] Creating layer inception_4d/pool
I1218 11:18:47.064127 17819 layer_factory.cpp:56] CUDNN does not support padding or multiple tops. Using Caffe's own pooling layer.
I1218 11:18:47.064136 17819 net.cpp:84] Creating Layer inception_4d/pool
I1218 11:18:47.064146 17819 net.cpp:380] inception_4d/pool <- inception_4c/output_inception_4c/output_0_split_3
I1218 11:18:47.064159 17819 net.cpp:338] inception_4d/pool -> inception_4d/pool
I1218 11:18:47.064172 17819 net.cpp:113] Setting up inception_4d/pool
I1218 11:18:47.064184 17819 net.cpp:120] Top shape: 50 512 14 14 (5017600)
I1218 11:18:47.064191 17819 layer_factory.hpp:74] Creating layer inception_4d/pool_proj
I1218 11:18:47.064206 17819 net.cpp:84] Creating Layer inception_4d/pool_proj
I1218 11:18:47.064213 17819 net.cpp:380] inception_4d/pool_proj <- inception_4d/pool
I1218 11:18:47.064224 17819 net.cpp:338] inception_4d/pool_proj -> inception_4d/pool_proj
I1218 11:18:47.064234 17819 net.cpp:113] Setting up inception_4d/pool_proj
I1218 11:18:47.066092 17819 net.cpp:120] Top shape: 50 64 14 14 (627200)
I1218 11:18:47.066114 17819 layer_factory.hpp:74] Creating layer inception_4d/relu_pool_proj
I1218 11:18:47.066123 17819 net.cpp:84] Creating Layer inception_4d/relu_pool_proj
I1218 11:18:47.066129 17819 net.cpp:380] inception_4d/relu_pool_proj <- inception_4d/pool_proj
I1218 11:18:47.066139 17819 net.cpp:327] inception_4d/relu_pool_proj -> inception_4d/pool_proj (in-place)
I1218 11:18:47.066148 17819 net.cpp:113] Setting up inception_4d/relu_pool_proj
I1218 11:18:47.067208 17819 net.cpp:120] Top shape: 50 64 14 14 (627200)
I1218 11:18:47.067221 17819 layer_factory.hpp:74] Creating layer inception_4d/output
I1218 11:18:47.067229 17819 net.cpp:84] Creating Layer inception_4d/output
I1218 11:18:47.067234 17819 net.cpp:380] inception_4d/output <- inception_4d/1x1
I1218 11:18:47.067241 17819 net.cpp:380] inception_4d/output <- inception_4d/3x3
I1218 11:18:47.067247 17819 net.cpp:380] inception_4d/output <- inception_4d/5x5
I1218 11:18:47.067253 17819 net.cpp:380] inception_4d/output <- inception_4d/pool_proj
I1218 11:18:47.067260 17819 net.cpp:338] inception_4d/output -> inception_4d/output
I1218 11:18:47.067267 17819 net.cpp:113] Setting up inception_4d/output
I1218 11:18:47.067276 17819 net.cpp:120] Top shape: 50 528 14 14 (5174400)
I1218 11:18:47.067281 17819 layer_factory.hpp:74] Creating layer inception_4d/output_inception_4d/output_0_split
I1218 11:18:47.067287 17819 net.cpp:84] Creating Layer inception_4d/output_inception_4d/output_0_split
I1218 11:18:47.067292 17819 net.cpp:380] inception_4d/output_inception_4d/output_0_split <- inception_4d/output
I1218 11:18:47.067301 17819 net.cpp:338] inception_4d/output_inception_4d/output_0_split -> inception_4d/output_inception_4d/output_0_split_0
I1218 11:18:47.067308 17819 net.cpp:338] inception_4d/output_inception_4d/output_0_split -> inception_4d/output_inception_4d/output_0_split_1
I1218 11:18:47.067317 17819 net.cpp:338] inception_4d/output_inception_4d/output_0_split -> inception_4d/output_inception_4d/output_0_split_2
I1218 11:18:47.067323 17819 net.cpp:338] inception_4d/output_inception_4d/output_0_split -> inception_4d/output_inception_4d/output_0_split_3
I1218 11:18:47.067332 17819 net.cpp:338] inception_4d/output_inception_4d/output_0_split -> inception_4d/output_inception_4d/output_0_split_4
I1218 11:18:47.067338 17819 net.cpp:113] Setting up inception_4d/output_inception_4d/output_0_split
I1218 11:18:47.067347 17819 net.cpp:120] Top shape: 50 528 14 14 (5174400)
I1218 11:18:47.067358 17819 net.cpp:120] Top shape: 50 528 14 14 (5174400)
I1218 11:18:47.067371 17819 net.cpp:120] Top shape: 50 528 14 14 (5174400)
I1218 11:18:47.067376 17819 net.cpp:120] Top shape: 50 528 14 14 (5174400)
I1218 11:18:47.067381 17819 net.cpp:120] Top shape: 50 528 14 14 (5174400)
I1218 11:18:47.067386 17819 layer_factory.hpp:74] Creating layer loss2/ave_pool
I1218 11:18:47.067394 17819 net.cpp:84] Creating Layer loss2/ave_pool
I1218 11:18:47.067400 17819 net.cpp:380] loss2/ave_pool <- inception_4d/output_inception_4d/output_0_split_0
I1218 11:18:47.067410 17819 net.cpp:338] loss2/ave_pool -> loss2/ave_pool
I1218 11:18:47.067421 17819 net.cpp:113] Setting up loss2/ave_pool
I1218 11:18:47.067528 17819 net.cpp:120] Top shape: 50 528 4 4 (422400)
I1218 11:18:47.067538 17819 layer_factory.hpp:74] Creating layer loss2/conv
I1218 11:18:47.067551 17819 net.cpp:84] Creating Layer loss2/conv
I1218 11:18:47.067559 17819 net.cpp:380] loss2/conv <- loss2/ave_pool
I1218 11:18:47.067571 17819 net.cpp:338] loss2/conv -> loss2/conv
I1218 11:18:47.067584 17819 net.cpp:113] Setting up loss2/conv
I1218 11:18:47.069752 17819 net.cpp:120] Top shape: 50 128 4 4 (102400)
I1218 11:18:47.069775 17819 layer_factory.hpp:74] Creating layer loss2/relu_conv
I1218 11:18:47.069789 17819 net.cpp:84] Creating Layer loss2/relu_conv
I1218 11:18:47.069797 17819 net.cpp:380] loss2/relu_conv <- loss2/conv
I1218 11:18:47.069808 17819 net.cpp:327] loss2/relu_conv -> loss2/conv (in-place)
I1218 11:18:47.069818 17819 net.cpp:113] Setting up loss2/relu_conv
I1218 11:18:47.069898 17819 net.cpp:120] Top shape: 50 128 4 4 (102400)
I1218 11:18:47.069908 17819 layer_factory.hpp:74] Creating layer loss2/fc
I1218 11:18:47.069917 17819 net.cpp:84] Creating Layer loss2/fc
I1218 11:18:47.069922 17819 net.cpp:380] loss2/fc <- loss2/conv
I1218 11:18:47.069929 17819 net.cpp:338] loss2/fc -> loss2/fc
I1218 11:18:47.069939 17819 net.cpp:113] Setting up loss2/fc
I1218 11:18:47.138244 17819 net.cpp:120] Top shape: 50 1024 (51200)
I1218 11:18:47.138286 17819 layer_factory.hpp:74] Creating layer loss2/relu_fc
I1218 11:18:47.138298 17819 net.cpp:84] Creating Layer loss2/relu_fc
I1218 11:18:47.138308 17819 net.cpp:380] loss2/relu_fc <- loss2/fc
I1218 11:18:47.138319 17819 net.cpp:327] loss2/relu_fc -> loss2/fc (in-place)
I1218 11:18:47.138330 17819 net.cpp:113] Setting up loss2/relu_fc
I1218 11:18:47.138468 17819 net.cpp:120] Top shape: 50 1024 (51200)
I1218 11:18:47.138475 17819 layer_factory.hpp:74] Creating layer loss2/drop_fc
I1218 11:18:47.138484 17819 net.cpp:84] Creating Layer loss2/drop_fc
I1218 11:18:47.138490 17819 net.cpp:380] loss2/drop_fc <- loss2/fc
I1218 11:18:47.138496 17819 net.cpp:327] loss2/drop_fc -> loss2/fc (in-place)
I1218 11:18:47.138504 17819 net.cpp:113] Setting up loss2/drop_fc
I1218 11:18:47.138511 17819 net.cpp:120] Top shape: 50 1024 (51200)
I1218 11:18:47.138516 17819 layer_factory.hpp:74] Creating layer loss2/classifier_kaggle
I1218 11:18:47.138530 17819 net.cpp:84] Creating Layer loss2/classifier_kaggle
I1218 11:18:47.138535 17819 net.cpp:380] loss2/classifier_kaggle <- loss2/fc
I1218 11:18:47.138541 17819 net.cpp:338] loss2/classifier_kaggle -> loss2/classifier_kaggle
I1218 11:18:47.138551 17819 net.cpp:113] Setting up loss2/classifier_kaggle
I1218 11:18:47.143920 17819 net.cpp:120] Top shape: 50 447 (22350)
I1218 11:18:47.143939 17819 layer_factory.hpp:74] Creating layer loss2/classifier_kaggle_loss2/classifier_kaggle_0_split
I1218 11:18:47.143949 17819 net.cpp:84] Creating Layer loss2/classifier_kaggle_loss2/classifier_kaggle_0_split
I1218 11:18:47.143954 17819 net.cpp:380] loss2/classifier_kaggle_loss2/classifier_kaggle_0_split <- loss2/classifier_kaggle
I1218 11:18:47.143962 17819 net.cpp:338] loss2/classifier_kaggle_loss2/classifier_kaggle_0_split -> loss2/classifier_kaggle_loss2/classifier_kaggle_0_split_0
I1218 11:18:47.143971 17819 net.cpp:338] loss2/classifier_kaggle_loss2/classifier_kaggle_0_split -> loss2/classifier_kaggle_loss2/classifier_kaggle_0_split_1
I1218 11:18:47.143978 17819 net.cpp:338] loss2/classifier_kaggle_loss2/classifier_kaggle_0_split -> loss2/classifier_kaggle_loss2/classifier_kaggle_0_split_2
I1218 11:18:47.144008 17819 net.cpp:113] Setting up loss2/classifier_kaggle_loss2/classifier_kaggle_0_split
I1218 11:18:47.144016 17819 net.cpp:120] Top shape: 50 447 (22350)
I1218 11:18:47.144021 17819 net.cpp:120] Top shape: 50 447 (22350)
I1218 11:18:47.144026 17819 net.cpp:120] Top shape: 50 447 (22350)
I1218 11:18:47.144032 17819 layer_factory.hpp:74] Creating layer loss2/loss
I1218 11:18:47.144040 17819 net.cpp:84] Creating Layer loss2/loss
I1218 11:18:47.144045 17819 net.cpp:380] loss2/loss <- loss2/classifier_kaggle_loss2/classifier_kaggle_0_split_0
I1218 11:18:47.144052 17819 net.cpp:380] loss2/loss <- label_data_1_split_3
I1218 11:18:47.144059 17819 net.cpp:338] loss2/loss -> loss2/loss1
…
I1218 11:18:47.145211 17819 net.cpp:338] loss2/top-5 -> loss2/top-5
I1218 11:18:47.145218 17819 net.cpp:113] Setting up loss2/top-5
I1218 11:18:47.145225 17819 net.cpp:120] Top shape: (1)
I1218 11:18:47.145229 17819 layer_factory.hpp:74] Creating layer inception_4e/1x1
I1218 11:18:47.145241 17819 net.cpp:84] Creating Layer inception_4e/1x1
I1218 11:18:47.145246 17819 net.cpp:380] inception_4e/1x1 <- inception_4d/output_inception_4d/output_0_split_1
I1218 11:18:47.145254 17819 net.cpp:338] inception_4e/1x1 -> inception_4e/1x1
I1218 11:18:47.145262 17819 net.cpp:113] Setting up inception_4e/1x1
I1218 11:18:47.148211 17819 net.cpp:120] Top shape: 50 256 14 14 (2508800)
I1218 11:18:47.148232 17819 layer_factory.hpp:74] Creating layer inception_4e/relu_1x1
I1218 11:18:47.148243 17819 net.cpp:84] Creating Layer inception_4e/relu_1x1
I1218 11:18:47.148250 17819 net.cpp:380] inception_4e/relu_1x1 <- inception_4e/1x1
I1218 11:18:47.148257 17819 net.cpp:327] inception_4e/relu_1x1 -> inception_4e/1x1 (in-place)
I1218 11:18:47.148265 17819 net.cpp:113] Setting up inception_4e/relu_1x1
I1218 11:18:47.148344 17819 net.cpp:120] Top shape: 50 256 14 14 (2508800)
I1218 11:18:47.148351 17819 layer_factory.hpp:74] Creating layer inception_4e/3x3_reduce
I1218 11:18:47.148381 17819 net.cpp:84] Creating Layer inception_4e/3x3_reduce
I1218 11:18:47.148387 17819 net.cpp:380] inception_4e/3x3_reduce <- inception_4d/output_inception_4d/output_0_split_2
I1218 11:18:47.148397 17819 net.cpp:338] inception_4e/3x3_reduce -> inception_4e/3x3_reduce
I1218 11:18:47.148406 17819 net.cpp:113] Setting up inception_4e/3x3_reduce
I1218 11:18:47.150439 17819 net.cpp:120] Top shape: 50 160 14 14 (1568000)
I1218 11:18:47.150459 17819 layer_factory.hpp:74] Creating layer inception_4e/relu_3x3_reduce
I1218 11:18:47.150470 17819 net.cpp:84] Creating Layer inception_4e/relu_3x3_reduce
I1218 11:18:47.150476 17819 net.cpp:380] inception_4e/relu_3x3_reduce <- inception_4e/3x3_reduce
I1218 11:18:47.150483 17819 net.cpp:327] inception_4e/relu_3x3_reduce -> inception_4e/3x3_reduce (in-place)
I1218 11:18:47.150490 17819 net.cpp:113] Setting up inception_4e/relu_3x3_reduce
I1218 11:18:47.150580 17819 net.cpp:120] Top shape: 50 160 14 14 (1568000)
I1218 11:18:47.150605 17819 layer_factory.hpp:74] Creating layer inception_4e/3x3
I1218 11:18:47.150616 17819 net.cpp:84] Creating Layer inception_4e/3x3
I1218 11:18:47.150622 17819 net.cpp:380] inception_4e/3x3 <- inception_4e/3x3_reduce
I1218 11:18:47.150630 17819 net.cpp:338] inception_4e/3x3 -> inception_4e/3x3
I1218 11:18:47.150640 17819 net.cpp:113] Setting up inception_4e/3x3
I1218 11:18:47.157469 17819 net.cpp:120] Top shape: 50 320 14 14 (3136000)
I1218 11:18:47.157488 17819 layer_factory.hpp:74] Creating layer inception_4e/relu_3x3
I1218 11:18:47.157496 17819 net.cpp:84] Creating Layer inception_4e/relu_3x3
I1218 11:18:47.157502 17819 net.cpp:380] inception_4e/relu_3x3 <- inception_4e/3x3
I1218 11:18:47.157510 17819 net.cpp:327] inception_4e/relu_3x3 -> inception_4e/3x3 (in-place)
I1218 11:18:47.157517 17819 net.cpp:113] Setting up inception_4e/relu_3x3
I1218 11:18:47.158795 17819 net.cpp:120] Top shape: 50 320 14 14 (3136000)
I1218 11:18:47.158812 17819 layer_factory.hpp:74] Creating layer inception_4e/5x5_reduce
I1218 11:18:47.158823 17819 net.cpp:84] Creating Layer inception_4e/5x5_reduce
I1218 11:18:47.158829 17819 net.cpp:380] inception_4e/5x5_reduce <- inception_4d/output_inception_4d/output_0_split_3
I1218 11:18:47.158838 17819 net.cpp:338] inception_4e/5x5_reduce -> inception_4e/5x5_reduce
I1218 11:18:47.158849 17819 net.cpp:113] Setting up inception_4e/5x5_reduce
I1218 11:18:47.160856 17819 net.cpp:120] Top shape: 50 32 14 14 (313600)
I1218 11:18:47.160879 17819 layer_factory.hpp:74] Creating layer inception_4e/relu_5x5_reduce
I1218 11:18:47.160888 17819 net.cpp:84] Creating Layer inception_4e/relu_5x5_reduce
I1218 11:18:47.160894 17819 net.cpp:380] inception_4e/relu_5x5_reduce <- inception_4e/5x5_reduce
I1218 11:18:47.160902 17819 net.cpp:327] inception_4e/relu_5x5_reduce -> inception_4e/5x5_reduce (in-place)
I1218 11:18:47.160912 17819 net.cpp:113] Setting up inception_4e/relu_5x5_reduce
I1218 11:18:47.160995 17819 net.cpp:120] Top shape: 50 32 14 14 (313600)
I1218 11:18:47.161002 17819 layer_factory.hpp:74] Creating layer inception_4e/5x5
I1218 11:18:47.161012 17819 net.cpp:84] Creating Layer inception_4e/5x5
I1218 11:18:47.161018 17819 net.cpp:380] inception_4e/5x5 <- inception_4e/5x5_reduce
I1218 11:18:47.161026 17819 net.cpp:338] inception_4e/5x5 -> inception_4e/5x5
I1218 11:18:47.161036 17819 net.cpp:113] Setting up inception_4e/5x5
I1218 11:18:47.163544 17819 net.cpp:120] Top shape: 50 128 14 14 (1254400)
I1218 11:18:47.163565 17819 layer_factory.hpp:74] Creating layer inception_4e/relu_5x5
I1218 11:18:47.163576 17819 net.cpp:84] Creating Layer inception_4e/relu_5x5
I1218 11:18:47.163583 17819 net.cpp:380] inception_4e/relu_5x5 <- inception_4e/5x5
I1218 11:18:47.163590 17819 net.cpp:327] inception_4e/relu_5x5 -> inception_4e/5x5 (in-place)
I1218 11:18:47.163599 17819 net.cpp:113] Setting up inception_4e/relu_5x5
I1218 11:18:47.163674 17819 net.cpp:120] Top shape: 50 128 14 14 (1254400)
I1218 11:18:47.163681 17819 layer_factory.hpp:74] Creating layer inception_4e/pool
I1218 11:18:47.163687 17819 layer_factory.cpp:56] CUDNN does not support padding or multiple tops. Using Caffe's own pooling layer.
I1218 11:18:47.163698 17819 net.cpp:84] Creating Layer inception_4e/pool
I1218 11:18:47.163703 17819 net.cpp:380] inception_4e/pool <- inception_4d/output_inception_4d/output_0_split_4
I1218 11:18:47.163712 17819 net.cpp:338] inception_4e/pool -> inception_4e/pool
I1218 11:18:47.163719 17819 net.cpp:113] Setting up inception_4e/pool
I1218 11:18:47.163728 17819 net.cpp:120] Top shape: 50 528 14 14 (5174400)
I1218 11:18:47.163733 17819 layer_factory.hpp:74] Creating layer inception_4e/pool_proj
I1218 11:18:47.163744 17819 net.cpp:84] Creating Layer inception_4e/pool_proj
I1218 11:18:47.163749 17819 net.cpp:380] inception_4e/pool_proj <- inception_4e/pool
I1218 11:18:47.163756 17819 net.cpp:338] inception_4e/pool_proj -> inception_4e/pool_proj
I1218 11:18:47.163764 17819 net.cpp:113] Setting up inception_4e/pool_proj
I1218 11:18:47.165849 17819 net.cpp:120] Top shape: 50 128 14 14 (1254400)
I1218 11:18:47.165877 17819 layer_factory.hpp:74] Creating layer inception_4e/relu_pool_proj
I1218 11:18:47.165896 17819 net.cpp:84] Creating Layer inception_4e/relu_pool_proj
I1218 11:18:47.165902 17819 net.cpp:380] inception_4e/relu_pool_proj <- inception_4e/pool_proj
I1218 11:18:47.165910 17819 net.cpp:327] inception_4e/relu_pool_proj -> inception_4e/pool_proj (in-place)
I1218 11:18:47.165918 17819 net.cpp:113] Setting up inception_4e/relu_pool_proj
I1218 11:18:47.165990 17819 net.cpp:120] Top shape: 50 128 14 14 (1254400)
I1218 11:18:47.165997 17819 layer_factory.hpp:74] Creating layer inception_4e/output
I1218 11:18:47.166007 17819 net.cpp:84] Creating Layer inception_4e/output
I1218 11:18:47.166012 17819 net.cpp:380] inception_4e/output <- inception_4e/1x1
I1218 11:18:47.166018 17819 net.cpp:380] inception_4e/output <- inception_4e/3x3
I1218 11:18:47.166023 17819 net.cpp:380] inception_4e/output <- inception_4e/5x5
I1218 11:18:47.166029 17819 net.cpp:380] inception_4e/output <- inception_4e/pool_proj
I1218 11:18:47.166035 17819 net.cpp:338] inception_4e/output -> inception_4e/output
I1218 11:18:47.166043 17819 net.cpp:113] Setting up inception_4e/output
I1218 11:18:47.166051 17819 net.cpp:120] Top shape: 50 832 14 14 (8153600)
I1218 11:18:47.166055 17819 layer_factory.hpp:74] Creating layer pool4/3x3_s2
I1218 11:18:47.166064 17819 net.cpp:84] Creating Layer pool4/3x3_s2
I1218 11:18:47.166069 17819 net.cpp:380] pool4/3x3_s2 <- inception_4e/output
I1218 11:18:47.166076 17819 net.cpp:338] pool4/3x3_s2 -> pool4/3x3_s2
I1218 11:18:47.166085 17819 net.cpp:113] Setting up pool4/3x3_s2
I1218 11:18:47.166883 17819 net.cpp:120] Top shape: 50 832 7 7 (2038400)
I1218 11:18:47.166895 17819 layer_factory.hpp:74] Creating layer pool4/3x3_s2_pool4/3x3_s2_0_split
I1218 11:18:47.166906 17819 net.cpp:84] Creating Layer pool4/3x3_s2_pool4/3x3_s2_0_split
I1218 11:18:47.166911 17819 net.cpp:380] pool4/3x3_s2_pool4/3x3_s2_0_split <- pool4/3x3_s2
I1218 11:18:47.166918 17819 net.cpp:338] pool4/3x3_s2_pool4/3x3_s2_0_split -> pool4/3x3_s2_pool4/3x3_s2_0_split_0
I1218 11:18:47.166928 17819 net.cpp:338] pool4/3x3_s2_pool4/3x3_s2_0_split -> pool4/3x3_s2_pool4/3x3_s2_0_split_1
I1218 11:18:47.166937 17819 net.cpp:338] pool4/3x3_s2_pool4/3x3_s2_0_split -> pool4/3x3_s2_pool4/3x3_s2_0_split_2
I1218 11:18:47.166965 17819 net.cpp:338] pool4/3x3_s2_pool4/3x3_s2_0_split -> pool4/3x3_s2_pool4/3x3_s2_0_split_3
I1218 11:18:47.166971 17819 net.cpp:113] Setting up pool4/3x3_s2_pool4/3x3_s2_0_split
I1218 11:18:47.166980 17819 net.cpp:120] Top shape: 50 832 7 7 (2038400)
I1218 11:18:47.166985 17819 net.cpp:120] Top shape: 50 832 7 7 (2038400)
I1218 11:18:47.166991 17819 net.cpp:120] Top shape: 50 832 7 7 (2038400)
I1218 11:18:47.166996 17819 net.cpp:120] Top shape: 50 832 7 7 (2038400)
I1218 11:18:47.167001 17819 layer_factory.hpp:74] Creating layer inception_5a/1x1
I1218 11:18:47.167011 17819 net.cpp:84] Creating Layer inception_5a/1x1
I1218 11:18:47.167016 17819 net.cpp:380] inception_5a/1x1 <- pool4/3x3_s2_pool4/3x3_s2_0_split_0
I1218 11:18:47.167026 17819 net.cpp:338] inception_5a/1x1 -> inception_5a/1x1
I1218 11:18:47.167035 17819 net.cpp:113] Setting up inception_5a/1x1
I1218 11:18:47.170934 17819 net.cpp:120] Top shape: 50 256 7 7 (627200)
I1218 11:18:47.170956 17819 layer_factory.hpp:74] Creating layer inception_5a/relu_1x1
I1218 11:18:47.170964 17819 net.cpp:84] Creating Layer inception_5a/relu_1x1
I1218 11:18:47.170970 17819 net.cpp:380] inception_5a/relu_1x1 <- inception_5a/1x1
I1218 11:18:47.170977 17819 net.cpp:327] inception_5a/relu_1x1 -> inception_5a/1x1 (in-place)
I1218 11:18:47.170986 17819 net.cpp:113] Setting up inception_5a/relu_1x1
I1218 11:18:47.171068 17819 net.cpp:120] Top shape: 50 256 7 7 (627200)
I1218 11:18:47.171075 17819 layer_factory.hpp:74] Creating layer inception_5a/3x3_reduce
I1218 11:18:47.171084 17819 net.cpp:84] Creating Layer inception_5a/3x3_reduce
I1218 11:18:47.171090 17819 net.cpp:380] inception_5a/3x3_reduce <- pool4/3x3_s2_pool4/3x3_s2_0_split_1
I1218 11:18:47.171099 17819 net.cpp:338] inception_5a/3x3_reduce -> inception_5a/3x3_reduce
I1218 11:18:47.171120 17819 net.cpp:113] Setting up inception_5a/3x3_reduce
I1218 11:18:47.173774 17819 net.cpp:120] Top shape: 50 160 7 7 (392000)
I1218 11:18:47.173795 17819 layer_factory.hpp:74] Creating layer inception_5a/relu_3x3_reduce
I1218 11:18:47.173804 17819 net.cpp:84] Creating Layer inception_5a/relu_3x3_reduce
I1218 11:18:47.173810 17819 net.cpp:380] inception_5a/relu_3x3_reduce <- inception_5a/3x3_reduce
I1218 11:18:47.173817 17819 net.cpp:327] inception_5a/relu_3x3_reduce -> inception_5a/3x3_reduce (in-place)
I1218 11:18:47.173826 17819 net.cpp:113] Setting up inception_5a/relu_3x3_reduce
I1218 11:18:47.173910 17819 net.cpp:120] Top shape: 50 160 7 7 (392000)
I1218 11:18:47.173918 17819 layer_factory.hpp:74] Creating layer inception_5a/3x3
I1218 11:18:47.173928 17819 net.cpp:84] Creating Layer inception_5a/3x3
I1218 11:18:47.173933 17819 net.cpp:380] inception_5a/3x3 <- inception_5a/3x3_reduce
I1218 11:18:47.173940 17819 net.cpp:338] inception_5a/3x3 -> inception_5a/3x3
I1218 11:18:47.173949 17819 net.cpp:113] Setting up inception_5a/3x3
I1218 11:18:47.180466 17819 net.cpp:120] Top shape: 50 320 7 7 (784000)
I1218 11:18:47.180488 17819 layer_factory.hpp:74] Creating layer inception_5a/relu_3x3
I1218 11:18:47.180500 17819 net.cpp:84] Creating Layer inception_5a/relu_3x3
I1218 11:18:47.180505 17819 net.cpp:380] inception_5a/relu_3x3 <- inception_5a/3x3
I1218 11:18:47.180512 17819 net.cpp:327] inception_5a/relu_3x3 -> inception_5a/3x3 (in-place)
I1218 11:18:47.180521 17819 net.cpp:113] Setting up inception_5a/relu_3x3
I1218 11:18:47.180596 17819 net.cpp:120] Top shape: 50 320 7 7 (784000)
I1218 11:18:47.180603 17819 layer_factory.hpp:74] Creating layer inception_5a/5x5_reduce
I1218 11:18:47.180614 17819 net.cpp:84] Creating Layer inception_5a/5x5_reduce
I1218 11:18:47.180620 17819 net.cpp:380] inception_5a/5x5_reduce <- pool4/3x3_s2_pool4/3x3_s2_0_split_2
I1218 11:18:47.180627 17819 net.cpp:338] inception_5a/5x5_reduce -> inception_5a/5x5_reduce
I1218 11:18:47.180636 17819 net.cpp:113] Setting up inception_5a/5x5_reduce
I1218 11:18:47.182123 17819 net.cpp:120] Top shape: 50 32 7 7 (78400)
I1218 11:18:47.182144 17819 layer_factory.hpp:74] Creating layer inception_5a/relu_5x5_reduce
I1218 11:18:47.182155 17819 net.cpp:84] Creating Layer inception_5a/relu_5x5_reduce
I1218 11:18:47.182163 17819 net.cpp:380] inception_5a/relu_5x5_reduce <- inception_5a/5x5_reduce
I1218 11:18:47.182169 17819 net.cpp:327] inception_5a/relu_5x5_reduce -> inception_5a/5x5_reduce (in-place)
I1218 11:18:47.182180 17819 net.cpp:113] Setting up inception_5a/relu_5x5_reduce
I1218 11:18:47.183357 17819 net.cpp:120] Top shape: 50 32 7 7 (78400)
I1218 11:18:47.183373 17819 layer_factory.hpp:74] Creating layer inception_5a/5x5
I1218 11:18:47.183383 17819 net.cpp:84] Creating Layer inception_5a/5x5
I1218 11:18:47.183390 17819 net.cpp:380] inception_5a/5x5 <- inception_5a/5x5_reduce
I1218 11:18:47.183400 17819 net.cpp:338] inception_5a/5x5 -> inception_5a/5x5
I1218 11:18:47.183411 17819 net.cpp:113] Setting up inception_5a/5x5
I1218 11:18:47.186156 17819 net.cpp:120] Top shape: 50 128 7 7 (313600)
I1218 11:18:47.186177 17819 layer_factory.hpp:74] Creating layer inception_5a/relu_5x5
I1218 11:18:47.186189 17819 net.cpp:84] Creating Layer inception_5a/relu_5x5
I1218 11:18:47.186197 17819 net.cpp:380] inception_5a/relu_5x5 <- inception_5a/5x5
I1218 11:18:47.186203 17819 net.cpp:327] inception_5a/relu_5x5 -> inception_5a/5x5 (in-place)
I1218 11:18:47.186213 17819 net.cpp:113] Setting up inception_5a/relu_5x5
I1218 11:18:47.186292 17819 net.cpp:120] Top shape: 50 128 7 7 (313600)
I1218 11:18:47.186300 17819 layer_factory.hpp:74] Creating layer inception_5a/pool
I1218 11:18:47.186305 17819 layer_factory.cpp:56] CUDNN does not support padding or multiple tops. Using Caffe's own pooling layer.
I1218 11:18:47.186314 17819 net.cpp:84] Creating Layer inception_5a/pool
I1218 11:18:47.186319 17819 net.cpp:380] inception_5a/pool <- pool4/3x3_s2_pool4/3x3_s2_0_split_3
I1218 11:18:47.186328 17819 net.cpp:338] inception_5a/pool -> inception_5a/pool
I1218 11:18:47.186344 17819 net.cpp:113] Setting up inception_5a/pool
I1218 11:18:47.186362 17819 net.cpp:120] Top shape: 50 832 7 7 (2038400)
I1218 11:18:47.186367 17819 layer_factory.hpp:74] Creating layer inception_5a/pool_proj
I1218 11:18:47.186375 17819 net.cpp:84] Creating Layer inception_5a/pool_proj
I1218 11:18:47.186380 17819 net.cpp:380] inception_5a/pool_proj <- inception_5a/pool
I1218 11:18:47.186390 17819 net.cpp:338] inception_5a/pool_proj -> inception_5a/pool_proj
I1218 11:18:47.186398 17819 net.cpp:113] Setting up inception_5a/pool_proj
I1218 11:18:47.188838 17819 net.cpp:120] Top shape: 50 128 7 7 (313600)
I1218 11:18:47.188856 17819 layer_factory.hpp:74] Creating layer inception_5a/relu_pool_proj
I1218 11:18:47.188866 17819 net.cpp:84] Creating Layer inception_5a/relu_pool_proj
I1218 11:18:47.188873 17819 net.cpp:380] inception_5a/relu_pool_proj <- inception_5a/pool_proj
I1218 11:18:47.188879 17819 net.cpp:327] inception_5a/relu_pool_proj -> inception_5a/pool_proj (in-place)
I1218 11:18:47.188887 17819 net.cpp:113] Setting up inception_5a/relu_pool_proj
I1218 11:18:47.188961 17819 net.cpp:120] Top shape: 50 128 7 7 (313600)
I1218 11:18:47.188968 17819 layer_factory.hpp:74] Creating layer inception_5a/output
I1218 11:18:47.188977 17819 net.cpp:84] Creating Layer inception_5a/output
I1218 11:18:47.188982 17819 net.cpp:380] inception_5a/output <- inception_5a/1x1
I1218 11:18:47.188988 17819 net.cpp:380] inception_5a/output <- inception_5a/3x3
I1218 11:18:47.188994 17819 net.cpp:380] inception_5a/output <- inception_5a/5x5
I1218 11:18:47.188999 17819 net.cpp:380] inception_5a/output <- inception_5a/pool_proj
I1218 11:18:47.189005 17819 net.cpp:338] inception_5a/output -> inception_5a/output
I1218 11:18:47.189013 17819 net.cpp:113] Setting up inception_5a/output
I1218 11:18:47.189021 17819 net.cpp:120] Top shape: 50 832 7 7 (2038400)
I1218 11:18:47.189026 17819 layer_factory.hpp:74] Creating layer inception_5a/output_inception_5a/output_0_split
I1218 11:18:47.189033 17819 net.cpp:84] Creating Layer inception_5a/output_inception_5a/output_0_split
I1218 11:18:47.189038 17819 net.cpp:380] inception_5a/output_inception_5a/output_0_split <- inception_5a/output
I1218 11:18:47.189046 17819 net.cpp:338] inception_5a/output_inception_5a/output_0_split -> inception_5a/output_inception_5a/output_0_split_0
I1218 11:18:47.189066 17819 net.cpp:338] inception_5a/output_inception_5a/output_0_split -> inception_5a/output_inception_5a/output_0_split_1
I1218 11:18:47.189081 17819 net.cpp:338] inception_5a/output_inception_5a/output_0_split -> inception_5a/output_inception_5a/output_0_split_2
I1218 11:18:47.189090 17819 net.cpp:338] inception_5a/output_inception_5a/output_0_split -> inception_5a/output_inception_5a/output_0_split_3
I1218 11:18:47.189095 17819 net.cpp:113] Setting up inception_5a/output_inception_5a/output_0_split
I1218 11:18:47.189103 17819 net.cpp:120] Top shape: 50 832 7 7 (2038400)
I1218 11:18:47.189110 17819 net.cpp:120] Top shape: 50 832 7 7 (2038400)
I1218 11:18:47.189115 17819 net.cpp:120] Top shape: 50 832 7 7 (2038400)
I1218 11:18:47.189119 17819 net.cpp:120] Top shape: 50 832 7 7 (2038400)
I1218 11:18:47.189123 17819 layer_factory.hpp:74] Creating layer inception_5b/1x1
I1218 11:18:47.189134 17819 net.cpp:84] Creating Layer inception_5b/1x1
I1218 11:18:47.189139 17819 net.cpp:380] inception_5b/1x1 <- inception_5a/output_inception_5a/output_0_split_0
I1218 11:18:47.189148 17819 net.cpp:338] inception_5b/1x1 -> inception_5b/1x1
I1218 11:18:47.189157 17819 net.cpp:113] Setting up inception_5b/1x1
I1218 11:18:47.194238 17819 net.cpp:120] Top shape: 50 384 7 7 (940800)
I1218 11:18:47.194260 17819 layer_factory.hpp:74] Creating layer inception_5b/relu_1x1
I1218 11:18:47.194269 17819 net.cpp:84] Creating Layer inception_5b/relu_1x1
I1218 11:18:47.194275 17819 net.cpp:380] inception_5b/relu_1x1 <- inception_5b/1x1
I1218 11:18:47.194283 17819 net.cpp:327] inception_5b/relu_1x1 -> inception_5b/1x1 (in-place)
I1218 11:18:47.194291 17819 net.cpp:113] Setting up inception_5b/relu_1x1
I1218 11:18:47.194375 17819 net.cpp:120] Top shape: 50 384 7 7 (940800)
I1218 11:18:47.194391 17819 layer_factory.hpp:74] Creating layer inception_5b/3x3_reduce
I1218 11:18:47.194402 17819 net.cpp:84] Creating Layer inception_5b/3x3_reduce
I1218 11:18:47.194408 17819 net.cpp:380] inception_5b/3x3_reduce <- inception_5a/output_inception_5a/output_0_split_1
I1218 11:18:47.194416 17819 net.cpp:338] inception_5b/3x3_reduce -> inception_5b/3x3_reduce
I1218 11:18:47.194424 17819 net.cpp:113] Setting up inception_5b/3x3_reduce
I1218 11:18:47.197619 17819 net.cpp:120] Top shape: 50 192 7 7 (470400)
I1218 11:18:47.197640 17819 layer_factory.hpp:74] Creating layer inception_5b/relu_3x3_reduce
I1218 11:18:47.197649 17819 net.cpp:84] Creating Layer inception_5b/relu_3x3_reduce
I1218 11:18:47.197656 17819 net.cpp:380] inception_5b/relu_3x3_reduce <- inception_5b/3x3_reduce
I1218 11:18:47.197664 17819 net.cpp:327] inception_5b/relu_3x3_reduce -> inception_5b/3x3_reduce (in-place)
I1218 11:18:47.197672 17819 net.cpp:113] Setting up inception_5b/relu_3x3_reduce
I1218 11:18:47.199239 17819 net.cpp:120] Top shape: 50 192 7 7 (470400)
I1218 11:18:47.199256 17819 layer_factory.hpp:74] Creating layer inception_5b/3x3
I1218 11:18:47.199267 17819 net.cpp:84] Creating Layer inception_5b/3x3
I1218 11:18:47.199273 17819 net.cpp:380] inception_5b/3x3 <- inception_5b/3x3_reduce
I1218 11:18:47.199285 17819 net.cpp:338] inception_5b/3x3 -> inception_5b/3x3
I1218 11:18:47.199295 17819 net.cpp:113] Setting up inception_5b/3x3
I1218 11:18:47.208837 17819 net.cpp:120] Top shape: 50 384 7 7 (940800)
I1218 11:18:47.208860 17819 layer_factory.hpp:74] Creating layer inception_5b/relu_3x3
I1218 11:18:47.208869 17819 net.cpp:84] Creating Layer inception_5b/relu_3x3
I1218 11:18:47.208876 17819 net.cpp:380] inception_5b/relu_3x3 <- inception_5b/3x3
I1218 11:18:47.208884 17819 net.cpp:327] inception_5b/relu_3x3 -> inception_5b/3x3 (in-place)
I1218 11:18:47.208892 17819 net.cpp:113] Setting up inception_5b/relu_3x3
I1218 11:18:47.208972 17819 net.cpp:120] Top shape: 50 384 7 7 (940800)
I1218 11:18:47.208979 17819 layer_factory.hpp:74] Creating layer inception_5b/5x5_reduce
I1218 11:18:47.208994 17819 net.cpp:84] Creating Layer inception_5b/5x5_reduce
I1218 11:18:47.209000 17819 net.cpp:380] inception_5b/5x5_reduce <- inception_5a/output_inception_5a/output_0_split_2
I1218 11:18:47.209008 17819 net.cpp:338] inception_5b/5x5_reduce -> inception_5b/5x5_reduce
I1218 11:18:47.209017 17819 net.cpp:113] Setting up inception_5b/5x5_reduce
I1218 11:18:47.211040 17819 net.cpp:120] Top shape: 50 48 7 7 (117600)
I1218 11:18:47.211071 17819 layer_factory.hpp:74] Creating layer inception_5b/relu_5x5_reduce
I1218 11:18:47.211084 17819 net.cpp:84] Creating Layer inception_5b/relu_5x5_reduce
I1218 11:18:47.211094 17819 net.cpp:380] inception_5b/relu_5x5_reduce <- inception_5b/5x5_reduce
I1218 11:18:47.211107 17819 net.cpp:327] inception_5b/relu_5x5_reduce -> inception_5b/5x5_reduce (in-place)
I1218 11:18:47.211120 17819 net.cpp:113] Setting up inception_5b/relu_5x5_reduce
I1218 11:18:47.211235 17819 net.cpp:120] Top shape: 50 48 7 7 (117600)
I1218 11:18:47.211241 17819 layer_factory.hpp:74] Creating layer inception_5b/5x5
I1218 11:18:47.211252 17819 net.cpp:84] Creating Layer inception_5b/5x5
I1218 11:18:47.211258 17819 net.cpp:380] inception_5b/5x5 <- inception_5b/5x5_reduce
I1218 11:18:47.211266 17819 net.cpp:338] inception_5b/5x5 -> inception_5b/5x5
I1218 11:18:47.211274 17819 net.cpp:113] Setting up inception_5b/5x5
I1218 11:18:47.214292 17819 net.cpp:120] Top shape: 50 128 7 7 (313600)
I1218 11:18:47.214313 17819 layer_factory.hpp:74] Creating layer inception_5b/relu_5x5
I1218 11:18:47.214323 17819 net.cpp:84] Creating Layer inception_5b/relu_5x5
I1218 11:18:47.214329 17819 net.cpp:380] inception_5b/relu_5x5 <- inception_5b/5x5
I1218 11:18:47.214339 17819 net.cpp:327] inception_5b/relu_5x5 -> inception_5b/5x5 (in-place)
I1218 11:18:47.214347 17819 net.cpp:113] Setting up inception_5b/relu_5x5
I1218 11:18:47.215685 17819 net.cpp:120] Top shape: 50 128 7 7 (313600)
I1218 11:18:47.215720 17819 layer_factory.hpp:74] Creating layer inception_5b/pool
I1218 11:18:47.215744 17819 layer_factory.cpp:56] CUDNN does not support padding or multiple tops. Using Caffe's own pooling layer.
I1218 11:18:47.215755 17819 net.cpp:84] Creating Layer inception_5b/pool
I1218 11:18:47.215765 17819 net.cpp:380] inception_5b/pool <- inception_5a/output_inception_5a/output_0_split_3
I1218 11:18:47.215778 17819 net.cpp:338] inception_5b/pool -> inception_5b/pool
I1218 11:18:47.215797 17819 net.cpp:113] Setting up inception_5b/pool
I1218 11:18:47.215813 17819 net.cpp:120] Top shape: 50 832 7 7 (2038400)
I1218 11:18:47.215821 17819 layer_factory.hpp:74] Creating layer inception_5b/pool_proj
I1218 11:18:47.215837 17819 net.cpp:84] Creating Layer inception_5b/pool_proj
I1218 11:18:47.215845 17819 net.cpp:380] inception_5b/pool_proj <- inception_5b/pool
I1218 11:18:47.215859 17819 net.cpp:338] inception_5b/pool_proj -> inception_5b/pool_proj
I1218 11:18:47.215878 17819 net.cpp:113] Setting up inception_5b/pool_proj
I1218 11:18:47.218698 17819 net.cpp:120] Top shape: 50 128 7 7 (313600)
I1218 11:18:47.218720 17819 layer_factory.hpp:74] Creating layer inception_5b/relu_pool_proj
I1218 11:18:47.218729 17819 net.cpp:84] Creating Layer inception_5b/relu_pool_proj
I1218 11:18:47.218735 17819 net.cpp:380] inception_5b/relu_pool_proj <- inception_5b/pool_proj
I1218 11:18:47.218744 17819 net.cpp:327] inception_5b/relu_pool_proj -> inception_5b/pool_proj (in-place)
I1218 11:18:47.218754 17819 net.cpp:113] Setting up inception_5b/relu_pool_proj
I1218 11:18:47.218838 17819 net.cpp:120] Top shape: 50 128 7 7 (313600)
I1218 11:18:47.218845 17819 layer_factory.hpp:74] Creating layer inception_5b/output
I1218 11:18:47.218852 17819 net.cpp:84] Creating Layer inception_5b/output
I1218 11:18:47.218858 17819 net.cpp:380] inception_5b/output <- inception_5b/1x1
I1218 11:18:47.218864 17819 net.cpp:380] inception_5b/output <- inception_5b/3x3
I1218 11:18:47.218869 17819 net.cpp:380] inception_5b/output <- inception_5b/5x5
I1218 11:18:47.218875 17819 net.cpp:380] inception_5b/output <- inception_5b/pool_proj
I1218 11:18:47.218883 17819 net.cpp:338] inception_5b/output -> inception_5b/output
I1218 11:18:47.218891 17819 net.cpp:113] Setting up inception_5b/output
I1218 11:18:47.218899 17819 net.cpp:120] Top shape: 50 1024 7 7 (2508800)
I1218 11:18:47.218904 17819 layer_factory.hpp:74] Creating layer pool5/7x7_s1
I1218 11:18:47.218912 17819 net.cpp:84] Creating Layer pool5/7x7_s1
I1218 11:18:47.218917 17819 net.cpp:380] pool5/7x7_s1 <- inception_5b/output
I1218 11:18:47.218925 17819 net.cpp:338] pool5/7x7_s1 -> pool5/7x7_s1
I1218 11:18:47.218932 17819 net.cpp:113] Setting up pool5/7x7_s1
I1218 11:18:47.219010 17819 net.cpp:120] Top shape: 50 1024 1 1 (51200)
I1218 11:18:47.219017 17819 layer_factory.hpp:74] Creating layer pool5/drop_7x7_s1
I1218 11:18:47.219027 17819 net.cpp:84] Creating Layer pool5/drop_7x7_s1
I1218 11:18:47.219032 17819 net.cpp:380] pool5/drop_7x7_s1 <- pool5/7x7_s1
I1218 11:18:47.219038 17819 net.cpp:327] pool5/drop_7x7_s1 -> pool5/7x7_s1 (in-place)
I1218 11:18:47.219044 17819 net.cpp:113] Setting up pool5/drop_7x7_s1
I1218 11:18:47.219053 17819 net.cpp:120] Top shape: 50 1024 1 1 (51200)
I1218 11:18:47.219056 17819 layer_factory.hpp:74] Creating layer loss3/classifier_kaggle
I1218 11:18:47.219065 17819 net.cpp:84] Creating Layer loss3/classifier_kaggle
I1218 11:18:47.219069 17819 net.cpp:380] loss3/classifier_kaggle <- pool5/7x7_s1
I1218 11:18:47.219077 17819 net.cpp:338] loss3/classifier_kaggle -> loss3/classifier_kaggle
I1218 11:18:47.219085 17819 net.cpp:113] Setting up loss3/classifier_kaggle
I1218 11:18:47.224411 17819 net.cpp:120] Top shape: 50 447 (22350)
I1218 11:18:47.224427 17819 layer_factory.hpp:74] Creating layer loss3/classifier_kaggle_loss3/classifier_kaggle_0_split
I1218 11:18:47.224436 17819 net.cpp:84] Creating Layer loss3/classifier_kaggle_loss3/classifier_kaggle_0_split
I1218 11:18:47.224442 17819 net.cpp:380] loss3/classifier_kaggle_loss3/classifier_kaggle_0_split <- loss3/classifier_kaggle
I1218 11:18:47.224454 17819 net.cpp:338] loss3/classifier_kaggle_loss3/classifier_kaggle_0_split -> loss3/classifier_kaggle_loss3/classifier_kaggle_0_split_0
I1218 11:18:47.224472 17819 net.cpp:338] loss3/classifier_kaggle_loss3/classifier_kaggle_0_split -> loss3/classifier_kaggle_loss3/classifier_kaggle_0_split_1
I1218 11:18:47.224480 17819 net.cpp:338] loss3/classifier_kaggle_loss3/classifier_kaggle_0_split -> loss3/classifier_kaggle_loss3/classifier_kaggle_0_split_2
I1218 11:18:47.224488 17819 net.cpp:113] Setting up loss3/classifier_kaggle_loss3/classifier_kaggle_0_split
I1218 11:18:47.224495 17819 net.cpp:120] Top shape: 50 447 (22350)
I1218 11:18:47.224501 17819 net.cpp:120] Top shape: 50 447 (22350)
I1218 11:18:47.224506 17819 net.cpp:120] Top shape: 50 447 (22350)
I1218 11:18:47.224510 17819 layer_factory.hpp:74] Creating layer loss3/loss3
I1218 11:18:47.224517 17819 net.cpp:84] Creating Layer loss3/loss3
I1218 11:18:47.224522 17819 net.cpp:380] loss3/loss3 <- loss3/classifier_kaggle_loss3/classifier_kaggle_0_split_0
I1218 11:18:47.224529 17819 net.cpp:380] loss3/loss3 <- label_data_1_split_6
I1218 11:18:47.224537 17819 net.cpp:338] loss3/loss3 -> loss3/loss3
…
