…
I0107 16:34:02.141335  9729 net.cpp:257] The NetState phase (0) differed from the phase (1) specified by a rule in layer loss3/top-5
I0107 16:34:02.148643  9729 net.cpp:42] Initializing net from parameters: 
name: "MYNET"
state {
  phase: TRAIN
}
layer {
  name: "data"
  type: "ImageData"
  top: "data"
  top: "label"
  include {
    phase: TRAIN
  }
  transform_param {
    mirror: false
    crop_size: 224
    mean_value: 129
    mean_value: 129
    mean_value: 129
  }
  image_data_param {
    source: "/home/coldmanck/kaggle/label_train_full_resize_rotated.txt"
    batch_size: 80
    shuffle: true
  }
}
layer {
  name: "conv1/7x7_s2"
  type: "Convolution"
  bottom: "data"
  top: "conv1/7x7_s2"
  param {
    lr_mult: 1
    decay_mult: 1
  }
  param {
    lr_mult: 2
    decay_mult: 0
  }
  convolution_param {
    num_output: 64
    pad: 3
    kernel_size: 7
    stride: 2
    weight_filler {
      type: "xavier"
    }
    bias_filler {
      type: "constant"
      value: 0.2
    }
  }
}
layer {
  name: "conv1/relu_7x7"
  type: "ReLU"
  bottom: "conv1/7x7_s2"
  top: "conv1/7x7_s2"
}
layer {
  name: "pool1/3x3_s2"
  type: "Pooling"
  bottom: "conv1/7x7_s2"
  top: "pool1/3x3_s2"
  pooling_param {
    pool: MAX
    kernel_size: 3
    stride: 2
  }
}
layer {
  name: "pool1/norm1"
  type: "LRN"
  bottom: "pool1/3x3_s2"
  top: "pool1/norm1"
  lrn_param {
    local_size: 5
    alpha: 0.0001
    beta: 0.75
  }
}
layer {
  name: "conv2/3x3_reduce"
  type: "Convolution"
  bottom: "pool1/norm1"
  top: "conv2/3x3_reduce"
  param {
    lr_mult: 1
    decay_mult: 1
  }
  param {
    lr_mult: 2
    decay_mult: 0
  }
  convolution_param {
    num_output: 64
    kernel_size: 1
    weight_filler {
      type: "xavier"
    }
    bias_filler {
      type: "constant"
      value: 0.2
    }
  }
}
layer {
  name: "conv2/relu_3x3_reduce"
  type: "ReLU"
  bottom: "conv2/3x3_reduce"
  top: "conv2/3x3_reduce"
}
layer {
  name: "conv2/3x3"
  type: "Convolution"
  bottom: "conv2/3x3_reduce"
  top: "conv2/3x3"
  param {
    lr_mult: 1
    decay_mult: 1
  }
  param {
    lr_mult: 2
    decay_mult: 0
  }
  convolution_param {
    num_output: 192
    pad: 1
    kernel_size: 3
    weight_filler {
      type: "xavier"
    }
    bias_filler {
      type: "constant"
      value: 0.2
    }
  }
}
layer {
  name: "conv2/relu_3x3"
  type: "ReLU"
  bottom: "conv2/3x3"
  top: "conv2/3x3"
}
layer {
  name: "conv2/norm2"
  type: "LRN"
  bottom: "conv2/3x3"
  top: "conv2/norm2"
  lrn_param {
    local_size: 5
    alpha: 0.0001
    beta: 0.75
  }
}
layer {
  name: "pool2/3x3_s2"
  type: "Pooling"
  bottom: "conv2/norm2"
  top: "pool2/3x3_s2"
  pooling_param {
    pool: MAX
    kernel_size: 3
    stride: 2
  }
}
layer {
  name: "inception_3a/1x1"
  type: "Convolution"
  bottom: "pool2/3x3_s2"
  top: "inception_3a/1x1"
  param {
    lr_mult: 1
    decay_mult: 1
  }
  param {
    lr_mult: 2
    decay_mult: 0
  }
  convolution_param {
    num_output: 64
    kernel_size: 1
    weight_filler {
      type: "xavier"
    }
    bias_filler {
      type: "constant"
      value: 0.2
    }
  }
}
layer {
  name: "inception_3a/relu_1x1"
  type: "ReLU"
  bottom: "inception_3a/1x1"
  top: "inception_3a/1x1"
}
layer {
  name: "inception_3a/3x3_reduce"
  type: "Convolution"
  bottom: "pool2/3x3_s2"
  top: "inception_3a/3x3_reduce"
  param {
    lr_mult: 1
    decay_mult: 1
  }
  param {
    lr_mult: 2
    decay_mult: 0
  }
  convolution_param {
    num_output: 96
    kernel_size: 1
    weight_filler {
      type: "xavier"
    }
    bias_filler {
      type: "constant"
      value: 0.2
    }
  }
}
layer {
  name: "inception_3a/relu_3x3_reduce"
  type: "ReLU"
  bottom: "inception_3a/3x3_reduce"
  top: "inception_3a/3x3_reduce"
}
layer {
  name: "inception_3a/3x3"
  type: "Convolution"
  bottom: "inception_3a/3x3_reduce"
  top: "inception_3a/3x3"
  param {
    lr_mult: 1
    decay_mult: 1
  }
  param {
    lr_mult: 2
    decay_mult: 0
  }
  convolution_param {
    num_output: 128
    pad: 1
    kernel_size: 3
    weight_filler {
      type: "xavier"
    }
    bias_filler {
      type: "constant"
      value: 0.2
    }
  }
}
layer {
  name: "inception_3a/relu_3x3"
  type: "ReLU"
  bottom: "inception_3a/3x3"
  top: "inception_3a/3x3"
}
layer {
  name: "inception_3a/5x5_reduce"
  type: "Convolution"
  bottom: "pool2/3x3_s2"
  top: "inception_3a/5x5_reduce"
  param {
    lr_mult: 1
    decay_mult: 1
  }
  param {
    lr_mult: 2
    decay_mult: 0
  }
  convolution_param {
    num_output: 16
    kernel_size: 1
    weight_filler {
      type: "xavier"
    }
    bias_filler {
      type: "constant"
      value: 0.2
    }
  }
}
layer {
  name: "inception_3a/relu_5x5_reduce"
  type: "ReLU"
  bottom: "inception_3a/5x5_reduce"
  top: "inception_3a/5x5_reduce"
}
layer {
  name: "inception_3a/5x5"
  type: "Convolution"
  bottom: "inception_3a/5x5_reduce"
  top: "inception_3a/5x5"
  param {
    lr_mult: 1
    decay_mult: 1
  }
  param {
    lr_mult: 2
    decay_mult: 0
  }
  convolution_param {
    num_output: 32
    pad: 2
    kernel_size: 5
    weight_filler {
      type: "xavier"
    }
    bias_filler {
      type: "constant"
      value: 0.2
    }
  }
}
layer {
  name: "inception_3a/relu_5x5"
  type: "ReLU"
  bottom: "inception_3a/5x5"
  top: "inception_3a/5x5"
}
layer {
  name: "inception_3a/pool"
  type: "Pooling"
  bottom: "pool2/3x3_s2"
  top: "inception_3a/pool"
  pooling_param {
    pool: MAX
    kernel_size: 3
    stride: 1
    pad: 1
  }
}
layer {
  name: "inception_3a/pool_proj"
  type: "Convolution"
  bottom: "inception_3a/pool"
  top: "inception_3a/pool_proj"
  param {
    lr_mult: 1
    decay_mult: 1
  }
  param {
    lr_mult: 2
    decay_mult: 0
  }
  convolution_param {
    num_output: 32
    kernel_size: 1
    weight_filler {
      type: "xavier"
    }
    bias_filler {
      type: "constant"
      value: 0.2
    }
  }
}
layer {
  name: "inception_3a/relu_pool_proj"
  type: "ReLU"
  bottom: "inception_3a/pool_proj"
  top: "inception_3a/pool_proj"
}
layer {
  name: "inception_3a/output"
  type: "Concat"
  bottom: "inception_3a/1x1"
  bottom: "inception_3a/3x3"
  bottom: "inception_3a/5x5"
  bottom: "inception_3a/pool_proj"
  top: "inception_3a/output"
}
layer {
  name: "inception_3b/1x1"
  type: "Convolution"
  bottom: "inception_3a/output"
  top: "inception_3b/1x1"
  param {
    lr_mult: 1
    decay_mult: 1
  }
  param {
    lr_mult: 2
    decay_mult: 0
  }
  convolution_param {
    num_output: 128
    kernel_size: 1
    weight_filler {
      type: "xavier"
    }
    bias_filler {
      type: "constant"
      value: 0.2
    }
  }
}
layer {
  name: "inception_3b/relu_1x1"
  type: "ReLU"
  bottom: "inception_3b/1x1"
  top: "inception_3b/1x1"
}
layer {
  name: "inception_3b/3x3_reduce"
  type: "Convolution"
  bottom: "inception_3a/output"
  top: "inception_3b/3x3_reduce"
  param {
    lr_mult: 1
    decay_mult: 1
  }
  param {
    lr_mult: 2
    decay_mult: 0
  }
  convolution_param {
    num_output: 128
    kernel_size: 1
    weight_filler {
      type: "xavier"
    }
    bias_filler {
      type: "constant"
      value: 0.2
    }
  }
}
layer {
  name: "inception_3b/relu_3x3_reduce"
  type: "ReLU"
  bottom: "inception_3b/3x3_reduce"
  top: "inception_3b/3x3_reduce"
}
layer {
  name: "inception_3b/3x3"
  type: "Convolution"
  bottom: "inception_3b/3x3_reduce"
  top: "inception_3b/3x3"
  param {
    lr_mult: 1
    decay_mult: 1
  }
  param {
    lr_mult: 2
    decay_mult: 0
  }
  convolution_param {
    num_output: 192
    pad: 1
    kernel_size: 3
    weight_filler {
      type: "xavier"
    }
    bias_filler {
      type: "constant"
      value: 0.2
    }
  }
}
layer {
  name: "inception_3b/relu_3x3"
  type: "ReLU"
  bottom: "inception_3b/3x3"
  top: "inception_3b/3x3"
}
layer {
  name: "inception_3b/5x5_reduce"
  type: "Convolution"
  bottom: "inception_3a/output"
  top: "inception_3b/5x5_reduce"
  param {
    lr_mult: 1
    decay_mult: 1
  }
  param {
    lr_mult: 2
    decay_mult: 0
  }
  convolution_param {
    num_output: 32
    kernel_size: 1
    weight_filler {
      type: "xavier"
    }
    bias_filler {
      type: "constant"
      value: 0.2
    }
  }
}
layer {
  name: "inception_3b/relu_5x5_reduce"
  type: "ReLU"
  bottom: "inception_3b/5x5_reduce"
  top: "inception_3b/5x5_reduce"
}
layer {
  name: "inception_3b/5x5"
  type: "Convolution"
  bottom: "inception_3b/5x5_reduce"
  top: "inception_3b/5x5"
  param {
    lr_mult: 1
    decay_mult: 1
  }
  param {
    lr_mult: 2
    decay_mult: 0
  }
  convolution_param {
    num_output: 96
    pad: 2
    kernel_size: 5
    weight_filler {
      type: "xavier"
    }
    bias_filler {
      type: "constant"
      value: 0.2
    }
  }
}
layer {
  name: "inception_3b/relu_5x5"
  type: "ReLU"
  bottom: "inception_3b/5x5"
  top: "inception_3b/5x5"
}
layer {
  name: "inception_3b/pool"
  type: "Pooling"
  bottom: "inception_3a/output"
  top: "inception_3b/pool"
  pooling_param {
    pool: MAX
    kernel_size: 3
    stride: 1
    pad: 1
  }
}
layer {
  name: "inception_3b/pool_proj"
  type: "Convolution"
  bottom: "inception_3b/pool"
  top: "inception_3b/pool_proj"
  param {
    lr_mult: 1
    decay_mult: 1
  }
  param {
    lr_mult: 2
    decay_mult: 0
  }
  convolution_param {
    num_output: 64
    kernel_size: 1
    weight_filler {
      type: "xavier"
    }
    bias_filler {
      type: "constant"
      value: 0.2
    }
  }
}
layer {
  name: "inception_3b/relu_pool_proj"
  type: "ReLU"
  bottom: "inception_3b/pool_proj"
  top: "inception_3b/pool_proj"
}
layer {
  name: "inception_3b/output"
  type: "Concat"
  bottom: "inception_3b/1x1"
  bottom: "inception_3b/3x3"
  bottom: "inception_3b/5x5"
  bottom: "inception_3b/pool_proj"
  top: "inception_3b/output"
}
layer {
  name: "pool3/3x3_s2"
  type: "Pooling"
  bottom: "inception_3b/output"
  top: "pool3/3x3_s2"
  pooling_param {
    pool: MAX
    kernel_size: 3
    stride: 2
  }
}
layer {
  name: "inception_4a/1x1"
  type: "Convolution"
  bottom: "pool3/3x3_s2"
  top: "inception_4a/1x1"
  param {
    lr_mult: 1
    decay_mult: 1
  }
  param {
    lr_mult: 2
    decay_mult: 0
  }
  convolution_param {
    num_output: 192
    kernel_size: 1
    weight_filler {
      type: "xavier"
    }
    bias_filler {
      type: "constant"
      value: 0.2
    }
  }
}
layer {
  name: "inception_4a/relu_1x1"
  type: "ReLU"
  bottom: "inception_4a/1x1"
  top: "inception_4a/1x1"
}
layer {
  name: "inception_4a/3x3_reduce"
  type: "Convolution"
  bottom: "pool3/3x3_s2"
  top: "inception_4a/3x3_reduce"
  param {
    lr_mult: 1
    decay_mult: 1
  }
  param {
    lr_mult: 2
    decay_mult: 0
  }
  convolution_param {
    num_output: 96
    kernel_size: 1
    weight_filler {
      type: "xavier"
    }
    bias_filler {
      type: "constant"
      value: 0.2
    }
  }
}
layer {
  name: "inception_4a/relu_3x3_reduce"
  type: "ReLU"
  bottom: "inception_4a/3x3_reduce"
  top: "inception_4a/3x3_reduce"
}
layer {
  name: "inception_4a/3x3"
  type: "Convolution"
  bottom: "inception_4a/3x3_reduce"
  top: "inception_4a/3x3"
  param {
    lr_mult: 1
    decay_mult: 1
  }
  param {
    lr_mult: 2
    decay_mult: 0
  }
  convolution_param {
    num_output: 208
    pad: 1
    kernel_size: 3
    weight_filler {
      type: "xavier"
    }
    bias_filler {
      type: "constant"
      value: 0.2
    }
  }
}
layer {
  name: "inception_4a/relu_3x3"
  type: "ReLU"
  bottom: "inception_4a/3x3"
  top: "inception_4a/3x3"
}
layer {
  name: "inception_4a/5x5_reduce"
  type: "Convolution"
  bottom: "pool3/3x3_s2"
  top: "inception_4a/5x5_reduce"
  param {
    lr_mult: 1
    decay_mult: 1
  }
  param {
    lr_mult: 2
    decay_mult: 0
  }
  convolution_param {
    num_output: 16
    kernel_size: 1
    weight_filler {
      type: "xavier"
    }
    bias_filler {
      type: "constant"
      value: 0.2
    }
  }
}
layer {
  name: "inception_4a/relu_5x5_reduce"
  type: "ReLU"
  bottom: "inception_4a/5x5_reduce"
  top: "inception_4a/5x5_reduce"
}
layer {
  name: "inception_4a/5x5"
  type: "Convolution"
  bottom: "inception_4a/5x5_reduce"
  top: "inception_4a/5x5"
  param {
    lr_mult: 1
    decay_mult: 1
  }
  param {
    lr_mult: 2
    decay_mult: 0
  }
  convolution_param {
    num_output: 48
    pad: 2
    kernel_size: 5
    weight_filler {
      type: "xavier"
    }
    bias_filler {
      type: "constant"
      value: 0.2
    }
  }
}
layer {
  name: "inception_4a/relu_5x5"
  type: "ReLU"
  bottom: "inception_4a/5x5"
  top: "inception_4a/5x5"
}
layer {
  name: "inception_4a/pool"
  type: "Pooling"
  bottom: "pool3/3x3_s2"
  top: "inception_4a/pool"
  pooling_param {
    pool: MAX
    kernel_size: 3
    stride: 1
    pad: 1
  }
}
layer {
  name: "inception_4a/pool_proj"
  type: "Convolution"
  bottom: "inception_4a/pool"
  top: "inception_4a/pool_proj"
  param {
    lr_mult: 1
    decay_mult: 1
  }
  param {
    lr_mult: 2
    decay_mult: 0
  }
  convolution_param {
    num_output: 64
    kernel_size: 1
    weight_filler {
      type: "xavier"
    }
    bias_filler {
      type: "constant"
      value: 0.2
    }
  }
}
layer {
  name: "inception_4a/relu_pool_proj"
  type: "ReLU"
  bottom: "inception_4a/pool_proj"
  top: "inception_4a/pool_proj"
}
layer {
  name: "inception_4a/output"
  type: "Concat"
  bottom: "inception_4a/1x1"
  bottom: "inception_4a/3x3"
  bottom: "inception_4a/5x5"
  bottom: "inception_4a/pool_proj"
  top: "inception_4a/output"
}
layer {
  name: "loss1/ave_pool"
  type: "Pooling"
  bottom: "inception_4a/output"
  top: "loss1/ave_pool"
  pooling_param {
    pool: AVE
    kernel_size: 5
    stride: 3
  }
}
layer {
  name: "loss1/conv"
  type: "Convolution"
  bottom: "loss1/ave_pool"
  top: "loss1/conv"
  param {
    lr_mult: 1
    decay_mult: 1
  }
  param {
    lr_mult: 2
    decay_mult: 0
  }
  convolution_param {
    num_output: 128
    kernel_size: 1
    weight_filler {
      type: "xavier"
    }
    bias_filler {
      type: "constant"
      value: 0.2
    }
  }
}
layer {
  name: "loss1/relu_conv"
  type: "ReLU"
  bottom: "loss1/conv"
  top: "loss1/conv"
}
layer {
  name: "loss1/fc"
  type: "InnerProduct"
  bottom: "loss1/conv"
  top: "loss1/fc"
  param {
    lr_mult: 1
    decay_mult: 1
  }
  param {
    lr_mult: 2
    decay_mult: 0
  }
  inner_product_param {
    num_output: 1024
    weight_filler {
      type: "xavier"
    }
    bias_filler {
      type: "constant"
      value: 0.2
    }
  }
}
layer {
  name: "loss1/relu_fc"
  type: "ReLU"
  bottom: "loss1/fc"
  top: "loss1/fc"
}
layer {
  name: "loss1/drop_fc"
  type: "Dropout"
  bottom: "loss1/fc"
  top: "loss1/fc"
  dropout_param {
    dropout_ratio: 0.7
  }
}
layer {
  name: "loss1/classifier_kaggle"
  type: "InnerProduct"
  bottom: "loss1/fc"
  top: "loss1/classifier_kaggle"
  param {
    lr_mult: 1
    decay_mult: 1
  }
  param {
    lr_mult: 2
    decay_mult: 0
  }
  inner_product_param {
    num_output: 447
    weight_filler {
      type: "xavier"
    }
    bias_filler {
      type: "constant"
      value: 0
    }
  }
}
layer {
  name: "loss1/loss"
  type: "SoftmaxWithLoss"
  bottom: "loss1/classifier_kaggle"
  bottom: "label"
  top: "loss1/loss1"
  loss_weight: 0.3
}
layer {
  name: "inception_4b/1x1"
  type: "Convolution"
  bottom: "inception_4a/output"
  top: "inception_4b/1x1"
  param {
    lr_mult: 1
    decay_mult: 1
  }
  param {
    lr_mult: 2
    decay_mult: 0
  }
  convolution_param {
    num_output: 160
    kernel_size: 1
    weight_filler {
      type: "xavier"
    }
    bias_filler {
      type: "constant"
      value: 0.2
    }
  }
}
layer {
  name: "inception_4b/relu_1x1"
  type: "ReLU"
  bottom: "inception_4b/1x1"
  top: "inception_4b/1x1"
}
layer {
  name: "inception_4b/3x3_reduce"
  type: "Convolution"
  bottom: "inception_4a/output"
  top: "inception_4b/3x3_reduce"
  param {
    lr_mult: 1
    decay_mult: 1
  }
  param {
    lr_mult: 2
    decay_mult: 0
  }
  convolution_param {
    num_output: 112
    kernel_size: 1
    weight_filler {
      type: "xavier"
    }
    bias_filler {
      type: "constant"
      value: 0.2
    }
  }
}
layer {
  name: "inception_4b/relu_3x3_reduce"
  type: "ReLU"
  bottom: "inception_4b/3x3_reduce"
  top: "inception_4b/3x3_reduce"
}
layer {
  name: "inception_4b/3x3"
  type: "Convolution"
  bottom: "inception_4b/3x3_reduce"
  top: "inception_4b/3x3"
  param {
    lr_mult: 1
    decay_mult: 1
  }
  param {
    lr_mult: 2
    decay_mult: 0
  }
  convolution_param {
    num_output: 224
    pad: 1
    kernel_size: 3
    weight_filler {
      type: "xavier"
    }
    bias_filler {
      type: "constant"
      value: 0.2
    }
  }
}
layer {
  name: "inception_4b/relu_3x3"
  type: "ReLU"
  bottom: "inception_4b/3x3"
  top: "inception_4b/3x3"
}
layer {
  name: "inception_4b/5x5_reduce"
  type: "Convolution"
  bottom: "inception_4a/output"
  top: "inception_4b/5x5_reduce"
  param {
    lr_mult: 1
    decay_mult: 1
  }
  param {
    lr_mult: 2
    decay_mult: 0
  }
  convolution_param {
    num_output: 24
    kernel_size: 1
    weight_filler {
      type: "xavier"
    }
    bias_filler {
      type: "constant"
      value: 0.2
    }
  }
}
layer {
  name: "inception_4b/relu_5x5_reduce"
  type: "ReLU"
  bottom: "inception_4b/5x5_reduce"
  top: "inception_4b/5x5_reduce"
}
layer {
  name: "inception_4b/5x5"
  type: "Convolution"
  bottom: "inception_4b/5x5_reduce"
  top: "inception_4b/5x5"
  param {
    lr_mult: 1
    decay_mult: 1
  }
  param {
    lr_mult: 2
    decay_mult: 0
  }
  convolution_param {
    num_output: 64
    pad: 2
    kernel_size: 5
    weight_filler {
      type: "xavier"
    }
    bias_filler {
      type: "constant"
      value: 0.2
    }
  }
}
layer {
  name: "inception_4b/relu_5x5"
  type: "ReLU"
  bottom: "inception_4b/5x5"
  top: "inception_4b/5x5"
}
layer {
  name: "inception_4b/pool"
  type: "Pooling"
  bottom: "inception_4a/output"
  top: "inception_4b/pool"
  pooling_param {
    pool: MAX
    kernel_size: 3
    stride: 1
    pad: 1
  }
}
layer {
  name: "inception_4b/pool_proj"
  type: "Convolution"
  bottom: "inception_4b/pool"
  top: "inception_4b/pool_proj"
  param {
    lr_mult: 1
    decay_mult: 1
  }
  param {
    lr_mult: 2
    decay_mult: 0
  }
  convolution_param {
    num_output: 64
    kernel_size: 1
    weight_filler {
      type: "xavier"
    }
    bias_filler {
      type: "constant"
      value: 0.2
    }
  }
}
layer {
  name: "inception_4b/relu_pool_proj"
  type: "ReLU"
  bottom: "inception_4b/pool_proj"
  top: "inception_4b/pool_proj"
}
layer {
  name: "inception_4b/output"
  type: "Concat"
  bottom: "inception_4b/1x1"
  bottom: "inception_4b/3x3"
  bottom: "inception_4b/5x5"
  bottom: "inception_4b/pool_proj"
  top: "inception_4b/output"
}
layer {
  name: "inception_4c/1x1"
  type: "Convolution"
  bottom: "inception_4b/output"
  top: "inception_4c/1x1"
  param {
    lr_mult: 1
    decay_mult: 1
  }
  param {
    lr_mult: 2
    decay_mult: 0
  }
  convolution_param {
    num_output: 128
    kernel_size: 1
    weight_filler {
      type: "xavier"
    }
    bias_filler {
      type: "constant"
      value: 0.2
    }
  }
}
layer {
  name: "inception_4c/relu_1x1"
  type: "ReLU"
  bottom: "inception_4c/1x1"
  top: "inception_4c/1x1"
}
layer {
  name: "inception_4c/3x3_reduce"
  type: "Convolution"
  bottom: "inception_4b/output"
  top: "inception_4c/3x3_reduce"
  param {
    lr_mult: 1
    decay_mult: 1
  }
  param {
    lr_mult: 2
    decay_mult: 0
  }
  convolution_param {
    num_output: 128
    kernel_size: 1
    weight_filler {
      type: "xavier"
    }
    bias_filler {
      type: "constant"
      value: 0.2
    }
  }
}
layer {
  name: "inception_4c/relu_3x3_reduce"
  type: "ReLU"
  bottom: "inception_4c/3x3_reduce"
  top: "inception_4c/3x3_reduce"
}
layer {
  name: "inception_4c/3x3"
  type: "Convolution"
  bottom: "inception_4c/3x3_reduce"
  top: "inception_4c/3x3"
  param {
    lr_mult: 1
    decay_mult: 1
  }
  param {
    lr_mult: 2
    decay_mult: 0
  }
  convolution_param {
    num_output: 256
    pad: 1
    kernel_size: 3
    weight_filler {
      type: "xavier"
    }
    bias_filler {
      type: "constant"
      value: 0.2
    }
  }
}
layer {
  name: "inception_4c/relu_3x3"
  type: "ReLU"
  bottom: "inception_4c/3x3"
  top: "inception_4c/3x3"
}
layer {
  name: "inception_4c/5x5_reduce"
  type: "Convolution"
  bottom: "inception_4b/output"
  top: "inception_4c/5x5_reduce"
  param {
    lr_mult: 1
    decay_mult: 1
  }
  param {
    lr_mult: 2
    decay_mult: 0
  }
  convolution_param {
    num_output: 24
    kernel_size: 1
    weight_filler {
      type: "xavier"
    }
    bias_filler {
      type: "constant"
      value: 0.2
    }
  }
}
layer {
  name: "inception_4c/relu_5x5_reduce"
  type: "ReLU"
  bottom: "inception_4c/5x5_reduce"
  top: "inception_4c/5x5_reduce"
}
layer {
  name: "inception_4c/5x5"
  type: "Convolution"
  bottom: "inception_4c/5x5_reduce"
  top: "inception_4c/5x5"
  param {
    lr_mult: 1
    decay_mult: 1
  }
  param {
    lr_mult: 2
    decay_mult: 0
  }
  convolution_param {
    num_output: 64
    pad: 2
    kernel_size: 5
    weight_filler {
      type: "xavier"
    }
    bias_filler {
      type: "constant"
      value: 0.2
    }
  }
}
layer {
  name: "inception_4c/relu_5x5"
  type: "ReLU"
  bottom: "inception_4c/5x5"
  top: "inception_4c/5x5"
}
layer {
  name: "inception_4c/pool"
  type: "Pooling"
  bottom: "inception_4b/output"
  top: "inception_4c/pool"
  pooling_param {
    pool: MAX
    kernel_size: 3
    stride: 1
    pad: 1
  }
}
layer {
  name: "inception_4c/pool_proj"
  type: "Convolution"
  bottom: "inception_4c/pool"
  top: "inception_4c/pool_proj"
  param {
    lr_mult: 1
    decay_mult: 1
  }
  param {
    lr_mult: 2
    decay_mult: 0
  }
  convolution_param {
    num_output: 64
    kernel_size: 1
    weight_filler {
      type: "xavier"
    }
    bias_filler {
      type: "constant"
      value: 0.2
    }
  }
}
layer {
  name: "inception_4c/relu_pool_proj"
  type: "ReLU"
  bottom: "inception_4c/pool_proj"
  top: "inception_4c/pool_proj"
}
layer {
  name: "inception_4c/output"
  type: "Concat"
  bottom: "inception_4c/1x1"
  bottom: "inception_4c/3x3"
  bottom: "inception_4c/5x5"
  bottom: "inception_4c/pool_proj"
  top: "inception_4c/output"
}
layer {
  name: "inception_4d/1x1"
  type: "Convolution"
  bottom: "inception_4c/output"
  top: "inception_4d/1x1"
  param {
    lr_mult: 1
    decay_mult: 1
  }
  param {
    lr_mult: 2
    decay_mult: 0
  }
  convolution_param {
    num_output: 112
    kernel_size: 1
    weight_filler {
      type: "xavier"
    }
    bias_filler {
      type: "constant"
      value: 0.2
    }
  }
}
layer {
  name: "inception_4d/relu_1x1"
  type: "ReLU"
  bottom: "inception_4d/1x1"
  top: "inception_4d/1x1"
}
layer {
  name: "inception_4d/3x3_reduce"
  type: "Convolution"
  bottom: "inception_4c/output"
  top: "inception_4d/3x3_reduce"
  param {
    lr_mult: 1
    decay_mult: 1
  }
  param {
    lr_mult: 2
    decay_mult: 0
  }
  convolution_param {
    num_output: 144
    kernel_size: 1
    weight_filler {
      type: "xavier"
    }
    bias_filler {
      type: "constant"
      value: 0.2
    }
  }
}
layer {
  name: "inception_4d/relu_3x3_reduce"
  type: "ReLU"
  bottom: "inception_4d/3x3_reduce"
  top: "inception_4d/3x3_reduce"
}
layer {
  name: "inception_4d/3x3"
  type: "Convolution"
  bottom: "inception_4d/3x3_reduce"
  top: "inception_4d/3x3"
  param {
    lr_mult: 1
    decay_mult: 1
  }
  param {
    lr_mult: 2
    decay_mult: 0
  }
  convolution_param {
    num_output: 288
    pad: 1
    kernel_size: 3
    weight_filler {
      type: "xavier"
    }
    bias_filler {
      type: "constant"
      value: 0.2
    }
  }
}
layer {
  name: "inception_4d/relu_3x3"
  type: "ReLU"
  bottom: "inception_4d/3x3"
  top: "inception_4d/3x3"
}
layer {
  name: "inception_4d/5x5_reduce"
  type: "Convolution"
  bottom: "inception_4c/output"
  top: "inception_4d/5x5_reduce"
  param {
    lr_mult: 1
    decay_mult: 1
  }
  param {
    lr_mult: 2
    decay_mult: 0
  }
  convolution_param {
    num_output: 32
    kernel_size: 1
    weight_filler {
      type: "xavier"
    }
    bias_filler {
      type: "constant"
      value: 0.2
    }
  }
}
layer {
  name: "inception_4d/relu_5x5_reduce"
  type: "ReLU"
  bottom: "inception_4d/5x5_reduce"
  top: "inception_4d/5x5_reduce"
}
layer {
  name: "inception_4d/5x5"
  type: "Convolution"
  bottom: "inception_4d/5x5_reduce"
  top: "inception_4d/5x5"
  param {
    lr_mult: 1
    decay_mult: 1
  }
  param {
    lr_mult: 2
    decay_mult: 0
  }
  convolution_param {
    num_output: 64
    pad: 2
    kernel_size: 5
    weight_filler {
      type: "xavier"
    }
    bias_filler {
      type: "constant"
      value: 0.2
    }
  }
}
layer {
  name: "inception_4d/relu_5x5"
  type: "ReLU"
  bottom: "inception_4d/5x5"
  top: "inception_4d/5x5"
}
layer {
  name: "inception_4d/pool"
  type: "Pooling"
  bottom: "inception_4c/output"
  top: "inception_4d/pool"
  pooling_param {
    pool: MAX
    kernel_size: 3
    stride: 1
    pad: 1
  }
}
layer {
  name: "inception_4d/pool_proj"
  type: "Convolution"
  bottom: "inception_4d/pool"
  top: "inception_4d/pool_proj"
  param {
    lr_mult: 1
    decay_mult: 1
  }
  param {
    lr_mult: 2
    decay_mult: 0
  }
  convolution_param {
    num_output: 64
    kernel_size: 1
    weight_filler {
      type: "xavier"
    }
    bias_filler {
      type: "constant"
      value: 0.2
    }
  }
}
layer {
  name: "inception_4d/relu_pool_proj"
  type: "ReLU"
  bottom: "inception_4d/pool_proj"
  top: "inception_4d/pool_proj"
}
layer {
  name: "inception_4d/output"
  type: "Concat"
  bottom: "inception_4d/1x1"
  bottom: "inception_4d/3x3"
  bottom: "inception_4d/5x5"
  bottom: "inception_4d/pool_proj"
  top: "inception_4d/output"
}
layer {
  name: "loss2/ave_pool"
  type: "Pooling"
  bottom: "inception_4d/output"
  top: "loss2/ave_pool"
  pooling_param {
    pool: AVE
    kernel_size: 5
    stride: 3
  }
}
layer {
  name: "loss2/conv"
  type: "Convolution"
  bottom: "loss2/ave_pool"
  top: "loss2/conv"
  param {
    lr_mult: 1
    decay_mult: 1
  }
  param {
    lr_mult: 2
    decay_mult: 0
  }
  convolution_param {
    num_output: 128
    kernel_size: 1
    weight_filler {
      type: "xavier"
    }
    bias_filler {
      type: "constant"
      value: 0.2
    }
  }
}
layer {
  name: "loss2/relu_conv"
  type: "ReLU"
  bottom: "loss2/conv"
  top: "loss2/conv"
}
layer {
  name: "loss2/fc"
  type: "InnerProduct"
  bottom: "loss2/conv"
  top: "loss2/fc"
  param {
    lr_mult: 1
    decay_mult: 1
  }
  param {
    lr_mult: 2
    decay_mult: 0
  }
  inner_product_param {
    num_output: 1024
    weight_filler {
      type: "xavier"
    }
    bias_filler {
      type: "constant"
      value: 0.2
    }
  }
}
layer {
  name: "loss2/relu_fc"
  type: "ReLU"
  bottom: "loss2/fc"
  top: "loss2/fc"
}
layer {
  name: "loss2/drop_fc"
  type: "Dropout"
  bottom: "loss2/fc"
  top: "loss2/fc"
  dropout_param {
    dropout_ratio: 0.7
  }
}
layer {
  name: "loss2/classifier_kaggle"
  type: "InnerProduct"
  bottom: "loss2/fc"
  top: "loss2/classifier_kaggle"
  param {
    lr_mult: 1
    decay_mult: 1
  }
  param {
    lr_mult: 2
    decay_mult: 0
  }
  inner_product_param {
    num_output: 447
    weight_filler {
      type: "xavier"
    }
    bias_filler {
      type: "constant"
      value: 0
    }
  }
}
layer {
  name: "loss2/loss"
  type: "SoftmaxWithLoss"
  bottom: "loss2/classifier_kaggle"
  bottom: "label"
  top: "loss2/loss1"
  loss_weight: 0.3
}
layer {
  name: "inception_4e/1x1"
  type: "Convolution"
  bottom: "inception_4d/output"
  top: "inception_4e/1x1"
  param {
    lr_mult: 1
    decay_mult: 1
  }
  param {
    lr_mult: 2
    decay_mult: 0
  }
  convolution_param {
    num_output: 256
    kernel_size: 1
    weight_filler {
      type: "xavier"
    }
    bias_filler {
      type: "constant"
      value: 0.2
    }
  }
}
layer {
  name: "inception_4e/relu_1x1"
  type: "ReLU"
  bottom: "inception_4e/1x1"
  top: "inception_4e/1x1"
}
layer {
  name: "inception_4e/3x3_reduce"
  type: "Convolution"
  bottom: "inception_4d/output"
  top: "inception_4e/3x3_reduce"
  param {
    lr_mult: 1
    decay_mult: 1
  }
  param {
    lr_mult: 2
    decay_mult: 0
  }
  convolution_param {
    num_output: 160
    kernel_size: 1
    weight_filler {
      type: "xavier"
    }
    bias_filler {
      type: "constant"
      value: 0.2
    }
  }
}
layer {
  name: "inception_4e/relu_3x3_reduce"
  type: "ReLU"
  bottom: "inception_4e/3x3_reduce"
  top: "inception_4e/3x3_reduce"
}
layer {
  name: "inception_4e/3x3"
  type: "Convolution"
  bottom: "inception_4e/3x3_reduce"
  top: "inception_4e/3x3"
  param {
    lr_mult: 1
    decay_mult: 1
  }
  param {
    lr_mult: 2
    decay_mult: 0
  }
  convolution_param {
    num_output: 320
    pad: 1
    kernel_size: 3
    weight_filler {
      type: "xavier"
    }
    bias_filler {
      type: "constant"
      value: 0.2
    }
  }
}
layer {
  name: "inception_4e/relu_3x3"
  type: "ReLU"
  bottom: "inception_4e/3x3"
  top: "inception_4e/3x3"
}
layer {
  name: "inception_4e/5x5_reduce"
  type: "Convolution"
  bottom: "inception_4d/output"
  top: "inception_4e/5x5_reduce"
  param {
    lr_mult: 1
    decay_mult: 1
  }
  param {
    lr_mult: 2
    decay_mult: 0
  }
  convolution_param {
    num_output: 32
    kernel_size: 1
    weight_filler {
      type: "xavier"
    }
    bias_filler {
      type: "constant"
      value: 0.2
    }
  }
}
layer {
  name: "inception_4e/relu_5x5_reduce"
  type: "ReLU"
  bottom: "inception_4e/5x5_reduce"
  top: "inception_4e/5x5_reduce"
}
layer {
  name: "inception_4e/5x5"
  type: "Convolution"
  bottom: "inception_4e/5x5_reduce"
  top: "inception_4e/5x5"
  param {
    lr_mult: 1
    decay_mult: 1
  }
  param {
    lr_mult: 2
    decay_mult: 0
  }
  convolution_param {
    num_output: 128
    pad: 2
    kernel_size: 5
    weight_filler {
      type: "xavier"
    }
    bias_filler {
      type: "constant"
      value: 0.2
    }
  }
}
layer {
  name: "inception_4e/relu_5x5"
  type: "ReLU"
  bottom: "inception_4e/5x5"
  top: "inception_4e/5x5"
}
layer {
  name: "inception_4e/pool"
  type: "Pooling"
  bottom: "inception_4d/output"
  top: "inception_4e/po
I0107 16:34:02.149926  9729 layer_factory.hpp:74] Creating layer data
I0107 16:34:02.149969  9729 net.cpp:84] Creating Layer data
I0107 16:34:02.149983  9729 net.cpp:338] data -> data
I0107 16:34:02.150038  9729 net.cpp:338] data -> label
I0107 16:34:02.150053  9729 net.cpp:113] Setting up data
I0107 16:34:02.150063  9729 image_data_layer.cpp:36] Opening file /home/coldmanck/kaggle/label_train_full_resize_rotated.txt
I0107 16:34:02.153599  9729 image_data_layer.cpp:46] Shuffling data
I0107 16:34:02.154775  9729 image_data_layer.cpp:51] A total of 4235 images.
I0107 16:34:02.156131  9729 image_data_layer.cpp:80] output data size: 80,3,224,224
I0107 16:34:02.171028  9729 net.cpp:120] Top shape: 80 3 224 224 (12042240)
I0107 16:34:02.171079  9729 net.cpp:120] Top shape: 80 (80)
I0107 16:34:02.171095  9729 layer_factory.hpp:74] Creating layer label_data_1_split
I0107 16:34:02.171139  9729 net.cpp:84] Creating Layer label_data_1_split
I0107 16:34:02.171151  9729 net.cpp:380] label_data_1_split <- label
I0107 16:34:02.171175  9729 net.cpp:338] label_data_1_split -> label_data_1_split_0
I0107 16:34:02.171207  9729 net.cpp:338] label_data_1_split -> label_data_1_split_1
I0107 16:34:02.171231  9729 net.cpp:338] label_data_1_split -> label_data_1_split_2
I0107 16:34:02.171242  9729 net.cpp:113] Setting up label_data_1_split
I0107 16:34:02.171257  9729 net.cpp:120] Top shape: 80 (80)
I0107 16:34:02.171265  9729 net.cpp:120] Top shape: 80 (80)
I0107 16:34:02.171273  9729 net.cpp:120] Top shape: 80 (80)
I0107 16:34:02.171280  9729 layer_factory.hpp:74] Creating layer conv1/7x7_s2
I0107 16:34:02.171298  9729 net.cpp:84] Creating Layer conv1/7x7_s2
I0107 16:34:02.171306  9729 net.cpp:380] conv1/7x7_s2 <- data
I0107 16:34:02.171319  9729 net.cpp:338] conv1/7x7_s2 -> conv1/7x7_s2
I0107 16:34:02.171334  9729 net.cpp:113] Setting up conv1/7x7_s2
I0107 16:34:02.564847  9729 net.cpp:120] Top shape: 80 64 112 112 (64225280)
I0107 16:34:02.564936  9729 layer_factory.hpp:74] Creating layer conv1/relu_7x7
I0107 16:34:02.564960  9729 net.cpp:84] Creating Layer conv1/relu_7x7
I0107 16:34:02.564978  9729 net.cpp:380] conv1/relu_7x7 <- conv1/7x7_s2
I0107 16:34:02.565002  9729 net.cpp:327] conv1/relu_7x7 -> conv1/7x7_s2 (in-place)
I0107 16:34:02.565016  9729 net.cpp:113] Setting up conv1/relu_7x7
I0107 16:34:02.565304  9729 net.cpp:120] Top shape: 80 64 112 112 (64225280)
I0107 16:34:02.565323  9729 layer_factory.hpp:74] Creating layer pool1/3x3_s2
I0107 16:34:02.565352  9729 net.cpp:84] Creating Layer pool1/3x3_s2
I0107 16:34:02.565359  9729 net.cpp:380] pool1/3x3_s2 <- conv1/7x7_s2
I0107 16:34:02.565372  9729 net.cpp:338] pool1/3x3_s2 -> pool1/3x3_s2
I0107 16:34:02.565382  9729 net.cpp:113] Setting up pool1/3x3_s2
I0107 16:34:02.565474  9729 net.cpp:120] Top shape: 80 64 56 56 (16056320)
I0107 16:34:02.565495  9729 layer_factory.hpp:74] Creating layer pool1/norm1
I0107 16:34:02.565508  9729 net.cpp:84] Creating Layer pool1/norm1
I0107 16:34:02.565513  9729 net.cpp:380] pool1/norm1 <- pool1/3x3_s2
I0107 16:34:02.565521  9729 net.cpp:338] pool1/norm1 -> pool1/norm1
I0107 16:34:02.565529  9729 net.cpp:113] Setting up pool1/norm1
I0107 16:34:02.565537  9729 net.cpp:120] Top shape: 80 64 56 56 (16056320)
I0107 16:34:02.565548  9729 layer_factory.hpp:74] Creating layer conv2/3x3_reduce
I0107 16:34:02.565563  9729 net.cpp:84] Creating Layer conv2/3x3_reduce
I0107 16:34:02.565568  9729 net.cpp:380] conv2/3x3_reduce <- pool1/norm1
I0107 16:34:02.565582  9729 net.cpp:338] conv2/3x3_reduce -> conv2/3x3_reduce
I0107 16:34:02.565593  9729 net.cpp:113] Setting up conv2/3x3_reduce
I0107 16:34:02.566069  9729 net.cpp:120] Top shape: 80 64 56 56 (16056320)
I0107 16:34:02.566087  9729 layer_factory.hpp:74] Creating layer conv2/relu_3x3_reduce
I0107 16:34:02.566097  9729 net.cpp:84] Creating Layer conv2/relu_3x3_reduce
I0107 16:34:02.566102  9729 net.cpp:380] conv2/relu_3x3_reduce <- conv2/3x3_reduce
I0107 16:34:02.566109  9729 net.cpp:327] conv2/relu_3x3_reduce -> conv2/3x3_reduce (in-place)
I0107 16:34:02.566118  9729 net.cpp:113] Setting up conv2/relu_3x3_reduce
I0107 16:34:02.566184  9729 net.cpp:120] Top shape: 80 64 56 56 (16056320)
I0107 16:34:02.566190  9729 layer_factory.hpp:74] Creating layer conv2/3x3
I0107 16:34:02.566200  9729 net.cpp:84] Creating Layer conv2/3x3
I0107 16:34:02.566205  9729 net.cpp:380] conv2/3x3 <- conv2/3x3_reduce
I0107 16:34:02.566221  9729 net.cpp:338] conv2/3x3 -> conv2/3x3
I0107 16:34:02.566231  9729 net.cpp:113] Setting up conv2/3x3
I0107 16:34:02.567852  9729 net.cpp:120] Top shape: 80 192 56 56 (48168960)
I0107 16:34:02.567873  9729 layer_factory.hpp:74] Creating layer conv2/relu_3x3
I0107 16:34:02.567888  9729 net.cpp:84] Creating Layer conv2/relu_3x3
I0107 16:34:02.567893  9729 net.cpp:380] conv2/relu_3x3 <- conv2/3x3
I0107 16:34:02.567900  9729 net.cpp:327] conv2/relu_3x3 -> conv2/3x3 (in-place)
I0107 16:34:02.567908  9729 net.cpp:113] Setting up conv2/relu_3x3
I0107 16:34:02.568153  9729 net.cpp:120] Top shape: 80 192 56 56 (48168960)
I0107 16:34:02.568173  9729 layer_factory.hpp:74] Creating layer conv2/norm2
I0107 16:34:02.568181  9729 net.cpp:84] Creating Layer conv2/norm2
I0107 16:34:02.568197  9729 net.cpp:380] conv2/norm2 <- conv2/3x3
I0107 16:34:02.568212  9729 net.cpp:338] conv2/norm2 -> conv2/norm2
I0107 16:34:02.568220  9729 net.cpp:113] Setting up conv2/norm2
I0107 16:34:02.568228  9729 net.cpp:120] Top shape: 80 192 56 56 (48168960)
I0107 16:34:02.568239  9729 layer_factory.hpp:74] Creating layer pool2/3x3_s2
I0107 16:34:02.568248  9729 net.cpp:84] Creating Layer pool2/3x3_s2
I0107 16:34:02.568253  9729 net.cpp:380] pool2/3x3_s2 <- conv2/norm2
I0107 16:34:02.568259  9729 net.cpp:338] pool2/3x3_s2 -> pool2/3x3_s2
I0107 16:34:02.568265  9729 net.cpp:113] Setting up pool2/3x3_s2
I0107 16:34:02.568336  9729 net.cpp:120] Top shape: 80 192 28 28 (12042240)
I0107 16:34:02.568342  9729 layer_factory.hpp:74] Creating layer pool2/3x3_s2_pool2/3x3_s2_0_split
I0107 16:34:02.568356  9729 net.cpp:84] Creating Layer pool2/3x3_s2_pool2/3x3_s2_0_split
I0107 16:34:02.568361  9729 net.cpp:380] pool2/3x3_s2_pool2/3x3_s2_0_split <- pool2/3x3_s2
I0107 16:34:02.568377  9729 net.cpp:338] pool2/3x3_s2_pool2/3x3_s2_0_split -> pool2/3x3_s2_pool2/3x3_s2_0_split_0
I0107 16:34:02.568384  9729 net.cpp:338] pool2/3x3_s2_pool2/3x3_s2_0_split -> pool2/3x3_s2_pool2/3x3_s2_0_split_1
I0107 16:34:02.568392  9729 net.cpp:338] pool2/3x3_s2_pool2/3x3_s2_0_split -> pool2/3x3_s2_pool2/3x3_s2_0_split_2
I0107 16:34:02.568397  9729 net.cpp:338] pool2/3x3_s2_pool2/3x3_s2_0_split -> pool2/3x3_s2_pool2/3x3_s2_0_split_3
I0107 16:34:02.568403  9729 net.cpp:113] Setting up pool2/3x3_s2_pool2/3x3_s2_0_split
I0107 16:34:02.568411  9729 net.cpp:120] Top shape: 80 192 28 28 (12042240)
I0107 16:34:02.568416  9729 net.cpp:120] Top shape: 80 192 28 28 (12042240)
I0107 16:34:02.568421  9729 net.cpp:120] Top shape: 80 192 28 28 (12042240)
I0107 16:34:02.568426  9729 net.cpp:120] Top shape: 80 192 28 28 (12042240)
I0107 16:34:02.568431  9729 layer_factory.hpp:74] Creating layer inception_3a/1x1
I0107 16:34:02.568445  9729 net.cpp:84] Creating Layer inception_3a/1x1
I0107 16:34:02.568451  9729 net.cpp:380] inception_3a/1x1 <- pool2/3x3_s2_pool2/3x3_s2_0_split_0
I0107 16:34:02.568459  9729 net.cpp:338] inception_3a/1x1 -> inception_3a/1x1
I0107 16:34:02.568469  9729 net.cpp:113] Setting up inception_3a/1x1
I0107 16:34:02.569005  9729 net.cpp:120] Top shape: 80 64 28 28 (4014080)
I0107 16:34:02.569021  9729 layer_factory.hpp:74] Creating layer inception_3a/relu_1x1
I0107 16:34:02.569028  9729 net.cpp:84] Creating Layer inception_3a/relu_1x1
I0107 16:34:02.569033  9729 net.cpp:380] inception_3a/relu_1x1 <- inception_3a/1x1
I0107 16:34:02.569051  9729 net.cpp:327] inception_3a/relu_1x1 -> inception_3a/1x1 (in-place)
I0107 16:34:02.569059  9729 net.cpp:113] Setting up inception_3a/relu_1x1
I0107 16:34:02.569128  9729 net.cpp:120] Top shape: 80 64 28 28 (4014080)
I0107 16:34:02.569133  9729 layer_factory.hpp:74] Creating layer inception_3a/3x3_reduce
I0107 16:34:02.569142  9729 net.cpp:84] Creating Layer inception_3a/3x3_reduce
I0107 16:34:02.569147  9729 net.cpp:380] inception_3a/3x3_reduce <- pool2/3x3_s2_pool2/3x3_s2_0_split_1
I0107 16:34:02.569154  9729 net.cpp:338] inception_3a/3x3_reduce -> inception_3a/3x3_reduce
I0107 16:34:02.569162  9729 net.cpp:113] Setting up inception_3a/3x3_reduce
I0107 16:34:02.569785  9729 net.cpp:120] Top shape: 80 96 28 28 (6021120)
I0107 16:34:02.569805  9729 layer_factory.hpp:74] Creating layer inception_3a/relu_3x3_reduce
I0107 16:34:02.569815  9729 net.cpp:84] Creating Layer inception_3a/relu_3x3_reduce
I0107 16:34:02.569820  9729 net.cpp:380] inception_3a/relu_3x3_reduce <- inception_3a/3x3_reduce
I0107 16:34:02.569836  9729 net.cpp:327] inception_3a/relu_3x3_reduce -> inception_3a/3x3_reduce (in-place)
I0107 16:34:02.569846  9729 net.cpp:113] Setting up inception_3a/relu_3x3_reduce
I0107 16:34:02.569917  9729 net.cpp:120] Top shape: 80 96 28 28 (6021120)
I0107 16:34:02.569923  9729 layer_factory.hpp:74] Creating layer inception_3a/3x3
I0107 16:34:02.569938  9729 net.cpp:84] Creating Layer inception_3a/3x3
I0107 16:34:02.569944  9729 net.cpp:380] inception_3a/3x3 <- inception_3a/3x3_reduce
I0107 16:34:02.569958  9729 net.cpp:338] inception_3a/3x3 -> inception_3a/3x3
I0107 16:34:02.569973  9729 net.cpp:113] Setting up inception_3a/3x3
I0107 16:34:02.571596  9729 net.cpp:120] Top shape: 80 128 28 28 (8028160)
I0107 16:34:02.571620  9729 layer_factory.hpp:74] Creating layer inception_3a/relu_3x3
I0107 16:34:02.571630  9729 net.cpp:84] Creating Layer inception_3a/relu_3x3
I0107 16:34:02.571635  9729 net.cpp:380] inception_3a/relu_3x3 <- inception_3a/3x3
I0107 16:34:02.571641  9729 net.cpp:327] inception_3a/relu_3x3 -> inception_3a/3x3 (in-place)
I0107 16:34:02.571648  9729 net.cpp:113] Setting up inception_3a/relu_3x3
I0107 16:34:02.571893  9729 net.cpp:120] Top shape: 80 128 28 28 (8028160)
I0107 16:34:02.571905  9729 layer_factory.hpp:74] Creating layer inception_3a/5x5_reduce
I0107 16:34:02.571914  9729 net.cpp:84] Creating Layer inception_3a/5x5_reduce
I0107 16:34:02.571919  9729 net.cpp:380] inception_3a/5x5_reduce <- pool2/3x3_s2_pool2/3x3_s2_0_split_2
I0107 16:34:02.571928  9729 net.cpp:338] inception_3a/5x5_reduce -> inception_3a/5x5_reduce
I0107 16:34:02.571939  9729 net.cpp:113] Setting up inception_3a/5x5_reduce
I0107 16:34:02.572372  9729 net.cpp:120] Top shape: 80 16 28 28 (1003520)
I0107 16:34:02.572387  9729 layer_factory.hpp:74] Creating layer inception_3a/relu_5x5_reduce
I0107 16:34:02.572402  9729 net.cpp:84] Creating Layer inception_3a/relu_5x5_reduce
I0107 16:34:02.572408  9729 net.cpp:380] inception_3a/relu_5x5_reduce <- inception_3a/5x5_reduce
I0107 16:34:02.572415  9729 net.cpp:327] inception_3a/relu_5x5_reduce -> inception_3a/5x5_reduce (in-place)
I0107 16:34:02.572422  9729 net.cpp:113] Setting up inception_3a/relu_5x5_reduce
I0107 16:34:02.572491  9729 net.cpp:120] Top shape: 80 16 28 28 (1003520)
I0107 16:34:02.572497  9729 layer_factory.hpp:74] Creating layer inception_3a/5x5
I0107 16:34:02.572506  9729 net.cpp:84] Creating Layer inception_3a/5x5
I0107 16:34:02.572511  9729 net.cpp:380] inception_3a/5x5 <- inception_3a/5x5_reduce
I0107 16:34:02.572518  9729 net.cpp:338] inception_3a/5x5 -> inception_3a/5x5
I0107 16:34:02.572526  9729 net.cpp:113] Setting up inception_3a/5x5
I0107 16:34:02.573065  9729 net.cpp:120] Top shape: 80 32 28 28 (2007040)
I0107 16:34:02.573081  9729 layer_factory.hpp:74] Creating layer inception_3a/relu_5x5
I0107 16:34:02.573096  9729 net.cpp:84] Creating Layer inception_3a/relu_5x5
I0107 16:34:02.573104  9729 net.cpp:380] inception_3a/relu_5x5 <- inception_3a/5x5
I0107 16:34:02.573112  9729 net.cpp:327] inception_3a/relu_5x5 -> inception_3a/5x5 (in-place)
I0107 16:34:02.573118  9729 net.cpp:113] Setting up inception_3a/relu_5x5
I0107 16:34:02.573184  9729 net.cpp:120] Top shape: 80 32 28 28 (2007040)
I0107 16:34:02.573191  9729 layer_factory.hpp:74] Creating layer inception_3a/pool
I0107 16:34:02.573196  9729 layer_factory.cpp:56] CUDNN does not support padding or multiple tops. Using Caffe's own pooling layer.
I0107 16:34:02.573211  9729 net.cpp:84] Creating Layer inception_3a/pool
I0107 16:34:02.573217  9729 net.cpp:380] inception_3a/pool <- pool2/3x3_s2_pool2/3x3_s2_0_split_3
I0107 16:34:02.573223  9729 net.cpp:338] inception_3a/pool -> inception_3a/pool
I0107 16:34:02.573231  9729 net.cpp:113] Setting up inception_3a/pool
I0107 16:34:02.573240  9729 net.cpp:120] Top shape: 80 192 28 28 (12042240)
I0107 16:34:02.573245  9729 layer_factory.hpp:74] Creating layer inception_3a/pool_proj
I0107 16:34:02.573253  9729 net.cpp:84] Creating Layer inception_3a/pool_proj
I0107 16:34:02.573258  9729 net.cpp:380] inception_3a/pool_proj <- inception_3a/pool
I0107 16:34:02.573264  9729 net.cpp:338] inception_3a/pool_proj -> inception_3a/pool_proj
I0107 16:34:02.573271  9729 net.cpp:113] Setting up inception_3a/pool_proj
I0107 16:34:02.573745  9729 net.cpp:120] Top shape: 80 32 28 28 (2007040)
I0107 16:34:02.573765  9729 layer_factory.hpp:74] Creating layer inception_3a/relu_pool_proj
I0107 16:34:02.573772  9729 net.cpp:84] Creating Layer inception_3a/relu_pool_proj
I0107 16:34:02.573778  9729 net.cpp:380] inception_3a/relu_pool_proj <- inception_3a/pool_proj
I0107 16:34:02.573784  9729 net.cpp:327] inception_3a/relu_pool_proj -> inception_3a/pool_proj (in-place)
I0107 16:34:02.573802  9729 net.cpp:113] Setting up inception_3a/relu_pool_proj
I0107 16:34:02.573873  9729 net.cpp:120] Top shape: 80 32 28 28 (2007040)
I0107 16:34:02.573879  9729 layer_factory.hpp:74] Creating layer inception_3a/output
I0107 16:34:02.573886  9729 net.cpp:84] Creating Layer inception_3a/output
I0107 16:34:02.573891  9729 net.cpp:380] inception_3a/output <- inception_3a/1x1
I0107 16:34:02.573897  9729 net.cpp:380] inception_3a/output <- inception_3a/3x3
I0107 16:34:02.573902  9729 net.cpp:380] inception_3a/output <- inception_3a/5x5
I0107 16:34:02.573907  9729 net.cpp:380] inception_3a/output <- inception_3a/pool_proj
I0107 16:34:02.573914  9729 net.cpp:338] inception_3a/output -> inception_3a/output
I0107 16:34:02.573922  9729 net.cpp:113] Setting up inception_3a/output
I0107 16:34:02.573930  9729 net.cpp:120] Top shape: 80 256 28 28 (16056320)
I0107 16:34:02.573943  9729 layer_factory.hpp:74] Creating layer inception_3a/output_inception_3a/output_0_split
I0107 16:34:02.573952  9729 net.cpp:84] Creating Layer inception_3a/output_inception_3a/output_0_split
I0107 16:34:02.573957  9729 net.cpp:380] inception_3a/output_inception_3a/output_0_split <- inception_3a/output
I0107 16:34:02.573963  9729 net.cpp:338] inception_3a/output_inception_3a/output_0_split -> inception_3a/output_inception_3a/output_0_split_0
I0107 16:34:02.573971  9729 net.cpp:338] inception_3a/output_inception_3a/output_0_split -> inception_3a/output_inception_3a/output_0_split_1
I0107 16:34:02.573977  9729 net.cpp:338] inception_3a/output_inception_3a/output_0_split -> inception_3a/output_inception_3a/output_0_split_2
I0107 16:34:02.573984  9729 net.cpp:338] inception_3a/output_inception_3a/output_0_split -> inception_3a/output_inception_3a/output_0_split_3
I0107 16:34:02.573990  9729 net.cpp:113] Setting up inception_3a/output_inception_3a/output_0_split
I0107 16:34:02.573999  9729 net.cpp:120] Top shape: 80 256 28 28 (16056320)
I0107 16:34:02.574004  9729 net.cpp:120] Top shape: 80 256 28 28 (16056320)
I0107 16:34:02.574009  9729 net.cpp:120] Top shape: 80 256 28 28 (16056320)
I0107 16:34:02.574014  9729 net.cpp:120] Top shape: 80 256 28 28 (16056320)
I0107 16:34:02.574019  9729 layer_factory.hpp:74] Creating layer inception_3b/1x1
I0107 16:34:02.574035  9729 net.cpp:84] Creating Layer inception_3b/1x1
I0107 16:34:02.574041  9729 net.cpp:380] inception_3b/1x1 <- inception_3a/output_inception_3a/output_0_split_0
I0107 16:34:02.574048  9729 net.cpp:338] inception_3b/1x1 -> inception_3b/1x1
I0107 16:34:02.574056  9729 net.cpp:113] Setting up inception_3b/1x1
I0107 16:34:02.574823  9729 net.cpp:120] Top shape: 80 128 28 28 (8028160)
I0107 16:34:02.574839  9729 layer_factory.hpp:74] Creating layer inception_3b/relu_1x1
I0107 16:34:02.574847  9729 net.cpp:84] Creating Layer inception_3b/relu_1x1
I0107 16:34:02.574853  9729 net.cpp:380] inception_3b/relu_1x1 <- inception_3b/1x1
I0107 16:34:02.574861  9729 net.cpp:327] inception_3b/relu_1x1 -> inception_3b/1x1 (in-place)
I0107 16:34:02.574867  9729 net.cpp:113] Setting up inception_3b/relu_1x1
I0107 16:34:02.575114  9729 net.cpp:120] Top shape: 80 128 28 28 (8028160)
I0107 16:34:02.575124  9729 layer_factory.hpp:74] Creating layer inception_3b/3x3_reduce
I0107 16:34:02.575134  9729 net.cpp:84] Creating Layer inception_3b/3x3_reduce
I0107 16:34:02.575139  9729 net.cpp:380] inception_3b/3x3_reduce <- inception_3a/output_inception_3a/output_0_split_1
I0107 16:34:02.575148  9729 net.cpp:338] inception_3b/3x3_reduce -> inception_3b/3x3_reduce
I0107 16:34:02.575156  9729 net.cpp:113] Setting up inception_3b/3x3_reduce
I0107 16:34:02.575920  9729 net.cpp:120] Top shape: 80 128 28 28 (8028160)
I0107 16:34:02.575935  9729 layer_factory.hpp:74] Creating layer inception_3b/relu_3x3_reduce
I0107 16:34:02.575956  9729 net.cpp:84] Creating Layer inception_3b/relu_3x3_reduce
I0107 16:34:02.575963  9729 net.cpp:380] inception_3b/relu_3x3_reduce <- inception_3b/3x3_reduce
I0107 16:34:02.575969  9729 net.cpp:327] inception_3b/relu_3x3_reduce -> inception_3b/3x3_reduce (in-place)
I0107 16:34:02.575981  9729 net.cpp:113] Setting up inception_3b/relu_3x3_reduce
I0107 16:34:02.576056  9729 net.cpp:120] Top shape: 80 128 28 28 (8028160)
I0107 16:34:02.576063  9729 layer_factory.hpp:74] Creating layer inception_3b/3x3
I0107 16:34:02.576074  9729 net.cpp:84] Creating Layer inception_3b/3x3
I0107 16:34:02.576081  9729 net.cpp:380] inception_3b/3x3 <- inception_3b/3x3_reduce
I0107 16:34:02.576088  9729 net.cpp:338] inception_3b/3x3 -> inception_3b/3x3
I0107 16:34:02.576097  9729 net.cpp:113] Setting up inception_3b/3x3
I0107 16:34:02.578935  9729 net.cpp:120] Top shape: 80 192 28 28 (12042240)
I0107 16:34:02.578953  9729 layer_factory.hpp:74] Creating layer inception_3b/relu_3x3
I0107 16:34:02.578959  9729 net.cpp:84] Creating Layer inception_3b/relu_3x3
I0107 16:34:02.578964  9729 net.cpp:380] inception_3b/relu_3x3 <- inception_3b/3x3
I0107 16:34:02.578971  9729 net.cpp:327] inception_3b/relu_3x3 -> inception_3b/3x3 (in-place)
I0107 16:34:02.578979  9729 net.cpp:113] Setting up inception_3b/relu_3x3
I0107 16:34:02.579046  9729 net.cpp:120] Top shape: 80 192 28 28 (12042240)
I0107 16:34:02.579051  9729 layer_factory.hpp:74] Creating layer inception_3b/5x5_reduce
I0107 16:34:02.579069  9729 net.cpp:84] Creating Layer inception_3b/5x5_reduce
I0107 16:34:02.579077  9729 net.cpp:380] inception_3b/5x5_reduce <- inception_3a/output_inception_3a/output_0_split_2
I0107 16:34:02.579084  9729 net.cpp:338] inception_3b/5x5_reduce -> inception_3b/5x5_reduce
I0107 16:34:02.579093  9729 net.cpp:113] Setting up inception_3b/5x5_reduce
I0107 16:34:02.579602  9729 net.cpp:120] Top shape: 80 32 28 28 (2007040)
I0107 16:34:02.579617  9729 layer_factory.hpp:74] Creating layer inception_3b/relu_5x5_reduce
I0107 16:34:02.579624  9729 net.cpp:84] Creating Layer inception_3b/relu_5x5_reduce
I0107 16:34:02.579629  9729 net.cpp:380] inception_3b/relu_5x5_reduce <- inception_3b/5x5_reduce
I0107 16:34:02.579638  9729 net.cpp:327] inception_3b/relu_5x5_reduce -> inception_3b/5x5_reduce (in-place)
I0107 16:34:02.579645  9729 net.cpp:113] Setting up inception_3b/relu_5x5_reduce
I0107 16:34:02.579712  9729 net.cpp:120] Top shape: 80 32 28 28 (2007040)
I0107 16:34:02.579726  9729 layer_factory.hpp:74] Creating layer inception_3b/5x5
I0107 16:34:02.579736  9729 net.cpp:84] Creating Layer inception_3b/5x5
I0107 16:34:02.579742  9729 net.cpp:380] inception_3b/5x5 <- inception_3b/5x5_reduce
I0107 16:34:02.579749  9729 net.cpp:338] inception_3b/5x5 -> inception_3b/5x5
I0107 16:34:02.579761  9729 net.cpp:113] Setting up inception_3b/5x5
I0107 16:34:02.581004  9729 net.cpp:120] Top shape: 80 96 28 28 (6021120)
I0107 16:34:02.581020  9729 layer_factory.hpp:74] Creating layer inception_3b/relu_5x5
I0107 16:34:02.581034  9729 net.cpp:84] Creating Layer inception_3b/relu_5x5
I0107 16:34:02.581042  9729 net.cpp:380] inception_3b/relu_5x5 <- inception_3b/5x5
I0107 16:34:02.581048  9729 net.cpp:327] inception_3b/relu_5x5 -> inception_3b/5x5 (in-place)
I0107 16:34:02.581055  9729 net.cpp:113] Setting up inception_3b/relu_5x5
I0107 16:34:02.581300  9729 net.cpp:120] Top shape: 80 96 28 28 (6021120)
I0107 16:34:02.581311  9729 layer_factory.hpp:74] Creating layer inception_3b/pool
I0107 16:34:02.581317  9729 layer_factory.cpp:56] CUDNN does not support padding or multiple tops. Using Caffe's own pooling layer.
I0107 16:34:02.581324  9729 net.cpp:84] Creating Layer inception_3b/pool
I0107 16:34:02.581329  9729 net.cpp:380] inception_3b/pool <- inception_3a/output_inception_3a/output_0_split_3
I0107 16:34:02.581336  9729 net.cpp:338] inception_3b/pool -> inception_3b/pool
I0107 16:34:02.581344  9729 net.cpp:113] Setting up inception_3b/pool
I0107 16:34:02.581354  9729 net.cpp:120] Top shape: 80 256 28 28 (16056320)
I0107 16:34:02.581359  9729 layer_factory.hpp:74] Creating layer inception_3b/pool_proj
I0107 16:34:02.581367  9729 net.cpp:84] Creating Layer inception_3b/pool_proj
I0107 16:34:02.581372  9729 net.cpp:380] inception_3b/pool_proj <- inception_3b/pool
I0107 16:34:02.581378  9729 net.cpp:338] inception_3b/pool_proj -> inception_3b/pool_proj
I0107 16:34:02.581390  9729 net.cpp:113] Setting up inception_3b/pool_proj
I0107 16:34:02.581992  9729 net.cpp:120] Top shape: 80 64 28 28 (4014080)
I0107 16:34:02.582010  9729 layer_factory.hpp:74] Creating layer inception_3b/relu_pool_proj
I0107 16:34:02.582029  9729 net.cpp:84] Creating Layer inception_3b/relu_pool_proj
I0107 16:34:02.582036  9729 net.cpp:380] inception_3b/relu_pool_proj <- inception_3b/pool_proj
I0107 16:34:02.582042  9729 net.cpp:327] inception_3b/relu_pool_proj -> inception_3b/pool_proj (in-place)
I0107 16:34:02.582051  9729 net.cpp:113] Setting up inception_3b/relu_pool_proj
I0107 16:34:02.582125  9729 net.cpp:120] Top shape: 80 64 28 28 (4014080)
I0107 16:34:02.582132  9729 layer_factory.hpp:74] Creating layer inception_3b/output
I0107 16:34:02.582145  9729 net.cpp:84] Creating Layer inception_3b/output
I0107 16:34:02.582150  9729 net.cpp:380] inception_3b/output <- inception_3b/1x1
I0107 16:34:02.582156  9729 net.cpp:380] inception_3b/output <- inception_3b/3x3
I0107 16:34:02.582161  9729 net.cpp:380] inception_3b/output <- inception_3b/5x5
I0107 16:34:02.582166  9729 net.cpp:380] inception_3b/output <- inception_3b/pool_proj
I0107 16:34:02.582172  9729 net.cpp:338] inception_3b/output -> inception_3b/output
I0107 16:34:02.582180  9729 net.cpp:113] Setting up inception_3b/output
I0107 16:34:02.582187  9729 net.cpp:120] Top shape: 80 480 28 28 (30105600)
I0107 16:34:02.582192  9729 layer_factory.hpp:74] Creating layer pool3/3x3_s2
I0107 16:34:02.582200  9729 net.cpp:84] Creating Layer pool3/3x3_s2
I0107 16:34:02.582204  9729 net.cpp:380] pool3/3x3_s2 <- inception_3b/output
I0107 16:34:02.582211  9729 net.cpp:338] pool3/3x3_s2 -> pool3/3x3_s2
I0107 16:34:02.582217  9729 net.cpp:113] Setting up pool3/3x3_s2
I0107 16:34:02.582283  9729 net.cpp:120] Top shape: 80 480 14 14 (7526400)
I0107 16:34:02.582290  9729 layer_factory.hpp:74] Creating layer pool3/3x3_s2_pool3/3x3_s2_0_split
I0107 16:34:02.582295  9729 net.cpp:84] Creating Layer pool3/3x3_s2_pool3/3x3_s2_0_split
I0107 16:34:02.582300  9729 net.cpp:380] pool3/3x3_s2_pool3/3x3_s2_0_split <- pool3/3x3_s2
I0107 16:34:02.582306  9729 net.cpp:338] pool3/3x3_s2_pool3/3x3_s2_0_split -> pool3/3x3_s2_pool3/3x3_s2_0_split_0
I0107 16:34:02.582314  9729 net.cpp:338] pool3/3x3_s2_pool3/3x3_s2_0_split -> pool3/3x3_s2_pool3/3x3_s2_0_split_1
I0107 16:34:02.582320  9729 net.cpp:338] pool3/3x3_s2_pool3/3x3_s2_0_split -> pool3/3x3_s2_pool3/3x3_s2_0_split_2
I0107 16:34:02.582327  9729 net.cpp:338] pool3/3x3_s2_pool3/3x3_s2_0_split -> pool3/3x3_s2_pool3/3x3_s2_0_split_3
I0107 16:34:02.582332  9729 net.cpp:113] Setting up pool3/3x3_s2_pool3/3x3_s2_0_split
I0107 16:34:02.582340  9729 net.cpp:120] Top shape: 80 480 14 14 (7526400)
I0107 16:34:02.582345  9729 net.cpp:120] Top shape: 80 480 14 14 (7526400)
I0107 16:34:02.582350  9729 net.cpp:120] Top shape: 80 480 14 14 (7526400)
I0107 16:34:02.582355  9729 net.cpp:120] Top shape: 80 480 14 14 (7526400)
I0107 16:34:02.582360  9729 layer_factory.hpp:74] Creating layer inception_4a/1x1
I0107 16:34:02.582376  9729 net.cpp:84] Creating Layer inception_4a/1x1
I0107 16:34:02.582381  9729 net.cpp:380] inception_4a/1x1 <- pool3/3x3_s2_pool3/3x3_s2_0_split_0
I0107 16:34:02.582389  9729 net.cpp:338] inception_4a/1x1 -> inception_4a/1x1
I0107 16:34:02.582396  9729 net.cpp:113] Setting up inception_4a/1x1
I0107 16:34:02.583811  9729 net.cpp:120] Top shape: 80 192 14 14 (3010560)
I0107 16:34:02.583827  9729 layer_factory.hpp:74] Creating layer inception_4a/relu_1x1
I0107 16:34:02.583835  9729 net.cpp:84] Creating Layer inception_4a/relu_1x1
I0107 16:34:02.583840  9729 net.cpp:380] inception_4a/relu_1x1 <- inception_4a/1x1
I0107 16:34:02.583855  9729 net.cpp:327] inception_4a/relu_1x1 -> inception_4a/1x1 (in-place)
I0107 16:34:02.583863  9729 net.cpp:113] Setting up inception_4a/relu_1x1
I0107 16:34:02.584108  9729 net.cpp:120] Top shape: 80 192 14 14 (3010560)
I0107 16:34:02.584120  9729 layer_factory.hpp:74] Creating layer inception_4a/3x3_reduce
I0107 16:34:02.584130  9729 net.cpp:84] Creating Layer inception_4a/3x3_reduce
I0107 16:34:02.584139  9729 net.cpp:380] inception_4a/3x3_reduce <- pool3/3x3_s2_pool3/3x3_s2_0_split_1
I0107 16:34:02.584156  9729 net.cpp:338] inception_4a/3x3_reduce -> inception_4a/3x3_reduce
I0107 16:34:02.584166  9729 net.cpp:113] Setting up inception_4a/3x3_reduce
I0107 16:34:02.585075  9729 net.cpp:120] Top shape: 80 96 14 14 (1505280)
I0107 16:34:02.585096  9729 layer_factory.hpp:74] Creating layer inception_4a/relu_3x3_reduce
I0107 16:34:02.585106  9729 net.cpp:84] Creating Layer inception_4a/relu_3x3_reduce
I0107 16:34:02.585113  9729 net.cpp:380] inception_4a/relu_3x3_reduce <- inception_4a/3x3_reduce
I0107 16:34:02.585119  9729 net.cpp:327] inception_4a/relu_3x3_reduce -> inception_4a/3x3_reduce (in-place)
I0107 16:34:02.585126  9729 net.cpp:113] Setting up inception_4a/relu_3x3_reduce
I0107 16:34:02.585194  9729 net.cpp:120] Top shape: 80 96 14 14 (1505280)
I0107 16:34:02.585201  9729 layer_factory.hpp:74] Creating layer inception_4a/3x3
I0107 16:34:02.585209  9729 net.cpp:84] Creating Layer inception_4a/3x3
I0107 16:34:02.585214  9729 net.cpp:380] inception_4a/3x3 <- inception_4a/3x3_reduce
I0107 16:34:02.585222  9729 net.cpp:338] inception_4a/3x3 -> inception_4a/3x3
I0107 16:34:02.585228  9729 net.cpp:113] Setting up inception_4a/3x3
I0107 16:34:02.587707  9729 net.cpp:120] Top shape: 80 208 14 14 (3261440)
I0107 16:34:02.587733  9729 layer_factory.hpp:74] Creating layer inception_4a/relu_3x3
I0107 16:34:02.587750  9729 net.cpp:84] Creating Layer inception_4a/relu_3x3
I0107 16:34:02.587756  9729 net.cpp:380] inception_4a/relu_3x3 <- inception_4a/3x3
I0107 16:34:02.587764  9729 net.cpp:327] inception_4a/relu_3x3 -> inception_4a/3x3 (in-place)
I0107 16:34:02.587771  9729 net.cpp:113] Setting up inception_4a/relu_3x3
I0107 16:34:02.587846  9729 net.cpp:120] Top shape: 80 208 14 14 (3261440)
I0107 16:34:02.587853  9729 layer_factory.hpp:74] Creating layer inception_4a/5x5_reduce
I0107 16:34:02.587862  9729 net.cpp:84] Creating Layer inception_4a/5x5_reduce
I0107 16:34:02.587867  9729 net.cpp:380] inception_4a/5x5_reduce <- pool3/3x3_s2_pool3/3x3_s2_0_split_2
I0107 16:34:02.587877  9729 net.cpp:338] inception_4a/5x5_reduce -> inception_4a/5x5_reduce
I0107 16:34:02.587884  9729 net.cpp:113] Setting up inception_4a/5x5_reduce
I0107 16:34:02.588393  9729 net.cpp:120] Top shape: 80 16 14 14 (250880)
I0107 16:34:02.588408  9729 layer_factory.hpp:74] Creating layer inception_4a/relu_5x5_reduce
I0107 16:34:02.588418  9729 net.cpp:84] Creating Layer inception_4a/relu_5x5_reduce
I0107 16:34:02.588423  9729 net.cpp:380] inception_4a/relu_5x5_reduce <- inception_4a/5x5_reduce
I0107 16:34:02.588429  9729 net.cpp:327] inception_4a/relu_5x5_reduce -> inception_4a/5x5_reduce (in-place)
I0107 16:34:02.588436  9729 net.cpp:113] Setting up inception_4a/relu_5x5_reduce
I0107 16:34:02.588507  9729 net.cpp:120] Top shape: 80 16 14 14 (250880)
I0107 16:34:02.588515  9729 layer_factory.hpp:74] Creating layer inception_4a/5x5
I0107 16:34:02.588531  9729 net.cpp:84] Creating Layer inception_4a/5x5
I0107 16:34:02.588539  9729 net.cpp:380] inception_4a/5x5 <- inception_4a/5x5_reduce
I0107 16:34:02.588546  9729 net.cpp:338] inception_4a/5x5 -> inception_4a/5x5
I0107 16:34:02.588556  9729 net.cpp:113] Setting up inception_4a/5x5
I0107 16:34:02.589190  9729 net.cpp:120] Top shape: 80 48 14 14 (752640)
I0107 16:34:02.589205  9729 layer_factory.hpp:74] Creating layer inception_4a/relu_5x5
I0107 16:34:02.589211  9729 net.cpp:84] Creating Layer inception_4a/relu_5x5
I0107 16:34:02.589216  9729 net.cpp:380] inception_4a/relu_5x5 <- inception_4a/5x5
I0107 16:34:02.589226  9729 net.cpp:327] inception_4a/relu_5x5 -> inception_4a/5x5 (in-place)
I0107 16:34:02.589232  9729 net.cpp:113] Setting up inception_4a/relu_5x5
I0107 16:34:02.589486  9729 net.cpp:120] Top shape: 80 48 14 14 (752640)
I0107 16:34:02.589540  9729 layer_factory.hpp:74] Creating layer inception_4a/pool
I0107 16:34:02.589548  9729 layer_factory.cpp:56] CUDNN does not support padding or multiple tops. Using Caffe's own pooling layer.
I0107 16:34:02.589560  9729 net.cpp:84] Creating Layer inception_4a/pool
I0107 16:34:02.589572  9729 net.cpp:380] inception_4a/pool <- pool3/3x3_s2_pool3/3x3_s2_0_split_3
I0107 16:34:02.589583  9729 net.cpp:338] inception_4a/pool -> inception_4a/pool
I0107 16:34:02.589592  9729 net.cpp:113] Setting up inception_4a/pool
I0107 16:34:02.589601  9729 net.cpp:120] Top shape: 80 480 14 14 (7526400)
I0107 16:34:02.589607  9729 layer_factory.hpp:74] Creating layer inception_4a/pool_proj
I0107 16:34:02.589613  9729 net.cpp:84] Creating Layer inception_4a/pool_proj
I0107 16:34:02.589618  9729 net.cpp:380] inception_4a/pool_proj <- inception_4a/pool
I0107 16:34:02.589627  9729 net.cpp:338] inception_4a/pool_proj -> inception_4a/pool_proj
I0107 16:34:02.589634  9729 net.cpp:113] Setting up inception_4a/pool_proj
I0107 16:34:02.595536  9729 net.cpp:120] Top shape: 80 64 14 14 (1003520)
I0107 16:34:02.595559  9729 layer_factory.hpp:74] Creating layer inception_4a/relu_pool_proj
I0107 16:34:02.595580  9729 net.cpp:84] Creating Layer inception_4a/relu_pool_proj
I0107 16:34:02.595587  9729 net.cpp:380] inception_4a/relu_pool_proj <- inception_4a/pool_proj
I0107 16:34:02.595594  9729 net.cpp:327] inception_4a/relu_pool_proj -> inception_4a/pool_proj (in-place)
I0107 16:34:02.595603  9729 net.cpp:113] Setting up inception_4a/relu_pool_proj
I0107 16:34:02.595679  9729 net.cpp:120] Top shape: 80 64 14 14 (1003520)
I0107 16:34:02.595686  9729 layer_factory.hpp:74] Creating layer inception_4a/output
I0107 16:34:02.595695  9729 net.cpp:84] Creating Layer inception_4a/output
I0107 16:34:02.595700  9729 net.cpp:380] inception_4a/output <- inception_4a/1x1
I0107 16:34:02.595706  9729 net.cpp:380] inception_4a/output <- inception_4a/3x3
I0107 16:34:02.595711  9729 net.cpp:380] inception_4a/output <- inception_4a/5x5
I0107 16:34:02.595716  9729 net.cpp:380] inception_4a/output <- inception_4a/pool_proj
I0107 16:34:02.595722  9729 net.cpp:338] inception_4a/output -> inception_4a/output
I0107 16:34:02.595731  9729 net.cpp:113] Setting up inception_4a/output
I0107 16:34:02.595738  9729 net.cpp:120] Top shape: 80 512 14 14 (8028160)
I0107 16:34:02.595749  9729 layer_factory.hpp:74] Creating layer inception_4a/output_inception_4a/output_0_split
I0107 16:34:02.595762  9729 net.cpp:84] Creating Layer inception_4a/output_inception_4a/output_0_split
I0107 16:34:02.595767  9729 net.cpp:380] inception_4a/output_inception_4a/output_0_split <- inception_4a/output
I0107 16:34:02.595780  9729 net.cpp:338] inception_4a/output_inception_4a/output_0_split -> inception_4a/output_inception_4a/output_0_split_0
I0107 16:34:02.595790  9729 net.cpp:338] inception_4a/output_inception_4a/output_0_split -> inception_4a/output_inception_4a/output_0_split_1
I0107 16:34:02.595798  9729 net.cpp:338] inception_4a/output_inception_4a/output_0_split -> inception_4a/output_inception_4a/output_0_split_2
I0107 16:34:02.595804  9729 net.cpp:338] inception_4a/output_inception_4a/output_0_split -> inception_4a/output_inception_4a/output_0_split_3
I0107 16:34:02.595811  9729 net.cpp:338] inception_4a/output_inception_4a/output_0_split -> inception_4a/output_inception_4a/output_0_split_4
I0107 16:34:02.595818  9729 net.cpp:113] Setting up inception_4a/output_inception_4a/output_0_split
I0107 16:34:02.595825  9729 net.cpp:120] Top shape: 80 512 14 14 (8028160)
I0107 16:34:02.595832  9729 net.cpp:120] Top shape: 80 512 14 14 (8028160)
I0107 16:34:02.595837  9729 net.cpp:120] Top shape: 80 512 14 14 (8028160)
I0107 16:34:02.595842  9729 net.cpp:120] Top shape: 80 512 14 14 (8028160)
I0107 16:34:02.595847  9729 net.cpp:120] Top shape: 80 512 14 14 (8028160)
I0107 16:34:02.595852  9729 layer_factory.hpp:74] Creating layer loss1/ave_pool
I0107 16:34:02.595859  9729 net.cpp:84] Creating Layer loss1/ave_pool
I0107 16:34:02.595863  9729 net.cpp:380] loss1/ave_pool <- inception_4a/output_inception_4a/output_0_split_0
I0107 16:34:02.595870  9729 net.cpp:338] loss1/ave_pool -> loss1/ave_pool
I0107 16:34:02.595876  9729 net.cpp:113] Setting up loss1/ave_pool
I0107 16:34:02.595950  9729 net.cpp:120] Top shape: 80 512 4 4 (655360)
I0107 16:34:02.595963  9729 layer_factory.hpp:74] Creating layer loss1/conv
I0107 16:34:02.595985  9729 net.cpp:84] Creating Layer loss1/conv
I0107 16:34:02.595991  9729 net.cpp:380] loss1/conv <- loss1/ave_pool
I0107 16:34:02.596002  9729 net.cpp:338] loss1/conv -> loss1/conv
I0107 16:34:02.596011  9729 net.cpp:113] Setting up loss1/conv
I0107 16:34:02.597188  9729 net.cpp:120] Top shape: 80 128 4 4 (163840)
I0107 16:34:02.597205  9729 layer_factory.hpp:74] Creating layer loss1/relu_conv
I0107 16:34:02.597213  9729 net.cpp:84] Creating Layer loss1/relu_conv
I0107 16:34:02.597218  9729 net.cpp:380] loss1/relu_conv <- loss1/conv
I0107 16:34:02.597225  9729 net.cpp:327] loss1/relu_conv -> loss1/conv (in-place)
I0107 16:34:02.597232  9729 net.cpp:113] Setting up loss1/relu_conv
I0107 16:34:02.597304  9729 net.cpp:120] Top shape: 80 128 4 4 (163840)
I0107 16:34:02.597311  9729 layer_factory.hpp:74] Creating layer loss1/fc
I0107 16:34:02.597317  9729 net.cpp:84] Creating Layer loss1/fc
I0107 16:34:02.597322  9729 net.cpp:380] loss1/fc <- loss1/conv
I0107 16:34:02.597329  9729 net.cpp:338] loss1/fc -> loss1/fc
I0107 16:34:02.597339  9729 net.cpp:113] Setting up loss1/fc
I0107 16:34:02.619865  9729 net.cpp:120] Top shape: 80 1024 (81920)
I0107 16:34:02.619891  9729 layer_factory.hpp:74] Creating layer loss1/relu_fc
I0107 16:34:02.619902  9729 net.cpp:84] Creating Layer loss1/relu_fc
I0107 16:34:02.619909  9729 net.cpp:380] loss1/relu_fc <- loss1/fc
I0107 16:34:02.619915  9729 net.cpp:327] loss1/relu_fc -> loss1/fc (in-place)
I0107 16:34:02.619922  9729 net.cpp:113] Setting up loss1/relu_fc
I0107 16:34:02.620200  9729 net.cpp:120] Top shape: 80 1024 (81920)
I0107 16:34:02.620213  9729 layer_factory.hpp:74] Creating layer loss1/drop_fc
I0107 16:34:02.620236  9729 net.cpp:84] Creating Layer loss1/drop_fc
I0107 16:34:02.620244  9729 net.cpp:380] loss1/drop_fc <- loss1/fc
I0107 16:34:02.620252  9729 net.cpp:327] loss1/drop_fc -> loss1/fc (in-place)
I0107 16:34:02.620261  9729 net.cpp:113] Setting up loss1/drop_fc
I0107 16:34:02.620271  9729 net.cpp:120] Top shape: 80 1024 (81920)
I0107 16:34:02.620276  9729 layer_factory.hpp:74] Creating layer loss1/classifier_kaggle
I0107 16:34:02.620283  9729 net.cpp:84] Creating Layer loss1/classifier_kaggle
I0107 16:34:02.620288  9729 net.cpp:380] loss1/classifier_kaggle <- loss1/fc
I0107 16:34:02.620295  9729 net.cpp:338] loss1/classifier_kaggle -> loss1/classifier_kaggle
I0107 16:34:02.620302  9729 net.cpp:113] Setting up loss1/classifier_kaggle
I0107 16:34:02.625638  9729 net.cpp:120] Top shape: 80 447 (35760)
I0107 16:34:02.625653  9729 layer_factory.hpp:74] Creating layer loss1/loss
I0107 16:34:02.625663  9729 net.cpp:84] Creating Layer loss1/loss
I0107 16:34:02.625669  9729 net.cpp:380] loss1/loss <- loss1/classifier_kaggle
I0107 16:34:02.625675  9729 net.cpp:380] loss1/loss <- label_data_1_split_0
I0107 16:34:02.625681  9729 net.cpp:338] loss1/loss -> loss1/loss1
I0107 16:34:02.625689  9729 net.cpp:113] Setting up loss1/loss
I0107 16:34:02.625697  9729 layer_factory.hpp:74] Creating layer loss1/loss
I0107 16:34:02.625874  9729 net.cpp:120] Top shape: (1)
I0107 16:34:02.625882  9729 net.cpp:122]     with loss weight 0.3
I0107 16:34:02.625910  9729 layer_factory.hpp:74] Creating layer inception_4b/1x1
I0107 16:34:02.625932  9729 net.cpp:84] Creating Layer inception_4b/1x1
I0107 16:34:02.625938  9729 net.cpp:380] inception_4b/1x1 <- inception_4a/output_inception_4a/output_0_split_1
I0107 16:34:02.625946  9729 net.cpp:338] inception_4b/1x1 -> inception_4b/1x1
I0107 16:34:02.625954  9729 net.cpp:113] Setting up inception_4b/1x1
I0107 16:34:02.627351  9729 net.cpp:120] Top shape: 80 160 14 14 (2508800)
I0107 16:34:02.627367  9729 layer_factory.hpp:74] Creating layer inception_4b/relu_1x1
I0107 16:34:02.627391  9729 net.cpp:84] Creating Layer inception_4b/relu_1x1
I0107 16:34:02.627398  9729 net.cpp:380] inception_4b/relu_1x1 <- inception_4b/1x1
I0107 16:34:02.627405  9729 net.cpp:327] inception_4b/relu_1x1 -> inception_4b/1x1 (in-place)
I0107 16:34:02.627413  9729 net.cpp:113] Setting up inception_4b/relu_1x1
I0107 16:34:02.627492  9729 net.cpp:120] Top shape: 80 160 14 14 (2508800)
I0107 16:34:02.627507  9729 layer_factory.hpp:74] Creating layer inception_4b/3x3_reduce
I0107 16:34:02.627517  9729 net.cpp:84] Creating Layer inception_4b/3x3_reduce
I0107 16:34:02.627522  9729 net.cpp:380] inception_4b/3x3_reduce <- inception_4a/output_inception_4a/output_0_split_2
I0107 16:34:02.627532  9729 net.cpp:338] inception_4b/3x3_reduce -> inception_4b/3x3_reduce
I0107 16:34:02.627540  9729 net.cpp:113] Setting up inception_4b/3x3_reduce
I0107 16:34:02.628644  9729 net.cpp:120] Top shape: 80 112 14 14 (1756160)
I0107 16:34:02.628661  9729 layer_factory.hpp:74] Creating layer inception_4b/relu_3x3_reduce
I0107 16:34:02.628669  9729 net.cpp:84] Creating Layer inception_4b/relu_3x3_reduce
I0107 16:34:02.628675  9729 net.cpp:380] inception_4b/relu_3x3_reduce <- inception_4b/3x3_reduce
I0107 16:34:02.628682  9729 net.cpp:327] inception_4b/relu_3x3_reduce -> inception_4b/3x3_reduce (in-place)
I0107 16:34:02.628690  9729 net.cpp:113] Setting up inception_4b/relu_3x3_reduce
I0107 16:34:02.628761  9729 net.cpp:120] Top shape: 80 112 14 14 (1756160)
I0107 16:34:02.628767  9729 layer_factory.hpp:74] Creating layer inception_4b/3x3
I0107 16:34:02.628783  9729 net.cpp:84] Creating Layer inception_4b/3x3
I0107 16:34:02.628788  9729 net.cpp:380] inception_4b/3x3 <- inception_4b/3x3_reduce
I0107 16:34:02.628798  9729 net.cpp:338] inception_4b/3x3 -> inception_4b/3x3
I0107 16:34:02.628805  9729 net.cpp:113] Setting up inception_4b/3x3
I0107 16:34:02.631829  9729 net.cpp:120] Top shape: 80 224 14 14 (3512320)
I0107 16:34:02.631846  9729 layer_factory.hpp:74] Creating layer inception_4b/relu_3x3
I0107 16:34:02.631865  9729 net.cpp:84] Creating Layer inception_4b/relu_3x3
I0107 16:34:02.631870  9729 net.cpp:380] inception_4b/relu_3x3 <- inception_4b/3x3
I0107 16:34:02.631877  9729 net.cpp:327] inception_4b/relu_3x3 -> inception_4b/3x3 (in-place)
I0107 16:34:02.631886  9729 net.cpp:113] Setting up inception_4b/relu_3x3
I0107 16:34:02.632139  9729 net.cpp:120] Top shape: 80 224 14 14 (3512320)
I0107 16:34:02.632151  9729 layer_factory.hpp:74] Creating layer inception_4b/5x5_reduce
I0107 16:34:02.632161  9729 net.cpp:84] Creating Layer inception_4b/5x5_reduce
I0107 16:34:02.632167  9729 net.cpp:380] inception_4b/5x5_reduce <- inception_4a/output_inception_4a/output_0_split_3
I0107 16:34:02.632175  9729 net.cpp:338] inception_4b/5x5_reduce -> inception_4b/5x5_reduce
I0107 16:34:02.632184  9729 net.cpp:113] Setting up inception_4b/5x5_reduce
I0107 16:34:02.632757  9729 net.cpp:120] Top shape: 80 24 14 14 (376320)
I0107 16:34:02.632773  9729 layer_factory.hpp:74] Creating layer inception_4b/relu_5x5_reduce
I0107 16:34:02.632782  9729 net.cpp:84] Creating Layer inception_4b/relu_5x5_reduce
I0107 16:34:02.632787  9729 net.cpp:380] inception_4b/relu_5x5_reduce <- inception_4b/5x5_reduce
I0107 16:34:02.632794  9729 net.cpp:327] inception_4b/relu_5x5_reduce -> inception_4b/5x5_reduce (in-place)
I0107 16:34:02.632802  9729 net.cpp:113] Setting up inception_4b/relu_5x5_reduce
I0107 16:34:02.632876  9729 net.cpp:120] Top shape: 80 24 14 14 (376320)
I0107 16:34:02.632882  9729 layer_factory.hpp:74] Creating layer inception_4b/5x5
I0107 16:34:02.632906  9729 net.cpp:84] Creating Layer inception_4b/5x5
I0107 16:34:02.632912  9729 net.cpp:380] inception_4b/5x5 <- inception_4b/5x5_reduce
I0107 16:34:02.632921  9729 net.cpp:338] inception_4b/5x5 -> inception_4b/5x5
I0107 16:34:02.632930  9729 net.cpp:113] Setting up inception_4b/5x5
I0107 16:34:02.633803  9729 net.cpp:120] Top shape: 80 64 14 14 (1003520)
I0107 16:34:02.633819  9729 layer_factory.hpp:74] Creating layer inception_4b/relu_5x5
I0107 16:34:02.633838  9729 net.cpp:84] Creating Layer inception_4b/relu_5x5
I0107 16:34:02.633844  9729 net.cpp:380] inception_4b/relu_5x5 <- inception_4b/5x5
I0107 16:34:02.633853  9729 net.cpp:327] inception_4b/relu_5x5 -> inception_4b/5x5 (in-place)
I0107 16:34:02.633862  9729 net.cpp:113] Setting up inception_4b/relu_5x5
I0107 16:34:02.633932  9729 net.cpp:120] Top shape: 80 64 14 14 (1003520)
I0107 16:34:02.633945  9729 layer_factory.hpp:74] Creating layer inception_4b/pool
I0107 16:34:02.633958  9729 layer_factory.cpp:56] CUDNN does not support padding or multiple tops. Using Caffe's own pooling layer.
I0107 16:34:02.633965  9729 net.cpp:84] Creating Layer inception_4b/pool
I0107 16:34:02.633970  9729 net.cpp:380] inception_4b/pool <- inception_4a/output_inception_4a/output_0_split_4
I0107 16:34:02.633978  9729 net.cpp:338] inception_4b/pool -> inception_4b/pool
I0107 16:34:02.633993  9729 net.cpp:113] Setting up inception_4b/pool
I0107 16:34:02.634006  9729 net.cpp:120] Top shape: 80 512 14 14 (8028160)
I0107 16:34:02.634011  9729 layer_factory.hpp:74] Creating layer inception_4b/pool_proj
I0107 16:34:02.634018  9729 net.cpp:84] Creating Layer inception_4b/pool_proj
I0107 16:34:02.634023  9729 net.cpp:380] inception_4b/pool_proj <- inception_4b/pool
I0107 16:34:02.634032  9729 net.cpp:338] inception_4b/pool_proj -> inception_4b/pool_proj
I0107 16:34:02.634043  9729 net.cpp:113] Setting up inception_4b/pool_proj
I0107 16:34:02.634848  9729 net.cpp:120] Top shape: 80 64 14 14 (1003520)
I0107 16:34:02.634865  9729 layer_factory.hpp:74] Creating layer inception_4b/relu_pool_proj
I0107 16:34:02.634882  9729 net.cpp:84] Creating Layer inception_4b/relu_pool_proj
I0107 16:34:02.634888  9729 net.cpp:380] inception_4b/relu_pool_proj <- inception_4b/pool_proj
I0107 16:34:02.634896  9729 net.cpp:327] inception_4b/relu_pool_proj -> inception_4b/pool_proj (in-place)
I0107 16:34:02.634903  9729 net.cpp:113] Setting up inception_4b/relu_pool_proj
I0107 16:34:02.635157  9729 net.cpp:120] Top shape: 80 64 14 14 (1003520)
I0107 16:34:02.635169  9729 layer_factory.hpp:74] Creating layer inception_4b/output
I0107 16:34:02.635179  9729 net.cpp:84] Creating Layer inception_4b/output
I0107 16:34:02.635184  9729 net.cpp:380] inception_4b/output <- inception_4b/1x1
I0107 16:34:02.635190  9729 net.cpp:380] inception_4b/output <- inception_4b/3x3
I0107 16:34:02.635195  9729 net.cpp:380] inception_4b/output <- inception_4b/5x5
I0107 16:34:02.635200  9729 net.cpp:380] inception_4b/output <- inception_4b/pool_proj
I0107 16:34:02.635206  9729 net.cpp:338] inception_4b/output -> inception_4b/output
I0107 16:34:02.635216  9729 net.cpp:113] Setting up inception_4b/output
I0107 16:34:02.635224  9729 net.cpp:120] Top shape: 80 512 14 14 (8028160)
I0107 16:34:02.635236  9729 layer_factory.hpp:74] Creating layer inception_4b/output_inception_4b/output_0_split
I0107 16:34:02.635244  9729 net.cpp:84] Creating Layer inception_4b/output_inception_4b/output_0_split
I0107 16:34:02.635249  9729 net.cpp:380] inception_4b/output_inception_4b/output_0_split <- inception_4b/output
I0107 16:34:02.635262  9729 net.cpp:338] inception_4b/output_inception_4b/output_0_split -> inception_4b/output_inception_4b/output_0_split_0
I0107 16:34:02.635270  9729 net.cpp:338] inception_4b/output_inception_4b/output_0_split -> inception_4b/output_inception_4b/output_0_split_1
I0107 16:34:02.635277  9729 net.cpp:338] inception_4b/output_inception_4b/output_0_split -> inception_4b/output_inception_4b/output_0_split_2
I0107 16:34:02.635284  9729 net.cpp:338] inception_4b/output_inception_4b/output_0_split -> inception_4b/output_inception_4b/output_0_split_3
I0107 16:34:02.635290  9729 net.cpp:113] Setting up inception_4b/output_inception_4b/output_0_split
I0107 16:34:02.635298  9729 net.cpp:120] Top shape: 80 512 14 14 (8028160)
I0107 16:34:02.635303  9729 net.cpp:120] Top shape: 80 512 14 14 (8028160)
I0107 16:34:02.635308  9729 net.cpp:120] Top shape: 80 512 14 14 (8028160)
I0107 16:34:02.635313  9729 net.cpp:120] Top shape: 80 512 14 14 (8028160)
I0107 16:34:02.635316  9729 layer_factory.hpp:74] Creating layer inception_4c/1x1
I0107 16:34:02.635325  9729 net.cpp:84] Creating Layer inception_4c/1x1
I0107 16:34:02.635330  9729 net.cpp:380] inception_4c/1x1 <- inception_4b/output_inception_4b/output_0_split_0
I0107 16:34:02.635339  9729 net.cpp:338] inception_4c/1x1 -> inception_4c/1x1
I0107 16:34:02.635346  9729 net.cpp:113] Setting up inception_4c/1x1
I0107 16:34:02.636523  9729 net.cpp:120] Top shape: 80 128 14 14 (2007040)
I0107 16:34:02.636548  9729 layer_factory.hpp:74] Creating layer inception_4c/relu_1x1
I0107 16:34:02.636564  9729 net.cpp:84] Creating Layer inception_4c/relu_1x1
I0107 16:34:02.636570  9729 net.cpp:380] inception_4c/relu_1x1 <- inception_4c/1x1
I0107 16:34:02.636579  9729 net.cpp:327] inception_4c/relu_1x1 -> inception_4c/1x1 (in-place)
I0107 16:34:02.636590  9729 net.cpp:113] Setting up inception_4c/relu_1x1
I0107 16:34:02.636662  9729 net.cpp:120] Top shape: 80 128 14 14 (2007040)
I0107 16:34:02.636669  9729 layer_factory.hpp:74] Creating layer inception_4c/3x3_reduce
I0107 16:34:02.636678  9729 net.cpp:84] Creating Layer inception_4c/3x3_reduce
I0107 16:34:02.636684  9729 net.cpp:380] inception_4c/3x3_reduce <- inception_4b/output_inception_4b/output_0_split_1
I0107 16:34:02.636692  9729 net.cpp:338] inception_4c/3x3_reduce -> inception_4c/3x3_reduce
I0107 16:34:02.636699  9729 net.cpp:113] Setting up inception_4c/3x3_reduce
I0107 16:34:02.644955  9729 net.cpp:120] Top shape: 80 128 14 14 (2007040)
I0107 16:34:02.644986  9729 layer_factory.hpp:74] Creating layer inception_4c/relu_3x3_reduce
I0107 16:34:02.644996  9729 net.cpp:84] Creating Layer inception_4c/relu_3x3_reduce
I0107 16:34:02.645004  9729 net.cpp:380] inception_4c/relu_3x3_reduce <- inception_4c/3x3_reduce
I0107 16:34:02.645012  9729 net.cpp:327] inception_4c/relu_3x3_reduce -> inception_4c/3x3_reduce (in-place)
I0107 16:34:02.645021  9729 net.cpp:113] Setting up inception_4c/relu_3x3_reduce
I0107 16:34:02.645094  9729 net.cpp:120] Top shape: 80 128 14 14 (2007040)
I0107 16:34:02.645102  9729 layer_factory.hpp:74] Creating layer inception_4c/3x3
I0107 16:34:02.645119  9729 net.cpp:84] Creating Layer inception_4c/3x3
I0107 16:34:02.645125  9729 net.cpp:380] inception_4c/3x3 <- inception_4c/3x3_reduce
I0107 16:34:02.645133  9729 net.cpp:338] inception_4c/3x3 -> inception_4c/3x3
I0107 16:34:02.645141  9729 net.cpp:113] Setting up inception_4c/3x3
I0107 16:34:02.648983  9729 net.cpp:120] Top shape: 80 256 14 14 (4014080)
I0107 16:34:02.649011  9729 layer_factory.hpp:74] Creating layer inception_4c/relu_3x3
I0107 16:34:02.649021  9729 net.cpp:84] Creating Layer inception_4c/relu_3x3
I0107 16:34:02.649027  9729 net.cpp:380] inception_4c/relu_3x3 <- inception_4c/3x3
I0107 16:34:02.649034  9729 net.cpp:327] inception_4c/relu_3x3 -> inception_4c/3x3 (in-place)
I0107 16:34:02.649042  9729 net.cpp:113] Setting up inception_4c/relu_3x3
I0107 16:34:02.649116  9729 net.cpp:120] Top shape: 80 256 14 14 (4014080)
I0107 16:34:02.649122  9729 layer_factory.hpp:74] Creating layer inception_4c/5x5_reduce
I0107 16:34:02.649130  9729 net.cpp:84] Creating Layer inception_4c/5x5_reduce
I0107 16:34:02.649137  9729 net.cpp:380] inception_4c/5x5_reduce <- inception_4b/output_inception_4b/output_0_split_2
I0107 16:34:02.649157  9729 net.cpp:338] inception_4c/5x5_reduce -> inception_4c/5x5_reduce
I0107 16:34:02.649168  9729 net.cpp:113] Setting up inception_4c/5x5_reduce
I0107 16:34:02.649760  9729 net.cpp:120] Top shape: 80 24 14 14 (376320)
I0107 16:34:02.649777  9729 layer_factory.hpp:74] Creating layer inception_4c/relu_5x5_reduce
I0107 16:34:02.649801  9729 net.cpp:84] Creating Layer inception_4c/relu_5x5_reduce
I0107 16:34:02.649808  9729 net.cpp:380] inception_4c/relu_5x5_reduce <- inception_4c/5x5_reduce
I0107 16:34:02.649816  9729 net.cpp:327] inception_4c/relu_5x5_reduce -> inception_4c/5x5_reduce (in-place)
I0107 16:34:02.649827  9729 net.cpp:113] Setting up inception_4c/relu_5x5_reduce
I0107 16:34:02.650084  9729 net.cpp:120] Top shape: 80 24 14 14 (376320)
I0107 16:34:02.650096  9729 layer_factory.hpp:74] Creating layer inception_4c/5x5
I0107 16:34:02.650106  9729 net.cpp:84] Creating Layer inception_4c/5x5
I0107 16:34:02.650111  9729 net.cpp:380] inception_4c/5x5 <- inception_4c/5x5_reduce
I0107 16:34:02.650137  9729 net.cpp:338] inception_4c/5x5 -> inception_4c/5x5
I0107 16:34:02.650147  9729 net.cpp:113] Setting up inception_4c/5x5
I0107 16:34:02.651017  9729 net.cpp:120] Top shape: 80 64 14 14 (1003520)
I0107 16:34:02.651038  9729 layer_factory.hpp:74] Creating layer inception_4c/relu_5x5
I0107 16:34:02.651054  9729 net.cpp:84] Creating Layer inception_4c/relu_5x5
I0107 16:34:02.651060  9729 net.cpp:380] inception_4c/relu_5x5 <- inception_4c/5x5
I0107 16:34:02.651067  9729 net.cpp:327] inception_4c/relu_5x5 -> inception_4c/5x5 (in-place)
I0107 16:34:02.651075  9729 net.cpp:113] Setting up inception_4c/relu_5x5
I0107 16:34:02.651149  9729 net.cpp:120] Top shape: 80 64 14 14 (1003520)
I0107 16:34:02.651156  9729 layer_factory.hpp:74] Creating layer inception_4c/pool
I0107 16:34:02.651161  9729 layer_factory.cpp:56] CUDNN does not support padding or multiple tops. Using Caffe's own pooling layer.
I0107 16:34:02.651167  9729 net.cpp:84] Creating Layer inception_4c/pool
I0107 16:34:02.651172  9729 net.cpp:380] inception_4c/pool <- inception_4b/output_inception_4b/output_0_split_3
I0107 16:34:02.651181  9729 net.cpp:338] inception_4c/pool -> inception_4c/pool
I0107 16:34:02.651190  9729 net.cpp:113] Setting up inception_4c/pool
I0107 16:34:02.651197  9729 net.cpp:120] Top shape: 80 512 14 14 (8028160)
I0107 16:34:02.651202  9729 layer_factory.hpp:74] Creating layer inception_4c/pool_proj
I0107 16:34:02.651221  9729 net.cpp:84] Creating Layer inception_4c/pool_proj
I0107 16:34:02.651227  9729 net.cpp:380] inception_4c/pool_proj <- inception_4c/pool
I0107 16:34:02.651237  9729 net.cpp:338] inception_4c/pool_proj -> inception_4c/pool_proj
I0107 16:34:02.651244  9729 net.cpp:113] Setting up inception_4c/pool_proj
I0107 16:34:02.652045  9729 net.cpp:120] Top shape: 80 64 14 14 (1003520)
I0107 16:34:02.652071  9729 layer_factory.hpp:74] Creating layer inception_4c/relu_pool_proj
I0107 16:34:02.652079  9729 net.cpp:84] Creating Layer inception_4c/relu_pool_proj
I0107 16:34:02.652086  9729 net.cpp:380] inception_4c/relu_pool_proj <- inception_4c/pool_proj
I0107 16:34:02.652094  9729 net.cpp:327] inception_4c/relu_pool_proj -> inception_4c/pool_proj (in-place)
I0107 16:34:02.652102  9729 net.cpp:113] Setting up inception_4c/relu_pool_proj
I0107 16:34:02.652175  9729 net.cpp:120] Top shape: 80 64 14 14 (1003520)
I0107 16:34:02.652181  9729 layer_factory.hpp:74] Creating layer inception_4c/output
I0107 16:34:02.652189  9729 net.cpp:84] Creating Layer inception_4c/output
I0107 16:34:02.652194  9729 net.cpp:380] inception_4c/output <- inception_4c/1x1
I0107 16:34:02.652199  9729 net.cpp:380] inception_4c/output <- inception_4c/3x3
I0107 16:34:02.652204  9729 net.cpp:380] inception_4c/output <- inception_4c/5x5
I0107 16:34:02.652210  9729 net.cpp:380] inception_4c/output <- inception_4c/pool_proj
I0107 16:34:02.652216  9729 net.cpp:338] inception_4c/output -> inception_4c/output
I0107 16:34:02.652223  9729 net.cpp:113] Setting up inception_4c/output
I0107 16:34:02.652230  9729 net.cpp:120] Top shape: 80 512 14 14 (8028160)
I0107 16:34:02.652235  9729 layer_factory.hpp:74] Creating layer inception_4c/output_inception_4c/output_0_split
I0107 16:34:02.652242  9729 net.cpp:84] Creating Layer inception_4c/output_inception_4c/output_0_split
I0107 16:34:02.652246  9729 net.cpp:380] inception_4c/output_inception_4c/output_0_split <- inception_4c/output
I0107 16:34:02.652254  9729 net.cpp:338] inception_4c/output_inception_4c/output_0_split -> inception_4c/output_inception_4c/output_0_split_0
I0107 16:34:02.652262  9729 net.cpp:338] inception_4c/output_inception_4c/output_0_split -> inception_4c/output_inception_4c/output_0_split_1
I0107 16:34:02.652269  9729 net.cpp:338] inception_4c/output_inception_4c/output_0_split -> inception_4c/output_inception_4c/output_0_split_2
I0107 16:34:02.652276  9729 net.cpp:338] inception_4c/output_inception_4c/output_0_split -> inception_4c/output_inception_4c/output_0_split_3
I0107 16:34:02.652283  9729 net.cpp:113] Setting up inception_4c/output_inception_4c/output_0_split
I0107 16:34:02.652292  9729 net.cpp:120] Top shape: 80 512 14 14 (8028160)
I0107 16:34:02.652297  9729 net.cpp:120] Top shape: 80 512 14 14 (8028160)
I0107 16:34:02.652302  9729 net.cpp:120] Top shape: 80 512 14 14 (8028160)
I0107 16:34:02.652312  9729 net.cpp:120] Top shape: 80 512 14 14 (8028160)
I0107 16:34:02.652323  9729 layer_factory.hpp:74] Creating layer inception_4d/1x1
I0107 16:34:02.652338  9729 net.cpp:84] Creating Layer inception_4d/1x1
I0107 16:34:02.652344  9729 net.cpp:380] inception_4d/1x1 <- inception_4c/output_inception_4c/output_0_split_0
I0107 16:34:02.652354  9729 net.cpp:338] inception_4d/1x1 -> inception_4d/1x1
I0107 16:34:02.652361  9729 net.cpp:113] Setting up inception_4d/1x1
I0107 16:34:02.653446  9729 net.cpp:120] Top shape: 80 112 14 14 (1756160)
I0107 16:34:02.653476  9729 layer_factory.hpp:74] Creating layer inception_4d/relu_1x1
I0107 16:34:02.653496  9729 net.cpp:84] Creating Layer inception_4d/relu_1x1
I0107 16:34:02.653503  9729 net.cpp:380] inception_4d/relu_1x1 <- inception_4d/1x1
I0107 16:34:02.653511  9729 net.cpp:327] inception_4d/relu_1x1 -> inception_4d/1x1 (in-place)
I0107 16:34:02.653517  9729 net.cpp:113] Setting up inception_4d/relu_1x1
I0107 16:34:02.653592  9729 net.cpp:120] Top shape: 80 112 14 14 (1756160)
I0107 16:34:02.653599  9729 layer_factory.hpp:74] Creating layer inception_4d/3x3_reduce
I0107 16:34:02.653606  9729 net.cpp:84] Creating Layer inception_4d/3x3_reduce
I0107 16:34:02.653611  9729 net.cpp:380] inception_4d/3x3_reduce <- inception_4c/output_inception_4c/output_0_split_1
I0107 16:34:02.653620  9729 net.cpp:338] inception_4d/3x3_reduce -> inception_4d/3x3_reduce
I0107 16:34:02.653630  9729 net.cpp:113] Setting up inception_4d/3x3_reduce
I0107 16:34:02.654903  9729 net.cpp:120] Top shape: 80 144 14 14 (2257920)
I0107 16:34:02.654918  9729 layer_factory.hpp:74] Creating layer inception_4d/relu_3x3_reduce
I0107 16:34:02.654927  9729 net.cpp:84] Creating Layer inception_4d/relu_3x3_reduce
I0107 16:34:02.654932  9729 net.cpp:380] inception_4d/relu_3x3_reduce <- inception_4d/3x3_reduce
I0107 16:34:02.654939  9729 net.cpp:327] inception_4d/relu_3x3_reduce -> inception_4d/3x3_reduce (in-place)
I0107 16:34:02.654947  9729 net.cpp:113] Setting up inception_4d/relu_3x3_reduce
I0107 16:34:02.655202  9729 net.cpp:120] Top shape: 80 144 14 14 (2257920)
I0107 16:34:02.655213  9729 layer_factory.hpp:74] Creating layer inception_4d/3x3
I0107 16:34:02.655230  9729 net.cpp:84] Creating Layer inception_4d/3x3
I0107 16:34:02.655236  9729 net.cpp:380] inception_4d/3x3 <- inception_4d/3x3_reduce
I0107 16:34:02.655246  9729 net.cpp:338] inception_4d/3x3 -> inception_4d/3x3
I0107 16:34:02.655256  9729 net.cpp:113] Setting up inception_4d/3x3
I0107 16:34:02.659979  9729 net.cpp:120] Top shape: 80 288 14 14 (4515840)
I0107 16:34:02.659996  9729 layer_factory.hpp:74] Creating layer inception_4d/relu_3x3
I0107 16:34:02.660006  9729 net.cpp:84] Creating Layer inception_4d/relu_3x3
I0107 16:34:02.660012  9729 net.cpp:380] inception_4d/relu_3x3 <- inception_4d/3x3
I0107 16:34:02.660018  9729 net.cpp:327] inception_4d/relu_3x3 -> inception_4d/3x3 (in-place)
I0107 16:34:02.660027  9729 net.cpp:113] Setting up inception_4d/relu_3x3
I0107 16:34:02.660094  9729 net.cpp:120] Top shape: 80 288 14 14 (4515840)
I0107 16:34:02.660110  9729 layer_factory.hpp:74] Creating layer inception_4d/5x5_reduce
I0107 16:34:02.660121  9729 net.cpp:84] Creating Layer inception_4d/5x5_reduce
I0107 16:34:02.660126  9729 net.cpp:380] inception_4d/5x5_reduce <- inception_4c/output_inception_4c/output_0_split_2
I0107 16:34:02.660135  9729 net.cpp:338] inception_4d/5x5_reduce -> inception_4d/5x5_reduce
I0107 16:34:02.660142  9729 net.cpp:113] Setting up inception_4d/5x5_reduce
I0107 16:34:02.660758  9729 net.cpp:120] Top shape: 80 32 14 14 (501760)
I0107 16:34:02.660774  9729 layer_factory.hpp:74] Creating layer inception_4d/relu_5x5_reduce
I0107 16:34:02.660792  9729 net.cpp:84] Creating Layer inception_4d/relu_5x5_reduce
I0107 16:34:02.660799  9729 net.cpp:380] inception_4d/relu_5x5_reduce <- inception_4d/5x5_reduce
I0107 16:34:02.660805  9729 net.cpp:327] inception_4d/relu_5x5_reduce -> inception_4d/5x5_reduce (in-place)
I0107 16:34:02.660814  9729 net.cpp:113] Setting up inception_4d/relu_5x5_reduce
I0107 16:34:02.660883  9729 net.cpp:120] Top shape: 80 32 14 14 (501760)
I0107 16:34:02.660902  9729 layer_factory.hpp:74] Creating layer inception_4d/5x5
I0107 16:34:02.660913  9729 net.cpp:84] Creating Layer inception_4d/5x5
I0107 16:34:02.660918  9729 net.cpp:380] inception_4d/5x5 <- inception_4d/5x5_reduce
I0107 16:34:02.660926  9729 net.cpp:338] inception_4d/5x5 -> inception_4d/5x5
I0107 16:34:02.660934  9729 net.cpp:113] Setting up inception_4d/5x5
I0107 16:34:02.661957  9729 net.cpp:120] Top shape: 80 64 14 14 (1003520)
I0107 16:34:02.661973  9729 layer_factory.hpp:74] Creating layer inception_4d/relu_5x5
I0107 16:34:02.661985  9729 net.cpp:84] Creating Layer inception_4d/relu_5x5
I0107 16:34:02.661991  9729 net.cpp:380] inception_4d/relu_5x5 <- inception_4d/5x5
I0107 16:34:02.661998  9729 net.cpp:327] inception_4d/relu_5x5 -> inception_4d/5x5 (in-place)
I0107 16:34:02.662005  9729 net.cpp:113] Setting up inception_4d/relu_5x5
I0107 16:34:02.662076  9729 net.cpp:120] Top shape: 80 64 14 14 (1003520)
I0107 16:34:02.662082  9729 layer_factory.hpp:74] Creating layer inception_4d/pool
I0107 16:34:02.662097  9729 layer_factory.cpp:56] CUDNN does not support padding or multiple tops. Using Caffe's own pooling layer.
I0107 16:34:02.662106  9729 net.cpp:84] Creating Layer inception_4d/pool
I0107 16:34:02.662111  9729 net.cpp:380] inception_4d/pool <- inception_4c/output_inception_4c/output_0_split_3
I0107 16:34:02.662118  9729 net.cpp:338] inception_4d/pool -> inception_4d/pool
I0107 16:34:02.662127  9729 net.cpp:113] Setting up inception_4d/pool
I0107 16:34:02.662137  9729 net.cpp:120] Top shape: 80 512 14 14 (8028160)
I0107 16:34:02.662142  9729 layer_factory.hpp:74] Creating layer inception_4d/pool_proj
I0107 16:34:02.662155  9729 net.cpp:84] Creating Layer inception_4d/pool_proj
I0107 16:34:02.662160  9729 net.cpp:380] inception_4d/pool_proj <- inception_4d/pool
I0107 16:34:02.662169  9729 net.cpp:338] inception_4d/pool_proj -> inception_4d/pool_proj
I0107 16:34:02.662178  9729 net.cpp:113] Setting up inception_4d/pool_proj
I0107 16:34:02.662978  9729 net.cpp:120] Top shape: 80 64 14 14 (1003520)
I0107 16:34:02.662994  9729 layer_factory.hpp:74] Creating layer inception_4d/relu_pool_proj
I0107 16:34:02.663003  9729 net.cpp:84] Creating Layer inception_4d/relu_pool_proj
I0107 16:34:02.663009  9729 net.cpp:380] inception_4d/relu_pool_proj <- inception_4d/pool_proj
I0107 16:34:02.663017  9729 net.cpp:327] inception_4d/relu_pool_proj -> inception_4d/pool_proj (in-place)
I0107 16:34:02.663023  9729 net.cpp:113] Setting up inception_4d/relu_pool_proj
I0107 16:34:02.663275  9729 net.cpp:120] Top shape: 80 64 14 14 (1003520)
I0107 16:34:02.663285  9729 layer_factory.hpp:74] Creating layer inception_4d/output
I0107 16:34:02.663292  9729 net.cpp:84] Creating Layer inception_4d/output
I0107 16:34:02.663297  9729 net.cpp:380] inception_4d/output <- inception_4d/1x1
I0107 16:34:02.663305  9729 net.cpp:380] inception_4d/output <- inception_4d/3x3
I0107 16:34:02.663310  9729 net.cpp:380] inception_4d/output <- inception_4d/5x5
I0107 16:34:02.663314  9729 net.cpp:380] inception_4d/output <- inception_4d/pool_proj
I0107 16:34:02.663322  9729 net.cpp:338] inception_4d/output -> inception_4d/output
I0107 16:34:02.663331  9729 net.cpp:113] Setting up inception_4d/output
I0107 16:34:02.663338  9729 net.cpp:120] Top shape: 80 528 14 14 (8279040)
I0107 16:34:02.663343  9729 layer_factory.hpp:74] Creating layer inception_4d/output_inception_4d/output_0_split
I0107 16:34:02.663349  9729 net.cpp:84] Creating Layer inception_4d/output_inception_4d/output_0_split
I0107 16:34:02.663354  9729 net.cpp:380] inception_4d/output_inception_4d/output_0_split <- inception_4d/output
I0107 16:34:02.663362  9729 net.cpp:338] inception_4d/output_inception_4d/output_0_split -> inception_4d/output_inception_4d/output_0_split_0
I0107 16:34:02.663370  9729 net.cpp:338] inception_4d/output_inception_4d/output_0_split -> inception_4d/output_inception_4d/output_0_split_1
I0107 16:34:02.663378  9729 net.cpp:338] inception_4d/output_inception_4d/output_0_split -> inception_4d/output_inception_4d/output_0_split_2
I0107 16:34:02.663389  9729 net.cpp:338] inception_4d/output_inception_4d/output_0_split -> inception_4d/output_inception_4d/output_0_split_3
I0107 16:34:02.663403  9729 net.cpp:338] inception_4d/output_inception_4d/output_0_split -> inception_4d/output_inception_4d/output_0_split_4
I0107 16:34:02.663409  9729 net.cpp:113] Setting up inception_4d/output_inception_4d/output_0_split
I0107 16:34:02.663417  9729 net.cpp:120] Top shape: 80 528 14 14 (8279040)
I0107 16:34:02.663424  9729 net.cpp:120] Top shape: 80 528 14 14 (8279040)
I0107 16:34:02.663429  9729 net.cpp:120] Top shape: 80 528 14 14 (8279040)
I0107 16:34:02.663434  9729 net.cpp:120] Top shape: 80 528 14 14 (8279040)
I0107 16:34:02.663439  9729 net.cpp:120] Top shape: 80 528 14 14 (8279040)
I0107 16:34:02.663450  9729 layer_factory.hpp:74] Creating layer loss2/ave_pool
I0107 16:34:02.663467  9729 net.cpp:84] Creating Layer loss2/ave_pool
I0107 16:34:02.663473  9729 net.cpp:380] loss2/ave_pool <- inception_4d/output_inception_4d/output_0_split_0
I0107 16:34:02.663480  9729 net.cpp:338] loss2/ave_pool -> loss2/ave_pool
I0107 16:34:02.663487  9729 net.cpp:113] Setting up loss2/ave_pool
I0107 16:34:02.663565  9729 net.cpp:120] Top shape: 80 528 4 4 (675840)
I0107 16:34:02.663573  9729 layer_factory.hpp:74] Creating layer loss2/conv
I0107 16:34:02.663581  9729 net.cpp:84] Creating Layer loss2/conv
I0107 16:34:02.663586  9729 net.cpp:380] loss2/conv <- loss2/ave_pool
I0107 16:34:02.663594  9729 net.cpp:338] loss2/conv -> loss2/conv
I0107 16:34:02.663604  9729 net.cpp:113] Setting up loss2/conv
I0107 16:34:02.664800  9729 net.cpp:120] Top shape: 80 128 4 4 (163840)
I0107 16:34:02.664816  9729 layer_factory.hpp:74] Creating layer loss2/relu_conv
I0107 16:34:02.664824  9729 net.cpp:84] Creating Layer loss2/relu_conv
I0107 16:34:02.664829  9729 net.cpp:380] loss2/relu_conv <- loss2/conv
I0107 16:34:02.664835  9729 net.cpp:327] loss2/relu_conv -> loss2/conv (in-place)
I0107 16:34:02.664844  9729 net.cpp:113] Setting up loss2/relu_conv
I0107 16:34:02.664914  9729 net.cpp:120] Top shape: 80 128 4 4 (163840)
I0107 16:34:02.664921  9729 layer_factory.hpp:74] Creating layer loss2/fc
I0107 16:34:02.664938  9729 net.cpp:84] Creating Layer loss2/fc
I0107 16:34:02.664944  9729 net.cpp:380] loss2/fc <- loss2/conv
I0107 16:34:02.664953  9729 net.cpp:338] loss2/fc -> loss2/fc
I0107 16:34:02.664963  9729 net.cpp:113] Setting up loss2/fc
I0107 16:34:02.687897  9729 net.cpp:120] Top shape: 80 1024 (81920)
I0107 16:34:02.687911  9729 layer_factory.hpp:74] Creating layer loss2/relu_fc
I0107 16:34:02.687927  9729 net.cpp:84] Creating Layer loss2/relu_fc
I0107 16:34:02.687932  9729 net.cpp:380] loss2/relu_fc <- loss2/fc
I0107 16:34:02.687938  9729 net.cpp:327] loss2/relu_fc -> loss2/fc (in-place)
I0107 16:34:02.687947  9729 net.cpp:113] Setting up loss2/relu_fc
I0107 16:34:02.688284  9729 net.cpp:120] Top shape: 80 1024 (81920)
I0107 16:34:02.688297  9729 layer_factory.hpp:74] Creating layer loss2/drop_fc
I0107 16:34:02.688304  9729 net.cpp:84] Creating Layer loss2/drop_fc
I0107 16:34:02.688310  9729 net.cpp:380] loss2/drop_fc <- loss2/fc
I0107 16:34:02.688318  9729 net.cpp:327] loss2/drop_fc -> loss2/fc (in-place)
I0107 16:34:02.688325  9729 net.cpp:113] Setting up loss2/drop_fc
I0107 16:34:02.688334  9729 net.cpp:120] Top shape: 80 1024 (81920)
I0107 16:34:02.688338  9729 layer_factory.hpp:74] Creating layer loss2/classifier_kaggle
I0107 16:34:02.688349  9729 net.cpp:84] Creating Layer loss2/classifier_kaggle
I0107 16:34:02.688354  9729 net.cpp:380] loss2/classifier_kaggle <- loss2/fc
I0107 16:34:02.688362  9729 net.cpp:338] loss2/classifier_kaggle -> loss2/classifier_kaggle
I0107 16:34:02.688370  9729 net.cpp:113] Setting up loss2/classifier_kaggle
I0107 16:34:02.694144  9729 net.cpp:120] Top shape: 80 447 (35760)
I0107 16:34:02.694159  9729 layer_factory.hpp:74] Creating layer loss2/loss
I0107 16:34:02.694175  9729 net.cpp:84] Creating Layer loss2/loss
I0107 16:34:02.694181  9729 net.cpp:380] loss2/loss <- loss2/classifier_kaggle
I0107 16:34:02.694188  9729 net.cpp:380] loss2/loss <- label_data_1_split_1
I0107 16:34:02.694205  9729 net.cpp:338] loss2/loss -> loss2/loss1
I0107 16:34:02.694221  9729 net.cpp:113] Setting up loss2/loss
I0107 16:34:02.694227  9729 layer_factory.hpp:74] Creating layer loss2/loss
I0107 16:34:02.694413  9729 net.cpp:120] Top shape: (1)
I0107 16:34:02.694421  9729 net.cpp:122]     with loss weight 0.3
I0107 16:34:02.694430  9729 layer_factory.hpp:74] Creating layer inception_4e/1x1
I0107 16:34:02.694453  9729 net.cpp:84] Creating Layer inception_4e/1x1
I0107 16:34:02.694459  9729 net.cpp:380] inception_4e/1x1 <- inception_4d/output_inception_4d/output_0_split_1
I0107 16:34:02.694468  9729 net.cpp:338] inception_4e/1x1 -> inception_4e/1x1
I0107 16:34:02.694478  9729 net.cpp:113] Setting up inception_4e/1x1
I0107 16:34:02.700526  9729 net.cpp:120] Top shape: 80 256 14 14 (4014080)
I0107 16:34:02.700544  9729 layer_factory.hpp:74] Creating layer inception_4e/relu_1x1
I0107 16:34:02.700558  9729 net.cpp:84] Creating Layer inception_4e/relu_1x1
I0107 16:34:02.700564  9729 net.cpp:380] inception_4e/relu_1x1 <- inception_4e/1x1
I0107 16:34:02.700573  9729 net.cpp:327] inception_4e/relu_1x1 -> inception_4e/1x1 (in-place)
I0107 16:34:02.700580  9729 net.cpp:113] Setting up inception_4e/relu_1x1
I0107 16:34:02.700650  9729 net.cpp:120] Top shape: 80 256 14 14 (4014080)
I0107 16:34:02.700657  9729 layer_factory.hpp:74] Creating layer inception_4e/3x3_reduce
I0107 16:34:02.700666  9729 net.cpp:84] Creating Layer inception_4e/3x3_reduce
I0107 16:34:02.700672  9729 net.cpp:380] inception_4e/3x3_reduce <- inception_4d/output_inception_4d/output_0_split_2
I0107 16:34:02.700680  9729 net.cpp:338] inception_4e/3x3_reduce -> inception_4e/3x3_reduce
I0107 16:34:02.700687  9729 net.cpp:113] Setting up inception_4e/3x3_reduce
I0107 16:34:02.702100  9729 net.cpp:120] Top shape: 80 160 14 14 (2508800)
I0107 16:34:02.702116  9729 layer_factory.hpp:74] Creating layer inception_4e/relu_3x3_reduce
I0107 16:34:02.702123  9729 net.cpp:84] Creating Layer inception_4e/relu_3x3_reduce
I0107 16:34:02.702129  9729 net.cpp:380] inception_4e/relu_3x3_reduce <- inception_4e/3x3_reduce
I0107 16:34:02.702138  9729 net.cpp:327] inception_4e/relu_3x3_reduce -> inception_4e/3x3_reduce (in-place)
I0107 16:34:02.702147  9729 net.cpp:113] Setting up inception_4e/relu_3x3_reduce
I0107 16:34:02.702221  9729 net.cpp:120] Top shape: 80 160 14 14 (2508800)
I0107 16:34:02.702229  9729 layer_factory.hpp:74] Creating layer inception_4e/3x3
I0107 16:34:02.702247  9729 net.cpp:84] Creating Layer inception_4e/3x3
I0107 16:34:02.702255  9729 net.cpp:380] inception_4e/3x3 <- inception_4e/3x3_reduce
I0107 16:34:02.702263  9729 net.cpp:338] inception_4e/3x3 -> inception_4e/3x3
I0107 16:34:02.702272  9729 net.cpp:113] Setting up inception_4e/3x3
I0107 16:34:02.708005  9729 net.cpp:120] Top shape: 80 320 14 14 (5017600)
I0107 16:34:02.708024  9729 layer_factory.hpp:74] Creating layer inception_4e/relu_3x3
I0107 16:34:02.708041  9729 net.cpp:84] Creating Layer inception_4e/relu_3x3
I0107 16:34:02.708047  9729 net.cpp:380] inception_4e/relu_3x3 <- inception_4e/3x3
I0107 16:34:02.708056  9729 net.cpp:327] inception_4e/relu_3x3 -> inception_4e/3x3 (in-place)
I0107 16:34:02.708065  9729 net.cpp:113] Setting up inception_4e/relu_3x3
I0107 16:34:02.708326  9729 net.cpp:120] Top shape: 80 320 14 14 (5017600)
I0107 16:34:02.708338  9729 layer_factory.hpp:74] Creating layer inception_4e/5x5_reduce
I0107 16:34:02.708348  9729 net.cpp:84] Creating Layer inception_4e/5x5_reduce
I0107 16:34:02.708354  9729 net.cpp:380] inception_4e/5x5_reduce <- inception_4d/output_inception_4d/output_0_split_3
I0107 16:34:02.708364  9729 net.cpp:338] inception_4e/5x5_reduce -> inception_4e/5x5_reduce
I0107 16:34:02.708372  9729 net.cpp:113] Setting up inception_4e/5x5_reduce
I0107 16:34:02.708991  9729 net.cpp:120] Top shape: 80 32 14 14 (501760)
I0107 16:34:02.709005  9729 layer_factory.hpp:74] Creating layer inception_4e/relu_5x5_reduce
I0107 16:34:02.709022  9729 net.cpp:84] Creating Layer inception_4e/relu_5x5_reduce
I0107 16:34:02.709028  9729 net.cpp:380] inception_4e/relu_5x5_reduce <- inception_4e/5x5_reduce
I0107 16:34:02.709046  9729 net.cpp:327] inception_4e/relu_5x5_reduce -> inception_4e/5x5_reduce (in-place)
I0107 16:34:02.709054  9729 net.cpp:113] Setting up inception_4e/relu_5x5_reduce
I0107 16:34:02.709131  9729 net.cpp:120] Top shape: 80 32 14 14 (501760)
I0107 16:34:02.709137  9729 layer_factory.hpp:74] Creating layer inception_4e/5x5
I0107 16:34:02.709162  9729 net.cpp:84] Creating Layer inception_4e/5x5
I0107 16:34:02.709168  9729 net.cpp:380] inception_4e/5x5 <- inception_4e/5x5_reduce
I0107 16:34:02.709177  9729 net.cpp:338] inception_4e/5x5 -> inception_4e/5x5
I0107 16:34:02.709184  9729 net.cpp:113] Setting up inception_4e/5x5
I0107 16:34:02.710796  9729 net.cpp:120] Top shape: 80 128 14 14 (2007040)
I0107 16:34:02.710813  9729 layer_factory.hpp:74] Creating layer inception_4e/relu_5x5
I0107 16:34:02.710822  9729 net.cpp:84] Creating Layer inception_4e/relu_5x5
I0107 16:34:02.710829  9729 net.cpp:380] inception_4e/relu_5x5 <- inception_4e/5x5
I0107 16:34:02.710834  9729 net.cpp:327] inception_4e/relu_5x5 -> inception_4e/5x5 (in-place)
I0107 16:34:02.710842  9729 net.cpp:113] Setting up inception_4e/relu_5x5
I0107 16:34:02.710914  9729 net.cpp:120] Top shape: 80 128 14 14 (2007040)
I0107 16:34:02.710930  9729 layer_factory.hpp:74] Creating layer inception_4e/pool
I0107 16:34:02.710938  9729 layer_factory.cpp:56] CUDNN does not support padding or multiple tops. Using Caffe's own pooling layer.
I0107 16:34:02.710947  9729 net.cpp:84] Creating Layer inception_4e/pool
I0107 16:34:02.710952  9729 net.cpp:380] inception_4e/pool <- inception_4d/output_inception_4d/output_0_split_4
I0107 16:34:02.710958  9729 net.cpp:338] inception_4e/pool -> inception_4e/pool
I0107 16:34:02.710968  9729 net.cpp:113] Setting up inception_4e/pool
I0107 16:34:02.710978  9729 net.cpp:120] Top shape: 80 528 14 14 (8279040)
I0107 16:34:02.710983  9729 layer_factory.hpp:74] Creating layer inception_4e/pool_proj
I0107 16:34:02.710996  9729 net.cpp:84] Creating Layer inception_4e/pool_proj
I0107 16:34:02.711002  9729 net.cpp:380] inception_4e/pool_proj <- inception_4e/pool
I0107 16:34:02.711010  9729 net.cpp:338] inception_4e/pool_proj -> inception_4e/pool_proj
I0107 16:34:02.711019  9729 net.cpp:113] Setting up inception_4e/pool_proj
I0107 16:34:02.716284  9729 net.cpp:120] Top shape: 80 128 14 14 (2007040)
I0107 16:34:02.716301  9729 layer_factory.hpp:74] Creating layer inception_4e/relu_pool_proj
I0107 16:34:02.716308  9729 net.cpp:84] Creating Layer inception_4e/relu_pool_proj
I0107 16:34:02.716315  9729 net.cpp:380] inception_4e/relu_pool_proj <- inception_4e/pool_proj
I0107 16:34:02.716321  9729 net.cpp:327] inception_4e/relu_pool_proj -> inception_4e/pool_proj (in-place)
I0107 16:34:02.716330  9729 net.cpp:113] Setting up inception_4e/relu_pool_proj
I0107 16:34:02.716399  9729 net.cpp:120] Top shape: 80 128 14 14 (2007040)
I0107 16:34:02.716405  9729 layer_factory.hpp:74] Creating layer inception_4e/output
I0107 16:34:02.716421  9729 net.cpp:84] Creating Layer inception_4e/output
I0107 16:34:02.716426  9729 net.cpp:380] inception_4e/output <- inception_4e/1x1
I0107 16:34:02.716433  9729 net.cpp:380] inception_4e/output <- inception_4e/3x3
I0107 16:34:02.716439  9729 net.cpp:380] inception_4e/output <- inception_4e/5x5
I0107 16:34:02.716444  9729 net.cpp:380] inception_4e/output <- inception_4e/pool_proj
I0107 16:34:02.716449  9729 net.cpp:338] inception_4e/output -> inception_4e/output
I0107 16:34:02.716457  9729 net.cpp:113] Setting up inception_4e/output
I0107 16:34:02.716464  9729 net.cpp:120] Top shape: 80 832 14 14 (13045760)
I0107 16:34:02.716475  9729 layer_factory.hpp:74] Creating layer pool4/3x3_s2
I0107 16:34:02.716490  9729 net.cpp:84] Creating Layer pool4/3x3_s2
I0107 16:34:02.716495  9729 net.cpp:380] pool4/3x3_s2 <- inception_4e/output
I0107 16:34:02.716502  9729 net.cpp:338] pool4/3x3_s2 -> pool4/3x3_s2
I0107 16:34:02.716509  9729 net.cpp:113] Setting up pool4/3x3_s2
I0107 16:34:02.716768  9729 net.cpp:120] Top shape: 80 832 7 7 (3261440)
I0107 16:34:02.716789  9729 layer_factory.hpp:74] Creating layer pool4/3x3_s2_pool4/3x3_s2_0_split
I0107 16:34:02.716804  9729 net.cpp:84] Creating Layer pool4/3x3_s2_pool4/3x3_s2_0_split
I0107 16:34:02.716809  9729 net.cpp:380] pool4/3x3_s2_pool4/3x3_s2_0_split <- pool4/3x3_s2
I0107 16:34:02.716817  9729 net.cpp:338] pool4/3x3_s2_pool4/3x3_s2_0_split -> pool4/3x3_s2_pool4/3x3_s2_0_split_0
I0107 16:34:02.716826  9729 net.cpp:338] pool4/3x3_s2_pool4/3x3_s2_0_split -> pool4/3x3_s2_pool4/3x3_s2_0_split_1
I0107 16:34:02.716833  9729 net.cpp:338] pool4/3x3_s2_pool4/3x3_s2_0_split -> pool4/3x3_s2_pool4/3x3_s2_0_split_2
I0107 16:34:02.716840  9729 net.cpp:338] pool4/3x3_s2_pool4/3x3_s2_0_split -> pool4/3x3_s2_pool4/3x3_s2_0_split_3
I0107 16:34:02.716845  9729 net.cpp:113] Setting up pool4/3x3_s2_pool4/3x3_s2_0_split
I0107 16:34:02.716853  9729 net.cpp:120] Top shape: 80 832 7 7 (3261440)
I0107 16:34:02.716858  9729 net.cpp:120] Top shape: 80 832 7 7 (3261440)
I0107 16:34:02.716863  9729 net.cpp:120] Top shape: 80 832 7 7 (3261440)
I0107 16:34:02.716868  9729 net.cpp:120] Top shape: 80 832 7 7 (3261440)
I0107 16:34:02.716873  9729 layer_factory.hpp:74] Creating layer inception_5a/1x1
I0107 16:34:02.716882  9729 net.cpp:84] Creating Layer inception_5a/1x1
I0107 16:34:02.716887  9729 net.cpp:380] inception_5a/1x1 <- pool4/3x3_s2_pool4/3x3_s2_0_split_0
I0107 16:34:02.716897  9729 net.cpp:338] inception_5a/1x1 -> inception_5a/1x1
I0107 16:34:02.716904  9729 net.cpp:113] Setting up inception_5a/1x1
I0107 16:34:02.719844  9729 net.cpp:120] Top shape: 80 256 7 7 (1003520)
I0107 16:34:02.719862  9729 layer_factory.hpp:74] Creating layer inception_5a/relu_1x1
I0107 16:34:02.719869  9729 net.cpp:84] Creating Layer inception_5a/relu_1x1
I0107 16:34:02.719876  9729 net.cpp:380] inception_5a/relu_1x1 <- inception_5a/1x1
I0107 16:34:02.719894  9729 net.cpp:327] inception_5a/relu_1x1 -> inception_5a/1x1 (in-place)
I0107 16:34:02.719903  9729 net.cpp:113] Setting up inception_5a/relu_1x1
I0107 16:34:02.719975  9729 net.cpp:120] Top shape: 80 256 7 7 (1003520)
I0107 16:34:02.719982  9729 layer_factory.hpp:74] Creating layer inception_5a/3x3_reduce
I0107 16:34:02.719997  9729 net.cpp:84] Creating Layer inception_5a/3x3_reduce
I0107 16:34:02.720005  9729 net.cpp:380] inception_5a/3x3_reduce <- pool4/3x3_s2_pool4/3x3_s2_0_split_1
I0107 16:34:02.720013  9729 net.cpp:338] inception_5a/3x3_reduce -> inception_5a/3x3_reduce
I0107 16:34:02.720022  9729 net.cpp:113] Setting up inception_5a/3x3_reduce
I0107 16:34:02.722031  9729 net.cpp:120] Top shape: 80 160 7 7 (627200)
I0107 16:34:02.722049  9729 layer_factory.hpp:74] Creating layer inception_5a/relu_3x3_reduce
I0107 16:34:02.722057  9729 net.cpp:84] Creating Layer inception_5a/relu_3x3_reduce
I0107 16:34:02.722064  9729 net.cpp:380] inception_5a/relu_3x3_reduce <- inception_5a/3x3_reduce
I0107 16:34:02.722072  9729 net.cpp:327] inception_5a/relu_3x3_reduce -> inception_5a/3x3_reduce (in-place)
I0107 16:34:02.722080  9729 net.cpp:113] Setting up inception_5a/relu_3x3_reduce
I0107 16:34:02.722156  9729 net.cpp:120] Top shape: 80 160 7 7 (627200)
I0107 16:34:02.722162  9729 layer_factory.hpp:74] Creating layer inception_5a/3x3
I0107 16:34:02.722168  9729 net.cpp:84] Creating Layer inception_5a/3x3
I0107 16:34:02.722174  9729 net.cpp:380] inception_5a/3x3 <- inception_5a/3x3_reduce
I0107 16:34:02.722183  9729 net.cpp:338] inception_5a/3x3 -> inception_5a/3x3
I0107 16:34:02.722192  9729 net.cpp:113] Setting up inception_5a/3x3
I0107 16:34:02.727912  9729 net.cpp:120] Top shape: 80 320 7 7 (1254400)
I0107 16:34:02.727931  9729 layer_factory.hpp:74] Creating layer inception_5a/relu_3x3
I0107 16:34:02.727948  9729 net.cpp:84] Creating Layer inception_5a/relu_3x3
I0107 16:34:02.727954  9729 net.cpp:380] inception_5a/relu_3x3 <- inception_5a/3x3
I0107 16:34:02.727965  9729 net.cpp:327] inception_5a/relu_3x3 -> inception_5a/3x3 (in-place)
I0107 16:34:02.727973  9729 net.cpp:113] Setting up inception_5a/relu_3x3
I0107 16:34:02.728050  9729 net.cpp:120] Top shape: 80 320 7 7 (1254400)
I0107 16:34:02.728057  9729 layer_factory.hpp:74] Creating layer inception_5a/5x5_reduce
I0107 16:34:02.728076  9729 net.cpp:84] Creating Layer inception_5a/5x5_reduce
I0107 16:34:02.728082  9729 net.cpp:380] inception_5a/5x5_reduce <- pool4/3x3_s2_pool4/3x3_s2_0_split_2
I0107 16:34:02.728091  9729 net.cpp:338] inception_5a/5x5_reduce -> inception_5a/5x5_reduce
I0107 16:34:02.728101  9729 net.cpp:113] Setting up inception_5a/5x5_reduce
I0107 16:34:02.729820  9729 net.cpp:120] Top shape: 80 32 7 7 (125440)
I0107 16:34:02.729845  9729 layer_factory.hpp:74] Creating layer inception_5a/relu_5x5_reduce
I0107 16:34:02.729874  9729 net.cpp:84] Creating Layer inception_5a/relu_5x5_reduce
I0107 16:34:02.729882  9729 net.cpp:380] inception_5a/relu_5x5_reduce <- inception_5a/5x5_reduce
I0107 16:34:02.729892  9729 net.cpp:327] inception_5a/relu_5x5_reduce -> inception_5a/5x5_reduce (in-place)
I0107 16:34:02.729902  9729 net.cpp:113] Setting up inception_5a/relu_5x5_reduce
I0107 16:34:02.730183  9729 net.cpp:120] Top shape: 80 32 7 7 (125440)
I0107 16:34:02.730196  9729 layer_factory.hpp:74] Creating layer inception_5a/5x5
I0107 16:34:02.730216  9729 net.cpp:84] Creating Layer inception_5a/5x5
I0107 16:34:02.730222  9729 net.cpp:380] inception_5a/5x5 <- inception_5a/5x5_reduce
I0107 16:34:02.730231  9729 net.cpp:338] inception_5a/5x5 -> inception_5a/5x5
I0107 16:34:02.730239  9729 net.cpp:113] Setting up inception_5a/5x5
I0107 16:34:02.731884  9729 net.cpp:120] Top shape: 80 128 7 7 (501760)
I0107 16:34:02.731900  9729 layer_factory.hpp:74] Creating layer inception_5a/relu_5x5
I0107 16:34:02.731907  9729 net.cpp:84] Creating Layer inception_5a/relu_5x5
I0107 16:34:02.731914  9729 net.cpp:380] inception_5a/relu_5x5 <- inception_5a/5x5
I0107 16:34:02.731920  9729 net.cpp:327] inception_5a/relu_5x5 -> inception_5a/5x5 (in-place)
I0107 16:34:02.731928  9729 net.cpp:113] Setting up inception_5a/relu_5x5
I0107 16:34:02.732004  9729 net.cpp:120] Top shape: 80 128 7 7 (501760)
I0107 16:34:02.732012  9729 layer_factory.hpp:74] Creating layer inception_5a/pool
I0107 16:34:02.732017  9729 layer_factory.cpp:56] CUDNN does not support padding or multiple tops. Using Caffe's own pooling layer.
I0107 16:34:02.732023  9729 net.cpp:84] Creating Layer inception_5a/pool
I0107 16:34:02.732029  9729 net.cpp:380] inception_5a/pool <- pool4/3x3_s2_pool4/3x3_s2_0_split_3
I0107 16:34:02.732036  9729 net.cpp:338] inception_5a/pool -> inception_5a/pool
I0107 16:34:02.732044  9729 net.cpp:113] Setting up inception_5a/pool
I0107 16:34:02.732053  9729 net.cpp:120] Top shape: 80 832 7 7 (3261440)
I0107 16:34:02.732058  9729 layer_factory.hpp:74] Creating layer inception_5a/pool_proj
I0107 16:34:02.732077  9729 net.cpp:84] Creating Layer inception_5a/pool_proj
I0107 16:34:02.732084  9729 net.cpp:380] inception_5a/pool_proj <- inception_5a/pool
I0107 16:34:02.732091  9729 net.cpp:338] inception_5a/pool_proj -> inception_5a/pool_proj
I0107 16:34:02.732100  9729 net.cpp:113] Setting up inception_5a/pool_proj
I0107 16:34:02.733765  9729 net.cpp:120] Top shape: 80 128 7 7 (501760)
I0107 16:34:02.733783  9729 layer_factory.hpp:74] Creating layer inception_5a/relu_pool_proj
I0107 16:34:02.733800  9729 net.cpp:84] Creating Layer inception_5a/relu_pool_proj
I0107 16:34:02.733808  9729 net.cpp:380] inception_5a/relu_pool_proj <- inception_5a/pool_proj
I0107 16:34:02.733814  9729 net.cpp:327] inception_5a/relu_pool_proj -> inception_5a/pool_proj (in-place)
I0107 16:34:02.733822  9729 net.cpp:113] Setting up inception_5a/relu_pool_proj
I0107 16:34:02.733901  9729 net.cpp:120] Top shape: 80 128 7 7 (501760)
I0107 16:34:02.733908  9729 layer_factory.hpp:74] Creating layer inception_5a/output
I0107 16:34:02.733914  9729 net.cpp:84] Creating Layer inception_5a/output
I0107 16:34:02.733919  9729 net.cpp:380] inception_5a/output <- inception_5a/1x1
I0107 16:34:02.733927  9729 net.cpp:380] inception_5a/output <- inception_5a/3x3
I0107 16:34:02.733932  9729 net.cpp:380] inception_5a/output <- inception_5a/5x5
I0107 16:34:02.733937  9729 net.cpp:380] inception_5a/output <- inception_5a/pool_proj
I0107 16:34:02.733942  9729 net.cpp:338] inception_5a/output -> inception_5a/output
I0107 16:34:02.733961  9729 net.cpp:113] Setting up inception_5a/output
I0107 16:34:02.733970  9729 net.cpp:120] Top shape: 80 832 7 7 (3261440)
I0107 16:34:02.733974  9729 layer_factory.hpp:74] Creating layer inception_5a/output_inception_5a/output_0_split
I0107 16:34:02.733983  9729 net.cpp:84] Creating Layer inception_5a/output_inception_5a/output_0_split
I0107 16:34:02.733989  9729 net.cpp:380] inception_5a/output_inception_5a/output_0_split <- inception_5a/output
I0107 16:34:02.733994  9729 net.cpp:338] inception_5a/output_inception_5a/output_0_split -> inception_5a/output_inception_5a/output_0_split_0
I0107 16:34:02.734002  9729 net.cpp:338] inception_5a/output_inception_5a/output_0_split -> inception_5a/output_inception_5a/output_0_split_1
I0107 16:34:02.734011  9729 net.cpp:338] inception_5a/output_inception_5a/output_0_split -> inception_5a/output_inception_5a/output_0_split_2
I0107 16:34:02.734019  9729 net.cpp:338] inception_5a/output_inception_5a/output_0_split -> inception_5a/output_inception_5a/output_0_split_3
I0107 16:34:02.734025  9729 net.cpp:113] Setting up inception_5a/output_inception_5a/output_0_split
I0107 16:34:02.734032  9729 net.cpp:120] Top shape: 80 832 7 7 (3261440)
I0107 16:34:02.734037  9729 net.cpp:120] Top shape: 80 832 7 7 (3261440)
I0107 16:34:02.734042  9729 net.cpp:120] Top shape: 80 832 7 7 (3261440)
I0107 16:34:02.734047  9729 net.cpp:120] Top shape: 80 832 7 7 (3261440)
I0107 16:34:02.734052  9729 layer_factory.hpp:74] Creating layer inception_5b/1x1
I0107 16:34:02.734060  9729 net.cpp:84] Creating Layer inception_5b/1x1
I0107 16:34:02.734064  9729 net.cpp:380] inception_5b/1x1 <- inception_5a/output_inception_5a/output_0_split_0
I0107 16:34:02.734072  9729 net.cpp:338] inception_5b/1x1 -> inception_5b/1x1
I0107 16:34:02.734081  9729 net.cpp:113] Setting up inception_5b/1x1
I0107 16:34:02.738189  9729 net.cpp:120] Top shape: 80 384 7 7 (1505280)
I0107 16:34:02.738219  9729 layer_factory.hpp:74] Creating layer inception_5b/relu_1x1
I0107 16:34:02.738234  9729 net.cpp:84] Creating Layer inception_5b/relu_1x1
I0107 16:34:02.738240  9729 net.cpp:380] inception_5b/relu_1x1 <- inception_5b/1x1
I0107 16:34:02.738248  9729 net.cpp:327] inception_5b/relu_1x1 -> inception_5b/1x1 (in-place)
I0107 16:34:02.738256  9729 net.cpp:113] Setting up inception_5b/relu_1x1
I0107 16:34:02.738515  9729 net.cpp:120] Top shape: 80 384 7 7 (1505280)
I0107 16:34:02.738528  9729 layer_factory.hpp:74] Creating layer inception_5b/3x3_reduce
I0107 16:34:02.738539  9729 net.cpp:84] Creating Layer inception_5b/3x3_reduce
I0107 16:34:02.738545  9729 net.cpp:380] inception_5b/3x3_reduce <- inception_5a/output_inception_5a/output_0_split_1
I0107 16:34:02.738554  9729 net.cpp:338] inception_5b/3x3_reduce -> inception_5b/3x3_reduce
I0107 16:34:02.738562  9729 net.cpp:113] Setting up inception_5b/3x3_reduce
I0107 16:34:02.740823  9729 net.cpp:120] Top shape: 80 192 7 7 (752640)
I0107 16:34:02.740839  9729 layer_factory.hpp:74] Creating layer inception_5b/relu_3x3_reduce
I0107 16:34:02.740849  9729 net.cpp:84] Creating Layer inception_5b/relu_3x3_reduce
I0107 16:34:02.740854  9729 net.cpp:380] inception_5b/relu_3x3_reduce <- inception_5b/3x3_reduce
I0107 16:34:02.740861  9729 net.cpp:327] inception_5b/relu_3x3_reduce -> inception_5b/3x3_reduce (in-place)
I0107 16:34:02.740871  9729 net.cpp:113] Setting up inception_5b/relu_3x3_reduce
I0107 16:34:02.740944  9729 net.cpp:120] Top shape: 80 192 7 7 (752640)
I0107 16:34:02.740950  9729 layer_factory.hpp:74] Creating layer inception_5b/3x3
I0107 16:34:02.740970  9729 net.cpp:84] Creating Layer inception_5b/3x3
I0107 16:34:02.740977  9729 net.cpp:380] inception_5b/3x3 <- inception_5b/3x3_reduce
I0107 16:34:02.740985  9729 net.cpp:338] inception_5b/3x3 -> inception_5b/3x3
I0107 16:34:02.741010  9729 net.cpp:113] Setting up inception_5b/3x3
I0107 16:34:02.749284  9729 net.cpp:120] Top shape: 80 384 7 7 (1505280)
I0107 16:34:02.749303  9729 layer_factory.hpp:74] Creating layer inception_5b/relu_3x3
I0107 16:34:02.749310  9729 net.cpp:84] Creating Layer inception_5b/relu_3x3
I0107 16:34:02.749328  9729 net.cpp:380] inception_5b/relu_3x3 <- inception_5b/3x3
I0107 16:34:02.749337  9729 net.cpp:327] inception_5b/relu_3x3 -> inception_5b/3x3 (in-place)
I0107 16:34:02.749346  9729 net.cpp:113] Setting up inception_5b/relu_3x3
I0107 16:34:02.749418  9729 net.cpp:120] Top shape: 80 384 7 7 (1505280)
I0107 16:34:02.749424  9729 layer_factory.hpp:74] Creating layer inception_5b/5x5_reduce
I0107 16:34:02.749434  9729 net.cpp:84] Creating Layer inception_5b/5x5_reduce
I0107 16:34:02.749440  9729 net.cpp:380] inception_5b/5x5_reduce <- inception_5a/output_inception_5a/output_0_split_2
I0107 16:34:02.749465  9729 net.cpp:338] inception_5b/5x5_reduce -> inception_5b/5x5_reduce
I0107 16:34:02.749476  9729 net.cpp:113] Setting up inception_5b/5x5_reduce
I0107 16:34:02.750357  9729 net.cpp:120] Top shape: 80 48 7 7 (188160)
I0107 16:34:02.750373  9729 layer_factory.hpp:74] Creating layer inception_5b/relu_5x5_reduce
I0107 16:34:02.750380  9729 net.cpp:84] Creating Layer inception_5b/relu_5x5_reduce
I0107 16:34:02.750386  9729 net.cpp:380] inception_5b/relu_5x5_reduce <- inception_5b/5x5_reduce
I0107 16:34:02.750393  9729 net.cpp:327] inception_5b/relu_5x5_reduce -> inception_5b/5x5_reduce (in-place)
I0107 16:34:02.750401  9729 net.cpp:113] Setting up inception_5b/relu_5x5_reduce
I0107 16:34:02.750473  9729 net.cpp:120] Top shape: 80 48 7 7 (188160)
I0107 16:34:02.750480  9729 layer_factory.hpp:74] Creating layer inception_5b/5x5
I0107 16:34:02.750502  9729 net.cpp:84] Creating Layer inception_5b/5x5
I0107 16:34:02.750509  9729 net.cpp:380] inception_5b/5x5 <- inception_5b/5x5_reduce
I0107 16:34:02.750516  9729 net.cpp:338] inception_5b/5x5 -> inception_5b/5x5
I0107 16:34:02.750524  9729 net.cpp:113] Setting up inception_5b/5x5
I0107 16:34:02.752778  9729 net.cpp:120] Top shape: 80 128 7 7 (501760)
I0107 16:34:02.752795  9729 layer_factory.hpp:74] Creating layer inception_5b/relu_5x5
I0107 16:34:02.752804  9729 net.cpp:84] Creating Layer inception_5b/relu_5x5
I0107 16:34:02.752810  9729 net.cpp:380] inception_5b/relu_5x5 <- inception_5b/5x5
I0107 16:34:02.752816  9729 net.cpp:327] inception_5b/relu_5x5 -> inception_5b/5x5 (in-place)
I0107 16:34:02.752825  9729 net.cpp:113] Setting up inception_5b/relu_5x5
I0107 16:34:02.753095  9729 net.cpp:120] Top shape: 80 128 7 7 (501760)
I0107 16:34:02.753108  9729 layer_factory.hpp:74] Creating layer inception_5b/pool
I0107 16:34:02.753113  9729 layer_factory.cpp:56] CUDNN does not support padding or multiple tops. Using Caffe's own pooling layer.
I0107 16:34:02.753119  9729 net.cpp:84] Creating Layer inception_5b/pool
I0107 16:34:02.753124  9729 net.cpp:380] inception_5b/pool <- inception_5a/output_inception_5a/output_0_split_3
I0107 16:34:02.753132  9729 net.cpp:338] inception_5b/pool -> inception_5b/pool
I0107 16:34:02.753140  9729 net.cpp:113] Setting up inception_5b/pool
I0107 16:34:02.753151  9729 net.cpp:120] Top shape: 80 832 7 7 (3261440)
I0107 16:34:02.753156  9729 layer_factory.hpp:74] Creating layer inception_5b/pool_proj
I0107 16:34:02.753173  9729 net.cpp:84] Creating Layer inception_5b/pool_proj
I0107 16:34:02.753180  9729 net.cpp:380] inception_5b/pool_proj <- inception_5b/pool
I0107 16:34:02.753188  9729 net.cpp:338] inception_5b/pool_proj -> inception_5b/pool_proj
I0107 16:34:02.753197  9729 net.cpp:113] Setting up inception_5b/pool_proj
I0107 16:34:02.754853  9729 net.cpp:120] Top shape: 80 128 7 7 (501760)
I0107 16:34:02.754870  9729 layer_factory.hpp:74] Creating layer inception_5b/relu_pool_proj
I0107 16:34:02.754880  9729 net.cpp:84] Creating Layer inception_5b/relu_pool_proj
I0107 16:34:02.754886  9729 net.cpp:380] inception_5b/relu_pool_proj <- inception_5b/pool_proj
I0107 16:34:02.754894  9729 net.cpp:327] inception_5b/relu_pool_proj -> inception_5b/pool_proj (in-place)
I0107 16:34:02.754901  9729 net.cpp:113] Setting up inception_5b/relu_pool_proj
I0107 16:34:02.754976  9729 net.cpp:120] Top shape: 80 128 7 7 (501760)
I0107 16:34:02.754983  9729 layer_factory.hpp:74] Creating layer inception_5b/output
I0107 16:34:02.754997  9729 net.cpp:84] Creating Layer inception_5b/output
I0107 16:34:02.755008  9729 net.cpp:380] inception_5b/output <- inception_5b/1x1
I0107 16:34:02.755015  9729 net.cpp:380] inception_5b/output <- inception_5b/3x3
I0107 16:34:02.755020  9729 net.cpp:380] inception_5b/output <- inception_5b/5x5
I0107 16:34:02.755026  9729 net.cpp:380] inception_5b/output <- inception_5b/pool_proj
I0107 16:34:02.755033  9729 net.cpp:338] inception_5b/output -> inception_5b/output
I0107 16:34:02.755039  9729 net.cpp:113] Setting up inception_5b/output
I0107 16:34:02.755048  9729 net.cpp:120] Top shape: 80 1024 7 7 (4014080)
I0107 16:34:02.755053  9729 layer_factory.hpp:74] Creating layer pool5/7x7_s1
I0107 16:34:02.755060  9729 net.cpp:84] Creating Layer pool5/7x7_s1
I0107 16:34:02.755065  9729 net.cpp:380] pool5/7x7_s1 <- inception_5b/output
I0107 16:34:02.755072  9729 net.cpp:338] pool5/7x7_s1 -> pool5/7x7_s1
I0107 16:34:02.755079  9729 net.cpp:113] Setting up pool5/7x7_s1
I0107 16:34:02.755164  9729 net.cpp:120] Top shape: 80 1024 1 1 (81920)
I0107 16:34:02.755172  9729 layer_factory.hpp:74] Creating layer pool5/drop_7x7_s1
I0107 16:34:02.755192  9729 net.cpp:84] Creating Layer pool5/drop_7x7_s1
I0107 16:34:02.755198  9729 net.cpp:380] pool5/drop_7x7_s1 <- pool5/7x7_s1
I0107 16:34:02.755204  9729 net.cpp:327] pool5/drop_7x7_s1 -> pool5/7x7_s1 (in-place)
I0107 16:34:02.755213  9729 net.cpp:113] Setting up pool5/drop_7x7_s1
I0107 16:34:02.755220  9729 net.cpp:120] Top shape: 80 1024 1 1 (81920)
I0107 16:34:02.755225  9729 layer_factory.hpp:74] Creating layer loss3/classifier_kaggle
I0107 16:34:02.755234  9729 net.cpp:84] Creating Layer loss3/classifier_kaggle
I0107 16:34:02.755239  9729 net.cpp:380] loss3/classifier_kaggle <- pool5/7x7_s1
I0107 16:34:02.755249  9729 net.cpp:338] loss3/classifier_kaggle -> loss3/classifier_kaggle
I0107 16:34:02.755259  9729 net.cpp:113] Setting up loss3/classifier_kaggle
I0107 16:34:02.760529  9729 net.cpp:120] Top shape: 80 447 (35760)
I0107 16:34:02.760542  9729 layer_factory.hpp:74] Creating layer loss3/loss3
I0107 16:34:02.760550  9729 net.cpp:84] Creating Layer loss3/loss3
I0107 16:34:02.760555  9729 net.cpp:380] loss3/loss3 <- loss3/classifier_kaggle
I0107 16:34:02.760561  9729 net.cpp:380] loss3/loss3 <- label_data_1_split_2
I0107 16:34:02.760571  9729 net.cpp:338] loss3/loss3 -> loss3/loss3
I0107 16:34:02.760577  9729 net.cpp:113] Setting up loss3/loss3
…
I0107 16:34:02.766048  9729 net.cpp:257] The NetState phase (1) differed from the phase (0) specified by a rule in layer data
I0107 16:34:02.767534  9729 net.cpp:42] Initializing net from parameters: 
name: "MYNET"
state {
  phase: TEST
}
layer {
  name: "data"
  type: "ImageData"
  top: "data"
  top: "label"
  include {
    phase: TEST
  }
  transform_param {
    mirror: false
    crop_size: 224
    mean_value: 129
    mean_value: 129
    mean_value: 129
  }
  image_data_param {
    source: "/home/coldmanck/kaggle/label_val_full_resize_rotated.txt"
    batch_size: 50
    shuffle: true
  }
}
layer {
  name: "conv1/7x7_s2"
  type: "Convolution"
  bottom: "data"
  top: "conv1/7x7_s2"
  param {
    lr_mult: 1
    decay_mult: 1
  }
  param {
    lr_mult: 2
    decay_mult: 0
  }
  convolution_param {
    num_output: 64
    pad: 3
    kernel_size: 7
    stride: 2
    weight_filler {
      type: "xavier"
    }
    bias_filler {
      type: "constant"
      value: 0.2
    }
  }
}
layer {
  name: "conv1/relu_7x7"
  type: "ReLU"
  bottom: "conv1/7x7_s2"
  top: "conv1/7x7_s2"
}
layer {
  name: "pool1/3x3_s2"
  type: "Pooling"
  bottom: "conv1/7x7_s2"
  top: "pool1/3x3_s2"
  pooling_param {
    pool: MAX
    kernel_size: 3
    stride: 2
  }
}
layer {
  name: "pool1/norm1"
  type: "LRN"
  bottom: "pool1/3x3_s2"
  top: "pool1/norm1"
  lrn_param {
    local_size: 5
    alpha: 0.0001
    beta: 0.75
  }
}
layer {
  name: "conv2/3x3_reduce"
  type: "Convolution"
  bottom: "pool1/norm1"
  top: "conv2/3x3_reduce"
  param {
    lr_mult: 1
    decay_mult: 1
  }
  param {
    lr_mult: 2
    decay_mult: 0
  }
  convolution_param {
    num_output: 64
    kernel_size: 1
    weight_filler {
      type: "xavier"
    }
    bias_filler {
      type: "constant"
      value: 0.2
    }
  }
}
layer {
  name: "conv2/relu_3x3_reduce"
  type: "ReLU"
  bottom: "conv2/3x3_reduce"
  top: "conv2/3x3_reduce"
}
layer {
  name: "conv2/3x3"
  type: "Convolution"
  bottom: "conv2/3x3_reduce"
  top: "conv2/3x3"
  param {
    lr_mult: 1
    decay_mult: 1
  }
  param {
    lr_mult: 2
    decay_mult: 0
  }
  convolution_param {
    num_output: 192
    pad: 1
    kernel_size: 3
    weight_filler {
      type: "xavier"
    }
    bias_filler {
      type: "constant"
      value: 0.2
    }
  }
}
layer {
  name: "conv2/relu_3x3"
  type: "ReLU"
  bottom: "conv2/3x3"
  top: "conv2/3x3"
}
layer {
  name: "conv2/norm2"
  type: "LRN"
  bottom: "conv2/3x3"
  top: "conv2/norm2"
  lrn_param {
    local_size: 5
    alpha: 0.0001
    beta: 0.75
  }
}
layer {
  name: "pool2/3x3_s2"
  type: "Pooling"
  bottom: "conv2/norm2"
  top: "pool2/3x3_s2"
  pooling_param {
    pool: MAX
    kernel_size: 3
    stride: 2
  }
}
layer {
  name: "inception_3a/1x1"
  type: "Convolution"
  bottom: "pool2/3x3_s2"
  top: "inception_3a/1x1"
  param {
    lr_mult: 1
    decay_mult: 1
  }
  param {
    lr_mult: 2
    decay_mult: 0
  }
  convolution_param {
    num_output: 64
    kernel_size: 1
    weight_filler {
      type: "xavier"
    }
    bias_filler {
      type: "constant"
      value: 0.2
    }
  }
}
layer {
  name: "inception_3a/relu_1x1"
  type: "ReLU"
  bottom: "inception_3a/1x1"
  top: "inception_3a/1x1"
}
layer {
  name: "inception_3a/3x3_reduce"
  type: "Convolution"
  bottom: "pool2/3x3_s2"
  top: "inception_3a/3x3_reduce"
  param {
    lr_mult: 1
    decay_mult: 1
  }
  param {
    lr_mult: 2
    decay_mult: 0
  }
  convolution_param {
    num_output: 96
    kernel_size: 1
    weight_filler {
      type: "xavier"
    }
    bias_filler {
      type: "constant"
      value: 0.2
    }
  }
}
layer {
  name: "inception_3a/relu_3x3_reduce"
  type: "ReLU"
  bottom: "inception_3a/3x3_reduce"
  top: "inception_3a/3x3_reduce"
}
layer {
  name: "inception_3a/3x3"
  type: "Convolution"
  bottom: "inception_3a/3x3_reduce"
  top: "inception_3a/3x3"
  param {
    lr_mult: 1
    decay_mult: 1
  }
  param {
    lr_mult: 2
    decay_mult: 0
  }
  convolution_param {
    num_output: 128
    pad: 1
    kernel_size: 3
    weight_filler {
      type: "xavier"
    }
    bias_filler {
      type: "constant"
      value: 0.2
    }
  }
}
layer {
  name: "inception_3a/relu_3x3"
  type: "ReLU"
  bottom: "inception_3a/3x3"
  top: "inception_3a/3x3"
}
layer {
  name: "inception_3a/5x5_reduce"
  type: "Convolution"
  bottom: "pool2/3x3_s2"
  top: "inception_3a/5x5_reduce"
  param {
    lr_mult: 1
    decay_mult: 1
  }
  param {
    lr_mult: 2
    decay_mult: 0
  }
  convolution_param {
    num_output: 16
    kernel_size: 1
    weight_filler {
      type: "xavier"
    }
    bias_filler {
      type: "constant"
      value: 0.2
    }
  }
}
layer {
  name: "inception_3a/relu_5x5_reduce"
  type: "ReLU"
  bottom: "inception_3a/5x5_reduce"
  top: "inception_3a/5x5_reduce"
}
layer {
  name: "inception_3a/5x5"
  type: "Convolution"
  bottom: "inception_3a/5x5_reduce"
  top: "inception_3a/5x5"
  param {
    lr_mult: 1
    decay_mult: 1
  }
  param {
    lr_mult: 2
    decay_mult: 0
  }
  convolution_param {
    num_output: 32
    pad: 2
    kernel_size: 5
    weight_filler {
      type: "xavier"
    }
    bias_filler {
      type: "constant"
      value: 0.2
    }
  }
}
layer {
  name: "inception_3a/relu_5x5"
  type: "ReLU"
  bottom: "inception_3a/5x5"
  top: "inception_3a/5x5"
}
layer {
  name: "inception_3a/pool"
  type: "Pooling"
  bottom: "pool2/3x3_s2"
  top: "inception_3a/pool"
  pooling_param {
    pool: MAX
    kernel_size: 3
    stride: 1
    pad: 1
  }
}
layer {
  name: "inception_3a/pool_proj"
  type: "Convolution"
  bottom: "inception_3a/pool"
  top: "inception_3a/pool_proj"
  param {
    lr_mult: 1
    decay_mult: 1
  }
  param {
    lr_mult: 2
    decay_mult: 0
  }
  convolution_param {
    num_output: 32
    kernel_size: 1
    weight_filler {
      type: "xavier"
    }
    bias_filler {
      type: "constant"
      value: 0.2
    }
  }
}
layer {
  name: "inception_3a/relu_pool_proj"
  type: "ReLU"
  bottom: "inception_3a/pool_proj"
  top: "inception_3a/pool_proj"
}
layer {
  name: "inception_3a/output"
  type: "Concat"
  bottom: "inception_3a/1x1"
  bottom: "inception_3a/3x3"
  bottom: "inception_3a/5x5"
  bottom: "inception_3a/pool_proj"
  top: "inception_3a/output"
}
layer {
  name: "inception_3b/1x1"
  type: "Convolution"
  bottom: "inception_3a/output"
  top: "inception_3b/1x1"
  param {
    lr_mult: 1
    decay_mult: 1
  }
  param {
    lr_mult: 2
    decay_mult: 0
  }
  convolution_param {
    num_output: 128
    kernel_size: 1
    weight_filler {
      type: "xavier"
    }
    bias_filler {
      type: "constant"
      value: 0.2
    }
  }
}
layer {
  name: "inception_3b/relu_1x1"
  type: "ReLU"
  bottom: "inception_3b/1x1"
  top: "inception_3b/1x1"
}
layer {
  name: "inception_3b/3x3_reduce"
  type: "Convolution"
  bottom: "inception_3a/output"
  top: "inception_3b/3x3_reduce"
  param {
    lr_mult: 1
    decay_mult: 1
  }
  param {
    lr_mult: 2
    decay_mult: 0
  }
  convolution_param {
    num_output: 128
    kernel_size: 1
    weight_filler {
      type: "xavier"
    }
    bias_filler {
      type: "constant"
      value: 0.2
    }
  }
}
layer {
  name: "inception_3b/relu_3x3_reduce"
  type: "ReLU"
  bottom: "inception_3b/3x3_reduce"
  top: "inception_3b/3x3_reduce"
}
layer {
  name: "inception_3b/3x3"
  type: "Convolution"
  bottom: "inception_3b/3x3_reduce"
  top: "inception_3b/3x3"
  param {
    lr_mult: 1
    decay_mult: 1
  }
  param {
    lr_mult: 2
    decay_mult: 0
  }
  convolution_param {
    num_output: 192
    pad: 1
    kernel_size: 3
    weight_filler {
      type: "xavier"
    }
    bias_filler {
      type: "constant"
      value: 0.2
    }
  }
}
layer {
  name: "inception_3b/relu_3x3"
  type: "ReLU"
  bottom: "inception_3b/3x3"
  top: "inception_3b/3x3"
}
layer {
  name: "inception_3b/5x5_reduce"
  type: "Convolution"
  bottom: "inception_3a/output"
  top: "inception_3b/5x5_reduce"
  param {
    lr_mult: 1
    decay_mult: 1
  }
  param {
    lr_mult: 2
    decay_mult: 0
  }
  convolution_param {
    num_output: 32
    kernel_size: 1
    weight_filler {
      type: "xavier"
    }
    bias_filler {
      type: "constant"
      value: 0.2
    }
  }
}
layer {
  name: "inception_3b/relu_5x5_reduce"
  type: "ReLU"
  bottom: "inception_3b/5x5_reduce"
  top: "inception_3b/5x5_reduce"
}
layer {
  name: "inception_3b/5x5"
  type: "Convolution"
  bottom: "inception_3b/5x5_reduce"
  top: "inception_3b/5x5"
  param {
    lr_mult: 1
    decay_mult: 1
  }
  param {
    lr_mult: 2
    decay_mult: 0
  }
  convolution_param {
    num_output: 96
    pad: 2
    kernel_size: 5
    weight_filler {
      type: "xavier"
    }
    bias_filler {
      type: "constant"
      value: 0.2
    }
  }
}
layer {
  name: "inception_3b/relu_5x5"
  type: "ReLU"
  bottom: "inception_3b/5x5"
  top: "inception_3b/5x5"
}
layer {
  name: "inception_3b/pool"
  type: "Pooling"
  bottom: "inception_3a/output"
  top: "inception_3b/pool"
  pooling_param {
    pool: MAX
    kernel_size: 3
    stride: 1
    pad: 1
  }
}
layer {
  name: "inception_3b/pool_proj"
  type: "Convolution"
  bottom: "inception_3b/pool"
  top: "inception_3b/pool_proj"
  param {
    lr_mult: 1
    decay_mult: 1
  }
  param {
    lr_mult: 2
    decay_mult: 0
  }
  convolution_param {
    num_output: 64
    kernel_size: 1
    weight_filler {
      type: "xavier"
    }
    bias_filler {
      type: "constant"
      value: 0.2
    }
  }
}
layer {
  name: "inception_3b/relu_pool_proj"
  type: "ReLU"
  bottom: "inception_3b/pool_proj"
  top: "inception_3b/pool_proj"
}
layer {
  name: "inception_3b/output"
  type: "Concat"
  bottom: "inception_3b/1x1"
  bottom: "inception_3b/3x3"
  bottom: "inception_3b/5x5"
  bottom: "inception_3b/pool_proj"
  top: "inception_3b/output"
}
layer {
  name: "pool3/3x3_s2"
  type: "Pooling"
  bottom: "inception_3b/output"
  top: "pool3/3x3_s2"
  pooling_param {
    pool: MAX
    kernel_size: 3
    stride: 2
  }
}
layer {
  name: "inception_4a/1x1"
  type: "Convolution"
  bottom: "pool3/3x3_s2"
  top: "inception_4a/1x1"
  param {
    lr_mult: 1
    decay_mult: 1
  }
  param {
    lr_mult: 2
    decay_mult: 0
  }
  convolution_param {
    num_output: 192
    kernel_size: 1
    weight_filler {
      type: "xavier"
    }
    bias_filler {
      type: "constant"
      value: 0.2
    }
  }
}
layer {
  name: "inception_4a/relu_1x1"
  type: "ReLU"
  bottom: "inception_4a/1x1"
  top: "inception_4a/1x1"
}
layer {
  name: "inception_4a/3x3_reduce"
  type: "Convolution"
  bottom: "pool3/3x3_s2"
  top: "inception_4a/3x3_reduce"
  param {
    lr_mult: 1
    decay_mult: 1
  }
  param {
    lr_mult: 2
    decay_mult: 0
  }
  convolution_param {
    num_output: 96
    kernel_size: 1
    weight_filler {
      type: "xavier"
    }
    bias_filler {
      type: "constant"
      value: 0.2
    }
  }
}
layer {
  name: "inception_4a/relu_3x3_reduce"
  type: "ReLU"
  bottom: "inception_4a/3x3_reduce"
  top: "inception_4a/3x3_reduce"
}
layer {
  name: "inception_4a/3x3"
  type: "Convolution"
  bottom: "inception_4a/3x3_reduce"
  top: "inception_4a/3x3"
  param {
    lr_mult: 1
    decay_mult: 1
  }
  param {
    lr_mult: 2
    decay_mult: 0
  }
  convolution_param {
    num_output: 208
    pad: 1
    kernel_size: 3
    weight_filler {
      type: "xavier"
    }
    bias_filler {
      type: "constant"
      value: 0.2
    }
  }
}
layer {
  name: "inception_4a/relu_3x3"
  type: "ReLU"
  bottom: "inception_4a/3x3"
  top: "inception_4a/3x3"
}
layer {
  name: "inception_4a/5x5_reduce"
  type: "Convolution"
  bottom: "pool3/3x3_s2"
  top: "inception_4a/5x5_reduce"
  param {
    lr_mult: 1
    decay_mult: 1
  }
  param {
    lr_mult: 2
    decay_mult: 0
  }
  convolution_param {
    num_output: 16
    kernel_size: 1
    weight_filler {
      type: "xavier"
    }
    bias_filler {
      type: "constant"
      value: 0.2
    }
  }
}
layer {
  name: "inception_4a/relu_5x5_reduce"
  type: "ReLU"
  bottom: "inception_4a/5x5_reduce"
  top: "inception_4a/5x5_reduce"
}
layer {
  name: "inception_4a/5x5"
  type: "Convolution"
  bottom: "inception_4a/5x5_reduce"
  top: "inception_4a/5x5"
  param {
    lr_mult: 1
    decay_mult: 1
  }
  param {
    lr_mult: 2
    decay_mult: 0
  }
  convolution_param {
    num_output: 48
    pad: 2
    kernel_size: 5
    weight_filler {
      type: "xavier"
    }
    bias_filler {
      type: "constant"
      value: 0.2
    }
  }
}
layer {
  name: "inception_4a/relu_5x5"
  type: "ReLU"
  bottom: "inception_4a/5x5"
  top: "inception_4a/5x5"
}
layer {
  name: "inception_4a/pool"
  type: "Pooling"
  bottom: "pool3/3x3_s2"
  top: "inception_4a/pool"
  pooling_param {
    pool: MAX
    kernel_size: 3
    stride: 1
    pad: 1
  }
}
layer {
  name: "inception_4a/pool_proj"
  type: "Convolution"
  bottom: "inception_4a/pool"
  top: "inception_4a/pool_proj"
  param {
    lr_mult: 1
    decay_mult: 1
  }
  param {
    lr_mult: 2
    decay_mult: 0
  }
  convolution_param {
    num_output: 64
    kernel_size: 1
    weight_filler {
      type: "xavier"
    }
    bias_filler {
      type: "constant"
      value: 0.2
    }
  }
}
layer {
  name: "inception_4a/relu_pool_proj"
  type: "ReLU"
  bottom: "inception_4a/pool_proj"
  top: "inception_4a/pool_proj"
}
layer {
  name: "inception_4a/output"
  type: "Concat"
  bottom: "inception_4a/1x1"
  bottom: "inception_4a/3x3"
  bottom: "inception_4a/5x5"
  bottom: "inception_4a/pool_proj"
  top: "inception_4a/output"
}
layer {
  name: "loss1/ave_pool"
  type: "Pooling"
  bottom: "inception_4a/output"
  top: "loss1/ave_pool"
  pooling_param {
    pool: AVE
    kernel_size: 5
    stride: 3
  }
}
layer {
  name: "loss1/conv"
  type: "Convolution"
  bottom: "loss1/ave_pool"
  top: "loss1/conv"
  param {
    lr_mult: 1
    decay_mult: 1
  }
  param {
    lr_mult: 2
    decay_mult: 0
  }
  convolution_param {
    num_output: 128
    kernel_size: 1
    weight_filler {
      type: "xavier"
    }
    bias_filler {
      type: "constant"
      value: 0.2
    }
  }
}
layer {
  name: "loss1/relu_conv"
  type: "ReLU"
  bottom: "loss1/conv"
  top: "loss1/conv"
}
layer {
  name: "loss1/fc"
  type: "InnerProduct"
  bottom: "loss1/conv"
  top: "loss1/fc"
  param {
    lr_mult: 1
    decay_mult: 1
  }
  param {
    lr_mult: 2
    decay_mult: 0
  }
  inner_product_param {
    num_output: 1024
    weight_filler {
      type: "xavier"
    }
    bias_filler {
      type: "constant"
      value: 0.2
    }
  }
}
layer {
  name: "loss1/relu_fc"
  type: "ReLU"
  bottom: "loss1/fc"
  top: "loss1/fc"
}
layer {
  name: "loss1/drop_fc"
  type: "Dropout"
  bottom: "loss1/fc"
  top: "loss1/fc"
  dropout_param {
    dropout_ratio: 0.7
  }
}
layer {
  name: "loss1/classifier_kaggle"
  type: "InnerProduct"
  bottom: "loss1/fc"
  top: "loss1/classifier_kaggle"
  param {
    lr_mult: 1
    decay_mult: 1
  }
  param {
    lr_mult: 2
    decay_mult: 0
  }
  inner_product_param {
    num_output: 447
    weight_filler {
      type: "xavier"
    }
    bias_filler {
      type: "constant"
      value: 0
    }
  }
}
layer {
  name: "loss1/loss"
  type: "SoftmaxWithLoss"
  bottom: "loss1/classifier_kaggle"
  bottom: "label"
  top: "loss1/loss1"
  loss_weight: 0.3
}
layer {
  name: "loss1/top-1"
  type: "Accuracy"
  bottom: "loss1/classifier_kaggle"
  bottom: "label"
  top: "loss1/top-1"
  include {
    phase: TEST
  }
}
layer {
  name: "loss1/top-5"
  type: "Accuracy"
  bottom: "loss1/classifier_kaggle"
  bottom: "label"
  top: "loss1/top-5"
  include {
    phase: TEST
  }
  accuracy_param {
    top_k: 5
  }
}
layer {
  name: "inception_4b/1x1"
  type: "Convolution"
  bottom: "inception_4a/output"
  top: "inception_4b/1x1"
  param {
    lr_mult: 1
    decay_mult: 1
  }
  param {
    lr_mult: 2
    decay_mult: 0
  }
  convolution_param {
    num_output: 160
    kernel_size: 1
    weight_filler {
      type: "xavier"
    }
    bias_filler {
      type: "constant"
      value: 0.2
    }
  }
}
layer {
  name: "inception_4b/relu_1x1"
  type: "ReLU"
  bottom: "inception_4b/1x1"
  top: "inception_4b/1x1"
}
layer {
  name: "inception_4b/3x3_reduce"
  type: "Convolution"
  bottom: "inception_4a/output"
  top: "inception_4b/3x3_reduce"
  param {
    lr_mult: 1
    decay_mult: 1
  }
  param {
    lr_mult: 2
    decay_mult: 0
  }
  convolution_param {
    num_output: 112
    kernel_size: 1
    weight_filler {
      type: "xavier"
    }
    bias_filler {
      type: "constant"
      value: 0.2
    }
  }
}
layer {
  name: "inception_4b/relu_3x3_reduce"
  type: "ReLU"
  bottom: "inception_4b/3x3_reduce"
  top: "inception_4b/3x3_reduce"
}
layer {
  name: "inception_4b/3x3"
  type: "Convolution"
  bottom: "inception_4b/3x3_reduce"
  top: "inception_4b/3x3"
  param {
    lr_mult: 1
    decay_mult: 1
  }
  param {
    lr_mult: 2
    decay_mult: 0
  }
  convolution_param {
    num_output: 224
    pad: 1
    kernel_size: 3
    weight_filler {
      type: "xavier"
    }
    bias_filler {
      type: "constant"
      value: 0.2
    }
  }
}
layer {
  name: "inception_4b/relu_3x3"
  type: "ReLU"
  bottom: "inception_4b/3x3"
  top: "inception_4b/3x3"
}
layer {
  name: "inception_4b/5x5_reduce"
  type: "Convolution"
  bottom: "inception_4a/output"
  top: "inception_4b/5x5_reduce"
  param {
    lr_mult: 1
    decay_mult: 1
  }
  param {
    lr_mult: 2
    decay_mult: 0
  }
  convolution_param {
    num_output: 24
    kernel_size: 1
    weight_filler {
      type: "xavier"
    }
    bias_filler {
      type: "constant"
      value: 0.2
    }
  }
}
layer {
  name: "inception_4b/relu_5x5_reduce"
  type: "ReLU"
  bottom: "inception_4b/5x5_reduce"
  top: "inception_4b/5x5_reduce"
}
layer {
  name: "inception_4b/5x5"
  type: "Convolution"
  bottom: "inception_4b/5x5_reduce"
  top: "inception_4b/5x5"
  param {
    lr_mult: 1
    decay_mult: 1
  }
  param {
    lr_mult: 2
    decay_mult: 0
  }
  convolution_param {
    num_output: 64
    pad: 2
    kernel_size: 5
    weight_filler {
      type: "xavier"
    }
    bias_filler {
      type: "constant"
      value: 0.2
    }
  }
}
layer {
  name: "inception_4b/relu_5x5"
  type: "ReLU"
  bottom: "inception_4b/5x5"
  top: "inception_4b/5x5"
}
layer {
  name: "inception_4b/pool"
  type: "Pooling"
  bottom: "inception_4a/output"
  top: "inception_4b/pool"
  pooling_param {
    pool: MAX
    kernel_size: 3
    stride: 1
    pad: 1
  }
}
layer {
  name: "inception_4b/pool_proj"
  type: "Convolution"
  bottom: "inception_4b/pool"
  top: "inception_4b/pool_proj"
  param {
    lr_mult: 1
    decay_mult: 1
  }
  param {
    lr_mult: 2
    decay_mult: 0
  }
  convolution_param {
    num_output: 64
    kernel_size: 1
    weight_filler {
      type: "xavier"
    }
    bias_filler {
      type: "constant"
      value: 0.2
    }
  }
}
layer {
  name: "inception_4b/relu_pool_proj"
  type: "ReLU"
  bottom: "inception_4b/pool_proj"
  top: "inception_4b/pool_proj"
}
layer {
  name: "inception_4b/output"
  type: "Concat"
  bottom: "inception_4b/1x1"
  bottom: "inception_4b/3x3"
  bottom: "inception_4b/5x5"
  bottom: "inception_4b/pool_proj"
  top: "inception_4b/output"
}
layer {
  name: "inception_4c/1x1"
  type: "Convolution"
  bottom: "inception_4b/output"
  top: "inception_4c/1x1"
  param {
    lr_mult: 1
    decay_mult: 1
  }
  param {
    lr_mult: 2
    decay_mult: 0
  }
  convolution_param {
    num_output: 128
    kernel_size: 1
    weight_filler {
      type: "xavier"
    }
    bias_filler {
      type: "constant"
      value: 0.2
    }
  }
}
layer {
  name: "inception_4c/relu_1x1"
  type: "ReLU"
  bottom: "inception_4c/1x1"
  top: "inception_4c/1x1"
}
layer {
  name: "inception_4c/3x3_reduce"
  type: "Convolution"
  bottom: "inception_4b/output"
  top: "inception_4c/3x3_reduce"
  param {
    lr_mult: 1
    decay_mult: 1
  }
  param {
    lr_mult: 2
    decay_mult: 0
  }
  convolution_param {
    num_output: 128
    kernel_size: 1
    weight_filler {
      type: "xavier"
    }
    bias_filler {
      type: "constant"
      value: 0.2
    }
  }
}
layer {
  name: "inception_4c/relu_3x3_reduce"
  type: "ReLU"
  bottom: "inception_4c/3x3_reduce"
  top: "inception_4c/3x3_reduce"
}
layer {
  name: "inception_4c/3x3"
  type: "Convolution"
  bottom: "inception_4c/3x3_reduce"
  top: "inception_4c/3x3"
  param {
    lr_mult: 1
    decay_mult: 1
  }
  param {
    lr_mult: 2
    decay_mult: 0
  }
  convolution_param {
    num_output: 256
    pad: 1
    kernel_size: 3
    weight_filler {
      type: "xavier"
    }
    bias_filler {
      type: "constant"
      value: 0.2
    }
  }
}
layer {
  name: "inception_4c/relu_3x3"
  type: "ReLU"
  bottom: "inception_4c/3x3"
  top: "inception_4c/3x3"
}
layer {
  name: "inception_4c/5x5_reduce"
  type: "Convolution"
  bottom: "inception_4b/output"
  top: "inception_4c/5x5_reduce"
  param {
    lr_mult: 1
    decay_mult: 1
  }
  param {
    lr_mult: 2
    decay_mult: 0
  }
  convolution_param {
    num_output: 24
    kernel_size: 1
    weight_filler {
      type: "xavier"
    }
    bias_filler {
      type: "constant"
      value: 0.2
    }
  }
}
layer {
  name: "inception_4c/relu_5x5_reduce"
  type: "ReLU"
  bottom: "inception_4c/5x5_reduce"
  top: "inception_4c/5x5_reduce"
}
layer {
  name: "inception_4c/5x5"
  type: "Convolution"
  bottom: "inception_4c/5x5_reduce"
  top: "inception_4c/5x5"
  param {
    lr_mult: 1
    decay_mult: 1
  }
  param {
    lr_mult: 2
    decay_mult: 0
  }
  convolution_param {
    num_output: 64
    pad: 2
    kernel_size: 5
    weight_filler {
      type: "xavier"
    }
    bias_filler {
      type: "constant"
      value: 0.2
    }
  }
}
layer {
  name: "inception_4c/relu_5x5"
  type: "ReLU"
  bottom: "inception_4c/5x5"
  top: "inception_4c/5x5"
}
layer {
  name: "inception_4c/pool"
  type: "Pooling"
  bottom: "inception_4b/output"
  top: "inception_4c/pool"
  pooling_param {
    pool: MAX
    kernel_size: 3
    stride: 1
    pad: 1
  }
}
layer {
  name: "inception_4c/pool_proj"
  type: "Convolution"
  bottom: "inception_4c/pool"
  top: "inception_4c/pool_proj"
  param {
    lr_mult: 1
    decay_mult: 1
  }
  param {
    lr_mult: 2
    decay_mult: 0
  }
  convolution_param {
    num_output: 64
    kernel_size: 1
    weight_filler {
      type: "xavier"
    }
    bias_filler {
      type: "constant"
      value: 0.2
    }
  }
}
layer {
  name: "inception_4c/relu_pool_proj"
  type: "ReLU"
  bottom: "inception_4c/pool_proj"
  top: "inception_4c/pool_proj"
}
layer {
  name: "inception_4c/output"
  type: "Concat"
  bottom: "inception_4c/1x1"
  bottom: "inception_4c/3x3"
  bottom: "inception_4c/5x5"
  bottom: "inception_4c/pool_proj"
  top: "inception_4c/output"
}
layer {
  name: "inception_4d/1x1"
  type: "Convolution"
  bottom: "inception_4c/output"
  top: "inception_4d/1x1"
  param {
    lr_mult: 1
    decay_mult: 1
  }
  param {
    lr_mult: 2
    decay_mult: 0
  }
  convolution_param {
    num_output: 112
    kernel_size: 1
    weight_filler {
      type: "xavier"
    }
    bias_filler {
      type: "constant"
      value: 0.2
    }
  }
}
layer {
  name: "inception_4d/relu_1x1"
  type: "ReLU"
  bottom: "inception_4d/1x1"
  top: "inception_4d/1x1"
}
layer {
  name: "inception_4d/3x3_reduce"
  type: "Convolution"
  bottom: "inception_4c/output"
  top: "inception_4d/3x3_reduce"
  param {
    lr_mult: 1
    decay_mult: 1
  }
  param {
    lr_mult: 2
    decay_mult: 0
  }
  convolution_param {
    num_output: 144
    kernel_size: 1
    weight_filler {
      type: "xavier"
    }
    bias_filler {
      type: "constant"
      value: 0.2
    }
  }
}
layer {
  name: "inception_4d/relu_3x3_reduce"
  type: "ReLU"
  bottom: "inception_4d/3x3_reduce"
  top: "inception_4d/3x3_reduce"
}
layer {
  name: "inception_4d/3x3"
  type: "Convolution"
  bottom: "inception_4d/3x3_reduce"
  top: "inception_4d/3x3"
  param {
    lr_mult: 1
    decay_mult: 1
  }
  param {
    lr_mult: 2
    decay_mult: 0
  }
  convolution_param {
    num_output: 288
    pad: 1
    kernel_size: 3
    weight_filler {
      type: "xavier"
    }
    bias_filler {
      type: "constant"
      value: 0.2
    }
  }
}
layer {
  name: "inception_4d/relu_3x3"
  type: "ReLU"
  bottom: "inception_4d/3x3"
  top: "inception_4d/3x3"
}
layer {
  name: "inception_4d/5x5_reduce"
  type: "Convolution"
  bottom: "inception_4c/output"
  top: "inception_4d/5x5_reduce"
  param {
    lr_mult: 1
    decay_mult: 1
  }
  param {
    lr_mult: 2
    decay_mult: 0
  }
  convolution_param {
    num_output: 32
    kernel_size: 1
    weight_filler {
      type: "xavier"
    }
    bias_filler {
      type: "constant"
      value: 0.2
    }
  }
}
layer {
  name: "inception_4d/relu_5x5_reduce"
  type: "ReLU"
  bottom: "inception_4d/5x5_reduce"
  top: "inception_4d/5x5_reduce"
}
layer {
  name: "inception_4d/5x5"
  type: "Convolution"
  bottom: "inception_4d/5x5_reduce"
  top: "inception_4d/5x5"
  param {
    lr_mult: 1
    decay_mult: 1
  }
  param {
    lr_mult: 2
    decay_mult: 0
  }
  convolution_param {
    num_output: 64
    pad: 2
    kernel_size: 5
    weight_filler {
      type: "xavier"
    }
    bias_filler {
      type: "constant"
      value: 0.2
    }
  }
}
layer {
  name: "inception_4d/relu_5x5"
  type: "ReLU"
  bottom: "inception_4d/5x5"
  top: "inception_4d/5x5"
}
layer {
  name: "inception_4d/pool"
  type: "Pooling"
  bottom: "inception_4c/output"
  top: "inception_4d/pool"
  pooling_param {
    pool: MAX
    kernel_size: 3
    stride: 1
    pad: 1
  }
}
layer {
  name: "inception_4d/pool_proj"
  type: "Convolution"
  bottom: "inception_4d/pool"
  top: "inception_4d/pool_proj"
  param {
    lr_mult: 1
    decay_mult: 1
  }
  param {
    lr_mult: 2
    decay_mult: 0
  }
  convolution_param {
    num_output: 64
    kernel_size: 1
    weight_filler {
      type: "xavier"
    }
    bias_filler {
      type: "constant"
      value: 0.2
    }
  }
}
layer {
  name: "inception_4d/relu_pool_proj"
  type: "ReLU"
  bottom: "inception_4d/pool_proj"
  top: "inception_4d/pool_proj"
}
layer {
  name: "inception_4d/output"
  type: "Concat"
  bottom: "inception_4d/1x1"
  bottom: "inception_4d/3x3"
  bottom: "inception_4d/5x5"
  bottom: "inception_4d/pool_proj"
  top: "inception_4d/output"
}
layer {
  name: "loss2/ave_pool"
  type: "Pooling"
  bottom: "inception_4d/output"
  top: "loss2/ave_pool"
  pooling_param {
    pool: AVE
    kernel_size: 5
    stride: 3
  }
}
layer {
…
I0107 16:34:02.845149  9729 net.cpp:84] Creating Layer inception_4c/1x1
I0107 16:34:02.845154  9729 net.cpp:380] inception_4c/1x1 <- inception_4b/output_inception_4b/output_0_split_0
I0107 16:34:02.845163  9729 net.cpp:338] inception_4c/1x1 -> inception_4c/1x1
I0107 16:34:02.845172  9729 net.cpp:113] Setting up inception_4c/1x1
I0107 16:34:02.846386  9729 net.cpp:120] Top shape: 50 128 14 14 (1254400)
I0107 16:34:02.846405  9729 layer_factory.hpp:74] Creating layer inception_4c/relu_1x1
I0107 16:34:02.846411  9729 net.cpp:84] Creating Layer inception_4c/relu_1x1
I0107 16:34:02.846417  9729 net.cpp:380] inception_4c/relu_1x1 <- inception_4c/1x1
I0107 16:34:02.846429  9729 net.cpp:327] inception_4c/relu_1x1 -> inception_4c/1x1 (in-place)
I0107 16:34:02.846446  9729 net.cpp:113] Setting up inception_4c/relu_1x1
I0107 16:34:02.846710  9729 net.cpp:120] Top shape: 50 128 14 14 (1254400)
I0107 16:34:02.846721  9729 layer_factory.hpp:74] Creating layer inception_4c/3x3_reduce
I0107 16:34:02.846732  9729 net.cpp:84] Creating Layer inception_4c/3x3_reduce
I0107 16:34:02.846738  9729 net.cpp:380] inception_4c/3x3_reduce <- inception_4b/output_inception_4b/output_0_split_1
I0107 16:34:02.846747  9729 net.cpp:338] inception_4c/3x3_reduce -> inception_4c/3x3_reduce
I0107 16:34:02.846756  9729 net.cpp:113] Setting up inception_4c/3x3_reduce
I0107 16:34:02.847965  9729 net.cpp:120] Top shape: 50 128 14 14 (1254400)
I0107 16:34:02.847981  9729 layer_factory.hpp:74] Creating layer inception_4c/relu_3x3_reduce
I0107 16:34:02.847990  9729 net.cpp:84] Creating Layer inception_4c/relu_3x3_reduce
I0107 16:34:02.847996  9729 net.cpp:380] inception_4c/relu_3x3_reduce <- inception_4c/3x3_reduce
I0107 16:34:02.848003  9729 net.cpp:327] inception_4c/relu_3x3_reduce -> inception_4c/3x3_reduce (in-place)
I0107 16:34:02.848011  9729 net.cpp:113] Setting up inception_4c/relu_3x3_reduce
I0107 16:34:02.848085  9729 net.cpp:120] Top shape: 50 128 14 14 (1254400)
I0107 16:34:02.848091  9729 layer_factory.hpp:74] Creating layer inception_4c/3x3
I0107 16:34:02.848099  9729 net.cpp:84] Creating Layer inception_4c/3x3
I0107 16:34:02.848105  9729 net.cpp:380] inception_4c/3x3 <- inception_4c/3x3_reduce
I0107 16:34:02.848114  9729 net.cpp:338] inception_4c/3x3 -> inception_4c/3x3
I0107 16:34:02.848121  9729 net.cpp:113] Setting up inception_4c/3x3
I0107 16:34:02.851963  9729 net.cpp:120] Top shape: 50 256 14 14 (2508800)
I0107 16:34:02.851991  9729 layer_factory.hpp:74] Creating layer inception_4c/relu_3x3
I0107 16:34:02.851999  9729 net.cpp:84] Creating Layer inception_4c/relu_3x3
I0107 16:34:02.852005  9729 net.cpp:380] inception_4c/relu_3x3 <- inception_4c/3x3
I0107 16:34:02.852012  9729 net.cpp:327] inception_4c/relu_3x3 -> inception_4c/3x3 (in-place)
I0107 16:34:02.852020  9729 net.cpp:113] Setting up inception_4c/relu_3x3
I0107 16:34:02.852092  9729 net.cpp:120] Top shape: 50 256 14 14 (2508800)
I0107 16:34:02.852099  9729 layer_factory.hpp:74] Creating layer inception_4c/5x5_reduce
I0107 16:34:02.852108  9729 net.cpp:84] Creating Layer inception_4c/5x5_reduce
I0107 16:34:02.852114  9729 net.cpp:380] inception_4c/5x5_reduce <- inception_4b/output_inception_4b/output_0_split_2
I0107 16:34:02.852123  9729 net.cpp:338] inception_4c/5x5_reduce -> inception_4c/5x5_reduce
I0107 16:34:02.852131  9729 net.cpp:113] Setting up inception_4c/5x5_reduce
I0107 16:34:02.852695  9729 net.cpp:120] Top shape: 50 24 14 14 (235200)
I0107 16:34:02.852711  9729 layer_factory.hpp:74] Creating layer inception_4c/relu_5x5_reduce
I0107 16:34:02.852720  9729 net.cpp:84] Creating Layer inception_4c/relu_5x5_reduce
I0107 16:34:02.852725  9729 net.cpp:380] inception_4c/relu_5x5_reduce <- inception_4c/5x5_reduce
I0107 16:34:02.852732  9729 net.cpp:327] inception_4c/relu_5x5_reduce -> inception_4c/5x5_reduce (in-place)
I0107 16:34:02.852741  9729 net.cpp:113] Setting up inception_4c/relu_5x5_reduce
I0107 16:34:02.852996  9729 net.cpp:120] Top shape: 50 24 14 14 (235200)
I0107 16:34:02.853008  9729 layer_factory.hpp:74] Creating layer inception_4c/5x5
I0107 16:34:02.853016  9729 net.cpp:84] Creating Layer inception_4c/5x5
I0107 16:34:02.853023  9729 net.cpp:380] inception_4c/5x5 <- inception_4c/5x5_reduce
I0107 16:34:02.853031  9729 net.cpp:338] inception_4c/5x5 -> inception_4c/5x5
I0107 16:34:02.853040  9729 net.cpp:113] Setting up inception_4c/5x5
I0107 16:34:02.853940  9729 net.cpp:120] Top shape: 50 64 14 14 (627200)
I0107 16:34:02.853956  9729 layer_factory.hpp:74] Creating layer inception_4c/relu_5x5
I0107 16:34:02.853965  9729 net.cpp:84] Creating Layer inception_4c/relu_5x5
I0107 16:34:02.853971  9729 net.cpp:380] inception_4c/relu_5x5 <- inception_4c/5x5
I0107 16:34:02.853978  9729 net.cpp:327] inception_4c/relu_5x5 -> inception_4c/5x5 (in-place)
I0107 16:34:02.853991  9729 net.cpp:113] Setting up inception_4c/relu_5x5
I0107 16:34:02.854073  9729 net.cpp:120] Top shape: 50 64 14 14 (627200)
I0107 16:34:02.854079  9729 layer_factory.hpp:74] Creating layer inception_4c/pool
I0107 16:34:02.854085  9729 layer_factory.cpp:56] CUDNN does not support padding or multiple tops. Using Caffe's own pooling layer.
I0107 16:34:02.854092  9729 net.cpp:84] Creating Layer inception_4c/pool
I0107 16:34:02.854097  9729 net.cpp:380] inception_4c/pool <- inception_4b/output_inception_4b/output_0_split_3
I0107 16:34:02.854104  9729 net.cpp:338] inception_4c/pool -> inception_4c/pool
I0107 16:34:02.854112  9729 net.cpp:113] Setting up inception_4c/pool
I0107 16:34:02.854121  9729 net.cpp:120] Top shape: 50 512 14 14 (5017600)
I0107 16:34:02.854125  9729 layer_factory.hpp:74] Creating layer inception_4c/pool_proj
I0107 16:34:02.854135  9729 net.cpp:84] Creating Layer inception_4c/pool_proj
I0107 16:34:02.854140  9729 net.cpp:380] inception_4c/pool_proj <- inception_4c/pool
I0107 16:34:02.854147  9729 net.cpp:338] inception_4c/pool_proj -> inception_4c/pool_proj
I0107 16:34:02.854156  9729 net.cpp:113] Setting up inception_4c/pool_proj
I0107 16:34:02.854989  9729 net.cpp:120] Top shape: 50 64 14 14 (627200)
I0107 16:34:02.855005  9729 layer_factory.hpp:74] Creating layer inception_4c/relu_pool_proj
I0107 16:34:02.855015  9729 net.cpp:84] Creating Layer inception_4c/relu_pool_proj
I0107 16:34:02.855020  9729 net.cpp:380] inception_4c/relu_pool_proj <- inception_4c/pool_proj
I0107 16:34:02.855027  9729 net.cpp:327] inception_4c/relu_pool_proj -> inception_4c/pool_proj (in-place)
I0107 16:34:02.855036  9729 net.cpp:113] Setting up inception_4c/relu_pool_proj
I0107 16:34:02.855104  9729 net.cpp:120] Top shape: 50 64 14 14 (627200)
I0107 16:34:02.855110  9729 layer_factory.hpp:74] Creating layer inception_4c/output
I0107 16:34:02.855119  9729 net.cpp:84] Creating Layer inception_4c/output
I0107 16:34:02.855124  9729 net.cpp:380] inception_4c/output <- inception_4c/1x1
I0107 16:34:02.855130  9729 net.cpp:380] inception_4c/output <- inception_4c/3x3
I0107 16:34:02.855136  9729 net.cpp:380] inception_4c/output <- inception_4c/5x5
I0107 16:34:02.855141  9729 net.cpp:380] inception_4c/output <- inception_4c/pool_proj
I0107 16:34:02.855147  9729 net.cpp:338] inception_4c/output -> inception_4c/output
I0107 16:34:02.855154  9729 net.cpp:113] Setting up inception_4c/output
I0107 16:34:02.855162  9729 net.cpp:120] Top shape: 50 512 14 14 (5017600)
I0107 16:34:02.855167  9729 layer_factory.hpp:74] Creating layer inception_4c/output_inception_4c/output_0_split
I0107 16:34:02.855173  9729 net.cpp:84] Creating Layer inception_4c/output_inception_4c/output_0_split
I0107 16:34:02.855178  9729 net.cpp:380] inception_4c/output_inception_4c/output_0_split <- inception_4c/output
I0107 16:34:02.855185  9729 net.cpp:338] inception_4c/output_inception_4c/output_0_split -> inception_4c/output_inception_4c/output_0_split_0
I0107 16:34:02.855195  9729 net.cpp:338] inception_4c/output_inception_4c/output_0_split -> inception_4c/output_inception_4c/output_0_split_1
I0107 16:34:02.855201  9729 net.cpp:338] inception_4c/output_inception_4c/output_0_split -> inception_4c/output_inception_4c/output_0_split_2
I0107 16:34:02.855208  9729 net.cpp:338] inception_4c/output_inception_4c/output_0_split -> inception_4c/output_inception_4c/output_0_split_3
I0107 16:34:02.855214  9729 net.cpp:113] Setting up inception_4c/output_inception_4c/output_0_split
I0107 16:34:02.855221  9729 net.cpp:120] Top shape: 50 512 14 14 (5017600)
I0107 16:34:02.855227  9729 net.cpp:120] Top shape: 50 512 14 14 (5017600)
I0107 16:34:02.855232  9729 net.cpp:120] Top shape: 50 512 14 14 (5017600)
I0107 16:34:02.855237  9729 net.cpp:120] Top shape: 50 512 14 14 (5017600)
I0107 16:34:02.855242  9729 layer_factory.hpp:74] Creating layer inception_4d/1x1
I0107 16:34:02.855252  9729 net.cpp:84] Creating Layer inception_4d/1x1
I0107 16:34:02.855257  9729 net.cpp:380] inception_4d/1x1 <- inception_4c/output_inception_4c/output_0_split_0
I0107 16:34:02.855268  9729 net.cpp:338] inception_4d/1x1 -> inception_4d/1x1
I0107 16:34:02.855285  9729 net.cpp:113] Setting up inception_4d/1x1
I0107 16:34:02.856381  9729 net.cpp:120] Top shape: 50 112 14 14 (1097600)
I0107 16:34:02.856397  9729 layer_factory.hpp:74] Creating layer inception_4d/relu_1x1
I0107 16:34:02.856406  9729 net.cpp:84] Creating Layer inception_4d/relu_1x1
I0107 16:34:02.856412  9729 net.cpp:380] inception_4d/relu_1x1 <- inception_4d/1x1
I0107 16:34:02.856420  9729 net.cpp:327] inception_4d/relu_1x1 -> inception_4d/1x1 (in-place)
I0107 16:34:02.856426  9729 net.cpp:113] Setting up inception_4d/relu_1x1
I0107 16:34:02.856498  9729 net.cpp:120] Top shape: 50 112 14 14 (1097600)
I0107 16:34:02.856505  9729 layer_factory.hpp:74] Creating layer inception_4d/3x3_reduce
I0107 16:34:02.856530  9729 net.cpp:84] Creating Layer inception_4d/3x3_reduce
I0107 16:34:02.856536  9729 net.cpp:380] inception_4d/3x3_reduce <- inception_4c/output_inception_4c/output_0_split_1
I0107 16:34:02.856544  9729 net.cpp:338] inception_4d/3x3_reduce -> inception_4d/3x3_reduce
I0107 16:34:02.856552  9729 net.cpp:113] Setting up inception_4d/3x3_reduce
I0107 16:34:02.857841  9729 net.cpp:120] Top shape: 50 144 14 14 (1411200)
I0107 16:34:02.857858  9729 layer_factory.hpp:74] Creating layer inception_4d/relu_3x3_reduce
I0107 16:34:02.857870  9729 net.cpp:84] Creating Layer inception_4d/relu_3x3_reduce
I0107 16:34:02.857877  9729 net.cpp:380] inception_4d/relu_3x3_reduce <- inception_4d/3x3_reduce
I0107 16:34:02.857884  9729 net.cpp:327] inception_4d/relu_3x3_reduce -> inception_4d/3x3_reduce (in-place)
I0107 16:34:02.857892  9729 net.cpp:113] Setting up inception_4d/relu_3x3_reduce
I0107 16:34:02.858157  9729 net.cpp:120] Top shape: 50 144 14 14 (1411200)
I0107 16:34:02.858170  9729 layer_factory.hpp:74] Creating layer inception_4d/3x3
I0107 16:34:02.858177  9729 net.cpp:84] Creating Layer inception_4d/3x3
I0107 16:34:02.858183  9729 net.cpp:380] inception_4d/3x3 <- inception_4d/3x3_reduce
I0107 16:34:02.858193  9729 net.cpp:338] inception_4d/3x3 -> inception_4d/3x3
I0107 16:34:02.858201  9729 net.cpp:113] Setting up inception_4d/3x3
I0107 16:34:02.862972  9729 net.cpp:120] Top shape: 50 288 14 14 (2822400)
I0107 16:34:02.862990  9729 layer_factory.hpp:74] Creating layer inception_4d/relu_3x3
I0107 16:34:02.862998  9729 net.cpp:84] Creating Layer inception_4d/relu_3x3
I0107 16:34:02.863003  9729 net.cpp:380] inception_4d/relu_3x3 <- inception_4d/3x3
I0107 16:34:02.863013  9729 net.cpp:327] inception_4d/relu_3x3 -> inception_4d/3x3 (in-place)
I0107 16:34:02.863020  9729 net.cpp:113] Setting up inception_4d/relu_3x3
I0107 16:34:02.863091  9729 net.cpp:120] Top shape: 50 288 14 14 (2822400)
I0107 16:34:02.863100  9729 layer_factory.hpp:74] Creating layer inception_4d/5x5_reduce
I0107 16:34:02.863109  9729 net.cpp:84] Creating Layer inception_4d/5x5_reduce
I0107 16:34:02.863114  9729 net.cpp:380] inception_4d/5x5_reduce <- inception_4c/output_inception_4c/output_0_split_2
I0107 16:34:02.863121  9729 net.cpp:338] inception_4d/5x5_reduce -> inception_4d/5x5_reduce
I0107 16:34:02.863129  9729 net.cpp:113] Setting up inception_4d/5x5_reduce
I0107 16:34:02.863780  9729 net.cpp:120] Top shape: 50 32 14 14 (313600)
I0107 16:34:02.863795  9729 layer_factory.hpp:74] Creating layer inception_4d/relu_5x5_reduce
I0107 16:34:02.863804  9729 net.cpp:84] Creating Layer inception_4d/relu_5x5_reduce
I0107 16:34:02.863811  9729 net.cpp:380] inception_4d/relu_5x5_reduce <- inception_4d/5x5_reduce
I0107 16:34:02.863817  9729 net.cpp:327] inception_4d/relu_5x5_reduce -> inception_4d/5x5_reduce (in-place)
I0107 16:34:02.863826  9729 net.cpp:113] Setting up inception_4d/relu_5x5_reduce
I0107 16:34:02.863898  9729 net.cpp:120] Top shape: 50 32 14 14 (313600)
I0107 16:34:02.863905  9729 layer_factory.hpp:74] Creating layer inception_4d/5x5
I0107 16:34:02.863914  9729 net.cpp:84] Creating Layer inception_4d/5x5
I0107 16:34:02.863920  9729 net.cpp:380] inception_4d/5x5 <- inception_4d/5x5_reduce
I0107 16:34:02.863927  9729 net.cpp:338] inception_4d/5x5 -> inception_4d/5x5
I0107 16:34:02.863942  9729 net.cpp:113] Setting up inception_4d/5x5
I0107 16:34:02.864964  9729 net.cpp:120] Top shape: 50 64 14 14 (627200)
I0107 16:34:02.864980  9729 layer_factory.hpp:74] Creating layer inception_4d/relu_5x5
I0107 16:34:02.864989  9729 net.cpp:84] Creating Layer inception_4d/relu_5x5
I0107 16:34:02.864995  9729 net.cpp:380] inception_4d/relu_5x5 <- inception_4d/5x5
I0107 16:34:02.865002  9729 net.cpp:327] inception_4d/relu_5x5 -> inception_4d/5x5 (in-place)
I0107 16:34:02.865010  9729 net.cpp:113] Setting up inception_4d/relu_5x5
I0107 16:34:02.865082  9729 net.cpp:120] Top shape: 50 64 14 14 (627200)
I0107 16:34:02.865087  9729 layer_factory.hpp:74] Creating layer inception_4d/pool
I0107 16:34:02.865093  9729 layer_factory.cpp:56] CUDNN does not support padding or multiple tops. Using Caffe's own pooling layer.
I0107 16:34:02.865099  9729 net.cpp:84] Creating Layer inception_4d/pool
I0107 16:34:02.865104  9729 net.cpp:380] inception_4d/pool <- inception_4c/output_inception_4c/output_0_split_3
I0107 16:34:02.865113  9729 net.cpp:338] inception_4d/pool -> inception_4d/pool
I0107 16:34:02.865120  9729 net.cpp:113] Setting up inception_4d/pool
I0107 16:34:02.865129  9729 net.cpp:120] Top shape: 50 512 14 14 (5017600)
I0107 16:34:02.865134  9729 layer_factory.hpp:74] Creating layer inception_4d/pool_proj
I0107 16:34:02.865144  9729 net.cpp:84] Creating Layer inception_4d/pool_proj
I0107 16:34:02.865149  9729 net.cpp:380] inception_4d/pool_proj <- inception_4d/pool
I0107 16:34:02.865156  9729 net.cpp:338] inception_4d/pool_proj -> inception_4d/pool_proj
I0107 16:34:02.865164  9729 net.cpp:113] Setting up inception_4d/pool_proj
I0107 16:34:02.865983  9729 net.cpp:120] Top shape: 50 64 14 14 (627200)
I0107 16:34:02.866000  9729 layer_factory.hpp:74] Creating layer inception_4d/relu_pool_proj
I0107 16:34:02.866008  9729 net.cpp:84] Creating Layer inception_4d/relu_pool_proj
I0107 16:34:02.866014  9729 net.cpp:380] inception_4d/relu_pool_proj <- inception_4d/pool_proj
I0107 16:34:02.866024  9729 net.cpp:327] inception_4d/relu_pool_proj -> inception_4d/pool_proj (in-place)
I0107 16:34:02.866031  9729 net.cpp:113] Setting up inception_4d/relu_pool_proj
I0107 16:34:02.866289  9729 net.cpp:120] Top shape: 50 64 14 14 (627200)
I0107 16:34:02.866302  9729 layer_factory.hpp:74] Creating layer inception_4d/output
I0107 16:34:02.866309  9729 net.cpp:84] Creating Layer inception_4d/output
I0107 16:34:02.866314  9729 net.cpp:380] inception_4d/output <- inception_4d/1x1
I0107 16:34:02.866322  9729 net.cpp:380] inception_4d/output <- inception_4d/3x3
I0107 16:34:02.866327  9729 net.cpp:380] inception_4d/output <- inception_4d/5x5
I0107 16:34:02.866331  9729 net.cpp:380] inception_4d/output <- inception_4d/pool_proj
I0107 16:34:02.866338  9729 net.cpp:338] inception_4d/output -> inception_4d/output
I0107 16:34:02.866345  9729 net.cpp:113] Setting up inception_4d/output
I0107 16:34:02.866353  9729 net.cpp:120] Top shape: 50 528 14 14 (5174400)
I0107 16:34:02.866358  9729 layer_factory.hpp:74] Creating layer inception_4d/output_inception_4d/output_0_split
I0107 16:34:02.866367  9729 net.cpp:84] Creating Layer inception_4d/output_inception_4d/output_0_split
I0107 16:34:02.866372  9729 net.cpp:380] inception_4d/output_inception_4d/output_0_split <- inception_4d/output
I0107 16:34:02.866379  9729 net.cpp:338] inception_4d/output_inception_4d/output_0_split -> inception_4d/output_inception_4d/output_0_split_0
I0107 16:34:02.866386  9729 net.cpp:338] inception_4d/output_inception_4d/output_0_split -> inception_4d/output_inception_4d/output_0_split_1
I0107 16:34:02.866394  9729 net.cpp:338] inception_4d/output_inception_4d/output_0_split -> inception_4d/output_inception_4d/output_0_split_2
I0107 16:34:02.866400  9729 net.cpp:338] inception_4d/output_inception_4d/output_0_split -> inception_4d/output_inception_4d/output_0_split_3
I0107 16:34:02.866408  9729 net.cpp:338] inception_4d/output_inception_4d/output_0_split -> inception_4d/output_inception_4d/output_0_split_4
I0107 16:34:02.866415  9729 net.cpp:113] Setting up inception_4d/output_inception_4d/output_0_split
I0107 16:34:02.866433  9729 net.cpp:120] Top shape: 50 528 14 14 (5174400)
I0107 16:34:02.866439  9729 net.cpp:120] Top shape: 50 528 14 14 (5174400)
I0107 16:34:02.866444  9729 net.cpp:120] Top shape: 50 528 14 14 (5174400)
I0107 16:34:02.866449  9729 net.cpp:120] Top shape: 50 528 14 14 (5174400)
I0107 16:34:02.866454  9729 net.cpp:120] Top shape: 50 528 14 14 (5174400)
I0107 16:34:02.866459  9729 layer_factory.hpp:74] Creating layer loss2/ave_pool
I0107 16:34:02.866466  9729 net.cpp:84] Creating Layer loss2/ave_pool
I0107 16:34:02.866471  9729 net.cpp:380] loss2/ave_pool <- inception_4d/output_inception_4d/output_0_split_0
I0107 16:34:02.866479  9729 net.cpp:338] loss2/ave_pool -> loss2/ave_pool
I0107 16:34:02.866487  9729 net.cpp:113] Setting up loss2/ave_pool
I0107 16:34:02.866561  9729 net.cpp:120] Top shape: 50 528 4 4 (422400)
I0107 16:34:02.866569  9729 layer_factory.hpp:74] Creating layer loss2/conv
I0107 16:34:02.866576  9729 net.cpp:84] Creating Layer loss2/conv
I0107 16:34:02.866582  9729 net.cpp:380] loss2/conv <- loss2/ave_pool
I0107 16:34:02.866591  9729 net.cpp:338] loss2/conv -> loss2/conv
I0107 16:34:02.866600  9729 net.cpp:113] Setting up loss2/conv
I0107 16:34:02.867805  9729 net.cpp:120] Top shape: 50 128 4 4 (102400)
I0107 16:34:02.867825  9729 layer_factory.hpp:74] Creating layer loss2/relu_conv
I0107 16:34:02.867832  9729 net.cpp:84] Creating Layer loss2/relu_conv
I0107 16:34:02.867837  9729 net.cpp:380] loss2/relu_conv <- loss2/conv
I0107 16:34:02.867844  9729 net.cpp:327] loss2/relu_conv -> loss2/conv (in-place)
I0107 16:34:02.867852  9729 net.cpp:113] Setting up loss2/relu_conv
I0107 16:34:02.867921  9729 net.cpp:120] Top shape: 50 128 4 4 (102400)
I0107 16:34:02.867928  9729 layer_factory.hpp:74] Creating layer loss2/fc
I0107 16:34:02.867936  9729 net.cpp:84] Creating Layer loss2/fc
I0107 16:34:02.867940  9729 net.cpp:380] loss2/fc <- loss2/conv
I0107 16:34:02.867947  9729 net.cpp:338] loss2/fc -> loss2/fc
I0107 16:34:02.867955  9729 net.cpp:113] Setting up loss2/fc
I0107 16:34:02.890511  9729 net.cpp:120] Top shape: 50 1024 (51200)
I0107 16:34:02.890527  9729 layer_factory.hpp:74] Creating layer loss2/relu_fc
I0107 16:34:02.890533  9729 net.cpp:84] Creating Layer loss2/relu_fc
I0107 16:34:02.890538  9729 net.cpp:380] loss2/relu_fc <- loss2/fc
I0107 16:34:02.890547  9729 net.cpp:327] loss2/relu_fc -> loss2/fc (in-place)
I0107 16:34:02.890554  9729 net.cpp:113] Setting up loss2/relu_fc
I0107 16:34:02.890632  9729 net.cpp:120] Top shape: 50 1024 (51200)
I0107 16:34:02.890638  9729 layer_factory.hpp:74] Creating layer loss2/drop_fc
I0107 16:34:02.890647  9729 net.cpp:84] Creating Layer loss2/drop_fc
I0107 16:34:02.890653  9729 net.cpp:380] loss2/drop_fc <- loss2/fc
I0107 16:34:02.890660  9729 net.cpp:327] loss2/drop_fc -> loss2/fc (in-place)
I0107 16:34:02.890666  9729 net.cpp:113] Setting up loss2/drop_fc
I0107 16:34:02.890673  9729 net.cpp:120] Top shape: 50 1024 (51200)
I0107 16:34:02.890678  9729 layer_factory.hpp:74] Creating layer loss2/classifier_kaggle
I0107 16:34:02.890687  9729 net.cpp:84] Creating Layer loss2/classifier_kaggle
I0107 16:34:02.890692  9729 net.cpp:380] loss2/classifier_kaggle <- loss2/fc
I0107 16:34:02.890698  9729 net.cpp:338] loss2/classifier_kaggle -> loss2/classifier_kaggle
I0107 16:34:02.890707  9729 net.cpp:113] Setting up loss2/classifier_kaggle
I0107 16:34:02.896021  9729 net.cpp:120] Top shape: 50 447 (22350)
I0107 16:34:02.896034  9729 layer_factory.hpp:74] Creating layer loss2/classifier_kaggle_loss2/classifier_kaggle_0_split
I0107 16:34:02.896042  9729 net.cpp:84] Creating Layer loss2/classifier_kaggle_loss2/classifier_kaggle_0_split
I0107 16:34:02.896047  9729 net.cpp:380] loss2/classifier_kaggle_loss2/classifier_kaggle_0_split <- loss2/classifier_kaggle
I0107 16:34:02.896054  9729 net.cpp:338] loss2/classifier_kaggle_loss2/classifier_kaggle_0_split -> loss2/classifier_kaggle_loss2/classifier_kaggle_0_split_0
I0107 16:34:02.896064  9729 net.cpp:338] loss2/classifier_kaggle_loss2/classifier_kaggle_0_split -> loss2/classifier_kaggle_loss2/classifier_kaggle_0_split_1
I0107 16:34:02.896082  9729 net.cpp:338] loss2/classifier_kaggle_loss2/classifier_kaggle_0_split -> loss2/classifier_kaggle_loss2/classifier_kaggle_0_split_2
I0107 16:34:02.896090  9729 net.cpp:113] Setting up loss2/classifier_kaggle_loss2/classifier_kaggle_0_split
I0107 16:34:02.896096  9729 net.cpp:120] Top shape: 50 447 (22350)
I0107 16:34:02.896102  9729 net.cpp:120] Top shape: 50 447 (22350)
I0107 16:34:02.896107  9729 net.cpp:120] Top shape: 50 447 (22350)
I0107 16:34:02.896111  9729 layer_factory.hpp:74] Creating layer loss2/loss
I0107 16:34:02.896121  9729 net.cpp:84] Creating Layer loss2/loss
I0107 16:34:02.896126  9729 net.cpp:380] loss2/loss <- loss2/classifier_kaggle_loss2/classifier_kaggle_0_split_0
I0107 16:34:02.896131  9729 net.cpp:380] loss2/loss <- label_data_1_split_3
I0107 16:34:02.896137  9729 net.cpp:338] loss2/loss -> loss2/loss1
…
I0107 16:34:02.897338  9729 net.cpp:338] loss2/top-5 -> loss2/top-5
I0107 16:34:02.897346  9729 net.cpp:113] Setting up loss2/top-5
I0107 16:34:02.897351  9729 net.cpp:120] Top shape: (1)
I0107 16:34:02.897356  9729 layer_factory.hpp:74] Creating layer inception_4e/1x1
I0107 16:34:02.897366  9729 net.cpp:84] Creating Layer inception_4e/1x1
I0107 16:34:02.897372  9729 net.cpp:380] inception_4e/1x1 <- inception_4d/output_inception_4d/output_0_split_1
I0107 16:34:02.897380  9729 net.cpp:338] inception_4e/1x1 -> inception_4e/1x1
I0107 16:34:02.897387  9729 net.cpp:113] Setting up inception_4e/1x1
I0107 16:34:02.899405  9729 net.cpp:120] Top shape: 50 256 14 14 (2508800)
I0107 16:34:02.899422  9729 layer_factory.hpp:74] Creating layer inception_4e/relu_1x1
I0107 16:34:02.899432  9729 net.cpp:84] Creating Layer inception_4e/relu_1x1
I0107 16:34:02.899437  9729 net.cpp:380] inception_4e/relu_1x1 <- inception_4e/1x1
I0107 16:34:02.899444  9729 net.cpp:327] inception_4e/relu_1x1 -> inception_4e/1x1 (in-place)
I0107 16:34:02.899454  9729 net.cpp:113] Setting up inception_4e/relu_1x1
I0107 16:34:02.899528  9729 net.cpp:120] Top shape: 50 256 14 14 (2508800)
I0107 16:34:02.899534  9729 layer_factory.hpp:74] Creating layer inception_4e/3x3_reduce
I0107 16:34:02.899560  9729 net.cpp:84] Creating Layer inception_4e/3x3_reduce
I0107 16:34:02.899566  9729 net.cpp:380] inception_4e/3x3_reduce <- inception_4d/output_inception_4d/output_0_split_2
I0107 16:34:02.899575  9729 net.cpp:338] inception_4e/3x3_reduce -> inception_4e/3x3_reduce
I0107 16:34:02.899585  9729 net.cpp:113] Setting up inception_4e/3x3_reduce
I0107 16:34:02.900987  9729 net.cpp:120] Top shape: 50 160 14 14 (1568000)
I0107 16:34:02.901003  9729 layer_factory.hpp:74] Creating layer inception_4e/relu_3x3_reduce
I0107 16:34:02.901013  9729 net.cpp:84] Creating Layer inception_4e/relu_3x3_reduce
I0107 16:34:02.901020  9729 net.cpp:380] inception_4e/relu_3x3_reduce <- inception_4e/3x3_reduce
I0107 16:34:02.901026  9729 net.cpp:327] inception_4e/relu_3x3_reduce -> inception_4e/3x3_reduce (in-place)
I0107 16:34:02.901039  9729 net.cpp:113] Setting up inception_4e/relu_3x3_reduce
I0107 16:34:02.901119  9729 net.cpp:120] Top shape: 50 160 14 14 (1568000)
I0107 16:34:02.901127  9729 layer_factory.hpp:74] Creating layer inception_4e/3x3
I0107 16:34:02.901137  9729 net.cpp:84] Creating Layer inception_4e/3x3
I0107 16:34:02.901142  9729 net.cpp:380] inception_4e/3x3 <- inception_4e/3x3_reduce
I0107 16:34:02.901149  9729 net.cpp:338] inception_4e/3x3 -> inception_4e/3x3
I0107 16:34:02.901157  9729 net.cpp:113] Setting up inception_4e/3x3
I0107 16:34:02.907021  9729 net.cpp:120] Top shape: 50 320 14 14 (3136000)
I0107 16:34:02.907039  9729 layer_factory.hpp:74] Creating layer inception_4e/relu_3x3
I0107 16:34:02.907047  9729 net.cpp:84] Creating Layer inception_4e/relu_3x3
I0107 16:34:02.907053  9729 net.cpp:380] inception_4e/relu_3x3 <- inception_4e/3x3
I0107 16:34:02.907060  9729 net.cpp:327] inception_4e/relu_3x3 -> inception_4e/3x3 (in-place)
I0107 16:34:02.907068  9729 net.cpp:113] Setting up inception_4e/relu_3x3
I0107 16:34:02.907323  9729 net.cpp:120] Top shape: 50 320 14 14 (3136000)
I0107 16:34:02.907335  9729 layer_factory.hpp:74] Creating layer inception_4e/5x5_reduce
I0107 16:34:02.907344  9729 net.cpp:84] Creating Layer inception_4e/5x5_reduce
I0107 16:34:02.907349  9729 net.cpp:380] inception_4e/5x5_reduce <- inception_4d/output_inception_4d/output_0_split_3
I0107 16:34:02.907358  9729 net.cpp:338] inception_4e/5x5_reduce -> inception_4e/5x5_reduce
I0107 16:34:02.907366  9729 net.cpp:113] Setting up inception_4e/5x5_reduce
I0107 16:34:02.907970  9729 net.cpp:120] Top shape: 50 32 14 14 (313600)
I0107 16:34:02.907986  9729 layer_factory.hpp:74] Creating layer inception_4e/relu_5x5_reduce
I0107 16:34:02.907994  9729 net.cpp:84] Creating Layer inception_4e/relu_5x5_reduce
I0107 16:34:02.907999  9729 net.cpp:380] inception_4e/relu_5x5_reduce <- inception_4e/5x5_reduce
I0107 16:34:02.908007  9729 net.cpp:327] inception_4e/relu_5x5_reduce -> inception_4e/5x5_reduce (in-place)
I0107 16:34:02.908015  9729 net.cpp:113] Setting up inception_4e/relu_5x5_reduce
I0107 16:34:02.908089  9729 net.cpp:120] Top shape: 50 32 14 14 (313600)
I0107 16:34:02.908097  9729 layer_factory.hpp:74] Creating layer inception_4e/5x5
I0107 16:34:02.908107  9729 net.cpp:84] Creating Layer inception_4e/5x5
I0107 16:34:02.908112  9729 net.cpp:380] inception_4e/5x5 <- inception_4e/5x5_reduce
I0107 16:34:02.908120  9729 net.cpp:338] inception_4e/5x5 -> inception_4e/5x5
I0107 16:34:02.908128  9729 net.cpp:113] Setting up inception_4e/5x5
I0107 16:34:02.909747  9729 net.cpp:120] Top shape: 50 128 14 14 (1254400)
I0107 16:34:02.909764  9729 layer_factory.hpp:74] Creating layer inception_4e/relu_5x5
I0107 16:34:02.909772  9729 net.cpp:84] Creating Layer inception_4e/relu_5x5
I0107 16:34:02.909778  9729 net.cpp:380] inception_4e/relu_5x5 <- inception_4e/5x5
I0107 16:34:02.909785  9729 net.cpp:327] inception_4e/relu_5x5 -> inception_4e/5x5 (in-place)
I0107 16:34:02.909793  9729 net.cpp:113] Setting up inception_4e/relu_5x5
I0107 16:34:02.909863  9729 net.cpp:120] Top shape: 50 128 14 14 (1254400)
I0107 16:34:02.909869  9729 layer_factory.hpp:74] Creating layer inception_4e/pool
I0107 16:34:02.909875  9729 layer_factory.cpp:56] CUDNN does not support padding or multiple tops. Using Caffe's own pooling layer.
I0107 16:34:02.909883  9729 net.cpp:84] Creating Layer inception_4e/pool
I0107 16:34:02.909888  9729 net.cpp:380] inception_4e/pool <- inception_4d/output_inception_4d/output_0_split_4
I0107 16:34:02.909895  9729 net.cpp:338] inception_4e/pool -> inception_4e/pool
I0107 16:34:02.909903  9729 net.cpp:113] Setting up inception_4e/pool
I0107 16:34:02.909912  9729 net.cpp:120] Top shape: 50 528 14 14 (5174400)
I0107 16:34:02.909917  9729 layer_factory.hpp:74] Creating layer inception_4e/pool_proj
I0107 16:34:02.909925  9729 net.cpp:84] Creating Layer inception_4e/pool_proj
I0107 16:34:02.909930  9729 net.cpp:380] inception_4e/pool_proj <- inception_4e/pool
I0107 16:34:02.909937  9729 net.cpp:338] inception_4e/pool_proj -> inception_4e/pool_proj
I0107 16:34:02.909950  9729 net.cpp:113] Setting up inception_4e/pool_proj
I0107 16:34:02.911160  9729 net.cpp:120] Top shape: 50 128 14 14 (1254400)
I0107 16:34:02.911176  9729 layer_factory.hpp:74] Creating layer inception_4e/relu_pool_proj
I0107 16:34:02.911185  9729 net.cpp:84] Creating Layer inception_4e/relu_pool_proj
I0107 16:34:02.911191  9729 net.cpp:380] inception_4e/relu_pool_proj <- inception_4e/pool_proj
I0107 16:34:02.911198  9729 net.cpp:327] inception_4e/relu_pool_proj -> inception_4e/pool_proj (in-place)
I0107 16:34:02.911206  9729 net.cpp:113] Setting up inception_4e/relu_pool_proj
I0107 16:34:02.911276  9729 net.cpp:120] Top shape: 50 128 14 14 (1254400)
I0107 16:34:02.911283  9729 layer_factory.hpp:74] Creating layer inception_4e/output
I0107 16:34:02.911289  9729 net.cpp:84] Creating Layer inception_4e/output
I0107 16:34:02.911293  9729 net.cpp:380] inception_4e/output <- inception_4e/1x1
I0107 16:34:02.911299  9729 net.cpp:380] inception_4e/output <- inception_4e/3x3
I0107 16:34:02.911305  9729 net.cpp:380] inception_4e/output <- inception_4e/5x5
I0107 16:34:02.911310  9729 net.cpp:380] inception_4e/output <- inception_4e/pool_proj
I0107 16:34:02.911316  9729 net.cpp:338] inception_4e/output -> inception_4e/output
I0107 16:34:02.911324  9729 net.cpp:113] Setting up inception_4e/output
I0107 16:34:02.911331  9729 net.cpp:120] Top shape: 50 832 14 14 (8153600)
I0107 16:34:02.911336  9729 layer_factory.hpp:74] Creating layer pool4/3x3_s2
I0107 16:34:02.911344  9729 net.cpp:84] Creating Layer pool4/3x3_s2
I0107 16:34:02.911347  9729 net.cpp:380] pool4/3x3_s2 <- inception_4e/output
I0107 16:34:02.911355  9729 net.cpp:338] pool4/3x3_s2 -> pool4/3x3_s2
I0107 16:34:02.911362  9729 net.cpp:113] Setting up pool4/3x3_s2
I0107 16:34:02.916451  9729 net.cpp:120] Top shape: 50 832 7 7 (2038400)
I0107 16:34:02.916465  9729 layer_factory.hpp:74] Creating layer pool4/3x3_s2_pool4/3x3_s2_0_split
I0107 16:34:02.916476  9729 net.cpp:84] Creating Layer pool4/3x3_s2_pool4/3x3_s2_0_split
I0107 16:34:02.916481  9729 net.cpp:380] pool4/3x3_s2_pool4/3x3_s2_0_split <- pool4/3x3_s2
I0107 16:34:02.916488  9729 net.cpp:338] pool4/3x3_s2_pool4/3x3_s2_0_split -> pool4/3x3_s2_pool4/3x3_s2_0_split_0
I0107 16:34:02.916498  9729 net.cpp:338] pool4/3x3_s2_pool4/3x3_s2_0_split -> pool4/3x3_s2_pool4/3x3_s2_0_split_1
I0107 16:34:02.916506  9729 net.cpp:338] pool4/3x3_s2_pool4/3x3_s2_0_split -> pool4/3x3_s2_pool4/3x3_s2_0_split_2
I0107 16:34:02.916528  9729 net.cpp:338] pool4/3x3_s2_pool4/3x3_s2_0_split -> pool4/3x3_s2_pool4/3x3_s2_0_split_3
I0107 16:34:02.916535  9729 net.cpp:113] Setting up pool4/3x3_s2_pool4/3x3_s2_0_split
I0107 16:34:02.916543  9729 net.cpp:120] Top shape: 50 832 7 7 (2038400)
I0107 16:34:02.916548  9729 net.cpp:120] Top shape: 50 832 7 7 (2038400)
I0107 16:34:02.916554  9729 net.cpp:120] Top shape: 50 832 7 7 (2038400)
I0107 16:34:02.916559  9729 net.cpp:120] Top shape: 50 832 7 7 (2038400)
I0107 16:34:02.916564  9729 layer_factory.hpp:74] Creating layer inception_5a/1x1
I0107 16:34:02.916573  9729 net.cpp:84] Creating Layer inception_5a/1x1
I0107 16:34:02.916577  9729 net.cpp:380] inception_5a/1x1 <- pool4/3x3_s2_pool4/3x3_s2_0_split_0
I0107 16:34:02.916587  9729 net.cpp:338] inception_5a/1x1 -> inception_5a/1x1
I0107 16:34:02.916595  9729 net.cpp:113] Setting up inception_5a/1x1
I0107 16:34:02.919471  9729 net.cpp:120] Top shape: 50 256 7 7 (627200)
I0107 16:34:02.919488  9729 layer_factory.hpp:74] Creating layer inception_5a/relu_1x1
I0107 16:34:02.919495  9729 net.cpp:84] Creating Layer inception_5a/relu_1x1
I0107 16:34:02.919502  9729 net.cpp:380] inception_5a/relu_1x1 <- inception_5a/1x1
I0107 16:34:02.919508  9729 net.cpp:327] inception_5a/relu_1x1 -> inception_5a/1x1 (in-place)
I0107 16:34:02.919515  9729 net.cpp:113] Setting up inception_5a/relu_1x1
I0107 16:34:02.919589  9729 net.cpp:120] Top shape: 50 256 7 7 (627200)
I0107 16:34:02.919595  9729 layer_factory.hpp:74] Creating layer inception_5a/3x3_reduce
I0107 16:34:02.919605  9729 net.cpp:84] Creating Layer inception_5a/3x3_reduce
I0107 16:34:02.919615  9729 net.cpp:380] inception_5a/3x3_reduce <- pool4/3x3_s2_pool4/3x3_s2_0_split_1
I0107 16:34:02.919631  9729 net.cpp:338] inception_5a/3x3_reduce -> inception_5a/3x3_reduce
I0107 16:34:02.919639  9729 net.cpp:113] Setting up inception_5a/3x3_reduce
I0107 16:34:02.921605  9729 net.cpp:120] Top shape: 50 160 7 7 (392000)
I0107 16:34:02.921622  9729 layer_factory.hpp:74] Creating layer inception_5a/relu_3x3_reduce
I0107 16:34:02.921630  9729 net.cpp:84] Creating Layer inception_5a/relu_3x3_reduce
I0107 16:34:02.921635  9729 net.cpp:380] inception_5a/relu_3x3_reduce <- inception_5a/3x3_reduce
I0107 16:34:02.921643  9729 net.cpp:327] inception_5a/relu_3x3_reduce -> inception_5a/3x3_reduce (in-place)
I0107 16:34:02.921650  9729 net.cpp:113] Setting up inception_5a/relu_3x3_reduce
I0107 16:34:02.921722  9729 net.cpp:120] Top shape: 50 160 7 7 (392000)
I0107 16:34:02.921730  9729 layer_factory.hpp:74] Creating layer inception_5a/3x3
I0107 16:34:02.921739  9729 net.cpp:84] Creating Layer inception_5a/3x3
I0107 16:34:02.921744  9729 net.cpp:380] inception_5a/3x3 <- inception_5a/3x3_reduce
I0107 16:34:02.921751  9729 net.cpp:338] inception_5a/3x3 -> inception_5a/3x3
I0107 16:34:02.921759  9729 net.cpp:113] Setting up inception_5a/3x3
I0107 16:34:02.930264  9729 net.cpp:120] Top shape: 50 320 7 7 (784000)
I0107 16:34:02.930287  9729 layer_factory.hpp:74] Creating layer inception_5a/relu_3x3
I0107 16:34:02.930297  9729 net.cpp:84] Creating Layer inception_5a/relu_3x3
I0107 16:34:02.930305  9729 net.cpp:380] inception_5a/relu_3x3 <- inception_5a/3x3
I0107 16:34:02.930311  9729 net.cpp:327] inception_5a/relu_3x3 -> inception_5a/3x3 (in-place)
I0107 16:34:02.930320  9729 net.cpp:113] Setting up inception_5a/relu_3x3
I0107 16:34:02.930392  9729 net.cpp:120] Top shape: 50 320 7 7 (784000)
I0107 16:34:02.930397  9729 layer_factory.hpp:74] Creating layer inception_5a/5x5_reduce
I0107 16:34:02.930408  9729 net.cpp:84] Creating Layer inception_5a/5x5_reduce
I0107 16:34:02.930413  9729 net.cpp:380] inception_5a/5x5_reduce <- pool4/3x3_s2_pool4/3x3_s2_0_split_2
I0107 16:34:02.930420  9729 net.cpp:338] inception_5a/5x5_reduce -> inception_5a/5x5_reduce
I0107 16:34:02.930429  9729 net.cpp:113] Setting up inception_5a/5x5_reduce
I0107 16:34:02.931870  9729 net.cpp:120] Top shape: 50 32 7 7 (78400)
I0107 16:34:02.931891  9729 layer_factory.hpp:74] Creating layer inception_5a/relu_5x5_reduce
I0107 16:34:02.931900  9729 net.cpp:84] Creating Layer inception_5a/relu_5x5_reduce
I0107 16:34:02.931906  9729 net.cpp:380] inception_5a/relu_5x5_reduce <- inception_5a/5x5_reduce
I0107 16:34:02.931915  9729 net.cpp:327] inception_5a/relu_5x5_reduce -> inception_5a/5x5_reduce (in-place)
I0107 16:34:02.931924  9729 net.cpp:113] Setting up inception_5a/relu_5x5_reduce
I0107 16:34:02.932195  9729 net.cpp:120] Top shape: 50 32 7 7 (78400)
I0107 16:34:02.932207  9729 layer_factory.hpp:74] Creating layer inception_5a/5x5
I0107 16:34:02.932216  9729 net.cpp:84] Creating Layer inception_5a/5x5
I0107 16:34:02.932222  9729 net.cpp:380] inception_5a/5x5 <- inception_5a/5x5_reduce
I0107 16:34:02.932234  9729 net.cpp:338] inception_5a/5x5 -> inception_5a/5x5
I0107 16:34:02.932243  9729 net.cpp:113] Setting up inception_5a/5x5
I0107 16:34:02.933863  9729 net.cpp:120] Top shape: 50 128 7 7 (313600)
I0107 16:34:02.933881  9729 layer_factory.hpp:74] Creating layer inception_5a/relu_5x5
I0107 16:34:02.933890  9729 net.cpp:84] Creating Layer inception_5a/relu_5x5
I0107 16:34:02.933897  9729 net.cpp:380] inception_5a/relu_5x5 <- inception_5a/5x5
I0107 16:34:02.933903  9729 net.cpp:327] inception_5a/relu_5x5 -> inception_5a/5x5 (in-place)
I0107 16:34:02.933912  9729 net.cpp:113] Setting up inception_5a/relu_5x5
I0107 16:34:02.933987  9729 net.cpp:120] Top shape: 50 128 7 7 (313600)
I0107 16:34:02.933995  9729 layer_factory.hpp:74] Creating layer inception_5a/pool
I0107 16:34:02.934001  9729 layer_factory.cpp:56] CUDNN does not support padding or multiple tops. Using Caffe's own pooling layer.
I0107 16:34:02.934007  9729 net.cpp:84] Creating Layer inception_5a/pool
I0107 16:34:02.934018  9729 net.cpp:380] inception_5a/pool <- pool4/3x3_s2_pool4/3x3_s2_0_split_3
I0107 16:34:02.934033  9729 net.cpp:338] inception_5a/pool -> inception_5a/pool
I0107 16:34:02.934042  9729 net.cpp:113] Setting up inception_5a/pool
I0107 16:34:02.934051  9729 net.cpp:120] Top shape: 50 832 7 7 (2038400)
I0107 16:34:02.934056  9729 layer_factory.hpp:74] Creating layer inception_5a/pool_proj
I0107 16:34:02.934063  9729 net.cpp:84] Creating Layer inception_5a/pool_proj
I0107 16:34:02.934068  9729 net.cpp:380] inception_5a/pool_proj <- inception_5a/pool
I0107 16:34:02.934077  9729 net.cpp:338] inception_5a/pool_proj -> inception_5a/pool_proj
I0107 16:34:02.934085  9729 net.cpp:113] Setting up inception_5a/pool_proj
I0107 16:34:02.935741  9729 net.cpp:120] Top shape: 50 128 7 7 (313600)
I0107 16:34:02.935760  9729 layer_factory.hpp:74] Creating layer inception_5a/relu_pool_proj
I0107 16:34:02.935766  9729 net.cpp:84] Creating Layer inception_5a/relu_pool_proj
I0107 16:34:02.935772  9729 net.cpp:380] inception_5a/relu_pool_proj <- inception_5a/pool_proj
I0107 16:34:02.935780  9729 net.cpp:327] inception_5a/relu_pool_proj -> inception_5a/pool_proj (in-place)
I0107 16:34:02.935786  9729 net.cpp:113] Setting up inception_5a/relu_pool_proj
I0107 16:34:02.935859  9729 net.cpp:120] Top shape: 50 128 7 7 (313600)
I0107 16:34:02.935865  9729 layer_factory.hpp:74] Creating layer inception_5a/output
I0107 16:34:02.935873  9729 net.cpp:84] Creating Layer inception_5a/output
I0107 16:34:02.935878  9729 net.cpp:380] inception_5a/output <- inception_5a/1x1
I0107 16:34:02.935884  9729 net.cpp:380] inception_5a/output <- inception_5a/3x3
I0107 16:34:02.935889  9729 net.cpp:380] inception_5a/output <- inception_5a/5x5
I0107 16:34:02.935895  9729 net.cpp:380] inception_5a/output <- inception_5a/pool_proj
I0107 16:34:02.935901  9729 net.cpp:338] inception_5a/output -> inception_5a/output
I0107 16:34:02.935909  9729 net.cpp:113] Setting up inception_5a/output
I0107 16:34:02.935915  9729 net.cpp:120] Top shape: 50 832 7 7 (2038400)
I0107 16:34:02.935920  9729 layer_factory.hpp:74] Creating layer inception_5a/output_inception_5a/output_0_split
I0107 16:34:02.935927  9729 net.cpp:84] Creating Layer inception_5a/output_inception_5a/output_0_split
I0107 16:34:02.935932  9729 net.cpp:380] inception_5a/output_inception_5a/output_0_split <- inception_5a/output
I0107 16:34:02.935940  9729 net.cpp:338] inception_5a/output_inception_5a/output_0_split -> inception_5a/output_inception_5a/output_0_split_0
I0107 16:34:02.935948  9729 net.cpp:338] inception_5a/output_inception_5a/output_0_split -> inception_5a/output_inception_5a/output_0_split_1
I0107 16:34:02.935956  9729 net.cpp:338] inception_5a/output_inception_5a/output_0_split -> inception_5a/output_inception_5a/output_0_split_2
I0107 16:34:02.935962  9729 net.cpp:338] inception_5a/output_inception_5a/output_0_split -> inception_5a/output_inception_5a/output_0_split_3
I0107 16:34:02.935968  9729 net.cpp:113] Setting up inception_5a/output_inception_5a/output_0_split
I0107 16:34:02.935977  9729 net.cpp:120] Top shape: 50 832 7 7 (2038400)
I0107 16:34:02.935982  9729 net.cpp:120] Top shape: 50 832 7 7 (2038400)
I0107 16:34:02.935987  9729 net.cpp:120] Top shape: 50 832 7 7 (2038400)
I0107 16:34:02.935992  9729 net.cpp:120] Top shape: 50 832 7 7 (2038400)
I0107 16:34:02.935997  9729 layer_factory.hpp:74] Creating layer inception_5b/1x1
I0107 16:34:02.936005  9729 net.cpp:84] Creating Layer inception_5b/1x1
I0107 16:34:02.936010  9729 net.cpp:380] inception_5b/1x1 <- inception_5a/output_inception_5a/output_0_split_0
I0107 16:34:02.936018  9729 net.cpp:338] inception_5b/1x1 -> inception_5b/1x1
I0107 16:34:02.936027  9729 net.cpp:113] Setting up inception_5b/1x1
I0107 16:34:02.940130  9729 net.cpp:120] Top shape: 50 384 7 7 (940800)
I0107 16:34:02.940147  9729 layer_factory.hpp:74] Creating layer inception_5b/relu_1x1
I0107 16:34:02.940155  9729 net.cpp:84] Creating Layer inception_5b/relu_1x1
I0107 16:34:02.940160  9729 net.cpp:380] inception_5b/relu_1x1 <- inception_5b/1x1
I0107 16:34:02.940168  9729 net.cpp:327] inception_5b/relu_1x1 -> inception_5b/1x1 (in-place)
I0107 16:34:02.940189  9729 net.cpp:113] Setting up inception_5b/relu_1x1
I0107 16:34:02.940264  9729 net.cpp:120] Top shape: 50 384 7 7 (940800)
I0107 16:34:02.940271  9729 layer_factory.hpp:74] Creating layer inception_5b/3x3_reduce
I0107 16:34:02.940284  9729 net.cpp:84] Creating Layer inception_5b/3x3_reduce
I0107 16:34:02.940289  9729 net.cpp:380] inception_5b/3x3_reduce <- inception_5a/output_inception_5a/output_0_split_1
I0107 16:34:02.940297  9729 net.cpp:338] inception_5b/3x3_reduce -> inception_5b/3x3_reduce
I0107 16:34:02.940306  9729 net.cpp:113] Setting up inception_5b/3x3_reduce
I0107 16:34:02.942626  9729 net.cpp:120] Top shape: 50 192 7 7 (470400)
I0107 16:34:02.942646  9729 layer_factory.hpp:74] Creating layer inception_5b/relu_3x3_reduce
I0107 16:34:02.942654  9729 net.cpp:84] Creating Layer inception_5b/relu_3x3_reduce
I0107 16:34:02.942661  9729 net.cpp:380] inception_5b/relu_3x3_reduce <- inception_5b/3x3_reduce
I0107 16:34:02.942667  9729 net.cpp:327] inception_5b/relu_3x3_reduce -> inception_5b/3x3_reduce (in-place)
I0107 16:34:02.942675  9729 net.cpp:113] Setting up inception_5b/relu_3x3_reduce
I0107 16:34:02.942944  9729 net.cpp:120] Top shape: 50 192 7 7 (470400)
I0107 16:34:02.942955  9729 layer_factory.hpp:74] Creating layer inception_5b/3x3
I0107 16:34:02.942966  9729 net.cpp:84] Creating Layer inception_5b/3x3
I0107 16:34:02.942972  9729 net.cpp:380] inception_5b/3x3 <- inception_5b/3x3_reduce
I0107 16:34:02.942982  9729 net.cpp:338] inception_5b/3x3 -> inception_5b/3x3
I0107 16:34:02.942991  9729 net.cpp:113] Setting up inception_5b/3x3
I0107 16:34:02.952472  9729 net.cpp:120] Top shape: 50 384 7 7 (940800)
I0107 16:34:02.952527  9729 layer_factory.hpp:74] Creating layer inception_5b/relu_3x3
I0107 16:34:02.952548  9729 net.cpp:84] Creating Layer inception_5b/relu_3x3
I0107 16:34:02.952564  9729 net.cpp:380] inception_5b/relu_3x3 <- inception_5b/3x3
I0107 16:34:02.952582  9729 net.cpp:327] inception_5b/relu_3x3 -> inception_5b/3x3 (in-place)
I0107 16:34:02.952602  9729 net.cpp:113] Setting up inception_5b/relu_3x3
I0107 16:34:02.952749  9729 net.cpp:120] Top shape: 50 384 7 7 (940800)
I0107 16:34:02.952761  9729 layer_factory.hpp:74] Creating layer inception_5b/5x5_reduce
I0107 16:34:02.952783  9729 net.cpp:84] Creating Layer inception_5b/5x5_reduce
I0107 16:34:02.952796  9729 net.cpp:380] inception_5b/5x5_reduce <- inception_5a/output_inception_5a/output_0_split_2
I0107 16:34:02.952812  9729 net.cpp:338] inception_5b/5x5_reduce -> inception_5b/5x5_reduce
I0107 16:34:02.952829  9729 net.cpp:113] Setting up inception_5b/5x5_reduce
I0107 16:34:02.954521  9729 net.cpp:120] Top shape: 50 48 7 7 (117600)
I0107 16:34:02.954553  9729 layer_factory.hpp:74] Creating layer inception_5b/relu_5x5_reduce
I0107 16:34:02.954569  9729 net.cpp:84] Creating Layer inception_5b/relu_5x5_reduce
I0107 16:34:02.954581  9729 net.cpp:380] inception_5b/relu_5x5_reduce <- inception_5b/5x5_reduce
I0107 16:34:02.954594  9729 net.cpp:327] inception_5b/relu_5x5_reduce -> inception_5b/5x5_reduce (in-place)
I0107 16:34:02.954610  9729 net.cpp:113] Setting up inception_5b/relu_5x5_reduce
I0107 16:34:02.954754  9729 net.cpp:120] Top shape: 50 48 7 7 (117600)
I0107 16:34:02.954767  9729 layer_factory.hpp:74] Creating layer inception_5b/5x5
I0107 16:34:02.954787  9729 net.cpp:84] Creating Layer inception_5b/5x5
I0107 16:34:02.954798  9729 net.cpp:380] inception_5b/5x5 <- inception_5b/5x5_reduce
I0107 16:34:02.954813  9729 net.cpp:338] inception_5b/5x5 -> inception_5b/5x5
I0107 16:34:02.954829  9729 net.cpp:113] Setting up inception_5b/5x5
I0107 16:34:02.959043  9729 net.cpp:120] Top shape: 50 128 7 7 (313600)
I0107 16:34:02.959075  9729 layer_factory.hpp:74] Creating layer inception_5b/relu_5x5
I0107 16:34:02.959095  9729 net.cpp:84] Creating Layer inception_5b/relu_5x5
I0107 16:34:02.959106  9729 net.cpp:380] inception_5b/relu_5x5 <- inception_5b/5x5
I0107 16:34:02.959123  9729 net.cpp:327] inception_5b/relu_5x5 -> inception_5b/5x5 (in-place)
I0107 16:34:02.959151  9729 net.cpp:113] Setting up inception_5b/relu_5x5
I0107 16:34:02.959589  9729 net.cpp:120] Top shape: 50 128 7 7 (313600)
I0107 16:34:02.959609  9729 layer_factory.hpp:74] Creating layer inception_5b/pool
I0107 16:34:02.959622  9729 layer_factory.cpp:56] CUDNN does not support padding or multiple tops. Using Caffe's own pooling layer.
I0107 16:34:02.959635  9729 net.cpp:84] Creating Layer inception_5b/pool
I0107 16:34:02.959645  9729 net.cpp:380] inception_5b/pool <- inception_5a/output_inception_5a/output_0_split_3
I0107 16:34:02.959661  9729 net.cpp:338] inception_5b/pool -> inception_5b/pool
I0107 16:34:02.959677  9729 net.cpp:113] Setting up inception_5b/pool
I0107 16:34:02.959695  9729 net.cpp:120] Top shape: 50 832 7 7 (2038400)
I0107 16:34:02.959704  9729 layer_factory.hpp:74] Creating layer inception_5b/pool_proj
I0107 16:34:02.959723  9729 net.cpp:84] Creating Layer inception_5b/pool_proj
I0107 16:34:02.959734  9729 net.cpp:380] inception_5b/pool_proj <- inception_5b/pool
I0107 16:34:02.959750  9729 net.cpp:338] inception_5b/pool_proj -> inception_5b/pool_proj
I0107 16:34:02.959766  9729 net.cpp:113] Setting up inception_5b/pool_proj
I0107 16:34:02.962859  9729 net.cpp:120] Top shape: 50 128 7 7 (313600)
I0107 16:34:02.962888  9729 layer_factory.hpp:74] Creating layer inception_5b/relu_pool_proj
I0107 16:34:02.962903  9729 net.cpp:84] Creating Layer inception_5b/relu_pool_proj
I0107 16:34:02.962913  9729 net.cpp:380] inception_5b/relu_pool_proj <- inception_5b/pool_proj
I0107 16:34:02.962929  9729 net.cpp:327] inception_5b/relu_pool_proj -> inception_5b/pool_proj (in-place)
I0107 16:34:02.962942  9729 net.cpp:113] Setting up inception_5b/relu_pool_proj
I0107 16:34:02.963075  9729 net.cpp:120] Top shape: 50 128 7 7 (313600)
I0107 16:34:02.963086  9729 layer_factory.hpp:74] Creating layer inception_5b/output
I0107 16:34:02.963099  9729 net.cpp:84] Creating Layer inception_5b/output
I0107 16:34:02.963109  9729 net.cpp:380] inception_5b/output <- inception_5b/1x1
I0107 16:34:02.963124  9729 net.cpp:380] inception_5b/output <- inception_5b/3x3
I0107 16:34:02.963134  9729 net.cpp:380] inception_5b/output <- inception_5b/5x5
I0107 16:34:02.963143  9729 net.cpp:380] inception_5b/output <- inception_5b/pool_proj
I0107 16:34:02.963155  9729 net.cpp:338] inception_5b/output -> inception_5b/output
I0107 16:34:02.963170  9729 net.cpp:113] Setting up inception_5b/output
I0107 16:34:02.963183  9729 net.cpp:120] Top shape: 50 1024 7 7 (2508800)
I0107 16:34:02.963192  9729 layer_factory.hpp:74] Creating layer pool5/7x7_s1
I0107 16:34:02.963206  9729 net.cpp:84] Creating Layer pool5/7x7_s1
I0107 16:34:02.963214  9729 net.cpp:380] pool5/7x7_s1 <- inception_5b/output
I0107 16:34:02.963232  9729 net.cpp:338] pool5/7x7_s1 -> pool5/7x7_s1
I0107 16:34:02.963245  9729 net.cpp:113] Setting up pool5/7x7_s1
I0107 16:34:02.963378  9729 net.cpp:120] Top shape: 50 1024 1 1 (51200)
I0107 16:34:02.963392  9729 layer_factory.hpp:74] Creating layer pool5/drop_7x7_s1
I0107 16:34:02.963405  9729 net.cpp:84] Creating Layer pool5/drop_7x7_s1
I0107 16:34:02.963415  9729 net.cpp:380] pool5/drop_7x7_s1 <- pool5/7x7_s1
I0107 16:34:02.963426  9729 net.cpp:327] pool5/drop_7x7_s1 -> pool5/7x7_s1 (in-place)
I0107 16:34:02.963438  9729 net.cpp:113] Setting up pool5/drop_7x7_s1
I0107 16:34:02.963452  9729 net.cpp:120] Top shape: 50 1024 1 1 (51200)
I0107 16:34:02.963460  9729 layer_factory.hpp:74] Creating layer loss3/classifier_kaggle
I0107 16:34:02.963475  9729 net.cpp:84] Creating Layer loss3/classifier_kaggle
I0107 16:34:02.963485  9729 net.cpp:380] loss3/classifier_kaggle <- pool5/7x7_s1
I0107 16:34:02.963497  9729 net.cpp:338] loss3/classifier_kaggle -> loss3/classifier_kaggle
I0107 16:34:02.963511  9729 net.cpp:113] Setting up loss3/classifier_kaggle
I0107 16:34:02.972975  9729 net.cpp:120] Top shape: 50 447 (22350)
I0107 16:34:02.972995  9729 layer_factory.hpp:74] Creating layer loss3/classifier_kaggle_loss3/classifier_kaggle_0_split
I0107 16:34:02.973008  9729 net.cpp:84] Creating Layer loss3/classifier_kaggle_loss3/classifier_kaggle_0_split
I0107 16:34:02.973026  9729 net.cpp:380] loss3/classifier_kaggle_loss3/classifier_kaggle_0_split <- loss3/classifier_kaggle
I0107 16:34:02.973052  9729 net.cpp:338] loss3/classifier_kaggle_loss3/classifier_kaggle_0_split -> loss3/classifier_kaggle_loss3/classifier_kaggle_0_split_0
I0107 16:34:02.973070  9729 net.cpp:338] loss3/classifier_kaggle_loss3/classifier_kaggle_0_split -> loss3/classifier_kaggle_loss3/classifier_kaggle_0_split_1
I0107 16:34:02.973084  9729 net.cpp:338] loss3/classifier_kaggle_loss3/classifier_kaggle_0_split -> loss3/classifier_kaggle_loss3/classifier_kaggle_0_split_2
I0107 16:34:02.973096  9729 net.cpp:113] Setting up loss3/classifier_kaggle_loss3/classifier_kaggle_0_split
I0107 16:34:02.973110  9729 net.cpp:120] Top shape: 50 447 (22350)
I0107 16:34:02.973120  9729 net.cpp:120] Top shape: 50 447 (22350)
I0107 16:34:02.973129  9729 net.cpp:120] Top shape: 50 447 (22350)
I0107 16:34:02.973137  9729 layer_factory.hpp:74] Creating layer loss3/loss3
I0107 16:34:02.973150  9729 net.cpp:84] Creating Layer loss3/loss3
I0107 16:34:02.973160  9729 net.cpp:380] loss3/loss3 <- loss3/classifier_kaggle_loss3/classifier_kaggle_0_split_0
I0107 16:34:02.973170  9729 net.cpp:380] loss3/loss3 <- label_data_1_split_6
I0107 16:34:02.973184  9729 net.cpp:338] loss3/loss3 -> loss3/loss3
…
