…
I1215 11:38:57.312894 25197 net.cpp:257] The NetState phase (0) differed from the phase (1) specified by a rule in layer loss3/top-5
I1215 11:38:57.315215 25197 net.cpp:42] Initializing net from parameters: 
name: "GoogleNet"
state {
  phase: TRAIN
}
layer {
  name: "data"
  type: "Data"
  top: "data"
  top: "label"
  include {
    phase: TRAIN
  }
  transform_param {
    mirror: true
    crop_size: 224
    mean_value: 104
    mean_value: 117
    mean_value: 123
  }
  data_param {
    source: "/home/coldmanck/kaggle/kaggle2_train_lmdb"
    batch_size: 32
    backend: LMDB
  }
}
layer {
  name: "conv1/7x7_s2"
  type: "Convolution"
  bottom: "data"
  top: "conv1/7x7_s2"
  param {
    lr_mult: 1
    decay_mult: 1
  }
  param {
    lr_mult: 2
    decay_mult: 0
  }
  convolution_param {
    num_output: 64
    pad: 3
    kernel_size: 7
    stride: 2
    weight_filler {
      type: "xavier"
      std: 0.1
    }
    bias_filler {
      type: "constant"
      value: 0.2
    }
  }
}
layer {
  name: "conv1/relu_7x7"
  type: "ReLU"
  bottom: "conv1/7x7_s2"
  top: "conv1/7x7_s2"
}
layer {
  name: "pool1/3x3_s2"
  type: "Pooling"
  bottom: "conv1/7x7_s2"
  top: "pool1/3x3_s2"
  pooling_param {
    pool: MAX
    kernel_size: 3
    stride: 2
  }
}
layer {
  name: "pool1/norm1"
  type: "LRN"
  bottom: "pool1/3x3_s2"
  top: "pool1/norm1"
  lrn_param {
    local_size: 5
    alpha: 0.0001
    beta: 0.75
  }
}
layer {
  name: "conv2/3x3_reduce"
  type: "Convolution"
  bottom: "pool1/norm1"
  top: "conv2/3x3_reduce"
  param {
    lr_mult: 1
    decay_mult: 1
  }
  param {
    lr_mult: 2
    decay_mult: 0
  }
  convolution_param {
    num_output: 64
    kernel_size: 1
    weight_filler {
      type: "xavier"
      std: 0.1
    }
    bias_filler {
      type: "constant"
      value: 0.2
    }
  }
}
layer {
  name: "conv2/relu_3x3_reduce"
  type: "ReLU"
  bottom: "conv2/3x3_reduce"
  top: "conv2/3x3_reduce"
}
layer {
  name: "conv2/3x3"
  type: "Convolution"
  bottom: "conv2/3x3_reduce"
  top: "conv2/3x3"
  param {
    lr_mult: 1
    decay_mult: 1
  }
  param {
    lr_mult: 2
    decay_mult: 0
  }
  convolution_param {
    num_output: 192
    pad: 1
    kernel_size: 3
    weight_filler {
      type: "xavier"
      std: 0.03
    }
    bias_filler {
      type: "constant"
      value: 0.2
    }
  }
}
layer {
  name: "conv2/relu_3x3"
  type: "ReLU"
  bottom: "conv2/3x3"
  top: "conv2/3x3"
}
layer {
  name: "conv2/norm2"
  type: "LRN"
  bottom: "conv2/3x3"
  top: "conv2/norm2"
  lrn_param {
    local_size: 5
    alpha: 0.0001
    beta: 0.75
  }
}
layer {
  name: "pool2/3x3_s2"
  type: "Pooling"
  bottom: "conv2/norm2"
  top: "pool2/3x3_s2"
  pooling_param {
    pool: MAX
    kernel_size: 3
    stride: 2
  }
}
layer {
  name: "inception_3a/1x1"
  type: "Convolution"
  bottom: "pool2/3x3_s2"
  top: "inception_3a/1x1"
  param {
    lr_mult: 1
    decay_mult: 1
  }
  param {
    lr_mult: 2
    decay_mult: 0
  }
  convolution_param {
    num_output: 64
    kernel_size: 1
    weight_filler {
      type: "xavier"
      std: 0.03
    }
    bias_filler {
      type: "constant"
      value: 0.2
    }
  }
}
layer {
  name: "inception_3a/relu_1x1"
  type: "ReLU"
  bottom: "inception_3a/1x1"
  top: "inception_3a/1x1"
}
layer {
  name: "inception_3a/3x3_reduce"
  type: "Convolution"
  bottom: "pool2/3x3_s2"
  top: "inception_3a/3x3_reduce"
  param {
    lr_mult: 1
    decay_mult: 1
  }
  param {
    lr_mult: 2
    decay_mult: 0
  }
  convolution_param {
    num_output: 96
    kernel_size: 1
    weight_filler {
      type: "xavier"
      std: 0.09
    }
    bias_filler {
      type: "constant"
      value: 0.2
    }
  }
}
layer {
  name: "inception_3a/relu_3x3_reduce"
  type: "ReLU"
  bottom: "inception_3a/3x3_reduce"
  top: "inception_3a/3x3_reduce"
}
layer {
  name: "inception_3a/3x3"
  type: "Convolution"
  bottom: "inception_3a/3x3_reduce"
  top: "inception_3a/3x3"
  param {
    lr_mult: 1
    decay_mult: 1
  }
  param {
    lr_mult: 2
    decay_mult: 0
  }
  convolution_param {
    num_output: 128
    pad: 1
    kernel_size: 3
    weight_filler {
      type: "xavier"
      std: 0.03
    }
    bias_filler {
      type: "constant"
      value: 0.2
    }
  }
}
layer {
  name: "inception_3a/relu_3x3"
  type: "ReLU"
  bottom: "inception_3a/3x3"
  top: "inception_3a/3x3"
}
layer {
  name: "inception_3a/5x5_reduce"
  type: "Convolution"
  bottom: "pool2/3x3_s2"
  top: "inception_3a/5x5_reduce"
  param {
    lr_mult: 1
    decay_mult: 1
  }
  param {
    lr_mult: 2
    decay_mult: 0
  }
  convolution_param {
    num_output: 16
    kernel_size: 1
    weight_filler {
      type: "xavier"
      std: 0.2
    }
    bias_filler {
      type: "constant"
      value: 0.2
    }
  }
}
layer {
  name: "inception_3a/relu_5x5_reduce"
  type: "ReLU"
  bottom: "inception_3a/5x5_reduce"
  top: "inception_3a/5x5_reduce"
}
layer {
  name: "inception_3a/5x5"
  type: "Convolution"
  bottom: "inception_3a/5x5_reduce"
  top: "inception_3a/5x5"
  param {
    lr_mult: 1
    decay_mult: 1
  }
  param {
    lr_mult: 2
    decay_mult: 0
  }
  convolution_param {
    num_output: 32
    pad: 2
    kernel_size: 5
    weight_filler {
      type: "xavier"
      std: 0.03
    }
    bias_filler {
      type: "constant"
      value: 0.2
    }
  }
}
layer {
  name: "inception_3a/relu_5x5"
  type: "ReLU"
  bottom: "inception_3a/5x5"
  top: "inception_3a/5x5"
}
layer {
  name: "inception_3a/pool"
  type: "Pooling"
  bottom: "pool2/3x3_s2"
  top: "inception_3a/pool"
  pooling_param {
    pool: MAX
    kernel_size: 3
    stride: 1
    pad: 1
  }
}
layer {
  name: "inception_3a/pool_proj"
  type: "Convolution"
  bottom: "inception_3a/pool"
  top: "inception_3a/pool_proj"
  param {
    lr_mult: 1
    decay_mult: 1
  }
  param {
    lr_mult: 2
    decay_mult: 0
  }
  convolution_param {
    num_output: 32
    kernel_size: 1
    weight_filler {
      type: "xavier"
      std: 0.1
    }
    bias_filler {
      type: "constant"
      value: 0.2
    }
  }
}
layer {
  name: "inception_3a/relu_pool_proj"
  type: "ReLU"
  bottom: "inception_3a/pool_proj"
  top: "inception_3a/pool_proj"
}
layer {
  name: "inception_3a/output"
  type: "Concat"
  bottom: "inception_3a/1x1"
  bottom: "inception_3a/3x3"
  bottom: "inception_3a/5x5"
  bottom: "inception_3a/pool_proj"
  top: "inception_3a/output"
}
layer {
  name: "inception_3b/1x1"
  type: "Convolution"
  bottom: "inception_3a/output"
  top: "inception_3b/1x1"
  param {
    lr_mult: 1
    decay_mult: 1
  }
  param {
    lr_mult: 2
    decay_mult: 0
  }
  convolution_param {
    num_output: 128
    kernel_size: 1
    weight_filler {
      type: "xavier"
      std: 0.03
    }
    bias_filler {
      type: "constant"
      value: 0.2
    }
  }
}
layer {
  name: "inception_3b/relu_1x1"
  type: "ReLU"
  bottom: "inception_3b/1x1"
  top: "inception_3b/1x1"
}
layer {
  name: "inception_3b/3x3_reduce"
  type: "Convolution"
  bottom: "inception_3a/output"
  top: "inception_3b/3x3_reduce"
  param {
    lr_mult: 1
    decay_mult: 1
  }
  param {
    lr_mult: 2
    decay_mult: 0
  }
  convolution_param {
    num_output: 128
    kernel_size: 1
    weight_filler {
      type: "xavier"
      std: 0.09
    }
    bias_filler {
      type: "constant"
      value: 0.2
    }
  }
}
layer {
  name: "inception_3b/relu_3x3_reduce"
  type: "ReLU"
  bottom: "inception_3b/3x3_reduce"
  top: "inception_3b/3x3_reduce"
}
layer {
  name: "inception_3b/3x3"
  type: "Convolution"
  bottom: "inception_3b/3x3_reduce"
  top: "inception_3b/3x3"
  param {
    lr_mult: 1
    decay_mult: 1
  }
  param {
    lr_mult: 2
    decay_mult: 0
  }
  convolution_param {
    num_output: 192
    pad: 1
    kernel_size: 3
    weight_filler {
      type: "xavier"
      std: 0.03
    }
    bias_filler {
      type: "constant"
      value: 0.2
    }
  }
}
layer {
  name: "inception_3b/relu_3x3"
  type: "ReLU"
  bottom: "inception_3b/3x3"
  top: "inception_3b/3x3"
}
layer {
  name: "inception_3b/5x5_reduce"
  type: "Convolution"
  bottom: "inception_3a/output"
  top: "inception_3b/5x5_reduce"
  param {
    lr_mult: 1
    decay_mult: 1
  }
  param {
    lr_mult: 2
    decay_mult: 0
  }
  convolution_param {
    num_output: 32
    kernel_size: 1
    weight_filler {
      type: "xavier"
      std: 0.2
    }
    bias_filler {
      type: "constant"
      value: 0.2
    }
  }
}
layer {
  name: "inception_3b/relu_5x5_reduce"
  type: "ReLU"
  bottom: "inception_3b/5x5_reduce"
  top: "inception_3b/5x5_reduce"
}
layer {
  name: "inception_3b/5x5"
  type: "Convolution"
  bottom: "inception_3b/5x5_reduce"
  top: "inception_3b/5x5"
  param {
    lr_mult: 1
    decay_mult: 1
  }
  param {
    lr_mult: 2
    decay_mult: 0
  }
  convolution_param {
    num_output: 96
    pad: 2
    kernel_size: 5
    weight_filler {
      type: "xavier"
      std: 0.03
    }
    bias_filler {
      type: "constant"
      value: 0.2
    }
  }
}
layer {
  name: "inception_3b/relu_5x5"
  type: "ReLU"
  bottom: "inception_3b/5x5"
  top: "inception_3b/5x5"
}
layer {
  name: "inception_3b/pool"
  type: "Pooling"
  bottom: "inception_3a/output"
  top: "inception_3b/pool"
  pooling_param {
    pool: MAX
    kernel_size: 3
    stride: 1
    pad: 1
  }
}
layer {
  name: "inception_3b/pool_proj"
  type: "Convolution"
  bottom: "inception_3b/pool"
  top: "inception_3b/pool_proj"
  param {
    lr_mult: 1
    decay_mult: 1
  }
  param {
    lr_mult: 2
    decay_mult: 0
  }
  convolution_param {
    num_output: 64
    kernel_size: 1
    weight_filler {
      type: "xavier"
      std: 0.1
    }
    bias_filler {
      type: "constant"
      value: 0.2
    }
  }
}
layer {
  name: "inception_3b/relu_pool_proj"
  type: "ReLU"
  bottom: "inception_3b/pool_proj"
  top: "inception_3b/pool_proj"
}
layer {
  name: "inception_3b/output"
  type: "Concat"
  bottom: "inception_3b/1x1"
  bottom: "inception_3b/3x3"
  bottom: "inception_3b/5x5"
  bottom: "inception_3b/pool_proj"
  top: "inception_3b/output"
}
layer {
  name: "pool3/3x3_s2"
  type: "Pooling"
  bottom: "inception_3b/output"
  top: "pool3/3x3_s2"
  pooling_param {
    pool: MAX
    kernel_size: 3
    stride: 2
  }
}
layer {
  name: "inception_4a/1x1"
  type: "Convolution"
  bottom: "pool3/3x3_s2"
  top: "inception_4a/1x1"
  param {
    lr_mult: 1
    decay_mult: 1
  }
  param {
    lr_mult: 2
    decay_mult: 0
  }
  convolution_param {
    num_output: 192
    kernel_size: 1
    weight_filler {
      type: "xavier"
      std: 0.03
    }
    bias_filler {
      type: "constant"
      value: 0.2
    }
  }
}
layer {
  name: "inception_4a/relu_1x1"
  type: "ReLU"
  bottom: "inception_4a/1x1"
  top: "inception_4a/1x1"
}
layer {
  name: "inception_4a/3x3_reduce"
  type: "Convolution"
  bottom: "pool3/3x3_s2"
  top: "inception_4a/3x3_reduce"
  param {
    lr_mult: 1
    decay_mult: 1
  }
  param {
    lr_mult: 2
    decay_mult: 0
  }
  convolution_param {
    num_output: 96
    kernel_size: 1
    weight_filler {
      type: "xavier"
      std: 0.09
    }
    bias_filler {
      type: "constant"
      value: 0.2
    }
  }
}
layer {
  name: "inception_4a/relu_3x3_reduce"
  type: "ReLU"
  bottom: "inception_4a/3x3_reduce"
  top: "inception_4a/3x3_reduce"
}
layer {
  name: "inception_4a/3x3"
  type: "Convolution"
  bottom: "inception_4a/3x3_reduce"
  top: "inception_4a/3x3"
  param {
    lr_mult: 1
    decay_mult: 1
  }
  param {
    lr_mult: 2
    decay_mult: 0
  }
  convolution_param {
    num_output: 208
    pad: 1
    kernel_size: 3
    weight_filler {
      type: "xavier"
      std: 0.03
    }
    bias_filler {
      type: "constant"
      value: 0.2
    }
  }
}
layer {
  name: "inception_4a/relu_3x3"
  type: "ReLU"
  bottom: "inception_4a/3x3"
  top: "inception_4a/3x3"
}
layer {
  name: "inception_4a/5x5_reduce"
  type: "Convolution"
  bottom: "pool3/3x3_s2"
  top: "inception_4a/5x5_reduce"
  param {
    lr_mult: 1
    decay_mult: 1
  }
  param {
    lr_mult: 2
    decay_mult: 0
  }
  convolution_param {
    num_output: 16
    kernel_size: 1
    weight_filler {
      type: "xavier"
      std: 0.2
    }
    bias_filler {
      type: "constant"
      value: 0.2
    }
  }
}
layer {
  name: "inception_4a/relu_5x5_reduce"
  type: "ReLU"
  bottom: "inception_4a/5x5_reduce"
  top: "inception_4a/5x5_reduce"
}
layer {
  name: "inception_4a/5x5"
  type: "Convolution"
  bottom: "inception_4a/5x5_reduce"
  top: "inception_4a/5x5"
  param {
    lr_mult: 1
    decay_mult: 1
  }
  param {
    lr_mult: 2
    decay_mult: 0
  }
  convolution_param {
    num_output: 48
    pad: 2
    kernel_size: 5
    weight_filler {
      type: "xavier"
      std: 0.03
    }
    bias_filler {
      type: "constant"
      value: 0.2
    }
  }
}
layer {
  name: "inception_4a/relu_5x5"
  type: "ReLU"
  bottom: "inception_4a/5x5"
  top: "inception_4a/5x5"
}
layer {
  name: "inception_4a/pool"
  type: "Pooling"
  bottom: "pool3/3x3_s2"
  top: "inception_4a/pool"
  pooling_param {
    pool: MAX
    kernel_size: 3
    stride: 1
    pad: 1
  }
}
layer {
  name: "inception_4a/pool_proj"
  type: "Convolution"
  bottom: "inception_4a/pool"
  top: "inception_4a/pool_proj"
  param {
    lr_mult: 1
    decay_mult: 1
  }
  param {
    lr_mult: 2
    decay_mult: 0
  }
  convolution_param {
    num_output: 64
    kernel_size: 1
    weight_filler {
      type: "xavier"
      std: 0.1
    }
    bias_filler {
      type: "constant"
      value: 0.2
    }
  }
}
layer {
  name: "inception_4a/relu_pool_proj"
  type: "ReLU"
  bottom: "inception_4a/pool_proj"
  top: "inception_4a/pool_proj"
}
layer {
  name: "inception_4a/output"
  type: "Concat"
  bottom: "inception_4a/1x1"
  bottom: "inception_4a/3x3"
  bottom: "inception_4a/5x5"
  bottom: "inception_4a/pool_proj"
  top: "inception_4a/output"
}
layer {
  name: "loss1/ave_pool"
  type: "Pooling"
  bottom: "inception_4a/output"
  top: "loss1/ave_pool"
  pooling_param {
    pool: AVE
    kernel_size: 5
    stride: 3
  }
}
layer {
  name: "loss1/conv"
  type: "Convolution"
  bottom: "loss1/ave_pool"
  top: "loss1/conv"
  param {
    lr_mult: 1
    decay_mult: 1
  }
  param {
    lr_mult: 2
    decay_mult: 0
  }
  convolution_param {
    num_output: 128
    kernel_size: 1
    weight_filler {
      type: "xavier"
      std: 0.08
    }
    bias_filler {
      type: "constant"
      value: 0.2
    }
  }
}
layer {
  name: "loss1/relu_conv"
  type: "ReLU"
  bottom: "loss1/conv"
  top: "loss1/conv"
}
layer {
  name: "loss1/fc"
  type: "InnerProduct"
  bottom: "loss1/conv"
  top: "loss1/fc"
  param {
    lr_mult: 1
    decay_mult: 1
  }
  param {
    lr_mult: 2
    decay_mult: 0
  }
  inner_product_param {
    num_output: 1024
    weight_filler {
      type: "xavier"
      std: 0.02
    }
    bias_filler {
      type: "constant"
      value: 0.2
    }
  }
}
layer {
  name: "loss1/relu_fc"
  type: "ReLU"
  bottom: "loss1/fc"
  top: "loss1/fc"
}
layer {
  name: "loss1/drop_fc"
  type: "Dropout"
  bottom: "loss1/fc"
  top: "loss1/fc"
  dropout_param {
    dropout_ratio: 0.7
  }
}
layer {
  name: "loss1/classifier_kaggle"
  type: "InnerProduct"
  bottom: "loss1/fc"
  top: "loss1/classifier_kaggle"
  param {
    lr_mult: 1
    decay_mult: 1
  }
  param {
    lr_mult: 2
    decay_mult: 0
  }
  inner_product_param {
    num_output: 447
    weight_filler {
      type: "xavier"
      std: 0.0009765625
    }
    bias_filler {
      type: "constant"
      value: 0
    }
  }
}
layer {
  name: "loss1/loss"
  type: "SoftmaxWithLoss"
  bottom: "loss1/classifier_kaggle"
  bottom: "label"
  top: "loss1/loss1"
  loss_weight: 0.3
}
layer {
  name: "inception_4b/1x1"
  type: "Convolution"
  bottom: "inception_4a/output"
  top: "inception_4b/1x1"
  param {
    lr_mult: 1
    decay_mult: 1
  }
  param {
    lr_mult: 2
    decay_mult: 0
  }
  convolution_param {
    num_output: 160
    kernel_size: 1
    weight_filler {
      type: "xavier"
      std: 0.03
    }
    bias_filler {
      type: "constant"
      value: 0.2
    }
  }
}
layer {
  name: "inception_4b/relu_1x1"
  type: "ReLU"
  bottom: "inception_4b/1x1"
  top: "inception_4b/1x1"
}
layer {
  name: "inception_4b/3x3_reduce"
  type: "Convolution"
  bottom: "inception_4a/output"
  top: "inception_4b/3x3_reduce"
  param {
    lr_mult: 1
    decay_mult: 1
  }
  param {
    lr_mult: 2
    decay_mult: 0
  }
  convolution_param {
    num_output: 112
    kernel_size: 1
    weight_filler {
      type: "xavier"
      std: 0.09
    }
    bias_filler {
      type: "constant"
      value: 0.2
    }
  }
}
layer {
  name: "inception_4b/relu_3x3_reduce"
  type: "ReLU"
  bottom: "inception_4b/3x3_reduce"
  top: "inception_4b/3x3_reduce"
}
layer {
  name: "inception_4b/3x3"
  type: "Convolution"
  bottom: "inception_4b/3x3_reduce"
  top: "inception_4b/3x3"
  param {
    lr_mult: 1
    decay_mult: 1
  }
  param {
    lr_mult: 2
    decay_mult: 0
  }
  convolution_param {
    num_output: 224
    pad: 1
    kernel_size: 3
    weight_filler {
      type: "xavier"
      std: 0.03
    }
    bias_filler {
      type: "constant"
      value: 0.2
    }
  }
}
layer {
  name: "inception_4b/relu_3x3"
  type: "ReLU"
  bottom: "inception_4b/3x3"
  top: "inception_4b/3x3"
}
layer {
  name: "inception_4b/5x5_reduce"
  type: "Convolution"
  bottom: "inception_4a/output"
  top: "inception_4b/5x5_reduce"
  param {
    lr_mult: 1
    decay_mult: 1
  }
  param {
    lr_mult: 2
    decay_mult: 0
  }
  convolution_param {
    num_output: 24
    kernel_size: 1
    weight_filler {
      type: "xavier"
      std: 0.2
    }
    bias_filler {
      type: "constant"
      value: 0.2
    }
  }
}
layer {
  name: "inception_4b/relu_5x5_reduce"
  type: "ReLU"
  bottom: "inception_4b/5x5_reduce"
  top: "inception_4b/5x5_reduce"
}
layer {
  name: "inception_4b/5x5"
  type: "Convolution"
  bottom: "inception_4b/5x5_reduce"
  top: "inception_4b/5x5"
  param {
    lr_mult: 1
    decay_mult: 1
  }
  param {
    lr_mult: 2
    decay_mult: 0
  }
  convolution_param {
    num_output: 64
    pad: 2
    kernel_size: 5
    weight_filler {
      type: "xavier"
      std: 0.03
    }
    bias_filler {
      type: "constant"
      value: 0.2
    }
  }
}
layer {
  name: "inception_4b/relu_5x5"
  type: "ReLU"
  bottom: "inception_4b/5x5"
  top: "inception_4b/5x5"
}
layer {
  name: "inception_4b/pool"
  type: "Pooling"
  bottom: "inception_4a/output"
  top: "inception_4b/pool"
  pooling_param {
    pool: MAX
    kernel_size: 3
    stride: 1
    pad: 1
  }
}
layer {
  name: "inception_4b/pool_proj"
  type: "Convolution"
  bottom: "inception_4b/pool"
  top: "inception_4b/pool_proj"
  param {
    lr_mult: 1
    decay_mult: 1
  }
  param {
    lr_mult: 2
    decay_mult: 0
  }
  convolution_param {
    num_output: 64
    kernel_size: 1
    weight_filler {
      type: "xavier"
      std: 0.1
    }
    bias_filler {
      type: "constant"
      value: 0.2
    }
  }
}
layer {
  name: "inception_4b/relu_pool_proj"
  type: "ReLU"
  bottom: "inception_4b/pool_proj"
  top: "inception_4b/pool_proj"
}
layer {
  name: "inception_4b/output"
  type: "Concat"
  bottom: "inception_4b/1x1"
  bottom: "inception_4b/3x3"
  bottom: "inception_4b/5x5"
  bottom: "inception_4b/pool_proj"
  top: "inception_4b/output"
}
layer {
  name: "inception_4c/1x1"
  type: "Convolution"
  bottom: "inception_4b/output"
  top: "inception_4c/1x1"
  param {
    lr_mult: 1
    decay_mult: 1
  }
  param {
    lr_mult: 2
    decay_mult: 0
  }
  convolution_param {
    num_output: 128
    kernel_size: 1
    weight_filler {
      type: "xavier"
      std: 0.03
    }
    bias_filler {
      type: "constant"
      value: 0.2
    }
  }
}
layer {
  name: "inception_4c/relu_1x1"
  type: "ReLU"
  bottom: "inception_4c/1x1"
  top: "inception_4c/1x1"
}
layer {
  name: "inception_4c/3x3_reduce"
  type: "Convolution"
  bottom: "inception_4b/output"
  top: "inception_4c/3x3_reduce"
  param {
    lr_mult: 1
    decay_mult: 1
  }
  param {
    lr_mult: 2
    decay_mult: 0
  }
  convolution_param {
    num_output: 128
    kernel_size: 1
    weight_filler {
      type: "xavier"
      std: 0.09
    }
    bias_filler {
      type: "constant"
      value: 0.2
    }
  }
}
layer {
  name: "inception_4c/relu_3x3_reduce"
  type: "ReLU"
  bottom: "inception_4c/3x3_reduce"
  top: "inception_4c/3x3_reduce"
}
layer {
  name: "inception_4c/3x3"
  type: "Convolution"
  bottom: "inception_4c/3x3_reduce"
  top: "inception_4c/3x3"
  param {
    lr_mult: 1
    decay_mult: 1
  }
  param {
    lr_mult: 2
    decay_mult: 0
  }
  convolution_param {
    num_output: 256
    pad: 1
    kernel_size: 3
    weight_filler {
      type: "xavier"
      std: 0.03
    }
    bias_filler {
      type: "constant"
      value: 0.2
    }
  }
}
layer {
  name: "inception_4c/relu_3x3"
  type: "ReLU"
  bottom: "inception_4c/3x3"
  top: "inception_4c/3x3"
}
layer {
  name: "inception_4c/5x5_reduce"
  type: "Convolution"
  bottom: "inception_4b/output"
  top: "inception_4c/5x5_reduce"
  param {
    lr_mult: 1
    decay_mult: 1
  }
  param {
    lr_mult: 2
    decay_mult: 0
  }
  convolution_param {
    num_output: 24
    kernel_size: 1
    weight_filler {
      type: "xavier"
      std: 0.2
    }
    bias_filler {
      type: "constant"
      value: 0.2
    }
  }
}
layer {
  name: "inception_4c/relu_5x5_reduce"
  type: "ReLU"
  bottom: "inception_4c/5x5_reduce"
  top: "inception_4c/5x5_reduce"
}
layer {
  name: "inception_4c/5x5"
  type: "Convolution"
  bottom: "inception_4c/5x5_reduce"
  top: "inception_4c/5x5"
  param {
    lr_mult: 1
    decay_mult: 1
  }
  param {
    lr_mult: 2
    decay_mult: 0
  }
  convolution_param {
    num_output: 64
    pad: 2
    kernel_size: 5
    weight_filler {
      type: "xavier"
      std: 0.03
    }
    bias_filler {
      type: "constant"
      value: 0.2
    }
  }
}
layer {
  name: "inception_4c/relu_5x5"
  type: "ReLU"
  bottom: "inception_4c/5x5"
  top: "inception_4c/5x5"
}
layer {
  name: "inception_4c/pool"
  type: "Pooling"
  bottom: "inception_4b/output"
  top: "inception_4c/pool"
  pooling_param {
    pool: MAX
    kernel_size: 3
    stride: 1
    pad: 1
  }
}
layer {
  name: "inception_4c/pool_proj"
  type: "Convolution"
  bottom: "inception_4c/pool"
  top: "inception_4c/pool_proj"
  param {
    lr_mult: 1
    decay_mult: 1
  }
  param {
    lr_mult: 2
    decay_mult: 0
  }
  convolution_param {
    num_output: 64
    kernel_size: 1
    weight_filler {
      type: "xavier"
      std: 0.1
    }
    bias_filler {
      type: "constant"
      value: 0.2
    }
  }
}
layer {
  name: "inception_4c/relu_pool_proj"
  type: "ReLU"
  bottom: "inception_4c/pool_proj"
  top: "inception_4c/pool_proj"
}
layer {
  name: "inception_4c/output"
  type: "Concat"
  bottom: "inception_4c/1x1"
  bottom: "inception_4c/3x3"
  bottom: "inception_4c/5x5"
  bottom: "inception_4c/pool_proj"
  top: "inception_4c/output"
}
layer {
  name: "inception_4d/1x1"
  type: "Convolution"
  bottom: "inception_4c/output"
  top: "inception_4d/1x1"
  param {
    lr_mult: 1
    decay_mult: 1
  }
  param {
    lr_mult: 2
    decay_mult: 0
  }
  convolution_param {
    num_output: 112
    kernel_size: 1
    weight_filler {
      type: "xavier"
      std: 0.03
    }
    bias_filler {
      type: "constant"
      value: 0.2
    }
  }
}
layer {
  name: "inception_4d/relu_1x1"
  type: "ReLU"
  bottom: "inception_4d/1x1"
  top: "inception_4d/1x1"
}
layer {
  name: "inception_4d/3x3_reduce"
  type: "Convolution"
  bottom: "inception_4c/output"
  top: "inception_4d/3x3_reduce"
  param {
    lr_mult: 1
    decay_mult: 1
  }
  param {
    lr_mult: 2
    decay_mult: 0
  }
  convolution_param {
    num_output: 144
    kernel_size: 1
    weight_filler {
      type: "xavier"
      std: 0.09
    }
    bias_filler {
      type: "constant"
      value: 0.2
    }
  }
}
layer {
  name: "inception_4d/relu_3x3_reduce"
  type: "ReLU"
  bottom: "inception_4d/3x3_reduce"
  top: "inception_4d/3x3_reduce"
}
layer {
  name: "inception_4d/3x3"
  type: "Convolution"
  bottom: "inception_4d/3x3_reduce"
  top: "inception_4d/3x3"
  param {
    lr_mult: 1
    decay_mult: 1
  }
  param {
    lr_mult: 2
    decay_mult: 0
  }
  convolution_param {
    num_output: 288
    pad: 1
    kernel_size: 3
    weight_filler {
      type: "xavier"
      std: 0.03
    }
    bias_filler {
      type: "constant"
      value: 0.2
    }
  }
}
layer {
  name: "inception_4d/relu_3x3"
  type: "ReLU"
  bottom: "inception_4d/3x3"
  top: "inception_4d/3x3"
}
layer {
  name: "inception_4d/5x5_reduce"
  type: "Convolution"
  bottom: "inception_4c/output"
  top: "inception_4d/5x5_reduce"
  param {
    lr_mult: 1
    decay_mult: 1
  }
  param {
    lr_mult: 2
    decay_mult: 0
  }
  convolution_param {
    num_output: 32
    kernel_size: 1
    weight_filler {
      type: "xavier"
      std: 0.2
    }
    bias_filler {
      type: "constant"
      value: 0.2
    }
  }
}
layer {
  name: "inception_4d/relu_5x5_reduce"
  type: "ReLU"
  bottom: "inception_4d/5x5_reduce"
  top: "inception_4d/5x5_reduce"
}
layer {
  name: "inception_4d/5x5"
  type: "Convolution"
  bottom: "inception_4d/5x5_reduce"
  top: "inception_4d/5x5"
  param {
    lr_mult: 1
    decay_mult: 1
  }
  param {
    lr_mult: 2
    decay_mult: 0
  }
  convolution_param {
    num_output: 64
    pad: 2
    kernel_size: 5
    weight_filler {
      type: "xavier"
      std: 0.03
    }
    bias_filler {
      type: "constant"
      value: 0.2
    }
  }
}
layer {
  name: "inception_4d/relu_5x5"
  type: "ReLU"
  bottom: "inception_4d/5x5"
  top: "inception_4d/5x5"
}
layer {
  name: "inception_4d/pool"
  type: "Pooling"
  bottom: "inception_4c/output"
  top: "inception_4d/pool"
  pooling_param {
    pool: MAX
    kernel_size: 3
    stride: 1
    pad: 1
  }
}
layer {
  name: "inception_4d/pool_proj"
  type: "Convolution"
  bottom: "inception_4d/pool"
  top: "inception_4d/pool_proj"
  param {
    lr_mult: 1
    decay_mult: 1
  }
  param {
    lr_mult: 2
    decay_mult: 0
  }
  convolution_param {
    num_output: 64
    kernel_size: 1
    weight_filler {
      type: "xavier"
      std: 0.1
    }
    bias_filler {
      type: "constant"
      value: 0.2
    }
  }
}
layer {
  name: "inception_4d/relu_pool_proj"
  type: "ReLU"
  bottom: "inception_4d/pool_proj"
  top: "inception_4d/pool_proj"
}
layer {
  name: "inception_4d/output"
  type: "Concat"
  bottom: "inception_4d/1x1"
  bottom: "inception_4d/3x3"
  bottom: "inception_4d/5x5"
  bottom: "inception_4d/pool_proj"
  top: "inception_4d/output"
}
layer {
  name: "loss2/ave_pool"
  type: "Pooling"
  bottom: "inception_4d/output"
  top: "loss2/ave_pool"
  pooling_param {
    pool: AVE
    kernel_size: 5
    stride: 3
  }
}
layer {
  name: "loss2/conv"
  type: "Convolution"
  bottom: "loss2/ave_pool"
  top: "loss2/conv"
  param {
    lr_mult: 1
    decay_mult: 1
  }
  param {
    lr_mult: 2
    decay_mult: 0
  }
  convolution_param {
    num_output: 128
    kernel_size: 1
    weight_filler {
      type: "xavier"
      std: 0.08
    }
    bias_filler {
      type: "constant"
      value: 0.2
    }
  }
}
layer {
  name: "loss2/relu_conv"
  type: "ReLU"
  bottom: "loss2/conv"
  top: "loss2/conv"
}
layer {
  name: "loss2/fc"
  type: "InnerProduct"
  bottom: "loss2/conv"
  top: "loss2/fc"
  param {
    lr_mult: 1
    decay_mult: 1
  }
  param {
    lr_mult: 2
    decay_mult: 0
  }
  inner_product_param {
    num_output: 1024
    weight_filler {
      type: "xavier"
      std: 0.02
    }
    bias_filler {
      type: "constant"
      value: 0.2
    }
  }
}
layer {
  name: "loss2/relu_fc"
  type: "ReLU"
  bottom: "loss2/fc"
  top: "loss2/fc"
}
layer {
  name: "loss2/drop_fc"
  type: "Dropout"
  bottom: "loss2/fc"
  top: "loss2/fc"
  dropout_param {
    dropout_ratio: 0.7
  }
}
layer {
  name: "loss2/classifier_kaggle"
  type: "InnerProduct"
  bottom: "loss2/fc"
  top: "loss2/classifier_kaggle"
  param {
    lr_mult: 1
    decay_mult: 1
  }
  param {
    lr_mult: 2
    decay_mult: 0
  }
  inner_product_param {
    num_output: 447
    weight_filler {
      type: "xavier"
      std: 0.0009765625
    }
    bias_filler {
      type: "constant"
      value: 0
    }
  }
}
layer {
  name: "loss2/loss"
  type: "SoftmaxWithLoss"
  bottom: "loss2/classifier_kaggle"
  bottom: "label"
  top: "loss2/loss1"
  loss_weight: 0.3
}
layer {
  name: "inception_4e/1x1"
  type: "Convolution"
  bottom: "inception_4d/output"
  top: "inception_4e/1x1"
  param {
    lr_mult: 1
    decay_mult: 1
  }
  param {
    lr_mult: 2
    decay_mult: 0
  }
  convolution_param {
    num_output: 256
    kernel_size: 1
    weight_filler {
      type: "xavier"
      std: 0.03
    }
    bias_filler {
      type: "constant"
      value: 0.2
    }
  }
}
layer {
  name: "inception_4e/relu_1x1"
  type: "ReLU"
  bottom: "inception_4e/1x1"
  top: "inception_4e/1x1"
}
layer {
  name: "inception_4e/3x3_reduce"
  type: "Convolution"
  bottom: "inception_4d/output"
  top: "inception_4e/3x3_reduce"
  param {
    lr_mult: 1
    decay_mult: 1
  }
  param {
    lr_mult: 2
    decay_mult: 0
  }
  convolution_param {
    num_output: 160
    kernel_size: 1
    weight_filler {
      type: "xavier"
      std: 0.09
    }
    bias_filler {
      type: "constant"
      value: 0.2
    }
  }
}
layer {
  name: "inception_4e/relu_3x3_reduce"
  type: "ReLU"
  bottom: "inception_4e/3x3_reduce"
  top: "inception_4e/3x3_reduce"
}
layer {
  name: "inception_4e/3x3"
  type: "Convolution"
  bottom: "inception_4e/3x3_reduce"
  top: "inception_4e/3x3"
  param {
    lr_mult: 1
    decay_mult: 1
  }
  param {
    lr_mult: 2
    decay_mult: 0
  }
  convolution_param {
    num_output: 320
    pad: 1
    kernel_size: 3
    weight_filler {
      type: "xavier"
      std: 0.03
    }
    bias_filler {
      type: "constant"
      value: 0.2
    }
  }
}
layer {
  name: "inception_4e/relu_3x3"
  type: "ReLU"
  bottom: "inception_4e/3x3"
  top: "inception_4e/3x3"
}
layer {
  name: "inception_4e/5x5_reduce"
  type: "Convolution"
  bottom: "inception_4d/output"
  top: "inception_4e/5x5_reduce"
  param {
    lr_mult: 1
    decay_mult: 1
  }
  param {
    lr_mult: 2
    decay_mult: 0
  }
  convolution_param {
    num_output: 32
    kernel_size: 1
    weight_filler {
      type: "xavier"
      std: 0.2
    }
    bias_filler {
      type: "constant"
      value: 0.2
    }
  
I1215 11:38:57.316396 25197 layer_factory.hpp:74] Creating layer data
I1215 11:38:57.316443 25197 net.cpp:84] Creating Layer data
I1215 11:38:57.316457 25197 net.cpp:338] data -> data
I1215 11:38:57.316511 25197 net.cpp:338] data -> label
I1215 11:38:57.316534 25197 net.cpp:113] Setting up data
I1215 11:38:57.316634 25197 db.cpp:34] Opened lmdb /home/coldmanck/kaggle/kaggle2_train_lmdb
I1215 11:38:57.316931 25197 data_layer.cpp:67] output data size: 32,3,224,224
I1215 11:38:57.323390 25197 net.cpp:120] Top shape: 32 3 224 224 (4816896)
I1215 11:38:57.323422 25197 net.cpp:120] Top shape: 32 (32)
I1215 11:38:57.323436 25197 layer_factory.hpp:74] Creating layer label_data_1_split
I1215 11:38:57.323462 25197 net.cpp:84] Creating Layer label_data_1_split
I1215 11:38:57.323473 25197 net.cpp:380] label_data_1_split <- label
I1215 11:38:57.323495 25197 net.cpp:338] label_data_1_split -> label_data_1_split_0
I1215 11:38:57.323515 25197 net.cpp:338] label_data_1_split -> label_data_1_split_1
I1215 11:38:57.323528 25197 net.cpp:338] label_data_1_split -> label_data_1_split_2
I1215 11:38:57.323539 25197 net.cpp:113] Setting up label_data_1_split
I1215 11:38:57.323554 25197 net.cpp:120] Top shape: 32 (32)
I1215 11:38:57.323576 25197 net.cpp:120] Top shape: 32 (32)
I1215 11:38:57.323601 25197 net.cpp:120] Top shape: 32 (32)
I1215 11:38:57.323609 25197 layer_factory.hpp:74] Creating layer conv1/7x7_s2
I1215 11:38:57.323626 25197 net.cpp:84] Creating Layer conv1/7x7_s2
I1215 11:38:57.323634 25197 net.cpp:380] conv1/7x7_s2 <- data
I1215 11:38:57.323647 25197 net.cpp:338] conv1/7x7_s2 -> conv1/7x7_s2
I1215 11:38:57.323663 25197 net.cpp:113] Setting up conv1/7x7_s2
I1215 11:38:57.679074 25197 net.cpp:120] Top shape: 32 64 112 112 (25690112)
I1215 11:38:57.679210 25197 layer_factory.hpp:74] Creating layer conv1/relu_7x7
I1215 11:38:57.679291 25197 net.cpp:84] Creating Layer conv1/relu_7x7
I1215 11:38:57.679325 25197 net.cpp:380] conv1/relu_7x7 <- conv1/7x7_s2
I1215 11:38:57.679364 25197 net.cpp:327] conv1/relu_7x7 -> conv1/7x7_s2 (in-place)
I1215 11:38:57.679388 25197 net.cpp:113] Setting up conv1/relu_7x7
I1215 11:38:57.679919 25197 net.cpp:120] Top shape: 32 64 112 112 (25690112)
I1215 11:38:57.679936 25197 layer_factory.hpp:74] Creating layer pool1/3x3_s2
I1215 11:38:57.679975 25197 net.cpp:84] Creating Layer pool1/3x3_s2
I1215 11:38:57.679985 25197 net.cpp:380] pool1/3x3_s2 <- conv1/7x7_s2
I1215 11:38:57.679996 25197 net.cpp:338] pool1/3x3_s2 -> pool1/3x3_s2
I1215 11:38:57.680007 25197 net.cpp:113] Setting up pool1/3x3_s2
I1215 11:38:57.680105 25197 net.cpp:120] Top shape: 32 64 56 56 (6422528)
I1215 11:38:57.680281 25197 layer_factory.hpp:74] Creating layer pool1/norm1
I1215 11:38:57.680315 25197 net.cpp:84] Creating Layer pool1/norm1
I1215 11:38:57.680325 25197 net.cpp:380] pool1/norm1 <- pool1/3x3_s2
I1215 11:38:57.680336 25197 net.cpp:338] pool1/norm1 -> pool1/norm1
I1215 11:38:57.680351 25197 net.cpp:113] Setting up pool1/norm1
I1215 11:38:57.680363 25197 net.cpp:120] Top shape: 32 64 56 56 (6422528)
I1215 11:38:57.680380 25197 layer_factory.hpp:74] Creating layer conv2/3x3_reduce
I1215 11:38:57.680395 25197 net.cpp:84] Creating Layer conv2/3x3_reduce
I1215 11:38:57.680404 25197 net.cpp:380] conv2/3x3_reduce <- pool1/norm1
I1215 11:38:57.680430 25197 net.cpp:338] conv2/3x3_reduce -> conv2/3x3_reduce
I1215 11:38:57.680449 25197 net.cpp:113] Setting up conv2/3x3_reduce
I1215 11:38:57.681025 25197 net.cpp:120] Top shape: 32 64 56 56 (6422528)
I1215 11:38:57.681051 25197 layer_factory.hpp:74] Creating layer conv2/relu_3x3_reduce
I1215 11:38:57.681082 25197 net.cpp:84] Creating Layer conv2/relu_3x3_reduce
I1215 11:38:57.681092 25197 net.cpp:380] conv2/relu_3x3_reduce <- conv2/3x3_reduce
I1215 11:38:57.681105 25197 net.cpp:327] conv2/relu_3x3_reduce -> conv2/3x3_reduce (in-place)
I1215 11:38:57.681118 25197 net.cpp:113] Setting up conv2/relu_3x3_reduce
I1215 11:38:57.681221 25197 net.cpp:120] Top shape: 32 64 56 56 (6422528)
I1215 11:38:57.681246 25197 layer_factory.hpp:74] Creating layer conv2/3x3
I1215 11:38:57.681272 25197 net.cpp:84] Creating Layer conv2/3x3
I1215 11:38:57.681283 25197 net.cpp:380] conv2/3x3 <- conv2/3x3_reduce
I1215 11:38:57.681303 25197 net.cpp:338] conv2/3x3 -> conv2/3x3
I1215 11:38:57.681316 25197 net.cpp:113] Setting up conv2/3x3
I1215 11:38:57.683473 25197 net.cpp:120] Top shape: 32 192 56 56 (19267584)
I1215 11:38:57.683498 25197 layer_factory.hpp:74] Creating layer conv2/relu_3x3
I1215 11:38:57.683509 25197 net.cpp:84] Creating Layer conv2/relu_3x3
I1215 11:38:57.683518 25197 net.cpp:380] conv2/relu_3x3 <- conv2/3x3
I1215 11:38:57.683528 25197 net.cpp:327] conv2/relu_3x3 -> conv2/3x3 (in-place)
I1215 11:38:57.683539 25197 net.cpp:113] Setting up conv2/relu_3x3
I1215 11:38:57.684070 25197 net.cpp:120] Top shape: 32 192 56 56 (19267584)
I1215 11:38:57.684108 25197 layer_factory.hpp:74] Creating layer conv2/norm2
I1215 11:38:57.684121 25197 net.cpp:84] Creating Layer conv2/norm2
I1215 11:38:57.684131 25197 net.cpp:380] conv2/norm2 <- conv2/3x3
I1215 11:38:57.684154 25197 net.cpp:338] conv2/norm2 -> conv2/norm2
I1215 11:38:57.684177 25197 net.cpp:113] Setting up conv2/norm2
I1215 11:38:57.684192 25197 net.cpp:120] Top shape: 32 192 56 56 (19267584)
I1215 11:38:57.684200 25197 layer_factory.hpp:74] Creating layer pool2/3x3_s2
I1215 11:38:57.684221 25197 net.cpp:84] Creating Layer pool2/3x3_s2
I1215 11:38:57.684242 25197 net.cpp:380] pool2/3x3_s2 <- conv2/norm2
I1215 11:38:57.684252 25197 net.cpp:338] pool2/3x3_s2 -> pool2/3x3_s2
I1215 11:38:57.684262 25197 net.cpp:113] Setting up pool2/3x3_s2
I1215 11:38:57.686897 25197 net.cpp:120] Top shape: 32 192 28 28 (4816896)
I1215 11:38:57.686923 25197 layer_factory.hpp:74] Creating layer pool2/3x3_s2_pool2/3x3_s2_0_split
I1215 11:38:57.686931 25197 net.cpp:84] Creating Layer pool2/3x3_s2_pool2/3x3_s2_0_split
I1215 11:38:57.686938 25197 net.cpp:380] pool2/3x3_s2_pool2/3x3_s2_0_split <- pool2/3x3_s2
I1215 11:38:57.686945 25197 net.cpp:338] pool2/3x3_s2_pool2/3x3_s2_0_split -> pool2/3x3_s2_pool2/3x3_s2_0_split_0
I1215 11:38:57.686954 25197 net.cpp:338] pool2/3x3_s2_pool2/3x3_s2_0_split -> pool2/3x3_s2_pool2/3x3_s2_0_split_1
I1215 11:38:57.686965 25197 net.cpp:338] pool2/3x3_s2_pool2/3x3_s2_0_split -> pool2/3x3_s2_pool2/3x3_s2_0_split_2
I1215 11:38:57.686978 25197 net.cpp:338] pool2/3x3_s2_pool2/3x3_s2_0_split -> pool2/3x3_s2_pool2/3x3_s2_0_split_3
I1215 11:38:57.686987 25197 net.cpp:113] Setting up pool2/3x3_s2_pool2/3x3_s2_0_split
I1215 11:38:57.687001 25197 net.cpp:120] Top shape: 32 192 28 28 (4816896)
I1215 11:38:57.687012 25197 net.cpp:120] Top shape: 32 192 28 28 (4816896)
I1215 11:38:57.687022 25197 net.cpp:120] Top shape: 32 192 28 28 (4816896)
I1215 11:38:57.687031 25197 net.cpp:120] Top shape: 32 192 28 28 (4816896)
I1215 11:38:57.687038 25197 layer_factory.hpp:74] Creating layer inception_3a/1x1
I1215 11:38:57.687062 25197 net.cpp:84] Creating Layer inception_3a/1x1
I1215 11:38:57.687072 25197 net.cpp:380] inception_3a/1x1 <- pool2/3x3_s2_pool2/3x3_s2_0_split_0
I1215 11:38:57.687085 25197 net.cpp:338] inception_3a/1x1 -> inception_3a/1x1
I1215 11:38:57.687101 25197 net.cpp:113] Setting up inception_3a/1x1
I1215 11:38:57.687863 25197 net.cpp:120] Top shape: 32 64 28 28 (1605632)
I1215 11:38:57.687890 25197 layer_factory.hpp:74] Creating layer inception_3a/relu_1x1
I1215 11:38:57.687904 25197 net.cpp:84] Creating Layer inception_3a/relu_1x1
I1215 11:38:57.687916 25197 net.cpp:380] inception_3a/relu_1x1 <- inception_3a/1x1
I1215 11:38:57.687927 25197 net.cpp:327] inception_3a/relu_1x1 -> inception_3a/1x1 (in-place)
I1215 11:38:57.687940 25197 net.cpp:113] Setting up inception_3a/relu_1x1
I1215 11:38:57.688038 25197 net.cpp:120] Top shape: 32 64 28 28 (1605632)
I1215 11:38:57.688051 25197 layer_factory.hpp:74] Creating layer inception_3a/3x3_reduce
I1215 11:38:57.688065 25197 net.cpp:84] Creating Layer inception_3a/3x3_reduce
I1215 11:38:57.688073 25197 net.cpp:380] inception_3a/3x3_reduce <- pool2/3x3_s2_pool2/3x3_s2_0_split_1
I1215 11:38:57.688086 25197 net.cpp:338] inception_3a/3x3_reduce -> inception_3a/3x3_reduce
I1215 11:38:57.688102 25197 net.cpp:113] Setting up inception_3a/3x3_reduce
I1215 11:38:57.688951 25197 net.cpp:120] Top shape: 32 96 28 28 (2408448)
I1215 11:38:57.688978 25197 layer_factory.hpp:74] Creating layer inception_3a/relu_3x3_reduce
I1215 11:38:57.689012 25197 net.cpp:84] Creating Layer inception_3a/relu_3x3_reduce
I1215 11:38:57.689023 25197 net.cpp:380] inception_3a/relu_3x3_reduce <- inception_3a/3x3_reduce
I1215 11:38:57.689048 25197 net.cpp:327] inception_3a/relu_3x3_reduce -> inception_3a/3x3_reduce (in-place)
I1215 11:38:57.689081 25197 net.cpp:113] Setting up inception_3a/relu_3x3_reduce
I1215 11:38:57.689213 25197 net.cpp:120] Top shape: 32 96 28 28 (2408448)
I1215 11:38:57.689239 25197 layer_factory.hpp:74] Creating layer inception_3a/3x3
I1215 11:38:57.689259 25197 net.cpp:84] Creating Layer inception_3a/3x3
I1215 11:38:57.689267 25197 net.cpp:380] inception_3a/3x3 <- inception_3a/3x3_reduce
I1215 11:38:57.689281 25197 net.cpp:338] inception_3a/3x3 -> inception_3a/3x3
I1215 11:38:57.689295 25197 net.cpp:113] Setting up inception_3a/3x3
I1215 11:38:57.691476 25197 net.cpp:120] Top shape: 32 128 28 28 (3211264)
I1215 11:38:57.691500 25197 layer_factory.hpp:74] Creating layer inception_3a/relu_3x3
I1215 11:38:57.691514 25197 net.cpp:84] Creating Layer inception_3a/relu_3x3
I1215 11:38:57.691541 25197 net.cpp:380] inception_3a/relu_3x3 <- inception_3a/3x3
I1215 11:38:57.691556 25197 net.cpp:327] inception_3a/relu_3x3 -> inception_3a/3x3 (in-place)
I1215 11:38:57.691570 25197 net.cpp:113] Setting up inception_3a/relu_3x3
I1215 11:38:57.691906 25197 net.cpp:120] Top shape: 32 128 28 28 (3211264)
I1215 11:38:57.691925 25197 layer_factory.hpp:74] Creating layer inception_3a/5x5_reduce
I1215 11:38:57.691951 25197 net.cpp:84] Creating Layer inception_3a/5x5_reduce
I1215 11:38:57.691963 25197 net.cpp:380] inception_3a/5x5_reduce <- pool2/3x3_s2_pool2/3x3_s2_0_split_2
I1215 11:38:57.691989 25197 net.cpp:338] inception_3a/5x5_reduce -> inception_3a/5x5_reduce
I1215 11:38:57.692010 25197 net.cpp:113] Setting up inception_3a/5x5_reduce
I1215 11:38:57.692735 25197 net.cpp:120] Top shape: 32 16 28 28 (401408)
I1215 11:38:57.692760 25197 layer_factory.hpp:74] Creating layer inception_3a/relu_5x5_reduce
I1215 11:38:57.692776 25197 net.cpp:84] Creating Layer inception_3a/relu_5x5_reduce
I1215 11:38:57.692786 25197 net.cpp:380] inception_3a/relu_5x5_reduce <- inception_3a/5x5_reduce
I1215 11:38:57.692800 25197 net.cpp:327] inception_3a/relu_5x5_reduce -> inception_3a/5x5_reduce (in-place)
I1215 11:38:57.692812 25197 net.cpp:113] Setting up inception_3a/relu_5x5_reduce
I1215 11:38:57.692945 25197 net.cpp:120] Top shape: 32 16 28 28 (401408)
I1215 11:38:57.692961 25197 layer_factory.hpp:74] Creating layer inception_3a/5x5
I1215 11:38:57.692987 25197 net.cpp:84] Creating Layer inception_3a/5x5
I1215 11:38:57.692997 25197 net.cpp:380] inception_3a/5x5 <- inception_3a/5x5_reduce
I1215 11:38:57.693012 25197 net.cpp:338] inception_3a/5x5 -> inception_3a/5x5
I1215 11:38:57.693028 25197 net.cpp:113] Setting up inception_3a/5x5
I1215 11:38:57.693877 25197 net.cpp:120] Top shape: 32 32 28 28 (802816)
I1215 11:38:57.693902 25197 layer_factory.hpp:74] Creating layer inception_3a/relu_5x5
I1215 11:38:57.693928 25197 net.cpp:84] Creating Layer inception_3a/relu_5x5
I1215 11:38:57.693938 25197 net.cpp:380] inception_3a/relu_5x5 <- inception_3a/5x5
I1215 11:38:57.693949 25197 net.cpp:327] inception_3a/relu_5x5 -> inception_3a/5x5 (in-place)
I1215 11:38:57.693961 25197 net.cpp:113] Setting up inception_3a/relu_5x5
I1215 11:38:57.694087 25197 net.cpp:120] Top shape: 32 32 28 28 (802816)
I1215 11:38:57.694104 25197 layer_factory.hpp:74] Creating layer inception_3a/pool
I1215 11:38:57.694113 25197 layer_factory.cpp:56] CUDNN does not support padding or multiple tops. Using Caffe's own pooling layer.
I1215 11:38:57.694126 25197 net.cpp:84] Creating Layer inception_3a/pool
I1215 11:38:57.694135 25197 net.cpp:380] inception_3a/pool <- pool2/3x3_s2_pool2/3x3_s2_0_split_3
I1215 11:38:57.694150 25197 net.cpp:338] inception_3a/pool -> inception_3a/pool
I1215 11:38:57.694164 25197 net.cpp:113] Setting up inception_3a/pool
I1215 11:38:57.694180 25197 net.cpp:120] Top shape: 32 192 28 28 (4816896)
I1215 11:38:57.694190 25197 layer_factory.hpp:74] Creating layer inception_3a/pool_proj
I1215 11:38:57.694201 25197 net.cpp:84] Creating Layer inception_3a/pool_proj
I1215 11:38:57.694211 25197 net.cpp:380] inception_3a/pool_proj <- inception_3a/pool
I1215 11:38:57.694226 25197 net.cpp:338] inception_3a/pool_proj -> inception_3a/pool_proj
I1215 11:38:57.694239 25197 net.cpp:113] Setting up inception_3a/pool_proj
I1215 11:38:57.694928 25197 net.cpp:120] Top shape: 32 32 28 28 (802816)
I1215 11:38:57.694957 25197 layer_factory.hpp:74] Creating layer inception_3a/relu_pool_proj
I1215 11:38:57.694972 25197 net.cpp:84] Creating Layer inception_3a/relu_pool_proj
I1215 11:38:57.694980 25197 net.cpp:380] inception_3a/relu_pool_proj <- inception_3a/pool_proj
I1215 11:38:57.694994 25197 net.cpp:327] inception_3a/relu_pool_proj -> inception_3a/pool_proj (in-place)
I1215 11:38:57.695008 25197 net.cpp:113] Setting up inception_3a/relu_pool_proj
I1215 11:38:57.695122 25197 net.cpp:120] Top shape: 32 32 28 28 (802816)
I1215 11:38:57.695150 25197 layer_factory.hpp:74] Creating layer inception_3a/output
I1215 11:38:57.695188 25197 net.cpp:84] Creating Layer inception_3a/output
I1215 11:38:57.695211 25197 net.cpp:380] inception_3a/output <- inception_3a/1x1
I1215 11:38:57.695224 25197 net.cpp:380] inception_3a/output <- inception_3a/3x3
I1215 11:38:57.695232 25197 net.cpp:380] inception_3a/output <- inception_3a/5x5
I1215 11:38:57.695242 25197 net.cpp:380] inception_3a/output <- inception_3a/pool_proj
I1215 11:38:57.695253 25197 net.cpp:338] inception_3a/output -> inception_3a/output
I1215 11:38:57.695266 25197 net.cpp:113] Setting up inception_3a/output
I1215 11:38:57.695281 25197 net.cpp:120] Top shape: 32 256 28 28 (6422528)
I1215 11:38:57.695291 25197 layer_factory.hpp:74] Creating layer inception_3a/output_inception_3a/output_0_split
I1215 11:38:57.695302 25197 net.cpp:84] Creating Layer inception_3a/output_inception_3a/output_0_split
I1215 11:38:57.695310 25197 net.cpp:380] inception_3a/output_inception_3a/output_0_split <- inception_3a/output
I1215 11:38:57.695323 25197 net.cpp:338] inception_3a/output_inception_3a/output_0_split -> inception_3a/output_inception_3a/output_0_split_0
I1215 11:38:57.695338 25197 net.cpp:338] inception_3a/output_inception_3a/output_0_split -> inception_3a/output_inception_3a/output_0_split_1
I1215 11:38:57.695349 25197 net.cpp:338] inception_3a/output_inception_3a/output_0_split -> inception_3a/output_inception_3a/output_0_split_2
I1215 11:38:57.695363 25197 net.cpp:338] inception_3a/output_inception_3a/output_0_split -> inception_3a/output_inception_3a/output_0_split_3
I1215 11:38:57.695374 25197 net.cpp:113] Setting up inception_3a/output_inception_3a/output_0_split
I1215 11:38:57.695385 25197 net.cpp:120] Top shape: 32 256 28 28 (6422528)
I1215 11:38:57.695395 25197 net.cpp:120] Top shape: 32 256 28 28 (6422528)
I1215 11:38:57.695405 25197 net.cpp:120] Top shape: 32 256 28 28 (6422528)
I1215 11:38:57.695415 25197 net.cpp:120] Top shape: 32 256 28 28 (6422528)
I1215 11:38:57.695421 25197 layer_factory.hpp:74] Creating layer inception_3b/1x1
I1215 11:38:57.695436 25197 net.cpp:84] Creating Layer inception_3b/1x1
I1215 11:38:57.695446 25197 net.cpp:380] inception_3b/1x1 <- inception_3a/output_inception_3a/output_0_split_0
I1215 11:38:57.695461 25197 net.cpp:338] inception_3b/1x1 -> inception_3b/1x1
I1215 11:38:57.695474 25197 net.cpp:113] Setting up inception_3b/1x1
I1215 11:38:57.696563 25197 net.cpp:120] Top shape: 32 128 28 28 (3211264)
I1215 11:38:57.696588 25197 layer_factory.hpp:74] Creating layer inception_3b/relu_1x1
I1215 11:38:57.696599 25197 net.cpp:84] Creating Layer inception_3b/relu_1x1
I1215 11:38:57.696609 25197 net.cpp:380] inception_3b/relu_1x1 <- inception_3b/1x1
I1215 11:38:57.696624 25197 net.cpp:327] inception_3b/relu_1x1 -> inception_3b/1x1 (in-place)
I1215 11:38:57.696637 25197 net.cpp:113] Setting up inception_3b/relu_1x1
I1215 11:38:57.696966 25197 net.cpp:120] Top shape: 32 128 28 28 (3211264)
I1215 11:38:57.696993 25197 layer_factory.hpp:74] Creating layer inception_3b/3x3_reduce
I1215 11:38:57.697017 25197 net.cpp:84] Creating Layer inception_3b/3x3_reduce
I1215 11:38:57.697027 25197 net.cpp:380] inception_3b/3x3_reduce <- inception_3a/output_inception_3a/output_0_split_1
I1215 11:38:57.697042 25197 net.cpp:338] inception_3b/3x3_reduce -> inception_3b/3x3_reduce
I1215 11:38:57.697075 25197 net.cpp:113] Setting up inception_3b/3x3_reduce
I1215 11:38:57.698210 25197 net.cpp:120] Top shape: 32 128 28 28 (3211264)
I1215 11:38:57.698235 25197 layer_factory.hpp:74] Creating layer inception_3b/relu_3x3_reduce
I1215 11:38:57.698249 25197 net.cpp:84] Creating Layer inception_3b/relu_3x3_reduce
I1215 11:38:57.698259 25197 net.cpp:380] inception_3b/relu_3x3_reduce <- inception_3b/3x3_reduce
I1215 11:38:57.698271 25197 net.cpp:327] inception_3b/relu_3x3_reduce -> inception_3b/3x3_reduce (in-place)
I1215 11:38:57.698284 25197 net.cpp:113] Setting up inception_3b/relu_3x3_reduce
I1215 11:38:57.698417 25197 net.cpp:120] Top shape: 32 128 28 28 (3211264)
I1215 11:38:57.698433 25197 layer_factory.hpp:74] Creating layer inception_3b/3x3
I1215 11:38:57.698451 25197 net.cpp:84] Creating Layer inception_3b/3x3
I1215 11:38:57.698467 25197 net.cpp:380] inception_3b/3x3 <- inception_3b/3x3_reduce
I1215 11:38:57.698498 25197 net.cpp:338] inception_3b/3x3 -> inception_3b/3x3
I1215 11:38:57.698514 25197 net.cpp:113] Setting up inception_3b/3x3
I1215 11:38:57.702289 25197 net.cpp:120] Top shape: 32 192 28 28 (4816896)
I1215 11:38:57.702311 25197 layer_factory.hpp:74] Creating layer inception_3b/relu_3x3
I1215 11:38:57.702324 25197 net.cpp:84] Creating Layer inception_3b/relu_3x3
I1215 11:38:57.702332 25197 net.cpp:380] inception_3b/relu_3x3 <- inception_3b/3x3
I1215 11:38:57.702342 25197 net.cpp:327] inception_3b/relu_3x3 -> inception_3b/3x3 (in-place)
I1215 11:38:57.702353 25197 net.cpp:113] Setting up inception_3b/relu_3x3
I1215 11:38:57.702461 25197 net.cpp:120] Top shape: 32 192 28 28 (4816896)
I1215 11:38:57.702474 25197 layer_factory.hpp:74] Creating layer inception_3b/5x5_reduce
I1215 11:38:57.702507 25197 net.cpp:84] Creating Layer inception_3b/5x5_reduce
I1215 11:38:57.702517 25197 net.cpp:380] inception_3b/5x5_reduce <- inception_3a/output_inception_3a/output_0_split_2
I1215 11:38:57.702532 25197 net.cpp:338] inception_3b/5x5_reduce -> inception_3b/5x5_reduce
I1215 11:38:57.702548 25197 net.cpp:113] Setting up inception_3b/5x5_reduce
I1215 11:38:57.703227 25197 net.cpp:120] Top shape: 32 32 28 28 (802816)
I1215 11:38:57.703245 25197 layer_factory.hpp:74] Creating layer inception_3b/relu_5x5_reduce
I1215 11:38:57.703255 25197 net.cpp:84] Creating Layer inception_3b/relu_5x5_reduce
I1215 11:38:57.703263 25197 net.cpp:380] inception_3b/relu_5x5_reduce <- inception_3b/5x5_reduce
I1215 11:38:57.703274 25197 net.cpp:327] inception_3b/relu_5x5_reduce -> inception_3b/5x5_reduce (in-place)
I1215 11:38:57.703285 25197 net.cpp:113] Setting up inception_3b/relu_5x5_reduce
I1215 11:38:57.703375 25197 net.cpp:120] Top shape: 32 32 28 28 (802816)
I1215 11:38:57.703384 25197 layer_factory.hpp:74] Creating layer inception_3b/5x5
I1215 11:38:57.703394 25197 net.cpp:84] Creating Layer inception_3b/5x5
I1215 11:38:57.703402 25197 net.cpp:380] inception_3b/5x5 <- inception_3b/5x5_reduce
I1215 11:38:57.703425 25197 net.cpp:338] inception_3b/5x5 -> inception_3b/5x5
I1215 11:38:57.703449 25197 net.cpp:113] Setting up inception_3b/5x5
I1215 11:38:57.705169 25197 net.cpp:120] Top shape: 32 96 28 28 (2408448)
I1215 11:38:57.705193 25197 layer_factory.hpp:74] Creating layer inception_3b/relu_5x5
I1215 11:38:57.705225 25197 net.cpp:84] Creating Layer inception_3b/relu_5x5
I1215 11:38:57.705235 25197 net.cpp:380] inception_3b/relu_5x5 <- inception_3b/5x5
I1215 11:38:57.705245 25197 net.cpp:327] inception_3b/relu_5x5 -> inception_3b/5x5 (in-place)
I1215 11:38:57.705255 25197 net.cpp:113] Setting up inception_3b/relu_5x5
I1215 11:38:57.705549 25197 net.cpp:120] Top shape: 32 96 28 28 (2408448)
I1215 11:38:57.705562 25197 layer_factory.hpp:74] Creating layer inception_3b/pool
I1215 11:38:57.705570 25197 layer_factory.cpp:56] CUDNN does not support padding or multiple tops. Using Caffe's own pooling layer.
I1215 11:38:57.705580 25197 net.cpp:84] Creating Layer inception_3b/pool
I1215 11:38:57.705587 25197 net.cpp:380] inception_3b/pool <- inception_3a/output_inception_3a/output_0_split_3
I1215 11:38:57.705608 25197 net.cpp:338] inception_3b/pool -> inception_3b/pool
I1215 11:38:57.705621 25197 net.cpp:113] Setting up inception_3b/pool
I1215 11:38:57.705634 25197 net.cpp:120] Top shape: 32 256 28 28 (6422528)
I1215 11:38:57.705641 25197 layer_factory.hpp:74] Creating layer inception_3b/pool_proj
I1215 11:38:57.705663 25197 net.cpp:84] Creating Layer inception_3b/pool_proj
I1215 11:38:57.705672 25197 net.cpp:380] inception_3b/pool_proj <- inception_3b/pool
I1215 11:38:57.705682 25197 net.cpp:338] inception_3b/pool_proj -> inception_3b/pool_proj
I1215 11:38:57.705693 25197 net.cpp:113] Setting up inception_3b/pool_proj
I1215 11:38:57.706457 25197 net.cpp:120] Top shape: 32 64 28 28 (1605632)
I1215 11:38:57.706477 25197 layer_factory.hpp:74] Creating layer inception_3b/relu_pool_proj
I1215 11:38:57.706497 25197 net.cpp:84] Creating Layer inception_3b/relu_pool_proj
I1215 11:38:57.706514 25197 net.cpp:380] inception_3b/relu_pool_proj <- inception_3b/pool_proj
I1215 11:38:57.706537 25197 net.cpp:327] inception_3b/relu_pool_proj -> inception_3b/pool_proj (in-place)
I1215 11:38:57.706549 25197 net.cpp:113] Setting up inception_3b/relu_pool_proj
I1215 11:38:57.706645 25197 net.cpp:120] Top shape: 32 64 28 28 (1605632)
I1215 11:38:57.706653 25197 layer_factory.hpp:74] Creating layer inception_3b/output
I1215 11:38:57.706662 25197 net.cpp:84] Creating Layer inception_3b/output
I1215 11:38:57.706670 25197 net.cpp:380] inception_3b/output <- inception_3b/1x1
I1215 11:38:57.706678 25197 net.cpp:380] inception_3b/output <- inception_3b/3x3
I1215 11:38:57.706686 25197 net.cpp:380] inception_3b/output <- inception_3b/5x5
I1215 11:38:57.706693 25197 net.cpp:380] inception_3b/output <- inception_3b/pool_proj
I1215 11:38:57.706701 25197 net.cpp:338] inception_3b/output -> inception_3b/output
I1215 11:38:57.706712 25197 net.cpp:113] Setting up inception_3b/output
I1215 11:38:57.706723 25197 net.cpp:120] Top shape: 32 480 28 28 (12042240)
I1215 11:38:57.706730 25197 layer_factory.hpp:74] Creating layer pool3/3x3_s2
I1215 11:38:57.706739 25197 net.cpp:84] Creating Layer pool3/3x3_s2
I1215 11:38:57.706746 25197 net.cpp:380] pool3/3x3_s2 <- inception_3b/output
I1215 11:38:57.706758 25197 net.cpp:338] pool3/3x3_s2 -> pool3/3x3_s2
I1215 11:38:57.706768 25197 net.cpp:113] Setting up pool3/3x3_s2
I1215 11:38:57.706861 25197 net.cpp:120] Top shape: 32 480 14 14 (3010560)
I1215 11:38:57.706869 25197 layer_factory.hpp:74] Creating layer pool3/3x3_s2_pool3/3x3_s2_0_split
I1215 11:38:57.706881 25197 net.cpp:84] Creating Layer pool3/3x3_s2_pool3/3x3_s2_0_split
I1215 11:38:57.706888 25197 net.cpp:380] pool3/3x3_s2_pool3/3x3_s2_0_split <- pool3/3x3_s2
I1215 11:38:57.706897 25197 net.cpp:338] pool3/3x3_s2_pool3/3x3_s2_0_split -> pool3/3x3_s2_pool3/3x3_s2_0_split_0
I1215 11:38:57.706908 25197 net.cpp:338] pool3/3x3_s2_pool3/3x3_s2_0_split -> pool3/3x3_s2_pool3/3x3_s2_0_split_1
I1215 11:38:57.706918 25197 net.cpp:338] pool3/3x3_s2_pool3/3x3_s2_0_split -> pool3/3x3_s2_pool3/3x3_s2_0_split_2
I1215 11:38:57.706928 25197 net.cpp:338] pool3/3x3_s2_pool3/3x3_s2_0_split -> pool3/3x3_s2_pool3/3x3_s2_0_split_3
I1215 11:38:57.706936 25197 net.cpp:113] Setting up pool3/3x3_s2_pool3/3x3_s2_0_split
I1215 11:38:57.706948 25197 net.cpp:120] Top shape: 32 480 14 14 (3010560)
I1215 11:38:57.706955 25197 net.cpp:120] Top shape: 32 480 14 14 (3010560)
I1215 11:38:57.706964 25197 net.cpp:120] Top shape: 32 480 14 14 (3010560)
I1215 11:38:57.706971 25197 net.cpp:120] Top shape: 32 480 14 14 (3010560)
I1215 11:38:57.706985 25197 layer_factory.hpp:74] Creating layer inception_4a/1x1
I1215 11:38:57.706996 25197 net.cpp:84] Creating Layer inception_4a/1x1
I1215 11:38:57.707003 25197 net.cpp:380] inception_4a/1x1 <- pool3/3x3_s2_pool3/3x3_s2_0_split_0
I1215 11:38:57.707015 25197 net.cpp:338] inception_4a/1x1 -> inception_4a/1x1
I1215 11:38:57.707026 25197 net.cpp:113] Setting up inception_4a/1x1
I1215 11:38:57.708966 25197 net.cpp:120] Top shape: 32 192 14 14 (1204224)
I1215 11:38:57.708994 25197 layer_factory.hpp:74] Creating layer inception_4a/relu_1x1
I1215 11:38:57.709020 25197 net.cpp:84] Creating Layer inception_4a/relu_1x1
I1215 11:38:57.709029 25197 net.cpp:380] inception_4a/relu_1x1 <- inception_4a/1x1
I1215 11:38:57.709041 25197 net.cpp:327] inception_4a/relu_1x1 -> inception_4a/1x1 (in-place)
I1215 11:38:57.709051 25197 net.cpp:113] Setting up inception_4a/relu_1x1
I1215 11:38:57.709365 25197 net.cpp:120] Top shape: 32 192 14 14 (1204224)
I1215 11:38:57.709378 25197 layer_factory.hpp:74] Creating layer inception_4a/3x3_reduce
I1215 11:38:57.709393 25197 net.cpp:84] Creating Layer inception_4a/3x3_reduce
I1215 11:38:57.709399 25197 net.cpp:380] inception_4a/3x3_reduce <- pool3/3x3_s2_pool3/3x3_s2_0_split_1
I1215 11:38:57.709414 25197 net.cpp:338] inception_4a/3x3_reduce -> inception_4a/3x3_reduce
I1215 11:38:57.709432 25197 net.cpp:113] Setting up inception_4a/3x3_reduce
I1215 11:38:57.710559 25197 net.cpp:120] Top shape: 32 96 14 14 (602112)
I1215 11:38:57.710593 25197 layer_factory.hpp:74] Creating layer inception_4a/relu_3x3_reduce
I1215 11:38:57.710620 25197 net.cpp:84] Creating Layer inception_4a/relu_3x3_reduce
I1215 11:38:57.710631 25197 net.cpp:380] inception_4a/relu_3x3_reduce <- inception_4a/3x3_reduce
I1215 11:38:57.710647 25197 net.cpp:327] inception_4a/relu_3x3_reduce -> inception_4a/3x3_reduce (in-place)
I1215 11:38:57.710664 25197 net.cpp:113] Setting up inception_4a/relu_3x3_reduce
I1215 11:38:57.710768 25197 net.cpp:120] Top shape: 32 96 14 14 (602112)
I1215 11:38:57.710790 25197 layer_factory.hpp:74] Creating layer inception_4a/3x3
I1215 11:38:57.710810 25197 net.cpp:84] Creating Layer inception_4a/3x3
I1215 11:38:57.710818 25197 net.cpp:380] inception_4a/3x3 <- inception_4a/3x3_reduce
I1215 11:38:57.710829 25197 net.cpp:338] inception_4a/3x3 -> inception_4a/3x3
I1215 11:38:57.710839 25197 net.cpp:113] Setting up inception_4a/3x3
I1215 11:38:57.713801 25197 net.cpp:120] Top shape: 32 208 14 14 (1304576)
I1215 11:38:57.713822 25197 layer_factory.hpp:74] Creating layer inception_4a/relu_3x3
I1215 11:38:57.713832 25197 net.cpp:84] Creating Layer inception_4a/relu_3x3
I1215 11:38:57.713840 25197 net.cpp:380] inception_4a/relu_3x3 <- inception_4a/3x3
I1215 11:38:57.713851 25197 net.cpp:327] inception_4a/relu_3x3 -> inception_4a/3x3 (in-place)
I1215 11:38:57.713862 25197 net.cpp:113] Setting up inception_4a/relu_3x3
I1215 11:38:57.713953 25197 net.cpp:120] Top shape: 32 208 14 14 (1304576)
I1215 11:38:57.713961 25197 layer_factory.hpp:74] Creating layer inception_4a/5x5_reduce
I1215 11:38:57.713973 25197 net.cpp:84] Creating Layer inception_4a/5x5_reduce
I1215 11:38:57.713981 25197 net.cpp:380] inception_4a/5x5_reduce <- pool3/3x3_s2_pool3/3x3_s2_0_split_2
I1215 11:38:57.713991 25197 net.cpp:338] inception_4a/5x5_reduce -> inception_4a/5x5_reduce
I1215 11:38:57.714002 25197 net.cpp:113] Setting up inception_4a/5x5_reduce
I1215 11:38:57.714632 25197 net.cpp:120] Top shape: 32 16 14 14 (100352)
I1215 11:38:57.714651 25197 layer_factory.hpp:74] Creating layer inception_4a/relu_5x5_reduce
I1215 11:38:57.714674 25197 net.cpp:84] Creating Layer inception_4a/relu_5x5_reduce
I1215 11:38:57.714684 25197 net.cpp:380] inception_4a/relu_5x5_reduce <- inception_4a/5x5_reduce
I1215 11:38:57.714699 25197 net.cpp:327] inception_4a/relu_5x5_reduce -> inception_4a/5x5_reduce (in-place)
I1215 11:38:57.714709 25197 net.cpp:113] Setting up inception_4a/relu_5x5_reduce
I1215 11:38:57.714802 25197 net.cpp:120] Top shape: 32 16 14 14 (100352)
I1215 11:38:57.714812 25197 layer_factory.hpp:74] Creating layer inception_4a/5x5
I1215 11:38:57.714830 25197 net.cpp:84] Creating Layer inception_4a/5x5
I1215 11:38:57.714838 25197 net.cpp:380] inception_4a/5x5 <- inception_4a/5x5_reduce
I1215 11:38:57.714850 25197 net.cpp:338] inception_4a/5x5 -> inception_4a/5x5
I1215 11:38:57.714861 25197 net.cpp:113] Setting up inception_4a/5x5
I1215 11:38:57.715654 25197 net.cpp:120] Top shape: 32 48 14 14 (301056)
I1215 11:38:57.715673 25197 layer_factory.hpp:74] Creating layer inception_4a/relu_5x5
I1215 11:38:57.715683 25197 net.cpp:84] Creating Layer inception_4a/relu_5x5
I1215 11:38:57.715690 25197 net.cpp:380] inception_4a/relu_5x5 <- inception_4a/5x5
I1215 11:38:57.715699 25197 net.cpp:327] inception_4a/relu_5x5 -> inception_4a/5x5 (in-place)
I1215 11:38:57.715710 25197 net.cpp:113] Setting up inception_4a/relu_5x5
I1215 11:38:57.715999 25197 net.cpp:120] Top shape: 32 48 14 14 (301056)
I1215 11:38:57.716012 25197 layer_factory.hpp:74] Creating layer inception_4a/pool
I1215 11:38:57.716020 25197 layer_factory.cpp:56] CUDNN does not support padding or multiple tops. Using Caffe's own pooling layer.
I1215 11:38:57.716033 25197 net.cpp:84] Creating Layer inception_4a/pool
I1215 11:38:57.716042 25197 net.cpp:380] inception_4a/pool <- pool3/3x3_s2_pool3/3x3_s2_0_split_3
I1215 11:38:57.716060 25197 net.cpp:338] inception_4a/pool -> inception_4a/pool
I1215 11:38:57.716073 25197 net.cpp:113] Setting up inception_4a/pool
I1215 11:38:57.716092 25197 net.cpp:120] Top shape: 32 480 14 14 (3010560)
I1215 11:38:57.716109 25197 layer_factory.hpp:74] Creating layer inception_4a/pool_proj
I1215 11:38:57.716145 25197 net.cpp:84] Creating Layer inception_4a/pool_proj
I1215 11:38:57.716156 25197 net.cpp:380] inception_4a/pool_proj <- inception_4a/pool
I1215 11:38:57.716176 25197 net.cpp:338] inception_4a/pool_proj -> inception_4a/pool_proj
I1215 11:38:57.716189 25197 net.cpp:113] Setting up inception_4a/pool_proj
I1215 11:38:57.717289 25197 net.cpp:120] Top shape: 32 64 14 14 (401408)
I1215 11:38:57.717310 25197 layer_factory.hpp:74] Creating layer inception_4a/relu_pool_proj
I1215 11:38:57.717322 25197 net.cpp:84] Creating Layer inception_4a/relu_pool_proj
I1215 11:38:57.717331 25197 net.cpp:380] inception_4a/relu_pool_proj <- inception_4a/pool_proj
I1215 11:38:57.717340 25197 net.cpp:327] inception_4a/relu_pool_proj -> inception_4a/pool_proj (in-place)
I1215 11:38:57.717351 25197 net.cpp:113] Setting up inception_4a/relu_pool_proj
I1215 11:38:57.717453 25197 net.cpp:120] Top shape: 32 64 14 14 (401408)
I1215 11:38:57.717464 25197 layer_factory.hpp:74] Creating layer inception_4a/output
I1215 11:38:57.717484 25197 net.cpp:84] Creating Layer inception_4a/output
I1215 11:38:57.717492 25197 net.cpp:380] inception_4a/output <- inception_4a/1x1
I1215 11:38:57.717501 25197 net.cpp:380] inception_4a/output <- inception_4a/3x3
I1215 11:38:57.717509 25197 net.cpp:380] inception_4a/output <- inception_4a/5x5
I1215 11:38:57.717516 25197 net.cpp:380] inception_4a/output <- inception_4a/pool_proj
I1215 11:38:57.717527 25197 net.cpp:338] inception_4a/output -> inception_4a/output
I1215 11:38:57.717538 25197 net.cpp:113] Setting up inception_4a/output
I1215 11:38:57.717550 25197 net.cpp:120] Top shape: 32 512 14 14 (3211264)
I1215 11:38:57.717556 25197 layer_factory.hpp:74] Creating layer inception_4a/output_inception_4a/output_0_split
I1215 11:38:57.717566 25197 net.cpp:84] Creating Layer inception_4a/output_inception_4a/output_0_split
I1215 11:38:57.717573 25197 net.cpp:380] inception_4a/output_inception_4a/output_0_split <- inception_4a/output
I1215 11:38:57.717581 25197 net.cpp:338] inception_4a/output_inception_4a/output_0_split -> inception_4a/output_inception_4a/output_0_split_0
I1215 11:38:57.717592 25197 net.cpp:338] inception_4a/output_inception_4a/output_0_split -> inception_4a/output_inception_4a/output_0_split_1
I1215 11:38:57.717607 25197 net.cpp:338] inception_4a/output_inception_4a/output_0_split -> inception_4a/output_inception_4a/output_0_split_2
I1215 11:38:57.717622 25197 net.cpp:338] inception_4a/output_inception_4a/output_0_split -> inception_4a/output_inception_4a/output_0_split_3
I1215 11:38:57.717636 25197 net.cpp:338] inception_4a/output_inception_4a/output_0_split -> inception_4a/output_inception_4a/output_0_split_4
I1215 11:38:57.717651 25197 net.cpp:113] Setting up inception_4a/output_inception_4a/output_0_split
I1215 11:38:57.717666 25197 net.cpp:120] Top shape: 32 512 14 14 (3211264)
I1215 11:38:57.717676 25197 net.cpp:120] Top shape: 32 512 14 14 (3211264)
I1215 11:38:57.717684 25197 net.cpp:120] Top shape: 32 512 14 14 (3211264)
I1215 11:38:57.717694 25197 net.cpp:120] Top shape: 32 512 14 14 (3211264)
I1215 11:38:57.717701 25197 net.cpp:120] Top shape: 32 512 14 14 (3211264)
I1215 11:38:57.717708 25197 layer_factory.hpp:74] Creating layer loss1/ave_pool
I1215 11:38:57.717718 25197 net.cpp:84] Creating Layer loss1/ave_pool
I1215 11:38:57.717730 25197 net.cpp:380] loss1/ave_pool <- inception_4a/output_inception_4a/output_0_split_0
I1215 11:38:57.717743 25197 net.cpp:338] loss1/ave_pool -> loss1/ave_pool
I1215 11:38:57.717777 25197 net.cpp:113] Setting up loss1/ave_pool
I1215 11:38:57.717877 25197 net.cpp:120] Top shape: 32 512 4 4 (262144)
I1215 11:38:57.717886 25197 layer_factory.hpp:74] Creating layer loss1/conv
I1215 11:38:57.717897 25197 net.cpp:84] Creating Layer loss1/conv
I1215 11:38:57.717905 25197 net.cpp:380] loss1/conv <- loss1/ave_pool
I1215 11:38:57.717917 25197 net.cpp:338] loss1/conv -> loss1/conv
I1215 11:38:57.717928 25197 net.cpp:113] Setting up loss1/conv
I1215 11:38:57.719352 25197 net.cpp:120] Top shape: 32 128 4 4 (65536)
I1215 11:38:57.719383 25197 layer_factory.hpp:74] Creating layer loss1/relu_conv
I1215 11:38:57.719396 25197 net.cpp:84] Creating Layer loss1/relu_conv
I1215 11:38:57.719403 25197 net.cpp:380] loss1/relu_conv <- loss1/conv
I1215 11:38:57.719413 25197 net.cpp:327] loss1/relu_conv -> loss1/conv (in-place)
I1215 11:38:57.719424 25197 net.cpp:113] Setting up loss1/relu_conv
I1215 11:38:57.719514 25197 net.cpp:120] Top shape: 32 128 4 4 (65536)
I1215 11:38:57.719532 25197 layer_factory.hpp:74] Creating layer loss1/fc
I1215 11:38:57.719547 25197 net.cpp:84] Creating Layer loss1/fc
I1215 11:38:57.719554 25197 net.cpp:380] loss1/fc <- loss1/conv
I1215 11:38:57.719564 25197 net.cpp:338] loss1/fc -> loss1/fc
I1215 11:38:57.719579 25197 net.cpp:113] Setting up loss1/fc
I1215 11:38:57.744911 25197 net.cpp:120] Top shape: 32 1024 (32768)
I1215 11:38:57.744946 25197 layer_factory.hpp:74] Creating layer loss1/relu_fc
I1215 11:38:57.744971 25197 net.cpp:84] Creating Layer loss1/relu_fc
I1215 11:38:57.744979 25197 net.cpp:380] loss1/relu_fc <- loss1/fc
I1215 11:38:57.744989 25197 net.cpp:327] loss1/relu_fc -> loss1/fc (in-place)
I1215 11:38:57.744999 25197 net.cpp:113] Setting up loss1/relu_fc
I1215 11:38:57.745491 25197 net.cpp:120] Top shape: 32 1024 (32768)
I1215 11:38:57.745508 25197 layer_factory.hpp:74] Creating layer loss1/drop_fc
I1215 11:38:57.745527 25197 net.cpp:84] Creating Layer loss1/drop_fc
I1215 11:38:57.745533 25197 net.cpp:380] loss1/drop_fc <- loss1/fc
I1215 11:38:57.745542 25197 net.cpp:327] loss1/drop_fc -> loss1/fc (in-place)
I1215 11:38:57.745550 25197 net.cpp:113] Setting up loss1/drop_fc
I1215 11:38:57.745560 25197 net.cpp:120] Top shape: 32 1024 (32768)
I1215 11:38:57.745565 25197 layer_factory.hpp:74] Creating layer loss1/classifier_kaggle
I1215 11:38:57.745576 25197 net.cpp:84] Creating Layer loss1/classifier_kaggle
I1215 11:38:57.745580 25197 net.cpp:380] loss1/classifier_kaggle <- loss1/fc
I1215 11:38:57.745587 25197 net.cpp:338] loss1/classifier_kaggle -> loss1/classifier_kaggle
I1215 11:38:57.745597 25197 net.cpp:113] Setting up loss1/classifier_kaggle
I1215 11:38:57.750946 25197 net.cpp:120] Top shape: 32 447 (14304)
I1215 11:38:57.750965 25197 layer_factory.hpp:74] Creating layer loss1/loss
I1215 11:38:57.750975 25197 net.cpp:84] Creating Layer loss1/loss
I1215 11:38:57.750982 25197 net.cpp:380] loss1/loss <- loss1/classifier_kaggle
I1215 11:38:57.750988 25197 net.cpp:380] loss1/loss <- label_data_1_split_0
I1215 11:38:57.750995 25197 net.cpp:338] loss1/loss -> loss1/loss1
I1215 11:38:57.751003 25197 net.cpp:113] Setting up loss1/loss
I1215 11:38:57.751013 25197 layer_factory.hpp:74] Creating layer loss1/loss
I1215 11:38:57.751137 25197 net.cpp:120] Top shape: (1)
I1215 11:38:57.751144 25197 net.cpp:122]     with loss weight 0.3
I1215 11:38:57.751162 25197 layer_factory.hpp:74] Creating layer inception_4b/1x1
I1215 11:38:57.751179 25197 net.cpp:84] Creating Layer inception_4b/1x1
I1215 11:38:57.751185 25197 net.cpp:380] inception_4b/1x1 <- inception_4a/output_inception_4a/output_0_split_1
I1215 11:38:57.751194 25197 net.cpp:338] inception_4b/1x1 -> inception_4b/1x1
I1215 11:38:57.751204 25197 net.cpp:113] Setting up inception_4b/1x1
I1215 11:38:57.752836 25197 net.cpp:120] Top shape: 32 160 14 14 (1003520)
I1215 11:38:57.752888 25197 layer_factory.hpp:74] Creating layer inception_4b/relu_1x1
I1215 11:38:57.752914 25197 net.cpp:84] Creating Layer inception_4b/relu_1x1
I1215 11:38:57.752923 25197 net.cpp:380] inception_4b/relu_1x1 <- inception_4b/1x1
I1215 11:38:57.752933 25197 net.cpp:327] inception_4b/relu_1x1 -> inception_4b/1x1 (in-place)
I1215 11:38:57.752944 25197 net.cpp:113] Setting up inception_4b/relu_1x1
I1215 11:38:57.753053 25197 net.cpp:120] Top shape: 32 160 14 14 (1003520)
I1215 11:38:57.753082 25197 layer_factory.hpp:74] Creating layer inception_4b/3x3_reduce
I1215 11:38:57.753100 25197 net.cpp:84] Creating Layer inception_4b/3x3_reduce
I1215 11:38:57.753108 25197 net.cpp:380] inception_4b/3x3_reduce <- inception_4a/output_inception_4a/output_0_split_2
I1215 11:38:57.753142 25197 net.cpp:338] inception_4b/3x3_reduce -> inception_4b/3x3_reduce
I1215 11:38:57.753162 25197 net.cpp:113] Setting up inception_4b/3x3_reduce
I1215 11:38:57.754439 25197 net.cpp:120] Top shape: 32 112 14 14 (702464)
I1215 11:38:57.754462 25197 layer_factory.hpp:74] Creating layer inception_4b/relu_3x3_reduce
I1215 11:38:57.754475 25197 net.cpp:84] Creating Layer inception_4b/relu_3x3_reduce
I1215 11:38:57.754484 25197 net.cpp:380] inception_4b/relu_3x3_reduce <- inception_4b/3x3_reduce
I1215 11:38:57.754498 25197 net.cpp:327] inception_4b/relu_3x3_reduce -> inception_4b/3x3_reduce (in-place)
I1215 11:38:57.754509 25197 net.cpp:113] Setting up inception_4b/relu_3x3_reduce
I1215 11:38:57.754609 25197 net.cpp:120] Top shape: 32 112 14 14 (702464)
I1215 11:38:57.754621 25197 layer_factory.hpp:74] Creating layer inception_4b/3x3
I1215 11:38:57.754637 25197 net.cpp:84] Creating Layer inception_4b/3x3
I1215 11:38:57.754647 25197 net.cpp:380] inception_4b/3x3 <- inception_4b/3x3_reduce
I1215 11:38:57.754660 25197 net.cpp:338] inception_4b/3x3 -> inception_4b/3x3
I1215 11:38:57.754673 25197 net.cpp:113] Setting up inception_4b/3x3
I1215 11:38:57.757937 25197 net.cpp:120] Top shape: 32 224 14 14 (1404928)
I1215 11:38:57.757964 25197 layer_factory.hpp:74] Creating layer inception_4b/relu_3x3
I1215 11:38:57.757974 25197 net.cpp:84] Creating Layer inception_4b/relu_3x3
I1215 11:38:57.757979 25197 net.cpp:380] inception_4b/relu_3x3 <- inception_4b/3x3
I1215 11:38:57.757987 25197 net.cpp:327] inception_4b/relu_3x3 -> inception_4b/3x3 (in-place)
I1215 11:38:57.757993 25197 net.cpp:113] Setting up inception_4b/relu_3x3
I1215 11:38:57.758303 25197 net.cpp:120] Top shape: 32 224 14 14 (1404928)
I1215 11:38:57.758318 25197 layer_factory.hpp:74] Creating layer inception_4b/5x5_reduce
I1215 11:38:57.758332 25197 net.cpp:84] Creating Layer inception_4b/5x5_reduce
I1215 11:38:57.758342 25197 net.cpp:380] inception_4b/5x5_reduce <- inception_4a/output_inception_4a/output_0_split_3
I1215 11:38:57.758357 25197 net.cpp:338] inception_4b/5x5_reduce -> inception_4b/5x5_reduce
I1215 11:38:57.758371 25197 net.cpp:113] Setting up inception_4b/5x5_reduce
I1215 11:38:57.759085 25197 net.cpp:120] Top shape: 32 24 14 14 (150528)
I1215 11:38:57.759106 25197 layer_factory.hpp:74] Creating layer inception_4b/relu_5x5_reduce
I1215 11:38:57.759120 25197 net.cpp:84] Creating Layer inception_4b/relu_5x5_reduce
I1215 11:38:57.759130 25197 net.cpp:380] inception_4b/relu_5x5_reduce <- inception_4b/5x5_reduce
I1215 11:38:57.759141 25197 net.cpp:327] inception_4b/relu_5x5_reduce -> inception_4b/5x5_reduce (in-place)
I1215 11:38:57.759153 25197 net.cpp:113] Setting up inception_4b/relu_5x5_reduce
I1215 11:38:57.759254 25197 net.cpp:120] Top shape: 32 24 14 14 (150528)
I1215 11:38:57.759268 25197 layer_factory.hpp:74] Creating layer inception_4b/5x5
I1215 11:38:57.759281 25197 net.cpp:84] Creating Layer inception_4b/5x5
I1215 11:38:57.759289 25197 net.cpp:380] inception_4b/5x5 <- inception_4b/5x5_reduce
I1215 11:38:57.759302 25197 net.cpp:338] inception_4b/5x5 -> inception_4b/5x5
I1215 11:38:57.759315 25197 net.cpp:113] Setting up inception_4b/5x5
I1215 11:38:57.760314 25197 net.cpp:120] Top shape: 32 64 14 14 (401408)
I1215 11:38:57.760331 25197 layer_factory.hpp:74] Creating layer inception_4b/relu_5x5
I1215 11:38:57.760344 25197 net.cpp:84] Creating Layer inception_4b/relu_5x5
I1215 11:38:57.760354 25197 net.cpp:380] inception_4b/relu_5x5 <- inception_4b/5x5
I1215 11:38:57.760363 25197 net.cpp:327] inception_4b/relu_5x5 -> inception_4b/5x5 (in-place)
I1215 11:38:57.760375 25197 net.cpp:113] Setting up inception_4b/relu_5x5
I1215 11:38:57.760473 25197 net.cpp:120] Top shape: 32 64 14 14 (401408)
I1215 11:38:57.760483 25197 layer_factory.hpp:74] Creating layer inception_4b/pool
I1215 11:38:57.760494 25197 layer_factory.cpp:56] CUDNN does not support padding or multiple tops. Using Caffe's own pooling layer.
I1215 11:38:57.760529 25197 net.cpp:84] Creating Layer inception_4b/pool
I1215 11:38:57.760546 25197 net.cpp:380] inception_4b/pool <- inception_4a/output_inception_4a/output_0_split_4
I1215 11:38:57.760570 25197 net.cpp:338] inception_4b/pool -> inception_4b/pool
I1215 11:38:57.760597 25197 net.cpp:113] Setting up inception_4b/pool
I1215 11:38:57.760612 25197 net.cpp:120] Top shape: 32 512 14 14 (3211264)
I1215 11:38:57.760618 25197 layer_factory.hpp:74] Creating layer inception_4b/pool_proj
I1215 11:38:57.760632 25197 net.cpp:84] Creating Layer inception_4b/pool_proj
I1215 11:38:57.760640 25197 net.cpp:380] inception_4b/pool_proj <- inception_4b/pool
I1215 11:38:57.760653 25197 net.cpp:338] inception_4b/pool_proj -> inception_4b/pool_proj
I1215 11:38:57.760666 25197 net.cpp:113] Setting up inception_4b/pool_proj
I1215 11:38:57.761603 25197 net.cpp:120] Top shape: 32 64 14 14 (401408)
I1215 11:38:57.761626 25197 layer_factory.hpp:74] Creating layer inception_4b/relu_pool_proj
I1215 11:38:57.761641 25197 net.cpp:84] Creating Layer inception_4b/relu_pool_proj
I1215 11:38:57.761649 25197 net.cpp:380] inception_4b/relu_pool_proj <- inception_4b/pool_proj
I1215 11:38:57.761663 25197 net.cpp:327] inception_4b/relu_pool_proj -> inception_4b/pool_proj (in-place)
I1215 11:38:57.761674 25197 net.cpp:113] Setting up inception_4b/relu_pool_proj
I1215 11:38:57.761926 25197 net.cpp:120] Top shape: 32 64 14 14 (401408)
I1215 11:38:57.761937 25197 layer_factory.hpp:74] Creating layer inception_4b/output
I1215 11:38:57.761945 25197 net.cpp:84] Creating Layer inception_4b/output
I1215 11:38:57.761950 25197 net.cpp:380] inception_4b/output <- inception_4b/1x1
I1215 11:38:57.761960 25197 net.cpp:380] inception_4b/output <- inception_4b/3x3
I1215 11:38:57.761968 25197 net.cpp:380] inception_4b/output <- inception_4b/5x5
I1215 11:38:57.761976 25197 net.cpp:380] inception_4b/output <- inception_4b/pool_proj
I1215 11:38:57.761986 25197 net.cpp:338] inception_4b/output -> inception_4b/output
I1215 11:38:57.761997 25197 net.cpp:113] Setting up inception_4b/output
I1215 11:38:57.762006 25197 net.cpp:120] Top shape: 32 512 14 14 (3211264)
I1215 11:38:57.762011 25197 layer_factory.hpp:74] Creating layer inception_4b/output_inception_4b/output_0_split
I1215 11:38:57.762018 25197 net.cpp:84] Creating Layer inception_4b/output_inception_4b/output_0_split
I1215 11:38:57.762022 25197 net.cpp:380] inception_4b/output_inception_4b/output_0_split <- inception_4b/output
I1215 11:38:57.762030 25197 net.cpp:338] inception_4b/output_inception_4b/output_0_split -> inception_4b/output_inception_4b/output_0_split_0
I1215 11:38:57.762038 25197 net.cpp:338] inception_4b/output_inception_4b/output_0_split -> inception_4b/output_inception_4b/output_0_split_1
I1215 11:38:57.762048 25197 net.cpp:338] inception_4b/output_inception_4b/output_0_split -> inception_4b/output_inception_4b/output_0_split_2
I1215 11:38:57.762059 25197 net.cpp:338] inception_4b/output_inception_4b/output_0_split -> inception_4b/output_inception_4b/output_0_split_3
I1215 11:38:57.762069 25197 net.cpp:113] Setting up inception_4b/output_inception_4b/output_0_split
I1215 11:38:57.762081 25197 net.cpp:120] Top shape: 32 512 14 14 (3211264)
I1215 11:38:57.762090 25197 net.cpp:120] Top shape: 32 512 14 14 (3211264)
I1215 11:38:57.762099 25197 net.cpp:120] Top shape: 32 512 14 14 (3211264)
I1215 11:38:57.762106 25197 net.cpp:120] Top shape: 32 512 14 14 (3211264)
I1215 11:38:57.762114 25197 layer_factory.hpp:74] Creating layer inception_4c/1x1
I1215 11:38:57.762130 25197 net.cpp:84] Creating Layer inception_4c/1x1
I1215 11:38:57.762140 25197 net.cpp:380] inception_4c/1x1 <- inception_4b/output_inception_4b/output_0_split_0
I1215 11:38:57.762152 25197 net.cpp:338] inception_4c/1x1 -> inception_4c/1x1
I1215 11:38:57.762164 25197 net.cpp:113] Setting up inception_4c/1x1
I1215 11:38:57.763478 25197 net.cpp:120] Top shape: 32 128 14 14 (802816)
I1215 11:38:57.763499 25197 layer_factory.hpp:74] Creating layer inception_4c/relu_1x1
I1215 11:38:57.763514 25197 net.cpp:84] Creating Layer inception_4c/relu_1x1
I1215 11:38:57.763521 25197 net.cpp:380] inception_4c/relu_1x1 <- inception_4c/1x1
I1215 11:38:57.763540 25197 net.cpp:327] inception_4c/relu_1x1 -> inception_4c/1x1 (in-place)
I1215 11:38:57.763561 25197 net.cpp:113] Setting up inception_4c/relu_1x1
I1215 11:38:57.763649 25197 net.cpp:120] Top shape: 32 128 14 14 (802816)
I1215 11:38:57.763664 25197 layer_factory.hpp:74] Creating layer inception_4c/3x3_reduce
I1215 11:38:57.763674 25197 net.cpp:84] Creating Layer inception_4c/3x3_reduce
I1215 11:38:57.763680 25197 net.cpp:380] inception_4c/3x3_reduce <- inception_4b/output_inception_4b/output_0_split_1
I1215 11:38:57.763694 25197 net.cpp:338] inception_4c/3x3_reduce -> inception_4c/3x3_reduce
I1215 11:38:57.763707 25197 net.cpp:113] Setting up inception_4c/3x3_reduce
I1215 11:38:57.764992 25197 net.cpp:120] Top shape: 32 128 14 14 (802816)
I1215 11:38:57.765013 25197 layer_factory.hpp:74] Creating layer inception_4c/relu_3x3_reduce
I1215 11:38:57.765027 25197 net.cpp:84] Creating Layer inception_4c/relu_3x3_reduce
I1215 11:38:57.765036 25197 net.cpp:380] inception_4c/relu_3x3_reduce <- inception_4c/3x3_reduce
I1215 11:38:57.765046 25197 net.cpp:327] inception_4c/relu_3x3_reduce -> inception_4c/3x3_reduce (in-place)
I1215 11:38:57.765069 25197 net.cpp:113] Setting up inception_4c/relu_3x3_reduce
I1215 11:38:57.765159 25197 net.cpp:120] Top shape: 32 128 14 14 (802816)
I1215 11:38:57.765172 25197 layer_factory.hpp:74] Creating layer inception_4c/3x3
I1215 11:38:57.765187 25197 net.cpp:84] Creating Layer inception_4c/3x3
I1215 11:38:57.765195 25197 net.cpp:380] inception_4c/3x3 <- inception_4c/3x3_reduce
I1215 11:38:57.765210 25197 net.cpp:338] inception_4c/3x3 -> inception_4c/3x3
I1215 11:38:57.765224 25197 net.cpp:113] Setting up inception_4c/3x3
I1215 11:38:57.769397 25197 net.cpp:120] Top shape: 32 256 14 14 (1605632)
I1215 11:38:57.769436 25197 layer_factory.hpp:74] Creating layer inception_4c/relu_3x3
I1215 11:38:57.769448 25197 net.cpp:84] Creating Layer inception_4c/relu_3x3
I1215 11:38:57.769457 25197 net.cpp:380] inception_4c/relu_3x3 <- inception_4c/3x3
I1215 11:38:57.769469 25197 net.cpp:327] inception_4c/relu_3x3 -> inception_4c/3x3 (in-place)
I1215 11:38:57.769480 25197 net.cpp:113] Setting up inception_4c/relu_3x3
I1215 11:38:57.769582 25197 net.cpp:120] Top shape: 32 256 14 14 (1605632)
I1215 11:38:57.769594 25197 layer_factory.hpp:74] Creating layer inception_4c/5x5_reduce
I1215 11:38:57.769606 25197 net.cpp:84] Creating Layer inception_4c/5x5_reduce
I1215 11:38:57.769615 25197 net.cpp:380] inception_4c/5x5_reduce <- inception_4b/output_inception_4b/output_0_split_2
I1215 11:38:57.769628 25197 net.cpp:338] inception_4c/5x5_reduce -> inception_4c/5x5_reduce
I1215 11:38:57.769640 25197 net.cpp:113] Setting up inception_4c/5x5_reduce
I1215 11:38:57.770335 25197 net.cpp:120] Top shape: 32 24 14 14 (150528)
I1215 11:38:57.770356 25197 layer_factory.hpp:74] Creating layer inception_4c/relu_5x5_reduce
I1215 11:38:57.770371 25197 net.cpp:84] Creating Layer inception_4c/relu_5x5_reduce
I1215 11:38:57.770380 25197 net.cpp:380] inception_4c/relu_5x5_reduce <- inception_4c/5x5_reduce
I1215 11:38:57.770390 25197 net.cpp:327] inception_4c/relu_5x5_reduce -> inception_4c/5x5_reduce (in-place)
I1215 11:38:57.770401 25197 net.cpp:113] Setting up inception_4c/relu_5x5_reduce
I1215 11:38:57.770699 25197 net.cpp:120] Top shape: 32 24 14 14 (150528)
I1215 11:38:57.770715 25197 layer_factory.hpp:74] Creating layer inception_4c/5x5
I1215 11:38:57.770727 25197 net.cpp:84] Creating Layer inception_4c/5x5
I1215 11:38:57.770736 25197 net.cpp:380] inception_4c/5x5 <- inception_4c/5x5_reduce
I1215 11:38:57.770752 25197 net.cpp:338] inception_4c/5x5 -> inception_4c/5x5
I1215 11:38:57.770766 25197 net.cpp:113] Setting up inception_4c/5x5
I1215 11:38:57.771777 25197 net.cpp:120] Top shape: 32 64 14 14 (401408)
I1215 11:38:57.771798 25197 layer_factory.hpp:74] Creating layer inception_4c/relu_5x5
I1215 11:38:57.771811 25197 net.cpp:84] Creating Layer inception_4c/relu_5x5
I1215 11:38:57.771818 25197 net.cpp:380] inception_4c/relu_5x5 <- inception_4c/5x5
I1215 11:38:57.771831 25197 net.cpp:327] inception_4c/relu_5x5 -> inception_4c/5x5 (in-place)
I1215 11:38:57.771849 25197 net.cpp:113] Setting up inception_4c/relu_5x5
I1215 11:38:57.771960 25197 net.cpp:120] Top shape: 32 64 14 14 (401408)
I1215 11:38:57.771970 25197 layer_factory.hpp:74] Creating layer inception_4c/pool
I1215 11:38:57.771980 25197 layer_factory.cpp:56] CUDNN does not support padding or multiple tops. Using Caffe's own pooling layer.
I1215 11:38:57.771992 25197 net.cpp:84] Creating Layer inception_4c/pool
I1215 11:38:57.772001 25197 net.cpp:380] inception_4c/pool <- inception_4b/output_inception_4b/output_0_split_3
I1215 11:38:57.772011 25197 net.cpp:338] inception_4c/pool -> inception_4c/pool
I1215 11:38:57.772023 25197 net.cpp:113] Setting up inception_4c/pool
I1215 11:38:57.772037 25197 net.cpp:120] Top shape: 32 512 14 14 (3211264)
I1215 11:38:57.772047 25197 layer_factory.hpp:74] Creating layer inception_4c/pool_proj
I1215 11:38:57.772061 25197 net.cpp:84] Creating Layer inception_4c/pool_proj
I1215 11:38:57.772069 25197 net.cpp:380] inception_4c/pool_proj <- inception_4c/pool
I1215 11:38:57.772080 25197 net.cpp:338] inception_4c/pool_proj -> inception_4c/pool_proj
I1215 11:38:57.772092 25197 net.cpp:113] Setting up inception_4c/pool_proj
I1215 11:38:57.776139 25197 net.cpp:120] Top shape: 32 64 14 14 (401408)
I1215 11:38:57.776160 25197 layer_factory.hpp:74] Creating layer inception_4c/relu_pool_proj
I1215 11:38:57.776173 25197 net.cpp:84] Creating Layer inception_4c/relu_pool_proj
I1215 11:38:57.776181 25197 net.cpp:380] inception_4c/relu_pool_proj <- inception_4c/pool_proj
I1215 11:38:57.776197 25197 net.cpp:327] inception_4c/relu_pool_proj -> inception_4c/pool_proj (in-place)
I1215 11:38:57.776209 25197 net.cpp:113] Setting up inception_4c/relu_pool_proj
I1215 11:38:57.776312 25197 net.cpp:120] Top shape: 32 64 14 14 (401408)
I1215 11:38:57.776324 25197 layer_factory.hpp:74] Creating layer inception_4c/output
I1215 11:38:57.776340 25197 net.cpp:84] Creating Layer inception_4c/output
I1215 11:38:57.776347 25197 net.cpp:380] inception_4c/output <- inception_4c/1x1
I1215 11:38:57.776356 25197 net.cpp:380] inception_4c/output <- inception_4c/3x3
I1215 11:38:57.776366 25197 net.cpp:380] inception_4c/output <- inception_4c/5x5
I1215 11:38:57.776386 25197 net.cpp:380] inception_4c/output <- inception_4c/pool_proj
I1215 11:38:57.776396 25197 net.cpp:338] inception_4c/output -> inception_4c/output
I1215 11:38:57.776406 25197 net.cpp:113] Setting up inception_4c/output
I1215 11:38:57.776428 25197 net.cpp:120] Top shape: 32 512 14 14 (3211264)
I1215 11:38:57.776437 25197 layer_factory.hpp:74] Creating layer inception_4c/output_inception_4c/output_0_split
I1215 11:38:57.776446 25197 net.cpp:84] Creating Layer inception_4c/output_inception_4c/output_0_split
I1215 11:38:57.776453 25197 net.cpp:380] inception_4c/output_inception_4c/output_0_split <- inception_4c/output
I1215 11:38:57.776463 25197 net.cpp:338] inception_4c/output_inception_4c/output_0_split -> inception_4c/output_inception_4c/output_0_split_0
I1215 11:38:57.776476 25197 net.cpp:338] inception_4c/output_inception_4c/output_0_split -> inception_4c/output_inception_4c/output_0_split_1
I1215 11:38:57.776489 25197 net.cpp:338] inception_4c/output_inception_4c/output_0_split -> inception_4c/output_inception_4c/output_0_split_2
I1215 11:38:57.776499 25197 net.cpp:338] inception_4c/output_inception_4c/output_0_split -> inception_4c/output_inception_4c/output_0_split_3
I1215 11:38:57.776509 25197 net.cpp:113] Setting up inception_4c/output_inception_4c/output_0_split
I1215 11:38:57.776520 25197 net.cpp:120] Top shape: 32 512 14 14 (3211264)
I1215 11:38:57.776528 25197 net.cpp:120] Top shape: 32 512 14 14 (3211264)
I1215 11:38:57.776535 25197 net.cpp:120] Top shape: 32 512 14 14 (3211264)
I1215 11:38:57.776543 25197 net.cpp:120] Top shape: 32 512 14 14 (3211264)
I1215 11:38:57.776551 25197 layer_factory.hpp:74] Creating layer inception_4d/1x1
I1215 11:38:57.776566 25197 net.cpp:84] Creating Layer inception_4d/1x1
I1215 11:38:57.776572 25197 net.cpp:380] inception_4d/1x1 <- inception_4c/output_inception_4c/output_0_split_0
I1215 11:38:57.776589 25197 net.cpp:338] inception_4d/1x1 -> inception_4d/1x1
I1215 11:38:57.776610 25197 net.cpp:113] Setting up inception_4d/1x1
I1215 11:38:57.777741 25197 net.cpp:120] Top shape: 32 112 14 14 (702464)
I1215 11:38:57.777762 25197 layer_factory.hpp:74] Creating layer inception_4d/relu_1x1
I1215 11:38:57.777775 25197 net.cpp:84] Creating Layer inception_4d/relu_1x1
I1215 11:38:57.777783 25197 net.cpp:380] inception_4d/relu_1x1 <- inception_4d/1x1
I1215 11:38:57.777792 25197 net.cpp:327] inception_4d/relu_1x1 -> inception_4d/1x1 (in-place)
I1215 11:38:57.777803 25197 net.cpp:113] Setting up inception_4d/relu_1x1
I1215 11:38:57.777884 25197 net.cpp:120] Top shape: 32 112 14 14 (702464)
I1215 11:38:57.777891 25197 layer_factory.hpp:74] Creating layer inception_4d/3x3_reduce
I1215 11:38:57.777904 25197 net.cpp:84] Creating Layer inception_4d/3x3_reduce
I1215 11:38:57.777911 25197 net.cpp:380] inception_4d/3x3_reduce <- inception_4c/output_inception_4c/output_0_split_1
I1215 11:38:57.777922 25197 net.cpp:338] inception_4d/3x3_reduce -> inception_4d/3x3_reduce
I1215 11:38:57.777930 25197 net.cpp:113] Setting up inception_4d/3x3_reduce
I1215 11:38:57.779223 25197 net.cpp:120] Top shape: 32 144 14 14 (903168)
I1215 11:38:57.779243 25197 layer_factory.hpp:74] Creating layer inception_4d/relu_3x3_reduce
I1215 11:38:57.779256 25197 net.cpp:84] Creating Layer inception_4d/relu_3x3_reduce
I1215 11:38:57.779265 25197 net.cpp:380] inception_4d/relu_3x3_reduce <- inception_4d/3x3_reduce
I1215 11:38:57.779276 25197 net.cpp:327] inception_4d/relu_3x3_reduce -> inception_4d/3x3_reduce (in-place)
I1215 11:38:57.779288 25197 net.cpp:113] Setting up inception_4d/relu_3x3_reduce
I1215 11:38:57.779563 25197 net.cpp:120] Top shape: 32 144 14 14 (903168)
I1215 11:38:57.779577 25197 layer_factory.hpp:74] Creating layer inception_4d/3x3
I1215 11:38:57.779590 25197 net.cpp:84] Creating Layer inception_4d/3x3
I1215 11:38:57.779598 25197 net.cpp:380] inception_4d/3x3 <- inception_4d/3x3_reduce
I1215 11:38:57.779611 25197 net.cpp:338] inception_4d/3x3 -> inception_4d/3x3
I1215 11:38:57.779624 25197 net.cpp:113] Setting up inception_4d/3x3
I1215 11:38:57.783926 25197 net.cpp:120] Top shape: 32 288 14 14 (1806336)
I1215 11:38:57.783944 25197 layer_factory.hpp:74] Creating layer inception_4d/relu_3x3
I1215 11:38:57.783951 25197 net.cpp:84] Creating Layer inception_4d/relu_3x3
I1215 11:38:57.783957 25197 net.cpp:380] inception_4d/relu_3x3 <- inception_4d/3x3
I1215 11:38:57.783964 25197 net.cpp:327] inception_4d/relu_3x3 -> inception_4d/3x3 (in-place)
I1215 11:38:57.783972 25197 net.cpp:113] Setting up inception_4d/relu_3x3
I1215 11:38:57.784035 25197 net.cpp:120] Top shape: 32 288 14 14 (1806336)
I1215 11:38:57.784042 25197 layer_factory.hpp:74] Creating layer inception_4d/5x5_reduce
I1215 11:38:57.784054 25197 net.cpp:84] Creating Layer inception_4d/5x5_reduce
I1215 11:38:57.784059 25197 net.cpp:380] inception_4d/5x5_reduce <- inception_4c/output_inception_4c/output_0_split_2
I1215 11:38:57.784065 25197 net.cpp:338] inception_4d/5x5_reduce -> inception_4d/5x5_reduce
I1215 11:38:57.784071 25197 net.cpp:113] Setting up inception_4d/5x5_reduce
I1215 11:38:57.784622 25197 net.cpp:120] Top shape: 32 32 14 14 (200704)
I1215 11:38:57.784636 25197 layer_factory.hpp:74] Creating layer inception_4d/relu_5x5_reduce
I1215 11:38:57.784646 25197 net.cpp:84] Creating Layer inception_4d/relu_5x5_reduce
I1215 11:38:57.784651 25197 net.cpp:380] inception_4d/relu_5x5_reduce <- inception_4d/5x5_reduce
I1215 11:38:57.784657 25197 net.cpp:327] inception_4d/relu_5x5_reduce -> inception_4d/5x5_reduce (in-place)
I1215 11:38:57.784674 25197 net.cpp:113] Setting up inception_4d/relu_5x5_reduce
I1215 11:38:57.784750 25197 net.cpp:120] Top shape: 32 32 14 14 (200704)
I1215 11:38:57.784756 25197 layer_factory.hpp:74] Creating layer inception_4d/5x5
I1215 11:38:57.784765 25197 net.cpp:84] Creating Layer inception_4d/5x5
I1215 11:38:57.784770 25197 net.cpp:380] inception_4d/5x5 <- inception_4d/5x5_reduce
I1215 11:38:57.784777 25197 net.cpp:338] inception_4d/5x5 -> inception_4d/5x5
I1215 11:38:57.784790 25197 net.cpp:113] Setting up inception_4d/5x5
I1215 11:38:57.785754 25197 net.cpp:120] Top shape: 32 64 14 14 (401408)
I1215 11:38:57.785770 25197 layer_factory.hpp:74] Creating layer inception_4d/relu_5x5
I1215 11:38:57.785779 25197 net.cpp:84] Creating Layer inception_4d/relu_5x5
I1215 11:38:57.785785 25197 net.cpp:380] inception_4d/relu_5x5 <- inception_4d/5x5
I1215 11:38:57.785791 25197 net.cpp:327] inception_4d/relu_5x5 -> inception_4d/5x5 (in-place)
I1215 11:38:57.785799 25197 net.cpp:113] Setting up inception_4d/relu_5x5
I1215 11:38:57.785864 25197 net.cpp:120] Top shape: 32 64 14 14 (401408)
I1215 11:38:57.785871 25197 layer_factory.hpp:74] Creating layer inception_4d/pool
I1215 11:38:57.785876 25197 layer_factory.cpp:56] CUDNN does not support padding or multiple tops. Using Caffe's own pooling layer.
I1215 11:38:57.785881 25197 net.cpp:84] Creating Layer inception_4d/pool
I1215 11:38:57.785887 25197 net.cpp:380] inception_4d/pool <- inception_4c/output_inception_4c/output_0_split_3
I1215 11:38:57.785894 25197 net.cpp:338] inception_4d/pool -> inception_4d/pool
I1215 11:38:57.785902 25197 net.cpp:113] Setting up inception_4d/pool
I1215 11:38:57.785909 25197 net.cpp:120] Top shape: 32 512 14 14 (3211264)
I1215 11:38:57.785914 25197 layer_factory.hpp:74] Creating layer inception_4d/pool_proj
I1215 11:38:57.785923 25197 net.cpp:84] Creating Layer inception_4d/pool_proj
I1215 11:38:57.785928 25197 net.cpp:380] inception_4d/pool_proj <- inception_4d/pool
I1215 11:38:57.785934 25197 net.cpp:338] inception_4d/pool_proj -> inception_4d/pool_proj
I1215 11:38:57.785941 25197 net.cpp:113] Setting up inception_4d/pool_proj
I1215 11:38:57.786689 25197 net.cpp:120] Top shape: 32 64 14 14 (401408)
I1215 11:38:57.786703 25197 layer_factory.hpp:74] Creating layer inception_4d/relu_pool_proj
I1215 11:38:57.786710 25197 net.cpp:84] Creating Layer inception_4d/relu_pool_proj
I1215 11:38:57.786715 25197 net.cpp:380] inception_4d/relu_pool_proj <- inception_4d/pool_proj
I1215 11:38:57.786722 25197 net.cpp:327] inception_4d/relu_pool_proj -> inception_4d/pool_proj (in-place)
I1215 11:38:57.786730 25197 net.cpp:113] Setting up inception_4d/relu_pool_proj
I1215 11:38:57.787108 25197 net.cpp:120] Top shape: 32 64 14 14 (401408)
I1215 11:38:57.787119 25197 layer_factory.hpp:74] Creating layer inception_4d/output
I1215 11:38:57.787127 25197 net.cpp:84] Creating Layer inception_4d/output
I1215 11:38:57.787132 25197 net.cpp:380] inception_4d/output <- inception_4d/1x1
I1215 11:38:57.787138 25197 net.cpp:380] inception_4d/output <- inception_4d/3x3
I1215 11:38:57.787143 25197 net.cpp:380] inception_4d/output <- inception_4d/5x5
I1215 11:38:57.787148 25197 net.cpp:380] inception_4d/output <- inception_4d/pool_proj
I1215 11:38:57.787153 25197 net.cpp:338] inception_4d/output -> inception_4d/output
I1215 11:38:57.787160 25197 net.cpp:113] Setting up inception_4d/output
I1215 11:38:57.787168 25197 net.cpp:120] Top shape: 32 528 14 14 (3311616)
I1215 11:38:57.787173 25197 layer_factory.hpp:74] Creating layer inception_4d/output_inception_4d/output_0_split
I1215 11:38:57.787183 25197 net.cpp:84] Creating Layer inception_4d/output_inception_4d/output_0_split
I1215 11:38:57.787186 25197 net.cpp:380] inception_4d/output_inception_4d/output_0_split <- inception_4d/output
I1215 11:38:57.787192 25197 net.cpp:338] inception_4d/output_inception_4d/output_0_split -> inception_4d/output_inception_4d/output_0_split_0
I1215 11:38:57.787199 25197 net.cpp:338] inception_4d/output_inception_4d/output_0_split -> inception_4d/output_inception_4d/output_0_split_1
I1215 11:38:57.787206 25197 net.cpp:338] inception_4d/output_inception_4d/output_0_split -> inception_4d/output_inception_4d/output_0_split_2
I1215 11:38:57.787214 25197 net.cpp:338] inception_4d/output_inception_4d/output_0_split -> inception_4d/output_inception_4d/output_0_split_3
I1215 11:38:57.787221 25197 net.cpp:338] inception_4d/output_inception_4d/output_0_split -> inception_4d/output_inception_4d/output_0_split_4
I1215 11:38:57.787227 25197 net.cpp:113] Setting up inception_4d/output_inception_4d/output_0_split
I1215 11:38:57.787240 25197 net.cpp:120] Top shape: 32 528 14 14 (3311616)
I1215 11:38:57.787258 25197 net.cpp:120] Top shape: 32 528 14 14 (3311616)
I1215 11:38:57.787267 25197 net.cpp:120] Top shape: 32 528 14 14 (3311616)
I1215 11:38:57.787272 25197 net.cpp:120] Top shape: 32 528 14 14 (3311616)
I1215 11:38:57.787277 25197 net.cpp:120] Top shape: 32 528 14 14 (3311616)
I1215 11:38:57.787281 25197 layer_factory.hpp:74] Creating layer loss2/ave_pool
I1215 11:38:57.787288 25197 net.cpp:84] Creating Layer loss2/ave_pool
I1215 11:38:57.787293 25197 net.cpp:380] loss2/ave_pool <- inception_4d/output_inception_4d/output_0_split_0
I1215 11:38:57.787302 25197 net.cpp:338] loss2/ave_pool -> loss2/ave_pool
I1215 11:38:57.787308 25197 net.cpp:113] Setting up loss2/ave_pool
I1215 11:38:57.787376 25197 net.cpp:120] Top shape: 32 528 4 4 (270336)
I1215 11:38:57.787382 25197 layer_factory.hpp:74] Creating layer loss2/conv
I1215 11:38:57.787390 25197 net.cpp:84] Creating Layer loss2/conv
I1215 11:38:57.787397 25197 net.cpp:380] loss2/conv <- loss2/ave_pool
I1215 11:38:57.787405 25197 net.cpp:338] loss2/conv -> loss2/conv
I1215 11:38:57.787412 25197 net.cpp:113] Setting up loss2/conv
I1215 11:38:57.788522 25197 net.cpp:120] Top shape: 32 128 4 4 (65536)
I1215 11:38:57.788540 25197 layer_factory.hpp:74] Creating layer loss2/relu_conv
I1215 11:38:57.788548 25197 net.cpp:84] Creating Layer loss2/relu_conv
I1215 11:38:57.788553 25197 net.cpp:380] loss2/relu_conv <- loss2/conv
I1215 11:38:57.788559 25197 net.cpp:327] loss2/relu_conv -> loss2/conv (in-place)
I1215 11:38:57.788565 25197 net.cpp:113] Setting up loss2/relu_conv
I1215 11:38:57.788628 25197 net.cpp:120] Top shape: 32 128 4 4 (65536)
I1215 11:38:57.788636 25197 layer_factory.hpp:74] Creating layer loss2/fc
I1215 11:38:57.788645 25197 net.cpp:84] Creating Layer loss2/fc
I1215 11:38:57.788650 25197 net.cpp:380] loss2/fc <- loss2/conv
I1215 11:38:57.788655 25197 net.cpp:338] loss2/fc -> loss2/fc
I1215 11:38:57.788662 25197 net.cpp:113] Setting up loss2/fc
I1215 11:38:57.809639 25197 net.cpp:120] Top shape: 32 1024 (32768)
I1215 11:38:57.809672 25197 layer_factory.hpp:74] Creating layer loss2/relu_fc
I1215 11:38:57.809681 25197 net.cpp:84] Creating Layer loss2/relu_fc
I1215 11:38:57.809689 25197 net.cpp:380] loss2/relu_fc <- loss2/fc
I1215 11:38:57.809700 25197 net.cpp:327] loss2/relu_fc -> loss2/fc (in-place)
I1215 11:38:57.809707 25197 net.cpp:113] Setting up loss2/relu_fc
I1215 11:38:57.810103 25197 net.cpp:120] Top shape: 32 1024 (32768)
I1215 11:38:57.810113 25197 layer_factory.hpp:74] Creating layer loss2/drop_fc
I1215 11:38:57.810122 25197 net.cpp:84] Creating Layer loss2/drop_fc
I1215 11:38:57.810127 25197 net.cpp:380] loss2/drop_fc <- loss2/fc
I1215 11:38:57.810134 25197 net.cpp:327] loss2/drop_fc -> loss2/fc (in-place)
I1215 11:38:57.810142 25197 net.cpp:113] Setting up loss2/drop_fc
I1215 11:38:57.810149 25197 net.cpp:120] Top shape: 32 1024 (32768)
I1215 11:38:57.810153 25197 layer_factory.hpp:74] Creating layer loss2/classifier_kaggle
I1215 11:38:57.810165 25197 net.cpp:84] Creating Layer loss2/classifier_kaggle
I1215 11:38:57.810169 25197 net.cpp:380] loss2/classifier_kaggle <- loss2/fc
I1215 11:38:57.810178 25197 net.cpp:338] loss2/classifier_kaggle -> loss2/classifier_kaggle
I1215 11:38:57.810186 25197 net.cpp:113] Setting up loss2/classifier_kaggle
I1215 11:38:57.815158 25197 net.cpp:120] Top shape: 32 447 (14304)
I1215 11:38:57.815172 25197 layer_factory.hpp:74] Creating layer loss2/loss
I1215 11:38:57.815181 25197 net.cpp:84] Creating Layer loss2/loss
I1215 11:38:57.815187 25197 net.cpp:380] loss2/loss <- loss2/classifier_kaggle
I1215 11:38:57.815193 25197 net.cpp:380] loss2/loss <- label_data_1_split_1
I1215 11:38:57.815201 25197 net.cpp:338] loss2/loss -> loss2/loss1
I1215 11:38:57.815208 25197 net.cpp:113] Setting up loss2/loss
I1215 11:38:57.815215 25197 layer_factory.hpp:74] Creating layer loss2/loss
I1215 11:38:57.815331 25197 net.cpp:120] Top shape: (1)
I1215 11:38:57.815340 25197 net.cpp:122]     with loss weight 0.3
I1215 11:38:57.815361 25197 layer_factory.hpp:74] Creating layer inception_4e/1x1
I1215 11:38:57.815383 25197 net.cpp:84] Creating Layer inception_4e/1x1
I1215 11:38:57.815389 25197 net.cpp:380] inception_4e/1x1 <- inception_4d/output_inception_4d/output_0_split_1
I1215 11:38:57.815397 25197 net.cpp:338] inception_4e/1x1 -> inception_4e/1x1
I1215 11:38:57.815404 25197 net.cpp:113] Setting up inception_4e/1x1
I1215 11:38:57.817358 25197 net.cpp:120] Top shape: 32 256 14 14 (1605632)
I1215 11:38:57.817373 25197 layer_factory.hpp:74] Creating layer inception_4e/relu_1x1
I1215 11:38:57.817383 25197 net.cpp:84] Creating Layer inception_4e/relu_1x1
I1215 11:38:57.817389 25197 net.cpp:380] inception_4e/relu_1x1 <- inception_4e/1x1
I1215 11:38:57.817394 25197 net.cpp:327] inception_4e/relu_1x1 -> inception_4e/1x1 (in-place)
I1215 11:38:57.817401 25197 net.cpp:113] Setting up inception_4e/relu_1x1
I1215 11:38:57.817466 25197 net.cpp:120] Top shape: 32 256 14 14 (1605632)
I1215 11:38:57.817471 25197 layer_factory.hpp:74] Creating layer inception_4e/3x3_reduce
I1215 11:38:57.817481 25197 net.cpp:84] Creating Layer inception_4e/3x3_reduce
I1215 11:38:57.817487 25197 net.cpp:380] inception_4e/3x3_reduce <- inception_4d/output_inception_4d/output_0_split_2
I1215 11:38:57.817497 25197 net.cpp:338] inception_4e/3x3_reduce -> inception_4e/3x3_reduce
I1215 11:38:57.817505 25197 net.cpp:113] Setting up inception_4e/3x3_reduce
I1215 11:38:57.818997 25197 net.cpp:120] Top shape: 32 160 14 14 (1003520)
I1215 11:38:57.819012 25197 layer_factory.hpp:74] Creating layer inception_4e/relu_3x3_reduce
I1215 11:38:57.819020 25197 net.cpp:84] Creating Layer inception_4e/relu_3x3_reduce
I1215 11:38:57.819026 25197 net.cpp:380] inception_4e/relu_3x3_reduce <- inception_4e/3x3_reduce
I1215 11:38:57.819032 25197 net.cpp:327] inception_4e/relu_3x3_reduce -> inception_4e/3x3_reduce (in-place)
I1215 11:38:57.819039 25197 net.cpp:113] Setting up inception_4e/relu_3x3_reduce
I1215 11:38:57.819108 25197 net.cpp:120] Top shape: 32 160 14 14 (1003520)
I1215 11:38:57.819115 25197 layer_factory.hpp:74] Creating layer inception_4e/3x3
I1215 11:38:57.819125 25197 net.cpp:84] Creating Layer inception_4e/3x3
I1215 11:38:57.819130 25197 net.cpp:380] inception_4e/3x3 <- inception_4e/3x3_reduce
I1215 11:38:57.819136 25197 net.cpp:338] inception_4e/3x3 -> inception_4e/3x3
I1215 11:38:57.819144 25197 net.cpp:113] Setting up inception_4e/3x3
I1215 11:38:57.824512 25197 net.cpp:120] Top shape: 32 320 14 14 (2007040)
I1215 11:38:57.824529 25197 layer_factory.hpp:74] Creating layer inception_4e/relu_3x3
I1215 11:38:57.824535 25197 net.cpp:84] Creating Layer inception_4e/relu_3x3
I1215 11:38:57.824540 25197 net.cpp:380] inception_4e/relu_3x3 <- inception_4e/3x3
I1215 11:38:57.824547 25197 net.cpp:327] inception_4e/relu_3x3 -> inception_4e/3x3 (in-place)
I1215 11:38:57.824553 25197 net.cpp:113] Setting up inception_4e/relu_3x3
I1215 11:38:57.824792 25197 net.cpp:120] Top shape: 32 320 14 14 (2007040)
I1215 11:38:57.824802 25197 layer_factory.hpp:74] Creating layer inception_4e/5x5_reduce
I1215 11:38:57.824813 25197 net.cpp:84] Creating Layer inception_4e/5x5_reduce
I1215 11:38:57.824818 25197 net.cpp:380] inception_4e/5x5_reduce <- inception_4d/output_inception_4d/output_0_split_3
I1215 11:38:57.824826 25197 net.cpp:338] inception_4e/5x5_reduce -> inception_4e/5x5_reduce
I1215 11:38:57.824836 25197 net.cpp:113] Setting up inception_4e/5x5_reduce
I1215 11:38:57.825417 25197 net.cpp:120] Top shape: 32 32 14 14 (200704)
I1215 11:38:57.825433 25197 layer_factory.hpp:74] Creating layer inception_4e/relu_5x5_reduce
I1215 11:38:57.825439 25197 net.cpp:84] Creating Layer inception_4e/relu_5x5_reduce
I1215 11:38:57.825444 25197 net.cpp:380] inception_4e/relu_5x5_reduce <- inception_4e/5x5_reduce
I1215 11:38:57.825453 25197 net.cpp:327] inception_4e/relu_5x5_reduce -> inception_4e/5x5_reduce (in-place)
I1215 11:38:57.825459 25197 net.cpp:113] Setting up inception_4e/relu_5x5_reduce
I1215 11:38:57.825525 25197 net.cpp:120] Top shape: 32 32 14 14 (200704)
I1215 11:38:57.825531 25197 layer_factory.hpp:74] Creating layer inception_4e/5x5
I1215 11:38:57.825573 25197 net.cpp:84] Creating Layer inception_4e/5x5
I1215 11:38:57.825579 25197 net.cpp:380] inception_4e/5x5 <- inception_4e/5x5_reduce
I1215 11:38:57.825587 25197 net.cpp:338] inception_4e/5x5 -> inception_4e/5x5
I1215 11:38:57.825594 25197 net.cpp:113] Setting up inception_4e/5x5
I1215 11:38:57.827086 25197 net.cpp:120] Top shape: 32 128 14 14 (802816)
I1215 11:38:57.827103 25197 layer_factory.hpp:74] Creating layer inception_4e/relu_5x5
I1215 11:38:57.827111 25197 net.cpp:84] Creating Layer inception_4e/relu_5x5
I1215 11:38:57.827116 25197 net.cpp:380] inception_4e/relu_5x5 <- inception_4e/5x5
I1215 11:38:57.827122 25197 net.cpp:327] inception_4e/relu_5x5 -> inception_4e/5x5 (in-place)
I1215 11:38:57.827128 25197 net.cpp:113] Setting up inception_4e/relu_5x5
I1215 11:38:57.827198 25197 net.cpp:120] Top shape: 32 128 14 14 (802816)
I1215 11:38:57.827204 25197 layer_factory.hpp:74] Creating layer inception_4e/pool
I1215 11:38:57.827209 25197 layer_factory.cpp:56] CUDNN does not support padding or multiple tops. Using Caffe's own pooling layer.
I1215 11:38:57.827215 25197 net.cpp:84] Creating Layer inception_4e/pool
I1215 11:38:57.827220 25197 net.cpp:380] inception_4e/pool <- inception_4d/output_inception_4d/output_0_split_4
I1215 11:38:57.827229 25197 net.cpp:338] inception_4e/pool -> inception_4e/pool
I1215 11:38:57.827235 25197 net.cpp:113] Setting up inception_4e/pool
I1215 11:38:57.827244 25197 net.cpp:120] Top shape: 32 528 14 14 (3311616)
I1215 11:38:57.827249 25197 layer_factory.hpp:74] Creating layer inception_4e/pool_proj
I1215 11:38:57.827257 25197 net.cpp:84] Creating Layer inception_4e/pool_proj
I1215 11:38:57.827267 25197 net.cpp:380] inception_4e/pool_proj <- inception_4e/pool
I1215 11:38:57.827273 25197 net.cpp:338] inception_4e/pool_proj -> inception_4e/pool_proj
I1215 11:38:57.827286 25197 net.cpp:113] Setting up inception_4e/pool_proj
I1215 11:38:57.828414 25197 net.cpp:120] Top shape: 32 128 14 14 (802816)
I1215 11:38:57.828428 25197 layer_factory.hpp:74] Creating layer inception_4e/relu_pool_proj
I1215 11:38:57.828436 25197 net.cpp:84] Creating Layer inception_4e/relu_pool_proj
I1215 11:38:57.828441 25197 net.cpp:380] inception_4e/relu_pool_proj <- inception_4e/pool_proj
I1215 11:38:57.828449 25197 net.cpp:327] inception_4e/relu_pool_proj -> inception_4e/pool_proj (in-place)
I1215 11:38:57.828456 25197 net.cpp:113] Setting up inception_4e/relu_pool_proj
I1215 11:38:57.828519 25197 net.cpp:120] Top shape: 32 128 14 14 (802816)
I1215 11:38:57.828526 25197 layer_factory.hpp:74] Creating layer inception_4e/output
I1215 11:38:57.828532 25197 net.cpp:84] Creating Layer inception_4e/output
I1215 11:38:57.828537 25197 net.cpp:380] inception_4e/output <- inception_4e/1x1
I1215 11:38:57.828542 25197 net.cpp:380] inception_4e/output <- inception_4e/3x3
I1215 11:38:57.828549 25197 net.cpp:380] inception_4e/output <- inception_4e/5x5
I1215 11:38:57.828553 25197 net.cpp:380] inception_4e/output <- inception_4e/pool_proj
I1215 11:38:57.828559 25197 net.cpp:338] inception_4e/output -> inception_4e/output
I1215 11:38:57.828567 25197 net.cpp:113] Setting up inception_4e/output
I1215 11:38:57.828574 25197 net.cpp:120] Top shape: 32 832 14 14 (5218304)
I1215 11:38:57.828578 25197 layer_factory.hpp:74] Creating layer pool4/3x3_s2
I1215 11:38:57.828584 25197 net.cpp:84] Creating Layer pool4/3x3_s2
I1215 11:38:57.828589 25197 net.cpp:380] pool4/3x3_s2 <- inception_4e/output
I1215 11:38:57.828595 25197 net.cpp:338] pool4/3x3_s2 -> pool4/3x3_s2
I1215 11:38:57.828603 25197 net.cpp:113] Setting up pool4/3x3_s2
I1215 11:38:57.828850 25197 net.cpp:120] Top shape: 32 832 7 7 (1304576)
I1215 11:38:57.828860 25197 layer_factory.hpp:74] Creating layer pool4/3x3_s2_pool4/3x3_s2_0_split
I1215 11:38:57.828868 25197 net.cpp:84] Creating Layer pool4/3x3_s2_pool4/3x3_s2_0_split
I1215 11:38:57.828873 25197 net.cpp:380] pool4/3x3_s2_pool4/3x3_s2_0_split <- pool4/3x3_s2
I1215 11:38:57.828881 25197 net.cpp:338] pool4/3x3_s2_pool4/3x3_s2_0_split -> pool4/3x3_s2_pool4/3x3_s2_0_split_0
I1215 11:38:57.828894 25197 net.cpp:338] pool4/3x3_s2_pool4/3x3_s2_0_split -> pool4/3x3_s2_pool4/3x3_s2_0_split_1
I1215 11:38:57.828907 25197 net.cpp:338] pool4/3x3_s2_pool4/3x3_s2_0_split -> pool4/3x3_s2_pool4/3x3_s2_0_split_2
I1215 11:38:57.828914 25197 net.cpp:338] pool4/3x3_s2_pool4/3x3_s2_0_split -> pool4/3x3_s2_pool4/3x3_s2_0_split_3
I1215 11:38:57.828924 25197 net.cpp:113] Setting up pool4/3x3_s2_pool4/3x3_s2_0_split
I1215 11:38:57.828933 25197 net.cpp:120] Top shape: 32 832 7 7 (1304576)
I1215 11:38:57.828938 25197 net.cpp:120] Top shape: 32 832 7 7 (1304576)
I1215 11:38:57.828943 25197 net.cpp:120] Top shape: 32 832 7 7 (1304576)
I1215 11:38:57.828946 25197 net.cpp:120] Top shape: 32 832 7 7 (1304576)
I1215 11:38:57.828950 25197 layer_factory.hpp:74] Creating layer inception_5a/1x1
I1215 11:38:57.828958 25197 net.cpp:84] Creating Layer inception_5a/1x1
I1215 11:38:57.828963 25197 net.cpp:380] inception_5a/1x1 <- pool4/3x3_s2_pool4/3x3_s2_0_split_0
I1215 11:38:57.828970 25197 net.cpp:338] inception_5a/1x1 -> inception_5a/1x1
I1215 11:38:57.828977 25197 net.cpp:113] Setting up inception_5a/1x1
I1215 11:38:57.831697 25197 net.cpp:120] Top shape: 32 256 7 7 (401408)
I1215 11:38:57.831713 25197 layer_factory.hpp:74] Creating layer inception_5a/relu_1x1
I1215 11:38:57.831720 25197 net.cpp:84] Creating Layer inception_5a/relu_1x1
I1215 11:38:57.831725 25197 net.cpp:380] inception_5a/relu_1x1 <- inception_5a/1x1
I1215 11:38:57.831732 25197 net.cpp:327] inception_5a/relu_1x1 -> inception_5a/1x1 (in-place)
I1215 11:38:57.831739 25197 net.cpp:113] Setting up inception_5a/relu_1x1
I1215 11:38:57.831805 25197 net.cpp:120] Top shape: 32 256 7 7 (401408)
I1215 11:38:57.831811 25197 layer_factory.hpp:74] Creating layer inception_5a/3x3_reduce
I1215 11:38:57.831820 25197 net.cpp:84] Creating Layer inception_5a/3x3_reduce
I1215 11:38:57.831825 25197 net.cpp:380] inception_5a/3x3_reduce <- pool4/3x3_s2_pool4/3x3_s2_0_split_1
I1215 11:38:57.831832 25197 net.cpp:338] inception_5a/3x3_reduce -> inception_5a/3x3_reduce
I1215 11:38:57.831840 25197 net.cpp:113] Setting up inception_5a/3x3_reduce
I1215 11:38:57.837760 25197 net.cpp:120] Top shape: 32 160 7 7 (250880)
I1215 11:38:57.837776 25197 layer_factory.hpp:74] Creating layer inception_5a/relu_3x3_reduce
I1215 11:38:57.837784 25197 net.cpp:84] Creating Layer inception_5a/relu_3x3_reduce
I1215 11:38:57.837790 25197 net.cpp:380] inception_5a/relu_3x3_reduce <- inception_5a/3x3_reduce
I1215 11:38:57.837795 25197 net.cpp:327] inception_5a/relu_3x3_reduce -> inception_5a/3x3_reduce (in-place)
I1215 11:38:57.837802 25197 net.cpp:113] Setting up inception_5a/relu_3x3_reduce
I1215 11:38:57.837867 25197 net.cpp:120] Top shape: 32 160 7 7 (250880)
I1215 11:38:57.837872 25197 layer_factory.hpp:74] Creating layer inception_5a/3x3
I1215 11:38:57.837883 25197 net.cpp:84] Creating Layer inception_5a/3x3
I1215 11:38:57.837888 25197 net.cpp:380] inception_5a/3x3 <- inception_5a/3x3_reduce
I1215 11:38:57.837894 25197 net.cpp:338] inception_5a/3x3 -> inception_5a/3x3
I1215 11:38:57.837901 25197 net.cpp:113] Setting up inception_5a/3x3
I1215 11:38:57.843288 25197 net.cpp:120] Top shape: 32 320 7 7 (501760)
I1215 11:38:57.843307 25197 layer_factory.hpp:74] Creating layer inception_5a/relu_3x3
I1215 11:38:57.843314 25197 net.cpp:84] Creating Layer inception_5a/relu_3x3
I1215 11:38:57.843319 25197 net.cpp:380] inception_5a/relu_3x3 <- inception_5a/3x3
I1215 11:38:57.843327 25197 net.cpp:327] inception_5a/relu_3x3 -> inception_5a/3x3 (in-place)
I1215 11:38:57.843333 25197 net.cpp:113] Setting up inception_5a/relu_3x3
I1215 11:38:57.843400 25197 net.cpp:120] Top shape: 32 320 7 7 (501760)
I1215 11:38:57.843405 25197 layer_factory.hpp:74] Creating layer inception_5a/5x5_reduce
I1215 11:38:57.843415 25197 net.cpp:84] Creating Layer inception_5a/5x5_reduce
I1215 11:38:57.843420 25197 net.cpp:380] inception_5a/5x5_reduce <- pool4/3x3_s2_pool4/3x3_s2_0_split_2
I1215 11:38:57.843427 25197 net.cpp:338] inception_5a/5x5_reduce -> inception_5a/5x5_reduce
I1215 11:38:57.843436 25197 net.cpp:113] Setting up inception_5a/5x5_reduce
I1215 11:38:57.844128 25197 net.cpp:120] Top shape: 32 32 7 7 (50176)
I1215 11:38:57.844151 25197 layer_factory.hpp:74] Creating layer inception_5a/relu_5x5_reduce
I1215 11:38:57.844161 25197 net.cpp:84] Creating Layer inception_5a/relu_5x5_reduce
I1215 11:38:57.844166 25197 net.cpp:380] inception_5a/relu_5x5_reduce <- inception_5a/5x5_reduce
I1215 11:38:57.844172 25197 net.cpp:327] inception_5a/relu_5x5_reduce -> inception_5a/5x5_reduce (in-place)
I1215 11:38:57.844182 25197 net.cpp:113] Setting up inception_5a/relu_5x5_reduce
I1215 11:38:57.844422 25197 net.cpp:120] Top shape: 32 32 7 7 (50176)
I1215 11:38:57.844432 25197 layer_factory.hpp:74] Creating layer inception_5a/5x5
I1215 11:38:57.844440 25197 net.cpp:84] Creating Layer inception_5a/5x5
I1215 11:38:57.844445 25197 net.cpp:380] inception_5a/5x5 <- inception_5a/5x5_reduce
I1215 11:38:57.844455 25197 net.cpp:338] inception_5a/5x5 -> inception_5a/5x5
I1215 11:38:57.844462 25197 net.cpp:113] Setting up inception_5a/5x5
I1215 11:38:57.846006 25197 net.cpp:120] Top shape: 32 128 7 7 (200704)
I1215 11:38:57.846022 25197 layer_factory.hpp:74] Creating layer inception_5a/relu_5x5
I1215 11:38:57.846030 25197 net.cpp:84] Creating Layer inception_5a/relu_5x5
I1215 11:38:57.846036 25197 net.cpp:380] inception_5a/relu_5x5 <- inception_5a/5x5
I1215 11:38:57.846042 25197 net.cpp:327] inception_5a/relu_5x5 -> inception_5a/5x5 (in-place)
I1215 11:38:57.846050 25197 net.cpp:113] Setting up inception_5a/relu_5x5
I1215 11:38:57.846115 25197 net.cpp:120] Top shape: 32 128 7 7 (200704)
I1215 11:38:57.846123 25197 layer_factory.hpp:74] Creating layer inception_5a/pool
I1215 11:38:57.846129 25197 layer_factory.cpp:56] CUDNN does not support padding or multiple tops. Using Caffe's own pooling layer.
I1215 11:38:57.846138 25197 net.cpp:84] Creating Layer inception_5a/pool
I1215 11:38:57.846143 25197 net.cpp:380] inception_5a/pool <- pool4/3x3_s2_pool4/3x3_s2_0_split_3
I1215 11:38:57.846150 25197 net.cpp:338] inception_5a/pool -> inception_5a/pool
I1215 11:38:57.846158 25197 net.cpp:113] Setting up inception_5a/pool
I1215 11:38:57.846166 25197 net.cpp:120] Top shape: 32 832 7 7 (1304576)
I1215 11:38:57.846170 25197 layer_factory.hpp:74] Creating layer inception_5a/pool_proj
I1215 11:38:57.846179 25197 net.cpp:84] Creating Layer inception_5a/pool_proj
I1215 11:38:57.846184 25197 net.cpp:380] inception_5a/pool_proj <- inception_5a/pool
I1215 11:38:57.846194 25197 net.cpp:338] inception_5a/pool_proj -> inception_5a/pool_proj
I1215 11:38:57.846200 25197 net.cpp:113] Setting up inception_5a/pool_proj
I1215 11:38:57.847739 25197 net.cpp:120] Top shape: 32 128 7 7 (200704)
I1215 11:38:57.847754 25197 layer_factory.hpp:74] Creating layer inception_5a/relu_pool_proj
I1215 11:38:57.847761 25197 net.cpp:84] Creating Layer inception_5a/relu_pool_proj
I1215 11:38:57.847767 25197 net.cpp:380] inception_5a/relu_pool_proj <- inception_5a/pool_proj
I1215 11:38:57.847774 25197 net.cpp:327] inception_5a/relu_pool_proj -> inception_5a/pool_proj (in-place)
I1215 11:38:57.847780 25197 net.cpp:113] Setting up inception_5a/relu_pool_proj
I1215 11:38:57.847843 25197 net.cpp:120] Top shape: 32 128 7 7 (200704)
I1215 11:38:57.847851 25197 layer_factory.hpp:74] Creating layer inception_5a/output
I1215 11:38:57.847857 25197 net.cpp:84] Creating Layer inception_5a/output
I1215 11:38:57.847862 25197 net.cpp:380] inception_5a/output <- inception_5a/1x1
I1215 11:38:57.847867 25197 net.cpp:380] inception_5a/output <- inception_5a/3x3
I1215 11:38:57.847872 25197 net.cpp:380] inception_5a/output <- inception_5a/5x5
I1215 11:38:57.847877 25197 net.cpp:380] inception_5a/output <- inception_5a/pool_proj
I1215 11:38:57.847883 25197 net.cpp:338] inception_5a/output -> inception_5a/output
I1215 11:38:57.847890 25197 net.cpp:113] Setting up inception_5a/output
I1215 11:38:57.847898 25197 net.cpp:120] Top shape: 32 832 7 7 (1304576)
I1215 11:38:57.847901 25197 layer_factory.hpp:74] Creating layer inception_5a/output_inception_5a/output_0_split
I1215 11:38:57.847908 25197 net.cpp:84] Creating Layer inception_5a/output_inception_5a/output_0_split
I1215 11:38:57.847918 25197 net.cpp:380] inception_5a/output_inception_5a/output_0_split <- inception_5a/output
I1215 11:38:57.847932 25197 net.cpp:338] inception_5a/output_inception_5a/output_0_split -> inception_5a/output_inception_5a/output_0_split_0
I1215 11:38:57.847940 25197 net.cpp:338] inception_5a/output_inception_5a/output_0_split -> inception_5a/output_inception_5a/output_0_split_1
I1215 11:38:57.847946 25197 net.cpp:338] inception_5a/output_inception_5a/output_0_split -> inception_5a/output_inception_5a/output_0_split_2
I1215 11:38:57.847954 25197 net.cpp:338] inception_5a/output_inception_5a/output_0_split -> inception_5a/output_inception_5a/output_0_split_3
I1215 11:38:57.847959 25197 net.cpp:113] Setting up inception_5a/output_inception_5a/output_0_split
I1215 11:38:57.847965 25197 net.cpp:120] Top shape: 32 832 7 7 (1304576)
I1215 11:38:57.847970 25197 net.cpp:120] Top shape: 32 832 7 7 (1304576)
I1215 11:38:57.847975 25197 net.cpp:120] Top shape: 32 832 7 7 (1304576)
I1215 11:38:57.847980 25197 net.cpp:120] Top shape: 32 832 7 7 (1304576)
I1215 11:38:57.847985 25197 layer_factory.hpp:74] Creating layer inception_5b/1x1
I1215 11:38:57.847995 25197 net.cpp:84] Creating Layer inception_5b/1x1
I1215 11:38:57.848000 25197 net.cpp:380] inception_5b/1x1 <- inception_5a/output_inception_5a/output_0_split_0
I1215 11:38:57.848007 25197 net.cpp:338] inception_5b/1x1 -> inception_5b/1x1
I1215 11:38:57.848014 25197 net.cpp:113] Setting up inception_5b/1x1
I1215 11:38:57.851852 25197 net.cpp:120] Top shape: 32 384 7 7 (602112)
I1215 11:38:57.851868 25197 layer_factory.hpp:74] Creating layer inception_5b/relu_1x1
I1215 11:38:57.851876 25197 net.cpp:84] Creating Layer inception_5b/relu_1x1
I1215 11:38:57.851881 25197 net.cpp:380] inception_5b/relu_1x1 <- inception_5b/1x1
I1215 11:38:57.851886 25197 net.cpp:327] inception_5b/relu_1x1 -> inception_5b/1x1 (in-place)
I1215 11:38:57.851893 25197 net.cpp:113] Setting up inception_5b/relu_1x1
I1215 11:38:57.852131 25197 net.cpp:120] Top shape: 32 384 7 7 (602112)
I1215 11:38:57.852141 25197 layer_factory.hpp:74] Creating layer inception_5b/3x3_reduce
I1215 11:38:57.852154 25197 net.cpp:84] Creating Layer inception_5b/3x3_reduce
I1215 11:38:57.852159 25197 net.cpp:380] inception_5b/3x3_reduce <- inception_5a/output_inception_5a/output_0_split_1
I1215 11:38:57.852169 25197 net.cpp:338] inception_5b/3x3_reduce -> inception_5b/3x3_reduce
I1215 11:38:57.852176 25197 net.cpp:113] Setting up inception_5b/3x3_reduce
I1215 11:38:57.855075 25197 net.cpp:120] Top shape: 32 192 7 7 (301056)
I1215 11:38:57.855099 25197 layer_factory.hpp:74] Creating layer inception_5b/relu_3x3_reduce
I1215 11:38:57.855111 25197 net.cpp:84] Creating Layer inception_5b/relu_3x3_reduce
I1215 11:38:57.855118 25197 net.cpp:380] inception_5b/relu_3x3_reduce <- inception_5b/3x3_reduce
I1215 11:38:57.855128 25197 net.cpp:327] inception_5b/relu_3x3_reduce -> inception_5b/3x3_reduce (in-place)
I1215 11:38:57.855135 25197 net.cpp:113] Setting up inception_5b/relu_3x3_reduce
I1215 11:38:57.855228 25197 net.cpp:120] Top shape: 32 192 7 7 (301056)
I1215 11:38:57.855237 25197 layer_factory.hpp:74] Creating layer inception_5b/3x3
I1215 11:38:57.855245 25197 net.cpp:84] Creating Layer inception_5b/3x3
I1215 11:38:57.855250 25197 net.cpp:380] inception_5b/3x3 <- inception_5b/3x3_reduce
I1215 11:38:57.855258 25197 net.cpp:338] inception_5b/3x3 -> inception_5b/3x3
I1215 11:38:57.855298 25197 net.cpp:113] Setting up inception_5b/3x3
I1215 11:38:57.863050 25197 net.cpp:120] Top shape: 32 384 7 7 (602112)
I1215 11:38:57.863070 25197 layer_factory.hpp:74] Creating layer inception_5b/relu_3x3
I1215 11:38:57.863078 25197 net.cpp:84] Creating Layer inception_5b/relu_3x3
I1215 11:38:57.863085 25197 net.cpp:380] inception_5b/relu_3x3 <- inception_5b/3x3
I1215 11:38:57.863090 25197 net.cpp:327] inception_5b/relu_3x3 -> inception_5b/3x3 (in-place)
I1215 11:38:57.863098 25197 net.cpp:113] Setting up inception_5b/relu_3x3
I1215 11:38:57.863169 25197 net.cpp:120] Top shape: 32 384 7 7 (602112)
I1215 11:38:57.863183 25197 layer_factory.hpp:74] Creating layer inception_5b/5x5_reduce
I1215 11:38:57.863198 25197 net.cpp:84] Creating Layer inception_5b/5x5_reduce
I1215 11:38:57.863204 25197 net.cpp:380] inception_5b/5x5_reduce <- inception_5a/output_inception_5a/output_0_split_2
I1215 11:38:57.863212 25197 net.cpp:338] inception_5b/5x5_reduce -> inception_5b/5x5_reduce
I1215 11:38:57.863221 25197 net.cpp:113] Setting up inception_5b/5x5_reduce
I1215 11:38:57.864048 25197 net.cpp:120] Top shape: 32 48 7 7 (75264)
I1215 11:38:57.864063 25197 layer_factory.hpp:74] Creating layer inception_5b/relu_5x5_reduce
I1215 11:38:57.864074 25197 net.cpp:84] Creating Layer inception_5b/relu_5x5_reduce
I1215 11:38:57.864079 25197 net.cpp:380] inception_5b/relu_5x5_reduce <- inception_5b/5x5_reduce
I1215 11:38:57.864086 25197 net.cpp:327] inception_5b/relu_5x5_reduce -> inception_5b/5x5_reduce (in-place)
I1215 11:38:57.864094 25197 net.cpp:113] Setting up inception_5b/relu_5x5_reduce
I1215 11:38:57.864159 25197 net.cpp:120] Top shape: 32 48 7 7 (75264)
I1215 11:38:57.864166 25197 layer_factory.hpp:74] Creating layer inception_5b/5x5
I1215 11:38:57.864176 25197 net.cpp:84] Creating Layer inception_5b/5x5
I1215 11:38:57.864181 25197 net.cpp:380] inception_5b/5x5 <- inception_5b/5x5_reduce
I1215 11:38:57.864187 25197 net.cpp:338] inception_5b/5x5 -> inception_5b/5x5
I1215 11:38:57.864195 25197 net.cpp:113] Setting up inception_5b/5x5
I1215 11:38:57.866255 25197 net.cpp:120] Top shape: 32 128 7 7 (200704)
I1215 11:38:57.866271 25197 layer_factory.hpp:74] Creating layer inception_5b/relu_5x5
I1215 11:38:57.866278 25197 net.cpp:84] Creating Layer inception_5b/relu_5x5
I1215 11:38:57.866284 25197 net.cpp:380] inception_5b/relu_5x5 <- inception_5b/5x5
I1215 11:38:57.866291 25197 net.cpp:327] inception_5b/relu_5x5 -> inception_5b/5x5 (in-place)
I1215 11:38:57.866297 25197 net.cpp:113] Setting up inception_5b/relu_5x5
I1215 11:38:57.866544 25197 net.cpp:120] Top shape: 32 128 7 7 (200704)
I1215 11:38:57.866554 25197 layer_factory.hpp:74] Creating layer inception_5b/pool
I1215 11:38:57.866560 25197 layer_factory.cpp:56] CUDNN does not support padding or multiple tops. Using Caffe's own pooling layer.
I1215 11:38:57.866569 25197 net.cpp:84] Creating Layer inception_5b/pool
I1215 11:38:57.866575 25197 net.cpp:380] inception_5b/pool <- inception_5a/output_inception_5a/output_0_split_3
I1215 11:38:57.866581 25197 net.cpp:338] inception_5b/pool -> inception_5b/pool
I1215 11:38:57.866590 25197 net.cpp:113] Setting up inception_5b/pool
I1215 11:38:57.866598 25197 net.cpp:120] Top shape: 32 832 7 7 (1304576)
I1215 11:38:57.866602 25197 layer_factory.hpp:74] Creating layer inception_5b/pool_proj
I1215 11:38:57.866612 25197 net.cpp:84] Creating Layer inception_5b/pool_proj
I1215 11:38:57.866616 25197 net.cpp:380] inception_5b/pool_proj <- inception_5b/pool
I1215 11:38:57.866624 25197 net.cpp:338] inception_5b/pool_proj -> inception_5b/pool_proj
I1215 11:38:57.866632 25197 net.cpp:113] Setting up inception_5b/pool_proj
I1215 11:38:57.868302 25197 net.cpp:120] Top shape: 32 128 7 7 (200704)
I1215 11:38:57.868319 25197 layer_factory.hpp:74] Creating layer inception_5b/relu_pool_proj
I1215 11:38:57.868326 25197 net.cpp:84] Creating Layer inception_5b/relu_pool_proj
I1215 11:38:57.868331 25197 net.cpp:380] inception_5b/relu_pool_proj <- inception_5b/pool_proj
I1215 11:38:57.868340 25197 net.cpp:327] inception_5b/relu_pool_proj -> inception_5b/pool_proj (in-place)
I1215 11:38:57.868348 25197 net.cpp:113] Setting up inception_5b/relu_pool_proj
I1215 11:38:57.868418 25197 net.cpp:120] Top shape: 32 128 7 7 (200704)
I1215 11:38:57.868425 25197 layer_factory.hpp:74] Creating layer inception_5b/output
I1215 11:38:57.868432 25197 net.cpp:84] Creating Layer inception_5b/output
I1215 11:38:57.868438 25197 net.cpp:380] inception_5b/output <- inception_5b/1x1
I1215 11:38:57.868444 25197 net.cpp:380] inception_5b/output <- inception_5b/3x3
I1215 11:38:57.868453 25197 net.cpp:380] inception_5b/output <- inception_5b/5x5
I1215 11:38:57.868460 25197 net.cpp:380] inception_5b/output <- inception_5b/pool_proj
I1215 11:38:57.868479 25197 net.cpp:338] inception_5b/output -> inception_5b/output
I1215 11:38:57.868499 25197 net.cpp:113] Setting up inception_5b/output
I1215 11:38:57.868508 25197 net.cpp:120] Top shape: 32 1024 7 7 (1605632)
I1215 11:38:57.868512 25197 layer_factory.hpp:74] Creating layer pool5/7x7_s1
I1215 11:38:57.868521 25197 net.cpp:84] Creating Layer pool5/7x7_s1
I1215 11:38:57.868525 25197 net.cpp:380] pool5/7x7_s1 <- inception_5b/output
I1215 11:38:57.868535 25197 net.cpp:338] pool5/7x7_s1 -> pool5/7x7_s1
I1215 11:38:57.868551 25197 net.cpp:113] Setting up pool5/7x7_s1
I1215 11:38:57.868669 25197 net.cpp:120] Top shape: 32 1024 1 1 (32768)
I1215 11:38:57.868680 25197 layer_factory.hpp:74] Creating layer pool5/drop_7x7_s1
I1215 11:38:57.868696 25197 net.cpp:84] Creating Layer pool5/drop_7x7_s1
I1215 11:38:57.868705 25197 net.cpp:380] pool5/drop_7x7_s1 <- pool5/7x7_s1
I1215 11:38:57.868717 25197 net.cpp:327] pool5/drop_7x7_s1 -> pool5/7x7_s1 (in-place)
I1215 11:38:57.868729 25197 net.cpp:113] Setting up pool5/drop_7x7_s1
I1215 11:38:57.868743 25197 net.cpp:120] Top shape: 32 1024 1 1 (32768)
I1215 11:38:57.868752 25197 layer_factory.hpp:74] Creating layer loss3/classifier_kaggle
I1215 11:38:57.868762 25197 net.cpp:84] Creating Layer loss3/classifier_kaggle
I1215 11:38:57.868767 25197 net.cpp:380] loss3/classifier_kaggle <- pool5/7x7_s1
I1215 11:38:57.868773 25197 net.cpp:338] loss3/classifier_kaggle -> loss3/classifier_kaggle
I1215 11:38:57.868782 25197 net.cpp:113] Setting up loss3/classifier_kaggle
I1215 11:38:57.873690 25197 net.cpp:120] Top shape: 32 447 (14304)
I1215 11:38:57.873704 25197 layer_factory.hpp:74] Creating layer loss3/loss3
I1215 11:38:57.873713 25197 net.cpp:84] Creating Layer loss3/loss3
I1215 11:38:57.873718 25197 net.cpp:380] loss3/loss3 <- loss3/classifier_kaggle
I1215 11:38:57.873724 25197 net.cpp:380] loss3/loss3 <- label_data_1_split_2
I1215 11:38:57.873730 25197 net.cpp:338] loss3/loss3 -> loss3/loss3
I1215 11:38:57.873738 25197 net.cpp:113] Setting up loss3/loss3
…
I1215 11:38:57.878619 25197 net.cpp:257] The NetState phase (1) differed from the phase (0) specified by a rule in layer data
I1215 11:38:57.880013 25197 net.cpp:42] Initializing net from parameters: 
name: "GoogleNet"
state {
  phase: TEST
}
layer {
  name: "data"
  type: "Data"
  top: "data"
  top: "label"
  include {
    phase: TEST
  }
  transform_param {
    mirror: false
    crop_size: 224
    mean_value: 104
    mean_value: 117
    mean_value: 123
  }
  data_param {
    source: "/home/coldmanck/kaggle/kaggle2_val_lmdb"
    batch_size: 50
    backend: LMDB
  }
}
layer {
  name: "conv1/7x7_s2"
  type: "Convolution"
  bottom: "data"
  top: "conv1/7x7_s2"
  param {
    lr_mult: 1
    decay_mult: 1
  }
  param {
    lr_mult: 2
    decay_mult: 0
  }
  convolution_param {
    num_output: 64
    pad: 3
    kernel_size: 7
    stride: 2
    weight_filler {
      type: "xavier"
      std: 0.1
    }
    bias_filler {
      type: "constant"
      value: 0.2
    }
  }
}
layer {
  name: "conv1/relu_7x7"
  type: "ReLU"
  bottom: "conv1/7x7_s2"
  top: "conv1/7x7_s2"
}
layer {
  name: "pool1/3x3_s2"
  type: "Pooling"
  bottom: "conv1/7x7_s2"
  top: "pool1/3x3_s2"
  pooling_param {
    pool: MAX
    kernel_size: 3
    stride: 2
  }
}
layer {
  name: "pool1/norm1"
  type: "LRN"
  bottom: "pool1/3x3_s2"
  top: "pool1/norm1"
  lrn_param {
    local_size: 5
    alpha: 0.0001
    beta: 0.75
  }
}
layer {
  name: "conv2/3x3_reduce"
  type: "Convolution"
  bottom: "pool1/norm1"
  top: "conv2/3x3_reduce"
  param {
    lr_mult: 1
    decay_mult: 1
  }
  param {
    lr_mult: 2
    decay_mult: 0
  }
  convolution_param {
    num_output: 64
    kernel_size: 1
    weight_filler {
      type: "xavier"
      std: 0.1
    }
    bias_filler {
      type: "constant"
      value: 0.2
    }
  }
}
layer {
  name: "conv2/relu_3x3_reduce"
  type: "ReLU"
  bottom: "conv2/3x3_reduce"
  top: "conv2/3x3_reduce"
}
layer {
  name: "conv2/3x3"
  type: "Convolution"
  bottom: "conv2/3x3_reduce"
  top: "conv2/3x3"
  param {
    lr_mult: 1
    decay_mult: 1
  }
  param {
    lr_mult: 2
    decay_mult: 0
  }
  convolution_param {
    num_output: 192
    pad: 1
    kernel_size: 3
    weight_filler {
      type: "xavier"
      std: 0.03
    }
    bias_filler {
      type: "constant"
      value: 0.2
    }
  }
}
layer {
  name: "conv2/relu_3x3"
  type: "ReLU"
  bottom: "conv2/3x3"
  top: "conv2/3x3"
}
layer {
  name: "conv2/norm2"
  type: "LRN"
  bottom: "conv2/3x3"
  top: "conv2/norm2"
  lrn_param {
    local_size: 5
    alpha: 0.0001
    beta: 0.75
  }
}
layer {
  name: "pool2/3x3_s2"
  type: "Pooling"
  bottom: "conv2/norm2"
  top: "pool2/3x3_s2"
  pooling_param {
    pool: MAX
    kernel_size: 3
    stride: 2
  }
}
layer {
  name: "inception_3a/1x1"
  type: "Convolution"
  bottom: "pool2/3x3_s2"
  top: "inception_3a/1x1"
  param {
    lr_mult: 1
    decay_mult: 1
  }
  param {
    lr_mult: 2
    decay_mult: 0
  }
  convolution_param {
    num_output: 64
    kernel_size: 1
    weight_filler {
      type: "xavier"
      std: 0.03
    }
    bias_filler {
      type: "constant"
      value: 0.2
    }
  }
}
layer {
  name: "inception_3a/relu_1x1"
  type: "ReLU"
  bottom: "inception_3a/1x1"
  top: "inception_3a/1x1"
}
layer {
  name: "inception_3a/3x3_reduce"
  type: "Convolution"
  bottom: "pool2/3x3_s2"
  top: "inception_3a/3x3_reduce"
  param {
    lr_mult: 1
    decay_mult: 1
  }
  param {
    lr_mult: 2
    decay_mult: 0
  }
  convolution_param {
    num_output: 96
    kernel_size: 1
    weight_filler {
      type: "xavier"
      std: 0.09
    }
    bias_filler {
      type: "constant"
      value: 0.2
    }
  }
}
layer {
  name: "inception_3a/relu_3x3_reduce"
  type: "ReLU"
  bottom: "inception_3a/3x3_reduce"
  top: "inception_3a/3x3_reduce"
}
layer {
  name: "inception_3a/3x3"
  type: "Convolution"
  bottom: "inception_3a/3x3_reduce"
  top: "inception_3a/3x3"
  param {
    lr_mult: 1
    decay_mult: 1
  }
  param {
    lr_mult: 2
    decay_mult: 0
  }
  convolution_param {
    num_output: 128
    pad: 1
    kernel_size: 3
    weight_filler {
      type: "xavier"
      std: 0.03
    }
    bias_filler {
      type: "constant"
      value: 0.2
    }
  }
}
layer {
  name: "inception_3a/relu_3x3"
  type: "ReLU"
  bottom: "inception_3a/3x3"
  top: "inception_3a/3x3"
}
layer {
  name: "inception_3a/5x5_reduce"
  type: "Convolution"
  bottom: "pool2/3x3_s2"
  top: "inception_3a/5x5_reduce"
  param {
    lr_mult: 1
    decay_mult: 1
  }
  param {
    lr_mult: 2
    decay_mult: 0
  }
  convolution_param {
    num_output: 16
    kernel_size: 1
    weight_filler {
      type: "xavier"
      std: 0.2
    }
    bias_filler {
      type: "constant"
      value: 0.2
    }
  }
}
layer {
  name: "inception_3a/relu_5x5_reduce"
  type: "ReLU"
  bottom: "inception_3a/5x5_reduce"
  top: "inception_3a/5x5_reduce"
}
layer {
  name: "inception_3a/5x5"
  type: "Convolution"
  bottom: "inception_3a/5x5_reduce"
  top: "inception_3a/5x5"
  param {
    lr_mult: 1
    decay_mult: 1
  }
  param {
    lr_mult: 2
    decay_mult: 0
  }
  convolution_param {
    num_output: 32
    pad: 2
    kernel_size: 5
    weight_filler {
      type: "xavier"
      std: 0.03
    }
    bias_filler {
      type: "constant"
      value: 0.2
    }
  }
}
layer {
  name: "inception_3a/relu_5x5"
  type: "ReLU"
  bottom: "inception_3a/5x5"
  top: "inception_3a/5x5"
}
layer {
  name: "inception_3a/pool"
  type: "Pooling"
  bottom: "pool2/3x3_s2"
  top: "inception_3a/pool"
  pooling_param {
    pool: MAX
    kernel_size: 3
    stride: 1
    pad: 1
  }
}
layer {
  name: "inception_3a/pool_proj"
  type: "Convolution"
  bottom: "inception_3a/pool"
  top: "inception_3a/pool_proj"
  param {
    lr_mult: 1
    decay_mult: 1
  }
  param {
    lr_mult: 2
    decay_mult: 0
  }
  convolution_param {
    num_output: 32
    kernel_size: 1
    weight_filler {
      type: "xavier"
      std: 0.1
    }
    bias_filler {
      type: "constant"
      value: 0.2
    }
  }
}
layer {
  name: "inception_3a/relu_pool_proj"
  type: "ReLU"
  bottom: "inception_3a/pool_proj"
  top: "inception_3a/pool_proj"
}
layer {
  name: "inception_3a/output"
  type: "Concat"
  bottom: "inception_3a/1x1"
  bottom: "inception_3a/3x3"
  bottom: "inception_3a/5x5"
  bottom: "inception_3a/pool_proj"
  top: "inception_3a/output"
}
layer {
  name: "inception_3b/1x1"
  type: "Convolution"
  bottom: "inception_3a/output"
  top: "inception_3b/1x1"
  param {
    lr_mult: 1
    decay_mult: 1
  }
  param {
    lr_mult: 2
    decay_mult: 0
  }
  convolution_param {
    num_output: 128
    kernel_size: 1
    weight_filler {
      type: "xavier"
      std: 0.03
    }
    bias_filler {
      type: "constant"
      value: 0.2
    }
  }
}
layer {
  name: "inception_3b/relu_1x1"
  type: "ReLU"
  bottom: "inception_3b/1x1"
  top: "inception_3b/1x1"
}
layer {
  name: "inception_3b/3x3_reduce"
  type: "Convolution"
  bottom: "inception_3a/output"
  top: "inception_3b/3x3_reduce"
  param {
    lr_mult: 1
    decay_mult: 1
  }
  param {
    lr_mult: 2
    decay_mult: 0
  }
  convolution_param {
    num_output: 128
    kernel_size: 1
    weight_filler {
      type: "xavier"
      std: 0.09
    }
    bias_filler {
      type: "constant"
      value: 0.2
    }
  }
}
layer {
  name: "inception_3b/relu_3x3_reduce"
  type: "ReLU"
  bottom: "inception_3b/3x3_reduce"
  top: "inception_3b/3x3_reduce"
}
layer {
  name: "inception_3b/3x3"
  type: "Convolution"
  bottom: "inception_3b/3x3_reduce"
  top: "inception_3b/3x3"
  param {
    lr_mult: 1
    decay_mult: 1
  }
  param {
    lr_mult: 2
    decay_mult: 0
  }
  convolution_param {
    num_output: 192
    pad: 1
    kernel_size: 3
    weight_filler {
      type: "xavier"
      std: 0.03
    }
    bias_filler {
      type: "constant"
      value: 0.2
    }
  }
}
layer {
  name: "inception_3b/relu_3x3"
  type: "ReLU"
  bottom: "inception_3b/3x3"
  top: "inception_3b/3x3"
}
layer {
  name: "inception_3b/5x5_reduce"
  type: "Convolution"
  bottom: "inception_3a/output"
  top: "inception_3b/5x5_reduce"
  param {
    lr_mult: 1
    decay_mult: 1
  }
  param {
    lr_mult: 2
    decay_mult: 0
  }
  convolution_param {
    num_output: 32
    kernel_size: 1
    weight_filler {
      type: "xavier"
      std: 0.2
    }
    bias_filler {
      type: "constant"
      value: 0.2
    }
  }
}
layer {
  name: "inception_3b/relu_5x5_reduce"
  type: "ReLU"
  bottom: "inception_3b/5x5_reduce"
  top: "inception_3b/5x5_reduce"
}
layer {
  name: "inception_3b/5x5"
  type: "Convolution"
  bottom: "inception_3b/5x5_reduce"
  top: "inception_3b/5x5"
  param {
    lr_mult: 1
    decay_mult: 1
  }
  param {
    lr_mult: 2
    decay_mult: 0
  }
  convolution_param {
    num_output: 96
    pad: 2
    kernel_size: 5
    weight_filler {
      type: "xavier"
      std: 0.03
    }
    bias_filler {
      type: "constant"
      value: 0.2
    }
  }
}
layer {
  name: "inception_3b/relu_5x5"
  type: "ReLU"
  bottom: "inception_3b/5x5"
  top: "inception_3b/5x5"
}
layer {
  name: "inception_3b/pool"
  type: "Pooling"
  bottom: "inception_3a/output"
  top: "inception_3b/pool"
  pooling_param {
    pool: MAX
    kernel_size: 3
    stride: 1
    pad: 1
  }
}
layer {
  name: "inception_3b/pool_proj"
  type: "Convolution"
  bottom: "inception_3b/pool"
  top: "inception_3b/pool_proj"
  param {
    lr_mult: 1
    decay_mult: 1
  }
  param {
    lr_mult: 2
    decay_mult: 0
  }
  convolution_param {
    num_output: 64
    kernel_size: 1
    weight_filler {
      type: "xavier"
      std: 0.1
    }
    bias_filler {
      type: "constant"
      value: 0.2
    }
  }
}
layer {
  name: "inception_3b/relu_pool_proj"
  type: "ReLU"
  bottom: "inception_3b/pool_proj"
  top: "inception_3b/pool_proj"
}
layer {
  name: "inception_3b/output"
  type: "Concat"
  bottom: "inception_3b/1x1"
  bottom: "inception_3b/3x3"
  bottom: "inception_3b/5x5"
  bottom: "inception_3b/pool_proj"
  top: "inception_3b/output"
}
layer {
  name: "pool3/3x3_s2"
  type: "Pooling"
  bottom: "inception_3b/output"
  top: "pool3/3x3_s2"
  pooling_param {
    pool: MAX
    kernel_size: 3
    stride: 2
  }
}
layer {
  name: "inception_4a/1x1"
  type: "Convolution"
  bottom: "pool3/3x3_s2"
  top: "inception_4a/1x1"
  param {
    lr_mult: 1
    decay_mult: 1
  }
  param {
    lr_mult: 2
    decay_mult: 0
  }
  convolution_param {
    num_output: 192
    kernel_size: 1
    weight_filler {
      type: "xavier"
      std: 0.03
    }
    bias_filler {
      type: "constant"
      value: 0.2
    }
  }
}
layer {
  name: "inception_4a/relu_1x1"
  type: "ReLU"
  bottom: "inception_4a/1x1"
  top: "inception_4a/1x1"
}
layer {
  name: "inception_4a/3x3_reduce"
  type: "Convolution"
  bottom: "pool3/3x3_s2"
  top: "inception_4a/3x3_reduce"
  param {
    lr_mult: 1
    decay_mult: 1
  }
  param {
    lr_mult: 2
    decay_mult: 0
  }
  convolution_param {
    num_output: 96
    kernel_size: 1
    weight_filler {
      type: "xavier"
      std: 0.09
    }
    bias_filler {
      type: "constant"
      value: 0.2
    }
  }
}
layer {
  name: "inception_4a/relu_3x3_reduce"
  type: "ReLU"
  bottom: "inception_4a/3x3_reduce"
  top: "inception_4a/3x3_reduce"
}
layer {
  name: "inception_4a/3x3"
  type: "Convolution"
  bottom: "inception_4a/3x3_reduce"
  top: "inception_4a/3x3"
  param {
    lr_mult: 1
    decay_mult: 1
  }
  param {
    lr_mult: 2
    decay_mult: 0
  }
  convolution_param {
    num_output: 208
    pad: 1
    kernel_size: 3
    weight_filler {
      type: "xavier"
      std: 0.03
    }
    bias_filler {
      type: "constant"
      value: 0.2
    }
  }
}
layer {
  name: "inception_4a/relu_3x3"
  type: "ReLU"
  bottom: "inception_4a/3x3"
  top: "inception_4a/3x3"
}
layer {
  name: "inception_4a/5x5_reduce"
  type: "Convolution"
  bottom: "pool3/3x3_s2"
  top: "inception_4a/5x5_reduce"
  param {
    lr_mult: 1
    decay_mult: 1
  }
  param {
    lr_mult: 2
    decay_mult: 0
  }
  convolution_param {
    num_output: 16
    kernel_size: 1
    weight_filler {
      type: "xavier"
      std: 0.2
    }
    bias_filler {
      type: "constant"
      value: 0.2
    }
  }
}
layer {
  name: "inception_4a/relu_5x5_reduce"
  type: "ReLU"
  bottom: "inception_4a/5x5_reduce"
  top: "inception_4a/5x5_reduce"
}
layer {
  name: "inception_4a/5x5"
  type: "Convolution"
  bottom: "inception_4a/5x5_reduce"
  top: "inception_4a/5x5"
  param {
    lr_mult: 1
    decay_mult: 1
  }
  param {
    lr_mult: 2
    decay_mult: 0
  }
  convolution_param {
    num_output: 48
    pad: 2
    kernel_size: 5
    weight_filler {
      type: "xavier"
      std: 0.03
    }
    bias_filler {
      type: "constant"
      value: 0.2
    }
  }
}
layer {
  name: "inception_4a/relu_5x5"
  type: "ReLU"
  bottom: "inception_4a/5x5"
  top: "inception_4a/5x5"
}
layer {
  name: "inception_4a/pool"
  type: "Pooling"
  bottom: "pool3/3x3_s2"
  top: "inception_4a/pool"
  pooling_param {
    pool: MAX
    kernel_size: 3
    stride: 1
    pad: 1
  }
}
layer {
  name: "inception_4a/pool_proj"
  type: "Convolution"
  bottom: "inception_4a/pool"
  top: "inception_4a/pool_proj"
  param {
    lr_mult: 1
    decay_mult: 1
  }
  param {
    lr_mult: 2
    decay_mult: 0
  }
  convolution_param {
    num_output: 64
    kernel_size: 1
    weight_filler {
      type: "xavier"
      std: 0.1
    }
    bias_filler {
      type: "constant"
      value: 0.2
    }
  }
}
layer {
  name: "inception_4a/relu_pool_proj"
  type: "ReLU"
  bottom: "inception_4a/pool_proj"
  top: "inception_4a/pool_proj"
}
layer {
  name: "inception_4a/output"
  type: "Concat"
  bottom: "inception_4a/1x1"
  bottom: "inception_4a/3x3"
  bottom: "inception_4a/5x5"
  bottom: "inception_4a/pool_proj"
  top: "inception_4a/output"
}
layer {
  name: "loss1/ave_pool"
  type: "Pooling"
  bottom: "inception_4a/output"
  top: "loss1/ave_pool"
  pooling_param {
    pool: AVE
    kernel_size: 5
    stride: 3
  }
}
layer {
  name: "loss1/conv"
  type: "Convolution"
  bottom: "loss1/ave_pool"
  top: "loss1/conv"
  param {
    lr_mult: 1
    decay_mult: 1
  }
  param {
    lr_mult: 2
    decay_mult: 0
  }
  convolution_param {
    num_output: 128
    kernel_size: 1
    weight_filler {
      type: "xavier"
      std: 0.08
    }
    bias_filler {
      type: "constant"
      value: 0.2
    }
  }
}
layer {
  name: "loss1/relu_conv"
  type: "ReLU"
  bottom: "loss1/conv"
  top: "loss1/conv"
}
layer {
  name: "loss1/fc"
  type: "InnerProduct"
  bottom: "loss1/conv"
  top: "loss1/fc"
  param {
    lr_mult: 1
    decay_mult: 1
  }
  param {
    lr_mult: 2
    decay_mult: 0
  }
  inner_product_param {
    num_output: 1024
    weight_filler {
      type: "xavier"
      std: 0.02
    }
    bias_filler {
      type: "constant"
      value: 0.2
    }
  }
}
layer {
  name: "loss1/relu_fc"
  type: "ReLU"
  bottom: "loss1/fc"
  top: "loss1/fc"
}
layer {
  name: "loss1/drop_fc"
  type: "Dropout"
  bottom: "loss1/fc"
  top: "loss1/fc"
  dropout_param {
    dropout_ratio: 0.7
  }
}
layer {
  name: "loss1/classifier_kaggle"
  type: "InnerProduct"
  bottom: "loss1/fc"
  top: "loss1/classifier_kaggle"
  param {
    lr_mult: 1
    decay_mult: 1
  }
  param {
    lr_mult: 2
    decay_mult: 0
  }
  inner_product_param {
    num_output: 447
    weight_filler {
      type: "xavier"
      std: 0.0009765625
    }
    bias_filler {
      type: "constant"
      value: 0
    }
  }
}
layer {
  name: "loss1/loss"
  type: "SoftmaxWithLoss"
  bottom: "loss1/classifier_kaggle"
  bottom: "label"
  top: "loss1/loss1"
  loss_weight: 0.3
}
layer {
  name: "loss1/top-1"
  type: "Accuracy"
  bottom: "loss1/classifier_kaggle"
  bottom: "label"
  top: "loss1/top-1"
  include {
    phase: TEST
  }
}
layer {
  name: "loss1/top-5"
  type: "Accuracy"
  bottom: "loss1/classifier_kaggle"
  bottom: "label"
  top: "loss1/top-5"
  include {
    phase: TEST
  }
  accuracy_param {
    top_k: 5
  }
}
layer {
  name: "inception_4b/1x1"
  type: "Convolution"
  bottom: "inception_4a/output"
  top: "inception_4b/1x1"
  param {
    lr_mult: 1
    decay_mult: 1
  }
  param {
    lr_mult: 2
    decay_mult: 0
  }
  convolution_param {
    num_output: 160
    kernel_size: 1
    weight_filler {
      type: "xavier"
      std: 0.03
    }
    bias_filler {
      type: "constant"
      value: 0.2
    }
  }
}
layer {
  name: "inception_4b/relu_1x1"
  type: "ReLU"
  bottom: "inception_4b/1x1"
  top: "inception_4b/1x1"
}
layer {
  name: "inception_4b/3x3_reduce"
  type: "Convolution"
  bottom: "inception_4a/output"
  top: "inception_4b/3x3_reduce"
  param {
    lr_mult: 1
    decay_mult: 1
  }
  param {
    lr_mult: 2
    decay_mult: 0
  }
  convolution_param {
    num_output: 112
    kernel_size: 1
    weight_filler {
      type: "xavier"
      std: 0.09
    }
    bias_filler {
      type: "constant"
      value: 0.2
    }
  }
}
layer {
  name: "inception_4b/relu_3x3_reduce"
  type: "ReLU"
  bottom: "inception_4b/3x3_reduce"
  top: "inception_4b/3x3_reduce"
}
layer {
  name: "inception_4b/3x3"
  type: "Convolution"
  bottom: "inception_4b/3x3_reduce"
  top: "inception_4b/3x3"
  param {
    lr_mult: 1
    decay_mult: 1
  }
  param {
    lr_mult: 2
    decay_mult: 0
  }
  convolution_param {
    num_output: 224
    pad: 1
    kernel_size: 3
    weight_filler {
      type: "xavier"
      std: 0.03
    }
    bias_filler {
      type: "constant"
      value: 0.2
    }
  }
}
layer {
  name: "inception_4b/relu_3x3"
  type: "ReLU"
  bottom: "inception_4b/3x3"
  top: "inception_4b/3x3"
}
layer {
  name: "inception_4b/5x5_reduce"
  type: "Convolution"
  bottom: "inception_4a/output"
  top: "inception_4b/5x5_reduce"
  param {
    lr_mult: 1
    decay_mult: 1
  }
  param {
    lr_mult: 2
    decay_mult: 0
  }
  convolution_param {
    num_output: 24
    kernel_size: 1
    weight_filler {
      type: "xavier"
      std: 0.2
    }
    bias_filler {
      type: "constant"
      value: 0.2
    }
  }
}
layer {
  name: "inception_4b/relu_5x5_reduce"
  type: "ReLU"
  bottom: "inception_4b/5x5_reduce"
  top: "inception_4b/5x5_reduce"
}
layer {
  name: "inception_4b/5x5"
  type: "Convolution"
  bottom: "inception_4b/5x5_reduce"
  top: "inception_4b/5x5"
  param {
    lr_mult: 1
    decay_mult: 1
  }
  param {
    lr_mult: 2
    decay_mult: 0
  }
  convolution_param {
    num_output: 64
    pad: 2
    kernel_size: 5
    weight_filler {
      type: "xavier"
      std: 0.03
    }
    bias_filler {
      type: "constant"
      value: 0.2
    }
  }
}
layer {
  name: "inception_4b/relu_5x5"
  type: "ReLU"
  bottom: "inception_4b/5x5"
  top: "inception_4b/5x5"
}
layer {
  name: "inception_4b/pool"
  type: "Pooling"
  bottom: "inception_4a/output"
  top: "inception_4b/pool"
  pooling_param {
    pool: MAX
    kernel_size: 3
    stride: 1
    pad: 1
  }
}
layer {
  name: "inception_4b/pool_proj"
  type: "Convolution"
  bottom: "inception_4b/pool"
  top: "inception_4b/pool_proj"
  param {
    lr_mult: 1
    decay_mult: 1
  }
  param {
    lr_mult: 2
    decay_mult: 0
  }
  convolution_param {
    num_output: 64
    kernel_size: 1
    weight_filler {
      type: "xavier"
      std: 0.1
    }
    bias_filler {
      type: "constant"
      value: 0.2
    }
  }
}
layer {
  name: "inception_4b/relu_pool_proj"
  type: "ReLU"
  bottom: "inception_4b/pool_proj"
  top: "inception_4b/pool_proj"
}
layer {
  name: "inception_4b/output"
  type: "Concat"
  bottom: "inception_4b/1x1"
  bottom: "inception_4b/3x3"
  bottom: "inception_4b/5x5"
  bottom: "inception_4b/pool_proj"
  top: "inception_4b/output"
}
layer {
  name: "inception_4c/1x1"
  type: "Convolution"
  bottom: "inception_4b/output"
  top: "inception_4c/1x1"
  param {
    lr_mult: 1
    decay_mult: 1
  }
  param {
    lr_mult: 2
    decay_mult: 0
  }
  convolution_param {
    num_output: 128
    kernel_size: 1
    weight_filler {
      type: "xavier"
      std: 0.03
    }
    bias_filler {
      type: "constant"
      value: 0.2
    }
  }
}
layer {
  name: "inception_4c/relu_1x1"
  type: "ReLU"
  bottom: "inception_4c/1x1"
  top: "inception_4c/1x1"
}
layer {
  name: "inception_4c/3x3_reduce"
  type: "Convolution"
  bottom: "inception_4b/output"
  top: "inception_4c/3x3_reduce"
  param {
    lr_mult: 1
    decay_mult: 1
  }
  param {
    lr_mult: 2
    decay_mult: 0
  }
  convolution_param {
    num_output: 128
    kernel_size: 1
    weight_filler {
      type: "xavier"
      std: 0.09
    }
    bias_filler {
      type: "constant"
      value: 0.2
    }
  }
}
layer {
  name: "inception_4c/relu_3x3_reduce"
  type: "ReLU"
  bottom: "inception_4c/3x3_reduce"
  top: "inception_4c/3x3_reduce"
}
layer {
  name: "inception_4c/3x3"
  type: "Convolution"
  bottom: "inception_4c/3x3_reduce"
  top: "inception_4c/3x3"
  param {
    lr_mult: 1
    decay_mult: 1
  }
  param {
    lr_mult: 2
    decay_mult: 0
  }
  convolution_param {
    num_output: 256
    pad: 1
    kernel_size: 3
    weight_filler {
      type: "xavier"
      std: 0.03
    }
    bias_filler {
      type: "constant"
      value: 0.2
    }
  }
}
layer {
  name: "inception_4c/relu_3x3"
  type: "ReLU"
  bottom: "inception_4c/3x3"
  top: "inception_4c/3x3"
}
layer {
  name: "inception_4c/5x5_reduce"
  type: "Convolution"
  bottom: "inception_4b/output"
  top: "inception_4c/5x5_reduce"
  param {
    lr_mult: 1
    decay_mult: 1
  }
  param {
    lr_mult: 2
    decay_mult: 0
  }
  convolution_param {
    num_output: 24
    kernel_size: 1
    weight_filler {
      type: "xavier"
      std: 0.2
    }
    bias_filler {
      type: "constant"
      value: 0.2
    }
  }
}
layer {
  name: "inception_4c/relu_5x5_reduce"
  type: "ReLU"
  bottom: "inception_4c/5x5_reduce"
  top: "inception_4c/5x5_reduce"
}
layer {
  name: "inception_4c/5x5"
  type: "Convolution"
  bottom: "inception_4c/5x5_reduce"
  top: "inception_4c/5x5"
  param {
    lr_mult: 1
    decay_mult: 1
  }
  param {
    lr_mult: 2
    decay_mult: 0
  }
  convolution_param {
    num_output: 64
    pad: 2
    kernel_size: 5
    weight_filler {
      type: "xavier"
      std: 0.03
    }
    bias_filler {
      type: "constant"
      value: 0.2
    }
  }
}
layer {
  name: "inception_4c/relu_5x5"
  type: "ReLU"
  bottom: "inception_4c/5x5"
  top: "inception_4c/5x5"
}
layer {
  name: "inception_4c/pool"
  type: "Pooling"
  bottom: "inception_4b/output"
  top: "inception_4c/pool"
  pooling_param {
    pool: MAX
    kernel_size: 3
    stride: 1
    pad: 1
  }
}
layer {
  name: "inception_4c/pool_proj"
  type: "Convolution"
  bottom: "inception_4c/pool"
  top: "inception_4c/pool_proj"
  param {
    lr_mult: 1
    decay_mult: 1
  }
  param {
    lr_mult: 2
    decay_mult: 0
  }
  convolution_param {
    num_output: 64
    kernel_size: 1
    weight_filler {
      type: "xavier"
      std: 0.1
    }
    bias_filler {
      type: "constant"
      value: 0.2
    }
  }
}
layer {
  name: "inception_4c/relu_pool_proj"
  type: "ReLU"
  bottom: "inception_4c/pool_proj"
  top: "inception_4c/pool_proj"
}
layer {
  name: "inception_4c/output"
  type: "Concat"
  bottom: "inception_4c/1x1"
  bottom: "inception_4c/3x3"
  bottom: "inception_4c/5x5"
  bottom: "inception_4c/pool_proj"
  top: "inception_4c/output"
}
layer {
  name: "inception_4d/1x1"
  type: "Convolution"
  bottom: "inception_4c/output"
  top: "inception_4d/1x1"
  param {
    lr_mult: 1
    decay_mult: 1
  }
  param {
    lr_mult: 2
    decay_mult: 0
  }
  convolution_param {
    num_output: 112
    kernel_size: 1
    weight_filler {
      type: "xavier"
      std: 0.03
    }
    bias_filler {
      type: "constant"
      value: 0.2
    }
  }
}
layer {
  name: "inception_4d/relu_1x1"
  type: "ReLU"
  bottom: "inception_4d/1x1"
  top: "inception_4d/1x1"
}
layer {
  name: "inception_4d/3x3_reduce"
  type: "Convolution"
  bottom: "inception_4c/output"
  top: "inception_4d/3x3_reduce"
  param {
    lr_mult: 1
    decay_mult: 1
  }
  param {
    lr_mult: 2
    decay_mult: 0
  }
  convolution_param {
    num_output: 144
    kernel_size: 1
    weight_filler {
      type: "xavier"
      std: 0.09
    }
    bias_filler {
      type: "constant"
      value: 0.2
    }
  }
}
layer {
  name: "inception_4d/relu_3x3_reduce"
  type: "ReLU"
  bottom: "inception_4d/3x3_reduce"
  top: "inception_4d/3x3_reduce"
}
layer {
  name: "inception_4d/3x3"
  type: "Convolution"
  bottom: "inception_4d/3x3_reduce"
  top: "inception_4d/3x3"
  param {
    lr_mult: 1
    decay_mult: 1
  }
  param {
    lr_mult: 2
    decay_mult: 0
  }
  convolution_param {
    num_output: 288
    pad: 1
    kernel_size: 3
    weight_filler {
      type: "xavier"
      std: 0.03
    }
    bias_filler {
      type: "constant"
      value: 0.2
    }
  }
}
layer {
  name: "inception_4d/relu_3x3"
  type: "ReLU"
  bottom: "inception_4d/3x3"
  top: "inception_4d/3x3"
}
layer {
  name: "inception_4d/5x5_reduce"
  type: "Convolution"
  bottom: "inception_4c/output"
  top: "inception_4d/5x5_reduce"
  param {
    lr_mult: 1
    decay_mult: 1
  }
  param {
    lr_mult: 2
    decay_mult: 0
  }
  convolution_param {
    num_output: 32
    kernel_size: 1
    weight_filler {
      type: "xavier"
      std: 0.2
    }
    bias_filler {
      type: "constant"
      value: 0.2
    }
  }
}
layer {
  name: "inception_4d/relu_5x5_reduce"
  type: "ReLU"
  bottom: "inception_4d/5x5_reduce"
  top: "inception_4d/5x5_reduce"
}
layer {
  name: "inception_4d/5x5"
  type: "Convolution"
  bottom: "inception_4d/5x5_reduce"
  top: "inception_4d/5x5"
  param {
    lr_mult: 1
    decay_mult: 1
  }
  param {
    lr_mult: 2
    decay_mult: 0
  }
  convolution_param {
    num_output: 64
    pad: 2
    kernel_size: 5
    weight_filler {
      type: "xavier"
      std: 0.03
    }
    bias_filler {
      type: "constant"
      value: 0.2
    }
  }
}
layer {
  name: "inception_4d/relu_5x5"
  type: "ReLU"
  bottom: "inception_4d/5x5"
  top: "inception_4d/5x5"
}
layer {
  name: "inception_4d/pool"
  type: "Pooling"
  bottom: "inception_4c/output"
  top: "inception_4d/pool"
  pooling_param {
    pool: MAX
    kernel_size: 3
    stride: 1
    pad: 1
  }
}
layer {
  name: "inception_4d/pool_proj"
  type: "Convolution"
  bottom: "inception_4d/pool"
  top: "inception_4d/pool_proj"
  param {
    lr_mult: 1
    decay_mult: 1
  }
  param {
    lr_mult: 2
    decay_mult: 0
  }
  convolution_param {
    num_output: 64
    kernel_size: 1
    weight_filler {
      type: "xavier"
      std: 0.1
    }
    bias_filler {
      type: "constant"
      value: 0.2
    }
  }
}
layer {
  name: "inception_4d/relu_pool_proj"
  type: "ReLU"
  bottom: "inception_4d/pool_proj"
  top: "inception_4d/pool_proj"
}
layer {
…
I1215 11:38:57.954192 25197 net.cpp:84] Creating Layer inception_4c/1x1
I1215 11:38:57.954197 25197 net.cpp:380] inception_4c/1x1 <- inception_4b/output_inception_4b/output_0_split_0
I1215 11:38:57.954205 25197 net.cpp:338] inception_4c/1x1 -> inception_4c/1x1
I1215 11:38:57.954211 25197 net.cpp:113] Setting up inception_4c/1x1
I1215 11:38:57.955339 25197 net.cpp:120] Top shape: 50 128 14 14 (1254400)
I1215 11:38:57.955354 25197 layer_factory.hpp:74] Creating layer inception_4c/relu_1x1
I1215 11:38:57.955360 25197 net.cpp:84] Creating Layer inception_4c/relu_1x1
I1215 11:38:57.955365 25197 net.cpp:380] inception_4c/relu_1x1 <- inception_4c/1x1
I1215 11:38:57.955371 25197 net.cpp:327] inception_4c/relu_1x1 -> inception_4c/1x1 (in-place)
I1215 11:38:57.955379 25197 net.cpp:113] Setting up inception_4c/relu_1x1
I1215 11:38:57.955624 25197 net.cpp:120] Top shape: 50 128 14 14 (1254400)
I1215 11:38:57.955634 25197 layer_factory.hpp:74] Creating layer inception_4c/3x3_reduce
I1215 11:38:57.955644 25197 net.cpp:84] Creating Layer inception_4c/3x3_reduce
I1215 11:38:57.955649 25197 net.cpp:380] inception_4c/3x3_reduce <- inception_4b/output_inception_4b/output_0_split_1
I1215 11:38:57.955658 25197 net.cpp:338] inception_4c/3x3_reduce -> inception_4c/3x3_reduce
I1215 11:38:57.955670 25197 net.cpp:113] Setting up inception_4c/3x3_reduce
I1215 11:38:57.956794 25197 net.cpp:120] Top shape: 50 128 14 14 (1254400)
I1215 11:38:57.956807 25197 layer_factory.hpp:74] Creating layer inception_4c/relu_3x3_reduce
I1215 11:38:57.956816 25197 net.cpp:84] Creating Layer inception_4c/relu_3x3_reduce
I1215 11:38:57.956821 25197 net.cpp:380] inception_4c/relu_3x3_reduce <- inception_4c/3x3_reduce
I1215 11:38:57.956827 25197 net.cpp:327] inception_4c/relu_3x3_reduce -> inception_4c/3x3_reduce (in-place)
I1215 11:38:57.956835 25197 net.cpp:113] Setting up inception_4c/relu_3x3_reduce
I1215 11:38:57.956903 25197 net.cpp:120] Top shape: 50 128 14 14 (1254400)
I1215 11:38:57.956909 25197 layer_factory.hpp:74] Creating layer inception_4c/3x3
I1215 11:38:57.956919 25197 net.cpp:84] Creating Layer inception_4c/3x3
I1215 11:38:57.956924 25197 net.cpp:380] inception_4c/3x3 <- inception_4c/3x3_reduce
I1215 11:38:57.956930 25197 net.cpp:338] inception_4c/3x3 -> inception_4c/3x3
I1215 11:38:57.956938 25197 net.cpp:113] Setting up inception_4c/3x3
I1215 11:38:57.960536 25197 net.cpp:120] Top shape: 50 256 14 14 (2508800)
I1215 11:38:57.960561 25197 layer_factory.hpp:74] Creating layer inception_4c/relu_3x3
I1215 11:38:57.960569 25197 net.cpp:84] Creating Layer inception_4c/relu_3x3
I1215 11:38:57.960574 25197 net.cpp:380] inception_4c/relu_3x3 <- inception_4c/3x3
I1215 11:38:57.960582 25197 net.cpp:327] inception_4c/relu_3x3 -> inception_4c/3x3 (in-place)
I1215 11:38:57.960589 25197 net.cpp:113] Setting up inception_4c/relu_3x3
I1215 11:38:57.960659 25197 net.cpp:120] Top shape: 50 256 14 14 (2508800)
I1215 11:38:57.960665 25197 layer_factory.hpp:74] Creating layer inception_4c/5x5_reduce
I1215 11:38:57.960674 25197 net.cpp:84] Creating Layer inception_4c/5x5_reduce
I1215 11:38:57.960677 25197 net.cpp:380] inception_4c/5x5_reduce <- inception_4b/output_inception_4b/output_0_split_2
I1215 11:38:57.960686 25197 net.cpp:338] inception_4c/5x5_reduce -> inception_4c/5x5_reduce
I1215 11:38:57.960693 25197 net.cpp:113] Setting up inception_4c/5x5_reduce
I1215 11:38:57.961238 25197 net.cpp:120] Top shape: 50 24 14 14 (235200)
I1215 11:38:57.961253 25197 layer_factory.hpp:74] Creating layer inception_4c/relu_5x5_reduce
I1215 11:38:57.961262 25197 net.cpp:84] Creating Layer inception_4c/relu_5x5_reduce
I1215 11:38:57.961267 25197 net.cpp:380] inception_4c/relu_5x5_reduce <- inception_4c/5x5_reduce
I1215 11:38:57.961273 25197 net.cpp:327] inception_4c/relu_5x5_reduce -> inception_4c/5x5_reduce (in-place)
I1215 11:38:57.961280 25197 net.cpp:113] Setting up inception_4c/relu_5x5_reduce
I1215 11:38:57.961525 25197 net.cpp:120] Top shape: 50 24 14 14 (235200)
I1215 11:38:57.961535 25197 layer_factory.hpp:74] Creating layer inception_4c/5x5
I1215 11:38:57.961545 25197 net.cpp:84] Creating Layer inception_4c/5x5
I1215 11:38:57.961550 25197 net.cpp:380] inception_4c/5x5 <- inception_4c/5x5_reduce
I1215 11:38:57.961557 25197 net.cpp:338] inception_4c/5x5 -> inception_4c/5x5
I1215 11:38:57.961565 25197 net.cpp:113] Setting up inception_4c/5x5
I1215 11:38:57.962381 25197 net.cpp:120] Top shape: 50 64 14 14 (627200)
I1215 11:38:57.962395 25197 layer_factory.hpp:74] Creating layer inception_4c/relu_5x5
I1215 11:38:57.962402 25197 net.cpp:84] Creating Layer inception_4c/relu_5x5
I1215 11:38:57.962407 25197 net.cpp:380] inception_4c/relu_5x5 <- inception_4c/5x5
I1215 11:38:57.962415 25197 net.cpp:327] inception_4c/relu_5x5 -> inception_4c/5x5 (in-place)
I1215 11:38:57.962421 25197 net.cpp:113] Setting up inception_4c/relu_5x5
I1215 11:38:57.962493 25197 net.cpp:120] Top shape: 50 64 14 14 (627200)
I1215 11:38:57.962499 25197 layer_factory.hpp:74] Creating layer inception_4c/pool
I1215 11:38:57.962504 25197 layer_factory.cpp:56] CUDNN does not support padding or multiple tops. Using Caffe's own pooling layer.
I1215 11:38:57.962512 25197 net.cpp:84] Creating Layer inception_4c/pool
I1215 11:38:57.962517 25197 net.cpp:380] inception_4c/pool <- inception_4b/output_inception_4b/output_0_split_3
I1215 11:38:57.962523 25197 net.cpp:338] inception_4c/pool -> inception_4c/pool
I1215 11:38:57.962541 25197 net.cpp:113] Setting up inception_4c/pool
I1215 11:38:57.962551 25197 net.cpp:120] Top shape: 50 512 14 14 (5017600)
I1215 11:38:57.962555 25197 layer_factory.hpp:74] Creating layer inception_4c/pool_proj
I1215 11:38:57.962563 25197 net.cpp:84] Creating Layer inception_4c/pool_proj
I1215 11:38:57.962568 25197 net.cpp:380] inception_4c/pool_proj <- inception_4c/pool
I1215 11:38:57.962574 25197 net.cpp:338] inception_4c/pool_proj -> inception_4c/pool_proj
I1215 11:38:57.962580 25197 net.cpp:113] Setting up inception_4c/pool_proj
I1215 11:38:57.963433 25197 net.cpp:120] Top shape: 50 64 14 14 (627200)
I1215 11:38:57.963449 25197 layer_factory.hpp:74] Creating layer inception_4c/relu_pool_proj
I1215 11:38:57.963457 25197 net.cpp:84] Creating Layer inception_4c/relu_pool_proj
I1215 11:38:57.963464 25197 net.cpp:380] inception_4c/relu_pool_proj <- inception_4c/pool_proj
I1215 11:38:57.963469 25197 net.cpp:327] inception_4c/relu_pool_proj -> inception_4c/pool_proj (in-place)
I1215 11:38:57.963477 25197 net.cpp:113] Setting up inception_4c/relu_pool_proj
I1215 11:38:57.963557 25197 net.cpp:120] Top shape: 50 64 14 14 (627200)
I1215 11:38:57.963564 25197 layer_factory.hpp:74] Creating layer inception_4c/output
I1215 11:38:57.963572 25197 net.cpp:84] Creating Layer inception_4c/output
I1215 11:38:57.963580 25197 net.cpp:380] inception_4c/output <- inception_4c/1x1
I1215 11:38:57.963589 25197 net.cpp:380] inception_4c/output <- inception_4c/3x3
I1215 11:38:57.963594 25197 net.cpp:380] inception_4c/output <- inception_4c/5x5
I1215 11:38:57.963599 25197 net.cpp:380] inception_4c/output <- inception_4c/pool_proj
I1215 11:38:57.963605 25197 net.cpp:338] inception_4c/output -> inception_4c/output
I1215 11:38:57.963613 25197 net.cpp:113] Setting up inception_4c/output
I1215 11:38:57.963619 25197 net.cpp:120] Top shape: 50 512 14 14 (5017600)
I1215 11:38:57.963624 25197 layer_factory.hpp:74] Creating layer inception_4c/output_inception_4c/output_0_split
I1215 11:38:57.963631 25197 net.cpp:84] Creating Layer inception_4c/output_inception_4c/output_0_split
I1215 11:38:57.963640 25197 net.cpp:380] inception_4c/output_inception_4c/output_0_split <- inception_4c/output
I1215 11:38:57.963654 25197 net.cpp:338] inception_4c/output_inception_4c/output_0_split -> inception_4c/output_inception_4c/output_0_split_0
I1215 11:38:57.963666 25197 net.cpp:338] inception_4c/output_inception_4c/output_0_split -> inception_4c/output_inception_4c/output_0_split_1
I1215 11:38:57.963677 25197 net.cpp:338] inception_4c/output_inception_4c/output_0_split -> inception_4c/output_inception_4c/output_0_split_2
I1215 11:38:57.963690 25197 net.cpp:338] inception_4c/output_inception_4c/output_0_split -> inception_4c/output_inception_4c/output_0_split_3
I1215 11:38:57.963699 25197 net.cpp:113] Setting up inception_4c/output_inception_4c/output_0_split
I1215 11:38:57.963711 25197 net.cpp:120] Top shape: 50 512 14 14 (5017600)
I1215 11:38:57.963721 25197 net.cpp:120] Top shape: 50 512 14 14 (5017600)
I1215 11:38:57.963726 25197 net.cpp:120] Top shape: 50 512 14 14 (5017600)
I1215 11:38:57.963731 25197 net.cpp:120] Top shape: 50 512 14 14 (5017600)
I1215 11:38:57.963734 25197 layer_factory.hpp:74] Creating layer inception_4d/1x1
I1215 11:38:57.963745 25197 net.cpp:84] Creating Layer inception_4d/1x1
I1215 11:38:57.963750 25197 net.cpp:380] inception_4d/1x1 <- inception_4c/output_inception_4c/output_0_split_0
I1215 11:38:57.963757 25197 net.cpp:338] inception_4d/1x1 -> inception_4d/1x1
I1215 11:38:57.963764 25197 net.cpp:113] Setting up inception_4d/1x1
I1215 11:38:57.964853 25197 net.cpp:120] Top shape: 50 112 14 14 (1097600)
I1215 11:38:57.964874 25197 layer_factory.hpp:74] Creating layer inception_4d/relu_1x1
I1215 11:38:57.964886 25197 net.cpp:84] Creating Layer inception_4d/relu_1x1
I1215 11:38:57.964891 25197 net.cpp:380] inception_4d/relu_1x1 <- inception_4d/1x1
I1215 11:38:57.964898 25197 net.cpp:327] inception_4d/relu_1x1 -> inception_4d/1x1 (in-place)
I1215 11:38:57.964905 25197 net.cpp:113] Setting up inception_4d/relu_1x1
I1215 11:38:57.964984 25197 net.cpp:120] Top shape: 50 112 14 14 (1097600)
I1215 11:38:57.964998 25197 layer_factory.hpp:74] Creating layer inception_4d/3x3_reduce
I1215 11:38:57.965008 25197 net.cpp:84] Creating Layer inception_4d/3x3_reduce
I1215 11:38:57.965013 25197 net.cpp:380] inception_4d/3x3_reduce <- inception_4c/output_inception_4c/output_0_split_1
I1215 11:38:57.965020 25197 net.cpp:338] inception_4d/3x3_reduce -> inception_4d/3x3_reduce
I1215 11:38:57.965029 25197 net.cpp:113] Setting up inception_4d/3x3_reduce
I1215 11:38:57.966260 25197 net.cpp:120] Top shape: 50 144 14 14 (1411200)
I1215 11:38:57.966276 25197 layer_factory.hpp:74] Creating layer inception_4d/relu_3x3_reduce
I1215 11:38:57.966285 25197 net.cpp:84] Creating Layer inception_4d/relu_3x3_reduce
I1215 11:38:57.966291 25197 net.cpp:380] inception_4d/relu_3x3_reduce <- inception_4d/3x3_reduce
I1215 11:38:57.966297 25197 net.cpp:327] inception_4d/relu_3x3_reduce -> inception_4d/3x3_reduce (in-place)
I1215 11:38:57.966305 25197 net.cpp:113] Setting up inception_4d/relu_3x3_reduce
I1215 11:38:57.966554 25197 net.cpp:120] Top shape: 50 144 14 14 (1411200)
I1215 11:38:57.966564 25197 layer_factory.hpp:74] Creating layer inception_4d/3x3
I1215 11:38:57.966572 25197 net.cpp:84] Creating Layer inception_4d/3x3
I1215 11:38:57.966578 25197 net.cpp:380] inception_4d/3x3 <- inception_4d/3x3_reduce
I1215 11:38:57.966586 25197 net.cpp:338] inception_4d/3x3 -> inception_4d/3x3
I1215 11:38:57.966595 25197 net.cpp:113] Setting up inception_4d/3x3
I1215 11:38:57.970934 25197 net.cpp:120] Top shape: 50 288 14 14 (2822400)
I1215 11:38:57.970949 25197 layer_factory.hpp:74] Creating layer inception_4d/relu_3x3
I1215 11:38:57.970957 25197 net.cpp:84] Creating Layer inception_4d/relu_3x3
I1215 11:38:57.970960 25197 net.cpp:380] inception_4d/relu_3x3 <- inception_4d/3x3
I1215 11:38:57.970968 25197 net.cpp:327] inception_4d/relu_3x3 -> inception_4d/3x3 (in-place)
I1215 11:38:57.970975 25197 net.cpp:113] Setting up inception_4d/relu_3x3
I1215 11:38:57.971038 25197 net.cpp:120] Top shape: 50 288 14 14 (2822400)
I1215 11:38:57.971045 25197 layer_factory.hpp:74] Creating layer inception_4d/5x5_reduce
I1215 11:38:57.971055 25197 net.cpp:84] Creating Layer inception_4d/5x5_reduce
I1215 11:38:57.971060 25197 net.cpp:380] inception_4d/5x5_reduce <- inception_4c/output_inception_4c/output_0_split_2
I1215 11:38:57.971065 25197 net.cpp:338] inception_4d/5x5_reduce -> inception_4d/5x5_reduce
I1215 11:38:57.971072 25197 net.cpp:113] Setting up inception_4d/5x5_reduce
I1215 11:38:57.971675 25197 net.cpp:120] Top shape: 50 32 14 14 (313600)
I1215 11:38:57.971691 25197 layer_factory.hpp:74] Creating layer inception_4d/relu_5x5_reduce
I1215 11:38:57.971698 25197 net.cpp:84] Creating Layer inception_4d/relu_5x5_reduce
I1215 11:38:57.971703 25197 net.cpp:380] inception_4d/relu_5x5_reduce <- inception_4d/5x5_reduce
I1215 11:38:57.971710 25197 net.cpp:327] inception_4d/relu_5x5_reduce -> inception_4d/5x5_reduce (in-place)
I1215 11:38:57.971717 25197 net.cpp:113] Setting up inception_4d/relu_5x5_reduce
I1215 11:38:57.971782 25197 net.cpp:120] Top shape: 50 32 14 14 (313600)
I1215 11:38:57.971787 25197 layer_factory.hpp:74] Creating layer inception_4d/5x5
I1215 11:38:57.971796 25197 net.cpp:84] Creating Layer inception_4d/5x5
I1215 11:38:57.971801 25197 net.cpp:380] inception_4d/5x5 <- inception_4d/5x5_reduce
I1215 11:38:57.971808 25197 net.cpp:338] inception_4d/5x5 -> inception_4d/5x5
I1215 11:38:57.971817 25197 net.cpp:113] Setting up inception_4d/5x5
I1215 11:38:57.972741 25197 net.cpp:120] Top shape: 50 64 14 14 (627200)
I1215 11:38:57.972755 25197 layer_factory.hpp:74] Creating layer inception_4d/relu_5x5
I1215 11:38:57.972764 25197 net.cpp:84] Creating Layer inception_4d/relu_5x5
I1215 11:38:57.972769 25197 net.cpp:380] inception_4d/relu_5x5 <- inception_4d/5x5
I1215 11:38:57.972774 25197 net.cpp:327] inception_4d/relu_5x5 -> inception_4d/5x5 (in-place)
I1215 11:38:57.972782 25197 net.cpp:113] Setting up inception_4d/relu_5x5
I1215 11:38:57.972846 25197 net.cpp:120] Top shape: 50 64 14 14 (627200)
I1215 11:38:57.972863 25197 layer_factory.hpp:74] Creating layer inception_4d/pool
I1215 11:38:57.972868 25197 layer_factory.cpp:56] CUDNN does not support padding or multiple tops. Using Caffe's own pooling layer.
I1215 11:38:57.972874 25197 net.cpp:84] Creating Layer inception_4d/pool
I1215 11:38:57.972878 25197 net.cpp:380] inception_4d/pool <- inception_4c/output_inception_4c/output_0_split_3
I1215 11:38:57.972887 25197 net.cpp:338] inception_4d/pool -> inception_4d/pool
I1215 11:38:57.972893 25197 net.cpp:113] Setting up inception_4d/pool
I1215 11:38:57.972901 25197 net.cpp:120] Top shape: 50 512 14 14 (5017600)
I1215 11:38:57.972905 25197 layer_factory.hpp:74] Creating layer inception_4d/pool_proj
I1215 11:38:57.972914 25197 net.cpp:84] Creating Layer inception_4d/pool_proj
I1215 11:38:57.972918 25197 net.cpp:380] inception_4d/pool_proj <- inception_4d/pool
I1215 11:38:57.972924 25197 net.cpp:338] inception_4d/pool_proj -> inception_4d/pool_proj
I1215 11:38:57.972931 25197 net.cpp:113] Setting up inception_4d/pool_proj
I1215 11:38:57.973673 25197 net.cpp:120] Top shape: 50 64 14 14 (627200)
I1215 11:38:57.973687 25197 layer_factory.hpp:74] Creating layer inception_4d/relu_pool_proj
I1215 11:38:57.973695 25197 net.cpp:84] Creating Layer inception_4d/relu_pool_proj
I1215 11:38:57.973700 25197 net.cpp:380] inception_4d/relu_pool_proj <- inception_4d/pool_proj
I1215 11:38:57.973707 25197 net.cpp:327] inception_4d/relu_pool_proj -> inception_4d/pool_proj (in-place)
I1215 11:38:57.973714 25197 net.cpp:113] Setting up inception_4d/relu_pool_proj
I1215 11:38:57.973956 25197 net.cpp:120] Top shape: 50 64 14 14 (627200)
I1215 11:38:57.973966 25197 layer_factory.hpp:74] Creating layer inception_4d/output
I1215 11:38:57.973973 25197 net.cpp:84] Creating Layer inception_4d/output
I1215 11:38:57.973978 25197 net.cpp:380] inception_4d/output <- inception_4d/1x1
I1215 11:38:57.973984 25197 net.cpp:380] inception_4d/output <- inception_4d/3x3
I1215 11:38:57.973989 25197 net.cpp:380] inception_4d/output <- inception_4d/5x5
I1215 11:38:57.973994 25197 net.cpp:380] inception_4d/output <- inception_4d/pool_proj
I1215 11:38:57.973999 25197 net.cpp:338] inception_4d/output -> inception_4d/output
I1215 11:38:57.974006 25197 net.cpp:113] Setting up inception_4d/output
I1215 11:38:57.974014 25197 net.cpp:120] Top shape: 50 528 14 14 (5174400)
I1215 11:38:57.974017 25197 layer_factory.hpp:74] Creating layer inception_4d/output_inception_4d/output_0_split
I1215 11:38:57.974025 25197 net.cpp:84] Creating Layer inception_4d/output_inception_4d/output_0_split
I1215 11:38:57.974030 25197 net.cpp:380] inception_4d/output_inception_4d/output_0_split <- inception_4d/output
I1215 11:38:57.974035 25197 net.cpp:338] inception_4d/output_inception_4d/output_0_split -> inception_4d/output_inception_4d/output_0_split_0
I1215 11:38:57.974041 25197 net.cpp:338] inception_4d/output_inception_4d/output_0_split -> inception_4d/output_inception_4d/output_0_split_1
I1215 11:38:57.974048 25197 net.cpp:338] inception_4d/output_inception_4d/output_0_split -> inception_4d/output_inception_4d/output_0_split_2
I1215 11:38:57.974056 25197 net.cpp:338] inception_4d/output_inception_4d/output_0_split -> inception_4d/output_inception_4d/output_0_split_3
I1215 11:38:57.974062 25197 net.cpp:338] inception_4d/output_inception_4d/output_0_split -> inception_4d/output_inception_4d/output_0_split_4
I1215 11:38:57.974068 25197 net.cpp:113] Setting up inception_4d/output_inception_4d/output_0_split
I1215 11:38:57.974074 25197 net.cpp:120] Top shape: 50 528 14 14 (5174400)
I1215 11:38:57.974079 25197 net.cpp:120] Top shape: 50 528 14 14 (5174400)
I1215 11:38:57.974084 25197 net.cpp:120] Top shape: 50 528 14 14 (5174400)
I1215 11:38:57.974088 25197 net.cpp:120] Top shape: 50 528 14 14 (5174400)
I1215 11:38:57.974092 25197 net.cpp:120] Top shape: 50 528 14 14 (5174400)
I1215 11:38:57.974097 25197 layer_factory.hpp:74] Creating layer loss2/ave_pool
I1215 11:38:57.974102 25197 net.cpp:84] Creating Layer loss2/ave_pool
I1215 11:38:57.974112 25197 net.cpp:380] loss2/ave_pool <- inception_4d/output_inception_4d/output_0_split_0
I1215 11:38:57.974126 25197 net.cpp:338] loss2/ave_pool -> loss2/ave_pool
I1215 11:38:57.974133 25197 net.cpp:113] Setting up loss2/ave_pool
I1215 11:38:57.974203 25197 net.cpp:120] Top shape: 50 528 4 4 (422400)
I1215 11:38:57.974210 25197 layer_factory.hpp:74] Creating layer loss2/conv
I1215 11:38:57.974216 25197 net.cpp:84] Creating Layer loss2/conv
I1215 11:38:57.974220 25197 net.cpp:380] loss2/conv <- loss2/ave_pool
I1215 11:38:57.974228 25197 net.cpp:338] loss2/conv -> loss2/conv
I1215 11:38:57.974236 25197 net.cpp:113] Setting up loss2/conv
I1215 11:38:57.975335 25197 net.cpp:120] Top shape: 50 128 4 4 (102400)
I1215 11:38:57.975349 25197 layer_factory.hpp:74] Creating layer loss2/relu_conv
I1215 11:38:57.975355 25197 net.cpp:84] Creating Layer loss2/relu_conv
I1215 11:38:57.975360 25197 net.cpp:380] loss2/relu_conv <- loss2/conv
I1215 11:38:57.975366 25197 net.cpp:327] loss2/relu_conv -> loss2/conv (in-place)
I1215 11:38:57.975373 25197 net.cpp:113] Setting up loss2/relu_conv
I1215 11:38:57.975438 25197 net.cpp:120] Top shape: 50 128 4 4 (102400)
I1215 11:38:57.975443 25197 layer_factory.hpp:74] Creating layer loss2/fc
I1215 11:38:57.975451 25197 net.cpp:84] Creating Layer loss2/fc
I1215 11:38:57.975455 25197 net.cpp:380] loss2/fc <- loss2/conv
I1215 11:38:57.975463 25197 net.cpp:338] loss2/fc -> loss2/fc
I1215 11:38:57.975471 25197 net.cpp:113] Setting up loss2/fc
I1215 11:38:57.997184 25197 net.cpp:120] Top shape: 50 1024 (51200)
I1215 11:38:57.997226 25197 layer_factory.hpp:74] Creating layer loss2/relu_fc
I1215 11:38:57.997241 25197 net.cpp:84] Creating Layer loss2/relu_fc
I1215 11:38:57.997247 25197 net.cpp:380] loss2/relu_fc <- loss2/fc
I1215 11:38:57.997256 25197 net.cpp:327] loss2/relu_fc -> loss2/fc (in-place)
I1215 11:38:57.997264 25197 net.cpp:113] Setting up loss2/relu_fc
I1215 11:38:57.997385 25197 net.cpp:120] Top shape: 50 1024 (51200)
I1215 11:38:57.997390 25197 layer_factory.hpp:74] Creating layer loss2/drop_fc
I1215 11:38:57.997400 25197 net.cpp:84] Creating Layer loss2/drop_fc
I1215 11:38:57.997405 25197 net.cpp:380] loss2/drop_fc <- loss2/fc
I1215 11:38:57.997411 25197 net.cpp:327] loss2/drop_fc -> loss2/fc (in-place)
I1215 11:38:57.997417 25197 net.cpp:113] Setting up loss2/drop_fc
I1215 11:38:57.997426 25197 net.cpp:120] Top shape: 50 1024 (51200)
I1215 11:38:57.997431 25197 layer_factory.hpp:74] Creating layer loss2/classifier_kaggle
I1215 11:38:57.997439 25197 net.cpp:84] Creating Layer loss2/classifier_kaggle
I1215 11:38:57.997443 25197 net.cpp:380] loss2/classifier_kaggle <- loss2/fc
I1215 11:38:57.997450 25197 net.cpp:338] loss2/classifier_kaggle -> loss2/classifier_kaggle
I1215 11:38:57.997459 25197 net.cpp:113] Setting up loss2/classifier_kaggle
I1215 11:38:58.002430 25197 net.cpp:120] Top shape: 50 447 (22350)
I1215 11:38:58.002449 25197 layer_factory.hpp:74] Creating layer loss2/classifier_kaggle_loss2/classifier_kaggle_0_split
I1215 11:38:58.002457 25197 net.cpp:84] Creating Layer loss2/classifier_kaggle_loss2/classifier_kaggle_0_split
I1215 11:38:58.002462 25197 net.cpp:380] loss2/classifier_kaggle_loss2/classifier_kaggle_0_split <- loss2/classifier_kaggle
I1215 11:38:58.002470 25197 net.cpp:338] loss2/classifier_kaggle_loss2/classifier_kaggle_0_split -> loss2/classifier_kaggle_loss2/classifier_kaggle_0_split_0
I1215 11:38:58.002477 25197 net.cpp:338] loss2/classifier_kaggle_loss2/classifier_kaggle_0_split -> loss2/classifier_kaggle_loss2/classifier_kaggle_0_split_1
I1215 11:38:58.002485 25197 net.cpp:338] loss2/classifier_kaggle_loss2/classifier_kaggle_0_split -> loss2/classifier_kaggle_loss2/classifier_kaggle_0_split_2
I1215 11:38:58.002490 25197 net.cpp:113] Setting up loss2/classifier_kaggle_loss2/classifier_kaggle_0_split
I1215 11:38:58.002497 25197 net.cpp:120] Top shape: 50 447 (22350)
I1215 11:38:58.002502 25197 net.cpp:120] Top shape: 50 447 (22350)
I1215 11:38:58.002507 25197 net.cpp:120] Top shape: 50 447 (22350)
I1215 11:38:58.002511 25197 layer_factory.hpp:74] Creating layer loss2/loss
I1215 11:38:58.002531 25197 net.cpp:84] Creating Layer loss2/loss
I1215 11:38:58.002545 25197 net.cpp:380] loss2/loss <- loss2/classifier_kaggle_loss2/classifier_kaggle_0_split_0
I1215 11:38:58.002552 25197 net.cpp:380] loss2/loss <- label_data_1_split_3
I1215 11:38:58.002558 25197 net.cpp:338] loss2/loss -> loss2/loss1
…
I1215 11:38:58.003167 25197 net.cpp:338] loss2/top-5 -> loss2/top-5
I1215 11:38:58.003173 25197 net.cpp:113] Setting up loss2/top-5
I1215 11:38:58.003180 25197 net.cpp:120] Top shape: (1)
I1215 11:38:58.003183 25197 layer_factory.hpp:74] Creating layer inception_4e/1x1
I1215 11:38:58.003191 25197 net.cpp:84] Creating Layer inception_4e/1x1
I1215 11:38:58.003196 25197 net.cpp:380] inception_4e/1x1 <- inception_4d/output_inception_4d/output_0_split_1
I1215 11:38:58.003206 25197 net.cpp:338] inception_4e/1x1 -> inception_4e/1x1
I1215 11:38:58.003212 25197 net.cpp:113] Setting up inception_4e/1x1
I1215 11:38:58.005280 25197 net.cpp:120] Top shape: 50 256 14 14 (2508800)
I1215 11:38:58.005300 25197 layer_factory.hpp:74] Creating layer inception_4e/relu_1x1
I1215 11:38:58.005307 25197 net.cpp:84] Creating Layer inception_4e/relu_1x1
I1215 11:38:58.005312 25197 net.cpp:380] inception_4e/relu_1x1 <- inception_4e/1x1
I1215 11:38:58.005323 25197 net.cpp:327] inception_4e/relu_1x1 -> inception_4e/1x1 (in-place)
I1215 11:38:58.005336 25197 net.cpp:113] Setting up inception_4e/relu_1x1
I1215 11:38:58.005408 25197 net.cpp:120] Top shape: 50 256 14 14 (2508800)
I1215 11:38:58.005414 25197 layer_factory.hpp:74] Creating layer inception_4e/3x3_reduce
I1215 11:38:58.005450 25197 net.cpp:84] Creating Layer inception_4e/3x3_reduce
I1215 11:38:58.005460 25197 net.cpp:380] inception_4e/3x3_reduce <- inception_4d/output_inception_4d/output_0_split_2
I1215 11:38:58.005473 25197 net.cpp:338] inception_4e/3x3_reduce -> inception_4e/3x3_reduce
I1215 11:38:58.005483 25197 net.cpp:113] Setting up inception_4e/3x3_reduce
I1215 11:38:58.006835 25197 net.cpp:120] Top shape: 50 160 14 14 (1568000)
I1215 11:38:58.006855 25197 layer_factory.hpp:74] Creating layer inception_4e/relu_3x3_reduce
I1215 11:38:58.006863 25197 net.cpp:84] Creating Layer inception_4e/relu_3x3_reduce
I1215 11:38:58.006868 25197 net.cpp:380] inception_4e/relu_3x3_reduce <- inception_4e/3x3_reduce
I1215 11:38:58.006875 25197 net.cpp:327] inception_4e/relu_3x3_reduce -> inception_4e/3x3_reduce (in-place)
I1215 11:38:58.006881 25197 net.cpp:113] Setting up inception_4e/relu_3x3_reduce
I1215 11:38:58.006953 25197 net.cpp:120] Top shape: 50 160 14 14 (1568000)
I1215 11:38:58.006958 25197 layer_factory.hpp:74] Creating layer inception_4e/3x3
I1215 11:38:58.006968 25197 net.cpp:84] Creating Layer inception_4e/3x3
I1215 11:38:58.006971 25197 net.cpp:380] inception_4e/3x3 <- inception_4e/3x3_reduce
I1215 11:38:58.006978 25197 net.cpp:338] inception_4e/3x3 -> inception_4e/3x3
I1215 11:38:58.006985 25197 net.cpp:113] Setting up inception_4e/3x3
I1215 11:38:58.012487 25197 net.cpp:120] Top shape: 50 320 14 14 (3136000)
I1215 11:38:58.012512 25197 layer_factory.hpp:74] Creating layer inception_4e/relu_3x3
I1215 11:38:58.012531 25197 net.cpp:84] Creating Layer inception_4e/relu_3x3
I1215 11:38:58.012537 25197 net.cpp:380] inception_4e/relu_3x3 <- inception_4e/3x3
I1215 11:38:58.012543 25197 net.cpp:327] inception_4e/relu_3x3 -> inception_4e/3x3 (in-place)
I1215 11:38:58.012550 25197 net.cpp:113] Setting up inception_4e/relu_3x3
I1215 11:38:58.012795 25197 net.cpp:120] Top shape: 50 320 14 14 (3136000)
I1215 11:38:58.012805 25197 layer_factory.hpp:74] Creating layer inception_4e/5x5_reduce
I1215 11:38:58.012814 25197 net.cpp:84] Creating Layer inception_4e/5x5_reduce
I1215 11:38:58.012820 25197 net.cpp:380] inception_4e/5x5_reduce <- inception_4d/output_inception_4d/output_0_split_3
I1215 11:38:58.012826 25197 net.cpp:338] inception_4e/5x5_reduce -> inception_4e/5x5_reduce
I1215 11:38:58.012835 25197 net.cpp:113] Setting up inception_4e/5x5_reduce
I1215 11:38:58.013411 25197 net.cpp:120] Top shape: 50 32 14 14 (313600)
I1215 11:38:58.013425 25197 layer_factory.hpp:74] Creating layer inception_4e/relu_5x5_reduce
I1215 11:38:58.013433 25197 net.cpp:84] Creating Layer inception_4e/relu_5x5_reduce
I1215 11:38:58.013438 25197 net.cpp:380] inception_4e/relu_5x5_reduce <- inception_4e/5x5_reduce
I1215 11:38:58.013447 25197 net.cpp:327] inception_4e/relu_5x5_reduce -> inception_4e/5x5_reduce (in-place)
I1215 11:38:58.013454 25197 net.cpp:113] Setting up inception_4e/relu_5x5_reduce
I1215 11:38:58.013522 25197 net.cpp:120] Top shape: 50 32 14 14 (313600)
I1215 11:38:58.013527 25197 layer_factory.hpp:74] Creating layer inception_4e/5x5
I1215 11:38:58.013537 25197 net.cpp:84] Creating Layer inception_4e/5x5
I1215 11:38:58.013541 25197 net.cpp:380] inception_4e/5x5 <- inception_4e/5x5_reduce
I1215 11:38:58.013550 25197 net.cpp:338] inception_4e/5x5 -> inception_4e/5x5
I1215 11:38:58.013558 25197 net.cpp:113] Setting up inception_4e/5x5
I1215 11:38:58.015077 25197 net.cpp:120] Top shape: 50 128 14 14 (1254400)
I1215 11:38:58.015092 25197 layer_factory.hpp:74] Creating layer inception_4e/relu_5x5
I1215 11:38:58.015100 25197 net.cpp:84] Creating Layer inception_4e/relu_5x5
I1215 11:38:58.015105 25197 net.cpp:380] inception_4e/relu_5x5 <- inception_4e/5x5
I1215 11:38:58.015111 25197 net.cpp:327] inception_4e/relu_5x5 -> inception_4e/5x5 (in-place)
I1215 11:38:58.015118 25197 net.cpp:113] Setting up inception_4e/relu_5x5
I1215 11:38:58.015185 25197 net.cpp:120] Top shape: 50 128 14 14 (1254400)
I1215 11:38:58.015192 25197 layer_factory.hpp:74] Creating layer inception_4e/pool
I1215 11:38:58.015197 25197 layer_factory.cpp:56] CUDNN does not support padding or multiple tops. Using Caffe's own pooling layer.
I1215 11:38:58.015204 25197 net.cpp:84] Creating Layer inception_4e/pool
I1215 11:38:58.015209 25197 net.cpp:380] inception_4e/pool <- inception_4d/output_inception_4d/output_0_split_4
I1215 11:38:58.015215 25197 net.cpp:338] inception_4e/pool -> inception_4e/pool
I1215 11:38:58.015223 25197 net.cpp:113] Setting up inception_4e/pool
I1215 11:38:58.015233 25197 net.cpp:120] Top shape: 50 528 14 14 (5174400)
I1215 11:38:58.015238 25197 layer_factory.hpp:74] Creating layer inception_4e/pool_proj
I1215 11:38:58.015245 25197 net.cpp:84] Creating Layer inception_4e/pool_proj
I1215 11:38:58.015249 25197 net.cpp:380] inception_4e/pool_proj <- inception_4e/pool
I1215 11:38:58.015257 25197 net.cpp:338] inception_4e/pool_proj -> inception_4e/pool_proj
I1215 11:38:58.015264 25197 net.cpp:113] Setting up inception_4e/pool_proj
I1215 11:38:58.016602 25197 net.cpp:120] Top shape: 50 128 14 14 (1254400)
I1215 11:38:58.016628 25197 layer_factory.hpp:74] Creating layer inception_4e/relu_pool_proj
I1215 11:38:58.016638 25197 net.cpp:84] Creating Layer inception_4e/relu_pool_proj
I1215 11:38:58.016644 25197 net.cpp:380] inception_4e/relu_pool_proj <- inception_4e/pool_proj
I1215 11:38:58.016649 25197 net.cpp:327] inception_4e/relu_pool_proj -> inception_4e/pool_proj (in-place)
I1215 11:38:58.016656 25197 net.cpp:113] Setting up inception_4e/relu_pool_proj
I1215 11:38:58.016731 25197 net.cpp:120] Top shape: 50 128 14 14 (1254400)
I1215 11:38:58.016744 25197 layer_factory.hpp:74] Creating layer inception_4e/output
I1215 11:38:58.016752 25197 net.cpp:84] Creating Layer inception_4e/output
I1215 11:38:58.016757 25197 net.cpp:380] inception_4e/output <- inception_4e/1x1
I1215 11:38:58.016762 25197 net.cpp:380] inception_4e/output <- inception_4e/3x3
I1215 11:38:58.016767 25197 net.cpp:380] inception_4e/output <- inception_4e/5x5
I1215 11:38:58.016772 25197 net.cpp:380] inception_4e/output <- inception_4e/pool_proj
I1215 11:38:58.016778 25197 net.cpp:338] inception_4e/output -> inception_4e/output
I1215 11:38:58.016785 25197 net.cpp:113] Setting up inception_4e/output
I1215 11:38:58.016793 25197 net.cpp:120] Top shape: 50 832 14 14 (8153600)
I1215 11:38:58.016798 25197 layer_factory.hpp:74] Creating layer pool4/3x3_s2
I1215 11:38:58.016804 25197 net.cpp:84] Creating Layer pool4/3x3_s2
I1215 11:38:58.016808 25197 net.cpp:380] pool4/3x3_s2 <- inception_4e/output
I1215 11:38:58.016816 25197 net.cpp:338] pool4/3x3_s2 -> pool4/3x3_s2
I1215 11:38:58.016824 25197 net.cpp:113] Setting up pool4/3x3_s2
I1215 11:38:58.017109 25197 net.cpp:120] Top shape: 50 832 7 7 (2038400)
I1215 11:38:58.017127 25197 layer_factory.hpp:74] Creating layer pool4/3x3_s2_pool4/3x3_s2_0_split
I1215 11:38:58.017138 25197 net.cpp:84] Creating Layer pool4/3x3_s2_pool4/3x3_s2_0_split
I1215 11:38:58.017143 25197 net.cpp:380] pool4/3x3_s2_pool4/3x3_s2_0_split <- pool4/3x3_s2
I1215 11:38:58.017148 25197 net.cpp:338] pool4/3x3_s2_pool4/3x3_s2_0_split -> pool4/3x3_s2_pool4/3x3_s2_0_split_0
I1215 11:38:58.017158 25197 net.cpp:338] pool4/3x3_s2_pool4/3x3_s2_0_split -> pool4/3x3_s2_pool4/3x3_s2_0_split_1
I1215 11:38:58.017165 25197 net.cpp:338] pool4/3x3_s2_pool4/3x3_s2_0_split -> pool4/3x3_s2_pool4/3x3_s2_0_split_2
I1215 11:38:58.017192 25197 net.cpp:338] pool4/3x3_s2_pool4/3x3_s2_0_split -> pool4/3x3_s2_pool4/3x3_s2_0_split_3
I1215 11:38:58.017199 25197 net.cpp:113] Setting up pool4/3x3_s2_pool4/3x3_s2_0_split
I1215 11:38:58.017207 25197 net.cpp:120] Top shape: 50 832 7 7 (2038400)
I1215 11:38:58.017212 25197 net.cpp:120] Top shape: 50 832 7 7 (2038400)
I1215 11:38:58.017217 25197 net.cpp:120] Top shape: 50 832 7 7 (2038400)
I1215 11:38:58.017223 25197 net.cpp:120] Top shape: 50 832 7 7 (2038400)
I1215 11:38:58.017231 25197 layer_factory.hpp:74] Creating layer inception_5a/1x1
I1215 11:38:58.017247 25197 net.cpp:84] Creating Layer inception_5a/1x1
I1215 11:38:58.017254 25197 net.cpp:380] inception_5a/1x1 <- pool4/3x3_s2_pool4/3x3_s2_0_split_0
I1215 11:38:58.017261 25197 net.cpp:338] inception_5a/1x1 -> inception_5a/1x1
I1215 11:38:58.017269 25197 net.cpp:113] Setting up inception_5a/1x1
I1215 11:38:58.019997 25197 net.cpp:120] Top shape: 50 256 7 7 (627200)
I1215 11:38:58.020014 25197 layer_factory.hpp:74] Creating layer inception_5a/relu_1x1
I1215 11:38:58.020020 25197 net.cpp:84] Creating Layer inception_5a/relu_1x1
I1215 11:38:58.020025 25197 net.cpp:380] inception_5a/relu_1x1 <- inception_5a/1x1
I1215 11:38:58.020032 25197 net.cpp:327] inception_5a/relu_1x1 -> inception_5a/1x1 (in-place)
I1215 11:38:58.020040 25197 net.cpp:113] Setting up inception_5a/relu_1x1
I1215 11:38:58.020107 25197 net.cpp:120] Top shape: 50 256 7 7 (627200)
I1215 11:38:58.020112 25197 layer_factory.hpp:74] Creating layer inception_5a/3x3_reduce
I1215 11:38:58.020120 25197 net.cpp:84] Creating Layer inception_5a/3x3_reduce
I1215 11:38:58.020124 25197 net.cpp:380] inception_5a/3x3_reduce <- pool4/3x3_s2_pool4/3x3_s2_0_split_1
I1215 11:38:58.020133 25197 net.cpp:338] inception_5a/3x3_reduce -> inception_5a/3x3_reduce
I1215 11:38:58.020141 25197 net.cpp:113] Setting up inception_5a/3x3_reduce
I1215 11:38:58.021996 25197 net.cpp:120] Top shape: 50 160 7 7 (392000)
I1215 11:38:58.022012 25197 layer_factory.hpp:74] Creating layer inception_5a/relu_3x3_reduce
I1215 11:38:58.022019 25197 net.cpp:84] Creating Layer inception_5a/relu_3x3_reduce
I1215 11:38:58.022024 25197 net.cpp:380] inception_5a/relu_3x3_reduce <- inception_5a/3x3_reduce
I1215 11:38:58.022037 25197 net.cpp:327] inception_5a/relu_3x3_reduce -> inception_5a/3x3_reduce (in-place)
I1215 11:38:58.022049 25197 net.cpp:113] Setting up inception_5a/relu_3x3_reduce
I1215 11:38:58.022120 25197 net.cpp:120] Top shape: 50 160 7 7 (392000)
I1215 11:38:58.022126 25197 layer_factory.hpp:74] Creating layer inception_5a/3x3
I1215 11:38:58.022136 25197 net.cpp:84] Creating Layer inception_5a/3x3
I1215 11:38:58.022140 25197 net.cpp:380] inception_5a/3x3 <- inception_5a/3x3_reduce
I1215 11:38:58.022147 25197 net.cpp:338] inception_5a/3x3 -> inception_5a/3x3
I1215 11:38:58.022155 25197 net.cpp:113] Setting up inception_5a/3x3
I1215 11:38:58.027680 25197 net.cpp:120] Top shape: 50 320 7 7 (784000)
I1215 11:38:58.027709 25197 layer_factory.hpp:74] Creating layer inception_5a/relu_3x3
I1215 11:38:58.027725 25197 net.cpp:84] Creating Layer inception_5a/relu_3x3
I1215 11:38:58.027736 25197 net.cpp:380] inception_5a/relu_3x3 <- inception_5a/3x3
I1215 11:38:58.027748 25197 net.cpp:327] inception_5a/relu_3x3 -> inception_5a/3x3 (in-place)
I1215 11:38:58.027762 25197 net.cpp:113] Setting up inception_5a/relu_3x3
I1215 11:38:58.027837 25197 net.cpp:120] Top shape: 50 320 7 7 (784000)
I1215 11:38:58.027845 25197 layer_factory.hpp:74] Creating layer inception_5a/5x5_reduce
I1215 11:38:58.027854 25197 net.cpp:84] Creating Layer inception_5a/5x5_reduce
I1215 11:38:58.027859 25197 net.cpp:380] inception_5a/5x5_reduce <- pool4/3x3_s2_pool4/3x3_s2_0_split_2
I1215 11:38:58.027868 25197 net.cpp:338] inception_5a/5x5_reduce -> inception_5a/5x5_reduce
I1215 11:38:58.027875 25197 net.cpp:113] Setting up inception_5a/5x5_reduce
I1215 11:38:58.029814 25197 net.cpp:120] Top shape: 50 32 7 7 (78400)
I1215 11:38:58.029830 25197 layer_factory.hpp:74] Creating layer inception_5a/relu_5x5_reduce
I1215 11:38:58.029839 25197 net.cpp:84] Creating Layer inception_5a/relu_5x5_reduce
I1215 11:38:58.029844 25197 net.cpp:380] inception_5a/relu_5x5_reduce <- inception_5a/5x5_reduce
I1215 11:38:58.029851 25197 net.cpp:327] inception_5a/relu_5x5_reduce -> inception_5a/5x5_reduce (in-place)
I1215 11:38:58.029858 25197 net.cpp:113] Setting up inception_5a/relu_5x5_reduce
I1215 11:38:58.031131 25197 net.cpp:120] Top shape: 50 32 7 7 (78400)
I1215 11:38:58.031143 25197 layer_factory.hpp:74] Creating layer inception_5a/5x5
I1215 11:38:58.031152 25197 net.cpp:84] Creating Layer inception_5a/5x5
I1215 11:38:58.031157 25197 net.cpp:380] inception_5a/5x5 <- inception_5a/5x5_reduce
I1215 11:38:58.031167 25197 net.cpp:338] inception_5a/5x5 -> inception_5a/5x5
I1215 11:38:58.031175 25197 net.cpp:113] Setting up inception_5a/5x5
I1215 11:38:58.032696 25197 net.cpp:120] Top shape: 50 128 7 7 (313600)
I1215 11:38:58.032711 25197 layer_factory.hpp:74] Creating layer inception_5a/relu_5x5
I1215 11:38:58.032721 25197 net.cpp:84] Creating Layer inception_5a/relu_5x5
I1215 11:38:58.032727 25197 net.cpp:380] inception_5a/relu_5x5 <- inception_5a/5x5
I1215 11:38:58.032732 25197 net.cpp:327] inception_5a/relu_5x5 -> inception_5a/5x5 (in-place)
I1215 11:38:58.032739 25197 net.cpp:113] Setting up inception_5a/relu_5x5
I1215 11:38:58.032809 25197 net.cpp:120] Top shape: 50 128 7 7 (313600)
I1215 11:38:58.032815 25197 layer_factory.hpp:74] Creating layer inception_5a/pool
I1215 11:38:58.032820 25197 layer_factory.cpp:56] CUDNN does not support padding or multiple tops. Using Caffe's own pooling layer.
I1215 11:38:58.032826 25197 net.cpp:84] Creating Layer inception_5a/pool
I1215 11:38:58.032831 25197 net.cpp:380] inception_5a/pool <- pool4/3x3_s2_pool4/3x3_s2_0_split_3
I1215 11:38:58.032840 25197 net.cpp:338] inception_5a/pool -> inception_5a/pool
I1215 11:38:58.032848 25197 net.cpp:113] Setting up inception_5a/pool
I1215 11:38:58.032856 25197 net.cpp:120] Top shape: 50 832 7 7 (2038400)
I1215 11:38:58.032860 25197 layer_factory.hpp:74] Creating layer inception_5a/pool_proj
I1215 11:38:58.032868 25197 net.cpp:84] Creating Layer inception_5a/pool_proj
I1215 11:38:58.032873 25197 net.cpp:380] inception_5a/pool_proj <- inception_5a/pool
I1215 11:38:58.032881 25197 net.cpp:338] inception_5a/pool_proj -> inception_5a/pool_proj
I1215 11:38:58.032902 25197 net.cpp:113] Setting up inception_5a/pool_proj
I1215 11:38:58.034483 25197 net.cpp:120] Top shape: 50 128 7 7 (313600)
I1215 11:38:58.034498 25197 layer_factory.hpp:74] Creating layer inception_5a/relu_pool_proj
I1215 11:38:58.034505 25197 net.cpp:84] Creating Layer inception_5a/relu_pool_proj
I1215 11:38:58.034510 25197 net.cpp:380] inception_5a/relu_pool_proj <- inception_5a/pool_proj
I1215 11:38:58.034518 25197 net.cpp:327] inception_5a/relu_pool_proj -> inception_5a/pool_proj (in-place)
I1215 11:38:58.034524 25197 net.cpp:113] Setting up inception_5a/relu_pool_proj
I1215 11:38:58.034590 25197 net.cpp:120] Top shape: 50 128 7 7 (313600)
I1215 11:38:58.034595 25197 layer_factory.hpp:74] Creating layer inception_5a/output
I1215 11:38:58.034602 25197 net.cpp:84] Creating Layer inception_5a/output
I1215 11:38:58.034607 25197 net.cpp:380] inception_5a/output <- inception_5a/1x1
I1215 11:38:58.034613 25197 net.cpp:380] inception_5a/output <- inception_5a/3x3
I1215 11:38:58.034618 25197 net.cpp:380] inception_5a/output <- inception_5a/5x5
I1215 11:38:58.034623 25197 net.cpp:380] inception_5a/output <- inception_5a/pool_proj
I1215 11:38:58.034628 25197 net.cpp:338] inception_5a/output -> inception_5a/output
I1215 11:38:58.034636 25197 net.cpp:113] Setting up inception_5a/output
I1215 11:38:58.034643 25197 net.cpp:120] Top shape: 50 832 7 7 (2038400)
I1215 11:38:58.034647 25197 layer_factory.hpp:74] Creating layer inception_5a/output_inception_5a/output_0_split
I1215 11:38:58.034653 25197 net.cpp:84] Creating Layer inception_5a/output_inception_5a/output_0_split
I1215 11:38:58.034658 25197 net.cpp:380] inception_5a/output_inception_5a/output_0_split <- inception_5a/output
I1215 11:38:58.034665 25197 net.cpp:338] inception_5a/output_inception_5a/output_0_split -> inception_5a/output_inception_5a/output_0_split_0
I1215 11:38:58.034672 25197 net.cpp:338] inception_5a/output_inception_5a/output_0_split -> inception_5a/output_inception_5a/output_0_split_1
I1215 11:38:58.034679 25197 net.cpp:338] inception_5a/output_inception_5a/output_0_split -> inception_5a/output_inception_5a/output_0_split_2
I1215 11:38:58.034687 25197 net.cpp:338] inception_5a/output_inception_5a/output_0_split -> inception_5a/output_inception_5a/output_0_split_3
I1215 11:38:58.034692 25197 net.cpp:113] Setting up inception_5a/output_inception_5a/output_0_split
I1215 11:38:58.034699 25197 net.cpp:120] Top shape: 50 832 7 7 (2038400)
I1215 11:38:58.034704 25197 net.cpp:120] Top shape: 50 832 7 7 (2038400)
I1215 11:38:58.034709 25197 net.cpp:120] Top shape: 50 832 7 7 (2038400)
I1215 11:38:58.034714 25197 net.cpp:120] Top shape: 50 832 7 7 (2038400)
I1215 11:38:58.034718 25197 layer_factory.hpp:74] Creating layer inception_5b/1x1
I1215 11:38:58.034725 25197 net.cpp:84] Creating Layer inception_5b/1x1
I1215 11:38:58.034730 25197 net.cpp:380] inception_5b/1x1 <- inception_5a/output_inception_5a/output_0_split_0
I1215 11:38:58.034737 25197 net.cpp:338] inception_5b/1x1 -> inception_5b/1x1
I1215 11:38:58.034745 25197 net.cpp:113] Setting up inception_5b/1x1
I1215 11:38:58.038581 25197 net.cpp:120] Top shape: 50 384 7 7 (940800)
I1215 11:38:58.038597 25197 layer_factory.hpp:74] Creating layer inception_5b/relu_1x1
I1215 11:38:58.038604 25197 net.cpp:84] Creating Layer inception_5b/relu_1x1
I1215 11:38:58.038609 25197 net.cpp:380] inception_5b/relu_1x1 <- inception_5b/1x1
I1215 11:38:58.038615 25197 net.cpp:327] inception_5b/relu_1x1 -> inception_5b/1x1 (in-place)
I1215 11:38:58.038622 25197 net.cpp:113] Setting up inception_5b/relu_1x1
I1215 11:38:58.038691 25197 net.cpp:120] Top shape: 50 384 7 7 (940800)
I1215 11:38:58.038697 25197 layer_factory.hpp:74] Creating layer inception_5b/3x3_reduce
I1215 11:38:58.038707 25197 net.cpp:84] Creating Layer inception_5b/3x3_reduce
I1215 11:38:58.038712 25197 net.cpp:380] inception_5b/3x3_reduce <- inception_5a/output_inception_5a/output_0_split_1
I1215 11:38:58.038717 25197 net.cpp:338] inception_5b/3x3_reduce -> inception_5b/3x3_reduce
I1215 11:38:58.038732 25197 net.cpp:113] Setting up inception_5b/3x3_reduce
I1215 11:38:58.041095 25197 net.cpp:120] Top shape: 50 192 7 7 (470400)
I1215 11:38:58.041112 25197 layer_factory.hpp:74] Creating layer inception_5b/relu_3x3_reduce
I1215 11:38:58.041121 25197 net.cpp:84] Creating Layer inception_5b/relu_3x3_reduce
I1215 11:38:58.041129 25197 net.cpp:380] inception_5b/relu_3x3_reduce <- inception_5b/3x3_reduce
I1215 11:38:58.041141 25197 net.cpp:327] inception_5b/relu_3x3_reduce -> inception_5b/3x3_reduce (in-place)
I1215 11:38:58.041148 25197 net.cpp:113] Setting up inception_5b/relu_3x3_reduce
I1215 11:38:58.041426 25197 net.cpp:120] Top shape: 50 192 7 7 (470400)
I1215 11:38:58.041442 25197 layer_factory.hpp:74] Creating layer inception_5b/3x3
I1215 11:38:58.041456 25197 net.cpp:84] Creating Layer inception_5b/3x3
I1215 11:38:58.041467 25197 net.cpp:380] inception_5b/3x3 <- inception_5b/3x3_reduce
I1215 11:38:58.041482 25197 net.cpp:338] inception_5b/3x3 -> inception_5b/3x3
I1215 11:38:58.041493 25197 net.cpp:113] Setting up inception_5b/3x3
I1215 11:38:58.049144 25197 net.cpp:120] Top shape: 50 384 7 7 (940800)
I1215 11:38:58.049161 25197 layer_factory.hpp:74] Creating layer inception_5b/relu_3x3
I1215 11:38:58.049168 25197 net.cpp:84] Creating Layer inception_5b/relu_3x3
I1215 11:38:58.049175 25197 net.cpp:380] inception_5b/relu_3x3 <- inception_5b/3x3
I1215 11:38:58.049182 25197 net.cpp:327] inception_5b/relu_3x3 -> inception_5b/3x3 (in-place)
I1215 11:38:58.049190 25197 net.cpp:113] Setting up inception_5b/relu_3x3
I1215 11:38:58.049259 25197 net.cpp:120] Top shape: 50 384 7 7 (940800)
I1215 11:38:58.049264 25197 layer_factory.hpp:74] Creating layer inception_5b/5x5_reduce
I1215 11:38:58.049274 25197 net.cpp:84] Creating Layer inception_5b/5x5_reduce
I1215 11:38:58.049279 25197 net.cpp:380] inception_5b/5x5_reduce <- inception_5a/output_inception_5a/output_0_split_2
I1215 11:38:58.049286 25197 net.cpp:338] inception_5b/5x5_reduce -> inception_5b/5x5_reduce
I1215 11:38:58.049295 25197 net.cpp:113] Setting up inception_5b/5x5_reduce
I1215 11:38:58.050133 25197 net.cpp:120] Top shape: 50 48 7 7 (117600)
I1215 11:38:58.050148 25197 layer_factory.hpp:74] Creating layer inception_5b/relu_5x5_reduce
I1215 11:38:58.050154 25197 net.cpp:84] Creating Layer inception_5b/relu_5x5_reduce
I1215 11:38:58.050159 25197 net.cpp:380] inception_5b/relu_5x5_reduce <- inception_5b/5x5_reduce
I1215 11:38:58.050165 25197 net.cpp:327] inception_5b/relu_5x5_reduce -> inception_5b/5x5_reduce (in-place)
I1215 11:38:58.050173 25197 net.cpp:113] Setting up inception_5b/relu_5x5_reduce
I1215 11:38:58.050245 25197 net.cpp:120] Top shape: 50 48 7 7 (117600)
I1215 11:38:58.050250 25197 layer_factory.hpp:74] Creating layer inception_5b/5x5
I1215 11:38:58.050259 25197 net.cpp:84] Creating Layer inception_5b/5x5
I1215 11:38:58.050264 25197 net.cpp:380] inception_5b/5x5 <- inception_5b/5x5_reduce
I1215 11:38:58.050271 25197 net.cpp:338] inception_5b/5x5 -> inception_5b/5x5
I1215 11:38:58.050277 25197 net.cpp:113] Setting up inception_5b/5x5
I1215 11:38:58.052479 25197 net.cpp:120] Top shape: 50 128 7 7 (313600)
I1215 11:38:58.052496 25197 layer_factory.hpp:74] Creating layer inception_5b/relu_5x5
I1215 11:38:58.052503 25197 net.cpp:84] Creating Layer inception_5b/relu_5x5
I1215 11:38:58.052508 25197 net.cpp:380] inception_5b/relu_5x5 <- inception_5b/5x5
I1215 11:38:58.052517 25197 net.cpp:327] inception_5b/relu_5x5 -> inception_5b/5x5 (in-place)
I1215 11:38:58.052525 25197 net.cpp:113] Setting up inception_5b/relu_5x5
I1215 11:38:58.052778 25197 net.cpp:120] Top shape: 50 128 7 7 (313600)
I1215 11:38:58.052790 25197 layer_factory.hpp:74] Creating layer inception_5b/pool
I1215 11:38:58.052796 25197 layer_factory.cpp:56] CUDNN does not support padding or multiple tops. Using Caffe's own pooling layer.
I1215 11:38:58.052803 25197 net.cpp:84] Creating Layer inception_5b/pool
I1215 11:38:58.052809 25197 net.cpp:380] inception_5b/pool <- inception_5a/output_inception_5a/output_0_split_3
I1215 11:38:58.052815 25197 net.cpp:338] inception_5b/pool -> inception_5b/pool
I1215 11:38:58.052830 25197 net.cpp:113] Setting up inception_5b/pool
I1215 11:38:58.052847 25197 net.cpp:120] Top shape: 50 832 7 7 (2038400)
I1215 11:38:58.052852 25197 layer_factory.hpp:74] Creating layer inception_5b/pool_proj
I1215 11:38:58.052862 25197 net.cpp:84] Creating Layer inception_5b/pool_proj
I1215 11:38:58.052868 25197 net.cpp:380] inception_5b/pool_proj <- inception_5b/pool
I1215 11:38:58.052881 25197 net.cpp:338] inception_5b/pool_proj -> inception_5b/pool_proj
I1215 11:38:58.052894 25197 net.cpp:113] Setting up inception_5b/pool_proj
I1215 11:38:58.055580 25197 net.cpp:120] Top shape: 50 128 7 7 (313600)
I1215 11:38:58.055598 25197 layer_factory.hpp:74] Creating layer inception_5b/relu_pool_proj
I1215 11:38:58.055606 25197 net.cpp:84] Creating Layer inception_5b/relu_pool_proj
I1215 11:38:58.055613 25197 net.cpp:380] inception_5b/relu_pool_proj <- inception_5b/pool_proj
I1215 11:38:58.055619 25197 net.cpp:327] inception_5b/relu_pool_proj -> inception_5b/pool_proj (in-place)
I1215 11:38:58.055625 25197 net.cpp:113] Setting up inception_5b/relu_pool_proj
I1215 11:38:58.055696 25197 net.cpp:120] Top shape: 50 128 7 7 (313600)
I1215 11:38:58.055701 25197 layer_factory.hpp:74] Creating layer inception_5b/output
I1215 11:38:58.055709 25197 net.cpp:84] Creating Layer inception_5b/output
I1215 11:38:58.055714 25197 net.cpp:380] inception_5b/output <- inception_5b/1x1
I1215 11:38:58.055721 25197 net.cpp:380] inception_5b/output <- inception_5b/3x3
I1215 11:38:58.055726 25197 net.cpp:380] inception_5b/output <- inception_5b/5x5
I1215 11:38:58.055730 25197 net.cpp:380] inception_5b/output <- inception_5b/pool_proj
I1215 11:38:58.055735 25197 net.cpp:338] inception_5b/output -> inception_5b/output
I1215 11:38:58.055742 25197 net.cpp:113] Setting up inception_5b/output
I1215 11:38:58.055753 25197 net.cpp:120] Top shape: 50 1024 7 7 (2508800)
I1215 11:38:58.055758 25197 layer_factory.hpp:74] Creating layer pool5/7x7_s1
I1215 11:38:58.055766 25197 net.cpp:84] Creating Layer pool5/7x7_s1
I1215 11:38:58.055770 25197 net.cpp:380] pool5/7x7_s1 <- inception_5b/output
I1215 11:38:58.055776 25197 net.cpp:338] pool5/7x7_s1 -> pool5/7x7_s1
I1215 11:38:58.055783 25197 net.cpp:113] Setting up pool5/7x7_s1
I1215 11:38:58.055852 25197 net.cpp:120] Top shape: 50 1024 1 1 (51200)
I1215 11:38:58.055860 25197 layer_factory.hpp:74] Creating layer pool5/drop_7x7_s1
I1215 11:38:58.055866 25197 net.cpp:84] Creating Layer pool5/drop_7x7_s1
I1215 11:38:58.055871 25197 net.cpp:380] pool5/drop_7x7_s1 <- pool5/7x7_s1
I1215 11:38:58.055876 25197 net.cpp:327] pool5/drop_7x7_s1 -> pool5/7x7_s1 (in-place)
I1215 11:38:58.055883 25197 net.cpp:113] Setting up pool5/drop_7x7_s1
I1215 11:38:58.055891 25197 net.cpp:120] Top shape: 50 1024 1 1 (51200)
I1215 11:38:58.055894 25197 layer_factory.hpp:74] Creating layer loss3/classifier_kaggle
I1215 11:38:58.055902 25197 net.cpp:84] Creating Layer loss3/classifier_kaggle
I1215 11:38:58.055907 25197 net.cpp:380] loss3/classifier_kaggle <- pool5/7x7_s1
I1215 11:38:58.055915 25197 net.cpp:338] loss3/classifier_kaggle -> loss3/classifier_kaggle
I1215 11:38:58.055922 25197 net.cpp:113] Setting up loss3/classifier_kaggle
I1215 11:38:58.060840 25197 net.cpp:120] Top shape: 50 447 (22350)
I1215 11:38:58.060852 25197 layer_factory.hpp:74] Creating layer loss3/classifier_kaggle_loss3/classifier_kaggle_0_split
I1215 11:38:58.060858 25197 net.cpp:84] Creating Layer loss3/classifier_kaggle_loss3/classifier_kaggle_0_split
I1215 11:38:58.060863 25197 net.cpp:380] loss3/classifier_kaggle_loss3/classifier_kaggle_0_split <- loss3/classifier_kaggle
I1215 11:38:58.060871 25197 net.cpp:338] loss3/classifier_kaggle_loss3/classifier_kaggle_0_split -> loss3/classifier_kaggle_loss3/classifier_kaggle_0_split_0
I1215 11:38:58.060879 25197 net.cpp:338] loss3/classifier_kaggle_loss3/classifier_kaggle_0_split -> loss3/classifier_kaggle_loss3/classifier_kaggle_0_split_1
I1215 11:38:58.060886 25197 net.cpp:338] loss3/classifier_kaggle_loss3/classifier_kaggle_0_split -> loss3/classifier_kaggle_loss3/classifier_kaggle_0_split_2
I1215 11:38:58.060900 25197 net.cpp:113] Setting up loss3/classifier_kaggle_loss3/classifier_kaggle_0_split
I1215 11:38:58.060915 25197 net.cpp:120] Top shape: 50 447 (22350)
I1215 11:38:58.060920 25197 net.cpp:120] Top shape: 50 447 (22350)
I1215 11:38:58.060925 25197 net.cpp:120] Top shape: 50 447 (22350)
I1215 11:38:58.060930 25197 layer_factory.hpp:74] Creating layer loss3/loss3
I1215 11:38:58.060936 25197 net.cpp:84] Creating Layer loss3/loss3
I1215 11:38:58.060940 25197 net.cpp:380] loss3/loss3 <- loss3/classifier_kaggle_loss3/classifier_kaggle_0_split_0
I1215 11:38:58.060948 25197 net.cpp:380] loss3/loss3 <- label_data_1_split_6
I1215 11:38:58.060955 25197 net.cpp:338] loss3/loss3 -> loss3/loss3
…
