…
I0107 16:27:07.595299  8078 net.cpp:257] The NetState phase (0) differed from the phase (1) specified by a rule in layer loss3/top-5
I0107 16:27:07.596657  8078 net.cpp:42] Initializing net from parameters: 
name: "MYNET"
state {
  phase: TRAIN
}
layer {
  name: "data"
  type: "ImageData"
  top: "data"
  top: "label"
  include {
    phase: TRAIN
  }
  transform_param {
    mirror: false
    crop_size: 224
    mean_value: 129
    mean_value: 129
    mean_value: 129
  }
  image_data_param {
    source: "/home/coldmanck/kaggle/label_train_full_resize_rotated.txt"
    batch_size: 80
    shuffle: true
  }
}
layer {
  name: "conv1/7x7_s2"
  type: "Convolution"
  bottom: "data"
  top: "conv1/7x7_s2"
  param {
    lr_mult: 1
    decay_mult: 1
  }
  param {
    lr_mult: 2
    decay_mult: 0
  }
  convolution_param {
    num_output: 64
    pad: 3
    kernel_size: 7
    stride: 2
    weight_filler {
      type: "xavier"
    }
    bias_filler {
      type: "constant"
      value: 0.2
    }
  }
}
layer {
  name: "conv1/relu_7x7"
  type: "ReLU"
  bottom: "conv1/7x7_s2"
  top: "conv1/7x7_s2"
}
layer {
  name: "pool1/3x3_s2"
  type: "Pooling"
  bottom: "conv1/7x7_s2"
  top: "pool1/3x3_s2"
  pooling_param {
    pool: MAX
    kernel_size: 3
    stride: 2
  }
}
layer {
  name: "pool1/norm1"
  type: "LRN"
  bottom: "pool1/3x3_s2"
  top: "pool1/norm1"
  lrn_param {
    local_size: 5
    alpha: 0.0001
    beta: 0.75
  }
}
layer {
  name: "conv2/3x3_reduce"
  type: "Convolution"
  bottom: "pool1/norm1"
  top: "conv2/3x3_reduce"
  param {
    lr_mult: 1
    decay_mult: 1
  }
  param {
    lr_mult: 2
    decay_mult: 0
  }
  convolution_param {
    num_output: 64
    kernel_size: 1
    weight_filler {
      type: "xavier"
    }
    bias_filler {
      type: "constant"
      value: 0.2
    }
  }
}
layer {
  name: "conv2/relu_3x3_reduce"
  type: "ReLU"
  bottom: "conv2/3x3_reduce"
  top: "conv2/3x3_reduce"
}
layer {
  name: "conv2/3x3"
  type: "Convolution"
  bottom: "conv2/3x3_reduce"
  top: "conv2/3x3"
  param {
    lr_mult: 1
    decay_mult: 1
  }
  param {
    lr_mult: 2
    decay_mult: 0
  }
  convolution_param {
    num_output: 192
    pad: 1
    kernel_size: 3
    weight_filler {
      type: "xavier"
    }
    bias_filler {
      type: "constant"
      value: 0.2
    }
  }
}
layer {
  name: "conv2/relu_3x3"
  type: "ReLU"
  bottom: "conv2/3x3"
  top: "conv2/3x3"
}
layer {
  name: "conv2/norm2"
  type: "LRN"
  bottom: "conv2/3x3"
  top: "conv2/norm2"
  lrn_param {
    local_size: 5
    alpha: 0.0001
    beta: 0.75
  }
}
layer {
  name: "pool2/3x3_s2"
  type: "Pooling"
  bottom: "conv2/norm2"
  top: "pool2/3x3_s2"
  pooling_param {
    pool: MAX
    kernel_size: 3
    stride: 2
  }
}
layer {
  name: "inception_3a/1x1"
  type: "Convolution"
  bottom: "pool2/3x3_s2"
  top: "inception_3a/1x1"
  param {
    lr_mult: 1
    decay_mult: 1
  }
  param {
    lr_mult: 2
    decay_mult: 0
  }
  convolution_param {
    num_output: 64
    kernel_size: 1
    weight_filler {
      type: "xavier"
    }
    bias_filler {
      type: "constant"
      value: 0.2
    }
  }
}
layer {
  name: "inception_3a/relu_1x1"
  type: "ReLU"
  bottom: "inception_3a/1x1"
  top: "inception_3a/1x1"
}
layer {
  name: "inception_3a/3x3_reduce"
  type: "Convolution"
  bottom: "pool2/3x3_s2"
  top: "inception_3a/3x3_reduce"
  param {
    lr_mult: 1
    decay_mult: 1
  }
  param {
    lr_mult: 2
    decay_mult: 0
  }
  convolution_param {
    num_output: 96
    kernel_size: 1
    weight_filler {
      type: "xavier"
    }
    bias_filler {
      type: "constant"
      value: 0.2
    }
  }
}
layer {
  name: "inception_3a/relu_3x3_reduce"
  type: "ReLU"
  bottom: "inception_3a/3x3_reduce"
  top: "inception_3a/3x3_reduce"
}
layer {
  name: "inception_3a/3x3"
  type: "Convolution"
  bottom: "inception_3a/3x3_reduce"
  top: "inception_3a/3x3"
  param {
    lr_mult: 1
    decay_mult: 1
  }
  param {
    lr_mult: 2
    decay_mult: 0
  }
  convolution_param {
    num_output: 128
    pad: 1
    kernel_size: 3
    weight_filler {
      type: "xavier"
    }
    bias_filler {
      type: "constant"
      value: 0.2
    }
  }
}
layer {
  name: "inception_3a/relu_3x3"
  type: "ReLU"
  bottom: "inception_3a/3x3"
  top: "inception_3a/3x3"
}
layer {
  name: "inception_3a/5x5_reduce"
  type: "Convolution"
  bottom: "pool2/3x3_s2"
  top: "inception_3a/5x5_reduce"
  param {
    lr_mult: 1
    decay_mult: 1
  }
  param {
    lr_mult: 2
    decay_mult: 0
  }
  convolution_param {
    num_output: 16
    kernel_size: 1
    weight_filler {
      type: "xavier"
    }
    bias_filler {
      type: "constant"
      value: 0.2
    }
  }
}
layer {
  name: "inception_3a/relu_5x5_reduce"
  type: "ReLU"
  bottom: "inception_3a/5x5_reduce"
  top: "inception_3a/5x5_reduce"
}
layer {
  name: "inception_3a/5x5"
  type: "Convolution"
  bottom: "inception_3a/5x5_reduce"
  top: "inception_3a/5x5"
  param {
    lr_mult: 1
    decay_mult: 1
  }
  param {
    lr_mult: 2
    decay_mult: 0
  }
  convolution_param {
    num_output: 32
    pad: 2
    kernel_size: 5
    weight_filler {
      type: "xavier"
    }
    bias_filler {
      type: "constant"
      value: 0.2
    }
  }
}
layer {
  name: "inception_3a/relu_5x5"
  type: "ReLU"
  bottom: "inception_3a/5x5"
  top: "inception_3a/5x5"
}
layer {
  name: "inception_3a/pool"
  type: "Pooling"
  bottom: "pool2/3x3_s2"
  top: "inception_3a/pool"
  pooling_param {
    pool: MAX
    kernel_size: 3
    stride: 1
    pad: 1
  }
}
layer {
  name: "inception_3a/pool_proj"
  type: "Convolution"
  bottom: "inception_3a/pool"
  top: "inception_3a/pool_proj"
  param {
    lr_mult: 1
    decay_mult: 1
  }
  param {
    lr_mult: 2
    decay_mult: 0
  }
  convolution_param {
    num_output: 32
    kernel_size: 1
    weight_filler {
      type: "xavier"
    }
    bias_filler {
      type: "constant"
      value: 0.2
    }
  }
}
layer {
  name: "inception_3a/relu_pool_proj"
  type: "ReLU"
  bottom: "inception_3a/pool_proj"
  top: "inception_3a/pool_proj"
}
layer {
  name: "inception_3a/output"
  type: "Concat"
  bottom: "inception_3a/1x1"
  bottom: "inception_3a/3x3"
  bottom: "inception_3a/5x5"
  bottom: "inception_3a/pool_proj"
  top: "inception_3a/output"
}
layer {
  name: "inception_3b/1x1"
  type: "Convolution"
  bottom: "inception_3a/output"
  top: "inception_3b/1x1"
  param {
    lr_mult: 1
    decay_mult: 1
  }
  param {
    lr_mult: 2
    decay_mult: 0
  }
  convolution_param {
    num_output: 128
    kernel_size: 1
    weight_filler {
      type: "xavier"
    }
    bias_filler {
      type: "constant"
      value: 0.2
    }
  }
}
layer {
  name: "inception_3b/relu_1x1"
  type: "ReLU"
  bottom: "inception_3b/1x1"
  top: "inception_3b/1x1"
}
layer {
  name: "inception_3b/3x3_reduce"
  type: "Convolution"
  bottom: "inception_3a/output"
  top: "inception_3b/3x3_reduce"
  param {
    lr_mult: 1
    decay_mult: 1
  }
  param {
    lr_mult: 2
    decay_mult: 0
  }
  convolution_param {
    num_output: 128
    kernel_size: 1
    weight_filler {
      type: "xavier"
    }
    bias_filler {
      type: "constant"
      value: 0.2
    }
  }
}
layer {
  name: "inception_3b/relu_3x3_reduce"
  type: "ReLU"
  bottom: "inception_3b/3x3_reduce"
  top: "inception_3b/3x3_reduce"
}
layer {
  name: "inception_3b/3x3"
  type: "Convolution"
  bottom: "inception_3b/3x3_reduce"
  top: "inception_3b/3x3"
  param {
    lr_mult: 1
    decay_mult: 1
  }
  param {
    lr_mult: 2
    decay_mult: 0
  }
  convolution_param {
    num_output: 192
    pad: 1
    kernel_size: 3
    weight_filler {
      type: "xavier"
    }
    bias_filler {
      type: "constant"
      value: 0.2
    }
  }
}
layer {
  name: "inception_3b/relu_3x3"
  type: "ReLU"
  bottom: "inception_3b/3x3"
  top: "inception_3b/3x3"
}
layer {
  name: "inception_3b/5x5_reduce"
  type: "Convolution"
  bottom: "inception_3a/output"
  top: "inception_3b/5x5_reduce"
  param {
    lr_mult: 1
    decay_mult: 1
  }
  param {
    lr_mult: 2
    decay_mult: 0
  }
  convolution_param {
    num_output: 32
    kernel_size: 1
    weight_filler {
      type: "xavier"
    }
    bias_filler {
      type: "constant"
      value: 0.2
    }
  }
}
layer {
  name: "inception_3b/relu_5x5_reduce"
  type: "ReLU"
  bottom: "inception_3b/5x5_reduce"
  top: "inception_3b/5x5_reduce"
}
layer {
  name: "inception_3b/5x5"
  type: "Convolution"
  bottom: "inception_3b/5x5_reduce"
  top: "inception_3b/5x5"
  param {
    lr_mult: 1
    decay_mult: 1
  }
  param {
    lr_mult: 2
    decay_mult: 0
  }
  convolution_param {
    num_output: 96
    pad: 2
    kernel_size: 5
    weight_filler {
      type: "xavier"
    }
    bias_filler {
      type: "constant"
      value: 0.2
    }
  }
}
layer {
  name: "inception_3b/relu_5x5"
  type: "ReLU"
  bottom: "inception_3b/5x5"
  top: "inception_3b/5x5"
}
layer {
  name: "inception_3b/pool"
  type: "Pooling"
  bottom: "inception_3a/output"
  top: "inception_3b/pool"
  pooling_param {
    pool: MAX
    kernel_size: 3
    stride: 1
    pad: 1
  }
}
layer {
  name: "inception_3b/pool_proj"
  type: "Convolution"
  bottom: "inception_3b/pool"
  top: "inception_3b/pool_proj"
  param {
    lr_mult: 1
    decay_mult: 1
  }
  param {
    lr_mult: 2
    decay_mult: 0
  }
  convolution_param {
    num_output: 64
    kernel_size: 1
    weight_filler {
      type: "xavier"
    }
    bias_filler {
      type: "constant"
      value: 0.2
    }
  }
}
layer {
  name: "inception_3b/relu_pool_proj"
  type: "ReLU"
  bottom: "inception_3b/pool_proj"
  top: "inception_3b/pool_proj"
}
layer {
  name: "inception_3b/output"
  type: "Concat"
  bottom: "inception_3b/1x1"
  bottom: "inception_3b/3x3"
  bottom: "inception_3b/5x5"
  bottom: "inception_3b/pool_proj"
  top: "inception_3b/output"
}
layer {
  name: "pool3/3x3_s2"
  type: "Pooling"
  bottom: "inception_3b/output"
  top: "pool3/3x3_s2"
  pooling_param {
    pool: MAX
    kernel_size: 3
    stride: 2
  }
}
layer {
  name: "inception_4a/1x1"
  type: "Convolution"
  bottom: "pool3/3x3_s2"
  top: "inception_4a/1x1"
  param {
    lr_mult: 1
    decay_mult: 1
  }
  param {
    lr_mult: 2
    decay_mult: 0
  }
  convolution_param {
    num_output: 192
    kernel_size: 1
    weight_filler {
      type: "xavier"
    }
    bias_filler {
      type: "constant"
      value: 0.2
    }
  }
}
layer {
  name: "inception_4a/relu_1x1"
  type: "ReLU"
  bottom: "inception_4a/1x1"
  top: "inception_4a/1x1"
}
layer {
  name: "inception_4a/3x3_reduce"
  type: "Convolution"
  bottom: "pool3/3x3_s2"
  top: "inception_4a/3x3_reduce"
  param {
    lr_mult: 1
    decay_mult: 1
  }
  param {
    lr_mult: 2
    decay_mult: 0
  }
  convolution_param {
    num_output: 96
    kernel_size: 1
    weight_filler {
      type: "xavier"
    }
    bias_filler {
      type: "constant"
      value: 0.2
    }
  }
}
layer {
  name: "inception_4a/relu_3x3_reduce"
  type: "ReLU"
  bottom: "inception_4a/3x3_reduce"
  top: "inception_4a/3x3_reduce"
}
layer {
  name: "inception_4a/3x3"
  type: "Convolution"
  bottom: "inception_4a/3x3_reduce"
  top: "inception_4a/3x3"
  param {
    lr_mult: 1
    decay_mult: 1
  }
  param {
    lr_mult: 2
    decay_mult: 0
  }
  convolution_param {
    num_output: 208
    pad: 1
    kernel_size: 3
    weight_filler {
      type: "xavier"
    }
    bias_filler {
      type: "constant"
      value: 0.2
    }
  }
}
layer {
  name: "inception_4a/relu_3x3"
  type: "ReLU"
  bottom: "inception_4a/3x3"
  top: "inception_4a/3x3"
}
layer {
  name: "inception_4a/5x5_reduce"
  type: "Convolution"
  bottom: "pool3/3x3_s2"
  top: "inception_4a/5x5_reduce"
  param {
    lr_mult: 1
    decay_mult: 1
  }
  param {
    lr_mult: 2
    decay_mult: 0
  }
  convolution_param {
    num_output: 16
    kernel_size: 1
    weight_filler {
      type: "xavier"
    }
    bias_filler {
      type: "constant"
      value: 0.2
    }
  }
}
layer {
  name: "inception_4a/relu_5x5_reduce"
  type: "ReLU"
  bottom: "inception_4a/5x5_reduce"
  top: "inception_4a/5x5_reduce"
}
layer {
  name: "inception_4a/5x5"
  type: "Convolution"
  bottom: "inception_4a/5x5_reduce"
  top: "inception_4a/5x5"
  param {
    lr_mult: 1
    decay_mult: 1
  }
  param {
    lr_mult: 2
    decay_mult: 0
  }
  convolution_param {
    num_output: 48
    pad: 2
    kernel_size: 5
    weight_filler {
      type: "xavier"
    }
    bias_filler {
      type: "constant"
      value: 0.2
    }
  }
}
layer {
  name: "inception_4a/relu_5x5"
  type: "ReLU"
  bottom: "inception_4a/5x5"
  top: "inception_4a/5x5"
}
layer {
  name: "inception_4a/pool"
  type: "Pooling"
  bottom: "pool3/3x3_s2"
  top: "inception_4a/pool"
  pooling_param {
    pool: MAX
    kernel_size: 3
    stride: 1
    pad: 1
  }
}
layer {
  name: "inception_4a/pool_proj"
  type: "Convolution"
  bottom: "inception_4a/pool"
  top: "inception_4a/pool_proj"
  param {
    lr_mult: 1
    decay_mult: 1
  }
  param {
    lr_mult: 2
    decay_mult: 0
  }
  convolution_param {
    num_output: 64
    kernel_size: 1
    weight_filler {
      type: "xavier"
    }
    bias_filler {
      type: "constant"
      value: 0.2
    }
  }
}
layer {
  name: "inception_4a/relu_pool_proj"
  type: "ReLU"
  bottom: "inception_4a/pool_proj"
  top: "inception_4a/pool_proj"
}
layer {
  name: "inception_4a/output"
  type: "Concat"
  bottom: "inception_4a/1x1"
  bottom: "inception_4a/3x3"
  bottom: "inception_4a/5x5"
  bottom: "inception_4a/pool_proj"
  top: "inception_4a/output"
}
layer {
  name: "loss1/ave_pool"
  type: "Pooling"
  bottom: "inception_4a/output"
  top: "loss1/ave_pool"
  pooling_param {
    pool: AVE
    kernel_size: 5
    stride: 3
  }
}
layer {
  name: "loss1/conv"
  type: "Convolution"
  bottom: "loss1/ave_pool"
  top: "loss1/conv"
  param {
    lr_mult: 1
    decay_mult: 1
  }
  param {
    lr_mult: 2
    decay_mult: 0
  }
  convolution_param {
    num_output: 128
    kernel_size: 1
    weight_filler {
      type: "xavier"
    }
    bias_filler {
      type: "constant"
      value: 0.2
    }
  }
}
layer {
  name: "loss1/relu_conv"
  type: "ReLU"
  bottom: "loss1/conv"
  top: "loss1/conv"
}
layer {
  name: "loss1/fc"
  type: "InnerProduct"
  bottom: "loss1/conv"
  top: "loss1/fc"
  param {
    lr_mult: 1
    decay_mult: 1
  }
  param {
    lr_mult: 2
    decay_mult: 0
  }
  inner_product_param {
    num_output: 1024
    weight_filler {
      type: "xavier"
    }
    bias_filler {
      type: "constant"
      value: 0.2
    }
  }
}
layer {
  name: "loss1/relu_fc"
  type: "ReLU"
  bottom: "loss1/fc"
  top: "loss1/fc"
}
layer {
  name: "loss1/drop_fc"
  type: "Dropout"
  bottom: "loss1/fc"
  top: "loss1/fc"
  dropout_param {
    dropout_ratio: 0.7
  }
}
layer {
  name: "loss1/classifier_kaggle"
  type: "InnerProduct"
  bottom: "loss1/fc"
  top: "loss1/classifier_kaggle"
  param {
    lr_mult: 1
    decay_mult: 1
  }
  param {
    lr_mult: 2
    decay_mult: 0
  }
  inner_product_param {
    num_output: 447
    weight_filler {
      type: "xavier"
    }
    bias_filler {
      type: "constant"
      value: 0
    }
  }
}
layer {
  name: "loss1/loss"
  type: "SoftmaxWithLoss"
  bottom: "loss1/classifier_kaggle"
  bottom: "label"
  top: "loss1/loss1"
  loss_weight: 0.3
}
layer {
  name: "inception_4b/1x1"
  type: "Convolution"
  bottom: "inception_4a/output"
  top: "inception_4b/1x1"
  param {
    lr_mult: 1
    decay_mult: 1
  }
  param {
    lr_mult: 2
    decay_mult: 0
  }
  convolution_param {
    num_output: 160
    kernel_size: 1
    weight_filler {
      type: "xavier"
    }
    bias_filler {
      type: "constant"
      value: 0.2
    }
  }
}
layer {
  name: "inception_4b/relu_1x1"
  type: "ReLU"
  bottom: "inception_4b/1x1"
  top: "inception_4b/1x1"
}
layer {
  name: "inception_4b/3x3_reduce"
  type: "Convolution"
  bottom: "inception_4a/output"
  top: "inception_4b/3x3_reduce"
  param {
    lr_mult: 1
    decay_mult: 1
  }
  param {
    lr_mult: 2
    decay_mult: 0
  }
  convolution_param {
    num_output: 112
    kernel_size: 1
    weight_filler {
      type: "xavier"
    }
    bias_filler {
      type: "constant"
      value: 0.2
    }
  }
}
layer {
  name: "inception_4b/relu_3x3_reduce"
  type: "ReLU"
  bottom: "inception_4b/3x3_reduce"
  top: "inception_4b/3x3_reduce"
}
layer {
  name: "inception_4b/3x3"
  type: "Convolution"
  bottom: "inception_4b/3x3_reduce"
  top: "inception_4b/3x3"
  param {
    lr_mult: 1
    decay_mult: 1
  }
  param {
    lr_mult: 2
    decay_mult: 0
  }
  convolution_param {
    num_output: 224
    pad: 1
    kernel_size: 3
    weight_filler {
      type: "xavier"
    }
    bias_filler {
      type: "constant"
      value: 0.2
    }
  }
}
layer {
  name: "inception_4b/relu_3x3"
  type: "ReLU"
  bottom: "inception_4b/3x3"
  top: "inception_4b/3x3"
}
layer {
  name: "inception_4b/5x5_reduce"
  type: "Convolution"
  bottom: "inception_4a/output"
  top: "inception_4b/5x5_reduce"
  param {
    lr_mult: 1
    decay_mult: 1
  }
  param {
    lr_mult: 2
    decay_mult: 0
  }
  convolution_param {
    num_output: 24
    kernel_size: 1
    weight_filler {
      type: "xavier"
    }
    bias_filler {
      type: "constant"
      value: 0.2
    }
  }
}
layer {
  name: "inception_4b/relu_5x5_reduce"
  type: "ReLU"
  bottom: "inception_4b/5x5_reduce"
  top: "inception_4b/5x5_reduce"
}
layer {
  name: "inception_4b/5x5"
  type: "Convolution"
  bottom: "inception_4b/5x5_reduce"
  top: "inception_4b/5x5"
  param {
    lr_mult: 1
    decay_mult: 1
  }
  param {
    lr_mult: 2
    decay_mult: 0
  }
  convolution_param {
    num_output: 64
    pad: 2
    kernel_size: 5
    weight_filler {
      type: "xavier"
    }
    bias_filler {
      type: "constant"
      value: 0.2
    }
  }
}
layer {
  name: "inception_4b/relu_5x5"
  type: "ReLU"
  bottom: "inception_4b/5x5"
  top: "inception_4b/5x5"
}
layer {
  name: "inception_4b/pool"
  type: "Pooling"
  bottom: "inception_4a/output"
  top: "inception_4b/pool"
  pooling_param {
    pool: MAX
    kernel_size: 3
    stride: 1
    pad: 1
  }
}
layer {
  name: "inception_4b/pool_proj"
  type: "Convolution"
  bottom: "inception_4b/pool"
  top: "inception_4b/pool_proj"
  param {
    lr_mult: 1
    decay_mult: 1
  }
  param {
    lr_mult: 2
    decay_mult: 0
  }
  convolution_param {
    num_output: 64
    kernel_size: 1
    weight_filler {
      type: "xavier"
    }
    bias_filler {
      type: "constant"
      value: 0.2
    }
  }
}
layer {
  name: "inception_4b/relu_pool_proj"
  type: "ReLU"
  bottom: "inception_4b/pool_proj"
  top: "inception_4b/pool_proj"
}
layer {
  name: "inception_4b/output"
  type: "Concat"
  bottom: "inception_4b/1x1"
  bottom: "inception_4b/3x3"
  bottom: "inception_4b/5x5"
  bottom: "inception_4b/pool_proj"
  top: "inception_4b/output"
}
layer {
  name: "inception_4c/1x1"
  type: "Convolution"
  bottom: "inception_4b/output"
  top: "inception_4c/1x1"
  param {
    lr_mult: 1
    decay_mult: 1
  }
  param {
    lr_mult: 2
    decay_mult: 0
  }
  convolution_param {
    num_output: 128
    kernel_size: 1
    weight_filler {
      type: "xavier"
    }
    bias_filler {
      type: "constant"
      value: 0.2
    }
  }
}
layer {
  name: "inception_4c/relu_1x1"
  type: "ReLU"
  bottom: "inception_4c/1x1"
  top: "inception_4c/1x1"
}
layer {
  name: "inception_4c/3x3_reduce"
  type: "Convolution"
  bottom: "inception_4b/output"
  top: "inception_4c/3x3_reduce"
  param {
    lr_mult: 1
    decay_mult: 1
  }
  param {
    lr_mult: 2
    decay_mult: 0
  }
  convolution_param {
    num_output: 128
    kernel_size: 1
    weight_filler {
      type: "xavier"
    }
    bias_filler {
      type: "constant"
      value: 0.2
    }
  }
}
layer {
  name: "inception_4c/relu_3x3_reduce"
  type: "ReLU"
  bottom: "inception_4c/3x3_reduce"
  top: "inception_4c/3x3_reduce"
}
layer {
  name: "inception_4c/3x3"
  type: "Convolution"
  bottom: "inception_4c/3x3_reduce"
  top: "inception_4c/3x3"
  param {
    lr_mult: 1
    decay_mult: 1
  }
  param {
    lr_mult: 2
    decay_mult: 0
  }
  convolution_param {
    num_output: 256
    pad: 1
    kernel_size: 3
    weight_filler {
      type: "xavier"
    }
    bias_filler {
      type: "constant"
      value: 0.2
    }
  }
}
layer {
  name: "inception_4c/relu_3x3"
  type: "ReLU"
  bottom: "inception_4c/3x3"
  top: "inception_4c/3x3"
}
layer {
  name: "inception_4c/5x5_reduce"
  type: "Convolution"
  bottom: "inception_4b/output"
  top: "inception_4c/5x5_reduce"
  param {
    lr_mult: 1
    decay_mult: 1
  }
  param {
    lr_mult: 2
    decay_mult: 0
  }
  convolution_param {
    num_output: 24
    kernel_size: 1
    weight_filler {
      type: "xavier"
    }
    bias_filler {
      type: "constant"
      value: 0.2
    }
  }
}
layer {
  name: "inception_4c/relu_5x5_reduce"
  type: "ReLU"
  bottom: "inception_4c/5x5_reduce"
  top: "inception_4c/5x5_reduce"
}
layer {
  name: "inception_4c/5x5"
  type: "Convolution"
  bottom: "inception_4c/5x5_reduce"
  top: "inception_4c/5x5"
  param {
    lr_mult: 1
    decay_mult: 1
  }
  param {
    lr_mult: 2
    decay_mult: 0
  }
  convolution_param {
    num_output: 64
    pad: 2
    kernel_size: 5
    weight_filler {
      type: "xavier"
    }
    bias_filler {
      type: "constant"
      value: 0.2
    }
  }
}
layer {
  name: "inception_4c/relu_5x5"
  type: "ReLU"
  bottom: "inception_4c/5x5"
  top: "inception_4c/5x5"
}
layer {
  name: "inception_4c/pool"
  type: "Pooling"
  bottom: "inception_4b/output"
  top: "inception_4c/pool"
  pooling_param {
    pool: MAX
    kernel_size: 3
    stride: 1
    pad: 1
  }
}
layer {
  name: "inception_4c/pool_proj"
  type: "Convolution"
  bottom: "inception_4c/pool"
  top: "inception_4c/pool_proj"
  param {
    lr_mult: 1
    decay_mult: 1
  }
  param {
    lr_mult: 2
    decay_mult: 0
  }
  convolution_param {
    num_output: 64
    kernel_size: 1
    weight_filler {
      type: "xavier"
    }
    bias_filler {
      type: "constant"
      value: 0.2
    }
  }
}
layer {
  name: "inception_4c/relu_pool_proj"
  type: "ReLU"
  bottom: "inception_4c/pool_proj"
  top: "inception_4c/pool_proj"
}
layer {
  name: "inception_4c/output"
  type: "Concat"
  bottom: "inception_4c/1x1"
  bottom: "inception_4c/3x3"
  bottom: "inception_4c/5x5"
  bottom: "inception_4c/pool_proj"
  top: "inception_4c/output"
}
layer {
  name: "inception_4d/1x1"
  type: "Convolution"
  bottom: "inception_4c/output"
  top: "inception_4d/1x1"
  param {
    lr_mult: 1
    decay_mult: 1
  }
  param {
    lr_mult: 2
    decay_mult: 0
  }
  convolution_param {
    num_output: 112
    kernel_size: 1
    weight_filler {
      type: "xavier"
    }
    bias_filler {
      type: "constant"
      value: 0.2
    }
  }
}
layer {
  name: "inception_4d/relu_1x1"
  type: "ReLU"
  bottom: "inception_4d/1x1"
  top: "inception_4d/1x1"
}
layer {
  name: "inception_4d/3x3_reduce"
  type: "Convolution"
  bottom: "inception_4c/output"
  top: "inception_4d/3x3_reduce"
  param {
    lr_mult: 1
    decay_mult: 1
  }
  param {
    lr_mult: 2
    decay_mult: 0
  }
  convolution_param {
    num_output: 144
    kernel_size: 1
    weight_filler {
      type: "xavier"
    }
    bias_filler {
      type: "constant"
      value: 0.2
    }
  }
}
layer {
  name: "inception_4d/relu_3x3_reduce"
  type: "ReLU"
  bottom: "inception_4d/3x3_reduce"
  top: "inception_4d/3x3_reduce"
}
layer {
  name: "inception_4d/3x3"
  type: "Convolution"
  bottom: "inception_4d/3x3_reduce"
  top: "inception_4d/3x3"
  param {
    lr_mult: 1
    decay_mult: 1
  }
  param {
    lr_mult: 2
    decay_mult: 0
  }
  convolution_param {
    num_output: 288
    pad: 1
    kernel_size: 3
    weight_filler {
      type: "xavier"
    }
    bias_filler {
      type: "constant"
      value: 0.2
    }
  }
}
layer {
  name: "inception_4d/relu_3x3"
  type: "ReLU"
  bottom: "inception_4d/3x3"
  top: "inception_4d/3x3"
}
layer {
  name: "inception_4d/5x5_reduce"
  type: "Convolution"
  bottom: "inception_4c/output"
  top: "inception_4d/5x5_reduce"
  param {
    lr_mult: 1
    decay_mult: 1
  }
  param {
    lr_mult: 2
    decay_mult: 0
  }
  convolution_param {
    num_output: 32
    kernel_size: 1
    weight_filler {
      type: "xavier"
    }
    bias_filler {
      type: "constant"
      value: 0.2
    }
  }
}
layer {
  name: "inception_4d/relu_5x5_reduce"
  type: "ReLU"
  bottom: "inception_4d/5x5_reduce"
  top: "inception_4d/5x5_reduce"
}
layer {
  name: "inception_4d/5x5"
  type: "Convolution"
  bottom: "inception_4d/5x5_reduce"
  top: "inception_4d/5x5"
  param {
    lr_mult: 1
    decay_mult: 1
  }
  param {
    lr_mult: 2
    decay_mult: 0
  }
  convolution_param {
    num_output: 64
    pad: 2
    kernel_size: 5
    weight_filler {
      type: "xavier"
    }
    bias_filler {
      type: "constant"
      value: 0.2
    }
  }
}
layer {
  name: "inception_4d/relu_5x5"
  type: "ReLU"
  bottom: "inception_4d/5x5"
  top: "inception_4d/5x5"
}
layer {
  name: "inception_4d/pool"
  type: "Pooling"
  bottom: "inception_4c/output"
  top: "inception_4d/pool"
  pooling_param {
    pool: MAX
    kernel_size: 3
    stride: 1
    pad: 1
  }
}
layer {
  name: "inception_4d/pool_proj"
  type: "Convolution"
  bottom: "inception_4d/pool"
  top: "inception_4d/pool_proj"
  param {
    lr_mult: 1
    decay_mult: 1
  }
  param {
    lr_mult: 2
    decay_mult: 0
  }
  convolution_param {
    num_output: 64
    kernel_size: 1
    weight_filler {
      type: "xavier"
    }
    bias_filler {
      type: "constant"
      value: 0.2
    }
  }
}
layer {
  name: "inception_4d/relu_pool_proj"
  type: "ReLU"
  bottom: "inception_4d/pool_proj"
  top: "inception_4d/pool_proj"
}
layer {
  name: "inception_4d/output"
  type: "Concat"
  bottom: "inception_4d/1x1"
  bottom: "inception_4d/3x3"
  bottom: "inception_4d/5x5"
  bottom: "inception_4d/pool_proj"
  top: "inception_4d/output"
}
layer {
  name: "loss2/ave_pool"
  type: "Pooling"
  bottom: "inception_4d/output"
  top: "loss2/ave_pool"
  pooling_param {
    pool: AVE
    kernel_size: 5
    stride: 3
  }
}
layer {
  name: "loss2/conv"
  type: "Convolution"
  bottom: "loss2/ave_pool"
  top: "loss2/conv"
  param {
    lr_mult: 1
    decay_mult: 1
  }
  param {
    lr_mult: 2
    decay_mult: 0
  }
  convolution_param {
    num_output: 128
    kernel_size: 1
    weight_filler {
      type: "xavier"
    }
    bias_filler {
      type: "constant"
      value: 0.2
    }
  }
}
layer {
  name: "loss2/relu_conv"
  type: "ReLU"
  bottom: "loss2/conv"
  top: "loss2/conv"
}
layer {
  name: "loss2/fc"
  type: "InnerProduct"
  bottom: "loss2/conv"
  top: "loss2/fc"
  param {
    lr_mult: 1
    decay_mult: 1
  }
  param {
    lr_mult: 2
    decay_mult: 0
  }
  inner_product_param {
    num_output: 1024
    weight_filler {
      type: "xavier"
    }
    bias_filler {
      type: "constant"
      value: 0.2
    }
  }
}
layer {
  name: "loss2/relu_fc"
  type: "ReLU"
  bottom: "loss2/fc"
  top: "loss2/fc"
}
layer {
  name: "loss2/drop_fc"
  type: "Dropout"
  bottom: "loss2/fc"
  top: "loss2/fc"
  dropout_param {
    dropout_ratio: 0.7
  }
}
layer {
  name: "loss2/classifier_kaggle"
  type: "InnerProduct"
  bottom: "loss2/fc"
  top: "loss2/classifier_kaggle"
  param {
    lr_mult: 1
    decay_mult: 1
  }
  param {
    lr_mult: 2
    decay_mult: 0
  }
  inner_product_param {
    num_output: 447
    weight_filler {
      type: "xavier"
    }
    bias_filler {
      type: "constant"
      value: 0
    }
  }
}
layer {
  name: "loss2/loss"
  type: "SoftmaxWithLoss"
  bottom: "loss2/classifier_kaggle"
  bottom: "label"
  top: "loss2/loss1"
  loss_weight: 0.3
}
layer {
  name: "inception_4e/1x1"
  type: "Convolution"
  bottom: "inception_4d/output"
  top: "inception_4e/1x1"
  param {
    lr_mult: 1
    decay_mult: 1
  }
  param {
    lr_mult: 2
    decay_mult: 0
  }
  convolution_param {
    num_output: 256
    kernel_size: 1
    weight_filler {
      type: "xavier"
    }
    bias_filler {
      type: "constant"
      value: 0.2
    }
  }
}
layer {
  name: "inception_4e/relu_1x1"
  type: "ReLU"
  bottom: "inception_4e/1x1"
  top: "inception_4e/1x1"
}
layer {
  name: "inception_4e/3x3_reduce"
  type: "Convolution"
  bottom: "inception_4d/output"
  top: "inception_4e/3x3_reduce"
  param {
    lr_mult: 1
    decay_mult: 1
  }
  param {
    lr_mult: 2
    decay_mult: 0
  }
  convolution_param {
    num_output: 160
    kernel_size: 1
    weight_filler {
      type: "xavier"
    }
    bias_filler {
      type: "constant"
      value: 0.2
    }
  }
}
layer {
  name: "inception_4e/relu_3x3_reduce"
  type: "ReLU"
  bottom: "inception_4e/3x3_reduce"
  top: "inception_4e/3x3_reduce"
}
layer {
  name: "inception_4e/3x3"
  type: "Convolution"
  bottom: "inception_4e/3x3_reduce"
  top: "inception_4e/3x3"
  param {
    lr_mult: 1
    decay_mult: 1
  }
  param {
    lr_mult: 2
    decay_mult: 0
  }
  convolution_param {
    num_output: 320
    pad: 1
    kernel_size: 3
    weight_filler {
      type: "xavier"
    }
    bias_filler {
      type: "constant"
      value: 0.2
    }
  }
}
layer {
  name: "inception_4e/relu_3x3"
  type: "ReLU"
  bottom: "inception_4e/3x3"
  top: "inception_4e/3x3"
}
layer {
  name: "inception_4e/5x5_reduce"
  type: "Convolution"
  bottom: "inception_4d/output"
  top: "inception_4e/5x5_reduce"
  param {
    lr_mult: 1
    decay_mult: 1
  }
  param {
    lr_mult: 2
    decay_mult: 0
  }
  convolution_param {
    num_output: 32
    kernel_size: 1
    weight_filler {
      type: "xavier"
    }
    bias_filler {
      type: "constant"
      value: 0.2
    }
  }
}
layer {
  name: "inception_4e/relu_5x5_reduce"
  type: "ReLU"
  bottom: "inception_4e/5x5_reduce"
  top: "inception_4e/5x5_reduce"
}
layer {
  name: "inception_4e/5x5"
  type: "Convolution"
  bottom: "inception_4e/5x5_reduce"
  top: "inception_4e/5x5"
  param {
    lr_mult: 1
    decay_mult: 1
  }
  param {
    lr_mult: 2
    decay_mult: 0
  }
  convolution_param {
    num_output: 128
    pad: 2
    kernel_size: 5
    weight_filler {
      type: "xavier"
    }
    bias_filler {
      type: "constant"
      value: 0.2
    }
  }
}
layer {
  name: "inception_4e/relu_5x5"
  type: "ReLU"
  bottom: "inception_4e/5x5"
  top: "inception_4e/5x5"
}
layer {
  name: "inception_4e/pool"
  type: "Pooling"
  bottom: "inception_4d/output"
  top: "inception_4e/po
I0107 16:27:07.597417  8078 layer_factory.hpp:74] Creating layer data
I0107 16:27:07.597456  8078 net.cpp:84] Creating Layer data
I0107 16:27:07.597481  8078 net.cpp:338] data -> data
I0107 16:27:07.597518  8078 net.cpp:338] data -> label
I0107 16:27:07.597530  8078 net.cpp:113] Setting up data
I0107 16:27:07.597540  8078 image_data_layer.cpp:36] Opening file /home/coldmanck/kaggle/label_train_full_resize_rotated.txt
I0107 16:27:07.599784  8078 image_data_layer.cpp:46] Shuffling data
I0107 16:27:07.600555  8078 image_data_layer.cpp:51] A total of 4235 images.
I0107 16:27:07.601974  8078 image_data_layer.cpp:80] output data size: 80,3,224,224
I0107 16:27:07.617746  8078 net.cpp:120] Top shape: 80 3 224 224 (12042240)
I0107 16:27:07.617794  8078 net.cpp:120] Top shape: 80 (80)
I0107 16:27:07.617810  8078 layer_factory.hpp:74] Creating layer label_data_1_split
I0107 16:27:07.617840  8078 net.cpp:84] Creating Layer label_data_1_split
I0107 16:27:07.617851  8078 net.cpp:380] label_data_1_split <- label
I0107 16:27:07.617876  8078 net.cpp:338] label_data_1_split -> label_data_1_split_0
I0107 16:27:07.617910  8078 net.cpp:338] label_data_1_split -> label_data_1_split_1
I0107 16:27:07.617943  8078 net.cpp:338] label_data_1_split -> label_data_1_split_2
I0107 16:27:07.617956  8078 net.cpp:113] Setting up label_data_1_split
I0107 16:27:07.617974  8078 net.cpp:120] Top shape: 80 (80)
I0107 16:27:07.617983  8078 net.cpp:120] Top shape: 80 (80)
I0107 16:27:07.617993  8078 net.cpp:120] Top shape: 80 (80)
I0107 16:27:07.618002  8078 layer_factory.hpp:74] Creating layer conv1/7x7_s2
I0107 16:27:07.618022  8078 net.cpp:84] Creating Layer conv1/7x7_s2
I0107 16:27:07.618031  8078 net.cpp:380] conv1/7x7_s2 <- data
I0107 16:27:07.618047  8078 net.cpp:338] conv1/7x7_s2 -> conv1/7x7_s2
I0107 16:27:07.618065  8078 net.cpp:113] Setting up conv1/7x7_s2
I0107 16:27:07.965224  8078 net.cpp:120] Top shape: 80 64 112 112 (64225280)
I0107 16:27:07.965375  8078 layer_factory.hpp:74] Creating layer conv1/relu_7x7
I0107 16:27:07.965422  8078 net.cpp:84] Creating Layer conv1/relu_7x7
I0107 16:27:07.965442  8078 net.cpp:380] conv1/relu_7x7 <- conv1/7x7_s2
I0107 16:27:07.965497  8078 net.cpp:327] conv1/relu_7x7 -> conv1/7x7_s2 (in-place)
I0107 16:27:07.965523  8078 net.cpp:113] Setting up conv1/relu_7x7
I0107 16:27:07.965915  8078 net.cpp:120] Top shape: 80 64 112 112 (64225280)
I0107 16:27:07.965937  8078 layer_factory.hpp:74] Creating layer pool1/3x3_s2
I0107 16:27:07.965988  8078 net.cpp:84] Creating Layer pool1/3x3_s2
I0107 16:27:07.966001  8078 net.cpp:380] pool1/3x3_s2 <- conv1/7x7_s2
I0107 16:27:07.966014  8078 net.cpp:338] pool1/3x3_s2 -> pool1/3x3_s2
I0107 16:27:07.966030  8078 net.cpp:113] Setting up pool1/3x3_s2
I0107 16:27:07.966173  8078 net.cpp:120] Top shape: 80 64 56 56 (16056320)
I0107 16:27:07.966218  8078 layer_factory.hpp:74] Creating layer pool1/norm1
I0107 16:27:07.966253  8078 net.cpp:84] Creating Layer pool1/norm1
I0107 16:27:07.966262  8078 net.cpp:380] pool1/norm1 <- pool1/3x3_s2
I0107 16:27:07.966274  8078 net.cpp:338] pool1/norm1 -> pool1/norm1
I0107 16:27:07.966290  8078 net.cpp:113] Setting up pool1/norm1
I0107 16:27:07.966305  8078 net.cpp:120] Top shape: 80 64 56 56 (16056320)
I0107 16:27:07.966325  8078 layer_factory.hpp:74] Creating layer conv2/3x3_reduce
I0107 16:27:07.966354  8078 net.cpp:84] Creating Layer conv2/3x3_reduce
I0107 16:27:07.966364  8078 net.cpp:380] conv2/3x3_reduce <- pool1/norm1
I0107 16:27:07.966385  8078 net.cpp:338] conv2/3x3_reduce -> conv2/3x3_reduce
I0107 16:27:07.966405  8078 net.cpp:113] Setting up conv2/3x3_reduce
I0107 16:27:07.967123  8078 net.cpp:120] Top shape: 80 64 56 56 (16056320)
I0107 16:27:07.967154  8078 layer_factory.hpp:74] Creating layer conv2/relu_3x3_reduce
I0107 16:27:07.967182  8078 net.cpp:84] Creating Layer conv2/relu_3x3_reduce
I0107 16:27:07.967193  8078 net.cpp:380] conv2/relu_3x3_reduce <- conv2/3x3_reduce
I0107 16:27:07.967206  8078 net.cpp:327] conv2/relu_3x3_reduce -> conv2/3x3_reduce (in-place)
I0107 16:27:07.967221  8078 net.cpp:113] Setting up conv2/relu_3x3_reduce
I0107 16:27:07.967332  8078 net.cpp:120] Top shape: 80 64 56 56 (16056320)
I0107 16:27:07.967344  8078 layer_factory.hpp:74] Creating layer conv2/3x3
I0107 16:27:07.967371  8078 net.cpp:84] Creating Layer conv2/3x3
I0107 16:27:07.967381  8078 net.cpp:380] conv2/3x3 <- conv2/3x3_reduce
I0107 16:27:07.967403  8078 net.cpp:338] conv2/3x3 -> conv2/3x3
I0107 16:27:07.967420  8078 net.cpp:113] Setting up conv2/3x3
I0107 16:27:07.970854  8078 net.cpp:120] Top shape: 80 192 56 56 (48168960)
I0107 16:27:07.970892  8078 layer_factory.hpp:74] Creating layer conv2/relu_3x3
I0107 16:27:07.970906  8078 net.cpp:84] Creating Layer conv2/relu_3x3
I0107 16:27:07.970916  8078 net.cpp:380] conv2/relu_3x3 <- conv2/3x3
I0107 16:27:07.970928  8078 net.cpp:327] conv2/relu_3x3 -> conv2/3x3 (in-place)
I0107 16:27:07.970943  8078 net.cpp:113] Setting up conv2/relu_3x3
I0107 16:27:07.971278  8078 net.cpp:120] Top shape: 80 192 56 56 (48168960)
I0107 16:27:07.971318  8078 layer_factory.hpp:74] Creating layer conv2/norm2
I0107 16:27:07.971333  8078 net.cpp:84] Creating Layer conv2/norm2
I0107 16:27:07.971352  8078 net.cpp:380] conv2/norm2 <- conv2/3x3
I0107 16:27:07.971390  8078 net.cpp:338] conv2/norm2 -> conv2/norm2
I0107 16:27:07.971405  8078 net.cpp:113] Setting up conv2/norm2
I0107 16:27:07.971421  8078 net.cpp:120] Top shape: 80 192 56 56 (48168960)
I0107 16:27:07.971429  8078 layer_factory.hpp:74] Creating layer pool2/3x3_s2
I0107 16:27:07.971441  8078 net.cpp:84] Creating Layer pool2/3x3_s2
I0107 16:27:07.971448  8078 net.cpp:380] pool2/3x3_s2 <- conv2/norm2
I0107 16:27:07.971459  8078 net.cpp:338] pool2/3x3_s2 -> pool2/3x3_s2
I0107 16:27:07.971472  8078 net.cpp:113] Setting up pool2/3x3_s2
I0107 16:27:07.971583  8078 net.cpp:120] Top shape: 80 192 28 28 (12042240)
I0107 16:27:07.971595  8078 layer_factory.hpp:74] Creating layer pool2/3x3_s2_pool2/3x3_s2_0_split
I0107 16:27:07.971606  8078 net.cpp:84] Creating Layer pool2/3x3_s2_pool2/3x3_s2_0_split
I0107 16:27:07.971613  8078 net.cpp:380] pool2/3x3_s2_pool2/3x3_s2_0_split <- pool2/3x3_s2
I0107 16:27:07.971635  8078 net.cpp:338] pool2/3x3_s2_pool2/3x3_s2_0_split -> pool2/3x3_s2_pool2/3x3_s2_0_split_0
I0107 16:27:07.971649  8078 net.cpp:338] pool2/3x3_s2_pool2/3x3_s2_0_split -> pool2/3x3_s2_pool2/3x3_s2_0_split_1
I0107 16:27:07.971662  8078 net.cpp:338] pool2/3x3_s2_pool2/3x3_s2_0_split -> pool2/3x3_s2_pool2/3x3_s2_0_split_2
I0107 16:27:07.971674  8078 net.cpp:338] pool2/3x3_s2_pool2/3x3_s2_0_split -> pool2/3x3_s2_pool2/3x3_s2_0_split_3
I0107 16:27:07.971685  8078 net.cpp:113] Setting up pool2/3x3_s2_pool2/3x3_s2_0_split
I0107 16:27:07.971698  8078 net.cpp:120] Top shape: 80 192 28 28 (12042240)
I0107 16:27:07.971709  8078 net.cpp:120] Top shape: 80 192 28 28 (12042240)
I0107 16:27:07.971717  8078 net.cpp:120] Top shape: 80 192 28 28 (12042240)
I0107 16:27:07.971725  8078 net.cpp:120] Top shape: 80 192 28 28 (12042240)
I0107 16:27:07.971734  8078 layer_factory.hpp:74] Creating layer inception_3a/1x1
I0107 16:27:07.971755  8078 net.cpp:84] Creating Layer inception_3a/1x1
I0107 16:27:07.971765  8078 net.cpp:380] inception_3a/1x1 <- pool2/3x3_s2_pool2/3x3_s2_0_split_0
I0107 16:27:07.971777  8078 net.cpp:338] inception_3a/1x1 -> inception_3a/1x1
I0107 16:27:07.971793  8078 net.cpp:113] Setting up inception_3a/1x1
I0107 16:27:07.972581  8078 net.cpp:120] Top shape: 80 64 28 28 (4014080)
I0107 16:27:07.972606  8078 layer_factory.hpp:74] Creating layer inception_3a/relu_1x1
I0107 16:27:07.972620  8078 net.cpp:84] Creating Layer inception_3a/relu_1x1
I0107 16:27:07.972627  8078 net.cpp:380] inception_3a/relu_1x1 <- inception_3a/1x1
I0107 16:27:07.972640  8078 net.cpp:327] inception_3a/relu_1x1 -> inception_3a/1x1 (in-place)
I0107 16:27:07.972651  8078 net.cpp:113] Setting up inception_3a/relu_1x1
I0107 16:27:07.972753  8078 net.cpp:120] Top shape: 80 64 28 28 (4014080)
I0107 16:27:07.972764  8078 layer_factory.hpp:74] Creating layer inception_3a/3x3_reduce
I0107 16:27:07.972775  8078 net.cpp:84] Creating Layer inception_3a/3x3_reduce
I0107 16:27:07.972784  8078 net.cpp:380] inception_3a/3x3_reduce <- pool2/3x3_s2_pool2/3x3_s2_0_split_1
I0107 16:27:07.972796  8078 net.cpp:338] inception_3a/3x3_reduce -> inception_3a/3x3_reduce
I0107 16:27:07.972810  8078 net.cpp:113] Setting up inception_3a/3x3_reduce
I0107 16:27:07.973711  8078 net.cpp:120] Top shape: 80 96 28 28 (6021120)
I0107 16:27:07.973740  8078 layer_factory.hpp:74] Creating layer inception_3a/relu_3x3_reduce
I0107 16:27:07.973773  8078 net.cpp:84] Creating Layer inception_3a/relu_3x3_reduce
I0107 16:27:07.973783  8078 net.cpp:380] inception_3a/relu_3x3_reduce <- inception_3a/3x3_reduce
I0107 16:27:07.973803  8078 net.cpp:327] inception_3a/relu_3x3_reduce -> inception_3a/3x3_reduce (in-place)
I0107 16:27:07.973819  8078 net.cpp:113] Setting up inception_3a/relu_3x3_reduce
I0107 16:27:07.973923  8078 net.cpp:120] Top shape: 80 96 28 28 (6021120)
I0107 16:27:07.973948  8078 layer_factory.hpp:74] Creating layer inception_3a/3x3
I0107 16:27:07.973963  8078 net.cpp:84] Creating Layer inception_3a/3x3
I0107 16:27:07.973971  8078 net.cpp:380] inception_3a/3x3 <- inception_3a/3x3_reduce
I0107 16:27:07.973991  8078 net.cpp:338] inception_3a/3x3 -> inception_3a/3x3
I0107 16:27:07.974019  8078 net.cpp:113] Setting up inception_3a/3x3
I0107 16:27:07.976488  8078 net.cpp:120] Top shape: 80 128 28 28 (8028160)
I0107 16:27:07.976513  8078 layer_factory.hpp:74] Creating layer inception_3a/relu_3x3
I0107 16:27:07.976526  8078 net.cpp:84] Creating Layer inception_3a/relu_3x3
I0107 16:27:07.976534  8078 net.cpp:380] inception_3a/relu_3x3 <- inception_3a/3x3
I0107 16:27:07.976546  8078 net.cpp:327] inception_3a/relu_3x3 -> inception_3a/3x3 (in-place)
I0107 16:27:07.976558  8078 net.cpp:113] Setting up inception_3a/relu_3x3
I0107 16:27:07.976886  8078 net.cpp:120] Top shape: 80 128 28 28 (8028160)
I0107 16:27:07.976902  8078 layer_factory.hpp:74] Creating layer inception_3a/5x5_reduce
I0107 16:27:07.976930  8078 net.cpp:84] Creating Layer inception_3a/5x5_reduce
I0107 16:27:07.976940  8078 net.cpp:380] inception_3a/5x5_reduce <- pool2/3x3_s2_pool2/3x3_s2_0_split_2
I0107 16:27:07.976953  8078 net.cpp:338] inception_3a/5x5_reduce -> inception_3a/5x5_reduce
I0107 16:27:07.976971  8078 net.cpp:113] Setting up inception_3a/5x5_reduce
I0107 16:27:07.977612  8078 net.cpp:120] Top shape: 80 16 28 28 (1003520)
I0107 16:27:07.977637  8078 layer_factory.hpp:74] Creating layer inception_3a/relu_5x5_reduce
I0107 16:27:07.977648  8078 net.cpp:84] Creating Layer inception_3a/relu_5x5_reduce
I0107 16:27:07.977658  8078 net.cpp:380] inception_3a/relu_5x5_reduce <- inception_3a/5x5_reduce
I0107 16:27:07.977669  8078 net.cpp:327] inception_3a/relu_5x5_reduce -> inception_3a/5x5_reduce (in-place)
I0107 16:27:07.977682  8078 net.cpp:113] Setting up inception_3a/relu_5x5_reduce
I0107 16:27:07.977783  8078 net.cpp:120] Top shape: 80 16 28 28 (1003520)
I0107 16:27:07.977807  8078 layer_factory.hpp:74] Creating layer inception_3a/5x5
I0107 16:27:07.977823  8078 net.cpp:84] Creating Layer inception_3a/5x5
I0107 16:27:07.977833  8078 net.cpp:380] inception_3a/5x5 <- inception_3a/5x5_reduce
I0107 16:27:07.977844  8078 net.cpp:338] inception_3a/5x5 -> inception_3a/5x5
I0107 16:27:07.977859  8078 net.cpp:113] Setting up inception_3a/5x5
I0107 16:27:07.978648  8078 net.cpp:120] Top shape: 80 32 28 28 (2007040)
I0107 16:27:07.978672  8078 layer_factory.hpp:74] Creating layer inception_3a/relu_5x5
I0107 16:27:07.978698  8078 net.cpp:84] Creating Layer inception_3a/relu_5x5
I0107 16:27:07.978708  8078 net.cpp:380] inception_3a/relu_5x5 <- inception_3a/5x5
I0107 16:27:07.978719  8078 net.cpp:327] inception_3a/relu_5x5 -> inception_3a/5x5 (in-place)
I0107 16:27:07.978732  8078 net.cpp:113] Setting up inception_3a/relu_5x5
I0107 16:27:07.978832  8078 net.cpp:120] Top shape: 80 32 28 28 (2007040)
I0107 16:27:07.978842  8078 layer_factory.hpp:74] Creating layer inception_3a/pool
I0107 16:27:07.978852  8078 layer_factory.cpp:56] CUDNN does not support padding or multiple tops. Using Caffe's own pooling layer.
I0107 16:27:07.978863  8078 net.cpp:84] Creating Layer inception_3a/pool
I0107 16:27:07.978873  8078 net.cpp:380] inception_3a/pool <- pool2/3x3_s2_pool2/3x3_s2_0_split_3
I0107 16:27:07.978883  8078 net.cpp:338] inception_3a/pool -> inception_3a/pool
I0107 16:27:07.978896  8078 net.cpp:113] Setting up inception_3a/pool
I0107 16:27:07.978910  8078 net.cpp:120] Top shape: 80 192 28 28 (12042240)
I0107 16:27:07.978919  8078 layer_factory.hpp:74] Creating layer inception_3a/pool_proj
I0107 16:27:07.978930  8078 net.cpp:84] Creating Layer inception_3a/pool_proj
I0107 16:27:07.978940  8078 net.cpp:380] inception_3a/pool_proj <- inception_3a/pool
I0107 16:27:07.978950  8078 net.cpp:338] inception_3a/pool_proj -> inception_3a/pool_proj
I0107 16:27:07.978963  8078 net.cpp:113] Setting up inception_3a/pool_proj
I0107 16:27:07.979632  8078 net.cpp:120] Top shape: 80 32 28 28 (2007040)
I0107 16:27:07.979670  8078 layer_factory.hpp:74] Creating layer inception_3a/relu_pool_proj
I0107 16:27:07.979682  8078 net.cpp:84] Creating Layer inception_3a/relu_pool_proj
I0107 16:27:07.979691  8078 net.cpp:380] inception_3a/relu_pool_proj <- inception_3a/pool_proj
I0107 16:27:07.979702  8078 net.cpp:327] inception_3a/relu_pool_proj -> inception_3a/pool_proj (in-place)
I0107 16:27:07.979733  8078 net.cpp:113] Setting up inception_3a/relu_pool_proj
I0107 16:27:07.979837  8078 net.cpp:120] Top shape: 80 32 28 28 (2007040)
I0107 16:27:07.979862  8078 layer_factory.hpp:74] Creating layer inception_3a/output
I0107 16:27:07.979888  8078 net.cpp:84] Creating Layer inception_3a/output
I0107 16:27:07.979897  8078 net.cpp:380] inception_3a/output <- inception_3a/1x1
I0107 16:27:07.979907  8078 net.cpp:380] inception_3a/output <- inception_3a/3x3
I0107 16:27:07.979917  8078 net.cpp:380] inception_3a/output <- inception_3a/5x5
I0107 16:27:07.979925  8078 net.cpp:380] inception_3a/output <- inception_3a/pool_proj
I0107 16:27:07.979936  8078 net.cpp:338] inception_3a/output -> inception_3a/output
I0107 16:27:07.979949  8078 net.cpp:113] Setting up inception_3a/output
I0107 16:27:07.979964  8078 net.cpp:120] Top shape: 80 256 28 28 (16056320)
I0107 16:27:07.979971  8078 layer_factory.hpp:74] Creating layer inception_3a/output_inception_3a/output_0_split
I0107 16:27:07.979981  8078 net.cpp:84] Creating Layer inception_3a/output_inception_3a/output_0_split
I0107 16:27:07.979990  8078 net.cpp:380] inception_3a/output_inception_3a/output_0_split <- inception_3a/output
I0107 16:27:07.980000  8078 net.cpp:338] inception_3a/output_inception_3a/output_0_split -> inception_3a/output_inception_3a/output_0_split_0
I0107 16:27:07.980012  8078 net.cpp:338] inception_3a/output_inception_3a/output_0_split -> inception_3a/output_inception_3a/output_0_split_1
I0107 16:27:07.980025  8078 net.cpp:338] inception_3a/output_inception_3a/output_0_split -> inception_3a/output_inception_3a/output_0_split_2
I0107 16:27:07.980037  8078 net.cpp:338] inception_3a/output_inception_3a/output_0_split -> inception_3a/output_inception_3a/output_0_split_3
I0107 16:27:07.980047  8078 net.cpp:113] Setting up inception_3a/output_inception_3a/output_0_split
I0107 16:27:07.980060  8078 net.cpp:120] Top shape: 80 256 28 28 (16056320)
I0107 16:27:07.980069  8078 net.cpp:120] Top shape: 80 256 28 28 (16056320)
I0107 16:27:07.980078  8078 net.cpp:120] Top shape: 80 256 28 28 (16056320)
I0107 16:27:07.980087  8078 net.cpp:120] Top shape: 80 256 28 28 (16056320)
I0107 16:27:07.980094  8078 layer_factory.hpp:74] Creating layer inception_3b/1x1
I0107 16:27:07.980106  8078 net.cpp:84] Creating Layer inception_3b/1x1
I0107 16:27:07.980115  8078 net.cpp:380] inception_3b/1x1 <- inception_3a/output_inception_3a/output_0_split_0
I0107 16:27:07.980126  8078 net.cpp:338] inception_3b/1x1 -> inception_3b/1x1
I0107 16:27:07.980139  8078 net.cpp:113] Setting up inception_3b/1x1
I0107 16:27:07.981334  8078 net.cpp:120] Top shape: 80 128 28 28 (8028160)
I0107 16:27:07.981359  8078 layer_factory.hpp:74] Creating layer inception_3b/relu_1x1
I0107 16:27:07.981374  8078 net.cpp:84] Creating Layer inception_3b/relu_1x1
I0107 16:27:07.981382  8078 net.cpp:380] inception_3b/relu_1x1 <- inception_3b/1x1
I0107 16:27:07.981395  8078 net.cpp:327] inception_3b/relu_1x1 -> inception_3b/1x1 (in-place)
I0107 16:27:07.981407  8078 net.cpp:113] Setting up inception_3b/relu_1x1
I0107 16:27:07.981765  8078 net.cpp:120] Top shape: 80 128 28 28 (8028160)
I0107 16:27:07.981812  8078 layer_factory.hpp:74] Creating layer inception_3b/3x3_reduce
I0107 16:27:07.981837  8078 net.cpp:84] Creating Layer inception_3b/3x3_reduce
I0107 16:27:07.981847  8078 net.cpp:380] inception_3b/3x3_reduce <- inception_3a/output_inception_3a/output_0_split_1
I0107 16:27:07.981858  8078 net.cpp:338] inception_3b/3x3_reduce -> inception_3b/3x3_reduce
I0107 16:27:07.981873  8078 net.cpp:113] Setting up inception_3b/3x3_reduce
I0107 16:27:07.983053  8078 net.cpp:120] Top shape: 80 128 28 28 (8028160)
I0107 16:27:07.983083  8078 layer_factory.hpp:74] Creating layer inception_3b/relu_3x3_reduce
I0107 16:27:07.983099  8078 net.cpp:84] Creating Layer inception_3b/relu_3x3_reduce
I0107 16:27:07.983108  8078 net.cpp:380] inception_3b/relu_3x3_reduce <- inception_3b/3x3_reduce
I0107 16:27:07.983119  8078 net.cpp:327] inception_3b/relu_3x3_reduce -> inception_3b/3x3_reduce (in-place)
I0107 16:27:07.983140  8078 net.cpp:113] Setting up inception_3b/relu_3x3_reduce
I0107 16:27:07.983258  8078 net.cpp:120] Top shape: 80 128 28 28 (8028160)
I0107 16:27:07.983269  8078 layer_factory.hpp:74] Creating layer inception_3b/3x3
I0107 16:27:07.983290  8078 net.cpp:84] Creating Layer inception_3b/3x3
I0107 16:27:07.983299  8078 net.cpp:380] inception_3b/3x3 <- inception_3b/3x3_reduce
I0107 16:27:07.983311  8078 net.cpp:338] inception_3b/3x3 -> inception_3b/3x3
I0107 16:27:07.983325  8078 net.cpp:113] Setting up inception_3b/3x3
I0107 16:27:07.987887  8078 net.cpp:120] Top shape: 80 192 28 28 (12042240)
I0107 16:27:07.987912  8078 layer_factory.hpp:74] Creating layer inception_3b/relu_3x3
I0107 16:27:07.987937  8078 net.cpp:84] Creating Layer inception_3b/relu_3x3
I0107 16:27:07.987949  8078 net.cpp:380] inception_3b/relu_3x3 <- inception_3b/3x3
I0107 16:27:07.987962  8078 net.cpp:327] inception_3b/relu_3x3 -> inception_3b/3x3 (in-place)
I0107 16:27:07.987975  8078 net.cpp:113] Setting up inception_3b/relu_3x3
I0107 16:27:07.988088  8078 net.cpp:120] Top shape: 80 192 28 28 (12042240)
I0107 16:27:07.988107  8078 layer_factory.hpp:74] Creating layer inception_3b/5x5_reduce
I0107 16:27:07.988121  8078 net.cpp:84] Creating Layer inception_3b/5x5_reduce
I0107 16:27:07.988128  8078 net.cpp:380] inception_3b/5x5_reduce <- inception_3a/output_inception_3a/output_0_split_2
I0107 16:27:07.988142  8078 net.cpp:338] inception_3b/5x5_reduce -> inception_3b/5x5_reduce
I0107 16:27:07.988157  8078 net.cpp:113] Setting up inception_3b/5x5_reduce
I0107 16:27:07.988895  8078 net.cpp:120] Top shape: 80 32 28 28 (2007040)
I0107 16:27:07.988919  8078 layer_factory.hpp:74] Creating layer inception_3b/relu_5x5_reduce
I0107 16:27:07.988931  8078 net.cpp:84] Creating Layer inception_3b/relu_5x5_reduce
I0107 16:27:07.988940  8078 net.cpp:380] inception_3b/relu_5x5_reduce <- inception_3b/5x5_reduce
I0107 16:27:07.988951  8078 net.cpp:327] inception_3b/relu_5x5_reduce -> inception_3b/5x5_reduce (in-place)
I0107 16:27:07.988963  8078 net.cpp:113] Setting up inception_3b/relu_5x5_reduce
I0107 16:27:07.989066  8078 net.cpp:120] Top shape: 80 32 28 28 (2007040)
I0107 16:27:07.989076  8078 layer_factory.hpp:74] Creating layer inception_3b/5x5
I0107 16:27:07.989090  8078 net.cpp:84] Creating Layer inception_3b/5x5
I0107 16:27:07.989099  8078 net.cpp:380] inception_3b/5x5 <- inception_3b/5x5_reduce
I0107 16:27:07.989125  8078 net.cpp:338] inception_3b/5x5 -> inception_3b/5x5
I0107 16:27:07.989143  8078 net.cpp:113] Setting up inception_3b/5x5
I0107 16:27:07.991109  8078 net.cpp:120] Top shape: 80 96 28 28 (6021120)
I0107 16:27:07.991134  8078 layer_factory.hpp:74] Creating layer inception_3b/relu_5x5
I0107 16:27:07.991161  8078 net.cpp:84] Creating Layer inception_3b/relu_5x5
I0107 16:27:07.991170  8078 net.cpp:380] inception_3b/relu_5x5 <- inception_3b/5x5
I0107 16:27:07.991183  8078 net.cpp:327] inception_3b/relu_5x5 -> inception_3b/5x5 (in-place)
I0107 16:27:07.991196  8078 net.cpp:113] Setting up inception_3b/relu_5x5
I0107 16:27:07.991525  8078 net.cpp:120] Top shape: 80 96 28 28 (6021120)
I0107 16:27:07.991542  8078 layer_factory.hpp:74] Creating layer inception_3b/pool
I0107 16:27:07.991551  8078 layer_factory.cpp:56] CUDNN does not support padding or multiple tops. Using Caffe's own pooling layer.
I0107 16:27:07.991561  8078 net.cpp:84] Creating Layer inception_3b/pool
I0107 16:27:07.991569  8078 net.cpp:380] inception_3b/pool <- inception_3a/output_inception_3a/output_0_split_3
I0107 16:27:07.991595  8078 net.cpp:338] inception_3b/pool -> inception_3b/pool
I0107 16:27:07.991608  8078 net.cpp:113] Setting up inception_3b/pool
I0107 16:27:07.991622  8078 net.cpp:120] Top shape: 80 256 28 28 (16056320)
I0107 16:27:07.991637  8078 layer_factory.hpp:74] Creating layer inception_3b/pool_proj
I0107 16:27:07.991650  8078 net.cpp:84] Creating Layer inception_3b/pool_proj
I0107 16:27:07.991658  8078 net.cpp:380] inception_3b/pool_proj <- inception_3b/pool
I0107 16:27:07.991674  8078 net.cpp:338] inception_3b/pool_proj -> inception_3b/pool_proj
I0107 16:27:07.991695  8078 net.cpp:113] Setting up inception_3b/pool_proj
I0107 16:27:07.992580  8078 net.cpp:120] Top shape: 80 64 28 28 (4014080)
I0107 16:27:07.992604  8078 layer_factory.hpp:74] Creating layer inception_3b/relu_pool_proj
I0107 16:27:07.992626  8078 net.cpp:84] Creating Layer inception_3b/relu_pool_proj
I0107 16:27:07.992635  8078 net.cpp:380] inception_3b/relu_pool_proj <- inception_3b/pool_proj
I0107 16:27:07.992650  8078 net.cpp:327] inception_3b/relu_pool_proj -> inception_3b/pool_proj (in-place)
I0107 16:27:07.992662  8078 net.cpp:113] Setting up inception_3b/relu_pool_proj
I0107 16:27:07.992770  8078 net.cpp:120] Top shape: 80 64 28 28 (4014080)
I0107 16:27:07.992780  8078 layer_factory.hpp:74] Creating layer inception_3b/output
I0107 16:27:07.992792  8078 net.cpp:84] Creating Layer inception_3b/output
I0107 16:27:07.992801  8078 net.cpp:380] inception_3b/output <- inception_3b/1x1
I0107 16:27:07.992810  8078 net.cpp:380] inception_3b/output <- inception_3b/3x3
I0107 16:27:07.992820  8078 net.cpp:380] inception_3b/output <- inception_3b/5x5
I0107 16:27:07.992827  8078 net.cpp:380] inception_3b/output <- inception_3b/pool_proj
I0107 16:27:07.992837  8078 net.cpp:338] inception_3b/output -> inception_3b/output
I0107 16:27:07.992849  8078 net.cpp:113] Setting up inception_3b/output
I0107 16:27:07.992861  8078 net.cpp:120] Top shape: 80 480 28 28 (30105600)
I0107 16:27:07.992867  8078 layer_factory.hpp:74] Creating layer pool3/3x3_s2
I0107 16:27:07.992880  8078 net.cpp:84] Creating Layer pool3/3x3_s2
I0107 16:27:07.992888  8078 net.cpp:380] pool3/3x3_s2 <- inception_3b/output
I0107 16:27:07.992899  8078 net.cpp:338] pool3/3x3_s2 -> pool3/3x3_s2
I0107 16:27:07.992910  8078 net.cpp:113] Setting up pool3/3x3_s2
I0107 16:27:07.993017  8078 net.cpp:120] Top shape: 80 480 14 14 (7526400)
I0107 16:27:07.993027  8078 layer_factory.hpp:74] Creating layer pool3/3x3_s2_pool3/3x3_s2_0_split
I0107 16:27:07.993048  8078 net.cpp:84] Creating Layer pool3/3x3_s2_pool3/3x3_s2_0_split
I0107 16:27:07.993057  8078 net.cpp:380] pool3/3x3_s2_pool3/3x3_s2_0_split <- pool3/3x3_s2
I0107 16:27:07.993067  8078 net.cpp:338] pool3/3x3_s2_pool3/3x3_s2_0_split -> pool3/3x3_s2_pool3/3x3_s2_0_split_0
I0107 16:27:07.993079  8078 net.cpp:338] pool3/3x3_s2_pool3/3x3_s2_0_split -> pool3/3x3_s2_pool3/3x3_s2_0_split_1
I0107 16:27:07.993091  8078 net.cpp:338] pool3/3x3_s2_pool3/3x3_s2_0_split -> pool3/3x3_s2_pool3/3x3_s2_0_split_2
I0107 16:27:07.993105  8078 net.cpp:338] pool3/3x3_s2_pool3/3x3_s2_0_split -> pool3/3x3_s2_pool3/3x3_s2_0_split_3
I0107 16:27:07.993115  8078 net.cpp:113] Setting up pool3/3x3_s2_pool3/3x3_s2_0_split
I0107 16:27:07.993127  8078 net.cpp:120] Top shape: 80 480 14 14 (7526400)
I0107 16:27:07.993136  8078 net.cpp:120] Top shape: 80 480 14 14 (7526400)
I0107 16:27:07.993144  8078 net.cpp:120] Top shape: 80 480 14 14 (7526400)
I0107 16:27:07.993152  8078 net.cpp:120] Top shape: 80 480 14 14 (7526400)
I0107 16:27:07.993160  8078 layer_factory.hpp:74] Creating layer inception_4a/1x1
I0107 16:27:07.993173  8078 net.cpp:84] Creating Layer inception_4a/1x1
I0107 16:27:07.993181  8078 net.cpp:380] inception_4a/1x1 <- pool3/3x3_s2_pool3/3x3_s2_0_split_0
I0107 16:27:07.993192  8078 net.cpp:338] inception_4a/1x1 -> inception_4a/1x1
I0107 16:27:07.993204  8078 net.cpp:113] Setting up inception_4a/1x1
I0107 16:27:07.995362  8078 net.cpp:120] Top shape: 80 192 14 14 (3010560)
I0107 16:27:07.995385  8078 layer_factory.hpp:74] Creating layer inception_4a/relu_1x1
I0107 16:27:07.995409  8078 net.cpp:84] Creating Layer inception_4a/relu_1x1
I0107 16:27:07.995421  8078 net.cpp:380] inception_4a/relu_1x1 <- inception_4a/1x1
I0107 16:27:07.995432  8078 net.cpp:327] inception_4a/relu_1x1 -> inception_4a/1x1 (in-place)
I0107 16:27:07.995443  8078 net.cpp:113] Setting up inception_4a/relu_1x1
I0107 16:27:07.995760  8078 net.cpp:120] Top shape: 80 192 14 14 (3010560)
I0107 16:27:07.995776  8078 layer_factory.hpp:74] Creating layer inception_4a/3x3_reduce
I0107 16:27:07.995790  8078 net.cpp:84] Creating Layer inception_4a/3x3_reduce
I0107 16:27:07.995805  8078 net.cpp:380] inception_4a/3x3_reduce <- pool3/3x3_s2_pool3/3x3_s2_0_split_1
I0107 16:27:07.995826  8078 net.cpp:338] inception_4a/3x3_reduce -> inception_4a/3x3_reduce
I0107 16:27:07.995841  8078 net.cpp:113] Setting up inception_4a/3x3_reduce
I0107 16:27:07.997171  8078 net.cpp:120] Top shape: 80 96 14 14 (1505280)
I0107 16:27:07.997201  8078 layer_factory.hpp:74] Creating layer inception_4a/relu_3x3_reduce
I0107 16:27:07.997212  8078 net.cpp:84] Creating Layer inception_4a/relu_3x3_reduce
I0107 16:27:07.997221  8078 net.cpp:380] inception_4a/relu_3x3_reduce <- inception_4a/3x3_reduce
I0107 16:27:07.997231  8078 net.cpp:327] inception_4a/relu_3x3_reduce -> inception_4a/3x3_reduce (in-place)
I0107 16:27:07.997242  8078 net.cpp:113] Setting up inception_4a/relu_3x3_reduce
I0107 16:27:07.997342  8078 net.cpp:120] Top shape: 80 96 14 14 (1505280)
I0107 16:27:07.997362  8078 layer_factory.hpp:74] Creating layer inception_4a/3x3
I0107 16:27:07.997381  8078 net.cpp:84] Creating Layer inception_4a/3x3
I0107 16:27:07.997390  8078 net.cpp:380] inception_4a/3x3 <- inception_4a/3x3_reduce
I0107 16:27:07.997402  8078 net.cpp:338] inception_4a/3x3 -> inception_4a/3x3
I0107 16:27:07.997416  8078 net.cpp:113] Setting up inception_4a/3x3
I0107 16:27:08.001001  8078 net.cpp:120] Top shape: 80 208 14 14 (3261440)
I0107 16:27:08.001025  8078 layer_factory.hpp:74] Creating layer inception_4a/relu_3x3
I0107 16:27:08.001035  8078 net.cpp:84] Creating Layer inception_4a/relu_3x3
I0107 16:27:08.001044  8078 net.cpp:380] inception_4a/relu_3x3 <- inception_4a/3x3
I0107 16:27:08.001056  8078 net.cpp:327] inception_4a/relu_3x3 -> inception_4a/3x3 (in-place)
I0107 16:27:08.001068  8078 net.cpp:113] Setting up inception_4a/relu_3x3
I0107 16:27:08.001168  8078 net.cpp:120] Top shape: 80 208 14 14 (3261440)
I0107 16:27:08.001176  8078 layer_factory.hpp:74] Creating layer inception_4a/5x5_reduce
I0107 16:27:08.001189  8078 net.cpp:84] Creating Layer inception_4a/5x5_reduce
I0107 16:27:08.001198  8078 net.cpp:380] inception_4a/5x5_reduce <- pool3/3x3_s2_pool3/3x3_s2_0_split_2
I0107 16:27:08.001221  8078 net.cpp:338] inception_4a/5x5_reduce -> inception_4a/5x5_reduce
I0107 16:27:08.001236  8078 net.cpp:113] Setting up inception_4a/5x5_reduce
I0107 16:27:08.001943  8078 net.cpp:120] Top shape: 80 16 14 14 (250880)
I0107 16:27:08.001966  8078 layer_factory.hpp:74] Creating layer inception_4a/relu_5x5_reduce
I0107 16:27:08.001989  8078 net.cpp:84] Creating Layer inception_4a/relu_5x5_reduce
I0107 16:27:08.001998  8078 net.cpp:380] inception_4a/relu_5x5_reduce <- inception_4a/5x5_reduce
I0107 16:27:08.002009  8078 net.cpp:327] inception_4a/relu_5x5_reduce -> inception_4a/5x5_reduce (in-place)
I0107 16:27:08.002022  8078 net.cpp:113] Setting up inception_4a/relu_5x5_reduce
I0107 16:27:08.002128  8078 net.cpp:120] Top shape: 80 16 14 14 (250880)
I0107 16:27:08.002148  8078 layer_factory.hpp:74] Creating layer inception_4a/5x5
I0107 16:27:08.002159  8078 net.cpp:84] Creating Layer inception_4a/5x5
I0107 16:27:08.002166  8078 net.cpp:380] inception_4a/5x5 <- inception_4a/5x5_reduce
I0107 16:27:08.002179  8078 net.cpp:338] inception_4a/5x5 -> inception_4a/5x5
I0107 16:27:08.002192  8078 net.cpp:113] Setting up inception_4a/5x5
I0107 16:27:08.003064  8078 net.cpp:120] Top shape: 80 48 14 14 (752640)
I0107 16:27:08.003088  8078 layer_factory.hpp:74] Creating layer inception_4a/relu_5x5
I0107 16:27:08.003098  8078 net.cpp:84] Creating Layer inception_4a/relu_5x5
I0107 16:27:08.003106  8078 net.cpp:380] inception_4a/relu_5x5 <- inception_4a/5x5
I0107 16:27:08.003116  8078 net.cpp:327] inception_4a/relu_5x5 -> inception_4a/5x5 (in-place)
I0107 16:27:08.003130  8078 net.cpp:113] Setting up inception_4a/relu_5x5
I0107 16:27:08.003440  8078 net.cpp:120] Top shape: 80 48 14 14 (752640)
I0107 16:27:08.003455  8078 layer_factory.hpp:74] Creating layer inception_4a/pool
I0107 16:27:08.003463  8078 layer_factory.cpp:56] CUDNN does not support padding or multiple tops. Using Caffe's own pooling layer.
I0107 16:27:08.003479  8078 net.cpp:84] Creating Layer inception_4a/pool
I0107 16:27:08.003497  8078 net.cpp:380] inception_4a/pool <- pool3/3x3_s2_pool3/3x3_s2_0_split_3
I0107 16:27:08.003509  8078 net.cpp:338] inception_4a/pool -> inception_4a/pool
I0107 16:27:08.003521  8078 net.cpp:113] Setting up inception_4a/pool
I0107 16:27:08.003535  8078 net.cpp:120] Top shape: 80 480 14 14 (7526400)
I0107 16:27:08.003541  8078 layer_factory.hpp:74] Creating layer inception_4a/pool_proj
I0107 16:27:08.003571  8078 net.cpp:84] Creating Layer inception_4a/pool_proj
I0107 16:27:08.003579  8078 net.cpp:380] inception_4a/pool_proj <- inception_4a/pool
I0107 16:27:08.003603  8078 net.cpp:338] inception_4a/pool_proj -> inception_4a/pool_proj
I0107 16:27:08.003617  8078 net.cpp:113] Setting up inception_4a/pool_proj
I0107 16:27:08.004684  8078 net.cpp:120] Top shape: 80 64 14 14 (1003520)
I0107 16:27:08.004706  8078 layer_factory.hpp:74] Creating layer inception_4a/relu_pool_proj
I0107 16:27:08.004719  8078 net.cpp:84] Creating Layer inception_4a/relu_pool_proj
I0107 16:27:08.004727  8078 net.cpp:380] inception_4a/relu_pool_proj <- inception_4a/pool_proj
I0107 16:27:08.004739  8078 net.cpp:327] inception_4a/relu_pool_proj -> inception_4a/pool_proj (in-place)
I0107 16:27:08.004750  8078 net.cpp:113] Setting up inception_4a/relu_pool_proj
I0107 16:27:08.004853  8078 net.cpp:120] Top shape: 80 64 14 14 (1003520)
I0107 16:27:08.004875  8078 layer_factory.hpp:74] Creating layer inception_4a/output
I0107 16:27:08.004885  8078 net.cpp:84] Creating Layer inception_4a/output
I0107 16:27:08.004894  8078 net.cpp:380] inception_4a/output <- inception_4a/1x1
I0107 16:27:08.004902  8078 net.cpp:380] inception_4a/output <- inception_4a/3x3
I0107 16:27:08.004910  8078 net.cpp:380] inception_4a/output <- inception_4a/5x5
I0107 16:27:08.004919  8078 net.cpp:380] inception_4a/output <- inception_4a/pool_proj
I0107 16:27:08.004928  8078 net.cpp:338] inception_4a/output -> inception_4a/output
I0107 16:27:08.004940  8078 net.cpp:113] Setting up inception_4a/output
I0107 16:27:08.004951  8078 net.cpp:120] Top shape: 80 512 14 14 (8028160)
I0107 16:27:08.004957  8078 layer_factory.hpp:74] Creating layer inception_4a/output_inception_4a/output_0_split
I0107 16:27:08.004971  8078 net.cpp:84] Creating Layer inception_4a/output_inception_4a/output_0_split
I0107 16:27:08.004978  8078 net.cpp:380] inception_4a/output_inception_4a/output_0_split <- inception_4a/output
I0107 16:27:08.004988  8078 net.cpp:338] inception_4a/output_inception_4a/output_0_split -> inception_4a/output_inception_4a/output_0_split_0
I0107 16:27:08.004999  8078 net.cpp:338] inception_4a/output_inception_4a/output_0_split -> inception_4a/output_inception_4a/output_0_split_1
I0107 16:27:08.005010  8078 net.cpp:338] inception_4a/output_inception_4a/output_0_split -> inception_4a/output_inception_4a/output_0_split_2
I0107 16:27:08.005024  8078 net.cpp:338] inception_4a/output_inception_4a/output_0_split -> inception_4a/output_inception_4a/output_0_split_3
I0107 16:27:08.005035  8078 net.cpp:338] inception_4a/output_inception_4a/output_0_split -> inception_4a/output_inception_4a/output_0_split_4
I0107 16:27:08.005045  8078 net.cpp:113] Setting up inception_4a/output_inception_4a/output_0_split
I0107 16:27:08.005058  8078 net.cpp:120] Top shape: 80 512 14 14 (8028160)
I0107 16:27:08.005065  8078 net.cpp:120] Top shape: 80 512 14 14 (8028160)
I0107 16:27:08.005074  8078 net.cpp:120] Top shape: 80 512 14 14 (8028160)
I0107 16:27:08.005080  8078 net.cpp:120] Top shape: 80 512 14 14 (8028160)
I0107 16:27:08.005089  8078 net.cpp:120] Top shape: 80 512 14 14 (8028160)
I0107 16:27:08.005095  8078 layer_factory.hpp:74] Creating layer loss1/ave_pool
I0107 16:27:08.005115  8078 net.cpp:84] Creating Layer loss1/ave_pool
I0107 16:27:08.005122  8078 net.cpp:380] loss1/ave_pool <- inception_4a/output_inception_4a/output_0_split_0
I0107 16:27:08.005134  8078 net.cpp:338] loss1/ave_pool -> loss1/ave_pool
I0107 16:27:08.005146  8078 net.cpp:113] Setting up loss1/ave_pool
I0107 16:27:08.005244  8078 net.cpp:120] Top shape: 80 512 4 4 (655360)
I0107 16:27:08.005261  8078 layer_factory.hpp:74] Creating layer loss1/conv
I0107 16:27:08.005283  8078 net.cpp:84] Creating Layer loss1/conv
I0107 16:27:08.005291  8078 net.cpp:380] loss1/conv <- loss1/ave_pool
I0107 16:27:08.005305  8078 net.cpp:338] loss1/conv -> loss1/conv
I0107 16:27:08.005316  8078 net.cpp:113] Setting up loss1/conv
I0107 16:27:08.006947  8078 net.cpp:120] Top shape: 80 128 4 4 (163840)
I0107 16:27:08.006969  8078 layer_factory.hpp:74] Creating layer loss1/relu_conv
I0107 16:27:08.006995  8078 net.cpp:84] Creating Layer loss1/relu_conv
I0107 16:27:08.007005  8078 net.cpp:380] loss1/relu_conv <- loss1/conv
I0107 16:27:08.007019  8078 net.cpp:327] loss1/relu_conv -> loss1/conv (in-place)
I0107 16:27:08.007030  8078 net.cpp:113] Setting up loss1/relu_conv
I0107 16:27:08.007133  8078 net.cpp:120] Top shape: 80 128 4 4 (163840)
I0107 16:27:08.007143  8078 layer_factory.hpp:74] Creating layer loss1/fc
I0107 16:27:08.007156  8078 net.cpp:84] Creating Layer loss1/fc
I0107 16:27:08.007164  8078 net.cpp:380] loss1/fc <- loss1/conv
I0107 16:27:08.007174  8078 net.cpp:338] loss1/fc -> loss1/fc
I0107 16:27:08.007191  8078 net.cpp:113] Setting up loss1/fc
I0107 16:27:08.049485  8078 net.cpp:120] Top shape: 80 1024 (81920)
I0107 16:27:08.049551  8078 layer_factory.hpp:74] Creating layer loss1/relu_fc
I0107 16:27:08.049597  8078 net.cpp:84] Creating Layer loss1/relu_fc
I0107 16:27:08.049615  8078 net.cpp:380] loss1/relu_fc <- loss1/fc
I0107 16:27:08.049638  8078 net.cpp:327] loss1/relu_fc -> loss1/fc (in-place)
I0107 16:27:08.049662  8078 net.cpp:113] Setting up loss1/relu_fc
I0107 16:27:08.050263  8078 net.cpp:120] Top shape: 80 1024 (81920)
I0107 16:27:08.050292  8078 layer_factory.hpp:74] Creating layer loss1/drop_fc
I0107 16:27:08.050329  8078 net.cpp:84] Creating Layer loss1/drop_fc
I0107 16:27:08.050345  8078 net.cpp:380] loss1/drop_fc <- loss1/fc
I0107 16:27:08.050364  8078 net.cpp:327] loss1/drop_fc -> loss1/fc (in-place)
I0107 16:27:08.050387  8078 net.cpp:113] Setting up loss1/drop_fc
I0107 16:27:08.050412  8078 net.cpp:120] Top shape: 80 1024 (81920)
I0107 16:27:08.050426  8078 layer_factory.hpp:74] Creating layer loss1/classifier_kaggle
I0107 16:27:08.050446  8078 net.cpp:84] Creating Layer loss1/classifier_kaggle
I0107 16:27:08.050460  8078 net.cpp:380] loss1/classifier_kaggle <- loss1/fc
I0107 16:27:08.050480  8078 net.cpp:338] loss1/classifier_kaggle -> loss1/classifier_kaggle
I0107 16:27:08.050503  8078 net.cpp:113] Setting up loss1/classifier_kaggle
I0107 16:27:08.060423  8078 net.cpp:120] Top shape: 80 447 (35760)
I0107 16:27:08.060475  8078 layer_factory.hpp:74] Creating layer loss1/loss
I0107 16:27:08.060508  8078 net.cpp:84] Creating Layer loss1/loss
I0107 16:27:08.060523  8078 net.cpp:380] loss1/loss <- loss1/classifier_kaggle
I0107 16:27:08.060539  8078 net.cpp:380] loss1/loss <- label_data_1_split_0
I0107 16:27:08.060557  8078 net.cpp:338] loss1/loss -> loss1/loss1
I0107 16:27:08.060578  8078 net.cpp:113] Setting up loss1/loss
I0107 16:27:08.060597  8078 layer_factory.hpp:74] Creating layer loss1/loss
I0107 16:27:08.060966  8078 net.cpp:120] Top shape: (1)
I0107 16:27:08.060984  8078 net.cpp:122]     with loss weight 0.3
I0107 16:27:08.061022  8078 layer_factory.hpp:74] Creating layer inception_4b/1x1
I0107 16:27:08.061055  8078 net.cpp:84] Creating Layer inception_4b/1x1
I0107 16:27:08.061070  8078 net.cpp:380] inception_4b/1x1 <- inception_4a/output_inception_4a/output_0_split_1
I0107 16:27:08.061094  8078 net.cpp:338] inception_4b/1x1 -> inception_4b/1x1
I0107 16:27:08.061115  8078 net.cpp:113] Setting up inception_4b/1x1
I0107 16:27:08.067780  8078 net.cpp:120] Top shape: 80 160 14 14 (2508800)
I0107 16:27:08.067818  8078 layer_factory.hpp:74] Creating layer inception_4b/relu_1x1
I0107 16:27:08.067837  8078 net.cpp:84] Creating Layer inception_4b/relu_1x1
I0107 16:27:08.067852  8078 net.cpp:380] inception_4b/relu_1x1 <- inception_4b/1x1
I0107 16:27:08.067870  8078 net.cpp:327] inception_4b/relu_1x1 -> inception_4b/1x1 (in-place)
I0107 16:27:08.067888  8078 net.cpp:113] Setting up inception_4b/relu_1x1
I0107 16:27:08.068064  8078 net.cpp:120] Top shape: 80 160 14 14 (2508800)
I0107 16:27:08.068101  8078 layer_factory.hpp:74] Creating layer inception_4b/3x3_reduce
I0107 16:27:08.068125  8078 net.cpp:84] Creating Layer inception_4b/3x3_reduce
I0107 16:27:08.068138  8078 net.cpp:380] inception_4b/3x3_reduce <- inception_4a/output_inception_4a/output_0_split_2
I0107 16:27:08.068157  8078 net.cpp:338] inception_4b/3x3_reduce -> inception_4b/3x3_reduce
I0107 16:27:08.068178  8078 net.cpp:113] Setting up inception_4b/3x3_reduce
I0107 16:27:08.070224  8078 net.cpp:120] Top shape: 80 112 14 14 (1756160)
I0107 16:27:08.070260  8078 layer_factory.hpp:74] Creating layer inception_4b/relu_3x3_reduce
I0107 16:27:08.070296  8078 net.cpp:84] Creating Layer inception_4b/relu_3x3_reduce
I0107 16:27:08.070310  8078 net.cpp:380] inception_4b/relu_3x3_reduce <- inception_4b/3x3_reduce
I0107 16:27:08.070327  8078 net.cpp:327] inception_4b/relu_3x3_reduce -> inception_4b/3x3_reduce (in-place)
I0107 16:27:08.070345  8078 net.cpp:113] Setting up inception_4b/relu_3x3_reduce
I0107 16:27:08.070492  8078 net.cpp:120] Top shape: 80 112 14 14 (1756160)
I0107 16:27:08.070508  8078 layer_factory.hpp:74] Creating layer inception_4b/3x3
I0107 16:27:08.070544  8078 net.cpp:84] Creating Layer inception_4b/3x3
I0107 16:27:08.070556  8078 net.cpp:380] inception_4b/3x3 <- inception_4b/3x3_reduce
I0107 16:27:08.070574  8078 net.cpp:338] inception_4b/3x3 -> inception_4b/3x3
I0107 16:27:08.070593  8078 net.cpp:113] Setting up inception_4b/3x3
I0107 16:27:08.076215  8078 net.cpp:120] Top shape: 80 224 14 14 (3512320)
I0107 16:27:08.076257  8078 layer_factory.hpp:74] Creating layer inception_4b/relu_3x3
I0107 16:27:08.076277  8078 net.cpp:84] Creating Layer inception_4b/relu_3x3
I0107 16:27:08.076289  8078 net.cpp:380] inception_4b/relu_3x3 <- inception_4b/3x3
I0107 16:27:08.076304  8078 net.cpp:327] inception_4b/relu_3x3 -> inception_4b/3x3 (in-place)
I0107 16:27:08.076323  8078 net.cpp:113] Setting up inception_4b/relu_3x3
I0107 16:27:08.076730  8078 net.cpp:120] Top shape: 80 224 14 14 (3512320)
I0107 16:27:08.076751  8078 layer_factory.hpp:74] Creating layer inception_4b/5x5_reduce
I0107 16:27:08.076771  8078 net.cpp:84] Creating Layer inception_4b/5x5_reduce
I0107 16:27:08.076782  8078 net.cpp:380] inception_4b/5x5_reduce <- inception_4a/output_inception_4a/output_0_split_3
I0107 16:27:08.076802  8078 net.cpp:338] inception_4b/5x5_reduce -> inception_4b/5x5_reduce
I0107 16:27:08.076820  8078 net.cpp:113] Setting up inception_4b/5x5_reduce
I0107 16:27:08.077900  8078 net.cpp:120] Top shape: 80 24 14 14 (376320)
I0107 16:27:08.077934  8078 layer_factory.hpp:74] Creating layer inception_4b/relu_5x5_reduce
I0107 16:27:08.077968  8078 net.cpp:84] Creating Layer inception_4b/relu_5x5_reduce
I0107 16:27:08.077981  8078 net.cpp:380] inception_4b/relu_5x5_reduce <- inception_4b/5x5_reduce
I0107 16:27:08.078003  8078 net.cpp:327] inception_4b/relu_5x5_reduce -> inception_4b/5x5_reduce (in-place)
I0107 16:27:08.078019  8078 net.cpp:113] Setting up inception_4b/relu_5x5_reduce
I0107 16:27:08.078162  8078 net.cpp:120] Top shape: 80 24 14 14 (376320)
I0107 16:27:08.078186  8078 layer_factory.hpp:74] Creating layer inception_4b/5x5
I0107 16:27:08.078204  8078 net.cpp:84] Creating Layer inception_4b/5x5
I0107 16:27:08.078215  8078 net.cpp:380] inception_4b/5x5 <- inception_4b/5x5_reduce
I0107 16:27:08.078233  8078 net.cpp:338] inception_4b/5x5 -> inception_4b/5x5
I0107 16:27:08.078250  8078 net.cpp:113] Setting up inception_4b/5x5
I0107 16:27:08.079828  8078 net.cpp:120] Top shape: 80 64 14 14 (1003520)
I0107 16:27:08.079860  8078 layer_factory.hpp:74] Creating layer inception_4b/relu_5x5
I0107 16:27:08.079874  8078 net.cpp:84] Creating Layer inception_4b/relu_5x5
I0107 16:27:08.079885  8078 net.cpp:380] inception_4b/relu_5x5 <- inception_4b/5x5
I0107 16:27:08.079900  8078 net.cpp:327] inception_4b/relu_5x5 -> inception_4b/5x5 (in-place)
I0107 16:27:08.079920  8078 net.cpp:113] Setting up inception_4b/relu_5x5
I0107 16:27:08.080077  8078 net.cpp:120] Top shape: 80 64 14 14 (1003520)
I0107 16:27:08.080101  8078 layer_factory.hpp:74] Creating layer inception_4b/pool
I0107 16:27:08.080127  8078 layer_factory.cpp:56] CUDNN does not support padding or multiple tops. Using Caffe's own pooling layer.
I0107 16:27:08.080140  8078 net.cpp:84] Creating Layer inception_4b/pool
I0107 16:27:08.080152  8078 net.cpp:380] inception_4b/pool <- inception_4a/output_inception_4a/output_0_split_4
I0107 16:27:08.080164  8078 net.cpp:338] inception_4b/pool -> inception_4b/pool
I0107 16:27:08.080196  8078 net.cpp:113] Setting up inception_4b/pool
I0107 16:27:08.080224  8078 net.cpp:120] Top shape: 80 512 14 14 (8028160)
I0107 16:27:08.080235  8078 layer_factory.hpp:74] Creating layer inception_4b/pool_proj
I0107 16:27:08.080270  8078 net.cpp:84] Creating Layer inception_4b/pool_proj
I0107 16:27:08.080281  8078 net.cpp:380] inception_4b/pool_proj <- inception_4b/pool
I0107 16:27:08.080294  8078 net.cpp:338] inception_4b/pool_proj -> inception_4b/pool_proj
I0107 16:27:08.080312  8078 net.cpp:113] Setting up inception_4b/pool_proj
I0107 16:27:08.081933  8078 net.cpp:120] Top shape: 80 64 14 14 (1003520)
I0107 16:27:08.081980  8078 layer_factory.hpp:74] Creating layer inception_4b/relu_pool_proj
I0107 16:27:08.082001  8078 net.cpp:84] Creating Layer inception_4b/relu_pool_proj
I0107 16:27:08.082013  8078 net.cpp:380] inception_4b/relu_pool_proj <- inception_4b/pool_proj
I0107 16:27:08.082028  8078 net.cpp:327] inception_4b/relu_pool_proj -> inception_4b/pool_proj (in-place)
I0107 16:27:08.082044  8078 net.cpp:113] Setting up inception_4b/relu_pool_proj
I0107 16:27:08.082443  8078 net.cpp:120] Top shape: 80 64 14 14 (1003520)
I0107 16:27:08.082463  8078 layer_factory.hpp:74] Creating layer inception_4b/output
I0107 16:27:08.082480  8078 net.cpp:84] Creating Layer inception_4b/output
I0107 16:27:08.082491  8078 net.cpp:380] inception_4b/output <- inception_4b/1x1
I0107 16:27:08.082504  8078 net.cpp:380] inception_4b/output <- inception_4b/3x3
I0107 16:27:08.082515  8078 net.cpp:380] inception_4b/output <- inception_4b/5x5
I0107 16:27:08.082525  8078 net.cpp:380] inception_4b/output <- inception_4b/pool_proj
I0107 16:27:08.082538  8078 net.cpp:338] inception_4b/output -> inception_4b/output
I0107 16:27:08.082554  8078 net.cpp:113] Setting up inception_4b/output
I0107 16:27:08.082571  8078 net.cpp:120] Top shape: 80 512 14 14 (8028160)
I0107 16:27:08.082581  8078 layer_factory.hpp:74] Creating layer inception_4b/output_inception_4b/output_0_split
I0107 16:27:08.082592  8078 net.cpp:84] Creating Layer inception_4b/output_inception_4b/output_0_split
I0107 16:27:08.082602  8078 net.cpp:380] inception_4b/output_inception_4b/output_0_split <- inception_4b/output
I0107 16:27:08.082618  8078 net.cpp:338] inception_4b/output_inception_4b/output_0_split -> inception_4b/output_inception_4b/output_0_split_0
I0107 16:27:08.082634  8078 net.cpp:338] inception_4b/output_inception_4b/output_0_split -> inception_4b/output_inception_4b/output_0_split_1
I0107 16:27:08.082649  8078 net.cpp:338] inception_4b/output_inception_4b/output_0_split -> inception_4b/output_inception_4b/output_0_split_2
I0107 16:27:08.082664  8078 net.cpp:338] inception_4b/output_inception_4b/output_0_split -> inception_4b/output_inception_4b/output_0_split_3
I0107 16:27:08.082677  8078 net.cpp:113] Setting up inception_4b/output_inception_4b/output_0_split
I0107 16:27:08.082692  8078 net.cpp:120] Top shape: 80 512 14 14 (8028160)
I0107 16:27:08.082702  8078 net.cpp:120] Top shape: 80 512 14 14 (8028160)
I0107 16:27:08.082713  8078 net.cpp:120] Top shape: 80 512 14 14 (8028160)
I0107 16:27:08.082723  8078 net.cpp:120] Top shape: 80 512 14 14 (8028160)
I0107 16:27:08.082732  8078 layer_factory.hpp:74] Creating layer inception_4c/1x1
I0107 16:27:08.082763  8078 net.cpp:84] Creating Layer inception_4c/1x1
I0107 16:27:08.082773  8078 net.cpp:380] inception_4c/1x1 <- inception_4b/output_inception_4b/output_0_split_0
I0107 16:27:08.082787  8078 net.cpp:338] inception_4c/1x1 -> inception_4c/1x1
I0107 16:27:08.082803  8078 net.cpp:113] Setting up inception_4c/1x1
I0107 16:27:08.085083  8078 net.cpp:120] Top shape: 80 128 14 14 (2007040)
I0107 16:27:08.085129  8078 layer_factory.hpp:74] Creating layer inception_4c/relu_1x1
I0107 16:27:08.085162  8078 net.cpp:84] Creating Layer inception_4c/relu_1x1
I0107 16:27:08.085176  8078 net.cpp:380] inception_4c/relu_1x1 <- inception_4c/1x1
I0107 16:27:08.085191  8078 net.cpp:327] inception_4c/relu_1x1 -> inception_4c/1x1 (in-place)
I0107 16:27:08.085207  8078 net.cpp:113] Setting up inception_4c/relu_1x1
I0107 16:27:08.085348  8078 net.cpp:120] Top shape: 80 128 14 14 (2007040)
I0107 16:27:08.085362  8078 layer_factory.hpp:74] Creating layer inception_4c/3x3_reduce
I0107 16:27:08.085377  8078 net.cpp:84] Creating Layer inception_4c/3x3_reduce
I0107 16:27:08.085387  8078 net.cpp:380] inception_4c/3x3_reduce <- inception_4b/output_inception_4b/output_0_split_1
I0107 16:27:08.085405  8078 net.cpp:338] inception_4c/3x3_reduce -> inception_4c/3x3_reduce
I0107 16:27:08.085423  8078 net.cpp:113] Setting up inception_4c/3x3_reduce
I0107 16:27:08.087613  8078 net.cpp:120] Top shape: 80 128 14 14 (2007040)
I0107 16:27:08.087651  8078 layer_factory.hpp:74] Creating layer inception_4c/relu_3x3_reduce
I0107 16:27:08.087682  8078 net.cpp:84] Creating Layer inception_4c/relu_3x3_reduce
I0107 16:27:08.087694  8078 net.cpp:380] inception_4c/relu_3x3_reduce <- inception_4c/3x3_reduce
I0107 16:27:08.087709  8078 net.cpp:327] inception_4c/relu_3x3_reduce -> inception_4c/3x3_reduce (in-place)
I0107 16:27:08.087725  8078 net.cpp:113] Setting up inception_4c/relu_3x3_reduce
I0107 16:27:08.087865  8078 net.cpp:120] Top shape: 80 128 14 14 (2007040)
I0107 16:27:08.087878  8078 layer_factory.hpp:74] Creating layer inception_4c/3x3
I0107 16:27:08.087893  8078 net.cpp:84] Creating Layer inception_4c/3x3
I0107 16:27:08.087903  8078 net.cpp:380] inception_4c/3x3 <- inception_4c/3x3_reduce
I0107 16:27:08.087920  8078 net.cpp:338] inception_4c/3x3 -> inception_4c/3x3
I0107 16:27:08.087939  8078 net.cpp:113] Setting up inception_4c/3x3
I0107 16:27:08.094900  8078 net.cpp:120] Top shape: 80 256 14 14 (4014080)
I0107 16:27:08.094946  8078 layer_factory.hpp:74] Creating layer inception_4c/relu_3x3
I0107 16:27:08.094964  8078 net.cpp:84] Creating Layer inception_4c/relu_3x3
I0107 16:27:08.094974  8078 net.cpp:380] inception_4c/relu_3x3 <- inception_4c/3x3
I0107 16:27:08.094987  8078 net.cpp:327] inception_4c/relu_3x3 -> inception_4c/3x3 (in-place)
I0107 16:27:08.095001  8078 net.cpp:113] Setting up inception_4c/relu_3x3
I0107 16:27:08.095129  8078 net.cpp:120] Top shape: 80 256 14 14 (4014080)
I0107 16:27:08.095154  8078 layer_factory.hpp:74] Creating layer inception_4c/5x5_reduce
I0107 16:27:08.095171  8078 net.cpp:84] Creating Layer inception_4c/5x5_reduce
I0107 16:27:08.095181  8078 net.cpp:380] inception_4c/5x5_reduce <- inception_4b/output_inception_4b/output_0_split_2
I0107 16:27:08.095198  8078 net.cpp:338] inception_4c/5x5_reduce -> inception_4c/5x5_reduce
I0107 16:27:08.095214  8078 net.cpp:113] Setting up inception_4c/5x5_reduce
I0107 16:27:08.096127  8078 net.cpp:120] Top shape: 80 24 14 14 (376320)
I0107 16:27:08.096153  8078 layer_factory.hpp:74] Creating layer inception_4c/relu_5x5_reduce
I0107 16:27:08.096179  8078 net.cpp:84] Creating Layer inception_4c/relu_5x5_reduce
I0107 16:27:08.096190  8078 net.cpp:380] inception_4c/relu_5x5_reduce <- inception_4c/5x5_reduce
I0107 16:27:08.096206  8078 net.cpp:327] inception_4c/relu_5x5_reduce -> inception_4c/5x5_reduce (in-place)
I0107 16:27:08.096220  8078 net.cpp:113] Setting up inception_4c/relu_5x5_reduce
I0107 16:27:08.096768  8078 net.cpp:120] Top shape: 80 24 14 14 (376320)
I0107 16:27:08.096792  8078 layer_factory.hpp:74] Creating layer inception_4c/5x5
I0107 16:27:08.096812  8078 net.cpp:84] Creating Layer inception_4c/5x5
I0107 16:27:08.096823  8078 net.cpp:380] inception_4c/5x5 <- inception_4c/5x5_reduce
I0107 16:27:08.096837  8078 net.cpp:338] inception_4c/5x5 -> inception_4c/5x5
I0107 16:27:08.096853  8078 net.cpp:113] Setting up inception_4c/5x5
I0107 16:27:08.099582  8078 net.cpp:120] Top shape: 80 64 14 14 (1003520)
I0107 16:27:08.099609  8078 layer_factory.hpp:74] Creating layer inception_4c/relu_5x5
I0107 16:27:08.099624  8078 net.cpp:84] Creating Layer inception_4c/relu_5x5
I0107 16:27:08.099632  8078 net.cpp:380] inception_4c/relu_5x5 <- inception_4c/5x5
I0107 16:27:08.099638  8078 net.cpp:327] inception_4c/relu_5x5 -> inception_4c/5x5 (in-place)
I0107 16:27:08.099647  8078 net.cpp:113] Setting up inception_4c/relu_5x5
I0107 16:27:08.099727  8078 net.cpp:120] Top shape: 80 64 14 14 (1003520)
I0107 16:27:08.099735  8078 layer_factory.hpp:74] Creating layer inception_4c/pool
I0107 16:27:08.099752  8078 layer_factory.cpp:56] CUDNN does not support padding or multiple tops. Using Caffe's own pooling layer.
I0107 16:27:08.099759  8078 net.cpp:84] Creating Layer inception_4c/pool
I0107 16:27:08.099764  8078 net.cpp:380] inception_4c/pool <- inception_4b/output_inception_4b/output_0_split_3
I0107 16:27:08.099772  8078 net.cpp:338] inception_4c/pool -> inception_4c/pool
I0107 16:27:08.099781  8078 net.cpp:113] Setting up inception_4c/pool
I0107 16:27:08.099789  8078 net.cpp:120] Top shape: 80 512 14 14 (8028160)
I0107 16:27:08.099800  8078 layer_factory.hpp:74] Creating layer inception_4c/pool_proj
I0107 16:27:08.099812  8078 net.cpp:84] Creating Layer inception_4c/pool_proj
I0107 16:27:08.099817  8078 net.cpp:380] inception_4c/pool_proj <- inception_4c/pool
I0107 16:27:08.099825  8078 net.cpp:338] inception_4c/pool_proj -> inception_4c/pool_proj
I0107 16:27:08.099834  8078 net.cpp:113] Setting up inception_4c/pool_proj
I0107 16:27:08.101179  8078 net.cpp:120] Top shape: 80 64 14 14 (1003520)
I0107 16:27:08.101207  8078 layer_factory.hpp:74] Creating layer inception_4c/relu_pool_proj
I0107 16:27:08.101223  8078 net.cpp:84] Creating Layer inception_4c/relu_pool_proj
I0107 16:27:08.101234  8078 net.cpp:380] inception_4c/relu_pool_proj <- inception_4c/pool_proj
I0107 16:27:08.101248  8078 net.cpp:327] inception_4c/relu_pool_proj -> inception_4c/pool_proj (in-place)
I0107 16:27:08.101264  8078 net.cpp:113] Setting up inception_4c/relu_pool_proj
I0107 16:27:08.101390  8078 net.cpp:120] Top shape: 80 64 14 14 (1003520)
I0107 16:27:08.101402  8078 layer_factory.hpp:74] Creating layer inception_4c/output
I0107 16:27:08.101426  8078 net.cpp:84] Creating Layer inception_4c/output
I0107 16:27:08.101438  8078 net.cpp:380] inception_4c/output <- inception_4c/1x1
I0107 16:27:08.101465  8078 net.cpp:380] inception_4c/output <- inception_4c/3x3
I0107 16:27:08.101480  8078 net.cpp:380] inception_4c/output <- inception_4c/5x5
I0107 16:27:08.101490  8078 net.cpp:380] inception_4c/output <- inception_4c/pool_proj
I0107 16:27:08.101505  8078 net.cpp:338] inception_4c/output -> inception_4c/output
I0107 16:27:08.101519  8078 net.cpp:113] Setting up inception_4c/output
I0107 16:27:08.101533  8078 net.cpp:120] Top shape: 80 512 14 14 (8028160)
I0107 16:27:08.101553  8078 layer_factory.hpp:74] Creating layer inception_4c/output_inception_4c/output_0_split
I0107 16:27:08.101563  8078 net.cpp:84] Creating Layer inception_4c/output_inception_4c/output_0_split
I0107 16:27:08.101572  8078 net.cpp:380] inception_4c/output_inception_4c/output_0_split <- inception_4c/output
I0107 16:27:08.101585  8078 net.cpp:338] inception_4c/output_inception_4c/output_0_split -> inception_4c/output_inception_4c/output_0_split_0
I0107 16:27:08.101599  8078 net.cpp:338] inception_4c/output_inception_4c/output_0_split -> inception_4c/output_inception_4c/output_0_split_1
I0107 16:27:08.101611  8078 net.cpp:338] inception_4c/output_inception_4c/output_0_split -> inception_4c/output_inception_4c/output_0_split_2
I0107 16:27:08.101624  8078 net.cpp:338] inception_4c/output_inception_4c/output_0_split -> inception_4c/output_inception_4c/output_0_split_3
I0107 16:27:08.101635  8078 net.cpp:113] Setting up inception_4c/output_inception_4c/output_0_split
I0107 16:27:08.101647  8078 net.cpp:120] Top shape: 80 512 14 14 (8028160)
I0107 16:27:08.101657  8078 net.cpp:120] Top shape: 80 512 14 14 (8028160)
I0107 16:27:08.101666  8078 net.cpp:120] Top shape: 80 512 14 14 (8028160)
I0107 16:27:08.101692  8078 net.cpp:120] Top shape: 80 512 14 14 (8028160)
I0107 16:27:08.101724  8078 layer_factory.hpp:74] Creating layer inception_4d/1x1
I0107 16:27:08.101744  8078 net.cpp:84] Creating Layer inception_4d/1x1
I0107 16:27:08.101753  8078 net.cpp:380] inception_4d/1x1 <- inception_4c/output_inception_4c/output_0_split_0
I0107 16:27:08.101768  8078 net.cpp:338] inception_4d/1x1 -> inception_4d/1x1
I0107 16:27:08.101783  8078 net.cpp:113] Setting up inception_4d/1x1
I0107 16:27:08.103538  8078 net.cpp:120] Top shape: 80 112 14 14 (1756160)
I0107 16:27:08.103564  8078 layer_factory.hpp:74] Creating layer inception_4d/relu_1x1
I0107 16:27:08.103575  8078 net.cpp:84] Creating Layer inception_4d/relu_1x1
I0107 16:27:08.103585  8078 net.cpp:380] inception_4d/relu_1x1 <- inception_4d/1x1
I0107 16:27:08.103601  8078 net.cpp:327] inception_4d/relu_1x1 -> inception_4d/1x1 (in-place)
I0107 16:27:08.103615  8078 net.cpp:113] Setting up inception_4d/relu_1x1
I0107 16:27:08.103730  8078 net.cpp:120] Top shape: 80 112 14 14 (1756160)
I0107 16:27:08.103741  8078 layer_factory.hpp:74] Creating layer inception_4d/3x3_reduce
I0107 16:27:08.103756  8078 net.cpp:84] Creating Layer inception_4d/3x3_reduce
I0107 16:27:08.103765  8078 net.cpp:380] inception_4d/3x3_reduce <- inception_4c/output_inception_4c/output_0_split_1
I0107 16:27:08.103783  8078 net.cpp:338] inception_4d/3x3_reduce -> inception_4d/3x3_reduce
I0107 16:27:08.103798  8078 net.cpp:113] Setting up inception_4d/3x3_reduce
I0107 16:27:08.105854  8078 net.cpp:120] Top shape: 80 144 14 14 (2257920)
I0107 16:27:08.105880  8078 layer_factory.hpp:74] Creating layer inception_4d/relu_3x3_reduce
I0107 16:27:08.105911  8078 net.cpp:84] Creating Layer inception_4d/relu_3x3_reduce
I0107 16:27:08.105921  8078 net.cpp:380] inception_4d/relu_3x3_reduce <- inception_4d/3x3_reduce
I0107 16:27:08.105934  8078 net.cpp:327] inception_4d/relu_3x3_reduce -> inception_4d/3x3_reduce (in-place)
I0107 16:27:08.105947  8078 net.cpp:113] Setting up inception_4d/relu_3x3_reduce
I0107 16:27:08.106333  8078 net.cpp:120] Top shape: 80 144 14 14 (2257920)
I0107 16:27:08.106351  8078 layer_factory.hpp:74] Creating layer inception_4d/3x3
I0107 16:27:08.106384  8078 net.cpp:84] Creating Layer inception_4d/3x3
I0107 16:27:08.106394  8078 net.cpp:380] inception_4d/3x3 <- inception_4d/3x3_reduce
I0107 16:27:08.106410  8078 net.cpp:338] inception_4d/3x3 -> inception_4d/3x3
I0107 16:27:08.106426  8078 net.cpp:113] Setting up inception_4d/3x3
I0107 16:27:08.115253  8078 net.cpp:120] Top shape: 80 288 14 14 (4515840)
I0107 16:27:08.115283  8078 layer_factory.hpp:74] Creating layer inception_4d/relu_3x3
I0107 16:27:08.115293  8078 net.cpp:84] Creating Layer inception_4d/relu_3x3
I0107 16:27:08.115303  8078 net.cpp:380] inception_4d/relu_3x3 <- inception_4d/3x3
I0107 16:27:08.115314  8078 net.cpp:327] inception_4d/relu_3x3 -> inception_4d/3x3 (in-place)
I0107 16:27:08.115327  8078 net.cpp:113] Setting up inception_4d/relu_3x3
I0107 16:27:08.115485  8078 net.cpp:120] Top shape: 80 288 14 14 (4515840)
I0107 16:27:08.115500  8078 layer_factory.hpp:74] Creating layer inception_4d/5x5_reduce
I0107 16:27:08.115528  8078 net.cpp:84] Creating Layer inception_4d/5x5_reduce
I0107 16:27:08.115538  8078 net.cpp:380] inception_4d/5x5_reduce <- inception_4c/output_inception_4c/output_0_split_2
I0107 16:27:08.115555  8078 net.cpp:338] inception_4d/5x5_reduce -> inception_4d/5x5_reduce
I0107 16:27:08.115568  8078 net.cpp:113] Setting up inception_4d/5x5_reduce
I0107 16:27:08.116469  8078 net.cpp:120] Top shape: 80 32 14 14 (501760)
I0107 16:27:08.116493  8078 layer_factory.hpp:74] Creating layer inception_4d/relu_5x5_reduce
I0107 16:27:08.116504  8078 net.cpp:84] Creating Layer inception_4d/relu_5x5_reduce
I0107 16:27:08.116514  8078 net.cpp:380] inception_4d/relu_5x5_reduce <- inception_4d/5x5_reduce
I0107 16:27:08.116525  8078 net.cpp:327] inception_4d/relu_5x5_reduce -> inception_4d/5x5_reduce (in-place)
I0107 16:27:08.116539  8078 net.cpp:113] Setting up inception_4d/relu_5x5_reduce
I0107 16:27:08.116646  8078 net.cpp:120] Top shape: 80 32 14 14 (501760)
I0107 16:27:08.116672  8078 layer_factory.hpp:74] Creating layer inception_4d/5x5
I0107 16:27:08.116684  8078 net.cpp:84] Creating Layer inception_4d/5x5
I0107 16:27:08.116693  8078 net.cpp:380] inception_4d/5x5 <- inception_4d/5x5_reduce
I0107 16:27:08.116708  8078 net.cpp:338] inception_4d/5x5 -> inception_4d/5x5
I0107 16:27:08.116720  8078 net.cpp:113] Setting up inception_4d/5x5
I0107 16:27:08.118271  8078 net.cpp:120] Top shape: 80 64 14 14 (1003520)
I0107 16:27:08.118309  8078 layer_factory.hpp:74] Creating layer inception_4d/relu_5x5
I0107 16:27:08.118331  8078 net.cpp:84] Creating Layer inception_4d/relu_5x5
I0107 16:27:08.118341  8078 net.cpp:380] inception_4d/relu_5x5 <- inception_4d/5x5
I0107 16:27:08.118352  8078 net.cpp:327] inception_4d/relu_5x5 -> inception_4d/5x5 (in-place)
I0107 16:27:08.118366  8078 net.cpp:113] Setting up inception_4d/relu_5x5
I0107 16:27:08.118481  8078 net.cpp:120] Top shape: 80 64 14 14 (1003520)
I0107 16:27:08.118491  8078 layer_factory.hpp:74] Creating layer inception_4d/pool
I0107 16:27:08.118500  8078 layer_factory.cpp:56] CUDNN does not support padding or multiple tops. Using Caffe's own pooling layer.
I0107 16:27:08.118512  8078 net.cpp:84] Creating Layer inception_4d/pool
I0107 16:27:08.118520  8078 net.cpp:380] inception_4d/pool <- inception_4c/output_inception_4c/output_0_split_3
I0107 16:27:08.118531  8078 net.cpp:338] inception_4d/pool -> inception_4d/pool
I0107 16:27:08.118544  8078 net.cpp:113] Setting up inception_4d/pool
I0107 16:27:08.118557  8078 net.cpp:120] Top shape: 80 512 14 14 (8028160)
I0107 16:27:08.118566  8078 layer_factory.hpp:74] Creating layer inception_4d/pool_proj
I0107 16:27:08.118579  8078 net.cpp:84] Creating Layer inception_4d/pool_proj
I0107 16:27:08.118587  8078 net.cpp:380] inception_4d/pool_proj <- inception_4d/pool
I0107 16:27:08.118598  8078 net.cpp:338] inception_4d/pool_proj -> inception_4d/pool_proj
I0107 16:27:08.118612  8078 net.cpp:113] Setting up inception_4d/pool_proj
I0107 16:27:08.119794  8078 net.cpp:120] Top shape: 80 64 14 14 (1003520)
I0107 16:27:08.119818  8078 layer_factory.hpp:74] Creating layer inception_4d/relu_pool_proj
I0107 16:27:08.119829  8078 net.cpp:84] Creating Layer inception_4d/relu_pool_proj
I0107 16:27:08.119838  8078 net.cpp:380] inception_4d/relu_pool_proj <- inception_4d/pool_proj
I0107 16:27:08.119851  8078 net.cpp:327] inception_4d/relu_pool_proj -> inception_4d/pool_proj (in-place)
I0107 16:27:08.119864  8078 net.cpp:113] Setting up inception_4d/relu_pool_proj
I0107 16:27:08.120196  8078 net.cpp:120] Top shape: 80 64 14 14 (1003520)
I0107 16:27:08.120213  8078 layer_factory.hpp:74] Creating layer inception_4d/output
I0107 16:27:08.120239  8078 net.cpp:84] Creating Layer inception_4d/output
I0107 16:27:08.120247  8078 net.cpp:380] inception_4d/output <- inception_4d/1x1
I0107 16:27:08.120259  8078 net.cpp:380] inception_4d/output <- inception_4d/3x3
I0107 16:27:08.120267  8078 net.cpp:380] inception_4d/output <- inception_4d/5x5
I0107 16:27:08.120275  8078 net.cpp:380] inception_4d/output <- inception_4d/pool_proj
I0107 16:27:08.120285  8078 net.cpp:338] inception_4d/output -> inception_4d/output
I0107 16:27:08.120298  8078 net.cpp:113] Setting up inception_4d/output
I0107 16:27:08.120311  8078 net.cpp:120] Top shape: 80 528 14 14 (8279040)
I0107 16:27:08.120329  8078 layer_factory.hpp:74] Creating layer inception_4d/output_inception_4d/output_0_split
I0107 16:27:08.120340  8078 net.cpp:84] Creating Layer inception_4d/output_inception_4d/output_0_split
I0107 16:27:08.120348  8078 net.cpp:380] inception_4d/output_inception_4d/output_0_split <- inception_4d/output
I0107 16:27:08.120359  8078 net.cpp:338] inception_4d/output_inception_4d/output_0_split -> inception_4d/output_inception_4d/output_0_split_0
I0107 16:27:08.120373  8078 net.cpp:338] inception_4d/output_inception_4d/output_0_split -> inception_4d/output_inception_4d/output_0_split_1
I0107 16:27:08.120385  8078 net.cpp:338] inception_4d/output_inception_4d/output_0_split -> inception_4d/output_inception_4d/output_0_split_2
I0107 16:27:08.120405  8078 net.cpp:338] inception_4d/output_inception_4d/output_0_split -> inception_4d/output_inception_4d/output_0_split_3
I0107 16:27:08.120427  8078 net.cpp:338] inception_4d/output_inception_4d/output_0_split -> inception_4d/output_inception_4d/output_0_split_4
I0107 16:27:08.120439  8078 net.cpp:113] Setting up inception_4d/output_inception_4d/output_0_split
I0107 16:27:08.120455  8078 net.cpp:120] Top shape: 80 528 14 14 (8279040)
I0107 16:27:08.120463  8078 net.cpp:120] Top shape: 80 528 14 14 (8279040)
I0107 16:27:08.120471  8078 net.cpp:120] Top shape: 80 528 14 14 (8279040)
I0107 16:27:08.120481  8078 net.cpp:120] Top shape: 80 528 14 14 (8279040)
I0107 16:27:08.120488  8078 net.cpp:120] Top shape: 80 528 14 14 (8279040)
I0107 16:27:08.120496  8078 layer_factory.hpp:74] Creating layer loss2/ave_pool
I0107 16:27:08.120507  8078 net.cpp:84] Creating Layer loss2/ave_pool
I0107 16:27:08.120514  8078 net.cpp:380] loss2/ave_pool <- inception_4d/output_inception_4d/output_0_split_0
I0107 16:27:08.120537  8078 net.cpp:338] loss2/ave_pool -> loss2/ave_pool
I0107 16:27:08.120549  8078 net.cpp:113] Setting up loss2/ave_pool
I0107 16:27:08.120666  8078 net.cpp:120] Top shape: 80 528 4 4 (675840)
I0107 16:27:08.120678  8078 layer_factory.hpp:74] Creating layer loss2/conv
I0107 16:27:08.120692  8078 net.cpp:84] Creating Layer loss2/conv
I0107 16:27:08.120702  8078 net.cpp:380] loss2/conv <- loss2/ave_pool
I0107 16:27:08.120713  8078 net.cpp:338] loss2/conv -> loss2/conv
I0107 16:27:08.120728  8078 net.cpp:113] Setting up loss2/conv
I0107 16:27:08.134299  8078 net.cpp:120] Top shape: 80 128 4 4 (163840)
I0107 16:27:08.134341  8078 layer_factory.hpp:74] Creating layer loss2/relu_conv
I0107 16:27:08.134377  8078 net.cpp:84] Creating Layer loss2/relu_conv
I0107 16:27:08.134389  8078 net.cpp:380] loss2/relu_conv <- loss2/conv
I0107 16:27:08.134404  8078 net.cpp:327] loss2/relu_conv -> loss2/conv (in-place)
I0107 16:27:08.134421  8078 net.cpp:113] Setting up loss2/relu_conv
I0107 16:27:08.134563  8078 net.cpp:120] Top shape: 80 128 4 4 (163840)
I0107 16:27:08.134588  8078 layer_factory.hpp:74] Creating layer loss2/fc
I0107 16:27:08.134606  8078 net.cpp:84] Creating Layer loss2/fc
I0107 16:27:08.134618  8078 net.cpp:380] loss2/fc <- loss2/conv
I0107 16:27:08.134634  8078 net.cpp:338] loss2/fc -> loss2/fc
I0107 16:27:08.134652  8078 net.cpp:113] Setting up loss2/fc
I0107 16:27:08.174304  8078 net.cpp:120] Top shape: 80 1024 (81920)
I0107 16:27:08.174342  8078 layer_factory.hpp:74] Creating layer loss2/relu_fc
I0107 16:27:08.174357  8078 net.cpp:84] Creating Layer loss2/relu_fc
I0107 16:27:08.174368  8078 net.cpp:380] loss2/relu_fc <- loss2/fc
I0107 16:27:08.174386  8078 net.cpp:327] loss2/relu_fc -> loss2/fc (in-place)
I0107 16:27:08.174401  8078 net.cpp:113] Setting up loss2/relu_fc
I0107 16:27:08.174919  8078 net.cpp:120] Top shape: 80 1024 (81920)
I0107 16:27:08.174938  8078 layer_factory.hpp:74] Creating layer loss2/drop_fc
I0107 16:27:08.174950  8078 net.cpp:84] Creating Layer loss2/drop_fc
I0107 16:27:08.174959  8078 net.cpp:380] loss2/drop_fc <- loss2/fc
I0107 16:27:08.174973  8078 net.cpp:327] loss2/drop_fc -> loss2/fc (in-place)
I0107 16:27:08.174985  8078 net.cpp:113] Setting up loss2/drop_fc
I0107 16:27:08.174998  8078 net.cpp:120] Top shape: 80 1024 (81920)
I0107 16:27:08.175006  8078 layer_factory.hpp:74] Creating layer loss2/classifier_kaggle
I0107 16:27:08.175031  8078 net.cpp:84] Creating Layer loss2/classifier_kaggle
I0107 16:27:08.175040  8078 net.cpp:380] loss2/classifier_kaggle <- loss2/fc
I0107 16:27:08.175052  8078 net.cpp:338] loss2/classifier_kaggle -> loss2/classifier_kaggle
I0107 16:27:08.175067  8078 net.cpp:113] Setting up loss2/classifier_kaggle
I0107 16:27:08.183015  8078 net.cpp:120] Top shape: 80 447 (35760)
I0107 16:27:08.183046  8078 layer_factory.hpp:74] Creating layer loss2/loss
I0107 16:27:08.183059  8078 net.cpp:84] Creating Layer loss2/loss
I0107 16:27:08.183068  8078 net.cpp:380] loss2/loss <- loss2/classifier_kaggle
I0107 16:27:08.183079  8078 net.cpp:380] loss2/loss <- label_data_1_split_1
I0107 16:27:08.183101  8078 net.cpp:338] loss2/loss -> loss2/loss1
I0107 16:27:08.183128  8078 net.cpp:113] Setting up loss2/loss
I0107 16:27:08.183140  8078 layer_factory.hpp:74] Creating layer loss2/loss
I0107 16:27:08.183375  8078 net.cpp:120] Top shape: (1)
I0107 16:27:08.183387  8078 net.cpp:122]     with loss weight 0.3
I0107 16:27:08.183404  8078 layer_factory.hpp:74] Creating layer inception_4e/1x1
I0107 16:27:08.183429  8078 net.cpp:84] Creating Layer inception_4e/1x1
I0107 16:27:08.183437  8078 net.cpp:380] inception_4e/1x1 <- inception_4d/output_inception_4d/output_0_split_1
I0107 16:27:08.183449  8078 net.cpp:338] inception_4e/1x1 -> inception_4e/1x1
I0107 16:27:08.183462  8078 net.cpp:113] Setting up inception_4e/1x1
I0107 16:27:08.186393  8078 net.cpp:120] Top shape: 80 256 14 14 (4014080)
I0107 16:27:08.186417  8078 layer_factory.hpp:74] Creating layer inception_4e/relu_1x1
I0107 16:27:08.186429  8078 net.cpp:84] Creating Layer inception_4e/relu_1x1
I0107 16:27:08.186437  8078 net.cpp:380] inception_4e/relu_1x1 <- inception_4e/1x1
I0107 16:27:08.186447  8078 net.cpp:327] inception_4e/relu_1x1 -> inception_4e/1x1 (in-place)
I0107 16:27:08.186460  8078 net.cpp:113] Setting up inception_4e/relu_1x1
I0107 16:27:08.186564  8078 net.cpp:120] Top shape: 80 256 14 14 (4014080)
I0107 16:27:08.186573  8078 layer_factory.hpp:74] Creating layer inception_4e/3x3_reduce
I0107 16:27:08.186585  8078 net.cpp:84] Creating Layer inception_4e/3x3_reduce
I0107 16:27:08.186592  8078 net.cpp:380] inception_4e/3x3_reduce <- inception_4d/output_inception_4d/output_0_split_2
I0107 16:27:08.186606  8078 net.cpp:338] inception_4e/3x3_reduce -> inception_4e/3x3_reduce
I0107 16:27:08.186619  8078 net.cpp:113] Setting up inception_4e/3x3_reduce
I0107 16:27:08.188632  8078 net.cpp:120] Top shape: 80 160 14 14 (2508800)
I0107 16:27:08.188655  8078 layer_factory.hpp:74] Creating layer inception_4e/relu_3x3_reduce
I0107 16:27:08.188681  8078 net.cpp:84] Creating Layer inception_4e/relu_3x3_reduce
I0107 16:27:08.188690  8078 net.cpp:380] inception_4e/relu_3x3_reduce <- inception_4e/3x3_reduce
I0107 16:27:08.188701  8078 net.cpp:327] inception_4e/relu_3x3_reduce -> inception_4e/3x3_reduce (in-place)
I0107 16:27:08.188714  8078 net.cpp:113] Setting up inception_4e/relu_3x3_reduce
I0107 16:27:08.188823  8078 net.cpp:120] Top shape: 80 160 14 14 (2508800)
I0107 16:27:08.188841  8078 layer_factory.hpp:74] Creating layer inception_4e/3x3
I0107 16:27:08.188855  8078 net.cpp:84] Creating Layer inception_4e/3x3
I0107 16:27:08.188863  8078 net.cpp:380] inception_4e/3x3 <- inception_4e/3x3_reduce
I0107 16:27:08.188874  8078 net.cpp:338] inception_4e/3x3 -> inception_4e/3x3
I0107 16:27:08.188890  8078 net.cpp:113] Setting up inception_4e/3x3
I0107 16:27:08.196938  8078 net.cpp:120] Top shape: 80 320 14 14 (5017600)
I0107 16:27:08.196962  8078 layer_factory.hpp:74] Creating layer inception_4e/relu_3x3
I0107 16:27:08.196976  8078 net.cpp:84] Creating Layer inception_4e/relu_3x3
I0107 16:27:08.196985  8078 net.cpp:380] inception_4e/relu_3x3 <- inception_4e/3x3
I0107 16:27:08.196997  8078 net.cpp:327] inception_4e/relu_3x3 -> inception_4e/3x3 (in-place)
I0107 16:27:08.197008  8078 net.cpp:113] Setting up inception_4e/relu_3x3
I0107 16:27:08.197317  8078 net.cpp:120] Top shape: 80 320 14 14 (5017600)
I0107 16:27:08.197332  8078 layer_factory.hpp:74] Creating layer inception_4e/5x5_reduce
I0107 16:27:08.197357  8078 net.cpp:84] Creating Layer inception_4e/5x5_reduce
I0107 16:27:08.197367  8078 net.cpp:380] inception_4e/5x5_reduce <- inception_4d/output_inception_4d/output_0_split_3
I0107 16:27:08.197378  8078 net.cpp:338] inception_4e/5x5_reduce -> inception_4e/5x5_reduce
I0107 16:27:08.197391  8078 net.cpp:113] Setting up inception_4e/5x5_reduce
I0107 16:27:08.198245  8078 net.cpp:120] Top shape: 80 32 14 14 (501760)
I0107 16:27:08.198267  8078 layer_factory.hpp:74] Creating layer inception_4e/relu_5x5_reduce
I0107 16:27:08.198277  8078 net.cpp:84] Creating Layer inception_4e/relu_5x5_reduce
I0107 16:27:08.198285  8078 net.cpp:380] inception_4e/relu_5x5_reduce <- inception_4e/5x5_reduce
I0107 16:27:08.198318  8078 net.cpp:327] inception_4e/relu_5x5_reduce -> inception_4e/5x5_reduce (in-place)
I0107 16:27:08.198331  8078 net.cpp:113] Setting up inception_4e/relu_5x5_reduce
I0107 16:27:08.198438  8078 net.cpp:120] Top shape: 80 32 14 14 (501760)
I0107 16:27:08.198447  8078 layer_factory.hpp:74] Creating layer inception_4e/5x5
I0107 16:27:08.198496  8078 net.cpp:84] Creating Layer inception_4e/5x5
I0107 16:27:08.198505  8078 net.cpp:380] inception_4e/5x5 <- inception_4e/5x5_reduce
I0107 16:27:08.198516  8078 net.cpp:338] inception_4e/5x5 -> inception_4e/5x5
I0107 16:27:08.198529  8078 net.cpp:113] Setting up inception_4e/5x5
I0107 16:27:08.200778  8078 net.cpp:120] Top shape: 80 128 14 14 (2007040)
I0107 16:27:08.200800  8078 layer_factory.hpp:74] Creating layer inception_4e/relu_5x5
I0107 16:27:08.200821  8078 net.cpp:84] Creating Layer inception_4e/relu_5x5
I0107 16:27:08.200830  8078 net.cpp:380] inception_4e/relu_5x5 <- inception_4e/5x5
I0107 16:27:08.200840  8078 net.cpp:327] inception_4e/relu_5x5 -> inception_4e/5x5 (in-place)
I0107 16:27:08.200851  8078 net.cpp:113] Setting up inception_4e/relu_5x5
I0107 16:27:08.200952  8078 net.cpp:120] Top shape: 80 128 14 14 (2007040)
I0107 16:27:08.200960  8078 layer_factory.hpp:74] Creating layer inception_4e/pool
I0107 16:27:08.200968  8078 layer_factory.cpp:56] CUDNN does not support padding or multiple tops. Using Caffe's own pooling layer.
I0107 16:27:08.200983  8078 net.cpp:84] Creating Layer inception_4e/pool
I0107 16:27:08.200990  8078 net.cpp:380] inception_4e/pool <- inception_4d/output_inception_4d/output_0_split_4
I0107 16:27:08.201000  8078 net.cpp:338] inception_4e/pool -> inception_4e/pool
I0107 16:27:08.201011  8078 net.cpp:113] Setting up inception_4e/pool
I0107 16:27:08.201023  8078 net.cpp:120] Top shape: 80 528 14 14 (8279040)
I0107 16:27:08.201030  8078 layer_factory.hpp:74] Creating layer inception_4e/pool_proj
I0107 16:27:08.201042  8078 net.cpp:84] Creating Layer inception_4e/pool_proj
I0107 16:27:08.201050  8078 net.cpp:380] inception_4e/pool_proj <- inception_4e/pool
I0107 16:27:08.201059  8078 net.cpp:338] inception_4e/pool_proj -> inception_4e/pool_proj
I0107 16:27:08.201071  8078 net.cpp:113] Setting up inception_4e/pool_proj
I0107 16:27:08.202710  8078 net.cpp:120] Top shape: 80 128 14 14 (2007040)
I0107 16:27:08.202733  8078 layer_factory.hpp:74] Creating layer inception_4e/relu_pool_proj
I0107 16:27:08.202752  8078 net.cpp:84] Creating Layer inception_4e/relu_pool_proj
I0107 16:27:08.202761  8078 net.cpp:380] inception_4e/relu_pool_proj <- inception_4e/pool_proj
I0107 16:27:08.202774  8078 net.cpp:327] inception_4e/relu_pool_proj -> inception_4e/pool_proj (in-place)
I0107 16:27:08.202783  8078 net.cpp:113] Setting up inception_4e/relu_pool_proj
I0107 16:27:08.202878  8078 net.cpp:120] Top shape: 80 128 14 14 (2007040)
I0107 16:27:08.202894  8078 layer_factory.hpp:74] Creating layer inception_4e/output
I0107 16:27:08.202904  8078 net.cpp:84] Creating Layer inception_4e/output
I0107 16:27:08.202911  8078 net.cpp:380] inception_4e/output <- inception_4e/1x1
I0107 16:27:08.202919  8078 net.cpp:380] inception_4e/output <- inception_4e/3x3
I0107 16:27:08.202926  8078 net.cpp:380] inception_4e/output <- inception_4e/5x5
I0107 16:27:08.202934  8078 net.cpp:380] inception_4e/output <- inception_4e/pool_proj
I0107 16:27:08.202944  8078 net.cpp:338] inception_4e/output -> inception_4e/output
I0107 16:27:08.202955  8078 net.cpp:113] Setting up inception_4e/output
I0107 16:27:08.202966  8078 net.cpp:120] Top shape: 80 832 14 14 (13045760)
I0107 16:27:08.202972  8078 layer_factory.hpp:74] Creating layer pool4/3x3_s2
I0107 16:27:08.202981  8078 net.cpp:84] Creating Layer pool4/3x3_s2
I0107 16:27:08.202987  8078 net.cpp:380] pool4/3x3_s2 <- inception_4e/output
I0107 16:27:08.202999  8078 net.cpp:338] pool4/3x3_s2 -> pool4/3x3_s2
I0107 16:27:08.203009  8078 net.cpp:113] Setting up pool4/3x3_s2
I0107 16:27:08.203320  8078 net.cpp:120] Top shape: 80 832 7 7 (3261440)
I0107 16:27:08.203342  8078 layer_factory.hpp:74] Creating layer pool4/3x3_s2_pool4/3x3_s2_0_split
I0107 16:27:08.203362  8078 net.cpp:84] Creating Layer pool4/3x3_s2_pool4/3x3_s2_0_split
I0107 16:27:08.203369  8078 net.cpp:380] pool4/3x3_s2_pool4/3x3_s2_0_split <- pool4/3x3_s2
I0107 16:27:08.203379  8078 net.cpp:338] pool4/3x3_s2_pool4/3x3_s2_0_split -> pool4/3x3_s2_pool4/3x3_s2_0_split_0
I0107 16:27:08.203390  8078 net.cpp:338] pool4/3x3_s2_pool4/3x3_s2_0_split -> pool4/3x3_s2_pool4/3x3_s2_0_split_1
I0107 16:27:08.203400  8078 net.cpp:338] pool4/3x3_s2_pool4/3x3_s2_0_split -> pool4/3x3_s2_pool4/3x3_s2_0_split_2
I0107 16:27:08.203410  8078 net.cpp:338] pool4/3x3_s2_pool4/3x3_s2_0_split -> pool4/3x3_s2_pool4/3x3_s2_0_split_3
I0107 16:27:08.203418  8078 net.cpp:113] Setting up pool4/3x3_s2_pool4/3x3_s2_0_split
I0107 16:27:08.203431  8078 net.cpp:120] Top shape: 80 832 7 7 (3261440)
I0107 16:27:08.203439  8078 net.cpp:120] Top shape: 80 832 7 7 (3261440)
I0107 16:27:08.203446  8078 net.cpp:120] Top shape: 80 832 7 7 (3261440)
I0107 16:27:08.203454  8078 net.cpp:120] Top shape: 80 832 7 7 (3261440)
I0107 16:27:08.203459  8078 layer_factory.hpp:74] Creating layer inception_5a/1x1
I0107 16:27:08.203471  8078 net.cpp:84] Creating Layer inception_5a/1x1
I0107 16:27:08.203479  8078 net.cpp:380] inception_5a/1x1 <- pool4/3x3_s2_pool4/3x3_s2_0_split_0
I0107 16:27:08.203487  8078 net.cpp:338] inception_5a/1x1 -> inception_5a/1x1
I0107 16:27:08.203498  8078 net.cpp:113] Setting up inception_5a/1x1
I0107 16:27:08.207348  8078 net.cpp:120] Top shape: 80 256 7 7 (1003520)
I0107 16:27:08.207371  8078 layer_factory.hpp:74] Creating layer inception_5a/relu_1x1
I0107 16:27:08.207398  8078 net.cpp:84] Creating Layer inception_5a/relu_1x1
I0107 16:27:08.207406  8078 net.cpp:380] inception_5a/relu_1x1 <- inception_5a/1x1
I0107 16:27:08.207428  8078 net.cpp:327] inception_5a/relu_1x1 -> inception_5a/1x1 (in-place)
I0107 16:27:08.207442  8078 net.cpp:113] Setting up inception_5a/relu_1x1
I0107 16:27:08.207536  8078 net.cpp:120] Top shape: 80 256 7 7 (1003520)
I0107 16:27:08.207551  8078 layer_factory.hpp:74] Creating layer inception_5a/3x3_reduce
I0107 16:27:08.207563  8078 net.cpp:84] Creating Layer inception_5a/3x3_reduce
I0107 16:27:08.207571  8078 net.cpp:380] inception_5a/3x3_reduce <- pool4/3x3_s2_pool4/3x3_s2_0_split_1
I0107 16:27:08.207581  8078 net.cpp:338] inception_5a/3x3_reduce -> inception_5a/3x3_reduce
I0107 16:27:08.207592  8078 net.cpp:113] Setting up inception_5a/3x3_reduce
I0107 16:27:08.210206  8078 net.cpp:120] Top shape: 80 160 7 7 (627200)
I0107 16:27:08.210227  8078 layer_factory.hpp:74] Creating layer inception_5a/relu_3x3_reduce
I0107 16:27:08.210239  8078 net.cpp:84] Creating Layer inception_5a/relu_3x3_reduce
I0107 16:27:08.210247  8078 net.cpp:380] inception_5a/relu_3x3_reduce <- inception_5a/3x3_reduce
I0107 16:27:08.210257  8078 net.cpp:327] inception_5a/relu_3x3_reduce -> inception_5a/3x3_reduce (in-place)
I0107 16:27:08.210268  8078 net.cpp:113] Setting up inception_5a/relu_3x3_reduce
I0107 16:27:08.210366  8078 net.cpp:120] Top shape: 80 160 7 7 (627200)
I0107 16:27:08.210373  8078 layer_factory.hpp:74] Creating layer inception_5a/3x3
I0107 16:27:08.210397  8078 net.cpp:84] Creating Layer inception_5a/3x3
I0107 16:27:08.210404  8078 net.cpp:380] inception_5a/3x3 <- inception_5a/3x3_reduce
I0107 16:27:08.210413  8078 net.cpp:338] inception_5a/3x3 -> inception_5a/3x3
I0107 16:27:08.210427  8078 net.cpp:113] Setting up inception_5a/3x3
I0107 16:27:08.217902  8078 net.cpp:120] Top shape: 80 320 7 7 (1254400)
I0107 16:27:08.217924  8078 layer_factory.hpp:74] Creating layer inception_5a/relu_3x3
I0107 16:27:08.217933  8078 net.cpp:84] Creating Layer inception_5a/relu_3x3
I0107 16:27:08.217941  8078 net.cpp:380] inception_5a/relu_3x3 <- inception_5a/3x3
I0107 16:27:08.217952  8078 net.cpp:327] inception_5a/relu_3x3 -> inception_5a/3x3 (in-place)
I0107 16:27:08.217963  8078 net.cpp:113] Setting up inception_5a/relu_3x3
I0107 16:27:08.218055  8078 net.cpp:120] Top shape: 80 320 7 7 (1254400)
I0107 16:27:08.218075  8078 layer_factory.hpp:74] Creating layer inception_5a/5x5_reduce
I0107 16:27:08.218096  8078 net.cpp:84] Creating Layer inception_5a/5x5_reduce
I0107 16:27:08.218112  8078 net.cpp:380] inception_5a/5x5_reduce <- pool4/3x3_s2_pool4/3x3_s2_0_split_2
I0107 16:27:08.218125  8078 net.cpp:338] inception_5a/5x5_reduce -> inception_5a/5x5_reduce
I0107 16:27:08.218137  8078 net.cpp:113] Setting up inception_5a/5x5_reduce
I0107 16:27:08.225700  8078 net.cpp:120] Top shape: 80 32 7 7 (125440)
I0107 16:27:08.225735  8078 layer_factory.hpp:74] Creating layer inception_5a/relu_5x5_reduce
I0107 16:27:08.225762  8078 net.cpp:84] Creating Layer inception_5a/relu_5x5_reduce
I0107 16:27:08.225771  8078 net.cpp:380] inception_5a/relu_5x5_reduce <- inception_5a/5x5_reduce
I0107 16:27:08.225781  8078 net.cpp:327] inception_5a/relu_5x5_reduce -> inception_5a/5x5_reduce (in-place)
I0107 16:27:08.225792  8078 net.cpp:113] Setting up inception_5a/relu_5x5_reduce
I0107 16:27:08.227164  8078 net.cpp:120] Top shape: 80 32 7 7 (125440)
I0107 16:27:08.227185  8078 layer_factory.hpp:74] Creating layer inception_5a/5x5
I0107 16:27:08.227200  8078 net.cpp:84] Creating Layer inception_5a/5x5
I0107 16:27:08.227210  8078 net.cpp:380] inception_5a/5x5 <- inception_5a/5x5_reduce
I0107 16:27:08.227222  8078 net.cpp:338] inception_5a/5x5 -> inception_5a/5x5
I0107 16:27:08.227236  8078 net.cpp:113] Setting up inception_5a/5x5
I0107 16:27:08.229336  8078 net.cpp:120] Top shape: 80 128 7 7 (501760)
I0107 16:27:08.229357  8078 layer_factory.hpp:74] Creating layer inception_5a/relu_5x5
I0107 16:27:08.229369  8078 net.cpp:84] Creating Layer inception_5a/relu_5x5
I0107 16:27:08.229377  8078 net.cpp:380] inception_5a/relu_5x5 <- inception_5a/5x5
I0107 16:27:08.229387  8078 net.cpp:327] inception_5a/relu_5x5 -> inception_5a/5x5 (in-place)
I0107 16:27:08.229398  8078 net.cpp:113] Setting up inception_5a/relu_5x5
I0107 16:27:08.229508  8078 net.cpp:120] Top shape: 80 128 7 7 (501760)
I0107 16:27:08.229532  8078 layer_factory.hpp:74] Creating layer inception_5a/pool
I0107 16:27:08.229540  8078 layer_factory.cpp:56] CUDNN does not support padding or multiple tops. Using Caffe's own pooling layer.
I0107 16:27:08.229549  8078 net.cpp:84] Creating Layer inception_5a/pool
I0107 16:27:08.229557  8078 net.cpp:380] inception_5a/pool <- pool4/3x3_s2_pool4/3x3_s2_0_split_3
I0107 16:27:08.229568  8078 net.cpp:338] inception_5a/pool -> inception_5a/pool
I0107 16:27:08.229578  8078 net.cpp:113] Setting up inception_5a/pool
I0107 16:27:08.229593  8078 net.cpp:120] Top shape: 80 832 7 7 (3261440)
I0107 16:27:08.229599  8078 layer_factory.hpp:74] Creating layer inception_5a/pool_proj
I0107 16:27:08.229617  8078 net.cpp:84] Creating Layer inception_5a/pool_proj
I0107 16:27:08.229624  8078 net.cpp:380] inception_5a/pool_proj <- inception_5a/pool
I0107 16:27:08.229636  8078 net.cpp:338] inception_5a/pool_proj -> inception_5a/pool_proj
I0107 16:27:08.229647  8078 net.cpp:113] Setting up inception_5a/pool_proj
I0107 16:27:08.233252  8078 net.cpp:120] Top shape: 80 128 7 7 (501760)
I0107 16:27:08.233278  8078 layer_factory.hpp:74] Creating layer inception_5a/relu_pool_proj
I0107 16:27:08.233290  8078 net.cpp:84] Creating Layer inception_5a/relu_pool_proj
I0107 16:27:08.233299  8078 net.cpp:380] inception_5a/relu_pool_proj <- inception_5a/pool_proj
I0107 16:27:08.233309  8078 net.cpp:327] inception_5a/relu_pool_proj -> inception_5a/pool_proj (in-place)
I0107 16:27:08.233319  8078 net.cpp:113] Setting up inception_5a/relu_pool_proj
I0107 16:27:08.233415  8078 net.cpp:120] Top shape: 80 128 7 7 (501760)
I0107 16:27:08.233423  8078 layer_factory.hpp:74] Creating layer inception_5a/output
I0107 16:27:08.233435  8078 net.cpp:84] Creating Layer inception_5a/output
I0107 16:27:08.233443  8078 net.cpp:380] inception_5a/output <- inception_5a/1x1
I0107 16:27:08.233461  8078 net.cpp:380] inception_5a/output <- inception_5a/3x3
I0107 16:27:08.233471  8078 net.cpp:380] inception_5a/output <- inception_5a/5x5
I0107 16:27:08.233479  8078 net.cpp:380] inception_5a/output <- inception_5a/pool_proj
I0107 16:27:08.233486  8078 net.cpp:338] inception_5a/output -> inception_5a/output
I0107 16:27:08.233525  8078 net.cpp:113] Setting up inception_5a/output
I0107 16:27:08.233536  8078 net.cpp:120] Top shape: 80 832 7 7 (3261440)
I0107 16:27:08.233542  8078 layer_factory.hpp:74] Creating layer inception_5a/output_inception_5a/output_0_split
I0107 16:27:08.233567  8078 net.cpp:84] Creating Layer inception_5a/output_inception_5a/output_0_split
I0107 16:27:08.233575  8078 net.cpp:380] inception_5a/output_inception_5a/output_0_split <- inception_5a/output
I0107 16:27:08.233584  8078 net.cpp:338] inception_5a/output_inception_5a/output_0_split -> inception_5a/output_inception_5a/output_0_split_0
I0107 16:27:08.233595  8078 net.cpp:338] inception_5a/output_inception_5a/output_0_split -> inception_5a/output_inception_5a/output_0_split_1
I0107 16:27:08.233605  8078 net.cpp:338] inception_5a/output_inception_5a/output_0_split -> inception_5a/output_inception_5a/output_0_split_2
I0107 16:27:08.233614  8078 net.cpp:338] inception_5a/output_inception_5a/output_0_split -> inception_5a/output_inception_5a/output_0_split_3
I0107 16:27:08.233623  8078 net.cpp:113] Setting up inception_5a/output_inception_5a/output_0_split
I0107 16:27:08.233633  8078 net.cpp:120] Top shape: 80 832 7 7 (3261440)
I0107 16:27:08.233640  8078 net.cpp:120] Top shape: 80 832 7 7 (3261440)
I0107 16:27:08.233646  8078 net.cpp:120] Top shape: 80 832 7 7 (3261440)
I0107 16:27:08.233654  8078 net.cpp:120] Top shape: 80 832 7 7 (3261440)
I0107 16:27:08.233659  8078 layer_factory.hpp:74] Creating layer inception_5b/1x1
I0107 16:27:08.233680  8078 net.cpp:84] Creating Layer inception_5b/1x1
I0107 16:27:08.233686  8078 net.cpp:380] inception_5b/1x1 <- inception_5a/output_inception_5a/output_0_split_0
I0107 16:27:08.233698  8078 net.cpp:338] inception_5b/1x1 -> inception_5b/1x1
I0107 16:27:08.233710  8078 net.cpp:113] Setting up inception_5b/1x1
I0107 16:27:08.238965  8078 net.cpp:120] Top shape: 80 384 7 7 (1505280)
I0107 16:27:08.238989  8078 layer_factory.hpp:74] Creating layer inception_5b/relu_1x1
I0107 16:27:08.238998  8078 net.cpp:84] Creating Layer inception_5b/relu_1x1
I0107 16:27:08.239006  8078 net.cpp:380] inception_5b/relu_1x1 <- inception_5b/1x1
I0107 16:27:08.239014  8078 net.cpp:327] inception_5b/relu_1x1 -> inception_5b/1x1 (in-place)
I0107 16:27:08.239027  8078 net.cpp:113] Setting up inception_5b/relu_1x1
I0107 16:27:08.239310  8078 net.cpp:120] Top shape: 80 384 7 7 (1505280)
I0107 16:27:08.239325  8078 layer_factory.hpp:74] Creating layer inception_5b/3x3_reduce
I0107 16:27:08.239334  8078 net.cpp:84] Creating Layer inception_5b/3x3_reduce
I0107 16:27:08.239341  8078 net.cpp:380] inception_5b/3x3_reduce <- inception_5a/output_inception_5a/output_0_split_1
I0107 16:27:08.239353  8078 net.cpp:338] inception_5b/3x3_reduce -> inception_5b/3x3_reduce
I0107 16:27:08.239365  8078 net.cpp:113] Setting up inception_5b/3x3_reduce
I0107 16:27:08.242130  8078 net.cpp:120] Top shape: 80 192 7 7 (752640)
I0107 16:27:08.242149  8078 layer_factory.hpp:74] Creating layer inception_5b/relu_3x3_reduce
I0107 16:27:08.242172  8078 net.cpp:84] Creating Layer inception_5b/relu_3x3_reduce
I0107 16:27:08.242179  8078 net.cpp:380] inception_5b/relu_3x3_reduce <- inception_5b/3x3_reduce
I0107 16:27:08.242187  8078 net.cpp:327] inception_5b/relu_3x3_reduce -> inception_5b/3x3_reduce (in-place)
I0107 16:27:08.242197  8078 net.cpp:113] Setting up inception_5b/relu_3x3_reduce
I0107 16:27:08.242290  8078 net.cpp:120] Top shape: 80 192 7 7 (752640)
I0107 16:27:08.242300  8078 layer_factory.hpp:74] Creating layer inception_5b/3x3
I0107 16:27:08.242312  8078 net.cpp:84] Creating Layer inception_5b/3x3
I0107 16:27:08.242319  8078 net.cpp:380] inception_5b/3x3 <- inception_5b/3x3_reduce
I0107 16:27:08.242327  8078 net.cpp:338] inception_5b/3x3 -> inception_5b/3x3
I0107 16:27:08.242360  8078 net.cpp:113] Setting up inception_5b/3x3
I0107 16:27:08.251488  8078 net.cpp:120] Top shape: 80 384 7 7 (1505280)
I0107 16:27:08.251510  8078 layer_factory.hpp:74] Creating layer inception_5b/relu_3x3
I0107 16:27:08.251519  8078 net.cpp:84] Creating Layer inception_5b/relu_3x3
I0107 16:27:08.251544  8078 net.cpp:380] inception_5b/relu_3x3 <- inception_5b/3x3
I0107 16:27:08.251556  8078 net.cpp:327] inception_5b/relu_3x3 -> inception_5b/3x3 (in-place)
I0107 16:27:08.251566  8078 net.cpp:113] Setting up inception_5b/relu_3x3
I0107 16:27:08.251648  8078 net.cpp:120] Top shape: 80 384 7 7 (1505280)
I0107 16:27:08.251658  8078 layer_factory.hpp:74] Creating layer inception_5b/5x5_reduce
I0107 16:27:08.251670  8078 net.cpp:84] Creating Layer inception_5b/5x5_reduce
I0107 16:27:08.251677  8078 net.cpp:380] inception_5b/5x5_reduce <- inception_5a/output_inception_5a/output_0_split_2
I0107 16:27:08.251685  8078 net.cpp:338] inception_5b/5x5_reduce -> inception_5b/5x5_reduce
I0107 16:27:08.251695  8078 net.cpp:113] Setting up inception_5b/5x5_reduce
I0107 16:27:08.252707  8078 net.cpp:120] Top shape: 80 48 7 7 (188160)
I0107 16:27:08.252725  8078 layer_factory.hpp:74] Creating layer inception_5b/relu_5x5_reduce
I0107 16:27:08.252746  8078 net.cpp:84] Creating Layer inception_5b/relu_5x5_reduce
I0107 16:27:08.252754  8078 net.cpp:380] inception_5b/relu_5x5_reduce <- inception_5b/5x5_reduce
I0107 16:27:08.252763  8078 net.cpp:327] inception_5b/relu_5x5_reduce -> inception_5b/5x5_reduce (in-place)
I0107 16:27:08.252771  8078 net.cpp:113] Setting up inception_5b/relu_5x5_reduce
I0107 16:27:08.252858  8078 net.cpp:120] Top shape: 80 48 7 7 (188160)
I0107 16:27:08.252866  8078 layer_factory.hpp:74] Creating layer inception_5b/5x5
I0107 16:27:08.252879  8078 net.cpp:84] Creating Layer inception_5b/5x5
I0107 16:27:08.252885  8078 net.cpp:380] inception_5b/5x5 <- inception_5b/5x5_reduce
I0107 16:27:08.252893  8078 net.cpp:338] inception_5b/5x5 -> inception_5b/5x5
I0107 16:27:08.252903  8078 net.cpp:113] Setting up inception_5b/5x5
I0107 16:27:08.255452  8078 net.cpp:120] Top shape: 80 128 7 7 (501760)
I0107 16:27:08.255471  8078 layer_factory.hpp:74] Creating layer inception_5b/relu_5x5
I0107 16:27:08.255481  8078 net.cpp:84] Creating Layer inception_5b/relu_5x5
I0107 16:27:08.255488  8078 net.cpp:380] inception_5b/relu_5x5 <- inception_5b/5x5
I0107 16:27:08.255496  8078 net.cpp:327] inception_5b/relu_5x5 -> inception_5b/5x5 (in-place)
I0107 16:27:08.255506  8078 net.cpp:113] Setting up inception_5b/relu_5x5
I0107 16:27:08.255781  8078 net.cpp:120] Top shape: 80 128 7 7 (501760)
I0107 16:27:08.255795  8078 layer_factory.hpp:74] Creating layer inception_5b/pool
I0107 16:27:08.255801  8078 layer_factory.cpp:56] CUDNN does not support padding or multiple tops. Using Caffe's own pooling layer.
I0107 16:27:08.255822  8078 net.cpp:84] Creating Layer inception_5b/pool
I0107 16:27:08.255831  8078 net.cpp:380] inception_5b/pool <- inception_5a/output_inception_5a/output_0_split_3
I0107 16:27:08.255838  8078 net.cpp:338] inception_5b/pool -> inception_5b/pool
I0107 16:27:08.255849  8078 net.cpp:113] Setting up inception_5b/pool
I0107 16:27:08.255861  8078 net.cpp:120] Top shape: 80 832 7 7 (3261440)
I0107 16:27:08.255867  8078 layer_factory.hpp:74] Creating layer inception_5b/pool_proj
I0107 16:27:08.255877  8078 net.cpp:84] Creating Layer inception_5b/pool_proj
I0107 16:27:08.255882  8078 net.cpp:380] inception_5b/pool_proj <- inception_5b/pool
I0107 16:27:08.255890  8078 net.cpp:338] inception_5b/pool_proj -> inception_5b/pool_proj
I0107 16:27:08.255900  8078 net.cpp:113] Setting up inception_5b/pool_proj
I0107 16:27:08.257869  8078 net.cpp:120] Top shape: 80 128 7 7 (501760)
I0107 16:27:08.257889  8078 layer_factory.hpp:74] Creating layer inception_5b/relu_pool_proj
I0107 16:27:08.257899  8078 net.cpp:84] Creating Layer inception_5b/relu_pool_proj
I0107 16:27:08.257907  8078 net.cpp:380] inception_5b/relu_pool_proj <- inception_5b/pool_proj
I0107 16:27:08.257915  8078 net.cpp:327] inception_5b/relu_pool_proj -> inception_5b/pool_proj (in-place)
I0107 16:27:08.257925  8078 net.cpp:113] Setting up inception_5b/relu_pool_proj
I0107 16:27:08.258007  8078 net.cpp:120] Top shape: 80 128 7 7 (501760)
I0107 16:27:08.258014  8078 layer_factory.hpp:74] Creating layer inception_5b/output
I0107 16:27:08.258028  8078 net.cpp:84] Creating Layer inception_5b/output
I0107 16:27:08.258045  8078 net.cpp:380] inception_5b/output <- inception_5b/1x1
I0107 16:27:08.258054  8078 net.cpp:380] inception_5b/output <- inception_5b/3x3
I0107 16:27:08.258060  8078 net.cpp:380] inception_5b/output <- inception_5b/5x5
I0107 16:27:08.258066  8078 net.cpp:380] inception_5b/output <- inception_5b/pool_proj
I0107 16:27:08.258074  8078 net.cpp:338] inception_5b/output -> inception_5b/output
I0107 16:27:08.258082  8078 net.cpp:113] Setting up inception_5b/output
I0107 16:27:08.258092  8078 net.cpp:120] Top shape: 80 1024 7 7 (4014080)
I0107 16:27:08.258097  8078 layer_factory.hpp:74] Creating layer pool5/7x7_s1
I0107 16:27:08.258116  8078 net.cpp:84] Creating Layer pool5/7x7_s1
I0107 16:27:08.258122  8078 net.cpp:380] pool5/7x7_s1 <- inception_5b/output
I0107 16:27:08.258131  8078 net.cpp:338] pool5/7x7_s1 -> pool5/7x7_s1
I0107 16:27:08.258142  8078 net.cpp:113] Setting up pool5/7x7_s1
I0107 16:27:08.258231  8078 net.cpp:120] Top shape: 80 1024 1 1 (81920)
I0107 16:27:08.258239  8078 layer_factory.hpp:74] Creating layer pool5/drop_7x7_s1
I0107 16:27:08.258249  8078 net.cpp:84] Creating Layer pool5/drop_7x7_s1
I0107 16:27:08.258255  8078 net.cpp:380] pool5/drop_7x7_s1 <- pool5/7x7_s1
I0107 16:27:08.258261  8078 net.cpp:327] pool5/drop_7x7_s1 -> pool5/7x7_s1 (in-place)
I0107 16:27:08.258270  8078 net.cpp:113] Setting up pool5/drop_7x7_s1
I0107 16:27:08.258277  8078 net.cpp:120] Top shape: 80 1024 1 1 (81920)
I0107 16:27:08.258283  8078 layer_factory.hpp:74] Creating layer loss3/classifier_kaggle
I0107 16:27:08.258294  8078 net.cpp:84] Creating Layer loss3/classifier_kaggle
I0107 16:27:08.258301  8078 net.cpp:380] loss3/classifier_kaggle <- pool5/7x7_s1
I0107 16:27:08.258308  8078 net.cpp:338] loss3/classifier_kaggle -> loss3/classifier_kaggle
I0107 16:27:08.258317  8078 net.cpp:113] Setting up loss3/classifier_kaggle
I0107 16:27:08.264400  8078 net.cpp:120] Top shape: 80 447 (35760)
I0107 16:27:08.264415  8078 layer_factory.hpp:74] Creating layer loss3/loss3
I0107 16:27:08.264433  8078 net.cpp:84] Creating Layer loss3/loss3
I0107 16:27:08.264441  8078 net.cpp:380] loss3/loss3 <- loss3/classifier_kaggle
I0107 16:27:08.264447  8078 net.cpp:380] loss3/loss3 <- label_data_1_split_2
I0107 16:27:08.264457  8078 net.cpp:338] loss3/loss3 -> loss3/loss3
I0107 16:27:08.264467  8078 net.cpp:113] Setting up loss3/loss3
…
I0107 16:27:08.270591  8078 net.cpp:257] The NetState phase (1) differed from the phase (0) specified by a rule in layer data
I0107 16:27:08.272207  8078 net.cpp:42] Initializing net from parameters: 
name: "MYNET"
state {
  phase: TEST
}
layer {
  name: "data"
  type: "ImageData"
  top: "data"
  top: "label"
  include {
    phase: TEST
  }
  transform_param {
    mirror: false
    crop_size: 224
    mean_value: 129
    mean_value: 129
    mean_value: 129
  }
  image_data_param {
    source: "/home/coldmanck/kaggle/label_val_full_resize_rotated.txt"
    batch_size: 50
    shuffle: true
  }
}
layer {
  name: "conv1/7x7_s2"
  type: "Convolution"
  bottom: "data"
  top: "conv1/7x7_s2"
  param {
    lr_mult: 1
    decay_mult: 1
  }
  param {
    lr_mult: 2
    decay_mult: 0
  }
  convolution_param {
    num_output: 64
    pad: 3
    kernel_size: 7
    stride: 2
    weight_filler {
      type: "xavier"
    }
    bias_filler {
      type: "constant"
      value: 0.2
    }
  }
}
layer {
  name: "conv1/relu_7x7"
  type: "ReLU"
  bottom: "conv1/7x7_s2"
  top: "conv1/7x7_s2"
}
layer {
  name: "pool1/3x3_s2"
  type: "Pooling"
  bottom: "conv1/7x7_s2"
  top: "pool1/3x3_s2"
  pooling_param {
    pool: MAX
    kernel_size: 3
    stride: 2
  }
}
layer {
  name: "pool1/norm1"
  type: "LRN"
  bottom: "pool1/3x3_s2"
  top: "pool1/norm1"
  lrn_param {
    local_size: 5
    alpha: 0.0001
    beta: 0.75
  }
}
layer {
  name: "conv2/3x3_reduce"
  type: "Convolution"
  bottom: "pool1/norm1"
  top: "conv2/3x3_reduce"
  param {
    lr_mult: 1
    decay_mult: 1
  }
  param {
    lr_mult: 2
    decay_mult: 0
  }
  convolution_param {
    num_output: 64
    kernel_size: 1
    weight_filler {
      type: "xavier"
    }
    bias_filler {
      type: "constant"
      value: 0.2
    }
  }
}
layer {
  name: "conv2/relu_3x3_reduce"
  type: "ReLU"
  bottom: "conv2/3x3_reduce"
  top: "conv2/3x3_reduce"
}
layer {
  name: "conv2/3x3"
  type: "Convolution"
  bottom: "conv2/3x3_reduce"
  top: "conv2/3x3"
  param {
    lr_mult: 1
    decay_mult: 1
  }
  param {
    lr_mult: 2
    decay_mult: 0
  }
  convolution_param {
    num_output: 192
    pad: 1
    kernel_size: 3
    weight_filler {
      type: "xavier"
    }
    bias_filler {
      type: "constant"
      value: 0.2
    }
  }
}
layer {
  name: "conv2/relu_3x3"
  type: "ReLU"
  bottom: "conv2/3x3"
  top: "conv2/3x3"
}
layer {
  name: "conv2/norm2"
  type: "LRN"
  bottom: "conv2/3x3"
  top: "conv2/norm2"
  lrn_param {
    local_size: 5
    alpha: 0.0001
    beta: 0.75
  }
}
layer {
  name: "pool2/3x3_s2"
  type: "Pooling"
  bottom: "conv2/norm2"
  top: "pool2/3x3_s2"
  pooling_param {
    pool: MAX
    kernel_size: 3
    stride: 2
  }
}
layer {
  name: "inception_3a/1x1"
  type: "Convolution"
  bottom: "pool2/3x3_s2"
  top: "inception_3a/1x1"
  param {
    lr_mult: 1
    decay_mult: 1
  }
  param {
    lr_mult: 2
    decay_mult: 0
  }
  convolution_param {
    num_output: 64
    kernel_size: 1
    weight_filler {
      type: "xavier"
    }
    bias_filler {
      type: "constant"
      value: 0.2
    }
  }
}
layer {
  name: "inception_3a/relu_1x1"
  type: "ReLU"
  bottom: "inception_3a/1x1"
  top: "inception_3a/1x1"
}
layer {
  name: "inception_3a/3x3_reduce"
  type: "Convolution"
  bottom: "pool2/3x3_s2"
  top: "inception_3a/3x3_reduce"
  param {
    lr_mult: 1
    decay_mult: 1
  }
  param {
    lr_mult: 2
    decay_mult: 0
  }
  convolution_param {
    num_output: 96
    kernel_size: 1
    weight_filler {
      type: "xavier"
    }
    bias_filler {
      type: "constant"
      value: 0.2
    }
  }
}
layer {
  name: "inception_3a/relu_3x3_reduce"
  type: "ReLU"
  bottom: "inception_3a/3x3_reduce"
  top: "inception_3a/3x3_reduce"
}
layer {
  name: "inception_3a/3x3"
  type: "Convolution"
  bottom: "inception_3a/3x3_reduce"
  top: "inception_3a/3x3"
  param {
    lr_mult: 1
    decay_mult: 1
  }
  param {
    lr_mult: 2
    decay_mult: 0
  }
  convolution_param {
    num_output: 128
    pad: 1
    kernel_size: 3
    weight_filler {
      type: "xavier"
    }
    bias_filler {
      type: "constant"
      value: 0.2
    }
  }
}
layer {
  name: "inception_3a/relu_3x3"
  type: "ReLU"
  bottom: "inception_3a/3x3"
  top: "inception_3a/3x3"
}
layer {
  name: "inception_3a/5x5_reduce"
  type: "Convolution"
  bottom: "pool2/3x3_s2"
  top: "inception_3a/5x5_reduce"
  param {
    lr_mult: 1
    decay_mult: 1
  }
  param {
    lr_mult: 2
    decay_mult: 0
  }
  convolution_param {
    num_output: 16
    kernel_size: 1
    weight_filler {
      type: "xavier"
    }
    bias_filler {
      type: "constant"
      value: 0.2
    }
  }
}
layer {
  name: "inception_3a/relu_5x5_reduce"
  type: "ReLU"
  bottom: "inception_3a/5x5_reduce"
  top: "inception_3a/5x5_reduce"
}
layer {
  name: "inception_3a/5x5"
  type: "Convolution"
  bottom: "inception_3a/5x5_reduce"
  top: "inception_3a/5x5"
  param {
    lr_mult: 1
    decay_mult: 1
  }
  param {
    lr_mult: 2
    decay_mult: 0
  }
  convolution_param {
    num_output: 32
    pad: 2
    kernel_size: 5
    weight_filler {
      type: "xavier"
    }
    bias_filler {
      type: "constant"
      value: 0.2
    }
  }
}
layer {
  name: "inception_3a/relu_5x5"
  type: "ReLU"
  bottom: "inception_3a/5x5"
  top: "inception_3a/5x5"
}
layer {
  name: "inception_3a/pool"
  type: "Pooling"
  bottom: "pool2/3x3_s2"
  top: "inception_3a/pool"
  pooling_param {
    pool: MAX
    kernel_size: 3
    stride: 1
    pad: 1
  }
}
layer {
  name: "inception_3a/pool_proj"
  type: "Convolution"
  bottom: "inception_3a/pool"
  top: "inception_3a/pool_proj"
  param {
    lr_mult: 1
    decay_mult: 1
  }
  param {
    lr_mult: 2
    decay_mult: 0
  }
  convolution_param {
    num_output: 32
    kernel_size: 1
    weight_filler {
      type: "xavier"
    }
    bias_filler {
      type: "constant"
      value: 0.2
    }
  }
}
layer {
  name: "inception_3a/relu_pool_proj"
  type: "ReLU"
  bottom: "inception_3a/pool_proj"
  top: "inception_3a/pool_proj"
}
layer {
  name: "inception_3a/output"
  type: "Concat"
  bottom: "inception_3a/1x1"
  bottom: "inception_3a/3x3"
  bottom: "inception_3a/5x5"
  bottom: "inception_3a/pool_proj"
  top: "inception_3a/output"
}
layer {
  name: "inception_3b/1x1"
  type: "Convolution"
  bottom: "inception_3a/output"
  top: "inception_3b/1x1"
  param {
    lr_mult: 1
    decay_mult: 1
  }
  param {
    lr_mult: 2
    decay_mult: 0
  }
  convolution_param {
    num_output: 128
    kernel_size: 1
    weight_filler {
      type: "xavier"
    }
    bias_filler {
      type: "constant"
      value: 0.2
    }
  }
}
layer {
  name: "inception_3b/relu_1x1"
  type: "ReLU"
  bottom: "inception_3b/1x1"
  top: "inception_3b/1x1"
}
layer {
  name: "inception_3b/3x3_reduce"
  type: "Convolution"
  bottom: "inception_3a/output"
  top: "inception_3b/3x3_reduce"
  param {
    lr_mult: 1
    decay_mult: 1
  }
  param {
    lr_mult: 2
    decay_mult: 0
  }
  convolution_param {
    num_output: 128
    kernel_size: 1
    weight_filler {
      type: "xavier"
    }
    bias_filler {
      type: "constant"
      value: 0.2
    }
  }
}
layer {
  name: "inception_3b/relu_3x3_reduce"
  type: "ReLU"
  bottom: "inception_3b/3x3_reduce"
  top: "inception_3b/3x3_reduce"
}
layer {
  name: "inception_3b/3x3"
  type: "Convolution"
  bottom: "inception_3b/3x3_reduce"
  top: "inception_3b/3x3"
  param {
    lr_mult: 1
    decay_mult: 1
  }
  param {
    lr_mult: 2
    decay_mult: 0
  }
  convolution_param {
    num_output: 192
    pad: 1
    kernel_size: 3
    weight_filler {
      type: "xavier"
    }
    bias_filler {
      type: "constant"
      value: 0.2
    }
  }
}
layer {
  name: "inception_3b/relu_3x3"
  type: "ReLU"
  bottom: "inception_3b/3x3"
  top: "inception_3b/3x3"
}
layer {
  name: "inception_3b/5x5_reduce"
  type: "Convolution"
  bottom: "inception_3a/output"
  top: "inception_3b/5x5_reduce"
  param {
    lr_mult: 1
    decay_mult: 1
  }
  param {
    lr_mult: 2
    decay_mult: 0
  }
  convolution_param {
    num_output: 32
    kernel_size: 1
    weight_filler {
      type: "xavier"
    }
    bias_filler {
      type: "constant"
      value: 0.2
    }
  }
}
layer {
  name: "inception_3b/relu_5x5_reduce"
  type: "ReLU"
  bottom: "inception_3b/5x5_reduce"
  top: "inception_3b/5x5_reduce"
}
layer {
  name: "inception_3b/5x5"
  type: "Convolution"
  bottom: "inception_3b/5x5_reduce"
  top: "inception_3b/5x5"
  param {
    lr_mult: 1
    decay_mult: 1
  }
  param {
    lr_mult: 2
    decay_mult: 0
  }
  convolution_param {
    num_output: 96
    pad: 2
    kernel_size: 5
    weight_filler {
      type: "xavier"
    }
    bias_filler {
      type: "constant"
      value: 0.2
    }
  }
}
layer {
  name: "inception_3b/relu_5x5"
  type: "ReLU"
  bottom: "inception_3b/5x5"
  top: "inception_3b/5x5"
}
layer {
  name: "inception_3b/pool"
  type: "Pooling"
  bottom: "inception_3a/output"
  top: "inception_3b/pool"
  pooling_param {
    pool: MAX
    kernel_size: 3
    stride: 1
    pad: 1
  }
}
layer {
  name: "inception_3b/pool_proj"
  type: "Convolution"
  bottom: "inception_3b/pool"
  top: "inception_3b/pool_proj"
  param {
    lr_mult: 1
    decay_mult: 1
  }
  param {
    lr_mult: 2
    decay_mult: 0
  }
  convolution_param {
    num_output: 64
    kernel_size: 1
    weight_filler {
      type: "xavier"
    }
    bias_filler {
      type: "constant"
      value: 0.2
    }
  }
}
layer {
  name: "inception_3b/relu_pool_proj"
  type: "ReLU"
  bottom: "inception_3b/pool_proj"
  top: "inception_3b/pool_proj"
}
layer {
  name: "inception_3b/output"
  type: "Concat"
  bottom: "inception_3b/1x1"
  bottom: "inception_3b/3x3"
  bottom: "inception_3b/5x5"
  bottom: "inception_3b/pool_proj"
  top: "inception_3b/output"
}
layer {
  name: "pool3/3x3_s2"
  type: "Pooling"
  bottom: "inception_3b/output"
  top: "pool3/3x3_s2"
  pooling_param {
    pool: MAX
    kernel_size: 3
    stride: 2
  }
}
layer {
  name: "inception_4a/1x1"
  type: "Convolution"
  bottom: "pool3/3x3_s2"
  top: "inception_4a/1x1"
  param {
    lr_mult: 1
    decay_mult: 1
  }
  param {
    lr_mult: 2
    decay_mult: 0
  }
  convolution_param {
    num_output: 192
    kernel_size: 1
    weight_filler {
      type: "xavier"
    }
    bias_filler {
      type: "constant"
      value: 0.2
    }
  }
}
layer {
  name: "inception_4a/relu_1x1"
  type: "ReLU"
  bottom: "inception_4a/1x1"
  top: "inception_4a/1x1"
}
layer {
  name: "inception_4a/3x3_reduce"
  type: "Convolution"
  bottom: "pool3/3x3_s2"
  top: "inception_4a/3x3_reduce"
  param {
    lr_mult: 1
    decay_mult: 1
  }
  param {
    lr_mult: 2
    decay_mult: 0
  }
  convolution_param {
    num_output: 96
    kernel_size: 1
    weight_filler {
      type: "xavier"
    }
    bias_filler {
      type: "constant"
      value: 0.2
    }
  }
}
layer {
  name: "inception_4a/relu_3x3_reduce"
  type: "ReLU"
  bottom: "inception_4a/3x3_reduce"
  top: "inception_4a/3x3_reduce"
}
layer {
  name: "inception_4a/3x3"
  type: "Convolution"
  bottom: "inception_4a/3x3_reduce"
  top: "inception_4a/3x3"
  param {
    lr_mult: 1
    decay_mult: 1
  }
  param {
    lr_mult: 2
    decay_mult: 0
  }
  convolution_param {
    num_output: 208
    pad: 1
    kernel_size: 3
    weight_filler {
      type: "xavier"
    }
    bias_filler {
      type: "constant"
      value: 0.2
    }
  }
}
layer {
  name: "inception_4a/relu_3x3"
  type: "ReLU"
  bottom: "inception_4a/3x3"
  top: "inception_4a/3x3"
}
layer {
  name: "inception_4a/5x5_reduce"
  type: "Convolution"
  bottom: "pool3/3x3_s2"
  top: "inception_4a/5x5_reduce"
  param {
    lr_mult: 1
    decay_mult: 1
  }
  param {
    lr_mult: 2
    decay_mult: 0
  }
  convolution_param {
    num_output: 16
    kernel_size: 1
    weight_filler {
      type: "xavier"
    }
    bias_filler {
      type: "constant"
      value: 0.2
    }
  }
}
layer {
  name: "inception_4a/relu_5x5_reduce"
  type: "ReLU"
  bottom: "inception_4a/5x5_reduce"
  top: "inception_4a/5x5_reduce"
}
layer {
  name: "inception_4a/5x5"
  type: "Convolution"
  bottom: "inception_4a/5x5_reduce"
  top: "inception_4a/5x5"
  param {
    lr_mult: 1
    decay_mult: 1
  }
  param {
    lr_mult: 2
    decay_mult: 0
  }
  convolution_param {
    num_output: 48
    pad: 2
    kernel_size: 5
    weight_filler {
      type: "xavier"
    }
    bias_filler {
      type: "constant"
      value: 0.2
    }
  }
}
layer {
  name: "inception_4a/relu_5x5"
  type: "ReLU"
  bottom: "inception_4a/5x5"
  top: "inception_4a/5x5"
}
layer {
  name: "inception_4a/pool"
  type: "Pooling"
  bottom: "pool3/3x3_s2"
  top: "inception_4a/pool"
  pooling_param {
    pool: MAX
    kernel_size: 3
    stride: 1
    pad: 1
  }
}
layer {
  name: "inception_4a/pool_proj"
  type: "Convolution"
  bottom: "inception_4a/pool"
  top: "inception_4a/pool_proj"
  param {
    lr_mult: 1
    decay_mult: 1
  }
  param {
    lr_mult: 2
    decay_mult: 0
  }
  convolution_param {
    num_output: 64
    kernel_size: 1
    weight_filler {
      type: "xavier"
    }
    bias_filler {
      type: "constant"
      value: 0.2
    }
  }
}
layer {
  name: "inception_4a/relu_pool_proj"
  type: "ReLU"
  bottom: "inception_4a/pool_proj"
  top: "inception_4a/pool_proj"
}
layer {
  name: "inception_4a/output"
  type: "Concat"
  bottom: "inception_4a/1x1"
  bottom: "inception_4a/3x3"
  bottom: "inception_4a/5x5"
  bottom: "inception_4a/pool_proj"
  top: "inception_4a/output"
}
layer {
  name: "loss1/ave_pool"
  type: "Pooling"
  bottom: "inception_4a/output"
  top: "loss1/ave_pool"
  pooling_param {
    pool: AVE
    kernel_size: 5
    stride: 3
  }
}
layer {
  name: "loss1/conv"
  type: "Convolution"
  bottom: "loss1/ave_pool"
  top: "loss1/conv"
  param {
    lr_mult: 1
    decay_mult: 1
  }
  param {
    lr_mult: 2
    decay_mult: 0
  }
  convolution_param {
    num_output: 128
    kernel_size: 1
    weight_filler {
      type: "xavier"
    }
    bias_filler {
      type: "constant"
      value: 0.2
    }
  }
}
layer {
  name: "loss1/relu_conv"
  type: "ReLU"
  bottom: "loss1/conv"
  top: "loss1/conv"
}
layer {
  name: "loss1/fc"
  type: "InnerProduct"
  bottom: "loss1/conv"
  top: "loss1/fc"
  param {
    lr_mult: 1
    decay_mult: 1
  }
  param {
    lr_mult: 2
    decay_mult: 0
  }
  inner_product_param {
    num_output: 1024
    weight_filler {
      type: "xavier"
    }
    bias_filler {
      type: "constant"
      value: 0.2
    }
  }
}
layer {
  name: "loss1/relu_fc"
  type: "ReLU"
  bottom: "loss1/fc"
  top: "loss1/fc"
}
layer {
  name: "loss1/drop_fc"
  type: "Dropout"
  bottom: "loss1/fc"
  top: "loss1/fc"
  dropout_param {
    dropout_ratio: 0.7
  }
}
layer {
  name: "loss1/classifier_kaggle"
  type: "InnerProduct"
  bottom: "loss1/fc"
  top: "loss1/classifier_kaggle"
  param {
    lr_mult: 1
    decay_mult: 1
  }
  param {
    lr_mult: 2
    decay_mult: 0
  }
  inner_product_param {
    num_output: 447
    weight_filler {
      type: "xavier"
    }
    bias_filler {
      type: "constant"
      value: 0
    }
  }
}
layer {
  name: "loss1/loss"
  type: "SoftmaxWithLoss"
  bottom: "loss1/classifier_kaggle"
  bottom: "label"
  top: "loss1/loss1"
  loss_weight: 0.3
}
layer {
  name: "loss1/top-1"
  type: "Accuracy"
  bottom: "loss1/classifier_kaggle"
  bottom: "label"
  top: "loss1/top-1"
  include {
    phase: TEST
  }
}
layer {
  name: "loss1/top-5"
  type: "Accuracy"
  bottom: "loss1/classifier_kaggle"
  bottom: "label"
  top: "loss1/top-5"
  include {
    phase: TEST
  }
  accuracy_param {
    top_k: 5
  }
}
layer {
  name: "inception_4b/1x1"
  type: "Convolution"
  bottom: "inception_4a/output"
  top: "inception_4b/1x1"
  param {
    lr_mult: 1
    decay_mult: 1
  }
  param {
    lr_mult: 2
    decay_mult: 0
  }
  convolution_param {
    num_output: 160
    kernel_size: 1
    weight_filler {
      type: "xavier"
    }
    bias_filler {
      type: "constant"
      value: 0.2
    }
  }
}
layer {
  name: "inception_4b/relu_1x1"
  type: "ReLU"
  bottom: "inception_4b/1x1"
  top: "inception_4b/1x1"
}
layer {
  name: "inception_4b/3x3_reduce"
  type: "Convolution"
  bottom: "inception_4a/output"
  top: "inception_4b/3x3_reduce"
  param {
    lr_mult: 1
    decay_mult: 1
  }
  param {
    lr_mult: 2
    decay_mult: 0
  }
  convolution_param {
    num_output: 112
    kernel_size: 1
    weight_filler {
      type: "xavier"
    }
    bias_filler {
      type: "constant"
      value: 0.2
    }
  }
}
layer {
  name: "inception_4b/relu_3x3_reduce"
  type: "ReLU"
  bottom: "inception_4b/3x3_reduce"
  top: "inception_4b/3x3_reduce"
}
layer {
  name: "inception_4b/3x3"
  type: "Convolution"
  bottom: "inception_4b/3x3_reduce"
  top: "inception_4b/3x3"
  param {
    lr_mult: 1
    decay_mult: 1
  }
  param {
    lr_mult: 2
    decay_mult: 0
  }
  convolution_param {
    num_output: 224
    pad: 1
    kernel_size: 3
    weight_filler {
      type: "xavier"
    }
    bias_filler {
      type: "constant"
      value: 0.2
    }
  }
}
layer {
  name: "inception_4b/relu_3x3"
  type: "ReLU"
  bottom: "inception_4b/3x3"
  top: "inception_4b/3x3"
}
layer {
  name: "inception_4b/5x5_reduce"
  type: "Convolution"
  bottom: "inception_4a/output"
  top: "inception_4b/5x5_reduce"
  param {
    lr_mult: 1
    decay_mult: 1
  }
  param {
    lr_mult: 2
    decay_mult: 0
  }
  convolution_param {
    num_output: 24
    kernel_size: 1
    weight_filler {
      type: "xavier"
    }
    bias_filler {
      type: "constant"
      value: 0.2
    }
  }
}
layer {
  name: "inception_4b/relu_5x5_reduce"
  type: "ReLU"
  bottom: "inception_4b/5x5_reduce"
  top: "inception_4b/5x5_reduce"
}
layer {
  name: "inception_4b/5x5"
  type: "Convolution"
  bottom: "inception_4b/5x5_reduce"
  top: "inception_4b/5x5"
  param {
    lr_mult: 1
    decay_mult: 1
  }
  param {
    lr_mult: 2
    decay_mult: 0
  }
  convolution_param {
    num_output: 64
    pad: 2
    kernel_size: 5
    weight_filler {
      type: "xavier"
    }
    bias_filler {
      type: "constant"
      value: 0.2
    }
  }
}
layer {
  name: "inception_4b/relu_5x5"
  type: "ReLU"
  bottom: "inception_4b/5x5"
  top: "inception_4b/5x5"
}
layer {
  name: "inception_4b/pool"
  type: "Pooling"
  bottom: "inception_4a/output"
  top: "inception_4b/pool"
  pooling_param {
    pool: MAX
    kernel_size: 3
    stride: 1
    pad: 1
  }
}
layer {
  name: "inception_4b/pool_proj"
  type: "Convolution"
  bottom: "inception_4b/pool"
  top: "inception_4b/pool_proj"
  param {
    lr_mult: 1
    decay_mult: 1
  }
  param {
    lr_mult: 2
    decay_mult: 0
  }
  convolution_param {
    num_output: 64
    kernel_size: 1
    weight_filler {
      type: "xavier"
    }
    bias_filler {
      type: "constant"
      value: 0.2
    }
  }
}
layer {
  name: "inception_4b/relu_pool_proj"
  type: "ReLU"
  bottom: "inception_4b/pool_proj"
  top: "inception_4b/pool_proj"
}
layer {
  name: "inception_4b/output"
  type: "Concat"
  bottom: "inception_4b/1x1"
  bottom: "inception_4b/3x3"
  bottom: "inception_4b/5x5"
  bottom: "inception_4b/pool_proj"
  top: "inception_4b/output"
}
layer {
  name: "inception_4c/1x1"
  type: "Convolution"
  bottom: "inception_4b/output"
  top: "inception_4c/1x1"
  param {
    lr_mult: 1
    decay_mult: 1
  }
  param {
    lr_mult: 2
    decay_mult: 0
  }
  convolution_param {
    num_output: 128
    kernel_size: 1
    weight_filler {
      type: "xavier"
    }
    bias_filler {
      type: "constant"
      value: 0.2
    }
  }
}
layer {
  name: "inception_4c/relu_1x1"
  type: "ReLU"
  bottom: "inception_4c/1x1"
  top: "inception_4c/1x1"
}
layer {
  name: "inception_4c/3x3_reduce"
  type: "Convolution"
  bottom: "inception_4b/output"
  top: "inception_4c/3x3_reduce"
  param {
    lr_mult: 1
    decay_mult: 1
  }
  param {
    lr_mult: 2
    decay_mult: 0
  }
  convolution_param {
    num_output: 128
    kernel_size: 1
    weight_filler {
      type: "xavier"
    }
    bias_filler {
      type: "constant"
      value: 0.2
    }
  }
}
layer {
  name: "inception_4c/relu_3x3_reduce"
  type: "ReLU"
  bottom: "inception_4c/3x3_reduce"
  top: "inception_4c/3x3_reduce"
}
layer {
  name: "inception_4c/3x3"
  type: "Convolution"
  bottom: "inception_4c/3x3_reduce"
  top: "inception_4c/3x3"
  param {
    lr_mult: 1
    decay_mult: 1
  }
  param {
    lr_mult: 2
    decay_mult: 0
  }
  convolution_param {
    num_output: 256
    pad: 1
    kernel_size: 3
    weight_filler {
      type: "xavier"
    }
    bias_filler {
      type: "constant"
      value: 0.2
    }
  }
}
layer {
  name: "inception_4c/relu_3x3"
  type: "ReLU"
  bottom: "inception_4c/3x3"
  top: "inception_4c/3x3"
}
layer {
  name: "inception_4c/5x5_reduce"
  type: "Convolution"
  bottom: "inception_4b/output"
  top: "inception_4c/5x5_reduce"
  param {
    lr_mult: 1
    decay_mult: 1
  }
  param {
    lr_mult: 2
    decay_mult: 0
  }
  convolution_param {
    num_output: 24
    kernel_size: 1
    weight_filler {
      type: "xavier"
    }
    bias_filler {
      type: "constant"
      value: 0.2
    }
  }
}
layer {
  name: "inception_4c/relu_5x5_reduce"
  type: "ReLU"
  bottom: "inception_4c/5x5_reduce"
  top: "inception_4c/5x5_reduce"
}
layer {
  name: "inception_4c/5x5"
  type: "Convolution"
  bottom: "inception_4c/5x5_reduce"
  top: "inception_4c/5x5"
  param {
    lr_mult: 1
    decay_mult: 1
  }
  param {
    lr_mult: 2
    decay_mult: 0
  }
  convolution_param {
    num_output: 64
    pad: 2
    kernel_size: 5
    weight_filler {
      type: "xavier"
    }
    bias_filler {
      type: "constant"
      value: 0.2
    }
  }
}
layer {
  name: "inception_4c/relu_5x5"
  type: "ReLU"
  bottom: "inception_4c/5x5"
  top: "inception_4c/5x5"
}
layer {
  name: "inception_4c/pool"
  type: "Pooling"
  bottom: "inception_4b/output"
  top: "inception_4c/pool"
  pooling_param {
    pool: MAX
    kernel_size: 3
    stride: 1
    pad: 1
  }
}
layer {
  name: "inception_4c/pool_proj"
  type: "Convolution"
  bottom: "inception_4c/pool"
  top: "inception_4c/pool_proj"
  param {
    lr_mult: 1
    decay_mult: 1
  }
  param {
    lr_mult: 2
    decay_mult: 0
  }
  convolution_param {
    num_output: 64
    kernel_size: 1
    weight_filler {
      type: "xavier"
    }
    bias_filler {
      type: "constant"
      value: 0.2
    }
  }
}
layer {
  name: "inception_4c/relu_pool_proj"
  type: "ReLU"
  bottom: "inception_4c/pool_proj"
  top: "inception_4c/pool_proj"
}
layer {
  name: "inception_4c/output"
  type: "Concat"
  bottom: "inception_4c/1x1"
  bottom: "inception_4c/3x3"
  bottom: "inception_4c/5x5"
  bottom: "inception_4c/pool_proj"
  top: "inception_4c/output"
}
layer {
  name: "inception_4d/1x1"
  type: "Convolution"
  bottom: "inception_4c/output"
  top: "inception_4d/1x1"
  param {
    lr_mult: 1
    decay_mult: 1
  }
  param {
    lr_mult: 2
    decay_mult: 0
  }
  convolution_param {
    num_output: 112
    kernel_size: 1
    weight_filler {
      type: "xavier"
    }
    bias_filler {
      type: "constant"
      value: 0.2
    }
  }
}
layer {
  name: "inception_4d/relu_1x1"
  type: "ReLU"
  bottom: "inception_4d/1x1"
  top: "inception_4d/1x1"
}
layer {
  name: "inception_4d/3x3_reduce"
  type: "Convolution"
  bottom: "inception_4c/output"
  top: "inception_4d/3x3_reduce"
  param {
    lr_mult: 1
    decay_mult: 1
  }
  param {
    lr_mult: 2
    decay_mult: 0
  }
  convolution_param {
    num_output: 144
    kernel_size: 1
    weight_filler {
      type: "xavier"
    }
    bias_filler {
      type: "constant"
      value: 0.2
    }
  }
}
layer {
  name: "inception_4d/relu_3x3_reduce"
  type: "ReLU"
  bottom: "inception_4d/3x3_reduce"
  top: "inception_4d/3x3_reduce"
}
layer {
  name: "inception_4d/3x3"
  type: "Convolution"
  bottom: "inception_4d/3x3_reduce"
  top: "inception_4d/3x3"
  param {
    lr_mult: 1
    decay_mult: 1
  }
  param {
    lr_mult: 2
    decay_mult: 0
  }
  convolution_param {
    num_output: 288
    pad: 1
    kernel_size: 3
    weight_filler {
      type: "xavier"
    }
    bias_filler {
      type: "constant"
      value: 0.2
    }
  }
}
layer {
  name: "inception_4d/relu_3x3"
  type: "ReLU"
  bottom: "inception_4d/3x3"
  top: "inception_4d/3x3"
}
layer {
  name: "inception_4d/5x5_reduce"
  type: "Convolution"
  bottom: "inception_4c/output"
  top: "inception_4d/5x5_reduce"
  param {
    lr_mult: 1
    decay_mult: 1
  }
  param {
    lr_mult: 2
    decay_mult: 0
  }
  convolution_param {
    num_output: 32
    kernel_size: 1
    weight_filler {
      type: "xavier"
    }
    bias_filler {
      type: "constant"
      value: 0.2
    }
  }
}
layer {
  name: "inception_4d/relu_5x5_reduce"
  type: "ReLU"
  bottom: "inception_4d/5x5_reduce"
  top: "inception_4d/5x5_reduce"
}
layer {
  name: "inception_4d/5x5"
  type: "Convolution"
  bottom: "inception_4d/5x5_reduce"
  top: "inception_4d/5x5"
  param {
    lr_mult: 1
    decay_mult: 1
  }
  param {
    lr_mult: 2
    decay_mult: 0
  }
  convolution_param {
    num_output: 64
    pad: 2
    kernel_size: 5
    weight_filler {
      type: "xavier"
    }
    bias_filler {
      type: "constant"
      value: 0.2
    }
  }
}
layer {
  name: "inception_4d/relu_5x5"
  type: "ReLU"
  bottom: "inception_4d/5x5"
  top: "inception_4d/5x5"
}
layer {
  name: "inception_4d/pool"
  type: "Pooling"
  bottom: "inception_4c/output"
  top: "inception_4d/pool"
  pooling_param {
    pool: MAX
    kernel_size: 3
    stride: 1
    pad: 1
  }
}
layer {
  name: "inception_4d/pool_proj"
  type: "Convolution"
  bottom: "inception_4d/pool"
  top: "inception_4d/pool_proj"
  param {
    lr_mult: 1
    decay_mult: 1
  }
  param {
    lr_mult: 2
    decay_mult: 0
  }
  convolution_param {
    num_output: 64
    kernel_size: 1
    weight_filler {
      type: "xavier"
    }
    bias_filler {
      type: "constant"
      value: 0.2
    }
  }
}
layer {
  name: "inception_4d/relu_pool_proj"
  type: "ReLU"
  bottom: "inception_4d/pool_proj"
  top: "inception_4d/pool_proj"
}
layer {
  name: "inception_4d/output"
  type: "Concat"
  bottom: "inception_4d/1x1"
  bottom: "inception_4d/3x3"
  bottom: "inception_4d/5x5"
  bottom: "inception_4d/pool_proj"
  top: "inception_4d/output"
}
layer {
  name: "loss2/ave_pool"
  type: "Pooling"
  bottom: "inception_4d/output"
  top: "loss2/ave_pool"
  pooling_param {
    pool: AVE
    kernel_size: 5
    stride: 3
  }
}
layer {
…
I0107 16:27:08.365301  8078 net.cpp:84] Creating Layer inception_4c/1x1
I0107 16:27:08.365306  8078 net.cpp:380] inception_4c/1x1 <- inception_4b/output_inception_4b/output_0_split_0
I0107 16:27:08.365315  8078 net.cpp:338] inception_4c/1x1 -> inception_4c/1x1
I0107 16:27:08.365324  8078 net.cpp:113] Setting up inception_4c/1x1
I0107 16:27:08.366533  8078 net.cpp:120] Top shape: 50 128 14 14 (1254400)
I0107 16:27:08.366549  8078 layer_factory.hpp:74] Creating layer inception_4c/relu_1x1
I0107 16:27:08.366559  8078 net.cpp:84] Creating Layer inception_4c/relu_1x1
I0107 16:27:08.366564  8078 net.cpp:380] inception_4c/relu_1x1 <- inception_4c/1x1
I0107 16:27:08.366577  8078 net.cpp:327] inception_4c/relu_1x1 -> inception_4c/1x1 (in-place)
I0107 16:27:08.366592  8078 net.cpp:113] Setting up inception_4c/relu_1x1
I0107 16:27:08.366847  8078 net.cpp:120] Top shape: 50 128 14 14 (1254400)
I0107 16:27:08.366858  8078 layer_factory.hpp:74] Creating layer inception_4c/3x3_reduce
I0107 16:27:08.366869  8078 net.cpp:84] Creating Layer inception_4c/3x3_reduce
I0107 16:27:08.366875  8078 net.cpp:380] inception_4c/3x3_reduce <- inception_4b/output_inception_4b/output_0_split_1
I0107 16:27:08.366883  8078 net.cpp:338] inception_4c/3x3_reduce -> inception_4c/3x3_reduce
I0107 16:27:08.366893  8078 net.cpp:113] Setting up inception_4c/3x3_reduce
I0107 16:27:08.368095  8078 net.cpp:120] Top shape: 50 128 14 14 (1254400)
I0107 16:27:08.368110  8078 layer_factory.hpp:74] Creating layer inception_4c/relu_3x3_reduce
I0107 16:27:08.368119  8078 net.cpp:84] Creating Layer inception_4c/relu_3x3_reduce
I0107 16:27:08.368126  8078 net.cpp:380] inception_4c/relu_3x3_reduce <- inception_4c/3x3_reduce
I0107 16:27:08.368134  8078 net.cpp:327] inception_4c/relu_3x3_reduce -> inception_4c/3x3_reduce (in-place)
I0107 16:27:08.368141  8078 net.cpp:113] Setting up inception_4c/relu_3x3_reduce
I0107 16:27:08.368221  8078 net.cpp:120] Top shape: 50 128 14 14 (1254400)
I0107 16:27:08.368227  8078 layer_factory.hpp:74] Creating layer inception_4c/3x3
I0107 16:27:08.368237  8078 net.cpp:84] Creating Layer inception_4c/3x3
I0107 16:27:08.368242  8078 net.cpp:380] inception_4c/3x3 <- inception_4c/3x3_reduce
I0107 16:27:08.368252  8078 net.cpp:338] inception_4c/3x3 -> inception_4c/3x3
I0107 16:27:08.368260  8078 net.cpp:113] Setting up inception_4c/3x3
I0107 16:27:08.372158  8078 net.cpp:120] Top shape: 50 256 14 14 (2508800)
I0107 16:27:08.372187  8078 layer_factory.hpp:74] Creating layer inception_4c/relu_3x3
I0107 16:27:08.372195  8078 net.cpp:84] Creating Layer inception_4c/relu_3x3
I0107 16:27:08.372201  8078 net.cpp:380] inception_4c/relu_3x3 <- inception_4c/3x3
I0107 16:27:08.372208  8078 net.cpp:327] inception_4c/relu_3x3 -> inception_4c/3x3 (in-place)
I0107 16:27:08.372216  8078 net.cpp:113] Setting up inception_4c/relu_3x3
I0107 16:27:08.372292  8078 net.cpp:120] Top shape: 50 256 14 14 (2508800)
I0107 16:27:08.372299  8078 layer_factory.hpp:74] Creating layer inception_4c/5x5_reduce
I0107 16:27:08.372308  8078 net.cpp:84] Creating Layer inception_4c/5x5_reduce
I0107 16:27:08.372314  8078 net.cpp:380] inception_4c/5x5_reduce <- inception_4b/output_inception_4b/output_0_split_2
I0107 16:27:08.372323  8078 net.cpp:338] inception_4c/5x5_reduce -> inception_4c/5x5_reduce
I0107 16:27:08.372330  8078 net.cpp:113] Setting up inception_4c/5x5_reduce
I0107 16:27:08.372903  8078 net.cpp:120] Top shape: 50 24 14 14 (235200)
I0107 16:27:08.372920  8078 layer_factory.hpp:74] Creating layer inception_4c/relu_5x5_reduce
I0107 16:27:08.372926  8078 net.cpp:84] Creating Layer inception_4c/relu_5x5_reduce
I0107 16:27:08.372932  8078 net.cpp:380] inception_4c/relu_5x5_reduce <- inception_4c/5x5_reduce
I0107 16:27:08.372939  8078 net.cpp:327] inception_4c/relu_5x5_reduce -> inception_4c/5x5_reduce (in-place)
I0107 16:27:08.372947  8078 net.cpp:113] Setting up inception_4c/relu_5x5_reduce
I0107 16:27:08.373199  8078 net.cpp:120] Top shape: 50 24 14 14 (235200)
I0107 16:27:08.373210  8078 layer_factory.hpp:74] Creating layer inception_4c/5x5
I0107 16:27:08.373221  8078 net.cpp:84] Creating Layer inception_4c/5x5
I0107 16:27:08.373227  8078 net.cpp:380] inception_4c/5x5 <- inception_4c/5x5_reduce
I0107 16:27:08.373237  8078 net.cpp:338] inception_4c/5x5 -> inception_4c/5x5
I0107 16:27:08.373246  8078 net.cpp:113] Setting up inception_4c/5x5
I0107 16:27:08.374135  8078 net.cpp:120] Top shape: 50 64 14 14 (627200)
I0107 16:27:08.374150  8078 layer_factory.hpp:74] Creating layer inception_4c/relu_5x5
I0107 16:27:08.374157  8078 net.cpp:84] Creating Layer inception_4c/relu_5x5
I0107 16:27:08.374163  8078 net.cpp:380] inception_4c/relu_5x5 <- inception_4c/5x5
I0107 16:27:08.374171  8078 net.cpp:327] inception_4c/relu_5x5 -> inception_4c/5x5 (in-place)
I0107 16:27:08.374184  8078 net.cpp:113] Setting up inception_4c/relu_5x5
I0107 16:27:08.374270  8078 net.cpp:120] Top shape: 50 64 14 14 (627200)
I0107 16:27:08.374277  8078 layer_factory.hpp:74] Creating layer inception_4c/pool
I0107 16:27:08.374284  8078 layer_factory.cpp:56] CUDNN does not support padding or multiple tops. Using Caffe's own pooling layer.
I0107 16:27:08.374289  8078 net.cpp:84] Creating Layer inception_4c/pool
I0107 16:27:08.374294  8078 net.cpp:380] inception_4c/pool <- inception_4b/output_inception_4b/output_0_split_3
I0107 16:27:08.374303  8078 net.cpp:338] inception_4c/pool -> inception_4c/pool
I0107 16:27:08.374312  8078 net.cpp:113] Setting up inception_4c/pool
I0107 16:27:08.374320  8078 net.cpp:120] Top shape: 50 512 14 14 (5017600)
I0107 16:27:08.374325  8078 layer_factory.hpp:74] Creating layer inception_4c/pool_proj
I0107 16:27:08.374333  8078 net.cpp:84] Creating Layer inception_4c/pool_proj
I0107 16:27:08.374338  8078 net.cpp:380] inception_4c/pool_proj <- inception_4c/pool
I0107 16:27:08.374347  8078 net.cpp:338] inception_4c/pool_proj -> inception_4c/pool_proj
I0107 16:27:08.374356  8078 net.cpp:113] Setting up inception_4c/pool_proj
I0107 16:27:08.375177  8078 net.cpp:120] Top shape: 50 64 14 14 (627200)
I0107 16:27:08.375193  8078 layer_factory.hpp:74] Creating layer inception_4c/relu_pool_proj
I0107 16:27:08.375200  8078 net.cpp:84] Creating Layer inception_4c/relu_pool_proj
I0107 16:27:08.375206  8078 net.cpp:380] inception_4c/relu_pool_proj <- inception_4c/pool_proj
I0107 16:27:08.375213  8078 net.cpp:327] inception_4c/relu_pool_proj -> inception_4c/pool_proj (in-place)
I0107 16:27:08.375221  8078 net.cpp:113] Setting up inception_4c/relu_pool_proj
I0107 16:27:08.375296  8078 net.cpp:120] Top shape: 50 64 14 14 (627200)
I0107 16:27:08.375303  8078 layer_factory.hpp:74] Creating layer inception_4c/output
I0107 16:27:08.375310  8078 net.cpp:84] Creating Layer inception_4c/output
I0107 16:27:08.375315  8078 net.cpp:380] inception_4c/output <- inception_4c/1x1
I0107 16:27:08.375322  8078 net.cpp:380] inception_4c/output <- inception_4c/3x3
I0107 16:27:08.375329  8078 net.cpp:380] inception_4c/output <- inception_4c/5x5
I0107 16:27:08.375334  8078 net.cpp:380] inception_4c/output <- inception_4c/pool_proj
I0107 16:27:08.375339  8078 net.cpp:338] inception_4c/output -> inception_4c/output
I0107 16:27:08.375347  8078 net.cpp:113] Setting up inception_4c/output
I0107 16:27:08.375355  8078 net.cpp:120] Top shape: 50 512 14 14 (5017600)
I0107 16:27:08.375360  8078 layer_factory.hpp:74] Creating layer inception_4c/output_inception_4c/output_0_split
I0107 16:27:08.375368  8078 net.cpp:84] Creating Layer inception_4c/output_inception_4c/output_0_split
I0107 16:27:08.375373  8078 net.cpp:380] inception_4c/output_inception_4c/output_0_split <- inception_4c/output
I0107 16:27:08.375380  8078 net.cpp:338] inception_4c/output_inception_4c/output_0_split -> inception_4c/output_inception_4c/output_0_split_0
I0107 16:27:08.375388  8078 net.cpp:338] inception_4c/output_inception_4c/output_0_split -> inception_4c/output_inception_4c/output_0_split_1
I0107 16:27:08.375398  8078 net.cpp:338] inception_4c/output_inception_4c/output_0_split -> inception_4c/output_inception_4c/output_0_split_2
I0107 16:27:08.375406  8078 net.cpp:338] inception_4c/output_inception_4c/output_0_split -> inception_4c/output_inception_4c/output_0_split_3
I0107 16:27:08.375412  8078 net.cpp:113] Setting up inception_4c/output_inception_4c/output_0_split
I0107 16:27:08.375421  8078 net.cpp:120] Top shape: 50 512 14 14 (5017600)
I0107 16:27:08.375425  8078 net.cpp:120] Top shape: 50 512 14 14 (5017600)
I0107 16:27:08.375430  8078 net.cpp:120] Top shape: 50 512 14 14 (5017600)
I0107 16:27:08.375435  8078 net.cpp:120] Top shape: 50 512 14 14 (5017600)
I0107 16:27:08.375440  8078 layer_factory.hpp:74] Creating layer inception_4d/1x1
I0107 16:27:08.375448  8078 net.cpp:84] Creating Layer inception_4d/1x1
I0107 16:27:08.375453  8078 net.cpp:380] inception_4d/1x1 <- inception_4c/output_inception_4c/output_0_split_0
I0107 16:27:08.375468  8078 net.cpp:338] inception_4d/1x1 -> inception_4d/1x1
I0107 16:27:08.375483  8078 net.cpp:113] Setting up inception_4d/1x1
I0107 16:27:08.376600  8078 net.cpp:120] Top shape: 50 112 14 14 (1097600)
I0107 16:27:08.376616  8078 layer_factory.hpp:74] Creating layer inception_4d/relu_1x1
I0107 16:27:08.376622  8078 net.cpp:84] Creating Layer inception_4d/relu_1x1
I0107 16:27:08.376627  8078 net.cpp:380] inception_4d/relu_1x1 <- inception_4d/1x1
I0107 16:27:08.376636  8078 net.cpp:327] inception_4d/relu_1x1 -> inception_4d/1x1 (in-place)
I0107 16:27:08.376642  8078 net.cpp:113] Setting up inception_4d/relu_1x1
I0107 16:27:08.376715  8078 net.cpp:120] Top shape: 50 112 14 14 (1097600)
I0107 16:27:08.376723  8078 layer_factory.hpp:74] Creating layer inception_4d/3x3_reduce
I0107 16:27:08.376730  8078 net.cpp:84] Creating Layer inception_4d/3x3_reduce
I0107 16:27:08.376735  8078 net.cpp:380] inception_4d/3x3_reduce <- inception_4c/output_inception_4c/output_0_split_1
I0107 16:27:08.376745  8078 net.cpp:338] inception_4d/3x3_reduce -> inception_4d/3x3_reduce
I0107 16:27:08.376754  8078 net.cpp:113] Setting up inception_4d/3x3_reduce
I0107 16:27:08.378067  8078 net.cpp:120] Top shape: 50 144 14 14 (1411200)
I0107 16:27:08.378083  8078 layer_factory.hpp:74] Creating layer inception_4d/relu_3x3_reduce
I0107 16:27:08.378092  8078 net.cpp:84] Creating Layer inception_4d/relu_3x3_reduce
I0107 16:27:08.378098  8078 net.cpp:380] inception_4d/relu_3x3_reduce <- inception_4d/3x3_reduce
I0107 16:27:08.378106  8078 net.cpp:327] inception_4d/relu_3x3_reduce -> inception_4d/3x3_reduce (in-place)
I0107 16:27:08.378114  8078 net.cpp:113] Setting up inception_4d/relu_3x3_reduce
I0107 16:27:08.378376  8078 net.cpp:120] Top shape: 50 144 14 14 (1411200)
I0107 16:27:08.378387  8078 layer_factory.hpp:74] Creating layer inception_4d/3x3
I0107 16:27:08.378398  8078 net.cpp:84] Creating Layer inception_4d/3x3
I0107 16:27:08.378404  8078 net.cpp:380] inception_4d/3x3 <- inception_4d/3x3_reduce
I0107 16:27:08.378412  8078 net.cpp:338] inception_4d/3x3 -> inception_4d/3x3
I0107 16:27:08.378422  8078 net.cpp:113] Setting up inception_4d/3x3
I0107 16:27:08.383229  8078 net.cpp:120] Top shape: 50 288 14 14 (2822400)
I0107 16:27:08.383244  8078 layer_factory.hpp:74] Creating layer inception_4d/relu_3x3
I0107 16:27:08.383252  8078 net.cpp:84] Creating Layer inception_4d/relu_3x3
I0107 16:27:08.383257  8078 net.cpp:380] inception_4d/relu_3x3 <- inception_4d/3x3
I0107 16:27:08.383265  8078 net.cpp:327] inception_4d/relu_3x3 -> inception_4d/3x3 (in-place)
I0107 16:27:08.383272  8078 net.cpp:113] Setting up inception_4d/relu_3x3
I0107 16:27:08.383348  8078 net.cpp:120] Top shape: 50 288 14 14 (2822400)
I0107 16:27:08.383354  8078 layer_factory.hpp:74] Creating layer inception_4d/5x5_reduce
I0107 16:27:08.383364  8078 net.cpp:84] Creating Layer inception_4d/5x5_reduce
I0107 16:27:08.383369  8078 net.cpp:380] inception_4d/5x5_reduce <- inception_4c/output_inception_4c/output_0_split_2
I0107 16:27:08.383379  8078 net.cpp:338] inception_4d/5x5_reduce -> inception_4d/5x5_reduce
I0107 16:27:08.383388  8078 net.cpp:113] Setting up inception_4d/5x5_reduce
I0107 16:27:08.384047  8078 net.cpp:120] Top shape: 50 32 14 14 (313600)
I0107 16:27:08.384062  8078 layer_factory.hpp:74] Creating layer inception_4d/relu_5x5_reduce
I0107 16:27:08.384071  8078 net.cpp:84] Creating Layer inception_4d/relu_5x5_reduce
I0107 16:27:08.384078  8078 net.cpp:380] inception_4d/relu_5x5_reduce <- inception_4d/5x5_reduce
I0107 16:27:08.384085  8078 net.cpp:327] inception_4d/relu_5x5_reduce -> inception_4d/5x5_reduce (in-place)
I0107 16:27:08.384093  8078 net.cpp:113] Setting up inception_4d/relu_5x5_reduce
I0107 16:27:08.384169  8078 net.cpp:120] Top shape: 50 32 14 14 (313600)
I0107 16:27:08.384177  8078 layer_factory.hpp:74] Creating layer inception_4d/5x5
I0107 16:27:08.384188  8078 net.cpp:84] Creating Layer inception_4d/5x5
I0107 16:27:08.384193  8078 net.cpp:380] inception_4d/5x5 <- inception_4d/5x5_reduce
I0107 16:27:08.384201  8078 net.cpp:338] inception_4d/5x5 -> inception_4d/5x5
I0107 16:27:08.384214  8078 net.cpp:113] Setting up inception_4d/5x5
I0107 16:27:08.385262  8078 net.cpp:120] Top shape: 50 64 14 14 (627200)
I0107 16:27:08.385277  8078 layer_factory.hpp:74] Creating layer inception_4d/relu_5x5
I0107 16:27:08.385287  8078 net.cpp:84] Creating Layer inception_4d/relu_5x5
I0107 16:27:08.385293  8078 net.cpp:380] inception_4d/relu_5x5 <- inception_4d/5x5
I0107 16:27:08.385299  8078 net.cpp:327] inception_4d/relu_5x5 -> inception_4d/5x5 (in-place)
I0107 16:27:08.385308  8078 net.cpp:113] Setting up inception_4d/relu_5x5
I0107 16:27:08.385382  8078 net.cpp:120] Top shape: 50 64 14 14 (627200)
I0107 16:27:08.385395  8078 layer_factory.hpp:74] Creating layer inception_4d/pool
I0107 16:27:08.385401  8078 layer_factory.cpp:56] CUDNN does not support padding or multiple tops. Using Caffe's own pooling layer.
I0107 16:27:08.385407  8078 net.cpp:84] Creating Layer inception_4d/pool
I0107 16:27:08.385412  8078 net.cpp:380] inception_4d/pool <- inception_4c/output_inception_4c/output_0_split_3
I0107 16:27:08.385421  8078 net.cpp:338] inception_4d/pool -> inception_4d/pool
I0107 16:27:08.385429  8078 net.cpp:113] Setting up inception_4d/pool
I0107 16:27:08.385438  8078 net.cpp:120] Top shape: 50 512 14 14 (5017600)
I0107 16:27:08.385442  8078 layer_factory.hpp:74] Creating layer inception_4d/pool_proj
I0107 16:27:08.385457  8078 net.cpp:84] Creating Layer inception_4d/pool_proj
I0107 16:27:08.385464  8078 net.cpp:380] inception_4d/pool_proj <- inception_4d/pool
I0107 16:27:08.385473  8078 net.cpp:338] inception_4d/pool_proj -> inception_4d/pool_proj
I0107 16:27:08.385483  8078 net.cpp:113] Setting up inception_4d/pool_proj
I0107 16:27:08.392586  8078 net.cpp:120] Top shape: 50 64 14 14 (627200)
I0107 16:27:08.392607  8078 layer_factory.hpp:74] Creating layer inception_4d/relu_pool_proj
I0107 16:27:08.392617  8078 net.cpp:84] Creating Layer inception_4d/relu_pool_proj
I0107 16:27:08.392623  8078 net.cpp:380] inception_4d/relu_pool_proj <- inception_4d/pool_proj
I0107 16:27:08.392632  8078 net.cpp:327] inception_4d/relu_pool_proj -> inception_4d/pool_proj (in-place)
I0107 16:27:08.392640  8078 net.cpp:113] Setting up inception_4d/relu_pool_proj
I0107 16:27:08.392902  8078 net.cpp:120] Top shape: 50 64 14 14 (627200)
I0107 16:27:08.392915  8078 layer_factory.hpp:74] Creating layer inception_4d/output
I0107 16:27:08.392922  8078 net.cpp:84] Creating Layer inception_4d/output
I0107 16:27:08.392928  8078 net.cpp:380] inception_4d/output <- inception_4d/1x1
I0107 16:27:08.392937  8078 net.cpp:380] inception_4d/output <- inception_4d/3x3
I0107 16:27:08.392943  8078 net.cpp:380] inception_4d/output <- inception_4d/5x5
I0107 16:27:08.392948  8078 net.cpp:380] inception_4d/output <- inception_4d/pool_proj
I0107 16:27:08.392956  8078 net.cpp:338] inception_4d/output -> inception_4d/output
I0107 16:27:08.392963  8078 net.cpp:113] Setting up inception_4d/output
I0107 16:27:08.392972  8078 net.cpp:120] Top shape: 50 528 14 14 (5174400)
I0107 16:27:08.392976  8078 layer_factory.hpp:74] Creating layer inception_4d/output_inception_4d/output_0_split
I0107 16:27:08.392984  8078 net.cpp:84] Creating Layer inception_4d/output_inception_4d/output_0_split
I0107 16:27:08.392989  8078 net.cpp:380] inception_4d/output_inception_4d/output_0_split <- inception_4d/output
I0107 16:27:08.392998  8078 net.cpp:338] inception_4d/output_inception_4d/output_0_split -> inception_4d/output_inception_4d/output_0_split_0
I0107 16:27:08.393007  8078 net.cpp:338] inception_4d/output_inception_4d/output_0_split -> inception_4d/output_inception_4d/output_0_split_1
I0107 16:27:08.393014  8078 net.cpp:338] inception_4d/output_inception_4d/output_0_split -> inception_4d/output_inception_4d/output_0_split_2
I0107 16:27:08.393023  8078 net.cpp:338] inception_4d/output_inception_4d/output_0_split -> inception_4d/output_inception_4d/output_0_split_3
I0107 16:27:08.393029  8078 net.cpp:338] inception_4d/output_inception_4d/output_0_split -> inception_4d/output_inception_4d/output_0_split_4
I0107 16:27:08.393036  8078 net.cpp:113] Setting up inception_4d/output_inception_4d/output_0_split
I0107 16:27:08.393059  8078 net.cpp:120] Top shape: 50 528 14 14 (5174400)
I0107 16:27:08.393064  8078 net.cpp:120] Top shape: 50 528 14 14 (5174400)
I0107 16:27:08.393070  8078 net.cpp:120] Top shape: 50 528 14 14 (5174400)
I0107 16:27:08.393075  8078 net.cpp:120] Top shape: 50 528 14 14 (5174400)
I0107 16:27:08.393080  8078 net.cpp:120] Top shape: 50 528 14 14 (5174400)
I0107 16:27:08.393085  8078 layer_factory.hpp:74] Creating layer loss2/ave_pool
I0107 16:27:08.393095  8078 net.cpp:84] Creating Layer loss2/ave_pool
I0107 16:27:08.393100  8078 net.cpp:380] loss2/ave_pool <- inception_4d/output_inception_4d/output_0_split_0
I0107 16:27:08.393107  8078 net.cpp:338] loss2/ave_pool -> loss2/ave_pool
I0107 16:27:08.393115  8078 net.cpp:113] Setting up loss2/ave_pool
I0107 16:27:08.393196  8078 net.cpp:120] Top shape: 50 528 4 4 (422400)
I0107 16:27:08.393204  8078 layer_factory.hpp:74] Creating layer loss2/conv
I0107 16:27:08.393214  8078 net.cpp:84] Creating Layer loss2/conv
I0107 16:27:08.393220  8078 net.cpp:380] loss2/conv <- loss2/ave_pool
I0107 16:27:08.393229  8078 net.cpp:338] loss2/conv -> loss2/conv
I0107 16:27:08.393239  8078 net.cpp:113] Setting up loss2/conv
I0107 16:27:08.394482  8078 net.cpp:120] Top shape: 50 128 4 4 (102400)
I0107 16:27:08.394500  8078 layer_factory.hpp:74] Creating layer loss2/relu_conv
I0107 16:27:08.394508  8078 net.cpp:84] Creating Layer loss2/relu_conv
I0107 16:27:08.394513  8078 net.cpp:380] loss2/relu_conv <- loss2/conv
I0107 16:27:08.394523  8078 net.cpp:327] loss2/relu_conv -> loss2/conv (in-place)
I0107 16:27:08.394531  8078 net.cpp:113] Setting up loss2/relu_conv
I0107 16:27:08.394605  8078 net.cpp:120] Top shape: 50 128 4 4 (102400)
I0107 16:27:08.394611  8078 layer_factory.hpp:74] Creating layer loss2/fc
I0107 16:27:08.394623  8078 net.cpp:84] Creating Layer loss2/fc
I0107 16:27:08.394628  8078 net.cpp:380] loss2/fc <- loss2/conv
I0107 16:27:08.394634  8078 net.cpp:338] loss2/fc -> loss2/fc
I0107 16:27:08.394644  8078 net.cpp:113] Setting up loss2/fc
I0107 16:27:08.417807  8078 net.cpp:120] Top shape: 50 1024 (51200)
I0107 16:27:08.417822  8078 layer_factory.hpp:74] Creating layer loss2/relu_fc
I0107 16:27:08.417829  8078 net.cpp:84] Creating Layer loss2/relu_fc
I0107 16:27:08.417835  8078 net.cpp:380] loss2/relu_fc <- loss2/fc
I0107 16:27:08.417841  8078 net.cpp:327] loss2/relu_fc -> loss2/fc (in-place)
I0107 16:27:08.417850  8078 net.cpp:113] Setting up loss2/relu_fc
I0107 16:27:08.417934  8078 net.cpp:120] Top shape: 50 1024 (51200)
I0107 16:27:08.417943  8078 layer_factory.hpp:74] Creating layer loss2/drop_fc
I0107 16:27:08.417949  8078 net.cpp:84] Creating Layer loss2/drop_fc
I0107 16:27:08.417956  8078 net.cpp:380] loss2/drop_fc <- loss2/fc
I0107 16:27:08.417963  8078 net.cpp:327] loss2/drop_fc -> loss2/fc (in-place)
I0107 16:27:08.417970  8078 net.cpp:113] Setting up loss2/drop_fc
I0107 16:27:08.417978  8078 net.cpp:120] Top shape: 50 1024 (51200)
I0107 16:27:08.417982  8078 layer_factory.hpp:74] Creating layer loss2/classifier_kaggle
I0107 16:27:08.417991  8078 net.cpp:84] Creating Layer loss2/classifier_kaggle
I0107 16:27:08.417995  8078 net.cpp:380] loss2/classifier_kaggle <- loss2/fc
I0107 16:27:08.418004  8078 net.cpp:338] loss2/classifier_kaggle -> loss2/classifier_kaggle
I0107 16:27:08.418012  8078 net.cpp:113] Setting up loss2/classifier_kaggle
I0107 16:27:08.423399  8078 net.cpp:120] Top shape: 50 447 (22350)
I0107 16:27:08.423413  8078 layer_factory.hpp:74] Creating layer loss2/classifier_kaggle_loss2/classifier_kaggle_0_split
I0107 16:27:08.423419  8078 net.cpp:84] Creating Layer loss2/classifier_kaggle_loss2/classifier_kaggle_0_split
I0107 16:27:08.423425  8078 net.cpp:380] loss2/classifier_kaggle_loss2/classifier_kaggle_0_split <- loss2/classifier_kaggle
I0107 16:27:08.423434  8078 net.cpp:338] loss2/classifier_kaggle_loss2/classifier_kaggle_0_split -> loss2/classifier_kaggle_loss2/classifier_kaggle_0_split_0
I0107 16:27:08.423444  8078 net.cpp:338] loss2/classifier_kaggle_loss2/classifier_kaggle_0_split -> loss2/classifier_kaggle_loss2/classifier_kaggle_0_split_1
I0107 16:27:08.423465  8078 net.cpp:338] loss2/classifier_kaggle_loss2/classifier_kaggle_0_split -> loss2/classifier_kaggle_loss2/classifier_kaggle_0_split_2
I0107 16:27:08.423472  8078 net.cpp:113] Setting up loss2/classifier_kaggle_loss2/classifier_kaggle_0_split
I0107 16:27:08.423480  8078 net.cpp:120] Top shape: 50 447 (22350)
I0107 16:27:08.423485  8078 net.cpp:120] Top shape: 50 447 (22350)
I0107 16:27:08.423490  8078 net.cpp:120] Top shape: 50 447 (22350)
I0107 16:27:08.423494  8078 layer_factory.hpp:74] Creating layer loss2/loss
I0107 16:27:08.423503  8078 net.cpp:84] Creating Layer loss2/loss
I0107 16:27:08.423509  8078 net.cpp:380] loss2/loss <- loss2/classifier_kaggle_loss2/classifier_kaggle_0_split_0
I0107 16:27:08.423516  8078 net.cpp:380] loss2/loss <- label_data_1_split_3
I0107 16:27:08.423522  8078 net.cpp:338] loss2/loss -> loss2/loss1
…
I0107 16:27:08.423972  8078 net.cpp:338] loss2/top-5 -> loss2/top-5
I0107 16:27:08.423980  8078 net.cpp:113] Setting up loss2/top-5
I0107 16:27:08.423986  8078 net.cpp:120] Top shape: (1)
I0107 16:27:08.423990  8078 layer_factory.hpp:74] Creating layer inception_4e/1x1
I0107 16:27:08.424001  8078 net.cpp:84] Creating Layer inception_4e/1x1
I0107 16:27:08.424007  8078 net.cpp:380] inception_4e/1x1 <- inception_4d/output_inception_4d/output_0_split_1
I0107 16:27:08.424015  8078 net.cpp:338] inception_4e/1x1 -> inception_4e/1x1
I0107 16:27:08.424022  8078 net.cpp:113] Setting up inception_4e/1x1
I0107 16:27:08.433562  8078 net.cpp:120] Top shape: 50 256 14 14 (2508800)
I0107 16:27:08.433583  8078 layer_factory.hpp:74] Creating layer inception_4e/relu_1x1
I0107 16:27:08.433594  8078 net.cpp:84] Creating Layer inception_4e/relu_1x1
I0107 16:27:08.433600  8078 net.cpp:380] inception_4e/relu_1x1 <- inception_4e/1x1
I0107 16:27:08.433609  8078 net.cpp:327] inception_4e/relu_1x1 -> inception_4e/1x1 (in-place)
I0107 16:27:08.433617  8078 net.cpp:113] Setting up inception_4e/relu_1x1
I0107 16:27:08.433697  8078 net.cpp:120] Top shape: 50 256 14 14 (2508800)
I0107 16:27:08.433706  8078 layer_factory.hpp:74] Creating layer inception_4e/3x3_reduce
I0107 16:27:08.433735  8078 net.cpp:84] Creating Layer inception_4e/3x3_reduce
I0107 16:27:08.433743  8078 net.cpp:380] inception_4e/3x3_reduce <- inception_4d/output_inception_4d/output_0_split_2
I0107 16:27:08.433753  8078 net.cpp:338] inception_4e/3x3_reduce -> inception_4e/3x3_reduce
I0107 16:27:08.433761  8078 net.cpp:113] Setting up inception_4e/3x3_reduce
I0107 16:27:08.435189  8078 net.cpp:120] Top shape: 50 160 14 14 (1568000)
I0107 16:27:08.435207  8078 layer_factory.hpp:74] Creating layer inception_4e/relu_3x3_reduce
I0107 16:27:08.435214  8078 net.cpp:84] Creating Layer inception_4e/relu_3x3_reduce
I0107 16:27:08.435221  8078 net.cpp:380] inception_4e/relu_3x3_reduce <- inception_4e/3x3_reduce
I0107 16:27:08.435230  8078 net.cpp:327] inception_4e/relu_3x3_reduce -> inception_4e/3x3_reduce (in-place)
I0107 16:27:08.435245  8078 net.cpp:113] Setting up inception_4e/relu_3x3_reduce
I0107 16:27:08.435330  8078 net.cpp:120] Top shape: 50 160 14 14 (1568000)
I0107 16:27:08.435338  8078 layer_factory.hpp:74] Creating layer inception_4e/3x3
I0107 16:27:08.435346  8078 net.cpp:84] Creating Layer inception_4e/3x3
I0107 16:27:08.435351  8078 net.cpp:380] inception_4e/3x3 <- inception_4e/3x3_reduce
I0107 16:27:08.435361  8078 net.cpp:338] inception_4e/3x3 -> inception_4e/3x3
I0107 16:27:08.435369  8078 net.cpp:113] Setting up inception_4e/3x3
I0107 16:27:08.441295  8078 net.cpp:120] Top shape: 50 320 14 14 (3136000)
I0107 16:27:08.441313  8078 layer_factory.hpp:74] Creating layer inception_4e/relu_3x3
I0107 16:27:08.441321  8078 net.cpp:84] Creating Layer inception_4e/relu_3x3
I0107 16:27:08.441328  8078 net.cpp:380] inception_4e/relu_3x3 <- inception_4e/3x3
I0107 16:27:08.441335  8078 net.cpp:327] inception_4e/relu_3x3 -> inception_4e/3x3 (in-place)
I0107 16:27:08.441344  8078 net.cpp:113] Setting up inception_4e/relu_3x3
I0107 16:27:08.441606  8078 net.cpp:120] Top shape: 50 320 14 14 (3136000)
I0107 16:27:08.441619  8078 layer_factory.hpp:74] Creating layer inception_4e/5x5_reduce
I0107 16:27:08.441629  8078 net.cpp:84] Creating Layer inception_4e/5x5_reduce
I0107 16:27:08.441634  8078 net.cpp:380] inception_4e/5x5_reduce <- inception_4d/output_inception_4d/output_0_split_3
I0107 16:27:08.441643  8078 net.cpp:338] inception_4e/5x5_reduce -> inception_4e/5x5_reduce
I0107 16:27:08.441653  8078 net.cpp:113] Setting up inception_4e/5x5_reduce
I0107 16:27:08.442262  8078 net.cpp:120] Top shape: 50 32 14 14 (313600)
I0107 16:27:08.442278  8078 layer_factory.hpp:74] Creating layer inception_4e/relu_5x5_reduce
I0107 16:27:08.442286  8078 net.cpp:84] Creating Layer inception_4e/relu_5x5_reduce
I0107 16:27:08.442291  8078 net.cpp:380] inception_4e/relu_5x5_reduce <- inception_4e/5x5_reduce
I0107 16:27:08.442298  8078 net.cpp:327] inception_4e/relu_5x5_reduce -> inception_4e/5x5_reduce (in-place)
I0107 16:27:08.442306  8078 net.cpp:113] Setting up inception_4e/relu_5x5_reduce
I0107 16:27:08.442384  8078 net.cpp:120] Top shape: 50 32 14 14 (313600)
I0107 16:27:08.442390  8078 layer_factory.hpp:74] Creating layer inception_4e/5x5
I0107 16:27:08.442401  8078 net.cpp:84] Creating Layer inception_4e/5x5
I0107 16:27:08.442406  8078 net.cpp:380] inception_4e/5x5 <- inception_4e/5x5_reduce
I0107 16:27:08.442414  8078 net.cpp:338] inception_4e/5x5 -> inception_4e/5x5
I0107 16:27:08.442422  8078 net.cpp:113] Setting up inception_4e/5x5
I0107 16:27:08.444048  8078 net.cpp:120] Top shape: 50 128 14 14 (1254400)
I0107 16:27:08.444064  8078 layer_factory.hpp:74] Creating layer inception_4e/relu_5x5
I0107 16:27:08.444072  8078 net.cpp:84] Creating Layer inception_4e/relu_5x5
I0107 16:27:08.444077  8078 net.cpp:380] inception_4e/relu_5x5 <- inception_4e/5x5
I0107 16:27:08.444087  8078 net.cpp:327] inception_4e/relu_5x5 -> inception_4e/5x5 (in-place)
I0107 16:27:08.444094  8078 net.cpp:113] Setting up inception_4e/relu_5x5
I0107 16:27:08.444169  8078 net.cpp:120] Top shape: 50 128 14 14 (1254400)
I0107 16:27:08.444175  8078 layer_factory.hpp:74] Creating layer inception_4e/pool
I0107 16:27:08.444180  8078 layer_factory.cpp:56] CUDNN does not support padding or multiple tops. Using Caffe's own pooling layer.
I0107 16:27:08.444187  8078 net.cpp:84] Creating Layer inception_4e/pool
I0107 16:27:08.444195  8078 net.cpp:380] inception_4e/pool <- inception_4d/output_inception_4d/output_0_split_4
I0107 16:27:08.444201  8078 net.cpp:338] inception_4e/pool -> inception_4e/pool
I0107 16:27:08.444210  8078 net.cpp:113] Setting up inception_4e/pool
I0107 16:27:08.444218  8078 net.cpp:120] Top shape: 50 528 14 14 (5174400)
I0107 16:27:08.444222  8078 layer_factory.hpp:74] Creating layer inception_4e/pool_proj
I0107 16:27:08.444233  8078 net.cpp:84] Creating Layer inception_4e/pool_proj
I0107 16:27:08.444238  8078 net.cpp:380] inception_4e/pool_proj <- inception_4e/pool
I0107 16:27:08.444245  8078 net.cpp:338] inception_4e/pool_proj -> inception_4e/pool_proj
I0107 16:27:08.444258  8078 net.cpp:113] Setting up inception_4e/pool_proj
I0107 16:27:08.445498  8078 net.cpp:120] Top shape: 50 128 14 14 (1254400)
I0107 16:27:08.445515  8078 layer_factory.hpp:74] Creating layer inception_4e/relu_pool_proj
I0107 16:27:08.445523  8078 net.cpp:84] Creating Layer inception_4e/relu_pool_proj
I0107 16:27:08.445528  8078 net.cpp:380] inception_4e/relu_pool_proj <- inception_4e/pool_proj
I0107 16:27:08.445538  8078 net.cpp:327] inception_4e/relu_pool_proj -> inception_4e/pool_proj (in-place)
I0107 16:27:08.445545  8078 net.cpp:113] Setting up inception_4e/relu_pool_proj
I0107 16:27:08.445618  8078 net.cpp:120] Top shape: 50 128 14 14 (1254400)
I0107 16:27:08.445624  8078 layer_factory.hpp:74] Creating layer inception_4e/output
I0107 16:27:08.445632  8078 net.cpp:84] Creating Layer inception_4e/output
I0107 16:27:08.445637  8078 net.cpp:380] inception_4e/output <- inception_4e/1x1
I0107 16:27:08.445643  8078 net.cpp:380] inception_4e/output <- inception_4e/3x3
I0107 16:27:08.445649  8078 net.cpp:380] inception_4e/output <- inception_4e/5x5
I0107 16:27:08.445655  8078 net.cpp:380] inception_4e/output <- inception_4e/pool_proj
I0107 16:27:08.445663  8078 net.cpp:338] inception_4e/output -> inception_4e/output
I0107 16:27:08.445672  8078 net.cpp:113] Setting up inception_4e/output
I0107 16:27:08.445679  8078 net.cpp:120] Top shape: 50 832 14 14 (8153600)
I0107 16:27:08.445684  8078 layer_factory.hpp:74] Creating layer pool4/3x3_s2
I0107 16:27:08.445691  8078 net.cpp:84] Creating Layer pool4/3x3_s2
I0107 16:27:08.445696  8078 net.cpp:380] pool4/3x3_s2 <- inception_4e/output
I0107 16:27:08.445705  8078 net.cpp:338] pool4/3x3_s2 -> pool4/3x3_s2
I0107 16:27:08.445713  8078 net.cpp:113] Setting up pool4/3x3_s2
I0107 16:27:08.445971  8078 net.cpp:120] Top shape: 50 832 7 7 (2038400)
I0107 16:27:08.445982  8078 layer_factory.hpp:74] Creating layer pool4/3x3_s2_pool4/3x3_s2_0_split
I0107 16:27:08.445991  8078 net.cpp:84] Creating Layer pool4/3x3_s2_pool4/3x3_s2_0_split
I0107 16:27:08.445996  8078 net.cpp:380] pool4/3x3_s2_pool4/3x3_s2_0_split <- pool4/3x3_s2
I0107 16:27:08.446003  8078 net.cpp:338] pool4/3x3_s2_pool4/3x3_s2_0_split -> pool4/3x3_s2_pool4/3x3_s2_0_split_0
I0107 16:27:08.446012  8078 net.cpp:338] pool4/3x3_s2_pool4/3x3_s2_0_split -> pool4/3x3_s2_pool4/3x3_s2_0_split_1
I0107 16:27:08.446020  8078 net.cpp:338] pool4/3x3_s2_pool4/3x3_s2_0_split -> pool4/3x3_s2_pool4/3x3_s2_0_split_2
I0107 16:27:08.446053  8078 net.cpp:338] pool4/3x3_s2_pool4/3x3_s2_0_split -> pool4/3x3_s2_pool4/3x3_s2_0_split_3
I0107 16:27:08.446060  8078 net.cpp:113] Setting up pool4/3x3_s2_pool4/3x3_s2_0_split
I0107 16:27:08.446069  8078 net.cpp:120] Top shape: 50 832 7 7 (2038400)
I0107 16:27:08.446074  8078 net.cpp:120] Top shape: 50 832 7 7 (2038400)
I0107 16:27:08.446080  8078 net.cpp:120] Top shape: 50 832 7 7 (2038400)
I0107 16:27:08.446085  8078 net.cpp:120] Top shape: 50 832 7 7 (2038400)
I0107 16:27:08.446090  8078 layer_factory.hpp:74] Creating layer inception_5a/1x1
I0107 16:27:08.446100  8078 net.cpp:84] Creating Layer inception_5a/1x1
I0107 16:27:08.446105  8078 net.cpp:380] inception_5a/1x1 <- pool4/3x3_s2_pool4/3x3_s2_0_split_0
I0107 16:27:08.446113  8078 net.cpp:338] inception_5a/1x1 -> inception_5a/1x1
I0107 16:27:08.446122  8078 net.cpp:113] Setting up inception_5a/1x1
I0107 16:27:08.449041  8078 net.cpp:120] Top shape: 50 256 7 7 (627200)
I0107 16:27:08.449056  8078 layer_factory.hpp:74] Creating layer inception_5a/relu_1x1
I0107 16:27:08.449066  8078 net.cpp:84] Creating Layer inception_5a/relu_1x1
I0107 16:27:08.449072  8078 net.cpp:380] inception_5a/relu_1x1 <- inception_5a/1x1
I0107 16:27:08.449079  8078 net.cpp:327] inception_5a/relu_1x1 -> inception_5a/1x1 (in-place)
I0107 16:27:08.449087  8078 net.cpp:113] Setting up inception_5a/relu_1x1
I0107 16:27:08.449162  8078 net.cpp:120] Top shape: 50 256 7 7 (627200)
I0107 16:27:08.449168  8078 layer_factory.hpp:74] Creating layer inception_5a/3x3_reduce
I0107 16:27:08.449178  8078 net.cpp:84] Creating Layer inception_5a/3x3_reduce
I0107 16:27:08.449190  8078 net.cpp:380] inception_5a/3x3_reduce <- pool4/3x3_s2_pool4/3x3_s2_0_split_1
I0107 16:27:08.449208  8078 net.cpp:338] inception_5a/3x3_reduce -> inception_5a/3x3_reduce
I0107 16:27:08.449216  8078 net.cpp:113] Setting up inception_5a/3x3_reduce
I0107 16:27:08.451210  8078 net.cpp:120] Top shape: 50 160 7 7 (392000)
I0107 16:27:08.451227  8078 layer_factory.hpp:74] Creating layer inception_5a/relu_3x3_reduce
I0107 16:27:08.451236  8078 net.cpp:84] Creating Layer inception_5a/relu_3x3_reduce
I0107 16:27:08.451242  8078 net.cpp:380] inception_5a/relu_3x3_reduce <- inception_5a/3x3_reduce
I0107 16:27:08.451249  8078 net.cpp:327] inception_5a/relu_3x3_reduce -> inception_5a/3x3_reduce (in-place)
I0107 16:27:08.451257  8078 net.cpp:113] Setting up inception_5a/relu_3x3_reduce
I0107 16:27:08.451339  8078 net.cpp:120] Top shape: 50 160 7 7 (392000)
I0107 16:27:08.451345  8078 layer_factory.hpp:74] Creating layer inception_5a/3x3
I0107 16:27:08.451354  8078 net.cpp:84] Creating Layer inception_5a/3x3
I0107 16:27:08.451359  8078 net.cpp:380] inception_5a/3x3 <- inception_5a/3x3_reduce
I0107 16:27:08.451369  8078 net.cpp:338] inception_5a/3x3 -> inception_5a/3x3
I0107 16:27:08.451376  8078 net.cpp:113] Setting up inception_5a/3x3
I0107 16:27:08.463728  8078 net.cpp:120] Top shape: 50 320 7 7 (784000)
I0107 16:27:08.463750  8078 layer_factory.hpp:74] Creating layer inception_5a/relu_3x3
I0107 16:27:08.463759  8078 net.cpp:84] Creating Layer inception_5a/relu_3x3
I0107 16:27:08.463767  8078 net.cpp:380] inception_5a/relu_3x3 <- inception_5a/3x3
I0107 16:27:08.463773  8078 net.cpp:327] inception_5a/relu_3x3 -> inception_5a/3x3 (in-place)
I0107 16:27:08.463783  8078 net.cpp:113] Setting up inception_5a/relu_3x3
I0107 16:27:08.463861  8078 net.cpp:120] Top shape: 50 320 7 7 (784000)
I0107 16:27:08.463870  8078 layer_factory.hpp:74] Creating layer inception_5a/5x5_reduce
I0107 16:27:08.463878  8078 net.cpp:84] Creating Layer inception_5a/5x5_reduce
I0107 16:27:08.463884  8078 net.cpp:380] inception_5a/5x5_reduce <- pool4/3x3_s2_pool4/3x3_s2_0_split_2
I0107 16:27:08.463894  8078 net.cpp:338] inception_5a/5x5_reduce -> inception_5a/5x5_reduce
I0107 16:27:08.463903  8078 net.cpp:113] Setting up inception_5a/5x5_reduce
I0107 16:27:08.464656  8078 net.cpp:120] Top shape: 50 32 7 7 (78400)
I0107 16:27:08.464673  8078 layer_factory.hpp:74] Creating layer inception_5a/relu_5x5_reduce
I0107 16:27:08.464681  8078 net.cpp:84] Creating Layer inception_5a/relu_5x5_reduce
I0107 16:27:08.464687  8078 net.cpp:380] inception_5a/relu_5x5_reduce <- inception_5a/5x5_reduce
I0107 16:27:08.464694  8078 net.cpp:327] inception_5a/relu_5x5_reduce -> inception_5a/5x5_reduce (in-place)
I0107 16:27:08.464702  8078 net.cpp:113] Setting up inception_5a/relu_5x5_reduce
I0107 16:27:08.464959  8078 net.cpp:120] Top shape: 50 32 7 7 (78400)
I0107 16:27:08.464972  8078 layer_factory.hpp:74] Creating layer inception_5a/5x5
I0107 16:27:08.464983  8078 net.cpp:84] Creating Layer inception_5a/5x5
I0107 16:27:08.464989  8078 net.cpp:380] inception_5a/5x5 <- inception_5a/5x5_reduce
I0107 16:27:08.464999  8078 net.cpp:338] inception_5a/5x5 -> inception_5a/5x5
I0107 16:27:08.465009  8078 net.cpp:113] Setting up inception_5a/5x5
I0107 16:27:08.466651  8078 net.cpp:120] Top shape: 50 128 7 7 (313600)
I0107 16:27:08.466668  8078 layer_factory.hpp:74] Creating layer inception_5a/relu_5x5
I0107 16:27:08.466676  8078 net.cpp:84] Creating Layer inception_5a/relu_5x5
I0107 16:27:08.466682  8078 net.cpp:380] inception_5a/relu_5x5 <- inception_5a/5x5
I0107 16:27:08.466696  8078 net.cpp:327] inception_5a/relu_5x5 -> inception_5a/5x5 (in-place)
I0107 16:27:08.466703  8078 net.cpp:113] Setting up inception_5a/relu_5x5
I0107 16:27:08.466781  8078 net.cpp:120] Top shape: 50 128 7 7 (313600)
I0107 16:27:08.466789  8078 layer_factory.hpp:74] Creating layer inception_5a/pool
I0107 16:27:08.466794  8078 layer_factory.cpp:56] CUDNN does not support padding or multiple tops. Using Caffe's own pooling layer.
I0107 16:27:08.466800  8078 net.cpp:84] Creating Layer inception_5a/pool
I0107 16:27:08.466811  8078 net.cpp:380] inception_5a/pool <- pool4/3x3_s2_pool4/3x3_s2_0_split_3
I0107 16:27:08.466827  8078 net.cpp:338] inception_5a/pool -> inception_5a/pool
I0107 16:27:08.466835  8078 net.cpp:113] Setting up inception_5a/pool
I0107 16:27:08.466845  8078 net.cpp:120] Top shape: 50 832 7 7 (2038400)
I0107 16:27:08.466848  8078 layer_factory.hpp:74] Creating layer inception_5a/pool_proj
I0107 16:27:08.466859  8078 net.cpp:84] Creating Layer inception_5a/pool_proj
I0107 16:27:08.466864  8078 net.cpp:380] inception_5a/pool_proj <- inception_5a/pool
I0107 16:27:08.466873  8078 net.cpp:338] inception_5a/pool_proj -> inception_5a/pool_proj
I0107 16:27:08.466881  8078 net.cpp:113] Setting up inception_5a/pool_proj
I0107 16:27:08.468555  8078 net.cpp:120] Top shape: 50 128 7 7 (313600)
I0107 16:27:08.468571  8078 layer_factory.hpp:74] Creating layer inception_5a/relu_pool_proj
I0107 16:27:08.468580  8078 net.cpp:84] Creating Layer inception_5a/relu_pool_proj
I0107 16:27:08.468585  8078 net.cpp:380] inception_5a/relu_pool_proj <- inception_5a/pool_proj
I0107 16:27:08.468595  8078 net.cpp:327] inception_5a/relu_pool_proj -> inception_5a/pool_proj (in-place)
I0107 16:27:08.468602  8078 net.cpp:113] Setting up inception_5a/relu_pool_proj
I0107 16:27:08.468679  8078 net.cpp:120] Top shape: 50 128 7 7 (313600)
I0107 16:27:08.468686  8078 layer_factory.hpp:74] Creating layer inception_5a/output
I0107 16:27:08.468693  8078 net.cpp:84] Creating Layer inception_5a/output
I0107 16:27:08.468698  8078 net.cpp:380] inception_5a/output <- inception_5a/1x1
I0107 16:27:08.468705  8078 net.cpp:380] inception_5a/output <- inception_5a/3x3
I0107 16:27:08.468711  8078 net.cpp:380] inception_5a/output <- inception_5a/5x5
I0107 16:27:08.468716  8078 net.cpp:380] inception_5a/output <- inception_5a/pool_proj
I0107 16:27:08.468724  8078 net.cpp:338] inception_5a/output -> inception_5a/output
I0107 16:27:08.468734  8078 net.cpp:113] Setting up inception_5a/output
I0107 16:27:08.468740  8078 net.cpp:120] Top shape: 50 832 7 7 (2038400)
I0107 16:27:08.468745  8078 layer_factory.hpp:74] Creating layer inception_5a/output_inception_5a/output_0_split
I0107 16:27:08.468752  8078 net.cpp:84] Creating Layer inception_5a/output_inception_5a/output_0_split
I0107 16:27:08.468756  8078 net.cpp:380] inception_5a/output_inception_5a/output_0_split <- inception_5a/output
I0107 16:27:08.468765  8078 net.cpp:338] inception_5a/output_inception_5a/output_0_split -> inception_5a/output_inception_5a/output_0_split_0
I0107 16:27:08.468773  8078 net.cpp:338] inception_5a/output_inception_5a/output_0_split -> inception_5a/output_inception_5a/output_0_split_1
I0107 16:27:08.468780  8078 net.cpp:338] inception_5a/output_inception_5a/output_0_split -> inception_5a/output_inception_5a/output_0_split_2
I0107 16:27:08.468788  8078 net.cpp:338] inception_5a/output_inception_5a/output_0_split -> inception_5a/output_inception_5a/output_0_split_3
I0107 16:27:08.468794  8078 net.cpp:113] Setting up inception_5a/output_inception_5a/output_0_split
I0107 16:27:08.468801  8078 net.cpp:120] Top shape: 50 832 7 7 (2038400)
I0107 16:27:08.468807  8078 net.cpp:120] Top shape: 50 832 7 7 (2038400)
I0107 16:27:08.468812  8078 net.cpp:120] Top shape: 50 832 7 7 (2038400)
I0107 16:27:08.468817  8078 net.cpp:120] Top shape: 50 832 7 7 (2038400)
I0107 16:27:08.468822  8078 layer_factory.hpp:74] Creating layer inception_5b/1x1
I0107 16:27:08.468832  8078 net.cpp:84] Creating Layer inception_5b/1x1
I0107 16:27:08.468837  8078 net.cpp:380] inception_5b/1x1 <- inception_5a/output_inception_5a/output_0_split_0
I0107 16:27:08.468844  8078 net.cpp:338] inception_5b/1x1 -> inception_5b/1x1
I0107 16:27:08.468852  8078 net.cpp:113] Setting up inception_5b/1x1
I0107 16:27:08.473017  8078 net.cpp:120] Top shape: 50 384 7 7 (940800)
I0107 16:27:08.473034  8078 layer_factory.hpp:74] Creating layer inception_5b/relu_1x1
I0107 16:27:08.473043  8078 net.cpp:84] Creating Layer inception_5b/relu_1x1
I0107 16:27:08.473049  8078 net.cpp:380] inception_5b/relu_1x1 <- inception_5b/1x1
I0107 16:27:08.473057  8078 net.cpp:327] inception_5b/relu_1x1 -> inception_5b/1x1 (in-place)
I0107 16:27:08.473078  8078 net.cpp:113] Setting up inception_5b/relu_1x1
I0107 16:27:08.473157  8078 net.cpp:120] Top shape: 50 384 7 7 (940800)
I0107 16:27:08.473165  8078 layer_factory.hpp:74] Creating layer inception_5b/3x3_reduce
I0107 16:27:08.473173  8078 net.cpp:84] Creating Layer inception_5b/3x3_reduce
I0107 16:27:08.473178  8078 net.cpp:380] inception_5b/3x3_reduce <- inception_5a/output_inception_5a/output_0_split_1
I0107 16:27:08.473188  8078 net.cpp:338] inception_5b/3x3_reduce -> inception_5b/3x3_reduce
I0107 16:27:08.473197  8078 net.cpp:113] Setting up inception_5b/3x3_reduce
I0107 16:27:08.475505  8078 net.cpp:120] Top shape: 50 192 7 7 (470400)
I0107 16:27:08.475522  8078 layer_factory.hpp:74] Creating layer inception_5b/relu_3x3_reduce
I0107 16:27:08.475533  8078 net.cpp:84] Creating Layer inception_5b/relu_3x3_reduce
I0107 16:27:08.475539  8078 net.cpp:380] inception_5b/relu_3x3_reduce <- inception_5b/3x3_reduce
I0107 16:27:08.475546  8078 net.cpp:327] inception_5b/relu_3x3_reduce -> inception_5b/3x3_reduce (in-place)
I0107 16:27:08.475554  8078 net.cpp:113] Setting up inception_5b/relu_3x3_reduce
I0107 16:27:08.475816  8078 net.cpp:120] Top shape: 50 192 7 7 (470400)
I0107 16:27:08.475826  8078 layer_factory.hpp:74] Creating layer inception_5b/3x3
I0107 16:27:08.475837  8078 net.cpp:84] Creating Layer inception_5b/3x3
I0107 16:27:08.475843  8078 net.cpp:380] inception_5b/3x3 <- inception_5b/3x3_reduce
I0107 16:27:08.475853  8078 net.cpp:338] inception_5b/3x3 -> inception_5b/3x3
I0107 16:27:08.475862  8078 net.cpp:113] Setting up inception_5b/3x3
I0107 16:27:08.484060  8078 net.cpp:120] Top shape: 50 384 7 7 (940800)
I0107 16:27:08.484076  8078 layer_factory.hpp:74] Creating layer inception_5b/relu_3x3
I0107 16:27:08.484086  8078 net.cpp:84] Creating Layer inception_5b/relu_3x3
I0107 16:27:08.484092  8078 net.cpp:380] inception_5b/relu_3x3 <- inception_5b/3x3
I0107 16:27:08.484099  8078 net.cpp:327] inception_5b/relu_3x3 -> inception_5b/3x3 (in-place)
I0107 16:27:08.484107  8078 net.cpp:113] Setting up inception_5b/relu_3x3
I0107 16:27:08.484180  8078 net.cpp:120] Top shape: 50 384 7 7 (940800)
I0107 16:27:08.484187  8078 layer_factory.hpp:74] Creating layer inception_5b/5x5_reduce
I0107 16:27:08.484197  8078 net.cpp:84] Creating Layer inception_5b/5x5_reduce
I0107 16:27:08.484203  8078 net.cpp:380] inception_5b/5x5_reduce <- inception_5a/output_inception_5a/output_0_split_2
I0107 16:27:08.484213  8078 net.cpp:338] inception_5b/5x5_reduce -> inception_5b/5x5_reduce
I0107 16:27:08.484221  8078 net.cpp:113] Setting up inception_5b/5x5_reduce
I0107 16:27:08.485116  8078 net.cpp:120] Top shape: 50 48 7 7 (117600)
I0107 16:27:08.485131  8078 layer_factory.hpp:74] Creating layer inception_5b/relu_5x5_reduce
I0107 16:27:08.485141  8078 net.cpp:84] Creating Layer inception_5b/relu_5x5_reduce
I0107 16:27:08.485146  8078 net.cpp:380] inception_5b/relu_5x5_reduce <- inception_5b/5x5_reduce
I0107 16:27:08.485153  8078 net.cpp:327] inception_5b/relu_5x5_reduce -> inception_5b/5x5_reduce (in-place)
I0107 16:27:08.485162  8078 net.cpp:113] Setting up inception_5b/relu_5x5_reduce
I0107 16:27:08.485236  8078 net.cpp:120] Top shape: 50 48 7 7 (117600)
I0107 16:27:08.485244  8078 layer_factory.hpp:74] Creating layer inception_5b/5x5
I0107 16:27:08.485252  8078 net.cpp:84] Creating Layer inception_5b/5x5
I0107 16:27:08.485257  8078 net.cpp:380] inception_5b/5x5 <- inception_5b/5x5_reduce
I0107 16:27:08.485266  8078 net.cpp:338] inception_5b/5x5 -> inception_5b/5x5
I0107 16:27:08.485275  8078 net.cpp:113] Setting up inception_5b/5x5
I0107 16:27:08.487514  8078 net.cpp:120] Top shape: 50 128 7 7 (313600)
I0107 16:27:08.487531  8078 layer_factory.hpp:74] Creating layer inception_5b/relu_5x5
I0107 16:27:08.487540  8078 net.cpp:84] Creating Layer inception_5b/relu_5x5
I0107 16:27:08.487545  8078 net.cpp:380] inception_5b/relu_5x5 <- inception_5b/5x5
I0107 16:27:08.487552  8078 net.cpp:327] inception_5b/relu_5x5 -> inception_5b/5x5 (in-place)
I0107 16:27:08.487565  8078 net.cpp:113] Setting up inception_5b/relu_5x5
I0107 16:27:08.487829  8078 net.cpp:120] Top shape: 50 128 7 7 (313600)
I0107 16:27:08.487841  8078 layer_factory.hpp:74] Creating layer inception_5b/pool
I0107 16:27:08.487848  8078 layer_factory.cpp:56] CUDNN does not support padding or multiple tops. Using Caffe's own pooling layer.
I0107 16:27:08.487856  8078 net.cpp:84] Creating Layer inception_5b/pool
I0107 16:27:08.487862  8078 net.cpp:380] inception_5b/pool <- inception_5a/output_inception_5a/output_0_split_3
I0107 16:27:08.487869  8078 net.cpp:338] inception_5b/pool -> inception_5b/pool
I0107 16:27:08.487879  8078 net.cpp:113] Setting up inception_5b/pool
I0107 16:27:08.487886  8078 net.cpp:120] Top shape: 50 832 7 7 (2038400)
I0107 16:27:08.487891  8078 layer_factory.hpp:74] Creating layer inception_5b/pool_proj
I0107 16:27:08.487902  8078 net.cpp:84] Creating Layer inception_5b/pool_proj
I0107 16:27:08.487907  8078 net.cpp:380] inception_5b/pool_proj <- inception_5b/pool
I0107 16:27:08.487915  8078 net.cpp:338] inception_5b/pool_proj -> inception_5b/pool_proj
I0107 16:27:08.487922  8078 net.cpp:113] Setting up inception_5b/pool_proj
I0107 16:27:08.489600  8078 net.cpp:120] Top shape: 50 128 7 7 (313600)
I0107 16:27:08.489617  8078 layer_factory.hpp:74] Creating layer inception_5b/relu_pool_proj
I0107 16:27:08.489625  8078 net.cpp:84] Creating Layer inception_5b/relu_pool_proj
I0107 16:27:08.489631  8078 net.cpp:380] inception_5b/relu_pool_proj <- inception_5b/pool_proj
I0107 16:27:08.489640  8078 net.cpp:327] inception_5b/relu_pool_proj -> inception_5b/pool_proj (in-place)
I0107 16:27:08.489648  8078 net.cpp:113] Setting up inception_5b/relu_pool_proj
I0107 16:27:08.489723  8078 net.cpp:120] Top shape: 50 128 7 7 (313600)
I0107 16:27:08.489730  8078 layer_factory.hpp:74] Creating layer inception_5b/output
I0107 16:27:08.489738  8078 net.cpp:84] Creating Layer inception_5b/output
I0107 16:27:08.489743  8078 net.cpp:380] inception_5b/output <- inception_5b/1x1
I0107 16:27:08.489750  8078 net.cpp:380] inception_5b/output <- inception_5b/3x3
I0107 16:27:08.489755  8078 net.cpp:380] inception_5b/output <- inception_5b/5x5
I0107 16:27:08.489761  8078 net.cpp:380] inception_5b/output <- inception_5b/pool_proj
I0107 16:27:08.489769  8078 net.cpp:338] inception_5b/output -> inception_5b/output
I0107 16:27:08.489778  8078 net.cpp:113] Setting up inception_5b/output
I0107 16:27:08.489784  8078 net.cpp:120] Top shape: 50 1024 7 7 (2508800)
I0107 16:27:08.489789  8078 layer_factory.hpp:74] Creating layer pool5/7x7_s1
I0107 16:27:08.489796  8078 net.cpp:84] Creating Layer pool5/7x7_s1
I0107 16:27:08.489801  8078 net.cpp:380] pool5/7x7_s1 <- inception_5b/output
I0107 16:27:08.489809  8078 net.cpp:338] pool5/7x7_s1 -> pool5/7x7_s1
I0107 16:27:08.489816  8078 net.cpp:113] Setting up pool5/7x7_s1
I0107 16:27:08.489897  8078 net.cpp:120] Top shape: 50 1024 1 1 (51200)
I0107 16:27:08.489903  8078 layer_factory.hpp:74] Creating layer pool5/drop_7x7_s1
I0107 16:27:08.489910  8078 net.cpp:84] Creating Layer pool5/drop_7x7_s1
I0107 16:27:08.489915  8078 net.cpp:380] pool5/drop_7x7_s1 <- pool5/7x7_s1
I0107 16:27:08.489922  8078 net.cpp:327] pool5/drop_7x7_s1 -> pool5/7x7_s1 (in-place)
I0107 16:27:08.489928  8078 net.cpp:113] Setting up pool5/drop_7x7_s1
I0107 16:27:08.489936  8078 net.cpp:120] Top shape: 50 1024 1 1 (51200)
I0107 16:27:08.489941  8078 layer_factory.hpp:74] Creating layer loss3/classifier_kaggle
I0107 16:27:08.489950  8078 net.cpp:84] Creating Layer loss3/classifier_kaggle
I0107 16:27:08.489955  8078 net.cpp:380] loss3/classifier_kaggle <- pool5/7x7_s1
I0107 16:27:08.489964  8078 net.cpp:338] loss3/classifier_kaggle -> loss3/classifier_kaggle
I0107 16:27:08.489972  8078 net.cpp:113] Setting up loss3/classifier_kaggle
I0107 16:27:08.495327  8078 net.cpp:120] Top shape: 50 447 (22350)
I0107 16:27:08.495340  8078 layer_factory.hpp:74] Creating layer loss3/classifier_kaggle_loss3/classifier_kaggle_0_split
I0107 16:27:08.495349  8078 net.cpp:84] Creating Layer loss3/classifier_kaggle_loss3/classifier_kaggle_0_split
I0107 16:27:08.495360  8078 net.cpp:380] loss3/classifier_kaggle_loss3/classifier_kaggle_0_split <- loss3/classifier_kaggle
I0107 16:27:08.495375  8078 net.cpp:338] loss3/classifier_kaggle_loss3/classifier_kaggle_0_split -> loss3/classifier_kaggle_loss3/classifier_kaggle_0_split_0
I0107 16:27:08.495384  8078 net.cpp:338] loss3/classifier_kaggle_loss3/classifier_kaggle_0_split -> loss3/classifier_kaggle_loss3/classifier_kaggle_0_split_1
I0107 16:27:08.495393  8078 net.cpp:338] loss3/classifier_kaggle_loss3/classifier_kaggle_0_split -> loss3/classifier_kaggle_loss3/classifier_kaggle_0_split_2
I0107 16:27:08.495401  8078 net.cpp:113] Setting up loss3/classifier_kaggle_loss3/classifier_kaggle_0_split
I0107 16:27:08.495409  8078 net.cpp:120] Top shape: 50 447 (22350)
I0107 16:27:08.495414  8078 net.cpp:120] Top shape: 50 447 (22350)
I0107 16:27:08.495419  8078 net.cpp:120] Top shape: 50 447 (22350)
I0107 16:27:08.495424  8078 layer_factory.hpp:74] Creating layer loss3/loss3
I0107 16:27:08.495431  8078 net.cpp:84] Creating Layer loss3/loss3
I0107 16:27:08.495436  8078 net.cpp:380] loss3/loss3 <- loss3/classifier_kaggle_loss3/classifier_kaggle_0_split_0
I0107 16:27:08.495442  8078 net.cpp:380] loss3/loss3 <- label_data_1_split_6
I0107 16:27:08.495450  8078 net.cpp:338] loss3/loss3 -> loss3/loss3
…
