…
I1215 23:11:05.462981 11477 net.cpp:257] The NetState phase (0) differed from the phase (1) specified by a rule in layer loss3/top-5
I1215 23:11:05.466303 11477 net.cpp:42] Initializing net from parameters: 
name: "GoogleNet"
state {
  phase: TRAIN
}
layer {
  name: "data"
  type: "Data"
  top: "data"
  top: "label"
  include {
    phase: TRAIN
  }
  transform_param {
    mirror: true
    crop_size: 224
    mean_value: 104
    mean_value: 117
    mean_value: 123
  }
  data_param {
    source: "/home/coldmanck/kaggle/kaggle2_train_lmdb"
    batch_size: 32
    backend: LMDB
  }
}
layer {
  name: "conv1/7x7_s2"
  type: "Convolution"
  bottom: "data"
  top: "conv1/7x7_s2"
  param {
    lr_mult: 1
    decay_mult: 1
  }
  param {
    lr_mult: 2
    decay_mult: 0
  }
  convolution_param {
    num_output: 64
    pad: 3
    kernel_size: 7
    stride: 2
    weight_filler {
      type: "xavier"
      std: 0.1
    }
    bias_filler {
      type: "constant"
      value: 0.2
    }
  }
}
layer {
  name: "conv1/relu_7x7"
  type: "ReLU"
  bottom: "conv1/7x7_s2"
  top: "conv1/7x7_s2"
}
layer {
  name: "pool1/3x3_s2"
  type: "Pooling"
  bottom: "conv1/7x7_s2"
  top: "pool1/3x3_s2"
  pooling_param {
    pool: MAX
    kernel_size: 3
    stride: 2
  }
}
layer {
  name: "pool1/norm1"
  type: "LRN"
  bottom: "pool1/3x3_s2"
  top: "pool1/norm1"
  lrn_param {
    local_size: 5
    alpha: 0.0001
    beta: 0.75
  }
}
layer {
  name: "conv2/3x3_reduce"
  type: "Convolution"
  bottom: "pool1/norm1"
  top: "conv2/3x3_reduce"
  param {
    lr_mult: 1
    decay_mult: 1
  }
  param {
    lr_mult: 2
    decay_mult: 0
  }
  convolution_param {
    num_output: 64
    kernel_size: 1
    weight_filler {
      type: "xavier"
      std: 0.1
    }
    bias_filler {
      type: "constant"
      value: 0.2
    }
  }
}
layer {
  name: "conv2/relu_3x3_reduce"
  type: "ReLU"
  bottom: "conv2/3x3_reduce"
  top: "conv2/3x3_reduce"
}
layer {
  name: "conv2/3x3"
  type: "Convolution"
  bottom: "conv2/3x3_reduce"
  top: "conv2/3x3"
  param {
    lr_mult: 1
    decay_mult: 1
  }
  param {
    lr_mult: 2
    decay_mult: 0
  }
  convolution_param {
    num_output: 192
    pad: 1
    kernel_size: 3
    weight_filler {
      type: "xavier"
      std: 0.03
    }
    bias_filler {
      type: "constant"
      value: 0.2
    }
  }
}
layer {
  name: "conv2/relu_3x3"
  type: "ReLU"
  bottom: "conv2/3x3"
  top: "conv2/3x3"
}
layer {
  name: "conv2/norm2"
  type: "LRN"
  bottom: "conv2/3x3"
  top: "conv2/norm2"
  lrn_param {
    local_size: 5
    alpha: 0.0001
    beta: 0.75
  }
}
layer {
  name: "pool2/3x3_s2"
  type: "Pooling"
  bottom: "conv2/norm2"
  top: "pool2/3x3_s2"
  pooling_param {
    pool: MAX
    kernel_size: 3
    stride: 2
  }
}
layer {
  name: "inception_3a/1x1"
  type: "Convolution"
  bottom: "pool2/3x3_s2"
  top: "inception_3a/1x1"
  param {
    lr_mult: 1
    decay_mult: 1
  }
  param {
    lr_mult: 2
    decay_mult: 0
  }
  convolution_param {
    num_output: 64
    kernel_size: 1
    weight_filler {
      type: "xavier"
      std: 0.03
    }
    bias_filler {
      type: "constant"
      value: 0.2
    }
  }
}
layer {
  name: "inception_3a/relu_1x1"
  type: "ReLU"
  bottom: "inception_3a/1x1"
  top: "inception_3a/1x1"
}
layer {
  name: "inception_3a/3x3_reduce"
  type: "Convolution"
  bottom: "pool2/3x3_s2"
  top: "inception_3a/3x3_reduce"
  param {
    lr_mult: 1
    decay_mult: 1
  }
  param {
    lr_mult: 2
    decay_mult: 0
  }
  convolution_param {
    num_output: 96
    kernel_size: 1
    weight_filler {
      type: "xavier"
      std: 0.09
    }
    bias_filler {
      type: "constant"
      value: 0.2
    }
  }
}
layer {
  name: "inception_3a/relu_3x3_reduce"
  type: "ReLU"
  bottom: "inception_3a/3x3_reduce"
  top: "inception_3a/3x3_reduce"
}
layer {
  name: "inception_3a/3x3"
  type: "Convolution"
  bottom: "inception_3a/3x3_reduce"
  top: "inception_3a/3x3"
  param {
    lr_mult: 1
    decay_mult: 1
  }
  param {
    lr_mult: 2
    decay_mult: 0
  }
  convolution_param {
    num_output: 128
    pad: 1
    kernel_size: 3
    weight_filler {
      type: "xavier"
      std: 0.03
    }
    bias_filler {
      type: "constant"
      value: 0.2
    }
  }
}
layer {
  name: "inception_3a/relu_3x3"
  type: "ReLU"
  bottom: "inception_3a/3x3"
  top: "inception_3a/3x3"
}
layer {
  name: "inception_3a/5x5_reduce"
  type: "Convolution"
  bottom: "pool2/3x3_s2"
  top: "inception_3a/5x5_reduce"
  param {
    lr_mult: 1
    decay_mult: 1
  }
  param {
    lr_mult: 2
    decay_mult: 0
  }
  convolution_param {
    num_output: 16
    kernel_size: 1
    weight_filler {
      type: "xavier"
      std: 0.2
    }
    bias_filler {
      type: "constant"
      value: 0.2
    }
  }
}
layer {
  name: "inception_3a/relu_5x5_reduce"
  type: "ReLU"
  bottom: "inception_3a/5x5_reduce"
  top: "inception_3a/5x5_reduce"
}
layer {
  name: "inception_3a/5x5"
  type: "Convolution"
  bottom: "inception_3a/5x5_reduce"
  top: "inception_3a/5x5"
  param {
    lr_mult: 1
    decay_mult: 1
  }
  param {
    lr_mult: 2
    decay_mult: 0
  }
  convolution_param {
    num_output: 32
    pad: 2
    kernel_size: 5
    weight_filler {
      type: "xavier"
      std: 0.03
    }
    bias_filler {
      type: "constant"
      value: 0.2
    }
  }
}
layer {
  name: "inception_3a/relu_5x5"
  type: "ReLU"
  bottom: "inception_3a/5x5"
  top: "inception_3a/5x5"
}
layer {
  name: "inception_3a/pool"
  type: "Pooling"
  bottom: "pool2/3x3_s2"
  top: "inception_3a/pool"
  pooling_param {
    pool: MAX
    kernel_size: 3
    stride: 1
    pad: 1
  }
}
layer {
  name: "inception_3a/pool_proj"
  type: "Convolution"
  bottom: "inception_3a/pool"
  top: "inception_3a/pool_proj"
  param {
    lr_mult: 1
    decay_mult: 1
  }
  param {
    lr_mult: 2
    decay_mult: 0
  }
  convolution_param {
    num_output: 32
    kernel_size: 1
    weight_filler {
      type: "xavier"
      std: 0.1
    }
    bias_filler {
      type: "constant"
      value: 0.2
    }
  }
}
layer {
  name: "inception_3a/relu_pool_proj"
  type: "ReLU"
  bottom: "inception_3a/pool_proj"
  top: "inception_3a/pool_proj"
}
layer {
  name: "inception_3a/output"
  type: "Concat"
  bottom: "inception_3a/1x1"
  bottom: "inception_3a/3x3"
  bottom: "inception_3a/5x5"
  bottom: "inception_3a/pool_proj"
  top: "inception_3a/output"
}
layer {
  name: "inception_3b/1x1"
  type: "Convolution"
  bottom: "inception_3a/output"
  top: "inception_3b/1x1"
  param {
    lr_mult: 1
    decay_mult: 1
  }
  param {
    lr_mult: 2
    decay_mult: 0
  }
  convolution_param {
    num_output: 128
    kernel_size: 1
    weight_filler {
      type: "xavier"
      std: 0.03
    }
    bias_filler {
      type: "constant"
      value: 0.2
    }
  }
}
layer {
  name: "inception_3b/relu_1x1"
  type: "ReLU"
  bottom: "inception_3b/1x1"
  top: "inception_3b/1x1"
}
layer {
  name: "inception_3b/3x3_reduce"
  type: "Convolution"
  bottom: "inception_3a/output"
  top: "inception_3b/3x3_reduce"
  param {
    lr_mult: 1
    decay_mult: 1
  }
  param {
    lr_mult: 2
    decay_mult: 0
  }
  convolution_param {
    num_output: 128
    kernel_size: 1
    weight_filler {
      type: "xavier"
      std: 0.09
    }
    bias_filler {
      type: "constant"
      value: 0.2
    }
  }
}
layer {
  name: "inception_3b/relu_3x3_reduce"
  type: "ReLU"
  bottom: "inception_3b/3x3_reduce"
  top: "inception_3b/3x3_reduce"
}
layer {
  name: "inception_3b/3x3"
  type: "Convolution"
  bottom: "inception_3b/3x3_reduce"
  top: "inception_3b/3x3"
  param {
    lr_mult: 1
    decay_mult: 1
  }
  param {
    lr_mult: 2
    decay_mult: 0
  }
  convolution_param {
    num_output: 192
    pad: 1
    kernel_size: 3
    weight_filler {
      type: "xavier"
      std: 0.03
    }
    bias_filler {
      type: "constant"
      value: 0.2
    }
  }
}
layer {
  name: "inception_3b/relu_3x3"
  type: "ReLU"
  bottom: "inception_3b/3x3"
  top: "inception_3b/3x3"
}
layer {
  name: "inception_3b/5x5_reduce"
  type: "Convolution"
  bottom: "inception_3a/output"
  top: "inception_3b/5x5_reduce"
  param {
    lr_mult: 1
    decay_mult: 1
  }
  param {
    lr_mult: 2
    decay_mult: 0
  }
  convolution_param {
    num_output: 32
    kernel_size: 1
    weight_filler {
      type: "xavier"
      std: 0.2
    }
    bias_filler {
      type: "constant"
      value: 0.2
    }
  }
}
layer {
  name: "inception_3b/relu_5x5_reduce"
  type: "ReLU"
  bottom: "inception_3b/5x5_reduce"
  top: "inception_3b/5x5_reduce"
}
layer {
  name: "inception_3b/5x5"
  type: "Convolution"
  bottom: "inception_3b/5x5_reduce"
  top: "inception_3b/5x5"
  param {
    lr_mult: 1
    decay_mult: 1
  }
  param {
    lr_mult: 2
    decay_mult: 0
  }
  convolution_param {
    num_output: 96
    pad: 2
    kernel_size: 5
    weight_filler {
      type: "xavier"
      std: 0.03
    }
    bias_filler {
      type: "constant"
      value: 0.2
    }
  }
}
layer {
  name: "inception_3b/relu_5x5"
  type: "ReLU"
  bottom: "inception_3b/5x5"
  top: "inception_3b/5x5"
}
layer {
  name: "inception_3b/pool"
  type: "Pooling"
  bottom: "inception_3a/output"
  top: "inception_3b/pool"
  pooling_param {
    pool: MAX
    kernel_size: 3
    stride: 1
    pad: 1
  }
}
layer {
  name: "inception_3b/pool_proj"
  type: "Convolution"
  bottom: "inception_3b/pool"
  top: "inception_3b/pool_proj"
  param {
    lr_mult: 1
    decay_mult: 1
  }
  param {
    lr_mult: 2
    decay_mult: 0
  }
  convolution_param {
    num_output: 64
    kernel_size: 1
    weight_filler {
      type: "xavier"
      std: 0.1
    }
    bias_filler {
      type: "constant"
      value: 0.2
    }
  }
}
layer {
  name: "inception_3b/relu_pool_proj"
  type: "ReLU"
  bottom: "inception_3b/pool_proj"
  top: "inception_3b/pool_proj"
}
layer {
  name: "inception_3b/output"
  type: "Concat"
  bottom: "inception_3b/1x1"
  bottom: "inception_3b/3x3"
  bottom: "inception_3b/5x5"
  bottom: "inception_3b/pool_proj"
  top: "inception_3b/output"
}
layer {
  name: "pool3/3x3_s2"
  type: "Pooling"
  bottom: "inception_3b/output"
  top: "pool3/3x3_s2"
  pooling_param {
    pool: MAX
    kernel_size: 3
    stride: 2
  }
}
layer {
  name: "inception_4a/1x1"
  type: "Convolution"
  bottom: "pool3/3x3_s2"
  top: "inception_4a/1x1"
  param {
    lr_mult: 1
    decay_mult: 1
  }
  param {
    lr_mult: 2
    decay_mult: 0
  }
  convolution_param {
    num_output: 192
    kernel_size: 1
    weight_filler {
      type: "xavier"
      std: 0.03
    }
    bias_filler {
      type: "constant"
      value: 0.2
    }
  }
}
layer {
  name: "inception_4a/relu_1x1"
  type: "ReLU"
  bottom: "inception_4a/1x1"
  top: "inception_4a/1x1"
}
layer {
  name: "inception_4a/3x3_reduce"
  type: "Convolution"
  bottom: "pool3/3x3_s2"
  top: "inception_4a/3x3_reduce"
  param {
    lr_mult: 1
    decay_mult: 1
  }
  param {
    lr_mult: 2
    decay_mult: 0
  }
  convolution_param {
    num_output: 96
    kernel_size: 1
    weight_filler {
      type: "xavier"
      std: 0.09
    }
    bias_filler {
      type: "constant"
      value: 0.2
    }
  }
}
layer {
  name: "inception_4a/relu_3x3_reduce"
  type: "ReLU"
  bottom: "inception_4a/3x3_reduce"
  top: "inception_4a/3x3_reduce"
}
layer {
  name: "inception_4a/3x3"
  type: "Convolution"
  bottom: "inception_4a/3x3_reduce"
  top: "inception_4a/3x3"
  param {
    lr_mult: 1
    decay_mult: 1
  }
  param {
    lr_mult: 2
    decay_mult: 0
  }
  convolution_param {
    num_output: 208
    pad: 1
    kernel_size: 3
    weight_filler {
      type: "xavier"
      std: 0.03
    }
    bias_filler {
      type: "constant"
      value: 0.2
    }
  }
}
layer {
  name: "inception_4a/relu_3x3"
  type: "ReLU"
  bottom: "inception_4a/3x3"
  top: "inception_4a/3x3"
}
layer {
  name: "inception_4a/5x5_reduce"
  type: "Convolution"
  bottom: "pool3/3x3_s2"
  top: "inception_4a/5x5_reduce"
  param {
    lr_mult: 1
    decay_mult: 1
  }
  param {
    lr_mult: 2
    decay_mult: 0
  }
  convolution_param {
    num_output: 16
    kernel_size: 1
    weight_filler {
      type: "xavier"
      std: 0.2
    }
    bias_filler {
      type: "constant"
      value: 0.2
    }
  }
}
layer {
  name: "inception_4a/relu_5x5_reduce"
  type: "ReLU"
  bottom: "inception_4a/5x5_reduce"
  top: "inception_4a/5x5_reduce"
}
layer {
  name: "inception_4a/5x5"
  type: "Convolution"
  bottom: "inception_4a/5x5_reduce"
  top: "inception_4a/5x5"
  param {
    lr_mult: 1
    decay_mult: 1
  }
  param {
    lr_mult: 2
    decay_mult: 0
  }
  convolution_param {
    num_output: 48
    pad: 2
    kernel_size: 5
    weight_filler {
      type: "xavier"
      std: 0.03
    }
    bias_filler {
      type: "constant"
      value: 0.2
    }
  }
}
layer {
  name: "inception_4a/relu_5x5"
  type: "ReLU"
  bottom: "inception_4a/5x5"
  top: "inception_4a/5x5"
}
layer {
  name: "inception_4a/pool"
  type: "Pooling"
  bottom: "pool3/3x3_s2"
  top: "inception_4a/pool"
  pooling_param {
    pool: MAX
    kernel_size: 3
    stride: 1
    pad: 1
  }
}
layer {
  name: "inception_4a/pool_proj"
  type: "Convolution"
  bottom: "inception_4a/pool"
  top: "inception_4a/pool_proj"
  param {
    lr_mult: 1
    decay_mult: 1
  }
  param {
    lr_mult: 2
    decay_mult: 0
  }
  convolution_param {
    num_output: 64
    kernel_size: 1
    weight_filler {
      type: "xavier"
      std: 0.1
    }
    bias_filler {
      type: "constant"
      value: 0.2
    }
  }
}
layer {
  name: "inception_4a/relu_pool_proj"
  type: "ReLU"
  bottom: "inception_4a/pool_proj"
  top: "inception_4a/pool_proj"
}
layer {
  name: "inception_4a/output"
  type: "Concat"
  bottom: "inception_4a/1x1"
  bottom: "inception_4a/3x3"
  bottom: "inception_4a/5x5"
  bottom: "inception_4a/pool_proj"
  top: "inception_4a/output"
}
layer {
  name: "loss1/ave_pool"
  type: "Pooling"
  bottom: "inception_4a/output"
  top: "loss1/ave_pool"
  pooling_param {
    pool: AVE
    kernel_size: 5
    stride: 3
  }
}
layer {
  name: "loss1/conv"
  type: "Convolution"
  bottom: "loss1/ave_pool"
  top: "loss1/conv"
  param {
    lr_mult: 1
    decay_mult: 1
  }
  param {
    lr_mult: 2
    decay_mult: 0
  }
  convolution_param {
    num_output: 128
    kernel_size: 1
    weight_filler {
      type: "xavier"
      std: 0.08
    }
    bias_filler {
      type: "constant"
      value: 0.2
    }
  }
}
layer {
  name: "loss1/relu_conv"
  type: "ReLU"
  bottom: "loss1/conv"
  top: "loss1/conv"
}
layer {
  name: "loss1/fc"
  type: "InnerProduct"
  bottom: "loss1/conv"
  top: "loss1/fc"
  param {
    lr_mult: 1
    decay_mult: 1
  }
  param {
    lr_mult: 2
    decay_mult: 0
  }
  inner_product_param {
    num_output: 1024
    weight_filler {
      type: "xavier"
      std: 0.02
    }
    bias_filler {
      type: "constant"
      value: 0.2
    }
  }
}
layer {
  name: "loss1/relu_fc"
  type: "ReLU"
  bottom: "loss1/fc"
  top: "loss1/fc"
}
layer {
  name: "loss1/drop_fc"
  type: "Dropout"
  bottom: "loss1/fc"
  top: "loss1/fc"
  dropout_param {
    dropout_ratio: 0.7
  }
}
layer {
  name: "loss1/classifier_kaggle"
  type: "InnerProduct"
  bottom: "loss1/fc"
  top: "loss1/classifier_kaggle"
  param {
    lr_mult: 1
    decay_mult: 1
  }
  param {
    lr_mult: 2
    decay_mult: 0
  }
  inner_product_param {
    num_output: 447
    weight_filler {
      type: "xavier"
      std: 0.0009765625
    }
    bias_filler {
      type: "constant"
      value: 0
    }
  }
}
layer {
  name: "loss1/loss"
  type: "SoftmaxWithLoss"
  bottom: "loss1/classifier_kaggle"
  bottom: "label"
  top: "loss1/loss1"
  loss_weight: 0.3
}
layer {
  name: "inception_4b/1x1"
  type: "Convolution"
  bottom: "inception_4a/output"
  top: "inception_4b/1x1"
  param {
    lr_mult: 1
    decay_mult: 1
  }
  param {
    lr_mult: 2
    decay_mult: 0
  }
  convolution_param {
    num_output: 160
    kernel_size: 1
    weight_filler {
      type: "xavier"
      std: 0.03
    }
    bias_filler {
      type: "constant"
      value: 0.2
    }
  }
}
layer {
  name: "inception_4b/relu_1x1"
  type: "ReLU"
  bottom: "inception_4b/1x1"
  top: "inception_4b/1x1"
}
layer {
  name: "inception_4b/3x3_reduce"
  type: "Convolution"
  bottom: "inception_4a/output"
  top: "inception_4b/3x3_reduce"
  param {
    lr_mult: 1
    decay_mult: 1
  }
  param {
    lr_mult: 2
    decay_mult: 0
  }
  convolution_param {
    num_output: 112
    kernel_size: 1
    weight_filler {
      type: "xavier"
      std: 0.09
    }
    bias_filler {
      type: "constant"
      value: 0.2
    }
  }
}
layer {
  name: "inception_4b/relu_3x3_reduce"
  type: "ReLU"
  bottom: "inception_4b/3x3_reduce"
  top: "inception_4b/3x3_reduce"
}
layer {
  name: "inception_4b/3x3"
  type: "Convolution"
  bottom: "inception_4b/3x3_reduce"
  top: "inception_4b/3x3"
  param {
    lr_mult: 1
    decay_mult: 1
  }
  param {
    lr_mult: 2
    decay_mult: 0
  }
  convolution_param {
    num_output: 224
    pad: 1
    kernel_size: 3
    weight_filler {
      type: "xavier"
      std: 0.03
    }
    bias_filler {
      type: "constant"
      value: 0.2
    }
  }
}
layer {
  name: "inception_4b/relu_3x3"
  type: "ReLU"
  bottom: "inception_4b/3x3"
  top: "inception_4b/3x3"
}
layer {
  name: "inception_4b/5x5_reduce"
  type: "Convolution"
  bottom: "inception_4a/output"
  top: "inception_4b/5x5_reduce"
  param {
    lr_mult: 1
    decay_mult: 1
  }
  param {
    lr_mult: 2
    decay_mult: 0
  }
  convolution_param {
    num_output: 24
    kernel_size: 1
    weight_filler {
      type: "xavier"
      std: 0.2
    }
    bias_filler {
      type: "constant"
      value: 0.2
    }
  }
}
layer {
  name: "inception_4b/relu_5x5_reduce"
  type: "ReLU"
  bottom: "inception_4b/5x5_reduce"
  top: "inception_4b/5x5_reduce"
}
layer {
  name: "inception_4b/5x5"
  type: "Convolution"
  bottom: "inception_4b/5x5_reduce"
  top: "inception_4b/5x5"
  param {
    lr_mult: 1
    decay_mult: 1
  }
  param {
    lr_mult: 2
    decay_mult: 0
  }
  convolution_param {
    num_output: 64
    pad: 2
    kernel_size: 5
    weight_filler {
      type: "xavier"
      std: 0.03
    }
    bias_filler {
      type: "constant"
      value: 0.2
    }
  }
}
layer {
  name: "inception_4b/relu_5x5"
  type: "ReLU"
  bottom: "inception_4b/5x5"
  top: "inception_4b/5x5"
}
layer {
  name: "inception_4b/pool"
  type: "Pooling"
  bottom: "inception_4a/output"
  top: "inception_4b/pool"
  pooling_param {
    pool: MAX
    kernel_size: 3
    stride: 1
    pad: 1
  }
}
layer {
  name: "inception_4b/pool_proj"
  type: "Convolution"
  bottom: "inception_4b/pool"
  top: "inception_4b/pool_proj"
  param {
    lr_mult: 1
    decay_mult: 1
  }
  param {
    lr_mult: 2
    decay_mult: 0
  }
  convolution_param {
    num_output: 64
    kernel_size: 1
    weight_filler {
      type: "xavier"
      std: 0.1
    }
    bias_filler {
      type: "constant"
      value: 0.2
    }
  }
}
layer {
  name: "inception_4b/relu_pool_proj"
  type: "ReLU"
  bottom: "inception_4b/pool_proj"
  top: "inception_4b/pool_proj"
}
layer {
  name: "inception_4b/output"
  type: "Concat"
  bottom: "inception_4b/1x1"
  bottom: "inception_4b/3x3"
  bottom: "inception_4b/5x5"
  bottom: "inception_4b/pool_proj"
  top: "inception_4b/output"
}
layer {
  name: "inception_4c/1x1"
  type: "Convolution"
  bottom: "inception_4b/output"
  top: "inception_4c/1x1"
  param {
    lr_mult: 1
    decay_mult: 1
  }
  param {
    lr_mult: 2
    decay_mult: 0
  }
  convolution_param {
    num_output: 128
    kernel_size: 1
    weight_filler {
      type: "xavier"
      std: 0.03
    }
    bias_filler {
      type: "constant"
      value: 0.2
    }
  }
}
layer {
  name: "inception_4c/relu_1x1"
  type: "ReLU"
  bottom: "inception_4c/1x1"
  top: "inception_4c/1x1"
}
layer {
  name: "inception_4c/3x3_reduce"
  type: "Convolution"
  bottom: "inception_4b/output"
  top: "inception_4c/3x3_reduce"
  param {
    lr_mult: 1
    decay_mult: 1
  }
  param {
    lr_mult: 2
    decay_mult: 0
  }
  convolution_param {
    num_output: 128
    kernel_size: 1
    weight_filler {
      type: "xavier"
      std: 0.09
    }
    bias_filler {
      type: "constant"
      value: 0.2
    }
  }
}
layer {
  name: "inception_4c/relu_3x3_reduce"
  type: "ReLU"
  bottom: "inception_4c/3x3_reduce"
  top: "inception_4c/3x3_reduce"
}
layer {
  name: "inception_4c/3x3"
  type: "Convolution"
  bottom: "inception_4c/3x3_reduce"
  top: "inception_4c/3x3"
  param {
    lr_mult: 1
    decay_mult: 1
  }
  param {
    lr_mult: 2
    decay_mult: 0
  }
  convolution_param {
    num_output: 256
    pad: 1
    kernel_size: 3
    weight_filler {
      type: "xavier"
      std: 0.03
    }
    bias_filler {
      type: "constant"
      value: 0.2
    }
  }
}
layer {
  name: "inception_4c/relu_3x3"
  type: "ReLU"
  bottom: "inception_4c/3x3"
  top: "inception_4c/3x3"
}
layer {
  name: "inception_4c/5x5_reduce"
  type: "Convolution"
  bottom: "inception_4b/output"
  top: "inception_4c/5x5_reduce"
  param {
    lr_mult: 1
    decay_mult: 1
  }
  param {
    lr_mult: 2
    decay_mult: 0
  }
  convolution_param {
    num_output: 24
    kernel_size: 1
    weight_filler {
      type: "xavier"
      std: 0.2
    }
    bias_filler {
      type: "constant"
      value: 0.2
    }
  }
}
layer {
  name: "inception_4c/relu_5x5_reduce"
  type: "ReLU"
  bottom: "inception_4c/5x5_reduce"
  top: "inception_4c/5x5_reduce"
}
layer {
  name: "inception_4c/5x5"
  type: "Convolution"
  bottom: "inception_4c/5x5_reduce"
  top: "inception_4c/5x5"
  param {
    lr_mult: 1
    decay_mult: 1
  }
  param {
    lr_mult: 2
    decay_mult: 0
  }
  convolution_param {
    num_output: 64
    pad: 2
    kernel_size: 5
    weight_filler {
      type: "xavier"
      std: 0.03
    }
    bias_filler {
      type: "constant"
      value: 0.2
    }
  }
}
layer {
  name: "inception_4c/relu_5x5"
  type: "ReLU"
  bottom: "inception_4c/5x5"
  top: "inception_4c/5x5"
}
layer {
  name: "inception_4c/pool"
  type: "Pooling"
  bottom: "inception_4b/output"
  top: "inception_4c/pool"
  pooling_param {
    pool: MAX
    kernel_size: 3
    stride: 1
    pad: 1
  }
}
layer {
  name: "inception_4c/pool_proj"
  type: "Convolution"
  bottom: "inception_4c/pool"
  top: "inception_4c/pool_proj"
  param {
    lr_mult: 1
    decay_mult: 1
  }
  param {
    lr_mult: 2
    decay_mult: 0
  }
  convolution_param {
    num_output: 64
    kernel_size: 1
    weight_filler {
      type: "xavier"
      std: 0.1
    }
    bias_filler {
      type: "constant"
      value: 0.2
    }
  }
}
layer {
  name: "inception_4c/relu_pool_proj"
  type: "ReLU"
  bottom: "inception_4c/pool_proj"
  top: "inception_4c/pool_proj"
}
layer {
  name: "inception_4c/output"
  type: "Concat"
  bottom: "inception_4c/1x1"
  bottom: "inception_4c/3x3"
  bottom: "inception_4c/5x5"
  bottom: "inception_4c/pool_proj"
  top: "inception_4c/output"
}
layer {
  name: "inception_4d/1x1"
  type: "Convolution"
  bottom: "inception_4c/output"
  top: "inception_4d/1x1"
  param {
    lr_mult: 1
    decay_mult: 1
  }
  param {
    lr_mult: 2
    decay_mult: 0
  }
  convolution_param {
    num_output: 112
    kernel_size: 1
    weight_filler {
      type: "xavier"
      std: 0.03
    }
    bias_filler {
      type: "constant"
      value: 0.2
    }
  }
}
layer {
  name: "inception_4d/relu_1x1"
  type: "ReLU"
  bottom: "inception_4d/1x1"
  top: "inception_4d/1x1"
}
layer {
  name: "inception_4d/3x3_reduce"
  type: "Convolution"
  bottom: "inception_4c/output"
  top: "inception_4d/3x3_reduce"
  param {
    lr_mult: 1
    decay_mult: 1
  }
  param {
    lr_mult: 2
    decay_mult: 0
  }
  convolution_param {
    num_output: 144
    kernel_size: 1
    weight_filler {
      type: "xavier"
      std: 0.09
    }
    bias_filler {
      type: "constant"
      value: 0.2
    }
  }
}
layer {
  name: "inception_4d/relu_3x3_reduce"
  type: "ReLU"
  bottom: "inception_4d/3x3_reduce"
  top: "inception_4d/3x3_reduce"
}
layer {
  name: "inception_4d/3x3"
  type: "Convolution"
  bottom: "inception_4d/3x3_reduce"
  top: "inception_4d/3x3"
  param {
    lr_mult: 1
    decay_mult: 1
  }
  param {
    lr_mult: 2
    decay_mult: 0
  }
  convolution_param {
    num_output: 288
    pad: 1
    kernel_size: 3
    weight_filler {
      type: "xavier"
      std: 0.03
    }
    bias_filler {
      type: "constant"
      value: 0.2
    }
  }
}
layer {
  name: "inception_4d/relu_3x3"
  type: "ReLU"
  bottom: "inception_4d/3x3"
  top: "inception_4d/3x3"
}
layer {
  name: "inception_4d/5x5_reduce"
  type: "Convolution"
  bottom: "inception_4c/output"
  top: "inception_4d/5x5_reduce"
  param {
    lr_mult: 1
    decay_mult: 1
  }
  param {
    lr_mult: 2
    decay_mult: 0
  }
  convolution_param {
    num_output: 32
    kernel_size: 1
    weight_filler {
      type: "xavier"
      std: 0.2
    }
    bias_filler {
      type: "constant"
      value: 0.2
    }
  }
}
layer {
  name: "inception_4d/relu_5x5_reduce"
  type: "ReLU"
  bottom: "inception_4d/5x5_reduce"
  top: "inception_4d/5x5_reduce"
}
layer {
  name: "inception_4d/5x5"
  type: "Convolution"
  bottom: "inception_4d/5x5_reduce"
  top: "inception_4d/5x5"
  param {
    lr_mult: 1
    decay_mult: 1
  }
  param {
    lr_mult: 2
    decay_mult: 0
  }
  convolution_param {
    num_output: 64
    pad: 2
    kernel_size: 5
    weight_filler {
      type: "xavier"
      std: 0.03
    }
    bias_filler {
      type: "constant"
      value: 0.2
    }
  }
}
layer {
  name: "inception_4d/relu_5x5"
  type: "ReLU"
  bottom: "inception_4d/5x5"
  top: "inception_4d/5x5"
}
layer {
  name: "inception_4d/pool"
  type: "Pooling"
  bottom: "inception_4c/output"
  top: "inception_4d/pool"
  pooling_param {
    pool: MAX
    kernel_size: 3
    stride: 1
    pad: 1
  }
}
layer {
  name: "inception_4d/pool_proj"
  type: "Convolution"
  bottom: "inception_4d/pool"
  top: "inception_4d/pool_proj"
  param {
    lr_mult: 1
    decay_mult: 1
  }
  param {
    lr_mult: 2
    decay_mult: 0
  }
  convolution_param {
    num_output: 64
    kernel_size: 1
    weight_filler {
      type: "xavier"
      std: 0.1
    }
    bias_filler {
      type: "constant"
      value: 0.2
    }
  }
}
layer {
  name: "inception_4d/relu_pool_proj"
  type: "ReLU"
  bottom: "inception_4d/pool_proj"
  top: "inception_4d/pool_proj"
}
layer {
  name: "inception_4d/output"
  type: "Concat"
  bottom: "inception_4d/1x1"
  bottom: "inception_4d/3x3"
  bottom: "inception_4d/5x5"
  bottom: "inception_4d/pool_proj"
  top: "inception_4d/output"
}
layer {
  name: "loss2/ave_pool"
  type: "Pooling"
  bottom: "inception_4d/output"
  top: "loss2/ave_pool"
  pooling_param {
    pool: AVE
    kernel_size: 5
    stride: 3
  }
}
layer {
  name: "loss2/conv"
  type: "Convolution"
  bottom: "loss2/ave_pool"
  top: "loss2/conv"
  param {
    lr_mult: 1
    decay_mult: 1
  }
  param {
    lr_mult: 2
    decay_mult: 0
  }
  convolution_param {
    num_output: 128
    kernel_size: 1
    weight_filler {
      type: "xavier"
      std: 0.08
    }
    bias_filler {
      type: "constant"
      value: 0.2
    }
  }
}
layer {
  name: "loss2/relu_conv"
  type: "ReLU"
  bottom: "loss2/conv"
  top: "loss2/conv"
}
layer {
  name: "loss2/fc"
  type: "InnerProduct"
  bottom: "loss2/conv"
  top: "loss2/fc"
  param {
    lr_mult: 1
    decay_mult: 1
  }
  param {
    lr_mult: 2
    decay_mult: 0
  }
  inner_product_param {
    num_output: 1024
    weight_filler {
      type: "xavier"
      std: 0.02
    }
    bias_filler {
      type: "constant"
      value: 0.2
    }
  }
}
layer {
  name: "loss2/relu_fc"
  type: "ReLU"
  bottom: "loss2/fc"
  top: "loss2/fc"
}
layer {
  name: "loss2/drop_fc"
  type: "Dropout"
  bottom: "loss2/fc"
  top: "loss2/fc"
  dropout_param {
    dropout_ratio: 0.7
  }
}
layer {
  name: "loss2/classifier_kaggle"
  type: "InnerProduct"
  bottom: "loss2/fc"
  top: "loss2/classifier_kaggle"
  param {
    lr_mult: 1
    decay_mult: 1
  }
  param {
    lr_mult: 2
    decay_mult: 0
  }
  inner_product_param {
    num_output: 447
    weight_filler {
      type: "xavier"
      std: 0.0009765625
    }
    bias_filler {
      type: "constant"
      value: 0
    }
  }
}
layer {
  name: "loss2/loss"
  type: "SoftmaxWithLoss"
  bottom: "loss2/classifier_kaggle"
  bottom: "label"
  top: "loss2/loss1"
  loss_weight: 0.3
}
layer {
  name: "inception_4e/1x1"
  type: "Convolution"
  bottom: "inception_4d/output"
  top: "inception_4e/1x1"
  param {
    lr_mult: 1
    decay_mult: 1
  }
  param {
    lr_mult: 2
    decay_mult: 0
  }
  convolution_param {
    num_output: 256
    kernel_size: 1
    weight_filler {
      type: "xavier"
      std: 0.03
    }
    bias_filler {
      type: "constant"
      value: 0.2
    }
  }
}
layer {
  name: "inception_4e/relu_1x1"
  type: "ReLU"
  bottom: "inception_4e/1x1"
  top: "inception_4e/1x1"
}
layer {
  name: "inception_4e/3x3_reduce"
  type: "Convolution"
  bottom: "inception_4d/output"
  top: "inception_4e/3x3_reduce"
  param {
    lr_mult: 1
    decay_mult: 1
  }
  param {
    lr_mult: 2
    decay_mult: 0
  }
  convolution_param {
    num_output: 160
    kernel_size: 1
    weight_filler {
      type: "xavier"
      std: 0.09
    }
    bias_filler {
      type: "constant"
      value: 0.2
    }
  }
}
layer {
  name: "inception_4e/relu_3x3_reduce"
  type: "ReLU"
  bottom: "inception_4e/3x3_reduce"
  top: "inception_4e/3x3_reduce"
}
layer {
  name: "inception_4e/3x3"
  type: "Convolution"
  bottom: "inception_4e/3x3_reduce"
  top: "inception_4e/3x3"
  param {
    lr_mult: 1
    decay_mult: 1
  }
  param {
    lr_mult: 2
    decay_mult: 0
  }
  convolution_param {
    num_output: 320
    pad: 1
    kernel_size: 3
    weight_filler {
      type: "xavier"
      std: 0.03
    }
    bias_filler {
      type: "constant"
      value: 0.2
    }
  }
}
layer {
  name: "inception_4e/relu_3x3"
  type: "ReLU"
  bottom: "inception_4e/3x3"
  top: "inception_4e/3x3"
}
layer {
  name: "inception_4e/5x5_reduce"
  type: "Convolution"
  bottom: "inception_4d/output"
  top: "inception_4e/5x5_reduce"
  param {
    lr_mult: 1
    decay_mult: 1
  }
  param {
    lr_mult: 2
    decay_mult: 0
  }
  convolution_param {
    num_output: 32
    kernel_size: 1
    weight_filler {
      type: "xavier"
      std: 0.2
    }
    bias_filler {
      type: "constant"
      value: 0.2
    }
  
I1215 23:11:05.467061 11477 layer_factory.hpp:74] Creating layer data
I1215 23:11:05.467095 11477 net.cpp:84] Creating Layer data
I1215 23:11:05.467104 11477 net.cpp:338] data -> data
I1215 23:11:05.467142 11477 net.cpp:338] data -> label
I1215 23:11:05.467151 11477 net.cpp:113] Setting up data
I1215 23:11:05.467233 11477 db.cpp:34] Opened lmdb /home/coldmanck/kaggle/kaggle2_train_lmdb
I1215 23:11:05.467449 11477 data_layer.cpp:67] output data size: 32,3,224,224
I1215 23:11:05.472875 11477 net.cpp:120] Top shape: 32 3 224 224 (4816896)
I1215 23:11:05.472898 11477 net.cpp:120] Top shape: 32 (32)
I1215 23:11:05.472908 11477 layer_factory.hpp:74] Creating layer label_data_1_split
I1215 23:11:05.472929 11477 net.cpp:84] Creating Layer label_data_1_split
I1215 23:11:05.472935 11477 net.cpp:380] label_data_1_split <- label
I1215 23:11:05.472951 11477 net.cpp:338] label_data_1_split -> label_data_1_split_0
I1215 23:11:05.472964 11477 net.cpp:338] label_data_1_split -> label_data_1_split_1
I1215 23:11:05.472970 11477 net.cpp:338] label_data_1_split -> label_data_1_split_2
I1215 23:11:05.472977 11477 net.cpp:113] Setting up label_data_1_split
I1215 23:11:05.472987 11477 net.cpp:120] Top shape: 32 (32)
I1215 23:11:05.473000 11477 net.cpp:120] Top shape: 32 (32)
I1215 23:11:05.473013 11477 net.cpp:120] Top shape: 32 (32)
I1215 23:11:05.473017 11477 layer_factory.hpp:74] Creating layer conv1/7x7_s2
I1215 23:11:05.473031 11477 net.cpp:84] Creating Layer conv1/7x7_s2
I1215 23:11:05.473036 11477 net.cpp:380] conv1/7x7_s2 <- data
I1215 23:11:05.473043 11477 net.cpp:338] conv1/7x7_s2 -> conv1/7x7_s2
I1215 23:11:05.473053 11477 net.cpp:113] Setting up conv1/7x7_s2
I1215 23:11:05.843487 11477 net.cpp:120] Top shape: 32 64 112 112 (25690112)
I1215 23:11:05.843550 11477 layer_factory.hpp:74] Creating layer conv1/relu_7x7
I1215 23:11:05.843566 11477 net.cpp:84] Creating Layer conv1/relu_7x7
I1215 23:11:05.843574 11477 net.cpp:380] conv1/relu_7x7 <- conv1/7x7_s2
I1215 23:11:05.843585 11477 net.cpp:327] conv1/relu_7x7 -> conv1/7x7_s2 (in-place)
I1215 23:11:05.843600 11477 net.cpp:113] Setting up conv1/relu_7x7
I1215 23:11:05.844315 11477 net.cpp:120] Top shape: 32 64 112 112 (25690112)
I1215 23:11:05.844332 11477 layer_factory.hpp:74] Creating layer pool1/3x3_s2
I1215 23:11:05.844349 11477 net.cpp:84] Creating Layer pool1/3x3_s2
I1215 23:11:05.844357 11477 net.cpp:380] pool1/3x3_s2 <- conv1/7x7_s2
I1215 23:11:05.844365 11477 net.cpp:338] pool1/3x3_s2 -> pool1/3x3_s2
I1215 23:11:05.844375 11477 net.cpp:113] Setting up pool1/3x3_s2
I1215 23:11:05.844463 11477 net.cpp:120] Top shape: 32 64 56 56 (6422528)
I1215 23:11:05.844471 11477 layer_factory.hpp:74] Creating layer pool1/norm1
I1215 23:11:05.844485 11477 net.cpp:84] Creating Layer pool1/norm1
I1215 23:11:05.844491 11477 net.cpp:380] pool1/norm1 <- pool1/3x3_s2
I1215 23:11:05.844497 11477 net.cpp:338] pool1/norm1 -> pool1/norm1
I1215 23:11:05.844507 11477 net.cpp:113] Setting up pool1/norm1
I1215 23:11:05.844516 11477 net.cpp:120] Top shape: 32 64 56 56 (6422528)
I1215 23:11:05.844522 11477 layer_factory.hpp:74] Creating layer conv2/3x3_reduce
I1215 23:11:05.844533 11477 net.cpp:84] Creating Layer conv2/3x3_reduce
I1215 23:11:05.844538 11477 net.cpp:380] conv2/3x3_reduce <- pool1/norm1
I1215 23:11:05.844547 11477 net.cpp:338] conv2/3x3_reduce -> conv2/3x3_reduce
I1215 23:11:05.844558 11477 net.cpp:113] Setting up conv2/3x3_reduce
I1215 23:11:05.846716 11477 net.cpp:120] Top shape: 32 64 56 56 (6422528)
I1215 23:11:05.846745 11477 layer_factory.hpp:74] Creating layer conv2/relu_3x3_reduce
I1215 23:11:05.846755 11477 net.cpp:84] Creating Layer conv2/relu_3x3_reduce
I1215 23:11:05.846760 11477 net.cpp:380] conv2/relu_3x3_reduce <- conv2/3x3_reduce
I1215 23:11:05.846768 11477 net.cpp:327] conv2/relu_3x3_reduce -> conv2/3x3_reduce (in-place)
I1215 23:11:05.846779 11477 net.cpp:113] Setting up conv2/relu_3x3_reduce
I1215 23:11:05.846850 11477 net.cpp:120] Top shape: 32 64 56 56 (6422528)
I1215 23:11:05.846860 11477 layer_factory.hpp:74] Creating layer conv2/3x3
I1215 23:11:05.846873 11477 net.cpp:84] Creating Layer conv2/3x3
I1215 23:11:05.846879 11477 net.cpp:380] conv2/3x3 <- conv2/3x3_reduce
I1215 23:11:05.846887 11477 net.cpp:338] conv2/3x3 -> conv2/3x3
I1215 23:11:05.846896 11477 net.cpp:113] Setting up conv2/3x3
I1215 23:11:05.849542 11477 net.cpp:120] Top shape: 32 192 56 56 (19267584)
I1215 23:11:05.849567 11477 layer_factory.hpp:74] Creating layer conv2/relu_3x3
I1215 23:11:05.849577 11477 net.cpp:84] Creating Layer conv2/relu_3x3
I1215 23:11:05.849583 11477 net.cpp:380] conv2/relu_3x3 <- conv2/3x3
I1215 23:11:05.849591 11477 net.cpp:327] conv2/relu_3x3 -> conv2/3x3 (in-place)
I1215 23:11:05.849599 11477 net.cpp:113] Setting up conv2/relu_3x3
I1215 23:11:05.850299 11477 net.cpp:120] Top shape: 32 192 56 56 (19267584)
I1215 23:11:05.850317 11477 layer_factory.hpp:74] Creating layer conv2/norm2
I1215 23:11:05.850329 11477 net.cpp:84] Creating Layer conv2/norm2
I1215 23:11:05.850337 11477 net.cpp:380] conv2/norm2 <- conv2/3x3
I1215 23:11:05.850344 11477 net.cpp:338] conv2/norm2 -> conv2/norm2
I1215 23:11:05.850354 11477 net.cpp:113] Setting up conv2/norm2
I1215 23:11:05.850364 11477 net.cpp:120] Top shape: 32 192 56 56 (19267584)
I1215 23:11:05.850369 11477 layer_factory.hpp:74] Creating layer pool2/3x3_s2
I1215 23:11:05.850389 11477 net.cpp:84] Creating Layer pool2/3x3_s2
I1215 23:11:05.850409 11477 net.cpp:380] pool2/3x3_s2 <- conv2/norm2
I1215 23:11:05.850416 11477 net.cpp:338] pool2/3x3_s2 -> pool2/3x3_s2
I1215 23:11:05.850425 11477 net.cpp:113] Setting up pool2/3x3_s2
I1215 23:11:05.850512 11477 net.cpp:120] Top shape: 32 192 28 28 (4816896)
I1215 23:11:05.850518 11477 layer_factory.hpp:74] Creating layer pool2/3x3_s2_pool2/3x3_s2_0_split
I1215 23:11:05.850528 11477 net.cpp:84] Creating Layer pool2/3x3_s2_pool2/3x3_s2_0_split
I1215 23:11:05.850533 11477 net.cpp:380] pool2/3x3_s2_pool2/3x3_s2_0_split <- pool2/3x3_s2
I1215 23:11:05.850539 11477 net.cpp:338] pool2/3x3_s2_pool2/3x3_s2_0_split -> pool2/3x3_s2_pool2/3x3_s2_0_split_0
I1215 23:11:05.850548 11477 net.cpp:338] pool2/3x3_s2_pool2/3x3_s2_0_split -> pool2/3x3_s2_pool2/3x3_s2_0_split_1
I1215 23:11:05.850558 11477 net.cpp:338] pool2/3x3_s2_pool2/3x3_s2_0_split -> pool2/3x3_s2_pool2/3x3_s2_0_split_2
I1215 23:11:05.850565 11477 net.cpp:338] pool2/3x3_s2_pool2/3x3_s2_0_split -> pool2/3x3_s2_pool2/3x3_s2_0_split_3
I1215 23:11:05.850571 11477 net.cpp:113] Setting up pool2/3x3_s2_pool2/3x3_s2_0_split
I1215 23:11:05.850580 11477 net.cpp:120] Top shape: 32 192 28 28 (4816896)
I1215 23:11:05.850585 11477 net.cpp:120] Top shape: 32 192 28 28 (4816896)
I1215 23:11:05.850591 11477 net.cpp:120] Top shape: 32 192 28 28 (4816896)
I1215 23:11:05.850596 11477 net.cpp:120] Top shape: 32 192 28 28 (4816896)
I1215 23:11:05.850601 11477 layer_factory.hpp:74] Creating layer inception_3a/1x1
I1215 23:11:05.850612 11477 net.cpp:84] Creating Layer inception_3a/1x1
I1215 23:11:05.850617 11477 net.cpp:380] inception_3a/1x1 <- pool2/3x3_s2_pool2/3x3_s2_0_split_0
I1215 23:11:05.850625 11477 net.cpp:338] inception_3a/1x1 -> inception_3a/1x1
I1215 23:11:05.850636 11477 net.cpp:113] Setting up inception_3a/1x1
I1215 23:11:05.852578 11477 net.cpp:120] Top shape: 32 64 28 28 (1605632)
I1215 23:11:05.852602 11477 layer_factory.hpp:74] Creating layer inception_3a/relu_1x1
I1215 23:11:05.852610 11477 net.cpp:84] Creating Layer inception_3a/relu_1x1
I1215 23:11:05.852617 11477 net.cpp:380] inception_3a/relu_1x1 <- inception_3a/1x1
I1215 23:11:05.852625 11477 net.cpp:327] inception_3a/relu_1x1 -> inception_3a/1x1 (in-place)
I1215 23:11:05.852634 11477 net.cpp:113] Setting up inception_3a/relu_1x1
I1215 23:11:05.852713 11477 net.cpp:120] Top shape: 32 64 28 28 (1605632)
I1215 23:11:05.852720 11477 layer_factory.hpp:74] Creating layer inception_3a/3x3_reduce
I1215 23:11:05.852730 11477 net.cpp:84] Creating Layer inception_3a/3x3_reduce
I1215 23:11:05.852735 11477 net.cpp:380] inception_3a/3x3_reduce <- pool2/3x3_s2_pool2/3x3_s2_0_split_1
I1215 23:11:05.852746 11477 net.cpp:338] inception_3a/3x3_reduce -> inception_3a/3x3_reduce
I1215 23:11:05.852756 11477 net.cpp:113] Setting up inception_3a/3x3_reduce
I1215 23:11:05.854403 11477 net.cpp:120] Top shape: 32 96 28 28 (2408448)
I1215 23:11:05.854428 11477 layer_factory.hpp:74] Creating layer inception_3a/relu_3x3_reduce
I1215 23:11:05.854442 11477 net.cpp:84] Creating Layer inception_3a/relu_3x3_reduce
I1215 23:11:05.854449 11477 net.cpp:380] inception_3a/relu_3x3_reduce <- inception_3a/3x3_reduce
I1215 23:11:05.854456 11477 net.cpp:327] inception_3a/relu_3x3_reduce -> inception_3a/3x3_reduce (in-place)
I1215 23:11:05.854465 11477 net.cpp:113] Setting up inception_3a/relu_3x3_reduce
I1215 23:11:05.854535 11477 net.cpp:120] Top shape: 32 96 28 28 (2408448)
I1215 23:11:05.854542 11477 layer_factory.hpp:74] Creating layer inception_3a/3x3
I1215 23:11:05.854553 11477 net.cpp:84] Creating Layer inception_3a/3x3
I1215 23:11:05.854558 11477 net.cpp:380] inception_3a/3x3 <- inception_3a/3x3_reduce
I1215 23:11:05.854565 11477 net.cpp:338] inception_3a/3x3 -> inception_3a/3x3
I1215 23:11:05.854574 11477 net.cpp:113] Setting up inception_3a/3x3
I1215 23:11:05.858908 11477 net.cpp:120] Top shape: 32 128 28 28 (3211264)
I1215 23:11:05.858930 11477 layer_factory.hpp:74] Creating layer inception_3a/relu_3x3
I1215 23:11:05.858942 11477 net.cpp:84] Creating Layer inception_3a/relu_3x3
I1215 23:11:05.858952 11477 net.cpp:380] inception_3a/relu_3x3 <- inception_3a/3x3
I1215 23:11:05.858969 11477 net.cpp:327] inception_3a/relu_3x3 -> inception_3a/3x3 (in-place)
I1215 23:11:05.858978 11477 net.cpp:113] Setting up inception_3a/relu_3x3
I1215 23:11:05.859768 11477 net.cpp:120] Top shape: 32 128 28 28 (3211264)
I1215 23:11:05.859791 11477 layer_factory.hpp:74] Creating layer inception_3a/5x5_reduce
I1215 23:11:05.859812 11477 net.cpp:84] Creating Layer inception_3a/5x5_reduce
I1215 23:11:05.859822 11477 net.cpp:380] inception_3a/5x5_reduce <- pool2/3x3_s2_pool2/3x3_s2_0_split_2
I1215 23:11:05.859838 11477 net.cpp:338] inception_3a/5x5_reduce -> inception_3a/5x5_reduce
I1215 23:11:05.859859 11477 net.cpp:113] Setting up inception_3a/5x5_reduce
I1215 23:11:05.860966 11477 net.cpp:120] Top shape: 32 16 28 28 (401408)
I1215 23:11:05.860983 11477 layer_factory.hpp:74] Creating layer inception_3a/relu_5x5_reduce
I1215 23:11:05.860991 11477 net.cpp:84] Creating Layer inception_3a/relu_5x5_reduce
I1215 23:11:05.860997 11477 net.cpp:380] inception_3a/relu_5x5_reduce <- inception_3a/5x5_reduce
I1215 23:11:05.861006 11477 net.cpp:327] inception_3a/relu_5x5_reduce -> inception_3a/5x5_reduce (in-place)
I1215 23:11:05.861014 11477 net.cpp:113] Setting up inception_3a/relu_5x5_reduce
I1215 23:11:05.861104 11477 net.cpp:120] Top shape: 32 16 28 28 (401408)
I1215 23:11:05.861112 11477 layer_factory.hpp:74] Creating layer inception_3a/5x5
I1215 23:11:05.861121 11477 net.cpp:84] Creating Layer inception_3a/5x5
I1215 23:11:05.861127 11477 net.cpp:380] inception_3a/5x5 <- inception_3a/5x5_reduce
I1215 23:11:05.861136 11477 net.cpp:338] inception_3a/5x5 -> inception_3a/5x5
I1215 23:11:05.861145 11477 net.cpp:113] Setting up inception_3a/5x5
I1215 23:11:05.862295 11477 net.cpp:120] Top shape: 32 32 28 28 (802816)
I1215 23:11:05.862313 11477 layer_factory.hpp:74] Creating layer inception_3a/relu_5x5
I1215 23:11:05.862323 11477 net.cpp:84] Creating Layer inception_3a/relu_5x5
I1215 23:11:05.862329 11477 net.cpp:380] inception_3a/relu_5x5 <- inception_3a/5x5
I1215 23:11:05.862336 11477 net.cpp:327] inception_3a/relu_5x5 -> inception_3a/5x5 (in-place)
I1215 23:11:05.862344 11477 net.cpp:113] Setting up inception_3a/relu_5x5
I1215 23:11:05.862452 11477 net.cpp:120] Top shape: 32 32 28 28 (802816)
I1215 23:11:05.862459 11477 layer_factory.hpp:74] Creating layer inception_3a/pool
I1215 23:11:05.862465 11477 layer_factory.cpp:56] CUDNN does not support padding or multiple tops. Using Caffe's own pooling layer.
I1215 23:11:05.862474 11477 net.cpp:84] Creating Layer inception_3a/pool
I1215 23:11:05.862479 11477 net.cpp:380] inception_3a/pool <- pool2/3x3_s2_pool2/3x3_s2_0_split_3
I1215 23:11:05.862486 11477 net.cpp:338] inception_3a/pool -> inception_3a/pool
I1215 23:11:05.862494 11477 net.cpp:113] Setting up inception_3a/pool
I1215 23:11:05.862504 11477 net.cpp:120] Top shape: 32 192 28 28 (4816896)
I1215 23:11:05.862509 11477 layer_factory.hpp:74] Creating layer inception_3a/pool_proj
I1215 23:11:05.862519 11477 net.cpp:84] Creating Layer inception_3a/pool_proj
I1215 23:11:05.862524 11477 net.cpp:380] inception_3a/pool_proj <- inception_3a/pool
I1215 23:11:05.862534 11477 net.cpp:338] inception_3a/pool_proj -> inception_3a/pool_proj
I1215 23:11:05.862541 11477 net.cpp:113] Setting up inception_3a/pool_proj
I1215 23:11:05.863633 11477 net.cpp:120] Top shape: 32 32 28 28 (802816)
I1215 23:11:05.863653 11477 layer_factory.hpp:74] Creating layer inception_3a/relu_pool_proj
I1215 23:11:05.863662 11477 net.cpp:84] Creating Layer inception_3a/relu_pool_proj
I1215 23:11:05.863667 11477 net.cpp:380] inception_3a/relu_pool_proj <- inception_3a/pool_proj
I1215 23:11:05.863673 11477 net.cpp:327] inception_3a/relu_pool_proj -> inception_3a/pool_proj (in-place)
I1215 23:11:05.863680 11477 net.cpp:113] Setting up inception_3a/relu_pool_proj
I1215 23:11:05.863750 11477 net.cpp:120] Top shape: 32 32 28 28 (802816)
I1215 23:11:05.863757 11477 layer_factory.hpp:74] Creating layer inception_3a/output
I1215 23:11:05.863775 11477 net.cpp:84] Creating Layer inception_3a/output
I1215 23:11:05.863792 11477 net.cpp:380] inception_3a/output <- inception_3a/1x1
I1215 23:11:05.863800 11477 net.cpp:380] inception_3a/output <- inception_3a/3x3
I1215 23:11:05.863804 11477 net.cpp:380] inception_3a/output <- inception_3a/5x5
I1215 23:11:05.863809 11477 net.cpp:380] inception_3a/output <- inception_3a/pool_proj
I1215 23:11:05.863816 11477 net.cpp:338] inception_3a/output -> inception_3a/output
I1215 23:11:05.863823 11477 net.cpp:113] Setting up inception_3a/output
I1215 23:11:05.863837 11477 net.cpp:120] Top shape: 32 256 28 28 (6422528)
I1215 23:11:05.863842 11477 layer_factory.hpp:74] Creating layer inception_3a/output_inception_3a/output_0_split
I1215 23:11:05.863849 11477 net.cpp:84] Creating Layer inception_3a/output_inception_3a/output_0_split
I1215 23:11:05.863854 11477 net.cpp:380] inception_3a/output_inception_3a/output_0_split <- inception_3a/output
I1215 23:11:05.863862 11477 net.cpp:338] inception_3a/output_inception_3a/output_0_split -> inception_3a/output_inception_3a/output_0_split_0
I1215 23:11:05.863870 11477 net.cpp:338] inception_3a/output_inception_3a/output_0_split -> inception_3a/output_inception_3a/output_0_split_1
I1215 23:11:05.863878 11477 net.cpp:338] inception_3a/output_inception_3a/output_0_split -> inception_3a/output_inception_3a/output_0_split_2
I1215 23:11:05.863884 11477 net.cpp:338] inception_3a/output_inception_3a/output_0_split -> inception_3a/output_inception_3a/output_0_split_3
I1215 23:11:05.863890 11477 net.cpp:113] Setting up inception_3a/output_inception_3a/output_0_split
I1215 23:11:05.863898 11477 net.cpp:120] Top shape: 32 256 28 28 (6422528)
I1215 23:11:05.863903 11477 net.cpp:120] Top shape: 32 256 28 28 (6422528)
I1215 23:11:05.863909 11477 net.cpp:120] Top shape: 32 256 28 28 (6422528)
I1215 23:11:05.863914 11477 net.cpp:120] Top shape: 32 256 28 28 (6422528)
I1215 23:11:05.863919 11477 layer_factory.hpp:74] Creating layer inception_3b/1x1
I1215 23:11:05.863929 11477 net.cpp:84] Creating Layer inception_3b/1x1
I1215 23:11:05.863934 11477 net.cpp:380] inception_3b/1x1 <- inception_3a/output_inception_3a/output_0_split_0
I1215 23:11:05.863940 11477 net.cpp:338] inception_3b/1x1 -> inception_3b/1x1
I1215 23:11:05.863948 11477 net.cpp:113] Setting up inception_3b/1x1
I1215 23:11:05.865200 11477 net.cpp:120] Top shape: 32 128 28 28 (3211264)
I1215 23:11:05.865218 11477 layer_factory.hpp:74] Creating layer inception_3b/relu_1x1
I1215 23:11:05.865226 11477 net.cpp:84] Creating Layer inception_3b/relu_1x1
I1215 23:11:05.865233 11477 net.cpp:380] inception_3b/relu_1x1 <- inception_3b/1x1
I1215 23:11:05.865242 11477 net.cpp:327] inception_3b/relu_1x1 -> inception_3b/1x1 (in-place)
I1215 23:11:05.865249 11477 net.cpp:113] Setting up inception_3b/relu_1x1
I1215 23:11:05.865978 11477 net.cpp:120] Top shape: 32 128 28 28 (3211264)
I1215 23:11:05.865990 11477 layer_factory.hpp:74] Creating layer inception_3b/3x3_reduce
I1215 23:11:05.866001 11477 net.cpp:84] Creating Layer inception_3b/3x3_reduce
I1215 23:11:05.866008 11477 net.cpp:380] inception_3b/3x3_reduce <- inception_3a/output_inception_3a/output_0_split_1
I1215 23:11:05.866015 11477 net.cpp:338] inception_3b/3x3_reduce -> inception_3b/3x3_reduce
I1215 23:11:05.866024 11477 net.cpp:113] Setting up inception_3b/3x3_reduce
I1215 23:11:05.867208 11477 net.cpp:120] Top shape: 32 128 28 28 (3211264)
I1215 23:11:05.867225 11477 layer_factory.hpp:74] Creating layer inception_3b/relu_3x3_reduce
I1215 23:11:05.867234 11477 net.cpp:84] Creating Layer inception_3b/relu_3x3_reduce
I1215 23:11:05.867240 11477 net.cpp:380] inception_3b/relu_3x3_reduce <- inception_3b/3x3_reduce
I1215 23:11:05.867247 11477 net.cpp:327] inception_3b/relu_3x3_reduce -> inception_3b/3x3_reduce (in-place)
I1215 23:11:05.867255 11477 net.cpp:113] Setting up inception_3b/relu_3x3_reduce
I1215 23:11:05.867326 11477 net.cpp:120] Top shape: 32 128 28 28 (3211264)
I1215 23:11:05.867333 11477 layer_factory.hpp:74] Creating layer inception_3b/3x3
I1215 23:11:05.867347 11477 net.cpp:84] Creating Layer inception_3b/3x3
I1215 23:11:05.867358 11477 net.cpp:380] inception_3b/3x3 <- inception_3b/3x3_reduce
I1215 23:11:05.867377 11477 net.cpp:338] inception_3b/3x3 -> inception_3b/3x3
I1215 23:11:05.867385 11477 net.cpp:113] Setting up inception_3b/3x3
I1215 23:11:05.871851 11477 net.cpp:120] Top shape: 32 192 28 28 (4816896)
I1215 23:11:05.871870 11477 layer_factory.hpp:74] Creating layer inception_3b/relu_3x3
I1215 23:11:05.871878 11477 net.cpp:84] Creating Layer inception_3b/relu_3x3
I1215 23:11:05.871883 11477 net.cpp:380] inception_3b/relu_3x3 <- inception_3b/3x3
I1215 23:11:05.871892 11477 net.cpp:327] inception_3b/relu_3x3 -> inception_3b/3x3 (in-place)
I1215 23:11:05.871901 11477 net.cpp:113] Setting up inception_3b/relu_3x3
I1215 23:11:05.871974 11477 net.cpp:120] Top shape: 32 192 28 28 (4816896)
I1215 23:11:05.871980 11477 layer_factory.hpp:74] Creating layer inception_3b/5x5_reduce
I1215 23:11:05.871990 11477 net.cpp:84] Creating Layer inception_3b/5x5_reduce
I1215 23:11:05.871995 11477 net.cpp:380] inception_3b/5x5_reduce <- inception_3a/output_inception_3a/output_0_split_2
I1215 23:11:05.872004 11477 net.cpp:338] inception_3b/5x5_reduce -> inception_3b/5x5_reduce
I1215 23:11:05.872014 11477 net.cpp:113] Setting up inception_3b/5x5_reduce
I1215 23:11:05.872620 11477 net.cpp:120] Top shape: 32 32 28 28 (802816)
I1215 23:11:05.872637 11477 layer_factory.hpp:74] Creating layer inception_3b/relu_5x5_reduce
I1215 23:11:05.872647 11477 net.cpp:84] Creating Layer inception_3b/relu_5x5_reduce
I1215 23:11:05.872651 11477 net.cpp:380] inception_3b/relu_5x5_reduce <- inception_3b/5x5_reduce
I1215 23:11:05.872659 11477 net.cpp:327] inception_3b/relu_5x5_reduce -> inception_3b/5x5_reduce (in-place)
I1215 23:11:05.872666 11477 net.cpp:113] Setting up inception_3b/relu_5x5_reduce
I1215 23:11:05.872742 11477 net.cpp:120] Top shape: 32 32 28 28 (802816)
I1215 23:11:05.872750 11477 layer_factory.hpp:74] Creating layer inception_3b/5x5
I1215 23:11:05.872761 11477 net.cpp:84] Creating Layer inception_3b/5x5
I1215 23:11:05.872766 11477 net.cpp:380] inception_3b/5x5 <- inception_3b/5x5_reduce
I1215 23:11:05.872776 11477 net.cpp:338] inception_3b/5x5 -> inception_3b/5x5
I1215 23:11:05.872787 11477 net.cpp:113] Setting up inception_3b/5x5
I1215 23:11:05.874541 11477 net.cpp:120] Top shape: 32 96 28 28 (2408448)
I1215 23:11:05.874558 11477 layer_factory.hpp:74] Creating layer inception_3b/relu_5x5
I1215 23:11:05.874567 11477 net.cpp:84] Creating Layer inception_3b/relu_5x5
I1215 23:11:05.874572 11477 net.cpp:380] inception_3b/relu_5x5 <- inception_3b/5x5
I1215 23:11:05.874580 11477 net.cpp:327] inception_3b/relu_5x5 -> inception_3b/5x5 (in-place)
I1215 23:11:05.874588 11477 net.cpp:113] Setting up inception_3b/relu_5x5
I1215 23:11:05.875309 11477 net.cpp:120] Top shape: 32 96 28 28 (2408448)
I1215 23:11:05.875322 11477 layer_factory.hpp:74] Creating layer inception_3b/pool
I1215 23:11:05.875329 11477 layer_factory.cpp:56] CUDNN does not support padding or multiple tops. Using Caffe's own pooling layer.
I1215 23:11:05.875335 11477 net.cpp:84] Creating Layer inception_3b/pool
I1215 23:11:05.875341 11477 net.cpp:380] inception_3b/pool <- inception_3a/output_inception_3a/output_0_split_3
I1215 23:11:05.875350 11477 net.cpp:338] inception_3b/pool -> inception_3b/pool
I1215 23:11:05.875360 11477 net.cpp:113] Setting up inception_3b/pool
I1215 23:11:05.875368 11477 net.cpp:120] Top shape: 32 256 28 28 (6422528)
I1215 23:11:05.875373 11477 layer_factory.hpp:74] Creating layer inception_3b/pool_proj
I1215 23:11:05.875382 11477 net.cpp:84] Creating Layer inception_3b/pool_proj
I1215 23:11:05.875387 11477 net.cpp:380] inception_3b/pool_proj <- inception_3b/pool
I1215 23:11:05.875396 11477 net.cpp:338] inception_3b/pool_proj -> inception_3b/pool_proj
I1215 23:11:05.875404 11477 net.cpp:113] Setting up inception_3b/pool_proj
I1215 23:11:05.876273 11477 net.cpp:120] Top shape: 32 64 28 28 (1605632)
I1215 23:11:05.876291 11477 layer_factory.hpp:74] Creating layer inception_3b/relu_pool_proj
I1215 23:11:05.876298 11477 net.cpp:84] Creating Layer inception_3b/relu_pool_proj
I1215 23:11:05.876310 11477 net.cpp:380] inception_3b/relu_pool_proj <- inception_3b/pool_proj
I1215 23:11:05.876328 11477 net.cpp:327] inception_3b/relu_pool_proj -> inception_3b/pool_proj (in-place)
I1215 23:11:05.876337 11477 net.cpp:113] Setting up inception_3b/relu_pool_proj
I1215 23:11:05.876410 11477 net.cpp:120] Top shape: 32 64 28 28 (1605632)
I1215 23:11:05.876416 11477 layer_factory.hpp:74] Creating layer inception_3b/output
I1215 23:11:05.876425 11477 net.cpp:84] Creating Layer inception_3b/output
I1215 23:11:05.876431 11477 net.cpp:380] inception_3b/output <- inception_3b/1x1
I1215 23:11:05.876437 11477 net.cpp:380] inception_3b/output <- inception_3b/3x3
I1215 23:11:05.876442 11477 net.cpp:380] inception_3b/output <- inception_3b/5x5
I1215 23:11:05.876448 11477 net.cpp:380] inception_3b/output <- inception_3b/pool_proj
I1215 23:11:05.876454 11477 net.cpp:338] inception_3b/output -> inception_3b/output
I1215 23:11:05.876461 11477 net.cpp:113] Setting up inception_3b/output
I1215 23:11:05.876469 11477 net.cpp:120] Top shape: 32 480 28 28 (12042240)
I1215 23:11:05.876474 11477 layer_factory.hpp:74] Creating layer pool3/3x3_s2
I1215 23:11:05.876483 11477 net.cpp:84] Creating Layer pool3/3x3_s2
I1215 23:11:05.876488 11477 net.cpp:380] pool3/3x3_s2 <- inception_3b/output
I1215 23:11:05.876495 11477 net.cpp:338] pool3/3x3_s2 -> pool3/3x3_s2
I1215 23:11:05.876502 11477 net.cpp:113] Setting up pool3/3x3_s2
I1215 23:11:05.876572 11477 net.cpp:120] Top shape: 32 480 14 14 (3010560)
I1215 23:11:05.876579 11477 layer_factory.hpp:74] Creating layer pool3/3x3_s2_pool3/3x3_s2_0_split
I1215 23:11:05.876587 11477 net.cpp:84] Creating Layer pool3/3x3_s2_pool3/3x3_s2_0_split
I1215 23:11:05.876591 11477 net.cpp:380] pool3/3x3_s2_pool3/3x3_s2_0_split <- pool3/3x3_s2
I1215 23:11:05.876598 11477 net.cpp:338] pool3/3x3_s2_pool3/3x3_s2_0_split -> pool3/3x3_s2_pool3/3x3_s2_0_split_0
I1215 23:11:05.876606 11477 net.cpp:338] pool3/3x3_s2_pool3/3x3_s2_0_split -> pool3/3x3_s2_pool3/3x3_s2_0_split_1
I1215 23:11:05.876613 11477 net.cpp:338] pool3/3x3_s2_pool3/3x3_s2_0_split -> pool3/3x3_s2_pool3/3x3_s2_0_split_2
I1215 23:11:05.876622 11477 net.cpp:338] pool3/3x3_s2_pool3/3x3_s2_0_split -> pool3/3x3_s2_pool3/3x3_s2_0_split_3
I1215 23:11:05.876628 11477 net.cpp:113] Setting up pool3/3x3_s2_pool3/3x3_s2_0_split
I1215 23:11:05.876636 11477 net.cpp:120] Top shape: 32 480 14 14 (3010560)
I1215 23:11:05.876641 11477 net.cpp:120] Top shape: 32 480 14 14 (3010560)
I1215 23:11:05.876647 11477 net.cpp:120] Top shape: 32 480 14 14 (3010560)
I1215 23:11:05.876652 11477 net.cpp:120] Top shape: 32 480 14 14 (3010560)
I1215 23:11:05.876657 11477 layer_factory.hpp:74] Creating layer inception_4a/1x1
I1215 23:11:05.876667 11477 net.cpp:84] Creating Layer inception_4a/1x1
I1215 23:11:05.876672 11477 net.cpp:380] inception_4a/1x1 <- pool3/3x3_s2_pool3/3x3_s2_0_split_0
I1215 23:11:05.876678 11477 net.cpp:338] inception_4a/1x1 -> inception_4a/1x1
I1215 23:11:05.876687 11477 net.cpp:113] Setting up inception_4a/1x1
I1215 23:11:05.878507 11477 net.cpp:120] Top shape: 32 192 14 14 (1204224)
I1215 23:11:05.878525 11477 layer_factory.hpp:74] Creating layer inception_4a/relu_1x1
I1215 23:11:05.878533 11477 net.cpp:84] Creating Layer inception_4a/relu_1x1
I1215 23:11:05.878538 11477 net.cpp:380] inception_4a/relu_1x1 <- inception_4a/1x1
I1215 23:11:05.878547 11477 net.cpp:327] inception_4a/relu_1x1 -> inception_4a/1x1 (in-place)
I1215 23:11:05.878556 11477 net.cpp:113] Setting up inception_4a/relu_1x1
I1215 23:11:05.879245 11477 net.cpp:120] Top shape: 32 192 14 14 (1204224)
I1215 23:11:05.879256 11477 layer_factory.hpp:74] Creating layer inception_4a/3x3_reduce
I1215 23:11:05.879268 11477 net.cpp:84] Creating Layer inception_4a/3x3_reduce
I1215 23:11:05.879273 11477 net.cpp:380] inception_4a/3x3_reduce <- pool3/3x3_s2_pool3/3x3_s2_0_split_1
I1215 23:11:05.879281 11477 net.cpp:338] inception_4a/3x3_reduce -> inception_4a/3x3_reduce
I1215 23:11:05.879292 11477 net.cpp:113] Setting up inception_4a/3x3_reduce
I1215 23:11:05.880601 11477 net.cpp:120] Top shape: 32 96 14 14 (602112)
I1215 23:11:05.880630 11477 layer_factory.hpp:74] Creating layer inception_4a/relu_3x3_reduce
I1215 23:11:05.880646 11477 net.cpp:84] Creating Layer inception_4a/relu_3x3_reduce
I1215 23:11:05.880651 11477 net.cpp:380] inception_4a/relu_3x3_reduce <- inception_4a/3x3_reduce
I1215 23:11:05.880659 11477 net.cpp:327] inception_4a/relu_3x3_reduce -> inception_4a/3x3_reduce (in-place)
I1215 23:11:05.880666 11477 net.cpp:113] Setting up inception_4a/relu_3x3_reduce
I1215 23:11:05.880743 11477 net.cpp:120] Top shape: 32 96 14 14 (602112)
I1215 23:11:05.880749 11477 layer_factory.hpp:74] Creating layer inception_4a/3x3
I1215 23:11:05.880758 11477 net.cpp:84] Creating Layer inception_4a/3x3
I1215 23:11:05.880764 11477 net.cpp:380] inception_4a/3x3 <- inception_4a/3x3_reduce
I1215 23:11:05.880771 11477 net.cpp:338] inception_4a/3x3 -> inception_4a/3x3
I1215 23:11:05.880780 11477 net.cpp:113] Setting up inception_4a/3x3
I1215 23:11:05.883705 11477 net.cpp:120] Top shape: 32 208 14 14 (1304576)
I1215 23:11:05.883721 11477 layer_factory.hpp:74] Creating layer inception_4a/relu_3x3
I1215 23:11:05.883729 11477 net.cpp:84] Creating Layer inception_4a/relu_3x3
I1215 23:11:05.883734 11477 net.cpp:380] inception_4a/relu_3x3 <- inception_4a/3x3
I1215 23:11:05.883744 11477 net.cpp:327] inception_4a/relu_3x3 -> inception_4a/3x3 (in-place)
I1215 23:11:05.883750 11477 net.cpp:113] Setting up inception_4a/relu_3x3
I1215 23:11:05.883817 11477 net.cpp:120] Top shape: 32 208 14 14 (1304576)
I1215 23:11:05.883822 11477 layer_factory.hpp:74] Creating layer inception_4a/5x5_reduce
I1215 23:11:05.883832 11477 net.cpp:84] Creating Layer inception_4a/5x5_reduce
I1215 23:11:05.883838 11477 net.cpp:380] inception_4a/5x5_reduce <- pool3/3x3_s2_pool3/3x3_s2_0_split_2
I1215 23:11:05.883844 11477 net.cpp:338] inception_4a/5x5_reduce -> inception_4a/5x5_reduce
I1215 23:11:05.883853 11477 net.cpp:113] Setting up inception_4a/5x5_reduce
I1215 23:11:05.884629 11477 net.cpp:120] Top shape: 32 16 14 14 (100352)
I1215 23:11:05.884645 11477 layer_factory.hpp:74] Creating layer inception_4a/relu_5x5_reduce
I1215 23:11:05.884652 11477 net.cpp:84] Creating Layer inception_4a/relu_5x5_reduce
I1215 23:11:05.884657 11477 net.cpp:380] inception_4a/relu_5x5_reduce <- inception_4a/5x5_reduce
I1215 23:11:05.884665 11477 net.cpp:327] inception_4a/relu_5x5_reduce -> inception_4a/5x5_reduce (in-place)
I1215 23:11:05.884671 11477 net.cpp:113] Setting up inception_4a/relu_5x5_reduce
I1215 23:11:05.884742 11477 net.cpp:120] Top shape: 32 16 14 14 (100352)
I1215 23:11:05.884749 11477 layer_factory.hpp:74] Creating layer inception_4a/5x5
I1215 23:11:05.884757 11477 net.cpp:84] Creating Layer inception_4a/5x5
I1215 23:11:05.884763 11477 net.cpp:380] inception_4a/5x5 <- inception_4a/5x5_reduce
I1215 23:11:05.884770 11477 net.cpp:338] inception_4a/5x5 -> inception_4a/5x5
I1215 23:11:05.884778 11477 net.cpp:113] Setting up inception_4a/5x5
I1215 23:11:05.885776 11477 net.cpp:120] Top shape: 32 48 14 14 (301056)
I1215 23:11:05.885792 11477 layer_factory.hpp:74] Creating layer inception_4a/relu_5x5
I1215 23:11:05.885802 11477 net.cpp:84] Creating Layer inception_4a/relu_5x5
I1215 23:11:05.885807 11477 net.cpp:380] inception_4a/relu_5x5 <- inception_4a/5x5
I1215 23:11:05.885814 11477 net.cpp:327] inception_4a/relu_5x5 -> inception_4a/5x5 (in-place)
I1215 23:11:05.885823 11477 net.cpp:113] Setting up inception_4a/relu_5x5
I1215 23:11:05.886385 11477 net.cpp:120] Top shape: 32 48 14 14 (301056)
I1215 23:11:05.886396 11477 layer_factory.hpp:74] Creating layer inception_4a/pool
I1215 23:11:05.886402 11477 layer_factory.cpp:56] CUDNN does not support padding or multiple tops. Using Caffe's own pooling layer.
I1215 23:11:05.886409 11477 net.cpp:84] Creating Layer inception_4a/pool
I1215 23:11:05.886415 11477 net.cpp:380] inception_4a/pool <- pool3/3x3_s2_pool3/3x3_s2_0_split_3
I1215 23:11:05.886421 11477 net.cpp:338] inception_4a/pool -> inception_4a/pool
I1215 23:11:05.886430 11477 net.cpp:113] Setting up inception_4a/pool
I1215 23:11:05.886438 11477 net.cpp:120] Top shape: 32 480 14 14 (3010560)
I1215 23:11:05.886450 11477 layer_factory.hpp:74] Creating layer inception_4a/pool_proj
I1215 23:11:05.886467 11477 net.cpp:84] Creating Layer inception_4a/pool_proj
I1215 23:11:05.886472 11477 net.cpp:380] inception_4a/pool_proj <- inception_4a/pool
I1215 23:11:05.886482 11477 net.cpp:338] inception_4a/pool_proj -> inception_4a/pool_proj
I1215 23:11:05.886489 11477 net.cpp:113] Setting up inception_4a/pool_proj
I1215 23:11:05.887563 11477 net.cpp:120] Top shape: 32 64 14 14 (401408)
I1215 23:11:05.887580 11477 layer_factory.hpp:74] Creating layer inception_4a/relu_pool_proj
I1215 23:11:05.887588 11477 net.cpp:84] Creating Layer inception_4a/relu_pool_proj
I1215 23:11:05.887594 11477 net.cpp:380] inception_4a/relu_pool_proj <- inception_4a/pool_proj
I1215 23:11:05.887601 11477 net.cpp:327] inception_4a/relu_pool_proj -> inception_4a/pool_proj (in-place)
I1215 23:11:05.887609 11477 net.cpp:113] Setting up inception_4a/relu_pool_proj
I1215 23:11:05.887679 11477 net.cpp:120] Top shape: 32 64 14 14 (401408)
I1215 23:11:05.887686 11477 layer_factory.hpp:74] Creating layer inception_4a/output
I1215 23:11:05.887692 11477 net.cpp:84] Creating Layer inception_4a/output
I1215 23:11:05.887697 11477 net.cpp:380] inception_4a/output <- inception_4a/1x1
I1215 23:11:05.887703 11477 net.cpp:380] inception_4a/output <- inception_4a/3x3
I1215 23:11:05.887708 11477 net.cpp:380] inception_4a/output <- inception_4a/5x5
I1215 23:11:05.887714 11477 net.cpp:380] inception_4a/output <- inception_4a/pool_proj
I1215 23:11:05.887720 11477 net.cpp:338] inception_4a/output -> inception_4a/output
I1215 23:11:05.887727 11477 net.cpp:113] Setting up inception_4a/output
I1215 23:11:05.887735 11477 net.cpp:120] Top shape: 32 512 14 14 (3211264)
I1215 23:11:05.887739 11477 layer_factory.hpp:74] Creating layer inception_4a/output_inception_4a/output_0_split
I1215 23:11:05.887749 11477 net.cpp:84] Creating Layer inception_4a/output_inception_4a/output_0_split
I1215 23:11:05.887754 11477 net.cpp:380] inception_4a/output_inception_4a/output_0_split <- inception_4a/output
I1215 23:11:05.887760 11477 net.cpp:338] inception_4a/output_inception_4a/output_0_split -> inception_4a/output_inception_4a/output_0_split_0
I1215 23:11:05.887768 11477 net.cpp:338] inception_4a/output_inception_4a/output_0_split -> inception_4a/output_inception_4a/output_0_split_1
I1215 23:11:05.887775 11477 net.cpp:338] inception_4a/output_inception_4a/output_0_split -> inception_4a/output_inception_4a/output_0_split_2
I1215 23:11:05.887784 11477 net.cpp:338] inception_4a/output_inception_4a/output_0_split -> inception_4a/output_inception_4a/output_0_split_3
I1215 23:11:05.887791 11477 net.cpp:338] inception_4a/output_inception_4a/output_0_split -> inception_4a/output_inception_4a/output_0_split_4
I1215 23:11:05.887797 11477 net.cpp:113] Setting up inception_4a/output_inception_4a/output_0_split
I1215 23:11:05.887805 11477 net.cpp:120] Top shape: 32 512 14 14 (3211264)
I1215 23:11:05.887810 11477 net.cpp:120] Top shape: 32 512 14 14 (3211264)
I1215 23:11:05.887815 11477 net.cpp:120] Top shape: 32 512 14 14 (3211264)
I1215 23:11:05.887820 11477 net.cpp:120] Top shape: 32 512 14 14 (3211264)
I1215 23:11:05.887825 11477 net.cpp:120] Top shape: 32 512 14 14 (3211264)
I1215 23:11:05.887830 11477 layer_factory.hpp:74] Creating layer loss1/ave_pool
I1215 23:11:05.887837 11477 net.cpp:84] Creating Layer loss1/ave_pool
I1215 23:11:05.887841 11477 net.cpp:380] loss1/ave_pool <- inception_4a/output_inception_4a/output_0_split_0
I1215 23:11:05.887850 11477 net.cpp:338] loss1/ave_pool -> loss1/ave_pool
I1215 23:11:05.887856 11477 net.cpp:113] Setting up loss1/ave_pool
I1215 23:11:05.887923 11477 net.cpp:120] Top shape: 32 512 4 4 (262144)
I1215 23:11:05.887928 11477 layer_factory.hpp:74] Creating layer loss1/conv
I1215 23:11:05.887938 11477 net.cpp:84] Creating Layer loss1/conv
I1215 23:11:05.887943 11477 net.cpp:380] loss1/conv <- loss1/ave_pool
I1215 23:11:05.887953 11477 net.cpp:338] loss1/conv -> loss1/conv
I1215 23:11:05.887961 11477 net.cpp:113] Setting up loss1/conv
I1215 23:11:05.889477 11477 net.cpp:120] Top shape: 32 128 4 4 (65536)
I1215 23:11:05.889503 11477 layer_factory.hpp:74] Creating layer loss1/relu_conv
I1215 23:11:05.889510 11477 net.cpp:84] Creating Layer loss1/relu_conv
I1215 23:11:05.889515 11477 net.cpp:380] loss1/relu_conv <- loss1/conv
I1215 23:11:05.889524 11477 net.cpp:327] loss1/relu_conv -> loss1/conv (in-place)
I1215 23:11:05.889533 11477 net.cpp:113] Setting up loss1/relu_conv
I1215 23:11:05.889600 11477 net.cpp:120] Top shape: 32 128 4 4 (65536)
I1215 23:11:05.889606 11477 layer_factory.hpp:74] Creating layer loss1/fc
I1215 23:11:05.889617 11477 net.cpp:84] Creating Layer loss1/fc
I1215 23:11:05.889622 11477 net.cpp:380] loss1/fc <- loss1/conv
I1215 23:11:05.889628 11477 net.cpp:338] loss1/fc -> loss1/fc
I1215 23:11:05.889641 11477 net.cpp:113] Setting up loss1/fc
I1215 23:11:05.913642 11477 net.cpp:120] Top shape: 32 1024 (32768)
I1215 23:11:05.913697 11477 layer_factory.hpp:74] Creating layer loss1/relu_fc
I1215 23:11:05.913727 11477 net.cpp:84] Creating Layer loss1/relu_fc
I1215 23:11:05.913759 11477 net.cpp:380] loss1/relu_fc <- loss1/fc
I1215 23:11:05.913779 11477 net.cpp:327] loss1/relu_fc -> loss1/fc (in-place)
I1215 23:11:05.913790 11477 net.cpp:113] Setting up loss1/relu_fc
I1215 23:11:05.918802 11477 net.cpp:120] Top shape: 32 1024 (32768)
I1215 23:11:05.918825 11477 layer_factory.hpp:74] Creating layer loss1/drop_fc
I1215 23:11:05.918900 11477 net.cpp:84] Creating Layer loss1/drop_fc
I1215 23:11:05.918906 11477 net.cpp:380] loss1/drop_fc <- loss1/fc
I1215 23:11:05.918913 11477 net.cpp:327] loss1/drop_fc -> loss1/fc (in-place)
I1215 23:11:05.918923 11477 net.cpp:113] Setting up loss1/drop_fc
I1215 23:11:05.918933 11477 net.cpp:120] Top shape: 32 1024 (32768)
I1215 23:11:05.918939 11477 layer_factory.hpp:74] Creating layer loss1/classifier_kaggle
I1215 23:11:05.918959 11477 net.cpp:84] Creating Layer loss1/classifier_kaggle
I1215 23:11:05.918964 11477 net.cpp:380] loss1/classifier_kaggle <- loss1/fc
I1215 23:11:05.918972 11477 net.cpp:338] loss1/classifier_kaggle -> loss1/classifier_kaggle
I1215 23:11:05.918982 11477 net.cpp:113] Setting up loss1/classifier_kaggle
I1215 23:11:05.924242 11477 net.cpp:120] Top shape: 32 447 (14304)
I1215 23:11:05.924255 11477 layer_factory.hpp:74] Creating layer loss1/loss
I1215 23:11:05.924263 11477 net.cpp:84] Creating Layer loss1/loss
I1215 23:11:05.924269 11477 net.cpp:380] loss1/loss <- loss1/classifier_kaggle
I1215 23:11:05.924275 11477 net.cpp:380] loss1/loss <- label_data_1_split_0
I1215 23:11:05.924281 11477 net.cpp:338] loss1/loss -> loss1/loss1
I1215 23:11:05.924290 11477 net.cpp:113] Setting up loss1/loss
I1215 23:11:05.924299 11477 layer_factory.hpp:74] Creating layer loss1/loss
I1215 23:11:05.924424 11477 net.cpp:120] Top shape: (1)
I1215 23:11:05.924432 11477 net.cpp:122]     with loss weight 0.3
I1215 23:11:05.924453 11477 layer_factory.hpp:74] Creating layer inception_4b/1x1
I1215 23:11:05.924463 11477 net.cpp:84] Creating Layer inception_4b/1x1
I1215 23:11:05.924470 11477 net.cpp:380] inception_4b/1x1 <- inception_4a/output_inception_4a/output_0_split_1
I1215 23:11:05.924482 11477 net.cpp:338] inception_4b/1x1 -> inception_4b/1x1
I1215 23:11:05.924491 11477 net.cpp:113] Setting up inception_4b/1x1
I1215 23:11:05.926272 11477 net.cpp:120] Top shape: 32 160 14 14 (1003520)
I1215 23:11:05.926290 11477 layer_factory.hpp:74] Creating layer inception_4b/relu_1x1
I1215 23:11:05.926306 11477 net.cpp:84] Creating Layer inception_4b/relu_1x1
I1215 23:11:05.926312 11477 net.cpp:380] inception_4b/relu_1x1 <- inception_4b/1x1
I1215 23:11:05.926319 11477 net.cpp:327] inception_4b/relu_1x1 -> inception_4b/1x1 (in-place)
I1215 23:11:05.926327 11477 net.cpp:113] Setting up inception_4b/relu_1x1
I1215 23:11:05.926398 11477 net.cpp:120] Top shape: 32 160 14 14 (1003520)
I1215 23:11:05.926405 11477 layer_factory.hpp:74] Creating layer inception_4b/3x3_reduce
I1215 23:11:05.926417 11477 net.cpp:84] Creating Layer inception_4b/3x3_reduce
I1215 23:11:05.926422 11477 net.cpp:380] inception_4b/3x3_reduce <- inception_4a/output_inception_4a/output_0_split_2
I1215 23:11:05.926440 11477 net.cpp:338] inception_4b/3x3_reduce -> inception_4b/3x3_reduce
I1215 23:11:05.926460 11477 net.cpp:113] Setting up inception_4b/3x3_reduce
I1215 23:11:05.927892 11477 net.cpp:120] Top shape: 32 112 14 14 (702464)
I1215 23:11:05.927908 11477 layer_factory.hpp:74] Creating layer inception_4b/relu_3x3_reduce
I1215 23:11:05.927917 11477 net.cpp:84] Creating Layer inception_4b/relu_3x3_reduce
I1215 23:11:05.927923 11477 net.cpp:380] inception_4b/relu_3x3_reduce <- inception_4b/3x3_reduce
I1215 23:11:05.927930 11477 net.cpp:327] inception_4b/relu_3x3_reduce -> inception_4b/3x3_reduce (in-place)
I1215 23:11:05.927937 11477 net.cpp:113] Setting up inception_4b/relu_3x3_reduce
I1215 23:11:05.928004 11477 net.cpp:120] Top shape: 32 112 14 14 (702464)
I1215 23:11:05.928010 11477 layer_factory.hpp:74] Creating layer inception_4b/3x3
I1215 23:11:05.928020 11477 net.cpp:84] Creating Layer inception_4b/3x3
I1215 23:11:05.928025 11477 net.cpp:380] inception_4b/3x3 <- inception_4b/3x3_reduce
I1215 23:11:05.928031 11477 net.cpp:338] inception_4b/3x3 -> inception_4b/3x3
I1215 23:11:05.928040 11477 net.cpp:113] Setting up inception_4b/3x3
I1215 23:11:05.931313 11477 net.cpp:120] Top shape: 32 224 14 14 (1404928)
I1215 23:11:05.931331 11477 layer_factory.hpp:74] Creating layer inception_4b/relu_3x3
I1215 23:11:05.931342 11477 net.cpp:84] Creating Layer inception_4b/relu_3x3
I1215 23:11:05.931347 11477 net.cpp:380] inception_4b/relu_3x3 <- inception_4b/3x3
I1215 23:11:05.931354 11477 net.cpp:327] inception_4b/relu_3x3 -> inception_4b/3x3 (in-place)
I1215 23:11:05.931362 11477 net.cpp:113] Setting up inception_4b/relu_3x3
I1215 23:11:05.932204 11477 net.cpp:120] Top shape: 32 224 14 14 (1404928)
I1215 23:11:05.932224 11477 layer_factory.hpp:74] Creating layer inception_4b/5x5_reduce
I1215 23:11:05.932237 11477 net.cpp:84] Creating Layer inception_4b/5x5_reduce
I1215 23:11:05.932242 11477 net.cpp:380] inception_4b/5x5_reduce <- inception_4a/output_inception_4a/output_0_split_3
I1215 23:11:05.932252 11477 net.cpp:338] inception_4b/5x5_reduce -> inception_4b/5x5_reduce
I1215 23:11:05.932261 11477 net.cpp:113] Setting up inception_4b/5x5_reduce
I1215 23:11:05.933416 11477 net.cpp:120] Top shape: 32 24 14 14 (150528)
I1215 23:11:05.933434 11477 layer_factory.hpp:74] Creating layer inception_4b/relu_5x5_reduce
I1215 23:11:05.933440 11477 net.cpp:84] Creating Layer inception_4b/relu_5x5_reduce
I1215 23:11:05.933446 11477 net.cpp:380] inception_4b/relu_5x5_reduce <- inception_4b/5x5_reduce
I1215 23:11:05.933454 11477 net.cpp:327] inception_4b/relu_5x5_reduce -> inception_4b/5x5_reduce (in-place)
I1215 23:11:05.933462 11477 net.cpp:113] Setting up inception_4b/relu_5x5_reduce
I1215 23:11:05.933532 11477 net.cpp:120] Top shape: 32 24 14 14 (150528)
I1215 23:11:05.933538 11477 layer_factory.hpp:74] Creating layer inception_4b/5x5
I1215 23:11:05.933547 11477 net.cpp:84] Creating Layer inception_4b/5x5
I1215 23:11:05.933552 11477 net.cpp:380] inception_4b/5x5 <- inception_4b/5x5_reduce
I1215 23:11:05.933560 11477 net.cpp:338] inception_4b/5x5 -> inception_4b/5x5
I1215 23:11:05.933569 11477 net.cpp:113] Setting up inception_4b/5x5
I1215 23:11:05.941232 11477 net.cpp:120] Top shape: 32 64 14 14 (401408)
I1215 23:11:05.941249 11477 layer_factory.hpp:74] Creating layer inception_4b/relu_5x5
I1215 23:11:05.941259 11477 net.cpp:84] Creating Layer inception_4b/relu_5x5
I1215 23:11:05.941265 11477 net.cpp:380] inception_4b/relu_5x5 <- inception_4b/5x5
I1215 23:11:05.941272 11477 net.cpp:327] inception_4b/relu_5x5 -> inception_4b/5x5 (in-place)
I1215 23:11:05.941279 11477 net.cpp:113] Setting up inception_4b/relu_5x5
I1215 23:11:05.941349 11477 net.cpp:120] Top shape: 32 64 14 14 (401408)
I1215 23:11:05.941365 11477 layer_factory.hpp:74] Creating layer inception_4b/pool
I1215 23:11:05.941372 11477 layer_factory.cpp:56] CUDNN does not support padding or multiple tops. Using Caffe's own pooling layer.
I1215 23:11:05.941388 11477 net.cpp:84] Creating Layer inception_4b/pool
I1215 23:11:05.941395 11477 net.cpp:380] inception_4b/pool <- inception_4a/output_inception_4a/output_0_split_4
I1215 23:11:05.941413 11477 net.cpp:338] inception_4b/pool -> inception_4b/pool
I1215 23:11:05.941436 11477 net.cpp:113] Setting up inception_4b/pool
I1215 23:11:05.941447 11477 net.cpp:120] Top shape: 32 512 14 14 (3211264)
I1215 23:11:05.941452 11477 layer_factory.hpp:74] Creating layer inception_4b/pool_proj
I1215 23:11:05.941462 11477 net.cpp:84] Creating Layer inception_4b/pool_proj
I1215 23:11:05.941467 11477 net.cpp:380] inception_4b/pool_proj <- inception_4b/pool
I1215 23:11:05.941473 11477 net.cpp:338] inception_4b/pool_proj -> inception_4b/pool_proj
I1215 23:11:05.941480 11477 net.cpp:113] Setting up inception_4b/pool_proj
I1215 23:11:05.942335 11477 net.cpp:120] Top shape: 32 64 14 14 (401408)
I1215 23:11:05.942351 11477 layer_factory.hpp:74] Creating layer inception_4b/relu_pool_proj
I1215 23:11:05.942359 11477 net.cpp:84] Creating Layer inception_4b/relu_pool_proj
I1215 23:11:05.942366 11477 net.cpp:380] inception_4b/relu_pool_proj <- inception_4b/pool_proj
I1215 23:11:05.942373 11477 net.cpp:327] inception_4b/relu_pool_proj -> inception_4b/pool_proj (in-place)
I1215 23:11:05.942380 11477 net.cpp:113] Setting up inception_4b/relu_pool_proj
I1215 23:11:05.942858 11477 net.cpp:120] Top shape: 32 64 14 14 (401408)
I1215 23:11:05.942869 11477 layer_factory.hpp:74] Creating layer inception_4b/output
I1215 23:11:05.942878 11477 net.cpp:84] Creating Layer inception_4b/output
I1215 23:11:05.942884 11477 net.cpp:380] inception_4b/output <- inception_4b/1x1
I1215 23:11:05.942890 11477 net.cpp:380] inception_4b/output <- inception_4b/3x3
I1215 23:11:05.942896 11477 net.cpp:380] inception_4b/output <- inception_4b/5x5
I1215 23:11:05.942901 11477 net.cpp:380] inception_4b/output <- inception_4b/pool_proj
I1215 23:11:05.942908 11477 net.cpp:338] inception_4b/output -> inception_4b/output
I1215 23:11:05.942915 11477 net.cpp:113] Setting up inception_4b/output
I1215 23:11:05.942924 11477 net.cpp:120] Top shape: 32 512 14 14 (3211264)
I1215 23:11:05.942929 11477 layer_factory.hpp:74] Creating layer inception_4b/output_inception_4b/output_0_split
I1215 23:11:05.942941 11477 net.cpp:84] Creating Layer inception_4b/output_inception_4b/output_0_split
I1215 23:11:05.942947 11477 net.cpp:380] inception_4b/output_inception_4b/output_0_split <- inception_4b/output
I1215 23:11:05.942953 11477 net.cpp:338] inception_4b/output_inception_4b/output_0_split -> inception_4b/output_inception_4b/output_0_split_0
I1215 23:11:05.942963 11477 net.cpp:338] inception_4b/output_inception_4b/output_0_split -> inception_4b/output_inception_4b/output_0_split_1
I1215 23:11:05.942970 11477 net.cpp:338] inception_4b/output_inception_4b/output_0_split -> inception_4b/output_inception_4b/output_0_split_2
I1215 23:11:05.942978 11477 net.cpp:338] inception_4b/output_inception_4b/output_0_split -> inception_4b/output_inception_4b/output_0_split_3
I1215 23:11:05.942984 11477 net.cpp:113] Setting up inception_4b/output_inception_4b/output_0_split
I1215 23:11:05.942992 11477 net.cpp:120] Top shape: 32 512 14 14 (3211264)
I1215 23:11:05.942997 11477 net.cpp:120] Top shape: 32 512 14 14 (3211264)
I1215 23:11:05.943002 11477 net.cpp:120] Top shape: 32 512 14 14 (3211264)
I1215 23:11:05.943007 11477 net.cpp:120] Top shape: 32 512 14 14 (3211264)
I1215 23:11:05.943011 11477 layer_factory.hpp:74] Creating layer inception_4c/1x1
I1215 23:11:05.943020 11477 net.cpp:84] Creating Layer inception_4c/1x1
I1215 23:11:05.943025 11477 net.cpp:380] inception_4c/1x1 <- inception_4b/output_inception_4b/output_0_split_0
I1215 23:11:05.943032 11477 net.cpp:338] inception_4c/1x1 -> inception_4c/1x1
I1215 23:11:05.943039 11477 net.cpp:113] Setting up inception_4c/1x1
I1215 23:11:05.944270 11477 net.cpp:120] Top shape: 32 128 14 14 (802816)
I1215 23:11:05.944286 11477 layer_factory.hpp:74] Creating layer inception_4c/relu_1x1
I1215 23:11:05.944296 11477 net.cpp:84] Creating Layer inception_4c/relu_1x1
I1215 23:11:05.944303 11477 net.cpp:380] inception_4c/relu_1x1 <- inception_4c/1x1
I1215 23:11:05.944308 11477 net.cpp:327] inception_4c/relu_1x1 -> inception_4c/1x1 (in-place)
I1215 23:11:05.944327 11477 net.cpp:113] Setting up inception_4c/relu_1x1
I1215 23:11:05.944396 11477 net.cpp:120] Top shape: 32 128 14 14 (802816)
I1215 23:11:05.944401 11477 layer_factory.hpp:74] Creating layer inception_4c/3x3_reduce
I1215 23:11:05.944411 11477 net.cpp:84] Creating Layer inception_4c/3x3_reduce
I1215 23:11:05.944416 11477 net.cpp:380] inception_4c/3x3_reduce <- inception_4b/output_inception_4b/output_0_split_1
I1215 23:11:05.944422 11477 net.cpp:338] inception_4c/3x3_reduce -> inception_4c/3x3_reduce
I1215 23:11:05.944430 11477 net.cpp:113] Setting up inception_4c/3x3_reduce
I1215 23:11:05.945796 11477 net.cpp:120] Top shape: 32 128 14 14 (802816)
I1215 23:11:05.945812 11477 layer_factory.hpp:74] Creating layer inception_4c/relu_3x3_reduce
I1215 23:11:05.945822 11477 net.cpp:84] Creating Layer inception_4c/relu_3x3_reduce
I1215 23:11:05.945827 11477 net.cpp:380] inception_4c/relu_3x3_reduce <- inception_4c/3x3_reduce
I1215 23:11:05.945834 11477 net.cpp:327] inception_4c/relu_3x3_reduce -> inception_4c/3x3_reduce (in-place)
I1215 23:11:05.945842 11477 net.cpp:113] Setting up inception_4c/relu_3x3_reduce
I1215 23:11:05.945914 11477 net.cpp:120] Top shape: 32 128 14 14 (802816)
I1215 23:11:05.945926 11477 layer_factory.hpp:74] Creating layer inception_4c/3x3
I1215 23:11:05.945937 11477 net.cpp:84] Creating Layer inception_4c/3x3
I1215 23:11:05.945942 11477 net.cpp:380] inception_4c/3x3 <- inception_4c/3x3_reduce
I1215 23:11:05.945951 11477 net.cpp:338] inception_4c/3x3 -> inception_4c/3x3
I1215 23:11:05.945960 11477 net.cpp:113] Setting up inception_4c/3x3
I1215 23:11:05.950117 11477 net.cpp:120] Top shape: 32 256 14 14 (1605632)
I1215 23:11:05.950147 11477 layer_factory.hpp:74] Creating layer inception_4c/relu_3x3
I1215 23:11:05.950158 11477 net.cpp:84] Creating Layer inception_4c/relu_3x3
I1215 23:11:05.950163 11477 net.cpp:380] inception_4c/relu_3x3 <- inception_4c/3x3
I1215 23:11:05.950171 11477 net.cpp:327] inception_4c/relu_3x3 -> inception_4c/3x3 (in-place)
I1215 23:11:05.950178 11477 net.cpp:113] Setting up inception_4c/relu_3x3
I1215 23:11:05.950247 11477 net.cpp:120] Top shape: 32 256 14 14 (1605632)
I1215 23:11:05.950253 11477 layer_factory.hpp:74] Creating layer inception_4c/5x5_reduce
I1215 23:11:05.950263 11477 net.cpp:84] Creating Layer inception_4c/5x5_reduce
I1215 23:11:05.950268 11477 net.cpp:380] inception_4c/5x5_reduce <- inception_4b/output_inception_4b/output_0_split_2
I1215 23:11:05.950278 11477 net.cpp:338] inception_4c/5x5_reduce -> inception_4c/5x5_reduce
I1215 23:11:05.950287 11477 net.cpp:113] Setting up inception_4c/5x5_reduce
I1215 23:11:05.951246 11477 net.cpp:120] Top shape: 32 24 14 14 (150528)
I1215 23:11:05.951261 11477 layer_factory.hpp:74] Creating layer inception_4c/relu_5x5_reduce
I1215 23:11:05.951268 11477 net.cpp:84] Creating Layer inception_4c/relu_5x5_reduce
I1215 23:11:05.951274 11477 net.cpp:380] inception_4c/relu_5x5_reduce <- inception_4c/5x5_reduce
I1215 23:11:05.951283 11477 net.cpp:327] inception_4c/relu_5x5_reduce -> inception_4c/5x5_reduce (in-place)
I1215 23:11:05.951292 11477 net.cpp:113] Setting up inception_4c/relu_5x5_reduce
I1215 23:11:05.951987 11477 net.cpp:120] Top shape: 32 24 14 14 (150528)
I1215 23:11:05.951999 11477 layer_factory.hpp:74] Creating layer inception_4c/5x5
I1215 23:11:05.952019 11477 net.cpp:84] Creating Layer inception_4c/5x5
I1215 23:11:05.952026 11477 net.cpp:380] inception_4c/5x5 <- inception_4c/5x5_reduce
I1215 23:11:05.952033 11477 net.cpp:338] inception_4c/5x5 -> inception_4c/5x5
I1215 23:11:05.952042 11477 net.cpp:113] Setting up inception_4c/5x5
I1215 23:11:05.953291 11477 net.cpp:120] Top shape: 32 64 14 14 (401408)
I1215 23:11:05.953308 11477 layer_factory.hpp:74] Creating layer inception_4c/relu_5x5
I1215 23:11:05.953315 11477 net.cpp:84] Creating Layer inception_4c/relu_5x5
I1215 23:11:05.953321 11477 net.cpp:380] inception_4c/relu_5x5 <- inception_4c/5x5
I1215 23:11:05.953328 11477 net.cpp:327] inception_4c/relu_5x5 -> inception_4c/5x5 (in-place)
I1215 23:11:05.953342 11477 net.cpp:113] Setting up inception_4c/relu_5x5
I1215 23:11:05.953425 11477 net.cpp:120] Top shape: 32 64 14 14 (401408)
I1215 23:11:05.953433 11477 layer_factory.hpp:74] Creating layer inception_4c/pool
I1215 23:11:05.953438 11477 layer_factory.cpp:56] CUDNN does not support padding or multiple tops. Using Caffe's own pooling layer.
I1215 23:11:05.953445 11477 net.cpp:84] Creating Layer inception_4c/pool
I1215 23:11:05.953450 11477 net.cpp:380] inception_4c/pool <- inception_4b/output_inception_4b/output_0_split_3
I1215 23:11:05.953457 11477 net.cpp:338] inception_4c/pool -> inception_4c/pool
I1215 23:11:05.953465 11477 net.cpp:113] Setting up inception_4c/pool
I1215 23:11:05.953474 11477 net.cpp:120] Top shape: 32 512 14 14 (3211264)
I1215 23:11:05.953479 11477 layer_factory.hpp:74] Creating layer inception_4c/pool_proj
I1215 23:11:05.953487 11477 net.cpp:84] Creating Layer inception_4c/pool_proj
I1215 23:11:05.953492 11477 net.cpp:380] inception_4c/pool_proj <- inception_4c/pool
I1215 23:11:05.953500 11477 net.cpp:338] inception_4c/pool_proj -> inception_4c/pool_proj
I1215 23:11:05.953508 11477 net.cpp:113] Setting up inception_4c/pool_proj
I1215 23:11:05.954654 11477 net.cpp:120] Top shape: 32 64 14 14 (401408)
I1215 23:11:05.954670 11477 layer_factory.hpp:74] Creating layer inception_4c/relu_pool_proj
I1215 23:11:05.954680 11477 net.cpp:84] Creating Layer inception_4c/relu_pool_proj
I1215 23:11:05.954686 11477 net.cpp:380] inception_4c/relu_pool_proj <- inception_4c/pool_proj
I1215 23:11:05.954692 11477 net.cpp:327] inception_4c/relu_pool_proj -> inception_4c/pool_proj (in-place)
I1215 23:11:05.954700 11477 net.cpp:113] Setting up inception_4c/relu_pool_proj
I1215 23:11:05.954769 11477 net.cpp:120] Top shape: 32 64 14 14 (401408)
I1215 23:11:05.954783 11477 layer_factory.hpp:74] Creating layer inception_4c/output
I1215 23:11:05.954792 11477 net.cpp:84] Creating Layer inception_4c/output
I1215 23:11:05.954797 11477 net.cpp:380] inception_4c/output <- inception_4c/1x1
I1215 23:11:05.954802 11477 net.cpp:380] inception_4c/output <- inception_4c/3x3
I1215 23:11:05.954808 11477 net.cpp:380] inception_4c/output <- inception_4c/5x5
I1215 23:11:05.954813 11477 net.cpp:380] inception_4c/output <- inception_4c/pool_proj
I1215 23:11:05.954820 11477 net.cpp:338] inception_4c/output -> inception_4c/output
I1215 23:11:05.954828 11477 net.cpp:113] Setting up inception_4c/output
I1215 23:11:05.954836 11477 net.cpp:120] Top shape: 32 512 14 14 (3211264)
I1215 23:11:05.954840 11477 layer_factory.hpp:74] Creating layer inception_4c/output_inception_4c/output_0_split
I1215 23:11:05.954846 11477 net.cpp:84] Creating Layer inception_4c/output_inception_4c/output_0_split
I1215 23:11:05.954850 11477 net.cpp:380] inception_4c/output_inception_4c/output_0_split <- inception_4c/output
I1215 23:11:05.954859 11477 net.cpp:338] inception_4c/output_inception_4c/output_0_split -> inception_4c/output_inception_4c/output_0_split_0
I1215 23:11:05.954865 11477 net.cpp:338] inception_4c/output_inception_4c/output_0_split -> inception_4c/output_inception_4c/output_0_split_1
I1215 23:11:05.954872 11477 net.cpp:338] inception_4c/output_inception_4c/output_0_split -> inception_4c/output_inception_4c/output_0_split_2
I1215 23:11:05.954879 11477 net.cpp:338] inception_4c/output_inception_4c/output_0_split -> inception_4c/output_inception_4c/output_0_split_3
I1215 23:11:05.954885 11477 net.cpp:113] Setting up inception_4c/output_inception_4c/output_0_split
I1215 23:11:05.954893 11477 net.cpp:120] Top shape: 32 512 14 14 (3211264)
I1215 23:11:05.954898 11477 net.cpp:120] Top shape: 32 512 14 14 (3211264)
I1215 23:11:05.954903 11477 net.cpp:120] Top shape: 32 512 14 14 (3211264)
I1215 23:11:05.954908 11477 net.cpp:120] Top shape: 32 512 14 14 (3211264)
I1215 23:11:05.954912 11477 layer_factory.hpp:74] Creating layer inception_4d/1x1
I1215 23:11:05.954921 11477 net.cpp:84] Creating Layer inception_4d/1x1
I1215 23:11:05.954926 11477 net.cpp:380] inception_4d/1x1 <- inception_4c/output_inception_4c/output_0_split_0
I1215 23:11:05.954932 11477 net.cpp:338] inception_4d/1x1 -> inception_4d/1x1
I1215 23:11:05.954949 11477 net.cpp:113] Setting up inception_4d/1x1
I1215 23:11:05.956471 11477 net.cpp:120] Top shape: 32 112 14 14 (702464)
I1215 23:11:05.956486 11477 layer_factory.hpp:74] Creating layer inception_4d/relu_1x1
I1215 23:11:05.956496 11477 net.cpp:84] Creating Layer inception_4d/relu_1x1
I1215 23:11:05.956501 11477 net.cpp:380] inception_4d/relu_1x1 <- inception_4d/1x1
I1215 23:11:05.956508 11477 net.cpp:327] inception_4d/relu_1x1 -> inception_4d/1x1 (in-place)
I1215 23:11:05.956516 11477 net.cpp:113] Setting up inception_4d/relu_1x1
I1215 23:11:05.956583 11477 net.cpp:120] Top shape: 32 112 14 14 (702464)
I1215 23:11:05.956595 11477 layer_factory.hpp:74] Creating layer inception_4d/3x3_reduce
I1215 23:11:05.956605 11477 net.cpp:84] Creating Layer inception_4d/3x3_reduce
I1215 23:11:05.956610 11477 net.cpp:380] inception_4d/3x3_reduce <- inception_4c/output_inception_4c/output_0_split_1
I1215 23:11:05.956617 11477 net.cpp:338] inception_4d/3x3_reduce -> inception_4d/3x3_reduce
I1215 23:11:05.956627 11477 net.cpp:113] Setting up inception_4d/3x3_reduce
I1215 23:11:05.958294 11477 net.cpp:120] Top shape: 32 144 14 14 (903168)
I1215 23:11:05.958312 11477 layer_factory.hpp:74] Creating layer inception_4d/relu_3x3_reduce
I1215 23:11:05.958317 11477 net.cpp:84] Creating Layer inception_4d/relu_3x3_reduce
I1215 23:11:05.958323 11477 net.cpp:380] inception_4d/relu_3x3_reduce <- inception_4d/3x3_reduce
I1215 23:11:05.958331 11477 net.cpp:327] inception_4d/relu_3x3_reduce -> inception_4d/3x3_reduce (in-place)
I1215 23:11:05.958339 11477 net.cpp:113] Setting up inception_4d/relu_3x3_reduce
I1215 23:11:05.958987 11477 net.cpp:120] Top shape: 32 144 14 14 (903168)
I1215 23:11:05.958998 11477 layer_factory.hpp:74] Creating layer inception_4d/3x3
I1215 23:11:05.959010 11477 net.cpp:84] Creating Layer inception_4d/3x3
I1215 23:11:05.959017 11477 net.cpp:380] inception_4d/3x3 <- inception_4d/3x3_reduce
I1215 23:11:05.959025 11477 net.cpp:338] inception_4d/3x3 -> inception_4d/3x3
I1215 23:11:05.959034 11477 net.cpp:113] Setting up inception_4d/3x3
I1215 23:11:05.963940 11477 net.cpp:120] Top shape: 32 288 14 14 (1806336)
I1215 23:11:05.963958 11477 layer_factory.hpp:74] Creating layer inception_4d/relu_3x3
I1215 23:11:05.963964 11477 net.cpp:84] Creating Layer inception_4d/relu_3x3
I1215 23:11:05.963970 11477 net.cpp:380] inception_4d/relu_3x3 <- inception_4d/3x3
I1215 23:11:05.963976 11477 net.cpp:327] inception_4d/relu_3x3 -> inception_4d/3x3 (in-place)
I1215 23:11:05.963984 11477 net.cpp:113] Setting up inception_4d/relu_3x3
I1215 23:11:05.964053 11477 net.cpp:120] Top shape: 32 288 14 14 (1806336)
I1215 23:11:05.964059 11477 layer_factory.hpp:74] Creating layer inception_4d/5x5_reduce
I1215 23:11:05.964076 11477 net.cpp:84] Creating Layer inception_4d/5x5_reduce
I1215 23:11:05.964083 11477 net.cpp:380] inception_4d/5x5_reduce <- inception_4c/output_inception_4c/output_0_split_2
I1215 23:11:05.964093 11477 net.cpp:338] inception_4d/5x5_reduce -> inception_4d/5x5_reduce
I1215 23:11:05.964102 11477 net.cpp:113] Setting up inception_4d/5x5_reduce
I1215 23:11:05.964974 11477 net.cpp:120] Top shape: 32 32 14 14 (200704)
I1215 23:11:05.964998 11477 layer_factory.hpp:74] Creating layer inception_4d/relu_5x5_reduce
I1215 23:11:05.965004 11477 net.cpp:84] Creating Layer inception_4d/relu_5x5_reduce
I1215 23:11:05.965010 11477 net.cpp:380] inception_4d/relu_5x5_reduce <- inception_4d/5x5_reduce
I1215 23:11:05.965018 11477 net.cpp:327] inception_4d/relu_5x5_reduce -> inception_4d/5x5_reduce (in-place)
I1215 23:11:05.965024 11477 net.cpp:113] Setting up inception_4d/relu_5x5_reduce
I1215 23:11:05.965103 11477 net.cpp:120] Top shape: 32 32 14 14 (200704)
I1215 23:11:05.965111 11477 layer_factory.hpp:74] Creating layer inception_4d/5x5
I1215 23:11:05.965121 11477 net.cpp:84] Creating Layer inception_4d/5x5
I1215 23:11:05.965126 11477 net.cpp:380] inception_4d/5x5 <- inception_4d/5x5_reduce
I1215 23:11:05.965136 11477 net.cpp:338] inception_4d/5x5 -> inception_4d/5x5
I1215 23:11:05.965148 11477 net.cpp:113] Setting up inception_4d/5x5
I1215 23:11:05.982549 11477 net.cpp:120] Top shape: 32 64 14 14 (401408)
I1215 23:11:05.982583 11477 layer_factory.hpp:74] Creating layer inception_4d/relu_5x5
I1215 23:11:05.982594 11477 net.cpp:84] Creating Layer inception_4d/relu_5x5
I1215 23:11:05.982601 11477 net.cpp:380] inception_4d/relu_5x5 <- inception_4d/5x5
I1215 23:11:05.982609 11477 net.cpp:327] inception_4d/relu_5x5 -> inception_4d/5x5 (in-place)
I1215 23:11:05.982625 11477 net.cpp:113] Setting up inception_4d/relu_5x5
I1215 23:11:05.982700 11477 net.cpp:120] Top shape: 32 64 14 14 (401408)
I1215 23:11:05.982707 11477 layer_factory.hpp:74] Creating layer inception_4d/pool
I1215 23:11:05.982714 11477 layer_factory.cpp:56] CUDNN does not support padding or multiple tops. Using Caffe's own pooling layer.
I1215 23:11:05.982724 11477 net.cpp:84] Creating Layer inception_4d/pool
I1215 23:11:05.982730 11477 net.cpp:380] inception_4d/pool <- inception_4c/output_inception_4c/output_0_split_3
I1215 23:11:05.982738 11477 net.cpp:338] inception_4d/pool -> inception_4d/pool
I1215 23:11:05.982748 11477 net.cpp:113] Setting up inception_4d/pool
I1215 23:11:05.982758 11477 net.cpp:120] Top shape: 32 512 14 14 (3211264)
I1215 23:11:05.982764 11477 layer_factory.hpp:74] Creating layer inception_4d/pool_proj
I1215 23:11:05.982791 11477 net.cpp:84] Creating Layer inception_4d/pool_proj
I1215 23:11:05.982797 11477 net.cpp:380] inception_4d/pool_proj <- inception_4d/pool
I1215 23:11:05.982803 11477 net.cpp:338] inception_4d/pool_proj -> inception_4d/pool_proj
I1215 23:11:05.982812 11477 net.cpp:113] Setting up inception_4d/pool_proj
I1215 23:11:05.991703 11477 net.cpp:120] Top shape: 32 64 14 14 (401408)
I1215 23:11:05.991724 11477 layer_factory.hpp:74] Creating layer inception_4d/relu_pool_proj
I1215 23:11:05.991731 11477 net.cpp:84] Creating Layer inception_4d/relu_pool_proj
I1215 23:11:05.991736 11477 net.cpp:380] inception_4d/relu_pool_proj <- inception_4d/pool_proj
I1215 23:11:05.991744 11477 net.cpp:327] inception_4d/relu_pool_proj -> inception_4d/pool_proj (in-place)
I1215 23:11:05.991751 11477 net.cpp:113] Setting up inception_4d/relu_pool_proj
I1215 23:11:05.992300 11477 net.cpp:120] Top shape: 32 64 14 14 (401408)
I1215 23:11:05.992311 11477 layer_factory.hpp:74] Creating layer inception_4d/output
I1215 23:11:05.992321 11477 net.cpp:84] Creating Layer inception_4d/output
I1215 23:11:05.992326 11477 net.cpp:380] inception_4d/output <- inception_4d/1x1
I1215 23:11:05.992332 11477 net.cpp:380] inception_4d/output <- inception_4d/3x3
I1215 23:11:05.992337 11477 net.cpp:380] inception_4d/output <- inception_4d/5x5
I1215 23:11:05.992342 11477 net.cpp:380] inception_4d/output <- inception_4d/pool_proj
I1215 23:11:05.992348 11477 net.cpp:338] inception_4d/output -> inception_4d/output
I1215 23:11:05.992355 11477 net.cpp:113] Setting up inception_4d/output
I1215 23:11:05.992364 11477 net.cpp:120] Top shape: 32 528 14 14 (3311616)
I1215 23:11:05.992368 11477 layer_factory.hpp:74] Creating layer inception_4d/output_inception_4d/output_0_split
I1215 23:11:05.992377 11477 net.cpp:84] Creating Layer inception_4d/output_inception_4d/output_0_split
I1215 23:11:05.992382 11477 net.cpp:380] inception_4d/output_inception_4d/output_0_split <- inception_4d/output
I1215 23:11:05.992388 11477 net.cpp:338] inception_4d/output_inception_4d/output_0_split -> inception_4d/output_inception_4d/output_0_split_0
I1215 23:11:05.992394 11477 net.cpp:338] inception_4d/output_inception_4d/output_0_split -> inception_4d/output_inception_4d/output_0_split_1
I1215 23:11:05.992401 11477 net.cpp:338] inception_4d/output_inception_4d/output_0_split -> inception_4d/output_inception_4d/output_0_split_2
I1215 23:11:05.992408 11477 net.cpp:338] inception_4d/output_inception_4d/output_0_split -> inception_4d/output_inception_4d/output_0_split_3
I1215 23:11:05.992415 11477 net.cpp:338] inception_4d/output_inception_4d/output_0_split -> inception_4d/output_inception_4d/output_0_split_4
I1215 23:11:05.992421 11477 net.cpp:113] Setting up inception_4d/output_inception_4d/output_0_split
I1215 23:11:05.992439 11477 net.cpp:120] Top shape: 32 528 14 14 (3311616)
I1215 23:11:05.992452 11477 net.cpp:120] Top shape: 32 528 14 14 (3311616)
I1215 23:11:05.992456 11477 net.cpp:120] Top shape: 32 528 14 14 (3311616)
I1215 23:11:05.992461 11477 net.cpp:120] Top shape: 32 528 14 14 (3311616)
I1215 23:11:05.992465 11477 net.cpp:120] Top shape: 32 528 14 14 (3311616)
I1215 23:11:05.992470 11477 layer_factory.hpp:74] Creating layer loss2/ave_pool
I1215 23:11:05.992475 11477 net.cpp:84] Creating Layer loss2/ave_pool
I1215 23:11:05.992480 11477 net.cpp:380] loss2/ave_pool <- inception_4d/output_inception_4d/output_0_split_0
I1215 23:11:05.992488 11477 net.cpp:338] loss2/ave_pool -> loss2/ave_pool
I1215 23:11:05.992496 11477 net.cpp:113] Setting up loss2/ave_pool
I1215 23:11:05.992564 11477 net.cpp:120] Top shape: 32 528 4 4 (270336)
I1215 23:11:05.992571 11477 layer_factory.hpp:74] Creating layer loss2/conv
I1215 23:11:05.992588 11477 net.cpp:84] Creating Layer loss2/conv
I1215 23:11:05.992594 11477 net.cpp:380] loss2/conv <- loss2/ave_pool
I1215 23:11:05.992600 11477 net.cpp:338] loss2/conv -> loss2/conv
I1215 23:11:05.992609 11477 net.cpp:113] Setting up loss2/conv
I1215 23:11:05.993752 11477 net.cpp:120] Top shape: 32 128 4 4 (65536)
I1215 23:11:05.993769 11477 layer_factory.hpp:74] Creating layer loss2/relu_conv
I1215 23:11:05.993778 11477 net.cpp:84] Creating Layer loss2/relu_conv
I1215 23:11:05.993783 11477 net.cpp:380] loss2/relu_conv <- loss2/conv
I1215 23:11:05.993789 11477 net.cpp:327] loss2/relu_conv -> loss2/conv (in-place)
I1215 23:11:05.993796 11477 net.cpp:113] Setting up loss2/relu_conv
I1215 23:11:05.993863 11477 net.cpp:120] Top shape: 32 128 4 4 (65536)
I1215 23:11:05.993868 11477 layer_factory.hpp:74] Creating layer loss2/fc
I1215 23:11:05.993878 11477 net.cpp:84] Creating Layer loss2/fc
I1215 23:11:05.993882 11477 net.cpp:380] loss2/fc <- loss2/conv
I1215 23:11:05.993891 11477 net.cpp:338] loss2/fc -> loss2/fc
I1215 23:11:05.993898 11477 net.cpp:113] Setting up loss2/fc
I1215 23:11:06.014849 11477 net.cpp:120] Top shape: 32 1024 (32768)
I1215 23:11:06.014869 11477 layer_factory.hpp:74] Creating layer loss2/relu_fc
I1215 23:11:06.014878 11477 net.cpp:84] Creating Layer loss2/relu_fc
I1215 23:11:06.014883 11477 net.cpp:380] loss2/relu_fc <- loss2/fc
I1215 23:11:06.014890 11477 net.cpp:327] loss2/relu_fc -> loss2/fc (in-place)
I1215 23:11:06.014897 11477 net.cpp:113] Setting up loss2/relu_fc
I1215 23:11:06.015528 11477 net.cpp:120] Top shape: 32 1024 (32768)
I1215 23:11:06.015542 11477 layer_factory.hpp:74] Creating layer loss2/drop_fc
I1215 23:11:06.015558 11477 net.cpp:84] Creating Layer loss2/drop_fc
I1215 23:11:06.015563 11477 net.cpp:380] loss2/drop_fc <- loss2/fc
I1215 23:11:06.015571 11477 net.cpp:327] loss2/drop_fc -> loss2/fc (in-place)
I1215 23:11:06.015579 11477 net.cpp:113] Setting up loss2/drop_fc
I1215 23:11:06.015588 11477 net.cpp:120] Top shape: 32 1024 (32768)
I1215 23:11:06.015591 11477 layer_factory.hpp:74] Creating layer loss2/classifier_kaggle
I1215 23:11:06.015600 11477 net.cpp:84] Creating Layer loss2/classifier_kaggle
I1215 23:11:06.015605 11477 net.cpp:380] loss2/classifier_kaggle <- loss2/fc
I1215 23:11:06.015611 11477 net.cpp:338] loss2/classifier_kaggle -> loss2/classifier_kaggle
I1215 23:11:06.015620 11477 net.cpp:113] Setting up loss2/classifier_kaggle
I1215 23:11:06.020521 11477 net.cpp:120] Top shape: 32 447 (14304)
I1215 23:11:06.020534 11477 layer_factory.hpp:74] Creating layer loss2/loss
I1215 23:11:06.020545 11477 net.cpp:84] Creating Layer loss2/loss
I1215 23:11:06.020550 11477 net.cpp:380] loss2/loss <- loss2/classifier_kaggle
I1215 23:11:06.020556 11477 net.cpp:380] loss2/loss <- label_data_1_split_1
I1215 23:11:06.020562 11477 net.cpp:338] loss2/loss -> loss2/loss1
I1215 23:11:06.020570 11477 net.cpp:113] Setting up loss2/loss
I1215 23:11:06.020576 11477 layer_factory.hpp:74] Creating layer loss2/loss
I1215 23:11:06.020694 11477 net.cpp:120] Top shape: (1)
I1215 23:11:06.020702 11477 net.cpp:122]     with loss weight 0.3
I1215 23:11:06.020720 11477 layer_factory.hpp:74] Creating layer inception_4e/1x1
I1215 23:11:06.020747 11477 net.cpp:84] Creating Layer inception_4e/1x1
I1215 23:11:06.020753 11477 net.cpp:380] inception_4e/1x1 <- inception_4d/output_inception_4d/output_0_split_1
I1215 23:11:06.020761 11477 net.cpp:338] inception_4e/1x1 -> inception_4e/1x1
I1215 23:11:06.020768 11477 net.cpp:113] Setting up inception_4e/1x1
I1215 23:11:06.023025 11477 net.cpp:120] Top shape: 32 256 14 14 (1605632)
I1215 23:11:06.023042 11477 layer_factory.hpp:74] Creating layer inception_4e/relu_1x1
I1215 23:11:06.023061 11477 net.cpp:84] Creating Layer inception_4e/relu_1x1
I1215 23:11:06.023066 11477 net.cpp:380] inception_4e/relu_1x1 <- inception_4e/1x1
I1215 23:11:06.023072 11477 net.cpp:327] inception_4e/relu_1x1 -> inception_4e/1x1 (in-place)
I1215 23:11:06.023079 11477 net.cpp:113] Setting up inception_4e/relu_1x1
I1215 23:11:06.023143 11477 net.cpp:120] Top shape: 32 256 14 14 (1605632)
I1215 23:11:06.023150 11477 layer_factory.hpp:74] Creating layer inception_4e/3x3_reduce
I1215 23:11:06.023159 11477 net.cpp:84] Creating Layer inception_4e/3x3_reduce
I1215 23:11:06.023164 11477 net.cpp:380] inception_4e/3x3_reduce <- inception_4d/output_inception_4d/output_0_split_2
I1215 23:11:06.023171 11477 net.cpp:338] inception_4e/3x3_reduce -> inception_4e/3x3_reduce
I1215 23:11:06.023180 11477 net.cpp:113] Setting up inception_4e/3x3_reduce
I1215 23:11:06.025915 11477 net.cpp:120] Top shape: 32 160 14 14 (1003520)
I1215 23:11:06.025954 11477 layer_factory.hpp:74] Creating layer inception_4e/relu_3x3_reduce
I1215 23:11:06.025970 11477 net.cpp:84] Creating Layer inception_4e/relu_3x3_reduce
I1215 23:11:06.025981 11477 net.cpp:380] inception_4e/relu_3x3_reduce <- inception_4e/3x3_reduce
I1215 23:11:06.025993 11477 net.cpp:327] inception_4e/relu_3x3_reduce -> inception_4e/3x3_reduce (in-place)
I1215 23:11:06.026007 11477 net.cpp:113] Setting up inception_4e/relu_3x3_reduce
I1215 23:11:06.026132 11477 net.cpp:120] Top shape: 32 160 14 14 (1003520)
I1215 23:11:06.026144 11477 layer_factory.hpp:74] Creating layer inception_4e/3x3
I1215 23:11:06.026173 11477 net.cpp:84] Creating Layer inception_4e/3x3
I1215 23:11:06.026185 11477 net.cpp:380] inception_4e/3x3 <- inception_4e/3x3_reduce
I1215 23:11:06.026197 11477 net.cpp:338] inception_4e/3x3 -> inception_4e/3x3
I1215 23:11:06.026212 11477 net.cpp:113] Setting up inception_4e/3x3
I1215 23:11:06.040215 11477 net.cpp:120] Top shape: 32 320 14 14 (2007040)
I1215 23:11:06.040248 11477 layer_factory.hpp:74] Creating layer inception_4e/relu_3x3
I1215 23:11:06.040264 11477 net.cpp:84] Creating Layer inception_4e/relu_3x3
I1215 23:11:06.040273 11477 net.cpp:380] inception_4e/relu_3x3 <- inception_4e/3x3
I1215 23:11:06.040285 11477 net.cpp:327] inception_4e/relu_3x3 -> inception_4e/3x3 (in-place)
I1215 23:11:06.040298 11477 net.cpp:113] Setting up inception_4e/relu_3x3
I1215 23:11:06.040937 11477 net.cpp:120] Top shape: 32 320 14 14 (2007040)
I1215 23:11:06.040956 11477 layer_factory.hpp:74] Creating layer inception_4e/5x5_reduce
I1215 23:11:06.040976 11477 net.cpp:84] Creating Layer inception_4e/5x5_reduce
I1215 23:11:06.040984 11477 net.cpp:380] inception_4e/5x5_reduce <- inception_4d/output_inception_4d/output_0_split_3
I1215 23:11:06.040997 11477 net.cpp:338] inception_4e/5x5_reduce -> inception_4e/5x5_reduce
I1215 23:11:06.041012 11477 net.cpp:113] Setting up inception_4e/5x5_reduce
I1215 23:11:06.042264 11477 net.cpp:120] Top shape: 32 32 14 14 (200704)
I1215 23:11:06.042290 11477 layer_factory.hpp:74] Creating layer inception_4e/relu_5x5_reduce
I1215 23:11:06.042302 11477 net.cpp:84] Creating Layer inception_4e/relu_5x5_reduce
I1215 23:11:06.042311 11477 net.cpp:380] inception_4e/relu_5x5_reduce <- inception_4e/5x5_reduce
I1215 23:11:06.042325 11477 net.cpp:327] inception_4e/relu_5x5_reduce -> inception_4e/5x5_reduce (in-place)
I1215 23:11:06.042337 11477 net.cpp:113] Setting up inception_4e/relu_5x5_reduce
I1215 23:11:06.042451 11477 net.cpp:120] Top shape: 32 32 14 14 (200704)
I1215 23:11:06.042461 11477 layer_factory.hpp:74] Creating layer inception_4e/5x5
I1215 23:11:06.042527 11477 net.cpp:84] Creating Layer inception_4e/5x5
I1215 23:11:06.042551 11477 net.cpp:380] inception_4e/5x5 <- inception_4e/5x5_reduce
I1215 23:11:06.042564 11477 net.cpp:338] inception_4e/5x5 -> inception_4e/5x5
I1215 23:11:06.042578 11477 net.cpp:113] Setting up inception_4e/5x5
I1215 23:11:06.045332 11477 net.cpp:120] Top shape: 32 128 14 14 (802816)
I1215 23:11:06.045359 11477 layer_factory.hpp:74] Creating layer inception_4e/relu_5x5
I1215 23:11:06.045370 11477 net.cpp:84] Creating Layer inception_4e/relu_5x5
I1215 23:11:06.045379 11477 net.cpp:380] inception_4e/relu_5x5 <- inception_4e/5x5
I1215 23:11:06.045389 11477 net.cpp:327] inception_4e/relu_5x5 -> inception_4e/5x5 (in-place)
I1215 23:11:06.045402 11477 net.cpp:113] Setting up inception_4e/relu_5x5
I1215 23:11:06.045509 11477 net.cpp:120] Top shape: 32 128 14 14 (802816)
I1215 23:11:06.045518 11477 layer_factory.hpp:74] Creating layer inception_4e/pool
I1215 23:11:06.045527 11477 layer_factory.cpp:56] CUDNN does not support padding or multiple tops. Using Caffe's own pooling layer.
I1215 23:11:06.045537 11477 net.cpp:84] Creating Layer inception_4e/pool
I1215 23:11:06.045545 11477 net.cpp:380] inception_4e/pool <- inception_4d/output_inception_4d/output_0_split_4
I1215 23:11:06.045558 11477 net.cpp:338] inception_4e/pool -> inception_4e/pool
I1215 23:11:06.045572 11477 net.cpp:113] Setting up inception_4e/pool
I1215 23:11:06.045585 11477 net.cpp:120] Top shape: 32 528 14 14 (3311616)
I1215 23:11:06.045594 11477 layer_factory.hpp:74] Creating layer inception_4e/pool_proj
I1215 23:11:06.045606 11477 net.cpp:84] Creating Layer inception_4e/pool_proj
I1215 23:11:06.045614 11477 net.cpp:380] inception_4e/pool_proj <- inception_4e/pool
I1215 23:11:06.045627 11477 net.cpp:338] inception_4e/pool_proj -> inception_4e/pool_proj
I1215 23:11:06.045639 11477 net.cpp:113] Setting up inception_4e/pool_proj
I1215 23:11:06.047775 11477 net.cpp:120] Top shape: 32 128 14 14 (802816)
I1215 23:11:06.047799 11477 layer_factory.hpp:74] Creating layer inception_4e/relu_pool_proj
I1215 23:11:06.047823 11477 net.cpp:84] Creating Layer inception_4e/relu_pool_proj
I1215 23:11:06.047832 11477 net.cpp:380] inception_4e/relu_pool_proj <- inception_4e/pool_proj
I1215 23:11:06.047848 11477 net.cpp:327] inception_4e/relu_pool_proj -> inception_4e/pool_proj (in-place)
I1215 23:11:06.047862 11477 net.cpp:113] Setting up inception_4e/relu_pool_proj
I1215 23:11:06.047972 11477 net.cpp:120] Top shape: 32 128 14 14 (802816)
I1215 23:11:06.047981 11477 layer_factory.hpp:74] Creating layer inception_4e/output
I1215 23:11:06.047992 11477 net.cpp:84] Creating Layer inception_4e/output
I1215 23:11:06.048001 11477 net.cpp:380] inception_4e/output <- inception_4e/1x1
I1215 23:11:06.048009 11477 net.cpp:380] inception_4e/output <- inception_4e/3x3
I1215 23:11:06.048017 11477 net.cpp:380] inception_4e/output <- inception_4e/5x5
I1215 23:11:06.048025 11477 net.cpp:380] inception_4e/output <- inception_4e/pool_proj
I1215 23:11:06.048037 11477 net.cpp:338] inception_4e/output -> inception_4e/output
I1215 23:11:06.048048 11477 net.cpp:113] Setting up inception_4e/output
I1215 23:11:06.048061 11477 net.cpp:120] Top shape: 32 832 14 14 (5218304)
I1215 23:11:06.048069 11477 layer_factory.hpp:74] Creating layer pool4/3x3_s2
I1215 23:11:06.048087 11477 net.cpp:84] Creating Layer pool4/3x3_s2
I1215 23:11:06.048096 11477 net.cpp:380] pool4/3x3_s2 <- inception_4e/output
I1215 23:11:06.048110 11477 net.cpp:338] pool4/3x3_s2 -> pool4/3x3_s2
I1215 23:11:06.048122 11477 net.cpp:113] Setting up pool4/3x3_s2
I1215 23:11:06.048775 11477 net.cpp:120] Top shape: 32 832 7 7 (1304576)
I1215 23:11:06.048795 11477 layer_factory.hpp:74] Creating layer pool4/3x3_s2_pool4/3x3_s2_0_split
I1215 23:11:06.048807 11477 net.cpp:84] Creating Layer pool4/3x3_s2_pool4/3x3_s2_0_split
I1215 23:11:06.048815 11477 net.cpp:380] pool4/3x3_s2_pool4/3x3_s2_0_split <- pool4/3x3_s2
I1215 23:11:06.048826 11477 net.cpp:338] pool4/3x3_s2_pool4/3x3_s2_0_split -> pool4/3x3_s2_pool4/3x3_s2_0_split_0
I1215 23:11:06.048851 11477 net.cpp:338] pool4/3x3_s2_pool4/3x3_s2_0_split -> pool4/3x3_s2_pool4/3x3_s2_0_split_1
I1215 23:11:06.048874 11477 net.cpp:338] pool4/3x3_s2_pool4/3x3_s2_0_split -> pool4/3x3_s2_pool4/3x3_s2_0_split_2
I1215 23:11:06.048885 11477 net.cpp:338] pool4/3x3_s2_pool4/3x3_s2_0_split -> pool4/3x3_s2_pool4/3x3_s2_0_split_3
I1215 23:11:06.048895 11477 net.cpp:113] Setting up pool4/3x3_s2_pool4/3x3_s2_0_split
I1215 23:11:06.048907 11477 net.cpp:120] Top shape: 32 832 7 7 (1304576)
I1215 23:11:06.048916 11477 net.cpp:120] Top shape: 32 832 7 7 (1304576)
I1215 23:11:06.048924 11477 net.cpp:120] Top shape: 32 832 7 7 (1304576)
I1215 23:11:06.048931 11477 net.cpp:120] Top shape: 32 832 7 7 (1304576)
I1215 23:11:06.048938 11477 layer_factory.hpp:74] Creating layer inception_5a/1x1
I1215 23:11:06.048954 11477 net.cpp:84] Creating Layer inception_5a/1x1
I1215 23:11:06.048960 11477 net.cpp:380] inception_5a/1x1 <- pool4/3x3_s2_pool4/3x3_s2_0_split_0
I1215 23:11:06.048974 11477 net.cpp:338] inception_5a/1x1 -> inception_5a/1x1
I1215 23:11:06.048986 11477 net.cpp:113] Setting up inception_5a/1x1
I1215 23:11:06.053535 11477 net.cpp:120] Top shape: 32 256 7 7 (401408)
I1215 23:11:06.053560 11477 layer_factory.hpp:74] Creating layer inception_5a/relu_1x1
I1215 23:11:06.053573 11477 net.cpp:84] Creating Layer inception_5a/relu_1x1
I1215 23:11:06.053581 11477 net.cpp:380] inception_5a/relu_1x1 <- inception_5a/1x1
I1215 23:11:06.053591 11477 net.cpp:327] inception_5a/relu_1x1 -> inception_5a/1x1 (in-place)
I1215 23:11:06.053603 11477 net.cpp:113] Setting up inception_5a/relu_1x1
I1215 23:11:06.053710 11477 net.cpp:120] Top shape: 32 256 7 7 (401408)
I1215 23:11:06.053719 11477 layer_factory.hpp:74] Creating layer inception_5a/3x3_reduce
I1215 23:11:06.053742 11477 net.cpp:84] Creating Layer inception_5a/3x3_reduce
I1215 23:11:06.053752 11477 net.cpp:380] inception_5a/3x3_reduce <- pool4/3x3_s2_pool4/3x3_s2_0_split_1
I1215 23:11:06.053766 11477 net.cpp:338] inception_5a/3x3_reduce -> inception_5a/3x3_reduce
I1215 23:11:06.053778 11477 net.cpp:113] Setting up inception_5a/3x3_reduce
I1215 23:11:06.056829 11477 net.cpp:120] Top shape: 32 160 7 7 (250880)
I1215 23:11:06.056851 11477 layer_factory.hpp:74] Creating layer inception_5a/relu_3x3_reduce
I1215 23:11:06.056865 11477 net.cpp:84] Creating Layer inception_5a/relu_3x3_reduce
I1215 23:11:06.056874 11477 net.cpp:380] inception_5a/relu_3x3_reduce <- inception_5a/3x3_reduce
I1215 23:11:06.056885 11477 net.cpp:327] inception_5a/relu_3x3_reduce -> inception_5a/3x3_reduce (in-place)
I1215 23:11:06.056895 11477 net.cpp:113] Setting up inception_5a/relu_3x3_reduce
I1215 23:11:06.056998 11477 net.cpp:120] Top shape: 32 160 7 7 (250880)
I1215 23:11:06.057008 11477 layer_factory.hpp:74] Creating layer inception_5a/3x3
I1215 23:11:06.057018 11477 net.cpp:84] Creating Layer inception_5a/3x3
I1215 23:11:06.057025 11477 net.cpp:380] inception_5a/3x3 <- inception_5a/3x3_reduce
I1215 23:11:06.057037 11477 net.cpp:338] inception_5a/3x3 -> inception_5a/3x3
I1215 23:11:06.057049 11477 net.cpp:113] Setting up inception_5a/3x3
I1215 23:11:06.065503 11477 net.cpp:120] Top shape: 32 320 7 7 (501760)
I1215 23:11:06.065526 11477 layer_factory.hpp:74] Creating layer inception_5a/relu_3x3
I1215 23:11:06.065538 11477 net.cpp:84] Creating Layer inception_5a/relu_3x3
I1215 23:11:06.065546 11477 net.cpp:380] inception_5a/relu_3x3 <- inception_5a/3x3
I1215 23:11:06.065557 11477 net.cpp:327] inception_5a/relu_3x3 -> inception_5a/3x3 (in-place)
I1215 23:11:06.065567 11477 net.cpp:113] Setting up inception_5a/relu_3x3
I1215 23:11:06.065666 11477 net.cpp:120] Top shape: 32 320 7 7 (501760)
I1215 23:11:06.065675 11477 layer_factory.hpp:74] Creating layer inception_5a/5x5_reduce
I1215 23:11:06.065697 11477 net.cpp:84] Creating Layer inception_5a/5x5_reduce
I1215 23:11:06.065706 11477 net.cpp:380] inception_5a/5x5_reduce <- pool4/3x3_s2_pool4/3x3_s2_0_split_2
I1215 23:11:06.065716 11477 net.cpp:338] inception_5a/5x5_reduce -> inception_5a/5x5_reduce
I1215 23:11:06.065728 11477 net.cpp:113] Setting up inception_5a/5x5_reduce
I1215 23:11:06.066921 11477 net.cpp:120] Top shape: 32 32 7 7 (50176)
I1215 23:11:06.066954 11477 layer_factory.hpp:74] Creating layer inception_5a/relu_5x5_reduce
I1215 23:11:06.066964 11477 net.cpp:84] Creating Layer inception_5a/relu_5x5_reduce
I1215 23:11:06.066972 11477 net.cpp:380] inception_5a/relu_5x5_reduce <- inception_5a/5x5_reduce
I1215 23:11:06.066982 11477 net.cpp:327] inception_5a/relu_5x5_reduce -> inception_5a/5x5_reduce (in-place)
I1215 23:11:06.066992 11477 net.cpp:113] Setting up inception_5a/relu_5x5_reduce
I1215 23:11:06.067642 11477 net.cpp:120] Top shape: 32 32 7 7 (50176)
I1215 23:11:06.067661 11477 layer_factory.hpp:74] Creating layer inception_5a/5x5
I1215 23:11:06.067673 11477 net.cpp:84] Creating Layer inception_5a/5x5
I1215 23:11:06.067682 11477 net.cpp:380] inception_5a/5x5 <- inception_5a/5x5_reduce
I1215 23:11:06.067694 11477 net.cpp:338] inception_5a/5x5 -> inception_5a/5x5
I1215 23:11:06.067706 11477 net.cpp:113] Setting up inception_5a/5x5
I1215 23:11:06.070152 11477 net.cpp:120] Top shape: 32 128 7 7 (200704)
I1215 23:11:06.070175 11477 layer_factory.hpp:74] Creating layer inception_5a/relu_5x5
I1215 23:11:06.070194 11477 net.cpp:84] Creating Layer inception_5a/relu_5x5
I1215 23:11:06.070204 11477 net.cpp:380] inception_5a/relu_5x5 <- inception_5a/5x5
I1215 23:11:06.070217 11477 net.cpp:327] inception_5a/relu_5x5 -> inception_5a/5x5 (in-place)
I1215 23:11:06.070229 11477 net.cpp:113] Setting up inception_5a/relu_5x5
I1215 23:11:06.070330 11477 net.cpp:120] Top shape: 32 128 7 7 (200704)
I1215 23:11:06.070339 11477 layer_factory.hpp:74] Creating layer inception_5a/pool
I1215 23:11:06.070346 11477 layer_factory.cpp:56] CUDNN does not support padding or multiple tops. Using Caffe's own pooling layer.
I1215 23:11:06.070356 11477 net.cpp:84] Creating Layer inception_5a/pool
I1215 23:11:06.070364 11477 net.cpp:380] inception_5a/pool <- pool4/3x3_s2_pool4/3x3_s2_0_split_3
I1215 23:11:06.070374 11477 net.cpp:338] inception_5a/pool -> inception_5a/pool
I1215 23:11:06.070384 11477 net.cpp:113] Setting up inception_5a/pool
I1215 23:11:06.070396 11477 net.cpp:120] Top shape: 32 832 7 7 (1304576)
I1215 23:11:06.070404 11477 layer_factory.hpp:74] Creating layer inception_5a/pool_proj
I1215 23:11:06.070416 11477 net.cpp:84] Creating Layer inception_5a/pool_proj
I1215 23:11:06.070423 11477 net.cpp:380] inception_5a/pool_proj <- inception_5a/pool
I1215 23:11:06.070437 11477 net.cpp:338] inception_5a/pool_proj -> inception_5a/pool_proj
I1215 23:11:06.070448 11477 net.cpp:113] Setting up inception_5a/pool_proj
I1215 23:11:06.072881 11477 net.cpp:120] Top shape: 32 128 7 7 (200704)
I1215 23:11:06.072903 11477 layer_factory.hpp:74] Creating layer inception_5a/relu_pool_proj
I1215 23:11:06.072922 11477 net.cpp:84] Creating Layer inception_5a/relu_pool_proj
I1215 23:11:06.072932 11477 net.cpp:380] inception_5a/relu_pool_proj <- inception_5a/pool_proj
I1215 23:11:06.072944 11477 net.cpp:327] inception_5a/relu_pool_proj -> inception_5a/pool_proj (in-place)
I1215 23:11:06.072955 11477 net.cpp:113] Setting up inception_5a/relu_pool_proj
I1215 23:11:06.073053 11477 net.cpp:120] Top shape: 32 128 7 7 (200704)
I1215 23:11:06.073078 11477 layer_factory.hpp:74] Creating layer inception_5a/output
I1215 23:11:06.073087 11477 net.cpp:84] Creating Layer inception_5a/output
I1215 23:11:06.073094 11477 net.cpp:380] inception_5a/output <- inception_5a/1x1
I1215 23:11:06.073106 11477 net.cpp:380] inception_5a/output <- inception_5a/3x3
I1215 23:11:06.073112 11477 net.cpp:380] inception_5a/output <- inception_5a/5x5
I1215 23:11:06.073119 11477 net.cpp:380] inception_5a/output <- inception_5a/pool_proj
I1215 23:11:06.073128 11477 net.cpp:338] inception_5a/output -> inception_5a/output
I1215 23:11:06.073138 11477 net.cpp:113] Setting up inception_5a/output
I1215 23:11:06.073149 11477 net.cpp:120] Top shape: 32 832 7 7 (1304576)
I1215 23:11:06.073156 11477 layer_factory.hpp:74] Creating layer inception_5a/output_inception_5a/output_0_split
I1215 23:11:06.073165 11477 net.cpp:84] Creating Layer inception_5a/output_inception_5a/output_0_split
I1215 23:11:06.073179 11477 net.cpp:380] inception_5a/output_inception_5a/output_0_split <- inception_5a/output
I1215 23:11:06.073199 11477 net.cpp:338] inception_5a/output_inception_5a/output_0_split -> inception_5a/output_inception_5a/output_0_split_0
I1215 23:11:06.073211 11477 net.cpp:338] inception_5a/output_inception_5a/output_0_split -> inception_5a/output_inception_5a/output_0_split_1
I1215 23:11:06.073221 11477 net.cpp:338] inception_5a/output_inception_5a/output_0_split -> inception_5a/output_inception_5a/output_0_split_2
I1215 23:11:06.073231 11477 net.cpp:338] inception_5a/output_inception_5a/output_0_split -> inception_5a/output_inception_5a/output_0_split_3
I1215 23:11:06.073240 11477 net.cpp:113] Setting up inception_5a/output_inception_5a/output_0_split
I1215 23:11:06.073251 11477 net.cpp:120] Top shape: 32 832 7 7 (1304576)
I1215 23:11:06.073258 11477 net.cpp:120] Top shape: 32 832 7 7 (1304576)
I1215 23:11:06.073266 11477 net.cpp:120] Top shape: 32 832 7 7 (1304576)
I1215 23:11:06.073272 11477 net.cpp:120] Top shape: 32 832 7 7 (1304576)
I1215 23:11:06.073278 11477 layer_factory.hpp:74] Creating layer inception_5b/1x1
I1215 23:11:06.073293 11477 net.cpp:84] Creating Layer inception_5b/1x1
I1215 23:11:06.073299 11477 net.cpp:380] inception_5b/1x1 <- inception_5a/output_inception_5a/output_0_split_0
I1215 23:11:06.073312 11477 net.cpp:338] inception_5b/1x1 -> inception_5b/1x1
I1215 23:11:06.073323 11477 net.cpp:113] Setting up inception_5b/1x1
I1215 23:11:06.088220 11477 net.cpp:120] Top shape: 32 384 7 7 (602112)
I1215 23:11:06.088243 11477 layer_factory.hpp:74] Creating layer inception_5b/relu_1x1
I1215 23:11:06.088255 11477 net.cpp:84] Creating Layer inception_5b/relu_1x1
I1215 23:11:06.088263 11477 net.cpp:380] inception_5b/relu_1x1 <- inception_5b/1x1
I1215 23:11:06.088273 11477 net.cpp:327] inception_5b/relu_1x1 -> inception_5b/1x1 (in-place)
I1215 23:11:06.088282 11477 net.cpp:113] Setting up inception_5b/relu_1x1
I1215 23:11:06.088781 11477 net.cpp:120] Top shape: 32 384 7 7 (602112)
I1215 23:11:06.088798 11477 layer_factory.hpp:74] Creating layer inception_5b/3x3_reduce
I1215 23:11:06.088819 11477 net.cpp:84] Creating Layer inception_5b/3x3_reduce
I1215 23:11:06.088829 11477 net.cpp:380] inception_5b/3x3_reduce <- inception_5a/output_inception_5a/output_0_split_1
I1215 23:11:06.088838 11477 net.cpp:338] inception_5b/3x3_reduce -> inception_5b/3x3_reduce
I1215 23:11:06.088850 11477 net.cpp:113] Setting up inception_5b/3x3_reduce
I1215 23:11:06.093730 11477 net.cpp:120] Top shape: 32 192 7 7 (301056)
I1215 23:11:06.093751 11477 layer_factory.hpp:74] Creating layer inception_5b/relu_3x3_reduce
I1215 23:11:06.093762 11477 net.cpp:84] Creating Layer inception_5b/relu_3x3_reduce
I1215 23:11:06.093768 11477 net.cpp:380] inception_5b/relu_3x3_reduce <- inception_5b/3x3_reduce
I1215 23:11:06.093775 11477 net.cpp:327] inception_5b/relu_3x3_reduce -> inception_5b/3x3_reduce (in-place)
I1215 23:11:06.093783 11477 net.cpp:113] Setting up inception_5b/relu_3x3_reduce
I1215 23:11:06.093860 11477 net.cpp:120] Top shape: 32 192 7 7 (301056)
I1215 23:11:06.093866 11477 layer_factory.hpp:74] Creating layer inception_5b/3x3
I1215 23:11:06.093876 11477 net.cpp:84] Creating Layer inception_5b/3x3
I1215 23:11:06.093881 11477 net.cpp:380] inception_5b/3x3 <- inception_5b/3x3_reduce
I1215 23:11:06.093895 11477 net.cpp:338] inception_5b/3x3 -> inception_5b/3x3
I1215 23:11:06.093926 11477 net.cpp:113] Setting up inception_5b/3x3
I1215 23:11:06.105749 11477 net.cpp:120] Top shape: 32 384 7 7 (602112)
I1215 23:11:06.105785 11477 layer_factory.hpp:74] Creating layer inception_5b/relu_3x3
I1215 23:11:06.105818 11477 net.cpp:84] Creating Layer inception_5b/relu_3x3
I1215 23:11:06.105830 11477 net.cpp:380] inception_5b/relu_3x3 <- inception_5b/3x3
I1215 23:11:06.105844 11477 net.cpp:327] inception_5b/relu_3x3 -> inception_5b/3x3 (in-place)
I1215 23:11:06.105860 11477 net.cpp:113] Setting up inception_5b/relu_3x3
I1215 23:11:06.105998 11477 net.cpp:120] Top shape: 32 384 7 7 (602112)
I1215 23:11:06.106010 11477 layer_factory.hpp:74] Creating layer inception_5b/5x5_reduce
I1215 23:11:06.106050 11477 net.cpp:84] Creating Layer inception_5b/5x5_reduce
I1215 23:11:06.106061 11477 net.cpp:380] inception_5b/5x5_reduce <- inception_5a/output_inception_5a/output_0_split_2
I1215 23:11:06.106081 11477 net.cpp:338] inception_5b/5x5_reduce -> inception_5b/5x5_reduce
I1215 23:11:06.106099 11477 net.cpp:113] Setting up inception_5b/5x5_reduce
I1215 23:11:06.108000 11477 net.cpp:120] Top shape: 32 48 7 7 (75264)
I1215 23:11:06.108031 11477 layer_factory.hpp:74] Creating layer inception_5b/relu_5x5_reduce
I1215 23:11:06.108050 11477 net.cpp:84] Creating Layer inception_5b/relu_5x5_reduce
I1215 23:11:06.108062 11477 net.cpp:380] inception_5b/relu_5x5_reduce <- inception_5b/5x5_reduce
I1215 23:11:06.108077 11477 net.cpp:327] inception_5b/relu_5x5_reduce -> inception_5b/5x5_reduce (in-place)
I1215 23:11:06.108091 11477 net.cpp:113] Setting up inception_5b/relu_5x5_reduce
I1215 23:11:06.108229 11477 net.cpp:120] Top shape: 32 48 7 7 (75264)
I1215 23:11:06.108242 11477 layer_factory.hpp:74] Creating layer inception_5b/5x5
I1215 23:11:06.108273 11477 net.cpp:84] Creating Layer inception_5b/5x5
I1215 23:11:06.108285 11477 net.cpp:380] inception_5b/5x5 <- inception_5b/5x5_reduce
I1215 23:11:06.108302 11477 net.cpp:338] inception_5b/5x5 -> inception_5b/5x5
I1215 23:11:06.108319 11477 net.cpp:113] Setting up inception_5b/5x5
I1215 23:11:06.112462 11477 net.cpp:120] Top shape: 32 128 7 7 (200704)
I1215 23:11:06.112493 11477 layer_factory.hpp:74] Creating layer inception_5b/relu_5x5
I1215 23:11:06.112506 11477 net.cpp:84] Creating Layer inception_5b/relu_5x5
I1215 23:11:06.112516 11477 net.cpp:380] inception_5b/relu_5x5 <- inception_5b/5x5
I1215 23:11:06.112531 11477 net.cpp:327] inception_5b/relu_5x5 -> inception_5b/5x5 (in-place)
I1215 23:11:06.112545 11477 net.cpp:113] Setting up inception_5b/relu_5x5
I1215 23:11:06.113183 11477 net.cpp:120] Top shape: 32 128 7 7 (200704)
I1215 23:11:06.113209 11477 layer_factory.hpp:74] Creating layer inception_5b/pool
I1215 23:11:06.113219 11477 layer_factory.cpp:56] CUDNN does not support padding or multiple tops. Using Caffe's own pooling layer.
I1215 23:11:06.113230 11477 net.cpp:84] Creating Layer inception_5b/pool
I1215 23:11:06.113240 11477 net.cpp:380] inception_5b/pool <- inception_5a/output_inception_5a/output_0_split_3
I1215 23:11:06.113256 11477 net.cpp:338] inception_5b/pool -> inception_5b/pool
I1215 23:11:06.113272 11477 net.cpp:113] Setting up inception_5b/pool
I1215 23:11:06.113288 11477 net.cpp:120] Top shape: 32 832 7 7 (1304576)
I1215 23:11:06.113297 11477 layer_factory.hpp:74] Creating layer inception_5b/pool_proj
I1215 23:11:06.113315 11477 net.cpp:84] Creating Layer inception_5b/pool_proj
I1215 23:11:06.113325 11477 net.cpp:380] inception_5b/pool_proj <- inception_5b/pool
I1215 23:11:06.113338 11477 net.cpp:338] inception_5b/pool_proj -> inception_5b/pool_proj
I1215 23:11:06.113353 11477 net.cpp:113] Setting up inception_5b/pool_proj
I1215 23:11:06.116849 11477 net.cpp:120] Top shape: 32 128 7 7 (200704)
I1215 23:11:06.116878 11477 layer_factory.hpp:74] Creating layer inception_5b/relu_pool_proj
I1215 23:11:06.116902 11477 net.cpp:84] Creating Layer inception_5b/relu_pool_proj
I1215 23:11:06.116914 11477 net.cpp:380] inception_5b/relu_pool_proj <- inception_5b/pool_proj
I1215 23:11:06.116928 11477 net.cpp:327] inception_5b/relu_pool_proj -> inception_5b/pool_proj (in-place)
I1215 23:11:06.116942 11477 net.cpp:113] Setting up inception_5b/relu_pool_proj
I1215 23:11:06.117086 11477 net.cpp:120] Top shape: 32 128 7 7 (200704)
I1215 23:11:06.117102 11477 layer_factory.hpp:74] Creating layer inception_5b/output
I1215 23:11:06.117115 11477 net.cpp:84] Creating Layer inception_5b/output
I1215 23:11:06.117125 11477 net.cpp:380] inception_5b/output <- inception_5b/1x1
I1215 23:11:06.117136 11477 net.cpp:380] inception_5b/output <- inception_5b/3x3
I1215 23:11:06.117146 11477 net.cpp:380] inception_5b/output <- inception_5b/5x5
I1215 23:11:06.117154 11477 net.cpp:380] inception_5b/output <- inception_5b/pool_proj
I1215 23:11:06.117177 11477 net.cpp:338] inception_5b/output -> inception_5b/output
I1215 23:11:06.117203 11477 net.cpp:113] Setting up inception_5b/output
I1215 23:11:06.117219 11477 net.cpp:120] Top shape: 32 1024 7 7 (1605632)
I1215 23:11:06.117228 11477 layer_factory.hpp:74] Creating layer pool5/7x7_s1
I1215 23:11:06.117239 11477 net.cpp:84] Creating Layer pool5/7x7_s1
I1215 23:11:06.117249 11477 net.cpp:380] pool5/7x7_s1 <- inception_5b/output
I1215 23:11:06.117260 11477 net.cpp:338] pool5/7x7_s1 -> pool5/7x7_s1
I1215 23:11:06.117272 11477 net.cpp:113] Setting up pool5/7x7_s1
I1215 23:11:06.117408 11477 net.cpp:120] Top shape: 32 1024 1 1 (32768)
I1215 23:11:06.117419 11477 layer_factory.hpp:74] Creating layer pool5/drop_7x7_s1
I1215 23:11:06.117432 11477 net.cpp:84] Creating Layer pool5/drop_7x7_s1
I1215 23:11:06.117440 11477 net.cpp:380] pool5/drop_7x7_s1 <- pool5/7x7_s1
I1215 23:11:06.117451 11477 net.cpp:327] pool5/drop_7x7_s1 -> pool5/7x7_s1 (in-place)
I1215 23:11:06.117463 11477 net.cpp:113] Setting up pool5/drop_7x7_s1
I1215 23:11:06.117477 11477 net.cpp:120] Top shape: 32 1024 1 1 (32768)
I1215 23:11:06.117486 11477 layer_factory.hpp:74] Creating layer loss3/classifier_kaggle
I1215 23:11:06.117516 11477 net.cpp:84] Creating Layer loss3/classifier_kaggle
I1215 23:11:06.117524 11477 net.cpp:380] loss3/classifier_kaggle <- pool5/7x7_s1
I1215 23:11:06.117542 11477 net.cpp:338] loss3/classifier_kaggle -> loss3/classifier_kaggle
I1215 23:11:06.117557 11477 net.cpp:113] Setting up loss3/classifier_kaggle
I1215 23:11:06.126687 11477 net.cpp:120] Top shape: 32 447 (14304)
I1215 23:11:06.126714 11477 layer_factory.hpp:74] Creating layer loss3/loss3
I1215 23:11:06.126729 11477 net.cpp:84] Creating Layer loss3/loss3
I1215 23:11:06.126739 11477 net.cpp:380] loss3/loss3 <- loss3/classifier_kaggle
I1215 23:11:06.126749 11477 net.cpp:380] loss3/loss3 <- label_data_1_split_2
I1215 23:11:06.126760 11477 net.cpp:338] loss3/loss3 -> loss3/loss3
I1215 23:11:06.126773 11477 net.cpp:113] Setting up loss3/loss3
…
I1215 23:11:06.136082 11477 net.cpp:257] The NetState phase (1) differed from the phase (0) specified by a rule in layer data
I1215 23:11:06.138655 11477 net.cpp:42] Initializing net from parameters: 
name: "GoogleNet"
state {
  phase: TEST
}
layer {
  name: "data"
  type: "Data"
  top: "data"
  top: "label"
  include {
    phase: TEST
  }
  transform_param {
    mirror: false
    crop_size: 224
    mean_value: 104
    mean_value: 117
    mean_value: 123
  }
  data_param {
    source: "/home/coldmanck/kaggle/kaggle2_val_lmdb"
    batch_size: 50
    backend: LMDB
  }
}
layer {
  name: "conv1/7x7_s2"
  type: "Convolution"
  bottom: "data"
  top: "conv1/7x7_s2"
  param {
    lr_mult: 1
    decay_mult: 1
  }
  param {
    lr_mult: 2
    decay_mult: 0
  }
  convolution_param {
    num_output: 64
    pad: 3
    kernel_size: 7
    stride: 2
    weight_filler {
      type: "xavier"
      std: 0.1
    }
    bias_filler {
      type: "constant"
      value: 0.2
    }
  }
}
layer {
  name: "conv1/relu_7x7"
  type: "ReLU"
  bottom: "conv1/7x7_s2"
  top: "conv1/7x7_s2"
}
layer {
  name: "pool1/3x3_s2"
  type: "Pooling"
  bottom: "conv1/7x7_s2"
  top: "pool1/3x3_s2"
  pooling_param {
    pool: MAX
    kernel_size: 3
    stride: 2
  }
}
layer {
  name: "pool1/norm1"
  type: "LRN"
  bottom: "pool1/3x3_s2"
  top: "pool1/norm1"
  lrn_param {
    local_size: 5
    alpha: 0.0001
    beta: 0.75
  }
}
layer {
  name: "conv2/3x3_reduce"
  type: "Convolution"
  bottom: "pool1/norm1"
  top: "conv2/3x3_reduce"
  param {
    lr_mult: 1
    decay_mult: 1
  }
  param {
    lr_mult: 2
    decay_mult: 0
  }
  convolution_param {
    num_output: 64
    kernel_size: 1
    weight_filler {
      type: "xavier"
      std: 0.1
    }
    bias_filler {
      type: "constant"
      value: 0.2
    }
  }
}
layer {
  name: "conv2/relu_3x3_reduce"
  type: "ReLU"
  bottom: "conv2/3x3_reduce"
  top: "conv2/3x3_reduce"
}
layer {
  name: "conv2/3x3"
  type: "Convolution"
  bottom: "conv2/3x3_reduce"
  top: "conv2/3x3"
  param {
    lr_mult: 1
    decay_mult: 1
  }
  param {
    lr_mult: 2
    decay_mult: 0
  }
  convolution_param {
    num_output: 192
    pad: 1
    kernel_size: 3
    weight_filler {
      type: "xavier"
      std: 0.03
    }
    bias_filler {
      type: "constant"
      value: 0.2
    }
  }
}
layer {
  name: "conv2/relu_3x3"
  type: "ReLU"
  bottom: "conv2/3x3"
  top: "conv2/3x3"
}
layer {
  name: "conv2/norm2"
  type: "LRN"
  bottom: "conv2/3x3"
  top: "conv2/norm2"
  lrn_param {
    local_size: 5
    alpha: 0.0001
    beta: 0.75
  }
}
layer {
  name: "pool2/3x3_s2"
  type: "Pooling"
  bottom: "conv2/norm2"
  top: "pool2/3x3_s2"
  pooling_param {
    pool: MAX
    kernel_size: 3
    stride: 2
  }
}
layer {
  name: "inception_3a/1x1"
  type: "Convolution"
  bottom: "pool2/3x3_s2"
  top: "inception_3a/1x1"
  param {
    lr_mult: 1
    decay_mult: 1
  }
  param {
    lr_mult: 2
    decay_mult: 0
  }
  convolution_param {
    num_output: 64
    kernel_size: 1
    weight_filler {
      type: "xavier"
      std: 0.03
    }
    bias_filler {
      type: "constant"
      value: 0.2
    }
  }
}
layer {
  name: "inception_3a/relu_1x1"
  type: "ReLU"
  bottom: "inception_3a/1x1"
  top: "inception_3a/1x1"
}
layer {
  name: "inception_3a/3x3_reduce"
  type: "Convolution"
  bottom: "pool2/3x3_s2"
  top: "inception_3a/3x3_reduce"
  param {
    lr_mult: 1
    decay_mult: 1
  }
  param {
    lr_mult: 2
    decay_mult: 0
  }
  convolution_param {
    num_output: 96
    kernel_size: 1
    weight_filler {
      type: "xavier"
      std: 0.09
    }
    bias_filler {
      type: "constant"
      value: 0.2
    }
  }
}
layer {
  name: "inception_3a/relu_3x3_reduce"
  type: "ReLU"
  bottom: "inception_3a/3x3_reduce"
  top: "inception_3a/3x3_reduce"
}
layer {
  name: "inception_3a/3x3"
  type: "Convolution"
  bottom: "inception_3a/3x3_reduce"
  top: "inception_3a/3x3"
  param {
    lr_mult: 1
    decay_mult: 1
  }
  param {
    lr_mult: 2
    decay_mult: 0
  }
  convolution_param {
    num_output: 128
    pad: 1
    kernel_size: 3
    weight_filler {
      type: "xavier"
      std: 0.03
    }
    bias_filler {
      type: "constant"
      value: 0.2
    }
  }
}
layer {
  name: "inception_3a/relu_3x3"
  type: "ReLU"
  bottom: "inception_3a/3x3"
  top: "inception_3a/3x3"
}
layer {
  name: "inception_3a/5x5_reduce"
  type: "Convolution"
  bottom: "pool2/3x3_s2"
  top: "inception_3a/5x5_reduce"
  param {
    lr_mult: 1
    decay_mult: 1
  }
  param {
    lr_mult: 2
    decay_mult: 0
  }
  convolution_param {
    num_output: 16
    kernel_size: 1
    weight_filler {
      type: "xavier"
      std: 0.2
    }
    bias_filler {
      type: "constant"
      value: 0.2
    }
  }
}
layer {
  name: "inception_3a/relu_5x5_reduce"
  type: "ReLU"
  bottom: "inception_3a/5x5_reduce"
  top: "inception_3a/5x5_reduce"
}
layer {
  name: "inception_3a/5x5"
  type: "Convolution"
  bottom: "inception_3a/5x5_reduce"
  top: "inception_3a/5x5"
  param {
    lr_mult: 1
    decay_mult: 1
  }
  param {
    lr_mult: 2
    decay_mult: 0
  }
  convolution_param {
    num_output: 32
    pad: 2
    kernel_size: 5
    weight_filler {
      type: "xavier"
      std: 0.03
    }
    bias_filler {
      type: "constant"
      value: 0.2
    }
  }
}
layer {
  name: "inception_3a/relu_5x5"
  type: "ReLU"
  bottom: "inception_3a/5x5"
  top: "inception_3a/5x5"
}
layer {
  name: "inception_3a/pool"
  type: "Pooling"
  bottom: "pool2/3x3_s2"
  top: "inception_3a/pool"
  pooling_param {
    pool: MAX
    kernel_size: 3
    stride: 1
    pad: 1
  }
}
layer {
  name: "inception_3a/pool_proj"
  type: "Convolution"
  bottom: "inception_3a/pool"
  top: "inception_3a/pool_proj"
  param {
    lr_mult: 1
    decay_mult: 1
  }
  param {
    lr_mult: 2
    decay_mult: 0
  }
  convolution_param {
    num_output: 32
    kernel_size: 1
    weight_filler {
      type: "xavier"
      std: 0.1
    }
    bias_filler {
      type: "constant"
      value: 0.2
    }
  }
}
layer {
  name: "inception_3a/relu_pool_proj"
  type: "ReLU"
  bottom: "inception_3a/pool_proj"
  top: "inception_3a/pool_proj"
}
layer {
  name: "inception_3a/output"
  type: "Concat"
  bottom: "inception_3a/1x1"
  bottom: "inception_3a/3x3"
  bottom: "inception_3a/5x5"
  bottom: "inception_3a/pool_proj"
  top: "inception_3a/output"
}
layer {
  name: "inception_3b/1x1"
  type: "Convolution"
  bottom: "inception_3a/output"
  top: "inception_3b/1x1"
  param {
    lr_mult: 1
    decay_mult: 1
  }
  param {
    lr_mult: 2
    decay_mult: 0
  }
  convolution_param {
    num_output: 128
    kernel_size: 1
    weight_filler {
      type: "xavier"
      std: 0.03
    }
    bias_filler {
      type: "constant"
      value: 0.2
    }
  }
}
layer {
  name: "inception_3b/relu_1x1"
  type: "ReLU"
  bottom: "inception_3b/1x1"
  top: "inception_3b/1x1"
}
layer {
  name: "inception_3b/3x3_reduce"
  type: "Convolution"
  bottom: "inception_3a/output"
  top: "inception_3b/3x3_reduce"
  param {
    lr_mult: 1
    decay_mult: 1
  }
  param {
    lr_mult: 2
    decay_mult: 0
  }
  convolution_param {
    num_output: 128
    kernel_size: 1
    weight_filler {
      type: "xavier"
      std: 0.09
    }
    bias_filler {
      type: "constant"
      value: 0.2
    }
  }
}
layer {
  name: "inception_3b/relu_3x3_reduce"
  type: "ReLU"
  bottom: "inception_3b/3x3_reduce"
  top: "inception_3b/3x3_reduce"
}
layer {
  name: "inception_3b/3x3"
  type: "Convolution"
  bottom: "inception_3b/3x3_reduce"
  top: "inception_3b/3x3"
  param {
    lr_mult: 1
    decay_mult: 1
  }
  param {
    lr_mult: 2
    decay_mult: 0
  }
  convolution_param {
    num_output: 192
    pad: 1
    kernel_size: 3
    weight_filler {
      type: "xavier"
      std: 0.03
    }
    bias_filler {
      type: "constant"
      value: 0.2
    }
  }
}
layer {
  name: "inception_3b/relu_3x3"
  type: "ReLU"
  bottom: "inception_3b/3x3"
  top: "inception_3b/3x3"
}
layer {
  name: "inception_3b/5x5_reduce"
  type: "Convolution"
  bottom: "inception_3a/output"
  top: "inception_3b/5x5_reduce"
  param {
    lr_mult: 1
    decay_mult: 1
  }
  param {
    lr_mult: 2
    decay_mult: 0
  }
  convolution_param {
    num_output: 32
    kernel_size: 1
    weight_filler {
      type: "xavier"
      std: 0.2
    }
    bias_filler {
      type: "constant"
      value: 0.2
    }
  }
}
layer {
  name: "inception_3b/relu_5x5_reduce"
  type: "ReLU"
  bottom: "inception_3b/5x5_reduce"
  top: "inception_3b/5x5_reduce"
}
layer {
  name: "inception_3b/5x5"
  type: "Convolution"
  bottom: "inception_3b/5x5_reduce"
  top: "inception_3b/5x5"
  param {
    lr_mult: 1
    decay_mult: 1
  }
  param {
    lr_mult: 2
    decay_mult: 0
  }
  convolution_param {
    num_output: 96
    pad: 2
    kernel_size: 5
    weight_filler {
      type: "xavier"
      std: 0.03
    }
    bias_filler {
      type: "constant"
      value: 0.2
    }
  }
}
layer {
  name: "inception_3b/relu_5x5"
  type: "ReLU"
  bottom: "inception_3b/5x5"
  top: "inception_3b/5x5"
}
layer {
  name: "inception_3b/pool"
  type: "Pooling"
  bottom: "inception_3a/output"
  top: "inception_3b/pool"
  pooling_param {
    pool: MAX
    kernel_size: 3
    stride: 1
    pad: 1
  }
}
layer {
  name: "inception_3b/pool_proj"
  type: "Convolution"
  bottom: "inception_3b/pool"
  top: "inception_3b/pool_proj"
  param {
    lr_mult: 1
    decay_mult: 1
  }
  param {
    lr_mult: 2
    decay_mult: 0
  }
  convolution_param {
    num_output: 64
    kernel_size: 1
    weight_filler {
      type: "xavier"
      std: 0.1
    }
    bias_filler {
      type: "constant"
      value: 0.2
    }
  }
}
layer {
  name: "inception_3b/relu_pool_proj"
  type: "ReLU"
  bottom: "inception_3b/pool_proj"
  top: "inception_3b/pool_proj"
}
layer {
  name: "inception_3b/output"
  type: "Concat"
  bottom: "inception_3b/1x1"
  bottom: "inception_3b/3x3"
  bottom: "inception_3b/5x5"
  bottom: "inception_3b/pool_proj"
  top: "inception_3b/output"
}
layer {
  name: "pool3/3x3_s2"
  type: "Pooling"
  bottom: "inception_3b/output"
  top: "pool3/3x3_s2"
  pooling_param {
    pool: MAX
    kernel_size: 3
    stride: 2
  }
}
layer {
  name: "inception_4a/1x1"
  type: "Convolution"
  bottom: "pool3/3x3_s2"
  top: "inception_4a/1x1"
  param {
    lr_mult: 1
    decay_mult: 1
  }
  param {
    lr_mult: 2
    decay_mult: 0
  }
  convolution_param {
    num_output: 192
    kernel_size: 1
    weight_filler {
      type: "xavier"
      std: 0.03
    }
    bias_filler {
      type: "constant"
      value: 0.2
    }
  }
}
layer {
  name: "inception_4a/relu_1x1"
  type: "ReLU"
  bottom: "inception_4a/1x1"
  top: "inception_4a/1x1"
}
layer {
  name: "inception_4a/3x3_reduce"
  type: "Convolution"
  bottom: "pool3/3x3_s2"
  top: "inception_4a/3x3_reduce"
  param {
    lr_mult: 1
    decay_mult: 1
  }
  param {
    lr_mult: 2
    decay_mult: 0
  }
  convolution_param {
    num_output: 96
    kernel_size: 1
    weight_filler {
      type: "xavier"
      std: 0.09
    }
    bias_filler {
      type: "constant"
      value: 0.2
    }
  }
}
layer {
  name: "inception_4a/relu_3x3_reduce"
  type: "ReLU"
  bottom: "inception_4a/3x3_reduce"
  top: "inception_4a/3x3_reduce"
}
layer {
  name: "inception_4a/3x3"
  type: "Convolution"
  bottom: "inception_4a/3x3_reduce"
  top: "inception_4a/3x3"
  param {
    lr_mult: 1
    decay_mult: 1
  }
  param {
    lr_mult: 2
    decay_mult: 0
  }
  convolution_param {
    num_output: 208
    pad: 1
    kernel_size: 3
    weight_filler {
      type: "xavier"
      std: 0.03
    }
    bias_filler {
      type: "constant"
      value: 0.2
    }
  }
}
layer {
  name: "inception_4a/relu_3x3"
  type: "ReLU"
  bottom: "inception_4a/3x3"
  top: "inception_4a/3x3"
}
layer {
  name: "inception_4a/5x5_reduce"
  type: "Convolution"
  bottom: "pool3/3x3_s2"
  top: "inception_4a/5x5_reduce"
  param {
    lr_mult: 1
    decay_mult: 1
  }
  param {
    lr_mult: 2
    decay_mult: 0
  }
  convolution_param {
    num_output: 16
    kernel_size: 1
    weight_filler {
      type: "xavier"
      std: 0.2
    }
    bias_filler {
      type: "constant"
      value: 0.2
    }
  }
}
layer {
  name: "inception_4a/relu_5x5_reduce"
  type: "ReLU"
  bottom: "inception_4a/5x5_reduce"
  top: "inception_4a/5x5_reduce"
}
layer {
  name: "inception_4a/5x5"
  type: "Convolution"
  bottom: "inception_4a/5x5_reduce"
  top: "inception_4a/5x5"
  param {
    lr_mult: 1
    decay_mult: 1
  }
  param {
    lr_mult: 2
    decay_mult: 0
  }
  convolution_param {
    num_output: 48
    pad: 2
    kernel_size: 5
    weight_filler {
      type: "xavier"
      std: 0.03
    }
    bias_filler {
      type: "constant"
      value: 0.2
    }
  }
}
layer {
  name: "inception_4a/relu_5x5"
  type: "ReLU"
  bottom: "inception_4a/5x5"
  top: "inception_4a/5x5"
}
layer {
  name: "inception_4a/pool"
  type: "Pooling"
  bottom: "pool3/3x3_s2"
  top: "inception_4a/pool"
  pooling_param {
    pool: MAX
    kernel_size: 3
    stride: 1
    pad: 1
  }
}
layer {
  name: "inception_4a/pool_proj"
  type: "Convolution"
  bottom: "inception_4a/pool"
  top: "inception_4a/pool_proj"
  param {
    lr_mult: 1
    decay_mult: 1
  }
  param {
    lr_mult: 2
    decay_mult: 0
  }
  convolution_param {
    num_output: 64
    kernel_size: 1
    weight_filler {
      type: "xavier"
      std: 0.1
    }
    bias_filler {
      type: "constant"
      value: 0.2
    }
  }
}
layer {
  name: "inception_4a/relu_pool_proj"
  type: "ReLU"
  bottom: "inception_4a/pool_proj"
  top: "inception_4a/pool_proj"
}
layer {
  name: "inception_4a/output"
  type: "Concat"
  bottom: "inception_4a/1x1"
  bottom: "inception_4a/3x3"
  bottom: "inception_4a/5x5"
  bottom: "inception_4a/pool_proj"
  top: "inception_4a/output"
}
layer {
  name: "loss1/ave_pool"
  type: "Pooling"
  bottom: "inception_4a/output"
  top: "loss1/ave_pool"
  pooling_param {
    pool: AVE
    kernel_size: 5
    stride: 3
  }
}
layer {
  name: "loss1/conv"
  type: "Convolution"
  bottom: "loss1/ave_pool"
  top: "loss1/conv"
  param {
    lr_mult: 1
    decay_mult: 1
  }
  param {
    lr_mult: 2
    decay_mult: 0
  }
  convolution_param {
    num_output: 128
    kernel_size: 1
    weight_filler {
      type: "xavier"
      std: 0.08
    }
    bias_filler {
      type: "constant"
      value: 0.2
    }
  }
}
layer {
  name: "loss1/relu_conv"
  type: "ReLU"
  bottom: "loss1/conv"
  top: "loss1/conv"
}
layer {
  name: "loss1/fc"
  type: "InnerProduct"
  bottom: "loss1/conv"
  top: "loss1/fc"
  param {
    lr_mult: 1
    decay_mult: 1
  }
  param {
    lr_mult: 2
    decay_mult: 0
  }
  inner_product_param {
    num_output: 1024
    weight_filler {
      type: "xavier"
      std: 0.02
    }
    bias_filler {
      type: "constant"
      value: 0.2
    }
  }
}
layer {
  name: "loss1/relu_fc"
  type: "ReLU"
  bottom: "loss1/fc"
  top: "loss1/fc"
}
layer {
  name: "loss1/drop_fc"
  type: "Dropout"
  bottom: "loss1/fc"
  top: "loss1/fc"
  dropout_param {
    dropout_ratio: 0.7
  }
}
layer {
  name: "loss1/classifier_kaggle"
  type: "InnerProduct"
  bottom: "loss1/fc"
  top: "loss1/classifier_kaggle"
  param {
    lr_mult: 1
    decay_mult: 1
  }
  param {
    lr_mult: 2
    decay_mult: 0
  }
  inner_product_param {
    num_output: 447
    weight_filler {
      type: "xavier"
      std: 0.0009765625
    }
    bias_filler {
      type: "constant"
      value: 0
    }
  }
}
layer {
  name: "loss1/loss"
  type: "SoftmaxWithLoss"
  bottom: "loss1/classifier_kaggle"
  bottom: "label"
  top: "loss1/loss1"
  loss_weight: 0.3
}
layer {
  name: "loss1/top-1"
  type: "Accuracy"
  bottom: "loss1/classifier_kaggle"
  bottom: "label"
  top: "loss1/top-1"
  include {
    phase: TEST
  }
}
layer {
  name: "loss1/top-5"
  type: "Accuracy"
  bottom: "loss1/classifier_kaggle"
  bottom: "label"
  top: "loss1/top-5"
  include {
    phase: TEST
  }
  accuracy_param {
    top_k: 5
  }
}
layer {
  name: "inception_4b/1x1"
  type: "Convolution"
  bottom: "inception_4a/output"
  top: "inception_4b/1x1"
  param {
    lr_mult: 1
    decay_mult: 1
  }
  param {
    lr_mult: 2
    decay_mult: 0
  }
  convolution_param {
    num_output: 160
    kernel_size: 1
    weight_filler {
      type: "xavier"
      std: 0.03
    }
    bias_filler {
      type: "constant"
      value: 0.2
    }
  }
}
layer {
  name: "inception_4b/relu_1x1"
  type: "ReLU"
  bottom: "inception_4b/1x1"
  top: "inception_4b/1x1"
}
layer {
  name: "inception_4b/3x3_reduce"
  type: "Convolution"
  bottom: "inception_4a/output"
  top: "inception_4b/3x3_reduce"
  param {
    lr_mult: 1
    decay_mult: 1
  }
  param {
    lr_mult: 2
    decay_mult: 0
  }
  convolution_param {
    num_output: 112
    kernel_size: 1
    weight_filler {
      type: "xavier"
      std: 0.09
    }
    bias_filler {
      type: "constant"
      value: 0.2
    }
  }
}
layer {
  name: "inception_4b/relu_3x3_reduce"
  type: "ReLU"
  bottom: "inception_4b/3x3_reduce"
  top: "inception_4b/3x3_reduce"
}
layer {
  name: "inception_4b/3x3"
  type: "Convolution"
  bottom: "inception_4b/3x3_reduce"
  top: "inception_4b/3x3"
  param {
    lr_mult: 1
    decay_mult: 1
  }
  param {
    lr_mult: 2
    decay_mult: 0
  }
  convolution_param {
    num_output: 224
    pad: 1
    kernel_size: 3
    weight_filler {
      type: "xavier"
      std: 0.03
    }
    bias_filler {
      type: "constant"
      value: 0.2
    }
  }
}
layer {
  name: "inception_4b/relu_3x3"
  type: "ReLU"
  bottom: "inception_4b/3x3"
  top: "inception_4b/3x3"
}
layer {
  name: "inception_4b/5x5_reduce"
  type: "Convolution"
  bottom: "inception_4a/output"
  top: "inception_4b/5x5_reduce"
  param {
    lr_mult: 1
    decay_mult: 1
  }
  param {
    lr_mult: 2
    decay_mult: 0
  }
  convolution_param {
    num_output: 24
    kernel_size: 1
    weight_filler {
      type: "xavier"
      std: 0.2
    }
    bias_filler {
      type: "constant"
      value: 0.2
    }
  }
}
layer {
  name: "inception_4b/relu_5x5_reduce"
  type: "ReLU"
  bottom: "inception_4b/5x5_reduce"
  top: "inception_4b/5x5_reduce"
}
layer {
  name: "inception_4b/5x5"
  type: "Convolution"
  bottom: "inception_4b/5x5_reduce"
  top: "inception_4b/5x5"
  param {
    lr_mult: 1
    decay_mult: 1
  }
  param {
    lr_mult: 2
    decay_mult: 0
  }
  convolution_param {
    num_output: 64
    pad: 2
    kernel_size: 5
    weight_filler {
      type: "xavier"
      std: 0.03
    }
    bias_filler {
      type: "constant"
      value: 0.2
    }
  }
}
layer {
  name: "inception_4b/relu_5x5"
  type: "ReLU"
  bottom: "inception_4b/5x5"
  top: "inception_4b/5x5"
}
layer {
  name: "inception_4b/pool"
  type: "Pooling"
  bottom: "inception_4a/output"
  top: "inception_4b/pool"
  pooling_param {
    pool: MAX
    kernel_size: 3
    stride: 1
    pad: 1
  }
}
layer {
  name: "inception_4b/pool_proj"
  type: "Convolution"
  bottom: "inception_4b/pool"
  top: "inception_4b/pool_proj"
  param {
    lr_mult: 1
    decay_mult: 1
  }
  param {
    lr_mult: 2
    decay_mult: 0
  }
  convolution_param {
    num_output: 64
    kernel_size: 1
    weight_filler {
      type: "xavier"
      std: 0.1
    }
    bias_filler {
      type: "constant"
      value: 0.2
    }
  }
}
layer {
  name: "inception_4b/relu_pool_proj"
  type: "ReLU"
  bottom: "inception_4b/pool_proj"
  top: "inception_4b/pool_proj"
}
layer {
  name: "inception_4b/output"
  type: "Concat"
  bottom: "inception_4b/1x1"
  bottom: "inception_4b/3x3"
  bottom: "inception_4b/5x5"
  bottom: "inception_4b/pool_proj"
  top: "inception_4b/output"
}
layer {
  name: "inception_4c/1x1"
  type: "Convolution"
  bottom: "inception_4b/output"
  top: "inception_4c/1x1"
  param {
    lr_mult: 1
    decay_mult: 1
  }
  param {
    lr_mult: 2
    decay_mult: 0
  }
  convolution_param {
    num_output: 128
    kernel_size: 1
    weight_filler {
      type: "xavier"
      std: 0.03
    }
    bias_filler {
      type: "constant"
      value: 0.2
    }
  }
}
layer {
  name: "inception_4c/relu_1x1"
  type: "ReLU"
  bottom: "inception_4c/1x1"
  top: "inception_4c/1x1"
}
layer {
  name: "inception_4c/3x3_reduce"
  type: "Convolution"
  bottom: "inception_4b/output"
  top: "inception_4c/3x3_reduce"
  param {
    lr_mult: 1
    decay_mult: 1
  }
  param {
    lr_mult: 2
    decay_mult: 0
  }
  convolution_param {
    num_output: 128
    kernel_size: 1
    weight_filler {
      type: "xavier"
      std: 0.09
    }
    bias_filler {
      type: "constant"
      value: 0.2
    }
  }
}
layer {
  name: "inception_4c/relu_3x3_reduce"
  type: "ReLU"
  bottom: "inception_4c/3x3_reduce"
  top: "inception_4c/3x3_reduce"
}
layer {
  name: "inception_4c/3x3"
  type: "Convolution"
  bottom: "inception_4c/3x3_reduce"
  top: "inception_4c/3x3"
  param {
    lr_mult: 1
    decay_mult: 1
  }
  param {
    lr_mult: 2
    decay_mult: 0
  }
  convolution_param {
    num_output: 256
    pad: 1
    kernel_size: 3
    weight_filler {
      type: "xavier"
      std: 0.03
    }
    bias_filler {
      type: "constant"
      value: 0.2
    }
  }
}
layer {
  name: "inception_4c/relu_3x3"
  type: "ReLU"
  bottom: "inception_4c/3x3"
  top: "inception_4c/3x3"
}
layer {
  name: "inception_4c/5x5_reduce"
  type: "Convolution"
  bottom: "inception_4b/output"
  top: "inception_4c/5x5_reduce"
  param {
    lr_mult: 1
    decay_mult: 1
  }
  param {
    lr_mult: 2
    decay_mult: 0
  }
  convolution_param {
    num_output: 24
    kernel_size: 1
    weight_filler {
      type: "xavier"
      std: 0.2
    }
    bias_filler {
      type: "constant"
      value: 0.2
    }
  }
}
layer {
  name: "inception_4c/relu_5x5_reduce"
  type: "ReLU"
  bottom: "inception_4c/5x5_reduce"
  top: "inception_4c/5x5_reduce"
}
layer {
  name: "inception_4c/5x5"
  type: "Convolution"
  bottom: "inception_4c/5x5_reduce"
  top: "inception_4c/5x5"
  param {
    lr_mult: 1
    decay_mult: 1
  }
  param {
    lr_mult: 2
    decay_mult: 0
  }
  convolution_param {
    num_output: 64
    pad: 2
    kernel_size: 5
    weight_filler {
      type: "xavier"
      std: 0.03
    }
    bias_filler {
      type: "constant"
      value: 0.2
    }
  }
}
layer {
  name: "inception_4c/relu_5x5"
  type: "ReLU"
  bottom: "inception_4c/5x5"
  top: "inception_4c/5x5"
}
layer {
  name: "inception_4c/pool"
  type: "Pooling"
  bottom: "inception_4b/output"
  top: "inception_4c/pool"
  pooling_param {
    pool: MAX
    kernel_size: 3
    stride: 1
    pad: 1
  }
}
layer {
  name: "inception_4c/pool_proj"
  type: "Convolution"
  bottom: "inception_4c/pool"
  top: "inception_4c/pool_proj"
  param {
    lr_mult: 1
    decay_mult: 1
  }
  param {
    lr_mult: 2
    decay_mult: 0
  }
  convolution_param {
    num_output: 64
    kernel_size: 1
    weight_filler {
      type: "xavier"
      std: 0.1
    }
    bias_filler {
      type: "constant"
      value: 0.2
    }
  }
}
layer {
  name: "inception_4c/relu_pool_proj"
  type: "ReLU"
  bottom: "inception_4c/pool_proj"
  top: "inception_4c/pool_proj"
}
layer {
  name: "inception_4c/output"
  type: "Concat"
  bottom: "inception_4c/1x1"
  bottom: "inception_4c/3x3"
  bottom: "inception_4c/5x5"
  bottom: "inception_4c/pool_proj"
  top: "inception_4c/output"
}
layer {
  name: "inception_4d/1x1"
  type: "Convolution"
  bottom: "inception_4c/output"
  top: "inception_4d/1x1"
  param {
    lr_mult: 1
    decay_mult: 1
  }
  param {
    lr_mult: 2
    decay_mult: 0
  }
  convolution_param {
    num_output: 112
    kernel_size: 1
    weight_filler {
      type: "xavier"
      std: 0.03
    }
    bias_filler {
      type: "constant"
      value: 0.2
    }
  }
}
layer {
  name: "inception_4d/relu_1x1"
  type: "ReLU"
  bottom: "inception_4d/1x1"
  top: "inception_4d/1x1"
}
layer {
  name: "inception_4d/3x3_reduce"
  type: "Convolution"
  bottom: "inception_4c/output"
  top: "inception_4d/3x3_reduce"
  param {
    lr_mult: 1
    decay_mult: 1
  }
  param {
    lr_mult: 2
    decay_mult: 0
  }
  convolution_param {
    num_output: 144
    kernel_size: 1
    weight_filler {
      type: "xavier"
      std: 0.09
    }
    bias_filler {
      type: "constant"
      value: 0.2
    }
  }
}
layer {
  name: "inception_4d/relu_3x3_reduce"
  type: "ReLU"
  bottom: "inception_4d/3x3_reduce"
  top: "inception_4d/3x3_reduce"
}
layer {
  name: "inception_4d/3x3"
  type: "Convolution"
  bottom: "inception_4d/3x3_reduce"
  top: "inception_4d/3x3"
  param {
    lr_mult: 1
    decay_mult: 1
  }
  param {
    lr_mult: 2
    decay_mult: 0
  }
  convolution_param {
    num_output: 288
    pad: 1
    kernel_size: 3
    weight_filler {
      type: "xavier"
      std: 0.03
    }
    bias_filler {
      type: "constant"
      value: 0.2
    }
  }
}
layer {
  name: "inception_4d/relu_3x3"
  type: "ReLU"
  bottom: "inception_4d/3x3"
  top: "inception_4d/3x3"
}
layer {
  name: "inception_4d/5x5_reduce"
  type: "Convolution"
  bottom: "inception_4c/output"
  top: "inception_4d/5x5_reduce"
  param {
    lr_mult: 1
    decay_mult: 1
  }
  param {
    lr_mult: 2
    decay_mult: 0
  }
  convolution_param {
    num_output: 32
    kernel_size: 1
    weight_filler {
      type: "xavier"
      std: 0.2
    }
    bias_filler {
      type: "constant"
      value: 0.2
    }
  }
}
layer {
  name: "inception_4d/relu_5x5_reduce"
  type: "ReLU"
  bottom: "inception_4d/5x5_reduce"
  top: "inception_4d/5x5_reduce"
}
layer {
  name: "inception_4d/5x5"
  type: "Convolution"
  bottom: "inception_4d/5x5_reduce"
  top: "inception_4d/5x5"
  param {
    lr_mult: 1
    decay_mult: 1
  }
  param {
    lr_mult: 2
    decay_mult: 0
  }
  convolution_param {
    num_output: 64
    pad: 2
    kernel_size: 5
    weight_filler {
      type: "xavier"
      std: 0.03
    }
    bias_filler {
      type: "constant"
      value: 0.2
    }
  }
}
layer {
  name: "inception_4d/relu_5x5"
  type: "ReLU"
  bottom: "inception_4d/5x5"
  top: "inception_4d/5x5"
}
layer {
  name: "inception_4d/pool"
  type: "Pooling"
  bottom: "inception_4c/output"
  top: "inception_4d/pool"
  pooling_param {
    pool: MAX
    kernel_size: 3
    stride: 1
    pad: 1
  }
}
layer {
  name: "inception_4d/pool_proj"
  type: "Convolution"
  bottom: "inception_4d/pool"
  top: "inception_4d/pool_proj"
  param {
    lr_mult: 1
    decay_mult: 1
  }
  param {
    lr_mult: 2
    decay_mult: 0
  }
  convolution_param {
    num_output: 64
    kernel_size: 1
    weight_filler {
      type: "xavier"
      std: 0.1
    }
    bias_filler {
      type: "constant"
      value: 0.2
    }
  }
}
layer {
  name: "inception_4d/relu_pool_proj"
  type: "ReLU"
  bottom: "inception_4d/pool_proj"
  top: "inception_4d/pool_proj"
}
layer {
…
I1215 23:11:06.282101 11477 net.cpp:84] Creating Layer inception_4c/1x1
I1215 23:11:06.282106 11477 net.cpp:380] inception_4c/1x1 <- inception_4b/output_inception_4b/output_0_split_0
I1215 23:11:06.282114 11477 net.cpp:338] inception_4c/1x1 -> inception_4c/1x1
I1215 23:11:06.282121 11477 net.cpp:113] Setting up inception_4c/1x1
I1215 23:11:06.283648 11477 net.cpp:120] Top shape: 50 128 14 14 (1254400)
I1215 23:11:06.283664 11477 layer_factory.hpp:74] Creating layer inception_4c/relu_1x1
I1215 23:11:06.283674 11477 net.cpp:84] Creating Layer inception_4c/relu_1x1
I1215 23:11:06.283679 11477 net.cpp:380] inception_4c/relu_1x1 <- inception_4c/1x1
I1215 23:11:06.283685 11477 net.cpp:327] inception_4c/relu_1x1 -> inception_4c/1x1 (in-place)
I1215 23:11:06.283692 11477 net.cpp:113] Setting up inception_4c/relu_1x1
I1215 23:11:06.284349 11477 net.cpp:120] Top shape: 50 128 14 14 (1254400)
I1215 23:11:06.284361 11477 layer_factory.hpp:74] Creating layer inception_4c/3x3_reduce
I1215 23:11:06.284370 11477 net.cpp:84] Creating Layer inception_4c/3x3_reduce
I1215 23:11:06.284375 11477 net.cpp:380] inception_4c/3x3_reduce <- inception_4b/output_inception_4b/output_0_split_1
I1215 23:11:06.284384 11477 net.cpp:338] inception_4c/3x3_reduce -> inception_4c/3x3_reduce
I1215 23:11:06.284397 11477 net.cpp:113] Setting up inception_4c/3x3_reduce
I1215 23:11:06.286232 11477 net.cpp:120] Top shape: 50 128 14 14 (1254400)
I1215 23:11:06.286250 11477 layer_factory.hpp:74] Creating layer inception_4c/relu_3x3_reduce
I1215 23:11:06.286258 11477 net.cpp:84] Creating Layer inception_4c/relu_3x3_reduce
I1215 23:11:06.286263 11477 net.cpp:380] inception_4c/relu_3x3_reduce <- inception_4c/3x3_reduce
I1215 23:11:06.286270 11477 net.cpp:327] inception_4c/relu_3x3_reduce -> inception_4c/3x3_reduce (in-place)
I1215 23:11:06.286278 11477 net.cpp:113] Setting up inception_4c/relu_3x3_reduce
I1215 23:11:06.286345 11477 net.cpp:120] Top shape: 50 128 14 14 (1254400)
I1215 23:11:06.286352 11477 layer_factory.hpp:74] Creating layer inception_4c/3x3
I1215 23:11:06.286363 11477 net.cpp:84] Creating Layer inception_4c/3x3
I1215 23:11:06.286368 11477 net.cpp:380] inception_4c/3x3 <- inception_4c/3x3_reduce
I1215 23:11:06.286375 11477 net.cpp:338] inception_4c/3x3 -> inception_4c/3x3
I1215 23:11:06.286382 11477 net.cpp:113] Setting up inception_4c/3x3
I1215 23:11:06.294826 11477 net.cpp:120] Top shape: 50 256 14 14 (2508800)
I1215 23:11:06.294857 11477 layer_factory.hpp:74] Creating layer inception_4c/relu_3x3
I1215 23:11:06.294878 11477 net.cpp:84] Creating Layer inception_4c/relu_3x3
I1215 23:11:06.294883 11477 net.cpp:380] inception_4c/relu_3x3 <- inception_4c/3x3
I1215 23:11:06.294890 11477 net.cpp:327] inception_4c/relu_3x3 -> inception_4c/3x3 (in-place)
I1215 23:11:06.294898 11477 net.cpp:113] Setting up inception_4c/relu_3x3
I1215 23:11:06.294965 11477 net.cpp:120] Top shape: 50 256 14 14 (2508800)
I1215 23:11:06.294970 11477 layer_factory.hpp:74] Creating layer inception_4c/5x5_reduce
I1215 23:11:06.294981 11477 net.cpp:84] Creating Layer inception_4c/5x5_reduce
I1215 23:11:06.294986 11477 net.cpp:380] inception_4c/5x5_reduce <- inception_4b/output_inception_4b/output_0_split_2
I1215 23:11:06.294994 11477 net.cpp:338] inception_4c/5x5_reduce -> inception_4c/5x5_reduce
I1215 23:11:06.295002 11477 net.cpp:113] Setting up inception_4c/5x5_reduce
I1215 23:11:06.296706 11477 net.cpp:120] Top shape: 50 24 14 14 (235200)
I1215 23:11:06.296725 11477 layer_factory.hpp:74] Creating layer inception_4c/relu_5x5_reduce
I1215 23:11:06.296733 11477 net.cpp:84] Creating Layer inception_4c/relu_5x5_reduce
I1215 23:11:06.296738 11477 net.cpp:380] inception_4c/relu_5x5_reduce <- inception_4c/5x5_reduce
I1215 23:11:06.296747 11477 net.cpp:327] inception_4c/relu_5x5_reduce -> inception_4c/5x5_reduce (in-place)
I1215 23:11:06.296756 11477 net.cpp:113] Setting up inception_4c/relu_5x5_reduce
I1215 23:11:06.298058 11477 net.cpp:120] Top shape: 50 24 14 14 (235200)
I1215 23:11:06.298074 11477 layer_factory.hpp:74] Creating layer inception_4c/5x5
I1215 23:11:06.298086 11477 net.cpp:84] Creating Layer inception_4c/5x5
I1215 23:11:06.298092 11477 net.cpp:380] inception_4c/5x5 <- inception_4c/5x5_reduce
I1215 23:11:06.298099 11477 net.cpp:338] inception_4c/5x5 -> inception_4c/5x5
I1215 23:11:06.298108 11477 net.cpp:113] Setting up inception_4c/5x5
I1215 23:11:06.298928 11477 net.cpp:120] Top shape: 50 64 14 14 (627200)
I1215 23:11:06.298944 11477 layer_factory.hpp:74] Creating layer inception_4c/relu_5x5
I1215 23:11:06.298952 11477 net.cpp:84] Creating Layer inception_4c/relu_5x5
I1215 23:11:06.298957 11477 net.cpp:380] inception_4c/relu_5x5 <- inception_4c/5x5
I1215 23:11:06.298964 11477 net.cpp:327] inception_4c/relu_5x5 -> inception_4c/5x5 (in-place)
I1215 23:11:06.298970 11477 net.cpp:113] Setting up inception_4c/relu_5x5
I1215 23:11:06.299039 11477 net.cpp:120] Top shape: 50 64 14 14 (627200)
I1215 23:11:06.299046 11477 layer_factory.hpp:74] Creating layer inception_4c/pool
I1215 23:11:06.299052 11477 layer_factory.cpp:56] CUDNN does not support padding or multiple tops. Using Caffe's own pooling layer.
I1215 23:11:06.299058 11477 net.cpp:84] Creating Layer inception_4c/pool
I1215 23:11:06.299063 11477 net.cpp:380] inception_4c/pool <- inception_4b/output_inception_4b/output_0_split_3
I1215 23:11:06.299069 11477 net.cpp:338] inception_4c/pool -> inception_4c/pool
I1215 23:11:06.299082 11477 net.cpp:113] Setting up inception_4c/pool
I1215 23:11:06.299098 11477 net.cpp:120] Top shape: 50 512 14 14 (5017600)
I1215 23:11:06.299103 11477 layer_factory.hpp:74] Creating layer inception_4c/pool_proj
I1215 23:11:06.299113 11477 net.cpp:84] Creating Layer inception_4c/pool_proj
I1215 23:11:06.299118 11477 net.cpp:380] inception_4c/pool_proj <- inception_4c/pool
I1215 23:11:06.299125 11477 net.cpp:338] inception_4c/pool_proj -> inception_4c/pool_proj
I1215 23:11:06.299132 11477 net.cpp:113] Setting up inception_4c/pool_proj
I1215 23:11:06.300292 11477 net.cpp:120] Top shape: 50 64 14 14 (627200)
I1215 23:11:06.300307 11477 layer_factory.hpp:74] Creating layer inception_4c/relu_pool_proj
I1215 23:11:06.300314 11477 net.cpp:84] Creating Layer inception_4c/relu_pool_proj
I1215 23:11:06.300319 11477 net.cpp:380] inception_4c/relu_pool_proj <- inception_4c/pool_proj
I1215 23:11:06.300328 11477 net.cpp:327] inception_4c/relu_pool_proj -> inception_4c/pool_proj (in-place)
I1215 23:11:06.300334 11477 net.cpp:113] Setting up inception_4c/relu_pool_proj
I1215 23:11:06.300398 11477 net.cpp:120] Top shape: 50 64 14 14 (627200)
I1215 23:11:06.300405 11477 layer_factory.hpp:74] Creating layer inception_4c/output
I1215 23:11:06.300411 11477 net.cpp:84] Creating Layer inception_4c/output
I1215 23:11:06.300415 11477 net.cpp:380] inception_4c/output <- inception_4c/1x1
I1215 23:11:06.300421 11477 net.cpp:380] inception_4c/output <- inception_4c/3x3
I1215 23:11:06.300426 11477 net.cpp:380] inception_4c/output <- inception_4c/5x5
I1215 23:11:06.300431 11477 net.cpp:380] inception_4c/output <- inception_4c/pool_proj
I1215 23:11:06.300438 11477 net.cpp:338] inception_4c/output -> inception_4c/output
I1215 23:11:06.300444 11477 net.cpp:113] Setting up inception_4c/output
I1215 23:11:06.300451 11477 net.cpp:120] Top shape: 50 512 14 14 (5017600)
I1215 23:11:06.300456 11477 layer_factory.hpp:74] Creating layer inception_4c/output_inception_4c/output_0_split
I1215 23:11:06.300462 11477 net.cpp:84] Creating Layer inception_4c/output_inception_4c/output_0_split
I1215 23:11:06.300465 11477 net.cpp:380] inception_4c/output_inception_4c/output_0_split <- inception_4c/output
I1215 23:11:06.300473 11477 net.cpp:338] inception_4c/output_inception_4c/output_0_split -> inception_4c/output_inception_4c/output_0_split_0
I1215 23:11:06.300479 11477 net.cpp:338] inception_4c/output_inception_4c/output_0_split -> inception_4c/output_inception_4c/output_0_split_1
I1215 23:11:06.300487 11477 net.cpp:338] inception_4c/output_inception_4c/output_0_split -> inception_4c/output_inception_4c/output_0_split_2
I1215 23:11:06.300493 11477 net.cpp:338] inception_4c/output_inception_4c/output_0_split -> inception_4c/output_inception_4c/output_0_split_3
I1215 23:11:06.300498 11477 net.cpp:113] Setting up inception_4c/output_inception_4c/output_0_split
I1215 23:11:06.300504 11477 net.cpp:120] Top shape: 50 512 14 14 (5017600)
I1215 23:11:06.300509 11477 net.cpp:120] Top shape: 50 512 14 14 (5017600)
I1215 23:11:06.300513 11477 net.cpp:120] Top shape: 50 512 14 14 (5017600)
I1215 23:11:06.300518 11477 net.cpp:120] Top shape: 50 512 14 14 (5017600)
I1215 23:11:06.300521 11477 layer_factory.hpp:74] Creating layer inception_4d/1x1
I1215 23:11:06.300530 11477 net.cpp:84] Creating Layer inception_4d/1x1
I1215 23:11:06.300534 11477 net.cpp:380] inception_4d/1x1 <- inception_4c/output_inception_4c/output_0_split_0
I1215 23:11:06.300540 11477 net.cpp:338] inception_4d/1x1 -> inception_4d/1x1
I1215 23:11:06.300549 11477 net.cpp:113] Setting up inception_4d/1x1
I1215 23:11:06.302178 11477 net.cpp:120] Top shape: 50 112 14 14 (1097600)
I1215 23:11:06.302197 11477 layer_factory.hpp:74] Creating layer inception_4d/relu_1x1
I1215 23:11:06.302206 11477 net.cpp:84] Creating Layer inception_4d/relu_1x1
I1215 23:11:06.302211 11477 net.cpp:380] inception_4d/relu_1x1 <- inception_4d/1x1
I1215 23:11:06.302219 11477 net.cpp:327] inception_4d/relu_1x1 -> inception_4d/1x1 (in-place)
I1215 23:11:06.302227 11477 net.cpp:113] Setting up inception_4d/relu_1x1
I1215 23:11:06.302299 11477 net.cpp:120] Top shape: 50 112 14 14 (1097600)
I1215 23:11:06.302317 11477 layer_factory.hpp:74] Creating layer inception_4d/3x3_reduce
I1215 23:11:06.302327 11477 net.cpp:84] Creating Layer inception_4d/3x3_reduce
I1215 23:11:06.302332 11477 net.cpp:380] inception_4d/3x3_reduce <- inception_4c/output_inception_4c/output_0_split_1
I1215 23:11:06.302341 11477 net.cpp:338] inception_4d/3x3_reduce -> inception_4d/3x3_reduce
I1215 23:11:06.302350 11477 net.cpp:113] Setting up inception_4d/3x3_reduce
I1215 23:11:06.304072 11477 net.cpp:120] Top shape: 50 144 14 14 (1411200)
I1215 23:11:06.304087 11477 layer_factory.hpp:74] Creating layer inception_4d/relu_3x3_reduce
I1215 23:11:06.304096 11477 net.cpp:84] Creating Layer inception_4d/relu_3x3_reduce
I1215 23:11:06.304102 11477 net.cpp:380] inception_4d/relu_3x3_reduce <- inception_4d/3x3_reduce
I1215 23:11:06.304108 11477 net.cpp:327] inception_4d/relu_3x3_reduce -> inception_4d/3x3_reduce (in-place)
I1215 23:11:06.304116 11477 net.cpp:113] Setting up inception_4d/relu_3x3_reduce
I1215 23:11:06.304352 11477 net.cpp:120] Top shape: 50 144 14 14 (1411200)
I1215 23:11:06.304363 11477 layer_factory.hpp:74] Creating layer inception_4d/3x3
I1215 23:11:06.304373 11477 net.cpp:84] Creating Layer inception_4d/3x3
I1215 23:11:06.304378 11477 net.cpp:380] inception_4d/3x3 <- inception_4d/3x3_reduce
I1215 23:11:06.304386 11477 net.cpp:338] inception_4d/3x3 -> inception_4d/3x3
I1215 23:11:06.304394 11477 net.cpp:113] Setting up inception_4d/3x3
I1215 23:11:06.356938 11477 net.cpp:120] Top shape: 50 288 14 14 (2822400)
I1215 23:11:06.356964 11477 layer_factory.hpp:74] Creating layer inception_4d/relu_3x3
I1215 23:11:06.356973 11477 net.cpp:84] Creating Layer inception_4d/relu_3x3
I1215 23:11:06.356979 11477 net.cpp:380] inception_4d/relu_3x3 <- inception_4d/3x3
I1215 23:11:06.356987 11477 net.cpp:327] inception_4d/relu_3x3 -> inception_4d/3x3 (in-place)
I1215 23:11:06.356997 11477 net.cpp:113] Setting up inception_4d/relu_3x3
I1215 23:11:06.357116 11477 net.cpp:120] Top shape: 50 288 14 14 (2822400)
I1215 23:11:06.357125 11477 layer_factory.hpp:74] Creating layer inception_4d/5x5_reduce
I1215 23:11:06.357136 11477 net.cpp:84] Creating Layer inception_4d/5x5_reduce
I1215 23:11:06.357141 11477 net.cpp:380] inception_4d/5x5_reduce <- inception_4c/output_inception_4c/output_0_split_2
I1215 23:11:06.357149 11477 net.cpp:338] inception_4d/5x5_reduce -> inception_4d/5x5_reduce
I1215 23:11:06.357158 11477 net.cpp:113] Setting up inception_4d/5x5_reduce
I1215 23:11:06.357846 11477 net.cpp:120] Top shape: 50 32 14 14 (313600)
I1215 23:11:06.357861 11477 layer_factory.hpp:74] Creating layer inception_4d/relu_5x5_reduce
I1215 23:11:06.357869 11477 net.cpp:84] Creating Layer inception_4d/relu_5x5_reduce
I1215 23:11:06.357874 11477 net.cpp:380] inception_4d/relu_5x5_reduce <- inception_4d/5x5_reduce
I1215 23:11:06.357882 11477 net.cpp:327] inception_4d/relu_5x5_reduce -> inception_4d/5x5_reduce (in-place)
I1215 23:11:06.357888 11477 net.cpp:113] Setting up inception_4d/relu_5x5_reduce
I1215 23:11:06.357959 11477 net.cpp:120] Top shape: 50 32 14 14 (313600)
I1215 23:11:06.357965 11477 layer_factory.hpp:74] Creating layer inception_4d/5x5
I1215 23:11:06.357975 11477 net.cpp:84] Creating Layer inception_4d/5x5
I1215 23:11:06.357980 11477 net.cpp:380] inception_4d/5x5 <- inception_4d/5x5_reduce
I1215 23:11:06.357986 11477 net.cpp:338] inception_4d/5x5 -> inception_4d/5x5
I1215 23:11:06.357995 11477 net.cpp:113] Setting up inception_4d/5x5
I1215 23:11:06.358937 11477 net.cpp:120] Top shape: 50 64 14 14 (627200)
I1215 23:11:06.358952 11477 layer_factory.hpp:74] Creating layer inception_4d/relu_5x5
I1215 23:11:06.358959 11477 net.cpp:84] Creating Layer inception_4d/relu_5x5
I1215 23:11:06.358964 11477 net.cpp:380] inception_4d/relu_5x5 <- inception_4d/5x5
I1215 23:11:06.358970 11477 net.cpp:327] inception_4d/relu_5x5 -> inception_4d/5x5 (in-place)
I1215 23:11:06.358978 11477 net.cpp:113] Setting up inception_4d/relu_5x5
I1215 23:11:06.359045 11477 net.cpp:120] Top shape: 50 64 14 14 (627200)
I1215 23:11:06.359056 11477 layer_factory.hpp:74] Creating layer inception_4d/pool
I1215 23:11:06.359076 11477 layer_factory.cpp:56] CUDNN does not support padding or multiple tops. Using Caffe's own pooling layer.
I1215 23:11:06.359086 11477 net.cpp:84] Creating Layer inception_4d/pool
I1215 23:11:06.359091 11477 net.cpp:380] inception_4d/pool <- inception_4c/output_inception_4c/output_0_split_3
I1215 23:11:06.359097 11477 net.cpp:338] inception_4d/pool -> inception_4d/pool
I1215 23:11:06.359105 11477 net.cpp:113] Setting up inception_4d/pool
I1215 23:11:06.359113 11477 net.cpp:120] Top shape: 50 512 14 14 (5017600)
I1215 23:11:06.359117 11477 layer_factory.hpp:74] Creating layer inception_4d/pool_proj
I1215 23:11:06.359127 11477 net.cpp:84] Creating Layer inception_4d/pool_proj
I1215 23:11:06.359133 11477 net.cpp:380] inception_4d/pool_proj <- inception_4d/pool
I1215 23:11:06.359138 11477 net.cpp:338] inception_4d/pool_proj -> inception_4d/pool_proj
I1215 23:11:06.359145 11477 net.cpp:113] Setting up inception_4d/pool_proj
I1215 23:11:06.359899 11477 net.cpp:120] Top shape: 50 64 14 14 (627200)
I1215 23:11:06.359913 11477 layer_factory.hpp:74] Creating layer inception_4d/relu_pool_proj
I1215 23:11:06.359920 11477 net.cpp:84] Creating Layer inception_4d/relu_pool_proj
I1215 23:11:06.359925 11477 net.cpp:380] inception_4d/relu_pool_proj <- inception_4d/pool_proj
I1215 23:11:06.359933 11477 net.cpp:327] inception_4d/relu_pool_proj -> inception_4d/pool_proj (in-place)
I1215 23:11:06.359941 11477 net.cpp:113] Setting up inception_4d/relu_pool_proj
I1215 23:11:06.360172 11477 net.cpp:120] Top shape: 50 64 14 14 (627200)
I1215 23:11:06.360183 11477 layer_factory.hpp:74] Creating layer inception_4d/output
I1215 23:11:06.360191 11477 net.cpp:84] Creating Layer inception_4d/output
I1215 23:11:06.360198 11477 net.cpp:380] inception_4d/output <- inception_4d/1x1
I1215 23:11:06.360203 11477 net.cpp:380] inception_4d/output <- inception_4d/3x3
I1215 23:11:06.360208 11477 net.cpp:380] inception_4d/output <- inception_4d/5x5
I1215 23:11:06.360213 11477 net.cpp:380] inception_4d/output <- inception_4d/pool_proj
I1215 23:11:06.360219 11477 net.cpp:338] inception_4d/output -> inception_4d/output
I1215 23:11:06.360226 11477 net.cpp:113] Setting up inception_4d/output
I1215 23:11:06.360234 11477 net.cpp:120] Top shape: 50 528 14 14 (5174400)
I1215 23:11:06.360239 11477 layer_factory.hpp:74] Creating layer inception_4d/output_inception_4d/output_0_split
I1215 23:11:06.360246 11477 net.cpp:84] Creating Layer inception_4d/output_inception_4d/output_0_split
I1215 23:11:06.360250 11477 net.cpp:380] inception_4d/output_inception_4d/output_0_split <- inception_4d/output
I1215 23:11:06.360256 11477 net.cpp:338] inception_4d/output_inception_4d/output_0_split -> inception_4d/output_inception_4d/output_0_split_0
I1215 23:11:06.360263 11477 net.cpp:338] inception_4d/output_inception_4d/output_0_split -> inception_4d/output_inception_4d/output_0_split_1
I1215 23:11:06.360270 11477 net.cpp:338] inception_4d/output_inception_4d/output_0_split -> inception_4d/output_inception_4d/output_0_split_2
I1215 23:11:06.360276 11477 net.cpp:338] inception_4d/output_inception_4d/output_0_split -> inception_4d/output_inception_4d/output_0_split_3
I1215 23:11:06.360282 11477 net.cpp:338] inception_4d/output_inception_4d/output_0_split -> inception_4d/output_inception_4d/output_0_split_4
I1215 23:11:06.360288 11477 net.cpp:113] Setting up inception_4d/output_inception_4d/output_0_split
I1215 23:11:06.360296 11477 net.cpp:120] Top shape: 50 528 14 14 (5174400)
I1215 23:11:06.360302 11477 net.cpp:120] Top shape: 50 528 14 14 (5174400)
I1215 23:11:06.360306 11477 net.cpp:120] Top shape: 50 528 14 14 (5174400)
I1215 23:11:06.360311 11477 net.cpp:120] Top shape: 50 528 14 14 (5174400)
I1215 23:11:06.360316 11477 net.cpp:120] Top shape: 50 528 14 14 (5174400)
I1215 23:11:06.360319 11477 layer_factory.hpp:74] Creating layer loss2/ave_pool
I1215 23:11:06.360327 11477 net.cpp:84] Creating Layer loss2/ave_pool
I1215 23:11:06.360330 11477 net.cpp:380] loss2/ave_pool <- inception_4d/output_inception_4d/output_0_split_0
I1215 23:11:06.360350 11477 net.cpp:338] loss2/ave_pool -> loss2/ave_pool
I1215 23:11:06.360358 11477 net.cpp:113] Setting up loss2/ave_pool
I1215 23:11:06.360427 11477 net.cpp:120] Top shape: 50 528 4 4 (422400)
I1215 23:11:06.360435 11477 layer_factory.hpp:74] Creating layer loss2/conv
I1215 23:11:06.360442 11477 net.cpp:84] Creating Layer loss2/conv
I1215 23:11:06.360448 11477 net.cpp:380] loss2/conv <- loss2/ave_pool
I1215 23:11:06.360455 11477 net.cpp:338] loss2/conv -> loss2/conv
I1215 23:11:06.360462 11477 net.cpp:113] Setting up loss2/conv
I1215 23:11:06.361600 11477 net.cpp:120] Top shape: 50 128 4 4 (102400)
I1215 23:11:06.361615 11477 layer_factory.hpp:74] Creating layer loss2/relu_conv
I1215 23:11:06.361625 11477 net.cpp:84] Creating Layer loss2/relu_conv
I1215 23:11:06.361630 11477 net.cpp:380] loss2/relu_conv <- loss2/conv
I1215 23:11:06.361636 11477 net.cpp:327] loss2/relu_conv -> loss2/conv (in-place)
I1215 23:11:06.361644 11477 net.cpp:113] Setting up loss2/relu_conv
I1215 23:11:06.361711 11477 net.cpp:120] Top shape: 50 128 4 4 (102400)
I1215 23:11:06.361716 11477 layer_factory.hpp:74] Creating layer loss2/fc
I1215 23:11:06.361726 11477 net.cpp:84] Creating Layer loss2/fc
I1215 23:11:06.361731 11477 net.cpp:380] loss2/fc <- loss2/conv
I1215 23:11:06.361738 11477 net.cpp:338] loss2/fc -> loss2/fc
I1215 23:11:06.361747 11477 net.cpp:113] Setting up loss2/fc
I1215 23:11:06.382997 11477 net.cpp:120] Top shape: 50 1024 (51200)
I1215 23:11:06.383014 11477 layer_factory.hpp:74] Creating layer loss2/relu_fc
I1215 23:11:06.383023 11477 net.cpp:84] Creating Layer loss2/relu_fc
I1215 23:11:06.383028 11477 net.cpp:380] loss2/relu_fc <- loss2/fc
I1215 23:11:06.383036 11477 net.cpp:327] loss2/relu_fc -> loss2/fc (in-place)
I1215 23:11:06.383044 11477 net.cpp:113] Setting up loss2/relu_fc
I1215 23:11:06.383131 11477 net.cpp:120] Top shape: 50 1024 (51200)
I1215 23:11:06.383137 11477 layer_factory.hpp:74] Creating layer loss2/drop_fc
I1215 23:11:06.383144 11477 net.cpp:84] Creating Layer loss2/drop_fc
I1215 23:11:06.383148 11477 net.cpp:380] loss2/drop_fc <- loss2/fc
I1215 23:11:06.383154 11477 net.cpp:327] loss2/drop_fc -> loss2/fc (in-place)
I1215 23:11:06.383160 11477 net.cpp:113] Setting up loss2/drop_fc
I1215 23:11:06.383167 11477 net.cpp:120] Top shape: 50 1024 (51200)
I1215 23:11:06.383172 11477 layer_factory.hpp:74] Creating layer loss2/classifier_kaggle
I1215 23:11:06.383182 11477 net.cpp:84] Creating Layer loss2/classifier_kaggle
I1215 23:11:06.383186 11477 net.cpp:380] loss2/classifier_kaggle <- loss2/fc
I1215 23:11:06.383193 11477 net.cpp:338] loss2/classifier_kaggle -> loss2/classifier_kaggle
I1215 23:11:06.383200 11477 net.cpp:113] Setting up loss2/classifier_kaggle
I1215 23:11:06.388092 11477 net.cpp:120] Top shape: 50 447 (22350)
I1215 23:11:06.388104 11477 layer_factory.hpp:74] Creating layer loss2/classifier_kaggle_loss2/classifier_kaggle_0_split
I1215 23:11:06.388113 11477 net.cpp:84] Creating Layer loss2/classifier_kaggle_loss2/classifier_kaggle_0_split
I1215 23:11:06.388118 11477 net.cpp:380] loss2/classifier_kaggle_loss2/classifier_kaggle_0_split <- loss2/classifier_kaggle
I1215 23:11:06.388124 11477 net.cpp:338] loss2/classifier_kaggle_loss2/classifier_kaggle_0_split -> loss2/classifier_kaggle_loss2/classifier_kaggle_0_split_0
I1215 23:11:06.388133 11477 net.cpp:338] loss2/classifier_kaggle_loss2/classifier_kaggle_0_split -> loss2/classifier_kaggle_loss2/classifier_kaggle_0_split_1
I1215 23:11:06.388141 11477 net.cpp:338] loss2/classifier_kaggle_loss2/classifier_kaggle_0_split -> loss2/classifier_kaggle_loss2/classifier_kaggle_0_split_2
I1215 23:11:06.388147 11477 net.cpp:113] Setting up loss2/classifier_kaggle_loss2/classifier_kaggle_0_split
I1215 23:11:06.388154 11477 net.cpp:120] Top shape: 50 447 (22350)
I1215 23:11:06.388159 11477 net.cpp:120] Top shape: 50 447 (22350)
I1215 23:11:06.388164 11477 net.cpp:120] Top shape: 50 447 (22350)
I1215 23:11:06.388169 11477 layer_factory.hpp:74] Creating layer loss2/loss
I1215 23:11:06.388182 11477 net.cpp:84] Creating Layer loss2/loss
I1215 23:11:06.388196 11477 net.cpp:380] loss2/loss <- loss2/classifier_kaggle_loss2/classifier_kaggle_0_split_0
I1215 23:11:06.388203 11477 net.cpp:380] loss2/loss <- label_data_1_split_3
I1215 23:11:06.388209 11477 net.cpp:338] loss2/loss -> loss2/loss1
…
I1215 23:11:06.388667 11477 net.cpp:338] loss2/top-5 -> loss2/top-5
I1215 23:11:06.388674 11477 net.cpp:113] Setting up loss2/top-5
I1215 23:11:06.388679 11477 net.cpp:120] Top shape: (1)
I1215 23:11:06.388684 11477 layer_factory.hpp:74] Creating layer inception_4e/1x1
I1215 23:11:06.388691 11477 net.cpp:84] Creating Layer inception_4e/1x1
I1215 23:11:06.388696 11477 net.cpp:380] inception_4e/1x1 <- inception_4d/output_inception_4d/output_0_split_1
I1215 23:11:06.388705 11477 net.cpp:338] inception_4e/1x1 -> inception_4e/1x1
I1215 23:11:06.388712 11477 net.cpp:113] Setting up inception_4e/1x1
I1215 23:11:06.390574 11477 net.cpp:120] Top shape: 50 256 14 14 (2508800)
I1215 23:11:06.390590 11477 layer_factory.hpp:74] Creating layer inception_4e/relu_1x1
I1215 23:11:06.390599 11477 net.cpp:84] Creating Layer inception_4e/relu_1x1
I1215 23:11:06.390604 11477 net.cpp:380] inception_4e/relu_1x1 <- inception_4e/1x1
I1215 23:11:06.390609 11477 net.cpp:327] inception_4e/relu_1x1 -> inception_4e/1x1 (in-place)
I1215 23:11:06.390616 11477 net.cpp:113] Setting up inception_4e/relu_1x1
I1215 23:11:06.390682 11477 net.cpp:120] Top shape: 50 256 14 14 (2508800)
I1215 23:11:06.390688 11477 layer_factory.hpp:74] Creating layer inception_4e/3x3_reduce
I1215 23:11:06.390719 11477 net.cpp:84] Creating Layer inception_4e/3x3_reduce
I1215 23:11:06.390725 11477 net.cpp:380] inception_4e/3x3_reduce <- inception_4d/output_inception_4d/output_0_split_2
I1215 23:11:06.390733 11477 net.cpp:338] inception_4e/3x3_reduce -> inception_4e/3x3_reduce
I1215 23:11:06.390739 11477 net.cpp:113] Setting up inception_4e/3x3_reduce
I1215 23:11:06.392038 11477 net.cpp:120] Top shape: 50 160 14 14 (1568000)
I1215 23:11:06.392055 11477 layer_factory.hpp:74] Creating layer inception_4e/relu_3x3_reduce
I1215 23:11:06.392062 11477 net.cpp:84] Creating Layer inception_4e/relu_3x3_reduce
I1215 23:11:06.392067 11477 net.cpp:380] inception_4e/relu_3x3_reduce <- inception_4e/3x3_reduce
I1215 23:11:06.392073 11477 net.cpp:327] inception_4e/relu_3x3_reduce -> inception_4e/3x3_reduce (in-place)
I1215 23:11:06.392081 11477 net.cpp:113] Setting up inception_4e/relu_3x3_reduce
I1215 23:11:06.392149 11477 net.cpp:120] Top shape: 50 160 14 14 (1568000)
I1215 23:11:06.392155 11477 layer_factory.hpp:74] Creating layer inception_4e/3x3
I1215 23:11:06.392163 11477 net.cpp:84] Creating Layer inception_4e/3x3
I1215 23:11:06.392168 11477 net.cpp:380] inception_4e/3x3 <- inception_4e/3x3_reduce
I1215 23:11:06.392175 11477 net.cpp:338] inception_4e/3x3 -> inception_4e/3x3
I1215 23:11:06.392182 11477 net.cpp:113] Setting up inception_4e/3x3
I1215 23:11:06.400214 11477 net.cpp:120] Top shape: 50 320 14 14 (3136000)
I1215 23:11:06.400243 11477 layer_factory.hpp:74] Creating layer inception_4e/relu_3x3
I1215 23:11:06.400257 11477 net.cpp:84] Creating Layer inception_4e/relu_3x3
I1215 23:11:06.400264 11477 net.cpp:380] inception_4e/relu_3x3 <- inception_4e/3x3
I1215 23:11:06.400270 11477 net.cpp:327] inception_4e/relu_3x3 -> inception_4e/3x3 (in-place)
I1215 23:11:06.400279 11477 net.cpp:113] Setting up inception_4e/relu_3x3
I1215 23:11:06.400514 11477 net.cpp:120] Top shape: 50 320 14 14 (3136000)
I1215 23:11:06.400526 11477 layer_factory.hpp:74] Creating layer inception_4e/5x5_reduce
I1215 23:11:06.400534 11477 net.cpp:84] Creating Layer inception_4e/5x5_reduce
I1215 23:11:06.400539 11477 net.cpp:380] inception_4e/5x5_reduce <- inception_4d/output_inception_4d/output_0_split_3
I1215 23:11:06.400547 11477 net.cpp:338] inception_4e/5x5_reduce -> inception_4e/5x5_reduce
I1215 23:11:06.400555 11477 net.cpp:113] Setting up inception_4e/5x5_reduce
I1215 23:11:06.401134 11477 net.cpp:120] Top shape: 50 32 14 14 (313600)
I1215 23:11:06.401150 11477 layer_factory.hpp:74] Creating layer inception_4e/relu_5x5_reduce
I1215 23:11:06.401159 11477 net.cpp:84] Creating Layer inception_4e/relu_5x5_reduce
I1215 23:11:06.401163 11477 net.cpp:380] inception_4e/relu_5x5_reduce <- inception_4e/5x5_reduce
I1215 23:11:06.401170 11477 net.cpp:327] inception_4e/relu_5x5_reduce -> inception_4e/5x5_reduce (in-place)
I1215 23:11:06.401176 11477 net.cpp:113] Setting up inception_4e/relu_5x5_reduce
I1215 23:11:06.401247 11477 net.cpp:120] Top shape: 50 32 14 14 (313600)
I1215 23:11:06.401253 11477 layer_factory.hpp:74] Creating layer inception_4e/5x5
I1215 23:11:06.401262 11477 net.cpp:84] Creating Layer inception_4e/5x5
I1215 23:11:06.401267 11477 net.cpp:380] inception_4e/5x5 <- inception_4e/5x5_reduce
I1215 23:11:06.401274 11477 net.cpp:338] inception_4e/5x5 -> inception_4e/5x5
I1215 23:11:06.401283 11477 net.cpp:113] Setting up inception_4e/5x5
I1215 23:11:06.402765 11477 net.cpp:120] Top shape: 50 128 14 14 (1254400)
I1215 23:11:06.402779 11477 layer_factory.hpp:74] Creating layer inception_4e/relu_5x5
I1215 23:11:06.402788 11477 net.cpp:84] Creating Layer inception_4e/relu_5x5
I1215 23:11:06.402793 11477 net.cpp:380] inception_4e/relu_5x5 <- inception_4e/5x5
I1215 23:11:06.402799 11477 net.cpp:327] inception_4e/relu_5x5 -> inception_4e/5x5 (in-place)
I1215 23:11:06.402806 11477 net.cpp:113] Setting up inception_4e/relu_5x5
I1215 23:11:06.402873 11477 net.cpp:120] Top shape: 50 128 14 14 (1254400)
I1215 23:11:06.402879 11477 layer_factory.hpp:74] Creating layer inception_4e/pool
I1215 23:11:06.402885 11477 layer_factory.cpp:56] CUDNN does not support padding or multiple tops. Using Caffe's own pooling layer.
I1215 23:11:06.402891 11477 net.cpp:84] Creating Layer inception_4e/pool
I1215 23:11:06.402895 11477 net.cpp:380] inception_4e/pool <- inception_4d/output_inception_4d/output_0_split_4
I1215 23:11:06.402901 11477 net.cpp:338] inception_4e/pool -> inception_4e/pool
I1215 23:11:06.402909 11477 net.cpp:113] Setting up inception_4e/pool
I1215 23:11:06.402917 11477 net.cpp:120] Top shape: 50 528 14 14 (5174400)
I1215 23:11:06.402922 11477 layer_factory.hpp:74] Creating layer inception_4e/pool_proj
I1215 23:11:06.402931 11477 net.cpp:84] Creating Layer inception_4e/pool_proj
I1215 23:11:06.402936 11477 net.cpp:380] inception_4e/pool_proj <- inception_4e/pool
I1215 23:11:06.402943 11477 net.cpp:338] inception_4e/pool_proj -> inception_4e/pool_proj
I1215 23:11:06.402951 11477 net.cpp:113] Setting up inception_4e/pool_proj
I1215 23:11:06.404067 11477 net.cpp:120] Top shape: 50 128 14 14 (1254400)
I1215 23:11:06.404081 11477 layer_factory.hpp:74] Creating layer inception_4e/relu_pool_proj
I1215 23:11:06.404089 11477 net.cpp:84] Creating Layer inception_4e/relu_pool_proj
I1215 23:11:06.404094 11477 net.cpp:380] inception_4e/relu_pool_proj <- inception_4e/pool_proj
I1215 23:11:06.404100 11477 net.cpp:327] inception_4e/relu_pool_proj -> inception_4e/pool_proj (in-place)
I1215 23:11:06.404108 11477 net.cpp:113] Setting up inception_4e/relu_pool_proj
I1215 23:11:06.404181 11477 net.cpp:120] Top shape: 50 128 14 14 (1254400)
I1215 23:11:06.404194 11477 layer_factory.hpp:74] Creating layer inception_4e/output
I1215 23:11:06.404202 11477 net.cpp:84] Creating Layer inception_4e/output
I1215 23:11:06.404207 11477 net.cpp:380] inception_4e/output <- inception_4e/1x1
I1215 23:11:06.404212 11477 net.cpp:380] inception_4e/output <- inception_4e/3x3
I1215 23:11:06.404218 11477 net.cpp:380] inception_4e/output <- inception_4e/5x5
I1215 23:11:06.404222 11477 net.cpp:380] inception_4e/output <- inception_4e/pool_proj
I1215 23:11:06.404228 11477 net.cpp:338] inception_4e/output -> inception_4e/output
I1215 23:11:06.404235 11477 net.cpp:113] Setting up inception_4e/output
I1215 23:11:06.404243 11477 net.cpp:120] Top shape: 50 832 14 14 (8153600)
I1215 23:11:06.404248 11477 layer_factory.hpp:74] Creating layer pool4/3x3_s2
I1215 23:11:06.404256 11477 net.cpp:84] Creating Layer pool4/3x3_s2
I1215 23:11:06.404260 11477 net.cpp:380] pool4/3x3_s2 <- inception_4e/output
I1215 23:11:06.404268 11477 net.cpp:338] pool4/3x3_s2 -> pool4/3x3_s2
I1215 23:11:06.404273 11477 net.cpp:113] Setting up pool4/3x3_s2
I1215 23:11:06.404513 11477 net.cpp:120] Top shape: 50 832 7 7 (2038400)
I1215 23:11:06.404525 11477 layer_factory.hpp:74] Creating layer pool4/3x3_s2_pool4/3x3_s2_0_split
I1215 23:11:06.404531 11477 net.cpp:84] Creating Layer pool4/3x3_s2_pool4/3x3_s2_0_split
I1215 23:11:06.404536 11477 net.cpp:380] pool4/3x3_s2_pool4/3x3_s2_0_split <- pool4/3x3_s2
I1215 23:11:06.404541 11477 net.cpp:338] pool4/3x3_s2_pool4/3x3_s2_0_split -> pool4/3x3_s2_pool4/3x3_s2_0_split_0
I1215 23:11:06.404549 11477 net.cpp:338] pool4/3x3_s2_pool4/3x3_s2_0_split -> pool4/3x3_s2_pool4/3x3_s2_0_split_1
I1215 23:11:06.404558 11477 net.cpp:338] pool4/3x3_s2_pool4/3x3_s2_0_split -> pool4/3x3_s2_pool4/3x3_s2_0_split_2
I1215 23:11:06.404582 11477 net.cpp:338] pool4/3x3_s2_pool4/3x3_s2_0_split -> pool4/3x3_s2_pool4/3x3_s2_0_split_3
I1215 23:11:06.404587 11477 net.cpp:113] Setting up pool4/3x3_s2_pool4/3x3_s2_0_split
I1215 23:11:06.404595 11477 net.cpp:120] Top shape: 50 832 7 7 (2038400)
I1215 23:11:06.404600 11477 net.cpp:120] Top shape: 50 832 7 7 (2038400)
I1215 23:11:06.404608 11477 net.cpp:120] Top shape: 50 832 7 7 (2038400)
I1215 23:11:06.404613 11477 net.cpp:120] Top shape: 50 832 7 7 (2038400)
I1215 23:11:06.404616 11477 layer_factory.hpp:74] Creating layer inception_5a/1x1
I1215 23:11:06.404624 11477 net.cpp:84] Creating Layer inception_5a/1x1
I1215 23:11:06.404628 11477 net.cpp:380] inception_5a/1x1 <- pool4/3x3_s2_pool4/3x3_s2_0_split_0
I1215 23:11:06.404635 11477 net.cpp:338] inception_5a/1x1 -> inception_5a/1x1
I1215 23:11:06.404644 11477 net.cpp:113] Setting up inception_5a/1x1
I1215 23:11:06.407325 11477 net.cpp:120] Top shape: 50 256 7 7 (627200)
I1215 23:11:06.407342 11477 layer_factory.hpp:74] Creating layer inception_5a/relu_1x1
I1215 23:11:06.407349 11477 net.cpp:84] Creating Layer inception_5a/relu_1x1
I1215 23:11:06.407354 11477 net.cpp:380] inception_5a/relu_1x1 <- inception_5a/1x1
I1215 23:11:06.407362 11477 net.cpp:327] inception_5a/relu_1x1 -> inception_5a/1x1 (in-place)
I1215 23:11:06.407369 11477 net.cpp:113] Setting up inception_5a/relu_1x1
I1215 23:11:06.407435 11477 net.cpp:120] Top shape: 50 256 7 7 (627200)
I1215 23:11:06.407444 11477 layer_factory.hpp:74] Creating layer inception_5a/3x3_reduce
I1215 23:11:06.407452 11477 net.cpp:84] Creating Layer inception_5a/3x3_reduce
I1215 23:11:06.407457 11477 net.cpp:380] inception_5a/3x3_reduce <- pool4/3x3_s2_pool4/3x3_s2_0_split_1
I1215 23:11:06.407464 11477 net.cpp:338] inception_5a/3x3_reduce -> inception_5a/3x3_reduce
I1215 23:11:06.407472 11477 net.cpp:113] Setting up inception_5a/3x3_reduce
I1215 23:11:06.409296 11477 net.cpp:120] Top shape: 50 160 7 7 (392000)
I1215 23:11:06.409312 11477 layer_factory.hpp:74] Creating layer inception_5a/relu_3x3_reduce
I1215 23:11:06.409322 11477 net.cpp:84] Creating Layer inception_5a/relu_3x3_reduce
I1215 23:11:06.409327 11477 net.cpp:380] inception_5a/relu_3x3_reduce <- inception_5a/3x3_reduce
I1215 23:11:06.409338 11477 net.cpp:327] inception_5a/relu_3x3_reduce -> inception_5a/3x3_reduce (in-place)
I1215 23:11:06.409351 11477 net.cpp:113] Setting up inception_5a/relu_3x3_reduce
I1215 23:11:06.409421 11477 net.cpp:120] Top shape: 50 160 7 7 (392000)
I1215 23:11:06.409426 11477 layer_factory.hpp:74] Creating layer inception_5a/3x3
I1215 23:11:06.409436 11477 net.cpp:84] Creating Layer inception_5a/3x3
I1215 23:11:06.409441 11477 net.cpp:380] inception_5a/3x3 <- inception_5a/3x3_reduce
I1215 23:11:06.409447 11477 net.cpp:338] inception_5a/3x3 -> inception_5a/3x3
I1215 23:11:06.409456 11477 net.cpp:113] Setting up inception_5a/3x3
I1215 23:11:06.414786 11477 net.cpp:120] Top shape: 50 320 7 7 (784000)
I1215 23:11:06.414803 11477 layer_factory.hpp:74] Creating layer inception_5a/relu_3x3
I1215 23:11:06.414809 11477 net.cpp:84] Creating Layer inception_5a/relu_3x3
I1215 23:11:06.414814 11477 net.cpp:380] inception_5a/relu_3x3 <- inception_5a/3x3
I1215 23:11:06.414822 11477 net.cpp:327] inception_5a/relu_3x3 -> inception_5a/3x3 (in-place)
I1215 23:11:06.414830 11477 net.cpp:113] Setting up inception_5a/relu_3x3
I1215 23:11:06.414896 11477 net.cpp:120] Top shape: 50 320 7 7 (784000)
I1215 23:11:06.414902 11477 layer_factory.hpp:74] Creating layer inception_5a/5x5_reduce
I1215 23:11:06.414912 11477 net.cpp:84] Creating Layer inception_5a/5x5_reduce
I1215 23:11:06.414917 11477 net.cpp:380] inception_5a/5x5_reduce <- pool4/3x3_s2_pool4/3x3_s2_0_split_2
I1215 23:11:06.414926 11477 net.cpp:338] inception_5a/5x5_reduce -> inception_5a/5x5_reduce
I1215 23:11:06.414933 11477 net.cpp:113] Setting up inception_5a/5x5_reduce
I1215 23:11:06.415611 11477 net.cpp:120] Top shape: 50 32 7 7 (78400)
I1215 23:11:06.415626 11477 layer_factory.hpp:74] Creating layer inception_5a/relu_5x5_reduce
I1215 23:11:06.415633 11477 net.cpp:84] Creating Layer inception_5a/relu_5x5_reduce
I1215 23:11:06.415638 11477 net.cpp:380] inception_5a/relu_5x5_reduce <- inception_5a/5x5_reduce
I1215 23:11:06.415644 11477 net.cpp:327] inception_5a/relu_5x5_reduce -> inception_5a/5x5_reduce (in-place)
I1215 23:11:06.415652 11477 net.cpp:113] Setting up inception_5a/relu_5x5_reduce
I1215 23:11:06.415890 11477 net.cpp:120] Top shape: 50 32 7 7 (78400)
I1215 23:11:06.415900 11477 layer_factory.hpp:74] Creating layer inception_5a/5x5
I1215 23:11:06.415910 11477 net.cpp:84] Creating Layer inception_5a/5x5
I1215 23:11:06.415915 11477 net.cpp:380] inception_5a/5x5 <- inception_5a/5x5_reduce
I1215 23:11:06.415923 11477 net.cpp:338] inception_5a/5x5 -> inception_5a/5x5
I1215 23:11:06.415932 11477 net.cpp:113] Setting up inception_5a/5x5
I1215 23:11:06.417439 11477 net.cpp:120] Top shape: 50 128 7 7 (313600)
I1215 23:11:06.417454 11477 layer_factory.hpp:74] Creating layer inception_5a/relu_5x5
I1215 23:11:06.417464 11477 net.cpp:84] Creating Layer inception_5a/relu_5x5
I1215 23:11:06.417469 11477 net.cpp:380] inception_5a/relu_5x5 <- inception_5a/5x5
I1215 23:11:06.417475 11477 net.cpp:327] inception_5a/relu_5x5 -> inception_5a/5x5 (in-place)
I1215 23:11:06.417482 11477 net.cpp:113] Setting up inception_5a/relu_5x5
I1215 23:11:06.417551 11477 net.cpp:120] Top shape: 50 128 7 7 (313600)
I1215 23:11:06.417557 11477 layer_factory.hpp:74] Creating layer inception_5a/pool
I1215 23:11:06.417562 11477 layer_factory.cpp:56] CUDNN does not support padding or multiple tops. Using Caffe's own pooling layer.
I1215 23:11:06.417568 11477 net.cpp:84] Creating Layer inception_5a/pool
I1215 23:11:06.417573 11477 net.cpp:380] inception_5a/pool <- pool4/3x3_s2_pool4/3x3_s2_0_split_3
I1215 23:11:06.417579 11477 net.cpp:338] inception_5a/pool -> inception_5a/pool
I1215 23:11:06.417587 11477 net.cpp:113] Setting up inception_5a/pool
I1215 23:11:06.417596 11477 net.cpp:120] Top shape: 50 832 7 7 (2038400)
I1215 23:11:06.417600 11477 layer_factory.hpp:74] Creating layer inception_5a/pool_proj
I1215 23:11:06.417608 11477 net.cpp:84] Creating Layer inception_5a/pool_proj
I1215 23:11:06.417613 11477 net.cpp:380] inception_5a/pool_proj <- inception_5a/pool
I1215 23:11:06.417620 11477 net.cpp:338] inception_5a/pool_proj -> inception_5a/pool_proj
I1215 23:11:06.417639 11477 net.cpp:113] Setting up inception_5a/pool_proj
I1215 23:11:06.419167 11477 net.cpp:120] Top shape: 50 128 7 7 (313600)
I1215 23:11:06.419180 11477 layer_factory.hpp:74] Creating layer inception_5a/relu_pool_proj
I1215 23:11:06.419189 11477 net.cpp:84] Creating Layer inception_5a/relu_pool_proj
I1215 23:11:06.419194 11477 net.cpp:380] inception_5a/relu_pool_proj <- inception_5a/pool_proj
I1215 23:11:06.419205 11477 net.cpp:327] inception_5a/relu_pool_proj -> inception_5a/pool_proj (in-place)
I1215 23:11:06.419212 11477 net.cpp:113] Setting up inception_5a/relu_pool_proj
I1215 23:11:06.419280 11477 net.cpp:120] Top shape: 50 128 7 7 (313600)
I1215 23:11:06.419284 11477 layer_factory.hpp:74] Creating layer inception_5a/output
I1215 23:11:06.419293 11477 net.cpp:84] Creating Layer inception_5a/output
I1215 23:11:06.419297 11477 net.cpp:380] inception_5a/output <- inception_5a/1x1
I1215 23:11:06.419303 11477 net.cpp:380] inception_5a/output <- inception_5a/3x3
I1215 23:11:06.419308 11477 net.cpp:380] inception_5a/output <- inception_5a/5x5
I1215 23:11:06.419313 11477 net.cpp:380] inception_5a/output <- inception_5a/pool_proj
I1215 23:11:06.419319 11477 net.cpp:338] inception_5a/output -> inception_5a/output
I1215 23:11:06.419327 11477 net.cpp:113] Setting up inception_5a/output
I1215 23:11:06.419333 11477 net.cpp:120] Top shape: 50 832 7 7 (2038400)
I1215 23:11:06.419337 11477 layer_factory.hpp:74] Creating layer inception_5a/output_inception_5a/output_0_split
I1215 23:11:06.419343 11477 net.cpp:84] Creating Layer inception_5a/output_inception_5a/output_0_split
I1215 23:11:06.419349 11477 net.cpp:380] inception_5a/output_inception_5a/output_0_split <- inception_5a/output
I1215 23:11:06.419355 11477 net.cpp:338] inception_5a/output_inception_5a/output_0_split -> inception_5a/output_inception_5a/output_0_split_0
I1215 23:11:06.419363 11477 net.cpp:338] inception_5a/output_inception_5a/output_0_split -> inception_5a/output_inception_5a/output_0_split_1
I1215 23:11:06.419369 11477 net.cpp:338] inception_5a/output_inception_5a/output_0_split -> inception_5a/output_inception_5a/output_0_split_2
I1215 23:11:06.419375 11477 net.cpp:338] inception_5a/output_inception_5a/output_0_split -> inception_5a/output_inception_5a/output_0_split_3
I1215 23:11:06.419381 11477 net.cpp:113] Setting up inception_5a/output_inception_5a/output_0_split
I1215 23:11:06.419389 11477 net.cpp:120] Top shape: 50 832 7 7 (2038400)
I1215 23:11:06.419392 11477 net.cpp:120] Top shape: 50 832 7 7 (2038400)
I1215 23:11:06.419397 11477 net.cpp:120] Top shape: 50 832 7 7 (2038400)
I1215 23:11:06.419402 11477 net.cpp:120] Top shape: 50 832 7 7 (2038400)
I1215 23:11:06.419406 11477 layer_factory.hpp:74] Creating layer inception_5b/1x1
I1215 23:11:06.419415 11477 net.cpp:84] Creating Layer inception_5b/1x1
I1215 23:11:06.419420 11477 net.cpp:380] inception_5b/1x1 <- inception_5a/output_inception_5a/output_0_split_0
I1215 23:11:06.419427 11477 net.cpp:338] inception_5b/1x1 -> inception_5b/1x1
I1215 23:11:06.419435 11477 net.cpp:113] Setting up inception_5b/1x1
I1215 23:11:06.423246 11477 net.cpp:120] Top shape: 50 384 7 7 (940800)
I1215 23:11:06.423261 11477 layer_factory.hpp:74] Creating layer inception_5b/relu_1x1
I1215 23:11:06.423270 11477 net.cpp:84] Creating Layer inception_5b/relu_1x1
I1215 23:11:06.423275 11477 net.cpp:380] inception_5b/relu_1x1 <- inception_5b/1x1
I1215 23:11:06.423282 11477 net.cpp:327] inception_5b/relu_1x1 -> inception_5b/1x1 (in-place)
I1215 23:11:06.423292 11477 net.cpp:113] Setting up inception_5b/relu_1x1
I1215 23:11:06.423360 11477 net.cpp:120] Top shape: 50 384 7 7 (940800)
I1215 23:11:06.423367 11477 layer_factory.hpp:74] Creating layer inception_5b/3x3_reduce
I1215 23:11:06.423375 11477 net.cpp:84] Creating Layer inception_5b/3x3_reduce
I1215 23:11:06.423380 11477 net.cpp:380] inception_5b/3x3_reduce <- inception_5a/output_inception_5a/output_0_split_1
I1215 23:11:06.423388 11477 net.cpp:338] inception_5b/3x3_reduce -> inception_5b/3x3_reduce
I1215 23:11:06.423401 11477 net.cpp:113] Setting up inception_5b/3x3_reduce
I1215 23:11:06.425515 11477 net.cpp:120] Top shape: 50 192 7 7 (470400)
I1215 23:11:06.425531 11477 layer_factory.hpp:74] Creating layer inception_5b/relu_3x3_reduce
I1215 23:11:06.425540 11477 net.cpp:84] Creating Layer inception_5b/relu_3x3_reduce
I1215 23:11:06.425545 11477 net.cpp:380] inception_5b/relu_3x3_reduce <- inception_5b/3x3_reduce
I1215 23:11:06.425552 11477 net.cpp:327] inception_5b/relu_3x3_reduce -> inception_5b/3x3_reduce (in-place)
I1215 23:11:06.425559 11477 net.cpp:113] Setting up inception_5b/relu_3x3_reduce
I1215 23:11:06.425798 11477 net.cpp:120] Top shape: 50 192 7 7 (470400)
I1215 23:11:06.425811 11477 layer_factory.hpp:74] Creating layer inception_5b/3x3
I1215 23:11:06.425820 11477 net.cpp:84] Creating Layer inception_5b/3x3
I1215 23:11:06.425825 11477 net.cpp:380] inception_5b/3x3 <- inception_5b/3x3_reduce
I1215 23:11:06.425834 11477 net.cpp:338] inception_5b/3x3 -> inception_5b/3x3
I1215 23:11:06.425843 11477 net.cpp:113] Setting up inception_5b/3x3
I1215 23:11:06.433351 11477 net.cpp:120] Top shape: 50 384 7 7 (940800)
I1215 23:11:06.433367 11477 layer_factory.hpp:74] Creating layer inception_5b/relu_3x3
I1215 23:11:06.433375 11477 net.cpp:84] Creating Layer inception_5b/relu_3x3
I1215 23:11:06.433380 11477 net.cpp:380] inception_5b/relu_3x3 <- inception_5b/3x3
I1215 23:11:06.433388 11477 net.cpp:327] inception_5b/relu_3x3 -> inception_5b/3x3 (in-place)
I1215 23:11:06.433395 11477 net.cpp:113] Setting up inception_5b/relu_3x3
I1215 23:11:06.433462 11477 net.cpp:120] Top shape: 50 384 7 7 (940800)
I1215 23:11:06.433468 11477 layer_factory.hpp:74] Creating layer inception_5b/5x5_reduce
I1215 23:11:06.433477 11477 net.cpp:84] Creating Layer inception_5b/5x5_reduce
I1215 23:11:06.433482 11477 net.cpp:380] inception_5b/5x5_reduce <- inception_5a/output_inception_5a/output_0_split_2
I1215 23:11:06.433490 11477 net.cpp:338] inception_5b/5x5_reduce -> inception_5b/5x5_reduce
I1215 23:11:06.433496 11477 net.cpp:113] Setting up inception_5b/5x5_reduce
I1215 23:11:06.434321 11477 net.cpp:120] Top shape: 50 48 7 7 (117600)
I1215 23:11:06.434335 11477 layer_factory.hpp:74] Creating layer inception_5b/relu_5x5_reduce
I1215 23:11:06.434344 11477 net.cpp:84] Creating Layer inception_5b/relu_5x5_reduce
I1215 23:11:06.434350 11477 net.cpp:380] inception_5b/relu_5x5_reduce <- inception_5b/5x5_reduce
I1215 23:11:06.434355 11477 net.cpp:327] inception_5b/relu_5x5_reduce -> inception_5b/5x5_reduce (in-place)
I1215 23:11:06.434362 11477 net.cpp:113] Setting up inception_5b/relu_5x5_reduce
I1215 23:11:06.434433 11477 net.cpp:120] Top shape: 50 48 7 7 (117600)
I1215 23:11:06.434439 11477 layer_factory.hpp:74] Creating layer inception_5b/5x5
I1215 23:11:06.434448 11477 net.cpp:84] Creating Layer inception_5b/5x5
I1215 23:11:06.434453 11477 net.cpp:380] inception_5b/5x5 <- inception_5b/5x5_reduce
I1215 23:11:06.434459 11477 net.cpp:338] inception_5b/5x5 -> inception_5b/5x5
I1215 23:11:06.434469 11477 net.cpp:113] Setting up inception_5b/5x5
I1215 23:11:06.436498 11477 net.cpp:120] Top shape: 50 128 7 7 (313600)
I1215 23:11:06.436512 11477 layer_factory.hpp:74] Creating layer inception_5b/relu_5x5
I1215 23:11:06.436518 11477 net.cpp:84] Creating Layer inception_5b/relu_5x5
I1215 23:11:06.436523 11477 net.cpp:380] inception_5b/relu_5x5 <- inception_5b/5x5
I1215 23:11:06.436529 11477 net.cpp:327] inception_5b/relu_5x5 -> inception_5b/5x5 (in-place)
I1215 23:11:06.436537 11477 net.cpp:113] Setting up inception_5b/relu_5x5
I1215 23:11:06.436769 11477 net.cpp:120] Top shape: 50 128 7 7 (313600)
I1215 23:11:06.436779 11477 layer_factory.hpp:74] Creating layer inception_5b/pool
I1215 23:11:06.436784 11477 layer_factory.cpp:56] CUDNN does not support padding or multiple tops. Using Caffe's own pooling layer.
I1215 23:11:06.436791 11477 net.cpp:84] Creating Layer inception_5b/pool
I1215 23:11:06.436797 11477 net.cpp:380] inception_5b/pool <- inception_5a/output_inception_5a/output_0_split_3
I1215 23:11:06.436805 11477 net.cpp:338] inception_5b/pool -> inception_5b/pool
I1215 23:11:06.436818 11477 net.cpp:113] Setting up inception_5b/pool
I1215 23:11:06.436833 11477 net.cpp:120] Top shape: 50 832 7 7 (2038400)
I1215 23:11:06.436838 11477 layer_factory.hpp:74] Creating layer inception_5b/pool_proj
I1215 23:11:06.436846 11477 net.cpp:84] Creating Layer inception_5b/pool_proj
I1215 23:11:06.436851 11477 net.cpp:380] inception_5b/pool_proj <- inception_5b/pool
I1215 23:11:06.436859 11477 net.cpp:338] inception_5b/pool_proj -> inception_5b/pool_proj
I1215 23:11:06.436866 11477 net.cpp:113] Setting up inception_5b/pool_proj
I1215 23:11:06.438411 11477 net.cpp:120] Top shape: 50 128 7 7 (313600)
I1215 23:11:06.438427 11477 layer_factory.hpp:74] Creating layer inception_5b/relu_pool_proj
I1215 23:11:06.438436 11477 net.cpp:84] Creating Layer inception_5b/relu_pool_proj
I1215 23:11:06.438442 11477 net.cpp:380] inception_5b/relu_pool_proj <- inception_5b/pool_proj
I1215 23:11:06.438448 11477 net.cpp:327] inception_5b/relu_pool_proj -> inception_5b/pool_proj (in-place)
I1215 23:11:06.438455 11477 net.cpp:113] Setting up inception_5b/relu_pool_proj
I1215 23:11:06.438524 11477 net.cpp:120] Top shape: 50 128 7 7 (313600)
I1215 23:11:06.438530 11477 layer_factory.hpp:74] Creating layer inception_5b/output
I1215 23:11:06.438539 11477 net.cpp:84] Creating Layer inception_5b/output
I1215 23:11:06.438544 11477 net.cpp:380] inception_5b/output <- inception_5b/1x1
I1215 23:11:06.438549 11477 net.cpp:380] inception_5b/output <- inception_5b/3x3
I1215 23:11:06.438554 11477 net.cpp:380] inception_5b/output <- inception_5b/5x5
I1215 23:11:06.438558 11477 net.cpp:380] inception_5b/output <- inception_5b/pool_proj
I1215 23:11:06.438565 11477 net.cpp:338] inception_5b/output -> inception_5b/output
I1215 23:11:06.438570 11477 net.cpp:113] Setting up inception_5b/output
I1215 23:11:06.438578 11477 net.cpp:120] Top shape: 50 1024 7 7 (2508800)
I1215 23:11:06.438582 11477 layer_factory.hpp:74] Creating layer pool5/7x7_s1
I1215 23:11:06.438588 11477 net.cpp:84] Creating Layer pool5/7x7_s1
I1215 23:11:06.438593 11477 net.cpp:380] pool5/7x7_s1 <- inception_5b/output
I1215 23:11:06.438601 11477 net.cpp:338] pool5/7x7_s1 -> pool5/7x7_s1
I1215 23:11:06.438607 11477 net.cpp:113] Setting up pool5/7x7_s1
I1215 23:11:06.438678 11477 net.cpp:120] Top shape: 50 1024 1 1 (51200)
I1215 23:11:06.438683 11477 layer_factory.hpp:74] Creating layer pool5/drop_7x7_s1
I1215 23:11:06.438690 11477 net.cpp:84] Creating Layer pool5/drop_7x7_s1
I1215 23:11:06.438694 11477 net.cpp:380] pool5/drop_7x7_s1 <- pool5/7x7_s1
I1215 23:11:06.438700 11477 net.cpp:327] pool5/drop_7x7_s1 -> pool5/7x7_s1 (in-place)
I1215 23:11:06.438706 11477 net.cpp:113] Setting up pool5/drop_7x7_s1
I1215 23:11:06.438714 11477 net.cpp:120] Top shape: 50 1024 1 1 (51200)
I1215 23:11:06.438717 11477 layer_factory.hpp:74] Creating layer loss3/classifier_kaggle
I1215 23:11:06.438727 11477 net.cpp:84] Creating Layer loss3/classifier_kaggle
I1215 23:11:06.438731 11477 net.cpp:380] loss3/classifier_kaggle <- pool5/7x7_s1
I1215 23:11:06.438740 11477 net.cpp:338] loss3/classifier_kaggle -> loss3/classifier_kaggle
I1215 23:11:06.438747 11477 net.cpp:113] Setting up loss3/classifier_kaggle
I1215 23:11:06.443640 11477 net.cpp:120] Top shape: 50 447 (22350)
I1215 23:11:06.443653 11477 layer_factory.hpp:74] Creating layer loss3/classifier_kaggle_loss3/classifier_kaggle_0_split
I1215 23:11:06.443660 11477 net.cpp:84] Creating Layer loss3/classifier_kaggle_loss3/classifier_kaggle_0_split
I1215 23:11:06.443665 11477 net.cpp:380] loss3/classifier_kaggle_loss3/classifier_kaggle_0_split <- loss3/classifier_kaggle
I1215 23:11:06.443672 11477 net.cpp:338] loss3/classifier_kaggle_loss3/classifier_kaggle_0_split -> loss3/classifier_kaggle_loss3/classifier_kaggle_0_split_0
I1215 23:11:06.443681 11477 net.cpp:338] loss3/classifier_kaggle_loss3/classifier_kaggle_0_split -> loss3/classifier_kaggle_loss3/classifier_kaggle_0_split_1
I1215 23:11:06.443687 11477 net.cpp:338] loss3/classifier_kaggle_loss3/classifier_kaggle_0_split -> loss3/classifier_kaggle_loss3/classifier_kaggle_0_split_2
I1215 23:11:06.443698 11477 net.cpp:113] Setting up loss3/classifier_kaggle_loss3/classifier_kaggle_0_split
I1215 23:11:06.443711 11477 net.cpp:120] Top shape: 50 447 (22350)
I1215 23:11:06.443717 11477 net.cpp:120] Top shape: 50 447 (22350)
I1215 23:11:06.443722 11477 net.cpp:120] Top shape: 50 447 (22350)
I1215 23:11:06.443725 11477 layer_factory.hpp:74] Creating layer loss3/loss3
I1215 23:11:06.443732 11477 net.cpp:84] Creating Layer loss3/loss3
I1215 23:11:06.443737 11477 net.cpp:380] loss3/loss3 <- loss3/classifier_kaggle_loss3/classifier_kaggle_0_split_0
I1215 23:11:06.443742 11477 net.cpp:380] loss3/loss3 <- label_data_1_split_6
I1215 23:11:06.443749 11477 net.cpp:338] loss3/loss3 -> loss3/loss3
…
