…
I0105 22:23:16.462954 10836 net.cpp:257] The NetState phase (0) differed from the phase (1) specified by a rule in layer loss3/top-5
I0105 22:23:16.464817 10836 net.cpp:42] Initializing net from parameters: 
name: "MYNET"
state {
  phase: TRAIN
}
layer {
  name: "data"
  type: "ImageData"
  top: "data"
  top: "label"
  include {
    phase: TRAIN
  }
  transform_param {
    mirror: false
    crop_size: 224
    mean_value: 129
    mean_value: 129
    mean_value: 129
  }
  image_data_param {
    source: "/home/coldmanck/kaggle/label_train_full_resize_rotated.txt"
    batch_size: 80
    shuffle: true
  }
}
layer {
  name: "conv1/7x7_s2"
  type: "Convolution"
  bottom: "data"
  top: "conv1/7x7_s2"
  param {
    lr_mult: 1
    decay_mult: 1
  }
  param {
    lr_mult: 2
    decay_mult: 0
  }
  convolution_param {
    num_output: 64
    pad: 3
    kernel_size: 7
    stride: 2
    weight_filler {
      type: "xavier"
    }
    bias_filler {
      type: "constant"
      value: 0.2
    }
  }
}
layer {
  name: "conv1/relu_7x7"
  type: "ReLU"
  bottom: "conv1/7x7_s2"
  top: "conv1/7x7_s2"
}
layer {
  name: "pool1/3x3_s2"
  type: "Pooling"
  bottom: "conv1/7x7_s2"
  top: "pool1/3x3_s2"
  pooling_param {
    pool: MAX
    kernel_size: 3
    stride: 2
  }
}
layer {
  name: "pool1/norm1"
  type: "LRN"
  bottom: "pool1/3x3_s2"
  top: "pool1/norm1"
  lrn_param {
    local_size: 5
    alpha: 0.0001
    beta: 0.75
  }
}
layer {
  name: "conv2/3x3_reduce"
  type: "Convolution"
  bottom: "pool1/norm1"
  top: "conv2/3x3_reduce"
  param {
    lr_mult: 1
    decay_mult: 1
  }
  param {
    lr_mult: 2
    decay_mult: 0
  }
  convolution_param {
    num_output: 64
    kernel_size: 1
    weight_filler {
      type: "xavier"
    }
    bias_filler {
      type: "constant"
      value: 0.2
    }
  }
}
layer {
  name: "conv2/relu_3x3_reduce"
  type: "ReLU"
  bottom: "conv2/3x3_reduce"
  top: "conv2/3x3_reduce"
}
layer {
  name: "conv2/3x3"
  type: "Convolution"
  bottom: "conv2/3x3_reduce"
  top: "conv2/3x3"
  param {
    lr_mult: 1
    decay_mult: 1
  }
  param {
    lr_mult: 2
    decay_mult: 0
  }
  convolution_param {
    num_output: 192
    pad: 1
    kernel_size: 3
    weight_filler {
      type: "xavier"
    }
    bias_filler {
      type: "constant"
      value: 0.2
    }
  }
}
layer {
  name: "conv2/relu_3x3"
  type: "ReLU"
  bottom: "conv2/3x3"
  top: "conv2/3x3"
}
layer {
  name: "conv2/norm2"
  type: "LRN"
  bottom: "conv2/3x3"
  top: "conv2/norm2"
  lrn_param {
    local_size: 5
    alpha: 0.0001
    beta: 0.75
  }
}
layer {
  name: "pool2/3x3_s2"
  type: "Pooling"
  bottom: "conv2/norm2"
  top: "pool2/3x3_s2"
  pooling_param {
    pool: MAX
    kernel_size: 3
    stride: 2
  }
}
layer {
  name: "inception_3a/1x1"
  type: "Convolution"
  bottom: "pool2/3x3_s2"
  top: "inception_3a/1x1"
  param {
    lr_mult: 1
    decay_mult: 1
  }
  param {
    lr_mult: 2
    decay_mult: 0
  }
  convolution_param {
    num_output: 64
    kernel_size: 1
    weight_filler {
      type: "xavier"
    }
    bias_filler {
      type: "constant"
      value: 0.2
    }
  }
}
layer {
  name: "inception_3a/relu_1x1"
  type: "ReLU"
  bottom: "inception_3a/1x1"
  top: "inception_3a/1x1"
}
layer {
  name: "inception_3a/3x3_reduce"
  type: "Convolution"
  bottom: "pool2/3x3_s2"
  top: "inception_3a/3x3_reduce"
  param {
    lr_mult: 1
    decay_mult: 1
  }
  param {
    lr_mult: 2
    decay_mult: 0
  }
  convolution_param {
    num_output: 96
    kernel_size: 1
    weight_filler {
      type: "xavier"
    }
    bias_filler {
      type: "constant"
      value: 0.2
    }
  }
}
layer {
  name: "inception_3a/relu_3x3_reduce"
  type: "ReLU"
  bottom: "inception_3a/3x3_reduce"
  top: "inception_3a/3x3_reduce"
}
layer {
  name: "inception_3a/3x3"
  type: "Convolution"
  bottom: "inception_3a/3x3_reduce"
  top: "inception_3a/3x3"
  param {
    lr_mult: 1
    decay_mult: 1
  }
  param {
    lr_mult: 2
    decay_mult: 0
  }
  convolution_param {
    num_output: 128
    pad: 1
    kernel_size: 3
    weight_filler {
      type: "xavier"
    }
    bias_filler {
      type: "constant"
      value: 0.2
    }
  }
}
layer {
  name: "inception_3a/relu_3x3"
  type: "ReLU"
  bottom: "inception_3a/3x3"
  top: "inception_3a/3x3"
}
layer {
  name: "inception_3a/5x5_reduce"
  type: "Convolution"
  bottom: "pool2/3x3_s2"
  top: "inception_3a/5x5_reduce"
  param {
    lr_mult: 1
    decay_mult: 1
  }
  param {
    lr_mult: 2
    decay_mult: 0
  }
  convolution_param {
    num_output: 16
    kernel_size: 1
    weight_filler {
      type: "xavier"
    }
    bias_filler {
      type: "constant"
      value: 0.2
    }
  }
}
layer {
  name: "inception_3a/relu_5x5_reduce"
  type: "ReLU"
  bottom: "inception_3a/5x5_reduce"
  top: "inception_3a/5x5_reduce"
}
layer {
  name: "inception_3a/5x5"
  type: "Convolution"
  bottom: "inception_3a/5x5_reduce"
  top: "inception_3a/5x5"
  param {
    lr_mult: 1
    decay_mult: 1
  }
  param {
    lr_mult: 2
    decay_mult: 0
  }
  convolution_param {
    num_output: 32
    pad: 2
    kernel_size: 5
    weight_filler {
      type: "xavier"
    }
    bias_filler {
      type: "constant"
      value: 0.2
    }
  }
}
layer {
  name: "inception_3a/relu_5x5"
  type: "ReLU"
  bottom: "inception_3a/5x5"
  top: "inception_3a/5x5"
}
layer {
  name: "inception_3a/pool"
  type: "Pooling"
  bottom: "pool2/3x3_s2"
  top: "inception_3a/pool"
  pooling_param {
    pool: MAX
    kernel_size: 3
    stride: 1
    pad: 1
  }
}
layer {
  name: "inception_3a/pool_proj"
  type: "Convolution"
  bottom: "inception_3a/pool"
  top: "inception_3a/pool_proj"
  param {
    lr_mult: 1
    decay_mult: 1
  }
  param {
    lr_mult: 2
    decay_mult: 0
  }
  convolution_param {
    num_output: 32
    kernel_size: 1
    weight_filler {
      type: "xavier"
    }
    bias_filler {
      type: "constant"
      value: 0.2
    }
  }
}
layer {
  name: "inception_3a/relu_pool_proj"
  type: "ReLU"
  bottom: "inception_3a/pool_proj"
  top: "inception_3a/pool_proj"
}
layer {
  name: "inception_3a/output"
  type: "Concat"
  bottom: "inception_3a/1x1"
  bottom: "inception_3a/3x3"
  bottom: "inception_3a/5x5"
  bottom: "inception_3a/pool_proj"
  top: "inception_3a/output"
}
layer {
  name: "inception_3b/1x1"
  type: "Convolution"
  bottom: "inception_3a/output"
  top: "inception_3b/1x1"
  param {
    lr_mult: 1
    decay_mult: 1
  }
  param {
    lr_mult: 2
    decay_mult: 0
  }
  convolution_param {
    num_output: 128
    kernel_size: 1
    weight_filler {
      type: "xavier"
    }
    bias_filler {
      type: "constant"
      value: 0.2
    }
  }
}
layer {
  name: "inception_3b/relu_1x1"
  type: "ReLU"
  bottom: "inception_3b/1x1"
  top: "inception_3b/1x1"
}
layer {
  name: "inception_3b/3x3_reduce"
  type: "Convolution"
  bottom: "inception_3a/output"
  top: "inception_3b/3x3_reduce"
  param {
    lr_mult: 1
    decay_mult: 1
  }
  param {
    lr_mult: 2
    decay_mult: 0
  }
  convolution_param {
    num_output: 128
    kernel_size: 1
    weight_filler {
      type: "xavier"
    }
    bias_filler {
      type: "constant"
      value: 0.2
    }
  }
}
layer {
  name: "inception_3b/relu_3x3_reduce"
  type: "ReLU"
  bottom: "inception_3b/3x3_reduce"
  top: "inception_3b/3x3_reduce"
}
layer {
  name: "inception_3b/3x3"
  type: "Convolution"
  bottom: "inception_3b/3x3_reduce"
  top: "inception_3b/3x3"
  param {
    lr_mult: 1
    decay_mult: 1
  }
  param {
    lr_mult: 2
    decay_mult: 0
  }
  convolution_param {
    num_output: 192
    pad: 1
    kernel_size: 3
    weight_filler {
      type: "xavier"
    }
    bias_filler {
      type: "constant"
      value: 0.2
    }
  }
}
layer {
  name: "inception_3b/relu_3x3"
  type: "ReLU"
  bottom: "inception_3b/3x3"
  top: "inception_3b/3x3"
}
layer {
  name: "inception_3b/5x5_reduce"
  type: "Convolution"
  bottom: "inception_3a/output"
  top: "inception_3b/5x5_reduce"
  param {
    lr_mult: 1
    decay_mult: 1
  }
  param {
    lr_mult: 2
    decay_mult: 0
  }
  convolution_param {
    num_output: 32
    kernel_size: 1
    weight_filler {
      type: "xavier"
    }
    bias_filler {
      type: "constant"
      value: 0.2
    }
  }
}
layer {
  name: "inception_3b/relu_5x5_reduce"
  type: "ReLU"
  bottom: "inception_3b/5x5_reduce"
  top: "inception_3b/5x5_reduce"
}
layer {
  name: "inception_3b/5x5"
  type: "Convolution"
  bottom: "inception_3b/5x5_reduce"
  top: "inception_3b/5x5"
  param {
    lr_mult: 1
    decay_mult: 1
  }
  param {
    lr_mult: 2
    decay_mult: 0
  }
  convolution_param {
    num_output: 96
    pad: 2
    kernel_size: 5
    weight_filler {
      type: "xavier"
    }
    bias_filler {
      type: "constant"
      value: 0.2
    }
  }
}
layer {
  name: "inception_3b/relu_5x5"
  type: "ReLU"
  bottom: "inception_3b/5x5"
  top: "inception_3b/5x5"
}
layer {
  name: "inception_3b/pool"
  type: "Pooling"
  bottom: "inception_3a/output"
  top: "inception_3b/pool"
  pooling_param {
    pool: MAX
    kernel_size: 3
    stride: 1
    pad: 1
  }
}
layer {
  name: "inception_3b/pool_proj"
  type: "Convolution"
  bottom: "inception_3b/pool"
  top: "inception_3b/pool_proj"
  param {
    lr_mult: 1
    decay_mult: 1
  }
  param {
    lr_mult: 2
    decay_mult: 0
  }
  convolution_param {
    num_output: 64
    kernel_size: 1
    weight_filler {
      type: "xavier"
    }
    bias_filler {
      type: "constant"
      value: 0.2
    }
  }
}
layer {
  name: "inception_3b/relu_pool_proj"
  type: "ReLU"
  bottom: "inception_3b/pool_proj"
  top: "inception_3b/pool_proj"
}
layer {
  name: "inception_3b/output"
  type: "Concat"
  bottom: "inception_3b/1x1"
  bottom: "inception_3b/3x3"
  bottom: "inception_3b/5x5"
  bottom: "inception_3b/pool_proj"
  top: "inception_3b/output"
}
layer {
  name: "pool3/3x3_s2"
  type: "Pooling"
  bottom: "inception_3b/output"
  top: "pool3/3x3_s2"
  pooling_param {
    pool: MAX
    kernel_size: 3
    stride: 2
  }
}
layer {
  name: "inception_4a/1x1"
  type: "Convolution"
  bottom: "pool3/3x3_s2"
  top: "inception_4a/1x1"
  param {
    lr_mult: 1
    decay_mult: 1
  }
  param {
    lr_mult: 2
    decay_mult: 0
  }
  convolution_param {
    num_output: 192
    kernel_size: 1
    weight_filler {
      type: "xavier"
    }
    bias_filler {
      type: "constant"
      value: 0.2
    }
  }
}
layer {
  name: "inception_4a/relu_1x1"
  type: "ReLU"
  bottom: "inception_4a/1x1"
  top: "inception_4a/1x1"
}
layer {
  name: "inception_4a/3x3_reduce"
  type: "Convolution"
  bottom: "pool3/3x3_s2"
  top: "inception_4a/3x3_reduce"
  param {
    lr_mult: 1
    decay_mult: 1
  }
  param {
    lr_mult: 2
    decay_mult: 0
  }
  convolution_param {
    num_output: 96
    kernel_size: 1
    weight_filler {
      type: "xavier"
    }
    bias_filler {
      type: "constant"
      value: 0.2
    }
  }
}
layer {
  name: "inception_4a/relu_3x3_reduce"
  type: "ReLU"
  bottom: "inception_4a/3x3_reduce"
  top: "inception_4a/3x3_reduce"
}
layer {
  name: "inception_4a/3x3"
  type: "Convolution"
  bottom: "inception_4a/3x3_reduce"
  top: "inception_4a/3x3"
  param {
    lr_mult: 1
    decay_mult: 1
  }
  param {
    lr_mult: 2
    decay_mult: 0
  }
  convolution_param {
    num_output: 208
    pad: 1
    kernel_size: 3
    weight_filler {
      type: "xavier"
    }
    bias_filler {
      type: "constant"
      value: 0.2
    }
  }
}
layer {
  name: "inception_4a/relu_3x3"
  type: "ReLU"
  bottom: "inception_4a/3x3"
  top: "inception_4a/3x3"
}
layer {
  name: "inception_4a/5x5_reduce"
  type: "Convolution"
  bottom: "pool3/3x3_s2"
  top: "inception_4a/5x5_reduce"
  param {
    lr_mult: 1
    decay_mult: 1
  }
  param {
    lr_mult: 2
    decay_mult: 0
  }
  convolution_param {
    num_output: 16
    kernel_size: 1
    weight_filler {
      type: "xavier"
    }
    bias_filler {
      type: "constant"
      value: 0.2
    }
  }
}
layer {
  name: "inception_4a/relu_5x5_reduce"
  type: "ReLU"
  bottom: "inception_4a/5x5_reduce"
  top: "inception_4a/5x5_reduce"
}
layer {
  name: "inception_4a/5x5"
  type: "Convolution"
  bottom: "inception_4a/5x5_reduce"
  top: "inception_4a/5x5"
  param {
    lr_mult: 1
    decay_mult: 1
  }
  param {
    lr_mult: 2
    decay_mult: 0
  }
  convolution_param {
    num_output: 48
    pad: 2
    kernel_size: 5
    weight_filler {
      type: "xavier"
    }
    bias_filler {
      type: "constant"
      value: 0.2
    }
  }
}
layer {
  name: "inception_4a/relu_5x5"
  type: "ReLU"
  bottom: "inception_4a/5x5"
  top: "inception_4a/5x5"
}
layer {
  name: "inception_4a/pool"
  type: "Pooling"
  bottom: "pool3/3x3_s2"
  top: "inception_4a/pool"
  pooling_param {
    pool: MAX
    kernel_size: 3
    stride: 1
    pad: 1
  }
}
layer {
  name: "inception_4a/pool_proj"
  type: "Convolution"
  bottom: "inception_4a/pool"
  top: "inception_4a/pool_proj"
  param {
    lr_mult: 1
    decay_mult: 1
  }
  param {
    lr_mult: 2
    decay_mult: 0
  }
  convolution_param {
    num_output: 64
    kernel_size: 1
    weight_filler {
      type: "xavier"
    }
    bias_filler {
      type: "constant"
      value: 0.2
    }
  }
}
layer {
  name: "inception_4a/relu_pool_proj"
  type: "ReLU"
  bottom: "inception_4a/pool_proj"
  top: "inception_4a/pool_proj"
}
layer {
  name: "inception_4a/output"
  type: "Concat"
  bottom: "inception_4a/1x1"
  bottom: "inception_4a/3x3"
  bottom: "inception_4a/5x5"
  bottom: "inception_4a/pool_proj"
  top: "inception_4a/output"
}
layer {
  name: "loss1/ave_pool"
  type: "Pooling"
  bottom: "inception_4a/output"
  top: "loss1/ave_pool"
  pooling_param {
    pool: AVE
    kernel_size: 5
    stride: 3
  }
}
layer {
  name: "loss1/conv"
  type: "Convolution"
  bottom: "loss1/ave_pool"
  top: "loss1/conv"
  param {
    lr_mult: 1
    decay_mult: 1
  }
  param {
    lr_mult: 2
    decay_mult: 0
  }
  convolution_param {
    num_output: 128
    kernel_size: 1
    weight_filler {
      type: "xavier"
    }
    bias_filler {
      type: "constant"
      value: 0.2
    }
  }
}
layer {
  name: "loss1/relu_conv"
  type: "ReLU"
  bottom: "loss1/conv"
  top: "loss1/conv"
}
layer {
  name: "loss1/fc"
  type: "InnerProduct"
  bottom: "loss1/conv"
  top: "loss1/fc"
  param {
    lr_mult: 1
    decay_mult: 1
  }
  param {
    lr_mult: 2
    decay_mult: 0
  }
  inner_product_param {
    num_output: 1024
    weight_filler {
      type: "xavier"
    }
    bias_filler {
      type: "constant"
      value: 0.2
    }
  }
}
layer {
  name: "loss1/relu_fc"
  type: "ReLU"
  bottom: "loss1/fc"
  top: "loss1/fc"
}
layer {
  name: "loss1/drop_fc"
  type: "Dropout"
  bottom: "loss1/fc"
  top: "loss1/fc"
  dropout_param {
    dropout_ratio: 0.7
  }
}
layer {
  name: "loss1/classifier_kaggle"
  type: "InnerProduct"
  bottom: "loss1/fc"
  top: "loss1/classifier_kaggle"
  param {
    lr_mult: 1
    decay_mult: 1
  }
  param {
    lr_mult: 2
    decay_mult: 0
  }
  inner_product_param {
    num_output: 447
    weight_filler {
      type: "xavier"
    }
    bias_filler {
      type: "constant"
      value: 0
    }
  }
}
layer {
  name: "loss1/loss"
  type: "SoftmaxWithLoss"
  bottom: "loss1/classifier_kaggle"
  bottom: "label"
  top: "loss1/loss1"
  loss_weight: 0.3
}
layer {
  name: "inception_4b/1x1"
  type: "Convolution"
  bottom: "inception_4a/output"
  top: "inception_4b/1x1"
  param {
    lr_mult: 1
    decay_mult: 1
  }
  param {
    lr_mult: 2
    decay_mult: 0
  }
  convolution_param {
    num_output: 160
    kernel_size: 1
    weight_filler {
      type: "xavier"
    }
    bias_filler {
      type: "constant"
      value: 0.2
    }
  }
}
layer {
  name: "inception_4b/relu_1x1"
  type: "ReLU"
  bottom: "inception_4b/1x1"
  top: "inception_4b/1x1"
}
layer {
  name: "inception_4b/3x3_reduce"
  type: "Convolution"
  bottom: "inception_4a/output"
  top: "inception_4b/3x3_reduce"
  param {
    lr_mult: 1
    decay_mult: 1
  }
  param {
    lr_mult: 2
    decay_mult: 0
  }
  convolution_param {
    num_output: 112
    kernel_size: 1
    weight_filler {
      type: "xavier"
    }
    bias_filler {
      type: "constant"
      value: 0.2
    }
  }
}
layer {
  name: "inception_4b/relu_3x3_reduce"
  type: "ReLU"
  bottom: "inception_4b/3x3_reduce"
  top: "inception_4b/3x3_reduce"
}
layer {
  name: "inception_4b/3x3"
  type: "Convolution"
  bottom: "inception_4b/3x3_reduce"
  top: "inception_4b/3x3"
  param {
    lr_mult: 1
    decay_mult: 1
  }
  param {
    lr_mult: 2
    decay_mult: 0
  }
  convolution_param {
    num_output: 224
    pad: 1
    kernel_size: 3
    weight_filler {
      type: "xavier"
    }
    bias_filler {
      type: "constant"
      value: 0.2
    }
  }
}
layer {
  name: "inception_4b/relu_3x3"
  type: "ReLU"
  bottom: "inception_4b/3x3"
  top: "inception_4b/3x3"
}
layer {
  name: "inception_4b/5x5_reduce"
  type: "Convolution"
  bottom: "inception_4a/output"
  top: "inception_4b/5x5_reduce"
  param {
    lr_mult: 1
    decay_mult: 1
  }
  param {
    lr_mult: 2
    decay_mult: 0
  }
  convolution_param {
    num_output: 24
    kernel_size: 1
    weight_filler {
      type: "xavier"
    }
    bias_filler {
      type: "constant"
      value: 0.2
    }
  }
}
layer {
  name: "inception_4b/relu_5x5_reduce"
  type: "ReLU"
  bottom: "inception_4b/5x5_reduce"
  top: "inception_4b/5x5_reduce"
}
layer {
  name: "inception_4b/5x5"
  type: "Convolution"
  bottom: "inception_4b/5x5_reduce"
  top: "inception_4b/5x5"
  param {
    lr_mult: 1
    decay_mult: 1
  }
  param {
    lr_mult: 2
    decay_mult: 0
  }
  convolution_param {
    num_output: 64
    pad: 2
    kernel_size: 5
    weight_filler {
      type: "xavier"
    }
    bias_filler {
      type: "constant"
      value: 0.2
    }
  }
}
layer {
  name: "inception_4b/relu_5x5"
  type: "ReLU"
  bottom: "inception_4b/5x5"
  top: "inception_4b/5x5"
}
layer {
  name: "inception_4b/pool"
  type: "Pooling"
  bottom: "inception_4a/output"
  top: "inception_4b/pool"
  pooling_param {
    pool: MAX
    kernel_size: 3
    stride: 1
    pad: 1
  }
}
layer {
  name: "inception_4b/pool_proj"
  type: "Convolution"
  bottom: "inception_4b/pool"
  top: "inception_4b/pool_proj"
  param {
    lr_mult: 1
    decay_mult: 1
  }
  param {
    lr_mult: 2
    decay_mult: 0
  }
  convolution_param {
    num_output: 64
    kernel_size: 1
    weight_filler {
      type: "xavier"
    }
    bias_filler {
      type: "constant"
      value: 0.2
    }
  }
}
layer {
  name: "inception_4b/relu_pool_proj"
  type: "ReLU"
  bottom: "inception_4b/pool_proj"
  top: "inception_4b/pool_proj"
}
layer {
  name: "inception_4b/output"
  type: "Concat"
  bottom: "inception_4b/1x1"
  bottom: "inception_4b/3x3"
  bottom: "inception_4b/5x5"
  bottom: "inception_4b/pool_proj"
  top: "inception_4b/output"
}
layer {
  name: "inception_4c/1x1"
  type: "Convolution"
  bottom: "inception_4b/output"
  top: "inception_4c/1x1"
  param {
    lr_mult: 1
    decay_mult: 1
  }
  param {
    lr_mult: 2
    decay_mult: 0
  }
  convolution_param {
    num_output: 128
    kernel_size: 1
    weight_filler {
      type: "xavier"
    }
    bias_filler {
      type: "constant"
      value: 0.2
    }
  }
}
layer {
  name: "inception_4c/relu_1x1"
  type: "ReLU"
  bottom: "inception_4c/1x1"
  top: "inception_4c/1x1"
}
layer {
  name: "inception_4c/3x3_reduce"
  type: "Convolution"
  bottom: "inception_4b/output"
  top: "inception_4c/3x3_reduce"
  param {
    lr_mult: 1
    decay_mult: 1
  }
  param {
    lr_mult: 2
    decay_mult: 0
  }
  convolution_param {
    num_output: 128
    kernel_size: 1
    weight_filler {
      type: "xavier"
    }
    bias_filler {
      type: "constant"
      value: 0.2
    }
  }
}
layer {
  name: "inception_4c/relu_3x3_reduce"
  type: "ReLU"
  bottom: "inception_4c/3x3_reduce"
  top: "inception_4c/3x3_reduce"
}
layer {
  name: "inception_4c/3x3"
  type: "Convolution"
  bottom: "inception_4c/3x3_reduce"
  top: "inception_4c/3x3"
  param {
    lr_mult: 1
    decay_mult: 1
  }
  param {
    lr_mult: 2
    decay_mult: 0
  }
  convolution_param {
    num_output: 256
    pad: 1
    kernel_size: 3
    weight_filler {
      type: "xavier"
    }
    bias_filler {
      type: "constant"
      value: 0.2
    }
  }
}
layer {
  name: "inception_4c/relu_3x3"
  type: "ReLU"
  bottom: "inception_4c/3x3"
  top: "inception_4c/3x3"
}
layer {
  name: "inception_4c/5x5_reduce"
  type: "Convolution"
  bottom: "inception_4b/output"
  top: "inception_4c/5x5_reduce"
  param {
    lr_mult: 1
    decay_mult: 1
  }
  param {
    lr_mult: 2
    decay_mult: 0
  }
  convolution_param {
    num_output: 24
    kernel_size: 1
    weight_filler {
      type: "xavier"
    }
    bias_filler {
      type: "constant"
      value: 0.2
    }
  }
}
layer {
  name: "inception_4c/relu_5x5_reduce"
  type: "ReLU"
  bottom: "inception_4c/5x5_reduce"
  top: "inception_4c/5x5_reduce"
}
layer {
  name: "inception_4c/5x5"
  type: "Convolution"
  bottom: "inception_4c/5x5_reduce"
  top: "inception_4c/5x5"
  param {
    lr_mult: 1
    decay_mult: 1
  }
  param {
    lr_mult: 2
    decay_mult: 0
  }
  convolution_param {
    num_output: 64
    pad: 2
    kernel_size: 5
    weight_filler {
      type: "xavier"
    }
    bias_filler {
      type: "constant"
      value: 0.2
    }
  }
}
layer {
  name: "inception_4c/relu_5x5"
  type: "ReLU"
  bottom: "inception_4c/5x5"
  top: "inception_4c/5x5"
}
layer {
  name: "inception_4c/pool"
  type: "Pooling"
  bottom: "inception_4b/output"
  top: "inception_4c/pool"
  pooling_param {
    pool: MAX
    kernel_size: 3
    stride: 1
    pad: 1
  }
}
layer {
  name: "inception_4c/pool_proj"
  type: "Convolution"
  bottom: "inception_4c/pool"
  top: "inception_4c/pool_proj"
  param {
    lr_mult: 1
    decay_mult: 1
  }
  param {
    lr_mult: 2
    decay_mult: 0
  }
  convolution_param {
    num_output: 64
    kernel_size: 1
    weight_filler {
      type: "xavier"
    }
    bias_filler {
      type: "constant"
      value: 0.2
    }
  }
}
layer {
  name: "inception_4c/relu_pool_proj"
  type: "ReLU"
  bottom: "inception_4c/pool_proj"
  top: "inception_4c/pool_proj"
}
layer {
  name: "inception_4c/output"
  type: "Concat"
  bottom: "inception_4c/1x1"
  bottom: "inception_4c/3x3"
  bottom: "inception_4c/5x5"
  bottom: "inception_4c/pool_proj"
  top: "inception_4c/output"
}
layer {
  name: "inception_4d/1x1"
  type: "Convolution"
  bottom: "inception_4c/output"
  top: "inception_4d/1x1"
  param {
    lr_mult: 1
    decay_mult: 1
  }
  param {
    lr_mult: 2
    decay_mult: 0
  }
  convolution_param {
    num_output: 112
    kernel_size: 1
    weight_filler {
      type: "xavier"
    }
    bias_filler {
      type: "constant"
      value: 0.2
    }
  }
}
layer {
  name: "inception_4d/relu_1x1"
  type: "ReLU"
  bottom: "inception_4d/1x1"
  top: "inception_4d/1x1"
}
layer {
  name: "inception_4d/3x3_reduce"
  type: "Convolution"
  bottom: "inception_4c/output"
  top: "inception_4d/3x3_reduce"
  param {
    lr_mult: 1
    decay_mult: 1
  }
  param {
    lr_mult: 2
    decay_mult: 0
  }
  convolution_param {
    num_output: 144
    kernel_size: 1
    weight_filler {
      type: "xavier"
    }
    bias_filler {
      type: "constant"
      value: 0.2
    }
  }
}
layer {
  name: "inception_4d/relu_3x3_reduce"
  type: "ReLU"
  bottom: "inception_4d/3x3_reduce"
  top: "inception_4d/3x3_reduce"
}
layer {
  name: "inception_4d/3x3"
  type: "Convolution"
  bottom: "inception_4d/3x3_reduce"
  top: "inception_4d/3x3"
  param {
    lr_mult: 1
    decay_mult: 1
  }
  param {
    lr_mult: 2
    decay_mult: 0
  }
  convolution_param {
    num_output: 288
    pad: 1
    kernel_size: 3
    weight_filler {
      type: "xavier"
    }
    bias_filler {
      type: "constant"
      value: 0.2
    }
  }
}
layer {
  name: "inception_4d/relu_3x3"
  type: "ReLU"
  bottom: "inception_4d/3x3"
  top: "inception_4d/3x3"
}
layer {
  name: "inception_4d/5x5_reduce"
  type: "Convolution"
  bottom: "inception_4c/output"
  top: "inception_4d/5x5_reduce"
  param {
    lr_mult: 1
    decay_mult: 1
  }
  param {
    lr_mult: 2
    decay_mult: 0
  }
  convolution_param {
    num_output: 32
    kernel_size: 1
    weight_filler {
      type: "xavier"
    }
    bias_filler {
      type: "constant"
      value: 0.2
    }
  }
}
layer {
  name: "inception_4d/relu_5x5_reduce"
  type: "ReLU"
  bottom: "inception_4d/5x5_reduce"
  top: "inception_4d/5x5_reduce"
}
layer {
  name: "inception_4d/5x5"
  type: "Convolution"
  bottom: "inception_4d/5x5_reduce"
  top: "inception_4d/5x5"
  param {
    lr_mult: 1
    decay_mult: 1
  }
  param {
    lr_mult: 2
    decay_mult: 0
  }
  convolution_param {
    num_output: 64
    pad: 2
    kernel_size: 5
    weight_filler {
      type: "xavier"
    }
    bias_filler {
      type: "constant"
      value: 0.2
    }
  }
}
layer {
  name: "inception_4d/relu_5x5"
  type: "ReLU"
  bottom: "inception_4d/5x5"
  top: "inception_4d/5x5"
}
layer {
  name: "inception_4d/pool"
  type: "Pooling"
  bottom: "inception_4c/output"
  top: "inception_4d/pool"
  pooling_param {
    pool: MAX
    kernel_size: 3
    stride: 1
    pad: 1
  }
}
layer {
  name: "inception_4d/pool_proj"
  type: "Convolution"
  bottom: "inception_4d/pool"
  top: "inception_4d/pool_proj"
  param {
    lr_mult: 1
    decay_mult: 1
  }
  param {
    lr_mult: 2
    decay_mult: 0
  }
  convolution_param {
    num_output: 64
    kernel_size: 1
    weight_filler {
      type: "xavier"
    }
    bias_filler {
      type: "constant"
      value: 0.2
    }
  }
}
layer {
  name: "inception_4d/relu_pool_proj"
  type: "ReLU"
  bottom: "inception_4d/pool_proj"
  top: "inception_4d/pool_proj"
}
layer {
  name: "inception_4d/output"
  type: "Concat"
  bottom: "inception_4d/1x1"
  bottom: "inception_4d/3x3"
  bottom: "inception_4d/5x5"
  bottom: "inception_4d/pool_proj"
  top: "inception_4d/output"
}
layer {
  name: "loss2/ave_pool"
  type: "Pooling"
  bottom: "inception_4d/output"
  top: "loss2/ave_pool"
  pooling_param {
    pool: AVE
    kernel_size: 5
    stride: 3
  }
}
layer {
  name: "loss2/conv"
  type: "Convolution"
  bottom: "loss2/ave_pool"
  top: "loss2/conv"
  param {
    lr_mult: 1
    decay_mult: 1
  }
  param {
    lr_mult: 2
    decay_mult: 0
  }
  convolution_param {
    num_output: 128
    kernel_size: 1
    weight_filler {
      type: "xavier"
    }
    bias_filler {
      type: "constant"
      value: 0.2
    }
  }
}
layer {
  name: "loss2/relu_conv"
  type: "ReLU"
  bottom: "loss2/conv"
  top: "loss2/conv"
}
layer {
  name: "loss2/fc"
  type: "InnerProduct"
  bottom: "loss2/conv"
  top: "loss2/fc"
  param {
    lr_mult: 1
    decay_mult: 1
  }
  param {
    lr_mult: 2
    decay_mult: 0
  }
  inner_product_param {
    num_output: 1024
    weight_filler {
      type: "xavier"
    }
    bias_filler {
      type: "constant"
      value: 0.2
    }
  }
}
layer {
  name: "loss2/relu_fc"
  type: "ReLU"
  bottom: "loss2/fc"
  top: "loss2/fc"
}
layer {
  name: "loss2/drop_fc"
  type: "Dropout"
  bottom: "loss2/fc"
  top: "loss2/fc"
  dropout_param {
    dropout_ratio: 0.7
  }
}
layer {
  name: "loss2/classifier_kaggle"
  type: "InnerProduct"
  bottom: "loss2/fc"
  top: "loss2/classifier_kaggle"
  param {
    lr_mult: 1
    decay_mult: 1
  }
  param {
    lr_mult: 2
    decay_mult: 0
  }
  inner_product_param {
    num_output: 447
    weight_filler {
      type: "xavier"
    }
    bias_filler {
      type: "constant"
      value: 0
    }
  }
}
layer {
  name: "loss2/loss"
  type: "SoftmaxWithLoss"
  bottom: "loss2/classifier_kaggle"
  bottom: "label"
  top: "loss2/loss1"
  loss_weight: 0.3
}
layer {
  name: "inception_4e/1x1"
  type: "Convolution"
  bottom: "inception_4d/output"
  top: "inception_4e/1x1"
  param {
    lr_mult: 1
    decay_mult: 1
  }
  param {
    lr_mult: 2
    decay_mult: 0
  }
  convolution_param {
    num_output: 256
    kernel_size: 1
    weight_filler {
      type: "xavier"
    }
    bias_filler {
      type: "constant"
      value: 0.2
    }
  }
}
layer {
  name: "inception_4e/relu_1x1"
  type: "ReLU"
  bottom: "inception_4e/1x1"
  top: "inception_4e/1x1"
}
layer {
  name: "inception_4e/3x3_reduce"
  type: "Convolution"
  bottom: "inception_4d/output"
  top: "inception_4e/3x3_reduce"
  param {
    lr_mult: 1
    decay_mult: 1
  }
  param {
    lr_mult: 2
    decay_mult: 0
  }
  convolution_param {
    num_output: 160
    kernel_size: 1
    weight_filler {
      type: "xavier"
    }
    bias_filler {
      type: "constant"
      value: 0.2
    }
  }
}
layer {
  name: "inception_4e/relu_3x3_reduce"
  type: "ReLU"
  bottom: "inception_4e/3x3_reduce"
  top: "inception_4e/3x3_reduce"
}
layer {
  name: "inception_4e/3x3"
  type: "Convolution"
  bottom: "inception_4e/3x3_reduce"
  top: "inception_4e/3x3"
  param {
    lr_mult: 1
    decay_mult: 1
  }
  param {
    lr_mult: 2
    decay_mult: 0
  }
  convolution_param {
    num_output: 320
    pad: 1
    kernel_size: 3
    weight_filler {
      type: "xavier"
    }
    bias_filler {
      type: "constant"
      value: 0.2
    }
  }
}
layer {
  name: "inception_4e/relu_3x3"
  type: "ReLU"
  bottom: "inception_4e/3x3"
  top: "inception_4e/3x3"
}
layer {
  name: "inception_4e/5x5_reduce"
  type: "Convolution"
  bottom: "inception_4d/output"
  top: "inception_4e/5x5_reduce"
  param {
    lr_mult: 1
    decay_mult: 1
  }
  param {
    lr_mult: 2
    decay_mult: 0
  }
  convolution_param {
    num_output: 32
    kernel_size: 1
    weight_filler {
      type: "xavier"
    }
    bias_filler {
      type: "constant"
      value: 0.2
    }
  }
}
layer {
  name: "inception_4e/relu_5x5_reduce"
  type: "ReLU"
  bottom: "inception_4e/5x5_reduce"
  top: "inception_4e/5x5_reduce"
}
layer {
  name: "inception_4e/5x5"
  type: "Convolution"
  bottom: "inception_4e/5x5_reduce"
  top: "inception_4e/5x5"
  param {
    lr_mult: 1
    decay_mult: 1
  }
  param {
    lr_mult: 2
    decay_mult: 0
  }
  convolution_param {
    num_output: 128
    pad: 2
    kernel_size: 5
    weight_filler {
      type: "xavier"
    }
    bias_filler {
      type: "constant"
      value: 0.2
    }
  }
}
layer {
  name: "inception_4e/relu_5x5"
  type: "ReLU"
  bottom: "inception_4e/5x5"
  top: "inception_4e/5x5"
}
layer {
  name: "inception_4e/pool"
  type: "Pooling"
  bottom: "inception_4d/output"
  top: "inception_4e/po
I0105 22:23:16.465764 10836 layer_factory.hpp:74] Creating layer data
I0105 22:23:16.465801 10836 net.cpp:84] Creating Layer data
I0105 22:23:16.465811 10836 net.cpp:338] data -> data
I0105 22:23:16.465848 10836 net.cpp:338] data -> label
I0105 22:23:16.465860 10836 net.cpp:113] Setting up data
I0105 22:23:16.465869 10836 image_data_layer.cpp:36] Opening file /home/coldmanck/kaggle/label_train_full_resize_rotated.txt
I0105 22:23:16.468767 10836 image_data_layer.cpp:46] Shuffling data
I0105 22:23:16.469709 10836 image_data_layer.cpp:51] A total of 4235 images.
I0105 22:23:16.471408 10836 image_data_layer.cpp:80] output data size: 80,3,224,224
I0105 22:23:17.174912 10836 net.cpp:120] Top shape: 80 3 224 224 (12042240)
I0105 22:23:17.174968 10836 net.cpp:120] Top shape: 80 (80)
I0105 22:23:17.174986 10836 layer_factory.hpp:74] Creating layer label_data_1_split
I0105 22:23:17.175040 10836 net.cpp:84] Creating Layer label_data_1_split
I0105 22:23:17.175052 10836 net.cpp:380] label_data_1_split <- label
I0105 22:23:17.175073 10836 net.cpp:338] label_data_1_split -> label_data_1_split_0
I0105 22:23:17.175110 10836 net.cpp:338] label_data_1_split -> label_data_1_split_1
I0105 22:23:17.175137 10836 net.cpp:338] label_data_1_split -> label_data_1_split_2
I0105 22:23:17.175148 10836 net.cpp:113] Setting up label_data_1_split
I0105 22:23:17.175164 10836 net.cpp:120] Top shape: 80 (80)
I0105 22:23:17.175173 10836 net.cpp:120] Top shape: 80 (80)
I0105 22:23:17.175182 10836 net.cpp:120] Top shape: 80 (80)
I0105 22:23:17.175190 10836 layer_factory.hpp:74] Creating layer conv1/7x7_s2
I0105 22:23:17.175209 10836 net.cpp:84] Creating Layer conv1/7x7_s2
I0105 22:23:17.175216 10836 net.cpp:380] conv1/7x7_s2 <- data
I0105 22:23:17.175230 10836 net.cpp:338] conv1/7x7_s2 -> conv1/7x7_s2
I0105 22:23:17.175246 10836 net.cpp:113] Setting up conv1/7x7_s2
I0105 22:23:17.470496 10836 net.cpp:120] Top shape: 80 64 112 112 (64225280)
I0105 22:23:17.470587 10836 layer_factory.hpp:74] Creating layer conv1/relu_7x7
I0105 22:23:17.470603 10836 net.cpp:84] Creating Layer conv1/relu_7x7
I0105 22:23:17.470612 10836 net.cpp:380] conv1/relu_7x7 <- conv1/7x7_s2
I0105 22:23:17.470623 10836 net.cpp:327] conv1/relu_7x7 -> conv1/7x7_s2 (in-place)
I0105 22:23:17.470638 10836 net.cpp:113] Setting up conv1/relu_7x7
I0105 22:23:17.471369 10836 net.cpp:120] Top shape: 80 64 112 112 (64225280)
I0105 22:23:17.471385 10836 layer_factory.hpp:74] Creating layer pool1/3x3_s2
I0105 22:23:17.471402 10836 net.cpp:84] Creating Layer pool1/3x3_s2
I0105 22:23:17.471410 10836 net.cpp:380] pool1/3x3_s2 <- conv1/7x7_s2
I0105 22:23:17.471420 10836 net.cpp:338] pool1/3x3_s2 -> pool1/3x3_s2
I0105 22:23:17.471431 10836 net.cpp:113] Setting up pool1/3x3_s2
I0105 22:23:17.471570 10836 net.cpp:120] Top shape: 80 64 56 56 (16056320)
I0105 22:23:17.471580 10836 layer_factory.hpp:74] Creating layer pool1/norm1
I0105 22:23:17.471592 10836 net.cpp:84] Creating Layer pool1/norm1
I0105 22:23:17.471599 10836 net.cpp:380] pool1/norm1 <- pool1/3x3_s2
I0105 22:23:17.471616 10836 net.cpp:338] pool1/norm1 -> pool1/norm1
I0105 22:23:17.471627 10836 net.cpp:113] Setting up pool1/norm1
I0105 22:23:17.471639 10836 net.cpp:120] Top shape: 80 64 56 56 (16056320)
I0105 22:23:17.471647 10836 layer_factory.hpp:74] Creating layer conv2/3x3_reduce
I0105 22:23:17.471662 10836 net.cpp:84] Creating Layer conv2/3x3_reduce
I0105 22:23:17.471668 10836 net.cpp:380] conv2/3x3_reduce <- pool1/norm1
I0105 22:23:17.471678 10836 net.cpp:338] conv2/3x3_reduce -> conv2/3x3_reduce
I0105 22:23:17.471693 10836 net.cpp:113] Setting up conv2/3x3_reduce
I0105 22:23:17.472347 10836 net.cpp:120] Top shape: 80 64 56 56 (16056320)
I0105 22:23:17.472369 10836 layer_factory.hpp:74] Creating layer conv2/relu_3x3_reduce
I0105 22:23:17.472383 10836 net.cpp:84] Creating Layer conv2/relu_3x3_reduce
I0105 22:23:17.472390 10836 net.cpp:380] conv2/relu_3x3_reduce <- conv2/3x3_reduce
I0105 22:23:17.472400 10836 net.cpp:327] conv2/relu_3x3_reduce -> conv2/3x3_reduce (in-place)
I0105 22:23:17.472410 10836 net.cpp:113] Setting up conv2/relu_3x3_reduce
I0105 22:23:17.472496 10836 net.cpp:120] Top shape: 80 64 56 56 (16056320)
I0105 22:23:17.472506 10836 layer_factory.hpp:74] Creating layer conv2/3x3
I0105 22:23:17.472522 10836 net.cpp:84] Creating Layer conv2/3x3
I0105 22:23:17.472528 10836 net.cpp:380] conv2/3x3 <- conv2/3x3_reduce
I0105 22:23:17.472538 10836 net.cpp:338] conv2/3x3 -> conv2/3x3
I0105 22:23:17.472550 10836 net.cpp:113] Setting up conv2/3x3
I0105 22:23:17.474771 10836 net.cpp:120] Top shape: 80 192 56 56 (48168960)
I0105 22:23:17.474795 10836 layer_factory.hpp:74] Creating layer conv2/relu_3x3
I0105 22:23:17.474805 10836 net.cpp:84] Creating Layer conv2/relu_3x3
I0105 22:23:17.474812 10836 net.cpp:380] conv2/relu_3x3 <- conv2/3x3
I0105 22:23:17.474822 10836 net.cpp:327] conv2/relu_3x3 -> conv2/3x3 (in-place)
I0105 22:23:17.474833 10836 net.cpp:113] Setting up conv2/relu_3x3
I0105 22:23:17.475159 10836 net.cpp:120] Top shape: 80 192 56 56 (48168960)
I0105 22:23:17.475173 10836 layer_factory.hpp:74] Creating layer conv2/norm2
I0105 22:23:17.475185 10836 net.cpp:84] Creating Layer conv2/norm2
I0105 22:23:17.475235 10836 net.cpp:380] conv2/norm2 <- conv2/3x3
I0105 22:23:17.475258 10836 net.cpp:338] conv2/norm2 -> conv2/norm2
I0105 22:23:17.475270 10836 net.cpp:113] Setting up conv2/norm2
I0105 22:23:17.475281 10836 net.cpp:120] Top shape: 80 192 56 56 (48168960)
I0105 22:23:17.475288 10836 layer_factory.hpp:74] Creating layer pool2/3x3_s2
I0105 22:23:17.475301 10836 net.cpp:84] Creating Layer pool2/3x3_s2
I0105 22:23:17.475307 10836 net.cpp:380] pool2/3x3_s2 <- conv2/norm2
I0105 22:23:17.475317 10836 net.cpp:338] pool2/3x3_s2 -> pool2/3x3_s2
I0105 22:23:17.475325 10836 net.cpp:113] Setting up pool2/3x3_s2
I0105 22:23:17.476342 10836 net.cpp:120] Top shape: 80 192 28 28 (12042240)
I0105 22:23:17.476356 10836 layer_factory.hpp:74] Creating layer pool2/3x3_s2_pool2/3x3_s2_0_split
I0105 22:23:17.476366 10836 net.cpp:84] Creating Layer pool2/3x3_s2_pool2/3x3_s2_0_split
I0105 22:23:17.476372 10836 net.cpp:380] pool2/3x3_s2_pool2/3x3_s2_0_split <- pool2/3x3_s2
I0105 22:23:17.476383 10836 net.cpp:338] pool2/3x3_s2_pool2/3x3_s2_0_split -> pool2/3x3_s2_pool2/3x3_s2_0_split_0
I0105 22:23:17.476393 10836 net.cpp:338] pool2/3x3_s2_pool2/3x3_s2_0_split -> pool2/3x3_s2_pool2/3x3_s2_0_split_1
I0105 22:23:17.476402 10836 net.cpp:338] pool2/3x3_s2_pool2/3x3_s2_0_split -> pool2/3x3_s2_pool2/3x3_s2_0_split_2
I0105 22:23:17.476411 10836 net.cpp:338] pool2/3x3_s2_pool2/3x3_s2_0_split -> pool2/3x3_s2_pool2/3x3_s2_0_split_3
I0105 22:23:17.476419 10836 net.cpp:113] Setting up pool2/3x3_s2_pool2/3x3_s2_0_split
I0105 22:23:17.476431 10836 net.cpp:120] Top shape: 80 192 28 28 (12042240)
I0105 22:23:17.476438 10836 net.cpp:120] Top shape: 80 192 28 28 (12042240)
I0105 22:23:17.476446 10836 net.cpp:120] Top shape: 80 192 28 28 (12042240)
I0105 22:23:17.476454 10836 net.cpp:120] Top shape: 80 192 28 28 (12042240)
I0105 22:23:17.476460 10836 layer_factory.hpp:74] Creating layer inception_3a/1x1
I0105 22:23:17.476476 10836 net.cpp:84] Creating Layer inception_3a/1x1
I0105 22:23:17.476483 10836 net.cpp:380] inception_3a/1x1 <- pool2/3x3_s2_pool2/3x3_s2_0_split_0
I0105 22:23:17.476492 10836 net.cpp:338] inception_3a/1x1 -> inception_3a/1x1
I0105 22:23:17.476505 10836 net.cpp:113] Setting up inception_3a/1x1
I0105 22:23:17.477165 10836 net.cpp:120] Top shape: 80 64 28 28 (4014080)
I0105 22:23:17.477185 10836 layer_factory.hpp:74] Creating layer inception_3a/relu_1x1
I0105 22:23:17.477196 10836 net.cpp:84] Creating Layer inception_3a/relu_1x1
I0105 22:23:17.477205 10836 net.cpp:380] inception_3a/relu_1x1 <- inception_3a/1x1
I0105 22:23:17.477216 10836 net.cpp:327] inception_3a/relu_1x1 -> inception_3a/1x1 (in-place)
I0105 22:23:17.477226 10836 net.cpp:113] Setting up inception_3a/relu_1x1
I0105 22:23:17.477347 10836 net.cpp:120] Top shape: 80 64 28 28 (4014080)
I0105 22:23:17.477360 10836 layer_factory.hpp:74] Creating layer inception_3a/3x3_reduce
I0105 22:23:17.477376 10836 net.cpp:84] Creating Layer inception_3a/3x3_reduce
I0105 22:23:17.477385 10836 net.cpp:380] inception_3a/3x3_reduce <- pool2/3x3_s2_pool2/3x3_s2_0_split_1
I0105 22:23:17.477396 10836 net.cpp:338] inception_3a/3x3_reduce -> inception_3a/3x3_reduce
I0105 22:23:17.477406 10836 net.cpp:113] Setting up inception_3a/3x3_reduce
I0105 22:23:17.478149 10836 net.cpp:120] Top shape: 80 96 28 28 (6021120)
I0105 22:23:17.478173 10836 layer_factory.hpp:74] Creating layer inception_3a/relu_3x3_reduce
I0105 22:23:17.478186 10836 net.cpp:84] Creating Layer inception_3a/relu_3x3_reduce
I0105 22:23:17.478194 10836 net.cpp:380] inception_3a/relu_3x3_reduce <- inception_3a/3x3_reduce
I0105 22:23:17.478204 10836 net.cpp:327] inception_3a/relu_3x3_reduce -> inception_3a/3x3_reduce (in-place)
I0105 22:23:17.478212 10836 net.cpp:113] Setting up inception_3a/relu_3x3_reduce
I0105 22:23:17.478312 10836 net.cpp:120] Top shape: 80 96 28 28 (6021120)
I0105 22:23:17.478322 10836 layer_factory.hpp:74] Creating layer inception_3a/3x3
I0105 22:23:17.478335 10836 net.cpp:84] Creating Layer inception_3a/3x3
I0105 22:23:17.478343 10836 net.cpp:380] inception_3a/3x3 <- inception_3a/3x3_reduce
I0105 22:23:17.478358 10836 net.cpp:338] inception_3a/3x3 -> inception_3a/3x3
I0105 22:23:17.478377 10836 net.cpp:113] Setting up inception_3a/3x3
I0105 22:23:17.480268 10836 net.cpp:120] Top shape: 80 128 28 28 (8028160)
I0105 22:23:17.480288 10836 layer_factory.hpp:74] Creating layer inception_3a/relu_3x3
I0105 22:23:17.480298 10836 net.cpp:84] Creating Layer inception_3a/relu_3x3
I0105 22:23:17.480305 10836 net.cpp:380] inception_3a/relu_3x3 <- inception_3a/3x3
I0105 22:23:17.480316 10836 net.cpp:327] inception_3a/relu_3x3 -> inception_3a/3x3 (in-place)
I0105 22:23:17.480327 10836 net.cpp:113] Setting up inception_3a/relu_3x3
I0105 22:23:17.480599 10836 net.cpp:120] Top shape: 80 128 28 28 (8028160)
I0105 22:23:17.480612 10836 layer_factory.hpp:74] Creating layer inception_3a/5x5_reduce
I0105 22:23:17.480626 10836 net.cpp:84] Creating Layer inception_3a/5x5_reduce
I0105 22:23:17.480633 10836 net.cpp:380] inception_3a/5x5_reduce <- pool2/3x3_s2_pool2/3x3_s2_0_split_2
I0105 22:23:17.480644 10836 net.cpp:338] inception_3a/5x5_reduce -> inception_3a/5x5_reduce
I0105 22:23:17.480659 10836 net.cpp:113] Setting up inception_3a/5x5_reduce
I0105 22:23:17.481170 10836 net.cpp:120] Top shape: 80 16 28 28 (1003520)
I0105 22:23:17.481190 10836 layer_factory.hpp:74] Creating layer inception_3a/relu_5x5_reduce
I0105 22:23:17.481204 10836 net.cpp:84] Creating Layer inception_3a/relu_5x5_reduce
I0105 22:23:17.481210 10836 net.cpp:380] inception_3a/relu_5x5_reduce <- inception_3a/5x5_reduce
I0105 22:23:17.481220 10836 net.cpp:327] inception_3a/relu_5x5_reduce -> inception_3a/5x5_reduce (in-place)
I0105 22:23:17.481228 10836 net.cpp:113] Setting up inception_3a/relu_5x5_reduce
I0105 22:23:17.481326 10836 net.cpp:120] Top shape: 80 16 28 28 (1003520)
I0105 22:23:17.481339 10836 layer_factory.hpp:74] Creating layer inception_3a/5x5
I0105 22:23:17.481353 10836 net.cpp:84] Creating Layer inception_3a/5x5
I0105 22:23:17.481359 10836 net.cpp:380] inception_3a/5x5 <- inception_3a/5x5_reduce
I0105 22:23:17.481369 10836 net.cpp:338] inception_3a/5x5 -> inception_3a/5x5
I0105 22:23:17.481379 10836 net.cpp:113] Setting up inception_3a/5x5
I0105 22:23:17.482035 10836 net.cpp:120] Top shape: 80 32 28 28 (2007040)
I0105 22:23:17.482054 10836 layer_factory.hpp:74] Creating layer inception_3a/relu_5x5
I0105 22:23:17.482064 10836 net.cpp:84] Creating Layer inception_3a/relu_5x5
I0105 22:23:17.482071 10836 net.cpp:380] inception_3a/relu_5x5 <- inception_3a/5x5
I0105 22:23:17.482082 10836 net.cpp:327] inception_3a/relu_5x5 -> inception_3a/5x5 (in-place)
I0105 22:23:17.482091 10836 net.cpp:113] Setting up inception_3a/relu_5x5
I0105 22:23:17.482177 10836 net.cpp:120] Top shape: 80 32 28 28 (2007040)
I0105 22:23:17.482187 10836 layer_factory.hpp:74] Creating layer inception_3a/pool
I0105 22:23:17.482194 10836 layer_factory.cpp:56] CUDNN does not support padding or multiple tops. Using Caffe's own pooling layer.
I0105 22:23:17.482204 10836 net.cpp:84] Creating Layer inception_3a/pool
I0105 22:23:17.482211 10836 net.cpp:380] inception_3a/pool <- pool2/3x3_s2_pool2/3x3_s2_0_split_3
I0105 22:23:17.482228 10836 net.cpp:338] inception_3a/pool -> inception_3a/pool
I0105 22:23:17.482239 10836 net.cpp:113] Setting up inception_3a/pool
I0105 22:23:17.482250 10836 net.cpp:120] Top shape: 80 192 28 28 (12042240)
I0105 22:23:17.482259 10836 layer_factory.hpp:74] Creating layer inception_3a/pool_proj
I0105 22:23:17.482270 10836 net.cpp:84] Creating Layer inception_3a/pool_proj
I0105 22:23:17.482277 10836 net.cpp:380] inception_3a/pool_proj <- inception_3a/pool
I0105 22:23:17.482290 10836 net.cpp:338] inception_3a/pool_proj -> inception_3a/pool_proj
I0105 22:23:17.482300 10836 net.cpp:113] Setting up inception_3a/pool_proj
I0105 22:23:17.482841 10836 net.cpp:120] Top shape: 80 32 28 28 (2007040)
I0105 22:23:17.482864 10836 layer_factory.hpp:74] Creating layer inception_3a/relu_pool_proj
I0105 22:23:17.482879 10836 net.cpp:84] Creating Layer inception_3a/relu_pool_proj
I0105 22:23:17.482887 10836 net.cpp:380] inception_3a/relu_pool_proj <- inception_3a/pool_proj
I0105 22:23:17.482899 10836 net.cpp:327] inception_3a/relu_pool_proj -> inception_3a/pool_proj (in-place)
I0105 22:23:17.482921 10836 net.cpp:113] Setting up inception_3a/relu_pool_proj
I0105 22:23:17.483006 10836 net.cpp:120] Top shape: 80 32 28 28 (2007040)
I0105 22:23:17.483016 10836 layer_factory.hpp:74] Creating layer inception_3a/output
I0105 22:23:17.483026 10836 net.cpp:84] Creating Layer inception_3a/output
I0105 22:23:17.483033 10836 net.cpp:380] inception_3a/output <- inception_3a/1x1
I0105 22:23:17.483042 10836 net.cpp:380] inception_3a/output <- inception_3a/3x3
I0105 22:23:17.483049 10836 net.cpp:380] inception_3a/output <- inception_3a/5x5
I0105 22:23:17.483057 10836 net.cpp:380] inception_3a/output <- inception_3a/pool_proj
I0105 22:23:17.483067 10836 net.cpp:338] inception_3a/output -> inception_3a/output
I0105 22:23:17.483077 10836 net.cpp:113] Setting up inception_3a/output
I0105 22:23:17.483088 10836 net.cpp:120] Top shape: 80 256 28 28 (16056320)
I0105 22:23:17.483094 10836 layer_factory.hpp:74] Creating layer inception_3a/output_inception_3a/output_0_split
I0105 22:23:17.483106 10836 net.cpp:84] Creating Layer inception_3a/output_inception_3a/output_0_split
I0105 22:23:17.483113 10836 net.cpp:380] inception_3a/output_inception_3a/output_0_split <- inception_3a/output
I0105 22:23:17.483121 10836 net.cpp:338] inception_3a/output_inception_3a/output_0_split -> inception_3a/output_inception_3a/output_0_split_0
I0105 22:23:17.483130 10836 net.cpp:338] inception_3a/output_inception_3a/output_0_split -> inception_3a/output_inception_3a/output_0_split_1
I0105 22:23:17.483139 10836 net.cpp:338] inception_3a/output_inception_3a/output_0_split -> inception_3a/output_inception_3a/output_0_split_2
I0105 22:23:17.483149 10836 net.cpp:338] inception_3a/output_inception_3a/output_0_split -> inception_3a/output_inception_3a/output_0_split_3
I0105 22:23:17.483156 10836 net.cpp:113] Setting up inception_3a/output_inception_3a/output_0_split
I0105 22:23:17.483166 10836 net.cpp:120] Top shape: 80 256 28 28 (16056320)
I0105 22:23:17.483175 10836 net.cpp:120] Top shape: 80 256 28 28 (16056320)
I0105 22:23:17.483182 10836 net.cpp:120] Top shape: 80 256 28 28 (16056320)
I0105 22:23:17.483191 10836 net.cpp:120] Top shape: 80 256 28 28 (16056320)
I0105 22:23:17.483198 10836 layer_factory.hpp:74] Creating layer inception_3b/1x1
I0105 22:23:17.483211 10836 net.cpp:84] Creating Layer inception_3b/1x1
I0105 22:23:17.483217 10836 net.cpp:380] inception_3b/1x1 <- inception_3a/output_inception_3a/output_0_split_0
I0105 22:23:17.483229 10836 net.cpp:338] inception_3b/1x1 -> inception_3b/1x1
I0105 22:23:17.483239 10836 net.cpp:113] Setting up inception_3b/1x1
I0105 22:23:17.484132 10836 net.cpp:120] Top shape: 80 128 28 28 (8028160)
I0105 22:23:17.484150 10836 layer_factory.hpp:74] Creating layer inception_3b/relu_1x1
I0105 22:23:17.484161 10836 net.cpp:84] Creating Layer inception_3b/relu_1x1
I0105 22:23:17.484169 10836 net.cpp:380] inception_3b/relu_1x1 <- inception_3b/1x1
I0105 22:23:17.484179 10836 net.cpp:327] inception_3b/relu_1x1 -> inception_3b/1x1 (in-place)
I0105 22:23:17.484189 10836 net.cpp:113] Setting up inception_3b/relu_1x1
I0105 22:23:17.484468 10836 net.cpp:120] Top shape: 80 128 28 28 (8028160)
I0105 22:23:17.484482 10836 layer_factory.hpp:74] Creating layer inception_3b/3x3_reduce
I0105 22:23:17.484494 10836 net.cpp:84] Creating Layer inception_3b/3x3_reduce
I0105 22:23:17.484501 10836 net.cpp:380] inception_3b/3x3_reduce <- inception_3a/output_inception_3a/output_0_split_1
I0105 22:23:17.484513 10836 net.cpp:338] inception_3b/3x3_reduce -> inception_3b/3x3_reduce
I0105 22:23:17.484524 10836 net.cpp:113] Setting up inception_3b/3x3_reduce
I0105 22:23:17.485414 10836 net.cpp:120] Top shape: 80 128 28 28 (8028160)
I0105 22:23:17.485435 10836 layer_factory.hpp:74] Creating layer inception_3b/relu_3x3_reduce
I0105 22:23:17.485445 10836 net.cpp:84] Creating Layer inception_3b/relu_3x3_reduce
I0105 22:23:17.485452 10836 net.cpp:380] inception_3b/relu_3x3_reduce <- inception_3b/3x3_reduce
I0105 22:23:17.485461 10836 net.cpp:327] inception_3b/relu_3x3_reduce -> inception_3b/3x3_reduce (in-place)
I0105 22:23:17.485484 10836 net.cpp:113] Setting up inception_3b/relu_3x3_reduce
I0105 22:23:17.485579 10836 net.cpp:120] Top shape: 80 128 28 28 (8028160)
I0105 22:23:17.485589 10836 layer_factory.hpp:74] Creating layer inception_3b/3x3
I0105 22:23:17.485605 10836 net.cpp:84] Creating Layer inception_3b/3x3
I0105 22:23:17.485612 10836 net.cpp:380] inception_3b/3x3 <- inception_3b/3x3_reduce
I0105 22:23:17.485622 10836 net.cpp:338] inception_3b/3x3 -> inception_3b/3x3
I0105 22:23:17.485633 10836 net.cpp:113] Setting up inception_3b/3x3
I0105 22:23:17.488814 10836 net.cpp:120] Top shape: 80 192 28 28 (12042240)
I0105 22:23:17.488837 10836 layer_factory.hpp:74] Creating layer inception_3b/relu_3x3
I0105 22:23:17.488847 10836 net.cpp:84] Creating Layer inception_3b/relu_3x3
I0105 22:23:17.488855 10836 net.cpp:380] inception_3b/relu_3x3 <- inception_3b/3x3
I0105 22:23:17.488865 10836 net.cpp:327] inception_3b/relu_3x3 -> inception_3b/3x3 (in-place)
I0105 22:23:17.488878 10836 net.cpp:113] Setting up inception_3b/relu_3x3
I0105 22:23:17.488957 10836 net.cpp:120] Top shape: 80 192 28 28 (12042240)
I0105 22:23:17.488968 10836 layer_factory.hpp:74] Creating layer inception_3b/5x5_reduce
I0105 22:23:17.488986 10836 net.cpp:84] Creating Layer inception_3b/5x5_reduce
I0105 22:23:17.488992 10836 net.cpp:380] inception_3b/5x5_reduce <- inception_3a/output_inception_3a/output_0_split_2
I0105 22:23:17.489001 10836 net.cpp:338] inception_3b/5x5_reduce -> inception_3b/5x5_reduce
I0105 22:23:17.489012 10836 net.cpp:113] Setting up inception_3b/5x5_reduce
I0105 22:23:17.489614 10836 net.cpp:120] Top shape: 80 32 28 28 (2007040)
I0105 22:23:17.489632 10836 layer_factory.hpp:74] Creating layer inception_3b/relu_5x5_reduce
I0105 22:23:17.489642 10836 net.cpp:84] Creating Layer inception_3b/relu_5x5_reduce
I0105 22:23:17.489650 10836 net.cpp:380] inception_3b/relu_5x5_reduce <- inception_3b/5x5_reduce
I0105 22:23:17.489660 10836 net.cpp:327] inception_3b/relu_5x5_reduce -> inception_3b/5x5_reduce (in-place)
I0105 22:23:17.489670 10836 net.cpp:113] Setting up inception_3b/relu_5x5_reduce
I0105 22:23:17.489750 10836 net.cpp:120] Top shape: 80 32 28 28 (2007040)
I0105 22:23:17.489759 10836 layer_factory.hpp:74] Creating layer inception_3b/5x5
I0105 22:23:17.489771 10836 net.cpp:84] Creating Layer inception_3b/5x5
I0105 22:23:17.489778 10836 net.cpp:380] inception_3b/5x5 <- inception_3b/5x5_reduce
I0105 22:23:17.489790 10836 net.cpp:338] inception_3b/5x5 -> inception_3b/5x5
I0105 22:23:17.489807 10836 net.cpp:113] Setting up inception_3b/5x5
I0105 22:23:17.498759 10836 net.cpp:120] Top shape: 80 96 28 28 (6021120)
I0105 22:23:17.498778 10836 layer_factory.hpp:74] Creating layer inception_3b/relu_5x5
I0105 22:23:17.498788 10836 net.cpp:84] Creating Layer inception_3b/relu_5x5
I0105 22:23:17.498797 10836 net.cpp:380] inception_3b/relu_5x5 <- inception_3b/5x5
I0105 22:23:17.498806 10836 net.cpp:327] inception_3b/relu_5x5 -> inception_3b/5x5 (in-place)
I0105 22:23:17.498816 10836 net.cpp:113] Setting up inception_3b/relu_5x5
I0105 22:23:17.499092 10836 net.cpp:120] Top shape: 80 96 28 28 (6021120)
I0105 22:23:17.499106 10836 layer_factory.hpp:74] Creating layer inception_3b/pool
I0105 22:23:17.499114 10836 layer_factory.cpp:56] CUDNN does not support padding or multiple tops. Using Caffe's own pooling layer.
I0105 22:23:17.499122 10836 net.cpp:84] Creating Layer inception_3b/pool
I0105 22:23:17.499130 10836 net.cpp:380] inception_3b/pool <- inception_3a/output_inception_3a/output_0_split_3
I0105 22:23:17.499140 10836 net.cpp:338] inception_3b/pool -> inception_3b/pool
I0105 22:23:17.499151 10836 net.cpp:113] Setting up inception_3b/pool
I0105 22:23:17.499163 10836 net.cpp:120] Top shape: 80 256 28 28 (16056320)
I0105 22:23:17.499171 10836 layer_factory.hpp:74] Creating layer inception_3b/pool_proj
I0105 22:23:17.499182 10836 net.cpp:84] Creating Layer inception_3b/pool_proj
I0105 22:23:17.499189 10836 net.cpp:380] inception_3b/pool_proj <- inception_3b/pool
I0105 22:23:17.499199 10836 net.cpp:338] inception_3b/pool_proj -> inception_3b/pool_proj
I0105 22:23:17.499217 10836 net.cpp:113] Setting up inception_3b/pool_proj
I0105 22:23:17.499980 10836 net.cpp:120] Top shape: 80 64 28 28 (4014080)
I0105 22:23:17.500000 10836 layer_factory.hpp:74] Creating layer inception_3b/relu_pool_proj
I0105 22:23:17.500010 10836 net.cpp:84] Creating Layer inception_3b/relu_pool_proj
I0105 22:23:17.500016 10836 net.cpp:380] inception_3b/relu_pool_proj <- inception_3b/pool_proj
I0105 22:23:17.500027 10836 net.cpp:327] inception_3b/relu_pool_proj -> inception_3b/pool_proj (in-place)
I0105 22:23:17.500037 10836 net.cpp:113] Setting up inception_3b/relu_pool_proj
I0105 22:23:17.500125 10836 net.cpp:120] Top shape: 80 64 28 28 (4014080)
I0105 22:23:17.500133 10836 layer_factory.hpp:74] Creating layer inception_3b/output
I0105 22:23:17.500143 10836 net.cpp:84] Creating Layer inception_3b/output
I0105 22:23:17.500149 10836 net.cpp:380] inception_3b/output <- inception_3b/1x1
I0105 22:23:17.500156 10836 net.cpp:380] inception_3b/output <- inception_3b/3x3
I0105 22:23:17.500164 10836 net.cpp:380] inception_3b/output <- inception_3b/5x5
I0105 22:23:17.500170 10836 net.cpp:380] inception_3b/output <- inception_3b/pool_proj
I0105 22:23:17.500180 10836 net.cpp:338] inception_3b/output -> inception_3b/output
I0105 22:23:17.500190 10836 net.cpp:113] Setting up inception_3b/output
I0105 22:23:17.500200 10836 net.cpp:120] Top shape: 80 480 28 28 (30105600)
I0105 22:23:17.500205 10836 layer_factory.hpp:74] Creating layer pool3/3x3_s2
I0105 22:23:17.500216 10836 net.cpp:84] Creating Layer pool3/3x3_s2
I0105 22:23:17.500222 10836 net.cpp:380] pool3/3x3_s2 <- inception_3b/output
I0105 22:23:17.500231 10836 net.cpp:338] pool3/3x3_s2 -> pool3/3x3_s2
I0105 22:23:17.500241 10836 net.cpp:113] Setting up pool3/3x3_s2
I0105 22:23:17.500324 10836 net.cpp:120] Top shape: 80 480 14 14 (7526400)
I0105 22:23:17.500331 10836 layer_factory.hpp:74] Creating layer pool3/3x3_s2_pool3/3x3_s2_0_split
I0105 22:23:17.500342 10836 net.cpp:84] Creating Layer pool3/3x3_s2_pool3/3x3_s2_0_split
I0105 22:23:17.500349 10836 net.cpp:380] pool3/3x3_s2_pool3/3x3_s2_0_split <- pool3/3x3_s2
I0105 22:23:17.500356 10836 net.cpp:338] pool3/3x3_s2_pool3/3x3_s2_0_split -> pool3/3x3_s2_pool3/3x3_s2_0_split_0
I0105 22:23:17.500366 10836 net.cpp:338] pool3/3x3_s2_pool3/3x3_s2_0_split -> pool3/3x3_s2_pool3/3x3_s2_0_split_1
I0105 22:23:17.500378 10836 net.cpp:338] pool3/3x3_s2_pool3/3x3_s2_0_split -> pool3/3x3_s2_pool3/3x3_s2_0_split_2
I0105 22:23:17.500388 10836 net.cpp:338] pool3/3x3_s2_pool3/3x3_s2_0_split -> pool3/3x3_s2_pool3/3x3_s2_0_split_3
I0105 22:23:17.500396 10836 net.cpp:113] Setting up pool3/3x3_s2_pool3/3x3_s2_0_split
I0105 22:23:17.500406 10836 net.cpp:120] Top shape: 80 480 14 14 (7526400)
I0105 22:23:17.500419 10836 net.cpp:120] Top shape: 80 480 14 14 (7526400)
I0105 22:23:17.500427 10836 net.cpp:120] Top shape: 80 480 14 14 (7526400)
I0105 22:23:17.500433 10836 net.cpp:120] Top shape: 80 480 14 14 (7526400)
I0105 22:23:17.500439 10836 layer_factory.hpp:74] Creating layer inception_4a/1x1
I0105 22:23:17.500461 10836 net.cpp:84] Creating Layer inception_4a/1x1
I0105 22:23:17.500468 10836 net.cpp:380] inception_4a/1x1 <- pool3/3x3_s2_pool3/3x3_s2_0_split_0
I0105 22:23:17.500478 10836 net.cpp:338] inception_4a/1x1 -> inception_4a/1x1
I0105 22:23:17.500486 10836 net.cpp:113] Setting up inception_4a/1x1
I0105 22:23:17.506294 10836 net.cpp:120] Top shape: 80 192 14 14 (3010560)
I0105 22:23:17.506315 10836 layer_factory.hpp:74] Creating layer inception_4a/relu_1x1
I0105 22:23:17.506325 10836 net.cpp:84] Creating Layer inception_4a/relu_1x1
I0105 22:23:17.506331 10836 net.cpp:380] inception_4a/relu_1x1 <- inception_4a/1x1
I0105 22:23:17.506342 10836 net.cpp:327] inception_4a/relu_1x1 -> inception_4a/1x1 (in-place)
I0105 22:23:17.506351 10836 net.cpp:113] Setting up inception_4a/relu_1x1
I0105 22:23:17.514389 10836 net.cpp:120] Top shape: 80 192 14 14 (3010560)
I0105 22:23:17.514405 10836 layer_factory.hpp:74] Creating layer inception_4a/3x3_reduce
I0105 22:23:17.514420 10836 net.cpp:84] Creating Layer inception_4a/3x3_reduce
I0105 22:23:17.514433 10836 net.cpp:380] inception_4a/3x3_reduce <- pool3/3x3_s2_pool3/3x3_s2_0_split_1
I0105 22:23:17.514454 10836 net.cpp:338] inception_4a/3x3_reduce -> inception_4a/3x3_reduce
I0105 22:23:17.514467 10836 net.cpp:113] Setting up inception_4a/3x3_reduce
I0105 22:23:17.515514 10836 net.cpp:120] Top shape: 80 96 14 14 (1505280)
I0105 22:23:17.515538 10836 layer_factory.hpp:74] Creating layer inception_4a/relu_3x3_reduce
I0105 22:23:17.515548 10836 net.cpp:84] Creating Layer inception_4a/relu_3x3_reduce
I0105 22:23:17.515558 10836 net.cpp:380] inception_4a/relu_3x3_reduce <- inception_4a/3x3_reduce
I0105 22:23:17.515568 10836 net.cpp:327] inception_4a/relu_3x3_reduce -> inception_4a/3x3_reduce (in-place)
I0105 22:23:17.515578 10836 net.cpp:113] Setting up inception_4a/relu_3x3_reduce
I0105 22:23:17.515661 10836 net.cpp:120] Top shape: 80 96 14 14 (1505280)
I0105 22:23:17.515668 10836 layer_factory.hpp:74] Creating layer inception_4a/3x3
I0105 22:23:17.515681 10836 net.cpp:84] Creating Layer inception_4a/3x3
I0105 22:23:17.515686 10836 net.cpp:380] inception_4a/3x3 <- inception_4a/3x3_reduce
I0105 22:23:17.515697 10836 net.cpp:338] inception_4a/3x3 -> inception_4a/3x3
I0105 22:23:17.515705 10836 net.cpp:113] Setting up inception_4a/3x3
I0105 22:23:17.518288 10836 net.cpp:120] Top shape: 80 208 14 14 (3261440)
I0105 22:23:17.518308 10836 layer_factory.hpp:74] Creating layer inception_4a/relu_3x3
I0105 22:23:17.518317 10836 net.cpp:84] Creating Layer inception_4a/relu_3x3
I0105 22:23:17.518324 10836 net.cpp:380] inception_4a/relu_3x3 <- inception_4a/3x3
I0105 22:23:17.518337 10836 net.cpp:327] inception_4a/relu_3x3 -> inception_4a/3x3 (in-place)
I0105 22:23:17.518347 10836 net.cpp:113] Setting up inception_4a/relu_3x3
I0105 22:23:17.518437 10836 net.cpp:120] Top shape: 80 208 14 14 (3261440)
I0105 22:23:17.518446 10836 layer_factory.hpp:74] Creating layer inception_4a/5x5_reduce
I0105 22:23:17.518458 10836 net.cpp:84] Creating Layer inception_4a/5x5_reduce
I0105 22:23:17.518465 10836 net.cpp:380] inception_4a/5x5_reduce <- pool3/3x3_s2_pool3/3x3_s2_0_split_2
I0105 22:23:17.518476 10836 net.cpp:338] inception_4a/5x5_reduce -> inception_4a/5x5_reduce
I0105 22:23:17.518486 10836 net.cpp:113] Setting up inception_4a/5x5_reduce
I0105 22:23:17.519037 10836 net.cpp:120] Top shape: 80 16 14 14 (250880)
I0105 22:23:17.519054 10836 layer_factory.hpp:74] Creating layer inception_4a/relu_5x5_reduce
I0105 22:23:17.519064 10836 net.cpp:84] Creating Layer inception_4a/relu_5x5_reduce
I0105 22:23:17.519070 10836 net.cpp:380] inception_4a/relu_5x5_reduce <- inception_4a/5x5_reduce
I0105 22:23:17.519083 10836 net.cpp:327] inception_4a/relu_5x5_reduce -> inception_4a/5x5_reduce (in-place)
I0105 22:23:17.519091 10836 net.cpp:113] Setting up inception_4a/relu_5x5_reduce
I0105 22:23:17.519183 10836 net.cpp:120] Top shape: 80 16 14 14 (250880)
I0105 22:23:17.519191 10836 layer_factory.hpp:74] Creating layer inception_4a/5x5
I0105 22:23:17.519203 10836 net.cpp:84] Creating Layer inception_4a/5x5
I0105 22:23:17.519210 10836 net.cpp:380] inception_4a/5x5 <- inception_4a/5x5_reduce
I0105 22:23:17.519220 10836 net.cpp:338] inception_4a/5x5 -> inception_4a/5x5
I0105 22:23:17.519232 10836 net.cpp:113] Setting up inception_4a/5x5
I0105 22:23:17.519917 10836 net.cpp:120] Top shape: 80 48 14 14 (752640)
I0105 22:23:17.519933 10836 layer_factory.hpp:74] Creating layer inception_4a/relu_5x5
I0105 22:23:17.519943 10836 net.cpp:84] Creating Layer inception_4a/relu_5x5
I0105 22:23:17.519950 10836 net.cpp:380] inception_4a/relu_5x5 <- inception_4a/5x5
I0105 22:23:17.519959 10836 net.cpp:327] inception_4a/relu_5x5 -> inception_4a/5x5 (in-place)
I0105 22:23:17.519968 10836 net.cpp:113] Setting up inception_4a/relu_5x5
I0105 22:23:17.520241 10836 net.cpp:120] Top shape: 80 48 14 14 (752640)
I0105 22:23:17.520254 10836 layer_factory.hpp:74] Creating layer inception_4a/pool
I0105 22:23:17.520262 10836 layer_factory.cpp:56] CUDNN does not support padding or multiple tops. Using Caffe's own pooling layer.
I0105 22:23:17.520277 10836 net.cpp:84] Creating Layer inception_4a/pool
I0105 22:23:17.520293 10836 net.cpp:380] inception_4a/pool <- pool3/3x3_s2_pool3/3x3_s2_0_split_3
I0105 22:23:17.520303 10836 net.cpp:338] inception_4a/pool -> inception_4a/pool
I0105 22:23:17.520313 10836 net.cpp:113] Setting up inception_4a/pool
I0105 22:23:17.520325 10836 net.cpp:120] Top shape: 80 480 14 14 (7526400)
I0105 22:23:17.520333 10836 layer_factory.hpp:74] Creating layer inception_4a/pool_proj
I0105 22:23:17.520342 10836 net.cpp:84] Creating Layer inception_4a/pool_proj
I0105 22:23:17.520349 10836 net.cpp:380] inception_4a/pool_proj <- inception_4a/pool
I0105 22:23:17.520360 10836 net.cpp:338] inception_4a/pool_proj -> inception_4a/pool_proj
I0105 22:23:17.520370 10836 net.cpp:113] Setting up inception_4a/pool_proj
I0105 22:23:17.521235 10836 net.cpp:120] Top shape: 80 64 14 14 (1003520)
I0105 22:23:17.521257 10836 layer_factory.hpp:74] Creating layer inception_4a/relu_pool_proj
I0105 22:23:17.521267 10836 net.cpp:84] Creating Layer inception_4a/relu_pool_proj
I0105 22:23:17.521275 10836 net.cpp:380] inception_4a/relu_pool_proj <- inception_4a/pool_proj
I0105 22:23:17.521282 10836 net.cpp:327] inception_4a/relu_pool_proj -> inception_4a/pool_proj (in-place)
I0105 22:23:17.521292 10836 net.cpp:113] Setting up inception_4a/relu_pool_proj
I0105 22:23:17.521376 10836 net.cpp:120] Top shape: 80 64 14 14 (1003520)
I0105 22:23:17.521386 10836 layer_factory.hpp:74] Creating layer inception_4a/output
I0105 22:23:17.521395 10836 net.cpp:84] Creating Layer inception_4a/output
I0105 22:23:17.521404 10836 net.cpp:380] inception_4a/output <- inception_4a/1x1
I0105 22:23:17.521411 10836 net.cpp:380] inception_4a/output <- inception_4a/3x3
I0105 22:23:17.521419 10836 net.cpp:380] inception_4a/output <- inception_4a/5x5
I0105 22:23:17.521425 10836 net.cpp:380] inception_4a/output <- inception_4a/pool_proj
I0105 22:23:17.521435 10836 net.cpp:338] inception_4a/output -> inception_4a/output
I0105 22:23:17.521445 10836 net.cpp:113] Setting up inception_4a/output
I0105 22:23:17.521455 10836 net.cpp:120] Top shape: 80 512 14 14 (8028160)
I0105 22:23:17.521461 10836 layer_factory.hpp:74] Creating layer inception_4a/output_inception_4a/output_0_split
I0105 22:23:17.521471 10836 net.cpp:84] Creating Layer inception_4a/output_inception_4a/output_0_split
I0105 22:23:17.521477 10836 net.cpp:380] inception_4a/output_inception_4a/output_0_split <- inception_4a/output
I0105 22:23:17.521486 10836 net.cpp:338] inception_4a/output_inception_4a/output_0_split -> inception_4a/output_inception_4a/output_0_split_0
I0105 22:23:17.521495 10836 net.cpp:338] inception_4a/output_inception_4a/output_0_split -> inception_4a/output_inception_4a/output_0_split_1
I0105 22:23:17.521503 10836 net.cpp:338] inception_4a/output_inception_4a/output_0_split -> inception_4a/output_inception_4a/output_0_split_2
I0105 22:23:17.521515 10836 net.cpp:338] inception_4a/output_inception_4a/output_0_split -> inception_4a/output_inception_4a/output_0_split_3
I0105 22:23:17.521525 10836 net.cpp:338] inception_4a/output_inception_4a/output_0_split -> inception_4a/output_inception_4a/output_0_split_4
I0105 22:23:17.521533 10836 net.cpp:113] Setting up inception_4a/output_inception_4a/output_0_split
I0105 22:23:17.521543 10836 net.cpp:120] Top shape: 80 512 14 14 (8028160)
I0105 22:23:17.521549 10836 net.cpp:120] Top shape: 80 512 14 14 (8028160)
I0105 22:23:17.521555 10836 net.cpp:120] Top shape: 80 512 14 14 (8028160)
I0105 22:23:17.521564 10836 net.cpp:120] Top shape: 80 512 14 14 (8028160)
I0105 22:23:17.521572 10836 net.cpp:120] Top shape: 80 512 14 14 (8028160)
I0105 22:23:17.521579 10836 layer_factory.hpp:74] Creating layer loss1/ave_pool
I0105 22:23:17.521589 10836 net.cpp:84] Creating Layer loss1/ave_pool
I0105 22:23:17.521595 10836 net.cpp:380] loss1/ave_pool <- inception_4a/output_inception_4a/output_0_split_0
I0105 22:23:17.521603 10836 net.cpp:338] loss1/ave_pool -> loss1/ave_pool
I0105 22:23:17.521612 10836 net.cpp:113] Setting up loss1/ave_pool
I0105 22:23:17.521694 10836 net.cpp:120] Top shape: 80 512 4 4 (655360)
I0105 22:23:17.521708 10836 layer_factory.hpp:74] Creating layer loss1/conv
I0105 22:23:17.521729 10836 net.cpp:84] Creating Layer loss1/conv
I0105 22:23:17.521736 10836 net.cpp:380] loss1/conv <- loss1/ave_pool
I0105 22:23:17.521747 10836 net.cpp:338] loss1/conv -> loss1/conv
I0105 22:23:17.521757 10836 net.cpp:113] Setting up loss1/conv
I0105 22:23:17.522986 10836 net.cpp:120] Top shape: 80 128 4 4 (163840)
I0105 22:23:17.523005 10836 layer_factory.hpp:74] Creating layer loss1/relu_conv
I0105 22:23:17.523016 10836 net.cpp:84] Creating Layer loss1/relu_conv
I0105 22:23:17.523023 10836 net.cpp:380] loss1/relu_conv <- loss1/conv
I0105 22:23:17.523033 10836 net.cpp:327] loss1/relu_conv -> loss1/conv (in-place)
I0105 22:23:17.523043 10836 net.cpp:113] Setting up loss1/relu_conv
I0105 22:23:17.523123 10836 net.cpp:120] Top shape: 80 128 4 4 (163840)
I0105 22:23:17.523130 10836 layer_factory.hpp:74] Creating layer loss1/fc
I0105 22:23:17.523144 10836 net.cpp:84] Creating Layer loss1/fc
I0105 22:23:17.523149 10836 net.cpp:380] loss1/fc <- loss1/conv
I0105 22:23:17.523159 10836 net.cpp:338] loss1/fc -> loss1/fc
I0105 22:23:17.523174 10836 net.cpp:113] Setting up loss1/fc
I0105 22:23:17.800899 10836 net.cpp:120] Top shape: 80 1024 (81920)
I0105 22:23:17.800943 10836 layer_factory.hpp:74] Creating layer loss1/relu_fc
I0105 22:23:17.800957 10836 net.cpp:84] Creating Layer loss1/relu_fc
I0105 22:23:17.800966 10836 net.cpp:380] loss1/relu_fc <- loss1/fc
I0105 22:23:17.800978 10836 net.cpp:327] loss1/relu_fc -> loss1/fc (in-place)
I0105 22:23:17.800989 10836 net.cpp:113] Setting up loss1/relu_fc
I0105 22:23:17.801405 10836 net.cpp:120] Top shape: 80 1024 (81920)
I0105 22:23:17.801419 10836 layer_factory.hpp:74] Creating layer loss1/drop_fc
I0105 22:23:17.801442 10836 net.cpp:84] Creating Layer loss1/drop_fc
I0105 22:23:17.801448 10836 net.cpp:380] loss1/drop_fc <- loss1/fc
I0105 22:23:17.801455 10836 net.cpp:327] loss1/drop_fc -> loss1/fc (in-place)
I0105 22:23:17.801465 10836 net.cpp:113] Setting up loss1/drop_fc
I0105 22:23:17.801476 10836 net.cpp:120] Top shape: 80 1024 (81920)
I0105 22:23:17.801481 10836 layer_factory.hpp:74] Creating layer loss1/classifier_kaggle
I0105 22:23:17.801493 10836 net.cpp:84] Creating Layer loss1/classifier_kaggle
I0105 22:23:17.801498 10836 net.cpp:380] loss1/classifier_kaggle <- loss1/fc
I0105 22:23:17.801506 10836 net.cpp:338] loss1/classifier_kaggle -> loss1/classifier_kaggle
I0105 22:23:17.801514 10836 net.cpp:113] Setting up loss1/classifier_kaggle
I0105 22:23:17.806651 10836 net.cpp:120] Top shape: 80 447 (35760)
I0105 22:23:17.806668 10836 layer_factory.hpp:74] Creating layer loss1/loss
I0105 22:23:17.806679 10836 net.cpp:84] Creating Layer loss1/loss
I0105 22:23:17.806684 10836 net.cpp:380] loss1/loss <- loss1/classifier_kaggle
I0105 22:23:17.806690 10836 net.cpp:380] loss1/loss <- label_data_1_split_0
I0105 22:23:17.806699 10836 net.cpp:338] loss1/loss -> loss1/loss1
I0105 22:23:17.806709 10836 net.cpp:113] Setting up loss1/loss
I0105 22:23:17.806716 10836 layer_factory.hpp:74] Creating layer loss1/loss
I0105 22:23:17.806906 10836 net.cpp:120] Top shape: (1)
I0105 22:23:17.806915 10836 net.cpp:122]     with loss weight 0.3
I0105 22:23:17.806936 10836 layer_factory.hpp:74] Creating layer inception_4b/1x1
I0105 22:23:17.806948 10836 net.cpp:84] Creating Layer inception_4b/1x1
I0105 22:23:17.806957 10836 net.cpp:380] inception_4b/1x1 <- inception_4a/output_inception_4a/output_0_split_1
I0105 22:23:17.806963 10836 net.cpp:338] inception_4b/1x1 -> inception_4b/1x1
I0105 22:23:17.806972 10836 net.cpp:113] Setting up inception_4b/1x1
I0105 22:23:17.816274 10836 net.cpp:120] Top shape: 80 160 14 14 (2508800)
I0105 22:23:17.816304 10836 layer_factory.hpp:74] Creating layer inception_4b/relu_1x1
I0105 22:23:17.816315 10836 net.cpp:84] Creating Layer inception_4b/relu_1x1
I0105 22:23:17.816323 10836 net.cpp:380] inception_4b/relu_1x1 <- inception_4b/1x1
I0105 22:23:17.816334 10836 net.cpp:327] inception_4b/relu_1x1 -> inception_4b/1x1 (in-place)
I0105 22:23:17.816342 10836 net.cpp:113] Setting up inception_4b/relu_1x1
I0105 22:23:17.816428 10836 net.cpp:120] Top shape: 80 160 14 14 (2508800)
I0105 22:23:17.816452 10836 layer_factory.hpp:74] Creating layer inception_4b/3x3_reduce
I0105 22:23:17.816467 10836 net.cpp:84] Creating Layer inception_4b/3x3_reduce
I0105 22:23:17.816473 10836 net.cpp:380] inception_4b/3x3_reduce <- inception_4a/output_inception_4a/output_0_split_2
I0105 22:23:17.816481 10836 net.cpp:338] inception_4b/3x3_reduce -> inception_4b/3x3_reduce
I0105 22:23:17.816490 10836 net.cpp:113] Setting up inception_4b/3x3_reduce
I0105 22:23:17.817610 10836 net.cpp:120] Top shape: 80 112 14 14 (1756160)
I0105 22:23:17.817627 10836 layer_factory.hpp:74] Creating layer inception_4b/relu_3x3_reduce
I0105 22:23:17.817638 10836 net.cpp:84] Creating Layer inception_4b/relu_3x3_reduce
I0105 22:23:17.817643 10836 net.cpp:380] inception_4b/relu_3x3_reduce <- inception_4b/3x3_reduce
I0105 22:23:17.817651 10836 net.cpp:327] inception_4b/relu_3x3_reduce -> inception_4b/3x3_reduce (in-place)
I0105 22:23:17.817658 10836 net.cpp:113] Setting up inception_4b/relu_3x3_reduce
I0105 22:23:17.817725 10836 net.cpp:120] Top shape: 80 112 14 14 (1756160)
I0105 22:23:17.817731 10836 layer_factory.hpp:74] Creating layer inception_4b/3x3
I0105 22:23:17.817742 10836 net.cpp:84] Creating Layer inception_4b/3x3
I0105 22:23:17.817747 10836 net.cpp:380] inception_4b/3x3 <- inception_4b/3x3_reduce
I0105 22:23:17.817756 10836 net.cpp:338] inception_4b/3x3 -> inception_4b/3x3
I0105 22:23:17.817764 10836 net.cpp:113] Setting up inception_4b/3x3
I0105 22:23:17.820677 10836 net.cpp:120] Top shape: 80 224 14 14 (3512320)
I0105 22:23:17.820693 10836 layer_factory.hpp:74] Creating layer inception_4b/relu_3x3
I0105 22:23:17.820703 10836 net.cpp:84] Creating Layer inception_4b/relu_3x3
I0105 22:23:17.820708 10836 net.cpp:380] inception_4b/relu_3x3 <- inception_4b/3x3
I0105 22:23:17.820714 10836 net.cpp:327] inception_4b/relu_3x3 -> inception_4b/3x3 (in-place)
I0105 22:23:17.820722 10836 net.cpp:113] Setting up inception_4b/relu_3x3
I0105 22:23:17.820963 10836 net.cpp:120] Top shape: 80 224 14 14 (3512320)
I0105 22:23:17.820976 10836 layer_factory.hpp:74] Creating layer inception_4b/5x5_reduce
I0105 22:23:17.820986 10836 net.cpp:84] Creating Layer inception_4b/5x5_reduce
I0105 22:23:17.820991 10836 net.cpp:380] inception_4b/5x5_reduce <- inception_4a/output_inception_4a/output_0_split_3
I0105 22:23:17.821001 10836 net.cpp:338] inception_4b/5x5_reduce -> inception_4b/5x5_reduce
I0105 22:23:17.821008 10836 net.cpp:113] Setting up inception_4b/5x5_reduce
I0105 22:23:17.821584 10836 net.cpp:120] Top shape: 80 24 14 14 (376320)
I0105 22:23:17.821600 10836 layer_factory.hpp:74] Creating layer inception_4b/relu_5x5_reduce
I0105 22:23:17.821609 10836 net.cpp:84] Creating Layer inception_4b/relu_5x5_reduce
I0105 22:23:17.821614 10836 net.cpp:380] inception_4b/relu_5x5_reduce <- inception_4b/5x5_reduce
I0105 22:23:17.821622 10836 net.cpp:327] inception_4b/relu_5x5_reduce -> inception_4b/5x5_reduce (in-place)
I0105 22:23:17.821630 10836 net.cpp:113] Setting up inception_4b/relu_5x5_reduce
I0105 22:23:17.821701 10836 net.cpp:120] Top shape: 80 24 14 14 (376320)
I0105 22:23:17.821707 10836 layer_factory.hpp:74] Creating layer inception_4b/5x5
I0105 22:23:17.821715 10836 net.cpp:84] Creating Layer inception_4b/5x5
I0105 22:23:17.821720 10836 net.cpp:380] inception_4b/5x5 <- inception_4b/5x5_reduce
I0105 22:23:17.821728 10836 net.cpp:338] inception_4b/5x5 -> inception_4b/5x5
I0105 22:23:17.821737 10836 net.cpp:113] Setting up inception_4b/5x5
I0105 22:23:17.822564 10836 net.cpp:120] Top shape: 80 64 14 14 (1003520)
I0105 22:23:17.822581 10836 layer_factory.hpp:74] Creating layer inception_4b/relu_5x5
I0105 22:23:17.822589 10836 net.cpp:84] Creating Layer inception_4b/relu_5x5
I0105 22:23:17.822594 10836 net.cpp:380] inception_4b/relu_5x5 <- inception_4b/5x5
I0105 22:23:17.822602 10836 net.cpp:327] inception_4b/relu_5x5 -> inception_4b/5x5 (in-place)
I0105 22:23:17.822608 10836 net.cpp:113] Setting up inception_4b/relu_5x5
I0105 22:23:17.822679 10836 net.cpp:120] Top shape: 80 64 14 14 (1003520)
I0105 22:23:17.822691 10836 layer_factory.hpp:74] Creating layer inception_4b/pool
I0105 22:23:17.822706 10836 layer_factory.cpp:56] CUDNN does not support padding or multiple tops. Using Caffe's own pooling layer.
I0105 22:23:17.822716 10836 net.cpp:84] Creating Layer inception_4b/pool
I0105 22:23:17.822721 10836 net.cpp:380] inception_4b/pool <- inception_4a/output_inception_4a/output_0_split_4
I0105 22:23:17.822728 10836 net.cpp:338] inception_4b/pool -> inception_4b/pool
I0105 22:23:17.822749 10836 net.cpp:113] Setting up inception_4b/pool
I0105 22:23:17.822760 10836 net.cpp:120] Top shape: 80 512 14 14 (8028160)
I0105 22:23:17.822765 10836 layer_factory.hpp:74] Creating layer inception_4b/pool_proj
I0105 22:23:17.822777 10836 net.cpp:84] Creating Layer inception_4b/pool_proj
I0105 22:23:17.822782 10836 net.cpp:380] inception_4b/pool_proj <- inception_4b/pool
I0105 22:23:17.822789 10836 net.cpp:338] inception_4b/pool_proj -> inception_4b/pool_proj
I0105 22:23:17.822796 10836 net.cpp:113] Setting up inception_4b/pool_proj
I0105 22:23:17.823552 10836 net.cpp:120] Top shape: 80 64 14 14 (1003520)
I0105 22:23:17.823567 10836 layer_factory.hpp:74] Creating layer inception_4b/relu_pool_proj
I0105 22:23:17.823576 10836 net.cpp:84] Creating Layer inception_4b/relu_pool_proj
I0105 22:23:17.823581 10836 net.cpp:380] inception_4b/relu_pool_proj <- inception_4b/pool_proj
I0105 22:23:17.823588 10836 net.cpp:327] inception_4b/relu_pool_proj -> inception_4b/pool_proj (in-place)
I0105 22:23:17.823596 10836 net.cpp:113] Setting up inception_4b/relu_pool_proj
I0105 22:23:17.824015 10836 net.cpp:120] Top shape: 80 64 14 14 (1003520)
I0105 22:23:17.824028 10836 layer_factory.hpp:74] Creating layer inception_4b/output
I0105 22:23:17.824038 10836 net.cpp:84] Creating Layer inception_4b/output
I0105 22:23:17.824043 10836 net.cpp:380] inception_4b/output <- inception_4b/1x1
I0105 22:23:17.824049 10836 net.cpp:380] inception_4b/output <- inception_4b/3x3
I0105 22:23:17.824054 10836 net.cpp:380] inception_4b/output <- inception_4b/5x5
I0105 22:23:17.824059 10836 net.cpp:380] inception_4b/output <- inception_4b/pool_proj
I0105 22:23:17.824065 10836 net.cpp:338] inception_4b/output -> inception_4b/output
I0105 22:23:17.824074 10836 net.cpp:113] Setting up inception_4b/output
I0105 22:23:17.824081 10836 net.cpp:120] Top shape: 80 512 14 14 (8028160)
I0105 22:23:17.824086 10836 layer_factory.hpp:74] Creating layer inception_4b/output_inception_4b/output_0_split
I0105 22:23:17.824095 10836 net.cpp:84] Creating Layer inception_4b/output_inception_4b/output_0_split
I0105 22:23:17.824100 10836 net.cpp:380] inception_4b/output_inception_4b/output_0_split <- inception_4b/output
I0105 22:23:17.824106 10836 net.cpp:338] inception_4b/output_inception_4b/output_0_split -> inception_4b/output_inception_4b/output_0_split_0
I0105 22:23:17.824115 10836 net.cpp:338] inception_4b/output_inception_4b/output_0_split -> inception_4b/output_inception_4b/output_0_split_1
I0105 22:23:17.824120 10836 net.cpp:338] inception_4b/output_inception_4b/output_0_split -> inception_4b/output_inception_4b/output_0_split_2
I0105 22:23:17.824127 10836 net.cpp:338] inception_4b/output_inception_4b/output_0_split -> inception_4b/output_inception_4b/output_0_split_3
I0105 22:23:17.824132 10836 net.cpp:113] Setting up inception_4b/output_inception_4b/output_0_split
I0105 22:23:17.824141 10836 net.cpp:120] Top shape: 80 512 14 14 (8028160)
I0105 22:23:17.824144 10836 net.cpp:120] Top shape: 80 512 14 14 (8028160)
I0105 22:23:17.824149 10836 net.cpp:120] Top shape: 80 512 14 14 (8028160)
I0105 22:23:17.824154 10836 net.cpp:120] Top shape: 80 512 14 14 (8028160)
I0105 22:23:17.824158 10836 layer_factory.hpp:74] Creating layer inception_4c/1x1
I0105 22:23:17.824167 10836 net.cpp:84] Creating Layer inception_4c/1x1
I0105 22:23:17.824172 10836 net.cpp:380] inception_4c/1x1 <- inception_4b/output_inception_4b/output_0_split_0
I0105 22:23:17.824180 10836 net.cpp:338] inception_4c/1x1 -> inception_4c/1x1
I0105 22:23:17.824187 10836 net.cpp:113] Setting up inception_4c/1x1
I0105 22:23:17.825350 10836 net.cpp:120] Top shape: 80 128 14 14 (2007040)
I0105 22:23:17.825376 10836 layer_factory.hpp:74] Creating layer inception_4c/relu_1x1
I0105 22:23:17.825384 10836 net.cpp:84] Creating Layer inception_4c/relu_1x1
I0105 22:23:17.825390 10836 net.cpp:380] inception_4c/relu_1x1 <- inception_4c/1x1
I0105 22:23:17.825397 10836 net.cpp:327] inception_4c/relu_1x1 -> inception_4c/1x1 (in-place)
I0105 22:23:17.825405 10836 net.cpp:113] Setting up inception_4c/relu_1x1
I0105 22:23:17.825474 10836 net.cpp:120] Top shape: 80 128 14 14 (2007040)
I0105 22:23:17.825480 10836 layer_factory.hpp:74] Creating layer inception_4c/3x3_reduce
I0105 22:23:17.825490 10836 net.cpp:84] Creating Layer inception_4c/3x3_reduce
I0105 22:23:17.825496 10836 net.cpp:380] inception_4c/3x3_reduce <- inception_4b/output_inception_4b/output_0_split_1
I0105 22:23:17.825505 10836 net.cpp:338] inception_4c/3x3_reduce -> inception_4c/3x3_reduce
I0105 22:23:17.825513 10836 net.cpp:113] Setting up inception_4c/3x3_reduce
I0105 22:23:17.826639 10836 net.cpp:120] Top shape: 80 128 14 14 (2007040)
I0105 22:23:17.826655 10836 layer_factory.hpp:74] Creating layer inception_4c/relu_3x3_reduce
I0105 22:23:17.826664 10836 net.cpp:84] Creating Layer inception_4c/relu_3x3_reduce
I0105 22:23:17.826670 10836 net.cpp:380] inception_4c/relu_3x3_reduce <- inception_4c/3x3_reduce
I0105 22:23:17.826678 10836 net.cpp:327] inception_4c/relu_3x3_reduce -> inception_4c/3x3_reduce (in-place)
I0105 22:23:17.826685 10836 net.cpp:113] Setting up inception_4c/relu_3x3_reduce
I0105 22:23:17.826758 10836 net.cpp:120] Top shape: 80 128 14 14 (2007040)
I0105 22:23:17.826766 10836 layer_factory.hpp:74] Creating layer inception_4c/3x3
I0105 22:23:17.826776 10836 net.cpp:84] Creating Layer inception_4c/3x3
I0105 22:23:17.826781 10836 net.cpp:380] inception_4c/3x3 <- inception_4c/3x3_reduce
I0105 22:23:17.826791 10836 net.cpp:338] inception_4c/3x3 -> inception_4c/3x3
I0105 22:23:17.826799 10836 net.cpp:113] Setting up inception_4c/3x3
I0105 22:23:17.830479 10836 net.cpp:120] Top shape: 80 256 14 14 (4014080)
I0105 22:23:17.830512 10836 layer_factory.hpp:74] Creating layer inception_4c/relu_3x3
I0105 22:23:17.830519 10836 net.cpp:84] Creating Layer inception_4c/relu_3x3
I0105 22:23:17.830524 10836 net.cpp:380] inception_4c/relu_3x3 <- inception_4c/3x3
I0105 22:23:17.830533 10836 net.cpp:327] inception_4c/relu_3x3 -> inception_4c/3x3 (in-place)
I0105 22:23:17.830540 10836 net.cpp:113] Setting up inception_4c/relu_3x3
I0105 22:23:17.830611 10836 net.cpp:120] Top shape: 80 256 14 14 (4014080)
I0105 22:23:17.830617 10836 layer_factory.hpp:74] Creating layer inception_4c/5x5_reduce
I0105 22:23:17.830626 10836 net.cpp:84] Creating Layer inception_4c/5x5_reduce
I0105 22:23:17.830631 10836 net.cpp:380] inception_4c/5x5_reduce <- inception_4b/output_inception_4b/output_0_split_2
I0105 22:23:17.830639 10836 net.cpp:338] inception_4c/5x5_reduce -> inception_4c/5x5_reduce
I0105 22:23:17.830647 10836 net.cpp:113] Setting up inception_4c/5x5_reduce
I0105 22:23:17.831181 10836 net.cpp:120] Top shape: 80 24 14 14 (376320)
I0105 22:23:17.831195 10836 layer_factory.hpp:74] Creating layer inception_4c/relu_5x5_reduce
I0105 22:23:17.831204 10836 net.cpp:84] Creating Layer inception_4c/relu_5x5_reduce
I0105 22:23:17.831210 10836 net.cpp:380] inception_4c/relu_5x5_reduce <- inception_4c/5x5_reduce
I0105 22:23:17.831217 10836 net.cpp:327] inception_4c/relu_5x5_reduce -> inception_4c/5x5_reduce (in-place)
I0105 22:23:17.831223 10836 net.cpp:113] Setting up inception_4c/relu_5x5_reduce
I0105 22:23:17.831457 10836 net.cpp:120] Top shape: 80 24 14 14 (376320)
I0105 22:23:17.831468 10836 layer_factory.hpp:74] Creating layer inception_4c/5x5
I0105 22:23:17.831480 10836 net.cpp:84] Creating Layer inception_4c/5x5
I0105 22:23:17.831485 10836 net.cpp:380] inception_4c/5x5 <- inception_4c/5x5_reduce
I0105 22:23:17.831491 10836 net.cpp:338] inception_4c/5x5 -> inception_4c/5x5
I0105 22:23:17.831500 10836 net.cpp:113] Setting up inception_4c/5x5
I0105 22:23:17.832319 10836 net.cpp:120] Top shape: 80 64 14 14 (1003520)
I0105 22:23:17.832339 10836 layer_factory.hpp:74] Creating layer inception_4c/relu_5x5
I0105 22:23:17.832353 10836 net.cpp:84] Creating Layer inception_4c/relu_5x5
I0105 22:23:17.832360 10836 net.cpp:380] inception_4c/relu_5x5 <- inception_4c/5x5
I0105 22:23:17.832370 10836 net.cpp:327] inception_4c/relu_5x5 -> inception_4c/5x5 (in-place)
I0105 22:23:17.832376 10836 net.cpp:113] Setting up inception_4c/relu_5x5
I0105 22:23:17.832448 10836 net.cpp:120] Top shape: 80 64 14 14 (1003520)
I0105 22:23:17.832453 10836 layer_factory.hpp:74] Creating layer inception_4c/pool
I0105 22:23:17.832458 10836 layer_factory.cpp:56] CUDNN does not support padding or multiple tops. Using Caffe's own pooling layer.
I0105 22:23:17.832466 10836 net.cpp:84] Creating Layer inception_4c/pool
I0105 22:23:17.832470 10836 net.cpp:380] inception_4c/pool <- inception_4b/output_inception_4b/output_0_split_3
I0105 22:23:17.832478 10836 net.cpp:338] inception_4c/pool -> inception_4c/pool
I0105 22:23:17.832485 10836 net.cpp:113] Setting up inception_4c/pool
I0105 22:23:17.832495 10836 net.cpp:120] Top shape: 80 512 14 14 (8028160)
I0105 22:23:17.832499 10836 layer_factory.hpp:74] Creating layer inception_4c/pool_proj
I0105 22:23:17.832509 10836 net.cpp:84] Creating Layer inception_4c/pool_proj
I0105 22:23:17.832512 10836 net.cpp:380] inception_4c/pool_proj <- inception_4c/pool
I0105 22:23:17.832521 10836 net.cpp:338] inception_4c/pool_proj -> inception_4c/pool_proj
I0105 22:23:17.832528 10836 net.cpp:113] Setting up inception_4c/pool_proj
I0105 22:23:17.833292 10836 net.cpp:120] Top shape: 80 64 14 14 (1003520)
I0105 22:23:17.833308 10836 layer_factory.hpp:74] Creating layer inception_4c/relu_pool_proj
I0105 22:23:17.833317 10836 net.cpp:84] Creating Layer inception_4c/relu_pool_proj
I0105 22:23:17.833322 10836 net.cpp:380] inception_4c/relu_pool_proj <- inception_4c/pool_proj
I0105 22:23:17.833328 10836 net.cpp:327] inception_4c/relu_pool_proj -> inception_4c/pool_proj (in-place)
I0105 22:23:17.833335 10836 net.cpp:113] Setting up inception_4c/relu_pool_proj
I0105 22:23:17.833403 10836 net.cpp:120] Top shape: 80 64 14 14 (1003520)
I0105 22:23:17.833411 10836 layer_factory.hpp:74] Creating layer inception_4c/output
I0105 22:23:17.833422 10836 net.cpp:84] Creating Layer inception_4c/output
I0105 22:23:17.833427 10836 net.cpp:380] inception_4c/output <- inception_4c/1x1
I0105 22:23:17.833433 10836 net.cpp:380] inception_4c/output <- inception_4c/3x3
I0105 22:23:17.833438 10836 net.cpp:380] inception_4c/output <- inception_4c/5x5
I0105 22:23:17.833443 10836 net.cpp:380] inception_4c/output <- inception_4c/pool_proj
I0105 22:23:17.833449 10836 net.cpp:338] inception_4c/output -> inception_4c/output
I0105 22:23:17.833456 10836 net.cpp:113] Setting up inception_4c/output
I0105 22:23:17.833463 10836 net.cpp:120] Top shape: 80 512 14 14 (8028160)
I0105 22:23:17.833468 10836 layer_factory.hpp:74] Creating layer inception_4c/output_inception_4c/output_0_split
I0105 22:23:17.833475 10836 net.cpp:84] Creating Layer inception_4c/output_inception_4c/output_0_split
I0105 22:23:17.833479 10836 net.cpp:380] inception_4c/output_inception_4c/output_0_split <- inception_4c/output
I0105 22:23:17.833487 10836 net.cpp:338] inception_4c/output_inception_4c/output_0_split -> inception_4c/output_inception_4c/output_0_split_0
I0105 22:23:17.833494 10836 net.cpp:338] inception_4c/output_inception_4c/output_0_split -> inception_4c/output_inception_4c/output_0_split_1
I0105 22:23:17.833501 10836 net.cpp:338] inception_4c/output_inception_4c/output_0_split -> inception_4c/output_inception_4c/output_0_split_2
I0105 22:23:17.833508 10836 net.cpp:338] inception_4c/output_inception_4c/output_0_split -> inception_4c/output_inception_4c/output_0_split_3
I0105 22:23:17.833513 10836 net.cpp:113] Setting up inception_4c/output_inception_4c/output_0_split
I0105 22:23:17.833520 10836 net.cpp:120] Top shape: 80 512 14 14 (8028160)
I0105 22:23:17.833525 10836 net.cpp:120] Top shape: 80 512 14 14 (8028160)
I0105 22:23:17.833530 10836 net.cpp:120] Top shape: 80 512 14 14 (8028160)
I0105 22:23:17.833540 10836 net.cpp:120] Top shape: 80 512 14 14 (8028160)
I0105 22:23:17.833552 10836 layer_factory.hpp:74] Creating layer inception_4d/1x1
I0105 22:23:17.833567 10836 net.cpp:84] Creating Layer inception_4d/1x1
I0105 22:23:17.833572 10836 net.cpp:380] inception_4d/1x1 <- inception_4c/output_inception_4c/output_0_split_0
I0105 22:23:17.833578 10836 net.cpp:338] inception_4d/1x1 -> inception_4d/1x1
I0105 22:23:17.833586 10836 net.cpp:113] Setting up inception_4d/1x1
I0105 22:23:17.834630 10836 net.cpp:120] Top shape: 80 112 14 14 (1756160)
I0105 22:23:17.834645 10836 layer_factory.hpp:74] Creating layer inception_4d/relu_1x1
I0105 22:23:17.834656 10836 net.cpp:84] Creating Layer inception_4d/relu_1x1
I0105 22:23:17.834661 10836 net.cpp:380] inception_4d/relu_1x1 <- inception_4d/1x1
I0105 22:23:17.834667 10836 net.cpp:327] inception_4d/relu_1x1 -> inception_4d/1x1 (in-place)
I0105 22:23:17.834674 10836 net.cpp:113] Setting up inception_4d/relu_1x1
I0105 22:23:17.834741 10836 net.cpp:120] Top shape: 80 112 14 14 (1756160)
I0105 22:23:17.834748 10836 layer_factory.hpp:74] Creating layer inception_4d/3x3_reduce
I0105 22:23:17.834756 10836 net.cpp:84] Creating Layer inception_4d/3x3_reduce
I0105 22:23:17.834761 10836 net.cpp:380] inception_4d/3x3_reduce <- inception_4c/output_inception_4c/output_0_split_1
I0105 22:23:17.834769 10836 net.cpp:338] inception_4d/3x3_reduce -> inception_4d/3x3_reduce
I0105 22:23:17.834777 10836 net.cpp:113] Setting up inception_4d/3x3_reduce
I0105 22:23:17.839298 10836 net.cpp:120] Top shape: 80 144 14 14 (2257920)
I0105 22:23:17.839350 10836 layer_factory.hpp:74] Creating layer inception_4d/relu_3x3_reduce
I0105 22:23:17.839368 10836 net.cpp:84] Creating Layer inception_4d/relu_3x3_reduce
I0105 22:23:17.839380 10836 net.cpp:380] inception_4d/relu_3x3_reduce <- inception_4d/3x3_reduce
I0105 22:23:17.839395 10836 net.cpp:327] inception_4d/relu_3x3_reduce -> inception_4d/3x3_reduce (in-place)
I0105 22:23:17.839411 10836 net.cpp:113] Setting up inception_4d/relu_3x3_reduce
I0105 22:23:17.839717 10836 net.cpp:120] Top shape: 80 144 14 14 (2257920)
I0105 22:23:17.839732 10836 layer_factory.hpp:74] Creating layer inception_4d/3x3
I0105 22:23:17.839748 10836 net.cpp:84] Creating Layer inception_4d/3x3
I0105 22:23:17.839756 10836 net.cpp:380] inception_4d/3x3 <- inception_4d/3x3_reduce
I0105 22:23:17.839771 10836 net.cpp:338] inception_4d/3x3 -> inception_4d/3x3
I0105 22:23:17.839784 10836 net.cpp:113] Setting up inception_4d/3x3
I0105 22:23:17.846047 10836 net.cpp:120] Top shape: 80 288 14 14 (4515840)
I0105 22:23:17.846076 10836 layer_factory.hpp:74] Creating layer inception_4d/relu_3x3
I0105 22:23:17.846091 10836 net.cpp:84] Creating Layer inception_4d/relu_3x3
I0105 22:23:17.846099 10836 net.cpp:380] inception_4d/relu_3x3 <- inception_4d/3x3
I0105 22:23:17.846115 10836 net.cpp:327] inception_4d/relu_3x3 -> inception_4d/3x3 (in-place)
I0105 22:23:17.846128 10836 net.cpp:113] Setting up inception_4d/relu_3x3
I0105 22:23:17.846223 10836 net.cpp:120] Top shape: 80 288 14 14 (4515840)
I0105 22:23:17.846236 10836 layer_factory.hpp:74] Creating layer inception_4d/5x5_reduce
I0105 22:23:17.846254 10836 net.cpp:84] Creating Layer inception_4d/5x5_reduce
I0105 22:23:17.846263 10836 net.cpp:380] inception_4d/5x5_reduce <- inception_4c/output_inception_4c/output_0_split_2
I0105 22:23:17.846276 10836 net.cpp:338] inception_4d/5x5_reduce -> inception_4d/5x5_reduce
I0105 22:23:17.846290 10836 net.cpp:113] Setting up inception_4d/5x5_reduce
I0105 22:23:17.847012 10836 net.cpp:120] Top shape: 80 32 14 14 (501760)
I0105 22:23:17.847036 10836 layer_factory.hpp:74] Creating layer inception_4d/relu_5x5_reduce
I0105 22:23:17.847048 10836 net.cpp:84] Creating Layer inception_4d/relu_5x5_reduce
I0105 22:23:17.847055 10836 net.cpp:380] inception_4d/relu_5x5_reduce <- inception_4d/5x5_reduce
I0105 22:23:17.847074 10836 net.cpp:327] inception_4d/relu_5x5_reduce -> inception_4d/5x5_reduce (in-place)
I0105 22:23:17.847085 10836 net.cpp:113] Setting up inception_4d/relu_5x5_reduce
I0105 22:23:17.847177 10836 net.cpp:120] Top shape: 80 32 14 14 (501760)
I0105 22:23:17.847218 10836 layer_factory.hpp:74] Creating layer inception_4d/5x5
I0105 22:23:17.847232 10836 net.cpp:84] Creating Layer inception_4d/5x5
I0105 22:23:17.847240 10836 net.cpp:380] inception_4d/5x5 <- inception_4d/5x5_reduce
I0105 22:23:17.847254 10836 net.cpp:338] inception_4d/5x5 -> inception_4d/5x5
I0105 22:23:17.847265 10836 net.cpp:113] Setting up inception_4d/5x5
I0105 22:23:17.848397 10836 net.cpp:120] Top shape: 80 64 14 14 (1003520)
I0105 22:23:17.848419 10836 layer_factory.hpp:74] Creating layer inception_4d/relu_5x5
I0105 22:23:17.848430 10836 net.cpp:84] Creating Layer inception_4d/relu_5x5
I0105 22:23:17.848438 10836 net.cpp:380] inception_4d/relu_5x5 <- inception_4d/5x5
I0105 22:23:17.848451 10836 net.cpp:327] inception_4d/relu_5x5 -> inception_4d/5x5 (in-place)
I0105 22:23:17.848462 10836 net.cpp:113] Setting up inception_4d/relu_5x5
I0105 22:23:17.848551 10836 net.cpp:120] Top shape: 80 64 14 14 (1003520)
I0105 22:23:17.848562 10836 layer_factory.hpp:74] Creating layer inception_4d/pool
I0105 22:23:17.848570 10836 layer_factory.cpp:56] CUDNN does not support padding or multiple tops. Using Caffe's own pooling layer.
I0105 22:23:17.848582 10836 net.cpp:84] Creating Layer inception_4d/pool
I0105 22:23:17.848590 10836 net.cpp:380] inception_4d/pool <- inception_4c/output_inception_4c/output_0_split_3
I0105 22:23:17.848600 10836 net.cpp:338] inception_4d/pool -> inception_4d/pool
I0105 22:23:17.848611 10836 net.cpp:113] Setting up inception_4d/pool
I0105 22:23:17.848625 10836 net.cpp:120] Top shape: 80 512 14 14 (8028160)
I0105 22:23:17.848633 10836 layer_factory.hpp:74] Creating layer inception_4d/pool_proj
I0105 22:23:17.848646 10836 net.cpp:84] Creating Layer inception_4d/pool_proj
I0105 22:23:17.848654 10836 net.cpp:380] inception_4d/pool_proj <- inception_4d/pool
I0105 22:23:17.848664 10836 net.cpp:338] inception_4d/pool_proj -> inception_4d/pool_proj
I0105 22:23:17.848675 10836 net.cpp:113] Setting up inception_4d/pool_proj
I0105 22:23:17.849623 10836 net.cpp:120] Top shape: 80 64 14 14 (1003520)
I0105 22:23:17.849647 10836 layer_factory.hpp:74] Creating layer inception_4d/relu_pool_proj
I0105 22:23:17.849659 10836 net.cpp:84] Creating Layer inception_4d/relu_pool_proj
I0105 22:23:17.849668 10836 net.cpp:380] inception_4d/relu_pool_proj <- inception_4d/pool_proj
I0105 22:23:17.849678 10836 net.cpp:327] inception_4d/relu_pool_proj -> inception_4d/pool_proj (in-place)
I0105 22:23:17.849689 10836 net.cpp:113] Setting up inception_4d/relu_pool_proj
I0105 22:23:17.849979 10836 net.cpp:120] Top shape: 80 64 14 14 (1003520)
I0105 22:23:17.849993 10836 layer_factory.hpp:74] Creating layer inception_4d/output
I0105 22:23:17.850005 10836 net.cpp:84] Creating Layer inception_4d/output
I0105 22:23:17.850013 10836 net.cpp:380] inception_4d/output <- inception_4d/1x1
I0105 22:23:17.850023 10836 net.cpp:380] inception_4d/output <- inception_4d/3x3
I0105 22:23:17.850031 10836 net.cpp:380] inception_4d/output <- inception_4d/5x5
I0105 22:23:17.850039 10836 net.cpp:380] inception_4d/output <- inception_4d/pool_proj
I0105 22:23:17.850049 10836 net.cpp:338] inception_4d/output -> inception_4d/output
I0105 22:23:17.850060 10836 net.cpp:113] Setting up inception_4d/output
I0105 22:23:17.850072 10836 net.cpp:120] Top shape: 80 528 14 14 (8279040)
I0105 22:23:17.850080 10836 layer_factory.hpp:74] Creating layer inception_4d/output_inception_4d/output_0_split
I0105 22:23:17.850093 10836 net.cpp:84] Creating Layer inception_4d/output_inception_4d/output_0_split
I0105 22:23:17.850100 10836 net.cpp:380] inception_4d/output_inception_4d/output_0_split <- inception_4d/output
I0105 22:23:17.850111 10836 net.cpp:338] inception_4d/output_inception_4d/output_0_split -> inception_4d/output_inception_4d/output_0_split_0
I0105 22:23:17.850122 10836 net.cpp:338] inception_4d/output_inception_4d/output_0_split -> inception_4d/output_inception_4d/output_0_split_1
I0105 22:23:17.850136 10836 net.cpp:338] inception_4d/output_inception_4d/output_0_split -> inception_4d/output_inception_4d/output_0_split_2
I0105 22:23:17.850159 10836 net.cpp:338] inception_4d/output_inception_4d/output_0_split -> inception_4d/output_inception_4d/output_0_split_3
I0105 22:23:17.850185 10836 net.cpp:338] inception_4d/output_inception_4d/output_0_split -> inception_4d/output_inception_4d/output_0_split_4
I0105 22:23:17.850198 10836 net.cpp:113] Setting up inception_4d/output_inception_4d/output_0_split
I0105 22:23:17.850209 10836 net.cpp:120] Top shape: 80 528 14 14 (8279040)
I0105 22:23:17.850217 10836 net.cpp:120] Top shape: 80 528 14 14 (8279040)
I0105 22:23:17.850225 10836 net.cpp:120] Top shape: 80 528 14 14 (8279040)
I0105 22:23:17.850234 10836 net.cpp:120] Top shape: 80 528 14 14 (8279040)
I0105 22:23:17.850242 10836 net.cpp:120] Top shape: 80 528 14 14 (8279040)
I0105 22:23:17.850250 10836 layer_factory.hpp:74] Creating layer loss2/ave_pool
I0105 22:23:17.850260 10836 net.cpp:84] Creating Layer loss2/ave_pool
I0105 22:23:17.850266 10836 net.cpp:380] loss2/ave_pool <- inception_4d/output_inception_4d/output_0_split_0
I0105 22:23:17.850283 10836 net.cpp:338] loss2/ave_pool -> loss2/ave_pool
I0105 22:23:17.850296 10836 net.cpp:113] Setting up loss2/ave_pool
I0105 22:23:17.850394 10836 net.cpp:120] Top shape: 80 528 4 4 (675840)
I0105 22:23:17.850404 10836 layer_factory.hpp:74] Creating layer loss2/conv
I0105 22:23:17.850416 10836 net.cpp:84] Creating Layer loss2/conv
I0105 22:23:17.850425 10836 net.cpp:380] loss2/conv <- loss2/ave_pool
I0105 22:23:17.850436 10836 net.cpp:338] loss2/conv -> loss2/conv
I0105 22:23:17.850448 10836 net.cpp:113] Setting up loss2/conv
I0105 22:23:17.851838 10836 net.cpp:120] Top shape: 80 128 4 4 (163840)
I0105 22:23:17.851866 10836 layer_factory.hpp:74] Creating layer loss2/relu_conv
I0105 22:23:17.851878 10836 net.cpp:84] Creating Layer loss2/relu_conv
I0105 22:23:17.851887 10836 net.cpp:380] loss2/relu_conv <- loss2/conv
I0105 22:23:17.851897 10836 net.cpp:327] loss2/relu_conv -> loss2/conv (in-place)
I0105 22:23:17.851907 10836 net.cpp:113] Setting up loss2/relu_conv
I0105 22:23:17.852000 10836 net.cpp:120] Top shape: 80 128 4 4 (163840)
I0105 22:23:17.852010 10836 layer_factory.hpp:74] Creating layer loss2/fc
I0105 22:23:17.852021 10836 net.cpp:84] Creating Layer loss2/fc
I0105 22:23:17.852030 10836 net.cpp:380] loss2/fc <- loss2/conv
I0105 22:23:17.852042 10836 net.cpp:338] loss2/fc -> loss2/fc
I0105 22:23:17.852056 10836 net.cpp:113] Setting up loss2/fc
I0105 22:23:17.941797 10836 net.cpp:120] Top shape: 80 1024 (81920)
I0105 22:23:17.941835 10836 layer_factory.hpp:74] Creating layer loss2/relu_fc
I0105 22:23:17.941850 10836 net.cpp:84] Creating Layer loss2/relu_fc
I0105 22:23:17.941860 10836 net.cpp:380] loss2/relu_fc <- loss2/fc
I0105 22:23:17.941869 10836 net.cpp:327] loss2/relu_fc -> loss2/fc (in-place)
I0105 22:23:17.941880 10836 net.cpp:113] Setting up loss2/relu_fc
I0105 22:23:17.942320 10836 net.cpp:120] Top shape: 80 1024 (81920)
I0105 22:23:17.942334 10836 layer_factory.hpp:74] Creating layer loss2/drop_fc
I0105 22:23:17.942343 10836 net.cpp:84] Creating Layer loss2/drop_fc
I0105 22:23:17.942348 10836 net.cpp:380] loss2/drop_fc <- loss2/fc
I0105 22:23:17.942355 10836 net.cpp:327] loss2/drop_fc -> loss2/fc (in-place)
I0105 22:23:17.942363 10836 net.cpp:113] Setting up loss2/drop_fc
I0105 22:23:17.942371 10836 net.cpp:120] Top shape: 80 1024 (81920)
I0105 22:23:17.942376 10836 layer_factory.hpp:74] Creating layer loss2/classifier_kaggle
I0105 22:23:17.942386 10836 net.cpp:84] Creating Layer loss2/classifier_kaggle
I0105 22:23:17.942390 10836 net.cpp:380] loss2/classifier_kaggle <- loss2/fc
I0105 22:23:17.942401 10836 net.cpp:338] loss2/classifier_kaggle -> loss2/classifier_kaggle
I0105 22:23:17.942411 10836 net.cpp:113] Setting up loss2/classifier_kaggle
I0105 22:23:17.947449 10836 net.cpp:120] Top shape: 80 447 (35760)
I0105 22:23:17.947463 10836 layer_factory.hpp:74] Creating layer loss2/loss
I0105 22:23:17.947474 10836 net.cpp:84] Creating Layer loss2/loss
I0105 22:23:17.947479 10836 net.cpp:380] loss2/loss <- loss2/classifier_kaggle
I0105 22:23:17.947486 10836 net.cpp:380] loss2/loss <- label_data_1_split_1
I0105 22:23:17.947502 10836 net.cpp:338] loss2/loss -> loss2/loss1
I0105 22:23:17.947522 10836 net.cpp:113] Setting up loss2/loss
I0105 22:23:17.947530 10836 layer_factory.hpp:74] Creating layer loss2/loss
I0105 22:23:17.947705 10836 net.cpp:120] Top shape: (1)
I0105 22:23:17.947712 10836 net.cpp:122]     with loss weight 0.3
I0105 22:23:17.947726 10836 layer_factory.hpp:74] Creating layer inception_4e/1x1
I0105 22:23:17.947738 10836 net.cpp:84] Creating Layer inception_4e/1x1
I0105 22:23:17.947746 10836 net.cpp:380] inception_4e/1x1 <- inception_4d/output_inception_4d/output_0_split_1
I0105 22:23:17.947754 10836 net.cpp:338] inception_4e/1x1 -> inception_4e/1x1
I0105 22:23:17.947763 10836 net.cpp:113] Setting up inception_4e/1x1
I0105 22:23:17.949690 10836 net.cpp:120] Top shape: 80 256 14 14 (4014080)
I0105 22:23:17.949707 10836 layer_factory.hpp:74] Creating layer inception_4e/relu_1x1
I0105 22:23:17.949717 10836 net.cpp:84] Creating Layer inception_4e/relu_1x1
I0105 22:23:17.949723 10836 net.cpp:380] inception_4e/relu_1x1 <- inception_4e/1x1
I0105 22:23:17.949729 10836 net.cpp:327] inception_4e/relu_1x1 -> inception_4e/1x1 (in-place)
I0105 22:23:17.949736 10836 net.cpp:113] Setting up inception_4e/relu_1x1
I0105 22:23:17.949805 10836 net.cpp:120] Top shape: 80 256 14 14 (4014080)
I0105 22:23:17.949810 10836 layer_factory.hpp:74] Creating layer inception_4e/3x3_reduce
I0105 22:23:17.949820 10836 net.cpp:84] Creating Layer inception_4e/3x3_reduce
I0105 22:23:17.949826 10836 net.cpp:380] inception_4e/3x3_reduce <- inception_4d/output_inception_4d/output_0_split_2
I0105 22:23:17.949834 10836 net.cpp:338] inception_4e/3x3_reduce -> inception_4e/3x3_reduce
I0105 22:23:17.949842 10836 net.cpp:113] Setting up inception_4e/3x3_reduce
I0105 22:23:17.951177 10836 net.cpp:120] Top shape: 80 160 14 14 (2508800)
I0105 22:23:17.951194 10836 layer_factory.hpp:74] Creating layer inception_4e/relu_3x3_reduce
I0105 22:23:17.951201 10836 net.cpp:84] Creating Layer inception_4e/relu_3x3_reduce
I0105 22:23:17.951206 10836 net.cpp:380] inception_4e/relu_3x3_reduce <- inception_4e/3x3_reduce
I0105 22:23:17.951213 10836 net.cpp:327] inception_4e/relu_3x3_reduce -> inception_4e/3x3_reduce (in-place)
I0105 22:23:17.951220 10836 net.cpp:113] Setting up inception_4e/relu_3x3_reduce
I0105 22:23:17.951289 10836 net.cpp:120] Top shape: 80 160 14 14 (2508800)
I0105 22:23:17.951297 10836 layer_factory.hpp:74] Creating layer inception_4e/3x3
I0105 22:23:17.951308 10836 net.cpp:84] Creating Layer inception_4e/3x3
I0105 22:23:17.951313 10836 net.cpp:380] inception_4e/3x3 <- inception_4e/3x3_reduce
I0105 22:23:17.951318 10836 net.cpp:338] inception_4e/3x3 -> inception_4e/3x3
I0105 22:23:17.951326 10836 net.cpp:113] Setting up inception_4e/3x3
I0105 22:23:17.956794 10836 net.cpp:120] Top shape: 80 320 14 14 (5017600)
I0105 22:23:17.956809 10836 layer_factory.hpp:74] Creating layer inception_4e/relu_3x3
I0105 22:23:17.956817 10836 net.cpp:84] Creating Layer inception_4e/relu_3x3
I0105 22:23:17.956822 10836 net.cpp:380] inception_4e/relu_3x3 <- inception_4e/3x3
I0105 22:23:17.956830 10836 net.cpp:327] inception_4e/relu_3x3 -> inception_4e/3x3 (in-place)
I0105 22:23:17.956836 10836 net.cpp:113] Setting up inception_4e/relu_3x3
I0105 22:23:17.957080 10836 net.cpp:120] Top shape: 80 320 14 14 (5017600)
I0105 22:23:17.957093 10836 layer_factory.hpp:74] Creating layer inception_4e/5x5_reduce
I0105 22:23:17.957103 10836 net.cpp:84] Creating Layer inception_4e/5x5_reduce
I0105 22:23:17.957109 10836 net.cpp:380] inception_4e/5x5_reduce <- inception_4d/output_inception_4d/output_0_split_3
I0105 22:23:17.957123 10836 net.cpp:338] inception_4e/5x5_reduce -> inception_4e/5x5_reduce
I0105 22:23:17.957131 10836 net.cpp:113] Setting up inception_4e/5x5_reduce
I0105 22:23:17.957710 10836 net.cpp:120] Top shape: 80 32 14 14 (501760)
I0105 22:23:17.957726 10836 layer_factory.hpp:74] Creating layer inception_4e/relu_5x5_reduce
I0105 22:23:17.957734 10836 net.cpp:84] Creating Layer inception_4e/relu_5x5_reduce
I0105 22:23:17.957739 10836 net.cpp:380] inception_4e/relu_5x5_reduce <- inception_4e/5x5_reduce
I0105 22:23:17.957759 10836 net.cpp:327] inception_4e/relu_5x5_reduce -> inception_4e/5x5_reduce (in-place)
I0105 22:23:17.957767 10836 net.cpp:113] Setting up inception_4e/relu_5x5_reduce
I0105 22:23:17.957844 10836 net.cpp:120] Top shape: 80 32 14 14 (501760)
I0105 22:23:17.957851 10836 layer_factory.hpp:74] Creating layer inception_4e/5x5
I0105 22:23:17.957883 10836 net.cpp:84] Creating Layer inception_4e/5x5
I0105 22:23:17.957888 10836 net.cpp:380] inception_4e/5x5 <- inception_4e/5x5_reduce
I0105 22:23:17.957898 10836 net.cpp:338] inception_4e/5x5 -> inception_4e/5x5
I0105 22:23:17.957906 10836 net.cpp:113] Setting up inception_4e/5x5
I0105 22:23:17.959450 10836 net.cpp:120] Top shape: 80 128 14 14 (2007040)
I0105 22:23:17.959465 10836 layer_factory.hpp:74] Creating layer inception_4e/relu_5x5
I0105 22:23:17.959472 10836 net.cpp:84] Creating Layer inception_4e/relu_5x5
I0105 22:23:17.959477 10836 net.cpp:380] inception_4e/relu_5x5 <- inception_4e/5x5
I0105 22:23:17.959486 10836 net.cpp:327] inception_4e/relu_5x5 -> inception_4e/5x5 (in-place)
I0105 22:23:17.959493 10836 net.cpp:113] Setting up inception_4e/relu_5x5
I0105 22:23:17.959560 10836 net.cpp:120] Top shape: 80 128 14 14 (2007040)
I0105 22:23:17.959566 10836 layer_factory.hpp:74] Creating layer inception_4e/pool
I0105 22:23:17.959573 10836 layer_factory.cpp:56] CUDNN does not support padding or multiple tops. Using Caffe's own pooling layer.
I0105 22:23:17.959580 10836 net.cpp:84] Creating Layer inception_4e/pool
I0105 22:23:17.959586 10836 net.cpp:380] inception_4e/pool <- inception_4d/output_inception_4d/output_0_split_4
I0105 22:23:17.959592 10836 net.cpp:338] inception_4e/pool -> inception_4e/pool
I0105 22:23:17.959599 10836 net.cpp:113] Setting up inception_4e/pool
I0105 22:23:17.959610 10836 net.cpp:120] Top shape: 80 528 14 14 (8279040)
I0105 22:23:17.959614 10836 layer_factory.hpp:74] Creating layer inception_4e/pool_proj
I0105 22:23:17.959624 10836 net.cpp:84] Creating Layer inception_4e/pool_proj
I0105 22:23:17.959627 10836 net.cpp:380] inception_4e/pool_proj <- inception_4e/pool
I0105 22:23:17.959635 10836 net.cpp:338] inception_4e/pool_proj -> inception_4e/pool_proj
I0105 22:23:17.959641 10836 net.cpp:113] Setting up inception_4e/pool_proj
I0105 22:23:17.960790 10836 net.cpp:120] Top shape: 80 128 14 14 (2007040)
I0105 22:23:17.960804 10836 layer_factory.hpp:74] Creating layer inception_4e/relu_pool_proj
I0105 22:23:17.960813 10836 net.cpp:84] Creating Layer inception_4e/relu_pool_proj
I0105 22:23:17.960819 10836 net.cpp:380] inception_4e/relu_pool_proj <- inception_4e/pool_proj
I0105 22:23:17.960824 10836 net.cpp:327] inception_4e/relu_pool_proj -> inception_4e/pool_proj (in-place)
I0105 22:23:17.960831 10836 net.cpp:113] Setting up inception_4e/relu_pool_proj
I0105 22:23:17.960896 10836 net.cpp:120] Top shape: 80 128 14 14 (2007040)
I0105 22:23:17.960909 10836 layer_factory.hpp:74] Creating layer inception_4e/output
I0105 22:23:17.960917 10836 net.cpp:84] Creating Layer inception_4e/output
I0105 22:23:17.960922 10836 net.cpp:380] inception_4e/output <- inception_4e/1x1
I0105 22:23:17.960927 10836 net.cpp:380] inception_4e/output <- inception_4e/3x3
I0105 22:23:17.960932 10836 net.cpp:380] inception_4e/output <- inception_4e/5x5
I0105 22:23:17.960937 10836 net.cpp:380] inception_4e/output <- inception_4e/pool_proj
I0105 22:23:17.960943 10836 net.cpp:338] inception_4e/output -> inception_4e/output
I0105 22:23:17.960950 10836 net.cpp:113] Setting up inception_4e/output
I0105 22:23:17.960958 10836 net.cpp:120] Top shape: 80 832 14 14 (13045760)
I0105 22:23:17.960963 10836 layer_factory.hpp:74] Creating layer pool4/3x3_s2
I0105 22:23:17.960969 10836 net.cpp:84] Creating Layer pool4/3x3_s2
I0105 22:23:17.960974 10836 net.cpp:380] pool4/3x3_s2 <- inception_4e/output
I0105 22:23:17.960983 10836 net.cpp:338] pool4/3x3_s2 -> pool4/3x3_s2
I0105 22:23:17.960989 10836 net.cpp:113] Setting up pool4/3x3_s2
I0105 22:23:17.961241 10836 net.cpp:120] Top shape: 80 832 7 7 (3261440)
I0105 22:23:17.961257 10836 layer_factory.hpp:74] Creating layer pool4/3x3_s2_pool4/3x3_s2_0_split
I0105 22:23:17.961277 10836 net.cpp:84] Creating Layer pool4/3x3_s2_pool4/3x3_s2_0_split
I0105 22:23:17.961282 10836 net.cpp:380] pool4/3x3_s2_pool4/3x3_s2_0_split <- pool4/3x3_s2
I0105 22:23:17.961289 10836 net.cpp:338] pool4/3x3_s2_pool4/3x3_s2_0_split -> pool4/3x3_s2_pool4/3x3_s2_0_split_0
I0105 22:23:17.961299 10836 net.cpp:338] pool4/3x3_s2_pool4/3x3_s2_0_split -> pool4/3x3_s2_pool4/3x3_s2_0_split_1
I0105 22:23:17.961307 10836 net.cpp:338] pool4/3x3_s2_pool4/3x3_s2_0_split -> pool4/3x3_s2_pool4/3x3_s2_0_split_2
I0105 22:23:17.961313 10836 net.cpp:338] pool4/3x3_s2_pool4/3x3_s2_0_split -> pool4/3x3_s2_pool4/3x3_s2_0_split_3
I0105 22:23:17.961318 10836 net.cpp:113] Setting up pool4/3x3_s2_pool4/3x3_s2_0_split
I0105 22:23:17.961325 10836 net.cpp:120] Top shape: 80 832 7 7 (3261440)
I0105 22:23:17.961331 10836 net.cpp:120] Top shape: 80 832 7 7 (3261440)
I0105 22:23:17.961339 10836 net.cpp:120] Top shape: 80 832 7 7 (3261440)
I0105 22:23:17.961344 10836 net.cpp:120] Top shape: 80 832 7 7 (3261440)
I0105 22:23:17.961349 10836 layer_factory.hpp:74] Creating layer inception_5a/1x1
I0105 22:23:17.961357 10836 net.cpp:84] Creating Layer inception_5a/1x1
I0105 22:23:17.961362 10836 net.cpp:380] inception_5a/1x1 <- pool4/3x3_s2_pool4/3x3_s2_0_split_0
I0105 22:23:17.961370 10836 net.cpp:338] inception_5a/1x1 -> inception_5a/1x1
I0105 22:23:17.961379 10836 net.cpp:113] Setting up inception_5a/1x1
I0105 22:23:17.964304 10836 net.cpp:120] Top shape: 80 256 7 7 (1003520)
I0105 22:23:17.964323 10836 layer_factory.hpp:74] Creating layer inception_5a/relu_1x1
I0105 22:23:17.964330 10836 net.cpp:84] Creating Layer inception_5a/relu_1x1
I0105 22:23:17.964336 10836 net.cpp:380] inception_5a/relu_1x1 <- inception_5a/1x1
I0105 22:23:17.964344 10836 net.cpp:327] inception_5a/relu_1x1 -> inception_5a/1x1 (in-place)
I0105 22:23:17.964352 10836 net.cpp:113] Setting up inception_5a/relu_1x1
I0105 22:23:17.964422 10836 net.cpp:120] Top shape: 80 256 7 7 (1003520)
I0105 22:23:17.964428 10836 layer_factory.hpp:74] Creating layer inception_5a/3x3_reduce
I0105 22:23:17.964438 10836 net.cpp:84] Creating Layer inception_5a/3x3_reduce
I0105 22:23:17.964443 10836 net.cpp:380] inception_5a/3x3_reduce <- pool4/3x3_s2_pool4/3x3_s2_0_split_1
I0105 22:23:17.964452 10836 net.cpp:338] inception_5a/3x3_reduce -> inception_5a/3x3_reduce
I0105 22:23:17.964459 10836 net.cpp:113] Setting up inception_5a/3x3_reduce
I0105 22:23:17.966337 10836 net.cpp:120] Top shape: 80 160 7 7 (627200)
I0105 22:23:17.966353 10836 layer_factory.hpp:74] Creating layer inception_5a/relu_3x3_reduce
I0105 22:23:17.966361 10836 net.cpp:84] Creating Layer inception_5a/relu_3x3_reduce
I0105 22:23:17.966367 10836 net.cpp:380] inception_5a/relu_3x3_reduce <- inception_5a/3x3_reduce
I0105 22:23:17.966373 10836 net.cpp:327] inception_5a/relu_3x3_reduce -> inception_5a/3x3_reduce (in-place)
I0105 22:23:17.966380 10836 net.cpp:113] Setting up inception_5a/relu_3x3_reduce
I0105 22:23:17.966449 10836 net.cpp:120] Top shape: 80 160 7 7 (627200)
I0105 22:23:17.966455 10836 layer_factory.hpp:74] Creating layer inception_5a/3x3
I0105 22:23:17.966466 10836 net.cpp:84] Creating Layer inception_5a/3x3
I0105 22:23:17.966470 10836 net.cpp:380] inception_5a/3x3 <- inception_5a/3x3_reduce
I0105 22:23:17.966476 10836 net.cpp:338] inception_5a/3x3 -> inception_5a/3x3
I0105 22:23:17.966485 10836 net.cpp:113] Setting up inception_5a/3x3
I0105 22:23:17.971951 10836 net.cpp:120] Top shape: 80 320 7 7 (1254400)
I0105 22:23:17.971968 10836 layer_factory.hpp:74] Creating layer inception_5a/relu_3x3
I0105 22:23:17.971976 10836 net.cpp:84] Creating Layer inception_5a/relu_3x3
I0105 22:23:17.971982 10836 net.cpp:380] inception_5a/relu_3x3 <- inception_5a/3x3
I0105 22:23:17.971990 10836 net.cpp:327] inception_5a/relu_3x3 -> inception_5a/3x3 (in-place)
I0105 22:23:17.971997 10836 net.cpp:113] Setting up inception_5a/relu_3x3
I0105 22:23:17.972066 10836 net.cpp:120] Top shape: 80 320 7 7 (1254400)
I0105 22:23:17.972074 10836 layer_factory.hpp:74] Creating layer inception_5a/5x5_reduce
I0105 22:23:17.972095 10836 net.cpp:84] Creating Layer inception_5a/5x5_reduce
I0105 22:23:17.972100 10836 net.cpp:380] inception_5a/5x5_reduce <- pool4/3x3_s2_pool4/3x3_s2_0_split_2
I0105 22:23:17.972110 10836 net.cpp:338] inception_5a/5x5_reduce -> inception_5a/5x5_reduce
I0105 22:23:17.972118 10836 net.cpp:113] Setting up inception_5a/5x5_reduce
I0105 22:23:17.972820 10836 net.cpp:120] Top shape: 80 32 7 7 (125440)
I0105 22:23:17.972834 10836 layer_factory.hpp:74] Creating layer inception_5a/relu_5x5_reduce
I0105 22:23:17.972842 10836 net.cpp:84] Creating Layer inception_5a/relu_5x5_reduce
I0105 22:23:17.972847 10836 net.cpp:380] inception_5a/relu_5x5_reduce <- inception_5a/5x5_reduce
I0105 22:23:17.972856 10836 net.cpp:327] inception_5a/relu_5x5_reduce -> inception_5a/5x5_reduce (in-place)
I0105 22:23:17.972863 10836 net.cpp:113] Setting up inception_5a/relu_5x5_reduce
I0105 22:23:17.973109 10836 net.cpp:120] Top shape: 80 32 7 7 (125440)
I0105 22:23:17.973121 10836 layer_factory.hpp:74] Creating layer inception_5a/5x5
I0105 22:23:17.973130 10836 net.cpp:84] Creating Layer inception_5a/5x5
I0105 22:23:17.973135 10836 net.cpp:380] inception_5a/5x5 <- inception_5a/5x5_reduce
I0105 22:23:17.973146 10836 net.cpp:338] inception_5a/5x5 -> inception_5a/5x5
I0105 22:23:17.973155 10836 net.cpp:113] Setting up inception_5a/5x5
I0105 22:23:17.974714 10836 net.cpp:120] Top shape: 80 128 7 7 (501760)
I0105 22:23:17.974728 10836 layer_factory.hpp:74] Creating layer inception_5a/relu_5x5
I0105 22:23:17.974736 10836 net.cpp:84] Creating Layer inception_5a/relu_5x5
I0105 22:23:17.974741 10836 net.cpp:380] inception_5a/relu_5x5 <- inception_5a/5x5
I0105 22:23:17.974748 10836 net.cpp:327] inception_5a/relu_5x5 -> inception_5a/5x5 (in-place)
I0105 22:23:17.974756 10836 net.cpp:113] Setting up inception_5a/relu_5x5
I0105 22:23:17.974838 10836 net.cpp:120] Top shape: 80 128 7 7 (501760)
I0105 22:23:17.974846 10836 layer_factory.hpp:74] Creating layer inception_5a/pool
I0105 22:23:17.974853 10836 layer_factory.cpp:56] CUDNN does not support padding or multiple tops. Using Caffe's own pooling layer.
I0105 22:23:17.974858 10836 net.cpp:84] Creating Layer inception_5a/pool
I0105 22:23:17.974864 10836 net.cpp:380] inception_5a/pool <- pool4/3x3_s2_pool4/3x3_s2_0_split_3
I0105 22:23:17.974872 10836 net.cpp:338] inception_5a/pool -> inception_5a/pool
I0105 22:23:17.974880 10836 net.cpp:113] Setting up inception_5a/pool
I0105 22:23:17.974889 10836 net.cpp:120] Top shape: 80 832 7 7 (3261440)
I0105 22:23:17.974892 10836 layer_factory.hpp:74] Creating layer inception_5a/pool_proj
I0105 22:23:17.974901 10836 net.cpp:84] Creating Layer inception_5a/pool_proj
I0105 22:23:17.974905 10836 net.cpp:380] inception_5a/pool_proj <- inception_5a/pool
I0105 22:23:17.974916 10836 net.cpp:338] inception_5a/pool_proj -> inception_5a/pool_proj
I0105 22:23:17.974925 10836 net.cpp:113] Setting up inception_5a/pool_proj
I0105 22:23:17.976512 10836 net.cpp:120] Top shape: 80 128 7 7 (501760)
I0105 22:23:17.976527 10836 layer_factory.hpp:74] Creating layer inception_5a/relu_pool_proj
I0105 22:23:17.976536 10836 net.cpp:84] Creating Layer inception_5a/relu_pool_proj
I0105 22:23:17.976541 10836 net.cpp:380] inception_5a/relu_pool_proj <- inception_5a/pool_proj
I0105 22:23:17.976547 10836 net.cpp:327] inception_5a/relu_pool_proj -> inception_5a/pool_proj (in-place)
I0105 22:23:17.976554 10836 net.cpp:113] Setting up inception_5a/relu_pool_proj
I0105 22:23:17.976622 10836 net.cpp:120] Top shape: 80 128 7 7 (501760)
I0105 22:23:17.976629 10836 layer_factory.hpp:74] Creating layer inception_5a/output
I0105 22:23:17.976635 10836 net.cpp:84] Creating Layer inception_5a/output
I0105 22:23:17.976640 10836 net.cpp:380] inception_5a/output <- inception_5a/1x1
I0105 22:23:17.976646 10836 net.cpp:380] inception_5a/output <- inception_5a/3x3
I0105 22:23:17.976651 10836 net.cpp:380] inception_5a/output <- inception_5a/5x5
I0105 22:23:17.976656 10836 net.cpp:380] inception_5a/output <- inception_5a/pool_proj
I0105 22:23:17.976662 10836 net.cpp:338] inception_5a/output -> inception_5a/output
I0105 22:23:17.976682 10836 net.cpp:113] Setting up inception_5a/output
I0105 22:23:17.976691 10836 net.cpp:120] Top shape: 80 832 7 7 (3261440)
I0105 22:23:17.976696 10836 layer_factory.hpp:74] Creating layer inception_5a/output_inception_5a/output_0_split
I0105 22:23:17.976702 10836 net.cpp:84] Creating Layer inception_5a/output_inception_5a/output_0_split
I0105 22:23:17.976707 10836 net.cpp:380] inception_5a/output_inception_5a/output_0_split <- inception_5a/output
I0105 22:23:17.976716 10836 net.cpp:338] inception_5a/output_inception_5a/output_0_split -> inception_5a/output_inception_5a/output_0_split_0
I0105 22:23:17.976722 10836 net.cpp:338] inception_5a/output_inception_5a/output_0_split -> inception_5a/output_inception_5a/output_0_split_1
I0105 22:23:17.976729 10836 net.cpp:338] inception_5a/output_inception_5a/output_0_split -> inception_5a/output_inception_5a/output_0_split_2
I0105 22:23:17.976737 10836 net.cpp:338] inception_5a/output_inception_5a/output_0_split -> inception_5a/output_inception_5a/output_0_split_3
I0105 22:23:17.976743 10836 net.cpp:113] Setting up inception_5a/output_inception_5a/output_0_split
I0105 22:23:17.976750 10836 net.cpp:120] Top shape: 80 832 7 7 (3261440)
I0105 22:23:17.976755 10836 net.cpp:120] Top shape: 80 832 7 7 (3261440)
I0105 22:23:17.976760 10836 net.cpp:120] Top shape: 80 832 7 7 (3261440)
I0105 22:23:17.976765 10836 net.cpp:120] Top shape: 80 832 7 7 (3261440)
I0105 22:23:17.976769 10836 layer_factory.hpp:74] Creating layer inception_5b/1x1
I0105 22:23:17.976778 10836 net.cpp:84] Creating Layer inception_5b/1x1
I0105 22:23:17.976783 10836 net.cpp:380] inception_5b/1x1 <- inception_5a/output_inception_5a/output_0_split_0
I0105 22:23:17.976790 10836 net.cpp:338] inception_5b/1x1 -> inception_5b/1x1
I0105 22:23:17.976799 10836 net.cpp:113] Setting up inception_5b/1x1
I0105 22:23:17.980713 10836 net.cpp:120] Top shape: 80 384 7 7 (1505280)
I0105 22:23:17.980729 10836 layer_factory.hpp:74] Creating layer inception_5b/relu_1x1
I0105 22:23:17.980737 10836 net.cpp:84] Creating Layer inception_5b/relu_1x1
I0105 22:23:17.980742 10836 net.cpp:380] inception_5b/relu_1x1 <- inception_5b/1x1
I0105 22:23:17.980749 10836 net.cpp:327] inception_5b/relu_1x1 -> inception_5b/1x1 (in-place)
I0105 22:23:17.980756 10836 net.cpp:113] Setting up inception_5b/relu_1x1
I0105 22:23:17.980993 10836 net.cpp:120] Top shape: 80 384 7 7 (1505280)
I0105 22:23:17.981005 10836 layer_factory.hpp:74] Creating layer inception_5b/3x3_reduce
I0105 22:23:17.981024 10836 net.cpp:84] Creating Layer inception_5b/3x3_reduce
I0105 22:23:17.981031 10836 net.cpp:380] inception_5b/3x3_reduce <- inception_5a/output_inception_5a/output_0_split_1
I0105 22:23:17.981040 10836 net.cpp:338] inception_5b/3x3_reduce -> inception_5b/3x3_reduce
I0105 22:23:17.981050 10836 net.cpp:113] Setting up inception_5b/3x3_reduce
I0105 22:23:17.983249 10836 net.cpp:120] Top shape: 80 192 7 7 (752640)
I0105 22:23:17.983278 10836 layer_factory.hpp:74] Creating layer inception_5b/relu_3x3_reduce
I0105 22:23:17.983290 10836 net.cpp:84] Creating Layer inception_5b/relu_3x3_reduce
I0105 22:23:17.983297 10836 net.cpp:380] inception_5b/relu_3x3_reduce <- inception_5b/3x3_reduce
I0105 22:23:17.983304 10836 net.cpp:327] inception_5b/relu_3x3_reduce -> inception_5b/3x3_reduce (in-place)
I0105 22:23:17.983312 10836 net.cpp:113] Setting up inception_5b/relu_3x3_reduce
I0105 22:23:17.983383 10836 net.cpp:120] Top shape: 80 192 7 7 (752640)
I0105 22:23:17.983391 10836 layer_factory.hpp:74] Creating layer inception_5b/3x3
I0105 22:23:17.983402 10836 net.cpp:84] Creating Layer inception_5b/3x3
I0105 22:23:17.983407 10836 net.cpp:380] inception_5b/3x3 <- inception_5b/3x3_reduce
I0105 22:23:17.983413 10836 net.cpp:338] inception_5b/3x3 -> inception_5b/3x3
I0105 22:23:17.983464 10836 net.cpp:113] Setting up inception_5b/3x3
I0105 22:23:17.991436 10836 net.cpp:120] Top shape: 80 384 7 7 (1505280)
I0105 22:23:17.991474 10836 layer_factory.hpp:74] Creating layer inception_5b/relu_3x3
I0105 22:23:17.991487 10836 net.cpp:84] Creating Layer inception_5b/relu_3x3
I0105 22:23:17.991516 10836 net.cpp:380] inception_5b/relu_3x3 <- inception_5b/3x3
I0105 22:23:17.991528 10836 net.cpp:327] inception_5b/relu_3x3 -> inception_5b/3x3 (in-place)
I0105 22:23:17.991539 10836 net.cpp:113] Setting up inception_5b/relu_3x3
I0105 22:23:17.991610 10836 net.cpp:120] Top shape: 80 384 7 7 (1505280)
I0105 22:23:17.991616 10836 layer_factory.hpp:74] Creating layer inception_5b/5x5_reduce
I0105 22:23:17.991628 10836 net.cpp:84] Creating Layer inception_5b/5x5_reduce
I0105 22:23:17.991634 10836 net.cpp:380] inception_5b/5x5_reduce <- inception_5a/output_inception_5a/output_0_split_2
I0105 22:23:17.991641 10836 net.cpp:338] inception_5b/5x5_reduce -> inception_5b/5x5_reduce
I0105 22:23:17.991650 10836 net.cpp:113] Setting up inception_5b/5x5_reduce
I0105 22:23:17.992501 10836 net.cpp:120] Top shape: 80 48 7 7 (188160)
I0105 22:23:17.992516 10836 layer_factory.hpp:74] Creating layer inception_5b/relu_5x5_reduce
I0105 22:23:17.992523 10836 net.cpp:84] Creating Layer inception_5b/relu_5x5_reduce
I0105 22:23:17.992529 10836 net.cpp:380] inception_5b/relu_5x5_reduce <- inception_5b/5x5_reduce
I0105 22:23:17.992535 10836 net.cpp:327] inception_5b/relu_5x5_reduce -> inception_5b/5x5_reduce (in-place)
I0105 22:23:17.992543 10836 net.cpp:113] Setting up inception_5b/relu_5x5_reduce
I0105 22:23:17.992611 10836 net.cpp:120] Top shape: 80 48 7 7 (188160)
I0105 22:23:17.992617 10836 layer_factory.hpp:74] Creating layer inception_5b/5x5
I0105 22:23:17.992629 10836 net.cpp:84] Creating Layer inception_5b/5x5
I0105 22:23:17.992633 10836 net.cpp:380] inception_5b/5x5 <- inception_5b/5x5_reduce
I0105 22:23:17.992640 10836 net.cpp:338] inception_5b/5x5 -> inception_5b/5x5
I0105 22:23:17.992647 10836 net.cpp:113] Setting up inception_5b/5x5
I0105 22:23:17.994745 10836 net.cpp:120] Top shape: 80 128 7 7 (501760)
I0105 22:23:17.994761 10836 layer_factory.hpp:74] Creating layer inception_5b/relu_5x5
I0105 22:23:17.994771 10836 net.cpp:84] Creating Layer inception_5b/relu_5x5
I0105 22:23:17.994776 10836 net.cpp:380] inception_5b/relu_5x5 <- inception_5b/5x5
I0105 22:23:17.994782 10836 net.cpp:327] inception_5b/relu_5x5 -> inception_5b/5x5 (in-place)
I0105 22:23:17.994789 10836 net.cpp:113] Setting up inception_5b/relu_5x5
I0105 22:23:17.995039 10836 net.cpp:120] Top shape: 80 128 7 7 (501760)
I0105 22:23:17.995049 10836 layer_factory.hpp:74] Creating layer inception_5b/pool
I0105 22:23:17.995056 10836 layer_factory.cpp:56] CUDNN does not support padding or multiple tops. Using Caffe's own pooling layer.
I0105 22:23:17.995062 10836 net.cpp:84] Creating Layer inception_5b/pool
I0105 22:23:17.995069 10836 net.cpp:380] inception_5b/pool <- inception_5a/output_inception_5a/output_0_split_3
I0105 22:23:17.995075 10836 net.cpp:338] inception_5b/pool -> inception_5b/pool
I0105 22:23:17.995082 10836 net.cpp:113] Setting up inception_5b/pool
I0105 22:23:17.995091 10836 net.cpp:120] Top shape: 80 832 7 7 (3261440)
I0105 22:23:17.995096 10836 layer_factory.hpp:74] Creating layer inception_5b/pool_proj
I0105 22:23:17.995106 10836 net.cpp:84] Creating Layer inception_5b/pool_proj
I0105 22:23:17.995111 10836 net.cpp:380] inception_5b/pool_proj <- inception_5b/pool
I0105 22:23:17.995126 10836 net.cpp:338] inception_5b/pool_proj -> inception_5b/pool_proj
I0105 22:23:17.995132 10836 net.cpp:113] Setting up inception_5b/pool_proj
I0105 22:23:17.996713 10836 net.cpp:120] Top shape: 80 128 7 7 (501760)
I0105 22:23:17.996729 10836 layer_factory.hpp:74] Creating layer inception_5b/relu_pool_proj
I0105 22:23:17.996737 10836 net.cpp:84] Creating Layer inception_5b/relu_pool_proj
I0105 22:23:17.996743 10836 net.cpp:380] inception_5b/relu_pool_proj <- inception_5b/pool_proj
I0105 22:23:17.996752 10836 net.cpp:327] inception_5b/relu_pool_proj -> inception_5b/pool_proj (in-place)
I0105 22:23:17.996759 10836 net.cpp:113] Setting up inception_5b/relu_pool_proj
I0105 22:23:17.996827 10836 net.cpp:120] Top shape: 80 128 7 7 (501760)
I0105 22:23:17.996834 10836 layer_factory.hpp:74] Creating layer inception_5b/output
I0105 22:23:17.996846 10836 net.cpp:84] Creating Layer inception_5b/output
I0105 22:23:17.996858 10836 net.cpp:380] inception_5b/output <- inception_5b/1x1
I0105 22:23:17.996865 10836 net.cpp:380] inception_5b/output <- inception_5b/3x3
I0105 22:23:17.996870 10836 net.cpp:380] inception_5b/output <- inception_5b/5x5
I0105 22:23:17.996876 10836 net.cpp:380] inception_5b/output <- inception_5b/pool_proj
I0105 22:23:17.996883 10836 net.cpp:338] inception_5b/output -> inception_5b/output
I0105 22:23:17.996891 10836 net.cpp:113] Setting up inception_5b/output
I0105 22:23:17.996898 10836 net.cpp:120] Top shape: 80 1024 7 7 (4014080)
I0105 22:23:17.996902 10836 layer_factory.hpp:74] Creating layer pool5/7x7_s1
I0105 22:23:17.996909 10836 net.cpp:84] Creating Layer pool5/7x7_s1
I0105 22:23:17.996914 10836 net.cpp:380] pool5/7x7_s1 <- inception_5b/output
I0105 22:23:17.996923 10836 net.cpp:338] pool5/7x7_s1 -> pool5/7x7_s1
I0105 22:23:17.996930 10836 net.cpp:113] Setting up pool5/7x7_s1
I0105 22:23:17.997006 10836 net.cpp:120] Top shape: 80 1024 1 1 (81920)
I0105 22:23:17.997014 10836 layer_factory.hpp:74] Creating layer pool5/drop_7x7_s1
I0105 22:23:17.997030 10836 net.cpp:84] Creating Layer pool5/drop_7x7_s1
I0105 22:23:17.997035 10836 net.cpp:380] pool5/drop_7x7_s1 <- pool5/7x7_s1
I0105 22:23:17.997040 10836 net.cpp:327] pool5/drop_7x7_s1 -> pool5/7x7_s1 (in-place)
I0105 22:23:17.997047 10836 net.cpp:113] Setting up pool5/drop_7x7_s1
I0105 22:23:17.997054 10836 net.cpp:120] Top shape: 80 1024 1 1 (81920)
I0105 22:23:17.997059 10836 layer_factory.hpp:74] Creating layer loss3/classifier_kaggle
I0105 22:23:17.997068 10836 net.cpp:84] Creating Layer loss3/classifier_kaggle
I0105 22:23:17.997072 10836 net.cpp:380] loss3/classifier_kaggle <- pool5/7x7_s1
I0105 22:23:17.997079 10836 net.cpp:338] loss3/classifier_kaggle -> loss3/classifier_kaggle
I0105 22:23:17.997087 10836 net.cpp:113] Setting up loss3/classifier_kaggle
I0105 22:23:18.008345 10836 net.cpp:120] Top shape: 80 447 (35760)
I0105 22:23:18.008388 10836 layer_factory.hpp:74] Creating layer loss3/loss3
I0105 22:23:18.008406 10836 net.cpp:84] Creating Layer loss3/loss3
I0105 22:23:18.008417 10836 net.cpp:380] loss3/loss3 <- loss3/classifier_kaggle
I0105 22:23:18.008431 10836 net.cpp:380] loss3/loss3 <- label_data_1_split_2
I0105 22:23:18.008445 10836 net.cpp:338] loss3/loss3 -> loss3/loss3
I0105 22:23:18.008462 10836 net.cpp:113] Setting up loss3/loss3
…
I0105 22:23:18.017895 10836 net.cpp:257] The NetState phase (1) differed from the phase (0) specified by a rule in layer data
I0105 22:23:18.020447 10836 net.cpp:42] Initializing net from parameters: 
name: "MYNET"
state {
  phase: TEST
}
layer {
  name: "data"
  type: "ImageData"
  top: "data"
  top: "label"
  include {
    phase: TEST
  }
  transform_param {
    mirror: false
    crop_size: 224
    mean_value: 129
    mean_value: 129
    mean_value: 129
  }
  image_data_param {
    source: "/home/coldmanck/kaggle/label_val_full_resize_rotated.txt"
    batch_size: 50
    shuffle: true
  }
}
layer {
  name: "conv1/7x7_s2"
  type: "Convolution"
  bottom: "data"
  top: "conv1/7x7_s2"
  param {
    lr_mult: 1
    decay_mult: 1
  }
  param {
    lr_mult: 2
    decay_mult: 0
  }
  convolution_param {
    num_output: 64
    pad: 3
    kernel_size: 7
    stride: 2
    weight_filler {
      type: "xavier"
    }
    bias_filler {
      type: "constant"
      value: 0.2
    }
  }
}
layer {
  name: "conv1/relu_7x7"
  type: "ReLU"
  bottom: "conv1/7x7_s2"
  top: "conv1/7x7_s2"
}
layer {
  name: "pool1/3x3_s2"
  type: "Pooling"
  bottom: "conv1/7x7_s2"
  top: "pool1/3x3_s2"
  pooling_param {
    pool: MAX
    kernel_size: 3
    stride: 2
  }
}
layer {
  name: "pool1/norm1"
  type: "LRN"
  bottom: "pool1/3x3_s2"
  top: "pool1/norm1"
  lrn_param {
    local_size: 5
    alpha: 0.0001
    beta: 0.75
  }
}
layer {
  name: "conv2/3x3_reduce"
  type: "Convolution"
  bottom: "pool1/norm1"
  top: "conv2/3x3_reduce"
  param {
    lr_mult: 1
    decay_mult: 1
  }
  param {
    lr_mult: 2
    decay_mult: 0
  }
  convolution_param {
    num_output: 64
    kernel_size: 1
    weight_filler {
      type: "xavier"
    }
    bias_filler {
      type: "constant"
      value: 0.2
    }
  }
}
layer {
  name: "conv2/relu_3x3_reduce"
  type: "ReLU"
  bottom: "conv2/3x3_reduce"
  top: "conv2/3x3_reduce"
}
layer {
  name: "conv2/3x3"
  type: "Convolution"
  bottom: "conv2/3x3_reduce"
  top: "conv2/3x3"
  param {
    lr_mult: 1
    decay_mult: 1
  }
  param {
    lr_mult: 2
    decay_mult: 0
  }
  convolution_param {
    num_output: 192
    pad: 1
    kernel_size: 3
    weight_filler {
      type: "xavier"
    }
    bias_filler {
      type: "constant"
      value: 0.2
    }
  }
}
layer {
  name: "conv2/relu_3x3"
  type: "ReLU"
  bottom: "conv2/3x3"
  top: "conv2/3x3"
}
layer {
  name: "conv2/norm2"
  type: "LRN"
  bottom: "conv2/3x3"
  top: "conv2/norm2"
  lrn_param {
    local_size: 5
    alpha: 0.0001
    beta: 0.75
  }
}
layer {
  name: "pool2/3x3_s2"
  type: "Pooling"
  bottom: "conv2/norm2"
  top: "pool2/3x3_s2"
  pooling_param {
    pool: MAX
    kernel_size: 3
    stride: 2
  }
}
layer {
  name: "inception_3a/1x1"
  type: "Convolution"
  bottom: "pool2/3x3_s2"
  top: "inception_3a/1x1"
  param {
    lr_mult: 1
    decay_mult: 1
  }
  param {
    lr_mult: 2
    decay_mult: 0
  }
  convolution_param {
    num_output: 64
    kernel_size: 1
    weight_filler {
      type: "xavier"
    }
    bias_filler {
      type: "constant"
      value: 0.2
    }
  }
}
layer {
  name: "inception_3a/relu_1x1"
  type: "ReLU"
  bottom: "inception_3a/1x1"
  top: "inception_3a/1x1"
}
layer {
  name: "inception_3a/3x3_reduce"
  type: "Convolution"
  bottom: "pool2/3x3_s2"
  top: "inception_3a/3x3_reduce"
  param {
    lr_mult: 1
    decay_mult: 1
  }
  param {
    lr_mult: 2
    decay_mult: 0
  }
  convolution_param {
    num_output: 96
    kernel_size: 1
    weight_filler {
      type: "xavier"
    }
    bias_filler {
      type: "constant"
      value: 0.2
    }
  }
}
layer {
  name: "inception_3a/relu_3x3_reduce"
  type: "ReLU"
  bottom: "inception_3a/3x3_reduce"
  top: "inception_3a/3x3_reduce"
}
layer {
  name: "inception_3a/3x3"
  type: "Convolution"
  bottom: "inception_3a/3x3_reduce"
  top: "inception_3a/3x3"
  param {
    lr_mult: 1
    decay_mult: 1
  }
  param {
    lr_mult: 2
    decay_mult: 0
  }
  convolution_param {
    num_output: 128
    pad: 1
    kernel_size: 3
    weight_filler {
      type: "xavier"
    }
    bias_filler {
      type: "constant"
      value: 0.2
    }
  }
}
layer {
  name: "inception_3a/relu_3x3"
  type: "ReLU"
  bottom: "inception_3a/3x3"
  top: "inception_3a/3x3"
}
layer {
  name: "inception_3a/5x5_reduce"
  type: "Convolution"
  bottom: "pool2/3x3_s2"
  top: "inception_3a/5x5_reduce"
  param {
    lr_mult: 1
    decay_mult: 1
  }
  param {
    lr_mult: 2
    decay_mult: 0
  }
  convolution_param {
    num_output: 16
    kernel_size: 1
    weight_filler {
      type: "xavier"
    }
    bias_filler {
      type: "constant"
      value: 0.2
    }
  }
}
layer {
  name: "inception_3a/relu_5x5_reduce"
  type: "ReLU"
  bottom: "inception_3a/5x5_reduce"
  top: "inception_3a/5x5_reduce"
}
layer {
  name: "inception_3a/5x5"
  type: "Convolution"
  bottom: "inception_3a/5x5_reduce"
  top: "inception_3a/5x5"
  param {
    lr_mult: 1
    decay_mult: 1
  }
  param {
    lr_mult: 2
    decay_mult: 0
  }
  convolution_param {
    num_output: 32
    pad: 2
    kernel_size: 5
    weight_filler {
      type: "xavier"
    }
    bias_filler {
      type: "constant"
      value: 0.2
    }
  }
}
layer {
  name: "inception_3a/relu_5x5"
  type: "ReLU"
  bottom: "inception_3a/5x5"
  top: "inception_3a/5x5"
}
layer {
  name: "inception_3a/pool"
  type: "Pooling"
  bottom: "pool2/3x3_s2"
  top: "inception_3a/pool"
  pooling_param {
    pool: MAX
    kernel_size: 3
    stride: 1
    pad: 1
  }
}
layer {
  name: "inception_3a/pool_proj"
  type: "Convolution"
  bottom: "inception_3a/pool"
  top: "inception_3a/pool_proj"
  param {
    lr_mult: 1
    decay_mult: 1
  }
  param {
    lr_mult: 2
    decay_mult: 0
  }
  convolution_param {
    num_output: 32
    kernel_size: 1
    weight_filler {
      type: "xavier"
    }
    bias_filler {
      type: "constant"
      value: 0.2
    }
  }
}
layer {
  name: "inception_3a/relu_pool_proj"
  type: "ReLU"
  bottom: "inception_3a/pool_proj"
  top: "inception_3a/pool_proj"
}
layer {
  name: "inception_3a/output"
  type: "Concat"
  bottom: "inception_3a/1x1"
  bottom: "inception_3a/3x3"
  bottom: "inception_3a/5x5"
  bottom: "inception_3a/pool_proj"
  top: "inception_3a/output"
}
layer {
  name: "inception_3b/1x1"
  type: "Convolution"
  bottom: "inception_3a/output"
  top: "inception_3b/1x1"
  param {
    lr_mult: 1
    decay_mult: 1
  }
  param {
    lr_mult: 2
    decay_mult: 0
  }
  convolution_param {
    num_output: 128
    kernel_size: 1
    weight_filler {
      type: "xavier"
    }
    bias_filler {
      type: "constant"
      value: 0.2
    }
  }
}
layer {
  name: "inception_3b/relu_1x1"
  type: "ReLU"
  bottom: "inception_3b/1x1"
  top: "inception_3b/1x1"
}
layer {
  name: "inception_3b/3x3_reduce"
  type: "Convolution"
  bottom: "inception_3a/output"
  top: "inception_3b/3x3_reduce"
  param {
    lr_mult: 1
    decay_mult: 1
  }
  param {
    lr_mult: 2
    decay_mult: 0
  }
  convolution_param {
    num_output: 128
    kernel_size: 1
    weight_filler {
      type: "xavier"
    }
    bias_filler {
      type: "constant"
      value: 0.2
    }
  }
}
layer {
  name: "inception_3b/relu_3x3_reduce"
  type: "ReLU"
  bottom: "inception_3b/3x3_reduce"
  top: "inception_3b/3x3_reduce"
}
layer {
  name: "inception_3b/3x3"
  type: "Convolution"
  bottom: "inception_3b/3x3_reduce"
  top: "inception_3b/3x3"
  param {
    lr_mult: 1
    decay_mult: 1
  }
  param {
    lr_mult: 2
    decay_mult: 0
  }
  convolution_param {
    num_output: 192
    pad: 1
    kernel_size: 3
    weight_filler {
      type: "xavier"
    }
    bias_filler {
      type: "constant"
      value: 0.2
    }
  }
}
layer {
  name: "inception_3b/relu_3x3"
  type: "ReLU"
  bottom: "inception_3b/3x3"
  top: "inception_3b/3x3"
}
layer {
  name: "inception_3b/5x5_reduce"
  type: "Convolution"
  bottom: "inception_3a/output"
  top: "inception_3b/5x5_reduce"
  param {
    lr_mult: 1
    decay_mult: 1
  }
  param {
    lr_mult: 2
    decay_mult: 0
  }
  convolution_param {
    num_output: 32
    kernel_size: 1
    weight_filler {
      type: "xavier"
    }
    bias_filler {
      type: "constant"
      value: 0.2
    }
  }
}
layer {
  name: "inception_3b/relu_5x5_reduce"
  type: "ReLU"
  bottom: "inception_3b/5x5_reduce"
  top: "inception_3b/5x5_reduce"
}
layer {
  name: "inception_3b/5x5"
  type: "Convolution"
  bottom: "inception_3b/5x5_reduce"
  top: "inception_3b/5x5"
  param {
    lr_mult: 1
    decay_mult: 1
  }
  param {
    lr_mult: 2
    decay_mult: 0
  }
  convolution_param {
    num_output: 96
    pad: 2
    kernel_size: 5
    weight_filler {
      type: "xavier"
    }
    bias_filler {
      type: "constant"
      value: 0.2
    }
  }
}
layer {
  name: "inception_3b/relu_5x5"
  type: "ReLU"
  bottom: "inception_3b/5x5"
  top: "inception_3b/5x5"
}
layer {
  name: "inception_3b/pool"
  type: "Pooling"
  bottom: "inception_3a/output"
  top: "inception_3b/pool"
  pooling_param {
    pool: MAX
    kernel_size: 3
    stride: 1
    pad: 1
  }
}
layer {
  name: "inception_3b/pool_proj"
  type: "Convolution"
  bottom: "inception_3b/pool"
  top: "inception_3b/pool_proj"
  param {
    lr_mult: 1
    decay_mult: 1
  }
  param {
    lr_mult: 2
    decay_mult: 0
  }
  convolution_param {
    num_output: 64
    kernel_size: 1
    weight_filler {
      type: "xavier"
    }
    bias_filler {
      type: "constant"
      value: 0.2
    }
  }
}
layer {
  name: "inception_3b/relu_pool_proj"
  type: "ReLU"
  bottom: "inception_3b/pool_proj"
  top: "inception_3b/pool_proj"
}
layer {
  name: "inception_3b/output"
  type: "Concat"
  bottom: "inception_3b/1x1"
  bottom: "inception_3b/3x3"
  bottom: "inception_3b/5x5"
  bottom: "inception_3b/pool_proj"
  top: "inception_3b/output"
}
layer {
  name: "pool3/3x3_s2"
  type: "Pooling"
  bottom: "inception_3b/output"
  top: "pool3/3x3_s2"
  pooling_param {
    pool: MAX
    kernel_size: 3
    stride: 2
  }
}
layer {
  name: "inception_4a/1x1"
  type: "Convolution"
  bottom: "pool3/3x3_s2"
  top: "inception_4a/1x1"
  param {
    lr_mult: 1
    decay_mult: 1
  }
  param {
    lr_mult: 2
    decay_mult: 0
  }
  convolution_param {
    num_output: 192
    kernel_size: 1
    weight_filler {
      type: "xavier"
    }
    bias_filler {
      type: "constant"
      value: 0.2
    }
  }
}
layer {
  name: "inception_4a/relu_1x1"
  type: "ReLU"
  bottom: "inception_4a/1x1"
  top: "inception_4a/1x1"
}
layer {
  name: "inception_4a/3x3_reduce"
  type: "Convolution"
  bottom: "pool3/3x3_s2"
  top: "inception_4a/3x3_reduce"
  param {
    lr_mult: 1
    decay_mult: 1
  }
  param {
    lr_mult: 2
    decay_mult: 0
  }
  convolution_param {
    num_output: 96
    kernel_size: 1
    weight_filler {
      type: "xavier"
    }
    bias_filler {
      type: "constant"
      value: 0.2
    }
  }
}
layer {
  name: "inception_4a/relu_3x3_reduce"
  type: "ReLU"
  bottom: "inception_4a/3x3_reduce"
  top: "inception_4a/3x3_reduce"
}
layer {
  name: "inception_4a/3x3"
  type: "Convolution"
  bottom: "inception_4a/3x3_reduce"
  top: "inception_4a/3x3"
  param {
    lr_mult: 1
    decay_mult: 1
  }
  param {
    lr_mult: 2
    decay_mult: 0
  }
  convolution_param {
    num_output: 208
    pad: 1
    kernel_size: 3
    weight_filler {
      type: "xavier"
    }
    bias_filler {
      type: "constant"
      value: 0.2
    }
  }
}
layer {
  name: "inception_4a/relu_3x3"
  type: "ReLU"
  bottom: "inception_4a/3x3"
  top: "inception_4a/3x3"
}
layer {
  name: "inception_4a/5x5_reduce"
  type: "Convolution"
  bottom: "pool3/3x3_s2"
  top: "inception_4a/5x5_reduce"
  param {
    lr_mult: 1
    decay_mult: 1
  }
  param {
    lr_mult: 2
    decay_mult: 0
  }
  convolution_param {
    num_output: 16
    kernel_size: 1
    weight_filler {
      type: "xavier"
    }
    bias_filler {
      type: "constant"
      value: 0.2
    }
  }
}
layer {
  name: "inception_4a/relu_5x5_reduce"
  type: "ReLU"
  bottom: "inception_4a/5x5_reduce"
  top: "inception_4a/5x5_reduce"
}
layer {
  name: "inception_4a/5x5"
  type: "Convolution"
  bottom: "inception_4a/5x5_reduce"
  top: "inception_4a/5x5"
  param {
    lr_mult: 1
    decay_mult: 1
  }
  param {
    lr_mult: 2
    decay_mult: 0
  }
  convolution_param {
    num_output: 48
    pad: 2
    kernel_size: 5
    weight_filler {
      type: "xavier"
    }
    bias_filler {
      type: "constant"
      value: 0.2
    }
  }
}
layer {
  name: "inception_4a/relu_5x5"
  type: "ReLU"
  bottom: "inception_4a/5x5"
  top: "inception_4a/5x5"
}
layer {
  name: "inception_4a/pool"
  type: "Pooling"
  bottom: "pool3/3x3_s2"
  top: "inception_4a/pool"
  pooling_param {
    pool: MAX
    kernel_size: 3
    stride: 1
    pad: 1
  }
}
layer {
  name: "inception_4a/pool_proj"
  type: "Convolution"
  bottom: "inception_4a/pool"
  top: "inception_4a/pool_proj"
  param {
    lr_mult: 1
    decay_mult: 1
  }
  param {
    lr_mult: 2
    decay_mult: 0
  }
  convolution_param {
    num_output: 64
    kernel_size: 1
    weight_filler {
      type: "xavier"
    }
    bias_filler {
      type: "constant"
      value: 0.2
    }
  }
}
layer {
  name: "inception_4a/relu_pool_proj"
  type: "ReLU"
  bottom: "inception_4a/pool_proj"
  top: "inception_4a/pool_proj"
}
layer {
  name: "inception_4a/output"
  type: "Concat"
  bottom: "inception_4a/1x1"
  bottom: "inception_4a/3x3"
  bottom: "inception_4a/5x5"
  bottom: "inception_4a/pool_proj"
  top: "inception_4a/output"
}
layer {
  name: "loss1/ave_pool"
  type: "Pooling"
  bottom: "inception_4a/output"
  top: "loss1/ave_pool"
  pooling_param {
    pool: AVE
    kernel_size: 5
    stride: 3
  }
}
layer {
  name: "loss1/conv"
  type: "Convolution"
  bottom: "loss1/ave_pool"
  top: "loss1/conv"
  param {
    lr_mult: 1
    decay_mult: 1
  }
  param {
    lr_mult: 2
    decay_mult: 0
  }
  convolution_param {
    num_output: 128
    kernel_size: 1
    weight_filler {
      type: "xavier"
    }
    bias_filler {
      type: "constant"
      value: 0.2
    }
  }
}
layer {
  name: "loss1/relu_conv"
  type: "ReLU"
  bottom: "loss1/conv"
  top: "loss1/conv"
}
layer {
  name: "loss1/fc"
  type: "InnerProduct"
  bottom: "loss1/conv"
  top: "loss1/fc"
  param {
    lr_mult: 1
    decay_mult: 1
  }
  param {
    lr_mult: 2
    decay_mult: 0
  }
  inner_product_param {
    num_output: 1024
    weight_filler {
      type: "xavier"
    }
    bias_filler {
      type: "constant"
      value: 0.2
    }
  }
}
layer {
  name: "loss1/relu_fc"
  type: "ReLU"
  bottom: "loss1/fc"
  top: "loss1/fc"
}
layer {
  name: "loss1/drop_fc"
  type: "Dropout"
  bottom: "loss1/fc"
  top: "loss1/fc"
  dropout_param {
    dropout_ratio: 0.7
  }
}
layer {
  name: "loss1/classifier_kaggle"
  type: "InnerProduct"
  bottom: "loss1/fc"
  top: "loss1/classifier_kaggle"
  param {
    lr_mult: 1
    decay_mult: 1
  }
  param {
    lr_mult: 2
    decay_mult: 0
  }
  inner_product_param {
    num_output: 447
    weight_filler {
      type: "xavier"
    }
    bias_filler {
      type: "constant"
      value: 0
    }
  }
}
layer {
  name: "loss1/loss"
  type: "SoftmaxWithLoss"
  bottom: "loss1/classifier_kaggle"
  bottom: "label"
  top: "loss1/loss1"
  loss_weight: 0.3
}
layer {
  name: "loss1/top-1"
  type: "Accuracy"
  bottom: "loss1/classifier_kaggle"
  bottom: "label"
  top: "loss1/top-1"
  include {
    phase: TEST
  }
}
layer {
  name: "loss1/top-5"
  type: "Accuracy"
  bottom: "loss1/classifier_kaggle"
  bottom: "label"
  top: "loss1/top-5"
  include {
    phase: TEST
  }
  accuracy_param {
    top_k: 5
  }
}
layer {
  name: "inception_4b/1x1"
  type: "Convolution"
  bottom: "inception_4a/output"
  top: "inception_4b/1x1"
  param {
    lr_mult: 1
    decay_mult: 1
  }
  param {
    lr_mult: 2
    decay_mult: 0
  }
  convolution_param {
    num_output: 160
    kernel_size: 1
    weight_filler {
      type: "xavier"
    }
    bias_filler {
      type: "constant"
      value: 0.2
    }
  }
}
layer {
  name: "inception_4b/relu_1x1"
  type: "ReLU"
  bottom: "inception_4b/1x1"
  top: "inception_4b/1x1"
}
layer {
  name: "inception_4b/3x3_reduce"
  type: "Convolution"
  bottom: "inception_4a/output"
  top: "inception_4b/3x3_reduce"
  param {
    lr_mult: 1
    decay_mult: 1
  }
  param {
    lr_mult: 2
    decay_mult: 0
  }
  convolution_param {
    num_output: 112
    kernel_size: 1
    weight_filler {
      type: "xavier"
    }
    bias_filler {
      type: "constant"
      value: 0.2
    }
  }
}
layer {
  name: "inception_4b/relu_3x3_reduce"
  type: "ReLU"
  bottom: "inception_4b/3x3_reduce"
  top: "inception_4b/3x3_reduce"
}
layer {
  name: "inception_4b/3x3"
  type: "Convolution"
  bottom: "inception_4b/3x3_reduce"
  top: "inception_4b/3x3"
  param {
    lr_mult: 1
    decay_mult: 1
  }
  param {
    lr_mult: 2
    decay_mult: 0
  }
  convolution_param {
    num_output: 224
    pad: 1
    kernel_size: 3
    weight_filler {
      type: "xavier"
    }
    bias_filler {
      type: "constant"
      value: 0.2
    }
  }
}
layer {
  name: "inception_4b/relu_3x3"
  type: "ReLU"
  bottom: "inception_4b/3x3"
  top: "inception_4b/3x3"
}
layer {
  name: "inception_4b/5x5_reduce"
  type: "Convolution"
  bottom: "inception_4a/output"
  top: "inception_4b/5x5_reduce"
  param {
    lr_mult: 1
    decay_mult: 1
  }
  param {
    lr_mult: 2
    decay_mult: 0
  }
  convolution_param {
    num_output: 24
    kernel_size: 1
    weight_filler {
      type: "xavier"
    }
    bias_filler {
      type: "constant"
      value: 0.2
    }
  }
}
layer {
  name: "inception_4b/relu_5x5_reduce"
  type: "ReLU"
  bottom: "inception_4b/5x5_reduce"
  top: "inception_4b/5x5_reduce"
}
layer {
  name: "inception_4b/5x5"
  type: "Convolution"
  bottom: "inception_4b/5x5_reduce"
  top: "inception_4b/5x5"
  param {
    lr_mult: 1
    decay_mult: 1
  }
  param {
    lr_mult: 2
    decay_mult: 0
  }
  convolution_param {
    num_output: 64
    pad: 2
    kernel_size: 5
    weight_filler {
      type: "xavier"
    }
    bias_filler {
      type: "constant"
      value: 0.2
    }
  }
}
layer {
  name: "inception_4b/relu_5x5"
  type: "ReLU"
  bottom: "inception_4b/5x5"
  top: "inception_4b/5x5"
}
layer {
  name: "inception_4b/pool"
  type: "Pooling"
  bottom: "inception_4a/output"
  top: "inception_4b/pool"
  pooling_param {
    pool: MAX
    kernel_size: 3
    stride: 1
    pad: 1
  }
}
layer {
  name: "inception_4b/pool_proj"
  type: "Convolution"
  bottom: "inception_4b/pool"
  top: "inception_4b/pool_proj"
  param {
    lr_mult: 1
    decay_mult: 1
  }
  param {
    lr_mult: 2
    decay_mult: 0
  }
  convolution_param {
    num_output: 64
    kernel_size: 1
    weight_filler {
      type: "xavier"
    }
    bias_filler {
      type: "constant"
      value: 0.2
    }
  }
}
layer {
  name: "inception_4b/relu_pool_proj"
  type: "ReLU"
  bottom: "inception_4b/pool_proj"
  top: "inception_4b/pool_proj"
}
layer {
  name: "inception_4b/output"
  type: "Concat"
  bottom: "inception_4b/1x1"
  bottom: "inception_4b/3x3"
  bottom: "inception_4b/5x5"
  bottom: "inception_4b/pool_proj"
  top: "inception_4b/output"
}
layer {
  name: "inception_4c/1x1"
  type: "Convolution"
  bottom: "inception_4b/output"
  top: "inception_4c/1x1"
  param {
    lr_mult: 1
    decay_mult: 1
  }
  param {
    lr_mult: 2
    decay_mult: 0
  }
  convolution_param {
    num_output: 128
    kernel_size: 1
    weight_filler {
      type: "xavier"
    }
    bias_filler {
      type: "constant"
      value: 0.2
    }
  }
}
layer {
  name: "inception_4c/relu_1x1"
  type: "ReLU"
  bottom: "inception_4c/1x1"
  top: "inception_4c/1x1"
}
layer {
  name: "inception_4c/3x3_reduce"
  type: "Convolution"
  bottom: "inception_4b/output"
  top: "inception_4c/3x3_reduce"
  param {
    lr_mult: 1
    decay_mult: 1
  }
  param {
    lr_mult: 2
    decay_mult: 0
  }
  convolution_param {
    num_output: 128
    kernel_size: 1
    weight_filler {
      type: "xavier"
    }
    bias_filler {
      type: "constant"
      value: 0.2
    }
  }
}
layer {
  name: "inception_4c/relu_3x3_reduce"
  type: "ReLU"
  bottom: "inception_4c/3x3_reduce"
  top: "inception_4c/3x3_reduce"
}
layer {
  name: "inception_4c/3x3"
  type: "Convolution"
  bottom: "inception_4c/3x3_reduce"
  top: "inception_4c/3x3"
  param {
    lr_mult: 1
    decay_mult: 1
  }
  param {
    lr_mult: 2
    decay_mult: 0
  }
  convolution_param {
    num_output: 256
    pad: 1
    kernel_size: 3
    weight_filler {
      type: "xavier"
    }
    bias_filler {
      type: "constant"
      value: 0.2
    }
  }
}
layer {
  name: "inception_4c/relu_3x3"
  type: "ReLU"
  bottom: "inception_4c/3x3"
  top: "inception_4c/3x3"
}
layer {
  name: "inception_4c/5x5_reduce"
  type: "Convolution"
  bottom: "inception_4b/output"
  top: "inception_4c/5x5_reduce"
  param {
    lr_mult: 1
    decay_mult: 1
  }
  param {
    lr_mult: 2
    decay_mult: 0
  }
  convolution_param {
    num_output: 24
    kernel_size: 1
    weight_filler {
      type: "xavier"
    }
    bias_filler {
      type: "constant"
      value: 0.2
    }
  }
}
layer {
  name: "inception_4c/relu_5x5_reduce"
  type: "ReLU"
  bottom: "inception_4c/5x5_reduce"
  top: "inception_4c/5x5_reduce"
}
layer {
  name: "inception_4c/5x5"
  type: "Convolution"
  bottom: "inception_4c/5x5_reduce"
  top: "inception_4c/5x5"
  param {
    lr_mult: 1
    decay_mult: 1
  }
  param {
    lr_mult: 2
    decay_mult: 0
  }
  convolution_param {
    num_output: 64
    pad: 2
    kernel_size: 5
    weight_filler {
      type: "xavier"
    }
    bias_filler {
      type: "constant"
      value: 0.2
    }
  }
}
layer {
  name: "inception_4c/relu_5x5"
  type: "ReLU"
  bottom: "inception_4c/5x5"
  top: "inception_4c/5x5"
}
layer {
  name: "inception_4c/pool"
  type: "Pooling"
  bottom: "inception_4b/output"
  top: "inception_4c/pool"
  pooling_param {
    pool: MAX
    kernel_size: 3
    stride: 1
    pad: 1
  }
}
layer {
  name: "inception_4c/pool_proj"
  type: "Convolution"
  bottom: "inception_4c/pool"
  top: "inception_4c/pool_proj"
  param {
    lr_mult: 1
    decay_mult: 1
  }
  param {
    lr_mult: 2
    decay_mult: 0
  }
  convolution_param {
    num_output: 64
    kernel_size: 1
    weight_filler {
      type: "xavier"
    }
    bias_filler {
      type: "constant"
      value: 0.2
    }
  }
}
layer {
  name: "inception_4c/relu_pool_proj"
  type: "ReLU"
  bottom: "inception_4c/pool_proj"
  top: "inception_4c/pool_proj"
}
layer {
  name: "inception_4c/output"
  type: "Concat"
  bottom: "inception_4c/1x1"
  bottom: "inception_4c/3x3"
  bottom: "inception_4c/5x5"
  bottom: "inception_4c/pool_proj"
  top: "inception_4c/output"
}
layer {
  name: "inception_4d/1x1"
  type: "Convolution"
  bottom: "inception_4c/output"
  top: "inception_4d/1x1"
  param {
    lr_mult: 1
    decay_mult: 1
  }
  param {
    lr_mult: 2
    decay_mult: 0
  }
  convolution_param {
    num_output: 112
    kernel_size: 1
    weight_filler {
      type: "xavier"
    }
    bias_filler {
      type: "constant"
      value: 0.2
    }
  }
}
layer {
  name: "inception_4d/relu_1x1"
  type: "ReLU"
  bottom: "inception_4d/1x1"
  top: "inception_4d/1x1"
}
layer {
  name: "inception_4d/3x3_reduce"
  type: "Convolution"
  bottom: "inception_4c/output"
  top: "inception_4d/3x3_reduce"
  param {
    lr_mult: 1
    decay_mult: 1
  }
  param {
    lr_mult: 2
    decay_mult: 0
  }
  convolution_param {
    num_output: 144
    kernel_size: 1
    weight_filler {
      type: "xavier"
    }
    bias_filler {
      type: "constant"
      value: 0.2
    }
  }
}
layer {
  name: "inception_4d/relu_3x3_reduce"
  type: "ReLU"
  bottom: "inception_4d/3x3_reduce"
  top: "inception_4d/3x3_reduce"
}
layer {
  name: "inception_4d/3x3"
  type: "Convolution"
  bottom: "inception_4d/3x3_reduce"
  top: "inception_4d/3x3"
  param {
    lr_mult: 1
    decay_mult: 1
  }
  param {
    lr_mult: 2
    decay_mult: 0
  }
  convolution_param {
    num_output: 288
    pad: 1
    kernel_size: 3
    weight_filler {
      type: "xavier"
    }
    bias_filler {
      type: "constant"
      value: 0.2
    }
  }
}
layer {
  name: "inception_4d/relu_3x3"
  type: "ReLU"
  bottom: "inception_4d/3x3"
  top: "inception_4d/3x3"
}
layer {
  name: "inception_4d/5x5_reduce"
  type: "Convolution"
  bottom: "inception_4c/output"
  top: "inception_4d/5x5_reduce"
  param {
    lr_mult: 1
    decay_mult: 1
  }
  param {
    lr_mult: 2
    decay_mult: 0
  }
  convolution_param {
    num_output: 32
    kernel_size: 1
    weight_filler {
      type: "xavier"
    }
    bias_filler {
      type: "constant"
      value: 0.2
    }
  }
}
layer {
  name: "inception_4d/relu_5x5_reduce"
  type: "ReLU"
  bottom: "inception_4d/5x5_reduce"
  top: "inception_4d/5x5_reduce"
}
layer {
  name: "inception_4d/5x5"
  type: "Convolution"
  bottom: "inception_4d/5x5_reduce"
  top: "inception_4d/5x5"
  param {
    lr_mult: 1
    decay_mult: 1
  }
  param {
    lr_mult: 2
    decay_mult: 0
  }
  convolution_param {
    num_output: 64
    pad: 2
    kernel_size: 5
    weight_filler {
      type: "xavier"
    }
    bias_filler {
      type: "constant"
      value: 0.2
    }
  }
}
layer {
  name: "inception_4d/relu_5x5"
  type: "ReLU"
  bottom: "inception_4d/5x5"
  top: "inception_4d/5x5"
}
layer {
  name: "inception_4d/pool"
  type: "Pooling"
  bottom: "inception_4c/output"
  top: "inception_4d/pool"
  pooling_param {
    pool: MAX
    kernel_size: 3
    stride: 1
    pad: 1
  }
}
layer {
  name: "inception_4d/pool_proj"
  type: "Convolution"
  bottom: "inception_4d/pool"
  top: "inception_4d/pool_proj"
  param {
    lr_mult: 1
    decay_mult: 1
  }
  param {
    lr_mult: 2
    decay_mult: 0
  }
  convolution_param {
    num_output: 64
    kernel_size: 1
    weight_filler {
      type: "xavier"
    }
    bias_filler {
      type: "constant"
      value: 0.2
    }
  }
}
layer {
  name: "inception_4d/relu_pool_proj"
  type: "ReLU"
  bottom: "inception_4d/pool_proj"
  top: "inception_4d/pool_proj"
}
layer {
  name: "inception_4d/output"
  type: "Concat"
  bottom: "inception_4d/1x1"
  bottom: "inception_4d/3x3"
  bottom: "inception_4d/5x5"
  bottom: "inception_4d/pool_proj"
  top: "inception_4d/output"
}
layer {
  name: "loss2/ave_pool"
  type: "Pooling"
  bottom: "inception_4d/output"
  top: "loss2/ave_pool"
  pooling_param {
    pool: AVE
    kernel_size: 5
    stride: 3
  }
}
layer {
…
I0105 22:23:18.660369 10836 net.cpp:84] Creating Layer inception_4c/1x1
I0105 22:23:18.660375 10836 net.cpp:380] inception_4c/1x1 <- inception_4b/output_inception_4b/output_0_split_0
I0105 22:23:18.660387 10836 net.cpp:338] inception_4c/1x1 -> inception_4c/1x1
I0105 22:23:18.660395 10836 net.cpp:113] Setting up inception_4c/1x1
I0105 22:23:18.661664 10836 net.cpp:120] Top shape: 50 128 14 14 (1254400)
I0105 22:23:18.661684 10836 layer_factory.hpp:74] Creating layer inception_4c/relu_1x1
I0105 22:23:18.661695 10836 net.cpp:84] Creating Layer inception_4c/relu_1x1
I0105 22:23:18.661702 10836 net.cpp:380] inception_4c/relu_1x1 <- inception_4c/1x1
I0105 22:23:18.661717 10836 net.cpp:327] inception_4c/relu_1x1 -> inception_4c/1x1 (in-place)
I0105 22:23:18.661736 10836 net.cpp:113] Setting up inception_4c/relu_1x1
I0105 22:23:18.662026 10836 net.cpp:120] Top shape: 50 128 14 14 (1254400)
I0105 22:23:18.662039 10836 layer_factory.hpp:74] Creating layer inception_4c/3x3_reduce
I0105 22:23:18.662053 10836 net.cpp:84] Creating Layer inception_4c/3x3_reduce
I0105 22:23:18.662060 10836 net.cpp:380] inception_4c/3x3_reduce <- inception_4b/output_inception_4b/output_0_split_1
I0105 22:23:18.662072 10836 net.cpp:338] inception_4c/3x3_reduce -> inception_4c/3x3_reduce
I0105 22:23:18.662084 10836 net.cpp:113] Setting up inception_4c/3x3_reduce
I0105 22:23:18.663332 10836 net.cpp:120] Top shape: 50 128 14 14 (1254400)
I0105 22:23:18.663350 10836 layer_factory.hpp:74] Creating layer inception_4c/relu_3x3_reduce
I0105 22:23:18.663360 10836 net.cpp:84] Creating Layer inception_4c/relu_3x3_reduce
I0105 22:23:18.663367 10836 net.cpp:380] inception_4c/relu_3x3_reduce <- inception_4c/3x3_reduce
I0105 22:23:18.663383 10836 net.cpp:327] inception_4c/relu_3x3_reduce -> inception_4c/3x3_reduce (in-place)
I0105 22:23:18.663393 10836 net.cpp:113] Setting up inception_4c/relu_3x3_reduce
I0105 22:23:18.663485 10836 net.cpp:120] Top shape: 50 128 14 14 (1254400)
I0105 22:23:18.663492 10836 layer_factory.hpp:74] Creating layer inception_4c/3x3
I0105 22:23:18.663506 10836 net.cpp:84] Creating Layer inception_4c/3x3
I0105 22:23:18.663512 10836 net.cpp:380] inception_4c/3x3 <- inception_4c/3x3_reduce
I0105 22:23:18.663523 10836 net.cpp:338] inception_4c/3x3 -> inception_4c/3x3
I0105 22:23:18.663537 10836 net.cpp:113] Setting up inception_4c/3x3
I0105 22:23:18.667438 10836 net.cpp:120] Top shape: 50 256 14 14 (2508800)
I0105 22:23:18.667477 10836 layer_factory.hpp:74] Creating layer inception_4c/relu_3x3
I0105 22:23:18.667487 10836 net.cpp:84] Creating Layer inception_4c/relu_3x3
I0105 22:23:18.667495 10836 net.cpp:380] inception_4c/relu_3x3 <- inception_4c/3x3
I0105 22:23:18.667505 10836 net.cpp:327] inception_4c/relu_3x3 -> inception_4c/3x3 (in-place)
I0105 22:23:18.667515 10836 net.cpp:113] Setting up inception_4c/relu_3x3
I0105 22:23:18.667600 10836 net.cpp:120] Top shape: 50 256 14 14 (2508800)
I0105 22:23:18.667608 10836 layer_factory.hpp:74] Creating layer inception_4c/5x5_reduce
I0105 22:23:18.667626 10836 net.cpp:84] Creating Layer inception_4c/5x5_reduce
I0105 22:23:18.667634 10836 net.cpp:380] inception_4c/5x5_reduce <- inception_4b/output_inception_4b/output_0_split_2
I0105 22:23:18.667642 10836 net.cpp:338] inception_4c/5x5_reduce -> inception_4c/5x5_reduce
I0105 22:23:18.667654 10836 net.cpp:113] Setting up inception_4c/5x5_reduce
I0105 22:23:18.668288 10836 net.cpp:120] Top shape: 50 24 14 14 (235200)
I0105 22:23:18.668306 10836 layer_factory.hpp:74] Creating layer inception_4c/relu_5x5_reduce
I0105 22:23:18.668315 10836 net.cpp:84] Creating Layer inception_4c/relu_5x5_reduce
I0105 22:23:18.668323 10836 net.cpp:380] inception_4c/relu_5x5_reduce <- inception_4c/5x5_reduce
I0105 22:23:18.668335 10836 net.cpp:327] inception_4c/relu_5x5_reduce -> inception_4c/5x5_reduce (in-place)
I0105 22:23:18.668345 10836 net.cpp:113] Setting up inception_4c/relu_5x5_reduce
I0105 22:23:18.668633 10836 net.cpp:120] Top shape: 50 24 14 14 (235200)
I0105 22:23:18.668645 10836 layer_factory.hpp:74] Creating layer inception_4c/5x5
I0105 22:23:18.668658 10836 net.cpp:84] Creating Layer inception_4c/5x5
I0105 22:23:18.668664 10836 net.cpp:380] inception_4c/5x5 <- inception_4c/5x5_reduce
I0105 22:23:18.668675 10836 net.cpp:338] inception_4c/5x5 -> inception_4c/5x5
I0105 22:23:18.668686 10836 net.cpp:113] Setting up inception_4c/5x5
I0105 22:23:18.669667 10836 net.cpp:120] Top shape: 50 64 14 14 (627200)
I0105 22:23:18.669689 10836 layer_factory.hpp:74] Creating layer inception_4c/relu_5x5
I0105 22:23:18.669702 10836 net.cpp:84] Creating Layer inception_4c/relu_5x5
I0105 22:23:18.669709 10836 net.cpp:380] inception_4c/relu_5x5 <- inception_4c/5x5
I0105 22:23:18.669718 10836 net.cpp:327] inception_4c/relu_5x5 -> inception_4c/5x5 (in-place)
I0105 22:23:18.669734 10836 net.cpp:113] Setting up inception_4c/relu_5x5
I0105 22:23:18.669831 10836 net.cpp:120] Top shape: 50 64 14 14 (627200)
I0105 22:23:18.669839 10836 layer_factory.hpp:74] Creating layer inception_4c/pool
I0105 22:23:18.669847 10836 layer_factory.cpp:56] CUDNN does not support padding or multiple tops. Using Caffe's own pooling layer.
I0105 22:23:18.669855 10836 net.cpp:84] Creating Layer inception_4c/pool
I0105 22:23:18.669862 10836 net.cpp:380] inception_4c/pool <- inception_4b/output_inception_4b/output_0_split_3
I0105 22:23:18.669873 10836 net.cpp:338] inception_4c/pool -> inception_4c/pool
I0105 22:23:18.669885 10836 net.cpp:113] Setting up inception_4c/pool
I0105 22:23:18.669896 10836 net.cpp:120] Top shape: 50 512 14 14 (5017600)
I0105 22:23:18.669903 10836 layer_factory.hpp:74] Creating layer inception_4c/pool_proj
I0105 22:23:18.669915 10836 net.cpp:84] Creating Layer inception_4c/pool_proj
I0105 22:23:18.669921 10836 net.cpp:380] inception_4c/pool_proj <- inception_4c/pool
I0105 22:23:18.669930 10836 net.cpp:338] inception_4c/pool_proj -> inception_4c/pool_proj
I0105 22:23:18.669940 10836 net.cpp:113] Setting up inception_4c/pool_proj
I0105 22:23:18.670852 10836 net.cpp:120] Top shape: 50 64 14 14 (627200)
I0105 22:23:18.670871 10836 layer_factory.hpp:74] Creating layer inception_4c/relu_pool_proj
I0105 22:23:18.670881 10836 net.cpp:84] Creating Layer inception_4c/relu_pool_proj
I0105 22:23:18.670889 10836 net.cpp:380] inception_4c/relu_pool_proj <- inception_4c/pool_proj
I0105 22:23:18.670900 10836 net.cpp:327] inception_4c/relu_pool_proj -> inception_4c/pool_proj (in-place)
I0105 22:23:18.670910 10836 net.cpp:113] Setting up inception_4c/relu_pool_proj
I0105 22:23:18.670997 10836 net.cpp:120] Top shape: 50 64 14 14 (627200)
I0105 22:23:18.671007 10836 layer_factory.hpp:74] Creating layer inception_4c/output
I0105 22:23:18.671016 10836 net.cpp:84] Creating Layer inception_4c/output
I0105 22:23:18.671022 10836 net.cpp:380] inception_4c/output <- inception_4c/1x1
I0105 22:23:18.671031 10836 net.cpp:380] inception_4c/output <- inception_4c/3x3
I0105 22:23:18.671038 10836 net.cpp:380] inception_4c/output <- inception_4c/5x5
I0105 22:23:18.671046 10836 net.cpp:380] inception_4c/output <- inception_4c/pool_proj
I0105 22:23:18.671056 10836 net.cpp:338] inception_4c/output -> inception_4c/output
I0105 22:23:18.671066 10836 net.cpp:113] Setting up inception_4c/output
I0105 22:23:18.671075 10836 net.cpp:120] Top shape: 50 512 14 14 (5017600)
I0105 22:23:18.671082 10836 layer_factory.hpp:74] Creating layer inception_4c/output_inception_4c/output_0_split
I0105 22:23:18.671090 10836 net.cpp:84] Creating Layer inception_4c/output_inception_4c/output_0_split
I0105 22:23:18.671097 10836 net.cpp:380] inception_4c/output_inception_4c/output_0_split <- inception_4c/output
I0105 22:23:18.671104 10836 net.cpp:338] inception_4c/output_inception_4c/output_0_split -> inception_4c/output_inception_4c/output_0_split_0
I0105 22:23:18.671114 10836 net.cpp:338] inception_4c/output_inception_4c/output_0_split -> inception_4c/output_inception_4c/output_0_split_1
I0105 22:23:18.671131 10836 net.cpp:338] inception_4c/output_inception_4c/output_0_split -> inception_4c/output_inception_4c/output_0_split_2
I0105 22:23:18.671140 10836 net.cpp:338] inception_4c/output_inception_4c/output_0_split -> inception_4c/output_inception_4c/output_0_split_3
I0105 22:23:18.671149 10836 net.cpp:113] Setting up inception_4c/output_inception_4c/output_0_split
I0105 22:23:18.671159 10836 net.cpp:120] Top shape: 50 512 14 14 (5017600)
I0105 22:23:18.671166 10836 net.cpp:120] Top shape: 50 512 14 14 (5017600)
I0105 22:23:18.671174 10836 net.cpp:120] Top shape: 50 512 14 14 (5017600)
I0105 22:23:18.671181 10836 net.cpp:120] Top shape: 50 512 14 14 (5017600)
I0105 22:23:18.671187 10836 layer_factory.hpp:74] Creating layer inception_4d/1x1
I0105 22:23:18.671200 10836 net.cpp:84] Creating Layer inception_4d/1x1
I0105 22:23:18.671207 10836 net.cpp:380] inception_4d/1x1 <- inception_4c/output_inception_4c/output_0_split_0
I0105 22:23:18.671221 10836 net.cpp:338] inception_4d/1x1 -> inception_4d/1x1
I0105 22:23:18.671239 10836 net.cpp:113] Setting up inception_4d/1x1
I0105 22:23:18.672448 10836 net.cpp:120] Top shape: 50 112 14 14 (1097600)
I0105 22:23:18.672467 10836 layer_factory.hpp:74] Creating layer inception_4d/relu_1x1
I0105 22:23:18.672478 10836 net.cpp:84] Creating Layer inception_4d/relu_1x1
I0105 22:23:18.672485 10836 net.cpp:380] inception_4d/relu_1x1 <- inception_4d/1x1
I0105 22:23:18.672497 10836 net.cpp:327] inception_4d/relu_1x1 -> inception_4d/1x1 (in-place)
I0105 22:23:18.672505 10836 net.cpp:113] Setting up inception_4d/relu_1x1
I0105 22:23:18.672591 10836 net.cpp:120] Top shape: 50 112 14 14 (1097600)
I0105 22:23:18.672600 10836 layer_factory.hpp:74] Creating layer inception_4d/3x3_reduce
I0105 22:23:18.672611 10836 net.cpp:84] Creating Layer inception_4d/3x3_reduce
I0105 22:23:18.672618 10836 net.cpp:380] inception_4d/3x3_reduce <- inception_4c/output_inception_4c/output_0_split_1
I0105 22:23:18.672627 10836 net.cpp:338] inception_4d/3x3_reduce -> inception_4d/3x3_reduce
I0105 22:23:18.672638 10836 net.cpp:113] Setting up inception_4d/3x3_reduce
I0105 22:23:18.674069 10836 net.cpp:120] Top shape: 50 144 14 14 (1411200)
I0105 22:23:18.674090 10836 layer_factory.hpp:74] Creating layer inception_4d/relu_3x3_reduce
I0105 22:23:18.674103 10836 net.cpp:84] Creating Layer inception_4d/relu_3x3_reduce
I0105 22:23:18.674110 10836 net.cpp:380] inception_4d/relu_3x3_reduce <- inception_4d/3x3_reduce
I0105 22:23:18.674119 10836 net.cpp:327] inception_4d/relu_3x3_reduce -> inception_4d/3x3_reduce (in-place)
I0105 22:23:18.674129 10836 net.cpp:113] Setting up inception_4d/relu_3x3_reduce
I0105 22:23:18.674429 10836 net.cpp:120] Top shape: 50 144 14 14 (1411200)
I0105 22:23:18.674443 10836 layer_factory.hpp:74] Creating layer inception_4d/3x3
I0105 22:23:18.674456 10836 net.cpp:84] Creating Layer inception_4d/3x3
I0105 22:23:18.674463 10836 net.cpp:380] inception_4d/3x3 <- inception_4d/3x3_reduce
I0105 22:23:18.674474 10836 net.cpp:338] inception_4d/3x3 -> inception_4d/3x3
I0105 22:23:18.674484 10836 net.cpp:113] Setting up inception_4d/3x3
I0105 22:23:18.679759 10836 net.cpp:120] Top shape: 50 288 14 14 (2822400)
I0105 22:23:18.679781 10836 layer_factory.hpp:74] Creating layer inception_4d/relu_3x3
I0105 22:23:18.679795 10836 net.cpp:84] Creating Layer inception_4d/relu_3x3
I0105 22:23:18.679802 10836 net.cpp:380] inception_4d/relu_3x3 <- inception_4d/3x3
I0105 22:23:18.679811 10836 net.cpp:327] inception_4d/relu_3x3 -> inception_4d/3x3 (in-place)
I0105 22:23:18.679821 10836 net.cpp:113] Setting up inception_4d/relu_3x3
I0105 22:23:18.679909 10836 net.cpp:120] Top shape: 50 288 14 14 (2822400)
I0105 22:23:18.679918 10836 layer_factory.hpp:74] Creating layer inception_4d/5x5_reduce
I0105 22:23:18.679930 10836 net.cpp:84] Creating Layer inception_4d/5x5_reduce
I0105 22:23:18.679937 10836 net.cpp:380] inception_4d/5x5_reduce <- inception_4c/output_inception_4c/output_0_split_2
I0105 22:23:18.679949 10836 net.cpp:338] inception_4d/5x5_reduce -> inception_4d/5x5_reduce
I0105 22:23:18.679958 10836 net.cpp:113] Setting up inception_4d/5x5_reduce
I0105 22:23:18.680721 10836 net.cpp:120] Top shape: 50 32 14 14 (313600)
I0105 22:23:18.680739 10836 layer_factory.hpp:74] Creating layer inception_4d/relu_5x5_reduce
I0105 22:23:18.680752 10836 net.cpp:84] Creating Layer inception_4d/relu_5x5_reduce
I0105 22:23:18.680759 10836 net.cpp:380] inception_4d/relu_5x5_reduce <- inception_4d/5x5_reduce
I0105 22:23:18.680768 10836 net.cpp:327] inception_4d/relu_5x5_reduce -> inception_4d/5x5_reduce (in-place)
I0105 22:23:18.680778 10836 net.cpp:113] Setting up inception_4d/relu_5x5_reduce
I0105 22:23:18.680869 10836 net.cpp:120] Top shape: 50 32 14 14 (313600)
I0105 22:23:18.680878 10836 layer_factory.hpp:74] Creating layer inception_4d/5x5
I0105 22:23:18.680892 10836 net.cpp:84] Creating Layer inception_4d/5x5
I0105 22:23:18.680899 10836 net.cpp:380] inception_4d/5x5 <- inception_4d/5x5_reduce
I0105 22:23:18.680908 10836 net.cpp:338] inception_4d/5x5 -> inception_4d/5x5
I0105 22:23:18.680927 10836 net.cpp:113] Setting up inception_4d/5x5
I0105 22:23:18.682101 10836 net.cpp:120] Top shape: 50 64 14 14 (627200)
I0105 22:23:18.682122 10836 layer_factory.hpp:74] Creating layer inception_4d/relu_5x5
I0105 22:23:18.682134 10836 net.cpp:84] Creating Layer inception_4d/relu_5x5
I0105 22:23:18.682142 10836 net.cpp:380] inception_4d/relu_5x5 <- inception_4d/5x5
I0105 22:23:18.682152 10836 net.cpp:327] inception_4d/relu_5x5 -> inception_4d/5x5 (in-place)
I0105 22:23:18.682162 10836 net.cpp:113] Setting up inception_4d/relu_5x5
I0105 22:23:18.682255 10836 net.cpp:120] Top shape: 50 64 14 14 (627200)
I0105 22:23:18.682262 10836 layer_factory.hpp:74] Creating layer inception_4d/pool
I0105 22:23:18.682271 10836 layer_factory.cpp:56] CUDNN does not support padding or multiple tops. Using Caffe's own pooling layer.
I0105 22:23:18.682278 10836 net.cpp:84] Creating Layer inception_4d/pool
I0105 22:23:18.682286 10836 net.cpp:380] inception_4d/pool <- inception_4c/output_inception_4c/output_0_split_3
I0105 22:23:18.682297 10836 net.cpp:338] inception_4d/pool -> inception_4d/pool
I0105 22:23:18.682307 10836 net.cpp:113] Setting up inception_4d/pool
I0105 22:23:18.682319 10836 net.cpp:120] Top shape: 50 512 14 14 (5017600)
I0105 22:23:18.682327 10836 layer_factory.hpp:74] Creating layer inception_4d/pool_proj
I0105 22:23:18.682339 10836 net.cpp:84] Creating Layer inception_4d/pool_proj
I0105 22:23:18.682346 10836 net.cpp:380] inception_4d/pool_proj <- inception_4d/pool
I0105 22:23:18.682356 10836 net.cpp:338] inception_4d/pool_proj -> inception_4d/pool_proj
I0105 22:23:18.682366 10836 net.cpp:113] Setting up inception_4d/pool_proj
I0105 22:23:18.683274 10836 net.cpp:120] Top shape: 50 64 14 14 (627200)
I0105 22:23:18.683296 10836 layer_factory.hpp:74] Creating layer inception_4d/relu_pool_proj
I0105 22:23:18.683307 10836 net.cpp:84] Creating Layer inception_4d/relu_pool_proj
I0105 22:23:18.683315 10836 net.cpp:380] inception_4d/relu_pool_proj <- inception_4d/pool_proj
I0105 22:23:18.683326 10836 net.cpp:327] inception_4d/relu_pool_proj -> inception_4d/pool_proj (in-place)
I0105 22:23:18.683336 10836 net.cpp:113] Setting up inception_4d/relu_pool_proj
I0105 22:23:18.683641 10836 net.cpp:120] Top shape: 50 64 14 14 (627200)
I0105 22:23:18.683655 10836 layer_factory.hpp:74] Creating layer inception_4d/output
I0105 22:23:18.683665 10836 net.cpp:84] Creating Layer inception_4d/output
I0105 22:23:18.683671 10836 net.cpp:380] inception_4d/output <- inception_4d/1x1
I0105 22:23:18.683681 10836 net.cpp:380] inception_4d/output <- inception_4d/3x3
I0105 22:23:18.683687 10836 net.cpp:380] inception_4d/output <- inception_4d/5x5
I0105 22:23:18.683696 10836 net.cpp:380] inception_4d/output <- inception_4d/pool_proj
I0105 22:23:18.683704 10836 net.cpp:338] inception_4d/output -> inception_4d/output
I0105 22:23:18.683714 10836 net.cpp:113] Setting up inception_4d/output
I0105 22:23:18.683724 10836 net.cpp:120] Top shape: 50 528 14 14 (5174400)
I0105 22:23:18.683732 10836 layer_factory.hpp:74] Creating layer inception_4d/output_inception_4d/output_0_split
I0105 22:23:18.683742 10836 net.cpp:84] Creating Layer inception_4d/output_inception_4d/output_0_split
I0105 22:23:18.683748 10836 net.cpp:380] inception_4d/output_inception_4d/output_0_split <- inception_4d/output
I0105 22:23:18.683758 10836 net.cpp:338] inception_4d/output_inception_4d/output_0_split -> inception_4d/output_inception_4d/output_0_split_0
I0105 22:23:18.683768 10836 net.cpp:338] inception_4d/output_inception_4d/output_0_split -> inception_4d/output_inception_4d/output_0_split_1
I0105 22:23:18.683779 10836 net.cpp:338] inception_4d/output_inception_4d/output_0_split -> inception_4d/output_inception_4d/output_0_split_2
I0105 22:23:18.683789 10836 net.cpp:338] inception_4d/output_inception_4d/output_0_split -> inception_4d/output_inception_4d/output_0_split_3
I0105 22:23:18.683796 10836 net.cpp:338] inception_4d/output_inception_4d/output_0_split -> inception_4d/output_inception_4d/output_0_split_4
I0105 22:23:18.683807 10836 net.cpp:113] Setting up inception_4d/output_inception_4d/output_0_split
I0105 22:23:18.683833 10836 net.cpp:120] Top shape: 50 528 14 14 (5174400)
I0105 22:23:18.683841 10836 net.cpp:120] Top shape: 50 528 14 14 (5174400)
I0105 22:23:18.683850 10836 net.cpp:120] Top shape: 50 528 14 14 (5174400)
I0105 22:23:18.683857 10836 net.cpp:120] Top shape: 50 528 14 14 (5174400)
I0105 22:23:18.683864 10836 net.cpp:120] Top shape: 50 528 14 14 (5174400)
I0105 22:23:18.683871 10836 layer_factory.hpp:74] Creating layer loss2/ave_pool
I0105 22:23:18.683879 10836 net.cpp:84] Creating Layer loss2/ave_pool
I0105 22:23:18.683887 10836 net.cpp:380] loss2/ave_pool <- inception_4d/output_inception_4d/output_0_split_0
I0105 22:23:18.683897 10836 net.cpp:338] loss2/ave_pool -> loss2/ave_pool
I0105 22:23:18.683905 10836 net.cpp:113] Setting up loss2/ave_pool
I0105 22:23:18.683998 10836 net.cpp:120] Top shape: 50 528 4 4 (422400)
I0105 22:23:18.684007 10836 layer_factory.hpp:74] Creating layer loss2/conv
I0105 22:23:18.684020 10836 net.cpp:84] Creating Layer loss2/conv
I0105 22:23:18.684026 10836 net.cpp:380] loss2/conv <- loss2/ave_pool
I0105 22:23:18.684037 10836 net.cpp:338] loss2/conv -> loss2/conv
I0105 22:23:18.684048 10836 net.cpp:113] Setting up loss2/conv
I0105 22:23:18.685354 10836 net.cpp:120] Top shape: 50 128 4 4 (102400)
I0105 22:23:18.685374 10836 layer_factory.hpp:74] Creating layer loss2/relu_conv
I0105 22:23:18.685387 10836 net.cpp:84] Creating Layer loss2/relu_conv
I0105 22:23:18.685395 10836 net.cpp:380] loss2/relu_conv <- loss2/conv
I0105 22:23:18.685405 10836 net.cpp:327] loss2/relu_conv -> loss2/conv (in-place)
I0105 22:23:18.685413 10836 net.cpp:113] Setting up loss2/relu_conv
I0105 22:23:18.685497 10836 net.cpp:120] Top shape: 50 128 4 4 (102400)
I0105 22:23:18.685504 10836 layer_factory.hpp:74] Creating layer loss2/fc
I0105 22:23:18.685519 10836 net.cpp:84] Creating Layer loss2/fc
I0105 22:23:18.685525 10836 net.cpp:380] loss2/fc <- loss2/conv
I0105 22:23:18.685534 10836 net.cpp:338] loss2/fc -> loss2/fc
I0105 22:23:18.685547 10836 net.cpp:113] Setting up loss2/fc
I0105 22:23:18.835417 10836 net.cpp:120] Top shape: 50 1024 (51200)
I0105 22:23:18.835467 10836 layer_factory.hpp:74] Creating layer loss2/relu_fc
I0105 22:23:18.835481 10836 net.cpp:84] Creating Layer loss2/relu_fc
I0105 22:23:18.835491 10836 net.cpp:380] loss2/relu_fc <- loss2/fc
I0105 22:23:18.835506 10836 net.cpp:327] loss2/relu_fc -> loss2/fc (in-place)
I0105 22:23:18.835518 10836 net.cpp:113] Setting up loss2/relu_fc
I0105 22:23:18.835674 10836 net.cpp:120] Top shape: 50 1024 (51200)
I0105 22:23:18.835682 10836 layer_factory.hpp:74] Creating layer loss2/drop_fc
I0105 22:23:18.835696 10836 net.cpp:84] Creating Layer loss2/drop_fc
I0105 22:23:18.835703 10836 net.cpp:380] loss2/drop_fc <- loss2/fc
I0105 22:23:18.835711 10836 net.cpp:327] loss2/drop_fc -> loss2/fc (in-place)
I0105 22:23:18.835721 10836 net.cpp:113] Setting up loss2/drop_fc
I0105 22:23:18.835731 10836 net.cpp:120] Top shape: 50 1024 (51200)
I0105 22:23:18.835737 10836 layer_factory.hpp:74] Creating layer loss2/classifier_kaggle
I0105 22:23:18.835752 10836 net.cpp:84] Creating Layer loss2/classifier_kaggle
I0105 22:23:18.835757 10836 net.cpp:380] loss2/classifier_kaggle <- loss2/fc
I0105 22:23:18.835767 10836 net.cpp:338] loss2/classifier_kaggle -> loss2/classifier_kaggle
I0105 22:23:18.835779 10836 net.cpp:113] Setting up loss2/classifier_kaggle
I0105 22:23:18.841285 10836 net.cpp:120] Top shape: 50 447 (22350)
I0105 22:23:18.841305 10836 layer_factory.hpp:74] Creating layer loss2/classifier_kaggle_loss2/classifier_kaggle_0_split
I0105 22:23:18.841317 10836 net.cpp:84] Creating Layer loss2/classifier_kaggle_loss2/classifier_kaggle_0_split
I0105 22:23:18.841325 10836 net.cpp:380] loss2/classifier_kaggle_loss2/classifier_kaggle_0_split <- loss2/classifier_kaggle
I0105 22:23:18.841336 10836 net.cpp:338] loss2/classifier_kaggle_loss2/classifier_kaggle_0_split -> loss2/classifier_kaggle_loss2/classifier_kaggle_0_split_0
I0105 22:23:18.841347 10836 net.cpp:338] loss2/classifier_kaggle_loss2/classifier_kaggle_0_split -> loss2/classifier_kaggle_loss2/classifier_kaggle_0_split_1
I0105 22:23:18.841387 10836 net.cpp:338] loss2/classifier_kaggle_loss2/classifier_kaggle_0_split -> loss2/classifier_kaggle_loss2/classifier_kaggle_0_split_2
I0105 22:23:18.841397 10836 net.cpp:113] Setting up loss2/classifier_kaggle_loss2/classifier_kaggle_0_split
I0105 22:23:18.841408 10836 net.cpp:120] Top shape: 50 447 (22350)
I0105 22:23:18.841415 10836 net.cpp:120] Top shape: 50 447 (22350)
I0105 22:23:18.841423 10836 net.cpp:120] Top shape: 50 447 (22350)
I0105 22:23:18.841429 10836 layer_factory.hpp:74] Creating layer loss2/loss
I0105 22:23:18.841441 10836 net.cpp:84] Creating Layer loss2/loss
I0105 22:23:18.841449 10836 net.cpp:380] loss2/loss <- loss2/classifier_kaggle_loss2/classifier_kaggle_0_split_0
I0105 22:23:18.841459 10836 net.cpp:380] loss2/loss <- label_data_1_split_3
I0105 22:23:18.841467 10836 net.cpp:338] loss2/loss -> loss2/loss1
…
I0105 22:23:18.842172 10836 net.cpp:338] loss2/top-5 -> loss2/top-5
I0105 22:23:18.842181 10836 net.cpp:113] Setting up loss2/top-5
I0105 22:23:18.842190 10836 net.cpp:120] Top shape: (1)
I0105 22:23:18.842196 10836 layer_factory.hpp:74] Creating layer inception_4e/1x1
I0105 22:23:18.842211 10836 net.cpp:84] Creating Layer inception_4e/1x1
I0105 22:23:18.842218 10836 net.cpp:380] inception_4e/1x1 <- inception_4d/output_inception_4d/output_0_split_1
I0105 22:23:18.842231 10836 net.cpp:338] inception_4e/1x1 -> inception_4e/1x1
I0105 22:23:18.842242 10836 net.cpp:113] Setting up inception_4e/1x1
I0105 22:23:18.844601 10836 net.cpp:120] Top shape: 50 256 14 14 (2508800)
I0105 22:23:18.844647 10836 layer_factory.hpp:74] Creating layer inception_4e/relu_1x1
I0105 22:23:18.844662 10836 net.cpp:84] Creating Layer inception_4e/relu_1x1
I0105 22:23:18.844671 10836 net.cpp:380] inception_4e/relu_1x1 <- inception_4e/1x1
I0105 22:23:18.844681 10836 net.cpp:327] inception_4e/relu_1x1 -> inception_4e/1x1 (in-place)
I0105 22:23:18.844692 10836 net.cpp:113] Setting up inception_4e/relu_1x1
I0105 22:23:18.844785 10836 net.cpp:120] Top shape: 50 256 14 14 (2508800)
I0105 22:23:18.844794 10836 layer_factory.hpp:74] Creating layer inception_4e/3x3_reduce
I0105 22:23:18.844836 10836 net.cpp:84] Creating Layer inception_4e/3x3_reduce
I0105 22:23:18.844844 10836 net.cpp:380] inception_4e/3x3_reduce <- inception_4d/output_inception_4d/output_0_split_2
I0105 22:23:18.844856 10836 net.cpp:338] inception_4e/3x3_reduce -> inception_4e/3x3_reduce
I0105 22:23:18.844868 10836 net.cpp:113] Setting up inception_4e/3x3_reduce
I0105 22:23:18.846652 10836 net.cpp:120] Top shape: 50 160 14 14 (1568000)
I0105 22:23:18.846700 10836 layer_factory.hpp:74] Creating layer inception_4e/relu_3x3_reduce
I0105 22:23:18.846719 10836 net.cpp:84] Creating Layer inception_4e/relu_3x3_reduce
I0105 22:23:18.846727 10836 net.cpp:380] inception_4e/relu_3x3_reduce <- inception_4e/3x3_reduce
I0105 22:23:18.846737 10836 net.cpp:327] inception_4e/relu_3x3_reduce -> inception_4e/3x3_reduce (in-place)
I0105 22:23:18.846763 10836 net.cpp:113] Setting up inception_4e/relu_3x3_reduce
I0105 22:23:18.846868 10836 net.cpp:120] Top shape: 50 160 14 14 (1568000)
I0105 22:23:18.846878 10836 layer_factory.hpp:74] Creating layer inception_4e/3x3
I0105 22:23:18.846891 10836 net.cpp:84] Creating Layer inception_4e/3x3
I0105 22:23:18.846899 10836 net.cpp:380] inception_4e/3x3 <- inception_4e/3x3_reduce
I0105 22:23:18.846910 10836 net.cpp:338] inception_4e/3x3 -> inception_4e/3x3
I0105 22:23:18.846921 10836 net.cpp:113] Setting up inception_4e/3x3
I0105 22:23:18.853644 10836 net.cpp:120] Top shape: 50 320 14 14 (3136000)
I0105 22:23:18.853703 10836 layer_factory.hpp:74] Creating layer inception_4e/relu_3x3
I0105 22:23:18.853719 10836 net.cpp:84] Creating Layer inception_4e/relu_3x3
I0105 22:23:18.853729 10836 net.cpp:380] inception_4e/relu_3x3 <- inception_4e/3x3
I0105 22:23:18.853740 10836 net.cpp:327] inception_4e/relu_3x3 -> inception_4e/3x3 (in-place)
I0105 22:23:18.853754 10836 net.cpp:113] Setting up inception_4e/relu_3x3
I0105 22:23:18.854133 10836 net.cpp:120] Top shape: 50 320 14 14 (3136000)
I0105 22:23:18.854149 10836 layer_factory.hpp:74] Creating layer inception_4e/5x5_reduce
I0105 22:23:18.854163 10836 net.cpp:84] Creating Layer inception_4e/5x5_reduce
I0105 22:23:18.854172 10836 net.cpp:380] inception_4e/5x5_reduce <- inception_4d/output_inception_4d/output_0_split_3
I0105 22:23:18.854183 10836 net.cpp:338] inception_4e/5x5_reduce -> inception_4e/5x5_reduce
I0105 22:23:18.854197 10836 net.cpp:113] Setting up inception_4e/5x5_reduce
I0105 22:23:18.854974 10836 net.cpp:120] Top shape: 50 32 14 14 (313600)
I0105 22:23:18.854996 10836 layer_factory.hpp:74] Creating layer inception_4e/relu_5x5_reduce
I0105 22:23:18.855010 10836 net.cpp:84] Creating Layer inception_4e/relu_5x5_reduce
I0105 22:23:18.855017 10836 net.cpp:380] inception_4e/relu_5x5_reduce <- inception_4e/5x5_reduce
I0105 22:23:18.855026 10836 net.cpp:327] inception_4e/relu_5x5_reduce -> inception_4e/5x5_reduce (in-place)
I0105 22:23:18.855036 10836 net.cpp:113] Setting up inception_4e/relu_5x5_reduce
I0105 22:23:18.855130 10836 net.cpp:120] Top shape: 50 32 14 14 (313600)
I0105 22:23:18.855141 10836 layer_factory.hpp:74] Creating layer inception_4e/5x5
I0105 22:23:18.855154 10836 net.cpp:84] Creating Layer inception_4e/5x5
I0105 22:23:18.855161 10836 net.cpp:380] inception_4e/5x5 <- inception_4e/5x5_reduce
I0105 22:23:18.855170 10836 net.cpp:338] inception_4e/5x5 -> inception_4e/5x5
I0105 22:23:18.855183 10836 net.cpp:113] Setting up inception_4e/5x5
I0105 22:23:18.857029 10836 net.cpp:120] Top shape: 50 128 14 14 (1254400)
I0105 22:23:18.857060 10836 layer_factory.hpp:74] Creating layer inception_4e/relu_5x5
I0105 22:23:18.857071 10836 net.cpp:84] Creating Layer inception_4e/relu_5x5
I0105 22:23:18.857079 10836 net.cpp:380] inception_4e/relu_5x5 <- inception_4e/5x5
I0105 22:23:18.857091 10836 net.cpp:327] inception_4e/relu_5x5 -> inception_4e/5x5 (in-place)
I0105 22:23:18.857101 10836 net.cpp:113] Setting up inception_4e/relu_5x5
I0105 22:23:18.857198 10836 net.cpp:120] Top shape: 50 128 14 14 (1254400)
I0105 22:23:18.857208 10836 layer_factory.hpp:74] Creating layer inception_4e/pool
I0105 22:23:18.857216 10836 layer_factory.cpp:56] CUDNN does not support padding or multiple tops. Using Caffe's own pooling layer.
I0105 22:23:18.857228 10836 net.cpp:84] Creating Layer inception_4e/pool
I0105 22:23:18.857236 10836 net.cpp:380] inception_4e/pool <- inception_4d/output_inception_4d/output_0_split_4
I0105 22:23:18.857246 10836 net.cpp:338] inception_4e/pool -> inception_4e/pool
I0105 22:23:18.857257 10836 net.cpp:113] Setting up inception_4e/pool
I0105 22:23:18.857270 10836 net.cpp:120] Top shape: 50 528 14 14 (5174400)
I0105 22:23:18.857277 10836 layer_factory.hpp:74] Creating layer inception_4e/pool_proj
I0105 22:23:18.857291 10836 net.cpp:84] Creating Layer inception_4e/pool_proj
I0105 22:23:18.857300 10836 net.cpp:380] inception_4e/pool_proj <- inception_4e/pool
I0105 22:23:18.857308 10836 net.cpp:338] inception_4e/pool_proj -> inception_4e/pool_proj
I0105 22:23:18.857334 10836 net.cpp:113] Setting up inception_4e/pool_proj
I0105 22:23:18.859021 10836 net.cpp:120] Top shape: 50 128 14 14 (1254400)
I0105 22:23:18.859063 10836 layer_factory.hpp:74] Creating layer inception_4e/relu_pool_proj
I0105 22:23:18.859077 10836 net.cpp:84] Creating Layer inception_4e/relu_pool_proj
I0105 22:23:18.859086 10836 net.cpp:380] inception_4e/relu_pool_proj <- inception_4e/pool_proj
I0105 22:23:18.859096 10836 net.cpp:327] inception_4e/relu_pool_proj -> inception_4e/pool_proj (in-place)
I0105 22:23:18.859107 10836 net.cpp:113] Setting up inception_4e/relu_pool_proj
I0105 22:23:18.859194 10836 net.cpp:120] Top shape: 50 128 14 14 (1254400)
I0105 22:23:18.859201 10836 layer_factory.hpp:74] Creating layer inception_4e/output
I0105 22:23:18.859213 10836 net.cpp:84] Creating Layer inception_4e/output
I0105 22:23:18.859220 10836 net.cpp:380] inception_4e/output <- inception_4e/1x1
I0105 22:23:18.859228 10836 net.cpp:380] inception_4e/output <- inception_4e/3x3
I0105 22:23:18.859236 10836 net.cpp:380] inception_4e/output <- inception_4e/5x5
I0105 22:23:18.859243 10836 net.cpp:380] inception_4e/output <- inception_4e/pool_proj
I0105 22:23:18.859252 10836 net.cpp:338] inception_4e/output -> inception_4e/output
I0105 22:23:18.859262 10836 net.cpp:113] Setting up inception_4e/output
I0105 22:23:18.859274 10836 net.cpp:120] Top shape: 50 832 14 14 (8153600)
I0105 22:23:18.859280 10836 layer_factory.hpp:74] Creating layer pool4/3x3_s2
I0105 22:23:18.859290 10836 net.cpp:84] Creating Layer pool4/3x3_s2
I0105 22:23:18.859297 10836 net.cpp:380] pool4/3x3_s2 <- inception_4e/output
I0105 22:23:18.859311 10836 net.cpp:338] pool4/3x3_s2 -> pool4/3x3_s2
I0105 22:23:18.859323 10836 net.cpp:113] Setting up pool4/3x3_s2
I0105 22:23:18.861089 10836 net.cpp:120] Top shape: 50 832 7 7 (2038400)
I0105 22:23:18.861126 10836 layer_factory.hpp:74] Creating layer pool4/3x3_s2_pool4/3x3_s2_0_split
I0105 22:23:18.861141 10836 net.cpp:84] Creating Layer pool4/3x3_s2_pool4/3x3_s2_0_split
I0105 22:23:18.861150 10836 net.cpp:380] pool4/3x3_s2_pool4/3x3_s2_0_split <- pool4/3x3_s2
I0105 22:23:18.861162 10836 net.cpp:338] pool4/3x3_s2_pool4/3x3_s2_0_split -> pool4/3x3_s2_pool4/3x3_s2_0_split_0
I0105 22:23:18.861176 10836 net.cpp:338] pool4/3x3_s2_pool4/3x3_s2_0_split -> pool4/3x3_s2_pool4/3x3_s2_0_split_1
I0105 22:23:18.861191 10836 net.cpp:338] pool4/3x3_s2_pool4/3x3_s2_0_split -> pool4/3x3_s2_pool4/3x3_s2_0_split_2
I0105 22:23:18.861228 10836 net.cpp:338] pool4/3x3_s2_pool4/3x3_s2_0_split -> pool4/3x3_s2_pool4/3x3_s2_0_split_3
I0105 22:23:18.861239 10836 net.cpp:113] Setting up pool4/3x3_s2_pool4/3x3_s2_0_split
I0105 22:23:18.861250 10836 net.cpp:120] Top shape: 50 832 7 7 (2038400)
I0105 22:23:18.861258 10836 net.cpp:120] Top shape: 50 832 7 7 (2038400)
I0105 22:23:18.861266 10836 net.cpp:120] Top shape: 50 832 7 7 (2038400)
I0105 22:23:18.861274 10836 net.cpp:120] Top shape: 50 832 7 7 (2038400)
I0105 22:23:18.861280 10836 layer_factory.hpp:74] Creating layer inception_5a/1x1
I0105 22:23:18.861294 10836 net.cpp:84] Creating Layer inception_5a/1x1
I0105 22:23:18.861300 10836 net.cpp:380] inception_5a/1x1 <- pool4/3x3_s2_pool4/3x3_s2_0_split_0
I0105 22:23:18.861311 10836 net.cpp:338] inception_5a/1x1 -> inception_5a/1x1
I0105 22:23:18.861323 10836 net.cpp:113] Setting up inception_5a/1x1
I0105 22:23:18.864632 10836 net.cpp:120] Top shape: 50 256 7 7 (627200)
I0105 22:23:18.864673 10836 layer_factory.hpp:74] Creating layer inception_5a/relu_1x1
I0105 22:23:18.864686 10836 net.cpp:84] Creating Layer inception_5a/relu_1x1
I0105 22:23:18.864694 10836 net.cpp:380] inception_5a/relu_1x1 <- inception_5a/1x1
I0105 22:23:18.864703 10836 net.cpp:327] inception_5a/relu_1x1 -> inception_5a/1x1 (in-place)
I0105 22:23:18.864713 10836 net.cpp:113] Setting up inception_5a/relu_1x1
I0105 22:23:18.864800 10836 net.cpp:120] Top shape: 50 256 7 7 (627200)
I0105 22:23:18.864809 10836 layer_factory.hpp:74] Creating layer inception_5a/3x3_reduce
I0105 22:23:18.864820 10836 net.cpp:84] Creating Layer inception_5a/3x3_reduce
I0105 22:23:18.864845 10836 net.cpp:380] inception_5a/3x3_reduce <- pool4/3x3_s2_pool4/3x3_s2_0_split_1
I0105 22:23:18.864867 10836 net.cpp:338] inception_5a/3x3_reduce -> inception_5a/3x3_reduce
I0105 22:23:18.864879 10836 net.cpp:113] Setting up inception_5a/3x3_reduce
I0105 22:23:18.867368 10836 net.cpp:120] Top shape: 50 160 7 7 (392000)
I0105 22:23:18.867396 10836 layer_factory.hpp:74] Creating layer inception_5a/relu_3x3_reduce
I0105 22:23:18.867410 10836 net.cpp:84] Creating Layer inception_5a/relu_3x3_reduce
I0105 22:23:18.867419 10836 net.cpp:380] inception_5a/relu_3x3_reduce <- inception_5a/3x3_reduce
I0105 22:23:18.867427 10836 net.cpp:327] inception_5a/relu_3x3_reduce -> inception_5a/3x3_reduce (in-place)
I0105 22:23:18.867437 10836 net.cpp:113] Setting up inception_5a/relu_3x3_reduce
I0105 22:23:18.867534 10836 net.cpp:120] Top shape: 50 160 7 7 (392000)
I0105 22:23:18.867544 10836 layer_factory.hpp:74] Creating layer inception_5a/3x3
I0105 22:23:18.867559 10836 net.cpp:84] Creating Layer inception_5a/3x3
I0105 22:23:18.867566 10836 net.cpp:380] inception_5a/3x3 <- inception_5a/3x3_reduce
I0105 22:23:18.867575 10836 net.cpp:338] inception_5a/3x3 -> inception_5a/3x3
I0105 22:23:18.867585 10836 net.cpp:113] Setting up inception_5a/3x3
I0105 22:23:18.873807 10836 net.cpp:120] Top shape: 50 320 7 7 (784000)
I0105 22:23:18.873833 10836 layer_factory.hpp:74] Creating layer inception_5a/relu_3x3
I0105 22:23:18.873843 10836 net.cpp:84] Creating Layer inception_5a/relu_3x3
I0105 22:23:18.873853 10836 net.cpp:380] inception_5a/relu_3x3 <- inception_5a/3x3
I0105 22:23:18.873862 10836 net.cpp:327] inception_5a/relu_3x3 -> inception_5a/3x3 (in-place)
I0105 22:23:18.873872 10836 net.cpp:113] Setting up inception_5a/relu_3x3
I0105 22:23:18.873957 10836 net.cpp:120] Top shape: 50 320 7 7 (784000)
I0105 22:23:18.873965 10836 layer_factory.hpp:74] Creating layer inception_5a/5x5_reduce
I0105 22:23:18.873980 10836 net.cpp:84] Creating Layer inception_5a/5x5_reduce
I0105 22:23:18.873987 10836 net.cpp:380] inception_5a/5x5_reduce <- pool4/3x3_s2_pool4/3x3_s2_0_split_2
I0105 22:23:18.873996 10836 net.cpp:338] inception_5a/5x5_reduce -> inception_5a/5x5_reduce
I0105 22:23:18.874007 10836 net.cpp:113] Setting up inception_5a/5x5_reduce
I0105 22:23:18.874845 10836 net.cpp:120] Top shape: 50 32 7 7 (78400)
I0105 22:23:18.874862 10836 layer_factory.hpp:74] Creating layer inception_5a/relu_5x5_reduce
I0105 22:23:18.874874 10836 net.cpp:84] Creating Layer inception_5a/relu_5x5_reduce
I0105 22:23:18.874881 10836 net.cpp:380] inception_5a/relu_5x5_reduce <- inception_5a/5x5_reduce
I0105 22:23:18.874891 10836 net.cpp:327] inception_5a/relu_5x5_reduce -> inception_5a/5x5_reduce (in-place)
I0105 22:23:18.874899 10836 net.cpp:113] Setting up inception_5a/relu_5x5_reduce
I0105 22:23:18.875193 10836 net.cpp:120] Top shape: 50 32 7 7 (78400)
I0105 22:23:18.875224 10836 layer_factory.hpp:74] Creating layer inception_5a/5x5
I0105 22:23:18.875238 10836 net.cpp:84] Creating Layer inception_5a/5x5
I0105 22:23:18.875244 10836 net.cpp:380] inception_5a/5x5 <- inception_5a/5x5_reduce
I0105 22:23:18.875264 10836 net.cpp:338] inception_5a/5x5 -> inception_5a/5x5
I0105 22:23:18.875275 10836 net.cpp:113] Setting up inception_5a/5x5
I0105 22:23:18.877038 10836 net.cpp:120] Top shape: 50 128 7 7 (313600)
I0105 22:23:18.877058 10836 layer_factory.hpp:74] Creating layer inception_5a/relu_5x5
I0105 22:23:18.877115 10836 net.cpp:84] Creating Layer inception_5a/relu_5x5
I0105 22:23:18.877122 10836 net.cpp:380] inception_5a/relu_5x5 <- inception_5a/5x5
I0105 22:23:18.877130 10836 net.cpp:327] inception_5a/relu_5x5 -> inception_5a/5x5 (in-place)
I0105 22:23:18.877140 10836 net.cpp:113] Setting up inception_5a/relu_5x5
I0105 22:23:18.877233 10836 net.cpp:120] Top shape: 50 128 7 7 (313600)
I0105 22:23:18.877241 10836 layer_factory.hpp:74] Creating layer inception_5a/pool
I0105 22:23:18.877249 10836 layer_factory.cpp:56] CUDNN does not support padding or multiple tops. Using Caffe's own pooling layer.
I0105 22:23:18.877260 10836 net.cpp:84] Creating Layer inception_5a/pool
I0105 22:23:18.877280 10836 net.cpp:380] inception_5a/pool <- pool4/3x3_s2_pool4/3x3_s2_0_split_3
I0105 22:23:18.877301 10836 net.cpp:338] inception_5a/pool -> inception_5a/pool
I0105 22:23:18.877312 10836 net.cpp:113] Setting up inception_5a/pool
I0105 22:23:18.877327 10836 net.cpp:120] Top shape: 50 832 7 7 (2038400)
I0105 22:23:18.877333 10836 layer_factory.hpp:74] Creating layer inception_5a/pool_proj
I0105 22:23:18.877344 10836 net.cpp:84] Creating Layer inception_5a/pool_proj
I0105 22:23:18.877351 10836 net.cpp:380] inception_5a/pool_proj <- inception_5a/pool
I0105 22:23:18.877365 10836 net.cpp:338] inception_5a/pool_proj -> inception_5a/pool_proj
I0105 22:23:18.877377 10836 net.cpp:113] Setting up inception_5a/pool_proj
I0105 22:23:18.879166 10836 net.cpp:120] Top shape: 50 128 7 7 (313600)
I0105 22:23:18.879185 10836 layer_factory.hpp:74] Creating layer inception_5a/relu_pool_proj
I0105 22:23:18.879196 10836 net.cpp:84] Creating Layer inception_5a/relu_pool_proj
I0105 22:23:18.879204 10836 net.cpp:380] inception_5a/relu_pool_proj <- inception_5a/pool_proj
I0105 22:23:18.879214 10836 net.cpp:327] inception_5a/relu_pool_proj -> inception_5a/pool_proj (in-place)
I0105 22:23:18.879222 10836 net.cpp:113] Setting up inception_5a/relu_pool_proj
I0105 22:23:18.879312 10836 net.cpp:120] Top shape: 50 128 7 7 (313600)
I0105 22:23:18.879320 10836 layer_factory.hpp:74] Creating layer inception_5a/output
I0105 22:23:18.879333 10836 net.cpp:84] Creating Layer inception_5a/output
I0105 22:23:18.879339 10836 net.cpp:380] inception_5a/output <- inception_5a/1x1
I0105 22:23:18.879348 10836 net.cpp:380] inception_5a/output <- inception_5a/3x3
I0105 22:23:18.879355 10836 net.cpp:380] inception_5a/output <- inception_5a/5x5
I0105 22:23:18.879361 10836 net.cpp:380] inception_5a/output <- inception_5a/pool_proj
I0105 22:23:18.879369 10836 net.cpp:338] inception_5a/output -> inception_5a/output
I0105 22:23:18.879379 10836 net.cpp:113] Setting up inception_5a/output
I0105 22:23:18.879390 10836 net.cpp:120] Top shape: 50 832 7 7 (2038400)
I0105 22:23:18.879396 10836 layer_factory.hpp:74] Creating layer inception_5a/output_inception_5a/output_0_split
I0105 22:23:18.879405 10836 net.cpp:84] Creating Layer inception_5a/output_inception_5a/output_0_split
I0105 22:23:18.879411 10836 net.cpp:380] inception_5a/output_inception_5a/output_0_split <- inception_5a/output
I0105 22:23:18.879421 10836 net.cpp:338] inception_5a/output_inception_5a/output_0_split -> inception_5a/output_inception_5a/output_0_split_0
I0105 22:23:18.879431 10836 net.cpp:338] inception_5a/output_inception_5a/output_0_split -> inception_5a/output_inception_5a/output_0_split_1
I0105 22:23:18.879441 10836 net.cpp:338] inception_5a/output_inception_5a/output_0_split -> inception_5a/output_inception_5a/output_0_split_2
I0105 22:23:18.879449 10836 net.cpp:338] inception_5a/output_inception_5a/output_0_split -> inception_5a/output_inception_5a/output_0_split_3
I0105 22:23:18.879457 10836 net.cpp:113] Setting up inception_5a/output_inception_5a/output_0_split
I0105 22:23:18.879467 10836 net.cpp:120] Top shape: 50 832 7 7 (2038400)
I0105 22:23:18.879474 10836 net.cpp:120] Top shape: 50 832 7 7 (2038400)
I0105 22:23:18.879482 10836 net.cpp:120] Top shape: 50 832 7 7 (2038400)
I0105 22:23:18.879488 10836 net.cpp:120] Top shape: 50 832 7 7 (2038400)
I0105 22:23:18.879494 10836 layer_factory.hpp:74] Creating layer inception_5b/1x1
I0105 22:23:18.879508 10836 net.cpp:84] Creating Layer inception_5b/1x1
I0105 22:23:18.879513 10836 net.cpp:380] inception_5b/1x1 <- inception_5a/output_inception_5a/output_0_split_0
I0105 22:23:18.879523 10836 net.cpp:338] inception_5b/1x1 -> inception_5b/1x1
I0105 22:23:18.879531 10836 net.cpp:113] Setting up inception_5b/1x1
I0105 22:23:18.883967 10836 net.cpp:120] Top shape: 50 384 7 7 (940800)
I0105 22:23:18.884001 10836 layer_factory.hpp:74] Creating layer inception_5b/relu_1x1
I0105 22:23:18.884012 10836 net.cpp:84] Creating Layer inception_5b/relu_1x1
I0105 22:23:18.884021 10836 net.cpp:380] inception_5b/relu_1x1 <- inception_5b/1x1
I0105 22:23:18.884032 10836 net.cpp:327] inception_5b/relu_1x1 -> inception_5b/1x1 (in-place)
I0105 22:23:18.884076 10836 net.cpp:113] Setting up inception_5b/relu_1x1
I0105 22:23:18.884167 10836 net.cpp:120] Top shape: 50 384 7 7 (940800)
I0105 22:23:18.884176 10836 layer_factory.hpp:74] Creating layer inception_5b/3x3_reduce
I0105 22:23:18.884191 10836 net.cpp:84] Creating Layer inception_5b/3x3_reduce
I0105 22:23:18.884199 10836 net.cpp:380] inception_5b/3x3_reduce <- inception_5a/output_inception_5a/output_0_split_1
I0105 22:23:18.884208 10836 net.cpp:338] inception_5b/3x3_reduce -> inception_5b/3x3_reduce
I0105 22:23:18.884219 10836 net.cpp:113] Setting up inception_5b/3x3_reduce
I0105 22:23:18.886593 10836 net.cpp:120] Top shape: 50 192 7 7 (470400)
I0105 22:23:18.886612 10836 layer_factory.hpp:74] Creating layer inception_5b/relu_3x3_reduce
I0105 22:23:18.886622 10836 net.cpp:84] Creating Layer inception_5b/relu_3x3_reduce
I0105 22:23:18.886629 10836 net.cpp:380] inception_5b/relu_3x3_reduce <- inception_5b/3x3_reduce
I0105 22:23:18.886638 10836 net.cpp:327] inception_5b/relu_3x3_reduce -> inception_5b/3x3_reduce (in-place)
I0105 22:23:18.886648 10836 net.cpp:113] Setting up inception_5b/relu_3x3_reduce
I0105 22:23:18.886955 10836 net.cpp:120] Top shape: 50 192 7 7 (470400)
I0105 22:23:18.886967 10836 layer_factory.hpp:74] Creating layer inception_5b/3x3
I0105 22:23:18.886979 10836 net.cpp:84] Creating Layer inception_5b/3x3
I0105 22:23:18.886986 10836 net.cpp:380] inception_5b/3x3 <- inception_5b/3x3_reduce
I0105 22:23:18.886999 10836 net.cpp:338] inception_5b/3x3 -> inception_5b/3x3
I0105 22:23:18.887009 10836 net.cpp:113] Setting up inception_5b/3x3
I0105 22:23:18.895494 10836 net.cpp:120] Top shape: 50 384 7 7 (940800)
I0105 22:23:18.895537 10836 layer_factory.hpp:74] Creating layer inception_5b/relu_3x3
I0105 22:23:18.895550 10836 net.cpp:84] Creating Layer inception_5b/relu_3x3
I0105 22:23:18.895560 10836 net.cpp:380] inception_5b/relu_3x3 <- inception_5b/3x3
I0105 22:23:18.895570 10836 net.cpp:327] inception_5b/relu_3x3 -> inception_5b/3x3 (in-place)
I0105 22:23:18.895581 10836 net.cpp:113] Setting up inception_5b/relu_3x3
I0105 22:23:18.895675 10836 net.cpp:120] Top shape: 50 384 7 7 (940800)
I0105 22:23:18.895684 10836 layer_factory.hpp:74] Creating layer inception_5b/5x5_reduce
I0105 22:23:18.895696 10836 net.cpp:84] Creating Layer inception_5b/5x5_reduce
I0105 22:23:18.895705 10836 net.cpp:380] inception_5b/5x5_reduce <- inception_5a/output_inception_5a/output_0_split_2
I0105 22:23:18.895719 10836 net.cpp:338] inception_5b/5x5_reduce -> inception_5b/5x5_reduce
I0105 22:23:18.895730 10836 net.cpp:113] Setting up inception_5b/5x5_reduce
I0105 22:23:18.896759 10836 net.cpp:120] Top shape: 50 48 7 7 (117600)
I0105 22:23:18.896778 10836 layer_factory.hpp:74] Creating layer inception_5b/relu_5x5_reduce
I0105 22:23:18.896788 10836 net.cpp:84] Creating Layer inception_5b/relu_5x5_reduce
I0105 22:23:18.896796 10836 net.cpp:380] inception_5b/relu_5x5_reduce <- inception_5b/5x5_reduce
I0105 22:23:18.896806 10836 net.cpp:327] inception_5b/relu_5x5_reduce -> inception_5b/5x5_reduce (in-place)
I0105 22:23:18.896816 10836 net.cpp:113] Setting up inception_5b/relu_5x5_reduce
I0105 22:23:18.896911 10836 net.cpp:120] Top shape: 50 48 7 7 (117600)
I0105 22:23:18.896920 10836 layer_factory.hpp:74] Creating layer inception_5b/5x5
I0105 22:23:18.896935 10836 net.cpp:84] Creating Layer inception_5b/5x5
I0105 22:23:18.896942 10836 net.cpp:380] inception_5b/5x5 <- inception_5b/5x5_reduce
I0105 22:23:18.896952 10836 net.cpp:338] inception_5b/5x5 -> inception_5b/5x5
I0105 22:23:18.896963 10836 net.cpp:113] Setting up inception_5b/5x5
I0105 22:23:18.915356 10836 net.cpp:120] Top shape: 50 128 7 7 (313600)
I0105 22:23:18.915413 10836 layer_factory.hpp:74] Creating layer inception_5b/relu_5x5
I0105 22:23:18.915432 10836 net.cpp:84] Creating Layer inception_5b/relu_5x5
I0105 22:23:18.915443 10836 net.cpp:380] inception_5b/relu_5x5 <- inception_5b/5x5
I0105 22:23:18.915455 10836 net.cpp:327] inception_5b/relu_5x5 -> inception_5b/5x5 (in-place)
I0105 22:23:18.915487 10836 net.cpp:113] Setting up inception_5b/relu_5x5
I0105 22:23:18.915868 10836 net.cpp:120] Top shape: 50 128 7 7 (313600)
I0105 22:23:18.915882 10836 layer_factory.hpp:74] Creating layer inception_5b/pool
I0105 22:23:18.915891 10836 layer_factory.cpp:56] CUDNN does not support padding or multiple tops. Using Caffe's own pooling layer.
I0105 22:23:18.915900 10836 net.cpp:84] Creating Layer inception_5b/pool
I0105 22:23:18.915909 10836 net.cpp:380] inception_5b/pool <- inception_5a/output_inception_5a/output_0_split_3
I0105 22:23:18.915920 10836 net.cpp:338] inception_5b/pool -> inception_5b/pool
I0105 22:23:18.915931 10836 net.cpp:113] Setting up inception_5b/pool
I0105 22:23:18.915945 10836 net.cpp:120] Top shape: 50 832 7 7 (2038400)
I0105 22:23:18.915951 10836 layer_factory.hpp:74] Creating layer inception_5b/pool_proj
I0105 22:23:18.915968 10836 net.cpp:84] Creating Layer inception_5b/pool_proj
I0105 22:23:18.915976 10836 net.cpp:380] inception_5b/pool_proj <- inception_5b/pool
I0105 22:23:18.915987 10836 net.cpp:338] inception_5b/pool_proj -> inception_5b/pool_proj
I0105 22:23:18.915999 10836 net.cpp:113] Setting up inception_5b/pool_proj
I0105 22:23:18.917807 10836 net.cpp:120] Top shape: 50 128 7 7 (313600)
I0105 22:23:18.917827 10836 layer_factory.hpp:74] Creating layer inception_5b/relu_pool_proj
I0105 22:23:18.917837 10836 net.cpp:84] Creating Layer inception_5b/relu_pool_proj
I0105 22:23:18.917845 10836 net.cpp:380] inception_5b/relu_pool_proj <- inception_5b/pool_proj
I0105 22:23:18.917855 10836 net.cpp:327] inception_5b/relu_pool_proj -> inception_5b/pool_proj (in-place)
I0105 22:23:18.917865 10836 net.cpp:113] Setting up inception_5b/relu_pool_proj
I0105 22:23:18.917955 10836 net.cpp:120] Top shape: 50 128 7 7 (313600)
I0105 22:23:18.917963 10836 layer_factory.hpp:74] Creating layer inception_5b/output
I0105 22:23:18.917974 10836 net.cpp:84] Creating Layer inception_5b/output
I0105 22:23:18.917980 10836 net.cpp:380] inception_5b/output <- inception_5b/1x1
I0105 22:23:18.917989 10836 net.cpp:380] inception_5b/output <- inception_5b/3x3
I0105 22:23:18.917996 10836 net.cpp:380] inception_5b/output <- inception_5b/5x5
I0105 22:23:18.918004 10836 net.cpp:380] inception_5b/output <- inception_5b/pool_proj
I0105 22:23:18.918015 10836 net.cpp:338] inception_5b/output -> inception_5b/output
I0105 22:23:18.918023 10836 net.cpp:113] Setting up inception_5b/output
I0105 22:23:18.918035 10836 net.cpp:120] Top shape: 50 1024 7 7 (2508800)
I0105 22:23:18.918040 10836 layer_factory.hpp:74] Creating layer pool5/7x7_s1
I0105 22:23:18.918051 10836 net.cpp:84] Creating Layer pool5/7x7_s1
I0105 22:23:18.918056 10836 net.cpp:380] pool5/7x7_s1 <- inception_5b/output
I0105 22:23:18.918068 10836 net.cpp:338] pool5/7x7_s1 -> pool5/7x7_s1
I0105 22:23:18.918078 10836 net.cpp:113] Setting up pool5/7x7_s1
I0105 22:23:18.918165 10836 net.cpp:120] Top shape: 50 1024 1 1 (51200)
I0105 22:23:18.918174 10836 layer_factory.hpp:74] Creating layer pool5/drop_7x7_s1
I0105 22:23:18.918185 10836 net.cpp:84] Creating Layer pool5/drop_7x7_s1
I0105 22:23:18.918192 10836 net.cpp:380] pool5/drop_7x7_s1 <- pool5/7x7_s1
I0105 22:23:18.918200 10836 net.cpp:327] pool5/drop_7x7_s1 -> pool5/7x7_s1 (in-place)
I0105 22:23:18.918208 10836 net.cpp:113] Setting up pool5/drop_7x7_s1
I0105 22:23:18.918218 10836 net.cpp:120] Top shape: 50 1024 1 1 (51200)
I0105 22:23:18.918226 10836 layer_factory.hpp:74] Creating layer loss3/classifier_kaggle
I0105 22:23:18.918238 10836 net.cpp:84] Creating Layer loss3/classifier_kaggle
I0105 22:23:18.918246 10836 net.cpp:380] loss3/classifier_kaggle <- pool5/7x7_s1
I0105 22:23:18.918254 10836 net.cpp:338] loss3/classifier_kaggle -> loss3/classifier_kaggle
I0105 22:23:18.918265 10836 net.cpp:113] Setting up loss3/classifier_kaggle
I0105 22:23:18.923609 10836 net.cpp:120] Top shape: 50 447 (22350)
I0105 22:23:18.923626 10836 layer_factory.hpp:74] Creating layer loss3/classifier_kaggle_loss3/classifier_kaggle_0_split
I0105 22:23:18.923640 10836 net.cpp:84] Creating Layer loss3/classifier_kaggle_loss3/classifier_kaggle_0_split
I0105 22:23:18.923658 10836 net.cpp:380] loss3/classifier_kaggle_loss3/classifier_kaggle_0_split <- loss3/classifier_kaggle
I0105 22:23:18.923678 10836 net.cpp:338] loss3/classifier_kaggle_loss3/classifier_kaggle_0_split -> loss3/classifier_kaggle_loss3/classifier_kaggle_0_split_0
I0105 22:23:18.923689 10836 net.cpp:338] loss3/classifier_kaggle_loss3/classifier_kaggle_0_split -> loss3/classifier_kaggle_loss3/classifier_kaggle_0_split_1
I0105 22:23:18.923702 10836 net.cpp:338] loss3/classifier_kaggle_loss3/classifier_kaggle_0_split -> loss3/classifier_kaggle_loss3/classifier_kaggle_0_split_2
I0105 22:23:18.923712 10836 net.cpp:113] Setting up loss3/classifier_kaggle_loss3/classifier_kaggle_0_split
I0105 22:23:18.923723 10836 net.cpp:120] Top shape: 50 447 (22350)
I0105 22:23:18.923732 10836 net.cpp:120] Top shape: 50 447 (22350)
I0105 22:23:18.923738 10836 net.cpp:120] Top shape: 50 447 (22350)
I0105 22:23:18.923744 10836 layer_factory.hpp:74] Creating layer loss3/loss3
I0105 22:23:18.923755 10836 net.cpp:84] Creating Layer loss3/loss3
I0105 22:23:18.923763 10836 net.cpp:380] loss3/loss3 <- loss3/classifier_kaggle_loss3/classifier_kaggle_0_split_0
I0105 22:23:18.923771 10836 net.cpp:380] loss3/loss3 <- label_data_1_split_6
I0105 22:23:18.923810 10836 net.cpp:338] loss3/loss3 -> loss3/loss3
…
