…
I0105 11:56:04.307843 31115 net.cpp:257] The NetState phase (0) differed from the phase (1) specified by a rule in layer loss3/top-5
I0105 11:56:04.310209 31115 net.cpp:42] Initializing net from parameters: 
name: "MYNET"
state {
  phase: TRAIN
}
layer {
  name: "data"
  type: "ImageData"
  top: "data"
  top: "label"
  include {
    phase: TRAIN
  }
  transform_param {
    mirror: false
    crop_size: 224
    mean_value: 129
    mean_value: 129
    mean_value: 129
  }
  image_data_param {
    source: "/home/coldmanck/kaggle/label_train_full_resize_rotated.txt"
    batch_size: 80
    shuffle: true
  }
}
layer {
  name: "conv1/7x7_s2"
  type: "Convolution"
  bottom: "data"
  top: "conv1/7x7_s2"
  param {
    lr_mult: 1
    decay_mult: 1
  }
  param {
    lr_mult: 2
    decay_mult: 0
  }
  convolution_param {
    num_output: 64
    pad: 3
    kernel_size: 7
    stride: 2
    weight_filler {
      type: "xavier"
    }
    bias_filler {
      type: "constant"
      value: 0.2
    }
  }
}
layer {
  name: "conv1/relu_7x7"
  type: "ReLU"
  bottom: "conv1/7x7_s2"
  top: "conv1/7x7_s2"
}
layer {
  name: "pool1/3x3_s2"
  type: "Pooling"
  bottom: "conv1/7x7_s2"
  top: "pool1/3x3_s2"
  pooling_param {
    pool: MAX
    kernel_size: 3
    stride: 2
  }
}
layer {
  name: "pool1/norm1"
  type: "LRN"
  bottom: "pool1/3x3_s2"
  top: "pool1/norm1"
  lrn_param {
    local_size: 5
    alpha: 0.0001
    beta: 0.75
  }
}
layer {
  name: "conv2/3x3_reduce"
  type: "Convolution"
  bottom: "pool1/norm1"
  top: "conv2/3x3_reduce"
  param {
    lr_mult: 1
    decay_mult: 1
  }
  param {
    lr_mult: 2
    decay_mult: 0
  }
  convolution_param {
    num_output: 64
    kernel_size: 1
    weight_filler {
      type: "xavier"
    }
    bias_filler {
      type: "constant"
      value: 0.2
    }
  }
}
layer {
  name: "conv2/relu_3x3_reduce"
  type: "ReLU"
  bottom: "conv2/3x3_reduce"
  top: "conv2/3x3_reduce"
}
layer {
  name: "conv2/3x3"
  type: "Convolution"
  bottom: "conv2/3x3_reduce"
  top: "conv2/3x3"
  param {
    lr_mult: 1
    decay_mult: 1
  }
  param {
    lr_mult: 2
    decay_mult: 0
  }
  convolution_param {
    num_output: 192
    pad: 1
    kernel_size: 3
    weight_filler {
      type: "xavier"
    }
    bias_filler {
      type: "constant"
      value: 0.2
    }
  }
}
layer {
  name: "conv2/relu_3x3"
  type: "ReLU"
  bottom: "conv2/3x3"
  top: "conv2/3x3"
}
layer {
  name: "conv2/norm2"
  type: "LRN"
  bottom: "conv2/3x3"
  top: "conv2/norm2"
  lrn_param {
    local_size: 5
    alpha: 0.0001
    beta: 0.75
  }
}
layer {
  name: "pool2/3x3_s2"
  type: "Pooling"
  bottom: "conv2/norm2"
  top: "pool2/3x3_s2"
  pooling_param {
    pool: MAX
    kernel_size: 3
    stride: 2
  }
}
layer {
  name: "inception_3a/1x1"
  type: "Convolution"
  bottom: "pool2/3x3_s2"
  top: "inception_3a/1x1"
  param {
    lr_mult: 1
    decay_mult: 1
  }
  param {
    lr_mult: 2
    decay_mult: 0
  }
  convolution_param {
    num_output: 64
    kernel_size: 1
    weight_filler {
      type: "xavier"
    }
    bias_filler {
      type: "constant"
      value: 0.2
    }
  }
}
layer {
  name: "inception_3a/relu_1x1"
  type: "ReLU"
  bottom: "inception_3a/1x1"
  top: "inception_3a/1x1"
}
layer {
  name: "inception_3a/3x3_reduce"
  type: "Convolution"
  bottom: "pool2/3x3_s2"
  top: "inception_3a/3x3_reduce"
  param {
    lr_mult: 1
    decay_mult: 1
  }
  param {
    lr_mult: 2
    decay_mult: 0
  }
  convolution_param {
    num_output: 96
    kernel_size: 1
    weight_filler {
      type: "xavier"
    }
    bias_filler {
      type: "constant"
      value: 0.2
    }
  }
}
layer {
  name: "inception_3a/relu_3x3_reduce"
  type: "ReLU"
  bottom: "inception_3a/3x3_reduce"
  top: "inception_3a/3x3_reduce"
}
layer {
  name: "inception_3a/3x3"
  type: "Convolution"
  bottom: "inception_3a/3x3_reduce"
  top: "inception_3a/3x3"
  param {
    lr_mult: 1
    decay_mult: 1
  }
  param {
    lr_mult: 2
    decay_mult: 0
  }
  convolution_param {
    num_output: 128
    pad: 1
    kernel_size: 3
    weight_filler {
      type: "xavier"
    }
    bias_filler {
      type: "constant"
      value: 0.2
    }
  }
}
layer {
  name: "inception_3a/relu_3x3"
  type: "ReLU"
  bottom: "inception_3a/3x3"
  top: "inception_3a/3x3"
}
layer {
  name: "inception_3a/5x5_reduce"
  type: "Convolution"
  bottom: "pool2/3x3_s2"
  top: "inception_3a/5x5_reduce"
  param {
    lr_mult: 1
    decay_mult: 1
  }
  param {
    lr_mult: 2
    decay_mult: 0
  }
  convolution_param {
    num_output: 16
    kernel_size: 1
    weight_filler {
      type: "xavier"
    }
    bias_filler {
      type: "constant"
      value: 0.2
    }
  }
}
layer {
  name: "inception_3a/relu_5x5_reduce"
  type: "ReLU"
  bottom: "inception_3a/5x5_reduce"
  top: "inception_3a/5x5_reduce"
}
layer {
  name: "inception_3a/5x5"
  type: "Convolution"
  bottom: "inception_3a/5x5_reduce"
  top: "inception_3a/5x5"
  param {
    lr_mult: 1
    decay_mult: 1
  }
  param {
    lr_mult: 2
    decay_mult: 0
  }
  convolution_param {
    num_output: 32
    pad: 2
    kernel_size: 5
    weight_filler {
      type: "xavier"
    }
    bias_filler {
      type: "constant"
      value: 0.2
    }
  }
}
layer {
  name: "inception_3a/relu_5x5"
  type: "ReLU"
  bottom: "inception_3a/5x5"
  top: "inception_3a/5x5"
}
layer {
  name: "inception_3a/pool"
  type: "Pooling"
  bottom: "pool2/3x3_s2"
  top: "inception_3a/pool"
  pooling_param {
    pool: MAX
    kernel_size: 3
    stride: 1
    pad: 1
  }
}
layer {
  name: "inception_3a/pool_proj"
  type: "Convolution"
  bottom: "inception_3a/pool"
  top: "inception_3a/pool_proj"
  param {
    lr_mult: 1
    decay_mult: 1
  }
  param {
    lr_mult: 2
    decay_mult: 0
  }
  convolution_param {
    num_output: 32
    kernel_size: 1
    weight_filler {
      type: "xavier"
    }
    bias_filler {
      type: "constant"
      value: 0.2
    }
  }
}
layer {
  name: "inception_3a/relu_pool_proj"
  type: "ReLU"
  bottom: "inception_3a/pool_proj"
  top: "inception_3a/pool_proj"
}
layer {
  name: "inception_3a/output"
  type: "Concat"
  bottom: "inception_3a/1x1"
  bottom: "inception_3a/3x3"
  bottom: "inception_3a/5x5"
  bottom: "inception_3a/pool_proj"
  top: "inception_3a/output"
}
layer {
  name: "inception_3b/1x1"
  type: "Convolution"
  bottom: "inception_3a/output"
  top: "inception_3b/1x1"
  param {
    lr_mult: 1
    decay_mult: 1
  }
  param {
    lr_mult: 2
    decay_mult: 0
  }
  convolution_param {
    num_output: 128
    kernel_size: 1
    weight_filler {
      type: "xavier"
    }
    bias_filler {
      type: "constant"
      value: 0.2
    }
  }
}
layer {
  name: "inception_3b/relu_1x1"
  type: "ReLU"
  bottom: "inception_3b/1x1"
  top: "inception_3b/1x1"
}
layer {
  name: "inception_3b/3x3_reduce"
  type: "Convolution"
  bottom: "inception_3a/output"
  top: "inception_3b/3x3_reduce"
  param {
    lr_mult: 1
    decay_mult: 1
  }
  param {
    lr_mult: 2
    decay_mult: 0
  }
  convolution_param {
    num_output: 128
    kernel_size: 1
    weight_filler {
      type: "xavier"
    }
    bias_filler {
      type: "constant"
      value: 0.2
    }
  }
}
layer {
  name: "inception_3b/relu_3x3_reduce"
  type: "ReLU"
  bottom: "inception_3b/3x3_reduce"
  top: "inception_3b/3x3_reduce"
}
layer {
  name: "inception_3b/3x3"
  type: "Convolution"
  bottom: "inception_3b/3x3_reduce"
  top: "inception_3b/3x3"
  param {
    lr_mult: 1
    decay_mult: 1
  }
  param {
    lr_mult: 2
    decay_mult: 0
  }
  convolution_param {
    num_output: 192
    pad: 1
    kernel_size: 3
    weight_filler {
      type: "xavier"
    }
    bias_filler {
      type: "constant"
      value: 0.2
    }
  }
}
layer {
  name: "inception_3b/relu_3x3"
  type: "ReLU"
  bottom: "inception_3b/3x3"
  top: "inception_3b/3x3"
}
layer {
  name: "inception_3b/5x5_reduce"
  type: "Convolution"
  bottom: "inception_3a/output"
  top: "inception_3b/5x5_reduce"
  param {
    lr_mult: 1
    decay_mult: 1
  }
  param {
    lr_mult: 2
    decay_mult: 0
  }
  convolution_param {
    num_output: 32
    kernel_size: 1
    weight_filler {
      type: "xavier"
    }
    bias_filler {
      type: "constant"
      value: 0.2
    }
  }
}
layer {
  name: "inception_3b/relu_5x5_reduce"
  type: "ReLU"
  bottom: "inception_3b/5x5_reduce"
  top: "inception_3b/5x5_reduce"
}
layer {
  name: "inception_3b/5x5"
  type: "Convolution"
  bottom: "inception_3b/5x5_reduce"
  top: "inception_3b/5x5"
  param {
    lr_mult: 1
    decay_mult: 1
  }
  param {
    lr_mult: 2
    decay_mult: 0
  }
  convolution_param {
    num_output: 96
    pad: 2
    kernel_size: 5
    weight_filler {
      type: "xavier"
    }
    bias_filler {
      type: "constant"
      value: 0.2
    }
  }
}
layer {
  name: "inception_3b/relu_5x5"
  type: "ReLU"
  bottom: "inception_3b/5x5"
  top: "inception_3b/5x5"
}
layer {
  name: "inception_3b/pool"
  type: "Pooling"
  bottom: "inception_3a/output"
  top: "inception_3b/pool"
  pooling_param {
    pool: MAX
    kernel_size: 3
    stride: 1
    pad: 1
  }
}
layer {
  name: "inception_3b/pool_proj"
  type: "Convolution"
  bottom: "inception_3b/pool"
  top: "inception_3b/pool_proj"
  param {
    lr_mult: 1
    decay_mult: 1
  }
  param {
    lr_mult: 2
    decay_mult: 0
  }
  convolution_param {
    num_output: 64
    kernel_size: 1
    weight_filler {
      type: "xavier"
    }
    bias_filler {
      type: "constant"
      value: 0.2
    }
  }
}
layer {
  name: "inception_3b/relu_pool_proj"
  type: "ReLU"
  bottom: "inception_3b/pool_proj"
  top: "inception_3b/pool_proj"
}
layer {
  name: "inception_3b/output"
  type: "Concat"
  bottom: "inception_3b/1x1"
  bottom: "inception_3b/3x3"
  bottom: "inception_3b/5x5"
  bottom: "inception_3b/pool_proj"
  top: "inception_3b/output"
}
layer {
  name: "pool3/3x3_s2"
  type: "Pooling"
  bottom: "inception_3b/output"
  top: "pool3/3x3_s2"
  pooling_param {
    pool: MAX
    kernel_size: 3
    stride: 2
  }
}
layer {
  name: "inception_4a/1x1"
  type: "Convolution"
  bottom: "pool3/3x3_s2"
  top: "inception_4a/1x1"
  param {
    lr_mult: 1
    decay_mult: 1
  }
  param {
    lr_mult: 2
    decay_mult: 0
  }
  convolution_param {
    num_output: 192
    kernel_size: 1
    weight_filler {
      type: "xavier"
    }
    bias_filler {
      type: "constant"
      value: 0.2
    }
  }
}
layer {
  name: "inception_4a/relu_1x1"
  type: "ReLU"
  bottom: "inception_4a/1x1"
  top: "inception_4a/1x1"
}
layer {
  name: "inception_4a/3x3_reduce"
  type: "Convolution"
  bottom: "pool3/3x3_s2"
  top: "inception_4a/3x3_reduce"
  param {
    lr_mult: 1
    decay_mult: 1
  }
  param {
    lr_mult: 2
    decay_mult: 0
  }
  convolution_param {
    num_output: 96
    kernel_size: 1
    weight_filler {
      type: "xavier"
    }
    bias_filler {
      type: "constant"
      value: 0.2
    }
  }
}
layer {
  name: "inception_4a/relu_3x3_reduce"
  type: "ReLU"
  bottom: "inception_4a/3x3_reduce"
  top: "inception_4a/3x3_reduce"
}
layer {
  name: "inception_4a/3x3"
  type: "Convolution"
  bottom: "inception_4a/3x3_reduce"
  top: "inception_4a/3x3"
  param {
    lr_mult: 1
    decay_mult: 1
  }
  param {
    lr_mult: 2
    decay_mult: 0
  }
  convolution_param {
    num_output: 208
    pad: 1
    kernel_size: 3
    weight_filler {
      type: "xavier"
    }
    bias_filler {
      type: "constant"
      value: 0.2
    }
  }
}
layer {
  name: "inception_4a/relu_3x3"
  type: "ReLU"
  bottom: "inception_4a/3x3"
  top: "inception_4a/3x3"
}
layer {
  name: "inception_4a/5x5_reduce"
  type: "Convolution"
  bottom: "pool3/3x3_s2"
  top: "inception_4a/5x5_reduce"
  param {
    lr_mult: 1
    decay_mult: 1
  }
  param {
    lr_mult: 2
    decay_mult: 0
  }
  convolution_param {
    num_output: 16
    kernel_size: 1
    weight_filler {
      type: "xavier"
    }
    bias_filler {
      type: "constant"
      value: 0.2
    }
  }
}
layer {
  name: "inception_4a/relu_5x5_reduce"
  type: "ReLU"
  bottom: "inception_4a/5x5_reduce"
  top: "inception_4a/5x5_reduce"
}
layer {
  name: "inception_4a/5x5"
  type: "Convolution"
  bottom: "inception_4a/5x5_reduce"
  top: "inception_4a/5x5"
  param {
    lr_mult: 1
    decay_mult: 1
  }
  param {
    lr_mult: 2
    decay_mult: 0
  }
  convolution_param {
    num_output: 48
    pad: 2
    kernel_size: 5
    weight_filler {
      type: "xavier"
    }
    bias_filler {
      type: "constant"
      value: 0.2
    }
  }
}
layer {
  name: "inception_4a/relu_5x5"
  type: "ReLU"
  bottom: "inception_4a/5x5"
  top: "inception_4a/5x5"
}
layer {
  name: "inception_4a/pool"
  type: "Pooling"
  bottom: "pool3/3x3_s2"
  top: "inception_4a/pool"
  pooling_param {
    pool: MAX
    kernel_size: 3
    stride: 1
    pad: 1
  }
}
layer {
  name: "inception_4a/pool_proj"
  type: "Convolution"
  bottom: "inception_4a/pool"
  top: "inception_4a/pool_proj"
  param {
    lr_mult: 1
    decay_mult: 1
  }
  param {
    lr_mult: 2
    decay_mult: 0
  }
  convolution_param {
    num_output: 64
    kernel_size: 1
    weight_filler {
      type: "xavier"
    }
    bias_filler {
      type: "constant"
      value: 0.2
    }
  }
}
layer {
  name: "inception_4a/relu_pool_proj"
  type: "ReLU"
  bottom: "inception_4a/pool_proj"
  top: "inception_4a/pool_proj"
}
layer {
  name: "inception_4a/output"
  type: "Concat"
  bottom: "inception_4a/1x1"
  bottom: "inception_4a/3x3"
  bottom: "inception_4a/5x5"
  bottom: "inception_4a/pool_proj"
  top: "inception_4a/output"
}
layer {
  name: "loss1/ave_pool"
  type: "Pooling"
  bottom: "inception_4a/output"
  top: "loss1/ave_pool"
  pooling_param {
    pool: AVE
    kernel_size: 5
    stride: 3
  }
}
layer {
  name: "loss1/conv"
  type: "Convolution"
  bottom: "loss1/ave_pool"
  top: "loss1/conv"
  param {
    lr_mult: 1
    decay_mult: 1
  }
  param {
    lr_mult: 2
    decay_mult: 0
  }
  convolution_param {
    num_output: 128
    kernel_size: 1
    weight_filler {
      type: "xavier"
    }
    bias_filler {
      type: "constant"
      value: 0.2
    }
  }
}
layer {
  name: "loss1/relu_conv"
  type: "ReLU"
  bottom: "loss1/conv"
  top: "loss1/conv"
}
layer {
  name: "loss1/fc"
  type: "InnerProduct"
  bottom: "loss1/conv"
  top: "loss1/fc"
  param {
    lr_mult: 1
    decay_mult: 1
  }
  param {
    lr_mult: 2
    decay_mult: 0
  }
  inner_product_param {
    num_output: 1024
    weight_filler {
      type: "xavier"
    }
    bias_filler {
      type: "constant"
      value: 0.2
    }
  }
}
layer {
  name: "loss1/relu_fc"
  type: "ReLU"
  bottom: "loss1/fc"
  top: "loss1/fc"
}
layer {
  name: "loss1/drop_fc"
  type: "Dropout"
  bottom: "loss1/fc"
  top: "loss1/fc"
  dropout_param {
    dropout_ratio: 0.7
  }
}
layer {
  name: "loss1/classifier_kaggle"
  type: "InnerProduct"
  bottom: "loss1/fc"
  top: "loss1/classifier_kaggle"
  param {
    lr_mult: 1
    decay_mult: 1
  }
  param {
    lr_mult: 2
    decay_mult: 0
  }
  inner_product_param {
    num_output: 447
    weight_filler {
      type: "xavier"
    }
    bias_filler {
      type: "constant"
      value: 0
    }
  }
}
layer {
  name: "loss1/loss"
  type: "SoftmaxWithLoss"
  bottom: "loss1/classifier_kaggle"
  bottom: "label"
  top: "loss1/loss1"
  loss_weight: 0.3
}
layer {
  name: "inception_4b/1x1"
  type: "Convolution"
  bottom: "inception_4a/output"
  top: "inception_4b/1x1"
  param {
    lr_mult: 1
    decay_mult: 1
  }
  param {
    lr_mult: 2
    decay_mult: 0
  }
  convolution_param {
    num_output: 160
    kernel_size: 1
    weight_filler {
      type: "xavier"
    }
    bias_filler {
      type: "constant"
      value: 0.2
    }
  }
}
layer {
  name: "inception_4b/relu_1x1"
  type: "ReLU"
  bottom: "inception_4b/1x1"
  top: "inception_4b/1x1"
}
layer {
  name: "inception_4b/3x3_reduce"
  type: "Convolution"
  bottom: "inception_4a/output"
  top: "inception_4b/3x3_reduce"
  param {
    lr_mult: 1
    decay_mult: 1
  }
  param {
    lr_mult: 2
    decay_mult: 0
  }
  convolution_param {
    num_output: 112
    kernel_size: 1
    weight_filler {
      type: "xavier"
    }
    bias_filler {
      type: "constant"
      value: 0.2
    }
  }
}
layer {
  name: "inception_4b/relu_3x3_reduce"
  type: "ReLU"
  bottom: "inception_4b/3x3_reduce"
  top: "inception_4b/3x3_reduce"
}
layer {
  name: "inception_4b/3x3"
  type: "Convolution"
  bottom: "inception_4b/3x3_reduce"
  top: "inception_4b/3x3"
  param {
    lr_mult: 1
    decay_mult: 1
  }
  param {
    lr_mult: 2
    decay_mult: 0
  }
  convolution_param {
    num_output: 224
    pad: 1
    kernel_size: 3
    weight_filler {
      type: "xavier"
    }
    bias_filler {
      type: "constant"
      value: 0.2
    }
  }
}
layer {
  name: "inception_4b/relu_3x3"
  type: "ReLU"
  bottom: "inception_4b/3x3"
  top: "inception_4b/3x3"
}
layer {
  name: "inception_4b/5x5_reduce"
  type: "Convolution"
  bottom: "inception_4a/output"
  top: "inception_4b/5x5_reduce"
  param {
    lr_mult: 1
    decay_mult: 1
  }
  param {
    lr_mult: 2
    decay_mult: 0
  }
  convolution_param {
    num_output: 24
    kernel_size: 1
    weight_filler {
      type: "xavier"
    }
    bias_filler {
      type: "constant"
      value: 0.2
    }
  }
}
layer {
  name: "inception_4b/relu_5x5_reduce"
  type: "ReLU"
  bottom: "inception_4b/5x5_reduce"
  top: "inception_4b/5x5_reduce"
}
layer {
  name: "inception_4b/5x5"
  type: "Convolution"
  bottom: "inception_4b/5x5_reduce"
  top: "inception_4b/5x5"
  param {
    lr_mult: 1
    decay_mult: 1
  }
  param {
    lr_mult: 2
    decay_mult: 0
  }
  convolution_param {
    num_output: 64
    pad: 2
    kernel_size: 5
    weight_filler {
      type: "xavier"
    }
    bias_filler {
      type: "constant"
      value: 0.2
    }
  }
}
layer {
  name: "inception_4b/relu_5x5"
  type: "ReLU"
  bottom: "inception_4b/5x5"
  top: "inception_4b/5x5"
}
layer {
  name: "inception_4b/pool"
  type: "Pooling"
  bottom: "inception_4a/output"
  top: "inception_4b/pool"
  pooling_param {
    pool: MAX
    kernel_size: 3
    stride: 1
    pad: 1
  }
}
layer {
  name: "inception_4b/pool_proj"
  type: "Convolution"
  bottom: "inception_4b/pool"
  top: "inception_4b/pool_proj"
  param {
    lr_mult: 1
    decay_mult: 1
  }
  param {
    lr_mult: 2
    decay_mult: 0
  }
  convolution_param {
    num_output: 64
    kernel_size: 1
    weight_filler {
      type: "xavier"
    }
    bias_filler {
      type: "constant"
      value: 0.2
    }
  }
}
layer {
  name: "inception_4b/relu_pool_proj"
  type: "ReLU"
  bottom: "inception_4b/pool_proj"
  top: "inception_4b/pool_proj"
}
layer {
  name: "inception_4b/output"
  type: "Concat"
  bottom: "inception_4b/1x1"
  bottom: "inception_4b/3x3"
  bottom: "inception_4b/5x5"
  bottom: "inception_4b/pool_proj"
  top: "inception_4b/output"
}
layer {
  name: "inception_4c/1x1"
  type: "Convolution"
  bottom: "inception_4b/output"
  top: "inception_4c/1x1"
  param {
    lr_mult: 1
    decay_mult: 1
  }
  param {
    lr_mult: 2
    decay_mult: 0
  }
  convolution_param {
    num_output: 128
    kernel_size: 1
    weight_filler {
      type: "xavier"
    }
    bias_filler {
      type: "constant"
      value: 0.2
    }
  }
}
layer {
  name: "inception_4c/relu_1x1"
  type: "ReLU"
  bottom: "inception_4c/1x1"
  top: "inception_4c/1x1"
}
layer {
  name: "inception_4c/3x3_reduce"
  type: "Convolution"
  bottom: "inception_4b/output"
  top: "inception_4c/3x3_reduce"
  param {
    lr_mult: 1
    decay_mult: 1
  }
  param {
    lr_mult: 2
    decay_mult: 0
  }
  convolution_param {
    num_output: 128
    kernel_size: 1
    weight_filler {
      type: "xavier"
    }
    bias_filler {
      type: "constant"
      value: 0.2
    }
  }
}
layer {
  name: "inception_4c/relu_3x3_reduce"
  type: "ReLU"
  bottom: "inception_4c/3x3_reduce"
  top: "inception_4c/3x3_reduce"
}
layer {
  name: "inception_4c/3x3"
  type: "Convolution"
  bottom: "inception_4c/3x3_reduce"
  top: "inception_4c/3x3"
  param {
    lr_mult: 1
    decay_mult: 1
  }
  param {
    lr_mult: 2
    decay_mult: 0
  }
  convolution_param {
    num_output: 256
    pad: 1
    kernel_size: 3
    weight_filler {
      type: "xavier"
    }
    bias_filler {
      type: "constant"
      value: 0.2
    }
  }
}
layer {
  name: "inception_4c/relu_3x3"
  type: "ReLU"
  bottom: "inception_4c/3x3"
  top: "inception_4c/3x3"
}
layer {
  name: "inception_4c/5x5_reduce"
  type: "Convolution"
  bottom: "inception_4b/output"
  top: "inception_4c/5x5_reduce"
  param {
    lr_mult: 1
    decay_mult: 1
  }
  param {
    lr_mult: 2
    decay_mult: 0
  }
  convolution_param {
    num_output: 24
    kernel_size: 1
    weight_filler {
      type: "xavier"
    }
    bias_filler {
      type: "constant"
      value: 0.2
    }
  }
}
layer {
  name: "inception_4c/relu_5x5_reduce"
  type: "ReLU"
  bottom: "inception_4c/5x5_reduce"
  top: "inception_4c/5x5_reduce"
}
layer {
  name: "inception_4c/5x5"
  type: "Convolution"
  bottom: "inception_4c/5x5_reduce"
  top: "inception_4c/5x5"
  param {
    lr_mult: 1
    decay_mult: 1
  }
  param {
    lr_mult: 2
    decay_mult: 0
  }
  convolution_param {
    num_output: 64
    pad: 2
    kernel_size: 5
    weight_filler {
      type: "xavier"
    }
    bias_filler {
      type: "constant"
      value: 0.2
    }
  }
}
layer {
  name: "inception_4c/relu_5x5"
  type: "ReLU"
  bottom: "inception_4c/5x5"
  top: "inception_4c/5x5"
}
layer {
  name: "inception_4c/pool"
  type: "Pooling"
  bottom: "inception_4b/output"
  top: "inception_4c/pool"
  pooling_param {
    pool: MAX
    kernel_size: 3
    stride: 1
    pad: 1
  }
}
layer {
  name: "inception_4c/pool_proj"
  type: "Convolution"
  bottom: "inception_4c/pool"
  top: "inception_4c/pool_proj"
  param {
    lr_mult: 1
    decay_mult: 1
  }
  param {
    lr_mult: 2
    decay_mult: 0
  }
  convolution_param {
    num_output: 64
    kernel_size: 1
    weight_filler {
      type: "xavier"
    }
    bias_filler {
      type: "constant"
      value: 0.2
    }
  }
}
layer {
  name: "inception_4c/relu_pool_proj"
  type: "ReLU"
  bottom: "inception_4c/pool_proj"
  top: "inception_4c/pool_proj"
}
layer {
  name: "inception_4c/output"
  type: "Concat"
  bottom: "inception_4c/1x1"
  bottom: "inception_4c/3x3"
  bottom: "inception_4c/5x5"
  bottom: "inception_4c/pool_proj"
  top: "inception_4c/output"
}
layer {
  name: "inception_4d/1x1"
  type: "Convolution"
  bottom: "inception_4c/output"
  top: "inception_4d/1x1"
  param {
    lr_mult: 1
    decay_mult: 1
  }
  param {
    lr_mult: 2
    decay_mult: 0
  }
  convolution_param {
    num_output: 112
    kernel_size: 1
    weight_filler {
      type: "xavier"
    }
    bias_filler {
      type: "constant"
      value: 0.2
    }
  }
}
layer {
  name: "inception_4d/relu_1x1"
  type: "ReLU"
  bottom: "inception_4d/1x1"
  top: "inception_4d/1x1"
}
layer {
  name: "inception_4d/3x3_reduce"
  type: "Convolution"
  bottom: "inception_4c/output"
  top: "inception_4d/3x3_reduce"
  param {
    lr_mult: 1
    decay_mult: 1
  }
  param {
    lr_mult: 2
    decay_mult: 0
  }
  convolution_param {
    num_output: 144
    kernel_size: 1
    weight_filler {
      type: "xavier"
    }
    bias_filler {
      type: "constant"
      value: 0.2
    }
  }
}
layer {
  name: "inception_4d/relu_3x3_reduce"
  type: "ReLU"
  bottom: "inception_4d/3x3_reduce"
  top: "inception_4d/3x3_reduce"
}
layer {
  name: "inception_4d/3x3"
  type: "Convolution"
  bottom: "inception_4d/3x3_reduce"
  top: "inception_4d/3x3"
  param {
    lr_mult: 1
    decay_mult: 1
  }
  param {
    lr_mult: 2
    decay_mult: 0
  }
  convolution_param {
    num_output: 288
    pad: 1
    kernel_size: 3
    weight_filler {
      type: "xavier"
    }
    bias_filler {
      type: "constant"
      value: 0.2
    }
  }
}
layer {
  name: "inception_4d/relu_3x3"
  type: "ReLU"
  bottom: "inception_4d/3x3"
  top: "inception_4d/3x3"
}
layer {
  name: "inception_4d/5x5_reduce"
  type: "Convolution"
  bottom: "inception_4c/output"
  top: "inception_4d/5x5_reduce"
  param {
    lr_mult: 1
    decay_mult: 1
  }
  param {
    lr_mult: 2
    decay_mult: 0
  }
  convolution_param {
    num_output: 32
    kernel_size: 1
    weight_filler {
      type: "xavier"
    }
    bias_filler {
      type: "constant"
      value: 0.2
    }
  }
}
layer {
  name: "inception_4d/relu_5x5_reduce"
  type: "ReLU"
  bottom: "inception_4d/5x5_reduce"
  top: "inception_4d/5x5_reduce"
}
layer {
  name: "inception_4d/5x5"
  type: "Convolution"
  bottom: "inception_4d/5x5_reduce"
  top: "inception_4d/5x5"
  param {
    lr_mult: 1
    decay_mult: 1
  }
  param {
    lr_mult: 2
    decay_mult: 0
  }
  convolution_param {
    num_output: 64
    pad: 2
    kernel_size: 5
    weight_filler {
      type: "xavier"
    }
    bias_filler {
      type: "constant"
      value: 0.2
    }
  }
}
layer {
  name: "inception_4d/relu_5x5"
  type: "ReLU"
  bottom: "inception_4d/5x5"
  top: "inception_4d/5x5"
}
layer {
  name: "inception_4d/pool"
  type: "Pooling"
  bottom: "inception_4c/output"
  top: "inception_4d/pool"
  pooling_param {
    pool: MAX
    kernel_size: 3
    stride: 1
    pad: 1
  }
}
layer {
  name: "inception_4d/pool_proj"
  type: "Convolution"
  bottom: "inception_4d/pool"
  top: "inception_4d/pool_proj"
  param {
    lr_mult: 1
    decay_mult: 1
  }
  param {
    lr_mult: 2
    decay_mult: 0
  }
  convolution_param {
    num_output: 64
    kernel_size: 1
    weight_filler {
      type: "xavier"
    }
    bias_filler {
      type: "constant"
      value: 0.2
    }
  }
}
layer {
  name: "inception_4d/relu_pool_proj"
  type: "ReLU"
  bottom: "inception_4d/pool_proj"
  top: "inception_4d/pool_proj"
}
layer {
  name: "inception_4d/output"
  type: "Concat"
  bottom: "inception_4d/1x1"
  bottom: "inception_4d/3x3"
  bottom: "inception_4d/5x5"
  bottom: "inception_4d/pool_proj"
  top: "inception_4d/output"
}
layer {
  name: "loss2/ave_pool"
  type: "Pooling"
  bottom: "inception_4d/output"
  top: "loss2/ave_pool"
  pooling_param {
    pool: AVE
    kernel_size: 5
    stride: 3
  }
}
layer {
  name: "loss2/conv"
  type: "Convolution"
  bottom: "loss2/ave_pool"
  top: "loss2/conv"
  param {
    lr_mult: 1
    decay_mult: 1
  }
  param {
    lr_mult: 2
    decay_mult: 0
  }
  convolution_param {
    num_output: 128
    kernel_size: 1
    weight_filler {
      type: "xavier"
    }
    bias_filler {
      type: "constant"
      value: 0.2
    }
  }
}
layer {
  name: "loss2/relu_conv"
  type: "ReLU"
  bottom: "loss2/conv"
  top: "loss2/conv"
}
layer {
  name: "loss2/fc"
  type: "InnerProduct"
  bottom: "loss2/conv"
  top: "loss2/fc"
  param {
    lr_mult: 1
    decay_mult: 1
  }
  param {
    lr_mult: 2
    decay_mult: 0
  }
  inner_product_param {
    num_output: 1024
    weight_filler {
      type: "xavier"
    }
    bias_filler {
      type: "constant"
      value: 0.2
    }
  }
}
layer {
  name: "loss2/relu_fc"
  type: "ReLU"
  bottom: "loss2/fc"
  top: "loss2/fc"
}
layer {
  name: "loss2/drop_fc"
  type: "Dropout"
  bottom: "loss2/fc"
  top: "loss2/fc"
  dropout_param {
    dropout_ratio: 0.7
  }
}
layer {
  name: "loss2/classifier_kaggle"
  type: "InnerProduct"
  bottom: "loss2/fc"
  top: "loss2/classifier_kaggle"
  param {
    lr_mult: 1
    decay_mult: 1
  }
  param {
    lr_mult: 2
    decay_mult: 0
  }
  inner_product_param {
    num_output: 447
    weight_filler {
      type: "xavier"
    }
    bias_filler {
      type: "constant"
      value: 0
    }
  }
}
layer {
  name: "loss2/loss"
  type: "SoftmaxWithLoss"
  bottom: "loss2/classifier_kaggle"
  bottom: "label"
  top: "loss2/loss1"
  loss_weight: 0.3
}
layer {
  name: "inception_4e/1x1"
  type: "Convolution"
  bottom: "inception_4d/output"
  top: "inception_4e/1x1"
  param {
    lr_mult: 1
    decay_mult: 1
  }
  param {
    lr_mult: 2
    decay_mult: 0
  }
  convolution_param {
    num_output: 256
    kernel_size: 1
    weight_filler {
      type: "xavier"
    }
    bias_filler {
      type: "constant"
      value: 0.2
    }
  }
}
layer {
  name: "inception_4e/relu_1x1"
  type: "ReLU"
  bottom: "inception_4e/1x1"
  top: "inception_4e/1x1"
}
layer {
  name: "inception_4e/3x3_reduce"
  type: "Convolution"
  bottom: "inception_4d/output"
  top: "inception_4e/3x3_reduce"
  param {
    lr_mult: 1
    decay_mult: 1
  }
  param {
    lr_mult: 2
    decay_mult: 0
  }
  convolution_param {
    num_output: 160
    kernel_size: 1
    weight_filler {
      type: "xavier"
    }
    bias_filler {
      type: "constant"
      value: 0.2
    }
  }
}
layer {
  name: "inception_4e/relu_3x3_reduce"
  type: "ReLU"
  bottom: "inception_4e/3x3_reduce"
  top: "inception_4e/3x3_reduce"
}
layer {
  name: "inception_4e/3x3"
  type: "Convolution"
  bottom: "inception_4e/3x3_reduce"
  top: "inception_4e/3x3"
  param {
    lr_mult: 1
    decay_mult: 1
  }
  param {
    lr_mult: 2
    decay_mult: 0
  }
  convolution_param {
    num_output: 320
    pad: 1
    kernel_size: 3
    weight_filler {
      type: "xavier"
    }
    bias_filler {
      type: "constant"
      value: 0.2
    }
  }
}
layer {
  name: "inception_4e/relu_3x3"
  type: "ReLU"
  bottom: "inception_4e/3x3"
  top: "inception_4e/3x3"
}
layer {
  name: "inception_4e/5x5_reduce"
  type: "Convolution"
  bottom: "inception_4d/output"
  top: "inception_4e/5x5_reduce"
  param {
    lr_mult: 1
    decay_mult: 1
  }
  param {
    lr_mult: 2
    decay_mult: 0
  }
  convolution_param {
    num_output: 32
    kernel_size: 1
    weight_filler {
      type: "xavier"
    }
    bias_filler {
      type: "constant"
      value: 0.2
    }
  }
}
layer {
  name: "inception_4e/relu_5x5_reduce"
  type: "ReLU"
  bottom: "inception_4e/5x5_reduce"
  top: "inception_4e/5x5_reduce"
}
layer {
  name: "inception_4e/5x5"
  type: "Convolution"
  bottom: "inception_4e/5x5_reduce"
  top: "inception_4e/5x5"
  param {
    lr_mult: 1
    decay_mult: 1
  }
  param {
    lr_mult: 2
    decay_mult: 0
  }
  convolution_param {
    num_output: 128
    pad: 2
    kernel_size: 5
    weight_filler {
      type: "xavier"
    }
    bias_filler {
      type: "constant"
      value: 0.2
    }
  }
}
layer {
  name: "inception_4e/relu_5x5"
  type: "ReLU"
  bottom: "inception_4e/5x5"
  top: "inception_4e/5x5"
}
layer {
  name: "inception_4e/pool"
  type: "Pooling"
  bottom: "inception_4d/output"
  top: "inception_4e/po
I0105 11:56:04.311357 31115 layer_factory.hpp:74] Creating layer data
I0105 11:56:04.311396 31115 net.cpp:84] Creating Layer data
I0105 11:56:04.311411 31115 net.cpp:338] data -> data
I0105 11:56:04.311453 31115 net.cpp:338] data -> label
I0105 11:56:04.311471 31115 net.cpp:113] Setting up data
I0105 11:56:04.311482 31115 image_data_layer.cpp:36] Opening file /home/coldmanck/kaggle/label_train_full_resize_rotated.txt
I0105 11:56:04.315271 31115 image_data_layer.cpp:46] Shuffling data
I0105 11:56:04.316485 31115 image_data_layer.cpp:51] A total of 4235 images.
I0105 11:56:04.317881 31115 image_data_layer.cpp:80] output data size: 80,3,224,224
I0105 11:56:05.007917 31115 net.cpp:120] Top shape: 80 3 224 224 (12042240)
I0105 11:56:05.008064 31115 net.cpp:120] Top shape: 80 (80)
I0105 11:56:05.008116 31115 layer_factory.hpp:74] Creating layer label_data_1_split
I0105 11:56:05.008193 31115 net.cpp:84] Creating Layer label_data_1_split
I0105 11:56:05.008208 31115 net.cpp:380] label_data_1_split <- label
I0105 11:56:05.008261 31115 net.cpp:338] label_data_1_split -> label_data_1_split_0
I0105 11:56:05.008301 31115 net.cpp:338] label_data_1_split -> label_data_1_split_1
I0105 11:56:05.008329 31115 net.cpp:338] label_data_1_split -> label_data_1_split_2
I0105 11:56:05.008340 31115 net.cpp:113] Setting up label_data_1_split
I0105 11:56:05.008358 31115 net.cpp:120] Top shape: 80 (80)
I0105 11:56:05.008365 31115 net.cpp:120] Top shape: 80 (80)
I0105 11:56:05.008373 31115 net.cpp:120] Top shape: 80 (80)
I0105 11:56:05.008389 31115 layer_factory.hpp:74] Creating layer conv1/7x7_s2
I0105 11:56:05.008438 31115 net.cpp:84] Creating Layer conv1/7x7_s2
I0105 11:56:05.008446 31115 net.cpp:380] conv1/7x7_s2 <- data
I0105 11:56:05.008482 31115 net.cpp:338] conv1/7x7_s2 -> conv1/7x7_s2
I0105 11:56:05.008504 31115 net.cpp:113] Setting up conv1/7x7_s2
I0105 11:56:05.326817 31115 net.cpp:120] Top shape: 80 64 112 112 (64225280)
I0105 11:56:05.326906 31115 layer_factory.hpp:74] Creating layer conv1/relu_7x7
I0105 11:56:05.326926 31115 net.cpp:84] Creating Layer conv1/relu_7x7
I0105 11:56:05.326937 31115 net.cpp:380] conv1/relu_7x7 <- conv1/7x7_s2
I0105 11:56:05.326951 31115 net.cpp:327] conv1/relu_7x7 -> conv1/7x7_s2 (in-place)
I0105 11:56:05.326967 31115 net.cpp:113] Setting up conv1/relu_7x7
I0105 11:56:05.327352 31115 net.cpp:120] Top shape: 80 64 112 112 (64225280)
I0105 11:56:05.327368 31115 layer_factory.hpp:74] Creating layer pool1/3x3_s2
I0105 11:56:05.327388 31115 net.cpp:84] Creating Layer pool1/3x3_s2
I0105 11:56:05.327395 31115 net.cpp:380] pool1/3x3_s2 <- conv1/7x7_s2
I0105 11:56:05.327407 31115 net.cpp:338] pool1/3x3_s2 -> pool1/3x3_s2
I0105 11:56:05.327419 31115 net.cpp:113] Setting up pool1/3x3_s2
I0105 11:56:05.327524 31115 net.cpp:120] Top shape: 80 64 56 56 (16056320)
I0105 11:56:05.327538 31115 layer_factory.hpp:74] Creating layer pool1/norm1
I0105 11:56:05.327553 31115 net.cpp:84] Creating Layer pool1/norm1
I0105 11:56:05.327560 31115 net.cpp:380] pool1/norm1 <- pool1/3x3_s2
I0105 11:56:05.327569 31115 net.cpp:338] pool1/norm1 -> pool1/norm1
I0105 11:56:05.327581 31115 net.cpp:113] Setting up pool1/norm1
I0105 11:56:05.327594 31115 net.cpp:120] Top shape: 80 64 56 56 (16056320)
I0105 11:56:05.327602 31115 layer_factory.hpp:74] Creating layer conv2/3x3_reduce
I0105 11:56:05.327616 31115 net.cpp:84] Creating Layer conv2/3x3_reduce
I0105 11:56:05.327625 31115 net.cpp:380] conv2/3x3_reduce <- pool1/norm1
I0105 11:56:05.327635 31115 net.cpp:338] conv2/3x3_reduce -> conv2/3x3_reduce
I0105 11:56:05.327649 31115 net.cpp:113] Setting up conv2/3x3_reduce
I0105 11:56:05.328438 31115 net.cpp:120] Top shape: 80 64 56 56 (16056320)
I0105 11:56:05.328464 31115 layer_factory.hpp:74] Creating layer conv2/relu_3x3_reduce
I0105 11:56:05.328475 31115 net.cpp:84] Creating Layer conv2/relu_3x3_reduce
I0105 11:56:05.328483 31115 net.cpp:380] conv2/relu_3x3_reduce <- conv2/3x3_reduce
I0105 11:56:05.328493 31115 net.cpp:327] conv2/relu_3x3_reduce -> conv2/3x3_reduce (in-place)
I0105 11:56:05.328503 31115 net.cpp:113] Setting up conv2/relu_3x3_reduce
I0105 11:56:05.328944 31115 net.cpp:120] Top shape: 80 64 56 56 (16056320)
I0105 11:56:05.328958 31115 layer_factory.hpp:74] Creating layer conv2/3x3
I0105 11:56:05.328975 31115 net.cpp:84] Creating Layer conv2/3x3
I0105 11:56:05.328984 31115 net.cpp:380] conv2/3x3 <- conv2/3x3_reduce
I0105 11:56:05.328996 31115 net.cpp:338] conv2/3x3 -> conv2/3x3
I0105 11:56:05.329008 31115 net.cpp:113] Setting up conv2/3x3
I0105 11:56:05.330768 31115 net.cpp:120] Top shape: 80 192 56 56 (48168960)
I0105 11:56:05.330793 31115 layer_factory.hpp:74] Creating layer conv2/relu_3x3
I0105 11:56:05.330804 31115 net.cpp:84] Creating Layer conv2/relu_3x3
I0105 11:56:05.330812 31115 net.cpp:380] conv2/relu_3x3 <- conv2/3x3
I0105 11:56:05.330822 31115 net.cpp:327] conv2/relu_3x3 -> conv2/3x3 (in-place)
I0105 11:56:05.330833 31115 net.cpp:113] Setting up conv2/relu_3x3
I0105 11:56:05.331162 31115 net.cpp:120] Top shape: 80 192 56 56 (48168960)
I0105 11:56:05.331179 31115 layer_factory.hpp:74] Creating layer conv2/norm2
I0105 11:56:05.331192 31115 net.cpp:84] Creating Layer conv2/norm2
I0105 11:56:05.331213 31115 net.cpp:380] conv2/norm2 <- conv2/3x3
I0105 11:56:05.331243 31115 net.cpp:338] conv2/norm2 -> conv2/norm2
I0105 11:56:05.331254 31115 net.cpp:113] Setting up conv2/norm2
I0105 11:56:05.331266 31115 net.cpp:120] Top shape: 80 192 56 56 (48168960)
I0105 11:56:05.331272 31115 layer_factory.hpp:74] Creating layer pool2/3x3_s2
I0105 11:56:05.331282 31115 net.cpp:84] Creating Layer pool2/3x3_s2
I0105 11:56:05.331290 31115 net.cpp:380] pool2/3x3_s2 <- conv2/norm2
I0105 11:56:05.331298 31115 net.cpp:338] pool2/3x3_s2 -> pool2/3x3_s2
I0105 11:56:05.331307 31115 net.cpp:113] Setting up pool2/3x3_s2
I0105 11:56:05.331419 31115 net.cpp:120] Top shape: 80 192 28 28 (12042240)
I0105 11:56:05.331429 31115 layer_factory.hpp:74] Creating layer pool2/3x3_s2_pool2/3x3_s2_0_split
I0105 11:56:05.331441 31115 net.cpp:84] Creating Layer pool2/3x3_s2_pool2/3x3_s2_0_split
I0105 11:56:05.331449 31115 net.cpp:380] pool2/3x3_s2_pool2/3x3_s2_0_split <- pool2/3x3_s2
I0105 11:56:05.331460 31115 net.cpp:338] pool2/3x3_s2_pool2/3x3_s2_0_split -> pool2/3x3_s2_pool2/3x3_s2_0_split_0
I0105 11:56:05.331472 31115 net.cpp:338] pool2/3x3_s2_pool2/3x3_s2_0_split -> pool2/3x3_s2_pool2/3x3_s2_0_split_1
I0105 11:56:05.331483 31115 net.cpp:338] pool2/3x3_s2_pool2/3x3_s2_0_split -> pool2/3x3_s2_pool2/3x3_s2_0_split_2
I0105 11:56:05.331492 31115 net.cpp:338] pool2/3x3_s2_pool2/3x3_s2_0_split -> pool2/3x3_s2_pool2/3x3_s2_0_split_3
I0105 11:56:05.331502 31115 net.cpp:113] Setting up pool2/3x3_s2_pool2/3x3_s2_0_split
I0105 11:56:05.331514 31115 net.cpp:120] Top shape: 80 192 28 28 (12042240)
I0105 11:56:05.331522 31115 net.cpp:120] Top shape: 80 192 28 28 (12042240)
I0105 11:56:05.331531 31115 net.cpp:120] Top shape: 80 192 28 28 (12042240)
I0105 11:56:05.331537 31115 net.cpp:120] Top shape: 80 192 28 28 (12042240)
I0105 11:56:05.331544 31115 layer_factory.hpp:74] Creating layer inception_3a/1x1
I0105 11:56:05.331557 31115 net.cpp:84] Creating Layer inception_3a/1x1
I0105 11:56:05.331563 31115 net.cpp:380] inception_3a/1x1 <- pool2/3x3_s2_pool2/3x3_s2_0_split_0
I0105 11:56:05.331575 31115 net.cpp:338] inception_3a/1x1 -> inception_3a/1x1
I0105 11:56:05.331590 31115 net.cpp:113] Setting up inception_3a/1x1
I0105 11:56:05.332280 31115 net.cpp:120] Top shape: 80 64 28 28 (4014080)
I0105 11:56:05.332306 31115 layer_factory.hpp:74] Creating layer inception_3a/relu_1x1
I0105 11:56:05.332319 31115 net.cpp:84] Creating Layer inception_3a/relu_1x1
I0105 11:56:05.332325 31115 net.cpp:380] inception_3a/relu_1x1 <- inception_3a/1x1
I0105 11:56:05.332336 31115 net.cpp:327] inception_3a/relu_1x1 -> inception_3a/1x1 (in-place)
I0105 11:56:05.332347 31115 net.cpp:113] Setting up inception_3a/relu_1x1
I0105 11:56:05.332453 31115 net.cpp:120] Top shape: 80 64 28 28 (4014080)
I0105 11:56:05.332464 31115 layer_factory.hpp:74] Creating layer inception_3a/3x3_reduce
I0105 11:56:05.332481 31115 net.cpp:84] Creating Layer inception_3a/3x3_reduce
I0105 11:56:05.332490 31115 net.cpp:380] inception_3a/3x3_reduce <- pool2/3x3_s2_pool2/3x3_s2_0_split_1
I0105 11:56:05.332504 31115 net.cpp:338] inception_3a/3x3_reduce -> inception_3a/3x3_reduce
I0105 11:56:05.332515 31115 net.cpp:113] Setting up inception_3a/3x3_reduce
I0105 11:56:05.333415 31115 net.cpp:120] Top shape: 80 96 28 28 (6021120)
I0105 11:56:05.333446 31115 layer_factory.hpp:74] Creating layer inception_3a/relu_3x3_reduce
I0105 11:56:05.333464 31115 net.cpp:84] Creating Layer inception_3a/relu_3x3_reduce
I0105 11:56:05.333472 31115 net.cpp:380] inception_3a/relu_3x3_reduce <- inception_3a/3x3_reduce
I0105 11:56:05.333482 31115 net.cpp:327] inception_3a/relu_3x3_reduce -> inception_3a/3x3_reduce (in-place)
I0105 11:56:05.333493 31115 net.cpp:113] Setting up inception_3a/relu_3x3_reduce
I0105 11:56:05.333595 31115 net.cpp:120] Top shape: 80 96 28 28 (6021120)
I0105 11:56:05.333606 31115 layer_factory.hpp:74] Creating layer inception_3a/3x3
I0105 11:56:05.333619 31115 net.cpp:84] Creating Layer inception_3a/3x3
I0105 11:56:05.333626 31115 net.cpp:380] inception_3a/3x3 <- inception_3a/3x3_reduce
I0105 11:56:05.333645 31115 net.cpp:338] inception_3a/3x3 -> inception_3a/3x3
I0105 11:56:05.333667 31115 net.cpp:113] Setting up inception_3a/3x3
I0105 11:56:05.335639 31115 net.cpp:120] Top shape: 80 128 28 28 (8028160)
I0105 11:56:05.335660 31115 layer_factory.hpp:74] Creating layer inception_3a/relu_3x3
I0105 11:56:05.335671 31115 net.cpp:84] Creating Layer inception_3a/relu_3x3
I0105 11:56:05.335680 31115 net.cpp:380] inception_3a/relu_3x3 <- inception_3a/3x3
I0105 11:56:05.335695 31115 net.cpp:327] inception_3a/relu_3x3 -> inception_3a/3x3 (in-place)
I0105 11:56:05.335705 31115 net.cpp:113] Setting up inception_3a/relu_3x3
I0105 11:56:05.336019 31115 net.cpp:120] Top shape: 80 128 28 28 (8028160)
I0105 11:56:05.336035 31115 layer_factory.hpp:74] Creating layer inception_3a/5x5_reduce
I0105 11:56:05.336046 31115 net.cpp:84] Creating Layer inception_3a/5x5_reduce
I0105 11:56:05.336053 31115 net.cpp:380] inception_3a/5x5_reduce <- pool2/3x3_s2_pool2/3x3_s2_0_split_2
I0105 11:56:05.336066 31115 net.cpp:338] inception_3a/5x5_reduce -> inception_3a/5x5_reduce
I0105 11:56:05.336082 31115 net.cpp:113] Setting up inception_3a/5x5_reduce
I0105 11:56:05.336668 31115 net.cpp:120] Top shape: 80 16 28 28 (1003520)
I0105 11:56:05.336693 31115 layer_factory.hpp:74] Creating layer inception_3a/relu_5x5_reduce
I0105 11:56:05.336711 31115 net.cpp:84] Creating Layer inception_3a/relu_5x5_reduce
I0105 11:56:05.336720 31115 net.cpp:380] inception_3a/relu_5x5_reduce <- inception_3a/5x5_reduce
I0105 11:56:05.336730 31115 net.cpp:327] inception_3a/relu_5x5_reduce -> inception_3a/5x5_reduce (in-place)
I0105 11:56:05.336741 31115 net.cpp:113] Setting up inception_3a/relu_5x5_reduce
I0105 11:56:05.336863 31115 net.cpp:120] Top shape: 80 16 28 28 (1003520)
I0105 11:56:05.336874 31115 layer_factory.hpp:74] Creating layer inception_3a/5x5
I0105 11:56:05.336889 31115 net.cpp:84] Creating Layer inception_3a/5x5
I0105 11:56:05.336897 31115 net.cpp:380] inception_3a/5x5 <- inception_3a/5x5_reduce
I0105 11:56:05.336907 31115 net.cpp:338] inception_3a/5x5 -> inception_3a/5x5
I0105 11:56:05.336918 31115 net.cpp:113] Setting up inception_3a/5x5
I0105 11:56:05.337721 31115 net.cpp:120] Top shape: 80 32 28 28 (2007040)
I0105 11:56:05.337744 31115 layer_factory.hpp:74] Creating layer inception_3a/relu_5x5
I0105 11:56:05.337755 31115 net.cpp:84] Creating Layer inception_3a/relu_5x5
I0105 11:56:05.337764 31115 net.cpp:380] inception_3a/relu_5x5 <- inception_3a/5x5
I0105 11:56:05.337775 31115 net.cpp:327] inception_3a/relu_5x5 -> inception_3a/5x5 (in-place)
I0105 11:56:05.337786 31115 net.cpp:113] Setting up inception_3a/relu_5x5
I0105 11:56:05.337898 31115 net.cpp:120] Top shape: 80 32 28 28 (2007040)
I0105 11:56:05.337910 31115 layer_factory.hpp:74] Creating layer inception_3a/pool
I0105 11:56:05.337919 31115 layer_factory.cpp:56] CUDNN does not support padding or multiple tops. Using Caffe's own pooling layer.
I0105 11:56:05.337930 31115 net.cpp:84] Creating Layer inception_3a/pool
I0105 11:56:05.337939 31115 net.cpp:380] inception_3a/pool <- pool2/3x3_s2_pool2/3x3_s2_0_split_3
I0105 11:56:05.337951 31115 net.cpp:338] inception_3a/pool -> inception_3a/pool
I0105 11:56:05.337963 31115 net.cpp:113] Setting up inception_3a/pool
I0105 11:56:05.337976 31115 net.cpp:120] Top shape: 80 192 28 28 (12042240)
I0105 11:56:05.337983 31115 layer_factory.hpp:74] Creating layer inception_3a/pool_proj
I0105 11:56:05.337998 31115 net.cpp:84] Creating Layer inception_3a/pool_proj
I0105 11:56:05.338006 31115 net.cpp:380] inception_3a/pool_proj <- inception_3a/pool
I0105 11:56:05.338016 31115 net.cpp:338] inception_3a/pool_proj -> inception_3a/pool_proj
I0105 11:56:05.338027 31115 net.cpp:113] Setting up inception_3a/pool_proj
I0105 11:56:05.338654 31115 net.cpp:120] Top shape: 80 32 28 28 (2007040)
I0105 11:56:05.338680 31115 layer_factory.hpp:74] Creating layer inception_3a/relu_pool_proj
I0105 11:56:05.338692 31115 net.cpp:84] Creating Layer inception_3a/relu_pool_proj
I0105 11:56:05.338699 31115 net.cpp:380] inception_3a/relu_pool_proj <- inception_3a/pool_proj
I0105 11:56:05.338719 31115 net.cpp:327] inception_3a/relu_pool_proj -> inception_3a/pool_proj (in-place)
I0105 11:56:05.338740 31115 net.cpp:113] Setting up inception_3a/relu_pool_proj
I0105 11:56:05.338841 31115 net.cpp:120] Top shape: 80 32 28 28 (2007040)
I0105 11:56:05.338852 31115 layer_factory.hpp:74] Creating layer inception_3a/output
I0105 11:56:05.338878 31115 net.cpp:84] Creating Layer inception_3a/output
I0105 11:56:05.338887 31115 net.cpp:380] inception_3a/output <- inception_3a/1x1
I0105 11:56:05.338896 31115 net.cpp:380] inception_3a/output <- inception_3a/3x3
I0105 11:56:05.338903 31115 net.cpp:380] inception_3a/output <- inception_3a/5x5
I0105 11:56:05.338910 31115 net.cpp:380] inception_3a/output <- inception_3a/pool_proj
I0105 11:56:05.338919 31115 net.cpp:338] inception_3a/output -> inception_3a/output
I0105 11:56:05.338930 31115 net.cpp:113] Setting up inception_3a/output
I0105 11:56:05.338943 31115 net.cpp:120] Top shape: 80 256 28 28 (16056320)
I0105 11:56:05.338949 31115 layer_factory.hpp:74] Creating layer inception_3a/output_inception_3a/output_0_split
I0105 11:56:05.338961 31115 net.cpp:84] Creating Layer inception_3a/output_inception_3a/output_0_split
I0105 11:56:05.338968 31115 net.cpp:380] inception_3a/output_inception_3a/output_0_split <- inception_3a/output
I0105 11:56:05.338976 31115 net.cpp:338] inception_3a/output_inception_3a/output_0_split -> inception_3a/output_inception_3a/output_0_split_0
I0105 11:56:05.338987 31115 net.cpp:338] inception_3a/output_inception_3a/output_0_split -> inception_3a/output_inception_3a/output_0_split_1
I0105 11:56:05.338997 31115 net.cpp:338] inception_3a/output_inception_3a/output_0_split -> inception_3a/output_inception_3a/output_0_split_2
I0105 11:56:05.339010 31115 net.cpp:338] inception_3a/output_inception_3a/output_0_split -> inception_3a/output_inception_3a/output_0_split_3
I0105 11:56:05.339020 31115 net.cpp:113] Setting up inception_3a/output_inception_3a/output_0_split
I0105 11:56:05.339030 31115 net.cpp:120] Top shape: 80 256 28 28 (16056320)
I0105 11:56:05.339038 31115 net.cpp:120] Top shape: 80 256 28 28 (16056320)
I0105 11:56:05.339046 31115 net.cpp:120] Top shape: 80 256 28 28 (16056320)
I0105 11:56:05.339054 31115 net.cpp:120] Top shape: 80 256 28 28 (16056320)
I0105 11:56:05.339061 31115 layer_factory.hpp:74] Creating layer inception_3b/1x1
I0105 11:56:05.339073 31115 net.cpp:84] Creating Layer inception_3b/1x1
I0105 11:56:05.339079 31115 net.cpp:380] inception_3b/1x1 <- inception_3a/output_inception_3a/output_0_split_0
I0105 11:56:05.339092 31115 net.cpp:338] inception_3b/1x1 -> inception_3b/1x1
I0105 11:56:05.339103 31115 net.cpp:113] Setting up inception_3b/1x1
I0105 11:56:05.340062 31115 net.cpp:120] Top shape: 80 128 28 28 (8028160)
I0105 11:56:05.340085 31115 layer_factory.hpp:74] Creating layer inception_3b/relu_1x1
I0105 11:56:05.340097 31115 net.cpp:84] Creating Layer inception_3b/relu_1x1
I0105 11:56:05.340106 31115 net.cpp:380] inception_3b/relu_1x1 <- inception_3b/1x1
I0105 11:56:05.340116 31115 net.cpp:327] inception_3b/relu_1x1 -> inception_3b/1x1 (in-place)
I0105 11:56:05.340128 31115 net.cpp:113] Setting up inception_3b/relu_1x1
I0105 11:56:05.340463 31115 net.cpp:120] Top shape: 80 128 28 28 (8028160)
I0105 11:56:05.340479 31115 layer_factory.hpp:74] Creating layer inception_3b/3x3_reduce
I0105 11:56:05.340492 31115 net.cpp:84] Creating Layer inception_3b/3x3_reduce
I0105 11:56:05.340502 31115 net.cpp:380] inception_3b/3x3_reduce <- inception_3a/output_inception_3a/output_0_split_1
I0105 11:56:05.340514 31115 net.cpp:338] inception_3b/3x3_reduce -> inception_3b/3x3_reduce
I0105 11:56:05.340528 31115 net.cpp:113] Setting up inception_3b/3x3_reduce
I0105 11:56:05.341598 31115 net.cpp:120] Top shape: 80 128 28 28 (8028160)
I0105 11:56:05.341621 31115 layer_factory.hpp:74] Creating layer inception_3b/relu_3x3_reduce
I0105 11:56:05.341634 31115 net.cpp:84] Creating Layer inception_3b/relu_3x3_reduce
I0105 11:56:05.341642 31115 net.cpp:380] inception_3b/relu_3x3_reduce <- inception_3b/3x3_reduce
I0105 11:56:05.341655 31115 net.cpp:327] inception_3b/relu_3x3_reduce -> inception_3b/3x3_reduce (in-place)
I0105 11:56:05.341682 31115 net.cpp:113] Setting up inception_3b/relu_3x3_reduce
I0105 11:56:05.341779 31115 net.cpp:120] Top shape: 80 128 28 28 (8028160)
I0105 11:56:05.341792 31115 layer_factory.hpp:74] Creating layer inception_3b/3x3
I0105 11:56:05.341810 31115 net.cpp:84] Creating Layer inception_3b/3x3
I0105 11:56:05.341819 31115 net.cpp:380] inception_3b/3x3 <- inception_3b/3x3_reduce
I0105 11:56:05.341831 31115 net.cpp:338] inception_3b/3x3 -> inception_3b/3x3
I0105 11:56:05.341843 31115 net.cpp:113] Setting up inception_3b/3x3
I0105 11:56:05.345492 31115 net.cpp:120] Top shape: 80 192 28 28 (12042240)
I0105 11:56:05.345516 31115 layer_factory.hpp:74] Creating layer inception_3b/relu_3x3
I0105 11:56:05.345538 31115 net.cpp:84] Creating Layer inception_3b/relu_3x3
I0105 11:56:05.345547 31115 net.cpp:380] inception_3b/relu_3x3 <- inception_3b/3x3
I0105 11:56:05.345557 31115 net.cpp:327] inception_3b/relu_3x3 -> inception_3b/3x3 (in-place)
I0105 11:56:05.345568 31115 net.cpp:113] Setting up inception_3b/relu_3x3
I0105 11:56:05.345671 31115 net.cpp:120] Top shape: 80 192 28 28 (12042240)
I0105 11:56:05.345685 31115 layer_factory.hpp:74] Creating layer inception_3b/5x5_reduce
I0105 11:56:05.345702 31115 net.cpp:84] Creating Layer inception_3b/5x5_reduce
I0105 11:56:05.345710 31115 net.cpp:380] inception_3b/5x5_reduce <- inception_3a/output_inception_3a/output_0_split_2
I0105 11:56:05.345722 31115 net.cpp:338] inception_3b/5x5_reduce -> inception_3b/5x5_reduce
I0105 11:56:05.345736 31115 net.cpp:113] Setting up inception_3b/5x5_reduce
I0105 11:56:05.346428 31115 net.cpp:120] Top shape: 80 32 28 28 (2007040)
I0105 11:56:05.346451 31115 layer_factory.hpp:74] Creating layer inception_3b/relu_5x5_reduce
I0105 11:56:05.346464 31115 net.cpp:84] Creating Layer inception_3b/relu_5x5_reduce
I0105 11:56:05.346473 31115 net.cpp:380] inception_3b/relu_5x5_reduce <- inception_3b/5x5_reduce
I0105 11:56:05.346485 31115 net.cpp:327] inception_3b/relu_5x5_reduce -> inception_3b/5x5_reduce (in-place)
I0105 11:56:05.346496 31115 net.cpp:113] Setting up inception_3b/relu_5x5_reduce
I0105 11:56:05.346601 31115 net.cpp:120] Top shape: 80 32 28 28 (2007040)
I0105 11:56:05.346614 31115 layer_factory.hpp:74] Creating layer inception_3b/5x5
I0105 11:56:05.346637 31115 net.cpp:84] Creating Layer inception_3b/5x5
I0105 11:56:05.346645 31115 net.cpp:380] inception_3b/5x5 <- inception_3b/5x5_reduce
I0105 11:56:05.346659 31115 net.cpp:338] inception_3b/5x5 -> inception_3b/5x5
I0105 11:56:05.346679 31115 net.cpp:113] Setting up inception_3b/5x5
I0105 11:56:05.348294 31115 net.cpp:120] Top shape: 80 96 28 28 (6021120)
I0105 11:56:05.348316 31115 layer_factory.hpp:74] Creating layer inception_3b/relu_5x5
I0105 11:56:05.348330 31115 net.cpp:84] Creating Layer inception_3b/relu_5x5
I0105 11:56:05.348341 31115 net.cpp:380] inception_3b/relu_5x5 <- inception_3b/5x5
I0105 11:56:05.348351 31115 net.cpp:327] inception_3b/relu_5x5 -> inception_3b/5x5 (in-place)
I0105 11:56:05.348362 31115 net.cpp:113] Setting up inception_3b/relu_5x5
I0105 11:56:05.348701 31115 net.cpp:120] Top shape: 80 96 28 28 (6021120)
I0105 11:56:05.348719 31115 layer_factory.hpp:74] Creating layer inception_3b/pool
I0105 11:56:05.348731 31115 layer_factory.cpp:56] CUDNN does not support padding or multiple tops. Using Caffe's own pooling layer.
I0105 11:56:05.348742 31115 net.cpp:84] Creating Layer inception_3b/pool
I0105 11:56:05.348749 31115 net.cpp:380] inception_3b/pool <- inception_3a/output_inception_3a/output_0_split_3
I0105 11:56:05.348762 31115 net.cpp:338] inception_3b/pool -> inception_3b/pool
I0105 11:56:05.348774 31115 net.cpp:113] Setting up inception_3b/pool
I0105 11:56:05.348788 31115 net.cpp:120] Top shape: 80 256 28 28 (16056320)
I0105 11:56:05.348796 31115 layer_factory.hpp:74] Creating layer inception_3b/pool_proj
I0105 11:56:05.348811 31115 net.cpp:84] Creating Layer inception_3b/pool_proj
I0105 11:56:05.348819 31115 net.cpp:380] inception_3b/pool_proj <- inception_3b/pool
I0105 11:56:05.348834 31115 net.cpp:338] inception_3b/pool_proj -> inception_3b/pool_proj
I0105 11:56:05.348862 31115 net.cpp:113] Setting up inception_3b/pool_proj
I0105 11:56:05.349735 31115 net.cpp:120] Top shape: 80 64 28 28 (4014080)
I0105 11:56:05.349756 31115 layer_factory.hpp:74] Creating layer inception_3b/relu_pool_proj
I0105 11:56:05.349771 31115 net.cpp:84] Creating Layer inception_3b/relu_pool_proj
I0105 11:56:05.349779 31115 net.cpp:380] inception_3b/relu_pool_proj <- inception_3b/pool_proj
I0105 11:56:05.349791 31115 net.cpp:327] inception_3b/relu_pool_proj -> inception_3b/pool_proj (in-place)
I0105 11:56:05.349802 31115 net.cpp:113] Setting up inception_3b/relu_pool_proj
I0105 11:56:05.349903 31115 net.cpp:120] Top shape: 80 64 28 28 (4014080)
I0105 11:56:05.349916 31115 layer_factory.hpp:74] Creating layer inception_3b/output
I0105 11:56:05.349926 31115 net.cpp:84] Creating Layer inception_3b/output
I0105 11:56:05.349934 31115 net.cpp:380] inception_3b/output <- inception_3b/1x1
I0105 11:56:05.349943 31115 net.cpp:380] inception_3b/output <- inception_3b/3x3
I0105 11:56:05.349951 31115 net.cpp:380] inception_3b/output <- inception_3b/5x5
I0105 11:56:05.349958 31115 net.cpp:380] inception_3b/output <- inception_3b/pool_proj
I0105 11:56:05.349975 31115 net.cpp:338] inception_3b/output -> inception_3b/output
I0105 11:56:05.349987 31115 net.cpp:113] Setting up inception_3b/output
I0105 11:56:05.349999 31115 net.cpp:120] Top shape: 80 480 28 28 (30105600)
I0105 11:56:05.350006 31115 layer_factory.hpp:74] Creating layer pool3/3x3_s2
I0105 11:56:05.350016 31115 net.cpp:84] Creating Layer pool3/3x3_s2
I0105 11:56:05.350023 31115 net.cpp:380] pool3/3x3_s2 <- inception_3b/output
I0105 11:56:05.350033 31115 net.cpp:338] pool3/3x3_s2 -> pool3/3x3_s2
I0105 11:56:05.350044 31115 net.cpp:113] Setting up pool3/3x3_s2
I0105 11:56:05.350150 31115 net.cpp:120] Top shape: 80 480 14 14 (7526400)
I0105 11:56:05.350172 31115 layer_factory.hpp:74] Creating layer pool3/3x3_s2_pool3/3x3_s2_0_split
I0105 11:56:05.350183 31115 net.cpp:84] Creating Layer pool3/3x3_s2_pool3/3x3_s2_0_split
I0105 11:56:05.350189 31115 net.cpp:380] pool3/3x3_s2_pool3/3x3_s2_0_split <- pool3/3x3_s2
I0105 11:56:05.350201 31115 net.cpp:338] pool3/3x3_s2_pool3/3x3_s2_0_split -> pool3/3x3_s2_pool3/3x3_s2_0_split_0
I0105 11:56:05.350213 31115 net.cpp:338] pool3/3x3_s2_pool3/3x3_s2_0_split -> pool3/3x3_s2_pool3/3x3_s2_0_split_1
I0105 11:56:05.350224 31115 net.cpp:338] pool3/3x3_s2_pool3/3x3_s2_0_split -> pool3/3x3_s2_pool3/3x3_s2_0_split_2
I0105 11:56:05.350234 31115 net.cpp:338] pool3/3x3_s2_pool3/3x3_s2_0_split -> pool3/3x3_s2_pool3/3x3_s2_0_split_3
I0105 11:56:05.350242 31115 net.cpp:113] Setting up pool3/3x3_s2_pool3/3x3_s2_0_split
I0105 11:56:05.350253 31115 net.cpp:120] Top shape: 80 480 14 14 (7526400)
I0105 11:56:05.350261 31115 net.cpp:120] Top shape: 80 480 14 14 (7526400)
I0105 11:56:05.350270 31115 net.cpp:120] Top shape: 80 480 14 14 (7526400)
I0105 11:56:05.350277 31115 net.cpp:120] Top shape: 80 480 14 14 (7526400)
I0105 11:56:05.350285 31115 layer_factory.hpp:74] Creating layer inception_4a/1x1
I0105 11:56:05.350299 31115 net.cpp:84] Creating Layer inception_4a/1x1
I0105 11:56:05.350309 31115 net.cpp:380] inception_4a/1x1 <- pool3/3x3_s2_pool3/3x3_s2_0_split_0
I0105 11:56:05.350319 31115 net.cpp:338] inception_4a/1x1 -> inception_4a/1x1
I0105 11:56:05.350330 31115 net.cpp:113] Setting up inception_4a/1x1
I0105 11:56:05.352190 31115 net.cpp:120] Top shape: 80 192 14 14 (3010560)
I0105 11:56:05.352210 31115 layer_factory.hpp:74] Creating layer inception_4a/relu_1x1
I0105 11:56:05.352222 31115 net.cpp:84] Creating Layer inception_4a/relu_1x1
I0105 11:56:05.352231 31115 net.cpp:380] inception_4a/relu_1x1 <- inception_4a/1x1
I0105 11:56:05.352241 31115 net.cpp:327] inception_4a/relu_1x1 -> inception_4a/1x1 (in-place)
I0105 11:56:05.352252 31115 net.cpp:113] Setting up inception_4a/relu_1x1
I0105 11:56:05.352574 31115 net.cpp:120] Top shape: 80 192 14 14 (3010560)
I0105 11:56:05.352589 31115 layer_factory.hpp:74] Creating layer inception_4a/3x3_reduce
I0105 11:56:05.352604 31115 net.cpp:84] Creating Layer inception_4a/3x3_reduce
I0105 11:56:05.352618 31115 net.cpp:380] inception_4a/3x3_reduce <- pool3/3x3_s2_pool3/3x3_s2_0_split_1
I0105 11:56:05.352648 31115 net.cpp:338] inception_4a/3x3_reduce -> inception_4a/3x3_reduce
I0105 11:56:05.352663 31115 net.cpp:113] Setting up inception_4a/3x3_reduce
I0105 11:56:05.353935 31115 net.cpp:120] Top shape: 80 96 14 14 (1505280)
I0105 11:56:05.353965 31115 layer_factory.hpp:74] Creating layer inception_4a/relu_3x3_reduce
I0105 11:56:05.353979 31115 net.cpp:84] Creating Layer inception_4a/relu_3x3_reduce
I0105 11:56:05.353987 31115 net.cpp:380] inception_4a/relu_3x3_reduce <- inception_4a/3x3_reduce
I0105 11:56:05.354001 31115 net.cpp:327] inception_4a/relu_3x3_reduce -> inception_4a/3x3_reduce (in-place)
I0105 11:56:05.354012 31115 net.cpp:113] Setting up inception_4a/relu_3x3_reduce
I0105 11:56:05.354115 31115 net.cpp:120] Top shape: 80 96 14 14 (1505280)
I0105 11:56:05.354125 31115 layer_factory.hpp:74] Creating layer inception_4a/3x3
I0105 11:56:05.354140 31115 net.cpp:84] Creating Layer inception_4a/3x3
I0105 11:56:05.354146 31115 net.cpp:380] inception_4a/3x3 <- inception_4a/3x3_reduce
I0105 11:56:05.354159 31115 net.cpp:338] inception_4a/3x3 -> inception_4a/3x3
I0105 11:56:05.354171 31115 net.cpp:113] Setting up inception_4a/3x3
I0105 11:56:05.357146 31115 net.cpp:120] Top shape: 80 208 14 14 (3261440)
I0105 11:56:05.357169 31115 layer_factory.hpp:74] Creating layer inception_4a/relu_3x3
I0105 11:56:05.357180 31115 net.cpp:84] Creating Layer inception_4a/relu_3x3
I0105 11:56:05.357188 31115 net.cpp:380] inception_4a/relu_3x3 <- inception_4a/3x3
I0105 11:56:05.357198 31115 net.cpp:327] inception_4a/relu_3x3 -> inception_4a/3x3 (in-place)
I0105 11:56:05.357209 31115 net.cpp:113] Setting up inception_4a/relu_3x3
I0105 11:56:05.357311 31115 net.cpp:120] Top shape: 80 208 14 14 (3261440)
I0105 11:56:05.357322 31115 layer_factory.hpp:74] Creating layer inception_4a/5x5_reduce
I0105 11:56:05.357336 31115 net.cpp:84] Creating Layer inception_4a/5x5_reduce
I0105 11:56:05.357343 31115 net.cpp:380] inception_4a/5x5_reduce <- pool3/3x3_s2_pool3/3x3_s2_0_split_2
I0105 11:56:05.357357 31115 net.cpp:338] inception_4a/5x5_reduce -> inception_4a/5x5_reduce
I0105 11:56:05.357369 31115 net.cpp:113] Setting up inception_4a/5x5_reduce
I0105 11:56:05.358011 31115 net.cpp:120] Top shape: 80 16 14 14 (250880)
I0105 11:56:05.358031 31115 layer_factory.hpp:74] Creating layer inception_4a/relu_5x5_reduce
I0105 11:56:05.358045 31115 net.cpp:84] Creating Layer inception_4a/relu_5x5_reduce
I0105 11:56:05.358054 31115 net.cpp:380] inception_4a/relu_5x5_reduce <- inception_4a/5x5_reduce
I0105 11:56:05.358063 31115 net.cpp:327] inception_4a/relu_5x5_reduce -> inception_4a/5x5_reduce (in-place)
I0105 11:56:05.358079 31115 net.cpp:113] Setting up inception_4a/relu_5x5_reduce
I0105 11:56:05.358183 31115 net.cpp:120] Top shape: 80 16 14 14 (250880)
I0105 11:56:05.358196 31115 layer_factory.hpp:74] Creating layer inception_4a/5x5
I0105 11:56:05.358207 31115 net.cpp:84] Creating Layer inception_4a/5x5
I0105 11:56:05.358216 31115 net.cpp:380] inception_4a/5x5 <- inception_4a/5x5_reduce
I0105 11:56:05.358228 31115 net.cpp:338] inception_4a/5x5 -> inception_4a/5x5
I0105 11:56:05.358240 31115 net.cpp:113] Setting up inception_4a/5x5
I0105 11:56:05.359040 31115 net.cpp:120] Top shape: 80 48 14 14 (752640)
I0105 11:56:05.359061 31115 layer_factory.hpp:74] Creating layer inception_4a/relu_5x5
I0105 11:56:05.359076 31115 net.cpp:84] Creating Layer inception_4a/relu_5x5
I0105 11:56:05.359083 31115 net.cpp:380] inception_4a/relu_5x5 <- inception_4a/5x5
I0105 11:56:05.359093 31115 net.cpp:327] inception_4a/relu_5x5 -> inception_4a/5x5 (in-place)
I0105 11:56:05.359103 31115 net.cpp:113] Setting up inception_4a/relu_5x5
I0105 11:56:05.359426 31115 net.cpp:120] Top shape: 80 48 14 14 (752640)
I0105 11:56:05.359441 31115 layer_factory.hpp:74] Creating layer inception_4a/pool
I0105 11:56:05.359449 31115 layer_factory.cpp:56] CUDNN does not support padding or multiple tops. Using Caffe's own pooling layer.
I0105 11:56:05.359465 31115 net.cpp:84] Creating Layer inception_4a/pool
I0105 11:56:05.359483 31115 net.cpp:380] inception_4a/pool <- pool3/3x3_s2_pool3/3x3_s2_0_split_3
I0105 11:56:05.359496 31115 net.cpp:338] inception_4a/pool -> inception_4a/pool
I0105 11:56:05.359509 31115 net.cpp:113] Setting up inception_4a/pool
I0105 11:56:05.359522 31115 net.cpp:120] Top shape: 80 480 14 14 (7526400)
I0105 11:56:05.359529 31115 layer_factory.hpp:74] Creating layer inception_4a/pool_proj
I0105 11:56:05.359542 31115 net.cpp:84] Creating Layer inception_4a/pool_proj
I0105 11:56:05.359550 31115 net.cpp:380] inception_4a/pool_proj <- inception_4a/pool
I0105 11:56:05.359560 31115 net.cpp:338] inception_4a/pool_proj -> inception_4a/pool_proj
I0105 11:56:05.359572 31115 net.cpp:113] Setting up inception_4a/pool_proj
I0105 11:56:05.360510 31115 net.cpp:120] Top shape: 80 64 14 14 (1003520)
I0105 11:56:05.360532 31115 layer_factory.hpp:74] Creating layer inception_4a/relu_pool_proj
I0105 11:56:05.360546 31115 net.cpp:84] Creating Layer inception_4a/relu_pool_proj
I0105 11:56:05.360554 31115 net.cpp:380] inception_4a/relu_pool_proj <- inception_4a/pool_proj
I0105 11:56:05.360564 31115 net.cpp:327] inception_4a/relu_pool_proj -> inception_4a/pool_proj (in-place)
I0105 11:56:05.360575 31115 net.cpp:113] Setting up inception_4a/relu_pool_proj
I0105 11:56:05.360688 31115 net.cpp:120] Top shape: 80 64 14 14 (1003520)
I0105 11:56:05.360700 31115 layer_factory.hpp:74] Creating layer inception_4a/output
I0105 11:56:05.360712 31115 net.cpp:84] Creating Layer inception_4a/output
I0105 11:56:05.360719 31115 net.cpp:380] inception_4a/output <- inception_4a/1x1
I0105 11:56:05.360728 31115 net.cpp:380] inception_4a/output <- inception_4a/3x3
I0105 11:56:05.360736 31115 net.cpp:380] inception_4a/output <- inception_4a/5x5
I0105 11:56:05.360744 31115 net.cpp:380] inception_4a/output <- inception_4a/pool_proj
I0105 11:56:05.360755 31115 net.cpp:338] inception_4a/output -> inception_4a/output
I0105 11:56:05.360767 31115 net.cpp:113] Setting up inception_4a/output
I0105 11:56:05.360780 31115 net.cpp:120] Top shape: 80 512 14 14 (8028160)
I0105 11:56:05.360786 31115 layer_factory.hpp:74] Creating layer inception_4a/output_inception_4a/output_0_split
I0105 11:56:05.360796 31115 net.cpp:84] Creating Layer inception_4a/output_inception_4a/output_0_split
I0105 11:56:05.360803 31115 net.cpp:380] inception_4a/output_inception_4a/output_0_split <- inception_4a/output
I0105 11:56:05.360817 31115 net.cpp:338] inception_4a/output_inception_4a/output_0_split -> inception_4a/output_inception_4a/output_0_split_0
I0105 11:56:05.360829 31115 net.cpp:338] inception_4a/output_inception_4a/output_0_split -> inception_4a/output_inception_4a/output_0_split_1
I0105 11:56:05.360841 31115 net.cpp:338] inception_4a/output_inception_4a/output_0_split -> inception_4a/output_inception_4a/output_0_split_2
I0105 11:56:05.360852 31115 net.cpp:338] inception_4a/output_inception_4a/output_0_split -> inception_4a/output_inception_4a/output_0_split_3
I0105 11:56:05.360862 31115 net.cpp:338] inception_4a/output_inception_4a/output_0_split -> inception_4a/output_inception_4a/output_0_split_4
I0105 11:56:05.360872 31115 net.cpp:113] Setting up inception_4a/output_inception_4a/output_0_split
I0105 11:56:05.360884 31115 net.cpp:120] Top shape: 80 512 14 14 (8028160)
I0105 11:56:05.360893 31115 net.cpp:120] Top shape: 80 512 14 14 (8028160)
I0105 11:56:05.360900 31115 net.cpp:120] Top shape: 80 512 14 14 (8028160)
I0105 11:56:05.360908 31115 net.cpp:120] Top shape: 80 512 14 14 (8028160)
I0105 11:56:05.360916 31115 net.cpp:120] Top shape: 80 512 14 14 (8028160)
I0105 11:56:05.360924 31115 layer_factory.hpp:74] Creating layer loss1/ave_pool
I0105 11:56:05.360939 31115 net.cpp:84] Creating Layer loss1/ave_pool
I0105 11:56:05.360947 31115 net.cpp:380] loss1/ave_pool <- inception_4a/output_inception_4a/output_0_split_0
I0105 11:56:05.360956 31115 net.cpp:338] loss1/ave_pool -> loss1/ave_pool
I0105 11:56:05.360967 31115 net.cpp:113] Setting up loss1/ave_pool
I0105 11:56:05.361076 31115 net.cpp:120] Top shape: 80 512 4 4 (655360)
I0105 11:56:05.361137 31115 layer_factory.hpp:74] Creating layer loss1/conv
I0105 11:56:05.361172 31115 net.cpp:84] Creating Layer loss1/conv
I0105 11:56:05.361183 31115 net.cpp:380] loss1/conv <- loss1/ave_pool
I0105 11:56:05.361196 31115 net.cpp:338] loss1/conv -> loss1/conv
I0105 11:56:05.361212 31115 net.cpp:113] Setting up loss1/conv
I0105 11:56:05.362731 31115 net.cpp:120] Top shape: 80 128 4 4 (163840)
I0105 11:56:05.362757 31115 layer_factory.hpp:74] Creating layer loss1/relu_conv
I0105 11:56:05.362771 31115 net.cpp:84] Creating Layer loss1/relu_conv
I0105 11:56:05.362781 31115 net.cpp:380] loss1/relu_conv <- loss1/conv
I0105 11:56:05.362792 31115 net.cpp:327] loss1/relu_conv -> loss1/conv (in-place)
I0105 11:56:05.362804 31115 net.cpp:113] Setting up loss1/relu_conv
I0105 11:56:05.362916 31115 net.cpp:120] Top shape: 80 128 4 4 (163840)
I0105 11:56:05.362928 31115 layer_factory.hpp:74] Creating layer loss1/fc
I0105 11:56:05.362946 31115 net.cpp:84] Creating Layer loss1/fc
I0105 11:56:05.362954 31115 net.cpp:380] loss1/fc <- loss1/conv
I0105 11:56:05.362967 31115 net.cpp:338] loss1/fc -> loss1/fc
I0105 11:56:05.362984 31115 net.cpp:113] Setting up loss1/fc
I0105 11:56:05.497889 31115 net.cpp:120] Top shape: 80 1024 (81920)
I0105 11:56:05.497933 31115 layer_factory.hpp:74] Creating layer loss1/relu_fc
I0105 11:56:05.497951 31115 net.cpp:84] Creating Layer loss1/relu_fc
I0105 11:56:05.497962 31115 net.cpp:380] loss1/relu_fc <- loss1/fc
I0105 11:56:05.497978 31115 net.cpp:327] loss1/relu_fc -> loss1/fc (in-place)
I0105 11:56:05.497992 31115 net.cpp:113] Setting up loss1/relu_fc
I0105 11:56:05.498505 31115 net.cpp:120] Top shape: 80 1024 (81920)
I0105 11:56:05.498520 31115 layer_factory.hpp:74] Creating layer loss1/drop_fc
I0105 11:56:05.498549 31115 net.cpp:84] Creating Layer loss1/drop_fc
I0105 11:56:05.498558 31115 net.cpp:380] loss1/drop_fc <- loss1/fc
I0105 11:56:05.498569 31115 net.cpp:327] loss1/drop_fc -> loss1/fc (in-place)
I0105 11:56:05.498582 31115 net.cpp:113] Setting up loss1/drop_fc
I0105 11:56:05.498596 31115 net.cpp:120] Top shape: 80 1024 (81920)
I0105 11:56:05.498605 31115 layer_factory.hpp:74] Creating layer loss1/classifier_kaggle
I0105 11:56:05.498620 31115 net.cpp:84] Creating Layer loss1/classifier_kaggle
I0105 11:56:05.498626 31115 net.cpp:380] loss1/classifier_kaggle <- loss1/fc
I0105 11:56:05.498639 31115 net.cpp:338] loss1/classifier_kaggle -> loss1/classifier_kaggle
I0105 11:56:05.498653 31115 net.cpp:113] Setting up loss1/classifier_kaggle
I0105 11:56:05.504503 31115 net.cpp:120] Top shape: 80 447 (35760)
I0105 11:56:05.504525 31115 layer_factory.hpp:74] Creating layer loss1/loss
I0105 11:56:05.504539 31115 net.cpp:84] Creating Layer loss1/loss
I0105 11:56:05.504546 31115 net.cpp:380] loss1/loss <- loss1/classifier_kaggle
I0105 11:56:05.504556 31115 net.cpp:380] loss1/loss <- label_data_1_split_0
I0105 11:56:05.504570 31115 net.cpp:338] loss1/loss -> loss1/loss1
I0105 11:56:05.504581 31115 net.cpp:113] Setting up loss1/loss
I0105 11:56:05.504593 31115 layer_factory.hpp:74] Creating layer loss1/loss
I0105 11:56:05.504832 31115 net.cpp:120] Top shape: (1)
I0105 11:56:05.504844 31115 net.cpp:122]     with loss weight 0.3
I0105 11:56:05.504868 31115 layer_factory.hpp:74] Creating layer inception_4b/1x1
I0105 11:56:05.504886 31115 net.cpp:84] Creating Layer inception_4b/1x1
I0105 11:56:05.504895 31115 net.cpp:380] inception_4b/1x1 <- inception_4a/output_inception_4a/output_0_split_1
I0105 11:56:05.504906 31115 net.cpp:338] inception_4b/1x1 -> inception_4b/1x1
I0105 11:56:05.504920 31115 net.cpp:113] Setting up inception_4b/1x1
I0105 11:56:05.506595 31115 net.cpp:120] Top shape: 80 160 14 14 (2508800)
I0105 11:56:05.506618 31115 layer_factory.hpp:74] Creating layer inception_4b/relu_1x1
I0105 11:56:05.506630 31115 net.cpp:84] Creating Layer inception_4b/relu_1x1
I0105 11:56:05.506639 31115 net.cpp:380] inception_4b/relu_1x1 <- inception_4b/1x1
I0105 11:56:05.506652 31115 net.cpp:327] inception_4b/relu_1x1 -> inception_4b/1x1 (in-place)
I0105 11:56:05.506664 31115 net.cpp:113] Setting up inception_4b/relu_1x1
I0105 11:56:05.506778 31115 net.cpp:120] Top shape: 80 160 14 14 (2508800)
I0105 11:56:05.506801 31115 layer_factory.hpp:74] Creating layer inception_4b/3x3_reduce
I0105 11:56:05.506815 31115 net.cpp:84] Creating Layer inception_4b/3x3_reduce
I0105 11:56:05.506822 31115 net.cpp:380] inception_4b/3x3_reduce <- inception_4a/output_inception_4a/output_0_split_2
I0105 11:56:05.506846 31115 net.cpp:338] inception_4b/3x3_reduce -> inception_4b/3x3_reduce
I0105 11:56:05.506861 31115 net.cpp:113] Setting up inception_4b/3x3_reduce
I0105 11:56:05.508149 31115 net.cpp:120] Top shape: 80 112 14 14 (1756160)
I0105 11:56:05.508170 31115 layer_factory.hpp:74] Creating layer inception_4b/relu_3x3_reduce
I0105 11:56:05.508183 31115 net.cpp:84] Creating Layer inception_4b/relu_3x3_reduce
I0105 11:56:05.508190 31115 net.cpp:380] inception_4b/relu_3x3_reduce <- inception_4b/3x3_reduce
I0105 11:56:05.508201 31115 net.cpp:327] inception_4b/relu_3x3_reduce -> inception_4b/3x3_reduce (in-place)
I0105 11:56:05.508213 31115 net.cpp:113] Setting up inception_4b/relu_3x3_reduce
I0105 11:56:05.508306 31115 net.cpp:120] Top shape: 80 112 14 14 (1756160)
I0105 11:56:05.508316 31115 layer_factory.hpp:74] Creating layer inception_4b/3x3
I0105 11:56:05.508327 31115 net.cpp:84] Creating Layer inception_4b/3x3
I0105 11:56:05.508334 31115 net.cpp:380] inception_4b/3x3 <- inception_4b/3x3_reduce
I0105 11:56:05.508349 31115 net.cpp:338] inception_4b/3x3 -> inception_4b/3x3
I0105 11:56:05.508361 31115 net.cpp:113] Setting up inception_4b/3x3
I0105 11:56:05.511806 31115 net.cpp:120] Top shape: 80 224 14 14 (3512320)
I0105 11:56:05.511831 31115 layer_factory.hpp:74] Creating layer inception_4b/relu_3x3
I0105 11:56:05.511842 31115 net.cpp:84] Creating Layer inception_4b/relu_3x3
I0105 11:56:05.511852 31115 net.cpp:380] inception_4b/relu_3x3 <- inception_4b/3x3
I0105 11:56:05.511863 31115 net.cpp:327] inception_4b/relu_3x3 -> inception_4b/3x3 (in-place)
I0105 11:56:05.511890 31115 net.cpp:113] Setting up inception_4b/relu_3x3
I0105 11:56:05.512194 31115 net.cpp:120] Top shape: 80 224 14 14 (3512320)
I0105 11:56:05.512208 31115 layer_factory.hpp:74] Creating layer inception_4b/5x5_reduce
I0105 11:56:05.512224 31115 net.cpp:84] Creating Layer inception_4b/5x5_reduce
I0105 11:56:05.512233 31115 net.cpp:380] inception_4b/5x5_reduce <- inception_4a/output_inception_4a/output_0_split_3
I0105 11:56:05.512244 31115 net.cpp:338] inception_4b/5x5_reduce -> inception_4b/5x5_reduce
I0105 11:56:05.512256 31115 net.cpp:113] Setting up inception_4b/5x5_reduce
I0105 11:56:05.512969 31115 net.cpp:120] Top shape: 80 24 14 14 (376320)
I0105 11:56:05.512989 31115 layer_factory.hpp:74] Creating layer inception_4b/relu_5x5_reduce
I0105 11:56:05.513001 31115 net.cpp:84] Creating Layer inception_4b/relu_5x5_reduce
I0105 11:56:05.513010 31115 net.cpp:380] inception_4b/relu_5x5_reduce <- inception_4b/5x5_reduce
I0105 11:56:05.513028 31115 net.cpp:327] inception_4b/relu_5x5_reduce -> inception_4b/5x5_reduce (in-place)
I0105 11:56:05.513041 31115 net.cpp:113] Setting up inception_4b/relu_5x5_reduce
I0105 11:56:05.513140 31115 net.cpp:120] Top shape: 80 24 14 14 (376320)
I0105 11:56:05.513149 31115 layer_factory.hpp:74] Creating layer inception_4b/5x5
I0105 11:56:05.513164 31115 net.cpp:84] Creating Layer inception_4b/5x5
I0105 11:56:05.513171 31115 net.cpp:380] inception_4b/5x5 <- inception_4b/5x5_reduce
I0105 11:56:05.513182 31115 net.cpp:338] inception_4b/5x5 -> inception_4b/5x5
I0105 11:56:05.513195 31115 net.cpp:113] Setting up inception_4b/5x5
I0105 11:56:05.514220 31115 net.cpp:120] Top shape: 80 64 14 14 (1003520)
I0105 11:56:05.514240 31115 layer_factory.hpp:74] Creating layer inception_4b/relu_5x5
I0105 11:56:05.514250 31115 net.cpp:84] Creating Layer inception_4b/relu_5x5
I0105 11:56:05.514258 31115 net.cpp:380] inception_4b/relu_5x5 <- inception_4b/5x5
I0105 11:56:05.514269 31115 net.cpp:327] inception_4b/relu_5x5 -> inception_4b/5x5 (in-place)
I0105 11:56:05.514279 31115 net.cpp:113] Setting up inception_4b/relu_5x5
I0105 11:56:05.514374 31115 net.cpp:120] Top shape: 80 64 14 14 (1003520)
I0105 11:56:05.514406 31115 layer_factory.hpp:74] Creating layer inception_4b/pool
I0105 11:56:05.514417 31115 layer_factory.cpp:56] CUDNN does not support padding or multiple tops. Using Caffe's own pooling layer.
I0105 11:56:05.514427 31115 net.cpp:84] Creating Layer inception_4b/pool
I0105 11:56:05.514436 31115 net.cpp:380] inception_4b/pool <- inception_4a/output_inception_4a/output_0_split_4
I0105 11:56:05.514447 31115 net.cpp:338] inception_4b/pool -> inception_4b/pool
I0105 11:56:05.514473 31115 net.cpp:113] Setting up inception_4b/pool
I0105 11:56:05.514488 31115 net.cpp:120] Top shape: 80 512 14 14 (8028160)
I0105 11:56:05.514497 31115 layer_factory.hpp:74] Creating layer inception_4b/pool_proj
I0105 11:56:05.514509 31115 net.cpp:84] Creating Layer inception_4b/pool_proj
I0105 11:56:05.514516 31115 net.cpp:380] inception_4b/pool_proj <- inception_4b/pool
I0105 11:56:05.514529 31115 net.cpp:338] inception_4b/pool_proj -> inception_4b/pool_proj
I0105 11:56:05.514541 31115 net.cpp:113] Setting up inception_4b/pool_proj
I0105 11:56:05.515481 31115 net.cpp:120] Top shape: 80 64 14 14 (1003520)
I0105 11:56:05.515501 31115 layer_factory.hpp:74] Creating layer inception_4b/relu_pool_proj
I0105 11:56:05.515511 31115 net.cpp:84] Creating Layer inception_4b/relu_pool_proj
I0105 11:56:05.515519 31115 net.cpp:380] inception_4b/relu_pool_proj <- inception_4b/pool_proj
I0105 11:56:05.515529 31115 net.cpp:327] inception_4b/relu_pool_proj -> inception_4b/pool_proj (in-place)
I0105 11:56:05.515540 31115 net.cpp:113] Setting up inception_4b/relu_pool_proj
I0105 11:56:05.515848 31115 net.cpp:120] Top shape: 80 64 14 14 (1003520)
I0105 11:56:05.515862 31115 layer_factory.hpp:74] Creating layer inception_4b/output
I0105 11:56:05.515875 31115 net.cpp:84] Creating Layer inception_4b/output
I0105 11:56:05.515884 31115 net.cpp:380] inception_4b/output <- inception_4b/1x1
I0105 11:56:05.515894 31115 net.cpp:380] inception_4b/output <- inception_4b/3x3
I0105 11:56:05.515902 31115 net.cpp:380] inception_4b/output <- inception_4b/5x5
I0105 11:56:05.515910 31115 net.cpp:380] inception_4b/output <- inception_4b/pool_proj
I0105 11:56:05.515919 31115 net.cpp:338] inception_4b/output -> inception_4b/output
I0105 11:56:05.515931 31115 net.cpp:113] Setting up inception_4b/output
I0105 11:56:05.515944 31115 net.cpp:120] Top shape: 80 512 14 14 (8028160)
I0105 11:56:05.515952 31115 layer_factory.hpp:74] Creating layer inception_4b/output_inception_4b/output_0_split
I0105 11:56:05.515965 31115 net.cpp:84] Creating Layer inception_4b/output_inception_4b/output_0_split
I0105 11:56:05.515974 31115 net.cpp:380] inception_4b/output_inception_4b/output_0_split <- inception_4b/output
I0105 11:56:05.515982 31115 net.cpp:338] inception_4b/output_inception_4b/output_0_split -> inception_4b/output_inception_4b/output_0_split_0
I0105 11:56:05.515995 31115 net.cpp:338] inception_4b/output_inception_4b/output_0_split -> inception_4b/output_inception_4b/output_0_split_1
I0105 11:56:05.516005 31115 net.cpp:338] inception_4b/output_inception_4b/output_0_split -> inception_4b/output_inception_4b/output_0_split_2
I0105 11:56:05.516018 31115 net.cpp:338] inception_4b/output_inception_4b/output_0_split -> inception_4b/output_inception_4b/output_0_split_3
I0105 11:56:05.516028 31115 net.cpp:113] Setting up inception_4b/output_inception_4b/output_0_split
I0105 11:56:05.516041 31115 net.cpp:120] Top shape: 80 512 14 14 (8028160)
I0105 11:56:05.516048 31115 net.cpp:120] Top shape: 80 512 14 14 (8028160)
I0105 11:56:05.516057 31115 net.cpp:120] Top shape: 80 512 14 14 (8028160)
I0105 11:56:05.516065 31115 net.cpp:120] Top shape: 80 512 14 14 (8028160)
I0105 11:56:05.516072 31115 layer_factory.hpp:74] Creating layer inception_4c/1x1
I0105 11:56:05.516083 31115 net.cpp:84] Creating Layer inception_4c/1x1
I0105 11:56:05.516090 31115 net.cpp:380] inception_4c/1x1 <- inception_4b/output_inception_4b/output_0_split_0
I0105 11:56:05.516103 31115 net.cpp:338] inception_4c/1x1 -> inception_4c/1x1
I0105 11:56:05.516114 31115 net.cpp:113] Setting up inception_4c/1x1
I0105 11:56:05.517560 31115 net.cpp:120] Top shape: 80 128 14 14 (2007040)
I0105 11:56:05.517595 31115 layer_factory.hpp:74] Creating layer inception_4c/relu_1x1
I0105 11:56:05.517606 31115 net.cpp:84] Creating Layer inception_4c/relu_1x1
I0105 11:56:05.517613 31115 net.cpp:380] inception_4c/relu_1x1 <- inception_4c/1x1
I0105 11:56:05.517624 31115 net.cpp:327] inception_4c/relu_1x1 -> inception_4c/1x1 (in-place)
I0105 11:56:05.517635 31115 net.cpp:113] Setting up inception_4c/relu_1x1
I0105 11:56:05.517734 31115 net.cpp:120] Top shape: 80 128 14 14 (2007040)
I0105 11:56:05.517743 31115 layer_factory.hpp:74] Creating layer inception_4c/3x3_reduce
I0105 11:56:05.517755 31115 net.cpp:84] Creating Layer inception_4c/3x3_reduce
I0105 11:56:05.517763 31115 net.cpp:380] inception_4c/3x3_reduce <- inception_4b/output_inception_4b/output_0_split_1
I0105 11:56:05.517776 31115 net.cpp:338] inception_4c/3x3_reduce -> inception_4c/3x3_reduce
I0105 11:56:05.517788 31115 net.cpp:113] Setting up inception_4c/3x3_reduce
I0105 11:56:05.519198 31115 net.cpp:120] Top shape: 80 128 14 14 (2007040)
I0105 11:56:05.519219 31115 layer_factory.hpp:74] Creating layer inception_4c/relu_3x3_reduce
I0105 11:56:05.519232 31115 net.cpp:84] Creating Layer inception_4c/relu_3x3_reduce
I0105 11:56:05.519239 31115 net.cpp:380] inception_4c/relu_3x3_reduce <- inception_4c/3x3_reduce
I0105 11:56:05.519249 31115 net.cpp:327] inception_4c/relu_3x3_reduce -> inception_4c/3x3_reduce (in-place)
I0105 11:56:05.519261 31115 net.cpp:113] Setting up inception_4c/relu_3x3_reduce
I0105 11:56:05.519362 31115 net.cpp:120] Top shape: 80 128 14 14 (2007040)
I0105 11:56:05.519373 31115 layer_factory.hpp:74] Creating layer inception_4c/3x3
I0105 11:56:05.519384 31115 net.cpp:84] Creating Layer inception_4c/3x3
I0105 11:56:05.519394 31115 net.cpp:380] inception_4c/3x3 <- inception_4c/3x3_reduce
I0105 11:56:05.519407 31115 net.cpp:338] inception_4c/3x3 -> inception_4c/3x3
I0105 11:56:05.519419 31115 net.cpp:113] Setting up inception_4c/3x3
I0105 11:56:05.523793 31115 net.cpp:120] Top shape: 80 256 14 14 (4014080)
I0105 11:56:05.523834 31115 layer_factory.hpp:74] Creating layer inception_4c/relu_3x3
I0105 11:56:05.523847 31115 net.cpp:84] Creating Layer inception_4c/relu_3x3
I0105 11:56:05.523856 31115 net.cpp:380] inception_4c/relu_3x3 <- inception_4c/3x3
I0105 11:56:05.523866 31115 net.cpp:327] inception_4c/relu_3x3 -> inception_4c/3x3 (in-place)
I0105 11:56:05.523879 31115 net.cpp:113] Setting up inception_4c/relu_3x3
I0105 11:56:05.523975 31115 net.cpp:120] Top shape: 80 256 14 14 (4014080)
I0105 11:56:05.523988 31115 layer_factory.hpp:74] Creating layer inception_4c/5x5_reduce
I0105 11:56:05.524003 31115 net.cpp:84] Creating Layer inception_4c/5x5_reduce
I0105 11:56:05.524011 31115 net.cpp:380] inception_4c/5x5_reduce <- inception_4b/output_inception_4b/output_0_split_2
I0105 11:56:05.524022 31115 net.cpp:338] inception_4c/5x5_reduce -> inception_4c/5x5_reduce
I0105 11:56:05.524034 31115 net.cpp:113] Setting up inception_4c/5x5_reduce
I0105 11:56:05.524718 31115 net.cpp:120] Top shape: 80 24 14 14 (376320)
I0105 11:56:05.524737 31115 layer_factory.hpp:74] Creating layer inception_4c/relu_5x5_reduce
I0105 11:56:05.524750 31115 net.cpp:84] Creating Layer inception_4c/relu_5x5_reduce
I0105 11:56:05.524758 31115 net.cpp:380] inception_4c/relu_5x5_reduce <- inception_4c/5x5_reduce
I0105 11:56:05.524768 31115 net.cpp:327] inception_4c/relu_5x5_reduce -> inception_4c/5x5_reduce (in-place)
I0105 11:56:05.524780 31115 net.cpp:113] Setting up inception_4c/relu_5x5_reduce
I0105 11:56:05.525120 31115 net.cpp:120] Top shape: 80 24 14 14 (376320)
I0105 11:56:05.525138 31115 layer_factory.hpp:74] Creating layer inception_4c/5x5
I0105 11:56:05.525151 31115 net.cpp:84] Creating Layer inception_4c/5x5
I0105 11:56:05.525159 31115 net.cpp:380] inception_4c/5x5 <- inception_4c/5x5_reduce
I0105 11:56:05.525173 31115 net.cpp:338] inception_4c/5x5 -> inception_4c/5x5
I0105 11:56:05.525185 31115 net.cpp:113] Setting up inception_4c/5x5
I0105 11:56:05.526193 31115 net.cpp:120] Top shape: 80 64 14 14 (1003520)
I0105 11:56:05.526221 31115 layer_factory.hpp:74] Creating layer inception_4c/relu_5x5
I0105 11:56:05.526245 31115 net.cpp:84] Creating Layer inception_4c/relu_5x5
I0105 11:56:05.526253 31115 net.cpp:380] inception_4c/relu_5x5 <- inception_4c/5x5
I0105 11:56:05.526263 31115 net.cpp:327] inception_4c/relu_5x5 -> inception_4c/5x5 (in-place)
I0105 11:56:05.526274 31115 net.cpp:113] Setting up inception_4c/relu_5x5
I0105 11:56:05.526374 31115 net.cpp:120] Top shape: 80 64 14 14 (1003520)
I0105 11:56:05.526386 31115 layer_factory.hpp:74] Creating layer inception_4c/pool
I0105 11:56:05.526394 31115 layer_factory.cpp:56] CUDNN does not support padding or multiple tops. Using Caffe's own pooling layer.
I0105 11:56:05.526404 31115 net.cpp:84] Creating Layer inception_4c/pool
I0105 11:56:05.526412 31115 net.cpp:380] inception_4c/pool <- inception_4b/output_inception_4b/output_0_split_3
I0105 11:56:05.526422 31115 net.cpp:338] inception_4c/pool -> inception_4c/pool
I0105 11:56:05.526433 31115 net.cpp:113] Setting up inception_4c/pool
I0105 11:56:05.526450 31115 net.cpp:120] Top shape: 80 512 14 14 (8028160)
I0105 11:56:05.526458 31115 layer_factory.hpp:74] Creating layer inception_4c/pool_proj
I0105 11:56:05.526469 31115 net.cpp:84] Creating Layer inception_4c/pool_proj
I0105 11:56:05.526478 31115 net.cpp:380] inception_4c/pool_proj <- inception_4c/pool
I0105 11:56:05.526490 31115 net.cpp:338] inception_4c/pool_proj -> inception_4c/pool_proj
I0105 11:56:05.526501 31115 net.cpp:113] Setting up inception_4c/pool_proj
I0105 11:56:05.527448 31115 net.cpp:120] Top shape: 80 64 14 14 (1003520)
I0105 11:56:05.527467 31115 layer_factory.hpp:74] Creating layer inception_4c/relu_pool_proj
I0105 11:56:05.527480 31115 net.cpp:84] Creating Layer inception_4c/relu_pool_proj
I0105 11:56:05.527488 31115 net.cpp:380] inception_4c/relu_pool_proj <- inception_4c/pool_proj
I0105 11:56:05.527498 31115 net.cpp:327] inception_4c/relu_pool_proj -> inception_4c/pool_proj (in-place)
I0105 11:56:05.527509 31115 net.cpp:113] Setting up inception_4c/relu_pool_proj
I0105 11:56:05.527603 31115 net.cpp:120] Top shape: 80 64 14 14 (1003520)
I0105 11:56:05.527613 31115 layer_factory.hpp:74] Creating layer inception_4c/output
I0105 11:56:05.527627 31115 net.cpp:84] Creating Layer inception_4c/output
I0105 11:56:05.527636 31115 net.cpp:380] inception_4c/output <- inception_4c/1x1
I0105 11:56:05.527644 31115 net.cpp:380] inception_4c/output <- inception_4c/3x3
I0105 11:56:05.527652 31115 net.cpp:380] inception_4c/output <- inception_4c/5x5
I0105 11:56:05.527660 31115 net.cpp:380] inception_4c/output <- inception_4c/pool_proj
I0105 11:56:05.527669 31115 net.cpp:338] inception_4c/output -> inception_4c/output
I0105 11:56:05.527680 31115 net.cpp:113] Setting up inception_4c/output
I0105 11:56:05.527693 31115 net.cpp:120] Top shape: 80 512 14 14 (8028160)
I0105 11:56:05.527700 31115 layer_factory.hpp:74] Creating layer inception_4c/output_inception_4c/output_0_split
I0105 11:56:05.527714 31115 net.cpp:84] Creating Layer inception_4c/output_inception_4c/output_0_split
I0105 11:56:05.527721 31115 net.cpp:380] inception_4c/output_inception_4c/output_0_split <- inception_4c/output
I0105 11:56:05.527731 31115 net.cpp:338] inception_4c/output_inception_4c/output_0_split -> inception_4c/output_inception_4c/output_0_split_0
I0105 11:56:05.527743 31115 net.cpp:338] inception_4c/output_inception_4c/output_0_split -> inception_4c/output_inception_4c/output_0_split_1
I0105 11:56:05.527755 31115 net.cpp:338] inception_4c/output_inception_4c/output_0_split -> inception_4c/output_inception_4c/output_0_split_2
I0105 11:56:05.527765 31115 net.cpp:338] inception_4c/output_inception_4c/output_0_split -> inception_4c/output_inception_4c/output_0_split_3
I0105 11:56:05.527775 31115 net.cpp:113] Setting up inception_4c/output_inception_4c/output_0_split
I0105 11:56:05.527786 31115 net.cpp:120] Top shape: 80 512 14 14 (8028160)
I0105 11:56:05.527796 31115 net.cpp:120] Top shape: 80 512 14 14 (8028160)
I0105 11:56:05.527803 31115 net.cpp:120] Top shape: 80 512 14 14 (8028160)
I0105 11:56:05.527819 31115 net.cpp:120] Top shape: 80 512 14 14 (8028160)
I0105 11:56:05.527834 31115 layer_factory.hpp:74] Creating layer inception_4d/1x1
I0105 11:56:05.527849 31115 net.cpp:84] Creating Layer inception_4d/1x1
I0105 11:56:05.527858 31115 net.cpp:380] inception_4d/1x1 <- inception_4c/output_inception_4c/output_0_split_0
I0105 11:56:05.527870 31115 net.cpp:338] inception_4d/1x1 -> inception_4d/1x1
I0105 11:56:05.527881 31115 net.cpp:113] Setting up inception_4d/1x1
I0105 11:56:05.529145 31115 net.cpp:120] Top shape: 80 112 14 14 (1756160)
I0105 11:56:05.529165 31115 layer_factory.hpp:74] Creating layer inception_4d/relu_1x1
I0105 11:56:05.529178 31115 net.cpp:84] Creating Layer inception_4d/relu_1x1
I0105 11:56:05.529186 31115 net.cpp:380] inception_4d/relu_1x1 <- inception_4d/1x1
I0105 11:56:05.529197 31115 net.cpp:327] inception_4d/relu_1x1 -> inception_4d/1x1 (in-place)
I0105 11:56:05.529208 31115 net.cpp:113] Setting up inception_4d/relu_1x1
I0105 11:56:05.529304 31115 net.cpp:120] Top shape: 80 112 14 14 (1756160)
I0105 11:56:05.529312 31115 layer_factory.hpp:74] Creating layer inception_4d/3x3_reduce
I0105 11:56:05.529327 31115 net.cpp:84] Creating Layer inception_4d/3x3_reduce
I0105 11:56:05.529336 31115 net.cpp:380] inception_4d/3x3_reduce <- inception_4c/output_inception_4c/output_0_split_1
I0105 11:56:05.529350 31115 net.cpp:338] inception_4d/3x3_reduce -> inception_4d/3x3_reduce
I0105 11:56:05.529361 31115 net.cpp:113] Setting up inception_4d/3x3_reduce
I0105 11:56:05.530827 31115 net.cpp:120] Top shape: 80 144 14 14 (2257920)
I0105 11:56:05.530848 31115 layer_factory.hpp:74] Creating layer inception_4d/relu_3x3_reduce
I0105 11:56:05.530859 31115 net.cpp:84] Creating Layer inception_4d/relu_3x3_reduce
I0105 11:56:05.530869 31115 net.cpp:380] inception_4d/relu_3x3_reduce <- inception_4d/3x3_reduce
I0105 11:56:05.530879 31115 net.cpp:327] inception_4d/relu_3x3_reduce -> inception_4d/3x3_reduce (in-place)
I0105 11:56:05.530892 31115 net.cpp:113] Setting up inception_4d/relu_3x3_reduce
I0105 11:56:05.539988 31115 net.cpp:120] Top shape: 80 144 14 14 (2257920)
I0105 11:56:05.540009 31115 layer_factory.hpp:74] Creating layer inception_4d/3x3
I0105 11:56:05.540024 31115 net.cpp:84] Creating Layer inception_4d/3x3
I0105 11:56:05.540032 31115 net.cpp:380] inception_4d/3x3 <- inception_4d/3x3_reduce
I0105 11:56:05.540043 31115 net.cpp:338] inception_4d/3x3 -> inception_4d/3x3
I0105 11:56:05.540056 31115 net.cpp:113] Setting up inception_4d/3x3
I0105 11:56:05.545433 31115 net.cpp:120] Top shape: 80 288 14 14 (4515840)
I0105 11:56:05.545459 31115 layer_factory.hpp:74] Creating layer inception_4d/relu_3x3
I0105 11:56:05.545475 31115 net.cpp:84] Creating Layer inception_4d/relu_3x3
I0105 11:56:05.545485 31115 net.cpp:380] inception_4d/relu_3x3 <- inception_4d/3x3
I0105 11:56:05.545495 31115 net.cpp:327] inception_4d/relu_3x3 -> inception_4d/3x3 (in-place)
I0105 11:56:05.545506 31115 net.cpp:113] Setting up inception_4d/relu_3x3
I0105 11:56:05.545600 31115 net.cpp:120] Top shape: 80 288 14 14 (4515840)
I0105 11:56:05.545610 31115 layer_factory.hpp:74] Creating layer inception_4d/5x5_reduce
I0105 11:56:05.545624 31115 net.cpp:84] Creating Layer inception_4d/5x5_reduce
I0105 11:56:05.545632 31115 net.cpp:380] inception_4d/5x5_reduce <- inception_4c/output_inception_4c/output_0_split_2
I0105 11:56:05.545645 31115 net.cpp:338] inception_4d/5x5_reduce -> inception_4d/5x5_reduce
I0105 11:56:05.545658 31115 net.cpp:113] Setting up inception_4d/5x5_reduce
I0105 11:56:05.546430 31115 net.cpp:120] Top shape: 80 32 14 14 (501760)
I0105 11:56:05.546452 31115 layer_factory.hpp:74] Creating layer inception_4d/relu_5x5_reduce
I0105 11:56:05.546461 31115 net.cpp:84] Creating Layer inception_4d/relu_5x5_reduce
I0105 11:56:05.546469 31115 net.cpp:380] inception_4d/relu_5x5_reduce <- inception_4d/5x5_reduce
I0105 11:56:05.546483 31115 net.cpp:327] inception_4d/relu_5x5_reduce -> inception_4d/5x5_reduce (in-place)
I0105 11:56:05.546494 31115 net.cpp:113] Setting up inception_4d/relu_5x5_reduce
I0105 11:56:05.546599 31115 net.cpp:120] Top shape: 80 32 14 14 (501760)
I0105 11:56:05.546622 31115 layer_factory.hpp:74] Creating layer inception_4d/5x5
I0105 11:56:05.546638 31115 net.cpp:84] Creating Layer inception_4d/5x5
I0105 11:56:05.546646 31115 net.cpp:380] inception_4d/5x5 <- inception_4d/5x5_reduce
I0105 11:56:05.546659 31115 net.cpp:338] inception_4d/5x5 -> inception_4d/5x5
I0105 11:56:05.546671 31115 net.cpp:113] Setting up inception_4d/5x5
I0105 11:56:05.547868 31115 net.cpp:120] Top shape: 80 64 14 14 (1003520)
I0105 11:56:05.547888 31115 layer_factory.hpp:74] Creating layer inception_4d/relu_5x5
I0105 11:56:05.547900 31115 net.cpp:84] Creating Layer inception_4d/relu_5x5
I0105 11:56:05.547909 31115 net.cpp:380] inception_4d/relu_5x5 <- inception_4d/5x5
I0105 11:56:05.547921 31115 net.cpp:327] inception_4d/relu_5x5 -> inception_4d/5x5 (in-place)
I0105 11:56:05.547932 31115 net.cpp:113] Setting up inception_4d/relu_5x5
I0105 11:56:05.548028 31115 net.cpp:120] Top shape: 80 64 14 14 (1003520)
I0105 11:56:05.548038 31115 layer_factory.hpp:74] Creating layer inception_4d/pool
I0105 11:56:05.548048 31115 layer_factory.cpp:56] CUDNN does not support padding or multiple tops. Using Caffe's own pooling layer.
I0105 11:56:05.548058 31115 net.cpp:84] Creating Layer inception_4d/pool
I0105 11:56:05.548065 31115 net.cpp:380] inception_4d/pool <- inception_4c/output_inception_4c/output_0_split_3
I0105 11:56:05.548075 31115 net.cpp:338] inception_4d/pool -> inception_4d/pool
I0105 11:56:05.548086 31115 net.cpp:113] Setting up inception_4d/pool
I0105 11:56:05.548101 31115 net.cpp:120] Top shape: 80 512 14 14 (8028160)
I0105 11:56:05.548108 31115 layer_factory.hpp:74] Creating layer inception_4d/pool_proj
I0105 11:56:05.548125 31115 net.cpp:84] Creating Layer inception_4d/pool_proj
I0105 11:56:05.548132 31115 net.cpp:380] inception_4d/pool_proj <- inception_4d/pool
I0105 11:56:05.548146 31115 net.cpp:338] inception_4d/pool_proj -> inception_4d/pool_proj
I0105 11:56:05.548158 31115 net.cpp:113] Setting up inception_4d/pool_proj
I0105 11:56:05.549118 31115 net.cpp:120] Top shape: 80 64 14 14 (1003520)
I0105 11:56:05.549140 31115 layer_factory.hpp:74] Creating layer inception_4d/relu_pool_proj
I0105 11:56:05.549155 31115 net.cpp:84] Creating Layer inception_4d/relu_pool_proj
I0105 11:56:05.549165 31115 net.cpp:380] inception_4d/relu_pool_proj <- inception_4d/pool_proj
I0105 11:56:05.549175 31115 net.cpp:327] inception_4d/relu_pool_proj -> inception_4d/pool_proj (in-place)
I0105 11:56:05.549185 31115 net.cpp:113] Setting up inception_4d/relu_pool_proj
I0105 11:56:05.549484 31115 net.cpp:120] Top shape: 80 64 14 14 (1003520)
I0105 11:56:05.549500 31115 layer_factory.hpp:74] Creating layer inception_4d/output
I0105 11:56:05.549535 31115 net.cpp:84] Creating Layer inception_4d/output
I0105 11:56:05.549546 31115 net.cpp:380] inception_4d/output <- inception_4d/1x1
I0105 11:56:05.549556 31115 net.cpp:380] inception_4d/output <- inception_4d/3x3
I0105 11:56:05.549563 31115 net.cpp:380] inception_4d/output <- inception_4d/5x5
I0105 11:56:05.549571 31115 net.cpp:380] inception_4d/output <- inception_4d/pool_proj
I0105 11:56:05.549582 31115 net.cpp:338] inception_4d/output -> inception_4d/output
I0105 11:56:05.549592 31115 net.cpp:113] Setting up inception_4d/output
I0105 11:56:05.549605 31115 net.cpp:120] Top shape: 80 528 14 14 (8279040)
I0105 11:56:05.549613 31115 layer_factory.hpp:74] Creating layer inception_4d/output_inception_4d/output_0_split
I0105 11:56:05.549624 31115 net.cpp:84] Creating Layer inception_4d/output_inception_4d/output_0_split
I0105 11:56:05.549631 31115 net.cpp:380] inception_4d/output_inception_4d/output_0_split <- inception_4d/output
I0105 11:56:05.549641 31115 net.cpp:338] inception_4d/output_inception_4d/output_0_split -> inception_4d/output_inception_4d/output_0_split_0
I0105 11:56:05.549655 31115 net.cpp:338] inception_4d/output_inception_4d/output_0_split -> inception_4d/output_inception_4d/output_0_split_1
I0105 11:56:05.549666 31115 net.cpp:338] inception_4d/output_inception_4d/output_0_split -> inception_4d/output_inception_4d/output_0_split_2
I0105 11:56:05.549685 31115 net.cpp:338] inception_4d/output_inception_4d/output_0_split -> inception_4d/output_inception_4d/output_0_split_3
I0105 11:56:05.549705 31115 net.cpp:338] inception_4d/output_inception_4d/output_0_split -> inception_4d/output_inception_4d/output_0_split_4
I0105 11:56:05.549716 31115 net.cpp:113] Setting up inception_4d/output_inception_4d/output_0_split
I0105 11:56:05.549729 31115 net.cpp:120] Top shape: 80 528 14 14 (8279040)
I0105 11:56:05.549737 31115 net.cpp:120] Top shape: 80 528 14 14 (8279040)
I0105 11:56:05.549746 31115 net.cpp:120] Top shape: 80 528 14 14 (8279040)
I0105 11:56:05.549754 31115 net.cpp:120] Top shape: 80 528 14 14 (8279040)
I0105 11:56:05.549763 31115 net.cpp:120] Top shape: 80 528 14 14 (8279040)
I0105 11:56:05.549770 31115 layer_factory.hpp:74] Creating layer loss2/ave_pool
I0105 11:56:05.549782 31115 net.cpp:84] Creating Layer loss2/ave_pool
I0105 11:56:05.549789 31115 net.cpp:380] loss2/ave_pool <- inception_4d/output_inception_4d/output_0_split_0
I0105 11:56:05.549800 31115 net.cpp:338] loss2/ave_pool -> loss2/ave_pool
I0105 11:56:05.549810 31115 net.cpp:113] Setting up loss2/ave_pool
I0105 11:56:05.549911 31115 net.cpp:120] Top shape: 80 528 4 4 (675840)
I0105 11:56:05.549921 31115 layer_factory.hpp:74] Creating layer loss2/conv
I0105 11:56:05.549935 31115 net.cpp:84] Creating Layer loss2/conv
I0105 11:56:05.549943 31115 net.cpp:380] loss2/conv <- loss2/ave_pool
I0105 11:56:05.549953 31115 net.cpp:338] loss2/conv -> loss2/conv
I0105 11:56:05.549965 31115 net.cpp:113] Setting up loss2/conv
I0105 11:56:05.551373 31115 net.cpp:120] Top shape: 80 128 4 4 (163840)
I0105 11:56:05.551394 31115 layer_factory.hpp:74] Creating layer loss2/relu_conv
I0105 11:56:05.551408 31115 net.cpp:84] Creating Layer loss2/relu_conv
I0105 11:56:05.551415 31115 net.cpp:380] loss2/relu_conv <- loss2/conv
I0105 11:56:05.551427 31115 net.cpp:327] loss2/relu_conv -> loss2/conv (in-place)
I0105 11:56:05.551439 31115 net.cpp:113] Setting up loss2/relu_conv
I0105 11:56:05.551530 31115 net.cpp:120] Top shape: 80 128 4 4 (163840)
I0105 11:56:05.551540 31115 layer_factory.hpp:74] Creating layer loss2/fc
I0105 11:56:05.551553 31115 net.cpp:84] Creating Layer loss2/fc
I0105 11:56:05.551563 31115 net.cpp:380] loss2/fc <- loss2/conv
I0105 11:56:05.551573 31115 net.cpp:338] loss2/fc -> loss2/fc
I0105 11:56:05.551585 31115 net.cpp:113] Setting up loss2/fc
I0105 11:56:05.757217 31115 net.cpp:120] Top shape: 80 1024 (81920)
I0105 11:56:05.757297 31115 layer_factory.hpp:74] Creating layer loss2/relu_fc
I0105 11:56:05.757315 31115 net.cpp:84] Creating Layer loss2/relu_fc
I0105 11:56:05.757325 31115 net.cpp:380] loss2/relu_fc <- loss2/fc
I0105 11:56:05.757339 31115 net.cpp:327] loss2/relu_fc -> loss2/fc (in-place)
I0105 11:56:05.757352 31115 net.cpp:113] Setting up loss2/relu_fc
I0105 11:56:05.757932 31115 net.cpp:120] Top shape: 80 1024 (81920)
I0105 11:56:05.757947 31115 layer_factory.hpp:74] Creating layer loss2/drop_fc
I0105 11:56:05.757961 31115 net.cpp:84] Creating Layer loss2/drop_fc
I0105 11:56:05.757971 31115 net.cpp:380] loss2/drop_fc <- loss2/fc
I0105 11:56:05.757980 31115 net.cpp:327] loss2/drop_fc -> loss2/fc (in-place)
I0105 11:56:05.757992 31115 net.cpp:113] Setting up loss2/drop_fc
I0105 11:56:05.758005 31115 net.cpp:120] Top shape: 80 1024 (81920)
I0105 11:56:05.758013 31115 layer_factory.hpp:74] Creating layer loss2/classifier_kaggle
I0105 11:56:05.758028 31115 net.cpp:84] Creating Layer loss2/classifier_kaggle
I0105 11:56:05.758035 31115 net.cpp:380] loss2/classifier_kaggle <- loss2/fc
I0105 11:56:05.758046 31115 net.cpp:338] loss2/classifier_kaggle -> loss2/classifier_kaggle
I0105 11:56:05.758060 31115 net.cpp:113] Setting up loss2/classifier_kaggle
I0105 11:56:05.763893 31115 net.cpp:120] Top shape: 80 447 (35760)
I0105 11:56:05.763914 31115 layer_factory.hpp:74] Creating layer loss2/loss
I0105 11:56:05.763926 31115 net.cpp:84] Creating Layer loss2/loss
I0105 11:56:05.763934 31115 net.cpp:380] loss2/loss <- loss2/classifier_kaggle
I0105 11:56:05.763944 31115 net.cpp:380] loss2/loss <- label_data_1_split_1
I0105 11:56:05.763983 31115 net.cpp:338] loss2/loss -> loss2/loss1
I0105 11:56:05.763995 31115 net.cpp:113] Setting up loss2/loss
I0105 11:56:05.764005 31115 layer_factory.hpp:74] Creating layer loss2/loss
I0105 11:56:05.764238 31115 net.cpp:120] Top shape: (1)
I0105 11:56:05.764250 31115 net.cpp:122]     with loss weight 0.3
I0105 11:56:05.764266 31115 layer_factory.hpp:74] Creating layer inception_4e/1x1
I0105 11:56:05.764281 31115 net.cpp:84] Creating Layer inception_4e/1x1
I0105 11:56:05.764289 31115 net.cpp:380] inception_4e/1x1 <- inception_4d/output_inception_4d/output_0_split_1
I0105 11:56:05.764303 31115 net.cpp:338] inception_4e/1x1 -> inception_4e/1x1
I0105 11:56:05.764315 31115 net.cpp:113] Setting up inception_4e/1x1
I0105 11:56:05.766744 31115 net.cpp:120] Top shape: 80 256 14 14 (4014080)
I0105 11:56:05.766767 31115 layer_factory.hpp:74] Creating layer inception_4e/relu_1x1
I0105 11:56:05.766778 31115 net.cpp:84] Creating Layer inception_4e/relu_1x1
I0105 11:56:05.766787 31115 net.cpp:380] inception_4e/relu_1x1 <- inception_4e/1x1
I0105 11:56:05.766799 31115 net.cpp:327] inception_4e/relu_1x1 -> inception_4e/1x1 (in-place)
I0105 11:56:05.766810 31115 net.cpp:113] Setting up inception_4e/relu_1x1
I0105 11:56:05.766907 31115 net.cpp:120] Top shape: 80 256 14 14 (4014080)
I0105 11:56:05.766917 31115 layer_factory.hpp:74] Creating layer inception_4e/3x3_reduce
I0105 11:56:05.766938 31115 net.cpp:84] Creating Layer inception_4e/3x3_reduce
I0105 11:56:05.766947 31115 net.cpp:380] inception_4e/3x3_reduce <- inception_4d/output_inception_4d/output_0_split_2
I0105 11:56:05.766958 31115 net.cpp:338] inception_4e/3x3_reduce -> inception_4e/3x3_reduce
I0105 11:56:05.766970 31115 net.cpp:113] Setting up inception_4e/3x3_reduce
I0105 11:56:05.768604 31115 net.cpp:120] Top shape: 80 160 14 14 (2508800)
I0105 11:56:05.768623 31115 layer_factory.hpp:74] Creating layer inception_4e/relu_3x3_reduce
I0105 11:56:05.768637 31115 net.cpp:84] Creating Layer inception_4e/relu_3x3_reduce
I0105 11:56:05.768646 31115 net.cpp:380] inception_4e/relu_3x3_reduce <- inception_4e/3x3_reduce
I0105 11:56:05.768656 31115 net.cpp:327] inception_4e/relu_3x3_reduce -> inception_4e/3x3_reduce (in-place)
I0105 11:56:05.768667 31115 net.cpp:113] Setting up inception_4e/relu_3x3_reduce
I0105 11:56:05.768764 31115 net.cpp:120] Top shape: 80 160 14 14 (2508800)
I0105 11:56:05.768774 31115 layer_factory.hpp:74] Creating layer inception_4e/3x3
I0105 11:56:05.768790 31115 net.cpp:84] Creating Layer inception_4e/3x3
I0105 11:56:05.768796 31115 net.cpp:380] inception_4e/3x3 <- inception_4e/3x3_reduce
I0105 11:56:05.768810 31115 net.cpp:338] inception_4e/3x3 -> inception_4e/3x3
I0105 11:56:05.768821 31115 net.cpp:113] Setting up inception_4e/3x3
I0105 11:56:05.776036 31115 net.cpp:120] Top shape: 80 320 14 14 (5017600)
I0105 11:56:05.776059 31115 layer_factory.hpp:74] Creating layer inception_4e/relu_3x3
I0105 11:56:05.776072 31115 net.cpp:84] Creating Layer inception_4e/relu_3x3
I0105 11:56:05.776079 31115 net.cpp:380] inception_4e/relu_3x3 <- inception_4e/3x3
I0105 11:56:05.776093 31115 net.cpp:327] inception_4e/relu_3x3 -> inception_4e/3x3 (in-place)
I0105 11:56:05.776103 31115 net.cpp:113] Setting up inception_4e/relu_3x3
I0105 11:56:05.776407 31115 net.cpp:120] Top shape: 80 320 14 14 (5017600)
I0105 11:56:05.776422 31115 layer_factory.hpp:74] Creating layer inception_4e/5x5_reduce
I0105 11:56:05.776434 31115 net.cpp:84] Creating Layer inception_4e/5x5_reduce
I0105 11:56:05.776443 31115 net.cpp:380] inception_4e/5x5_reduce <- inception_4d/output_inception_4d/output_0_split_3
I0105 11:56:05.776456 31115 net.cpp:338] inception_4e/5x5_reduce -> inception_4e/5x5_reduce
I0105 11:56:05.776469 31115 net.cpp:113] Setting up inception_4e/5x5_reduce
I0105 11:56:05.777259 31115 net.cpp:120] Top shape: 80 32 14 14 (501760)
I0105 11:56:05.777281 31115 layer_factory.hpp:74] Creating layer inception_4e/relu_5x5_reduce
I0105 11:56:05.777293 31115 net.cpp:84] Creating Layer inception_4e/relu_5x5_reduce
I0105 11:56:05.777314 31115 net.cpp:380] inception_4e/relu_5x5_reduce <- inception_4e/5x5_reduce
I0105 11:56:05.777336 31115 net.cpp:327] inception_4e/relu_5x5_reduce -> inception_4e/5x5_reduce (in-place)
I0105 11:56:05.777348 31115 net.cpp:113] Setting up inception_4e/relu_5x5_reduce
I0105 11:56:05.777447 31115 net.cpp:120] Top shape: 80 32 14 14 (501760)
I0105 11:56:05.777458 31115 layer_factory.hpp:74] Creating layer inception_4e/5x5
I0105 11:56:05.777519 31115 net.cpp:84] Creating Layer inception_4e/5x5
I0105 11:56:05.777529 31115 net.cpp:380] inception_4e/5x5 <- inception_4e/5x5_reduce
I0105 11:56:05.777542 31115 net.cpp:338] inception_4e/5x5 -> inception_4e/5x5
I0105 11:56:05.777554 31115 net.cpp:113] Setting up inception_4e/5x5
I0105 11:56:05.779391 31115 net.cpp:120] Top shape: 80 128 14 14 (2007040)
I0105 11:56:05.779410 31115 layer_factory.hpp:74] Creating layer inception_4e/relu_5x5
I0105 11:56:05.779422 31115 net.cpp:84] Creating Layer inception_4e/relu_5x5
I0105 11:56:05.779431 31115 net.cpp:380] inception_4e/relu_5x5 <- inception_4e/5x5
I0105 11:56:05.779443 31115 net.cpp:327] inception_4e/relu_5x5 -> inception_4e/5x5 (in-place)
I0105 11:56:05.779453 31115 net.cpp:113] Setting up inception_4e/relu_5x5
I0105 11:56:05.779553 31115 net.cpp:120] Top shape: 80 128 14 14 (2007040)
I0105 11:56:05.779563 31115 layer_factory.hpp:74] Creating layer inception_4e/pool
I0105 11:56:05.779572 31115 layer_factory.cpp:56] CUDNN does not support padding or multiple tops. Using Caffe's own pooling layer.
I0105 11:56:05.779582 31115 net.cpp:84] Creating Layer inception_4e/pool
I0105 11:56:05.779589 31115 net.cpp:380] inception_4e/pool <- inception_4d/output_inception_4d/output_0_split_4
I0105 11:56:05.779599 31115 net.cpp:338] inception_4e/pool -> inception_4e/pool
I0105 11:56:05.779610 31115 net.cpp:113] Setting up inception_4e/pool
I0105 11:56:05.779624 31115 net.cpp:120] Top shape: 80 528 14 14 (8279040)
I0105 11:56:05.779633 31115 layer_factory.hpp:74] Creating layer inception_4e/pool_proj
I0105 11:56:05.779645 31115 net.cpp:84] Creating Layer inception_4e/pool_proj
I0105 11:56:05.779654 31115 net.cpp:380] inception_4e/pool_proj <- inception_4e/pool
I0105 11:56:05.779666 31115 net.cpp:338] inception_4e/pool_proj -> inception_4e/pool_proj
I0105 11:56:05.779677 31115 net.cpp:113] Setting up inception_4e/pool_proj
I0105 11:56:05.781102 31115 net.cpp:120] Top shape: 80 128 14 14 (2007040)
I0105 11:56:05.781126 31115 layer_factory.hpp:74] Creating layer inception_4e/relu_pool_proj
I0105 11:56:05.781139 31115 net.cpp:84] Creating Layer inception_4e/relu_pool_proj
I0105 11:56:05.781147 31115 net.cpp:380] inception_4e/relu_pool_proj <- inception_4e/pool_proj
I0105 11:56:05.781157 31115 net.cpp:327] inception_4e/relu_pool_proj -> inception_4e/pool_proj (in-place)
I0105 11:56:05.781167 31115 net.cpp:113] Setting up inception_4e/relu_pool_proj
I0105 11:56:05.781261 31115 net.cpp:120] Top shape: 80 128 14 14 (2007040)
I0105 11:56:05.781271 31115 layer_factory.hpp:74] Creating layer inception_4e/output
I0105 11:56:05.781286 31115 net.cpp:84] Creating Layer inception_4e/output
I0105 11:56:05.781294 31115 net.cpp:380] inception_4e/output <- inception_4e/1x1
I0105 11:56:05.781302 31115 net.cpp:380] inception_4e/output <- inception_4e/3x3
I0105 11:56:05.781311 31115 net.cpp:380] inception_4e/output <- inception_4e/5x5
I0105 11:56:05.781319 31115 net.cpp:380] inception_4e/output <- inception_4e/pool_proj
I0105 11:56:05.781328 31115 net.cpp:338] inception_4e/output -> inception_4e/output
I0105 11:56:05.781339 31115 net.cpp:113] Setting up inception_4e/output
I0105 11:56:05.781352 31115 net.cpp:120] Top shape: 80 832 14 14 (13045760)
I0105 11:56:05.781359 31115 layer_factory.hpp:74] Creating layer pool4/3x3_s2
I0105 11:56:05.781373 31115 net.cpp:84] Creating Layer pool4/3x3_s2
I0105 11:56:05.781380 31115 net.cpp:380] pool4/3x3_s2 <- inception_4e/output
I0105 11:56:05.781390 31115 net.cpp:338] pool4/3x3_s2 -> pool4/3x3_s2
I0105 11:56:05.781400 31115 net.cpp:113] Setting up pool4/3x3_s2
I0105 11:56:05.781709 31115 net.cpp:120] Top shape: 80 832 7 7 (3261440)
I0105 11:56:05.781733 31115 layer_factory.hpp:74] Creating layer pool4/3x3_s2_pool4/3x3_s2_0_split
I0105 11:56:05.781756 31115 net.cpp:84] Creating Layer pool4/3x3_s2_pool4/3x3_s2_0_split
I0105 11:56:05.781764 31115 net.cpp:380] pool4/3x3_s2_pool4/3x3_s2_0_split <- pool4/3x3_s2
I0105 11:56:05.781775 31115 net.cpp:338] pool4/3x3_s2_pool4/3x3_s2_0_split -> pool4/3x3_s2_pool4/3x3_s2_0_split_0
I0105 11:56:05.781790 31115 net.cpp:338] pool4/3x3_s2_pool4/3x3_s2_0_split -> pool4/3x3_s2_pool4/3x3_s2_0_split_1
I0105 11:56:05.781801 31115 net.cpp:338] pool4/3x3_s2_pool4/3x3_s2_0_split -> pool4/3x3_s2_pool4/3x3_s2_0_split_2
I0105 11:56:05.781811 31115 net.cpp:338] pool4/3x3_s2_pool4/3x3_s2_0_split -> pool4/3x3_s2_pool4/3x3_s2_0_split_3
I0105 11:56:05.781821 31115 net.cpp:113] Setting up pool4/3x3_s2_pool4/3x3_s2_0_split
I0105 11:56:05.781833 31115 net.cpp:120] Top shape: 80 832 7 7 (3261440)
I0105 11:56:05.781841 31115 net.cpp:120] Top shape: 80 832 7 7 (3261440)
I0105 11:56:05.781851 31115 net.cpp:120] Top shape: 80 832 7 7 (3261440)
I0105 11:56:05.781858 31115 net.cpp:120] Top shape: 80 832 7 7 (3261440)
I0105 11:56:05.781865 31115 layer_factory.hpp:74] Creating layer inception_5a/1x1
I0105 11:56:05.781882 31115 net.cpp:84] Creating Layer inception_5a/1x1
I0105 11:56:05.781889 31115 net.cpp:380] inception_5a/1x1 <- pool4/3x3_s2_pool4/3x3_s2_0_split_0
I0105 11:56:05.781899 31115 net.cpp:338] inception_5a/1x1 -> inception_5a/1x1
I0105 11:56:05.781911 31115 net.cpp:113] Setting up inception_5a/1x1
I0105 11:56:05.785240 31115 net.cpp:120] Top shape: 80 256 7 7 (1003520)
I0105 11:56:05.785262 31115 layer_factory.hpp:74] Creating layer inception_5a/relu_1x1
I0105 11:56:05.785274 31115 net.cpp:84] Creating Layer inception_5a/relu_1x1
I0105 11:56:05.785284 31115 net.cpp:380] inception_5a/relu_1x1 <- inception_5a/1x1
I0105 11:56:05.785293 31115 net.cpp:327] inception_5a/relu_1x1 -> inception_5a/1x1 (in-place)
I0105 11:56:05.785305 31115 net.cpp:113] Setting up inception_5a/relu_1x1
I0105 11:56:05.785398 31115 net.cpp:120] Top shape: 80 256 7 7 (1003520)
I0105 11:56:05.785408 31115 layer_factory.hpp:74] Creating layer inception_5a/3x3_reduce
I0105 11:56:05.785420 31115 net.cpp:84] Creating Layer inception_5a/3x3_reduce
I0105 11:56:05.785429 31115 net.cpp:380] inception_5a/3x3_reduce <- pool4/3x3_s2_pool4/3x3_s2_0_split_1
I0105 11:56:05.785439 31115 net.cpp:338] inception_5a/3x3_reduce -> inception_5a/3x3_reduce
I0105 11:56:05.785451 31115 net.cpp:113] Setting up inception_5a/3x3_reduce
I0105 11:56:05.787662 31115 net.cpp:120] Top shape: 80 160 7 7 (627200)
I0105 11:56:05.787683 31115 layer_factory.hpp:74] Creating layer inception_5a/relu_3x3_reduce
I0105 11:56:05.787694 31115 net.cpp:84] Creating Layer inception_5a/relu_3x3_reduce
I0105 11:56:05.787704 31115 net.cpp:380] inception_5a/relu_3x3_reduce <- inception_5a/3x3_reduce
I0105 11:56:05.787714 31115 net.cpp:327] inception_5a/relu_3x3_reduce -> inception_5a/3x3_reduce (in-place)
I0105 11:56:05.787725 31115 net.cpp:113] Setting up inception_5a/relu_3x3_reduce
I0105 11:56:05.787822 31115 net.cpp:120] Top shape: 80 160 7 7 (627200)
I0105 11:56:05.787830 31115 layer_factory.hpp:74] Creating layer inception_5a/3x3
I0105 11:56:05.787848 31115 net.cpp:84] Creating Layer inception_5a/3x3
I0105 11:56:05.787856 31115 net.cpp:380] inception_5a/3x3 <- inception_5a/3x3_reduce
I0105 11:56:05.787870 31115 net.cpp:338] inception_5a/3x3 -> inception_5a/3x3
I0105 11:56:05.787883 31115 net.cpp:113] Setting up inception_5a/3x3
I0105 11:56:05.794234 31115 net.cpp:120] Top shape: 80 320 7 7 (1254400)
I0105 11:56:05.794257 31115 layer_factory.hpp:74] Creating layer inception_5a/relu_3x3
I0105 11:56:05.794271 31115 net.cpp:84] Creating Layer inception_5a/relu_3x3
I0105 11:56:05.794280 31115 net.cpp:380] inception_5a/relu_3x3 <- inception_5a/3x3
I0105 11:56:05.794289 31115 net.cpp:327] inception_5a/relu_3x3 -> inception_5a/3x3 (in-place)
I0105 11:56:05.794301 31115 net.cpp:113] Setting up inception_5a/relu_3x3
I0105 11:56:05.794397 31115 net.cpp:120] Top shape: 80 320 7 7 (1254400)
I0105 11:56:05.794409 31115 layer_factory.hpp:74] Creating layer inception_5a/5x5_reduce
I0105 11:56:05.794441 31115 net.cpp:84] Creating Layer inception_5a/5x5_reduce
I0105 11:56:05.794450 31115 net.cpp:380] inception_5a/5x5_reduce <- pool4/3x3_s2_pool4/3x3_s2_0_split_2
I0105 11:56:05.794463 31115 net.cpp:338] inception_5a/5x5_reduce -> inception_5a/5x5_reduce
I0105 11:56:05.794476 31115 net.cpp:113] Setting up inception_5a/5x5_reduce
I0105 11:56:05.795338 31115 net.cpp:120] Top shape: 80 32 7 7 (125440)
I0105 11:56:05.795358 31115 layer_factory.hpp:74] Creating layer inception_5a/relu_5x5_reduce
I0105 11:56:05.795372 31115 net.cpp:84] Creating Layer inception_5a/relu_5x5_reduce
I0105 11:56:05.795380 31115 net.cpp:380] inception_5a/relu_5x5_reduce <- inception_5a/5x5_reduce
I0105 11:56:05.795392 31115 net.cpp:327] inception_5a/relu_5x5_reduce -> inception_5a/5x5_reduce (in-place)
I0105 11:56:05.795402 31115 net.cpp:113] Setting up inception_5a/relu_5x5_reduce
I0105 11:56:05.795698 31115 net.cpp:120] Top shape: 80 32 7 7 (125440)
I0105 11:56:05.795712 31115 layer_factory.hpp:74] Creating layer inception_5a/5x5
I0105 11:56:05.795732 31115 net.cpp:84] Creating Layer inception_5a/5x5
I0105 11:56:05.795742 31115 net.cpp:380] inception_5a/5x5 <- inception_5a/5x5_reduce
I0105 11:56:05.795753 31115 net.cpp:338] inception_5a/5x5 -> inception_5a/5x5
I0105 11:56:05.795764 31115 net.cpp:113] Setting up inception_5a/5x5
I0105 11:56:05.800654 31115 net.cpp:120] Top shape: 80 128 7 7 (501760)
I0105 11:56:05.800678 31115 layer_factory.hpp:74] Creating layer inception_5a/relu_5x5
I0105 11:56:05.800690 31115 net.cpp:84] Creating Layer inception_5a/relu_5x5
I0105 11:56:05.800699 31115 net.cpp:380] inception_5a/relu_5x5 <- inception_5a/5x5
I0105 11:56:05.800709 31115 net.cpp:327] inception_5a/relu_5x5 -> inception_5a/5x5 (in-place)
I0105 11:56:05.800724 31115 net.cpp:113] Setting up inception_5a/relu_5x5
I0105 11:56:05.800822 31115 net.cpp:120] Top shape: 80 128 7 7 (501760)
I0105 11:56:05.800832 31115 layer_factory.hpp:74] Creating layer inception_5a/pool
I0105 11:56:05.800842 31115 layer_factory.cpp:56] CUDNN does not support padding or multiple tops. Using Caffe's own pooling layer.
I0105 11:56:05.800853 31115 net.cpp:84] Creating Layer inception_5a/pool
I0105 11:56:05.800860 31115 net.cpp:380] inception_5a/pool <- pool4/3x3_s2_pool4/3x3_s2_0_split_3
I0105 11:56:05.800871 31115 net.cpp:338] inception_5a/pool -> inception_5a/pool
I0105 11:56:05.800882 31115 net.cpp:113] Setting up inception_5a/pool
I0105 11:56:05.800895 31115 net.cpp:120] Top shape: 80 832 7 7 (3261440)
I0105 11:56:05.800902 31115 layer_factory.hpp:74] Creating layer inception_5a/pool_proj
I0105 11:56:05.800917 31115 net.cpp:84] Creating Layer inception_5a/pool_proj
I0105 11:56:05.800925 31115 net.cpp:380] inception_5a/pool_proj <- inception_5a/pool
I0105 11:56:05.800935 31115 net.cpp:338] inception_5a/pool_proj -> inception_5a/pool_proj
I0105 11:56:05.800946 31115 net.cpp:113] Setting up inception_5a/pool_proj
I0105 11:56:05.802844 31115 net.cpp:120] Top shape: 80 128 7 7 (501760)
I0105 11:56:05.802865 31115 layer_factory.hpp:74] Creating layer inception_5a/relu_pool_proj
I0105 11:56:05.802875 31115 net.cpp:84] Creating Layer inception_5a/relu_pool_proj
I0105 11:56:05.802883 31115 net.cpp:380] inception_5a/relu_pool_proj <- inception_5a/pool_proj
I0105 11:56:05.802896 31115 net.cpp:327] inception_5a/relu_pool_proj -> inception_5a/pool_proj (in-place)
I0105 11:56:05.802907 31115 net.cpp:113] Setting up inception_5a/relu_pool_proj
I0105 11:56:05.802999 31115 net.cpp:120] Top shape: 80 128 7 7 (501760)
I0105 11:56:05.803011 31115 layer_factory.hpp:74] Creating layer inception_5a/output
I0105 11:56:05.803022 31115 net.cpp:84] Creating Layer inception_5a/output
I0105 11:56:05.803030 31115 net.cpp:380] inception_5a/output <- inception_5a/1x1
I0105 11:56:05.803038 31115 net.cpp:380] inception_5a/output <- inception_5a/3x3
I0105 11:56:05.803046 31115 net.cpp:380] inception_5a/output <- inception_5a/5x5
I0105 11:56:05.803055 31115 net.cpp:380] inception_5a/output <- inception_5a/pool_proj
I0105 11:56:05.803076 31115 net.cpp:338] inception_5a/output -> inception_5a/output
I0105 11:56:05.803097 31115 net.cpp:113] Setting up inception_5a/output
I0105 11:56:05.803109 31115 net.cpp:120] Top shape: 80 832 7 7 (3261440)
I0105 11:56:05.803118 31115 layer_factory.hpp:74] Creating layer inception_5a/output_inception_5a/output_0_split
I0105 11:56:05.803129 31115 net.cpp:84] Creating Layer inception_5a/output_inception_5a/output_0_split
I0105 11:56:05.803138 31115 net.cpp:380] inception_5a/output_inception_5a/output_0_split <- inception_5a/output
I0105 11:56:05.803146 31115 net.cpp:338] inception_5a/output_inception_5a/output_0_split -> inception_5a/output_inception_5a/output_0_split_0
I0105 11:56:05.803158 31115 net.cpp:338] inception_5a/output_inception_5a/output_0_split -> inception_5a/output_inception_5a/output_0_split_1
I0105 11:56:05.803169 31115 net.cpp:338] inception_5a/output_inception_5a/output_0_split -> inception_5a/output_inception_5a/output_0_split_2
I0105 11:56:05.803182 31115 net.cpp:338] inception_5a/output_inception_5a/output_0_split -> inception_5a/output_inception_5a/output_0_split_3
I0105 11:56:05.803192 31115 net.cpp:113] Setting up inception_5a/output_inception_5a/output_0_split
I0105 11:56:05.803205 31115 net.cpp:120] Top shape: 80 832 7 7 (3261440)
I0105 11:56:05.803213 31115 net.cpp:120] Top shape: 80 832 7 7 (3261440)
I0105 11:56:05.803222 31115 net.cpp:120] Top shape: 80 832 7 7 (3261440)
I0105 11:56:05.803231 31115 net.cpp:120] Top shape: 80 832 7 7 (3261440)
I0105 11:56:05.803238 31115 layer_factory.hpp:74] Creating layer inception_5b/1x1
I0105 11:56:05.803252 31115 net.cpp:84] Creating Layer inception_5b/1x1
I0105 11:56:05.803262 31115 net.cpp:380] inception_5b/1x1 <- inception_5a/output_inception_5a/output_0_split_0
I0105 11:56:05.803272 31115 net.cpp:338] inception_5b/1x1 -> inception_5b/1x1
I0105 11:56:05.803283 31115 net.cpp:113] Setting up inception_5b/1x1
I0105 11:56:05.807894 31115 net.cpp:120] Top shape: 80 384 7 7 (1505280)
I0105 11:56:05.807915 31115 layer_factory.hpp:74] Creating layer inception_5b/relu_1x1
I0105 11:56:05.807929 31115 net.cpp:84] Creating Layer inception_5b/relu_1x1
I0105 11:56:05.807937 31115 net.cpp:380] inception_5b/relu_1x1 <- inception_5b/1x1
I0105 11:56:05.807947 31115 net.cpp:327] inception_5b/relu_1x1 -> inception_5b/1x1 (in-place)
I0105 11:56:05.807958 31115 net.cpp:113] Setting up inception_5b/relu_1x1
I0105 11:56:05.808259 31115 net.cpp:120] Top shape: 80 384 7 7 (1505280)
I0105 11:56:05.808272 31115 layer_factory.hpp:74] Creating layer inception_5b/3x3_reduce
I0105 11:56:05.808284 31115 net.cpp:84] Creating Layer inception_5b/3x3_reduce
I0105 11:56:05.808292 31115 net.cpp:380] inception_5b/3x3_reduce <- inception_5a/output_inception_5a/output_0_split_1
I0105 11:56:05.808305 31115 net.cpp:338] inception_5b/3x3_reduce -> inception_5b/3x3_reduce
I0105 11:56:05.808318 31115 net.cpp:113] Setting up inception_5b/3x3_reduce
I0105 11:56:05.810945 31115 net.cpp:120] Top shape: 80 192 7 7 (752640)
I0105 11:56:05.810966 31115 layer_factory.hpp:74] Creating layer inception_5b/relu_3x3_reduce
I0105 11:56:05.810979 31115 net.cpp:84] Creating Layer inception_5b/relu_3x3_reduce
I0105 11:56:05.810987 31115 net.cpp:380] inception_5b/relu_3x3_reduce <- inception_5b/3x3_reduce
I0105 11:56:05.810998 31115 net.cpp:327] inception_5b/relu_3x3_reduce -> inception_5b/3x3_reduce (in-place)
I0105 11:56:05.811008 31115 net.cpp:113] Setting up inception_5b/relu_3x3_reduce
I0105 11:56:05.811107 31115 net.cpp:120] Top shape: 80 192 7 7 (752640)
I0105 11:56:05.811117 31115 layer_factory.hpp:74] Creating layer inception_5b/3x3
I0105 11:56:05.811131 31115 net.cpp:84] Creating Layer inception_5b/3x3
I0105 11:56:05.811139 31115 net.cpp:380] inception_5b/3x3 <- inception_5b/3x3_reduce
I0105 11:56:05.811149 31115 net.cpp:338] inception_5b/3x3 -> inception_5b/3x3
I0105 11:56:05.811187 31115 net.cpp:113] Setting up inception_5b/3x3
I0105 11:56:05.820251 31115 net.cpp:120] Top shape: 80 384 7 7 (1505280)
I0105 11:56:05.820281 31115 layer_factory.hpp:74] Creating layer inception_5b/relu_3x3
I0105 11:56:05.820302 31115 net.cpp:84] Creating Layer inception_5b/relu_3x3
I0105 11:56:05.820324 31115 net.cpp:380] inception_5b/relu_3x3 <- inception_5b/3x3
I0105 11:56:05.820335 31115 net.cpp:327] inception_5b/relu_3x3 -> inception_5b/3x3 (in-place)
I0105 11:56:05.820346 31115 net.cpp:113] Setting up inception_5b/relu_3x3
I0105 11:56:05.820441 31115 net.cpp:120] Top shape: 80 384 7 7 (1505280)
I0105 11:56:05.820451 31115 layer_factory.hpp:74] Creating layer inception_5b/5x5_reduce
I0105 11:56:05.820471 31115 net.cpp:84] Creating Layer inception_5b/5x5_reduce
I0105 11:56:05.820478 31115 net.cpp:380] inception_5b/5x5_reduce <- inception_5a/output_inception_5a/output_0_split_2
I0105 11:56:05.820489 31115 net.cpp:338] inception_5b/5x5_reduce -> inception_5b/5x5_reduce
I0105 11:56:05.820502 31115 net.cpp:113] Setting up inception_5b/5x5_reduce
I0105 11:56:05.821564 31115 net.cpp:120] Top shape: 80 48 7 7 (188160)
I0105 11:56:05.821585 31115 layer_factory.hpp:74] Creating layer inception_5b/relu_5x5_reduce
I0105 11:56:05.821596 31115 net.cpp:84] Creating Layer inception_5b/relu_5x5_reduce
I0105 11:56:05.821605 31115 net.cpp:380] inception_5b/relu_5x5_reduce <- inception_5b/5x5_reduce
I0105 11:56:05.821617 31115 net.cpp:327] inception_5b/relu_5x5_reduce -> inception_5b/5x5_reduce (in-place)
I0105 11:56:05.821630 31115 net.cpp:113] Setting up inception_5b/relu_5x5_reduce
I0105 11:56:05.821725 31115 net.cpp:120] Top shape: 80 48 7 7 (188160)
I0105 11:56:05.821735 31115 layer_factory.hpp:74] Creating layer inception_5b/5x5
I0105 11:56:05.821749 31115 net.cpp:84] Creating Layer inception_5b/5x5
I0105 11:56:05.821758 31115 net.cpp:380] inception_5b/5x5 <- inception_5b/5x5_reduce
I0105 11:56:05.821769 31115 net.cpp:338] inception_5b/5x5 -> inception_5b/5x5
I0105 11:56:05.821781 31115 net.cpp:113] Setting up inception_5b/5x5
I0105 11:56:05.824280 31115 net.cpp:120] Top shape: 80 128 7 7 (501760)
I0105 11:56:05.824301 31115 layer_factory.hpp:74] Creating layer inception_5b/relu_5x5
I0105 11:56:05.824314 31115 net.cpp:84] Creating Layer inception_5b/relu_5x5
I0105 11:56:05.824323 31115 net.cpp:380] inception_5b/relu_5x5 <- inception_5b/5x5
I0105 11:56:05.824333 31115 net.cpp:327] inception_5b/relu_5x5 -> inception_5b/5x5 (in-place)
I0105 11:56:05.824344 31115 net.cpp:113] Setting up inception_5b/relu_5x5
I0105 11:56:05.824651 31115 net.cpp:120] Top shape: 80 128 7 7 (501760)
I0105 11:56:05.824666 31115 layer_factory.hpp:74] Creating layer inception_5b/pool
I0105 11:56:05.824676 31115 layer_factory.cpp:56] CUDNN does not support padding or multiple tops. Using Caffe's own pooling layer.
I0105 11:56:05.824686 31115 net.cpp:84] Creating Layer inception_5b/pool
I0105 11:56:05.824693 31115 net.cpp:380] inception_5b/pool <- inception_5a/output_inception_5a/output_0_split_3
I0105 11:56:05.824707 31115 net.cpp:338] inception_5b/pool -> inception_5b/pool
I0105 11:56:05.824718 31115 net.cpp:113] Setting up inception_5b/pool
I0105 11:56:05.824733 31115 net.cpp:120] Top shape: 80 832 7 7 (3261440)
I0105 11:56:05.824740 31115 layer_factory.hpp:74] Creating layer inception_5b/pool_proj
I0105 11:56:05.824753 31115 net.cpp:84] Creating Layer inception_5b/pool_proj
I0105 11:56:05.824759 31115 net.cpp:380] inception_5b/pool_proj <- inception_5b/pool
I0105 11:56:05.824772 31115 net.cpp:338] inception_5b/pool_proj -> inception_5b/pool_proj
I0105 11:56:05.824784 31115 net.cpp:113] Setting up inception_5b/pool_proj
I0105 11:56:05.826745 31115 net.cpp:120] Top shape: 80 128 7 7 (501760)
I0105 11:56:05.826766 31115 layer_factory.hpp:74] Creating layer inception_5b/relu_pool_proj
I0105 11:56:05.826777 31115 net.cpp:84] Creating Layer inception_5b/relu_pool_proj
I0105 11:56:05.826786 31115 net.cpp:380] inception_5b/relu_pool_proj <- inception_5b/pool_proj
I0105 11:56:05.826795 31115 net.cpp:327] inception_5b/relu_pool_proj -> inception_5b/pool_proj (in-place)
I0105 11:56:05.826807 31115 net.cpp:113] Setting up inception_5b/relu_pool_proj
I0105 11:56:05.826915 31115 net.cpp:120] Top shape: 80 128 7 7 (501760)
I0105 11:56:05.826925 31115 layer_factory.hpp:74] Creating layer inception_5b/output
I0105 11:56:05.826946 31115 net.cpp:84] Creating Layer inception_5b/output
I0105 11:56:05.826964 31115 net.cpp:380] inception_5b/output <- inception_5b/1x1
I0105 11:56:05.826973 31115 net.cpp:380] inception_5b/output <- inception_5b/3x3
I0105 11:56:05.826982 31115 net.cpp:380] inception_5b/output <- inception_5b/5x5
I0105 11:56:05.826990 31115 net.cpp:380] inception_5b/output <- inception_5b/pool_proj
I0105 11:56:05.826999 31115 net.cpp:338] inception_5b/output -> inception_5b/output
I0105 11:56:05.827010 31115 net.cpp:113] Setting up inception_5b/output
I0105 11:56:05.827023 31115 net.cpp:120] Top shape: 80 1024 7 7 (4014080)
I0105 11:56:05.827030 31115 layer_factory.hpp:74] Creating layer pool5/7x7_s1
I0105 11:56:05.827044 31115 net.cpp:84] Creating Layer pool5/7x7_s1
I0105 11:56:05.827050 31115 net.cpp:380] pool5/7x7_s1 <- inception_5b/output
I0105 11:56:05.827061 31115 net.cpp:338] pool5/7x7_s1 -> pool5/7x7_s1
I0105 11:56:05.827071 31115 net.cpp:113] Setting up pool5/7x7_s1
I0105 11:56:05.827170 31115 net.cpp:120] Top shape: 80 1024 1 1 (81920)
I0105 11:56:05.827180 31115 layer_factory.hpp:74] Creating layer pool5/drop_7x7_s1
I0105 11:56:05.827191 31115 net.cpp:84] Creating Layer pool5/drop_7x7_s1
I0105 11:56:05.827198 31115 net.cpp:380] pool5/drop_7x7_s1 <- pool5/7x7_s1
I0105 11:56:05.827210 31115 net.cpp:327] pool5/drop_7x7_s1 -> pool5/7x7_s1 (in-place)
I0105 11:56:05.827220 31115 net.cpp:113] Setting up pool5/drop_7x7_s1
I0105 11:56:05.827232 31115 net.cpp:120] Top shape: 80 1024 1 1 (81920)
I0105 11:56:05.827239 31115 layer_factory.hpp:74] Creating layer loss3/classifier_kaggle
I0105 11:56:05.827251 31115 net.cpp:84] Creating Layer loss3/classifier_kaggle
I0105 11:56:05.827258 31115 net.cpp:380] loss3/classifier_kaggle <- pool5/7x7_s1
I0105 11:56:05.827278 31115 net.cpp:338] loss3/classifier_kaggle -> loss3/classifier_kaggle
I0105 11:56:05.827291 31115 net.cpp:113] Setting up loss3/classifier_kaggle
I0105 11:56:05.833194 31115 net.cpp:120] Top shape: 80 447 (35760)
I0105 11:56:05.833211 31115 layer_factory.hpp:74] Creating layer loss3/loss3
I0105 11:56:05.833226 31115 net.cpp:84] Creating Layer loss3/loss3
I0105 11:56:05.833235 31115 net.cpp:380] loss3/loss3 <- loss3/classifier_kaggle
I0105 11:56:05.833243 31115 net.cpp:380] loss3/loss3 <- label_data_1_split_2
I0105 11:56:05.833253 31115 net.cpp:338] loss3/loss3 -> loss3/loss3
I0105 11:56:05.833266 31115 net.cpp:113] Setting up loss3/loss3
…
I0105 11:56:05.841619 31115 net.cpp:257] The NetState phase (1) differed from the phase (0) specified by a rule in layer data
I0105 11:56:05.844022 31115 net.cpp:42] Initializing net from parameters: 
name: "MYNET"
state {
  phase: TEST
}
layer {
  name: "data"
  type: "ImageData"
  top: "data"
  top: "label"
  include {
    phase: TEST
  }
  transform_param {
    mirror: false
    crop_size: 224
    mean_value: 129
    mean_value: 129
    mean_value: 129
  }
  image_data_param {
    source: "/home/coldmanck/kaggle/label_val_full_resize_rotated.txt"
    batch_size: 50
    shuffle: true
  }
}
layer {
  name: "conv1/7x7_s2"
  type: "Convolution"
  bottom: "data"
  top: "conv1/7x7_s2"
  param {
    lr_mult: 1
    decay_mult: 1
  }
  param {
    lr_mult: 2
    decay_mult: 0
  }
  convolution_param {
    num_output: 64
    pad: 3
    kernel_size: 7
    stride: 2
    weight_filler {
      type: "xavier"
    }
    bias_filler {
      type: "constant"
      value: 0.2
    }
  }
}
layer {
  name: "conv1/relu_7x7"
  type: "ReLU"
  bottom: "conv1/7x7_s2"
  top: "conv1/7x7_s2"
}
layer {
  name: "pool1/3x3_s2"
  type: "Pooling"
  bottom: "conv1/7x7_s2"
  top: "pool1/3x3_s2"
  pooling_param {
    pool: MAX
    kernel_size: 3
    stride: 2
  }
}
layer {
  name: "pool1/norm1"
  type: "LRN"
  bottom: "pool1/3x3_s2"
  top: "pool1/norm1"
  lrn_param {
    local_size: 5
    alpha: 0.0001
    beta: 0.75
  }
}
layer {
  name: "conv2/3x3_reduce"
  type: "Convolution"
  bottom: "pool1/norm1"
  top: "conv2/3x3_reduce"
  param {
    lr_mult: 1
    decay_mult: 1
  }
  param {
    lr_mult: 2
    decay_mult: 0
  }
  convolution_param {
    num_output: 64
    kernel_size: 1
    weight_filler {
      type: "xavier"
    }
    bias_filler {
      type: "constant"
      value: 0.2
    }
  }
}
layer {
  name: "conv2/relu_3x3_reduce"
  type: "ReLU"
  bottom: "conv2/3x3_reduce"
  top: "conv2/3x3_reduce"
}
layer {
  name: "conv2/3x3"
  type: "Convolution"
  bottom: "conv2/3x3_reduce"
  top: "conv2/3x3"
  param {
    lr_mult: 1
    decay_mult: 1
  }
  param {
    lr_mult: 2
    decay_mult: 0
  }
  convolution_param {
    num_output: 192
    pad: 1
    kernel_size: 3
    weight_filler {
      type: "xavier"
    }
    bias_filler {
      type: "constant"
      value: 0.2
    }
  }
}
layer {
  name: "conv2/relu_3x3"
  type: "ReLU"
  bottom: "conv2/3x3"
  top: "conv2/3x3"
}
layer {
  name: "conv2/norm2"
  type: "LRN"
  bottom: "conv2/3x3"
  top: "conv2/norm2"
  lrn_param {
    local_size: 5
    alpha: 0.0001
    beta: 0.75
  }
}
layer {
  name: "pool2/3x3_s2"
  type: "Pooling"
  bottom: "conv2/norm2"
  top: "pool2/3x3_s2"
  pooling_param {
    pool: MAX
    kernel_size: 3
    stride: 2
  }
}
layer {
  name: "inception_3a/1x1"
  type: "Convolution"
  bottom: "pool2/3x3_s2"
  top: "inception_3a/1x1"
  param {
    lr_mult: 1
    decay_mult: 1
  }
  param {
    lr_mult: 2
    decay_mult: 0
  }
  convolution_param {
    num_output: 64
    kernel_size: 1
    weight_filler {
      type: "xavier"
    }
    bias_filler {
      type: "constant"
      value: 0.2
    }
  }
}
layer {
  name: "inception_3a/relu_1x1"
  type: "ReLU"
  bottom: "inception_3a/1x1"
  top: "inception_3a/1x1"
}
layer {
  name: "inception_3a/3x3_reduce"
  type: "Convolution"
  bottom: "pool2/3x3_s2"
  top: "inception_3a/3x3_reduce"
  param {
    lr_mult: 1
    decay_mult: 1
  }
  param {
    lr_mult: 2
    decay_mult: 0
  }
  convolution_param {
    num_output: 96
    kernel_size: 1
    weight_filler {
      type: "xavier"
    }
    bias_filler {
      type: "constant"
      value: 0.2
    }
  }
}
layer {
  name: "inception_3a/relu_3x3_reduce"
  type: "ReLU"
  bottom: "inception_3a/3x3_reduce"
  top: "inception_3a/3x3_reduce"
}
layer {
  name: "inception_3a/3x3"
  type: "Convolution"
  bottom: "inception_3a/3x3_reduce"
  top: "inception_3a/3x3"
  param {
    lr_mult: 1
    decay_mult: 1
  }
  param {
    lr_mult: 2
    decay_mult: 0
  }
  convolution_param {
    num_output: 128
    pad: 1
    kernel_size: 3
    weight_filler {
      type: "xavier"
    }
    bias_filler {
      type: "constant"
      value: 0.2
    }
  }
}
layer {
  name: "inception_3a/relu_3x3"
  type: "ReLU"
  bottom: "inception_3a/3x3"
  top: "inception_3a/3x3"
}
layer {
  name: "inception_3a/5x5_reduce"
  type: "Convolution"
  bottom: "pool2/3x3_s2"
  top: "inception_3a/5x5_reduce"
  param {
    lr_mult: 1
    decay_mult: 1
  }
  param {
    lr_mult: 2
    decay_mult: 0
  }
  convolution_param {
    num_output: 16
    kernel_size: 1
    weight_filler {
      type: "xavier"
    }
    bias_filler {
      type: "constant"
      value: 0.2
    }
  }
}
layer {
  name: "inception_3a/relu_5x5_reduce"
  type: "ReLU"
  bottom: "inception_3a/5x5_reduce"
  top: "inception_3a/5x5_reduce"
}
layer {
  name: "inception_3a/5x5"
  type: "Convolution"
  bottom: "inception_3a/5x5_reduce"
  top: "inception_3a/5x5"
  param {
    lr_mult: 1
    decay_mult: 1
  }
  param {
    lr_mult: 2
    decay_mult: 0
  }
  convolution_param {
    num_output: 32
    pad: 2
    kernel_size: 5
    weight_filler {
      type: "xavier"
    }
    bias_filler {
      type: "constant"
      value: 0.2
    }
  }
}
layer {
  name: "inception_3a/relu_5x5"
  type: "ReLU"
  bottom: "inception_3a/5x5"
  top: "inception_3a/5x5"
}
layer {
  name: "inception_3a/pool"
  type: "Pooling"
  bottom: "pool2/3x3_s2"
  top: "inception_3a/pool"
  pooling_param {
    pool: MAX
    kernel_size: 3
    stride: 1
    pad: 1
  }
}
layer {
  name: "inception_3a/pool_proj"
  type: "Convolution"
  bottom: "inception_3a/pool"
  top: "inception_3a/pool_proj"
  param {
    lr_mult: 1
    decay_mult: 1
  }
  param {
    lr_mult: 2
    decay_mult: 0
  }
  convolution_param {
    num_output: 32
    kernel_size: 1
    weight_filler {
      type: "xavier"
    }
    bias_filler {
      type: "constant"
      value: 0.2
    }
  }
}
layer {
  name: "inception_3a/relu_pool_proj"
  type: "ReLU"
  bottom: "inception_3a/pool_proj"
  top: "inception_3a/pool_proj"
}
layer {
  name: "inception_3a/output"
  type: "Concat"
  bottom: "inception_3a/1x1"
  bottom: "inception_3a/3x3"
  bottom: "inception_3a/5x5"
  bottom: "inception_3a/pool_proj"
  top: "inception_3a/output"
}
layer {
  name: "inception_3b/1x1"
  type: "Convolution"
  bottom: "inception_3a/output"
  top: "inception_3b/1x1"
  param {
    lr_mult: 1
    decay_mult: 1
  }
  param {
    lr_mult: 2
    decay_mult: 0
  }
  convolution_param {
    num_output: 128
    kernel_size: 1
    weight_filler {
      type: "xavier"
    }
    bias_filler {
      type: "constant"
      value: 0.2
    }
  }
}
layer {
  name: "inception_3b/relu_1x1"
  type: "ReLU"
  bottom: "inception_3b/1x1"
  top: "inception_3b/1x1"
}
layer {
  name: "inception_3b/3x3_reduce"
  type: "Convolution"
  bottom: "inception_3a/output"
  top: "inception_3b/3x3_reduce"
  param {
    lr_mult: 1
    decay_mult: 1
  }
  param {
    lr_mult: 2
    decay_mult: 0
  }
  convolution_param {
    num_output: 128
    kernel_size: 1
    weight_filler {
      type: "xavier"
    }
    bias_filler {
      type: "constant"
      value: 0.2
    }
  }
}
layer {
  name: "inception_3b/relu_3x3_reduce"
  type: "ReLU"
  bottom: "inception_3b/3x3_reduce"
  top: "inception_3b/3x3_reduce"
}
layer {
  name: "inception_3b/3x3"
  type: "Convolution"
  bottom: "inception_3b/3x3_reduce"
  top: "inception_3b/3x3"
  param {
    lr_mult: 1
    decay_mult: 1
  }
  param {
    lr_mult: 2
    decay_mult: 0
  }
  convolution_param {
    num_output: 192
    pad: 1
    kernel_size: 3
    weight_filler {
      type: "xavier"
    }
    bias_filler {
      type: "constant"
      value: 0.2
    }
  }
}
layer {
  name: "inception_3b/relu_3x3"
  type: "ReLU"
  bottom: "inception_3b/3x3"
  top: "inception_3b/3x3"
}
layer {
  name: "inception_3b/5x5_reduce"
  type: "Convolution"
  bottom: "inception_3a/output"
  top: "inception_3b/5x5_reduce"
  param {
    lr_mult: 1
    decay_mult: 1
  }
  param {
    lr_mult: 2
    decay_mult: 0
  }
  convolution_param {
    num_output: 32
    kernel_size: 1
    weight_filler {
      type: "xavier"
    }
    bias_filler {
      type: "constant"
      value: 0.2
    }
  }
}
layer {
  name: "inception_3b/relu_5x5_reduce"
  type: "ReLU"
  bottom: "inception_3b/5x5_reduce"
  top: "inception_3b/5x5_reduce"
}
layer {
  name: "inception_3b/5x5"
  type: "Convolution"
  bottom: "inception_3b/5x5_reduce"
  top: "inception_3b/5x5"
  param {
    lr_mult: 1
    decay_mult: 1
  }
  param {
    lr_mult: 2
    decay_mult: 0
  }
  convolution_param {
    num_output: 96
    pad: 2
    kernel_size: 5
    weight_filler {
      type: "xavier"
    }
    bias_filler {
      type: "constant"
      value: 0.2
    }
  }
}
layer {
  name: "inception_3b/relu_5x5"
  type: "ReLU"
  bottom: "inception_3b/5x5"
  top: "inception_3b/5x5"
}
layer {
  name: "inception_3b/pool"
  type: "Pooling"
  bottom: "inception_3a/output"
  top: "inception_3b/pool"
  pooling_param {
    pool: MAX
    kernel_size: 3
    stride: 1
    pad: 1
  }
}
layer {
  name: "inception_3b/pool_proj"
  type: "Convolution"
  bottom: "inception_3b/pool"
  top: "inception_3b/pool_proj"
  param {
    lr_mult: 1
    decay_mult: 1
  }
  param {
    lr_mult: 2
    decay_mult: 0
  }
  convolution_param {
    num_output: 64
    kernel_size: 1
    weight_filler {
      type: "xavier"
    }
    bias_filler {
      type: "constant"
      value: 0.2
    }
  }
}
layer {
  name: "inception_3b/relu_pool_proj"
  type: "ReLU"
  bottom: "inception_3b/pool_proj"
  top: "inception_3b/pool_proj"
}
layer {
  name: "inception_3b/output"
  type: "Concat"
  bottom: "inception_3b/1x1"
  bottom: "inception_3b/3x3"
  bottom: "inception_3b/5x5"
  bottom: "inception_3b/pool_proj"
  top: "inception_3b/output"
}
layer {
  name: "pool3/3x3_s2"
  type: "Pooling"
  bottom: "inception_3b/output"
  top: "pool3/3x3_s2"
  pooling_param {
    pool: MAX
    kernel_size: 3
    stride: 2
  }
}
layer {
  name: "inception_4a/1x1"
  type: "Convolution"
  bottom: "pool3/3x3_s2"
  top: "inception_4a/1x1"
  param {
    lr_mult: 1
    decay_mult: 1
  }
  param {
    lr_mult: 2
    decay_mult: 0
  }
  convolution_param {
    num_output: 192
    kernel_size: 1
    weight_filler {
      type: "xavier"
    }
    bias_filler {
      type: "constant"
      value: 0.2
    }
  }
}
layer {
  name: "inception_4a/relu_1x1"
  type: "ReLU"
  bottom: "inception_4a/1x1"
  top: "inception_4a/1x1"
}
layer {
  name: "inception_4a/3x3_reduce"
  type: "Convolution"
  bottom: "pool3/3x3_s2"
  top: "inception_4a/3x3_reduce"
  param {
    lr_mult: 1
    decay_mult: 1
  }
  param {
    lr_mult: 2
    decay_mult: 0
  }
  convolution_param {
    num_output: 96
    kernel_size: 1
    weight_filler {
      type: "xavier"
    }
    bias_filler {
      type: "constant"
      value: 0.2
    }
  }
}
layer {
  name: "inception_4a/relu_3x3_reduce"
  type: "ReLU"
  bottom: "inception_4a/3x3_reduce"
  top: "inception_4a/3x3_reduce"
}
layer {
  name: "inception_4a/3x3"
  type: "Convolution"
  bottom: "inception_4a/3x3_reduce"
  top: "inception_4a/3x3"
  param {
    lr_mult: 1
    decay_mult: 1
  }
  param {
    lr_mult: 2
    decay_mult: 0
  }
  convolution_param {
    num_output: 208
    pad: 1
    kernel_size: 3
    weight_filler {
      type: "xavier"
    }
    bias_filler {
      type: "constant"
      value: 0.2
    }
  }
}
layer {
  name: "inception_4a/relu_3x3"
  type: "ReLU"
  bottom: "inception_4a/3x3"
  top: "inception_4a/3x3"
}
layer {
  name: "inception_4a/5x5_reduce"
  type: "Convolution"
  bottom: "pool3/3x3_s2"
  top: "inception_4a/5x5_reduce"
  param {
    lr_mult: 1
    decay_mult: 1
  }
  param {
    lr_mult: 2
    decay_mult: 0
  }
  convolution_param {
    num_output: 16
    kernel_size: 1
    weight_filler {
      type: "xavier"
    }
    bias_filler {
      type: "constant"
      value: 0.2
    }
  }
}
layer {
  name: "inception_4a/relu_5x5_reduce"
  type: "ReLU"
  bottom: "inception_4a/5x5_reduce"
  top: "inception_4a/5x5_reduce"
}
layer {
  name: "inception_4a/5x5"
  type: "Convolution"
  bottom: "inception_4a/5x5_reduce"
  top: "inception_4a/5x5"
  param {
    lr_mult: 1
    decay_mult: 1
  }
  param {
    lr_mult: 2
    decay_mult: 0
  }
  convolution_param {
    num_output: 48
    pad: 2
    kernel_size: 5
    weight_filler {
      type: "xavier"
    }
    bias_filler {
      type: "constant"
      value: 0.2
    }
  }
}
layer {
  name: "inception_4a/relu_5x5"
  type: "ReLU"
  bottom: "inception_4a/5x5"
  top: "inception_4a/5x5"
}
layer {
  name: "inception_4a/pool"
  type: "Pooling"
  bottom: "pool3/3x3_s2"
  top: "inception_4a/pool"
  pooling_param {
    pool: MAX
    kernel_size: 3
    stride: 1
    pad: 1
  }
}
layer {
  name: "inception_4a/pool_proj"
  type: "Convolution"
  bottom: "inception_4a/pool"
  top: "inception_4a/pool_proj"
  param {
    lr_mult: 1
    decay_mult: 1
  }
  param {
    lr_mult: 2
    decay_mult: 0
  }
  convolution_param {
    num_output: 64
    kernel_size: 1
    weight_filler {
      type: "xavier"
    }
    bias_filler {
      type: "constant"
      value: 0.2
    }
  }
}
layer {
  name: "inception_4a/relu_pool_proj"
  type: "ReLU"
  bottom: "inception_4a/pool_proj"
  top: "inception_4a/pool_proj"
}
layer {
  name: "inception_4a/output"
  type: "Concat"
  bottom: "inception_4a/1x1"
  bottom: "inception_4a/3x3"
  bottom: "inception_4a/5x5"
  bottom: "inception_4a/pool_proj"
  top: "inception_4a/output"
}
layer {
  name: "loss1/ave_pool"
  type: "Pooling"
  bottom: "inception_4a/output"
  top: "loss1/ave_pool"
  pooling_param {
    pool: AVE
    kernel_size: 5
    stride: 3
  }
}
layer {
  name: "loss1/conv"
  type: "Convolution"
  bottom: "loss1/ave_pool"
  top: "loss1/conv"
  param {
    lr_mult: 1
    decay_mult: 1
  }
  param {
    lr_mult: 2
    decay_mult: 0
  }
  convolution_param {
    num_output: 128
    kernel_size: 1
    weight_filler {
      type: "xavier"
    }
    bias_filler {
      type: "constant"
      value: 0.2
    }
  }
}
layer {
  name: "loss1/relu_conv"
  type: "ReLU"
  bottom: "loss1/conv"
  top: "loss1/conv"
}
layer {
  name: "loss1/fc"
  type: "InnerProduct"
  bottom: "loss1/conv"
  top: "loss1/fc"
  param {
    lr_mult: 1
    decay_mult: 1
  }
  param {
    lr_mult: 2
    decay_mult: 0
  }
  inner_product_param {
    num_output: 1024
    weight_filler {
      type: "xavier"
    }
    bias_filler {
      type: "constant"
      value: 0.2
    }
  }
}
layer {
  name: "loss1/relu_fc"
  type: "ReLU"
  bottom: "loss1/fc"
  top: "loss1/fc"
}
layer {
  name: "loss1/drop_fc"
  type: "Dropout"
  bottom: "loss1/fc"
  top: "loss1/fc"
  dropout_param {
    dropout_ratio: 0.7
  }
}
layer {
  name: "loss1/classifier_kaggle"
  type: "InnerProduct"
  bottom: "loss1/fc"
  top: "loss1/classifier_kaggle"
  param {
    lr_mult: 1
    decay_mult: 1
  }
  param {
    lr_mult: 2
    decay_mult: 0
  }
  inner_product_param {
    num_output: 447
    weight_filler {
      type: "xavier"
    }
    bias_filler {
      type: "constant"
      value: 0
    }
  }
}
layer {
  name: "loss1/loss"
  type: "SoftmaxWithLoss"
  bottom: "loss1/classifier_kaggle"
  bottom: "label"
  top: "loss1/loss1"
  loss_weight: 0.3
}
layer {
  name: "loss1/top-1"
  type: "Accuracy"
  bottom: "loss1/classifier_kaggle"
  bottom: "label"
  top: "loss1/top-1"
  include {
    phase: TEST
  }
}
layer {
  name: "loss1/top-5"
  type: "Accuracy"
  bottom: "loss1/classifier_kaggle"
  bottom: "label"
  top: "loss1/top-5"
  include {
    phase: TEST
  }
  accuracy_param {
    top_k: 5
  }
}
layer {
  name: "inception_4b/1x1"
  type: "Convolution"
  bottom: "inception_4a/output"
  top: "inception_4b/1x1"
  param {
    lr_mult: 1
    decay_mult: 1
  }
  param {
    lr_mult: 2
    decay_mult: 0
  }
  convolution_param {
    num_output: 160
    kernel_size: 1
    weight_filler {
      type: "xavier"
    }
    bias_filler {
      type: "constant"
      value: 0.2
    }
  }
}
layer {
  name: "inception_4b/relu_1x1"
  type: "ReLU"
  bottom: "inception_4b/1x1"
  top: "inception_4b/1x1"
}
layer {
  name: "inception_4b/3x3_reduce"
  type: "Convolution"
  bottom: "inception_4a/output"
  top: "inception_4b/3x3_reduce"
  param {
    lr_mult: 1
    decay_mult: 1
  }
  param {
    lr_mult: 2
    decay_mult: 0
  }
  convolution_param {
    num_output: 112
    kernel_size: 1
    weight_filler {
      type: "xavier"
    }
    bias_filler {
      type: "constant"
      value: 0.2
    }
  }
}
layer {
  name: "inception_4b/relu_3x3_reduce"
  type: "ReLU"
  bottom: "inception_4b/3x3_reduce"
  top: "inception_4b/3x3_reduce"
}
layer {
  name: "inception_4b/3x3"
  type: "Convolution"
  bottom: "inception_4b/3x3_reduce"
  top: "inception_4b/3x3"
  param {
    lr_mult: 1
    decay_mult: 1
  }
  param {
    lr_mult: 2
    decay_mult: 0
  }
  convolution_param {
    num_output: 224
    pad: 1
    kernel_size: 3
    weight_filler {
      type: "xavier"
    }
    bias_filler {
      type: "constant"
      value: 0.2
    }
  }
}
layer {
  name: "inception_4b/relu_3x3"
  type: "ReLU"
  bottom: "inception_4b/3x3"
  top: "inception_4b/3x3"
}
layer {
  name: "inception_4b/5x5_reduce"
  type: "Convolution"
  bottom: "inception_4a/output"
  top: "inception_4b/5x5_reduce"
  param {
    lr_mult: 1
    decay_mult: 1
  }
  param {
    lr_mult: 2
    decay_mult: 0
  }
  convolution_param {
    num_output: 24
    kernel_size: 1
    weight_filler {
      type: "xavier"
    }
    bias_filler {
      type: "constant"
      value: 0.2
    }
  }
}
layer {
  name: "inception_4b/relu_5x5_reduce"
  type: "ReLU"
  bottom: "inception_4b/5x5_reduce"
  top: "inception_4b/5x5_reduce"
}
layer {
  name: "inception_4b/5x5"
  type: "Convolution"
  bottom: "inception_4b/5x5_reduce"
  top: "inception_4b/5x5"
  param {
    lr_mult: 1
    decay_mult: 1
  }
  param {
    lr_mult: 2
    decay_mult: 0
  }
  convolution_param {
    num_output: 64
    pad: 2
    kernel_size: 5
    weight_filler {
      type: "xavier"
    }
    bias_filler {
      type: "constant"
      value: 0.2
    }
  }
}
layer {
  name: "inception_4b/relu_5x5"
  type: "ReLU"
  bottom: "inception_4b/5x5"
  top: "inception_4b/5x5"
}
layer {
  name: "inception_4b/pool"
  type: "Pooling"
  bottom: "inception_4a/output"
  top: "inception_4b/pool"
  pooling_param {
    pool: MAX
    kernel_size: 3
    stride: 1
    pad: 1
  }
}
layer {
  name: "inception_4b/pool_proj"
  type: "Convolution"
  bottom: "inception_4b/pool"
  top: "inception_4b/pool_proj"
  param {
    lr_mult: 1
    decay_mult: 1
  }
  param {
    lr_mult: 2
    decay_mult: 0
  }
  convolution_param {
    num_output: 64
    kernel_size: 1
    weight_filler {
      type: "xavier"
    }
    bias_filler {
      type: "constant"
      value: 0.2
    }
  }
}
layer {
  name: "inception_4b/relu_pool_proj"
  type: "ReLU"
  bottom: "inception_4b/pool_proj"
  top: "inception_4b/pool_proj"
}
layer {
  name: "inception_4b/output"
  type: "Concat"
  bottom: "inception_4b/1x1"
  bottom: "inception_4b/3x3"
  bottom: "inception_4b/5x5"
  bottom: "inception_4b/pool_proj"
  top: "inception_4b/output"
}
layer {
  name: "inception_4c/1x1"
  type: "Convolution"
  bottom: "inception_4b/output"
  top: "inception_4c/1x1"
  param {
    lr_mult: 1
    decay_mult: 1
  }
  param {
    lr_mult: 2
    decay_mult: 0
  }
  convolution_param {
    num_output: 128
    kernel_size: 1
    weight_filler {
      type: "xavier"
    }
    bias_filler {
      type: "constant"
      value: 0.2
    }
  }
}
layer {
  name: "inception_4c/relu_1x1"
  type: "ReLU"
  bottom: "inception_4c/1x1"
  top: "inception_4c/1x1"
}
layer {
  name: "inception_4c/3x3_reduce"
  type: "Convolution"
  bottom: "inception_4b/output"
  top: "inception_4c/3x3_reduce"
  param {
    lr_mult: 1
    decay_mult: 1
  }
  param {
    lr_mult: 2
    decay_mult: 0
  }
  convolution_param {
    num_output: 128
    kernel_size: 1
    weight_filler {
      type: "xavier"
    }
    bias_filler {
      type: "constant"
      value: 0.2
    }
  }
}
layer {
  name: "inception_4c/relu_3x3_reduce"
  type: "ReLU"
  bottom: "inception_4c/3x3_reduce"
  top: "inception_4c/3x3_reduce"
}
layer {
  name: "inception_4c/3x3"
  type: "Convolution"
  bottom: "inception_4c/3x3_reduce"
  top: "inception_4c/3x3"
  param {
    lr_mult: 1
    decay_mult: 1
  }
  param {
    lr_mult: 2
    decay_mult: 0
  }
  convolution_param {
    num_output: 256
    pad: 1
    kernel_size: 3
    weight_filler {
      type: "xavier"
    }
    bias_filler {
      type: "constant"
      value: 0.2
    }
  }
}
layer {
  name: "inception_4c/relu_3x3"
  type: "ReLU"
  bottom: "inception_4c/3x3"
  top: "inception_4c/3x3"
}
layer {
  name: "inception_4c/5x5_reduce"
  type: "Convolution"
  bottom: "inception_4b/output"
  top: "inception_4c/5x5_reduce"
  param {
    lr_mult: 1
    decay_mult: 1
  }
  param {
    lr_mult: 2
    decay_mult: 0
  }
  convolution_param {
    num_output: 24
    kernel_size: 1
    weight_filler {
      type: "xavier"
    }
    bias_filler {
      type: "constant"
      value: 0.2
    }
  }
}
layer {
  name: "inception_4c/relu_5x5_reduce"
  type: "ReLU"
  bottom: "inception_4c/5x5_reduce"
  top: "inception_4c/5x5_reduce"
}
layer {
  name: "inception_4c/5x5"
  type: "Convolution"
  bottom: "inception_4c/5x5_reduce"
  top: "inception_4c/5x5"
  param {
    lr_mult: 1
    decay_mult: 1
  }
  param {
    lr_mult: 2
    decay_mult: 0
  }
  convolution_param {
    num_output: 64
    pad: 2
    kernel_size: 5
    weight_filler {
      type: "xavier"
    }
    bias_filler {
      type: "constant"
      value: 0.2
    }
  }
}
layer {
  name: "inception_4c/relu_5x5"
  type: "ReLU"
  bottom: "inception_4c/5x5"
  top: "inception_4c/5x5"
}
layer {
  name: "inception_4c/pool"
  type: "Pooling"
  bottom: "inception_4b/output"
  top: "inception_4c/pool"
  pooling_param {
    pool: MAX
    kernel_size: 3
    stride: 1
    pad: 1
  }
}
layer {
  name: "inception_4c/pool_proj"
  type: "Convolution"
  bottom: "inception_4c/pool"
  top: "inception_4c/pool_proj"
  param {
    lr_mult: 1
    decay_mult: 1
  }
  param {
    lr_mult: 2
    decay_mult: 0
  }
  convolution_param {
    num_output: 64
    kernel_size: 1
    weight_filler {
      type: "xavier"
    }
    bias_filler {
      type: "constant"
      value: 0.2
    }
  }
}
layer {
  name: "inception_4c/relu_pool_proj"
  type: "ReLU"
  bottom: "inception_4c/pool_proj"
  top: "inception_4c/pool_proj"
}
layer {
  name: "inception_4c/output"
  type: "Concat"
  bottom: "inception_4c/1x1"
  bottom: "inception_4c/3x3"
  bottom: "inception_4c/5x5"
  bottom: "inception_4c/pool_proj"
  top: "inception_4c/output"
}
layer {
  name: "inception_4d/1x1"
  type: "Convolution"
  bottom: "inception_4c/output"
  top: "inception_4d/1x1"
  param {
    lr_mult: 1
    decay_mult: 1
  }
  param {
    lr_mult: 2
    decay_mult: 0
  }
  convolution_param {
    num_output: 112
    kernel_size: 1
    weight_filler {
      type: "xavier"
    }
    bias_filler {
      type: "constant"
      value: 0.2
    }
  }
}
layer {
  name: "inception_4d/relu_1x1"
  type: "ReLU"
  bottom: "inception_4d/1x1"
  top: "inception_4d/1x1"
}
layer {
  name: "inception_4d/3x3_reduce"
  type: "Convolution"
  bottom: "inception_4c/output"
  top: "inception_4d/3x3_reduce"
  param {
    lr_mult: 1
    decay_mult: 1
  }
  param {
    lr_mult: 2
    decay_mult: 0
  }
  convolution_param {
    num_output: 144
    kernel_size: 1
    weight_filler {
      type: "xavier"
    }
    bias_filler {
      type: "constant"
      value: 0.2
    }
  }
}
layer {
  name: "inception_4d/relu_3x3_reduce"
  type: "ReLU"
  bottom: "inception_4d/3x3_reduce"
  top: "inception_4d/3x3_reduce"
}
layer {
  name: "inception_4d/3x3"
  type: "Convolution"
  bottom: "inception_4d/3x3_reduce"
  top: "inception_4d/3x3"
  param {
    lr_mult: 1
    decay_mult: 1
  }
  param {
    lr_mult: 2
    decay_mult: 0
  }
  convolution_param {
    num_output: 288
    pad: 1
    kernel_size: 3
    weight_filler {
      type: "xavier"
    }
    bias_filler {
      type: "constant"
      value: 0.2
    }
  }
}
layer {
  name: "inception_4d/relu_3x3"
  type: "ReLU"
  bottom: "inception_4d/3x3"
  top: "inception_4d/3x3"
}
layer {
  name: "inception_4d/5x5_reduce"
  type: "Convolution"
  bottom: "inception_4c/output"
  top: "inception_4d/5x5_reduce"
  param {
    lr_mult: 1
    decay_mult: 1
  }
  param {
    lr_mult: 2
    decay_mult: 0
  }
  convolution_param {
    num_output: 32
    kernel_size: 1
    weight_filler {
      type: "xavier"
    }
    bias_filler {
      type: "constant"
      value: 0.2
    }
  }
}
layer {
  name: "inception_4d/relu_5x5_reduce"
  type: "ReLU"
  bottom: "inception_4d/5x5_reduce"
  top: "inception_4d/5x5_reduce"
}
layer {
  name: "inception_4d/5x5"
  type: "Convolution"
  bottom: "inception_4d/5x5_reduce"
  top: "inception_4d/5x5"
  param {
    lr_mult: 1
    decay_mult: 1
  }
  param {
    lr_mult: 2
    decay_mult: 0
  }
  convolution_param {
    num_output: 64
    pad: 2
    kernel_size: 5
    weight_filler {
      type: "xavier"
    }
    bias_filler {
      type: "constant"
      value: 0.2
    }
  }
}
layer {
  name: "inception_4d/relu_5x5"
  type: "ReLU"
  bottom: "inception_4d/5x5"
  top: "inception_4d/5x5"
}
layer {
  name: "inception_4d/pool"
  type: "Pooling"
  bottom: "inception_4c/output"
  top: "inception_4d/pool"
  pooling_param {
    pool: MAX
    kernel_size: 3
    stride: 1
    pad: 1
  }
}
layer {
  name: "inception_4d/pool_proj"
  type: "Convolution"
  bottom: "inception_4d/pool"
  top: "inception_4d/pool_proj"
  param {
    lr_mult: 1
    decay_mult: 1
  }
  param {
    lr_mult: 2
    decay_mult: 0
  }
  convolution_param {
    num_output: 64
    kernel_size: 1
    weight_filler {
      type: "xavier"
    }
    bias_filler {
      type: "constant"
      value: 0.2
    }
  }
}
layer {
  name: "inception_4d/relu_pool_proj"
  type: "ReLU"
  bottom: "inception_4d/pool_proj"
  top: "inception_4d/pool_proj"
}
layer {
  name: "inception_4d/output"
  type: "Concat"
  bottom: "inception_4d/1x1"
  bottom: "inception_4d/3x3"
  bottom: "inception_4d/5x5"
  bottom: "inception_4d/pool_proj"
  top: "inception_4d/output"
}
layer {
  name: "loss2/ave_pool"
  type: "Pooling"
  bottom: "inception_4d/output"
  top: "loss2/ave_pool"
  pooling_param {
    pool: AVE
    kernel_size: 5
    stride: 3
  }
}
layer {
…
I0105 11:56:06.566970 31115 net.cpp:84] Creating Layer inception_4c/1x1
I0105 11:56:06.566977 31115 net.cpp:380] inception_4c/1x1 <- inception_4b/output_inception_4b/output_0_split_0
I0105 11:56:06.566989 31115 net.cpp:338] inception_4c/1x1 -> inception_4c/1x1
I0105 11:56:06.567001 31115 net.cpp:113] Setting up inception_4c/1x1
I0105 11:56:06.568388 31115 net.cpp:120] Top shape: 50 128 14 14 (1254400)
I0105 11:56:06.568409 31115 layer_factory.hpp:74] Creating layer inception_4c/relu_1x1
I0105 11:56:06.568421 31115 net.cpp:84] Creating Layer inception_4c/relu_1x1
I0105 11:56:06.568429 31115 net.cpp:380] inception_4c/relu_1x1 <- inception_4c/1x1
I0105 11:56:06.568446 31115 net.cpp:327] inception_4c/relu_1x1 -> inception_4c/1x1 (in-place)
I0105 11:56:06.568470 31115 net.cpp:113] Setting up inception_4c/relu_1x1
I0105 11:56:06.568778 31115 net.cpp:120] Top shape: 50 128 14 14 (1254400)
I0105 11:56:06.568792 31115 layer_factory.hpp:74] Creating layer inception_4c/3x3_reduce
I0105 11:56:06.568804 31115 net.cpp:84] Creating Layer inception_4c/3x3_reduce
I0105 11:56:06.568812 31115 net.cpp:380] inception_4c/3x3_reduce <- inception_4b/output_inception_4b/output_0_split_1
I0105 11:56:06.568828 31115 net.cpp:338] inception_4c/3x3_reduce -> inception_4c/3x3_reduce
I0105 11:56:06.568841 31115 net.cpp:113] Setting up inception_4c/3x3_reduce
I0105 11:56:06.570235 31115 net.cpp:120] Top shape: 50 128 14 14 (1254400)
I0105 11:56:06.570256 31115 layer_factory.hpp:74] Creating layer inception_4c/relu_3x3_reduce
I0105 11:56:06.570267 31115 net.cpp:84] Creating Layer inception_4c/relu_3x3_reduce
I0105 11:56:06.570276 31115 net.cpp:380] inception_4c/relu_3x3_reduce <- inception_4c/3x3_reduce
I0105 11:56:06.570286 31115 net.cpp:327] inception_4c/relu_3x3_reduce -> inception_4c/3x3_reduce (in-place)
I0105 11:56:06.570297 31115 net.cpp:113] Setting up inception_4c/relu_3x3_reduce
I0105 11:56:06.570395 31115 net.cpp:120] Top shape: 50 128 14 14 (1254400)
I0105 11:56:06.570405 31115 layer_factory.hpp:74] Creating layer inception_4c/3x3
I0105 11:56:06.570420 31115 net.cpp:84] Creating Layer inception_4c/3x3
I0105 11:56:06.570427 31115 net.cpp:380] inception_4c/3x3 <- inception_4c/3x3_reduce
I0105 11:56:06.570438 31115 net.cpp:338] inception_4c/3x3 -> inception_4c/3x3
I0105 11:56:06.570449 31115 net.cpp:113] Setting up inception_4c/3x3
I0105 11:56:06.574781 31115 net.cpp:120] Top shape: 50 256 14 14 (2508800)
I0105 11:56:06.574817 31115 layer_factory.hpp:74] Creating layer inception_4c/relu_3x3
I0105 11:56:06.574831 31115 net.cpp:84] Creating Layer inception_4c/relu_3x3
I0105 11:56:06.574839 31115 net.cpp:380] inception_4c/relu_3x3 <- inception_4c/3x3
I0105 11:56:06.574849 31115 net.cpp:327] inception_4c/relu_3x3 -> inception_4c/3x3 (in-place)
I0105 11:56:06.574861 31115 net.cpp:113] Setting up inception_4c/relu_3x3
I0105 11:56:06.574969 31115 net.cpp:120] Top shape: 50 256 14 14 (2508800)
I0105 11:56:06.574978 31115 layer_factory.hpp:74] Creating layer inception_4c/5x5_reduce
I0105 11:56:06.574991 31115 net.cpp:84] Creating Layer inception_4c/5x5_reduce
I0105 11:56:06.575000 31115 net.cpp:380] inception_4c/5x5_reduce <- inception_4b/output_inception_4b/output_0_split_2
I0105 11:56:06.575013 31115 net.cpp:338] inception_4c/5x5_reduce -> inception_4c/5x5_reduce
I0105 11:56:06.575026 31115 net.cpp:113] Setting up inception_4c/5x5_reduce
I0105 11:56:06.575716 31115 net.cpp:120] Top shape: 50 24 14 14 (235200)
I0105 11:56:06.575734 31115 layer_factory.hpp:74] Creating layer inception_4c/relu_5x5_reduce
I0105 11:56:06.575747 31115 net.cpp:84] Creating Layer inception_4c/relu_5x5_reduce
I0105 11:56:06.575755 31115 net.cpp:380] inception_4c/relu_5x5_reduce <- inception_4c/5x5_reduce
I0105 11:56:06.575765 31115 net.cpp:327] inception_4c/relu_5x5_reduce -> inception_4c/5x5_reduce (in-place)
I0105 11:56:06.575776 31115 net.cpp:113] Setting up inception_4c/relu_5x5_reduce
I0105 11:56:06.576668 31115 net.cpp:120] Top shape: 50 24 14 14 (235200)
I0105 11:56:06.576683 31115 layer_factory.hpp:74] Creating layer inception_4c/5x5
I0105 11:56:06.576704 31115 net.cpp:84] Creating Layer inception_4c/5x5
I0105 11:56:06.576712 31115 net.cpp:380] inception_4c/5x5 <- inception_4c/5x5_reduce
I0105 11:56:06.576725 31115 net.cpp:338] inception_4c/5x5 -> inception_4c/5x5
I0105 11:56:06.576736 31115 net.cpp:113] Setting up inception_4c/5x5
I0105 11:56:06.577796 31115 net.cpp:120] Top shape: 50 64 14 14 (627200)
I0105 11:56:06.577818 31115 layer_factory.hpp:74] Creating layer inception_4c/relu_5x5
I0105 11:56:06.577828 31115 net.cpp:84] Creating Layer inception_4c/relu_5x5
I0105 11:56:06.577837 31115 net.cpp:380] inception_4c/relu_5x5 <- inception_4c/5x5
I0105 11:56:06.577847 31115 net.cpp:327] inception_4c/relu_5x5 -> inception_4c/5x5 (in-place)
I0105 11:56:06.577867 31115 net.cpp:113] Setting up inception_4c/relu_5x5
I0105 11:56:06.577980 31115 net.cpp:120] Top shape: 50 64 14 14 (627200)
I0105 11:56:06.577989 31115 layer_factory.hpp:74] Creating layer inception_4c/pool
I0105 11:56:06.577997 31115 layer_factory.cpp:56] CUDNN does not support padding or multiple tops. Using Caffe's own pooling layer.
I0105 11:56:06.578006 31115 net.cpp:84] Creating Layer inception_4c/pool
I0105 11:56:06.578014 31115 net.cpp:380] inception_4c/pool <- inception_4b/output_inception_4b/output_0_split_3
I0105 11:56:06.578025 31115 net.cpp:338] inception_4c/pool -> inception_4c/pool
I0105 11:56:06.578037 31115 net.cpp:113] Setting up inception_4c/pool
I0105 11:56:06.578049 31115 net.cpp:120] Top shape: 50 512 14 14 (5017600)
I0105 11:56:06.578057 31115 layer_factory.hpp:74] Creating layer inception_4c/pool_proj
I0105 11:56:06.578070 31115 net.cpp:84] Creating Layer inception_4c/pool_proj
I0105 11:56:06.578078 31115 net.cpp:380] inception_4c/pool_proj <- inception_4c/pool
I0105 11:56:06.578091 31115 net.cpp:338] inception_4c/pool_proj -> inception_4c/pool_proj
I0105 11:56:06.578102 31115 net.cpp:113] Setting up inception_4c/pool_proj
I0105 11:56:06.579066 31115 net.cpp:120] Top shape: 50 64 14 14 (627200)
I0105 11:56:06.579087 31115 layer_factory.hpp:74] Creating layer inception_4c/relu_pool_proj
I0105 11:56:06.579097 31115 net.cpp:84] Creating Layer inception_4c/relu_pool_proj
I0105 11:56:06.579104 31115 net.cpp:380] inception_4c/relu_pool_proj <- inception_4c/pool_proj
I0105 11:56:06.579118 31115 net.cpp:327] inception_4c/relu_pool_proj -> inception_4c/pool_proj (in-place)
I0105 11:56:06.579128 31115 net.cpp:113] Setting up inception_4c/relu_pool_proj
I0105 11:56:06.579224 31115 net.cpp:120] Top shape: 50 64 14 14 (627200)
I0105 11:56:06.579233 31115 layer_factory.hpp:74] Creating layer inception_4c/output
I0105 11:56:06.579244 31115 net.cpp:84] Creating Layer inception_4c/output
I0105 11:56:06.579252 31115 net.cpp:380] inception_4c/output <- inception_4c/1x1
I0105 11:56:06.579260 31115 net.cpp:380] inception_4c/output <- inception_4c/3x3
I0105 11:56:06.579269 31115 net.cpp:380] inception_4c/output <- inception_4c/5x5
I0105 11:56:06.579277 31115 net.cpp:380] inception_4c/output <- inception_4c/pool_proj
I0105 11:56:06.579290 31115 net.cpp:338] inception_4c/output -> inception_4c/output
I0105 11:56:06.579301 31115 net.cpp:113] Setting up inception_4c/output
I0105 11:56:06.579313 31115 net.cpp:120] Top shape: 50 512 14 14 (5017600)
I0105 11:56:06.579320 31115 layer_factory.hpp:74] Creating layer inception_4c/output_inception_4c/output_0_split
I0105 11:56:06.579330 31115 net.cpp:84] Creating Layer inception_4c/output_inception_4c/output_0_split
I0105 11:56:06.579337 31115 net.cpp:380] inception_4c/output_inception_4c/output_0_split <- inception_4c/output
I0105 11:56:06.579349 31115 net.cpp:338] inception_4c/output_inception_4c/output_0_split -> inception_4c/output_inception_4c/output_0_split_0
I0105 11:56:06.579360 31115 net.cpp:338] inception_4c/output_inception_4c/output_0_split -> inception_4c/output_inception_4c/output_0_split_1
I0105 11:56:06.579371 31115 net.cpp:338] inception_4c/output_inception_4c/output_0_split -> inception_4c/output_inception_4c/output_0_split_2
I0105 11:56:06.579382 31115 net.cpp:338] inception_4c/output_inception_4c/output_0_split -> inception_4c/output_inception_4c/output_0_split_3
I0105 11:56:06.579392 31115 net.cpp:113] Setting up inception_4c/output_inception_4c/output_0_split
I0105 11:56:06.579403 31115 net.cpp:120] Top shape: 50 512 14 14 (5017600)
I0105 11:56:06.579412 31115 net.cpp:120] Top shape: 50 512 14 14 (5017600)
I0105 11:56:06.579421 31115 net.cpp:120] Top shape: 50 512 14 14 (5017600)
I0105 11:56:06.579429 31115 net.cpp:120] Top shape: 50 512 14 14 (5017600)
I0105 11:56:06.579437 31115 layer_factory.hpp:74] Creating layer inception_4d/1x1
I0105 11:56:06.579449 31115 net.cpp:84] Creating Layer inception_4d/1x1
I0105 11:56:06.579457 31115 net.cpp:380] inception_4d/1x1 <- inception_4c/output_inception_4c/output_0_split_0
I0105 11:56:06.579475 31115 net.cpp:338] inception_4d/1x1 -> inception_4d/1x1
I0105 11:56:06.579496 31115 net.cpp:113] Setting up inception_4d/1x1
I0105 11:56:06.580771 31115 net.cpp:120] Top shape: 50 112 14 14 (1097600)
I0105 11:56:06.580791 31115 layer_factory.hpp:74] Creating layer inception_4d/relu_1x1
I0105 11:56:06.580802 31115 net.cpp:84] Creating Layer inception_4d/relu_1x1
I0105 11:56:06.580811 31115 net.cpp:380] inception_4d/relu_1x1 <- inception_4d/1x1
I0105 11:56:06.580824 31115 net.cpp:327] inception_4d/relu_1x1 -> inception_4d/1x1 (in-place)
I0105 11:56:06.580835 31115 net.cpp:113] Setting up inception_4d/relu_1x1
I0105 11:56:06.580931 31115 net.cpp:120] Top shape: 50 112 14 14 (1097600)
I0105 11:56:06.580941 31115 layer_factory.hpp:74] Creating layer inception_4d/3x3_reduce
I0105 11:56:06.580955 31115 net.cpp:84] Creating Layer inception_4d/3x3_reduce
I0105 11:56:06.580962 31115 net.cpp:380] inception_4d/3x3_reduce <- inception_4c/output_inception_4c/output_0_split_1
I0105 11:56:06.580976 31115 net.cpp:338] inception_4d/3x3_reduce -> inception_4d/3x3_reduce
I0105 11:56:06.580988 31115 net.cpp:113] Setting up inception_4d/3x3_reduce
I0105 11:56:06.582450 31115 net.cpp:120] Top shape: 50 144 14 14 (1411200)
I0105 11:56:06.582471 31115 layer_factory.hpp:74] Creating layer inception_4d/relu_3x3_reduce
I0105 11:56:06.582484 31115 net.cpp:84] Creating Layer inception_4d/relu_3x3_reduce
I0105 11:56:06.582491 31115 net.cpp:380] inception_4d/relu_3x3_reduce <- inception_4d/3x3_reduce
I0105 11:56:06.582501 31115 net.cpp:327] inception_4d/relu_3x3_reduce -> inception_4d/3x3_reduce (in-place)
I0105 11:56:06.582511 31115 net.cpp:113] Setting up inception_4d/relu_3x3_reduce
I0105 11:56:06.582823 31115 net.cpp:120] Top shape: 50 144 14 14 (1411200)
I0105 11:56:06.582836 31115 layer_factory.hpp:74] Creating layer inception_4d/3x3
I0105 11:56:06.582850 31115 net.cpp:84] Creating Layer inception_4d/3x3
I0105 11:56:06.582859 31115 net.cpp:380] inception_4d/3x3 <- inception_4d/3x3_reduce
I0105 11:56:06.582870 31115 net.cpp:338] inception_4d/3x3 -> inception_4d/3x3
I0105 11:56:06.582882 31115 net.cpp:113] Setting up inception_4d/3x3
I0105 11:56:06.587985 31115 net.cpp:120] Top shape: 50 288 14 14 (2822400)
I0105 11:56:06.588007 31115 layer_factory.hpp:74] Creating layer inception_4d/relu_3x3
I0105 11:56:06.588018 31115 net.cpp:84] Creating Layer inception_4d/relu_3x3
I0105 11:56:06.588027 31115 net.cpp:380] inception_4d/relu_3x3 <- inception_4d/3x3
I0105 11:56:06.588035 31115 net.cpp:327] inception_4d/relu_3x3 -> inception_4d/3x3 (in-place)
I0105 11:56:06.588047 31115 net.cpp:113] Setting up inception_4d/relu_3x3
I0105 11:56:06.588138 31115 net.cpp:120] Top shape: 50 288 14 14 (2822400)
I0105 11:56:06.588148 31115 layer_factory.hpp:74] Creating layer inception_4d/5x5_reduce
I0105 11:56:06.588160 31115 net.cpp:84] Creating Layer inception_4d/5x5_reduce
I0105 11:56:06.588167 31115 net.cpp:380] inception_4d/5x5_reduce <- inception_4c/output_inception_4c/output_0_split_2
I0105 11:56:06.588179 31115 net.cpp:338] inception_4d/5x5_reduce -> inception_4d/5x5_reduce
I0105 11:56:06.588191 31115 net.cpp:113] Setting up inception_4d/5x5_reduce
I0105 11:56:06.588965 31115 net.cpp:120] Top shape: 50 32 14 14 (313600)
I0105 11:56:06.588984 31115 layer_factory.hpp:74] Creating layer inception_4d/relu_5x5_reduce
I0105 11:56:06.588995 31115 net.cpp:84] Creating Layer inception_4d/relu_5x5_reduce
I0105 11:56:06.589004 31115 net.cpp:380] inception_4d/relu_5x5_reduce <- inception_4d/5x5_reduce
I0105 11:56:06.589012 31115 net.cpp:327] inception_4d/relu_5x5_reduce -> inception_4d/5x5_reduce (in-place)
I0105 11:56:06.589032 31115 net.cpp:113] Setting up inception_4d/relu_5x5_reduce
I0105 11:56:06.589130 31115 net.cpp:120] Top shape: 50 32 14 14 (313600)
I0105 11:56:06.589140 31115 layer_factory.hpp:74] Creating layer inception_4d/5x5
I0105 11:56:06.589155 31115 net.cpp:84] Creating Layer inception_4d/5x5
I0105 11:56:06.589162 31115 net.cpp:380] inception_4d/5x5 <- inception_4d/5x5_reduce
I0105 11:56:06.589174 31115 net.cpp:338] inception_4d/5x5 -> inception_4d/5x5
I0105 11:56:06.589192 31115 net.cpp:113] Setting up inception_4d/5x5
I0105 11:56:06.590369 31115 net.cpp:120] Top shape: 50 64 14 14 (627200)
I0105 11:56:06.590389 31115 layer_factory.hpp:74] Creating layer inception_4d/relu_5x5
I0105 11:56:06.590399 31115 net.cpp:84] Creating Layer inception_4d/relu_5x5
I0105 11:56:06.590407 31115 net.cpp:380] inception_4d/relu_5x5 <- inception_4d/5x5
I0105 11:56:06.590417 31115 net.cpp:327] inception_4d/relu_5x5 -> inception_4d/5x5 (in-place)
I0105 11:56:06.590427 31115 net.cpp:113] Setting up inception_4d/relu_5x5
I0105 11:56:06.590522 31115 net.cpp:120] Top shape: 50 64 14 14 (627200)
I0105 11:56:06.590530 31115 layer_factory.hpp:74] Creating layer inception_4d/pool
I0105 11:56:06.590538 31115 layer_factory.cpp:56] CUDNN does not support padding or multiple tops. Using Caffe's own pooling layer.
I0105 11:56:06.590551 31115 net.cpp:84] Creating Layer inception_4d/pool
I0105 11:56:06.590559 31115 net.cpp:380] inception_4d/pool <- inception_4c/output_inception_4c/output_0_split_3
I0105 11:56:06.590569 31115 net.cpp:338] inception_4d/pool -> inception_4d/pool
I0105 11:56:06.590580 31115 net.cpp:113] Setting up inception_4d/pool
I0105 11:56:06.590592 31115 net.cpp:120] Top shape: 50 512 14 14 (5017600)
I0105 11:56:06.590600 31115 layer_factory.hpp:74] Creating layer inception_4d/pool_proj
I0105 11:56:06.590613 31115 net.cpp:84] Creating Layer inception_4d/pool_proj
I0105 11:56:06.590620 31115 net.cpp:380] inception_4d/pool_proj <- inception_4d/pool
I0105 11:56:06.590631 31115 net.cpp:338] inception_4d/pool_proj -> inception_4d/pool_proj
I0105 11:56:06.590641 31115 net.cpp:113] Setting up inception_4d/pool_proj
I0105 11:56:06.591583 31115 net.cpp:120] Top shape: 50 64 14 14 (627200)
I0105 11:56:06.591601 31115 layer_factory.hpp:74] Creating layer inception_4d/relu_pool_proj
I0105 11:56:06.591611 31115 net.cpp:84] Creating Layer inception_4d/relu_pool_proj
I0105 11:56:06.591619 31115 net.cpp:380] inception_4d/relu_pool_proj <- inception_4d/pool_proj
I0105 11:56:06.591631 31115 net.cpp:327] inception_4d/relu_pool_proj -> inception_4d/pool_proj (in-place)
I0105 11:56:06.591642 31115 net.cpp:113] Setting up inception_4d/relu_pool_proj
I0105 11:56:06.591943 31115 net.cpp:120] Top shape: 50 64 14 14 (627200)
I0105 11:56:06.591958 31115 layer_factory.hpp:74] Creating layer inception_4d/output
I0105 11:56:06.591969 31115 net.cpp:84] Creating Layer inception_4d/output
I0105 11:56:06.591977 31115 net.cpp:380] inception_4d/output <- inception_4d/1x1
I0105 11:56:06.591986 31115 net.cpp:380] inception_4d/output <- inception_4d/3x3
I0105 11:56:06.591995 31115 net.cpp:380] inception_4d/output <- inception_4d/5x5
I0105 11:56:06.592002 31115 net.cpp:380] inception_4d/output <- inception_4d/pool_proj
I0105 11:56:06.592011 31115 net.cpp:338] inception_4d/output -> inception_4d/output
I0105 11:56:06.592022 31115 net.cpp:113] Setting up inception_4d/output
I0105 11:56:06.592037 31115 net.cpp:120] Top shape: 50 528 14 14 (5174400)
I0105 11:56:06.592044 31115 layer_factory.hpp:74] Creating layer inception_4d/output_inception_4d/output_0_split
I0105 11:56:06.592053 31115 net.cpp:84] Creating Layer inception_4d/output_inception_4d/output_0_split
I0105 11:56:06.592061 31115 net.cpp:380] inception_4d/output_inception_4d/output_0_split <- inception_4d/output
I0105 11:56:06.592070 31115 net.cpp:338] inception_4d/output_inception_4d/output_0_split -> inception_4d/output_inception_4d/output_0_split_0
I0105 11:56:06.592082 31115 net.cpp:338] inception_4d/output_inception_4d/output_0_split -> inception_4d/output_inception_4d/output_0_split_1
I0105 11:56:06.592092 31115 net.cpp:338] inception_4d/output_inception_4d/output_0_split -> inception_4d/output_inception_4d/output_0_split_2
I0105 11:56:06.592103 31115 net.cpp:338] inception_4d/output_inception_4d/output_0_split -> inception_4d/output_inception_4d/output_0_split_3
I0105 11:56:06.592114 31115 net.cpp:338] inception_4d/output_inception_4d/output_0_split -> inception_4d/output_inception_4d/output_0_split_4
I0105 11:56:06.592124 31115 net.cpp:113] Setting up inception_4d/output_inception_4d/output_0_split
I0105 11:56:06.592150 31115 net.cpp:120] Top shape: 50 528 14 14 (5174400)
I0105 11:56:06.592159 31115 net.cpp:120] Top shape: 50 528 14 14 (5174400)
I0105 11:56:06.592169 31115 net.cpp:120] Top shape: 50 528 14 14 (5174400)
I0105 11:56:06.592176 31115 net.cpp:120] Top shape: 50 528 14 14 (5174400)
I0105 11:56:06.592185 31115 net.cpp:120] Top shape: 50 528 14 14 (5174400)
I0105 11:56:06.592190 31115 layer_factory.hpp:74] Creating layer loss2/ave_pool
I0105 11:56:06.592200 31115 net.cpp:84] Creating Layer loss2/ave_pool
I0105 11:56:06.592207 31115 net.cpp:380] loss2/ave_pool <- inception_4d/output_inception_4d/output_0_split_0
I0105 11:56:06.592219 31115 net.cpp:338] loss2/ave_pool -> loss2/ave_pool
I0105 11:56:06.592231 31115 net.cpp:113] Setting up loss2/ave_pool
I0105 11:56:06.592329 31115 net.cpp:120] Top shape: 50 528 4 4 (422400)
I0105 11:56:06.592339 31115 layer_factory.hpp:74] Creating layer loss2/conv
I0105 11:56:06.592353 31115 net.cpp:84] Creating Layer loss2/conv
I0105 11:56:06.592361 31115 net.cpp:380] loss2/conv <- loss2/ave_pool
I0105 11:56:06.592371 31115 net.cpp:338] loss2/conv -> loss2/conv
I0105 11:56:06.592383 31115 net.cpp:113] Setting up loss2/conv
I0105 11:56:06.593762 31115 net.cpp:120] Top shape: 50 128 4 4 (102400)
I0105 11:56:06.593782 31115 layer_factory.hpp:74] Creating layer loss2/relu_conv
I0105 11:56:06.593796 31115 net.cpp:84] Creating Layer loss2/relu_conv
I0105 11:56:06.593803 31115 net.cpp:380] loss2/relu_conv <- loss2/conv
I0105 11:56:06.593813 31115 net.cpp:327] loss2/relu_conv -> loss2/conv (in-place)
I0105 11:56:06.593823 31115 net.cpp:113] Setting up loss2/relu_conv
I0105 11:56:06.593916 31115 net.cpp:120] Top shape: 50 128 4 4 (102400)
I0105 11:56:06.593926 31115 layer_factory.hpp:74] Creating layer loss2/fc
I0105 11:56:06.593940 31115 net.cpp:84] Creating Layer loss2/fc
I0105 11:56:06.593947 31115 net.cpp:380] loss2/fc <- loss2/conv
I0105 11:56:06.593961 31115 net.cpp:338] loss2/fc -> loss2/fc
I0105 11:56:06.593974 31115 net.cpp:113] Setting up loss2/fc
I0105 11:56:06.756934 31115 net.cpp:120] Top shape: 50 1024 (51200)
I0105 11:56:06.756979 31115 layer_factory.hpp:74] Creating layer loss2/relu_fc
I0105 11:56:06.756995 31115 net.cpp:84] Creating Layer loss2/relu_fc
I0105 11:56:06.757006 31115 net.cpp:380] loss2/relu_fc <- loss2/fc
I0105 11:56:06.757027 31115 net.cpp:327] loss2/relu_fc -> loss2/fc (in-place)
I0105 11:56:06.757043 31115 net.cpp:113] Setting up loss2/relu_fc
I0105 11:56:06.757205 31115 net.cpp:120] Top shape: 50 1024 (51200)
I0105 11:56:06.757216 31115 layer_factory.hpp:74] Creating layer loss2/drop_fc
I0105 11:56:06.757228 31115 net.cpp:84] Creating Layer loss2/drop_fc
I0105 11:56:06.757236 31115 net.cpp:380] loss2/drop_fc <- loss2/fc
I0105 11:56:06.757246 31115 net.cpp:327] loss2/drop_fc -> loss2/fc (in-place)
I0105 11:56:06.757256 31115 net.cpp:113] Setting up loss2/drop_fc
I0105 11:56:06.757267 31115 net.cpp:120] Top shape: 50 1024 (51200)
I0105 11:56:06.757275 31115 layer_factory.hpp:74] Creating layer loss2/classifier_kaggle
I0105 11:56:06.757290 31115 net.cpp:84] Creating Layer loss2/classifier_kaggle
I0105 11:56:06.757298 31115 net.cpp:380] loss2/classifier_kaggle <- loss2/fc
I0105 11:56:06.757309 31115 net.cpp:338] loss2/classifier_kaggle -> loss2/classifier_kaggle
I0105 11:56:06.757321 31115 net.cpp:113] Setting up loss2/classifier_kaggle
I0105 11:56:06.763128 31115 net.cpp:120] Top shape: 50 447 (22350)
I0105 11:56:06.763146 31115 layer_factory.hpp:74] Creating layer loss2/classifier_kaggle_loss2/classifier_kaggle_0_split
I0105 11:56:06.763160 31115 net.cpp:84] Creating Layer loss2/classifier_kaggle_loss2/classifier_kaggle_0_split
I0105 11:56:06.763170 31115 net.cpp:380] loss2/classifier_kaggle_loss2/classifier_kaggle_0_split <- loss2/classifier_kaggle
I0105 11:56:06.763180 31115 net.cpp:338] loss2/classifier_kaggle_loss2/classifier_kaggle_0_split -> loss2/classifier_kaggle_loss2/classifier_kaggle_0_split_0
I0105 11:56:06.763192 31115 net.cpp:338] loss2/classifier_kaggle_loss2/classifier_kaggle_0_split -> loss2/classifier_kaggle_loss2/classifier_kaggle_0_split_1
I0105 11:56:06.763236 31115 net.cpp:338] loss2/classifier_kaggle_loss2/classifier_kaggle_0_split -> loss2/classifier_kaggle_loss2/classifier_kaggle_0_split_2
I0105 11:56:06.763247 31115 net.cpp:113] Setting up loss2/classifier_kaggle_loss2/classifier_kaggle_0_split
I0105 11:56:06.763259 31115 net.cpp:120] Top shape: 50 447 (22350)
I0105 11:56:06.763268 31115 net.cpp:120] Top shape: 50 447 (22350)
I0105 11:56:06.763276 31115 net.cpp:120] Top shape: 50 447 (22350)
I0105 11:56:06.763283 31115 layer_factory.hpp:74] Creating layer loss2/loss
I0105 11:56:06.763293 31115 net.cpp:84] Creating Layer loss2/loss
I0105 11:56:06.763300 31115 net.cpp:380] loss2/loss <- loss2/classifier_kaggle_loss2/classifier_kaggle_0_split_0
I0105 11:56:06.763310 31115 net.cpp:380] loss2/loss <- label_data_1_split_3
I0105 11:56:06.763319 31115 net.cpp:338] loss2/loss -> loss2/loss1
…
I0105 11:56:06.764014 31115 net.cpp:338] loss2/top-5 -> loss2/top-5
I0105 11:56:06.764025 31115 net.cpp:113] Setting up loss2/top-5
I0105 11:56:06.764034 31115 net.cpp:120] Top shape: (1)
I0105 11:56:06.764041 31115 layer_factory.hpp:74] Creating layer inception_4e/1x1
I0105 11:56:06.764055 31115 net.cpp:84] Creating Layer inception_4e/1x1
I0105 11:56:06.764062 31115 net.cpp:380] inception_4e/1x1 <- inception_4d/output_inception_4d/output_0_split_1
I0105 11:56:06.764075 31115 net.cpp:338] inception_4e/1x1 -> inception_4e/1x1
I0105 11:56:06.764087 31115 net.cpp:113] Setting up inception_4e/1x1
I0105 11:56:06.766374 31115 net.cpp:120] Top shape: 50 256 14 14 (2508800)
I0105 11:56:06.766396 31115 layer_factory.hpp:74] Creating layer inception_4e/relu_1x1
I0105 11:56:06.766407 31115 net.cpp:84] Creating Layer inception_4e/relu_1x1
I0105 11:56:06.766415 31115 net.cpp:380] inception_4e/relu_1x1 <- inception_4e/1x1
I0105 11:56:06.766427 31115 net.cpp:327] inception_4e/relu_1x1 -> inception_4e/1x1 (in-place)
I0105 11:56:06.766436 31115 net.cpp:113] Setting up inception_4e/relu_1x1
I0105 11:56:06.766535 31115 net.cpp:120] Top shape: 50 256 14 14 (2508800)
I0105 11:56:06.766544 31115 layer_factory.hpp:74] Creating layer inception_4e/3x3_reduce
I0105 11:56:06.766585 31115 net.cpp:84] Creating Layer inception_4e/3x3_reduce
I0105 11:56:06.766593 31115 net.cpp:380] inception_4e/3x3_reduce <- inception_4d/output_inception_4d/output_0_split_2
I0105 11:56:06.766605 31115 net.cpp:338] inception_4e/3x3_reduce -> inception_4e/3x3_reduce
I0105 11:56:06.766618 31115 net.cpp:113] Setting up inception_4e/3x3_reduce
I0105 11:56:06.768250 31115 net.cpp:120] Top shape: 50 160 14 14 (1568000)
I0105 11:56:06.768271 31115 layer_factory.hpp:74] Creating layer inception_4e/relu_3x3_reduce
I0105 11:56:06.768283 31115 net.cpp:84] Creating Layer inception_4e/relu_3x3_reduce
I0105 11:56:06.768292 31115 net.cpp:380] inception_4e/relu_3x3_reduce <- inception_4e/3x3_reduce
I0105 11:56:06.768302 31115 net.cpp:327] inception_4e/relu_3x3_reduce -> inception_4e/3x3_reduce (in-place)
I0105 11:56:06.768319 31115 net.cpp:113] Setting up inception_4e/relu_3x3_reduce
I0105 11:56:06.768438 31115 net.cpp:120] Top shape: 50 160 14 14 (1568000)
I0105 11:56:06.768448 31115 layer_factory.hpp:74] Creating layer inception_4e/3x3
I0105 11:56:06.768465 31115 net.cpp:84] Creating Layer inception_4e/3x3
I0105 11:56:06.768471 31115 net.cpp:380] inception_4e/3x3 <- inception_4e/3x3_reduce
I0105 11:56:06.768482 31115 net.cpp:338] inception_4e/3x3 -> inception_4e/3x3
I0105 11:56:06.768494 31115 net.cpp:113] Setting up inception_4e/3x3
I0105 11:56:06.774943 31115 net.cpp:120] Top shape: 50 320 14 14 (3136000)
I0105 11:56:06.774971 31115 layer_factory.hpp:74] Creating layer inception_4e/relu_3x3
I0105 11:56:06.774981 31115 net.cpp:84] Creating Layer inception_4e/relu_3x3
I0105 11:56:06.774989 31115 net.cpp:380] inception_4e/relu_3x3 <- inception_4e/3x3
I0105 11:56:06.775001 31115 net.cpp:327] inception_4e/relu_3x3 -> inception_4e/3x3 (in-place)
I0105 11:56:06.775010 31115 net.cpp:113] Setting up inception_4e/relu_3x3
I0105 11:56:06.775306 31115 net.cpp:120] Top shape: 50 320 14 14 (3136000)
I0105 11:56:06.775321 31115 layer_factory.hpp:74] Creating layer inception_4e/5x5_reduce
I0105 11:56:06.775333 31115 net.cpp:84] Creating Layer inception_4e/5x5_reduce
I0105 11:56:06.775341 31115 net.cpp:380] inception_4e/5x5_reduce <- inception_4d/output_inception_4d/output_0_split_3
I0105 11:56:06.775352 31115 net.cpp:338] inception_4e/5x5_reduce -> inception_4e/5x5_reduce
I0105 11:56:06.775364 31115 net.cpp:113] Setting up inception_4e/5x5_reduce
I0105 11:56:06.776123 31115 net.cpp:120] Top shape: 50 32 14 14 (313600)
I0105 11:56:06.776141 31115 layer_factory.hpp:74] Creating layer inception_4e/relu_5x5_reduce
I0105 11:56:06.776152 31115 net.cpp:84] Creating Layer inception_4e/relu_5x5_reduce
I0105 11:56:06.776160 31115 net.cpp:380] inception_4e/relu_5x5_reduce <- inception_4e/5x5_reduce
I0105 11:56:06.776170 31115 net.cpp:327] inception_4e/relu_5x5_reduce -> inception_4e/5x5_reduce (in-place)
I0105 11:56:06.776180 31115 net.cpp:113] Setting up inception_4e/relu_5x5_reduce
I0105 11:56:06.776279 31115 net.cpp:120] Top shape: 50 32 14 14 (313600)
I0105 11:56:06.776289 31115 layer_factory.hpp:74] Creating layer inception_4e/5x5
I0105 11:56:06.776300 31115 net.cpp:84] Creating Layer inception_4e/5x5
I0105 11:56:06.776307 31115 net.cpp:380] inception_4e/5x5 <- inception_4e/5x5_reduce
I0105 11:56:06.776320 31115 net.cpp:338] inception_4e/5x5 -> inception_4e/5x5
I0105 11:56:06.776331 31115 net.cpp:113] Setting up inception_4e/5x5
I0105 11:56:06.778085 31115 net.cpp:120] Top shape: 50 128 14 14 (1254400)
I0105 11:56:06.778105 31115 layer_factory.hpp:74] Creating layer inception_4e/relu_5x5
I0105 11:56:06.778115 31115 net.cpp:84] Creating Layer inception_4e/relu_5x5
I0105 11:56:06.778122 31115 net.cpp:380] inception_4e/relu_5x5 <- inception_4e/5x5
I0105 11:56:06.778131 31115 net.cpp:327] inception_4e/relu_5x5 -> inception_4e/5x5 (in-place)
I0105 11:56:06.778141 31115 net.cpp:113] Setting up inception_4e/relu_5x5
I0105 11:56:06.778233 31115 net.cpp:120] Top shape: 50 128 14 14 (1254400)
I0105 11:56:06.778241 31115 layer_factory.hpp:74] Creating layer inception_4e/pool
I0105 11:56:06.778250 31115 layer_factory.cpp:56] CUDNN does not support padding or multiple tops. Using Caffe's own pooling layer.
I0105 11:56:06.778259 31115 net.cpp:84] Creating Layer inception_4e/pool
I0105 11:56:06.778266 31115 net.cpp:380] inception_4e/pool <- inception_4d/output_inception_4d/output_0_split_4
I0105 11:56:06.778276 31115 net.cpp:338] inception_4e/pool -> inception_4e/pool
I0105 11:56:06.778286 31115 net.cpp:113] Setting up inception_4e/pool
I0105 11:56:06.778300 31115 net.cpp:120] Top shape: 50 528 14 14 (5174400)
I0105 11:56:06.778306 31115 layer_factory.hpp:74] Creating layer inception_4e/pool_proj
I0105 11:56:06.778321 31115 net.cpp:84] Creating Layer inception_4e/pool_proj
I0105 11:56:06.778327 31115 net.cpp:380] inception_4e/pool_proj <- inception_4e/pool
I0105 11:56:06.778339 31115 net.cpp:338] inception_4e/pool_proj -> inception_4e/pool_proj
I0105 11:56:06.778362 31115 net.cpp:113] Setting up inception_4e/pool_proj
I0105 11:56:06.779688 31115 net.cpp:120] Top shape: 50 128 14 14 (1254400)
I0105 11:56:06.779707 31115 layer_factory.hpp:74] Creating layer inception_4e/relu_pool_proj
I0105 11:56:06.779718 31115 net.cpp:84] Creating Layer inception_4e/relu_pool_proj
I0105 11:56:06.779726 31115 net.cpp:380] inception_4e/relu_pool_proj <- inception_4e/pool_proj
I0105 11:56:06.779736 31115 net.cpp:327] inception_4e/relu_pool_proj -> inception_4e/pool_proj (in-place)
I0105 11:56:06.779745 31115 net.cpp:113] Setting up inception_4e/relu_pool_proj
I0105 11:56:06.779837 31115 net.cpp:120] Top shape: 50 128 14 14 (1254400)
I0105 11:56:06.779846 31115 layer_factory.hpp:74] Creating layer inception_4e/output
I0105 11:56:06.779858 31115 net.cpp:84] Creating Layer inception_4e/output
I0105 11:56:06.779865 31115 net.cpp:380] inception_4e/output <- inception_4e/1x1
I0105 11:56:06.779875 31115 net.cpp:380] inception_4e/output <- inception_4e/3x3
I0105 11:56:06.779882 31115 net.cpp:380] inception_4e/output <- inception_4e/5x5
I0105 11:56:06.779889 31115 net.cpp:380] inception_4e/output <- inception_4e/pool_proj
I0105 11:56:06.779898 31115 net.cpp:338] inception_4e/output -> inception_4e/output
I0105 11:56:06.779908 31115 net.cpp:113] Setting up inception_4e/output
I0105 11:56:06.779920 31115 net.cpp:120] Top shape: 50 832 14 14 (8153600)
I0105 11:56:06.779927 31115 layer_factory.hpp:74] Creating layer pool4/3x3_s2
I0105 11:56:06.779938 31115 net.cpp:84] Creating Layer pool4/3x3_s2
I0105 11:56:06.779945 31115 net.cpp:380] pool4/3x3_s2 <- inception_4e/output
I0105 11:56:06.779955 31115 net.cpp:338] pool4/3x3_s2 -> pool4/3x3_s2
I0105 11:56:06.779965 31115 net.cpp:113] Setting up pool4/3x3_s2
I0105 11:56:06.780268 31115 net.cpp:120] Top shape: 50 832 7 7 (2038400)
I0105 11:56:06.780282 31115 layer_factory.hpp:74] Creating layer pool4/3x3_s2_pool4/3x3_s2_0_split
I0105 11:56:06.780292 31115 net.cpp:84] Creating Layer pool4/3x3_s2_pool4/3x3_s2_0_split
I0105 11:56:06.780299 31115 net.cpp:380] pool4/3x3_s2_pool4/3x3_s2_0_split <- pool4/3x3_s2
I0105 11:56:06.780309 31115 net.cpp:338] pool4/3x3_s2_pool4/3x3_s2_0_split -> pool4/3x3_s2_pool4/3x3_s2_0_split_0
I0105 11:56:06.780321 31115 net.cpp:338] pool4/3x3_s2_pool4/3x3_s2_0_split -> pool4/3x3_s2_pool4/3x3_s2_0_split_1
I0105 11:56:06.780334 31115 net.cpp:338] pool4/3x3_s2_pool4/3x3_s2_0_split -> pool4/3x3_s2_pool4/3x3_s2_0_split_2
I0105 11:56:06.780366 31115 net.cpp:338] pool4/3x3_s2_pool4/3x3_s2_0_split -> pool4/3x3_s2_pool4/3x3_s2_0_split_3
I0105 11:56:06.780376 31115 net.cpp:113] Setting up pool4/3x3_s2_pool4/3x3_s2_0_split
I0105 11:56:06.780387 31115 net.cpp:120] Top shape: 50 832 7 7 (2038400)
I0105 11:56:06.780396 31115 net.cpp:120] Top shape: 50 832 7 7 (2038400)
I0105 11:56:06.780407 31115 net.cpp:120] Top shape: 50 832 7 7 (2038400)
I0105 11:56:06.780416 31115 net.cpp:120] Top shape: 50 832 7 7 (2038400)
I0105 11:56:06.780422 31115 layer_factory.hpp:74] Creating layer inception_5a/1x1
I0105 11:56:06.780433 31115 net.cpp:84] Creating Layer inception_5a/1x1
I0105 11:56:06.780441 31115 net.cpp:380] inception_5a/1x1 <- pool4/3x3_s2_pool4/3x3_s2_0_split_0
I0105 11:56:06.780450 31115 net.cpp:338] inception_5a/1x1 -> inception_5a/1x1
I0105 11:56:06.780460 31115 net.cpp:113] Setting up inception_5a/1x1
I0105 11:56:06.783500 31115 net.cpp:120] Top shape: 50 256 7 7 (627200)
I0105 11:56:06.783519 31115 layer_factory.hpp:74] Creating layer inception_5a/relu_1x1
I0105 11:56:06.783529 31115 net.cpp:84] Creating Layer inception_5a/relu_1x1
I0105 11:56:06.783537 31115 net.cpp:380] inception_5a/relu_1x1 <- inception_5a/1x1
I0105 11:56:06.783550 31115 net.cpp:327] inception_5a/relu_1x1 -> inception_5a/1x1 (in-place)
I0105 11:56:06.783560 31115 net.cpp:113] Setting up inception_5a/relu_1x1
I0105 11:56:06.783649 31115 net.cpp:120] Top shape: 50 256 7 7 (627200)
I0105 11:56:06.783660 31115 layer_factory.hpp:74] Creating layer inception_5a/3x3_reduce
I0105 11:56:06.783674 31115 net.cpp:84] Creating Layer inception_5a/3x3_reduce
I0105 11:56:06.783687 31115 net.cpp:380] inception_5a/3x3_reduce <- pool4/3x3_s2_pool4/3x3_s2_0_split_1
I0105 11:56:06.783706 31115 net.cpp:338] inception_5a/3x3_reduce -> inception_5a/3x3_reduce
I0105 11:56:06.783717 31115 net.cpp:113] Setting up inception_5a/3x3_reduce
I0105 11:56:06.786034 31115 net.cpp:120] Top shape: 50 160 7 7 (392000)
I0105 11:56:06.786056 31115 layer_factory.hpp:74] Creating layer inception_5a/relu_3x3_reduce
I0105 11:56:06.786068 31115 net.cpp:84] Creating Layer inception_5a/relu_3x3_reduce
I0105 11:56:06.786077 31115 net.cpp:380] inception_5a/relu_3x3_reduce <- inception_5a/3x3_reduce
I0105 11:56:06.786087 31115 net.cpp:327] inception_5a/relu_3x3_reduce -> inception_5a/3x3_reduce (in-place)
I0105 11:56:06.786097 31115 net.cpp:113] Setting up inception_5a/relu_3x3_reduce
I0105 11:56:06.786192 31115 net.cpp:120] Top shape: 50 160 7 7 (392000)
I0105 11:56:06.786201 31115 layer_factory.hpp:74] Creating layer inception_5a/3x3
I0105 11:56:06.786216 31115 net.cpp:84] Creating Layer inception_5a/3x3
I0105 11:56:06.786222 31115 net.cpp:380] inception_5a/3x3 <- inception_5a/3x3_reduce
I0105 11:56:06.786232 31115 net.cpp:338] inception_5a/3x3 -> inception_5a/3x3
I0105 11:56:06.786245 31115 net.cpp:113] Setting up inception_5a/3x3
I0105 11:56:06.792307 31115 net.cpp:120] Top shape: 50 320 7 7 (784000)
I0105 11:56:06.792328 31115 layer_factory.hpp:74] Creating layer inception_5a/relu_3x3
I0105 11:56:06.792340 31115 net.cpp:84] Creating Layer inception_5a/relu_3x3
I0105 11:56:06.792348 31115 net.cpp:380] inception_5a/relu_3x3 <- inception_5a/3x3
I0105 11:56:06.792358 31115 net.cpp:327] inception_5a/relu_3x3 -> inception_5a/3x3 (in-place)
I0105 11:56:06.792368 31115 net.cpp:113] Setting up inception_5a/relu_3x3
I0105 11:56:06.792456 31115 net.cpp:120] Top shape: 50 320 7 7 (784000)
I0105 11:56:06.792466 31115 layer_factory.hpp:74] Creating layer inception_5a/5x5_reduce
I0105 11:56:06.792479 31115 net.cpp:84] Creating Layer inception_5a/5x5_reduce
I0105 11:56:06.792487 31115 net.cpp:380] inception_5a/5x5_reduce <- pool4/3x3_s2_pool4/3x3_s2_0_split_2
I0105 11:56:06.792498 31115 net.cpp:338] inception_5a/5x5_reduce -> inception_5a/5x5_reduce
I0105 11:56:06.792510 31115 net.cpp:113] Setting up inception_5a/5x5_reduce
I0105 11:56:06.793346 31115 net.cpp:120] Top shape: 50 32 7 7 (78400)
I0105 11:56:06.793366 31115 layer_factory.hpp:74] Creating layer inception_5a/relu_5x5_reduce
I0105 11:56:06.793376 31115 net.cpp:84] Creating Layer inception_5a/relu_5x5_reduce
I0105 11:56:06.793385 31115 net.cpp:380] inception_5a/relu_5x5_reduce <- inception_5a/5x5_reduce
I0105 11:56:06.793395 31115 net.cpp:327] inception_5a/relu_5x5_reduce -> inception_5a/5x5_reduce (in-place)
I0105 11:56:06.793404 31115 net.cpp:113] Setting up inception_5a/relu_5x5_reduce
I0105 11:56:06.793707 31115 net.cpp:120] Top shape: 50 32 7 7 (78400)
I0105 11:56:06.793721 31115 layer_factory.hpp:74] Creating layer inception_5a/5x5
I0105 11:56:06.793735 31115 net.cpp:84] Creating Layer inception_5a/5x5
I0105 11:56:06.793743 31115 net.cpp:380] inception_5a/5x5 <- inception_5a/5x5_reduce
I0105 11:56:06.793756 31115 net.cpp:338] inception_5a/5x5 -> inception_5a/5x5
I0105 11:56:06.793767 31115 net.cpp:113] Setting up inception_5a/5x5
I0105 11:56:06.795495 31115 net.cpp:120] Top shape: 50 128 7 7 (313600)
I0105 11:56:06.795514 31115 layer_factory.hpp:74] Creating layer inception_5a/relu_5x5
I0105 11:56:06.795526 31115 net.cpp:84] Creating Layer inception_5a/relu_5x5
I0105 11:56:06.795534 31115 net.cpp:380] inception_5a/relu_5x5 <- inception_5a/5x5
I0105 11:56:06.795543 31115 net.cpp:327] inception_5a/relu_5x5 -> inception_5a/5x5 (in-place)
I0105 11:56:06.795553 31115 net.cpp:113] Setting up inception_5a/relu_5x5
I0105 11:56:06.795646 31115 net.cpp:120] Top shape: 50 128 7 7 (313600)
I0105 11:56:06.795655 31115 layer_factory.hpp:74] Creating layer inception_5a/pool
I0105 11:56:06.795663 31115 layer_factory.cpp:56] CUDNN does not support padding or multiple tops. Using Caffe's own pooling layer.
I0105 11:56:06.795672 31115 net.cpp:84] Creating Layer inception_5a/pool
I0105 11:56:06.795689 31115 net.cpp:380] inception_5a/pool <- pool4/3x3_s2_pool4/3x3_s2_0_split_3
I0105 11:56:06.795714 31115 net.cpp:338] inception_5a/pool -> inception_5a/pool
I0105 11:56:06.795725 31115 net.cpp:113] Setting up inception_5a/pool
I0105 11:56:06.795738 31115 net.cpp:120] Top shape: 50 832 7 7 (2038400)
I0105 11:56:06.795745 31115 layer_factory.hpp:74] Creating layer inception_5a/pool_proj
I0105 11:56:06.795756 31115 net.cpp:84] Creating Layer inception_5a/pool_proj
I0105 11:56:06.795763 31115 net.cpp:380] inception_5a/pool_proj <- inception_5a/pool
I0105 11:56:06.795775 31115 net.cpp:338] inception_5a/pool_proj -> inception_5a/pool_proj
I0105 11:56:06.795785 31115 net.cpp:113] Setting up inception_5a/pool_proj
I0105 11:56:06.800560 31115 net.cpp:120] Top shape: 50 128 7 7 (313600)
I0105 11:56:06.800581 31115 layer_factory.hpp:74] Creating layer inception_5a/relu_pool_proj
I0105 11:56:06.800593 31115 net.cpp:84] Creating Layer inception_5a/relu_pool_proj
I0105 11:56:06.800601 31115 net.cpp:380] inception_5a/relu_pool_proj <- inception_5a/pool_proj
I0105 11:56:06.800611 31115 net.cpp:327] inception_5a/relu_pool_proj -> inception_5a/pool_proj (in-place)
I0105 11:56:06.800621 31115 net.cpp:113] Setting up inception_5a/relu_pool_proj
I0105 11:56:06.800712 31115 net.cpp:120] Top shape: 50 128 7 7 (313600)
I0105 11:56:06.800721 31115 layer_factory.hpp:74] Creating layer inception_5a/output
I0105 11:56:06.800732 31115 net.cpp:84] Creating Layer inception_5a/output
I0105 11:56:06.800740 31115 net.cpp:380] inception_5a/output <- inception_5a/1x1
I0105 11:56:06.800748 31115 net.cpp:380] inception_5a/output <- inception_5a/3x3
I0105 11:56:06.800756 31115 net.cpp:380] inception_5a/output <- inception_5a/5x5
I0105 11:56:06.800763 31115 net.cpp:380] inception_5a/output <- inception_5a/pool_proj
I0105 11:56:06.800772 31115 net.cpp:338] inception_5a/output -> inception_5a/output
I0105 11:56:06.800782 31115 net.cpp:113] Setting up inception_5a/output
I0105 11:56:06.800793 31115 net.cpp:120] Top shape: 50 832 7 7 (2038400)
I0105 11:56:06.800801 31115 layer_factory.hpp:74] Creating layer inception_5a/output_inception_5a/output_0_split
I0105 11:56:06.800813 31115 net.cpp:84] Creating Layer inception_5a/output_inception_5a/output_0_split
I0105 11:56:06.800820 31115 net.cpp:380] inception_5a/output_inception_5a/output_0_split <- inception_5a/output
I0105 11:56:06.800829 31115 net.cpp:338] inception_5a/output_inception_5a/output_0_split -> inception_5a/output_inception_5a/output_0_split_0
I0105 11:56:06.800839 31115 net.cpp:338] inception_5a/output_inception_5a/output_0_split -> inception_5a/output_inception_5a/output_0_split_1
I0105 11:56:06.800850 31115 net.cpp:338] inception_5a/output_inception_5a/output_0_split -> inception_5a/output_inception_5a/output_0_split_2
I0105 11:56:06.800860 31115 net.cpp:338] inception_5a/output_inception_5a/output_0_split -> inception_5a/output_inception_5a/output_0_split_3
I0105 11:56:06.800868 31115 net.cpp:113] Setting up inception_5a/output_inception_5a/output_0_split
I0105 11:56:06.800879 31115 net.cpp:120] Top shape: 50 832 7 7 (2038400)
I0105 11:56:06.800887 31115 net.cpp:120] Top shape: 50 832 7 7 (2038400)
I0105 11:56:06.800895 31115 net.cpp:120] Top shape: 50 832 7 7 (2038400)
I0105 11:56:06.800904 31115 net.cpp:120] Top shape: 50 832 7 7 (2038400)
I0105 11:56:06.800909 31115 layer_factory.hpp:74] Creating layer inception_5b/1x1
I0105 11:56:06.800922 31115 net.cpp:84] Creating Layer inception_5b/1x1
I0105 11:56:06.800930 31115 net.cpp:380] inception_5b/1x1 <- inception_5a/output_inception_5a/output_0_split_0
I0105 11:56:06.800941 31115 net.cpp:338] inception_5b/1x1 -> inception_5b/1x1
I0105 11:56:06.800951 31115 net.cpp:113] Setting up inception_5b/1x1
I0105 11:56:06.805428 31115 net.cpp:120] Top shape: 50 384 7 7 (940800)
I0105 11:56:06.805490 31115 layer_factory.hpp:74] Creating layer inception_5b/relu_1x1
I0105 11:56:06.805507 31115 net.cpp:84] Creating Layer inception_5b/relu_1x1
I0105 11:56:06.805519 31115 net.cpp:380] inception_5b/relu_1x1 <- inception_5b/1x1
I0105 11:56:06.805546 31115 net.cpp:327] inception_5b/relu_1x1 -> inception_5b/1x1 (in-place)
I0105 11:56:06.805577 31115 net.cpp:113] Setting up inception_5b/relu_1x1
I0105 11:56:06.805676 31115 net.cpp:120] Top shape: 50 384 7 7 (940800)
I0105 11:56:06.805685 31115 layer_factory.hpp:74] Creating layer inception_5b/3x3_reduce
I0105 11:56:06.805703 31115 net.cpp:84] Creating Layer inception_5b/3x3_reduce
I0105 11:56:06.805711 31115 net.cpp:380] inception_5b/3x3_reduce <- inception_5a/output_inception_5a/output_0_split_1
I0105 11:56:06.805723 31115 net.cpp:338] inception_5b/3x3_reduce -> inception_5b/3x3_reduce
I0105 11:56:06.805737 31115 net.cpp:113] Setting up inception_5b/3x3_reduce
I0105 11:56:06.808323 31115 net.cpp:120] Top shape: 50 192 7 7 (470400)
I0105 11:56:06.808344 31115 layer_factory.hpp:74] Creating layer inception_5b/relu_3x3_reduce
I0105 11:56:06.808358 31115 net.cpp:84] Creating Layer inception_5b/relu_3x3_reduce
I0105 11:56:06.808367 31115 net.cpp:380] inception_5b/relu_3x3_reduce <- inception_5b/3x3_reduce
I0105 11:56:06.808377 31115 net.cpp:327] inception_5b/relu_3x3_reduce -> inception_5b/3x3_reduce (in-place)
I0105 11:56:06.808387 31115 net.cpp:113] Setting up inception_5b/relu_3x3_reduce
I0105 11:56:06.808687 31115 net.cpp:120] Top shape: 50 192 7 7 (470400)
I0105 11:56:06.808703 31115 layer_factory.hpp:74] Creating layer inception_5b/3x3
I0105 11:56:06.808720 31115 net.cpp:84] Creating Layer inception_5b/3x3
I0105 11:56:06.808728 31115 net.cpp:380] inception_5b/3x3 <- inception_5b/3x3_reduce
I0105 11:56:06.808738 31115 net.cpp:338] inception_5b/3x3 -> inception_5b/3x3
I0105 11:56:06.808749 31115 net.cpp:113] Setting up inception_5b/3x3
I0105 11:56:06.817638 31115 net.cpp:120] Top shape: 50 384 7 7 (940800)
I0105 11:56:06.817662 31115 layer_factory.hpp:74] Creating layer inception_5b/relu_3x3
I0105 11:56:06.817677 31115 net.cpp:84] Creating Layer inception_5b/relu_3x3
I0105 11:56:06.817684 31115 net.cpp:380] inception_5b/relu_3x3 <- inception_5b/3x3
I0105 11:56:06.817693 31115 net.cpp:327] inception_5b/relu_3x3 -> inception_5b/3x3 (in-place)
I0105 11:56:06.817706 31115 net.cpp:113] Setting up inception_5b/relu_3x3
I0105 11:56:06.817801 31115 net.cpp:120] Top shape: 50 384 7 7 (940800)
I0105 11:56:06.817811 31115 layer_factory.hpp:74] Creating layer inception_5b/5x5_reduce
I0105 11:56:06.817827 31115 net.cpp:84] Creating Layer inception_5b/5x5_reduce
I0105 11:56:06.817834 31115 net.cpp:380] inception_5b/5x5_reduce <- inception_5a/output_inception_5a/output_0_split_2
I0105 11:56:06.817845 31115 net.cpp:338] inception_5b/5x5_reduce -> inception_5b/5x5_reduce
I0105 11:56:06.817857 31115 net.cpp:113] Setting up inception_5b/5x5_reduce
I0105 11:56:06.818859 31115 net.cpp:120] Top shape: 50 48 7 7 (117600)
I0105 11:56:06.818883 31115 layer_factory.hpp:74] Creating layer inception_5b/relu_5x5_reduce
I0105 11:56:06.818894 31115 net.cpp:84] Creating Layer inception_5b/relu_5x5_reduce
I0105 11:56:06.818902 31115 net.cpp:380] inception_5b/relu_5x5_reduce <- inception_5b/5x5_reduce
I0105 11:56:06.818912 31115 net.cpp:327] inception_5b/relu_5x5_reduce -> inception_5b/5x5_reduce (in-place)
I0105 11:56:06.818924 31115 net.cpp:113] Setting up inception_5b/relu_5x5_reduce
I0105 11:56:06.819017 31115 net.cpp:120] Top shape: 50 48 7 7 (117600)
I0105 11:56:06.819027 31115 layer_factory.hpp:74] Creating layer inception_5b/5x5
I0105 11:56:06.819041 31115 net.cpp:84] Creating Layer inception_5b/5x5
I0105 11:56:06.819048 31115 net.cpp:380] inception_5b/5x5 <- inception_5b/5x5_reduce
I0105 11:56:06.819059 31115 net.cpp:338] inception_5b/5x5 -> inception_5b/5x5
I0105 11:56:06.819072 31115 net.cpp:113] Setting up inception_5b/5x5
I0105 11:56:06.821426 31115 net.cpp:120] Top shape: 50 128 7 7 (313600)
I0105 11:56:06.821447 31115 layer_factory.hpp:74] Creating layer inception_5b/relu_5x5
I0105 11:56:06.821457 31115 net.cpp:84] Creating Layer inception_5b/relu_5x5
I0105 11:56:06.821465 31115 net.cpp:380] inception_5b/relu_5x5 <- inception_5b/5x5
I0105 11:56:06.821476 31115 net.cpp:327] inception_5b/relu_5x5 -> inception_5b/5x5 (in-place)
I0105 11:56:06.821493 31115 net.cpp:113] Setting up inception_5b/relu_5x5
I0105 11:56:06.821797 31115 net.cpp:120] Top shape: 50 128 7 7 (313600)
I0105 11:56:06.821811 31115 layer_factory.hpp:74] Creating layer inception_5b/pool
I0105 11:56:06.821820 31115 layer_factory.cpp:56] CUDNN does not support padding or multiple tops. Using Caffe's own pooling layer.
I0105 11:56:06.821832 31115 net.cpp:84] Creating Layer inception_5b/pool
I0105 11:56:06.821841 31115 net.cpp:380] inception_5b/pool <- inception_5a/output_inception_5a/output_0_split_3
I0105 11:56:06.821852 31115 net.cpp:338] inception_5b/pool -> inception_5b/pool
I0105 11:56:06.821863 31115 net.cpp:113] Setting up inception_5b/pool
I0105 11:56:06.821877 31115 net.cpp:120] Top shape: 50 832 7 7 (2038400)
I0105 11:56:06.821883 31115 layer_factory.hpp:74] Creating layer inception_5b/pool_proj
I0105 11:56:06.821895 31115 net.cpp:84] Creating Layer inception_5b/pool_proj
I0105 11:56:06.821939 31115 net.cpp:380] inception_5b/pool_proj <- inception_5b/pool
I0105 11:56:06.821962 31115 net.cpp:338] inception_5b/pool_proj -> inception_5b/pool_proj
I0105 11:56:06.821975 31115 net.cpp:113] Setting up inception_5b/pool_proj
I0105 11:56:06.823818 31115 net.cpp:120] Top shape: 50 128 7 7 (313600)
I0105 11:56:06.823839 31115 layer_factory.hpp:74] Creating layer inception_5b/relu_pool_proj
I0105 11:56:06.823853 31115 net.cpp:84] Creating Layer inception_5b/relu_pool_proj
I0105 11:56:06.823859 31115 net.cpp:380] inception_5b/relu_pool_proj <- inception_5b/pool_proj
I0105 11:56:06.823868 31115 net.cpp:327] inception_5b/relu_pool_proj -> inception_5b/pool_proj (in-place)
I0105 11:56:06.823878 31115 net.cpp:113] Setting up inception_5b/relu_pool_proj
I0105 11:56:06.823966 31115 net.cpp:120] Top shape: 50 128 7 7 (313600)
I0105 11:56:06.823976 31115 layer_factory.hpp:74] Creating layer inception_5b/output
I0105 11:56:06.823986 31115 net.cpp:84] Creating Layer inception_5b/output
I0105 11:56:06.823992 31115 net.cpp:380] inception_5b/output <- inception_5b/1x1
I0105 11:56:06.824000 31115 net.cpp:380] inception_5b/output <- inception_5b/3x3
I0105 11:56:06.824007 31115 net.cpp:380] inception_5b/output <- inception_5b/5x5
I0105 11:56:06.824014 31115 net.cpp:380] inception_5b/output <- inception_5b/pool_proj
I0105 11:56:06.824023 31115 net.cpp:338] inception_5b/output -> inception_5b/output
I0105 11:56:06.824031 31115 net.cpp:113] Setting up inception_5b/output
I0105 11:56:06.824043 31115 net.cpp:120] Top shape: 50 1024 7 7 (2508800)
I0105 11:56:06.824048 31115 layer_factory.hpp:74] Creating layer pool5/7x7_s1
I0105 11:56:06.824059 31115 net.cpp:84] Creating Layer pool5/7x7_s1
I0105 11:56:06.824065 31115 net.cpp:380] pool5/7x7_s1 <- inception_5b/output
I0105 11:56:06.824077 31115 net.cpp:338] pool5/7x7_s1 -> pool5/7x7_s1
I0105 11:56:06.824087 31115 net.cpp:113] Setting up pool5/7x7_s1
I0105 11:56:06.824182 31115 net.cpp:120] Top shape: 50 1024 1 1 (51200)
I0105 11:56:06.824190 31115 layer_factory.hpp:74] Creating layer pool5/drop_7x7_s1
I0105 11:56:06.824200 31115 net.cpp:84] Creating Layer pool5/drop_7x7_s1
I0105 11:56:06.824208 31115 net.cpp:380] pool5/drop_7x7_s1 <- pool5/7x7_s1
I0105 11:56:06.824215 31115 net.cpp:327] pool5/drop_7x7_s1 -> pool5/7x7_s1 (in-place)
I0105 11:56:06.824224 31115 net.cpp:113] Setting up pool5/drop_7x7_s1
I0105 11:56:06.824234 31115 net.cpp:120] Top shape: 50 1024 1 1 (51200)
I0105 11:56:06.824240 31115 layer_factory.hpp:74] Creating layer loss3/classifier_kaggle
I0105 11:56:06.824254 31115 net.cpp:84] Creating Layer loss3/classifier_kaggle
I0105 11:56:06.824259 31115 net.cpp:380] loss3/classifier_kaggle <- pool5/7x7_s1
I0105 11:56:06.824276 31115 net.cpp:338] loss3/classifier_kaggle -> loss3/classifier_kaggle
I0105 11:56:06.824288 31115 net.cpp:113] Setting up loss3/classifier_kaggle
I0105 11:56:06.829813 31115 net.cpp:120] Top shape: 50 447 (22350)
I0105 11:56:06.829831 31115 layer_factory.hpp:74] Creating layer loss3/classifier_kaggle_loss3/classifier_kaggle_0_split
I0105 11:56:06.829843 31115 net.cpp:84] Creating Layer loss3/classifier_kaggle_loss3/classifier_kaggle_0_split
I0105 11:56:06.829855 31115 net.cpp:380] loss3/classifier_kaggle_loss3/classifier_kaggle_0_split <- loss3/classifier_kaggle
I0105 11:56:06.829877 31115 net.cpp:338] loss3/classifier_kaggle_loss3/classifier_kaggle_0_split -> loss3/classifier_kaggle_loss3/classifier_kaggle_0_split_0
I0105 11:56:06.829888 31115 net.cpp:338] loss3/classifier_kaggle_loss3/classifier_kaggle_0_split -> loss3/classifier_kaggle_loss3/classifier_kaggle_0_split_1
I0105 11:56:06.829898 31115 net.cpp:338] loss3/classifier_kaggle_loss3/classifier_kaggle_0_split -> loss3/classifier_kaggle_loss3/classifier_kaggle_0_split_2
I0105 11:56:06.829907 31115 net.cpp:113] Setting up loss3/classifier_kaggle_loss3/classifier_kaggle_0_split
I0105 11:56:06.829917 31115 net.cpp:120] Top shape: 50 447 (22350)
I0105 11:56:06.829924 31115 net.cpp:120] Top shape: 50 447 (22350)
I0105 11:56:06.829931 31115 net.cpp:120] Top shape: 50 447 (22350)
I0105 11:56:06.829936 31115 layer_factory.hpp:74] Creating layer loss3/loss3
I0105 11:56:06.829948 31115 net.cpp:84] Creating Layer loss3/loss3
I0105 11:56:06.829954 31115 net.cpp:380] loss3/loss3 <- loss3/classifier_kaggle_loss3/classifier_kaggle_0_split_0
I0105 11:56:06.829963 31115 net.cpp:380] loss3/loss3 <- label_data_1_split_6
I0105 11:56:06.829973 31115 net.cpp:338] loss3/loss3 -> loss3/loss3
…
