…
I1230 19:25:17.179592 32546 net.cpp:257] The NetState phase (0) differed from the phase (1) specified by a rule in layer loss3/top-5
I1230 19:25:17.181890 32546 net.cpp:42] Initializing net from parameters: 
name: "MYNET"
state {
  phase: TRAIN
}
layer {
  name: "data"
  type: "ImageData"
  top: "data"
  top: "label"
  include {
    phase: TRAIN
  }
  transform_param {
    mirror: false
    crop_size: 224
    mean_value: 129
    mean_value: 129
    mean_value: 129
  }
  image_data_param {
    source: "/home/coldmanck/kaggle/label_train_full_resize.txt"
    batch_size: 80
    shuffle: true
  }
}
layer {
  name: "conv1/7x7_s2"
  type: "Convolution"
  bottom: "data"
  top: "conv1/7x7_s2"
  param {
    lr_mult: 1
    decay_mult: 1
  }
  param {
    lr_mult: 2
    decay_mult: 0
  }
  convolution_param {
    num_output: 64
    pad: 3
    kernel_size: 7
    stride: 2
    weight_filler {
      type: "xavier"
    }
    bias_filler {
      type: "constant"
      value: 0.2
    }
  }
}
layer {
  name: "conv1/relu_7x7"
  type: "ReLU"
  bottom: "conv1/7x7_s2"
  top: "conv1/7x7_s2"
}
layer {
  name: "pool1/3x3_s2"
  type: "Pooling"
  bottom: "conv1/7x7_s2"
  top: "pool1/3x3_s2"
  pooling_param {
    pool: MAX
    kernel_size: 3
    stride: 2
  }
}
layer {
  name: "pool1/norm1"
  type: "LRN"
  bottom: "pool1/3x3_s2"
  top: "pool1/norm1"
  lrn_param {
    local_size: 5
    alpha: 0.0001
    beta: 0.75
  }
}
layer {
  name: "conv2/3x3_reduce"
  type: "Convolution"
  bottom: "pool1/norm1"
  top: "conv2/3x3_reduce"
  param {
    lr_mult: 1
    decay_mult: 1
  }
  param {
    lr_mult: 2
    decay_mult: 0
  }
  convolution_param {
    num_output: 64
    kernel_size: 1
    weight_filler {
      type: "xavier"
    }
    bias_filler {
      type: "constant"
      value: 0.2
    }
  }
}
layer {
  name: "conv2/relu_3x3_reduce"
  type: "ReLU"
  bottom: "conv2/3x3_reduce"
  top: "conv2/3x3_reduce"
}
layer {
  name: "conv2/3x3"
  type: "Convolution"
  bottom: "conv2/3x3_reduce"
  top: "conv2/3x3"
  param {
    lr_mult: 1
    decay_mult: 1
  }
  param {
    lr_mult: 2
    decay_mult: 0
  }
  convolution_param {
    num_output: 192
    pad: 1
    kernel_size: 3
    weight_filler {
      type: "xavier"
    }
    bias_filler {
      type: "constant"
      value: 0.2
    }
  }
}
layer {
  name: "conv2/relu_3x3"
  type: "ReLU"
  bottom: "conv2/3x3"
  top: "conv2/3x3"
}
layer {
  name: "conv2/norm2"
  type: "LRN"
  bottom: "conv2/3x3"
  top: "conv2/norm2"
  lrn_param {
    local_size: 5
    alpha: 0.0001
    beta: 0.75
  }
}
layer {
  name: "pool2/3x3_s2"
  type: "Pooling"
  bottom: "conv2/norm2"
  top: "pool2/3x3_s2"
  pooling_param {
    pool: MAX
    kernel_size: 3
    stride: 2
  }
}
layer {
  name: "inception_3a/1x1"
  type: "Convolution"
  bottom: "pool2/3x3_s2"
  top: "inception_3a/1x1"
  param {
    lr_mult: 1
    decay_mult: 1
  }
  param {
    lr_mult: 2
    decay_mult: 0
  }
  convolution_param {
    num_output: 64
    kernel_size: 1
    weight_filler {
      type: "xavier"
    }
    bias_filler {
      type: "constant"
      value: 0.2
    }
  }
}
layer {
  name: "inception_3a/relu_1x1"
  type: "ReLU"
  bottom: "inception_3a/1x1"
  top: "inception_3a/1x1"
}
layer {
  name: "inception_3a/3x3_reduce"
  type: "Convolution"
  bottom: "pool2/3x3_s2"
  top: "inception_3a/3x3_reduce"
  param {
    lr_mult: 1
    decay_mult: 1
  }
  param {
    lr_mult: 2
    decay_mult: 0
  }
  convolution_param {
    num_output: 96
    kernel_size: 1
    weight_filler {
      type: "xavier"
    }
    bias_filler {
      type: "constant"
      value: 0.2
    }
  }
}
layer {
  name: "inception_3a/relu_3x3_reduce"
  type: "ReLU"
  bottom: "inception_3a/3x3_reduce"
  top: "inception_3a/3x3_reduce"
}
layer {
  name: "inception_3a/3x3"
  type: "Convolution"
  bottom: "inception_3a/3x3_reduce"
  top: "inception_3a/3x3"
  param {
    lr_mult: 1
    decay_mult: 1
  }
  param {
    lr_mult: 2
    decay_mult: 0
  }
  convolution_param {
    num_output: 128
    pad: 1
    kernel_size: 3
    weight_filler {
      type: "xavier"
    }
    bias_filler {
      type: "constant"
      value: 0.2
    }
  }
}
layer {
  name: "inception_3a/relu_3x3"
  type: "ReLU"
  bottom: "inception_3a/3x3"
  top: "inception_3a/3x3"
}
layer {
  name: "inception_3a/5x5_reduce"
  type: "Convolution"
  bottom: "pool2/3x3_s2"
  top: "inception_3a/5x5_reduce"
  param {
    lr_mult: 1
    decay_mult: 1
  }
  param {
    lr_mult: 2
    decay_mult: 0
  }
  convolution_param {
    num_output: 16
    kernel_size: 1
    weight_filler {
      type: "xavier"
    }
    bias_filler {
      type: "constant"
      value: 0.2
    }
  }
}
layer {
  name: "inception_3a/relu_5x5_reduce"
  type: "ReLU"
  bottom: "inception_3a/5x5_reduce"
  top: "inception_3a/5x5_reduce"
}
layer {
  name: "inception_3a/5x5"
  type: "Convolution"
  bottom: "inception_3a/5x5_reduce"
  top: "inception_3a/5x5"
  param {
    lr_mult: 1
    decay_mult: 1
  }
  param {
    lr_mult: 2
    decay_mult: 0
  }
  convolution_param {
    num_output: 32
    pad: 2
    kernel_size: 5
    weight_filler {
      type: "xavier"
    }
    bias_filler {
      type: "constant"
      value: 0.2
    }
  }
}
layer {
  name: "inception_3a/relu_5x5"
  type: "ReLU"
  bottom: "inception_3a/5x5"
  top: "inception_3a/5x5"
}
layer {
  name: "inception_3a/pool"
  type: "Pooling"
  bottom: "pool2/3x3_s2"
  top: "inception_3a/pool"
  pooling_param {
    pool: MAX
    kernel_size: 3
    stride: 1
    pad: 1
  }
}
layer {
  name: "inception_3a/pool_proj"
  type: "Convolution"
  bottom: "inception_3a/pool"
  top: "inception_3a/pool_proj"
  param {
    lr_mult: 1
    decay_mult: 1
  }
  param {
    lr_mult: 2
    decay_mult: 0
  }
  convolution_param {
    num_output: 32
    kernel_size: 1
    weight_filler {
      type: "xavier"
    }
    bias_filler {
      type: "constant"
      value: 0.2
    }
  }
}
layer {
  name: "inception_3a/relu_pool_proj"
  type: "ReLU"
  bottom: "inception_3a/pool_proj"
  top: "inception_3a/pool_proj"
}
layer {
  name: "inception_3a/output"
  type: "Concat"
  bottom: "inception_3a/1x1"
  bottom: "inception_3a/3x3"
  bottom: "inception_3a/5x5"
  bottom: "inception_3a/pool_proj"
  top: "inception_3a/output"
}
layer {
  name: "inception_3b/1x1"
  type: "Convolution"
  bottom: "inception_3a/output"
  top: "inception_3b/1x1"
  param {
    lr_mult: 1
    decay_mult: 1
  }
  param {
    lr_mult: 2
    decay_mult: 0
  }
  convolution_param {
    num_output: 128
    kernel_size: 1
    weight_filler {
      type: "xavier"
    }
    bias_filler {
      type: "constant"
      value: 0.2
    }
  }
}
layer {
  name: "inception_3b/relu_1x1"
  type: "ReLU"
  bottom: "inception_3b/1x1"
  top: "inception_3b/1x1"
}
layer {
  name: "inception_3b/3x3_reduce"
  type: "Convolution"
  bottom: "inception_3a/output"
  top: "inception_3b/3x3_reduce"
  param {
    lr_mult: 1
    decay_mult: 1
  }
  param {
    lr_mult: 2
    decay_mult: 0
  }
  convolution_param {
    num_output: 128
    kernel_size: 1
    weight_filler {
      type: "xavier"
    }
    bias_filler {
      type: "constant"
      value: 0.2
    }
  }
}
layer {
  name: "inception_3b/relu_3x3_reduce"
  type: "ReLU"
  bottom: "inception_3b/3x3_reduce"
  top: "inception_3b/3x3_reduce"
}
layer {
  name: "inception_3b/3x3"
  type: "Convolution"
  bottom: "inception_3b/3x3_reduce"
  top: "inception_3b/3x3"
  param {
    lr_mult: 1
    decay_mult: 1
  }
  param {
    lr_mult: 2
    decay_mult: 0
  }
  convolution_param {
    num_output: 192
    pad: 1
    kernel_size: 3
    weight_filler {
      type: "xavier"
    }
    bias_filler {
      type: "constant"
      value: 0.2
    }
  }
}
layer {
  name: "inception_3b/relu_3x3"
  type: "ReLU"
  bottom: "inception_3b/3x3"
  top: "inception_3b/3x3"
}
layer {
  name: "inception_3b/5x5_reduce"
  type: "Convolution"
  bottom: "inception_3a/output"
  top: "inception_3b/5x5_reduce"
  param {
    lr_mult: 1
    decay_mult: 1
  }
  param {
    lr_mult: 2
    decay_mult: 0
  }
  convolution_param {
    num_output: 32
    kernel_size: 1
    weight_filler {
      type: "xavier"
    }
    bias_filler {
      type: "constant"
      value: 0.2
    }
  }
}
layer {
  name: "inception_3b/relu_5x5_reduce"
  type: "ReLU"
  bottom: "inception_3b/5x5_reduce"
  top: "inception_3b/5x5_reduce"
}
layer {
  name: "inception_3b/5x5"
  type: "Convolution"
  bottom: "inception_3b/5x5_reduce"
  top: "inception_3b/5x5"
  param {
    lr_mult: 1
    decay_mult: 1
  }
  param {
    lr_mult: 2
    decay_mult: 0
  }
  convolution_param {
    num_output: 96
    pad: 2
    kernel_size: 5
    weight_filler {
      type: "xavier"
    }
    bias_filler {
      type: "constant"
      value: 0.2
    }
  }
}
layer {
  name: "inception_3b/relu_5x5"
  type: "ReLU"
  bottom: "inception_3b/5x5"
  top: "inception_3b/5x5"
}
layer {
  name: "inception_3b/pool"
  type: "Pooling"
  bottom: "inception_3a/output"
  top: "inception_3b/pool"
  pooling_param {
    pool: MAX
    kernel_size: 3
    stride: 1
    pad: 1
  }
}
layer {
  name: "inception_3b/pool_proj"
  type: "Convolution"
  bottom: "inception_3b/pool"
  top: "inception_3b/pool_proj"
  param {
    lr_mult: 1
    decay_mult: 1
  }
  param {
    lr_mult: 2
    decay_mult: 0
  }
  convolution_param {
    num_output: 64
    kernel_size: 1
    weight_filler {
      type: "xavier"
    }
    bias_filler {
      type: "constant"
      value: 0.2
    }
  }
}
layer {
  name: "inception_3b/relu_pool_proj"
  type: "ReLU"
  bottom: "inception_3b/pool_proj"
  top: "inception_3b/pool_proj"
}
layer {
  name: "inception_3b/output"
  type: "Concat"
  bottom: "inception_3b/1x1"
  bottom: "inception_3b/3x3"
  bottom: "inception_3b/5x5"
  bottom: "inception_3b/pool_proj"
  top: "inception_3b/output"
}
layer {
  name: "pool3/3x3_s2"
  type: "Pooling"
  bottom: "inception_3b/output"
  top: "pool3/3x3_s2"
  pooling_param {
    pool: MAX
    kernel_size: 3
    stride: 2
  }
}
layer {
  name: "inception_4a/1x1"
  type: "Convolution"
  bottom: "pool3/3x3_s2"
  top: "inception_4a/1x1"
  param {
    lr_mult: 1
    decay_mult: 1
  }
  param {
    lr_mult: 2
    decay_mult: 0
  }
  convolution_param {
    num_output: 192
    kernel_size: 1
    weight_filler {
      type: "xavier"
    }
    bias_filler {
      type: "constant"
      value: 0.2
    }
  }
}
layer {
  name: "inception_4a/relu_1x1"
  type: "ReLU"
  bottom: "inception_4a/1x1"
  top: "inception_4a/1x1"
}
layer {
  name: "inception_4a/3x3_reduce"
  type: "Convolution"
  bottom: "pool3/3x3_s2"
  top: "inception_4a/3x3_reduce"
  param {
    lr_mult: 1
    decay_mult: 1
  }
  param {
    lr_mult: 2
    decay_mult: 0
  }
  convolution_param {
    num_output: 96
    kernel_size: 1
    weight_filler {
      type: "xavier"
    }
    bias_filler {
      type: "constant"
      value: 0.2
    }
  }
}
layer {
  name: "inception_4a/relu_3x3_reduce"
  type: "ReLU"
  bottom: "inception_4a/3x3_reduce"
  top: "inception_4a/3x3_reduce"
}
layer {
  name: "inception_4a/3x3"
  type: "Convolution"
  bottom: "inception_4a/3x3_reduce"
  top: "inception_4a/3x3"
  param {
    lr_mult: 1
    decay_mult: 1
  }
  param {
    lr_mult: 2
    decay_mult: 0
  }
  convolution_param {
    num_output: 208
    pad: 1
    kernel_size: 3
    weight_filler {
      type: "xavier"
    }
    bias_filler {
      type: "constant"
      value: 0.2
    }
  }
}
layer {
  name: "inception_4a/relu_3x3"
  type: "ReLU"
  bottom: "inception_4a/3x3"
  top: "inception_4a/3x3"
}
layer {
  name: "inception_4a/5x5_reduce"
  type: "Convolution"
  bottom: "pool3/3x3_s2"
  top: "inception_4a/5x5_reduce"
  param {
    lr_mult: 1
    decay_mult: 1
  }
  param {
    lr_mult: 2
    decay_mult: 0
  }
  convolution_param {
    num_output: 16
    kernel_size: 1
    weight_filler {
      type: "xavier"
    }
    bias_filler {
      type: "constant"
      value: 0.2
    }
  }
}
layer {
  name: "inception_4a/relu_5x5_reduce"
  type: "ReLU"
  bottom: "inception_4a/5x5_reduce"
  top: "inception_4a/5x5_reduce"
}
layer {
  name: "inception_4a/5x5"
  type: "Convolution"
  bottom: "inception_4a/5x5_reduce"
  top: "inception_4a/5x5"
  param {
    lr_mult: 1
    decay_mult: 1
  }
  param {
    lr_mult: 2
    decay_mult: 0
  }
  convolution_param {
    num_output: 48
    pad: 2
    kernel_size: 5
    weight_filler {
      type: "xavier"
    }
    bias_filler {
      type: "constant"
      value: 0.2
    }
  }
}
layer {
  name: "inception_4a/relu_5x5"
  type: "ReLU"
  bottom: "inception_4a/5x5"
  top: "inception_4a/5x5"
}
layer {
  name: "inception_4a/pool"
  type: "Pooling"
  bottom: "pool3/3x3_s2"
  top: "inception_4a/pool"
  pooling_param {
    pool: MAX
    kernel_size: 3
    stride: 1
    pad: 1
  }
}
layer {
  name: "inception_4a/pool_proj"
  type: "Convolution"
  bottom: "inception_4a/pool"
  top: "inception_4a/pool_proj"
  param {
    lr_mult: 1
    decay_mult: 1
  }
  param {
    lr_mult: 2
    decay_mult: 0
  }
  convolution_param {
    num_output: 64
    kernel_size: 1
    weight_filler {
      type: "xavier"
    }
    bias_filler {
      type: "constant"
      value: 0.2
    }
  }
}
layer {
  name: "inception_4a/relu_pool_proj"
  type: "ReLU"
  bottom: "inception_4a/pool_proj"
  top: "inception_4a/pool_proj"
}
layer {
  name: "inception_4a/output"
  type: "Concat"
  bottom: "inception_4a/1x1"
  bottom: "inception_4a/3x3"
  bottom: "inception_4a/5x5"
  bottom: "inception_4a/pool_proj"
  top: "inception_4a/output"
}
layer {
  name: "loss1/ave_pool"
  type: "Pooling"
  bottom: "inception_4a/output"
  top: "loss1/ave_pool"
  pooling_param {
    pool: AVE
    kernel_size: 5
    stride: 3
  }
}
layer {
  name: "loss1/conv"
  type: "Convolution"
  bottom: "loss1/ave_pool"
  top: "loss1/conv"
  param {
    lr_mult: 1
    decay_mult: 1
  }
  param {
    lr_mult: 2
    decay_mult: 0
  }
  convolution_param {
    num_output: 128
    kernel_size: 1
    weight_filler {
      type: "xavier"
    }
    bias_filler {
      type: "constant"
      value: 0.2
    }
  }
}
layer {
  name: "loss1/relu_conv"
  type: "ReLU"
  bottom: "loss1/conv"
  top: "loss1/conv"
}
layer {
  name: "loss1/fc"
  type: "InnerProduct"
  bottom: "loss1/conv"
  top: "loss1/fc"
  param {
    lr_mult: 1
    decay_mult: 1
  }
  param {
    lr_mult: 2
    decay_mult: 0
  }
  inner_product_param {
    num_output: 1024
    weight_filler {
      type: "xavier"
    }
    bias_filler {
      type: "constant"
      value: 0.2
    }
  }
}
layer {
  name: "loss1/relu_fc"
  type: "ReLU"
  bottom: "loss1/fc"
  top: "loss1/fc"
}
layer {
  name: "loss1/drop_fc"
  type: "Dropout"
  bottom: "loss1/fc"
  top: "loss1/fc"
  dropout_param {
    dropout_ratio: 0.7
  }
}
layer {
  name: "loss1/classifier_kaggle"
  type: "InnerProduct"
  bottom: "loss1/fc"
  top: "loss1/classifier_kaggle"
  param {
    lr_mult: 1
    decay_mult: 1
  }
  param {
    lr_mult: 2
    decay_mult: 0
  }
  inner_product_param {
    num_output: 447
    weight_filler {
      type: "xavier"
    }
    bias_filler {
      type: "constant"
      value: 0
    }
  }
}
layer {
  name: "loss1/loss"
  type: "SoftmaxWithLoss"
  bottom: "loss1/classifier_kaggle"
  bottom: "label"
  top: "loss1/loss1"
  loss_weight: 0.3
}
layer {
  name: "inception_4b/1x1"
  type: "Convolution"
  bottom: "inception_4a/output"
  top: "inception_4b/1x1"
  param {
    lr_mult: 1
    decay_mult: 1
  }
  param {
    lr_mult: 2
    decay_mult: 0
  }
  convolution_param {
    num_output: 160
    kernel_size: 1
    weight_filler {
      type: "xavier"
    }
    bias_filler {
      type: "constant"
      value: 0.2
    }
  }
}
layer {
  name: "inception_4b/relu_1x1"
  type: "ReLU"
  bottom: "inception_4b/1x1"
  top: "inception_4b/1x1"
}
layer {
  name: "inception_4b/3x3_reduce"
  type: "Convolution"
  bottom: "inception_4a/output"
  top: "inception_4b/3x3_reduce"
  param {
    lr_mult: 1
    decay_mult: 1
  }
  param {
    lr_mult: 2
    decay_mult: 0
  }
  convolution_param {
    num_output: 112
    kernel_size: 1
    weight_filler {
      type: "xavier"
    }
    bias_filler {
      type: "constant"
      value: 0.2
    }
  }
}
layer {
  name: "inception_4b/relu_3x3_reduce"
  type: "ReLU"
  bottom: "inception_4b/3x3_reduce"
  top: "inception_4b/3x3_reduce"
}
layer {
  name: "inception_4b/3x3"
  type: "Convolution"
  bottom: "inception_4b/3x3_reduce"
  top: "inception_4b/3x3"
  param {
    lr_mult: 1
    decay_mult: 1
  }
  param {
    lr_mult: 2
    decay_mult: 0
  }
  convolution_param {
    num_output: 224
    pad: 1
    kernel_size: 3
    weight_filler {
      type: "xavier"
    }
    bias_filler {
      type: "constant"
      value: 0.2
    }
  }
}
layer {
  name: "inception_4b/relu_3x3"
  type: "ReLU"
  bottom: "inception_4b/3x3"
  top: "inception_4b/3x3"
}
layer {
  name: "inception_4b/5x5_reduce"
  type: "Convolution"
  bottom: "inception_4a/output"
  top: "inception_4b/5x5_reduce"
  param {
    lr_mult: 1
    decay_mult: 1
  }
  param {
    lr_mult: 2
    decay_mult: 0
  }
  convolution_param {
    num_output: 24
    kernel_size: 1
    weight_filler {
      type: "xavier"
    }
    bias_filler {
      type: "constant"
      value: 0.2
    }
  }
}
layer {
  name: "inception_4b/relu_5x5_reduce"
  type: "ReLU"
  bottom: "inception_4b/5x5_reduce"
  top: "inception_4b/5x5_reduce"
}
layer {
  name: "inception_4b/5x5"
  type: "Convolution"
  bottom: "inception_4b/5x5_reduce"
  top: "inception_4b/5x5"
  param {
    lr_mult: 1
    decay_mult: 1
  }
  param {
    lr_mult: 2
    decay_mult: 0
  }
  convolution_param {
    num_output: 64
    pad: 2
    kernel_size: 5
    weight_filler {
      type: "xavier"
    }
    bias_filler {
      type: "constant"
      value: 0.2
    }
  }
}
layer {
  name: "inception_4b/relu_5x5"
  type: "ReLU"
  bottom: "inception_4b/5x5"
  top: "inception_4b/5x5"
}
layer {
  name: "inception_4b/pool"
  type: "Pooling"
  bottom: "inception_4a/output"
  top: "inception_4b/pool"
  pooling_param {
    pool: MAX
    kernel_size: 3
    stride: 1
    pad: 1
  }
}
layer {
  name: "inception_4b/pool_proj"
  type: "Convolution"
  bottom: "inception_4b/pool"
  top: "inception_4b/pool_proj"
  param {
    lr_mult: 1
    decay_mult: 1
  }
  param {
    lr_mult: 2
    decay_mult: 0
  }
  convolution_param {
    num_output: 64
    kernel_size: 1
    weight_filler {
      type: "xavier"
    }
    bias_filler {
      type: "constant"
      value: 0.2
    }
  }
}
layer {
  name: "inception_4b/relu_pool_proj"
  type: "ReLU"
  bottom: "inception_4b/pool_proj"
  top: "inception_4b/pool_proj"
}
layer {
  name: "inception_4b/output"
  type: "Concat"
  bottom: "inception_4b/1x1"
  bottom: "inception_4b/3x3"
  bottom: "inception_4b/5x5"
  bottom: "inception_4b/pool_proj"
  top: "inception_4b/output"
}
layer {
  name: "inception_4c/1x1"
  type: "Convolution"
  bottom: "inception_4b/output"
  top: "inception_4c/1x1"
  param {
    lr_mult: 1
    decay_mult: 1
  }
  param {
    lr_mult: 2
    decay_mult: 0
  }
  convolution_param {
    num_output: 128
    kernel_size: 1
    weight_filler {
      type: "xavier"
    }
    bias_filler {
      type: "constant"
      value: 0.2
    }
  }
}
layer {
  name: "inception_4c/relu_1x1"
  type: "ReLU"
  bottom: "inception_4c/1x1"
  top: "inception_4c/1x1"
}
layer {
  name: "inception_4c/3x3_reduce"
  type: "Convolution"
  bottom: "inception_4b/output"
  top: "inception_4c/3x3_reduce"
  param {
    lr_mult: 1
    decay_mult: 1
  }
  param {
    lr_mult: 2
    decay_mult: 0
  }
  convolution_param {
    num_output: 128
    kernel_size: 1
    weight_filler {
      type: "xavier"
    }
    bias_filler {
      type: "constant"
      value: 0.2
    }
  }
}
layer {
  name: "inception_4c/relu_3x3_reduce"
  type: "ReLU"
  bottom: "inception_4c/3x3_reduce"
  top: "inception_4c/3x3_reduce"
}
layer {
  name: "inception_4c/3x3"
  type: "Convolution"
  bottom: "inception_4c/3x3_reduce"
  top: "inception_4c/3x3"
  param {
    lr_mult: 1
    decay_mult: 1
  }
  param {
    lr_mult: 2
    decay_mult: 0
  }
  convolution_param {
    num_output: 256
    pad: 1
    kernel_size: 3
    weight_filler {
      type: "xavier"
    }
    bias_filler {
      type: "constant"
      value: 0.2
    }
  }
}
layer {
  name: "inception_4c/relu_3x3"
  type: "ReLU"
  bottom: "inception_4c/3x3"
  top: "inception_4c/3x3"
}
layer {
  name: "inception_4c/5x5_reduce"
  type: "Convolution"
  bottom: "inception_4b/output"
  top: "inception_4c/5x5_reduce"
  param {
    lr_mult: 1
    decay_mult: 1
  }
  param {
    lr_mult: 2
    decay_mult: 0
  }
  convolution_param {
    num_output: 24
    kernel_size: 1
    weight_filler {
      type: "xavier"
    }
    bias_filler {
      type: "constant"
      value: 0.2
    }
  }
}
layer {
  name: "inception_4c/relu_5x5_reduce"
  type: "ReLU"
  bottom: "inception_4c/5x5_reduce"
  top: "inception_4c/5x5_reduce"
}
layer {
  name: "inception_4c/5x5"
  type: "Convolution"
  bottom: "inception_4c/5x5_reduce"
  top: "inception_4c/5x5"
  param {
    lr_mult: 1
    decay_mult: 1
  }
  param {
    lr_mult: 2
    decay_mult: 0
  }
  convolution_param {
    num_output: 64
    pad: 2
    kernel_size: 5
    weight_filler {
      type: "xavier"
    }
    bias_filler {
      type: "constant"
      value: 0.2
    }
  }
}
layer {
  name: "inception_4c/relu_5x5"
  type: "ReLU"
  bottom: "inception_4c/5x5"
  top: "inception_4c/5x5"
}
layer {
  name: "inception_4c/pool"
  type: "Pooling"
  bottom: "inception_4b/output"
  top: "inception_4c/pool"
  pooling_param {
    pool: MAX
    kernel_size: 3
    stride: 1
    pad: 1
  }
}
layer {
  name: "inception_4c/pool_proj"
  type: "Convolution"
  bottom: "inception_4c/pool"
  top: "inception_4c/pool_proj"
  param {
    lr_mult: 1
    decay_mult: 1
  }
  param {
    lr_mult: 2
    decay_mult: 0
  }
  convolution_param {
    num_output: 64
    kernel_size: 1
    weight_filler {
      type: "xavier"
    }
    bias_filler {
      type: "constant"
      value: 0.2
    }
  }
}
layer {
  name: "inception_4c/relu_pool_proj"
  type: "ReLU"
  bottom: "inception_4c/pool_proj"
  top: "inception_4c/pool_proj"
}
layer {
  name: "inception_4c/output"
  type: "Concat"
  bottom: "inception_4c/1x1"
  bottom: "inception_4c/3x3"
  bottom: "inception_4c/5x5"
  bottom: "inception_4c/pool_proj"
  top: "inception_4c/output"
}
layer {
  name: "inception_4d/1x1"
  type: "Convolution"
  bottom: "inception_4c/output"
  top: "inception_4d/1x1"
  param {
    lr_mult: 1
    decay_mult: 1
  }
  param {
    lr_mult: 2
    decay_mult: 0
  }
  convolution_param {
    num_output: 112
    kernel_size: 1
    weight_filler {
      type: "xavier"
    }
    bias_filler {
      type: "constant"
      value: 0.2
    }
  }
}
layer {
  name: "inception_4d/relu_1x1"
  type: "ReLU"
  bottom: "inception_4d/1x1"
  top: "inception_4d/1x1"
}
layer {
  name: "inception_4d/3x3_reduce"
  type: "Convolution"
  bottom: "inception_4c/output"
  top: "inception_4d/3x3_reduce"
  param {
    lr_mult: 1
    decay_mult: 1
  }
  param {
    lr_mult: 2
    decay_mult: 0
  }
  convolution_param {
    num_output: 144
    kernel_size: 1
    weight_filler {
      type: "xavier"
    }
    bias_filler {
      type: "constant"
      value: 0.2
    }
  }
}
layer {
  name: "inception_4d/relu_3x3_reduce"
  type: "ReLU"
  bottom: "inception_4d/3x3_reduce"
  top: "inception_4d/3x3_reduce"
}
layer {
  name: "inception_4d/3x3"
  type: "Convolution"
  bottom: "inception_4d/3x3_reduce"
  top: "inception_4d/3x3"
  param {
    lr_mult: 1
    decay_mult: 1
  }
  param {
    lr_mult: 2
    decay_mult: 0
  }
  convolution_param {
    num_output: 288
    pad: 1
    kernel_size: 3
    weight_filler {
      type: "xavier"
    }
    bias_filler {
      type: "constant"
      value: 0.2
    }
  }
}
layer {
  name: "inception_4d/relu_3x3"
  type: "ReLU"
  bottom: "inception_4d/3x3"
  top: "inception_4d/3x3"
}
layer {
  name: "inception_4d/5x5_reduce"
  type: "Convolution"
  bottom: "inception_4c/output"
  top: "inception_4d/5x5_reduce"
  param {
    lr_mult: 1
    decay_mult: 1
  }
  param {
    lr_mult: 2
    decay_mult: 0
  }
  convolution_param {
    num_output: 32
    kernel_size: 1
    weight_filler {
      type: "xavier"
    }
    bias_filler {
      type: "constant"
      value: 0.2
    }
  }
}
layer {
  name: "inception_4d/relu_5x5_reduce"
  type: "ReLU"
  bottom: "inception_4d/5x5_reduce"
  top: "inception_4d/5x5_reduce"
}
layer {
  name: "inception_4d/5x5"
  type: "Convolution"
  bottom: "inception_4d/5x5_reduce"
  top: "inception_4d/5x5"
  param {
    lr_mult: 1
    decay_mult: 1
  }
  param {
    lr_mult: 2
    decay_mult: 0
  }
  convolution_param {
    num_output: 64
    pad: 2
    kernel_size: 5
    weight_filler {
      type: "xavier"
    }
    bias_filler {
      type: "constant"
      value: 0.2
    }
  }
}
layer {
  name: "inception_4d/relu_5x5"
  type: "ReLU"
  bottom: "inception_4d/5x5"
  top: "inception_4d/5x5"
}
layer {
  name: "inception_4d/pool"
  type: "Pooling"
  bottom: "inception_4c/output"
  top: "inception_4d/pool"
  pooling_param {
    pool: MAX
    kernel_size: 3
    stride: 1
    pad: 1
  }
}
layer {
  name: "inception_4d/pool_proj"
  type: "Convolution"
  bottom: "inception_4d/pool"
  top: "inception_4d/pool_proj"
  param {
    lr_mult: 1
    decay_mult: 1
  }
  param {
    lr_mult: 2
    decay_mult: 0
  }
  convolution_param {
    num_output: 64
    kernel_size: 1
    weight_filler {
      type: "xavier"
    }
    bias_filler {
      type: "constant"
      value: 0.2
    }
  }
}
layer {
  name: "inception_4d/relu_pool_proj"
  type: "ReLU"
  bottom: "inception_4d/pool_proj"
  top: "inception_4d/pool_proj"
}
layer {
  name: "inception_4d/output"
  type: "Concat"
  bottom: "inception_4d/1x1"
  bottom: "inception_4d/3x3"
  bottom: "inception_4d/5x5"
  bottom: "inception_4d/pool_proj"
  top: "inception_4d/output"
}
layer {
  name: "loss2/ave_pool"
  type: "Pooling"
  bottom: "inception_4d/output"
  top: "loss2/ave_pool"
  pooling_param {
    pool: AVE
    kernel_size: 5
    stride: 3
  }
}
layer {
  name: "loss2/conv"
  type: "Convolution"
  bottom: "loss2/ave_pool"
  top: "loss2/conv"
  param {
    lr_mult: 1
    decay_mult: 1
  }
  param {
    lr_mult: 2
    decay_mult: 0
  }
  convolution_param {
    num_output: 128
    kernel_size: 1
    weight_filler {
      type: "xavier"
    }
    bias_filler {
      type: "constant"
      value: 0.2
    }
  }
}
layer {
  name: "loss2/relu_conv"
  type: "ReLU"
  bottom: "loss2/conv"
  top: "loss2/conv"
}
layer {
  name: "loss2/fc"
  type: "InnerProduct"
  bottom: "loss2/conv"
  top: "loss2/fc"
  param {
    lr_mult: 1
    decay_mult: 1
  }
  param {
    lr_mult: 2
    decay_mult: 0
  }
  inner_product_param {
    num_output: 1024
    weight_filler {
      type: "xavier"
    }
    bias_filler {
      type: "constant"
      value: 0.2
    }
  }
}
layer {
  name: "loss2/relu_fc"
  type: "ReLU"
  bottom: "loss2/fc"
  top: "loss2/fc"
}
layer {
  name: "loss2/drop_fc"
  type: "Dropout"
  bottom: "loss2/fc"
  top: "loss2/fc"
  dropout_param {
    dropout_ratio: 0.7
  }
}
layer {
  name: "loss2/classifier_kaggle"
  type: "InnerProduct"
  bottom: "loss2/fc"
  top: "loss2/classifier_kaggle"
  param {
    lr_mult: 1
    decay_mult: 1
  }
  param {
    lr_mult: 2
    decay_mult: 0
  }
  inner_product_param {
    num_output: 447
    weight_filler {
      type: "xavier"
    }
    bias_filler {
      type: "constant"
      value: 0
    }
  }
}
layer {
  name: "loss2/loss"
  type: "SoftmaxWithLoss"
  bottom: "loss2/classifier_kaggle"
  bottom: "label"
  top: "loss2/loss1"
  loss_weight: 0.3
}
layer {
  name: "inception_4e/1x1"
  type: "Convolution"
  bottom: "inception_4d/output"
  top: "inception_4e/1x1"
  param {
    lr_mult: 1
    decay_mult: 1
  }
  param {
    lr_mult: 2
    decay_mult: 0
  }
  convolution_param {
    num_output: 256
    kernel_size: 1
    weight_filler {
      type: "xavier"
    }
    bias_filler {
      type: "constant"
      value: 0.2
    }
  }
}
layer {
  name: "inception_4e/relu_1x1"
  type: "ReLU"
  bottom: "inception_4e/1x1"
  top: "inception_4e/1x1"
}
layer {
  name: "inception_4e/3x3_reduce"
  type: "Convolution"
  bottom: "inception_4d/output"
  top: "inception_4e/3x3_reduce"
  param {
    lr_mult: 1
    decay_mult: 1
  }
  param {
    lr_mult: 2
    decay_mult: 0
  }
  convolution_param {
    num_output: 160
    kernel_size: 1
    weight_filler {
      type: "xavier"
    }
    bias_filler {
      type: "constant"
      value: 0.2
    }
  }
}
layer {
  name: "inception_4e/relu_3x3_reduce"
  type: "ReLU"
  bottom: "inception_4e/3x3_reduce"
  top: "inception_4e/3x3_reduce"
}
layer {
  name: "inception_4e/3x3"
  type: "Convolution"
  bottom: "inception_4e/3x3_reduce"
  top: "inception_4e/3x3"
  param {
    lr_mult: 1
    decay_mult: 1
  }
  param {
    lr_mult: 2
    decay_mult: 0
  }
  convolution_param {
    num_output: 320
    pad: 1
    kernel_size: 3
    weight_filler {
      type: "xavier"
    }
    bias_filler {
      type: "constant"
      value: 0.2
    }
  }
}
layer {
  name: "inception_4e/relu_3x3"
  type: "ReLU"
  bottom: "inception_4e/3x3"
  top: "inception_4e/3x3"
}
layer {
  name: "inception_4e/5x5_reduce"
  type: "Convolution"
  bottom: "inception_4d/output"
  top: "inception_4e/5x5_reduce"
  param {
    lr_mult: 1
    decay_mult: 1
  }
  param {
    lr_mult: 2
    decay_mult: 0
  }
  convolution_param {
    num_output: 32
    kernel_size: 1
    weight_filler {
      type: "xavier"
    }
    bias_filler {
      type: "constant"
      value: 0.2
    }
  }
}
layer {
  name: "inception_4e/relu_5x5_reduce"
  type: "ReLU"
  bottom: "inception_4e/5x5_reduce"
  top: "inception_4e/5x5_reduce"
}
layer {
  name: "inception_4e/5x5"
  type: "Convolution"
  bottom: "inception_4e/5x5_reduce"
  top: "inception_4e/5x5"
  param {
    lr_mult: 1
    decay_mult: 1
  }
  param {
    lr_mult: 2
    decay_mult: 0
  }
  convolution_param {
    num_output: 128
    pad: 2
    kernel_size: 5
    weight_filler {
      type: "xavier"
    }
    bias_filler {
      type: "constant"
      value: 0.2
    }
  }
}
layer {
  name: "inception_4e/relu_5x5"
  type: "ReLU"
  bottom: "inception_4e/5x5"
  top: "inception_4e/5x5"
}
layer {
  name: "inception_4e/pool"
  type: "Pooling"
  bottom: "inception_4d/output"
  top: "inception_4e/pool"
  po
I1230 19:25:17.183008 32546 layer_factory.hpp:74] Creating layer data
I1230 19:25:17.183043 32546 net.cpp:84] Creating Layer data
I1230 19:25:17.183054 32546 net.cpp:338] data -> data
I1230 19:25:17.183097 32546 net.cpp:338] data -> label
I1230 19:25:17.183110 32546 net.cpp:113] Setting up data
I1230 19:25:17.183120 32546 image_data_layer.cpp:36] Opening file /home/coldmanck/kaggle/label_train_full_resize.txt
I1230 19:25:17.186803 32546 image_data_layer.cpp:46] Shuffling data
I1230 19:25:17.188015 32546 image_data_layer.cpp:51] A total of 4235 images.
I1230 19:25:17.189254 32546 image_data_layer.cpp:80] output data size: 80,3,224,224
I1230 19:25:18.118765 32546 net.cpp:120] Top shape: 80 3 224 224 (12042240)
I1230 19:25:18.118854 32546 net.cpp:120] Top shape: 80 (80)
I1230 19:25:18.118907 32546 layer_factory.hpp:74] Creating layer label_data_1_split
I1230 19:25:18.119032 32546 net.cpp:84] Creating Layer label_data_1_split
I1230 19:25:18.119047 32546 net.cpp:380] label_data_1_split <- label
I1230 19:25:18.119098 32546 net.cpp:338] label_data_1_split -> label_data_1_split_0
I1230 19:25:18.119133 32546 net.cpp:338] label_data_1_split -> label_data_1_split_1
I1230 19:25:18.119164 32546 net.cpp:338] label_data_1_split -> label_data_1_split_2
I1230 19:25:18.119179 32546 net.cpp:113] Setting up label_data_1_split
I1230 19:25:18.119195 32546 net.cpp:120] Top shape: 80 (80)
I1230 19:25:18.119205 32546 net.cpp:120] Top shape: 80 (80)
I1230 19:25:18.119215 32546 net.cpp:120] Top shape: 80 (80)
I1230 19:25:18.119225 32546 layer_factory.hpp:74] Creating layer conv1/7x7_s2
I1230 19:25:18.119287 32546 net.cpp:84] Creating Layer conv1/7x7_s2
I1230 19:25:18.119297 32546 net.cpp:380] conv1/7x7_s2 <- data
I1230 19:25:18.119316 32546 net.cpp:338] conv1/7x7_s2 -> conv1/7x7_s2
I1230 19:25:18.119336 32546 net.cpp:113] Setting up conv1/7x7_s2
I1230 19:25:18.450420 32546 net.cpp:120] Top shape: 80 64 112 112 (64225280)
I1230 19:25:18.450615 32546 layer_factory.hpp:74] Creating layer conv1/relu_7x7
I1230 19:25:18.450634 32546 net.cpp:84] Creating Layer conv1/relu_7x7
I1230 19:25:18.450644 32546 net.cpp:380] conv1/relu_7x7 <- conv1/7x7_s2
I1230 19:25:18.450657 32546 net.cpp:327] conv1/relu_7x7 -> conv1/7x7_s2 (in-place)
I1230 19:25:18.450675 32546 net.cpp:113] Setting up conv1/relu_7x7
I1230 19:25:18.451439 32546 net.cpp:120] Top shape: 80 64 112 112 (64225280)
I1230 19:25:18.451457 32546 layer_factory.hpp:74] Creating layer pool1/3x3_s2
I1230 19:25:18.451479 32546 net.cpp:84] Creating Layer pool1/3x3_s2
I1230 19:25:18.451488 32546 net.cpp:380] pool1/3x3_s2 <- conv1/7x7_s2
I1230 19:25:18.451498 32546 net.cpp:338] pool1/3x3_s2 -> pool1/3x3_s2
I1230 19:25:18.451511 32546 net.cpp:113] Setting up pool1/3x3_s2
I1230 19:25:18.451647 32546 net.cpp:120] Top shape: 80 64 56 56 (16056320)
I1230 19:25:18.452122 32546 layer_factory.hpp:74] Creating layer pool1/norm1
I1230 19:25:18.452142 32546 net.cpp:84] Creating Layer pool1/norm1
I1230 19:25:18.452148 32546 net.cpp:380] pool1/norm1 <- pool1/3x3_s2
I1230 19:25:18.452159 32546 net.cpp:338] pool1/norm1 -> pool1/norm1
I1230 19:25:18.452174 32546 net.cpp:113] Setting up pool1/norm1
I1230 19:25:18.452188 32546 net.cpp:120] Top shape: 80 64 56 56 (16056320)
I1230 19:25:18.452205 32546 layer_factory.hpp:74] Creating layer conv2/3x3_reduce
I1230 19:25:18.452232 32546 net.cpp:84] Creating Layer conv2/3x3_reduce
I1230 19:25:18.452241 32546 net.cpp:380] conv2/3x3_reduce <- pool1/norm1
I1230 19:25:18.452260 32546 net.cpp:338] conv2/3x3_reduce -> conv2/3x3_reduce
I1230 19:25:18.452277 32546 net.cpp:113] Setting up conv2/3x3_reduce
I1230 19:25:18.452904 32546 net.cpp:120] Top shape: 80 64 56 56 (16056320)
I1230 19:25:18.452930 32546 layer_factory.hpp:74] Creating layer conv2/relu_3x3_reduce
I1230 19:25:18.452942 32546 net.cpp:84] Creating Layer conv2/relu_3x3_reduce
I1230 19:25:18.452951 32546 net.cpp:380] conv2/relu_3x3_reduce <- conv2/3x3_reduce
I1230 19:25:18.452962 32546 net.cpp:327] conv2/relu_3x3_reduce -> conv2/3x3_reduce (in-place)
I1230 19:25:18.452975 32546 net.cpp:113] Setting up conv2/relu_3x3_reduce
I1230 19:25:18.453074 32546 net.cpp:120] Top shape: 80 64 56 56 (16056320)
I1230 19:25:18.453088 32546 layer_factory.hpp:74] Creating layer conv2/3x3
I1230 19:25:18.453102 32546 net.cpp:84] Creating Layer conv2/3x3
I1230 19:25:18.453110 32546 net.cpp:380] conv2/3x3 <- conv2/3x3_reduce
I1230 19:25:18.453135 32546 net.cpp:338] conv2/3x3 -> conv2/3x3
I1230 19:25:18.453147 32546 net.cpp:113] Setting up conv2/3x3
I1230 19:25:18.455157 32546 net.cpp:120] Top shape: 80 192 56 56 (48168960)
I1230 19:25:18.455183 32546 layer_factory.hpp:74] Creating layer conv2/relu_3x3
I1230 19:25:18.455299 32546 net.cpp:84] Creating Layer conv2/relu_3x3
I1230 19:25:18.455308 32546 net.cpp:380] conv2/relu_3x3 <- conv2/3x3
I1230 19:25:18.455318 32546 net.cpp:327] conv2/relu_3x3 -> conv2/3x3 (in-place)
I1230 19:25:18.455329 32546 net.cpp:113] Setting up conv2/relu_3x3
I1230 19:25:18.455936 32546 net.cpp:120] Top shape: 80 192 56 56 (48168960)
I1230 19:25:18.456017 32546 layer_factory.hpp:74] Creating layer conv2/norm2
I1230 19:25:18.456029 32546 net.cpp:84] Creating Layer conv2/norm2
I1230 19:25:18.456063 32546 net.cpp:380] conv2/norm2 <- conv2/3x3
I1230 19:25:18.456145 32546 net.cpp:338] conv2/norm2 -> conv2/norm2
I1230 19:25:18.456179 32546 net.cpp:113] Setting up conv2/norm2
I1230 19:25:18.456193 32546 net.cpp:120] Top shape: 80 192 56 56 (48168960)
I1230 19:25:18.456202 32546 layer_factory.hpp:74] Creating layer pool2/3x3_s2
I1230 19:25:18.456213 32546 net.cpp:84] Creating Layer pool2/3x3_s2
I1230 19:25:18.456221 32546 net.cpp:380] pool2/3x3_s2 <- conv2/norm2
I1230 19:25:18.456231 32546 net.cpp:338] pool2/3x3_s2 -> pool2/3x3_s2
I1230 19:25:18.456243 32546 net.cpp:113] Setting up pool2/3x3_s2
I1230 19:25:18.456336 32546 net.cpp:120] Top shape: 80 192 28 28 (12042240)
I1230 19:25:18.456347 32546 layer_factory.hpp:74] Creating layer pool2/3x3_s2_pool2/3x3_s2_0_split
I1230 19:25:18.456358 32546 net.cpp:84] Creating Layer pool2/3x3_s2_pool2/3x3_s2_0_split
I1230 19:25:18.456367 32546 net.cpp:380] pool2/3x3_s2_pool2/3x3_s2_0_split <- pool2/3x3_s2
I1230 19:25:18.456377 32546 net.cpp:338] pool2/3x3_s2_pool2/3x3_s2_0_split -> pool2/3x3_s2_pool2/3x3_s2_0_split_0
I1230 19:25:18.456388 32546 net.cpp:338] pool2/3x3_s2_pool2/3x3_s2_0_split -> pool2/3x3_s2_pool2/3x3_s2_0_split_1
I1230 19:25:18.456400 32546 net.cpp:338] pool2/3x3_s2_pool2/3x3_s2_0_split -> pool2/3x3_s2_pool2/3x3_s2_0_split_2
I1230 19:25:18.456411 32546 net.cpp:338] pool2/3x3_s2_pool2/3x3_s2_0_split -> pool2/3x3_s2_pool2/3x3_s2_0_split_3
I1230 19:25:18.456420 32546 net.cpp:113] Setting up pool2/3x3_s2_pool2/3x3_s2_0_split
I1230 19:25:18.456434 32546 net.cpp:120] Top shape: 80 192 28 28 (12042240)
I1230 19:25:18.456442 32546 net.cpp:120] Top shape: 80 192 28 28 (12042240)
I1230 19:25:18.456450 32546 net.cpp:120] Top shape: 80 192 28 28 (12042240)
I1230 19:25:18.456459 32546 net.cpp:120] Top shape: 80 192 28 28 (12042240)
I1230 19:25:18.456465 32546 layer_factory.hpp:74] Creating layer inception_3a/1x1
I1230 19:25:18.456478 32546 net.cpp:84] Creating Layer inception_3a/1x1
I1230 19:25:18.456485 32546 net.cpp:380] inception_3a/1x1 <- pool2/3x3_s2_pool2/3x3_s2_0_split_0
I1230 19:25:18.456497 32546 net.cpp:338] inception_3a/1x1 -> inception_3a/1x1
I1230 19:25:18.456511 32546 net.cpp:113] Setting up inception_3a/1x1
I1230 19:25:18.458423 32546 net.cpp:120] Top shape: 80 64 28 28 (4014080)
I1230 19:25:18.458449 32546 layer_factory.hpp:74] Creating layer inception_3a/relu_1x1
I1230 19:25:18.458477 32546 net.cpp:84] Creating Layer inception_3a/relu_1x1
I1230 19:25:18.458485 32546 net.cpp:380] inception_3a/relu_1x1 <- inception_3a/1x1
I1230 19:25:18.458508 32546 net.cpp:327] inception_3a/relu_1x1 -> inception_3a/1x1 (in-place)
I1230 19:25:18.458520 32546 net.cpp:113] Setting up inception_3a/relu_1x1
I1230 19:25:18.458642 32546 net.cpp:120] Top shape: 80 64 28 28 (4014080)
I1230 19:25:18.458654 32546 layer_factory.hpp:74] Creating layer inception_3a/3x3_reduce
I1230 19:25:18.458667 32546 net.cpp:84] Creating Layer inception_3a/3x3_reduce
I1230 19:25:18.458675 32546 net.cpp:380] inception_3a/3x3_reduce <- pool2/3x3_s2_pool2/3x3_s2_0_split_1
I1230 19:25:18.458688 32546 net.cpp:338] inception_3a/3x3_reduce -> inception_3a/3x3_reduce
I1230 19:25:18.458700 32546 net.cpp:113] Setting up inception_3a/3x3_reduce
I1230 19:25:18.459467 32546 net.cpp:120] Top shape: 80 96 28 28 (6021120)
I1230 19:25:18.459494 32546 layer_factory.hpp:74] Creating layer inception_3a/relu_3x3_reduce
I1230 19:25:18.459508 32546 net.cpp:84] Creating Layer inception_3a/relu_3x3_reduce
I1230 19:25:18.459517 32546 net.cpp:380] inception_3a/relu_3x3_reduce <- inception_3a/3x3_reduce
I1230 19:25:18.459537 32546 net.cpp:327] inception_3a/relu_3x3_reduce -> inception_3a/3x3_reduce (in-place)
I1230 19:25:18.459548 32546 net.cpp:113] Setting up inception_3a/relu_3x3_reduce
I1230 19:25:18.459650 32546 net.cpp:120] Top shape: 80 96 28 28 (6021120)
I1230 19:25:18.459664 32546 layer_factory.hpp:74] Creating layer inception_3a/3x3
I1230 19:25:18.459698 32546 net.cpp:84] Creating Layer inception_3a/3x3
I1230 19:25:18.459707 32546 net.cpp:380] inception_3a/3x3 <- inception_3a/3x3_reduce
I1230 19:25:18.459720 32546 net.cpp:338] inception_3a/3x3 -> inception_3a/3x3
I1230 19:25:18.459743 32546 net.cpp:113] Setting up inception_3a/3x3
I1230 19:25:18.461971 32546 net.cpp:120] Top shape: 80 128 28 28 (8028160)
I1230 19:25:18.461994 32546 layer_factory.hpp:74] Creating layer inception_3a/relu_3x3
I1230 19:25:18.462021 32546 net.cpp:84] Creating Layer inception_3a/relu_3x3
I1230 19:25:18.462030 32546 net.cpp:380] inception_3a/relu_3x3 <- inception_3a/3x3
I1230 19:25:18.462043 32546 net.cpp:327] inception_3a/relu_3x3 -> inception_3a/3x3 (in-place)
I1230 19:25:18.462054 32546 net.cpp:113] Setting up inception_3a/relu_3x3
I1230 19:25:18.462391 32546 net.cpp:120] Top shape: 80 128 28 28 (8028160)
I1230 19:25:18.462405 32546 layer_factory.hpp:74] Creating layer inception_3a/5x5_reduce
I1230 19:25:18.462419 32546 net.cpp:84] Creating Layer inception_3a/5x5_reduce
I1230 19:25:18.462425 32546 net.cpp:380] inception_3a/5x5_reduce <- pool2/3x3_s2_pool2/3x3_s2_0_split_2
I1230 19:25:18.462440 32546 net.cpp:338] inception_3a/5x5_reduce -> inception_3a/5x5_reduce
I1230 19:25:18.462457 32546 net.cpp:113] Setting up inception_3a/5x5_reduce
I1230 19:25:18.463090 32546 net.cpp:120] Top shape: 80 16 28 28 (1003520)
I1230 19:25:18.463111 32546 layer_factory.hpp:74] Creating layer inception_3a/relu_5x5_reduce
I1230 19:25:18.463124 32546 net.cpp:84] Creating Layer inception_3a/relu_5x5_reduce
I1230 19:25:18.463132 32546 net.cpp:380] inception_3a/relu_5x5_reduce <- inception_3a/5x5_reduce
I1230 19:25:18.463142 32546 net.cpp:327] inception_3a/relu_5x5_reduce -> inception_3a/5x5_reduce (in-place)
I1230 19:25:18.463153 32546 net.cpp:113] Setting up inception_3a/relu_5x5_reduce
I1230 19:25:18.463254 32546 net.cpp:120] Top shape: 80 16 28 28 (1003520)
I1230 19:25:18.463265 32546 layer_factory.hpp:74] Creating layer inception_3a/5x5
I1230 19:25:18.463292 32546 net.cpp:84] Creating Layer inception_3a/5x5
I1230 19:25:18.463300 32546 net.cpp:380] inception_3a/5x5 <- inception_3a/5x5_reduce
I1230 19:25:18.463311 32546 net.cpp:338] inception_3a/5x5 -> inception_3a/5x5
I1230 19:25:18.463323 32546 net.cpp:113] Setting up inception_3a/5x5
I1230 19:25:18.464078 32546 net.cpp:120] Top shape: 80 32 28 28 (2007040)
I1230 19:25:18.464109 32546 layer_factory.hpp:74] Creating layer inception_3a/relu_5x5
I1230 19:25:18.464120 32546 net.cpp:84] Creating Layer inception_3a/relu_5x5
I1230 19:25:18.464128 32546 net.cpp:380] inception_3a/relu_5x5 <- inception_3a/5x5
I1230 19:25:18.464140 32546 net.cpp:327] inception_3a/relu_5x5 -> inception_3a/5x5 (in-place)
I1230 19:25:18.464151 32546 net.cpp:113] Setting up inception_3a/relu_5x5
I1230 19:25:18.464243 32546 net.cpp:120] Top shape: 80 32 28 28 (2007040)
I1230 19:25:18.464252 32546 layer_factory.hpp:74] Creating layer inception_3a/pool
I1230 19:25:18.464260 32546 layer_factory.cpp:56] CUDNN does not support padding or multiple tops. Using Caffe's own pooling layer.
I1230 19:25:18.464272 32546 net.cpp:84] Creating Layer inception_3a/pool
I1230 19:25:18.464279 32546 net.cpp:380] inception_3a/pool <- pool2/3x3_s2_pool2/3x3_s2_0_split_3
I1230 19:25:18.464292 32546 net.cpp:338] inception_3a/pool -> inception_3a/pool
I1230 19:25:18.464303 32546 net.cpp:113] Setting up inception_3a/pool
I1230 19:25:18.464316 32546 net.cpp:120] Top shape: 80 192 28 28 (12042240)
I1230 19:25:18.464324 32546 layer_factory.hpp:74] Creating layer inception_3a/pool_proj
I1230 19:25:18.464345 32546 net.cpp:84] Creating Layer inception_3a/pool_proj
I1230 19:25:18.464354 32546 net.cpp:380] inception_3a/pool_proj <- inception_3a/pool
I1230 19:25:18.464364 32546 net.cpp:338] inception_3a/pool_proj -> inception_3a/pool_proj
I1230 19:25:18.464375 32546 net.cpp:113] Setting up inception_3a/pool_proj
I1230 19:25:18.465003 32546 net.cpp:120] Top shape: 80 32 28 28 (2007040)
I1230 19:25:18.465026 32546 layer_factory.hpp:74] Creating layer inception_3a/relu_pool_proj
I1230 19:25:18.465036 32546 net.cpp:84] Creating Layer inception_3a/relu_pool_proj
I1230 19:25:18.465044 32546 net.cpp:380] inception_3a/relu_pool_proj <- inception_3a/pool_proj
I1230 19:25:18.465068 32546 net.cpp:327] inception_3a/relu_pool_proj -> inception_3a/pool_proj (in-place)
I1230 19:25:18.465100 32546 net.cpp:113] Setting up inception_3a/relu_pool_proj
I1230 19:25:18.465200 32546 net.cpp:120] Top shape: 80 32 28 28 (2007040)
I1230 19:25:18.465222 32546 layer_factory.hpp:74] Creating layer inception_3a/output
I1230 19:25:18.465234 32546 net.cpp:84] Creating Layer inception_3a/output
I1230 19:25:18.465241 32546 net.cpp:380] inception_3a/output <- inception_3a/1x1
I1230 19:25:18.465250 32546 net.cpp:380] inception_3a/output <- inception_3a/3x3
I1230 19:25:18.465258 32546 net.cpp:380] inception_3a/output <- inception_3a/5x5
I1230 19:25:18.465267 32546 net.cpp:380] inception_3a/output <- inception_3a/pool_proj
I1230 19:25:18.465276 32546 net.cpp:338] inception_3a/output -> inception_3a/output
I1230 19:25:18.465287 32546 net.cpp:113] Setting up inception_3a/output
I1230 19:25:18.465301 32546 net.cpp:120] Top shape: 80 256 28 28 (16056320)
I1230 19:25:18.465307 32546 layer_factory.hpp:74] Creating layer inception_3a/output_inception_3a/output_0_split
I1230 19:25:18.465320 32546 net.cpp:84] Creating Layer inception_3a/output_inception_3a/output_0_split
I1230 19:25:18.465327 32546 net.cpp:380] inception_3a/output_inception_3a/output_0_split <- inception_3a/output
I1230 19:25:18.465337 32546 net.cpp:338] inception_3a/output_inception_3a/output_0_split -> inception_3a/output_inception_3a/output_0_split_0
I1230 19:25:18.465348 32546 net.cpp:338] inception_3a/output_inception_3a/output_0_split -> inception_3a/output_inception_3a/output_0_split_1
I1230 19:25:18.465359 32546 net.cpp:338] inception_3a/output_inception_3a/output_0_split -> inception_3a/output_inception_3a/output_0_split_2
I1230 19:25:18.465373 32546 net.cpp:338] inception_3a/output_inception_3a/output_0_split -> inception_3a/output_inception_3a/output_0_split_3
I1230 19:25:18.465384 32546 net.cpp:113] Setting up inception_3a/output_inception_3a/output_0_split
I1230 19:25:18.465395 32546 net.cpp:120] Top shape: 80 256 28 28 (16056320)
I1230 19:25:18.465404 32546 net.cpp:120] Top shape: 80 256 28 28 (16056320)
I1230 19:25:18.465411 32546 net.cpp:120] Top shape: 80 256 28 28 (16056320)
I1230 19:25:18.465420 32546 net.cpp:120] Top shape: 80 256 28 28 (16056320)
I1230 19:25:18.465426 32546 layer_factory.hpp:74] Creating layer inception_3b/1x1
I1230 19:25:18.465438 32546 net.cpp:84] Creating Layer inception_3b/1x1
I1230 19:25:18.465445 32546 net.cpp:380] inception_3b/1x1 <- inception_3a/output_inception_3a/output_0_split_0
I1230 19:25:18.465457 32546 net.cpp:338] inception_3b/1x1 -> inception_3b/1x1
I1230 19:25:18.465469 32546 net.cpp:113] Setting up inception_3b/1x1
I1230 19:25:18.466616 32546 net.cpp:120] Top shape: 80 128 28 28 (8028160)
I1230 19:25:18.466637 32546 layer_factory.hpp:74] Creating layer inception_3b/relu_1x1
I1230 19:25:18.466657 32546 net.cpp:84] Creating Layer inception_3b/relu_1x1
I1230 19:25:18.466665 32546 net.cpp:380] inception_3b/relu_1x1 <- inception_3b/1x1
I1230 19:25:18.466675 32546 net.cpp:327] inception_3b/relu_1x1 -> inception_3b/1x1 (in-place)
I1230 19:25:18.466686 32546 net.cpp:113] Setting up inception_3b/relu_1x1
I1230 19:25:18.467075 32546 net.cpp:120] Top shape: 80 128 28 28 (8028160)
I1230 19:25:18.467090 32546 layer_factory.hpp:74] Creating layer inception_3b/3x3_reduce
I1230 19:25:18.467108 32546 net.cpp:84] Creating Layer inception_3b/3x3_reduce
I1230 19:25:18.467207 32546 net.cpp:380] inception_3b/3x3_reduce <- inception_3a/output_inception_3a/output_0_split_1
I1230 19:25:18.467226 32546 net.cpp:338] inception_3b/3x3_reduce -> inception_3b/3x3_reduce
I1230 19:25:18.467239 32546 net.cpp:113] Setting up inception_3b/3x3_reduce
I1230 19:25:18.468268 32546 net.cpp:120] Top shape: 80 128 28 28 (8028160)
I1230 19:25:18.468298 32546 layer_factory.hpp:74] Creating layer inception_3b/relu_3x3_reduce
I1230 19:25:18.468309 32546 net.cpp:84] Creating Layer inception_3b/relu_3x3_reduce
I1230 19:25:18.468317 32546 net.cpp:380] inception_3b/relu_3x3_reduce <- inception_3b/3x3_reduce
I1230 19:25:18.468330 32546 net.cpp:327] inception_3b/relu_3x3_reduce -> inception_3b/3x3_reduce (in-place)
I1230 19:25:18.468348 32546 net.cpp:113] Setting up inception_3b/relu_3x3_reduce
I1230 19:25:18.468449 32546 net.cpp:120] Top shape: 80 128 28 28 (8028160)
I1230 19:25:18.468463 32546 layer_factory.hpp:74] Creating layer inception_3b/3x3
I1230 19:25:18.468488 32546 net.cpp:84] Creating Layer inception_3b/3x3
I1230 19:25:18.468497 32546 net.cpp:380] inception_3b/3x3 <- inception_3b/3x3_reduce
I1230 19:25:18.468508 32546 net.cpp:338] inception_3b/3x3 -> inception_3b/3x3
I1230 19:25:18.468520 32546 net.cpp:113] Setting up inception_3b/3x3
I1230 19:25:18.472020 32546 net.cpp:120] Top shape: 80 192 28 28 (12042240)
I1230 19:25:18.472043 32546 layer_factory.hpp:74] Creating layer inception_3b/relu_3x3
I1230 19:25:18.472059 32546 net.cpp:84] Creating Layer inception_3b/relu_3x3
I1230 19:25:18.472066 32546 net.cpp:380] inception_3b/relu_3x3 <- inception_3b/3x3
I1230 19:25:18.472077 32546 net.cpp:327] inception_3b/relu_3x3 -> inception_3b/3x3 (in-place)
I1230 19:25:18.472089 32546 net.cpp:113] Setting up inception_3b/relu_3x3
I1230 19:25:18.472192 32546 net.cpp:120] Top shape: 80 192 28 28 (12042240)
I1230 19:25:18.472203 32546 layer_factory.hpp:74] Creating layer inception_3b/5x5_reduce
I1230 19:25:18.472218 32546 net.cpp:84] Creating Layer inception_3b/5x5_reduce
I1230 19:25:18.472225 32546 net.cpp:380] inception_3b/5x5_reduce <- inception_3a/output_inception_3a/output_0_split_2
I1230 19:25:18.472237 32546 net.cpp:338] inception_3b/5x5_reduce -> inception_3b/5x5_reduce
I1230 19:25:18.472251 32546 net.cpp:113] Setting up inception_3b/5x5_reduce
I1230 19:25:18.473016 32546 net.cpp:120] Top shape: 80 32 28 28 (2007040)
I1230 19:25:18.473048 32546 layer_factory.hpp:74] Creating layer inception_3b/relu_5x5_reduce
I1230 19:25:18.473114 32546 net.cpp:84] Creating Layer inception_3b/relu_5x5_reduce
I1230 19:25:18.473124 32546 net.cpp:380] inception_3b/relu_5x5_reduce <- inception_3b/5x5_reduce
I1230 19:25:18.473139 32546 net.cpp:327] inception_3b/relu_5x5_reduce -> inception_3b/5x5_reduce (in-place)
I1230 19:25:18.473150 32546 net.cpp:113] Setting up inception_3b/relu_5x5_reduce
I1230 19:25:18.473253 32546 net.cpp:120] Top shape: 80 32 28 28 (2007040)
I1230 19:25:18.473263 32546 layer_factory.hpp:74] Creating layer inception_3b/5x5
I1230 19:25:18.473280 32546 net.cpp:84] Creating Layer inception_3b/5x5
I1230 19:25:18.473289 32546 net.cpp:380] inception_3b/5x5 <- inception_3b/5x5_reduce
I1230 19:25:18.473300 32546 net.cpp:338] inception_3b/5x5 -> inception_3b/5x5
I1230 19:25:18.473318 32546 net.cpp:113] Setting up inception_3b/5x5
I1230 19:25:18.474928 32546 net.cpp:120] Top shape: 80 96 28 28 (6021120)
I1230 19:25:18.474949 32546 layer_factory.hpp:74] Creating layer inception_3b/relu_5x5
I1230 19:25:18.474963 32546 net.cpp:84] Creating Layer inception_3b/relu_5x5
I1230 19:25:18.474972 32546 net.cpp:380] inception_3b/relu_5x5 <- inception_3b/5x5
I1230 19:25:18.474982 32546 net.cpp:327] inception_3b/relu_5x5 -> inception_3b/5x5 (in-place)
I1230 19:25:18.474993 32546 net.cpp:113] Setting up inception_3b/relu_5x5
I1230 19:25:18.475347 32546 net.cpp:120] Top shape: 80 96 28 28 (6021120)
I1230 19:25:18.475361 32546 layer_factory.hpp:74] Creating layer inception_3b/pool
I1230 19:25:18.475370 32546 layer_factory.cpp:56] CUDNN does not support padding or multiple tops. Using Caffe's own pooling layer.
I1230 19:25:18.475383 32546 net.cpp:84] Creating Layer inception_3b/pool
I1230 19:25:18.475390 32546 net.cpp:380] inception_3b/pool <- inception_3a/output_inception_3a/output_0_split_3
I1230 19:25:18.475404 32546 net.cpp:338] inception_3b/pool -> inception_3b/pool
I1230 19:25:18.475415 32546 net.cpp:113] Setting up inception_3b/pool
I1230 19:25:18.475430 32546 net.cpp:120] Top shape: 80 256 28 28 (16056320)
I1230 19:25:18.475438 32546 layer_factory.hpp:74] Creating layer inception_3b/pool_proj
I1230 19:25:18.475453 32546 net.cpp:84] Creating Layer inception_3b/pool_proj
I1230 19:25:18.475461 32546 net.cpp:380] inception_3b/pool_proj <- inception_3b/pool
I1230 19:25:18.475474 32546 net.cpp:338] inception_3b/pool_proj -> inception_3b/pool_proj
I1230 19:25:18.475495 32546 net.cpp:113] Setting up inception_3b/pool_proj
I1230 19:25:18.476315 32546 net.cpp:120] Top shape: 80 64 28 28 (4014080)
I1230 19:25:18.476344 32546 layer_factory.hpp:74] Creating layer inception_3b/relu_pool_proj
I1230 19:25:18.476357 32546 net.cpp:84] Creating Layer inception_3b/relu_pool_proj
I1230 19:25:18.476366 32546 net.cpp:380] inception_3b/relu_pool_proj <- inception_3b/pool_proj
I1230 19:25:18.476377 32546 net.cpp:327] inception_3b/relu_pool_proj -> inception_3b/pool_proj (in-place)
I1230 19:25:18.476387 32546 net.cpp:113] Setting up inception_3b/relu_pool_proj
I1230 19:25:18.476483 32546 net.cpp:120] Top shape: 80 64 28 28 (4014080)
I1230 19:25:18.476495 32546 layer_factory.hpp:74] Creating layer inception_3b/output
I1230 19:25:18.476513 32546 net.cpp:84] Creating Layer inception_3b/output
I1230 19:25:18.476521 32546 net.cpp:380] inception_3b/output <- inception_3b/1x1
I1230 19:25:18.476531 32546 net.cpp:380] inception_3b/output <- inception_3b/3x3
I1230 19:25:18.476538 32546 net.cpp:380] inception_3b/output <- inception_3b/5x5
I1230 19:25:18.476547 32546 net.cpp:380] inception_3b/output <- inception_3b/pool_proj
I1230 19:25:18.476555 32546 net.cpp:338] inception_3b/output -> inception_3b/output
I1230 19:25:18.476569 32546 net.cpp:113] Setting up inception_3b/output
I1230 19:25:18.476582 32546 net.cpp:120] Top shape: 80 480 28 28 (30105600)
I1230 19:25:18.476588 32546 layer_factory.hpp:74] Creating layer pool3/3x3_s2
I1230 19:25:18.476598 32546 net.cpp:84] Creating Layer pool3/3x3_s2
I1230 19:25:18.476605 32546 net.cpp:380] pool3/3x3_s2 <- inception_3b/output
I1230 19:25:18.476614 32546 net.cpp:338] pool3/3x3_s2 -> pool3/3x3_s2
I1230 19:25:18.476625 32546 net.cpp:113] Setting up pool3/3x3_s2
I1230 19:25:18.476718 32546 net.cpp:120] Top shape: 80 480 14 14 (7526400)
I1230 19:25:18.476728 32546 layer_factory.hpp:74] Creating layer pool3/3x3_s2_pool3/3x3_s2_0_split
I1230 19:25:18.476738 32546 net.cpp:84] Creating Layer pool3/3x3_s2_pool3/3x3_s2_0_split
I1230 19:25:18.476745 32546 net.cpp:380] pool3/3x3_s2_pool3/3x3_s2_0_split <- pool3/3x3_s2
I1230 19:25:18.476758 32546 net.cpp:338] pool3/3x3_s2_pool3/3x3_s2_0_split -> pool3/3x3_s2_pool3/3x3_s2_0_split_0
I1230 19:25:18.476769 32546 net.cpp:338] pool3/3x3_s2_pool3/3x3_s2_0_split -> pool3/3x3_s2_pool3/3x3_s2_0_split_1
I1230 19:25:18.476780 32546 net.cpp:338] pool3/3x3_s2_pool3/3x3_s2_0_split -> pool3/3x3_s2_pool3/3x3_s2_0_split_2
I1230 19:25:18.476790 32546 net.cpp:338] pool3/3x3_s2_pool3/3x3_s2_0_split -> pool3/3x3_s2_pool3/3x3_s2_0_split_3
I1230 19:25:18.476799 32546 net.cpp:113] Setting up pool3/3x3_s2_pool3/3x3_s2_0_split
I1230 19:25:18.476811 32546 net.cpp:120] Top shape: 80 480 14 14 (7526400)
I1230 19:25:18.476819 32546 net.cpp:120] Top shape: 80 480 14 14 (7526400)
I1230 19:25:18.476829 32546 net.cpp:120] Top shape: 80 480 14 14 (7526400)
I1230 19:25:18.476836 32546 net.cpp:120] Top shape: 80 480 14 14 (7526400)
I1230 19:25:18.476842 32546 layer_factory.hpp:74] Creating layer inception_4a/1x1
I1230 19:25:18.476866 32546 net.cpp:84] Creating Layer inception_4a/1x1
I1230 19:25:18.476874 32546 net.cpp:380] inception_4a/1x1 <- pool3/3x3_s2_pool3/3x3_s2_0_split_0
I1230 19:25:18.476884 32546 net.cpp:338] inception_4a/1x1 -> inception_4a/1x1
I1230 19:25:18.476896 32546 net.cpp:113] Setting up inception_4a/1x1
I1230 19:25:18.480356 32546 net.cpp:120] Top shape: 80 192 14 14 (3010560)
I1230 19:25:18.480382 32546 layer_factory.hpp:74] Creating layer inception_4a/relu_1x1
I1230 19:25:18.480406 32546 net.cpp:84] Creating Layer inception_4a/relu_1x1
I1230 19:25:18.480414 32546 net.cpp:380] inception_4a/relu_1x1 <- inception_4a/1x1
I1230 19:25:18.480425 32546 net.cpp:327] inception_4a/relu_1x1 -> inception_4a/1x1 (in-place)
I1230 19:25:18.480437 32546 net.cpp:113] Setting up inception_4a/relu_1x1
I1230 19:25:18.480803 32546 net.cpp:120] Top shape: 80 192 14 14 (3010560)
I1230 19:25:18.480819 32546 layer_factory.hpp:74] Creating layer inception_4a/3x3_reduce
I1230 19:25:18.480830 32546 net.cpp:84] Creating Layer inception_4a/3x3_reduce
I1230 19:25:18.480847 32546 net.cpp:380] inception_4a/3x3_reduce <- pool3/3x3_s2_pool3/3x3_s2_0_split_1
I1230 19:25:18.480875 32546 net.cpp:338] inception_4a/3x3_reduce -> inception_4a/3x3_reduce
I1230 19:25:18.480890 32546 net.cpp:113] Setting up inception_4a/3x3_reduce
I1230 19:25:18.482131 32546 net.cpp:120] Top shape: 80 96 14 14 (1505280)
I1230 19:25:18.482158 32546 layer_factory.hpp:74] Creating layer inception_4a/relu_3x3_reduce
I1230 19:25:18.482168 32546 net.cpp:84] Creating Layer inception_4a/relu_3x3_reduce
I1230 19:25:18.482177 32546 net.cpp:380] inception_4a/relu_3x3_reduce <- inception_4a/3x3_reduce
I1230 19:25:18.482188 32546 net.cpp:327] inception_4a/relu_3x3_reduce -> inception_4a/3x3_reduce (in-place)
I1230 19:25:18.482199 32546 net.cpp:113] Setting up inception_4a/relu_3x3_reduce
I1230 19:25:18.482295 32546 net.cpp:120] Top shape: 80 96 14 14 (1505280)
I1230 19:25:18.482306 32546 layer_factory.hpp:74] Creating layer inception_4a/3x3
I1230 19:25:18.482329 32546 net.cpp:84] Creating Layer inception_4a/3x3
I1230 19:25:18.482337 32546 net.cpp:380] inception_4a/3x3 <- inception_4a/3x3_reduce
I1230 19:25:18.482348 32546 net.cpp:338] inception_4a/3x3 -> inception_4a/3x3
I1230 19:25:18.482362 32546 net.cpp:113] Setting up inception_4a/3x3
I1230 19:25:18.485364 32546 net.cpp:120] Top shape: 80 208 14 14 (3261440)
I1230 19:25:18.485386 32546 layer_factory.hpp:74] Creating layer inception_4a/relu_3x3
I1230 19:25:18.485409 32546 net.cpp:84] Creating Layer inception_4a/relu_3x3
I1230 19:25:18.485416 32546 net.cpp:380] inception_4a/relu_3x3 <- inception_4a/3x3
I1230 19:25:18.485426 32546 net.cpp:327] inception_4a/relu_3x3 -> inception_4a/3x3 (in-place)
I1230 19:25:18.485437 32546 net.cpp:113] Setting up inception_4a/relu_3x3
I1230 19:25:18.485532 32546 net.cpp:120] Top shape: 80 208 14 14 (3261440)
I1230 19:25:18.485543 32546 layer_factory.hpp:74] Creating layer inception_4a/5x5_reduce
I1230 19:25:18.485553 32546 net.cpp:84] Creating Layer inception_4a/5x5_reduce
I1230 19:25:18.485560 32546 net.cpp:380] inception_4a/5x5_reduce <- pool3/3x3_s2_pool3/3x3_s2_0_split_2
I1230 19:25:18.485574 32546 net.cpp:338] inception_4a/5x5_reduce -> inception_4a/5x5_reduce
I1230 19:25:18.485587 32546 net.cpp:113] Setting up inception_4a/5x5_reduce
I1230 19:25:18.486271 32546 net.cpp:120] Top shape: 80 16 14 14 (250880)
I1230 19:25:18.486291 32546 layer_factory.hpp:74] Creating layer inception_4a/relu_5x5_reduce
I1230 19:25:18.486301 32546 net.cpp:84] Creating Layer inception_4a/relu_5x5_reduce
I1230 19:25:18.486310 32546 net.cpp:380] inception_4a/relu_5x5_reduce <- inception_4a/5x5_reduce
I1230 19:25:18.486322 32546 net.cpp:327] inception_4a/relu_5x5_reduce -> inception_4a/5x5_reduce (in-place)
I1230 19:25:18.486335 32546 net.cpp:113] Setting up inception_4a/relu_5x5_reduce
I1230 19:25:18.486433 32546 net.cpp:120] Top shape: 80 16 14 14 (250880)
I1230 19:25:18.486443 32546 layer_factory.hpp:74] Creating layer inception_4a/5x5
I1230 19:25:18.486467 32546 net.cpp:84] Creating Layer inception_4a/5x5
I1230 19:25:18.486475 32546 net.cpp:380] inception_4a/5x5 <- inception_4a/5x5_reduce
I1230 19:25:18.486490 32546 net.cpp:338] inception_4a/5x5 -> inception_4a/5x5
I1230 19:25:18.486503 32546 net.cpp:113] Setting up inception_4a/5x5
I1230 19:25:18.487306 32546 net.cpp:120] Top shape: 80 48 14 14 (752640)
I1230 19:25:18.487334 32546 layer_factory.hpp:74] Creating layer inception_4a/relu_5x5
I1230 19:25:18.487347 32546 net.cpp:84] Creating Layer inception_4a/relu_5x5
I1230 19:25:18.487355 32546 net.cpp:380] inception_4a/relu_5x5 <- inception_4a/5x5
I1230 19:25:18.487365 32546 net.cpp:327] inception_4a/relu_5x5 -> inception_4a/5x5 (in-place)
I1230 19:25:18.487375 32546 net.cpp:113] Setting up inception_4a/relu_5x5
I1230 19:25:18.487743 32546 net.cpp:120] Top shape: 80 48 14 14 (752640)
I1230 19:25:18.487757 32546 layer_factory.hpp:74] Creating layer inception_4a/pool
I1230 19:25:18.487766 32546 layer_factory.cpp:56] CUDNN does not support padding or multiple tops. Using Caffe's own pooling layer.
I1230 19:25:18.487774 32546 net.cpp:84] Creating Layer inception_4a/pool
I1230 19:25:18.487788 32546 net.cpp:380] inception_4a/pool <- pool3/3x3_s2_pool3/3x3_s2_0_split_3
I1230 19:25:18.487809 32546 net.cpp:338] inception_4a/pool -> inception_4a/pool
I1230 19:25:18.487821 32546 net.cpp:113] Setting up inception_4a/pool
I1230 19:25:18.487838 32546 net.cpp:120] Top shape: 80 480 14 14 (7526400)
I1230 19:25:18.487845 32546 layer_factory.hpp:74] Creating layer inception_4a/pool_proj
I1230 19:25:18.487869 32546 net.cpp:84] Creating Layer inception_4a/pool_proj
I1230 19:25:18.487877 32546 net.cpp:380] inception_4a/pool_proj <- inception_4a/pool
I1230 19:25:18.487897 32546 net.cpp:338] inception_4a/pool_proj -> inception_4a/pool_proj
I1230 19:25:18.487910 32546 net.cpp:113] Setting up inception_4a/pool_proj
I1230 19:25:18.488840 32546 net.cpp:120] Top shape: 80 64 14 14 (1003520)
I1230 19:25:18.488859 32546 layer_factory.hpp:74] Creating layer inception_4a/relu_pool_proj
I1230 19:25:18.488873 32546 net.cpp:84] Creating Layer inception_4a/relu_pool_proj
I1230 19:25:18.488880 32546 net.cpp:380] inception_4a/relu_pool_proj <- inception_4a/pool_proj
I1230 19:25:18.488890 32546 net.cpp:327] inception_4a/relu_pool_proj -> inception_4a/pool_proj (in-place)
I1230 19:25:18.488900 32546 net.cpp:113] Setting up inception_4a/relu_pool_proj
I1230 19:25:18.489002 32546 net.cpp:120] Top shape: 80 64 14 14 (1003520)
I1230 19:25:18.489012 32546 layer_factory.hpp:74] Creating layer inception_4a/output
I1230 19:25:18.489022 32546 net.cpp:84] Creating Layer inception_4a/output
I1230 19:25:18.489028 32546 net.cpp:380] inception_4a/output <- inception_4a/1x1
I1230 19:25:18.489037 32546 net.cpp:380] inception_4a/output <- inception_4a/3x3
I1230 19:25:18.489045 32546 net.cpp:380] inception_4a/output <- inception_4a/5x5
I1230 19:25:18.489053 32546 net.cpp:380] inception_4a/output <- inception_4a/pool_proj
I1230 19:25:18.489076 32546 net.cpp:338] inception_4a/output -> inception_4a/output
I1230 19:25:18.489087 32546 net.cpp:113] Setting up inception_4a/output
I1230 19:25:18.489099 32546 net.cpp:120] Top shape: 80 512 14 14 (8028160)
I1230 19:25:18.489116 32546 layer_factory.hpp:74] Creating layer inception_4a/output_inception_4a/output_0_split
I1230 19:25:18.489126 32546 net.cpp:84] Creating Layer inception_4a/output_inception_4a/output_0_split
I1230 19:25:18.489133 32546 net.cpp:380] inception_4a/output_inception_4a/output_0_split <- inception_4a/output
I1230 19:25:18.489146 32546 net.cpp:338] inception_4a/output_inception_4a/output_0_split -> inception_4a/output_inception_4a/output_0_split_0
I1230 19:25:18.489158 32546 net.cpp:338] inception_4a/output_inception_4a/output_0_split -> inception_4a/output_inception_4a/output_0_split_1
I1230 19:25:18.489169 32546 net.cpp:338] inception_4a/output_inception_4a/output_0_split -> inception_4a/output_inception_4a/output_0_split_2
I1230 19:25:18.489181 32546 net.cpp:338] inception_4a/output_inception_4a/output_0_split -> inception_4a/output_inception_4a/output_0_split_3
I1230 19:25:18.489192 32546 net.cpp:338] inception_4a/output_inception_4a/output_0_split -> inception_4a/output_inception_4a/output_0_split_4
I1230 19:25:18.489202 32546 net.cpp:113] Setting up inception_4a/output_inception_4a/output_0_split
I1230 19:25:18.489214 32546 net.cpp:120] Top shape: 80 512 14 14 (8028160)
I1230 19:25:18.489223 32546 net.cpp:120] Top shape: 80 512 14 14 (8028160)
I1230 19:25:18.489230 32546 net.cpp:120] Top shape: 80 512 14 14 (8028160)
I1230 19:25:18.489238 32546 net.cpp:120] Top shape: 80 512 14 14 (8028160)
I1230 19:25:18.489251 32546 net.cpp:120] Top shape: 80 512 14 14 (8028160)
I1230 19:25:18.489259 32546 layer_factory.hpp:74] Creating layer loss1/ave_pool
I1230 19:25:18.489275 32546 net.cpp:84] Creating Layer loss1/ave_pool
I1230 19:25:18.489296 32546 net.cpp:380] loss1/ave_pool <- inception_4a/output_inception_4a/output_0_split_0
I1230 19:25:18.489306 32546 net.cpp:338] loss1/ave_pool -> loss1/ave_pool
I1230 19:25:18.489317 32546 net.cpp:113] Setting up loss1/ave_pool
I1230 19:25:18.489418 32546 net.cpp:120] Top shape: 80 512 4 4 (655360)
I1230 19:25:18.489439 32546 layer_factory.hpp:74] Creating layer loss1/conv
I1230 19:25:18.489470 32546 net.cpp:84] Creating Layer loss1/conv
I1230 19:25:18.489480 32546 net.cpp:380] loss1/conv <- loss1/ave_pool
I1230 19:25:18.489495 32546 net.cpp:338] loss1/conv -> loss1/conv
I1230 19:25:18.489507 32546 net.cpp:113] Setting up loss1/conv
I1230 19:25:18.490910 32546 net.cpp:120] Top shape: 80 128 4 4 (163840)
I1230 19:25:18.490929 32546 layer_factory.hpp:74] Creating layer loss1/relu_conv
I1230 19:25:18.490942 32546 net.cpp:84] Creating Layer loss1/relu_conv
I1230 19:25:18.490950 32546 net.cpp:380] loss1/relu_conv <- loss1/conv
I1230 19:25:18.490960 32546 net.cpp:327] loss1/relu_conv -> loss1/conv (in-place)
I1230 19:25:18.490970 32546 net.cpp:113] Setting up loss1/relu_conv
I1230 19:25:18.491082 32546 net.cpp:120] Top shape: 80 128 4 4 (163840)
I1230 19:25:18.491093 32546 layer_factory.hpp:74] Creating layer loss1/fc
I1230 19:25:18.491120 32546 net.cpp:84] Creating Layer loss1/fc
I1230 19:25:18.491128 32546 net.cpp:380] loss1/fc <- loss1/conv
I1230 19:25:18.491145 32546 net.cpp:338] loss1/fc -> loss1/fc
I1230 19:25:18.491163 32546 net.cpp:113] Setting up loss1/fc
I1230 19:25:18.613041 32546 net.cpp:120] Top shape: 80 1024 (81920)
I1230 19:25:18.613096 32546 layer_factory.hpp:74] Creating layer loss1/relu_fc
I1230 19:25:18.613112 32546 net.cpp:84] Creating Layer loss1/relu_fc
I1230 19:25:18.613121 32546 net.cpp:380] loss1/relu_fc <- loss1/fc
I1230 19:25:18.613138 32546 net.cpp:327] loss1/relu_fc -> loss1/fc (in-place)
I1230 19:25:18.613153 32546 net.cpp:113] Setting up loss1/relu_fc
I1230 19:25:18.613670 32546 net.cpp:120] Top shape: 80 1024 (81920)
I1230 19:25:18.613695 32546 layer_factory.hpp:74] Creating layer loss1/drop_fc
I1230 19:25:18.613736 32546 net.cpp:84] Creating Layer loss1/drop_fc
I1230 19:25:18.613746 32546 net.cpp:380] loss1/drop_fc <- loss1/fc
I1230 19:25:18.613757 32546 net.cpp:327] loss1/drop_fc -> loss1/fc (in-place)
I1230 19:25:18.613772 32546 net.cpp:113] Setting up loss1/drop_fc
I1230 19:25:18.613787 32546 net.cpp:120] Top shape: 80 1024 (81920)
I1230 19:25:18.613795 32546 layer_factory.hpp:74] Creating layer loss1/classifier_kaggle
I1230 19:25:18.613809 32546 net.cpp:84] Creating Layer loss1/classifier_kaggle
I1230 19:25:18.613816 32546 net.cpp:380] loss1/classifier_kaggle <- loss1/fc
I1230 19:25:18.613829 32546 net.cpp:338] loss1/classifier_kaggle -> loss1/classifier_kaggle
I1230 19:25:18.613843 32546 net.cpp:113] Setting up loss1/classifier_kaggle
I1230 19:25:18.661383 32546 net.cpp:120] Top shape: 80 447 (35760)
I1230 19:25:18.661439 32546 layer_factory.hpp:74] Creating layer loss1/loss
I1230 19:25:18.661458 32546 net.cpp:84] Creating Layer loss1/loss
I1230 19:25:18.661469 32546 net.cpp:380] loss1/loss <- loss1/classifier_kaggle
I1230 19:25:18.661485 32546 net.cpp:380] loss1/loss <- label_data_1_split_0
I1230 19:25:18.661505 32546 net.cpp:338] loss1/loss -> loss1/loss1
I1230 19:25:18.661530 32546 net.cpp:113] Setting up loss1/loss
I1230 19:25:18.661553 32546 layer_factory.hpp:74] Creating layer loss1/loss
I1230 19:25:18.661849 32546 net.cpp:120] Top shape: (1)
I1230 19:25:18.661860 32546 net.cpp:122]     with loss weight 0.3
I1230 19:25:18.661900 32546 layer_factory.hpp:74] Creating layer inception_4b/1x1
I1230 19:25:18.661921 32546 net.cpp:84] Creating Layer inception_4b/1x1
I1230 19:25:18.661929 32546 net.cpp:380] inception_4b/1x1 <- inception_4a/output_inception_4a/output_0_split_1
I1230 19:25:18.661942 32546 net.cpp:338] inception_4b/1x1 -> inception_4b/1x1
I1230 19:25:18.661954 32546 net.cpp:113] Setting up inception_4b/1x1
I1230 19:25:18.663846 32546 net.cpp:120] Top shape: 80 160 14 14 (2508800)
I1230 19:25:18.663868 32546 layer_factory.hpp:74] Creating layer inception_4b/relu_1x1
I1230 19:25:18.663888 32546 net.cpp:84] Creating Layer inception_4b/relu_1x1
I1230 19:25:18.663897 32546 net.cpp:380] inception_4b/relu_1x1 <- inception_4b/1x1
I1230 19:25:18.663910 32546 net.cpp:327] inception_4b/relu_1x1 -> inception_4b/1x1 (in-place)
I1230 19:25:18.663923 32546 net.cpp:113] Setting up inception_4b/relu_1x1
I1230 19:25:18.664036 32546 net.cpp:120] Top shape: 80 160 14 14 (2508800)
I1230 19:25:18.664065 32546 layer_factory.hpp:74] Creating layer inception_4b/3x3_reduce
I1230 19:25:18.664077 32546 net.cpp:84] Creating Layer inception_4b/3x3_reduce
I1230 19:25:18.664084 32546 net.cpp:380] inception_4b/3x3_reduce <- inception_4a/output_inception_4a/output_0_split_2
I1230 19:25:18.664098 32546 net.cpp:338] inception_4b/3x3_reduce -> inception_4b/3x3_reduce
I1230 19:25:18.664110 32546 net.cpp:113] Setting up inception_4b/3x3_reduce
I1230 19:25:18.701469 32546 net.cpp:120] Top shape: 80 112 14 14 (1756160)
I1230 19:25:18.701506 32546 layer_factory.hpp:74] Creating layer inception_4b/relu_3x3_reduce
I1230 19:25:18.701519 32546 net.cpp:84] Creating Layer inception_4b/relu_3x3_reduce
I1230 19:25:18.701529 32546 net.cpp:380] inception_4b/relu_3x3_reduce <- inception_4b/3x3_reduce
I1230 19:25:18.701540 32546 net.cpp:327] inception_4b/relu_3x3_reduce -> inception_4b/3x3_reduce (in-place)
I1230 19:25:18.701553 32546 net.cpp:113] Setting up inception_4b/relu_3x3_reduce
I1230 19:25:18.701648 32546 net.cpp:120] Top shape: 80 112 14 14 (1756160)
I1230 19:25:18.701669 32546 layer_factory.hpp:74] Creating layer inception_4b/3x3
I1230 19:25:18.701689 32546 net.cpp:84] Creating Layer inception_4b/3x3
I1230 19:25:18.701697 32546 net.cpp:380] inception_4b/3x3 <- inception_4b/3x3_reduce
I1230 19:25:18.701710 32546 net.cpp:338] inception_4b/3x3 -> inception_4b/3x3
I1230 19:25:18.701725 32546 net.cpp:113] Setting up inception_4b/3x3
I1230 19:25:18.705255 32546 net.cpp:120] Top shape: 80 224 14 14 (3512320)
I1230 19:25:18.705278 32546 layer_factory.hpp:74] Creating layer inception_4b/relu_3x3
I1230 19:25:18.705288 32546 net.cpp:84] Creating Layer inception_4b/relu_3x3
I1230 19:25:18.705296 32546 net.cpp:380] inception_4b/relu_3x3 <- inception_4b/3x3
I1230 19:25:18.705309 32546 net.cpp:327] inception_4b/relu_3x3 -> inception_4b/3x3 (in-place)
I1230 19:25:18.705320 32546 net.cpp:113] Setting up inception_4b/relu_3x3
I1230 19:25:18.705660 32546 net.cpp:120] Top shape: 80 224 14 14 (3512320)
I1230 19:25:18.705675 32546 layer_factory.hpp:74] Creating layer inception_4b/5x5_reduce
I1230 19:25:18.705689 32546 net.cpp:84] Creating Layer inception_4b/5x5_reduce
I1230 19:25:18.705698 32546 net.cpp:380] inception_4b/5x5_reduce <- inception_4a/output_inception_4a/output_0_split_3
I1230 19:25:18.705709 32546 net.cpp:338] inception_4b/5x5_reduce -> inception_4b/5x5_reduce
I1230 19:25:18.705723 32546 net.cpp:113] Setting up inception_4b/5x5_reduce
I1230 19:25:18.706507 32546 net.cpp:120] Top shape: 80 24 14 14 (376320)
I1230 19:25:18.706529 32546 layer_factory.hpp:74] Creating layer inception_4b/relu_5x5_reduce
I1230 19:25:18.706550 32546 net.cpp:84] Creating Layer inception_4b/relu_5x5_reduce
I1230 19:25:18.706559 32546 net.cpp:380] inception_4b/relu_5x5_reduce <- inception_4b/5x5_reduce
I1230 19:25:18.706569 32546 net.cpp:327] inception_4b/relu_5x5_reduce -> inception_4b/5x5_reduce (in-place)
I1230 19:25:18.706580 32546 net.cpp:113] Setting up inception_4b/relu_5x5_reduce
I1230 19:25:18.706677 32546 net.cpp:120] Top shape: 80 24 14 14 (376320)
I1230 19:25:18.706691 32546 layer_factory.hpp:74] Creating layer inception_4b/5x5
I1230 19:25:18.706703 32546 net.cpp:84] Creating Layer inception_4b/5x5
I1230 19:25:18.706712 32546 net.cpp:380] inception_4b/5x5 <- inception_4b/5x5_reduce
I1230 19:25:18.706722 32546 net.cpp:338] inception_4b/5x5 -> inception_4b/5x5
I1230 19:25:18.706735 32546 net.cpp:113] Setting up inception_4b/5x5
I1230 19:25:18.707872 32546 net.cpp:120] Top shape: 80 64 14 14 (1003520)
I1230 19:25:18.707902 32546 layer_factory.hpp:74] Creating layer inception_4b/relu_5x5
I1230 19:25:18.707913 32546 net.cpp:84] Creating Layer inception_4b/relu_5x5
I1230 19:25:18.707921 32546 net.cpp:380] inception_4b/relu_5x5 <- inception_4b/5x5
I1230 19:25:18.707932 32546 net.cpp:327] inception_4b/relu_5x5 -> inception_4b/5x5 (in-place)
I1230 19:25:18.707942 32546 net.cpp:113] Setting up inception_4b/relu_5x5
I1230 19:25:18.708037 32546 net.cpp:120] Top shape: 80 64 14 14 (1003520)
I1230 19:25:18.708058 32546 layer_factory.hpp:74] Creating layer inception_4b/pool
I1230 19:25:18.708081 32546 layer_factory.cpp:56] CUDNN does not support padding or multiple tops. Using Caffe's own pooling layer.
I1230 19:25:18.708091 32546 net.cpp:84] Creating Layer inception_4b/pool
I1230 19:25:18.708098 32546 net.cpp:380] inception_4b/pool <- inception_4a/output_inception_4a/output_0_split_4
I1230 19:25:18.708112 32546 net.cpp:338] inception_4b/pool -> inception_4b/pool
I1230 19:25:18.708137 32546 net.cpp:113] Setting up inception_4b/pool
I1230 19:25:18.708153 32546 net.cpp:120] Top shape: 80 512 14 14 (8028160)
I1230 19:25:18.708160 32546 layer_factory.hpp:74] Creating layer inception_4b/pool_proj
I1230 19:25:18.708179 32546 net.cpp:84] Creating Layer inception_4b/pool_proj
I1230 19:25:18.708187 32546 net.cpp:380] inception_4b/pool_proj <- inception_4b/pool
I1230 19:25:18.708202 32546 net.cpp:338] inception_4b/pool_proj -> inception_4b/pool_proj
I1230 19:25:18.708214 32546 net.cpp:113] Setting up inception_4b/pool_proj
I1230 19:25:18.712720 32546 net.cpp:120] Top shape: 80 64 14 14 (1003520)
I1230 19:25:18.712743 32546 layer_factory.hpp:74] Creating layer inception_4b/relu_pool_proj
I1230 19:25:18.712754 32546 net.cpp:84] Creating Layer inception_4b/relu_pool_proj
I1230 19:25:18.712764 32546 net.cpp:380] inception_4b/relu_pool_proj <- inception_4b/pool_proj
I1230 19:25:18.712774 32546 net.cpp:327] inception_4b/relu_pool_proj -> inception_4b/pool_proj (in-place)
I1230 19:25:18.712785 32546 net.cpp:113] Setting up inception_4b/relu_pool_proj
I1230 19:25:18.713151 32546 net.cpp:120] Top shape: 80 64 14 14 (1003520)
I1230 19:25:18.713176 32546 layer_factory.hpp:74] Creating layer inception_4b/output
I1230 19:25:18.713187 32546 net.cpp:84] Creating Layer inception_4b/output
I1230 19:25:18.713196 32546 net.cpp:380] inception_4b/output <- inception_4b/1x1
I1230 19:25:18.713206 32546 net.cpp:380] inception_4b/output <- inception_4b/3x3
I1230 19:25:18.713214 32546 net.cpp:380] inception_4b/output <- inception_4b/5x5
I1230 19:25:18.713222 32546 net.cpp:380] inception_4b/output <- inception_4b/pool_proj
I1230 19:25:18.713232 32546 net.cpp:338] inception_4b/output -> inception_4b/output
I1230 19:25:18.713244 32546 net.cpp:113] Setting up inception_4b/output
I1230 19:25:18.713258 32546 net.cpp:120] Top shape: 80 512 14 14 (8028160)
I1230 19:25:18.713264 32546 layer_factory.hpp:74] Creating layer inception_4b/output_inception_4b/output_0_split
I1230 19:25:18.713277 32546 net.cpp:84] Creating Layer inception_4b/output_inception_4b/output_0_split
I1230 19:25:18.713284 32546 net.cpp:380] inception_4b/output_inception_4b/output_0_split <- inception_4b/output
I1230 19:25:18.713294 32546 net.cpp:338] inception_4b/output_inception_4b/output_0_split -> inception_4b/output_inception_4b/output_0_split_0
I1230 19:25:18.713305 32546 net.cpp:338] inception_4b/output_inception_4b/output_0_split -> inception_4b/output_inception_4b/output_0_split_1
I1230 19:25:18.713316 32546 net.cpp:338] inception_4b/output_inception_4b/output_0_split -> inception_4b/output_inception_4b/output_0_split_2
I1230 19:25:18.713327 32546 net.cpp:338] inception_4b/output_inception_4b/output_0_split -> inception_4b/output_inception_4b/output_0_split_3
I1230 19:25:18.713340 32546 net.cpp:113] Setting up inception_4b/output_inception_4b/output_0_split
I1230 19:25:18.713351 32546 net.cpp:120] Top shape: 80 512 14 14 (8028160)
I1230 19:25:18.713361 32546 net.cpp:120] Top shape: 80 512 14 14 (8028160)
I1230 19:25:18.713368 32546 net.cpp:120] Top shape: 80 512 14 14 (8028160)
I1230 19:25:18.713376 32546 net.cpp:120] Top shape: 80 512 14 14 (8028160)
I1230 19:25:18.713383 32546 layer_factory.hpp:74] Creating layer inception_4c/1x1
I1230 19:25:18.713402 32546 net.cpp:84] Creating Layer inception_4c/1x1
I1230 19:25:18.713409 32546 net.cpp:380] inception_4c/1x1 <- inception_4b/output_inception_4b/output_0_split_0
I1230 19:25:18.713423 32546 net.cpp:338] inception_4c/1x1 -> inception_4c/1x1
I1230 19:25:18.713433 32546 net.cpp:113] Setting up inception_4c/1x1
I1230 19:25:18.714857 32546 net.cpp:120] Top shape: 80 128 14 14 (2007040)
I1230 19:25:18.714891 32546 layer_factory.hpp:74] Creating layer inception_4c/relu_1x1
I1230 19:25:18.714902 32546 net.cpp:84] Creating Layer inception_4c/relu_1x1
I1230 19:25:18.714910 32546 net.cpp:380] inception_4c/relu_1x1 <- inception_4c/1x1
I1230 19:25:18.714920 32546 net.cpp:327] inception_4c/relu_1x1 -> inception_4c/1x1 (in-place)
I1230 19:25:18.714931 32546 net.cpp:113] Setting up inception_4c/relu_1x1
I1230 19:25:18.715035 32546 net.cpp:120] Top shape: 80 128 14 14 (2007040)
I1230 19:25:18.715044 32546 layer_factory.hpp:74] Creating layer inception_4c/3x3_reduce
I1230 19:25:18.715064 32546 net.cpp:84] Creating Layer inception_4c/3x3_reduce
I1230 19:25:18.715072 32546 net.cpp:380] inception_4c/3x3_reduce <- inception_4b/output_inception_4b/output_0_split_1
I1230 19:25:18.715085 32546 net.cpp:338] inception_4c/3x3_reduce -> inception_4c/3x3_reduce
I1230 19:25:18.715098 32546 net.cpp:113] Setting up inception_4c/3x3_reduce
I1230 19:25:18.716526 32546 net.cpp:120] Top shape: 80 128 14 14 (2007040)
I1230 19:25:18.716545 32546 layer_factory.hpp:74] Creating layer inception_4c/relu_3x3_reduce
I1230 19:25:18.716555 32546 net.cpp:84] Creating Layer inception_4c/relu_3x3_reduce
I1230 19:25:18.716563 32546 net.cpp:380] inception_4c/relu_3x3_reduce <- inception_4c/3x3_reduce
I1230 19:25:18.716573 32546 net.cpp:327] inception_4c/relu_3x3_reduce -> inception_4c/3x3_reduce (in-place)
I1230 19:25:18.716584 32546 net.cpp:113] Setting up inception_4c/relu_3x3_reduce
I1230 19:25:18.716684 32546 net.cpp:120] Top shape: 80 128 14 14 (2007040)
I1230 19:25:18.716693 32546 layer_factory.hpp:74] Creating layer inception_4c/3x3
I1230 19:25:18.716712 32546 net.cpp:84] Creating Layer inception_4c/3x3
I1230 19:25:18.716720 32546 net.cpp:380] inception_4c/3x3 <- inception_4c/3x3_reduce
I1230 19:25:18.716733 32546 net.cpp:338] inception_4c/3x3 -> inception_4c/3x3
I1230 19:25:18.716745 32546 net.cpp:113] Setting up inception_4c/3x3
I1230 19:25:18.721108 32546 net.cpp:120] Top shape: 80 256 14 14 (4014080)
I1230 19:25:18.721145 32546 layer_factory.hpp:74] Creating layer inception_4c/relu_3x3
I1230 19:25:18.721158 32546 net.cpp:84] Creating Layer inception_4c/relu_3x3
I1230 19:25:18.721165 32546 net.cpp:380] inception_4c/relu_3x3 <- inception_4c/3x3
I1230 19:25:18.721175 32546 net.cpp:327] inception_4c/relu_3x3 -> inception_4c/3x3 (in-place)
I1230 19:25:18.721186 32546 net.cpp:113] Setting up inception_4c/relu_3x3
I1230 19:25:18.721288 32546 net.cpp:120] Top shape: 80 256 14 14 (4014080)
I1230 19:25:18.721298 32546 layer_factory.hpp:74] Creating layer inception_4c/5x5_reduce
I1230 19:25:18.721312 32546 net.cpp:84] Creating Layer inception_4c/5x5_reduce
I1230 19:25:18.721319 32546 net.cpp:380] inception_4c/5x5_reduce <- inception_4b/output_inception_4b/output_0_split_2
I1230 19:25:18.721333 32546 net.cpp:338] inception_4c/5x5_reduce -> inception_4c/5x5_reduce
I1230 19:25:18.721344 32546 net.cpp:113] Setting up inception_4c/5x5_reduce
I1230 19:25:18.722080 32546 net.cpp:120] Top shape: 80 24 14 14 (376320)
I1230 19:25:18.722107 32546 layer_factory.hpp:74] Creating layer inception_4c/relu_5x5_reduce
I1230 19:25:18.722128 32546 net.cpp:84] Creating Layer inception_4c/relu_5x5_reduce
I1230 19:25:18.722136 32546 net.cpp:380] inception_4c/relu_5x5_reduce <- inception_4c/5x5_reduce
I1230 19:25:18.722147 32546 net.cpp:327] inception_4c/relu_5x5_reduce -> inception_4c/5x5_reduce (in-place)
I1230 19:25:18.722157 32546 net.cpp:113] Setting up inception_4c/relu_5x5_reduce
I1230 19:25:18.722504 32546 net.cpp:120] Top shape: 80 24 14 14 (376320)
I1230 19:25:18.722518 32546 layer_factory.hpp:74] Creating layer inception_4c/5x5
I1230 19:25:18.722532 32546 net.cpp:84] Creating Layer inception_4c/5x5
I1230 19:25:18.722540 32546 net.cpp:380] inception_4c/5x5 <- inception_4c/5x5_reduce
I1230 19:25:18.722551 32546 net.cpp:338] inception_4c/5x5 -> inception_4c/5x5
I1230 19:25:18.722563 32546 net.cpp:113] Setting up inception_4c/5x5
I1230 19:25:18.723641 32546 net.cpp:120] Top shape: 80 64 14 14 (1003520)
I1230 19:25:18.723670 32546 layer_factory.hpp:74] Creating layer inception_4c/relu_5x5
I1230 19:25:18.723690 32546 net.cpp:84] Creating Layer inception_4c/relu_5x5
I1230 19:25:18.723698 32546 net.cpp:380] inception_4c/relu_5x5 <- inception_4c/5x5
I1230 19:25:18.723711 32546 net.cpp:327] inception_4c/relu_5x5 -> inception_4c/5x5 (in-place)
I1230 19:25:18.723721 32546 net.cpp:113] Setting up inception_4c/relu_5x5
I1230 19:25:18.723824 32546 net.cpp:120] Top shape: 80 64 14 14 (1003520)
I1230 19:25:18.723834 32546 layer_factory.hpp:74] Creating layer inception_4c/pool
I1230 19:25:18.723841 32546 layer_factory.cpp:56] CUDNN does not support padding or multiple tops. Using Caffe's own pooling layer.
I1230 19:25:18.723850 32546 net.cpp:84] Creating Layer inception_4c/pool
I1230 19:25:18.723858 32546 net.cpp:380] inception_4c/pool <- inception_4b/output_inception_4b/output_0_split_3
I1230 19:25:18.723868 32546 net.cpp:338] inception_4c/pool -> inception_4c/pool
I1230 19:25:18.723880 32546 net.cpp:113] Setting up inception_4c/pool
I1230 19:25:18.723892 32546 net.cpp:120] Top shape: 80 512 14 14 (8028160)
I1230 19:25:18.723908 32546 layer_factory.hpp:74] Creating layer inception_4c/pool_proj
I1230 19:25:18.723927 32546 net.cpp:84] Creating Layer inception_4c/pool_proj
I1230 19:25:18.723935 32546 net.cpp:380] inception_4c/pool_proj <- inception_4c/pool
I1230 19:25:18.723948 32546 net.cpp:338] inception_4c/pool_proj -> inception_4c/pool_proj
I1230 19:25:18.723959 32546 net.cpp:113] Setting up inception_4c/pool_proj
I1230 19:25:18.724964 32546 net.cpp:120] Top shape: 80 64 14 14 (1003520)
I1230 19:25:18.724984 32546 layer_factory.hpp:74] Creating layer inception_4c/relu_pool_proj
I1230 19:25:18.724994 32546 net.cpp:84] Creating Layer inception_4c/relu_pool_proj
I1230 19:25:18.725005 32546 net.cpp:380] inception_4c/relu_pool_proj <- inception_4c/pool_proj
I1230 19:25:18.725014 32546 net.cpp:327] inception_4c/relu_pool_proj -> inception_4c/pool_proj (in-place)
I1230 19:25:18.725026 32546 net.cpp:113] Setting up inception_4c/relu_pool_proj
I1230 19:25:18.738636 32546 net.cpp:120] Top shape: 80 64 14 14 (1003520)
I1230 19:25:18.738658 32546 layer_factory.hpp:74] Creating layer inception_4c/output
I1230 19:25:18.738673 32546 net.cpp:84] Creating Layer inception_4c/output
I1230 19:25:18.738682 32546 net.cpp:380] inception_4c/output <- inception_4c/1x1
I1230 19:25:18.738693 32546 net.cpp:380] inception_4c/output <- inception_4c/3x3
I1230 19:25:18.738701 32546 net.cpp:380] inception_4c/output <- inception_4c/5x5
I1230 19:25:18.738710 32546 net.cpp:380] inception_4c/output <- inception_4c/pool_proj
I1230 19:25:18.738719 32546 net.cpp:338] inception_4c/output -> inception_4c/output
I1230 19:25:18.738733 32546 net.cpp:113] Setting up inception_4c/output
I1230 19:25:18.738745 32546 net.cpp:120] Top shape: 80 512 14 14 (8028160)
I1230 19:25:18.738752 32546 layer_factory.hpp:74] Creating layer inception_4c/output_inception_4c/output_0_split
I1230 19:25:18.738765 32546 net.cpp:84] Creating Layer inception_4c/output_inception_4c/output_0_split
I1230 19:25:18.738773 32546 net.cpp:380] inception_4c/output_inception_4c/output_0_split <- inception_4c/output
I1230 19:25:18.738782 32546 net.cpp:338] inception_4c/output_inception_4c/output_0_split -> inception_4c/output_inception_4c/output_0_split_0
I1230 19:25:18.738795 32546 net.cpp:338] inception_4c/output_inception_4c/output_0_split -> inception_4c/output_inception_4c/output_0_split_1
I1230 19:25:18.738806 32546 net.cpp:338] inception_4c/output_inception_4c/output_0_split -> inception_4c/output_inception_4c/output_0_split_2
I1230 19:25:18.738816 32546 net.cpp:338] inception_4c/output_inception_4c/output_0_split -> inception_4c/output_inception_4c/output_0_split_3
I1230 19:25:18.738826 32546 net.cpp:113] Setting up inception_4c/output_inception_4c/output_0_split
I1230 19:25:18.738838 32546 net.cpp:120] Top shape: 80 512 14 14 (8028160)
I1230 19:25:18.738847 32546 net.cpp:120] Top shape: 80 512 14 14 (8028160)
I1230 19:25:18.738854 32546 net.cpp:120] Top shape: 80 512 14 14 (8028160)
I1230 19:25:18.738870 32546 net.cpp:120] Top shape: 80 512 14 14 (8028160)
I1230 19:25:18.738888 32546 layer_factory.hpp:74] Creating layer inception_4d/1x1
I1230 19:25:18.738911 32546 net.cpp:84] Creating Layer inception_4d/1x1
I1230 19:25:18.738919 32546 net.cpp:380] inception_4d/1x1 <- inception_4c/output_inception_4c/output_0_split_0
I1230 19:25:18.738932 32546 net.cpp:338] inception_4d/1x1 -> inception_4d/1x1
I1230 19:25:18.738945 32546 net.cpp:113] Setting up inception_4d/1x1
I1230 19:25:18.740313 32546 net.cpp:120] Top shape: 80 112 14 14 (1756160)
I1230 19:25:18.740341 32546 layer_factory.hpp:74] Creating layer inception_4d/relu_1x1
I1230 19:25:18.740355 32546 net.cpp:84] Creating Layer inception_4d/relu_1x1
I1230 19:25:18.740363 32546 net.cpp:380] inception_4d/relu_1x1 <- inception_4d/1x1
I1230 19:25:18.740373 32546 net.cpp:327] inception_4d/relu_1x1 -> inception_4d/1x1 (in-place)
I1230 19:25:18.740384 32546 net.cpp:113] Setting up inception_4d/relu_1x1
I1230 19:25:18.740483 32546 net.cpp:120] Top shape: 80 112 14 14 (1756160)
I1230 19:25:18.740492 32546 layer_factory.hpp:74] Creating layer inception_4d/3x3_reduce
I1230 19:25:18.740506 32546 net.cpp:84] Creating Layer inception_4d/3x3_reduce
I1230 19:25:18.740514 32546 net.cpp:380] inception_4d/3x3_reduce <- inception_4c/output_inception_4c/output_0_split_1
I1230 19:25:18.740527 32546 net.cpp:338] inception_4d/3x3_reduce -> inception_4d/3x3_reduce
I1230 19:25:18.740540 32546 net.cpp:113] Setting up inception_4d/3x3_reduce
I1230 19:25:18.742084 32546 net.cpp:120] Top shape: 80 144 14 14 (2257920)
I1230 19:25:18.742106 32546 layer_factory.hpp:74] Creating layer inception_4d/relu_3x3_reduce
I1230 19:25:18.742126 32546 net.cpp:84] Creating Layer inception_4d/relu_3x3_reduce
I1230 19:25:18.742136 32546 net.cpp:380] inception_4d/relu_3x3_reduce <- inception_4d/3x3_reduce
I1230 19:25:18.742146 32546 net.cpp:327] inception_4d/relu_3x3_reduce -> inception_4d/3x3_reduce (in-place)
I1230 19:25:18.742156 32546 net.cpp:113] Setting up inception_4d/relu_3x3_reduce
I1230 19:25:18.747408 32546 net.cpp:120] Top shape: 80 144 14 14 (2257920)
I1230 19:25:18.747444 32546 layer_factory.hpp:74] Creating layer inception_4d/3x3
I1230 19:25:18.747462 32546 net.cpp:84] Creating Layer inception_4d/3x3
I1230 19:25:18.747470 32546 net.cpp:380] inception_4d/3x3 <- inception_4d/3x3_reduce
I1230 19:25:18.747481 32546 net.cpp:338] inception_4d/3x3 -> inception_4d/3x3
I1230 19:25:18.747495 32546 net.cpp:113] Setting up inception_4d/3x3
I1230 19:25:18.752387 32546 net.cpp:120] Top shape: 80 288 14 14 (4515840)
I1230 19:25:18.752424 32546 layer_factory.hpp:74] Creating layer inception_4d/relu_3x3
I1230 19:25:18.752436 32546 net.cpp:84] Creating Layer inception_4d/relu_3x3
I1230 19:25:18.752444 32546 net.cpp:380] inception_4d/relu_3x3 <- inception_4d/3x3
I1230 19:25:18.752454 32546 net.cpp:327] inception_4d/relu_3x3 -> inception_4d/3x3 (in-place)
I1230 19:25:18.752466 32546 net.cpp:113] Setting up inception_4d/relu_3x3
I1230 19:25:18.752537 32546 net.cpp:120] Top shape: 80 288 14 14 (4515840)
I1230 19:25:18.752544 32546 layer_factory.hpp:74] Creating layer inception_4d/5x5_reduce
I1230 19:25:18.752557 32546 net.cpp:84] Creating Layer inception_4d/5x5_reduce
I1230 19:25:18.752563 32546 net.cpp:380] inception_4d/5x5_reduce <- inception_4c/output_inception_4c/output_0_split_2
I1230 19:25:18.752573 32546 net.cpp:338] inception_4d/5x5_reduce -> inception_4d/5x5_reduce
I1230 19:25:18.752583 32546 net.cpp:113] Setting up inception_4d/5x5_reduce
I1230 19:25:18.753269 32546 net.cpp:120] Top shape: 80 32 14 14 (501760)
I1230 19:25:18.753286 32546 layer_factory.hpp:74] Creating layer inception_4d/relu_5x5_reduce
I1230 19:25:18.753295 32546 net.cpp:84] Creating Layer inception_4d/relu_5x5_reduce
I1230 19:25:18.753301 32546 net.cpp:380] inception_4d/relu_5x5_reduce <- inception_4d/5x5_reduce
I1230 19:25:18.753310 32546 net.cpp:327] inception_4d/relu_5x5_reduce -> inception_4d/5x5_reduce (in-place)
I1230 19:25:18.753319 32546 net.cpp:113] Setting up inception_4d/relu_5x5_reduce
I1230 19:25:18.753386 32546 net.cpp:120] Top shape: 80 32 14 14 (501760)
I1230 19:25:18.753401 32546 layer_factory.hpp:74] Creating layer inception_4d/5x5
I1230 19:25:18.753427 32546 net.cpp:84] Creating Layer inception_4d/5x5
I1230 19:25:18.753433 32546 net.cpp:380] inception_4d/5x5 <- inception_4d/5x5_reduce
I1230 19:25:18.753440 32546 net.cpp:338] inception_4d/5x5 -> inception_4d/5x5
I1230 19:25:18.753448 32546 net.cpp:113] Setting up inception_4d/5x5
I1230 19:25:18.754456 32546 net.cpp:120] Top shape: 80 64 14 14 (1003520)
I1230 19:25:18.754472 32546 layer_factory.hpp:74] Creating layer inception_4d/relu_5x5
I1230 19:25:18.754478 32546 net.cpp:84] Creating Layer inception_4d/relu_5x5
I1230 19:25:18.754483 32546 net.cpp:380] inception_4d/relu_5x5 <- inception_4d/5x5
I1230 19:25:18.754492 32546 net.cpp:327] inception_4d/relu_5x5 -> inception_4d/5x5 (in-place)
I1230 19:25:18.754499 32546 net.cpp:113] Setting up inception_4d/relu_5x5
I1230 19:25:18.754567 32546 net.cpp:120] Top shape: 80 64 14 14 (1003520)
I1230 19:25:18.754575 32546 layer_factory.hpp:74] Creating layer inception_4d/pool
I1230 19:25:18.754582 32546 layer_factory.cpp:56] CUDNN does not support padding or multiple tops. Using Caffe's own pooling layer.
I1230 19:25:18.754588 32546 net.cpp:84] Creating Layer inception_4d/pool
I1230 19:25:18.754593 32546 net.cpp:380] inception_4d/pool <- inception_4c/output_inception_4c/output_0_split_3
I1230 19:25:18.754601 32546 net.cpp:338] inception_4d/pool -> inception_4d/pool
I1230 19:25:18.754607 32546 net.cpp:113] Setting up inception_4d/pool
I1230 19:25:18.754617 32546 net.cpp:120] Top shape: 80 512 14 14 (8028160)
I1230 19:25:18.754621 32546 layer_factory.hpp:74] Creating layer inception_4d/pool_proj
I1230 19:25:18.754631 32546 net.cpp:84] Creating Layer inception_4d/pool_proj
I1230 19:25:18.754637 32546 net.cpp:380] inception_4d/pool_proj <- inception_4d/pool
I1230 19:25:18.754644 32546 net.cpp:338] inception_4d/pool_proj -> inception_4d/pool_proj
I1230 19:25:18.754652 32546 net.cpp:113] Setting up inception_4d/pool_proj
I1230 19:25:18.755467 32546 net.cpp:120] Top shape: 80 64 14 14 (1003520)
I1230 19:25:18.755482 32546 layer_factory.hpp:74] Creating layer inception_4d/relu_pool_proj
I1230 19:25:18.755491 32546 net.cpp:84] Creating Layer inception_4d/relu_pool_proj
I1230 19:25:18.755496 32546 net.cpp:380] inception_4d/relu_pool_proj <- inception_4d/pool_proj
I1230 19:25:18.755502 32546 net.cpp:327] inception_4d/relu_pool_proj -> inception_4d/pool_proj (in-place)
I1230 19:25:18.755509 32546 net.cpp:113] Setting up inception_4d/relu_pool_proj
I1230 19:25:18.755815 32546 net.cpp:120] Top shape: 80 64 14 14 (1003520)
I1230 19:25:18.755825 32546 layer_factory.hpp:74] Creating layer inception_4d/output
I1230 19:25:18.755858 32546 net.cpp:84] Creating Layer inception_4d/output
I1230 19:25:18.755866 32546 net.cpp:380] inception_4d/output <- inception_4d/1x1
I1230 19:25:18.755872 32546 net.cpp:380] inception_4d/output <- inception_4d/3x3
I1230 19:25:18.755878 32546 net.cpp:380] inception_4d/output <- inception_4d/5x5
I1230 19:25:18.755883 32546 net.cpp:380] inception_4d/output <- inception_4d/pool_proj
I1230 19:25:18.755900 32546 net.cpp:338] inception_4d/output -> inception_4d/output
I1230 19:25:18.755910 32546 net.cpp:113] Setting up inception_4d/output
I1230 19:25:18.755919 32546 net.cpp:120] Top shape: 80 528 14 14 (8279040)
I1230 19:25:18.755924 32546 layer_factory.hpp:74] Creating layer inception_4d/output_inception_4d/output_0_split
I1230 19:25:18.755934 32546 net.cpp:84] Creating Layer inception_4d/output_inception_4d/output_0_split
I1230 19:25:18.755939 32546 net.cpp:380] inception_4d/output_inception_4d/output_0_split <- inception_4d/output
I1230 19:25:18.755944 32546 net.cpp:338] inception_4d/output_inception_4d/output_0_split -> inception_4d/output_inception_4d/output_0_split_0
I1230 19:25:18.755951 32546 net.cpp:338] inception_4d/output_inception_4d/output_0_split -> inception_4d/output_inception_4d/output_0_split_1
I1230 19:25:18.755960 32546 net.cpp:338] inception_4d/output_inception_4d/output_0_split -> inception_4d/output_inception_4d/output_0_split_2
I1230 19:25:18.755973 32546 net.cpp:338] inception_4d/output_inception_4d/output_0_split -> inception_4d/output_inception_4d/output_0_split_3
I1230 19:25:18.755986 32546 net.cpp:338] inception_4d/output_inception_4d/output_0_split -> inception_4d/output_inception_4d/output_0_split_4
I1230 19:25:18.755993 32546 net.cpp:113] Setting up inception_4d/output_inception_4d/output_0_split
I1230 19:25:18.756001 32546 net.cpp:120] Top shape: 80 528 14 14 (8279040)
I1230 19:25:18.756006 32546 net.cpp:120] Top shape: 80 528 14 14 (8279040)
I1230 19:25:18.756011 32546 net.cpp:120] Top shape: 80 528 14 14 (8279040)
I1230 19:25:18.756016 32546 net.cpp:120] Top shape: 80 528 14 14 (8279040)
I1230 19:25:18.756021 32546 net.cpp:120] Top shape: 80 528 14 14 (8279040)
I1230 19:25:18.756024 32546 layer_factory.hpp:74] Creating layer loss2/ave_pool
I1230 19:25:18.756032 32546 net.cpp:84] Creating Layer loss2/ave_pool
I1230 19:25:18.756037 32546 net.cpp:380] loss2/ave_pool <- inception_4d/output_inception_4d/output_0_split_0
I1230 19:25:18.756044 32546 net.cpp:338] loss2/ave_pool -> loss2/ave_pool
I1230 19:25:18.756052 32546 net.cpp:113] Setting up loss2/ave_pool
I1230 19:25:18.756122 32546 net.cpp:120] Top shape: 80 528 4 4 (675840)
I1230 19:25:18.756129 32546 layer_factory.hpp:74] Creating layer loss2/conv
I1230 19:25:18.756140 32546 net.cpp:84] Creating Layer loss2/conv
I1230 19:25:18.756145 32546 net.cpp:380] loss2/conv <- loss2/ave_pool
I1230 19:25:18.756151 32546 net.cpp:338] loss2/conv -> loss2/conv
I1230 19:25:18.756160 32546 net.cpp:113] Setting up loss2/conv
I1230 19:25:18.757360 32546 net.cpp:120] Top shape: 80 128 4 4 (163840)
I1230 19:25:18.757377 32546 layer_factory.hpp:74] Creating layer loss2/relu_conv
I1230 19:25:18.757385 32546 net.cpp:84] Creating Layer loss2/relu_conv
I1230 19:25:18.757390 32546 net.cpp:380] loss2/relu_conv <- loss2/conv
I1230 19:25:18.757398 32546 net.cpp:327] loss2/relu_conv -> loss2/conv (in-place)
I1230 19:25:18.757405 32546 net.cpp:113] Setting up loss2/relu_conv
I1230 19:25:18.757470 32546 net.cpp:120] Top shape: 80 128 4 4 (163840)
I1230 19:25:18.757478 32546 layer_factory.hpp:74] Creating layer loss2/fc
I1230 19:25:18.757491 32546 net.cpp:84] Creating Layer loss2/fc
I1230 19:25:18.757498 32546 net.cpp:380] loss2/fc <- loss2/conv
I1230 19:25:18.757506 32546 net.cpp:338] loss2/fc -> loss2/fc
I1230 19:25:18.757515 32546 net.cpp:113] Setting up loss2/fc
I1230 19:25:18.880503 32546 net.cpp:120] Top shape: 80 1024 (81920)
I1230 19:25:18.880563 32546 layer_factory.hpp:74] Creating layer loss2/relu_fc
I1230 19:25:18.880586 32546 net.cpp:84] Creating Layer loss2/relu_fc
I1230 19:25:18.880599 32546 net.cpp:380] loss2/relu_fc <- loss2/fc
I1230 19:25:18.880614 32546 net.cpp:327] loss2/relu_fc -> loss2/fc (in-place)
I1230 19:25:18.880630 32546 net.cpp:113] Setting up loss2/relu_fc
I1230 19:25:18.881372 32546 net.cpp:120] Top shape: 80 1024 (81920)
I1230 19:25:18.881389 32546 layer_factory.hpp:74] Creating layer loss2/drop_fc
I1230 19:25:18.881407 32546 net.cpp:84] Creating Layer loss2/drop_fc
I1230 19:25:18.881417 32546 net.cpp:380] loss2/drop_fc <- loss2/fc
I1230 19:25:18.881427 32546 net.cpp:327] loss2/drop_fc -> loss2/fc (in-place)
I1230 19:25:18.881438 32546 net.cpp:113] Setting up loss2/drop_fc
I1230 19:25:18.881453 32546 net.cpp:120] Top shape: 80 1024 (81920)
I1230 19:25:18.881460 32546 layer_factory.hpp:74] Creating layer loss2/classifier_kaggle
I1230 19:25:18.881474 32546 net.cpp:84] Creating Layer loss2/classifier_kaggle
I1230 19:25:18.881481 32546 net.cpp:380] loss2/classifier_kaggle <- loss2/fc
I1230 19:25:18.881494 32546 net.cpp:338] loss2/classifier_kaggle -> loss2/classifier_kaggle
I1230 19:25:18.881510 32546 net.cpp:113] Setting up loss2/classifier_kaggle
I1230 19:25:18.887579 32546 net.cpp:120] Top shape: 80 447 (35760)
I1230 19:25:18.887614 32546 layer_factory.hpp:74] Creating layer loss2/loss
I1230 19:25:18.887632 32546 net.cpp:84] Creating Layer loss2/loss
I1230 19:25:18.887642 32546 net.cpp:380] loss2/loss <- loss2/classifier_kaggle
I1230 19:25:18.887655 32546 net.cpp:380] loss2/loss <- label_data_1_split_1
I1230 19:25:18.887675 32546 net.cpp:338] loss2/loss -> loss2/loss1
I1230 19:25:18.887706 32546 net.cpp:113] Setting up loss2/loss
I1230 19:25:18.887717 32546 layer_factory.hpp:74] Creating layer loss2/loss
I1230 19:25:18.887991 32546 net.cpp:120] Top shape: (1)
I1230 19:25:18.888003 32546 net.cpp:122]     with loss weight 0.3
I1230 19:25:18.888027 32546 layer_factory.hpp:74] Creating layer inception_4e/1x1
I1230 19:25:18.888042 32546 net.cpp:84] Creating Layer inception_4e/1x1
I1230 19:25:18.888052 32546 net.cpp:380] inception_4e/1x1 <- inception_4d/output_inception_4d/output_0_split_1
I1230 19:25:18.888067 32546 net.cpp:338] inception_4e/1x1 -> inception_4e/1x1
I1230 19:25:18.888079 32546 net.cpp:113] Setting up inception_4e/1x1
I1230 19:25:18.890378 32546 net.cpp:120] Top shape: 80 256 14 14 (4014080)
I1230 19:25:18.890396 32546 layer_factory.hpp:74] Creating layer inception_4e/relu_1x1
I1230 19:25:18.890404 32546 net.cpp:84] Creating Layer inception_4e/relu_1x1
I1230 19:25:18.890410 32546 net.cpp:380] inception_4e/relu_1x1 <- inception_4e/1x1
I1230 19:25:18.890416 32546 net.cpp:327] inception_4e/relu_1x1 -> inception_4e/1x1 (in-place)
I1230 19:25:18.890424 32546 net.cpp:113] Setting up inception_4e/relu_1x1
I1230 19:25:18.890492 32546 net.cpp:120] Top shape: 80 256 14 14 (4014080)
I1230 19:25:18.890503 32546 layer_factory.hpp:74] Creating layer inception_4e/3x3_reduce
I1230 19:25:18.890511 32546 net.cpp:84] Creating Layer inception_4e/3x3_reduce
I1230 19:25:18.890516 32546 net.cpp:380] inception_4e/3x3_reduce <- inception_4d/output_inception_4d/output_0_split_2
I1230 19:25:18.890529 32546 net.cpp:338] inception_4e/3x3_reduce -> inception_4e/3x3_reduce
I1230 19:25:18.890538 32546 net.cpp:113] Setting up inception_4e/3x3_reduce
I1230 19:25:18.891942 32546 net.cpp:120] Top shape: 80 160 14 14 (2508800)
I1230 19:25:18.891957 32546 layer_factory.hpp:74] Creating layer inception_4e/relu_3x3_reduce
I1230 19:25:18.891965 32546 net.cpp:84] Creating Layer inception_4e/relu_3x3_reduce
I1230 19:25:18.891971 32546 net.cpp:380] inception_4e/relu_3x3_reduce <- inception_4e/3x3_reduce
I1230 19:25:18.891980 32546 net.cpp:327] inception_4e/relu_3x3_reduce -> inception_4e/3x3_reduce (in-place)
I1230 19:25:18.891988 32546 net.cpp:113] Setting up inception_4e/relu_3x3_reduce
I1230 19:25:18.892055 32546 net.cpp:120] Top shape: 80 160 14 14 (2508800)
I1230 19:25:18.892062 32546 layer_factory.hpp:74] Creating layer inception_4e/3x3
I1230 19:25:18.892073 32546 net.cpp:84] Creating Layer inception_4e/3x3
I1230 19:25:18.892077 32546 net.cpp:380] inception_4e/3x3 <- inception_4e/3x3_reduce
I1230 19:25:18.892086 32546 net.cpp:338] inception_4e/3x3 -> inception_4e/3x3
I1230 19:25:18.892094 32546 net.cpp:113] Setting up inception_4e/3x3
I1230 19:25:18.897796 32546 net.cpp:120] Top shape: 80 320 14 14 (5017600)
I1230 19:25:18.897814 32546 layer_factory.hpp:74] Creating layer inception_4e/relu_3x3
I1230 19:25:18.897821 32546 net.cpp:84] Creating Layer inception_4e/relu_3x3
I1230 19:25:18.897827 32546 net.cpp:380] inception_4e/relu_3x3 <- inception_4e/3x3
I1230 19:25:18.897835 32546 net.cpp:327] inception_4e/relu_3x3 -> inception_4e/3x3 (in-place)
I1230 19:25:18.897843 32546 net.cpp:113] Setting up inception_4e/relu_3x3
I1230 19:25:18.898149 32546 net.cpp:120] Top shape: 80 320 14 14 (5017600)
I1230 19:25:18.898160 32546 layer_factory.hpp:74] Creating layer inception_4e/5x5_reduce
I1230 19:25:18.898169 32546 net.cpp:84] Creating Layer inception_4e/5x5_reduce
I1230 19:25:18.898175 32546 net.cpp:380] inception_4e/5x5_reduce <- inception_4d/output_inception_4d/output_0_split_3
I1230 19:25:18.898183 32546 net.cpp:338] inception_4e/5x5_reduce -> inception_4e/5x5_reduce
I1230 19:25:18.898191 32546 net.cpp:113] Setting up inception_4e/5x5_reduce
I1230 19:25:18.898852 32546 net.cpp:120] Top shape: 80 32 14 14 (501760)
I1230 19:25:18.898867 32546 layer_factory.hpp:74] Creating layer inception_4e/relu_5x5_reduce
I1230 19:25:18.898877 32546 net.cpp:84] Creating Layer inception_4e/relu_5x5_reduce
I1230 19:25:18.898882 32546 net.cpp:380] inception_4e/relu_5x5_reduce <- inception_4e/5x5_reduce
I1230 19:25:18.898902 32546 net.cpp:327] inception_4e/relu_5x5_reduce -> inception_4e/5x5_reduce (in-place)
I1230 19:25:18.898910 32546 net.cpp:113] Setting up inception_4e/relu_5x5_reduce
I1230 19:25:18.898984 32546 net.cpp:120] Top shape: 80 32 14 14 (501760)
I1230 19:25:18.898990 32546 layer_factory.hpp:74] Creating layer inception_4e/5x5
I1230 19:25:18.899021 32546 net.cpp:84] Creating Layer inception_4e/5x5
I1230 19:25:18.899026 32546 net.cpp:380] inception_4e/5x5 <- inception_4e/5x5_reduce
I1230 19:25:18.899035 32546 net.cpp:338] inception_4e/5x5 -> inception_4e/5x5
I1230 19:25:18.899044 32546 net.cpp:113] Setting up inception_4e/5x5
I1230 19:25:18.900642 32546 net.cpp:120] Top shape: 80 128 14 14 (2007040)
I1230 19:25:18.900658 32546 layer_factory.hpp:74] Creating layer inception_4e/relu_5x5
I1230 19:25:18.900667 32546 net.cpp:84] Creating Layer inception_4e/relu_5x5
I1230 19:25:18.900672 32546 net.cpp:380] inception_4e/relu_5x5 <- inception_4e/5x5
I1230 19:25:18.900684 32546 net.cpp:327] inception_4e/relu_5x5 -> inception_4e/5x5 (in-place)
I1230 19:25:18.900692 32546 net.cpp:113] Setting up inception_4e/relu_5x5
I1230 19:25:18.900760 32546 net.cpp:120] Top shape: 80 128 14 14 (2007040)
I1230 19:25:18.900766 32546 layer_factory.hpp:74] Creating layer inception_4e/pool
I1230 19:25:18.900774 32546 layer_factory.cpp:56] CUDNN does not support padding or multiple tops. Using Caffe's own pooling layer.
I1230 19:25:18.900779 32546 net.cpp:84] Creating Layer inception_4e/pool
I1230 19:25:18.900784 32546 net.cpp:380] inception_4e/pool <- inception_4d/output_inception_4d/output_0_split_4
I1230 19:25:18.900791 32546 net.cpp:338] inception_4e/pool -> inception_4e/pool
I1230 19:25:18.900799 32546 net.cpp:113] Setting up inception_4e/pool
I1230 19:25:18.900807 32546 net.cpp:120] Top shape: 80 528 14 14 (8279040)
I1230 19:25:18.900812 32546 layer_factory.hpp:74] Creating layer inception_4e/pool_proj
I1230 19:25:18.900822 32546 net.cpp:84] Creating Layer inception_4e/pool_proj
I1230 19:25:18.900826 32546 net.cpp:380] inception_4e/pool_proj <- inception_4e/pool
I1230 19:25:18.900835 32546 net.cpp:338] inception_4e/pool_proj -> inception_4e/pool_proj
I1230 19:25:18.900842 32546 net.cpp:113] Setting up inception_4e/pool_proj
I1230 19:25:18.902081 32546 net.cpp:120] Top shape: 80 128 14 14 (2007040)
I1230 19:25:18.902097 32546 layer_factory.hpp:74] Creating layer inception_4e/relu_pool_proj
I1230 19:25:18.902107 32546 net.cpp:84] Creating Layer inception_4e/relu_pool_proj
I1230 19:25:18.902112 32546 net.cpp:380] inception_4e/relu_pool_proj <- inception_4e/pool_proj
I1230 19:25:18.902118 32546 net.cpp:327] inception_4e/relu_pool_proj -> inception_4e/pool_proj (in-place)
I1230 19:25:18.902125 32546 net.cpp:113] Setting up inception_4e/relu_pool_proj
I1230 19:25:18.902191 32546 net.cpp:120] Top shape: 80 128 14 14 (2007040)
I1230 19:25:18.902197 32546 layer_factory.hpp:74] Creating layer inception_4e/output
I1230 19:25:18.902207 32546 net.cpp:84] Creating Layer inception_4e/output
I1230 19:25:18.902211 32546 net.cpp:380] inception_4e/output <- inception_4e/1x1
I1230 19:25:18.902217 32546 net.cpp:380] inception_4e/output <- inception_4e/3x3
I1230 19:25:18.902222 32546 net.cpp:380] inception_4e/output <- inception_4e/5x5
I1230 19:25:18.902227 32546 net.cpp:380] inception_4e/output <- inception_4e/pool_proj
I1230 19:25:18.902233 32546 net.cpp:338] inception_4e/output -> inception_4e/output
I1230 19:25:18.902240 32546 net.cpp:113] Setting up inception_4e/output
I1230 19:25:18.902248 32546 net.cpp:120] Top shape: 80 832 14 14 (13045760)
I1230 19:25:18.902253 32546 layer_factory.hpp:74] Creating layer pool4/3x3_s2
I1230 19:25:18.902262 32546 net.cpp:84] Creating Layer pool4/3x3_s2
I1230 19:25:18.902267 32546 net.cpp:380] pool4/3x3_s2 <- inception_4e/output
I1230 19:25:18.902273 32546 net.cpp:338] pool4/3x3_s2 -> pool4/3x3_s2
I1230 19:25:18.902281 32546 net.cpp:113] Setting up pool4/3x3_s2
I1230 19:25:18.902582 32546 net.cpp:120] Top shape: 80 832 7 7 (3261440)
I1230 19:25:18.902593 32546 layer_factory.hpp:74] Creating layer pool4/3x3_s2_pool4/3x3_s2_0_split
I1230 19:25:18.902618 32546 net.cpp:84] Creating Layer pool4/3x3_s2_pool4/3x3_s2_0_split
I1230 19:25:18.902623 32546 net.cpp:380] pool4/3x3_s2_pool4/3x3_s2_0_split <- pool4/3x3_s2
I1230 19:25:18.902631 32546 net.cpp:338] pool4/3x3_s2_pool4/3x3_s2_0_split -> pool4/3x3_s2_pool4/3x3_s2_0_split_0
I1230 19:25:18.902640 32546 net.cpp:338] pool4/3x3_s2_pool4/3x3_s2_0_split -> pool4/3x3_s2_pool4/3x3_s2_0_split_1
I1230 19:25:18.902648 32546 net.cpp:338] pool4/3x3_s2_pool4/3x3_s2_0_split -> pool4/3x3_s2_pool4/3x3_s2_0_split_2
I1230 19:25:18.902654 32546 net.cpp:338] pool4/3x3_s2_pool4/3x3_s2_0_split -> pool4/3x3_s2_pool4/3x3_s2_0_split_3
I1230 19:25:18.902660 32546 net.cpp:113] Setting up pool4/3x3_s2_pool4/3x3_s2_0_split
I1230 19:25:18.902669 32546 net.cpp:120] Top shape: 80 832 7 7 (3261440)
I1230 19:25:18.902674 32546 net.cpp:120] Top shape: 80 832 7 7 (3261440)
I1230 19:25:18.902678 32546 net.cpp:120] Top shape: 80 832 7 7 (3261440)
I1230 19:25:18.902683 32546 net.cpp:120] Top shape: 80 832 7 7 (3261440)
I1230 19:25:18.902688 32546 layer_factory.hpp:74] Creating layer inception_5a/1x1
I1230 19:25:18.902698 32546 net.cpp:84] Creating Layer inception_5a/1x1
I1230 19:25:18.902701 32546 net.cpp:380] inception_5a/1x1 <- pool4/3x3_s2_pool4/3x3_s2_0_split_0
I1230 19:25:18.902709 32546 net.cpp:338] inception_5a/1x1 -> inception_5a/1x1
I1230 19:25:18.902715 32546 net.cpp:113] Setting up inception_5a/1x1
I1230 19:25:18.905568 32546 net.cpp:120] Top shape: 80 256 7 7 (1003520)
I1230 19:25:18.905591 32546 layer_factory.hpp:74] Creating layer inception_5a/relu_1x1
I1230 19:25:18.905601 32546 net.cpp:84] Creating Layer inception_5a/relu_1x1
I1230 19:25:18.905606 32546 net.cpp:380] inception_5a/relu_1x1 <- inception_5a/1x1
I1230 19:25:18.905613 32546 net.cpp:327] inception_5a/relu_1x1 -> inception_5a/1x1 (in-place)
I1230 19:25:18.905621 32546 net.cpp:113] Setting up inception_5a/relu_1x1
I1230 19:25:18.905686 32546 net.cpp:120] Top shape: 80 256 7 7 (1003520)
I1230 19:25:18.905694 32546 layer_factory.hpp:74] Creating layer inception_5a/3x3_reduce
I1230 19:25:18.905704 32546 net.cpp:84] Creating Layer inception_5a/3x3_reduce
I1230 19:25:18.905709 32546 net.cpp:380] inception_5a/3x3_reduce <- pool4/3x3_s2_pool4/3x3_s2_0_split_1
I1230 19:25:18.905715 32546 net.cpp:338] inception_5a/3x3_reduce -> inception_5a/3x3_reduce
I1230 19:25:18.905724 32546 net.cpp:113] Setting up inception_5a/3x3_reduce
I1230 19:25:18.907692 32546 net.cpp:120] Top shape: 80 160 7 7 (627200)
I1230 19:25:18.907709 32546 layer_factory.hpp:74] Creating layer inception_5a/relu_3x3_reduce
I1230 19:25:18.907717 32546 net.cpp:84] Creating Layer inception_5a/relu_3x3_reduce
I1230 19:25:18.907722 32546 net.cpp:380] inception_5a/relu_3x3_reduce <- inception_5a/3x3_reduce
I1230 19:25:18.907732 32546 net.cpp:327] inception_5a/relu_3x3_reduce -> inception_5a/3x3_reduce (in-place)
I1230 19:25:18.907739 32546 net.cpp:113] Setting up inception_5a/relu_3x3_reduce
I1230 19:25:18.907806 32546 net.cpp:120] Top shape: 80 160 7 7 (627200)
I1230 19:25:18.907812 32546 layer_factory.hpp:74] Creating layer inception_5a/3x3
I1230 19:25:18.907822 32546 net.cpp:84] Creating Layer inception_5a/3x3
I1230 19:25:18.907827 32546 net.cpp:380] inception_5a/3x3 <- inception_5a/3x3_reduce
I1230 19:25:18.907835 32546 net.cpp:338] inception_5a/3x3 -> inception_5a/3x3
I1230 19:25:18.907843 32546 net.cpp:113] Setting up inception_5a/3x3
I1230 19:25:18.914481 32546 net.cpp:120] Top shape: 80 320 7 7 (1254400)
I1230 19:25:18.914520 32546 layer_factory.hpp:74] Creating layer inception_5a/relu_3x3
I1230 19:25:18.914540 32546 net.cpp:84] Creating Layer inception_5a/relu_3x3
I1230 19:25:18.914551 32546 net.cpp:380] inception_5a/relu_3x3 <- inception_5a/3x3
I1230 19:25:18.914563 32546 net.cpp:327] inception_5a/relu_3x3 -> inception_5a/3x3 (in-place)
I1230 19:25:18.914577 32546 net.cpp:113] Setting up inception_5a/relu_3x3
I1230 19:25:18.914677 32546 net.cpp:120] Top shape: 80 320 7 7 (1254400)
I1230 19:25:18.914687 32546 layer_factory.hpp:74] Creating layer inception_5a/5x5_reduce
I1230 19:25:18.914716 32546 net.cpp:84] Creating Layer inception_5a/5x5_reduce
I1230 19:25:18.914739 32546 net.cpp:380] inception_5a/5x5_reduce <- pool4/3x3_s2_pool4/3x3_s2_0_split_2
I1230 19:25:18.914753 32546 net.cpp:338] inception_5a/5x5_reduce -> inception_5a/5x5_reduce
I1230 19:25:18.914767 32546 net.cpp:113] Setting up inception_5a/5x5_reduce
I1230 19:25:18.915735 32546 net.cpp:120] Top shape: 80 32 7 7 (125440)
I1230 19:25:18.915756 32546 layer_factory.hpp:74] Creating layer inception_5a/relu_5x5_reduce
I1230 19:25:18.915767 32546 net.cpp:84] Creating Layer inception_5a/relu_5x5_reduce
I1230 19:25:18.915777 32546 net.cpp:380] inception_5a/relu_5x5_reduce <- inception_5a/5x5_reduce
I1230 19:25:18.915791 32546 net.cpp:327] inception_5a/relu_5x5_reduce -> inception_5a/5x5_reduce (in-place)
I1230 19:25:18.915803 32546 net.cpp:113] Setting up inception_5a/relu_5x5_reduce
I1230 19:25:18.916191 32546 net.cpp:120] Top shape: 80 32 7 7 (125440)
I1230 19:25:18.916216 32546 layer_factory.hpp:74] Creating layer inception_5a/5x5
I1230 19:25:18.916234 32546 net.cpp:84] Creating Layer inception_5a/5x5
I1230 19:25:18.916242 32546 net.cpp:380] inception_5a/5x5 <- inception_5a/5x5_reduce
I1230 19:25:18.916254 32546 net.cpp:338] inception_5a/5x5 -> inception_5a/5x5
I1230 19:25:18.916267 32546 net.cpp:113] Setting up inception_5a/5x5
I1230 19:25:18.918244 32546 net.cpp:120] Top shape: 80 128 7 7 (501760)
I1230 19:25:18.918262 32546 layer_factory.hpp:74] Creating layer inception_5a/relu_5x5
I1230 19:25:18.918272 32546 net.cpp:84] Creating Layer inception_5a/relu_5x5
I1230 19:25:18.918278 32546 net.cpp:380] inception_5a/relu_5x5 <- inception_5a/5x5
I1230 19:25:18.918285 32546 net.cpp:327] inception_5a/relu_5x5 -> inception_5a/5x5 (in-place)
I1230 19:25:18.918294 32546 net.cpp:113] Setting up inception_5a/relu_5x5
I1230 19:25:18.918371 32546 net.cpp:120] Top shape: 80 128 7 7 (501760)
I1230 19:25:18.918378 32546 layer_factory.hpp:74] Creating layer inception_5a/pool
I1230 19:25:18.918385 32546 layer_factory.cpp:56] CUDNN does not support padding or multiple tops. Using Caffe's own pooling layer.
I1230 19:25:18.918390 32546 net.cpp:84] Creating Layer inception_5a/pool
I1230 19:25:18.918395 32546 net.cpp:380] inception_5a/pool <- pool4/3x3_s2_pool4/3x3_s2_0_split_3
I1230 19:25:18.918403 32546 net.cpp:338] inception_5a/pool -> inception_5a/pool
I1230 19:25:18.918412 32546 net.cpp:113] Setting up inception_5a/pool
I1230 19:25:18.918421 32546 net.cpp:120] Top shape: 80 832 7 7 (3261440)
I1230 19:25:18.918426 32546 layer_factory.hpp:74] Creating layer inception_5a/pool_proj
I1230 19:25:18.918437 32546 net.cpp:84] Creating Layer inception_5a/pool_proj
I1230 19:25:18.918442 32546 net.cpp:380] inception_5a/pool_proj <- inception_5a/pool
I1230 19:25:18.918448 32546 net.cpp:338] inception_5a/pool_proj -> inception_5a/pool_proj
I1230 19:25:18.918457 32546 net.cpp:113] Setting up inception_5a/pool_proj
I1230 19:25:18.920094 32546 net.cpp:120] Top shape: 80 128 7 7 (501760)
I1230 19:25:18.920109 32546 layer_factory.hpp:74] Creating layer inception_5a/relu_pool_proj
I1230 19:25:18.920116 32546 net.cpp:84] Creating Layer inception_5a/relu_pool_proj
I1230 19:25:18.920121 32546 net.cpp:380] inception_5a/relu_pool_proj <- inception_5a/pool_proj
I1230 19:25:18.920130 32546 net.cpp:327] inception_5a/relu_pool_proj -> inception_5a/pool_proj (in-place)
I1230 19:25:18.920138 32546 net.cpp:113] Setting up inception_5a/relu_pool_proj
I1230 19:25:18.920202 32546 net.cpp:120] Top shape: 80 128 7 7 (501760)
I1230 19:25:18.920210 32546 layer_factory.hpp:74] Creating layer inception_5a/output
I1230 19:25:18.920217 32546 net.cpp:84] Creating Layer inception_5a/output
I1230 19:25:18.920222 32546 net.cpp:380] inception_5a/output <- inception_5a/1x1
I1230 19:25:18.920228 32546 net.cpp:380] inception_5a/output <- inception_5a/3x3
I1230 19:25:18.920233 32546 net.cpp:380] inception_5a/output <- inception_5a/5x5
I1230 19:25:18.920238 32546 net.cpp:380] inception_5a/output <- inception_5a/pool_proj
I1230 19:25:18.920246 32546 net.cpp:338] inception_5a/output -> inception_5a/output
I1230 19:25:18.920259 32546 net.cpp:113] Setting up inception_5a/output
I1230 19:25:18.920275 32546 net.cpp:120] Top shape: 80 832 7 7 (3261440)
I1230 19:25:18.920280 32546 layer_factory.hpp:74] Creating layer inception_5a/output_inception_5a/output_0_split
I1230 19:25:18.920287 32546 net.cpp:84] Creating Layer inception_5a/output_inception_5a/output_0_split
I1230 19:25:18.920291 32546 net.cpp:380] inception_5a/output_inception_5a/output_0_split <- inception_5a/output
I1230 19:25:18.920299 32546 net.cpp:338] inception_5a/output_inception_5a/output_0_split -> inception_5a/output_inception_5a/output_0_split_0
I1230 19:25:18.920305 32546 net.cpp:338] inception_5a/output_inception_5a/output_0_split -> inception_5a/output_inception_5a/output_0_split_1
I1230 19:25:18.920312 32546 net.cpp:338] inception_5a/output_inception_5a/output_0_split -> inception_5a/output_inception_5a/output_0_split_2
I1230 19:25:18.920326 32546 net.cpp:338] inception_5a/output_inception_5a/output_0_split -> inception_5a/output_inception_5a/output_0_split_3
I1230 19:25:18.920332 32546 net.cpp:113] Setting up inception_5a/output_inception_5a/output_0_split
I1230 19:25:18.920339 32546 net.cpp:120] Top shape: 80 832 7 7 (3261440)
I1230 19:25:18.920344 32546 net.cpp:120] Top shape: 80 832 7 7 (3261440)
I1230 19:25:18.920349 32546 net.cpp:120] Top shape: 80 832 7 7 (3261440)
I1230 19:25:18.920354 32546 net.cpp:120] Top shape: 80 832 7 7 (3261440)
I1230 19:25:18.920358 32546 layer_factory.hpp:74] Creating layer inception_5b/1x1
I1230 19:25:18.920368 32546 net.cpp:84] Creating Layer inception_5b/1x1
I1230 19:25:18.920373 32546 net.cpp:380] inception_5b/1x1 <- inception_5a/output_inception_5a/output_0_split_0
I1230 19:25:18.920379 32546 net.cpp:338] inception_5b/1x1 -> inception_5b/1x1
I1230 19:25:18.920387 32546 net.cpp:113] Setting up inception_5b/1x1
I1230 19:25:18.930549 32546 net.cpp:120] Top shape: 80 384 7 7 (1505280)
I1230 19:25:18.930567 32546 layer_factory.hpp:74] Creating layer inception_5b/relu_1x1
I1230 19:25:18.930579 32546 net.cpp:84] Creating Layer inception_5b/relu_1x1
I1230 19:25:18.930584 32546 net.cpp:380] inception_5b/relu_1x1 <- inception_5b/1x1
I1230 19:25:18.930591 32546 net.cpp:327] inception_5b/relu_1x1 -> inception_5b/1x1 (in-place)
I1230 19:25:18.930598 32546 net.cpp:113] Setting up inception_5b/relu_1x1
I1230 19:25:18.930912 32546 net.cpp:120] Top shape: 80 384 7 7 (1505280)
I1230 19:25:18.930923 32546 layer_factory.hpp:74] Creating layer inception_5b/3x3_reduce
I1230 19:25:18.930932 32546 net.cpp:84] Creating Layer inception_5b/3x3_reduce
I1230 19:25:18.930938 32546 net.cpp:380] inception_5b/3x3_reduce <- inception_5a/output_inception_5a/output_0_split_1
I1230 19:25:18.930946 32546 net.cpp:338] inception_5b/3x3_reduce -> inception_5b/3x3_reduce
I1230 19:25:18.930955 32546 net.cpp:113] Setting up inception_5b/3x3_reduce
I1230 19:25:18.933501 32546 net.cpp:120] Top shape: 80 192 7 7 (752640)
I1230 19:25:18.933521 32546 layer_factory.hpp:74] Creating layer inception_5b/relu_3x3_reduce
I1230 19:25:18.933528 32546 net.cpp:84] Creating Layer inception_5b/relu_3x3_reduce
I1230 19:25:18.933534 32546 net.cpp:380] inception_5b/relu_3x3_reduce <- inception_5b/3x3_reduce
I1230 19:25:18.933540 32546 net.cpp:327] inception_5b/relu_3x3_reduce -> inception_5b/3x3_reduce (in-place)
I1230 19:25:18.933548 32546 net.cpp:113] Setting up inception_5b/relu_3x3_reduce
I1230 19:25:18.933621 32546 net.cpp:120] Top shape: 80 192 7 7 (752640)
I1230 19:25:18.933629 32546 layer_factory.hpp:74] Creating layer inception_5b/3x3
I1230 19:25:18.933640 32546 net.cpp:84] Creating Layer inception_5b/3x3
I1230 19:25:18.933645 32546 net.cpp:380] inception_5b/3x3 <- inception_5b/3x3_reduce
I1230 19:25:18.933651 32546 net.cpp:338] inception_5b/3x3 -> inception_5b/3x3
I1230 19:25:18.933682 32546 net.cpp:113] Setting up inception_5b/3x3
I1230 19:25:18.985221 32546 net.cpp:120] Top shape: 80 384 7 7 (1505280)
I1230 19:25:18.985275 32546 layer_factory.hpp:74] Creating layer inception_5b/relu_3x3
I1230 19:25:18.985291 32546 net.cpp:84] Creating Layer inception_5b/relu_3x3
I1230 19:25:18.985311 32546 net.cpp:380] inception_5b/relu_3x3 <- inception_5b/3x3
I1230 19:25:18.985334 32546 net.cpp:327] inception_5b/relu_3x3 -> inception_5b/3x3 (in-place)
I1230 19:25:18.985345 32546 net.cpp:113] Setting up inception_5b/relu_3x3
I1230 19:25:18.985414 32546 net.cpp:120] Top shape: 80 384 7 7 (1505280)
I1230 19:25:18.985420 32546 layer_factory.hpp:74] Creating layer inception_5b/5x5_reduce
I1230 19:25:18.985432 32546 net.cpp:84] Creating Layer inception_5b/5x5_reduce
I1230 19:25:18.985438 32546 net.cpp:380] inception_5b/5x5_reduce <- inception_5a/output_inception_5a/output_0_split_2
I1230 19:25:18.985445 32546 net.cpp:338] inception_5b/5x5_reduce -> inception_5b/5x5_reduce
I1230 19:25:18.985455 32546 net.cpp:113] Setting up inception_5b/5x5_reduce
I1230 19:25:18.986506 32546 net.cpp:120] Top shape: 80 48 7 7 (188160)
I1230 19:25:18.986526 32546 layer_factory.hpp:74] Creating layer inception_5b/relu_5x5_reduce
I1230 19:25:18.986537 32546 net.cpp:84] Creating Layer inception_5b/relu_5x5_reduce
I1230 19:25:18.986543 32546 net.cpp:380] inception_5b/relu_5x5_reduce <- inception_5b/5x5_reduce
I1230 19:25:18.986552 32546 net.cpp:327] inception_5b/relu_5x5_reduce -> inception_5b/5x5_reduce (in-place)
I1230 19:25:18.986559 32546 net.cpp:113] Setting up inception_5b/relu_5x5_reduce
I1230 19:25:18.986626 32546 net.cpp:120] Top shape: 80 48 7 7 (188160)
I1230 19:25:18.986634 32546 layer_factory.hpp:74] Creating layer inception_5b/5x5
I1230 19:25:18.986644 32546 net.cpp:84] Creating Layer inception_5b/5x5
I1230 19:25:18.986649 32546 net.cpp:380] inception_5b/5x5 <- inception_5b/5x5_reduce
I1230 19:25:18.986657 32546 net.cpp:338] inception_5b/5x5 -> inception_5b/5x5
I1230 19:25:18.986665 32546 net.cpp:113] Setting up inception_5b/5x5
I1230 19:25:18.989078 32546 net.cpp:120] Top shape: 80 128 7 7 (501760)
I1230 19:25:18.989125 32546 layer_factory.hpp:74] Creating layer inception_5b/relu_5x5
I1230 19:25:18.989143 32546 net.cpp:84] Creating Layer inception_5b/relu_5x5
I1230 19:25:18.989151 32546 net.cpp:380] inception_5b/relu_5x5 <- inception_5b/5x5
I1230 19:25:18.989159 32546 net.cpp:327] inception_5b/relu_5x5 -> inception_5b/5x5 (in-place)
I1230 19:25:18.989171 32546 net.cpp:113] Setting up inception_5b/relu_5x5
I1230 19:25:18.989563 32546 net.cpp:120] Top shape: 80 128 7 7 (501760)
I1230 19:25:18.989580 32546 layer_factory.hpp:74] Creating layer inception_5b/pool
I1230 19:25:18.989588 32546 layer_factory.cpp:56] CUDNN does not support padding or multiple tops. Using Caffe's own pooling layer.
I1230 19:25:18.989595 32546 net.cpp:84] Creating Layer inception_5b/pool
I1230 19:25:18.989601 32546 net.cpp:380] inception_5b/pool <- inception_5a/output_inception_5a/output_0_split_3
I1230 19:25:18.989611 32546 net.cpp:338] inception_5b/pool -> inception_5b/pool
I1230 19:25:18.989621 32546 net.cpp:113] Setting up inception_5b/pool
I1230 19:25:18.989632 32546 net.cpp:120] Top shape: 80 832 7 7 (3261440)
I1230 19:25:18.989637 32546 layer_factory.hpp:74] Creating layer inception_5b/pool_proj
I1230 19:25:18.989650 32546 net.cpp:84] Creating Layer inception_5b/pool_proj
I1230 19:25:18.989655 32546 net.cpp:380] inception_5b/pool_proj <- inception_5b/pool
I1230 19:25:18.989663 32546 net.cpp:338] inception_5b/pool_proj -> inception_5b/pool_proj
I1230 19:25:18.989671 32546 net.cpp:113] Setting up inception_5b/pool_proj
I1230 19:25:18.991364 32546 net.cpp:120] Top shape: 80 128 7 7 (501760)
I1230 19:25:18.991384 32546 layer_factory.hpp:74] Creating layer inception_5b/relu_pool_proj
I1230 19:25:18.991394 32546 net.cpp:84] Creating Layer inception_5b/relu_pool_proj
I1230 19:25:18.991399 32546 net.cpp:380] inception_5b/relu_pool_proj <- inception_5b/pool_proj
I1230 19:25:18.991405 32546 net.cpp:327] inception_5b/relu_pool_proj -> inception_5b/pool_proj (in-place)
I1230 19:25:18.991413 32546 net.cpp:113] Setting up inception_5b/relu_pool_proj
I1230 19:25:18.991488 32546 net.cpp:120] Top shape: 80 128 7 7 (501760)
I1230 19:25:18.991495 32546 layer_factory.hpp:74] Creating layer inception_5b/output
I1230 19:25:18.991514 32546 net.cpp:84] Creating Layer inception_5b/output
I1230 19:25:18.991531 32546 net.cpp:380] inception_5b/output <- inception_5b/1x1
I1230 19:25:18.991538 32546 net.cpp:380] inception_5b/output <- inception_5b/3x3
I1230 19:25:18.991544 32546 net.cpp:380] inception_5b/output <- inception_5b/5x5
I1230 19:25:18.991549 32546 net.cpp:380] inception_5b/output <- inception_5b/pool_proj
I1230 19:25:18.991554 32546 net.cpp:338] inception_5b/output -> inception_5b/output
I1230 19:25:18.991561 32546 net.cpp:113] Setting up inception_5b/output
I1230 19:25:18.991569 32546 net.cpp:120] Top shape: 80 1024 7 7 (4014080)
I1230 19:25:18.991575 32546 layer_factory.hpp:74] Creating layer pool5/7x7_s1
I1230 19:25:18.991582 32546 net.cpp:84] Creating Layer pool5/7x7_s1
I1230 19:25:18.991587 32546 net.cpp:380] pool5/7x7_s1 <- inception_5b/output
I1230 19:25:18.991596 32546 net.cpp:338] pool5/7x7_s1 -> pool5/7x7_s1
I1230 19:25:18.991603 32546 net.cpp:113] Setting up pool5/7x7_s1
I1230 19:25:18.991674 32546 net.cpp:120] Top shape: 80 1024 1 1 (81920)
I1230 19:25:18.991682 32546 layer_factory.hpp:74] Creating layer pool5/drop_7x7_s1
I1230 19:25:18.991688 32546 net.cpp:84] Creating Layer pool5/drop_7x7_s1
I1230 19:25:18.991693 32546 net.cpp:380] pool5/drop_7x7_s1 <- pool5/7x7_s1
I1230 19:25:18.991700 32546 net.cpp:327] pool5/drop_7x7_s1 -> pool5/7x7_s1 (in-place)
I1230 19:25:18.991708 32546 net.cpp:113] Setting up pool5/drop_7x7_s1
I1230 19:25:18.991714 32546 net.cpp:120] Top shape: 80 1024 1 1 (81920)
I1230 19:25:18.991719 32546 layer_factory.hpp:74] Creating layer loss3/classifier_kaggle
I1230 19:25:18.991729 32546 net.cpp:84] Creating Layer loss3/classifier_kaggle
I1230 19:25:18.991734 32546 net.cpp:380] loss3/classifier_kaggle <- pool5/7x7_s1
I1230 19:25:18.991742 32546 net.cpp:338] loss3/classifier_kaggle -> loss3/classifier_kaggle
I1230 19:25:18.991750 32546 net.cpp:113] Setting up loss3/classifier_kaggle
I1230 19:25:18.997027 32546 net.cpp:120] Top shape: 80 447 (35760)
I1230 19:25:18.997076 32546 layer_factory.hpp:74] Creating layer loss3/loss3
I1230 19:25:18.997094 32546 net.cpp:84] Creating Layer loss3/loss3
I1230 19:25:18.997102 32546 net.cpp:380] loss3/loss3 <- loss3/classifier_kaggle
I1230 19:25:18.997112 32546 net.cpp:380] loss3/loss3 <- label_data_1_split_2
I1230 19:25:18.997119 32546 net.cpp:338] loss3/loss3 -> loss3/loss3
I1230 19:25:18.997131 32546 net.cpp:113] Setting up loss3/loss3
…
I1230 19:25:19.002254 32546 net.cpp:257] The NetState phase (1) differed from the phase (0) specified by a rule in layer data
I1230 19:25:19.003648 32546 net.cpp:42] Initializing net from parameters: 
name: "MYNET"
state {
  phase: TEST
}
layer {
  name: "data"
  type: "ImageData"
  top: "data"
  top: "label"
  include {
    phase: TEST
  }
  transform_param {
    mirror: false
    crop_size: 224
    mean_value: 129
    mean_value: 129
    mean_value: 129
  }
  image_data_param {
    source: "/home/coldmanck/kaggle/label_val_full_resize.txt"
    batch_size: 50
    shuffle: true
  }
}
layer {
  name: "conv1/7x7_s2"
  type: "Convolution"
  bottom: "data"
  top: "conv1/7x7_s2"
  param {
    lr_mult: 1
    decay_mult: 1
  }
  param {
    lr_mult: 2
    decay_mult: 0
  }
  convolution_param {
    num_output: 64
    pad: 3
    kernel_size: 7
    stride: 2
    weight_filler {
      type: "xavier"
    }
    bias_filler {
      type: "constant"
      value: 0.2
    }
  }
}
layer {
  name: "conv1/relu_7x7"
  type: "ReLU"
  bottom: "conv1/7x7_s2"
  top: "conv1/7x7_s2"
}
layer {
  name: "pool1/3x3_s2"
  type: "Pooling"
  bottom: "conv1/7x7_s2"
  top: "pool1/3x3_s2"
  pooling_param {
    pool: MAX
    kernel_size: 3
    stride: 2
  }
}
layer {
  name: "pool1/norm1"
  type: "LRN"
  bottom: "pool1/3x3_s2"
  top: "pool1/norm1"
  lrn_param {
    local_size: 5
    alpha: 0.0001
    beta: 0.75
  }
}
layer {
  name: "conv2/3x3_reduce"
  type: "Convolution"
  bottom: "pool1/norm1"
  top: "conv2/3x3_reduce"
  param {
    lr_mult: 1
    decay_mult: 1
  }
  param {
    lr_mult: 2
    decay_mult: 0
  }
  convolution_param {
    num_output: 64
    kernel_size: 1
    weight_filler {
      type: "xavier"
    }
    bias_filler {
      type: "constant"
      value: 0.2
    }
  }
}
layer {
  name: "conv2/relu_3x3_reduce"
  type: "ReLU"
  bottom: "conv2/3x3_reduce"
  top: "conv2/3x3_reduce"
}
layer {
  name: "conv2/3x3"
  type: "Convolution"
  bottom: "conv2/3x3_reduce"
  top: "conv2/3x3"
  param {
    lr_mult: 1
    decay_mult: 1
  }
  param {
    lr_mult: 2
    decay_mult: 0
  }
  convolution_param {
    num_output: 192
    pad: 1
    kernel_size: 3
    weight_filler {
      type: "xavier"
    }
    bias_filler {
      type: "constant"
      value: 0.2
    }
  }
}
layer {
  name: "conv2/relu_3x3"
  type: "ReLU"
  bottom: "conv2/3x3"
  top: "conv2/3x3"
}
layer {
  name: "conv2/norm2"
  type: "LRN"
  bottom: "conv2/3x3"
  top: "conv2/norm2"
  lrn_param {
    local_size: 5
    alpha: 0.0001
    beta: 0.75
  }
}
layer {
  name: "pool2/3x3_s2"
  type: "Pooling"
  bottom: "conv2/norm2"
  top: "pool2/3x3_s2"
  pooling_param {
    pool: MAX
    kernel_size: 3
    stride: 2
  }
}
layer {
  name: "inception_3a/1x1"
  type: "Convolution"
  bottom: "pool2/3x3_s2"
  top: "inception_3a/1x1"
  param {
    lr_mult: 1
    decay_mult: 1
  }
  param {
    lr_mult: 2
    decay_mult: 0
  }
  convolution_param {
    num_output: 64
    kernel_size: 1
    weight_filler {
      type: "xavier"
    }
    bias_filler {
      type: "constant"
      value: 0.2
    }
  }
}
layer {
  name: "inception_3a/relu_1x1"
  type: "ReLU"
  bottom: "inception_3a/1x1"
  top: "inception_3a/1x1"
}
layer {
  name: "inception_3a/3x3_reduce"
  type: "Convolution"
  bottom: "pool2/3x3_s2"
  top: "inception_3a/3x3_reduce"
  param {
    lr_mult: 1
    decay_mult: 1
  }
  param {
    lr_mult: 2
    decay_mult: 0
  }
  convolution_param {
    num_output: 96
    kernel_size: 1
    weight_filler {
      type: "xavier"
    }
    bias_filler {
      type: "constant"
      value: 0.2
    }
  }
}
layer {
  name: "inception_3a/relu_3x3_reduce"
  type: "ReLU"
  bottom: "inception_3a/3x3_reduce"
  top: "inception_3a/3x3_reduce"
}
layer {
  name: "inception_3a/3x3"
  type: "Convolution"
  bottom: "inception_3a/3x3_reduce"
  top: "inception_3a/3x3"
  param {
    lr_mult: 1
    decay_mult: 1
  }
  param {
    lr_mult: 2
    decay_mult: 0
  }
  convolution_param {
    num_output: 128
    pad: 1
    kernel_size: 3
    weight_filler {
      type: "xavier"
    }
    bias_filler {
      type: "constant"
      value: 0.2
    }
  }
}
layer {
  name: "inception_3a/relu_3x3"
  type: "ReLU"
  bottom: "inception_3a/3x3"
  top: "inception_3a/3x3"
}
layer {
  name: "inception_3a/5x5_reduce"
  type: "Convolution"
  bottom: "pool2/3x3_s2"
  top: "inception_3a/5x5_reduce"
  param {
    lr_mult: 1
    decay_mult: 1
  }
  param {
    lr_mult: 2
    decay_mult: 0
  }
  convolution_param {
    num_output: 16
    kernel_size: 1
    weight_filler {
      type: "xavier"
    }
    bias_filler {
      type: "constant"
      value: 0.2
    }
  }
}
layer {
  name: "inception_3a/relu_5x5_reduce"
  type: "ReLU"
  bottom: "inception_3a/5x5_reduce"
  top: "inception_3a/5x5_reduce"
}
layer {
  name: "inception_3a/5x5"
  type: "Convolution"
  bottom: "inception_3a/5x5_reduce"
  top: "inception_3a/5x5"
  param {
    lr_mult: 1
    decay_mult: 1
  }
  param {
    lr_mult: 2
    decay_mult: 0
  }
  convolution_param {
    num_output: 32
    pad: 2
    kernel_size: 5
    weight_filler {
      type: "xavier"
    }
    bias_filler {
      type: "constant"
      value: 0.2
    }
  }
}
layer {
  name: "inception_3a/relu_5x5"
  type: "ReLU"
  bottom: "inception_3a/5x5"
  top: "inception_3a/5x5"
}
layer {
  name: "inception_3a/pool"
  type: "Pooling"
  bottom: "pool2/3x3_s2"
  top: "inception_3a/pool"
  pooling_param {
    pool: MAX
    kernel_size: 3
    stride: 1
    pad: 1
  }
}
layer {
  name: "inception_3a/pool_proj"
  type: "Convolution"
  bottom: "inception_3a/pool"
  top: "inception_3a/pool_proj"
  param {
    lr_mult: 1
    decay_mult: 1
  }
  param {
    lr_mult: 2
    decay_mult: 0
  }
  convolution_param {
    num_output: 32
    kernel_size: 1
    weight_filler {
      type: "xavier"
    }
    bias_filler {
      type: "constant"
      value: 0.2
    }
  }
}
layer {
  name: "inception_3a/relu_pool_proj"
  type: "ReLU"
  bottom: "inception_3a/pool_proj"
  top: "inception_3a/pool_proj"
}
layer {
  name: "inception_3a/output"
  type: "Concat"
  bottom: "inception_3a/1x1"
  bottom: "inception_3a/3x3"
  bottom: "inception_3a/5x5"
  bottom: "inception_3a/pool_proj"
  top: "inception_3a/output"
}
layer {
  name: "inception_3b/1x1"
  type: "Convolution"
  bottom: "inception_3a/output"
  top: "inception_3b/1x1"
  param {
    lr_mult: 1
    decay_mult: 1
  }
  param {
    lr_mult: 2
    decay_mult: 0
  }
  convolution_param {
    num_output: 128
    kernel_size: 1
    weight_filler {
      type: "xavier"
    }
    bias_filler {
      type: "constant"
      value: 0.2
    }
  }
}
layer {
  name: "inception_3b/relu_1x1"
  type: "ReLU"
  bottom: "inception_3b/1x1"
  top: "inception_3b/1x1"
}
layer {
  name: "inception_3b/3x3_reduce"
  type: "Convolution"
  bottom: "inception_3a/output"
  top: "inception_3b/3x3_reduce"
  param {
    lr_mult: 1
    decay_mult: 1
  }
  param {
    lr_mult: 2
    decay_mult: 0
  }
  convolution_param {
    num_output: 128
    kernel_size: 1
    weight_filler {
      type: "xavier"
    }
    bias_filler {
      type: "constant"
      value: 0.2
    }
  }
}
layer {
  name: "inception_3b/relu_3x3_reduce"
  type: "ReLU"
  bottom: "inception_3b/3x3_reduce"
  top: "inception_3b/3x3_reduce"
}
layer {
  name: "inception_3b/3x3"
  type: "Convolution"
  bottom: "inception_3b/3x3_reduce"
  top: "inception_3b/3x3"
  param {
    lr_mult: 1
    decay_mult: 1
  }
  param {
    lr_mult: 2
    decay_mult: 0
  }
  convolution_param {
    num_output: 192
    pad: 1
    kernel_size: 3
    weight_filler {
      type: "xavier"
    }
    bias_filler {
      type: "constant"
      value: 0.2
    }
  }
}
layer {
  name: "inception_3b/relu_3x3"
  type: "ReLU"
  bottom: "inception_3b/3x3"
  top: "inception_3b/3x3"
}
layer {
  name: "inception_3b/5x5_reduce"
  type: "Convolution"
  bottom: "inception_3a/output"
  top: "inception_3b/5x5_reduce"
  param {
    lr_mult: 1
    decay_mult: 1
  }
  param {
    lr_mult: 2
    decay_mult: 0
  }
  convolution_param {
    num_output: 32
    kernel_size: 1
    weight_filler {
      type: "xavier"
    }
    bias_filler {
      type: "constant"
      value: 0.2
    }
  }
}
layer {
  name: "inception_3b/relu_5x5_reduce"
  type: "ReLU"
  bottom: "inception_3b/5x5_reduce"
  top: "inception_3b/5x5_reduce"
}
layer {
  name: "inception_3b/5x5"
  type: "Convolution"
  bottom: "inception_3b/5x5_reduce"
  top: "inception_3b/5x5"
  param {
    lr_mult: 1
    decay_mult: 1
  }
  param {
    lr_mult: 2
    decay_mult: 0
  }
  convolution_param {
    num_output: 96
    pad: 2
    kernel_size: 5
    weight_filler {
      type: "xavier"
    }
    bias_filler {
      type: "constant"
      value: 0.2
    }
  }
}
layer {
  name: "inception_3b/relu_5x5"
  type: "ReLU"
  bottom: "inception_3b/5x5"
  top: "inception_3b/5x5"
}
layer {
  name: "inception_3b/pool"
  type: "Pooling"
  bottom: "inception_3a/output"
  top: "inception_3b/pool"
  pooling_param {
    pool: MAX
    kernel_size: 3
    stride: 1
    pad: 1
  }
}
layer {
  name: "inception_3b/pool_proj"
  type: "Convolution"
  bottom: "inception_3b/pool"
  top: "inception_3b/pool_proj"
  param {
    lr_mult: 1
    decay_mult: 1
  }
  param {
    lr_mult: 2
    decay_mult: 0
  }
  convolution_param {
    num_output: 64
    kernel_size: 1
    weight_filler {
      type: "xavier"
    }
    bias_filler {
      type: "constant"
      value: 0.2
    }
  }
}
layer {
  name: "inception_3b/relu_pool_proj"
  type: "ReLU"
  bottom: "inception_3b/pool_proj"
  top: "inception_3b/pool_proj"
}
layer {
  name: "inception_3b/output"
  type: "Concat"
  bottom: "inception_3b/1x1"
  bottom: "inception_3b/3x3"
  bottom: "inception_3b/5x5"
  bottom: "inception_3b/pool_proj"
  top: "inception_3b/output"
}
layer {
  name: "pool3/3x3_s2"
  type: "Pooling"
  bottom: "inception_3b/output"
  top: "pool3/3x3_s2"
  pooling_param {
    pool: MAX
    kernel_size: 3
    stride: 2
  }
}
layer {
  name: "inception_4a/1x1"
  type: "Convolution"
  bottom: "pool3/3x3_s2"
  top: "inception_4a/1x1"
  param {
    lr_mult: 1
    decay_mult: 1
  }
  param {
    lr_mult: 2
    decay_mult: 0
  }
  convolution_param {
    num_output: 192
    kernel_size: 1
    weight_filler {
      type: "xavier"
    }
    bias_filler {
      type: "constant"
      value: 0.2
    }
  }
}
layer {
  name: "inception_4a/relu_1x1"
  type: "ReLU"
  bottom: "inception_4a/1x1"
  top: "inception_4a/1x1"
}
layer {
  name: "inception_4a/3x3_reduce"
  type: "Convolution"
  bottom: "pool3/3x3_s2"
  top: "inception_4a/3x3_reduce"
  param {
    lr_mult: 1
    decay_mult: 1
  }
  param {
    lr_mult: 2
    decay_mult: 0
  }
  convolution_param {
    num_output: 96
    kernel_size: 1
    weight_filler {
      type: "xavier"
    }
    bias_filler {
      type: "constant"
      value: 0.2
    }
  }
}
layer {
  name: "inception_4a/relu_3x3_reduce"
  type: "ReLU"
  bottom: "inception_4a/3x3_reduce"
  top: "inception_4a/3x3_reduce"
}
layer {
  name: "inception_4a/3x3"
  type: "Convolution"
  bottom: "inception_4a/3x3_reduce"
  top: "inception_4a/3x3"
  param {
    lr_mult: 1
    decay_mult: 1
  }
  param {
    lr_mult: 2
    decay_mult: 0
  }
  convolution_param {
    num_output: 208
    pad: 1
    kernel_size: 3
    weight_filler {
      type: "xavier"
    }
    bias_filler {
      type: "constant"
      value: 0.2
    }
  }
}
layer {
  name: "inception_4a/relu_3x3"
  type: "ReLU"
  bottom: "inception_4a/3x3"
  top: "inception_4a/3x3"
}
layer {
  name: "inception_4a/5x5_reduce"
  type: "Convolution"
  bottom: "pool3/3x3_s2"
  top: "inception_4a/5x5_reduce"
  param {
    lr_mult: 1
    decay_mult: 1
  }
  param {
    lr_mult: 2
    decay_mult: 0
  }
  convolution_param {
    num_output: 16
    kernel_size: 1
    weight_filler {
      type: "xavier"
    }
    bias_filler {
      type: "constant"
      value: 0.2
    }
  }
}
layer {
  name: "inception_4a/relu_5x5_reduce"
  type: "ReLU"
  bottom: "inception_4a/5x5_reduce"
  top: "inception_4a/5x5_reduce"
}
layer {
  name: "inception_4a/5x5"
  type: "Convolution"
  bottom: "inception_4a/5x5_reduce"
  top: "inception_4a/5x5"
  param {
    lr_mult: 1
    decay_mult: 1
  }
  param {
    lr_mult: 2
    decay_mult: 0
  }
  convolution_param {
    num_output: 48
    pad: 2
    kernel_size: 5
    weight_filler {
      type: "xavier"
    }
    bias_filler {
      type: "constant"
      value: 0.2
    }
  }
}
layer {
  name: "inception_4a/relu_5x5"
  type: "ReLU"
  bottom: "inception_4a/5x5"
  top: "inception_4a/5x5"
}
layer {
  name: "inception_4a/pool"
  type: "Pooling"
  bottom: "pool3/3x3_s2"
  top: "inception_4a/pool"
  pooling_param {
    pool: MAX
    kernel_size: 3
    stride: 1
    pad: 1
  }
}
layer {
  name: "inception_4a/pool_proj"
  type: "Convolution"
  bottom: "inception_4a/pool"
  top: "inception_4a/pool_proj"
  param {
    lr_mult: 1
    decay_mult: 1
  }
  param {
    lr_mult: 2
    decay_mult: 0
  }
  convolution_param {
    num_output: 64
    kernel_size: 1
    weight_filler {
      type: "xavier"
    }
    bias_filler {
      type: "constant"
      value: 0.2
    }
  }
}
layer {
  name: "inception_4a/relu_pool_proj"
  type: "ReLU"
  bottom: "inception_4a/pool_proj"
  top: "inception_4a/pool_proj"
}
layer {
  name: "inception_4a/output"
  type: "Concat"
  bottom: "inception_4a/1x1"
  bottom: "inception_4a/3x3"
  bottom: "inception_4a/5x5"
  bottom: "inception_4a/pool_proj"
  top: "inception_4a/output"
}
layer {
  name: "loss1/ave_pool"
  type: "Pooling"
  bottom: "inception_4a/output"
  top: "loss1/ave_pool"
  pooling_param {
    pool: AVE
    kernel_size: 5
    stride: 3
  }
}
layer {
  name: "loss1/conv"
  type: "Convolution"
  bottom: "loss1/ave_pool"
  top: "loss1/conv"
  param {
    lr_mult: 1
    decay_mult: 1
  }
  param {
    lr_mult: 2
    decay_mult: 0
  }
  convolution_param {
    num_output: 128
    kernel_size: 1
    weight_filler {
      type: "xavier"
    }
    bias_filler {
      type: "constant"
      value: 0.2
    }
  }
}
layer {
  name: "loss1/relu_conv"
  type: "ReLU"
  bottom: "loss1/conv"
  top: "loss1/conv"
}
layer {
  name: "loss1/fc"
  type: "InnerProduct"
  bottom: "loss1/conv"
  top: "loss1/fc"
  param {
    lr_mult: 1
    decay_mult: 1
  }
  param {
    lr_mult: 2
    decay_mult: 0
  }
  inner_product_param {
    num_output: 1024
    weight_filler {
      type: "xavier"
    }
    bias_filler {
      type: "constant"
      value: 0.2
    }
  }
}
layer {
  name: "loss1/relu_fc"
  type: "ReLU"
  bottom: "loss1/fc"
  top: "loss1/fc"
}
layer {
  name: "loss1/drop_fc"
  type: "Dropout"
  bottom: "loss1/fc"
  top: "loss1/fc"
  dropout_param {
    dropout_ratio: 0.7
  }
}
layer {
  name: "loss1/classifier_kaggle"
  type: "InnerProduct"
  bottom: "loss1/fc"
  top: "loss1/classifier_kaggle"
  param {
    lr_mult: 1
    decay_mult: 1
  }
  param {
    lr_mult: 2
    decay_mult: 0
  }
  inner_product_param {
    num_output: 447
    weight_filler {
      type: "xavier"
    }
    bias_filler {
      type: "constant"
      value: 0
    }
  }
}
layer {
  name: "loss1/loss"
  type: "SoftmaxWithLoss"
  bottom: "loss1/classifier_kaggle"
  bottom: "label"
  top: "loss1/loss1"
  loss_weight: 0.3
}
layer {
  name: "loss1/top-1"
  type: "Accuracy"
  bottom: "loss1/classifier_kaggle"
  bottom: "label"
  top: "loss1/top-1"
  include {
    phase: TEST
  }
}
layer {
  name: "loss1/top-5"
  type: "Accuracy"
  bottom: "loss1/classifier_kaggle"
  bottom: "label"
  top: "loss1/top-5"
  include {
    phase: TEST
  }
  accuracy_param {
    top_k: 5
  }
}
layer {
  name: "inception_4b/1x1"
  type: "Convolution"
  bottom: "inception_4a/output"
  top: "inception_4b/1x1"
  param {
    lr_mult: 1
    decay_mult: 1
  }
  param {
    lr_mult: 2
    decay_mult: 0
  }
  convolution_param {
    num_output: 160
    kernel_size: 1
    weight_filler {
      type: "xavier"
    }
    bias_filler {
      type: "constant"
      value: 0.2
    }
  }
}
layer {
  name: "inception_4b/relu_1x1"
  type: "ReLU"
  bottom: "inception_4b/1x1"
  top: "inception_4b/1x1"
}
layer {
  name: "inception_4b/3x3_reduce"
  type: "Convolution"
  bottom: "inception_4a/output"
  top: "inception_4b/3x3_reduce"
  param {
    lr_mult: 1
    decay_mult: 1
  }
  param {
    lr_mult: 2
    decay_mult: 0
  }
  convolution_param {
    num_output: 112
    kernel_size: 1
    weight_filler {
      type: "xavier"
    }
    bias_filler {
      type: "constant"
      value: 0.2
    }
  }
}
layer {
  name: "inception_4b/relu_3x3_reduce"
  type: "ReLU"
  bottom: "inception_4b/3x3_reduce"
  top: "inception_4b/3x3_reduce"
}
layer {
  name: "inception_4b/3x3"
  type: "Convolution"
  bottom: "inception_4b/3x3_reduce"
  top: "inception_4b/3x3"
  param {
    lr_mult: 1
    decay_mult: 1
  }
  param {
    lr_mult: 2
    decay_mult: 0
  }
  convolution_param {
    num_output: 224
    pad: 1
    kernel_size: 3
    weight_filler {
      type: "xavier"
    }
    bias_filler {
      type: "constant"
      value: 0.2
    }
  }
}
layer {
  name: "inception_4b/relu_3x3"
  type: "ReLU"
  bottom: "inception_4b/3x3"
  top: "inception_4b/3x3"
}
layer {
  name: "inception_4b/5x5_reduce"
  type: "Convolution"
  bottom: "inception_4a/output"
  top: "inception_4b/5x5_reduce"
  param {
    lr_mult: 1
    decay_mult: 1
  }
  param {
    lr_mult: 2
    decay_mult: 0
  }
  convolution_param {
    num_output: 24
    kernel_size: 1
    weight_filler {
      type: "xavier"
    }
    bias_filler {
      type: "constant"
      value: 0.2
    }
  }
}
layer {
  name: "inception_4b/relu_5x5_reduce"
  type: "ReLU"
  bottom: "inception_4b/5x5_reduce"
  top: "inception_4b/5x5_reduce"
}
layer {
  name: "inception_4b/5x5"
  type: "Convolution"
  bottom: "inception_4b/5x5_reduce"
  top: "inception_4b/5x5"
  param {
    lr_mult: 1
    decay_mult: 1
  }
  param {
    lr_mult: 2
    decay_mult: 0
  }
  convolution_param {
    num_output: 64
    pad: 2
    kernel_size: 5
    weight_filler {
      type: "xavier"
    }
    bias_filler {
      type: "constant"
      value: 0.2
    }
  }
}
layer {
  name: "inception_4b/relu_5x5"
  type: "ReLU"
  bottom: "inception_4b/5x5"
  top: "inception_4b/5x5"
}
layer {
  name: "inception_4b/pool"
  type: "Pooling"
  bottom: "inception_4a/output"
  top: "inception_4b/pool"
  pooling_param {
    pool: MAX
    kernel_size: 3
    stride: 1
    pad: 1
  }
}
layer {
  name: "inception_4b/pool_proj"
  type: "Convolution"
  bottom: "inception_4b/pool"
  top: "inception_4b/pool_proj"
  param {
    lr_mult: 1
    decay_mult: 1
  }
  param {
    lr_mult: 2
    decay_mult: 0
  }
  convolution_param {
    num_output: 64
    kernel_size: 1
    weight_filler {
      type: "xavier"
    }
    bias_filler {
      type: "constant"
      value: 0.2
    }
  }
}
layer {
  name: "inception_4b/relu_pool_proj"
  type: "ReLU"
  bottom: "inception_4b/pool_proj"
  top: "inception_4b/pool_proj"
}
layer {
  name: "inception_4b/output"
  type: "Concat"
  bottom: "inception_4b/1x1"
  bottom: "inception_4b/3x3"
  bottom: "inception_4b/5x5"
  bottom: "inception_4b/pool_proj"
  top: "inception_4b/output"
}
layer {
  name: "inception_4c/1x1"
  type: "Convolution"
  bottom: "inception_4b/output"
  top: "inception_4c/1x1"
  param {
    lr_mult: 1
    decay_mult: 1
  }
  param {
    lr_mult: 2
    decay_mult: 0
  }
  convolution_param {
    num_output: 128
    kernel_size: 1
    weight_filler {
      type: "xavier"
    }
    bias_filler {
      type: "constant"
      value: 0.2
    }
  }
}
layer {
  name: "inception_4c/relu_1x1"
  type: "ReLU"
  bottom: "inception_4c/1x1"
  top: "inception_4c/1x1"
}
layer {
  name: "inception_4c/3x3_reduce"
  type: "Convolution"
  bottom: "inception_4b/output"
  top: "inception_4c/3x3_reduce"
  param {
    lr_mult: 1
    decay_mult: 1
  }
  param {
    lr_mult: 2
    decay_mult: 0
  }
  convolution_param {
    num_output: 128
    kernel_size: 1
    weight_filler {
      type: "xavier"
    }
    bias_filler {
      type: "constant"
      value: 0.2
    }
  }
}
layer {
  name: "inception_4c/relu_3x3_reduce"
  type: "ReLU"
  bottom: "inception_4c/3x3_reduce"
  top: "inception_4c/3x3_reduce"
}
layer {
  name: "inception_4c/3x3"
  type: "Convolution"
  bottom: "inception_4c/3x3_reduce"
  top: "inception_4c/3x3"
  param {
    lr_mult: 1
    decay_mult: 1
  }
  param {
    lr_mult: 2
    decay_mult: 0
  }
  convolution_param {
    num_output: 256
    pad: 1
    kernel_size: 3
    weight_filler {
      type: "xavier"
    }
    bias_filler {
      type: "constant"
      value: 0.2
    }
  }
}
layer {
  name: "inception_4c/relu_3x3"
  type: "ReLU"
  bottom: "inception_4c/3x3"
  top: "inception_4c/3x3"
}
layer {
  name: "inception_4c/5x5_reduce"
  type: "Convolution"
  bottom: "inception_4b/output"
  top: "inception_4c/5x5_reduce"
  param {
    lr_mult: 1
    decay_mult: 1
  }
  param {
    lr_mult: 2
    decay_mult: 0
  }
  convolution_param {
    num_output: 24
    kernel_size: 1
    weight_filler {
      type: "xavier"
    }
    bias_filler {
      type: "constant"
      value: 0.2
    }
  }
}
layer {
  name: "inception_4c/relu_5x5_reduce"
  type: "ReLU"
  bottom: "inception_4c/5x5_reduce"
  top: "inception_4c/5x5_reduce"
}
layer {
  name: "inception_4c/5x5"
  type: "Convolution"
  bottom: "inception_4c/5x5_reduce"
  top: "inception_4c/5x5"
  param {
    lr_mult: 1
    decay_mult: 1
  }
  param {
    lr_mult: 2
    decay_mult: 0
  }
  convolution_param {
    num_output: 64
    pad: 2
    kernel_size: 5
    weight_filler {
      type: "xavier"
    }
    bias_filler {
      type: "constant"
      value: 0.2
    }
  }
}
layer {
  name: "inception_4c/relu_5x5"
  type: "ReLU"
  bottom: "inception_4c/5x5"
  top: "inception_4c/5x5"
}
layer {
  name: "inception_4c/pool"
  type: "Pooling"
  bottom: "inception_4b/output"
  top: "inception_4c/pool"
  pooling_param {
    pool: MAX
    kernel_size: 3
    stride: 1
    pad: 1
  }
}
layer {
  name: "inception_4c/pool_proj"
  type: "Convolution"
  bottom: "inception_4c/pool"
  top: "inception_4c/pool_proj"
  param {
    lr_mult: 1
    decay_mult: 1
  }
  param {
    lr_mult: 2
    decay_mult: 0
  }
  convolution_param {
    num_output: 64
    kernel_size: 1
    weight_filler {
      type: "xavier"
    }
    bias_filler {
      type: "constant"
      value: 0.2
    }
  }
}
layer {
  name: "inception_4c/relu_pool_proj"
  type: "ReLU"
  bottom: "inception_4c/pool_proj"
  top: "inception_4c/pool_proj"
}
layer {
  name: "inception_4c/output"
  type: "Concat"
  bottom: "inception_4c/1x1"
  bottom: "inception_4c/3x3"
  bottom: "inception_4c/5x5"
  bottom: "inception_4c/pool_proj"
  top: "inception_4c/output"
}
layer {
  name: "inception_4d/1x1"
  type: "Convolution"
  bottom: "inception_4c/output"
  top: "inception_4d/1x1"
  param {
    lr_mult: 1
    decay_mult: 1
  }
  param {
    lr_mult: 2
    decay_mult: 0
  }
  convolution_param {
    num_output: 112
    kernel_size: 1
    weight_filler {
      type: "xavier"
    }
    bias_filler {
      type: "constant"
      value: 0.2
    }
  }
}
layer {
  name: "inception_4d/relu_1x1"
  type: "ReLU"
  bottom: "inception_4d/1x1"
  top: "inception_4d/1x1"
}
layer {
  name: "inception_4d/3x3_reduce"
  type: "Convolution"
  bottom: "inception_4c/output"
  top: "inception_4d/3x3_reduce"
  param {
    lr_mult: 1
    decay_mult: 1
  }
  param {
    lr_mult: 2
    decay_mult: 0
  }
  convolution_param {
    num_output: 144
    kernel_size: 1
    weight_filler {
      type: "xavier"
    }
    bias_filler {
      type: "constant"
      value: 0.2
    }
  }
}
layer {
  name: "inception_4d/relu_3x3_reduce"
  type: "ReLU"
  bottom: "inception_4d/3x3_reduce"
  top: "inception_4d/3x3_reduce"
}
layer {
  name: "inception_4d/3x3"
  type: "Convolution"
  bottom: "inception_4d/3x3_reduce"
  top: "inception_4d/3x3"
  param {
    lr_mult: 1
    decay_mult: 1
  }
  param {
    lr_mult: 2
    decay_mult: 0
  }
  convolution_param {
    num_output: 288
    pad: 1
    kernel_size: 3
    weight_filler {
      type: "xavier"
    }
    bias_filler {
      type: "constant"
      value: 0.2
    }
  }
}
layer {
  name: "inception_4d/relu_3x3"
  type: "ReLU"
  bottom: "inception_4d/3x3"
  top: "inception_4d/3x3"
}
layer {
  name: "inception_4d/5x5_reduce"
  type: "Convolution"
  bottom: "inception_4c/output"
  top: "inception_4d/5x5_reduce"
  param {
    lr_mult: 1
    decay_mult: 1
  }
  param {
    lr_mult: 2
    decay_mult: 0
  }
  convolution_param {
    num_output: 32
    kernel_size: 1
    weight_filler {
      type: "xavier"
    }
    bias_filler {
      type: "constant"
      value: 0.2
    }
  }
}
layer {
  name: "inception_4d/relu_5x5_reduce"
  type: "ReLU"
  bottom: "inception_4d/5x5_reduce"
  top: "inception_4d/5x5_reduce"
}
layer {
  name: "inception_4d/5x5"
  type: "Convolution"
  bottom: "inception_4d/5x5_reduce"
  top: "inception_4d/5x5"
  param {
    lr_mult: 1
    decay_mult: 1
  }
  param {
    lr_mult: 2
    decay_mult: 0
  }
  convolution_param {
    num_output: 64
    pad: 2
    kernel_size: 5
    weight_filler {
      type: "xavier"
    }
    bias_filler {
      type: "constant"
      value: 0.2
    }
  }
}
layer {
  name: "inception_4d/relu_5x5"
  type: "ReLU"
  bottom: "inception_4d/5x5"
  top: "inception_4d/5x5"
}
layer {
  name: "inception_4d/pool"
  type: "Pooling"
  bottom: "inception_4c/output"
  top: "inception_4d/pool"
  pooling_param {
    pool: MAX
    kernel_size: 3
    stride: 1
    pad: 1
  }
}
layer {
  name: "inception_4d/pool_proj"
  type: "Convolution"
  bottom: "inception_4d/pool"
  top: "inception_4d/pool_proj"
  param {
    lr_mult: 1
    decay_mult: 1
  }
  param {
    lr_mult: 2
    decay_mult: 0
  }
  convolution_param {
    num_output: 64
    kernel_size: 1
    weight_filler {
      type: "xavier"
    }
    bias_filler {
      type: "constant"
      value: 0.2
    }
  }
}
layer {
  name: "inception_4d/relu_pool_proj"
  type: "ReLU"
  bottom: "inception_4d/pool_proj"
  top: "inception_4d/pool_proj"
}
layer {
  name: "inception_4d/output"
  type: "Concat"
  bottom: "inception_4d/1x1"
  bottom: "inception_4d/3x3"
  bottom: "inception_4d/5x5"
  bottom: "inception_4d/pool_proj"
  top: "inception_4d/output"
}
layer {
  name: "loss2/ave_pool"
  type: "Pooling"
  bottom: "inception_4d/output"
  top: "loss2/ave_pool"
  pooling_param {
    pool: AVE
    kernel_size: 5
    stride: 3
  }
}
layer {
  name: "loss2/conv"
…
I1230 19:25:19.782181 32546 net.cpp:84] Creating Layer inception_4c/1x1
I1230 19:25:19.782188 32546 net.cpp:380] inception_4c/1x1 <- inception_4b/output_inception_4b/output_0_split_0
I1230 19:25:19.782198 32546 net.cpp:338] inception_4c/1x1 -> inception_4c/1x1
I1230 19:25:19.782210 32546 net.cpp:113] Setting up inception_4c/1x1
I1230 19:25:19.783817 32546 net.cpp:120] Top shape: 50 128 14 14 (1254400)
I1230 19:25:19.783840 32546 layer_factory.hpp:74] Creating layer inception_4c/relu_1x1
I1230 19:25:19.783854 32546 net.cpp:84] Creating Layer inception_4c/relu_1x1
I1230 19:25:19.783861 32546 net.cpp:380] inception_4c/relu_1x1 <- inception_4c/1x1
I1230 19:25:19.783874 32546 net.cpp:327] inception_4c/relu_1x1 -> inception_4c/1x1 (in-place)
I1230 19:25:19.783902 32546 net.cpp:113] Setting up inception_4c/relu_1x1
I1230 19:25:19.784281 32546 net.cpp:120] Top shape: 50 128 14 14 (1254400)
I1230 19:25:19.784299 32546 layer_factory.hpp:74] Creating layer inception_4c/3x3_reduce
I1230 19:25:19.784313 32546 net.cpp:84] Creating Layer inception_4c/3x3_reduce
I1230 19:25:19.784324 32546 net.cpp:380] inception_4c/3x3_reduce <- inception_4b/output_inception_4b/output_0_split_1
I1230 19:25:19.784335 32546 net.cpp:338] inception_4c/3x3_reduce -> inception_4c/3x3_reduce
I1230 19:25:19.784348 32546 net.cpp:113] Setting up inception_4c/3x3_reduce
I1230 19:25:19.785806 32546 net.cpp:120] Top shape: 50 128 14 14 (1254400)
I1230 19:25:19.785827 32546 layer_factory.hpp:74] Creating layer inception_4c/relu_3x3_reduce
I1230 19:25:19.785840 32546 net.cpp:84] Creating Layer inception_4c/relu_3x3_reduce
I1230 19:25:19.785847 32546 net.cpp:380] inception_4c/relu_3x3_reduce <- inception_4c/3x3_reduce
I1230 19:25:19.785859 32546 net.cpp:327] inception_4c/relu_3x3_reduce -> inception_4c/3x3_reduce (in-place)
I1230 19:25:19.785871 32546 net.cpp:113] Setting up inception_4c/relu_3x3_reduce
I1230 19:25:19.785967 32546 net.cpp:120] Top shape: 50 128 14 14 (1254400)
I1230 19:25:19.785976 32546 layer_factory.hpp:74] Creating layer inception_4c/3x3
I1230 19:25:19.785991 32546 net.cpp:84] Creating Layer inception_4c/3x3
I1230 19:25:19.786000 32546 net.cpp:380] inception_4c/3x3 <- inception_4c/3x3_reduce
I1230 19:25:19.786012 32546 net.cpp:338] inception_4c/3x3 -> inception_4c/3x3
I1230 19:25:19.786025 32546 net.cpp:113] Setting up inception_4c/3x3
I1230 19:25:19.790977 32546 net.cpp:120] Top shape: 50 256 14 14 (2508800)
I1230 19:25:19.791024 32546 layer_factory.hpp:74] Creating layer inception_4c/relu_3x3
I1230 19:25:19.791039 32546 net.cpp:84] Creating Layer inception_4c/relu_3x3
I1230 19:25:19.791049 32546 net.cpp:380] inception_4c/relu_3x3 <- inception_4c/3x3
I1230 19:25:19.791059 32546 net.cpp:327] inception_4c/relu_3x3 -> inception_4c/3x3 (in-place)
I1230 19:25:19.791071 32546 net.cpp:113] Setting up inception_4c/relu_3x3
I1230 19:25:19.791172 32546 net.cpp:120] Top shape: 50 256 14 14 (2508800)
I1230 19:25:19.791182 32546 layer_factory.hpp:74] Creating layer inception_4c/5x5_reduce
I1230 19:25:19.791195 32546 net.cpp:84] Creating Layer inception_4c/5x5_reduce
I1230 19:25:19.791203 32546 net.cpp:380] inception_4c/5x5_reduce <- inception_4b/output_inception_4b/output_0_split_2
I1230 19:25:19.791216 32546 net.cpp:338] inception_4c/5x5_reduce -> inception_4c/5x5_reduce
I1230 19:25:19.791229 32546 net.cpp:113] Setting up inception_4c/5x5_reduce
I1230 19:25:19.791976 32546 net.cpp:120] Top shape: 50 24 14 14 (235200)
I1230 19:25:19.791998 32546 layer_factory.hpp:74] Creating layer inception_4c/relu_5x5_reduce
I1230 19:25:19.792009 32546 net.cpp:84] Creating Layer inception_4c/relu_5x5_reduce
I1230 19:25:19.792016 32546 net.cpp:380] inception_4c/relu_5x5_reduce <- inception_4c/5x5_reduce
I1230 19:25:19.792027 32546 net.cpp:327] inception_4c/relu_5x5_reduce -> inception_4c/5x5_reduce (in-place)
I1230 19:25:19.792037 32546 net.cpp:113] Setting up inception_4c/relu_5x5_reduce
I1230 19:25:19.792403 32546 net.cpp:120] Top shape: 50 24 14 14 (235200)
I1230 19:25:19.792418 32546 layer_factory.hpp:74] Creating layer inception_4c/5x5
I1230 19:25:19.792433 32546 net.cpp:84] Creating Layer inception_4c/5x5
I1230 19:25:19.792440 32546 net.cpp:380] inception_4c/5x5 <- inception_4c/5x5_reduce
I1230 19:25:19.792454 32546 net.cpp:338] inception_4c/5x5 -> inception_4c/5x5
I1230 19:25:19.792466 32546 net.cpp:113] Setting up inception_4c/5x5
I1230 19:25:19.793563 32546 net.cpp:120] Top shape: 50 64 14 14 (627200)
I1230 19:25:19.793584 32546 layer_factory.hpp:74] Creating layer inception_4c/relu_5x5
I1230 19:25:19.793597 32546 net.cpp:84] Creating Layer inception_4c/relu_5x5
I1230 19:25:19.793606 32546 net.cpp:380] inception_4c/relu_5x5 <- inception_4c/5x5
I1230 19:25:19.793615 32546 net.cpp:327] inception_4c/relu_5x5 -> inception_4c/5x5 (in-place)
I1230 19:25:19.793634 32546 net.cpp:113] Setting up inception_4c/relu_5x5
I1230 19:25:19.793746 32546 net.cpp:120] Top shape: 50 64 14 14 (627200)
I1230 19:25:19.793756 32546 layer_factory.hpp:74] Creating layer inception_4c/pool
I1230 19:25:19.793766 32546 layer_factory.cpp:56] CUDNN does not support padding or multiple tops. Using Caffe's own pooling layer.
I1230 19:25:19.793777 32546 net.cpp:84] Creating Layer inception_4c/pool
I1230 19:25:19.793786 32546 net.cpp:380] inception_4c/pool <- inception_4b/output_inception_4b/output_0_split_3
I1230 19:25:19.793798 32546 net.cpp:338] inception_4c/pool -> inception_4c/pool
I1230 19:25:19.793809 32546 net.cpp:113] Setting up inception_4c/pool
I1230 19:25:19.793823 32546 net.cpp:120] Top shape: 50 512 14 14 (5017600)
I1230 19:25:19.793831 32546 layer_factory.hpp:74] Creating layer inception_4c/pool_proj
I1230 19:25:19.793844 32546 net.cpp:84] Creating Layer inception_4c/pool_proj
I1230 19:25:19.793853 32546 net.cpp:380] inception_4c/pool_proj <- inception_4c/pool
I1230 19:25:19.793864 32546 net.cpp:338] inception_4c/pool_proj -> inception_4c/pool_proj
I1230 19:25:19.793876 32546 net.cpp:113] Setting up inception_4c/pool_proj
I1230 19:25:19.794893 32546 net.cpp:120] Top shape: 50 64 14 14 (627200)
I1230 19:25:19.794914 32546 layer_factory.hpp:74] Creating layer inception_4c/relu_pool_proj
I1230 19:25:19.794925 32546 net.cpp:84] Creating Layer inception_4c/relu_pool_proj
I1230 19:25:19.794934 32546 net.cpp:380] inception_4c/relu_pool_proj <- inception_4c/pool_proj
I1230 19:25:19.794944 32546 net.cpp:327] inception_4c/relu_pool_proj -> inception_4c/pool_proj (in-place)
I1230 19:25:19.794955 32546 net.cpp:113] Setting up inception_4c/relu_pool_proj
I1230 19:25:19.795049 32546 net.cpp:120] Top shape: 50 64 14 14 (627200)
I1230 19:25:19.795058 32546 layer_factory.hpp:74] Creating layer inception_4c/output
I1230 19:25:19.795069 32546 net.cpp:84] Creating Layer inception_4c/output
I1230 19:25:19.795076 32546 net.cpp:380] inception_4c/output <- inception_4c/1x1
I1230 19:25:19.795085 32546 net.cpp:380] inception_4c/output <- inception_4c/3x3
I1230 19:25:19.795094 32546 net.cpp:380] inception_4c/output <- inception_4c/5x5
I1230 19:25:19.795102 32546 net.cpp:380] inception_4c/output <- inception_4c/pool_proj
I1230 19:25:19.795111 32546 net.cpp:338] inception_4c/output -> inception_4c/output
I1230 19:25:19.795121 32546 net.cpp:113] Setting up inception_4c/output
I1230 19:25:19.795135 32546 net.cpp:120] Top shape: 50 512 14 14 (5017600)
I1230 19:25:19.795141 32546 layer_factory.hpp:74] Creating layer inception_4c/output_inception_4c/output_0_split
I1230 19:25:19.795151 32546 net.cpp:84] Creating Layer inception_4c/output_inception_4c/output_0_split
I1230 19:25:19.795158 32546 net.cpp:380] inception_4c/output_inception_4c/output_0_split <- inception_4c/output
I1230 19:25:19.795171 32546 net.cpp:338] inception_4c/output_inception_4c/output_0_split -> inception_4c/output_inception_4c/output_0_split_0
I1230 19:25:19.795182 32546 net.cpp:338] inception_4c/output_inception_4c/output_0_split -> inception_4c/output_inception_4c/output_0_split_1
I1230 19:25:19.795193 32546 net.cpp:338] inception_4c/output_inception_4c/output_0_split -> inception_4c/output_inception_4c/output_0_split_2
I1230 19:25:19.795204 32546 net.cpp:338] inception_4c/output_inception_4c/output_0_split -> inception_4c/output_inception_4c/output_0_split_3
I1230 19:25:19.795214 32546 net.cpp:113] Setting up inception_4c/output_inception_4c/output_0_split
I1230 19:25:19.795228 32546 net.cpp:120] Top shape: 50 512 14 14 (5017600)
I1230 19:25:19.795238 32546 net.cpp:120] Top shape: 50 512 14 14 (5017600)
I1230 19:25:19.795245 32546 net.cpp:120] Top shape: 50 512 14 14 (5017600)
I1230 19:25:19.795253 32546 net.cpp:120] Top shape: 50 512 14 14 (5017600)
I1230 19:25:19.795260 32546 layer_factory.hpp:74] Creating layer inception_4d/1x1
I1230 19:25:19.795272 32546 net.cpp:84] Creating Layer inception_4d/1x1
I1230 19:25:19.795279 32546 net.cpp:380] inception_4d/1x1 <- inception_4c/output_inception_4c/output_0_split_0
I1230 19:25:19.795291 32546 net.cpp:338] inception_4d/1x1 -> inception_4d/1x1
I1230 19:25:19.795320 32546 net.cpp:113] Setting up inception_4d/1x1
I1230 19:25:19.796661 32546 net.cpp:120] Top shape: 50 112 14 14 (1097600)
I1230 19:25:19.796681 32546 layer_factory.hpp:74] Creating layer inception_4d/relu_1x1
I1230 19:25:19.796691 32546 net.cpp:84] Creating Layer inception_4d/relu_1x1
I1230 19:25:19.796700 32546 net.cpp:380] inception_4d/relu_1x1 <- inception_4d/1x1
I1230 19:25:19.796710 32546 net.cpp:327] inception_4d/relu_1x1 -> inception_4d/1x1 (in-place)
I1230 19:25:19.796720 32546 net.cpp:113] Setting up inception_4d/relu_1x1
I1230 19:25:19.796813 32546 net.cpp:120] Top shape: 50 112 14 14 (1097600)
I1230 19:25:19.796823 32546 layer_factory.hpp:74] Creating layer inception_4d/3x3_reduce
I1230 19:25:19.796838 32546 net.cpp:84] Creating Layer inception_4d/3x3_reduce
I1230 19:25:19.796844 32546 net.cpp:380] inception_4d/3x3_reduce <- inception_4c/output_inception_4c/output_0_split_1
I1230 19:25:19.796857 32546 net.cpp:338] inception_4d/3x3_reduce -> inception_4d/3x3_reduce
I1230 19:25:19.796869 32546 net.cpp:113] Setting up inception_4d/3x3_reduce
I1230 19:25:19.798419 32546 net.cpp:120] Top shape: 50 144 14 14 (1411200)
I1230 19:25:19.798440 32546 layer_factory.hpp:74] Creating layer inception_4d/relu_3x3_reduce
I1230 19:25:19.798450 32546 net.cpp:84] Creating Layer inception_4d/relu_3x3_reduce
I1230 19:25:19.798459 32546 net.cpp:380] inception_4d/relu_3x3_reduce <- inception_4d/3x3_reduce
I1230 19:25:19.798468 32546 net.cpp:327] inception_4d/relu_3x3_reduce -> inception_4d/3x3_reduce (in-place)
I1230 19:25:19.798480 32546 net.cpp:113] Setting up inception_4d/relu_3x3_reduce
I1230 19:25:19.798843 32546 net.cpp:120] Top shape: 50 144 14 14 (1411200)
I1230 19:25:19.798857 32546 layer_factory.hpp:74] Creating layer inception_4d/3x3
I1230 19:25:19.798871 32546 net.cpp:84] Creating Layer inception_4d/3x3
I1230 19:25:19.798877 32546 net.cpp:380] inception_4d/3x3 <- inception_4d/3x3_reduce
I1230 19:25:19.798890 32546 net.cpp:338] inception_4d/3x3 -> inception_4d/3x3
I1230 19:25:19.798903 32546 net.cpp:113] Setting up inception_4d/3x3
I1230 19:25:19.804359 32546 net.cpp:120] Top shape: 50 288 14 14 (2822400)
I1230 19:25:19.804383 32546 layer_factory.hpp:74] Creating layer inception_4d/relu_3x3
I1230 19:25:19.804397 32546 net.cpp:84] Creating Layer inception_4d/relu_3x3
I1230 19:25:19.804406 32546 net.cpp:380] inception_4d/relu_3x3 <- inception_4d/3x3
I1230 19:25:19.804416 32546 net.cpp:327] inception_4d/relu_3x3 -> inception_4d/3x3 (in-place)
I1230 19:25:19.804427 32546 net.cpp:113] Setting up inception_4d/relu_3x3
I1230 19:25:19.804522 32546 net.cpp:120] Top shape: 50 288 14 14 (2822400)
I1230 19:25:19.804530 32546 layer_factory.hpp:74] Creating layer inception_4d/5x5_reduce
I1230 19:25:19.804544 32546 net.cpp:84] Creating Layer inception_4d/5x5_reduce
I1230 19:25:19.804553 32546 net.cpp:380] inception_4d/5x5_reduce <- inception_4c/output_inception_4c/output_0_split_2
I1230 19:25:19.804563 32546 net.cpp:338] inception_4d/5x5_reduce -> inception_4d/5x5_reduce
I1230 19:25:19.804575 32546 net.cpp:113] Setting up inception_4d/5x5_reduce
I1230 19:25:19.805461 32546 net.cpp:120] Top shape: 50 32 14 14 (313600)
I1230 19:25:19.805482 32546 layer_factory.hpp:74] Creating layer inception_4d/relu_5x5_reduce
I1230 19:25:19.805493 32546 net.cpp:84] Creating Layer inception_4d/relu_5x5_reduce
I1230 19:25:19.805505 32546 net.cpp:380] inception_4d/relu_5x5_reduce <- inception_4d/5x5_reduce
I1230 19:25:19.805515 32546 net.cpp:327] inception_4d/relu_5x5_reduce -> inception_4d/5x5_reduce (in-place)
I1230 19:25:19.805526 32546 net.cpp:113] Setting up inception_4d/relu_5x5_reduce
I1230 19:25:19.805622 32546 net.cpp:120] Top shape: 50 32 14 14 (313600)
I1230 19:25:19.805631 32546 layer_factory.hpp:74] Creating layer inception_4d/5x5
I1230 19:25:19.805647 32546 net.cpp:84] Creating Layer inception_4d/5x5
I1230 19:25:19.805655 32546 net.cpp:380] inception_4d/5x5 <- inception_4d/5x5_reduce
I1230 19:25:19.805667 32546 net.cpp:338] inception_4d/5x5 -> inception_4d/5x5
I1230 19:25:19.805678 32546 net.cpp:113] Setting up inception_4d/5x5
I1230 19:25:19.806943 32546 net.cpp:120] Top shape: 50 64 14 14 (627200)
I1230 19:25:19.806975 32546 layer_factory.hpp:74] Creating layer inception_4d/relu_5x5
I1230 19:25:19.806987 32546 net.cpp:84] Creating Layer inception_4d/relu_5x5
I1230 19:25:19.806994 32546 net.cpp:380] inception_4d/relu_5x5 <- inception_4d/5x5
I1230 19:25:19.807006 32546 net.cpp:327] inception_4d/relu_5x5 -> inception_4d/5x5 (in-place)
I1230 19:25:19.807018 32546 net.cpp:113] Setting up inception_4d/relu_5x5
I1230 19:25:19.807113 32546 net.cpp:120] Top shape: 50 64 14 14 (627200)
I1230 19:25:19.807124 32546 layer_factory.hpp:74] Creating layer inception_4d/pool
I1230 19:25:19.807133 32546 layer_factory.cpp:56] CUDNN does not support padding or multiple tops. Using Caffe's own pooling layer.
I1230 19:25:19.807144 32546 net.cpp:84] Creating Layer inception_4d/pool
I1230 19:25:19.807152 32546 net.cpp:380] inception_4d/pool <- inception_4c/output_inception_4c/output_0_split_3
I1230 19:25:19.807163 32546 net.cpp:338] inception_4d/pool -> inception_4d/pool
I1230 19:25:19.807174 32546 net.cpp:113] Setting up inception_4d/pool
I1230 19:25:19.807190 32546 net.cpp:120] Top shape: 50 512 14 14 (5017600)
I1230 19:25:19.807198 32546 layer_factory.hpp:74] Creating layer inception_4d/pool_proj
I1230 19:25:19.807212 32546 net.cpp:84] Creating Layer inception_4d/pool_proj
I1230 19:25:19.807219 32546 net.cpp:380] inception_4d/pool_proj <- inception_4d/pool
I1230 19:25:19.807234 32546 net.cpp:338] inception_4d/pool_proj -> inception_4d/pool_proj
I1230 19:25:19.807245 32546 net.cpp:113] Setting up inception_4d/pool_proj
I1230 19:25:19.808257 32546 net.cpp:120] Top shape: 50 64 14 14 (627200)
I1230 19:25:19.808277 32546 layer_factory.hpp:74] Creating layer inception_4d/relu_pool_proj
I1230 19:25:19.808292 32546 net.cpp:84] Creating Layer inception_4d/relu_pool_proj
I1230 19:25:19.808300 32546 net.cpp:380] inception_4d/relu_pool_proj <- inception_4d/pool_proj
I1230 19:25:19.808310 32546 net.cpp:327] inception_4d/relu_pool_proj -> inception_4d/pool_proj (in-place)
I1230 19:25:19.808321 32546 net.cpp:113] Setting up inception_4d/relu_pool_proj
I1230 19:25:19.808989 32546 net.cpp:120] Top shape: 50 64 14 14 (627200)
I1230 19:25:19.809005 32546 layer_factory.hpp:74] Creating layer inception_4d/output
I1230 19:25:19.809015 32546 net.cpp:84] Creating Layer inception_4d/output
I1230 19:25:19.809023 32546 net.cpp:380] inception_4d/output <- inception_4d/1x1
I1230 19:25:19.809032 32546 net.cpp:380] inception_4d/output <- inception_4d/3x3
I1230 19:25:19.809041 32546 net.cpp:380] inception_4d/output <- inception_4d/5x5
I1230 19:25:19.809049 32546 net.cpp:380] inception_4d/output <- inception_4d/pool_proj
I1230 19:25:19.809073 32546 net.cpp:338] inception_4d/output -> inception_4d/output
I1230 19:25:19.809087 32546 net.cpp:113] Setting up inception_4d/output
I1230 19:25:19.809103 32546 net.cpp:120] Top shape: 50 528 14 14 (5174400)
I1230 19:25:19.809109 32546 layer_factory.hpp:74] Creating layer inception_4d/output_inception_4d/output_0_split
I1230 19:25:19.809123 32546 net.cpp:84] Creating Layer inception_4d/output_inception_4d/output_0_split
I1230 19:25:19.809130 32546 net.cpp:380] inception_4d/output_inception_4d/output_0_split <- inception_4d/output
I1230 19:25:19.809142 32546 net.cpp:338] inception_4d/output_inception_4d/output_0_split -> inception_4d/output_inception_4d/output_0_split_0
I1230 19:25:19.809154 32546 net.cpp:338] inception_4d/output_inception_4d/output_0_split -> inception_4d/output_inception_4d/output_0_split_1
I1230 19:25:19.809165 32546 net.cpp:338] inception_4d/output_inception_4d/output_0_split -> inception_4d/output_inception_4d/output_0_split_2
I1230 19:25:19.809177 32546 net.cpp:338] inception_4d/output_inception_4d/output_0_split -> inception_4d/output_inception_4d/output_0_split_3
I1230 19:25:19.809187 32546 net.cpp:338] inception_4d/output_inception_4d/output_0_split -> inception_4d/output_inception_4d/output_0_split_4
I1230 19:25:19.809198 32546 net.cpp:113] Setting up inception_4d/output_inception_4d/output_0_split
I1230 19:25:19.809217 32546 net.cpp:120] Top shape: 50 528 14 14 (5174400)
I1230 19:25:19.809237 32546 net.cpp:120] Top shape: 50 528 14 14 (5174400)
I1230 19:25:19.809245 32546 net.cpp:120] Top shape: 50 528 14 14 (5174400)
I1230 19:25:19.809253 32546 net.cpp:120] Top shape: 50 528 14 14 (5174400)
I1230 19:25:19.809262 32546 net.cpp:120] Top shape: 50 528 14 14 (5174400)
I1230 19:25:19.809268 32546 layer_factory.hpp:74] Creating layer loss2/ave_pool
I1230 19:25:19.809280 32546 net.cpp:84] Creating Layer loss2/ave_pool
I1230 19:25:19.809288 32546 net.cpp:380] loss2/ave_pool <- inception_4d/output_inception_4d/output_0_split_0
I1230 19:25:19.809299 32546 net.cpp:338] loss2/ave_pool -> loss2/ave_pool
I1230 19:25:19.809309 32546 net.cpp:113] Setting up loss2/ave_pool
I1230 19:25:19.809415 32546 net.cpp:120] Top shape: 50 528 4 4 (422400)
I1230 19:25:19.809425 32546 layer_factory.hpp:74] Creating layer loss2/conv
I1230 19:25:19.809442 32546 net.cpp:84] Creating Layer loss2/conv
I1230 19:25:19.809449 32546 net.cpp:380] loss2/conv <- loss2/ave_pool
I1230 19:25:19.809459 32546 net.cpp:338] loss2/conv -> loss2/conv
I1230 19:25:19.809471 32546 net.cpp:113] Setting up loss2/conv
I1230 19:25:19.810928 32546 net.cpp:120] Top shape: 50 128 4 4 (102400)
I1230 19:25:19.810948 32546 layer_factory.hpp:74] Creating layer loss2/relu_conv
I1230 19:25:19.810958 32546 net.cpp:84] Creating Layer loss2/relu_conv
I1230 19:25:19.810966 32546 net.cpp:380] loss2/relu_conv <- loss2/conv
I1230 19:25:19.810976 32546 net.cpp:327] loss2/relu_conv -> loss2/conv (in-place)
I1230 19:25:19.810987 32546 net.cpp:113] Setting up loss2/relu_conv
I1230 19:25:19.811080 32546 net.cpp:120] Top shape: 50 128 4 4 (102400)
I1230 19:25:19.811089 32546 layer_factory.hpp:74] Creating layer loss2/fc
I1230 19:25:19.811102 32546 net.cpp:84] Creating Layer loss2/fc
I1230 19:25:19.811110 32546 net.cpp:380] loss2/fc <- loss2/conv
I1230 19:25:19.811122 32546 net.cpp:338] loss2/fc -> loss2/fc
I1230 19:25:19.811136 32546 net.cpp:113] Setting up loss2/fc
I1230 19:25:19.967943 32546 net.cpp:120] Top shape: 50 1024 (51200)
I1230 19:25:19.967994 32546 layer_factory.hpp:74] Creating layer loss2/relu_fc
I1230 19:25:19.968011 32546 net.cpp:84] Creating Layer loss2/relu_fc
I1230 19:25:19.968024 32546 net.cpp:380] loss2/relu_fc <- loss2/fc
I1230 19:25:19.968039 32546 net.cpp:327] loss2/relu_fc -> loss2/fc (in-place)
I1230 19:25:19.968052 32546 net.cpp:113] Setting up loss2/relu_fc
I1230 19:25:19.968214 32546 net.cpp:120] Top shape: 50 1024 (51200)
I1230 19:25:19.968226 32546 layer_factory.hpp:74] Creating layer loss2/drop_fc
I1230 19:25:19.968238 32546 net.cpp:84] Creating Layer loss2/drop_fc
I1230 19:25:19.968246 32546 net.cpp:380] loss2/drop_fc <- loss2/fc
I1230 19:25:19.968257 32546 net.cpp:327] loss2/drop_fc -> loss2/fc (in-place)
I1230 19:25:19.968268 32546 net.cpp:113] Setting up loss2/drop_fc
I1230 19:25:19.968281 32546 net.cpp:120] Top shape: 50 1024 (51200)
I1230 19:25:19.968288 32546 layer_factory.hpp:74] Creating layer loss2/classifier_kaggle
I1230 19:25:19.968302 32546 net.cpp:84] Creating Layer loss2/classifier_kaggle
I1230 19:25:19.968308 32546 net.cpp:380] loss2/classifier_kaggle <- loss2/fc
I1230 19:25:19.968318 32546 net.cpp:338] loss2/classifier_kaggle -> loss2/classifier_kaggle
I1230 19:25:19.968333 32546 net.cpp:113] Setting up loss2/classifier_kaggle
I1230 19:25:19.977885 32546 net.cpp:120] Top shape: 50 447 (22350)
I1230 19:25:19.977911 32546 layer_factory.hpp:74] Creating layer loss2/classifier_kaggle_loss2/classifier_kaggle_0_split
I1230 19:25:19.977924 32546 net.cpp:84] Creating Layer loss2/classifier_kaggle_loss2/classifier_kaggle_0_split
I1230 19:25:19.977933 32546 net.cpp:380] loss2/classifier_kaggle_loss2/classifier_kaggle_0_split <- loss2/classifier_kaggle
I1230 19:25:19.977946 32546 net.cpp:338] loss2/classifier_kaggle_loss2/classifier_kaggle_0_split -> loss2/classifier_kaggle_loss2/classifier_kaggle_0_split_0
I1230 19:25:19.977962 32546 net.cpp:338] loss2/classifier_kaggle_loss2/classifier_kaggle_0_split -> loss2/classifier_kaggle_loss2/classifier_kaggle_0_split_1
I1230 19:25:19.977987 32546 net.cpp:338] loss2/classifier_kaggle_loss2/classifier_kaggle_0_split -> loss2/classifier_kaggle_loss2/classifier_kaggle_0_split_2
I1230 19:25:19.978010 32546 net.cpp:113] Setting up loss2/classifier_kaggle_loss2/classifier_kaggle_0_split
I1230 19:25:19.978024 32546 net.cpp:120] Top shape: 50 447 (22350)
I1230 19:25:19.978031 32546 net.cpp:120] Top shape: 50 447 (22350)
I1230 19:25:19.978039 32546 net.cpp:120] Top shape: 50 447 (22350)
I1230 19:25:19.978049 32546 layer_factory.hpp:74] Creating layer loss2/loss
I1230 19:25:19.978060 32546 net.cpp:84] Creating Layer loss2/loss
I1230 19:25:19.978066 32546 net.cpp:380] loss2/loss <- loss2/classifier_kaggle_loss2/classifier_kaggle_0_split_0
I1230 19:25:19.978076 32546 net.cpp:380] loss2/loss <- label_data_1_split_3
I1230 19:25:19.978090 32546 net.cpp:338] loss2/loss -> loss2/loss1
…
I1230 19:25:19.979197 32546 net.cpp:338] loss2/top-5 -> loss2/top-5
I1230 19:25:19.979207 32546 net.cpp:113] Setting up loss2/top-5
I1230 19:25:19.979218 32546 net.cpp:120] Top shape: (1)
I1230 19:25:19.979223 32546 layer_factory.hpp:74] Creating layer inception_4e/1x1
I1230 19:25:19.979240 32546 net.cpp:84] Creating Layer inception_4e/1x1
I1230 19:25:19.979249 32546 net.cpp:380] inception_4e/1x1 <- inception_4d/output_inception_4d/output_0_split_1
I1230 19:25:19.979259 32546 net.cpp:338] inception_4e/1x1 -> inception_4e/1x1
I1230 19:25:19.979270 32546 net.cpp:113] Setting up inception_4e/1x1
I1230 19:25:19.986990 32546 net.cpp:120] Top shape: 50 256 14 14 (2508800)
I1230 19:25:19.987021 32546 layer_factory.hpp:74] Creating layer inception_4e/relu_1x1
I1230 19:25:19.987038 32546 net.cpp:84] Creating Layer inception_4e/relu_1x1
I1230 19:25:19.987048 32546 net.cpp:380] inception_4e/relu_1x1 <- inception_4e/1x1
I1230 19:25:19.987061 32546 net.cpp:327] inception_4e/relu_1x1 -> inception_4e/1x1 (in-place)
I1230 19:25:19.987072 32546 net.cpp:113] Setting up inception_4e/relu_1x1
I1230 19:25:19.987172 32546 net.cpp:120] Top shape: 50 256 14 14 (2508800)
I1230 19:25:19.987185 32546 layer_factory.hpp:74] Creating layer inception_4e/3x3_reduce
I1230 19:25:19.987231 32546 net.cpp:84] Creating Layer inception_4e/3x3_reduce
I1230 19:25:19.987241 32546 net.cpp:380] inception_4e/3x3_reduce <- inception_4d/output_inception_4d/output_0_split_2
I1230 19:25:19.987252 32546 net.cpp:338] inception_4e/3x3_reduce -> inception_4e/3x3_reduce
I1230 19:25:19.987265 32546 net.cpp:113] Setting up inception_4e/3x3_reduce
I1230 19:25:19.989168 32546 net.cpp:120] Top shape: 50 160 14 14 (1568000)
I1230 19:25:19.989192 32546 layer_factory.hpp:74] Creating layer inception_4e/relu_3x3_reduce
I1230 19:25:19.989202 32546 net.cpp:84] Creating Layer inception_4e/relu_3x3_reduce
I1230 19:25:19.989210 32546 net.cpp:380] inception_4e/relu_3x3_reduce <- inception_4e/3x3_reduce
I1230 19:25:19.989220 32546 net.cpp:327] inception_4e/relu_3x3_reduce -> inception_4e/3x3_reduce (in-place)
I1230 19:25:19.989240 32546 net.cpp:113] Setting up inception_4e/relu_3x3_reduce
I1230 19:25:19.989358 32546 net.cpp:120] Top shape: 50 160 14 14 (1568000)
I1230 19:25:19.989368 32546 layer_factory.hpp:74] Creating layer inception_4e/3x3
I1230 19:25:19.989384 32546 net.cpp:84] Creating Layer inception_4e/3x3
I1230 19:25:19.989392 32546 net.cpp:380] inception_4e/3x3 <- inception_4e/3x3_reduce
I1230 19:25:19.989403 32546 net.cpp:338] inception_4e/3x3 -> inception_4e/3x3
I1230 19:25:19.989414 32546 net.cpp:113] Setting up inception_4e/3x3
I1230 19:25:19.996045 32546 net.cpp:120] Top shape: 50 320 14 14 (3136000)
I1230 19:25:19.996069 32546 layer_factory.hpp:74] Creating layer inception_4e/relu_3x3
I1230 19:25:19.996080 32546 net.cpp:84] Creating Layer inception_4e/relu_3x3
I1230 19:25:19.996088 32546 net.cpp:380] inception_4e/relu_3x3 <- inception_4e/3x3
I1230 19:25:19.996098 32546 net.cpp:327] inception_4e/relu_3x3 -> inception_4e/3x3 (in-place)
I1230 19:25:19.996109 32546 net.cpp:113] Setting up inception_4e/relu_3x3
I1230 19:25:19.996469 32546 net.cpp:120] Top shape: 50 320 14 14 (3136000)
I1230 19:25:19.996485 32546 layer_factory.hpp:74] Creating layer inception_4e/5x5_reduce
I1230 19:25:19.996498 32546 net.cpp:84] Creating Layer inception_4e/5x5_reduce
I1230 19:25:19.996506 32546 net.cpp:380] inception_4e/5x5_reduce <- inception_4d/output_inception_4d/output_0_split_3
I1230 19:25:19.996518 32546 net.cpp:338] inception_4e/5x5_reduce -> inception_4e/5x5_reduce
I1230 19:25:19.996531 32546 net.cpp:113] Setting up inception_4e/5x5_reduce
I1230 19:25:19.997321 32546 net.cpp:120] Top shape: 50 32 14 14 (313600)
I1230 19:25:19.997342 32546 layer_factory.hpp:74] Creating layer inception_4e/relu_5x5_reduce
I1230 19:25:19.997359 32546 net.cpp:84] Creating Layer inception_4e/relu_5x5_reduce
I1230 19:25:19.997367 32546 net.cpp:380] inception_4e/relu_5x5_reduce <- inception_4e/5x5_reduce
I1230 19:25:19.997378 32546 net.cpp:327] inception_4e/relu_5x5_reduce -> inception_4e/5x5_reduce (in-place)
I1230 19:25:19.997388 32546 net.cpp:113] Setting up inception_4e/relu_5x5_reduce
I1230 19:25:19.997486 32546 net.cpp:120] Top shape: 50 32 14 14 (313600)
I1230 19:25:19.997498 32546 layer_factory.hpp:74] Creating layer inception_4e/5x5
I1230 19:25:19.997509 32546 net.cpp:84] Creating Layer inception_4e/5x5
I1230 19:25:19.997516 32546 net.cpp:380] inception_4e/5x5 <- inception_4e/5x5_reduce
I1230 19:25:19.997529 32546 net.cpp:338] inception_4e/5x5 -> inception_4e/5x5
I1230 19:25:19.997541 32546 net.cpp:113] Setting up inception_4e/5x5
I1230 19:25:19.999423 32546 net.cpp:120] Top shape: 50 128 14 14 (1254400)
I1230 19:25:19.999444 32546 layer_factory.hpp:74] Creating layer inception_4e/relu_5x5
I1230 19:25:19.999454 32546 net.cpp:84] Creating Layer inception_4e/relu_5x5
I1230 19:25:19.999462 32546 net.cpp:380] inception_4e/relu_5x5 <- inception_4e/5x5
I1230 19:25:19.999475 32546 net.cpp:327] inception_4e/relu_5x5 -> inception_4e/5x5 (in-place)
I1230 19:25:19.999485 32546 net.cpp:113] Setting up inception_4e/relu_5x5
I1230 19:25:19.999577 32546 net.cpp:120] Top shape: 50 128 14 14 (1254400)
I1230 19:25:19.999588 32546 layer_factory.hpp:74] Creating layer inception_4e/pool
I1230 19:25:19.999598 32546 layer_factory.cpp:56] CUDNN does not support padding or multiple tops. Using Caffe's own pooling layer.
I1230 19:25:19.999608 32546 net.cpp:84] Creating Layer inception_4e/pool
I1230 19:25:19.999615 32546 net.cpp:380] inception_4e/pool <- inception_4d/output_inception_4d/output_0_split_4
I1230 19:25:19.999629 32546 net.cpp:338] inception_4e/pool -> inception_4e/pool
I1230 19:25:19.999639 32546 net.cpp:113] Setting up inception_4e/pool
I1230 19:25:19.999653 32546 net.cpp:120] Top shape: 50 528 14 14 (5174400)
I1230 19:25:19.999662 32546 layer_factory.hpp:74] Creating layer inception_4e/pool_proj
I1230 19:25:19.999675 32546 net.cpp:84] Creating Layer inception_4e/pool_proj
I1230 19:25:19.999681 32546 net.cpp:380] inception_4e/pool_proj <- inception_4e/pool
I1230 19:25:19.999697 32546 net.cpp:338] inception_4e/pool_proj -> inception_4e/pool_proj
I1230 19:25:19.999709 32546 net.cpp:113] Setting up inception_4e/pool_proj
I1230 19:25:20.001181 32546 net.cpp:120] Top shape: 50 128 14 14 (1254400)
I1230 19:25:20.001202 32546 layer_factory.hpp:74] Creating layer inception_4e/relu_pool_proj
I1230 19:25:20.001214 32546 net.cpp:84] Creating Layer inception_4e/relu_pool_proj
I1230 19:25:20.001224 32546 net.cpp:380] inception_4e/relu_pool_proj <- inception_4e/pool_proj
I1230 19:25:20.001233 32546 net.cpp:327] inception_4e/relu_pool_proj -> inception_4e/pool_proj (in-place)
I1230 19:25:20.001243 32546 net.cpp:113] Setting up inception_4e/relu_pool_proj
I1230 19:25:20.001338 32546 net.cpp:120] Top shape: 50 128 14 14 (1254400)
I1230 19:25:20.001346 32546 layer_factory.hpp:74] Creating layer inception_4e/output
I1230 19:25:20.001358 32546 net.cpp:84] Creating Layer inception_4e/output
I1230 19:25:20.001366 32546 net.cpp:380] inception_4e/output <- inception_4e/1x1
I1230 19:25:20.001375 32546 net.cpp:380] inception_4e/output <- inception_4e/3x3
I1230 19:25:20.001384 32546 net.cpp:380] inception_4e/output <- inception_4e/5x5
I1230 19:25:20.001392 32546 net.cpp:380] inception_4e/output <- inception_4e/pool_proj
I1230 19:25:20.001402 32546 net.cpp:338] inception_4e/output -> inception_4e/output
I1230 19:25:20.001413 32546 net.cpp:113] Setting up inception_4e/output
I1230 19:25:20.001426 32546 net.cpp:120] Top shape: 50 832 14 14 (8153600)
I1230 19:25:20.001433 32546 layer_factory.hpp:74] Creating layer pool4/3x3_s2
I1230 19:25:20.001446 32546 net.cpp:84] Creating Layer pool4/3x3_s2
I1230 19:25:20.001453 32546 net.cpp:380] pool4/3x3_s2 <- inception_4e/output
I1230 19:25:20.001464 32546 net.cpp:338] pool4/3x3_s2 -> pool4/3x3_s2
I1230 19:25:20.001476 32546 net.cpp:113] Setting up pool4/3x3_s2
I1230 19:25:20.001849 32546 net.cpp:120] Top shape: 50 832 7 7 (2038400)
I1230 19:25:20.001865 32546 layer_factory.hpp:74] Creating layer pool4/3x3_s2_pool4/3x3_s2_0_split
I1230 19:25:20.001876 32546 net.cpp:84] Creating Layer pool4/3x3_s2_pool4/3x3_s2_0_split
I1230 19:25:20.001884 32546 net.cpp:380] pool4/3x3_s2_pool4/3x3_s2_0_split <- pool4/3x3_s2
I1230 19:25:20.001898 32546 net.cpp:338] pool4/3x3_s2_pool4/3x3_s2_0_split -> pool4/3x3_s2_pool4/3x3_s2_0_split_0
I1230 19:25:20.001909 32546 net.cpp:338] pool4/3x3_s2_pool4/3x3_s2_0_split -> pool4/3x3_s2_pool4/3x3_s2_0_split_1
I1230 19:25:20.001920 32546 net.cpp:338] pool4/3x3_s2_pool4/3x3_s2_0_split -> pool4/3x3_s2_pool4/3x3_s2_0_split_2
I1230 19:25:20.001965 32546 net.cpp:338] pool4/3x3_s2_pool4/3x3_s2_0_split -> pool4/3x3_s2_pool4/3x3_s2_0_split_3
I1230 19:25:20.001976 32546 net.cpp:113] Setting up pool4/3x3_s2_pool4/3x3_s2_0_split
I1230 19:25:20.001988 32546 net.cpp:120] Top shape: 50 832 7 7 (2038400)
I1230 19:25:20.001996 32546 net.cpp:120] Top shape: 50 832 7 7 (2038400)
I1230 19:25:20.002007 32546 net.cpp:120] Top shape: 50 832 7 7 (2038400)
I1230 19:25:20.002015 32546 net.cpp:120] Top shape: 50 832 7 7 (2038400)
I1230 19:25:20.002022 32546 layer_factory.hpp:74] Creating layer inception_5a/1x1
I1230 19:25:20.002037 32546 net.cpp:84] Creating Layer inception_5a/1x1
I1230 19:25:20.002044 32546 net.cpp:380] inception_5a/1x1 <- pool4/3x3_s2_pool4/3x3_s2_0_split_0
I1230 19:25:20.002055 32546 net.cpp:338] inception_5a/1x1 -> inception_5a/1x1
I1230 19:25:20.002066 32546 net.cpp:113] Setting up inception_5a/1x1
I1230 19:25:20.005404 32546 net.cpp:120] Top shape: 50 256 7 7 (627200)
I1230 19:25:20.005426 32546 layer_factory.hpp:74] Creating layer inception_5a/relu_1x1
I1230 19:25:20.005437 32546 net.cpp:84] Creating Layer inception_5a/relu_1x1
I1230 19:25:20.005445 32546 net.cpp:380] inception_5a/relu_1x1 <- inception_5a/1x1
I1230 19:25:20.005457 32546 net.cpp:327] inception_5a/relu_1x1 -> inception_5a/1x1 (in-place)
I1230 19:25:20.005468 32546 net.cpp:113] Setting up inception_5a/relu_1x1
I1230 19:25:20.005565 32546 net.cpp:120] Top shape: 50 256 7 7 (627200)
I1230 19:25:20.005575 32546 layer_factory.hpp:74] Creating layer inception_5a/3x3_reduce
I1230 19:25:20.005589 32546 net.cpp:84] Creating Layer inception_5a/3x3_reduce
I1230 19:25:20.005597 32546 net.cpp:380] inception_5a/3x3_reduce <- pool4/3x3_s2_pool4/3x3_s2_0_split_1
I1230 19:25:20.005626 32546 net.cpp:338] inception_5a/3x3_reduce -> inception_5a/3x3_reduce
I1230 19:25:20.005640 32546 net.cpp:113] Setting up inception_5a/3x3_reduce
I1230 19:25:20.007942 32546 net.cpp:120] Top shape: 50 160 7 7 (392000)
I1230 19:25:20.007962 32546 layer_factory.hpp:74] Creating layer inception_5a/relu_3x3_reduce
I1230 19:25:20.007972 32546 net.cpp:84] Creating Layer inception_5a/relu_3x3_reduce
I1230 19:25:20.007980 32546 net.cpp:380] inception_5a/relu_3x3_reduce <- inception_5a/3x3_reduce
I1230 19:25:20.007993 32546 net.cpp:327] inception_5a/relu_3x3_reduce -> inception_5a/3x3_reduce (in-place)
I1230 19:25:20.008004 32546 net.cpp:113] Setting up inception_5a/relu_3x3_reduce
I1230 19:25:20.008105 32546 net.cpp:120] Top shape: 50 160 7 7 (392000)
I1230 19:25:20.008113 32546 layer_factory.hpp:74] Creating layer inception_5a/3x3
I1230 19:25:20.008126 32546 net.cpp:84] Creating Layer inception_5a/3x3
I1230 19:25:20.008133 32546 net.cpp:380] inception_5a/3x3 <- inception_5a/3x3_reduce
I1230 19:25:20.008146 32546 net.cpp:338] inception_5a/3x3 -> inception_5a/3x3
I1230 19:25:20.008157 32546 net.cpp:113] Setting up inception_5a/3x3
I1230 19:25:20.014688 32546 net.cpp:120] Top shape: 50 320 7 7 (784000)
I1230 19:25:20.014709 32546 layer_factory.hpp:74] Creating layer inception_5a/relu_3x3
I1230 19:25:20.014720 32546 net.cpp:84] Creating Layer inception_5a/relu_3x3
I1230 19:25:20.014729 32546 net.cpp:380] inception_5a/relu_3x3 <- inception_5a/3x3
I1230 19:25:20.014739 32546 net.cpp:327] inception_5a/relu_3x3 -> inception_5a/3x3 (in-place)
I1230 19:25:20.014750 32546 net.cpp:113] Setting up inception_5a/relu_3x3
I1230 19:25:20.014847 32546 net.cpp:120] Top shape: 50 320 7 7 (784000)
I1230 19:25:20.014856 32546 layer_factory.hpp:74] Creating layer inception_5a/5x5_reduce
I1230 19:25:20.014868 32546 net.cpp:84] Creating Layer inception_5a/5x5_reduce
I1230 19:25:20.014878 32546 net.cpp:380] inception_5a/5x5_reduce <- pool4/3x3_s2_pool4/3x3_s2_0_split_2
I1230 19:25:20.014889 32546 net.cpp:338] inception_5a/5x5_reduce -> inception_5a/5x5_reduce
I1230 19:25:20.014901 32546 net.cpp:113] Setting up inception_5a/5x5_reduce
I1230 19:25:20.015852 32546 net.cpp:120] Top shape: 50 32 7 7 (78400)
I1230 19:25:20.015872 32546 layer_factory.hpp:74] Creating layer inception_5a/relu_5x5_reduce
I1230 19:25:20.015885 32546 net.cpp:84] Creating Layer inception_5a/relu_5x5_reduce
I1230 19:25:20.015894 32546 net.cpp:380] inception_5a/relu_5x5_reduce <- inception_5a/5x5_reduce
I1230 19:25:20.015904 32546 net.cpp:327] inception_5a/relu_5x5_reduce -> inception_5a/5x5_reduce (in-place)
I1230 19:25:20.015914 32546 net.cpp:113] Setting up inception_5a/relu_5x5_reduce
I1230 19:25:20.016297 32546 net.cpp:120] Top shape: 50 32 7 7 (78400)
I1230 19:25:20.016311 32546 layer_factory.hpp:74] Creating layer inception_5a/5x5
I1230 19:25:20.016324 32546 net.cpp:84] Creating Layer inception_5a/5x5
I1230 19:25:20.016331 32546 net.cpp:380] inception_5a/5x5 <- inception_5a/5x5_reduce
I1230 19:25:20.016345 32546 net.cpp:338] inception_5a/5x5 -> inception_5a/5x5
I1230 19:25:20.016357 32546 net.cpp:113] Setting up inception_5a/5x5
I1230 19:25:20.018306 32546 net.cpp:120] Top shape: 50 128 7 7 (313600)
I1230 19:25:20.018327 32546 layer_factory.hpp:74] Creating layer inception_5a/relu_5x5
I1230 19:25:20.018338 32546 net.cpp:84] Creating Layer inception_5a/relu_5x5
I1230 19:25:20.018347 32546 net.cpp:380] inception_5a/relu_5x5 <- inception_5a/5x5
I1230 19:25:20.018357 32546 net.cpp:327] inception_5a/relu_5x5 -> inception_5a/5x5 (in-place)
I1230 19:25:20.018368 32546 net.cpp:113] Setting up inception_5a/relu_5x5
I1230 19:25:20.018465 32546 net.cpp:120] Top shape: 50 128 7 7 (313600)
I1230 19:25:20.018478 32546 layer_factory.hpp:74] Creating layer inception_5a/pool
I1230 19:25:20.018487 32546 layer_factory.cpp:56] CUDNN does not support padding or multiple tops. Using Caffe's own pooling layer.
I1230 19:25:20.018501 32546 net.cpp:84] Creating Layer inception_5a/pool
I1230 19:25:20.018508 32546 net.cpp:380] inception_5a/pool <- pool4/3x3_s2_pool4/3x3_s2_0_split_3
I1230 19:25:20.018538 32546 net.cpp:338] inception_5a/pool -> inception_5a/pool
I1230 19:25:20.018550 32546 net.cpp:113] Setting up inception_5a/pool
I1230 19:25:20.018564 32546 net.cpp:120] Top shape: 50 832 7 7 (2038400)
I1230 19:25:20.018573 32546 layer_factory.hpp:74] Creating layer inception_5a/pool_proj
I1230 19:25:20.018586 32546 net.cpp:84] Creating Layer inception_5a/pool_proj
I1230 19:25:20.018594 32546 net.cpp:380] inception_5a/pool_proj <- inception_5a/pool
I1230 19:25:20.018604 32546 net.cpp:338] inception_5a/pool_proj -> inception_5a/pool_proj
I1230 19:25:20.018616 32546 net.cpp:113] Setting up inception_5a/pool_proj
I1230 19:25:20.020596 32546 net.cpp:120] Top shape: 50 128 7 7 (313600)
I1230 19:25:20.020615 32546 layer_factory.hpp:74] Creating layer inception_5a/relu_pool_proj
I1230 19:25:20.020627 32546 net.cpp:84] Creating Layer inception_5a/relu_pool_proj
I1230 19:25:20.020634 32546 net.cpp:380] inception_5a/relu_pool_proj <- inception_5a/pool_proj
I1230 19:25:20.020644 32546 net.cpp:327] inception_5a/relu_pool_proj -> inception_5a/pool_proj (in-place)
I1230 19:25:20.020655 32546 net.cpp:113] Setting up inception_5a/relu_pool_proj
I1230 19:25:20.020751 32546 net.cpp:120] Top shape: 50 128 7 7 (313600)
I1230 19:25:20.020761 32546 layer_factory.hpp:74] Creating layer inception_5a/output
I1230 19:25:20.020771 32546 net.cpp:84] Creating Layer inception_5a/output
I1230 19:25:20.020778 32546 net.cpp:380] inception_5a/output <- inception_5a/1x1
I1230 19:25:20.020787 32546 net.cpp:380] inception_5a/output <- inception_5a/3x3
I1230 19:25:20.020797 32546 net.cpp:380] inception_5a/output <- inception_5a/5x5
I1230 19:25:20.020804 32546 net.cpp:380] inception_5a/output <- inception_5a/pool_proj
I1230 19:25:20.020813 32546 net.cpp:338] inception_5a/output -> inception_5a/output
I1230 19:25:20.020824 32546 net.cpp:113] Setting up inception_5a/output
I1230 19:25:20.020838 32546 net.cpp:120] Top shape: 50 832 7 7 (2038400)
I1230 19:25:20.020844 32546 layer_factory.hpp:74] Creating layer inception_5a/output_inception_5a/output_0_split
I1230 19:25:20.020858 32546 net.cpp:84] Creating Layer inception_5a/output_inception_5a/output_0_split
I1230 19:25:20.020865 32546 net.cpp:380] inception_5a/output_inception_5a/output_0_split <- inception_5a/output
I1230 19:25:20.020874 32546 net.cpp:338] inception_5a/output_inception_5a/output_0_split -> inception_5a/output_inception_5a/output_0_split_0
I1230 19:25:20.020886 32546 net.cpp:338] inception_5a/output_inception_5a/output_0_split -> inception_5a/output_inception_5a/output_0_split_1
I1230 19:25:20.020900 32546 net.cpp:338] inception_5a/output_inception_5a/output_0_split -> inception_5a/output_inception_5a/output_0_split_2
I1230 19:25:20.020911 32546 net.cpp:338] inception_5a/output_inception_5a/output_0_split -> inception_5a/output_inception_5a/output_0_split_3
I1230 19:25:20.020921 32546 net.cpp:113] Setting up inception_5a/output_inception_5a/output_0_split
I1230 19:25:20.020933 32546 net.cpp:120] Top shape: 50 832 7 7 (2038400)
I1230 19:25:20.020942 32546 net.cpp:120] Top shape: 50 832 7 7 (2038400)
I1230 19:25:20.020951 32546 net.cpp:120] Top shape: 50 832 7 7 (2038400)
I1230 19:25:20.020958 32546 net.cpp:120] Top shape: 50 832 7 7 (2038400)
I1230 19:25:20.020966 32546 layer_factory.hpp:74] Creating layer inception_5b/1x1
I1230 19:25:20.020977 32546 net.cpp:84] Creating Layer inception_5b/1x1
I1230 19:25:20.020985 32546 net.cpp:380] inception_5b/1x1 <- inception_5a/output_inception_5a/output_0_split_0
I1230 19:25:20.020998 32546 net.cpp:338] inception_5b/1x1 -> inception_5b/1x1
I1230 19:25:20.021009 32546 net.cpp:113] Setting up inception_5b/1x1
I1230 19:25:20.025730 32546 net.cpp:120] Top shape: 50 384 7 7 (940800)
I1230 19:25:20.025751 32546 layer_factory.hpp:74] Creating layer inception_5b/relu_1x1
I1230 19:25:20.025763 32546 net.cpp:84] Creating Layer inception_5b/relu_1x1
I1230 19:25:20.025771 32546 net.cpp:380] inception_5b/relu_1x1 <- inception_5b/1x1
I1230 19:25:20.025784 32546 net.cpp:327] inception_5b/relu_1x1 -> inception_5b/1x1 (in-place)
I1230 19:25:20.025804 32546 net.cpp:113] Setting up inception_5b/relu_1x1
I1230 19:25:20.025915 32546 net.cpp:120] Top shape: 50 384 7 7 (940800)
I1230 19:25:20.025925 32546 layer_factory.hpp:74] Creating layer inception_5b/3x3_reduce
I1230 19:25:20.025938 32546 net.cpp:84] Creating Layer inception_5b/3x3_reduce
I1230 19:25:20.025945 32546 net.cpp:380] inception_5b/3x3_reduce <- inception_5a/output_inception_5a/output_0_split_1
I1230 19:25:20.025959 32546 net.cpp:338] inception_5b/3x3_reduce -> inception_5b/3x3_reduce
I1230 19:25:20.025970 32546 net.cpp:113] Setting up inception_5b/3x3_reduce
I1230 19:25:20.028594 32546 net.cpp:120] Top shape: 50 192 7 7 (470400)
I1230 19:25:20.028614 32546 layer_factory.hpp:74] Creating layer inception_5b/relu_3x3_reduce
I1230 19:25:20.028625 32546 net.cpp:84] Creating Layer inception_5b/relu_3x3_reduce
I1230 19:25:20.028633 32546 net.cpp:380] inception_5b/relu_3x3_reduce <- inception_5b/3x3_reduce
I1230 19:25:20.028646 32546 net.cpp:327] inception_5b/relu_3x3_reduce -> inception_5b/3x3_reduce (in-place)
I1230 19:25:20.028657 32546 net.cpp:113] Setting up inception_5b/relu_3x3_reduce
I1230 19:25:20.029053 32546 net.cpp:120] Top shape: 50 192 7 7 (470400)
I1230 19:25:20.029079 32546 layer_factory.hpp:74] Creating layer inception_5b/3x3
I1230 19:25:20.029095 32546 net.cpp:84] Creating Layer inception_5b/3x3
I1230 19:25:20.029104 32546 net.cpp:380] inception_5b/3x3 <- inception_5b/3x3_reduce
I1230 19:25:20.029115 32546 net.cpp:338] inception_5b/3x3 -> inception_5b/3x3
I1230 19:25:20.029129 32546 net.cpp:113] Setting up inception_5b/3x3
I1230 19:25:20.038336 32546 net.cpp:120] Top shape: 50 384 7 7 (940800)
I1230 19:25:20.038367 32546 layer_factory.hpp:74] Creating layer inception_5b/relu_3x3
I1230 19:25:20.038383 32546 net.cpp:84] Creating Layer inception_5b/relu_3x3
I1230 19:25:20.038393 32546 net.cpp:380] inception_5b/relu_3x3 <- inception_5b/3x3
I1230 19:25:20.038404 32546 net.cpp:327] inception_5b/relu_3x3 -> inception_5b/3x3 (in-place)
I1230 19:25:20.038415 32546 net.cpp:113] Setting up inception_5b/relu_3x3
I1230 19:25:20.038513 32546 net.cpp:120] Top shape: 50 384 7 7 (940800)
I1230 19:25:20.038523 32546 layer_factory.hpp:74] Creating layer inception_5b/5x5_reduce
I1230 19:25:20.038539 32546 net.cpp:84] Creating Layer inception_5b/5x5_reduce
I1230 19:25:20.038548 32546 net.cpp:380] inception_5b/5x5_reduce <- inception_5a/output_inception_5a/output_0_split_2
I1230 19:25:20.038561 32546 net.cpp:338] inception_5b/5x5_reduce -> inception_5b/5x5_reduce
I1230 19:25:20.038574 32546 net.cpp:113] Setting up inception_5b/5x5_reduce
I1230 19:25:20.039696 32546 net.cpp:120] Top shape: 50 48 7 7 (117600)
I1230 19:25:20.039716 32546 layer_factory.hpp:74] Creating layer inception_5b/relu_5x5_reduce
I1230 19:25:20.039731 32546 net.cpp:84] Creating Layer inception_5b/relu_5x5_reduce
I1230 19:25:20.039738 32546 net.cpp:380] inception_5b/relu_5x5_reduce <- inception_5b/5x5_reduce
I1230 19:25:20.039751 32546 net.cpp:327] inception_5b/relu_5x5_reduce -> inception_5b/5x5_reduce (in-place)
I1230 19:25:20.039762 32546 net.cpp:113] Setting up inception_5b/relu_5x5_reduce
I1230 19:25:20.039860 32546 net.cpp:120] Top shape: 50 48 7 7 (117600)
I1230 19:25:20.039870 32546 layer_factory.hpp:74] Creating layer inception_5b/5x5
I1230 19:25:20.039883 32546 net.cpp:84] Creating Layer inception_5b/5x5
I1230 19:25:20.039891 32546 net.cpp:380] inception_5b/5x5 <- inception_5b/5x5_reduce
I1230 19:25:20.039903 32546 net.cpp:338] inception_5b/5x5 -> inception_5b/5x5
I1230 19:25:20.039916 32546 net.cpp:113] Setting up inception_5b/5x5
I1230 19:25:20.042553 32546 net.cpp:120] Top shape: 50 128 7 7 (313600)
I1230 19:25:20.042577 32546 layer_factory.hpp:74] Creating layer inception_5b/relu_5x5
I1230 19:25:20.042589 32546 net.cpp:84] Creating Layer inception_5b/relu_5x5
I1230 19:25:20.042598 32546 net.cpp:380] inception_5b/relu_5x5 <- inception_5b/5x5
I1230 19:25:20.042608 32546 net.cpp:327] inception_5b/relu_5x5 -> inception_5b/5x5 (in-place)
I1230 19:25:20.042619 32546 net.cpp:113] Setting up inception_5b/relu_5x5
I1230 19:25:20.043016 32546 net.cpp:120] Top shape: 50 128 7 7 (313600)
I1230 19:25:20.043045 32546 layer_factory.hpp:74] Creating layer inception_5b/pool
I1230 19:25:20.043054 32546 layer_factory.cpp:56] CUDNN does not support padding or multiple tops. Using Caffe's own pooling layer.
I1230 19:25:20.043066 32546 net.cpp:84] Creating Layer inception_5b/pool
I1230 19:25:20.043073 32546 net.cpp:380] inception_5b/pool <- inception_5a/output_inception_5a/output_0_split_3
I1230 19:25:20.043087 32546 net.cpp:338] inception_5b/pool -> inception_5b/pool
I1230 19:25:20.043099 32546 net.cpp:113] Setting up inception_5b/pool
I1230 19:25:20.043115 32546 net.cpp:120] Top shape: 50 832 7 7 (2038400)
I1230 19:25:20.043123 32546 layer_factory.hpp:74] Creating layer inception_5b/pool_proj
I1230 19:25:20.043138 32546 net.cpp:84] Creating Layer inception_5b/pool_proj
I1230 19:25:20.043146 32546 net.cpp:380] inception_5b/pool_proj <- inception_5b/pool
I1230 19:25:20.043159 32546 net.cpp:338] inception_5b/pool_proj -> inception_5b/pool_proj
I1230 19:25:20.043170 32546 net.cpp:113] Setting up inception_5b/pool_proj
I1230 19:25:20.045150 32546 net.cpp:120] Top shape: 50 128 7 7 (313600)
I1230 19:25:20.045171 32546 layer_factory.hpp:74] Creating layer inception_5b/relu_pool_proj
I1230 19:25:20.045186 32546 net.cpp:84] Creating Layer inception_5b/relu_pool_proj
I1230 19:25:20.045194 32546 net.cpp:380] inception_5b/relu_pool_proj <- inception_5b/pool_proj
I1230 19:25:20.045204 32546 net.cpp:327] inception_5b/relu_pool_proj -> inception_5b/pool_proj (in-place)
I1230 19:25:20.045215 32546 net.cpp:113] Setting up inception_5b/relu_pool_proj
I1230 19:25:20.045317 32546 net.cpp:120] Top shape: 50 128 7 7 (313600)
I1230 19:25:20.045327 32546 layer_factory.hpp:74] Creating layer inception_5b/output
I1230 19:25:20.045344 32546 net.cpp:84] Creating Layer inception_5b/output
I1230 19:25:20.045352 32546 net.cpp:380] inception_5b/output <- inception_5b/1x1
I1230 19:25:20.045362 32546 net.cpp:380] inception_5b/output <- inception_5b/3x3
I1230 19:25:20.045370 32546 net.cpp:380] inception_5b/output <- inception_5b/5x5
I1230 19:25:20.045378 32546 net.cpp:380] inception_5b/output <- inception_5b/pool_proj
I1230 19:25:20.045388 32546 net.cpp:338] inception_5b/output -> inception_5b/output
I1230 19:25:20.045399 32546 net.cpp:113] Setting up inception_5b/output
I1230 19:25:20.045413 32546 net.cpp:120] Top shape: 50 1024 7 7 (2508800)
I1230 19:25:20.045423 32546 layer_factory.hpp:74] Creating layer pool5/7x7_s1
I1230 19:25:20.045434 32546 net.cpp:84] Creating Layer pool5/7x7_s1
I1230 19:25:20.045442 32546 net.cpp:380] pool5/7x7_s1 <- inception_5b/output
I1230 19:25:20.045454 32546 net.cpp:338] pool5/7x7_s1 -> pool5/7x7_s1
I1230 19:25:20.045465 32546 net.cpp:113] Setting up pool5/7x7_s1
I1230 19:25:20.045564 32546 net.cpp:120] Top shape: 50 1024 1 1 (51200)
I1230 19:25:20.045574 32546 layer_factory.hpp:74] Creating layer pool5/drop_7x7_s1
I1230 19:25:20.045586 32546 net.cpp:84] Creating Layer pool5/drop_7x7_s1
I1230 19:25:20.045593 32546 net.cpp:380] pool5/drop_7x7_s1 <- pool5/7x7_s1
I1230 19:25:20.045603 32546 net.cpp:327] pool5/drop_7x7_s1 -> pool5/7x7_s1 (in-place)
I1230 19:25:20.045613 32546 net.cpp:113] Setting up pool5/drop_7x7_s1
I1230 19:25:20.045624 32546 net.cpp:120] Top shape: 50 1024 1 1 (51200)
I1230 19:25:20.045631 32546 layer_factory.hpp:74] Creating layer loss3/classifier_kaggle
I1230 19:25:20.045645 32546 net.cpp:84] Creating Layer loss3/classifier_kaggle
I1230 19:25:20.045652 32546 net.cpp:380] loss3/classifier_kaggle <- pool5/7x7_s1
I1230 19:25:20.045666 32546 net.cpp:338] loss3/classifier_kaggle -> loss3/classifier_kaggle
I1230 19:25:20.045678 32546 net.cpp:113] Setting up loss3/classifier_kaggle
I1230 19:25:20.051468 32546 net.cpp:120] Top shape: 50 447 (22350)
I1230 19:25:20.051487 32546 layer_factory.hpp:74] Creating layer loss3/classifier_kaggle_loss3/classifier_kaggle_0_split
I1230 19:25:20.051499 32546 net.cpp:84] Creating Layer loss3/classifier_kaggle_loss3/classifier_kaggle_0_split
I1230 19:25:20.051507 32546 net.cpp:380] loss3/classifier_kaggle_loss3/classifier_kaggle_0_split <- loss3/classifier_kaggle
I1230 19:25:20.051537 32546 net.cpp:338] loss3/classifier_kaggle_loss3/classifier_kaggle_0_split -> loss3/classifier_kaggle_loss3/classifier_kaggle_0_split_0
I1230 19:25:20.051550 32546 net.cpp:338] loss3/classifier_kaggle_loss3/classifier_kaggle_0_split -> loss3/classifier_kaggle_loss3/classifier_kaggle_0_split_1
I1230 19:25:20.051561 32546 net.cpp:338] loss3/classifier_kaggle_loss3/classifier_kaggle_0_split -> loss3/classifier_kaggle_loss3/classifier_kaggle_0_split_2
I1230 19:25:20.051571 32546 net.cpp:113] Setting up loss3/classifier_kaggle_loss3/classifier_kaggle_0_split
I1230 19:25:20.051585 32546 net.cpp:120] Top shape: 50 447 (22350)
I1230 19:25:20.051594 32546 net.cpp:120] Top shape: 50 447 (22350)
I1230 19:25:20.051602 32546 net.cpp:120] Top shape: 50 447 (22350)
I1230 19:25:20.051609 32546 layer_factory.hpp:74] Creating layer loss3/loss3
I1230 19:25:20.051620 32546 net.cpp:84] Creating Layer loss3/loss3
I1230 19:25:20.051627 32546 net.cpp:380] loss3/loss3 <- loss3/classifier_kaggle_loss3/classifier_kaggle_0_split_0
I1230 19:25:20.051636 32546 net.cpp:380] loss3/loss3 <- label_data_1_split_6
I1230 19:25:20.051646 32546 net.cpp:338] loss3/loss3 -> loss3/loss3
…
