…
I1218 23:42:00.245084 21845 net.cpp:257] The NetState phase (0) differed from the phase (1) specified by a rule in layer loss3/top-5
I1218 23:42:00.247812 21845 net.cpp:42] Initializing net from parameters: 
name: "MYNET"
state {
  phase: TRAIN
}
layer {
  name: "data"
  type: "ImageData"
  top: "data"
  top: "label"
  include {
    phase: TRAIN
  }
  transform_param {
    mirror: false
    crop_size: 224
    mean_value: 129
    mean_value: 129
    mean_value: 129
  }
  image_data_param {
    source: "/home/coldmanck/kaggle/label_train_full.txt"
    batch_size: 80
    shuffle: true
  }
}
layer {
  name: "conv1/7x7_s2"
  type: "Convolution"
  bottom: "data"
  top: "conv1/7x7_s2"
  param {
    lr_mult: 1
    decay_mult: 1
  }
  param {
    lr_mult: 2
    decay_mult: 0
  }
  convolution_param {
    num_output: 64
    pad: 3
    kernel_size: 7
    stride: 2
    weight_filler {
      type: "xavier"
    }
    bias_filler {
      type: "constant"
      value: 0.2
    }
  }
}
layer {
  name: "conv1/relu_7x7"
  type: "ReLU"
  bottom: "conv1/7x7_s2"
  top: "conv1/7x7_s2"
}
layer {
  name: "pool1/3x3_s2"
  type: "Pooling"
  bottom: "conv1/7x7_s2"
  top: "pool1/3x3_s2"
  pooling_param {
    pool: MAX
    kernel_size: 3
    stride: 2
  }
}
layer {
  name: "pool1/norm1"
  type: "LRN"
  bottom: "pool1/3x3_s2"
  top: "pool1/norm1"
  lrn_param {
    local_size: 5
    alpha: 0.0001
    beta: 0.75
  }
}
layer {
  name: "conv2/3x3_reduce"
  type: "Convolution"
  bottom: "pool1/norm1"
  top: "conv2/3x3_reduce"
  param {
    lr_mult: 1
    decay_mult: 1
  }
  param {
    lr_mult: 2
    decay_mult: 0
  }
  convolution_param {
    num_output: 64
    kernel_size: 1
    weight_filler {
      type: "xavier"
    }
    bias_filler {
      type: "constant"
      value: 0.2
    }
  }
}
layer {
  name: "conv2/relu_3x3_reduce"
  type: "ReLU"
  bottom: "conv2/3x3_reduce"
  top: "conv2/3x3_reduce"
}
layer {
  name: "conv2/3x3"
  type: "Convolution"
  bottom: "conv2/3x3_reduce"
  top: "conv2/3x3"
  param {
    lr_mult: 1
    decay_mult: 1
  }
  param {
    lr_mult: 2
    decay_mult: 0
  }
  convolution_param {
    num_output: 192
    pad: 1
    kernel_size: 3
    weight_filler {
      type: "xavier"
    }
    bias_filler {
      type: "constant"
      value: 0.2
    }
  }
}
layer {
  name: "conv2/relu_3x3"
  type: "ReLU"
  bottom: "conv2/3x3"
  top: "conv2/3x3"
}
layer {
  name: "conv2/norm2"
  type: "LRN"
  bottom: "conv2/3x3"
  top: "conv2/norm2"
  lrn_param {
    local_size: 5
    alpha: 0.0001
    beta: 0.75
  }
}
layer {
  name: "pool2/3x3_s2"
  type: "Pooling"
  bottom: "conv2/norm2"
  top: "pool2/3x3_s2"
  pooling_param {
    pool: MAX
    kernel_size: 3
    stride: 2
  }
}
layer {
  name: "inception_3a/1x1"
  type: "Convolution"
  bottom: "pool2/3x3_s2"
  top: "inception_3a/1x1"
  param {
    lr_mult: 1
    decay_mult: 1
  }
  param {
    lr_mult: 2
    decay_mult: 0
  }
  convolution_param {
    num_output: 64
    kernel_size: 1
    weight_filler {
      type: "xavier"
    }
    bias_filler {
      type: "constant"
      value: 0.2
    }
  }
}
layer {
  name: "inception_3a/relu_1x1"
  type: "ReLU"
  bottom: "inception_3a/1x1"
  top: "inception_3a/1x1"
}
layer {
  name: "inception_3a/3x3_reduce"
  type: "Convolution"
  bottom: "pool2/3x3_s2"
  top: "inception_3a/3x3_reduce"
  param {
    lr_mult: 1
    decay_mult: 1
  }
  param {
    lr_mult: 2
    decay_mult: 0
  }
  convolution_param {
    num_output: 96
    kernel_size: 1
    weight_filler {
      type: "xavier"
    }
    bias_filler {
      type: "constant"
      value: 0.2
    }
  }
}
layer {
  name: "inception_3a/relu_3x3_reduce"
  type: "ReLU"
  bottom: "inception_3a/3x3_reduce"
  top: "inception_3a/3x3_reduce"
}
layer {
  name: "inception_3a/3x3"
  type: "Convolution"
  bottom: "inception_3a/3x3_reduce"
  top: "inception_3a/3x3"
  param {
    lr_mult: 1
    decay_mult: 1
  }
  param {
    lr_mult: 2
    decay_mult: 0
  }
  convolution_param {
    num_output: 128
    pad: 1
    kernel_size: 3
    weight_filler {
      type: "xavier"
    }
    bias_filler {
      type: "constant"
      value: 0.2
    }
  }
}
layer {
  name: "inception_3a/relu_3x3"
  type: "ReLU"
  bottom: "inception_3a/3x3"
  top: "inception_3a/3x3"
}
layer {
  name: "inception_3a/5x5_reduce"
  type: "Convolution"
  bottom: "pool2/3x3_s2"
  top: "inception_3a/5x5_reduce"
  param {
    lr_mult: 1
    decay_mult: 1
  }
  param {
    lr_mult: 2
    decay_mult: 0
  }
  convolution_param {
    num_output: 16
    kernel_size: 1
    weight_filler {
      type: "xavier"
    }
    bias_filler {
      type: "constant"
      value: 0.2
    }
  }
}
layer {
  name: "inception_3a/relu_5x5_reduce"
  type: "ReLU"
  bottom: "inception_3a/5x5_reduce"
  top: "inception_3a/5x5_reduce"
}
layer {
  name: "inception_3a/5x5"
  type: "Convolution"
  bottom: "inception_3a/5x5_reduce"
  top: "inception_3a/5x5"
  param {
    lr_mult: 1
    decay_mult: 1
  }
  param {
    lr_mult: 2
    decay_mult: 0
  }
  convolution_param {
    num_output: 32
    pad: 2
    kernel_size: 5
    weight_filler {
      type: "xavier"
    }
    bias_filler {
      type: "constant"
      value: 0.2
    }
  }
}
layer {
  name: "inception_3a/relu_5x5"
  type: "ReLU"
  bottom: "inception_3a/5x5"
  top: "inception_3a/5x5"
}
layer {
  name: "inception_3a/pool"
  type: "Pooling"
  bottom: "pool2/3x3_s2"
  top: "inception_3a/pool"
  pooling_param {
    pool: MAX
    kernel_size: 3
    stride: 1
    pad: 1
  }
}
layer {
  name: "inception_3a/pool_proj"
  type: "Convolution"
  bottom: "inception_3a/pool"
  top: "inception_3a/pool_proj"
  param {
    lr_mult: 1
    decay_mult: 1
  }
  param {
    lr_mult: 2
    decay_mult: 0
  }
  convolution_param {
    num_output: 32
    kernel_size: 1
    weight_filler {
      type: "xavier"
    }
    bias_filler {
      type: "constant"
      value: 0.2
    }
  }
}
layer {
  name: "inception_3a/relu_pool_proj"
  type: "ReLU"
  bottom: "inception_3a/pool_proj"
  top: "inception_3a/pool_proj"
}
layer {
  name: "inception_3a/output"
  type: "Concat"
  bottom: "inception_3a/1x1"
  bottom: "inception_3a/3x3"
  bottom: "inception_3a/5x5"
  bottom: "inception_3a/pool_proj"
  top: "inception_3a/output"
}
layer {
  name: "inception_3b/1x1"
  type: "Convolution"
  bottom: "inception_3a/output"
  top: "inception_3b/1x1"
  param {
    lr_mult: 1
    decay_mult: 1
  }
  param {
    lr_mult: 2
    decay_mult: 0
  }
  convolution_param {
    num_output: 128
    kernel_size: 1
    weight_filler {
      type: "xavier"
    }
    bias_filler {
      type: "constant"
      value: 0.2
    }
  }
}
layer {
  name: "inception_3b/relu_1x1"
  type: "ReLU"
  bottom: "inception_3b/1x1"
  top: "inception_3b/1x1"
}
layer {
  name: "inception_3b/3x3_reduce"
  type: "Convolution"
  bottom: "inception_3a/output"
  top: "inception_3b/3x3_reduce"
  param {
    lr_mult: 1
    decay_mult: 1
  }
  param {
    lr_mult: 2
    decay_mult: 0
  }
  convolution_param {
    num_output: 128
    kernel_size: 1
    weight_filler {
      type: "xavier"
    }
    bias_filler {
      type: "constant"
      value: 0.2
    }
  }
}
layer {
  name: "inception_3b/relu_3x3_reduce"
  type: "ReLU"
  bottom: "inception_3b/3x3_reduce"
  top: "inception_3b/3x3_reduce"
}
layer {
  name: "inception_3b/3x3"
  type: "Convolution"
  bottom: "inception_3b/3x3_reduce"
  top: "inception_3b/3x3"
  param {
    lr_mult: 1
    decay_mult: 1
  }
  param {
    lr_mult: 2
    decay_mult: 0
  }
  convolution_param {
    num_output: 192
    pad: 1
    kernel_size: 3
    weight_filler {
      type: "xavier"
    }
    bias_filler {
      type: "constant"
      value: 0.2
    }
  }
}
layer {
  name: "inception_3b/relu_3x3"
  type: "ReLU"
  bottom: "inception_3b/3x3"
  top: "inception_3b/3x3"
}
layer {
  name: "inception_3b/5x5_reduce"
  type: "Convolution"
  bottom: "inception_3a/output"
  top: "inception_3b/5x5_reduce"
  param {
    lr_mult: 1
    decay_mult: 1
  }
  param {
    lr_mult: 2
    decay_mult: 0
  }
  convolution_param {
    num_output: 32
    kernel_size: 1
    weight_filler {
      type: "xavier"
    }
    bias_filler {
      type: "constant"
      value: 0.2
    }
  }
}
layer {
  name: "inception_3b/relu_5x5_reduce"
  type: "ReLU"
  bottom: "inception_3b/5x5_reduce"
  top: "inception_3b/5x5_reduce"
}
layer {
  name: "inception_3b/5x5"
  type: "Convolution"
  bottom: "inception_3b/5x5_reduce"
  top: "inception_3b/5x5"
  param {
    lr_mult: 1
    decay_mult: 1
  }
  param {
    lr_mult: 2
    decay_mult: 0
  }
  convolution_param {
    num_output: 96
    pad: 2
    kernel_size: 5
    weight_filler {
      type: "xavier"
    }
    bias_filler {
      type: "constant"
      value: 0.2
    }
  }
}
layer {
  name: "inception_3b/relu_5x5"
  type: "ReLU"
  bottom: "inception_3b/5x5"
  top: "inception_3b/5x5"
}
layer {
  name: "inception_3b/pool"
  type: "Pooling"
  bottom: "inception_3a/output"
  top: "inception_3b/pool"
  pooling_param {
    pool: MAX
    kernel_size: 3
    stride: 1
    pad: 1
  }
}
layer {
  name: "inception_3b/pool_proj"
  type: "Convolution"
  bottom: "inception_3b/pool"
  top: "inception_3b/pool_proj"
  param {
    lr_mult: 1
    decay_mult: 1
  }
  param {
    lr_mult: 2
    decay_mult: 0
  }
  convolution_param {
    num_output: 64
    kernel_size: 1
    weight_filler {
      type: "xavier"
    }
    bias_filler {
      type: "constant"
      value: 0.2
    }
  }
}
layer {
  name: "inception_3b/relu_pool_proj"
  type: "ReLU"
  bottom: "inception_3b/pool_proj"
  top: "inception_3b/pool_proj"
}
layer {
  name: "inception_3b/output"
  type: "Concat"
  bottom: "inception_3b/1x1"
  bottom: "inception_3b/3x3"
  bottom: "inception_3b/5x5"
  bottom: "inception_3b/pool_proj"
  top: "inception_3b/output"
}
layer {
  name: "pool3/3x3_s2"
  type: "Pooling"
  bottom: "inception_3b/output"
  top: "pool3/3x3_s2"
  pooling_param {
    pool: MAX
    kernel_size: 3
    stride: 2
  }
}
layer {
  name: "inception_4a/1x1"
  type: "Convolution"
  bottom: "pool3/3x3_s2"
  top: "inception_4a/1x1"
  param {
    lr_mult: 1
    decay_mult: 1
  }
  param {
    lr_mult: 2
    decay_mult: 0
  }
  convolution_param {
    num_output: 192
    kernel_size: 1
    weight_filler {
      type: "xavier"
    }
    bias_filler {
      type: "constant"
      value: 0.2
    }
  }
}
layer {
  name: "inception_4a/relu_1x1"
  type: "ReLU"
  bottom: "inception_4a/1x1"
  top: "inception_4a/1x1"
}
layer {
  name: "inception_4a/3x3_reduce"
  type: "Convolution"
  bottom: "pool3/3x3_s2"
  top: "inception_4a/3x3_reduce"
  param {
    lr_mult: 1
    decay_mult: 1
  }
  param {
    lr_mult: 2
    decay_mult: 0
  }
  convolution_param {
    num_output: 96
    kernel_size: 1
    weight_filler {
      type: "xavier"
    }
    bias_filler {
      type: "constant"
      value: 0.2
    }
  }
}
layer {
  name: "inception_4a/relu_3x3_reduce"
  type: "ReLU"
  bottom: "inception_4a/3x3_reduce"
  top: "inception_4a/3x3_reduce"
}
layer {
  name: "inception_4a/3x3"
  type: "Convolution"
  bottom: "inception_4a/3x3_reduce"
  top: "inception_4a/3x3"
  param {
    lr_mult: 1
    decay_mult: 1
  }
  param {
    lr_mult: 2
    decay_mult: 0
  }
  convolution_param {
    num_output: 208
    pad: 1
    kernel_size: 3
    weight_filler {
      type: "xavier"
    }
    bias_filler {
      type: "constant"
      value: 0.2
    }
  }
}
layer {
  name: "inception_4a/relu_3x3"
  type: "ReLU"
  bottom: "inception_4a/3x3"
  top: "inception_4a/3x3"
}
layer {
  name: "inception_4a/5x5_reduce"
  type: "Convolution"
  bottom: "pool3/3x3_s2"
  top: "inception_4a/5x5_reduce"
  param {
    lr_mult: 1
    decay_mult: 1
  }
  param {
    lr_mult: 2
    decay_mult: 0
  }
  convolution_param {
    num_output: 16
    kernel_size: 1
    weight_filler {
      type: "xavier"
    }
    bias_filler {
      type: "constant"
      value: 0.2
    }
  }
}
layer {
  name: "inception_4a/relu_5x5_reduce"
  type: "ReLU"
  bottom: "inception_4a/5x5_reduce"
  top: "inception_4a/5x5_reduce"
}
layer {
  name: "inception_4a/5x5"
  type: "Convolution"
  bottom: "inception_4a/5x5_reduce"
  top: "inception_4a/5x5"
  param {
    lr_mult: 1
    decay_mult: 1
  }
  param {
    lr_mult: 2
    decay_mult: 0
  }
  convolution_param {
    num_output: 48
    pad: 2
    kernel_size: 5
    weight_filler {
      type: "xavier"
    }
    bias_filler {
      type: "constant"
      value: 0.2
    }
  }
}
layer {
  name: "inception_4a/relu_5x5"
  type: "ReLU"
  bottom: "inception_4a/5x5"
  top: "inception_4a/5x5"
}
layer {
  name: "inception_4a/pool"
  type: "Pooling"
  bottom: "pool3/3x3_s2"
  top: "inception_4a/pool"
  pooling_param {
    pool: MAX
    kernel_size: 3
    stride: 1
    pad: 1
  }
}
layer {
  name: "inception_4a/pool_proj"
  type: "Convolution"
  bottom: "inception_4a/pool"
  top: "inception_4a/pool_proj"
  param {
    lr_mult: 1
    decay_mult: 1
  }
  param {
    lr_mult: 2
    decay_mult: 0
  }
  convolution_param {
    num_output: 64
    kernel_size: 1
    weight_filler {
      type: "xavier"
    }
    bias_filler {
      type: "constant"
      value: 0.2
    }
  }
}
layer {
  name: "inception_4a/relu_pool_proj"
  type: "ReLU"
  bottom: "inception_4a/pool_proj"
  top: "inception_4a/pool_proj"
}
layer {
  name: "inception_4a/output"
  type: "Concat"
  bottom: "inception_4a/1x1"
  bottom: "inception_4a/3x3"
  bottom: "inception_4a/5x5"
  bottom: "inception_4a/pool_proj"
  top: "inception_4a/output"
}
layer {
  name: "loss1/ave_pool"
  type: "Pooling"
  bottom: "inception_4a/output"
  top: "loss1/ave_pool"
  pooling_param {
    pool: AVE
    kernel_size: 5
    stride: 3
  }
}
layer {
  name: "loss1/conv"
  type: "Convolution"
  bottom: "loss1/ave_pool"
  top: "loss1/conv"
  param {
    lr_mult: 1
    decay_mult: 1
  }
  param {
    lr_mult: 2
    decay_mult: 0
  }
  convolution_param {
    num_output: 128
    kernel_size: 1
    weight_filler {
      type: "xavier"
    }
    bias_filler {
      type: "constant"
      value: 0.2
    }
  }
}
layer {
  name: "loss1/relu_conv"
  type: "ReLU"
  bottom: "loss1/conv"
  top: "loss1/conv"
}
layer {
  name: "loss1/fc"
  type: "InnerProduct"
  bottom: "loss1/conv"
  top: "loss1/fc"
  param {
    lr_mult: 1
    decay_mult: 1
  }
  param {
    lr_mult: 2
    decay_mult: 0
  }
  inner_product_param {
    num_output: 1024
    weight_filler {
      type: "xavier"
    }
    bias_filler {
      type: "constant"
      value: 0.2
    }
  }
}
layer {
  name: "loss1/relu_fc"
  type: "ReLU"
  bottom: "loss1/fc"
  top: "loss1/fc"
}
layer {
  name: "loss1/drop_fc"
  type: "Dropout"
  bottom: "loss1/fc"
  top: "loss1/fc"
  dropout_param {
    dropout_ratio: 0.7
  }
}
layer {
  name: "loss1/classifier_kaggle"
  type: "InnerProduct"
  bottom: "loss1/fc"
  top: "loss1/classifier_kaggle"
  param {
    lr_mult: 1
    decay_mult: 1
  }
  param {
    lr_mult: 2
    decay_mult: 0
  }
  inner_product_param {
    num_output: 447
    weight_filler {
      type: "xavier"
    }
    bias_filler {
      type: "constant"
      value: 0
    }
  }
}
layer {
  name: "loss1/loss"
  type: "SoftmaxWithLoss"
  bottom: "loss1/classifier_kaggle"
  bottom: "label"
  top: "loss1/loss1"
  loss_weight: 0.3
}
layer {
  name: "inception_4b/1x1"
  type: "Convolution"
  bottom: "inception_4a/output"
  top: "inception_4b/1x1"
  param {
    lr_mult: 1
    decay_mult: 1
  }
  param {
    lr_mult: 2
    decay_mult: 0
  }
  convolution_param {
    num_output: 160
    kernel_size: 1
    weight_filler {
      type: "xavier"
    }
    bias_filler {
      type: "constant"
      value: 0.2
    }
  }
}
layer {
  name: "inception_4b/relu_1x1"
  type: "ReLU"
  bottom: "inception_4b/1x1"
  top: "inception_4b/1x1"
}
layer {
  name: "inception_4b/3x3_reduce"
  type: "Convolution"
  bottom: "inception_4a/output"
  top: "inception_4b/3x3_reduce"
  param {
    lr_mult: 1
    decay_mult: 1
  }
  param {
    lr_mult: 2
    decay_mult: 0
  }
  convolution_param {
    num_output: 112
    kernel_size: 1
    weight_filler {
      type: "xavier"
    }
    bias_filler {
      type: "constant"
      value: 0.2
    }
  }
}
layer {
  name: "inception_4b/relu_3x3_reduce"
  type: "ReLU"
  bottom: "inception_4b/3x3_reduce"
  top: "inception_4b/3x3_reduce"
}
layer {
  name: "inception_4b/3x3"
  type: "Convolution"
  bottom: "inception_4b/3x3_reduce"
  top: "inception_4b/3x3"
  param {
    lr_mult: 1
    decay_mult: 1
  }
  param {
    lr_mult: 2
    decay_mult: 0
  }
  convolution_param {
    num_output: 224
    pad: 1
    kernel_size: 3
    weight_filler {
      type: "xavier"
    }
    bias_filler {
      type: "constant"
      value: 0.2
    }
  }
}
layer {
  name: "inception_4b/relu_3x3"
  type: "ReLU"
  bottom: "inception_4b/3x3"
  top: "inception_4b/3x3"
}
layer {
  name: "inception_4b/5x5_reduce"
  type: "Convolution"
  bottom: "inception_4a/output"
  top: "inception_4b/5x5_reduce"
  param {
    lr_mult: 1
    decay_mult: 1
  }
  param {
    lr_mult: 2
    decay_mult: 0
  }
  convolution_param {
    num_output: 24
    kernel_size: 1
    weight_filler {
      type: "xavier"
    }
    bias_filler {
      type: "constant"
      value: 0.2
    }
  }
}
layer {
  name: "inception_4b/relu_5x5_reduce"
  type: "ReLU"
  bottom: "inception_4b/5x5_reduce"
  top: "inception_4b/5x5_reduce"
}
layer {
  name: "inception_4b/5x5"
  type: "Convolution"
  bottom: "inception_4b/5x5_reduce"
  top: "inception_4b/5x5"
  param {
    lr_mult: 1
    decay_mult: 1
  }
  param {
    lr_mult: 2
    decay_mult: 0
  }
  convolution_param {
    num_output: 64
    pad: 2
    kernel_size: 5
    weight_filler {
      type: "xavier"
    }
    bias_filler {
      type: "constant"
      value: 0.2
    }
  }
}
layer {
  name: "inception_4b/relu_5x5"
  type: "ReLU"
  bottom: "inception_4b/5x5"
  top: "inception_4b/5x5"
}
layer {
  name: "inception_4b/pool"
  type: "Pooling"
  bottom: "inception_4a/output"
  top: "inception_4b/pool"
  pooling_param {
    pool: MAX
    kernel_size: 3
    stride: 1
    pad: 1
  }
}
layer {
  name: "inception_4b/pool_proj"
  type: "Convolution"
  bottom: "inception_4b/pool"
  top: "inception_4b/pool_proj"
  param {
    lr_mult: 1
    decay_mult: 1
  }
  param {
    lr_mult: 2
    decay_mult: 0
  }
  convolution_param {
    num_output: 64
    kernel_size: 1
    weight_filler {
      type: "xavier"
    }
    bias_filler {
      type: "constant"
      value: 0.2
    }
  }
}
layer {
  name: "inception_4b/relu_pool_proj"
  type: "ReLU"
  bottom: "inception_4b/pool_proj"
  top: "inception_4b/pool_proj"
}
layer {
  name: "inception_4b/output"
  type: "Concat"
  bottom: "inception_4b/1x1"
  bottom: "inception_4b/3x3"
  bottom: "inception_4b/5x5"
  bottom: "inception_4b/pool_proj"
  top: "inception_4b/output"
}
layer {
  name: "inception_4c/1x1"
  type: "Convolution"
  bottom: "inception_4b/output"
  top: "inception_4c/1x1"
  param {
    lr_mult: 1
    decay_mult: 1
  }
  param {
    lr_mult: 2
    decay_mult: 0
  }
  convolution_param {
    num_output: 128
    kernel_size: 1
    weight_filler {
      type: "xavier"
    }
    bias_filler {
      type: "constant"
      value: 0.2
    }
  }
}
layer {
  name: "inception_4c/relu_1x1"
  type: "ReLU"
  bottom: "inception_4c/1x1"
  top: "inception_4c/1x1"
}
layer {
  name: "inception_4c/3x3_reduce"
  type: "Convolution"
  bottom: "inception_4b/output"
  top: "inception_4c/3x3_reduce"
  param {
    lr_mult: 1
    decay_mult: 1
  }
  param {
    lr_mult: 2
    decay_mult: 0
  }
  convolution_param {
    num_output: 128
    kernel_size: 1
    weight_filler {
      type: "xavier"
    }
    bias_filler {
      type: "constant"
      value: 0.2
    }
  }
}
layer {
  name: "inception_4c/relu_3x3_reduce"
  type: "ReLU"
  bottom: "inception_4c/3x3_reduce"
  top: "inception_4c/3x3_reduce"
}
layer {
  name: "inception_4c/3x3"
  type: "Convolution"
  bottom: "inception_4c/3x3_reduce"
  top: "inception_4c/3x3"
  param {
    lr_mult: 1
    decay_mult: 1
  }
  param {
    lr_mult: 2
    decay_mult: 0
  }
  convolution_param {
    num_output: 256
    pad: 1
    kernel_size: 3
    weight_filler {
      type: "xavier"
    }
    bias_filler {
      type: "constant"
      value: 0.2
    }
  }
}
layer {
  name: "inception_4c/relu_3x3"
  type: "ReLU"
  bottom: "inception_4c/3x3"
  top: "inception_4c/3x3"
}
layer {
  name: "inception_4c/5x5_reduce"
  type: "Convolution"
  bottom: "inception_4b/output"
  top: "inception_4c/5x5_reduce"
  param {
    lr_mult: 1
    decay_mult: 1
  }
  param {
    lr_mult: 2
    decay_mult: 0
  }
  convolution_param {
    num_output: 24
    kernel_size: 1
    weight_filler {
      type: "xavier"
    }
    bias_filler {
      type: "constant"
      value: 0.2
    }
  }
}
layer {
  name: "inception_4c/relu_5x5_reduce"
  type: "ReLU"
  bottom: "inception_4c/5x5_reduce"
  top: "inception_4c/5x5_reduce"
}
layer {
  name: "inception_4c/5x5"
  type: "Convolution"
  bottom: "inception_4c/5x5_reduce"
  top: "inception_4c/5x5"
  param {
    lr_mult: 1
    decay_mult: 1
  }
  param {
    lr_mult: 2
    decay_mult: 0
  }
  convolution_param {
    num_output: 64
    pad: 2
    kernel_size: 5
    weight_filler {
      type: "xavier"
    }
    bias_filler {
      type: "constant"
      value: 0.2
    }
  }
}
layer {
  name: "inception_4c/relu_5x5"
  type: "ReLU"
  bottom: "inception_4c/5x5"
  top: "inception_4c/5x5"
}
layer {
  name: "inception_4c/pool"
  type: "Pooling"
  bottom: "inception_4b/output"
  top: "inception_4c/pool"
  pooling_param {
    pool: MAX
    kernel_size: 3
    stride: 1
    pad: 1
  }
}
layer {
  name: "inception_4c/pool_proj"
  type: "Convolution"
  bottom: "inception_4c/pool"
  top: "inception_4c/pool_proj"
  param {
    lr_mult: 1
    decay_mult: 1
  }
  param {
    lr_mult: 2
    decay_mult: 0
  }
  convolution_param {
    num_output: 64
    kernel_size: 1
    weight_filler {
      type: "xavier"
    }
    bias_filler {
      type: "constant"
      value: 0.2
    }
  }
}
layer {
  name: "inception_4c/relu_pool_proj"
  type: "ReLU"
  bottom: "inception_4c/pool_proj"
  top: "inception_4c/pool_proj"
}
layer {
  name: "inception_4c/output"
  type: "Concat"
  bottom: "inception_4c/1x1"
  bottom: "inception_4c/3x3"
  bottom: "inception_4c/5x5"
  bottom: "inception_4c/pool_proj"
  top: "inception_4c/output"
}
layer {
  name: "inception_4d/1x1"
  type: "Convolution"
  bottom: "inception_4c/output"
  top: "inception_4d/1x1"
  param {
    lr_mult: 1
    decay_mult: 1
  }
  param {
    lr_mult: 2
    decay_mult: 0
  }
  convolution_param {
    num_output: 112
    kernel_size: 1
    weight_filler {
      type: "xavier"
    }
    bias_filler {
      type: "constant"
      value: 0.2
    }
  }
}
layer {
  name: "inception_4d/relu_1x1"
  type: "ReLU"
  bottom: "inception_4d/1x1"
  top: "inception_4d/1x1"
}
layer {
  name: "inception_4d/3x3_reduce"
  type: "Convolution"
  bottom: "inception_4c/output"
  top: "inception_4d/3x3_reduce"
  param {
    lr_mult: 1
    decay_mult: 1
  }
  param {
    lr_mult: 2
    decay_mult: 0
  }
  convolution_param {
    num_output: 144
    kernel_size: 1
    weight_filler {
      type: "xavier"
    }
    bias_filler {
      type: "constant"
      value: 0.2
    }
  }
}
layer {
  name: "inception_4d/relu_3x3_reduce"
  type: "ReLU"
  bottom: "inception_4d/3x3_reduce"
  top: "inception_4d/3x3_reduce"
}
layer {
  name: "inception_4d/3x3"
  type: "Convolution"
  bottom: "inception_4d/3x3_reduce"
  top: "inception_4d/3x3"
  param {
    lr_mult: 1
    decay_mult: 1
  }
  param {
    lr_mult: 2
    decay_mult: 0
  }
  convolution_param {
    num_output: 288
    pad: 1
    kernel_size: 3
    weight_filler {
      type: "xavier"
    }
    bias_filler {
      type: "constant"
      value: 0.2
    }
  }
}
layer {
  name: "inception_4d/relu_3x3"
  type: "ReLU"
  bottom: "inception_4d/3x3"
  top: "inception_4d/3x3"
}
layer {
  name: "inception_4d/5x5_reduce"
  type: "Convolution"
  bottom: "inception_4c/output"
  top: "inception_4d/5x5_reduce"
  param {
    lr_mult: 1
    decay_mult: 1
  }
  param {
    lr_mult: 2
    decay_mult: 0
  }
  convolution_param {
    num_output: 32
    kernel_size: 1
    weight_filler {
      type: "xavier"
    }
    bias_filler {
      type: "constant"
      value: 0.2
    }
  }
}
layer {
  name: "inception_4d/relu_5x5_reduce"
  type: "ReLU"
  bottom: "inception_4d/5x5_reduce"
  top: "inception_4d/5x5_reduce"
}
layer {
  name: "inception_4d/5x5"
  type: "Convolution"
  bottom: "inception_4d/5x5_reduce"
  top: "inception_4d/5x5"
  param {
    lr_mult: 1
    decay_mult: 1
  }
  param {
    lr_mult: 2
    decay_mult: 0
  }
  convolution_param {
    num_output: 64
    pad: 2
    kernel_size: 5
    weight_filler {
      type: "xavier"
    }
    bias_filler {
      type: "constant"
      value: 0.2
    }
  }
}
layer {
  name: "inception_4d/relu_5x5"
  type: "ReLU"
  bottom: "inception_4d/5x5"
  top: "inception_4d/5x5"
}
layer {
  name: "inception_4d/pool"
  type: "Pooling"
  bottom: "inception_4c/output"
  top: "inception_4d/pool"
  pooling_param {
    pool: MAX
    kernel_size: 3
    stride: 1
    pad: 1
  }
}
layer {
  name: "inception_4d/pool_proj"
  type: "Convolution"
  bottom: "inception_4d/pool"
  top: "inception_4d/pool_proj"
  param {
    lr_mult: 1
    decay_mult: 1
  }
  param {
    lr_mult: 2
    decay_mult: 0
  }
  convolution_param {
    num_output: 64
    kernel_size: 1
    weight_filler {
      type: "xavier"
    }
    bias_filler {
      type: "constant"
      value: 0.2
    }
  }
}
layer {
  name: "inception_4d/relu_pool_proj"
  type: "ReLU"
  bottom: "inception_4d/pool_proj"
  top: "inception_4d/pool_proj"
}
layer {
  name: "inception_4d/output"
  type: "Concat"
  bottom: "inception_4d/1x1"
  bottom: "inception_4d/3x3"
  bottom: "inception_4d/5x5"
  bottom: "inception_4d/pool_proj"
  top: "inception_4d/output"
}
layer {
  name: "loss2/ave_pool"
  type: "Pooling"
  bottom: "inception_4d/output"
  top: "loss2/ave_pool"
  pooling_param {
    pool: AVE
    kernel_size: 5
    stride: 3
  }
}
layer {
  name: "loss2/conv"
  type: "Convolution"
  bottom: "loss2/ave_pool"
  top: "loss2/conv"
  param {
    lr_mult: 1
    decay_mult: 1
  }
  param {
    lr_mult: 2
    decay_mult: 0
  }
  convolution_param {
    num_output: 128
    kernel_size: 1
    weight_filler {
      type: "xavier"
    }
    bias_filler {
      type: "constant"
      value: 0.2
    }
  }
}
layer {
  name: "loss2/relu_conv"
  type: "ReLU"
  bottom: "loss2/conv"
  top: "loss2/conv"
}
layer {
  name: "loss2/fc"
  type: "InnerProduct"
  bottom: "loss2/conv"
  top: "loss2/fc"
  param {
    lr_mult: 1
    decay_mult: 1
  }
  param {
    lr_mult: 2
    decay_mult: 0
  }
  inner_product_param {
    num_output: 1024
    weight_filler {
      type: "xavier"
    }
    bias_filler {
      type: "constant"
      value: 0.2
    }
  }
}
layer {
  name: "loss2/relu_fc"
  type: "ReLU"
  bottom: "loss2/fc"
  top: "loss2/fc"
}
layer {
  name: "loss2/drop_fc"
  type: "Dropout"
  bottom: "loss2/fc"
  top: "loss2/fc"
  dropout_param {
    dropout_ratio: 0.7
  }
}
layer {
  name: "loss2/classifier_kaggle"
  type: "InnerProduct"
  bottom: "loss2/fc"
  top: "loss2/classifier_kaggle"
  param {
    lr_mult: 1
    decay_mult: 1
  }
  param {
    lr_mult: 2
    decay_mult: 0
  }
  inner_product_param {
    num_output: 447
    weight_filler {
      type: "xavier"
    }
    bias_filler {
      type: "constant"
      value: 0
    }
  }
}
layer {
  name: "loss2/loss"
  type: "SoftmaxWithLoss"
  bottom: "loss2/classifier_kaggle"
  bottom: "label"
  top: "loss2/loss1"
  loss_weight: 0.3
}
layer {
  name: "inception_4e/1x1"
  type: "Convolution"
  bottom: "inception_4d/output"
  top: "inception_4e/1x1"
  param {
    lr_mult: 1
    decay_mult: 1
  }
  param {
    lr_mult: 2
    decay_mult: 0
  }
  convolution_param {
    num_output: 256
    kernel_size: 1
    weight_filler {
      type: "xavier"
    }
    bias_filler {
      type: "constant"
      value: 0.2
    }
  }
}
layer {
  name: "inception_4e/relu_1x1"
  type: "ReLU"
  bottom: "inception_4e/1x1"
  top: "inception_4e/1x1"
}
layer {
  name: "inception_4e/3x3_reduce"
  type: "Convolution"
  bottom: "inception_4d/output"
  top: "inception_4e/3x3_reduce"
  param {
    lr_mult: 1
    decay_mult: 1
  }
  param {
    lr_mult: 2
    decay_mult: 0
  }
  convolution_param {
    num_output: 160
    kernel_size: 1
    weight_filler {
      type: "xavier"
    }
    bias_filler {
      type: "constant"
      value: 0.2
    }
  }
}
layer {
  name: "inception_4e/relu_3x3_reduce"
  type: "ReLU"
  bottom: "inception_4e/3x3_reduce"
  top: "inception_4e/3x3_reduce"
}
layer {
  name: "inception_4e/3x3"
  type: "Convolution"
  bottom: "inception_4e/3x3_reduce"
  top: "inception_4e/3x3"
  param {
    lr_mult: 1
    decay_mult: 1
  }
  param {
    lr_mult: 2
    decay_mult: 0
  }
  convolution_param {
    num_output: 320
    pad: 1
    kernel_size: 3
    weight_filler {
      type: "xavier"
    }
    bias_filler {
      type: "constant"
      value: 0.2
    }
  }
}
layer {
  name: "inception_4e/relu_3x3"
  type: "ReLU"
  bottom: "inception_4e/3x3"
  top: "inception_4e/3x3"
}
layer {
  name: "inception_4e/5x5_reduce"
  type: "Convolution"
  bottom: "inception_4d/output"
  top: "inception_4e/5x5_reduce"
  param {
    lr_mult: 1
    decay_mult: 1
  }
  param {
    lr_mult: 2
    decay_mult: 0
  }
  convolution_param {
    num_output: 32
    kernel_size: 1
    weight_filler {
      type: "xavier"
    }
    bias_filler {
      type: "constant"
      value: 0.2
    }
  }
}
layer {
  name: "inception_4e/relu_5x5_reduce"
  type: "ReLU"
  bottom: "inception_4e/5x5_reduce"
  top: "inception_4e/5x5_reduce"
}
layer {
  name: "inception_4e/5x5"
  type: "Convolution"
  bottom: "inception_4e/5x5_reduce"
  top: "inception_4e/5x5"
  param {
    lr_mult: 1
    decay_mult: 1
  }
  param {
    lr_mult: 2
    decay_mult: 0
  }
  convolution_param {
    num_output: 128
    pad: 2
    kernel_size: 5
    weight_filler {
      type: "xavier"
    }
    bias_filler {
      type: "constant"
      value: 0.2
    }
  }
}
layer {
  name: "inception_4e/relu_5x5"
  type: "ReLU"
  bottom: "inception_4e/5x5"
  top: "inception_4e/5x5"
}
layer {
  name: "inception_4e/pool"
  type: "Pooling"
  bottom: "inception_4d/output"
  top: "inception_4e/pool"
  pooling_p
I1218 23:42:00.250363 21845 layer_factory.hpp:74] Creating layer data
I1218 23:42:00.250427 21845 net.cpp:84] Creating Layer data
I1218 23:42:00.250445 21845 net.cpp:338] data -> data
I1218 23:42:00.250509 21845 net.cpp:338] data -> label
I1218 23:42:00.250527 21845 net.cpp:113] Setting up data
I1218 23:42:00.250541 21845 image_data_layer.cpp:36] Opening file /home/coldmanck/kaggle/label_train_full.txt
I1218 23:42:00.254617 21845 image_data_layer.cpp:46] Shuffling data
I1218 23:42:00.255987 21845 image_data_layer.cpp:51] A total of 4235 images.
I1218 23:42:00.257180 21845 image_data_layer.cpp:80] output data size: 80,3,224,224
I1218 23:42:00.271984 21845 net.cpp:120] Top shape: 80 3 224 224 (12042240)
I1218 23:42:00.272018 21845 net.cpp:120] Top shape: 80 (80)
I1218 23:42:00.272030 21845 layer_factory.hpp:74] Creating layer label_data_1_split
I1218 23:42:00.272049 21845 net.cpp:84] Creating Layer label_data_1_split
I1218 23:42:00.272058 21845 net.cpp:380] label_data_1_split <- label
I1218 23:42:00.272075 21845 net.cpp:338] label_data_1_split -> label_data_1_split_0
I1218 23:42:00.272089 21845 net.cpp:338] label_data_1_split -> label_data_1_split_1
I1218 23:42:00.272106 21845 net.cpp:338] label_data_1_split -> label_data_1_split_2
I1218 23:42:00.272125 21845 net.cpp:113] Setting up label_data_1_split
I1218 23:42:00.272709 21845 net.cpp:120] Top shape: 80 (80)
I1218 23:42:00.272727 21845 net.cpp:120] Top shape: 80 (80)
I1218 23:42:00.272732 21845 net.cpp:120] Top shape: 80 (80)
I1218 23:42:00.272738 21845 layer_factory.hpp:74] Creating layer conv1/7x7_s2
I1218 23:42:00.272752 21845 net.cpp:84] Creating Layer conv1/7x7_s2
I1218 23:42:00.272758 21845 net.cpp:380] conv1/7x7_s2 <- data
I1218 23:42:00.272766 21845 net.cpp:338] conv1/7x7_s2 -> conv1/7x7_s2
I1218 23:42:00.272780 21845 net.cpp:113] Setting up conv1/7x7_s2
I1218 23:42:01.300544 21845 net.cpp:120] Top shape: 80 64 112 112 (64225280)
I1218 23:42:01.300604 21845 layer_factory.hpp:74] Creating layer conv1/relu_7x7
I1218 23:42:01.300618 21845 net.cpp:84] Creating Layer conv1/relu_7x7
I1218 23:42:01.300626 21845 net.cpp:380] conv1/relu_7x7 <- conv1/7x7_s2
I1218 23:42:01.300636 21845 net.cpp:327] conv1/relu_7x7 -> conv1/7x7_s2 (in-place)
I1218 23:42:01.300648 21845 net.cpp:113] Setting up conv1/relu_7x7
I1218 23:42:01.308928 21845 net.cpp:120] Top shape: 80 64 112 112 (64225280)
I1218 23:42:01.308943 21845 layer_factory.hpp:74] Creating layer pool1/3x3_s2
I1218 23:42:01.308957 21845 net.cpp:84] Creating Layer pool1/3x3_s2
I1218 23:42:01.308964 21845 net.cpp:380] pool1/3x3_s2 <- conv1/7x7_s2
I1218 23:42:01.308971 21845 net.cpp:338] pool1/3x3_s2 -> pool1/3x3_s2
I1218 23:42:01.308980 21845 net.cpp:113] Setting up pool1/3x3_s2
I1218 23:42:01.340893 21845 net.cpp:120] Top shape: 80 64 56 56 (16056320)
I1218 23:42:01.340916 21845 layer_factory.hpp:74] Creating layer pool1/norm1
I1218 23:42:01.340930 21845 net.cpp:84] Creating Layer pool1/norm1
I1218 23:42:01.340936 21845 net.cpp:380] pool1/norm1 <- pool1/3x3_s2
I1218 23:42:01.340945 21845 net.cpp:338] pool1/norm1 -> pool1/norm1
I1218 23:42:01.340956 21845 net.cpp:113] Setting up pool1/norm1
I1218 23:42:01.340965 21845 net.cpp:120] Top shape: 80 64 56 56 (16056320)
I1218 23:42:01.340970 21845 layer_factory.hpp:74] Creating layer conv2/3x3_reduce
I1218 23:42:01.340981 21845 net.cpp:84] Creating Layer conv2/3x3_reduce
I1218 23:42:01.340986 21845 net.cpp:380] conv2/3x3_reduce <- pool1/norm1
I1218 23:42:01.340994 21845 net.cpp:338] conv2/3x3_reduce -> conv2/3x3_reduce
I1218 23:42:01.341006 21845 net.cpp:113] Setting up conv2/3x3_reduce
I1218 23:42:01.346566 21845 net.cpp:120] Top shape: 80 64 56 56 (16056320)
I1218 23:42:01.346611 21845 layer_factory.hpp:74] Creating layer conv2/relu_3x3_reduce
I1218 23:42:01.346628 21845 net.cpp:84] Creating Layer conv2/relu_3x3_reduce
I1218 23:42:01.346638 21845 net.cpp:380] conv2/relu_3x3_reduce <- conv2/3x3_reduce
I1218 23:42:01.346653 21845 net.cpp:327] conv2/relu_3x3_reduce -> conv2/3x3_reduce (in-place)
I1218 23:42:01.346669 21845 net.cpp:113] Setting up conv2/relu_3x3_reduce
I1218 23:42:01.346797 21845 net.cpp:120] Top shape: 80 64 56 56 (16056320)
I1218 23:42:01.346809 21845 layer_factory.hpp:74] Creating layer conv2/3x3
I1218 23:42:01.346827 21845 net.cpp:84] Creating Layer conv2/3x3
I1218 23:42:01.346837 21845 net.cpp:380] conv2/3x3 <- conv2/3x3_reduce
I1218 23:42:01.346851 21845 net.cpp:338] conv2/3x3 -> conv2/3x3
I1218 23:42:01.346868 21845 net.cpp:113] Setting up conv2/3x3
I1218 23:42:01.350941 21845 net.cpp:120] Top shape: 80 192 56 56 (48168960)
I1218 23:42:01.350985 21845 layer_factory.hpp:74] Creating layer conv2/relu_3x3
I1218 23:42:01.351001 21845 net.cpp:84] Creating Layer conv2/relu_3x3
I1218 23:42:01.351011 21845 net.cpp:380] conv2/relu_3x3 <- conv2/3x3
I1218 23:42:01.351027 21845 net.cpp:327] conv2/relu_3x3 -> conv2/3x3 (in-place)
I1218 23:42:01.351042 21845 net.cpp:113] Setting up conv2/relu_3x3
I1218 23:42:01.351426 21845 net.cpp:120] Top shape: 80 192 56 56 (48168960)
I1218 23:42:01.351450 21845 layer_factory.hpp:74] Creating layer conv2/norm2
I1218 23:42:01.351465 21845 net.cpp:84] Creating Layer conv2/norm2
I1218 23:42:01.351475 21845 net.cpp:380] conv2/norm2 <- conv2/3x3
I1218 23:42:01.351487 21845 net.cpp:338] conv2/norm2 -> conv2/norm2
I1218 23:42:01.351519 21845 net.cpp:113] Setting up conv2/norm2
I1218 23:42:01.351555 21845 net.cpp:120] Top shape: 80 192 56 56 (48168960)
I1218 23:42:01.351565 21845 layer_factory.hpp:74] Creating layer pool2/3x3_s2
I1218 23:42:01.351578 21845 net.cpp:84] Creating Layer pool2/3x3_s2
I1218 23:42:01.351588 21845 net.cpp:380] pool2/3x3_s2 <- conv2/norm2
I1218 23:42:01.351600 21845 net.cpp:338] pool2/3x3_s2 -> pool2/3x3_s2
I1218 23:42:01.351613 21845 net.cpp:113] Setting up pool2/3x3_s2
I1218 23:42:01.351737 21845 net.cpp:120] Top shape: 80 192 28 28 (12042240)
I1218 23:42:01.351752 21845 layer_factory.hpp:74] Creating layer pool2/3x3_s2_pool2/3x3_s2_0_split
I1218 23:42:01.351765 21845 net.cpp:84] Creating Layer pool2/3x3_s2_pool2/3x3_s2_0_split
I1218 23:42:01.351775 21845 net.cpp:380] pool2/3x3_s2_pool2/3x3_s2_0_split <- pool2/3x3_s2
I1218 23:42:01.351788 21845 net.cpp:338] pool2/3x3_s2_pool2/3x3_s2_0_split -> pool2/3x3_s2_pool2/3x3_s2_0_split_0
I1218 23:42:01.351802 21845 net.cpp:338] pool2/3x3_s2_pool2/3x3_s2_0_split -> pool2/3x3_s2_pool2/3x3_s2_0_split_1
I1218 23:42:01.351817 21845 net.cpp:338] pool2/3x3_s2_pool2/3x3_s2_0_split -> pool2/3x3_s2_pool2/3x3_s2_0_split_2
I1218 23:42:01.351830 21845 net.cpp:338] pool2/3x3_s2_pool2/3x3_s2_0_split -> pool2/3x3_s2_pool2/3x3_s2_0_split_3
I1218 23:42:01.351842 21845 net.cpp:113] Setting up pool2/3x3_s2_pool2/3x3_s2_0_split
I1218 23:42:01.351857 21845 net.cpp:120] Top shape: 80 192 28 28 (12042240)
I1218 23:42:01.351867 21845 net.cpp:120] Top shape: 80 192 28 28 (12042240)
I1218 23:42:01.351877 21845 net.cpp:120] Top shape: 80 192 28 28 (12042240)
I1218 23:42:01.351887 21845 net.cpp:120] Top shape: 80 192 28 28 (12042240)
I1218 23:42:01.351897 21845 layer_factory.hpp:74] Creating layer inception_3a/1x1
I1218 23:42:01.351912 21845 net.cpp:84] Creating Layer inception_3a/1x1
I1218 23:42:01.351922 21845 net.cpp:380] inception_3a/1x1 <- pool2/3x3_s2_pool2/3x3_s2_0_split_0
I1218 23:42:01.351935 21845 net.cpp:338] inception_3a/1x1 -> inception_3a/1x1
I1218 23:42:01.351953 21845 net.cpp:113] Setting up inception_3a/1x1
I1218 23:42:01.352867 21845 net.cpp:120] Top shape: 80 64 28 28 (4014080)
I1218 23:42:01.352896 21845 layer_factory.hpp:74] Creating layer inception_3a/relu_1x1
I1218 23:42:01.352910 21845 net.cpp:84] Creating Layer inception_3a/relu_1x1
I1218 23:42:01.352918 21845 net.cpp:380] inception_3a/relu_1x1 <- inception_3a/1x1
I1218 23:42:01.352931 21845 net.cpp:327] inception_3a/relu_1x1 -> inception_3a/1x1 (in-place)
I1218 23:42:01.352944 21845 net.cpp:113] Setting up inception_3a/relu_1x1
I1218 23:42:01.353082 21845 net.cpp:120] Top shape: 80 64 28 28 (4014080)
I1218 23:42:01.353098 21845 layer_factory.hpp:74] Creating layer inception_3a/3x3_reduce
I1218 23:42:01.353112 21845 net.cpp:84] Creating Layer inception_3a/3x3_reduce
I1218 23:42:01.353122 21845 net.cpp:380] inception_3a/3x3_reduce <- pool2/3x3_s2_pool2/3x3_s2_0_split_1
I1218 23:42:01.353137 21845 net.cpp:338] inception_3a/3x3_reduce -> inception_3a/3x3_reduce
I1218 23:42:01.353152 21845 net.cpp:113] Setting up inception_3a/3x3_reduce
I1218 23:42:01.354126 21845 net.cpp:120] Top shape: 80 96 28 28 (6021120)
I1218 23:42:01.354153 21845 layer_factory.hpp:74] Creating layer inception_3a/relu_3x3_reduce
I1218 23:42:01.354171 21845 net.cpp:84] Creating Layer inception_3a/relu_3x3_reduce
I1218 23:42:01.354181 21845 net.cpp:380] inception_3a/relu_3x3_reduce <- inception_3a/3x3_reduce
I1218 23:42:01.354192 21845 net.cpp:327] inception_3a/relu_3x3_reduce -> inception_3a/3x3_reduce (in-place)
I1218 23:42:01.354203 21845 net.cpp:113] Setting up inception_3a/relu_3x3_reduce
I1218 23:42:01.354315 21845 net.cpp:120] Top shape: 80 96 28 28 (6021120)
I1218 23:42:01.354326 21845 layer_factory.hpp:74] Creating layer inception_3a/3x3
I1218 23:42:01.354337 21845 net.cpp:84] Creating Layer inception_3a/3x3
I1218 23:42:01.354346 21845 net.cpp:380] inception_3a/3x3 <- inception_3a/3x3_reduce
I1218 23:42:01.354359 21845 net.cpp:338] inception_3a/3x3 -> inception_3a/3x3
I1218 23:42:01.354373 21845 net.cpp:113] Setting up inception_3a/3x3
I1218 23:42:01.357202 21845 net.cpp:120] Top shape: 80 128 28 28 (8028160)
I1218 23:42:01.357244 21845 layer_factory.hpp:74] Creating layer inception_3a/relu_3x3
I1218 23:42:01.357261 21845 net.cpp:84] Creating Layer inception_3a/relu_3x3
I1218 23:42:01.357270 21845 net.cpp:380] inception_3a/relu_3x3 <- inception_3a/3x3
I1218 23:42:01.357281 21845 net.cpp:327] inception_3a/relu_3x3 -> inception_3a/3x3 (in-place)
I1218 23:42:01.357295 21845 net.cpp:113] Setting up inception_3a/relu_3x3
I1218 23:42:01.357650 21845 net.cpp:120] Top shape: 80 128 28 28 (8028160)
I1218 23:42:01.357671 21845 layer_factory.hpp:74] Creating layer inception_3a/5x5_reduce
I1218 23:42:01.357684 21845 net.cpp:84] Creating Layer inception_3a/5x5_reduce
I1218 23:42:01.357693 21845 net.cpp:380] inception_3a/5x5_reduce <- pool2/3x3_s2_pool2/3x3_s2_0_split_2
I1218 23:42:01.357710 21845 net.cpp:338] inception_3a/5x5_reduce -> inception_3a/5x5_reduce
I1218 23:42:01.357728 21845 net.cpp:113] Setting up inception_3a/5x5_reduce
I1218 23:42:01.362690 21845 net.cpp:120] Top shape: 80 16 28 28 (1003520)
I1218 23:42:01.362712 21845 layer_factory.hpp:74] Creating layer inception_3a/relu_5x5_reduce
I1218 23:42:01.362725 21845 net.cpp:84] Creating Layer inception_3a/relu_5x5_reduce
I1218 23:42:01.362730 21845 net.cpp:380] inception_3a/relu_5x5_reduce <- inception_3a/5x5_reduce
I1218 23:42:01.362738 21845 net.cpp:327] inception_3a/relu_5x5_reduce -> inception_3a/5x5_reduce (in-place)
I1218 23:42:01.362747 21845 net.cpp:113] Setting up inception_3a/relu_5x5_reduce
I1218 23:42:01.362824 21845 net.cpp:120] Top shape: 80 16 28 28 (1003520)
I1218 23:42:01.362833 21845 layer_factory.hpp:74] Creating layer inception_3a/5x5
I1218 23:42:01.362841 21845 net.cpp:84] Creating Layer inception_3a/5x5
I1218 23:42:01.362846 21845 net.cpp:380] inception_3a/5x5 <- inception_3a/5x5_reduce
I1218 23:42:01.362855 21845 net.cpp:338] inception_3a/5x5 -> inception_3a/5x5
I1218 23:42:01.362865 21845 net.cpp:113] Setting up inception_3a/5x5
I1218 23:42:01.363728 21845 net.cpp:120] Top shape: 80 32 28 28 (2007040)
I1218 23:42:01.363752 21845 layer_factory.hpp:74] Creating layer inception_3a/relu_5x5
I1218 23:42:01.363765 21845 net.cpp:84] Creating Layer inception_3a/relu_5x5
I1218 23:42:01.363773 21845 net.cpp:380] inception_3a/relu_5x5 <- inception_3a/5x5
I1218 23:42:01.363785 21845 net.cpp:327] inception_3a/relu_5x5 -> inception_3a/5x5 (in-place)
I1218 23:42:01.363798 21845 net.cpp:113] Setting up inception_3a/relu_5x5
I1218 23:42:01.363915 21845 net.cpp:120] Top shape: 80 32 28 28 (2007040)
I1218 23:42:01.363929 21845 layer_factory.hpp:74] Creating layer inception_3a/pool
I1218 23:42:01.363937 21845 layer_factory.cpp:56] CUDNN does not support padding or multiple tops. Using Caffe's own pooling layer.
I1218 23:42:01.363950 21845 net.cpp:84] Creating Layer inception_3a/pool
I1218 23:42:01.363958 21845 net.cpp:380] inception_3a/pool <- pool2/3x3_s2_pool2/3x3_s2_0_split_3
I1218 23:42:01.363972 21845 net.cpp:338] inception_3a/pool -> inception_3a/pool
I1218 23:42:01.363986 21845 net.cpp:113] Setting up inception_3a/pool
I1218 23:42:01.364001 21845 net.cpp:120] Top shape: 80 192 28 28 (12042240)
I1218 23:42:01.364009 21845 layer_factory.hpp:74] Creating layer inception_3a/pool_proj
I1218 23:42:01.364022 21845 net.cpp:84] Creating Layer inception_3a/pool_proj
I1218 23:42:01.364033 21845 net.cpp:380] inception_3a/pool_proj <- inception_3a/pool
I1218 23:42:01.364044 21845 net.cpp:338] inception_3a/pool_proj -> inception_3a/pool_proj
I1218 23:42:01.364058 21845 net.cpp:113] Setting up inception_3a/pool_proj
I1218 23:42:01.364804 21845 net.cpp:120] Top shape: 80 32 28 28 (2007040)
I1218 23:42:01.364831 21845 layer_factory.hpp:74] Creating layer inception_3a/relu_pool_proj
I1218 23:42:01.364845 21845 net.cpp:84] Creating Layer inception_3a/relu_pool_proj
I1218 23:42:01.364852 21845 net.cpp:380] inception_3a/relu_pool_proj <- inception_3a/pool_proj
I1218 23:42:01.364866 21845 net.cpp:327] inception_3a/relu_pool_proj -> inception_3a/pool_proj (in-place)
I1218 23:42:01.364887 21845 net.cpp:113] Setting up inception_3a/relu_pool_proj
I1218 23:42:01.365020 21845 net.cpp:120] Top shape: 80 32 28 28 (2007040)
I1218 23:42:01.365031 21845 layer_factory.hpp:74] Creating layer inception_3a/output
I1218 23:42:01.365042 21845 net.cpp:84] Creating Layer inception_3a/output
I1218 23:42:01.365051 21845 net.cpp:380] inception_3a/output <- inception_3a/1x1
I1218 23:42:01.365082 21845 net.cpp:380] inception_3a/output <- inception_3a/3x3
I1218 23:42:01.365092 21845 net.cpp:380] inception_3a/output <- inception_3a/5x5
I1218 23:42:01.365100 21845 net.cpp:380] inception_3a/output <- inception_3a/pool_proj
I1218 23:42:01.365120 21845 net.cpp:338] inception_3a/output -> inception_3a/output
I1218 23:42:01.365133 21845 net.cpp:113] Setting up inception_3a/output
I1218 23:42:01.365145 21845 net.cpp:120] Top shape: 80 256 28 28 (16056320)
I1218 23:42:01.365154 21845 layer_factory.hpp:74] Creating layer inception_3a/output_inception_3a/output_0_split
I1218 23:42:01.365165 21845 net.cpp:84] Creating Layer inception_3a/output_inception_3a/output_0_split
I1218 23:42:01.365172 21845 net.cpp:380] inception_3a/output_inception_3a/output_0_split <- inception_3a/output
I1218 23:42:01.365185 21845 net.cpp:338] inception_3a/output_inception_3a/output_0_split -> inception_3a/output_inception_3a/output_0_split_0
I1218 23:42:01.365197 21845 net.cpp:338] inception_3a/output_inception_3a/output_0_split -> inception_3a/output_inception_3a/output_0_split_1
I1218 23:42:01.365209 21845 net.cpp:338] inception_3a/output_inception_3a/output_0_split -> inception_3a/output_inception_3a/output_0_split_2
I1218 23:42:01.365219 21845 net.cpp:338] inception_3a/output_inception_3a/output_0_split -> inception_3a/output_inception_3a/output_0_split_3
I1218 23:42:01.365229 21845 net.cpp:113] Setting up inception_3a/output_inception_3a/output_0_split
I1218 23:42:01.365243 21845 net.cpp:120] Top shape: 80 256 28 28 (16056320)
I1218 23:42:01.365252 21845 net.cpp:120] Top shape: 80 256 28 28 (16056320)
I1218 23:42:01.365260 21845 net.cpp:120] Top shape: 80 256 28 28 (16056320)
I1218 23:42:01.365267 21845 net.cpp:120] Top shape: 80 256 28 28 (16056320)
I1218 23:42:01.365275 21845 layer_factory.hpp:74] Creating layer inception_3b/1x1
I1218 23:42:01.365286 21845 net.cpp:84] Creating Layer inception_3b/1x1
I1218 23:42:01.365293 21845 net.cpp:380] inception_3b/1x1 <- inception_3a/output_inception_3a/output_0_split_0
I1218 23:42:01.365306 21845 net.cpp:338] inception_3b/1x1 -> inception_3b/1x1
I1218 23:42:01.365319 21845 net.cpp:113] Setting up inception_3b/1x1
I1218 23:42:01.366508 21845 net.cpp:120] Top shape: 80 128 28 28 (8028160)
I1218 23:42:01.366533 21845 layer_factory.hpp:74] Creating layer inception_3b/relu_1x1
I1218 23:42:01.366545 21845 net.cpp:84] Creating Layer inception_3b/relu_1x1
I1218 23:42:01.366554 21845 net.cpp:380] inception_3b/relu_1x1 <- inception_3b/1x1
I1218 23:42:01.366565 21845 net.cpp:327] inception_3b/relu_1x1 -> inception_3b/1x1 (in-place)
I1218 23:42:01.366576 21845 net.cpp:113] Setting up inception_3b/relu_1x1
I1218 23:42:01.366915 21845 net.cpp:120] Top shape: 80 128 28 28 (8028160)
I1218 23:42:01.366931 21845 layer_factory.hpp:74] Creating layer inception_3b/3x3_reduce
I1218 23:42:01.366943 21845 net.cpp:84] Creating Layer inception_3b/3x3_reduce
I1218 23:42:01.366951 21845 net.cpp:380] inception_3b/3x3_reduce <- inception_3a/output_inception_3a/output_0_split_1
I1218 23:42:01.366966 21845 net.cpp:338] inception_3b/3x3_reduce -> inception_3b/3x3_reduce
I1218 23:42:01.366979 21845 net.cpp:113] Setting up inception_3b/3x3_reduce
I1218 23:42:01.368161 21845 net.cpp:120] Top shape: 80 128 28 28 (8028160)
I1218 23:42:01.368185 21845 layer_factory.hpp:74] Creating layer inception_3b/relu_3x3_reduce
I1218 23:42:01.368199 21845 net.cpp:84] Creating Layer inception_3b/relu_3x3_reduce
I1218 23:42:01.368207 21845 net.cpp:380] inception_3b/relu_3x3_reduce <- inception_3b/3x3_reduce
I1218 23:42:01.368218 21845 net.cpp:327] inception_3b/relu_3x3_reduce -> inception_3b/3x3_reduce (in-place)
I1218 23:42:01.368230 21845 net.cpp:113] Setting up inception_3b/relu_3x3_reduce
I1218 23:42:01.368343 21845 net.cpp:120] Top shape: 80 128 28 28 (8028160)
I1218 23:42:01.368366 21845 layer_factory.hpp:74] Creating layer inception_3b/3x3
I1218 23:42:01.368387 21845 net.cpp:84] Creating Layer inception_3b/3x3
I1218 23:42:01.368396 21845 net.cpp:380] inception_3b/3x3 <- inception_3b/3x3_reduce
I1218 23:42:01.368407 21845 net.cpp:338] inception_3b/3x3 -> inception_3b/3x3
I1218 23:42:01.368420 21845 net.cpp:113] Setting up inception_3b/3x3
I1218 23:42:01.373049 21845 net.cpp:120] Top shape: 80 192 28 28 (12042240)
I1218 23:42:01.373083 21845 layer_factory.hpp:74] Creating layer inception_3b/relu_3x3
I1218 23:42:01.373098 21845 net.cpp:84] Creating Layer inception_3b/relu_3x3
I1218 23:42:01.373106 21845 net.cpp:380] inception_3b/relu_3x3 <- inception_3b/3x3
I1218 23:42:01.373117 21845 net.cpp:327] inception_3b/relu_3x3 -> inception_3b/3x3 (in-place)
I1218 23:42:01.373129 21845 net.cpp:113] Setting up inception_3b/relu_3x3
I1218 23:42:01.373242 21845 net.cpp:120] Top shape: 80 192 28 28 (12042240)
I1218 23:42:01.373253 21845 layer_factory.hpp:74] Creating layer inception_3b/5x5_reduce
I1218 23:42:01.373265 21845 net.cpp:84] Creating Layer inception_3b/5x5_reduce
I1218 23:42:01.373273 21845 net.cpp:380] inception_3b/5x5_reduce <- inception_3a/output_inception_3a/output_0_split_2
I1218 23:42:01.373287 21845 net.cpp:338] inception_3b/5x5_reduce -> inception_3b/5x5_reduce
I1218 23:42:01.373301 21845 net.cpp:113] Setting up inception_3b/5x5_reduce
I1218 23:42:01.374042 21845 net.cpp:120] Top shape: 80 32 28 28 (2007040)
I1218 23:42:01.374065 21845 layer_factory.hpp:74] Creating layer inception_3b/relu_5x5_reduce
I1218 23:42:01.374076 21845 net.cpp:84] Creating Layer inception_3b/relu_5x5_reduce
I1218 23:42:01.374084 21845 net.cpp:380] inception_3b/relu_5x5_reduce <- inception_3b/5x5_reduce
I1218 23:42:01.374097 21845 net.cpp:327] inception_3b/relu_5x5_reduce -> inception_3b/5x5_reduce (in-place)
I1218 23:42:01.374109 21845 net.cpp:113] Setting up inception_3b/relu_5x5_reduce
I1218 23:42:01.374215 21845 net.cpp:120] Top shape: 80 32 28 28 (2007040)
I1218 23:42:01.374230 21845 layer_factory.hpp:74] Creating layer inception_3b/5x5
I1218 23:42:01.374244 21845 net.cpp:84] Creating Layer inception_3b/5x5
I1218 23:42:01.374253 21845 net.cpp:380] inception_3b/5x5 <- inception_3b/5x5_reduce
I1218 23:42:01.374264 21845 net.cpp:338] inception_3b/5x5 -> inception_3b/5x5
I1218 23:42:01.374281 21845 net.cpp:113] Setting up inception_3b/5x5
I1218 23:42:01.376266 21845 net.cpp:120] Top shape: 80 96 28 28 (6021120)
I1218 23:42:01.376289 21845 layer_factory.hpp:74] Creating layer inception_3b/relu_5x5
I1218 23:42:01.376302 21845 net.cpp:84] Creating Layer inception_3b/relu_5x5
I1218 23:42:01.376310 21845 net.cpp:380] inception_3b/relu_5x5 <- inception_3b/5x5
I1218 23:42:01.376320 21845 net.cpp:327] inception_3b/relu_5x5 -> inception_3b/5x5 (in-place)
I1218 23:42:01.376332 21845 net.cpp:113] Setting up inception_3b/relu_5x5
I1218 23:42:01.376668 21845 net.cpp:120] Top shape: 80 96 28 28 (6021120)
I1218 23:42:01.376683 21845 layer_factory.hpp:74] Creating layer inception_3b/pool
I1218 23:42:01.376693 21845 layer_factory.cpp:56] CUDNN does not support padding or multiple tops. Using Caffe's own pooling layer.
I1218 23:42:01.376704 21845 net.cpp:84] Creating Layer inception_3b/pool
I1218 23:42:01.376713 21845 net.cpp:380] inception_3b/pool <- inception_3a/output_inception_3a/output_0_split_3
I1218 23:42:01.376724 21845 net.cpp:338] inception_3b/pool -> inception_3b/pool
I1218 23:42:01.376736 21845 net.cpp:113] Setting up inception_3b/pool
I1218 23:42:01.376750 21845 net.cpp:120] Top shape: 80 256 28 28 (16056320)
I1218 23:42:01.376759 21845 layer_factory.hpp:74] Creating layer inception_3b/pool_proj
I1218 23:42:01.376772 21845 net.cpp:84] Creating Layer inception_3b/pool_proj
I1218 23:42:01.376780 21845 net.cpp:380] inception_3b/pool_proj <- inception_3b/pool
I1218 23:42:01.376791 21845 net.cpp:338] inception_3b/pool_proj -> inception_3b/pool_proj
I1218 23:42:01.376802 21845 net.cpp:113] Setting up inception_3b/pool_proj
I1218 23:42:01.377708 21845 net.cpp:120] Top shape: 80 64 28 28 (4014080)
I1218 23:42:01.377748 21845 layer_factory.hpp:74] Creating layer inception_3b/relu_pool_proj
I1218 23:42:01.377763 21845 net.cpp:84] Creating Layer inception_3b/relu_pool_proj
I1218 23:42:01.377770 21845 net.cpp:380] inception_3b/relu_pool_proj <- inception_3b/pool_proj
I1218 23:42:01.377780 21845 net.cpp:327] inception_3b/relu_pool_proj -> inception_3b/pool_proj (in-place)
I1218 23:42:01.377791 21845 net.cpp:113] Setting up inception_3b/relu_pool_proj
I1218 23:42:01.377895 21845 net.cpp:120] Top shape: 80 64 28 28 (4014080)
I1218 23:42:01.377907 21845 layer_factory.hpp:74] Creating layer inception_3b/output
I1218 23:42:01.377918 21845 net.cpp:84] Creating Layer inception_3b/output
I1218 23:42:01.377926 21845 net.cpp:380] inception_3b/output <- inception_3b/1x1
I1218 23:42:01.377935 21845 net.cpp:380] inception_3b/output <- inception_3b/3x3
I1218 23:42:01.377943 21845 net.cpp:380] inception_3b/output <- inception_3b/5x5
I1218 23:42:01.377950 21845 net.cpp:380] inception_3b/output <- inception_3b/pool_proj
I1218 23:42:01.377959 21845 net.cpp:338] inception_3b/output -> inception_3b/output
I1218 23:42:01.377970 21845 net.cpp:113] Setting up inception_3b/output
I1218 23:42:01.377981 21845 net.cpp:120] Top shape: 80 480 28 28 (30105600)
I1218 23:42:01.377988 21845 layer_factory.hpp:74] Creating layer pool3/3x3_s2
I1218 23:42:01.378000 21845 net.cpp:84] Creating Layer pool3/3x3_s2
I1218 23:42:01.378007 21845 net.cpp:380] pool3/3x3_s2 <- inception_3b/output
I1218 23:42:01.378017 21845 net.cpp:338] pool3/3x3_s2 -> pool3/3x3_s2
I1218 23:42:01.378027 21845 net.cpp:113] Setting up pool3/3x3_s2
I1218 23:42:01.378128 21845 net.cpp:120] Top shape: 80 480 14 14 (7526400)
I1218 23:42:01.378137 21845 layer_factory.hpp:74] Creating layer pool3/3x3_s2_pool3/3x3_s2_0_split
I1218 23:42:01.378147 21845 net.cpp:84] Creating Layer pool3/3x3_s2_pool3/3x3_s2_0_split
I1218 23:42:01.378154 21845 net.cpp:380] pool3/3x3_s2_pool3/3x3_s2_0_split <- pool3/3x3_s2
I1218 23:42:01.378164 21845 net.cpp:338] pool3/3x3_s2_pool3/3x3_s2_0_split -> pool3/3x3_s2_pool3/3x3_s2_0_split_0
I1218 23:42:01.378175 21845 net.cpp:338] pool3/3x3_s2_pool3/3x3_s2_0_split -> pool3/3x3_s2_pool3/3x3_s2_0_split_1
I1218 23:42:01.378187 21845 net.cpp:338] pool3/3x3_s2_pool3/3x3_s2_0_split -> pool3/3x3_s2_pool3/3x3_s2_0_split_2
I1218 23:42:01.378198 21845 net.cpp:338] pool3/3x3_s2_pool3/3x3_s2_0_split -> pool3/3x3_s2_pool3/3x3_s2_0_split_3
I1218 23:42:01.378207 21845 net.cpp:113] Setting up pool3/3x3_s2_pool3/3x3_s2_0_split
I1218 23:42:01.378218 21845 net.cpp:120] Top shape: 80 480 14 14 (7526400)
I1218 23:42:01.378226 21845 net.cpp:120] Top shape: 80 480 14 14 (7526400)
I1218 23:42:01.378233 21845 net.cpp:120] Top shape: 80 480 14 14 (7526400)
I1218 23:42:01.378240 21845 net.cpp:120] Top shape: 80 480 14 14 (7526400)
I1218 23:42:01.378247 21845 layer_factory.hpp:74] Creating layer inception_4a/1x1
I1218 23:42:01.378260 21845 net.cpp:84] Creating Layer inception_4a/1x1
I1218 23:42:01.378268 21845 net.cpp:380] inception_4a/1x1 <- pool3/3x3_s2_pool3/3x3_s2_0_split_0
I1218 23:42:01.378278 21845 net.cpp:338] inception_4a/1x1 -> inception_4a/1x1
I1218 23:42:01.378288 21845 net.cpp:113] Setting up inception_4a/1x1
I1218 23:42:01.382871 21845 net.cpp:120] Top shape: 80 192 14 14 (3010560)
I1218 23:42:01.382904 21845 layer_factory.hpp:74] Creating layer inception_4a/relu_1x1
I1218 23:42:01.382918 21845 net.cpp:84] Creating Layer inception_4a/relu_1x1
I1218 23:42:01.382927 21845 net.cpp:380] inception_4a/relu_1x1 <- inception_4a/1x1
I1218 23:42:01.382938 21845 net.cpp:327] inception_4a/relu_1x1 -> inception_4a/1x1 (in-place)
I1218 23:42:01.382951 21845 net.cpp:113] Setting up inception_4a/relu_1x1
I1218 23:42:01.383281 21845 net.cpp:120] Top shape: 80 192 14 14 (3010560)
I1218 23:42:01.383301 21845 layer_factory.hpp:74] Creating layer inception_4a/3x3_reduce
I1218 23:42:01.383313 21845 net.cpp:84] Creating Layer inception_4a/3x3_reduce
I1218 23:42:01.383322 21845 net.cpp:380] inception_4a/3x3_reduce <- pool3/3x3_s2_pool3/3x3_s2_0_split_1
I1218 23:42:01.383343 21845 net.cpp:338] inception_4a/3x3_reduce -> inception_4a/3x3_reduce
I1218 23:42:01.383369 21845 net.cpp:113] Setting up inception_4a/3x3_reduce
I1218 23:42:01.384729 21845 net.cpp:120] Top shape: 80 96 14 14 (1505280)
I1218 23:42:01.384759 21845 layer_factory.hpp:74] Creating layer inception_4a/relu_3x3_reduce
I1218 23:42:01.384771 21845 net.cpp:84] Creating Layer inception_4a/relu_3x3_reduce
I1218 23:42:01.384778 21845 net.cpp:380] inception_4a/relu_3x3_reduce <- inception_4a/3x3_reduce
I1218 23:42:01.384789 21845 net.cpp:327] inception_4a/relu_3x3_reduce -> inception_4a/3x3_reduce (in-place)
I1218 23:42:01.384800 21845 net.cpp:113] Setting up inception_4a/relu_3x3_reduce
I1218 23:42:01.384903 21845 net.cpp:120] Top shape: 80 96 14 14 (1505280)
I1218 23:42:01.384913 21845 layer_factory.hpp:74] Creating layer inception_4a/3x3
I1218 23:42:01.384927 21845 net.cpp:84] Creating Layer inception_4a/3x3
I1218 23:42:01.384934 21845 net.cpp:380] inception_4a/3x3 <- inception_4a/3x3_reduce
I1218 23:42:01.384944 21845 net.cpp:338] inception_4a/3x3 -> inception_4a/3x3
I1218 23:42:01.384958 21845 net.cpp:113] Setting up inception_4a/3x3
I1218 23:42:01.393281 21845 net.cpp:120] Top shape: 80 208 14 14 (3261440)
I1218 23:42:01.393312 21845 layer_factory.hpp:74] Creating layer inception_4a/relu_3x3
I1218 23:42:01.393331 21845 net.cpp:84] Creating Layer inception_4a/relu_3x3
I1218 23:42:01.393339 21845 net.cpp:380] inception_4a/relu_3x3 <- inception_4a/3x3
I1218 23:42:01.393350 21845 net.cpp:327] inception_4a/relu_3x3 -> inception_4a/3x3 (in-place)
I1218 23:42:01.393362 21845 net.cpp:113] Setting up inception_4a/relu_3x3
I1218 23:42:01.393468 21845 net.cpp:120] Top shape: 80 208 14 14 (3261440)
I1218 23:42:01.393478 21845 layer_factory.hpp:74] Creating layer inception_4a/5x5_reduce
I1218 23:42:01.393496 21845 net.cpp:84] Creating Layer inception_4a/5x5_reduce
I1218 23:42:01.393504 21845 net.cpp:380] inception_4a/5x5_reduce <- pool3/3x3_s2_pool3/3x3_s2_0_split_2
I1218 23:42:01.393515 21845 net.cpp:338] inception_4a/5x5_reduce -> inception_4a/5x5_reduce
I1218 23:42:01.393528 21845 net.cpp:113] Setting up inception_4a/5x5_reduce
I1218 23:42:01.394215 21845 net.cpp:120] Top shape: 80 16 14 14 (250880)
I1218 23:42:01.394237 21845 layer_factory.hpp:74] Creating layer inception_4a/relu_5x5_reduce
I1218 23:42:01.394246 21845 net.cpp:84] Creating Layer inception_4a/relu_5x5_reduce
I1218 23:42:01.394254 21845 net.cpp:380] inception_4a/relu_5x5_reduce <- inception_4a/5x5_reduce
I1218 23:42:01.394268 21845 net.cpp:327] inception_4a/relu_5x5_reduce -> inception_4a/5x5_reduce (in-place)
I1218 23:42:01.394279 21845 net.cpp:113] Setting up inception_4a/relu_5x5_reduce
I1218 23:42:01.394378 21845 net.cpp:120] Top shape: 80 16 14 14 (250880)
I1218 23:42:01.394387 21845 layer_factory.hpp:74] Creating layer inception_4a/5x5
I1218 23:42:01.394398 21845 net.cpp:84] Creating Layer inception_4a/5x5
I1218 23:42:01.394404 21845 net.cpp:380] inception_4a/5x5 <- inception_4a/5x5_reduce
I1218 23:42:01.394417 21845 net.cpp:338] inception_4a/5x5 -> inception_4a/5x5
I1218 23:42:01.394428 21845 net.cpp:113] Setting up inception_4a/5x5
I1218 23:42:01.395282 21845 net.cpp:120] Top shape: 80 48 14 14 (752640)
I1218 23:42:01.395303 21845 layer_factory.hpp:74] Creating layer inception_4a/relu_5x5
I1218 23:42:01.395313 21845 net.cpp:84] Creating Layer inception_4a/relu_5x5
I1218 23:42:01.395320 21845 net.cpp:380] inception_4a/relu_5x5 <- inception_4a/5x5
I1218 23:42:01.395331 21845 net.cpp:327] inception_4a/relu_5x5 -> inception_4a/5x5 (in-place)
I1218 23:42:01.395342 21845 net.cpp:113] Setting up inception_4a/relu_5x5
I1218 23:42:01.395650 21845 net.cpp:120] Top shape: 80 48 14 14 (752640)
I1218 23:42:01.395664 21845 layer_factory.hpp:74] Creating layer inception_4a/pool
I1218 23:42:01.395673 21845 layer_factory.cpp:56] CUDNN does not support padding or multiple tops. Using Caffe's own pooling layer.
I1218 23:42:01.395681 21845 net.cpp:84] Creating Layer inception_4a/pool
I1218 23:42:01.395689 21845 net.cpp:380] inception_4a/pool <- pool3/3x3_s2_pool3/3x3_s2_0_split_3
I1218 23:42:01.395716 21845 net.cpp:338] inception_4a/pool -> inception_4a/pool
I1218 23:42:01.395728 21845 net.cpp:113] Setting up inception_4a/pool
I1218 23:42:01.395741 21845 net.cpp:120] Top shape: 80 480 14 14 (7526400)
I1218 23:42:01.395748 21845 layer_factory.hpp:74] Creating layer inception_4a/pool_proj
I1218 23:42:01.395766 21845 net.cpp:84] Creating Layer inception_4a/pool_proj
I1218 23:42:01.395772 21845 net.cpp:380] inception_4a/pool_proj <- inception_4a/pool
I1218 23:42:01.395784 21845 net.cpp:338] inception_4a/pool_proj -> inception_4a/pool_proj
I1218 23:42:01.395797 21845 net.cpp:113] Setting up inception_4a/pool_proj
I1218 23:42:01.396836 21845 net.cpp:120] Top shape: 80 64 14 14 (1003520)
I1218 23:42:01.396857 21845 layer_factory.hpp:74] Creating layer inception_4a/relu_pool_proj
I1218 23:42:01.396870 21845 net.cpp:84] Creating Layer inception_4a/relu_pool_proj
I1218 23:42:01.396878 21845 net.cpp:380] inception_4a/relu_pool_proj <- inception_4a/pool_proj
I1218 23:42:01.396888 21845 net.cpp:327] inception_4a/relu_pool_proj -> inception_4a/pool_proj (in-place)
I1218 23:42:01.396898 21845 net.cpp:113] Setting up inception_4a/relu_pool_proj
I1218 23:42:01.397001 21845 net.cpp:120] Top shape: 80 64 14 14 (1003520)
I1218 23:42:01.397009 21845 layer_factory.hpp:74] Creating layer inception_4a/output
I1218 23:42:01.397019 21845 net.cpp:84] Creating Layer inception_4a/output
I1218 23:42:01.397025 21845 net.cpp:380] inception_4a/output <- inception_4a/1x1
I1218 23:42:01.397034 21845 net.cpp:380] inception_4a/output <- inception_4a/3x3
I1218 23:42:01.397042 21845 net.cpp:380] inception_4a/output <- inception_4a/5x5
I1218 23:42:01.397048 21845 net.cpp:380] inception_4a/output <- inception_4a/pool_proj
I1218 23:42:01.397066 21845 net.cpp:338] inception_4a/output -> inception_4a/output
I1218 23:42:01.397079 21845 net.cpp:113] Setting up inception_4a/output
I1218 23:42:01.397090 21845 net.cpp:120] Top shape: 80 512 14 14 (8028160)
I1218 23:42:01.397097 21845 layer_factory.hpp:74] Creating layer inception_4a/output_inception_4a/output_0_split
I1218 23:42:01.397109 21845 net.cpp:84] Creating Layer inception_4a/output_inception_4a/output_0_split
I1218 23:42:01.397115 21845 net.cpp:380] inception_4a/output_inception_4a/output_0_split <- inception_4a/output
I1218 23:42:01.397125 21845 net.cpp:338] inception_4a/output_inception_4a/output_0_split -> inception_4a/output_inception_4a/output_0_split_0
I1218 23:42:01.397137 21845 net.cpp:338] inception_4a/output_inception_4a/output_0_split -> inception_4a/output_inception_4a/output_0_split_1
I1218 23:42:01.397148 21845 net.cpp:338] inception_4a/output_inception_4a/output_0_split -> inception_4a/output_inception_4a/output_0_split_2
I1218 23:42:01.397160 21845 net.cpp:338] inception_4a/output_inception_4a/output_0_split -> inception_4a/output_inception_4a/output_0_split_3
I1218 23:42:01.397169 21845 net.cpp:338] inception_4a/output_inception_4a/output_0_split -> inception_4a/output_inception_4a/output_0_split_4
I1218 23:42:01.397178 21845 net.cpp:113] Setting up inception_4a/output_inception_4a/output_0_split
I1218 23:42:01.397188 21845 net.cpp:120] Top shape: 80 512 14 14 (8028160)
I1218 23:42:01.397197 21845 net.cpp:120] Top shape: 80 512 14 14 (8028160)
I1218 23:42:01.397203 21845 net.cpp:120] Top shape: 80 512 14 14 (8028160)
I1218 23:42:01.397210 21845 net.cpp:120] Top shape: 80 512 14 14 (8028160)
I1218 23:42:01.397217 21845 net.cpp:120] Top shape: 80 512 14 14 (8028160)
I1218 23:42:01.397225 21845 layer_factory.hpp:74] Creating layer loss1/ave_pool
I1218 23:42:01.397234 21845 net.cpp:84] Creating Layer loss1/ave_pool
I1218 23:42:01.397241 21845 net.cpp:380] loss1/ave_pool <- inception_4a/output_inception_4a/output_0_split_0
I1218 23:42:01.397253 21845 net.cpp:338] loss1/ave_pool -> loss1/ave_pool
I1218 23:42:01.397264 21845 net.cpp:113] Setting up loss1/ave_pool
I1218 23:42:01.397358 21845 net.cpp:120] Top shape: 80 512 4 4 (655360)
I1218 23:42:01.397367 21845 layer_factory.hpp:74] Creating layer loss1/conv
I1218 23:42:01.397387 21845 net.cpp:84] Creating Layer loss1/conv
I1218 23:42:01.397404 21845 net.cpp:380] loss1/conv <- loss1/ave_pool
I1218 23:42:01.397418 21845 net.cpp:338] loss1/conv -> loss1/conv
I1218 23:42:01.397428 21845 net.cpp:113] Setting up loss1/conv
I1218 23:42:01.399034 21845 net.cpp:120] Top shape: 80 128 4 4 (163840)
I1218 23:42:01.399055 21845 layer_factory.hpp:74] Creating layer loss1/relu_conv
I1218 23:42:01.399068 21845 net.cpp:84] Creating Layer loss1/relu_conv
I1218 23:42:01.399075 21845 net.cpp:380] loss1/relu_conv <- loss1/conv
I1218 23:42:01.399085 21845 net.cpp:327] loss1/relu_conv -> loss1/conv (in-place)
I1218 23:42:01.399096 21845 net.cpp:113] Setting up loss1/relu_conv
I1218 23:42:01.399191 21845 net.cpp:120] Top shape: 80 128 4 4 (163840)
I1218 23:42:01.399199 21845 layer_factory.hpp:74] Creating layer loss1/fc
I1218 23:42:01.399220 21845 net.cpp:84] Creating Layer loss1/fc
I1218 23:42:01.399227 21845 net.cpp:380] loss1/fc <- loss1/conv
I1218 23:42:01.399237 21845 net.cpp:338] loss1/fc -> loss1/fc
I1218 23:42:01.399252 21845 net.cpp:113] Setting up loss1/fc
I1218 23:42:01.426142 21845 net.cpp:120] Top shape: 80 1024 (81920)
I1218 23:42:01.426174 21845 layer_factory.hpp:74] Creating layer loss1/relu_fc
I1218 23:42:01.426184 21845 net.cpp:84] Creating Layer loss1/relu_fc
I1218 23:42:01.426190 21845 net.cpp:380] loss1/relu_fc <- loss1/fc
I1218 23:42:01.426199 21845 net.cpp:327] loss1/relu_fc -> loss1/fc (in-place)
I1218 23:42:01.426208 21845 net.cpp:113] Setting up loss1/relu_fc
I1218 23:42:01.428124 21845 net.cpp:120] Top shape: 80 1024 (81920)
I1218 23:42:01.428144 21845 layer_factory.hpp:74] Creating layer loss1/drop_fc
I1218 23:42:01.428180 21845 net.cpp:84] Creating Layer loss1/drop_fc
I1218 23:42:01.428187 21845 net.cpp:380] loss1/drop_fc <- loss1/fc
I1218 23:42:01.428197 21845 net.cpp:327] loss1/drop_fc -> loss1/fc (in-place)
I1218 23:42:01.428210 21845 net.cpp:113] Setting up loss1/drop_fc
I1218 23:42:01.428222 21845 net.cpp:120] Top shape: 80 1024 (81920)
I1218 23:42:01.428230 21845 layer_factory.hpp:74] Creating layer loss1/classifier_kaggle
I1218 23:42:01.428241 21845 net.cpp:84] Creating Layer loss1/classifier_kaggle
I1218 23:42:01.428246 21845 net.cpp:380] loss1/classifier_kaggle <- loss1/fc
I1218 23:42:01.428254 21845 net.cpp:338] loss1/classifier_kaggle -> loss1/classifier_kaggle
I1218 23:42:01.428264 21845 net.cpp:113] Setting up loss1/classifier_kaggle
I1218 23:42:01.433799 21845 net.cpp:120] Top shape: 80 447 (35760)
I1218 23:42:01.433814 21845 layer_factory.hpp:74] Creating layer loss1/loss
I1218 23:42:01.433822 21845 net.cpp:84] Creating Layer loss1/loss
I1218 23:42:01.433827 21845 net.cpp:380] loss1/loss <- loss1/classifier_kaggle
I1218 23:42:01.433835 21845 net.cpp:380] loss1/loss <- label_data_1_split_0
I1218 23:42:01.433843 21845 net.cpp:338] loss1/loss -> loss1/loss1
I1218 23:42:01.433852 21845 net.cpp:113] Setting up loss1/loss
I1218 23:42:01.433861 21845 layer_factory.hpp:74] Creating layer loss1/loss
I1218 23:42:01.434052 21845 net.cpp:120] Top shape: (1)
I1218 23:42:01.434061 21845 net.cpp:122]     with loss weight 0.3
I1218 23:42:01.434083 21845 layer_factory.hpp:74] Creating layer inception_4b/1x1
I1218 23:42:01.434094 21845 net.cpp:84] Creating Layer inception_4b/1x1
I1218 23:42:01.434099 21845 net.cpp:380] inception_4b/1x1 <- inception_4a/output_inception_4a/output_0_split_1
I1218 23:42:01.434109 21845 net.cpp:338] inception_4b/1x1 -> inception_4b/1x1
I1218 23:42:01.434118 21845 net.cpp:113] Setting up inception_4b/1x1
I1218 23:42:01.435540 21845 net.cpp:120] Top shape: 80 160 14 14 (2508800)
I1218 23:42:01.435557 21845 layer_factory.hpp:74] Creating layer inception_4b/relu_1x1
I1218 23:42:01.435565 21845 net.cpp:84] Creating Layer inception_4b/relu_1x1
I1218 23:42:01.435570 21845 net.cpp:380] inception_4b/relu_1x1 <- inception_4b/1x1
I1218 23:42:01.435577 21845 net.cpp:327] inception_4b/relu_1x1 -> inception_4b/1x1 (in-place)
I1218 23:42:01.435585 21845 net.cpp:113] Setting up inception_4b/relu_1x1
I1218 23:42:01.435659 21845 net.cpp:120] Top shape: 80 160 14 14 (2508800)
I1218 23:42:01.435675 21845 layer_factory.hpp:74] Creating layer inception_4b/3x3_reduce
I1218 23:42:01.435693 21845 net.cpp:84] Creating Layer inception_4b/3x3_reduce
I1218 23:42:01.435699 21845 net.cpp:380] inception_4b/3x3_reduce <- inception_4a/output_inception_4a/output_0_split_2
I1218 23:42:01.435708 21845 net.cpp:338] inception_4b/3x3_reduce -> inception_4b/3x3_reduce
I1218 23:42:01.435717 21845 net.cpp:113] Setting up inception_4b/3x3_reduce
I1218 23:42:01.437095 21845 net.cpp:120] Top shape: 80 112 14 14 (1756160)
I1218 23:42:01.437130 21845 layer_factory.hpp:74] Creating layer inception_4b/relu_3x3_reduce
I1218 23:42:01.437147 21845 net.cpp:84] Creating Layer inception_4b/relu_3x3_reduce
I1218 23:42:01.437157 21845 net.cpp:380] inception_4b/relu_3x3_reduce <- inception_4b/3x3_reduce
I1218 23:42:01.437170 21845 net.cpp:327] inception_4b/relu_3x3_reduce -> inception_4b/3x3_reduce (in-place)
I1218 23:42:01.437183 21845 net.cpp:113] Setting up inception_4b/relu_3x3_reduce
I1218 23:42:01.437299 21845 net.cpp:120] Top shape: 80 112 14 14 (1756160)
I1218 23:42:01.437310 21845 layer_factory.hpp:74] Creating layer inception_4b/3x3
I1218 23:42:01.437324 21845 net.cpp:84] Creating Layer inception_4b/3x3
I1218 23:42:01.437331 21845 net.cpp:380] inception_4b/3x3 <- inception_4b/3x3_reduce
I1218 23:42:01.437346 21845 net.cpp:338] inception_4b/3x3 -> inception_4b/3x3
I1218 23:42:01.437361 21845 net.cpp:113] Setting up inception_4b/3x3
I1218 23:42:01.442109 21845 net.cpp:120] Top shape: 80 224 14 14 (3512320)
I1218 23:42:01.442139 21845 layer_factory.hpp:74] Creating layer inception_4b/relu_3x3
I1218 23:42:01.442154 21845 net.cpp:84] Creating Layer inception_4b/relu_3x3
I1218 23:42:01.442163 21845 net.cpp:380] inception_4b/relu_3x3 <- inception_4b/3x3
I1218 23:42:01.442174 21845 net.cpp:327] inception_4b/relu_3x3 -> inception_4b/3x3 (in-place)
I1218 23:42:01.442188 21845 net.cpp:113] Setting up inception_4b/relu_3x3
I1218 23:42:01.442543 21845 net.cpp:120] Top shape: 80 224 14 14 (3512320)
I1218 23:42:01.442562 21845 layer_factory.hpp:74] Creating layer inception_4b/5x5_reduce
I1218 23:42:01.442579 21845 net.cpp:84] Creating Layer inception_4b/5x5_reduce
I1218 23:42:01.442589 21845 net.cpp:380] inception_4b/5x5_reduce <- inception_4a/output_inception_4a/output_0_split_3
I1218 23:42:01.442601 21845 net.cpp:338] inception_4b/5x5_reduce -> inception_4b/5x5_reduce
I1218 23:42:01.442615 21845 net.cpp:113] Setting up inception_4b/5x5_reduce
I1218 23:42:01.443462 21845 net.cpp:120] Top shape: 80 24 14 14 (376320)
I1218 23:42:01.443487 21845 layer_factory.hpp:74] Creating layer inception_4b/relu_5x5_reduce
I1218 23:42:01.443502 21845 net.cpp:84] Creating Layer inception_4b/relu_5x5_reduce
I1218 23:42:01.443512 21845 net.cpp:380] inception_4b/relu_5x5_reduce <- inception_4b/5x5_reduce
I1218 23:42:01.443523 21845 net.cpp:327] inception_4b/relu_5x5_reduce -> inception_4b/5x5_reduce (in-place)
I1218 23:42:01.443536 21845 net.cpp:113] Setting up inception_4b/relu_5x5_reduce
I1218 23:42:01.443653 21845 net.cpp:120] Top shape: 80 24 14 14 (376320)
I1218 23:42:01.443665 21845 layer_factory.hpp:74] Creating layer inception_4b/5x5
I1218 23:42:01.443681 21845 net.cpp:84] Creating Layer inception_4b/5x5
I1218 23:42:01.443688 21845 net.cpp:380] inception_4b/5x5 <- inception_4b/5x5_reduce
I1218 23:42:01.443703 21845 net.cpp:338] inception_4b/5x5 -> inception_4b/5x5
I1218 23:42:01.443717 21845 net.cpp:113] Setting up inception_4b/5x5
I1218 23:42:01.449847 21845 net.cpp:120] Top shape: 80 64 14 14 (1003520)
I1218 23:42:01.449879 21845 layer_factory.hpp:74] Creating layer inception_4b/relu_5x5
I1218 23:42:01.449895 21845 net.cpp:84] Creating Layer inception_4b/relu_5x5
I1218 23:42:01.449904 21845 net.cpp:380] inception_4b/relu_5x5 <- inception_4b/5x5
I1218 23:42:01.449915 21845 net.cpp:327] inception_4b/relu_5x5 -> inception_4b/5x5 (in-place)
I1218 23:42:01.449928 21845 net.cpp:113] Setting up inception_4b/relu_5x5
I1218 23:42:01.450037 21845 net.cpp:120] Top shape: 80 64 14 14 (1003520)
I1218 23:42:01.450049 21845 layer_factory.hpp:74] Creating layer inception_4b/pool
I1218 23:42:01.450065 21845 layer_factory.cpp:56] CUDNN does not support padding or multiple tops. Using Caffe's own pooling layer.
I1218 23:42:01.450088 21845 net.cpp:84] Creating Layer inception_4b/pool
I1218 23:42:01.450098 21845 net.cpp:380] inception_4b/pool <- inception_4a/output_inception_4a/output_0_split_4
I1218 23:42:01.450109 21845 net.cpp:338] inception_4b/pool -> inception_4b/pool
I1218 23:42:01.450139 21845 net.cpp:113] Setting up inception_4b/pool
I1218 23:42:01.450160 21845 net.cpp:120] Top shape: 80 512 14 14 (8028160)
I1218 23:42:01.450167 21845 layer_factory.hpp:74] Creating layer inception_4b/pool_proj
I1218 23:42:01.450181 21845 net.cpp:84] Creating Layer inception_4b/pool_proj
I1218 23:42:01.450187 21845 net.cpp:380] inception_4b/pool_proj <- inception_4b/pool
I1218 23:42:01.450201 21845 net.cpp:338] inception_4b/pool_proj -> inception_4b/pool_proj
I1218 23:42:01.450214 21845 net.cpp:113] Setting up inception_4b/pool_proj
I1218 23:42:01.451387 21845 net.cpp:120] Top shape: 80 64 14 14 (1003520)
I1218 23:42:01.451412 21845 layer_factory.hpp:74] Creating layer inception_4b/relu_pool_proj
I1218 23:42:01.451427 21845 net.cpp:84] Creating Layer inception_4b/relu_pool_proj
I1218 23:42:01.451436 21845 net.cpp:380] inception_4b/relu_pool_proj <- inception_4b/pool_proj
I1218 23:42:01.451447 21845 net.cpp:327] inception_4b/relu_pool_proj -> inception_4b/pool_proj (in-place)
I1218 23:42:01.451458 21845 net.cpp:113] Setting up inception_4b/relu_pool_proj
I1218 23:42:01.451797 21845 net.cpp:120] Top shape: 80 64 14 14 (1003520)
I1218 23:42:01.451813 21845 layer_factory.hpp:74] Creating layer inception_4b/output
I1218 23:42:01.451824 21845 net.cpp:84] Creating Layer inception_4b/output
I1218 23:42:01.451833 21845 net.cpp:380] inception_4b/output <- inception_4b/1x1
I1218 23:42:01.451843 21845 net.cpp:380] inception_4b/output <- inception_4b/3x3
I1218 23:42:01.451851 21845 net.cpp:380] inception_4b/output <- inception_4b/5x5
I1218 23:42:01.451860 21845 net.cpp:380] inception_4b/output <- inception_4b/pool_proj
I1218 23:42:01.451869 21845 net.cpp:338] inception_4b/output -> inception_4b/output
I1218 23:42:01.451881 21845 net.cpp:113] Setting up inception_4b/output
I1218 23:42:01.451894 21845 net.cpp:120] Top shape: 80 512 14 14 (8028160)
I1218 23:42:01.451903 21845 layer_factory.hpp:74] Creating layer inception_4b/output_inception_4b/output_0_split
I1218 23:42:01.451913 21845 net.cpp:84] Creating Layer inception_4b/output_inception_4b/output_0_split
I1218 23:42:01.451920 21845 net.cpp:380] inception_4b/output_inception_4b/output_0_split <- inception_4b/output
I1218 23:42:01.451933 21845 net.cpp:338] inception_4b/output_inception_4b/output_0_split -> inception_4b/output_inception_4b/output_0_split_0
I1218 23:42:01.451946 21845 net.cpp:338] inception_4b/output_inception_4b/output_0_split -> inception_4b/output_inception_4b/output_0_split_1
I1218 23:42:01.451956 21845 net.cpp:338] inception_4b/output_inception_4b/output_0_split -> inception_4b/output_inception_4b/output_0_split_2
I1218 23:42:01.451968 21845 net.cpp:338] inception_4b/output_inception_4b/output_0_split -> inception_4b/output_inception_4b/output_0_split_3
I1218 23:42:01.451978 21845 net.cpp:113] Setting up inception_4b/output_inception_4b/output_0_split
I1218 23:42:01.451992 21845 net.cpp:120] Top shape: 80 512 14 14 (8028160)
I1218 23:42:01.452000 21845 net.cpp:120] Top shape: 80 512 14 14 (8028160)
I1218 23:42:01.452008 21845 net.cpp:120] Top shape: 80 512 14 14 (8028160)
I1218 23:42:01.452015 21845 net.cpp:120] Top shape: 80 512 14 14 (8028160)
I1218 23:42:01.452023 21845 layer_factory.hpp:74] Creating layer inception_4c/1x1
I1218 23:42:01.452033 21845 net.cpp:84] Creating Layer inception_4c/1x1
I1218 23:42:01.452041 21845 net.cpp:380] inception_4c/1x1 <- inception_4b/output_inception_4b/output_0_split_0
I1218 23:42:01.452055 21845 net.cpp:338] inception_4c/1x1 -> inception_4c/1x1
I1218 23:42:01.452069 21845 net.cpp:113] Setting up inception_4c/1x1
I1218 23:42:01.453791 21845 net.cpp:120] Top shape: 80 128 14 14 (2007040)
I1218 23:42:01.453827 21845 layer_factory.hpp:74] Creating layer inception_4c/relu_1x1
I1218 23:42:01.453850 21845 net.cpp:84] Creating Layer inception_4c/relu_1x1
I1218 23:42:01.453858 21845 net.cpp:380] inception_4c/relu_1x1 <- inception_4c/1x1
I1218 23:42:01.453868 21845 net.cpp:327] inception_4c/relu_1x1 -> inception_4c/1x1 (in-place)
I1218 23:42:01.453881 21845 net.cpp:113] Setting up inception_4c/relu_1x1
I1218 23:42:01.453989 21845 net.cpp:120] Top shape: 80 128 14 14 (2007040)
I1218 23:42:01.453999 21845 layer_factory.hpp:74] Creating layer inception_4c/3x3_reduce
I1218 23:42:01.454011 21845 net.cpp:84] Creating Layer inception_4c/3x3_reduce
I1218 23:42:01.454020 21845 net.cpp:380] inception_4c/3x3_reduce <- inception_4b/output_inception_4b/output_0_split_1
I1218 23:42:01.454032 21845 net.cpp:338] inception_4c/3x3_reduce -> inception_4c/3x3_reduce
I1218 23:42:01.454046 21845 net.cpp:113] Setting up inception_4c/3x3_reduce
I1218 23:42:01.455763 21845 net.cpp:120] Top shape: 80 128 14 14 (2007040)
I1218 23:42:01.455788 21845 layer_factory.hpp:74] Creating layer inception_4c/relu_3x3_reduce
I1218 23:42:01.455799 21845 net.cpp:84] Creating Layer inception_4c/relu_3x3_reduce
I1218 23:42:01.455807 21845 net.cpp:380] inception_4c/relu_3x3_reduce <- inception_4c/3x3_reduce
I1218 23:42:01.455818 21845 net.cpp:327] inception_4c/relu_3x3_reduce -> inception_4c/3x3_reduce (in-place)
I1218 23:42:01.455831 21845 net.cpp:113] Setting up inception_4c/relu_3x3_reduce
I1218 23:42:01.455938 21845 net.cpp:120] Top shape: 80 128 14 14 (2007040)
I1218 23:42:01.455948 21845 layer_factory.hpp:74] Creating layer inception_4c/3x3
I1218 23:42:01.455960 21845 net.cpp:84] Creating Layer inception_4c/3x3
I1218 23:42:01.455967 21845 net.cpp:380] inception_4c/3x3 <- inception_4c/3x3_reduce
I1218 23:42:01.455981 21845 net.cpp:338] inception_4c/3x3 -> inception_4c/3x3
I1218 23:42:01.455994 21845 net.cpp:113] Setting up inception_4c/3x3
I1218 23:42:01.461640 21845 net.cpp:120] Top shape: 80 256 14 14 (4014080)
I1218 23:42:01.461681 21845 layer_factory.hpp:74] Creating layer inception_4c/relu_3x3
I1218 23:42:01.461694 21845 net.cpp:84] Creating Layer inception_4c/relu_3x3
I1218 23:42:01.461702 21845 net.cpp:380] inception_4c/relu_3x3 <- inception_4c/3x3
I1218 23:42:01.461712 21845 net.cpp:327] inception_4c/relu_3x3 -> inception_4c/3x3 (in-place)
I1218 23:42:01.461724 21845 net.cpp:113] Setting up inception_4c/relu_3x3
I1218 23:42:01.461824 21845 net.cpp:120] Top shape: 80 256 14 14 (4014080)
I1218 23:42:01.461834 21845 layer_factory.hpp:74] Creating layer inception_4c/5x5_reduce
I1218 23:42:01.461848 21845 net.cpp:84] Creating Layer inception_4c/5x5_reduce
I1218 23:42:01.461855 21845 net.cpp:380] inception_4c/5x5_reduce <- inception_4b/output_inception_4b/output_0_split_2
I1218 23:42:01.461869 21845 net.cpp:338] inception_4c/5x5_reduce -> inception_4c/5x5_reduce
I1218 23:42:01.461881 21845 net.cpp:113] Setting up inception_4c/5x5_reduce
I1218 23:42:01.462636 21845 net.cpp:120] Top shape: 80 24 14 14 (376320)
I1218 23:42:01.462658 21845 layer_factory.hpp:74] Creating layer inception_4c/relu_5x5_reduce
I1218 23:42:01.462672 21845 net.cpp:84] Creating Layer inception_4c/relu_5x5_reduce
I1218 23:42:01.462682 21845 net.cpp:380] inception_4c/relu_5x5_reduce <- inception_4c/5x5_reduce
I1218 23:42:01.462692 21845 net.cpp:327] inception_4c/relu_5x5_reduce -> inception_4c/5x5_reduce (in-place)
I1218 23:42:01.462702 21845 net.cpp:113] Setting up inception_4c/relu_5x5_reduce
I1218 23:42:01.463019 21845 net.cpp:120] Top shape: 80 24 14 14 (376320)
I1218 23:42:01.463037 21845 layer_factory.hpp:74] Creating layer inception_4c/5x5
I1218 23:42:01.463057 21845 net.cpp:84] Creating Layer inception_4c/5x5
I1218 23:42:01.463065 21845 net.cpp:380] inception_4c/5x5 <- inception_4c/5x5_reduce
I1218 23:42:01.463075 21845 net.cpp:338] inception_4c/5x5 -> inception_4c/5x5
I1218 23:42:01.463088 21845 net.cpp:113] Setting up inception_4c/5x5
I1218 23:42:01.464265 21845 net.cpp:120] Top shape: 80 64 14 14 (1003520)
I1218 23:42:01.464287 21845 layer_factory.hpp:74] Creating layer inception_4c/relu_5x5
I1218 23:42:01.464304 21845 net.cpp:84] Creating Layer inception_4c/relu_5x5
I1218 23:42:01.464323 21845 net.cpp:380] inception_4c/relu_5x5 <- inception_4c/5x5
I1218 23:42:01.464336 21845 net.cpp:327] inception_4c/relu_5x5 -> inception_4c/5x5 (in-place)
I1218 23:42:01.464347 21845 net.cpp:113] Setting up inception_4c/relu_5x5
I1218 23:42:01.464452 21845 net.cpp:120] Top shape: 80 64 14 14 (1003520)
I1218 23:42:01.464462 21845 layer_factory.hpp:74] Creating layer inception_4c/pool
I1218 23:42:01.464469 21845 layer_factory.cpp:56] CUDNN does not support padding or multiple tops. Using Caffe's own pooling layer.
I1218 23:42:01.464478 21845 net.cpp:84] Creating Layer inception_4c/pool
I1218 23:42:01.464485 21845 net.cpp:380] inception_4c/pool <- inception_4b/output_inception_4b/output_0_split_3
I1218 23:42:01.464495 21845 net.cpp:338] inception_4c/pool -> inception_4c/pool
I1218 23:42:01.464507 21845 net.cpp:113] Setting up inception_4c/pool
I1218 23:42:01.464519 21845 net.cpp:120] Top shape: 80 512 14 14 (8028160)
I1218 23:42:01.464526 21845 layer_factory.hpp:74] Creating layer inception_4c/pool_proj
I1218 23:42:01.464540 21845 net.cpp:84] Creating Layer inception_4c/pool_proj
I1218 23:42:01.464547 21845 net.cpp:380] inception_4c/pool_proj <- inception_4c/pool
I1218 23:42:01.464560 21845 net.cpp:338] inception_4c/pool_proj -> inception_4c/pool_proj
I1218 23:42:01.464571 21845 net.cpp:113] Setting up inception_4c/pool_proj
I1218 23:42:01.465663 21845 net.cpp:120] Top shape: 80 64 14 14 (1003520)
I1218 23:42:01.465687 21845 layer_factory.hpp:74] Creating layer inception_4c/relu_pool_proj
I1218 23:42:01.465699 21845 net.cpp:84] Creating Layer inception_4c/relu_pool_proj
I1218 23:42:01.465708 21845 net.cpp:380] inception_4c/relu_pool_proj <- inception_4c/pool_proj
I1218 23:42:01.465720 21845 net.cpp:327] inception_4c/relu_pool_proj -> inception_4c/pool_proj (in-place)
I1218 23:42:01.465733 21845 net.cpp:113] Setting up inception_4c/relu_pool_proj
I1218 23:42:01.465831 21845 net.cpp:120] Top shape: 80 64 14 14 (1003520)
I1218 23:42:01.465842 21845 layer_factory.hpp:74] Creating layer inception_4c/output
I1218 23:42:01.465853 21845 net.cpp:84] Creating Layer inception_4c/output
I1218 23:42:01.465860 21845 net.cpp:380] inception_4c/output <- inception_4c/1x1
I1218 23:42:01.465869 21845 net.cpp:380] inception_4c/output <- inception_4c/3x3
I1218 23:42:01.465878 21845 net.cpp:380] inception_4c/output <- inception_4c/5x5
I1218 23:42:01.465885 21845 net.cpp:380] inception_4c/output <- inception_4c/pool_proj
I1218 23:42:01.465894 21845 net.cpp:338] inception_4c/output -> inception_4c/output
I1218 23:42:01.465905 21845 net.cpp:113] Setting up inception_4c/output
I1218 23:42:01.465916 21845 net.cpp:120] Top shape: 80 512 14 14 (8028160)
I1218 23:42:01.465922 21845 layer_factory.hpp:74] Creating layer inception_4c/output_inception_4c/output_0_split
I1218 23:42:01.465931 21845 net.cpp:84] Creating Layer inception_4c/output_inception_4c/output_0_split
I1218 23:42:01.465939 21845 net.cpp:380] inception_4c/output_inception_4c/output_0_split <- inception_4c/output
I1218 23:42:01.465950 21845 net.cpp:338] inception_4c/output_inception_4c/output_0_split -> inception_4c/output_inception_4c/output_0_split_0
I1218 23:42:01.465961 21845 net.cpp:338] inception_4c/output_inception_4c/output_0_split -> inception_4c/output_inception_4c/output_0_split_1
I1218 23:42:01.465972 21845 net.cpp:338] inception_4c/output_inception_4c/output_0_split -> inception_4c/output_inception_4c/output_0_split_2
I1218 23:42:01.465982 21845 net.cpp:338] inception_4c/output_inception_4c/output_0_split -> inception_4c/output_inception_4c/output_0_split_3
I1218 23:42:01.465991 21845 net.cpp:113] Setting up inception_4c/output_inception_4c/output_0_split
I1218 23:42:01.466002 21845 net.cpp:120] Top shape: 80 512 14 14 (8028160)
I1218 23:42:01.466011 21845 net.cpp:120] Top shape: 80 512 14 14 (8028160)
I1218 23:42:01.466017 21845 net.cpp:120] Top shape: 80 512 14 14 (8028160)
I1218 23:42:01.466024 21845 net.cpp:120] Top shape: 80 512 14 14 (8028160)
I1218 23:42:01.466037 21845 layer_factory.hpp:74] Creating layer inception_4d/1x1
I1218 23:42:01.466065 21845 net.cpp:84] Creating Layer inception_4d/1x1
I1218 23:42:01.466073 21845 net.cpp:380] inception_4d/1x1 <- inception_4c/output_inception_4c/output_0_split_0
I1218 23:42:01.466085 21845 net.cpp:338] inception_4d/1x1 -> inception_4d/1x1
I1218 23:42:01.466097 21845 net.cpp:113] Setting up inception_4d/1x1
I1218 23:42:01.467578 21845 net.cpp:120] Top shape: 80 112 14 14 (1756160)
I1218 23:42:01.467602 21845 layer_factory.hpp:74] Creating layer inception_4d/relu_1x1
I1218 23:42:01.467615 21845 net.cpp:84] Creating Layer inception_4d/relu_1x1
I1218 23:42:01.467623 21845 net.cpp:380] inception_4d/relu_1x1 <- inception_4d/1x1
I1218 23:42:01.467633 21845 net.cpp:327] inception_4d/relu_1x1 -> inception_4d/1x1 (in-place)
I1218 23:42:01.467645 21845 net.cpp:113] Setting up inception_4d/relu_1x1
I1218 23:42:01.467746 21845 net.cpp:120] Top shape: 80 112 14 14 (1756160)
I1218 23:42:01.467756 21845 layer_factory.hpp:74] Creating layer inception_4d/3x3_reduce
I1218 23:42:01.467769 21845 net.cpp:84] Creating Layer inception_4d/3x3_reduce
I1218 23:42:01.467777 21845 net.cpp:380] inception_4d/3x3_reduce <- inception_4c/output_inception_4c/output_0_split_1
I1218 23:42:01.467789 21845 net.cpp:338] inception_4d/3x3_reduce -> inception_4d/3x3_reduce
I1218 23:42:01.467803 21845 net.cpp:113] Setting up inception_4d/3x3_reduce
I1218 23:42:01.469559 21845 net.cpp:120] Top shape: 80 144 14 14 (2257920)
I1218 23:42:01.469583 21845 layer_factory.hpp:74] Creating layer inception_4d/relu_3x3_reduce
I1218 23:42:01.469599 21845 net.cpp:84] Creating Layer inception_4d/relu_3x3_reduce
I1218 23:42:01.469606 21845 net.cpp:380] inception_4d/relu_3x3_reduce <- inception_4d/3x3_reduce
I1218 23:42:01.469616 21845 net.cpp:327] inception_4d/relu_3x3_reduce -> inception_4d/3x3_reduce (in-place)
I1218 23:42:01.469629 21845 net.cpp:113] Setting up inception_4d/relu_3x3_reduce
I1218 23:42:01.469952 21845 net.cpp:120] Top shape: 80 144 14 14 (2257920)
I1218 23:42:01.469969 21845 layer_factory.hpp:74] Creating layer inception_4d/3x3
I1218 23:42:01.469983 21845 net.cpp:84] Creating Layer inception_4d/3x3
I1218 23:42:01.469991 21845 net.cpp:380] inception_4d/3x3 <- inception_4d/3x3_reduce
I1218 23:42:01.470005 21845 net.cpp:338] inception_4d/3x3 -> inception_4d/3x3
I1218 23:42:01.470017 21845 net.cpp:113] Setting up inception_4d/3x3
I1218 23:42:01.476438 21845 net.cpp:120] Top shape: 80 288 14 14 (4515840)
I1218 23:42:01.476461 21845 layer_factory.hpp:74] Creating layer inception_4d/relu_3x3
I1218 23:42:01.476471 21845 net.cpp:84] Creating Layer inception_4d/relu_3x3
I1218 23:42:01.476480 21845 net.cpp:380] inception_4d/relu_3x3 <- inception_4d/3x3
I1218 23:42:01.476491 21845 net.cpp:327] inception_4d/relu_3x3 -> inception_4d/3x3 (in-place)
I1218 23:42:01.476502 21845 net.cpp:113] Setting up inception_4d/relu_3x3
I1218 23:42:01.476595 21845 net.cpp:120] Top shape: 80 288 14 14 (4515840)
I1218 23:42:01.476606 21845 layer_factory.hpp:74] Creating layer inception_4d/5x5_reduce
I1218 23:42:01.476619 21845 net.cpp:84] Creating Layer inception_4d/5x5_reduce
I1218 23:42:01.476626 21845 net.cpp:380] inception_4d/5x5_reduce <- inception_4c/output_inception_4c/output_0_split_2
I1218 23:42:01.476636 21845 net.cpp:338] inception_4d/5x5_reduce -> inception_4d/5x5_reduce
I1218 23:42:01.476649 21845 net.cpp:113] Setting up inception_4d/5x5_reduce
I1218 23:42:01.478664 21845 net.cpp:120] Top shape: 80 32 14 14 (501760)
I1218 23:42:01.478688 21845 layer_factory.hpp:74] Creating layer inception_4d/relu_5x5_reduce
I1218 23:42:01.478699 21845 net.cpp:84] Creating Layer inception_4d/relu_5x5_reduce
I1218 23:42:01.478708 21845 net.cpp:380] inception_4d/relu_5x5_reduce <- inception_4d/5x5_reduce
I1218 23:42:01.478716 21845 net.cpp:327] inception_4d/relu_5x5_reduce -> inception_4d/5x5_reduce (in-place)
I1218 23:42:01.478729 21845 net.cpp:113] Setting up inception_4d/relu_5x5_reduce
I1218 23:42:01.478824 21845 net.cpp:120] Top shape: 80 32 14 14 (501760)
I1218 23:42:01.478833 21845 layer_factory.hpp:74] Creating layer inception_4d/5x5
I1218 23:42:01.478855 21845 net.cpp:84] Creating Layer inception_4d/5x5
I1218 23:42:01.478871 21845 net.cpp:380] inception_4d/5x5 <- inception_4d/5x5_reduce
I1218 23:42:01.478881 21845 net.cpp:338] inception_4d/5x5 -> inception_4d/5x5
I1218 23:42:01.478894 21845 net.cpp:113] Setting up inception_4d/5x5
I1218 23:42:01.480219 21845 net.cpp:120] Top shape: 80 64 14 14 (1003520)
I1218 23:42:01.480240 21845 layer_factory.hpp:74] Creating layer inception_4d/relu_5x5
I1218 23:42:01.480250 21845 net.cpp:84] Creating Layer inception_4d/relu_5x5
I1218 23:42:01.480258 21845 net.cpp:380] inception_4d/relu_5x5 <- inception_4d/5x5
I1218 23:42:01.480268 21845 net.cpp:327] inception_4d/relu_5x5 -> inception_4d/5x5 (in-place)
I1218 23:42:01.480278 21845 net.cpp:113] Setting up inception_4d/relu_5x5
I1218 23:42:01.480375 21845 net.cpp:120] Top shape: 80 64 14 14 (1003520)
I1218 23:42:01.480386 21845 layer_factory.hpp:74] Creating layer inception_4d/pool
I1218 23:42:01.480392 21845 layer_factory.cpp:56] CUDNN does not support padding or multiple tops. Using Caffe's own pooling layer.
I1218 23:42:01.480401 21845 net.cpp:84] Creating Layer inception_4d/pool
I1218 23:42:01.480407 21845 net.cpp:380] inception_4d/pool <- inception_4c/output_inception_4c/output_0_split_3
I1218 23:42:01.480417 21845 net.cpp:338] inception_4d/pool -> inception_4d/pool
I1218 23:42:01.480428 21845 net.cpp:113] Setting up inception_4d/pool
I1218 23:42:01.480440 21845 net.cpp:120] Top shape: 80 512 14 14 (8028160)
I1218 23:42:01.480446 21845 layer_factory.hpp:74] Creating layer inception_4d/pool_proj
I1218 23:42:01.480459 21845 net.cpp:84] Creating Layer inception_4d/pool_proj
I1218 23:42:01.480466 21845 net.cpp:380] inception_4d/pool_proj <- inception_4d/pool
I1218 23:42:01.480480 21845 net.cpp:338] inception_4d/pool_proj -> inception_4d/pool_proj
I1218 23:42:01.480491 21845 net.cpp:113] Setting up inception_4d/pool_proj
I1218 23:42:01.481536 21845 net.cpp:120] Top shape: 80 64 14 14 (1003520)
I1218 23:42:01.481559 21845 layer_factory.hpp:74] Creating layer inception_4d/relu_pool_proj
I1218 23:42:01.481570 21845 net.cpp:84] Creating Layer inception_4d/relu_pool_proj
I1218 23:42:01.481577 21845 net.cpp:380] inception_4d/relu_pool_proj <- inception_4d/pool_proj
I1218 23:42:01.481588 21845 net.cpp:327] inception_4d/relu_pool_proj -> inception_4d/pool_proj (in-place)
I1218 23:42:01.481600 21845 net.cpp:113] Setting up inception_4d/relu_pool_proj
I1218 23:42:01.481906 21845 net.cpp:120] Top shape: 80 64 14 14 (1003520)
I1218 23:42:01.481923 21845 layer_factory.hpp:74] Creating layer inception_4d/output
I1218 23:42:01.481933 21845 net.cpp:84] Creating Layer inception_4d/output
I1218 23:42:01.481941 21845 net.cpp:380] inception_4d/output <- inception_4d/1x1
I1218 23:42:01.481950 21845 net.cpp:380] inception_4d/output <- inception_4d/3x3
I1218 23:42:01.481957 21845 net.cpp:380] inception_4d/output <- inception_4d/5x5
I1218 23:42:01.481966 21845 net.cpp:380] inception_4d/output <- inception_4d/pool_proj
I1218 23:42:01.481976 21845 net.cpp:338] inception_4d/output -> inception_4d/output
I1218 23:42:01.481987 21845 net.cpp:113] Setting up inception_4d/output
I1218 23:42:01.481998 21845 net.cpp:120] Top shape: 80 528 14 14 (8279040)
I1218 23:42:01.482004 21845 layer_factory.hpp:74] Creating layer inception_4d/output_inception_4d/output_0_split
I1218 23:42:01.482013 21845 net.cpp:84] Creating Layer inception_4d/output_inception_4d/output_0_split
I1218 23:42:01.482019 21845 net.cpp:380] inception_4d/output_inception_4d/output_0_split <- inception_4d/output
I1218 23:42:01.482028 21845 net.cpp:338] inception_4d/output_inception_4d/output_0_split -> inception_4d/output_inception_4d/output_0_split_0
I1218 23:42:01.482039 21845 net.cpp:338] inception_4d/output_inception_4d/output_0_split -> inception_4d/output_inception_4d/output_0_split_1
I1218 23:42:01.482049 21845 net.cpp:338] inception_4d/output_inception_4d/output_0_split -> inception_4d/output_inception_4d/output_0_split_2
I1218 23:42:01.482062 21845 net.cpp:338] inception_4d/output_inception_4d/output_0_split -> inception_4d/output_inception_4d/output_0_split_3
I1218 23:42:01.482087 21845 net.cpp:338] inception_4d/output_inception_4d/output_0_split -> inception_4d/output_inception_4d/output_0_split_4
I1218 23:42:01.482097 21845 net.cpp:113] Setting up inception_4d/output_inception_4d/output_0_split
I1218 23:42:01.482107 21845 net.cpp:120] Top shape: 80 528 14 14 (8279040)
I1218 23:42:01.482115 21845 net.cpp:120] Top shape: 80 528 14 14 (8279040)
I1218 23:42:01.482122 21845 net.cpp:120] Top shape: 80 528 14 14 (8279040)
I1218 23:42:01.482128 21845 net.cpp:120] Top shape: 80 528 14 14 (8279040)
I1218 23:42:01.482136 21845 net.cpp:120] Top shape: 80 528 14 14 (8279040)
I1218 23:42:01.482141 21845 layer_factory.hpp:74] Creating layer loss2/ave_pool
I1218 23:42:01.482154 21845 net.cpp:84] Creating Layer loss2/ave_pool
I1218 23:42:01.482161 21845 net.cpp:380] loss2/ave_pool <- inception_4d/output_inception_4d/output_0_split_0
I1218 23:42:01.482170 21845 net.cpp:338] loss2/ave_pool -> loss2/ave_pool
I1218 23:42:01.482180 21845 net.cpp:113] Setting up loss2/ave_pool
I1218 23:42:01.482276 21845 net.cpp:120] Top shape: 80 528 4 4 (675840)
I1218 23:42:01.482286 21845 layer_factory.hpp:74] Creating layer loss2/conv
I1218 23:42:01.482301 21845 net.cpp:84] Creating Layer loss2/conv
I1218 23:42:01.482308 21845 net.cpp:380] loss2/conv <- loss2/ave_pool
I1218 23:42:01.482318 21845 net.cpp:338] loss2/conv -> loss2/conv
I1218 23:42:01.482329 21845 net.cpp:113] Setting up loss2/conv
I1218 23:42:01.483901 21845 net.cpp:120] Top shape: 80 128 4 4 (163840)
I1218 23:42:01.483922 21845 layer_factory.hpp:74] Creating layer loss2/relu_conv
I1218 23:42:01.483934 21845 net.cpp:84] Creating Layer loss2/relu_conv
I1218 23:42:01.483942 21845 net.cpp:380] loss2/relu_conv <- loss2/conv
I1218 23:42:01.483952 21845 net.cpp:327] loss2/relu_conv -> loss2/conv (in-place)
I1218 23:42:01.483963 21845 net.cpp:113] Setting up loss2/relu_conv
I1218 23:42:01.484056 21845 net.cpp:120] Top shape: 80 128 4 4 (163840)
I1218 23:42:01.484066 21845 layer_factory.hpp:74] Creating layer loss2/fc
I1218 23:42:01.484078 21845 net.cpp:84] Creating Layer loss2/fc
I1218 23:42:01.484086 21845 net.cpp:380] loss2/fc <- loss2/conv
I1218 23:42:01.484097 21845 net.cpp:338] loss2/fc -> loss2/fc
I1218 23:42:01.484109 21845 net.cpp:113] Setting up loss2/fc
I1218 23:42:01.517653 21845 net.cpp:120] Top shape: 80 1024 (81920)
I1218 23:42:01.517706 21845 layer_factory.hpp:74] Creating layer loss2/relu_fc
I1218 23:42:01.517727 21845 net.cpp:84] Creating Layer loss2/relu_fc
I1218 23:42:01.517740 21845 net.cpp:380] loss2/relu_fc <- loss2/fc
I1218 23:42:01.517761 21845 net.cpp:327] loss2/relu_fc -> loss2/fc (in-place)
I1218 23:42:01.517776 21845 net.cpp:113] Setting up loss2/relu_fc
I1218 23:42:01.523663 21845 net.cpp:120] Top shape: 80 1024 (81920)
I1218 23:42:01.523685 21845 layer_factory.hpp:74] Creating layer loss2/drop_fc
I1218 23:42:01.523699 21845 net.cpp:84] Creating Layer loss2/drop_fc
I1218 23:42:01.523705 21845 net.cpp:380] loss2/drop_fc <- loss2/fc
I1218 23:42:01.523715 21845 net.cpp:327] loss2/drop_fc -> loss2/fc (in-place)
I1218 23:42:01.523725 21845 net.cpp:113] Setting up loss2/drop_fc
I1218 23:42:01.523749 21845 net.cpp:120] Top shape: 80 1024 (81920)
I1218 23:42:01.523761 21845 layer_factory.hpp:74] Creating layer loss2/classifier_kaggle
I1218 23:42:01.523778 21845 net.cpp:84] Creating Layer loss2/classifier_kaggle
I1218 23:42:01.523787 21845 net.cpp:380] loss2/classifier_kaggle <- loss2/fc
I1218 23:42:01.523803 21845 net.cpp:338] loss2/classifier_kaggle -> loss2/classifier_kaggle
I1218 23:42:01.523823 21845 net.cpp:113] Setting up loss2/classifier_kaggle
I1218 23:42:01.529773 21845 net.cpp:120] Top shape: 80 447 (35760)
I1218 23:42:01.529790 21845 layer_factory.hpp:74] Creating layer loss2/loss
I1218 23:42:01.529800 21845 net.cpp:84] Creating Layer loss2/loss
I1218 23:42:01.529806 21845 net.cpp:380] loss2/loss <- loss2/classifier_kaggle
I1218 23:42:01.529814 21845 net.cpp:380] loss2/loss <- label_data_1_split_1
I1218 23:42:01.529821 21845 net.cpp:338] loss2/loss -> loss2/loss1
I1218 23:42:01.529839 21845 net.cpp:113] Setting up loss2/loss
I1218 23:42:01.529858 21845 layer_factory.hpp:74] Creating layer loss2/loss
I1218 23:42:01.530060 21845 net.cpp:120] Top shape: (1)
I1218 23:42:01.530068 21845 net.cpp:122]     with loss weight 0.3
I1218 23:42:01.530083 21845 layer_factory.hpp:74] Creating layer inception_4e/1x1
I1218 23:42:01.530093 21845 net.cpp:84] Creating Layer inception_4e/1x1
I1218 23:42:01.530099 21845 net.cpp:380] inception_4e/1x1 <- inception_4d/output_inception_4d/output_0_split_1
I1218 23:42:01.530109 21845 net.cpp:338] inception_4e/1x1 -> inception_4e/1x1
I1218 23:42:01.530119 21845 net.cpp:113] Setting up inception_4e/1x1
I1218 23:42:01.532168 21845 net.cpp:120] Top shape: 80 256 14 14 (4014080)
I1218 23:42:01.532187 21845 layer_factory.hpp:74] Creating layer inception_4e/relu_1x1
I1218 23:42:01.532196 21845 net.cpp:84] Creating Layer inception_4e/relu_1x1
I1218 23:42:01.532202 21845 net.cpp:380] inception_4e/relu_1x1 <- inception_4e/1x1
I1218 23:42:01.532208 21845 net.cpp:327] inception_4e/relu_1x1 -> inception_4e/1x1 (in-place)
I1218 23:42:01.532217 21845 net.cpp:113] Setting up inception_4e/relu_1x1
I1218 23:42:01.532290 21845 net.cpp:120] Top shape: 80 256 14 14 (4014080)
I1218 23:42:01.532299 21845 layer_factory.hpp:74] Creating layer inception_4e/3x3_reduce
I1218 23:42:01.532306 21845 net.cpp:84] Creating Layer inception_4e/3x3_reduce
I1218 23:42:01.532311 21845 net.cpp:380] inception_4e/3x3_reduce <- inception_4d/output_inception_4d/output_0_split_2
I1218 23:42:01.532321 21845 net.cpp:338] inception_4e/3x3_reduce -> inception_4e/3x3_reduce
I1218 23:42:01.532330 21845 net.cpp:113] Setting up inception_4e/3x3_reduce
I1218 23:42:01.533772 21845 net.cpp:120] Top shape: 80 160 14 14 (2508800)
I1218 23:42:01.533790 21845 layer_factory.hpp:74] Creating layer inception_4e/relu_3x3_reduce
I1218 23:42:01.533798 21845 net.cpp:84] Creating Layer inception_4e/relu_3x3_reduce
I1218 23:42:01.533804 21845 net.cpp:380] inception_4e/relu_3x3_reduce <- inception_4e/3x3_reduce
I1218 23:42:01.533814 21845 net.cpp:327] inception_4e/relu_3x3_reduce -> inception_4e/3x3_reduce (in-place)
I1218 23:42:01.533823 21845 net.cpp:113] Setting up inception_4e/relu_3x3_reduce
I1218 23:42:01.533896 21845 net.cpp:120] Top shape: 80 160 14 14 (2508800)
I1218 23:42:01.533903 21845 layer_factory.hpp:74] Creating layer inception_4e/3x3
I1218 23:42:01.533915 21845 net.cpp:84] Creating Layer inception_4e/3x3
I1218 23:42:01.533920 21845 net.cpp:380] inception_4e/3x3 <- inception_4e/3x3_reduce
I1218 23:42:01.533928 21845 net.cpp:338] inception_4e/3x3 -> inception_4e/3x3
I1218 23:42:01.533938 21845 net.cpp:113] Setting up inception_4e/3x3
I1218 23:42:01.539783 21845 net.cpp:120] Top shape: 80 320 14 14 (5017600)
I1218 23:42:01.539805 21845 layer_factory.hpp:74] Creating layer inception_4e/relu_3x3
I1218 23:42:01.539815 21845 net.cpp:84] Creating Layer inception_4e/relu_3x3
I1218 23:42:01.539821 21845 net.cpp:380] inception_4e/relu_3x3 <- inception_4e/3x3
I1218 23:42:01.539829 21845 net.cpp:327] inception_4e/relu_3x3 -> inception_4e/3x3 (in-place)
I1218 23:42:01.539839 21845 net.cpp:113] Setting up inception_4e/relu_3x3
I1218 23:42:01.540098 21845 net.cpp:120] Top shape: 80 320 14 14 (5017600)
I1218 23:42:01.540110 21845 layer_factory.hpp:74] Creating layer inception_4e/5x5_reduce
I1218 23:42:01.540120 21845 net.cpp:84] Creating Layer inception_4e/5x5_reduce
I1218 23:42:01.540125 21845 net.cpp:380] inception_4e/5x5_reduce <- inception_4d/output_inception_4d/output_0_split_3
I1218 23:42:01.540139 21845 net.cpp:338] inception_4e/5x5_reduce -> inception_4e/5x5_reduce
I1218 23:42:01.540149 21845 net.cpp:113] Setting up inception_4e/5x5_reduce
I1218 23:42:01.540773 21845 net.cpp:120] Top shape: 80 32 14 14 (501760)
I1218 23:42:01.540789 21845 layer_factory.hpp:74] Creating layer inception_4e/relu_5x5_reduce
I1218 23:42:01.540799 21845 net.cpp:84] Creating Layer inception_4e/relu_5x5_reduce
I1218 23:42:01.540805 21845 net.cpp:380] inception_4e/relu_5x5_reduce <- inception_4e/5x5_reduce
I1218 23:42:01.540812 21845 net.cpp:327] inception_4e/relu_5x5_reduce -> inception_4e/5x5_reduce (in-place)
I1218 23:42:01.540834 21845 net.cpp:113] Setting up inception_4e/relu_5x5_reduce
I1218 23:42:01.540915 21845 net.cpp:120] Top shape: 80 32 14 14 (501760)
I1218 23:42:01.540922 21845 layer_factory.hpp:74] Creating layer inception_4e/5x5
I1218 23:42:01.540951 21845 net.cpp:84] Creating Layer inception_4e/5x5
I1218 23:42:01.540957 21845 net.cpp:380] inception_4e/5x5 <- inception_4e/5x5_reduce
I1218 23:42:01.540966 21845 net.cpp:338] inception_4e/5x5 -> inception_4e/5x5
I1218 23:42:01.540974 21845 net.cpp:113] Setting up inception_4e/5x5
I1218 23:42:01.542604 21845 net.cpp:120] Top shape: 80 128 14 14 (2007040)
I1218 23:42:01.542623 21845 layer_factory.hpp:74] Creating layer inception_4e/relu_5x5
I1218 23:42:01.542630 21845 net.cpp:84] Creating Layer inception_4e/relu_5x5
I1218 23:42:01.542636 21845 net.cpp:380] inception_4e/relu_5x5 <- inception_4e/5x5
I1218 23:42:01.542644 21845 net.cpp:327] inception_4e/relu_5x5 -> inception_4e/5x5 (in-place)
I1218 23:42:01.542650 21845 net.cpp:113] Setting up inception_4e/relu_5x5
I1218 23:42:01.542724 21845 net.cpp:120] Top shape: 80 128 14 14 (2007040)
I1218 23:42:01.542737 21845 layer_factory.hpp:74] Creating layer inception_4e/pool
I1218 23:42:01.542742 21845 layer_factory.cpp:56] CUDNN does not support padding or multiple tops. Using Caffe's own pooling layer.
I1218 23:42:01.542749 21845 net.cpp:84] Creating Layer inception_4e/pool
I1218 23:42:01.542754 21845 net.cpp:380] inception_4e/pool <- inception_4d/output_inception_4d/output_0_split_4
I1218 23:42:01.542762 21845 net.cpp:338] inception_4e/pool -> inception_4e/pool
I1218 23:42:01.542770 21845 net.cpp:113] Setting up inception_4e/pool
I1218 23:42:01.542780 21845 net.cpp:120] Top shape: 80 528 14 14 (8279040)
I1218 23:42:01.542785 21845 layer_factory.hpp:74] Creating layer inception_4e/pool_proj
I1218 23:42:01.542796 21845 net.cpp:84] Creating Layer inception_4e/pool_proj
I1218 23:42:01.542801 21845 net.cpp:380] inception_4e/pool_proj <- inception_4e/pool
I1218 23:42:01.542810 21845 net.cpp:338] inception_4e/pool_proj -> inception_4e/pool_proj
I1218 23:42:01.542819 21845 net.cpp:113] Setting up inception_4e/pool_proj
I1218 23:42:01.544045 21845 net.cpp:120] Top shape: 80 128 14 14 (2007040)
I1218 23:42:01.544061 21845 layer_factory.hpp:74] Creating layer inception_4e/relu_pool_proj
I1218 23:42:01.544071 21845 net.cpp:84] Creating Layer inception_4e/relu_pool_proj
I1218 23:42:01.544077 21845 net.cpp:380] inception_4e/relu_pool_proj <- inception_4e/pool_proj
I1218 23:42:01.544085 21845 net.cpp:327] inception_4e/relu_pool_proj -> inception_4e/pool_proj (in-place)
I1218 23:42:01.544092 21845 net.cpp:113] Setting up inception_4e/relu_pool_proj
I1218 23:42:01.544164 21845 net.cpp:120] Top shape: 80 128 14 14 (2007040)
I1218 23:42:01.544172 21845 layer_factory.hpp:74] Creating layer inception_4e/output
I1218 23:42:01.544183 21845 net.cpp:84] Creating Layer inception_4e/output
I1218 23:42:01.544188 21845 net.cpp:380] inception_4e/output <- inception_4e/1x1
I1218 23:42:01.544194 21845 net.cpp:380] inception_4e/output <- inception_4e/3x3
I1218 23:42:01.544200 21845 net.cpp:380] inception_4e/output <- inception_4e/5x5
I1218 23:42:01.544206 21845 net.cpp:380] inception_4e/output <- inception_4e/pool_proj
I1218 23:42:01.544212 21845 net.cpp:338] inception_4e/output -> inception_4e/output
I1218 23:42:01.544220 21845 net.cpp:113] Setting up inception_4e/output
I1218 23:42:01.544229 21845 net.cpp:120] Top shape: 80 832 14 14 (13045760)
I1218 23:42:01.544234 21845 layer_factory.hpp:74] Creating layer pool4/3x3_s2
I1218 23:42:01.544245 21845 net.cpp:84] Creating Layer pool4/3x3_s2
I1218 23:42:01.544250 21845 net.cpp:380] pool4/3x3_s2 <- inception_4e/output
I1218 23:42:01.544256 21845 net.cpp:338] pool4/3x3_s2 -> pool4/3x3_s2
I1218 23:42:01.544263 21845 net.cpp:113] Setting up pool4/3x3_s2
I1218 23:42:01.544528 21845 net.cpp:120] Top shape: 80 832 7 7 (3261440)
I1218 23:42:01.544539 21845 layer_factory.hpp:74] Creating layer pool4/3x3_s2_pool4/3x3_s2_0_split
I1218 23:42:01.544553 21845 net.cpp:84] Creating Layer pool4/3x3_s2_pool4/3x3_s2_0_split
I1218 23:42:01.544565 21845 net.cpp:380] pool4/3x3_s2_pool4/3x3_s2_0_split <- pool4/3x3_s2
I1218 23:42:01.544574 21845 net.cpp:338] pool4/3x3_s2_pool4/3x3_s2_0_split -> pool4/3x3_s2_pool4/3x3_s2_0_split_0
I1218 23:42:01.544582 21845 net.cpp:338] pool4/3x3_s2_pool4/3x3_s2_0_split -> pool4/3x3_s2_pool4/3x3_s2_0_split_1
I1218 23:42:01.544589 21845 net.cpp:338] pool4/3x3_s2_pool4/3x3_s2_0_split -> pool4/3x3_s2_pool4/3x3_s2_0_split_2
I1218 23:42:01.544600 21845 net.cpp:338] pool4/3x3_s2_pool4/3x3_s2_0_split -> pool4/3x3_s2_pool4/3x3_s2_0_split_3
I1218 23:42:01.544605 21845 net.cpp:113] Setting up pool4/3x3_s2_pool4/3x3_s2_0_split
I1218 23:42:01.544615 21845 net.cpp:120] Top shape: 80 832 7 7 (3261440)
I1218 23:42:01.544620 21845 net.cpp:120] Top shape: 80 832 7 7 (3261440)
I1218 23:42:01.544625 21845 net.cpp:120] Top shape: 80 832 7 7 (3261440)
I1218 23:42:01.544630 21845 net.cpp:120] Top shape: 80 832 7 7 (3261440)
I1218 23:42:01.544634 21845 layer_factory.hpp:74] Creating layer inception_5a/1x1
I1218 23:42:01.544644 21845 net.cpp:84] Creating Layer inception_5a/1x1
I1218 23:42:01.544649 21845 net.cpp:380] inception_5a/1x1 <- pool4/3x3_s2_pool4/3x3_s2_0_split_0
I1218 23:42:01.544657 21845 net.cpp:338] inception_5a/1x1 -> inception_5a/1x1
I1218 23:42:01.544666 21845 net.cpp:113] Setting up inception_5a/1x1
I1218 23:42:01.547593 21845 net.cpp:120] Top shape: 80 256 7 7 (1003520)
I1218 23:42:01.547611 21845 layer_factory.hpp:74] Creating layer inception_5a/relu_1x1
I1218 23:42:01.547621 21845 net.cpp:84] Creating Layer inception_5a/relu_1x1
I1218 23:42:01.547626 21845 net.cpp:380] inception_5a/relu_1x1 <- inception_5a/1x1
I1218 23:42:01.547634 21845 net.cpp:327] inception_5a/relu_1x1 -> inception_5a/1x1 (in-place)
I1218 23:42:01.547643 21845 net.cpp:113] Setting up inception_5a/relu_1x1
I1218 23:42:01.547714 21845 net.cpp:120] Top shape: 80 256 7 7 (1003520)
I1218 23:42:01.547721 21845 layer_factory.hpp:74] Creating layer inception_5a/3x3_reduce
I1218 23:42:01.547731 21845 net.cpp:84] Creating Layer inception_5a/3x3_reduce
I1218 23:42:01.547737 21845 net.cpp:380] inception_5a/3x3_reduce <- pool4/3x3_s2_pool4/3x3_s2_0_split_1
I1218 23:42:01.547745 21845 net.cpp:338] inception_5a/3x3_reduce -> inception_5a/3x3_reduce
I1218 23:42:01.547755 21845 net.cpp:113] Setting up inception_5a/3x3_reduce
I1218 23:42:01.549752 21845 net.cpp:120] Top shape: 80 160 7 7 (627200)
I1218 23:42:01.549769 21845 layer_factory.hpp:74] Creating layer inception_5a/relu_3x3_reduce
I1218 23:42:01.549777 21845 net.cpp:84] Creating Layer inception_5a/relu_3x3_reduce
I1218 23:42:01.549783 21845 net.cpp:380] inception_5a/relu_3x3_reduce <- inception_5a/3x3_reduce
I1218 23:42:01.549793 21845 net.cpp:327] inception_5a/relu_3x3_reduce -> inception_5a/3x3_reduce (in-place)
I1218 23:42:01.549801 21845 net.cpp:113] Setting up inception_5a/relu_3x3_reduce
I1218 23:42:01.549873 21845 net.cpp:120] Top shape: 80 160 7 7 (627200)
I1218 23:42:01.549880 21845 layer_factory.hpp:74] Creating layer inception_5a/3x3
I1218 23:42:01.549891 21845 net.cpp:84] Creating Layer inception_5a/3x3
I1218 23:42:01.549896 21845 net.cpp:380] inception_5a/3x3 <- inception_5a/3x3_reduce
I1218 23:42:01.549907 21845 net.cpp:338] inception_5a/3x3 -> inception_5a/3x3
I1218 23:42:01.549916 21845 net.cpp:113] Setting up inception_5a/3x3
I1218 23:42:01.555739 21845 net.cpp:120] Top shape: 80 320 7 7 (1254400)
I1218 23:42:01.555757 21845 layer_factory.hpp:74] Creating layer inception_5a/relu_3x3
I1218 23:42:01.555764 21845 net.cpp:84] Creating Layer inception_5a/relu_3x3
I1218 23:42:01.555770 21845 net.cpp:380] inception_5a/relu_3x3 <- inception_5a/3x3
I1218 23:42:01.555779 21845 net.cpp:327] inception_5a/relu_3x3 -> inception_5a/3x3 (in-place)
I1218 23:42:01.555788 21845 net.cpp:113] Setting up inception_5a/relu_3x3
I1218 23:42:01.555862 21845 net.cpp:120] Top shape: 80 320 7 7 (1254400)
I1218 23:42:01.555869 21845 layer_factory.hpp:74] Creating layer inception_5a/5x5_reduce
I1218 23:42:01.555879 21845 net.cpp:84] Creating Layer inception_5a/5x5_reduce
I1218 23:42:01.555891 21845 net.cpp:380] inception_5a/5x5_reduce <- pool4/3x3_s2_pool4/3x3_s2_0_split_2
I1218 23:42:01.555908 21845 net.cpp:338] inception_5a/5x5_reduce -> inception_5a/5x5_reduce
I1218 23:42:01.555918 21845 net.cpp:113] Setting up inception_5a/5x5_reduce
I1218 23:42:01.556656 21845 net.cpp:120] Top shape: 80 32 7 7 (125440)
I1218 23:42:01.556674 21845 layer_factory.hpp:74] Creating layer inception_5a/relu_5x5_reduce
I1218 23:42:01.556681 21845 net.cpp:84] Creating Layer inception_5a/relu_5x5_reduce
I1218 23:42:01.556687 21845 net.cpp:380] inception_5a/relu_5x5_reduce <- inception_5a/5x5_reduce
I1218 23:42:01.556696 21845 net.cpp:327] inception_5a/relu_5x5_reduce -> inception_5a/5x5_reduce (in-place)
I1218 23:42:01.556704 21845 net.cpp:113] Setting up inception_5a/relu_5x5_reduce
I1218 23:42:01.556960 21845 net.cpp:120] Top shape: 80 32 7 7 (125440)
I1218 23:42:01.556974 21845 layer_factory.hpp:74] Creating layer inception_5a/5x5
I1218 23:42:01.556984 21845 net.cpp:84] Creating Layer inception_5a/5x5
I1218 23:42:01.556991 21845 net.cpp:380] inception_5a/5x5 <- inception_5a/5x5_reduce
I1218 23:42:01.556999 21845 net.cpp:338] inception_5a/5x5 -> inception_5a/5x5
I1218 23:42:01.557009 21845 net.cpp:113] Setting up inception_5a/5x5
I1218 23:42:01.558673 21845 net.cpp:120] Top shape: 80 128 7 7 (501760)
I1218 23:42:01.558691 21845 layer_factory.hpp:74] Creating layer inception_5a/relu_5x5
I1218 23:42:01.558701 21845 net.cpp:84] Creating Layer inception_5a/relu_5x5
I1218 23:42:01.558707 21845 net.cpp:380] inception_5a/relu_5x5 <- inception_5a/5x5
I1218 23:42:01.558714 21845 net.cpp:327] inception_5a/relu_5x5 -> inception_5a/5x5 (in-place)
I1218 23:42:01.558722 21845 net.cpp:113] Setting up inception_5a/relu_5x5
I1218 23:42:01.558800 21845 net.cpp:120] Top shape: 80 128 7 7 (501760)
I1218 23:42:01.558809 21845 layer_factory.hpp:74] Creating layer inception_5a/pool
I1218 23:42:01.558814 21845 layer_factory.cpp:56] CUDNN does not support padding or multiple tops. Using Caffe's own pooling layer.
I1218 23:42:01.558820 21845 net.cpp:84] Creating Layer inception_5a/pool
I1218 23:42:01.558826 21845 net.cpp:380] inception_5a/pool <- pool4/3x3_s2_pool4/3x3_s2_0_split_3
I1218 23:42:01.558835 21845 net.cpp:338] inception_5a/pool -> inception_5a/pool
I1218 23:42:01.558843 21845 net.cpp:113] Setting up inception_5a/pool
I1218 23:42:01.558852 21845 net.cpp:120] Top shape: 80 832 7 7 (3261440)
I1218 23:42:01.558857 21845 layer_factory.hpp:74] Creating layer inception_5a/pool_proj
I1218 23:42:01.558868 21845 net.cpp:84] Creating Layer inception_5a/pool_proj
I1218 23:42:01.558873 21845 net.cpp:380] inception_5a/pool_proj <- inception_5a/pool
I1218 23:42:01.558881 21845 net.cpp:338] inception_5a/pool_proj -> inception_5a/pool_proj
I1218 23:42:01.558889 21845 net.cpp:113] Setting up inception_5a/pool_proj
I1218 23:42:01.560559 21845 net.cpp:120] Top shape: 80 128 7 7 (501760)
I1218 23:42:01.560575 21845 layer_factory.hpp:74] Creating layer inception_5a/relu_pool_proj
I1218 23:42:01.560585 21845 net.cpp:84] Creating Layer inception_5a/relu_pool_proj
I1218 23:42:01.560591 21845 net.cpp:380] inception_5a/relu_pool_proj <- inception_5a/pool_proj
I1218 23:42:01.560598 21845 net.cpp:327] inception_5a/relu_pool_proj -> inception_5a/pool_proj (in-place)
I1218 23:42:01.560606 21845 net.cpp:113] Setting up inception_5a/relu_pool_proj
I1218 23:42:01.560681 21845 net.cpp:120] Top shape: 80 128 7 7 (501760)
I1218 23:42:01.560688 21845 layer_factory.hpp:74] Creating layer inception_5a/output
I1218 23:42:01.560698 21845 net.cpp:84] Creating Layer inception_5a/output
I1218 23:42:01.560703 21845 net.cpp:380] inception_5a/output <- inception_5a/1x1
I1218 23:42:01.560709 21845 net.cpp:380] inception_5a/output <- inception_5a/3x3
I1218 23:42:01.560715 21845 net.cpp:380] inception_5a/output <- inception_5a/5x5
I1218 23:42:01.560720 21845 net.cpp:380] inception_5a/output <- inception_5a/pool_proj
I1218 23:42:01.560727 21845 net.cpp:338] inception_5a/output -> inception_5a/output
I1218 23:42:01.560734 21845 net.cpp:113] Setting up inception_5a/output
I1218 23:42:01.560750 21845 net.cpp:120] Top shape: 80 832 7 7 (3261440)
I1218 23:42:01.560765 21845 layer_factory.hpp:74] Creating layer inception_5a/output_inception_5a/output_0_split
I1218 23:42:01.560771 21845 net.cpp:84] Creating Layer inception_5a/output_inception_5a/output_0_split
I1218 23:42:01.560775 21845 net.cpp:380] inception_5a/output_inception_5a/output_0_split <- inception_5a/output
I1218 23:42:01.560782 21845 net.cpp:338] inception_5a/output_inception_5a/output_0_split -> inception_5a/output_inception_5a/output_0_split_0
I1218 23:42:01.560791 21845 net.cpp:338] inception_5a/output_inception_5a/output_0_split -> inception_5a/output_inception_5a/output_0_split_1
I1218 23:42:01.560799 21845 net.cpp:338] inception_5a/output_inception_5a/output_0_split -> inception_5a/output_inception_5a/output_0_split_2
I1218 23:42:01.560806 21845 net.cpp:338] inception_5a/output_inception_5a/output_0_split -> inception_5a/output_inception_5a/output_0_split_3
I1218 23:42:01.560813 21845 net.cpp:113] Setting up inception_5a/output_inception_5a/output_0_split
I1218 23:42:01.560822 21845 net.cpp:120] Top shape: 80 832 7 7 (3261440)
I1218 23:42:01.560827 21845 net.cpp:120] Top shape: 80 832 7 7 (3261440)
I1218 23:42:01.560832 21845 net.cpp:120] Top shape: 80 832 7 7 (3261440)
I1218 23:42:01.560837 21845 net.cpp:120] Top shape: 80 832 7 7 (3261440)
I1218 23:42:01.560842 21845 layer_factory.hpp:74] Creating layer inception_5b/1x1
I1218 23:42:01.560852 21845 net.cpp:84] Creating Layer inception_5b/1x1
I1218 23:42:01.560856 21845 net.cpp:380] inception_5b/1x1 <- inception_5a/output_inception_5a/output_0_split_0
I1218 23:42:01.560865 21845 net.cpp:338] inception_5b/1x1 -> inception_5b/1x1
I1218 23:42:01.560873 21845 net.cpp:113] Setting up inception_5b/1x1
I1218 23:42:01.565023 21845 net.cpp:120] Top shape: 80 384 7 7 (1505280)
I1218 23:42:01.565042 21845 layer_factory.hpp:74] Creating layer inception_5b/relu_1x1
I1218 23:42:01.565049 21845 net.cpp:84] Creating Layer inception_5b/relu_1x1
I1218 23:42:01.565062 21845 net.cpp:380] inception_5b/relu_1x1 <- inception_5b/1x1
I1218 23:42:01.565073 21845 net.cpp:327] inception_5b/relu_1x1 -> inception_5b/1x1 (in-place)
I1218 23:42:01.565080 21845 net.cpp:113] Setting up inception_5b/relu_1x1
I1218 23:42:01.565337 21845 net.cpp:120] Top shape: 80 384 7 7 (1505280)
I1218 23:42:01.565349 21845 layer_factory.hpp:74] Creating layer inception_5b/3x3_reduce
I1218 23:42:01.565358 21845 net.cpp:84] Creating Layer inception_5b/3x3_reduce
I1218 23:42:01.565363 21845 net.cpp:380] inception_5b/3x3_reduce <- inception_5a/output_inception_5a/output_0_split_1
I1218 23:42:01.565373 21845 net.cpp:338] inception_5b/3x3_reduce -> inception_5b/3x3_reduce
I1218 23:42:01.565383 21845 net.cpp:113] Setting up inception_5b/3x3_reduce
I1218 23:42:01.567677 21845 net.cpp:120] Top shape: 80 192 7 7 (752640)
I1218 23:42:01.567693 21845 layer_factory.hpp:74] Creating layer inception_5b/relu_3x3_reduce
I1218 23:42:01.567701 21845 net.cpp:84] Creating Layer inception_5b/relu_3x3_reduce
I1218 23:42:01.567708 21845 net.cpp:380] inception_5b/relu_3x3_reduce <- inception_5b/3x3_reduce
I1218 23:42:01.567714 21845 net.cpp:327] inception_5b/relu_3x3_reduce -> inception_5b/3x3_reduce (in-place)
I1218 23:42:01.567723 21845 net.cpp:113] Setting up inception_5b/relu_3x3_reduce
I1218 23:42:01.567796 21845 net.cpp:120] Top shape: 80 192 7 7 (752640)
I1218 23:42:01.567803 21845 layer_factory.hpp:74] Creating layer inception_5b/3x3
I1218 23:42:01.567813 21845 net.cpp:84] Creating Layer inception_5b/3x3
I1218 23:42:01.567819 21845 net.cpp:380] inception_5b/3x3 <- inception_5b/3x3_reduce
I1218 23:42:01.567827 21845 net.cpp:338] inception_5b/3x3 -> inception_5b/3x3
I1218 23:42:01.567858 21845 net.cpp:113] Setting up inception_5b/3x3
I1218 23:42:01.579305 21845 net.cpp:120] Top shape: 80 384 7 7 (1505280)
I1218 23:42:01.579326 21845 layer_factory.hpp:74] Creating layer inception_5b/relu_3x3
I1218 23:42:01.579335 21845 net.cpp:84] Creating Layer inception_5b/relu_3x3
I1218 23:42:01.579342 21845 net.cpp:380] inception_5b/relu_3x3 <- inception_5b/3x3
I1218 23:42:01.579357 21845 net.cpp:327] inception_5b/relu_3x3 -> inception_5b/3x3 (in-place)
I1218 23:42:01.579375 21845 net.cpp:113] Setting up inception_5b/relu_3x3
I1218 23:42:01.579450 21845 net.cpp:120] Top shape: 80 384 7 7 (1505280)
I1218 23:42:01.579458 21845 layer_factory.hpp:74] Creating layer inception_5b/5x5_reduce
I1218 23:42:01.579469 21845 net.cpp:84] Creating Layer inception_5b/5x5_reduce
I1218 23:42:01.579475 21845 net.cpp:380] inception_5b/5x5_reduce <- inception_5a/output_inception_5a/output_0_split_2
I1218 23:42:01.579483 21845 net.cpp:338] inception_5b/5x5_reduce -> inception_5b/5x5_reduce
I1218 23:42:01.579493 21845 net.cpp:113] Setting up inception_5b/5x5_reduce
I1218 23:42:01.580397 21845 net.cpp:120] Top shape: 80 48 7 7 (188160)
I1218 23:42:01.580415 21845 layer_factory.hpp:74] Creating layer inception_5b/relu_5x5_reduce
I1218 23:42:01.580425 21845 net.cpp:84] Creating Layer inception_5b/relu_5x5_reduce
I1218 23:42:01.580431 21845 net.cpp:380] inception_5b/relu_5x5_reduce <- inception_5b/5x5_reduce
I1218 23:42:01.580438 21845 net.cpp:327] inception_5b/relu_5x5_reduce -> inception_5b/5x5_reduce (in-place)
I1218 23:42:01.580446 21845 net.cpp:113] Setting up inception_5b/relu_5x5_reduce
I1218 23:42:01.580523 21845 net.cpp:120] Top shape: 80 48 7 7 (188160)
I1218 23:42:01.580531 21845 layer_factory.hpp:74] Creating layer inception_5b/5x5
I1218 23:42:01.580543 21845 net.cpp:84] Creating Layer inception_5b/5x5
I1218 23:42:01.580548 21845 net.cpp:380] inception_5b/5x5 <- inception_5b/5x5_reduce
I1218 23:42:01.580555 21845 net.cpp:338] inception_5b/5x5 -> inception_5b/5x5
I1218 23:42:01.580564 21845 net.cpp:113] Setting up inception_5b/5x5
I1218 23:42:01.582798 21845 net.cpp:120] Top shape: 80 128 7 7 (501760)
I1218 23:42:01.582816 21845 layer_factory.hpp:74] Creating layer inception_5b/relu_5x5
I1218 23:42:01.582826 21845 net.cpp:84] Creating Layer inception_5b/relu_5x5
I1218 23:42:01.582833 21845 net.cpp:380] inception_5b/relu_5x5 <- inception_5b/5x5
I1218 23:42:01.582840 21845 net.cpp:327] inception_5b/relu_5x5 -> inception_5b/5x5 (in-place)
I1218 23:42:01.582849 21845 net.cpp:113] Setting up inception_5b/relu_5x5
I1218 23:42:01.583114 21845 net.cpp:120] Top shape: 80 128 7 7 (501760)
I1218 23:42:01.583127 21845 layer_factory.hpp:74] Creating layer inception_5b/pool
I1218 23:42:01.583132 21845 layer_factory.cpp:56] CUDNN does not support padding or multiple tops. Using Caffe's own pooling layer.
I1218 23:42:01.583142 21845 net.cpp:84] Creating Layer inception_5b/pool
I1218 23:42:01.583148 21845 net.cpp:380] inception_5b/pool <- inception_5a/output_inception_5a/output_0_split_3
I1218 23:42:01.583154 21845 net.cpp:338] inception_5b/pool -> inception_5b/pool
I1218 23:42:01.583163 21845 net.cpp:113] Setting up inception_5b/pool
I1218 23:42:01.583175 21845 net.cpp:120] Top shape: 80 832 7 7 (3261440)
I1218 23:42:01.583180 21845 layer_factory.hpp:74] Creating layer inception_5b/pool_proj
I1218 23:42:01.583189 21845 net.cpp:84] Creating Layer inception_5b/pool_proj
I1218 23:42:01.583194 21845 net.cpp:380] inception_5b/pool_proj <- inception_5b/pool
I1218 23:42:01.583204 21845 net.cpp:338] inception_5b/pool_proj -> inception_5b/pool_proj
I1218 23:42:01.583212 21845 net.cpp:113] Setting up inception_5b/pool_proj
I1218 23:42:01.584878 21845 net.cpp:120] Top shape: 80 128 7 7 (501760)
I1218 23:42:01.584894 21845 layer_factory.hpp:74] Creating layer inception_5b/relu_pool_proj
I1218 23:42:01.584904 21845 net.cpp:84] Creating Layer inception_5b/relu_pool_proj
I1218 23:42:01.584910 21845 net.cpp:380] inception_5b/relu_pool_proj <- inception_5b/pool_proj
I1218 23:42:01.584918 21845 net.cpp:327] inception_5b/relu_pool_proj -> inception_5b/pool_proj (in-place)
I1218 23:42:01.584926 21845 net.cpp:113] Setting up inception_5b/relu_pool_proj
I1218 23:42:01.584995 21845 net.cpp:120] Top shape: 80 128 7 7 (501760)
I1218 23:42:01.585003 21845 layer_factory.hpp:74] Creating layer inception_5b/output
I1218 23:42:01.585013 21845 net.cpp:84] Creating Layer inception_5b/output
I1218 23:42:01.585023 21845 net.cpp:380] inception_5b/output <- inception_5b/1x1
I1218 23:42:01.585037 21845 net.cpp:380] inception_5b/output <- inception_5b/3x3
I1218 23:42:01.585043 21845 net.cpp:380] inception_5b/output <- inception_5b/5x5
I1218 23:42:01.585049 21845 net.cpp:380] inception_5b/output <- inception_5b/pool_proj
I1218 23:42:01.585063 21845 net.cpp:338] inception_5b/output -> inception_5b/output
I1218 23:42:01.585073 21845 net.cpp:113] Setting up inception_5b/output
I1218 23:42:01.585083 21845 net.cpp:120] Top shape: 80 1024 7 7 (4014080)
I1218 23:42:01.585088 21845 layer_factory.hpp:74] Creating layer pool5/7x7_s1
I1218 23:42:01.585094 21845 net.cpp:84] Creating Layer pool5/7x7_s1
I1218 23:42:01.585099 21845 net.cpp:380] pool5/7x7_s1 <- inception_5b/output
I1218 23:42:01.585113 21845 net.cpp:338] pool5/7x7_s1 -> pool5/7x7_s1
I1218 23:42:01.585120 21845 net.cpp:113] Setting up pool5/7x7_s1
I1218 23:42:01.585197 21845 net.cpp:120] Top shape: 80 1024 1 1 (81920)
I1218 23:42:01.585206 21845 layer_factory.hpp:74] Creating layer pool5/drop_7x7_s1
I1218 23:42:01.585212 21845 net.cpp:84] Creating Layer pool5/drop_7x7_s1
I1218 23:42:01.585217 21845 net.cpp:380] pool5/drop_7x7_s1 <- pool5/7x7_s1
I1218 23:42:01.585224 21845 net.cpp:327] pool5/drop_7x7_s1 -> pool5/7x7_s1 (in-place)
I1218 23:42:01.585232 21845 net.cpp:113] Setting up pool5/drop_7x7_s1
I1218 23:42:01.585239 21845 net.cpp:120] Top shape: 80 1024 1 1 (81920)
I1218 23:42:01.585244 21845 layer_factory.hpp:74] Creating layer loss3/classifier_kaggle
I1218 23:42:01.585254 21845 net.cpp:84] Creating Layer loss3/classifier_kaggle
I1218 23:42:01.585259 21845 net.cpp:380] loss3/classifier_kaggle <- pool5/7x7_s1
I1218 23:42:01.585268 21845 net.cpp:338] loss3/classifier_kaggle -> loss3/classifier_kaggle
I1218 23:42:01.585278 21845 net.cpp:113] Setting up loss3/classifier_kaggle
I1218 23:42:01.591811 21845 net.cpp:120] Top shape: 80 447 (35760)
I1218 23:42:01.591836 21845 layer_factory.hpp:74] Creating layer loss3/loss3
I1218 23:42:01.591850 21845 net.cpp:84] Creating Layer loss3/loss3
I1218 23:42:01.591859 21845 net.cpp:380] loss3/loss3 <- loss3/classifier_kaggle
I1218 23:42:01.591869 21845 net.cpp:380] loss3/loss3 <- label_data_1_split_2
I1218 23:42:01.591883 21845 net.cpp:338] loss3/loss3 -> loss3/loss3
I1218 23:42:01.591897 21845 net.cpp:113] Setting up loss3/loss3
…
I1218 23:42:01.597756 21845 net.cpp:257] The NetState phase (1) differed from the phase (0) specified by a rule in layer data
I1218 23:42:01.599479 21845 net.cpp:42] Initializing net from parameters: 
name: "MYNET"
state {
  phase: TEST
}
layer {
  name: "data"
  type: "ImageData"
  top: "data"
  top: "label"
  include {
    phase: TEST
  }
  transform_param {
    mirror: false
    crop_size: 224
    mean_value: 129
    mean_value: 129
    mean_value: 129
  }
  image_data_param {
    source: "/home/coldmanck/kaggle/label_val_full.txt"
    batch_size: 50
    shuffle: true
  }
}
layer {
  name: "conv1/7x7_s2"
  type: "Convolution"
  bottom: "data"
  top: "conv1/7x7_s2"
  param {
    lr_mult: 1
    decay_mult: 1
  }
  param {
    lr_mult: 2
    decay_mult: 0
  }
  convolution_param {
    num_output: 64
    pad: 3
    kernel_size: 7
    stride: 2
    weight_filler {
      type: "xavier"
    }
    bias_filler {
      type: "constant"
      value: 0.2
    }
  }
}
layer {
  name: "conv1/relu_7x7"
  type: "ReLU"
  bottom: "conv1/7x7_s2"
  top: "conv1/7x7_s2"
}
layer {
  name: "pool1/3x3_s2"
  type: "Pooling"
  bottom: "conv1/7x7_s2"
  top: "pool1/3x3_s2"
  pooling_param {
    pool: MAX
    kernel_size: 3
    stride: 2
  }
}
layer {
  name: "pool1/norm1"
  type: "LRN"
  bottom: "pool1/3x3_s2"
  top: "pool1/norm1"
  lrn_param {
    local_size: 5
    alpha: 0.0001
    beta: 0.75
  }
}
layer {
  name: "conv2/3x3_reduce"
  type: "Convolution"
  bottom: "pool1/norm1"
  top: "conv2/3x3_reduce"
  param {
    lr_mult: 1
    decay_mult: 1
  }
  param {
    lr_mult: 2
    decay_mult: 0
  }
  convolution_param {
    num_output: 64
    kernel_size: 1
    weight_filler {
      type: "xavier"
    }
    bias_filler {
      type: "constant"
      value: 0.2
    }
  }
}
layer {
  name: "conv2/relu_3x3_reduce"
  type: "ReLU"
  bottom: "conv2/3x3_reduce"
  top: "conv2/3x3_reduce"
}
layer {
  name: "conv2/3x3"
  type: "Convolution"
  bottom: "conv2/3x3_reduce"
  top: "conv2/3x3"
  param {
    lr_mult: 1
    decay_mult: 1
  }
  param {
    lr_mult: 2
    decay_mult: 0
  }
  convolution_param {
    num_output: 192
    pad: 1
    kernel_size: 3
    weight_filler {
      type: "xavier"
    }
    bias_filler {
      type: "constant"
      value: 0.2
    }
  }
}
layer {
  name: "conv2/relu_3x3"
  type: "ReLU"
  bottom: "conv2/3x3"
  top: "conv2/3x3"
}
layer {
  name: "conv2/norm2"
  type: "LRN"
  bottom: "conv2/3x3"
  top: "conv2/norm2"
  lrn_param {
    local_size: 5
    alpha: 0.0001
    beta: 0.75
  }
}
layer {
  name: "pool2/3x3_s2"
  type: "Pooling"
  bottom: "conv2/norm2"
  top: "pool2/3x3_s2"
  pooling_param {
    pool: MAX
    kernel_size: 3
    stride: 2
  }
}
layer {
  name: "inception_3a/1x1"
  type: "Convolution"
  bottom: "pool2/3x3_s2"
  top: "inception_3a/1x1"
  param {
    lr_mult: 1
    decay_mult: 1
  }
  param {
    lr_mult: 2
    decay_mult: 0
  }
  convolution_param {
    num_output: 64
    kernel_size: 1
    weight_filler {
      type: "xavier"
    }
    bias_filler {
      type: "constant"
      value: 0.2
    }
  }
}
layer {
  name: "inception_3a/relu_1x1"
  type: "ReLU"
  bottom: "inception_3a/1x1"
  top: "inception_3a/1x1"
}
layer {
  name: "inception_3a/3x3_reduce"
  type: "Convolution"
  bottom: "pool2/3x3_s2"
  top: "inception_3a/3x3_reduce"
  param {
    lr_mult: 1
    decay_mult: 1
  }
  param {
    lr_mult: 2
    decay_mult: 0
  }
  convolution_param {
    num_output: 96
    kernel_size: 1
    weight_filler {
      type: "xavier"
    }
    bias_filler {
      type: "constant"
      value: 0.2
    }
  }
}
layer {
  name: "inception_3a/relu_3x3_reduce"
  type: "ReLU"
  bottom: "inception_3a/3x3_reduce"
  top: "inception_3a/3x3_reduce"
}
layer {
  name: "inception_3a/3x3"
  type: "Convolution"
  bottom: "inception_3a/3x3_reduce"
  top: "inception_3a/3x3"
  param {
    lr_mult: 1
    decay_mult: 1
  }
  param {
    lr_mult: 2
    decay_mult: 0
  }
  convolution_param {
    num_output: 128
    pad: 1
    kernel_size: 3
    weight_filler {
      type: "xavier"
    }
    bias_filler {
      type: "constant"
      value: 0.2
    }
  }
}
layer {
  name: "inception_3a/relu_3x3"
  type: "ReLU"
  bottom: "inception_3a/3x3"
  top: "inception_3a/3x3"
}
layer {
  name: "inception_3a/5x5_reduce"
  type: "Convolution"
  bottom: "pool2/3x3_s2"
  top: "inception_3a/5x5_reduce"
  param {
    lr_mult: 1
    decay_mult: 1
  }
  param {
    lr_mult: 2
    decay_mult: 0
  }
  convolution_param {
    num_output: 16
    kernel_size: 1
    weight_filler {
      type: "xavier"
    }
    bias_filler {
      type: "constant"
      value: 0.2
    }
  }
}
layer {
  name: "inception_3a/relu_5x5_reduce"
  type: "ReLU"
  bottom: "inception_3a/5x5_reduce"
  top: "inception_3a/5x5_reduce"
}
layer {
  name: "inception_3a/5x5"
  type: "Convolution"
  bottom: "inception_3a/5x5_reduce"
  top: "inception_3a/5x5"
  param {
    lr_mult: 1
    decay_mult: 1
  }
  param {
    lr_mult: 2
    decay_mult: 0
  }
  convolution_param {
    num_output: 32
    pad: 2
    kernel_size: 5
    weight_filler {
      type: "xavier"
    }
    bias_filler {
      type: "constant"
      value: 0.2
    }
  }
}
layer {
  name: "inception_3a/relu_5x5"
  type: "ReLU"
  bottom: "inception_3a/5x5"
  top: "inception_3a/5x5"
}
layer {
  name: "inception_3a/pool"
  type: "Pooling"
  bottom: "pool2/3x3_s2"
  top: "inception_3a/pool"
  pooling_param {
    pool: MAX
    kernel_size: 3
    stride: 1
    pad: 1
  }
}
layer {
  name: "inception_3a/pool_proj"
  type: "Convolution"
  bottom: "inception_3a/pool"
  top: "inception_3a/pool_proj"
  param {
    lr_mult: 1
    decay_mult: 1
  }
  param {
    lr_mult: 2
    decay_mult: 0
  }
  convolution_param {
    num_output: 32
    kernel_size: 1
    weight_filler {
      type: "xavier"
    }
    bias_filler {
      type: "constant"
      value: 0.2
    }
  }
}
layer {
  name: "inception_3a/relu_pool_proj"
  type: "ReLU"
  bottom: "inception_3a/pool_proj"
  top: "inception_3a/pool_proj"
}
layer {
  name: "inception_3a/output"
  type: "Concat"
  bottom: "inception_3a/1x1"
  bottom: "inception_3a/3x3"
  bottom: "inception_3a/5x5"
  bottom: "inception_3a/pool_proj"
  top: "inception_3a/output"
}
layer {
  name: "inception_3b/1x1"
  type: "Convolution"
  bottom: "inception_3a/output"
  top: "inception_3b/1x1"
  param {
    lr_mult: 1
    decay_mult: 1
  }
  param {
    lr_mult: 2
    decay_mult: 0
  }
  convolution_param {
    num_output: 128
    kernel_size: 1
    weight_filler {
      type: "xavier"
    }
    bias_filler {
      type: "constant"
      value: 0.2
    }
  }
}
layer {
  name: "inception_3b/relu_1x1"
  type: "ReLU"
  bottom: "inception_3b/1x1"
  top: "inception_3b/1x1"
}
layer {
  name: "inception_3b/3x3_reduce"
  type: "Convolution"
  bottom: "inception_3a/output"
  top: "inception_3b/3x3_reduce"
  param {
    lr_mult: 1
    decay_mult: 1
  }
  param {
    lr_mult: 2
    decay_mult: 0
  }
  convolution_param {
    num_output: 128
    kernel_size: 1
    weight_filler {
      type: "xavier"
    }
    bias_filler {
      type: "constant"
      value: 0.2
    }
  }
}
layer {
  name: "inception_3b/relu_3x3_reduce"
  type: "ReLU"
  bottom: "inception_3b/3x3_reduce"
  top: "inception_3b/3x3_reduce"
}
layer {
  name: "inception_3b/3x3"
  type: "Convolution"
  bottom: "inception_3b/3x3_reduce"
  top: "inception_3b/3x3"
  param {
    lr_mult: 1
    decay_mult: 1
  }
  param {
    lr_mult: 2
    decay_mult: 0
  }
  convolution_param {
    num_output: 192
    pad: 1
    kernel_size: 3
    weight_filler {
      type: "xavier"
    }
    bias_filler {
      type: "constant"
      value: 0.2
    }
  }
}
layer {
  name: "inception_3b/relu_3x3"
  type: "ReLU"
  bottom: "inception_3b/3x3"
  top: "inception_3b/3x3"
}
layer {
  name: "inception_3b/5x5_reduce"
  type: "Convolution"
  bottom: "inception_3a/output"
  top: "inception_3b/5x5_reduce"
  param {
    lr_mult: 1
    decay_mult: 1
  }
  param {
    lr_mult: 2
    decay_mult: 0
  }
  convolution_param {
    num_output: 32
    kernel_size: 1
    weight_filler {
      type: "xavier"
    }
    bias_filler {
      type: "constant"
      value: 0.2
    }
  }
}
layer {
  name: "inception_3b/relu_5x5_reduce"
  type: "ReLU"
  bottom: "inception_3b/5x5_reduce"
  top: "inception_3b/5x5_reduce"
}
layer {
  name: "inception_3b/5x5"
  type: "Convolution"
  bottom: "inception_3b/5x5_reduce"
  top: "inception_3b/5x5"
  param {
    lr_mult: 1
    decay_mult: 1
  }
  param {
    lr_mult: 2
    decay_mult: 0
  }
  convolution_param {
    num_output: 96
    pad: 2
    kernel_size: 5
    weight_filler {
      type: "xavier"
    }
    bias_filler {
      type: "constant"
      value: 0.2
    }
  }
}
layer {
  name: "inception_3b/relu_5x5"
  type: "ReLU"
  bottom: "inception_3b/5x5"
  top: "inception_3b/5x5"
}
layer {
  name: "inception_3b/pool"
  type: "Pooling"
  bottom: "inception_3a/output"
  top: "inception_3b/pool"
  pooling_param {
    pool: MAX
    kernel_size: 3
    stride: 1
    pad: 1
  }
}
layer {
  name: "inception_3b/pool_proj"
  type: "Convolution"
  bottom: "inception_3b/pool"
  top: "inception_3b/pool_proj"
  param {
    lr_mult: 1
    decay_mult: 1
  }
  param {
    lr_mult: 2
    decay_mult: 0
  }
  convolution_param {
    num_output: 64
    kernel_size: 1
    weight_filler {
      type: "xavier"
    }
    bias_filler {
      type: "constant"
      value: 0.2
    }
  }
}
layer {
  name: "inception_3b/relu_pool_proj"
  type: "ReLU"
  bottom: "inception_3b/pool_proj"
  top: "inception_3b/pool_proj"
}
layer {
  name: "inception_3b/output"
  type: "Concat"
  bottom: "inception_3b/1x1"
  bottom: "inception_3b/3x3"
  bottom: "inception_3b/5x5"
  bottom: "inception_3b/pool_proj"
  top: "inception_3b/output"
}
layer {
  name: "pool3/3x3_s2"
  type: "Pooling"
  bottom: "inception_3b/output"
  top: "pool3/3x3_s2"
  pooling_param {
    pool: MAX
    kernel_size: 3
    stride: 2
  }
}
layer {
  name: "inception_4a/1x1"
  type: "Convolution"
  bottom: "pool3/3x3_s2"
  top: "inception_4a/1x1"
  param {
    lr_mult: 1
    decay_mult: 1
  }
  param {
    lr_mult: 2
    decay_mult: 0
  }
  convolution_param {
    num_output: 192
    kernel_size: 1
    weight_filler {
      type: "xavier"
    }
    bias_filler {
      type: "constant"
      value: 0.2
    }
  }
}
layer {
  name: "inception_4a/relu_1x1"
  type: "ReLU"
  bottom: "inception_4a/1x1"
  top: "inception_4a/1x1"
}
layer {
  name: "inception_4a/3x3_reduce"
  type: "Convolution"
  bottom: "pool3/3x3_s2"
  top: "inception_4a/3x3_reduce"
  param {
    lr_mult: 1
    decay_mult: 1
  }
  param {
    lr_mult: 2
    decay_mult: 0
  }
  convolution_param {
    num_output: 96
    kernel_size: 1
    weight_filler {
      type: "xavier"
    }
    bias_filler {
      type: "constant"
      value: 0.2
    }
  }
}
layer {
  name: "inception_4a/relu_3x3_reduce"
  type: "ReLU"
  bottom: "inception_4a/3x3_reduce"
  top: "inception_4a/3x3_reduce"
}
layer {
  name: "inception_4a/3x3"
  type: "Convolution"
  bottom: "inception_4a/3x3_reduce"
  top: "inception_4a/3x3"
  param {
    lr_mult: 1
    decay_mult: 1
  }
  param {
    lr_mult: 2
    decay_mult: 0
  }
  convolution_param {
    num_output: 208
    pad: 1
    kernel_size: 3
    weight_filler {
      type: "xavier"
    }
    bias_filler {
      type: "constant"
      value: 0.2
    }
  }
}
layer {
  name: "inception_4a/relu_3x3"
  type: "ReLU"
  bottom: "inception_4a/3x3"
  top: "inception_4a/3x3"
}
layer {
  name: "inception_4a/5x5_reduce"
  type: "Convolution"
  bottom: "pool3/3x3_s2"
  top: "inception_4a/5x5_reduce"
  param {
    lr_mult: 1
    decay_mult: 1
  }
  param {
    lr_mult: 2
    decay_mult: 0
  }
  convolution_param {
    num_output: 16
    kernel_size: 1
    weight_filler {
      type: "xavier"
    }
    bias_filler {
      type: "constant"
      value: 0.2
    }
  }
}
layer {
  name: "inception_4a/relu_5x5_reduce"
  type: "ReLU"
  bottom: "inception_4a/5x5_reduce"
  top: "inception_4a/5x5_reduce"
}
layer {
  name: "inception_4a/5x5"
  type: "Convolution"
  bottom: "inception_4a/5x5_reduce"
  top: "inception_4a/5x5"
  param {
    lr_mult: 1
    decay_mult: 1
  }
  param {
    lr_mult: 2
    decay_mult: 0
  }
  convolution_param {
    num_output: 48
    pad: 2
    kernel_size: 5
    weight_filler {
      type: "xavier"
    }
    bias_filler {
      type: "constant"
      value: 0.2
    }
  }
}
layer {
  name: "inception_4a/relu_5x5"
  type: "ReLU"
  bottom: "inception_4a/5x5"
  top: "inception_4a/5x5"
}
layer {
  name: "inception_4a/pool"
  type: "Pooling"
  bottom: "pool3/3x3_s2"
  top: "inception_4a/pool"
  pooling_param {
    pool: MAX
    kernel_size: 3
    stride: 1
    pad: 1
  }
}
layer {
  name: "inception_4a/pool_proj"
  type: "Convolution"
  bottom: "inception_4a/pool"
  top: "inception_4a/pool_proj"
  param {
    lr_mult: 1
    decay_mult: 1
  }
  param {
    lr_mult: 2
    decay_mult: 0
  }
  convolution_param {
    num_output: 64
    kernel_size: 1
    weight_filler {
      type: "xavier"
    }
    bias_filler {
      type: "constant"
      value: 0.2
    }
  }
}
layer {
  name: "inception_4a/relu_pool_proj"
  type: "ReLU"
  bottom: "inception_4a/pool_proj"
  top: "inception_4a/pool_proj"
}
layer {
  name: "inception_4a/output"
  type: "Concat"
  bottom: "inception_4a/1x1"
  bottom: "inception_4a/3x3"
  bottom: "inception_4a/5x5"
  bottom: "inception_4a/pool_proj"
  top: "inception_4a/output"
}
layer {
  name: "loss1/ave_pool"
  type: "Pooling"
  bottom: "inception_4a/output"
  top: "loss1/ave_pool"
  pooling_param {
    pool: AVE
    kernel_size: 5
    stride: 3
  }
}
layer {
  name: "loss1/conv"
  type: "Convolution"
  bottom: "loss1/ave_pool"
  top: "loss1/conv"
  param {
    lr_mult: 1
    decay_mult: 1
  }
  param {
    lr_mult: 2
    decay_mult: 0
  }
  convolution_param {
    num_output: 128
    kernel_size: 1
    weight_filler {
      type: "xavier"
    }
    bias_filler {
      type: "constant"
      value: 0.2
    }
  }
}
layer {
  name: "loss1/relu_conv"
  type: "ReLU"
  bottom: "loss1/conv"
  top: "loss1/conv"
}
layer {
  name: "loss1/fc"
  type: "InnerProduct"
  bottom: "loss1/conv"
  top: "loss1/fc"
  param {
    lr_mult: 1
    decay_mult: 1
  }
  param {
    lr_mult: 2
    decay_mult: 0
  }
  inner_product_param {
    num_output: 1024
    weight_filler {
      type: "xavier"
    }
    bias_filler {
      type: "constant"
      value: 0.2
    }
  }
}
layer {
  name: "loss1/relu_fc"
  type: "ReLU"
  bottom: "loss1/fc"
  top: "loss1/fc"
}
layer {
  name: "loss1/drop_fc"
  type: "Dropout"
  bottom: "loss1/fc"
  top: "loss1/fc"
  dropout_param {
    dropout_ratio: 0.7
  }
}
layer {
  name: "loss1/classifier_kaggle"
  type: "InnerProduct"
  bottom: "loss1/fc"
  top: "loss1/classifier_kaggle"
  param {
    lr_mult: 1
    decay_mult: 1
  }
  param {
    lr_mult: 2
    decay_mult: 0
  }
  inner_product_param {
    num_output: 447
    weight_filler {
      type: "xavier"
    }
    bias_filler {
      type: "constant"
      value: 0
    }
  }
}
layer {
  name: "loss1/loss"
  type: "SoftmaxWithLoss"
  bottom: "loss1/classifier_kaggle"
  bottom: "label"
  top: "loss1/loss1"
  loss_weight: 0.3
}
layer {
  name: "loss1/top-1"
  type: "Accuracy"
  bottom: "loss1/classifier_kaggle"
  bottom: "label"
  top: "loss1/top-1"
  include {
    phase: TEST
  }
}
layer {
  name: "loss1/top-5"
  type: "Accuracy"
  bottom: "loss1/classifier_kaggle"
  bottom: "label"
  top: "loss1/top-5"
  include {
    phase: TEST
  }
  accuracy_param {
    top_k: 5
  }
}
layer {
  name: "inception_4b/1x1"
  type: "Convolution"
  bottom: "inception_4a/output"
  top: "inception_4b/1x1"
  param {
    lr_mult: 1
    decay_mult: 1
  }
  param {
    lr_mult: 2
    decay_mult: 0
  }
  convolution_param {
    num_output: 160
    kernel_size: 1
    weight_filler {
      type: "xavier"
    }
    bias_filler {
      type: "constant"
      value: 0.2
    }
  }
}
layer {
  name: "inception_4b/relu_1x1"
  type: "ReLU"
  bottom: "inception_4b/1x1"
  top: "inception_4b/1x1"
}
layer {
  name: "inception_4b/3x3_reduce"
  type: "Convolution"
  bottom: "inception_4a/output"
  top: "inception_4b/3x3_reduce"
  param {
    lr_mult: 1
    decay_mult: 1
  }
  param {
    lr_mult: 2
    decay_mult: 0
  }
  convolution_param {
    num_output: 112
    kernel_size: 1
    weight_filler {
      type: "xavier"
    }
    bias_filler {
      type: "constant"
      value: 0.2
    }
  }
}
layer {
  name: "inception_4b/relu_3x3_reduce"
  type: "ReLU"
  bottom: "inception_4b/3x3_reduce"
  top: "inception_4b/3x3_reduce"
}
layer {
  name: "inception_4b/3x3"
  type: "Convolution"
  bottom: "inception_4b/3x3_reduce"
  top: "inception_4b/3x3"
  param {
    lr_mult: 1
    decay_mult: 1
  }
  param {
    lr_mult: 2
    decay_mult: 0
  }
  convolution_param {
    num_output: 224
    pad: 1
    kernel_size: 3
    weight_filler {
      type: "xavier"
    }
    bias_filler {
      type: "constant"
      value: 0.2
    }
  }
}
layer {
  name: "inception_4b/relu_3x3"
  type: "ReLU"
  bottom: "inception_4b/3x3"
  top: "inception_4b/3x3"
}
layer {
  name: "inception_4b/5x5_reduce"
  type: "Convolution"
  bottom: "inception_4a/output"
  top: "inception_4b/5x5_reduce"
  param {
    lr_mult: 1
    decay_mult: 1
  }
  param {
    lr_mult: 2
    decay_mult: 0
  }
  convolution_param {
    num_output: 24
    kernel_size: 1
    weight_filler {
      type: "xavier"
    }
    bias_filler {
      type: "constant"
      value: 0.2
    }
  }
}
layer {
  name: "inception_4b/relu_5x5_reduce"
  type: "ReLU"
  bottom: "inception_4b/5x5_reduce"
  top: "inception_4b/5x5_reduce"
}
layer {
  name: "inception_4b/5x5"
  type: "Convolution"
  bottom: "inception_4b/5x5_reduce"
  top: "inception_4b/5x5"
  param {
    lr_mult: 1
    decay_mult: 1
  }
  param {
    lr_mult: 2
    decay_mult: 0
  }
  convolution_param {
    num_output: 64
    pad: 2
    kernel_size: 5
    weight_filler {
      type: "xavier"
    }
    bias_filler {
      type: "constant"
      value: 0.2
    }
  }
}
layer {
  name: "inception_4b/relu_5x5"
  type: "ReLU"
  bottom: "inception_4b/5x5"
  top: "inception_4b/5x5"
}
layer {
  name: "inception_4b/pool"
  type: "Pooling"
  bottom: "inception_4a/output"
  top: "inception_4b/pool"
  pooling_param {
    pool: MAX
    kernel_size: 3
    stride: 1
    pad: 1
  }
}
layer {
  name: "inception_4b/pool_proj"
  type: "Convolution"
  bottom: "inception_4b/pool"
  top: "inception_4b/pool_proj"
  param {
    lr_mult: 1
    decay_mult: 1
  }
  param {
    lr_mult: 2
    decay_mult: 0
  }
  convolution_param {
    num_output: 64
    kernel_size: 1
    weight_filler {
      type: "xavier"
    }
    bias_filler {
      type: "constant"
      value: 0.2
    }
  }
}
layer {
  name: "inception_4b/relu_pool_proj"
  type: "ReLU"
  bottom: "inception_4b/pool_proj"
  top: "inception_4b/pool_proj"
}
layer {
  name: "inception_4b/output"
  type: "Concat"
  bottom: "inception_4b/1x1"
  bottom: "inception_4b/3x3"
  bottom: "inception_4b/5x5"
  bottom: "inception_4b/pool_proj"
  top: "inception_4b/output"
}
layer {
  name: "inception_4c/1x1"
  type: "Convolution"
  bottom: "inception_4b/output"
  top: "inception_4c/1x1"
  param {
    lr_mult: 1
    decay_mult: 1
  }
  param {
    lr_mult: 2
    decay_mult: 0
  }
  convolution_param {
    num_output: 128
    kernel_size: 1
    weight_filler {
      type: "xavier"
    }
    bias_filler {
      type: "constant"
      value: 0.2
    }
  }
}
layer {
  name: "inception_4c/relu_1x1"
  type: "ReLU"
  bottom: "inception_4c/1x1"
  top: "inception_4c/1x1"
}
layer {
  name: "inception_4c/3x3_reduce"
  type: "Convolution"
  bottom: "inception_4b/output"
  top: "inception_4c/3x3_reduce"
  param {
    lr_mult: 1
    decay_mult: 1
  }
  param {
    lr_mult: 2
    decay_mult: 0
  }
  convolution_param {
    num_output: 128
    kernel_size: 1
    weight_filler {
      type: "xavier"
    }
    bias_filler {
      type: "constant"
      value: 0.2
    }
  }
}
layer {
  name: "inception_4c/relu_3x3_reduce"
  type: "ReLU"
  bottom: "inception_4c/3x3_reduce"
  top: "inception_4c/3x3_reduce"
}
layer {
  name: "inception_4c/3x3"
  type: "Convolution"
  bottom: "inception_4c/3x3_reduce"
  top: "inception_4c/3x3"
  param {
    lr_mult: 1
    decay_mult: 1
  }
  param {
    lr_mult: 2
    decay_mult: 0
  }
  convolution_param {
    num_output: 256
    pad: 1
    kernel_size: 3
    weight_filler {
      type: "xavier"
    }
    bias_filler {
      type: "constant"
      value: 0.2
    }
  }
}
layer {
  name: "inception_4c/relu_3x3"
  type: "ReLU"
  bottom: "inception_4c/3x3"
  top: "inception_4c/3x3"
}
layer {
  name: "inception_4c/5x5_reduce"
  type: "Convolution"
  bottom: "inception_4b/output"
  top: "inception_4c/5x5_reduce"
  param {
    lr_mult: 1
    decay_mult: 1
  }
  param {
    lr_mult: 2
    decay_mult: 0
  }
  convolution_param {
    num_output: 24
    kernel_size: 1
    weight_filler {
      type: "xavier"
    }
    bias_filler {
      type: "constant"
      value: 0.2
    }
  }
}
layer {
  name: "inception_4c/relu_5x5_reduce"
  type: "ReLU"
  bottom: "inception_4c/5x5_reduce"
  top: "inception_4c/5x5_reduce"
}
layer {
  name: "inception_4c/5x5"
  type: "Convolution"
  bottom: "inception_4c/5x5_reduce"
  top: "inception_4c/5x5"
  param {
    lr_mult: 1
    decay_mult: 1
  }
  param {
    lr_mult: 2
    decay_mult: 0
  }
  convolution_param {
    num_output: 64
    pad: 2
    kernel_size: 5
    weight_filler {
      type: "xavier"
    }
    bias_filler {
      type: "constant"
      value: 0.2
    }
  }
}
layer {
  name: "inception_4c/relu_5x5"
  type: "ReLU"
  bottom: "inception_4c/5x5"
  top: "inception_4c/5x5"
}
layer {
  name: "inception_4c/pool"
  type: "Pooling"
  bottom: "inception_4b/output"
  top: "inception_4c/pool"
  pooling_param {
    pool: MAX
    kernel_size: 3
    stride: 1
    pad: 1
  }
}
layer {
  name: "inception_4c/pool_proj"
  type: "Convolution"
  bottom: "inception_4c/pool"
  top: "inception_4c/pool_proj"
  param {
    lr_mult: 1
    decay_mult: 1
  }
  param {
    lr_mult: 2
    decay_mult: 0
  }
  convolution_param {
    num_output: 64
    kernel_size: 1
    weight_filler {
      type: "xavier"
    }
    bias_filler {
      type: "constant"
      value: 0.2
    }
  }
}
layer {
  name: "inception_4c/relu_pool_proj"
  type: "ReLU"
  bottom: "inception_4c/pool_proj"
  top: "inception_4c/pool_proj"
}
layer {
  name: "inception_4c/output"
  type: "Concat"
  bottom: "inception_4c/1x1"
  bottom: "inception_4c/3x3"
  bottom: "inception_4c/5x5"
  bottom: "inception_4c/pool_proj"
  top: "inception_4c/output"
}
layer {
  name: "inception_4d/1x1"
  type: "Convolution"
  bottom: "inception_4c/output"
  top: "inception_4d/1x1"
  param {
    lr_mult: 1
    decay_mult: 1
  }
  param {
    lr_mult: 2
    decay_mult: 0
  }
  convolution_param {
    num_output: 112
    kernel_size: 1
    weight_filler {
      type: "xavier"
    }
    bias_filler {
      type: "constant"
      value: 0.2
    }
  }
}
layer {
  name: "inception_4d/relu_1x1"
  type: "ReLU"
  bottom: "inception_4d/1x1"
  top: "inception_4d/1x1"
}
layer {
  name: "inception_4d/3x3_reduce"
  type: "Convolution"
  bottom: "inception_4c/output"
  top: "inception_4d/3x3_reduce"
  param {
    lr_mult: 1
    decay_mult: 1
  }
  param {
    lr_mult: 2
    decay_mult: 0
  }
  convolution_param {
    num_output: 144
    kernel_size: 1
    weight_filler {
      type: "xavier"
    }
    bias_filler {
      type: "constant"
      value: 0.2
    }
  }
}
layer {
  name: "inception_4d/relu_3x3_reduce"
  type: "ReLU"
  bottom: "inception_4d/3x3_reduce"
  top: "inception_4d/3x3_reduce"
}
layer {
  name: "inception_4d/3x3"
  type: "Convolution"
  bottom: "inception_4d/3x3_reduce"
  top: "inception_4d/3x3"
  param {
    lr_mult: 1
    decay_mult: 1
  }
  param {
    lr_mult: 2
    decay_mult: 0
  }
  convolution_param {
    num_output: 288
    pad: 1
    kernel_size: 3
    weight_filler {
      type: "xavier"
    }
    bias_filler {
      type: "constant"
      value: 0.2
    }
  }
}
layer {
  name: "inception_4d/relu_3x3"
  type: "ReLU"
  bottom: "inception_4d/3x3"
  top: "inception_4d/3x3"
}
layer {
  name: "inception_4d/5x5_reduce"
  type: "Convolution"
  bottom: "inception_4c/output"
  top: "inception_4d/5x5_reduce"
  param {
    lr_mult: 1
    decay_mult: 1
  }
  param {
    lr_mult: 2
    decay_mult: 0
  }
  convolution_param {
    num_output: 32
    kernel_size: 1
    weight_filler {
      type: "xavier"
    }
    bias_filler {
      type: "constant"
      value: 0.2
    }
  }
}
layer {
  name: "inception_4d/relu_5x5_reduce"
  type: "ReLU"
  bottom: "inception_4d/5x5_reduce"
  top: "inception_4d/5x5_reduce"
}
layer {
  name: "inception_4d/5x5"
  type: "Convolution"
  bottom: "inception_4d/5x5_reduce"
  top: "inception_4d/5x5"
  param {
    lr_mult: 1
    decay_mult: 1
  }
  param {
    lr_mult: 2
    decay_mult: 0
  }
  convolution_param {
    num_output: 64
    pad: 2
    kernel_size: 5
    weight_filler {
      type: "xavier"
    }
    bias_filler {
      type: "constant"
      value: 0.2
    }
  }
}
layer {
  name: "inception_4d/relu_5x5"
  type: "ReLU"
  bottom: "inception_4d/5x5"
  top: "inception_4d/5x5"
}
layer {
  name: "inception_4d/pool"
  type: "Pooling"
  bottom: "inception_4c/output"
  top: "inception_4d/pool"
  pooling_param {
    pool: MAX
    kernel_size: 3
    stride: 1
    pad: 1
  }
}
layer {
  name: "inception_4d/pool_proj"
  type: "Convolution"
  bottom: "inception_4d/pool"
  top: "inception_4d/pool_proj"
  param {
    lr_mult: 1
    decay_mult: 1
  }
  param {
    lr_mult: 2
    decay_mult: 0
  }
  convolution_param {
    num_output: 64
    kernel_size: 1
    weight_filler {
      type: "xavier"
    }
    bias_filler {
      type: "constant"
      value: 0.2
    }
  }
}
layer {
  name: "inception_4d/relu_pool_proj"
  type: "ReLU"
  bottom: "inception_4d/pool_proj"
  top: "inception_4d/pool_proj"
}
layer {
  name: "inception_4d/output"
  type: "Concat"
  bottom: "inception_4d/1x1"
  bottom: "inception_4d/3x3"
  bottom: "inception_4d/5x5"
  bottom: "inception_4d/pool_proj"
  top: "inception_4d/output"
}
layer {
  name: "loss2/ave_pool"
  type: "Pooling"
  bottom: "inception_4d/output"
  top: "loss2/ave_pool"
  pooling_param {
    pool: AVE
    kernel_size: 5
    stride: 3
  }
}
layer {
  name: "loss2/conv"
  type: "Convolution"
…
I1218 23:42:01.709472 21845 net.cpp:84] Creating Layer inception_4c/1x1
I1218 23:42:01.709477 21845 net.cpp:380] inception_4c/1x1 <- inception_4b/output_inception_4b/output_0_split_0
I1218 23:42:01.709487 21845 net.cpp:338] inception_4c/1x1 -> inception_4c/1x1
I1218 23:42:01.709496 21845 net.cpp:113] Setting up inception_4c/1x1
I1218 23:42:01.710700 21845 net.cpp:120] Top shape: 50 128 14 14 (1254400)
I1218 23:42:01.710717 21845 layer_factory.hpp:74] Creating layer inception_4c/relu_1x1
I1218 23:42:01.710726 21845 net.cpp:84] Creating Layer inception_4c/relu_1x1
I1218 23:42:01.710731 21845 net.cpp:380] inception_4c/relu_1x1 <- inception_4c/1x1
I1218 23:42:01.710738 21845 net.cpp:327] inception_4c/relu_1x1 -> inception_4c/1x1 (in-place)
I1218 23:42:01.710747 21845 net.cpp:113] Setting up inception_4c/relu_1x1
I1218 23:42:01.711016 21845 net.cpp:120] Top shape: 50 128 14 14 (1254400)
I1218 23:42:01.711037 21845 layer_factory.hpp:74] Creating layer inception_4c/3x3_reduce
I1218 23:42:01.711050 21845 net.cpp:84] Creating Layer inception_4c/3x3_reduce
I1218 23:42:01.711055 21845 net.cpp:380] inception_4c/3x3_reduce <- inception_4b/output_inception_4b/output_0_split_1
I1218 23:42:01.711066 21845 net.cpp:338] inception_4c/3x3_reduce -> inception_4c/3x3_reduce
I1218 23:42:01.711076 21845 net.cpp:113] Setting up inception_4c/3x3_reduce
I1218 23:42:01.712350 21845 net.cpp:120] Top shape: 50 128 14 14 (1254400)
I1218 23:42:01.712374 21845 layer_factory.hpp:74] Creating layer inception_4c/relu_3x3_reduce
I1218 23:42:01.712390 21845 net.cpp:84] Creating Layer inception_4c/relu_3x3_reduce
I1218 23:42:01.712400 21845 net.cpp:380] inception_4c/relu_3x3_reduce <- inception_4c/3x3_reduce
I1218 23:42:01.712411 21845 net.cpp:327] inception_4c/relu_3x3_reduce -> inception_4c/3x3_reduce (in-place)
I1218 23:42:01.712424 21845 net.cpp:113] Setting up inception_4c/relu_3x3_reduce
I1218 23:42:01.712507 21845 net.cpp:120] Top shape: 50 128 14 14 (1254400)
I1218 23:42:01.712515 21845 layer_factory.hpp:74] Creating layer inception_4c/3x3
I1218 23:42:01.712533 21845 net.cpp:84] Creating Layer inception_4c/3x3
I1218 23:42:01.712539 21845 net.cpp:380] inception_4c/3x3 <- inception_4c/3x3_reduce
I1218 23:42:01.712546 21845 net.cpp:338] inception_4c/3x3 -> inception_4c/3x3
I1218 23:42:01.712558 21845 net.cpp:113] Setting up inception_4c/3x3
I1218 23:42:01.716493 21845 net.cpp:120] Top shape: 50 256 14 14 (2508800)
I1218 23:42:01.716524 21845 layer_factory.hpp:74] Creating layer inception_4c/relu_3x3
I1218 23:42:01.716536 21845 net.cpp:84] Creating Layer inception_4c/relu_3x3
I1218 23:42:01.716542 21845 net.cpp:380] inception_4c/relu_3x3 <- inception_4c/3x3
I1218 23:42:01.716549 21845 net.cpp:327] inception_4c/relu_3x3 -> inception_4c/3x3 (in-place)
I1218 23:42:01.716557 21845 net.cpp:113] Setting up inception_4c/relu_3x3
I1218 23:42:01.716642 21845 net.cpp:120] Top shape: 50 256 14 14 (2508800)
I1218 23:42:01.716650 21845 layer_factory.hpp:74] Creating layer inception_4c/5x5_reduce
I1218 23:42:01.716658 21845 net.cpp:84] Creating Layer inception_4c/5x5_reduce
I1218 23:42:01.716665 21845 net.cpp:380] inception_4c/5x5_reduce <- inception_4b/output_inception_4b/output_0_split_2
I1218 23:42:01.716675 21845 net.cpp:338] inception_4c/5x5_reduce -> inception_4c/5x5_reduce
I1218 23:42:01.716683 21845 net.cpp:113] Setting up inception_4c/5x5_reduce
I1218 23:42:01.717272 21845 net.cpp:120] Top shape: 50 24 14 14 (235200)
I1218 23:42:01.717289 21845 layer_factory.hpp:74] Creating layer inception_4c/relu_5x5_reduce
I1218 23:42:01.717298 21845 net.cpp:84] Creating Layer inception_4c/relu_5x5_reduce
I1218 23:42:01.717303 21845 net.cpp:380] inception_4c/relu_5x5_reduce <- inception_4c/5x5_reduce
I1218 23:42:01.717310 21845 net.cpp:327] inception_4c/relu_5x5_reduce -> inception_4c/5x5_reduce (in-place)
I1218 23:42:01.717319 21845 net.cpp:113] Setting up inception_4c/relu_5x5_reduce
I1218 23:42:01.717583 21845 net.cpp:120] Top shape: 50 24 14 14 (235200)
I1218 23:42:01.717595 21845 layer_factory.hpp:74] Creating layer inception_4c/5x5
I1218 23:42:01.717607 21845 net.cpp:84] Creating Layer inception_4c/5x5
I1218 23:42:01.717612 21845 net.cpp:380] inception_4c/5x5 <- inception_4c/5x5_reduce
I1218 23:42:01.717625 21845 net.cpp:338] inception_4c/5x5 -> inception_4c/5x5
I1218 23:42:01.717635 21845 net.cpp:113] Setting up inception_4c/5x5
I1218 23:42:01.718528 21845 net.cpp:120] Top shape: 50 64 14 14 (627200)
I1218 23:42:01.718544 21845 layer_factory.hpp:74] Creating layer inception_4c/relu_5x5
I1218 23:42:01.718554 21845 net.cpp:84] Creating Layer inception_4c/relu_5x5
I1218 23:42:01.718559 21845 net.cpp:380] inception_4c/relu_5x5 <- inception_4c/5x5
I1218 23:42:01.718566 21845 net.cpp:327] inception_4c/relu_5x5 -> inception_4c/5x5 (in-place)
I1218 23:42:01.718575 21845 net.cpp:113] Setting up inception_4c/relu_5x5
I1218 23:42:01.718652 21845 net.cpp:120] Top shape: 50 64 14 14 (627200)
I1218 23:42:01.718665 21845 layer_factory.hpp:74] Creating layer inception_4c/pool
I1218 23:42:01.718678 21845 layer_factory.cpp:56] CUDNN does not support padding or multiple tops. Using Caffe's own pooling layer.
I1218 23:42:01.718688 21845 net.cpp:84] Creating Layer inception_4c/pool
I1218 23:42:01.718693 21845 net.cpp:380] inception_4c/pool <- inception_4b/output_inception_4b/output_0_split_3
I1218 23:42:01.718700 21845 net.cpp:338] inception_4c/pool -> inception_4c/pool
I1218 23:42:01.718709 21845 net.cpp:113] Setting up inception_4c/pool
I1218 23:42:01.718720 21845 net.cpp:120] Top shape: 50 512 14 14 (5017600)
I1218 23:42:01.718725 21845 layer_factory.hpp:74] Creating layer inception_4c/pool_proj
I1218 23:42:01.718734 21845 net.cpp:84] Creating Layer inception_4c/pool_proj
I1218 23:42:01.718739 21845 net.cpp:380] inception_4c/pool_proj <- inception_4c/pool
I1218 23:42:01.718747 21845 net.cpp:338] inception_4c/pool_proj -> inception_4c/pool_proj
I1218 23:42:01.718756 21845 net.cpp:113] Setting up inception_4c/pool_proj
I1218 23:42:01.719583 21845 net.cpp:120] Top shape: 50 64 14 14 (627200)
I1218 23:42:01.719602 21845 layer_factory.hpp:74] Creating layer inception_4c/relu_pool_proj
I1218 23:42:01.719609 21845 net.cpp:84] Creating Layer inception_4c/relu_pool_proj
I1218 23:42:01.719615 21845 net.cpp:380] inception_4c/relu_pool_proj <- inception_4c/pool_proj
I1218 23:42:01.719624 21845 net.cpp:327] inception_4c/relu_pool_proj -> inception_4c/pool_proj (in-place)
I1218 23:42:01.719631 21845 net.cpp:113] Setting up inception_4c/relu_pool_proj
I1218 23:42:01.719707 21845 net.cpp:120] Top shape: 50 64 14 14 (627200)
I1218 23:42:01.719713 21845 layer_factory.hpp:74] Creating layer inception_4c/output
I1218 23:42:01.719720 21845 net.cpp:84] Creating Layer inception_4c/output
I1218 23:42:01.719725 21845 net.cpp:380] inception_4c/output <- inception_4c/1x1
I1218 23:42:01.719732 21845 net.cpp:380] inception_4c/output <- inception_4c/3x3
I1218 23:42:01.719738 21845 net.cpp:380] inception_4c/output <- inception_4c/5x5
I1218 23:42:01.719743 21845 net.cpp:380] inception_4c/output <- inception_4c/pool_proj
I1218 23:42:01.719750 21845 net.cpp:338] inception_4c/output -> inception_4c/output
I1218 23:42:01.719758 21845 net.cpp:113] Setting up inception_4c/output
I1218 23:42:01.719766 21845 net.cpp:120] Top shape: 50 512 14 14 (5017600)
I1218 23:42:01.719771 21845 layer_factory.hpp:74] Creating layer inception_4c/output_inception_4c/output_0_split
I1218 23:42:01.719777 21845 net.cpp:84] Creating Layer inception_4c/output_inception_4c/output_0_split
I1218 23:42:01.719782 21845 net.cpp:380] inception_4c/output_inception_4c/output_0_split <- inception_4c/output
I1218 23:42:01.719790 21845 net.cpp:338] inception_4c/output_inception_4c/output_0_split -> inception_4c/output_inception_4c/output_0_split_0
I1218 23:42:01.719799 21845 net.cpp:338] inception_4c/output_inception_4c/output_0_split -> inception_4c/output_inception_4c/output_0_split_1
I1218 23:42:01.719806 21845 net.cpp:338] inception_4c/output_inception_4c/output_0_split -> inception_4c/output_inception_4c/output_0_split_2
I1218 23:42:01.719815 21845 net.cpp:338] inception_4c/output_inception_4c/output_0_split -> inception_4c/output_inception_4c/output_0_split_3
I1218 23:42:01.719820 21845 net.cpp:113] Setting up inception_4c/output_inception_4c/output_0_split
I1218 23:42:01.719830 21845 net.cpp:120] Top shape: 50 512 14 14 (5017600)
I1218 23:42:01.719835 21845 net.cpp:120] Top shape: 50 512 14 14 (5017600)
I1218 23:42:01.719841 21845 net.cpp:120] Top shape: 50 512 14 14 (5017600)
I1218 23:42:01.719846 21845 net.cpp:120] Top shape: 50 512 14 14 (5017600)
I1218 23:42:01.719851 21845 layer_factory.hpp:74] Creating layer inception_4d/1x1
I1218 23:42:01.719857 21845 net.cpp:84] Creating Layer inception_4d/1x1
I1218 23:42:01.719862 21845 net.cpp:380] inception_4d/1x1 <- inception_4c/output_inception_4c/output_0_split_0
I1218 23:42:01.719872 21845 net.cpp:338] inception_4d/1x1 -> inception_4d/1x1
I1218 23:42:01.719880 21845 net.cpp:113] Setting up inception_4d/1x1
I1218 23:42:01.721005 21845 net.cpp:120] Top shape: 50 112 14 14 (1097600)
I1218 23:42:01.721030 21845 layer_factory.hpp:74] Creating layer inception_4d/relu_1x1
I1218 23:42:01.721038 21845 net.cpp:84] Creating Layer inception_4d/relu_1x1
I1218 23:42:01.721045 21845 net.cpp:380] inception_4d/relu_1x1 <- inception_4d/1x1
I1218 23:42:01.721051 21845 net.cpp:327] inception_4d/relu_1x1 -> inception_4d/1x1 (in-place)
I1218 23:42:01.721067 21845 net.cpp:113] Setting up inception_4d/relu_1x1
I1218 23:42:01.721143 21845 net.cpp:120] Top shape: 50 112 14 14 (1097600)
I1218 23:42:01.721151 21845 layer_factory.hpp:74] Creating layer inception_4d/3x3_reduce
I1218 23:42:01.721160 21845 net.cpp:84] Creating Layer inception_4d/3x3_reduce
I1218 23:42:01.721165 21845 net.cpp:380] inception_4d/3x3_reduce <- inception_4c/output_inception_4c/output_0_split_1
I1218 23:42:01.721175 21845 net.cpp:338] inception_4d/3x3_reduce -> inception_4d/3x3_reduce
I1218 23:42:01.721184 21845 net.cpp:113] Setting up inception_4d/3x3_reduce
I1218 23:42:01.722496 21845 net.cpp:120] Top shape: 50 144 14 14 (1411200)
I1218 23:42:01.722512 21845 layer_factory.hpp:74] Creating layer inception_4d/relu_3x3_reduce
I1218 23:42:01.722520 21845 net.cpp:84] Creating Layer inception_4d/relu_3x3_reduce
I1218 23:42:01.722527 21845 net.cpp:380] inception_4d/relu_3x3_reduce <- inception_4d/3x3_reduce
I1218 23:42:01.722533 21845 net.cpp:327] inception_4d/relu_3x3_reduce -> inception_4d/3x3_reduce (in-place)
I1218 23:42:01.722542 21845 net.cpp:113] Setting up inception_4d/relu_3x3_reduce
I1218 23:42:01.722810 21845 net.cpp:120] Top shape: 50 144 14 14 (1411200)
I1218 23:42:01.722822 21845 layer_factory.hpp:74] Creating layer inception_4d/3x3
I1218 23:42:01.722832 21845 net.cpp:84] Creating Layer inception_4d/3x3
I1218 23:42:01.722837 21845 net.cpp:380] inception_4d/3x3 <- inception_4d/3x3_reduce
I1218 23:42:01.722847 21845 net.cpp:338] inception_4d/3x3 -> inception_4d/3x3
I1218 23:42:01.722858 21845 net.cpp:113] Setting up inception_4d/3x3
I1218 23:42:01.727684 21845 net.cpp:120] Top shape: 50 288 14 14 (2822400)
I1218 23:42:01.727704 21845 layer_factory.hpp:74] Creating layer inception_4d/relu_3x3
I1218 23:42:01.727712 21845 net.cpp:84] Creating Layer inception_4d/relu_3x3
I1218 23:42:01.727720 21845 net.cpp:380] inception_4d/relu_3x3 <- inception_4d/3x3
I1218 23:42:01.727727 21845 net.cpp:327] inception_4d/relu_3x3 -> inception_4d/3x3 (in-place)
I1218 23:42:01.727736 21845 net.cpp:113] Setting up inception_4d/relu_3x3
I1218 23:42:01.727810 21845 net.cpp:120] Top shape: 50 288 14 14 (2822400)
I1218 23:42:01.727818 21845 layer_factory.hpp:74] Creating layer inception_4d/5x5_reduce
I1218 23:42:01.727829 21845 net.cpp:84] Creating Layer inception_4d/5x5_reduce
I1218 23:42:01.727834 21845 net.cpp:380] inception_4d/5x5_reduce <- inception_4c/output_inception_4c/output_0_split_2
I1218 23:42:01.727843 21845 net.cpp:338] inception_4d/5x5_reduce -> inception_4d/5x5_reduce
I1218 23:42:01.727852 21845 net.cpp:113] Setting up inception_4d/5x5_reduce
I1218 23:42:01.728528 21845 net.cpp:120] Top shape: 50 32 14 14 (313600)
I1218 23:42:01.728544 21845 layer_factory.hpp:74] Creating layer inception_4d/relu_5x5_reduce
I1218 23:42:01.728555 21845 net.cpp:84] Creating Layer inception_4d/relu_5x5_reduce
I1218 23:42:01.728566 21845 net.cpp:380] inception_4d/relu_5x5_reduce <- inception_4d/5x5_reduce
I1218 23:42:01.728581 21845 net.cpp:327] inception_4d/relu_5x5_reduce -> inception_4d/5x5_reduce (in-place)
I1218 23:42:01.728595 21845 net.cpp:113] Setting up inception_4d/relu_5x5_reduce
I1218 23:42:01.728675 21845 net.cpp:120] Top shape: 50 32 14 14 (313600)
I1218 23:42:01.728682 21845 layer_factory.hpp:74] Creating layer inception_4d/5x5
I1218 23:42:01.728694 21845 net.cpp:84] Creating Layer inception_4d/5x5
I1218 23:42:01.728699 21845 net.cpp:380] inception_4d/5x5 <- inception_4d/5x5_reduce
I1218 23:42:01.728713 21845 net.cpp:338] inception_4d/5x5 -> inception_4d/5x5
I1218 23:42:01.728723 21845 net.cpp:113] Setting up inception_4d/5x5
I1218 23:42:01.729781 21845 net.cpp:120] Top shape: 50 64 14 14 (627200)
I1218 23:42:01.729804 21845 layer_factory.hpp:74] Creating layer inception_4d/relu_5x5
I1218 23:42:01.729820 21845 net.cpp:84] Creating Layer inception_4d/relu_5x5
I1218 23:42:01.729825 21845 net.cpp:380] inception_4d/relu_5x5 <- inception_4d/5x5
I1218 23:42:01.729838 21845 net.cpp:327] inception_4d/relu_5x5 -> inception_4d/5x5 (in-place)
I1218 23:42:01.729847 21845 net.cpp:113] Setting up inception_4d/relu_5x5
I1218 23:42:01.729923 21845 net.cpp:120] Top shape: 50 64 14 14 (627200)
I1218 23:42:01.729929 21845 layer_factory.hpp:74] Creating layer inception_4d/pool
I1218 23:42:01.729935 21845 layer_factory.cpp:56] CUDNN does not support padding or multiple tops. Using Caffe's own pooling layer.
I1218 23:42:01.729943 21845 net.cpp:84] Creating Layer inception_4d/pool
I1218 23:42:01.729949 21845 net.cpp:380] inception_4d/pool <- inception_4c/output_inception_4c/output_0_split_3
I1218 23:42:01.729956 21845 net.cpp:338] inception_4d/pool -> inception_4d/pool
I1218 23:42:01.729964 21845 net.cpp:113] Setting up inception_4d/pool
I1218 23:42:01.729976 21845 net.cpp:120] Top shape: 50 512 14 14 (5017600)
I1218 23:42:01.729981 21845 layer_factory.hpp:74] Creating layer inception_4d/pool_proj
I1218 23:42:01.729990 21845 net.cpp:84] Creating Layer inception_4d/pool_proj
I1218 23:42:01.729995 21845 net.cpp:380] inception_4d/pool_proj <- inception_4d/pool
I1218 23:42:01.730002 21845 net.cpp:338] inception_4d/pool_proj -> inception_4d/pool_proj
I1218 23:42:01.730011 21845 net.cpp:113] Setting up inception_4d/pool_proj
I1218 23:42:01.730837 21845 net.cpp:120] Top shape: 50 64 14 14 (627200)
I1218 23:42:01.730854 21845 layer_factory.hpp:74] Creating layer inception_4d/relu_pool_proj
I1218 23:42:01.730865 21845 net.cpp:84] Creating Layer inception_4d/relu_pool_proj
I1218 23:42:01.730870 21845 net.cpp:380] inception_4d/relu_pool_proj <- inception_4d/pool_proj
I1218 23:42:01.730878 21845 net.cpp:327] inception_4d/relu_pool_proj -> inception_4d/pool_proj (in-place)
I1218 23:42:01.730885 21845 net.cpp:113] Setting up inception_4d/relu_pool_proj
I1218 23:42:01.731149 21845 net.cpp:120] Top shape: 50 64 14 14 (627200)
I1218 23:42:01.731161 21845 layer_factory.hpp:74] Creating layer inception_4d/output
I1218 23:42:01.731169 21845 net.cpp:84] Creating Layer inception_4d/output
I1218 23:42:01.731174 21845 net.cpp:380] inception_4d/output <- inception_4d/1x1
I1218 23:42:01.731181 21845 net.cpp:380] inception_4d/output <- inception_4d/3x3
I1218 23:42:01.731187 21845 net.cpp:380] inception_4d/output <- inception_4d/5x5
I1218 23:42:01.731192 21845 net.cpp:380] inception_4d/output <- inception_4d/pool_proj
I1218 23:42:01.731199 21845 net.cpp:338] inception_4d/output -> inception_4d/output
I1218 23:42:01.731207 21845 net.cpp:113] Setting up inception_4d/output
I1218 23:42:01.731215 21845 net.cpp:120] Top shape: 50 528 14 14 (5174400)
I1218 23:42:01.731220 21845 layer_factory.hpp:74] Creating layer inception_4d/output_inception_4d/output_0_split
I1218 23:42:01.731230 21845 net.cpp:84] Creating Layer inception_4d/output_inception_4d/output_0_split
I1218 23:42:01.731235 21845 net.cpp:380] inception_4d/output_inception_4d/output_0_split <- inception_4d/output
I1218 23:42:01.731240 21845 net.cpp:338] inception_4d/output_inception_4d/output_0_split -> inception_4d/output_inception_4d/output_0_split_0
I1218 23:42:01.731251 21845 net.cpp:338] inception_4d/output_inception_4d/output_0_split -> inception_4d/output_inception_4d/output_0_split_1
I1218 23:42:01.731259 21845 net.cpp:338] inception_4d/output_inception_4d/output_0_split -> inception_4d/output_inception_4d/output_0_split_2
I1218 23:42:01.731267 21845 net.cpp:338] inception_4d/output_inception_4d/output_0_split -> inception_4d/output_inception_4d/output_0_split_3
I1218 23:42:01.731274 21845 net.cpp:338] inception_4d/output_inception_4d/output_0_split -> inception_4d/output_inception_4d/output_0_split_4
I1218 23:42:01.731281 21845 net.cpp:113] Setting up inception_4d/output_inception_4d/output_0_split
I1218 23:42:01.731288 21845 net.cpp:120] Top shape: 50 528 14 14 (5174400)
I1218 23:42:01.731299 21845 net.cpp:120] Top shape: 50 528 14 14 (5174400)
I1218 23:42:01.731310 21845 net.cpp:120] Top shape: 50 528 14 14 (5174400)
I1218 23:42:01.731317 21845 net.cpp:120] Top shape: 50 528 14 14 (5174400)
I1218 23:42:01.731322 21845 net.cpp:120] Top shape: 50 528 14 14 (5174400)
I1218 23:42:01.731325 21845 layer_factory.hpp:74] Creating layer loss2/ave_pool
I1218 23:42:01.731333 21845 net.cpp:84] Creating Layer loss2/ave_pool
I1218 23:42:01.731338 21845 net.cpp:380] loss2/ave_pool <- inception_4d/output_inception_4d/output_0_split_0
I1218 23:42:01.731348 21845 net.cpp:338] loss2/ave_pool -> loss2/ave_pool
I1218 23:42:01.731356 21845 net.cpp:113] Setting up loss2/ave_pool
I1218 23:42:01.731439 21845 net.cpp:120] Top shape: 50 528 4 4 (422400)
I1218 23:42:01.731447 21845 layer_factory.hpp:74] Creating layer loss2/conv
I1218 23:42:01.731458 21845 net.cpp:84] Creating Layer loss2/conv
I1218 23:42:01.731464 21845 net.cpp:380] loss2/conv <- loss2/ave_pool
I1218 23:42:01.731472 21845 net.cpp:338] loss2/conv -> loss2/conv
I1218 23:42:01.731480 21845 net.cpp:113] Setting up loss2/conv
I1218 23:42:01.732715 21845 net.cpp:120] Top shape: 50 128 4 4 (102400)
I1218 23:42:01.732733 21845 layer_factory.hpp:74] Creating layer loss2/relu_conv
I1218 23:42:01.732740 21845 net.cpp:84] Creating Layer loss2/relu_conv
I1218 23:42:01.732746 21845 net.cpp:380] loss2/relu_conv <- loss2/conv
I1218 23:42:01.732753 21845 net.cpp:327] loss2/relu_conv -> loss2/conv (in-place)
I1218 23:42:01.732761 21845 net.cpp:113] Setting up loss2/relu_conv
I1218 23:42:01.732834 21845 net.cpp:120] Top shape: 50 128 4 4 (102400)
I1218 23:42:01.732842 21845 layer_factory.hpp:74] Creating layer loss2/fc
I1218 23:42:01.732851 21845 net.cpp:84] Creating Layer loss2/fc
I1218 23:42:01.732856 21845 net.cpp:380] loss2/fc <- loss2/conv
I1218 23:42:01.732866 21845 net.cpp:338] loss2/fc -> loss2/fc
I1218 23:42:01.732874 21845 net.cpp:113] Setting up loss2/fc
I1218 23:42:01.755980 21845 net.cpp:120] Top shape: 50 1024 (51200)
I1218 23:42:01.756002 21845 layer_factory.hpp:74] Creating layer loss2/relu_fc
I1218 23:42:01.756012 21845 net.cpp:84] Creating Layer loss2/relu_fc
I1218 23:42:01.756018 21845 net.cpp:380] loss2/relu_fc <- loss2/fc
I1218 23:42:01.756026 21845 net.cpp:327] loss2/relu_fc -> loss2/fc (in-place)
I1218 23:42:01.756034 21845 net.cpp:113] Setting up loss2/relu_fc
I1218 23:42:01.756126 21845 net.cpp:120] Top shape: 50 1024 (51200)
I1218 23:42:01.756134 21845 layer_factory.hpp:74] Creating layer loss2/drop_fc
I1218 23:42:01.756144 21845 net.cpp:84] Creating Layer loss2/drop_fc
I1218 23:42:01.756148 21845 net.cpp:380] loss2/drop_fc <- loss2/fc
I1218 23:42:01.756155 21845 net.cpp:327] loss2/drop_fc -> loss2/fc (in-place)
I1218 23:42:01.756165 21845 net.cpp:113] Setting up loss2/drop_fc
I1218 23:42:01.756172 21845 net.cpp:120] Top shape: 50 1024 (51200)
I1218 23:42:01.756177 21845 layer_factory.hpp:74] Creating layer loss2/classifier_kaggle
I1218 23:42:01.756186 21845 net.cpp:84] Creating Layer loss2/classifier_kaggle
I1218 23:42:01.756191 21845 net.cpp:380] loss2/classifier_kaggle <- loss2/fc
I1218 23:42:01.756198 21845 net.cpp:338] loss2/classifier_kaggle -> loss2/classifier_kaggle
I1218 23:42:01.756207 21845 net.cpp:113] Setting up loss2/classifier_kaggle
I1218 23:42:01.761605 21845 net.cpp:120] Top shape: 50 447 (22350)
I1218 23:42:01.761618 21845 layer_factory.hpp:74] Creating layer loss2/classifier_kaggle_loss2/classifier_kaggle_0_split
I1218 23:42:01.761626 21845 net.cpp:84] Creating Layer loss2/classifier_kaggle_loss2/classifier_kaggle_0_split
I1218 23:42:01.761631 21845 net.cpp:380] loss2/classifier_kaggle_loss2/classifier_kaggle_0_split <- loss2/classifier_kaggle
I1218 23:42:01.761639 21845 net.cpp:338] loss2/classifier_kaggle_loss2/classifier_kaggle_0_split -> loss2/classifier_kaggle_loss2/classifier_kaggle_0_split_0
I1218 23:42:01.761648 21845 net.cpp:338] loss2/classifier_kaggle_loss2/classifier_kaggle_0_split -> loss2/classifier_kaggle_loss2/classifier_kaggle_0_split_1
I1218 23:42:01.761658 21845 net.cpp:338] loss2/classifier_kaggle_loss2/classifier_kaggle_0_split -> loss2/classifier_kaggle_loss2/classifier_kaggle_0_split_2
I1218 23:42:01.761680 21845 net.cpp:113] Setting up loss2/classifier_kaggle_loss2/classifier_kaggle_0_split
I1218 23:42:01.761688 21845 net.cpp:120] Top shape: 50 447 (22350)
I1218 23:42:01.761694 21845 net.cpp:120] Top shape: 50 447 (22350)
I1218 23:42:01.761699 21845 net.cpp:120] Top shape: 50 447 (22350)
I1218 23:42:01.761703 21845 layer_factory.hpp:74] Creating layer loss2/loss
I1218 23:42:01.761711 21845 net.cpp:84] Creating Layer loss2/loss
I1218 23:42:01.761715 21845 net.cpp:380] loss2/loss <- loss2/classifier_kaggle_loss2/classifier_kaggle_0_split_0
I1218 23:42:01.761723 21845 net.cpp:380] loss2/loss <- label_data_1_split_3
I1218 23:42:01.761731 21845 net.cpp:338] loss2/loss -> loss2/loss1
…
I1218 23:42:01.762215 21845 net.cpp:338] loss2/top-5 -> loss2/top-5
I1218 23:42:01.762223 21845 net.cpp:113] Setting up loss2/top-5
I1218 23:42:01.762229 21845 net.cpp:120] Top shape: (1)
I1218 23:42:01.762234 21845 layer_factory.hpp:74] Creating layer inception_4e/1x1
I1218 23:42:01.762243 21845 net.cpp:84] Creating Layer inception_4e/1x1
I1218 23:42:01.762250 21845 net.cpp:380] inception_4e/1x1 <- inception_4d/output_inception_4d/output_0_split_1
I1218 23:42:01.762259 21845 net.cpp:338] inception_4e/1x1 -> inception_4e/1x1
I1218 23:42:01.762266 21845 net.cpp:113] Setting up inception_4e/1x1
I1218 23:42:01.764315 21845 net.cpp:120] Top shape: 50 256 14 14 (2508800)
I1218 23:42:01.764333 21845 layer_factory.hpp:74] Creating layer inception_4e/relu_1x1
I1218 23:42:01.764340 21845 net.cpp:84] Creating Layer inception_4e/relu_1x1
I1218 23:42:01.764346 21845 net.cpp:380] inception_4e/relu_1x1 <- inception_4e/1x1
I1218 23:42:01.764355 21845 net.cpp:327] inception_4e/relu_1x1 -> inception_4e/1x1 (in-place)
I1218 23:42:01.764364 21845 net.cpp:113] Setting up inception_4e/relu_1x1
I1218 23:42:01.764439 21845 net.cpp:120] Top shape: 50 256 14 14 (2508800)
I1218 23:42:01.764446 21845 layer_factory.hpp:74] Creating layer inception_4e/3x3_reduce
I1218 23:42:01.764502 21845 net.cpp:84] Creating Layer inception_4e/3x3_reduce
I1218 23:42:01.764511 21845 net.cpp:380] inception_4e/3x3_reduce <- inception_4d/output_inception_4d/output_0_split_2
I1218 23:42:01.764521 21845 net.cpp:338] inception_4e/3x3_reduce -> inception_4e/3x3_reduce
I1218 23:42:01.764531 21845 net.cpp:113] Setting up inception_4e/3x3_reduce
I1218 23:42:01.765988 21845 net.cpp:120] Top shape: 50 160 14 14 (1568000)
I1218 23:42:01.766006 21845 layer_factory.hpp:74] Creating layer inception_4e/relu_3x3_reduce
I1218 23:42:01.766015 21845 net.cpp:84] Creating Layer inception_4e/relu_3x3_reduce
I1218 23:42:01.766021 21845 net.cpp:380] inception_4e/relu_3x3_reduce <- inception_4e/3x3_reduce
I1218 23:42:01.766027 21845 net.cpp:327] inception_4e/relu_3x3_reduce -> inception_4e/3x3_reduce (in-place)
I1218 23:42:01.766036 21845 net.cpp:113] Setting up inception_4e/relu_3x3_reduce
I1218 23:42:01.766111 21845 net.cpp:120] Top shape: 50 160 14 14 (1568000)
I1218 23:42:01.766130 21845 layer_factory.hpp:74] Creating layer inception_4e/3x3
I1218 23:42:01.766141 21845 net.cpp:84] Creating Layer inception_4e/3x3
I1218 23:42:01.766146 21845 net.cpp:380] inception_4e/3x3 <- inception_4e/3x3_reduce
I1218 23:42:01.766154 21845 net.cpp:338] inception_4e/3x3 -> inception_4e/3x3
I1218 23:42:01.766162 21845 net.cpp:113] Setting up inception_4e/3x3
I1218 23:42:01.772163 21845 net.cpp:120] Top shape: 50 320 14 14 (3136000)
I1218 23:42:01.772182 21845 layer_factory.hpp:74] Creating layer inception_4e/relu_3x3
I1218 23:42:01.772192 21845 net.cpp:84] Creating Layer inception_4e/relu_3x3
I1218 23:42:01.772197 21845 net.cpp:380] inception_4e/relu_3x3 <- inception_4e/3x3
I1218 23:42:01.772205 21845 net.cpp:327] inception_4e/relu_3x3 -> inception_4e/3x3 (in-place)
I1218 23:42:01.772213 21845 net.cpp:113] Setting up inception_4e/relu_3x3
I1218 23:42:01.772475 21845 net.cpp:120] Top shape: 50 320 14 14 (3136000)
I1218 23:42:01.772487 21845 layer_factory.hpp:74] Creating layer inception_4e/5x5_reduce
I1218 23:42:01.772497 21845 net.cpp:84] Creating Layer inception_4e/5x5_reduce
I1218 23:42:01.772503 21845 net.cpp:380] inception_4e/5x5_reduce <- inception_4d/output_inception_4d/output_0_split_3
I1218 23:42:01.772512 21845 net.cpp:338] inception_4e/5x5_reduce -> inception_4e/5x5_reduce
I1218 23:42:01.772522 21845 net.cpp:113] Setting up inception_4e/5x5_reduce
I1218 23:42:01.773157 21845 net.cpp:120] Top shape: 50 32 14 14 (313600)
I1218 23:42:01.773175 21845 layer_factory.hpp:74] Creating layer inception_4e/relu_5x5_reduce
I1218 23:42:01.773185 21845 net.cpp:84] Creating Layer inception_4e/relu_5x5_reduce
I1218 23:42:01.773190 21845 net.cpp:380] inception_4e/relu_5x5_reduce <- inception_4e/5x5_reduce
I1218 23:42:01.773197 21845 net.cpp:327] inception_4e/relu_5x5_reduce -> inception_4e/5x5_reduce (in-place)
I1218 23:42:01.773205 21845 net.cpp:113] Setting up inception_4e/relu_5x5_reduce
I1218 23:42:01.773284 21845 net.cpp:120] Top shape: 50 32 14 14 (313600)
I1218 23:42:01.773293 21845 layer_factory.hpp:74] Creating layer inception_4e/5x5
I1218 23:42:01.773303 21845 net.cpp:84] Creating Layer inception_4e/5x5
I1218 23:42:01.773308 21845 net.cpp:380] inception_4e/5x5 <- inception_4e/5x5_reduce
I1218 23:42:01.773318 21845 net.cpp:338] inception_4e/5x5 -> inception_4e/5x5
I1218 23:42:01.773325 21845 net.cpp:113] Setting up inception_4e/5x5
I1218 23:42:01.774978 21845 net.cpp:120] Top shape: 50 128 14 14 (1254400)
I1218 23:42:01.774994 21845 layer_factory.hpp:74] Creating layer inception_4e/relu_5x5
I1218 23:42:01.775004 21845 net.cpp:84] Creating Layer inception_4e/relu_5x5
I1218 23:42:01.775010 21845 net.cpp:380] inception_4e/relu_5x5 <- inception_4e/5x5
I1218 23:42:01.775018 21845 net.cpp:327] inception_4e/relu_5x5 -> inception_4e/5x5 (in-place)
I1218 23:42:01.775025 21845 net.cpp:113] Setting up inception_4e/relu_5x5
I1218 23:42:01.775100 21845 net.cpp:120] Top shape: 50 128 14 14 (1254400)
I1218 23:42:01.775109 21845 layer_factory.hpp:74] Creating layer inception_4e/pool
I1218 23:42:01.775115 21845 layer_factory.cpp:56] CUDNN does not support padding or multiple tops. Using Caffe's own pooling layer.
I1218 23:42:01.775123 21845 net.cpp:84] Creating Layer inception_4e/pool
I1218 23:42:01.775128 21845 net.cpp:380] inception_4e/pool <- inception_4d/output_inception_4d/output_0_split_4
I1218 23:42:01.775138 21845 net.cpp:338] inception_4e/pool -> inception_4e/pool
I1218 23:42:01.775146 21845 net.cpp:113] Setting up inception_4e/pool
I1218 23:42:01.775156 21845 net.cpp:120] Top shape: 50 528 14 14 (5174400)
I1218 23:42:01.775161 21845 layer_factory.hpp:74] Creating layer inception_4e/pool_proj
I1218 23:42:01.775169 21845 net.cpp:84] Creating Layer inception_4e/pool_proj
I1218 23:42:01.775176 21845 net.cpp:380] inception_4e/pool_proj <- inception_4e/pool
I1218 23:42:01.775184 21845 net.cpp:338] inception_4e/pool_proj -> inception_4e/pool_proj
I1218 23:42:01.775193 21845 net.cpp:113] Setting up inception_4e/pool_proj
I1218 23:42:01.776424 21845 net.cpp:120] Top shape: 50 128 14 14 (1254400)
I1218 23:42:01.776446 21845 layer_factory.hpp:74] Creating layer inception_4e/relu_pool_proj
I1218 23:42:01.776463 21845 net.cpp:84] Creating Layer inception_4e/relu_pool_proj
I1218 23:42:01.776468 21845 net.cpp:380] inception_4e/relu_pool_proj <- inception_4e/pool_proj
I1218 23:42:01.776476 21845 net.cpp:327] inception_4e/relu_pool_proj -> inception_4e/pool_proj (in-place)
I1218 23:42:01.776484 21845 net.cpp:113] Setting up inception_4e/relu_pool_proj
I1218 23:42:01.776559 21845 net.cpp:120] Top shape: 50 128 14 14 (1254400)
I1218 23:42:01.776566 21845 layer_factory.hpp:74] Creating layer inception_4e/output
I1218 23:42:01.776574 21845 net.cpp:84] Creating Layer inception_4e/output
I1218 23:42:01.776579 21845 net.cpp:380] inception_4e/output <- inception_4e/1x1
I1218 23:42:01.776585 21845 net.cpp:380] inception_4e/output <- inception_4e/3x3
I1218 23:42:01.776592 21845 net.cpp:380] inception_4e/output <- inception_4e/5x5
I1218 23:42:01.776597 21845 net.cpp:380] inception_4e/output <- inception_4e/pool_proj
I1218 23:42:01.776603 21845 net.cpp:338] inception_4e/output -> inception_4e/output
I1218 23:42:01.776612 21845 net.cpp:113] Setting up inception_4e/output
I1218 23:42:01.776620 21845 net.cpp:120] Top shape: 50 832 14 14 (8153600)
I1218 23:42:01.776625 21845 layer_factory.hpp:74] Creating layer pool4/3x3_s2
I1218 23:42:01.776634 21845 net.cpp:84] Creating Layer pool4/3x3_s2
I1218 23:42:01.776639 21845 net.cpp:380] pool4/3x3_s2 <- inception_4e/output
I1218 23:42:01.776646 21845 net.cpp:338] pool4/3x3_s2 -> pool4/3x3_s2
I1218 23:42:01.776654 21845 net.cpp:113] Setting up pool4/3x3_s2
I1218 23:42:01.776931 21845 net.cpp:120] Top shape: 50 832 7 7 (2038400)
I1218 23:42:01.776945 21845 layer_factory.hpp:74] Creating layer pool4/3x3_s2_pool4/3x3_s2_0_split
I1218 23:42:01.776953 21845 net.cpp:84] Creating Layer pool4/3x3_s2_pool4/3x3_s2_0_split
I1218 23:42:01.776958 21845 net.cpp:380] pool4/3x3_s2_pool4/3x3_s2_0_split <- pool4/3x3_s2
I1218 23:42:01.776968 21845 net.cpp:338] pool4/3x3_s2_pool4/3x3_s2_0_split -> pool4/3x3_s2_pool4/3x3_s2_0_split_0
I1218 23:42:01.776978 21845 net.cpp:338] pool4/3x3_s2_pool4/3x3_s2_0_split -> pool4/3x3_s2_pool4/3x3_s2_0_split_1
I1218 23:42:01.776985 21845 net.cpp:338] pool4/3x3_s2_pool4/3x3_s2_0_split -> pool4/3x3_s2_pool4/3x3_s2_0_split_2
I1218 23:42:01.777011 21845 net.cpp:338] pool4/3x3_s2_pool4/3x3_s2_0_split -> pool4/3x3_s2_pool4/3x3_s2_0_split_3
I1218 23:42:01.777019 21845 net.cpp:113] Setting up pool4/3x3_s2_pool4/3x3_s2_0_split
I1218 23:42:01.777027 21845 net.cpp:120] Top shape: 50 832 7 7 (2038400)
I1218 23:42:01.777032 21845 net.cpp:120] Top shape: 50 832 7 7 (2038400)
I1218 23:42:01.777039 21845 net.cpp:120] Top shape: 50 832 7 7 (2038400)
I1218 23:42:01.777045 21845 net.cpp:120] Top shape: 50 832 7 7 (2038400)
I1218 23:42:01.777050 21845 layer_factory.hpp:74] Creating layer inception_5a/1x1
I1218 23:42:01.777066 21845 net.cpp:84] Creating Layer inception_5a/1x1
I1218 23:42:01.777073 21845 net.cpp:380] inception_5a/1x1 <- pool4/3x3_s2_pool4/3x3_s2_0_split_0
I1218 23:42:01.777081 21845 net.cpp:338] inception_5a/1x1 -> inception_5a/1x1
I1218 23:42:01.777089 21845 net.cpp:113] Setting up inception_5a/1x1
I1218 23:42:01.780026 21845 net.cpp:120] Top shape: 50 256 7 7 (627200)
I1218 23:42:01.780043 21845 layer_factory.hpp:74] Creating layer inception_5a/relu_1x1
I1218 23:42:01.780050 21845 net.cpp:84] Creating Layer inception_5a/relu_1x1
I1218 23:42:01.780056 21845 net.cpp:380] inception_5a/relu_1x1 <- inception_5a/1x1
I1218 23:42:01.780066 21845 net.cpp:327] inception_5a/relu_1x1 -> inception_5a/1x1 (in-place)
I1218 23:42:01.780074 21845 net.cpp:113] Setting up inception_5a/relu_1x1
I1218 23:42:01.780148 21845 net.cpp:120] Top shape: 50 256 7 7 (627200)
I1218 23:42:01.780155 21845 layer_factory.hpp:74] Creating layer inception_5a/3x3_reduce
I1218 23:42:01.780166 21845 net.cpp:84] Creating Layer inception_5a/3x3_reduce
I1218 23:42:01.780171 21845 net.cpp:380] inception_5a/3x3_reduce <- pool4/3x3_s2_pool4/3x3_s2_0_split_1
I1218 23:42:01.780179 21845 net.cpp:338] inception_5a/3x3_reduce -> inception_5a/3x3_reduce
I1218 23:42:01.780200 21845 net.cpp:113] Setting up inception_5a/3x3_reduce
I1218 23:42:01.782212 21845 net.cpp:120] Top shape: 50 160 7 7 (392000)
I1218 23:42:01.782228 21845 layer_factory.hpp:74] Creating layer inception_5a/relu_3x3_reduce
I1218 23:42:01.782238 21845 net.cpp:84] Creating Layer inception_5a/relu_3x3_reduce
I1218 23:42:01.782243 21845 net.cpp:380] inception_5a/relu_3x3_reduce <- inception_5a/3x3_reduce
I1218 23:42:01.782250 21845 net.cpp:327] inception_5a/relu_3x3_reduce -> inception_5a/3x3_reduce (in-place)
I1218 23:42:01.782258 21845 net.cpp:113] Setting up inception_5a/relu_3x3_reduce
I1218 23:42:01.782338 21845 net.cpp:120] Top shape: 50 160 7 7 (392000)
I1218 23:42:01.782347 21845 layer_factory.hpp:74] Creating layer inception_5a/3x3
I1218 23:42:01.782356 21845 net.cpp:84] Creating Layer inception_5a/3x3
I1218 23:42:01.782361 21845 net.cpp:380] inception_5a/3x3 <- inception_5a/3x3_reduce
I1218 23:42:01.782371 21845 net.cpp:338] inception_5a/3x3 -> inception_5a/3x3
I1218 23:42:01.782380 21845 net.cpp:113] Setting up inception_5a/3x3
I1218 23:42:01.794739 21845 net.cpp:120] Top shape: 50 320 7 7 (784000)
I1218 23:42:01.794778 21845 layer_factory.hpp:74] Creating layer inception_5a/relu_3x3
I1218 23:42:01.794790 21845 net.cpp:84] Creating Layer inception_5a/relu_3x3
I1218 23:42:01.794802 21845 net.cpp:380] inception_5a/relu_3x3 <- inception_5a/3x3
I1218 23:42:01.794811 21845 net.cpp:327] inception_5a/relu_3x3 -> inception_5a/3x3 (in-place)
I1218 23:42:01.794819 21845 net.cpp:113] Setting up inception_5a/relu_3x3
I1218 23:42:01.794898 21845 net.cpp:120] Top shape: 50 320 7 7 (784000)
I1218 23:42:01.794905 21845 layer_factory.hpp:74] Creating layer inception_5a/5x5_reduce
I1218 23:42:01.794915 21845 net.cpp:84] Creating Layer inception_5a/5x5_reduce
I1218 23:42:01.794920 21845 net.cpp:380] inception_5a/5x5_reduce <- pool4/3x3_s2_pool4/3x3_s2_0_split_2
I1218 23:42:01.794931 21845 net.cpp:338] inception_5a/5x5_reduce -> inception_5a/5x5_reduce
I1218 23:42:01.794942 21845 net.cpp:113] Setting up inception_5a/5x5_reduce
I1218 23:42:01.795722 21845 net.cpp:120] Top shape: 50 32 7 7 (78400)
I1218 23:42:01.795738 21845 layer_factory.hpp:74] Creating layer inception_5a/relu_5x5_reduce
I1218 23:42:01.795749 21845 net.cpp:84] Creating Layer inception_5a/relu_5x5_reduce
I1218 23:42:01.795755 21845 net.cpp:380] inception_5a/relu_5x5_reduce <- inception_5a/5x5_reduce
I1218 23:42:01.795763 21845 net.cpp:327] inception_5a/relu_5x5_reduce -> inception_5a/5x5_reduce (in-place)
I1218 23:42:01.795770 21845 net.cpp:113] Setting up inception_5a/relu_5x5_reduce
I1218 23:42:01.796041 21845 net.cpp:120] Top shape: 50 32 7 7 (78400)
I1218 23:42:01.796053 21845 layer_factory.hpp:74] Creating layer inception_5a/5x5
I1218 23:42:01.796063 21845 net.cpp:84] Creating Layer inception_5a/5x5
I1218 23:42:01.796069 21845 net.cpp:380] inception_5a/5x5 <- inception_5a/5x5_reduce
I1218 23:42:01.796079 21845 net.cpp:338] inception_5a/5x5 -> inception_5a/5x5
I1218 23:42:01.796089 21845 net.cpp:113] Setting up inception_5a/5x5
I1218 23:42:01.797777 21845 net.cpp:120] Top shape: 50 128 7 7 (313600)
I1218 23:42:01.797796 21845 layer_factory.hpp:74] Creating layer inception_5a/relu_5x5
I1218 23:42:01.797803 21845 net.cpp:84] Creating Layer inception_5a/relu_5x5
I1218 23:42:01.797809 21845 net.cpp:380] inception_5a/relu_5x5 <- inception_5a/5x5
I1218 23:42:01.797817 21845 net.cpp:327] inception_5a/relu_5x5 -> inception_5a/5x5 (in-place)
I1218 23:42:01.797827 21845 net.cpp:113] Setting up inception_5a/relu_5x5
I1218 23:42:01.797914 21845 net.cpp:120] Top shape: 50 128 7 7 (313600)
I1218 23:42:01.797920 21845 layer_factory.hpp:74] Creating layer inception_5a/pool
I1218 23:42:01.797926 21845 layer_factory.cpp:56] CUDNN does not support padding or multiple tops. Using Caffe's own pooling layer.
I1218 23:42:01.797933 21845 net.cpp:84] Creating Layer inception_5a/pool
I1218 23:42:01.797941 21845 net.cpp:380] inception_5a/pool <- pool4/3x3_s2_pool4/3x3_s2_0_split_3
I1218 23:42:01.797950 21845 net.cpp:338] inception_5a/pool -> inception_5a/pool
I1218 23:42:01.797976 21845 net.cpp:113] Setting up inception_5a/pool
I1218 23:42:01.797987 21845 net.cpp:120] Top shape: 50 832 7 7 (2038400)
I1218 23:42:01.797992 21845 layer_factory.hpp:74] Creating layer inception_5a/pool_proj
I1218 23:42:01.798002 21845 net.cpp:84] Creating Layer inception_5a/pool_proj
I1218 23:42:01.798007 21845 net.cpp:380] inception_5a/pool_proj <- inception_5a/pool
I1218 23:42:01.798017 21845 net.cpp:338] inception_5a/pool_proj -> inception_5a/pool_proj
I1218 23:42:01.798027 21845 net.cpp:113] Setting up inception_5a/pool_proj
I1218 23:42:01.799753 21845 net.cpp:120] Top shape: 50 128 7 7 (313600)
I1218 23:42:01.799770 21845 layer_factory.hpp:74] Creating layer inception_5a/relu_pool_proj
I1218 23:42:01.799779 21845 net.cpp:84] Creating Layer inception_5a/relu_pool_proj
I1218 23:42:01.799785 21845 net.cpp:380] inception_5a/relu_pool_proj <- inception_5a/pool_proj
I1218 23:42:01.799793 21845 net.cpp:327] inception_5a/relu_pool_proj -> inception_5a/pool_proj (in-place)
I1218 23:42:01.799800 21845 net.cpp:113] Setting up inception_5a/relu_pool_proj
I1218 23:42:01.799907 21845 net.cpp:120] Top shape: 50 128 7 7 (313600)
I1218 23:42:01.799921 21845 layer_factory.hpp:74] Creating layer inception_5a/output
I1218 23:42:01.799934 21845 net.cpp:84] Creating Layer inception_5a/output
I1218 23:42:01.799944 21845 net.cpp:380] inception_5a/output <- inception_5a/1x1
I1218 23:42:01.799957 21845 net.cpp:380] inception_5a/output <- inception_5a/3x3
I1218 23:42:01.799967 21845 net.cpp:380] inception_5a/output <- inception_5a/5x5
I1218 23:42:01.799978 21845 net.cpp:380] inception_5a/output <- inception_5a/pool_proj
I1218 23:42:01.799989 21845 net.cpp:338] inception_5a/output -> inception_5a/output
I1218 23:42:01.800004 21845 net.cpp:113] Setting up inception_5a/output
I1218 23:42:01.800017 21845 net.cpp:120] Top shape: 50 832 7 7 (2038400)
I1218 23:42:01.800026 21845 layer_factory.hpp:74] Creating layer inception_5a/output_inception_5a/output_0_split
I1218 23:42:01.800041 21845 net.cpp:84] Creating Layer inception_5a/output_inception_5a/output_0_split
I1218 23:42:01.800050 21845 net.cpp:380] inception_5a/output_inception_5a/output_0_split <- inception_5a/output
I1218 23:42:01.800060 21845 net.cpp:338] inception_5a/output_inception_5a/output_0_split -> inception_5a/output_inception_5a/output_0_split_0
I1218 23:42:01.800074 21845 net.cpp:338] inception_5a/output_inception_5a/output_0_split -> inception_5a/output_inception_5a/output_0_split_1
I1218 23:42:01.800087 21845 net.cpp:338] inception_5a/output_inception_5a/output_0_split -> inception_5a/output_inception_5a/output_0_split_2
I1218 23:42:01.800102 21845 net.cpp:338] inception_5a/output_inception_5a/output_0_split -> inception_5a/output_inception_5a/output_0_split_3
I1218 23:42:01.800114 21845 net.cpp:113] Setting up inception_5a/output_inception_5a/output_0_split
I1218 23:42:01.800127 21845 net.cpp:120] Top shape: 50 832 7 7 (2038400)
I1218 23:42:01.800137 21845 net.cpp:120] Top shape: 50 832 7 7 (2038400)
I1218 23:42:01.800145 21845 net.cpp:120] Top shape: 50 832 7 7 (2038400)
I1218 23:42:01.800154 21845 net.cpp:120] Top shape: 50 832 7 7 (2038400)
I1218 23:42:01.800163 21845 layer_factory.hpp:74] Creating layer inception_5b/1x1
I1218 23:42:01.800174 21845 net.cpp:84] Creating Layer inception_5b/1x1
I1218 23:42:01.800182 21845 net.cpp:380] inception_5b/1x1 <- inception_5a/output_inception_5a/output_0_split_0
I1218 23:42:01.800197 21845 net.cpp:338] inception_5b/1x1 -> inception_5b/1x1
I1218 23:42:01.800209 21845 net.cpp:113] Setting up inception_5b/1x1
I1218 23:42:01.804500 21845 net.cpp:120] Top shape: 50 384 7 7 (940800)
I1218 23:42:01.804520 21845 layer_factory.hpp:74] Creating layer inception_5b/relu_1x1
I1218 23:42:01.804528 21845 net.cpp:84] Creating Layer inception_5b/relu_1x1
I1218 23:42:01.804534 21845 net.cpp:380] inception_5b/relu_1x1 <- inception_5b/1x1
I1218 23:42:01.804549 21845 net.cpp:327] inception_5b/relu_1x1 -> inception_5b/1x1 (in-place)
I1218 23:42:01.804558 21845 net.cpp:113] Setting up inception_5b/relu_1x1
I1218 23:42:01.804644 21845 net.cpp:120] Top shape: 50 384 7 7 (940800)
I1218 23:42:01.804661 21845 layer_factory.hpp:74] Creating layer inception_5b/3x3_reduce
I1218 23:42:01.804671 21845 net.cpp:84] Creating Layer inception_5b/3x3_reduce
I1218 23:42:01.804675 21845 net.cpp:380] inception_5b/3x3_reduce <- inception_5a/output_inception_5a/output_0_split_1
I1218 23:42:01.804689 21845 net.cpp:338] inception_5b/3x3_reduce -> inception_5b/3x3_reduce
I1218 23:42:01.804699 21845 net.cpp:113] Setting up inception_5b/3x3_reduce
I1218 23:42:01.807024 21845 net.cpp:120] Top shape: 50 192 7 7 (470400)
I1218 23:42:01.807041 21845 layer_factory.hpp:74] Creating layer inception_5b/relu_3x3_reduce
I1218 23:42:01.807050 21845 net.cpp:84] Creating Layer inception_5b/relu_3x3_reduce
I1218 23:42:01.807056 21845 net.cpp:380] inception_5b/relu_3x3_reduce <- inception_5b/3x3_reduce
I1218 23:42:01.807063 21845 net.cpp:327] inception_5b/relu_3x3_reduce -> inception_5b/3x3_reduce (in-place)
I1218 23:42:01.807073 21845 net.cpp:113] Setting up inception_5b/relu_3x3_reduce
I1218 23:42:01.807345 21845 net.cpp:120] Top shape: 50 192 7 7 (470400)
I1218 23:42:01.807358 21845 layer_factory.hpp:74] Creating layer inception_5b/3x3
I1218 23:42:01.807368 21845 net.cpp:84] Creating Layer inception_5b/3x3
I1218 23:42:01.807374 21845 net.cpp:380] inception_5b/3x3 <- inception_5b/3x3_reduce
I1218 23:42:01.807382 21845 net.cpp:338] inception_5b/3x3 -> inception_5b/3x3
I1218 23:42:01.807391 21845 net.cpp:113] Setting up inception_5b/3x3
I1218 23:42:01.818573 21845 net.cpp:120] Top shape: 50 384 7 7 (940800)
I1218 23:42:01.818605 21845 layer_factory.hpp:74] Creating layer inception_5b/relu_3x3
I1218 23:42:01.818624 21845 net.cpp:84] Creating Layer inception_5b/relu_3x3
I1218 23:42:01.818635 21845 net.cpp:380] inception_5b/relu_3x3 <- inception_5b/3x3
I1218 23:42:01.818650 21845 net.cpp:327] inception_5b/relu_3x3 -> inception_5b/3x3 (in-place)
I1218 23:42:01.818665 21845 net.cpp:113] Setting up inception_5b/relu_3x3
I1218 23:42:01.818775 21845 net.cpp:120] Top shape: 50 384 7 7 (940800)
I1218 23:42:01.818788 21845 layer_factory.hpp:74] Creating layer inception_5b/5x5_reduce
I1218 23:42:01.818807 21845 net.cpp:84] Creating Layer inception_5b/5x5_reduce
I1218 23:42:01.818817 21845 net.cpp:380] inception_5b/5x5_reduce <- inception_5a/output_inception_5a/output_0_split_2
I1218 23:42:01.818832 21845 net.cpp:338] inception_5b/5x5_reduce -> inception_5b/5x5_reduce
I1218 23:42:01.818845 21845 net.cpp:113] Setting up inception_5b/5x5_reduce
I1218 23:42:01.819794 21845 net.cpp:120] Top shape: 50 48 7 7 (117600)
I1218 23:42:01.819811 21845 layer_factory.hpp:74] Creating layer inception_5b/relu_5x5_reduce
I1218 23:42:01.819820 21845 net.cpp:84] Creating Layer inception_5b/relu_5x5_reduce
I1218 23:42:01.819826 21845 net.cpp:380] inception_5b/relu_5x5_reduce <- inception_5b/5x5_reduce
I1218 23:42:01.819836 21845 net.cpp:327] inception_5b/relu_5x5_reduce -> inception_5b/5x5_reduce (in-place)
I1218 23:42:01.819845 21845 net.cpp:113] Setting up inception_5b/relu_5x5_reduce
I1218 23:42:01.819923 21845 net.cpp:120] Top shape: 50 48 7 7 (117600)
I1218 23:42:01.819931 21845 layer_factory.hpp:74] Creating layer inception_5b/5x5
I1218 23:42:01.819941 21845 net.cpp:84] Creating Layer inception_5b/5x5
I1218 23:42:01.819946 21845 net.cpp:380] inception_5b/5x5 <- inception_5b/5x5_reduce
I1218 23:42:01.819955 21845 net.cpp:338] inception_5b/5x5 -> inception_5b/5x5
I1218 23:42:01.819964 21845 net.cpp:113] Setting up inception_5b/5x5
I1218 23:42:01.822212 21845 net.cpp:120] Top shape: 50 128 7 7 (313600)
I1218 23:42:01.822230 21845 layer_factory.hpp:74] Creating layer inception_5b/relu_5x5
I1218 23:42:01.822240 21845 net.cpp:84] Creating Layer inception_5b/relu_5x5
I1218 23:42:01.822247 21845 net.cpp:380] inception_5b/relu_5x5 <- inception_5b/5x5
I1218 23:42:01.822254 21845 net.cpp:327] inception_5b/relu_5x5 -> inception_5b/5x5 (in-place)
I1218 23:42:01.822263 21845 net.cpp:113] Setting up inception_5b/relu_5x5
I1218 23:42:01.822533 21845 net.cpp:120] Top shape: 50 128 7 7 (313600)
I1218 23:42:01.822551 21845 layer_factory.hpp:74] Creating layer inception_5b/pool
I1218 23:42:01.822566 21845 layer_factory.cpp:56] CUDNN does not support padding or multiple tops. Using Caffe's own pooling layer.
I1218 23:42:01.822574 21845 net.cpp:84] Creating Layer inception_5b/pool
I1218 23:42:01.822581 21845 net.cpp:380] inception_5b/pool <- inception_5a/output_inception_5a/output_0_split_3
I1218 23:42:01.822590 21845 net.cpp:338] inception_5b/pool -> inception_5b/pool
I1218 23:42:01.822600 21845 net.cpp:113] Setting up inception_5b/pool
I1218 23:42:01.822610 21845 net.cpp:120] Top shape: 50 832 7 7 (2038400)
I1218 23:42:01.822615 21845 layer_factory.hpp:74] Creating layer inception_5b/pool_proj
I1218 23:42:01.822624 21845 net.cpp:84] Creating Layer inception_5b/pool_proj
I1218 23:42:01.822631 21845 net.cpp:380] inception_5b/pool_proj <- inception_5b/pool
I1218 23:42:01.822639 21845 net.cpp:338] inception_5b/pool_proj -> inception_5b/pool_proj
I1218 23:42:01.822649 21845 net.cpp:113] Setting up inception_5b/pool_proj
I1218 23:42:01.824342 21845 net.cpp:120] Top shape: 50 128 7 7 (313600)
I1218 23:42:01.824358 21845 layer_factory.hpp:74] Creating layer inception_5b/relu_pool_proj
I1218 23:42:01.824368 21845 net.cpp:84] Creating Layer inception_5b/relu_pool_proj
I1218 23:42:01.824374 21845 net.cpp:380] inception_5b/relu_pool_proj <- inception_5b/pool_proj
I1218 23:42:01.824381 21845 net.cpp:327] inception_5b/relu_pool_proj -> inception_5b/pool_proj (in-place)
I1218 23:42:01.824390 21845 net.cpp:113] Setting up inception_5b/relu_pool_proj
I1218 23:42:01.824470 21845 net.cpp:120] Top shape: 50 128 7 7 (313600)
I1218 23:42:01.824477 21845 layer_factory.hpp:74] Creating layer inception_5b/output
I1218 23:42:01.824486 21845 net.cpp:84] Creating Layer inception_5b/output
I1218 23:42:01.824492 21845 net.cpp:380] inception_5b/output <- inception_5b/1x1
I1218 23:42:01.824498 21845 net.cpp:380] inception_5b/output <- inception_5b/3x3
I1218 23:42:01.824504 21845 net.cpp:380] inception_5b/output <- inception_5b/5x5
I1218 23:42:01.824511 21845 net.cpp:380] inception_5b/output <- inception_5b/pool_proj
I1218 23:42:01.824518 21845 net.cpp:338] inception_5b/output -> inception_5b/output
I1218 23:42:01.824527 21845 net.cpp:113] Setting up inception_5b/output
I1218 23:42:01.824534 21845 net.cpp:120] Top shape: 50 1024 7 7 (2508800)
I1218 23:42:01.824539 21845 layer_factory.hpp:74] Creating layer pool5/7x7_s1
I1218 23:42:01.824548 21845 net.cpp:84] Creating Layer pool5/7x7_s1
I1218 23:42:01.824554 21845 net.cpp:380] pool5/7x7_s1 <- inception_5b/output
I1218 23:42:01.824561 21845 net.cpp:338] pool5/7x7_s1 -> pool5/7x7_s1
I1218 23:42:01.824569 21845 net.cpp:113] Setting up pool5/7x7_s1
I1218 23:42:01.824646 21845 net.cpp:120] Top shape: 50 1024 1 1 (51200)
I1218 23:42:01.824654 21845 layer_factory.hpp:74] Creating layer pool5/drop_7x7_s1
I1218 23:42:01.824661 21845 net.cpp:84] Creating Layer pool5/drop_7x7_s1
I1218 23:42:01.824666 21845 net.cpp:380] pool5/drop_7x7_s1 <- pool5/7x7_s1
I1218 23:42:01.824673 21845 net.cpp:327] pool5/drop_7x7_s1 -> pool5/7x7_s1 (in-place)
I1218 23:42:01.824681 21845 net.cpp:113] Setting up pool5/drop_7x7_s1
I1218 23:42:01.824688 21845 net.cpp:120] Top shape: 50 1024 1 1 (51200)
I1218 23:42:01.824693 21845 layer_factory.hpp:74] Creating layer loss3/classifier_kaggle
I1218 23:42:01.824702 21845 net.cpp:84] Creating Layer loss3/classifier_kaggle
I1218 23:42:01.824707 21845 net.cpp:380] loss3/classifier_kaggle <- pool5/7x7_s1
I1218 23:42:01.824715 21845 net.cpp:338] loss3/classifier_kaggle -> loss3/classifier_kaggle
I1218 23:42:01.824724 21845 net.cpp:113] Setting up loss3/classifier_kaggle
I1218 23:42:01.830147 21845 net.cpp:120] Top shape: 50 447 (22350)
I1218 23:42:01.830164 21845 layer_factory.hpp:74] Creating layer loss3/classifier_kaggle_loss3/classifier_kaggle_0_split
I1218 23:42:01.830173 21845 net.cpp:84] Creating Layer loss3/classifier_kaggle_loss3/classifier_kaggle_0_split
I1218 23:42:01.830179 21845 net.cpp:380] loss3/classifier_kaggle_loss3/classifier_kaggle_0_split <- loss3/classifier_kaggle
I1218 23:42:01.830195 21845 net.cpp:338] loss3/classifier_kaggle_loss3/classifier_kaggle_0_split -> loss3/classifier_kaggle_loss3/classifier_kaggle_0_split_0
I1218 23:42:01.830214 21845 net.cpp:338] loss3/classifier_kaggle_loss3/classifier_kaggle_0_split -> loss3/classifier_kaggle_loss3/classifier_kaggle_0_split_1
I1218 23:42:01.830221 21845 net.cpp:338] loss3/classifier_kaggle_loss3/classifier_kaggle_0_split -> loss3/classifier_kaggle_loss3/classifier_kaggle_0_split_2
I1218 23:42:01.830229 21845 net.cpp:113] Setting up loss3/classifier_kaggle_loss3/classifier_kaggle_0_split
I1218 23:42:01.830237 21845 net.cpp:120] Top shape: 50 447 (22350)
I1218 23:42:01.830242 21845 net.cpp:120] Top shape: 50 447 (22350)
I1218 23:42:01.830247 21845 net.cpp:120] Top shape: 50 447 (22350)
I1218 23:42:01.830252 21845 layer_factory.hpp:74] Creating layer loss3/loss3
I1218 23:42:01.830261 21845 net.cpp:84] Creating Layer loss3/loss3
I1218 23:42:01.830266 21845 net.cpp:380] loss3/loss3 <- loss3/classifier_kaggle_loss3/classifier_kaggle_0_split_0
I1218 23:42:01.830273 21845 net.cpp:380] loss3/loss3 <- label_data_1_split_6
I1218 23:42:01.830281 21845 net.cpp:338] loss3/loss3 -> loss3/loss3
…
