…
I1218 22:39:23.753087 29703 net.cpp:257] The NetState phase (0) differed from the phase (1) specified by a rule in layer loss3/top-5
I1218 22:39:23.755261 29703 net.cpp:42] Initializing net from parameters: 
name: "MYNET"
state {
  phase: TRAIN
}
layer {
  name: "data"
  type: "ImageData"
  top: "data"
  top: "label"
  include {
    phase: TRAIN
  }
  transform_param {
    mirror: false
    crop_size: 224
    mean_value: 129
    mean_value: 129
    mean_value: 129
  }
  image_data_param {
    source: "/home/coldmanck/kaggle/label_train_full.txt"
    batch_size: 80
    shuffle: true
  }
}
layer {
  name: "conv1/7x7_s2"
  type: "Convolution"
  bottom: "data"
  top: "conv1/7x7_s2"
  param {
    lr_mult: 1
    decay_mult: 1
  }
  param {
    lr_mult: 2
    decay_mult: 0
  }
  convolution_param {
    num_output: 64
    pad: 3
    kernel_size: 7
    stride: 2
    weight_filler {
      type: "xavier"
    }
    bias_filler {
      type: "constant"
      value: 0.2
    }
  }
}
layer {
  name: "conv1/relu_7x7"
  type: "ReLU"
  bottom: "conv1/7x7_s2"
  top: "conv1/7x7_s2"
}
layer {
  name: "pool1/3x3_s2"
  type: "Pooling"
  bottom: "conv1/7x7_s2"
  top: "pool1/3x3_s2"
  pooling_param {
    pool: MAX
    kernel_size: 3
    stride: 2
  }
}
layer {
  name: "pool1/norm1"
  type: "LRN"
  bottom: "pool1/3x3_s2"
  top: "pool1/norm1"
  lrn_param {
    local_size: 5
    alpha: 0.0001
    beta: 0.75
  }
}
layer {
  name: "conv2/3x3_reduce"
  type: "Convolution"
  bottom: "pool1/norm1"
  top: "conv2/3x3_reduce"
  param {
    lr_mult: 1
    decay_mult: 1
  }
  param {
    lr_mult: 2
    decay_mult: 0
  }
  convolution_param {
    num_output: 64
    kernel_size: 1
    weight_filler {
      type: "xavier"
    }
    bias_filler {
      type: "constant"
      value: 0.2
    }
  }
}
layer {
  name: "conv2/relu_3x3_reduce"
  type: "ReLU"
  bottom: "conv2/3x3_reduce"
  top: "conv2/3x3_reduce"
}
layer {
  name: "conv2/3x3"
  type: "Convolution"
  bottom: "conv2/3x3_reduce"
  top: "conv2/3x3"
  param {
    lr_mult: 1
    decay_mult: 1
  }
  param {
    lr_mult: 2
    decay_mult: 0
  }
  convolution_param {
    num_output: 192
    pad: 1
    kernel_size: 3
    weight_filler {
      type: "xavier"
    }
    bias_filler {
      type: "constant"
      value: 0.2
    }
  }
}
layer {
  name: "conv2/relu_3x3"
  type: "ReLU"
  bottom: "conv2/3x3"
  top: "conv2/3x3"
}
layer {
  name: "conv2/norm2"
  type: "LRN"
  bottom: "conv2/3x3"
  top: "conv2/norm2"
  lrn_param {
    local_size: 5
    alpha: 0.0001
    beta: 0.75
  }
}
layer {
  name: "pool2/3x3_s2"
  type: "Pooling"
  bottom: "conv2/norm2"
  top: "pool2/3x3_s2"
  pooling_param {
    pool: MAX
    kernel_size: 3
    stride: 2
  }
}
layer {
  name: "inception_3a/1x1"
  type: "Convolution"
  bottom: "pool2/3x3_s2"
  top: "inception_3a/1x1"
  param {
    lr_mult: 1
    decay_mult: 1
  }
  param {
    lr_mult: 2
    decay_mult: 0
  }
  convolution_param {
    num_output: 64
    kernel_size: 1
    weight_filler {
      type: "xavier"
    }
    bias_filler {
      type: "constant"
      value: 0.2
    }
  }
}
layer {
  name: "inception_3a/relu_1x1"
  type: "ReLU"
  bottom: "inception_3a/1x1"
  top: "inception_3a/1x1"
}
layer {
  name: "inception_3a/3x3_reduce"
  type: "Convolution"
  bottom: "pool2/3x3_s2"
  top: "inception_3a/3x3_reduce"
  param {
    lr_mult: 1
    decay_mult: 1
  }
  param {
    lr_mult: 2
    decay_mult: 0
  }
  convolution_param {
    num_output: 96
    kernel_size: 1
    weight_filler {
      type: "xavier"
    }
    bias_filler {
      type: "constant"
      value: 0.2
    }
  }
}
layer {
  name: "inception_3a/relu_3x3_reduce"
  type: "ReLU"
  bottom: "inception_3a/3x3_reduce"
  top: "inception_3a/3x3_reduce"
}
layer {
  name: "inception_3a/3x3"
  type: "Convolution"
  bottom: "inception_3a/3x3_reduce"
  top: "inception_3a/3x3"
  param {
    lr_mult: 1
    decay_mult: 1
  }
  param {
    lr_mult: 2
    decay_mult: 0
  }
  convolution_param {
    num_output: 128
    pad: 1
    kernel_size: 3
    weight_filler {
      type: "xavier"
    }
    bias_filler {
      type: "constant"
      value: 0.2
    }
  }
}
layer {
  name: "inception_3a/relu_3x3"
  type: "ReLU"
  bottom: "inception_3a/3x3"
  top: "inception_3a/3x3"
}
layer {
  name: "inception_3a/5x5_reduce"
  type: "Convolution"
  bottom: "pool2/3x3_s2"
  top: "inception_3a/5x5_reduce"
  param {
    lr_mult: 1
    decay_mult: 1
  }
  param {
    lr_mult: 2
    decay_mult: 0
  }
  convolution_param {
    num_output: 16
    kernel_size: 1
    weight_filler {
      type: "xavier"
    }
    bias_filler {
      type: "constant"
      value: 0.2
    }
  }
}
layer {
  name: "inception_3a/relu_5x5_reduce"
  type: "ReLU"
  bottom: "inception_3a/5x5_reduce"
  top: "inception_3a/5x5_reduce"
}
layer {
  name: "inception_3a/5x5"
  type: "Convolution"
  bottom: "inception_3a/5x5_reduce"
  top: "inception_3a/5x5"
  param {
    lr_mult: 1
    decay_mult: 1
  }
  param {
    lr_mult: 2
    decay_mult: 0
  }
  convolution_param {
    num_output: 32
    pad: 2
    kernel_size: 5
    weight_filler {
      type: "xavier"
    }
    bias_filler {
      type: "constant"
      value: 0.2
    }
  }
}
layer {
  name: "inception_3a/relu_5x5"
  type: "ReLU"
  bottom: "inception_3a/5x5"
  top: "inception_3a/5x5"
}
layer {
  name: "inception_3a/pool"
  type: "Pooling"
  bottom: "pool2/3x3_s2"
  top: "inception_3a/pool"
  pooling_param {
    pool: MAX
    kernel_size: 3
    stride: 1
    pad: 1
  }
}
layer {
  name: "inception_3a/pool_proj"
  type: "Convolution"
  bottom: "inception_3a/pool"
  top: "inception_3a/pool_proj"
  param {
    lr_mult: 1
    decay_mult: 1
  }
  param {
    lr_mult: 2
    decay_mult: 0
  }
  convolution_param {
    num_output: 32
    kernel_size: 1
    weight_filler {
      type: "xavier"
    }
    bias_filler {
      type: "constant"
      value: 0.2
    }
  }
}
layer {
  name: "inception_3a/relu_pool_proj"
  type: "ReLU"
  bottom: "inception_3a/pool_proj"
  top: "inception_3a/pool_proj"
}
layer {
  name: "inception_3a/output"
  type: "Concat"
  bottom: "inception_3a/1x1"
  bottom: "inception_3a/3x3"
  bottom: "inception_3a/5x5"
  bottom: "inception_3a/pool_proj"
  top: "inception_3a/output"
}
layer {
  name: "inception_3b/1x1"
  type: "Convolution"
  bottom: "inception_3a/output"
  top: "inception_3b/1x1"
  param {
    lr_mult: 1
    decay_mult: 1
  }
  param {
    lr_mult: 2
    decay_mult: 0
  }
  convolution_param {
    num_output: 128
    kernel_size: 1
    weight_filler {
      type: "xavier"
    }
    bias_filler {
      type: "constant"
      value: 0.2
    }
  }
}
layer {
  name: "inception_3b/relu_1x1"
  type: "ReLU"
  bottom: "inception_3b/1x1"
  top: "inception_3b/1x1"
}
layer {
  name: "inception_3b/3x3_reduce"
  type: "Convolution"
  bottom: "inception_3a/output"
  top: "inception_3b/3x3_reduce"
  param {
    lr_mult: 1
    decay_mult: 1
  }
  param {
    lr_mult: 2
    decay_mult: 0
  }
  convolution_param {
    num_output: 128
    kernel_size: 1
    weight_filler {
      type: "xavier"
    }
    bias_filler {
      type: "constant"
      value: 0.2
    }
  }
}
layer {
  name: "inception_3b/relu_3x3_reduce"
  type: "ReLU"
  bottom: "inception_3b/3x3_reduce"
  top: "inception_3b/3x3_reduce"
}
layer {
  name: "inception_3b/3x3"
  type: "Convolution"
  bottom: "inception_3b/3x3_reduce"
  top: "inception_3b/3x3"
  param {
    lr_mult: 1
    decay_mult: 1
  }
  param {
    lr_mult: 2
    decay_mult: 0
  }
  convolution_param {
    num_output: 192
    pad: 1
    kernel_size: 3
    weight_filler {
      type: "xavier"
    }
    bias_filler {
      type: "constant"
      value: 0.2
    }
  }
}
layer {
  name: "inception_3b/relu_3x3"
  type: "ReLU"
  bottom: "inception_3b/3x3"
  top: "inception_3b/3x3"
}
layer {
  name: "inception_3b/5x5_reduce"
  type: "Convolution"
  bottom: "inception_3a/output"
  top: "inception_3b/5x5_reduce"
  param {
    lr_mult: 1
    decay_mult: 1
  }
  param {
    lr_mult: 2
    decay_mult: 0
  }
  convolution_param {
    num_output: 32
    kernel_size: 1
    weight_filler {
      type: "xavier"
    }
    bias_filler {
      type: "constant"
      value: 0.2
    }
  }
}
layer {
  name: "inception_3b/relu_5x5_reduce"
  type: "ReLU"
  bottom: "inception_3b/5x5_reduce"
  top: "inception_3b/5x5_reduce"
}
layer {
  name: "inception_3b/5x5"
  type: "Convolution"
  bottom: "inception_3b/5x5_reduce"
  top: "inception_3b/5x5"
  param {
    lr_mult: 1
    decay_mult: 1
  }
  param {
    lr_mult: 2
    decay_mult: 0
  }
  convolution_param {
    num_output: 96
    pad: 2
    kernel_size: 5
    weight_filler {
      type: "xavier"
    }
    bias_filler {
      type: "constant"
      value: 0.2
    }
  }
}
layer {
  name: "inception_3b/relu_5x5"
  type: "ReLU"
  bottom: "inception_3b/5x5"
  top: "inception_3b/5x5"
}
layer {
  name: "inception_3b/pool"
  type: "Pooling"
  bottom: "inception_3a/output"
  top: "inception_3b/pool"
  pooling_param {
    pool: MAX
    kernel_size: 3
    stride: 1
    pad: 1
  }
}
layer {
  name: "inception_3b/pool_proj"
  type: "Convolution"
  bottom: "inception_3b/pool"
  top: "inception_3b/pool_proj"
  param {
    lr_mult: 1
    decay_mult: 1
  }
  param {
    lr_mult: 2
    decay_mult: 0
  }
  convolution_param {
    num_output: 64
    kernel_size: 1
    weight_filler {
      type: "xavier"
    }
    bias_filler {
      type: "constant"
      value: 0.2
    }
  }
}
layer {
  name: "inception_3b/relu_pool_proj"
  type: "ReLU"
  bottom: "inception_3b/pool_proj"
  top: "inception_3b/pool_proj"
}
layer {
  name: "inception_3b/output"
  type: "Concat"
  bottom: "inception_3b/1x1"
  bottom: "inception_3b/3x3"
  bottom: "inception_3b/5x5"
  bottom: "inception_3b/pool_proj"
  top: "inception_3b/output"
}
layer {
  name: "pool3/3x3_s2"
  type: "Pooling"
  bottom: "inception_3b/output"
  top: "pool3/3x3_s2"
  pooling_param {
    pool: MAX
    kernel_size: 3
    stride: 2
  }
}
layer {
  name: "inception_4a/1x1"
  type: "Convolution"
  bottom: "pool3/3x3_s2"
  top: "inception_4a/1x1"
  param {
    lr_mult: 1
    decay_mult: 1
  }
  param {
    lr_mult: 2
    decay_mult: 0
  }
  convolution_param {
    num_output: 192
    kernel_size: 1
    weight_filler {
      type: "xavier"
    }
    bias_filler {
      type: "constant"
      value: 0.2
    }
  }
}
layer {
  name: "inception_4a/relu_1x1"
  type: "ReLU"
  bottom: "inception_4a/1x1"
  top: "inception_4a/1x1"
}
layer {
  name: "inception_4a/3x3_reduce"
  type: "Convolution"
  bottom: "pool3/3x3_s2"
  top: "inception_4a/3x3_reduce"
  param {
    lr_mult: 1
    decay_mult: 1
  }
  param {
    lr_mult: 2
    decay_mult: 0
  }
  convolution_param {
    num_output: 96
    kernel_size: 1
    weight_filler {
      type: "xavier"
    }
    bias_filler {
      type: "constant"
      value: 0.2
    }
  }
}
layer {
  name: "inception_4a/relu_3x3_reduce"
  type: "ReLU"
  bottom: "inception_4a/3x3_reduce"
  top: "inception_4a/3x3_reduce"
}
layer {
  name: "inception_4a/3x3"
  type: "Convolution"
  bottom: "inception_4a/3x3_reduce"
  top: "inception_4a/3x3"
  param {
    lr_mult: 1
    decay_mult: 1
  }
  param {
    lr_mult: 2
    decay_mult: 0
  }
  convolution_param {
    num_output: 208
    pad: 1
    kernel_size: 3
    weight_filler {
      type: "xavier"
    }
    bias_filler {
      type: "constant"
      value: 0.2
    }
  }
}
layer {
  name: "inception_4a/relu_3x3"
  type: "ReLU"
  bottom: "inception_4a/3x3"
  top: "inception_4a/3x3"
}
layer {
  name: "inception_4a/5x5_reduce"
  type: "Convolution"
  bottom: "pool3/3x3_s2"
  top: "inception_4a/5x5_reduce"
  param {
    lr_mult: 1
    decay_mult: 1
  }
  param {
    lr_mult: 2
    decay_mult: 0
  }
  convolution_param {
    num_output: 16
    kernel_size: 1
    weight_filler {
      type: "xavier"
    }
    bias_filler {
      type: "constant"
      value: 0.2
    }
  }
}
layer {
  name: "inception_4a/relu_5x5_reduce"
  type: "ReLU"
  bottom: "inception_4a/5x5_reduce"
  top: "inception_4a/5x5_reduce"
}
layer {
  name: "inception_4a/5x5"
  type: "Convolution"
  bottom: "inception_4a/5x5_reduce"
  top: "inception_4a/5x5"
  param {
    lr_mult: 1
    decay_mult: 1
  }
  param {
    lr_mult: 2
    decay_mult: 0
  }
  convolution_param {
    num_output: 48
    pad: 2
    kernel_size: 5
    weight_filler {
      type: "xavier"
    }
    bias_filler {
      type: "constant"
      value: 0.2
    }
  }
}
layer {
  name: "inception_4a/relu_5x5"
  type: "ReLU"
  bottom: "inception_4a/5x5"
  top: "inception_4a/5x5"
}
layer {
  name: "inception_4a/pool"
  type: "Pooling"
  bottom: "pool3/3x3_s2"
  top: "inception_4a/pool"
  pooling_param {
    pool: MAX
    kernel_size: 3
    stride: 1
    pad: 1
  }
}
layer {
  name: "inception_4a/pool_proj"
  type: "Convolution"
  bottom: "inception_4a/pool"
  top: "inception_4a/pool_proj"
  param {
    lr_mult: 1
    decay_mult: 1
  }
  param {
    lr_mult: 2
    decay_mult: 0
  }
  convolution_param {
    num_output: 64
    kernel_size: 1
    weight_filler {
      type: "xavier"
    }
    bias_filler {
      type: "constant"
      value: 0.2
    }
  }
}
layer {
  name: "inception_4a/relu_pool_proj"
  type: "ReLU"
  bottom: "inception_4a/pool_proj"
  top: "inception_4a/pool_proj"
}
layer {
  name: "inception_4a/output"
  type: "Concat"
  bottom: "inception_4a/1x1"
  bottom: "inception_4a/3x3"
  bottom: "inception_4a/5x5"
  bottom: "inception_4a/pool_proj"
  top: "inception_4a/output"
}
layer {
  name: "loss1/ave_pool"
  type: "Pooling"
  bottom: "inception_4a/output"
  top: "loss1/ave_pool"
  pooling_param {
    pool: AVE
    kernel_size: 5
    stride: 3
  }
}
layer {
  name: "loss1/conv"
  type: "Convolution"
  bottom: "loss1/ave_pool"
  top: "loss1/conv"
  param {
    lr_mult: 1
    decay_mult: 1
  }
  param {
    lr_mult: 2
    decay_mult: 0
  }
  convolution_param {
    num_output: 128
    kernel_size: 1
    weight_filler {
      type: "xavier"
    }
    bias_filler {
      type: "constant"
      value: 0.2
    }
  }
}
layer {
  name: "loss1/relu_conv"
  type: "ReLU"
  bottom: "loss1/conv"
  top: "loss1/conv"
}
layer {
  name: "loss1/fc"
  type: "InnerProduct"
  bottom: "loss1/conv"
  top: "loss1/fc"
  param {
    lr_mult: 1
    decay_mult: 1
  }
  param {
    lr_mult: 2
    decay_mult: 0
  }
  inner_product_param {
    num_output: 1024
    weight_filler {
      type: "xavier"
    }
    bias_filler {
      type: "constant"
      value: 0.2
    }
  }
}
layer {
  name: "loss1/relu_fc"
  type: "ReLU"
  bottom: "loss1/fc"
  top: "loss1/fc"
}
layer {
  name: "loss1/drop_fc"
  type: "Dropout"
  bottom: "loss1/fc"
  top: "loss1/fc"
  dropout_param {
    dropout_ratio: 0.7
  }
}
layer {
  name: "loss1/classifier_kaggle"
  type: "InnerProduct"
  bottom: "loss1/fc"
  top: "loss1/classifier_kaggle"
  param {
    lr_mult: 1
    decay_mult: 1
  }
  param {
    lr_mult: 2
    decay_mult: 0
  }
  inner_product_param {
    num_output: 447
    weight_filler {
      type: "xavier"
    }
    bias_filler {
      type: "constant"
      value: 0
    }
  }
}
layer {
  name: "loss1/loss"
  type: "SoftmaxWithLoss"
  bottom: "loss1/classifier_kaggle"
  bottom: "label"
  top: "loss1/loss1"
  loss_weight: 0.3
}
layer {
  name: "inception_4b/1x1"
  type: "Convolution"
  bottom: "inception_4a/output"
  top: "inception_4b/1x1"
  param {
    lr_mult: 1
    decay_mult: 1
  }
  param {
    lr_mult: 2
    decay_mult: 0
  }
  convolution_param {
    num_output: 160
    kernel_size: 1
    weight_filler {
      type: "xavier"
    }
    bias_filler {
      type: "constant"
      value: 0.2
    }
  }
}
layer {
  name: "inception_4b/relu_1x1"
  type: "ReLU"
  bottom: "inception_4b/1x1"
  top: "inception_4b/1x1"
}
layer {
  name: "inception_4b/3x3_reduce"
  type: "Convolution"
  bottom: "inception_4a/output"
  top: "inception_4b/3x3_reduce"
  param {
    lr_mult: 1
    decay_mult: 1
  }
  param {
    lr_mult: 2
    decay_mult: 0
  }
  convolution_param {
    num_output: 112
    kernel_size: 1
    weight_filler {
      type: "xavier"
    }
    bias_filler {
      type: "constant"
      value: 0.2
    }
  }
}
layer {
  name: "inception_4b/relu_3x3_reduce"
  type: "ReLU"
  bottom: "inception_4b/3x3_reduce"
  top: "inception_4b/3x3_reduce"
}
layer {
  name: "inception_4b/3x3"
  type: "Convolution"
  bottom: "inception_4b/3x3_reduce"
  top: "inception_4b/3x3"
  param {
    lr_mult: 1
    decay_mult: 1
  }
  param {
    lr_mult: 2
    decay_mult: 0
  }
  convolution_param {
    num_output: 224
    pad: 1
    kernel_size: 3
    weight_filler {
      type: "xavier"
    }
    bias_filler {
      type: "constant"
      value: 0.2
    }
  }
}
layer {
  name: "inception_4b/relu_3x3"
  type: "ReLU"
  bottom: "inception_4b/3x3"
  top: "inception_4b/3x3"
}
layer {
  name: "inception_4b/5x5_reduce"
  type: "Convolution"
  bottom: "inception_4a/output"
  top: "inception_4b/5x5_reduce"
  param {
    lr_mult: 1
    decay_mult: 1
  }
  param {
    lr_mult: 2
    decay_mult: 0
  }
  convolution_param {
    num_output: 24
    kernel_size: 1
    weight_filler {
      type: "xavier"
    }
    bias_filler {
      type: "constant"
      value: 0.2
    }
  }
}
layer {
  name: "inception_4b/relu_5x5_reduce"
  type: "ReLU"
  bottom: "inception_4b/5x5_reduce"
  top: "inception_4b/5x5_reduce"
}
layer {
  name: "inception_4b/5x5"
  type: "Convolution"
  bottom: "inception_4b/5x5_reduce"
  top: "inception_4b/5x5"
  param {
    lr_mult: 1
    decay_mult: 1
  }
  param {
    lr_mult: 2
    decay_mult: 0
  }
  convolution_param {
    num_output: 64
    pad: 2
    kernel_size: 5
    weight_filler {
      type: "xavier"
    }
    bias_filler {
      type: "constant"
      value: 0.2
    }
  }
}
layer {
  name: "inception_4b/relu_5x5"
  type: "ReLU"
  bottom: "inception_4b/5x5"
  top: "inception_4b/5x5"
}
layer {
  name: "inception_4b/pool"
  type: "Pooling"
  bottom: "inception_4a/output"
  top: "inception_4b/pool"
  pooling_param {
    pool: MAX
    kernel_size: 3
    stride: 1
    pad: 1
  }
}
layer {
  name: "inception_4b/pool_proj"
  type: "Convolution"
  bottom: "inception_4b/pool"
  top: "inception_4b/pool_proj"
  param {
    lr_mult: 1
    decay_mult: 1
  }
  param {
    lr_mult: 2
    decay_mult: 0
  }
  convolution_param {
    num_output: 64
    kernel_size: 1
    weight_filler {
      type: "xavier"
    }
    bias_filler {
      type: "constant"
      value: 0.2
    }
  }
}
layer {
  name: "inception_4b/relu_pool_proj"
  type: "ReLU"
  bottom: "inception_4b/pool_proj"
  top: "inception_4b/pool_proj"
}
layer {
  name: "inception_4b/output"
  type: "Concat"
  bottom: "inception_4b/1x1"
  bottom: "inception_4b/3x3"
  bottom: "inception_4b/5x5"
  bottom: "inception_4b/pool_proj"
  top: "inception_4b/output"
}
layer {
  name: "inception_4c/1x1"
  type: "Convolution"
  bottom: "inception_4b/output"
  top: "inception_4c/1x1"
  param {
    lr_mult: 1
    decay_mult: 1
  }
  param {
    lr_mult: 2
    decay_mult: 0
  }
  convolution_param {
    num_output: 128
    kernel_size: 1
    weight_filler {
      type: "xavier"
    }
    bias_filler {
      type: "constant"
      value: 0.2
    }
  }
}
layer {
  name: "inception_4c/relu_1x1"
  type: "ReLU"
  bottom: "inception_4c/1x1"
  top: "inception_4c/1x1"
}
layer {
  name: "inception_4c/3x3_reduce"
  type: "Convolution"
  bottom: "inception_4b/output"
  top: "inception_4c/3x3_reduce"
  param {
    lr_mult: 1
    decay_mult: 1
  }
  param {
    lr_mult: 2
    decay_mult: 0
  }
  convolution_param {
    num_output: 128
    kernel_size: 1
    weight_filler {
      type: "xavier"
    }
    bias_filler {
      type: "constant"
      value: 0.2
    }
  }
}
layer {
  name: "inception_4c/relu_3x3_reduce"
  type: "ReLU"
  bottom: "inception_4c/3x3_reduce"
  top: "inception_4c/3x3_reduce"
}
layer {
  name: "inception_4c/3x3"
  type: "Convolution"
  bottom: "inception_4c/3x3_reduce"
  top: "inception_4c/3x3"
  param {
    lr_mult: 1
    decay_mult: 1
  }
  param {
    lr_mult: 2
    decay_mult: 0
  }
  convolution_param {
    num_output: 256
    pad: 1
    kernel_size: 3
    weight_filler {
      type: "xavier"
    }
    bias_filler {
      type: "constant"
      value: 0.2
    }
  }
}
layer {
  name: "inception_4c/relu_3x3"
  type: "ReLU"
  bottom: "inception_4c/3x3"
  top: "inception_4c/3x3"
}
layer {
  name: "inception_4c/5x5_reduce"
  type: "Convolution"
  bottom: "inception_4b/output"
  top: "inception_4c/5x5_reduce"
  param {
    lr_mult: 1
    decay_mult: 1
  }
  param {
    lr_mult: 2
    decay_mult: 0
  }
  convolution_param {
    num_output: 24
    kernel_size: 1
    weight_filler {
      type: "xavier"
    }
    bias_filler {
      type: "constant"
      value: 0.2
    }
  }
}
layer {
  name: "inception_4c/relu_5x5_reduce"
  type: "ReLU"
  bottom: "inception_4c/5x5_reduce"
  top: "inception_4c/5x5_reduce"
}
layer {
  name: "inception_4c/5x5"
  type: "Convolution"
  bottom: "inception_4c/5x5_reduce"
  top: "inception_4c/5x5"
  param {
    lr_mult: 1
    decay_mult: 1
  }
  param {
    lr_mult: 2
    decay_mult: 0
  }
  convolution_param {
    num_output: 64
    pad: 2
    kernel_size: 5
    weight_filler {
      type: "xavier"
    }
    bias_filler {
      type: "constant"
      value: 0.2
    }
  }
}
layer {
  name: "inception_4c/relu_5x5"
  type: "ReLU"
  bottom: "inception_4c/5x5"
  top: "inception_4c/5x5"
}
layer {
  name: "inception_4c/pool"
  type: "Pooling"
  bottom: "inception_4b/output"
  top: "inception_4c/pool"
  pooling_param {
    pool: MAX
    kernel_size: 3
    stride: 1
    pad: 1
  }
}
layer {
  name: "inception_4c/pool_proj"
  type: "Convolution"
  bottom: "inception_4c/pool"
  top: "inception_4c/pool_proj"
  param {
    lr_mult: 1
    decay_mult: 1
  }
  param {
    lr_mult: 2
    decay_mult: 0
  }
  convolution_param {
    num_output: 64
    kernel_size: 1
    weight_filler {
      type: "xavier"
    }
    bias_filler {
      type: "constant"
      value: 0.2
    }
  }
}
layer {
  name: "inception_4c/relu_pool_proj"
  type: "ReLU"
  bottom: "inception_4c/pool_proj"
  top: "inception_4c/pool_proj"
}
layer {
  name: "inception_4c/output"
  type: "Concat"
  bottom: "inception_4c/1x1"
  bottom: "inception_4c/3x3"
  bottom: "inception_4c/5x5"
  bottom: "inception_4c/pool_proj"
  top: "inception_4c/output"
}
layer {
  name: "inception_4d/1x1"
  type: "Convolution"
  bottom: "inception_4c/output"
  top: "inception_4d/1x1"
  param {
    lr_mult: 1
    decay_mult: 1
  }
  param {
    lr_mult: 2
    decay_mult: 0
  }
  convolution_param {
    num_output: 112
    kernel_size: 1
    weight_filler {
      type: "xavier"
    }
    bias_filler {
      type: "constant"
      value: 0.2
    }
  }
}
layer {
  name: "inception_4d/relu_1x1"
  type: "ReLU"
  bottom: "inception_4d/1x1"
  top: "inception_4d/1x1"
}
layer {
  name: "inception_4d/3x3_reduce"
  type: "Convolution"
  bottom: "inception_4c/output"
  top: "inception_4d/3x3_reduce"
  param {
    lr_mult: 1
    decay_mult: 1
  }
  param {
    lr_mult: 2
    decay_mult: 0
  }
  convolution_param {
    num_output: 144
    kernel_size: 1
    weight_filler {
      type: "xavier"
    }
    bias_filler {
      type: "constant"
      value: 0.2
    }
  }
}
layer {
  name: "inception_4d/relu_3x3_reduce"
  type: "ReLU"
  bottom: "inception_4d/3x3_reduce"
  top: "inception_4d/3x3_reduce"
}
layer {
  name: "inception_4d/3x3"
  type: "Convolution"
  bottom: "inception_4d/3x3_reduce"
  top: "inception_4d/3x3"
  param {
    lr_mult: 1
    decay_mult: 1
  }
  param {
    lr_mult: 2
    decay_mult: 0
  }
  convolution_param {
    num_output: 288
    pad: 1
    kernel_size: 3
    weight_filler {
      type: "xavier"
    }
    bias_filler {
      type: "constant"
      value: 0.2
    }
  }
}
layer {
  name: "inception_4d/relu_3x3"
  type: "ReLU"
  bottom: "inception_4d/3x3"
  top: "inception_4d/3x3"
}
layer {
  name: "inception_4d/5x5_reduce"
  type: "Convolution"
  bottom: "inception_4c/output"
  top: "inception_4d/5x5_reduce"
  param {
    lr_mult: 1
    decay_mult: 1
  }
  param {
    lr_mult: 2
    decay_mult: 0
  }
  convolution_param {
    num_output: 32
    kernel_size: 1
    weight_filler {
      type: "xavier"
    }
    bias_filler {
      type: "constant"
      value: 0.2
    }
  }
}
layer {
  name: "inception_4d/relu_5x5_reduce"
  type: "ReLU"
  bottom: "inception_4d/5x5_reduce"
  top: "inception_4d/5x5_reduce"
}
layer {
  name: "inception_4d/5x5"
  type: "Convolution"
  bottom: "inception_4d/5x5_reduce"
  top: "inception_4d/5x5"
  param {
    lr_mult: 1
    decay_mult: 1
  }
  param {
    lr_mult: 2
    decay_mult: 0
  }
  convolution_param {
    num_output: 64
    pad: 2
    kernel_size: 5
    weight_filler {
      type: "xavier"
    }
    bias_filler {
      type: "constant"
      value: 0.2
    }
  }
}
layer {
  name: "inception_4d/relu_5x5"
  type: "ReLU"
  bottom: "inception_4d/5x5"
  top: "inception_4d/5x5"
}
layer {
  name: "inception_4d/pool"
  type: "Pooling"
  bottom: "inception_4c/output"
  top: "inception_4d/pool"
  pooling_param {
    pool: MAX
    kernel_size: 3
    stride: 1
    pad: 1
  }
}
layer {
  name: "inception_4d/pool_proj"
  type: "Convolution"
  bottom: "inception_4d/pool"
  top: "inception_4d/pool_proj"
  param {
    lr_mult: 1
    decay_mult: 1
  }
  param {
    lr_mult: 2
    decay_mult: 0
  }
  convolution_param {
    num_output: 64
    kernel_size: 1
    weight_filler {
      type: "xavier"
    }
    bias_filler {
      type: "constant"
      value: 0.2
    }
  }
}
layer {
  name: "inception_4d/relu_pool_proj"
  type: "ReLU"
  bottom: "inception_4d/pool_proj"
  top: "inception_4d/pool_proj"
}
layer {
  name: "inception_4d/output"
  type: "Concat"
  bottom: "inception_4d/1x1"
  bottom: "inception_4d/3x3"
  bottom: "inception_4d/5x5"
  bottom: "inception_4d/pool_proj"
  top: "inception_4d/output"
}
layer {
  name: "loss2/ave_pool"
  type: "Pooling"
  bottom: "inception_4d/output"
  top: "loss2/ave_pool"
  pooling_param {
    pool: AVE
    kernel_size: 5
    stride: 3
  }
}
layer {
  name: "loss2/conv"
  type: "Convolution"
  bottom: "loss2/ave_pool"
  top: "loss2/conv"
  param {
    lr_mult: 1
    decay_mult: 1
  }
  param {
    lr_mult: 2
    decay_mult: 0
  }
  convolution_param {
    num_output: 128
    kernel_size: 1
    weight_filler {
      type: "xavier"
    }
    bias_filler {
      type: "constant"
      value: 0.2
    }
  }
}
layer {
  name: "loss2/relu_conv"
  type: "ReLU"
  bottom: "loss2/conv"
  top: "loss2/conv"
}
layer {
  name: "loss2/fc"
  type: "InnerProduct"
  bottom: "loss2/conv"
  top: "loss2/fc"
  param {
    lr_mult: 1
    decay_mult: 1
  }
  param {
    lr_mult: 2
    decay_mult: 0
  }
  inner_product_param {
    num_output: 1024
    weight_filler {
      type: "xavier"
    }
    bias_filler {
      type: "constant"
      value: 0.2
    }
  }
}
layer {
  name: "loss2/relu_fc"
  type: "ReLU"
  bottom: "loss2/fc"
  top: "loss2/fc"
}
layer {
  name: "loss2/drop_fc"
  type: "Dropout"
  bottom: "loss2/fc"
  top: "loss2/fc"
  dropout_param {
    dropout_ratio: 0.7
  }
}
layer {
  name: "loss2/classifier_kaggle"
  type: "InnerProduct"
  bottom: "loss2/fc"
  top: "loss2/classifier_kaggle"
  param {
    lr_mult: 1
    decay_mult: 1
  }
  param {
    lr_mult: 2
    decay_mult: 0
  }
  inner_product_param {
    num_output: 447
    weight_filler {
      type: "xavier"
    }
    bias_filler {
      type: "constant"
      value: 0
    }
  }
}
layer {
  name: "loss2/loss"
  type: "SoftmaxWithLoss"
  bottom: "loss2/classifier_kaggle"
  bottom: "label"
  top: "loss2/loss1"
  loss_weight: 0.3
}
layer {
  name: "inception_4e/1x1"
  type: "Convolution"
  bottom: "inception_4d/output"
  top: "inception_4e/1x1"
  param {
    lr_mult: 1
    decay_mult: 1
  }
  param {
    lr_mult: 2
    decay_mult: 0
  }
  convolution_param {
    num_output: 256
    kernel_size: 1
    weight_filler {
      type: "xavier"
    }
    bias_filler {
      type: "constant"
      value: 0.2
    }
  }
}
layer {
  name: "inception_4e/relu_1x1"
  type: "ReLU"
  bottom: "inception_4e/1x1"
  top: "inception_4e/1x1"
}
layer {
  name: "inception_4e/3x3_reduce"
  type: "Convolution"
  bottom: "inception_4d/output"
  top: "inception_4e/3x3_reduce"
  param {
    lr_mult: 1
    decay_mult: 1
  }
  param {
    lr_mult: 2
    decay_mult: 0
  }
  convolution_param {
    num_output: 160
    kernel_size: 1
    weight_filler {
      type: "xavier"
    }
    bias_filler {
      type: "constant"
      value: 0.2
    }
  }
}
layer {
  name: "inception_4e/relu_3x3_reduce"
  type: "ReLU"
  bottom: "inception_4e/3x3_reduce"
  top: "inception_4e/3x3_reduce"
}
layer {
  name: "inception_4e/3x3"
  type: "Convolution"
  bottom: "inception_4e/3x3_reduce"
  top: "inception_4e/3x3"
  param {
    lr_mult: 1
    decay_mult: 1
  }
  param {
    lr_mult: 2
    decay_mult: 0
  }
  convolution_param {
    num_output: 320
    pad: 1
    kernel_size: 3
    weight_filler {
      type: "xavier"
    }
    bias_filler {
      type: "constant"
      value: 0.2
    }
  }
}
layer {
  name: "inception_4e/relu_3x3"
  type: "ReLU"
  bottom: "inception_4e/3x3"
  top: "inception_4e/3x3"
}
layer {
  name: "inception_4e/5x5_reduce"
  type: "Convolution"
  bottom: "inception_4d/output"
  top: "inception_4e/5x5_reduce"
  param {
    lr_mult: 1
    decay_mult: 1
  }
  param {
    lr_mult: 2
    decay_mult: 0
  }
  convolution_param {
    num_output: 32
    kernel_size: 1
    weight_filler {
      type: "xavier"
    }
    bias_filler {
      type: "constant"
      value: 0.2
    }
  }
}
layer {
  name: "inception_4e/relu_5x5_reduce"
  type: "ReLU"
  bottom: "inception_4e/5x5_reduce"
  top: "inception_4e/5x5_reduce"
}
layer {
  name: "inception_4e/5x5"
  type: "Convolution"
  bottom: "inception_4e/5x5_reduce"
  top: "inception_4e/5x5"
  param {
    lr_mult: 1
    decay_mult: 1
  }
  param {
    lr_mult: 2
    decay_mult: 0
  }
  convolution_param {
    num_output: 128
    pad: 2
    kernel_size: 5
    weight_filler {
      type: "xavier"
    }
    bias_filler {
      type: "constant"
      value: 0.2
    }
  }
}
layer {
  name: "inception_4e/relu_5x5"
  type: "ReLU"
  bottom: "inception_4e/5x5"
  top: "inception_4e/5x5"
}
layer {
  name: "inception_4e/pool"
  type: "Pooling"
  bottom: "inception_4d/output"
  top: "inception_4e/pool"
  pooling_p
I1218 22:39:23.756430 29703 layer_factory.hpp:74] Creating layer data
I1218 22:39:23.756471 29703 net.cpp:84] Creating Layer data
I1218 22:39:23.756489 29703 net.cpp:338] data -> data
I1218 22:39:23.756541 29703 net.cpp:338] data -> label
I1218 22:39:23.756559 29703 net.cpp:113] Setting up data
I1218 22:39:23.756575 29703 image_data_layer.cpp:36] Opening file /home/coldmanck/kaggle/label_train_full.txt
I1218 22:39:23.759577 29703 image_data_layer.cpp:46] Shuffling data
I1218 22:39:23.760579 29703 image_data_layer.cpp:51] A total of 4235 images.
I1218 22:39:23.761574 29703 image_data_layer.cpp:80] output data size: 80,3,224,224
I1218 22:39:27.715915 29703 net.cpp:120] Top shape: 80 3 224 224 (12042240)
I1218 22:39:27.716025 29703 net.cpp:120] Top shape: 80 (80)
I1218 22:39:27.716074 29703 layer_factory.hpp:74] Creating layer label_data_1_split
I1218 22:39:27.716130 29703 net.cpp:84] Creating Layer label_data_1_split
I1218 22:39:27.716137 29703 net.cpp:380] label_data_1_split <- label
I1218 22:39:27.716176 29703 net.cpp:338] label_data_1_split -> label_data_1_split_0
I1218 22:39:27.716189 29703 net.cpp:338] label_data_1_split -> label_data_1_split_1
I1218 22:39:27.716210 29703 net.cpp:338] label_data_1_split -> label_data_1_split_2
I1218 22:39:27.716230 29703 net.cpp:113] Setting up label_data_1_split
I1218 22:39:27.716240 29703 net.cpp:120] Top shape: 80 (80)
I1218 22:39:27.716245 29703 net.cpp:120] Top shape: 80 (80)
I1218 22:39:27.716250 29703 net.cpp:120] Top shape: 80 (80)
I1218 22:39:27.716255 29703 layer_factory.hpp:74] Creating layer conv1/7x7_s2
I1218 22:39:27.716276 29703 net.cpp:84] Creating Layer conv1/7x7_s2
I1218 22:39:27.716282 29703 net.cpp:380] conv1/7x7_s2 <- data
I1218 22:39:27.716289 29703 net.cpp:338] conv1/7x7_s2 -> conv1/7x7_s2
I1218 22:39:27.716300 29703 net.cpp:113] Setting up conv1/7x7_s2
I1218 22:39:28.114838 29703 net.cpp:120] Top shape: 80 64 112 112 (64225280)
I1218 22:39:28.114929 29703 layer_factory.hpp:74] Creating layer conv1/relu_7x7
I1218 22:39:28.114945 29703 net.cpp:84] Creating Layer conv1/relu_7x7
I1218 22:39:28.114953 29703 net.cpp:380] conv1/relu_7x7 <- conv1/7x7_s2
I1218 22:39:28.114964 29703 net.cpp:327] conv1/relu_7x7 -> conv1/7x7_s2 (in-place)
I1218 22:39:28.114975 29703 net.cpp:113] Setting up conv1/relu_7x7
I1218 22:39:28.115690 29703 net.cpp:120] Top shape: 80 64 112 112 (64225280)
I1218 22:39:28.115703 29703 layer_factory.hpp:74] Creating layer pool1/3x3_s2
I1218 22:39:28.115717 29703 net.cpp:84] Creating Layer pool1/3x3_s2
I1218 22:39:28.115723 29703 net.cpp:380] pool1/3x3_s2 <- conv1/7x7_s2
I1218 22:39:28.115741 29703 net.cpp:338] pool1/3x3_s2 -> pool1/3x3_s2
I1218 22:39:28.115749 29703 net.cpp:113] Setting up pool1/3x3_s2
I1218 22:39:28.115844 29703 net.cpp:120] Top shape: 80 64 56 56 (16056320)
I1218 22:39:28.115862 29703 layer_factory.hpp:74] Creating layer pool1/norm1
I1218 22:39:28.115881 29703 net.cpp:84] Creating Layer pool1/norm1
I1218 22:39:28.115886 29703 net.cpp:380] pool1/norm1 <- pool1/3x3_s2
I1218 22:39:28.115893 29703 net.cpp:338] pool1/norm1 -> pool1/norm1
I1218 22:39:28.115902 29703 net.cpp:113] Setting up pool1/norm1
I1218 22:39:28.115910 29703 net.cpp:120] Top shape: 80 64 56 56 (16056320)
I1218 22:39:28.115921 29703 layer_factory.hpp:74] Creating layer conv2/3x3_reduce
I1218 22:39:28.115936 29703 net.cpp:84] Creating Layer conv2/3x3_reduce
I1218 22:39:28.115942 29703 net.cpp:380] conv2/3x3_reduce <- pool1/norm1
I1218 22:39:28.115948 29703 net.cpp:338] conv2/3x3_reduce -> conv2/3x3_reduce
I1218 22:39:28.115959 29703 net.cpp:113] Setting up conv2/3x3_reduce
I1218 22:39:28.116412 29703 net.cpp:120] Top shape: 80 64 56 56 (16056320)
I1218 22:39:28.116430 29703 layer_factory.hpp:74] Creating layer conv2/relu_3x3_reduce
I1218 22:39:28.116437 29703 net.cpp:84] Creating Layer conv2/relu_3x3_reduce
I1218 22:39:28.116442 29703 net.cpp:380] conv2/relu_3x3_reduce <- conv2/3x3_reduce
I1218 22:39:28.116449 29703 net.cpp:327] conv2/relu_3x3_reduce -> conv2/3x3_reduce (in-place)
I1218 22:39:28.116456 29703 net.cpp:113] Setting up conv2/relu_3x3_reduce
I1218 22:39:28.116515 29703 net.cpp:120] Top shape: 80 64 56 56 (16056320)
I1218 22:39:28.116521 29703 layer_factory.hpp:74] Creating layer conv2/3x3
I1218 22:39:28.116529 29703 net.cpp:84] Creating Layer conv2/3x3
I1218 22:39:28.116534 29703 net.cpp:380] conv2/3x3 <- conv2/3x3_reduce
I1218 22:39:28.116619 29703 net.cpp:338] conv2/3x3 -> conv2/3x3
I1218 22:39:28.116628 29703 net.cpp:113] Setting up conv2/3x3
I1218 22:39:28.118203 29703 net.cpp:120] Top shape: 80 192 56 56 (48168960)
I1218 22:39:28.118221 29703 layer_factory.hpp:74] Creating layer conv2/relu_3x3
I1218 22:39:28.118243 29703 net.cpp:84] Creating Layer conv2/relu_3x3
I1218 22:39:28.118250 29703 net.cpp:380] conv2/relu_3x3 <- conv2/3x3
I1218 22:39:28.118259 29703 net.cpp:327] conv2/relu_3x3 -> conv2/3x3 (in-place)
I1218 22:39:28.118268 29703 net.cpp:113] Setting up conv2/relu_3x3
I1218 22:39:28.118512 29703 net.cpp:120] Top shape: 80 192 56 56 (48168960)
I1218 22:39:28.118531 29703 layer_factory.hpp:74] Creating layer conv2/norm2
I1218 22:39:28.118541 29703 net.cpp:84] Creating Layer conv2/norm2
I1218 22:39:28.118546 29703 net.cpp:380] conv2/norm2 <- conv2/3x3
I1218 22:39:28.118558 29703 net.cpp:338] conv2/norm2 -> conv2/norm2
I1218 22:39:28.118576 29703 net.cpp:113] Setting up conv2/norm2
I1218 22:39:28.118594 29703 net.cpp:120] Top shape: 80 192 56 56 (48168960)
I1218 22:39:28.118598 29703 layer_factory.hpp:74] Creating layer pool2/3x3_s2
I1218 22:39:28.118605 29703 net.cpp:84] Creating Layer pool2/3x3_s2
I1218 22:39:28.118609 29703 net.cpp:380] pool2/3x3_s2 <- conv2/norm2
I1218 22:39:28.118616 29703 net.cpp:338] pool2/3x3_s2 -> pool2/3x3_s2
I1218 22:39:28.118623 29703 net.cpp:113] Setting up pool2/3x3_s2
I1218 22:39:28.118686 29703 net.cpp:120] Top shape: 80 192 28 28 (12042240)
I1218 22:39:28.118692 29703 layer_factory.hpp:74] Creating layer pool2/3x3_s2_pool2/3x3_s2_0_split
I1218 22:39:28.118707 29703 net.cpp:84] Creating Layer pool2/3x3_s2_pool2/3x3_s2_0_split
I1218 22:39:28.118711 29703 net.cpp:380] pool2/3x3_s2_pool2/3x3_s2_0_split <- pool2/3x3_s2
I1218 22:39:28.118726 29703 net.cpp:338] pool2/3x3_s2_pool2/3x3_s2_0_split -> pool2/3x3_s2_pool2/3x3_s2_0_split_0
I1218 22:39:28.118734 29703 net.cpp:338] pool2/3x3_s2_pool2/3x3_s2_0_split -> pool2/3x3_s2_pool2/3x3_s2_0_split_1
I1218 22:39:28.118741 29703 net.cpp:338] pool2/3x3_s2_pool2/3x3_s2_0_split -> pool2/3x3_s2_pool2/3x3_s2_0_split_2
I1218 22:39:28.118748 29703 net.cpp:338] pool2/3x3_s2_pool2/3x3_s2_0_split -> pool2/3x3_s2_pool2/3x3_s2_0_split_3
I1218 22:39:28.118754 29703 net.cpp:113] Setting up pool2/3x3_s2_pool2/3x3_s2_0_split
I1218 22:39:28.118762 29703 net.cpp:120] Top shape: 80 192 28 28 (12042240)
I1218 22:39:28.118767 29703 net.cpp:120] Top shape: 80 192 28 28 (12042240)
I1218 22:39:28.118772 29703 net.cpp:120] Top shape: 80 192 28 28 (12042240)
I1218 22:39:28.118777 29703 net.cpp:120] Top shape: 80 192 28 28 (12042240)
I1218 22:39:28.118793 29703 layer_factory.hpp:74] Creating layer inception_3a/1x1
I1218 22:39:28.118801 29703 net.cpp:84] Creating Layer inception_3a/1x1
I1218 22:39:28.118805 29703 net.cpp:380] inception_3a/1x1 <- pool2/3x3_s2_pool2/3x3_s2_0_split_0
I1218 22:39:28.118813 29703 net.cpp:338] inception_3a/1x1 -> inception_3a/1x1
I1218 22:39:28.118821 29703 net.cpp:113] Setting up inception_3a/1x1
I1218 22:39:28.119321 29703 net.cpp:120] Top shape: 80 64 28 28 (4014080)
I1218 22:39:28.119335 29703 layer_factory.hpp:74] Creating layer inception_3a/relu_1x1
I1218 22:39:28.119354 29703 net.cpp:84] Creating Layer inception_3a/relu_1x1
I1218 22:39:28.119359 29703 net.cpp:380] inception_3a/relu_1x1 <- inception_3a/1x1
I1218 22:39:28.119390 29703 net.cpp:327] inception_3a/relu_1x1 -> inception_3a/1x1 (in-place)
I1218 22:39:28.119398 29703 net.cpp:113] Setting up inception_3a/relu_1x1
I1218 22:39:28.119463 29703 net.cpp:120] Top shape: 80 64 28 28 (4014080)
I1218 22:39:28.119469 29703 layer_factory.hpp:74] Creating layer inception_3a/3x3_reduce
I1218 22:39:28.119477 29703 net.cpp:84] Creating Layer inception_3a/3x3_reduce
I1218 22:39:28.119482 29703 net.cpp:380] inception_3a/3x3_reduce <- pool2/3x3_s2_pool2/3x3_s2_0_split_1
I1218 22:39:28.119490 29703 net.cpp:338] inception_3a/3x3_reduce -> inception_3a/3x3_reduce
I1218 22:39:28.119499 29703 net.cpp:113] Setting up inception_3a/3x3_reduce
I1218 22:39:28.125607 29703 net.cpp:120] Top shape: 80 96 28 28 (6021120)
I1218 22:39:28.125630 29703 layer_factory.hpp:74] Creating layer inception_3a/relu_3x3_reduce
I1218 22:39:28.125639 29703 net.cpp:84] Creating Layer inception_3a/relu_3x3_reduce
I1218 22:39:28.125646 29703 net.cpp:380] inception_3a/relu_3x3_reduce <- inception_3a/3x3_reduce
I1218 22:39:28.125653 29703 net.cpp:327] inception_3a/relu_3x3_reduce -> inception_3a/3x3_reduce (in-place)
I1218 22:39:28.125661 29703 net.cpp:113] Setting up inception_3a/relu_3x3_reduce
I1218 22:39:28.125844 29703 net.cpp:120] Top shape: 80 96 28 28 (6021120)
I1218 22:39:28.125854 29703 layer_factory.hpp:74] Creating layer inception_3a/3x3
I1218 22:39:28.125871 29703 net.cpp:84] Creating Layer inception_3a/3x3
I1218 22:39:28.125876 29703 net.cpp:380] inception_3a/3x3 <- inception_3a/3x3_reduce
I1218 22:39:28.125883 29703 net.cpp:338] inception_3a/3x3 -> inception_3a/3x3
I1218 22:39:28.125892 29703 net.cpp:113] Setting up inception_3a/3x3
I1218 22:39:28.127542 29703 net.cpp:120] Top shape: 80 128 28 28 (8028160)
I1218 22:39:28.127567 29703 layer_factory.hpp:74] Creating layer inception_3a/relu_3x3
I1218 22:39:28.127576 29703 net.cpp:84] Creating Layer inception_3a/relu_3x3
I1218 22:39:28.127581 29703 net.cpp:380] inception_3a/relu_3x3 <- inception_3a/3x3
I1218 22:39:28.127588 29703 net.cpp:327] inception_3a/relu_3x3 -> inception_3a/3x3 (in-place)
I1218 22:39:28.127595 29703 net.cpp:113] Setting up inception_3a/relu_3x3
I1218 22:39:28.127825 29703 net.cpp:120] Top shape: 80 128 28 28 (8028160)
I1218 22:39:28.127843 29703 layer_factory.hpp:74] Creating layer inception_3a/5x5_reduce
I1218 22:39:28.127854 29703 net.cpp:84] Creating Layer inception_3a/5x5_reduce
I1218 22:39:28.127859 29703 net.cpp:380] inception_3a/5x5_reduce <- pool2/3x3_s2_pool2/3x3_s2_0_split_2
I1218 22:39:28.127866 29703 net.cpp:338] inception_3a/5x5_reduce -> inception_3a/5x5_reduce
I1218 22:39:28.127876 29703 net.cpp:113] Setting up inception_3a/5x5_reduce
I1218 22:39:28.128577 29703 net.cpp:120] Top shape: 80 16 28 28 (1003520)
I1218 22:39:28.128592 29703 layer_factory.hpp:74] Creating layer inception_3a/relu_5x5_reduce
I1218 22:39:28.128599 29703 net.cpp:84] Creating Layer inception_3a/relu_5x5_reduce
I1218 22:39:28.128604 29703 net.cpp:380] inception_3a/relu_5x5_reduce <- inception_3a/5x5_reduce
I1218 22:39:28.128612 29703 net.cpp:327] inception_3a/relu_5x5_reduce -> inception_3a/5x5_reduce (in-place)
I1218 22:39:28.128620 29703 net.cpp:113] Setting up inception_3a/relu_5x5_reduce
I1218 22:39:28.128687 29703 net.cpp:120] Top shape: 80 16 28 28 (1003520)
I1218 22:39:28.128693 29703 layer_factory.hpp:74] Creating layer inception_3a/5x5
I1218 22:39:28.128746 29703 net.cpp:84] Creating Layer inception_3a/5x5
I1218 22:39:28.128751 29703 net.cpp:380] inception_3a/5x5 <- inception_3a/5x5_reduce
I1218 22:39:28.128759 29703 net.cpp:338] inception_3a/5x5 -> inception_3a/5x5
I1218 22:39:28.128767 29703 net.cpp:113] Setting up inception_3a/5x5
I1218 22:39:28.130723 29703 net.cpp:120] Top shape: 80 32 28 28 (2007040)
I1218 22:39:28.130755 29703 layer_factory.hpp:74] Creating layer inception_3a/relu_5x5
I1218 22:39:28.130764 29703 net.cpp:84] Creating Layer inception_3a/relu_5x5
I1218 22:39:28.130769 29703 net.cpp:380] inception_3a/relu_5x5 <- inception_3a/5x5
I1218 22:39:28.130775 29703 net.cpp:327] inception_3a/relu_5x5 -> inception_3a/5x5 (in-place)
I1218 22:39:28.130784 29703 net.cpp:113] Setting up inception_3a/relu_5x5
I1218 22:39:28.130888 29703 net.cpp:120] Top shape: 80 32 28 28 (2007040)
I1218 22:39:28.130904 29703 layer_factory.hpp:74] Creating layer inception_3a/pool
I1218 22:39:28.130909 29703 layer_factory.cpp:56] CUDNN does not support padding or multiple tops. Using Caffe's own pooling layer.
I1218 22:39:28.130918 29703 net.cpp:84] Creating Layer inception_3a/pool
I1218 22:39:28.130921 29703 net.cpp:380] inception_3a/pool <- pool2/3x3_s2_pool2/3x3_s2_0_split_3
I1218 22:39:28.130928 29703 net.cpp:338] inception_3a/pool -> inception_3a/pool
I1218 22:39:28.130936 29703 net.cpp:113] Setting up inception_3a/pool
I1218 22:39:28.130944 29703 net.cpp:120] Top shape: 80 192 28 28 (12042240)
I1218 22:39:28.130949 29703 layer_factory.hpp:74] Creating layer inception_3a/pool_proj
I1218 22:39:28.130965 29703 net.cpp:84] Creating Layer inception_3a/pool_proj
I1218 22:39:28.130970 29703 net.cpp:380] inception_3a/pool_proj <- inception_3a/pool
I1218 22:39:28.130980 29703 net.cpp:338] inception_3a/pool_proj -> inception_3a/pool_proj
I1218 22:39:28.130986 29703 net.cpp:113] Setting up inception_3a/pool_proj
I1218 22:39:28.131499 29703 net.cpp:120] Top shape: 80 32 28 28 (2007040)
I1218 22:39:28.131518 29703 layer_factory.hpp:74] Creating layer inception_3a/relu_pool_proj
I1218 22:39:28.131525 29703 net.cpp:84] Creating Layer inception_3a/relu_pool_proj
I1218 22:39:28.131531 29703 net.cpp:380] inception_3a/relu_pool_proj <- inception_3a/pool_proj
I1218 22:39:28.131537 29703 net.cpp:327] inception_3a/relu_pool_proj -> inception_3a/pool_proj (in-place)
I1218 22:39:28.131544 29703 net.cpp:113] Setting up inception_3a/relu_pool_proj
I1218 22:39:28.131620 29703 net.cpp:120] Top shape: 80 32 28 28 (2007040)
I1218 22:39:28.131626 29703 layer_factory.hpp:74] Creating layer inception_3a/output
I1218 22:39:28.131633 29703 net.cpp:84] Creating Layer inception_3a/output
I1218 22:39:28.131644 29703 net.cpp:380] inception_3a/output <- inception_3a/1x1
I1218 22:39:28.131649 29703 net.cpp:380] inception_3a/output <- inception_3a/3x3
I1218 22:39:28.131654 29703 net.cpp:380] inception_3a/output <- inception_3a/5x5
I1218 22:39:28.131659 29703 net.cpp:380] inception_3a/output <- inception_3a/pool_proj
I1218 22:39:28.131664 29703 net.cpp:338] inception_3a/output -> inception_3a/output
I1218 22:39:28.131672 29703 net.cpp:113] Setting up inception_3a/output
I1218 22:39:28.131680 29703 net.cpp:120] Top shape: 80 256 28 28 (16056320)
I1218 22:39:28.131685 29703 layer_factory.hpp:74] Creating layer inception_3a/output_inception_3a/output_0_split
I1218 22:39:28.131690 29703 net.cpp:84] Creating Layer inception_3a/output_inception_3a/output_0_split
I1218 22:39:28.131695 29703 net.cpp:380] inception_3a/output_inception_3a/output_0_split <- inception_3a/output
I1218 22:39:28.131700 29703 net.cpp:338] inception_3a/output_inception_3a/output_0_split -> inception_3a/output_inception_3a/output_0_split_0
I1218 22:39:28.131707 29703 net.cpp:338] inception_3a/output_inception_3a/output_0_split -> inception_3a/output_inception_3a/output_0_split_1
I1218 22:39:28.131714 29703 net.cpp:338] inception_3a/output_inception_3a/output_0_split -> inception_3a/output_inception_3a/output_0_split_2
I1218 22:39:28.131721 29703 net.cpp:338] inception_3a/output_inception_3a/output_0_split -> inception_3a/output_inception_3a/output_0_split_3
I1218 22:39:28.131727 29703 net.cpp:113] Setting up inception_3a/output_inception_3a/output_0_split
I1218 22:39:28.131734 29703 net.cpp:120] Top shape: 80 256 28 28 (16056320)
I1218 22:39:28.131739 29703 net.cpp:120] Top shape: 80 256 28 28 (16056320)
I1218 22:39:28.131743 29703 net.cpp:120] Top shape: 80 256 28 28 (16056320)
I1218 22:39:28.131748 29703 net.cpp:120] Top shape: 80 256 28 28 (16056320)
I1218 22:39:28.131762 29703 layer_factory.hpp:74] Creating layer inception_3b/1x1
I1218 22:39:28.131773 29703 net.cpp:84] Creating Layer inception_3b/1x1
I1218 22:39:28.131778 29703 net.cpp:380] inception_3b/1x1 <- inception_3a/output_inception_3a/output_0_split_0
I1218 22:39:28.131784 29703 net.cpp:338] inception_3b/1x1 -> inception_3b/1x1
I1218 22:39:28.131791 29703 net.cpp:113] Setting up inception_3b/1x1
I1218 22:39:28.132553 29703 net.cpp:120] Top shape: 80 128 28 28 (8028160)
I1218 22:39:28.132568 29703 layer_factory.hpp:74] Creating layer inception_3b/relu_1x1
I1218 22:39:28.132583 29703 net.cpp:84] Creating Layer inception_3b/relu_1x1
I1218 22:39:28.132589 29703 net.cpp:380] inception_3b/relu_1x1 <- inception_3b/1x1
I1218 22:39:28.132597 29703 net.cpp:327] inception_3b/relu_1x1 -> inception_3b/1x1 (in-place)
I1218 22:39:28.132604 29703 net.cpp:113] Setting up inception_3b/relu_1x1
I1218 22:39:28.132854 29703 net.cpp:120] Top shape: 80 128 28 28 (8028160)
I1218 22:39:28.132865 29703 layer_factory.hpp:74] Creating layer inception_3b/3x3_reduce
I1218 22:39:28.132874 29703 net.cpp:84] Creating Layer inception_3b/3x3_reduce
I1218 22:39:28.132879 29703 net.cpp:380] inception_3b/3x3_reduce <- inception_3a/output_inception_3a/output_0_split_1
I1218 22:39:28.132887 29703 net.cpp:338] inception_3b/3x3_reduce -> inception_3b/3x3_reduce
I1218 22:39:28.132895 29703 net.cpp:113] Setting up inception_3b/3x3_reduce
I1218 22:39:28.133714 29703 net.cpp:120] Top shape: 80 128 28 28 (8028160)
I1218 22:39:28.133730 29703 layer_factory.hpp:74] Creating layer inception_3b/relu_3x3_reduce
I1218 22:39:28.133738 29703 net.cpp:84] Creating Layer inception_3b/relu_3x3_reduce
I1218 22:39:28.133743 29703 net.cpp:380] inception_3b/relu_3x3_reduce <- inception_3b/3x3_reduce
I1218 22:39:28.133750 29703 net.cpp:327] inception_3b/relu_3x3_reduce -> inception_3b/3x3_reduce (in-place)
I1218 22:39:28.133759 29703 net.cpp:113] Setting up inception_3b/relu_3x3_reduce
I1218 22:39:28.133842 29703 net.cpp:120] Top shape: 80 128 28 28 (8028160)
I1218 22:39:28.133864 29703 layer_factory.hpp:74] Creating layer inception_3b/3x3
I1218 22:39:28.133883 29703 net.cpp:84] Creating Layer inception_3b/3x3
I1218 22:39:28.133888 29703 net.cpp:380] inception_3b/3x3 <- inception_3b/3x3_reduce
I1218 22:39:28.133898 29703 net.cpp:338] inception_3b/3x3 -> inception_3b/3x3
I1218 22:39:28.133905 29703 net.cpp:113] Setting up inception_3b/3x3
I1218 22:39:28.136950 29703 net.cpp:120] Top shape: 80 192 28 28 (12042240)
I1218 22:39:28.136966 29703 layer_factory.hpp:74] Creating layer inception_3b/relu_3x3
I1218 22:39:28.136973 29703 net.cpp:84] Creating Layer inception_3b/relu_3x3
I1218 22:39:28.136978 29703 net.cpp:380] inception_3b/relu_3x3 <- inception_3b/3x3
I1218 22:39:28.136987 29703 net.cpp:327] inception_3b/relu_3x3 -> inception_3b/3x3 (in-place)
I1218 22:39:28.136996 29703 net.cpp:113] Setting up inception_3b/relu_3x3
I1218 22:39:28.137071 29703 net.cpp:120] Top shape: 80 192 28 28 (12042240)
I1218 22:39:28.137079 29703 layer_factory.hpp:74] Creating layer inception_3b/5x5_reduce
I1218 22:39:28.137086 29703 net.cpp:84] Creating Layer inception_3b/5x5_reduce
I1218 22:39:28.137091 29703 net.cpp:380] inception_3b/5x5_reduce <- inception_3a/output_inception_3a/output_0_split_2
I1218 22:39:28.137099 29703 net.cpp:338] inception_3b/5x5_reduce -> inception_3b/5x5_reduce
I1218 22:39:28.137107 29703 net.cpp:113] Setting up inception_3b/5x5_reduce
I1218 22:39:28.137604 29703 net.cpp:120] Top shape: 80 32 28 28 (2007040)
I1218 22:39:28.137619 29703 layer_factory.hpp:74] Creating layer inception_3b/relu_5x5_reduce
I1218 22:39:28.137641 29703 net.cpp:84] Creating Layer inception_3b/relu_5x5_reduce
I1218 22:39:28.137647 29703 net.cpp:380] inception_3b/relu_5x5_reduce <- inception_3b/5x5_reduce
I1218 22:39:28.137653 29703 net.cpp:327] inception_3b/relu_5x5_reduce -> inception_3b/5x5_reduce (in-place)
I1218 22:39:28.137660 29703 net.cpp:113] Setting up inception_3b/relu_5x5_reduce
I1218 22:39:28.137732 29703 net.cpp:120] Top shape: 80 32 28 28 (2007040)
I1218 22:39:28.137738 29703 layer_factory.hpp:74] Creating layer inception_3b/5x5
I1218 22:39:28.137763 29703 net.cpp:84] Creating Layer inception_3b/5x5
I1218 22:39:28.137769 29703 net.cpp:380] inception_3b/5x5 <- inception_3b/5x5_reduce
I1218 22:39:28.137778 29703 net.cpp:338] inception_3b/5x5 -> inception_3b/5x5
I1218 22:39:28.137790 29703 net.cpp:113] Setting up inception_3b/5x5
I1218 22:39:28.139122 29703 net.cpp:120] Top shape: 80 96 28 28 (6021120)
I1218 22:39:28.139137 29703 layer_factory.hpp:74] Creating layer inception_3b/relu_5x5
I1218 22:39:28.139142 29703 net.cpp:84] Creating Layer inception_3b/relu_5x5
I1218 22:39:28.139147 29703 net.cpp:380] inception_3b/relu_5x5 <- inception_3b/5x5
I1218 22:39:28.139155 29703 net.cpp:327] inception_3b/relu_5x5 -> inception_3b/5x5 (in-place)
I1218 22:39:28.139163 29703 net.cpp:113] Setting up inception_3b/relu_5x5
I1218 22:39:28.139386 29703 net.cpp:120] Top shape: 80 96 28 28 (6021120)
I1218 22:39:28.139397 29703 layer_factory.hpp:74] Creating layer inception_3b/pool
I1218 22:39:28.139403 29703 layer_factory.cpp:56] CUDNN does not support padding or multiple tops. Using Caffe's own pooling layer.
I1218 22:39:28.139410 29703 net.cpp:84] Creating Layer inception_3b/pool
I1218 22:39:28.139415 29703 net.cpp:380] inception_3b/pool <- inception_3a/output_inception_3a/output_0_split_3
I1218 22:39:28.139422 29703 net.cpp:338] inception_3b/pool -> inception_3b/pool
I1218 22:39:28.139430 29703 net.cpp:113] Setting up inception_3b/pool
I1218 22:39:28.139438 29703 net.cpp:120] Top shape: 80 256 28 28 (16056320)
I1218 22:39:28.139442 29703 layer_factory.hpp:74] Creating layer inception_3b/pool_proj
I1218 22:39:28.139458 29703 net.cpp:84] Creating Layer inception_3b/pool_proj
I1218 22:39:28.139462 29703 net.cpp:380] inception_3b/pool_proj <- inception_3b/pool
I1218 22:39:28.139470 29703 net.cpp:338] inception_3b/pool_proj -> inception_3b/pool_proj
I1218 22:39:28.139478 29703 net.cpp:113] Setting up inception_3b/pool_proj
I1218 22:39:28.140060 29703 net.cpp:120] Top shape: 80 64 28 28 (4014080)
I1218 22:39:28.140084 29703 layer_factory.hpp:74] Creating layer inception_3b/relu_pool_proj
I1218 22:39:28.140091 29703 net.cpp:84] Creating Layer inception_3b/relu_pool_proj
I1218 22:39:28.140097 29703 net.cpp:380] inception_3b/relu_pool_proj <- inception_3b/pool_proj
I1218 22:39:28.140103 29703 net.cpp:327] inception_3b/relu_pool_proj -> inception_3b/pool_proj (in-place)
I1218 22:39:28.140112 29703 net.cpp:113] Setting up inception_3b/relu_pool_proj
I1218 22:39:28.140177 29703 net.cpp:120] Top shape: 80 64 28 28 (4014080)
I1218 22:39:28.140192 29703 layer_factory.hpp:74] Creating layer inception_3b/output
I1218 22:39:28.140197 29703 net.cpp:84] Creating Layer inception_3b/output
I1218 22:39:28.140202 29703 net.cpp:380] inception_3b/output <- inception_3b/1x1
I1218 22:39:28.140208 29703 net.cpp:380] inception_3b/output <- inception_3b/3x3
I1218 22:39:28.140213 29703 net.cpp:380] inception_3b/output <- inception_3b/5x5
I1218 22:39:28.140218 29703 net.cpp:380] inception_3b/output <- inception_3b/pool_proj
I1218 22:39:28.140228 29703 net.cpp:338] inception_3b/output -> inception_3b/output
I1218 22:39:28.140234 29703 net.cpp:113] Setting up inception_3b/output
I1218 22:39:28.140241 29703 net.cpp:120] Top shape: 80 480 28 28 (30105600)
I1218 22:39:28.140245 29703 layer_factory.hpp:74] Creating layer pool3/3x3_s2
I1218 22:39:28.140265 29703 net.cpp:84] Creating Layer pool3/3x3_s2
I1218 22:39:28.140270 29703 net.cpp:380] pool3/3x3_s2 <- inception_3b/output
I1218 22:39:28.140281 29703 net.cpp:338] pool3/3x3_s2 -> pool3/3x3_s2
I1218 22:39:28.140288 29703 net.cpp:113] Setting up pool3/3x3_s2
I1218 22:39:28.140372 29703 net.cpp:120] Top shape: 80 480 14 14 (7526400)
I1218 22:39:28.140379 29703 layer_factory.hpp:74] Creating layer pool3/3x3_s2_pool3/3x3_s2_0_split
I1218 22:39:28.140385 29703 net.cpp:84] Creating Layer pool3/3x3_s2_pool3/3x3_s2_0_split
I1218 22:39:28.140390 29703 net.cpp:380] pool3/3x3_s2_pool3/3x3_s2_0_split <- pool3/3x3_s2
I1218 22:39:28.140396 29703 net.cpp:338] pool3/3x3_s2_pool3/3x3_s2_0_split -> pool3/3x3_s2_pool3/3x3_s2_0_split_0
I1218 22:39:28.140403 29703 net.cpp:338] pool3/3x3_s2_pool3/3x3_s2_0_split -> pool3/3x3_s2_pool3/3x3_s2_0_split_1
I1218 22:39:28.140410 29703 net.cpp:338] pool3/3x3_s2_pool3/3x3_s2_0_split -> pool3/3x3_s2_pool3/3x3_s2_0_split_2
I1218 22:39:28.140416 29703 net.cpp:338] pool3/3x3_s2_pool3/3x3_s2_0_split -> pool3/3x3_s2_pool3/3x3_s2_0_split_3
I1218 22:39:28.140422 29703 net.cpp:113] Setting up pool3/3x3_s2_pool3/3x3_s2_0_split
I1218 22:39:28.140429 29703 net.cpp:120] Top shape: 80 480 14 14 (7526400)
I1218 22:39:28.140434 29703 net.cpp:120] Top shape: 80 480 14 14 (7526400)
I1218 22:39:28.140439 29703 net.cpp:120] Top shape: 80 480 14 14 (7526400)
I1218 22:39:28.140444 29703 net.cpp:120] Top shape: 80 480 14 14 (7526400)
I1218 22:39:28.140446 29703 layer_factory.hpp:74] Creating layer inception_4a/1x1
I1218 22:39:28.140455 29703 net.cpp:84] Creating Layer inception_4a/1x1
I1218 22:39:28.140460 29703 net.cpp:380] inception_4a/1x1 <- pool3/3x3_s2_pool3/3x3_s2_0_split_0
I1218 22:39:28.140467 29703 net.cpp:338] inception_4a/1x1 -> inception_4a/1x1
I1218 22:39:28.140475 29703 net.cpp:113] Setting up inception_4a/1x1
I1218 22:39:28.141919 29703 net.cpp:120] Top shape: 80 192 14 14 (3010560)
I1218 22:39:28.141935 29703 layer_factory.hpp:74] Creating layer inception_4a/relu_1x1
I1218 22:39:28.141953 29703 net.cpp:84] Creating Layer inception_4a/relu_1x1
I1218 22:39:28.141958 29703 net.cpp:380] inception_4a/relu_1x1 <- inception_4a/1x1
I1218 22:39:28.141968 29703 net.cpp:327] inception_4a/relu_1x1 -> inception_4a/1x1 (in-place)
I1218 22:39:28.141974 29703 net.cpp:113] Setting up inception_4a/relu_1x1
I1218 22:39:28.146771 29703 net.cpp:120] Top shape: 80 192 14 14 (3010560)
I1218 22:39:28.146798 29703 layer_factory.hpp:74] Creating layer inception_4a/3x3_reduce
I1218 22:39:28.146814 29703 net.cpp:84] Creating Layer inception_4a/3x3_reduce
I1218 22:39:28.146821 29703 net.cpp:380] inception_4a/3x3_reduce <- pool3/3x3_s2_pool3/3x3_s2_0_split_1
I1218 22:39:28.146834 29703 net.cpp:338] inception_4a/3x3_reduce -> inception_4a/3x3_reduce
I1218 22:39:28.146852 29703 net.cpp:113] Setting up inception_4a/3x3_reduce
I1218 22:39:28.147753 29703 net.cpp:120] Top shape: 80 96 14 14 (1505280)
I1218 22:39:28.147774 29703 layer_factory.hpp:74] Creating layer inception_4a/relu_3x3_reduce
I1218 22:39:28.147781 29703 net.cpp:84] Creating Layer inception_4a/relu_3x3_reduce
I1218 22:39:28.147786 29703 net.cpp:380] inception_4a/relu_3x3_reduce <- inception_4a/3x3_reduce
I1218 22:39:28.147794 29703 net.cpp:327] inception_4a/relu_3x3_reduce -> inception_4a/3x3_reduce (in-place)
I1218 22:39:28.147800 29703 net.cpp:113] Setting up inception_4a/relu_3x3_reduce
I1218 22:39:28.147867 29703 net.cpp:120] Top shape: 80 96 14 14 (1505280)
I1218 22:39:28.147872 29703 layer_factory.hpp:74] Creating layer inception_4a/3x3
I1218 22:39:28.147879 29703 net.cpp:84] Creating Layer inception_4a/3x3
I1218 22:39:28.147884 29703 net.cpp:380] inception_4a/3x3 <- inception_4a/3x3_reduce
I1218 22:39:28.147892 29703 net.cpp:338] inception_4a/3x3 -> inception_4a/3x3
I1218 22:39:28.147900 29703 net.cpp:113] Setting up inception_4a/3x3
I1218 22:39:28.150235 29703 net.cpp:120] Top shape: 80 208 14 14 (3261440)
I1218 22:39:28.150250 29703 layer_factory.hpp:74] Creating layer inception_4a/relu_3x3
I1218 22:39:28.150257 29703 net.cpp:84] Creating Layer inception_4a/relu_3x3
I1218 22:39:28.150262 29703 net.cpp:380] inception_4a/relu_3x3 <- inception_4a/3x3
I1218 22:39:28.150270 29703 net.cpp:327] inception_4a/relu_3x3 -> inception_4a/3x3 (in-place)
I1218 22:39:28.150277 29703 net.cpp:113] Setting up inception_4a/relu_3x3
I1218 22:39:28.150338 29703 net.cpp:120] Top shape: 80 208 14 14 (3261440)
I1218 22:39:28.150353 29703 layer_factory.hpp:74] Creating layer inception_4a/5x5_reduce
I1218 22:39:28.150368 29703 net.cpp:84] Creating Layer inception_4a/5x5_reduce
I1218 22:39:28.150373 29703 net.cpp:380] inception_4a/5x5_reduce <- pool3/3x3_s2_pool3/3x3_s2_0_split_2
I1218 22:39:28.150380 29703 net.cpp:338] inception_4a/5x5_reduce -> inception_4a/5x5_reduce
I1218 22:39:28.150388 29703 net.cpp:113] Setting up inception_4a/5x5_reduce
I1218 22:39:28.150857 29703 net.cpp:120] Top shape: 80 16 14 14 (250880)
I1218 22:39:28.150872 29703 layer_factory.hpp:74] Creating layer inception_4a/relu_5x5_reduce
I1218 22:39:28.150878 29703 net.cpp:84] Creating Layer inception_4a/relu_5x5_reduce
I1218 22:39:28.150883 29703 net.cpp:380] inception_4a/relu_5x5_reduce <- inception_4a/5x5_reduce
I1218 22:39:28.150890 29703 net.cpp:327] inception_4a/relu_5x5_reduce -> inception_4a/5x5_reduce (in-place)
I1218 22:39:28.150897 29703 net.cpp:113] Setting up inception_4a/relu_5x5_reduce
I1218 22:39:28.150960 29703 net.cpp:120] Top shape: 80 16 14 14 (250880)
I1218 22:39:28.150966 29703 layer_factory.hpp:74] Creating layer inception_4a/5x5
I1218 22:39:28.150975 29703 net.cpp:84] Creating Layer inception_4a/5x5
I1218 22:39:28.150980 29703 net.cpp:380] inception_4a/5x5 <- inception_4a/5x5_reduce
I1218 22:39:28.150986 29703 net.cpp:338] inception_4a/5x5 -> inception_4a/5x5
I1218 22:39:28.150995 29703 net.cpp:113] Setting up inception_4a/5x5
I1218 22:39:28.151582 29703 net.cpp:120] Top shape: 80 48 14 14 (752640)
I1218 22:39:28.151595 29703 layer_factory.hpp:74] Creating layer inception_4a/relu_5x5
I1218 22:39:28.151612 29703 net.cpp:84] Creating Layer inception_4a/relu_5x5
I1218 22:39:28.151617 29703 net.cpp:380] inception_4a/relu_5x5 <- inception_4a/5x5
I1218 22:39:28.151623 29703 net.cpp:327] inception_4a/relu_5x5 -> inception_4a/5x5 (in-place)
I1218 22:39:28.151629 29703 net.cpp:113] Setting up inception_4a/relu_5x5
I1218 22:39:28.151868 29703 net.cpp:120] Top shape: 80 48 14 14 (752640)
I1218 22:39:28.151878 29703 layer_factory.hpp:74] Creating layer inception_4a/pool
I1218 22:39:28.151885 29703 layer_factory.cpp:56] CUDNN does not support padding or multiple tops. Using Caffe's own pooling layer.
I1218 22:39:28.151898 29703 net.cpp:84] Creating Layer inception_4a/pool
I1218 22:39:28.151903 29703 net.cpp:380] inception_4a/pool <- pool3/3x3_s2_pool3/3x3_s2_0_split_3
I1218 22:39:28.151921 29703 net.cpp:338] inception_4a/pool -> inception_4a/pool
I1218 22:39:28.151929 29703 net.cpp:113] Setting up inception_4a/pool
I1218 22:39:28.151938 29703 net.cpp:120] Top shape: 80 480 14 14 (7526400)
I1218 22:39:28.151950 29703 layer_factory.hpp:74] Creating layer inception_4a/pool_proj
I1218 22:39:28.151962 29703 net.cpp:84] Creating Layer inception_4a/pool_proj
I1218 22:39:28.151967 29703 net.cpp:380] inception_4a/pool_proj <- inception_4a/pool
I1218 22:39:28.151973 29703 net.cpp:338] inception_4a/pool_proj -> inception_4a/pool_proj
I1218 22:39:28.151983 29703 net.cpp:113] Setting up inception_4a/pool_proj
I1218 22:39:28.152700 29703 net.cpp:120] Top shape: 80 64 14 14 (1003520)
I1218 22:39:28.152722 29703 layer_factory.hpp:74] Creating layer inception_4a/relu_pool_proj
I1218 22:39:28.152734 29703 net.cpp:84] Creating Layer inception_4a/relu_pool_proj
I1218 22:39:28.152740 29703 net.cpp:380] inception_4a/relu_pool_proj <- inception_4a/pool_proj
I1218 22:39:28.152748 29703 net.cpp:327] inception_4a/relu_pool_proj -> inception_4a/pool_proj (in-place)
I1218 22:39:28.152756 29703 net.cpp:113] Setting up inception_4a/relu_pool_proj
I1218 22:39:28.152825 29703 net.cpp:120] Top shape: 80 64 14 14 (1003520)
I1218 22:39:28.152832 29703 layer_factory.hpp:74] Creating layer inception_4a/output
I1218 22:39:28.152837 29703 net.cpp:84] Creating Layer inception_4a/output
I1218 22:39:28.152842 29703 net.cpp:380] inception_4a/output <- inception_4a/1x1
I1218 22:39:28.152848 29703 net.cpp:380] inception_4a/output <- inception_4a/3x3
I1218 22:39:28.152853 29703 net.cpp:380] inception_4a/output <- inception_4a/5x5
I1218 22:39:28.152856 29703 net.cpp:380] inception_4a/output <- inception_4a/pool_proj
I1218 22:39:28.152863 29703 net.cpp:338] inception_4a/output -> inception_4a/output
I1218 22:39:28.152868 29703 net.cpp:113] Setting up inception_4a/output
I1218 22:39:28.152875 29703 net.cpp:120] Top shape: 80 512 14 14 (8028160)
I1218 22:39:28.152879 29703 layer_factory.hpp:74] Creating layer inception_4a/output_inception_4a/output_0_split
I1218 22:39:28.152892 29703 net.cpp:84] Creating Layer inception_4a/output_inception_4a/output_0_split
I1218 22:39:28.152897 29703 net.cpp:380] inception_4a/output_inception_4a/output_0_split <- inception_4a/output
I1218 22:39:28.152904 29703 net.cpp:338] inception_4a/output_inception_4a/output_0_split -> inception_4a/output_inception_4a/output_0_split_0
I1218 22:39:28.152912 29703 net.cpp:338] inception_4a/output_inception_4a/output_0_split -> inception_4a/output_inception_4a/output_0_split_1
I1218 22:39:28.152918 29703 net.cpp:338] inception_4a/output_inception_4a/output_0_split -> inception_4a/output_inception_4a/output_0_split_2
I1218 22:39:28.152925 29703 net.cpp:338] inception_4a/output_inception_4a/output_0_split -> inception_4a/output_inception_4a/output_0_split_3
I1218 22:39:28.152931 29703 net.cpp:338] inception_4a/output_inception_4a/output_0_split -> inception_4a/output_inception_4a/output_0_split_4
I1218 22:39:28.152940 29703 net.cpp:113] Setting up inception_4a/output_inception_4a/output_0_split
I1218 22:39:28.152946 29703 net.cpp:120] Top shape: 80 512 14 14 (8028160)
I1218 22:39:28.152951 29703 net.cpp:120] Top shape: 80 512 14 14 (8028160)
I1218 22:39:28.152956 29703 net.cpp:120] Top shape: 80 512 14 14 (8028160)
I1218 22:39:28.152961 29703 net.cpp:120] Top shape: 80 512 14 14 (8028160)
I1218 22:39:28.152966 29703 net.cpp:120] Top shape: 80 512 14 14 (8028160)
I1218 22:39:28.152969 29703 layer_factory.hpp:74] Creating layer loss1/ave_pool
I1218 22:39:28.152981 29703 net.cpp:84] Creating Layer loss1/ave_pool
I1218 22:39:28.152986 29703 net.cpp:380] loss1/ave_pool <- inception_4a/output_inception_4a/output_0_split_0
I1218 22:39:28.152992 29703 net.cpp:338] loss1/ave_pool -> loss1/ave_pool
I1218 22:39:28.152997 29703 net.cpp:113] Setting up loss1/ave_pool
I1218 22:39:28.153067 29703 net.cpp:120] Top shape: 80 512 4 4 (655360)
I1218 22:39:28.153075 29703 layer_factory.hpp:74] Creating layer loss1/conv
I1218 22:39:28.153092 29703 net.cpp:84] Creating Layer loss1/conv
I1218 22:39:28.153100 29703 net.cpp:380] loss1/conv <- loss1/ave_pool
I1218 22:39:28.153115 29703 net.cpp:338] loss1/conv -> loss1/conv
I1218 22:39:28.153127 29703 net.cpp:113] Setting up loss1/conv
I1218 22:39:28.154238 29703 net.cpp:120] Top shape: 80 128 4 4 (163840)
I1218 22:39:28.154253 29703 layer_factory.hpp:74] Creating layer loss1/relu_conv
I1218 22:39:28.154268 29703 net.cpp:84] Creating Layer loss1/relu_conv
I1218 22:39:28.154274 29703 net.cpp:380] loss1/relu_conv <- loss1/conv
I1218 22:39:28.154280 29703 net.cpp:327] loss1/relu_conv -> loss1/conv (in-place)
I1218 22:39:28.154305 29703 net.cpp:113] Setting up loss1/relu_conv
I1218 22:39:28.154376 29703 net.cpp:120] Top shape: 80 128 4 4 (163840)
I1218 22:39:28.154381 29703 layer_factory.hpp:74] Creating layer loss1/fc
I1218 22:39:28.154388 29703 net.cpp:84] Creating Layer loss1/fc
I1218 22:39:28.154393 29703 net.cpp:380] loss1/fc <- loss1/conv
I1218 22:39:28.154400 29703 net.cpp:338] loss1/fc -> loss1/fc
I1218 22:39:28.154410 29703 net.cpp:113] Setting up loss1/fc
I1218 22:39:28.373445 29703 net.cpp:120] Top shape: 80 1024 (81920)
I1218 22:39:28.373505 29703 layer_factory.hpp:74] Creating layer loss1/relu_fc
I1218 22:39:28.373523 29703 net.cpp:84] Creating Layer loss1/relu_fc
I1218 22:39:28.373534 29703 net.cpp:380] loss1/relu_fc <- loss1/fc
I1218 22:39:28.373553 29703 net.cpp:327] loss1/relu_fc -> loss1/fc (in-place)
I1218 22:39:28.373566 29703 net.cpp:113] Setting up loss1/relu_fc
I1218 22:39:28.373965 29703 net.cpp:120] Top shape: 80 1024 (81920)
I1218 22:39:28.373989 29703 layer_factory.hpp:74] Creating layer loss1/drop_fc
I1218 22:39:28.374011 29703 net.cpp:84] Creating Layer loss1/drop_fc
I1218 22:39:28.374017 29703 net.cpp:380] loss1/drop_fc <- loss1/fc
I1218 22:39:28.374025 29703 net.cpp:327] loss1/drop_fc -> loss1/fc (in-place)
I1218 22:39:28.374035 29703 net.cpp:113] Setting up loss1/drop_fc
I1218 22:39:28.374045 29703 net.cpp:120] Top shape: 80 1024 (81920)
I1218 22:39:28.374050 29703 layer_factory.hpp:74] Creating layer loss1/classifier_kaggle
I1218 22:39:28.374068 29703 net.cpp:84] Creating Layer loss1/classifier_kaggle
I1218 22:39:28.374073 29703 net.cpp:380] loss1/classifier_kaggle <- loss1/fc
I1218 22:39:28.374080 29703 net.cpp:338] loss1/classifier_kaggle -> loss1/classifier_kaggle
I1218 22:39:28.374090 29703 net.cpp:113] Setting up loss1/classifier_kaggle
I1218 22:39:28.379791 29703 net.cpp:120] Top shape: 80 447 (35760)
I1218 22:39:28.379808 29703 layer_factory.hpp:74] Creating layer loss1/loss
I1218 22:39:28.379817 29703 net.cpp:84] Creating Layer loss1/loss
I1218 22:39:28.379822 29703 net.cpp:380] loss1/loss <- loss1/classifier_kaggle
I1218 22:39:28.379829 29703 net.cpp:380] loss1/loss <- label_data_1_split_0
I1218 22:39:28.379835 29703 net.cpp:338] loss1/loss -> loss1/loss1
I1218 22:39:28.379844 29703 net.cpp:113] Setting up loss1/loss
I1218 22:39:28.379853 29703 layer_factory.hpp:74] Creating layer loss1/loss
I1218 22:39:28.380038 29703 net.cpp:120] Top shape: (1)
I1218 22:39:28.380045 29703 net.cpp:122]     with loss weight 0.3
I1218 22:39:28.380064 29703 layer_factory.hpp:74] Creating layer inception_4b/1x1
I1218 22:39:28.380084 29703 net.cpp:84] Creating Layer inception_4b/1x1
I1218 22:39:28.380089 29703 net.cpp:380] inception_4b/1x1 <- inception_4a/output_inception_4a/output_0_split_1
I1218 22:39:28.380100 29703 net.cpp:338] inception_4b/1x1 -> inception_4b/1x1
I1218 22:39:28.380108 29703 net.cpp:113] Setting up inception_4b/1x1
I1218 22:39:28.381553 29703 net.cpp:120] Top shape: 80 160 14 14 (2508800)
I1218 22:39:28.381580 29703 layer_factory.hpp:74] Creating layer inception_4b/relu_1x1
I1218 22:39:28.381589 29703 net.cpp:84] Creating Layer inception_4b/relu_1x1
I1218 22:39:28.381595 29703 net.cpp:380] inception_4b/relu_1x1 <- inception_4b/1x1
I1218 22:39:28.381603 29703 net.cpp:327] inception_4b/relu_1x1 -> inception_4b/1x1 (in-place)
I1218 22:39:28.381610 29703 net.cpp:113] Setting up inception_4b/relu_1x1
I1218 22:39:28.381683 29703 net.cpp:120] Top shape: 80 160 14 14 (2508800)
I1218 22:39:28.381700 29703 layer_factory.hpp:74] Creating layer inception_4b/3x3_reduce
I1218 22:39:28.381728 29703 net.cpp:84] Creating Layer inception_4b/3x3_reduce
I1218 22:39:28.381733 29703 net.cpp:380] inception_4b/3x3_reduce <- inception_4a/output_inception_4a/output_0_split_2
I1218 22:39:28.381742 29703 net.cpp:338] inception_4b/3x3_reduce -> inception_4b/3x3_reduce
I1218 22:39:28.381750 29703 net.cpp:113] Setting up inception_4b/3x3_reduce
I1218 22:39:28.382822 29703 net.cpp:120] Top shape: 80 112 14 14 (1756160)
I1218 22:39:28.382838 29703 layer_factory.hpp:74] Creating layer inception_4b/relu_3x3_reduce
I1218 22:39:28.382844 29703 net.cpp:84] Creating Layer inception_4b/relu_3x3_reduce
I1218 22:39:28.382849 29703 net.cpp:380] inception_4b/relu_3x3_reduce <- inception_4b/3x3_reduce
I1218 22:39:28.382858 29703 net.cpp:327] inception_4b/relu_3x3_reduce -> inception_4b/3x3_reduce (in-place)
I1218 22:39:28.382865 29703 net.cpp:113] Setting up inception_4b/relu_3x3_reduce
I1218 22:39:28.382932 29703 net.cpp:120] Top shape: 80 112 14 14 (1756160)
I1218 22:39:28.382937 29703 layer_factory.hpp:74] Creating layer inception_4b/3x3
I1218 22:39:28.382947 29703 net.cpp:84] Creating Layer inception_4b/3x3
I1218 22:39:28.382952 29703 net.cpp:380] inception_4b/3x3 <- inception_4b/3x3_reduce
I1218 22:39:28.382958 29703 net.cpp:338] inception_4b/3x3 -> inception_4b/3x3
I1218 22:39:28.382967 29703 net.cpp:113] Setting up inception_4b/3x3
I1218 22:39:28.386129 29703 net.cpp:120] Top shape: 80 224 14 14 (3512320)
I1218 22:39:28.386149 29703 layer_factory.hpp:74] Creating layer inception_4b/relu_3x3
I1218 22:39:28.386170 29703 net.cpp:84] Creating Layer inception_4b/relu_3x3
I1218 22:39:28.386178 29703 net.cpp:380] inception_4b/relu_3x3 <- inception_4b/3x3
I1218 22:39:28.386185 29703 net.cpp:327] inception_4b/relu_3x3 -> inception_4b/3x3 (in-place)
I1218 22:39:28.386193 29703 net.cpp:113] Setting up inception_4b/relu_3x3
I1218 22:39:28.386452 29703 net.cpp:120] Top shape: 80 224 14 14 (3512320)
I1218 22:39:28.386471 29703 layer_factory.hpp:74] Creating layer inception_4b/5x5_reduce
I1218 22:39:28.386482 29703 net.cpp:84] Creating Layer inception_4b/5x5_reduce
I1218 22:39:28.386489 29703 net.cpp:380] inception_4b/5x5_reduce <- inception_4a/output_inception_4a/output_0_split_3
I1218 22:39:28.386499 29703 net.cpp:338] inception_4b/5x5_reduce -> inception_4b/5x5_reduce
I1218 22:39:28.386509 29703 net.cpp:113] Setting up inception_4b/5x5_reduce
I1218 22:39:28.387115 29703 net.cpp:120] Top shape: 80 24 14 14 (376320)
I1218 22:39:28.387131 29703 layer_factory.hpp:74] Creating layer inception_4b/relu_5x5_reduce
I1218 22:39:28.387138 29703 net.cpp:84] Creating Layer inception_4b/relu_5x5_reduce
I1218 22:39:28.387145 29703 net.cpp:380] inception_4b/relu_5x5_reduce <- inception_4b/5x5_reduce
I1218 22:39:28.387153 29703 net.cpp:327] inception_4b/relu_5x5_reduce -> inception_4b/5x5_reduce (in-place)
I1218 22:39:28.387162 29703 net.cpp:113] Setting up inception_4b/relu_5x5_reduce
I1218 22:39:28.387238 29703 net.cpp:120] Top shape: 80 24 14 14 (376320)
I1218 22:39:28.387245 29703 layer_factory.hpp:74] Creating layer inception_4b/5x5
I1218 22:39:28.387254 29703 net.cpp:84] Creating Layer inception_4b/5x5
I1218 22:39:28.387260 29703 net.cpp:380] inception_4b/5x5 <- inception_4b/5x5_reduce
I1218 22:39:28.387270 29703 net.cpp:338] inception_4b/5x5 -> inception_4b/5x5
I1218 22:39:28.387279 29703 net.cpp:113] Setting up inception_4b/5x5
I1218 22:39:28.388190 29703 net.cpp:120] Top shape: 80 64 14 14 (1003520)
I1218 22:39:28.388206 29703 layer_factory.hpp:74] Creating layer inception_4b/relu_5x5
I1218 22:39:28.388226 29703 net.cpp:84] Creating Layer inception_4b/relu_5x5
I1218 22:39:28.388231 29703 net.cpp:380] inception_4b/relu_5x5 <- inception_4b/5x5
I1218 22:39:28.388238 29703 net.cpp:327] inception_4b/relu_5x5 -> inception_4b/5x5 (in-place)
I1218 22:39:28.388247 29703 net.cpp:113] Setting up inception_4b/relu_5x5
I1218 22:39:28.388319 29703 net.cpp:120] Top shape: 80 64 14 14 (1003520)
I1218 22:39:28.388332 29703 layer_factory.hpp:74] Creating layer inception_4b/pool
I1218 22:39:28.388348 29703 layer_factory.cpp:56] CUDNN does not support padding or multiple tops. Using Caffe's own pooling layer.
I1218 22:39:28.388367 29703 net.cpp:84] Creating Layer inception_4b/pool
I1218 22:39:28.388373 29703 net.cpp:380] inception_4b/pool <- inception_4a/output_inception_4a/output_0_split_4
I1218 22:39:28.388381 29703 net.cpp:338] inception_4b/pool -> inception_4b/pool
I1218 22:39:28.388401 29703 net.cpp:113] Setting up inception_4b/pool
I1218 22:39:28.388411 29703 net.cpp:120] Top shape: 80 512 14 14 (8028160)
I1218 22:39:28.388417 29703 layer_factory.hpp:74] Creating layer inception_4b/pool_proj
I1218 22:39:28.388425 29703 net.cpp:84] Creating Layer inception_4b/pool_proj
I1218 22:39:28.388432 29703 net.cpp:380] inception_4b/pool_proj <- inception_4b/pool
I1218 22:39:28.388438 29703 net.cpp:338] inception_4b/pool_proj -> inception_4b/pool_proj
I1218 22:39:28.388447 29703 net.cpp:113] Setting up inception_4b/pool_proj
I1218 22:39:28.389310 29703 net.cpp:120] Top shape: 80 64 14 14 (1003520)
I1218 22:39:28.389328 29703 layer_factory.hpp:74] Creating layer inception_4b/relu_pool_proj
I1218 22:39:28.389349 29703 net.cpp:84] Creating Layer inception_4b/relu_pool_proj
I1218 22:39:28.389356 29703 net.cpp:380] inception_4b/relu_pool_proj <- inception_4b/pool_proj
I1218 22:39:28.389365 29703 net.cpp:327] inception_4b/relu_pool_proj -> inception_4b/pool_proj (in-place)
I1218 22:39:28.389374 29703 net.cpp:113] Setting up inception_4b/relu_pool_proj
I1218 22:39:28.389629 29703 net.cpp:120] Top shape: 80 64 14 14 (1003520)
I1218 22:39:28.389641 29703 layer_factory.hpp:74] Creating layer inception_4b/output
I1218 22:39:28.389648 29703 net.cpp:84] Creating Layer inception_4b/output
I1218 22:39:28.389658 29703 net.cpp:380] inception_4b/output <- inception_4b/1x1
I1218 22:39:28.389665 29703 net.cpp:380] inception_4b/output <- inception_4b/3x3
I1218 22:39:28.389672 29703 net.cpp:380] inception_4b/output <- inception_4b/5x5
I1218 22:39:28.389678 29703 net.cpp:380] inception_4b/output <- inception_4b/pool_proj
I1218 22:39:28.389683 29703 net.cpp:338] inception_4b/output -> inception_4b/output
I1218 22:39:28.389693 29703 net.cpp:113] Setting up inception_4b/output
I1218 22:39:28.389703 29703 net.cpp:120] Top shape: 80 512 14 14 (8028160)
I1218 22:39:28.389706 29703 layer_factory.hpp:74] Creating layer inception_4b/output_inception_4b/output_0_split
I1218 22:39:28.389724 29703 net.cpp:84] Creating Layer inception_4b/output_inception_4b/output_0_split
I1218 22:39:28.389730 29703 net.cpp:380] inception_4b/output_inception_4b/output_0_split <- inception_4b/output
I1218 22:39:28.389737 29703 net.cpp:338] inception_4b/output_inception_4b/output_0_split -> inception_4b/output_inception_4b/output_0_split_0
I1218 22:39:28.389747 29703 net.cpp:338] inception_4b/output_inception_4b/output_0_split -> inception_4b/output_inception_4b/output_0_split_1
I1218 22:39:28.389756 29703 net.cpp:338] inception_4b/output_inception_4b/output_0_split -> inception_4b/output_inception_4b/output_0_split_2
I1218 22:39:28.389765 29703 net.cpp:338] inception_4b/output_inception_4b/output_0_split -> inception_4b/output_inception_4b/output_0_split_3
I1218 22:39:28.389770 29703 net.cpp:113] Setting up inception_4b/output_inception_4b/output_0_split
I1218 22:39:28.389780 29703 net.cpp:120] Top shape: 80 512 14 14 (8028160)
I1218 22:39:28.389786 29703 net.cpp:120] Top shape: 80 512 14 14 (8028160)
I1218 22:39:28.389791 29703 net.cpp:120] Top shape: 80 512 14 14 (8028160)
I1218 22:39:28.389796 29703 net.cpp:120] Top shape: 80 512 14 14 (8028160)
I1218 22:39:28.389801 29703 layer_factory.hpp:74] Creating layer inception_4c/1x1
I1218 22:39:28.389811 29703 net.cpp:84] Creating Layer inception_4c/1x1
I1218 22:39:28.389816 29703 net.cpp:380] inception_4c/1x1 <- inception_4b/output_inception_4b/output_0_split_0
I1218 22:39:28.389823 29703 net.cpp:338] inception_4c/1x1 -> inception_4c/1x1
I1218 22:39:28.389832 29703 net.cpp:113] Setting up inception_4c/1x1
I1218 22:39:28.391079 29703 net.cpp:120] Top shape: 80 128 14 14 (2007040)
I1218 22:39:28.391101 29703 layer_factory.hpp:74] Creating layer inception_4c/relu_1x1
I1218 22:39:28.391129 29703 net.cpp:84] Creating Layer inception_4c/relu_1x1
I1218 22:39:28.391135 29703 net.cpp:380] inception_4c/relu_1x1 <- inception_4c/1x1
I1218 22:39:28.391144 29703 net.cpp:327] inception_4c/relu_1x1 -> inception_4c/1x1 (in-place)
I1218 22:39:28.391151 29703 net.cpp:113] Setting up inception_4c/relu_1x1
I1218 22:39:28.391227 29703 net.cpp:120] Top shape: 80 128 14 14 (2007040)
I1218 22:39:28.391234 29703 layer_factory.hpp:74] Creating layer inception_4c/3x3_reduce
I1218 22:39:28.391244 29703 net.cpp:84] Creating Layer inception_4c/3x3_reduce
I1218 22:39:28.391249 29703 net.cpp:380] inception_4c/3x3_reduce <- inception_4b/output_inception_4b/output_0_split_1
I1218 22:39:28.391258 29703 net.cpp:338] inception_4c/3x3_reduce -> inception_4c/3x3_reduce
I1218 22:39:28.391266 29703 net.cpp:113] Setting up inception_4c/3x3_reduce
I1218 22:39:28.392521 29703 net.cpp:120] Top shape: 80 128 14 14 (2007040)
I1218 22:39:28.392539 29703 layer_factory.hpp:74] Creating layer inception_4c/relu_3x3_reduce
I1218 22:39:28.392547 29703 net.cpp:84] Creating Layer inception_4c/relu_3x3_reduce
I1218 22:39:28.392554 29703 net.cpp:380] inception_4c/relu_3x3_reduce <- inception_4c/3x3_reduce
I1218 22:39:28.392561 29703 net.cpp:327] inception_4c/relu_3x3_reduce -> inception_4c/3x3_reduce (in-place)
I1218 22:39:28.392570 29703 net.cpp:113] Setting up inception_4c/relu_3x3_reduce
I1218 22:39:28.392639 29703 net.cpp:120] Top shape: 80 128 14 14 (2007040)
I1218 22:39:28.392653 29703 layer_factory.hpp:74] Creating layer inception_4c/3x3
I1218 22:39:28.392664 29703 net.cpp:84] Creating Layer inception_4c/3x3
I1218 22:39:28.392669 29703 net.cpp:380] inception_4c/3x3 <- inception_4c/3x3_reduce
I1218 22:39:28.392678 29703 net.cpp:338] inception_4c/3x3 -> inception_4c/3x3
I1218 22:39:28.392686 29703 net.cpp:113] Setting up inception_4c/3x3
I1218 22:39:28.397364 29703 net.cpp:120] Top shape: 80 256 14 14 (4014080)
I1218 22:39:28.397395 29703 layer_factory.hpp:74] Creating layer inception_4c/relu_3x3
I1218 22:39:28.397413 29703 net.cpp:84] Creating Layer inception_4c/relu_3x3
I1218 22:39:28.397420 29703 net.cpp:380] inception_4c/relu_3x3 <- inception_4c/3x3
I1218 22:39:28.397428 29703 net.cpp:327] inception_4c/relu_3x3 -> inception_4c/3x3 (in-place)
I1218 22:39:28.397435 29703 net.cpp:113] Setting up inception_4c/relu_3x3
I1218 22:39:28.397506 29703 net.cpp:120] Top shape: 80 256 14 14 (4014080)
I1218 22:39:28.397512 29703 layer_factory.hpp:74] Creating layer inception_4c/5x5_reduce
I1218 22:39:28.397523 29703 net.cpp:84] Creating Layer inception_4c/5x5_reduce
I1218 22:39:28.397529 29703 net.cpp:380] inception_4c/5x5_reduce <- inception_4b/output_inception_4b/output_0_split_2
I1218 22:39:28.397546 29703 net.cpp:338] inception_4c/5x5_reduce -> inception_4c/5x5_reduce
I1218 22:39:28.397554 29703 net.cpp:113] Setting up inception_4c/5x5_reduce
I1218 22:39:28.398102 29703 net.cpp:120] Top shape: 80 24 14 14 (376320)
I1218 22:39:28.398116 29703 layer_factory.hpp:74] Creating layer inception_4c/relu_5x5_reduce
I1218 22:39:28.398123 29703 net.cpp:84] Creating Layer inception_4c/relu_5x5_reduce
I1218 22:39:28.398128 29703 net.cpp:380] inception_4c/relu_5x5_reduce <- inception_4c/5x5_reduce
I1218 22:39:28.398138 29703 net.cpp:327] inception_4c/relu_5x5_reduce -> inception_4c/5x5_reduce (in-place)
I1218 22:39:28.398145 29703 net.cpp:113] Setting up inception_4c/relu_5x5_reduce
I1218 22:39:28.398387 29703 net.cpp:120] Top shape: 80 24 14 14 (376320)
I1218 22:39:28.398399 29703 layer_factory.hpp:74] Creating layer inception_4c/5x5
I1218 22:39:28.398422 29703 net.cpp:84] Creating Layer inception_4c/5x5
I1218 22:39:28.398428 29703 net.cpp:380] inception_4c/5x5 <- inception_4c/5x5_reduce
I1218 22:39:28.398437 29703 net.cpp:338] inception_4c/5x5 -> inception_4c/5x5
I1218 22:39:28.398445 29703 net.cpp:113] Setting up inception_4c/5x5
I1218 22:39:28.399288 29703 net.cpp:120] Top shape: 80 64 14 14 (1003520)
I1218 22:39:28.399303 29703 layer_factory.hpp:74] Creating layer inception_4c/relu_5x5
I1218 22:39:28.399317 29703 net.cpp:84] Creating Layer inception_4c/relu_5x5
I1218 22:39:28.399330 29703 net.cpp:380] inception_4c/relu_5x5 <- inception_4c/5x5
I1218 22:39:28.399338 29703 net.cpp:327] inception_4c/relu_5x5 -> inception_4c/5x5 (in-place)
I1218 22:39:28.399345 29703 net.cpp:113] Setting up inception_4c/relu_5x5
I1218 22:39:28.399418 29703 net.cpp:120] Top shape: 80 64 14 14 (1003520)
I1218 22:39:28.399425 29703 layer_factory.hpp:74] Creating layer inception_4c/pool
I1218 22:39:28.399430 29703 layer_factory.cpp:56] CUDNN does not support padding or multiple tops. Using Caffe's own pooling layer.
I1218 22:39:28.399438 29703 net.cpp:84] Creating Layer inception_4c/pool
I1218 22:39:28.399443 29703 net.cpp:380] inception_4c/pool <- inception_4b/output_inception_4b/output_0_split_3
I1218 22:39:28.399451 29703 net.cpp:338] inception_4c/pool -> inception_4c/pool
I1218 22:39:28.399458 29703 net.cpp:113] Setting up inception_4c/pool
I1218 22:39:28.399466 29703 net.cpp:120] Top shape: 80 512 14 14 (8028160)
I1218 22:39:28.399471 29703 layer_factory.hpp:74] Creating layer inception_4c/pool_proj
I1218 22:39:28.399482 29703 net.cpp:84] Creating Layer inception_4c/pool_proj
I1218 22:39:28.399487 29703 net.cpp:380] inception_4c/pool_proj <- inception_4c/pool
I1218 22:39:28.399493 29703 net.cpp:338] inception_4c/pool_proj -> inception_4c/pool_proj
I1218 22:39:28.399500 29703 net.cpp:113] Setting up inception_4c/pool_proj
I1218 22:39:28.400275 29703 net.cpp:120] Top shape: 80 64 14 14 (1003520)
I1218 22:39:28.400290 29703 layer_factory.hpp:74] Creating layer inception_4c/relu_pool_proj
I1218 22:39:28.400307 29703 net.cpp:84] Creating Layer inception_4c/relu_pool_proj
I1218 22:39:28.400313 29703 net.cpp:380] inception_4c/relu_pool_proj <- inception_4c/pool_proj
I1218 22:39:28.400321 29703 net.cpp:327] inception_4c/relu_pool_proj -> inception_4c/pool_proj (in-place)
I1218 22:39:28.400329 29703 net.cpp:113] Setting up inception_4c/relu_pool_proj
I1218 22:39:28.400405 29703 net.cpp:120] Top shape: 80 64 14 14 (1003520)
I1218 22:39:28.400418 29703 layer_factory.hpp:74] Creating layer inception_4c/output
I1218 22:39:28.400425 29703 net.cpp:84] Creating Layer inception_4c/output
I1218 22:39:28.400430 29703 net.cpp:380] inception_4c/output <- inception_4c/1x1
I1218 22:39:28.400436 29703 net.cpp:380] inception_4c/output <- inception_4c/3x3
I1218 22:39:28.400441 29703 net.cpp:380] inception_4c/output <- inception_4c/5x5
I1218 22:39:28.400446 29703 net.cpp:380] inception_4c/output <- inception_4c/pool_proj
I1218 22:39:28.400454 29703 net.cpp:338] inception_4c/output -> inception_4c/output
I1218 22:39:28.400461 29703 net.cpp:113] Setting up inception_4c/output
I1218 22:39:28.400470 29703 net.cpp:120] Top shape: 80 512 14 14 (8028160)
I1218 22:39:28.400475 29703 layer_factory.hpp:74] Creating layer inception_4c/output_inception_4c/output_0_split
I1218 22:39:28.400480 29703 net.cpp:84] Creating Layer inception_4c/output_inception_4c/output_0_split
I1218 22:39:28.400485 29703 net.cpp:380] inception_4c/output_inception_4c/output_0_split <- inception_4c/output
I1218 22:39:28.400491 29703 net.cpp:338] inception_4c/output_inception_4c/output_0_split -> inception_4c/output_inception_4c/output_0_split_0
I1218 22:39:28.400501 29703 net.cpp:338] inception_4c/output_inception_4c/output_0_split -> inception_4c/output_inception_4c/output_0_split_1
I1218 22:39:28.400508 29703 net.cpp:338] inception_4c/output_inception_4c/output_0_split -> inception_4c/output_inception_4c/output_0_split_2
I1218 22:39:28.400516 29703 net.cpp:338] inception_4c/output_inception_4c/output_0_split -> inception_4c/output_inception_4c/output_0_split_3
I1218 22:39:28.400521 29703 net.cpp:113] Setting up inception_4c/output_inception_4c/output_0_split
I1218 22:39:28.400529 29703 net.cpp:120] Top shape: 80 512 14 14 (8028160)
I1218 22:39:28.400534 29703 net.cpp:120] Top shape: 80 512 14 14 (8028160)
I1218 22:39:28.400539 29703 net.cpp:120] Top shape: 80 512 14 14 (8028160)
I1218 22:39:28.400544 29703 net.cpp:120] Top shape: 80 512 14 14 (8028160)
I1218 22:39:28.400548 29703 layer_factory.hpp:74] Creating layer inception_4d/1x1
I1218 22:39:28.400568 29703 net.cpp:84] Creating Layer inception_4d/1x1
I1218 22:39:28.400573 29703 net.cpp:380] inception_4d/1x1 <- inception_4c/output_inception_4c/output_0_split_0
I1218 22:39:28.400579 29703 net.cpp:338] inception_4d/1x1 -> inception_4d/1x1
I1218 22:39:28.400588 29703 net.cpp:113] Setting up inception_4d/1x1
I1218 22:39:28.401671 29703 net.cpp:120] Top shape: 80 112 14 14 (1756160)
I1218 22:39:28.401689 29703 layer_factory.hpp:74] Creating layer inception_4d/relu_1x1
I1218 22:39:28.401707 29703 net.cpp:84] Creating Layer inception_4d/relu_1x1
I1218 22:39:28.401713 29703 net.cpp:380] inception_4d/relu_1x1 <- inception_4d/1x1
I1218 22:39:28.401721 29703 net.cpp:327] inception_4d/relu_1x1 -> inception_4d/1x1 (in-place)
I1218 22:39:28.401729 29703 net.cpp:113] Setting up inception_4d/relu_1x1
I1218 22:39:28.401798 29703 net.cpp:120] Top shape: 80 112 14 14 (1756160)
I1218 22:39:28.401810 29703 layer_factory.hpp:74] Creating layer inception_4d/3x3_reduce
I1218 22:39:28.401820 29703 net.cpp:84] Creating Layer inception_4d/3x3_reduce
I1218 22:39:28.401825 29703 net.cpp:380] inception_4d/3x3_reduce <- inception_4c/output_inception_4c/output_0_split_1
I1218 22:39:28.401832 29703 net.cpp:338] inception_4d/3x3_reduce -> inception_4d/3x3_reduce
I1218 22:39:28.401841 29703 net.cpp:113] Setting up inception_4d/3x3_reduce
I1218 22:39:28.403148 29703 net.cpp:120] Top shape: 80 144 14 14 (2257920)
I1218 22:39:28.403164 29703 layer_factory.hpp:74] Creating layer inception_4d/relu_3x3_reduce
I1218 22:39:28.403172 29703 net.cpp:84] Creating Layer inception_4d/relu_3x3_reduce
I1218 22:39:28.403177 29703 net.cpp:380] inception_4d/relu_3x3_reduce <- inception_4d/3x3_reduce
I1218 22:39:28.403187 29703 net.cpp:327] inception_4d/relu_3x3_reduce -> inception_4d/3x3_reduce (in-place)
I1218 22:39:28.403194 29703 net.cpp:113] Setting up inception_4d/relu_3x3_reduce
I1218 22:39:28.403439 29703 net.cpp:120] Top shape: 80 144 14 14 (2257920)
I1218 22:39:28.403450 29703 layer_factory.hpp:74] Creating layer inception_4d/3x3
I1218 22:39:28.403467 29703 net.cpp:84] Creating Layer inception_4d/3x3
I1218 22:39:28.403473 29703 net.cpp:380] inception_4d/3x3 <- inception_4d/3x3_reduce
I1218 22:39:28.403486 29703 net.cpp:338] inception_4d/3x3 -> inception_4d/3x3
I1218 22:39:28.403501 29703 net.cpp:113] Setting up inception_4d/3x3
I1218 22:39:28.408232 29703 net.cpp:120] Top shape: 80 288 14 14 (4515840)
I1218 22:39:28.408249 29703 layer_factory.hpp:74] Creating layer inception_4d/relu_3x3
I1218 22:39:28.408257 29703 net.cpp:84] Creating Layer inception_4d/relu_3x3
I1218 22:39:28.408262 29703 net.cpp:380] inception_4d/relu_3x3 <- inception_4d/3x3
I1218 22:39:28.408283 29703 net.cpp:327] inception_4d/relu_3x3 -> inception_4d/3x3 (in-place)
I1218 22:39:28.408291 29703 net.cpp:113] Setting up inception_4d/relu_3x3
I1218 22:39:28.408363 29703 net.cpp:120] Top shape: 80 288 14 14 (4515840)
I1218 22:39:28.408370 29703 layer_factory.hpp:74] Creating layer inception_4d/5x5_reduce
I1218 22:39:28.408378 29703 net.cpp:84] Creating Layer inception_4d/5x5_reduce
I1218 22:39:28.408383 29703 net.cpp:380] inception_4d/5x5_reduce <- inception_4c/output_inception_4c/output_0_split_2
I1218 22:39:28.408392 29703 net.cpp:338] inception_4d/5x5_reduce -> inception_4d/5x5_reduce
I1218 22:39:28.408401 29703 net.cpp:113] Setting up inception_4d/5x5_reduce
I1218 22:39:28.408993 29703 net.cpp:120] Top shape: 80 32 14 14 (501760)
I1218 22:39:28.409015 29703 layer_factory.hpp:74] Creating layer inception_4d/relu_5x5_reduce
I1218 22:39:28.409024 29703 net.cpp:84] Creating Layer inception_4d/relu_5x5_reduce
I1218 22:39:28.409029 29703 net.cpp:380] inception_4d/relu_5x5_reduce <- inception_4d/5x5_reduce
I1218 22:39:28.409036 29703 net.cpp:327] inception_4d/relu_5x5_reduce -> inception_4d/5x5_reduce (in-place)
I1218 22:39:28.409044 29703 net.cpp:113] Setting up inception_4d/relu_5x5_reduce
I1218 22:39:28.409148 29703 net.cpp:120] Top shape: 80 32 14 14 (501760)
I1218 22:39:28.409162 29703 layer_factory.hpp:74] Creating layer inception_4d/5x5
I1218 22:39:28.409190 29703 net.cpp:84] Creating Layer inception_4d/5x5
I1218 22:39:28.409206 29703 net.cpp:380] inception_4d/5x5 <- inception_4d/5x5_reduce
I1218 22:39:28.409219 29703 net.cpp:338] inception_4d/5x5 -> inception_4d/5x5
I1218 22:39:28.409230 29703 net.cpp:113] Setting up inception_4d/5x5
I1218 22:39:28.410894 29703 net.cpp:120] Top shape: 80 64 14 14 (1003520)
I1218 22:39:28.410919 29703 layer_factory.hpp:74] Creating layer inception_4d/relu_5x5
I1218 22:39:28.410930 29703 net.cpp:84] Creating Layer inception_4d/relu_5x5
I1218 22:39:28.410940 29703 net.cpp:380] inception_4d/relu_5x5 <- inception_4d/5x5
I1218 22:39:28.410951 29703 net.cpp:327] inception_4d/relu_5x5 -> inception_4d/5x5 (in-place)
I1218 22:39:28.410964 29703 net.cpp:113] Setting up inception_4d/relu_5x5
I1218 22:39:28.411072 29703 net.cpp:120] Top shape: 80 64 14 14 (1003520)
I1218 22:39:28.411085 29703 layer_factory.hpp:74] Creating layer inception_4d/pool
I1218 22:39:28.411094 29703 layer_factory.cpp:56] CUDNN does not support padding or multiple tops. Using Caffe's own pooling layer.
I1218 22:39:28.411104 29703 net.cpp:84] Creating Layer inception_4d/pool
I1218 22:39:28.411113 29703 net.cpp:380] inception_4d/pool <- inception_4c/output_inception_4c/output_0_split_3
I1218 22:39:28.411128 29703 net.cpp:338] inception_4d/pool -> inception_4d/pool
I1218 22:39:28.411141 29703 net.cpp:113] Setting up inception_4d/pool
I1218 22:39:28.411155 29703 net.cpp:120] Top shape: 80 512 14 14 (8028160)
I1218 22:39:28.411175 29703 layer_factory.hpp:74] Creating layer inception_4d/pool_proj
I1218 22:39:28.411195 29703 net.cpp:84] Creating Layer inception_4d/pool_proj
I1218 22:39:28.411205 29703 net.cpp:380] inception_4d/pool_proj <- inception_4d/pool
I1218 22:39:28.411218 29703 net.cpp:338] inception_4d/pool_proj -> inception_4d/pool_proj
I1218 22:39:28.411231 29703 net.cpp:113] Setting up inception_4d/pool_proj
I1218 22:39:28.412256 29703 net.cpp:120] Top shape: 80 64 14 14 (1003520)
I1218 22:39:28.412279 29703 layer_factory.hpp:74] Creating layer inception_4d/relu_pool_proj
I1218 22:39:28.412291 29703 net.cpp:84] Creating Layer inception_4d/relu_pool_proj
I1218 22:39:28.412299 29703 net.cpp:380] inception_4d/relu_pool_proj <- inception_4d/pool_proj
I1218 22:39:28.412310 29703 net.cpp:327] inception_4d/relu_pool_proj -> inception_4d/pool_proj (in-place)
I1218 22:39:28.412323 29703 net.cpp:113] Setting up inception_4d/relu_pool_proj
I1218 22:39:28.412653 29703 net.cpp:120] Top shape: 80 64 14 14 (1003520)
I1218 22:39:28.412669 29703 layer_factory.hpp:74] Creating layer inception_4d/output
I1218 22:39:28.412683 29703 net.cpp:84] Creating Layer inception_4d/output
I1218 22:39:28.412693 29703 net.cpp:380] inception_4d/output <- inception_4d/1x1
I1218 22:39:28.412703 29703 net.cpp:380] inception_4d/output <- inception_4d/3x3
I1218 22:39:28.412713 29703 net.cpp:380] inception_4d/output <- inception_4d/5x5
I1218 22:39:28.412720 29703 net.cpp:380] inception_4d/output <- inception_4d/pool_proj
I1218 22:39:28.412731 29703 net.cpp:338] inception_4d/output -> inception_4d/output
I1218 22:39:28.412744 29703 net.cpp:113] Setting up inception_4d/output
I1218 22:39:28.412756 29703 net.cpp:120] Top shape: 80 528 14 14 (8279040)
I1218 22:39:28.412765 29703 layer_factory.hpp:74] Creating layer inception_4d/output_inception_4d/output_0_split
I1218 22:39:28.412777 29703 net.cpp:84] Creating Layer inception_4d/output_inception_4d/output_0_split
I1218 22:39:28.412786 29703 net.cpp:380] inception_4d/output_inception_4d/output_0_split <- inception_4d/output
I1218 22:39:28.412796 29703 net.cpp:338] inception_4d/output_inception_4d/output_0_split -> inception_4d/output_inception_4d/output_0_split_0
I1218 22:39:28.412809 29703 net.cpp:338] inception_4d/output_inception_4d/output_0_split -> inception_4d/output_inception_4d/output_0_split_1
I1218 22:39:28.412824 29703 net.cpp:338] inception_4d/output_inception_4d/output_0_split -> inception_4d/output_inception_4d/output_0_split_2
I1218 22:39:28.412837 29703 net.cpp:338] inception_4d/output_inception_4d/output_0_split -> inception_4d/output_inception_4d/output_0_split_3
I1218 22:39:28.412865 29703 net.cpp:338] inception_4d/output_inception_4d/output_0_split -> inception_4d/output_inception_4d/output_0_split_4
I1218 22:39:28.412878 29703 net.cpp:113] Setting up inception_4d/output_inception_4d/output_0_split
I1218 22:39:28.412894 29703 net.cpp:120] Top shape: 80 528 14 14 (8279040)
I1218 22:39:28.412904 29703 net.cpp:120] Top shape: 80 528 14 14 (8279040)
I1218 22:39:28.412914 29703 net.cpp:120] Top shape: 80 528 14 14 (8279040)
I1218 22:39:28.412922 29703 net.cpp:120] Top shape: 80 528 14 14 (8279040)
I1218 22:39:28.412930 29703 net.cpp:120] Top shape: 80 528 14 14 (8279040)
I1218 22:39:28.412938 29703 layer_factory.hpp:74] Creating layer loss2/ave_pool
I1218 22:39:28.412953 29703 net.cpp:84] Creating Layer loss2/ave_pool
I1218 22:39:28.412962 29703 net.cpp:380] loss2/ave_pool <- inception_4d/output_inception_4d/output_0_split_0
I1218 22:39:28.412976 29703 net.cpp:338] loss2/ave_pool -> loss2/ave_pool
I1218 22:39:28.412988 29703 net.cpp:113] Setting up loss2/ave_pool
I1218 22:39:28.413118 29703 net.cpp:120] Top shape: 80 528 4 4 (675840)
I1218 22:39:28.413151 29703 layer_factory.hpp:74] Creating layer loss2/conv
I1218 22:39:28.413180 29703 net.cpp:84] Creating Layer loss2/conv
I1218 22:39:28.413190 29703 net.cpp:380] loss2/conv <- loss2/ave_pool
I1218 22:39:28.413205 29703 net.cpp:338] loss2/conv -> loss2/conv
I1218 22:39:28.413219 29703 net.cpp:113] Setting up loss2/conv
I1218 22:39:28.414702 29703 net.cpp:120] Top shape: 80 128 4 4 (163840)
I1218 22:39:28.414726 29703 layer_factory.hpp:74] Creating layer loss2/relu_conv
I1218 22:39:28.414737 29703 net.cpp:84] Creating Layer loss2/relu_conv
I1218 22:39:28.414746 29703 net.cpp:380] loss2/relu_conv <- loss2/conv
I1218 22:39:28.414759 29703 net.cpp:327] loss2/relu_conv -> loss2/conv (in-place)
I1218 22:39:28.414772 29703 net.cpp:113] Setting up loss2/relu_conv
I1218 22:39:28.414877 29703 net.cpp:120] Top shape: 80 128 4 4 (163840)
I1218 22:39:28.414887 29703 layer_factory.hpp:74] Creating layer loss2/fc
I1218 22:39:28.414902 29703 net.cpp:84] Creating Layer loss2/fc
I1218 22:39:28.414911 29703 net.cpp:380] loss2/fc <- loss2/conv
I1218 22:39:28.414922 29703 net.cpp:338] loss2/fc -> loss2/fc
I1218 22:39:28.414937 29703 net.cpp:113] Setting up loss2/fc
I1218 22:39:28.904934 29703 net.cpp:120] Top shape: 80 1024 (81920)
I1218 22:39:28.905016 29703 layer_factory.hpp:74] Creating layer loss2/relu_fc
I1218 22:39:28.905102 29703 net.cpp:84] Creating Layer loss2/relu_fc
I1218 22:39:28.905136 29703 net.cpp:380] loss2/relu_fc <- loss2/fc
I1218 22:39:28.905164 29703 net.cpp:327] loss2/relu_fc -> loss2/fc (in-place)
I1218 22:39:28.905184 29703 net.cpp:113] Setting up loss2/relu_fc
I1218 22:39:28.909715 29703 net.cpp:120] Top shape: 80 1024 (81920)
I1218 22:39:28.909764 29703 layer_factory.hpp:74] Creating layer loss2/drop_fc
I1218 22:39:28.909800 29703 net.cpp:84] Creating Layer loss2/drop_fc
I1218 22:39:28.909808 29703 net.cpp:380] loss2/drop_fc <- loss2/fc
I1218 22:39:28.909826 29703 net.cpp:327] loss2/drop_fc -> loss2/fc (in-place)
I1218 22:39:28.909840 29703 net.cpp:113] Setting up loss2/drop_fc
I1218 22:39:28.909853 29703 net.cpp:120] Top shape: 80 1024 (81920)
I1218 22:39:28.909858 29703 layer_factory.hpp:74] Creating layer loss2/classifier_kaggle
I1218 22:39:28.909878 29703 net.cpp:84] Creating Layer loss2/classifier_kaggle
I1218 22:39:28.909884 29703 net.cpp:380] loss2/classifier_kaggle <- loss2/fc
I1218 22:39:28.909894 29703 net.cpp:338] loss2/classifier_kaggle -> loss2/classifier_kaggle
I1218 22:39:28.909910 29703 net.cpp:113] Setting up loss2/classifier_kaggle
I1218 22:39:28.915374 29703 net.cpp:120] Top shape: 80 447 (35760)
I1218 22:39:28.915421 29703 layer_factory.hpp:74] Creating layer loss2/loss
I1218 22:39:28.915436 29703 net.cpp:84] Creating Layer loss2/loss
I1218 22:39:28.915444 29703 net.cpp:380] loss2/loss <- loss2/classifier_kaggle
I1218 22:39:28.915453 29703 net.cpp:380] loss2/loss <- label_data_1_split_1
I1218 22:39:28.915462 29703 net.cpp:338] loss2/loss -> loss2/loss1
I1218 22:39:28.915485 29703 net.cpp:113] Setting up loss2/loss
I1218 22:39:28.915508 29703 layer_factory.hpp:74] Creating layer loss2/loss
I1218 22:39:28.915727 29703 net.cpp:120] Top shape: (1)
I1218 22:39:28.915735 29703 net.cpp:122]     with loss weight 0.3
I1218 22:39:28.915751 29703 layer_factory.hpp:74] Creating layer inception_4e/1x1
I1218 22:39:28.915781 29703 net.cpp:84] Creating Layer inception_4e/1x1
I1218 22:39:28.915791 29703 net.cpp:380] inception_4e/1x1 <- inception_4d/output_inception_4d/output_0_split_1
I1218 22:39:28.915801 29703 net.cpp:338] inception_4e/1x1 -> inception_4e/1x1
I1218 22:39:28.915809 29703 net.cpp:113] Setting up inception_4e/1x1
I1218 22:39:28.918033 29703 net.cpp:120] Top shape: 80 256 14 14 (4014080)
I1218 22:39:28.918053 29703 layer_factory.hpp:74] Creating layer inception_4e/relu_1x1
I1218 22:39:28.918077 29703 net.cpp:84] Creating Layer inception_4e/relu_1x1
I1218 22:39:28.918083 29703 net.cpp:380] inception_4e/relu_1x1 <- inception_4e/1x1
I1218 22:39:28.918090 29703 net.cpp:327] inception_4e/relu_1x1 -> inception_4e/1x1 (in-place)
I1218 22:39:28.918099 29703 net.cpp:113] Setting up inception_4e/relu_1x1
I1218 22:39:28.918171 29703 net.cpp:120] Top shape: 80 256 14 14 (4014080)
I1218 22:39:28.918179 29703 layer_factory.hpp:74] Creating layer inception_4e/3x3_reduce
I1218 22:39:28.918187 29703 net.cpp:84] Creating Layer inception_4e/3x3_reduce
I1218 22:39:28.918193 29703 net.cpp:380] inception_4e/3x3_reduce <- inception_4d/output_inception_4d/output_0_split_2
I1218 22:39:28.918203 29703 net.cpp:338] inception_4e/3x3_reduce -> inception_4e/3x3_reduce
I1218 22:39:28.918212 29703 net.cpp:113] Setting up inception_4e/3x3_reduce
I1218 22:39:28.919602 29703 net.cpp:120] Top shape: 80 160 14 14 (2508800)
I1218 22:39:28.919617 29703 layer_factory.hpp:74] Creating layer inception_4e/relu_3x3_reduce
I1218 22:39:28.919626 29703 net.cpp:84] Creating Layer inception_4e/relu_3x3_reduce
I1218 22:39:28.919632 29703 net.cpp:380] inception_4e/relu_3x3_reduce <- inception_4e/3x3_reduce
I1218 22:39:28.919639 29703 net.cpp:327] inception_4e/relu_3x3_reduce -> inception_4e/3x3_reduce (in-place)
I1218 22:39:28.919647 29703 net.cpp:113] Setting up inception_4e/relu_3x3_reduce
I1218 22:39:28.919721 29703 net.cpp:120] Top shape: 80 160 14 14 (2508800)
I1218 22:39:28.919728 29703 layer_factory.hpp:74] Creating layer inception_4e/3x3
I1218 22:39:28.919744 29703 net.cpp:84] Creating Layer inception_4e/3x3
I1218 22:39:28.919750 29703 net.cpp:380] inception_4e/3x3 <- inception_4e/3x3_reduce
I1218 22:39:28.919759 29703 net.cpp:338] inception_4e/3x3 -> inception_4e/3x3
I1218 22:39:28.919771 29703 net.cpp:113] Setting up inception_4e/3x3
I1218 22:39:28.925581 29703 net.cpp:120] Top shape: 80 320 14 14 (5017600)
I1218 22:39:28.925601 29703 layer_factory.hpp:74] Creating layer inception_4e/relu_3x3
I1218 22:39:28.925611 29703 net.cpp:84] Creating Layer inception_4e/relu_3x3
I1218 22:39:28.925617 29703 net.cpp:380] inception_4e/relu_3x3 <- inception_4e/3x3
I1218 22:39:28.925627 29703 net.cpp:327] inception_4e/relu_3x3 -> inception_4e/3x3 (in-place)
I1218 22:39:28.925640 29703 net.cpp:113] Setting up inception_4e/relu_3x3
I1218 22:39:28.925964 29703 net.cpp:120] Top shape: 80 320 14 14 (5017600)
I1218 22:39:28.925978 29703 layer_factory.hpp:74] Creating layer inception_4e/5x5_reduce
I1218 22:39:28.926004 29703 net.cpp:84] Creating Layer inception_4e/5x5_reduce
I1218 22:39:28.926014 29703 net.cpp:380] inception_4e/5x5_reduce <- inception_4d/output_inception_4d/output_0_split_3
I1218 22:39:28.926028 29703 net.cpp:338] inception_4e/5x5_reduce -> inception_4e/5x5_reduce
I1218 22:39:28.926041 29703 net.cpp:113] Setting up inception_4e/5x5_reduce
I1218 22:39:28.926750 29703 net.cpp:120] Top shape: 80 32 14 14 (501760)
I1218 22:39:28.926767 29703 layer_factory.hpp:74] Creating layer inception_4e/relu_5x5_reduce
I1218 22:39:28.926775 29703 net.cpp:84] Creating Layer inception_4e/relu_5x5_reduce
I1218 22:39:28.926781 29703 net.cpp:380] inception_4e/relu_5x5_reduce <- inception_4e/5x5_reduce
I1218 22:39:28.926789 29703 net.cpp:327] inception_4e/relu_5x5_reduce -> inception_4e/5x5_reduce (in-place)
I1218 22:39:28.926813 29703 net.cpp:113] Setting up inception_4e/relu_5x5_reduce
I1218 22:39:28.926887 29703 net.cpp:120] Top shape: 80 32 14 14 (501760)
I1218 22:39:28.926895 29703 layer_factory.hpp:74] Creating layer inception_4e/5x5
I1218 22:39:28.927007 29703 net.cpp:84] Creating Layer inception_4e/5x5
I1218 22:39:28.927014 29703 net.cpp:380] inception_4e/5x5 <- inception_4e/5x5_reduce
I1218 22:39:28.927022 29703 net.cpp:338] inception_4e/5x5 -> inception_4e/5x5
I1218 22:39:28.927031 29703 net.cpp:113] Setting up inception_4e/5x5
I1218 22:39:28.928620 29703 net.cpp:120] Top shape: 80 128 14 14 (2007040)
I1218 22:39:28.928637 29703 layer_factory.hpp:74] Creating layer inception_4e/relu_5x5
I1218 22:39:28.928643 29703 net.cpp:84] Creating Layer inception_4e/relu_5x5
I1218 22:39:28.928648 29703 net.cpp:380] inception_4e/relu_5x5 <- inception_4e/5x5
I1218 22:39:28.928655 29703 net.cpp:327] inception_4e/relu_5x5 -> inception_4e/5x5 (in-place)
I1218 22:39:28.928663 29703 net.cpp:113] Setting up inception_4e/relu_5x5
I1218 22:39:28.928733 29703 net.cpp:120] Top shape: 80 128 14 14 (2007040)
I1218 22:39:28.928740 29703 layer_factory.hpp:74] Creating layer inception_4e/pool
I1218 22:39:28.928745 29703 layer_factory.cpp:56] CUDNN does not support padding or multiple tops. Using Caffe's own pooling layer.
I1218 22:39:28.928751 29703 net.cpp:84] Creating Layer inception_4e/pool
I1218 22:39:28.928757 29703 net.cpp:380] inception_4e/pool <- inception_4d/output_inception_4d/output_0_split_4
I1218 22:39:28.928766 29703 net.cpp:338] inception_4e/pool -> inception_4e/pool
I1218 22:39:28.928773 29703 net.cpp:113] Setting up inception_4e/pool
I1218 22:39:28.928782 29703 net.cpp:120] Top shape: 80 528 14 14 (8279040)
I1218 22:39:28.928792 29703 layer_factory.hpp:74] Creating layer inception_4e/pool_proj
I1218 22:39:28.928800 29703 net.cpp:84] Creating Layer inception_4e/pool_proj
I1218 22:39:28.928805 29703 net.cpp:380] inception_4e/pool_proj <- inception_4e/pool
I1218 22:39:28.928815 29703 net.cpp:338] inception_4e/pool_proj -> inception_4e/pool_proj
I1218 22:39:28.928824 29703 net.cpp:113] Setting up inception_4e/pool_proj
I1218 22:39:28.930034 29703 net.cpp:120] Top shape: 80 128 14 14 (2007040)
I1218 22:39:28.930052 29703 layer_factory.hpp:74] Creating layer inception_4e/relu_pool_proj
I1218 22:39:28.930064 29703 net.cpp:84] Creating Layer inception_4e/relu_pool_proj
I1218 22:39:28.930070 29703 net.cpp:380] inception_4e/relu_pool_proj <- inception_4e/pool_proj
I1218 22:39:28.930079 29703 net.cpp:327] inception_4e/relu_pool_proj -> inception_4e/pool_proj (in-place)
I1218 22:39:28.930088 29703 net.cpp:113] Setting up inception_4e/relu_pool_proj
I1218 22:39:28.930161 29703 net.cpp:120] Top shape: 80 128 14 14 (2007040)
I1218 22:39:28.930168 29703 layer_factory.hpp:74] Creating layer inception_4e/output
I1218 22:39:28.930176 29703 net.cpp:84] Creating Layer inception_4e/output
I1218 22:39:28.930179 29703 net.cpp:380] inception_4e/output <- inception_4e/1x1
I1218 22:39:28.930186 29703 net.cpp:380] inception_4e/output <- inception_4e/3x3
I1218 22:39:28.930191 29703 net.cpp:380] inception_4e/output <- inception_4e/5x5
I1218 22:39:28.930197 29703 net.cpp:380] inception_4e/output <- inception_4e/pool_proj
I1218 22:39:28.930204 29703 net.cpp:338] inception_4e/output -> inception_4e/output
I1218 22:39:28.930212 29703 net.cpp:113] Setting up inception_4e/output
I1218 22:39:28.930220 29703 net.cpp:120] Top shape: 80 832 14 14 (13045760)
I1218 22:39:28.930224 29703 layer_factory.hpp:74] Creating layer pool4/3x3_s2
I1218 22:39:28.930238 29703 net.cpp:84] Creating Layer pool4/3x3_s2
I1218 22:39:28.930243 29703 net.cpp:380] pool4/3x3_s2 <- inception_4e/output
I1218 22:39:28.930249 29703 net.cpp:338] pool4/3x3_s2 -> pool4/3x3_s2
I1218 22:39:28.930259 29703 net.cpp:113] Setting up pool4/3x3_s2
I1218 22:39:28.930505 29703 net.cpp:120] Top shape: 80 832 7 7 (3261440)
I1218 22:39:28.930522 29703 layer_factory.hpp:74] Creating layer pool4/3x3_s2_pool4/3x3_s2_0_split
I1218 22:39:28.930536 29703 net.cpp:84] Creating Layer pool4/3x3_s2_pool4/3x3_s2_0_split
I1218 22:39:28.930549 29703 net.cpp:380] pool4/3x3_s2_pool4/3x3_s2_0_split <- pool4/3x3_s2
I1218 22:39:28.930557 29703 net.cpp:338] pool4/3x3_s2_pool4/3x3_s2_0_split -> pool4/3x3_s2_pool4/3x3_s2_0_split_0
I1218 22:39:28.930565 29703 net.cpp:338] pool4/3x3_s2_pool4/3x3_s2_0_split -> pool4/3x3_s2_pool4/3x3_s2_0_split_1
I1218 22:39:28.930572 29703 net.cpp:338] pool4/3x3_s2_pool4/3x3_s2_0_split -> pool4/3x3_s2_pool4/3x3_s2_0_split_2
I1218 22:39:28.930579 29703 net.cpp:338] pool4/3x3_s2_pool4/3x3_s2_0_split -> pool4/3x3_s2_pool4/3x3_s2_0_split_3
I1218 22:39:28.930585 29703 net.cpp:113] Setting up pool4/3x3_s2_pool4/3x3_s2_0_split
I1218 22:39:28.930593 29703 net.cpp:120] Top shape: 80 832 7 7 (3261440)
I1218 22:39:28.930599 29703 net.cpp:120] Top shape: 80 832 7 7 (3261440)
I1218 22:39:28.930604 29703 net.cpp:120] Top shape: 80 832 7 7 (3261440)
I1218 22:39:28.930609 29703 net.cpp:120] Top shape: 80 832 7 7 (3261440)
I1218 22:39:28.930613 29703 layer_factory.hpp:74] Creating layer inception_5a/1x1
I1218 22:39:28.930624 29703 net.cpp:84] Creating Layer inception_5a/1x1
I1218 22:39:28.930629 29703 net.cpp:380] inception_5a/1x1 <- pool4/3x3_s2_pool4/3x3_s2_0_split_0
I1218 22:39:28.930636 29703 net.cpp:338] inception_5a/1x1 -> inception_5a/1x1
I1218 22:39:28.930644 29703 net.cpp:113] Setting up inception_5a/1x1
I1218 22:39:28.933588 29703 net.cpp:120] Top shape: 80 256 7 7 (1003520)
I1218 22:39:28.933609 29703 layer_factory.hpp:74] Creating layer inception_5a/relu_1x1
I1218 22:39:28.933619 29703 net.cpp:84] Creating Layer inception_5a/relu_1x1
I1218 22:39:28.933624 29703 net.cpp:380] inception_5a/relu_1x1 <- inception_5a/1x1
I1218 22:39:28.933632 29703 net.cpp:327] inception_5a/relu_1x1 -> inception_5a/1x1 (in-place)
I1218 22:39:28.933640 29703 net.cpp:113] Setting up inception_5a/relu_1x1
I1218 22:39:28.933712 29703 net.cpp:120] Top shape: 80 256 7 7 (1003520)
I1218 22:39:28.933717 29703 layer_factory.hpp:74] Creating layer inception_5a/3x3_reduce
I1218 22:39:28.933735 29703 net.cpp:84] Creating Layer inception_5a/3x3_reduce
I1218 22:39:28.933742 29703 net.cpp:380] inception_5a/3x3_reduce <- pool4/3x3_s2_pool4/3x3_s2_0_split_1
I1218 22:39:28.933751 29703 net.cpp:338] inception_5a/3x3_reduce -> inception_5a/3x3_reduce
I1218 22:39:28.933761 29703 net.cpp:113] Setting up inception_5a/3x3_reduce
I1218 22:39:28.935894 29703 net.cpp:120] Top shape: 80 160 7 7 (627200)
I1218 22:39:28.935919 29703 layer_factory.hpp:74] Creating layer inception_5a/relu_3x3_reduce
I1218 22:39:28.935941 29703 net.cpp:84] Creating Layer inception_5a/relu_3x3_reduce
I1218 22:39:28.935950 29703 net.cpp:380] inception_5a/relu_3x3_reduce <- inception_5a/3x3_reduce
I1218 22:39:28.935962 29703 net.cpp:327] inception_5a/relu_3x3_reduce -> inception_5a/3x3_reduce (in-place)
I1218 22:39:28.935974 29703 net.cpp:113] Setting up inception_5a/relu_3x3_reduce
I1218 22:39:28.936080 29703 net.cpp:120] Top shape: 80 160 7 7 (627200)
I1218 22:39:28.936091 29703 layer_factory.hpp:74] Creating layer inception_5a/3x3
I1218 22:39:28.936105 29703 net.cpp:84] Creating Layer inception_5a/3x3
I1218 22:39:28.936112 29703 net.cpp:380] inception_5a/3x3 <- inception_5a/3x3_reduce
I1218 22:39:28.936126 29703 net.cpp:338] inception_5a/3x3 -> inception_5a/3x3
I1218 22:39:28.936139 29703 net.cpp:113] Setting up inception_5a/3x3
I1218 22:39:28.942405 29703 net.cpp:120] Top shape: 80 320 7 7 (1254400)
I1218 22:39:28.942447 29703 layer_factory.hpp:74] Creating layer inception_5a/relu_3x3
I1218 22:39:28.942466 29703 net.cpp:84] Creating Layer inception_5a/relu_3x3
I1218 22:39:28.942476 29703 net.cpp:380] inception_5a/relu_3x3 <- inception_5a/3x3
I1218 22:39:28.942499 29703 net.cpp:327] inception_5a/relu_3x3 -> inception_5a/3x3 (in-place)
I1218 22:39:28.942515 29703 net.cpp:113] Setting up inception_5a/relu_3x3
I1218 22:39:28.942622 29703 net.cpp:120] Top shape: 80 320 7 7 (1254400)
I1218 22:39:28.942633 29703 layer_factory.hpp:74] Creating layer inception_5a/5x5_reduce
I1218 22:39:28.942652 29703 net.cpp:84] Creating Layer inception_5a/5x5_reduce
I1218 22:39:28.942672 29703 net.cpp:380] inception_5a/5x5_reduce <- pool4/3x3_s2_pool4/3x3_s2_0_split_2
I1218 22:39:28.942692 29703 net.cpp:338] inception_5a/5x5_reduce -> inception_5a/5x5_reduce
I1218 22:39:28.942703 29703 net.cpp:113] Setting up inception_5a/5x5_reduce
I1218 22:39:28.943433 29703 net.cpp:120] Top shape: 80 32 7 7 (125440)
I1218 22:39:28.943449 29703 layer_factory.hpp:74] Creating layer inception_5a/relu_5x5_reduce
I1218 22:39:28.943456 29703 net.cpp:84] Creating Layer inception_5a/relu_5x5_reduce
I1218 22:39:28.943461 29703 net.cpp:380] inception_5a/relu_5x5_reduce <- inception_5a/5x5_reduce
I1218 22:39:28.943469 29703 net.cpp:327] inception_5a/relu_5x5_reduce -> inception_5a/5x5_reduce (in-place)
I1218 22:39:28.943476 29703 net.cpp:113] Setting up inception_5a/relu_5x5_reduce
I1218 22:39:28.943718 29703 net.cpp:120] Top shape: 80 32 7 7 (125440)
I1218 22:39:28.943737 29703 layer_factory.hpp:74] Creating layer inception_5a/5x5
I1218 22:39:28.943747 29703 net.cpp:84] Creating Layer inception_5a/5x5
I1218 22:39:28.943753 29703 net.cpp:380] inception_5a/5x5 <- inception_5a/5x5_reduce
I1218 22:39:28.943763 29703 net.cpp:338] inception_5a/5x5 -> inception_5a/5x5
I1218 22:39:28.943771 29703 net.cpp:113] Setting up inception_5a/5x5
I1218 22:39:28.945408 29703 net.cpp:120] Top shape: 80 128 7 7 (501760)
I1218 22:39:28.945426 29703 layer_factory.hpp:74] Creating layer inception_5a/relu_5x5
I1218 22:39:28.945441 29703 net.cpp:84] Creating Layer inception_5a/relu_5x5
I1218 22:39:28.945447 29703 net.cpp:380] inception_5a/relu_5x5 <- inception_5a/5x5
I1218 22:39:28.945457 29703 net.cpp:327] inception_5a/relu_5x5 -> inception_5a/5x5 (in-place)
I1218 22:39:28.945466 29703 net.cpp:113] Setting up inception_5a/relu_5x5
I1218 22:39:28.945540 29703 net.cpp:120] Top shape: 80 128 7 7 (501760)
I1218 22:39:28.945547 29703 layer_factory.hpp:74] Creating layer inception_5a/pool
I1218 22:39:28.945554 29703 layer_factory.cpp:56] CUDNN does not support padding or multiple tops. Using Caffe's own pooling layer.
I1218 22:39:28.945559 29703 net.cpp:84] Creating Layer inception_5a/pool
I1218 22:39:28.945565 29703 net.cpp:380] inception_5a/pool <- pool4/3x3_s2_pool4/3x3_s2_0_split_3
I1218 22:39:28.945572 29703 net.cpp:338] inception_5a/pool -> inception_5a/pool
I1218 22:39:28.945580 29703 net.cpp:113] Setting up inception_5a/pool
I1218 22:39:28.945590 29703 net.cpp:120] Top shape: 80 832 7 7 (3261440)
I1218 22:39:28.945595 29703 layer_factory.hpp:74] Creating layer inception_5a/pool_proj
I1218 22:39:28.945603 29703 net.cpp:84] Creating Layer inception_5a/pool_proj
I1218 22:39:28.945608 29703 net.cpp:380] inception_5a/pool_proj <- inception_5a/pool
I1218 22:39:28.945616 29703 net.cpp:338] inception_5a/pool_proj -> inception_5a/pool_proj
I1218 22:39:28.945624 29703 net.cpp:113] Setting up inception_5a/pool_proj
I1218 22:39:28.947226 29703 net.cpp:120] Top shape: 80 128 7 7 (501760)
I1218 22:39:28.947247 29703 layer_factory.hpp:74] Creating layer inception_5a/relu_pool_proj
I1218 22:39:28.947259 29703 net.cpp:84] Creating Layer inception_5a/relu_pool_proj
I1218 22:39:28.947265 29703 net.cpp:380] inception_5a/relu_pool_proj <- inception_5a/pool_proj
I1218 22:39:28.947274 29703 net.cpp:327] inception_5a/relu_pool_proj -> inception_5a/pool_proj (in-place)
I1218 22:39:28.947283 29703 net.cpp:113] Setting up inception_5a/relu_pool_proj
I1218 22:39:28.947352 29703 net.cpp:120] Top shape: 80 128 7 7 (501760)
I1218 22:39:28.947360 29703 layer_factory.hpp:74] Creating layer inception_5a/output
I1218 22:39:28.947365 29703 net.cpp:84] Creating Layer inception_5a/output
I1218 22:39:28.947371 29703 net.cpp:380] inception_5a/output <- inception_5a/1x1
I1218 22:39:28.947378 29703 net.cpp:380] inception_5a/output <- inception_5a/3x3
I1218 22:39:28.947383 29703 net.cpp:380] inception_5a/output <- inception_5a/5x5
I1218 22:39:28.947389 29703 net.cpp:380] inception_5a/output <- inception_5a/pool_proj
I1218 22:39:28.947396 29703 net.cpp:338] inception_5a/output -> inception_5a/output
I1218 22:39:28.947402 29703 net.cpp:113] Setting up inception_5a/output
I1218 22:39:28.947419 29703 net.cpp:120] Top shape: 80 832 7 7 (3261440)
I1218 22:39:28.947433 29703 layer_factory.hpp:74] Creating layer inception_5a/output_inception_5a/output_0_split
I1218 22:39:28.947440 29703 net.cpp:84] Creating Layer inception_5a/output_inception_5a/output_0_split
I1218 22:39:28.947445 29703 net.cpp:380] inception_5a/output_inception_5a/output_0_split <- inception_5a/output
I1218 22:39:28.947453 29703 net.cpp:338] inception_5a/output_inception_5a/output_0_split -> inception_5a/output_inception_5a/output_0_split_0
I1218 22:39:28.947461 29703 net.cpp:338] inception_5a/output_inception_5a/output_0_split -> inception_5a/output_inception_5a/output_0_split_1
I1218 22:39:28.947468 29703 net.cpp:338] inception_5a/output_inception_5a/output_0_split -> inception_5a/output_inception_5a/output_0_split_2
I1218 22:39:28.947476 29703 net.cpp:338] inception_5a/output_inception_5a/output_0_split -> inception_5a/output_inception_5a/output_0_split_3
I1218 22:39:28.947482 29703 net.cpp:113] Setting up inception_5a/output_inception_5a/output_0_split
I1218 22:39:28.947490 29703 net.cpp:120] Top shape: 80 832 7 7 (3261440)
I1218 22:39:28.947495 29703 net.cpp:120] Top shape: 80 832 7 7 (3261440)
I1218 22:39:28.947500 29703 net.cpp:120] Top shape: 80 832 7 7 (3261440)
I1218 22:39:28.947505 29703 net.cpp:120] Top shape: 80 832 7 7 (3261440)
I1218 22:39:28.947510 29703 layer_factory.hpp:74] Creating layer inception_5b/1x1
I1218 22:39:28.947518 29703 net.cpp:84] Creating Layer inception_5b/1x1
I1218 22:39:28.947523 29703 net.cpp:380] inception_5b/1x1 <- inception_5a/output_inception_5a/output_0_split_0
I1218 22:39:28.947531 29703 net.cpp:338] inception_5b/1x1 -> inception_5b/1x1
I1218 22:39:28.947540 29703 net.cpp:113] Setting up inception_5b/1x1
I1218 22:39:28.951629 29703 net.cpp:120] Top shape: 80 384 7 7 (1505280)
I1218 22:39:28.951647 29703 layer_factory.hpp:74] Creating layer inception_5b/relu_1x1
I1218 22:39:28.951656 29703 net.cpp:84] Creating Layer inception_5b/relu_1x1
I1218 22:39:28.951663 29703 net.cpp:380] inception_5b/relu_1x1 <- inception_5b/1x1
I1218 22:39:28.951669 29703 net.cpp:327] inception_5b/relu_1x1 -> inception_5b/1x1 (in-place)
I1218 22:39:28.951678 29703 net.cpp:113] Setting up inception_5b/relu_1x1
I1218 22:39:28.951918 29703 net.cpp:120] Top shape: 80 384 7 7 (1505280)
I1218 22:39:28.951938 29703 layer_factory.hpp:74] Creating layer inception_5b/3x3_reduce
I1218 22:39:28.951952 29703 net.cpp:84] Creating Layer inception_5b/3x3_reduce
I1218 22:39:28.951958 29703 net.cpp:380] inception_5b/3x3_reduce <- inception_5a/output_inception_5a/output_0_split_1
I1218 22:39:28.951967 29703 net.cpp:338] inception_5b/3x3_reduce -> inception_5b/3x3_reduce
I1218 22:39:28.951975 29703 net.cpp:113] Setting up inception_5b/3x3_reduce
I1218 22:39:28.954223 29703 net.cpp:120] Top shape: 80 192 7 7 (752640)
I1218 22:39:28.954241 29703 layer_factory.hpp:74] Creating layer inception_5b/relu_3x3_reduce
I1218 22:39:28.954249 29703 net.cpp:84] Creating Layer inception_5b/relu_3x3_reduce
I1218 22:39:28.954254 29703 net.cpp:380] inception_5b/relu_3x3_reduce <- inception_5b/3x3_reduce
I1218 22:39:28.954262 29703 net.cpp:327] inception_5b/relu_3x3_reduce -> inception_5b/3x3_reduce (in-place)
I1218 22:39:28.954270 29703 net.cpp:113] Setting up inception_5b/relu_3x3_reduce
I1218 22:39:28.954342 29703 net.cpp:120] Top shape: 80 192 7 7 (752640)
I1218 22:39:28.954349 29703 layer_factory.hpp:74] Creating layer inception_5b/3x3
I1218 22:39:28.954357 29703 net.cpp:84] Creating Layer inception_5b/3x3
I1218 22:39:28.954362 29703 net.cpp:380] inception_5b/3x3 <- inception_5b/3x3_reduce
I1218 22:39:28.954371 29703 net.cpp:338] inception_5b/3x3 -> inception_5b/3x3
I1218 22:39:28.954408 29703 net.cpp:113] Setting up inception_5b/3x3
I1218 22:39:28.962489 29703 net.cpp:120] Top shape: 80 384 7 7 (1505280)
I1218 22:39:28.962508 29703 layer_factory.hpp:74] Creating layer inception_5b/relu_3x3
I1218 22:39:28.962525 29703 net.cpp:84] Creating Layer inception_5b/relu_3x3
I1218 22:39:28.962532 29703 net.cpp:380] inception_5b/relu_3x3 <- inception_5b/3x3
I1218 22:39:28.962548 29703 net.cpp:327] inception_5b/relu_3x3 -> inception_5b/3x3 (in-place)
I1218 22:39:28.962566 29703 net.cpp:113] Setting up inception_5b/relu_3x3
I1218 22:39:28.962637 29703 net.cpp:120] Top shape: 80 384 7 7 (1505280)
I1218 22:39:28.962644 29703 layer_factory.hpp:74] Creating layer inception_5b/5x5_reduce
I1218 22:39:28.962653 29703 net.cpp:84] Creating Layer inception_5b/5x5_reduce
I1218 22:39:28.962658 29703 net.cpp:380] inception_5b/5x5_reduce <- inception_5a/output_inception_5a/output_0_split_2
I1218 22:39:28.962667 29703 net.cpp:338] inception_5b/5x5_reduce -> inception_5b/5x5_reduce
I1218 22:39:28.962677 29703 net.cpp:113] Setting up inception_5b/5x5_reduce
I1218 22:39:28.963596 29703 net.cpp:120] Top shape: 80 48 7 7 (188160)
I1218 22:39:28.963613 29703 layer_factory.hpp:74] Creating layer inception_5b/relu_5x5_reduce
I1218 22:39:28.963619 29703 net.cpp:84] Creating Layer inception_5b/relu_5x5_reduce
I1218 22:39:28.963625 29703 net.cpp:380] inception_5b/relu_5x5_reduce <- inception_5b/5x5_reduce
I1218 22:39:28.963634 29703 net.cpp:327] inception_5b/relu_5x5_reduce -> inception_5b/5x5_reduce (in-place)
I1218 22:39:28.963644 29703 net.cpp:113] Setting up inception_5b/relu_5x5_reduce
I1218 22:39:28.963716 29703 net.cpp:120] Top shape: 80 48 7 7 (188160)
I1218 22:39:28.963722 29703 layer_factory.hpp:74] Creating layer inception_5b/5x5
I1218 22:39:28.963739 29703 net.cpp:84] Creating Layer inception_5b/5x5
I1218 22:39:28.963745 29703 net.cpp:380] inception_5b/5x5 <- inception_5b/5x5_reduce
I1218 22:39:28.963754 29703 net.cpp:338] inception_5b/5x5 -> inception_5b/5x5
I1218 22:39:28.963763 29703 net.cpp:113] Setting up inception_5b/5x5
I1218 22:39:28.965951 29703 net.cpp:120] Top shape: 80 128 7 7 (501760)
I1218 22:39:28.965968 29703 layer_factory.hpp:74] Creating layer inception_5b/relu_5x5
I1218 22:39:28.965975 29703 net.cpp:84] Creating Layer inception_5b/relu_5x5
I1218 22:39:28.965981 29703 net.cpp:380] inception_5b/relu_5x5 <- inception_5b/5x5
I1218 22:39:28.965991 29703 net.cpp:327] inception_5b/relu_5x5 -> inception_5b/5x5 (in-place)
I1218 22:39:28.965999 29703 net.cpp:113] Setting up inception_5b/relu_5x5
I1218 22:39:28.966246 29703 net.cpp:120] Top shape: 80 128 7 7 (501760)
I1218 22:39:28.966258 29703 layer_factory.hpp:74] Creating layer inception_5b/pool
I1218 22:39:28.966264 29703 layer_factory.cpp:56] CUDNN does not support padding or multiple tops. Using Caffe's own pooling layer.
I1218 22:39:28.966270 29703 net.cpp:84] Creating Layer inception_5b/pool
I1218 22:39:28.966275 29703 net.cpp:380] inception_5b/pool <- inception_5a/output_inception_5a/output_0_split_3
I1218 22:39:28.966287 29703 net.cpp:338] inception_5b/pool -> inception_5b/pool
I1218 22:39:28.966296 29703 net.cpp:113] Setting up inception_5b/pool
I1218 22:39:28.966305 29703 net.cpp:120] Top shape: 80 832 7 7 (3261440)
I1218 22:39:28.966310 29703 layer_factory.hpp:74] Creating layer inception_5b/pool_proj
I1218 22:39:28.966320 29703 net.cpp:84] Creating Layer inception_5b/pool_proj
I1218 22:39:28.966325 29703 net.cpp:380] inception_5b/pool_proj <- inception_5b/pool
I1218 22:39:28.966331 29703 net.cpp:338] inception_5b/pool_proj -> inception_5b/pool_proj
I1218 22:39:28.966338 29703 net.cpp:113] Setting up inception_5b/pool_proj
I1218 22:39:28.967977 29703 net.cpp:120] Top shape: 80 128 7 7 (501760)
I1218 22:39:28.967991 29703 layer_factory.hpp:74] Creating layer inception_5b/relu_pool_proj
I1218 22:39:28.968005 29703 net.cpp:84] Creating Layer inception_5b/relu_pool_proj
I1218 22:39:28.968011 29703 net.cpp:380] inception_5b/relu_pool_proj <- inception_5b/pool_proj
I1218 22:39:28.968020 29703 net.cpp:327] inception_5b/relu_pool_proj -> inception_5b/pool_proj (in-place)
I1218 22:39:28.968029 29703 net.cpp:113] Setting up inception_5b/relu_pool_proj
I1218 22:39:28.968099 29703 net.cpp:120] Top shape: 80 128 7 7 (501760)
I1218 22:39:28.968108 29703 layer_factory.hpp:74] Creating layer inception_5b/output
I1218 22:39:28.968114 29703 net.cpp:84] Creating Layer inception_5b/output
I1218 22:39:28.968119 29703 net.cpp:380] inception_5b/output <- inception_5b/1x1
I1218 22:39:28.968137 29703 net.cpp:380] inception_5b/output <- inception_5b/3x3
I1218 22:39:28.968143 29703 net.cpp:380] inception_5b/output <- inception_5b/5x5
I1218 22:39:28.968149 29703 net.cpp:380] inception_5b/output <- inception_5b/pool_proj
I1218 22:39:28.968157 29703 net.cpp:338] inception_5b/output -> inception_5b/output
I1218 22:39:28.968164 29703 net.cpp:113] Setting up inception_5b/output
I1218 22:39:28.968173 29703 net.cpp:120] Top shape: 80 1024 7 7 (4014080)
I1218 22:39:28.968178 29703 layer_factory.hpp:74] Creating layer pool5/7x7_s1
I1218 22:39:28.968184 29703 net.cpp:84] Creating Layer pool5/7x7_s1
I1218 22:39:28.968189 29703 net.cpp:380] pool5/7x7_s1 <- inception_5b/output
I1218 22:39:28.968195 29703 net.cpp:338] pool5/7x7_s1 -> pool5/7x7_s1
I1218 22:39:28.968202 29703 net.cpp:113] Setting up pool5/7x7_s1
I1218 22:39:28.968279 29703 net.cpp:120] Top shape: 80 1024 1 1 (81920)
I1218 22:39:28.968286 29703 layer_factory.hpp:74] Creating layer pool5/drop_7x7_s1
I1218 22:39:28.968293 29703 net.cpp:84] Creating Layer pool5/drop_7x7_s1
I1218 22:39:28.968298 29703 net.cpp:380] pool5/drop_7x7_s1 <- pool5/7x7_s1
I1218 22:39:28.968304 29703 net.cpp:327] pool5/drop_7x7_s1 -> pool5/7x7_s1 (in-place)
I1218 22:39:28.968312 29703 net.cpp:113] Setting up pool5/drop_7x7_s1
I1218 22:39:28.968318 29703 net.cpp:120] Top shape: 80 1024 1 1 (81920)
I1218 22:39:28.968323 29703 layer_factory.hpp:74] Creating layer loss3/classifier_kaggle
I1218 22:39:28.968338 29703 net.cpp:84] Creating Layer loss3/classifier_kaggle
I1218 22:39:28.968343 29703 net.cpp:380] loss3/classifier_kaggle <- pool5/7x7_s1
I1218 22:39:28.968351 29703 net.cpp:338] loss3/classifier_kaggle -> loss3/classifier_kaggle
I1218 22:39:28.968360 29703 net.cpp:113] Setting up loss3/classifier_kaggle
I1218 22:39:28.974671 29703 net.cpp:120] Top shape: 80 447 (35760)
I1218 22:39:28.974691 29703 layer_factory.hpp:74] Creating layer loss3/loss3
I1218 22:39:28.974702 29703 net.cpp:84] Creating Layer loss3/loss3
I1218 22:39:28.974709 29703 net.cpp:380] loss3/loss3 <- loss3/classifier_kaggle
I1218 22:39:28.974715 29703 net.cpp:380] loss3/loss3 <- label_data_1_split_2
I1218 22:39:28.974722 29703 net.cpp:338] loss3/loss3 -> loss3/loss3
I1218 22:39:28.974732 29703 net.cpp:113] Setting up loss3/loss3
…
I1218 22:39:28.982219 29703 net.cpp:257] The NetState phase (1) differed from the phase (0) specified by a rule in layer data
I1218 22:39:28.983703 29703 net.cpp:42] Initializing net from parameters: 
name: "MYNET"
state {
  phase: TEST
}
layer {
  name: "data"
  type: "ImageData"
  top: "data"
  top: "label"
  include {
    phase: TEST
  }
  transform_param {
    mirror: false
    crop_size: 224
    mean_value: 129
    mean_value: 129
    mean_value: 129
  }
  image_data_param {
    source: "/home/coldmanck/kaggle/label_val_full.txt"
    batch_size: 50
    shuffle: true
  }
}
layer {
  name: "conv1/7x7_s2"
  type: "Convolution"
  bottom: "data"
  top: "conv1/7x7_s2"
  param {
    lr_mult: 1
    decay_mult: 1
  }
  param {
    lr_mult: 2
    decay_mult: 0
  }
  convolution_param {
    num_output: 64
    pad: 3
    kernel_size: 7
    stride: 2
    weight_filler {
      type: "xavier"
    }
    bias_filler {
      type: "constant"
      value: 0.2
    }
  }
}
layer {
  name: "conv1/relu_7x7"
  type: "ReLU"
  bottom: "conv1/7x7_s2"
  top: "conv1/7x7_s2"
}
layer {
  name: "pool1/3x3_s2"
  type: "Pooling"
  bottom: "conv1/7x7_s2"
  top: "pool1/3x3_s2"
  pooling_param {
    pool: MAX
    kernel_size: 3
    stride: 2
  }
}
layer {
  name: "pool1/norm1"
  type: "LRN"
  bottom: "pool1/3x3_s2"
  top: "pool1/norm1"
  lrn_param {
    local_size: 5
    alpha: 0.0001
    beta: 0.75
  }
}
layer {
  name: "conv2/3x3_reduce"
  type: "Convolution"
  bottom: "pool1/norm1"
  top: "conv2/3x3_reduce"
  param {
    lr_mult: 1
    decay_mult: 1
  }
  param {
    lr_mult: 2
    decay_mult: 0
  }
  convolution_param {
    num_output: 64
    kernel_size: 1
    weight_filler {
      type: "xavier"
    }
    bias_filler {
      type: "constant"
      value: 0.2
    }
  }
}
layer {
  name: "conv2/relu_3x3_reduce"
  type: "ReLU"
  bottom: "conv2/3x3_reduce"
  top: "conv2/3x3_reduce"
}
layer {
  name: "conv2/3x3"
  type: "Convolution"
  bottom: "conv2/3x3_reduce"
  top: "conv2/3x3"
  param {
    lr_mult: 1
    decay_mult: 1
  }
  param {
    lr_mult: 2
    decay_mult: 0
  }
  convolution_param {
    num_output: 192
    pad: 1
    kernel_size: 3
    weight_filler {
      type: "xavier"
    }
    bias_filler {
      type: "constant"
      value: 0.2
    }
  }
}
layer {
  name: "conv2/relu_3x3"
  type: "ReLU"
  bottom: "conv2/3x3"
  top: "conv2/3x3"
}
layer {
  name: "conv2/norm2"
  type: "LRN"
  bottom: "conv2/3x3"
  top: "conv2/norm2"
  lrn_param {
    local_size: 5
    alpha: 0.0001
    beta: 0.75
  }
}
layer {
  name: "pool2/3x3_s2"
  type: "Pooling"
  bottom: "conv2/norm2"
  top: "pool2/3x3_s2"
  pooling_param {
    pool: MAX
    kernel_size: 3
    stride: 2
  }
}
layer {
  name: "inception_3a/1x1"
  type: "Convolution"
  bottom: "pool2/3x3_s2"
  top: "inception_3a/1x1"
  param {
    lr_mult: 1
    decay_mult: 1
  }
  param {
    lr_mult: 2
    decay_mult: 0
  }
  convolution_param {
    num_output: 64
    kernel_size: 1
    weight_filler {
      type: "xavier"
    }
    bias_filler {
      type: "constant"
      value: 0.2
    }
  }
}
layer {
  name: "inception_3a/relu_1x1"
  type: "ReLU"
  bottom: "inception_3a/1x1"
  top: "inception_3a/1x1"
}
layer {
  name: "inception_3a/3x3_reduce"
  type: "Convolution"
  bottom: "pool2/3x3_s2"
  top: "inception_3a/3x3_reduce"
  param {
    lr_mult: 1
    decay_mult: 1
  }
  param {
    lr_mult: 2
    decay_mult: 0
  }
  convolution_param {
    num_output: 96
    kernel_size: 1
    weight_filler {
      type: "xavier"
    }
    bias_filler {
      type: "constant"
      value: 0.2
    }
  }
}
layer {
  name: "inception_3a/relu_3x3_reduce"
  type: "ReLU"
  bottom: "inception_3a/3x3_reduce"
  top: "inception_3a/3x3_reduce"
}
layer {
  name: "inception_3a/3x3"
  type: "Convolution"
  bottom: "inception_3a/3x3_reduce"
  top: "inception_3a/3x3"
  param {
    lr_mult: 1
    decay_mult: 1
  }
  param {
    lr_mult: 2
    decay_mult: 0
  }
  convolution_param {
    num_output: 128
    pad: 1
    kernel_size: 3
    weight_filler {
      type: "xavier"
    }
    bias_filler {
      type: "constant"
      value: 0.2
    }
  }
}
layer {
  name: "inception_3a/relu_3x3"
  type: "ReLU"
  bottom: "inception_3a/3x3"
  top: "inception_3a/3x3"
}
layer {
  name: "inception_3a/5x5_reduce"
  type: "Convolution"
  bottom: "pool2/3x3_s2"
  top: "inception_3a/5x5_reduce"
  param {
    lr_mult: 1
    decay_mult: 1
  }
  param {
    lr_mult: 2
    decay_mult: 0
  }
  convolution_param {
    num_output: 16
    kernel_size: 1
    weight_filler {
      type: "xavier"
    }
    bias_filler {
      type: "constant"
      value: 0.2
    }
  }
}
layer {
  name: "inception_3a/relu_5x5_reduce"
  type: "ReLU"
  bottom: "inception_3a/5x5_reduce"
  top: "inception_3a/5x5_reduce"
}
layer {
  name: "inception_3a/5x5"
  type: "Convolution"
  bottom: "inception_3a/5x5_reduce"
  top: "inception_3a/5x5"
  param {
    lr_mult: 1
    decay_mult: 1
  }
  param {
    lr_mult: 2
    decay_mult: 0
  }
  convolution_param {
    num_output: 32
    pad: 2
    kernel_size: 5
    weight_filler {
      type: "xavier"
    }
    bias_filler {
      type: "constant"
      value: 0.2
    }
  }
}
layer {
  name: "inception_3a/relu_5x5"
  type: "ReLU"
  bottom: "inception_3a/5x5"
  top: "inception_3a/5x5"
}
layer {
  name: "inception_3a/pool"
  type: "Pooling"
  bottom: "pool2/3x3_s2"
  top: "inception_3a/pool"
  pooling_param {
    pool: MAX
    kernel_size: 3
    stride: 1
    pad: 1
  }
}
layer {
  name: "inception_3a/pool_proj"
  type: "Convolution"
  bottom: "inception_3a/pool"
  top: "inception_3a/pool_proj"
  param {
    lr_mult: 1
    decay_mult: 1
  }
  param {
    lr_mult: 2
    decay_mult: 0
  }
  convolution_param {
    num_output: 32
    kernel_size: 1
    weight_filler {
      type: "xavier"
    }
    bias_filler {
      type: "constant"
      value: 0.2
    }
  }
}
layer {
  name: "inception_3a/relu_pool_proj"
  type: "ReLU"
  bottom: "inception_3a/pool_proj"
  top: "inception_3a/pool_proj"
}
layer {
  name: "inception_3a/output"
  type: "Concat"
  bottom: "inception_3a/1x1"
  bottom: "inception_3a/3x3"
  bottom: "inception_3a/5x5"
  bottom: "inception_3a/pool_proj"
  top: "inception_3a/output"
}
layer {
  name: "inception_3b/1x1"
  type: "Convolution"
  bottom: "inception_3a/output"
  top: "inception_3b/1x1"
  param {
    lr_mult: 1
    decay_mult: 1
  }
  param {
    lr_mult: 2
    decay_mult: 0
  }
  convolution_param {
    num_output: 128
    kernel_size: 1
    weight_filler {
      type: "xavier"
    }
    bias_filler {
      type: "constant"
      value: 0.2
    }
  }
}
layer {
  name: "inception_3b/relu_1x1"
  type: "ReLU"
  bottom: "inception_3b/1x1"
  top: "inception_3b/1x1"
}
layer {
  name: "inception_3b/3x3_reduce"
  type: "Convolution"
  bottom: "inception_3a/output"
  top: "inception_3b/3x3_reduce"
  param {
    lr_mult: 1
    decay_mult: 1
  }
  param {
    lr_mult: 2
    decay_mult: 0
  }
  convolution_param {
    num_output: 128
    kernel_size: 1
    weight_filler {
      type: "xavier"
    }
    bias_filler {
      type: "constant"
      value: 0.2
    }
  }
}
layer {
  name: "inception_3b/relu_3x3_reduce"
  type: "ReLU"
  bottom: "inception_3b/3x3_reduce"
  top: "inception_3b/3x3_reduce"
}
layer {
  name: "inception_3b/3x3"
  type: "Convolution"
  bottom: "inception_3b/3x3_reduce"
  top: "inception_3b/3x3"
  param {
    lr_mult: 1
    decay_mult: 1
  }
  param {
    lr_mult: 2
    decay_mult: 0
  }
  convolution_param {
    num_output: 192
    pad: 1
    kernel_size: 3
    weight_filler {
      type: "xavier"
    }
    bias_filler {
      type: "constant"
      value: 0.2
    }
  }
}
layer {
  name: "inception_3b/relu_3x3"
  type: "ReLU"
  bottom: "inception_3b/3x3"
  top: "inception_3b/3x3"
}
layer {
  name: "inception_3b/5x5_reduce"
  type: "Convolution"
  bottom: "inception_3a/output"
  top: "inception_3b/5x5_reduce"
  param {
    lr_mult: 1
    decay_mult: 1
  }
  param {
    lr_mult: 2
    decay_mult: 0
  }
  convolution_param {
    num_output: 32
    kernel_size: 1
    weight_filler {
      type: "xavier"
    }
    bias_filler {
      type: "constant"
      value: 0.2
    }
  }
}
layer {
  name: "inception_3b/relu_5x5_reduce"
  type: "ReLU"
  bottom: "inception_3b/5x5_reduce"
  top: "inception_3b/5x5_reduce"
}
layer {
  name: "inception_3b/5x5"
  type: "Convolution"
  bottom: "inception_3b/5x5_reduce"
  top: "inception_3b/5x5"
  param {
    lr_mult: 1
    decay_mult: 1
  }
  param {
    lr_mult: 2
    decay_mult: 0
  }
  convolution_param {
    num_output: 96
    pad: 2
    kernel_size: 5
    weight_filler {
      type: "xavier"
    }
    bias_filler {
      type: "constant"
      value: 0.2
    }
  }
}
layer {
  name: "inception_3b/relu_5x5"
  type: "ReLU"
  bottom: "inception_3b/5x5"
  top: "inception_3b/5x5"
}
layer {
  name: "inception_3b/pool"
  type: "Pooling"
  bottom: "inception_3a/output"
  top: "inception_3b/pool"
  pooling_param {
    pool: MAX
    kernel_size: 3
    stride: 1
    pad: 1
  }
}
layer {
  name: "inception_3b/pool_proj"
  type: "Convolution"
  bottom: "inception_3b/pool"
  top: "inception_3b/pool_proj"
  param {
    lr_mult: 1
    decay_mult: 1
  }
  param {
    lr_mult: 2
    decay_mult: 0
  }
  convolution_param {
    num_output: 64
    kernel_size: 1
    weight_filler {
      type: "xavier"
    }
    bias_filler {
      type: "constant"
      value: 0.2
    }
  }
}
layer {
  name: "inception_3b/relu_pool_proj"
  type: "ReLU"
  bottom: "inception_3b/pool_proj"
  top: "inception_3b/pool_proj"
}
layer {
  name: "inception_3b/output"
  type: "Concat"
  bottom: "inception_3b/1x1"
  bottom: "inception_3b/3x3"
  bottom: "inception_3b/5x5"
  bottom: "inception_3b/pool_proj"
  top: "inception_3b/output"
}
layer {
  name: "pool3/3x3_s2"
  type: "Pooling"
  bottom: "inception_3b/output"
  top: "pool3/3x3_s2"
  pooling_param {
    pool: MAX
    kernel_size: 3
    stride: 2
  }
}
layer {
  name: "inception_4a/1x1"
  type: "Convolution"
  bottom: "pool3/3x3_s2"
  top: "inception_4a/1x1"
  param {
    lr_mult: 1
    decay_mult: 1
  }
  param {
    lr_mult: 2
    decay_mult: 0
  }
  convolution_param {
    num_output: 192
    kernel_size: 1
    weight_filler {
      type: "xavier"
    }
    bias_filler {
      type: "constant"
      value: 0.2
    }
  }
}
layer {
  name: "inception_4a/relu_1x1"
  type: "ReLU"
  bottom: "inception_4a/1x1"
  top: "inception_4a/1x1"
}
layer {
  name: "inception_4a/3x3_reduce"
  type: "Convolution"
  bottom: "pool3/3x3_s2"
  top: "inception_4a/3x3_reduce"
  param {
    lr_mult: 1
    decay_mult: 1
  }
  param {
    lr_mult: 2
    decay_mult: 0
  }
  convolution_param {
    num_output: 96
    kernel_size: 1
    weight_filler {
      type: "xavier"
    }
    bias_filler {
      type: "constant"
      value: 0.2
    }
  }
}
layer {
  name: "inception_4a/relu_3x3_reduce"
  type: "ReLU"
  bottom: "inception_4a/3x3_reduce"
  top: "inception_4a/3x3_reduce"
}
layer {
  name: "inception_4a/3x3"
  type: "Convolution"
  bottom: "inception_4a/3x3_reduce"
  top: "inception_4a/3x3"
  param {
    lr_mult: 1
    decay_mult: 1
  }
  param {
    lr_mult: 2
    decay_mult: 0
  }
  convolution_param {
    num_output: 208
    pad: 1
    kernel_size: 3
    weight_filler {
      type: "xavier"
    }
    bias_filler {
      type: "constant"
      value: 0.2
    }
  }
}
layer {
  name: "inception_4a/relu_3x3"
  type: "ReLU"
  bottom: "inception_4a/3x3"
  top: "inception_4a/3x3"
}
layer {
  name: "inception_4a/5x5_reduce"
  type: "Convolution"
  bottom: "pool3/3x3_s2"
  top: "inception_4a/5x5_reduce"
  param {
    lr_mult: 1
    decay_mult: 1
  }
  param {
    lr_mult: 2
    decay_mult: 0
  }
  convolution_param {
    num_output: 16
    kernel_size: 1
    weight_filler {
      type: "xavier"
    }
    bias_filler {
      type: "constant"
      value: 0.2
    }
  }
}
layer {
  name: "inception_4a/relu_5x5_reduce"
  type: "ReLU"
  bottom: "inception_4a/5x5_reduce"
  top: "inception_4a/5x5_reduce"
}
layer {
  name: "inception_4a/5x5"
  type: "Convolution"
  bottom: "inception_4a/5x5_reduce"
  top: "inception_4a/5x5"
  param {
    lr_mult: 1
    decay_mult: 1
  }
  param {
    lr_mult: 2
    decay_mult: 0
  }
  convolution_param {
    num_output: 48
    pad: 2
    kernel_size: 5
    weight_filler {
      type: "xavier"
    }
    bias_filler {
      type: "constant"
      value: 0.2
    }
  }
}
layer {
  name: "inception_4a/relu_5x5"
  type: "ReLU"
  bottom: "inception_4a/5x5"
  top: "inception_4a/5x5"
}
layer {
  name: "inception_4a/pool"
  type: "Pooling"
  bottom: "pool3/3x3_s2"
  top: "inception_4a/pool"
  pooling_param {
    pool: MAX
    kernel_size: 3
    stride: 1
    pad: 1
  }
}
layer {
  name: "inception_4a/pool_proj"
  type: "Convolution"
  bottom: "inception_4a/pool"
  top: "inception_4a/pool_proj"
  param {
    lr_mult: 1
    decay_mult: 1
  }
  param {
    lr_mult: 2
    decay_mult: 0
  }
  convolution_param {
    num_output: 64
    kernel_size: 1
    weight_filler {
      type: "xavier"
    }
    bias_filler {
      type: "constant"
      value: 0.2
    }
  }
}
layer {
  name: "inception_4a/relu_pool_proj"
  type: "ReLU"
  bottom: "inception_4a/pool_proj"
  top: "inception_4a/pool_proj"
}
layer {
  name: "inception_4a/output"
  type: "Concat"
  bottom: "inception_4a/1x1"
  bottom: "inception_4a/3x3"
  bottom: "inception_4a/5x5"
  bottom: "inception_4a/pool_proj"
  top: "inception_4a/output"
}
layer {
  name: "loss1/ave_pool"
  type: "Pooling"
  bottom: "inception_4a/output"
  top: "loss1/ave_pool"
  pooling_param {
    pool: AVE
    kernel_size: 5
    stride: 3
  }
}
layer {
  name: "loss1/conv"
  type: "Convolution"
  bottom: "loss1/ave_pool"
  top: "loss1/conv"
  param {
    lr_mult: 1
    decay_mult: 1
  }
  param {
    lr_mult: 2
    decay_mult: 0
  }
  convolution_param {
    num_output: 128
    kernel_size: 1
    weight_filler {
      type: "xavier"
    }
    bias_filler {
      type: "constant"
      value: 0.2
    }
  }
}
layer {
  name: "loss1/relu_conv"
  type: "ReLU"
  bottom: "loss1/conv"
  top: "loss1/conv"
}
layer {
  name: "loss1/fc"
  type: "InnerProduct"
  bottom: "loss1/conv"
  top: "loss1/fc"
  param {
    lr_mult: 1
    decay_mult: 1
  }
  param {
    lr_mult: 2
    decay_mult: 0
  }
  inner_product_param {
    num_output: 1024
    weight_filler {
      type: "xavier"
    }
    bias_filler {
      type: "constant"
      value: 0.2
    }
  }
}
layer {
  name: "loss1/relu_fc"
  type: "ReLU"
  bottom: "loss1/fc"
  top: "loss1/fc"
}
layer {
  name: "loss1/drop_fc"
  type: "Dropout"
  bottom: "loss1/fc"
  top: "loss1/fc"
  dropout_param {
    dropout_ratio: 0.7
  }
}
layer {
  name: "loss1/classifier_kaggle"
  type: "InnerProduct"
  bottom: "loss1/fc"
  top: "loss1/classifier_kaggle"
  param {
    lr_mult: 1
    decay_mult: 1
  }
  param {
    lr_mult: 2
    decay_mult: 0
  }
  inner_product_param {
    num_output: 447
    weight_filler {
      type: "xavier"
    }
    bias_filler {
      type: "constant"
      value: 0
    }
  }
}
layer {
  name: "loss1/loss"
  type: "SoftmaxWithLoss"
  bottom: "loss1/classifier_kaggle"
  bottom: "label"
  top: "loss1/loss1"
  loss_weight: 0.3
}
layer {
  name: "loss1/top-1"
  type: "Accuracy"
  bottom: "loss1/classifier_kaggle"
  bottom: "label"
  top: "loss1/top-1"
  include {
    phase: TEST
  }
}
layer {
  name: "loss1/top-5"
  type: "Accuracy"
  bottom: "loss1/classifier_kaggle"
  bottom: "label"
  top: "loss1/top-5"
  include {
    phase: TEST
  }
  accuracy_param {
    top_k: 5
  }
}
layer {
  name: "inception_4b/1x1"
  type: "Convolution"
  bottom: "inception_4a/output"
  top: "inception_4b/1x1"
  param {
    lr_mult: 1
    decay_mult: 1
  }
  param {
    lr_mult: 2
    decay_mult: 0
  }
  convolution_param {
    num_output: 160
    kernel_size: 1
    weight_filler {
      type: "xavier"
    }
    bias_filler {
      type: "constant"
      value: 0.2
    }
  }
}
layer {
  name: "inception_4b/relu_1x1"
  type: "ReLU"
  bottom: "inception_4b/1x1"
  top: "inception_4b/1x1"
}
layer {
  name: "inception_4b/3x3_reduce"
  type: "Convolution"
  bottom: "inception_4a/output"
  top: "inception_4b/3x3_reduce"
  param {
    lr_mult: 1
    decay_mult: 1
  }
  param {
    lr_mult: 2
    decay_mult: 0
  }
  convolution_param {
    num_output: 112
    kernel_size: 1
    weight_filler {
      type: "xavier"
    }
    bias_filler {
      type: "constant"
      value: 0.2
    }
  }
}
layer {
  name: "inception_4b/relu_3x3_reduce"
  type: "ReLU"
  bottom: "inception_4b/3x3_reduce"
  top: "inception_4b/3x3_reduce"
}
layer {
  name: "inception_4b/3x3"
  type: "Convolution"
  bottom: "inception_4b/3x3_reduce"
  top: "inception_4b/3x3"
  param {
    lr_mult: 1
    decay_mult: 1
  }
  param {
    lr_mult: 2
    decay_mult: 0
  }
  convolution_param {
    num_output: 224
    pad: 1
    kernel_size: 3
    weight_filler {
      type: "xavier"
    }
    bias_filler {
      type: "constant"
      value: 0.2
    }
  }
}
layer {
  name: "inception_4b/relu_3x3"
  type: "ReLU"
  bottom: "inception_4b/3x3"
  top: "inception_4b/3x3"
}
layer {
  name: "inception_4b/5x5_reduce"
  type: "Convolution"
  bottom: "inception_4a/output"
  top: "inception_4b/5x5_reduce"
  param {
    lr_mult: 1
    decay_mult: 1
  }
  param {
    lr_mult: 2
    decay_mult: 0
  }
  convolution_param {
    num_output: 24
    kernel_size: 1
    weight_filler {
      type: "xavier"
    }
    bias_filler {
      type: "constant"
      value: 0.2
    }
  }
}
layer {
  name: "inception_4b/relu_5x5_reduce"
  type: "ReLU"
  bottom: "inception_4b/5x5_reduce"
  top: "inception_4b/5x5_reduce"
}
layer {
  name: "inception_4b/5x5"
  type: "Convolution"
  bottom: "inception_4b/5x5_reduce"
  top: "inception_4b/5x5"
  param {
    lr_mult: 1
    decay_mult: 1
  }
  param {
    lr_mult: 2
    decay_mult: 0
  }
  convolution_param {
    num_output: 64
    pad: 2
    kernel_size: 5
    weight_filler {
      type: "xavier"
    }
    bias_filler {
      type: "constant"
      value: 0.2
    }
  }
}
layer {
  name: "inception_4b/relu_5x5"
  type: "ReLU"
  bottom: "inception_4b/5x5"
  top: "inception_4b/5x5"
}
layer {
  name: "inception_4b/pool"
  type: "Pooling"
  bottom: "inception_4a/output"
  top: "inception_4b/pool"
  pooling_param {
    pool: MAX
    kernel_size: 3
    stride: 1
    pad: 1
  }
}
layer {
  name: "inception_4b/pool_proj"
  type: "Convolution"
  bottom: "inception_4b/pool"
  top: "inception_4b/pool_proj"
  param {
    lr_mult: 1
    decay_mult: 1
  }
  param {
    lr_mult: 2
    decay_mult: 0
  }
  convolution_param {
    num_output: 64
    kernel_size: 1
    weight_filler {
      type: "xavier"
    }
    bias_filler {
      type: "constant"
      value: 0.2
    }
  }
}
layer {
  name: "inception_4b/relu_pool_proj"
  type: "ReLU"
  bottom: "inception_4b/pool_proj"
  top: "inception_4b/pool_proj"
}
layer {
  name: "inception_4b/output"
  type: "Concat"
  bottom: "inception_4b/1x1"
  bottom: "inception_4b/3x3"
  bottom: "inception_4b/5x5"
  bottom: "inception_4b/pool_proj"
  top: "inception_4b/output"
}
layer {
  name: "inception_4c/1x1"
  type: "Convolution"
  bottom: "inception_4b/output"
  top: "inception_4c/1x1"
  param {
    lr_mult: 1
    decay_mult: 1
  }
  param {
    lr_mult: 2
    decay_mult: 0
  }
  convolution_param {
    num_output: 128
    kernel_size: 1
    weight_filler {
      type: "xavier"
    }
    bias_filler {
      type: "constant"
      value: 0.2
    }
  }
}
layer {
  name: "inception_4c/relu_1x1"
  type: "ReLU"
  bottom: "inception_4c/1x1"
  top: "inception_4c/1x1"
}
layer {
  name: "inception_4c/3x3_reduce"
  type: "Convolution"
  bottom: "inception_4b/output"
  top: "inception_4c/3x3_reduce"
  param {
    lr_mult: 1
    decay_mult: 1
  }
  param {
    lr_mult: 2
    decay_mult: 0
  }
  convolution_param {
    num_output: 128
    kernel_size: 1
    weight_filler {
      type: "xavier"
    }
    bias_filler {
      type: "constant"
      value: 0.2
    }
  }
}
layer {
  name: "inception_4c/relu_3x3_reduce"
  type: "ReLU"
  bottom: "inception_4c/3x3_reduce"
  top: "inception_4c/3x3_reduce"
}
layer {
  name: "inception_4c/3x3"
  type: "Convolution"
  bottom: "inception_4c/3x3_reduce"
  top: "inception_4c/3x3"
  param {
    lr_mult: 1
    decay_mult: 1
  }
  param {
    lr_mult: 2
    decay_mult: 0
  }
  convolution_param {
    num_output: 256
    pad: 1
    kernel_size: 3
    weight_filler {
      type: "xavier"
    }
    bias_filler {
      type: "constant"
      value: 0.2
    }
  }
}
layer {
  name: "inception_4c/relu_3x3"
  type: "ReLU"
  bottom: "inception_4c/3x3"
  top: "inception_4c/3x3"
}
layer {
  name: "inception_4c/5x5_reduce"
  type: "Convolution"
  bottom: "inception_4b/output"
  top: "inception_4c/5x5_reduce"
  param {
    lr_mult: 1
    decay_mult: 1
  }
  param {
    lr_mult: 2
    decay_mult: 0
  }
  convolution_param {
    num_output: 24
    kernel_size: 1
    weight_filler {
      type: "xavier"
    }
    bias_filler {
      type: "constant"
      value: 0.2
    }
  }
}
layer {
  name: "inception_4c/relu_5x5_reduce"
  type: "ReLU"
  bottom: "inception_4c/5x5_reduce"
  top: "inception_4c/5x5_reduce"
}
layer {
  name: "inception_4c/5x5"
  type: "Convolution"
  bottom: "inception_4c/5x5_reduce"
  top: "inception_4c/5x5"
  param {
    lr_mult: 1
    decay_mult: 1
  }
  param {
    lr_mult: 2
    decay_mult: 0
  }
  convolution_param {
    num_output: 64
    pad: 2
    kernel_size: 5
    weight_filler {
      type: "xavier"
    }
    bias_filler {
      type: "constant"
      value: 0.2
    }
  }
}
layer {
  name: "inception_4c/relu_5x5"
  type: "ReLU"
  bottom: "inception_4c/5x5"
  top: "inception_4c/5x5"
}
layer {
  name: "inception_4c/pool"
  type: "Pooling"
  bottom: "inception_4b/output"
  top: "inception_4c/pool"
  pooling_param {
    pool: MAX
    kernel_size: 3
    stride: 1
    pad: 1
  }
}
layer {
  name: "inception_4c/pool_proj"
  type: "Convolution"
  bottom: "inception_4c/pool"
  top: "inception_4c/pool_proj"
  param {
    lr_mult: 1
    decay_mult: 1
  }
  param {
    lr_mult: 2
    decay_mult: 0
  }
  convolution_param {
    num_output: 64
    kernel_size: 1
    weight_filler {
      type: "xavier"
    }
    bias_filler {
      type: "constant"
      value: 0.2
    }
  }
}
layer {
  name: "inception_4c/relu_pool_proj"
  type: "ReLU"
  bottom: "inception_4c/pool_proj"
  top: "inception_4c/pool_proj"
}
layer {
  name: "inception_4c/output"
  type: "Concat"
  bottom: "inception_4c/1x1"
  bottom: "inception_4c/3x3"
  bottom: "inception_4c/5x5"
  bottom: "inception_4c/pool_proj"
  top: "inception_4c/output"
}
layer {
  name: "inception_4d/1x1"
  type: "Convolution"
  bottom: "inception_4c/output"
  top: "inception_4d/1x1"
  param {
    lr_mult: 1
    decay_mult: 1
  }
  param {
    lr_mult: 2
    decay_mult: 0
  }
  convolution_param {
    num_output: 112
    kernel_size: 1
    weight_filler {
      type: "xavier"
    }
    bias_filler {
      type: "constant"
      value: 0.2
    }
  }
}
layer {
  name: "inception_4d/relu_1x1"
  type: "ReLU"
  bottom: "inception_4d/1x1"
  top: "inception_4d/1x1"
}
layer {
  name: "inception_4d/3x3_reduce"
  type: "Convolution"
  bottom: "inception_4c/output"
  top: "inception_4d/3x3_reduce"
  param {
    lr_mult: 1
    decay_mult: 1
  }
  param {
    lr_mult: 2
    decay_mult: 0
  }
  convolution_param {
    num_output: 144
    kernel_size: 1
    weight_filler {
      type: "xavier"
    }
    bias_filler {
      type: "constant"
      value: 0.2
    }
  }
}
layer {
  name: "inception_4d/relu_3x3_reduce"
  type: "ReLU"
  bottom: "inception_4d/3x3_reduce"
  top: "inception_4d/3x3_reduce"
}
layer {
  name: "inception_4d/3x3"
  type: "Convolution"
  bottom: "inception_4d/3x3_reduce"
  top: "inception_4d/3x3"
  param {
    lr_mult: 1
    decay_mult: 1
  }
  param {
    lr_mult: 2
    decay_mult: 0
  }
  convolution_param {
    num_output: 288
    pad: 1
    kernel_size: 3
    weight_filler {
      type: "xavier"
    }
    bias_filler {
      type: "constant"
      value: 0.2
    }
  }
}
layer {
  name: "inception_4d/relu_3x3"
  type: "ReLU"
  bottom: "inception_4d/3x3"
  top: "inception_4d/3x3"
}
layer {
  name: "inception_4d/5x5_reduce"
  type: "Convolution"
  bottom: "inception_4c/output"
  top: "inception_4d/5x5_reduce"
  param {
    lr_mult: 1
    decay_mult: 1
  }
  param {
    lr_mult: 2
    decay_mult: 0
  }
  convolution_param {
    num_output: 32
    kernel_size: 1
    weight_filler {
      type: "xavier"
    }
    bias_filler {
      type: "constant"
      value: 0.2
    }
  }
}
layer {
  name: "inception_4d/relu_5x5_reduce"
  type: "ReLU"
  bottom: "inception_4d/5x5_reduce"
  top: "inception_4d/5x5_reduce"
}
layer {
  name: "inception_4d/5x5"
  type: "Convolution"
  bottom: "inception_4d/5x5_reduce"
  top: "inception_4d/5x5"
  param {
    lr_mult: 1
    decay_mult: 1
  }
  param {
    lr_mult: 2
    decay_mult: 0
  }
  convolution_param {
    num_output: 64
    pad: 2
    kernel_size: 5
    weight_filler {
      type: "xavier"
    }
    bias_filler {
      type: "constant"
      value: 0.2
    }
  }
}
layer {
  name: "inception_4d/relu_5x5"
  type: "ReLU"
  bottom: "inception_4d/5x5"
  top: "inception_4d/5x5"
}
layer {
  name: "inception_4d/pool"
  type: "Pooling"
  bottom: "inception_4c/output"
  top: "inception_4d/pool"
  pooling_param {
    pool: MAX
    kernel_size: 3
    stride: 1
    pad: 1
  }
}
layer {
  name: "inception_4d/pool_proj"
  type: "Convolution"
  bottom: "inception_4d/pool"
  top: "inception_4d/pool_proj"
  param {
    lr_mult: 1
    decay_mult: 1
  }
  param {
    lr_mult: 2
    decay_mult: 0
  }
  convolution_param {
    num_output: 64
    kernel_size: 1
    weight_filler {
      type: "xavier"
    }
    bias_filler {
      type: "constant"
      value: 0.2
    }
  }
}
layer {
  name: "inception_4d/relu_pool_proj"
  type: "ReLU"
  bottom: "inception_4d/pool_proj"
  top: "inception_4d/pool_proj"
}
layer {
  name: "inception_4d/output"
  type: "Concat"
  bottom: "inception_4d/1x1"
  bottom: "inception_4d/3x3"
  bottom: "inception_4d/5x5"
  bottom: "inception_4d/pool_proj"
  top: "inception_4d/output"
}
layer {
  name: "loss2/ave_pool"
  type: "Pooling"
  bottom: "inception_4d/output"
  top: "loss2/ave_pool"
  pooling_param {
    pool: AVE
    kernel_size: 5
    stride: 3
  }
}
layer {
  name: "loss2/conv"
  type: "Convolution"
…
I1218 22:39:30.076475 29703 net.cpp:84] Creating Layer inception_4c/1x1
I1218 22:39:30.076480 29703 net.cpp:380] inception_4c/1x1 <- inception_4b/output_inception_4b/output_0_split_0
I1218 22:39:30.076488 29703 net.cpp:338] inception_4c/1x1 -> inception_4c/1x1
I1218 22:39:30.076495 29703 net.cpp:113] Setting up inception_4c/1x1
I1218 22:39:30.077611 29703 net.cpp:120] Top shape: 50 128 14 14 (1254400)
I1218 22:39:30.077627 29703 layer_factory.hpp:74] Creating layer inception_4c/relu_1x1
I1218 22:39:30.077635 29703 net.cpp:84] Creating Layer inception_4c/relu_1x1
I1218 22:39:30.077639 29703 net.cpp:380] inception_4c/relu_1x1 <- inception_4c/1x1
I1218 22:39:30.077646 29703 net.cpp:327] inception_4c/relu_1x1 -> inception_4c/1x1 (in-place)
I1218 22:39:30.077652 29703 net.cpp:113] Setting up inception_4c/relu_1x1
I1218 22:39:30.077913 29703 net.cpp:120] Top shape: 50 128 14 14 (1254400)
I1218 22:39:30.077931 29703 layer_factory.hpp:74] Creating layer inception_4c/3x3_reduce
I1218 22:39:30.077941 29703 net.cpp:84] Creating Layer inception_4c/3x3_reduce
I1218 22:39:30.077947 29703 net.cpp:380] inception_4c/3x3_reduce <- inception_4b/output_inception_4b/output_0_split_1
I1218 22:39:30.077956 29703 net.cpp:338] inception_4c/3x3_reduce -> inception_4c/3x3_reduce
I1218 22:39:30.077965 29703 net.cpp:113] Setting up inception_4c/3x3_reduce
I1218 22:39:30.079066 29703 net.cpp:120] Top shape: 50 128 14 14 (1254400)
I1218 22:39:30.079079 29703 layer_factory.hpp:74] Creating layer inception_4c/relu_3x3_reduce
I1218 22:39:30.079087 29703 net.cpp:84] Creating Layer inception_4c/relu_3x3_reduce
I1218 22:39:30.079093 29703 net.cpp:380] inception_4c/relu_3x3_reduce <- inception_4c/3x3_reduce
I1218 22:39:30.079099 29703 net.cpp:327] inception_4c/relu_3x3_reduce -> inception_4c/3x3_reduce (in-place)
I1218 22:39:30.079107 29703 net.cpp:113] Setting up inception_4c/relu_3x3_reduce
I1218 22:39:30.079175 29703 net.cpp:120] Top shape: 50 128 14 14 (1254400)
I1218 22:39:30.079181 29703 layer_factory.hpp:74] Creating layer inception_4c/3x3
I1218 22:39:30.079190 29703 net.cpp:84] Creating Layer inception_4c/3x3
I1218 22:39:30.079195 29703 net.cpp:380] inception_4c/3x3 <- inception_4c/3x3_reduce
I1218 22:39:30.079202 29703 net.cpp:338] inception_4c/3x3 -> inception_4c/3x3
I1218 22:39:30.079210 29703 net.cpp:113] Setting up inception_4c/3x3
I1218 22:39:30.082801 29703 net.cpp:120] Top shape: 50 256 14 14 (2508800)
I1218 22:39:30.082831 29703 layer_factory.hpp:74] Creating layer inception_4c/relu_3x3
I1218 22:39:30.082839 29703 net.cpp:84] Creating Layer inception_4c/relu_3x3
I1218 22:39:30.082844 29703 net.cpp:380] inception_4c/relu_3x3 <- inception_4c/3x3
I1218 22:39:30.082851 29703 net.cpp:327] inception_4c/relu_3x3 -> inception_4c/3x3 (in-place)
I1218 22:39:30.082859 29703 net.cpp:113] Setting up inception_4c/relu_3x3
I1218 22:39:30.082926 29703 net.cpp:120] Top shape: 50 256 14 14 (2508800)
I1218 22:39:30.082932 29703 layer_factory.hpp:74] Creating layer inception_4c/5x5_reduce
I1218 22:39:30.082942 29703 net.cpp:84] Creating Layer inception_4c/5x5_reduce
I1218 22:39:30.082947 29703 net.cpp:380] inception_4c/5x5_reduce <- inception_4b/output_inception_4b/output_0_split_2
I1218 22:39:30.082953 29703 net.cpp:338] inception_4c/5x5_reduce -> inception_4c/5x5_reduce
I1218 22:39:30.082962 29703 net.cpp:113] Setting up inception_4c/5x5_reduce
I1218 22:39:30.083484 29703 net.cpp:120] Top shape: 50 24 14 14 (235200)
I1218 22:39:30.083498 29703 layer_factory.hpp:74] Creating layer inception_4c/relu_5x5_reduce
I1218 22:39:30.083506 29703 net.cpp:84] Creating Layer inception_4c/relu_5x5_reduce
I1218 22:39:30.083513 29703 net.cpp:380] inception_4c/relu_5x5_reduce <- inception_4c/5x5_reduce
I1218 22:39:30.083518 29703 net.cpp:327] inception_4c/relu_5x5_reduce -> inception_4c/5x5_reduce (in-place)
I1218 22:39:30.083525 29703 net.cpp:113] Setting up inception_4c/relu_5x5_reduce
I1218 22:39:30.083761 29703 net.cpp:120] Top shape: 50 24 14 14 (235200)
I1218 22:39:30.083771 29703 layer_factory.hpp:74] Creating layer inception_4c/5x5
I1218 22:39:30.083780 29703 net.cpp:84] Creating Layer inception_4c/5x5
I1218 22:39:30.083784 29703 net.cpp:380] inception_4c/5x5 <- inception_4c/5x5_reduce
I1218 22:39:30.083792 29703 net.cpp:338] inception_4c/5x5 -> inception_4c/5x5
I1218 22:39:30.083801 29703 net.cpp:113] Setting up inception_4c/5x5
I1218 22:39:30.084601 29703 net.cpp:120] Top shape: 50 64 14 14 (627200)
I1218 22:39:30.084616 29703 layer_factory.hpp:74] Creating layer inception_4c/relu_5x5
I1218 22:39:30.084625 29703 net.cpp:84] Creating Layer inception_4c/relu_5x5
I1218 22:39:30.084630 29703 net.cpp:380] inception_4c/relu_5x5 <- inception_4c/5x5
I1218 22:39:30.084635 29703 net.cpp:327] inception_4c/relu_5x5 -> inception_4c/5x5 (in-place)
I1218 22:39:30.084645 29703 net.cpp:113] Setting up inception_4c/relu_5x5
I1218 22:39:30.084712 29703 net.cpp:120] Top shape: 50 64 14 14 (627200)
I1218 22:39:30.084722 29703 layer_factory.hpp:74] Creating layer inception_4c/pool
I1218 22:39:30.084734 29703 layer_factory.cpp:56] CUDNN does not support padding or multiple tops. Using Caffe's own pooling layer.
I1218 22:39:30.084740 29703 net.cpp:84] Creating Layer inception_4c/pool
I1218 22:39:30.084745 29703 net.cpp:380] inception_4c/pool <- inception_4b/output_inception_4b/output_0_split_3
I1218 22:39:30.084754 29703 net.cpp:338] inception_4c/pool -> inception_4c/pool
I1218 22:39:30.084761 29703 net.cpp:113] Setting up inception_4c/pool
I1218 22:39:30.084769 29703 net.cpp:120] Top shape: 50 512 14 14 (5017600)
I1218 22:39:30.084774 29703 layer_factory.hpp:74] Creating layer inception_4c/pool_proj
I1218 22:39:30.084784 29703 net.cpp:84] Creating Layer inception_4c/pool_proj
I1218 22:39:30.084787 29703 net.cpp:380] inception_4c/pool_proj <- inception_4c/pool
I1218 22:39:30.084794 29703 net.cpp:338] inception_4c/pool_proj -> inception_4c/pool_proj
I1218 22:39:30.084801 29703 net.cpp:113] Setting up inception_4c/pool_proj
I1218 22:39:30.085575 29703 net.cpp:120] Top shape: 50 64 14 14 (627200)
I1218 22:39:30.085592 29703 layer_factory.hpp:74] Creating layer inception_4c/relu_pool_proj
I1218 22:39:30.085598 29703 net.cpp:84] Creating Layer inception_4c/relu_pool_proj
I1218 22:39:30.085603 29703 net.cpp:380] inception_4c/relu_pool_proj <- inception_4c/pool_proj
I1218 22:39:30.085611 29703 net.cpp:327] inception_4c/relu_pool_proj -> inception_4c/pool_proj (in-place)
I1218 22:39:30.085619 29703 net.cpp:113] Setting up inception_4c/relu_pool_proj
I1218 22:39:30.085685 29703 net.cpp:120] Top shape: 50 64 14 14 (627200)
I1218 22:39:30.085691 29703 layer_factory.hpp:74] Creating layer inception_4c/output
I1218 22:39:30.085697 29703 net.cpp:84] Creating Layer inception_4c/output
I1218 22:39:30.085702 29703 net.cpp:380] inception_4c/output <- inception_4c/1x1
I1218 22:39:30.085708 29703 net.cpp:380] inception_4c/output <- inception_4c/3x3
I1218 22:39:30.085714 29703 net.cpp:380] inception_4c/output <- inception_4c/5x5
I1218 22:39:30.085719 29703 net.cpp:380] inception_4c/output <- inception_4c/pool_proj
I1218 22:39:30.085726 29703 net.cpp:338] inception_4c/output -> inception_4c/output
I1218 22:39:30.085732 29703 net.cpp:113] Setting up inception_4c/output
I1218 22:39:30.085739 29703 net.cpp:120] Top shape: 50 512 14 14 (5017600)
I1218 22:39:30.085744 29703 layer_factory.hpp:74] Creating layer inception_4c/output_inception_4c/output_0_split
I1218 22:39:30.085750 29703 net.cpp:84] Creating Layer inception_4c/output_inception_4c/output_0_split
I1218 22:39:30.085754 29703 net.cpp:380] inception_4c/output_inception_4c/output_0_split <- inception_4c/output
I1218 22:39:30.085760 29703 net.cpp:338] inception_4c/output_inception_4c/output_0_split -> inception_4c/output_inception_4c/output_0_split_0
I1218 22:39:30.085767 29703 net.cpp:338] inception_4c/output_inception_4c/output_0_split -> inception_4c/output_inception_4c/output_0_split_1
I1218 22:39:30.085775 29703 net.cpp:338] inception_4c/output_inception_4c/output_0_split -> inception_4c/output_inception_4c/output_0_split_2
I1218 22:39:30.085783 29703 net.cpp:338] inception_4c/output_inception_4c/output_0_split -> inception_4c/output_inception_4c/output_0_split_3
I1218 22:39:30.085788 29703 net.cpp:113] Setting up inception_4c/output_inception_4c/output_0_split
I1218 22:39:30.085795 29703 net.cpp:120] Top shape: 50 512 14 14 (5017600)
I1218 22:39:30.085800 29703 net.cpp:120] Top shape: 50 512 14 14 (5017600)
I1218 22:39:30.085805 29703 net.cpp:120] Top shape: 50 512 14 14 (5017600)
I1218 22:39:30.085809 29703 net.cpp:120] Top shape: 50 512 14 14 (5017600)
I1218 22:39:30.085813 29703 layer_factory.hpp:74] Creating layer inception_4d/1x1
I1218 22:39:30.085822 29703 net.cpp:84] Creating Layer inception_4d/1x1
I1218 22:39:30.085827 29703 net.cpp:380] inception_4d/1x1 <- inception_4c/output_inception_4c/output_0_split_0
I1218 22:39:30.085834 29703 net.cpp:338] inception_4d/1x1 -> inception_4d/1x1
I1218 22:39:30.085840 29703 net.cpp:113] Setting up inception_4d/1x1
I1218 22:39:30.086858 29703 net.cpp:120] Top shape: 50 112 14 14 (1097600)
I1218 22:39:30.086881 29703 layer_factory.hpp:74] Creating layer inception_4d/relu_1x1
I1218 22:39:30.086889 29703 net.cpp:84] Creating Layer inception_4d/relu_1x1
I1218 22:39:30.086896 29703 net.cpp:380] inception_4d/relu_1x1 <- inception_4d/1x1
I1218 22:39:30.086902 29703 net.cpp:327] inception_4d/relu_1x1 -> inception_4d/1x1 (in-place)
I1218 22:39:30.086910 29703 net.cpp:113] Setting up inception_4d/relu_1x1
I1218 22:39:30.086973 29703 net.cpp:120] Top shape: 50 112 14 14 (1097600)
I1218 22:39:30.086978 29703 layer_factory.hpp:74] Creating layer inception_4d/3x3_reduce
I1218 22:39:30.086988 29703 net.cpp:84] Creating Layer inception_4d/3x3_reduce
I1218 22:39:30.086993 29703 net.cpp:380] inception_4d/3x3_reduce <- inception_4c/output_inception_4c/output_0_split_1
I1218 22:39:30.086999 29703 net.cpp:338] inception_4d/3x3_reduce -> inception_4d/3x3_reduce
I1218 22:39:30.087007 29703 net.cpp:113] Setting up inception_4d/3x3_reduce
I1218 22:39:30.088192 29703 net.cpp:120] Top shape: 50 144 14 14 (1411200)
I1218 22:39:30.088207 29703 layer_factory.hpp:74] Creating layer inception_4d/relu_3x3_reduce
I1218 22:39:30.088217 29703 net.cpp:84] Creating Layer inception_4d/relu_3x3_reduce
I1218 22:39:30.088223 29703 net.cpp:380] inception_4d/relu_3x3_reduce <- inception_4d/3x3_reduce
I1218 22:39:30.088229 29703 net.cpp:327] inception_4d/relu_3x3_reduce -> inception_4d/3x3_reduce (in-place)
I1218 22:39:30.088238 29703 net.cpp:113] Setting up inception_4d/relu_3x3_reduce
I1218 22:39:30.088476 29703 net.cpp:120] Top shape: 50 144 14 14 (1411200)
I1218 22:39:30.088486 29703 layer_factory.hpp:74] Creating layer inception_4d/3x3
I1218 22:39:30.088496 29703 net.cpp:84] Creating Layer inception_4d/3x3
I1218 22:39:30.088501 29703 net.cpp:380] inception_4d/3x3 <- inception_4d/3x3_reduce
I1218 22:39:30.088510 29703 net.cpp:338] inception_4d/3x3 -> inception_4d/3x3
I1218 22:39:30.088518 29703 net.cpp:113] Setting up inception_4d/3x3
I1218 22:39:30.092905 29703 net.cpp:120] Top shape: 50 288 14 14 (2822400)
I1218 22:39:30.092921 29703 layer_factory.hpp:74] Creating layer inception_4d/relu_3x3
I1218 22:39:30.092931 29703 net.cpp:84] Creating Layer inception_4d/relu_3x3
I1218 22:39:30.092936 29703 net.cpp:380] inception_4d/relu_3x3 <- inception_4d/3x3
I1218 22:39:30.092942 29703 net.cpp:327] inception_4d/relu_3x3 -> inception_4d/3x3 (in-place)
I1218 22:39:30.092949 29703 net.cpp:113] Setting up inception_4d/relu_3x3
I1218 22:39:30.093015 29703 net.cpp:120] Top shape: 50 288 14 14 (2822400)
I1218 22:39:30.093022 29703 layer_factory.hpp:74] Creating layer inception_4d/5x5_reduce
I1218 22:39:30.093030 29703 net.cpp:84] Creating Layer inception_4d/5x5_reduce
I1218 22:39:30.093037 29703 net.cpp:380] inception_4d/5x5_reduce <- inception_4c/output_inception_4c/output_0_split_2
I1218 22:39:30.093044 29703 net.cpp:338] inception_4d/5x5_reduce -> inception_4d/5x5_reduce
I1218 22:39:30.093051 29703 net.cpp:113] Setting up inception_4d/5x5_reduce
I1218 22:39:30.093860 29703 net.cpp:120] Top shape: 50 32 14 14 (313600)
I1218 22:39:30.093881 29703 layer_factory.hpp:74] Creating layer inception_4d/relu_5x5_reduce
I1218 22:39:30.093894 29703 net.cpp:84] Creating Layer inception_4d/relu_5x5_reduce
I1218 22:39:30.093902 29703 net.cpp:380] inception_4d/relu_5x5_reduce <- inception_4d/5x5_reduce
I1218 22:39:30.093912 29703 net.cpp:327] inception_4d/relu_5x5_reduce -> inception_4d/5x5_reduce (in-place)
I1218 22:39:30.093924 29703 net.cpp:113] Setting up inception_4d/relu_5x5_reduce
I1218 22:39:30.094024 29703 net.cpp:120] Top shape: 50 32 14 14 (313600)
I1218 22:39:30.094033 29703 layer_factory.hpp:74] Creating layer inception_4d/5x5
I1218 22:39:30.094048 29703 net.cpp:84] Creating Layer inception_4d/5x5
I1218 22:39:30.094055 29703 net.cpp:380] inception_4d/5x5 <- inception_4d/5x5_reduce
I1218 22:39:30.094065 29703 net.cpp:338] inception_4d/5x5 -> inception_4d/5x5
I1218 22:39:30.094077 29703 net.cpp:113] Setting up inception_4d/5x5
I1218 22:39:30.095252 29703 net.cpp:120] Top shape: 50 64 14 14 (627200)
I1218 22:39:30.095278 29703 layer_factory.hpp:74] Creating layer inception_4d/relu_5x5
I1218 22:39:30.095299 29703 net.cpp:84] Creating Layer inception_4d/relu_5x5
I1218 22:39:30.095307 29703 net.cpp:380] inception_4d/relu_5x5 <- inception_4d/5x5
I1218 22:39:30.095316 29703 net.cpp:327] inception_4d/relu_5x5 -> inception_4d/5x5 (in-place)
I1218 22:39:30.095327 29703 net.cpp:113] Setting up inception_4d/relu_5x5
I1218 22:39:30.095429 29703 net.cpp:120] Top shape: 50 64 14 14 (627200)
I1218 22:39:30.095439 29703 layer_factory.hpp:74] Creating layer inception_4d/pool
I1218 22:39:30.095448 29703 layer_factory.cpp:56] CUDNN does not support padding or multiple tops. Using Caffe's own pooling layer.
I1218 22:39:30.095455 29703 net.cpp:84] Creating Layer inception_4d/pool
I1218 22:39:30.095463 29703 net.cpp:380] inception_4d/pool <- inception_4c/output_inception_4c/output_0_split_3
I1218 22:39:30.095475 29703 net.cpp:338] inception_4d/pool -> inception_4d/pool
I1218 22:39:30.095486 29703 net.cpp:113] Setting up inception_4d/pool
I1218 22:39:30.095499 29703 net.cpp:120] Top shape: 50 512 14 14 (5017600)
I1218 22:39:30.095506 29703 layer_factory.hpp:74] Creating layer inception_4d/pool_proj
I1218 22:39:30.095520 29703 net.cpp:84] Creating Layer inception_4d/pool_proj
I1218 22:39:30.095527 29703 net.cpp:380] inception_4d/pool_proj <- inception_4d/pool
I1218 22:39:30.095537 29703 net.cpp:338] inception_4d/pool_proj -> inception_4d/pool_proj
I1218 22:39:30.095548 29703 net.cpp:113] Setting up inception_4d/pool_proj
I1218 22:39:30.096498 29703 net.cpp:120] Top shape: 50 64 14 14 (627200)
I1218 22:39:30.096516 29703 layer_factory.hpp:74] Creating layer inception_4d/relu_pool_proj
I1218 22:39:30.096526 29703 net.cpp:84] Creating Layer inception_4d/relu_pool_proj
I1218 22:39:30.096534 29703 net.cpp:380] inception_4d/relu_pool_proj <- inception_4d/pool_proj
I1218 22:39:30.096546 29703 net.cpp:327] inception_4d/relu_pool_proj -> inception_4d/pool_proj (in-place)
I1218 22:39:30.096557 29703 net.cpp:113] Setting up inception_4d/relu_pool_proj
I1218 22:39:30.096854 29703 net.cpp:120] Top shape: 50 64 14 14 (627200)
I1218 22:39:30.096869 29703 layer_factory.hpp:74] Creating layer inception_4d/output
I1218 22:39:30.096881 29703 net.cpp:84] Creating Layer inception_4d/output
I1218 22:39:30.096889 29703 net.cpp:380] inception_4d/output <- inception_4d/1x1
I1218 22:39:30.096899 29703 net.cpp:380] inception_4d/output <- inception_4d/3x3
I1218 22:39:30.096907 29703 net.cpp:380] inception_4d/output <- inception_4d/5x5
I1218 22:39:30.096915 29703 net.cpp:380] inception_4d/output <- inception_4d/pool_proj
I1218 22:39:30.096923 29703 net.cpp:338] inception_4d/output -> inception_4d/output
I1218 22:39:30.096933 29703 net.cpp:113] Setting up inception_4d/output
I1218 22:39:30.096945 29703 net.cpp:120] Top shape: 50 528 14 14 (5174400)
I1218 22:39:30.096951 29703 layer_factory.hpp:74] Creating layer inception_4d/output_inception_4d/output_0_split
I1218 22:39:30.096961 29703 net.cpp:84] Creating Layer inception_4d/output_inception_4d/output_0_split
I1218 22:39:30.096968 29703 net.cpp:380] inception_4d/output_inception_4d/output_0_split <- inception_4d/output
I1218 22:39:30.096982 29703 net.cpp:338] inception_4d/output_inception_4d/output_0_split -> inception_4d/output_inception_4d/output_0_split_0
I1218 22:39:30.096993 29703 net.cpp:338] inception_4d/output_inception_4d/output_0_split -> inception_4d/output_inception_4d/output_0_split_1
I1218 22:39:30.097003 29703 net.cpp:338] inception_4d/output_inception_4d/output_0_split -> inception_4d/output_inception_4d/output_0_split_2
I1218 22:39:30.097013 29703 net.cpp:338] inception_4d/output_inception_4d/output_0_split -> inception_4d/output_inception_4d/output_0_split_3
I1218 22:39:30.097025 29703 net.cpp:338] inception_4d/output_inception_4d/output_0_split -> inception_4d/output_inception_4d/output_0_split_4
I1218 22:39:30.097035 29703 net.cpp:113] Setting up inception_4d/output_inception_4d/output_0_split
I1218 22:39:30.097045 29703 net.cpp:120] Top shape: 50 528 14 14 (5174400)
I1218 22:39:30.097069 29703 net.cpp:120] Top shape: 50 528 14 14 (5174400)
I1218 22:39:30.097085 29703 net.cpp:120] Top shape: 50 528 14 14 (5174400)
I1218 22:39:30.097093 29703 net.cpp:120] Top shape: 50 528 14 14 (5174400)
I1218 22:39:30.097100 29703 net.cpp:120] Top shape: 50 528 14 14 (5174400)
I1218 22:39:30.097106 29703 layer_factory.hpp:74] Creating layer loss2/ave_pool
I1218 22:39:30.097116 29703 net.cpp:84] Creating Layer loss2/ave_pool
I1218 22:39:30.097123 29703 net.cpp:380] loss2/ave_pool <- inception_4d/output_inception_4d/output_0_split_0
I1218 22:39:30.097137 29703 net.cpp:338] loss2/ave_pool -> loss2/ave_pool
I1218 22:39:30.097149 29703 net.cpp:113] Setting up loss2/ave_pool
I1218 22:39:30.097259 29703 net.cpp:120] Top shape: 50 528 4 4 (422400)
I1218 22:39:30.097268 29703 layer_factory.hpp:74] Creating layer loss2/conv
I1218 22:39:30.097280 29703 net.cpp:84] Creating Layer loss2/conv
I1218 22:39:30.097288 29703 net.cpp:380] loss2/conv <- loss2/ave_pool
I1218 22:39:30.097301 29703 net.cpp:338] loss2/conv -> loss2/conv
I1218 22:39:30.097312 29703 net.cpp:113] Setting up loss2/conv
I1218 22:39:30.098703 29703 net.cpp:120] Top shape: 50 128 4 4 (102400)
I1218 22:39:30.098722 29703 layer_factory.hpp:74] Creating layer loss2/relu_conv
I1218 22:39:30.098739 29703 net.cpp:84] Creating Layer loss2/relu_conv
I1218 22:39:30.098747 29703 net.cpp:380] loss2/relu_conv <- loss2/conv
I1218 22:39:30.098757 29703 net.cpp:327] loss2/relu_conv -> loss2/conv (in-place)
I1218 22:39:30.098768 29703 net.cpp:113] Setting up loss2/relu_conv
I1218 22:39:30.098866 29703 net.cpp:120] Top shape: 50 128 4 4 (102400)
I1218 22:39:30.098875 29703 layer_factory.hpp:74] Creating layer loss2/fc
I1218 22:39:30.098887 29703 net.cpp:84] Creating Layer loss2/fc
I1218 22:39:30.098894 29703 net.cpp:380] loss2/fc <- loss2/conv
I1218 22:39:30.098904 29703 net.cpp:338] loss2/fc -> loss2/fc
I1218 22:39:30.098917 29703 net.cpp:113] Setting up loss2/fc
I1218 22:39:31.209717 29703 net.cpp:120] Top shape: 50 1024 (51200)
I1218 22:39:31.209774 29703 layer_factory.hpp:74] Creating layer loss2/relu_fc
I1218 22:39:31.209791 29703 net.cpp:84] Creating Layer loss2/relu_fc
I1218 22:39:31.209805 29703 net.cpp:380] loss2/relu_fc <- loss2/fc
I1218 22:39:31.209821 29703 net.cpp:327] loss2/relu_fc -> loss2/fc (in-place)
I1218 22:39:31.209836 29703 net.cpp:113] Setting up loss2/relu_fc
I1218 22:39:31.210008 29703 net.cpp:120] Top shape: 50 1024 (51200)
I1218 22:39:31.210018 29703 layer_factory.hpp:74] Creating layer loss2/drop_fc
I1218 22:39:31.210032 29703 net.cpp:84] Creating Layer loss2/drop_fc
I1218 22:39:31.210039 29703 net.cpp:380] loss2/drop_fc <- loss2/fc
I1218 22:39:31.210048 29703 net.cpp:327] loss2/drop_fc -> loss2/fc (in-place)
I1218 22:39:31.210058 29703 net.cpp:113] Setting up loss2/drop_fc
I1218 22:39:31.210070 29703 net.cpp:120] Top shape: 50 1024 (51200)
I1218 22:39:31.210078 29703 layer_factory.hpp:74] Creating layer loss2/classifier_kaggle
I1218 22:39:31.210091 29703 net.cpp:84] Creating Layer loss2/classifier_kaggle
I1218 22:39:31.210098 29703 net.cpp:380] loss2/classifier_kaggle <- loss2/fc
I1218 22:39:31.210108 29703 net.cpp:338] loss2/classifier_kaggle -> loss2/classifier_kaggle
I1218 22:39:31.210124 29703 net.cpp:113] Setting up loss2/classifier_kaggle
I1218 22:39:31.215476 29703 net.cpp:120] Top shape: 50 447 (22350)
I1218 22:39:31.215495 29703 layer_factory.hpp:74] Creating layer loss2/classifier_kaggle_loss2/classifier_kaggle_0_split
I1218 22:39:31.215507 29703 net.cpp:84] Creating Layer loss2/classifier_kaggle_loss2/classifier_kaggle_0_split
I1218 22:39:31.215514 29703 net.cpp:380] loss2/classifier_kaggle_loss2/classifier_kaggle_0_split <- loss2/classifier_kaggle
I1218 22:39:31.215524 29703 net.cpp:338] loss2/classifier_kaggle_loss2/classifier_kaggle_0_split -> loss2/classifier_kaggle_loss2/classifier_kaggle_0_split_0
I1218 22:39:31.215536 29703 net.cpp:338] loss2/classifier_kaggle_loss2/classifier_kaggle_0_split -> loss2/classifier_kaggle_loss2/classifier_kaggle_0_split_1
I1218 22:39:31.215548 29703 net.cpp:338] loss2/classifier_kaggle_loss2/classifier_kaggle_0_split -> loss2/classifier_kaggle_loss2/classifier_kaggle_0_split_2
I1218 22:39:31.215582 29703 net.cpp:113] Setting up loss2/classifier_kaggle_loss2/classifier_kaggle_0_split
I1218 22:39:31.215595 29703 net.cpp:120] Top shape: 50 447 (22350)
I1218 22:39:31.215602 29703 net.cpp:120] Top shape: 50 447 (22350)
I1218 22:39:31.215610 29703 net.cpp:120] Top shape: 50 447 (22350)
I1218 22:39:31.215616 29703 layer_factory.hpp:74] Creating layer loss2/loss
I1218 22:39:31.215627 29703 net.cpp:84] Creating Layer loss2/loss
I1218 22:39:31.215634 29703 net.cpp:380] loss2/loss <- loss2/classifier_kaggle_loss2/classifier_kaggle_0_split_0
I1218 22:39:31.215644 29703 net.cpp:380] loss2/loss <- label_data_1_split_3
I1218 22:39:31.215652 29703 net.cpp:338] loss2/loss -> loss2/loss1
…
I1218 22:39:31.216310 29703 net.cpp:338] loss2/top-5 -> loss2/top-5
I1218 22:39:31.216320 29703 net.cpp:113] Setting up loss2/top-5
I1218 22:39:31.216330 29703 net.cpp:120] Top shape: (1)
I1218 22:39:31.216336 29703 layer_factory.hpp:74] Creating layer inception_4e/1x1
I1218 22:39:31.216351 29703 net.cpp:84] Creating Layer inception_4e/1x1
I1218 22:39:31.216358 29703 net.cpp:380] inception_4e/1x1 <- inception_4d/output_inception_4d/output_0_split_1
I1218 22:39:31.216370 29703 net.cpp:338] inception_4e/1x1 -> inception_4e/1x1
I1218 22:39:31.216382 29703 net.cpp:113] Setting up inception_4e/1x1
I1218 22:39:31.218488 29703 net.cpp:120] Top shape: 50 256 14 14 (2508800)
I1218 22:39:31.218509 29703 layer_factory.hpp:74] Creating layer inception_4e/relu_1x1
I1218 22:39:31.218523 29703 net.cpp:84] Creating Layer inception_4e/relu_1x1
I1218 22:39:31.218529 29703 net.cpp:380] inception_4e/relu_1x1 <- inception_4e/1x1
I1218 22:39:31.218539 29703 net.cpp:327] inception_4e/relu_1x1 -> inception_4e/1x1 (in-place)
I1218 22:39:31.218549 29703 net.cpp:113] Setting up inception_4e/relu_1x1
I1218 22:39:31.218642 29703 net.cpp:120] Top shape: 50 256 14 14 (2508800)
I1218 22:39:31.218652 29703 layer_factory.hpp:74] Creating layer inception_4e/3x3_reduce
I1218 22:39:31.218701 29703 net.cpp:84] Creating Layer inception_4e/3x3_reduce
I1218 22:39:31.218709 29703 net.cpp:380] inception_4e/3x3_reduce <- inception_4d/output_inception_4d/output_0_split_2
I1218 22:39:31.218722 29703 net.cpp:338] inception_4e/3x3_reduce -> inception_4e/3x3_reduce
I1218 22:39:31.218734 29703 net.cpp:113] Setting up inception_4e/3x3_reduce
I1218 22:39:31.220217 29703 net.cpp:120] Top shape: 50 160 14 14 (1568000)
I1218 22:39:31.220237 29703 layer_factory.hpp:74] Creating layer inception_4e/relu_3x3_reduce
I1218 22:39:31.220249 29703 net.cpp:84] Creating Layer inception_4e/relu_3x3_reduce
I1218 22:39:31.220257 29703 net.cpp:380] inception_4e/relu_3x3_reduce <- inception_4e/3x3_reduce
I1218 22:39:31.220266 29703 net.cpp:327] inception_4e/relu_3x3_reduce -> inception_4e/3x3_reduce (in-place)
I1218 22:39:31.220278 29703 net.cpp:113] Setting up inception_4e/relu_3x3_reduce
I1218 22:39:31.220371 29703 net.cpp:120] Top shape: 50 160 14 14 (1568000)
I1218 22:39:31.220388 29703 layer_factory.hpp:74] Creating layer inception_4e/3x3
I1218 22:39:31.220412 29703 net.cpp:84] Creating Layer inception_4e/3x3
I1218 22:39:31.220419 29703 net.cpp:380] inception_4e/3x3 <- inception_4e/3x3_reduce
I1218 22:39:31.220429 29703 net.cpp:338] inception_4e/3x3 -> inception_4e/3x3
I1218 22:39:31.220440 29703 net.cpp:113] Setting up inception_4e/3x3
I1218 22:39:31.226454 29703 net.cpp:120] Top shape: 50 320 14 14 (3136000)
I1218 22:39:31.226475 29703 layer_factory.hpp:74] Creating layer inception_4e/relu_3x3
I1218 22:39:31.226486 29703 net.cpp:84] Creating Layer inception_4e/relu_3x3
I1218 22:39:31.226495 29703 net.cpp:380] inception_4e/relu_3x3 <- inception_4e/3x3
I1218 22:39:31.226505 29703 net.cpp:327] inception_4e/relu_3x3 -> inception_4e/3x3 (in-place)
I1218 22:39:31.226516 29703 net.cpp:113] Setting up inception_4e/relu_3x3
I1218 22:39:31.226795 29703 net.cpp:120] Top shape: 50 320 14 14 (3136000)
I1218 22:39:31.226809 29703 layer_factory.hpp:74] Creating layer inception_4e/5x5_reduce
I1218 22:39:31.226821 29703 net.cpp:84] Creating Layer inception_4e/5x5_reduce
I1218 22:39:31.226830 29703 net.cpp:380] inception_4e/5x5_reduce <- inception_4d/output_inception_4d/output_0_split_3
I1218 22:39:31.226840 29703 net.cpp:338] inception_4e/5x5_reduce -> inception_4e/5x5_reduce
I1218 22:39:31.226852 29703 net.cpp:113] Setting up inception_4e/5x5_reduce
I1218 22:39:31.227530 29703 net.cpp:120] Top shape: 50 32 14 14 (313600)
I1218 22:39:31.227550 29703 layer_factory.hpp:74] Creating layer inception_4e/relu_5x5_reduce
I1218 22:39:31.227560 29703 net.cpp:84] Creating Layer inception_4e/relu_5x5_reduce
I1218 22:39:31.227567 29703 net.cpp:380] inception_4e/relu_5x5_reduce <- inception_4e/5x5_reduce
I1218 22:39:31.227579 29703 net.cpp:327] inception_4e/relu_5x5_reduce -> inception_4e/5x5_reduce (in-place)
I1218 22:39:31.227589 29703 net.cpp:113] Setting up inception_4e/relu_5x5_reduce
I1218 22:39:31.227681 29703 net.cpp:120] Top shape: 50 32 14 14 (313600)
I1218 22:39:31.227690 29703 layer_factory.hpp:74] Creating layer inception_4e/5x5
I1218 22:39:31.227704 29703 net.cpp:84] Creating Layer inception_4e/5x5
I1218 22:39:31.227711 29703 net.cpp:380] inception_4e/5x5 <- inception_4e/5x5_reduce
I1218 22:39:31.227723 29703 net.cpp:338] inception_4e/5x5 -> inception_4e/5x5
I1218 22:39:31.227735 29703 net.cpp:113] Setting up inception_4e/5x5
I1218 22:39:31.229444 29703 net.cpp:120] Top shape: 50 128 14 14 (1254400)
I1218 22:39:31.229465 29703 layer_factory.hpp:74] Creating layer inception_4e/relu_5x5
I1218 22:39:31.229475 29703 net.cpp:84] Creating Layer inception_4e/relu_5x5
I1218 22:39:31.229485 29703 net.cpp:380] inception_4e/relu_5x5 <- inception_4e/5x5
I1218 22:39:31.229493 29703 net.cpp:327] inception_4e/relu_5x5 -> inception_4e/5x5 (in-place)
I1218 22:39:31.229503 29703 net.cpp:113] Setting up inception_4e/relu_5x5
I1218 22:39:31.229593 29703 net.cpp:120] Top shape: 50 128 14 14 (1254400)
I1218 22:39:31.229603 29703 layer_factory.hpp:74] Creating layer inception_4e/pool
I1218 22:39:31.229610 29703 layer_factory.cpp:56] CUDNN does not support padding or multiple tops. Using Caffe's own pooling layer.
I1218 22:39:31.229622 29703 net.cpp:84] Creating Layer inception_4e/pool
I1218 22:39:31.229629 29703 net.cpp:380] inception_4e/pool <- inception_4d/output_inception_4d/output_0_split_4
I1218 22:39:31.229640 29703 net.cpp:338] inception_4e/pool -> inception_4e/pool
I1218 22:39:31.229650 29703 net.cpp:113] Setting up inception_4e/pool
I1218 22:39:31.229663 29703 net.cpp:120] Top shape: 50 528 14 14 (5174400)
I1218 22:39:31.229671 29703 layer_factory.hpp:74] Creating layer inception_4e/pool_proj
I1218 22:39:31.229683 29703 net.cpp:84] Creating Layer inception_4e/pool_proj
I1218 22:39:31.229691 29703 net.cpp:380] inception_4e/pool_proj <- inception_4e/pool
I1218 22:39:31.229701 29703 net.cpp:338] inception_4e/pool_proj -> inception_4e/pool_proj
I1218 22:39:31.229710 29703 net.cpp:113] Setting up inception_4e/pool_proj
I1218 22:39:31.230973 29703 net.cpp:120] Top shape: 50 128 14 14 (1254400)
I1218 22:39:31.230999 29703 layer_factory.hpp:74] Creating layer inception_4e/relu_pool_proj
I1218 22:39:31.231020 29703 net.cpp:84] Creating Layer inception_4e/relu_pool_proj
I1218 22:39:31.231029 29703 net.cpp:380] inception_4e/relu_pool_proj <- inception_4e/pool_proj
I1218 22:39:31.231039 29703 net.cpp:327] inception_4e/relu_pool_proj -> inception_4e/pool_proj (in-place)
I1218 22:39:31.231048 29703 net.cpp:113] Setting up inception_4e/relu_pool_proj
I1218 22:39:31.231134 29703 net.cpp:120] Top shape: 50 128 14 14 (1254400)
I1218 22:39:31.231143 29703 layer_factory.hpp:74] Creating layer inception_4e/output
I1218 22:39:31.231154 29703 net.cpp:84] Creating Layer inception_4e/output
I1218 22:39:31.231161 29703 net.cpp:380] inception_4e/output <- inception_4e/1x1
I1218 22:39:31.231169 29703 net.cpp:380] inception_4e/output <- inception_4e/3x3
I1218 22:39:31.231176 29703 net.cpp:380] inception_4e/output <- inception_4e/5x5
I1218 22:39:31.231184 29703 net.cpp:380] inception_4e/output <- inception_4e/pool_proj
I1218 22:39:31.231192 29703 net.cpp:338] inception_4e/output -> inception_4e/output
I1218 22:39:31.231202 29703 net.cpp:113] Setting up inception_4e/output
I1218 22:39:31.231214 29703 net.cpp:120] Top shape: 50 832 14 14 (8153600)
I1218 22:39:31.231220 29703 layer_factory.hpp:74] Creating layer pool4/3x3_s2
I1218 22:39:31.231230 29703 net.cpp:84] Creating Layer pool4/3x3_s2
I1218 22:39:31.231237 29703 net.cpp:380] pool4/3x3_s2 <- inception_4e/output
I1218 22:39:31.231250 29703 net.cpp:338] pool4/3x3_s2 -> pool4/3x3_s2
I1218 22:39:31.231259 29703 net.cpp:113] Setting up pool4/3x3_s2
I1218 22:39:31.231554 29703 net.cpp:120] Top shape: 50 832 7 7 (2038400)
I1218 22:39:31.231569 29703 layer_factory.hpp:74] Creating layer pool4/3x3_s2_pool4/3x3_s2_0_split
I1218 22:39:31.231580 29703 net.cpp:84] Creating Layer pool4/3x3_s2_pool4/3x3_s2_0_split
I1218 22:39:31.231588 29703 net.cpp:380] pool4/3x3_s2_pool4/3x3_s2_0_split <- pool4/3x3_s2
I1218 22:39:31.231598 29703 net.cpp:338] pool4/3x3_s2_pool4/3x3_s2_0_split -> pool4/3x3_s2_pool4/3x3_s2_0_split_0
I1218 22:39:31.231609 29703 net.cpp:338] pool4/3x3_s2_pool4/3x3_s2_0_split -> pool4/3x3_s2_pool4/3x3_s2_0_split_1
I1218 22:39:31.231621 29703 net.cpp:338] pool4/3x3_s2_pool4/3x3_s2_0_split -> pool4/3x3_s2_pool4/3x3_s2_0_split_2
I1218 22:39:31.231655 29703 net.cpp:338] pool4/3x3_s2_pool4/3x3_s2_0_split -> pool4/3x3_s2_pool4/3x3_s2_0_split_3
I1218 22:39:31.231665 29703 net.cpp:113] Setting up pool4/3x3_s2_pool4/3x3_s2_0_split
I1218 22:39:31.231676 29703 net.cpp:120] Top shape: 50 832 7 7 (2038400)
I1218 22:39:31.231684 29703 net.cpp:120] Top shape: 50 832 7 7 (2038400)
I1218 22:39:31.231693 29703 net.cpp:120] Top shape: 50 832 7 7 (2038400)
I1218 22:39:31.231701 29703 net.cpp:120] Top shape: 50 832 7 7 (2038400)
I1218 22:39:31.231708 29703 layer_factory.hpp:74] Creating layer inception_5a/1x1
I1218 22:39:31.231719 29703 net.cpp:84] Creating Layer inception_5a/1x1
I1218 22:39:31.231726 29703 net.cpp:380] inception_5a/1x1 <- pool4/3x3_s2_pool4/3x3_s2_0_split_0
I1218 22:39:31.231739 29703 net.cpp:338] inception_5a/1x1 -> inception_5a/1x1
I1218 22:39:31.231750 29703 net.cpp:113] Setting up inception_5a/1x1
I1218 22:39:31.234755 29703 net.cpp:120] Top shape: 50 256 7 7 (627200)
I1218 22:39:31.234776 29703 layer_factory.hpp:74] Creating layer inception_5a/relu_1x1
I1218 22:39:31.234786 29703 net.cpp:84] Creating Layer inception_5a/relu_1x1
I1218 22:39:31.234794 29703 net.cpp:380] inception_5a/relu_1x1 <- inception_5a/1x1
I1218 22:39:31.234803 29703 net.cpp:327] inception_5a/relu_1x1 -> inception_5a/1x1 (in-place)
I1218 22:39:31.234814 29703 net.cpp:113] Setting up inception_5a/relu_1x1
I1218 22:39:31.234905 29703 net.cpp:120] Top shape: 50 256 7 7 (627200)
I1218 22:39:31.234913 29703 layer_factory.hpp:74] Creating layer inception_5a/3x3_reduce
I1218 22:39:31.234925 29703 net.cpp:84] Creating Layer inception_5a/3x3_reduce
I1218 22:39:31.234932 29703 net.cpp:380] inception_5a/3x3_reduce <- pool4/3x3_s2_pool4/3x3_s2_0_split_1
I1218 22:39:31.234944 29703 net.cpp:338] inception_5a/3x3_reduce -> inception_5a/3x3_reduce
I1218 22:39:31.234972 29703 net.cpp:113] Setting up inception_5a/3x3_reduce
I1218 22:39:31.237038 29703 net.cpp:120] Top shape: 50 160 7 7 (392000)
I1218 22:39:31.237063 29703 layer_factory.hpp:74] Creating layer inception_5a/relu_3x3_reduce
I1218 22:39:31.237076 29703 net.cpp:84] Creating Layer inception_5a/relu_3x3_reduce
I1218 22:39:31.237083 29703 net.cpp:380] inception_5a/relu_3x3_reduce <- inception_5a/3x3_reduce
I1218 22:39:31.237092 29703 net.cpp:327] inception_5a/relu_3x3_reduce -> inception_5a/3x3_reduce (in-place)
I1218 22:39:31.237103 29703 net.cpp:113] Setting up inception_5a/relu_3x3_reduce
I1218 22:39:31.237195 29703 net.cpp:120] Top shape: 50 160 7 7 (392000)
I1218 22:39:31.237205 29703 layer_factory.hpp:74] Creating layer inception_5a/3x3
I1218 22:39:31.237220 29703 net.cpp:84] Creating Layer inception_5a/3x3
I1218 22:39:31.237226 29703 net.cpp:380] inception_5a/3x3 <- inception_5a/3x3_reduce
I1218 22:39:31.237236 29703 net.cpp:338] inception_5a/3x3 -> inception_5a/3x3
I1218 22:39:31.237247 29703 net.cpp:113] Setting up inception_5a/3x3
I1218 22:39:31.244509 29703 net.cpp:120] Top shape: 50 320 7 7 (784000)
I1218 22:39:31.244534 29703 layer_factory.hpp:74] Creating layer inception_5a/relu_3x3
I1218 22:39:31.244549 29703 net.cpp:84] Creating Layer inception_5a/relu_3x3
I1218 22:39:31.244556 29703 net.cpp:380] inception_5a/relu_3x3 <- inception_5a/3x3
I1218 22:39:31.244567 29703 net.cpp:327] inception_5a/relu_3x3 -> inception_5a/3x3 (in-place)
I1218 22:39:31.244578 29703 net.cpp:113] Setting up inception_5a/relu_3x3
I1218 22:39:31.244669 29703 net.cpp:120] Top shape: 50 320 7 7 (784000)
I1218 22:39:31.244678 29703 layer_factory.hpp:74] Creating layer inception_5a/5x5_reduce
I1218 22:39:31.244693 29703 net.cpp:84] Creating Layer inception_5a/5x5_reduce
I1218 22:39:31.244700 29703 net.cpp:380] inception_5a/5x5_reduce <- pool4/3x3_s2_pool4/3x3_s2_0_split_2
I1218 22:39:31.244711 29703 net.cpp:338] inception_5a/5x5_reduce -> inception_5a/5x5_reduce
I1218 22:39:31.244722 29703 net.cpp:113] Setting up inception_5a/5x5_reduce
I1218 22:39:31.245584 29703 net.cpp:120] Top shape: 50 32 7 7 (78400)
I1218 22:39:31.245605 29703 layer_factory.hpp:74] Creating layer inception_5a/relu_5x5_reduce
I1218 22:39:31.245620 29703 net.cpp:84] Creating Layer inception_5a/relu_5x5_reduce
I1218 22:39:31.245628 29703 net.cpp:380] inception_5a/relu_5x5_reduce <- inception_5a/5x5_reduce
I1218 22:39:31.245637 29703 net.cpp:327] inception_5a/relu_5x5_reduce -> inception_5a/5x5_reduce (in-place)
I1218 22:39:31.245651 29703 net.cpp:113] Setting up inception_5a/relu_5x5_reduce
I1218 22:39:31.245944 29703 net.cpp:120] Top shape: 50 32 7 7 (78400)
I1218 22:39:31.245959 29703 layer_factory.hpp:74] Creating layer inception_5a/5x5
I1218 22:39:31.245970 29703 net.cpp:84] Creating Layer inception_5a/5x5
I1218 22:39:31.245978 29703 net.cpp:380] inception_5a/5x5 <- inception_5a/5x5_reduce
I1218 22:39:31.245990 29703 net.cpp:338] inception_5a/5x5 -> inception_5a/5x5
I1218 22:39:31.246002 29703 net.cpp:113] Setting up inception_5a/5x5
I1218 22:39:31.247702 29703 net.cpp:120] Top shape: 50 128 7 7 (313600)
I1218 22:39:31.247720 29703 layer_factory.hpp:74] Creating layer inception_5a/relu_5x5
I1218 22:39:31.247732 29703 net.cpp:84] Creating Layer inception_5a/relu_5x5
I1218 22:39:31.247740 29703 net.cpp:380] inception_5a/relu_5x5 <- inception_5a/5x5
I1218 22:39:31.247750 29703 net.cpp:327] inception_5a/relu_5x5 -> inception_5a/5x5 (in-place)
I1218 22:39:31.247759 29703 net.cpp:113] Setting up inception_5a/relu_5x5
I1218 22:39:31.247850 29703 net.cpp:120] Top shape: 50 128 7 7 (313600)
I1218 22:39:31.247859 29703 layer_factory.hpp:74] Creating layer inception_5a/pool
I1218 22:39:31.247867 29703 layer_factory.cpp:56] CUDNN does not support padding or multiple tops. Using Caffe's own pooling layer.
I1218 22:39:31.247879 29703 net.cpp:84] Creating Layer inception_5a/pool
I1218 22:39:31.247885 29703 net.cpp:380] inception_5a/pool <- pool4/3x3_s2_pool4/3x3_s2_0_split_3
I1218 22:39:31.247897 29703 net.cpp:338] inception_5a/pool -> inception_5a/pool
I1218 22:39:31.247915 29703 net.cpp:113] Setting up inception_5a/pool
I1218 22:39:31.247937 29703 net.cpp:120] Top shape: 50 832 7 7 (2038400)
I1218 22:39:31.247946 29703 layer_factory.hpp:74] Creating layer inception_5a/pool_proj
I1218 22:39:31.247956 29703 net.cpp:84] Creating Layer inception_5a/pool_proj
I1218 22:39:31.247963 29703 net.cpp:380] inception_5a/pool_proj <- inception_5a/pool
I1218 22:39:31.247975 29703 net.cpp:338] inception_5a/pool_proj -> inception_5a/pool_proj
I1218 22:39:31.247987 29703 net.cpp:113] Setting up inception_5a/pool_proj
I1218 22:39:31.250236 29703 net.cpp:120] Top shape: 50 128 7 7 (313600)
I1218 22:39:31.250257 29703 layer_factory.hpp:74] Creating layer inception_5a/relu_pool_proj
I1218 22:39:31.250268 29703 net.cpp:84] Creating Layer inception_5a/relu_pool_proj
I1218 22:39:31.250277 29703 net.cpp:380] inception_5a/relu_pool_proj <- inception_5a/pool_proj
I1218 22:39:31.250285 29703 net.cpp:327] inception_5a/relu_pool_proj -> inception_5a/pool_proj (in-place)
I1218 22:39:31.250296 29703 net.cpp:113] Setting up inception_5a/relu_pool_proj
I1218 22:39:31.250385 29703 net.cpp:120] Top shape: 50 128 7 7 (313600)
I1218 22:39:31.250394 29703 layer_factory.hpp:74] Creating layer inception_5a/output
I1218 22:39:31.250404 29703 net.cpp:84] Creating Layer inception_5a/output
I1218 22:39:31.250411 29703 net.cpp:380] inception_5a/output <- inception_5a/1x1
I1218 22:39:31.250421 29703 net.cpp:380] inception_5a/output <- inception_5a/3x3
I1218 22:39:31.250428 29703 net.cpp:380] inception_5a/output <- inception_5a/5x5
I1218 22:39:31.250435 29703 net.cpp:380] inception_5a/output <- inception_5a/pool_proj
I1218 22:39:31.250443 29703 net.cpp:338] inception_5a/output -> inception_5a/output
I1218 22:39:31.250453 29703 net.cpp:113] Setting up inception_5a/output
I1218 22:39:31.250465 29703 net.cpp:120] Top shape: 50 832 7 7 (2038400)
I1218 22:39:31.250473 29703 layer_factory.hpp:74] Creating layer inception_5a/output_inception_5a/output_0_split
I1218 22:39:31.250481 29703 net.cpp:84] Creating Layer inception_5a/output_inception_5a/output_0_split
I1218 22:39:31.250488 29703 net.cpp:380] inception_5a/output_inception_5a/output_0_split <- inception_5a/output
I1218 22:39:31.250499 29703 net.cpp:338] inception_5a/output_inception_5a/output_0_split -> inception_5a/output_inception_5a/output_0_split_0
I1218 22:39:31.250510 29703 net.cpp:338] inception_5a/output_inception_5a/output_0_split -> inception_5a/output_inception_5a/output_0_split_1
I1218 22:39:31.250520 29703 net.cpp:338] inception_5a/output_inception_5a/output_0_split -> inception_5a/output_inception_5a/output_0_split_2
I1218 22:39:31.250531 29703 net.cpp:338] inception_5a/output_inception_5a/output_0_split -> inception_5a/output_inception_5a/output_0_split_3
I1218 22:39:31.250540 29703 net.cpp:113] Setting up inception_5a/output_inception_5a/output_0_split
I1218 22:39:31.250551 29703 net.cpp:120] Top shape: 50 832 7 7 (2038400)
I1218 22:39:31.250560 29703 net.cpp:120] Top shape: 50 832 7 7 (2038400)
I1218 22:39:31.250566 29703 net.cpp:120] Top shape: 50 832 7 7 (2038400)
I1218 22:39:31.250574 29703 net.cpp:120] Top shape: 50 832 7 7 (2038400)
I1218 22:39:31.250581 29703 layer_factory.hpp:74] Creating layer inception_5b/1x1
I1218 22:39:31.250593 29703 net.cpp:84] Creating Layer inception_5b/1x1
I1218 22:39:31.250601 29703 net.cpp:380] inception_5b/1x1 <- inception_5a/output_inception_5a/output_0_split_0
I1218 22:39:31.250612 29703 net.cpp:338] inception_5b/1x1 -> inception_5b/1x1
I1218 22:39:31.250622 29703 net.cpp:113] Setting up inception_5b/1x1
I1218 22:39:31.254865 29703 net.cpp:120] Top shape: 50 384 7 7 (940800)
I1218 22:39:31.254885 29703 layer_factory.hpp:74] Creating layer inception_5b/relu_1x1
I1218 22:39:31.254895 29703 net.cpp:84] Creating Layer inception_5b/relu_1x1
I1218 22:39:31.254902 29703 net.cpp:380] inception_5b/relu_1x1 <- inception_5b/1x1
I1218 22:39:31.254912 29703 net.cpp:327] inception_5b/relu_1x1 -> inception_5b/1x1 (in-place)
I1218 22:39:31.254922 29703 net.cpp:113] Setting up inception_5b/relu_1x1
I1218 22:39:31.255020 29703 net.cpp:120] Top shape: 50 384 7 7 (940800)
I1218 22:39:31.255040 29703 layer_factory.hpp:74] Creating layer inception_5b/3x3_reduce
I1218 22:39:31.255054 29703 net.cpp:84] Creating Layer inception_5b/3x3_reduce
I1218 22:39:31.255062 29703 net.cpp:380] inception_5b/3x3_reduce <- inception_5a/output_inception_5a/output_0_split_1
I1218 22:39:31.255074 29703 net.cpp:338] inception_5b/3x3_reduce -> inception_5b/3x3_reduce
I1218 22:39:31.255084 29703 net.cpp:113] Setting up inception_5b/3x3_reduce
I1218 22:39:31.257462 29703 net.cpp:120] Top shape: 50 192 7 7 (470400)
I1218 22:39:31.257482 29703 layer_factory.hpp:74] Creating layer inception_5b/relu_3x3_reduce
I1218 22:39:31.257491 29703 net.cpp:84] Creating Layer inception_5b/relu_3x3_reduce
I1218 22:39:31.257499 29703 net.cpp:380] inception_5b/relu_3x3_reduce <- inception_5b/3x3_reduce
I1218 22:39:31.257509 29703 net.cpp:327] inception_5b/relu_3x3_reduce -> inception_5b/3x3_reduce (in-place)
I1218 22:39:31.257519 29703 net.cpp:113] Setting up inception_5b/relu_3x3_reduce
I1218 22:39:31.257809 29703 net.cpp:120] Top shape: 50 192 7 7 (470400)
I1218 22:39:31.257822 29703 layer_factory.hpp:74] Creating layer inception_5b/3x3
I1218 22:39:31.257834 29703 net.cpp:84] Creating Layer inception_5b/3x3
I1218 22:39:31.257844 29703 net.cpp:380] inception_5b/3x3 <- inception_5b/3x3_reduce
I1218 22:39:31.257856 29703 net.cpp:338] inception_5b/3x3 -> inception_5b/3x3
I1218 22:39:31.257869 29703 net.cpp:113] Setting up inception_5b/3x3
I1218 22:39:31.266134 29703 net.cpp:120] Top shape: 50 384 7 7 (940800)
I1218 22:39:31.266155 29703 layer_factory.hpp:74] Creating layer inception_5b/relu_3x3
I1218 22:39:31.266165 29703 net.cpp:84] Creating Layer inception_5b/relu_3x3
I1218 22:39:31.266172 29703 net.cpp:380] inception_5b/relu_3x3 <- inception_5b/3x3
I1218 22:39:31.266185 29703 net.cpp:327] inception_5b/relu_3x3 -> inception_5b/3x3 (in-place)
I1218 22:39:31.266194 29703 net.cpp:113] Setting up inception_5b/relu_3x3
I1218 22:39:31.266284 29703 net.cpp:120] Top shape: 50 384 7 7 (940800)
I1218 22:39:31.266293 29703 layer_factory.hpp:74] Creating layer inception_5b/5x5_reduce
I1218 22:39:31.266307 29703 net.cpp:84] Creating Layer inception_5b/5x5_reduce
I1218 22:39:31.266314 29703 net.cpp:380] inception_5b/5x5_reduce <- inception_5a/output_inception_5a/output_0_split_2
I1218 22:39:31.266325 29703 net.cpp:338] inception_5b/5x5_reduce -> inception_5b/5x5_reduce
I1218 22:39:31.266337 29703 net.cpp:113] Setting up inception_5b/5x5_reduce
I1218 22:39:31.267308 29703 net.cpp:120] Top shape: 50 48 7 7 (117600)
I1218 22:39:31.267331 29703 layer_factory.hpp:74] Creating layer inception_5b/relu_5x5_reduce
I1218 22:39:31.267341 29703 net.cpp:84] Creating Layer inception_5b/relu_5x5_reduce
I1218 22:39:31.267349 29703 net.cpp:380] inception_5b/relu_5x5_reduce <- inception_5b/5x5_reduce
I1218 22:39:31.267359 29703 net.cpp:327] inception_5b/relu_5x5_reduce -> inception_5b/5x5_reduce (in-place)
I1218 22:39:31.267369 29703 net.cpp:113] Setting up inception_5b/relu_5x5_reduce
I1218 22:39:31.267463 29703 net.cpp:120] Top shape: 50 48 7 7 (117600)
I1218 22:39:31.267472 29703 layer_factory.hpp:74] Creating layer inception_5b/5x5
I1218 22:39:31.267485 29703 net.cpp:84] Creating Layer inception_5b/5x5
I1218 22:39:31.267493 29703 net.cpp:380] inception_5b/5x5 <- inception_5b/5x5_reduce
I1218 22:39:31.267503 29703 net.cpp:338] inception_5b/5x5 -> inception_5b/5x5
I1218 22:39:31.267514 29703 net.cpp:113] Setting up inception_5b/5x5
I1218 22:39:31.269826 29703 net.cpp:120] Top shape: 50 128 7 7 (313600)
I1218 22:39:31.269846 29703 layer_factory.hpp:74] Creating layer inception_5b/relu_5x5
I1218 22:39:31.269856 29703 net.cpp:84] Creating Layer inception_5b/relu_5x5
I1218 22:39:31.269863 29703 net.cpp:380] inception_5b/relu_5x5 <- inception_5b/5x5
I1218 22:39:31.269876 29703 net.cpp:327] inception_5b/relu_5x5 -> inception_5b/5x5 (in-place)
I1218 22:39:31.269886 29703 net.cpp:113] Setting up inception_5b/relu_5x5
I1218 22:39:31.270190 29703 net.cpp:120] Top shape: 50 128 7 7 (313600)
I1218 22:39:31.270213 29703 layer_factory.hpp:74] Creating layer inception_5b/pool
I1218 22:39:31.270232 29703 layer_factory.cpp:56] CUDNN does not support padding or multiple tops. Using Caffe's own pooling layer.
I1218 22:39:31.270243 29703 net.cpp:84] Creating Layer inception_5b/pool
I1218 22:39:31.270252 29703 net.cpp:380] inception_5b/pool <- inception_5a/output_inception_5a/output_0_split_3
I1218 22:39:31.270264 29703 net.cpp:338] inception_5b/pool -> inception_5b/pool
I1218 22:39:31.270277 29703 net.cpp:113] Setting up inception_5b/pool
I1218 22:39:31.270290 29703 net.cpp:120] Top shape: 50 832 7 7 (2038400)
I1218 22:39:31.270298 29703 layer_factory.hpp:74] Creating layer inception_5b/pool_proj
I1218 22:39:31.270313 29703 net.cpp:84] Creating Layer inception_5b/pool_proj
I1218 22:39:31.270320 29703 net.cpp:380] inception_5b/pool_proj <- inception_5b/pool
I1218 22:39:31.270335 29703 net.cpp:338] inception_5b/pool_proj -> inception_5b/pool_proj
I1218 22:39:31.270349 29703 net.cpp:113] Setting up inception_5b/pool_proj
I1218 22:39:31.272181 29703 net.cpp:120] Top shape: 50 128 7 7 (313600)
I1218 22:39:31.272200 29703 layer_factory.hpp:74] Creating layer inception_5b/relu_pool_proj
I1218 22:39:31.272212 29703 net.cpp:84] Creating Layer inception_5b/relu_pool_proj
I1218 22:39:31.272219 29703 net.cpp:380] inception_5b/relu_pool_proj <- inception_5b/pool_proj
I1218 22:39:31.272231 29703 net.cpp:327] inception_5b/relu_pool_proj -> inception_5b/pool_proj (in-place)
I1218 22:39:31.272243 29703 net.cpp:113] Setting up inception_5b/relu_pool_proj
I1218 22:39:31.272339 29703 net.cpp:120] Top shape: 50 128 7 7 (313600)
I1218 22:39:31.272348 29703 layer_factory.hpp:74] Creating layer inception_5b/output
I1218 22:39:31.272358 29703 net.cpp:84] Creating Layer inception_5b/output
I1218 22:39:31.272367 29703 net.cpp:380] inception_5b/output <- inception_5b/1x1
I1218 22:39:31.272375 29703 net.cpp:380] inception_5b/output <- inception_5b/3x3
I1218 22:39:31.272383 29703 net.cpp:380] inception_5b/output <- inception_5b/5x5
I1218 22:39:31.272392 29703 net.cpp:380] inception_5b/output <- inception_5b/pool_proj
I1218 22:39:31.272403 29703 net.cpp:338] inception_5b/output -> inception_5b/output
I1218 22:39:31.272414 29703 net.cpp:113] Setting up inception_5b/output
I1218 22:39:31.272426 29703 net.cpp:120] Top shape: 50 1024 7 7 (2508800)
I1218 22:39:31.272433 29703 layer_factory.hpp:74] Creating layer pool5/7x7_s1
I1218 22:39:31.272444 29703 net.cpp:84] Creating Layer pool5/7x7_s1
I1218 22:39:31.272451 29703 net.cpp:380] pool5/7x7_s1 <- inception_5b/output
I1218 22:39:31.272464 29703 net.cpp:338] pool5/7x7_s1 -> pool5/7x7_s1
I1218 22:39:31.272475 29703 net.cpp:113] Setting up pool5/7x7_s1
I1218 22:39:31.272573 29703 net.cpp:120] Top shape: 50 1024 1 1 (51200)
I1218 22:39:31.272583 29703 layer_factory.hpp:74] Creating layer pool5/drop_7x7_s1
I1218 22:39:31.272595 29703 net.cpp:84] Creating Layer pool5/drop_7x7_s1
I1218 22:39:31.272603 29703 net.cpp:380] pool5/drop_7x7_s1 <- pool5/7x7_s1
I1218 22:39:31.272613 29703 net.cpp:327] pool5/drop_7x7_s1 -> pool5/7x7_s1 (in-place)
I1218 22:39:31.272622 29703 net.cpp:113] Setting up pool5/drop_7x7_s1
I1218 22:39:31.272634 29703 net.cpp:120] Top shape: 50 1024 1 1 (51200)
I1218 22:39:31.272640 29703 layer_factory.hpp:74] Creating layer loss3/classifier_kaggle
I1218 22:39:31.272653 29703 net.cpp:84] Creating Layer loss3/classifier_kaggle
I1218 22:39:31.272660 29703 net.cpp:380] loss3/classifier_kaggle <- pool5/7x7_s1
I1218 22:39:31.272670 29703 net.cpp:338] loss3/classifier_kaggle -> loss3/classifier_kaggle
I1218 22:39:31.272682 29703 net.cpp:113] Setting up loss3/classifier_kaggle
I1218 22:39:31.278270 29703 net.cpp:120] Top shape: 50 447 (22350)
I1218 22:39:31.278287 29703 layer_factory.hpp:74] Creating layer loss3/classifier_kaggle_loss3/classifier_kaggle_0_split
I1218 22:39:31.278298 29703 net.cpp:84] Creating Layer loss3/classifier_kaggle_loss3/classifier_kaggle_0_split
I1218 22:39:31.278306 29703 net.cpp:380] loss3/classifier_kaggle_loss3/classifier_kaggle_0_split <- loss3/classifier_kaggle
I1218 22:39:31.278323 29703 net.cpp:338] loss3/classifier_kaggle_loss3/classifier_kaggle_0_split -> loss3/classifier_kaggle_loss3/classifier_kaggle_0_split_0
I1218 22:39:31.278345 29703 net.cpp:338] loss3/classifier_kaggle_loss3/classifier_kaggle_0_split -> loss3/classifier_kaggle_loss3/classifier_kaggle_0_split_1
I1218 22:39:31.278358 29703 net.cpp:338] loss3/classifier_kaggle_loss3/classifier_kaggle_0_split -> loss3/classifier_kaggle_loss3/classifier_kaggle_0_split_2
I1218 22:39:31.278369 29703 net.cpp:113] Setting up loss3/classifier_kaggle_loss3/classifier_kaggle_0_split
I1218 22:39:31.278381 29703 net.cpp:120] Top shape: 50 447 (22350)
I1218 22:39:31.278389 29703 net.cpp:120] Top shape: 50 447 (22350)
I1218 22:39:31.278398 29703 net.cpp:120] Top shape: 50 447 (22350)
I1218 22:39:31.278405 29703 layer_factory.hpp:74] Creating layer loss3/loss3
I1218 22:39:31.278415 29703 net.cpp:84] Creating Layer loss3/loss3
I1218 22:39:31.278422 29703 net.cpp:380] loss3/loss3 <- loss3/classifier_kaggle_loss3/classifier_kaggle_0_split_0
I1218 22:39:31.278431 29703 net.cpp:380] loss3/loss3 <- label_data_1_split_6
I1218 22:39:31.278445 29703 net.cpp:338] loss3/loss3 -> loss3/loss3
…
