…
I1220 19:06:45.814107 31668 net.cpp:257] The NetState phase (0) differed from the phase (1) specified by a rule in layer loss3/top-5
I1220 19:06:45.816354 31668 net.cpp:42] Initializing net from parameters: 
name: "MYNET"
state {
  phase: TRAIN
}
layer {
  name: "data"
  type: "ImageData"
  top: "data"
  top: "label"
  include {
    phase: TRAIN
  }
  transform_param {
    mirror: false
    crop_size: 224
    mean_value: 129
    mean_value: 129
    mean_value: 129
  }
  image_data_param {
    source: "/home/coldmanck/kaggle/label_train_full.txt"
    batch_size: 80
    shuffle: true
  }
}
layer {
  name: "conv1/7x7_s2"
  type: "Convolution"
  bottom: "data"
  top: "conv1/7x7_s2"
  param {
    lr_mult: 1
    decay_mult: 1
  }
  param {
    lr_mult: 2
    decay_mult: 0
  }
  convolution_param {
    num_output: 64
    pad: 3
    kernel_size: 7
    stride: 2
    weight_filler {
      type: "xavier"
    }
    bias_filler {
      type: "constant"
      value: 0.2
    }
  }
}
layer {
  name: "conv1/relu_7x7"
  type: "ReLU"
  bottom: "conv1/7x7_s2"
  top: "conv1/7x7_s2"
}
layer {
  name: "pool1/3x3_s2"
  type: "Pooling"
  bottom: "conv1/7x7_s2"
  top: "pool1/3x3_s2"
  pooling_param {
    pool: MAX
    kernel_size: 3
    stride: 2
  }
}
layer {
  name: "pool1/norm1"
  type: "LRN"
  bottom: "pool1/3x3_s2"
  top: "pool1/norm1"
  lrn_param {
    local_size: 5
    alpha: 0.0001
    beta: 0.75
  }
}
layer {
  name: "conv2/3x3_reduce"
  type: "Convolution"
  bottom: "pool1/norm1"
  top: "conv2/3x3_reduce"
  param {
    lr_mult: 1
    decay_mult: 1
  }
  param {
    lr_mult: 2
    decay_mult: 0
  }
  convolution_param {
    num_output: 64
    kernel_size: 1
    weight_filler {
      type: "xavier"
    }
    bias_filler {
      type: "constant"
      value: 0.2
    }
  }
}
layer {
  name: "conv2/relu_3x3_reduce"
  type: "ReLU"
  bottom: "conv2/3x3_reduce"
  top: "conv2/3x3_reduce"
}
layer {
  name: "conv2/3x3"
  type: "Convolution"
  bottom: "conv2/3x3_reduce"
  top: "conv2/3x3"
  param {
    lr_mult: 1
    decay_mult: 1
  }
  param {
    lr_mult: 2
    decay_mult: 0
  }
  convolution_param {
    num_output: 192
    pad: 1
    kernel_size: 3
    weight_filler {
      type: "xavier"
    }
    bias_filler {
      type: "constant"
      value: 0.2
    }
  }
}
layer {
  name: "conv2/relu_3x3"
  type: "ReLU"
  bottom: "conv2/3x3"
  top: "conv2/3x3"
}
layer {
  name: "conv2/norm2"
  type: "LRN"
  bottom: "conv2/3x3"
  top: "conv2/norm2"
  lrn_param {
    local_size: 5
    alpha: 0.0001
    beta: 0.75
  }
}
layer {
  name: "pool2/3x3_s2"
  type: "Pooling"
  bottom: "conv2/norm2"
  top: "pool2/3x3_s2"
  pooling_param {
    pool: MAX
    kernel_size: 3
    stride: 2
  }
}
layer {
  name: "inception_3a/1x1"
  type: "Convolution"
  bottom: "pool2/3x3_s2"
  top: "inception_3a/1x1"
  param {
    lr_mult: 1
    decay_mult: 1
  }
  param {
    lr_mult: 2
    decay_mult: 0
  }
  convolution_param {
    num_output: 64
    kernel_size: 1
    weight_filler {
      type: "xavier"
    }
    bias_filler {
      type: "constant"
      value: 0.2
    }
  }
}
layer {
  name: "inception_3a/relu_1x1"
  type: "ReLU"
  bottom: "inception_3a/1x1"
  top: "inception_3a/1x1"
}
layer {
  name: "inception_3a/3x3_reduce"
  type: "Convolution"
  bottom: "pool2/3x3_s2"
  top: "inception_3a/3x3_reduce"
  param {
    lr_mult: 1
    decay_mult: 1
  }
  param {
    lr_mult: 2
    decay_mult: 0
  }
  convolution_param {
    num_output: 96
    kernel_size: 1
    weight_filler {
      type: "xavier"
    }
    bias_filler {
      type: "constant"
      value: 0.2
    }
  }
}
layer {
  name: "inception_3a/relu_3x3_reduce"
  type: "ReLU"
  bottom: "inception_3a/3x3_reduce"
  top: "inception_3a/3x3_reduce"
}
layer {
  name: "inception_3a/3x3"
  type: "Convolution"
  bottom: "inception_3a/3x3_reduce"
  top: "inception_3a/3x3"
  param {
    lr_mult: 1
    decay_mult: 1
  }
  param {
    lr_mult: 2
    decay_mult: 0
  }
  convolution_param {
    num_output: 128
    pad: 1
    kernel_size: 3
    weight_filler {
      type: "xavier"
    }
    bias_filler {
      type: "constant"
      value: 0.2
    }
  }
}
layer {
  name: "inception_3a/relu_3x3"
  type: "ReLU"
  bottom: "inception_3a/3x3"
  top: "inception_3a/3x3"
}
layer {
  name: "inception_3a/5x5_reduce"
  type: "Convolution"
  bottom: "pool2/3x3_s2"
  top: "inception_3a/5x5_reduce"
  param {
    lr_mult: 1
    decay_mult: 1
  }
  param {
    lr_mult: 2
    decay_mult: 0
  }
  convolution_param {
    num_output: 16
    kernel_size: 1
    weight_filler {
      type: "xavier"
    }
    bias_filler {
      type: "constant"
      value: 0.2
    }
  }
}
layer {
  name: "inception_3a/relu_5x5_reduce"
  type: "ReLU"
  bottom: "inception_3a/5x5_reduce"
  top: "inception_3a/5x5_reduce"
}
layer {
  name: "inception_3a/5x5"
  type: "Convolution"
  bottom: "inception_3a/5x5_reduce"
  top: "inception_3a/5x5"
  param {
    lr_mult: 1
    decay_mult: 1
  }
  param {
    lr_mult: 2
    decay_mult: 0
  }
  convolution_param {
    num_output: 32
    pad: 2
    kernel_size: 5
    weight_filler {
      type: "xavier"
    }
    bias_filler {
      type: "constant"
      value: 0.2
    }
  }
}
layer {
  name: "inception_3a/relu_5x5"
  type: "ReLU"
  bottom: "inception_3a/5x5"
  top: "inception_3a/5x5"
}
layer {
  name: "inception_3a/pool"
  type: "Pooling"
  bottom: "pool2/3x3_s2"
  top: "inception_3a/pool"
  pooling_param {
    pool: MAX
    kernel_size: 3
    stride: 1
    pad: 1
  }
}
layer {
  name: "inception_3a/pool_proj"
  type: "Convolution"
  bottom: "inception_3a/pool"
  top: "inception_3a/pool_proj"
  param {
    lr_mult: 1
    decay_mult: 1
  }
  param {
    lr_mult: 2
    decay_mult: 0
  }
  convolution_param {
    num_output: 32
    kernel_size: 1
    weight_filler {
      type: "xavier"
    }
    bias_filler {
      type: "constant"
      value: 0.2
    }
  }
}
layer {
  name: "inception_3a/relu_pool_proj"
  type: "ReLU"
  bottom: "inception_3a/pool_proj"
  top: "inception_3a/pool_proj"
}
layer {
  name: "inception_3a/output"
  type: "Concat"
  bottom: "inception_3a/1x1"
  bottom: "inception_3a/3x3"
  bottom: "inception_3a/5x5"
  bottom: "inception_3a/pool_proj"
  top: "inception_3a/output"
}
layer {
  name: "inception_3b/1x1"
  type: "Convolution"
  bottom: "inception_3a/output"
  top: "inception_3b/1x1"
  param {
    lr_mult: 1
    decay_mult: 1
  }
  param {
    lr_mult: 2
    decay_mult: 0
  }
  convolution_param {
    num_output: 128
    kernel_size: 1
    weight_filler {
      type: "xavier"
    }
    bias_filler {
      type: "constant"
      value: 0.2
    }
  }
}
layer {
  name: "inception_3b/relu_1x1"
  type: "ReLU"
  bottom: "inception_3b/1x1"
  top: "inception_3b/1x1"
}
layer {
  name: "inception_3b/3x3_reduce"
  type: "Convolution"
  bottom: "inception_3a/output"
  top: "inception_3b/3x3_reduce"
  param {
    lr_mult: 1
    decay_mult: 1
  }
  param {
    lr_mult: 2
    decay_mult: 0
  }
  convolution_param {
    num_output: 128
    kernel_size: 1
    weight_filler {
      type: "xavier"
    }
    bias_filler {
      type: "constant"
      value: 0.2
    }
  }
}
layer {
  name: "inception_3b/relu_3x3_reduce"
  type: "ReLU"
  bottom: "inception_3b/3x3_reduce"
  top: "inception_3b/3x3_reduce"
}
layer {
  name: "inception_3b/3x3"
  type: "Convolution"
  bottom: "inception_3b/3x3_reduce"
  top: "inception_3b/3x3"
  param {
    lr_mult: 1
    decay_mult: 1
  }
  param {
    lr_mult: 2
    decay_mult: 0
  }
  convolution_param {
    num_output: 192
    pad: 1
    kernel_size: 3
    weight_filler {
      type: "xavier"
    }
    bias_filler {
      type: "constant"
      value: 0.2
    }
  }
}
layer {
  name: "inception_3b/relu_3x3"
  type: "ReLU"
  bottom: "inception_3b/3x3"
  top: "inception_3b/3x3"
}
layer {
  name: "inception_3b/5x5_reduce"
  type: "Convolution"
  bottom: "inception_3a/output"
  top: "inception_3b/5x5_reduce"
  param {
    lr_mult: 1
    decay_mult: 1
  }
  param {
    lr_mult: 2
    decay_mult: 0
  }
  convolution_param {
    num_output: 32
    kernel_size: 1
    weight_filler {
      type: "xavier"
    }
    bias_filler {
      type: "constant"
      value: 0.2
    }
  }
}
layer {
  name: "inception_3b/relu_5x5_reduce"
  type: "ReLU"
  bottom: "inception_3b/5x5_reduce"
  top: "inception_3b/5x5_reduce"
}
layer {
  name: "inception_3b/5x5"
  type: "Convolution"
  bottom: "inception_3b/5x5_reduce"
  top: "inception_3b/5x5"
  param {
    lr_mult: 1
    decay_mult: 1
  }
  param {
    lr_mult: 2
    decay_mult: 0
  }
  convolution_param {
    num_output: 96
    pad: 2
    kernel_size: 5
    weight_filler {
      type: "xavier"
    }
    bias_filler {
      type: "constant"
      value: 0.2
    }
  }
}
layer {
  name: "inception_3b/relu_5x5"
  type: "ReLU"
  bottom: "inception_3b/5x5"
  top: "inception_3b/5x5"
}
layer {
  name: "inception_3b/pool"
  type: "Pooling"
  bottom: "inception_3a/output"
  top: "inception_3b/pool"
  pooling_param {
    pool: MAX
    kernel_size: 3
    stride: 1
    pad: 1
  }
}
layer {
  name: "inception_3b/pool_proj"
  type: "Convolution"
  bottom: "inception_3b/pool"
  top: "inception_3b/pool_proj"
  param {
    lr_mult: 1
    decay_mult: 1
  }
  param {
    lr_mult: 2
    decay_mult: 0
  }
  convolution_param {
    num_output: 64
    kernel_size: 1
    weight_filler {
      type: "xavier"
    }
    bias_filler {
      type: "constant"
      value: 0.2
    }
  }
}
layer {
  name: "inception_3b/relu_pool_proj"
  type: "ReLU"
  bottom: "inception_3b/pool_proj"
  top: "inception_3b/pool_proj"
}
layer {
  name: "inception_3b/output"
  type: "Concat"
  bottom: "inception_3b/1x1"
  bottom: "inception_3b/3x3"
  bottom: "inception_3b/5x5"
  bottom: "inception_3b/pool_proj"
  top: "inception_3b/output"
}
layer {
  name: "pool3/3x3_s2"
  type: "Pooling"
  bottom: "inception_3b/output"
  top: "pool3/3x3_s2"
  pooling_param {
    pool: MAX
    kernel_size: 3
    stride: 2
  }
}
layer {
  name: "inception_4a/1x1"
  type: "Convolution"
  bottom: "pool3/3x3_s2"
  top: "inception_4a/1x1"
  param {
    lr_mult: 1
    decay_mult: 1
  }
  param {
    lr_mult: 2
    decay_mult: 0
  }
  convolution_param {
    num_output: 192
    kernel_size: 1
    weight_filler {
      type: "xavier"
    }
    bias_filler {
      type: "constant"
      value: 0.2
    }
  }
}
layer {
  name: "inception_4a/relu_1x1"
  type: "ReLU"
  bottom: "inception_4a/1x1"
  top: "inception_4a/1x1"
}
layer {
  name: "inception_4a/3x3_reduce"
  type: "Convolution"
  bottom: "pool3/3x3_s2"
  top: "inception_4a/3x3_reduce"
  param {
    lr_mult: 1
    decay_mult: 1
  }
  param {
    lr_mult: 2
    decay_mult: 0
  }
  convolution_param {
    num_output: 96
    kernel_size: 1
    weight_filler {
      type: "xavier"
    }
    bias_filler {
      type: "constant"
      value: 0.2
    }
  }
}
layer {
  name: "inception_4a/relu_3x3_reduce"
  type: "ReLU"
  bottom: "inception_4a/3x3_reduce"
  top: "inception_4a/3x3_reduce"
}
layer {
  name: "inception_4a/3x3"
  type: "Convolution"
  bottom: "inception_4a/3x3_reduce"
  top: "inception_4a/3x3"
  param {
    lr_mult: 1
    decay_mult: 1
  }
  param {
    lr_mult: 2
    decay_mult: 0
  }
  convolution_param {
    num_output: 208
    pad: 1
    kernel_size: 3
    weight_filler {
      type: "xavier"
    }
    bias_filler {
      type: "constant"
      value: 0.2
    }
  }
}
layer {
  name: "inception_4a/relu_3x3"
  type: "ReLU"
  bottom: "inception_4a/3x3"
  top: "inception_4a/3x3"
}
layer {
  name: "inception_4a/5x5_reduce"
  type: "Convolution"
  bottom: "pool3/3x3_s2"
  top: "inception_4a/5x5_reduce"
  param {
    lr_mult: 1
    decay_mult: 1
  }
  param {
    lr_mult: 2
    decay_mult: 0
  }
  convolution_param {
    num_output: 16
    kernel_size: 1
    weight_filler {
      type: "xavier"
    }
    bias_filler {
      type: "constant"
      value: 0.2
    }
  }
}
layer {
  name: "inception_4a/relu_5x5_reduce"
  type: "ReLU"
  bottom: "inception_4a/5x5_reduce"
  top: "inception_4a/5x5_reduce"
}
layer {
  name: "inception_4a/5x5"
  type: "Convolution"
  bottom: "inception_4a/5x5_reduce"
  top: "inception_4a/5x5"
  param {
    lr_mult: 1
    decay_mult: 1
  }
  param {
    lr_mult: 2
    decay_mult: 0
  }
  convolution_param {
    num_output: 48
    pad: 2
    kernel_size: 5
    weight_filler {
      type: "xavier"
    }
    bias_filler {
      type: "constant"
      value: 0.2
    }
  }
}
layer {
  name: "inception_4a/relu_5x5"
  type: "ReLU"
  bottom: "inception_4a/5x5"
  top: "inception_4a/5x5"
}
layer {
  name: "inception_4a/pool"
  type: "Pooling"
  bottom: "pool3/3x3_s2"
  top: "inception_4a/pool"
  pooling_param {
    pool: MAX
    kernel_size: 3
    stride: 1
    pad: 1
  }
}
layer {
  name: "inception_4a/pool_proj"
  type: "Convolution"
  bottom: "inception_4a/pool"
  top: "inception_4a/pool_proj"
  param {
    lr_mult: 1
    decay_mult: 1
  }
  param {
    lr_mult: 2
    decay_mult: 0
  }
  convolution_param {
    num_output: 64
    kernel_size: 1
    weight_filler {
      type: "xavier"
    }
    bias_filler {
      type: "constant"
      value: 0.2
    }
  }
}
layer {
  name: "inception_4a/relu_pool_proj"
  type: "ReLU"
  bottom: "inception_4a/pool_proj"
  top: "inception_4a/pool_proj"
}
layer {
  name: "inception_4a/output"
  type: "Concat"
  bottom: "inception_4a/1x1"
  bottom: "inception_4a/3x3"
  bottom: "inception_4a/5x5"
  bottom: "inception_4a/pool_proj"
  top: "inception_4a/output"
}
layer {
  name: "loss1/ave_pool"
  type: "Pooling"
  bottom: "inception_4a/output"
  top: "loss1/ave_pool"
  pooling_param {
    pool: AVE
    kernel_size: 5
    stride: 3
  }
}
layer {
  name: "loss1/conv"
  type: "Convolution"
  bottom: "loss1/ave_pool"
  top: "loss1/conv"
  param {
    lr_mult: 1
    decay_mult: 1
  }
  param {
    lr_mult: 2
    decay_mult: 0
  }
  convolution_param {
    num_output: 128
    kernel_size: 1
    weight_filler {
      type: "xavier"
    }
    bias_filler {
      type: "constant"
      value: 0.2
    }
  }
}
layer {
  name: "loss1/relu_conv"
  type: "ReLU"
  bottom: "loss1/conv"
  top: "loss1/conv"
}
layer {
  name: "loss1/fc"
  type: "InnerProduct"
  bottom: "loss1/conv"
  top: "loss1/fc"
  param {
    lr_mult: 1
    decay_mult: 1
  }
  param {
    lr_mult: 2
    decay_mult: 0
  }
  inner_product_param {
    num_output: 1024
    weight_filler {
      type: "xavier"
    }
    bias_filler {
      type: "constant"
      value: 0.2
    }
  }
}
layer {
  name: "loss1/relu_fc"
  type: "ReLU"
  bottom: "loss1/fc"
  top: "loss1/fc"
}
layer {
  name: "loss1/drop_fc"
  type: "Dropout"
  bottom: "loss1/fc"
  top: "loss1/fc"
  dropout_param {
    dropout_ratio: 0.7
  }
}
layer {
  name: "loss1/classifier_kaggle"
  type: "InnerProduct"
  bottom: "loss1/fc"
  top: "loss1/classifier_kaggle"
  param {
    lr_mult: 1
    decay_mult: 1
  }
  param {
    lr_mult: 2
    decay_mult: 0
  }
  inner_product_param {
    num_output: 447
    weight_filler {
      type: "xavier"
    }
    bias_filler {
      type: "constant"
      value: 0
    }
  }
}
layer {
  name: "loss1/loss"
  type: "SoftmaxWithLoss"
  bottom: "loss1/classifier_kaggle"
  bottom: "label"
  top: "loss1/loss1"
  loss_weight: 0.3
}
layer {
  name: "inception_4b/1x1"
  type: "Convolution"
  bottom: "inception_4a/output"
  top: "inception_4b/1x1"
  param {
    lr_mult: 1
    decay_mult: 1
  }
  param {
    lr_mult: 2
    decay_mult: 0
  }
  convolution_param {
    num_output: 160
    kernel_size: 1
    weight_filler {
      type: "xavier"
    }
    bias_filler {
      type: "constant"
      value: 0.2
    }
  }
}
layer {
  name: "inception_4b/relu_1x1"
  type: "ReLU"
  bottom: "inception_4b/1x1"
  top: "inception_4b/1x1"
}
layer {
  name: "inception_4b/3x3_reduce"
  type: "Convolution"
  bottom: "inception_4a/output"
  top: "inception_4b/3x3_reduce"
  param {
    lr_mult: 1
    decay_mult: 1
  }
  param {
    lr_mult: 2
    decay_mult: 0
  }
  convolution_param {
    num_output: 112
    kernel_size: 1
    weight_filler {
      type: "xavier"
    }
    bias_filler {
      type: "constant"
      value: 0.2
    }
  }
}
layer {
  name: "inception_4b/relu_3x3_reduce"
  type: "ReLU"
  bottom: "inception_4b/3x3_reduce"
  top: "inception_4b/3x3_reduce"
}
layer {
  name: "inception_4b/3x3"
  type: "Convolution"
  bottom: "inception_4b/3x3_reduce"
  top: "inception_4b/3x3"
  param {
    lr_mult: 1
    decay_mult: 1
  }
  param {
    lr_mult: 2
    decay_mult: 0
  }
  convolution_param {
    num_output: 224
    pad: 1
    kernel_size: 3
    weight_filler {
      type: "xavier"
    }
    bias_filler {
      type: "constant"
      value: 0.2
    }
  }
}
layer {
  name: "inception_4b/relu_3x3"
  type: "ReLU"
  bottom: "inception_4b/3x3"
  top: "inception_4b/3x3"
}
layer {
  name: "inception_4b/5x5_reduce"
  type: "Convolution"
  bottom: "inception_4a/output"
  top: "inception_4b/5x5_reduce"
  param {
    lr_mult: 1
    decay_mult: 1
  }
  param {
    lr_mult: 2
    decay_mult: 0
  }
  convolution_param {
    num_output: 24
    kernel_size: 1
    weight_filler {
      type: "xavier"
    }
    bias_filler {
      type: "constant"
      value: 0.2
    }
  }
}
layer {
  name: "inception_4b/relu_5x5_reduce"
  type: "ReLU"
  bottom: "inception_4b/5x5_reduce"
  top: "inception_4b/5x5_reduce"
}
layer {
  name: "inception_4b/5x5"
  type: "Convolution"
  bottom: "inception_4b/5x5_reduce"
  top: "inception_4b/5x5"
  param {
    lr_mult: 1
    decay_mult: 1
  }
  param {
    lr_mult: 2
    decay_mult: 0
  }
  convolution_param {
    num_output: 64
    pad: 2
    kernel_size: 5
    weight_filler {
      type: "xavier"
    }
    bias_filler {
      type: "constant"
      value: 0.2
    }
  }
}
layer {
  name: "inception_4b/relu_5x5"
  type: "ReLU"
  bottom: "inception_4b/5x5"
  top: "inception_4b/5x5"
}
layer {
  name: "inception_4b/pool"
  type: "Pooling"
  bottom: "inception_4a/output"
  top: "inception_4b/pool"
  pooling_param {
    pool: MAX
    kernel_size: 3
    stride: 1
    pad: 1
  }
}
layer {
  name: "inception_4b/pool_proj"
  type: "Convolution"
  bottom: "inception_4b/pool"
  top: "inception_4b/pool_proj"
  param {
    lr_mult: 1
    decay_mult: 1
  }
  param {
    lr_mult: 2
    decay_mult: 0
  }
  convolution_param {
    num_output: 64
    kernel_size: 1
    weight_filler {
      type: "xavier"
    }
    bias_filler {
      type: "constant"
      value: 0.2
    }
  }
}
layer {
  name: "inception_4b/relu_pool_proj"
  type: "ReLU"
  bottom: "inception_4b/pool_proj"
  top: "inception_4b/pool_proj"
}
layer {
  name: "inception_4b/output"
  type: "Concat"
  bottom: "inception_4b/1x1"
  bottom: "inception_4b/3x3"
  bottom: "inception_4b/5x5"
  bottom: "inception_4b/pool_proj"
  top: "inception_4b/output"
}
layer {
  name: "inception_4c/1x1"
  type: "Convolution"
  bottom: "inception_4b/output"
  top: "inception_4c/1x1"
  param {
    lr_mult: 1
    decay_mult: 1
  }
  param {
    lr_mult: 2
    decay_mult: 0
  }
  convolution_param {
    num_output: 128
    kernel_size: 1
    weight_filler {
      type: "xavier"
    }
    bias_filler {
      type: "constant"
      value: 0.2
    }
  }
}
layer {
  name: "inception_4c/relu_1x1"
  type: "ReLU"
  bottom: "inception_4c/1x1"
  top: "inception_4c/1x1"
}
layer {
  name: "inception_4c/3x3_reduce"
  type: "Convolution"
  bottom: "inception_4b/output"
  top: "inception_4c/3x3_reduce"
  param {
    lr_mult: 1
    decay_mult: 1
  }
  param {
    lr_mult: 2
    decay_mult: 0
  }
  convolution_param {
    num_output: 128
    kernel_size: 1
    weight_filler {
      type: "xavier"
    }
    bias_filler {
      type: "constant"
      value: 0.2
    }
  }
}
layer {
  name: "inception_4c/relu_3x3_reduce"
  type: "ReLU"
  bottom: "inception_4c/3x3_reduce"
  top: "inception_4c/3x3_reduce"
}
layer {
  name: "inception_4c/3x3"
  type: "Convolution"
  bottom: "inception_4c/3x3_reduce"
  top: "inception_4c/3x3"
  param {
    lr_mult: 1
    decay_mult: 1
  }
  param {
    lr_mult: 2
    decay_mult: 0
  }
  convolution_param {
    num_output: 256
    pad: 1
    kernel_size: 3
    weight_filler {
      type: "xavier"
    }
    bias_filler {
      type: "constant"
      value: 0.2
    }
  }
}
layer {
  name: "inception_4c/relu_3x3"
  type: "ReLU"
  bottom: "inception_4c/3x3"
  top: "inception_4c/3x3"
}
layer {
  name: "inception_4c/5x5_reduce"
  type: "Convolution"
  bottom: "inception_4b/output"
  top: "inception_4c/5x5_reduce"
  param {
    lr_mult: 1
    decay_mult: 1
  }
  param {
    lr_mult: 2
    decay_mult: 0
  }
  convolution_param {
    num_output: 24
    kernel_size: 1
    weight_filler {
      type: "xavier"
    }
    bias_filler {
      type: "constant"
      value: 0.2
    }
  }
}
layer {
  name: "inception_4c/relu_5x5_reduce"
  type: "ReLU"
  bottom: "inception_4c/5x5_reduce"
  top: "inception_4c/5x5_reduce"
}
layer {
  name: "inception_4c/5x5"
  type: "Convolution"
  bottom: "inception_4c/5x5_reduce"
  top: "inception_4c/5x5"
  param {
    lr_mult: 1
    decay_mult: 1
  }
  param {
    lr_mult: 2
    decay_mult: 0
  }
  convolution_param {
    num_output: 64
    pad: 2
    kernel_size: 5
    weight_filler {
      type: "xavier"
    }
    bias_filler {
      type: "constant"
      value: 0.2
    }
  }
}
layer {
  name: "inception_4c/relu_5x5"
  type: "ReLU"
  bottom: "inception_4c/5x5"
  top: "inception_4c/5x5"
}
layer {
  name: "inception_4c/pool"
  type: "Pooling"
  bottom: "inception_4b/output"
  top: "inception_4c/pool"
  pooling_param {
    pool: MAX
    kernel_size: 3
    stride: 1
    pad: 1
  }
}
layer {
  name: "inception_4c/pool_proj"
  type: "Convolution"
  bottom: "inception_4c/pool"
  top: "inception_4c/pool_proj"
  param {
    lr_mult: 1
    decay_mult: 1
  }
  param {
    lr_mult: 2
    decay_mult: 0
  }
  convolution_param {
    num_output: 64
    kernel_size: 1
    weight_filler {
      type: "xavier"
    }
    bias_filler {
      type: "constant"
      value: 0.2
    }
  }
}
layer {
  name: "inception_4c/relu_pool_proj"
  type: "ReLU"
  bottom: "inception_4c/pool_proj"
  top: "inception_4c/pool_proj"
}
layer {
  name: "inception_4c/output"
  type: "Concat"
  bottom: "inception_4c/1x1"
  bottom: "inception_4c/3x3"
  bottom: "inception_4c/5x5"
  bottom: "inception_4c/pool_proj"
  top: "inception_4c/output"
}
layer {
  name: "inception_4d/1x1"
  type: "Convolution"
  bottom: "inception_4c/output"
  top: "inception_4d/1x1"
  param {
    lr_mult: 1
    decay_mult: 1
  }
  param {
    lr_mult: 2
    decay_mult: 0
  }
  convolution_param {
    num_output: 112
    kernel_size: 1
    weight_filler {
      type: "xavier"
    }
    bias_filler {
      type: "constant"
      value: 0.2
    }
  }
}
layer {
  name: "inception_4d/relu_1x1"
  type: "ReLU"
  bottom: "inception_4d/1x1"
  top: "inception_4d/1x1"
}
layer {
  name: "inception_4d/3x3_reduce"
  type: "Convolution"
  bottom: "inception_4c/output"
  top: "inception_4d/3x3_reduce"
  param {
    lr_mult: 1
    decay_mult: 1
  }
  param {
    lr_mult: 2
    decay_mult: 0
  }
  convolution_param {
    num_output: 144
    kernel_size: 1
    weight_filler {
      type: "xavier"
    }
    bias_filler {
      type: "constant"
      value: 0.2
    }
  }
}
layer {
  name: "inception_4d/relu_3x3_reduce"
  type: "ReLU"
  bottom: "inception_4d/3x3_reduce"
  top: "inception_4d/3x3_reduce"
}
layer {
  name: "inception_4d/3x3"
  type: "Convolution"
  bottom: "inception_4d/3x3_reduce"
  top: "inception_4d/3x3"
  param {
    lr_mult: 1
    decay_mult: 1
  }
  param {
    lr_mult: 2
    decay_mult: 0
  }
  convolution_param {
    num_output: 288
    pad: 1
    kernel_size: 3
    weight_filler {
      type: "xavier"
    }
    bias_filler {
      type: "constant"
      value: 0.2
    }
  }
}
layer {
  name: "inception_4d/relu_3x3"
  type: "ReLU"
  bottom: "inception_4d/3x3"
  top: "inception_4d/3x3"
}
layer {
  name: "inception_4d/5x5_reduce"
  type: "Convolution"
  bottom: "inception_4c/output"
  top: "inception_4d/5x5_reduce"
  param {
    lr_mult: 1
    decay_mult: 1
  }
  param {
    lr_mult: 2
    decay_mult: 0
  }
  convolution_param {
    num_output: 32
    kernel_size: 1
    weight_filler {
      type: "xavier"
    }
    bias_filler {
      type: "constant"
      value: 0.2
    }
  }
}
layer {
  name: "inception_4d/relu_5x5_reduce"
  type: "ReLU"
  bottom: "inception_4d/5x5_reduce"
  top: "inception_4d/5x5_reduce"
}
layer {
  name: "inception_4d/5x5"
  type: "Convolution"
  bottom: "inception_4d/5x5_reduce"
  top: "inception_4d/5x5"
  param {
    lr_mult: 1
    decay_mult: 1
  }
  param {
    lr_mult: 2
    decay_mult: 0
  }
  convolution_param {
    num_output: 64
    pad: 2
    kernel_size: 5
    weight_filler {
      type: "xavier"
    }
    bias_filler {
      type: "constant"
      value: 0.2
    }
  }
}
layer {
  name: "inception_4d/relu_5x5"
  type: "ReLU"
  bottom: "inception_4d/5x5"
  top: "inception_4d/5x5"
}
layer {
  name: "inception_4d/pool"
  type: "Pooling"
  bottom: "inception_4c/output"
  top: "inception_4d/pool"
  pooling_param {
    pool: MAX
    kernel_size: 3
    stride: 1
    pad: 1
  }
}
layer {
  name: "inception_4d/pool_proj"
  type: "Convolution"
  bottom: "inception_4d/pool"
  top: "inception_4d/pool_proj"
  param {
    lr_mult: 1
    decay_mult: 1
  }
  param {
    lr_mult: 2
    decay_mult: 0
  }
  convolution_param {
    num_output: 64
    kernel_size: 1
    weight_filler {
      type: "xavier"
    }
    bias_filler {
      type: "constant"
      value: 0.2
    }
  }
}
layer {
  name: "inception_4d/relu_pool_proj"
  type: "ReLU"
  bottom: "inception_4d/pool_proj"
  top: "inception_4d/pool_proj"
}
layer {
  name: "inception_4d/output"
  type: "Concat"
  bottom: "inception_4d/1x1"
  bottom: "inception_4d/3x3"
  bottom: "inception_4d/5x5"
  bottom: "inception_4d/pool_proj"
  top: "inception_4d/output"
}
layer {
  name: "loss2/ave_pool"
  type: "Pooling"
  bottom: "inception_4d/output"
  top: "loss2/ave_pool"
  pooling_param {
    pool: AVE
    kernel_size: 5
    stride: 3
  }
}
layer {
  name: "loss2/conv"
  type: "Convolution"
  bottom: "loss2/ave_pool"
  top: "loss2/conv"
  param {
    lr_mult: 1
    decay_mult: 1
  }
  param {
    lr_mult: 2
    decay_mult: 0
  }
  convolution_param {
    num_output: 128
    kernel_size: 1
    weight_filler {
      type: "xavier"
    }
    bias_filler {
      type: "constant"
      value: 0.2
    }
  }
}
layer {
  name: "loss2/relu_conv"
  type: "ReLU"
  bottom: "loss2/conv"
  top: "loss2/conv"
}
layer {
  name: "loss2/fc"
  type: "InnerProduct"
  bottom: "loss2/conv"
  top: "loss2/fc"
  param {
    lr_mult: 1
    decay_mult: 1
  }
  param {
    lr_mult: 2
    decay_mult: 0
  }
  inner_product_param {
    num_output: 1024
    weight_filler {
      type: "xavier"
    }
    bias_filler {
      type: "constant"
      value: 0.2
    }
  }
}
layer {
  name: "loss2/relu_fc"
  type: "ReLU"
  bottom: "loss2/fc"
  top: "loss2/fc"
}
layer {
  name: "loss2/drop_fc"
  type: "Dropout"
  bottom: "loss2/fc"
  top: "loss2/fc"
  dropout_param {
    dropout_ratio: 0.7
  }
}
layer {
  name: "loss2/classifier_kaggle"
  type: "InnerProduct"
  bottom: "loss2/fc"
  top: "loss2/classifier_kaggle"
  param {
    lr_mult: 1
    decay_mult: 1
  }
  param {
    lr_mult: 2
    decay_mult: 0
  }
  inner_product_param {
    num_output: 447
    weight_filler {
      type: "xavier"
    }
    bias_filler {
      type: "constant"
      value: 0
    }
  }
}
layer {
  name: "loss2/loss"
  type: "SoftmaxWithLoss"
  bottom: "loss2/classifier_kaggle"
  bottom: "label"
  top: "loss2/loss1"
  loss_weight: 0.3
}
layer {
  name: "inception_4e/1x1"
  type: "Convolution"
  bottom: "inception_4d/output"
  top: "inception_4e/1x1"
  param {
    lr_mult: 1
    decay_mult: 1
  }
  param {
    lr_mult: 2
    decay_mult: 0
  }
  convolution_param {
    num_output: 256
    kernel_size: 1
    weight_filler {
      type: "xavier"
    }
    bias_filler {
      type: "constant"
      value: 0.2
    }
  }
}
layer {
  name: "inception_4e/relu_1x1"
  type: "ReLU"
  bottom: "inception_4e/1x1"
  top: "inception_4e/1x1"
}
layer {
  name: "inception_4e/3x3_reduce"
  type: "Convolution"
  bottom: "inception_4d/output"
  top: "inception_4e/3x3_reduce"
  param {
    lr_mult: 1
    decay_mult: 1
  }
  param {
    lr_mult: 2
    decay_mult: 0
  }
  convolution_param {
    num_output: 160
    kernel_size: 1
    weight_filler {
      type: "xavier"
    }
    bias_filler {
      type: "constant"
      value: 0.2
    }
  }
}
layer {
  name: "inception_4e/relu_3x3_reduce"
  type: "ReLU"
  bottom: "inception_4e/3x3_reduce"
  top: "inception_4e/3x3_reduce"
}
layer {
  name: "inception_4e/3x3"
  type: "Convolution"
  bottom: "inception_4e/3x3_reduce"
  top: "inception_4e/3x3"
  param {
    lr_mult: 1
    decay_mult: 1
  }
  param {
    lr_mult: 2
    decay_mult: 0
  }
  convolution_param {
    num_output: 320
    pad: 1
    kernel_size: 3
    weight_filler {
      type: "xavier"
    }
    bias_filler {
      type: "constant"
      value: 0.2
    }
  }
}
layer {
  name: "inception_4e/relu_3x3"
  type: "ReLU"
  bottom: "inception_4e/3x3"
  top: "inception_4e/3x3"
}
layer {
  name: "inception_4e/5x5_reduce"
  type: "Convolution"
  bottom: "inception_4d/output"
  top: "inception_4e/5x5_reduce"
  param {
    lr_mult: 1
    decay_mult: 1
  }
  param {
    lr_mult: 2
    decay_mult: 0
  }
  convolution_param {
    num_output: 32
    kernel_size: 1
    weight_filler {
      type: "xavier"
    }
    bias_filler {
      type: "constant"
      value: 0.2
    }
  }
}
layer {
  name: "inception_4e/relu_5x5_reduce"
  type: "ReLU"
  bottom: "inception_4e/5x5_reduce"
  top: "inception_4e/5x5_reduce"
}
layer {
  name: "inception_4e/5x5"
  type: "Convolution"
  bottom: "inception_4e/5x5_reduce"
  top: "inception_4e/5x5"
  param {
    lr_mult: 1
    decay_mult: 1
  }
  param {
    lr_mult: 2
    decay_mult: 0
  }
  convolution_param {
    num_output: 128
    pad: 2
    kernel_size: 5
    weight_filler {
      type: "xavier"
    }
    bias_filler {
      type: "constant"
      value: 0.2
    }
  }
}
layer {
  name: "inception_4e/relu_5x5"
  type: "ReLU"
  bottom: "inception_4e/5x5"
  top: "inception_4e/5x5"
}
layer {
  name: "inception_4e/pool"
  type: "Pooling"
  bottom: "inception_4d/output"
  top: "inception_4e/pool"
  pooling_p
I1220 19:06:45.817656 31668 layer_factory.hpp:74] Creating layer data
I1220 19:06:45.817713 31668 net.cpp:84] Creating Layer data
I1220 19:06:45.817728 31668 net.cpp:338] data -> data
I1220 19:06:45.817778 31668 net.cpp:338] data -> label
I1220 19:06:45.817793 31668 net.cpp:113] Setting up data
I1220 19:06:45.817803 31668 image_data_layer.cpp:36] Opening file /home/coldmanck/kaggle/label_train_full.txt
I1220 19:06:45.821346 31668 image_data_layer.cpp:46] Shuffling data
I1220 19:06:45.822608 31668 image_data_layer.cpp:51] A total of 4235 images.
I1220 19:06:45.823737 31668 image_data_layer.cpp:80] output data size: 80,3,224,224
I1220 19:06:51.306939 31668 net.cpp:120] Top shape: 80 3 224 224 (12042240)
I1220 19:06:51.307116 31668 net.cpp:120] Top shape: 80 (80)
I1220 19:06:51.307194 31668 layer_factory.hpp:74] Creating layer label_data_1_split
I1220 19:06:51.307276 31668 net.cpp:84] Creating Layer label_data_1_split
I1220 19:06:51.307299 31668 net.cpp:380] label_data_1_split <- label
I1220 19:06:51.307339 31668 net.cpp:338] label_data_1_split -> label_data_1_split_0
I1220 19:06:51.307359 31668 net.cpp:338] label_data_1_split -> label_data_1_split_1
I1220 19:06:51.307382 31668 net.cpp:338] label_data_1_split -> label_data_1_split_2
I1220 19:06:51.307407 31668 net.cpp:113] Setting up label_data_1_split
I1220 19:06:51.307422 31668 net.cpp:120] Top shape: 80 (80)
I1220 19:06:51.307430 31668 net.cpp:120] Top shape: 80 (80)
I1220 19:06:51.307437 31668 net.cpp:120] Top shape: 80 (80)
I1220 19:06:51.307445 31668 layer_factory.hpp:74] Creating layer conv1/7x7_s2
I1220 19:06:51.307473 31668 net.cpp:84] Creating Layer conv1/7x7_s2
I1220 19:06:51.307482 31668 net.cpp:380] conv1/7x7_s2 <- data
I1220 19:06:51.307507 31668 net.cpp:338] conv1/7x7_s2 -> conv1/7x7_s2
I1220 19:06:51.307523 31668 net.cpp:113] Setting up conv1/7x7_s2
I1220 19:06:51.787554 31668 net.cpp:120] Top shape: 80 64 112 112 (64225280)
I1220 19:06:51.787674 31668 layer_factory.hpp:74] Creating layer conv1/relu_7x7
I1220 19:06:51.787699 31668 net.cpp:84] Creating Layer conv1/relu_7x7
I1220 19:06:51.787711 31668 net.cpp:380] conv1/relu_7x7 <- conv1/7x7_s2
I1220 19:06:51.787730 31668 net.cpp:327] conv1/relu_7x7 -> conv1/7x7_s2 (in-place)
I1220 19:06:51.787750 31668 net.cpp:113] Setting up conv1/relu_7x7
I1220 19:06:51.788406 31668 net.cpp:120] Top shape: 80 64 112 112 (64225280)
I1220 19:06:51.788430 31668 layer_factory.hpp:74] Creating layer pool1/3x3_s2
I1220 19:06:51.788455 31668 net.cpp:84] Creating Layer pool1/3x3_s2
I1220 19:06:51.788465 31668 net.cpp:380] pool1/3x3_s2 <- conv1/7x7_s2
I1220 19:06:51.788511 31668 net.cpp:338] pool1/3x3_s2 -> pool1/3x3_s2
I1220 19:06:51.788529 31668 net.cpp:113] Setting up pool1/3x3_s2
I1220 19:06:51.788668 31668 net.cpp:120] Top shape: 80 64 56 56 (16056320)
I1220 19:06:51.788786 31668 layer_factory.hpp:74] Creating layer pool1/norm1
I1220 19:06:51.788817 31668 net.cpp:84] Creating Layer pool1/norm1
I1220 19:06:51.788827 31668 net.cpp:380] pool1/norm1 <- pool1/3x3_s2
I1220 19:06:51.788841 31668 net.cpp:338] pool1/norm1 -> pool1/norm1
I1220 19:06:51.788856 31668 net.cpp:113] Setting up pool1/norm1
I1220 19:06:51.788872 31668 net.cpp:120] Top shape: 80 64 56 56 (16056320)
I1220 19:06:51.788890 31668 layer_factory.hpp:74] Creating layer conv2/3x3_reduce
I1220 19:06:51.788915 31668 net.cpp:84] Creating Layer conv2/3x3_reduce
I1220 19:06:51.788925 31668 net.cpp:380] conv2/3x3_reduce <- pool1/norm1
I1220 19:06:51.788945 31668 net.cpp:338] conv2/3x3_reduce -> conv2/3x3_reduce
I1220 19:06:51.788966 31668 net.cpp:113] Setting up conv2/3x3_reduce
I1220 19:06:51.789870 31668 net.cpp:120] Top shape: 80 64 56 56 (16056320)
I1220 19:06:51.789903 31668 layer_factory.hpp:74] Creating layer conv2/relu_3x3_reduce
I1220 19:06:51.789917 31668 net.cpp:84] Creating Layer conv2/relu_3x3_reduce
I1220 19:06:51.789927 31668 net.cpp:380] conv2/relu_3x3_reduce <- conv2/3x3_reduce
I1220 19:06:51.789939 31668 net.cpp:327] conv2/relu_3x3_reduce -> conv2/3x3_reduce (in-place)
I1220 19:06:51.789953 31668 net.cpp:113] Setting up conv2/relu_3x3_reduce
I1220 19:06:51.790060 31668 net.cpp:120] Top shape: 80 64 56 56 (16056320)
I1220 19:06:51.790071 31668 layer_factory.hpp:74] Creating layer conv2/3x3
I1220 19:06:51.790087 31668 net.cpp:84] Creating Layer conv2/3x3
I1220 19:06:51.790097 31668 net.cpp:380] conv2/3x3 <- conv2/3x3_reduce
I1220 19:06:51.790130 31668 net.cpp:338] conv2/3x3 -> conv2/3x3
I1220 19:06:51.790148 31668 net.cpp:113] Setting up conv2/3x3
I1220 19:06:51.800393 31668 net.cpp:120] Top shape: 80 192 56 56 (48168960)
I1220 19:06:51.800482 31668 layer_factory.hpp:74] Creating layer conv2/relu_3x3
I1220 19:06:51.800508 31668 net.cpp:84] Creating Layer conv2/relu_3x3
I1220 19:06:51.800523 31668 net.cpp:380] conv2/relu_3x3 <- conv2/3x3
I1220 19:06:51.800542 31668 net.cpp:327] conv2/relu_3x3 -> conv2/3x3 (in-place)
I1220 19:06:51.800559 31668 net.cpp:113] Setting up conv2/relu_3x3
I1220 19:06:51.801152 31668 net.cpp:120] Top shape: 80 192 56 56 (48168960)
I1220 19:06:51.801189 31668 layer_factory.hpp:74] Creating layer conv2/norm2
I1220 19:06:51.801218 31668 net.cpp:84] Creating Layer conv2/norm2
I1220 19:06:51.801230 31668 net.cpp:380] conv2/norm2 <- conv2/3x3
I1220 19:06:51.801276 31668 net.cpp:338] conv2/norm2 -> conv2/norm2
I1220 19:06:51.801324 31668 net.cpp:113] Setting up conv2/norm2
I1220 19:06:51.801347 31668 net.cpp:120] Top shape: 80 192 56 56 (48168960)
I1220 19:06:51.801358 31668 layer_factory.hpp:74] Creating layer pool2/3x3_s2
I1220 19:06:51.801375 31668 net.cpp:84] Creating Layer pool2/3x3_s2
I1220 19:06:51.801386 31668 net.cpp:380] pool2/3x3_s2 <- conv2/norm2
I1220 19:06:51.801401 31668 net.cpp:338] pool2/3x3_s2 -> pool2/3x3_s2
I1220 19:06:51.801417 31668 net.cpp:113] Setting up pool2/3x3_s2
I1220 19:06:51.801548 31668 net.cpp:120] Top shape: 80 192 28 28 (12042240)
I1220 19:06:51.801565 31668 layer_factory.hpp:74] Creating layer pool2/3x3_s2_pool2/3x3_s2_0_split
I1220 19:06:51.801586 31668 net.cpp:84] Creating Layer pool2/3x3_s2_pool2/3x3_s2_0_split
I1220 19:06:51.801596 31668 net.cpp:380] pool2/3x3_s2_pool2/3x3_s2_0_split <- pool2/3x3_s2
I1220 19:06:51.801614 31668 net.cpp:338] pool2/3x3_s2_pool2/3x3_s2_0_split -> pool2/3x3_s2_pool2/3x3_s2_0_split_0
I1220 19:06:51.801630 31668 net.cpp:338] pool2/3x3_s2_pool2/3x3_s2_0_split -> pool2/3x3_s2_pool2/3x3_s2_0_split_1
I1220 19:06:51.801645 31668 net.cpp:338] pool2/3x3_s2_pool2/3x3_s2_0_split -> pool2/3x3_s2_pool2/3x3_s2_0_split_2
I1220 19:06:51.801659 31668 net.cpp:338] pool2/3x3_s2_pool2/3x3_s2_0_split -> pool2/3x3_s2_pool2/3x3_s2_0_split_3
I1220 19:06:51.801671 31668 net.cpp:113] Setting up pool2/3x3_s2_pool2/3x3_s2_0_split
I1220 19:06:51.801687 31668 net.cpp:120] Top shape: 80 192 28 28 (12042240)
I1220 19:06:51.801699 31668 net.cpp:120] Top shape: 80 192 28 28 (12042240)
I1220 19:06:51.801709 31668 net.cpp:120] Top shape: 80 192 28 28 (12042240)
I1220 19:06:51.801719 31668 net.cpp:120] Top shape: 80 192 28 28 (12042240)
I1220 19:06:51.801730 31668 layer_factory.hpp:74] Creating layer inception_3a/1x1
I1220 19:06:51.801749 31668 net.cpp:84] Creating Layer inception_3a/1x1
I1220 19:06:51.801761 31668 net.cpp:380] inception_3a/1x1 <- pool2/3x3_s2_pool2/3x3_s2_0_split_0
I1220 19:06:51.801779 31668 net.cpp:338] inception_3a/1x1 -> inception_3a/1x1
I1220 19:06:51.801802 31668 net.cpp:113] Setting up inception_3a/1x1
I1220 19:06:51.802728 31668 net.cpp:120] Top shape: 80 64 28 28 (4014080)
I1220 19:06:51.802786 31668 layer_factory.hpp:74] Creating layer inception_3a/relu_1x1
I1220 19:06:51.802814 31668 net.cpp:84] Creating Layer inception_3a/relu_1x1
I1220 19:06:51.802827 31668 net.cpp:380] inception_3a/relu_1x1 <- inception_3a/1x1
I1220 19:06:51.802848 31668 net.cpp:327] inception_3a/relu_1x1 -> inception_3a/1x1 (in-place)
I1220 19:06:51.802865 31668 net.cpp:113] Setting up inception_3a/relu_1x1
I1220 19:06:51.802992 31668 net.cpp:120] Top shape: 80 64 28 28 (4014080)
I1220 19:06:51.803014 31668 layer_factory.hpp:74] Creating layer inception_3a/3x3_reduce
I1220 19:06:51.803076 31668 net.cpp:84] Creating Layer inception_3a/3x3_reduce
I1220 19:06:51.803092 31668 net.cpp:380] inception_3a/3x3_reduce <- pool2/3x3_s2_pool2/3x3_s2_0_split_1
I1220 19:06:51.803117 31668 net.cpp:338] inception_3a/3x3_reduce -> inception_3a/3x3_reduce
I1220 19:06:51.803145 31668 net.cpp:113] Setting up inception_3a/3x3_reduce
I1220 19:06:51.804216 31668 net.cpp:120] Top shape: 80 96 28 28 (6021120)
I1220 19:06:51.804280 31668 layer_factory.hpp:74] Creating layer inception_3a/relu_3x3_reduce
I1220 19:06:51.804307 31668 net.cpp:84] Creating Layer inception_3a/relu_3x3_reduce
I1220 19:06:51.804319 31668 net.cpp:380] inception_3a/relu_3x3_reduce <- inception_3a/3x3_reduce
I1220 19:06:51.804342 31668 net.cpp:327] inception_3a/relu_3x3_reduce -> inception_3a/3x3_reduce (in-place)
I1220 19:06:51.804359 31668 net.cpp:113] Setting up inception_3a/relu_3x3_reduce
I1220 19:06:51.804472 31668 net.cpp:120] Top shape: 80 96 28 28 (6021120)
I1220 19:06:51.804487 31668 layer_factory.hpp:74] Creating layer inception_3a/3x3
I1220 19:06:51.804509 31668 net.cpp:84] Creating Layer inception_3a/3x3
I1220 19:06:51.804517 31668 net.cpp:380] inception_3a/3x3 <- inception_3a/3x3_reduce
I1220 19:06:51.804530 31668 net.cpp:338] inception_3a/3x3 -> inception_3a/3x3
I1220 19:06:51.804546 31668 net.cpp:113] Setting up inception_3a/3x3
I1220 19:06:51.806730 31668 net.cpp:120] Top shape: 80 128 28 28 (8028160)
I1220 19:06:51.806854 31668 layer_factory.hpp:74] Creating layer inception_3a/relu_3x3
I1220 19:06:51.806884 31668 net.cpp:84] Creating Layer inception_3a/relu_3x3
I1220 19:06:51.806897 31668 net.cpp:380] inception_3a/relu_3x3 <- inception_3a/3x3
I1220 19:06:51.806917 31668 net.cpp:327] inception_3a/relu_3x3 -> inception_3a/3x3 (in-place)
I1220 19:06:51.806936 31668 net.cpp:113] Setting up inception_3a/relu_3x3
I1220 19:06:51.807363 31668 net.cpp:120] Top shape: 80 128 28 28 (8028160)
I1220 19:06:51.807387 31668 layer_factory.hpp:74] Creating layer inception_3a/5x5_reduce
I1220 19:06:51.807411 31668 net.cpp:84] Creating Layer inception_3a/5x5_reduce
I1220 19:06:51.807423 31668 net.cpp:380] inception_3a/5x5_reduce <- pool2/3x3_s2_pool2/3x3_s2_0_split_2
I1220 19:06:51.807443 31668 net.cpp:338] inception_3a/5x5_reduce -> inception_3a/5x5_reduce
I1220 19:06:51.807473 31668 net.cpp:113] Setting up inception_3a/5x5_reduce
I1220 19:06:51.808182 31668 net.cpp:120] Top shape: 80 16 28 28 (1003520)
I1220 19:06:51.808219 31668 layer_factory.hpp:74] Creating layer inception_3a/relu_5x5_reduce
I1220 19:06:51.808239 31668 net.cpp:84] Creating Layer inception_3a/relu_5x5_reduce
I1220 19:06:51.808250 31668 net.cpp:380] inception_3a/relu_5x5_reduce <- inception_3a/5x5_reduce
I1220 19:06:51.808266 31668 net.cpp:327] inception_3a/relu_5x5_reduce -> inception_3a/5x5_reduce (in-place)
I1220 19:06:51.808284 31668 net.cpp:113] Setting up inception_3a/relu_5x5_reduce
I1220 19:06:51.808403 31668 net.cpp:120] Top shape: 80 16 28 28 (1003520)
I1220 19:06:51.808418 31668 layer_factory.hpp:74] Creating layer inception_3a/5x5
I1220 19:06:51.808446 31668 net.cpp:84] Creating Layer inception_3a/5x5
I1220 19:06:51.808457 31668 net.cpp:380] inception_3a/5x5 <- inception_3a/5x5_reduce
I1220 19:06:51.808475 31668 net.cpp:338] inception_3a/5x5 -> inception_3a/5x5
I1220 19:06:51.808492 31668 net.cpp:113] Setting up inception_3a/5x5
I1220 19:06:51.809489 31668 net.cpp:120] Top shape: 80 32 28 28 (2007040)
I1220 19:06:51.809538 31668 layer_factory.hpp:74] Creating layer inception_3a/relu_5x5
I1220 19:06:51.809561 31668 net.cpp:84] Creating Layer inception_3a/relu_5x5
I1220 19:06:51.809571 31668 net.cpp:380] inception_3a/relu_5x5 <- inception_3a/5x5
I1220 19:06:51.809587 31668 net.cpp:327] inception_3a/relu_5x5 -> inception_3a/5x5 (in-place)
I1220 19:06:51.809603 31668 net.cpp:113] Setting up inception_3a/relu_5x5
I1220 19:06:51.809732 31668 net.cpp:120] Top shape: 80 32 28 28 (2007040)
I1220 19:06:51.809751 31668 layer_factory.hpp:74] Creating layer inception_3a/pool
I1220 19:06:51.809764 31668 layer_factory.cpp:56] CUDNN does not support padding or multiple tops. Using Caffe's own pooling layer.
I1220 19:06:51.809784 31668 net.cpp:84] Creating Layer inception_3a/pool
I1220 19:06:51.809799 31668 net.cpp:380] inception_3a/pool <- pool2/3x3_s2_pool2/3x3_s2_0_split_3
I1220 19:06:51.809814 31668 net.cpp:338] inception_3a/pool -> inception_3a/pool
I1220 19:06:51.809833 31668 net.cpp:113] Setting up inception_3a/pool
I1220 19:06:51.809854 31668 net.cpp:120] Top shape: 80 192 28 28 (12042240)
I1220 19:06:51.809864 31668 layer_factory.hpp:74] Creating layer inception_3a/pool_proj
I1220 19:06:51.809885 31668 net.cpp:84] Creating Layer inception_3a/pool_proj
I1220 19:06:51.809896 31668 net.cpp:380] inception_3a/pool_proj <- inception_3a/pool
I1220 19:06:51.809913 31668 net.cpp:338] inception_3a/pool_proj -> inception_3a/pool_proj
I1220 19:06:51.809931 31668 net.cpp:113] Setting up inception_3a/pool_proj
I1220 19:06:51.810772 31668 net.cpp:120] Top shape: 80 32 28 28 (2007040)
I1220 19:06:51.810822 31668 layer_factory.hpp:74] Creating layer inception_3a/relu_pool_proj
I1220 19:06:51.810844 31668 net.cpp:84] Creating Layer inception_3a/relu_pool_proj
I1220 19:06:51.810856 31668 net.cpp:380] inception_3a/relu_pool_proj <- inception_3a/pool_proj
I1220 19:06:51.810873 31668 net.cpp:327] inception_3a/relu_pool_proj -> inception_3a/pool_proj (in-place)
I1220 19:06:51.810910 31668 net.cpp:113] Setting up inception_3a/relu_pool_proj
I1220 19:06:51.811054 31668 net.cpp:120] Top shape: 80 32 28 28 (2007040)
I1220 19:06:51.811072 31668 layer_factory.hpp:74] Creating layer inception_3a/output
I1220 19:06:51.811091 31668 net.cpp:84] Creating Layer inception_3a/output
I1220 19:06:51.811102 31668 net.cpp:380] inception_3a/output <- inception_3a/1x1
I1220 19:06:51.811115 31668 net.cpp:380] inception_3a/output <- inception_3a/3x3
I1220 19:06:51.811127 31668 net.cpp:380] inception_3a/output <- inception_3a/5x5
I1220 19:06:51.811137 31668 net.cpp:380] inception_3a/output <- inception_3a/pool_proj
I1220 19:06:51.811151 31668 net.cpp:338] inception_3a/output -> inception_3a/output
I1220 19:06:51.811167 31668 net.cpp:113] Setting up inception_3a/output
I1220 19:06:51.811184 31668 net.cpp:120] Top shape: 80 256 28 28 (16056320)
I1220 19:06:51.811195 31668 layer_factory.hpp:74] Creating layer inception_3a/output_inception_3a/output_0_split
I1220 19:06:51.811210 31668 net.cpp:84] Creating Layer inception_3a/output_inception_3a/output_0_split
I1220 19:06:51.811220 31668 net.cpp:380] inception_3a/output_inception_3a/output_0_split <- inception_3a/output
I1220 19:06:51.811234 31668 net.cpp:338] inception_3a/output_inception_3a/output_0_split -> inception_3a/output_inception_3a/output_0_split_0
I1220 19:06:51.811249 31668 net.cpp:338] inception_3a/output_inception_3a/output_0_split -> inception_3a/output_inception_3a/output_0_split_1
I1220 19:06:51.811265 31668 net.cpp:338] inception_3a/output_inception_3a/output_0_split -> inception_3a/output_inception_3a/output_0_split_2
I1220 19:06:51.811281 31668 net.cpp:338] inception_3a/output_inception_3a/output_0_split -> inception_3a/output_inception_3a/output_0_split_3
I1220 19:06:51.811295 31668 net.cpp:113] Setting up inception_3a/output_inception_3a/output_0_split
I1220 19:06:51.811310 31668 net.cpp:120] Top shape: 80 256 28 28 (16056320)
I1220 19:06:51.811319 31668 net.cpp:120] Top shape: 80 256 28 28 (16056320)
I1220 19:06:51.811329 31668 net.cpp:120] Top shape: 80 256 28 28 (16056320)
I1220 19:06:51.811339 31668 net.cpp:120] Top shape: 80 256 28 28 (16056320)
I1220 19:06:51.811348 31668 layer_factory.hpp:74] Creating layer inception_3b/1x1
I1220 19:06:51.811368 31668 net.cpp:84] Creating Layer inception_3b/1x1
I1220 19:06:51.811379 31668 net.cpp:380] inception_3b/1x1 <- inception_3a/output_inception_3a/output_0_split_0
I1220 19:06:51.811396 31668 net.cpp:338] inception_3b/1x1 -> inception_3b/1x1
I1220 19:06:51.811414 31668 net.cpp:113] Setting up inception_3b/1x1
I1220 19:06:51.812538 31668 net.cpp:120] Top shape: 80 128 28 28 (8028160)
I1220 19:06:51.812582 31668 layer_factory.hpp:74] Creating layer inception_3b/relu_1x1
I1220 19:06:51.812603 31668 net.cpp:84] Creating Layer inception_3b/relu_1x1
I1220 19:06:51.812615 31668 net.cpp:380] inception_3b/relu_1x1 <- inception_3b/1x1
I1220 19:06:51.812633 31668 net.cpp:327] inception_3b/relu_1x1 -> inception_3b/1x1 (in-place)
I1220 19:06:51.812649 31668 net.cpp:113] Setting up inception_3b/relu_1x1
I1220 19:06:51.813122 31668 net.cpp:120] Top shape: 80 128 28 28 (8028160)
I1220 19:06:51.813156 31668 layer_factory.hpp:74] Creating layer inception_3b/3x3_reduce
I1220 19:06:51.813179 31668 net.cpp:84] Creating Layer inception_3b/3x3_reduce
I1220 19:06:51.813189 31668 net.cpp:380] inception_3b/3x3_reduce <- inception_3a/output_inception_3a/output_0_split_1
I1220 19:06:51.813205 31668 net.cpp:338] inception_3b/3x3_reduce -> inception_3b/3x3_reduce
I1220 19:06:51.813220 31668 net.cpp:113] Setting up inception_3b/3x3_reduce
I1220 19:06:51.814357 31668 net.cpp:120] Top shape: 80 128 28 28 (8028160)
I1220 19:06:51.814414 31668 layer_factory.hpp:74] Creating layer inception_3b/relu_3x3_reduce
I1220 19:06:51.814434 31668 net.cpp:84] Creating Layer inception_3b/relu_3x3_reduce
I1220 19:06:51.814445 31668 net.cpp:380] inception_3b/relu_3x3_reduce <- inception_3b/3x3_reduce
I1220 19:06:51.814460 31668 net.cpp:327] inception_3b/relu_3x3_reduce -> inception_3b/3x3_reduce (in-place)
I1220 19:06:51.814474 31668 net.cpp:113] Setting up inception_3b/relu_3x3_reduce
I1220 19:06:51.814599 31668 net.cpp:120] Top shape: 80 128 28 28 (8028160)
I1220 19:06:51.814628 31668 layer_factory.hpp:74] Creating layer inception_3b/3x3
I1220 19:06:51.814662 31668 net.cpp:84] Creating Layer inception_3b/3x3
I1220 19:06:51.814672 31668 net.cpp:380] inception_3b/3x3 <- inception_3b/3x3_reduce
I1220 19:06:51.814687 31668 net.cpp:338] inception_3b/3x3 -> inception_3b/3x3
I1220 19:06:51.814703 31668 net.cpp:113] Setting up inception_3b/3x3
I1220 19:06:51.818537 31668 net.cpp:120] Top shape: 80 192 28 28 (12042240)
I1220 19:06:51.818619 31668 layer_factory.hpp:74] Creating layer inception_3b/relu_3x3
I1220 19:06:51.818645 31668 net.cpp:84] Creating Layer inception_3b/relu_3x3
I1220 19:06:51.818660 31668 net.cpp:380] inception_3b/relu_3x3 <- inception_3b/3x3
I1220 19:06:51.818682 31668 net.cpp:327] inception_3b/relu_3x3 -> inception_3b/3x3 (in-place)
I1220 19:06:51.818707 31668 net.cpp:113] Setting up inception_3b/relu_3x3
I1220 19:06:51.818847 31668 net.cpp:120] Top shape: 80 192 28 28 (12042240)
I1220 19:06:51.818864 31668 layer_factory.hpp:74] Creating layer inception_3b/5x5_reduce
I1220 19:06:51.818907 31668 net.cpp:84] Creating Layer inception_3b/5x5_reduce
I1220 19:06:51.818922 31668 net.cpp:380] inception_3b/5x5_reduce <- inception_3a/output_inception_3a/output_0_split_2
I1220 19:06:51.818938 31668 net.cpp:338] inception_3b/5x5_reduce -> inception_3b/5x5_reduce
I1220 19:06:51.818956 31668 net.cpp:113] Setting up inception_3b/5x5_reduce
I1220 19:06:51.819818 31668 net.cpp:120] Top shape: 80 32 28 28 (2007040)
I1220 19:06:51.819900 31668 layer_factory.hpp:74] Creating layer inception_3b/relu_5x5_reduce
I1220 19:06:51.819967 31668 net.cpp:84] Creating Layer inception_3b/relu_5x5_reduce
I1220 19:06:51.819983 31668 net.cpp:380] inception_3b/relu_5x5_reduce <- inception_3b/5x5_reduce
I1220 19:06:51.820004 31668 net.cpp:327] inception_3b/relu_5x5_reduce -> inception_3b/5x5_reduce (in-place)
I1220 19:06:51.820034 31668 net.cpp:113] Setting up inception_3b/relu_5x5_reduce
I1220 19:06:51.820211 31668 net.cpp:120] Top shape: 80 32 28 28 (2007040)
I1220 19:06:51.820226 31668 layer_factory.hpp:74] Creating layer inception_3b/5x5
I1220 19:06:51.820243 31668 net.cpp:84] Creating Layer inception_3b/5x5
I1220 19:06:51.820252 31668 net.cpp:380] inception_3b/5x5 <- inception_3b/5x5_reduce
I1220 19:06:51.820263 31668 net.cpp:338] inception_3b/5x5 -> inception_3b/5x5
I1220 19:06:51.820286 31668 net.cpp:113] Setting up inception_3b/5x5
I1220 19:06:51.821784 31668 net.cpp:120] Top shape: 80 96 28 28 (6021120)
I1220 19:06:51.821810 31668 layer_factory.hpp:74] Creating layer inception_3b/relu_5x5
I1220 19:06:51.821825 31668 net.cpp:84] Creating Layer inception_3b/relu_5x5
I1220 19:06:51.821832 31668 net.cpp:380] inception_3b/relu_5x5 <- inception_3b/5x5
I1220 19:06:51.821841 31668 net.cpp:327] inception_3b/relu_5x5 -> inception_3b/5x5 (in-place)
I1220 19:06:51.821852 31668 net.cpp:113] Setting up inception_3b/relu_5x5
I1220 19:06:51.822154 31668 net.cpp:120] Top shape: 80 96 28 28 (6021120)
I1220 19:06:51.822170 31668 layer_factory.hpp:74] Creating layer inception_3b/pool
I1220 19:06:51.822180 31668 layer_factory.cpp:56] CUDNN does not support padding or multiple tops. Using Caffe's own pooling layer.
I1220 19:06:51.822190 31668 net.cpp:84] Creating Layer inception_3b/pool
I1220 19:06:51.822197 31668 net.cpp:380] inception_3b/pool <- inception_3a/output_inception_3a/output_0_split_3
I1220 19:06:51.822207 31668 net.cpp:338] inception_3b/pool -> inception_3b/pool
I1220 19:06:51.822218 31668 net.cpp:113] Setting up inception_3b/pool
I1220 19:06:51.822232 31668 net.cpp:120] Top shape: 80 256 28 28 (16056320)
I1220 19:06:51.822250 31668 layer_factory.hpp:74] Creating layer inception_3b/pool_proj
I1220 19:06:51.822263 31668 net.cpp:84] Creating Layer inception_3b/pool_proj
I1220 19:06:51.822270 31668 net.cpp:380] inception_3b/pool_proj <- inception_3b/pool
I1220 19:06:51.822280 31668 net.cpp:338] inception_3b/pool_proj -> inception_3b/pool_proj
I1220 19:06:51.822293 31668 net.cpp:113] Setting up inception_3b/pool_proj
I1220 19:06:51.822983 31668 net.cpp:120] Top shape: 80 64 28 28 (4014080)
I1220 19:06:51.823035 31668 layer_factory.hpp:74] Creating layer inception_3b/relu_pool_proj
I1220 19:06:51.823052 31668 net.cpp:84] Creating Layer inception_3b/relu_pool_proj
I1220 19:06:51.823063 31668 net.cpp:380] inception_3b/relu_pool_proj <- inception_3b/pool_proj
I1220 19:06:51.823073 31668 net.cpp:327] inception_3b/relu_pool_proj -> inception_3b/pool_proj (in-place)
I1220 19:06:51.823086 31668 net.cpp:113] Setting up inception_3b/relu_pool_proj
I1220 19:06:51.823194 31668 net.cpp:120] Top shape: 80 64 28 28 (4014080)
I1220 19:06:51.823211 31668 layer_factory.hpp:74] Creating layer inception_3b/output
I1220 19:06:51.823235 31668 net.cpp:84] Creating Layer inception_3b/output
I1220 19:06:51.823243 31668 net.cpp:380] inception_3b/output <- inception_3b/1x1
I1220 19:06:51.823252 31668 net.cpp:380] inception_3b/output <- inception_3b/3x3
I1220 19:06:51.823261 31668 net.cpp:380] inception_3b/output <- inception_3b/5x5
I1220 19:06:51.823268 31668 net.cpp:380] inception_3b/output <- inception_3b/pool_proj
I1220 19:06:51.823277 31668 net.cpp:338] inception_3b/output -> inception_3b/output
I1220 19:06:51.823287 31668 net.cpp:113] Setting up inception_3b/output
I1220 19:06:51.823302 31668 net.cpp:120] Top shape: 80 480 28 28 (30105600)
I1220 19:06:51.823308 31668 layer_factory.hpp:74] Creating layer pool3/3x3_s2
I1220 19:06:51.823318 31668 net.cpp:84] Creating Layer pool3/3x3_s2
I1220 19:06:51.823323 31668 net.cpp:380] pool3/3x3_s2 <- inception_3b/output
I1220 19:06:51.823331 31668 net.cpp:338] pool3/3x3_s2 -> pool3/3x3_s2
I1220 19:06:51.823341 31668 net.cpp:113] Setting up pool3/3x3_s2
I1220 19:06:51.823436 31668 net.cpp:120] Top shape: 80 480 14 14 (7526400)
I1220 19:06:51.823449 31668 layer_factory.hpp:74] Creating layer pool3/3x3_s2_pool3/3x3_s2_0_split
I1220 19:06:51.823462 31668 net.cpp:84] Creating Layer pool3/3x3_s2_pool3/3x3_s2_0_split
I1220 19:06:51.823470 31668 net.cpp:380] pool3/3x3_s2_pool3/3x3_s2_0_split <- pool3/3x3_s2
I1220 19:06:51.823483 31668 net.cpp:338] pool3/3x3_s2_pool3/3x3_s2_0_split -> pool3/3x3_s2_pool3/3x3_s2_0_split_0
I1220 19:06:51.823500 31668 net.cpp:338] pool3/3x3_s2_pool3/3x3_s2_0_split -> pool3/3x3_s2_pool3/3x3_s2_0_split_1
I1220 19:06:51.823513 31668 net.cpp:338] pool3/3x3_s2_pool3/3x3_s2_0_split -> pool3/3x3_s2_pool3/3x3_s2_0_split_2
I1220 19:06:51.823523 31668 net.cpp:338] pool3/3x3_s2_pool3/3x3_s2_0_split -> pool3/3x3_s2_pool3/3x3_s2_0_split_3
I1220 19:06:51.823534 31668 net.cpp:113] Setting up pool3/3x3_s2_pool3/3x3_s2_0_split
I1220 19:06:51.823544 31668 net.cpp:120] Top shape: 80 480 14 14 (7526400)
I1220 19:06:51.823551 31668 net.cpp:120] Top shape: 80 480 14 14 (7526400)
I1220 19:06:51.823559 31668 net.cpp:120] Top shape: 80 480 14 14 (7526400)
I1220 19:06:51.823565 31668 net.cpp:120] Top shape: 80 480 14 14 (7526400)
I1220 19:06:51.823572 31668 layer_factory.hpp:74] Creating layer inception_4a/1x1
I1220 19:06:51.823597 31668 net.cpp:84] Creating Layer inception_4a/1x1
I1220 19:06:51.823606 31668 net.cpp:380] inception_4a/1x1 <- pool3/3x3_s2_pool3/3x3_s2_0_split_0
I1220 19:06:51.823618 31668 net.cpp:338] inception_4a/1x1 -> inception_4a/1x1
I1220 19:06:51.823632 31668 net.cpp:113] Setting up inception_4a/1x1
I1220 19:06:51.825125 31668 net.cpp:120] Top shape: 80 192 14 14 (3010560)
I1220 19:06:51.825153 31668 layer_factory.hpp:74] Creating layer inception_4a/relu_1x1
I1220 19:06:51.825186 31668 net.cpp:84] Creating Layer inception_4a/relu_1x1
I1220 19:06:51.825199 31668 net.cpp:380] inception_4a/relu_1x1 <- inception_4a/1x1
I1220 19:06:51.825212 31668 net.cpp:327] inception_4a/relu_1x1 -> inception_4a/1x1 (in-place)
I1220 19:06:51.825227 31668 net.cpp:113] Setting up inception_4a/relu_1x1
I1220 19:06:51.825575 31668 net.cpp:120] Top shape: 80 192 14 14 (3010560)
I1220 19:06:51.825593 31668 layer_factory.hpp:74] Creating layer inception_4a/3x3_reduce
I1220 19:06:51.825606 31668 net.cpp:84] Creating Layer inception_4a/3x3_reduce
I1220 19:06:51.825615 31668 net.cpp:380] inception_4a/3x3_reduce <- pool3/3x3_s2_pool3/3x3_s2_0_split_1
I1220 19:06:51.825642 31668 net.cpp:338] inception_4a/3x3_reduce -> inception_4a/3x3_reduce
I1220 19:06:51.825659 31668 net.cpp:113] Setting up inception_4a/3x3_reduce
I1220 19:06:51.826618 31668 net.cpp:120] Top shape: 80 96 14 14 (1505280)
I1220 19:06:51.826645 31668 layer_factory.hpp:74] Creating layer inception_4a/relu_3x3_reduce
I1220 19:06:51.826658 31668 net.cpp:84] Creating Layer inception_4a/relu_3x3_reduce
I1220 19:06:51.826665 31668 net.cpp:380] inception_4a/relu_3x3_reduce <- inception_4a/3x3_reduce
I1220 19:06:51.826675 31668 net.cpp:327] inception_4a/relu_3x3_reduce -> inception_4a/3x3_reduce (in-place)
I1220 19:06:51.826686 31668 net.cpp:113] Setting up inception_4a/relu_3x3_reduce
I1220 19:06:51.826779 31668 net.cpp:120] Top shape: 80 96 14 14 (1505280)
I1220 19:06:51.826791 31668 layer_factory.hpp:74] Creating layer inception_4a/3x3
I1220 19:06:51.826812 31668 net.cpp:84] Creating Layer inception_4a/3x3
I1220 19:06:51.826820 31668 net.cpp:380] inception_4a/3x3 <- inception_4a/3x3_reduce
I1220 19:06:51.826830 31668 net.cpp:338] inception_4a/3x3 -> inception_4a/3x3
I1220 19:06:51.826843 31668 net.cpp:113] Setting up inception_4a/3x3
I1220 19:06:51.829426 31668 net.cpp:120] Top shape: 80 208 14 14 (3261440)
I1220 19:06:51.829459 31668 layer_factory.hpp:74] Creating layer inception_4a/relu_3x3
I1220 19:06:51.829481 31668 net.cpp:84] Creating Layer inception_4a/relu_3x3
I1220 19:06:51.829490 31668 net.cpp:380] inception_4a/relu_3x3 <- inception_4a/3x3
I1220 19:06:51.829500 31668 net.cpp:327] inception_4a/relu_3x3 -> inception_4a/3x3 (in-place)
I1220 19:06:51.829510 31668 net.cpp:113] Setting up inception_4a/relu_3x3
I1220 19:06:51.829598 31668 net.cpp:120] Top shape: 80 208 14 14 (3261440)
I1220 19:06:51.829609 31668 layer_factory.hpp:74] Creating layer inception_4a/5x5_reduce
I1220 19:06:51.829630 31668 net.cpp:84] Creating Layer inception_4a/5x5_reduce
I1220 19:06:51.829639 31668 net.cpp:380] inception_4a/5x5_reduce <- pool3/3x3_s2_pool3/3x3_s2_0_split_2
I1220 19:06:51.829653 31668 net.cpp:338] inception_4a/5x5_reduce -> inception_4a/5x5_reduce
I1220 19:06:51.829663 31668 net.cpp:113] Setting up inception_4a/5x5_reduce
I1220 19:06:51.830286 31668 net.cpp:120] Top shape: 80 16 14 14 (250880)
I1220 19:06:51.830303 31668 layer_factory.hpp:74] Creating layer inception_4a/relu_5x5_reduce
I1220 19:06:51.830314 31668 net.cpp:84] Creating Layer inception_4a/relu_5x5_reduce
I1220 19:06:51.830322 31668 net.cpp:380] inception_4a/relu_5x5_reduce <- inception_4a/5x5_reduce
I1220 19:06:51.830333 31668 net.cpp:327] inception_4a/relu_5x5_reduce -> inception_4a/5x5_reduce (in-place)
I1220 19:06:51.830343 31668 net.cpp:113] Setting up inception_4a/relu_5x5_reduce
I1220 19:06:51.830440 31668 net.cpp:120] Top shape: 80 16 14 14 (250880)
I1220 19:06:51.830448 31668 layer_factory.hpp:74] Creating layer inception_4a/5x5
I1220 19:06:51.830472 31668 net.cpp:84] Creating Layer inception_4a/5x5
I1220 19:06:51.830479 31668 net.cpp:380] inception_4a/5x5 <- inception_4a/5x5_reduce
I1220 19:06:51.830492 31668 net.cpp:338] inception_4a/5x5 -> inception_4a/5x5
I1220 19:06:51.830502 31668 net.cpp:113] Setting up inception_4a/5x5
I1220 19:06:51.831238 31668 net.cpp:120] Top shape: 80 48 14 14 (752640)
I1220 19:06:51.831269 31668 layer_factory.hpp:74] Creating layer inception_4a/relu_5x5
I1220 19:06:51.831279 31668 net.cpp:84] Creating Layer inception_4a/relu_5x5
I1220 19:06:51.831289 31668 net.cpp:380] inception_4a/relu_5x5 <- inception_4a/5x5
I1220 19:06:51.831300 31668 net.cpp:327] inception_4a/relu_5x5 -> inception_4a/5x5 (in-place)
I1220 19:06:51.831308 31668 net.cpp:113] Setting up inception_4a/relu_5x5
I1220 19:06:51.831585 31668 net.cpp:120] Top shape: 80 48 14 14 (752640)
I1220 19:06:51.831598 31668 layer_factory.hpp:74] Creating layer inception_4a/pool
I1220 19:06:51.831604 31668 layer_factory.cpp:56] CUDNN does not support padding or multiple tops. Using Caffe's own pooling layer.
I1220 19:06:51.831611 31668 net.cpp:84] Creating Layer inception_4a/pool
I1220 19:06:51.831619 31668 net.cpp:380] inception_4a/pool <- pool3/3x3_s2_pool3/3x3_s2_0_split_3
I1220 19:06:51.831640 31668 net.cpp:338] inception_4a/pool -> inception_4a/pool
I1220 19:06:51.831651 31668 net.cpp:113] Setting up inception_4a/pool
I1220 19:06:51.831662 31668 net.cpp:120] Top shape: 80 480 14 14 (7526400)
I1220 19:06:51.831668 31668 layer_factory.hpp:74] Creating layer inception_4a/pool_proj
I1220 19:06:51.831691 31668 net.cpp:84] Creating Layer inception_4a/pool_proj
I1220 19:06:51.831697 31668 net.cpp:380] inception_4a/pool_proj <- inception_4a/pool
I1220 19:06:51.831712 31668 net.cpp:338] inception_4a/pool_proj -> inception_4a/pool_proj
I1220 19:06:51.831722 31668 net.cpp:113] Setting up inception_4a/pool_proj
I1220 19:06:51.833199 31668 net.cpp:120] Top shape: 80 64 14 14 (1003520)
I1220 19:06:51.833220 31668 layer_factory.hpp:74] Creating layer inception_4a/relu_pool_proj
I1220 19:06:51.833231 31668 net.cpp:84] Creating Layer inception_4a/relu_pool_proj
I1220 19:06:51.833240 31668 net.cpp:380] inception_4a/relu_pool_proj <- inception_4a/pool_proj
I1220 19:06:51.833248 31668 net.cpp:327] inception_4a/relu_pool_proj -> inception_4a/pool_proj (in-place)
I1220 19:06:51.833258 31668 net.cpp:113] Setting up inception_4a/relu_pool_proj
I1220 19:06:51.833355 31668 net.cpp:120] Top shape: 80 64 14 14 (1003520)
I1220 19:06:51.833374 31668 layer_factory.hpp:74] Creating layer inception_4a/output
I1220 19:06:51.833384 31668 net.cpp:84] Creating Layer inception_4a/output
I1220 19:06:51.833389 31668 net.cpp:380] inception_4a/output <- inception_4a/1x1
I1220 19:06:51.833397 31668 net.cpp:380] inception_4a/output <- inception_4a/3x3
I1220 19:06:51.833405 31668 net.cpp:380] inception_4a/output <- inception_4a/5x5
I1220 19:06:51.833411 31668 net.cpp:380] inception_4a/output <- inception_4a/pool_proj
I1220 19:06:51.833421 31668 net.cpp:338] inception_4a/output -> inception_4a/output
I1220 19:06:51.833441 31668 net.cpp:113] Setting up inception_4a/output
I1220 19:06:51.833451 31668 net.cpp:120] Top shape: 80 512 14 14 (8028160)
I1220 19:06:51.833467 31668 layer_factory.hpp:74] Creating layer inception_4a/output_inception_4a/output_0_split
I1220 19:06:51.833477 31668 net.cpp:84] Creating Layer inception_4a/output_inception_4a/output_0_split
I1220 19:06:51.833483 31668 net.cpp:380] inception_4a/output_inception_4a/output_0_split <- inception_4a/output
I1220 19:06:51.833497 31668 net.cpp:338] inception_4a/output_inception_4a/output_0_split -> inception_4a/output_inception_4a/output_0_split_0
I1220 19:06:51.833506 31668 net.cpp:338] inception_4a/output_inception_4a/output_0_split -> inception_4a/output_inception_4a/output_0_split_1
I1220 19:06:51.833518 31668 net.cpp:338] inception_4a/output_inception_4a/output_0_split -> inception_4a/output_inception_4a/output_0_split_2
I1220 19:06:51.833528 31668 net.cpp:338] inception_4a/output_inception_4a/output_0_split -> inception_4a/output_inception_4a/output_0_split_3
I1220 19:06:51.833535 31668 net.cpp:338] inception_4a/output_inception_4a/output_0_split -> inception_4a/output_inception_4a/output_0_split_4
I1220 19:06:51.833545 31668 net.cpp:113] Setting up inception_4a/output_inception_4a/output_0_split
I1220 19:06:51.833557 31668 net.cpp:120] Top shape: 80 512 14 14 (8028160)
I1220 19:06:51.833564 31668 net.cpp:120] Top shape: 80 512 14 14 (8028160)
I1220 19:06:51.833571 31668 net.cpp:120] Top shape: 80 512 14 14 (8028160)
I1220 19:06:51.833580 31668 net.cpp:120] Top shape: 80 512 14 14 (8028160)
I1220 19:06:51.833587 31668 net.cpp:120] Top shape: 80 512 14 14 (8028160)
I1220 19:06:51.833593 31668 layer_factory.hpp:74] Creating layer loss1/ave_pool
I1220 19:06:51.833603 31668 net.cpp:84] Creating Layer loss1/ave_pool
I1220 19:06:51.833611 31668 net.cpp:380] loss1/ave_pool <- inception_4a/output_inception_4a/output_0_split_0
I1220 19:06:51.833621 31668 net.cpp:338] loss1/ave_pool -> loss1/ave_pool
I1220 19:06:51.833628 31668 net.cpp:113] Setting up loss1/ave_pool
I1220 19:06:51.833721 31668 net.cpp:120] Top shape: 80 512 4 4 (655360)
I1220 19:06:51.833730 31668 layer_factory.hpp:74] Creating layer loss1/conv
I1220 19:06:51.833761 31668 net.cpp:84] Creating Layer loss1/conv
I1220 19:06:51.833780 31668 net.cpp:380] loss1/conv <- loss1/ave_pool
I1220 19:06:51.833792 31668 net.cpp:338] loss1/conv -> loss1/conv
I1220 19:06:51.833803 31668 net.cpp:113] Setting up loss1/conv
I1220 19:06:51.835054 31668 net.cpp:120] Top shape: 80 128 4 4 (163840)
I1220 19:06:51.835075 31668 layer_factory.hpp:74] Creating layer loss1/relu_conv
I1220 19:06:51.835088 31668 net.cpp:84] Creating Layer loss1/relu_conv
I1220 19:06:51.835096 31668 net.cpp:380] loss1/relu_conv <- loss1/conv
I1220 19:06:51.835106 31668 net.cpp:327] loss1/relu_conv -> loss1/conv (in-place)
I1220 19:06:51.835115 31668 net.cpp:113] Setting up loss1/relu_conv
I1220 19:06:51.835221 31668 net.cpp:120] Top shape: 80 128 4 4 (163840)
I1220 19:06:51.835232 31668 layer_factory.hpp:74] Creating layer loss1/fc
I1220 19:06:51.835268 31668 net.cpp:84] Creating Layer loss1/fc
I1220 19:06:51.835273 31668 net.cpp:380] loss1/fc <- loss1/conv
I1220 19:06:51.835286 31668 net.cpp:338] loss1/fc -> loss1/fc
I1220 19:06:51.835304 31668 net.cpp:113] Setting up loss1/fc
I1220 19:06:52.196764 31668 net.cpp:120] Top shape: 80 1024 (81920)
I1220 19:06:52.196822 31668 layer_factory.hpp:74] Creating layer loss1/relu_fc
I1220 19:06:52.196835 31668 net.cpp:84] Creating Layer loss1/relu_fc
I1220 19:06:52.196844 31668 net.cpp:380] loss1/relu_fc <- loss1/fc
I1220 19:06:52.196858 31668 net.cpp:327] loss1/relu_fc -> loss1/fc (in-place)
I1220 19:06:52.196872 31668 net.cpp:113] Setting up loss1/relu_fc
I1220 19:06:52.201833 31668 net.cpp:120] Top shape: 80 1024 (81920)
I1220 19:06:52.201853 31668 layer_factory.hpp:74] Creating layer loss1/drop_fc
I1220 19:06:52.201890 31668 net.cpp:84] Creating Layer loss1/drop_fc
I1220 19:06:52.201897 31668 net.cpp:380] loss1/drop_fc <- loss1/fc
I1220 19:06:52.201905 31668 net.cpp:327] loss1/drop_fc -> loss1/fc (in-place)
I1220 19:06:52.201925 31668 net.cpp:113] Setting up loss1/drop_fc
I1220 19:06:52.201936 31668 net.cpp:120] Top shape: 80 1024 (81920)
I1220 19:06:52.201942 31668 layer_factory.hpp:74] Creating layer loss1/classifier_kaggle
I1220 19:06:52.201953 31668 net.cpp:84] Creating Layer loss1/classifier_kaggle
I1220 19:06:52.201958 31668 net.cpp:380] loss1/classifier_kaggle <- loss1/fc
I1220 19:06:52.201968 31668 net.cpp:338] loss1/classifier_kaggle -> loss1/classifier_kaggle
I1220 19:06:52.201980 31668 net.cpp:113] Setting up loss1/classifier_kaggle
I1220 19:06:52.207456 31668 net.cpp:120] Top shape: 80 447 (35760)
I1220 19:06:52.207473 31668 layer_factory.hpp:74] Creating layer loss1/loss
I1220 19:06:52.207483 31668 net.cpp:84] Creating Layer loss1/loss
I1220 19:06:52.207487 31668 net.cpp:380] loss1/loss <- loss1/classifier_kaggle
I1220 19:06:52.207494 31668 net.cpp:380] loss1/loss <- label_data_1_split_0
I1220 19:06:52.207504 31668 net.cpp:338] loss1/loss -> loss1/loss1
I1220 19:06:52.207514 31668 net.cpp:113] Setting up loss1/loss
I1220 19:06:52.207523 31668 layer_factory.hpp:74] Creating layer loss1/loss
I1220 19:06:52.207787 31668 net.cpp:120] Top shape: (1)
I1220 19:06:52.207798 31668 net.cpp:122]     with loss weight 0.3
I1220 19:06:52.207836 31668 layer_factory.hpp:74] Creating layer inception_4b/1x1
I1220 19:06:52.207854 31668 net.cpp:84] Creating Layer inception_4b/1x1
I1220 19:06:52.207860 31668 net.cpp:380] inception_4b/1x1 <- inception_4a/output_inception_4a/output_0_split_1
I1220 19:06:52.207871 31668 net.cpp:338] inception_4b/1x1 -> inception_4b/1x1
I1220 19:06:52.207881 31668 net.cpp:113] Setting up inception_4b/1x1
I1220 19:06:52.209489 31668 net.cpp:120] Top shape: 80 160 14 14 (2508800)
I1220 19:06:52.209508 31668 layer_factory.hpp:74] Creating layer inception_4b/relu_1x1
I1220 19:06:52.209527 31668 net.cpp:84] Creating Layer inception_4b/relu_1x1
I1220 19:06:52.209533 31668 net.cpp:380] inception_4b/relu_1x1 <- inception_4b/1x1
I1220 19:06:52.209543 31668 net.cpp:327] inception_4b/relu_1x1 -> inception_4b/1x1 (in-place)
I1220 19:06:52.209553 31668 net.cpp:113] Setting up inception_4b/relu_1x1
I1220 19:06:52.209632 31668 net.cpp:120] Top shape: 80 160 14 14 (2508800)
I1220 19:06:52.209648 31668 layer_factory.hpp:74] Creating layer inception_4b/3x3_reduce
I1220 19:06:52.209671 31668 net.cpp:84] Creating Layer inception_4b/3x3_reduce
I1220 19:06:52.209676 31668 net.cpp:380] inception_4b/3x3_reduce <- inception_4a/output_inception_4a/output_0_split_2
I1220 19:06:52.209687 31668 net.cpp:338] inception_4b/3x3_reduce -> inception_4b/3x3_reduce
I1220 19:06:52.209699 31668 net.cpp:113] Setting up inception_4b/3x3_reduce
I1220 19:06:52.210808 31668 net.cpp:120] Top shape: 80 112 14 14 (1756160)
I1220 19:06:52.210824 31668 layer_factory.hpp:74] Creating layer inception_4b/relu_3x3_reduce
I1220 19:06:52.210835 31668 net.cpp:84] Creating Layer inception_4b/relu_3x3_reduce
I1220 19:06:52.210841 31668 net.cpp:380] inception_4b/relu_3x3_reduce <- inception_4b/3x3_reduce
I1220 19:06:52.210849 31668 net.cpp:327] inception_4b/relu_3x3_reduce -> inception_4b/3x3_reduce (in-place)
I1220 19:06:52.210856 31668 net.cpp:113] Setting up inception_4b/relu_3x3_reduce
I1220 19:06:52.210933 31668 net.cpp:120] Top shape: 80 112 14 14 (1756160)
I1220 19:06:52.210949 31668 layer_factory.hpp:74] Creating layer inception_4b/3x3
I1220 19:06:52.210973 31668 net.cpp:84] Creating Layer inception_4b/3x3
I1220 19:06:52.210978 31668 net.cpp:380] inception_4b/3x3 <- inception_4b/3x3_reduce
I1220 19:06:52.210988 31668 net.cpp:338] inception_4b/3x3 -> inception_4b/3x3
I1220 19:06:52.210996 31668 net.cpp:113] Setting up inception_4b/3x3
I1220 19:06:52.214149 31668 net.cpp:120] Top shape: 80 224 14 14 (3512320)
I1220 19:06:52.214171 31668 layer_factory.hpp:74] Creating layer inception_4b/relu_3x3
I1220 19:06:52.214179 31668 net.cpp:84] Creating Layer inception_4b/relu_3x3
I1220 19:06:52.214185 31668 net.cpp:380] inception_4b/relu_3x3 <- inception_4b/3x3
I1220 19:06:52.214195 31668 net.cpp:327] inception_4b/relu_3x3 -> inception_4b/3x3 (in-place)
I1220 19:06:52.214202 31668 net.cpp:113] Setting up inception_4b/relu_3x3
I1220 19:06:52.214496 31668 net.cpp:120] Top shape: 80 224 14 14 (3512320)
I1220 19:06:52.214514 31668 layer_factory.hpp:74] Creating layer inception_4b/5x5_reduce
I1220 19:06:52.214524 31668 net.cpp:84] Creating Layer inception_4b/5x5_reduce
I1220 19:06:52.214530 31668 net.cpp:380] inception_4b/5x5_reduce <- inception_4a/output_inception_4a/output_0_split_3
I1220 19:06:52.214540 31668 net.cpp:338] inception_4b/5x5_reduce -> inception_4b/5x5_reduce
I1220 19:06:52.214548 31668 net.cpp:113] Setting up inception_4b/5x5_reduce
I1220 19:06:52.215134 31668 net.cpp:120] Top shape: 80 24 14 14 (376320)
I1220 19:06:52.215152 31668 layer_factory.hpp:74] Creating layer inception_4b/relu_5x5_reduce
I1220 19:06:52.215160 31668 net.cpp:84] Creating Layer inception_4b/relu_5x5_reduce
I1220 19:06:52.215167 31668 net.cpp:380] inception_4b/relu_5x5_reduce <- inception_4b/5x5_reduce
I1220 19:06:52.215173 31668 net.cpp:327] inception_4b/relu_5x5_reduce -> inception_4b/5x5_reduce (in-place)
I1220 19:06:52.215181 31668 net.cpp:113] Setting up inception_4b/relu_5x5_reduce
I1220 19:06:52.215255 31668 net.cpp:120] Top shape: 80 24 14 14 (376320)
I1220 19:06:52.215263 31668 layer_factory.hpp:74] Creating layer inception_4b/5x5
I1220 19:06:52.215284 31668 net.cpp:84] Creating Layer inception_4b/5x5
I1220 19:06:52.215291 31668 net.cpp:380] inception_4b/5x5 <- inception_4b/5x5_reduce
I1220 19:06:52.215297 31668 net.cpp:338] inception_4b/5x5 -> inception_4b/5x5
I1220 19:06:52.215306 31668 net.cpp:113] Setting up inception_4b/5x5
I1220 19:06:52.216207 31668 net.cpp:120] Top shape: 80 64 14 14 (1003520)
I1220 19:06:52.216231 31668 layer_factory.hpp:74] Creating layer inception_4b/relu_5x5
I1220 19:06:52.216243 31668 net.cpp:84] Creating Layer inception_4b/relu_5x5
I1220 19:06:52.216249 31668 net.cpp:380] inception_4b/relu_5x5 <- inception_4b/5x5
I1220 19:06:52.216256 31668 net.cpp:327] inception_4b/relu_5x5 -> inception_4b/5x5 (in-place)
I1220 19:06:52.216265 31668 net.cpp:113] Setting up inception_4b/relu_5x5
I1220 19:06:52.216342 31668 net.cpp:120] Top shape: 80 64 14 14 (1003520)
I1220 19:06:52.216349 31668 layer_factory.hpp:74] Creating layer inception_4b/pool
I1220 19:06:52.216364 31668 layer_factory.cpp:56] CUDNN does not support padding or multiple tops. Using Caffe's own pooling layer.
I1220 19:06:52.216382 31668 net.cpp:84] Creating Layer inception_4b/pool
I1220 19:06:52.216387 31668 net.cpp:380] inception_4b/pool <- inception_4a/output_inception_4a/output_0_split_4
I1220 19:06:52.216394 31668 net.cpp:338] inception_4b/pool -> inception_4b/pool
I1220 19:06:52.216418 31668 net.cpp:113] Setting up inception_4b/pool
I1220 19:06:52.216429 31668 net.cpp:120] Top shape: 80 512 14 14 (8028160)
I1220 19:06:52.216434 31668 layer_factory.hpp:74] Creating layer inception_4b/pool_proj
I1220 19:06:52.216451 31668 net.cpp:84] Creating Layer inception_4b/pool_proj
I1220 19:06:52.216457 31668 net.cpp:380] inception_4b/pool_proj <- inception_4b/pool
I1220 19:06:52.216466 31668 net.cpp:338] inception_4b/pool_proj -> inception_4b/pool_proj
I1220 19:06:52.216475 31668 net.cpp:113] Setting up inception_4b/pool_proj
I1220 19:06:52.217298 31668 net.cpp:120] Top shape: 80 64 14 14 (1003520)
I1220 19:06:52.217315 31668 layer_factory.hpp:74] Creating layer inception_4b/relu_pool_proj
I1220 19:06:52.217322 31668 net.cpp:84] Creating Layer inception_4b/relu_pool_proj
I1220 19:06:52.217329 31668 net.cpp:380] inception_4b/relu_pool_proj <- inception_4b/pool_proj
I1220 19:06:52.217335 31668 net.cpp:327] inception_4b/relu_pool_proj -> inception_4b/pool_proj (in-place)
I1220 19:06:52.217342 31668 net.cpp:113] Setting up inception_4b/relu_pool_proj
I1220 19:06:52.217594 31668 net.cpp:120] Top shape: 80 64 14 14 (1003520)
I1220 19:06:52.217617 31668 layer_factory.hpp:74] Creating layer inception_4b/output
I1220 19:06:52.217625 31668 net.cpp:84] Creating Layer inception_4b/output
I1220 19:06:52.217630 31668 net.cpp:380] inception_4b/output <- inception_4b/1x1
I1220 19:06:52.217638 31668 net.cpp:380] inception_4b/output <- inception_4b/3x3
I1220 19:06:52.217643 31668 net.cpp:380] inception_4b/output <- inception_4b/5x5
I1220 19:06:52.217648 31668 net.cpp:380] inception_4b/output <- inception_4b/pool_proj
I1220 19:06:52.217654 31668 net.cpp:338] inception_4b/output -> inception_4b/output
I1220 19:06:52.217664 31668 net.cpp:113] Setting up inception_4b/output
I1220 19:06:52.217672 31668 net.cpp:120] Top shape: 80 512 14 14 (8028160)
I1220 19:06:52.217677 31668 layer_factory.hpp:74] Creating layer inception_4b/output_inception_4b/output_0_split
I1220 19:06:52.217684 31668 net.cpp:84] Creating Layer inception_4b/output_inception_4b/output_0_split
I1220 19:06:52.217689 31668 net.cpp:380] inception_4b/output_inception_4b/output_0_split <- inception_4b/output
I1220 19:06:52.217697 31668 net.cpp:338] inception_4b/output_inception_4b/output_0_split -> inception_4b/output_inception_4b/output_0_split_0
I1220 19:06:52.217705 31668 net.cpp:338] inception_4b/output_inception_4b/output_0_split -> inception_4b/output_inception_4b/output_0_split_1
I1220 19:06:52.217712 31668 net.cpp:338] inception_4b/output_inception_4b/output_0_split -> inception_4b/output_inception_4b/output_0_split_2
I1220 19:06:52.217720 31668 net.cpp:338] inception_4b/output_inception_4b/output_0_split -> inception_4b/output_inception_4b/output_0_split_3
I1220 19:06:52.217730 31668 net.cpp:113] Setting up inception_4b/output_inception_4b/output_0_split
I1220 19:06:52.217737 31668 net.cpp:120] Top shape: 80 512 14 14 (8028160)
I1220 19:06:52.217742 31668 net.cpp:120] Top shape: 80 512 14 14 (8028160)
I1220 19:06:52.217748 31668 net.cpp:120] Top shape: 80 512 14 14 (8028160)
I1220 19:06:52.217753 31668 net.cpp:120] Top shape: 80 512 14 14 (8028160)
I1220 19:06:52.217757 31668 layer_factory.hpp:74] Creating layer inception_4c/1x1
I1220 19:06:52.217775 31668 net.cpp:84] Creating Layer inception_4c/1x1
I1220 19:06:52.217782 31668 net.cpp:380] inception_4c/1x1 <- inception_4b/output_inception_4b/output_0_split_0
I1220 19:06:52.217790 31668 net.cpp:338] inception_4c/1x1 -> inception_4c/1x1
I1220 19:06:52.217799 31668 net.cpp:113] Setting up inception_4c/1x1
I1220 19:06:52.219014 31668 net.cpp:120] Top shape: 80 128 14 14 (2007040)
I1220 19:06:52.219038 31668 layer_factory.hpp:74] Creating layer inception_4c/relu_1x1
I1220 19:06:52.219053 31668 net.cpp:84] Creating Layer inception_4c/relu_1x1
I1220 19:06:52.219059 31668 net.cpp:380] inception_4c/relu_1x1 <- inception_4c/1x1
I1220 19:06:52.219066 31668 net.cpp:327] inception_4c/relu_1x1 -> inception_4c/1x1 (in-place)
I1220 19:06:52.219074 31668 net.cpp:113] Setting up inception_4c/relu_1x1
I1220 19:06:52.219147 31668 net.cpp:120] Top shape: 80 128 14 14 (2007040)
I1220 19:06:52.219154 31668 layer_factory.hpp:74] Creating layer inception_4c/3x3_reduce
I1220 19:06:52.219173 31668 net.cpp:84] Creating Layer inception_4c/3x3_reduce
I1220 19:06:52.219179 31668 net.cpp:380] inception_4c/3x3_reduce <- inception_4b/output_inception_4b/output_0_split_1
I1220 19:06:52.219189 31668 net.cpp:338] inception_4c/3x3_reduce -> inception_4c/3x3_reduce
I1220 19:06:52.219198 31668 net.cpp:113] Setting up inception_4c/3x3_reduce
I1220 19:06:52.220386 31668 net.cpp:120] Top shape: 80 128 14 14 (2007040)
I1220 19:06:52.220402 31668 layer_factory.hpp:74] Creating layer inception_4c/relu_3x3_reduce
I1220 19:06:52.220408 31668 net.cpp:84] Creating Layer inception_4c/relu_3x3_reduce
I1220 19:06:52.220414 31668 net.cpp:380] inception_4c/relu_3x3_reduce <- inception_4c/3x3_reduce
I1220 19:06:52.220422 31668 net.cpp:327] inception_4c/relu_3x3_reduce -> inception_4c/3x3_reduce (in-place)
I1220 19:06:52.220429 31668 net.cpp:113] Setting up inception_4c/relu_3x3_reduce
I1220 19:06:52.220502 31668 net.cpp:120] Top shape: 80 128 14 14 (2007040)
I1220 19:06:52.220509 31668 layer_factory.hpp:74] Creating layer inception_4c/3x3
I1220 19:06:52.220525 31668 net.cpp:84] Creating Layer inception_4c/3x3
I1220 19:06:52.220531 31668 net.cpp:380] inception_4c/3x3 <- inception_4c/3x3_reduce
I1220 19:06:52.220541 31668 net.cpp:338] inception_4c/3x3 -> inception_4c/3x3
I1220 19:06:52.220549 31668 net.cpp:113] Setting up inception_4c/3x3
I1220 19:06:52.224483 31668 net.cpp:120] Top shape: 80 256 14 14 (4014080)
I1220 19:06:52.224515 31668 layer_factory.hpp:74] Creating layer inception_4c/relu_3x3
I1220 19:06:52.224524 31668 net.cpp:84] Creating Layer inception_4c/relu_3x3
I1220 19:06:52.224529 31668 net.cpp:380] inception_4c/relu_3x3 <- inception_4c/3x3
I1220 19:06:52.224536 31668 net.cpp:327] inception_4c/relu_3x3 -> inception_4c/3x3 (in-place)
I1220 19:06:52.224545 31668 net.cpp:113] Setting up inception_4c/relu_3x3
I1220 19:06:52.224617 31668 net.cpp:120] Top shape: 80 256 14 14 (4014080)
I1220 19:06:52.224624 31668 layer_factory.hpp:74] Creating layer inception_4c/5x5_reduce
I1220 19:06:52.224637 31668 net.cpp:84] Creating Layer inception_4c/5x5_reduce
I1220 19:06:52.224642 31668 net.cpp:380] inception_4c/5x5_reduce <- inception_4b/output_inception_4b/output_0_split_2
I1220 19:06:52.224653 31668 net.cpp:338] inception_4c/5x5_reduce -> inception_4c/5x5_reduce
I1220 19:06:52.224661 31668 net.cpp:113] Setting up inception_4c/5x5_reduce
I1220 19:06:52.225239 31668 net.cpp:120] Top shape: 80 24 14 14 (376320)
I1220 19:06:52.225265 31668 layer_factory.hpp:74] Creating layer inception_4c/relu_5x5_reduce
I1220 19:06:52.225281 31668 net.cpp:84] Creating Layer inception_4c/relu_5x5_reduce
I1220 19:06:52.225287 31668 net.cpp:380] inception_4c/relu_5x5_reduce <- inception_4c/5x5_reduce
I1220 19:06:52.225294 31668 net.cpp:327] inception_4c/relu_5x5_reduce -> inception_4c/5x5_reduce (in-place)
I1220 19:06:52.225302 31668 net.cpp:113] Setting up inception_4c/relu_5x5_reduce
I1220 19:06:52.225543 31668 net.cpp:120] Top shape: 80 24 14 14 (376320)
I1220 19:06:52.225554 31668 layer_factory.hpp:74] Creating layer inception_4c/5x5
I1220 19:06:52.225564 31668 net.cpp:84] Creating Layer inception_4c/5x5
I1220 19:06:52.225570 31668 net.cpp:380] inception_4c/5x5 <- inception_4c/5x5_reduce
I1220 19:06:52.225579 31668 net.cpp:338] inception_4c/5x5 -> inception_4c/5x5
I1220 19:06:52.225587 31668 net.cpp:113] Setting up inception_4c/5x5
I1220 19:06:52.226446 31668 net.cpp:120] Top shape: 80 64 14 14 (1003520)
I1220 19:06:52.226461 31668 layer_factory.hpp:74] Creating layer inception_4c/relu_5x5
I1220 19:06:52.226474 31668 net.cpp:84] Creating Layer inception_4c/relu_5x5
I1220 19:06:52.226486 31668 net.cpp:380] inception_4c/relu_5x5 <- inception_4c/5x5
I1220 19:06:52.226496 31668 net.cpp:327] inception_4c/relu_5x5 -> inception_4c/5x5 (in-place)
I1220 19:06:52.226505 31668 net.cpp:113] Setting up inception_4c/relu_5x5
I1220 19:06:52.226582 31668 net.cpp:120] Top shape: 80 64 14 14 (1003520)
I1220 19:06:52.226588 31668 layer_factory.hpp:74] Creating layer inception_4c/pool
I1220 19:06:52.226593 31668 layer_factory.cpp:56] CUDNN does not support padding or multiple tops. Using Caffe's own pooling layer.
I1220 19:06:52.226599 31668 net.cpp:84] Creating Layer inception_4c/pool
I1220 19:06:52.226604 31668 net.cpp:380] inception_4c/pool <- inception_4b/output_inception_4b/output_0_split_3
I1220 19:06:52.226611 31668 net.cpp:338] inception_4c/pool -> inception_4c/pool
I1220 19:06:52.226619 31668 net.cpp:113] Setting up inception_4c/pool
I1220 19:06:52.226627 31668 net.cpp:120] Top shape: 80 512 14 14 (8028160)
I1220 19:06:52.226641 31668 layer_factory.hpp:74] Creating layer inception_4c/pool_proj
I1220 19:06:52.226658 31668 net.cpp:84] Creating Layer inception_4c/pool_proj
I1220 19:06:52.226665 31668 net.cpp:380] inception_4c/pool_proj <- inception_4c/pool
I1220 19:06:52.226672 31668 net.cpp:338] inception_4c/pool_proj -> inception_4c/pool_proj
I1220 19:06:52.226681 31668 net.cpp:113] Setting up inception_4c/pool_proj
I1220 19:06:52.227499 31668 net.cpp:120] Top shape: 80 64 14 14 (1003520)
I1220 19:06:52.227515 31668 layer_factory.hpp:74] Creating layer inception_4c/relu_pool_proj
I1220 19:06:52.227522 31668 net.cpp:84] Creating Layer inception_4c/relu_pool_proj
I1220 19:06:52.227530 31668 net.cpp:380] inception_4c/relu_pool_proj <- inception_4c/pool_proj
I1220 19:06:52.227537 31668 net.cpp:327] inception_4c/relu_pool_proj -> inception_4c/pool_proj (in-place)
I1220 19:06:52.227545 31668 net.cpp:113] Setting up inception_4c/relu_pool_proj
I1220 19:06:52.227617 31668 net.cpp:120] Top shape: 80 64 14 14 (1003520)
I1220 19:06:52.227623 31668 layer_factory.hpp:74] Creating layer inception_4c/output
I1220 19:06:52.227632 31668 net.cpp:84] Creating Layer inception_4c/output
I1220 19:06:52.227637 31668 net.cpp:380] inception_4c/output <- inception_4c/1x1
I1220 19:06:52.227643 31668 net.cpp:380] inception_4c/output <- inception_4c/3x3
I1220 19:06:52.227648 31668 net.cpp:380] inception_4c/output <- inception_4c/5x5
I1220 19:06:52.227653 31668 net.cpp:380] inception_4c/output <- inception_4c/pool_proj
I1220 19:06:52.227659 31668 net.cpp:338] inception_4c/output -> inception_4c/output
I1220 19:06:52.227668 31668 net.cpp:113] Setting up inception_4c/output
I1220 19:06:52.227674 31668 net.cpp:120] Top shape: 80 512 14 14 (8028160)
I1220 19:06:52.227679 31668 layer_factory.hpp:74] Creating layer inception_4c/output_inception_4c/output_0_split
I1220 19:06:52.227687 31668 net.cpp:84] Creating Layer inception_4c/output_inception_4c/output_0_split
I1220 19:06:52.227692 31668 net.cpp:380] inception_4c/output_inception_4c/output_0_split <- inception_4c/output
I1220 19:06:52.227699 31668 net.cpp:338] inception_4c/output_inception_4c/output_0_split -> inception_4c/output_inception_4c/output_0_split_0
I1220 19:06:52.227706 31668 net.cpp:338] inception_4c/output_inception_4c/output_0_split -> inception_4c/output_inception_4c/output_0_split_1
I1220 19:06:52.227713 31668 net.cpp:338] inception_4c/output_inception_4c/output_0_split -> inception_4c/output_inception_4c/output_0_split_2
I1220 19:06:52.227720 31668 net.cpp:338] inception_4c/output_inception_4c/output_0_split -> inception_4c/output_inception_4c/output_0_split_3
I1220 19:06:52.227726 31668 net.cpp:113] Setting up inception_4c/output_inception_4c/output_0_split
I1220 19:06:52.227735 31668 net.cpp:120] Top shape: 80 512 14 14 (8028160)
I1220 19:06:52.227740 31668 net.cpp:120] Top shape: 80 512 14 14 (8028160)
I1220 19:06:52.227744 31668 net.cpp:120] Top shape: 80 512 14 14 (8028160)
I1220 19:06:52.227749 31668 net.cpp:120] Top shape: 80 512 14 14 (8028160)
I1220 19:06:52.227759 31668 layer_factory.hpp:74] Creating layer inception_4d/1x1
I1220 19:06:52.227787 31668 net.cpp:84] Creating Layer inception_4d/1x1
I1220 19:06:52.227792 31668 net.cpp:380] inception_4d/1x1 <- inception_4c/output_inception_4c/output_0_split_0
I1220 19:06:52.227802 31668 net.cpp:338] inception_4d/1x1 -> inception_4d/1x1
I1220 19:06:52.227810 31668 net.cpp:113] Setting up inception_4d/1x1
I1220 19:06:52.228906 31668 net.cpp:120] Top shape: 80 112 14 14 (1756160)
I1220 19:06:52.228934 31668 layer_factory.hpp:74] Creating layer inception_4d/relu_1x1
I1220 19:06:52.228945 31668 net.cpp:84] Creating Layer inception_4d/relu_1x1
I1220 19:06:52.228950 31668 net.cpp:380] inception_4d/relu_1x1 <- inception_4d/1x1
I1220 19:06:52.228957 31668 net.cpp:327] inception_4d/relu_1x1 -> inception_4d/1x1 (in-place)
I1220 19:06:52.228965 31668 net.cpp:113] Setting up inception_4d/relu_1x1
I1220 19:06:52.229038 31668 net.cpp:120] Top shape: 80 112 14 14 (1756160)
I1220 19:06:52.229043 31668 layer_factory.hpp:74] Creating layer inception_4d/3x3_reduce
I1220 19:06:52.229061 31668 net.cpp:84] Creating Layer inception_4d/3x3_reduce
I1220 19:06:52.229068 31668 net.cpp:380] inception_4d/3x3_reduce <- inception_4c/output_inception_4c/output_0_split_1
I1220 19:06:52.229079 31668 net.cpp:338] inception_4d/3x3_reduce -> inception_4d/3x3_reduce
I1220 19:06:52.229089 31668 net.cpp:113] Setting up inception_4d/3x3_reduce
I1220 19:06:52.230366 31668 net.cpp:120] Top shape: 80 144 14 14 (2257920)
I1220 19:06:52.230382 31668 layer_factory.hpp:74] Creating layer inception_4d/relu_3x3_reduce
I1220 19:06:52.230401 31668 net.cpp:84] Creating Layer inception_4d/relu_3x3_reduce
I1220 19:06:52.230407 31668 net.cpp:380] inception_4d/relu_3x3_reduce <- inception_4d/3x3_reduce
I1220 19:06:52.230414 31668 net.cpp:327] inception_4d/relu_3x3_reduce -> inception_4d/3x3_reduce (in-place)
I1220 19:06:52.230422 31668 net.cpp:113] Setting up inception_4d/relu_3x3_reduce
I1220 19:06:52.230662 31668 net.cpp:120] Top shape: 80 144 14 14 (2257920)
I1220 19:06:52.230677 31668 layer_factory.hpp:74] Creating layer inception_4d/3x3
I1220 19:06:52.230687 31668 net.cpp:84] Creating Layer inception_4d/3x3
I1220 19:06:52.230693 31668 net.cpp:380] inception_4d/3x3 <- inception_4d/3x3_reduce
I1220 19:06:52.230701 31668 net.cpp:338] inception_4d/3x3 -> inception_4d/3x3
I1220 19:06:52.230710 31668 net.cpp:113] Setting up inception_4d/3x3
I1220 19:06:52.235501 31668 net.cpp:120] Top shape: 80 288 14 14 (4515840)
I1220 19:06:52.235528 31668 layer_factory.hpp:74] Creating layer inception_4d/relu_3x3
I1220 19:06:52.235537 31668 net.cpp:84] Creating Layer inception_4d/relu_3x3
I1220 19:06:52.235543 31668 net.cpp:380] inception_4d/relu_3x3 <- inception_4d/3x3
I1220 19:06:52.235553 31668 net.cpp:327] inception_4d/relu_3x3 -> inception_4d/3x3 (in-place)
I1220 19:06:52.235563 31668 net.cpp:113] Setting up inception_4d/relu_3x3
I1220 19:06:52.235636 31668 net.cpp:120] Top shape: 80 288 14 14 (4515840)
I1220 19:06:52.235643 31668 layer_factory.hpp:74] Creating layer inception_4d/5x5_reduce
I1220 19:06:52.235653 31668 net.cpp:84] Creating Layer inception_4d/5x5_reduce
I1220 19:06:52.235658 31668 net.cpp:380] inception_4d/5x5_reduce <- inception_4c/output_inception_4c/output_0_split_2
I1220 19:06:52.235668 31668 net.cpp:338] inception_4d/5x5_reduce -> inception_4d/5x5_reduce
I1220 19:06:52.235677 31668 net.cpp:113] Setting up inception_4d/5x5_reduce
I1220 19:06:52.236269 31668 net.cpp:120] Top shape: 80 32 14 14 (501760)
I1220 19:06:52.236285 31668 layer_factory.hpp:74] Creating layer inception_4d/relu_5x5_reduce
I1220 19:06:52.236305 31668 net.cpp:84] Creating Layer inception_4d/relu_5x5_reduce
I1220 19:06:52.236311 31668 net.cpp:380] inception_4d/relu_5x5_reduce <- inception_4d/5x5_reduce
I1220 19:06:52.236320 31668 net.cpp:327] inception_4d/relu_5x5_reduce -> inception_4d/5x5_reduce (in-place)
I1220 19:06:52.236330 31668 net.cpp:113] Setting up inception_4d/relu_5x5_reduce
I1220 19:06:52.236402 31668 net.cpp:120] Top shape: 80 32 14 14 (501760)
I1220 19:06:52.236409 31668 layer_factory.hpp:74] Creating layer inception_4d/5x5
I1220 19:06:52.236430 31668 net.cpp:84] Creating Layer inception_4d/5x5
I1220 19:06:52.236436 31668 net.cpp:380] inception_4d/5x5 <- inception_4d/5x5_reduce
I1220 19:06:52.236444 31668 net.cpp:338] inception_4d/5x5 -> inception_4d/5x5
I1220 19:06:52.236452 31668 net.cpp:113] Setting up inception_4d/5x5
I1220 19:06:52.237490 31668 net.cpp:120] Top shape: 80 64 14 14 (1003520)
I1220 19:06:52.237507 31668 layer_factory.hpp:74] Creating layer inception_4d/relu_5x5
I1220 19:06:52.237515 31668 net.cpp:84] Creating Layer inception_4d/relu_5x5
I1220 19:06:52.237520 31668 net.cpp:380] inception_4d/relu_5x5 <- inception_4d/5x5
I1220 19:06:52.237529 31668 net.cpp:327] inception_4d/relu_5x5 -> inception_4d/5x5 (in-place)
I1220 19:06:52.237537 31668 net.cpp:113] Setting up inception_4d/relu_5x5
I1220 19:06:52.237610 31668 net.cpp:120] Top shape: 80 64 14 14 (1003520)
I1220 19:06:52.237627 31668 layer_factory.hpp:74] Creating layer inception_4d/pool
I1220 19:06:52.237642 31668 layer_factory.cpp:56] CUDNN does not support padding or multiple tops. Using Caffe's own pooling layer.
I1220 19:06:52.237648 31668 net.cpp:84] Creating Layer inception_4d/pool
I1220 19:06:52.237653 31668 net.cpp:380] inception_4d/pool <- inception_4c/output_inception_4c/output_0_split_3
I1220 19:06:52.237660 31668 net.cpp:338] inception_4d/pool -> inception_4d/pool
I1220 19:06:52.237668 31668 net.cpp:113] Setting up inception_4d/pool
I1220 19:06:52.237678 31668 net.cpp:120] Top shape: 80 512 14 14 (8028160)
I1220 19:06:52.237682 31668 layer_factory.hpp:74] Creating layer inception_4d/pool_proj
I1220 19:06:52.237694 31668 net.cpp:84] Creating Layer inception_4d/pool_proj
I1220 19:06:52.237699 31668 net.cpp:380] inception_4d/pool_proj <- inception_4d/pool
I1220 19:06:52.237707 31668 net.cpp:338] inception_4d/pool_proj -> inception_4d/pool_proj
I1220 19:06:52.237716 31668 net.cpp:113] Setting up inception_4d/pool_proj
I1220 19:06:52.238522 31668 net.cpp:120] Top shape: 80 64 14 14 (1003520)
I1220 19:06:52.238538 31668 layer_factory.hpp:74] Creating layer inception_4d/relu_pool_proj
I1220 19:06:52.238548 31668 net.cpp:84] Creating Layer inception_4d/relu_pool_proj
I1220 19:06:52.238554 31668 net.cpp:380] inception_4d/relu_pool_proj <- inception_4d/pool_proj
I1220 19:06:52.238560 31668 net.cpp:327] inception_4d/relu_pool_proj -> inception_4d/pool_proj (in-place)
I1220 19:06:52.238569 31668 net.cpp:113] Setting up inception_4d/relu_pool_proj
I1220 19:06:52.238806 31668 net.cpp:120] Top shape: 80 64 14 14 (1003520)
I1220 19:06:52.238817 31668 layer_factory.hpp:74] Creating layer inception_4d/output
I1220 19:06:52.238834 31668 net.cpp:84] Creating Layer inception_4d/output
I1220 19:06:52.238840 31668 net.cpp:380] inception_4d/output <- inception_4d/1x1
I1220 19:06:52.238847 31668 net.cpp:380] inception_4d/output <- inception_4d/3x3
I1220 19:06:52.238853 31668 net.cpp:380] inception_4d/output <- inception_4d/5x5
I1220 19:06:52.238858 31668 net.cpp:380] inception_4d/output <- inception_4d/pool_proj
I1220 19:06:52.238867 31668 net.cpp:338] inception_4d/output -> inception_4d/output
I1220 19:06:52.238875 31668 net.cpp:113] Setting up inception_4d/output
I1220 19:06:52.238883 31668 net.cpp:120] Top shape: 80 528 14 14 (8279040)
I1220 19:06:52.238888 31668 layer_factory.hpp:74] Creating layer inception_4d/output_inception_4d/output_0_split
I1220 19:06:52.238903 31668 net.cpp:84] Creating Layer inception_4d/output_inception_4d/output_0_split
I1220 19:06:52.238909 31668 net.cpp:380] inception_4d/output_inception_4d/output_0_split <- inception_4d/output
I1220 19:06:52.238915 31668 net.cpp:338] inception_4d/output_inception_4d/output_0_split -> inception_4d/output_inception_4d/output_0_split_0
I1220 19:06:52.238924 31668 net.cpp:338] inception_4d/output_inception_4d/output_0_split -> inception_4d/output_inception_4d/output_0_split_1
I1220 19:06:52.238932 31668 net.cpp:338] inception_4d/output_inception_4d/output_0_split -> inception_4d/output_inception_4d/output_0_split_2
I1220 19:06:52.238940 31668 net.cpp:338] inception_4d/output_inception_4d/output_0_split -> inception_4d/output_inception_4d/output_0_split_3
I1220 19:06:52.238960 31668 net.cpp:338] inception_4d/output_inception_4d/output_0_split -> inception_4d/output_inception_4d/output_0_split_4
I1220 19:06:52.238966 31668 net.cpp:113] Setting up inception_4d/output_inception_4d/output_0_split
I1220 19:06:52.238976 31668 net.cpp:120] Top shape: 80 528 14 14 (8279040)
I1220 19:06:52.238981 31668 net.cpp:120] Top shape: 80 528 14 14 (8279040)
I1220 19:06:52.238986 31668 net.cpp:120] Top shape: 80 528 14 14 (8279040)
I1220 19:06:52.238991 31668 net.cpp:120] Top shape: 80 528 14 14 (8279040)
I1220 19:06:52.238998 31668 net.cpp:120] Top shape: 80 528 14 14 (8279040)
I1220 19:06:52.239003 31668 layer_factory.hpp:74] Creating layer loss2/ave_pool
I1220 19:06:52.239014 31668 net.cpp:84] Creating Layer loss2/ave_pool
I1220 19:06:52.239019 31668 net.cpp:380] loss2/ave_pool <- inception_4d/output_inception_4d/output_0_split_0
I1220 19:06:52.239027 31668 net.cpp:338] loss2/ave_pool -> loss2/ave_pool
I1220 19:06:52.239034 31668 net.cpp:113] Setting up loss2/ave_pool
I1220 19:06:52.239109 31668 net.cpp:120] Top shape: 80 528 4 4 (675840)
I1220 19:06:52.239115 31668 layer_factory.hpp:74] Creating layer loss2/conv
I1220 19:06:52.239125 31668 net.cpp:84] Creating Layer loss2/conv
I1220 19:06:52.239131 31668 net.cpp:380] loss2/conv <- loss2/ave_pool
I1220 19:06:52.239138 31668 net.cpp:338] loss2/conv -> loss2/conv
I1220 19:06:52.239146 31668 net.cpp:113] Setting up loss2/conv
I1220 19:06:52.240389 31668 net.cpp:120] Top shape: 80 128 4 4 (163840)
I1220 19:06:52.240408 31668 layer_factory.hpp:74] Creating layer loss2/relu_conv
I1220 19:06:52.240417 31668 net.cpp:84] Creating Layer loss2/relu_conv
I1220 19:06:52.240422 31668 net.cpp:380] loss2/relu_conv <- loss2/conv
I1220 19:06:52.240430 31668 net.cpp:327] loss2/relu_conv -> loss2/conv (in-place)
I1220 19:06:52.240438 31668 net.cpp:113] Setting up loss2/relu_conv
I1220 19:06:52.240509 31668 net.cpp:120] Top shape: 80 128 4 4 (163840)
I1220 19:06:52.240517 31668 layer_factory.hpp:74] Creating layer loss2/fc
I1220 19:06:52.240537 31668 net.cpp:84] Creating Layer loss2/fc
I1220 19:06:52.240543 31668 net.cpp:380] loss2/fc <- loss2/conv
I1220 19:06:52.240552 31668 net.cpp:338] loss2/fc -> loss2/fc
I1220 19:06:52.240561 31668 net.cpp:113] Setting up loss2/fc
I1220 19:06:52.721477 31668 net.cpp:120] Top shape: 80 1024 (81920)
I1220 19:06:52.721575 31668 layer_factory.hpp:74] Creating layer loss2/relu_fc
I1220 19:06:52.721604 31668 net.cpp:84] Creating Layer loss2/relu_fc
I1220 19:06:52.721637 31668 net.cpp:380] loss2/relu_fc <- loss2/fc
I1220 19:06:52.721657 31668 net.cpp:327] loss2/relu_fc -> loss2/fc (in-place)
I1220 19:06:52.721674 31668 net.cpp:113] Setting up loss2/relu_fc
I1220 19:06:52.724095 31668 net.cpp:120] Top shape: 80 1024 (81920)
I1220 19:06:52.724154 31668 layer_factory.hpp:74] Creating layer loss2/drop_fc
I1220 19:06:52.724179 31668 net.cpp:84] Creating Layer loss2/drop_fc
I1220 19:06:52.724192 31668 net.cpp:380] loss2/drop_fc <- loss2/fc
I1220 19:06:52.724208 31668 net.cpp:327] loss2/drop_fc -> loss2/fc (in-place)
I1220 19:06:52.724226 31668 net.cpp:113] Setting up loss2/drop_fc
I1220 19:06:52.724284 31668 net.cpp:120] Top shape: 80 1024 (81920)
I1220 19:06:52.724294 31668 layer_factory.hpp:74] Creating layer loss2/classifier_kaggle
I1220 19:06:52.724313 31668 net.cpp:84] Creating Layer loss2/classifier_kaggle
I1220 19:06:52.724323 31668 net.cpp:380] loss2/classifier_kaggle <- loss2/fc
I1220 19:06:52.724344 31668 net.cpp:338] loss2/classifier_kaggle -> loss2/classifier_kaggle
I1220 19:06:52.724391 31668 net.cpp:113] Setting up loss2/classifier_kaggle
I1220 19:06:52.730849 31668 net.cpp:120] Top shape: 80 447 (35760)
I1220 19:06:52.730906 31668 layer_factory.hpp:74] Creating layer loss2/loss
I1220 19:06:52.730938 31668 net.cpp:84] Creating Layer loss2/loss
I1220 19:06:52.730952 31668 net.cpp:380] loss2/loss <- loss2/classifier_kaggle
I1220 19:06:52.730967 31668 net.cpp:380] loss2/loss <- label_data_1_split_1
I1220 19:06:52.730980 31668 net.cpp:338] loss2/loss -> loss2/loss1
I1220 19:06:52.731014 31668 net.cpp:113] Setting up loss2/loss
I1220 19:06:52.731043 31668 layer_factory.hpp:74] Creating layer loss2/loss
I1220 19:06:52.731416 31668 net.cpp:120] Top shape: (1)
I1220 19:06:52.731431 31668 net.cpp:122]     with loss weight 0.3
I1220 19:06:52.731456 31668 layer_factory.hpp:74] Creating layer inception_4e/1x1
I1220 19:06:52.731477 31668 net.cpp:84] Creating Layer inception_4e/1x1
I1220 19:06:52.731513 31668 net.cpp:380] inception_4e/1x1 <- inception_4d/output_inception_4d/output_0_split_1
I1220 19:06:52.731561 31668 net.cpp:338] inception_4e/1x1 -> inception_4e/1x1
I1220 19:06:52.731578 31668 net.cpp:113] Setting up inception_4e/1x1
I1220 19:06:52.741128 31668 net.cpp:120] Top shape: 80 256 14 14 (4014080)
I1220 19:06:52.741207 31668 layer_factory.hpp:74] Creating layer inception_4e/relu_1x1
I1220 19:06:52.741230 31668 net.cpp:84] Creating Layer inception_4e/relu_1x1
I1220 19:06:52.741243 31668 net.cpp:380] inception_4e/relu_1x1 <- inception_4e/1x1
I1220 19:06:52.741260 31668 net.cpp:327] inception_4e/relu_1x1 -> inception_4e/1x1 (in-place)
I1220 19:06:52.741277 31668 net.cpp:113] Setting up inception_4e/relu_1x1
I1220 19:06:52.741401 31668 net.cpp:120] Top shape: 80 256 14 14 (4014080)
I1220 19:06:52.741412 31668 layer_factory.hpp:74] Creating layer inception_4e/3x3_reduce
I1220 19:06:52.741430 31668 net.cpp:84] Creating Layer inception_4e/3x3_reduce
I1220 19:06:52.741438 31668 net.cpp:380] inception_4e/3x3_reduce <- inception_4d/output_inception_4d/output_0_split_2
I1220 19:06:52.741453 31668 net.cpp:338] inception_4e/3x3_reduce -> inception_4e/3x3_reduce
I1220 19:06:52.741472 31668 net.cpp:113] Setting up inception_4e/3x3_reduce
I1220 19:06:52.747942 31668 net.cpp:120] Top shape: 80 160 14 14 (2508800)
I1220 19:06:52.748002 31668 layer_factory.hpp:74] Creating layer inception_4e/relu_3x3_reduce
I1220 19:06:52.748023 31668 net.cpp:84] Creating Layer inception_4e/relu_3x3_reduce
I1220 19:06:52.748035 31668 net.cpp:380] inception_4e/relu_3x3_reduce <- inception_4e/3x3_reduce
I1220 19:06:52.748057 31668 net.cpp:327] inception_4e/relu_3x3_reduce -> inception_4e/3x3_reduce (in-place)
I1220 19:06:52.748075 31668 net.cpp:113] Setting up inception_4e/relu_3x3_reduce
I1220 19:06:52.748185 31668 net.cpp:120] Top shape: 80 160 14 14 (2508800)
I1220 19:06:52.748196 31668 layer_factory.hpp:74] Creating layer inception_4e/3x3
I1220 19:06:52.748216 31668 net.cpp:84] Creating Layer inception_4e/3x3
I1220 19:06:52.748224 31668 net.cpp:380] inception_4e/3x3 <- inception_4e/3x3_reduce
I1220 19:06:52.748240 31668 net.cpp:338] inception_4e/3x3 -> inception_4e/3x3
I1220 19:06:52.748296 31668 net.cpp:113] Setting up inception_4e/3x3
I1220 19:06:52.755910 31668 net.cpp:120] Top shape: 80 320 14 14 (5017600)
I1220 19:06:52.756003 31668 layer_factory.hpp:74] Creating layer inception_4e/relu_3x3
I1220 19:06:52.756028 31668 net.cpp:84] Creating Layer inception_4e/relu_3x3
I1220 19:06:52.756044 31668 net.cpp:380] inception_4e/relu_3x3 <- inception_4e/3x3
I1220 19:06:52.756070 31668 net.cpp:327] inception_4e/relu_3x3 -> inception_4e/3x3 (in-place)
I1220 19:06:52.756094 31668 net.cpp:113] Setting up inception_4e/relu_3x3
I1220 19:06:52.756472 31668 net.cpp:120] Top shape: 80 320 14 14 (5017600)
I1220 19:06:52.756491 31668 layer_factory.hpp:74] Creating layer inception_4e/5x5_reduce
I1220 19:06:52.756511 31668 net.cpp:84] Creating Layer inception_4e/5x5_reduce
I1220 19:06:52.756523 31668 net.cpp:380] inception_4e/5x5_reduce <- inception_4d/output_inception_4d/output_0_split_3
I1220 19:06:52.756542 31668 net.cpp:338] inception_4e/5x5_reduce -> inception_4e/5x5_reduce
I1220 19:06:52.756564 31668 net.cpp:113] Setting up inception_4e/5x5_reduce
I1220 19:06:52.758219 31668 net.cpp:120] Top shape: 80 32 14 14 (501760)
I1220 19:06:52.758275 31668 layer_factory.hpp:74] Creating layer inception_4e/relu_5x5_reduce
I1220 19:06:52.758301 31668 net.cpp:84] Creating Layer inception_4e/relu_5x5_reduce
I1220 19:06:52.758313 31668 net.cpp:380] inception_4e/relu_5x5_reduce <- inception_4e/5x5_reduce
I1220 19:06:52.758338 31668 net.cpp:327] inception_4e/relu_5x5_reduce -> inception_4e/5x5_reduce (in-place)
I1220 19:06:52.758370 31668 net.cpp:113] Setting up inception_4e/relu_5x5_reduce
I1220 19:06:52.758493 31668 net.cpp:120] Top shape: 80 32 14 14 (501760)
I1220 19:06:52.758504 31668 layer_factory.hpp:74] Creating layer inception_4e/5x5
I1220 19:06:52.758661 31668 net.cpp:84] Creating Layer inception_4e/5x5
I1220 19:06:52.758671 31668 net.cpp:380] inception_4e/5x5 <- inception_4e/5x5_reduce
I1220 19:06:52.758687 31668 net.cpp:338] inception_4e/5x5 -> inception_4e/5x5
I1220 19:06:52.758702 31668 net.cpp:113] Setting up inception_4e/5x5
I1220 19:06:52.761135 31668 net.cpp:120] Top shape: 80 128 14 14 (2007040)
I1220 19:06:52.761163 31668 layer_factory.hpp:74] Creating layer inception_4e/relu_5x5
I1220 19:06:52.761178 31668 net.cpp:84] Creating Layer inception_4e/relu_5x5
I1220 19:06:52.761186 31668 net.cpp:380] inception_4e/relu_5x5 <- inception_4e/5x5
I1220 19:06:52.761198 31668 net.cpp:327] inception_4e/relu_5x5 -> inception_4e/5x5 (in-place)
I1220 19:06:52.761211 31668 net.cpp:113] Setting up inception_4e/relu_5x5
I1220 19:06:52.761333 31668 net.cpp:120] Top shape: 80 128 14 14 (2007040)
I1220 19:06:52.761344 31668 layer_factory.hpp:74] Creating layer inception_4e/pool
I1220 19:06:52.761354 31668 layer_factory.cpp:56] CUDNN does not support padding or multiple tops. Using Caffe's own pooling layer.
I1220 19:06:52.761363 31668 net.cpp:84] Creating Layer inception_4e/pool
I1220 19:06:52.761371 31668 net.cpp:380] inception_4e/pool <- inception_4d/output_inception_4d/output_0_split_4
I1220 19:06:52.761381 31668 net.cpp:338] inception_4e/pool -> inception_4e/pool
I1220 19:06:52.761394 31668 net.cpp:113] Setting up inception_4e/pool
I1220 19:06:52.761406 31668 net.cpp:120] Top shape: 80 528 14 14 (8279040)
I1220 19:06:52.761414 31668 layer_factory.hpp:74] Creating layer inception_4e/pool_proj
I1220 19:06:52.761435 31668 net.cpp:84] Creating Layer inception_4e/pool_proj
I1220 19:06:52.761442 31668 net.cpp:380] inception_4e/pool_proj <- inception_4e/pool
I1220 19:06:52.761454 31668 net.cpp:338] inception_4e/pool_proj -> inception_4e/pool_proj
I1220 19:06:52.761468 31668 net.cpp:113] Setting up inception_4e/pool_proj
I1220 19:06:52.770326 31668 net.cpp:120] Top shape: 80 128 14 14 (2007040)
I1220 19:06:52.770362 31668 layer_factory.hpp:74] Creating layer inception_4e/relu_pool_proj
I1220 19:06:52.770380 31668 net.cpp:84] Creating Layer inception_4e/relu_pool_proj
I1220 19:06:52.770392 31668 net.cpp:380] inception_4e/relu_pool_proj <- inception_4e/pool_proj
I1220 19:06:52.770403 31668 net.cpp:327] inception_4e/relu_pool_proj -> inception_4e/pool_proj (in-place)
I1220 19:06:52.770416 31668 net.cpp:113] Setting up inception_4e/relu_pool_proj
I1220 19:06:52.770556 31668 net.cpp:120] Top shape: 80 128 14 14 (2007040)
I1220 19:06:52.770567 31668 layer_factory.hpp:74] Creating layer inception_4e/output
I1220 19:06:52.770586 31668 net.cpp:84] Creating Layer inception_4e/output
I1220 19:06:52.770592 31668 net.cpp:380] inception_4e/output <- inception_4e/1x1
I1220 19:06:52.770602 31668 net.cpp:380] inception_4e/output <- inception_4e/3x3
I1220 19:06:52.770611 31668 net.cpp:380] inception_4e/output <- inception_4e/5x5
I1220 19:06:52.770618 31668 net.cpp:380] inception_4e/output <- inception_4e/pool_proj
I1220 19:06:52.770627 31668 net.cpp:338] inception_4e/output -> inception_4e/output
I1220 19:06:52.770639 31668 net.cpp:113] Setting up inception_4e/output
I1220 19:06:52.770651 31668 net.cpp:120] Top shape: 80 832 14 14 (13045760)
I1220 19:06:52.770659 31668 layer_factory.hpp:74] Creating layer pool4/3x3_s2
I1220 19:06:52.770673 31668 net.cpp:84] Creating Layer pool4/3x3_s2
I1220 19:06:52.770681 31668 net.cpp:380] pool4/3x3_s2 <- inception_4e/output
I1220 19:06:52.770690 31668 net.cpp:338] pool4/3x3_s2 -> pool4/3x3_s2
I1220 19:06:52.770704 31668 net.cpp:113] Setting up pool4/3x3_s2
I1220 19:06:52.774699 31668 net.cpp:120] Top shape: 80 832 7 7 (3261440)
I1220 19:06:52.774725 31668 layer_factory.hpp:74] Creating layer pool4/3x3_s2_pool4/3x3_s2_0_split
I1220 19:06:52.774755 31668 net.cpp:84] Creating Layer pool4/3x3_s2_pool4/3x3_s2_0_split
I1220 19:06:52.774778 31668 net.cpp:380] pool4/3x3_s2_pool4/3x3_s2_0_split <- pool4/3x3_s2
I1220 19:06:52.774796 31668 net.cpp:338] pool4/3x3_s2_pool4/3x3_s2_0_split -> pool4/3x3_s2_pool4/3x3_s2_0_split_0
I1220 19:06:52.774812 31668 net.cpp:338] pool4/3x3_s2_pool4/3x3_s2_0_split -> pool4/3x3_s2_pool4/3x3_s2_0_split_1
I1220 19:06:52.774827 31668 net.cpp:338] pool4/3x3_s2_pool4/3x3_s2_0_split -> pool4/3x3_s2_pool4/3x3_s2_0_split_2
I1220 19:06:52.774837 31668 net.cpp:338] pool4/3x3_s2_pool4/3x3_s2_0_split -> pool4/3x3_s2_pool4/3x3_s2_0_split_3
I1220 19:06:52.774845 31668 net.cpp:113] Setting up pool4/3x3_s2_pool4/3x3_s2_0_split
I1220 19:06:52.774858 31668 net.cpp:120] Top shape: 80 832 7 7 (3261440)
I1220 19:06:52.774868 31668 net.cpp:120] Top shape: 80 832 7 7 (3261440)
I1220 19:06:52.774876 31668 net.cpp:120] Top shape: 80 832 7 7 (3261440)
I1220 19:06:52.774883 31668 net.cpp:120] Top shape: 80 832 7 7 (3261440)
I1220 19:06:52.774890 31668 layer_factory.hpp:74] Creating layer inception_5a/1x1
I1220 19:06:52.774906 31668 net.cpp:84] Creating Layer inception_5a/1x1
I1220 19:06:52.774916 31668 net.cpp:380] inception_5a/1x1 <- pool4/3x3_s2_pool4/3x3_s2_0_split_0
I1220 19:06:52.774927 31668 net.cpp:338] inception_5a/1x1 -> inception_5a/1x1
I1220 19:06:52.774940 31668 net.cpp:113] Setting up inception_5a/1x1
I1220 19:06:52.782269 31668 net.cpp:120] Top shape: 80 256 7 7 (1003520)
I1220 19:06:52.782305 31668 layer_factory.hpp:74] Creating layer inception_5a/relu_1x1
I1220 19:06:52.782327 31668 net.cpp:84] Creating Layer inception_5a/relu_1x1
I1220 19:06:52.782336 31668 net.cpp:380] inception_5a/relu_1x1 <- inception_5a/1x1
I1220 19:06:52.782347 31668 net.cpp:327] inception_5a/relu_1x1 -> inception_5a/1x1 (in-place)
I1220 19:06:52.782361 31668 net.cpp:113] Setting up inception_5a/relu_1x1
I1220 19:06:52.782476 31668 net.cpp:120] Top shape: 80 256 7 7 (1003520)
I1220 19:06:52.782490 31668 layer_factory.hpp:74] Creating layer inception_5a/3x3_reduce
I1220 19:06:52.782507 31668 net.cpp:84] Creating Layer inception_5a/3x3_reduce
I1220 19:06:52.782516 31668 net.cpp:380] inception_5a/3x3_reduce <- pool4/3x3_s2_pool4/3x3_s2_0_split_1
I1220 19:06:52.782529 31668 net.cpp:338] inception_5a/3x3_reduce -> inception_5a/3x3_reduce
I1220 19:06:52.782546 31668 net.cpp:113] Setting up inception_5a/3x3_reduce
I1220 19:06:52.785552 31668 net.cpp:120] Top shape: 80 160 7 7 (627200)
I1220 19:06:52.785579 31668 layer_factory.hpp:74] Creating layer inception_5a/relu_3x3_reduce
I1220 19:06:52.785590 31668 net.cpp:84] Creating Layer inception_5a/relu_3x3_reduce
I1220 19:06:52.785598 31668 net.cpp:380] inception_5a/relu_3x3_reduce <- inception_5a/3x3_reduce
I1220 19:06:52.785614 31668 net.cpp:327] inception_5a/relu_3x3_reduce -> inception_5a/3x3_reduce (in-place)
I1220 19:06:52.785625 31668 net.cpp:113] Setting up inception_5a/relu_3x3_reduce
I1220 19:06:52.785737 31668 net.cpp:120] Top shape: 80 160 7 7 (627200)
I1220 19:06:52.785745 31668 layer_factory.hpp:74] Creating layer inception_5a/3x3
I1220 19:06:52.785760 31668 net.cpp:84] Creating Layer inception_5a/3x3
I1220 19:06:52.785769 31668 net.cpp:380] inception_5a/3x3 <- inception_5a/3x3_reduce
I1220 19:06:52.785783 31668 net.cpp:338] inception_5a/3x3 -> inception_5a/3x3
I1220 19:06:52.785795 31668 net.cpp:113] Setting up inception_5a/3x3
I1220 19:06:52.800863 31668 net.cpp:120] Top shape: 80 320 7 7 (1254400)
I1220 19:06:52.800907 31668 layer_factory.hpp:74] Creating layer inception_5a/relu_3x3
I1220 19:06:52.800928 31668 net.cpp:84] Creating Layer inception_5a/relu_3x3
I1220 19:06:52.800942 31668 net.cpp:380] inception_5a/relu_3x3 <- inception_5a/3x3
I1220 19:06:52.800959 31668 net.cpp:327] inception_5a/relu_3x3 -> inception_5a/3x3 (in-place)
I1220 19:06:52.800976 31668 net.cpp:113] Setting up inception_5a/relu_3x3
I1220 19:06:52.801110 31668 net.cpp:120] Top shape: 80 320 7 7 (1254400)
I1220 19:06:52.801122 31668 layer_factory.hpp:74] Creating layer inception_5a/5x5_reduce
I1220 19:06:52.801139 31668 net.cpp:84] Creating Layer inception_5a/5x5_reduce
I1220 19:06:52.801162 31668 net.cpp:380] inception_5a/5x5_reduce <- pool4/3x3_s2_pool4/3x3_s2_0_split_2
I1220 19:06:52.801187 31668 net.cpp:338] inception_5a/5x5_reduce -> inception_5a/5x5_reduce
I1220 19:06:52.801201 31668 net.cpp:113] Setting up inception_5a/5x5_reduce
I1220 19:06:52.802176 31668 net.cpp:120] Top shape: 80 32 7 7 (125440)
I1220 19:06:52.802204 31668 layer_factory.hpp:74] Creating layer inception_5a/relu_5x5_reduce
I1220 19:06:52.802219 31668 net.cpp:84] Creating Layer inception_5a/relu_5x5_reduce
I1220 19:06:52.802227 31668 net.cpp:380] inception_5a/relu_5x5_reduce <- inception_5a/5x5_reduce
I1220 19:06:52.802238 31668 net.cpp:327] inception_5a/relu_5x5_reduce -> inception_5a/5x5_reduce (in-place)
I1220 19:06:52.802249 31668 net.cpp:113] Setting up inception_5a/relu_5x5_reduce
I1220 19:06:52.802546 31668 net.cpp:120] Top shape: 80 32 7 7 (125440)
I1220 19:06:52.802561 31668 layer_factory.hpp:74] Creating layer inception_5a/5x5
I1220 19:06:52.802582 31668 net.cpp:84] Creating Layer inception_5a/5x5
I1220 19:06:52.802588 31668 net.cpp:380] inception_5a/5x5 <- inception_5a/5x5_reduce
I1220 19:06:52.802598 31668 net.cpp:338] inception_5a/5x5 -> inception_5a/5x5
I1220 19:06:52.802610 31668 net.cpp:113] Setting up inception_5a/5x5
I1220 19:06:52.804680 31668 net.cpp:120] Top shape: 80 128 7 7 (501760)
I1220 19:06:52.804702 31668 layer_factory.hpp:74] Creating layer inception_5a/relu_5x5
I1220 19:06:52.804714 31668 net.cpp:84] Creating Layer inception_5a/relu_5x5
I1220 19:06:52.804723 31668 net.cpp:380] inception_5a/relu_5x5 <- inception_5a/5x5
I1220 19:06:52.804730 31668 net.cpp:327] inception_5a/relu_5x5 -> inception_5a/5x5 (in-place)
I1220 19:06:52.804741 31668 net.cpp:113] Setting up inception_5a/relu_5x5
I1220 19:06:52.804834 31668 net.cpp:120] Top shape: 80 128 7 7 (501760)
I1220 19:06:52.804843 31668 layer_factory.hpp:74] Creating layer inception_5a/pool
I1220 19:06:52.804852 31668 layer_factory.cpp:56] CUDNN does not support padding or multiple tops. Using Caffe's own pooling layer.
I1220 19:06:52.804859 31668 net.cpp:84] Creating Layer inception_5a/pool
I1220 19:06:52.804867 31668 net.cpp:380] inception_5a/pool <- pool4/3x3_s2_pool4/3x3_s2_0_split_3
I1220 19:06:52.804883 31668 net.cpp:338] inception_5a/pool -> inception_5a/pool
I1220 19:06:52.804900 31668 net.cpp:113] Setting up inception_5a/pool
I1220 19:06:52.804918 31668 net.cpp:120] Top shape: 80 832 7 7 (3261440)
I1220 19:06:52.804925 31668 layer_factory.hpp:74] Creating layer inception_5a/pool_proj
I1220 19:06:52.804940 31668 net.cpp:84] Creating Layer inception_5a/pool_proj
I1220 19:06:52.804947 31668 net.cpp:380] inception_5a/pool_proj <- inception_5a/pool
I1220 19:06:52.804957 31668 net.cpp:338] inception_5a/pool_proj -> inception_5a/pool_proj
I1220 19:06:52.804968 31668 net.cpp:113] Setting up inception_5a/pool_proj
I1220 19:06:52.807070 31668 net.cpp:120] Top shape: 80 128 7 7 (501760)
I1220 19:06:52.807095 31668 layer_factory.hpp:74] Creating layer inception_5a/relu_pool_proj
I1220 19:06:52.807104 31668 net.cpp:84] Creating Layer inception_5a/relu_pool_proj
I1220 19:06:52.807111 31668 net.cpp:380] inception_5a/relu_pool_proj <- inception_5a/pool_proj
I1220 19:06:52.807121 31668 net.cpp:327] inception_5a/relu_pool_proj -> inception_5a/pool_proj (in-place)
I1220 19:06:52.807133 31668 net.cpp:113] Setting up inception_5a/relu_pool_proj
I1220 19:06:52.807224 31668 net.cpp:120] Top shape: 80 128 7 7 (501760)
I1220 19:06:52.807235 31668 layer_factory.hpp:74] Creating layer inception_5a/output
I1220 19:06:52.807245 31668 net.cpp:84] Creating Layer inception_5a/output
I1220 19:06:52.807251 31668 net.cpp:380] inception_5a/output <- inception_5a/1x1
I1220 19:06:52.807260 31668 net.cpp:380] inception_5a/output <- inception_5a/3x3
I1220 19:06:52.807266 31668 net.cpp:380] inception_5a/output <- inception_5a/5x5
I1220 19:06:52.807273 31668 net.cpp:380] inception_5a/output <- inception_5a/pool_proj
I1220 19:06:52.807283 31668 net.cpp:338] inception_5a/output -> inception_5a/output
I1220 19:06:52.807293 31668 net.cpp:113] Setting up inception_5a/output
I1220 19:06:52.807312 31668 net.cpp:120] Top shape: 80 832 7 7 (3261440)
I1220 19:06:52.807328 31668 layer_factory.hpp:74] Creating layer inception_5a/output_inception_5a/output_0_split
I1220 19:06:52.807338 31668 net.cpp:84] Creating Layer inception_5a/output_inception_5a/output_0_split
I1220 19:06:52.807344 31668 net.cpp:380] inception_5a/output_inception_5a/output_0_split <- inception_5a/output
I1220 19:06:52.807353 31668 net.cpp:338] inception_5a/output_inception_5a/output_0_split -> inception_5a/output_inception_5a/output_0_split_0
I1220 19:06:52.807363 31668 net.cpp:338] inception_5a/output_inception_5a/output_0_split -> inception_5a/output_inception_5a/output_0_split_1
I1220 19:06:52.807371 31668 net.cpp:338] inception_5a/output_inception_5a/output_0_split -> inception_5a/output_inception_5a/output_0_split_2
I1220 19:06:52.807381 31668 net.cpp:338] inception_5a/output_inception_5a/output_0_split -> inception_5a/output_inception_5a/output_0_split_3
I1220 19:06:52.807389 31668 net.cpp:113] Setting up inception_5a/output_inception_5a/output_0_split
I1220 19:06:52.807405 31668 net.cpp:120] Top shape: 80 832 7 7 (3261440)
I1220 19:06:52.807412 31668 net.cpp:120] Top shape: 80 832 7 7 (3261440)
I1220 19:06:52.807420 31668 net.cpp:120] Top shape: 80 832 7 7 (3261440)
I1220 19:06:52.807425 31668 net.cpp:120] Top shape: 80 832 7 7 (3261440)
I1220 19:06:52.807431 31668 layer_factory.hpp:74] Creating layer inception_5b/1x1
I1220 19:06:52.807446 31668 net.cpp:84] Creating Layer inception_5b/1x1
I1220 19:06:52.807452 31668 net.cpp:380] inception_5b/1x1 <- inception_5a/output_inception_5a/output_0_split_0
I1220 19:06:52.807461 31668 net.cpp:338] inception_5b/1x1 -> inception_5b/1x1
I1220 19:06:52.807471 31668 net.cpp:113] Setting up inception_5b/1x1
I1220 19:06:52.812690 31668 net.cpp:120] Top shape: 80 384 7 7 (1505280)
I1220 19:06:52.812724 31668 layer_factory.hpp:74] Creating layer inception_5b/relu_1x1
I1220 19:06:52.812737 31668 net.cpp:84] Creating Layer inception_5b/relu_1x1
I1220 19:06:52.812746 31668 net.cpp:380] inception_5b/relu_1x1 <- inception_5b/1x1
I1220 19:06:52.812757 31668 net.cpp:327] inception_5b/relu_1x1 -> inception_5b/1x1 (in-place)
I1220 19:06:52.812767 31668 net.cpp:113] Setting up inception_5b/relu_1x1
I1220 19:06:52.813040 31668 net.cpp:120] Top shape: 80 384 7 7 (1505280)
I1220 19:06:52.813052 31668 layer_factory.hpp:74] Creating layer inception_5b/3x3_reduce
I1220 19:06:52.813089 31668 net.cpp:84] Creating Layer inception_5b/3x3_reduce
I1220 19:06:52.813097 31668 net.cpp:380] inception_5b/3x3_reduce <- inception_5a/output_inception_5a/output_0_split_1
I1220 19:06:52.813110 31668 net.cpp:338] inception_5b/3x3_reduce -> inception_5b/3x3_reduce
I1220 19:06:52.813122 31668 net.cpp:113] Setting up inception_5b/3x3_reduce
I1220 19:06:52.815956 31668 net.cpp:120] Top shape: 80 192 7 7 (752640)
I1220 19:06:52.815989 31668 layer_factory.hpp:74] Creating layer inception_5b/relu_3x3_reduce
I1220 19:06:52.816001 31668 net.cpp:84] Creating Layer inception_5b/relu_3x3_reduce
I1220 19:06:52.816009 31668 net.cpp:380] inception_5b/relu_3x3_reduce <- inception_5b/3x3_reduce
I1220 19:06:52.816018 31668 net.cpp:327] inception_5b/relu_3x3_reduce -> inception_5b/3x3_reduce (in-place)
I1220 19:06:52.816030 31668 net.cpp:113] Setting up inception_5b/relu_3x3_reduce
I1220 19:06:52.816123 31668 net.cpp:120] Top shape: 80 192 7 7 (752640)
I1220 19:06:52.816131 31668 layer_factory.hpp:74] Creating layer inception_5b/3x3
I1220 19:06:52.816148 31668 net.cpp:84] Creating Layer inception_5b/3x3
I1220 19:06:52.816154 31668 net.cpp:380] inception_5b/3x3 <- inception_5b/3x3_reduce
I1220 19:06:52.816164 31668 net.cpp:338] inception_5b/3x3 -> inception_5b/3x3
I1220 19:06:52.816203 31668 net.cpp:113] Setting up inception_5b/3x3
I1220 19:06:52.826555 31668 net.cpp:120] Top shape: 80 384 7 7 (1505280)
I1220 19:06:52.826601 31668 layer_factory.hpp:74] Creating layer inception_5b/relu_3x3
I1220 19:06:52.826618 31668 net.cpp:84] Creating Layer inception_5b/relu_3x3
I1220 19:06:52.826628 31668 net.cpp:380] inception_5b/relu_3x3 <- inception_5b/3x3
I1220 19:06:52.826661 31668 net.cpp:327] inception_5b/relu_3x3 -> inception_5b/3x3 (in-place)
I1220 19:06:52.826674 31668 net.cpp:113] Setting up inception_5b/relu_3x3
I1220 19:06:52.826757 31668 net.cpp:120] Top shape: 80 384 7 7 (1505280)
I1220 19:06:52.826766 31668 layer_factory.hpp:74] Creating layer inception_5b/5x5_reduce
I1220 19:06:52.826779 31668 net.cpp:84] Creating Layer inception_5b/5x5_reduce
I1220 19:06:52.826786 31668 net.cpp:380] inception_5b/5x5_reduce <- inception_5a/output_inception_5a/output_0_split_2
I1220 19:06:52.826795 31668 net.cpp:338] inception_5b/5x5_reduce -> inception_5b/5x5_reduce
I1220 19:06:52.826807 31668 net.cpp:113] Setting up inception_5b/5x5_reduce
I1220 19:06:52.827802 31668 net.cpp:120] Top shape: 80 48 7 7 (188160)
I1220 19:06:52.827822 31668 layer_factory.hpp:74] Creating layer inception_5b/relu_5x5_reduce
I1220 19:06:52.827833 31668 net.cpp:84] Creating Layer inception_5b/relu_5x5_reduce
I1220 19:06:52.827841 31668 net.cpp:380] inception_5b/relu_5x5_reduce <- inception_5b/5x5_reduce
I1220 19:06:52.827852 31668 net.cpp:327] inception_5b/relu_5x5_reduce -> inception_5b/5x5_reduce (in-place)
I1220 19:06:52.827860 31668 net.cpp:113] Setting up inception_5b/relu_5x5_reduce
I1220 19:06:52.827942 31668 net.cpp:120] Top shape: 80 48 7 7 (188160)
I1220 19:06:52.827950 31668 layer_factory.hpp:74] Creating layer inception_5b/5x5
I1220 19:06:52.827963 31668 net.cpp:84] Creating Layer inception_5b/5x5
I1220 19:06:52.827970 31668 net.cpp:380] inception_5b/5x5 <- inception_5b/5x5_reduce
I1220 19:06:52.827980 31668 net.cpp:338] inception_5b/5x5 -> inception_5b/5x5
I1220 19:06:52.827989 31668 net.cpp:113] Setting up inception_5b/5x5
I1220 19:06:52.830487 31668 net.cpp:120] Top shape: 80 128 7 7 (501760)
I1220 19:06:52.830507 31668 layer_factory.hpp:74] Creating layer inception_5b/relu_5x5
I1220 19:06:52.830519 31668 net.cpp:84] Creating Layer inception_5b/relu_5x5
I1220 19:06:52.830525 31668 net.cpp:380] inception_5b/relu_5x5 <- inception_5b/5x5
I1220 19:06:52.830533 31668 net.cpp:327] inception_5b/relu_5x5 -> inception_5b/5x5 (in-place)
I1220 19:06:52.830543 31668 net.cpp:113] Setting up inception_5b/relu_5x5
I1220 19:06:52.830808 31668 net.cpp:120] Top shape: 80 128 7 7 (501760)
I1220 19:06:52.830821 31668 layer_factory.hpp:74] Creating layer inception_5b/pool
I1220 19:06:52.830829 31668 layer_factory.cpp:56] CUDNN does not support padding or multiple tops. Using Caffe's own pooling layer.
I1220 19:06:52.830838 31668 net.cpp:84] Creating Layer inception_5b/pool
I1220 19:06:52.830845 31668 net.cpp:380] inception_5b/pool <- inception_5a/output_inception_5a/output_0_split_3
I1220 19:06:52.830857 31668 net.cpp:338] inception_5b/pool -> inception_5b/pool
I1220 19:06:52.830867 31668 net.cpp:113] Setting up inception_5b/pool
I1220 19:06:52.830878 31668 net.cpp:120] Top shape: 80 832 7 7 (3261440)
I1220 19:06:52.830883 31668 layer_factory.hpp:74] Creating layer inception_5b/pool_proj
I1220 19:06:52.830894 31668 net.cpp:84] Creating Layer inception_5b/pool_proj
I1220 19:06:52.830900 31668 net.cpp:380] inception_5b/pool_proj <- inception_5b/pool
I1220 19:06:52.830910 31668 net.cpp:338] inception_5b/pool_proj -> inception_5b/pool_proj
I1220 19:06:52.830920 31668 net.cpp:113] Setting up inception_5b/pool_proj
I1220 19:06:52.832793 31668 net.cpp:120] Top shape: 80 128 7 7 (501760)
I1220 19:06:52.832811 31668 layer_factory.hpp:74] Creating layer inception_5b/relu_pool_proj
I1220 19:06:52.832823 31668 net.cpp:84] Creating Layer inception_5b/relu_pool_proj
I1220 19:06:52.832829 31668 net.cpp:380] inception_5b/relu_pool_proj <- inception_5b/pool_proj
I1220 19:06:52.832837 31668 net.cpp:327] inception_5b/relu_pool_proj -> inception_5b/pool_proj (in-place)
I1220 19:06:52.832846 31668 net.cpp:113] Setting up inception_5b/relu_pool_proj
I1220 19:06:52.832931 31668 net.cpp:120] Top shape: 80 128 7 7 (501760)
I1220 19:06:52.832938 31668 layer_factory.hpp:74] Creating layer inception_5b/output
I1220 19:06:52.832947 31668 net.cpp:84] Creating Layer inception_5b/output
I1220 19:06:52.832962 31668 net.cpp:380] inception_5b/output <- inception_5b/1x1
I1220 19:06:52.832979 31668 net.cpp:380] inception_5b/output <- inception_5b/3x3
I1220 19:06:52.832986 31668 net.cpp:380] inception_5b/output <- inception_5b/5x5
I1220 19:06:52.832993 31668 net.cpp:380] inception_5b/output <- inception_5b/pool_proj
I1220 19:06:52.833000 31668 net.cpp:338] inception_5b/output -> inception_5b/output
I1220 19:06:52.833009 31668 net.cpp:113] Setting up inception_5b/output
I1220 19:06:52.833019 31668 net.cpp:120] Top shape: 80 1024 7 7 (4014080)
I1220 19:06:52.833024 31668 layer_factory.hpp:74] Creating layer pool5/7x7_s1
I1220 19:06:52.833034 31668 net.cpp:84] Creating Layer pool5/7x7_s1
I1220 19:06:52.833040 31668 net.cpp:380] pool5/7x7_s1 <- inception_5b/output
I1220 19:06:52.833051 31668 net.cpp:338] pool5/7x7_s1 -> pool5/7x7_s1
I1220 19:06:52.833091 31668 net.cpp:113] Setting up pool5/7x7_s1
I1220 19:06:52.833184 31668 net.cpp:120] Top shape: 80 1024 1 1 (81920)
I1220 19:06:52.833194 31668 layer_factory.hpp:74] Creating layer pool5/drop_7x7_s1
I1220 19:06:52.833202 31668 net.cpp:84] Creating Layer pool5/drop_7x7_s1
I1220 19:06:52.833207 31668 net.cpp:380] pool5/drop_7x7_s1 <- pool5/7x7_s1
I1220 19:06:52.833215 31668 net.cpp:327] pool5/drop_7x7_s1 -> pool5/7x7_s1 (in-place)
I1220 19:06:52.833223 31668 net.cpp:113] Setting up pool5/drop_7x7_s1
I1220 19:06:52.833232 31668 net.cpp:120] Top shape: 80 1024 1 1 (81920)
I1220 19:06:52.833238 31668 layer_factory.hpp:74] Creating layer loss3/classifier_kaggle
I1220 19:06:52.833251 31668 net.cpp:84] Creating Layer loss3/classifier_kaggle
I1220 19:06:52.833256 31668 net.cpp:380] loss3/classifier_kaggle <- pool5/7x7_s1
I1220 19:06:52.833267 31668 net.cpp:338] loss3/classifier_kaggle -> loss3/classifier_kaggle
I1220 19:06:52.833277 31668 net.cpp:113] Setting up loss3/classifier_kaggle
I1220 19:06:52.837899 31668 net.cpp:120] Top shape: 80 447 (35760)
I1220 19:06:52.837918 31668 layer_factory.hpp:74] Creating layer loss3/loss3
I1220 19:06:52.837927 31668 net.cpp:84] Creating Layer loss3/loss3
I1220 19:06:52.837934 31668 net.cpp:380] loss3/loss3 <- loss3/classifier_kaggle
I1220 19:06:52.837940 31668 net.cpp:380] loss3/loss3 <- label_data_1_split_2
I1220 19:06:52.837945 31668 net.cpp:338] loss3/loss3 -> loss3/loss3
I1220 19:06:52.837954 31668 net.cpp:113] Setting up loss3/loss3
…
I1220 19:06:52.842569 31668 net.cpp:257] The NetState phase (1) differed from the phase (0) specified by a rule in layer data
I1220 19:06:52.843808 31668 net.cpp:42] Initializing net from parameters: 
name: "MYNET"
state {
  phase: TEST
}
layer {
  name: "data"
  type: "ImageData"
  top: "data"
  top: "label"
  include {
    phase: TEST
  }
  transform_param {
    mirror: false
    crop_size: 224
    mean_value: 129
    mean_value: 129
    mean_value: 129
  }
  image_data_param {
    source: "/home/coldmanck/kaggle/label_val_full.txt"
    batch_size: 50
    shuffle: true
  }
}
layer {
  name: "conv1/7x7_s2"
  type: "Convolution"
  bottom: "data"
  top: "conv1/7x7_s2"
  param {
    lr_mult: 1
    decay_mult: 1
  }
  param {
    lr_mult: 2
    decay_mult: 0
  }
  convolution_param {
    num_output: 64
    pad: 3
    kernel_size: 7
    stride: 2
    weight_filler {
      type: "xavier"
    }
    bias_filler {
      type: "constant"
      value: 0.2
    }
  }
}
layer {
  name: "conv1/relu_7x7"
  type: "ReLU"
  bottom: "conv1/7x7_s2"
  top: "conv1/7x7_s2"
}
layer {
  name: "pool1/3x3_s2"
  type: "Pooling"
  bottom: "conv1/7x7_s2"
  top: "pool1/3x3_s2"
  pooling_param {
    pool: MAX
    kernel_size: 3
    stride: 2
  }
}
layer {
  name: "pool1/norm1"
  type: "LRN"
  bottom: "pool1/3x3_s2"
  top: "pool1/norm1"
  lrn_param {
    local_size: 5
    alpha: 0.0001
    beta: 0.75
  }
}
layer {
  name: "conv2/3x3_reduce"
  type: "Convolution"
  bottom: "pool1/norm1"
  top: "conv2/3x3_reduce"
  param {
    lr_mult: 1
    decay_mult: 1
  }
  param {
    lr_mult: 2
    decay_mult: 0
  }
  convolution_param {
    num_output: 64
    kernel_size: 1
    weight_filler {
      type: "xavier"
    }
    bias_filler {
      type: "constant"
      value: 0.2
    }
  }
}
layer {
  name: "conv2/relu_3x3_reduce"
  type: "ReLU"
  bottom: "conv2/3x3_reduce"
  top: "conv2/3x3_reduce"
}
layer {
  name: "conv2/3x3"
  type: "Convolution"
  bottom: "conv2/3x3_reduce"
  top: "conv2/3x3"
  param {
    lr_mult: 1
    decay_mult: 1
  }
  param {
    lr_mult: 2
    decay_mult: 0
  }
  convolution_param {
    num_output: 192
    pad: 1
    kernel_size: 3
    weight_filler {
      type: "xavier"
    }
    bias_filler {
      type: "constant"
      value: 0.2
    }
  }
}
layer {
  name: "conv2/relu_3x3"
  type: "ReLU"
  bottom: "conv2/3x3"
  top: "conv2/3x3"
}
layer {
  name: "conv2/norm2"
  type: "LRN"
  bottom: "conv2/3x3"
  top: "conv2/norm2"
  lrn_param {
    local_size: 5
    alpha: 0.0001
    beta: 0.75
  }
}
layer {
  name: "pool2/3x3_s2"
  type: "Pooling"
  bottom: "conv2/norm2"
  top: "pool2/3x3_s2"
  pooling_param {
    pool: MAX
    kernel_size: 3
    stride: 2
  }
}
layer {
  name: "inception_3a/1x1"
  type: "Convolution"
  bottom: "pool2/3x3_s2"
  top: "inception_3a/1x1"
  param {
    lr_mult: 1
    decay_mult: 1
  }
  param {
    lr_mult: 2
    decay_mult: 0
  }
  convolution_param {
    num_output: 64
    kernel_size: 1
    weight_filler {
      type: "xavier"
    }
    bias_filler {
      type: "constant"
      value: 0.2
    }
  }
}
layer {
  name: "inception_3a/relu_1x1"
  type: "ReLU"
  bottom: "inception_3a/1x1"
  top: "inception_3a/1x1"
}
layer {
  name: "inception_3a/3x3_reduce"
  type: "Convolution"
  bottom: "pool2/3x3_s2"
  top: "inception_3a/3x3_reduce"
  param {
    lr_mult: 1
    decay_mult: 1
  }
  param {
    lr_mult: 2
    decay_mult: 0
  }
  convolution_param {
    num_output: 96
    kernel_size: 1
    weight_filler {
      type: "xavier"
    }
    bias_filler {
      type: "constant"
      value: 0.2
    }
  }
}
layer {
  name: "inception_3a/relu_3x3_reduce"
  type: "ReLU"
  bottom: "inception_3a/3x3_reduce"
  top: "inception_3a/3x3_reduce"
}
layer {
  name: "inception_3a/3x3"
  type: "Convolution"
  bottom: "inception_3a/3x3_reduce"
  top: "inception_3a/3x3"
  param {
    lr_mult: 1
    decay_mult: 1
  }
  param {
    lr_mult: 2
    decay_mult: 0
  }
  convolution_param {
    num_output: 128
    pad: 1
    kernel_size: 3
    weight_filler {
      type: "xavier"
    }
    bias_filler {
      type: "constant"
      value: 0.2
    }
  }
}
layer {
  name: "inception_3a/relu_3x3"
  type: "ReLU"
  bottom: "inception_3a/3x3"
  top: "inception_3a/3x3"
}
layer {
  name: "inception_3a/5x5_reduce"
  type: "Convolution"
  bottom: "pool2/3x3_s2"
  top: "inception_3a/5x5_reduce"
  param {
    lr_mult: 1
    decay_mult: 1
  }
  param {
    lr_mult: 2
    decay_mult: 0
  }
  convolution_param {
    num_output: 16
    kernel_size: 1
    weight_filler {
      type: "xavier"
    }
    bias_filler {
      type: "constant"
      value: 0.2
    }
  }
}
layer {
  name: "inception_3a/relu_5x5_reduce"
  type: "ReLU"
  bottom: "inception_3a/5x5_reduce"
  top: "inception_3a/5x5_reduce"
}
layer {
  name: "inception_3a/5x5"
  type: "Convolution"
  bottom: "inception_3a/5x5_reduce"
  top: "inception_3a/5x5"
  param {
    lr_mult: 1
    decay_mult: 1
  }
  param {
    lr_mult: 2
    decay_mult: 0
  }
  convolution_param {
    num_output: 32
    pad: 2
    kernel_size: 5
    weight_filler {
      type: "xavier"
    }
    bias_filler {
      type: "constant"
      value: 0.2
    }
  }
}
layer {
  name: "inception_3a/relu_5x5"
  type: "ReLU"
  bottom: "inception_3a/5x5"
  top: "inception_3a/5x5"
}
layer {
  name: "inception_3a/pool"
  type: "Pooling"
  bottom: "pool2/3x3_s2"
  top: "inception_3a/pool"
  pooling_param {
    pool: MAX
    kernel_size: 3
    stride: 1
    pad: 1
  }
}
layer {
  name: "inception_3a/pool_proj"
  type: "Convolution"
  bottom: "inception_3a/pool"
  top: "inception_3a/pool_proj"
  param {
    lr_mult: 1
    decay_mult: 1
  }
  param {
    lr_mult: 2
    decay_mult: 0
  }
  convolution_param {
    num_output: 32
    kernel_size: 1
    weight_filler {
      type: "xavier"
    }
    bias_filler {
      type: "constant"
      value: 0.2
    }
  }
}
layer {
  name: "inception_3a/relu_pool_proj"
  type: "ReLU"
  bottom: "inception_3a/pool_proj"
  top: "inception_3a/pool_proj"
}
layer {
  name: "inception_3a/output"
  type: "Concat"
  bottom: "inception_3a/1x1"
  bottom: "inception_3a/3x3"
  bottom: "inception_3a/5x5"
  bottom: "inception_3a/pool_proj"
  top: "inception_3a/output"
}
layer {
  name: "inception_3b/1x1"
  type: "Convolution"
  bottom: "inception_3a/output"
  top: "inception_3b/1x1"
  param {
    lr_mult: 1
    decay_mult: 1
  }
  param {
    lr_mult: 2
    decay_mult: 0
  }
  convolution_param {
    num_output: 128
    kernel_size: 1
    weight_filler {
      type: "xavier"
    }
    bias_filler {
      type: "constant"
      value: 0.2
    }
  }
}
layer {
  name: "inception_3b/relu_1x1"
  type: "ReLU"
  bottom: "inception_3b/1x1"
  top: "inception_3b/1x1"
}
layer {
  name: "inception_3b/3x3_reduce"
  type: "Convolution"
  bottom: "inception_3a/output"
  top: "inception_3b/3x3_reduce"
  param {
    lr_mult: 1
    decay_mult: 1
  }
  param {
    lr_mult: 2
    decay_mult: 0
  }
  convolution_param {
    num_output: 128
    kernel_size: 1
    weight_filler {
      type: "xavier"
    }
    bias_filler {
      type: "constant"
      value: 0.2
    }
  }
}
layer {
  name: "inception_3b/relu_3x3_reduce"
  type: "ReLU"
  bottom: "inception_3b/3x3_reduce"
  top: "inception_3b/3x3_reduce"
}
layer {
  name: "inception_3b/3x3"
  type: "Convolution"
  bottom: "inception_3b/3x3_reduce"
  top: "inception_3b/3x3"
  param {
    lr_mult: 1
    decay_mult: 1
  }
  param {
    lr_mult: 2
    decay_mult: 0
  }
  convolution_param {
    num_output: 192
    pad: 1
    kernel_size: 3
    weight_filler {
      type: "xavier"
    }
    bias_filler {
      type: "constant"
      value: 0.2
    }
  }
}
layer {
  name: "inception_3b/relu_3x3"
  type: "ReLU"
  bottom: "inception_3b/3x3"
  top: "inception_3b/3x3"
}
layer {
  name: "inception_3b/5x5_reduce"
  type: "Convolution"
  bottom: "inception_3a/output"
  top: "inception_3b/5x5_reduce"
  param {
    lr_mult: 1
    decay_mult: 1
  }
  param {
    lr_mult: 2
    decay_mult: 0
  }
  convolution_param {
    num_output: 32
    kernel_size: 1
    weight_filler {
      type: "xavier"
    }
    bias_filler {
      type: "constant"
      value: 0.2
    }
  }
}
layer {
  name: "inception_3b/relu_5x5_reduce"
  type: "ReLU"
  bottom: "inception_3b/5x5_reduce"
  top: "inception_3b/5x5_reduce"
}
layer {
  name: "inception_3b/5x5"
  type: "Convolution"
  bottom: "inception_3b/5x5_reduce"
  top: "inception_3b/5x5"
  param {
    lr_mult: 1
    decay_mult: 1
  }
  param {
    lr_mult: 2
    decay_mult: 0
  }
  convolution_param {
    num_output: 96
    pad: 2
    kernel_size: 5
    weight_filler {
      type: "xavier"
    }
    bias_filler {
      type: "constant"
      value: 0.2
    }
  }
}
layer {
  name: "inception_3b/relu_5x5"
  type: "ReLU"
  bottom: "inception_3b/5x5"
  top: "inception_3b/5x5"
}
layer {
  name: "inception_3b/pool"
  type: "Pooling"
  bottom: "inception_3a/output"
  top: "inception_3b/pool"
  pooling_param {
    pool: MAX
    kernel_size: 3
    stride: 1
    pad: 1
  }
}
layer {
  name: "inception_3b/pool_proj"
  type: "Convolution"
  bottom: "inception_3b/pool"
  top: "inception_3b/pool_proj"
  param {
    lr_mult: 1
    decay_mult: 1
  }
  param {
    lr_mult: 2
    decay_mult: 0
  }
  convolution_param {
    num_output: 64
    kernel_size: 1
    weight_filler {
      type: "xavier"
    }
    bias_filler {
      type: "constant"
      value: 0.2
    }
  }
}
layer {
  name: "inception_3b/relu_pool_proj"
  type: "ReLU"
  bottom: "inception_3b/pool_proj"
  top: "inception_3b/pool_proj"
}
layer {
  name: "inception_3b/output"
  type: "Concat"
  bottom: "inception_3b/1x1"
  bottom: "inception_3b/3x3"
  bottom: "inception_3b/5x5"
  bottom: "inception_3b/pool_proj"
  top: "inception_3b/output"
}
layer {
  name: "pool3/3x3_s2"
  type: "Pooling"
  bottom: "inception_3b/output"
  top: "pool3/3x3_s2"
  pooling_param {
    pool: MAX
    kernel_size: 3
    stride: 2
  }
}
layer {
  name: "inception_4a/1x1"
  type: "Convolution"
  bottom: "pool3/3x3_s2"
  top: "inception_4a/1x1"
  param {
    lr_mult: 1
    decay_mult: 1
  }
  param {
    lr_mult: 2
    decay_mult: 0
  }
  convolution_param {
    num_output: 192
    kernel_size: 1
    weight_filler {
      type: "xavier"
    }
    bias_filler {
      type: "constant"
      value: 0.2
    }
  }
}
layer {
  name: "inception_4a/relu_1x1"
  type: "ReLU"
  bottom: "inception_4a/1x1"
  top: "inception_4a/1x1"
}
layer {
  name: "inception_4a/3x3_reduce"
  type: "Convolution"
  bottom: "pool3/3x3_s2"
  top: "inception_4a/3x3_reduce"
  param {
    lr_mult: 1
    decay_mult: 1
  }
  param {
    lr_mult: 2
    decay_mult: 0
  }
  convolution_param {
    num_output: 96
    kernel_size: 1
    weight_filler {
      type: "xavier"
    }
    bias_filler {
      type: "constant"
      value: 0.2
    }
  }
}
layer {
  name: "inception_4a/relu_3x3_reduce"
  type: "ReLU"
  bottom: "inception_4a/3x3_reduce"
  top: "inception_4a/3x3_reduce"
}
layer {
  name: "inception_4a/3x3"
  type: "Convolution"
  bottom: "inception_4a/3x3_reduce"
  top: "inception_4a/3x3"
  param {
    lr_mult: 1
    decay_mult: 1
  }
  param {
    lr_mult: 2
    decay_mult: 0
  }
  convolution_param {
    num_output: 208
    pad: 1
    kernel_size: 3
    weight_filler {
      type: "xavier"
    }
    bias_filler {
      type: "constant"
      value: 0.2
    }
  }
}
layer {
  name: "inception_4a/relu_3x3"
  type: "ReLU"
  bottom: "inception_4a/3x3"
  top: "inception_4a/3x3"
}
layer {
  name: "inception_4a/5x5_reduce"
  type: "Convolution"
  bottom: "pool3/3x3_s2"
  top: "inception_4a/5x5_reduce"
  param {
    lr_mult: 1
    decay_mult: 1
  }
  param {
    lr_mult: 2
    decay_mult: 0
  }
  convolution_param {
    num_output: 16
    kernel_size: 1
    weight_filler {
      type: "xavier"
    }
    bias_filler {
      type: "constant"
      value: 0.2
    }
  }
}
layer {
  name: "inception_4a/relu_5x5_reduce"
  type: "ReLU"
  bottom: "inception_4a/5x5_reduce"
  top: "inception_4a/5x5_reduce"
}
layer {
  name: "inception_4a/5x5"
  type: "Convolution"
  bottom: "inception_4a/5x5_reduce"
  top: "inception_4a/5x5"
  param {
    lr_mult: 1
    decay_mult: 1
  }
  param {
    lr_mult: 2
    decay_mult: 0
  }
  convolution_param {
    num_output: 48
    pad: 2
    kernel_size: 5
    weight_filler {
      type: "xavier"
    }
    bias_filler {
      type: "constant"
      value: 0.2
    }
  }
}
layer {
  name: "inception_4a/relu_5x5"
  type: "ReLU"
  bottom: "inception_4a/5x5"
  top: "inception_4a/5x5"
}
layer {
  name: "inception_4a/pool"
  type: "Pooling"
  bottom: "pool3/3x3_s2"
  top: "inception_4a/pool"
  pooling_param {
    pool: MAX
    kernel_size: 3
    stride: 1
    pad: 1
  }
}
layer {
  name: "inception_4a/pool_proj"
  type: "Convolution"
  bottom: "inception_4a/pool"
  top: "inception_4a/pool_proj"
  param {
    lr_mult: 1
    decay_mult: 1
  }
  param {
    lr_mult: 2
    decay_mult: 0
  }
  convolution_param {
    num_output: 64
    kernel_size: 1
    weight_filler {
      type: "xavier"
    }
    bias_filler {
      type: "constant"
      value: 0.2
    }
  }
}
layer {
  name: "inception_4a/relu_pool_proj"
  type: "ReLU"
  bottom: "inception_4a/pool_proj"
  top: "inception_4a/pool_proj"
}
layer {
  name: "inception_4a/output"
  type: "Concat"
  bottom: "inception_4a/1x1"
  bottom: "inception_4a/3x3"
  bottom: "inception_4a/5x5"
  bottom: "inception_4a/pool_proj"
  top: "inception_4a/output"
}
layer {
  name: "loss1/ave_pool"
  type: "Pooling"
  bottom: "inception_4a/output"
  top: "loss1/ave_pool"
  pooling_param {
    pool: AVE
    kernel_size: 5
    stride: 3
  }
}
layer {
  name: "loss1/conv"
  type: "Convolution"
  bottom: "loss1/ave_pool"
  top: "loss1/conv"
  param {
    lr_mult: 1
    decay_mult: 1
  }
  param {
    lr_mult: 2
    decay_mult: 0
  }
  convolution_param {
    num_output: 128
    kernel_size: 1
    weight_filler {
      type: "xavier"
    }
    bias_filler {
      type: "constant"
      value: 0.2
    }
  }
}
layer {
  name: "loss1/relu_conv"
  type: "ReLU"
  bottom: "loss1/conv"
  top: "loss1/conv"
}
layer {
  name: "loss1/fc"
  type: "InnerProduct"
  bottom: "loss1/conv"
  top: "loss1/fc"
  param {
    lr_mult: 1
    decay_mult: 1
  }
  param {
    lr_mult: 2
    decay_mult: 0
  }
  inner_product_param {
    num_output: 1024
    weight_filler {
      type: "xavier"
    }
    bias_filler {
      type: "constant"
      value: 0.2
    }
  }
}
layer {
  name: "loss1/relu_fc"
  type: "ReLU"
  bottom: "loss1/fc"
  top: "loss1/fc"
}
layer {
  name: "loss1/drop_fc"
  type: "Dropout"
  bottom: "loss1/fc"
  top: "loss1/fc"
  dropout_param {
    dropout_ratio: 0.7
  }
}
layer {
  name: "loss1/classifier_kaggle"
  type: "InnerProduct"
  bottom: "loss1/fc"
  top: "loss1/classifier_kaggle"
  param {
    lr_mult: 1
    decay_mult: 1
  }
  param {
    lr_mult: 2
    decay_mult: 0
  }
  inner_product_param {
    num_output: 447
    weight_filler {
      type: "xavier"
    }
    bias_filler {
      type: "constant"
      value: 0
    }
  }
}
layer {
  name: "loss1/loss"
  type: "SoftmaxWithLoss"
  bottom: "loss1/classifier_kaggle"
  bottom: "label"
  top: "loss1/loss1"
  loss_weight: 0.3
}
layer {
  name: "loss1/top-1"
  type: "Accuracy"
  bottom: "loss1/classifier_kaggle"
  bottom: "label"
  top: "loss1/top-1"
  include {
    phase: TEST
  }
}
layer {
  name: "loss1/top-5"
  type: "Accuracy"
  bottom: "loss1/classifier_kaggle"
  bottom: "label"
  top: "loss1/top-5"
  include {
    phase: TEST
  }
  accuracy_param {
    top_k: 5
  }
}
layer {
  name: "inception_4b/1x1"
  type: "Convolution"
  bottom: "inception_4a/output"
  top: "inception_4b/1x1"
  param {
    lr_mult: 1
    decay_mult: 1
  }
  param {
    lr_mult: 2
    decay_mult: 0
  }
  convolution_param {
    num_output: 160
    kernel_size: 1
    weight_filler {
      type: "xavier"
    }
    bias_filler {
      type: "constant"
      value: 0.2
    }
  }
}
layer {
  name: "inception_4b/relu_1x1"
  type: "ReLU"
  bottom: "inception_4b/1x1"
  top: "inception_4b/1x1"
}
layer {
  name: "inception_4b/3x3_reduce"
  type: "Convolution"
  bottom: "inception_4a/output"
  top: "inception_4b/3x3_reduce"
  param {
    lr_mult: 1
    decay_mult: 1
  }
  param {
    lr_mult: 2
    decay_mult: 0
  }
  convolution_param {
    num_output: 112
    kernel_size: 1
    weight_filler {
      type: "xavier"
    }
    bias_filler {
      type: "constant"
      value: 0.2
    }
  }
}
layer {
  name: "inception_4b/relu_3x3_reduce"
  type: "ReLU"
  bottom: "inception_4b/3x3_reduce"
  top: "inception_4b/3x3_reduce"
}
layer {
  name: "inception_4b/3x3"
  type: "Convolution"
  bottom: "inception_4b/3x3_reduce"
  top: "inception_4b/3x3"
  param {
    lr_mult: 1
    decay_mult: 1
  }
  param {
    lr_mult: 2
    decay_mult: 0
  }
  convolution_param {
    num_output: 224
    pad: 1
    kernel_size: 3
    weight_filler {
      type: "xavier"
    }
    bias_filler {
      type: "constant"
      value: 0.2
    }
  }
}
layer {
  name: "inception_4b/relu_3x3"
  type: "ReLU"
  bottom: "inception_4b/3x3"
  top: "inception_4b/3x3"
}
layer {
  name: "inception_4b/5x5_reduce"
  type: "Convolution"
  bottom: "inception_4a/output"
  top: "inception_4b/5x5_reduce"
  param {
    lr_mult: 1
    decay_mult: 1
  }
  param {
    lr_mult: 2
    decay_mult: 0
  }
  convolution_param {
    num_output: 24
    kernel_size: 1
    weight_filler {
      type: "xavier"
    }
    bias_filler {
      type: "constant"
      value: 0.2
    }
  }
}
layer {
  name: "inception_4b/relu_5x5_reduce"
  type: "ReLU"
  bottom: "inception_4b/5x5_reduce"
  top: "inception_4b/5x5_reduce"
}
layer {
  name: "inception_4b/5x5"
  type: "Convolution"
  bottom: "inception_4b/5x5_reduce"
  top: "inception_4b/5x5"
  param {
    lr_mult: 1
    decay_mult: 1
  }
  param {
    lr_mult: 2
    decay_mult: 0
  }
  convolution_param {
    num_output: 64
    pad: 2
    kernel_size: 5
    weight_filler {
      type: "xavier"
    }
    bias_filler {
      type: "constant"
      value: 0.2
    }
  }
}
layer {
  name: "inception_4b/relu_5x5"
  type: "ReLU"
  bottom: "inception_4b/5x5"
  top: "inception_4b/5x5"
}
layer {
  name: "inception_4b/pool"
  type: "Pooling"
  bottom: "inception_4a/output"
  top: "inception_4b/pool"
  pooling_param {
    pool: MAX
    kernel_size: 3
    stride: 1
    pad: 1
  }
}
layer {
  name: "inception_4b/pool_proj"
  type: "Convolution"
  bottom: "inception_4b/pool"
  top: "inception_4b/pool_proj"
  param {
    lr_mult: 1
    decay_mult: 1
  }
  param {
    lr_mult: 2
    decay_mult: 0
  }
  convolution_param {
    num_output: 64
    kernel_size: 1
    weight_filler {
      type: "xavier"
    }
    bias_filler {
      type: "constant"
      value: 0.2
    }
  }
}
layer {
  name: "inception_4b/relu_pool_proj"
  type: "ReLU"
  bottom: "inception_4b/pool_proj"
  top: "inception_4b/pool_proj"
}
layer {
  name: "inception_4b/output"
  type: "Concat"
  bottom: "inception_4b/1x1"
  bottom: "inception_4b/3x3"
  bottom: "inception_4b/5x5"
  bottom: "inception_4b/pool_proj"
  top: "inception_4b/output"
}
layer {
  name: "inception_4c/1x1"
  type: "Convolution"
  bottom: "inception_4b/output"
  top: "inception_4c/1x1"
  param {
    lr_mult: 1
    decay_mult: 1
  }
  param {
    lr_mult: 2
    decay_mult: 0
  }
  convolution_param {
    num_output: 128
    kernel_size: 1
    weight_filler {
      type: "xavier"
    }
    bias_filler {
      type: "constant"
      value: 0.2
    }
  }
}
layer {
  name: "inception_4c/relu_1x1"
  type: "ReLU"
  bottom: "inception_4c/1x1"
  top: "inception_4c/1x1"
}
layer {
  name: "inception_4c/3x3_reduce"
  type: "Convolution"
  bottom: "inception_4b/output"
  top: "inception_4c/3x3_reduce"
  param {
    lr_mult: 1
    decay_mult: 1
  }
  param {
    lr_mult: 2
    decay_mult: 0
  }
  convolution_param {
    num_output: 128
    kernel_size: 1
    weight_filler {
      type: "xavier"
    }
    bias_filler {
      type: "constant"
      value: 0.2
    }
  }
}
layer {
  name: "inception_4c/relu_3x3_reduce"
  type: "ReLU"
  bottom: "inception_4c/3x3_reduce"
  top: "inception_4c/3x3_reduce"
}
layer {
  name: "inception_4c/3x3"
  type: "Convolution"
  bottom: "inception_4c/3x3_reduce"
  top: "inception_4c/3x3"
  param {
    lr_mult: 1
    decay_mult: 1
  }
  param {
    lr_mult: 2
    decay_mult: 0
  }
  convolution_param {
    num_output: 256
    pad: 1
    kernel_size: 3
    weight_filler {
      type: "xavier"
    }
    bias_filler {
      type: "constant"
      value: 0.2
    }
  }
}
layer {
  name: "inception_4c/relu_3x3"
  type: "ReLU"
  bottom: "inception_4c/3x3"
  top: "inception_4c/3x3"
}
layer {
  name: "inception_4c/5x5_reduce"
  type: "Convolution"
  bottom: "inception_4b/output"
  top: "inception_4c/5x5_reduce"
  param {
    lr_mult: 1
    decay_mult: 1
  }
  param {
    lr_mult: 2
    decay_mult: 0
  }
  convolution_param {
    num_output: 24
    kernel_size: 1
    weight_filler {
      type: "xavier"
    }
    bias_filler {
      type: "constant"
      value: 0.2
    }
  }
}
layer {
  name: "inception_4c/relu_5x5_reduce"
  type: "ReLU"
  bottom: "inception_4c/5x5_reduce"
  top: "inception_4c/5x5_reduce"
}
layer {
  name: "inception_4c/5x5"
  type: "Convolution"
  bottom: "inception_4c/5x5_reduce"
  top: "inception_4c/5x5"
  param {
    lr_mult: 1
    decay_mult: 1
  }
  param {
    lr_mult: 2
    decay_mult: 0
  }
  convolution_param {
    num_output: 64
    pad: 2
    kernel_size: 5
    weight_filler {
      type: "xavier"
    }
    bias_filler {
      type: "constant"
      value: 0.2
    }
  }
}
layer {
  name: "inception_4c/relu_5x5"
  type: "ReLU"
  bottom: "inception_4c/5x5"
  top: "inception_4c/5x5"
}
layer {
  name: "inception_4c/pool"
  type: "Pooling"
  bottom: "inception_4b/output"
  top: "inception_4c/pool"
  pooling_param {
    pool: MAX
    kernel_size: 3
    stride: 1
    pad: 1
  }
}
layer {
  name: "inception_4c/pool_proj"
  type: "Convolution"
  bottom: "inception_4c/pool"
  top: "inception_4c/pool_proj"
  param {
    lr_mult: 1
    decay_mult: 1
  }
  param {
    lr_mult: 2
    decay_mult: 0
  }
  convolution_param {
    num_output: 64
    kernel_size: 1
    weight_filler {
      type: "xavier"
    }
    bias_filler {
      type: "constant"
      value: 0.2
    }
  }
}
layer {
  name: "inception_4c/relu_pool_proj"
  type: "ReLU"
  bottom: "inception_4c/pool_proj"
  top: "inception_4c/pool_proj"
}
layer {
  name: "inception_4c/output"
  type: "Concat"
  bottom: "inception_4c/1x1"
  bottom: "inception_4c/3x3"
  bottom: "inception_4c/5x5"
  bottom: "inception_4c/pool_proj"
  top: "inception_4c/output"
}
layer {
  name: "inception_4d/1x1"
  type: "Convolution"
  bottom: "inception_4c/output"
  top: "inception_4d/1x1"
  param {
    lr_mult: 1
    decay_mult: 1
  }
  param {
    lr_mult: 2
    decay_mult: 0
  }
  convolution_param {
    num_output: 112
    kernel_size: 1
    weight_filler {
      type: "xavier"
    }
    bias_filler {
      type: "constant"
      value: 0.2
    }
  }
}
layer {
  name: "inception_4d/relu_1x1"
  type: "ReLU"
  bottom: "inception_4d/1x1"
  top: "inception_4d/1x1"
}
layer {
  name: "inception_4d/3x3_reduce"
  type: "Convolution"
  bottom: "inception_4c/output"
  top: "inception_4d/3x3_reduce"
  param {
    lr_mult: 1
    decay_mult: 1
  }
  param {
    lr_mult: 2
    decay_mult: 0
  }
  convolution_param {
    num_output: 144
    kernel_size: 1
    weight_filler {
      type: "xavier"
    }
    bias_filler {
      type: "constant"
      value: 0.2
    }
  }
}
layer {
  name: "inception_4d/relu_3x3_reduce"
  type: "ReLU"
  bottom: "inception_4d/3x3_reduce"
  top: "inception_4d/3x3_reduce"
}
layer {
  name: "inception_4d/3x3"
  type: "Convolution"
  bottom: "inception_4d/3x3_reduce"
  top: "inception_4d/3x3"
  param {
    lr_mult: 1
    decay_mult: 1
  }
  param {
    lr_mult: 2
    decay_mult: 0
  }
  convolution_param {
    num_output: 288
    pad: 1
    kernel_size: 3
    weight_filler {
      type: "xavier"
    }
    bias_filler {
      type: "constant"
      value: 0.2
    }
  }
}
layer {
  name: "inception_4d/relu_3x3"
  type: "ReLU"
  bottom: "inception_4d/3x3"
  top: "inception_4d/3x3"
}
layer {
  name: "inception_4d/5x5_reduce"
  type: "Convolution"
  bottom: "inception_4c/output"
  top: "inception_4d/5x5_reduce"
  param {
    lr_mult: 1
    decay_mult: 1
  }
  param {
    lr_mult: 2
    decay_mult: 0
  }
  convolution_param {
    num_output: 32
    kernel_size: 1
    weight_filler {
      type: "xavier"
    }
    bias_filler {
      type: "constant"
      value: 0.2
    }
  }
}
layer {
  name: "inception_4d/relu_5x5_reduce"
  type: "ReLU"
  bottom: "inception_4d/5x5_reduce"
  top: "inception_4d/5x5_reduce"
}
layer {
  name: "inception_4d/5x5"
  type: "Convolution"
  bottom: "inception_4d/5x5_reduce"
  top: "inception_4d/5x5"
  param {
    lr_mult: 1
    decay_mult: 1
  }
  param {
    lr_mult: 2
    decay_mult: 0
  }
  convolution_param {
    num_output: 64
    pad: 2
    kernel_size: 5
    weight_filler {
      type: "xavier"
    }
    bias_filler {
      type: "constant"
      value: 0.2
    }
  }
}
layer {
  name: "inception_4d/relu_5x5"
  type: "ReLU"
  bottom: "inception_4d/5x5"
  top: "inception_4d/5x5"
}
layer {
  name: "inception_4d/pool"
  type: "Pooling"
  bottom: "inception_4c/output"
  top: "inception_4d/pool"
  pooling_param {
    pool: MAX
    kernel_size: 3
    stride: 1
    pad: 1
  }
}
layer {
  name: "inception_4d/pool_proj"
  type: "Convolution"
  bottom: "inception_4d/pool"
  top: "inception_4d/pool_proj"
  param {
    lr_mult: 1
    decay_mult: 1
  }
  param {
    lr_mult: 2
    decay_mult: 0
  }
  convolution_param {
    num_output: 64
    kernel_size: 1
    weight_filler {
      type: "xavier"
    }
    bias_filler {
      type: "constant"
      value: 0.2
    }
  }
}
layer {
  name: "inception_4d/relu_pool_proj"
  type: "ReLU"
  bottom: "inception_4d/pool_proj"
  top: "inception_4d/pool_proj"
}
layer {
  name: "inception_4d/output"
  type: "Concat"
  bottom: "inception_4d/1x1"
  bottom: "inception_4d/3x3"
  bottom: "inception_4d/5x5"
  bottom: "inception_4d/pool_proj"
  top: "inception_4d/output"
}
layer {
  name: "loss2/ave_pool"
  type: "Pooling"
  bottom: "inception_4d/output"
  top: "loss2/ave_pool"
  pooling_param {
    pool: AVE
    kernel_size: 5
    stride: 3
  }
}
layer {
  name: "loss2/conv"
  type: "Convolution"
…
I1220 19:06:56.457988 31668 net.cpp:84] Creating Layer inception_4c/1x1
I1220 19:06:56.457994 31668 net.cpp:380] inception_4c/1x1 <- inception_4b/output_inception_4b/output_0_split_0
I1220 19:06:56.458005 31668 net.cpp:338] inception_4c/1x1 -> inception_4c/1x1
I1220 19:06:56.458016 31668 net.cpp:113] Setting up inception_4c/1x1
I1220 19:06:56.459400 31668 net.cpp:120] Top shape: 50 128 14 14 (1254400)
I1220 19:06:56.459420 31668 layer_factory.hpp:74] Creating layer inception_4c/relu_1x1
I1220 19:06:56.459431 31668 net.cpp:84] Creating Layer inception_4c/relu_1x1
I1220 19:06:56.459439 31668 net.cpp:380] inception_4c/relu_1x1 <- inception_4c/1x1
I1220 19:06:56.459452 31668 net.cpp:327] inception_4c/relu_1x1 -> inception_4c/1x1 (in-place)
I1220 19:06:56.459463 31668 net.cpp:113] Setting up inception_4c/relu_1x1
I1220 19:06:56.459811 31668 net.cpp:120] Top shape: 50 128 14 14 (1254400)
I1220 19:06:56.459828 31668 layer_factory.hpp:74] Creating layer inception_4c/3x3_reduce
I1220 19:06:56.459846 31668 net.cpp:84] Creating Layer inception_4c/3x3_reduce
I1220 19:06:56.459854 31668 net.cpp:380] inception_4c/3x3_reduce <- inception_4b/output_inception_4b/output_0_split_1
I1220 19:06:56.459867 31668 net.cpp:338] inception_4c/3x3_reduce -> inception_4c/3x3_reduce
I1220 19:06:56.459878 31668 net.cpp:113] Setting up inception_4c/3x3_reduce
I1220 19:06:56.467561 31668 net.cpp:120] Top shape: 50 128 14 14 (1254400)
I1220 19:06:56.467638 31668 layer_factory.hpp:74] Creating layer inception_4c/relu_3x3_reduce
I1220 19:06:56.467653 31668 net.cpp:84] Creating Layer inception_4c/relu_3x3_reduce
I1220 19:06:56.467664 31668 net.cpp:380] inception_4c/relu_3x3_reduce <- inception_4c/3x3_reduce
I1220 19:06:56.467684 31668 net.cpp:327] inception_4c/relu_3x3_reduce -> inception_4c/3x3_reduce (in-place)
I1220 19:06:56.467699 31668 net.cpp:113] Setting up inception_4c/relu_3x3_reduce
I1220 19:06:56.467806 31668 net.cpp:120] Top shape: 50 128 14 14 (1254400)
I1220 19:06:56.467816 31668 layer_factory.hpp:74] Creating layer inception_4c/3x3
I1220 19:06:56.467834 31668 net.cpp:84] Creating Layer inception_4c/3x3
I1220 19:06:56.467842 31668 net.cpp:380] inception_4c/3x3 <- inception_4c/3x3_reduce
I1220 19:06:56.467855 31668 net.cpp:338] inception_4c/3x3 -> inception_4c/3x3
I1220 19:06:56.467870 31668 net.cpp:113] Setting up inception_4c/3x3
I1220 19:06:56.472061 31668 net.cpp:120] Top shape: 50 256 14 14 (2508800)
I1220 19:06:56.472107 31668 layer_factory.hpp:74] Creating layer inception_4c/relu_3x3
I1220 19:06:56.472121 31668 net.cpp:84] Creating Layer inception_4c/relu_3x3
I1220 19:06:56.472129 31668 net.cpp:380] inception_4c/relu_3x3 <- inception_4c/3x3
I1220 19:06:56.472139 31668 net.cpp:327] inception_4c/relu_3x3 -> inception_4c/3x3 (in-place)
I1220 19:06:56.472151 31668 net.cpp:113] Setting up inception_4c/relu_3x3
I1220 19:06:56.472250 31668 net.cpp:120] Top shape: 50 256 14 14 (2508800)
I1220 19:06:56.472260 31668 layer_factory.hpp:74] Creating layer inception_4c/5x5_reduce
I1220 19:06:56.472276 31668 net.cpp:84] Creating Layer inception_4c/5x5_reduce
I1220 19:06:56.472285 31668 net.cpp:380] inception_4c/5x5_reduce <- inception_4b/output_inception_4b/output_0_split_2
I1220 19:06:56.472301 31668 net.cpp:338] inception_4c/5x5_reduce -> inception_4c/5x5_reduce
I1220 19:06:56.472312 31668 net.cpp:113] Setting up inception_4c/5x5_reduce
I1220 19:06:56.472990 31668 net.cpp:120] Top shape: 50 24 14 14 (235200)
I1220 19:06:56.473011 31668 layer_factory.hpp:74] Creating layer inception_4c/relu_5x5_reduce
I1220 19:06:56.473021 31668 net.cpp:84] Creating Layer inception_4c/relu_5x5_reduce
I1220 19:06:56.473029 31668 net.cpp:380] inception_4c/relu_5x5_reduce <- inception_4c/5x5_reduce
I1220 19:06:56.473039 31668 net.cpp:327] inception_4c/relu_5x5_reduce -> inception_4c/5x5_reduce (in-place)
I1220 19:06:56.473050 31668 net.cpp:113] Setting up inception_4c/relu_5x5_reduce
I1220 19:06:56.473364 31668 net.cpp:120] Top shape: 50 24 14 14 (235200)
I1220 19:06:56.473379 31668 layer_factory.hpp:74] Creating layer inception_4c/5x5
I1220 19:06:56.473397 31668 net.cpp:84] Creating Layer inception_4c/5x5
I1220 19:06:56.473404 31668 net.cpp:380] inception_4c/5x5 <- inception_4c/5x5_reduce
I1220 19:06:56.473419 31668 net.cpp:338] inception_4c/5x5 -> inception_4c/5x5
I1220 19:06:56.473433 31668 net.cpp:113] Setting up inception_4c/5x5
I1220 19:06:56.474439 31668 net.cpp:120] Top shape: 50 64 14 14 (627200)
I1220 19:06:56.474458 31668 layer_factory.hpp:74] Creating layer inception_4c/relu_5x5
I1220 19:06:56.474473 31668 net.cpp:84] Creating Layer inception_4c/relu_5x5
I1220 19:06:56.474481 31668 net.cpp:380] inception_4c/relu_5x5 <- inception_4c/5x5
I1220 19:06:56.474491 31668 net.cpp:327] inception_4c/relu_5x5 -> inception_4c/5x5 (in-place)
I1220 19:06:56.474503 31668 net.cpp:113] Setting up inception_4c/relu_5x5
I1220 19:06:56.474624 31668 net.cpp:120] Top shape: 50 64 14 14 (627200)
I1220 19:06:56.474652 31668 layer_factory.hpp:74] Creating layer inception_4c/pool
I1220 19:06:56.474660 31668 layer_factory.cpp:56] CUDNN does not support padding or multiple tops. Using Caffe's own pooling layer.
I1220 19:06:56.474673 31668 net.cpp:84] Creating Layer inception_4c/pool
I1220 19:06:56.474680 31668 net.cpp:380] inception_4c/pool <- inception_4b/output_inception_4b/output_0_split_3
I1220 19:06:56.474694 31668 net.cpp:338] inception_4c/pool -> inception_4c/pool
I1220 19:06:56.474706 31668 net.cpp:113] Setting up inception_4c/pool
I1220 19:06:56.474720 31668 net.cpp:120] Top shape: 50 512 14 14 (5017600)
I1220 19:06:56.474728 31668 layer_factory.hpp:74] Creating layer inception_4c/pool_proj
I1220 19:06:56.474761 31668 net.cpp:84] Creating Layer inception_4c/pool_proj
I1220 19:06:56.474769 31668 net.cpp:380] inception_4c/pool_proj <- inception_4c/pool
I1220 19:06:56.474783 31668 net.cpp:338] inception_4c/pool_proj -> inception_4c/pool_proj
I1220 19:06:56.474795 31668 net.cpp:113] Setting up inception_4c/pool_proj
I1220 19:06:56.475775 31668 net.cpp:120] Top shape: 50 64 14 14 (627200)
I1220 19:06:56.475796 31668 layer_factory.hpp:74] Creating layer inception_4c/relu_pool_proj
I1220 19:06:56.475818 31668 net.cpp:84] Creating Layer inception_4c/relu_pool_proj
I1220 19:06:56.475827 31668 net.cpp:380] inception_4c/relu_pool_proj <- inception_4c/pool_proj
I1220 19:06:56.475837 31668 net.cpp:327] inception_4c/relu_pool_proj -> inception_4c/pool_proj (in-place)
I1220 19:06:56.475848 31668 net.cpp:113] Setting up inception_4c/relu_pool_proj
I1220 19:06:56.475951 31668 net.cpp:120] Top shape: 50 64 14 14 (627200)
I1220 19:06:56.475961 31668 layer_factory.hpp:74] Creating layer inception_4c/output
I1220 19:06:56.475975 31668 net.cpp:84] Creating Layer inception_4c/output
I1220 19:06:56.475981 31668 net.cpp:380] inception_4c/output <- inception_4c/1x1
I1220 19:06:56.475991 31668 net.cpp:380] inception_4c/output <- inception_4c/3x3
I1220 19:06:56.476001 31668 net.cpp:380] inception_4c/output <- inception_4c/5x5
I1220 19:06:56.476008 31668 net.cpp:380] inception_4c/output <- inception_4c/pool_proj
I1220 19:06:56.476018 31668 net.cpp:338] inception_4c/output -> inception_4c/output
I1220 19:06:56.476028 31668 net.cpp:113] Setting up inception_4c/output
I1220 19:06:56.476042 31668 net.cpp:120] Top shape: 50 512 14 14 (5017600)
I1220 19:06:56.476048 31668 layer_factory.hpp:74] Creating layer inception_4c/output_inception_4c/output_0_split
I1220 19:06:56.476063 31668 net.cpp:84] Creating Layer inception_4c/output_inception_4c/output_0_split
I1220 19:06:56.476069 31668 net.cpp:380] inception_4c/output_inception_4c/output_0_split <- inception_4c/output
I1220 19:06:56.476079 31668 net.cpp:338] inception_4c/output_inception_4c/output_0_split -> inception_4c/output_inception_4c/output_0_split_0
I1220 19:06:56.476091 31668 net.cpp:338] inception_4c/output_inception_4c/output_0_split -> inception_4c/output_inception_4c/output_0_split_1
I1220 19:06:56.476102 31668 net.cpp:338] inception_4c/output_inception_4c/output_0_split -> inception_4c/output_inception_4c/output_0_split_2
I1220 19:06:56.476116 31668 net.cpp:338] inception_4c/output_inception_4c/output_0_split -> inception_4c/output_inception_4c/output_0_split_3
I1220 19:06:56.476126 31668 net.cpp:113] Setting up inception_4c/output_inception_4c/output_0_split
I1220 19:06:56.476140 31668 net.cpp:120] Top shape: 50 512 14 14 (5017600)
I1220 19:06:56.476147 31668 net.cpp:120] Top shape: 50 512 14 14 (5017600)
I1220 19:06:56.476156 31668 net.cpp:120] Top shape: 50 512 14 14 (5017600)
I1220 19:06:56.476164 31668 net.cpp:120] Top shape: 50 512 14 14 (5017600)
I1220 19:06:56.476172 31668 layer_factory.hpp:74] Creating layer inception_4d/1x1
I1220 19:06:56.476183 31668 net.cpp:84] Creating Layer inception_4d/1x1
I1220 19:06:56.476191 31668 net.cpp:380] inception_4d/1x1 <- inception_4c/output_inception_4c/output_0_split_0
I1220 19:06:56.476204 31668 net.cpp:338] inception_4d/1x1 -> inception_4d/1x1
I1220 19:06:56.476215 31668 net.cpp:113] Setting up inception_4d/1x1
I1220 19:06:56.477468 31668 net.cpp:120] Top shape: 50 112 14 14 (1097600)
I1220 19:06:56.477499 31668 layer_factory.hpp:74] Creating layer inception_4d/relu_1x1
I1220 19:06:56.477520 31668 net.cpp:84] Creating Layer inception_4d/relu_1x1
I1220 19:06:56.477530 31668 net.cpp:380] inception_4d/relu_1x1 <- inception_4d/1x1
I1220 19:06:56.477540 31668 net.cpp:327] inception_4d/relu_1x1 -> inception_4d/1x1 (in-place)
I1220 19:06:56.477550 31668 net.cpp:113] Setting up inception_4d/relu_1x1
I1220 19:06:56.477651 31668 net.cpp:120] Top shape: 50 112 14 14 (1097600)
I1220 19:06:56.477661 31668 layer_factory.hpp:74] Creating layer inception_4d/3x3_reduce
I1220 19:06:56.477679 31668 net.cpp:84] Creating Layer inception_4d/3x3_reduce
I1220 19:06:56.477689 31668 net.cpp:380] inception_4d/3x3_reduce <- inception_4c/output_inception_4c/output_0_split_1
I1220 19:06:56.477705 31668 net.cpp:338] inception_4d/3x3_reduce -> inception_4d/3x3_reduce
I1220 19:06:56.477717 31668 net.cpp:113] Setting up inception_4d/3x3_reduce
I1220 19:06:56.479156 31668 net.cpp:120] Top shape: 50 144 14 14 (1411200)
I1220 19:06:56.479176 31668 layer_factory.hpp:74] Creating layer inception_4d/relu_3x3_reduce
I1220 19:06:56.479188 31668 net.cpp:84] Creating Layer inception_4d/relu_3x3_reduce
I1220 19:06:56.479199 31668 net.cpp:380] inception_4d/relu_3x3_reduce <- inception_4d/3x3_reduce
I1220 19:06:56.479209 31668 net.cpp:327] inception_4d/relu_3x3_reduce -> inception_4d/3x3_reduce (in-place)
I1220 19:06:56.479221 31668 net.cpp:113] Setting up inception_4d/relu_3x3_reduce
I1220 19:06:56.479532 31668 net.cpp:120] Top shape: 50 144 14 14 (1411200)
I1220 19:06:56.479547 31668 layer_factory.hpp:74] Creating layer inception_4d/3x3
I1220 19:06:56.479583 31668 net.cpp:84] Creating Layer inception_4d/3x3
I1220 19:06:56.479591 31668 net.cpp:380] inception_4d/3x3 <- inception_4d/3x3_reduce
I1220 19:06:56.479604 31668 net.cpp:338] inception_4d/3x3 -> inception_4d/3x3
I1220 19:06:56.479616 31668 net.cpp:113] Setting up inception_4d/3x3
I1220 19:06:56.484901 31668 net.cpp:120] Top shape: 50 288 14 14 (2822400)
I1220 19:06:56.484922 31668 layer_factory.hpp:74] Creating layer inception_4d/relu_3x3
I1220 19:06:56.484936 31668 net.cpp:84] Creating Layer inception_4d/relu_3x3
I1220 19:06:56.484946 31668 net.cpp:380] inception_4d/relu_3x3 <- inception_4d/3x3
I1220 19:06:56.484956 31668 net.cpp:327] inception_4d/relu_3x3 -> inception_4d/3x3 (in-place)
I1220 19:06:56.484966 31668 net.cpp:113] Setting up inception_4d/relu_3x3
I1220 19:06:56.485076 31668 net.cpp:120] Top shape: 50 288 14 14 (2822400)
I1220 19:06:56.485092 31668 layer_factory.hpp:74] Creating layer inception_4d/5x5_reduce
I1220 19:06:56.485105 31668 net.cpp:84] Creating Layer inception_4d/5x5_reduce
I1220 19:06:56.485113 31668 net.cpp:380] inception_4d/5x5_reduce <- inception_4c/output_inception_4c/output_0_split_2
I1220 19:06:56.485126 31668 net.cpp:338] inception_4d/5x5_reduce -> inception_4d/5x5_reduce
I1220 19:06:56.485139 31668 net.cpp:113] Setting up inception_4d/5x5_reduce
I1220 19:06:56.485967 31668 net.cpp:120] Top shape: 50 32 14 14 (313600)
I1220 19:06:56.485988 31668 layer_factory.hpp:74] Creating layer inception_4d/relu_5x5_reduce
I1220 19:06:56.486001 31668 net.cpp:84] Creating Layer inception_4d/relu_5x5_reduce
I1220 19:06:56.486011 31668 net.cpp:380] inception_4d/relu_5x5_reduce <- inception_4d/5x5_reduce
I1220 19:06:56.486021 31668 net.cpp:327] inception_4d/relu_5x5_reduce -> inception_4d/5x5_reduce (in-place)
I1220 19:06:56.486032 31668 net.cpp:113] Setting up inception_4d/relu_5x5_reduce
I1220 19:06:56.486135 31668 net.cpp:120] Top shape: 50 32 14 14 (313600)
I1220 19:06:56.486145 31668 layer_factory.hpp:74] Creating layer inception_4d/5x5
I1220 19:06:56.486160 31668 net.cpp:84] Creating Layer inception_4d/5x5
I1220 19:06:56.486168 31668 net.cpp:380] inception_4d/5x5 <- inception_4d/5x5_reduce
I1220 19:06:56.486181 31668 net.cpp:338] inception_4d/5x5 -> inception_4d/5x5
I1220 19:06:56.486193 31668 net.cpp:113] Setting up inception_4d/5x5
I1220 19:06:56.487408 31668 net.cpp:120] Top shape: 50 64 14 14 (627200)
I1220 19:06:56.487437 31668 layer_factory.hpp:74] Creating layer inception_4d/relu_5x5
I1220 19:06:56.487462 31668 net.cpp:84] Creating Layer inception_4d/relu_5x5
I1220 19:06:56.487473 31668 net.cpp:380] inception_4d/relu_5x5 <- inception_4d/5x5
I1220 19:06:56.487483 31668 net.cpp:327] inception_4d/relu_5x5 -> inception_4d/5x5 (in-place)
I1220 19:06:56.487493 31668 net.cpp:113] Setting up inception_4d/relu_5x5
I1220 19:06:56.487597 31668 net.cpp:120] Top shape: 50 64 14 14 (627200)
I1220 19:06:56.487607 31668 layer_factory.hpp:74] Creating layer inception_4d/pool
I1220 19:06:56.487615 31668 layer_factory.cpp:56] CUDNN does not support padding or multiple tops. Using Caffe's own pooling layer.
I1220 19:06:56.487627 31668 net.cpp:84] Creating Layer inception_4d/pool
I1220 19:06:56.487635 31668 net.cpp:380] inception_4d/pool <- inception_4c/output_inception_4c/output_0_split_3
I1220 19:06:56.487646 31668 net.cpp:338] inception_4d/pool -> inception_4d/pool
I1220 19:06:56.487661 31668 net.cpp:113] Setting up inception_4d/pool
I1220 19:06:56.487675 31668 net.cpp:120] Top shape: 50 512 14 14 (5017600)
I1220 19:06:56.487684 31668 layer_factory.hpp:74] Creating layer inception_4d/pool_proj
I1220 19:06:56.487696 31668 net.cpp:84] Creating Layer inception_4d/pool_proj
I1220 19:06:56.487704 31668 net.cpp:380] inception_4d/pool_proj <- inception_4d/pool
I1220 19:06:56.487716 31668 net.cpp:338] inception_4d/pool_proj -> inception_4d/pool_proj
I1220 19:06:56.487728 31668 net.cpp:113] Setting up inception_4d/pool_proj
I1220 19:06:56.488706 31668 net.cpp:120] Top shape: 50 64 14 14 (627200)
I1220 19:06:56.488728 31668 layer_factory.hpp:74] Creating layer inception_4d/relu_pool_proj
I1220 19:06:56.488739 31668 net.cpp:84] Creating Layer inception_4d/relu_pool_proj
I1220 19:06:56.488746 31668 net.cpp:380] inception_4d/relu_pool_proj <- inception_4d/pool_proj
I1220 19:06:56.488756 31668 net.cpp:327] inception_4d/relu_pool_proj -> inception_4d/pool_proj (in-place)
I1220 19:06:56.488768 31668 net.cpp:113] Setting up inception_4d/relu_pool_proj
I1220 19:06:56.489099 31668 net.cpp:120] Top shape: 50 64 14 14 (627200)
I1220 19:06:56.489115 31668 layer_factory.hpp:74] Creating layer inception_4d/output
I1220 19:06:56.489128 31668 net.cpp:84] Creating Layer inception_4d/output
I1220 19:06:56.489136 31668 net.cpp:380] inception_4d/output <- inception_4d/1x1
I1220 19:06:56.489146 31668 net.cpp:380] inception_4d/output <- inception_4d/3x3
I1220 19:06:56.489154 31668 net.cpp:380] inception_4d/output <- inception_4d/5x5
I1220 19:06:56.489163 31668 net.cpp:380] inception_4d/output <- inception_4d/pool_proj
I1220 19:06:56.489176 31668 net.cpp:338] inception_4d/output -> inception_4d/output
I1220 19:06:56.489188 31668 net.cpp:113] Setting up inception_4d/output
I1220 19:06:56.489202 31668 net.cpp:120] Top shape: 50 528 14 14 (5174400)
I1220 19:06:56.489208 31668 layer_factory.hpp:74] Creating layer inception_4d/output_inception_4d/output_0_split
I1220 19:06:56.489220 31668 net.cpp:84] Creating Layer inception_4d/output_inception_4d/output_0_split
I1220 19:06:56.489228 31668 net.cpp:380] inception_4d/output_inception_4d/output_0_split <- inception_4d/output
I1220 19:06:56.489240 31668 net.cpp:338] inception_4d/output_inception_4d/output_0_split -> inception_4d/output_inception_4d/output_0_split_0
I1220 19:06:56.489253 31668 net.cpp:338] inception_4d/output_inception_4d/output_0_split -> inception_4d/output_inception_4d/output_0_split_1
I1220 19:06:56.489264 31668 net.cpp:338] inception_4d/output_inception_4d/output_0_split -> inception_4d/output_inception_4d/output_0_split_2
I1220 19:06:56.489276 31668 net.cpp:338] inception_4d/output_inception_4d/output_0_split -> inception_4d/output_inception_4d/output_0_split_3
I1220 19:06:56.489287 31668 net.cpp:338] inception_4d/output_inception_4d/output_0_split -> inception_4d/output_inception_4d/output_0_split_4
I1220 19:06:56.489297 31668 net.cpp:113] Setting up inception_4d/output_inception_4d/output_0_split
I1220 19:06:56.489310 31668 net.cpp:120] Top shape: 50 528 14 14 (5174400)
I1220 19:06:56.489327 31668 net.cpp:120] Top shape: 50 528 14 14 (5174400)
I1220 19:06:56.489348 31668 net.cpp:120] Top shape: 50 528 14 14 (5174400)
I1220 19:06:56.489357 31668 net.cpp:120] Top shape: 50 528 14 14 (5174400)
I1220 19:06:56.489365 31668 net.cpp:120] Top shape: 50 528 14 14 (5174400)
I1220 19:06:56.489372 31668 layer_factory.hpp:74] Creating layer loss2/ave_pool
I1220 19:06:56.489387 31668 net.cpp:84] Creating Layer loss2/ave_pool
I1220 19:06:56.489395 31668 net.cpp:380] loss2/ave_pool <- inception_4d/output_inception_4d/output_0_split_0
I1220 19:06:56.489406 31668 net.cpp:338] loss2/ave_pool -> loss2/ave_pool
I1220 19:06:56.489418 31668 net.cpp:113] Setting up loss2/ave_pool
I1220 19:06:56.489529 31668 net.cpp:120] Top shape: 50 528 4 4 (422400)
I1220 19:06:56.489539 31668 layer_factory.hpp:74] Creating layer loss2/conv
I1220 19:06:56.489555 31668 net.cpp:84] Creating Layer loss2/conv
I1220 19:06:56.489563 31668 net.cpp:380] loss2/conv <- loss2/ave_pool
I1220 19:06:56.489576 31668 net.cpp:338] loss2/conv -> loss2/conv
I1220 19:06:56.489589 31668 net.cpp:113] Setting up loss2/conv
I1220 19:06:56.491039 31668 net.cpp:120] Top shape: 50 128 4 4 (102400)
I1220 19:06:56.491067 31668 layer_factory.hpp:74] Creating layer loss2/relu_conv
I1220 19:06:56.491080 31668 net.cpp:84] Creating Layer loss2/relu_conv
I1220 19:06:56.491087 31668 net.cpp:380] loss2/relu_conv <- loss2/conv
I1220 19:06:56.491101 31668 net.cpp:327] loss2/relu_conv -> loss2/conv (in-place)
I1220 19:06:56.491112 31668 net.cpp:113] Setting up loss2/relu_conv
I1220 19:06:56.491214 31668 net.cpp:120] Top shape: 50 128 4 4 (102400)
I1220 19:06:56.491224 31668 layer_factory.hpp:74] Creating layer loss2/fc
I1220 19:06:56.491236 31668 net.cpp:84] Creating Layer loss2/fc
I1220 19:06:56.491243 31668 net.cpp:380] loss2/fc <- loss2/conv
I1220 19:06:56.491256 31668 net.cpp:338] loss2/fc -> loss2/fc
I1220 19:06:56.491269 31668 net.cpp:113] Setting up loss2/fc
I1220 19:06:57.842875 31668 net.cpp:120] Top shape: 50 1024 (51200)
I1220 19:06:57.842954 31668 layer_factory.hpp:74] Creating layer loss2/relu_fc
I1220 19:06:57.842967 31668 net.cpp:84] Creating Layer loss2/relu_fc
I1220 19:06:57.842977 31668 net.cpp:380] loss2/relu_fc <- loss2/fc
I1220 19:06:57.842986 31668 net.cpp:327] loss2/relu_fc -> loss2/fc (in-place)
I1220 19:06:57.842998 31668 net.cpp:113] Setting up loss2/relu_fc
I1220 19:06:57.843178 31668 net.cpp:120] Top shape: 50 1024 (51200)
I1220 19:06:57.843188 31668 layer_factory.hpp:74] Creating layer loss2/drop_fc
I1220 19:06:57.843195 31668 net.cpp:84] Creating Layer loss2/drop_fc
I1220 19:06:57.843199 31668 net.cpp:380] loss2/drop_fc <- loss2/fc
I1220 19:06:57.843209 31668 net.cpp:327] loss2/drop_fc -> loss2/fc (in-place)
I1220 19:06:57.843215 31668 net.cpp:113] Setting up loss2/drop_fc
I1220 19:06:57.843222 31668 net.cpp:120] Top shape: 50 1024 (51200)
I1220 19:06:57.843227 31668 layer_factory.hpp:74] Creating layer loss2/classifier_kaggle
I1220 19:06:57.843236 31668 net.cpp:84] Creating Layer loss2/classifier_kaggle
I1220 19:06:57.843241 31668 net.cpp:380] loss2/classifier_kaggle <- loss2/fc
I1220 19:06:57.843250 31668 net.cpp:338] loss2/classifier_kaggle -> loss2/classifier_kaggle
I1220 19:06:57.843261 31668 net.cpp:113] Setting up loss2/classifier_kaggle
I1220 19:06:57.848338 31668 net.cpp:120] Top shape: 50 447 (22350)
I1220 19:06:57.848390 31668 layer_factory.hpp:74] Creating layer loss2/classifier_kaggle_loss2/classifier_kaggle_0_split
I1220 19:06:57.848403 31668 net.cpp:84] Creating Layer loss2/classifier_kaggle_loss2/classifier_kaggle_0_split
I1220 19:06:57.848414 31668 net.cpp:380] loss2/classifier_kaggle_loss2/classifier_kaggle_0_split <- loss2/classifier_kaggle
I1220 19:06:57.848428 31668 net.cpp:338] loss2/classifier_kaggle_loss2/classifier_kaggle_0_split -> loss2/classifier_kaggle_loss2/classifier_kaggle_0_split_0
I1220 19:06:57.848440 31668 net.cpp:338] loss2/classifier_kaggle_loss2/classifier_kaggle_0_split -> loss2/classifier_kaggle_loss2/classifier_kaggle_0_split_1
I1220 19:06:57.848448 31668 net.cpp:338] loss2/classifier_kaggle_loss2/classifier_kaggle_0_split -> loss2/classifier_kaggle_loss2/classifier_kaggle_0_split_2
I1220 19:06:57.848497 31668 net.cpp:113] Setting up loss2/classifier_kaggle_loss2/classifier_kaggle_0_split
I1220 19:06:57.848506 31668 net.cpp:120] Top shape: 50 447 (22350)
I1220 19:06:57.848511 31668 net.cpp:120] Top shape: 50 447 (22350)
I1220 19:06:57.848515 31668 net.cpp:120] Top shape: 50 447 (22350)
I1220 19:06:57.848520 31668 layer_factory.hpp:74] Creating layer loss2/loss
I1220 19:06:57.848532 31668 net.cpp:84] Creating Layer loss2/loss
I1220 19:06:57.848537 31668 net.cpp:380] loss2/loss <- loss2/classifier_kaggle_loss2/classifier_kaggle_0_split_0
I1220 19:06:57.848546 31668 net.cpp:380] loss2/loss <- label_data_1_split_3
I1220 19:06:57.848551 31668 net.cpp:338] loss2/loss -> loss2/loss1
…
I1220 19:06:57.849366 31668 net.cpp:338] loss2/top-5 -> loss2/top-5
I1220 19:06:57.849375 31668 net.cpp:113] Setting up loss2/top-5
I1220 19:06:57.849380 31668 net.cpp:120] Top shape: (1)
I1220 19:06:57.849385 31668 layer_factory.hpp:74] Creating layer inception_4e/1x1
I1220 19:06:57.849396 31668 net.cpp:84] Creating Layer inception_4e/1x1
I1220 19:06:57.849402 31668 net.cpp:380] inception_4e/1x1 <- inception_4d/output_inception_4d/output_0_split_1
I1220 19:06:57.849411 31668 net.cpp:338] inception_4e/1x1 -> inception_4e/1x1
I1220 19:06:57.849418 31668 net.cpp:113] Setting up inception_4e/1x1
I1220 19:06:57.851547 31668 net.cpp:120] Top shape: 50 256 14 14 (2508800)
I1220 19:06:57.851573 31668 layer_factory.hpp:74] Creating layer inception_4e/relu_1x1
I1220 19:06:57.851584 31668 net.cpp:84] Creating Layer inception_4e/relu_1x1
I1220 19:06:57.851590 31668 net.cpp:380] inception_4e/relu_1x1 <- inception_4e/1x1
I1220 19:06:57.851598 31668 net.cpp:327] inception_4e/relu_1x1 -> inception_4e/1x1 (in-place)
I1220 19:06:57.851604 31668 net.cpp:113] Setting up inception_4e/relu_1x1
I1220 19:06:57.851675 31668 net.cpp:120] Top shape: 50 256 14 14 (2508800)
I1220 19:06:57.851681 31668 layer_factory.hpp:74] Creating layer inception_4e/3x3_reduce
I1220 19:06:57.851725 31668 net.cpp:84] Creating Layer inception_4e/3x3_reduce
I1220 19:06:57.851732 31668 net.cpp:380] inception_4e/3x3_reduce <- inception_4d/output_inception_4d/output_0_split_2
I1220 19:06:57.851742 31668 net.cpp:338] inception_4e/3x3_reduce -> inception_4e/3x3_reduce
I1220 19:06:57.851750 31668 net.cpp:113] Setting up inception_4e/3x3_reduce
I1220 19:06:57.861841 31668 net.cpp:120] Top shape: 50 160 14 14 (1568000)
I1220 19:06:57.861886 31668 layer_factory.hpp:74] Creating layer inception_4e/relu_3x3_reduce
I1220 19:06:57.861896 31668 net.cpp:84] Creating Layer inception_4e/relu_3x3_reduce
I1220 19:06:57.861903 31668 net.cpp:380] inception_4e/relu_3x3_reduce <- inception_4e/3x3_reduce
I1220 19:06:57.861912 31668 net.cpp:327] inception_4e/relu_3x3_reduce -> inception_4e/3x3_reduce (in-place)
I1220 19:06:57.861920 31668 net.cpp:113] Setting up inception_4e/relu_3x3_reduce
I1220 19:06:57.862007 31668 net.cpp:120] Top shape: 50 160 14 14 (1568000)
I1220 19:06:57.862027 31668 layer_factory.hpp:74] Creating layer inception_4e/3x3
I1220 19:06:57.862043 31668 net.cpp:84] Creating Layer inception_4e/3x3
I1220 19:06:57.862048 31668 net.cpp:380] inception_4e/3x3 <- inception_4e/3x3_reduce
I1220 19:06:57.862057 31668 net.cpp:338] inception_4e/3x3 -> inception_4e/3x3
I1220 19:06:57.862066 31668 net.cpp:113] Setting up inception_4e/3x3
I1220 19:06:57.867772 31668 net.cpp:120] Top shape: 50 320 14 14 (3136000)
I1220 19:06:57.867804 31668 layer_factory.hpp:74] Creating layer inception_4e/relu_3x3
I1220 19:06:57.867812 31668 net.cpp:84] Creating Layer inception_4e/relu_3x3
I1220 19:06:57.867818 31668 net.cpp:380] inception_4e/relu_3x3 <- inception_4e/3x3
I1220 19:06:57.867826 31668 net.cpp:327] inception_4e/relu_3x3 -> inception_4e/3x3 (in-place)
I1220 19:06:57.867835 31668 net.cpp:113] Setting up inception_4e/relu_3x3
I1220 19:06:57.868078 31668 net.cpp:120] Top shape: 50 320 14 14 (3136000)
I1220 19:06:57.868090 31668 layer_factory.hpp:74] Creating layer inception_4e/5x5_reduce
I1220 19:06:57.868101 31668 net.cpp:84] Creating Layer inception_4e/5x5_reduce
I1220 19:06:57.868108 31668 net.cpp:380] inception_4e/5x5_reduce <- inception_4d/output_inception_4d/output_0_split_3
I1220 19:06:57.868115 31668 net.cpp:338] inception_4e/5x5_reduce -> inception_4e/5x5_reduce
I1220 19:06:57.868124 31668 net.cpp:113] Setting up inception_4e/5x5_reduce
I1220 19:06:57.868717 31668 net.cpp:120] Top shape: 50 32 14 14 (313600)
I1220 19:06:57.868732 31668 layer_factory.hpp:74] Creating layer inception_4e/relu_5x5_reduce
I1220 19:06:57.868743 31668 net.cpp:84] Creating Layer inception_4e/relu_5x5_reduce
I1220 19:06:57.868748 31668 net.cpp:380] inception_4e/relu_5x5_reduce <- inception_4e/5x5_reduce
I1220 19:06:57.868755 31668 net.cpp:327] inception_4e/relu_5x5_reduce -> inception_4e/5x5_reduce (in-place)
I1220 19:06:57.868762 31668 net.cpp:113] Setting up inception_4e/relu_5x5_reduce
I1220 19:06:57.868834 31668 net.cpp:120] Top shape: 50 32 14 14 (313600)
I1220 19:06:57.868842 31668 layer_factory.hpp:74] Creating layer inception_4e/5x5
I1220 19:06:57.868854 31668 net.cpp:84] Creating Layer inception_4e/5x5
I1220 19:06:57.868859 31668 net.cpp:380] inception_4e/5x5 <- inception_4e/5x5_reduce
I1220 19:06:57.868865 31668 net.cpp:338] inception_4e/5x5 -> inception_4e/5x5
I1220 19:06:57.868873 31668 net.cpp:113] Setting up inception_4e/5x5
I1220 19:06:57.870409 31668 net.cpp:120] Top shape: 50 128 14 14 (1254400)
I1220 19:06:57.870425 31668 layer_factory.hpp:74] Creating layer inception_4e/relu_5x5
I1220 19:06:57.870434 31668 net.cpp:84] Creating Layer inception_4e/relu_5x5
I1220 19:06:57.870439 31668 net.cpp:380] inception_4e/relu_5x5 <- inception_4e/5x5
I1220 19:06:57.870446 31668 net.cpp:327] inception_4e/relu_5x5 -> inception_4e/5x5 (in-place)
I1220 19:06:57.870453 31668 net.cpp:113] Setting up inception_4e/relu_5x5
I1220 19:06:57.870522 31668 net.cpp:120] Top shape: 50 128 14 14 (1254400)
I1220 19:06:57.870528 31668 layer_factory.hpp:74] Creating layer inception_4e/pool
I1220 19:06:57.870535 31668 layer_factory.cpp:56] CUDNN does not support padding or multiple tops. Using Caffe's own pooling layer.
I1220 19:06:57.870542 31668 net.cpp:84] Creating Layer inception_4e/pool
I1220 19:06:57.870546 31668 net.cpp:380] inception_4e/pool <- inception_4d/output_inception_4d/output_0_split_4
I1220 19:06:57.870554 31668 net.cpp:338] inception_4e/pool -> inception_4e/pool
I1220 19:06:57.870563 31668 net.cpp:113] Setting up inception_4e/pool
I1220 19:06:57.870571 31668 net.cpp:120] Top shape: 50 528 14 14 (5174400)
I1220 19:06:57.870575 31668 layer_factory.hpp:74] Creating layer inception_4e/pool_proj
I1220 19:06:57.870584 31668 net.cpp:84] Creating Layer inception_4e/pool_proj
I1220 19:06:57.870589 31668 net.cpp:380] inception_4e/pool_proj <- inception_4e/pool
I1220 19:06:57.870599 31668 net.cpp:338] inception_4e/pool_proj -> inception_4e/pool_proj
I1220 19:06:57.870606 31668 net.cpp:113] Setting up inception_4e/pool_proj
I1220 19:06:57.871757 31668 net.cpp:120] Top shape: 50 128 14 14 (1254400)
I1220 19:06:57.871783 31668 layer_factory.hpp:74] Creating layer inception_4e/relu_pool_proj
I1220 19:06:57.871789 31668 net.cpp:84] Creating Layer inception_4e/relu_pool_proj
I1220 19:06:57.871795 31668 net.cpp:380] inception_4e/relu_pool_proj <- inception_4e/pool_proj
I1220 19:06:57.871801 31668 net.cpp:327] inception_4e/relu_pool_proj -> inception_4e/pool_proj (in-place)
I1220 19:06:57.871809 31668 net.cpp:113] Setting up inception_4e/relu_pool_proj
I1220 19:06:57.871877 31668 net.cpp:120] Top shape: 50 128 14 14 (1254400)
I1220 19:06:57.871883 31668 layer_factory.hpp:74] Creating layer inception_4e/output
I1220 19:06:57.871891 31668 net.cpp:84] Creating Layer inception_4e/output
I1220 19:06:57.871896 31668 net.cpp:380] inception_4e/output <- inception_4e/1x1
I1220 19:06:57.871902 31668 net.cpp:380] inception_4e/output <- inception_4e/3x3
I1220 19:06:57.871908 31668 net.cpp:380] inception_4e/output <- inception_4e/5x5
I1220 19:06:57.871913 31668 net.cpp:380] inception_4e/output <- inception_4e/pool_proj
I1220 19:06:57.871919 31668 net.cpp:338] inception_4e/output -> inception_4e/output
I1220 19:06:57.871927 31668 net.cpp:113] Setting up inception_4e/output
I1220 19:06:57.871935 31668 net.cpp:120] Top shape: 50 832 14 14 (8153600)
I1220 19:06:57.871939 31668 layer_factory.hpp:74] Creating layer pool4/3x3_s2
I1220 19:06:57.871948 31668 net.cpp:84] Creating Layer pool4/3x3_s2
I1220 19:06:57.871953 31668 net.cpp:380] pool4/3x3_s2 <- inception_4e/output
I1220 19:06:57.871959 31668 net.cpp:338] pool4/3x3_s2 -> pool4/3x3_s2
I1220 19:06:57.871966 31668 net.cpp:113] Setting up pool4/3x3_s2
I1220 19:06:57.872220 31668 net.cpp:120] Top shape: 50 832 7 7 (2038400)
I1220 19:06:57.872231 31668 layer_factory.hpp:74] Creating layer pool4/3x3_s2_pool4/3x3_s2_0_split
I1220 19:06:57.872241 31668 net.cpp:84] Creating Layer pool4/3x3_s2_pool4/3x3_s2_0_split
I1220 19:06:57.872247 31668 net.cpp:380] pool4/3x3_s2_pool4/3x3_s2_0_split <- pool4/3x3_s2
I1220 19:06:57.872254 31668 net.cpp:338] pool4/3x3_s2_pool4/3x3_s2_0_split -> pool4/3x3_s2_pool4/3x3_s2_0_split_0
I1220 19:06:57.872262 31668 net.cpp:338] pool4/3x3_s2_pool4/3x3_s2_0_split -> pool4/3x3_s2_pool4/3x3_s2_0_split_1
I1220 19:06:57.872269 31668 net.cpp:338] pool4/3x3_s2_pool4/3x3_s2_0_split -> pool4/3x3_s2_pool4/3x3_s2_0_split_2
I1220 19:06:57.872298 31668 net.cpp:338] pool4/3x3_s2_pool4/3x3_s2_0_split -> pool4/3x3_s2_pool4/3x3_s2_0_split_3
I1220 19:06:57.872305 31668 net.cpp:113] Setting up pool4/3x3_s2_pool4/3x3_s2_0_split
I1220 19:06:57.872313 31668 net.cpp:120] Top shape: 50 832 7 7 (2038400)
I1220 19:06:57.872318 31668 net.cpp:120] Top shape: 50 832 7 7 (2038400)
I1220 19:06:57.872323 31668 net.cpp:120] Top shape: 50 832 7 7 (2038400)
I1220 19:06:57.872328 31668 net.cpp:120] Top shape: 50 832 7 7 (2038400)
I1220 19:06:57.872334 31668 layer_factory.hpp:74] Creating layer inception_5a/1x1
I1220 19:06:57.872344 31668 net.cpp:84] Creating Layer inception_5a/1x1
I1220 19:06:57.872349 31668 net.cpp:380] inception_5a/1x1 <- pool4/3x3_s2_pool4/3x3_s2_0_split_0
I1220 19:06:57.872356 31668 net.cpp:338] inception_5a/1x1 -> inception_5a/1x1
I1220 19:06:57.872364 31668 net.cpp:113] Setting up inception_5a/1x1
I1220 19:06:57.875094 31668 net.cpp:120] Top shape: 50 256 7 7 (627200)
I1220 19:06:57.875110 31668 layer_factory.hpp:74] Creating layer inception_5a/relu_1x1
I1220 19:06:57.875118 31668 net.cpp:84] Creating Layer inception_5a/relu_1x1
I1220 19:06:57.875123 31668 net.cpp:380] inception_5a/relu_1x1 <- inception_5a/1x1
I1220 19:06:57.875131 31668 net.cpp:327] inception_5a/relu_1x1 -> inception_5a/1x1 (in-place)
I1220 19:06:57.875138 31668 net.cpp:113] Setting up inception_5a/relu_1x1
I1220 19:06:57.875210 31668 net.cpp:120] Top shape: 50 256 7 7 (627200)
I1220 19:06:57.875216 31668 layer_factory.hpp:74] Creating layer inception_5a/3x3_reduce
I1220 19:06:57.875227 31668 net.cpp:84] Creating Layer inception_5a/3x3_reduce
I1220 19:06:57.875233 31668 net.cpp:380] inception_5a/3x3_reduce <- pool4/3x3_s2_pool4/3x3_s2_0_split_1
I1220 19:06:57.875247 31668 net.cpp:338] inception_5a/3x3_reduce -> inception_5a/3x3_reduce
I1220 19:06:57.875262 31668 net.cpp:113] Setting up inception_5a/3x3_reduce
I1220 19:06:57.877141 31668 net.cpp:120] Top shape: 50 160 7 7 (392000)
I1220 19:06:57.877157 31668 layer_factory.hpp:74] Creating layer inception_5a/relu_3x3_reduce
I1220 19:06:57.877164 31668 net.cpp:84] Creating Layer inception_5a/relu_3x3_reduce
I1220 19:06:57.877171 31668 net.cpp:380] inception_5a/relu_3x3_reduce <- inception_5a/3x3_reduce
I1220 19:06:57.877178 31668 net.cpp:327] inception_5a/relu_3x3_reduce -> inception_5a/3x3_reduce (in-place)
I1220 19:06:57.877187 31668 net.cpp:113] Setting up inception_5a/relu_3x3_reduce
I1220 19:06:57.877257 31668 net.cpp:120] Top shape: 50 160 7 7 (392000)
I1220 19:06:57.877264 31668 layer_factory.hpp:74] Creating layer inception_5a/3x3
I1220 19:06:57.877272 31668 net.cpp:84] Creating Layer inception_5a/3x3
I1220 19:06:57.877277 31668 net.cpp:380] inception_5a/3x3 <- inception_5a/3x3_reduce
I1220 19:06:57.877285 31668 net.cpp:338] inception_5a/3x3 -> inception_5a/3x3
I1220 19:06:57.877293 31668 net.cpp:113] Setting up inception_5a/3x3
I1220 19:06:57.887531 31668 net.cpp:120] Top shape: 50 320 7 7 (784000)
I1220 19:06:57.887553 31668 layer_factory.hpp:74] Creating layer inception_5a/relu_3x3
I1220 19:06:57.887562 31668 net.cpp:84] Creating Layer inception_5a/relu_3x3
I1220 19:06:57.887568 31668 net.cpp:380] inception_5a/relu_3x3 <- inception_5a/3x3
I1220 19:06:57.887575 31668 net.cpp:327] inception_5a/relu_3x3 -> inception_5a/3x3 (in-place)
I1220 19:06:57.887584 31668 net.cpp:113] Setting up inception_5a/relu_3x3
I1220 19:06:57.887655 31668 net.cpp:120] Top shape: 50 320 7 7 (784000)
I1220 19:06:57.887662 31668 layer_factory.hpp:74] Creating layer inception_5a/5x5_reduce
I1220 19:06:57.887671 31668 net.cpp:84] Creating Layer inception_5a/5x5_reduce
I1220 19:06:57.887676 31668 net.cpp:380] inception_5a/5x5_reduce <- pool4/3x3_s2_pool4/3x3_s2_0_split_2
I1220 19:06:57.887686 31668 net.cpp:338] inception_5a/5x5_reduce -> inception_5a/5x5_reduce
I1220 19:06:57.887694 31668 net.cpp:113] Setting up inception_5a/5x5_reduce
I1220 19:06:57.888389 31668 net.cpp:120] Top shape: 50 32 7 7 (78400)
I1220 19:06:57.888406 31668 layer_factory.hpp:74] Creating layer inception_5a/relu_5x5_reduce
I1220 19:06:57.888416 31668 net.cpp:84] Creating Layer inception_5a/relu_5x5_reduce
I1220 19:06:57.888420 31668 net.cpp:380] inception_5a/relu_5x5_reduce <- inception_5a/5x5_reduce
I1220 19:06:57.888427 31668 net.cpp:327] inception_5a/relu_5x5_reduce -> inception_5a/5x5_reduce (in-place)
I1220 19:06:57.888434 31668 net.cpp:113] Setting up inception_5a/relu_5x5_reduce
I1220 19:06:57.888680 31668 net.cpp:120] Top shape: 50 32 7 7 (78400)
I1220 19:06:57.888691 31668 layer_factory.hpp:74] Creating layer inception_5a/5x5
I1220 19:06:57.888701 31668 net.cpp:84] Creating Layer inception_5a/5x5
I1220 19:06:57.888707 31668 net.cpp:380] inception_5a/5x5 <- inception_5a/5x5_reduce
I1220 19:06:57.888715 31668 net.cpp:338] inception_5a/5x5 -> inception_5a/5x5
I1220 19:06:57.888722 31668 net.cpp:113] Setting up inception_5a/5x5
I1220 19:06:57.890262 31668 net.cpp:120] Top shape: 50 128 7 7 (313600)
I1220 19:06:57.890278 31668 layer_factory.hpp:74] Creating layer inception_5a/relu_5x5
I1220 19:06:57.890287 31668 net.cpp:84] Creating Layer inception_5a/relu_5x5
I1220 19:06:57.890293 31668 net.cpp:380] inception_5a/relu_5x5 <- inception_5a/5x5
I1220 19:06:57.890300 31668 net.cpp:327] inception_5a/relu_5x5 -> inception_5a/5x5 (in-place)
I1220 19:06:57.890307 31668 net.cpp:113] Setting up inception_5a/relu_5x5
I1220 19:06:57.890377 31668 net.cpp:120] Top shape: 50 128 7 7 (313600)
I1220 19:06:57.890383 31668 layer_factory.hpp:74] Creating layer inception_5a/pool
I1220 19:06:57.890388 31668 layer_factory.cpp:56] CUDNN does not support padding or multiple tops. Using Caffe's own pooling layer.
I1220 19:06:57.890395 31668 net.cpp:84] Creating Layer inception_5a/pool
I1220 19:06:57.890400 31668 net.cpp:380] inception_5a/pool <- pool4/3x3_s2_pool4/3x3_s2_0_split_3
I1220 19:06:57.890414 31668 net.cpp:338] inception_5a/pool -> inception_5a/pool
I1220 19:06:57.890429 31668 net.cpp:113] Setting up inception_5a/pool
I1220 19:06:57.890439 31668 net.cpp:120] Top shape: 50 832 7 7 (2038400)
I1220 19:06:57.890442 31668 layer_factory.hpp:74] Creating layer inception_5a/pool_proj
I1220 19:06:57.890452 31668 net.cpp:84] Creating Layer inception_5a/pool_proj
I1220 19:06:57.890456 31668 net.cpp:380] inception_5a/pool_proj <- inception_5a/pool
I1220 19:06:57.890463 31668 net.cpp:338] inception_5a/pool_proj -> inception_5a/pool_proj
I1220 19:06:57.890472 31668 net.cpp:113] Setting up inception_5a/pool_proj
I1220 19:06:57.892063 31668 net.cpp:120] Top shape: 50 128 7 7 (313600)
I1220 19:06:57.892078 31668 layer_factory.hpp:74] Creating layer inception_5a/relu_pool_proj
I1220 19:06:57.892086 31668 net.cpp:84] Creating Layer inception_5a/relu_pool_proj
I1220 19:06:57.892092 31668 net.cpp:380] inception_5a/relu_pool_proj <- inception_5a/pool_proj
I1220 19:06:57.892099 31668 net.cpp:327] inception_5a/relu_pool_proj -> inception_5a/pool_proj (in-place)
I1220 19:06:57.892115 31668 net.cpp:113] Setting up inception_5a/relu_pool_proj
I1220 19:06:57.892184 31668 net.cpp:120] Top shape: 50 128 7 7 (313600)
I1220 19:06:57.892195 31668 layer_factory.hpp:74] Creating layer inception_5a/output
I1220 19:06:57.892204 31668 net.cpp:84] Creating Layer inception_5a/output
I1220 19:06:57.892209 31668 net.cpp:380] inception_5a/output <- inception_5a/1x1
I1220 19:06:57.892215 31668 net.cpp:380] inception_5a/output <- inception_5a/3x3
I1220 19:06:57.892220 31668 net.cpp:380] inception_5a/output <- inception_5a/5x5
I1220 19:06:57.892225 31668 net.cpp:380] inception_5a/output <- inception_5a/pool_proj
I1220 19:06:57.892233 31668 net.cpp:338] inception_5a/output -> inception_5a/output
I1220 19:06:57.892241 31668 net.cpp:113] Setting up inception_5a/output
I1220 19:06:57.892248 31668 net.cpp:120] Top shape: 50 832 7 7 (2038400)
I1220 19:06:57.892253 31668 layer_factory.hpp:74] Creating layer inception_5a/output_inception_5a/output_0_split
I1220 19:06:57.892259 31668 net.cpp:84] Creating Layer inception_5a/output_inception_5a/output_0_split
I1220 19:06:57.892264 31668 net.cpp:380] inception_5a/output_inception_5a/output_0_split <- inception_5a/output
I1220 19:06:57.892271 31668 net.cpp:338] inception_5a/output_inception_5a/output_0_split -> inception_5a/output_inception_5a/output_0_split_0
I1220 19:06:57.892278 31668 net.cpp:338] inception_5a/output_inception_5a/output_0_split -> inception_5a/output_inception_5a/output_0_split_1
I1220 19:06:57.892287 31668 net.cpp:338] inception_5a/output_inception_5a/output_0_split -> inception_5a/output_inception_5a/output_0_split_2
I1220 19:06:57.892293 31668 net.cpp:338] inception_5a/output_inception_5a/output_0_split -> inception_5a/output_inception_5a/output_0_split_3
I1220 19:06:57.892298 31668 net.cpp:113] Setting up inception_5a/output_inception_5a/output_0_split
I1220 19:06:57.892305 31668 net.cpp:120] Top shape: 50 832 7 7 (2038400)
I1220 19:06:57.892310 31668 net.cpp:120] Top shape: 50 832 7 7 (2038400)
I1220 19:06:57.892315 31668 net.cpp:120] Top shape: 50 832 7 7 (2038400)
I1220 19:06:57.892320 31668 net.cpp:120] Top shape: 50 832 7 7 (2038400)
I1220 19:06:57.892324 31668 layer_factory.hpp:74] Creating layer inception_5b/1x1
I1220 19:06:57.892333 31668 net.cpp:84] Creating Layer inception_5b/1x1
I1220 19:06:57.892338 31668 net.cpp:380] inception_5b/1x1 <- inception_5a/output_inception_5a/output_0_split_0
I1220 19:06:57.892344 31668 net.cpp:338] inception_5b/1x1 -> inception_5b/1x1
I1220 19:06:57.892352 31668 net.cpp:113] Setting up inception_5b/1x1
I1220 19:06:57.911972 31668 net.cpp:120] Top shape: 50 384 7 7 (940800)
I1220 19:06:57.912009 31668 layer_factory.hpp:74] Creating layer inception_5b/relu_1x1
I1220 19:06:57.912019 31668 net.cpp:84] Creating Layer inception_5b/relu_1x1
I1220 19:06:57.912025 31668 net.cpp:380] inception_5b/relu_1x1 <- inception_5b/1x1
I1220 19:06:57.912036 31668 net.cpp:327] inception_5b/relu_1x1 -> inception_5b/1x1 (in-place)
I1220 19:06:57.912046 31668 net.cpp:113] Setting up inception_5b/relu_1x1
I1220 19:06:57.912132 31668 net.cpp:120] Top shape: 50 384 7 7 (940800)
I1220 19:06:57.912149 31668 layer_factory.hpp:74] Creating layer inception_5b/3x3_reduce
I1220 19:06:57.912159 31668 net.cpp:84] Creating Layer inception_5b/3x3_reduce
I1220 19:06:57.912165 31668 net.cpp:380] inception_5b/3x3_reduce <- inception_5a/output_inception_5a/output_0_split_1
I1220 19:06:57.912174 31668 net.cpp:338] inception_5b/3x3_reduce -> inception_5b/3x3_reduce
I1220 19:06:57.912185 31668 net.cpp:113] Setting up inception_5b/3x3_reduce
I1220 19:06:57.920032 31668 net.cpp:120] Top shape: 50 192 7 7 (470400)
I1220 19:06:57.920085 31668 layer_factory.hpp:74] Creating layer inception_5b/relu_3x3_reduce
I1220 19:06:57.920099 31668 net.cpp:84] Creating Layer inception_5b/relu_3x3_reduce
I1220 19:06:57.920109 31668 net.cpp:380] inception_5b/relu_3x3_reduce <- inception_5b/3x3_reduce
I1220 19:06:57.920122 31668 net.cpp:327] inception_5b/relu_3x3_reduce -> inception_5b/3x3_reduce (in-place)
I1220 19:06:57.920135 31668 net.cpp:113] Setting up inception_5b/relu_3x3_reduce
I1220 19:06:57.926612 31668 net.cpp:120] Top shape: 50 192 7 7 (470400)
I1220 19:06:57.926661 31668 layer_factory.hpp:74] Creating layer inception_5b/3x3
I1220 19:06:57.926681 31668 net.cpp:84] Creating Layer inception_5b/3x3
I1220 19:06:57.926693 31668 net.cpp:380] inception_5b/3x3 <- inception_5b/3x3_reduce
I1220 19:06:57.926707 31668 net.cpp:338] inception_5b/3x3 -> inception_5b/3x3
I1220 19:06:57.926723 31668 net.cpp:113] Setting up inception_5b/3x3
I1220 19:06:57.934855 31668 net.cpp:120] Top shape: 50 384 7 7 (940800)
I1220 19:06:57.934898 31668 layer_factory.hpp:74] Creating layer inception_5b/relu_3x3
I1220 19:06:57.934913 31668 net.cpp:84] Creating Layer inception_5b/relu_3x3
I1220 19:06:57.934926 31668 net.cpp:380] inception_5b/relu_3x3 <- inception_5b/3x3
I1220 19:06:57.934936 31668 net.cpp:327] inception_5b/relu_3x3 -> inception_5b/3x3 (in-place)
I1220 19:06:57.934947 31668 net.cpp:113] Setting up inception_5b/relu_3x3
I1220 19:06:57.935019 31668 net.cpp:120] Top shape: 50 384 7 7 (940800)
I1220 19:06:57.935026 31668 layer_factory.hpp:74] Creating layer inception_5b/5x5_reduce
I1220 19:06:57.935039 31668 net.cpp:84] Creating Layer inception_5b/5x5_reduce
I1220 19:06:57.935045 31668 net.cpp:380] inception_5b/5x5_reduce <- inception_5a/output_inception_5a/output_0_split_2
I1220 19:06:57.935055 31668 net.cpp:338] inception_5b/5x5_reduce -> inception_5b/5x5_reduce
I1220 19:06:57.935065 31668 net.cpp:113] Setting up inception_5b/5x5_reduce
I1220 19:06:57.936014 31668 net.cpp:120] Top shape: 50 48 7 7 (117600)
I1220 19:06:57.936034 31668 layer_factory.hpp:74] Creating layer inception_5b/relu_5x5_reduce
I1220 19:06:57.936043 31668 net.cpp:84] Creating Layer inception_5b/relu_5x5_reduce
I1220 19:06:57.936049 31668 net.cpp:380] inception_5b/relu_5x5_reduce <- inception_5b/5x5_reduce
I1220 19:06:57.936058 31668 net.cpp:327] inception_5b/relu_5x5_reduce -> inception_5b/5x5_reduce (in-place)
I1220 19:06:57.936065 31668 net.cpp:113] Setting up inception_5b/relu_5x5_reduce
I1220 19:06:57.936137 31668 net.cpp:120] Top shape: 50 48 7 7 (117600)
I1220 19:06:57.936144 31668 layer_factory.hpp:74] Creating layer inception_5b/5x5
I1220 19:06:57.936170 31668 net.cpp:84] Creating Layer inception_5b/5x5
I1220 19:06:57.936178 31668 net.cpp:380] inception_5b/5x5 <- inception_5b/5x5_reduce
I1220 19:06:57.936188 31668 net.cpp:338] inception_5b/5x5 -> inception_5b/5x5
I1220 19:06:57.936197 31668 net.cpp:113] Setting up inception_5b/5x5
I1220 19:06:57.939345 31668 net.cpp:120] Top shape: 50 128 7 7 (313600)
I1220 19:06:57.939395 31668 layer_factory.hpp:74] Creating layer inception_5b/relu_5x5
I1220 19:06:57.939425 31668 net.cpp:84] Creating Layer inception_5b/relu_5x5
I1220 19:06:57.939435 31668 net.cpp:380] inception_5b/relu_5x5 <- inception_5b/5x5
I1220 19:06:57.939445 31668 net.cpp:327] inception_5b/relu_5x5 -> inception_5b/5x5 (in-place)
I1220 19:06:57.939456 31668 net.cpp:113] Setting up inception_5b/relu_5x5
I1220 19:06:57.939797 31668 net.cpp:120] Top shape: 50 128 7 7 (313600)
I1220 19:06:57.939822 31668 layer_factory.hpp:74] Creating layer inception_5b/pool
I1220 19:06:57.939842 31668 layer_factory.cpp:56] CUDNN does not support padding or multiple tops. Using Caffe's own pooling layer.
I1220 19:06:57.939849 31668 net.cpp:84] Creating Layer inception_5b/pool
I1220 19:06:57.939857 31668 net.cpp:380] inception_5b/pool <- inception_5a/output_inception_5a/output_0_split_3
I1220 19:06:57.939865 31668 net.cpp:338] inception_5b/pool -> inception_5b/pool
I1220 19:06:57.939875 31668 net.cpp:113] Setting up inception_5b/pool
I1220 19:06:57.939885 31668 net.cpp:120] Top shape: 50 832 7 7 (2038400)
I1220 19:06:57.939889 31668 layer_factory.hpp:74] Creating layer inception_5b/pool_proj
I1220 19:06:57.939903 31668 net.cpp:84] Creating Layer inception_5b/pool_proj
I1220 19:06:57.939908 31668 net.cpp:380] inception_5b/pool_proj <- inception_5b/pool
I1220 19:06:57.939915 31668 net.cpp:338] inception_5b/pool_proj -> inception_5b/pool_proj
I1220 19:06:57.939924 31668 net.cpp:113] Setting up inception_5b/pool_proj
I1220 19:06:57.941664 31668 net.cpp:120] Top shape: 50 128 7 7 (313600)
I1220 19:06:57.941700 31668 layer_factory.hpp:74] Creating layer inception_5b/relu_pool_proj
I1220 19:06:57.941712 31668 net.cpp:84] Creating Layer inception_5b/relu_pool_proj
I1220 19:06:57.941720 31668 net.cpp:380] inception_5b/relu_pool_proj <- inception_5b/pool_proj
I1220 19:06:57.941730 31668 net.cpp:327] inception_5b/relu_pool_proj -> inception_5b/pool_proj (in-place)
I1220 19:06:57.941740 31668 net.cpp:113] Setting up inception_5b/relu_pool_proj
I1220 19:06:57.941812 31668 net.cpp:120] Top shape: 50 128 7 7 (313600)
I1220 19:06:57.941820 31668 layer_factory.hpp:74] Creating layer inception_5b/output
I1220 19:06:57.941828 31668 net.cpp:84] Creating Layer inception_5b/output
I1220 19:06:57.941834 31668 net.cpp:380] inception_5b/output <- inception_5b/1x1
I1220 19:06:57.941841 31668 net.cpp:380] inception_5b/output <- inception_5b/3x3
I1220 19:06:57.941846 31668 net.cpp:380] inception_5b/output <- inception_5b/5x5
I1220 19:06:57.941853 31668 net.cpp:380] inception_5b/output <- inception_5b/pool_proj
I1220 19:06:57.941859 31668 net.cpp:338] inception_5b/output -> inception_5b/output
I1220 19:06:57.941867 31668 net.cpp:113] Setting up inception_5b/output
I1220 19:06:57.941875 31668 net.cpp:120] Top shape: 50 1024 7 7 (2508800)
I1220 19:06:57.941880 31668 layer_factory.hpp:74] Creating layer pool5/7x7_s1
I1220 19:06:57.941889 31668 net.cpp:84] Creating Layer pool5/7x7_s1
I1220 19:06:57.941893 31668 net.cpp:380] pool5/7x7_s1 <- inception_5b/output
I1220 19:06:57.941900 31668 net.cpp:338] pool5/7x7_s1 -> pool5/7x7_s1
I1220 19:06:57.941908 31668 net.cpp:113] Setting up pool5/7x7_s1
I1220 19:06:57.941985 31668 net.cpp:120] Top shape: 50 1024 1 1 (51200)
I1220 19:06:57.941992 31668 layer_factory.hpp:74] Creating layer pool5/drop_7x7_s1
I1220 19:06:57.942001 31668 net.cpp:84] Creating Layer pool5/drop_7x7_s1
I1220 19:06:57.942006 31668 net.cpp:380] pool5/drop_7x7_s1 <- pool5/7x7_s1
I1220 19:06:57.942013 31668 net.cpp:327] pool5/drop_7x7_s1 -> pool5/7x7_s1 (in-place)
I1220 19:06:57.942019 31668 net.cpp:113] Setting up pool5/drop_7x7_s1
I1220 19:06:57.942026 31668 net.cpp:120] Top shape: 50 1024 1 1 (51200)
I1220 19:06:57.942031 31668 layer_factory.hpp:74] Creating layer loss3/classifier_kaggle
I1220 19:06:57.942040 31668 net.cpp:84] Creating Layer loss3/classifier_kaggle
I1220 19:06:57.942045 31668 net.cpp:380] loss3/classifier_kaggle <- pool5/7x7_s1
I1220 19:06:57.942054 31668 net.cpp:338] loss3/classifier_kaggle -> loss3/classifier_kaggle
I1220 19:06:57.942062 31668 net.cpp:113] Setting up loss3/classifier_kaggle
I1220 19:06:57.947057 31668 net.cpp:120] Top shape: 50 447 (22350)
I1220 19:06:57.947096 31668 layer_factory.hpp:74] Creating layer loss3/classifier_kaggle_loss3/classifier_kaggle_0_split
I1220 19:06:57.947111 31668 net.cpp:84] Creating Layer loss3/classifier_kaggle_loss3/classifier_kaggle_0_split
I1220 19:06:57.947119 31668 net.cpp:380] loss3/classifier_kaggle_loss3/classifier_kaggle_0_split <- loss3/classifier_kaggle
I1220 19:06:57.947142 31668 net.cpp:338] loss3/classifier_kaggle_loss3/classifier_kaggle_0_split -> loss3/classifier_kaggle_loss3/classifier_kaggle_0_split_0
I1220 19:06:57.947167 31668 net.cpp:338] loss3/classifier_kaggle_loss3/classifier_kaggle_0_split -> loss3/classifier_kaggle_loss3/classifier_kaggle_0_split_1
I1220 19:06:57.947175 31668 net.cpp:338] loss3/classifier_kaggle_loss3/classifier_kaggle_0_split -> loss3/classifier_kaggle_loss3/classifier_kaggle_0_split_2
I1220 19:06:57.947181 31668 net.cpp:113] Setting up loss3/classifier_kaggle_loss3/classifier_kaggle_0_split
I1220 19:06:57.947191 31668 net.cpp:120] Top shape: 50 447 (22350)
I1220 19:06:57.947196 31668 net.cpp:120] Top shape: 50 447 (22350)
I1220 19:06:57.947201 31668 net.cpp:120] Top shape: 50 447 (22350)
I1220 19:06:57.947206 31668 layer_factory.hpp:74] Creating layer loss3/loss3
I1220 19:06:57.947213 31668 net.cpp:84] Creating Layer loss3/loss3
I1220 19:06:57.947217 31668 net.cpp:380] loss3/loss3 <- loss3/classifier_kaggle_loss3/classifier_kaggle_0_split_0
I1220 19:06:57.947224 31668 net.cpp:380] loss3/loss3 <- label_data_1_split_6
I1220 19:06:57.947230 31668 net.cpp:338] loss3/loss3 -> loss3/loss3
…
