…
I1218 16:58:58.361264 22336 net.cpp:257] The NetState phase (0) differed from the phase (1) specified by a rule in layer loss3/top-5
I1218 16:58:58.363193 22336 net.cpp:42] Initializing net from parameters: 
name: "MYNET"
state {
  phase: TRAIN
}
layer {
  name: "data"
  type: "ImageData"
  top: "data"
  top: "label"
  include {
    phase: TRAIN
  }
  transform_param {
    mirror: false
    crop_size: 224
    mean_value: 129
    mean_value: 129
    mean_value: 129
  }
  image_data_param {
    source: "/home/coldmanck/kaggle/label_train_full.txt"
    batch_size: 80
    shuffle: true
  }
}
layer {
  name: "conv1/7x7_s2"
  type: "Convolution"
  bottom: "data"
  top: "conv1/7x7_s2"
  param {
    lr_mult: 1
    decay_mult: 1
  }
  param {
    lr_mult: 2
    decay_mult: 0
  }
  convolution_param {
    num_output: 64
    pad: 3
    kernel_size: 7
    stride: 2
    weight_filler {
      type: "xavier"
    }
    bias_filler {
      type: "constant"
      value: 0.2
    }
  }
}
layer {
  name: "conv1/relu_7x7"
  type: "ReLU"
  bottom: "conv1/7x7_s2"
  top: "conv1/7x7_s2"
}
layer {
  name: "pool1/3x3_s2"
  type: "Pooling"
  bottom: "conv1/7x7_s2"
  top: "pool1/3x3_s2"
  pooling_param {
    pool: MAX
    kernel_size: 3
    stride: 2
  }
}
layer {
  name: "pool1/norm1"
  type: "LRN"
  bottom: "pool1/3x3_s2"
  top: "pool1/norm1"
  lrn_param {
    local_size: 5
    alpha: 0.0001
    beta: 0.75
  }
}
layer {
  name: "conv2/3x3_reduce"
  type: "Convolution"
  bottom: "pool1/norm1"
  top: "conv2/3x3_reduce"
  param {
    lr_mult: 1
    decay_mult: 1
  }
  param {
    lr_mult: 2
    decay_mult: 0
  }
  convolution_param {
    num_output: 64
    kernel_size: 1
    weight_filler {
      type: "xavier"
    }
    bias_filler {
      type: "constant"
      value: 0.2
    }
  }
}
layer {
  name: "conv2/relu_3x3_reduce"
  type: "ReLU"
  bottom: "conv2/3x3_reduce"
  top: "conv2/3x3_reduce"
}
layer {
  name: "conv2/3x3"
  type: "Convolution"
  bottom: "conv2/3x3_reduce"
  top: "conv2/3x3"
  param {
    lr_mult: 1
    decay_mult: 1
  }
  param {
    lr_mult: 2
    decay_mult: 0
  }
  convolution_param {
    num_output: 192
    pad: 1
    kernel_size: 3
    weight_filler {
      type: "xavier"
    }
    bias_filler {
      type: "constant"
      value: 0.2
    }
  }
}
layer {
  name: "conv2/relu_3x3"
  type: "ReLU"
  bottom: "conv2/3x3"
  top: "conv2/3x3"
}
layer {
  name: "conv2/norm2"
  type: "LRN"
  bottom: "conv2/3x3"
  top: "conv2/norm2"
  lrn_param {
    local_size: 5
    alpha: 0.0001
    beta: 0.75
  }
}
layer {
  name: "pool2/3x3_s2"
  type: "Pooling"
  bottom: "conv2/norm2"
  top: "pool2/3x3_s2"
  pooling_param {
    pool: MAX
    kernel_size: 3
    stride: 2
  }
}
layer {
  name: "inception_3a/1x1"
  type: "Convolution"
  bottom: "pool2/3x3_s2"
  top: "inception_3a/1x1"
  param {
    lr_mult: 1
    decay_mult: 1
  }
  param {
    lr_mult: 2
    decay_mult: 0
  }
  convolution_param {
    num_output: 64
    kernel_size: 1
    weight_filler {
      type: "xavier"
    }
    bias_filler {
      type: "constant"
      value: 0.2
    }
  }
}
layer {
  name: "inception_3a/relu_1x1"
  type: "ReLU"
  bottom: "inception_3a/1x1"
  top: "inception_3a/1x1"
}
layer {
  name: "inception_3a/3x3_reduce"
  type: "Convolution"
  bottom: "pool2/3x3_s2"
  top: "inception_3a/3x3_reduce"
  param {
    lr_mult: 1
    decay_mult: 1
  }
  param {
    lr_mult: 2
    decay_mult: 0
  }
  convolution_param {
    num_output: 96
    kernel_size: 1
    weight_filler {
      type: "xavier"
    }
    bias_filler {
      type: "constant"
      value: 0.2
    }
  }
}
layer {
  name: "inception_3a/relu_3x3_reduce"
  type: "ReLU"
  bottom: "inception_3a/3x3_reduce"
  top: "inception_3a/3x3_reduce"
}
layer {
  name: "inception_3a/3x3"
  type: "Convolution"
  bottom: "inception_3a/3x3_reduce"
  top: "inception_3a/3x3"
  param {
    lr_mult: 1
    decay_mult: 1
  }
  param {
    lr_mult: 2
    decay_mult: 0
  }
  convolution_param {
    num_output: 128
    pad: 1
    kernel_size: 3
    weight_filler {
      type: "xavier"
    }
    bias_filler {
      type: "constant"
      value: 0.2
    }
  }
}
layer {
  name: "inception_3a/relu_3x3"
  type: "ReLU"
  bottom: "inception_3a/3x3"
  top: "inception_3a/3x3"
}
layer {
  name: "inception_3a/5x5_reduce"
  type: "Convolution"
  bottom: "pool2/3x3_s2"
  top: "inception_3a/5x5_reduce"
  param {
    lr_mult: 1
    decay_mult: 1
  }
  param {
    lr_mult: 2
    decay_mult: 0
  }
  convolution_param {
    num_output: 16
    kernel_size: 1
    weight_filler {
      type: "xavier"
    }
    bias_filler {
      type: "constant"
      value: 0.2
    }
  }
}
layer {
  name: "inception_3a/relu_5x5_reduce"
  type: "ReLU"
  bottom: "inception_3a/5x5_reduce"
  top: "inception_3a/5x5_reduce"
}
layer {
  name: "inception_3a/5x5"
  type: "Convolution"
  bottom: "inception_3a/5x5_reduce"
  top: "inception_3a/5x5"
  param {
    lr_mult: 1
    decay_mult: 1
  }
  param {
    lr_mult: 2
    decay_mult: 0
  }
  convolution_param {
    num_output: 32
    pad: 2
    kernel_size: 5
    weight_filler {
      type: "xavier"
    }
    bias_filler {
      type: "constant"
      value: 0.2
    }
  }
}
layer {
  name: "inception_3a/relu_5x5"
  type: "ReLU"
  bottom: "inception_3a/5x5"
  top: "inception_3a/5x5"
}
layer {
  name: "inception_3a/pool"
  type: "Pooling"
  bottom: "pool2/3x3_s2"
  top: "inception_3a/pool"
  pooling_param {
    pool: MAX
    kernel_size: 3
    stride: 1
    pad: 1
  }
}
layer {
  name: "inception_3a/pool_proj"
  type: "Convolution"
  bottom: "inception_3a/pool"
  top: "inception_3a/pool_proj"
  param {
    lr_mult: 1
    decay_mult: 1
  }
  param {
    lr_mult: 2
    decay_mult: 0
  }
  convolution_param {
    num_output: 32
    kernel_size: 1
    weight_filler {
      type: "xavier"
    }
    bias_filler {
      type: "constant"
      value: 0.2
    }
  }
}
layer {
  name: "inception_3a/relu_pool_proj"
  type: "ReLU"
  bottom: "inception_3a/pool_proj"
  top: "inception_3a/pool_proj"
}
layer {
  name: "inception_3a/output"
  type: "Concat"
  bottom: "inception_3a/1x1"
  bottom: "inception_3a/3x3"
  bottom: "inception_3a/5x5"
  bottom: "inception_3a/pool_proj"
  top: "inception_3a/output"
}
layer {
  name: "inception_3b/1x1"
  type: "Convolution"
  bottom: "inception_3a/output"
  top: "inception_3b/1x1"
  param {
    lr_mult: 1
    decay_mult: 1
  }
  param {
    lr_mult: 2
    decay_mult: 0
  }
  convolution_param {
    num_output: 128
    kernel_size: 1
    weight_filler {
      type: "xavier"
    }
    bias_filler {
      type: "constant"
      value: 0.2
    }
  }
}
layer {
  name: "inception_3b/relu_1x1"
  type: "ReLU"
  bottom: "inception_3b/1x1"
  top: "inception_3b/1x1"
}
layer {
  name: "inception_3b/3x3_reduce"
  type: "Convolution"
  bottom: "inception_3a/output"
  top: "inception_3b/3x3_reduce"
  param {
    lr_mult: 1
    decay_mult: 1
  }
  param {
    lr_mult: 2
    decay_mult: 0
  }
  convolution_param {
    num_output: 128
    kernel_size: 1
    weight_filler {
      type: "xavier"
    }
    bias_filler {
      type: "constant"
      value: 0.2
    }
  }
}
layer {
  name: "inception_3b/relu_3x3_reduce"
  type: "ReLU"
  bottom: "inception_3b/3x3_reduce"
  top: "inception_3b/3x3_reduce"
}
layer {
  name: "inception_3b/3x3"
  type: "Convolution"
  bottom: "inception_3b/3x3_reduce"
  top: "inception_3b/3x3"
  param {
    lr_mult: 1
    decay_mult: 1
  }
  param {
    lr_mult: 2
    decay_mult: 0
  }
  convolution_param {
    num_output: 192
    pad: 1
    kernel_size: 3
    weight_filler {
      type: "xavier"
    }
    bias_filler {
      type: "constant"
      value: 0.2
    }
  }
}
layer {
  name: "inception_3b/relu_3x3"
  type: "ReLU"
  bottom: "inception_3b/3x3"
  top: "inception_3b/3x3"
}
layer {
  name: "inception_3b/5x5_reduce"
  type: "Convolution"
  bottom: "inception_3a/output"
  top: "inception_3b/5x5_reduce"
  param {
    lr_mult: 1
    decay_mult: 1
  }
  param {
    lr_mult: 2
    decay_mult: 0
  }
  convolution_param {
    num_output: 32
    kernel_size: 1
    weight_filler {
      type: "xavier"
    }
    bias_filler {
      type: "constant"
      value: 0.2
    }
  }
}
layer {
  name: "inception_3b/relu_5x5_reduce"
  type: "ReLU"
  bottom: "inception_3b/5x5_reduce"
  top: "inception_3b/5x5_reduce"
}
layer {
  name: "inception_3b/5x5"
  type: "Convolution"
  bottom: "inception_3b/5x5_reduce"
  top: "inception_3b/5x5"
  param {
    lr_mult: 1
    decay_mult: 1
  }
  param {
    lr_mult: 2
    decay_mult: 0
  }
  convolution_param {
    num_output: 96
    pad: 2
    kernel_size: 5
    weight_filler {
      type: "xavier"
    }
    bias_filler {
      type: "constant"
      value: 0.2
    }
  }
}
layer {
  name: "inception_3b/relu_5x5"
  type: "ReLU"
  bottom: "inception_3b/5x5"
  top: "inception_3b/5x5"
}
layer {
  name: "inception_3b/pool"
  type: "Pooling"
  bottom: "inception_3a/output"
  top: "inception_3b/pool"
  pooling_param {
    pool: MAX
    kernel_size: 3
    stride: 1
    pad: 1
  }
}
layer {
  name: "inception_3b/pool_proj"
  type: "Convolution"
  bottom: "inception_3b/pool"
  top: "inception_3b/pool_proj"
  param {
    lr_mult: 1
    decay_mult: 1
  }
  param {
    lr_mult: 2
    decay_mult: 0
  }
  convolution_param {
    num_output: 64
    kernel_size: 1
    weight_filler {
      type: "xavier"
    }
    bias_filler {
      type: "constant"
      value: 0.2
    }
  }
}
layer {
  name: "inception_3b/relu_pool_proj"
  type: "ReLU"
  bottom: "inception_3b/pool_proj"
  top: "inception_3b/pool_proj"
}
layer {
  name: "inception_3b/output"
  type: "Concat"
  bottom: "inception_3b/1x1"
  bottom: "inception_3b/3x3"
  bottom: "inception_3b/5x5"
  bottom: "inception_3b/pool_proj"
  top: "inception_3b/output"
}
layer {
  name: "pool3/3x3_s2"
  type: "Pooling"
  bottom: "inception_3b/output"
  top: "pool3/3x3_s2"
  pooling_param {
    pool: MAX
    kernel_size: 3
    stride: 2
  }
}
layer {
  name: "inception_4a/1x1"
  type: "Convolution"
  bottom: "pool3/3x3_s2"
  top: "inception_4a/1x1"
  param {
    lr_mult: 1
    decay_mult: 1
  }
  param {
    lr_mult: 2
    decay_mult: 0
  }
  convolution_param {
    num_output: 192
    kernel_size: 1
    weight_filler {
      type: "xavier"
    }
    bias_filler {
      type: "constant"
      value: 0.2
    }
  }
}
layer {
  name: "inception_4a/relu_1x1"
  type: "ReLU"
  bottom: "inception_4a/1x1"
  top: "inception_4a/1x1"
}
layer {
  name: "inception_4a/3x3_reduce"
  type: "Convolution"
  bottom: "pool3/3x3_s2"
  top: "inception_4a/3x3_reduce"
  param {
    lr_mult: 1
    decay_mult: 1
  }
  param {
    lr_mult: 2
    decay_mult: 0
  }
  convolution_param {
    num_output: 96
    kernel_size: 1
    weight_filler {
      type: "xavier"
    }
    bias_filler {
      type: "constant"
      value: 0.2
    }
  }
}
layer {
  name: "inception_4a/relu_3x3_reduce"
  type: "ReLU"
  bottom: "inception_4a/3x3_reduce"
  top: "inception_4a/3x3_reduce"
}
layer {
  name: "inception_4a/3x3"
  type: "Convolution"
  bottom: "inception_4a/3x3_reduce"
  top: "inception_4a/3x3"
  param {
    lr_mult: 1
    decay_mult: 1
  }
  param {
    lr_mult: 2
    decay_mult: 0
  }
  convolution_param {
    num_output: 208
    pad: 1
    kernel_size: 3
    weight_filler {
      type: "xavier"
    }
    bias_filler {
      type: "constant"
      value: 0.2
    }
  }
}
layer {
  name: "inception_4a/relu_3x3"
  type: "ReLU"
  bottom: "inception_4a/3x3"
  top: "inception_4a/3x3"
}
layer {
  name: "inception_4a/5x5_reduce"
  type: "Convolution"
  bottom: "pool3/3x3_s2"
  top: "inception_4a/5x5_reduce"
  param {
    lr_mult: 1
    decay_mult: 1
  }
  param {
    lr_mult: 2
    decay_mult: 0
  }
  convolution_param {
    num_output: 16
    kernel_size: 1
    weight_filler {
      type: "xavier"
    }
    bias_filler {
      type: "constant"
      value: 0.2
    }
  }
}
layer {
  name: "inception_4a/relu_5x5_reduce"
  type: "ReLU"
  bottom: "inception_4a/5x5_reduce"
  top: "inception_4a/5x5_reduce"
}
layer {
  name: "inception_4a/5x5"
  type: "Convolution"
  bottom: "inception_4a/5x5_reduce"
  top: "inception_4a/5x5"
  param {
    lr_mult: 1
    decay_mult: 1
  }
  param {
    lr_mult: 2
    decay_mult: 0
  }
  convolution_param {
    num_output: 48
    pad: 2
    kernel_size: 5
    weight_filler {
      type: "xavier"
    }
    bias_filler {
      type: "constant"
      value: 0.2
    }
  }
}
layer {
  name: "inception_4a/relu_5x5"
  type: "ReLU"
  bottom: "inception_4a/5x5"
  top: "inception_4a/5x5"
}
layer {
  name: "inception_4a/pool"
  type: "Pooling"
  bottom: "pool3/3x3_s2"
  top: "inception_4a/pool"
  pooling_param {
    pool: MAX
    kernel_size: 3
    stride: 1
    pad: 1
  }
}
layer {
  name: "inception_4a/pool_proj"
  type: "Convolution"
  bottom: "inception_4a/pool"
  top: "inception_4a/pool_proj"
  param {
    lr_mult: 1
    decay_mult: 1
  }
  param {
    lr_mult: 2
    decay_mult: 0
  }
  convolution_param {
    num_output: 64
    kernel_size: 1
    weight_filler {
      type: "xavier"
    }
    bias_filler {
      type: "constant"
      value: 0.2
    }
  }
}
layer {
  name: "inception_4a/relu_pool_proj"
  type: "ReLU"
  bottom: "inception_4a/pool_proj"
  top: "inception_4a/pool_proj"
}
layer {
  name: "inception_4a/output"
  type: "Concat"
  bottom: "inception_4a/1x1"
  bottom: "inception_4a/3x3"
  bottom: "inception_4a/5x5"
  bottom: "inception_4a/pool_proj"
  top: "inception_4a/output"
}
layer {
  name: "loss1/ave_pool"
  type: "Pooling"
  bottom: "inception_4a/output"
  top: "loss1/ave_pool"
  pooling_param {
    pool: AVE
    kernel_size: 5
    stride: 3
  }
}
layer {
  name: "loss1/conv"
  type: "Convolution"
  bottom: "loss1/ave_pool"
  top: "loss1/conv"
  param {
    lr_mult: 1
    decay_mult: 1
  }
  param {
    lr_mult: 2
    decay_mult: 0
  }
  convolution_param {
    num_output: 128
    kernel_size: 1
    weight_filler {
      type: "xavier"
    }
    bias_filler {
      type: "constant"
      value: 0.2
    }
  }
}
layer {
  name: "loss1/relu_conv"
  type: "ReLU"
  bottom: "loss1/conv"
  top: "loss1/conv"
}
layer {
  name: "loss1/fc"
  type: "InnerProduct"
  bottom: "loss1/conv"
  top: "loss1/fc"
  param {
    lr_mult: 1
    decay_mult: 1
  }
  param {
    lr_mult: 2
    decay_mult: 0
  }
  inner_product_param {
    num_output: 1024
    weight_filler {
      type: "xavier"
    }
    bias_filler {
      type: "constant"
      value: 0.2
    }
  }
}
layer {
  name: "loss1/relu_fc"
  type: "ReLU"
  bottom: "loss1/fc"
  top: "loss1/fc"
}
layer {
  name: "loss1/drop_fc"
  type: "Dropout"
  bottom: "loss1/fc"
  top: "loss1/fc"
  dropout_param {
    dropout_ratio: 0.7
  }
}
layer {
  name: "loss1/classifier_kaggle"
  type: "InnerProduct"
  bottom: "loss1/fc"
  top: "loss1/classifier_kaggle"
  param {
    lr_mult: 1
    decay_mult: 1
  }
  param {
    lr_mult: 2
    decay_mult: 0
  }
  inner_product_param {
    num_output: 447
    weight_filler {
      type: "xavier"
    }
    bias_filler {
      type: "constant"
      value: 0
    }
  }
}
layer {
  name: "loss1/loss"
  type: "SoftmaxWithLoss"
  bottom: "loss1/classifier_kaggle"
  bottom: "label"
  top: "loss1/loss1"
  loss_weight: 0.3
}
layer {
  name: "inception_4b/1x1"
  type: "Convolution"
  bottom: "inception_4a/output"
  top: "inception_4b/1x1"
  param {
    lr_mult: 1
    decay_mult: 1
  }
  param {
    lr_mult: 2
    decay_mult: 0
  }
  convolution_param {
    num_output: 160
    kernel_size: 1
    weight_filler {
      type: "xavier"
    }
    bias_filler {
      type: "constant"
      value: 0.2
    }
  }
}
layer {
  name: "inception_4b/relu_1x1"
  type: "ReLU"
  bottom: "inception_4b/1x1"
  top: "inception_4b/1x1"
}
layer {
  name: "inception_4b/3x3_reduce"
  type: "Convolution"
  bottom: "inception_4a/output"
  top: "inception_4b/3x3_reduce"
  param {
    lr_mult: 1
    decay_mult: 1
  }
  param {
    lr_mult: 2
    decay_mult: 0
  }
  convolution_param {
    num_output: 112
    kernel_size: 1
    weight_filler {
      type: "xavier"
    }
    bias_filler {
      type: "constant"
      value: 0.2
    }
  }
}
layer {
  name: "inception_4b/relu_3x3_reduce"
  type: "ReLU"
  bottom: "inception_4b/3x3_reduce"
  top: "inception_4b/3x3_reduce"
}
layer {
  name: "inception_4b/3x3"
  type: "Convolution"
  bottom: "inception_4b/3x3_reduce"
  top: "inception_4b/3x3"
  param {
    lr_mult: 1
    decay_mult: 1
  }
  param {
    lr_mult: 2
    decay_mult: 0
  }
  convolution_param {
    num_output: 224
    pad: 1
    kernel_size: 3
    weight_filler {
      type: "xavier"
    }
    bias_filler {
      type: "constant"
      value: 0.2
    }
  }
}
layer {
  name: "inception_4b/relu_3x3"
  type: "ReLU"
  bottom: "inception_4b/3x3"
  top: "inception_4b/3x3"
}
layer {
  name: "inception_4b/5x5_reduce"
  type: "Convolution"
  bottom: "inception_4a/output"
  top: "inception_4b/5x5_reduce"
  param {
    lr_mult: 1
    decay_mult: 1
  }
  param {
    lr_mult: 2
    decay_mult: 0
  }
  convolution_param {
    num_output: 24
    kernel_size: 1
    weight_filler {
      type: "xavier"
    }
    bias_filler {
      type: "constant"
      value: 0.2
    }
  }
}
layer {
  name: "inception_4b/relu_5x5_reduce"
  type: "ReLU"
  bottom: "inception_4b/5x5_reduce"
  top: "inception_4b/5x5_reduce"
}
layer {
  name: "inception_4b/5x5"
  type: "Convolution"
  bottom: "inception_4b/5x5_reduce"
  top: "inception_4b/5x5"
  param {
    lr_mult: 1
    decay_mult: 1
  }
  param {
    lr_mult: 2
    decay_mult: 0
  }
  convolution_param {
    num_output: 64
    pad: 2
    kernel_size: 5
    weight_filler {
      type: "xavier"
    }
    bias_filler {
      type: "constant"
      value: 0.2
    }
  }
}
layer {
  name: "inception_4b/relu_5x5"
  type: "ReLU"
  bottom: "inception_4b/5x5"
  top: "inception_4b/5x5"
}
layer {
  name: "inception_4b/pool"
  type: "Pooling"
  bottom: "inception_4a/output"
  top: "inception_4b/pool"
  pooling_param {
    pool: MAX
    kernel_size: 3
    stride: 1
    pad: 1
  }
}
layer {
  name: "inception_4b/pool_proj"
  type: "Convolution"
  bottom: "inception_4b/pool"
  top: "inception_4b/pool_proj"
  param {
    lr_mult: 1
    decay_mult: 1
  }
  param {
    lr_mult: 2
    decay_mult: 0
  }
  convolution_param {
    num_output: 64
    kernel_size: 1
    weight_filler {
      type: "xavier"
    }
    bias_filler {
      type: "constant"
      value: 0.2
    }
  }
}
layer {
  name: "inception_4b/relu_pool_proj"
  type: "ReLU"
  bottom: "inception_4b/pool_proj"
  top: "inception_4b/pool_proj"
}
layer {
  name: "inception_4b/output"
  type: "Concat"
  bottom: "inception_4b/1x1"
  bottom: "inception_4b/3x3"
  bottom: "inception_4b/5x5"
  bottom: "inception_4b/pool_proj"
  top: "inception_4b/output"
}
layer {
  name: "inception_4c/1x1"
  type: "Convolution"
  bottom: "inception_4b/output"
  top: "inception_4c/1x1"
  param {
    lr_mult: 1
    decay_mult: 1
  }
  param {
    lr_mult: 2
    decay_mult: 0
  }
  convolution_param {
    num_output: 128
    kernel_size: 1
    weight_filler {
      type: "xavier"
    }
    bias_filler {
      type: "constant"
      value: 0.2
    }
  }
}
layer {
  name: "inception_4c/relu_1x1"
  type: "ReLU"
  bottom: "inception_4c/1x1"
  top: "inception_4c/1x1"
}
layer {
  name: "inception_4c/3x3_reduce"
  type: "Convolution"
  bottom: "inception_4b/output"
  top: "inception_4c/3x3_reduce"
  param {
    lr_mult: 1
    decay_mult: 1
  }
  param {
    lr_mult: 2
    decay_mult: 0
  }
  convolution_param {
    num_output: 128
    kernel_size: 1
    weight_filler {
      type: "xavier"
    }
    bias_filler {
      type: "constant"
      value: 0.2
    }
  }
}
layer {
  name: "inception_4c/relu_3x3_reduce"
  type: "ReLU"
  bottom: "inception_4c/3x3_reduce"
  top: "inception_4c/3x3_reduce"
}
layer {
  name: "inception_4c/3x3"
  type: "Convolution"
  bottom: "inception_4c/3x3_reduce"
  top: "inception_4c/3x3"
  param {
    lr_mult: 1
    decay_mult: 1
  }
  param {
    lr_mult: 2
    decay_mult: 0
  }
  convolution_param {
    num_output: 256
    pad: 1
    kernel_size: 3
    weight_filler {
      type: "xavier"
    }
    bias_filler {
      type: "constant"
      value: 0.2
    }
  }
}
layer {
  name: "inception_4c/relu_3x3"
  type: "ReLU"
  bottom: "inception_4c/3x3"
  top: "inception_4c/3x3"
}
layer {
  name: "inception_4c/5x5_reduce"
  type: "Convolution"
  bottom: "inception_4b/output"
  top: "inception_4c/5x5_reduce"
  param {
    lr_mult: 1
    decay_mult: 1
  }
  param {
    lr_mult: 2
    decay_mult: 0
  }
  convolution_param {
    num_output: 24
    kernel_size: 1
    weight_filler {
      type: "xavier"
    }
    bias_filler {
      type: "constant"
      value: 0.2
    }
  }
}
layer {
  name: "inception_4c/relu_5x5_reduce"
  type: "ReLU"
  bottom: "inception_4c/5x5_reduce"
  top: "inception_4c/5x5_reduce"
}
layer {
  name: "inception_4c/5x5"
  type: "Convolution"
  bottom: "inception_4c/5x5_reduce"
  top: "inception_4c/5x5"
  param {
    lr_mult: 1
    decay_mult: 1
  }
  param {
    lr_mult: 2
    decay_mult: 0
  }
  convolution_param {
    num_output: 64
    pad: 2
    kernel_size: 5
    weight_filler {
      type: "xavier"
    }
    bias_filler {
      type: "constant"
      value: 0.2
    }
  }
}
layer {
  name: "inception_4c/relu_5x5"
  type: "ReLU"
  bottom: "inception_4c/5x5"
  top: "inception_4c/5x5"
}
layer {
  name: "inception_4c/pool"
  type: "Pooling"
  bottom: "inception_4b/output"
  top: "inception_4c/pool"
  pooling_param {
    pool: MAX
    kernel_size: 3
    stride: 1
    pad: 1
  }
}
layer {
  name: "inception_4c/pool_proj"
  type: "Convolution"
  bottom: "inception_4c/pool"
  top: "inception_4c/pool_proj"
  param {
    lr_mult: 1
    decay_mult: 1
  }
  param {
    lr_mult: 2
    decay_mult: 0
  }
  convolution_param {
    num_output: 64
    kernel_size: 1
    weight_filler {
      type: "xavier"
    }
    bias_filler {
      type: "constant"
      value: 0.2
    }
  }
}
layer {
  name: "inception_4c/relu_pool_proj"
  type: "ReLU"
  bottom: "inception_4c/pool_proj"
  top: "inception_4c/pool_proj"
}
layer {
  name: "inception_4c/output"
  type: "Concat"
  bottom: "inception_4c/1x1"
  bottom: "inception_4c/3x3"
  bottom: "inception_4c/5x5"
  bottom: "inception_4c/pool_proj"
  top: "inception_4c/output"
}
layer {
  name: "inception_4d/1x1"
  type: "Convolution"
  bottom: "inception_4c/output"
  top: "inception_4d/1x1"
  param {
    lr_mult: 1
    decay_mult: 1
  }
  param {
    lr_mult: 2
    decay_mult: 0
  }
  convolution_param {
    num_output: 112
    kernel_size: 1
    weight_filler {
      type: "xavier"
    }
    bias_filler {
      type: "constant"
      value: 0.2
    }
  }
}
layer {
  name: "inception_4d/relu_1x1"
  type: "ReLU"
  bottom: "inception_4d/1x1"
  top: "inception_4d/1x1"
}
layer {
  name: "inception_4d/3x3_reduce"
  type: "Convolution"
  bottom: "inception_4c/output"
  top: "inception_4d/3x3_reduce"
  param {
    lr_mult: 1
    decay_mult: 1
  }
  param {
    lr_mult: 2
    decay_mult: 0
  }
  convolution_param {
    num_output: 144
    kernel_size: 1
    weight_filler {
      type: "xavier"
    }
    bias_filler {
      type: "constant"
      value: 0.2
    }
  }
}
layer {
  name: "inception_4d/relu_3x3_reduce"
  type: "ReLU"
  bottom: "inception_4d/3x3_reduce"
  top: "inception_4d/3x3_reduce"
}
layer {
  name: "inception_4d/3x3"
  type: "Convolution"
  bottom: "inception_4d/3x3_reduce"
  top: "inception_4d/3x3"
  param {
    lr_mult: 1
    decay_mult: 1
  }
  param {
    lr_mult: 2
    decay_mult: 0
  }
  convolution_param {
    num_output: 288
    pad: 1
    kernel_size: 3
    weight_filler {
      type: "xavier"
    }
    bias_filler {
      type: "constant"
      value: 0.2
    }
  }
}
layer {
  name: "inception_4d/relu_3x3"
  type: "ReLU"
  bottom: "inception_4d/3x3"
  top: "inception_4d/3x3"
}
layer {
  name: "inception_4d/5x5_reduce"
  type: "Convolution"
  bottom: "inception_4c/output"
  top: "inception_4d/5x5_reduce"
  param {
    lr_mult: 1
    decay_mult: 1
  }
  param {
    lr_mult: 2
    decay_mult: 0
  }
  convolution_param {
    num_output: 32
    kernel_size: 1
    weight_filler {
      type: "xavier"
    }
    bias_filler {
      type: "constant"
      value: 0.2
    }
  }
}
layer {
  name: "inception_4d/relu_5x5_reduce"
  type: "ReLU"
  bottom: "inception_4d/5x5_reduce"
  top: "inception_4d/5x5_reduce"
}
layer {
  name: "inception_4d/5x5"
  type: "Convolution"
  bottom: "inception_4d/5x5_reduce"
  top: "inception_4d/5x5"
  param {
    lr_mult: 1
    decay_mult: 1
  }
  param {
    lr_mult: 2
    decay_mult: 0
  }
  convolution_param {
    num_output: 64
    pad: 2
    kernel_size: 5
    weight_filler {
      type: "xavier"
    }
    bias_filler {
      type: "constant"
      value: 0.2
    }
  }
}
layer {
  name: "inception_4d/relu_5x5"
  type: "ReLU"
  bottom: "inception_4d/5x5"
  top: "inception_4d/5x5"
}
layer {
  name: "inception_4d/pool"
  type: "Pooling"
  bottom: "inception_4c/output"
  top: "inception_4d/pool"
  pooling_param {
    pool: MAX
    kernel_size: 3
    stride: 1
    pad: 1
  }
}
layer {
  name: "inception_4d/pool_proj"
  type: "Convolution"
  bottom: "inception_4d/pool"
  top: "inception_4d/pool_proj"
  param {
    lr_mult: 1
    decay_mult: 1
  }
  param {
    lr_mult: 2
    decay_mult: 0
  }
  convolution_param {
    num_output: 64
    kernel_size: 1
    weight_filler {
      type: "xavier"
    }
    bias_filler {
      type: "constant"
      value: 0.2
    }
  }
}
layer {
  name: "inception_4d/relu_pool_proj"
  type: "ReLU"
  bottom: "inception_4d/pool_proj"
  top: "inception_4d/pool_proj"
}
layer {
  name: "inception_4d/output"
  type: "Concat"
  bottom: "inception_4d/1x1"
  bottom: "inception_4d/3x3"
  bottom: "inception_4d/5x5"
  bottom: "inception_4d/pool_proj"
  top: "inception_4d/output"
}
layer {
  name: "loss2/ave_pool"
  type: "Pooling"
  bottom: "inception_4d/output"
  top: "loss2/ave_pool"
  pooling_param {
    pool: AVE
    kernel_size: 5
    stride: 3
  }
}
layer {
  name: "loss2/conv"
  type: "Convolution"
  bottom: "loss2/ave_pool"
  top: "loss2/conv"
  param {
    lr_mult: 1
    decay_mult: 1
  }
  param {
    lr_mult: 2
    decay_mult: 0
  }
  convolution_param {
    num_output: 128
    kernel_size: 1
    weight_filler {
      type: "xavier"
    }
    bias_filler {
      type: "constant"
      value: 0.2
    }
  }
}
layer {
  name: "loss2/relu_conv"
  type: "ReLU"
  bottom: "loss2/conv"
  top: "loss2/conv"
}
layer {
  name: "loss2/fc"
  type: "InnerProduct"
  bottom: "loss2/conv"
  top: "loss2/fc"
  param {
    lr_mult: 1
    decay_mult: 1
  }
  param {
    lr_mult: 2
    decay_mult: 0
  }
  inner_product_param {
    num_output: 1024
    weight_filler {
      type: "xavier"
    }
    bias_filler {
      type: "constant"
      value: 0.2
    }
  }
}
layer {
  name: "loss2/relu_fc"
  type: "ReLU"
  bottom: "loss2/fc"
  top: "loss2/fc"
}
layer {
  name: "loss2/drop_fc"
  type: "Dropout"
  bottom: "loss2/fc"
  top: "loss2/fc"
  dropout_param {
    dropout_ratio: 0.7
  }
}
layer {
  name: "loss2/classifier_kaggle"
  type: "InnerProduct"
  bottom: "loss2/fc"
  top: "loss2/classifier_kaggle"
  param {
    lr_mult: 1
    decay_mult: 1
  }
  param {
    lr_mult: 2
    decay_mult: 0
  }
  inner_product_param {
    num_output: 447
    weight_filler {
      type: "xavier"
    }
    bias_filler {
      type: "constant"
      value: 0
    }
  }
}
layer {
  name: "loss2/loss"
  type: "SoftmaxWithLoss"
  bottom: "loss2/classifier_kaggle"
  bottom: "label"
  top: "loss2/loss1"
  loss_weight: 0.3
}
layer {
  name: "inception_4e/1x1"
  type: "Convolution"
  bottom: "inception_4d/output"
  top: "inception_4e/1x1"
  param {
    lr_mult: 1
    decay_mult: 1
  }
  param {
    lr_mult: 2
    decay_mult: 0
  }
  convolution_param {
    num_output: 256
    kernel_size: 1
    weight_filler {
      type: "xavier"
    }
    bias_filler {
      type: "constant"
      value: 0.2
    }
  }
}
layer {
  name: "inception_4e/relu_1x1"
  type: "ReLU"
  bottom: "inception_4e/1x1"
  top: "inception_4e/1x1"
}
layer {
  name: "inception_4e/3x3_reduce"
  type: "Convolution"
  bottom: "inception_4d/output"
  top: "inception_4e/3x3_reduce"
  param {
    lr_mult: 1
    decay_mult: 1
  }
  param {
    lr_mult: 2
    decay_mult: 0
  }
  convolution_param {
    num_output: 160
    kernel_size: 1
    weight_filler {
      type: "xavier"
    }
    bias_filler {
      type: "constant"
      value: 0.2
    }
  }
}
layer {
  name: "inception_4e/relu_3x3_reduce"
  type: "ReLU"
  bottom: "inception_4e/3x3_reduce"
  top: "inception_4e/3x3_reduce"
}
layer {
  name: "inception_4e/3x3"
  type: "Convolution"
  bottom: "inception_4e/3x3_reduce"
  top: "inception_4e/3x3"
  param {
    lr_mult: 1
    decay_mult: 1
  }
  param {
    lr_mult: 2
    decay_mult: 0
  }
  convolution_param {
    num_output: 320
    pad: 1
    kernel_size: 3
    weight_filler {
      type: "xavier"
    }
    bias_filler {
      type: "constant"
      value: 0.2
    }
  }
}
layer {
  name: "inception_4e/relu_3x3"
  type: "ReLU"
  bottom: "inception_4e/3x3"
  top: "inception_4e/3x3"
}
layer {
  name: "inception_4e/5x5_reduce"
  type: "Convolution"
  bottom: "inception_4d/output"
  top: "inception_4e/5x5_reduce"
  param {
    lr_mult: 1
    decay_mult: 1
  }
  param {
    lr_mult: 2
    decay_mult: 0
  }
  convolution_param {
    num_output: 32
    kernel_size: 1
    weight_filler {
      type: "xavier"
    }
    bias_filler {
      type: "constant"
      value: 0.2
    }
  }
}
layer {
  name: "inception_4e/relu_5x5_reduce"
  type: "ReLU"
  bottom: "inception_4e/5x5_reduce"
  top: "inception_4e/5x5_reduce"
}
layer {
  name: "inception_4e/5x5"
  type: "Convolution"
  bottom: "inception_4e/5x5_reduce"
  top: "inception_4e/5x5"
  param {
    lr_mult: 1
    decay_mult: 1
  }
  param {
    lr_mult: 2
    decay_mult: 0
  }
  convolution_param {
    num_output: 128
    pad: 2
    kernel_size: 5
    weight_filler {
      type: "xavier"
    }
    bias_filler {
      type: "constant"
      value: 0.2
    }
  }
}
layer {
  name: "inception_4e/relu_5x5"
  type: "ReLU"
  bottom: "inception_4e/5x5"
  top: "inception_4e/5x5"
}
layer {
  name: "inception_4e/pool"
  type: "Pooling"
  bottom: "inception_4d/output"
  top: "inception_4e/pool"
  pooling_p
I1218 16:58:58.364266 22336 layer_factory.hpp:74] Creating layer data
I1218 16:58:58.364308 22336 net.cpp:84] Creating Layer data
I1218 16:58:58.364321 22336 net.cpp:338] data -> data
I1218 16:58:58.364372 22336 net.cpp:338] data -> label
I1218 16:58:58.364385 22336 net.cpp:113] Setting up data
I1218 16:58:58.364399 22336 image_data_layer.cpp:36] Opening file /home/coldmanck/kaggle/label_train_full.txt
I1218 16:58:58.367332 22336 image_data_layer.cpp:46] Shuffling data
I1218 16:58:58.368340 22336 image_data_layer.cpp:51] A total of 4235 images.
I1218 16:58:58.369336 22336 image_data_layer.cpp:80] output data size: 80,3,224,224
I1218 16:58:59.157608 22336 net.cpp:120] Top shape: 80 3 224 224 (12042240)
I1218 16:58:59.157668 22336 net.cpp:120] Top shape: 80 (80)
I1218 16:58:59.157759 22336 layer_factory.hpp:74] Creating layer label_data_1_split
I1218 16:58:59.157855 22336 net.cpp:84] Creating Layer label_data_1_split
I1218 16:58:59.157863 22336 net.cpp:380] label_data_1_split <- label
I1218 16:58:59.157898 22336 net.cpp:338] label_data_1_split -> label_data_1_split_0
I1218 16:58:59.157917 22336 net.cpp:338] label_data_1_split -> label_data_1_split_1
I1218 16:58:59.157933 22336 net.cpp:338] label_data_1_split -> label_data_1_split_2
I1218 16:58:59.157953 22336 net.cpp:113] Setting up label_data_1_split
I1218 16:58:59.157964 22336 net.cpp:120] Top shape: 80 (80)
I1218 16:58:59.157969 22336 net.cpp:120] Top shape: 80 (80)
I1218 16:58:59.157974 22336 net.cpp:120] Top shape: 80 (80)
I1218 16:58:59.157989 22336 layer_factory.hpp:74] Creating layer conv1/7x7_s2
I1218 16:58:59.158015 22336 net.cpp:84] Creating Layer conv1/7x7_s2
I1218 16:58:59.158020 22336 net.cpp:380] conv1/7x7_s2 <- data
I1218 16:58:59.158048 22336 net.cpp:338] conv1/7x7_s2 -> conv1/7x7_s2
I1218 16:58:59.158061 22336 net.cpp:113] Setting up conv1/7x7_s2
I1218 16:58:59.487004 22336 net.cpp:120] Top shape: 80 64 112 112 (64225280)
I1218 16:58:59.487082 22336 layer_factory.hpp:74] Creating layer conv1/relu_7x7
I1218 16:58:59.487097 22336 net.cpp:84] Creating Layer conv1/relu_7x7
I1218 16:58:59.487103 22336 net.cpp:380] conv1/relu_7x7 <- conv1/7x7_s2
I1218 16:58:59.487113 22336 net.cpp:327] conv1/relu_7x7 -> conv1/7x7_s2 (in-place)
I1218 16:58:59.487125 22336 net.cpp:113] Setting up conv1/relu_7x7
I1218 16:58:59.491704 22336 net.cpp:120] Top shape: 80 64 112 112 (64225280)
I1218 16:58:59.491719 22336 layer_factory.hpp:74] Creating layer pool1/3x3_s2
I1218 16:58:59.491732 22336 net.cpp:84] Creating Layer pool1/3x3_s2
I1218 16:58:59.491737 22336 net.cpp:380] pool1/3x3_s2 <- conv1/7x7_s2
I1218 16:58:59.491745 22336 net.cpp:338] pool1/3x3_s2 -> pool1/3x3_s2
I1218 16:58:59.491755 22336 net.cpp:113] Setting up pool1/3x3_s2
I1218 16:58:59.491838 22336 net.cpp:120] Top shape: 80 64 56 56 (16056320)
I1218 16:58:59.491857 22336 layer_factory.hpp:74] Creating layer pool1/norm1
I1218 16:58:59.491871 22336 net.cpp:84] Creating Layer pool1/norm1
I1218 16:58:59.491876 22336 net.cpp:380] pool1/norm1 <- pool1/3x3_s2
I1218 16:58:59.491883 22336 net.cpp:338] pool1/norm1 -> pool1/norm1
I1218 16:58:59.491893 22336 net.cpp:113] Setting up pool1/norm1
I1218 16:58:59.491899 22336 net.cpp:120] Top shape: 80 64 56 56 (16056320)
I1218 16:58:59.491910 22336 layer_factory.hpp:74] Creating layer conv2/3x3_reduce
I1218 16:58:59.491927 22336 net.cpp:84] Creating Layer conv2/3x3_reduce
I1218 16:58:59.491932 22336 net.cpp:380] conv2/3x3_reduce <- pool1/norm1
I1218 16:58:59.491945 22336 net.cpp:338] conv2/3x3_reduce -> conv2/3x3_reduce
I1218 16:58:59.491956 22336 net.cpp:113] Setting up conv2/3x3_reduce
I1218 16:58:59.492705 22336 net.cpp:120] Top shape: 80 64 56 56 (16056320)
I1218 16:58:59.492730 22336 layer_factory.hpp:74] Creating layer conv2/relu_3x3_reduce
I1218 16:58:59.492739 22336 net.cpp:84] Creating Layer conv2/relu_3x3_reduce
I1218 16:58:59.492744 22336 net.cpp:380] conv2/relu_3x3_reduce <- conv2/3x3_reduce
I1218 16:58:59.492750 22336 net.cpp:327] conv2/relu_3x3_reduce -> conv2/3x3_reduce (in-place)
I1218 16:58:59.492758 22336 net.cpp:113] Setting up conv2/relu_3x3_reduce
I1218 16:58:59.492841 22336 net.cpp:120] Top shape: 80 64 56 56 (16056320)
I1218 16:58:59.492849 22336 layer_factory.hpp:74] Creating layer conv2/3x3
I1218 16:58:59.492858 22336 net.cpp:84] Creating Layer conv2/3x3
I1218 16:58:59.492863 22336 net.cpp:380] conv2/3x3 <- conv2/3x3_reduce
I1218 16:58:59.492882 22336 net.cpp:338] conv2/3x3 -> conv2/3x3
I1218 16:58:59.492892 22336 net.cpp:113] Setting up conv2/3x3
I1218 16:58:59.499188 22336 net.cpp:120] Top shape: 80 192 56 56 (48168960)
I1218 16:58:59.499236 22336 layer_factory.hpp:74] Creating layer conv2/relu_3x3
I1218 16:58:59.499266 22336 net.cpp:84] Creating Layer conv2/relu_3x3
I1218 16:58:59.499274 22336 net.cpp:380] conv2/relu_3x3 <- conv2/3x3
I1218 16:58:59.499284 22336 net.cpp:327] conv2/relu_3x3 -> conv2/3x3 (in-place)
I1218 16:58:59.499296 22336 net.cpp:113] Setting up conv2/relu_3x3
I1218 16:58:59.499686 22336 net.cpp:120] Top shape: 80 192 56 56 (48168960)
I1218 16:58:59.499709 22336 layer_factory.hpp:74] Creating layer conv2/norm2
I1218 16:58:59.499722 22336 net.cpp:84] Creating Layer conv2/norm2
I1218 16:58:59.499728 22336 net.cpp:380] conv2/norm2 <- conv2/3x3
I1218 16:58:59.499744 22336 net.cpp:338] conv2/norm2 -> conv2/norm2
I1218 16:58:59.499764 22336 net.cpp:113] Setting up conv2/norm2
I1218 16:58:59.499784 22336 net.cpp:120] Top shape: 80 192 56 56 (48168960)
I1218 16:58:59.499789 22336 layer_factory.hpp:74] Creating layer pool2/3x3_s2
I1218 16:58:59.499799 22336 net.cpp:84] Creating Layer pool2/3x3_s2
I1218 16:58:59.499802 22336 net.cpp:380] pool2/3x3_s2 <- conv2/norm2
I1218 16:58:59.499809 22336 net.cpp:338] pool2/3x3_s2 -> pool2/3x3_s2
I1218 16:58:59.499817 22336 net.cpp:113] Setting up pool2/3x3_s2
I1218 16:58:59.499884 22336 net.cpp:120] Top shape: 80 192 28 28 (12042240)
I1218 16:58:59.499891 22336 layer_factory.hpp:74] Creating layer pool2/3x3_s2_pool2/3x3_s2_0_split
I1218 16:58:59.499898 22336 net.cpp:84] Creating Layer pool2/3x3_s2_pool2/3x3_s2_0_split
I1218 16:58:59.499903 22336 net.cpp:380] pool2/3x3_s2_pool2/3x3_s2_0_split <- pool2/3x3_s2
I1218 16:58:59.499909 22336 net.cpp:338] pool2/3x3_s2_pool2/3x3_s2_0_split -> pool2/3x3_s2_pool2/3x3_s2_0_split_0
I1218 16:58:59.499917 22336 net.cpp:338] pool2/3x3_s2_pool2/3x3_s2_0_split -> pool2/3x3_s2_pool2/3x3_s2_0_split_1
I1218 16:58:59.499923 22336 net.cpp:338] pool2/3x3_s2_pool2/3x3_s2_0_split -> pool2/3x3_s2_pool2/3x3_s2_0_split_2
I1218 16:58:59.499930 22336 net.cpp:338] pool2/3x3_s2_pool2/3x3_s2_0_split -> pool2/3x3_s2_pool2/3x3_s2_0_split_3
I1218 16:58:59.499936 22336 net.cpp:113] Setting up pool2/3x3_s2_pool2/3x3_s2_0_split
I1218 16:58:59.499943 22336 net.cpp:120] Top shape: 80 192 28 28 (12042240)
I1218 16:58:59.499948 22336 net.cpp:120] Top shape: 80 192 28 28 (12042240)
I1218 16:58:59.499953 22336 net.cpp:120] Top shape: 80 192 28 28 (12042240)
I1218 16:58:59.499958 22336 net.cpp:120] Top shape: 80 192 28 28 (12042240)
I1218 16:58:59.499961 22336 layer_factory.hpp:74] Creating layer inception_3a/1x1
I1218 16:58:59.499972 22336 net.cpp:84] Creating Layer inception_3a/1x1
I1218 16:58:59.499976 22336 net.cpp:380] inception_3a/1x1 <- pool2/3x3_s2_pool2/3x3_s2_0_split_0
I1218 16:58:59.499982 22336 net.cpp:338] inception_3a/1x1 -> inception_3a/1x1
I1218 16:58:59.499992 22336 net.cpp:113] Setting up inception_3a/1x1
I1218 16:58:59.500875 22336 net.cpp:120] Top shape: 80 64 28 28 (4014080)
I1218 16:58:59.500891 22336 layer_factory.hpp:74] Creating layer inception_3a/relu_1x1
I1218 16:58:59.500910 22336 net.cpp:84] Creating Layer inception_3a/relu_1x1
I1218 16:58:59.500915 22336 net.cpp:380] inception_3a/relu_1x1 <- inception_3a/1x1
I1218 16:58:59.500928 22336 net.cpp:327] inception_3a/relu_1x1 -> inception_3a/1x1 (in-place)
I1218 16:58:59.500936 22336 net.cpp:113] Setting up inception_3a/relu_1x1
I1218 16:58:59.500998 22336 net.cpp:120] Top shape: 80 64 28 28 (4014080)
I1218 16:58:59.501005 22336 layer_factory.hpp:74] Creating layer inception_3a/3x3_reduce
I1218 16:58:59.501013 22336 net.cpp:84] Creating Layer inception_3a/3x3_reduce
I1218 16:58:59.501018 22336 net.cpp:380] inception_3a/3x3_reduce <- pool2/3x3_s2_pool2/3x3_s2_0_split_1
I1218 16:58:59.501024 22336 net.cpp:338] inception_3a/3x3_reduce -> inception_3a/3x3_reduce
I1218 16:58:59.501032 22336 net.cpp:113] Setting up inception_3a/3x3_reduce
I1218 16:58:59.501966 22336 net.cpp:120] Top shape: 80 96 28 28 (6021120)
I1218 16:58:59.501994 22336 layer_factory.hpp:74] Creating layer inception_3a/relu_3x3_reduce
I1218 16:58:59.502004 22336 net.cpp:84] Creating Layer inception_3a/relu_3x3_reduce
I1218 16:58:59.502009 22336 net.cpp:380] inception_3a/relu_3x3_reduce <- inception_3a/3x3_reduce
I1218 16:58:59.502018 22336 net.cpp:327] inception_3a/relu_3x3_reduce -> inception_3a/3x3_reduce (in-place)
I1218 16:58:59.502027 22336 net.cpp:113] Setting up inception_3a/relu_3x3_reduce
I1218 16:58:59.502099 22336 net.cpp:120] Top shape: 80 96 28 28 (6021120)
I1218 16:58:59.502105 22336 layer_factory.hpp:74] Creating layer inception_3a/3x3
I1218 16:58:59.502125 22336 net.cpp:84] Creating Layer inception_3a/3x3
I1218 16:58:59.502131 22336 net.cpp:380] inception_3a/3x3 <- inception_3a/3x3_reduce
I1218 16:58:59.502137 22336 net.cpp:338] inception_3a/3x3 -> inception_3a/3x3
I1218 16:58:59.502146 22336 net.cpp:113] Setting up inception_3a/3x3
I1218 16:58:59.503851 22336 net.cpp:120] Top shape: 80 128 28 28 (8028160)
I1218 16:58:59.503876 22336 layer_factory.hpp:74] Creating layer inception_3a/relu_3x3
I1218 16:58:59.503885 22336 net.cpp:84] Creating Layer inception_3a/relu_3x3
I1218 16:58:59.503890 22336 net.cpp:380] inception_3a/relu_3x3 <- inception_3a/3x3
I1218 16:58:59.503897 22336 net.cpp:327] inception_3a/relu_3x3 -> inception_3a/3x3 (in-place)
I1218 16:58:59.503906 22336 net.cpp:113] Setting up inception_3a/relu_3x3
I1218 16:58:59.504145 22336 net.cpp:120] Top shape: 80 128 28 28 (8028160)
I1218 16:58:59.504156 22336 layer_factory.hpp:74] Creating layer inception_3a/5x5_reduce
I1218 16:58:59.504166 22336 net.cpp:84] Creating Layer inception_3a/5x5_reduce
I1218 16:58:59.504171 22336 net.cpp:380] inception_3a/5x5_reduce <- pool2/3x3_s2_pool2/3x3_s2_0_split_2
I1218 16:58:59.504179 22336 net.cpp:338] inception_3a/5x5_reduce -> inception_3a/5x5_reduce
I1218 16:58:59.504190 22336 net.cpp:113] Setting up inception_3a/5x5_reduce
I1218 16:58:59.504648 22336 net.cpp:120] Top shape: 80 16 28 28 (1003520)
I1218 16:58:59.504663 22336 layer_factory.hpp:74] Creating layer inception_3a/relu_5x5_reduce
I1218 16:58:59.504686 22336 net.cpp:84] Creating Layer inception_3a/relu_5x5_reduce
I1218 16:58:59.504691 22336 net.cpp:380] inception_3a/relu_5x5_reduce <- inception_3a/5x5_reduce
I1218 16:58:59.504700 22336 net.cpp:327] inception_3a/relu_5x5_reduce -> inception_3a/5x5_reduce (in-place)
I1218 16:58:59.504709 22336 net.cpp:113] Setting up inception_3a/relu_5x5_reduce
I1218 16:58:59.504799 22336 net.cpp:120] Top shape: 80 16 28 28 (1003520)
I1218 16:58:59.504819 22336 layer_factory.hpp:74] Creating layer inception_3a/5x5
I1218 16:58:59.504844 22336 net.cpp:84] Creating Layer inception_3a/5x5
I1218 16:58:59.504849 22336 net.cpp:380] inception_3a/5x5 <- inception_3a/5x5_reduce
I1218 16:58:59.504858 22336 net.cpp:338] inception_3a/5x5 -> inception_3a/5x5
I1218 16:58:59.504868 22336 net.cpp:113] Setting up inception_3a/5x5
I1218 16:58:59.505484 22336 net.cpp:120] Top shape: 80 32 28 28 (2007040)
I1218 16:58:59.505501 22336 layer_factory.hpp:74] Creating layer inception_3a/relu_5x5
I1218 16:58:59.505513 22336 net.cpp:84] Creating Layer inception_3a/relu_5x5
I1218 16:58:59.505518 22336 net.cpp:380] inception_3a/relu_5x5 <- inception_3a/5x5
I1218 16:58:59.505525 22336 net.cpp:327] inception_3a/relu_5x5 -> inception_3a/5x5 (in-place)
I1218 16:58:59.505533 22336 net.cpp:113] Setting up inception_3a/relu_5x5
I1218 16:58:59.505607 22336 net.cpp:120] Top shape: 80 32 28 28 (2007040)
I1218 16:58:59.505614 22336 layer_factory.hpp:74] Creating layer inception_3a/pool
I1218 16:58:59.505620 22336 layer_factory.cpp:56] CUDNN does not support padding or multiple tops. Using Caffe's own pooling layer.
I1218 16:58:59.505628 22336 net.cpp:84] Creating Layer inception_3a/pool
I1218 16:58:59.505633 22336 net.cpp:380] inception_3a/pool <- pool2/3x3_s2_pool2/3x3_s2_0_split_3
I1218 16:58:59.505640 22336 net.cpp:338] inception_3a/pool -> inception_3a/pool
I1218 16:58:59.505646 22336 net.cpp:113] Setting up inception_3a/pool
I1218 16:58:59.505656 22336 net.cpp:120] Top shape: 80 192 28 28 (12042240)
I1218 16:58:59.505661 22336 layer_factory.hpp:74] Creating layer inception_3a/pool_proj
I1218 16:58:59.505676 22336 net.cpp:84] Creating Layer inception_3a/pool_proj
I1218 16:58:59.505681 22336 net.cpp:380] inception_3a/pool_proj <- inception_3a/pool
I1218 16:58:59.505688 22336 net.cpp:338] inception_3a/pool_proj -> inception_3a/pool_proj
I1218 16:58:59.505695 22336 net.cpp:113] Setting up inception_3a/pool_proj
I1218 16:58:59.506523 22336 net.cpp:120] Top shape: 80 32 28 28 (2007040)
I1218 16:58:59.506541 22336 layer_factory.hpp:74] Creating layer inception_3a/relu_pool_proj
I1218 16:58:59.506559 22336 net.cpp:84] Creating Layer inception_3a/relu_pool_proj
I1218 16:58:59.506566 22336 net.cpp:380] inception_3a/relu_pool_proj <- inception_3a/pool_proj
I1218 16:58:59.506572 22336 net.cpp:327] inception_3a/relu_pool_proj -> inception_3a/pool_proj (in-place)
I1218 16:58:59.506583 22336 net.cpp:113] Setting up inception_3a/relu_pool_proj
I1218 16:58:59.506661 22336 net.cpp:120] Top shape: 80 32 28 28 (2007040)
I1218 16:58:59.506669 22336 layer_factory.hpp:74] Creating layer inception_3a/output
I1218 16:58:59.506675 22336 net.cpp:84] Creating Layer inception_3a/output
I1218 16:58:59.506680 22336 net.cpp:380] inception_3a/output <- inception_3a/1x1
I1218 16:58:59.506685 22336 net.cpp:380] inception_3a/output <- inception_3a/3x3
I1218 16:58:59.506690 22336 net.cpp:380] inception_3a/output <- inception_3a/5x5
I1218 16:58:59.506695 22336 net.cpp:380] inception_3a/output <- inception_3a/pool_proj
I1218 16:58:59.506701 22336 net.cpp:338] inception_3a/output -> inception_3a/output
I1218 16:58:59.506708 22336 net.cpp:113] Setting up inception_3a/output
I1218 16:58:59.506719 22336 net.cpp:120] Top shape: 80 256 28 28 (16056320)
I1218 16:58:59.506724 22336 layer_factory.hpp:74] Creating layer inception_3a/output_inception_3a/output_0_split
I1218 16:58:59.506731 22336 net.cpp:84] Creating Layer inception_3a/output_inception_3a/output_0_split
I1218 16:58:59.506734 22336 net.cpp:380] inception_3a/output_inception_3a/output_0_split <- inception_3a/output
I1218 16:58:59.506742 22336 net.cpp:338] inception_3a/output_inception_3a/output_0_split -> inception_3a/output_inception_3a/output_0_split_0
I1218 16:58:59.506749 22336 net.cpp:338] inception_3a/output_inception_3a/output_0_split -> inception_3a/output_inception_3a/output_0_split_1
I1218 16:58:59.506755 22336 net.cpp:338] inception_3a/output_inception_3a/output_0_split -> inception_3a/output_inception_3a/output_0_split_2
I1218 16:58:59.506762 22336 net.cpp:338] inception_3a/output_inception_3a/output_0_split -> inception_3a/output_inception_3a/output_0_split_3
I1218 16:58:59.506767 22336 net.cpp:113] Setting up inception_3a/output_inception_3a/output_0_split
I1218 16:58:59.506774 22336 net.cpp:120] Top shape: 80 256 28 28 (16056320)
I1218 16:58:59.506779 22336 net.cpp:120] Top shape: 80 256 28 28 (16056320)
I1218 16:58:59.506784 22336 net.cpp:120] Top shape: 80 256 28 28 (16056320)
I1218 16:58:59.506788 22336 net.cpp:120] Top shape: 80 256 28 28 (16056320)
I1218 16:58:59.506793 22336 layer_factory.hpp:74] Creating layer inception_3b/1x1
I1218 16:58:59.506810 22336 net.cpp:84] Creating Layer inception_3b/1x1
I1218 16:58:59.506815 22336 net.cpp:380] inception_3b/1x1 <- inception_3a/output_inception_3a/output_0_split_0
I1218 16:58:59.506821 22336 net.cpp:338] inception_3b/1x1 -> inception_3b/1x1
I1218 16:58:59.506829 22336 net.cpp:113] Setting up inception_3b/1x1
I1218 16:58:59.507657 22336 net.cpp:120] Top shape: 80 128 28 28 (8028160)
I1218 16:58:59.507673 22336 layer_factory.hpp:74] Creating layer inception_3b/relu_1x1
I1218 16:58:59.507679 22336 net.cpp:84] Creating Layer inception_3b/relu_1x1
I1218 16:58:59.507684 22336 net.cpp:380] inception_3b/relu_1x1 <- inception_3b/1x1
I1218 16:58:59.507693 22336 net.cpp:327] inception_3b/relu_1x1 -> inception_3b/1x1 (in-place)
I1218 16:58:59.507701 22336 net.cpp:113] Setting up inception_3b/relu_1x1
I1218 16:58:59.507952 22336 net.cpp:120] Top shape: 80 128 28 28 (8028160)
I1218 16:58:59.508004 22336 layer_factory.hpp:74] Creating layer inception_3b/3x3_reduce
I1218 16:58:59.508015 22336 net.cpp:84] Creating Layer inception_3b/3x3_reduce
I1218 16:58:59.508020 22336 net.cpp:380] inception_3b/3x3_reduce <- inception_3a/output_inception_3a/output_0_split_1
I1218 16:58:59.508028 22336 net.cpp:338] inception_3b/3x3_reduce -> inception_3b/3x3_reduce
I1218 16:58:59.508036 22336 net.cpp:113] Setting up inception_3b/3x3_reduce
I1218 16:58:59.509001 22336 net.cpp:120] Top shape: 80 128 28 28 (8028160)
I1218 16:58:59.509016 22336 layer_factory.hpp:74] Creating layer inception_3b/relu_3x3_reduce
I1218 16:58:59.509042 22336 net.cpp:84] Creating Layer inception_3b/relu_3x3_reduce
I1218 16:58:59.509048 22336 net.cpp:380] inception_3b/relu_3x3_reduce <- inception_3b/3x3_reduce
I1218 16:58:59.509064 22336 net.cpp:327] inception_3b/relu_3x3_reduce -> inception_3b/3x3_reduce (in-place)
I1218 16:58:59.509078 22336 net.cpp:113] Setting up inception_3b/relu_3x3_reduce
I1218 16:58:59.509156 22336 net.cpp:120] Top shape: 80 128 28 28 (8028160)
I1218 16:58:59.509171 22336 layer_factory.hpp:74] Creating layer inception_3b/3x3
I1218 16:58:59.509186 22336 net.cpp:84] Creating Layer inception_3b/3x3
I1218 16:58:59.509191 22336 net.cpp:380] inception_3b/3x3 <- inception_3b/3x3_reduce
I1218 16:58:59.509209 22336 net.cpp:338] inception_3b/3x3 -> inception_3b/3x3
I1218 16:58:59.509218 22336 net.cpp:113] Setting up inception_3b/3x3
I1218 16:58:59.512153 22336 net.cpp:120] Top shape: 80 192 28 28 (12042240)
I1218 16:58:59.512169 22336 layer_factory.hpp:74] Creating layer inception_3b/relu_3x3
I1218 16:58:59.512176 22336 net.cpp:84] Creating Layer inception_3b/relu_3x3
I1218 16:58:59.512181 22336 net.cpp:380] inception_3b/relu_3x3 <- inception_3b/3x3
I1218 16:58:59.512190 22336 net.cpp:327] inception_3b/relu_3x3 -> inception_3b/3x3 (in-place)
I1218 16:58:59.512197 22336 net.cpp:113] Setting up inception_3b/relu_3x3
I1218 16:58:59.512310 22336 net.cpp:120] Top shape: 80 192 28 28 (12042240)
I1218 16:58:59.512326 22336 layer_factory.hpp:74] Creating layer inception_3b/5x5_reduce
I1218 16:58:59.512356 22336 net.cpp:84] Creating Layer inception_3b/5x5_reduce
I1218 16:58:59.512363 22336 net.cpp:380] inception_3b/5x5_reduce <- inception_3a/output_inception_3a/output_0_split_2
I1218 16:58:59.512375 22336 net.cpp:338] inception_3b/5x5_reduce -> inception_3b/5x5_reduce
I1218 16:58:59.512384 22336 net.cpp:113] Setting up inception_3b/5x5_reduce
I1218 16:58:59.513007 22336 net.cpp:120] Top shape: 80 32 28 28 (2007040)
I1218 16:58:59.513025 22336 layer_factory.hpp:74] Creating layer inception_3b/relu_5x5_reduce
I1218 16:58:59.513031 22336 net.cpp:84] Creating Layer inception_3b/relu_5x5_reduce
I1218 16:58:59.513036 22336 net.cpp:380] inception_3b/relu_5x5_reduce <- inception_3b/5x5_reduce
I1218 16:58:59.513042 22336 net.cpp:327] inception_3b/relu_5x5_reduce -> inception_3b/5x5_reduce (in-place)
I1218 16:58:59.513051 22336 net.cpp:113] Setting up inception_3b/relu_5x5_reduce
I1218 16:58:59.513159 22336 net.cpp:120] Top shape: 80 32 28 28 (2007040)
I1218 16:58:59.513170 22336 layer_factory.hpp:74] Creating layer inception_3b/5x5
I1218 16:58:59.513176 22336 net.cpp:84] Creating Layer inception_3b/5x5
I1218 16:58:59.513181 22336 net.cpp:380] inception_3b/5x5 <- inception_3b/5x5_reduce
I1218 16:58:59.513190 22336 net.cpp:338] inception_3b/5x5 -> inception_3b/5x5
I1218 16:58:59.513201 22336 net.cpp:113] Setting up inception_3b/5x5
I1218 16:58:59.514626 22336 net.cpp:120] Top shape: 80 96 28 28 (6021120)
I1218 16:58:59.514641 22336 layer_factory.hpp:74] Creating layer inception_3b/relu_5x5
I1218 16:58:59.514647 22336 net.cpp:84] Creating Layer inception_3b/relu_5x5
I1218 16:58:59.514652 22336 net.cpp:380] inception_3b/relu_5x5 <- inception_3b/5x5
I1218 16:58:59.514662 22336 net.cpp:327] inception_3b/relu_5x5 -> inception_3b/5x5 (in-place)
I1218 16:58:59.514670 22336 net.cpp:113] Setting up inception_3b/relu_5x5
I1218 16:58:59.514920 22336 net.cpp:120] Top shape: 80 96 28 28 (6021120)
I1218 16:58:59.514930 22336 layer_factory.hpp:74] Creating layer inception_3b/pool
I1218 16:58:59.514945 22336 layer_factory.cpp:56] CUDNN does not support padding or multiple tops. Using Caffe's own pooling layer.
I1218 16:58:59.514951 22336 net.cpp:84] Creating Layer inception_3b/pool
I1218 16:58:59.514956 22336 net.cpp:380] inception_3b/pool <- inception_3a/output_inception_3a/output_0_split_3
I1218 16:58:59.514964 22336 net.cpp:338] inception_3b/pool -> inception_3b/pool
I1218 16:58:59.514972 22336 net.cpp:113] Setting up inception_3b/pool
I1218 16:58:59.514981 22336 net.cpp:120] Top shape: 80 256 28 28 (16056320)
I1218 16:58:59.514986 22336 layer_factory.hpp:74] Creating layer inception_3b/pool_proj
I1218 16:58:59.514997 22336 net.cpp:84] Creating Layer inception_3b/pool_proj
I1218 16:58:59.515002 22336 net.cpp:380] inception_3b/pool_proj <- inception_3b/pool
I1218 16:58:59.515012 22336 net.cpp:338] inception_3b/pool_proj -> inception_3b/pool_proj
I1218 16:58:59.515020 22336 net.cpp:113] Setting up inception_3b/pool_proj
I1218 16:58:59.515753 22336 net.cpp:120] Top shape: 80 64 28 28 (4014080)
I1218 16:58:59.515776 22336 layer_factory.hpp:74] Creating layer inception_3b/relu_pool_proj
I1218 16:58:59.515784 22336 net.cpp:84] Creating Layer inception_3b/relu_pool_proj
I1218 16:58:59.515790 22336 net.cpp:380] inception_3b/relu_pool_proj <- inception_3b/pool_proj
I1218 16:58:59.515810 22336 net.cpp:327] inception_3b/relu_pool_proj -> inception_3b/pool_proj (in-place)
I1218 16:58:59.515818 22336 net.cpp:113] Setting up inception_3b/relu_pool_proj
I1218 16:58:59.515904 22336 net.cpp:120] Top shape: 80 64 28 28 (4014080)
I1218 16:58:59.515911 22336 layer_factory.hpp:74] Creating layer inception_3b/output
I1218 16:58:59.515919 22336 net.cpp:84] Creating Layer inception_3b/output
I1218 16:58:59.515924 22336 net.cpp:380] inception_3b/output <- inception_3b/1x1
I1218 16:58:59.515930 22336 net.cpp:380] inception_3b/output <- inception_3b/3x3
I1218 16:58:59.515935 22336 net.cpp:380] inception_3b/output <- inception_3b/5x5
I1218 16:58:59.515939 22336 net.cpp:380] inception_3b/output <- inception_3b/pool_proj
I1218 16:58:59.515945 22336 net.cpp:338] inception_3b/output -> inception_3b/output
I1218 16:58:59.515952 22336 net.cpp:113] Setting up inception_3b/output
I1218 16:58:59.515959 22336 net.cpp:120] Top shape: 80 480 28 28 (30105600)
I1218 16:58:59.515964 22336 layer_factory.hpp:74] Creating layer pool3/3x3_s2
I1218 16:58:59.515970 22336 net.cpp:84] Creating Layer pool3/3x3_s2
I1218 16:58:59.515974 22336 net.cpp:380] pool3/3x3_s2 <- inception_3b/output
I1218 16:58:59.515982 22336 net.cpp:338] pool3/3x3_s2 -> pool3/3x3_s2
I1218 16:58:59.515988 22336 net.cpp:113] Setting up pool3/3x3_s2
I1218 16:58:59.516057 22336 net.cpp:120] Top shape: 80 480 14 14 (7526400)
I1218 16:58:59.516072 22336 layer_factory.hpp:74] Creating layer pool3/3x3_s2_pool3/3x3_s2_0_split
I1218 16:58:59.516079 22336 net.cpp:84] Creating Layer pool3/3x3_s2_pool3/3x3_s2_0_split
I1218 16:58:59.516084 22336 net.cpp:380] pool3/3x3_s2_pool3/3x3_s2_0_split <- pool3/3x3_s2
I1218 16:58:59.516090 22336 net.cpp:338] pool3/3x3_s2_pool3/3x3_s2_0_split -> pool3/3x3_s2_pool3/3x3_s2_0_split_0
I1218 16:58:59.516098 22336 net.cpp:338] pool3/3x3_s2_pool3/3x3_s2_0_split -> pool3/3x3_s2_pool3/3x3_s2_0_split_1
I1218 16:58:59.516103 22336 net.cpp:338] pool3/3x3_s2_pool3/3x3_s2_0_split -> pool3/3x3_s2_pool3/3x3_s2_0_split_2
I1218 16:58:59.516110 22336 net.cpp:338] pool3/3x3_s2_pool3/3x3_s2_0_split -> pool3/3x3_s2_pool3/3x3_s2_0_split_3
I1218 16:58:59.516118 22336 net.cpp:113] Setting up pool3/3x3_s2_pool3/3x3_s2_0_split
I1218 16:58:59.516124 22336 net.cpp:120] Top shape: 80 480 14 14 (7526400)
I1218 16:58:59.516129 22336 net.cpp:120] Top shape: 80 480 14 14 (7526400)
I1218 16:58:59.516134 22336 net.cpp:120] Top shape: 80 480 14 14 (7526400)
I1218 16:58:59.516139 22336 net.cpp:120] Top shape: 80 480 14 14 (7526400)
I1218 16:58:59.516142 22336 layer_factory.hpp:74] Creating layer inception_4a/1x1
I1218 16:58:59.516156 22336 net.cpp:84] Creating Layer inception_4a/1x1
I1218 16:58:59.516161 22336 net.cpp:380] inception_4a/1x1 <- pool3/3x3_s2_pool3/3x3_s2_0_split_0
I1218 16:58:59.516171 22336 net.cpp:338] inception_4a/1x1 -> inception_4a/1x1
I1218 16:58:59.516180 22336 net.cpp:113] Setting up inception_4a/1x1
I1218 16:58:59.517639 22336 net.cpp:120] Top shape: 80 192 14 14 (3010560)
I1218 16:58:59.517655 22336 layer_factory.hpp:74] Creating layer inception_4a/relu_1x1
I1218 16:58:59.517663 22336 net.cpp:84] Creating Layer inception_4a/relu_1x1
I1218 16:58:59.517668 22336 net.cpp:380] inception_4a/relu_1x1 <- inception_4a/1x1
I1218 16:58:59.517674 22336 net.cpp:327] inception_4a/relu_1x1 -> inception_4a/1x1 (in-place)
I1218 16:58:59.517681 22336 net.cpp:113] Setting up inception_4a/relu_1x1
I1218 16:58:59.517962 22336 net.cpp:120] Top shape: 80 192 14 14 (3010560)
I1218 16:58:59.517973 22336 layer_factory.hpp:74] Creating layer inception_4a/3x3_reduce
I1218 16:58:59.517984 22336 net.cpp:84] Creating Layer inception_4a/3x3_reduce
I1218 16:58:59.517989 22336 net.cpp:380] inception_4a/3x3_reduce <- pool3/3x3_s2_pool3/3x3_s2_0_split_1
I1218 16:58:59.518003 22336 net.cpp:338] inception_4a/3x3_reduce -> inception_4a/3x3_reduce
I1218 16:58:59.518020 22336 net.cpp:113] Setting up inception_4a/3x3_reduce
I1218 16:58:59.519166 22336 net.cpp:120] Top shape: 80 96 14 14 (1505280)
I1218 16:58:59.519186 22336 layer_factory.hpp:74] Creating layer inception_4a/relu_3x3_reduce
I1218 16:58:59.519204 22336 net.cpp:84] Creating Layer inception_4a/relu_3x3_reduce
I1218 16:58:59.519209 22336 net.cpp:380] inception_4a/relu_3x3_reduce <- inception_4a/3x3_reduce
I1218 16:58:59.519217 22336 net.cpp:327] inception_4a/relu_3x3_reduce -> inception_4a/3x3_reduce (in-place)
I1218 16:58:59.519223 22336 net.cpp:113] Setting up inception_4a/relu_3x3_reduce
I1218 16:58:59.519294 22336 net.cpp:120] Top shape: 80 96 14 14 (1505280)
I1218 16:58:59.519299 22336 layer_factory.hpp:74] Creating layer inception_4a/3x3
I1218 16:58:59.519316 22336 net.cpp:84] Creating Layer inception_4a/3x3
I1218 16:58:59.519321 22336 net.cpp:380] inception_4a/3x3 <- inception_4a/3x3_reduce
I1218 16:58:59.519330 22336 net.cpp:338] inception_4a/3x3 -> inception_4a/3x3
I1218 16:58:59.519337 22336 net.cpp:113] Setting up inception_4a/3x3
I1218 16:58:59.521744 22336 net.cpp:120] Top shape: 80 208 14 14 (3261440)
I1218 16:58:59.521760 22336 layer_factory.hpp:74] Creating layer inception_4a/relu_3x3
I1218 16:58:59.521767 22336 net.cpp:84] Creating Layer inception_4a/relu_3x3
I1218 16:58:59.521772 22336 net.cpp:380] inception_4a/relu_3x3 <- inception_4a/3x3
I1218 16:58:59.521778 22336 net.cpp:327] inception_4a/relu_3x3 -> inception_4a/3x3 (in-place)
I1218 16:58:59.521786 22336 net.cpp:113] Setting up inception_4a/relu_3x3
I1218 16:58:59.521865 22336 net.cpp:120] Top shape: 80 208 14 14 (3261440)
I1218 16:58:59.521873 22336 layer_factory.hpp:74] Creating layer inception_4a/5x5_reduce
I1218 16:58:59.521889 22336 net.cpp:84] Creating Layer inception_4a/5x5_reduce
I1218 16:58:59.521895 22336 net.cpp:380] inception_4a/5x5_reduce <- pool3/3x3_s2_pool3/3x3_s2_0_split_2
I1218 16:58:59.521904 22336 net.cpp:338] inception_4a/5x5_reduce -> inception_4a/5x5_reduce
I1218 16:58:59.521913 22336 net.cpp:113] Setting up inception_4a/5x5_reduce
I1218 16:58:59.522390 22336 net.cpp:120] Top shape: 80 16 14 14 (250880)
I1218 16:58:59.522404 22336 layer_factory.hpp:74] Creating layer inception_4a/relu_5x5_reduce
I1218 16:58:59.522423 22336 net.cpp:84] Creating Layer inception_4a/relu_5x5_reduce
I1218 16:58:59.522428 22336 net.cpp:380] inception_4a/relu_5x5_reduce <- inception_4a/5x5_reduce
I1218 16:58:59.522433 22336 net.cpp:327] inception_4a/relu_5x5_reduce -> inception_4a/5x5_reduce (in-place)
I1218 16:58:59.522440 22336 net.cpp:113] Setting up inception_4a/relu_5x5_reduce
I1218 16:58:59.522512 22336 net.cpp:120] Top shape: 80 16 14 14 (250880)
I1218 16:58:59.522526 22336 layer_factory.hpp:74] Creating layer inception_4a/5x5
I1218 16:58:59.522538 22336 net.cpp:84] Creating Layer inception_4a/5x5
I1218 16:58:59.522543 22336 net.cpp:380] inception_4a/5x5 <- inception_4a/5x5_reduce
I1218 16:58:59.522549 22336 net.cpp:338] inception_4a/5x5 -> inception_4a/5x5
I1218 16:58:59.522557 22336 net.cpp:113] Setting up inception_4a/5x5
I1218 16:58:59.523181 22336 net.cpp:120] Top shape: 80 48 14 14 (752640)
I1218 16:58:59.523195 22336 layer_factory.hpp:74] Creating layer inception_4a/relu_5x5
I1218 16:58:59.523202 22336 net.cpp:84] Creating Layer inception_4a/relu_5x5
I1218 16:58:59.523207 22336 net.cpp:380] inception_4a/relu_5x5 <- inception_4a/5x5
I1218 16:58:59.523213 22336 net.cpp:327] inception_4a/relu_5x5 -> inception_4a/5x5 (in-place)
I1218 16:58:59.523221 22336 net.cpp:113] Setting up inception_4a/relu_5x5
I1218 16:58:59.523458 22336 net.cpp:120] Top shape: 80 48 14 14 (752640)
I1218 16:58:59.523468 22336 layer_factory.hpp:74] Creating layer inception_4a/pool
I1218 16:58:59.523473 22336 layer_factory.cpp:56] CUDNN does not support padding or multiple tops. Using Caffe's own pooling layer.
I1218 16:58:59.523479 22336 net.cpp:84] Creating Layer inception_4a/pool
I1218 16:58:59.523484 22336 net.cpp:380] inception_4a/pool <- pool3/3x3_s2_pool3/3x3_s2_0_split_3
I1218 16:58:59.523504 22336 net.cpp:338] inception_4a/pool -> inception_4a/pool
I1218 16:58:59.523514 22336 net.cpp:113] Setting up inception_4a/pool
I1218 16:58:59.523521 22336 net.cpp:120] Top shape: 80 480 14 14 (7526400)
I1218 16:58:59.523526 22336 layer_factory.hpp:74] Creating layer inception_4a/pool_proj
I1218 16:58:59.523545 22336 net.cpp:84] Creating Layer inception_4a/pool_proj
I1218 16:58:59.523550 22336 net.cpp:380] inception_4a/pool_proj <- inception_4a/pool
I1218 16:58:59.523557 22336 net.cpp:338] inception_4a/pool_proj -> inception_4a/pool_proj
I1218 16:58:59.523564 22336 net.cpp:113] Setting up inception_4a/pool_proj
I1218 16:58:59.524299 22336 net.cpp:120] Top shape: 80 64 14 14 (1003520)
I1218 16:58:59.524314 22336 layer_factory.hpp:74] Creating layer inception_4a/relu_pool_proj
I1218 16:58:59.524332 22336 net.cpp:84] Creating Layer inception_4a/relu_pool_proj
I1218 16:58:59.524338 22336 net.cpp:380] inception_4a/relu_pool_proj <- inception_4a/pool_proj
I1218 16:58:59.524345 22336 net.cpp:327] inception_4a/relu_pool_proj -> inception_4a/pool_proj (in-place)
I1218 16:58:59.524353 22336 net.cpp:113] Setting up inception_4a/relu_pool_proj
I1218 16:58:59.524423 22336 net.cpp:120] Top shape: 80 64 14 14 (1003520)
I1218 16:58:59.524430 22336 layer_factory.hpp:74] Creating layer inception_4a/output
I1218 16:58:59.524437 22336 net.cpp:84] Creating Layer inception_4a/output
I1218 16:58:59.524442 22336 net.cpp:380] inception_4a/output <- inception_4a/1x1
I1218 16:58:59.524451 22336 net.cpp:380] inception_4a/output <- inception_4a/3x3
I1218 16:58:59.524456 22336 net.cpp:380] inception_4a/output <- inception_4a/5x5
I1218 16:58:59.524461 22336 net.cpp:380] inception_4a/output <- inception_4a/pool_proj
I1218 16:58:59.524467 22336 net.cpp:338] inception_4a/output -> inception_4a/output
I1218 16:58:59.524476 22336 net.cpp:113] Setting up inception_4a/output
I1218 16:58:59.524483 22336 net.cpp:120] Top shape: 80 512 14 14 (8028160)
I1218 16:58:59.524487 22336 layer_factory.hpp:74] Creating layer inception_4a/output_inception_4a/output_0_split
I1218 16:58:59.524497 22336 net.cpp:84] Creating Layer inception_4a/output_inception_4a/output_0_split
I1218 16:58:59.524502 22336 net.cpp:380] inception_4a/output_inception_4a/output_0_split <- inception_4a/output
I1218 16:58:59.524507 22336 net.cpp:338] inception_4a/output_inception_4a/output_0_split -> inception_4a/output_inception_4a/output_0_split_0
I1218 16:58:59.524514 22336 net.cpp:338] inception_4a/output_inception_4a/output_0_split -> inception_4a/output_inception_4a/output_0_split_1
I1218 16:58:59.524520 22336 net.cpp:338] inception_4a/output_inception_4a/output_0_split -> inception_4a/output_inception_4a/output_0_split_2
I1218 16:58:59.524528 22336 net.cpp:338] inception_4a/output_inception_4a/output_0_split -> inception_4a/output_inception_4a/output_0_split_3
I1218 16:58:59.524533 22336 net.cpp:338] inception_4a/output_inception_4a/output_0_split -> inception_4a/output_inception_4a/output_0_split_4
I1218 16:58:59.524539 22336 net.cpp:113] Setting up inception_4a/output_inception_4a/output_0_split
I1218 16:58:59.524546 22336 net.cpp:120] Top shape: 80 512 14 14 (8028160)
I1218 16:58:59.524551 22336 net.cpp:120] Top shape: 80 512 14 14 (8028160)
I1218 16:58:59.524556 22336 net.cpp:120] Top shape: 80 512 14 14 (8028160)
I1218 16:58:59.524560 22336 net.cpp:120] Top shape: 80 512 14 14 (8028160)
I1218 16:58:59.524565 22336 net.cpp:120] Top shape: 80 512 14 14 (8028160)
I1218 16:58:59.524569 22336 layer_factory.hpp:74] Creating layer loss1/ave_pool
I1218 16:58:59.524585 22336 net.cpp:84] Creating Layer loss1/ave_pool
I1218 16:58:59.524590 22336 net.cpp:380] loss1/ave_pool <- inception_4a/output_inception_4a/output_0_split_0
I1218 16:58:59.524597 22336 net.cpp:338] loss1/ave_pool -> loss1/ave_pool
I1218 16:58:59.524603 22336 net.cpp:113] Setting up loss1/ave_pool
I1218 16:58:59.524668 22336 net.cpp:120] Top shape: 80 512 4 4 (655360)
I1218 16:58:59.524674 22336 layer_factory.hpp:74] Creating layer loss1/conv
I1218 16:58:59.524693 22336 net.cpp:84] Creating Layer loss1/conv
I1218 16:58:59.524704 22336 net.cpp:380] loss1/conv <- loss1/ave_pool
I1218 16:58:59.524711 22336 net.cpp:338] loss1/conv -> loss1/conv
I1218 16:58:59.524718 22336 net.cpp:113] Setting up loss1/conv
I1218 16:58:59.525873 22336 net.cpp:120] Top shape: 80 128 4 4 (163840)
I1218 16:58:59.525898 22336 layer_factory.hpp:74] Creating layer loss1/relu_conv
I1218 16:58:59.525905 22336 net.cpp:84] Creating Layer loss1/relu_conv
I1218 16:58:59.525910 22336 net.cpp:380] loss1/relu_conv <- loss1/conv
I1218 16:58:59.525919 22336 net.cpp:327] loss1/relu_conv -> loss1/conv (in-place)
I1218 16:58:59.525926 22336 net.cpp:113] Setting up loss1/relu_conv
I1218 16:58:59.525995 22336 net.cpp:120] Top shape: 80 128 4 4 (163840)
I1218 16:58:59.526002 22336 layer_factory.hpp:74] Creating layer loss1/fc
I1218 16:58:59.526010 22336 net.cpp:84] Creating Layer loss1/fc
I1218 16:58:59.526015 22336 net.cpp:380] loss1/fc <- loss1/conv
I1218 16:58:59.526022 22336 net.cpp:338] loss1/fc -> loss1/fc
I1218 16:58:59.526032 22336 net.cpp:113] Setting up loss1/fc
I1218 16:58:59.671733 22336 net.cpp:120] Top shape: 80 1024 (81920)
I1218 16:58:59.671794 22336 layer_factory.hpp:74] Creating layer loss1/relu_fc
I1218 16:58:59.671819 22336 net.cpp:84] Creating Layer loss1/relu_fc
I1218 16:58:59.671828 22336 net.cpp:380] loss1/relu_fc <- loss1/fc
I1218 16:58:59.671838 22336 net.cpp:327] loss1/relu_fc -> loss1/fc (in-place)
I1218 16:58:59.671847 22336 net.cpp:113] Setting up loss1/relu_fc
I1218 16:58:59.675511 22336 net.cpp:120] Top shape: 80 1024 (81920)
I1218 16:58:59.675525 22336 layer_factory.hpp:74] Creating layer loss1/drop_fc
I1218 16:58:59.675545 22336 net.cpp:84] Creating Layer loss1/drop_fc
I1218 16:58:59.675551 22336 net.cpp:380] loss1/drop_fc <- loss1/fc
I1218 16:58:59.675559 22336 net.cpp:327] loss1/drop_fc -> loss1/fc (in-place)
I1218 16:58:59.675611 22336 net.cpp:113] Setting up loss1/drop_fc
I1218 16:58:59.675622 22336 net.cpp:120] Top shape: 80 1024 (81920)
I1218 16:58:59.675627 22336 layer_factory.hpp:74] Creating layer loss1/classifier_kaggle
I1218 16:58:59.675650 22336 net.cpp:84] Creating Layer loss1/classifier_kaggle
I1218 16:58:59.675655 22336 net.cpp:380] loss1/classifier_kaggle <- loss1/fc
I1218 16:58:59.675668 22336 net.cpp:338] loss1/classifier_kaggle -> loss1/classifier_kaggle
I1218 16:58:59.675678 22336 net.cpp:113] Setting up loss1/classifier_kaggle
I1218 16:58:59.680773 22336 net.cpp:120] Top shape: 80 447 (35760)
I1218 16:58:59.680789 22336 layer_factory.hpp:74] Creating layer loss1/loss
I1218 16:58:59.680809 22336 net.cpp:84] Creating Layer loss1/loss
I1218 16:58:59.680815 22336 net.cpp:380] loss1/loss <- loss1/classifier_kaggle
I1218 16:58:59.680822 22336 net.cpp:380] loss1/loss <- label_data_1_split_0
I1218 16:58:59.680829 22336 net.cpp:338] loss1/loss -> loss1/loss1
I1218 16:58:59.680836 22336 net.cpp:113] Setting up loss1/loss
I1218 16:58:59.680845 22336 layer_factory.hpp:74] Creating layer loss1/loss
I1218 16:58:59.681063 22336 net.cpp:120] Top shape: (1)
I1218 16:58:59.681073 22336 net.cpp:122]     with loss weight 0.3
I1218 16:58:59.681120 22336 layer_factory.hpp:74] Creating layer inception_4b/1x1
I1218 16:58:59.681139 22336 net.cpp:84] Creating Layer inception_4b/1x1
I1218 16:58:59.681145 22336 net.cpp:380] inception_4b/1x1 <- inception_4a/output_inception_4a/output_0_split_1
I1218 16:58:59.681154 22336 net.cpp:338] inception_4b/1x1 -> inception_4b/1x1
I1218 16:58:59.681164 22336 net.cpp:113] Setting up inception_4b/1x1
I1218 16:58:59.682540 22336 net.cpp:120] Top shape: 80 160 14 14 (2508800)
I1218 16:58:59.682556 22336 layer_factory.hpp:74] Creating layer inception_4b/relu_1x1
I1218 16:58:59.682565 22336 net.cpp:84] Creating Layer inception_4b/relu_1x1
I1218 16:58:59.682570 22336 net.cpp:380] inception_4b/relu_1x1 <- inception_4b/1x1
I1218 16:58:59.682579 22336 net.cpp:327] inception_4b/relu_1x1 -> inception_4b/1x1 (in-place)
I1218 16:58:59.682585 22336 net.cpp:113] Setting up inception_4b/relu_1x1
I1218 16:58:59.682657 22336 net.cpp:120] Top shape: 80 160 14 14 (2508800)
I1218 16:58:59.682672 22336 layer_factory.hpp:74] Creating layer inception_4b/3x3_reduce
I1218 16:58:59.682693 22336 net.cpp:84] Creating Layer inception_4b/3x3_reduce
I1218 16:58:59.682710 22336 net.cpp:380] inception_4b/3x3_reduce <- inception_4a/output_inception_4a/output_0_split_2
I1218 16:58:59.682718 22336 net.cpp:338] inception_4b/3x3_reduce -> inception_4b/3x3_reduce
I1218 16:58:59.682737 22336 net.cpp:113] Setting up inception_4b/3x3_reduce
I1218 16:58:59.683826 22336 net.cpp:120] Top shape: 80 112 14 14 (1756160)
I1218 16:58:59.683851 22336 layer_factory.hpp:74] Creating layer inception_4b/relu_3x3_reduce
I1218 16:58:59.683864 22336 net.cpp:84] Creating Layer inception_4b/relu_3x3_reduce
I1218 16:58:59.683871 22336 net.cpp:380] inception_4b/relu_3x3_reduce <- inception_4b/3x3_reduce
I1218 16:58:59.683879 22336 net.cpp:327] inception_4b/relu_3x3_reduce -> inception_4b/3x3_reduce (in-place)
I1218 16:58:59.683887 22336 net.cpp:113] Setting up inception_4b/relu_3x3_reduce
I1218 16:58:59.683959 22336 net.cpp:120] Top shape: 80 112 14 14 (1756160)
I1218 16:58:59.683964 22336 layer_factory.hpp:74] Creating layer inception_4b/3x3
I1218 16:58:59.683974 22336 net.cpp:84] Creating Layer inception_4b/3x3
I1218 16:58:59.683977 22336 net.cpp:380] inception_4b/3x3 <- inception_4b/3x3_reduce
I1218 16:58:59.683984 22336 net.cpp:338] inception_4b/3x3 -> inception_4b/3x3
I1218 16:58:59.683992 22336 net.cpp:113] Setting up inception_4b/3x3
I1218 16:58:59.686914 22336 net.cpp:120] Top shape: 80 224 14 14 (3512320)
I1218 16:58:59.686931 22336 layer_factory.hpp:74] Creating layer inception_4b/relu_3x3
I1218 16:58:59.686939 22336 net.cpp:84] Creating Layer inception_4b/relu_3x3
I1218 16:58:59.686945 22336 net.cpp:380] inception_4b/relu_3x3 <- inception_4b/3x3
I1218 16:58:59.686951 22336 net.cpp:327] inception_4b/relu_3x3 -> inception_4b/3x3 (in-place)
I1218 16:58:59.686959 22336 net.cpp:113] Setting up inception_4b/relu_3x3
I1218 16:58:59.687201 22336 net.cpp:120] Top shape: 80 224 14 14 (3512320)
I1218 16:58:59.687212 22336 layer_factory.hpp:74] Creating layer inception_4b/5x5_reduce
I1218 16:58:59.687221 22336 net.cpp:84] Creating Layer inception_4b/5x5_reduce
I1218 16:58:59.687225 22336 net.cpp:380] inception_4b/5x5_reduce <- inception_4a/output_inception_4a/output_0_split_3
I1218 16:58:59.687234 22336 net.cpp:338] inception_4b/5x5_reduce -> inception_4b/5x5_reduce
I1218 16:58:59.687243 22336 net.cpp:113] Setting up inception_4b/5x5_reduce
I1218 16:58:59.687798 22336 net.cpp:120] Top shape: 80 24 14 14 (376320)
I1218 16:58:59.687821 22336 layer_factory.hpp:74] Creating layer inception_4b/relu_5x5_reduce
I1218 16:58:59.687835 22336 net.cpp:84] Creating Layer inception_4b/relu_5x5_reduce
I1218 16:58:59.687841 22336 net.cpp:380] inception_4b/relu_5x5_reduce <- inception_4b/5x5_reduce
I1218 16:58:59.687847 22336 net.cpp:327] inception_4b/relu_5x5_reduce -> inception_4b/5x5_reduce (in-place)
I1218 16:58:59.687855 22336 net.cpp:113] Setting up inception_4b/relu_5x5_reduce
I1218 16:58:59.687924 22336 net.cpp:120] Top shape: 80 24 14 14 (376320)
I1218 16:58:59.687930 22336 layer_factory.hpp:74] Creating layer inception_4b/5x5
I1218 16:58:59.687939 22336 net.cpp:84] Creating Layer inception_4b/5x5
I1218 16:58:59.687944 22336 net.cpp:380] inception_4b/5x5 <- inception_4b/5x5_reduce
I1218 16:58:59.687950 22336 net.cpp:338] inception_4b/5x5 -> inception_4b/5x5
I1218 16:58:59.687958 22336 net.cpp:113] Setting up inception_4b/5x5
I1218 16:58:59.688791 22336 net.cpp:120] Top shape: 80 64 14 14 (1003520)
I1218 16:58:59.688805 22336 layer_factory.hpp:74] Creating layer inception_4b/relu_5x5
I1218 16:58:59.688812 22336 net.cpp:84] Creating Layer inception_4b/relu_5x5
I1218 16:58:59.688817 22336 net.cpp:380] inception_4b/relu_5x5 <- inception_4b/5x5
I1218 16:58:59.688825 22336 net.cpp:327] inception_4b/relu_5x5 -> inception_4b/5x5 (in-place)
I1218 16:58:59.688832 22336 net.cpp:113] Setting up inception_4b/relu_5x5
I1218 16:58:59.688899 22336 net.cpp:120] Top shape: 80 64 14 14 (1003520)
I1218 16:58:59.688905 22336 layer_factory.hpp:74] Creating layer inception_4b/pool
I1218 16:58:59.688925 22336 layer_factory.cpp:56] CUDNN does not support padding or multiple tops. Using Caffe's own pooling layer.
I1218 16:58:59.688941 22336 net.cpp:84] Creating Layer inception_4b/pool
I1218 16:58:59.688946 22336 net.cpp:380] inception_4b/pool <- inception_4a/output_inception_4a/output_0_split_4
I1218 16:58:59.688953 22336 net.cpp:338] inception_4b/pool -> inception_4b/pool
I1218 16:58:59.688972 22336 net.cpp:113] Setting up inception_4b/pool
I1218 16:58:59.688983 22336 net.cpp:120] Top shape: 80 512 14 14 (8028160)
I1218 16:58:59.688987 22336 layer_factory.hpp:74] Creating layer inception_4b/pool_proj
I1218 16:58:59.689003 22336 net.cpp:84] Creating Layer inception_4b/pool_proj
I1218 16:58:59.689008 22336 net.cpp:380] inception_4b/pool_proj <- inception_4b/pool
I1218 16:58:59.689015 22336 net.cpp:338] inception_4b/pool_proj -> inception_4b/pool_proj
I1218 16:58:59.689023 22336 net.cpp:113] Setting up inception_4b/pool_proj
I1218 16:58:59.689831 22336 net.cpp:120] Top shape: 80 64 14 14 (1003520)
I1218 16:58:59.689847 22336 layer_factory.hpp:74] Creating layer inception_4b/relu_pool_proj
I1218 16:58:59.689854 22336 net.cpp:84] Creating Layer inception_4b/relu_pool_proj
I1218 16:58:59.689859 22336 net.cpp:380] inception_4b/relu_pool_proj <- inception_4b/pool_proj
I1218 16:58:59.689868 22336 net.cpp:327] inception_4b/relu_pool_proj -> inception_4b/pool_proj (in-place)
I1218 16:58:59.689875 22336 net.cpp:113] Setting up inception_4b/relu_pool_proj
I1218 16:58:59.690124 22336 net.cpp:120] Top shape: 80 64 14 14 (1003520)
I1218 16:58:59.690135 22336 layer_factory.hpp:74] Creating layer inception_4b/output
I1218 16:58:59.690141 22336 net.cpp:84] Creating Layer inception_4b/output
I1218 16:58:59.690146 22336 net.cpp:380] inception_4b/output <- inception_4b/1x1
I1218 16:58:59.690153 22336 net.cpp:380] inception_4b/output <- inception_4b/3x3
I1218 16:58:59.690158 22336 net.cpp:380] inception_4b/output <- inception_4b/5x5
I1218 16:58:59.690163 22336 net.cpp:380] inception_4b/output <- inception_4b/pool_proj
I1218 16:58:59.690179 22336 net.cpp:338] inception_4b/output -> inception_4b/output
I1218 16:58:59.690188 22336 net.cpp:113] Setting up inception_4b/output
I1218 16:58:59.690196 22336 net.cpp:120] Top shape: 80 512 14 14 (8028160)
I1218 16:58:59.690201 22336 layer_factory.hpp:74] Creating layer inception_4b/output_inception_4b/output_0_split
I1218 16:58:59.690207 22336 net.cpp:84] Creating Layer inception_4b/output_inception_4b/output_0_split
I1218 16:58:59.690212 22336 net.cpp:380] inception_4b/output_inception_4b/output_0_split <- inception_4b/output
I1218 16:58:59.690219 22336 net.cpp:338] inception_4b/output_inception_4b/output_0_split -> inception_4b/output_inception_4b/output_0_split_0
I1218 16:58:59.690227 22336 net.cpp:338] inception_4b/output_inception_4b/output_0_split -> inception_4b/output_inception_4b/output_0_split_1
I1218 16:58:59.690233 22336 net.cpp:338] inception_4b/output_inception_4b/output_0_split -> inception_4b/output_inception_4b/output_0_split_2
I1218 16:58:59.690240 22336 net.cpp:338] inception_4b/output_inception_4b/output_0_split -> inception_4b/output_inception_4b/output_0_split_3
I1218 16:58:59.690246 22336 net.cpp:113] Setting up inception_4b/output_inception_4b/output_0_split
I1218 16:58:59.690253 22336 net.cpp:120] Top shape: 80 512 14 14 (8028160)
I1218 16:58:59.690258 22336 net.cpp:120] Top shape: 80 512 14 14 (8028160)
I1218 16:58:59.690263 22336 net.cpp:120] Top shape: 80 512 14 14 (8028160)
I1218 16:58:59.690268 22336 net.cpp:120] Top shape: 80 512 14 14 (8028160)
I1218 16:58:59.690271 22336 layer_factory.hpp:74] Creating layer inception_4c/1x1
I1218 16:58:59.690280 22336 net.cpp:84] Creating Layer inception_4c/1x1
I1218 16:58:59.690284 22336 net.cpp:380] inception_4c/1x1 <- inception_4b/output_inception_4b/output_0_split_0
I1218 16:58:59.690290 22336 net.cpp:338] inception_4c/1x1 -> inception_4c/1x1
I1218 16:58:59.690299 22336 net.cpp:113] Setting up inception_4c/1x1
I1218 16:58:59.691414 22336 net.cpp:120] Top shape: 80 128 14 14 (2007040)
I1218 16:58:59.691443 22336 layer_factory.hpp:74] Creating layer inception_4c/relu_1x1
I1218 16:58:59.691458 22336 net.cpp:84] Creating Layer inception_4c/relu_1x1
I1218 16:58:59.691463 22336 net.cpp:380] inception_4c/relu_1x1 <- inception_4c/1x1
I1218 16:58:59.691472 22336 net.cpp:327] inception_4c/relu_1x1 -> inception_4c/1x1 (in-place)
I1218 16:58:59.691479 22336 net.cpp:113] Setting up inception_4c/relu_1x1
I1218 16:58:59.691547 22336 net.cpp:120] Top shape: 80 128 14 14 (2007040)
I1218 16:58:59.691555 22336 layer_factory.hpp:74] Creating layer inception_4c/3x3_reduce
I1218 16:58:59.691562 22336 net.cpp:84] Creating Layer inception_4c/3x3_reduce
I1218 16:58:59.691567 22336 net.cpp:380] inception_4c/3x3_reduce <- inception_4b/output_inception_4b/output_0_split_1
I1218 16:58:59.691575 22336 net.cpp:338] inception_4c/3x3_reduce -> inception_4c/3x3_reduce
I1218 16:58:59.691583 22336 net.cpp:113] Setting up inception_4c/3x3_reduce
I1218 16:58:59.692761 22336 net.cpp:120] Top shape: 80 128 14 14 (2007040)
I1218 16:58:59.692777 22336 layer_factory.hpp:74] Creating layer inception_4c/relu_3x3_reduce
I1218 16:58:59.692793 22336 net.cpp:84] Creating Layer inception_4c/relu_3x3_reduce
I1218 16:58:59.692798 22336 net.cpp:380] inception_4c/relu_3x3_reduce <- inception_4c/3x3_reduce
I1218 16:58:59.692807 22336 net.cpp:327] inception_4c/relu_3x3_reduce -> inception_4c/3x3_reduce (in-place)
I1218 16:58:59.692816 22336 net.cpp:113] Setting up inception_4c/relu_3x3_reduce
I1218 16:58:59.692881 22336 net.cpp:120] Top shape: 80 128 14 14 (2007040)
I1218 16:58:59.692888 22336 layer_factory.hpp:74] Creating layer inception_4c/3x3
I1218 16:58:59.692896 22336 net.cpp:84] Creating Layer inception_4c/3x3
I1218 16:58:59.692901 22336 net.cpp:380] inception_4c/3x3 <- inception_4c/3x3_reduce
I1218 16:58:59.692909 22336 net.cpp:338] inception_4c/3x3 -> inception_4c/3x3
I1218 16:58:59.692917 22336 net.cpp:113] Setting up inception_4c/3x3
I1218 16:58:59.696600 22336 net.cpp:120] Top shape: 80 256 14 14 (4014080)
I1218 16:58:59.696630 22336 layer_factory.hpp:74] Creating layer inception_4c/relu_3x3
I1218 16:58:59.696638 22336 net.cpp:84] Creating Layer inception_4c/relu_3x3
I1218 16:58:59.696643 22336 net.cpp:380] inception_4c/relu_3x3 <- inception_4c/3x3
I1218 16:58:59.696650 22336 net.cpp:327] inception_4c/relu_3x3 -> inception_4c/3x3 (in-place)
I1218 16:58:59.696657 22336 net.cpp:113] Setting up inception_4c/relu_3x3
I1218 16:58:59.696727 22336 net.cpp:120] Top shape: 80 256 14 14 (4014080)
I1218 16:58:59.696743 22336 layer_factory.hpp:74] Creating layer inception_4c/5x5_reduce
I1218 16:58:59.696759 22336 net.cpp:84] Creating Layer inception_4c/5x5_reduce
I1218 16:58:59.696765 22336 net.cpp:380] inception_4c/5x5_reduce <- inception_4b/output_inception_4b/output_0_split_2
I1218 16:58:59.696773 22336 net.cpp:338] inception_4c/5x5_reduce -> inception_4c/5x5_reduce
I1218 16:58:59.696780 22336 net.cpp:113] Setting up inception_4c/5x5_reduce
I1218 16:58:59.697346 22336 net.cpp:120] Top shape: 80 24 14 14 (376320)
I1218 16:58:59.697362 22336 layer_factory.hpp:74] Creating layer inception_4c/relu_5x5_reduce
I1218 16:58:59.697370 22336 net.cpp:84] Creating Layer inception_4c/relu_5x5_reduce
I1218 16:58:59.697374 22336 net.cpp:380] inception_4c/relu_5x5_reduce <- inception_4c/5x5_reduce
I1218 16:58:59.697382 22336 net.cpp:327] inception_4c/relu_5x5_reduce -> inception_4c/5x5_reduce (in-place)
I1218 16:58:59.697391 22336 net.cpp:113] Setting up inception_4c/relu_5x5_reduce
I1218 16:58:59.697625 22336 net.cpp:120] Top shape: 80 24 14 14 (376320)
I1218 16:58:59.697635 22336 layer_factory.hpp:74] Creating layer inception_4c/5x5
I1218 16:58:59.697643 22336 net.cpp:84] Creating Layer inception_4c/5x5
I1218 16:58:59.697649 22336 net.cpp:380] inception_4c/5x5 <- inception_4c/5x5_reduce
I1218 16:58:59.697657 22336 net.cpp:338] inception_4c/5x5 -> inception_4c/5x5
I1218 16:58:59.697666 22336 net.cpp:113] Setting up inception_4c/5x5
I1218 16:58:59.698704 22336 net.cpp:120] Top shape: 80 64 14 14 (1003520)
I1218 16:58:59.698719 22336 layer_factory.hpp:74] Creating layer inception_4c/relu_5x5
I1218 16:58:59.698741 22336 net.cpp:84] Creating Layer inception_4c/relu_5x5
I1218 16:58:59.698755 22336 net.cpp:380] inception_4c/relu_5x5 <- inception_4c/5x5
I1218 16:58:59.698762 22336 net.cpp:327] inception_4c/relu_5x5 -> inception_4c/5x5 (in-place)
I1218 16:58:59.698770 22336 net.cpp:113] Setting up inception_4c/relu_5x5
I1218 16:58:59.698846 22336 net.cpp:120] Top shape: 80 64 14 14 (1003520)
I1218 16:58:59.698853 22336 layer_factory.hpp:74] Creating layer inception_4c/pool
I1218 16:58:59.698868 22336 layer_factory.cpp:56] CUDNN does not support padding or multiple tops. Using Caffe's own pooling layer.
I1218 16:58:59.698873 22336 net.cpp:84] Creating Layer inception_4c/pool
I1218 16:58:59.698879 22336 net.cpp:380] inception_4c/pool <- inception_4b/output_inception_4b/output_0_split_3
I1218 16:58:59.698896 22336 net.cpp:338] inception_4c/pool -> inception_4c/pool
I1218 16:58:59.698906 22336 net.cpp:113] Setting up inception_4c/pool
I1218 16:58:59.698915 22336 net.cpp:120] Top shape: 80 512 14 14 (8028160)
I1218 16:58:59.698920 22336 layer_factory.hpp:74] Creating layer inception_4c/pool_proj
I1218 16:58:59.698928 22336 net.cpp:84] Creating Layer inception_4c/pool_proj
I1218 16:58:59.698933 22336 net.cpp:380] inception_4c/pool_proj <- inception_4c/pool
I1218 16:58:59.698940 22336 net.cpp:338] inception_4c/pool_proj -> inception_4c/pool_proj
I1218 16:58:59.698947 22336 net.cpp:113] Setting up inception_4c/pool_proj
I1218 16:58:59.699704 22336 net.cpp:120] Top shape: 80 64 14 14 (1003520)
I1218 16:58:59.699718 22336 layer_factory.hpp:74] Creating layer inception_4c/relu_pool_proj
I1218 16:58:59.699725 22336 net.cpp:84] Creating Layer inception_4c/relu_pool_proj
I1218 16:58:59.699730 22336 net.cpp:380] inception_4c/relu_pool_proj <- inception_4c/pool_proj
I1218 16:58:59.699736 22336 net.cpp:327] inception_4c/relu_pool_proj -> inception_4c/pool_proj (in-place)
I1218 16:58:59.699744 22336 net.cpp:113] Setting up inception_4c/relu_pool_proj
I1218 16:58:59.699818 22336 net.cpp:120] Top shape: 80 64 14 14 (1003520)
I1218 16:58:59.699826 22336 layer_factory.hpp:74] Creating layer inception_4c/output
I1218 16:58:59.699841 22336 net.cpp:84] Creating Layer inception_4c/output
I1218 16:58:59.699846 22336 net.cpp:380] inception_4c/output <- inception_4c/1x1
I1218 16:58:59.699852 22336 net.cpp:380] inception_4c/output <- inception_4c/3x3
I1218 16:58:59.699857 22336 net.cpp:380] inception_4c/output <- inception_4c/5x5
I1218 16:58:59.699862 22336 net.cpp:380] inception_4c/output <- inception_4c/pool_proj
I1218 16:58:59.699869 22336 net.cpp:338] inception_4c/output -> inception_4c/output
I1218 16:58:59.699877 22336 net.cpp:113] Setting up inception_4c/output
I1218 16:58:59.699884 22336 net.cpp:120] Top shape: 80 512 14 14 (8028160)
I1218 16:58:59.699888 22336 layer_factory.hpp:74] Creating layer inception_4c/output_inception_4c/output_0_split
I1218 16:58:59.699903 22336 net.cpp:84] Creating Layer inception_4c/output_inception_4c/output_0_split
I1218 16:58:59.699906 22336 net.cpp:380] inception_4c/output_inception_4c/output_0_split <- inception_4c/output
I1218 16:58:59.699913 22336 net.cpp:338] inception_4c/output_inception_4c/output_0_split -> inception_4c/output_inception_4c/output_0_split_0
I1218 16:58:59.699919 22336 net.cpp:338] inception_4c/output_inception_4c/output_0_split -> inception_4c/output_inception_4c/output_0_split_1
I1218 16:58:59.699926 22336 net.cpp:338] inception_4c/output_inception_4c/output_0_split -> inception_4c/output_inception_4c/output_0_split_2
I1218 16:58:59.699935 22336 net.cpp:338] inception_4c/output_inception_4c/output_0_split -> inception_4c/output_inception_4c/output_0_split_3
I1218 16:58:59.699941 22336 net.cpp:113] Setting up inception_4c/output_inception_4c/output_0_split
I1218 16:58:59.699949 22336 net.cpp:120] Top shape: 80 512 14 14 (8028160)
I1218 16:58:59.699954 22336 net.cpp:120] Top shape: 80 512 14 14 (8028160)
I1218 16:58:59.699957 22336 net.cpp:120] Top shape: 80 512 14 14 (8028160)
I1218 16:58:59.699962 22336 net.cpp:120] Top shape: 80 512 14 14 (8028160)
I1218 16:58:59.699971 22336 layer_factory.hpp:74] Creating layer inception_4d/1x1
I1218 16:58:59.699988 22336 net.cpp:84] Creating Layer inception_4d/1x1
I1218 16:58:59.699993 22336 net.cpp:380] inception_4d/1x1 <- inception_4c/output_inception_4c/output_0_split_0
I1218 16:58:59.700000 22336 net.cpp:338] inception_4d/1x1 -> inception_4d/1x1
I1218 16:58:59.700007 22336 net.cpp:113] Setting up inception_4d/1x1
I1218 16:58:59.701036 22336 net.cpp:120] Top shape: 80 112 14 14 (1756160)
I1218 16:58:59.701050 22336 layer_factory.hpp:74] Creating layer inception_4d/relu_1x1
I1218 16:58:59.701067 22336 net.cpp:84] Creating Layer inception_4d/relu_1x1
I1218 16:58:59.701074 22336 net.cpp:380] inception_4d/relu_1x1 <- inception_4d/1x1
I1218 16:58:59.701083 22336 net.cpp:327] inception_4d/relu_1x1 -> inception_4d/1x1 (in-place)
I1218 16:58:59.701092 22336 net.cpp:113] Setting up inception_4d/relu_1x1
I1218 16:58:59.701164 22336 net.cpp:120] Top shape: 80 112 14 14 (1756160)
I1218 16:58:59.701169 22336 layer_factory.hpp:74] Creating layer inception_4d/3x3_reduce
I1218 16:58:59.701189 22336 net.cpp:84] Creating Layer inception_4d/3x3_reduce
I1218 16:58:59.701194 22336 net.cpp:380] inception_4d/3x3_reduce <- inception_4c/output_inception_4c/output_0_split_1
I1218 16:58:59.701200 22336 net.cpp:338] inception_4d/3x3_reduce -> inception_4d/3x3_reduce
I1218 16:58:59.701208 22336 net.cpp:113] Setting up inception_4d/3x3_reduce
I1218 16:58:59.702419 22336 net.cpp:120] Top shape: 80 144 14 14 (2257920)
I1218 16:58:59.702435 22336 layer_factory.hpp:74] Creating layer inception_4d/relu_3x3_reduce
I1218 16:58:59.702441 22336 net.cpp:84] Creating Layer inception_4d/relu_3x3_reduce
I1218 16:58:59.702448 22336 net.cpp:380] inception_4d/relu_3x3_reduce <- inception_4d/3x3_reduce
I1218 16:58:59.702455 22336 net.cpp:327] inception_4d/relu_3x3_reduce -> inception_4d/3x3_reduce (in-place)
I1218 16:58:59.702462 22336 net.cpp:113] Setting up inception_4d/relu_3x3_reduce
I1218 16:58:59.702702 22336 net.cpp:120] Top shape: 80 144 14 14 (2257920)
I1218 16:58:59.702724 22336 layer_factory.hpp:74] Creating layer inception_4d/3x3
I1218 16:58:59.702734 22336 net.cpp:84] Creating Layer inception_4d/3x3
I1218 16:58:59.702739 22336 net.cpp:380] inception_4d/3x3 <- inception_4d/3x3_reduce
I1218 16:58:59.702746 22336 net.cpp:338] inception_4d/3x3 -> inception_4d/3x3
I1218 16:58:59.702754 22336 net.cpp:113] Setting up inception_4d/3x3
I1218 16:58:59.707279 22336 net.cpp:120] Top shape: 80 288 14 14 (4515840)
I1218 16:58:59.707304 22336 layer_factory.hpp:74] Creating layer inception_4d/relu_3x3
I1218 16:58:59.707314 22336 net.cpp:84] Creating Layer inception_4d/relu_3x3
I1218 16:58:59.707320 22336 net.cpp:380] inception_4d/relu_3x3 <- inception_4d/3x3
I1218 16:58:59.707327 22336 net.cpp:327] inception_4d/relu_3x3 -> inception_4d/3x3 (in-place)
I1218 16:58:59.707335 22336 net.cpp:113] Setting up inception_4d/relu_3x3
I1218 16:58:59.707406 22336 net.cpp:120] Top shape: 80 288 14 14 (4515840)
I1218 16:58:59.707412 22336 layer_factory.hpp:74] Creating layer inception_4d/5x5_reduce
I1218 16:58:59.707430 22336 net.cpp:84] Creating Layer inception_4d/5x5_reduce
I1218 16:58:59.707435 22336 net.cpp:380] inception_4d/5x5_reduce <- inception_4c/output_inception_4c/output_0_split_2
I1218 16:58:59.707444 22336 net.cpp:338] inception_4d/5x5_reduce -> inception_4d/5x5_reduce
I1218 16:58:59.707451 22336 net.cpp:113] Setting up inception_4d/5x5_reduce
I1218 16:58:59.708034 22336 net.cpp:120] Top shape: 80 32 14 14 (501760)
I1218 16:58:59.708047 22336 layer_factory.hpp:74] Creating layer inception_4d/relu_5x5_reduce
I1218 16:58:59.708055 22336 net.cpp:84] Creating Layer inception_4d/relu_5x5_reduce
I1218 16:58:59.708061 22336 net.cpp:380] inception_4d/relu_5x5_reduce <- inception_4d/5x5_reduce
I1218 16:58:59.708067 22336 net.cpp:327] inception_4d/relu_5x5_reduce -> inception_4d/5x5_reduce (in-place)
I1218 16:58:59.708075 22336 net.cpp:113] Setting up inception_4d/relu_5x5_reduce
I1218 16:58:59.708143 22336 net.cpp:120] Top shape: 80 32 14 14 (501760)
I1218 16:58:59.708149 22336 layer_factory.hpp:74] Creating layer inception_4d/5x5
I1218 16:58:59.708173 22336 net.cpp:84] Creating Layer inception_4d/5x5
I1218 16:58:59.708184 22336 net.cpp:380] inception_4d/5x5 <- inception_4d/5x5_reduce
I1218 16:58:59.708194 22336 net.cpp:338] inception_4d/5x5 -> inception_4d/5x5
I1218 16:58:59.708202 22336 net.cpp:113] Setting up inception_4d/5x5
I1218 16:58:59.709206 22336 net.cpp:120] Top shape: 80 64 14 14 (1003520)
I1218 16:58:59.709223 22336 layer_factory.hpp:74] Creating layer inception_4d/relu_5x5
I1218 16:58:59.709240 22336 net.cpp:84] Creating Layer inception_4d/relu_5x5
I1218 16:58:59.709245 22336 net.cpp:380] inception_4d/relu_5x5 <- inception_4d/5x5
I1218 16:58:59.709252 22336 net.cpp:327] inception_4d/relu_5x5 -> inception_4d/5x5 (in-place)
I1218 16:58:59.709259 22336 net.cpp:113] Setting up inception_4d/relu_5x5
I1218 16:58:59.709331 22336 net.cpp:120] Top shape: 80 64 14 14 (1003520)
I1218 16:58:59.709336 22336 layer_factory.hpp:74] Creating layer inception_4d/pool
I1218 16:58:59.709342 22336 layer_factory.cpp:56] CUDNN does not support padding or multiple tops. Using Caffe's own pooling layer.
I1218 16:58:59.709347 22336 net.cpp:84] Creating Layer inception_4d/pool
I1218 16:58:59.709352 22336 net.cpp:380] inception_4d/pool <- inception_4c/output_inception_4c/output_0_split_3
I1218 16:58:59.709359 22336 net.cpp:338] inception_4d/pool -> inception_4d/pool
I1218 16:58:59.709367 22336 net.cpp:113] Setting up inception_4d/pool
I1218 16:58:59.709374 22336 net.cpp:120] Top shape: 80 512 14 14 (8028160)
I1218 16:58:59.709378 22336 layer_factory.hpp:74] Creating layer inception_4d/pool_proj
I1218 16:58:59.709388 22336 net.cpp:84] Creating Layer inception_4d/pool_proj
I1218 16:58:59.709393 22336 net.cpp:380] inception_4d/pool_proj <- inception_4d/pool
I1218 16:58:59.709398 22336 net.cpp:338] inception_4d/pool_proj -> inception_4d/pool_proj
I1218 16:58:59.709405 22336 net.cpp:113] Setting up inception_4d/pool_proj
I1218 16:58:59.710166 22336 net.cpp:120] Top shape: 80 64 14 14 (1003520)
I1218 16:58:59.710181 22336 layer_factory.hpp:74] Creating layer inception_4d/relu_pool_proj
I1218 16:58:59.710199 22336 net.cpp:84] Creating Layer inception_4d/relu_pool_proj
I1218 16:58:59.710204 22336 net.cpp:380] inception_4d/relu_pool_proj <- inception_4d/pool_proj
I1218 16:58:59.710211 22336 net.cpp:327] inception_4d/relu_pool_proj -> inception_4d/pool_proj (in-place)
I1218 16:58:59.710222 22336 net.cpp:113] Setting up inception_4d/relu_pool_proj
I1218 16:58:59.710458 22336 net.cpp:120] Top shape: 80 64 14 14 (1003520)
I1218 16:58:59.710469 22336 layer_factory.hpp:74] Creating layer inception_4d/output
I1218 16:58:59.710484 22336 net.cpp:84] Creating Layer inception_4d/output
I1218 16:58:59.710489 22336 net.cpp:380] inception_4d/output <- inception_4d/1x1
I1218 16:58:59.710495 22336 net.cpp:380] inception_4d/output <- inception_4d/3x3
I1218 16:58:59.710500 22336 net.cpp:380] inception_4d/output <- inception_4d/5x5
I1218 16:58:59.710505 22336 net.cpp:380] inception_4d/output <- inception_4d/pool_proj
I1218 16:58:59.710510 22336 net.cpp:338] inception_4d/output -> inception_4d/output
I1218 16:58:59.710517 22336 net.cpp:113] Setting up inception_4d/output
I1218 16:58:59.710525 22336 net.cpp:120] Top shape: 80 528 14 14 (8279040)
I1218 16:58:59.710530 22336 layer_factory.hpp:74] Creating layer inception_4d/output_inception_4d/output_0_split
I1218 16:58:59.710536 22336 net.cpp:84] Creating Layer inception_4d/output_inception_4d/output_0_split
I1218 16:58:59.710541 22336 net.cpp:380] inception_4d/output_inception_4d/output_0_split <- inception_4d/output
I1218 16:58:59.710548 22336 net.cpp:338] inception_4d/output_inception_4d/output_0_split -> inception_4d/output_inception_4d/output_0_split_0
I1218 16:58:59.710556 22336 net.cpp:338] inception_4d/output_inception_4d/output_0_split -> inception_4d/output_inception_4d/output_0_split_1
I1218 16:58:59.710562 22336 net.cpp:338] inception_4d/output_inception_4d/output_0_split -> inception_4d/output_inception_4d/output_0_split_2
I1218 16:58:59.710569 22336 net.cpp:338] inception_4d/output_inception_4d/output_0_split -> inception_4d/output_inception_4d/output_0_split_3
I1218 16:58:59.710592 22336 net.cpp:338] inception_4d/output_inception_4d/output_0_split -> inception_4d/output_inception_4d/output_0_split_4
I1218 16:58:59.710598 22336 net.cpp:113] Setting up inception_4d/output_inception_4d/output_0_split
I1218 16:58:59.710608 22336 net.cpp:120] Top shape: 80 528 14 14 (8279040)
I1218 16:58:59.710613 22336 net.cpp:120] Top shape: 80 528 14 14 (8279040)
I1218 16:58:59.710618 22336 net.cpp:120] Top shape: 80 528 14 14 (8279040)
I1218 16:58:59.710621 22336 net.cpp:120] Top shape: 80 528 14 14 (8279040)
I1218 16:58:59.710626 22336 net.cpp:120] Top shape: 80 528 14 14 (8279040)
I1218 16:58:59.710630 22336 layer_factory.hpp:74] Creating layer loss2/ave_pool
I1218 16:58:59.710636 22336 net.cpp:84] Creating Layer loss2/ave_pool
I1218 16:58:59.710640 22336 net.cpp:380] loss2/ave_pool <- inception_4d/output_inception_4d/output_0_split_0
I1218 16:58:59.710646 22336 net.cpp:338] loss2/ave_pool -> loss2/ave_pool
I1218 16:58:59.710652 22336 net.cpp:113] Setting up loss2/ave_pool
I1218 16:58:59.710722 22336 net.cpp:120] Top shape: 80 528 4 4 (675840)
I1218 16:58:59.710729 22336 layer_factory.hpp:74] Creating layer loss2/conv
I1218 16:58:59.710736 22336 net.cpp:84] Creating Layer loss2/conv
I1218 16:58:59.710741 22336 net.cpp:380] loss2/conv <- loss2/ave_pool
I1218 16:58:59.710752 22336 net.cpp:338] loss2/conv -> loss2/conv
I1218 16:58:59.710759 22336 net.cpp:113] Setting up loss2/conv
I1218 16:58:59.711944 22336 net.cpp:120] Top shape: 80 128 4 4 (163840)
I1218 16:58:59.711961 22336 layer_factory.hpp:74] Creating layer loss2/relu_conv
I1218 16:58:59.711983 22336 net.cpp:84] Creating Layer loss2/relu_conv
I1218 16:58:59.711990 22336 net.cpp:380] loss2/relu_conv <- loss2/conv
I1218 16:58:59.711998 22336 net.cpp:327] loss2/relu_conv -> loss2/conv (in-place)
I1218 16:58:59.712007 22336 net.cpp:113] Setting up loss2/relu_conv
I1218 16:58:59.712074 22336 net.cpp:120] Top shape: 80 128 4 4 (163840)
I1218 16:58:59.712086 22336 layer_factory.hpp:74] Creating layer loss2/fc
I1218 16:58:59.712098 22336 net.cpp:84] Creating Layer loss2/fc
I1218 16:58:59.712103 22336 net.cpp:380] loss2/fc <- loss2/conv
I1218 16:58:59.712110 22336 net.cpp:338] loss2/fc -> loss2/fc
I1218 16:58:59.712118 22336 net.cpp:113] Setting up loss2/fc
I1218 16:58:59.856145 22336 net.cpp:120] Top shape: 80 1024 (81920)
I1218 16:58:59.856189 22336 layer_factory.hpp:74] Creating layer loss2/relu_fc
I1218 16:58:59.856201 22336 net.cpp:84] Creating Layer loss2/relu_fc
I1218 16:58:59.856212 22336 net.cpp:380] loss2/relu_fc <- loss2/fc
I1218 16:58:59.856223 22336 net.cpp:327] loss2/relu_fc -> loss2/fc (in-place)
I1218 16:58:59.856235 22336 net.cpp:113] Setting up loss2/relu_fc
I1218 16:58:59.856698 22336 net.cpp:120] Top shape: 80 1024 (81920)
I1218 16:58:59.856710 22336 layer_factory.hpp:74] Creating layer loss2/drop_fc
I1218 16:58:59.856721 22336 net.cpp:84] Creating Layer loss2/drop_fc
I1218 16:58:59.856726 22336 net.cpp:380] loss2/drop_fc <- loss2/fc
I1218 16:58:59.856735 22336 net.cpp:327] loss2/drop_fc -> loss2/fc (in-place)
I1218 16:58:59.856745 22336 net.cpp:113] Setting up loss2/drop_fc
I1218 16:58:59.856753 22336 net.cpp:120] Top shape: 80 1024 (81920)
I1218 16:58:59.856758 22336 layer_factory.hpp:74] Creating layer loss2/classifier_kaggle
I1218 16:58:59.856837 22336 net.cpp:84] Creating Layer loss2/classifier_kaggle
I1218 16:58:59.856853 22336 net.cpp:380] loss2/classifier_kaggle <- loss2/fc
I1218 16:58:59.856875 22336 net.cpp:338] loss2/classifier_kaggle -> loss2/classifier_kaggle
I1218 16:58:59.856892 22336 net.cpp:113] Setting up loss2/classifier_kaggle
I1218 16:58:59.861995 22336 net.cpp:120] Top shape: 80 447 (35760)
I1218 16:58:59.862026 22336 layer_factory.hpp:74] Creating layer loss2/loss
I1218 16:58:59.862035 22336 net.cpp:84] Creating Layer loss2/loss
I1218 16:58:59.862041 22336 net.cpp:380] loss2/loss <- loss2/classifier_kaggle
I1218 16:58:59.862049 22336 net.cpp:380] loss2/loss <- label_data_1_split_1
I1218 16:58:59.862058 22336 net.cpp:338] loss2/loss -> loss2/loss1
I1218 16:58:59.862076 22336 net.cpp:113] Setting up loss2/loss
I1218 16:58:59.862095 22336 layer_factory.hpp:74] Creating layer loss2/loss
I1218 16:58:59.862318 22336 net.cpp:120] Top shape: (1)
I1218 16:58:59.862326 22336 net.cpp:122]     with loss weight 0.3
I1218 16:58:59.862339 22336 layer_factory.hpp:74] Creating layer inception_4e/1x1
I1218 16:58:59.862357 22336 net.cpp:84] Creating Layer inception_4e/1x1
I1218 16:58:59.862363 22336 net.cpp:380] inception_4e/1x1 <- inception_4d/output_inception_4d/output_0_split_1
I1218 16:58:59.862371 22336 net.cpp:338] inception_4e/1x1 -> inception_4e/1x1
I1218 16:58:59.862380 22336 net.cpp:113] Setting up inception_4e/1x1
I1218 16:58:59.864397 22336 net.cpp:120] Top shape: 80 256 14 14 (4014080)
I1218 16:58:59.864413 22336 layer_factory.hpp:74] Creating layer inception_4e/relu_1x1
I1218 16:58:59.864423 22336 net.cpp:84] Creating Layer inception_4e/relu_1x1
I1218 16:58:59.864428 22336 net.cpp:380] inception_4e/relu_1x1 <- inception_4e/1x1
I1218 16:58:59.864435 22336 net.cpp:327] inception_4e/relu_1x1 -> inception_4e/1x1 (in-place)
I1218 16:58:59.864442 22336 net.cpp:113] Setting up inception_4e/relu_1x1
I1218 16:58:59.864518 22336 net.cpp:120] Top shape: 80 256 14 14 (4014080)
I1218 16:58:59.864526 22336 layer_factory.hpp:74] Creating layer inception_4e/3x3_reduce
I1218 16:58:59.864544 22336 net.cpp:84] Creating Layer inception_4e/3x3_reduce
I1218 16:58:59.864549 22336 net.cpp:380] inception_4e/3x3_reduce <- inception_4d/output_inception_4d/output_0_split_2
I1218 16:58:59.864559 22336 net.cpp:338] inception_4e/3x3_reduce -> inception_4e/3x3_reduce
I1218 16:58:59.864567 22336 net.cpp:113] Setting up inception_4e/3x3_reduce
I1218 16:58:59.865977 22336 net.cpp:120] Top shape: 80 160 14 14 (2508800)
I1218 16:58:59.865995 22336 layer_factory.hpp:74] Creating layer inception_4e/relu_3x3_reduce
I1218 16:58:59.866011 22336 net.cpp:84] Creating Layer inception_4e/relu_3x3_reduce
I1218 16:58:59.866017 22336 net.cpp:380] inception_4e/relu_3x3_reduce <- inception_4e/3x3_reduce
I1218 16:58:59.866025 22336 net.cpp:327] inception_4e/relu_3x3_reduce -> inception_4e/3x3_reduce (in-place)
I1218 16:58:59.866032 22336 net.cpp:113] Setting up inception_4e/relu_3x3_reduce
I1218 16:58:59.866103 22336 net.cpp:120] Top shape: 80 160 14 14 (2508800)
I1218 16:58:59.866112 22336 layer_factory.hpp:74] Creating layer inception_4e/3x3
I1218 16:58:59.866123 22336 net.cpp:84] Creating Layer inception_4e/3x3
I1218 16:58:59.866128 22336 net.cpp:380] inception_4e/3x3 <- inception_4e/3x3_reduce
I1218 16:58:59.866134 22336 net.cpp:338] inception_4e/3x3 -> inception_4e/3x3
I1218 16:58:59.866143 22336 net.cpp:113] Setting up inception_4e/3x3
I1218 16:58:59.871644 22336 net.cpp:120] Top shape: 80 320 14 14 (5017600)
I1218 16:58:59.871661 22336 layer_factory.hpp:74] Creating layer inception_4e/relu_3x3
I1218 16:58:59.871670 22336 net.cpp:84] Creating Layer inception_4e/relu_3x3
I1218 16:58:59.871675 22336 net.cpp:380] inception_4e/relu_3x3 <- inception_4e/3x3
I1218 16:58:59.871682 22336 net.cpp:327] inception_4e/relu_3x3 -> inception_4e/3x3 (in-place)
I1218 16:58:59.871690 22336 net.cpp:113] Setting up inception_4e/relu_3x3
I1218 16:58:59.871929 22336 net.cpp:120] Top shape: 80 320 14 14 (5017600)
I1218 16:58:59.871940 22336 layer_factory.hpp:74] Creating layer inception_4e/5x5_reduce
I1218 16:58:59.871958 22336 net.cpp:84] Creating Layer inception_4e/5x5_reduce
I1218 16:58:59.871963 22336 net.cpp:380] inception_4e/5x5_reduce <- inception_4d/output_inception_4d/output_0_split_3
I1218 16:58:59.871971 22336 net.cpp:338] inception_4e/5x5_reduce -> inception_4e/5x5_reduce
I1218 16:58:59.871979 22336 net.cpp:113] Setting up inception_4e/5x5_reduce
I1218 16:58:59.872565 22336 net.cpp:120] Top shape: 80 32 14 14 (501760)
I1218 16:58:59.872581 22336 layer_factory.hpp:74] Creating layer inception_4e/relu_5x5_reduce
I1218 16:58:59.872586 22336 net.cpp:84] Creating Layer inception_4e/relu_5x5_reduce
I1218 16:58:59.872592 22336 net.cpp:380] inception_4e/relu_5x5_reduce <- inception_4e/5x5_reduce
I1218 16:58:59.872601 22336 net.cpp:327] inception_4e/relu_5x5_reduce -> inception_4e/5x5_reduce (in-place)
I1218 16:58:59.872622 22336 net.cpp:113] Setting up inception_4e/relu_5x5_reduce
I1218 16:58:59.872694 22336 net.cpp:120] Top shape: 80 32 14 14 (501760)
I1218 16:58:59.872707 22336 layer_factory.hpp:74] Creating layer inception_4e/5x5
I1218 16:58:59.872735 22336 net.cpp:84] Creating Layer inception_4e/5x5
I1218 16:58:59.872741 22336 net.cpp:380] inception_4e/5x5 <- inception_4e/5x5_reduce
I1218 16:58:59.872748 22336 net.cpp:338] inception_4e/5x5 -> inception_4e/5x5
I1218 16:58:59.872756 22336 net.cpp:113] Setting up inception_4e/5x5
I1218 16:58:59.874294 22336 net.cpp:120] Top shape: 80 128 14 14 (2007040)
I1218 16:58:59.874310 22336 layer_factory.hpp:74] Creating layer inception_4e/relu_5x5
I1218 16:58:59.874326 22336 net.cpp:84] Creating Layer inception_4e/relu_5x5
I1218 16:58:59.874332 22336 net.cpp:380] inception_4e/relu_5x5 <- inception_4e/5x5
I1218 16:58:59.874338 22336 net.cpp:327] inception_4e/relu_5x5 -> inception_4e/5x5 (in-place)
I1218 16:58:59.874346 22336 net.cpp:113] Setting up inception_4e/relu_5x5
I1218 16:58:59.874415 22336 net.cpp:120] Top shape: 80 128 14 14 (2007040)
I1218 16:58:59.874423 22336 layer_factory.hpp:74] Creating layer inception_4e/pool
I1218 16:58:59.874428 22336 layer_factory.cpp:56] CUDNN does not support padding or multiple tops. Using Caffe's own pooling layer.
I1218 16:58:59.874433 22336 net.cpp:84] Creating Layer inception_4e/pool
I1218 16:58:59.874439 22336 net.cpp:380] inception_4e/pool <- inception_4d/output_inception_4d/output_0_split_4
I1218 16:58:59.874446 22336 net.cpp:338] inception_4e/pool -> inception_4e/pool
I1218 16:58:59.874454 22336 net.cpp:113] Setting up inception_4e/pool
I1218 16:58:59.874462 22336 net.cpp:120] Top shape: 80 528 14 14 (8279040)
I1218 16:58:59.874466 22336 layer_factory.hpp:74] Creating layer inception_4e/pool_proj
I1218 16:58:59.874475 22336 net.cpp:84] Creating Layer inception_4e/pool_proj
I1218 16:58:59.874480 22336 net.cpp:380] inception_4e/pool_proj <- inception_4e/pool
I1218 16:58:59.874486 22336 net.cpp:338] inception_4e/pool_proj -> inception_4e/pool_proj
I1218 16:58:59.874493 22336 net.cpp:113] Setting up inception_4e/pool_proj
I1218 16:58:59.875638 22336 net.cpp:120] Top shape: 80 128 14 14 (2007040)
I1218 16:58:59.875653 22336 layer_factory.hpp:74] Creating layer inception_4e/relu_pool_proj
I1218 16:58:59.875670 22336 net.cpp:84] Creating Layer inception_4e/relu_pool_proj
I1218 16:58:59.875676 22336 net.cpp:380] inception_4e/relu_pool_proj <- inception_4e/pool_proj
I1218 16:58:59.875684 22336 net.cpp:327] inception_4e/relu_pool_proj -> inception_4e/pool_proj (in-place)
I1218 16:58:59.875691 22336 net.cpp:113] Setting up inception_4e/relu_pool_proj
I1218 16:58:59.875757 22336 net.cpp:120] Top shape: 80 128 14 14 (2007040)
I1218 16:58:59.875763 22336 layer_factory.hpp:74] Creating layer inception_4e/output
I1218 16:58:59.875769 22336 net.cpp:84] Creating Layer inception_4e/output
I1218 16:58:59.875774 22336 net.cpp:380] inception_4e/output <- inception_4e/1x1
I1218 16:58:59.875779 22336 net.cpp:380] inception_4e/output <- inception_4e/3x3
I1218 16:58:59.875784 22336 net.cpp:380] inception_4e/output <- inception_4e/5x5
I1218 16:58:59.875789 22336 net.cpp:380] inception_4e/output <- inception_4e/pool_proj
I1218 16:58:59.875797 22336 net.cpp:338] inception_4e/output -> inception_4e/output
I1218 16:58:59.875803 22336 net.cpp:113] Setting up inception_4e/output
I1218 16:58:59.875811 22336 net.cpp:120] Top shape: 80 832 14 14 (13045760)
I1218 16:58:59.875815 22336 layer_factory.hpp:74] Creating layer pool4/3x3_s2
I1218 16:58:59.875821 22336 net.cpp:84] Creating Layer pool4/3x3_s2
I1218 16:58:59.875826 22336 net.cpp:380] pool4/3x3_s2 <- inception_4e/output
I1218 16:58:59.875833 22336 net.cpp:338] pool4/3x3_s2 -> pool4/3x3_s2
I1218 16:58:59.875838 22336 net.cpp:113] Setting up pool4/3x3_s2
I1218 16:58:59.876083 22336 net.cpp:120] Top shape: 80 832 7 7 (3261440)
I1218 16:58:59.876094 22336 layer_factory.hpp:74] Creating layer pool4/3x3_s2_pool4/3x3_s2_0_split
I1218 16:58:59.876106 22336 net.cpp:84] Creating Layer pool4/3x3_s2_pool4/3x3_s2_0_split
I1218 16:58:59.876119 22336 net.cpp:380] pool4/3x3_s2_pool4/3x3_s2_0_split <- pool4/3x3_s2
I1218 16:58:59.876128 22336 net.cpp:338] pool4/3x3_s2_pool4/3x3_s2_0_split -> pool4/3x3_s2_pool4/3x3_s2_0_split_0
I1218 16:58:59.876137 22336 net.cpp:338] pool4/3x3_s2_pool4/3x3_s2_0_split -> pool4/3x3_s2_pool4/3x3_s2_0_split_1
I1218 16:58:59.876143 22336 net.cpp:338] pool4/3x3_s2_pool4/3x3_s2_0_split -> pool4/3x3_s2_pool4/3x3_s2_0_split_2
I1218 16:58:59.876149 22336 net.cpp:338] pool4/3x3_s2_pool4/3x3_s2_0_split -> pool4/3x3_s2_pool4/3x3_s2_0_split_3
I1218 16:58:59.876155 22336 net.cpp:113] Setting up pool4/3x3_s2_pool4/3x3_s2_0_split
I1218 16:58:59.876164 22336 net.cpp:120] Top shape: 80 832 7 7 (3261440)
I1218 16:58:59.876169 22336 net.cpp:120] Top shape: 80 832 7 7 (3261440)
I1218 16:58:59.876174 22336 net.cpp:120] Top shape: 80 832 7 7 (3261440)
I1218 16:58:59.876178 22336 net.cpp:120] Top shape: 80 832 7 7 (3261440)
I1218 16:58:59.876183 22336 layer_factory.hpp:74] Creating layer inception_5a/1x1
I1218 16:58:59.876196 22336 net.cpp:84] Creating Layer inception_5a/1x1
I1218 16:58:59.876201 22336 net.cpp:380] inception_5a/1x1 <- pool4/3x3_s2_pool4/3x3_s2_0_split_0
I1218 16:58:59.876209 22336 net.cpp:338] inception_5a/1x1 -> inception_5a/1x1
I1218 16:58:59.876217 22336 net.cpp:113] Setting up inception_5a/1x1
I1218 16:58:59.878967 22336 net.cpp:120] Top shape: 80 256 7 7 (1003520)
I1218 16:58:59.878988 22336 layer_factory.hpp:74] Creating layer inception_5a/relu_1x1
I1218 16:58:59.878996 22336 net.cpp:84] Creating Layer inception_5a/relu_1x1
I1218 16:58:59.879001 22336 net.cpp:380] inception_5a/relu_1x1 <- inception_5a/1x1
I1218 16:58:59.879009 22336 net.cpp:327] inception_5a/relu_1x1 -> inception_5a/1x1 (in-place)
I1218 16:58:59.879015 22336 net.cpp:113] Setting up inception_5a/relu_1x1
I1218 16:58:59.879083 22336 net.cpp:120] Top shape: 80 256 7 7 (1003520)
I1218 16:58:59.879089 22336 layer_factory.hpp:74] Creating layer inception_5a/3x3_reduce
I1218 16:58:59.879096 22336 net.cpp:84] Creating Layer inception_5a/3x3_reduce
I1218 16:58:59.879101 22336 net.cpp:380] inception_5a/3x3_reduce <- pool4/3x3_s2_pool4/3x3_s2_0_split_1
I1218 16:58:59.879111 22336 net.cpp:338] inception_5a/3x3_reduce -> inception_5a/3x3_reduce
I1218 16:58:59.879118 22336 net.cpp:113] Setting up inception_5a/3x3_reduce
I1218 16:58:59.880975 22336 net.cpp:120] Top shape: 80 160 7 7 (627200)
I1218 16:58:59.880988 22336 layer_factory.hpp:74] Creating layer inception_5a/relu_3x3_reduce
I1218 16:58:59.881003 22336 net.cpp:84] Creating Layer inception_5a/relu_3x3_reduce
I1218 16:58:59.881009 22336 net.cpp:380] inception_5a/relu_3x3_reduce <- inception_5a/3x3_reduce
I1218 16:58:59.881016 22336 net.cpp:327] inception_5a/relu_3x3_reduce -> inception_5a/3x3_reduce (in-place)
I1218 16:58:59.881023 22336 net.cpp:113] Setting up inception_5a/relu_3x3_reduce
I1218 16:58:59.881108 22336 net.cpp:120] Top shape: 80 160 7 7 (627200)
I1218 16:58:59.881119 22336 layer_factory.hpp:74] Creating layer inception_5a/3x3
I1218 16:58:59.881127 22336 net.cpp:84] Creating Layer inception_5a/3x3
I1218 16:58:59.881132 22336 net.cpp:380] inception_5a/3x3 <- inception_5a/3x3_reduce
I1218 16:58:59.881139 22336 net.cpp:338] inception_5a/3x3 -> inception_5a/3x3
I1218 16:58:59.881146 22336 net.cpp:113] Setting up inception_5a/3x3
I1218 16:58:59.886576 22336 net.cpp:120] Top shape: 80 320 7 7 (1254400)
I1218 16:58:59.886595 22336 layer_factory.hpp:74] Creating layer inception_5a/relu_3x3
I1218 16:58:59.886607 22336 net.cpp:84] Creating Layer inception_5a/relu_3x3
I1218 16:58:59.886613 22336 net.cpp:380] inception_5a/relu_3x3 <- inception_5a/3x3
I1218 16:58:59.886620 22336 net.cpp:327] inception_5a/relu_3x3 -> inception_5a/3x3 (in-place)
I1218 16:58:59.886627 22336 net.cpp:113] Setting up inception_5a/relu_3x3
I1218 16:58:59.886694 22336 net.cpp:120] Top shape: 80 320 7 7 (1254400)
I1218 16:58:59.886700 22336 layer_factory.hpp:74] Creating layer inception_5a/5x5_reduce
I1218 16:58:59.886709 22336 net.cpp:84] Creating Layer inception_5a/5x5_reduce
I1218 16:58:59.886720 22336 net.cpp:380] inception_5a/5x5_reduce <- pool4/3x3_s2_pool4/3x3_s2_0_split_2
I1218 16:58:59.886734 22336 net.cpp:338] inception_5a/5x5_reduce -> inception_5a/5x5_reduce
I1218 16:58:59.886744 22336 net.cpp:113] Setting up inception_5a/5x5_reduce
I1218 16:58:59.887429 22336 net.cpp:120] Top shape: 80 32 7 7 (125440)
I1218 16:58:59.887444 22336 layer_factory.hpp:74] Creating layer inception_5a/relu_5x5_reduce
I1218 16:58:59.887459 22336 net.cpp:84] Creating Layer inception_5a/relu_5x5_reduce
I1218 16:58:59.887465 22336 net.cpp:380] inception_5a/relu_5x5_reduce <- inception_5a/5x5_reduce
I1218 16:58:59.887471 22336 net.cpp:327] inception_5a/relu_5x5_reduce -> inception_5a/5x5_reduce (in-place)
I1218 16:58:59.887478 22336 net.cpp:113] Setting up inception_5a/relu_5x5_reduce
I1218 16:58:59.887718 22336 net.cpp:120] Top shape: 80 32 7 7 (125440)
I1218 16:58:59.887729 22336 layer_factory.hpp:74] Creating layer inception_5a/5x5
I1218 16:58:59.887739 22336 net.cpp:84] Creating Layer inception_5a/5x5
I1218 16:58:59.887744 22336 net.cpp:380] inception_5a/5x5 <- inception_5a/5x5_reduce
I1218 16:58:59.887751 22336 net.cpp:338] inception_5a/5x5 -> inception_5a/5x5
I1218 16:58:59.887759 22336 net.cpp:113] Setting up inception_5a/5x5
I1218 16:58:59.893496 22336 net.cpp:120] Top shape: 80 128 7 7 (501760)
I1218 16:58:59.893513 22336 layer_factory.hpp:74] Creating layer inception_5a/relu_5x5
I1218 16:58:59.893520 22336 net.cpp:84] Creating Layer inception_5a/relu_5x5
I1218 16:58:59.893527 22336 net.cpp:380] inception_5a/relu_5x5 <- inception_5a/5x5
I1218 16:58:59.893534 22336 net.cpp:327] inception_5a/relu_5x5 -> inception_5a/5x5 (in-place)
I1218 16:58:59.893542 22336 net.cpp:113] Setting up inception_5a/relu_5x5
I1218 16:58:59.893610 22336 net.cpp:120] Top shape: 80 128 7 7 (501760)
I1218 16:58:59.893621 22336 layer_factory.hpp:74] Creating layer inception_5a/pool
I1218 16:58:59.893627 22336 layer_factory.cpp:56] CUDNN does not support padding or multiple tops. Using Caffe's own pooling layer.
I1218 16:58:59.893641 22336 net.cpp:84] Creating Layer inception_5a/pool
I1218 16:58:59.893647 22336 net.cpp:380] inception_5a/pool <- pool4/3x3_s2_pool4/3x3_s2_0_split_3
I1218 16:58:59.893653 22336 net.cpp:338] inception_5a/pool -> inception_5a/pool
I1218 16:58:59.893661 22336 net.cpp:113] Setting up inception_5a/pool
I1218 16:58:59.893671 22336 net.cpp:120] Top shape: 80 832 7 7 (3261440)
I1218 16:58:59.893674 22336 layer_factory.hpp:74] Creating layer inception_5a/pool_proj
I1218 16:58:59.893682 22336 net.cpp:84] Creating Layer inception_5a/pool_proj
I1218 16:58:59.893685 22336 net.cpp:380] inception_5a/pool_proj <- inception_5a/pool
I1218 16:58:59.893697 22336 net.cpp:338] inception_5a/pool_proj -> inception_5a/pool_proj
I1218 16:58:59.893704 22336 net.cpp:113] Setting up inception_5a/pool_proj
I1218 16:58:59.895320 22336 net.cpp:120] Top shape: 80 128 7 7 (501760)
I1218 16:58:59.895335 22336 layer_factory.hpp:74] Creating layer inception_5a/relu_pool_proj
I1218 16:58:59.895344 22336 net.cpp:84] Creating Layer inception_5a/relu_pool_proj
I1218 16:58:59.895350 22336 net.cpp:380] inception_5a/relu_pool_proj <- inception_5a/pool_proj
I1218 16:58:59.895356 22336 net.cpp:327] inception_5a/relu_pool_proj -> inception_5a/pool_proj (in-place)
I1218 16:58:59.895364 22336 net.cpp:113] Setting up inception_5a/relu_pool_proj
I1218 16:58:59.895431 22336 net.cpp:120] Top shape: 80 128 7 7 (501760)
I1218 16:58:59.895437 22336 layer_factory.hpp:74] Creating layer inception_5a/output
I1218 16:58:59.895445 22336 net.cpp:84] Creating Layer inception_5a/output
I1218 16:58:59.895449 22336 net.cpp:380] inception_5a/output <- inception_5a/1x1
I1218 16:58:59.895455 22336 net.cpp:380] inception_5a/output <- inception_5a/3x3
I1218 16:58:59.895460 22336 net.cpp:380] inception_5a/output <- inception_5a/5x5
I1218 16:58:59.895465 22336 net.cpp:380] inception_5a/output <- inception_5a/pool_proj
I1218 16:58:59.895470 22336 net.cpp:338] inception_5a/output -> inception_5a/output
I1218 16:58:59.895478 22336 net.cpp:113] Setting up inception_5a/output
I1218 16:58:59.895490 22336 net.cpp:120] Top shape: 80 832 7 7 (3261440)
I1218 16:58:59.895509 22336 layer_factory.hpp:74] Creating layer inception_5a/output_inception_5a/output_0_split
I1218 16:58:59.895515 22336 net.cpp:84] Creating Layer inception_5a/output_inception_5a/output_0_split
I1218 16:58:59.895519 22336 net.cpp:380] inception_5a/output_inception_5a/output_0_split <- inception_5a/output
I1218 16:58:59.895529 22336 net.cpp:338] inception_5a/output_inception_5a/output_0_split -> inception_5a/output_inception_5a/output_0_split_0
I1218 16:58:59.895537 22336 net.cpp:338] inception_5a/output_inception_5a/output_0_split -> inception_5a/output_inception_5a/output_0_split_1
I1218 16:58:59.895545 22336 net.cpp:338] inception_5a/output_inception_5a/output_0_split -> inception_5a/output_inception_5a/output_0_split_2
I1218 16:58:59.895550 22336 net.cpp:338] inception_5a/output_inception_5a/output_0_split -> inception_5a/output_inception_5a/output_0_split_3
I1218 16:58:59.895556 22336 net.cpp:113] Setting up inception_5a/output_inception_5a/output_0_split
I1218 16:58:59.895563 22336 net.cpp:120] Top shape: 80 832 7 7 (3261440)
I1218 16:58:59.895568 22336 net.cpp:120] Top shape: 80 832 7 7 (3261440)
I1218 16:58:59.895573 22336 net.cpp:120] Top shape: 80 832 7 7 (3261440)
I1218 16:58:59.895577 22336 net.cpp:120] Top shape: 80 832 7 7 (3261440)
I1218 16:58:59.895581 22336 layer_factory.hpp:74] Creating layer inception_5b/1x1
I1218 16:58:59.895596 22336 net.cpp:84] Creating Layer inception_5b/1x1
I1218 16:58:59.895599 22336 net.cpp:380] inception_5b/1x1 <- inception_5a/output_inception_5a/output_0_split_0
I1218 16:58:59.895606 22336 net.cpp:338] inception_5b/1x1 -> inception_5b/1x1
I1218 16:58:59.895613 22336 net.cpp:113] Setting up inception_5b/1x1
I1218 16:58:59.899461 22336 net.cpp:120] Top shape: 80 384 7 7 (1505280)
I1218 16:58:59.899477 22336 layer_factory.hpp:74] Creating layer inception_5b/relu_1x1
I1218 16:58:59.899484 22336 net.cpp:84] Creating Layer inception_5b/relu_1x1
I1218 16:58:59.899489 22336 net.cpp:380] inception_5b/relu_1x1 <- inception_5b/1x1
I1218 16:58:59.899495 22336 net.cpp:327] inception_5b/relu_1x1 -> inception_5b/1x1 (in-place)
I1218 16:58:59.899502 22336 net.cpp:113] Setting up inception_5b/relu_1x1
I1218 16:58:59.899744 22336 net.cpp:120] Top shape: 80 384 7 7 (1505280)
I1218 16:58:59.899755 22336 layer_factory.hpp:74] Creating layer inception_5b/3x3_reduce
I1218 16:58:59.899765 22336 net.cpp:84] Creating Layer inception_5b/3x3_reduce
I1218 16:58:59.899770 22336 net.cpp:380] inception_5b/3x3_reduce <- inception_5a/output_inception_5a/output_0_split_1
I1218 16:58:59.899778 22336 net.cpp:338] inception_5b/3x3_reduce -> inception_5b/3x3_reduce
I1218 16:58:59.899787 22336 net.cpp:113] Setting up inception_5b/3x3_reduce
I1218 16:58:59.905722 22336 net.cpp:120] Top shape: 80 192 7 7 (752640)
I1218 16:58:59.905738 22336 layer_factory.hpp:74] Creating layer inception_5b/relu_3x3_reduce
I1218 16:58:59.905752 22336 net.cpp:84] Creating Layer inception_5b/relu_3x3_reduce
I1218 16:58:59.905758 22336 net.cpp:380] inception_5b/relu_3x3_reduce <- inception_5b/3x3_reduce
I1218 16:58:59.905766 22336 net.cpp:327] inception_5b/relu_3x3_reduce -> inception_5b/3x3_reduce (in-place)
I1218 16:58:59.905774 22336 net.cpp:113] Setting up inception_5b/relu_3x3_reduce
I1218 16:58:59.905848 22336 net.cpp:120] Top shape: 80 192 7 7 (752640)
I1218 16:58:59.905855 22336 layer_factory.hpp:74] Creating layer inception_5b/3x3
I1218 16:58:59.905864 22336 net.cpp:84] Creating Layer inception_5b/3x3
I1218 16:58:59.905868 22336 net.cpp:380] inception_5b/3x3 <- inception_5b/3x3_reduce
I1218 16:58:59.905875 22336 net.cpp:338] inception_5b/3x3 -> inception_5b/3x3
I1218 16:58:59.905903 22336 net.cpp:113] Setting up inception_5b/3x3
I1218 16:58:59.920373 22336 net.cpp:120] Top shape: 80 384 7 7 (1505280)
I1218 16:58:59.920390 22336 layer_factory.hpp:74] Creating layer inception_5b/relu_3x3
I1218 16:58:59.920398 22336 net.cpp:84] Creating Layer inception_5b/relu_3x3
I1218 16:58:59.920403 22336 net.cpp:380] inception_5b/relu_3x3 <- inception_5b/3x3
I1218 16:58:59.920416 22336 net.cpp:327] inception_5b/relu_3x3 -> inception_5b/3x3 (in-place)
I1218 16:58:59.920431 22336 net.cpp:113] Setting up inception_5b/relu_3x3
I1218 16:58:59.920501 22336 net.cpp:120] Top shape: 80 384 7 7 (1505280)
I1218 16:58:59.920508 22336 layer_factory.hpp:74] Creating layer inception_5b/5x5_reduce
I1218 16:58:59.920522 22336 net.cpp:84] Creating Layer inception_5b/5x5_reduce
I1218 16:58:59.920527 22336 net.cpp:380] inception_5b/5x5_reduce <- inception_5a/output_inception_5a/output_0_split_2
I1218 16:58:59.920536 22336 net.cpp:338] inception_5b/5x5_reduce -> inception_5b/5x5_reduce
I1218 16:58:59.920544 22336 net.cpp:113] Setting up inception_5b/5x5_reduce
I1218 16:58:59.921396 22336 net.cpp:120] Top shape: 80 48 7 7 (188160)
I1218 16:58:59.921412 22336 layer_factory.hpp:74] Creating layer inception_5b/relu_5x5_reduce
I1218 16:58:59.921422 22336 net.cpp:84] Creating Layer inception_5b/relu_5x5_reduce
I1218 16:58:59.921427 22336 net.cpp:380] inception_5b/relu_5x5_reduce <- inception_5b/5x5_reduce
I1218 16:58:59.921433 22336 net.cpp:327] inception_5b/relu_5x5_reduce -> inception_5b/5x5_reduce (in-place)
I1218 16:58:59.921440 22336 net.cpp:113] Setting up inception_5b/relu_5x5_reduce
I1218 16:58:59.921509 22336 net.cpp:120] Top shape: 80 48 7 7 (188160)
I1218 16:58:59.921514 22336 layer_factory.hpp:74] Creating layer inception_5b/5x5
I1218 16:58:59.921525 22336 net.cpp:84] Creating Layer inception_5b/5x5
I1218 16:58:59.921528 22336 net.cpp:380] inception_5b/5x5 <- inception_5b/5x5_reduce
I1218 16:58:59.921536 22336 net.cpp:338] inception_5b/5x5 -> inception_5b/5x5
I1218 16:58:59.921545 22336 net.cpp:113] Setting up inception_5b/5x5
I1218 16:58:59.923609 22336 net.cpp:120] Top shape: 80 128 7 7 (501760)
I1218 16:58:59.923624 22336 layer_factory.hpp:74] Creating layer inception_5b/relu_5x5
I1218 16:58:59.923630 22336 net.cpp:84] Creating Layer inception_5b/relu_5x5
I1218 16:58:59.923635 22336 net.cpp:380] inception_5b/relu_5x5 <- inception_5b/5x5
I1218 16:58:59.923643 22336 net.cpp:327] inception_5b/relu_5x5 -> inception_5b/5x5 (in-place)
I1218 16:58:59.923650 22336 net.cpp:113] Setting up inception_5b/relu_5x5
I1218 16:58:59.927314 22336 net.cpp:120] Top shape: 80 128 7 7 (501760)
I1218 16:58:59.927325 22336 layer_factory.hpp:74] Creating layer inception_5b/pool
I1218 16:58:59.927338 22336 layer_factory.cpp:56] CUDNN does not support padding or multiple tops. Using Caffe's own pooling layer.
I1218 16:58:59.927346 22336 net.cpp:84] Creating Layer inception_5b/pool
I1218 16:58:59.927352 22336 net.cpp:380] inception_5b/pool <- inception_5a/output_inception_5a/output_0_split_3
I1218 16:58:59.927359 22336 net.cpp:338] inception_5b/pool -> inception_5b/pool
I1218 16:58:59.927368 22336 net.cpp:113] Setting up inception_5b/pool
I1218 16:58:59.927376 22336 net.cpp:120] Top shape: 80 832 7 7 (3261440)
I1218 16:58:59.927381 22336 layer_factory.hpp:74] Creating layer inception_5b/pool_proj
I1218 16:58:59.927391 22336 net.cpp:84] Creating Layer inception_5b/pool_proj
I1218 16:58:59.927395 22336 net.cpp:380] inception_5b/pool_proj <- inception_5b/pool
I1218 16:58:59.927402 22336 net.cpp:338] inception_5b/pool_proj -> inception_5b/pool_proj
I1218 16:58:59.927408 22336 net.cpp:113] Setting up inception_5b/pool_proj
I1218 16:58:59.928974 22336 net.cpp:120] Top shape: 80 128 7 7 (501760)
I1218 16:58:59.928988 22336 layer_factory.hpp:74] Creating layer inception_5b/relu_pool_proj
I1218 16:58:59.928995 22336 net.cpp:84] Creating Layer inception_5b/relu_pool_proj
I1218 16:58:59.929000 22336 net.cpp:380] inception_5b/relu_pool_proj <- inception_5b/pool_proj
I1218 16:58:59.929008 22336 net.cpp:327] inception_5b/relu_pool_proj -> inception_5b/pool_proj (in-place)
I1218 16:58:59.929014 22336 net.cpp:113] Setting up inception_5b/relu_pool_proj
I1218 16:58:59.929100 22336 net.cpp:120] Top shape: 80 128 7 7 (501760)
I1218 16:58:59.929110 22336 layer_factory.hpp:74] Creating layer inception_5b/output
I1218 16:58:59.929121 22336 net.cpp:84] Creating Layer inception_5b/output
I1218 16:58:59.929132 22336 net.cpp:380] inception_5b/output <- inception_5b/1x1
I1218 16:58:59.929146 22336 net.cpp:380] inception_5b/output <- inception_5b/3x3
I1218 16:58:59.929150 22336 net.cpp:380] inception_5b/output <- inception_5b/5x5
I1218 16:58:59.929155 22336 net.cpp:380] inception_5b/output <- inception_5b/pool_proj
I1218 16:58:59.929162 22336 net.cpp:338] inception_5b/output -> inception_5b/output
I1218 16:58:59.929168 22336 net.cpp:113] Setting up inception_5b/output
I1218 16:58:59.929177 22336 net.cpp:120] Top shape: 80 1024 7 7 (4014080)
I1218 16:58:59.929180 22336 layer_factory.hpp:74] Creating layer pool5/7x7_s1
I1218 16:58:59.929189 22336 net.cpp:84] Creating Layer pool5/7x7_s1
I1218 16:58:59.929193 22336 net.cpp:380] pool5/7x7_s1 <- inception_5b/output
I1218 16:58:59.929200 22336 net.cpp:338] pool5/7x7_s1 -> pool5/7x7_s1
I1218 16:58:59.929206 22336 net.cpp:113] Setting up pool5/7x7_s1
I1218 16:58:59.929278 22336 net.cpp:120] Top shape: 80 1024 1 1 (81920)
I1218 16:58:59.929286 22336 layer_factory.hpp:74] Creating layer pool5/drop_7x7_s1
I1218 16:58:59.929294 22336 net.cpp:84] Creating Layer pool5/drop_7x7_s1
I1218 16:58:59.929298 22336 net.cpp:380] pool5/drop_7x7_s1 <- pool5/7x7_s1
I1218 16:58:59.929304 22336 net.cpp:327] pool5/drop_7x7_s1 -> pool5/7x7_s1 (in-place)
I1218 16:58:59.929311 22336 net.cpp:113] Setting up pool5/drop_7x7_s1
I1218 16:58:59.929317 22336 net.cpp:120] Top shape: 80 1024 1 1 (81920)
I1218 16:58:59.929322 22336 layer_factory.hpp:74] Creating layer loss3/classifier_kaggle
I1218 16:58:59.929332 22336 net.cpp:84] Creating Layer loss3/classifier_kaggle
I1218 16:58:59.929335 22336 net.cpp:380] loss3/classifier_kaggle <- pool5/7x7_s1
I1218 16:58:59.929342 22336 net.cpp:338] loss3/classifier_kaggle -> loss3/classifier_kaggle
I1218 16:58:59.929349 22336 net.cpp:113] Setting up loss3/classifier_kaggle
I1218 16:58:59.934342 22336 net.cpp:120] Top shape: 80 447 (35760)
I1218 16:58:59.934355 22336 layer_factory.hpp:74] Creating layer loss3/loss3
I1218 16:58:59.934370 22336 net.cpp:84] Creating Layer loss3/loss3
I1218 16:58:59.934376 22336 net.cpp:380] loss3/loss3 <- loss3/classifier_kaggle
I1218 16:58:59.934381 22336 net.cpp:380] loss3/loss3 <- label_data_1_split_2
I1218 16:58:59.934387 22336 net.cpp:338] loss3/loss3 -> loss3/loss3
I1218 16:58:59.934396 22336 net.cpp:113] Setting up loss3/loss3
…
I1218 16:58:59.939620 22336 net.cpp:257] The NetState phase (1) differed from the phase (0) specified by a rule in layer data
I1218 16:58:59.940999 22336 net.cpp:42] Initializing net from parameters: 
name: "MYNET"
state {
  phase: TEST
}
layer {
  name: "data"
  type: "ImageData"
  top: "data"
  top: "label"
  include {
    phase: TEST
  }
  transform_param {
    mirror: false
    crop_size: 224
    mean_value: 129
    mean_value: 129
    mean_value: 129
  }
  image_data_param {
    source: "/home/coldmanck/kaggle/label_val_full.txt"
    batch_size: 50
    shuffle: true
  }
}
layer {
  name: "conv1/7x7_s2"
  type: "Convolution"
  bottom: "data"
  top: "conv1/7x7_s2"
  param {
    lr_mult: 1
    decay_mult: 1
  }
  param {
    lr_mult: 2
    decay_mult: 0
  }
  convolution_param {
    num_output: 64
    pad: 3
    kernel_size: 7
    stride: 2
    weight_filler {
      type: "xavier"
    }
    bias_filler {
      type: "constant"
      value: 0.2
    }
  }
}
layer {
  name: "conv1/relu_7x7"
  type: "ReLU"
  bottom: "conv1/7x7_s2"
  top: "conv1/7x7_s2"
}
layer {
  name: "pool1/3x3_s2"
  type: "Pooling"
  bottom: "conv1/7x7_s2"
  top: "pool1/3x3_s2"
  pooling_param {
    pool: MAX
    kernel_size: 3
    stride: 2
  }
}
layer {
  name: "pool1/norm1"
  type: "LRN"
  bottom: "pool1/3x3_s2"
  top: "pool1/norm1"
  lrn_param {
    local_size: 5
    alpha: 0.0001
    beta: 0.75
  }
}
layer {
  name: "conv2/3x3_reduce"
  type: "Convolution"
  bottom: "pool1/norm1"
  top: "conv2/3x3_reduce"
  param {
    lr_mult: 1
    decay_mult: 1
  }
  param {
    lr_mult: 2
    decay_mult: 0
  }
  convolution_param {
    num_output: 64
    kernel_size: 1
    weight_filler {
      type: "xavier"
    }
    bias_filler {
      type: "constant"
      value: 0.2
    }
  }
}
layer {
  name: "conv2/relu_3x3_reduce"
  type: "ReLU"
  bottom: "conv2/3x3_reduce"
  top: "conv2/3x3_reduce"
}
layer {
  name: "conv2/3x3"
  type: "Convolution"
  bottom: "conv2/3x3_reduce"
  top: "conv2/3x3"
  param {
    lr_mult: 1
    decay_mult: 1
  }
  param {
    lr_mult: 2
    decay_mult: 0
  }
  convolution_param {
    num_output: 192
    pad: 1
    kernel_size: 3
    weight_filler {
      type: "xavier"
    }
    bias_filler {
      type: "constant"
      value: 0.2
    }
  }
}
layer {
  name: "conv2/relu_3x3"
  type: "ReLU"
  bottom: "conv2/3x3"
  top: "conv2/3x3"
}
layer {
  name: "conv2/norm2"
  type: "LRN"
  bottom: "conv2/3x3"
  top: "conv2/norm2"
  lrn_param {
    local_size: 5
    alpha: 0.0001
    beta: 0.75
  }
}
layer {
  name: "pool2/3x3_s2"
  type: "Pooling"
  bottom: "conv2/norm2"
  top: "pool2/3x3_s2"
  pooling_param {
    pool: MAX
    kernel_size: 3
    stride: 2
  }
}
layer {
  name: "inception_3a/1x1"
  type: "Convolution"
  bottom: "pool2/3x3_s2"
  top: "inception_3a/1x1"
  param {
    lr_mult: 1
    decay_mult: 1
  }
  param {
    lr_mult: 2
    decay_mult: 0
  }
  convolution_param {
    num_output: 64
    kernel_size: 1
    weight_filler {
      type: "xavier"
    }
    bias_filler {
      type: "constant"
      value: 0.2
    }
  }
}
layer {
  name: "inception_3a/relu_1x1"
  type: "ReLU"
  bottom: "inception_3a/1x1"
  top: "inception_3a/1x1"
}
layer {
  name: "inception_3a/3x3_reduce"
  type: "Convolution"
  bottom: "pool2/3x3_s2"
  top: "inception_3a/3x3_reduce"
  param {
    lr_mult: 1
    decay_mult: 1
  }
  param {
    lr_mult: 2
    decay_mult: 0
  }
  convolution_param {
    num_output: 96
    kernel_size: 1
    weight_filler {
      type: "xavier"
    }
    bias_filler {
      type: "constant"
      value: 0.2
    }
  }
}
layer {
  name: "inception_3a/relu_3x3_reduce"
  type: "ReLU"
  bottom: "inception_3a/3x3_reduce"
  top: "inception_3a/3x3_reduce"
}
layer {
  name: "inception_3a/3x3"
  type: "Convolution"
  bottom: "inception_3a/3x3_reduce"
  top: "inception_3a/3x3"
  param {
    lr_mult: 1
    decay_mult: 1
  }
  param {
    lr_mult: 2
    decay_mult: 0
  }
  convolution_param {
    num_output: 128
    pad: 1
    kernel_size: 3
    weight_filler {
      type: "xavier"
    }
    bias_filler {
      type: "constant"
      value: 0.2
    }
  }
}
layer {
  name: "inception_3a/relu_3x3"
  type: "ReLU"
  bottom: "inception_3a/3x3"
  top: "inception_3a/3x3"
}
layer {
  name: "inception_3a/5x5_reduce"
  type: "Convolution"
  bottom: "pool2/3x3_s2"
  top: "inception_3a/5x5_reduce"
  param {
    lr_mult: 1
    decay_mult: 1
  }
  param {
    lr_mult: 2
    decay_mult: 0
  }
  convolution_param {
    num_output: 16
    kernel_size: 1
    weight_filler {
      type: "xavier"
    }
    bias_filler {
      type: "constant"
      value: 0.2
    }
  }
}
layer {
  name: "inception_3a/relu_5x5_reduce"
  type: "ReLU"
  bottom: "inception_3a/5x5_reduce"
  top: "inception_3a/5x5_reduce"
}
layer {
  name: "inception_3a/5x5"
  type: "Convolution"
  bottom: "inception_3a/5x5_reduce"
  top: "inception_3a/5x5"
  param {
    lr_mult: 1
    decay_mult: 1
  }
  param {
    lr_mult: 2
    decay_mult: 0
  }
  convolution_param {
    num_output: 32
    pad: 2
    kernel_size: 5
    weight_filler {
      type: "xavier"
    }
    bias_filler {
      type: "constant"
      value: 0.2
    }
  }
}
layer {
  name: "inception_3a/relu_5x5"
  type: "ReLU"
  bottom: "inception_3a/5x5"
  top: "inception_3a/5x5"
}
layer {
  name: "inception_3a/pool"
  type: "Pooling"
  bottom: "pool2/3x3_s2"
  top: "inception_3a/pool"
  pooling_param {
    pool: MAX
    kernel_size: 3
    stride: 1
    pad: 1
  }
}
layer {
  name: "inception_3a/pool_proj"
  type: "Convolution"
  bottom: "inception_3a/pool"
  top: "inception_3a/pool_proj"
  param {
    lr_mult: 1
    decay_mult: 1
  }
  param {
    lr_mult: 2
    decay_mult: 0
  }
  convolution_param {
    num_output: 32
    kernel_size: 1
    weight_filler {
      type: "xavier"
    }
    bias_filler {
      type: "constant"
      value: 0.2
    }
  }
}
layer {
  name: "inception_3a/relu_pool_proj"
  type: "ReLU"
  bottom: "inception_3a/pool_proj"
  top: "inception_3a/pool_proj"
}
layer {
  name: "inception_3a/output"
  type: "Concat"
  bottom: "inception_3a/1x1"
  bottom: "inception_3a/3x3"
  bottom: "inception_3a/5x5"
  bottom: "inception_3a/pool_proj"
  top: "inception_3a/output"
}
layer {
  name: "inception_3b/1x1"
  type: "Convolution"
  bottom: "inception_3a/output"
  top: "inception_3b/1x1"
  param {
    lr_mult: 1
    decay_mult: 1
  }
  param {
    lr_mult: 2
    decay_mult: 0
  }
  convolution_param {
    num_output: 128
    kernel_size: 1
    weight_filler {
      type: "xavier"
    }
    bias_filler {
      type: "constant"
      value: 0.2
    }
  }
}
layer {
  name: "inception_3b/relu_1x1"
  type: "ReLU"
  bottom: "inception_3b/1x1"
  top: "inception_3b/1x1"
}
layer {
  name: "inception_3b/3x3_reduce"
  type: "Convolution"
  bottom: "inception_3a/output"
  top: "inception_3b/3x3_reduce"
  param {
    lr_mult: 1
    decay_mult: 1
  }
  param {
    lr_mult: 2
    decay_mult: 0
  }
  convolution_param {
    num_output: 128
    kernel_size: 1
    weight_filler {
      type: "xavier"
    }
    bias_filler {
      type: "constant"
      value: 0.2
    }
  }
}
layer {
  name: "inception_3b/relu_3x3_reduce"
  type: "ReLU"
  bottom: "inception_3b/3x3_reduce"
  top: "inception_3b/3x3_reduce"
}
layer {
  name: "inception_3b/3x3"
  type: "Convolution"
  bottom: "inception_3b/3x3_reduce"
  top: "inception_3b/3x3"
  param {
    lr_mult: 1
    decay_mult: 1
  }
  param {
    lr_mult: 2
    decay_mult: 0
  }
  convolution_param {
    num_output: 192
    pad: 1
    kernel_size: 3
    weight_filler {
      type: "xavier"
    }
    bias_filler {
      type: "constant"
      value: 0.2
    }
  }
}
layer {
  name: "inception_3b/relu_3x3"
  type: "ReLU"
  bottom: "inception_3b/3x3"
  top: "inception_3b/3x3"
}
layer {
  name: "inception_3b/5x5_reduce"
  type: "Convolution"
  bottom: "inception_3a/output"
  top: "inception_3b/5x5_reduce"
  param {
    lr_mult: 1
    decay_mult: 1
  }
  param {
    lr_mult: 2
    decay_mult: 0
  }
  convolution_param {
    num_output: 32
    kernel_size: 1
    weight_filler {
      type: "xavier"
    }
    bias_filler {
      type: "constant"
      value: 0.2
    }
  }
}
layer {
  name: "inception_3b/relu_5x5_reduce"
  type: "ReLU"
  bottom: "inception_3b/5x5_reduce"
  top: "inception_3b/5x5_reduce"
}
layer {
  name: "inception_3b/5x5"
  type: "Convolution"
  bottom: "inception_3b/5x5_reduce"
  top: "inception_3b/5x5"
  param {
    lr_mult: 1
    decay_mult: 1
  }
  param {
    lr_mult: 2
    decay_mult: 0
  }
  convolution_param {
    num_output: 96
    pad: 2
    kernel_size: 5
    weight_filler {
      type: "xavier"
    }
    bias_filler {
      type: "constant"
      value: 0.2
    }
  }
}
layer {
  name: "inception_3b/relu_5x5"
  type: "ReLU"
  bottom: "inception_3b/5x5"
  top: "inception_3b/5x5"
}
layer {
  name: "inception_3b/pool"
  type: "Pooling"
  bottom: "inception_3a/output"
  top: "inception_3b/pool"
  pooling_param {
    pool: MAX
    kernel_size: 3
    stride: 1
    pad: 1
  }
}
layer {
  name: "inception_3b/pool_proj"
  type: "Convolution"
  bottom: "inception_3b/pool"
  top: "inception_3b/pool_proj"
  param {
    lr_mult: 1
    decay_mult: 1
  }
  param {
    lr_mult: 2
    decay_mult: 0
  }
  convolution_param {
    num_output: 64
    kernel_size: 1
    weight_filler {
      type: "xavier"
    }
    bias_filler {
      type: "constant"
      value: 0.2
    }
  }
}
layer {
  name: "inception_3b/relu_pool_proj"
  type: "ReLU"
  bottom: "inception_3b/pool_proj"
  top: "inception_3b/pool_proj"
}
layer {
  name: "inception_3b/output"
  type: "Concat"
  bottom: "inception_3b/1x1"
  bottom: "inception_3b/3x3"
  bottom: "inception_3b/5x5"
  bottom: "inception_3b/pool_proj"
  top: "inception_3b/output"
}
layer {
  name: "pool3/3x3_s2"
  type: "Pooling"
  bottom: "inception_3b/output"
  top: "pool3/3x3_s2"
  pooling_param {
    pool: MAX
    kernel_size: 3
    stride: 2
  }
}
layer {
  name: "inception_4a/1x1"
  type: "Convolution"
  bottom: "pool3/3x3_s2"
  top: "inception_4a/1x1"
  param {
    lr_mult: 1
    decay_mult: 1
  }
  param {
    lr_mult: 2
    decay_mult: 0
  }
  convolution_param {
    num_output: 192
    kernel_size: 1
    weight_filler {
      type: "xavier"
    }
    bias_filler {
      type: "constant"
      value: 0.2
    }
  }
}
layer {
  name: "inception_4a/relu_1x1"
  type: "ReLU"
  bottom: "inception_4a/1x1"
  top: "inception_4a/1x1"
}
layer {
  name: "inception_4a/3x3_reduce"
  type: "Convolution"
  bottom: "pool3/3x3_s2"
  top: "inception_4a/3x3_reduce"
  param {
    lr_mult: 1
    decay_mult: 1
  }
  param {
    lr_mult: 2
    decay_mult: 0
  }
  convolution_param {
    num_output: 96
    kernel_size: 1
    weight_filler {
      type: "xavier"
    }
    bias_filler {
      type: "constant"
      value: 0.2
    }
  }
}
layer {
  name: "inception_4a/relu_3x3_reduce"
  type: "ReLU"
  bottom: "inception_4a/3x3_reduce"
  top: "inception_4a/3x3_reduce"
}
layer {
  name: "inception_4a/3x3"
  type: "Convolution"
  bottom: "inception_4a/3x3_reduce"
  top: "inception_4a/3x3"
  param {
    lr_mult: 1
    decay_mult: 1
  }
  param {
    lr_mult: 2
    decay_mult: 0
  }
  convolution_param {
    num_output: 208
    pad: 1
    kernel_size: 3
    weight_filler {
      type: "xavier"
    }
    bias_filler {
      type: "constant"
      value: 0.2
    }
  }
}
layer {
  name: "inception_4a/relu_3x3"
  type: "ReLU"
  bottom: "inception_4a/3x3"
  top: "inception_4a/3x3"
}
layer {
  name: "inception_4a/5x5_reduce"
  type: "Convolution"
  bottom: "pool3/3x3_s2"
  top: "inception_4a/5x5_reduce"
  param {
    lr_mult: 1
    decay_mult: 1
  }
  param {
    lr_mult: 2
    decay_mult: 0
  }
  convolution_param {
    num_output: 16
    kernel_size: 1
    weight_filler {
      type: "xavier"
    }
    bias_filler {
      type: "constant"
      value: 0.2
    }
  }
}
layer {
  name: "inception_4a/relu_5x5_reduce"
  type: "ReLU"
  bottom: "inception_4a/5x5_reduce"
  top: "inception_4a/5x5_reduce"
}
layer {
  name: "inception_4a/5x5"
  type: "Convolution"
  bottom: "inception_4a/5x5_reduce"
  top: "inception_4a/5x5"
  param {
    lr_mult: 1
    decay_mult: 1
  }
  param {
    lr_mult: 2
    decay_mult: 0
  }
  convolution_param {
    num_output: 48
    pad: 2
    kernel_size: 5
    weight_filler {
      type: "xavier"
    }
    bias_filler {
      type: "constant"
      value: 0.2
    }
  }
}
layer {
  name: "inception_4a/relu_5x5"
  type: "ReLU"
  bottom: "inception_4a/5x5"
  top: "inception_4a/5x5"
}
layer {
  name: "inception_4a/pool"
  type: "Pooling"
  bottom: "pool3/3x3_s2"
  top: "inception_4a/pool"
  pooling_param {
    pool: MAX
    kernel_size: 3
    stride: 1
    pad: 1
  }
}
layer {
  name: "inception_4a/pool_proj"
  type: "Convolution"
  bottom: "inception_4a/pool"
  top: "inception_4a/pool_proj"
  param {
    lr_mult: 1
    decay_mult: 1
  }
  param {
    lr_mult: 2
    decay_mult: 0
  }
  convolution_param {
    num_output: 64
    kernel_size: 1
    weight_filler {
      type: "xavier"
    }
    bias_filler {
      type: "constant"
      value: 0.2
    }
  }
}
layer {
  name: "inception_4a/relu_pool_proj"
  type: "ReLU"
  bottom: "inception_4a/pool_proj"
  top: "inception_4a/pool_proj"
}
layer {
  name: "inception_4a/output"
  type: "Concat"
  bottom: "inception_4a/1x1"
  bottom: "inception_4a/3x3"
  bottom: "inception_4a/5x5"
  bottom: "inception_4a/pool_proj"
  top: "inception_4a/output"
}
layer {
  name: "loss1/ave_pool"
  type: "Pooling"
  bottom: "inception_4a/output"
  top: "loss1/ave_pool"
  pooling_param {
    pool: AVE
    kernel_size: 5
    stride: 3
  }
}
layer {
  name: "loss1/conv"
  type: "Convolution"
  bottom: "loss1/ave_pool"
  top: "loss1/conv"
  param {
    lr_mult: 1
    decay_mult: 1
  }
  param {
    lr_mult: 2
    decay_mult: 0
  }
  convolution_param {
    num_output: 128
    kernel_size: 1
    weight_filler {
      type: "xavier"
    }
    bias_filler {
      type: "constant"
      value: 0.2
    }
  }
}
layer {
  name: "loss1/relu_conv"
  type: "ReLU"
  bottom: "loss1/conv"
  top: "loss1/conv"
}
layer {
  name: "loss1/fc"
  type: "InnerProduct"
  bottom: "loss1/conv"
  top: "loss1/fc"
  param {
    lr_mult: 1
    decay_mult: 1
  }
  param {
    lr_mult: 2
    decay_mult: 0
  }
  inner_product_param {
    num_output: 1024
    weight_filler {
      type: "xavier"
    }
    bias_filler {
      type: "constant"
      value: 0.2
    }
  }
}
layer {
  name: "loss1/relu_fc"
  type: "ReLU"
  bottom: "loss1/fc"
  top: "loss1/fc"
}
layer {
  name: "loss1/drop_fc"
  type: "Dropout"
  bottom: "loss1/fc"
  top: "loss1/fc"
  dropout_param {
    dropout_ratio: 0.7
  }
}
layer {
  name: "loss1/classifier_kaggle"
  type: "InnerProduct"
  bottom: "loss1/fc"
  top: "loss1/classifier_kaggle"
  param {
    lr_mult: 1
    decay_mult: 1
  }
  param {
    lr_mult: 2
    decay_mult: 0
  }
  inner_product_param {
    num_output: 447
    weight_filler {
      type: "xavier"
    }
    bias_filler {
      type: "constant"
      value: 0
    }
  }
}
layer {
  name: "loss1/loss"
  type: "SoftmaxWithLoss"
  bottom: "loss1/classifier_kaggle"
  bottom: "label"
  top: "loss1/loss1"
  loss_weight: 0.3
}
layer {
  name: "loss1/top-1"
  type: "Accuracy"
  bottom: "loss1/classifier_kaggle"
  bottom: "label"
  top: "loss1/top-1"
  include {
    phase: TEST
  }
}
layer {
  name: "loss1/top-5"
  type: "Accuracy"
  bottom: "loss1/classifier_kaggle"
  bottom: "label"
  top: "loss1/top-5"
  include {
    phase: TEST
  }
  accuracy_param {
    top_k: 5
  }
}
layer {
  name: "inception_4b/1x1"
  type: "Convolution"
  bottom: "inception_4a/output"
  top: "inception_4b/1x1"
  param {
    lr_mult: 1
    decay_mult: 1
  }
  param {
    lr_mult: 2
    decay_mult: 0
  }
  convolution_param {
    num_output: 160
    kernel_size: 1
    weight_filler {
      type: "xavier"
    }
    bias_filler {
      type: "constant"
      value: 0.2
    }
  }
}
layer {
  name: "inception_4b/relu_1x1"
  type: "ReLU"
  bottom: "inception_4b/1x1"
  top: "inception_4b/1x1"
}
layer {
  name: "inception_4b/3x3_reduce"
  type: "Convolution"
  bottom: "inception_4a/output"
  top: "inception_4b/3x3_reduce"
  param {
    lr_mult: 1
    decay_mult: 1
  }
  param {
    lr_mult: 2
    decay_mult: 0
  }
  convolution_param {
    num_output: 112
    kernel_size: 1
    weight_filler {
      type: "xavier"
    }
    bias_filler {
      type: "constant"
      value: 0.2
    }
  }
}
layer {
  name: "inception_4b/relu_3x3_reduce"
  type: "ReLU"
  bottom: "inception_4b/3x3_reduce"
  top: "inception_4b/3x3_reduce"
}
layer {
  name: "inception_4b/3x3"
  type: "Convolution"
  bottom: "inception_4b/3x3_reduce"
  top: "inception_4b/3x3"
  param {
    lr_mult: 1
    decay_mult: 1
  }
  param {
    lr_mult: 2
    decay_mult: 0
  }
  convolution_param {
    num_output: 224
    pad: 1
    kernel_size: 3
    weight_filler {
      type: "xavier"
    }
    bias_filler {
      type: "constant"
      value: 0.2
    }
  }
}
layer {
  name: "inception_4b/relu_3x3"
  type: "ReLU"
  bottom: "inception_4b/3x3"
  top: "inception_4b/3x3"
}
layer {
  name: "inception_4b/5x5_reduce"
  type: "Convolution"
  bottom: "inception_4a/output"
  top: "inception_4b/5x5_reduce"
  param {
    lr_mult: 1
    decay_mult: 1
  }
  param {
    lr_mult: 2
    decay_mult: 0
  }
  convolution_param {
    num_output: 24
    kernel_size: 1
    weight_filler {
      type: "xavier"
    }
    bias_filler {
      type: "constant"
      value: 0.2
    }
  }
}
layer {
  name: "inception_4b/relu_5x5_reduce"
  type: "ReLU"
  bottom: "inception_4b/5x5_reduce"
  top: "inception_4b/5x5_reduce"
}
layer {
  name: "inception_4b/5x5"
  type: "Convolution"
  bottom: "inception_4b/5x5_reduce"
  top: "inception_4b/5x5"
  param {
    lr_mult: 1
    decay_mult: 1
  }
  param {
    lr_mult: 2
    decay_mult: 0
  }
  convolution_param {
    num_output: 64
    pad: 2
    kernel_size: 5
    weight_filler {
      type: "xavier"
    }
    bias_filler {
      type: "constant"
      value: 0.2
    }
  }
}
layer {
  name: "inception_4b/relu_5x5"
  type: "ReLU"
  bottom: "inception_4b/5x5"
  top: "inception_4b/5x5"
}
layer {
  name: "inception_4b/pool"
  type: "Pooling"
  bottom: "inception_4a/output"
  top: "inception_4b/pool"
  pooling_param {
    pool: MAX
    kernel_size: 3
    stride: 1
    pad: 1
  }
}
layer {
  name: "inception_4b/pool_proj"
  type: "Convolution"
  bottom: "inception_4b/pool"
  top: "inception_4b/pool_proj"
  param {
    lr_mult: 1
    decay_mult: 1
  }
  param {
    lr_mult: 2
    decay_mult: 0
  }
  convolution_param {
    num_output: 64
    kernel_size: 1
    weight_filler {
      type: "xavier"
    }
    bias_filler {
      type: "constant"
      value: 0.2
    }
  }
}
layer {
  name: "inception_4b/relu_pool_proj"
  type: "ReLU"
  bottom: "inception_4b/pool_proj"
  top: "inception_4b/pool_proj"
}
layer {
  name: "inception_4b/output"
  type: "Concat"
  bottom: "inception_4b/1x1"
  bottom: "inception_4b/3x3"
  bottom: "inception_4b/5x5"
  bottom: "inception_4b/pool_proj"
  top: "inception_4b/output"
}
layer {
  name: "inception_4c/1x1"
  type: "Convolution"
  bottom: "inception_4b/output"
  top: "inception_4c/1x1"
  param {
    lr_mult: 1
    decay_mult: 1
  }
  param {
    lr_mult: 2
    decay_mult: 0
  }
  convolution_param {
    num_output: 128
    kernel_size: 1
    weight_filler {
      type: "xavier"
    }
    bias_filler {
      type: "constant"
      value: 0.2
    }
  }
}
layer {
  name: "inception_4c/relu_1x1"
  type: "ReLU"
  bottom: "inception_4c/1x1"
  top: "inception_4c/1x1"
}
layer {
  name: "inception_4c/3x3_reduce"
  type: "Convolution"
  bottom: "inception_4b/output"
  top: "inception_4c/3x3_reduce"
  param {
    lr_mult: 1
    decay_mult: 1
  }
  param {
    lr_mult: 2
    decay_mult: 0
  }
  convolution_param {
    num_output: 128
    kernel_size: 1
    weight_filler {
      type: "xavier"
    }
    bias_filler {
      type: "constant"
      value: 0.2
    }
  }
}
layer {
  name: "inception_4c/relu_3x3_reduce"
  type: "ReLU"
  bottom: "inception_4c/3x3_reduce"
  top: "inception_4c/3x3_reduce"
}
layer {
  name: "inception_4c/3x3"
  type: "Convolution"
  bottom: "inception_4c/3x3_reduce"
  top: "inception_4c/3x3"
  param {
    lr_mult: 1
    decay_mult: 1
  }
  param {
    lr_mult: 2
    decay_mult: 0
  }
  convolution_param {
    num_output: 256
    pad: 1
    kernel_size: 3
    weight_filler {
      type: "xavier"
    }
    bias_filler {
      type: "constant"
      value: 0.2
    }
  }
}
layer {
  name: "inception_4c/relu_3x3"
  type: "ReLU"
  bottom: "inception_4c/3x3"
  top: "inception_4c/3x3"
}
layer {
  name: "inception_4c/5x5_reduce"
  type: "Convolution"
  bottom: "inception_4b/output"
  top: "inception_4c/5x5_reduce"
  param {
    lr_mult: 1
    decay_mult: 1
  }
  param {
    lr_mult: 2
    decay_mult: 0
  }
  convolution_param {
    num_output: 24
    kernel_size: 1
    weight_filler {
      type: "xavier"
    }
    bias_filler {
      type: "constant"
      value: 0.2
    }
  }
}
layer {
  name: "inception_4c/relu_5x5_reduce"
  type: "ReLU"
  bottom: "inception_4c/5x5_reduce"
  top: "inception_4c/5x5_reduce"
}
layer {
  name: "inception_4c/5x5"
  type: "Convolution"
  bottom: "inception_4c/5x5_reduce"
  top: "inception_4c/5x5"
  param {
    lr_mult: 1
    decay_mult: 1
  }
  param {
    lr_mult: 2
    decay_mult: 0
  }
  convolution_param {
    num_output: 64
    pad: 2
    kernel_size: 5
    weight_filler {
      type: "xavier"
    }
    bias_filler {
      type: "constant"
      value: 0.2
    }
  }
}
layer {
  name: "inception_4c/relu_5x5"
  type: "ReLU"
  bottom: "inception_4c/5x5"
  top: "inception_4c/5x5"
}
layer {
  name: "inception_4c/pool"
  type: "Pooling"
  bottom: "inception_4b/output"
  top: "inception_4c/pool"
  pooling_param {
    pool: MAX
    kernel_size: 3
    stride: 1
    pad: 1
  }
}
layer {
  name: "inception_4c/pool_proj"
  type: "Convolution"
  bottom: "inception_4c/pool"
  top: "inception_4c/pool_proj"
  param {
    lr_mult: 1
    decay_mult: 1
  }
  param {
    lr_mult: 2
    decay_mult: 0
  }
  convolution_param {
    num_output: 64
    kernel_size: 1
    weight_filler {
      type: "xavier"
    }
    bias_filler {
      type: "constant"
      value: 0.2
    }
  }
}
layer {
  name: "inception_4c/relu_pool_proj"
  type: "ReLU"
  bottom: "inception_4c/pool_proj"
  top: "inception_4c/pool_proj"
}
layer {
  name: "inception_4c/output"
  type: "Concat"
  bottom: "inception_4c/1x1"
  bottom: "inception_4c/3x3"
  bottom: "inception_4c/5x5"
  bottom: "inception_4c/pool_proj"
  top: "inception_4c/output"
}
layer {
  name: "inception_4d/1x1"
  type: "Convolution"
  bottom: "inception_4c/output"
  top: "inception_4d/1x1"
  param {
    lr_mult: 1
    decay_mult: 1
  }
  param {
    lr_mult: 2
    decay_mult: 0
  }
  convolution_param {
    num_output: 112
    kernel_size: 1
    weight_filler {
      type: "xavier"
    }
    bias_filler {
      type: "constant"
      value: 0.2
    }
  }
}
layer {
  name: "inception_4d/relu_1x1"
  type: "ReLU"
  bottom: "inception_4d/1x1"
  top: "inception_4d/1x1"
}
layer {
  name: "inception_4d/3x3_reduce"
  type: "Convolution"
  bottom: "inception_4c/output"
  top: "inception_4d/3x3_reduce"
  param {
    lr_mult: 1
    decay_mult: 1
  }
  param {
    lr_mult: 2
    decay_mult: 0
  }
  convolution_param {
    num_output: 144
    kernel_size: 1
    weight_filler {
      type: "xavier"
    }
    bias_filler {
      type: "constant"
      value: 0.2
    }
  }
}
layer {
  name: "inception_4d/relu_3x3_reduce"
  type: "ReLU"
  bottom: "inception_4d/3x3_reduce"
  top: "inception_4d/3x3_reduce"
}
layer {
  name: "inception_4d/3x3"
  type: "Convolution"
  bottom: "inception_4d/3x3_reduce"
  top: "inception_4d/3x3"
  param {
    lr_mult: 1
    decay_mult: 1
  }
  param {
    lr_mult: 2
    decay_mult: 0
  }
  convolution_param {
    num_output: 288
    pad: 1
    kernel_size: 3
    weight_filler {
      type: "xavier"
    }
    bias_filler {
      type: "constant"
      value: 0.2
    }
  }
}
layer {
  name: "inception_4d/relu_3x3"
  type: "ReLU"
  bottom: "inception_4d/3x3"
  top: "inception_4d/3x3"
}
layer {
  name: "inception_4d/5x5_reduce"
  type: "Convolution"
  bottom: "inception_4c/output"
  top: "inception_4d/5x5_reduce"
  param {
    lr_mult: 1
    decay_mult: 1
  }
  param {
    lr_mult: 2
    decay_mult: 0
  }
  convolution_param {
    num_output: 32
    kernel_size: 1
    weight_filler {
      type: "xavier"
    }
    bias_filler {
      type: "constant"
      value: 0.2
    }
  }
}
layer {
  name: "inception_4d/relu_5x5_reduce"
  type: "ReLU"
  bottom: "inception_4d/5x5_reduce"
  top: "inception_4d/5x5_reduce"
}
layer {
  name: "inception_4d/5x5"
  type: "Convolution"
  bottom: "inception_4d/5x5_reduce"
  top: "inception_4d/5x5"
  param {
    lr_mult: 1
    decay_mult: 1
  }
  param {
    lr_mult: 2
    decay_mult: 0
  }
  convolution_param {
    num_output: 64
    pad: 2
    kernel_size: 5
    weight_filler {
      type: "xavier"
    }
    bias_filler {
      type: "constant"
      value: 0.2
    }
  }
}
layer {
  name: "inception_4d/relu_5x5"
  type: "ReLU"
  bottom: "inception_4d/5x5"
  top: "inception_4d/5x5"
}
layer {
  name: "inception_4d/pool"
  type: "Pooling"
  bottom: "inception_4c/output"
  top: "inception_4d/pool"
  pooling_param {
    pool: MAX
    kernel_size: 3
    stride: 1
    pad: 1
  }
}
layer {
  name: "inception_4d/pool_proj"
  type: "Convolution"
  bottom: "inception_4d/pool"
  top: "inception_4d/pool_proj"
  param {
    lr_mult: 1
    decay_mult: 1
  }
  param {
    lr_mult: 2
    decay_mult: 0
  }
  convolution_param {
    num_output: 64
    kernel_size: 1
    weight_filler {
      type: "xavier"
    }
    bias_filler {
      type: "constant"
      value: 0.2
    }
  }
}
layer {
  name: "inception_4d/relu_pool_proj"
  type: "ReLU"
  bottom: "inception_4d/pool_proj"
  top: "inception_4d/pool_proj"
}
layer {
  name: "inception_4d/output"
  type: "Concat"
  bottom: "inception_4d/1x1"
  bottom: "inception_4d/3x3"
  bottom: "inception_4d/5x5"
  bottom: "inception_4d/pool_proj"
  top: "inception_4d/output"
}
layer {
  name: "loss2/ave_pool"
  type: "Pooling"
  bottom: "inception_4d/output"
  top: "loss2/ave_pool"
  pooling_param {
    pool: AVE
    kernel_size: 5
    stride: 3
  }
}
layer {
  name: "loss2/conv"
  type: "Convolution"
…
I1218 16:59:00.132365 22336 net.cpp:84] Creating Layer inception_4c/1x1
I1218 16:59:00.132370 22336 net.cpp:380] inception_4c/1x1 <- inception_4b/output_inception_4b/output_0_split_0
I1218 16:59:00.132378 22336 net.cpp:338] inception_4c/1x1 -> inception_4c/1x1
I1218 16:59:00.132385 22336 net.cpp:113] Setting up inception_4c/1x1
I1218 16:59:00.133524 22336 net.cpp:120] Top shape: 50 128 14 14 (1254400)
I1218 16:59:00.133540 22336 layer_factory.hpp:74] Creating layer inception_4c/relu_1x1
I1218 16:59:00.133549 22336 net.cpp:84] Creating Layer inception_4c/relu_1x1
I1218 16:59:00.133554 22336 net.cpp:380] inception_4c/relu_1x1 <- inception_4c/1x1
I1218 16:59:00.133561 22336 net.cpp:327] inception_4c/relu_1x1 -> inception_4c/1x1 (in-place)
I1218 16:59:00.133569 22336 net.cpp:113] Setting up inception_4c/relu_1x1
I1218 16:59:00.133816 22336 net.cpp:120] Top shape: 50 128 14 14 (1254400)
I1218 16:59:00.133834 22336 layer_factory.hpp:74] Creating layer inception_4c/3x3_reduce
I1218 16:59:00.133846 22336 net.cpp:84] Creating Layer inception_4c/3x3_reduce
I1218 16:59:00.133852 22336 net.cpp:380] inception_4c/3x3_reduce <- inception_4b/output_inception_4b/output_0_split_1
I1218 16:59:00.133858 22336 net.cpp:338] inception_4c/3x3_reduce -> inception_4c/3x3_reduce
I1218 16:59:00.133867 22336 net.cpp:113] Setting up inception_4c/3x3_reduce
I1218 16:59:00.135000 22336 net.cpp:120] Top shape: 50 128 14 14 (1254400)
I1218 16:59:00.135015 22336 layer_factory.hpp:74] Creating layer inception_4c/relu_3x3_reduce
I1218 16:59:00.135025 22336 net.cpp:84] Creating Layer inception_4c/relu_3x3_reduce
I1218 16:59:00.135030 22336 net.cpp:380] inception_4c/relu_3x3_reduce <- inception_4c/3x3_reduce
I1218 16:59:00.135035 22336 net.cpp:327] inception_4c/relu_3x3_reduce -> inception_4c/3x3_reduce (in-place)
I1218 16:59:00.135043 22336 net.cpp:113] Setting up inception_4c/relu_3x3_reduce
I1218 16:59:00.135113 22336 net.cpp:120] Top shape: 50 128 14 14 (1254400)
I1218 16:59:00.135121 22336 layer_factory.hpp:74] Creating layer inception_4c/3x3
I1218 16:59:00.135130 22336 net.cpp:84] Creating Layer inception_4c/3x3
I1218 16:59:00.135135 22336 net.cpp:380] inception_4c/3x3 <- inception_4c/3x3_reduce
I1218 16:59:00.135141 22336 net.cpp:338] inception_4c/3x3 -> inception_4c/3x3
I1218 16:59:00.135149 22336 net.cpp:113] Setting up inception_4c/3x3
I1218 16:59:00.138780 22336 net.cpp:120] Top shape: 50 256 14 14 (2508800)
I1218 16:59:00.138808 22336 layer_factory.hpp:74] Creating layer inception_4c/relu_3x3
I1218 16:59:00.138816 22336 net.cpp:84] Creating Layer inception_4c/relu_3x3
I1218 16:59:00.138821 22336 net.cpp:380] inception_4c/relu_3x3 <- inception_4c/3x3
I1218 16:59:00.138828 22336 net.cpp:327] inception_4c/relu_3x3 -> inception_4c/3x3 (in-place)
I1218 16:59:00.138835 22336 net.cpp:113] Setting up inception_4c/relu_3x3
I1218 16:59:00.138912 22336 net.cpp:120] Top shape: 50 256 14 14 (2508800)
I1218 16:59:00.138918 22336 layer_factory.hpp:74] Creating layer inception_4c/5x5_reduce
I1218 16:59:00.138928 22336 net.cpp:84] Creating Layer inception_4c/5x5_reduce
I1218 16:59:00.138933 22336 net.cpp:380] inception_4c/5x5_reduce <- inception_4b/output_inception_4b/output_0_split_2
I1218 16:59:00.138942 22336 net.cpp:338] inception_4c/5x5_reduce -> inception_4c/5x5_reduce
I1218 16:59:00.138949 22336 net.cpp:113] Setting up inception_4c/5x5_reduce
I1218 16:59:00.139489 22336 net.cpp:120] Top shape: 50 24 14 14 (235200)
I1218 16:59:00.139504 22336 layer_factory.hpp:74] Creating layer inception_4c/relu_5x5_reduce
I1218 16:59:00.139511 22336 net.cpp:84] Creating Layer inception_4c/relu_5x5_reduce
I1218 16:59:00.139516 22336 net.cpp:380] inception_4c/relu_5x5_reduce <- inception_4c/5x5_reduce
I1218 16:59:00.139524 22336 net.cpp:327] inception_4c/relu_5x5_reduce -> inception_4c/5x5_reduce (in-place)
I1218 16:59:00.139533 22336 net.cpp:113] Setting up inception_4c/relu_5x5_reduce
I1218 16:59:00.139781 22336 net.cpp:120] Top shape: 50 24 14 14 (235200)
I1218 16:59:00.139799 22336 layer_factory.hpp:74] Creating layer inception_4c/5x5
I1218 16:59:00.139809 22336 net.cpp:84] Creating Layer inception_4c/5x5
I1218 16:59:00.139816 22336 net.cpp:380] inception_4c/5x5 <- inception_4c/5x5_reduce
I1218 16:59:00.139822 22336 net.cpp:338] inception_4c/5x5 -> inception_4c/5x5
I1218 16:59:00.139830 22336 net.cpp:113] Setting up inception_4c/5x5
I1218 16:59:00.140667 22336 net.cpp:120] Top shape: 50 64 14 14 (627200)
I1218 16:59:00.140682 22336 layer_factory.hpp:74] Creating layer inception_4c/relu_5x5
I1218 16:59:00.140689 22336 net.cpp:84] Creating Layer inception_4c/relu_5x5
I1218 16:59:00.140696 22336 net.cpp:380] inception_4c/relu_5x5 <- inception_4c/5x5
I1218 16:59:00.140702 22336 net.cpp:327] inception_4c/relu_5x5 -> inception_4c/5x5 (in-place)
I1218 16:59:00.140708 22336 net.cpp:113] Setting up inception_4c/relu_5x5
I1218 16:59:00.140779 22336 net.cpp:120] Top shape: 50 64 14 14 (627200)
I1218 16:59:00.140790 22336 layer_factory.hpp:74] Creating layer inception_4c/pool
I1218 16:59:00.140804 22336 layer_factory.cpp:56] CUDNN does not support padding or multiple tops. Using Caffe's own pooling layer.
I1218 16:59:00.140810 22336 net.cpp:84] Creating Layer inception_4c/pool
I1218 16:59:00.140815 22336 net.cpp:380] inception_4c/pool <- inception_4b/output_inception_4b/output_0_split_3
I1218 16:59:00.140822 22336 net.cpp:338] inception_4c/pool -> inception_4c/pool
I1218 16:59:00.140830 22336 net.cpp:113] Setting up inception_4c/pool
I1218 16:59:00.140837 22336 net.cpp:120] Top shape: 50 512 14 14 (5017600)
I1218 16:59:00.140841 22336 layer_factory.hpp:74] Creating layer inception_4c/pool_proj
I1218 16:59:00.140851 22336 net.cpp:84] Creating Layer inception_4c/pool_proj
I1218 16:59:00.140856 22336 net.cpp:380] inception_4c/pool_proj <- inception_4c/pool
I1218 16:59:00.140862 22336 net.cpp:338] inception_4c/pool_proj -> inception_4c/pool_proj
I1218 16:59:00.140872 22336 net.cpp:113] Setting up inception_4c/pool_proj
I1218 16:59:00.141681 22336 net.cpp:120] Top shape: 50 64 14 14 (627200)
I1218 16:59:00.141697 22336 layer_factory.hpp:74] Creating layer inception_4c/relu_pool_proj
I1218 16:59:00.141705 22336 net.cpp:84] Creating Layer inception_4c/relu_pool_proj
I1218 16:59:00.141710 22336 net.cpp:380] inception_4c/relu_pool_proj <- inception_4c/pool_proj
I1218 16:59:00.141717 22336 net.cpp:327] inception_4c/relu_pool_proj -> inception_4c/pool_proj (in-place)
I1218 16:59:00.141726 22336 net.cpp:113] Setting up inception_4c/relu_pool_proj
I1218 16:59:00.141798 22336 net.cpp:120] Top shape: 50 64 14 14 (627200)
I1218 16:59:00.141804 22336 layer_factory.hpp:74] Creating layer inception_4c/output
I1218 16:59:00.141810 22336 net.cpp:84] Creating Layer inception_4c/output
I1218 16:59:00.141815 22336 net.cpp:380] inception_4c/output <- inception_4c/1x1
I1218 16:59:00.141821 22336 net.cpp:380] inception_4c/output <- inception_4c/3x3
I1218 16:59:00.141826 22336 net.cpp:380] inception_4c/output <- inception_4c/5x5
I1218 16:59:00.141830 22336 net.cpp:380] inception_4c/output <- inception_4c/pool_proj
I1218 16:59:00.141839 22336 net.cpp:338] inception_4c/output -> inception_4c/output
I1218 16:59:00.141845 22336 net.cpp:113] Setting up inception_4c/output
I1218 16:59:00.141852 22336 net.cpp:120] Top shape: 50 512 14 14 (5017600)
I1218 16:59:00.141856 22336 layer_factory.hpp:74] Creating layer inception_4c/output_inception_4c/output_0_split
I1218 16:59:00.141862 22336 net.cpp:84] Creating Layer inception_4c/output_inception_4c/output_0_split
I1218 16:59:00.141866 22336 net.cpp:380] inception_4c/output_inception_4c/output_0_split <- inception_4c/output
I1218 16:59:00.141875 22336 net.cpp:338] inception_4c/output_inception_4c/output_0_split -> inception_4c/output_inception_4c/output_0_split_0
I1218 16:59:00.141881 22336 net.cpp:338] inception_4c/output_inception_4c/output_0_split -> inception_4c/output_inception_4c/output_0_split_1
I1218 16:59:00.141888 22336 net.cpp:338] inception_4c/output_inception_4c/output_0_split -> inception_4c/output_inception_4c/output_0_split_2
I1218 16:59:00.141896 22336 net.cpp:338] inception_4c/output_inception_4c/output_0_split -> inception_4c/output_inception_4c/output_0_split_3
I1218 16:59:00.141901 22336 net.cpp:113] Setting up inception_4c/output_inception_4c/output_0_split
I1218 16:59:00.141907 22336 net.cpp:120] Top shape: 50 512 14 14 (5017600)
I1218 16:59:00.141912 22336 net.cpp:120] Top shape: 50 512 14 14 (5017600)
I1218 16:59:00.141917 22336 net.cpp:120] Top shape: 50 512 14 14 (5017600)
I1218 16:59:00.141921 22336 net.cpp:120] Top shape: 50 512 14 14 (5017600)
I1218 16:59:00.141927 22336 layer_factory.hpp:74] Creating layer inception_4d/1x1
I1218 16:59:00.141934 22336 net.cpp:84] Creating Layer inception_4d/1x1
I1218 16:59:00.141939 22336 net.cpp:380] inception_4d/1x1 <- inception_4c/output_inception_4c/output_0_split_0
I1218 16:59:00.141945 22336 net.cpp:338] inception_4d/1x1 -> inception_4d/1x1
I1218 16:59:00.141952 22336 net.cpp:113] Setting up inception_4d/1x1
I1218 16:59:00.143041 22336 net.cpp:120] Top shape: 50 112 14 14 (1097600)
I1218 16:59:00.143066 22336 layer_factory.hpp:74] Creating layer inception_4d/relu_1x1
I1218 16:59:00.143074 22336 net.cpp:84] Creating Layer inception_4d/relu_1x1
I1218 16:59:00.143079 22336 net.cpp:380] inception_4d/relu_1x1 <- inception_4d/1x1
I1218 16:59:00.143087 22336 net.cpp:327] inception_4d/relu_1x1 -> inception_4d/1x1 (in-place)
I1218 16:59:00.143095 22336 net.cpp:113] Setting up inception_4d/relu_1x1
I1218 16:59:00.143172 22336 net.cpp:120] Top shape: 50 112 14 14 (1097600)
I1218 16:59:00.143179 22336 layer_factory.hpp:74] Creating layer inception_4d/3x3_reduce
I1218 16:59:00.143188 22336 net.cpp:84] Creating Layer inception_4d/3x3_reduce
I1218 16:59:00.143193 22336 net.cpp:380] inception_4d/3x3_reduce <- inception_4c/output_inception_4c/output_0_split_1
I1218 16:59:00.143203 22336 net.cpp:338] inception_4d/3x3_reduce -> inception_4d/3x3_reduce
I1218 16:59:00.143210 22336 net.cpp:113] Setting up inception_4d/3x3_reduce
I1218 16:59:00.144421 22336 net.cpp:120] Top shape: 50 144 14 14 (1411200)
I1218 16:59:00.144436 22336 layer_factory.hpp:74] Creating layer inception_4d/relu_3x3_reduce
I1218 16:59:00.144445 22336 net.cpp:84] Creating Layer inception_4d/relu_3x3_reduce
I1218 16:59:00.144451 22336 net.cpp:380] inception_4d/relu_3x3_reduce <- inception_4d/3x3_reduce
I1218 16:59:00.144459 22336 net.cpp:327] inception_4d/relu_3x3_reduce -> inception_4d/3x3_reduce (in-place)
I1218 16:59:00.144466 22336 net.cpp:113] Setting up inception_4d/relu_3x3_reduce
I1218 16:59:00.144714 22336 net.cpp:120] Top shape: 50 144 14 14 (1411200)
I1218 16:59:00.144726 22336 layer_factory.hpp:74] Creating layer inception_4d/3x3
I1218 16:59:00.144736 22336 net.cpp:84] Creating Layer inception_4d/3x3
I1218 16:59:00.144740 22336 net.cpp:380] inception_4d/3x3 <- inception_4d/3x3_reduce
I1218 16:59:00.144749 22336 net.cpp:338] inception_4d/3x3 -> inception_4d/3x3
I1218 16:59:00.144757 22336 net.cpp:113] Setting up inception_4d/3x3
I1218 16:59:00.149278 22336 net.cpp:120] Top shape: 50 288 14 14 (2822400)
I1218 16:59:00.149296 22336 layer_factory.hpp:74] Creating layer inception_4d/relu_3x3
I1218 16:59:00.149302 22336 net.cpp:84] Creating Layer inception_4d/relu_3x3
I1218 16:59:00.149308 22336 net.cpp:380] inception_4d/relu_3x3 <- inception_4d/3x3
I1218 16:59:00.149314 22336 net.cpp:327] inception_4d/relu_3x3 -> inception_4d/3x3 (in-place)
I1218 16:59:00.149322 22336 net.cpp:113] Setting up inception_4d/relu_3x3
I1218 16:59:00.149394 22336 net.cpp:120] Top shape: 50 288 14 14 (2822400)
I1218 16:59:00.149400 22336 layer_factory.hpp:74] Creating layer inception_4d/5x5_reduce
I1218 16:59:00.149408 22336 net.cpp:84] Creating Layer inception_4d/5x5_reduce
I1218 16:59:00.149413 22336 net.cpp:380] inception_4d/5x5_reduce <- inception_4c/output_inception_4c/output_0_split_2
I1218 16:59:00.149421 22336 net.cpp:338] inception_4d/5x5_reduce -> inception_4d/5x5_reduce
I1218 16:59:00.149430 22336 net.cpp:113] Setting up inception_4d/5x5_reduce
I1218 16:59:00.150068 22336 net.cpp:120] Top shape: 50 32 14 14 (313600)
I1218 16:59:00.150082 22336 layer_factory.hpp:74] Creating layer inception_4d/relu_5x5_reduce
I1218 16:59:00.150089 22336 net.cpp:84] Creating Layer inception_4d/relu_5x5_reduce
I1218 16:59:00.150094 22336 net.cpp:380] inception_4d/relu_5x5_reduce <- inception_4d/5x5_reduce
I1218 16:59:00.150101 22336 net.cpp:327] inception_4d/relu_5x5_reduce -> inception_4d/5x5_reduce (in-place)
I1218 16:59:00.150109 22336 net.cpp:113] Setting up inception_4d/relu_5x5_reduce
I1218 16:59:00.150179 22336 net.cpp:120] Top shape: 50 32 14 14 (313600)
I1218 16:59:00.150185 22336 layer_factory.hpp:74] Creating layer inception_4d/5x5
I1218 16:59:00.150195 22336 net.cpp:84] Creating Layer inception_4d/5x5
I1218 16:59:00.150200 22336 net.cpp:380] inception_4d/5x5 <- inception_4d/5x5_reduce
I1218 16:59:00.150207 22336 net.cpp:338] inception_4d/5x5 -> inception_4d/5x5
I1218 16:59:00.150214 22336 net.cpp:113] Setting up inception_4d/5x5
I1218 16:59:00.151177 22336 net.cpp:120] Top shape: 50 64 14 14 (627200)
I1218 16:59:00.151196 22336 layer_factory.hpp:74] Creating layer inception_4d/relu_5x5
I1218 16:59:00.151213 22336 net.cpp:84] Creating Layer inception_4d/relu_5x5
I1218 16:59:00.151218 22336 net.cpp:380] inception_4d/relu_5x5 <- inception_4d/5x5
I1218 16:59:00.151226 22336 net.cpp:327] inception_4d/relu_5x5 -> inception_4d/5x5 (in-place)
I1218 16:59:00.151232 22336 net.cpp:113] Setting up inception_4d/relu_5x5
I1218 16:59:00.151305 22336 net.cpp:120] Top shape: 50 64 14 14 (627200)
I1218 16:59:00.151311 22336 layer_factory.hpp:74] Creating layer inception_4d/pool
I1218 16:59:00.151316 22336 layer_factory.cpp:56] CUDNN does not support padding or multiple tops. Using Caffe's own pooling layer.
I1218 16:59:00.151324 22336 net.cpp:84] Creating Layer inception_4d/pool
I1218 16:59:00.151329 22336 net.cpp:380] inception_4d/pool <- inception_4c/output_inception_4c/output_0_split_3
I1218 16:59:00.151335 22336 net.cpp:338] inception_4d/pool -> inception_4d/pool
I1218 16:59:00.151342 22336 net.cpp:113] Setting up inception_4d/pool
I1218 16:59:00.151350 22336 net.cpp:120] Top shape: 50 512 14 14 (5017600)
I1218 16:59:00.151355 22336 layer_factory.hpp:74] Creating layer inception_4d/pool_proj
I1218 16:59:00.151363 22336 net.cpp:84] Creating Layer inception_4d/pool_proj
I1218 16:59:00.151368 22336 net.cpp:380] inception_4d/pool_proj <- inception_4d/pool
I1218 16:59:00.151374 22336 net.cpp:338] inception_4d/pool_proj -> inception_4d/pool_proj
I1218 16:59:00.151381 22336 net.cpp:113] Setting up inception_4d/pool_proj
I1218 16:59:00.152153 22336 net.cpp:120] Top shape: 50 64 14 14 (627200)
I1218 16:59:00.152168 22336 layer_factory.hpp:74] Creating layer inception_4d/relu_pool_proj
I1218 16:59:00.152174 22336 net.cpp:84] Creating Layer inception_4d/relu_pool_proj
I1218 16:59:00.152179 22336 net.cpp:380] inception_4d/relu_pool_proj <- inception_4d/pool_proj
I1218 16:59:00.152186 22336 net.cpp:327] inception_4d/relu_pool_proj -> inception_4d/pool_proj (in-place)
I1218 16:59:00.152194 22336 net.cpp:113] Setting up inception_4d/relu_pool_proj
I1218 16:59:00.152439 22336 net.cpp:120] Top shape: 50 64 14 14 (627200)
I1218 16:59:00.152451 22336 layer_factory.hpp:74] Creating layer inception_4d/output
I1218 16:59:00.152459 22336 net.cpp:84] Creating Layer inception_4d/output
I1218 16:59:00.152464 22336 net.cpp:380] inception_4d/output <- inception_4d/1x1
I1218 16:59:00.152470 22336 net.cpp:380] inception_4d/output <- inception_4d/3x3
I1218 16:59:00.152477 22336 net.cpp:380] inception_4d/output <- inception_4d/5x5
I1218 16:59:00.152480 22336 net.cpp:380] inception_4d/output <- inception_4d/pool_proj
I1218 16:59:00.152487 22336 net.cpp:338] inception_4d/output -> inception_4d/output
I1218 16:59:00.152494 22336 net.cpp:113] Setting up inception_4d/output
I1218 16:59:00.152501 22336 net.cpp:120] Top shape: 50 528 14 14 (5174400)
I1218 16:59:00.152505 22336 layer_factory.hpp:74] Creating layer inception_4d/output_inception_4d/output_0_split
I1218 16:59:00.152513 22336 net.cpp:84] Creating Layer inception_4d/output_inception_4d/output_0_split
I1218 16:59:00.152518 22336 net.cpp:380] inception_4d/output_inception_4d/output_0_split <- inception_4d/output
I1218 16:59:00.152524 22336 net.cpp:338] inception_4d/output_inception_4d/output_0_split -> inception_4d/output_inception_4d/output_0_split_0
I1218 16:59:00.152531 22336 net.cpp:338] inception_4d/output_inception_4d/output_0_split -> inception_4d/output_inception_4d/output_0_split_1
I1218 16:59:00.152539 22336 net.cpp:338] inception_4d/output_inception_4d/output_0_split -> inception_4d/output_inception_4d/output_0_split_2
I1218 16:59:00.152544 22336 net.cpp:338] inception_4d/output_inception_4d/output_0_split -> inception_4d/output_inception_4d/output_0_split_3
I1218 16:59:00.152551 22336 net.cpp:338] inception_4d/output_inception_4d/output_0_split -> inception_4d/output_inception_4d/output_0_split_4
I1218 16:59:00.152557 22336 net.cpp:113] Setting up inception_4d/output_inception_4d/output_0_split
I1218 16:59:00.152565 22336 net.cpp:120] Top shape: 50 528 14 14 (5174400)
I1218 16:59:00.152576 22336 net.cpp:120] Top shape: 50 528 14 14 (5174400)
I1218 16:59:00.152586 22336 net.cpp:120] Top shape: 50 528 14 14 (5174400)
I1218 16:59:00.152591 22336 net.cpp:120] Top shape: 50 528 14 14 (5174400)
I1218 16:59:00.152596 22336 net.cpp:120] Top shape: 50 528 14 14 (5174400)
I1218 16:59:00.152601 22336 layer_factory.hpp:74] Creating layer loss2/ave_pool
I1218 16:59:00.152607 22336 net.cpp:84] Creating Layer loss2/ave_pool
I1218 16:59:00.152611 22336 net.cpp:380] loss2/ave_pool <- inception_4d/output_inception_4d/output_0_split_0
I1218 16:59:00.152619 22336 net.cpp:338] loss2/ave_pool -> loss2/ave_pool
I1218 16:59:00.152626 22336 net.cpp:113] Setting up loss2/ave_pool
I1218 16:59:00.152704 22336 net.cpp:120] Top shape: 50 528 4 4 (422400)
I1218 16:59:00.152710 22336 layer_factory.hpp:74] Creating layer loss2/conv
I1218 16:59:00.152719 22336 net.cpp:84] Creating Layer loss2/conv
I1218 16:59:00.152724 22336 net.cpp:380] loss2/conv <- loss2/ave_pool
I1218 16:59:00.152732 22336 net.cpp:338] loss2/conv -> loss2/conv
I1218 16:59:00.152740 22336 net.cpp:113] Setting up loss2/conv
I1218 16:59:00.153897 22336 net.cpp:120] Top shape: 50 128 4 4 (102400)
I1218 16:59:00.153913 22336 layer_factory.hpp:74] Creating layer loss2/relu_conv
I1218 16:59:00.153921 22336 net.cpp:84] Creating Layer loss2/relu_conv
I1218 16:59:00.153928 22336 net.cpp:380] loss2/relu_conv <- loss2/conv
I1218 16:59:00.153934 22336 net.cpp:327] loss2/relu_conv -> loss2/conv (in-place)
I1218 16:59:00.153941 22336 net.cpp:113] Setting up loss2/relu_conv
I1218 16:59:00.154009 22336 net.cpp:120] Top shape: 50 128 4 4 (102400)
I1218 16:59:00.154016 22336 layer_factory.hpp:74] Creating layer loss2/fc
I1218 16:59:00.154028 22336 net.cpp:84] Creating Layer loss2/fc
I1218 16:59:00.154033 22336 net.cpp:380] loss2/fc <- loss2/conv
I1218 16:59:00.154042 22336 net.cpp:338] loss2/fc -> loss2/fc
I1218 16:59:00.154049 22336 net.cpp:113] Setting up loss2/fc
I1218 16:59:00.197801 22336 net.cpp:120] Top shape: 50 1024 (51200)
I1218 16:59:00.197834 22336 layer_factory.hpp:74] Creating layer loss2/relu_fc
I1218 16:59:00.197845 22336 net.cpp:84] Creating Layer loss2/relu_fc
I1218 16:59:00.197854 22336 net.cpp:380] loss2/relu_fc <- loss2/fc
I1218 16:59:00.197865 22336 net.cpp:327] loss2/relu_fc -> loss2/fc (in-place)
I1218 16:59:00.197875 22336 net.cpp:113] Setting up loss2/relu_fc
I1218 16:59:00.197990 22336 net.cpp:120] Top shape: 50 1024 (51200)
I1218 16:59:00.197998 22336 layer_factory.hpp:74] Creating layer loss2/drop_fc
I1218 16:59:00.198005 22336 net.cpp:84] Creating Layer loss2/drop_fc
I1218 16:59:00.198009 22336 net.cpp:380] loss2/drop_fc <- loss2/fc
I1218 16:59:00.198015 22336 net.cpp:327] loss2/drop_fc -> loss2/fc (in-place)
I1218 16:59:00.198021 22336 net.cpp:113] Setting up loss2/drop_fc
I1218 16:59:00.198029 22336 net.cpp:120] Top shape: 50 1024 (51200)
I1218 16:59:00.198035 22336 layer_factory.hpp:74] Creating layer loss2/classifier_kaggle
I1218 16:59:00.198043 22336 net.cpp:84] Creating Layer loss2/classifier_kaggle
I1218 16:59:00.198048 22336 net.cpp:380] loss2/classifier_kaggle <- loss2/fc
I1218 16:59:00.198056 22336 net.cpp:338] loss2/classifier_kaggle -> loss2/classifier_kaggle
I1218 16:59:00.198066 22336 net.cpp:113] Setting up loss2/classifier_kaggle
I1218 16:59:00.203052 22336 net.cpp:120] Top shape: 50 447 (22350)
I1218 16:59:00.203065 22336 layer_factory.hpp:74] Creating layer loss2/classifier_kaggle_loss2/classifier_kaggle_0_split
I1218 16:59:00.203075 22336 net.cpp:84] Creating Layer loss2/classifier_kaggle_loss2/classifier_kaggle_0_split
I1218 16:59:00.203081 22336 net.cpp:380] loss2/classifier_kaggle_loss2/classifier_kaggle_0_split <- loss2/classifier_kaggle
I1218 16:59:00.203088 22336 net.cpp:338] loss2/classifier_kaggle_loss2/classifier_kaggle_0_split -> loss2/classifier_kaggle_loss2/classifier_kaggle_0_split_0
I1218 16:59:00.203095 22336 net.cpp:338] loss2/classifier_kaggle_loss2/classifier_kaggle_0_split -> loss2/classifier_kaggle_loss2/classifier_kaggle_0_split_1
I1218 16:59:00.203102 22336 net.cpp:338] loss2/classifier_kaggle_loss2/classifier_kaggle_0_split -> loss2/classifier_kaggle_loss2/classifier_kaggle_0_split_2
I1218 16:59:00.203130 22336 net.cpp:113] Setting up loss2/classifier_kaggle_loss2/classifier_kaggle_0_split
I1218 16:59:00.203138 22336 net.cpp:120] Top shape: 50 447 (22350)
I1218 16:59:00.203143 22336 net.cpp:120] Top shape: 50 447 (22350)
I1218 16:59:00.203148 22336 net.cpp:120] Top shape: 50 447 (22350)
I1218 16:59:00.203152 22336 layer_factory.hpp:74] Creating layer loss2/loss
I1218 16:59:00.203158 22336 net.cpp:84] Creating Layer loss2/loss
I1218 16:59:00.203163 22336 net.cpp:380] loss2/loss <- loss2/classifier_kaggle_loss2/classifier_kaggle_0_split_0
I1218 16:59:00.203169 22336 net.cpp:380] loss2/loss <- label_data_1_split_3
I1218 16:59:00.203176 22336 net.cpp:338] loss2/loss -> loss2/loss1
…
I1218 16:59:00.207463 22336 net.cpp:338] loss2/top-5 -> loss2/top-5
I1218 16:59:00.207470 22336 net.cpp:113] Setting up loss2/top-5
I1218 16:59:00.207475 22336 net.cpp:120] Top shape: (1)
I1218 16:59:00.207479 22336 layer_factory.hpp:74] Creating layer inception_4e/1x1
I1218 16:59:00.207489 22336 net.cpp:84] Creating Layer inception_4e/1x1
I1218 16:59:00.207494 22336 net.cpp:380] inception_4e/1x1 <- inception_4d/output_inception_4d/output_0_split_1
I1218 16:59:00.207502 22336 net.cpp:338] inception_4e/1x1 -> inception_4e/1x1
I1218 16:59:00.207509 22336 net.cpp:113] Setting up inception_4e/1x1
I1218 16:59:00.214154 22336 net.cpp:120] Top shape: 50 256 14 14 (2508800)
I1218 16:59:00.214175 22336 layer_factory.hpp:74] Creating layer inception_4e/relu_1x1
I1218 16:59:00.214184 22336 net.cpp:84] Creating Layer inception_4e/relu_1x1
I1218 16:59:00.214190 22336 net.cpp:380] inception_4e/relu_1x1 <- inception_4e/1x1
I1218 16:59:00.214196 22336 net.cpp:327] inception_4e/relu_1x1 -> inception_4e/1x1 (in-place)
I1218 16:59:00.214205 22336 net.cpp:113] Setting up inception_4e/relu_1x1
I1218 16:59:00.214278 22336 net.cpp:120] Top shape: 50 256 14 14 (2508800)
I1218 16:59:00.214287 22336 layer_factory.hpp:74] Creating layer inception_4e/3x3_reduce
I1218 16:59:00.214316 22336 net.cpp:84] Creating Layer inception_4e/3x3_reduce
I1218 16:59:00.214323 22336 net.cpp:380] inception_4e/3x3_reduce <- inception_4d/output_inception_4d/output_0_split_2
I1218 16:59:00.214330 22336 net.cpp:338] inception_4e/3x3_reduce -> inception_4e/3x3_reduce
I1218 16:59:00.214339 22336 net.cpp:113] Setting up inception_4e/3x3_reduce
I1218 16:59:00.215680 22336 net.cpp:120] Top shape: 50 160 14 14 (1568000)
I1218 16:59:00.215697 22336 layer_factory.hpp:74] Creating layer inception_4e/relu_3x3_reduce
I1218 16:59:00.215706 22336 net.cpp:84] Creating Layer inception_4e/relu_3x3_reduce
I1218 16:59:00.215711 22336 net.cpp:380] inception_4e/relu_3x3_reduce <- inception_4e/3x3_reduce
I1218 16:59:00.215718 22336 net.cpp:327] inception_4e/relu_3x3_reduce -> inception_4e/3x3_reduce (in-place)
I1218 16:59:00.215725 22336 net.cpp:113] Setting up inception_4e/relu_3x3_reduce
I1218 16:59:00.215797 22336 net.cpp:120] Top shape: 50 160 14 14 (1568000)
I1218 16:59:00.215818 22336 layer_factory.hpp:74] Creating layer inception_4e/3x3
I1218 16:59:00.215827 22336 net.cpp:84] Creating Layer inception_4e/3x3
I1218 16:59:00.215831 22336 net.cpp:380] inception_4e/3x3 <- inception_4e/3x3_reduce
I1218 16:59:00.215840 22336 net.cpp:338] inception_4e/3x3 -> inception_4e/3x3
I1218 16:59:00.215848 22336 net.cpp:113] Setting up inception_4e/3x3
I1218 16:59:00.221349 22336 net.cpp:120] Top shape: 50 320 14 14 (3136000)
I1218 16:59:00.221366 22336 layer_factory.hpp:74] Creating layer inception_4e/relu_3x3
I1218 16:59:00.221374 22336 net.cpp:84] Creating Layer inception_4e/relu_3x3
I1218 16:59:00.221379 22336 net.cpp:380] inception_4e/relu_3x3 <- inception_4e/3x3
I1218 16:59:00.221386 22336 net.cpp:327] inception_4e/relu_3x3 -> inception_4e/3x3 (in-place)
I1218 16:59:00.221395 22336 net.cpp:113] Setting up inception_4e/relu_3x3
I1218 16:59:00.221637 22336 net.cpp:120] Top shape: 50 320 14 14 (3136000)
I1218 16:59:00.221648 22336 layer_factory.hpp:74] Creating layer inception_4e/5x5_reduce
I1218 16:59:00.221657 22336 net.cpp:84] Creating Layer inception_4e/5x5_reduce
I1218 16:59:00.221662 22336 net.cpp:380] inception_4e/5x5_reduce <- inception_4d/output_inception_4d/output_0_split_3
I1218 16:59:00.221669 22336 net.cpp:338] inception_4e/5x5_reduce -> inception_4e/5x5_reduce
I1218 16:59:00.221678 22336 net.cpp:113] Setting up inception_4e/5x5_reduce
I1218 16:59:00.222259 22336 net.cpp:120] Top shape: 50 32 14 14 (313600)
I1218 16:59:00.222273 22336 layer_factory.hpp:74] Creating layer inception_4e/relu_5x5_reduce
I1218 16:59:00.222280 22336 net.cpp:84] Creating Layer inception_4e/relu_5x5_reduce
I1218 16:59:00.222286 22336 net.cpp:380] inception_4e/relu_5x5_reduce <- inception_4e/5x5_reduce
I1218 16:59:00.222292 22336 net.cpp:327] inception_4e/relu_5x5_reduce -> inception_4e/5x5_reduce (in-place)
I1218 16:59:00.222300 22336 net.cpp:113] Setting up inception_4e/relu_5x5_reduce
I1218 16:59:00.222370 22336 net.cpp:120] Top shape: 50 32 14 14 (313600)
I1218 16:59:00.222378 22336 layer_factory.hpp:74] Creating layer inception_4e/5x5
I1218 16:59:00.222386 22336 net.cpp:84] Creating Layer inception_4e/5x5
I1218 16:59:00.222391 22336 net.cpp:380] inception_4e/5x5 <- inception_4e/5x5_reduce
I1218 16:59:00.222398 22336 net.cpp:338] inception_4e/5x5 -> inception_4e/5x5
I1218 16:59:00.222405 22336 net.cpp:113] Setting up inception_4e/5x5
I1218 16:59:00.223933 22336 net.cpp:120] Top shape: 50 128 14 14 (1254400)
I1218 16:59:00.223948 22336 layer_factory.hpp:74] Creating layer inception_4e/relu_5x5
I1218 16:59:00.223958 22336 net.cpp:84] Creating Layer inception_4e/relu_5x5
I1218 16:59:00.223963 22336 net.cpp:380] inception_4e/relu_5x5 <- inception_4e/5x5
I1218 16:59:00.223969 22336 net.cpp:327] inception_4e/relu_5x5 -> inception_4e/5x5 (in-place)
I1218 16:59:00.223976 22336 net.cpp:113] Setting up inception_4e/relu_5x5
I1218 16:59:00.224046 22336 net.cpp:120] Top shape: 50 128 14 14 (1254400)
I1218 16:59:00.224053 22336 layer_factory.hpp:74] Creating layer inception_4e/pool
I1218 16:59:00.224059 22336 layer_factory.cpp:56] CUDNN does not support padding or multiple tops. Using Caffe's own pooling layer.
I1218 16:59:00.224064 22336 net.cpp:84] Creating Layer inception_4e/pool
I1218 16:59:00.224069 22336 net.cpp:380] inception_4e/pool <- inception_4d/output_inception_4d/output_0_split_4
I1218 16:59:00.224076 22336 net.cpp:338] inception_4e/pool -> inception_4e/pool
I1218 16:59:00.224083 22336 net.cpp:113] Setting up inception_4e/pool
I1218 16:59:00.224092 22336 net.cpp:120] Top shape: 50 528 14 14 (5174400)
I1218 16:59:00.224097 22336 layer_factory.hpp:74] Creating layer inception_4e/pool_proj
I1218 16:59:00.224105 22336 net.cpp:84] Creating Layer inception_4e/pool_proj
I1218 16:59:00.224110 22336 net.cpp:380] inception_4e/pool_proj <- inception_4e/pool
I1218 16:59:00.224118 22336 net.cpp:338] inception_4e/pool_proj -> inception_4e/pool_proj
I1218 16:59:00.224125 22336 net.cpp:113] Setting up inception_4e/pool_proj
I1218 16:59:00.225286 22336 net.cpp:120] Top shape: 50 128 14 14 (1254400)
I1218 16:59:00.225307 22336 layer_factory.hpp:74] Creating layer inception_4e/relu_pool_proj
I1218 16:59:00.225323 22336 net.cpp:84] Creating Layer inception_4e/relu_pool_proj
I1218 16:59:00.225328 22336 net.cpp:380] inception_4e/relu_pool_proj <- inception_4e/pool_proj
I1218 16:59:00.225335 22336 net.cpp:327] inception_4e/relu_pool_proj -> inception_4e/pool_proj (in-place)
I1218 16:59:00.225342 22336 net.cpp:113] Setting up inception_4e/relu_pool_proj
I1218 16:59:00.225419 22336 net.cpp:120] Top shape: 50 128 14 14 (1254400)
I1218 16:59:00.225425 22336 layer_factory.hpp:74] Creating layer inception_4e/output
I1218 16:59:00.225435 22336 net.cpp:84] Creating Layer inception_4e/output
I1218 16:59:00.225440 22336 net.cpp:380] inception_4e/output <- inception_4e/1x1
I1218 16:59:00.225445 22336 net.cpp:380] inception_4e/output <- inception_4e/3x3
I1218 16:59:00.225450 22336 net.cpp:380] inception_4e/output <- inception_4e/5x5
I1218 16:59:00.225455 22336 net.cpp:380] inception_4e/output <- inception_4e/pool_proj
I1218 16:59:00.225461 22336 net.cpp:338] inception_4e/output -> inception_4e/output
I1218 16:59:00.225468 22336 net.cpp:113] Setting up inception_4e/output
I1218 16:59:00.225476 22336 net.cpp:120] Top shape: 50 832 14 14 (8153600)
I1218 16:59:00.225481 22336 layer_factory.hpp:74] Creating layer pool4/3x3_s2
I1218 16:59:00.225488 22336 net.cpp:84] Creating Layer pool4/3x3_s2
I1218 16:59:00.225493 22336 net.cpp:380] pool4/3x3_s2 <- inception_4e/output
I1218 16:59:00.225499 22336 net.cpp:338] pool4/3x3_s2 -> pool4/3x3_s2
I1218 16:59:00.225507 22336 net.cpp:113] Setting up pool4/3x3_s2
I1218 16:59:00.225757 22336 net.cpp:120] Top shape: 50 832 7 7 (2038400)
I1218 16:59:00.225769 22336 layer_factory.hpp:74] Creating layer pool4/3x3_s2_pool4/3x3_s2_0_split
I1218 16:59:00.225776 22336 net.cpp:84] Creating Layer pool4/3x3_s2_pool4/3x3_s2_0_split
I1218 16:59:00.225780 22336 net.cpp:380] pool4/3x3_s2_pool4/3x3_s2_0_split <- pool4/3x3_s2
I1218 16:59:00.225787 22336 net.cpp:338] pool4/3x3_s2_pool4/3x3_s2_0_split -> pool4/3x3_s2_pool4/3x3_s2_0_split_0
I1218 16:59:00.225795 22336 net.cpp:338] pool4/3x3_s2_pool4/3x3_s2_0_split -> pool4/3x3_s2_pool4/3x3_s2_0_split_1
I1218 16:59:00.225802 22336 net.cpp:338] pool4/3x3_s2_pool4/3x3_s2_0_split -> pool4/3x3_s2_pool4/3x3_s2_0_split_2
I1218 16:59:00.225828 22336 net.cpp:338] pool4/3x3_s2_pool4/3x3_s2_0_split -> pool4/3x3_s2_pool4/3x3_s2_0_split_3
I1218 16:59:00.225836 22336 net.cpp:113] Setting up pool4/3x3_s2_pool4/3x3_s2_0_split
I1218 16:59:00.225842 22336 net.cpp:120] Top shape: 50 832 7 7 (2038400)
I1218 16:59:00.225847 22336 net.cpp:120] Top shape: 50 832 7 7 (2038400)
I1218 16:59:00.225854 22336 net.cpp:120] Top shape: 50 832 7 7 (2038400)
I1218 16:59:00.225859 22336 net.cpp:120] Top shape: 50 832 7 7 (2038400)
I1218 16:59:00.225864 22336 layer_factory.hpp:74] Creating layer inception_5a/1x1
I1218 16:59:00.225872 22336 net.cpp:84] Creating Layer inception_5a/1x1
I1218 16:59:00.225877 22336 net.cpp:380] inception_5a/1x1 <- pool4/3x3_s2_pool4/3x3_s2_0_split_0
I1218 16:59:00.225883 22336 net.cpp:338] inception_5a/1x1 -> inception_5a/1x1
I1218 16:59:00.225890 22336 net.cpp:113] Setting up inception_5a/1x1
I1218 16:59:00.236690 22336 net.cpp:120] Top shape: 50 256 7 7 (627200)
I1218 16:59:00.236711 22336 layer_factory.hpp:74] Creating layer inception_5a/relu_1x1
I1218 16:59:00.236721 22336 net.cpp:84] Creating Layer inception_5a/relu_1x1
I1218 16:59:00.236726 22336 net.cpp:380] inception_5a/relu_1x1 <- inception_5a/1x1
I1218 16:59:00.236733 22336 net.cpp:327] inception_5a/relu_1x1 -> inception_5a/1x1 (in-place)
I1218 16:59:00.236743 22336 net.cpp:113] Setting up inception_5a/relu_1x1
I1218 16:59:00.236816 22336 net.cpp:120] Top shape: 50 256 7 7 (627200)
I1218 16:59:00.236825 22336 layer_factory.hpp:74] Creating layer inception_5a/3x3_reduce
I1218 16:59:00.236834 22336 net.cpp:84] Creating Layer inception_5a/3x3_reduce
I1218 16:59:00.236840 22336 net.cpp:380] inception_5a/3x3_reduce <- pool4/3x3_s2_pool4/3x3_s2_0_split_1
I1218 16:59:00.236847 22336 net.cpp:338] inception_5a/3x3_reduce -> inception_5a/3x3_reduce
I1218 16:59:00.236870 22336 net.cpp:113] Setting up inception_5a/3x3_reduce
I1218 16:59:00.238745 22336 net.cpp:120] Top shape: 50 160 7 7 (392000)
I1218 16:59:00.238762 22336 layer_factory.hpp:74] Creating layer inception_5a/relu_3x3_reduce
I1218 16:59:00.238771 22336 net.cpp:84] Creating Layer inception_5a/relu_3x3_reduce
I1218 16:59:00.238777 22336 net.cpp:380] inception_5a/relu_3x3_reduce <- inception_5a/3x3_reduce
I1218 16:59:00.238785 22336 net.cpp:327] inception_5a/relu_3x3_reduce -> inception_5a/3x3_reduce (in-place)
I1218 16:59:00.238792 22336 net.cpp:113] Setting up inception_5a/relu_3x3_reduce
I1218 16:59:00.238868 22336 net.cpp:120] Top shape: 50 160 7 7 (392000)
I1218 16:59:00.238875 22336 layer_factory.hpp:74] Creating layer inception_5a/3x3
I1218 16:59:00.238884 22336 net.cpp:84] Creating Layer inception_5a/3x3
I1218 16:59:00.238889 22336 net.cpp:380] inception_5a/3x3 <- inception_5a/3x3_reduce
I1218 16:59:00.238896 22336 net.cpp:338] inception_5a/3x3 -> inception_5a/3x3
I1218 16:59:00.238904 22336 net.cpp:113] Setting up inception_5a/3x3
I1218 16:59:00.244287 22336 net.cpp:120] Top shape: 50 320 7 7 (784000)
I1218 16:59:00.244303 22336 layer_factory.hpp:74] Creating layer inception_5a/relu_3x3
I1218 16:59:00.244310 22336 net.cpp:84] Creating Layer inception_5a/relu_3x3
I1218 16:59:00.244316 22336 net.cpp:380] inception_5a/relu_3x3 <- inception_5a/3x3
I1218 16:59:00.244324 22336 net.cpp:327] inception_5a/relu_3x3 -> inception_5a/3x3 (in-place)
I1218 16:59:00.244331 22336 net.cpp:113] Setting up inception_5a/relu_3x3
I1218 16:59:00.244407 22336 net.cpp:120] Top shape: 50 320 7 7 (784000)
I1218 16:59:00.244415 22336 layer_factory.hpp:74] Creating layer inception_5a/5x5_reduce
I1218 16:59:00.244423 22336 net.cpp:84] Creating Layer inception_5a/5x5_reduce
I1218 16:59:00.244429 22336 net.cpp:380] inception_5a/5x5_reduce <- pool4/3x3_s2_pool4/3x3_s2_0_split_2
I1218 16:59:00.244437 22336 net.cpp:338] inception_5a/5x5_reduce -> inception_5a/5x5_reduce
I1218 16:59:00.244446 22336 net.cpp:113] Setting up inception_5a/5x5_reduce
I1218 16:59:00.245172 22336 net.cpp:120] Top shape: 50 32 7 7 (78400)
I1218 16:59:00.245188 22336 layer_factory.hpp:74] Creating layer inception_5a/relu_5x5_reduce
I1218 16:59:00.245195 22336 net.cpp:84] Creating Layer inception_5a/relu_5x5_reduce
I1218 16:59:00.245200 22336 net.cpp:380] inception_5a/relu_5x5_reduce <- inception_5a/5x5_reduce
I1218 16:59:00.245208 22336 net.cpp:327] inception_5a/relu_5x5_reduce -> inception_5a/5x5_reduce (in-place)
I1218 16:59:00.245214 22336 net.cpp:113] Setting up inception_5a/relu_5x5_reduce
I1218 16:59:00.245512 22336 net.cpp:120] Top shape: 50 32 7 7 (78400)
I1218 16:59:00.245523 22336 layer_factory.hpp:74] Creating layer inception_5a/5x5
I1218 16:59:00.245533 22336 net.cpp:84] Creating Layer inception_5a/5x5
I1218 16:59:00.245538 22336 net.cpp:380] inception_5a/5x5 <- inception_5a/5x5_reduce
I1218 16:59:00.245548 22336 net.cpp:338] inception_5a/5x5 -> inception_5a/5x5
I1218 16:59:00.245558 22336 net.cpp:113] Setting up inception_5a/5x5
I1218 16:59:00.247095 22336 net.cpp:120] Top shape: 50 128 7 7 (313600)
I1218 16:59:00.247112 22336 layer_factory.hpp:74] Creating layer inception_5a/relu_5x5
I1218 16:59:00.247119 22336 net.cpp:84] Creating Layer inception_5a/relu_5x5
I1218 16:59:00.247125 22336 net.cpp:380] inception_5a/relu_5x5 <- inception_5a/5x5
I1218 16:59:00.247131 22336 net.cpp:327] inception_5a/relu_5x5 -> inception_5a/5x5 (in-place)
I1218 16:59:00.247139 22336 net.cpp:113] Setting up inception_5a/relu_5x5
I1218 16:59:00.247211 22336 net.cpp:120] Top shape: 50 128 7 7 (313600)
I1218 16:59:00.247217 22336 layer_factory.hpp:74] Creating layer inception_5a/pool
I1218 16:59:00.247223 22336 layer_factory.cpp:56] CUDNN does not support padding or multiple tops. Using Caffe's own pooling layer.
I1218 16:59:00.247230 22336 net.cpp:84] Creating Layer inception_5a/pool
I1218 16:59:00.247234 22336 net.cpp:380] inception_5a/pool <- pool4/3x3_s2_pool4/3x3_s2_0_split_3
I1218 16:59:00.247241 22336 net.cpp:338] inception_5a/pool -> inception_5a/pool
I1218 16:59:00.247254 22336 net.cpp:113] Setting up inception_5a/pool
I1218 16:59:00.247272 22336 net.cpp:120] Top shape: 50 832 7 7 (2038400)
I1218 16:59:00.247275 22336 layer_factory.hpp:74] Creating layer inception_5a/pool_proj
I1218 16:59:00.247285 22336 net.cpp:84] Creating Layer inception_5a/pool_proj
I1218 16:59:00.247290 22336 net.cpp:380] inception_5a/pool_proj <- inception_5a/pool
I1218 16:59:00.247299 22336 net.cpp:338] inception_5a/pool_proj -> inception_5a/pool_proj
I1218 16:59:00.247306 22336 net.cpp:113] Setting up inception_5a/pool_proj
I1218 16:59:00.248878 22336 net.cpp:120] Top shape: 50 128 7 7 (313600)
I1218 16:59:00.248893 22336 layer_factory.hpp:74] Creating layer inception_5a/relu_pool_proj
I1218 16:59:00.248909 22336 net.cpp:84] Creating Layer inception_5a/relu_pool_proj
I1218 16:59:00.248915 22336 net.cpp:380] inception_5a/relu_pool_proj <- inception_5a/pool_proj
I1218 16:59:00.248921 22336 net.cpp:327] inception_5a/relu_pool_proj -> inception_5a/pool_proj (in-place)
I1218 16:59:00.248929 22336 net.cpp:113] Setting up inception_5a/relu_pool_proj
I1218 16:59:00.248998 22336 net.cpp:120] Top shape: 50 128 7 7 (313600)
I1218 16:59:00.249004 22336 layer_factory.hpp:74] Creating layer inception_5a/output
I1218 16:59:00.249013 22336 net.cpp:84] Creating Layer inception_5a/output
I1218 16:59:00.249017 22336 net.cpp:380] inception_5a/output <- inception_5a/1x1
I1218 16:59:00.249024 22336 net.cpp:380] inception_5a/output <- inception_5a/3x3
I1218 16:59:00.249030 22336 net.cpp:380] inception_5a/output <- inception_5a/5x5
I1218 16:59:00.249034 22336 net.cpp:380] inception_5a/output <- inception_5a/pool_proj
I1218 16:59:00.249040 22336 net.cpp:338] inception_5a/output -> inception_5a/output
I1218 16:59:00.249047 22336 net.cpp:113] Setting up inception_5a/output
I1218 16:59:00.249071 22336 net.cpp:120] Top shape: 50 832 7 7 (2038400)
I1218 16:59:00.249078 22336 layer_factory.hpp:74] Creating layer inception_5a/output_inception_5a/output_0_split
I1218 16:59:00.249085 22336 net.cpp:84] Creating Layer inception_5a/output_inception_5a/output_0_split
I1218 16:59:00.249092 22336 net.cpp:380] inception_5a/output_inception_5a/output_0_split <- inception_5a/output
I1218 16:59:00.249099 22336 net.cpp:338] inception_5a/output_inception_5a/output_0_split -> inception_5a/output_inception_5a/output_0_split_0
I1218 16:59:00.249106 22336 net.cpp:338] inception_5a/output_inception_5a/output_0_split -> inception_5a/output_inception_5a/output_0_split_1
I1218 16:59:00.249114 22336 net.cpp:338] inception_5a/output_inception_5a/output_0_split -> inception_5a/output_inception_5a/output_0_split_2
I1218 16:59:00.249119 22336 net.cpp:338] inception_5a/output_inception_5a/output_0_split -> inception_5a/output_inception_5a/output_0_split_3
I1218 16:59:00.249125 22336 net.cpp:113] Setting up inception_5a/output_inception_5a/output_0_split
I1218 16:59:00.249132 22336 net.cpp:120] Top shape: 50 832 7 7 (2038400)
I1218 16:59:00.249137 22336 net.cpp:120] Top shape: 50 832 7 7 (2038400)
I1218 16:59:00.249142 22336 net.cpp:120] Top shape: 50 832 7 7 (2038400)
I1218 16:59:00.249146 22336 net.cpp:120] Top shape: 50 832 7 7 (2038400)
I1218 16:59:00.249150 22336 layer_factory.hpp:74] Creating layer inception_5b/1x1
I1218 16:59:00.249160 22336 net.cpp:84] Creating Layer inception_5b/1x1
I1218 16:59:00.249164 22336 net.cpp:380] inception_5b/1x1 <- inception_5a/output_inception_5a/output_0_split_0
I1218 16:59:00.249172 22336 net.cpp:338] inception_5b/1x1 -> inception_5b/1x1
I1218 16:59:00.249179 22336 net.cpp:113] Setting up inception_5b/1x1
I1218 16:59:00.253092 22336 net.cpp:120] Top shape: 50 384 7 7 (940800)
I1218 16:59:00.253108 22336 layer_factory.hpp:74] Creating layer inception_5b/relu_1x1
I1218 16:59:00.253116 22336 net.cpp:84] Creating Layer inception_5b/relu_1x1
I1218 16:59:00.253123 22336 net.cpp:380] inception_5b/relu_1x1 <- inception_5b/1x1
I1218 16:59:00.253129 22336 net.cpp:327] inception_5b/relu_1x1 -> inception_5b/1x1 (in-place)
I1218 16:59:00.253136 22336 net.cpp:113] Setting up inception_5b/relu_1x1
I1218 16:59:00.253216 22336 net.cpp:120] Top shape: 50 384 7 7 (940800)
I1218 16:59:00.253231 22336 layer_factory.hpp:74] Creating layer inception_5b/3x3_reduce
I1218 16:59:00.253242 22336 net.cpp:84] Creating Layer inception_5b/3x3_reduce
I1218 16:59:00.253247 22336 net.cpp:380] inception_5b/3x3_reduce <- inception_5a/output_inception_5a/output_0_split_1
I1218 16:59:00.253253 22336 net.cpp:338] inception_5b/3x3_reduce -> inception_5b/3x3_reduce
I1218 16:59:00.253263 22336 net.cpp:113] Setting up inception_5b/3x3_reduce
I1218 16:59:00.255422 22336 net.cpp:120] Top shape: 50 192 7 7 (470400)
I1218 16:59:00.255439 22336 layer_factory.hpp:74] Creating layer inception_5b/relu_3x3_reduce
I1218 16:59:00.255447 22336 net.cpp:84] Creating Layer inception_5b/relu_3x3_reduce
I1218 16:59:00.255452 22336 net.cpp:380] inception_5b/relu_3x3_reduce <- inception_5b/3x3_reduce
I1218 16:59:00.255460 22336 net.cpp:327] inception_5b/relu_3x3_reduce -> inception_5b/3x3_reduce (in-place)
I1218 16:59:00.255467 22336 net.cpp:113] Setting up inception_5b/relu_3x3_reduce
I1218 16:59:00.255717 22336 net.cpp:120] Top shape: 50 192 7 7 (470400)
I1218 16:59:00.255729 22336 layer_factory.hpp:74] Creating layer inception_5b/3x3
I1218 16:59:00.255738 22336 net.cpp:84] Creating Layer inception_5b/3x3
I1218 16:59:00.255745 22336 net.cpp:380] inception_5b/3x3 <- inception_5b/3x3_reduce
I1218 16:59:00.255753 22336 net.cpp:338] inception_5b/3x3 -> inception_5b/3x3
I1218 16:59:00.255760 22336 net.cpp:113] Setting up inception_5b/3x3
I1218 16:59:00.263411 22336 net.cpp:120] Top shape: 50 384 7 7 (940800)
I1218 16:59:00.263427 22336 layer_factory.hpp:74] Creating layer inception_5b/relu_3x3
I1218 16:59:00.263434 22336 net.cpp:84] Creating Layer inception_5b/relu_3x3
I1218 16:59:00.263439 22336 net.cpp:380] inception_5b/relu_3x3 <- inception_5b/3x3
I1218 16:59:00.263447 22336 net.cpp:327] inception_5b/relu_3x3 -> inception_5b/3x3 (in-place)
I1218 16:59:00.263455 22336 net.cpp:113] Setting up inception_5b/relu_3x3
I1218 16:59:00.263525 22336 net.cpp:120] Top shape: 50 384 7 7 (940800)
I1218 16:59:00.263532 22336 layer_factory.hpp:74] Creating layer inception_5b/5x5_reduce
I1218 16:59:00.263542 22336 net.cpp:84] Creating Layer inception_5b/5x5_reduce
I1218 16:59:00.263547 22336 net.cpp:380] inception_5b/5x5_reduce <- inception_5a/output_inception_5a/output_0_split_2
I1218 16:59:00.263555 22336 net.cpp:338] inception_5b/5x5_reduce -> inception_5b/5x5_reduce
I1218 16:59:00.263562 22336 net.cpp:113] Setting up inception_5b/5x5_reduce
I1218 16:59:00.264413 22336 net.cpp:120] Top shape: 50 48 7 7 (117600)
I1218 16:59:00.264428 22336 layer_factory.hpp:74] Creating layer inception_5b/relu_5x5_reduce
I1218 16:59:00.264436 22336 net.cpp:84] Creating Layer inception_5b/relu_5x5_reduce
I1218 16:59:00.264442 22336 net.cpp:380] inception_5b/relu_5x5_reduce <- inception_5b/5x5_reduce
I1218 16:59:00.264448 22336 net.cpp:327] inception_5b/relu_5x5_reduce -> inception_5b/5x5_reduce (in-place)
I1218 16:59:00.264456 22336 net.cpp:113] Setting up inception_5b/relu_5x5_reduce
I1218 16:59:00.264529 22336 net.cpp:120] Top shape: 50 48 7 7 (117600)
I1218 16:59:00.264536 22336 layer_factory.hpp:74] Creating layer inception_5b/5x5
I1218 16:59:00.264545 22336 net.cpp:84] Creating Layer inception_5b/5x5
I1218 16:59:00.264550 22336 net.cpp:380] inception_5b/5x5 <- inception_5b/5x5_reduce
I1218 16:59:00.264556 22336 net.cpp:338] inception_5b/5x5 -> inception_5b/5x5
I1218 16:59:00.264564 22336 net.cpp:113] Setting up inception_5b/5x5
I1218 16:59:00.266650 22336 net.cpp:120] Top shape: 50 128 7 7 (313600)
I1218 16:59:00.266666 22336 layer_factory.hpp:74] Creating layer inception_5b/relu_5x5
I1218 16:59:00.266674 22336 net.cpp:84] Creating Layer inception_5b/relu_5x5
I1218 16:59:00.266680 22336 net.cpp:380] inception_5b/relu_5x5 <- inception_5b/5x5
I1218 16:59:00.266685 22336 net.cpp:327] inception_5b/relu_5x5 -> inception_5b/5x5 (in-place)
I1218 16:59:00.266692 22336 net.cpp:113] Setting up inception_5b/relu_5x5
I1218 16:59:00.266942 22336 net.cpp:120] Top shape: 50 128 7 7 (313600)
I1218 16:59:00.266959 22336 layer_factory.hpp:74] Creating layer inception_5b/pool
I1218 16:59:00.266974 22336 layer_factory.cpp:56] CUDNN does not support padding or multiple tops. Using Caffe's own pooling layer.
I1218 16:59:00.266983 22336 net.cpp:84] Creating Layer inception_5b/pool
I1218 16:59:00.266988 22336 net.cpp:380] inception_5b/pool <- inception_5a/output_inception_5a/output_0_split_3
I1218 16:59:00.266995 22336 net.cpp:338] inception_5b/pool -> inception_5b/pool
I1218 16:59:00.267004 22336 net.cpp:113] Setting up inception_5b/pool
I1218 16:59:00.267014 22336 net.cpp:120] Top shape: 50 832 7 7 (2038400)
I1218 16:59:00.267019 22336 layer_factory.hpp:74] Creating layer inception_5b/pool_proj
I1218 16:59:00.267025 22336 net.cpp:84] Creating Layer inception_5b/pool_proj
I1218 16:59:00.267030 22336 net.cpp:380] inception_5b/pool_proj <- inception_5b/pool
I1218 16:59:00.267038 22336 net.cpp:338] inception_5b/pool_proj -> inception_5b/pool_proj
I1218 16:59:00.267046 22336 net.cpp:113] Setting up inception_5b/pool_proj
I1218 16:59:00.268615 22336 net.cpp:120] Top shape: 50 128 7 7 (313600)
I1218 16:59:00.268630 22336 layer_factory.hpp:74] Creating layer inception_5b/relu_pool_proj
I1218 16:59:00.268638 22336 net.cpp:84] Creating Layer inception_5b/relu_pool_proj
I1218 16:59:00.268645 22336 net.cpp:380] inception_5b/relu_pool_proj <- inception_5b/pool_proj
I1218 16:59:00.268651 22336 net.cpp:327] inception_5b/relu_pool_proj -> inception_5b/pool_proj (in-place)
I1218 16:59:00.268657 22336 net.cpp:113] Setting up inception_5b/relu_pool_proj
I1218 16:59:00.268728 22336 net.cpp:120] Top shape: 50 128 7 7 (313600)
I1218 16:59:00.268733 22336 layer_factory.hpp:74] Creating layer inception_5b/output
I1218 16:59:00.268743 22336 net.cpp:84] Creating Layer inception_5b/output
I1218 16:59:00.268748 22336 net.cpp:380] inception_5b/output <- inception_5b/1x1
I1218 16:59:00.268753 22336 net.cpp:380] inception_5b/output <- inception_5b/3x3
I1218 16:59:00.268759 22336 net.cpp:380] inception_5b/output <- inception_5b/5x5
I1218 16:59:00.268762 22336 net.cpp:380] inception_5b/output <- inception_5b/pool_proj
I1218 16:59:00.268769 22336 net.cpp:338] inception_5b/output -> inception_5b/output
I1218 16:59:00.268776 22336 net.cpp:113] Setting up inception_5b/output
I1218 16:59:00.268784 22336 net.cpp:120] Top shape: 50 1024 7 7 (2508800)
I1218 16:59:00.268789 22336 layer_factory.hpp:74] Creating layer pool5/7x7_s1
I1218 16:59:00.268795 22336 net.cpp:84] Creating Layer pool5/7x7_s1
I1218 16:59:00.268800 22336 net.cpp:380] pool5/7x7_s1 <- inception_5b/output
I1218 16:59:00.268807 22336 net.cpp:338] pool5/7x7_s1 -> pool5/7x7_s1
I1218 16:59:00.268815 22336 net.cpp:113] Setting up pool5/7x7_s1
I1218 16:59:00.268887 22336 net.cpp:120] Top shape: 50 1024 1 1 (51200)
I1218 16:59:00.268893 22336 layer_factory.hpp:74] Creating layer pool5/drop_7x7_s1
I1218 16:59:00.268900 22336 net.cpp:84] Creating Layer pool5/drop_7x7_s1
I1218 16:59:00.268905 22336 net.cpp:380] pool5/drop_7x7_s1 <- pool5/7x7_s1
I1218 16:59:00.268910 22336 net.cpp:327] pool5/drop_7x7_s1 -> pool5/7x7_s1 (in-place)
I1218 16:59:00.268916 22336 net.cpp:113] Setting up pool5/drop_7x7_s1
I1218 16:59:00.268924 22336 net.cpp:120] Top shape: 50 1024 1 1 (51200)
I1218 16:59:00.268929 22336 layer_factory.hpp:74] Creating layer loss3/classifier_kaggle
I1218 16:59:00.268939 22336 net.cpp:84] Creating Layer loss3/classifier_kaggle
I1218 16:59:00.268944 22336 net.cpp:380] loss3/classifier_kaggle <- pool5/7x7_s1
I1218 16:59:00.268951 22336 net.cpp:338] loss3/classifier_kaggle -> loss3/classifier_kaggle
I1218 16:59:00.268959 22336 net.cpp:113] Setting up loss3/classifier_kaggle
I1218 16:59:00.273972 22336 net.cpp:120] Top shape: 50 447 (22350)
I1218 16:59:00.273986 22336 layer_factory.hpp:74] Creating layer loss3/classifier_kaggle_loss3/classifier_kaggle_0_split
I1218 16:59:00.273994 22336 net.cpp:84] Creating Layer loss3/classifier_kaggle_loss3/classifier_kaggle_0_split
I1218 16:59:00.273999 22336 net.cpp:380] loss3/classifier_kaggle_loss3/classifier_kaggle_0_split <- loss3/classifier_kaggle
I1218 16:59:00.274014 22336 net.cpp:338] loss3/classifier_kaggle_loss3/classifier_kaggle_0_split -> loss3/classifier_kaggle_loss3/classifier_kaggle_0_split_0
I1218 16:59:00.274030 22336 net.cpp:338] loss3/classifier_kaggle_loss3/classifier_kaggle_0_split -> loss3/classifier_kaggle_loss3/classifier_kaggle_0_split_1
I1218 16:59:00.274037 22336 net.cpp:338] loss3/classifier_kaggle_loss3/classifier_kaggle_0_split -> loss3/classifier_kaggle_loss3/classifier_kaggle_0_split_2
I1218 16:59:00.274044 22336 net.cpp:113] Setting up loss3/classifier_kaggle_loss3/classifier_kaggle_0_split
I1218 16:59:00.274051 22336 net.cpp:120] Top shape: 50 447 (22350)
I1218 16:59:00.274056 22336 net.cpp:120] Top shape: 50 447 (22350)
I1218 16:59:00.274060 22336 net.cpp:120] Top shape: 50 447 (22350)
I1218 16:59:00.274065 22336 layer_factory.hpp:74] Creating layer loss3/loss3
I1218 16:59:00.274071 22336 net.cpp:84] Creating Layer loss3/loss3
I1218 16:59:00.274076 22336 net.cpp:380] loss3/loss3 <- loss3/classifier_kaggle_loss3/classifier_kaggle_0_split_0
I1218 16:59:00.274082 22336 net.cpp:380] loss3/loss3 <- label_data_1_split_6
I1218 16:59:00.274091 22336 net.cpp:338] loss3/loss3 -> loss3/loss3
…
