…
I1217 17:58:32.031786 15170 net.cpp:257] The NetState phase (0) differed from the phase (1) specified by a rule in layer loss3/top-5
I1217 17:58:32.034029 15170 net.cpp:42] Initializing net from parameters: 
name: "GoogleNet"
state {
  phase: TRAIN
}
layer {
  name: "data"
  type: "Data"
  top: "data"
  top: "label"
  include {
    phase: TRAIN
  }
  transform_param {
    mirror: true
    crop_size: 224
    mean_value: 129
    mean_value: 129
    mean_value: 129
  }
  data_param {
    source: "/home/coldmanck/kaggle/kaggle2_train_lmdb"
    batch_size: 80
    backend: LMDB
  }
}
layer {
  name: "conv1/7x7_s2"
  type: "Convolution"
  bottom: "data"
  top: "conv1/7x7_s2"
  param {
    lr_mult: 1
    decay_mult: 1
  }
  param {
    lr_mult: 2
    decay_mult: 0
  }
  convolution_param {
    num_output: 64
    pad: 3
    kernel_size: 7
    stride: 2
    weight_filler {
      type: "xavier"
    }
    bias_filler {
      type: "constant"
      value: 0.2
    }
  }
}
layer {
  name: "conv1/relu_7x7"
  type: "ReLU"
  bottom: "conv1/7x7_s2"
  top: "conv1/7x7_s2"
}
layer {
  name: "pool1/3x3_s2"
  type: "Pooling"
  bottom: "conv1/7x7_s2"
  top: "pool1/3x3_s2"
  pooling_param {
    pool: MAX
    kernel_size: 3
    stride: 2
  }
}
layer {
  name: "pool1/norm1"
  type: "LRN"
  bottom: "pool1/3x3_s2"
  top: "pool1/norm1"
  lrn_param {
    local_size: 5
    alpha: 0.0001
    beta: 0.75
  }
}
layer {
  name: "conv2/3x3_reduce"
  type: "Convolution"
  bottom: "pool1/norm1"
  top: "conv2/3x3_reduce"
  param {
    lr_mult: 1
    decay_mult: 1
  }
  param {
    lr_mult: 2
    decay_mult: 0
  }
  convolution_param {
    num_output: 64
    kernel_size: 1
    weight_filler {
      type: "xavier"
    }
    bias_filler {
      type: "constant"
      value: 0.2
    }
  }
}
layer {
  name: "conv2/relu_3x3_reduce"
  type: "ReLU"
  bottom: "conv2/3x3_reduce"
  top: "conv2/3x3_reduce"
}
layer {
  name: "conv2/3x3"
  type: "Convolution"
  bottom: "conv2/3x3_reduce"
  top: "conv2/3x3"
  param {
    lr_mult: 1
    decay_mult: 1
  }
  param {
    lr_mult: 2
    decay_mult: 0
  }
  convolution_param {
    num_output: 192
    pad: 1
    kernel_size: 3
    weight_filler {
      type: "xavier"
    }
    bias_filler {
      type: "constant"
      value: 0.2
    }
  }
}
layer {
  name: "conv2/relu_3x3"
  type: "ReLU"
  bottom: "conv2/3x3"
  top: "conv2/3x3"
}
layer {
  name: "conv2/norm2"
  type: "LRN"
  bottom: "conv2/3x3"
  top: "conv2/norm2"
  lrn_param {
    local_size: 5
    alpha: 0.0001
    beta: 0.75
  }
}
layer {
  name: "pool2/3x3_s2"
  type: "Pooling"
  bottom: "conv2/norm2"
  top: "pool2/3x3_s2"
  pooling_param {
    pool: MAX
    kernel_size: 3
    stride: 2
  }
}
layer {
  name: "inception_3a/1x1"
  type: "Convolution"
  bottom: "pool2/3x3_s2"
  top: "inception_3a/1x1"
  param {
    lr_mult: 1
    decay_mult: 1
  }
  param {
    lr_mult: 2
    decay_mult: 0
  }
  convolution_param {
    num_output: 64
    kernel_size: 1
    weight_filler {
      type: "xavier"
    }
    bias_filler {
      type: "constant"
      value: 0.2
    }
  }
}
layer {
  name: "inception_3a/relu_1x1"
  type: "ReLU"
  bottom: "inception_3a/1x1"
  top: "inception_3a/1x1"
}
layer {
  name: "inception_3a/3x3_reduce"
  type: "Convolution"
  bottom: "pool2/3x3_s2"
  top: "inception_3a/3x3_reduce"
  param {
    lr_mult: 1
    decay_mult: 1
  }
  param {
    lr_mult: 2
    decay_mult: 0
  }
  convolution_param {
    num_output: 96
    kernel_size: 1
    weight_filler {
      type: "xavier"
    }
    bias_filler {
      type: "constant"
      value: 0.2
    }
  }
}
layer {
  name: "inception_3a/relu_3x3_reduce"
  type: "ReLU"
  bottom: "inception_3a/3x3_reduce"
  top: "inception_3a/3x3_reduce"
}
layer {
  name: "inception_3a/3x3"
  type: "Convolution"
  bottom: "inception_3a/3x3_reduce"
  top: "inception_3a/3x3"
  param {
    lr_mult: 1
    decay_mult: 1
  }
  param {
    lr_mult: 2
    decay_mult: 0
  }
  convolution_param {
    num_output: 128
    pad: 1
    kernel_size: 3
    weight_filler {
      type: "xavier"
    }
    bias_filler {
      type: "constant"
      value: 0.2
    }
  }
}
layer {
  name: "inception_3a/relu_3x3"
  type: "ReLU"
  bottom: "inception_3a/3x3"
  top: "inception_3a/3x3"
}
layer {
  name: "inception_3a/5x5_reduce"
  type: "Convolution"
  bottom: "pool2/3x3_s2"
  top: "inception_3a/5x5_reduce"
  param {
    lr_mult: 1
    decay_mult: 1
  }
  param {
    lr_mult: 2
    decay_mult: 0
  }
  convolution_param {
    num_output: 16
    kernel_size: 1
    weight_filler {
      type: "xavier"
    }
    bias_filler {
      type: "constant"
      value: 0.2
    }
  }
}
layer {
  name: "inception_3a/relu_5x5_reduce"
  type: "ReLU"
  bottom: "inception_3a/5x5_reduce"
  top: "inception_3a/5x5_reduce"
}
layer {
  name: "inception_3a/5x5"
  type: "Convolution"
  bottom: "inception_3a/5x5_reduce"
  top: "inception_3a/5x5"
  param {
    lr_mult: 1
    decay_mult: 1
  }
  param {
    lr_mult: 2
    decay_mult: 0
  }
  convolution_param {
    num_output: 32
    pad: 2
    kernel_size: 5
    weight_filler {
      type: "xavier"
    }
    bias_filler {
      type: "constant"
      value: 0.2
    }
  }
}
layer {
  name: "inception_3a/relu_5x5"
  type: "ReLU"
  bottom: "inception_3a/5x5"
  top: "inception_3a/5x5"
}
layer {
  name: "inception_3a/pool"
  type: "Pooling"
  bottom: "pool2/3x3_s2"
  top: "inception_3a/pool"
  pooling_param {
    pool: MAX
    kernel_size: 3
    stride: 1
    pad: 1
  }
}
layer {
  name: "inception_3a/pool_proj"
  type: "Convolution"
  bottom: "inception_3a/pool"
  top: "inception_3a/pool_proj"
  param {
    lr_mult: 1
    decay_mult: 1
  }
  param {
    lr_mult: 2
    decay_mult: 0
  }
  convolution_param {
    num_output: 32
    kernel_size: 1
    weight_filler {
      type: "xavier"
    }
    bias_filler {
      type: "constant"
      value: 0.2
    }
  }
}
layer {
  name: "inception_3a/relu_pool_proj"
  type: "ReLU"
  bottom: "inception_3a/pool_proj"
  top: "inception_3a/pool_proj"
}
layer {
  name: "inception_3a/output"
  type: "Concat"
  bottom: "inception_3a/1x1"
  bottom: "inception_3a/3x3"
  bottom: "inception_3a/5x5"
  bottom: "inception_3a/pool_proj"
  top: "inception_3a/output"
}
layer {
  name: "inception_3b/1x1"
  type: "Convolution"
  bottom: "inception_3a/output"
  top: "inception_3b/1x1"
  param {
    lr_mult: 1
    decay_mult: 1
  }
  param {
    lr_mult: 2
    decay_mult: 0
  }
  convolution_param {
    num_output: 128
    kernel_size: 1
    weight_filler {
      type: "xavier"
    }
    bias_filler {
      type: "constant"
      value: 0.2
    }
  }
}
layer {
  name: "inception_3b/relu_1x1"
  type: "ReLU"
  bottom: "inception_3b/1x1"
  top: "inception_3b/1x1"
}
layer {
  name: "inception_3b/3x3_reduce"
  type: "Convolution"
  bottom: "inception_3a/output"
  top: "inception_3b/3x3_reduce"
  param {
    lr_mult: 1
    decay_mult: 1
  }
  param {
    lr_mult: 2
    decay_mult: 0
  }
  convolution_param {
    num_output: 128
    kernel_size: 1
    weight_filler {
      type: "xavier"
    }
    bias_filler {
      type: "constant"
      value: 0.2
    }
  }
}
layer {
  name: "inception_3b/relu_3x3_reduce"
  type: "ReLU"
  bottom: "inception_3b/3x3_reduce"
  top: "inception_3b/3x3_reduce"
}
layer {
  name: "inception_3b/3x3"
  type: "Convolution"
  bottom: "inception_3b/3x3_reduce"
  top: "inception_3b/3x3"
  param {
    lr_mult: 1
    decay_mult: 1
  }
  param {
    lr_mult: 2
    decay_mult: 0
  }
  convolution_param {
    num_output: 192
    pad: 1
    kernel_size: 3
    weight_filler {
      type: "xavier"
    }
    bias_filler {
      type: "constant"
      value: 0.2
    }
  }
}
layer {
  name: "inception_3b/relu_3x3"
  type: "ReLU"
  bottom: "inception_3b/3x3"
  top: "inception_3b/3x3"
}
layer {
  name: "inception_3b/5x5_reduce"
  type: "Convolution"
  bottom: "inception_3a/output"
  top: "inception_3b/5x5_reduce"
  param {
    lr_mult: 1
    decay_mult: 1
  }
  param {
    lr_mult: 2
    decay_mult: 0
  }
  convolution_param {
    num_output: 32
    kernel_size: 1
    weight_filler {
      type: "xavier"
    }
    bias_filler {
      type: "constant"
      value: 0.2
    }
  }
}
layer {
  name: "inception_3b/relu_5x5_reduce"
  type: "ReLU"
  bottom: "inception_3b/5x5_reduce"
  top: "inception_3b/5x5_reduce"
}
layer {
  name: "inception_3b/5x5"
  type: "Convolution"
  bottom: "inception_3b/5x5_reduce"
  top: "inception_3b/5x5"
  param {
    lr_mult: 1
    decay_mult: 1
  }
  param {
    lr_mult: 2
    decay_mult: 0
  }
  convolution_param {
    num_output: 96
    pad: 2
    kernel_size: 5
    weight_filler {
      type: "xavier"
    }
    bias_filler {
      type: "constant"
      value: 0.2
    }
  }
}
layer {
  name: "inception_3b/relu_5x5"
  type: "ReLU"
  bottom: "inception_3b/5x5"
  top: "inception_3b/5x5"
}
layer {
  name: "inception_3b/pool"
  type: "Pooling"
  bottom: "inception_3a/output"
  top: "inception_3b/pool"
  pooling_param {
    pool: MAX
    kernel_size: 3
    stride: 1
    pad: 1
  }
}
layer {
  name: "inception_3b/pool_proj"
  type: "Convolution"
  bottom: "inception_3b/pool"
  top: "inception_3b/pool_proj"
  param {
    lr_mult: 1
    decay_mult: 1
  }
  param {
    lr_mult: 2
    decay_mult: 0
  }
  convolution_param {
    num_output: 64
    kernel_size: 1
    weight_filler {
      type: "xavier"
    }
    bias_filler {
      type: "constant"
      value: 0.2
    }
  }
}
layer {
  name: "inception_3b/relu_pool_proj"
  type: "ReLU"
  bottom: "inception_3b/pool_proj"
  top: "inception_3b/pool_proj"
}
layer {
  name: "inception_3b/output"
  type: "Concat"
  bottom: "inception_3b/1x1"
  bottom: "inception_3b/3x3"
  bottom: "inception_3b/5x5"
  bottom: "inception_3b/pool_proj"
  top: "inception_3b/output"
}
layer {
  name: "pool3/3x3_s2"
  type: "Pooling"
  bottom: "inception_3b/output"
  top: "pool3/3x3_s2"
  pooling_param {
    pool: MAX
    kernel_size: 3
    stride: 2
  }
}
layer {
  name: "inception_4a/1x1"
  type: "Convolution"
  bottom: "pool3/3x3_s2"
  top: "inception_4a/1x1"
  param {
    lr_mult: 1
    decay_mult: 1
  }
  param {
    lr_mult: 2
    decay_mult: 0
  }
  convolution_param {
    num_output: 192
    kernel_size: 1
    weight_filler {
      type: "xavier"
    }
    bias_filler {
      type: "constant"
      value: 0.2
    }
  }
}
layer {
  name: "inception_4a/relu_1x1"
  type: "ReLU"
  bottom: "inception_4a/1x1"
  top: "inception_4a/1x1"
}
layer {
  name: "inception_4a/3x3_reduce"
  type: "Convolution"
  bottom: "pool3/3x3_s2"
  top: "inception_4a/3x3_reduce"
  param {
    lr_mult: 1
    decay_mult: 1
  }
  param {
    lr_mult: 2
    decay_mult: 0
  }
  convolution_param {
    num_output: 96
    kernel_size: 1
    weight_filler {
      type: "xavier"
    }
    bias_filler {
      type: "constant"
      value: 0.2
    }
  }
}
layer {
  name: "inception_4a/relu_3x3_reduce"
  type: "ReLU"
  bottom: "inception_4a/3x3_reduce"
  top: "inception_4a/3x3_reduce"
}
layer {
  name: "inception_4a/3x3"
  type: "Convolution"
  bottom: "inception_4a/3x3_reduce"
  top: "inception_4a/3x3"
  param {
    lr_mult: 1
    decay_mult: 1
  }
  param {
    lr_mult: 2
    decay_mult: 0
  }
  convolution_param {
    num_output: 208
    pad: 1
    kernel_size: 3
    weight_filler {
      type: "xavier"
    }
    bias_filler {
      type: "constant"
      value: 0.2
    }
  }
}
layer {
  name: "inception_4a/relu_3x3"
  type: "ReLU"
  bottom: "inception_4a/3x3"
  top: "inception_4a/3x3"
}
layer {
  name: "inception_4a/5x5_reduce"
  type: "Convolution"
  bottom: "pool3/3x3_s2"
  top: "inception_4a/5x5_reduce"
  param {
    lr_mult: 1
    decay_mult: 1
  }
  param {
    lr_mult: 2
    decay_mult: 0
  }
  convolution_param {
    num_output: 16
    kernel_size: 1
    weight_filler {
      type: "xavier"
    }
    bias_filler {
      type: "constant"
      value: 0.2
    }
  }
}
layer {
  name: "inception_4a/relu_5x5_reduce"
  type: "ReLU"
  bottom: "inception_4a/5x5_reduce"
  top: "inception_4a/5x5_reduce"
}
layer {
  name: "inception_4a/5x5"
  type: "Convolution"
  bottom: "inception_4a/5x5_reduce"
  top: "inception_4a/5x5"
  param {
    lr_mult: 1
    decay_mult: 1
  }
  param {
    lr_mult: 2
    decay_mult: 0
  }
  convolution_param {
    num_output: 48
    pad: 2
    kernel_size: 5
    weight_filler {
      type: "xavier"
    }
    bias_filler {
      type: "constant"
      value: 0.2
    }
  }
}
layer {
  name: "inception_4a/relu_5x5"
  type: "ReLU"
  bottom: "inception_4a/5x5"
  top: "inception_4a/5x5"
}
layer {
  name: "inception_4a/pool"
  type: "Pooling"
  bottom: "pool3/3x3_s2"
  top: "inception_4a/pool"
  pooling_param {
    pool: MAX
    kernel_size: 3
    stride: 1
    pad: 1
  }
}
layer {
  name: "inception_4a/pool_proj"
  type: "Convolution"
  bottom: "inception_4a/pool"
  top: "inception_4a/pool_proj"
  param {
    lr_mult: 1
    decay_mult: 1
  }
  param {
    lr_mult: 2
    decay_mult: 0
  }
  convolution_param {
    num_output: 64
    kernel_size: 1
    weight_filler {
      type: "xavier"
    }
    bias_filler {
      type: "constant"
      value: 0.2
    }
  }
}
layer {
  name: "inception_4a/relu_pool_proj"
  type: "ReLU"
  bottom: "inception_4a/pool_proj"
  top: "inception_4a/pool_proj"
}
layer {
  name: "inception_4a/output"
  type: "Concat"
  bottom: "inception_4a/1x1"
  bottom: "inception_4a/3x3"
  bottom: "inception_4a/5x5"
  bottom: "inception_4a/pool_proj"
  top: "inception_4a/output"
}
layer {
  name: "loss1/ave_pool"
  type: "Pooling"
  bottom: "inception_4a/output"
  top: "loss1/ave_pool"
  pooling_param {
    pool: AVE
    kernel_size: 5
    stride: 3
  }
}
layer {
  name: "loss1/conv"
  type: "Convolution"
  bottom: "loss1/ave_pool"
  top: "loss1/conv"
  param {
    lr_mult: 1
    decay_mult: 1
  }
  param {
    lr_mult: 2
    decay_mult: 0
  }
  convolution_param {
    num_output: 128
    kernel_size: 1
    weight_filler {
      type: "xavier"
    }
    bias_filler {
      type: "constant"
      value: 0.2
    }
  }
}
layer {
  name: "loss1/relu_conv"
  type: "ReLU"
  bottom: "loss1/conv"
  top: "loss1/conv"
}
layer {
  name: "loss1/fc"
  type: "InnerProduct"
  bottom: "loss1/conv"
  top: "loss1/fc"
  param {
    lr_mult: 1
    decay_mult: 1
  }
  param {
    lr_mult: 2
    decay_mult: 0
  }
  inner_product_param {
    num_output: 1024
    weight_filler {
      type: "xavier"
    }
    bias_filler {
      type: "constant"
      value: 0.2
    }
  }
}
layer {
  name: "loss1/relu_fc"
  type: "ReLU"
  bottom: "loss1/fc"
  top: "loss1/fc"
}
layer {
  name: "loss1/drop_fc"
  type: "Dropout"
  bottom: "loss1/fc"
  top: "loss1/fc"
  dropout_param {
    dropout_ratio: 0.7
  }
}
layer {
  name: "loss1/classifier_kaggle"
  type: "InnerProduct"
  bottom: "loss1/fc"
  top: "loss1/classifier_kaggle"
  param {
    lr_mult: 1
    decay_mult: 1
  }
  param {
    lr_mult: 2
    decay_mult: 0
  }
  inner_product_param {
    num_output: 447
    weight_filler {
      type: "xavier"
    }
    bias_filler {
      type: "constant"
      value: 0
    }
  }
}
layer {
  name: "loss1/loss"
  type: "SoftmaxWithLoss"
  bottom: "loss1/classifier_kaggle"
  bottom: "label"
  top: "loss1/loss1"
  loss_weight: 0.3
}
layer {
  name: "inception_4b/1x1"
  type: "Convolution"
  bottom: "inception_4a/output"
  top: "inception_4b/1x1"
  param {
    lr_mult: 1
    decay_mult: 1
  }
  param {
    lr_mult: 2
    decay_mult: 0
  }
  convolution_param {
    num_output: 160
    kernel_size: 1
    weight_filler {
      type: "xavier"
    }
    bias_filler {
      type: "constant"
      value: 0.2
    }
  }
}
layer {
  name: "inception_4b/relu_1x1"
  type: "ReLU"
  bottom: "inception_4b/1x1"
  top: "inception_4b/1x1"
}
layer {
  name: "inception_4b/3x3_reduce"
  type: "Convolution"
  bottom: "inception_4a/output"
  top: "inception_4b/3x3_reduce"
  param {
    lr_mult: 1
    decay_mult: 1
  }
  param {
    lr_mult: 2
    decay_mult: 0
  }
  convolution_param {
    num_output: 112
    kernel_size: 1
    weight_filler {
      type: "xavier"
    }
    bias_filler {
      type: "constant"
      value: 0.2
    }
  }
}
layer {
  name: "inception_4b/relu_3x3_reduce"
  type: "ReLU"
  bottom: "inception_4b/3x3_reduce"
  top: "inception_4b/3x3_reduce"
}
layer {
  name: "inception_4b/3x3"
  type: "Convolution"
  bottom: "inception_4b/3x3_reduce"
  top: "inception_4b/3x3"
  param {
    lr_mult: 1
    decay_mult: 1
  }
  param {
    lr_mult: 2
    decay_mult: 0
  }
  convolution_param {
    num_output: 224
    pad: 1
    kernel_size: 3
    weight_filler {
      type: "xavier"
    }
    bias_filler {
      type: "constant"
      value: 0.2
    }
  }
}
layer {
  name: "inception_4b/relu_3x3"
  type: "ReLU"
  bottom: "inception_4b/3x3"
  top: "inception_4b/3x3"
}
layer {
  name: "inception_4b/5x5_reduce"
  type: "Convolution"
  bottom: "inception_4a/output"
  top: "inception_4b/5x5_reduce"
  param {
    lr_mult: 1
    decay_mult: 1
  }
  param {
    lr_mult: 2
    decay_mult: 0
  }
  convolution_param {
    num_output: 24
    kernel_size: 1
    weight_filler {
      type: "xavier"
    }
    bias_filler {
      type: "constant"
      value: 0.2
    }
  }
}
layer {
  name: "inception_4b/relu_5x5_reduce"
  type: "ReLU"
  bottom: "inception_4b/5x5_reduce"
  top: "inception_4b/5x5_reduce"
}
layer {
  name: "inception_4b/5x5"
  type: "Convolution"
  bottom: "inception_4b/5x5_reduce"
  top: "inception_4b/5x5"
  param {
    lr_mult: 1
    decay_mult: 1
  }
  param {
    lr_mult: 2
    decay_mult: 0
  }
  convolution_param {
    num_output: 64
    pad: 2
    kernel_size: 5
    weight_filler {
      type: "xavier"
    }
    bias_filler {
      type: "constant"
      value: 0.2
    }
  }
}
layer {
  name: "inception_4b/relu_5x5"
  type: "ReLU"
  bottom: "inception_4b/5x5"
  top: "inception_4b/5x5"
}
layer {
  name: "inception_4b/pool"
  type: "Pooling"
  bottom: "inception_4a/output"
  top: "inception_4b/pool"
  pooling_param {
    pool: MAX
    kernel_size: 3
    stride: 1
    pad: 1
  }
}
layer {
  name: "inception_4b/pool_proj"
  type: "Convolution"
  bottom: "inception_4b/pool"
  top: "inception_4b/pool_proj"
  param {
    lr_mult: 1
    decay_mult: 1
  }
  param {
    lr_mult: 2
    decay_mult: 0
  }
  convolution_param {
    num_output: 64
    kernel_size: 1
    weight_filler {
      type: "xavier"
    }
    bias_filler {
      type: "constant"
      value: 0.2
    }
  }
}
layer {
  name: "inception_4b/relu_pool_proj"
  type: "ReLU"
  bottom: "inception_4b/pool_proj"
  top: "inception_4b/pool_proj"
}
layer {
  name: "inception_4b/output"
  type: "Concat"
  bottom: "inception_4b/1x1"
  bottom: "inception_4b/3x3"
  bottom: "inception_4b/5x5"
  bottom: "inception_4b/pool_proj"
  top: "inception_4b/output"
}
layer {
  name: "inception_4c/1x1"
  type: "Convolution"
  bottom: "inception_4b/output"
  top: "inception_4c/1x1"
  param {
    lr_mult: 1
    decay_mult: 1
  }
  param {
    lr_mult: 2
    decay_mult: 0
  }
  convolution_param {
    num_output: 128
    kernel_size: 1
    weight_filler {
      type: "xavier"
    }
    bias_filler {
      type: "constant"
      value: 0.2
    }
  }
}
layer {
  name: "inception_4c/relu_1x1"
  type: "ReLU"
  bottom: "inception_4c/1x1"
  top: "inception_4c/1x1"
}
layer {
  name: "inception_4c/3x3_reduce"
  type: "Convolution"
  bottom: "inception_4b/output"
  top: "inception_4c/3x3_reduce"
  param {
    lr_mult: 1
    decay_mult: 1
  }
  param {
    lr_mult: 2
    decay_mult: 0
  }
  convolution_param {
    num_output: 128
    kernel_size: 1
    weight_filler {
      type: "xavier"
    }
    bias_filler {
      type: "constant"
      value: 0.2
    }
  }
}
layer {
  name: "inception_4c/relu_3x3_reduce"
  type: "ReLU"
  bottom: "inception_4c/3x3_reduce"
  top: "inception_4c/3x3_reduce"
}
layer {
  name: "inception_4c/3x3"
  type: "Convolution"
  bottom: "inception_4c/3x3_reduce"
  top: "inception_4c/3x3"
  param {
    lr_mult: 1
    decay_mult: 1
  }
  param {
    lr_mult: 2
    decay_mult: 0
  }
  convolution_param {
    num_output: 256
    pad: 1
    kernel_size: 3
    weight_filler {
      type: "xavier"
    }
    bias_filler {
      type: "constant"
      value: 0.2
    }
  }
}
layer {
  name: "inception_4c/relu_3x3"
  type: "ReLU"
  bottom: "inception_4c/3x3"
  top: "inception_4c/3x3"
}
layer {
  name: "inception_4c/5x5_reduce"
  type: "Convolution"
  bottom: "inception_4b/output"
  top: "inception_4c/5x5_reduce"
  param {
    lr_mult: 1
    decay_mult: 1
  }
  param {
    lr_mult: 2
    decay_mult: 0
  }
  convolution_param {
    num_output: 24
    kernel_size: 1
    weight_filler {
      type: "xavier"
    }
    bias_filler {
      type: "constant"
      value: 0.2
    }
  }
}
layer {
  name: "inception_4c/relu_5x5_reduce"
  type: "ReLU"
  bottom: "inception_4c/5x5_reduce"
  top: "inception_4c/5x5_reduce"
}
layer {
  name: "inception_4c/5x5"
  type: "Convolution"
  bottom: "inception_4c/5x5_reduce"
  top: "inception_4c/5x5"
  param {
    lr_mult: 1
    decay_mult: 1
  }
  param {
    lr_mult: 2
    decay_mult: 0
  }
  convolution_param {
    num_output: 64
    pad: 2
    kernel_size: 5
    weight_filler {
      type: "xavier"
    }
    bias_filler {
      type: "constant"
      value: 0.2
    }
  }
}
layer {
  name: "inception_4c/relu_5x5"
  type: "ReLU"
  bottom: "inception_4c/5x5"
  top: "inception_4c/5x5"
}
layer {
  name: "inception_4c/pool"
  type: "Pooling"
  bottom: "inception_4b/output"
  top: "inception_4c/pool"
  pooling_param {
    pool: MAX
    kernel_size: 3
    stride: 1
    pad: 1
  }
}
layer {
  name: "inception_4c/pool_proj"
  type: "Convolution"
  bottom: "inception_4c/pool"
  top: "inception_4c/pool_proj"
  param {
    lr_mult: 1
    decay_mult: 1
  }
  param {
    lr_mult: 2
    decay_mult: 0
  }
  convolution_param {
    num_output: 64
    kernel_size: 1
    weight_filler {
      type: "xavier"
    }
    bias_filler {
      type: "constant"
      value: 0.2
    }
  }
}
layer {
  name: "inception_4c/relu_pool_proj"
  type: "ReLU"
  bottom: "inception_4c/pool_proj"
  top: "inception_4c/pool_proj"
}
layer {
  name: "inception_4c/output"
  type: "Concat"
  bottom: "inception_4c/1x1"
  bottom: "inception_4c/3x3"
  bottom: "inception_4c/5x5"
  bottom: "inception_4c/pool_proj"
  top: "inception_4c/output"
}
layer {
  name: "inception_4d/1x1"
  type: "Convolution"
  bottom: "inception_4c/output"
  top: "inception_4d/1x1"
  param {
    lr_mult: 1
    decay_mult: 1
  }
  param {
    lr_mult: 2
    decay_mult: 0
  }
  convolution_param {
    num_output: 112
    kernel_size: 1
    weight_filler {
      type: "xavier"
    }
    bias_filler {
      type: "constant"
      value: 0.2
    }
  }
}
layer {
  name: "inception_4d/relu_1x1"
  type: "ReLU"
  bottom: "inception_4d/1x1"
  top: "inception_4d/1x1"
}
layer {
  name: "inception_4d/3x3_reduce"
  type: "Convolution"
  bottom: "inception_4c/output"
  top: "inception_4d/3x3_reduce"
  param {
    lr_mult: 1
    decay_mult: 1
  }
  param {
    lr_mult: 2
    decay_mult: 0
  }
  convolution_param {
    num_output: 144
    kernel_size: 1
    weight_filler {
      type: "xavier"
    }
    bias_filler {
      type: "constant"
      value: 0.2
    }
  }
}
layer {
  name: "inception_4d/relu_3x3_reduce"
  type: "ReLU"
  bottom: "inception_4d/3x3_reduce"
  top: "inception_4d/3x3_reduce"
}
layer {
  name: "inception_4d/3x3"
  type: "Convolution"
  bottom: "inception_4d/3x3_reduce"
  top: "inception_4d/3x3"
  param {
    lr_mult: 1
    decay_mult: 1
  }
  param {
    lr_mult: 2
    decay_mult: 0
  }
  convolution_param {
    num_output: 288
    pad: 1
    kernel_size: 3
    weight_filler {
      type: "xavier"
    }
    bias_filler {
      type: "constant"
      value: 0.2
    }
  }
}
layer {
  name: "inception_4d/relu_3x3"
  type: "ReLU"
  bottom: "inception_4d/3x3"
  top: "inception_4d/3x3"
}
layer {
  name: "inception_4d/5x5_reduce"
  type: "Convolution"
  bottom: "inception_4c/output"
  top: "inception_4d/5x5_reduce"
  param {
    lr_mult: 1
    decay_mult: 1
  }
  param {
    lr_mult: 2
    decay_mult: 0
  }
  convolution_param {
    num_output: 32
    kernel_size: 1
    weight_filler {
      type: "xavier"
    }
    bias_filler {
      type: "constant"
      value: 0.2
    }
  }
}
layer {
  name: "inception_4d/relu_5x5_reduce"
  type: "ReLU"
  bottom: "inception_4d/5x5_reduce"
  top: "inception_4d/5x5_reduce"
}
layer {
  name: "inception_4d/5x5"
  type: "Convolution"
  bottom: "inception_4d/5x5_reduce"
  top: "inception_4d/5x5"
  param {
    lr_mult: 1
    decay_mult: 1
  }
  param {
    lr_mult: 2
    decay_mult: 0
  }
  convolution_param {
    num_output: 64
    pad: 2
    kernel_size: 5
    weight_filler {
      type: "xavier"
    }
    bias_filler {
      type: "constant"
      value: 0.2
    }
  }
}
layer {
  name: "inception_4d/relu_5x5"
  type: "ReLU"
  bottom: "inception_4d/5x5"
  top: "inception_4d/5x5"
}
layer {
  name: "inception_4d/pool"
  type: "Pooling"
  bottom: "inception_4c/output"
  top: "inception_4d/pool"
  pooling_param {
    pool: MAX
    kernel_size: 3
    stride: 1
    pad: 1
  }
}
layer {
  name: "inception_4d/pool_proj"
  type: "Convolution"
  bottom: "inception_4d/pool"
  top: "inception_4d/pool_proj"
  param {
    lr_mult: 1
    decay_mult: 1
  }
  param {
    lr_mult: 2
    decay_mult: 0
  }
  convolution_param {
    num_output: 64
    kernel_size: 1
    weight_filler {
      type: "xavier"
    }
    bias_filler {
      type: "constant"
      value: 0.2
    }
  }
}
layer {
  name: "inception_4d/relu_pool_proj"
  type: "ReLU"
  bottom: "inception_4d/pool_proj"
  top: "inception_4d/pool_proj"
}
layer {
  name: "inception_4d/output"
  type: "Concat"
  bottom: "inception_4d/1x1"
  bottom: "inception_4d/3x3"
  bottom: "inception_4d/5x5"
  bottom: "inception_4d/pool_proj"
  top: "inception_4d/output"
}
layer {
  name: "loss2/ave_pool"
  type: "Pooling"
  bottom: "inception_4d/output"
  top: "loss2/ave_pool"
  pooling_param {
    pool: AVE
    kernel_size: 5
    stride: 3
  }
}
layer {
  name: "loss2/conv"
  type: "Convolution"
  bottom: "loss2/ave_pool"
  top: "loss2/conv"
  param {
    lr_mult: 1
    decay_mult: 1
  }
  param {
    lr_mult: 2
    decay_mult: 0
  }
  convolution_param {
    num_output: 128
    kernel_size: 1
    weight_filler {
      type: "xavier"
    }
    bias_filler {
      type: "constant"
      value: 0.2
    }
  }
}
layer {
  name: "loss2/relu_conv"
  type: "ReLU"
  bottom: "loss2/conv"
  top: "loss2/conv"
}
layer {
  name: "loss2/fc"
  type: "InnerProduct"
  bottom: "loss2/conv"
  top: "loss2/fc"
  param {
    lr_mult: 1
    decay_mult: 1
  }
  param {
    lr_mult: 2
    decay_mult: 0
  }
  inner_product_param {
    num_output: 1024
    weight_filler {
      type: "xavier"
    }
    bias_filler {
      type: "constant"
      value: 0.2
    }
  }
}
layer {
  name: "loss2/relu_fc"
  type: "ReLU"
  bottom: "loss2/fc"
  top: "loss2/fc"
}
layer {
  name: "loss2/drop_fc"
  type: "Dropout"
  bottom: "loss2/fc"
  top: "loss2/fc"
  dropout_param {
    dropout_ratio: 0.7
  }
}
layer {
  name: "loss2/classifier_kaggle"
  type: "InnerProduct"
  bottom: "loss2/fc"
  top: "loss2/classifier_kaggle"
  param {
    lr_mult: 1
    decay_mult: 1
  }
  param {
    lr_mult: 2
    decay_mult: 0
  }
  inner_product_param {
    num_output: 447
    weight_filler {
      type: "xavier"
    }
    bias_filler {
      type: "constant"
      value: 0
    }
  }
}
layer {
  name: "loss2/loss"
  type: "SoftmaxWithLoss"
  bottom: "loss2/classifier_kaggle"
  bottom: "label"
  top: "loss2/loss1"
  loss_weight: 0.3
}
layer {
  name: "inception_4e/1x1"
  type: "Convolution"
  bottom: "inception_4d/output"
  top: "inception_4e/1x1"
  param {
    lr_mult: 1
    decay_mult: 1
  }
  param {
    lr_mult: 2
    decay_mult: 0
  }
  convolution_param {
    num_output: 256
    kernel_size: 1
    weight_filler {
      type: "xavier"
    }
    bias_filler {
      type: "constant"
      value: 0.2
    }
  }
}
layer {
  name: "inception_4e/relu_1x1"
  type: "ReLU"
  bottom: "inception_4e/1x1"
  top: "inception_4e/1x1"
}
layer {
  name: "inception_4e/3x3_reduce"
  type: "Convolution"
  bottom: "inception_4d/output"
  top: "inception_4e/3x3_reduce"
  param {
    lr_mult: 1
    decay_mult: 1
  }
  param {
    lr_mult: 2
    decay_mult: 0
  }
  convolution_param {
    num_output: 160
    kernel_size: 1
    weight_filler {
      type: "xavier"
    }
    bias_filler {
      type: "constant"
      value: 0.2
    }
  }
}
layer {
  name: "inception_4e/relu_3x3_reduce"
  type: "ReLU"
  bottom: "inception_4e/3x3_reduce"
  top: "inception_4e/3x3_reduce"
}
layer {
  name: "inception_4e/3x3"
  type: "Convolution"
  bottom: "inception_4e/3x3_reduce"
  top: "inception_4e/3x3"
  param {
    lr_mult: 1
    decay_mult: 1
  }
  param {
    lr_mult: 2
    decay_mult: 0
  }
  convolution_param {
    num_output: 320
    pad: 1
    kernel_size: 3
    weight_filler {
      type: "xavier"
    }
    bias_filler {
      type: "constant"
      value: 0.2
    }
  }
}
layer {
  name: "inception_4e/relu_3x3"
  type: "ReLU"
  bottom: "inception_4e/3x3"
  top: "inception_4e/3x3"
}
layer {
  name: "inception_4e/5x5_reduce"
  type: "Convolution"
  bottom: "inception_4d/output"
  top: "inception_4e/5x5_reduce"
  param {
    lr_mult: 1
    decay_mult: 1
  }
  param {
    lr_mult: 2
    decay_mult: 0
  }
  convolution_param {
    num_output: 32
    kernel_size: 1
    weight_filler {
      type: "xavier"
    }
    bias_filler {
      type: "constant"
      value: 0.2
    }
  }
}
layer {
  name: "inception_4e/relu_5x5_reduce"
  type: "ReLU"
  bottom: "inception_4e/5x5_reduce"
  top: "inception_4e/5x5_reduce"
}
layer {
  name: "inception_4e/5x5"
  type: "Convolution"
  bottom: "inception_4e/5x5_reduce"
  top: "inception_4e/5x5"
  param {
    lr_mult: 1
    decay_mult: 1
  }
  param {
    lr_mult: 2
    decay_mult: 0
  }
  convolution_param {
    num_output: 128
    pad: 2
    kernel_size: 5
    weight_filler {
      type: "xavier"
    }
    bias_filler {
      type: "constant"
      value: 0.2
    }
  }
}
layer {
  name: "inception_4e/relu_5x5"
  type: "ReLU"
  bottom: "inception_4e/5x5"
  top: "inception_4e/5x5"
}
layer {
  name: "inception_4e/pool"
  type: "Pooling"
  bottom: "inception_4d/output"
  top: "inception_4e/pool"
  pooling_param {
   
I1217 17:58:32.035127 15170 layer_factory.hpp:74] Creating layer data
I1217 17:58:32.035164 15170 net.cpp:84] Creating Layer data
I1217 17:58:32.035177 15170 net.cpp:338] data -> data
I1217 17:58:32.035226 15170 net.cpp:338] data -> label
I1217 17:58:32.035239 15170 net.cpp:113] Setting up data
I1217 17:58:32.035341 15170 db.cpp:34] Opened lmdb /home/coldmanck/kaggle/kaggle2_train_lmdb
I1217 17:58:32.035686 15170 data_layer.cpp:67] output data size: 80,3,224,224
I1217 17:58:32.048801 15170 net.cpp:120] Top shape: 80 3 224 224 (12042240)
I1217 17:58:32.048863 15170 net.cpp:120] Top shape: 80 (80)
I1217 17:58:32.048877 15170 layer_factory.hpp:74] Creating layer label_data_1_split
I1217 17:58:32.048904 15170 net.cpp:84] Creating Layer label_data_1_split
I1217 17:58:32.048916 15170 net.cpp:380] label_data_1_split <- label
I1217 17:58:32.048939 15170 net.cpp:338] label_data_1_split -> label_data_1_split_0
I1217 17:58:32.048957 15170 net.cpp:338] label_data_1_split -> label_data_1_split_1
I1217 17:58:32.048969 15170 net.cpp:338] label_data_1_split -> label_data_1_split_2
I1217 17:58:32.048980 15170 net.cpp:113] Setting up label_data_1_split
I1217 17:58:32.049013 15170 net.cpp:120] Top shape: 80 (80)
I1217 17:58:32.049037 15170 net.cpp:120] Top shape: 80 (80)
I1217 17:58:32.049046 15170 net.cpp:120] Top shape: 80 (80)
I1217 17:58:32.049063 15170 layer_factory.hpp:74] Creating layer conv1/7x7_s2
I1217 17:58:32.049083 15170 net.cpp:84] Creating Layer conv1/7x7_s2
I1217 17:58:32.049091 15170 net.cpp:380] conv1/7x7_s2 <- data
I1217 17:58:32.049103 15170 net.cpp:338] conv1/7x7_s2 -> conv1/7x7_s2
I1217 17:58:32.049119 15170 net.cpp:113] Setting up conv1/7x7_s2
I1217 17:58:32.551877 15170 net.cpp:120] Top shape: 80 64 112 112 (64225280)
I1217 17:58:32.552527 15170 layer_factory.hpp:74] Creating layer conv1/relu_7x7
I1217 17:58:32.552695 15170 net.cpp:84] Creating Layer conv1/relu_7x7
I1217 17:58:32.552707 15170 net.cpp:380] conv1/relu_7x7 <- conv1/7x7_s2
I1217 17:58:32.552723 15170 net.cpp:327] conv1/relu_7x7 -> conv1/7x7_s2 (in-place)
I1217 17:58:32.552742 15170 net.cpp:113] Setting up conv1/relu_7x7
I1217 17:58:32.561431 15170 net.cpp:120] Top shape: 80 64 112 112 (64225280)
I1217 17:58:32.561463 15170 layer_factory.hpp:74] Creating layer pool1/3x3_s2
I1217 17:58:32.561532 15170 net.cpp:84] Creating Layer pool1/3x3_s2
I1217 17:58:32.561544 15170 net.cpp:380] pool1/3x3_s2 <- conv1/7x7_s2
I1217 17:58:32.561558 15170 net.cpp:338] pool1/3x3_s2 -> pool1/3x3_s2
I1217 17:58:32.561570 15170 net.cpp:113] Setting up pool1/3x3_s2
I1217 17:58:32.561686 15170 net.cpp:120] Top shape: 80 64 56 56 (16056320)
I1217 17:58:32.561699 15170 layer_factory.hpp:74] Creating layer pool1/norm1
I1217 17:58:32.561722 15170 net.cpp:84] Creating Layer pool1/norm1
I1217 17:58:32.561729 15170 net.cpp:380] pool1/norm1 <- pool1/3x3_s2
I1217 17:58:32.561740 15170 net.cpp:338] pool1/norm1 -> pool1/norm1
I1217 17:58:32.561754 15170 net.cpp:113] Setting up pool1/norm1
I1217 17:58:32.561767 15170 net.cpp:120] Top shape: 80 64 56 56 (16056320)
I1217 17:58:32.561776 15170 layer_factory.hpp:74] Creating layer conv2/3x3_reduce
I1217 17:58:32.561790 15170 net.cpp:84] Creating Layer conv2/3x3_reduce
I1217 17:58:32.561799 15170 net.cpp:380] conv2/3x3_reduce <- pool1/norm1
I1217 17:58:32.561810 15170 net.cpp:338] conv2/3x3_reduce -> conv2/3x3_reduce
I1217 17:58:32.561823 15170 net.cpp:113] Setting up conv2/3x3_reduce
I1217 17:58:32.562386 15170 net.cpp:120] Top shape: 80 64 56 56 (16056320)
I1217 17:58:32.562410 15170 layer_factory.hpp:74] Creating layer conv2/relu_3x3_reduce
I1217 17:58:32.562423 15170 net.cpp:84] Creating Layer conv2/relu_3x3_reduce
I1217 17:58:32.562432 15170 net.cpp:380] conv2/relu_3x3_reduce <- conv2/3x3_reduce
I1217 17:58:32.562441 15170 net.cpp:327] conv2/relu_3x3_reduce -> conv2/3x3_reduce (in-place)
I1217 17:58:32.562453 15170 net.cpp:113] Setting up conv2/relu_3x3_reduce
I1217 17:58:32.562536 15170 net.cpp:120] Top shape: 80 64 56 56 (16056320)
I1217 17:58:32.562547 15170 layer_factory.hpp:74] Creating layer conv2/3x3
I1217 17:58:32.562564 15170 net.cpp:84] Creating Layer conv2/3x3
I1217 17:58:32.562572 15170 net.cpp:380] conv2/3x3 <- conv2/3x3_reduce
I1217 17:58:32.562585 15170 net.cpp:338] conv2/3x3 -> conv2/3x3
I1217 17:58:32.562598 15170 net.cpp:113] Setting up conv2/3x3
I1217 17:58:32.564527 15170 net.cpp:120] Top shape: 80 192 56 56 (48168960)
I1217 17:58:32.564553 15170 layer_factory.hpp:74] Creating layer conv2/relu_3x3
I1217 17:58:32.564563 15170 net.cpp:84] Creating Layer conv2/relu_3x3
I1217 17:58:32.564571 15170 net.cpp:380] conv2/relu_3x3 <- conv2/3x3
I1217 17:58:32.564582 15170 net.cpp:327] conv2/relu_3x3 -> conv2/3x3 (in-place)
I1217 17:58:32.564594 15170 net.cpp:113] Setting up conv2/relu_3x3
I1217 17:58:32.564898 15170 net.cpp:120] Top shape: 80 192 56 56 (48168960)
I1217 17:58:32.564914 15170 layer_factory.hpp:74] Creating layer conv2/norm2
I1217 17:58:32.564926 15170 net.cpp:84] Creating Layer conv2/norm2
I1217 17:58:32.564934 15170 net.cpp:380] conv2/norm2 <- conv2/3x3
I1217 17:58:32.564949 15170 net.cpp:338] conv2/norm2 -> conv2/norm2
I1217 17:58:32.564960 15170 net.cpp:113] Setting up conv2/norm2
I1217 17:58:32.564972 15170 net.cpp:120] Top shape: 80 192 56 56 (48168960)
I1217 17:58:32.565001 15170 layer_factory.hpp:74] Creating layer pool2/3x3_s2
I1217 17:58:32.565029 15170 net.cpp:84] Creating Layer pool2/3x3_s2
I1217 17:58:32.565037 15170 net.cpp:380] pool2/3x3_s2 <- conv2/norm2
I1217 17:58:32.565047 15170 net.cpp:338] pool2/3x3_s2 -> pool2/3x3_s2
I1217 17:58:32.565064 15170 net.cpp:113] Setting up pool2/3x3_s2
I1217 17:58:32.565155 15170 net.cpp:120] Top shape: 80 192 28 28 (12042240)
I1217 17:58:32.565163 15170 layer_factory.hpp:74] Creating layer pool2/3x3_s2_pool2/3x3_s2_0_split
I1217 17:58:32.565173 15170 net.cpp:84] Creating Layer pool2/3x3_s2_pool2/3x3_s2_0_split
I1217 17:58:32.565181 15170 net.cpp:380] pool2/3x3_s2_pool2/3x3_s2_0_split <- pool2/3x3_s2
I1217 17:58:32.565192 15170 net.cpp:338] pool2/3x3_s2_pool2/3x3_s2_0_split -> pool2/3x3_s2_pool2/3x3_s2_0_split_0
I1217 17:58:32.565203 15170 net.cpp:338] pool2/3x3_s2_pool2/3x3_s2_0_split -> pool2/3x3_s2_pool2/3x3_s2_0_split_1
I1217 17:58:32.565214 15170 net.cpp:338] pool2/3x3_s2_pool2/3x3_s2_0_split -> pool2/3x3_s2_pool2/3x3_s2_0_split_2
I1217 17:58:32.565224 15170 net.cpp:338] pool2/3x3_s2_pool2/3x3_s2_0_split -> pool2/3x3_s2_pool2/3x3_s2_0_split_3
I1217 17:58:32.565233 15170 net.cpp:113] Setting up pool2/3x3_s2_pool2/3x3_s2_0_split
I1217 17:58:32.565245 15170 net.cpp:120] Top shape: 80 192 28 28 (12042240)
I1217 17:58:32.565254 15170 net.cpp:120] Top shape: 80 192 28 28 (12042240)
I1217 17:58:32.565263 15170 net.cpp:120] Top shape: 80 192 28 28 (12042240)
I1217 17:58:32.565271 15170 net.cpp:120] Top shape: 80 192 28 28 (12042240)
I1217 17:58:32.565279 15170 layer_factory.hpp:74] Creating layer inception_3a/1x1
I1217 17:58:32.565290 15170 net.cpp:84] Creating Layer inception_3a/1x1
I1217 17:58:32.565299 15170 net.cpp:380] inception_3a/1x1 <- pool2/3x3_s2_pool2/3x3_s2_0_split_0
I1217 17:58:32.565309 15170 net.cpp:338] inception_3a/1x1 -> inception_3a/1x1
I1217 17:58:32.565321 15170 net.cpp:113] Setting up inception_3a/1x1
I1217 17:58:32.565970 15170 net.cpp:120] Top shape: 80 64 28 28 (4014080)
I1217 17:58:32.565992 15170 layer_factory.hpp:74] Creating layer inception_3a/relu_1x1
I1217 17:58:32.566004 15170 net.cpp:84] Creating Layer inception_3a/relu_1x1
I1217 17:58:32.566011 15170 net.cpp:380] inception_3a/relu_1x1 <- inception_3a/1x1
I1217 17:58:32.566022 15170 net.cpp:327] inception_3a/relu_1x1 -> inception_3a/1x1 (in-place)
I1217 17:58:32.566032 15170 net.cpp:113] Setting up inception_3a/relu_1x1
I1217 17:58:32.566125 15170 net.cpp:120] Top shape: 80 64 28 28 (4014080)
I1217 17:58:32.566135 15170 layer_factory.hpp:74] Creating layer inception_3a/3x3_reduce
I1217 17:58:32.566146 15170 net.cpp:84] Creating Layer inception_3a/3x3_reduce
I1217 17:58:32.566154 15170 net.cpp:380] inception_3a/3x3_reduce <- pool2/3x3_s2_pool2/3x3_s2_0_split_1
I1217 17:58:32.566166 15170 net.cpp:338] inception_3a/3x3_reduce -> inception_3a/3x3_reduce
I1217 17:58:32.566179 15170 net.cpp:113] Setting up inception_3a/3x3_reduce
I1217 17:58:32.566932 15170 net.cpp:120] Top shape: 80 96 28 28 (6021120)
I1217 17:58:32.566956 15170 layer_factory.hpp:74] Creating layer inception_3a/relu_3x3_reduce
I1217 17:58:32.566972 15170 net.cpp:84] Creating Layer inception_3a/relu_3x3_reduce
I1217 17:58:32.566980 15170 net.cpp:380] inception_3a/relu_3x3_reduce <- inception_3a/3x3_reduce
I1217 17:58:32.566990 15170 net.cpp:327] inception_3a/relu_3x3_reduce -> inception_3a/3x3_reduce (in-place)
I1217 17:58:32.567000 15170 net.cpp:113] Setting up inception_3a/relu_3x3_reduce
I1217 17:58:32.567095 15170 net.cpp:120] Top shape: 80 96 28 28 (6021120)
I1217 17:58:32.567104 15170 layer_factory.hpp:74] Creating layer inception_3a/3x3
I1217 17:58:32.567117 15170 net.cpp:84] Creating Layer inception_3a/3x3
I1217 17:58:32.567126 15170 net.cpp:380] inception_3a/3x3 <- inception_3a/3x3_reduce
I1217 17:58:32.567138 15170 net.cpp:338] inception_3a/3x3 -> inception_3a/3x3
I1217 17:58:32.567150 15170 net.cpp:113] Setting up inception_3a/3x3
I1217 17:58:32.587859 15170 net.cpp:120] Top shape: 80 128 28 28 (8028160)
I1217 17:58:32.587893 15170 layer_factory.hpp:74] Creating layer inception_3a/relu_3x3
I1217 17:58:32.587920 15170 net.cpp:84] Creating Layer inception_3a/relu_3x3
I1217 17:58:32.587940 15170 net.cpp:380] inception_3a/relu_3x3 <- inception_3a/3x3
I1217 17:58:32.587951 15170 net.cpp:327] inception_3a/relu_3x3 -> inception_3a/3x3 (in-place)
I1217 17:58:32.587966 15170 net.cpp:113] Setting up inception_3a/relu_3x3
I1217 17:58:32.588353 15170 net.cpp:120] Top shape: 80 128 28 28 (8028160)
I1217 17:58:32.588371 15170 layer_factory.hpp:74] Creating layer inception_3a/5x5_reduce
I1217 17:58:32.588390 15170 net.cpp:84] Creating Layer inception_3a/5x5_reduce
I1217 17:58:32.588398 15170 net.cpp:380] inception_3a/5x5_reduce <- pool2/3x3_s2_pool2/3x3_s2_0_split_2
I1217 17:58:32.588409 15170 net.cpp:338] inception_3a/5x5_reduce -> inception_3a/5x5_reduce
I1217 17:58:32.588426 15170 net.cpp:113] Setting up inception_3a/5x5_reduce
I1217 17:58:32.589705 15170 net.cpp:120] Top shape: 80 16 28 28 (1003520)
I1217 17:58:32.589732 15170 layer_factory.hpp:74] Creating layer inception_3a/relu_5x5_reduce
I1217 17:58:32.589745 15170 net.cpp:84] Creating Layer inception_3a/relu_5x5_reduce
I1217 17:58:32.589753 15170 net.cpp:380] inception_3a/relu_5x5_reduce <- inception_3a/5x5_reduce
I1217 17:58:32.589784 15170 net.cpp:327] inception_3a/relu_5x5_reduce -> inception_3a/5x5_reduce (in-place)
I1217 17:58:32.589800 15170 net.cpp:113] Setting up inception_3a/relu_5x5_reduce
I1217 17:58:32.589901 15170 net.cpp:120] Top shape: 80 16 28 28 (1003520)
I1217 17:58:32.589915 15170 layer_factory.hpp:74] Creating layer inception_3a/5x5
I1217 17:58:32.589931 15170 net.cpp:84] Creating Layer inception_3a/5x5
I1217 17:58:32.589938 15170 net.cpp:380] inception_3a/5x5 <- inception_3a/5x5_reduce
I1217 17:58:32.589954 15170 net.cpp:338] inception_3a/5x5 -> inception_3a/5x5
I1217 17:58:32.589970 15170 net.cpp:113] Setting up inception_3a/5x5
I1217 17:58:32.598671 15170 net.cpp:120] Top shape: 80 32 28 28 (2007040)
I1217 17:58:32.598732 15170 layer_factory.hpp:74] Creating layer inception_3a/relu_5x5
I1217 17:58:32.598748 15170 net.cpp:84] Creating Layer inception_3a/relu_5x5
I1217 17:58:32.598757 15170 net.cpp:380] inception_3a/relu_5x5 <- inception_3a/5x5
I1217 17:58:32.598770 15170 net.cpp:327] inception_3a/relu_5x5 -> inception_3a/5x5 (in-place)
I1217 17:58:32.598784 15170 net.cpp:113] Setting up inception_3a/relu_5x5
I1217 17:58:32.598876 15170 net.cpp:120] Top shape: 80 32 28 28 (2007040)
I1217 17:58:32.598886 15170 layer_factory.hpp:74] Creating layer inception_3a/pool
I1217 17:58:32.598899 15170 layer_factory.cpp:56] CUDNN does not support padding or multiple tops. Using Caffe's own pooling layer.
I1217 17:58:32.598912 15170 net.cpp:84] Creating Layer inception_3a/pool
I1217 17:58:32.598919 15170 net.cpp:380] inception_3a/pool <- pool2/3x3_s2_pool2/3x3_s2_0_split_3
I1217 17:58:32.598930 15170 net.cpp:338] inception_3a/pool -> inception_3a/pool
I1217 17:58:32.598942 15170 net.cpp:113] Setting up inception_3a/pool
I1217 17:58:32.598956 15170 net.cpp:120] Top shape: 80 192 28 28 (12042240)
I1217 17:58:32.598964 15170 layer_factory.hpp:74] Creating layer inception_3a/pool_proj
I1217 17:58:32.598981 15170 net.cpp:84] Creating Layer inception_3a/pool_proj
I1217 17:58:32.598989 15170 net.cpp:380] inception_3a/pool_proj <- inception_3a/pool
I1217 17:58:32.599004 15170 net.cpp:338] inception_3a/pool_proj -> inception_3a/pool_proj
I1217 17:58:32.599016 15170 net.cpp:113] Setting up inception_3a/pool_proj
I1217 17:58:32.600167 15170 net.cpp:120] Top shape: 80 32 28 28 (2007040)
I1217 17:58:32.600194 15170 layer_factory.hpp:74] Creating layer inception_3a/relu_pool_proj
I1217 17:58:32.600205 15170 net.cpp:84] Creating Layer inception_3a/relu_pool_proj
I1217 17:58:32.600214 15170 net.cpp:380] inception_3a/relu_pool_proj <- inception_3a/pool_proj
I1217 17:58:32.600222 15170 net.cpp:327] inception_3a/relu_pool_proj -> inception_3a/pool_proj (in-place)
I1217 17:58:32.600234 15170 net.cpp:113] Setting up inception_3a/relu_pool_proj
I1217 17:58:32.600324 15170 net.cpp:120] Top shape: 80 32 28 28 (2007040)
I1217 17:58:32.600333 15170 layer_factory.hpp:74] Creating layer inception_3a/output
I1217 17:58:32.600384 15170 net.cpp:84] Creating Layer inception_3a/output
I1217 17:58:32.600392 15170 net.cpp:380] inception_3a/output <- inception_3a/1x1
I1217 17:58:32.600401 15170 net.cpp:380] inception_3a/output <- inception_3a/3x3
I1217 17:58:32.600409 15170 net.cpp:380] inception_3a/output <- inception_3a/5x5
I1217 17:58:32.600417 15170 net.cpp:380] inception_3a/output <- inception_3a/pool_proj
I1217 17:58:32.600426 15170 net.cpp:338] inception_3a/output -> inception_3a/output
I1217 17:58:32.600437 15170 net.cpp:113] Setting up inception_3a/output
I1217 17:58:32.600450 15170 net.cpp:120] Top shape: 80 256 28 28 (16056320)
I1217 17:58:32.600457 15170 layer_factory.hpp:74] Creating layer inception_3a/output_inception_3a/output_0_split
I1217 17:58:32.600467 15170 net.cpp:84] Creating Layer inception_3a/output_inception_3a/output_0_split
I1217 17:58:32.600474 15170 net.cpp:380] inception_3a/output_inception_3a/output_0_split <- inception_3a/output
I1217 17:58:32.600486 15170 net.cpp:338] inception_3a/output_inception_3a/output_0_split -> inception_3a/output_inception_3a/output_0_split_0
I1217 17:58:32.600497 15170 net.cpp:338] inception_3a/output_inception_3a/output_0_split -> inception_3a/output_inception_3a/output_0_split_1
I1217 17:58:32.600507 15170 net.cpp:338] inception_3a/output_inception_3a/output_0_split -> inception_3a/output_inception_3a/output_0_split_2
I1217 17:58:32.600517 15170 net.cpp:338] inception_3a/output_inception_3a/output_0_split -> inception_3a/output_inception_3a/output_0_split_3
I1217 17:58:32.600527 15170 net.cpp:113] Setting up inception_3a/output_inception_3a/output_0_split
I1217 17:58:32.600539 15170 net.cpp:120] Top shape: 80 256 28 28 (16056320)
I1217 17:58:32.600548 15170 net.cpp:120] Top shape: 80 256 28 28 (16056320)
I1217 17:58:32.600556 15170 net.cpp:120] Top shape: 80 256 28 28 (16056320)
I1217 17:58:32.600564 15170 net.cpp:120] Top shape: 80 256 28 28 (16056320)
I1217 17:58:32.600571 15170 layer_factory.hpp:74] Creating layer inception_3b/1x1
I1217 17:58:32.600582 15170 net.cpp:84] Creating Layer inception_3b/1x1
I1217 17:58:32.600589 15170 net.cpp:380] inception_3b/1x1 <- inception_3a/output_inception_3a/output_0_split_0
I1217 17:58:32.600600 15170 net.cpp:338] inception_3b/1x1 -> inception_3b/1x1
I1217 17:58:32.600611 15170 net.cpp:113] Setting up inception_3b/1x1
I1217 17:58:32.602121 15170 net.cpp:120] Top shape: 80 128 28 28 (8028160)
I1217 17:58:32.602146 15170 layer_factory.hpp:74] Creating layer inception_3b/relu_1x1
I1217 17:58:32.602159 15170 net.cpp:84] Creating Layer inception_3b/relu_1x1
I1217 17:58:32.602167 15170 net.cpp:380] inception_3b/relu_1x1 <- inception_3b/1x1
I1217 17:58:32.602177 15170 net.cpp:327] inception_3b/relu_1x1 -> inception_3b/1x1 (in-place)
I1217 17:58:32.602188 15170 net.cpp:113] Setting up inception_3b/relu_1x1
I1217 17:58:32.607132 15170 net.cpp:120] Top shape: 80 128 28 28 (8028160)
I1217 17:58:32.607184 15170 layer_factory.hpp:74] Creating layer inception_3b/3x3_reduce
I1217 17:58:32.607204 15170 net.cpp:84] Creating Layer inception_3b/3x3_reduce
I1217 17:58:32.607215 15170 net.cpp:380] inception_3b/3x3_reduce <- inception_3a/output_inception_3a/output_0_split_1
I1217 17:58:32.607231 15170 net.cpp:338] inception_3b/3x3_reduce -> inception_3b/3x3_reduce
I1217 17:58:32.607249 15170 net.cpp:113] Setting up inception_3b/3x3_reduce
I1217 17:58:32.608490 15170 net.cpp:120] Top shape: 80 128 28 28 (8028160)
I1217 17:58:32.608513 15170 layer_factory.hpp:74] Creating layer inception_3b/relu_3x3_reduce
I1217 17:58:32.608531 15170 net.cpp:84] Creating Layer inception_3b/relu_3x3_reduce
I1217 17:58:32.608539 15170 net.cpp:380] inception_3b/relu_3x3_reduce <- inception_3b/3x3_reduce
I1217 17:58:32.608549 15170 net.cpp:327] inception_3b/relu_3x3_reduce -> inception_3b/3x3_reduce (in-place)
I1217 17:58:32.608561 15170 net.cpp:113] Setting up inception_3b/relu_3x3_reduce
I1217 17:58:32.608651 15170 net.cpp:120] Top shape: 80 128 28 28 (8028160)
I1217 17:58:32.608661 15170 layer_factory.hpp:74] Creating layer inception_3b/3x3
I1217 17:58:32.608698 15170 net.cpp:84] Creating Layer inception_3b/3x3
I1217 17:58:32.608721 15170 net.cpp:380] inception_3b/3x3 <- inception_3b/3x3_reduce
I1217 17:58:32.608731 15170 net.cpp:338] inception_3b/3x3 -> inception_3b/3x3
I1217 17:58:32.608743 15170 net.cpp:113] Setting up inception_3b/3x3
I1217 17:58:32.612646 15170 net.cpp:120] Top shape: 80 192 28 28 (12042240)
I1217 17:58:32.612671 15170 layer_factory.hpp:74] Creating layer inception_3b/relu_3x3
I1217 17:58:32.612682 15170 net.cpp:84] Creating Layer inception_3b/relu_3x3
I1217 17:58:32.612690 15170 net.cpp:380] inception_3b/relu_3x3 <- inception_3b/3x3
I1217 17:58:32.612702 15170 net.cpp:327] inception_3b/relu_3x3 -> inception_3b/3x3 (in-place)
I1217 17:58:32.612714 15170 net.cpp:113] Setting up inception_3b/relu_3x3
I1217 17:58:32.612809 15170 net.cpp:120] Top shape: 80 192 28 28 (12042240)
I1217 17:58:32.612818 15170 layer_factory.hpp:74] Creating layer inception_3b/5x5_reduce
I1217 17:58:32.612833 15170 net.cpp:84] Creating Layer inception_3b/5x5_reduce
I1217 17:58:32.612839 15170 net.cpp:380] inception_3b/5x5_reduce <- inception_3a/output_inception_3a/output_0_split_2
I1217 17:58:32.612853 15170 net.cpp:338] inception_3b/5x5_reduce -> inception_3b/5x5_reduce
I1217 17:58:32.612864 15170 net.cpp:113] Setting up inception_3b/5x5_reduce
I1217 17:58:32.614171 15170 net.cpp:120] Top shape: 80 32 28 28 (2007040)
I1217 17:58:32.614194 15170 layer_factory.hpp:74] Creating layer inception_3b/relu_5x5_reduce
I1217 17:58:32.614207 15170 net.cpp:84] Creating Layer inception_3b/relu_5x5_reduce
I1217 17:58:32.614215 15170 net.cpp:380] inception_3b/relu_5x5_reduce <- inception_3b/5x5_reduce
I1217 17:58:32.614225 15170 net.cpp:327] inception_3b/relu_5x5_reduce -> inception_3b/5x5_reduce (in-place)
I1217 17:58:32.614236 15170 net.cpp:113] Setting up inception_3b/relu_5x5_reduce
I1217 17:58:32.614326 15170 net.cpp:120] Top shape: 80 32 28 28 (2007040)
I1217 17:58:32.614336 15170 layer_factory.hpp:74] Creating layer inception_3b/5x5
I1217 17:58:32.614352 15170 net.cpp:84] Creating Layer inception_3b/5x5
I1217 17:58:32.614359 15170 net.cpp:380] inception_3b/5x5 <- inception_3b/5x5_reduce
I1217 17:58:32.614372 15170 net.cpp:338] inception_3b/5x5 -> inception_3b/5x5
I1217 17:58:32.614388 15170 net.cpp:113] Setting up inception_3b/5x5
I1217 17:58:32.616986 15170 net.cpp:120] Top shape: 80 96 28 28 (6021120)
I1217 17:58:32.617009 15170 layer_factory.hpp:74] Creating layer inception_3b/relu_5x5
I1217 17:58:32.617022 15170 net.cpp:84] Creating Layer inception_3b/relu_5x5
I1217 17:58:32.617030 15170 net.cpp:380] inception_3b/relu_5x5 <- inception_3b/5x5
I1217 17:58:32.617041 15170 net.cpp:327] inception_3b/relu_5x5 -> inception_3b/5x5 (in-place)
I1217 17:58:32.617053 15170 net.cpp:113] Setting up inception_3b/relu_5x5
I1217 17:58:32.621206 15170 net.cpp:120] Top shape: 80 96 28 28 (6021120)
I1217 17:58:32.621225 15170 layer_factory.hpp:74] Creating layer inception_3b/pool
I1217 17:58:32.621235 15170 layer_factory.cpp:56] CUDNN does not support padding or multiple tops. Using Caffe's own pooling layer.
I1217 17:58:32.621244 15170 net.cpp:84] Creating Layer inception_3b/pool
I1217 17:58:32.621253 15170 net.cpp:380] inception_3b/pool <- inception_3a/output_inception_3a/output_0_split_3
I1217 17:58:32.621266 15170 net.cpp:338] inception_3b/pool -> inception_3b/pool
I1217 17:58:32.621279 15170 net.cpp:113] Setting up inception_3b/pool
I1217 17:58:32.621292 15170 net.cpp:120] Top shape: 80 256 28 28 (16056320)
I1217 17:58:32.621300 15170 layer_factory.hpp:74] Creating layer inception_3b/pool_proj
I1217 17:58:32.621311 15170 net.cpp:84] Creating Layer inception_3b/pool_proj
I1217 17:58:32.621318 15170 net.cpp:380] inception_3b/pool_proj <- inception_3b/pool
I1217 17:58:32.621330 15170 net.cpp:338] inception_3b/pool_proj -> inception_3b/pool_proj
I1217 17:58:32.621341 15170 net.cpp:113] Setting up inception_3b/pool_proj
I1217 17:58:32.622642 15170 net.cpp:120] Top shape: 80 64 28 28 (4014080)
I1217 17:58:32.622663 15170 layer_factory.hpp:74] Creating layer inception_3b/relu_pool_proj
I1217 17:58:32.622680 15170 net.cpp:84] Creating Layer inception_3b/relu_pool_proj
I1217 17:58:32.622697 15170 net.cpp:380] inception_3b/relu_pool_proj <- inception_3b/pool_proj
I1217 17:58:32.622709 15170 net.cpp:327] inception_3b/relu_pool_proj -> inception_3b/pool_proj (in-place)
I1217 17:58:32.622720 15170 net.cpp:113] Setting up inception_3b/relu_pool_proj
I1217 17:58:32.622817 15170 net.cpp:120] Top shape: 80 64 28 28 (4014080)
I1217 17:58:32.622825 15170 layer_factory.hpp:74] Creating layer inception_3b/output
I1217 17:58:32.622838 15170 net.cpp:84] Creating Layer inception_3b/output
I1217 17:58:32.622845 15170 net.cpp:380] inception_3b/output <- inception_3b/1x1
I1217 17:58:32.622854 15170 net.cpp:380] inception_3b/output <- inception_3b/3x3
I1217 17:58:32.622862 15170 net.cpp:380] inception_3b/output <- inception_3b/5x5
I1217 17:58:32.622870 15170 net.cpp:380] inception_3b/output <- inception_3b/pool_proj
I1217 17:58:32.622879 15170 net.cpp:338] inception_3b/output -> inception_3b/output
I1217 17:58:32.622889 15170 net.cpp:113] Setting up inception_3b/output
I1217 17:58:32.622902 15170 net.cpp:120] Top shape: 80 480 28 28 (30105600)
I1217 17:58:32.622910 15170 layer_factory.hpp:74] Creating layer pool3/3x3_s2
I1217 17:58:32.622922 15170 net.cpp:84] Creating Layer pool3/3x3_s2
I1217 17:58:32.622931 15170 net.cpp:380] pool3/3x3_s2 <- inception_3b/output
I1217 17:58:32.622941 15170 net.cpp:338] pool3/3x3_s2 -> pool3/3x3_s2
I1217 17:58:32.622949 15170 net.cpp:113] Setting up pool3/3x3_s2
I1217 17:58:32.623041 15170 net.cpp:120] Top shape: 80 480 14 14 (7526400)
I1217 17:58:32.623051 15170 layer_factory.hpp:74] Creating layer pool3/3x3_s2_pool3/3x3_s2_0_split
I1217 17:58:32.623061 15170 net.cpp:84] Creating Layer pool3/3x3_s2_pool3/3x3_s2_0_split
I1217 17:58:32.623069 15170 net.cpp:380] pool3/3x3_s2_pool3/3x3_s2_0_split <- pool3/3x3_s2
I1217 17:58:32.623077 15170 net.cpp:338] pool3/3x3_s2_pool3/3x3_s2_0_split -> pool3/3x3_s2_pool3/3x3_s2_0_split_0
I1217 17:58:32.623088 15170 net.cpp:338] pool3/3x3_s2_pool3/3x3_s2_0_split -> pool3/3x3_s2_pool3/3x3_s2_0_split_1
I1217 17:58:32.623098 15170 net.cpp:338] pool3/3x3_s2_pool3/3x3_s2_0_split -> pool3/3x3_s2_pool3/3x3_s2_0_split_2
I1217 17:58:32.623111 15170 net.cpp:338] pool3/3x3_s2_pool3/3x3_s2_0_split -> pool3/3x3_s2_pool3/3x3_s2_0_split_3
I1217 17:58:32.623121 15170 net.cpp:113] Setting up pool3/3x3_s2_pool3/3x3_s2_0_split
I1217 17:58:32.623132 15170 net.cpp:120] Top shape: 80 480 14 14 (7526400)
I1217 17:58:32.623141 15170 net.cpp:120] Top shape: 80 480 14 14 (7526400)
I1217 17:58:32.623149 15170 net.cpp:120] Top shape: 80 480 14 14 (7526400)
I1217 17:58:32.623157 15170 net.cpp:120] Top shape: 80 480 14 14 (7526400)
I1217 17:58:32.623164 15170 layer_factory.hpp:74] Creating layer inception_4a/1x1
I1217 17:58:32.623178 15170 net.cpp:84] Creating Layer inception_4a/1x1
I1217 17:58:32.623185 15170 net.cpp:380] inception_4a/1x1 <- pool3/3x3_s2_pool3/3x3_s2_0_split_0
I1217 17:58:32.623195 15170 net.cpp:338] inception_4a/1x1 -> inception_4a/1x1
I1217 17:58:32.623206 15170 net.cpp:113] Setting up inception_4a/1x1
I1217 17:58:32.625506 15170 net.cpp:120] Top shape: 80 192 14 14 (3010560)
I1217 17:58:32.625531 15170 layer_factory.hpp:74] Creating layer inception_4a/relu_1x1
I1217 17:58:32.625542 15170 net.cpp:84] Creating Layer inception_4a/relu_1x1
I1217 17:58:32.625552 15170 net.cpp:380] inception_4a/relu_1x1 <- inception_4a/1x1
I1217 17:58:32.625562 15170 net.cpp:327] inception_4a/relu_1x1 -> inception_4a/1x1 (in-place)
I1217 17:58:32.625573 15170 net.cpp:113] Setting up inception_4a/relu_1x1
I1217 17:58:32.626317 15170 net.cpp:120] Top shape: 80 192 14 14 (3010560)
I1217 17:58:32.626333 15170 layer_factory.hpp:74] Creating layer inception_4a/3x3_reduce
I1217 17:58:32.626349 15170 net.cpp:84] Creating Layer inception_4a/3x3_reduce
I1217 17:58:32.626358 15170 net.cpp:380] inception_4a/3x3_reduce <- pool3/3x3_s2_pool3/3x3_s2_0_split_1
I1217 17:58:32.626369 15170 net.cpp:338] inception_4a/3x3_reduce -> inception_4a/3x3_reduce
I1217 17:58:32.626382 15170 net.cpp:113] Setting up inception_4a/3x3_reduce
I1217 17:58:32.629017 15170 net.cpp:120] Top shape: 80 96 14 14 (1505280)
I1217 17:58:32.629086 15170 layer_factory.hpp:74] Creating layer inception_4a/relu_3x3_reduce
I1217 17:58:32.629102 15170 net.cpp:84] Creating Layer inception_4a/relu_3x3_reduce
I1217 17:58:32.629112 15170 net.cpp:380] inception_4a/relu_3x3_reduce <- inception_4a/3x3_reduce
I1217 17:58:32.629122 15170 net.cpp:327] inception_4a/relu_3x3_reduce -> inception_4a/3x3_reduce (in-place)
I1217 17:58:32.629132 15170 net.cpp:113] Setting up inception_4a/relu_3x3_reduce
I1217 17:58:32.629236 15170 net.cpp:120] Top shape: 80 96 14 14 (1505280)
I1217 17:58:32.629246 15170 layer_factory.hpp:74] Creating layer inception_4a/3x3
I1217 17:58:32.629258 15170 net.cpp:84] Creating Layer inception_4a/3x3
I1217 17:58:32.629266 15170 net.cpp:380] inception_4a/3x3 <- inception_4a/3x3_reduce
I1217 17:58:32.629278 15170 net.cpp:338] inception_4a/3x3 -> inception_4a/3x3
I1217 17:58:32.629290 15170 net.cpp:113] Setting up inception_4a/3x3
I1217 17:58:32.632417 15170 net.cpp:120] Top shape: 80 208 14 14 (3261440)
I1217 17:58:32.632441 15170 layer_factory.hpp:74] Creating layer inception_4a/relu_3x3
I1217 17:58:32.632452 15170 net.cpp:84] Creating Layer inception_4a/relu_3x3
I1217 17:58:32.632459 15170 net.cpp:380] inception_4a/relu_3x3 <- inception_4a/3x3
I1217 17:58:32.632472 15170 net.cpp:327] inception_4a/relu_3x3 -> inception_4a/3x3 (in-place)
I1217 17:58:32.632483 15170 net.cpp:113] Setting up inception_4a/relu_3x3
I1217 17:58:32.632570 15170 net.cpp:120] Top shape: 80 208 14 14 (3261440)
I1217 17:58:32.632580 15170 layer_factory.hpp:74] Creating layer inception_4a/5x5_reduce
I1217 17:58:32.632596 15170 net.cpp:84] Creating Layer inception_4a/5x5_reduce
I1217 17:58:32.632603 15170 net.cpp:380] inception_4a/5x5_reduce <- pool3/3x3_s2_pool3/3x3_s2_0_split_2
I1217 17:58:32.632614 15170 net.cpp:338] inception_4a/5x5_reduce -> inception_4a/5x5_reduce
I1217 17:58:32.632625 15170 net.cpp:113] Setting up inception_4a/5x5_reduce
I1217 17:58:32.633846 15170 net.cpp:120] Top shape: 80 16 14 14 (250880)
I1217 17:58:32.633872 15170 layer_factory.hpp:74] Creating layer inception_4a/relu_5x5_reduce
I1217 17:58:32.633883 15170 net.cpp:84] Creating Layer inception_4a/relu_5x5_reduce
I1217 17:58:32.633891 15170 net.cpp:380] inception_4a/relu_5x5_reduce <- inception_4a/5x5_reduce
I1217 17:58:32.633901 15170 net.cpp:327] inception_4a/relu_5x5_reduce -> inception_4a/5x5_reduce (in-place)
I1217 17:58:32.633913 15170 net.cpp:113] Setting up inception_4a/relu_5x5_reduce
I1217 17:58:32.634004 15170 net.cpp:120] Top shape: 80 16 14 14 (250880)
I1217 17:58:32.634019 15170 layer_factory.hpp:74] Creating layer inception_4a/5x5
I1217 17:58:32.634032 15170 net.cpp:84] Creating Layer inception_4a/5x5
I1217 17:58:32.634038 15170 net.cpp:380] inception_4a/5x5 <- inception_4a/5x5_reduce
I1217 17:58:32.634050 15170 net.cpp:338] inception_4a/5x5 -> inception_4a/5x5
I1217 17:58:32.634063 15170 net.cpp:113] Setting up inception_4a/5x5
I1217 17:58:32.635339 15170 net.cpp:120] Top shape: 80 48 14 14 (752640)
I1217 17:58:32.635363 15170 layer_factory.hpp:74] Creating layer inception_4a/relu_5x5
I1217 17:58:32.635375 15170 net.cpp:84] Creating Layer inception_4a/relu_5x5
I1217 17:58:32.635382 15170 net.cpp:380] inception_4a/relu_5x5 <- inception_4a/5x5
I1217 17:58:32.635392 15170 net.cpp:327] inception_4a/relu_5x5 -> inception_4a/5x5 (in-place)
I1217 17:58:32.635406 15170 net.cpp:113] Setting up inception_4a/relu_5x5
I1217 17:58:32.635712 15170 net.cpp:120] Top shape: 80 48 14 14 (752640)
I1217 17:58:32.635726 15170 layer_factory.hpp:74] Creating layer inception_4a/pool
I1217 17:58:32.635736 15170 layer_factory.cpp:56] CUDNN does not support padding or multiple tops. Using Caffe's own pooling layer.
I1217 17:58:32.635746 15170 net.cpp:84] Creating Layer inception_4a/pool
I1217 17:58:32.635753 15170 net.cpp:380] inception_4a/pool <- pool3/3x3_s2_pool3/3x3_s2_0_split_3
I1217 17:58:32.635763 15170 net.cpp:338] inception_4a/pool -> inception_4a/pool
I1217 17:58:32.635774 15170 net.cpp:113] Setting up inception_4a/pool
I1217 17:58:32.635795 15170 net.cpp:120] Top shape: 80 480 14 14 (7526400)
I1217 17:58:32.635812 15170 layer_factory.hpp:74] Creating layer inception_4a/pool_proj
I1217 17:58:32.635828 15170 net.cpp:84] Creating Layer inception_4a/pool_proj
I1217 17:58:32.635834 15170 net.cpp:380] inception_4a/pool_proj <- inception_4a/pool
I1217 17:58:32.635846 15170 net.cpp:338] inception_4a/pool_proj -> inception_4a/pool_proj
I1217 17:58:32.635857 15170 net.cpp:113] Setting up inception_4a/pool_proj
I1217 17:58:32.636731 15170 net.cpp:120] Top shape: 80 64 14 14 (1003520)
I1217 17:58:32.636752 15170 layer_factory.hpp:74] Creating layer inception_4a/relu_pool_proj
I1217 17:58:32.636765 15170 net.cpp:84] Creating Layer inception_4a/relu_pool_proj
I1217 17:58:32.636772 15170 net.cpp:380] inception_4a/relu_pool_proj <- inception_4a/pool_proj
I1217 17:58:32.636782 15170 net.cpp:327] inception_4a/relu_pool_proj -> inception_4a/pool_proj (in-place)
I1217 17:58:32.636793 15170 net.cpp:113] Setting up inception_4a/relu_pool_proj
I1217 17:58:32.636885 15170 net.cpp:120] Top shape: 80 64 14 14 (1003520)
I1217 17:58:32.636895 15170 layer_factory.hpp:74] Creating layer inception_4a/output
I1217 17:58:32.636906 15170 net.cpp:84] Creating Layer inception_4a/output
I1217 17:58:32.636914 15170 net.cpp:380] inception_4a/output <- inception_4a/1x1
I1217 17:58:32.636922 15170 net.cpp:380] inception_4a/output <- inception_4a/3x3
I1217 17:58:32.636930 15170 net.cpp:380] inception_4a/output <- inception_4a/5x5
I1217 17:58:32.636939 15170 net.cpp:380] inception_4a/output <- inception_4a/pool_proj
I1217 17:58:32.636947 15170 net.cpp:338] inception_4a/output -> inception_4a/output
I1217 17:58:32.636957 15170 net.cpp:113] Setting up inception_4a/output
I1217 17:58:32.636970 15170 net.cpp:120] Top shape: 80 512 14 14 (8028160)
I1217 17:58:32.636976 15170 layer_factory.hpp:74] Creating layer inception_4a/output_inception_4a/output_0_split
I1217 17:58:32.636987 15170 net.cpp:84] Creating Layer inception_4a/output_inception_4a/output_0_split
I1217 17:58:32.636994 15170 net.cpp:380] inception_4a/output_inception_4a/output_0_split <- inception_4a/output
I1217 17:58:32.637004 15170 net.cpp:338] inception_4a/output_inception_4a/output_0_split -> inception_4a/output_inception_4a/output_0_split_0
I1217 17:58:32.637015 15170 net.cpp:338] inception_4a/output_inception_4a/output_0_split -> inception_4a/output_inception_4a/output_0_split_1
I1217 17:58:32.637027 15170 net.cpp:338] inception_4a/output_inception_4a/output_0_split -> inception_4a/output_inception_4a/output_0_split_2
I1217 17:58:32.637039 15170 net.cpp:338] inception_4a/output_inception_4a/output_0_split -> inception_4a/output_inception_4a/output_0_split_3
I1217 17:58:32.637049 15170 net.cpp:338] inception_4a/output_inception_4a/output_0_split -> inception_4a/output_inception_4a/output_0_split_4
I1217 17:58:32.637070 15170 net.cpp:113] Setting up inception_4a/output_inception_4a/output_0_split
I1217 17:58:32.637084 15170 net.cpp:120] Top shape: 80 512 14 14 (8028160)
I1217 17:58:32.637094 15170 net.cpp:120] Top shape: 80 512 14 14 (8028160)
I1217 17:58:32.637101 15170 net.cpp:120] Top shape: 80 512 14 14 (8028160)
I1217 17:58:32.637109 15170 net.cpp:120] Top shape: 80 512 14 14 (8028160)
I1217 17:58:32.637118 15170 net.cpp:120] Top shape: 80 512 14 14 (8028160)
I1217 17:58:32.637125 15170 layer_factory.hpp:74] Creating layer loss1/ave_pool
I1217 17:58:32.637135 15170 net.cpp:84] Creating Layer loss1/ave_pool
I1217 17:58:32.637141 15170 net.cpp:380] loss1/ave_pool <- inception_4a/output_inception_4a/output_0_split_0
I1217 17:58:32.637153 15170 net.cpp:338] loss1/ave_pool -> loss1/ave_pool
I1217 17:58:32.637163 15170 net.cpp:113] Setting up loss1/ave_pool
I1217 17:58:32.637320 15170 net.cpp:120] Top shape: 80 512 4 4 (655360)
I1217 17:58:32.637331 15170 layer_factory.hpp:74] Creating layer loss1/conv
I1217 17:58:32.637346 15170 net.cpp:84] Creating Layer loss1/conv
I1217 17:58:32.637353 15170 net.cpp:380] loss1/conv <- loss1/ave_pool
I1217 17:58:32.637369 15170 net.cpp:338] loss1/conv -> loss1/conv
I1217 17:58:32.637387 15170 net.cpp:113] Setting up loss1/conv
I1217 17:58:32.638731 15170 net.cpp:120] Top shape: 80 128 4 4 (163840)
I1217 17:58:32.638752 15170 layer_factory.hpp:74] Creating layer loss1/relu_conv
I1217 17:58:32.638763 15170 net.cpp:84] Creating Layer loss1/relu_conv
I1217 17:58:32.638770 15170 net.cpp:380] loss1/relu_conv <- loss1/conv
I1217 17:58:32.638782 15170 net.cpp:327] loss1/relu_conv -> loss1/conv (in-place)
I1217 17:58:32.638793 15170 net.cpp:113] Setting up loss1/relu_conv
I1217 17:58:32.638880 15170 net.cpp:120] Top shape: 80 128 4 4 (163840)
I1217 17:58:32.638890 15170 layer_factory.hpp:74] Creating layer loss1/fc
I1217 17:58:32.638906 15170 net.cpp:84] Creating Layer loss1/fc
I1217 17:58:32.638912 15170 net.cpp:380] loss1/fc <- loss1/conv
I1217 17:58:32.638922 15170 net.cpp:338] loss1/fc -> loss1/fc
I1217 17:58:32.638937 15170 net.cpp:113] Setting up loss1/fc
I1217 17:58:32.671555 15170 net.cpp:120] Top shape: 80 1024 (81920)
I1217 17:58:32.671603 15170 layer_factory.hpp:74] Creating layer loss1/relu_fc
I1217 17:58:32.671619 15170 net.cpp:84] Creating Layer loss1/relu_fc
I1217 17:58:32.671629 15170 net.cpp:380] loss1/relu_fc <- loss1/fc
I1217 17:58:32.671641 15170 net.cpp:327] loss1/relu_fc -> loss1/fc (in-place)
I1217 17:58:32.671654 15170 net.cpp:113] Setting up loss1/relu_fc
I1217 17:58:32.672087 15170 net.cpp:120] Top shape: 80 1024 (81920)
I1217 17:58:32.672102 15170 layer_factory.hpp:74] Creating layer loss1/drop_fc
I1217 17:58:32.672128 15170 net.cpp:84] Creating Layer loss1/drop_fc
I1217 17:58:32.672137 15170 net.cpp:380] loss1/drop_fc <- loss1/fc
I1217 17:58:32.672147 15170 net.cpp:327] loss1/drop_fc -> loss1/fc (in-place)
I1217 17:58:32.672159 15170 net.cpp:113] Setting up loss1/drop_fc
I1217 17:58:32.672173 15170 net.cpp:120] Top shape: 80 1024 (81920)
I1217 17:58:32.672183 15170 layer_factory.hpp:74] Creating layer loss1/classifier_kaggle
I1217 17:58:32.672194 15170 net.cpp:84] Creating Layer loss1/classifier_kaggle
I1217 17:58:32.672201 15170 net.cpp:380] loss1/classifier_kaggle <- loss1/fc
I1217 17:58:32.672212 15170 net.cpp:338] loss1/classifier_kaggle -> loss1/classifier_kaggle
I1217 17:58:32.672224 15170 net.cpp:113] Setting up loss1/classifier_kaggle
I1217 17:58:32.678125 15170 net.cpp:120] Top shape: 80 447 (35760)
I1217 17:58:32.678167 15170 layer_factory.hpp:74] Creating layer loss1/loss
I1217 17:58:32.678184 15170 net.cpp:84] Creating Layer loss1/loss
I1217 17:58:32.678192 15170 net.cpp:380] loss1/loss <- loss1/classifier_kaggle
I1217 17:58:32.678203 15170 net.cpp:380] loss1/loss <- label_data_1_split_0
I1217 17:58:32.678213 15170 net.cpp:338] loss1/loss -> loss1/loss1
I1217 17:58:32.678227 15170 net.cpp:113] Setting up loss1/loss
I1217 17:58:32.678239 15170 layer_factory.hpp:74] Creating layer loss1/loss
I1217 17:58:32.678549 15170 net.cpp:120] Top shape: (1)
I1217 17:58:32.678565 15170 net.cpp:122]     with loss weight 0.3
I1217 17:58:32.678619 15170 layer_factory.hpp:74] Creating layer inception_4b/1x1
I1217 17:58:32.678634 15170 net.cpp:84] Creating Layer inception_4b/1x1
I1217 17:58:32.678643 15170 net.cpp:380] inception_4b/1x1 <- inception_4a/output_inception_4a/output_0_split_1
I1217 17:58:32.678658 15170 net.cpp:338] inception_4b/1x1 -> inception_4b/1x1
I1217 17:58:32.678670 15170 net.cpp:113] Setting up inception_4b/1x1
I1217 17:58:32.680410 15170 net.cpp:120] Top shape: 80 160 14 14 (2508800)
I1217 17:58:32.680435 15170 layer_factory.hpp:74] Creating layer inception_4b/relu_1x1
I1217 17:58:32.680446 15170 net.cpp:84] Creating Layer inception_4b/relu_1x1
I1217 17:58:32.680455 15170 net.cpp:380] inception_4b/relu_1x1 <- inception_4b/1x1
I1217 17:58:32.680465 15170 net.cpp:327] inception_4b/relu_1x1 -> inception_4b/1x1 (in-place)
I1217 17:58:32.680476 15170 net.cpp:113] Setting up inception_4b/relu_1x1
I1217 17:58:32.680641 15170 net.cpp:120] Top shape: 80 160 14 14 (2508800)
I1217 17:58:32.680655 15170 layer_factory.hpp:74] Creating layer inception_4b/3x3_reduce
I1217 17:58:32.680670 15170 net.cpp:84] Creating Layer inception_4b/3x3_reduce
I1217 17:58:32.680723 15170 net.cpp:380] inception_4b/3x3_reduce <- inception_4a/output_inception_4a/output_0_split_2
I1217 17:58:32.680763 15170 net.cpp:338] inception_4b/3x3_reduce -> inception_4b/3x3_reduce
I1217 17:58:32.680780 15170 net.cpp:113] Setting up inception_4b/3x3_reduce
I1217 17:58:32.698604 15170 net.cpp:120] Top shape: 80 112 14 14 (1756160)
I1217 17:58:32.698652 15170 layer_factory.hpp:74] Creating layer inception_4b/relu_3x3_reduce
I1217 17:58:32.698674 15170 net.cpp:84] Creating Layer inception_4b/relu_3x3_reduce
I1217 17:58:32.698684 15170 net.cpp:380] inception_4b/relu_3x3_reduce <- inception_4b/3x3_reduce
I1217 17:58:32.698698 15170 net.cpp:327] inception_4b/relu_3x3_reduce -> inception_4b/3x3_reduce (in-place)
I1217 17:58:32.698710 15170 net.cpp:113] Setting up inception_4b/relu_3x3_reduce
I1217 17:58:32.698802 15170 net.cpp:120] Top shape: 80 112 14 14 (1756160)
I1217 17:58:32.698812 15170 layer_factory.hpp:74] Creating layer inception_4b/3x3
I1217 17:58:32.698829 15170 net.cpp:84] Creating Layer inception_4b/3x3
I1217 17:58:32.698837 15170 net.cpp:380] inception_4b/3x3 <- inception_4b/3x3_reduce
I1217 17:58:32.698848 15170 net.cpp:338] inception_4b/3x3 -> inception_4b/3x3
I1217 17:58:32.698859 15170 net.cpp:113] Setting up inception_4b/3x3
I1217 17:58:32.702281 15170 net.cpp:120] Top shape: 80 224 14 14 (3512320)
I1217 17:58:32.702307 15170 layer_factory.hpp:74] Creating layer inception_4b/relu_3x3
I1217 17:58:32.702322 15170 net.cpp:84] Creating Layer inception_4b/relu_3x3
I1217 17:58:32.702330 15170 net.cpp:380] inception_4b/relu_3x3 <- inception_4b/3x3
I1217 17:58:32.702340 15170 net.cpp:327] inception_4b/relu_3x3 -> inception_4b/3x3 (in-place)
I1217 17:58:32.702352 15170 net.cpp:113] Setting up inception_4b/relu_3x3
I1217 17:58:32.702672 15170 net.cpp:120] Top shape: 80 224 14 14 (3512320)
I1217 17:58:32.702685 15170 layer_factory.hpp:74] Creating layer inception_4b/5x5_reduce
I1217 17:58:32.702702 15170 net.cpp:84] Creating Layer inception_4b/5x5_reduce
I1217 17:58:32.702710 15170 net.cpp:380] inception_4b/5x5_reduce <- inception_4a/output_inception_4a/output_0_split_3
I1217 17:58:32.702723 15170 net.cpp:338] inception_4b/5x5_reduce -> inception_4b/5x5_reduce
I1217 17:58:32.702736 15170 net.cpp:113] Setting up inception_4b/5x5_reduce
I1217 17:58:32.703452 15170 net.cpp:120] Top shape: 80 24 14 14 (376320)
I1217 17:58:32.703472 15170 layer_factory.hpp:74] Creating layer inception_4b/relu_5x5_reduce
I1217 17:58:32.703482 15170 net.cpp:84] Creating Layer inception_4b/relu_5x5_reduce
I1217 17:58:32.703491 15170 net.cpp:380] inception_4b/relu_5x5_reduce <- inception_4b/5x5_reduce
I1217 17:58:32.703510 15170 net.cpp:327] inception_4b/relu_5x5_reduce -> inception_4b/5x5_reduce (in-place)
I1217 17:58:32.703521 15170 net.cpp:113] Setting up inception_4b/relu_5x5_reduce
I1217 17:58:32.703614 15170 net.cpp:120] Top shape: 80 24 14 14 (376320)
I1217 17:58:32.703625 15170 layer_factory.hpp:74] Creating layer inception_4b/5x5
I1217 17:58:32.703639 15170 net.cpp:84] Creating Layer inception_4b/5x5
I1217 17:58:32.703647 15170 net.cpp:380] inception_4b/5x5 <- inception_4b/5x5_reduce
I1217 17:58:32.703660 15170 net.cpp:338] inception_4b/5x5 -> inception_4b/5x5
I1217 17:58:32.703670 15170 net.cpp:113] Setting up inception_4b/5x5
I1217 17:58:32.704792 15170 net.cpp:120] Top shape: 80 64 14 14 (1003520)
I1217 17:58:32.704813 15170 layer_factory.hpp:74] Creating layer inception_4b/relu_5x5
I1217 17:58:32.704826 15170 net.cpp:84] Creating Layer inception_4b/relu_5x5
I1217 17:58:32.704834 15170 net.cpp:380] inception_4b/relu_5x5 <- inception_4b/5x5
I1217 17:58:32.704844 15170 net.cpp:327] inception_4b/relu_5x5 -> inception_4b/5x5 (in-place)
I1217 17:58:32.704854 15170 net.cpp:113] Setting up inception_4b/relu_5x5
I1217 17:58:32.704946 15170 net.cpp:120] Top shape: 80 64 14 14 (1003520)
I1217 17:58:32.704954 15170 layer_factory.hpp:74] Creating layer inception_4b/pool
I1217 17:58:32.704963 15170 layer_factory.cpp:56] CUDNN does not support padding or multiple tops. Using Caffe's own pooling layer.
I1217 17:58:32.704989 15170 net.cpp:84] Creating Layer inception_4b/pool
I1217 17:58:32.705009 15170 net.cpp:380] inception_4b/pool <- inception_4a/output_inception_4a/output_0_split_4
I1217 17:58:32.705020 15170 net.cpp:338] inception_4b/pool -> inception_4b/pool
I1217 17:58:32.705045 15170 net.cpp:113] Setting up inception_4b/pool
I1217 17:58:32.705071 15170 net.cpp:120] Top shape: 80 512 14 14 (8028160)
I1217 17:58:32.705081 15170 layer_factory.hpp:74] Creating layer inception_4b/pool_proj
I1217 17:58:32.705093 15170 net.cpp:84] Creating Layer inception_4b/pool_proj
I1217 17:58:32.705101 15170 net.cpp:380] inception_4b/pool_proj <- inception_4b/pool
I1217 17:58:32.705111 15170 net.cpp:338] inception_4b/pool_proj -> inception_4b/pool_proj
I1217 17:58:32.705122 15170 net.cpp:113] Setting up inception_4b/pool_proj
I1217 17:58:32.706034 15170 net.cpp:120] Top shape: 80 64 14 14 (1003520)
I1217 17:58:32.706054 15170 layer_factory.hpp:74] Creating layer inception_4b/relu_pool_proj
I1217 17:58:32.706066 15170 net.cpp:84] Creating Layer inception_4b/relu_pool_proj
I1217 17:58:32.706074 15170 net.cpp:380] inception_4b/relu_pool_proj <- inception_4b/pool_proj
I1217 17:58:32.706084 15170 net.cpp:327] inception_4b/relu_pool_proj -> inception_4b/pool_proj (in-place)
I1217 17:58:32.706095 15170 net.cpp:113] Setting up inception_4b/relu_pool_proj
I1217 17:58:32.706447 15170 net.cpp:120] Top shape: 80 64 14 14 (1003520)
I1217 17:58:32.706462 15170 layer_factory.hpp:74] Creating layer inception_4b/output
I1217 17:58:32.706477 15170 net.cpp:84] Creating Layer inception_4b/output
I1217 17:58:32.706485 15170 net.cpp:380] inception_4b/output <- inception_4b/1x1
I1217 17:58:32.706495 15170 net.cpp:380] inception_4b/output <- inception_4b/3x3
I1217 17:58:32.706503 15170 net.cpp:380] inception_4b/output <- inception_4b/5x5
I1217 17:58:32.706511 15170 net.cpp:380] inception_4b/output <- inception_4b/pool_proj
I1217 17:58:32.706521 15170 net.cpp:338] inception_4b/output -> inception_4b/output
I1217 17:58:32.706532 15170 net.cpp:113] Setting up inception_4b/output
I1217 17:58:32.706544 15170 net.cpp:120] Top shape: 80 512 14 14 (8028160)
I1217 17:58:32.706552 15170 layer_factory.hpp:74] Creating layer inception_4b/output_inception_4b/output_0_split
I1217 17:58:32.706562 15170 net.cpp:84] Creating Layer inception_4b/output_inception_4b/output_0_split
I1217 17:58:32.706568 15170 net.cpp:380] inception_4b/output_inception_4b/output_0_split <- inception_4b/output
I1217 17:58:32.706579 15170 net.cpp:338] inception_4b/output_inception_4b/output_0_split -> inception_4b/output_inception_4b/output_0_split_0
I1217 17:58:32.706590 15170 net.cpp:338] inception_4b/output_inception_4b/output_0_split -> inception_4b/output_inception_4b/output_0_split_1
I1217 17:58:32.706600 15170 net.cpp:338] inception_4b/output_inception_4b/output_0_split -> inception_4b/output_inception_4b/output_0_split_2
I1217 17:58:32.706610 15170 net.cpp:338] inception_4b/output_inception_4b/output_0_split -> inception_4b/output_inception_4b/output_0_split_3
I1217 17:58:32.706619 15170 net.cpp:113] Setting up inception_4b/output_inception_4b/output_0_split
I1217 17:58:32.706630 15170 net.cpp:120] Top shape: 80 512 14 14 (8028160)
I1217 17:58:32.706640 15170 net.cpp:120] Top shape: 80 512 14 14 (8028160)
I1217 17:58:32.706647 15170 net.cpp:120] Top shape: 80 512 14 14 (8028160)
I1217 17:58:32.706656 15170 net.cpp:120] Top shape: 80 512 14 14 (8028160)
I1217 17:58:32.706663 15170 layer_factory.hpp:74] Creating layer inception_4c/1x1
I1217 17:58:32.706676 15170 net.cpp:84] Creating Layer inception_4c/1x1
I1217 17:58:32.706684 15170 net.cpp:380] inception_4c/1x1 <- inception_4b/output_inception_4b/output_0_split_0
I1217 17:58:32.706694 15170 net.cpp:338] inception_4c/1x1 -> inception_4c/1x1
I1217 17:58:32.706704 15170 net.cpp:113] Setting up inception_4c/1x1
I1217 17:58:32.708017 15170 net.cpp:120] Top shape: 80 128 14 14 (2007040)
I1217 17:58:32.708037 15170 layer_factory.hpp:74] Creating layer inception_4c/relu_1x1
I1217 17:58:32.708050 15170 net.cpp:84] Creating Layer inception_4c/relu_1x1
I1217 17:58:32.708065 15170 net.cpp:380] inception_4c/relu_1x1 <- inception_4c/1x1
I1217 17:58:32.708082 15170 net.cpp:327] inception_4c/relu_1x1 -> inception_4c/1x1 (in-place)
I1217 17:58:32.708094 15170 net.cpp:113] Setting up inception_4c/relu_1x1
I1217 17:58:32.708187 15170 net.cpp:120] Top shape: 80 128 14 14 (2007040)
I1217 17:58:32.708197 15170 layer_factory.hpp:74] Creating layer inception_4c/3x3_reduce
I1217 17:58:32.708210 15170 net.cpp:84] Creating Layer inception_4c/3x3_reduce
I1217 17:58:32.708219 15170 net.cpp:380] inception_4c/3x3_reduce <- inception_4b/output_inception_4b/output_0_split_1
I1217 17:58:32.708235 15170 net.cpp:338] inception_4c/3x3_reduce -> inception_4c/3x3_reduce
I1217 17:58:32.708246 15170 net.cpp:113] Setting up inception_4c/3x3_reduce
I1217 17:58:32.709683 15170 net.cpp:120] Top shape: 80 128 14 14 (2007040)
I1217 17:58:32.709704 15170 layer_factory.hpp:74] Creating layer inception_4c/relu_3x3_reduce
I1217 17:58:32.709714 15170 net.cpp:84] Creating Layer inception_4c/relu_3x3_reduce
I1217 17:58:32.709722 15170 net.cpp:380] inception_4c/relu_3x3_reduce <- inception_4c/3x3_reduce
I1217 17:58:32.709733 15170 net.cpp:327] inception_4c/relu_3x3_reduce -> inception_4c/3x3_reduce (in-place)
I1217 17:58:32.709743 15170 net.cpp:113] Setting up inception_4c/relu_3x3_reduce
I1217 17:58:32.709833 15170 net.cpp:120] Top shape: 80 128 14 14 (2007040)
I1217 17:58:32.709842 15170 layer_factory.hpp:74] Creating layer inception_4c/3x3
I1217 17:58:32.709853 15170 net.cpp:84] Creating Layer inception_4c/3x3
I1217 17:58:32.709861 15170 net.cpp:380] inception_4c/3x3 <- inception_4c/3x3_reduce
I1217 17:58:32.709873 15170 net.cpp:338] inception_4c/3x3 -> inception_4c/3x3
I1217 17:58:32.709884 15170 net.cpp:113] Setting up inception_4c/3x3
I1217 17:58:32.726400 15170 net.cpp:120] Top shape: 80 256 14 14 (4014080)
I1217 17:58:32.726464 15170 layer_factory.hpp:74] Creating layer inception_4c/relu_3x3
I1217 17:58:32.726480 15170 net.cpp:84] Creating Layer inception_4c/relu_3x3
I1217 17:58:32.726490 15170 net.cpp:380] inception_4c/relu_3x3 <- inception_4c/3x3
I1217 17:58:32.726501 15170 net.cpp:327] inception_4c/relu_3x3 -> inception_4c/3x3 (in-place)
I1217 17:58:32.726514 15170 net.cpp:113] Setting up inception_4c/relu_3x3
I1217 17:58:32.726609 15170 net.cpp:120] Top shape: 80 256 14 14 (4014080)
I1217 17:58:32.726620 15170 layer_factory.hpp:74] Creating layer inception_4c/5x5_reduce
I1217 17:58:32.726636 15170 net.cpp:84] Creating Layer inception_4c/5x5_reduce
I1217 17:58:32.726645 15170 net.cpp:380] inception_4c/5x5_reduce <- inception_4b/output_inception_4b/output_0_split_2
I1217 17:58:32.726661 15170 net.cpp:338] inception_4c/5x5_reduce -> inception_4c/5x5_reduce
I1217 17:58:32.726675 15170 net.cpp:113] Setting up inception_4c/5x5_reduce
I1217 17:58:32.727356 15170 net.cpp:120] Top shape: 80 24 14 14 (376320)
I1217 17:58:32.727376 15170 layer_factory.hpp:74] Creating layer inception_4c/relu_5x5_reduce
I1217 17:58:32.727386 15170 net.cpp:84] Creating Layer inception_4c/relu_5x5_reduce
I1217 17:58:32.727394 15170 net.cpp:380] inception_4c/relu_5x5_reduce <- inception_4c/5x5_reduce
I1217 17:58:32.727406 15170 net.cpp:327] inception_4c/relu_5x5_reduce -> inception_4c/5x5_reduce (in-place)
I1217 17:58:32.727417 15170 net.cpp:113] Setting up inception_4c/relu_5x5_reduce
I1217 17:58:32.727741 15170 net.cpp:120] Top shape: 80 24 14 14 (376320)
I1217 17:58:32.727757 15170 layer_factory.hpp:74] Creating layer inception_4c/5x5
I1217 17:58:32.727773 15170 net.cpp:84] Creating Layer inception_4c/5x5
I1217 17:58:32.727782 15170 net.cpp:380] inception_4c/5x5 <- inception_4c/5x5_reduce
I1217 17:58:32.727792 15170 net.cpp:338] inception_4c/5x5 -> inception_4c/5x5
I1217 17:58:32.727803 15170 net.cpp:113] Setting up inception_4c/5x5
I1217 17:58:32.728813 15170 net.cpp:120] Top shape: 80 64 14 14 (1003520)
I1217 17:58:32.728843 15170 layer_factory.hpp:74] Creating layer inception_4c/relu_5x5
I1217 17:58:32.728854 15170 net.cpp:84] Creating Layer inception_4c/relu_5x5
I1217 17:58:32.728863 15170 net.cpp:380] inception_4c/relu_5x5 <- inception_4c/5x5
I1217 17:58:32.728904 15170 net.cpp:327] inception_4c/relu_5x5 -> inception_4c/5x5 (in-place)
I1217 17:58:32.728940 15170 net.cpp:113] Setting up inception_4c/relu_5x5
I1217 17:58:32.729037 15170 net.cpp:120] Top shape: 80 64 14 14 (1003520)
I1217 17:58:32.729048 15170 layer_factory.hpp:74] Creating layer inception_4c/pool
I1217 17:58:32.729066 15170 layer_factory.cpp:56] CUDNN does not support padding or multiple tops. Using Caffe's own pooling layer.
I1217 17:58:32.729079 15170 net.cpp:84] Creating Layer inception_4c/pool
I1217 17:58:32.729086 15170 net.cpp:380] inception_4c/pool <- inception_4b/output_inception_4b/output_0_split_3
I1217 17:58:32.729096 15170 net.cpp:338] inception_4c/pool -> inception_4c/pool
I1217 17:58:32.729107 15170 net.cpp:113] Setting up inception_4c/pool
I1217 17:58:32.729121 15170 net.cpp:120] Top shape: 80 512 14 14 (8028160)
I1217 17:58:32.729128 15170 layer_factory.hpp:74] Creating layer inception_4c/pool_proj
I1217 17:58:32.729142 15170 net.cpp:84] Creating Layer inception_4c/pool_proj
I1217 17:58:32.729149 15170 net.cpp:380] inception_4c/pool_proj <- inception_4c/pool
I1217 17:58:32.729161 15170 net.cpp:338] inception_4c/pool_proj -> inception_4c/pool_proj
I1217 17:58:32.729172 15170 net.cpp:113] Setting up inception_4c/pool_proj
I1217 17:58:32.730135 15170 net.cpp:120] Top shape: 80 64 14 14 (1003520)
I1217 17:58:32.730154 15170 layer_factory.hpp:74] Creating layer inception_4c/relu_pool_proj
I1217 17:58:32.730168 15170 net.cpp:84] Creating Layer inception_4c/relu_pool_proj
I1217 17:58:32.730177 15170 net.cpp:380] inception_4c/relu_pool_proj <- inception_4c/pool_proj
I1217 17:58:32.730187 15170 net.cpp:327] inception_4c/relu_pool_proj -> inception_4c/pool_proj (in-place)
I1217 17:58:32.730200 15170 net.cpp:113] Setting up inception_4c/relu_pool_proj
I1217 17:58:32.730290 15170 net.cpp:120] Top shape: 80 64 14 14 (1003520)
I1217 17:58:32.730300 15170 layer_factory.hpp:74] Creating layer inception_4c/output
I1217 17:58:32.730310 15170 net.cpp:84] Creating Layer inception_4c/output
I1217 17:58:32.730317 15170 net.cpp:380] inception_4c/output <- inception_4c/1x1
I1217 17:58:32.730327 15170 net.cpp:380] inception_4c/output <- inception_4c/3x3
I1217 17:58:32.730335 15170 net.cpp:380] inception_4c/output <- inception_4c/5x5
I1217 17:58:32.730343 15170 net.cpp:380] inception_4c/output <- inception_4c/pool_proj
I1217 17:58:32.730355 15170 net.cpp:338] inception_4c/output -> inception_4c/output
I1217 17:58:32.730365 15170 net.cpp:113] Setting up inception_4c/output
I1217 17:58:32.730377 15170 net.cpp:120] Top shape: 80 512 14 14 (8028160)
I1217 17:58:32.730386 15170 layer_factory.hpp:74] Creating layer inception_4c/output_inception_4c/output_0_split
I1217 17:58:32.730396 15170 net.cpp:84] Creating Layer inception_4c/output_inception_4c/output_0_split
I1217 17:58:32.730403 15170 net.cpp:380] inception_4c/output_inception_4c/output_0_split <- inception_4c/output
I1217 17:58:32.730415 15170 net.cpp:338] inception_4c/output_inception_4c/output_0_split -> inception_4c/output_inception_4c/output_0_split_0
I1217 17:58:32.730427 15170 net.cpp:338] inception_4c/output_inception_4c/output_0_split -> inception_4c/output_inception_4c/output_0_split_1
I1217 17:58:32.730437 15170 net.cpp:338] inception_4c/output_inception_4c/output_0_split -> inception_4c/output_inception_4c/output_0_split_2
I1217 17:58:32.730448 15170 net.cpp:338] inception_4c/output_inception_4c/output_0_split -> inception_4c/output_inception_4c/output_0_split_3
I1217 17:58:32.730456 15170 net.cpp:113] Setting up inception_4c/output_inception_4c/output_0_split
I1217 17:58:32.730468 15170 net.cpp:120] Top shape: 80 512 14 14 (8028160)
I1217 17:58:32.730476 15170 net.cpp:120] Top shape: 80 512 14 14 (8028160)
I1217 17:58:32.730485 15170 net.cpp:120] Top shape: 80 512 14 14 (8028160)
I1217 17:58:32.730494 15170 net.cpp:120] Top shape: 80 512 14 14 (8028160)
I1217 17:58:32.730500 15170 layer_factory.hpp:74] Creating layer inception_4d/1x1
I1217 17:58:32.730514 15170 net.cpp:84] Creating Layer inception_4d/1x1
I1217 17:58:32.730520 15170 net.cpp:380] inception_4d/1x1 <- inception_4c/output_inception_4c/output_0_split_0
I1217 17:58:32.730546 15170 net.cpp:338] inception_4d/1x1 -> inception_4d/1x1
I1217 17:58:32.730558 15170 net.cpp:113] Setting up inception_4d/1x1
I1217 17:58:32.731770 15170 net.cpp:120] Top shape: 80 112 14 14 (1756160)
I1217 17:58:32.731791 15170 layer_factory.hpp:74] Creating layer inception_4d/relu_1x1
I1217 17:58:32.731801 15170 net.cpp:84] Creating Layer inception_4d/relu_1x1
I1217 17:58:32.731809 15170 net.cpp:380] inception_4d/relu_1x1 <- inception_4d/1x1
I1217 17:58:32.731822 15170 net.cpp:327] inception_4d/relu_1x1 -> inception_4d/1x1 (in-place)
I1217 17:58:32.731832 15170 net.cpp:113] Setting up inception_4d/relu_1x1
I1217 17:58:32.731925 15170 net.cpp:120] Top shape: 80 112 14 14 (1756160)
I1217 17:58:32.731935 15170 layer_factory.hpp:74] Creating layer inception_4d/3x3_reduce
I1217 17:58:32.731948 15170 net.cpp:84] Creating Layer inception_4d/3x3_reduce
I1217 17:58:32.731956 15170 net.cpp:380] inception_4d/3x3_reduce <- inception_4c/output_inception_4c/output_0_split_1
I1217 17:58:32.731968 15170 net.cpp:338] inception_4d/3x3_reduce -> inception_4d/3x3_reduce
I1217 17:58:32.731982 15170 net.cpp:113] Setting up inception_4d/3x3_reduce
I1217 17:58:32.733440 15170 net.cpp:120] Top shape: 80 144 14 14 (2257920)
I1217 17:58:32.733463 15170 layer_factory.hpp:74] Creating layer inception_4d/relu_3x3_reduce
I1217 17:58:32.733474 15170 net.cpp:84] Creating Layer inception_4d/relu_3x3_reduce
I1217 17:58:32.733482 15170 net.cpp:380] inception_4d/relu_3x3_reduce <- inception_4d/3x3_reduce
I1217 17:58:32.733492 15170 net.cpp:327] inception_4d/relu_3x3_reduce -> inception_4d/3x3_reduce (in-place)
I1217 17:58:32.733502 15170 net.cpp:113] Setting up inception_4d/relu_3x3_reduce
I1217 17:58:32.733803 15170 net.cpp:120] Top shape: 80 144 14 14 (2257920)
I1217 17:58:32.733819 15170 layer_factory.hpp:74] Creating layer inception_4d/3x3
I1217 17:58:32.733834 15170 net.cpp:84] Creating Layer inception_4d/3x3
I1217 17:58:32.733842 15170 net.cpp:380] inception_4d/3x3 <- inception_4d/3x3_reduce
I1217 17:58:32.733865 15170 net.cpp:338] inception_4d/3x3 -> inception_4d/3x3
I1217 17:58:32.733878 15170 net.cpp:113] Setting up inception_4d/3x3
I1217 17:58:32.738936 15170 net.cpp:120] Top shape: 80 288 14 14 (4515840)
I1217 17:58:32.738957 15170 layer_factory.hpp:74] Creating layer inception_4d/relu_3x3
I1217 17:58:32.738970 15170 net.cpp:84] Creating Layer inception_4d/relu_3x3
I1217 17:58:32.738977 15170 net.cpp:380] inception_4d/relu_3x3 <- inception_4d/3x3
I1217 17:58:32.738987 15170 net.cpp:327] inception_4d/relu_3x3 -> inception_4d/3x3 (in-place)
I1217 17:58:32.738997 15170 net.cpp:113] Setting up inception_4d/relu_3x3
I1217 17:58:32.739091 15170 net.cpp:120] Top shape: 80 288 14 14 (4515840)
I1217 17:58:32.739101 15170 layer_factory.hpp:74] Creating layer inception_4d/5x5_reduce
I1217 17:58:32.739112 15170 net.cpp:84] Creating Layer inception_4d/5x5_reduce
I1217 17:58:32.739120 15170 net.cpp:380] inception_4d/5x5_reduce <- inception_4c/output_inception_4c/output_0_split_2
I1217 17:58:32.739133 15170 net.cpp:338] inception_4d/5x5_reduce -> inception_4d/5x5_reduce
I1217 17:58:32.739145 15170 net.cpp:113] Setting up inception_4d/5x5_reduce
I1217 17:58:32.753495 15170 net.cpp:120] Top shape: 80 32 14 14 (501760)
I1217 17:58:32.753561 15170 layer_factory.hpp:74] Creating layer inception_4d/relu_5x5_reduce
I1217 17:58:32.753576 15170 net.cpp:84] Creating Layer inception_4d/relu_5x5_reduce
I1217 17:58:32.753584 15170 net.cpp:380] inception_4d/relu_5x5_reduce <- inception_4d/5x5_reduce
I1217 17:58:32.753597 15170 net.cpp:327] inception_4d/relu_5x5_reduce -> inception_4d/5x5_reduce (in-place)
I1217 17:58:32.753612 15170 net.cpp:113] Setting up inception_4d/relu_5x5_reduce
I1217 17:58:32.753701 15170 net.cpp:120] Top shape: 80 32 14 14 (501760)
I1217 17:58:32.753713 15170 layer_factory.hpp:74] Creating layer inception_4d/5x5
I1217 17:58:32.753728 15170 net.cpp:84] Creating Layer inception_4d/5x5
I1217 17:58:32.753736 15170 net.cpp:380] inception_4d/5x5 <- inception_4d/5x5_reduce
I1217 17:58:32.753765 15170 net.cpp:338] inception_4d/5x5 -> inception_4d/5x5
I1217 17:58:32.753793 15170 net.cpp:113] Setting up inception_4d/5x5
I1217 17:58:32.754992 15170 net.cpp:120] Top shape: 80 64 14 14 (1003520)
I1217 17:58:32.755012 15170 layer_factory.hpp:74] Creating layer inception_4d/relu_5x5
I1217 17:58:32.755023 15170 net.cpp:84] Creating Layer inception_4d/relu_5x5
I1217 17:58:32.755030 15170 net.cpp:380] inception_4d/relu_5x5 <- inception_4d/5x5
I1217 17:58:32.755039 15170 net.cpp:327] inception_4d/relu_5x5 -> inception_4d/5x5 (in-place)
I1217 17:58:32.755050 15170 net.cpp:113] Setting up inception_4d/relu_5x5
I1217 17:58:32.755141 15170 net.cpp:120] Top shape: 80 64 14 14 (1003520)
I1217 17:58:32.755151 15170 layer_factory.hpp:74] Creating layer inception_4d/pool
I1217 17:58:32.755159 15170 layer_factory.cpp:56] CUDNN does not support padding or multiple tops. Using Caffe's own pooling layer.
I1217 17:58:32.755172 15170 net.cpp:84] Creating Layer inception_4d/pool
I1217 17:58:32.755179 15170 net.cpp:380] inception_4d/pool <- inception_4c/output_inception_4c/output_0_split_3
I1217 17:58:32.755189 15170 net.cpp:338] inception_4d/pool -> inception_4d/pool
I1217 17:58:32.755200 15170 net.cpp:113] Setting up inception_4d/pool
I1217 17:58:32.755213 15170 net.cpp:120] Top shape: 80 512 14 14 (8028160)
I1217 17:58:32.755221 15170 layer_factory.hpp:74] Creating layer inception_4d/pool_proj
I1217 17:58:32.755234 15170 net.cpp:84] Creating Layer inception_4d/pool_proj
I1217 17:58:32.755242 15170 net.cpp:380] inception_4d/pool_proj <- inception_4d/pool
I1217 17:58:32.755252 15170 net.cpp:338] inception_4d/pool_proj -> inception_4d/pool_proj
I1217 17:58:32.755264 15170 net.cpp:113] Setting up inception_4d/pool_proj
I1217 17:58:32.756204 15170 net.cpp:120] Top shape: 80 64 14 14 (1003520)
I1217 17:58:32.756223 15170 layer_factory.hpp:74] Creating layer inception_4d/relu_pool_proj
I1217 17:58:32.756237 15170 net.cpp:84] Creating Layer inception_4d/relu_pool_proj
I1217 17:58:32.756244 15170 net.cpp:380] inception_4d/relu_pool_proj <- inception_4d/pool_proj
I1217 17:58:32.756258 15170 net.cpp:327] inception_4d/relu_pool_proj -> inception_4d/pool_proj (in-place)
I1217 17:58:32.756268 15170 net.cpp:113] Setting up inception_4d/relu_pool_proj
I1217 17:58:32.756570 15170 net.cpp:120] Top shape: 80 64 14 14 (1003520)
I1217 17:58:32.756592 15170 layer_factory.hpp:74] Creating layer inception_4d/output
I1217 17:58:32.756605 15170 net.cpp:84] Creating Layer inception_4d/output
I1217 17:58:32.756613 15170 net.cpp:380] inception_4d/output <- inception_4d/1x1
I1217 17:58:32.756620 15170 net.cpp:380] inception_4d/output <- inception_4d/3x3
I1217 17:58:32.756628 15170 net.cpp:380] inception_4d/output <- inception_4d/5x5
I1217 17:58:32.756638 15170 net.cpp:380] inception_4d/output <- inception_4d/pool_proj
I1217 17:58:32.756645 15170 net.cpp:338] inception_4d/output -> inception_4d/output
I1217 17:58:32.756656 15170 net.cpp:113] Setting up inception_4d/output
I1217 17:58:32.756667 15170 net.cpp:120] Top shape: 80 528 14 14 (8279040)
I1217 17:58:32.756677 15170 layer_factory.hpp:74] Creating layer inception_4d/output_inception_4d/output_0_split
I1217 17:58:32.756687 15170 net.cpp:84] Creating Layer inception_4d/output_inception_4d/output_0_split
I1217 17:58:32.756695 15170 net.cpp:380] inception_4d/output_inception_4d/output_0_split <- inception_4d/output
I1217 17:58:32.756703 15170 net.cpp:338] inception_4d/output_inception_4d/output_0_split -> inception_4d/output_inception_4d/output_0_split_0
I1217 17:58:32.756714 15170 net.cpp:338] inception_4d/output_inception_4d/output_0_split -> inception_4d/output_inception_4d/output_0_split_1
I1217 17:58:32.756726 15170 net.cpp:338] inception_4d/output_inception_4d/output_0_split -> inception_4d/output_inception_4d/output_0_split_2
I1217 17:58:32.756736 15170 net.cpp:338] inception_4d/output_inception_4d/output_0_split -> inception_4d/output_inception_4d/output_0_split_3
I1217 17:58:32.756747 15170 net.cpp:338] inception_4d/output_inception_4d/output_0_split -> inception_4d/output_inception_4d/output_0_split_4
I1217 17:58:32.756763 15170 net.cpp:113] Setting up inception_4d/output_inception_4d/output_0_split
I1217 17:58:32.756791 15170 net.cpp:120] Top shape: 80 528 14 14 (8279040)
I1217 17:58:32.756800 15170 net.cpp:120] Top shape: 80 528 14 14 (8279040)
I1217 17:58:32.756808 15170 net.cpp:120] Top shape: 80 528 14 14 (8279040)
I1217 17:58:32.756817 15170 net.cpp:120] Top shape: 80 528 14 14 (8279040)
I1217 17:58:32.756826 15170 net.cpp:120] Top shape: 80 528 14 14 (8279040)
I1217 17:58:32.756834 15170 layer_factory.hpp:74] Creating layer loss2/ave_pool
I1217 17:58:32.756844 15170 net.cpp:84] Creating Layer loss2/ave_pool
I1217 17:58:32.756850 15170 net.cpp:380] loss2/ave_pool <- inception_4d/output_inception_4d/output_0_split_0
I1217 17:58:32.756862 15170 net.cpp:338] loss2/ave_pool -> loss2/ave_pool
I1217 17:58:32.756873 15170 net.cpp:113] Setting up loss2/ave_pool
I1217 17:58:32.756968 15170 net.cpp:120] Top shape: 80 528 4 4 (675840)
I1217 17:58:32.756979 15170 layer_factory.hpp:74] Creating layer loss2/conv
I1217 17:58:32.756992 15170 net.cpp:84] Creating Layer loss2/conv
I1217 17:58:32.757002 15170 net.cpp:380] loss2/conv <- loss2/ave_pool
I1217 17:58:32.757012 15170 net.cpp:338] loss2/conv -> loss2/conv
I1217 17:58:32.757024 15170 net.cpp:113] Setting up loss2/conv
I1217 17:58:32.758381 15170 net.cpp:120] Top shape: 80 128 4 4 (163840)
I1217 17:58:32.758404 15170 layer_factory.hpp:74] Creating layer loss2/relu_conv
I1217 17:58:32.758417 15170 net.cpp:84] Creating Layer loss2/relu_conv
I1217 17:58:32.758425 15170 net.cpp:380] loss2/relu_conv <- loss2/conv
I1217 17:58:32.758435 15170 net.cpp:327] loss2/relu_conv -> loss2/conv (in-place)
I1217 17:58:32.758446 15170 net.cpp:113] Setting up loss2/relu_conv
I1217 17:58:32.758539 15170 net.cpp:120] Top shape: 80 128 4 4 (163840)
I1217 17:58:32.758550 15170 layer_factory.hpp:74] Creating layer loss2/fc
I1217 17:58:32.758564 15170 net.cpp:84] Creating Layer loss2/fc
I1217 17:58:32.758574 15170 net.cpp:380] loss2/fc <- loss2/conv
I1217 17:58:32.758589 15170 net.cpp:338] loss2/fc -> loss2/fc
I1217 17:58:32.758601 15170 net.cpp:113] Setting up loss2/fc
I1217 17:58:32.782865 15170 net.cpp:120] Top shape: 80 1024 (81920)
I1217 17:58:32.782898 15170 layer_factory.hpp:74] Creating layer loss2/relu_fc
I1217 17:58:32.782909 15170 net.cpp:84] Creating Layer loss2/relu_fc
I1217 17:58:32.782918 15170 net.cpp:380] loss2/relu_fc <- loss2/fc
I1217 17:58:32.782932 15170 net.cpp:327] loss2/relu_fc -> loss2/fc (in-place)
I1217 17:58:32.782941 15170 net.cpp:113] Setting up loss2/relu_fc
I1217 17:58:32.783300 15170 net.cpp:120] Top shape: 80 1024 (81920)
I1217 17:58:32.783316 15170 layer_factory.hpp:74] Creating layer loss2/drop_fc
I1217 17:58:32.783329 15170 net.cpp:84] Creating Layer loss2/drop_fc
I1217 17:58:32.783336 15170 net.cpp:380] loss2/drop_fc <- loss2/fc
I1217 17:58:32.783349 15170 net.cpp:327] loss2/drop_fc -> loss2/fc (in-place)
I1217 17:58:32.783360 15170 net.cpp:113] Setting up loss2/drop_fc
I1217 17:58:32.783371 15170 net.cpp:120] Top shape: 80 1024 (81920)
I1217 17:58:32.783380 15170 layer_factory.hpp:74] Creating layer loss2/classifier_kaggle
I1217 17:58:32.783391 15170 net.cpp:84] Creating Layer loss2/classifier_kaggle
I1217 17:58:32.783398 15170 net.cpp:380] loss2/classifier_kaggle <- loss2/fc
I1217 17:58:32.783409 15170 net.cpp:338] loss2/classifier_kaggle -> loss2/classifier_kaggle
I1217 17:58:32.783421 15170 net.cpp:113] Setting up loss2/classifier_kaggle
I1217 17:58:32.789104 15170 net.cpp:120] Top shape: 80 447 (35760)
I1217 17:58:32.789124 15170 layer_factory.hpp:74] Creating layer loss2/loss
I1217 17:58:32.789136 15170 net.cpp:84] Creating Layer loss2/loss
I1217 17:58:32.789145 15170 net.cpp:380] loss2/loss <- loss2/classifier_kaggle
I1217 17:58:32.789155 15170 net.cpp:380] loss2/loss <- label_data_1_split_1
I1217 17:58:32.789165 15170 net.cpp:338] loss2/loss -> loss2/loss1
I1217 17:58:32.789175 15170 net.cpp:113] Setting up loss2/loss
I1217 17:58:32.789185 15170 layer_factory.hpp:74] Creating layer loss2/loss
I1217 17:58:32.789402 15170 net.cpp:120] Top shape: (1)
I1217 17:58:32.789433 15170 net.cpp:122]     with loss weight 0.3
I1217 17:58:32.789486 15170 layer_factory.hpp:74] Creating layer inception_4e/1x1
I1217 17:58:32.789507 15170 net.cpp:84] Creating Layer inception_4e/1x1
I1217 17:58:32.789516 15170 net.cpp:380] inception_4e/1x1 <- inception_4d/output_inception_4d/output_0_split_1
I1217 17:58:32.789527 15170 net.cpp:338] inception_4e/1x1 -> inception_4e/1x1
I1217 17:58:32.789541 15170 net.cpp:113] Setting up inception_4e/1x1
I1217 17:58:32.791782 15170 net.cpp:120] Top shape: 80 256 14 14 (4014080)
I1217 17:58:32.791803 15170 layer_factory.hpp:74] Creating layer inception_4e/relu_1x1
I1217 17:58:32.791813 15170 net.cpp:84] Creating Layer inception_4e/relu_1x1
I1217 17:58:32.791821 15170 net.cpp:380] inception_4e/relu_1x1 <- inception_4e/1x1
I1217 17:58:32.791831 15170 net.cpp:327] inception_4e/relu_1x1 -> inception_4e/1x1 (in-place)
I1217 17:58:32.791841 15170 net.cpp:113] Setting up inception_4e/relu_1x1
I1217 17:58:32.791934 15170 net.cpp:120] Top shape: 80 256 14 14 (4014080)
I1217 17:58:32.791944 15170 layer_factory.hpp:74] Creating layer inception_4e/3x3_reduce
I1217 17:58:32.791957 15170 net.cpp:84] Creating Layer inception_4e/3x3_reduce
I1217 17:58:32.791965 15170 net.cpp:380] inception_4e/3x3_reduce <- inception_4d/output_inception_4d/output_0_split_2
I1217 17:58:32.791977 15170 net.cpp:338] inception_4e/3x3_reduce -> inception_4e/3x3_reduce
I1217 17:58:32.791988 15170 net.cpp:113] Setting up inception_4e/3x3_reduce
I1217 17:58:32.793551 15170 net.cpp:120] Top shape: 80 160 14 14 (2508800)
I1217 17:58:32.793575 15170 layer_factory.hpp:74] Creating layer inception_4e/relu_3x3_reduce
I1217 17:58:32.793587 15170 net.cpp:84] Creating Layer inception_4e/relu_3x3_reduce
I1217 17:58:32.793596 15170 net.cpp:380] inception_4e/relu_3x3_reduce <- inception_4e/3x3_reduce
I1217 17:58:32.793606 15170 net.cpp:327] inception_4e/relu_3x3_reduce -> inception_4e/3x3_reduce (in-place)
I1217 17:58:32.793615 15170 net.cpp:113] Setting up inception_4e/relu_3x3_reduce
I1217 17:58:32.793711 15170 net.cpp:120] Top shape: 80 160 14 14 (2508800)
I1217 17:58:32.793720 15170 layer_factory.hpp:74] Creating layer inception_4e/3x3
I1217 17:58:32.793733 15170 net.cpp:84] Creating Layer inception_4e/3x3
I1217 17:58:32.793741 15170 net.cpp:380] inception_4e/3x3 <- inception_4e/3x3_reduce
I1217 17:58:32.793751 15170 net.cpp:338] inception_4e/3x3 -> inception_4e/3x3
I1217 17:58:32.793766 15170 net.cpp:113] Setting up inception_4e/3x3
I1217 17:58:32.800017 15170 net.cpp:120] Top shape: 80 320 14 14 (5017600)
I1217 17:58:32.800039 15170 layer_factory.hpp:74] Creating layer inception_4e/relu_3x3
I1217 17:58:32.800052 15170 net.cpp:84] Creating Layer inception_4e/relu_3x3
I1217 17:58:32.800060 15170 net.cpp:380] inception_4e/relu_3x3 <- inception_4e/3x3
I1217 17:58:32.800071 15170 net.cpp:327] inception_4e/relu_3x3 -> inception_4e/3x3 (in-place)
I1217 17:58:32.800081 15170 net.cpp:113] Setting up inception_4e/relu_3x3
I1217 17:58:32.800544 15170 net.cpp:120] Top shape: 80 320 14 14 (5017600)
I1217 17:58:32.800559 15170 layer_factory.hpp:74] Creating layer inception_4e/5x5_reduce
I1217 17:58:32.800572 15170 net.cpp:84] Creating Layer inception_4e/5x5_reduce
I1217 17:58:32.800581 15170 net.cpp:380] inception_4e/5x5_reduce <- inception_4d/output_inception_4d/output_0_split_3
I1217 17:58:32.800592 15170 net.cpp:338] inception_4e/5x5_reduce -> inception_4e/5x5_reduce
I1217 17:58:32.800604 15170 net.cpp:113] Setting up inception_4e/5x5_reduce
I1217 17:58:32.801342 15170 net.cpp:120] Top shape: 80 32 14 14 (501760)
I1217 17:58:32.801362 15170 layer_factory.hpp:74] Creating layer inception_4e/relu_5x5_reduce
I1217 17:58:32.801374 15170 net.cpp:84] Creating Layer inception_4e/relu_5x5_reduce
I1217 17:58:32.801383 15170 net.cpp:380] inception_4e/relu_5x5_reduce <- inception_4e/5x5_reduce
I1217 17:58:32.801394 15170 net.cpp:327] inception_4e/relu_5x5_reduce -> inception_4e/5x5_reduce (in-place)
I1217 17:58:32.801405 15170 net.cpp:113] Setting up inception_4e/relu_5x5_reduce
I1217 17:58:32.801512 15170 net.cpp:120] Top shape: 80 32 14 14 (501760)
I1217 17:58:32.801532 15170 layer_factory.hpp:74] Creating layer inception_4e/5x5
I1217 17:58:32.801566 15170 net.cpp:84] Creating Layer inception_4e/5x5
I1217 17:58:32.801575 15170 net.cpp:380] inception_4e/5x5 <- inception_4e/5x5_reduce
I1217 17:58:32.801585 15170 net.cpp:338] inception_4e/5x5 -> inception_4e/5x5
I1217 17:58:32.801597 15170 net.cpp:113] Setting up inception_4e/5x5
I1217 17:58:32.803380 15170 net.cpp:120] Top shape: 80 128 14 14 (2007040)
I1217 17:58:32.803400 15170 layer_factory.hpp:74] Creating layer inception_4e/relu_5x5
I1217 17:58:32.803411 15170 net.cpp:84] Creating Layer inception_4e/relu_5x5
I1217 17:58:32.803418 15170 net.cpp:380] inception_4e/relu_5x5 <- inception_4e/5x5
I1217 17:58:32.803427 15170 net.cpp:327] inception_4e/relu_5x5 -> inception_4e/5x5 (in-place)
I1217 17:58:32.803438 15170 net.cpp:113] Setting up inception_4e/relu_5x5
I1217 17:58:32.803530 15170 net.cpp:120] Top shape: 80 128 14 14 (2007040)
I1217 17:58:32.803540 15170 layer_factory.hpp:74] Creating layer inception_4e/pool
I1217 17:58:32.803549 15170 layer_factory.cpp:56] CUDNN does not support padding or multiple tops. Using Caffe's own pooling layer.
I1217 17:58:32.803560 15170 net.cpp:84] Creating Layer inception_4e/pool
I1217 17:58:32.803567 15170 net.cpp:380] inception_4e/pool <- inception_4d/output_inception_4d/output_0_split_4
I1217 17:58:32.803577 15170 net.cpp:338] inception_4e/pool -> inception_4e/pool
I1217 17:58:32.803588 15170 net.cpp:113] Setting up inception_4e/pool
I1217 17:58:32.803602 15170 net.cpp:120] Top shape: 80 528 14 14 (8279040)
I1217 17:58:32.803609 15170 layer_factory.hpp:74] Creating layer inception_4e/pool_proj
I1217 17:58:32.803625 15170 net.cpp:84] Creating Layer inception_4e/pool_proj
I1217 17:58:32.803633 15170 net.cpp:380] inception_4e/pool_proj <- inception_4e/pool
I1217 17:58:32.803643 15170 net.cpp:338] inception_4e/pool_proj -> inception_4e/pool_proj
I1217 17:58:32.803653 15170 net.cpp:113] Setting up inception_4e/pool_proj
I1217 17:58:32.805001 15170 net.cpp:120] Top shape: 80 128 14 14 (2007040)
I1217 17:58:32.805022 15170 layer_factory.hpp:74] Creating layer inception_4e/relu_pool_proj
I1217 17:58:32.805032 15170 net.cpp:84] Creating Layer inception_4e/relu_pool_proj
I1217 17:58:32.805040 15170 net.cpp:380] inception_4e/relu_pool_proj <- inception_4e/pool_proj
I1217 17:58:32.805052 15170 net.cpp:327] inception_4e/relu_pool_proj -> inception_4e/pool_proj (in-place)
I1217 17:58:32.805073 15170 net.cpp:113] Setting up inception_4e/relu_pool_proj
I1217 17:58:32.805168 15170 net.cpp:120] Top shape: 80 128 14 14 (2007040)
I1217 17:58:32.805178 15170 layer_factory.hpp:74] Creating layer inception_4e/output
I1217 17:58:32.805188 15170 net.cpp:84] Creating Layer inception_4e/output
I1217 17:58:32.805196 15170 net.cpp:380] inception_4e/output <- inception_4e/1x1
I1217 17:58:32.805204 15170 net.cpp:380] inception_4e/output <- inception_4e/3x3
I1217 17:58:32.805212 15170 net.cpp:380] inception_4e/output <- inception_4e/5x5
I1217 17:58:32.805220 15170 net.cpp:380] inception_4e/output <- inception_4e/pool_proj
I1217 17:58:32.805230 15170 net.cpp:338] inception_4e/output -> inception_4e/output
I1217 17:58:32.805241 15170 net.cpp:113] Setting up inception_4e/output
I1217 17:58:32.805254 15170 net.cpp:120] Top shape: 80 832 14 14 (13045760)
I1217 17:58:32.805261 15170 layer_factory.hpp:74] Creating layer pool4/3x3_s2
I1217 17:58:32.805270 15170 net.cpp:84] Creating Layer pool4/3x3_s2
I1217 17:58:32.805279 15170 net.cpp:380] pool4/3x3_s2 <- inception_4e/output
I1217 17:58:32.805290 15170 net.cpp:338] pool4/3x3_s2 -> pool4/3x3_s2
I1217 17:58:32.805300 15170 net.cpp:113] Setting up pool4/3x3_s2
I1217 17:58:32.805600 15170 net.cpp:120] Top shape: 80 832 7 7 (3261440)
I1217 17:58:32.805615 15170 layer_factory.hpp:74] Creating layer pool4/3x3_s2_pool4/3x3_s2_0_split
I1217 17:58:32.805625 15170 net.cpp:84] Creating Layer pool4/3x3_s2_pool4/3x3_s2_0_split
I1217 17:58:32.805634 15170 net.cpp:380] pool4/3x3_s2_pool4/3x3_s2_0_split <- pool4/3x3_s2
I1217 17:58:32.805650 15170 net.cpp:338] pool4/3x3_s2_pool4/3x3_s2_0_split -> pool4/3x3_s2_pool4/3x3_s2_0_split_0
I1217 17:58:32.805671 15170 net.cpp:338] pool4/3x3_s2_pool4/3x3_s2_0_split -> pool4/3x3_s2_pool4/3x3_s2_0_split_1
I1217 17:58:32.805682 15170 net.cpp:338] pool4/3x3_s2_pool4/3x3_s2_0_split -> pool4/3x3_s2_pool4/3x3_s2_0_split_2
I1217 17:58:32.805692 15170 net.cpp:338] pool4/3x3_s2_pool4/3x3_s2_0_split -> pool4/3x3_s2_pool4/3x3_s2_0_split_3
I1217 17:58:32.805701 15170 net.cpp:113] Setting up pool4/3x3_s2_pool4/3x3_s2_0_split
I1217 17:58:32.805716 15170 net.cpp:120] Top shape: 80 832 7 7 (3261440)
I1217 17:58:32.805724 15170 net.cpp:120] Top shape: 80 832 7 7 (3261440)
I1217 17:58:32.805732 15170 net.cpp:120] Top shape: 80 832 7 7 (3261440)
I1217 17:58:32.805742 15170 net.cpp:120] Top shape: 80 832 7 7 (3261440)
I1217 17:58:32.805749 15170 layer_factory.hpp:74] Creating layer inception_5a/1x1
I1217 17:58:32.805762 15170 net.cpp:84] Creating Layer inception_5a/1x1
I1217 17:58:32.805771 15170 net.cpp:380] inception_5a/1x1 <- pool4/3x3_s2_pool4/3x3_s2_0_split_0
I1217 17:58:32.805781 15170 net.cpp:338] inception_5a/1x1 -> inception_5a/1x1
I1217 17:58:32.805793 15170 net.cpp:113] Setting up inception_5a/1x1
I1217 17:58:32.808946 15170 net.cpp:120] Top shape: 80 256 7 7 (1003520)
I1217 17:58:32.808967 15170 layer_factory.hpp:74] Creating layer inception_5a/relu_1x1
I1217 17:58:32.808979 15170 net.cpp:84] Creating Layer inception_5a/relu_1x1
I1217 17:58:32.808986 15170 net.cpp:380] inception_5a/relu_1x1 <- inception_5a/1x1
I1217 17:58:32.808997 15170 net.cpp:327] inception_5a/relu_1x1 -> inception_5a/1x1 (in-place)
I1217 17:58:32.809008 15170 net.cpp:113] Setting up inception_5a/relu_1x1
I1217 17:58:32.809111 15170 net.cpp:120] Top shape: 80 256 7 7 (1003520)
I1217 17:58:32.809124 15170 layer_factory.hpp:74] Creating layer inception_5a/3x3_reduce
I1217 17:58:32.809139 15170 net.cpp:84] Creating Layer inception_5a/3x3_reduce
I1217 17:58:32.809146 15170 net.cpp:380] inception_5a/3x3_reduce <- pool4/3x3_s2_pool4/3x3_s2_0_split_1
I1217 17:58:32.809157 15170 net.cpp:338] inception_5a/3x3_reduce -> inception_5a/3x3_reduce
I1217 17:58:32.809170 15170 net.cpp:113] Setting up inception_5a/3x3_reduce
I1217 17:58:32.811331 15170 net.cpp:120] Top shape: 80 160 7 7 (627200)
I1217 17:58:32.811349 15170 layer_factory.hpp:74] Creating layer inception_5a/relu_3x3_reduce
I1217 17:58:32.811363 15170 net.cpp:84] Creating Layer inception_5a/relu_3x3_reduce
I1217 17:58:32.811372 15170 net.cpp:380] inception_5a/relu_3x3_reduce <- inception_5a/3x3_reduce
I1217 17:58:32.811381 15170 net.cpp:327] inception_5a/relu_3x3_reduce -> inception_5a/3x3_reduce (in-place)
I1217 17:58:32.811391 15170 net.cpp:113] Setting up inception_5a/relu_3x3_reduce
I1217 17:58:32.811486 15170 net.cpp:120] Top shape: 80 160 7 7 (627200)
I1217 17:58:32.811496 15170 layer_factory.hpp:74] Creating layer inception_5a/3x3
I1217 17:58:32.811511 15170 net.cpp:84] Creating Layer inception_5a/3x3
I1217 17:58:32.811517 15170 net.cpp:380] inception_5a/3x3 <- inception_5a/3x3_reduce
I1217 17:58:32.811527 15170 net.cpp:338] inception_5a/3x3 -> inception_5a/3x3
I1217 17:58:32.811539 15170 net.cpp:113] Setting up inception_5a/3x3
I1217 17:58:32.817730 15170 net.cpp:120] Top shape: 80 320 7 7 (1254400)
I1217 17:58:32.817751 15170 layer_factory.hpp:74] Creating layer inception_5a/relu_3x3
I1217 17:58:32.817761 15170 net.cpp:84] Creating Layer inception_5a/relu_3x3
I1217 17:58:32.817770 15170 net.cpp:380] inception_5a/relu_3x3 <- inception_5a/3x3
I1217 17:58:32.817781 15170 net.cpp:327] inception_5a/relu_3x3 -> inception_5a/3x3 (in-place)
I1217 17:58:32.817791 15170 net.cpp:113] Setting up inception_5a/relu_3x3
I1217 17:58:32.817883 15170 net.cpp:120] Top shape: 80 320 7 7 (1254400)
I1217 17:58:32.817893 15170 layer_factory.hpp:74] Creating layer inception_5a/5x5_reduce
I1217 17:58:32.817906 15170 net.cpp:84] Creating Layer inception_5a/5x5_reduce
I1217 17:58:32.817914 15170 net.cpp:380] inception_5a/5x5_reduce <- pool4/3x3_s2_pool4/3x3_s2_0_split_2
I1217 17:58:32.817927 15170 net.cpp:338] inception_5a/5x5_reduce -> inception_5a/5x5_reduce
I1217 17:58:32.817955 15170 net.cpp:113] Setting up inception_5a/5x5_reduce
I1217 17:58:32.818792 15170 net.cpp:120] Top shape: 80 32 7 7 (125440)
I1217 17:58:32.818812 15170 layer_factory.hpp:74] Creating layer inception_5a/relu_5x5_reduce
I1217 17:58:32.818822 15170 net.cpp:84] Creating Layer inception_5a/relu_5x5_reduce
I1217 17:58:32.818830 15170 net.cpp:380] inception_5a/relu_5x5_reduce <- inception_5a/5x5_reduce
I1217 17:58:32.818840 15170 net.cpp:327] inception_5a/relu_5x5_reduce -> inception_5a/5x5_reduce (in-place)
I1217 17:58:32.818850 15170 net.cpp:113] Setting up inception_5a/relu_5x5_reduce
I1217 17:58:32.819145 15170 net.cpp:120] Top shape: 80 32 7 7 (125440)
I1217 17:58:32.819159 15170 layer_factory.hpp:74] Creating layer inception_5a/5x5
I1217 17:58:32.819175 15170 net.cpp:84] Creating Layer inception_5a/5x5
I1217 17:58:32.819182 15170 net.cpp:380] inception_5a/5x5 <- inception_5a/5x5_reduce
I1217 17:58:32.819195 15170 net.cpp:338] inception_5a/5x5 -> inception_5a/5x5
I1217 17:58:32.819207 15170 net.cpp:113] Setting up inception_5a/5x5
I1217 17:58:32.821019 15170 net.cpp:120] Top shape: 80 128 7 7 (501760)
I1217 17:58:32.821040 15170 layer_factory.hpp:74] Creating layer inception_5a/relu_5x5
I1217 17:58:32.821053 15170 net.cpp:84] Creating Layer inception_5a/relu_5x5
I1217 17:58:32.821070 15170 net.cpp:380] inception_5a/relu_5x5 <- inception_5a/5x5
I1217 17:58:32.821080 15170 net.cpp:327] inception_5a/relu_5x5 -> inception_5a/5x5 (in-place)
I1217 17:58:32.821090 15170 net.cpp:113] Setting up inception_5a/relu_5x5
I1217 17:58:32.821188 15170 net.cpp:120] Top shape: 80 128 7 7 (501760)
I1217 17:58:32.821198 15170 layer_factory.hpp:74] Creating layer inception_5a/pool
I1217 17:58:32.821207 15170 layer_factory.cpp:56] CUDNN does not support padding or multiple tops. Using Caffe's own pooling layer.
I1217 17:58:32.821215 15170 net.cpp:84] Creating Layer inception_5a/pool
I1217 17:58:32.821223 15170 net.cpp:380] inception_5a/pool <- pool4/3x3_s2_pool4/3x3_s2_0_split_3
I1217 17:58:32.821233 15170 net.cpp:338] inception_5a/pool -> inception_5a/pool
I1217 17:58:32.821244 15170 net.cpp:113] Setting up inception_5a/pool
I1217 17:58:32.821259 15170 net.cpp:120] Top shape: 80 832 7 7 (3261440)
I1217 17:58:32.821266 15170 layer_factory.hpp:74] Creating layer inception_5a/pool_proj
I1217 17:58:32.821277 15170 net.cpp:84] Creating Layer inception_5a/pool_proj
I1217 17:58:32.821285 15170 net.cpp:380] inception_5a/pool_proj <- inception_5a/pool
I1217 17:58:32.821297 15170 net.cpp:338] inception_5a/pool_proj -> inception_5a/pool_proj
I1217 17:58:32.821308 15170 net.cpp:113] Setting up inception_5a/pool_proj
I1217 17:58:32.823135 15170 net.cpp:120] Top shape: 80 128 7 7 (501760)
I1217 17:58:32.823154 15170 layer_factory.hpp:74] Creating layer inception_5a/relu_pool_proj
I1217 17:58:32.823166 15170 net.cpp:84] Creating Layer inception_5a/relu_pool_proj
I1217 17:58:32.823175 15170 net.cpp:380] inception_5a/relu_pool_proj <- inception_5a/pool_proj
I1217 17:58:32.823184 15170 net.cpp:327] inception_5a/relu_pool_proj -> inception_5a/pool_proj (in-place)
I1217 17:58:32.823195 15170 net.cpp:113] Setting up inception_5a/relu_pool_proj
I1217 17:58:32.823285 15170 net.cpp:120] Top shape: 80 128 7 7 (501760)
I1217 17:58:32.823294 15170 layer_factory.hpp:74] Creating layer inception_5a/output
I1217 17:58:32.823308 15170 net.cpp:84] Creating Layer inception_5a/output
I1217 17:58:32.823317 15170 net.cpp:380] inception_5a/output <- inception_5a/1x1
I1217 17:58:32.823324 15170 net.cpp:380] inception_5a/output <- inception_5a/3x3
I1217 17:58:32.823333 15170 net.cpp:380] inception_5a/output <- inception_5a/5x5
I1217 17:58:32.823340 15170 net.cpp:380] inception_5a/output <- inception_5a/pool_proj
I1217 17:58:32.823349 15170 net.cpp:338] inception_5a/output -> inception_5a/output
I1217 17:58:32.823360 15170 net.cpp:113] Setting up inception_5a/output
I1217 17:58:32.823372 15170 net.cpp:120] Top shape: 80 832 7 7 (3261440)
I1217 17:58:32.823379 15170 layer_factory.hpp:74] Creating layer inception_5a/output_inception_5a/output_0_split
I1217 17:58:32.823395 15170 net.cpp:84] Creating Layer inception_5a/output_inception_5a/output_0_split
I1217 17:58:32.823412 15170 net.cpp:380] inception_5a/output_inception_5a/output_0_split <- inception_5a/output
I1217 17:58:32.823422 15170 net.cpp:338] inception_5a/output_inception_5a/output_0_split -> inception_5a/output_inception_5a/output_0_split_0
I1217 17:58:32.823434 15170 net.cpp:338] inception_5a/output_inception_5a/output_0_split -> inception_5a/output_inception_5a/output_0_split_1
I1217 17:58:32.823444 15170 net.cpp:338] inception_5a/output_inception_5a/output_0_split -> inception_5a/output_inception_5a/output_0_split_2
I1217 17:58:32.823456 15170 net.cpp:338] inception_5a/output_inception_5a/output_0_split -> inception_5a/output_inception_5a/output_0_split_3
I1217 17:58:32.823464 15170 net.cpp:113] Setting up inception_5a/output_inception_5a/output_0_split
I1217 17:58:32.823475 15170 net.cpp:120] Top shape: 80 832 7 7 (3261440)
I1217 17:58:32.823484 15170 net.cpp:120] Top shape: 80 832 7 7 (3261440)
I1217 17:58:32.823493 15170 net.cpp:120] Top shape: 80 832 7 7 (3261440)
I1217 17:58:32.823501 15170 net.cpp:120] Top shape: 80 832 7 7 (3261440)
I1217 17:58:32.823508 15170 layer_factory.hpp:74] Creating layer inception_5b/1x1
I1217 17:58:32.823520 15170 net.cpp:84] Creating Layer inception_5b/1x1
I1217 17:58:32.823529 15170 net.cpp:380] inception_5b/1x1 <- inception_5a/output_inception_5a/output_0_split_0
I1217 17:58:32.823539 15170 net.cpp:338] inception_5b/1x1 -> inception_5b/1x1
I1217 17:58:32.823550 15170 net.cpp:113] Setting up inception_5b/1x1
I1217 17:58:32.828022 15170 net.cpp:120] Top shape: 80 384 7 7 (1505280)
I1217 17:58:32.828044 15170 layer_factory.hpp:74] Creating layer inception_5b/relu_1x1
I1217 17:58:32.828057 15170 net.cpp:84] Creating Layer inception_5b/relu_1x1
I1217 17:58:32.828064 15170 net.cpp:380] inception_5b/relu_1x1 <- inception_5b/1x1
I1217 17:58:32.828074 15170 net.cpp:327] inception_5b/relu_1x1 -> inception_5b/1x1 (in-place)
I1217 17:58:32.828088 15170 net.cpp:113] Setting up inception_5b/relu_1x1
I1217 17:58:32.828383 15170 net.cpp:120] Top shape: 80 384 7 7 (1505280)
I1217 17:58:32.828397 15170 layer_factory.hpp:74] Creating layer inception_5b/3x3_reduce
I1217 17:58:32.828410 15170 net.cpp:84] Creating Layer inception_5b/3x3_reduce
I1217 17:58:32.828419 15170 net.cpp:380] inception_5b/3x3_reduce <- inception_5a/output_inception_5a/output_0_split_1
I1217 17:58:32.828433 15170 net.cpp:338] inception_5b/3x3_reduce -> inception_5b/3x3_reduce
I1217 17:58:32.828444 15170 net.cpp:113] Setting up inception_5b/3x3_reduce
I1217 17:58:32.830929 15170 net.cpp:120] Top shape: 80 192 7 7 (752640)
I1217 17:58:32.830951 15170 layer_factory.hpp:74] Creating layer inception_5b/relu_3x3_reduce
I1217 17:58:32.830965 15170 net.cpp:84] Creating Layer inception_5b/relu_3x3_reduce
I1217 17:58:32.830972 15170 net.cpp:380] inception_5b/relu_3x3_reduce <- inception_5b/3x3_reduce
I1217 17:58:32.830982 15170 net.cpp:327] inception_5b/relu_3x3_reduce -> inception_5b/3x3_reduce (in-place)
I1217 17:58:32.830993 15170 net.cpp:113] Setting up inception_5b/relu_3x3_reduce
I1217 17:58:32.831089 15170 net.cpp:120] Top shape: 80 192 7 7 (752640)
I1217 17:58:32.831099 15170 layer_factory.hpp:74] Creating layer inception_5b/3x3
I1217 17:58:32.831112 15170 net.cpp:84] Creating Layer inception_5b/3x3
I1217 17:58:32.831120 15170 net.cpp:380] inception_5b/3x3 <- inception_5b/3x3_reduce
I1217 17:58:32.831130 15170 net.cpp:338] inception_5b/3x3 -> inception_5b/3x3
I1217 17:58:32.831164 15170 net.cpp:113] Setting up inception_5b/3x3
I1217 17:58:32.839355 15170 net.cpp:120] Top shape: 80 384 7 7 (1505280)
I1217 17:58:32.839377 15170 layer_factory.hpp:74] Creating layer inception_5b/relu_3x3
I1217 17:58:32.839387 15170 net.cpp:84] Creating Layer inception_5b/relu_3x3
I1217 17:58:32.839396 15170 net.cpp:380] inception_5b/relu_3x3 <- inception_5b/3x3
I1217 17:58:32.839408 15170 net.cpp:327] inception_5b/relu_3x3 -> inception_5b/3x3 (in-place)
I1217 17:58:32.839419 15170 net.cpp:113] Setting up inception_5b/relu_3x3
I1217 17:58:32.839519 15170 net.cpp:120] Top shape: 80 384 7 7 (1505280)
I1217 17:58:32.839540 15170 layer_factory.hpp:74] Creating layer inception_5b/5x5_reduce
I1217 17:58:32.839555 15170 net.cpp:84] Creating Layer inception_5b/5x5_reduce
I1217 17:58:32.839563 15170 net.cpp:380] inception_5b/5x5_reduce <- inception_5a/output_inception_5a/output_0_split_2
I1217 17:58:32.839575 15170 net.cpp:338] inception_5b/5x5_reduce -> inception_5b/5x5_reduce
I1217 17:58:32.839586 15170 net.cpp:113] Setting up inception_5b/5x5_reduce
I1217 17:58:32.840595 15170 net.cpp:120] Top shape: 80 48 7 7 (188160)
I1217 17:58:32.840615 15170 layer_factory.hpp:74] Creating layer inception_5b/relu_5x5_reduce
I1217 17:58:32.840627 15170 net.cpp:84] Creating Layer inception_5b/relu_5x5_reduce
I1217 17:58:32.840636 15170 net.cpp:380] inception_5b/relu_5x5_reduce <- inception_5b/5x5_reduce
I1217 17:58:32.840646 15170 net.cpp:327] inception_5b/relu_5x5_reduce -> inception_5b/5x5_reduce (in-place)
I1217 17:58:32.840656 15170 net.cpp:113] Setting up inception_5b/relu_5x5_reduce
I1217 17:58:32.840752 15170 net.cpp:120] Top shape: 80 48 7 7 (188160)
I1217 17:58:32.840761 15170 layer_factory.hpp:74] Creating layer inception_5b/5x5
I1217 17:58:32.840772 15170 net.cpp:84] Creating Layer inception_5b/5x5
I1217 17:58:32.840780 15170 net.cpp:380] inception_5b/5x5 <- inception_5b/5x5_reduce
I1217 17:58:32.840792 15170 net.cpp:338] inception_5b/5x5 -> inception_5b/5x5
I1217 17:58:32.840804 15170 net.cpp:113] Setting up inception_5b/5x5
I1217 17:58:32.843224 15170 net.cpp:120] Top shape: 80 128 7 7 (501760)
I1217 17:58:32.843246 15170 layer_factory.hpp:74] Creating layer inception_5b/relu_5x5
I1217 17:58:32.843257 15170 net.cpp:84] Creating Layer inception_5b/relu_5x5
I1217 17:58:32.843266 15170 net.cpp:380] inception_5b/relu_5x5 <- inception_5b/5x5
I1217 17:58:32.843276 15170 net.cpp:327] inception_5b/relu_5x5 -> inception_5b/5x5 (in-place)
I1217 17:58:32.843287 15170 net.cpp:113] Setting up inception_5b/relu_5x5
I1217 17:58:32.843595 15170 net.cpp:120] Top shape: 80 128 7 7 (501760)
I1217 17:58:32.843608 15170 layer_factory.hpp:74] Creating layer inception_5b/pool
I1217 17:58:32.843617 15170 layer_factory.cpp:56] CUDNN does not support padding or multiple tops. Using Caffe's own pooling layer.
I1217 17:58:32.843628 15170 net.cpp:84] Creating Layer inception_5b/pool
I1217 17:58:32.843636 15170 net.cpp:380] inception_5b/pool <- inception_5a/output_inception_5a/output_0_split_3
I1217 17:58:32.843647 15170 net.cpp:338] inception_5b/pool -> inception_5b/pool
I1217 17:58:32.843659 15170 net.cpp:113] Setting up inception_5b/pool
I1217 17:58:32.843674 15170 net.cpp:120] Top shape: 80 832 7 7 (3261440)
I1217 17:58:32.843683 15170 layer_factory.hpp:74] Creating layer inception_5b/pool_proj
I1217 17:58:32.843693 15170 net.cpp:84] Creating Layer inception_5b/pool_proj
I1217 17:58:32.843700 15170 net.cpp:380] inception_5b/pool_proj <- inception_5b/pool
I1217 17:58:32.843710 15170 net.cpp:338] inception_5b/pool_proj -> inception_5b/pool_proj
I1217 17:58:32.843721 15170 net.cpp:113] Setting up inception_5b/pool_proj
I1217 17:58:32.849993 15170 net.cpp:120] Top shape: 80 128 7 7 (501760)
I1217 17:58:32.850014 15170 layer_factory.hpp:74] Creating layer inception_5b/relu_pool_proj
I1217 17:58:32.850026 15170 net.cpp:84] Creating Layer inception_5b/relu_pool_proj
I1217 17:58:32.850034 15170 net.cpp:380] inception_5b/relu_pool_proj <- inception_5b/pool_proj
I1217 17:58:32.850047 15170 net.cpp:327] inception_5b/relu_pool_proj -> inception_5b/pool_proj (in-place)
I1217 17:58:32.850057 15170 net.cpp:113] Setting up inception_5b/relu_pool_proj
I1217 17:58:32.850149 15170 net.cpp:120] Top shape: 80 128 7 7 (501760)
I1217 17:58:32.850159 15170 layer_factory.hpp:74] Creating layer inception_5b/output
I1217 17:58:32.850169 15170 net.cpp:84] Creating Layer inception_5b/output
I1217 17:58:32.850177 15170 net.cpp:380] inception_5b/output <- inception_5b/1x1
I1217 17:58:32.850185 15170 net.cpp:380] inception_5b/output <- inception_5b/3x3
I1217 17:58:32.850195 15170 net.cpp:380] inception_5b/output <- inception_5b/5x5
I1217 17:58:32.850219 15170 net.cpp:380] inception_5b/output <- inception_5b/pool_proj
I1217 17:58:32.850227 15170 net.cpp:338] inception_5b/output -> inception_5b/output
I1217 17:58:32.850239 15170 net.cpp:113] Setting up inception_5b/output
I1217 17:58:32.850250 15170 net.cpp:120] Top shape: 80 1024 7 7 (4014080)
I1217 17:58:32.850257 15170 layer_factory.hpp:74] Creating layer pool5/7x7_s1
I1217 17:58:32.850267 15170 net.cpp:84] Creating Layer pool5/7x7_s1
I1217 17:58:32.850275 15170 net.cpp:380] pool5/7x7_s1 <- inception_5b/output
I1217 17:58:32.850285 15170 net.cpp:338] pool5/7x7_s1 -> pool5/7x7_s1
I1217 17:58:32.850294 15170 net.cpp:113] Setting up pool5/7x7_s1
I1217 17:58:32.850392 15170 net.cpp:120] Top shape: 80 1024 1 1 (81920)
I1217 17:58:32.850402 15170 layer_factory.hpp:74] Creating layer pool5/drop_7x7_s1
I1217 17:58:32.850412 15170 net.cpp:84] Creating Layer pool5/drop_7x7_s1
I1217 17:58:32.850419 15170 net.cpp:380] pool5/drop_7x7_s1 <- pool5/7x7_s1
I1217 17:58:32.850428 15170 net.cpp:327] pool5/drop_7x7_s1 -> pool5/7x7_s1 (in-place)
I1217 17:58:32.850438 15170 net.cpp:113] Setting up pool5/drop_7x7_s1
I1217 17:58:32.850450 15170 net.cpp:120] Top shape: 80 1024 1 1 (81920)
I1217 17:58:32.850456 15170 layer_factory.hpp:74] Creating layer loss3/classifier_kaggle
I1217 17:58:32.850472 15170 net.cpp:84] Creating Layer loss3/classifier_kaggle
I1217 17:58:32.850479 15170 net.cpp:380] loss3/classifier_kaggle <- pool5/7x7_s1
I1217 17:58:32.850489 15170 net.cpp:338] loss3/classifier_kaggle -> loss3/classifier_kaggle
I1217 17:58:32.850500 15170 net.cpp:113] Setting up loss3/classifier_kaggle
I1217 17:58:32.856065 15170 net.cpp:120] Top shape: 80 447 (35760)
I1217 17:58:32.856084 15170 layer_factory.hpp:74] Creating layer loss3/loss3
I1217 17:58:32.856097 15170 net.cpp:84] Creating Layer loss3/loss3
I1217 17:58:32.856106 15170 net.cpp:380] loss3/loss3 <- loss3/classifier_kaggle
I1217 17:58:32.856114 15170 net.cpp:380] loss3/loss3 <- label_data_1_split_2
I1217 17:58:32.856127 15170 net.cpp:338] loss3/loss3 -> loss3/loss3
I1217 17:58:32.856137 15170 net.cpp:113] Setting up loss3/loss3
…
I1217 17:58:32.864308 15170 net.cpp:257] The NetState phase (1) differed from the phase (0) specified by a rule in layer data
I1217 17:58:32.866730 15170 net.cpp:42] Initializing net from parameters: 
name: "GoogleNet"
state {
  phase: TEST
}
layer {
  name: "data"
  type: "Data"
  top: "data"
  top: "label"
  include {
    phase: TEST
  }
  transform_param {
    mirror: false
    crop_size: 224
    mean_value: 129
    mean_value: 129
    mean_value: 129
  }
  data_param {
    source: "/home/coldmanck/kaggle/kaggle2_val_lmdb"
    batch_size: 50
    backend: LMDB
  }
}
layer {
  name: "conv1/7x7_s2"
  type: "Convolution"
  bottom: "data"
  top: "conv1/7x7_s2"
  param {
    lr_mult: 1
    decay_mult: 1
  }
  param {
    lr_mult: 2
    decay_mult: 0
  }
  convolution_param {
    num_output: 64
    pad: 3
    kernel_size: 7
    stride: 2
    weight_filler {
      type: "xavier"
    }
    bias_filler {
      type: "constant"
      value: 0.2
    }
  }
}
layer {
  name: "conv1/relu_7x7"
  type: "ReLU"
  bottom: "conv1/7x7_s2"
  top: "conv1/7x7_s2"
}
layer {
  name: "pool1/3x3_s2"
  type: "Pooling"
  bottom: "conv1/7x7_s2"
  top: "pool1/3x3_s2"
  pooling_param {
    pool: MAX
    kernel_size: 3
    stride: 2
  }
}
layer {
  name: "pool1/norm1"
  type: "LRN"
  bottom: "pool1/3x3_s2"
  top: "pool1/norm1"
  lrn_param {
    local_size: 5
    alpha: 0.0001
    beta: 0.75
  }
}
layer {
  name: "conv2/3x3_reduce"
  type: "Convolution"
  bottom: "pool1/norm1"
  top: "conv2/3x3_reduce"
  param {
    lr_mult: 1
    decay_mult: 1
  }
  param {
    lr_mult: 2
    decay_mult: 0
  }
  convolution_param {
    num_output: 64
    kernel_size: 1
    weight_filler {
      type: "xavier"
    }
    bias_filler {
      type: "constant"
      value: 0.2
    }
  }
}
layer {
  name: "conv2/relu_3x3_reduce"
  type: "ReLU"
  bottom: "conv2/3x3_reduce"
  top: "conv2/3x3_reduce"
}
layer {
  name: "conv2/3x3"
  type: "Convolution"
  bottom: "conv2/3x3_reduce"
  top: "conv2/3x3"
  param {
    lr_mult: 1
    decay_mult: 1
  }
  param {
    lr_mult: 2
    decay_mult: 0
  }
  convolution_param {
    num_output: 192
    pad: 1
    kernel_size: 3
    weight_filler {
      type: "xavier"
    }
    bias_filler {
      type: "constant"
      value: 0.2
    }
  }
}
layer {
  name: "conv2/relu_3x3"
  type: "ReLU"
  bottom: "conv2/3x3"
  top: "conv2/3x3"
}
layer {
  name: "conv2/norm2"
  type: "LRN"
  bottom: "conv2/3x3"
  top: "conv2/norm2"
  lrn_param {
    local_size: 5
    alpha: 0.0001
    beta: 0.75
  }
}
layer {
  name: "pool2/3x3_s2"
  type: "Pooling"
  bottom: "conv2/norm2"
  top: "pool2/3x3_s2"
  pooling_param {
    pool: MAX
    kernel_size: 3
    stride: 2
  }
}
layer {
  name: "inception_3a/1x1"
  type: "Convolution"
  bottom: "pool2/3x3_s2"
  top: "inception_3a/1x1"
  param {
    lr_mult: 1
    decay_mult: 1
  }
  param {
    lr_mult: 2
    decay_mult: 0
  }
  convolution_param {
    num_output: 64
    kernel_size: 1
    weight_filler {
      type: "xavier"
    }
    bias_filler {
      type: "constant"
      value: 0.2
    }
  }
}
layer {
  name: "inception_3a/relu_1x1"
  type: "ReLU"
  bottom: "inception_3a/1x1"
  top: "inception_3a/1x1"
}
layer {
  name: "inception_3a/3x3_reduce"
  type: "Convolution"
  bottom: "pool2/3x3_s2"
  top: "inception_3a/3x3_reduce"
  param {
    lr_mult: 1
    decay_mult: 1
  }
  param {
    lr_mult: 2
    decay_mult: 0
  }
  convolution_param {
    num_output: 96
    kernel_size: 1
    weight_filler {
      type: "xavier"
    }
    bias_filler {
      type: "constant"
      value: 0.2
    }
  }
}
layer {
  name: "inception_3a/relu_3x3_reduce"
  type: "ReLU"
  bottom: "inception_3a/3x3_reduce"
  top: "inception_3a/3x3_reduce"
}
layer {
  name: "inception_3a/3x3"
  type: "Convolution"
  bottom: "inception_3a/3x3_reduce"
  top: "inception_3a/3x3"
  param {
    lr_mult: 1
    decay_mult: 1
  }
  param {
    lr_mult: 2
    decay_mult: 0
  }
  convolution_param {
    num_output: 128
    pad: 1
    kernel_size: 3
    weight_filler {
      type: "xavier"
    }
    bias_filler {
      type: "constant"
      value: 0.2
    }
  }
}
layer {
  name: "inception_3a/relu_3x3"
  type: "ReLU"
  bottom: "inception_3a/3x3"
  top: "inception_3a/3x3"
}
layer {
  name: "inception_3a/5x5_reduce"
  type: "Convolution"
  bottom: "pool2/3x3_s2"
  top: "inception_3a/5x5_reduce"
  param {
    lr_mult: 1
    decay_mult: 1
  }
  param {
    lr_mult: 2
    decay_mult: 0
  }
  convolution_param {
    num_output: 16
    kernel_size: 1
    weight_filler {
      type: "xavier"
    }
    bias_filler {
      type: "constant"
      value: 0.2
    }
  }
}
layer {
  name: "inception_3a/relu_5x5_reduce"
  type: "ReLU"
  bottom: "inception_3a/5x5_reduce"
  top: "inception_3a/5x5_reduce"
}
layer {
  name: "inception_3a/5x5"
  type: "Convolution"
  bottom: "inception_3a/5x5_reduce"
  top: "inception_3a/5x5"
  param {
    lr_mult: 1
    decay_mult: 1
  }
  param {
    lr_mult: 2
    decay_mult: 0
  }
  convolution_param {
    num_output: 32
    pad: 2
    kernel_size: 5
    weight_filler {
      type: "xavier"
    }
    bias_filler {
      type: "constant"
      value: 0.2
    }
  }
}
layer {
  name: "inception_3a/relu_5x5"
  type: "ReLU"
  bottom: "inception_3a/5x5"
  top: "inception_3a/5x5"
}
layer {
  name: "inception_3a/pool"
  type: "Pooling"
  bottom: "pool2/3x3_s2"
  top: "inception_3a/pool"
  pooling_param {
    pool: MAX
    kernel_size: 3
    stride: 1
    pad: 1
  }
}
layer {
  name: "inception_3a/pool_proj"
  type: "Convolution"
  bottom: "inception_3a/pool"
  top: "inception_3a/pool_proj"
  param {
    lr_mult: 1
    decay_mult: 1
  }
  param {
    lr_mult: 2
    decay_mult: 0
  }
  convolution_param {
    num_output: 32
    kernel_size: 1
    weight_filler {
      type: "xavier"
    }
    bias_filler {
      type: "constant"
      value: 0.2
    }
  }
}
layer {
  name: "inception_3a/relu_pool_proj"
  type: "ReLU"
  bottom: "inception_3a/pool_proj"
  top: "inception_3a/pool_proj"
}
layer {
  name: "inception_3a/output"
  type: "Concat"
  bottom: "inception_3a/1x1"
  bottom: "inception_3a/3x3"
  bottom: "inception_3a/5x5"
  bottom: "inception_3a/pool_proj"
  top: "inception_3a/output"
}
layer {
  name: "inception_3b/1x1"
  type: "Convolution"
  bottom: "inception_3a/output"
  top: "inception_3b/1x1"
  param {
    lr_mult: 1
    decay_mult: 1
  }
  param {
    lr_mult: 2
    decay_mult: 0
  }
  convolution_param {
    num_output: 128
    kernel_size: 1
    weight_filler {
      type: "xavier"
    }
    bias_filler {
      type: "constant"
      value: 0.2
    }
  }
}
layer {
  name: "inception_3b/relu_1x1"
  type: "ReLU"
  bottom: "inception_3b/1x1"
  top: "inception_3b/1x1"
}
layer {
  name: "inception_3b/3x3_reduce"
  type: "Convolution"
  bottom: "inception_3a/output"
  top: "inception_3b/3x3_reduce"
  param {
    lr_mult: 1
    decay_mult: 1
  }
  param {
    lr_mult: 2
    decay_mult: 0
  }
  convolution_param {
    num_output: 128
    kernel_size: 1
    weight_filler {
      type: "xavier"
    }
    bias_filler {
      type: "constant"
      value: 0.2
    }
  }
}
layer {
  name: "inception_3b/relu_3x3_reduce"
  type: "ReLU"
  bottom: "inception_3b/3x3_reduce"
  top: "inception_3b/3x3_reduce"
}
layer {
  name: "inception_3b/3x3"
  type: "Convolution"
  bottom: "inception_3b/3x3_reduce"
  top: "inception_3b/3x3"
  param {
    lr_mult: 1
    decay_mult: 1
  }
  param {
    lr_mult: 2
    decay_mult: 0
  }
  convolution_param {
    num_output: 192
    pad: 1
    kernel_size: 3
    weight_filler {
      type: "xavier"
    }
    bias_filler {
      type: "constant"
      value: 0.2
    }
  }
}
layer {
  name: "inception_3b/relu_3x3"
  type: "ReLU"
  bottom: "inception_3b/3x3"
  top: "inception_3b/3x3"
}
layer {
  name: "inception_3b/5x5_reduce"
  type: "Convolution"
  bottom: "inception_3a/output"
  top: "inception_3b/5x5_reduce"
  param {
    lr_mult: 1
    decay_mult: 1
  }
  param {
    lr_mult: 2
    decay_mult: 0
  }
  convolution_param {
    num_output: 32
    kernel_size: 1
    weight_filler {
      type: "xavier"
    }
    bias_filler {
      type: "constant"
      value: 0.2
    }
  }
}
layer {
  name: "inception_3b/relu_5x5_reduce"
  type: "ReLU"
  bottom: "inception_3b/5x5_reduce"
  top: "inception_3b/5x5_reduce"
}
layer {
  name: "inception_3b/5x5"
  type: "Convolution"
  bottom: "inception_3b/5x5_reduce"
  top: "inception_3b/5x5"
  param {
    lr_mult: 1
    decay_mult: 1
  }
  param {
    lr_mult: 2
    decay_mult: 0
  }
  convolution_param {
    num_output: 96
    pad: 2
    kernel_size: 5
    weight_filler {
      type: "xavier"
    }
    bias_filler {
      type: "constant"
      value: 0.2
    }
  }
}
layer {
  name: "inception_3b/relu_5x5"
  type: "ReLU"
  bottom: "inception_3b/5x5"
  top: "inception_3b/5x5"
}
layer {
  name: "inception_3b/pool"
  type: "Pooling"
  bottom: "inception_3a/output"
  top: "inception_3b/pool"
  pooling_param {
    pool: MAX
    kernel_size: 3
    stride: 1
    pad: 1
  }
}
layer {
  name: "inception_3b/pool_proj"
  type: "Convolution"
  bottom: "inception_3b/pool"
  top: "inception_3b/pool_proj"
  param {
    lr_mult: 1
    decay_mult: 1
  }
  param {
    lr_mult: 2
    decay_mult: 0
  }
  convolution_param {
    num_output: 64
    kernel_size: 1
    weight_filler {
      type: "xavier"
    }
    bias_filler {
      type: "constant"
      value: 0.2
    }
  }
}
layer {
  name: "inception_3b/relu_pool_proj"
  type: "ReLU"
  bottom: "inception_3b/pool_proj"
  top: "inception_3b/pool_proj"
}
layer {
  name: "inception_3b/output"
  type: "Concat"
  bottom: "inception_3b/1x1"
  bottom: "inception_3b/3x3"
  bottom: "inception_3b/5x5"
  bottom: "inception_3b/pool_proj"
  top: "inception_3b/output"
}
layer {
  name: "pool3/3x3_s2"
  type: "Pooling"
  bottom: "inception_3b/output"
  top: "pool3/3x3_s2"
  pooling_param {
    pool: MAX
    kernel_size: 3
    stride: 2
  }
}
layer {
  name: "inception_4a/1x1"
  type: "Convolution"
  bottom: "pool3/3x3_s2"
  top: "inception_4a/1x1"
  param {
    lr_mult: 1
    decay_mult: 1
  }
  param {
    lr_mult: 2
    decay_mult: 0
  }
  convolution_param {
    num_output: 192
    kernel_size: 1
    weight_filler {
      type: "xavier"
    }
    bias_filler {
      type: "constant"
      value: 0.2
    }
  }
}
layer {
  name: "inception_4a/relu_1x1"
  type: "ReLU"
  bottom: "inception_4a/1x1"
  top: "inception_4a/1x1"
}
layer {
  name: "inception_4a/3x3_reduce"
  type: "Convolution"
  bottom: "pool3/3x3_s2"
  top: "inception_4a/3x3_reduce"
  param {
    lr_mult: 1
    decay_mult: 1
  }
  param {
    lr_mult: 2
    decay_mult: 0
  }
  convolution_param {
    num_output: 96
    kernel_size: 1
    weight_filler {
      type: "xavier"
    }
    bias_filler {
      type: "constant"
      value: 0.2
    }
  }
}
layer {
  name: "inception_4a/relu_3x3_reduce"
  type: "ReLU"
  bottom: "inception_4a/3x3_reduce"
  top: "inception_4a/3x3_reduce"
}
layer {
  name: "inception_4a/3x3"
  type: "Convolution"
  bottom: "inception_4a/3x3_reduce"
  top: "inception_4a/3x3"
  param {
    lr_mult: 1
    decay_mult: 1
  }
  param {
    lr_mult: 2
    decay_mult: 0
  }
  convolution_param {
    num_output: 208
    pad: 1
    kernel_size: 3
    weight_filler {
      type: "xavier"
    }
    bias_filler {
      type: "constant"
      value: 0.2
    }
  }
}
layer {
  name: "inception_4a/relu_3x3"
  type: "ReLU"
  bottom: "inception_4a/3x3"
  top: "inception_4a/3x3"
}
layer {
  name: "inception_4a/5x5_reduce"
  type: "Convolution"
  bottom: "pool3/3x3_s2"
  top: "inception_4a/5x5_reduce"
  param {
    lr_mult: 1
    decay_mult: 1
  }
  param {
    lr_mult: 2
    decay_mult: 0
  }
  convolution_param {
    num_output: 16
    kernel_size: 1
    weight_filler {
      type: "xavier"
    }
    bias_filler {
      type: "constant"
      value: 0.2
    }
  }
}
layer {
  name: "inception_4a/relu_5x5_reduce"
  type: "ReLU"
  bottom: "inception_4a/5x5_reduce"
  top: "inception_4a/5x5_reduce"
}
layer {
  name: "inception_4a/5x5"
  type: "Convolution"
  bottom: "inception_4a/5x5_reduce"
  top: "inception_4a/5x5"
  param {
    lr_mult: 1
    decay_mult: 1
  }
  param {
    lr_mult: 2
    decay_mult: 0
  }
  convolution_param {
    num_output: 48
    pad: 2
    kernel_size: 5
    weight_filler {
      type: "xavier"
    }
    bias_filler {
      type: "constant"
      value: 0.2
    }
  }
}
layer {
  name: "inception_4a/relu_5x5"
  type: "ReLU"
  bottom: "inception_4a/5x5"
  top: "inception_4a/5x5"
}
layer {
  name: "inception_4a/pool"
  type: "Pooling"
  bottom: "pool3/3x3_s2"
  top: "inception_4a/pool"
  pooling_param {
    pool: MAX
    kernel_size: 3
    stride: 1
    pad: 1
  }
}
layer {
  name: "inception_4a/pool_proj"
  type: "Convolution"
  bottom: "inception_4a/pool"
  top: "inception_4a/pool_proj"
  param {
    lr_mult: 1
    decay_mult: 1
  }
  param {
    lr_mult: 2
    decay_mult: 0
  }
  convolution_param {
    num_output: 64
    kernel_size: 1
    weight_filler {
      type: "xavier"
    }
    bias_filler {
      type: "constant"
      value: 0.2
    }
  }
}
layer {
  name: "inception_4a/relu_pool_proj"
  type: "ReLU"
  bottom: "inception_4a/pool_proj"
  top: "inception_4a/pool_proj"
}
layer {
  name: "inception_4a/output"
  type: "Concat"
  bottom: "inception_4a/1x1"
  bottom: "inception_4a/3x3"
  bottom: "inception_4a/5x5"
  bottom: "inception_4a/pool_proj"
  top: "inception_4a/output"
}
layer {
  name: "loss1/ave_pool"
  type: "Pooling"
  bottom: "inception_4a/output"
  top: "loss1/ave_pool"
  pooling_param {
    pool: AVE
    kernel_size: 5
    stride: 3
  }
}
layer {
  name: "loss1/conv"
  type: "Convolution"
  bottom: "loss1/ave_pool"
  top: "loss1/conv"
  param {
    lr_mult: 1
    decay_mult: 1
  }
  param {
    lr_mult: 2
    decay_mult: 0
  }
  convolution_param {
    num_output: 128
    kernel_size: 1
    weight_filler {
      type: "xavier"
    }
    bias_filler {
      type: "constant"
      value: 0.2
    }
  }
}
layer {
  name: "loss1/relu_conv"
  type: "ReLU"
  bottom: "loss1/conv"
  top: "loss1/conv"
}
layer {
  name: "loss1/fc"
  type: "InnerProduct"
  bottom: "loss1/conv"
  top: "loss1/fc"
  param {
    lr_mult: 1
    decay_mult: 1
  }
  param {
    lr_mult: 2
    decay_mult: 0
  }
  inner_product_param {
    num_output: 1024
    weight_filler {
      type: "xavier"
    }
    bias_filler {
      type: "constant"
      value: 0.2
    }
  }
}
layer {
  name: "loss1/relu_fc"
  type: "ReLU"
  bottom: "loss1/fc"
  top: "loss1/fc"
}
layer {
  name: "loss1/drop_fc"
  type: "Dropout"
  bottom: "loss1/fc"
  top: "loss1/fc"
  dropout_param {
    dropout_ratio: 0.7
  }
}
layer {
  name: "loss1/classifier_kaggle"
  type: "InnerProduct"
  bottom: "loss1/fc"
  top: "loss1/classifier_kaggle"
  param {
    lr_mult: 1
    decay_mult: 1
  }
  param {
    lr_mult: 2
    decay_mult: 0
  }
  inner_product_param {
    num_output: 447
    weight_filler {
      type: "xavier"
    }
    bias_filler {
      type: "constant"
      value: 0
    }
  }
}
layer {
  name: "loss1/loss"
  type: "SoftmaxWithLoss"
  bottom: "loss1/classifier_kaggle"
  bottom: "label"
  top: "loss1/loss1"
  loss_weight: 0.3
}
layer {
  name: "loss1/top-1"
  type: "Accuracy"
  bottom: "loss1/classifier_kaggle"
  bottom: "label"
  top: "loss1/top-1"
  include {
    phase: TEST
  }
}
layer {
  name: "loss1/top-5"
  type: "Accuracy"
  bottom: "loss1/classifier_kaggle"
  bottom: "label"
  top: "loss1/top-5"
  include {
    phase: TEST
  }
  accuracy_param {
    top_k: 5
  }
}
layer {
  name: "inception_4b/1x1"
  type: "Convolution"
  bottom: "inception_4a/output"
  top: "inception_4b/1x1"
  param {
    lr_mult: 1
    decay_mult: 1
  }
  param {
    lr_mult: 2
    decay_mult: 0
  }
  convolution_param {
    num_output: 160
    kernel_size: 1
    weight_filler {
      type: "xavier"
    }
    bias_filler {
      type: "constant"
      value: 0.2
    }
  }
}
layer {
  name: "inception_4b/relu_1x1"
  type: "ReLU"
  bottom: "inception_4b/1x1"
  top: "inception_4b/1x1"
}
layer {
  name: "inception_4b/3x3_reduce"
  type: "Convolution"
  bottom: "inception_4a/output"
  top: "inception_4b/3x3_reduce"
  param {
    lr_mult: 1
    decay_mult: 1
  }
  param {
    lr_mult: 2
    decay_mult: 0
  }
  convolution_param {
    num_output: 112
    kernel_size: 1
    weight_filler {
      type: "xavier"
    }
    bias_filler {
      type: "constant"
      value: 0.2
    }
  }
}
layer {
  name: "inception_4b/relu_3x3_reduce"
  type: "ReLU"
  bottom: "inception_4b/3x3_reduce"
  top: "inception_4b/3x3_reduce"
}
layer {
  name: "inception_4b/3x3"
  type: "Convolution"
  bottom: "inception_4b/3x3_reduce"
  top: "inception_4b/3x3"
  param {
    lr_mult: 1
    decay_mult: 1
  }
  param {
    lr_mult: 2
    decay_mult: 0
  }
  convolution_param {
    num_output: 224
    pad: 1
    kernel_size: 3
    weight_filler {
      type: "xavier"
    }
    bias_filler {
      type: "constant"
      value: 0.2
    }
  }
}
layer {
  name: "inception_4b/relu_3x3"
  type: "ReLU"
  bottom: "inception_4b/3x3"
  top: "inception_4b/3x3"
}
layer {
  name: "inception_4b/5x5_reduce"
  type: "Convolution"
  bottom: "inception_4a/output"
  top: "inception_4b/5x5_reduce"
  param {
    lr_mult: 1
    decay_mult: 1
  }
  param {
    lr_mult: 2
    decay_mult: 0
  }
  convolution_param {
    num_output: 24
    kernel_size: 1
    weight_filler {
      type: "xavier"
    }
    bias_filler {
      type: "constant"
      value: 0.2
    }
  }
}
layer {
  name: "inception_4b/relu_5x5_reduce"
  type: "ReLU"
  bottom: "inception_4b/5x5_reduce"
  top: "inception_4b/5x5_reduce"
}
layer {
  name: "inception_4b/5x5"
  type: "Convolution"
  bottom: "inception_4b/5x5_reduce"
  top: "inception_4b/5x5"
  param {
    lr_mult: 1
    decay_mult: 1
  }
  param {
    lr_mult: 2
    decay_mult: 0
  }
  convolution_param {
    num_output: 64
    pad: 2
    kernel_size: 5
    weight_filler {
      type: "xavier"
    }
    bias_filler {
      type: "constant"
      value: 0.2
    }
  }
}
layer {
  name: "inception_4b/relu_5x5"
  type: "ReLU"
  bottom: "inception_4b/5x5"
  top: "inception_4b/5x5"
}
layer {
  name: "inception_4b/pool"
  type: "Pooling"
  bottom: "inception_4a/output"
  top: "inception_4b/pool"
  pooling_param {
    pool: MAX
    kernel_size: 3
    stride: 1
    pad: 1
  }
}
layer {
  name: "inception_4b/pool_proj"
  type: "Convolution"
  bottom: "inception_4b/pool"
  top: "inception_4b/pool_proj"
  param {
    lr_mult: 1
    decay_mult: 1
  }
  param {
    lr_mult: 2
    decay_mult: 0
  }
  convolution_param {
    num_output: 64
    kernel_size: 1
    weight_filler {
      type: "xavier"
    }
    bias_filler {
      type: "constant"
      value: 0.2
    }
  }
}
layer {
  name: "inception_4b/relu_pool_proj"
  type: "ReLU"
  bottom: "inception_4b/pool_proj"
  top: "inception_4b/pool_proj"
}
layer {
  name: "inception_4b/output"
  type: "Concat"
  bottom: "inception_4b/1x1"
  bottom: "inception_4b/3x3"
  bottom: "inception_4b/5x5"
  bottom: "inception_4b/pool_proj"
  top: "inception_4b/output"
}
layer {
  name: "inception_4c/1x1"
  type: "Convolution"
  bottom: "inception_4b/output"
  top: "inception_4c/1x1"
  param {
    lr_mult: 1
    decay_mult: 1
  }
  param {
    lr_mult: 2
    decay_mult: 0
  }
  convolution_param {
    num_output: 128
    kernel_size: 1
    weight_filler {
      type: "xavier"
    }
    bias_filler {
      type: "constant"
      value: 0.2
    }
  }
}
layer {
  name: "inception_4c/relu_1x1"
  type: "ReLU"
  bottom: "inception_4c/1x1"
  top: "inception_4c/1x1"
}
layer {
  name: "inception_4c/3x3_reduce"
  type: "Convolution"
  bottom: "inception_4b/output"
  top: "inception_4c/3x3_reduce"
  param {
    lr_mult: 1
    decay_mult: 1
  }
  param {
    lr_mult: 2
    decay_mult: 0
  }
  convolution_param {
    num_output: 128
    kernel_size: 1
    weight_filler {
      type: "xavier"
    }
    bias_filler {
      type: "constant"
      value: 0.2
    }
  }
}
layer {
  name: "inception_4c/relu_3x3_reduce"
  type: "ReLU"
  bottom: "inception_4c/3x3_reduce"
  top: "inception_4c/3x3_reduce"
}
layer {
  name: "inception_4c/3x3"
  type: "Convolution"
  bottom: "inception_4c/3x3_reduce"
  top: "inception_4c/3x3"
  param {
    lr_mult: 1
    decay_mult: 1
  }
  param {
    lr_mult: 2
    decay_mult: 0
  }
  convolution_param {
    num_output: 256
    pad: 1
    kernel_size: 3
    weight_filler {
      type: "xavier"
    }
    bias_filler {
      type: "constant"
      value: 0.2
    }
  }
}
layer {
  name: "inception_4c/relu_3x3"
  type: "ReLU"
  bottom: "inception_4c/3x3"
  top: "inception_4c/3x3"
}
layer {
  name: "inception_4c/5x5_reduce"
  type: "Convolution"
  bottom: "inception_4b/output"
  top: "inception_4c/5x5_reduce"
  param {
    lr_mult: 1
    decay_mult: 1
  }
  param {
    lr_mult: 2
    decay_mult: 0
  }
  convolution_param {
    num_output: 24
    kernel_size: 1
    weight_filler {
      type: "xavier"
    }
    bias_filler {
      type: "constant"
      value: 0.2
    }
  }
}
layer {
  name: "inception_4c/relu_5x5_reduce"
  type: "ReLU"
  bottom: "inception_4c/5x5_reduce"
  top: "inception_4c/5x5_reduce"
}
layer {
  name: "inception_4c/5x5"
  type: "Convolution"
  bottom: "inception_4c/5x5_reduce"
  top: "inception_4c/5x5"
  param {
    lr_mult: 1
    decay_mult: 1
  }
  param {
    lr_mult: 2
    decay_mult: 0
  }
  convolution_param {
    num_output: 64
    pad: 2
    kernel_size: 5
    weight_filler {
      type: "xavier"
    }
    bias_filler {
      type: "constant"
      value: 0.2
    }
  }
}
layer {
  name: "inception_4c/relu_5x5"
  type: "ReLU"
  bottom: "inception_4c/5x5"
  top: "inception_4c/5x5"
}
layer {
  name: "inception_4c/pool"
  type: "Pooling"
  bottom: "inception_4b/output"
  top: "inception_4c/pool"
  pooling_param {
    pool: MAX
    kernel_size: 3
    stride: 1
    pad: 1
  }
}
layer {
  name: "inception_4c/pool_proj"
  type: "Convolution"
  bottom: "inception_4c/pool"
  top: "inception_4c/pool_proj"
  param {
    lr_mult: 1
    decay_mult: 1
  }
  param {
    lr_mult: 2
    decay_mult: 0
  }
  convolution_param {
    num_output: 64
    kernel_size: 1
    weight_filler {
      type: "xavier"
    }
    bias_filler {
      type: "constant"
      value: 0.2
    }
  }
}
layer {
  name: "inception_4c/relu_pool_proj"
  type: "ReLU"
  bottom: "inception_4c/pool_proj"
  top: "inception_4c/pool_proj"
}
layer {
  name: "inception_4c/output"
  type: "Concat"
  bottom: "inception_4c/1x1"
  bottom: "inception_4c/3x3"
  bottom: "inception_4c/5x5"
  bottom: "inception_4c/pool_proj"
  top: "inception_4c/output"
}
layer {
  name: "inception_4d/1x1"
  type: "Convolution"
  bottom: "inception_4c/output"
  top: "inception_4d/1x1"
  param {
    lr_mult: 1
    decay_mult: 1
  }
  param {
    lr_mult: 2
    decay_mult: 0
  }
  convolution_param {
    num_output: 112
    kernel_size: 1
    weight_filler {
      type: "xavier"
    }
    bias_filler {
      type: "constant"
      value: 0.2
    }
  }
}
layer {
  name: "inception_4d/relu_1x1"
  type: "ReLU"
  bottom: "inception_4d/1x1"
  top: "inception_4d/1x1"
}
layer {
  name: "inception_4d/3x3_reduce"
  type: "Convolution"
  bottom: "inception_4c/output"
  top: "inception_4d/3x3_reduce"
  param {
    lr_mult: 1
    decay_mult: 1
  }
  param {
    lr_mult: 2
    decay_mult: 0
  }
  convolution_param {
    num_output: 144
    kernel_size: 1
    weight_filler {
      type: "xavier"
    }
    bias_filler {
      type: "constant"
      value: 0.2
    }
  }
}
layer {
  name: "inception_4d/relu_3x3_reduce"
  type: "ReLU"
  bottom: "inception_4d/3x3_reduce"
  top: "inception_4d/3x3_reduce"
}
layer {
  name: "inception_4d/3x3"
  type: "Convolution"
  bottom: "inception_4d/3x3_reduce"
  top: "inception_4d/3x3"
  param {
    lr_mult: 1
    decay_mult: 1
  }
  param {
    lr_mult: 2
    decay_mult: 0
  }
  convolution_param {
    num_output: 288
    pad: 1
    kernel_size: 3
    weight_filler {
      type: "xavier"
    }
    bias_filler {
      type: "constant"
      value: 0.2
    }
  }
}
layer {
  name: "inception_4d/relu_3x3"
  type: "ReLU"
  bottom: "inception_4d/3x3"
  top: "inception_4d/3x3"
}
layer {
  name: "inception_4d/5x5_reduce"
  type: "Convolution"
  bottom: "inception_4c/output"
  top: "inception_4d/5x5_reduce"
  param {
    lr_mult: 1
    decay_mult: 1
  }
  param {
    lr_mult: 2
    decay_mult: 0
  }
  convolution_param {
    num_output: 32
    kernel_size: 1
    weight_filler {
      type: "xavier"
    }
    bias_filler {
      type: "constant"
      value: 0.2
    }
  }
}
layer {
  name: "inception_4d/relu_5x5_reduce"
  type: "ReLU"
  bottom: "inception_4d/5x5_reduce"
  top: "inception_4d/5x5_reduce"
}
layer {
  name: "inception_4d/5x5"
  type: "Convolution"
  bottom: "inception_4d/5x5_reduce"
  top: "inception_4d/5x5"
  param {
    lr_mult: 1
    decay_mult: 1
  }
  param {
    lr_mult: 2
    decay_mult: 0
  }
  convolution_param {
    num_output: 64
    pad: 2
    kernel_size: 5
    weight_filler {
      type: "xavier"
    }
    bias_filler {
      type: "constant"
      value: 0.2
    }
  }
}
layer {
  name: "inception_4d/relu_5x5"
  type: "ReLU"
  bottom: "inception_4d/5x5"
  top: "inception_4d/5x5"
}
layer {
  name: "inception_4d/pool"
  type: "Pooling"
  bottom: "inception_4c/output"
  top: "inception_4d/pool"
  pooling_param {
    pool: MAX
    kernel_size: 3
    stride: 1
    pad: 1
  }
}
layer {
  name: "inception_4d/pool_proj"
  type: "Convolution"
  bottom: "inception_4d/pool"
  top: "inception_4d/pool_proj"
  param {
    lr_mult: 1
    decay_mult: 1
  }
  param {
    lr_mult: 2
    decay_mult: 0
  }
  convolution_param {
    num_output: 64
    kernel_size: 1
    weight_filler {
      type: "xavier"
    }
    bias_filler {
      type: "constant"
      value: 0.2
    }
  }
}
layer {
  name: "inception_4d/relu_pool_proj"
  type: "ReLU"
  bottom: "inception_4d/pool_proj"
  top: "inception_4d/pool_proj"
}
layer {
  name: "inception_4d/output"
  type: "Concat"
  bottom: "inception_4d/1x1"
  bottom: "inception_4d/3x3"
  bottom: "inception_4d/5x5"
  bottom: "inception_4d/pool_proj"
  top: "inception_4d/output"
}
layer {
  name: "loss2/ave_pool"
  type: "Pooling"
  bottom: "inception_4d/output"
  top: "loss2/ave_pool"
  pooling_param {
    pool: AVE
    kernel_size: 5
    stride: 3
  }
}
layer {
  name: "loss2/conv"
  type: "Convolution"
  bottom: "loss2/ave_pool"
  top: "loss2/conv"
  param {
    lr_mult: 1
    decay_mult: 1
  }
  param {
    lr_mult: 2
    decay_mult: 0
  }
  convolution_param {
…
I1217 17:58:32.959408 15170 net.cpp:84] Creating Layer inception_4c/1x1
I1217 17:58:32.959414 15170 net.cpp:380] inception_4c/1x1 <- inception_4b/output_inception_4b/output_0_split_0
I1217 17:58:32.959426 15170 net.cpp:338] inception_4c/1x1 -> inception_4c/1x1
I1217 17:58:32.959436 15170 net.cpp:113] Setting up inception_4c/1x1
I1217 17:58:32.961024 15170 net.cpp:120] Top shape: 50 128 14 14 (1254400)
I1217 17:58:32.961045 15170 layer_factory.hpp:74] Creating layer inception_4c/relu_1x1
I1217 17:58:32.961067 15170 net.cpp:84] Creating Layer inception_4c/relu_1x1
I1217 17:58:32.961078 15170 net.cpp:380] inception_4c/relu_1x1 <- inception_4c/1x1
I1217 17:58:32.961088 15170 net.cpp:327] inception_4c/relu_1x1 -> inception_4c/1x1 (in-place)
I1217 17:58:32.961099 15170 net.cpp:113] Setting up inception_4c/relu_1x1
I1217 17:58:32.961410 15170 net.cpp:120] Top shape: 50 128 14 14 (1254400)
I1217 17:58:32.961424 15170 layer_factory.hpp:74] Creating layer inception_4c/3x3_reduce
I1217 17:58:32.961437 15170 net.cpp:84] Creating Layer inception_4c/3x3_reduce
I1217 17:58:32.961446 15170 net.cpp:380] inception_4c/3x3_reduce <- inception_4b/output_inception_4b/output_0_split_1
I1217 17:58:32.961472 15170 net.cpp:338] inception_4c/3x3_reduce -> inception_4c/3x3_reduce
I1217 17:58:32.961484 15170 net.cpp:113] Setting up inception_4c/3x3_reduce
I1217 17:58:32.962882 15170 net.cpp:120] Top shape: 50 128 14 14 (1254400)
I1217 17:58:32.962906 15170 layer_factory.hpp:74] Creating layer inception_4c/relu_3x3_reduce
I1217 17:58:32.962919 15170 net.cpp:84] Creating Layer inception_4c/relu_3x3_reduce
I1217 17:58:32.962927 15170 net.cpp:380] inception_4c/relu_3x3_reduce <- inception_4c/3x3_reduce
I1217 17:58:32.962936 15170 net.cpp:327] inception_4c/relu_3x3_reduce -> inception_4c/3x3_reduce (in-place)
I1217 17:58:32.962947 15170 net.cpp:113] Setting up inception_4c/relu_3x3_reduce
I1217 17:58:32.963043 15170 net.cpp:120] Top shape: 50 128 14 14 (1254400)
I1217 17:58:32.963057 15170 layer_factory.hpp:74] Creating layer inception_4c/3x3
I1217 17:58:32.963069 15170 net.cpp:84] Creating Layer inception_4c/3x3
I1217 17:58:32.963076 15170 net.cpp:380] inception_4c/3x3 <- inception_4c/3x3_reduce
I1217 17:58:32.963090 15170 net.cpp:338] inception_4c/3x3 -> inception_4c/3x3
I1217 17:58:32.963101 15170 net.cpp:113] Setting up inception_4c/3x3
I1217 17:58:32.967308 15170 net.cpp:120] Top shape: 50 256 14 14 (2508800)
I1217 17:58:32.967346 15170 layer_factory.hpp:74] Creating layer inception_4c/relu_3x3
I1217 17:58:32.967358 15170 net.cpp:84] Creating Layer inception_4c/relu_3x3
I1217 17:58:32.967368 15170 net.cpp:380] inception_4c/relu_3x3 <- inception_4c/3x3
I1217 17:58:32.967378 15170 net.cpp:327] inception_4c/relu_3x3 -> inception_4c/3x3 (in-place)
I1217 17:58:32.967389 15170 net.cpp:113] Setting up inception_4c/relu_3x3
I1217 17:58:32.967484 15170 net.cpp:120] Top shape: 50 256 14 14 (2508800)
I1217 17:58:32.967494 15170 layer_factory.hpp:74] Creating layer inception_4c/5x5_reduce
I1217 17:58:32.967507 15170 net.cpp:84] Creating Layer inception_4c/5x5_reduce
I1217 17:58:32.967515 15170 net.cpp:380] inception_4c/5x5_reduce <- inception_4b/output_inception_4b/output_0_split_2
I1217 17:58:32.967527 15170 net.cpp:338] inception_4c/5x5_reduce -> inception_4c/5x5_reduce
I1217 17:58:32.967540 15170 net.cpp:113] Setting up inception_4c/5x5_reduce
I1217 17:58:32.968251 15170 net.cpp:120] Top shape: 50 24 14 14 (235200)
I1217 17:58:32.968272 15170 layer_factory.hpp:74] Creating layer inception_4c/relu_5x5_reduce
I1217 17:58:32.968282 15170 net.cpp:84] Creating Layer inception_4c/relu_5x5_reduce
I1217 17:58:32.968291 15170 net.cpp:380] inception_4c/relu_5x5_reduce <- inception_4c/5x5_reduce
I1217 17:58:32.968302 15170 net.cpp:327] inception_4c/relu_5x5_reduce -> inception_4c/5x5_reduce (in-place)
I1217 17:58:32.968313 15170 net.cpp:113] Setting up inception_4c/relu_5x5_reduce
I1217 17:58:32.975105 15170 net.cpp:120] Top shape: 50 24 14 14 (235200)
I1217 17:58:32.975126 15170 layer_factory.hpp:74] Creating layer inception_4c/5x5
I1217 17:58:32.975138 15170 net.cpp:84] Creating Layer inception_4c/5x5
I1217 17:58:32.975149 15170 net.cpp:380] inception_4c/5x5 <- inception_4c/5x5_reduce
I1217 17:58:32.975160 15170 net.cpp:338] inception_4c/5x5 -> inception_4c/5x5
I1217 17:58:32.975172 15170 net.cpp:113] Setting up inception_4c/5x5
I1217 17:58:32.976183 15170 net.cpp:120] Top shape: 50 64 14 14 (627200)
I1217 17:58:32.976204 15170 layer_factory.hpp:74] Creating layer inception_4c/relu_5x5
I1217 17:58:32.976215 15170 net.cpp:84] Creating Layer inception_4c/relu_5x5
I1217 17:58:32.976223 15170 net.cpp:380] inception_4c/relu_5x5 <- inception_4c/5x5
I1217 17:58:32.976233 15170 net.cpp:327] inception_4c/relu_5x5 -> inception_4c/5x5 (in-place)
I1217 17:58:32.976243 15170 net.cpp:113] Setting up inception_4c/relu_5x5
I1217 17:58:32.976341 15170 net.cpp:120] Top shape: 50 64 14 14 (627200)
I1217 17:58:32.976351 15170 layer_factory.hpp:74] Creating layer inception_4c/pool
I1217 17:58:32.976359 15170 layer_factory.cpp:56] CUDNN does not support padding or multiple tops. Using Caffe's own pooling layer.
I1217 17:58:32.976369 15170 net.cpp:84] Creating Layer inception_4c/pool
I1217 17:58:32.976400 15170 net.cpp:380] inception_4c/pool <- inception_4b/output_inception_4b/output_0_split_3
I1217 17:58:32.976425 15170 net.cpp:338] inception_4c/pool -> inception_4c/pool
I1217 17:58:32.976438 15170 net.cpp:113] Setting up inception_4c/pool
I1217 17:58:32.976450 15170 net.cpp:120] Top shape: 50 512 14 14 (5017600)
I1217 17:58:32.976459 15170 layer_factory.hpp:74] Creating layer inception_4c/pool_proj
I1217 17:58:32.976472 15170 net.cpp:84] Creating Layer inception_4c/pool_proj
I1217 17:58:32.976480 15170 net.cpp:380] inception_4c/pool_proj <- inception_4c/pool
I1217 17:58:32.976488 15170 net.cpp:338] inception_4c/pool_proj -> inception_4c/pool_proj
I1217 17:58:32.976498 15170 net.cpp:113] Setting up inception_4c/pool_proj
I1217 17:58:32.977510 15170 net.cpp:120] Top shape: 50 64 14 14 (627200)
I1217 17:58:32.977532 15170 layer_factory.hpp:74] Creating layer inception_4c/relu_pool_proj
I1217 17:58:32.977543 15170 net.cpp:84] Creating Layer inception_4c/relu_pool_proj
I1217 17:58:32.977551 15170 net.cpp:380] inception_4c/relu_pool_proj <- inception_4c/pool_proj
I1217 17:58:32.977567 15170 net.cpp:327] inception_4c/relu_pool_proj -> inception_4c/pool_proj (in-place)
I1217 17:58:32.977578 15170 net.cpp:113] Setting up inception_4c/relu_pool_proj
I1217 17:58:32.977674 15170 net.cpp:120] Top shape: 50 64 14 14 (627200)
I1217 17:58:32.977684 15170 layer_factory.hpp:74] Creating layer inception_4c/output
I1217 17:58:32.977694 15170 net.cpp:84] Creating Layer inception_4c/output
I1217 17:58:32.977701 15170 net.cpp:380] inception_4c/output <- inception_4c/1x1
I1217 17:58:32.977710 15170 net.cpp:380] inception_4c/output <- inception_4c/3x3
I1217 17:58:32.977718 15170 net.cpp:380] inception_4c/output <- inception_4c/5x5
I1217 17:58:32.977726 15170 net.cpp:380] inception_4c/output <- inception_4c/pool_proj
I1217 17:58:32.977737 15170 net.cpp:338] inception_4c/output -> inception_4c/output
I1217 17:58:32.977748 15170 net.cpp:113] Setting up inception_4c/output
I1217 17:58:32.977759 15170 net.cpp:120] Top shape: 50 512 14 14 (5017600)
I1217 17:58:32.977767 15170 layer_factory.hpp:74] Creating layer inception_4c/output_inception_4c/output_0_split
I1217 17:58:32.977777 15170 net.cpp:84] Creating Layer inception_4c/output_inception_4c/output_0_split
I1217 17:58:32.977782 15170 net.cpp:380] inception_4c/output_inception_4c/output_0_split <- inception_4c/output
I1217 17:58:32.977792 15170 net.cpp:338] inception_4c/output_inception_4c/output_0_split -> inception_4c/output_inception_4c/output_0_split_0
I1217 17:58:32.977805 15170 net.cpp:338] inception_4c/output_inception_4c/output_0_split -> inception_4c/output_inception_4c/output_0_split_1
I1217 17:58:32.977816 15170 net.cpp:338] inception_4c/output_inception_4c/output_0_split -> inception_4c/output_inception_4c/output_0_split_2
I1217 17:58:32.977826 15170 net.cpp:338] inception_4c/output_inception_4c/output_0_split -> inception_4c/output_inception_4c/output_0_split_3
I1217 17:58:32.977835 15170 net.cpp:113] Setting up inception_4c/output_inception_4c/output_0_split
I1217 17:58:32.977848 15170 net.cpp:120] Top shape: 50 512 14 14 (5017600)
I1217 17:58:32.977855 15170 net.cpp:120] Top shape: 50 512 14 14 (5017600)
I1217 17:58:32.977864 15170 net.cpp:120] Top shape: 50 512 14 14 (5017600)
I1217 17:58:32.977872 15170 net.cpp:120] Top shape: 50 512 14 14 (5017600)
I1217 17:58:32.977880 15170 layer_factory.hpp:74] Creating layer inception_4d/1x1
I1217 17:58:32.977891 15170 net.cpp:84] Creating Layer inception_4d/1x1
I1217 17:58:32.977898 15170 net.cpp:380] inception_4d/1x1 <- inception_4c/output_inception_4c/output_0_split_0
I1217 17:58:32.977908 15170 net.cpp:338] inception_4d/1x1 -> inception_4d/1x1
I1217 17:58:32.977918 15170 net.cpp:113] Setting up inception_4d/1x1
I1217 17:58:32.979158 15170 net.cpp:120] Top shape: 50 112 14 14 (1097600)
I1217 17:58:32.979178 15170 layer_factory.hpp:74] Creating layer inception_4d/relu_1x1
I1217 17:58:32.979188 15170 net.cpp:84] Creating Layer inception_4d/relu_1x1
I1217 17:58:32.979197 15170 net.cpp:380] inception_4d/relu_1x1 <- inception_4d/1x1
I1217 17:58:32.979215 15170 net.cpp:327] inception_4d/relu_1x1 -> inception_4d/1x1 (in-place)
I1217 17:58:32.979235 15170 net.cpp:113] Setting up inception_4d/relu_1x1
I1217 17:58:32.979331 15170 net.cpp:120] Top shape: 50 112 14 14 (1097600)
I1217 17:58:32.979341 15170 layer_factory.hpp:74] Creating layer inception_4d/3x3_reduce
I1217 17:58:32.979356 15170 net.cpp:84] Creating Layer inception_4d/3x3_reduce
I1217 17:58:32.979364 15170 net.cpp:380] inception_4d/3x3_reduce <- inception_4c/output_inception_4c/output_0_split_1
I1217 17:58:32.979377 15170 net.cpp:338] inception_4d/3x3_reduce -> inception_4d/3x3_reduce
I1217 17:58:32.979388 15170 net.cpp:113] Setting up inception_4d/3x3_reduce
I1217 17:58:32.980859 15170 net.cpp:120] Top shape: 50 144 14 14 (1411200)
I1217 17:58:32.980878 15170 layer_factory.hpp:74] Creating layer inception_4d/relu_3x3_reduce
I1217 17:58:32.980888 15170 net.cpp:84] Creating Layer inception_4d/relu_3x3_reduce
I1217 17:58:32.980896 15170 net.cpp:380] inception_4d/relu_3x3_reduce <- inception_4d/3x3_reduce
I1217 17:58:32.980908 15170 net.cpp:327] inception_4d/relu_3x3_reduce -> inception_4d/3x3_reduce (in-place)
I1217 17:58:32.980919 15170 net.cpp:113] Setting up inception_4d/relu_3x3_reduce
I1217 17:58:32.981240 15170 net.cpp:120] Top shape: 50 144 14 14 (1411200)
I1217 17:58:32.981256 15170 layer_factory.hpp:74] Creating layer inception_4d/3x3
I1217 17:58:32.981271 15170 net.cpp:84] Creating Layer inception_4d/3x3
I1217 17:58:32.981278 15170 net.cpp:380] inception_4d/3x3 <- inception_4d/3x3_reduce
I1217 17:58:32.981292 15170 net.cpp:338] inception_4d/3x3 -> inception_4d/3x3
I1217 17:58:32.981303 15170 net.cpp:113] Setting up inception_4d/3x3
I1217 17:58:32.987468 15170 net.cpp:120] Top shape: 50 288 14 14 (2822400)
I1217 17:58:32.987506 15170 layer_factory.hpp:74] Creating layer inception_4d/relu_3x3
I1217 17:58:32.987517 15170 net.cpp:84] Creating Layer inception_4d/relu_3x3
I1217 17:58:32.987526 15170 net.cpp:380] inception_4d/relu_3x3 <- inception_4d/3x3
I1217 17:58:32.987536 15170 net.cpp:327] inception_4d/relu_3x3 -> inception_4d/3x3 (in-place)
I1217 17:58:32.987547 15170 net.cpp:113] Setting up inception_4d/relu_3x3
I1217 17:58:32.987645 15170 net.cpp:120] Top shape: 50 288 14 14 (2822400)
I1217 17:58:32.987654 15170 layer_factory.hpp:74] Creating layer inception_4d/5x5_reduce
I1217 17:58:32.987665 15170 net.cpp:84] Creating Layer inception_4d/5x5_reduce
I1217 17:58:32.987673 15170 net.cpp:380] inception_4d/5x5_reduce <- inception_4c/output_inception_4c/output_0_split_2
I1217 17:58:32.987685 15170 net.cpp:338] inception_4d/5x5_reduce -> inception_4d/5x5_reduce
I1217 17:58:32.987697 15170 net.cpp:113] Setting up inception_4d/5x5_reduce
I1217 17:58:32.988544 15170 net.cpp:120] Top shape: 50 32 14 14 (313600)
I1217 17:58:32.988567 15170 layer_factory.hpp:74] Creating layer inception_4d/relu_5x5_reduce
I1217 17:58:32.988579 15170 net.cpp:84] Creating Layer inception_4d/relu_5x5_reduce
I1217 17:58:32.988586 15170 net.cpp:380] inception_4d/relu_5x5_reduce <- inception_4d/5x5_reduce
I1217 17:58:32.988597 15170 net.cpp:327] inception_4d/relu_5x5_reduce -> inception_4d/5x5_reduce (in-place)
I1217 17:58:32.988608 15170 net.cpp:113] Setting up inception_4d/relu_5x5_reduce
I1217 17:58:32.988698 15170 net.cpp:120] Top shape: 50 32 14 14 (313600)
I1217 17:58:32.988708 15170 layer_factory.hpp:74] Creating layer inception_4d/5x5
I1217 17:58:32.988721 15170 net.cpp:84] Creating Layer inception_4d/5x5
I1217 17:58:32.988729 15170 net.cpp:380] inception_4d/5x5 <- inception_4d/5x5_reduce
I1217 17:58:32.988737 15170 net.cpp:338] inception_4d/5x5 -> inception_4d/5x5
I1217 17:58:32.988747 15170 net.cpp:113] Setting up inception_4d/5x5
I1217 17:58:32.990422 15170 net.cpp:120] Top shape: 50 64 14 14 (627200)
I1217 17:58:32.990442 15170 layer_factory.hpp:74] Creating layer inception_4d/relu_5x5
I1217 17:58:32.990453 15170 net.cpp:84] Creating Layer inception_4d/relu_5x5
I1217 17:58:32.990463 15170 net.cpp:380] inception_4d/relu_5x5 <- inception_4d/5x5
I1217 17:58:32.990473 15170 net.cpp:327] inception_4d/relu_5x5 -> inception_4d/5x5 (in-place)
I1217 17:58:32.990496 15170 net.cpp:113] Setting up inception_4d/relu_5x5
I1217 17:58:32.990604 15170 net.cpp:120] Top shape: 50 64 14 14 (627200)
I1217 17:58:32.990617 15170 layer_factory.hpp:74] Creating layer inception_4d/pool
I1217 17:58:32.990624 15170 layer_factory.cpp:56] CUDNN does not support padding or multiple tops. Using Caffe's own pooling layer.
I1217 17:58:32.990633 15170 net.cpp:84] Creating Layer inception_4d/pool
I1217 17:58:32.990641 15170 net.cpp:380] inception_4d/pool <- inception_4c/output_inception_4c/output_0_split_3
I1217 17:58:32.990653 15170 net.cpp:338] inception_4d/pool -> inception_4d/pool
I1217 17:58:32.990665 15170 net.cpp:113] Setting up inception_4d/pool
I1217 17:58:32.990680 15170 net.cpp:120] Top shape: 50 512 14 14 (5017600)
I1217 17:58:32.990687 15170 layer_factory.hpp:74] Creating layer inception_4d/pool_proj
I1217 17:58:32.990700 15170 net.cpp:84] Creating Layer inception_4d/pool_proj
I1217 17:58:32.990706 15170 net.cpp:380] inception_4d/pool_proj <- inception_4d/pool
I1217 17:58:32.990718 15170 net.cpp:338] inception_4d/pool_proj -> inception_4d/pool_proj
I1217 17:58:32.990730 15170 net.cpp:113] Setting up inception_4d/pool_proj
I1217 17:58:32.991696 15170 net.cpp:120] Top shape: 50 64 14 14 (627200)
I1217 17:58:32.991717 15170 layer_factory.hpp:74] Creating layer inception_4d/relu_pool_proj
I1217 17:58:32.991727 15170 net.cpp:84] Creating Layer inception_4d/relu_pool_proj
I1217 17:58:32.991735 15170 net.cpp:380] inception_4d/relu_pool_proj <- inception_4d/pool_proj
I1217 17:58:32.991745 15170 net.cpp:327] inception_4d/relu_pool_proj -> inception_4d/pool_proj (in-place)
I1217 17:58:32.991755 15170 net.cpp:113] Setting up inception_4d/relu_pool_proj
I1217 17:58:32.992063 15170 net.cpp:120] Top shape: 50 64 14 14 (627200)
I1217 17:58:32.992077 15170 layer_factory.hpp:74] Creating layer inception_4d/output
I1217 17:58:32.992089 15170 net.cpp:84] Creating Layer inception_4d/output
I1217 17:58:32.992099 15170 net.cpp:380] inception_4d/output <- inception_4d/1x1
I1217 17:58:32.992107 15170 net.cpp:380] inception_4d/output <- inception_4d/3x3
I1217 17:58:32.992115 15170 net.cpp:380] inception_4d/output <- inception_4d/5x5
I1217 17:58:32.992123 15170 net.cpp:380] inception_4d/output <- inception_4d/pool_proj
I1217 17:58:32.992132 15170 net.cpp:338] inception_4d/output -> inception_4d/output
I1217 17:58:32.992143 15170 net.cpp:113] Setting up inception_4d/output
I1217 17:58:32.992156 15170 net.cpp:120] Top shape: 50 528 14 14 (5174400)
I1217 17:58:32.992163 15170 layer_factory.hpp:74] Creating layer inception_4d/output_inception_4d/output_0_split
I1217 17:58:32.992175 15170 net.cpp:84] Creating Layer inception_4d/output_inception_4d/output_0_split
I1217 17:58:32.992182 15170 net.cpp:380] inception_4d/output_inception_4d/output_0_split <- inception_4d/output
I1217 17:58:32.992192 15170 net.cpp:338] inception_4d/output_inception_4d/output_0_split -> inception_4d/output_inception_4d/output_0_split_0
I1217 17:58:32.992202 15170 net.cpp:338] inception_4d/output_inception_4d/output_0_split -> inception_4d/output_inception_4d/output_0_split_1
I1217 17:58:32.992213 15170 net.cpp:338] inception_4d/output_inception_4d/output_0_split -> inception_4d/output_inception_4d/output_0_split_2
I1217 17:58:32.992224 15170 net.cpp:338] inception_4d/output_inception_4d/output_0_split -> inception_4d/output_inception_4d/output_0_split_3
I1217 17:58:32.992233 15170 net.cpp:338] inception_4d/output_inception_4d/output_0_split -> inception_4d/output_inception_4d/output_0_split_4
I1217 17:58:32.992244 15170 net.cpp:113] Setting up inception_4d/output_inception_4d/output_0_split
I1217 17:58:32.992257 15170 net.cpp:120] Top shape: 50 528 14 14 (5174400)
I1217 17:58:32.992266 15170 net.cpp:120] Top shape: 50 528 14 14 (5174400)
I1217 17:58:32.992274 15170 net.cpp:120] Top shape: 50 528 14 14 (5174400)
I1217 17:58:32.992283 15170 net.cpp:120] Top shape: 50 528 14 14 (5174400)
I1217 17:58:32.992291 15170 net.cpp:120] Top shape: 50 528 14 14 (5174400)
I1217 17:58:32.992298 15170 layer_factory.hpp:74] Creating layer loss2/ave_pool
I1217 17:58:32.992317 15170 net.cpp:84] Creating Layer loss2/ave_pool
I1217 17:58:32.992334 15170 net.cpp:380] loss2/ave_pool <- inception_4d/output_inception_4d/output_0_split_0
I1217 17:58:32.992347 15170 net.cpp:338] loss2/ave_pool -> loss2/ave_pool
I1217 17:58:32.992359 15170 net.cpp:113] Setting up loss2/ave_pool
I1217 17:58:32.992461 15170 net.cpp:120] Top shape: 50 528 4 4 (422400)
I1217 17:58:32.992471 15170 layer_factory.hpp:74] Creating layer loss2/conv
I1217 17:58:32.992487 15170 net.cpp:84] Creating Layer loss2/conv
I1217 17:58:32.992494 15170 net.cpp:380] loss2/conv <- loss2/ave_pool
I1217 17:58:32.992507 15170 net.cpp:338] loss2/conv -> loss2/conv
I1217 17:58:32.992518 15170 net.cpp:113] Setting up loss2/conv
I1217 17:58:32.993948 15170 net.cpp:120] Top shape: 50 128 4 4 (102400)
I1217 17:58:32.993971 15170 layer_factory.hpp:74] Creating layer loss2/relu_conv
I1217 17:58:32.993984 15170 net.cpp:84] Creating Layer loss2/relu_conv
I1217 17:58:32.993993 15170 net.cpp:380] loss2/relu_conv <- loss2/conv
I1217 17:58:32.994001 15170 net.cpp:327] loss2/relu_conv -> loss2/conv (in-place)
I1217 17:58:32.994012 15170 net.cpp:113] Setting up loss2/relu_conv
I1217 17:58:32.994107 15170 net.cpp:120] Top shape: 50 128 4 4 (102400)
I1217 17:58:32.994115 15170 layer_factory.hpp:74] Creating layer loss2/fc
I1217 17:58:32.994130 15170 net.cpp:84] Creating Layer loss2/fc
I1217 17:58:32.994138 15170 net.cpp:380] loss2/fc <- loss2/conv
I1217 17:58:32.994148 15170 net.cpp:338] loss2/fc -> loss2/fc
I1217 17:58:32.994161 15170 net.cpp:113] Setting up loss2/fc
I1217 17:58:33.018287 15170 net.cpp:120] Top shape: 50 1024 (51200)
I1217 17:58:33.018335 15170 layer_factory.hpp:74] Creating layer loss2/relu_fc
I1217 17:58:33.018349 15170 net.cpp:84] Creating Layer loss2/relu_fc
I1217 17:58:33.018360 15170 net.cpp:380] loss2/relu_fc <- loss2/fc
I1217 17:58:33.018371 15170 net.cpp:327] loss2/relu_fc -> loss2/fc (in-place)
I1217 17:58:33.018384 15170 net.cpp:113] Setting up loss2/relu_fc
I1217 17:58:33.018522 15170 net.cpp:120] Top shape: 50 1024 (51200)
I1217 17:58:33.018533 15170 layer_factory.hpp:74] Creating layer loss2/drop_fc
I1217 17:58:33.018546 15170 net.cpp:84] Creating Layer loss2/drop_fc
I1217 17:58:33.018554 15170 net.cpp:380] loss2/drop_fc <- loss2/fc
I1217 17:58:33.018563 15170 net.cpp:327] loss2/drop_fc -> loss2/fc (in-place)
I1217 17:58:33.018573 15170 net.cpp:113] Setting up loss2/drop_fc
I1217 17:58:33.018585 15170 net.cpp:120] Top shape: 50 1024 (51200)
I1217 17:58:33.018594 15170 layer_factory.hpp:74] Creating layer loss2/classifier_kaggle
I1217 17:58:33.018605 15170 net.cpp:84] Creating Layer loss2/classifier_kaggle
I1217 17:58:33.018612 15170 net.cpp:380] loss2/classifier_kaggle <- loss2/fc
I1217 17:58:33.018625 15170 net.cpp:338] loss2/classifier_kaggle -> loss2/classifier_kaggle
I1217 17:58:33.018638 15170 net.cpp:113] Setting up loss2/classifier_kaggle
I1217 17:58:33.024276 15170 net.cpp:120] Top shape: 50 447 (22350)
I1217 17:58:33.024297 15170 layer_factory.hpp:74] Creating layer loss2/classifier_kaggle_loss2/classifier_kaggle_0_split
I1217 17:58:33.024310 15170 net.cpp:84] Creating Layer loss2/classifier_kaggle_loss2/classifier_kaggle_0_split
I1217 17:58:33.024318 15170 net.cpp:380] loss2/classifier_kaggle_loss2/classifier_kaggle_0_split <- loss2/classifier_kaggle
I1217 17:58:33.024328 15170 net.cpp:338] loss2/classifier_kaggle_loss2/classifier_kaggle_0_split -> loss2/classifier_kaggle_loss2/classifier_kaggle_0_split_0
I1217 17:58:33.024340 15170 net.cpp:338] loss2/classifier_kaggle_loss2/classifier_kaggle_0_split -> loss2/classifier_kaggle_loss2/classifier_kaggle_0_split_1
I1217 17:58:33.024351 15170 net.cpp:338] loss2/classifier_kaggle_loss2/classifier_kaggle_0_split -> loss2/classifier_kaggle_loss2/classifier_kaggle_0_split_2
I1217 17:58:33.024361 15170 net.cpp:113] Setting up loss2/classifier_kaggle_loss2/classifier_kaggle_0_split
I1217 17:58:33.024374 15170 net.cpp:120] Top shape: 50 447 (22350)
I1217 17:58:33.024384 15170 net.cpp:120] Top shape: 50 447 (22350)
I1217 17:58:33.024407 15170 net.cpp:120] Top shape: 50 447 (22350)
I1217 17:58:33.024426 15170 layer_factory.hpp:74] Creating layer loss2/loss
I1217 17:58:33.024437 15170 net.cpp:84] Creating Layer loss2/loss
I1217 17:58:33.024446 15170 net.cpp:380] loss2/loss <- loss2/classifier_kaggle_loss2/classifier_kaggle_0_split_0
I1217 17:58:33.024454 15170 net.cpp:380] loss2/loss <- label_data_1_split_3
I1217 17:58:33.024463 15170 net.cpp:338] loss2/loss -> loss2/loss1
…
I1217 17:58:33.025184 15170 net.cpp:338] loss2/top-5 -> loss2/top-5
I1217 17:58:33.025194 15170 net.cpp:113] Setting up loss2/top-5
I1217 17:58:33.025205 15170 net.cpp:120] Top shape: (1)
I1217 17:58:33.025212 15170 layer_factory.hpp:74] Creating layer inception_4e/1x1
I1217 17:58:33.025224 15170 net.cpp:84] Creating Layer inception_4e/1x1
I1217 17:58:33.025233 15170 net.cpp:380] inception_4e/1x1 <- inception_4d/output_inception_4d/output_0_split_1
I1217 17:58:33.025243 15170 net.cpp:338] inception_4e/1x1 -> inception_4e/1x1
I1217 17:58:33.025254 15170 net.cpp:113] Setting up inception_4e/1x1
I1217 17:58:33.027462 15170 net.cpp:120] Top shape: 50 256 14 14 (2508800)
I1217 17:58:33.027482 15170 layer_factory.hpp:74] Creating layer inception_4e/relu_1x1
I1217 17:58:33.027493 15170 net.cpp:84] Creating Layer inception_4e/relu_1x1
I1217 17:58:33.027500 15170 net.cpp:380] inception_4e/relu_1x1 <- inception_4e/1x1
I1217 17:58:33.027510 15170 net.cpp:327] inception_4e/relu_1x1 -> inception_4e/1x1 (in-place)
I1217 17:58:33.027521 15170 net.cpp:113] Setting up inception_4e/relu_1x1
I1217 17:58:33.027618 15170 net.cpp:120] Top shape: 50 256 14 14 (2508800)
I1217 17:58:33.027627 15170 layer_factory.hpp:74] Creating layer inception_4e/3x3_reduce
I1217 17:58:33.027664 15170 net.cpp:84] Creating Layer inception_4e/3x3_reduce
I1217 17:58:33.027673 15170 net.cpp:380] inception_4e/3x3_reduce <- inception_4d/output_inception_4d/output_0_split_2
I1217 17:58:33.027684 15170 net.cpp:338] inception_4e/3x3_reduce -> inception_4e/3x3_reduce
I1217 17:58:33.027695 15170 net.cpp:113] Setting up inception_4e/3x3_reduce
I1217 17:58:33.029273 15170 net.cpp:120] Top shape: 50 160 14 14 (1568000)
I1217 17:58:33.029294 15170 layer_factory.hpp:74] Creating layer inception_4e/relu_3x3_reduce
I1217 17:58:33.029304 15170 net.cpp:84] Creating Layer inception_4e/relu_3x3_reduce
I1217 17:58:33.029312 15170 net.cpp:380] inception_4e/relu_3x3_reduce <- inception_4e/3x3_reduce
I1217 17:58:33.029325 15170 net.cpp:327] inception_4e/relu_3x3_reduce -> inception_4e/3x3_reduce (in-place)
I1217 17:58:33.029335 15170 net.cpp:113] Setting up inception_4e/relu_3x3_reduce
I1217 17:58:33.029433 15170 net.cpp:120] Top shape: 50 160 14 14 (1568000)
I1217 17:58:33.029443 15170 layer_factory.hpp:74] Creating layer inception_4e/3x3
I1217 17:58:33.029454 15170 net.cpp:84] Creating Layer inception_4e/3x3
I1217 17:58:33.029463 15170 net.cpp:380] inception_4e/3x3 <- inception_4e/3x3_reduce
I1217 17:58:33.029474 15170 net.cpp:338] inception_4e/3x3 -> inception_4e/3x3
I1217 17:58:33.029494 15170 net.cpp:113] Setting up inception_4e/3x3
I1217 17:58:33.035832 15170 net.cpp:120] Top shape: 50 320 14 14 (3136000)
I1217 17:58:33.035856 15170 layer_factory.hpp:74] Creating layer inception_4e/relu_3x3
I1217 17:58:33.035866 15170 net.cpp:84] Creating Layer inception_4e/relu_3x3
I1217 17:58:33.035874 15170 net.cpp:380] inception_4e/relu_3x3 <- inception_4e/3x3
I1217 17:58:33.035884 15170 net.cpp:327] inception_4e/relu_3x3 -> inception_4e/3x3 (in-place)
I1217 17:58:33.035897 15170 net.cpp:113] Setting up inception_4e/relu_3x3
I1217 17:58:33.036227 15170 net.cpp:120] Top shape: 50 320 14 14 (3136000)
I1217 17:58:33.036242 15170 layer_factory.hpp:74] Creating layer inception_4e/5x5_reduce
I1217 17:58:33.036254 15170 net.cpp:84] Creating Layer inception_4e/5x5_reduce
I1217 17:58:33.036262 15170 net.cpp:380] inception_4e/5x5_reduce <- inception_4d/output_inception_4d/output_0_split_3
I1217 17:58:33.036273 15170 net.cpp:338] inception_4e/5x5_reduce -> inception_4e/5x5_reduce
I1217 17:58:33.036285 15170 net.cpp:113] Setting up inception_4e/5x5_reduce
I1217 17:58:33.037037 15170 net.cpp:120] Top shape: 50 32 14 14 (313600)
I1217 17:58:33.037066 15170 layer_factory.hpp:74] Creating layer inception_4e/relu_5x5_reduce
I1217 17:58:33.037080 15170 net.cpp:84] Creating Layer inception_4e/relu_5x5_reduce
I1217 17:58:33.037087 15170 net.cpp:380] inception_4e/relu_5x5_reduce <- inception_4e/5x5_reduce
I1217 17:58:33.037096 15170 net.cpp:327] inception_4e/relu_5x5_reduce -> inception_4e/5x5_reduce (in-place)
I1217 17:58:33.037107 15170 net.cpp:113] Setting up inception_4e/relu_5x5_reduce
I1217 17:58:33.037204 15170 net.cpp:120] Top shape: 50 32 14 14 (313600)
I1217 17:58:33.037214 15170 layer_factory.hpp:74] Creating layer inception_4e/5x5
I1217 17:58:33.037228 15170 net.cpp:84] Creating Layer inception_4e/5x5
I1217 17:58:33.037235 15170 net.cpp:380] inception_4e/5x5 <- inception_4e/5x5_reduce
I1217 17:58:33.037245 15170 net.cpp:338] inception_4e/5x5 -> inception_4e/5x5
I1217 17:58:33.037256 15170 net.cpp:113] Setting up inception_4e/5x5
I1217 17:58:33.039105 15170 net.cpp:120] Top shape: 50 128 14 14 (1254400)
I1217 17:58:33.039125 15170 layer_factory.hpp:74] Creating layer inception_4e/relu_5x5
I1217 17:58:33.039139 15170 net.cpp:84] Creating Layer inception_4e/relu_5x5
I1217 17:58:33.039147 15170 net.cpp:380] inception_4e/relu_5x5 <- inception_4e/5x5
I1217 17:58:33.039157 15170 net.cpp:327] inception_4e/relu_5x5 -> inception_4e/5x5 (in-place)
I1217 17:58:33.039167 15170 net.cpp:113] Setting up inception_4e/relu_5x5
I1217 17:58:33.039261 15170 net.cpp:120] Top shape: 50 128 14 14 (1254400)
I1217 17:58:33.039270 15170 layer_factory.hpp:74] Creating layer inception_4e/pool
I1217 17:58:33.039279 15170 layer_factory.cpp:56] CUDNN does not support padding or multiple tops. Using Caffe's own pooling layer.
I1217 17:58:33.039290 15170 net.cpp:84] Creating Layer inception_4e/pool
I1217 17:58:33.039299 15170 net.cpp:380] inception_4e/pool <- inception_4d/output_inception_4d/output_0_split_4
I1217 17:58:33.039309 15170 net.cpp:338] inception_4e/pool -> inception_4e/pool
I1217 17:58:33.039319 15170 net.cpp:113] Setting up inception_4e/pool
I1217 17:58:33.039333 15170 net.cpp:120] Top shape: 50 528 14 14 (5174400)
I1217 17:58:33.039340 15170 layer_factory.hpp:74] Creating layer inception_4e/pool_proj
I1217 17:58:33.039356 15170 net.cpp:84] Creating Layer inception_4e/pool_proj
I1217 17:58:33.039363 15170 net.cpp:380] inception_4e/pool_proj <- inception_4e/pool
I1217 17:58:33.039373 15170 net.cpp:338] inception_4e/pool_proj -> inception_4e/pool_proj
I1217 17:58:33.039386 15170 net.cpp:113] Setting up inception_4e/pool_proj
I1217 17:58:33.040799 15170 net.cpp:120] Top shape: 50 128 14 14 (1254400)
I1217 17:58:33.040819 15170 layer_factory.hpp:74] Creating layer inception_4e/relu_pool_proj
I1217 17:58:33.040829 15170 net.cpp:84] Creating Layer inception_4e/relu_pool_proj
I1217 17:58:33.040838 15170 net.cpp:380] inception_4e/relu_pool_proj <- inception_4e/pool_proj
I1217 17:58:33.040849 15170 net.cpp:327] inception_4e/relu_pool_proj -> inception_4e/pool_proj (in-place)
I1217 17:58:33.040892 15170 net.cpp:113] Setting up inception_4e/relu_pool_proj
I1217 17:58:33.040983 15170 net.cpp:120] Top shape: 50 128 14 14 (1254400)
I1217 17:58:33.040993 15170 layer_factory.hpp:74] Creating layer inception_4e/output
I1217 17:58:33.041007 15170 net.cpp:84] Creating Layer inception_4e/output
I1217 17:58:33.041014 15170 net.cpp:380] inception_4e/output <- inception_4e/1x1
I1217 17:58:33.041025 15170 net.cpp:380] inception_4e/output <- inception_4e/3x3
I1217 17:58:33.041033 15170 net.cpp:380] inception_4e/output <- inception_4e/5x5
I1217 17:58:33.041041 15170 net.cpp:380] inception_4e/output <- inception_4e/pool_proj
I1217 17:58:33.041049 15170 net.cpp:338] inception_4e/output -> inception_4e/output
I1217 17:58:33.041070 15170 net.cpp:113] Setting up inception_4e/output
I1217 17:58:33.041085 15170 net.cpp:120] Top shape: 50 832 14 14 (8153600)
I1217 17:58:33.041092 15170 layer_factory.hpp:74] Creating layer pool4/3x3_s2
I1217 17:58:33.041103 15170 net.cpp:84] Creating Layer pool4/3x3_s2
I1217 17:58:33.041110 15170 net.cpp:380] pool4/3x3_s2 <- inception_4e/output
I1217 17:58:33.041122 15170 net.cpp:338] pool4/3x3_s2 -> pool4/3x3_s2
I1217 17:58:33.041134 15170 net.cpp:113] Setting up pool4/3x3_s2
I1217 17:58:33.041450 15170 net.cpp:120] Top shape: 50 832 7 7 (2038400)
I1217 17:58:33.041463 15170 layer_factory.hpp:74] Creating layer pool4/3x3_s2_pool4/3x3_s2_0_split
I1217 17:58:33.041474 15170 net.cpp:84] Creating Layer pool4/3x3_s2_pool4/3x3_s2_0_split
I1217 17:58:33.041481 15170 net.cpp:380] pool4/3x3_s2_pool4/3x3_s2_0_split <- pool4/3x3_s2
I1217 17:58:33.041492 15170 net.cpp:338] pool4/3x3_s2_pool4/3x3_s2_0_split -> pool4/3x3_s2_pool4/3x3_s2_0_split_0
I1217 17:58:33.041503 15170 net.cpp:338] pool4/3x3_s2_pool4/3x3_s2_0_split -> pool4/3x3_s2_pool4/3x3_s2_0_split_1
I1217 17:58:33.041514 15170 net.cpp:338] pool4/3x3_s2_pool4/3x3_s2_0_split -> pool4/3x3_s2_pool4/3x3_s2_0_split_2
I1217 17:58:33.041548 15170 net.cpp:338] pool4/3x3_s2_pool4/3x3_s2_0_split -> pool4/3x3_s2_pool4/3x3_s2_0_split_3
I1217 17:58:33.041558 15170 net.cpp:113] Setting up pool4/3x3_s2_pool4/3x3_s2_0_split
I1217 17:58:33.041569 15170 net.cpp:120] Top shape: 50 832 7 7 (2038400)
I1217 17:58:33.041579 15170 net.cpp:120] Top shape: 50 832 7 7 (2038400)
I1217 17:58:33.041590 15170 net.cpp:120] Top shape: 50 832 7 7 (2038400)
I1217 17:58:33.041599 15170 net.cpp:120] Top shape: 50 832 7 7 (2038400)
I1217 17:58:33.041606 15170 layer_factory.hpp:74] Creating layer inception_5a/1x1
I1217 17:58:33.041617 15170 net.cpp:84] Creating Layer inception_5a/1x1
I1217 17:58:33.041625 15170 net.cpp:380] inception_5a/1x1 <- pool4/3x3_s2_pool4/3x3_s2_0_split_0
I1217 17:58:33.041635 15170 net.cpp:338] inception_5a/1x1 -> inception_5a/1x1
I1217 17:58:33.041646 15170 net.cpp:113] Setting up inception_5a/1x1
I1217 17:58:33.050588 15170 net.cpp:120] Top shape: 50 256 7 7 (627200)
I1217 17:58:33.050612 15170 layer_factory.hpp:74] Creating layer inception_5a/relu_1x1
I1217 17:58:33.050629 15170 net.cpp:84] Creating Layer inception_5a/relu_1x1
I1217 17:58:33.050637 15170 net.cpp:380] inception_5a/relu_1x1 <- inception_5a/1x1
I1217 17:58:33.050647 15170 net.cpp:327] inception_5a/relu_1x1 -> inception_5a/1x1 (in-place)
I1217 17:58:33.050658 15170 net.cpp:113] Setting up inception_5a/relu_1x1
I1217 17:58:33.050755 15170 net.cpp:120] Top shape: 50 256 7 7 (627200)
I1217 17:58:33.050765 15170 layer_factory.hpp:74] Creating layer inception_5a/3x3_reduce
I1217 17:58:33.050779 15170 net.cpp:84] Creating Layer inception_5a/3x3_reduce
I1217 17:58:33.050787 15170 net.cpp:380] inception_5a/3x3_reduce <- pool4/3x3_s2_pool4/3x3_s2_0_split_1
I1217 17:58:33.050801 15170 net.cpp:338] inception_5a/3x3_reduce -> inception_5a/3x3_reduce
I1217 17:58:33.050812 15170 net.cpp:113] Setting up inception_5a/3x3_reduce
I1217 17:58:33.053005 15170 net.cpp:120] Top shape: 50 160 7 7 (392000)
I1217 17:58:33.053025 15170 layer_factory.hpp:74] Creating layer inception_5a/relu_3x3_reduce
I1217 17:58:33.053040 15170 net.cpp:84] Creating Layer inception_5a/relu_3x3_reduce
I1217 17:58:33.053066 15170 net.cpp:380] inception_5a/relu_3x3_reduce <- inception_5a/3x3_reduce
I1217 17:58:33.053088 15170 net.cpp:327] inception_5a/relu_3x3_reduce -> inception_5a/3x3_reduce (in-place)
I1217 17:58:33.053100 15170 net.cpp:113] Setting up inception_5a/relu_3x3_reduce
I1217 17:58:33.053200 15170 net.cpp:120] Top shape: 50 160 7 7 (392000)
I1217 17:58:33.053210 15170 layer_factory.hpp:74] Creating layer inception_5a/3x3
I1217 17:58:33.053222 15170 net.cpp:84] Creating Layer inception_5a/3x3
I1217 17:58:33.053231 15170 net.cpp:380] inception_5a/3x3 <- inception_5a/3x3_reduce
I1217 17:58:33.053241 15170 net.cpp:338] inception_5a/3x3 -> inception_5a/3x3
I1217 17:58:33.053252 15170 net.cpp:113] Setting up inception_5a/3x3
I1217 17:58:33.059440 15170 net.cpp:120] Top shape: 50 320 7 7 (784000)
I1217 17:58:33.059463 15170 layer_factory.hpp:74] Creating layer inception_5a/relu_3x3
I1217 17:58:33.059473 15170 net.cpp:84] Creating Layer inception_5a/relu_3x3
I1217 17:58:33.059480 15170 net.cpp:380] inception_5a/relu_3x3 <- inception_5a/3x3
I1217 17:58:33.059494 15170 net.cpp:327] inception_5a/relu_3x3 -> inception_5a/3x3 (in-place)
I1217 17:58:33.059504 15170 net.cpp:113] Setting up inception_5a/relu_3x3
I1217 17:58:33.059597 15170 net.cpp:120] Top shape: 50 320 7 7 (784000)
I1217 17:58:33.059607 15170 layer_factory.hpp:74] Creating layer inception_5a/5x5_reduce
I1217 17:58:33.059625 15170 net.cpp:84] Creating Layer inception_5a/5x5_reduce
I1217 17:58:33.059633 15170 net.cpp:380] inception_5a/5x5_reduce <- pool4/3x3_s2_pool4/3x3_s2_0_split_2
I1217 17:58:33.059643 15170 net.cpp:338] inception_5a/5x5_reduce -> inception_5a/5x5_reduce
I1217 17:58:33.059655 15170 net.cpp:113] Setting up inception_5a/5x5_reduce
I1217 17:58:33.060559 15170 net.cpp:120] Top shape: 50 32 7 7 (78400)
I1217 17:58:33.060580 15170 layer_factory.hpp:74] Creating layer inception_5a/relu_5x5_reduce
I1217 17:58:33.060590 15170 net.cpp:84] Creating Layer inception_5a/relu_5x5_reduce
I1217 17:58:33.060600 15170 net.cpp:380] inception_5a/relu_5x5_reduce <- inception_5a/5x5_reduce
I1217 17:58:33.060609 15170 net.cpp:327] inception_5a/relu_5x5_reduce -> inception_5a/5x5_reduce (in-place)
I1217 17:58:33.060619 15170 net.cpp:113] Setting up inception_5a/relu_5x5_reduce
I1217 17:58:33.060966 15170 net.cpp:120] Top shape: 50 32 7 7 (78400)
I1217 17:58:33.060979 15170 layer_factory.hpp:74] Creating layer inception_5a/5x5
I1217 17:58:33.060994 15170 net.cpp:84] Creating Layer inception_5a/5x5
I1217 17:58:33.061002 15170 net.cpp:380] inception_5a/5x5 <- inception_5a/5x5_reduce
I1217 17:58:33.061017 15170 net.cpp:338] inception_5a/5x5 -> inception_5a/5x5
I1217 17:58:33.061028 15170 net.cpp:113] Setting up inception_5a/5x5
I1217 17:58:33.062932 15170 net.cpp:120] Top shape: 50 128 7 7 (313600)
I1217 17:58:33.062953 15170 layer_factory.hpp:74] Creating layer inception_5a/relu_5x5
I1217 17:58:33.062963 15170 net.cpp:84] Creating Layer inception_5a/relu_5x5
I1217 17:58:33.062973 15170 net.cpp:380] inception_5a/relu_5x5 <- inception_5a/5x5
I1217 17:58:33.062983 15170 net.cpp:327] inception_5a/relu_5x5 -> inception_5a/5x5 (in-place)
I1217 17:58:33.062994 15170 net.cpp:113] Setting up inception_5a/relu_5x5
I1217 17:58:33.063096 15170 net.cpp:120] Top shape: 50 128 7 7 (313600)
I1217 17:58:33.063105 15170 layer_factory.hpp:74] Creating layer inception_5a/pool
I1217 17:58:33.063113 15170 layer_factory.cpp:56] CUDNN does not support padding or multiple tops. Using Caffe's own pooling layer.
I1217 17:58:33.063122 15170 net.cpp:84] Creating Layer inception_5a/pool
I1217 17:58:33.063130 15170 net.cpp:380] inception_5a/pool <- pool4/3x3_s2_pool4/3x3_s2_0_split_3
I1217 17:58:33.063140 15170 net.cpp:338] inception_5a/pool -> inception_5a/pool
I1217 17:58:33.063151 15170 net.cpp:113] Setting up inception_5a/pool
I1217 17:58:33.063164 15170 net.cpp:120] Top shape: 50 832 7 7 (2038400)
I1217 17:58:33.063171 15170 layer_factory.hpp:74] Creating layer inception_5a/pool_proj
I1217 17:58:33.063185 15170 net.cpp:84] Creating Layer inception_5a/pool_proj
I1217 17:58:33.063199 15170 net.cpp:380] inception_5a/pool_proj <- inception_5a/pool
I1217 17:58:33.063225 15170 net.cpp:338] inception_5a/pool_proj -> inception_5a/pool_proj
I1217 17:58:33.063235 15170 net.cpp:113] Setting up inception_5a/pool_proj
I1217 17:58:33.065135 15170 net.cpp:120] Top shape: 50 128 7 7 (313600)
I1217 17:58:33.065157 15170 layer_factory.hpp:74] Creating layer inception_5a/relu_pool_proj
I1217 17:58:33.065170 15170 net.cpp:84] Creating Layer inception_5a/relu_pool_proj
I1217 17:58:33.065178 15170 net.cpp:380] inception_5a/relu_pool_proj <- inception_5a/pool_proj
I1217 17:58:33.065188 15170 net.cpp:327] inception_5a/relu_pool_proj -> inception_5a/pool_proj (in-place)
I1217 17:58:33.065198 15170 net.cpp:113] Setting up inception_5a/relu_pool_proj
I1217 17:58:33.065297 15170 net.cpp:120] Top shape: 50 128 7 7 (313600)
I1217 17:58:33.065307 15170 layer_factory.hpp:74] Creating layer inception_5a/output
I1217 17:58:33.065320 15170 net.cpp:84] Creating Layer inception_5a/output
I1217 17:58:33.065326 15170 net.cpp:380] inception_5a/output <- inception_5a/1x1
I1217 17:58:33.065335 15170 net.cpp:380] inception_5a/output <- inception_5a/3x3
I1217 17:58:33.065343 15170 net.cpp:380] inception_5a/output <- inception_5a/5x5
I1217 17:58:33.065351 15170 net.cpp:380] inception_5a/output <- inception_5a/pool_proj
I1217 17:58:33.065361 15170 net.cpp:338] inception_5a/output -> inception_5a/output
I1217 17:58:33.065371 15170 net.cpp:113] Setting up inception_5a/output
I1217 17:58:33.065383 15170 net.cpp:120] Top shape: 50 832 7 7 (2038400)
I1217 17:58:33.065390 15170 layer_factory.hpp:74] Creating layer inception_5a/output_inception_5a/output_0_split
I1217 17:58:33.065400 15170 net.cpp:84] Creating Layer inception_5a/output_inception_5a/output_0_split
I1217 17:58:33.065407 15170 net.cpp:380] inception_5a/output_inception_5a/output_0_split <- inception_5a/output
I1217 17:58:33.065420 15170 net.cpp:338] inception_5a/output_inception_5a/output_0_split -> inception_5a/output_inception_5a/output_0_split_0
I1217 17:58:33.065431 15170 net.cpp:338] inception_5a/output_inception_5a/output_0_split -> inception_5a/output_inception_5a/output_0_split_1
I1217 17:58:33.065443 15170 net.cpp:338] inception_5a/output_inception_5a/output_0_split -> inception_5a/output_inception_5a/output_0_split_2
I1217 17:58:33.065454 15170 net.cpp:338] inception_5a/output_inception_5a/output_0_split -> inception_5a/output_inception_5a/output_0_split_3
I1217 17:58:33.065462 15170 net.cpp:113] Setting up inception_5a/output_inception_5a/output_0_split
I1217 17:58:33.065474 15170 net.cpp:120] Top shape: 50 832 7 7 (2038400)
I1217 17:58:33.065482 15170 net.cpp:120] Top shape: 50 832 7 7 (2038400)
I1217 17:58:33.065490 15170 net.cpp:120] Top shape: 50 832 7 7 (2038400)
I1217 17:58:33.065498 15170 net.cpp:120] Top shape: 50 832 7 7 (2038400)
I1217 17:58:33.065505 15170 layer_factory.hpp:74] Creating layer inception_5b/1x1
I1217 17:58:33.065518 15170 net.cpp:84] Creating Layer inception_5b/1x1
I1217 17:58:33.065526 15170 net.cpp:380] inception_5b/1x1 <- inception_5a/output_inception_5a/output_0_split_0
I1217 17:58:33.065537 15170 net.cpp:338] inception_5b/1x1 -> inception_5b/1x1
I1217 17:58:33.065547 15170 net.cpp:113] Setting up inception_5b/1x1
I1217 17:58:33.070036 15170 net.cpp:120] Top shape: 50 384 7 7 (940800)
I1217 17:58:33.070060 15170 layer_factory.hpp:74] Creating layer inception_5b/relu_1x1
I1217 17:58:33.070073 15170 net.cpp:84] Creating Layer inception_5b/relu_1x1
I1217 17:58:33.070081 15170 net.cpp:380] inception_5b/relu_1x1 <- inception_5b/1x1
I1217 17:58:33.070092 15170 net.cpp:327] inception_5b/relu_1x1 -> inception_5b/1x1 (in-place)
I1217 17:58:33.070102 15170 net.cpp:113] Setting up inception_5b/relu_1x1
I1217 17:58:33.070199 15170 net.cpp:120] Top shape: 50 384 7 7 (940800)
I1217 17:58:33.070209 15170 layer_factory.hpp:74] Creating layer inception_5b/3x3_reduce
I1217 17:58:33.070222 15170 net.cpp:84] Creating Layer inception_5b/3x3_reduce
I1217 17:58:33.070230 15170 net.cpp:380] inception_5b/3x3_reduce <- inception_5a/output_inception_5a/output_0_split_1
I1217 17:58:33.070248 15170 net.cpp:338] inception_5b/3x3_reduce -> inception_5b/3x3_reduce
I1217 17:58:33.070271 15170 net.cpp:113] Setting up inception_5b/3x3_reduce
I1217 17:58:33.072808 15170 net.cpp:120] Top shape: 50 192 7 7 (470400)
I1217 17:58:33.072829 15170 layer_factory.hpp:74] Creating layer inception_5b/relu_3x3_reduce
I1217 17:58:33.072840 15170 net.cpp:84] Creating Layer inception_5b/relu_3x3_reduce
I1217 17:58:33.072849 15170 net.cpp:380] inception_5b/relu_3x3_reduce <- inception_5b/3x3_reduce
I1217 17:58:33.072859 15170 net.cpp:327] inception_5b/relu_3x3_reduce -> inception_5b/3x3_reduce (in-place)
I1217 17:58:33.072870 15170 net.cpp:113] Setting up inception_5b/relu_3x3_reduce
I1217 17:58:33.073192 15170 net.cpp:120] Top shape: 50 192 7 7 (470400)
I1217 17:58:33.073209 15170 layer_factory.hpp:74] Creating layer inception_5b/3x3
I1217 17:58:33.073222 15170 net.cpp:84] Creating Layer inception_5b/3x3
I1217 17:58:33.073230 15170 net.cpp:380] inception_5b/3x3 <- inception_5b/3x3_reduce
I1217 17:58:33.073243 15170 net.cpp:338] inception_5b/3x3 -> inception_5b/3x3
I1217 17:58:33.073256 15170 net.cpp:113] Setting up inception_5b/3x3
I1217 17:58:33.081948 15170 net.cpp:120] Top shape: 50 384 7 7 (940800)
I1217 17:58:33.081972 15170 layer_factory.hpp:74] Creating layer inception_5b/relu_3x3
I1217 17:58:33.081984 15170 net.cpp:84] Creating Layer inception_5b/relu_3x3
I1217 17:58:33.081991 15170 net.cpp:380] inception_5b/relu_3x3 <- inception_5b/3x3
I1217 17:58:33.082005 15170 net.cpp:327] inception_5b/relu_3x3 -> inception_5b/3x3 (in-place)
I1217 17:58:33.082015 15170 net.cpp:113] Setting up inception_5b/relu_3x3
I1217 17:58:33.082113 15170 net.cpp:120] Top shape: 50 384 7 7 (940800)
I1217 17:58:33.082123 15170 layer_factory.hpp:74] Creating layer inception_5b/5x5_reduce
I1217 17:58:33.082136 15170 net.cpp:84] Creating Layer inception_5b/5x5_reduce
I1217 17:58:33.082144 15170 net.cpp:380] inception_5b/5x5_reduce <- inception_5a/output_inception_5a/output_0_split_2
I1217 17:58:33.082154 15170 net.cpp:338] inception_5b/5x5_reduce -> inception_5b/5x5_reduce
I1217 17:58:33.082165 15170 net.cpp:113] Setting up inception_5b/5x5_reduce
I1217 17:58:33.083202 15170 net.cpp:120] Top shape: 50 48 7 7 (117600)
I1217 17:58:33.083222 15170 layer_factory.hpp:74] Creating layer inception_5b/relu_5x5_reduce
I1217 17:58:33.083235 15170 net.cpp:84] Creating Layer inception_5b/relu_5x5_reduce
I1217 17:58:33.083242 15170 net.cpp:380] inception_5b/relu_5x5_reduce <- inception_5b/5x5_reduce
I1217 17:58:33.083251 15170 net.cpp:327] inception_5b/relu_5x5_reduce -> inception_5b/5x5_reduce (in-place)
I1217 17:58:33.083262 15170 net.cpp:113] Setting up inception_5b/relu_5x5_reduce
I1217 17:58:33.083351 15170 net.cpp:120] Top shape: 50 48 7 7 (117600)
I1217 17:58:33.083362 15170 layer_factory.hpp:74] Creating layer inception_5b/5x5
I1217 17:58:33.083375 15170 net.cpp:84] Creating Layer inception_5b/5x5
I1217 17:58:33.083384 15170 net.cpp:380] inception_5b/5x5 <- inception_5b/5x5_reduce
I1217 17:58:33.083395 15170 net.cpp:338] inception_5b/5x5 -> inception_5b/5x5
I1217 17:58:33.083405 15170 net.cpp:113] Setting up inception_5b/5x5
I1217 17:58:33.085821 15170 net.cpp:120] Top shape: 50 128 7 7 (313600)
I1217 17:58:33.085842 15170 layer_factory.hpp:74] Creating layer inception_5b/relu_5x5
I1217 17:58:33.085852 15170 net.cpp:84] Creating Layer inception_5b/relu_5x5
I1217 17:58:33.085861 15170 net.cpp:380] inception_5b/relu_5x5 <- inception_5b/5x5
I1217 17:58:33.085871 15170 net.cpp:327] inception_5b/relu_5x5 -> inception_5b/5x5 (in-place)
I1217 17:58:33.085881 15170 net.cpp:113] Setting up inception_5b/relu_5x5
I1217 17:58:33.086228 15170 net.cpp:120] Top shape: 50 128 7 7 (313600)
I1217 17:58:33.086243 15170 layer_factory.hpp:74] Creating layer inception_5b/pool
I1217 17:58:33.086251 15170 layer_factory.cpp:56] CUDNN does not support padding or multiple tops. Using Caffe's own pooling layer.
I1217 17:58:33.086268 15170 net.cpp:84] Creating Layer inception_5b/pool
I1217 17:58:33.086277 15170 net.cpp:380] inception_5b/pool <- inception_5a/output_inception_5a/output_0_split_3
I1217 17:58:33.086308 15170 net.cpp:338] inception_5b/pool -> inception_5b/pool
I1217 17:58:33.086320 15170 net.cpp:113] Setting up inception_5b/pool
I1217 17:58:33.086339 15170 net.cpp:120] Top shape: 50 832 7 7 (2038400)
I1217 17:58:33.086347 15170 layer_factory.hpp:74] Creating layer inception_5b/pool_proj
I1217 17:58:33.086359 15170 net.cpp:84] Creating Layer inception_5b/pool_proj
I1217 17:58:33.086366 15170 net.cpp:380] inception_5b/pool_proj <- inception_5b/pool
I1217 17:58:33.086379 15170 net.cpp:338] inception_5b/pool_proj -> inception_5b/pool_proj
I1217 17:58:33.086390 15170 net.cpp:113] Setting up inception_5b/pool_proj
I1217 17:58:33.088256 15170 net.cpp:120] Top shape: 50 128 7 7 (313600)
I1217 17:58:33.088276 15170 layer_factory.hpp:74] Creating layer inception_5b/relu_pool_proj
I1217 17:58:33.088289 15170 net.cpp:84] Creating Layer inception_5b/relu_pool_proj
I1217 17:58:33.088297 15170 net.cpp:380] inception_5b/relu_pool_proj <- inception_5b/pool_proj
I1217 17:58:33.088307 15170 net.cpp:327] inception_5b/relu_pool_proj -> inception_5b/pool_proj (in-place)
I1217 17:58:33.088317 15170 net.cpp:113] Setting up inception_5b/relu_pool_proj
I1217 17:58:33.088413 15170 net.cpp:120] Top shape: 50 128 7 7 (313600)
I1217 17:58:33.088423 15170 layer_factory.hpp:74] Creating layer inception_5b/output
I1217 17:58:33.088434 15170 net.cpp:84] Creating Layer inception_5b/output
I1217 17:58:33.088443 15170 net.cpp:380] inception_5b/output <- inception_5b/1x1
I1217 17:58:33.088450 15170 net.cpp:380] inception_5b/output <- inception_5b/3x3
I1217 17:58:33.088459 15170 net.cpp:380] inception_5b/output <- inception_5b/5x5
I1217 17:58:33.088467 15170 net.cpp:380] inception_5b/output <- inception_5b/pool_proj
I1217 17:58:33.088476 15170 net.cpp:338] inception_5b/output -> inception_5b/output
I1217 17:58:33.088487 15170 net.cpp:113] Setting up inception_5b/output
I1217 17:58:33.088500 15170 net.cpp:120] Top shape: 50 1024 7 7 (2508800)
I1217 17:58:33.088506 15170 layer_factory.hpp:74] Creating layer pool5/7x7_s1
I1217 17:58:33.088515 15170 net.cpp:84] Creating Layer pool5/7x7_s1
I1217 17:58:33.088523 15170 net.cpp:380] pool5/7x7_s1 <- inception_5b/output
I1217 17:58:33.088534 15170 net.cpp:338] pool5/7x7_s1 -> pool5/7x7_s1
I1217 17:58:33.088546 15170 net.cpp:113] Setting up pool5/7x7_s1
I1217 17:58:33.088645 15170 net.cpp:120] Top shape: 50 1024 1 1 (51200)
I1217 17:58:33.088655 15170 layer_factory.hpp:74] Creating layer pool5/drop_7x7_s1
I1217 17:58:33.088665 15170 net.cpp:84] Creating Layer pool5/drop_7x7_s1
I1217 17:58:33.088673 15170 net.cpp:380] pool5/drop_7x7_s1 <- pool5/7x7_s1
I1217 17:58:33.088682 15170 net.cpp:327] pool5/drop_7x7_s1 -> pool5/7x7_s1 (in-place)
I1217 17:58:33.088691 15170 net.cpp:113] Setting up pool5/drop_7x7_s1
I1217 17:58:33.088703 15170 net.cpp:120] Top shape: 50 1024 1 1 (51200)
I1217 17:58:33.088711 15170 layer_factory.hpp:74] Creating layer loss3/classifier_kaggle
I1217 17:58:33.088724 15170 net.cpp:84] Creating Layer loss3/classifier_kaggle
I1217 17:58:33.088732 15170 net.cpp:380] loss3/classifier_kaggle <- pool5/7x7_s1
I1217 17:58:33.088742 15170 net.cpp:338] loss3/classifier_kaggle -> loss3/classifier_kaggle
I1217 17:58:33.088753 15170 net.cpp:113] Setting up loss3/classifier_kaggle
I1217 17:58:33.094367 15170 net.cpp:120] Top shape: 50 447 (22350)
I1217 17:58:33.094386 15170 layer_factory.hpp:74] Creating layer loss3/classifier_kaggle_loss3/classifier_kaggle_0_split
I1217 17:58:33.094403 15170 net.cpp:84] Creating Layer loss3/classifier_kaggle_loss3/classifier_kaggle_0_split
I1217 17:58:33.094411 15170 net.cpp:380] loss3/classifier_kaggle_loss3/classifier_kaggle_0_split <- loss3/classifier_kaggle
I1217 17:58:33.094421 15170 net.cpp:338] loss3/classifier_kaggle_loss3/classifier_kaggle_0_split -> loss3/classifier_kaggle_loss3/classifier_kaggle_0_split_0
I1217 17:58:33.094434 15170 net.cpp:338] loss3/classifier_kaggle_loss3/classifier_kaggle_0_split -> loss3/classifier_kaggle_loss3/classifier_kaggle_0_split_1
I1217 17:58:33.094444 15170 net.cpp:338] loss3/classifier_kaggle_loss3/classifier_kaggle_0_split -> loss3/classifier_kaggle_loss3/classifier_kaggle_0_split_2
I1217 17:58:33.094471 15170 net.cpp:113] Setting up loss3/classifier_kaggle_loss3/classifier_kaggle_0_split
I1217 17:58:33.094491 15170 net.cpp:120] Top shape: 50 447 (22350)
I1217 17:58:33.094499 15170 net.cpp:120] Top shape: 50 447 (22350)
I1217 17:58:33.094509 15170 net.cpp:120] Top shape: 50 447 (22350)
I1217 17:58:33.094517 15170 layer_factory.hpp:74] Creating layer loss3/loss3
I1217 17:58:33.094527 15170 net.cpp:84] Creating Layer loss3/loss3
I1217 17:58:33.094534 15170 net.cpp:380] loss3/loss3 <- loss3/classifier_kaggle_loss3/classifier_kaggle_0_split_0
I1217 17:58:33.094542 15170 net.cpp:380] loss3/loss3 <- label_data_1_split_6
I1217 17:58:33.094552 15170 net.cpp:338] loss3/loss3 -> loss3/loss3
…
