…
I1219 15:43:01.088112 31962 net.cpp:257] The NetState phase (0) differed from the phase (1) specified by a rule in layer loss3/top-5
I1219 15:43:01.090613 31962 net.cpp:42] Initializing net from parameters: 
name: "MYNET"
state {
  phase: TRAIN
}
layer {
  name: "data"
  type: "ImageData"
  top: "data"
  top: "label"
  include {
    phase: TRAIN
  }
  transform_param {
    mirror: false
    crop_size: 224
    mean_value: 129
    mean_value: 129
    mean_value: 129
  }
  image_data_param {
    source: "/home/coldmanck/kaggle/label_train_full.txt"
    batch_size: 80
    shuffle: true
  }
}
layer {
  name: "conv1/7x7_s2"
  type: "Convolution"
  bottom: "data"
  top: "conv1/7x7_s2"
  param {
    lr_mult: 1
    decay_mult: 1
  }
  param {
    lr_mult: 2
    decay_mult: 0
  }
  convolution_param {
    num_output: 64
    pad: 3
    kernel_size: 7
    stride: 2
    weight_filler {
      type: "xavier"
    }
    bias_filler {
      type: "constant"
      value: 0.2
    }
  }
}
layer {
  name: "conv1/relu_7x7"
  type: "ReLU"
  bottom: "conv1/7x7_s2"
  top: "conv1/7x7_s2"
}
layer {
  name: "pool1/3x3_s2"
  type: "Pooling"
  bottom: "conv1/7x7_s2"
  top: "pool1/3x3_s2"
  pooling_param {
    pool: MAX
    kernel_size: 3
    stride: 2
  }
}
layer {
  name: "pool1/norm1"
  type: "LRN"
  bottom: "pool1/3x3_s2"
  top: "pool1/norm1"
  lrn_param {
    local_size: 5
    alpha: 0.0001
    beta: 0.75
  }
}
layer {
  name: "conv2/3x3_reduce"
  type: "Convolution"
  bottom: "pool1/norm1"
  top: "conv2/3x3_reduce"
  param {
    lr_mult: 1
    decay_mult: 1
  }
  param {
    lr_mult: 2
    decay_mult: 0
  }
  convolution_param {
    num_output: 64
    kernel_size: 1
    weight_filler {
      type: "xavier"
    }
    bias_filler {
      type: "constant"
      value: 0.2
    }
  }
}
layer {
  name: "conv2/relu_3x3_reduce"
  type: "ReLU"
  bottom: "conv2/3x3_reduce"
  top: "conv2/3x3_reduce"
}
layer {
  name: "conv2/3x3"
  type: "Convolution"
  bottom: "conv2/3x3_reduce"
  top: "conv2/3x3"
  param {
    lr_mult: 1
    decay_mult: 1
  }
  param {
    lr_mult: 2
    decay_mult: 0
  }
  convolution_param {
    num_output: 192
    pad: 1
    kernel_size: 3
    weight_filler {
      type: "xavier"
    }
    bias_filler {
      type: "constant"
      value: 0.2
    }
  }
}
layer {
  name: "conv2/relu_3x3"
  type: "ReLU"
  bottom: "conv2/3x3"
  top: "conv2/3x3"
}
layer {
  name: "conv2/norm2"
  type: "LRN"
  bottom: "conv2/3x3"
  top: "conv2/norm2"
  lrn_param {
    local_size: 5
    alpha: 0.0001
    beta: 0.75
  }
}
layer {
  name: "pool2/3x3_s2"
  type: "Pooling"
  bottom: "conv2/norm2"
  top: "pool2/3x3_s2"
  pooling_param {
    pool: MAX
    kernel_size: 3
    stride: 2
  }
}
layer {
  name: "inception_3a/1x1"
  type: "Convolution"
  bottom: "pool2/3x3_s2"
  top: "inception_3a/1x1"
  param {
    lr_mult: 1
    decay_mult: 1
  }
  param {
    lr_mult: 2
    decay_mult: 0
  }
  convolution_param {
    num_output: 64
    kernel_size: 1
    weight_filler {
      type: "xavier"
    }
    bias_filler {
      type: "constant"
      value: 0.2
    }
  }
}
layer {
  name: "inception_3a/relu_1x1"
  type: "ReLU"
  bottom: "inception_3a/1x1"
  top: "inception_3a/1x1"
}
layer {
  name: "inception_3a/3x3_reduce"
  type: "Convolution"
  bottom: "pool2/3x3_s2"
  top: "inception_3a/3x3_reduce"
  param {
    lr_mult: 1
    decay_mult: 1
  }
  param {
    lr_mult: 2
    decay_mult: 0
  }
  convolution_param {
    num_output: 96
    kernel_size: 1
    weight_filler {
      type: "xavier"
    }
    bias_filler {
      type: "constant"
      value: 0.2
    }
  }
}
layer {
  name: "inception_3a/relu_3x3_reduce"
  type: "ReLU"
  bottom: "inception_3a/3x3_reduce"
  top: "inception_3a/3x3_reduce"
}
layer {
  name: "inception_3a/3x3"
  type: "Convolution"
  bottom: "inception_3a/3x3_reduce"
  top: "inception_3a/3x3"
  param {
    lr_mult: 1
    decay_mult: 1
  }
  param {
    lr_mult: 2
    decay_mult: 0
  }
  convolution_param {
    num_output: 128
    pad: 1
    kernel_size: 3
    weight_filler {
      type: "xavier"
    }
    bias_filler {
      type: "constant"
      value: 0.2
    }
  }
}
layer {
  name: "inception_3a/relu_3x3"
  type: "ReLU"
  bottom: "inception_3a/3x3"
  top: "inception_3a/3x3"
}
layer {
  name: "inception_3a/5x5_reduce"
  type: "Convolution"
  bottom: "pool2/3x3_s2"
  top: "inception_3a/5x5_reduce"
  param {
    lr_mult: 1
    decay_mult: 1
  }
  param {
    lr_mult: 2
    decay_mult: 0
  }
  convolution_param {
    num_output: 16
    kernel_size: 1
    weight_filler {
      type: "xavier"
    }
    bias_filler {
      type: "constant"
      value: 0.2
    }
  }
}
layer {
  name: "inception_3a/relu_5x5_reduce"
  type: "ReLU"
  bottom: "inception_3a/5x5_reduce"
  top: "inception_3a/5x5_reduce"
}
layer {
  name: "inception_3a/5x5"
  type: "Convolution"
  bottom: "inception_3a/5x5_reduce"
  top: "inception_3a/5x5"
  param {
    lr_mult: 1
    decay_mult: 1
  }
  param {
    lr_mult: 2
    decay_mult: 0
  }
  convolution_param {
    num_output: 32
    pad: 2
    kernel_size: 5
    weight_filler {
      type: "xavier"
    }
    bias_filler {
      type: "constant"
      value: 0.2
    }
  }
}
layer {
  name: "inception_3a/relu_5x5"
  type: "ReLU"
  bottom: "inception_3a/5x5"
  top: "inception_3a/5x5"
}
layer {
  name: "inception_3a/pool"
  type: "Pooling"
  bottom: "pool2/3x3_s2"
  top: "inception_3a/pool"
  pooling_param {
    pool: MAX
    kernel_size: 3
    stride: 1
    pad: 1
  }
}
layer {
  name: "inception_3a/pool_proj"
  type: "Convolution"
  bottom: "inception_3a/pool"
  top: "inception_3a/pool_proj"
  param {
    lr_mult: 1
    decay_mult: 1
  }
  param {
    lr_mult: 2
    decay_mult: 0
  }
  convolution_param {
    num_output: 32
    kernel_size: 1
    weight_filler {
      type: "xavier"
    }
    bias_filler {
      type: "constant"
      value: 0.2
    }
  }
}
layer {
  name: "inception_3a/relu_pool_proj"
  type: "ReLU"
  bottom: "inception_3a/pool_proj"
  top: "inception_3a/pool_proj"
}
layer {
  name: "inception_3a/output"
  type: "Concat"
  bottom: "inception_3a/1x1"
  bottom: "inception_3a/3x3"
  bottom: "inception_3a/5x5"
  bottom: "inception_3a/pool_proj"
  top: "inception_3a/output"
}
layer {
  name: "inception_3b/1x1"
  type: "Convolution"
  bottom: "inception_3a/output"
  top: "inception_3b/1x1"
  param {
    lr_mult: 1
    decay_mult: 1
  }
  param {
    lr_mult: 2
    decay_mult: 0
  }
  convolution_param {
    num_output: 128
    kernel_size: 1
    weight_filler {
      type: "xavier"
    }
    bias_filler {
      type: "constant"
      value: 0.2
    }
  }
}
layer {
  name: "inception_3b/relu_1x1"
  type: "ReLU"
  bottom: "inception_3b/1x1"
  top: "inception_3b/1x1"
}
layer {
  name: "inception_3b/3x3_reduce"
  type: "Convolution"
  bottom: "inception_3a/output"
  top: "inception_3b/3x3_reduce"
  param {
    lr_mult: 1
    decay_mult: 1
  }
  param {
    lr_mult: 2
    decay_mult: 0
  }
  convolution_param {
    num_output: 128
    kernel_size: 1
    weight_filler {
      type: "xavier"
    }
    bias_filler {
      type: "constant"
      value: 0.2
    }
  }
}
layer {
  name: "inception_3b/relu_3x3_reduce"
  type: "ReLU"
  bottom: "inception_3b/3x3_reduce"
  top: "inception_3b/3x3_reduce"
}
layer {
  name: "inception_3b/3x3"
  type: "Convolution"
  bottom: "inception_3b/3x3_reduce"
  top: "inception_3b/3x3"
  param {
    lr_mult: 1
    decay_mult: 1
  }
  param {
    lr_mult: 2
    decay_mult: 0
  }
  convolution_param {
    num_output: 192
    pad: 1
    kernel_size: 3
    weight_filler {
      type: "xavier"
    }
    bias_filler {
      type: "constant"
      value: 0.2
    }
  }
}
layer {
  name: "inception_3b/relu_3x3"
  type: "ReLU"
  bottom: "inception_3b/3x3"
  top: "inception_3b/3x3"
}
layer {
  name: "inception_3b/5x5_reduce"
  type: "Convolution"
  bottom: "inception_3a/output"
  top: "inception_3b/5x5_reduce"
  param {
    lr_mult: 1
    decay_mult: 1
  }
  param {
    lr_mult: 2
    decay_mult: 0
  }
  convolution_param {
    num_output: 32
    kernel_size: 1
    weight_filler {
      type: "xavier"
    }
    bias_filler {
      type: "constant"
      value: 0.2
    }
  }
}
layer {
  name: "inception_3b/relu_5x5_reduce"
  type: "ReLU"
  bottom: "inception_3b/5x5_reduce"
  top: "inception_3b/5x5_reduce"
}
layer {
  name: "inception_3b/5x5"
  type: "Convolution"
  bottom: "inception_3b/5x5_reduce"
  top: "inception_3b/5x5"
  param {
    lr_mult: 1
    decay_mult: 1
  }
  param {
    lr_mult: 2
    decay_mult: 0
  }
  convolution_param {
    num_output: 96
    pad: 2
    kernel_size: 5
    weight_filler {
      type: "xavier"
    }
    bias_filler {
      type: "constant"
      value: 0.2
    }
  }
}
layer {
  name: "inception_3b/relu_5x5"
  type: "ReLU"
  bottom: "inception_3b/5x5"
  top: "inception_3b/5x5"
}
layer {
  name: "inception_3b/pool"
  type: "Pooling"
  bottom: "inception_3a/output"
  top: "inception_3b/pool"
  pooling_param {
    pool: MAX
    kernel_size: 3
    stride: 1
    pad: 1
  }
}
layer {
  name: "inception_3b/pool_proj"
  type: "Convolution"
  bottom: "inception_3b/pool"
  top: "inception_3b/pool_proj"
  param {
    lr_mult: 1
    decay_mult: 1
  }
  param {
    lr_mult: 2
    decay_mult: 0
  }
  convolution_param {
    num_output: 64
    kernel_size: 1
    weight_filler {
      type: "xavier"
    }
    bias_filler {
      type: "constant"
      value: 0.2
    }
  }
}
layer {
  name: "inception_3b/relu_pool_proj"
  type: "ReLU"
  bottom: "inception_3b/pool_proj"
  top: "inception_3b/pool_proj"
}
layer {
  name: "inception_3b/output"
  type: "Concat"
  bottom: "inception_3b/1x1"
  bottom: "inception_3b/3x3"
  bottom: "inception_3b/5x5"
  bottom: "inception_3b/pool_proj"
  top: "inception_3b/output"
}
layer {
  name: "pool3/3x3_s2"
  type: "Pooling"
  bottom: "inception_3b/output"
  top: "pool3/3x3_s2"
  pooling_param {
    pool: MAX
    kernel_size: 3
    stride: 2
  }
}
layer {
  name: "inception_4a/1x1"
  type: "Convolution"
  bottom: "pool3/3x3_s2"
  top: "inception_4a/1x1"
  param {
    lr_mult: 1
    decay_mult: 1
  }
  param {
    lr_mult: 2
    decay_mult: 0
  }
  convolution_param {
    num_output: 192
    kernel_size: 1
    weight_filler {
      type: "xavier"
    }
    bias_filler {
      type: "constant"
      value: 0.2
    }
  }
}
layer {
  name: "inception_4a/relu_1x1"
  type: "ReLU"
  bottom: "inception_4a/1x1"
  top: "inception_4a/1x1"
}
layer {
  name: "inception_4a/3x3_reduce"
  type: "Convolution"
  bottom: "pool3/3x3_s2"
  top: "inception_4a/3x3_reduce"
  param {
    lr_mult: 1
    decay_mult: 1
  }
  param {
    lr_mult: 2
    decay_mult: 0
  }
  convolution_param {
    num_output: 96
    kernel_size: 1
    weight_filler {
      type: "xavier"
    }
    bias_filler {
      type: "constant"
      value: 0.2
    }
  }
}
layer {
  name: "inception_4a/relu_3x3_reduce"
  type: "ReLU"
  bottom: "inception_4a/3x3_reduce"
  top: "inception_4a/3x3_reduce"
}
layer {
  name: "inception_4a/3x3"
  type: "Convolution"
  bottom: "inception_4a/3x3_reduce"
  top: "inception_4a/3x3"
  param {
    lr_mult: 1
    decay_mult: 1
  }
  param {
    lr_mult: 2
    decay_mult: 0
  }
  convolution_param {
    num_output: 208
    pad: 1
    kernel_size: 3
    weight_filler {
      type: "xavier"
    }
    bias_filler {
      type: "constant"
      value: 0.2
    }
  }
}
layer {
  name: "inception_4a/relu_3x3"
  type: "ReLU"
  bottom: "inception_4a/3x3"
  top: "inception_4a/3x3"
}
layer {
  name: "inception_4a/5x5_reduce"
  type: "Convolution"
  bottom: "pool3/3x3_s2"
  top: "inception_4a/5x5_reduce"
  param {
    lr_mult: 1
    decay_mult: 1
  }
  param {
    lr_mult: 2
    decay_mult: 0
  }
  convolution_param {
    num_output: 16
    kernel_size: 1
    weight_filler {
      type: "xavier"
    }
    bias_filler {
      type: "constant"
      value: 0.2
    }
  }
}
layer {
  name: "inception_4a/relu_5x5_reduce"
  type: "ReLU"
  bottom: "inception_4a/5x5_reduce"
  top: "inception_4a/5x5_reduce"
}
layer {
  name: "inception_4a/5x5"
  type: "Convolution"
  bottom: "inception_4a/5x5_reduce"
  top: "inception_4a/5x5"
  param {
    lr_mult: 1
    decay_mult: 1
  }
  param {
    lr_mult: 2
    decay_mult: 0
  }
  convolution_param {
    num_output: 48
    pad: 2
    kernel_size: 5
    weight_filler {
      type: "xavier"
    }
    bias_filler {
      type: "constant"
      value: 0.2
    }
  }
}
layer {
  name: "inception_4a/relu_5x5"
  type: "ReLU"
  bottom: "inception_4a/5x5"
  top: "inception_4a/5x5"
}
layer {
  name: "inception_4a/pool"
  type: "Pooling"
  bottom: "pool3/3x3_s2"
  top: "inception_4a/pool"
  pooling_param {
    pool: MAX
    kernel_size: 3
    stride: 1
    pad: 1
  }
}
layer {
  name: "inception_4a/pool_proj"
  type: "Convolution"
  bottom: "inception_4a/pool"
  top: "inception_4a/pool_proj"
  param {
    lr_mult: 1
    decay_mult: 1
  }
  param {
    lr_mult: 2
    decay_mult: 0
  }
  convolution_param {
    num_output: 64
    kernel_size: 1
    weight_filler {
      type: "xavier"
    }
    bias_filler {
      type: "constant"
      value: 0.2
    }
  }
}
layer {
  name: "inception_4a/relu_pool_proj"
  type: "ReLU"
  bottom: "inception_4a/pool_proj"
  top: "inception_4a/pool_proj"
}
layer {
  name: "inception_4a/output"
  type: "Concat"
  bottom: "inception_4a/1x1"
  bottom: "inception_4a/3x3"
  bottom: "inception_4a/5x5"
  bottom: "inception_4a/pool_proj"
  top: "inception_4a/output"
}
layer {
  name: "loss1/ave_pool"
  type: "Pooling"
  bottom: "inception_4a/output"
  top: "loss1/ave_pool"
  pooling_param {
    pool: AVE
    kernel_size: 5
    stride: 3
  }
}
layer {
  name: "loss1/conv"
  type: "Convolution"
  bottom: "loss1/ave_pool"
  top: "loss1/conv"
  param {
    lr_mult: 1
    decay_mult: 1
  }
  param {
    lr_mult: 2
    decay_mult: 0
  }
  convolution_param {
    num_output: 128
    kernel_size: 1
    weight_filler {
      type: "xavier"
    }
    bias_filler {
      type: "constant"
      value: 0.2
    }
  }
}
layer {
  name: "loss1/relu_conv"
  type: "ReLU"
  bottom: "loss1/conv"
  top: "loss1/conv"
}
layer {
  name: "loss1/fc"
  type: "InnerProduct"
  bottom: "loss1/conv"
  top: "loss1/fc"
  param {
    lr_mult: 1
    decay_mult: 1
  }
  param {
    lr_mult: 2
    decay_mult: 0
  }
  inner_product_param {
    num_output: 1024
    weight_filler {
      type: "xavier"
    }
    bias_filler {
      type: "constant"
      value: 0.2
    }
  }
}
layer {
  name: "loss1/relu_fc"
  type: "ReLU"
  bottom: "loss1/fc"
  top: "loss1/fc"
}
layer {
  name: "loss1/drop_fc"
  type: "Dropout"
  bottom: "loss1/fc"
  top: "loss1/fc"
  dropout_param {
    dropout_ratio: 0.7
  }
}
layer {
  name: "loss1/classifier_kaggle"
  type: "InnerProduct"
  bottom: "loss1/fc"
  top: "loss1/classifier_kaggle"
  param {
    lr_mult: 1
    decay_mult: 1
  }
  param {
    lr_mult: 2
    decay_mult: 0
  }
  inner_product_param {
    num_output: 447
    weight_filler {
      type: "xavier"
    }
    bias_filler {
      type: "constant"
      value: 0
    }
  }
}
layer {
  name: "loss1/loss"
  type: "SoftmaxWithLoss"
  bottom: "loss1/classifier_kaggle"
  bottom: "label"
  top: "loss1/loss1"
  loss_weight: 0.3
}
layer {
  name: "inception_4b/1x1"
  type: "Convolution"
  bottom: "inception_4a/output"
  top: "inception_4b/1x1"
  param {
    lr_mult: 1
    decay_mult: 1
  }
  param {
    lr_mult: 2
    decay_mult: 0
  }
  convolution_param {
    num_output: 160
    kernel_size: 1
    weight_filler {
      type: "xavier"
    }
    bias_filler {
      type: "constant"
      value: 0.2
    }
  }
}
layer {
  name: "inception_4b/relu_1x1"
  type: "ReLU"
  bottom: "inception_4b/1x1"
  top: "inception_4b/1x1"
}
layer {
  name: "inception_4b/3x3_reduce"
  type: "Convolution"
  bottom: "inception_4a/output"
  top: "inception_4b/3x3_reduce"
  param {
    lr_mult: 1
    decay_mult: 1
  }
  param {
    lr_mult: 2
    decay_mult: 0
  }
  convolution_param {
    num_output: 112
    kernel_size: 1
    weight_filler {
      type: "xavier"
    }
    bias_filler {
      type: "constant"
      value: 0.2
    }
  }
}
layer {
  name: "inception_4b/relu_3x3_reduce"
  type: "ReLU"
  bottom: "inception_4b/3x3_reduce"
  top: "inception_4b/3x3_reduce"
}
layer {
  name: "inception_4b/3x3"
  type: "Convolution"
  bottom: "inception_4b/3x3_reduce"
  top: "inception_4b/3x3"
  param {
    lr_mult: 1
    decay_mult: 1
  }
  param {
    lr_mult: 2
    decay_mult: 0
  }
  convolution_param {
    num_output: 224
    pad: 1
    kernel_size: 3
    weight_filler {
      type: "xavier"
    }
    bias_filler {
      type: "constant"
      value: 0.2
    }
  }
}
layer {
  name: "inception_4b/relu_3x3"
  type: "ReLU"
  bottom: "inception_4b/3x3"
  top: "inception_4b/3x3"
}
layer {
  name: "inception_4b/5x5_reduce"
  type: "Convolution"
  bottom: "inception_4a/output"
  top: "inception_4b/5x5_reduce"
  param {
    lr_mult: 1
    decay_mult: 1
  }
  param {
    lr_mult: 2
    decay_mult: 0
  }
  convolution_param {
    num_output: 24
    kernel_size: 1
    weight_filler {
      type: "xavier"
    }
    bias_filler {
      type: "constant"
      value: 0.2
    }
  }
}
layer {
  name: "inception_4b/relu_5x5_reduce"
  type: "ReLU"
  bottom: "inception_4b/5x5_reduce"
  top: "inception_4b/5x5_reduce"
}
layer {
  name: "inception_4b/5x5"
  type: "Convolution"
  bottom: "inception_4b/5x5_reduce"
  top: "inception_4b/5x5"
  param {
    lr_mult: 1
    decay_mult: 1
  }
  param {
    lr_mult: 2
    decay_mult: 0
  }
  convolution_param {
    num_output: 64
    pad: 2
    kernel_size: 5
    weight_filler {
      type: "xavier"
    }
    bias_filler {
      type: "constant"
      value: 0.2
    }
  }
}
layer {
  name: "inception_4b/relu_5x5"
  type: "ReLU"
  bottom: "inception_4b/5x5"
  top: "inception_4b/5x5"
}
layer {
  name: "inception_4b/pool"
  type: "Pooling"
  bottom: "inception_4a/output"
  top: "inception_4b/pool"
  pooling_param {
    pool: MAX
    kernel_size: 3
    stride: 1
    pad: 1
  }
}
layer {
  name: "inception_4b/pool_proj"
  type: "Convolution"
  bottom: "inception_4b/pool"
  top: "inception_4b/pool_proj"
  param {
    lr_mult: 1
    decay_mult: 1
  }
  param {
    lr_mult: 2
    decay_mult: 0
  }
  convolution_param {
    num_output: 64
    kernel_size: 1
    weight_filler {
      type: "xavier"
    }
    bias_filler {
      type: "constant"
      value: 0.2
    }
  }
}
layer {
  name: "inception_4b/relu_pool_proj"
  type: "ReLU"
  bottom: "inception_4b/pool_proj"
  top: "inception_4b/pool_proj"
}
layer {
  name: "inception_4b/output"
  type: "Concat"
  bottom: "inception_4b/1x1"
  bottom: "inception_4b/3x3"
  bottom: "inception_4b/5x5"
  bottom: "inception_4b/pool_proj"
  top: "inception_4b/output"
}
layer {
  name: "inception_4c/1x1"
  type: "Convolution"
  bottom: "inception_4b/output"
  top: "inception_4c/1x1"
  param {
    lr_mult: 1
    decay_mult: 1
  }
  param {
    lr_mult: 2
    decay_mult: 0
  }
  convolution_param {
    num_output: 128
    kernel_size: 1
    weight_filler {
      type: "xavier"
    }
    bias_filler {
      type: "constant"
      value: 0.2
    }
  }
}
layer {
  name: "inception_4c/relu_1x1"
  type: "ReLU"
  bottom: "inception_4c/1x1"
  top: "inception_4c/1x1"
}
layer {
  name: "inception_4c/3x3_reduce"
  type: "Convolution"
  bottom: "inception_4b/output"
  top: "inception_4c/3x3_reduce"
  param {
    lr_mult: 1
    decay_mult: 1
  }
  param {
    lr_mult: 2
    decay_mult: 0
  }
  convolution_param {
    num_output: 128
    kernel_size: 1
    weight_filler {
      type: "xavier"
    }
    bias_filler {
      type: "constant"
      value: 0.2
    }
  }
}
layer {
  name: "inception_4c/relu_3x3_reduce"
  type: "ReLU"
  bottom: "inception_4c/3x3_reduce"
  top: "inception_4c/3x3_reduce"
}
layer {
  name: "inception_4c/3x3"
  type: "Convolution"
  bottom: "inception_4c/3x3_reduce"
  top: "inception_4c/3x3"
  param {
    lr_mult: 1
    decay_mult: 1
  }
  param {
    lr_mult: 2
    decay_mult: 0
  }
  convolution_param {
    num_output: 256
    pad: 1
    kernel_size: 3
    weight_filler {
      type: "xavier"
    }
    bias_filler {
      type: "constant"
      value: 0.2
    }
  }
}
layer {
  name: "inception_4c/relu_3x3"
  type: "ReLU"
  bottom: "inception_4c/3x3"
  top: "inception_4c/3x3"
}
layer {
  name: "inception_4c/5x5_reduce"
  type: "Convolution"
  bottom: "inception_4b/output"
  top: "inception_4c/5x5_reduce"
  param {
    lr_mult: 1
    decay_mult: 1
  }
  param {
    lr_mult: 2
    decay_mult: 0
  }
  convolution_param {
    num_output: 24
    kernel_size: 1
    weight_filler {
      type: "xavier"
    }
    bias_filler {
      type: "constant"
      value: 0.2
    }
  }
}
layer {
  name: "inception_4c/relu_5x5_reduce"
  type: "ReLU"
  bottom: "inception_4c/5x5_reduce"
  top: "inception_4c/5x5_reduce"
}
layer {
  name: "inception_4c/5x5"
  type: "Convolution"
  bottom: "inception_4c/5x5_reduce"
  top: "inception_4c/5x5"
  param {
    lr_mult: 1
    decay_mult: 1
  }
  param {
    lr_mult: 2
    decay_mult: 0
  }
  convolution_param {
    num_output: 64
    pad: 2
    kernel_size: 5
    weight_filler {
      type: "xavier"
    }
    bias_filler {
      type: "constant"
      value: 0.2
    }
  }
}
layer {
  name: "inception_4c/relu_5x5"
  type: "ReLU"
  bottom: "inception_4c/5x5"
  top: "inception_4c/5x5"
}
layer {
  name: "inception_4c/pool"
  type: "Pooling"
  bottom: "inception_4b/output"
  top: "inception_4c/pool"
  pooling_param {
    pool: MAX
    kernel_size: 3
    stride: 1
    pad: 1
  }
}
layer {
  name: "inception_4c/pool_proj"
  type: "Convolution"
  bottom: "inception_4c/pool"
  top: "inception_4c/pool_proj"
  param {
    lr_mult: 1
    decay_mult: 1
  }
  param {
    lr_mult: 2
    decay_mult: 0
  }
  convolution_param {
    num_output: 64
    kernel_size: 1
    weight_filler {
      type: "xavier"
    }
    bias_filler {
      type: "constant"
      value: 0.2
    }
  }
}
layer {
  name: "inception_4c/relu_pool_proj"
  type: "ReLU"
  bottom: "inception_4c/pool_proj"
  top: "inception_4c/pool_proj"
}
layer {
  name: "inception_4c/output"
  type: "Concat"
  bottom: "inception_4c/1x1"
  bottom: "inception_4c/3x3"
  bottom: "inception_4c/5x5"
  bottom: "inception_4c/pool_proj"
  top: "inception_4c/output"
}
layer {
  name: "inception_4d/1x1"
  type: "Convolution"
  bottom: "inception_4c/output"
  top: "inception_4d/1x1"
  param {
    lr_mult: 1
    decay_mult: 1
  }
  param {
    lr_mult: 2
    decay_mult: 0
  }
  convolution_param {
    num_output: 112
    kernel_size: 1
    weight_filler {
      type: "xavier"
    }
    bias_filler {
      type: "constant"
      value: 0.2
    }
  }
}
layer {
  name: "inception_4d/relu_1x1"
  type: "ReLU"
  bottom: "inception_4d/1x1"
  top: "inception_4d/1x1"
}
layer {
  name: "inception_4d/3x3_reduce"
  type: "Convolution"
  bottom: "inception_4c/output"
  top: "inception_4d/3x3_reduce"
  param {
    lr_mult: 1
    decay_mult: 1
  }
  param {
    lr_mult: 2
    decay_mult: 0
  }
  convolution_param {
    num_output: 144
    kernel_size: 1
    weight_filler {
      type: "xavier"
    }
    bias_filler {
      type: "constant"
      value: 0.2
    }
  }
}
layer {
  name: "inception_4d/relu_3x3_reduce"
  type: "ReLU"
  bottom: "inception_4d/3x3_reduce"
  top: "inception_4d/3x3_reduce"
}
layer {
  name: "inception_4d/3x3"
  type: "Convolution"
  bottom: "inception_4d/3x3_reduce"
  top: "inception_4d/3x3"
  param {
    lr_mult: 1
    decay_mult: 1
  }
  param {
    lr_mult: 2
    decay_mult: 0
  }
  convolution_param {
    num_output: 288
    pad: 1
    kernel_size: 3
    weight_filler {
      type: "xavier"
    }
    bias_filler {
      type: "constant"
      value: 0.2
    }
  }
}
layer {
  name: "inception_4d/relu_3x3"
  type: "ReLU"
  bottom: "inception_4d/3x3"
  top: "inception_4d/3x3"
}
layer {
  name: "inception_4d/5x5_reduce"
  type: "Convolution"
  bottom: "inception_4c/output"
  top: "inception_4d/5x5_reduce"
  param {
    lr_mult: 1
    decay_mult: 1
  }
  param {
    lr_mult: 2
    decay_mult: 0
  }
  convolution_param {
    num_output: 32
    kernel_size: 1
    weight_filler {
      type: "xavier"
    }
    bias_filler {
      type: "constant"
      value: 0.2
    }
  }
}
layer {
  name: "inception_4d/relu_5x5_reduce"
  type: "ReLU"
  bottom: "inception_4d/5x5_reduce"
  top: "inception_4d/5x5_reduce"
}
layer {
  name: "inception_4d/5x5"
  type: "Convolution"
  bottom: "inception_4d/5x5_reduce"
  top: "inception_4d/5x5"
  param {
    lr_mult: 1
    decay_mult: 1
  }
  param {
    lr_mult: 2
    decay_mult: 0
  }
  convolution_param {
    num_output: 64
    pad: 2
    kernel_size: 5
    weight_filler {
      type: "xavier"
    }
    bias_filler {
      type: "constant"
      value: 0.2
    }
  }
}
layer {
  name: "inception_4d/relu_5x5"
  type: "ReLU"
  bottom: "inception_4d/5x5"
  top: "inception_4d/5x5"
}
layer {
  name: "inception_4d/pool"
  type: "Pooling"
  bottom: "inception_4c/output"
  top: "inception_4d/pool"
  pooling_param {
    pool: MAX
    kernel_size: 3
    stride: 1
    pad: 1
  }
}
layer {
  name: "inception_4d/pool_proj"
  type: "Convolution"
  bottom: "inception_4d/pool"
  top: "inception_4d/pool_proj"
  param {
    lr_mult: 1
    decay_mult: 1
  }
  param {
    lr_mult: 2
    decay_mult: 0
  }
  convolution_param {
    num_output: 64
    kernel_size: 1
    weight_filler {
      type: "xavier"
    }
    bias_filler {
      type: "constant"
      value: 0.2
    }
  }
}
layer {
  name: "inception_4d/relu_pool_proj"
  type: "ReLU"
  bottom: "inception_4d/pool_proj"
  top: "inception_4d/pool_proj"
}
layer {
  name: "inception_4d/output"
  type: "Concat"
  bottom: "inception_4d/1x1"
  bottom: "inception_4d/3x3"
  bottom: "inception_4d/5x5"
  bottom: "inception_4d/pool_proj"
  top: "inception_4d/output"
}
layer {
  name: "loss2/ave_pool"
  type: "Pooling"
  bottom: "inception_4d/output"
  top: "loss2/ave_pool"
  pooling_param {
    pool: AVE
    kernel_size: 5
    stride: 3
  }
}
layer {
  name: "loss2/conv"
  type: "Convolution"
  bottom: "loss2/ave_pool"
  top: "loss2/conv"
  param {
    lr_mult: 1
    decay_mult: 1
  }
  param {
    lr_mult: 2
    decay_mult: 0
  }
  convolution_param {
    num_output: 128
    kernel_size: 1
    weight_filler {
      type: "xavier"
    }
    bias_filler {
      type: "constant"
      value: 0.2
    }
  }
}
layer {
  name: "loss2/relu_conv"
  type: "ReLU"
  bottom: "loss2/conv"
  top: "loss2/conv"
}
layer {
  name: "loss2/fc"
  type: "InnerProduct"
  bottom: "loss2/conv"
  top: "loss2/fc"
  param {
    lr_mult: 1
    decay_mult: 1
  }
  param {
    lr_mult: 2
    decay_mult: 0
  }
  inner_product_param {
    num_output: 1024
    weight_filler {
      type: "xavier"
    }
    bias_filler {
      type: "constant"
      value: 0.2
    }
  }
}
layer {
  name: "loss2/relu_fc"
  type: "ReLU"
  bottom: "loss2/fc"
  top: "loss2/fc"
}
layer {
  name: "loss2/drop_fc"
  type: "Dropout"
  bottom: "loss2/fc"
  top: "loss2/fc"
  dropout_param {
    dropout_ratio: 0.7
  }
}
layer {
  name: "loss2/classifier_kaggle"
  type: "InnerProduct"
  bottom: "loss2/fc"
  top: "loss2/classifier_kaggle"
  param {
    lr_mult: 1
    decay_mult: 1
  }
  param {
    lr_mult: 2
    decay_mult: 0
  }
  inner_product_param {
    num_output: 447
    weight_filler {
      type: "xavier"
    }
    bias_filler {
      type: "constant"
      value: 0
    }
  }
}
layer {
  name: "loss2/loss"
  type: "SoftmaxWithLoss"
  bottom: "loss2/classifier_kaggle"
  bottom: "label"
  top: "loss2/loss1"
  loss_weight: 0.3
}
layer {
  name: "inception_4e/1x1"
  type: "Convolution"
  bottom: "inception_4d/output"
  top: "inception_4e/1x1"
  param {
    lr_mult: 1
    decay_mult: 1
  }
  param {
    lr_mult: 2
    decay_mult: 0
  }
  convolution_param {
    num_output: 256
    kernel_size: 1
    weight_filler {
      type: "xavier"
    }
    bias_filler {
      type: "constant"
      value: 0.2
    }
  }
}
layer {
  name: "inception_4e/relu_1x1"
  type: "ReLU"
  bottom: "inception_4e/1x1"
  top: "inception_4e/1x1"
}
layer {
  name: "inception_4e/3x3_reduce"
  type: "Convolution"
  bottom: "inception_4d/output"
  top: "inception_4e/3x3_reduce"
  param {
    lr_mult: 1
    decay_mult: 1
  }
  param {
    lr_mult: 2
    decay_mult: 0
  }
  convolution_param {
    num_output: 160
    kernel_size: 1
    weight_filler {
      type: "xavier"
    }
    bias_filler {
      type: "constant"
      value: 0.2
    }
  }
}
layer {
  name: "inception_4e/relu_3x3_reduce"
  type: "ReLU"
  bottom: "inception_4e/3x3_reduce"
  top: "inception_4e/3x3_reduce"
}
layer {
  name: "inception_4e/3x3"
  type: "Convolution"
  bottom: "inception_4e/3x3_reduce"
  top: "inception_4e/3x3"
  param {
    lr_mult: 1
    decay_mult: 1
  }
  param {
    lr_mult: 2
    decay_mult: 0
  }
  convolution_param {
    num_output: 320
    pad: 1
    kernel_size: 3
    weight_filler {
      type: "xavier"
    }
    bias_filler {
      type: "constant"
      value: 0.2
    }
  }
}
layer {
  name: "inception_4e/relu_3x3"
  type: "ReLU"
  bottom: "inception_4e/3x3"
  top: "inception_4e/3x3"
}
layer {
  name: "inception_4e/5x5_reduce"
  type: "Convolution"
  bottom: "inception_4d/output"
  top: "inception_4e/5x5_reduce"
  param {
    lr_mult: 1
    decay_mult: 1
  }
  param {
    lr_mult: 2
    decay_mult: 0
  }
  convolution_param {
    num_output: 32
    kernel_size: 1
    weight_filler {
      type: "xavier"
    }
    bias_filler {
      type: "constant"
      value: 0.2
    }
  }
}
layer {
  name: "inception_4e/relu_5x5_reduce"
  type: "ReLU"
  bottom: "inception_4e/5x5_reduce"
  top: "inception_4e/5x5_reduce"
}
layer {
  name: "inception_4e/5x5"
  type: "Convolution"
  bottom: "inception_4e/5x5_reduce"
  top: "inception_4e/5x5"
  param {
    lr_mult: 1
    decay_mult: 1
  }
  param {
    lr_mult: 2
    decay_mult: 0
  }
  convolution_param {
    num_output: 128
    pad: 2
    kernel_size: 5
    weight_filler {
      type: "xavier"
    }
    bias_filler {
      type: "constant"
      value: 0.2
    }
  }
}
layer {
  name: "inception_4e/relu_5x5"
  type: "ReLU"
  bottom: "inception_4e/5x5"
  top: "inception_4e/5x5"
}
layer {
  name: "inception_4e/pool"
  type: "Pooling"
  bottom: "inception_4d/output"
  top: "inception_4e/pool"
  pooling_p
I1219 15:43:01.091805 31962 layer_factory.hpp:74] Creating layer data
I1219 15:43:01.091858 31962 net.cpp:84] Creating Layer data
I1219 15:43:01.091873 31962 net.cpp:338] data -> data
I1219 15:43:01.091929 31962 net.cpp:338] data -> label
I1219 15:43:01.091953 31962 net.cpp:113] Setting up data
I1219 15:43:01.091964 31962 image_data_layer.cpp:36] Opening file /home/coldmanck/kaggle/label_train_full.txt
I1219 15:43:01.095741 31962 image_data_layer.cpp:46] Shuffling data
I1219 15:43:01.096992 31962 image_data_layer.cpp:51] A total of 4235 images.
I1219 15:43:01.098069 31962 image_data_layer.cpp:80] output data size: 80,3,224,224
I1219 15:43:01.655675 31962 net.cpp:120] Top shape: 80 3 224 224 (12042240)
I1219 15:43:01.655788 31962 net.cpp:120] Top shape: 80 (80)
I1219 15:43:01.655812 31962 layer_factory.hpp:74] Creating layer label_data_1_split
I1219 15:43:01.655899 31962 net.cpp:84] Creating Layer label_data_1_split
I1219 15:43:01.655911 31962 net.cpp:380] label_data_1_split <- label
I1219 15:43:01.655938 31962 net.cpp:338] label_data_1_split -> label_data_1_split_0
I1219 15:43:01.655958 31962 net.cpp:338] label_data_1_split -> label_data_1_split_1
I1219 15:43:01.655987 31962 net.cpp:338] label_data_1_split -> label_data_1_split_2
I1219 15:43:01.656014 31962 net.cpp:113] Setting up label_data_1_split
I1219 15:43:01.656030 31962 net.cpp:120] Top shape: 80 (80)
I1219 15:43:01.656039 31962 net.cpp:120] Top shape: 80 (80)
I1219 15:43:01.656047 31962 net.cpp:120] Top shape: 80 (80)
I1219 15:43:01.656054 31962 layer_factory.hpp:74] Creating layer conv1/7x7_s2
I1219 15:43:01.656075 31962 net.cpp:84] Creating Layer conv1/7x7_s2
I1219 15:43:01.656082 31962 net.cpp:380] conv1/7x7_s2 <- data
I1219 15:43:01.656097 31962 net.cpp:338] conv1/7x7_s2 -> conv1/7x7_s2
I1219 15:43:01.656113 31962 net.cpp:113] Setting up conv1/7x7_s2
I1219 15:43:02.253800 31962 net.cpp:120] Top shape: 80 64 112 112 (64225280)
I1219 15:43:02.253909 31962 layer_factory.hpp:74] Creating layer conv1/relu_7x7
I1219 15:43:02.253931 31962 net.cpp:84] Creating Layer conv1/relu_7x7
I1219 15:43:02.253939 31962 net.cpp:380] conv1/relu_7x7 <- conv1/7x7_s2
I1219 15:43:02.253953 31962 net.cpp:327] conv1/relu_7x7 -> conv1/7x7_s2 (in-place)
I1219 15:43:02.253969 31962 net.cpp:113] Setting up conv1/relu_7x7
I1219 15:43:02.262907 31962 net.cpp:120] Top shape: 80 64 112 112 (64225280)
I1219 15:43:02.262949 31962 layer_factory.hpp:74] Creating layer pool1/3x3_s2
I1219 15:43:02.262980 31962 net.cpp:84] Creating Layer pool1/3x3_s2
I1219 15:43:02.262994 31962 net.cpp:380] pool1/3x3_s2 <- conv1/7x7_s2
I1219 15:43:02.263010 31962 net.cpp:338] pool1/3x3_s2 -> pool1/3x3_s2
I1219 15:43:02.263030 31962 net.cpp:113] Setting up pool1/3x3_s2
I1219 15:43:02.263161 31962 net.cpp:120] Top shape: 80 64 56 56 (16056320)
I1219 15:43:02.263176 31962 layer_factory.hpp:74] Creating layer pool1/norm1
I1219 15:43:02.263193 31962 net.cpp:84] Creating Layer pool1/norm1
I1219 15:43:02.263202 31962 net.cpp:380] pool1/norm1 <- pool1/3x3_s2
I1219 15:43:02.263214 31962 net.cpp:338] pool1/norm1 -> pool1/norm1
I1219 15:43:02.263229 31962 net.cpp:113] Setting up pool1/norm1
I1219 15:43:02.263244 31962 net.cpp:120] Top shape: 80 64 56 56 (16056320)
I1219 15:43:02.263254 31962 layer_factory.hpp:74] Creating layer conv2/3x3_reduce
I1219 15:43:02.263272 31962 net.cpp:84] Creating Layer conv2/3x3_reduce
I1219 15:43:02.263280 31962 net.cpp:380] conv2/3x3_reduce <- pool1/norm1
I1219 15:43:02.263294 31962 net.cpp:338] conv2/3x3_reduce -> conv2/3x3_reduce
I1219 15:43:02.263312 31962 net.cpp:113] Setting up conv2/3x3_reduce
I1219 15:43:02.265451 31962 net.cpp:120] Top shape: 80 64 56 56 (16056320)
I1219 15:43:02.265486 31962 layer_factory.hpp:74] Creating layer conv2/relu_3x3_reduce
I1219 15:43:02.265503 31962 net.cpp:84] Creating Layer conv2/relu_3x3_reduce
I1219 15:43:02.265513 31962 net.cpp:380] conv2/relu_3x3_reduce <- conv2/3x3_reduce
I1219 15:43:02.265527 31962 net.cpp:327] conv2/relu_3x3_reduce -> conv2/3x3_reduce (in-place)
I1219 15:43:02.265539 31962 net.cpp:113] Setting up conv2/relu_3x3_reduce
I1219 15:43:02.265631 31962 net.cpp:120] Top shape: 80 64 56 56 (16056320)
I1219 15:43:02.265643 31962 layer_factory.hpp:74] Creating layer conv2/3x3
I1219 15:43:02.265662 31962 net.cpp:84] Creating Layer conv2/3x3
I1219 15:43:02.265671 31962 net.cpp:380] conv2/3x3 <- conv2/3x3_reduce
I1219 15:43:02.265686 31962 net.cpp:338] conv2/3x3 -> conv2/3x3
I1219 15:43:02.265699 31962 net.cpp:113] Setting up conv2/3x3
I1219 15:43:02.268456 31962 net.cpp:120] Top shape: 80 192 56 56 (48168960)
I1219 15:43:02.268510 31962 layer_factory.hpp:74] Creating layer conv2/relu_3x3
I1219 15:43:02.268527 31962 net.cpp:84] Creating Layer conv2/relu_3x3
I1219 15:43:02.268537 31962 net.cpp:380] conv2/relu_3x3 <- conv2/3x3
I1219 15:43:02.268553 31962 net.cpp:327] conv2/relu_3x3 -> conv2/3x3 (in-place)
I1219 15:43:02.268566 31962 net.cpp:113] Setting up conv2/relu_3x3
I1219 15:43:02.277156 31962 net.cpp:120] Top shape: 80 192 56 56 (48168960)
I1219 15:43:02.277199 31962 layer_factory.hpp:74] Creating layer conv2/norm2
I1219 15:43:02.277217 31962 net.cpp:84] Creating Layer conv2/norm2
I1219 15:43:02.277227 31962 net.cpp:380] conv2/norm2 <- conv2/3x3
I1219 15:43:02.277253 31962 net.cpp:338] conv2/norm2 -> conv2/norm2
I1219 15:43:02.277281 31962 net.cpp:113] Setting up conv2/norm2
I1219 15:43:02.277318 31962 net.cpp:120] Top shape: 80 192 56 56 (48168960)
I1219 15:43:02.277326 31962 layer_factory.hpp:74] Creating layer pool2/3x3_s2
I1219 15:43:02.277340 31962 net.cpp:84] Creating Layer pool2/3x3_s2
I1219 15:43:02.277348 31962 net.cpp:380] pool2/3x3_s2 <- conv2/norm2
I1219 15:43:02.277359 31962 net.cpp:338] pool2/3x3_s2 -> pool2/3x3_s2
I1219 15:43:02.277369 31962 net.cpp:113] Setting up pool2/3x3_s2
I1219 15:43:02.277482 31962 net.cpp:120] Top shape: 80 192 28 28 (12042240)
I1219 15:43:02.277493 31962 layer_factory.hpp:74] Creating layer pool2/3x3_s2_pool2/3x3_s2_0_split
I1219 15:43:02.277504 31962 net.cpp:84] Creating Layer pool2/3x3_s2_pool2/3x3_s2_0_split
I1219 15:43:02.277511 31962 net.cpp:380] pool2/3x3_s2_pool2/3x3_s2_0_split <- pool2/3x3_s2
I1219 15:43:02.277530 31962 net.cpp:338] pool2/3x3_s2_pool2/3x3_s2_0_split -> pool2/3x3_s2_pool2/3x3_s2_0_split_0
I1219 15:43:02.277544 31962 net.cpp:338] pool2/3x3_s2_pool2/3x3_s2_0_split -> pool2/3x3_s2_pool2/3x3_s2_0_split_1
I1219 15:43:02.277555 31962 net.cpp:338] pool2/3x3_s2_pool2/3x3_s2_0_split -> pool2/3x3_s2_pool2/3x3_s2_0_split_2
I1219 15:43:02.277565 31962 net.cpp:338] pool2/3x3_s2_pool2/3x3_s2_0_split -> pool2/3x3_s2_pool2/3x3_s2_0_split_3
I1219 15:43:02.277575 31962 net.cpp:113] Setting up pool2/3x3_s2_pool2/3x3_s2_0_split
I1219 15:43:02.277586 31962 net.cpp:120] Top shape: 80 192 28 28 (12042240)
I1219 15:43:02.277595 31962 net.cpp:120] Top shape: 80 192 28 28 (12042240)
I1219 15:43:02.277603 31962 net.cpp:120] Top shape: 80 192 28 28 (12042240)
I1219 15:43:02.277611 31962 net.cpp:120] Top shape: 80 192 28 28 (12042240)
I1219 15:43:02.277617 31962 layer_factory.hpp:74] Creating layer inception_3a/1x1
I1219 15:43:02.277642 31962 net.cpp:84] Creating Layer inception_3a/1x1
I1219 15:43:02.277649 31962 net.cpp:380] inception_3a/1x1 <- pool2/3x3_s2_pool2/3x3_s2_0_split_0
I1219 15:43:02.277662 31962 net.cpp:338] inception_3a/1x1 -> inception_3a/1x1
I1219 15:43:02.277678 31962 net.cpp:113] Setting up inception_3a/1x1
I1219 15:43:02.279165 31962 net.cpp:120] Top shape: 80 64 28 28 (4014080)
I1219 15:43:02.279345 31962 layer_factory.hpp:74] Creating layer inception_3a/relu_1x1
I1219 15:43:02.279363 31962 net.cpp:84] Creating Layer inception_3a/relu_1x1
I1219 15:43:02.279372 31962 net.cpp:380] inception_3a/relu_1x1 <- inception_3a/1x1
I1219 15:43:02.279387 31962 net.cpp:327] inception_3a/relu_1x1 -> inception_3a/1x1 (in-place)
I1219 15:43:02.279402 31962 net.cpp:113] Setting up inception_3a/relu_1x1
I1219 15:43:02.286470 31962 net.cpp:120] Top shape: 80 64 28 28 (4014080)
I1219 15:43:02.286526 31962 layer_factory.hpp:74] Creating layer inception_3a/3x3_reduce
I1219 15:43:02.286548 31962 net.cpp:84] Creating Layer inception_3a/3x3_reduce
I1219 15:43:02.286558 31962 net.cpp:380] inception_3a/3x3_reduce <- pool2/3x3_s2_pool2/3x3_s2_0_split_1
I1219 15:43:02.286577 31962 net.cpp:338] inception_3a/3x3_reduce -> inception_3a/3x3_reduce
I1219 15:43:02.286598 31962 net.cpp:113] Setting up inception_3a/3x3_reduce
I1219 15:43:02.288918 31962 net.cpp:120] Top shape: 80 96 28 28 (6021120)
I1219 15:43:02.288970 31962 layer_factory.hpp:74] Creating layer inception_3a/relu_3x3_reduce
I1219 15:43:02.288997 31962 net.cpp:84] Creating Layer inception_3a/relu_3x3_reduce
I1219 15:43:02.289007 31962 net.cpp:380] inception_3a/relu_3x3_reduce <- inception_3a/3x3_reduce
I1219 15:43:02.289023 31962 net.cpp:327] inception_3a/relu_3x3_reduce -> inception_3a/3x3_reduce (in-place)
I1219 15:43:02.289038 31962 net.cpp:113] Setting up inception_3a/relu_3x3_reduce
I1219 15:43:02.289160 31962 net.cpp:120] Top shape: 80 96 28 28 (6021120)
I1219 15:43:02.289175 31962 layer_factory.hpp:74] Creating layer inception_3a/3x3
I1219 15:43:02.289193 31962 net.cpp:84] Creating Layer inception_3a/3x3
I1219 15:43:02.289202 31962 net.cpp:380] inception_3a/3x3 <- inception_3a/3x3_reduce
I1219 15:43:02.289216 31962 net.cpp:338] inception_3a/3x3 -> inception_3a/3x3
I1219 15:43:02.289230 31962 net.cpp:113] Setting up inception_3a/3x3
I1219 15:43:02.294688 31962 net.cpp:120] Top shape: 80 128 28 28 (8028160)
I1219 15:43:02.294770 31962 layer_factory.hpp:74] Creating layer inception_3a/relu_3x3
I1219 15:43:02.294787 31962 net.cpp:84] Creating Layer inception_3a/relu_3x3
I1219 15:43:02.294795 31962 net.cpp:380] inception_3a/relu_3x3 <- inception_3a/3x3
I1219 15:43:02.294808 31962 net.cpp:327] inception_3a/relu_3x3 -> inception_3a/3x3 (in-place)
I1219 15:43:02.294826 31962 net.cpp:113] Setting up inception_3a/relu_3x3
I1219 15:43:02.296737 31962 net.cpp:120] Top shape: 80 128 28 28 (8028160)
I1219 15:43:02.296756 31962 layer_factory.hpp:74] Creating layer inception_3a/5x5_reduce
I1219 15:43:02.296782 31962 net.cpp:84] Creating Layer inception_3a/5x5_reduce
I1219 15:43:02.296793 31962 net.cpp:380] inception_3a/5x5_reduce <- pool2/3x3_s2_pool2/3x3_s2_0_split_2
I1219 15:43:02.296808 31962 net.cpp:338] inception_3a/5x5_reduce -> inception_3a/5x5_reduce
I1219 15:43:02.296833 31962 net.cpp:113] Setting up inception_3a/5x5_reduce
I1219 15:43:02.298408 31962 net.cpp:120] Top shape: 80 16 28 28 (1003520)
I1219 15:43:02.298434 31962 layer_factory.hpp:74] Creating layer inception_3a/relu_5x5_reduce
I1219 15:43:02.298450 31962 net.cpp:84] Creating Layer inception_3a/relu_5x5_reduce
I1219 15:43:02.298460 31962 net.cpp:380] inception_3a/relu_5x5_reduce <- inception_3a/5x5_reduce
I1219 15:43:02.298472 31962 net.cpp:327] inception_3a/relu_5x5_reduce -> inception_3a/5x5_reduce (in-place)
I1219 15:43:02.298486 31962 net.cpp:113] Setting up inception_3a/relu_5x5_reduce
I1219 15:43:02.298589 31962 net.cpp:120] Top shape: 80 16 28 28 (1003520)
I1219 15:43:02.298602 31962 layer_factory.hpp:74] Creating layer inception_3a/5x5
I1219 15:43:02.298619 31962 net.cpp:84] Creating Layer inception_3a/5x5
I1219 15:43:02.298629 31962 net.cpp:380] inception_3a/5x5 <- inception_3a/5x5_reduce
I1219 15:43:02.298643 31962 net.cpp:338] inception_3a/5x5 -> inception_3a/5x5
I1219 15:43:02.298658 31962 net.cpp:113] Setting up inception_3a/5x5
I1219 15:43:02.300655 31962 net.cpp:120] Top shape: 80 32 28 28 (2007040)
I1219 15:43:02.300685 31962 layer_factory.hpp:74] Creating layer inception_3a/relu_5x5
I1219 15:43:02.300706 31962 net.cpp:84] Creating Layer inception_3a/relu_5x5
I1219 15:43:02.300719 31962 net.cpp:380] inception_3a/relu_5x5 <- inception_3a/5x5
I1219 15:43:02.300731 31962 net.cpp:327] inception_3a/relu_5x5 -> inception_3a/5x5 (in-place)
I1219 15:43:02.300745 31962 net.cpp:113] Setting up inception_3a/relu_5x5
I1219 15:43:02.300869 31962 net.cpp:120] Top shape: 80 32 28 28 (2007040)
I1219 15:43:02.300880 31962 layer_factory.hpp:74] Creating layer inception_3a/pool
I1219 15:43:02.300891 31962 layer_factory.cpp:56] CUDNN does not support padding or multiple tops. Using Caffe's own pooling layer.
I1219 15:43:02.300909 31962 net.cpp:84] Creating Layer inception_3a/pool
I1219 15:43:02.300920 31962 net.cpp:380] inception_3a/pool <- pool2/3x3_s2_pool2/3x3_s2_0_split_3
I1219 15:43:02.300930 31962 net.cpp:338] inception_3a/pool -> inception_3a/pool
I1219 15:43:02.300950 31962 net.cpp:113] Setting up inception_3a/pool
I1219 15:43:02.300966 31962 net.cpp:120] Top shape: 80 192 28 28 (12042240)
I1219 15:43:02.300976 31962 layer_factory.hpp:74] Creating layer inception_3a/pool_proj
I1219 15:43:02.300989 31962 net.cpp:84] Creating Layer inception_3a/pool_proj
I1219 15:43:02.300998 31962 net.cpp:380] inception_3a/pool_proj <- inception_3a/pool
I1219 15:43:02.301013 31962 net.cpp:338] inception_3a/pool_proj -> inception_3a/pool_proj
I1219 15:43:02.301026 31962 net.cpp:113] Setting up inception_3a/pool_proj
I1219 15:43:02.302709 31962 net.cpp:120] Top shape: 80 32 28 28 (2007040)
I1219 15:43:02.302755 31962 layer_factory.hpp:74] Creating layer inception_3a/relu_pool_proj
I1219 15:43:02.302770 31962 net.cpp:84] Creating Layer inception_3a/relu_pool_proj
I1219 15:43:02.302780 31962 net.cpp:380] inception_3a/relu_pool_proj <- inception_3a/pool_proj
I1219 15:43:02.302796 31962 net.cpp:327] inception_3a/relu_pool_proj -> inception_3a/pool_proj (in-place)
I1219 15:43:02.302809 31962 net.cpp:113] Setting up inception_3a/relu_pool_proj
I1219 15:43:02.302953 31962 net.cpp:120] Top shape: 80 32 28 28 (2007040)
I1219 15:43:02.302968 31962 layer_factory.hpp:74] Creating layer inception_3a/output
I1219 15:43:02.302994 31962 net.cpp:84] Creating Layer inception_3a/output
I1219 15:43:02.303004 31962 net.cpp:380] inception_3a/output <- inception_3a/1x1
I1219 15:43:02.303017 31962 net.cpp:380] inception_3a/output <- inception_3a/3x3
I1219 15:43:02.303028 31962 net.cpp:380] inception_3a/output <- inception_3a/5x5
I1219 15:43:02.303037 31962 net.cpp:380] inception_3a/output <- inception_3a/pool_proj
I1219 15:43:02.303048 31962 net.cpp:338] inception_3a/output -> inception_3a/output
I1219 15:43:02.303061 31962 net.cpp:113] Setting up inception_3a/output
I1219 15:43:02.303076 31962 net.cpp:120] Top shape: 80 256 28 28 (16056320)
I1219 15:43:02.303084 31962 layer_factory.hpp:74] Creating layer inception_3a/output_inception_3a/output_0_split
I1219 15:43:02.303097 31962 net.cpp:84] Creating Layer inception_3a/output_inception_3a/output_0_split
I1219 15:43:02.303105 31962 net.cpp:380] inception_3a/output_inception_3a/output_0_split <- inception_3a/output
I1219 15:43:02.303120 31962 net.cpp:338] inception_3a/output_inception_3a/output_0_split -> inception_3a/output_inception_3a/output_0_split_0
I1219 15:43:02.303133 31962 net.cpp:338] inception_3a/output_inception_3a/output_0_split -> inception_3a/output_inception_3a/output_0_split_1
I1219 15:43:02.303145 31962 net.cpp:338] inception_3a/output_inception_3a/output_0_split -> inception_3a/output_inception_3a/output_0_split_2
I1219 15:43:02.303156 31962 net.cpp:338] inception_3a/output_inception_3a/output_0_split -> inception_3a/output_inception_3a/output_0_split_3
I1219 15:43:02.303167 31962 net.cpp:113] Setting up inception_3a/output_inception_3a/output_0_split
I1219 15:43:02.303180 31962 net.cpp:120] Top shape: 80 256 28 28 (16056320)
I1219 15:43:02.303190 31962 net.cpp:120] Top shape: 80 256 28 28 (16056320)
I1219 15:43:02.303200 31962 net.cpp:120] Top shape: 80 256 28 28 (16056320)
I1219 15:43:02.303208 31962 net.cpp:120] Top shape: 80 256 28 28 (16056320)
I1219 15:43:02.303216 31962 layer_factory.hpp:74] Creating layer inception_3b/1x1
I1219 15:43:02.303233 31962 net.cpp:84] Creating Layer inception_3b/1x1
I1219 15:43:02.303242 31962 net.cpp:380] inception_3b/1x1 <- inception_3a/output_inception_3a/output_0_split_0
I1219 15:43:02.303257 31962 net.cpp:338] inception_3b/1x1 -> inception_3b/1x1
I1219 15:43:02.303272 31962 net.cpp:113] Setting up inception_3b/1x1
I1219 15:43:02.305882 31962 net.cpp:120] Top shape: 80 128 28 28 (8028160)
I1219 15:43:02.305943 31962 layer_factory.hpp:74] Creating layer inception_3b/relu_1x1
I1219 15:43:02.305961 31962 net.cpp:84] Creating Layer inception_3b/relu_1x1
I1219 15:43:02.305974 31962 net.cpp:380] inception_3b/relu_1x1 <- inception_3b/1x1
I1219 15:43:02.305992 31962 net.cpp:327] inception_3b/relu_1x1 -> inception_3b/1x1 (in-place)
I1219 15:43:02.306011 31962 net.cpp:113] Setting up inception_3b/relu_1x1
I1219 15:43:02.315975 31962 net.cpp:120] Top shape: 80 128 28 28 (8028160)
I1219 15:43:02.316030 31962 layer_factory.hpp:74] Creating layer inception_3b/3x3_reduce
I1219 15:43:02.316056 31962 net.cpp:84] Creating Layer inception_3b/3x3_reduce
I1219 15:43:02.316069 31962 net.cpp:380] inception_3b/3x3_reduce <- inception_3a/output_inception_3a/output_0_split_1
I1219 15:43:02.316092 31962 net.cpp:338] inception_3b/3x3_reduce -> inception_3b/3x3_reduce
I1219 15:43:02.316117 31962 net.cpp:113] Setting up inception_3b/3x3_reduce
I1219 15:43:02.329358 31962 net.cpp:120] Top shape: 80 128 28 28 (8028160)
I1219 15:43:02.329422 31962 layer_factory.hpp:74] Creating layer inception_3b/relu_3x3_reduce
I1219 15:43:02.329444 31962 net.cpp:84] Creating Layer inception_3b/relu_3x3_reduce
I1219 15:43:02.329457 31962 net.cpp:380] inception_3b/relu_3x3_reduce <- inception_3b/3x3_reduce
I1219 15:43:02.329473 31962 net.cpp:327] inception_3b/relu_3x3_reduce -> inception_3b/3x3_reduce (in-place)
I1219 15:43:02.329493 31962 net.cpp:113] Setting up inception_3b/relu_3x3_reduce
I1219 15:43:02.329619 31962 net.cpp:120] Top shape: 80 128 28 28 (8028160)
I1219 15:43:02.329646 31962 layer_factory.hpp:74] Creating layer inception_3b/3x3
I1219 15:43:02.329674 31962 net.cpp:84] Creating Layer inception_3b/3x3
I1219 15:43:02.329684 31962 net.cpp:380] inception_3b/3x3 <- inception_3b/3x3_reduce
I1219 15:43:02.329699 31962 net.cpp:338] inception_3b/3x3 -> inception_3b/3x3
I1219 15:43:02.329716 31962 net.cpp:113] Setting up inception_3b/3x3
I1219 15:43:02.335062 31962 net.cpp:120] Top shape: 80 192 28 28 (12042240)
I1219 15:43:02.335122 31962 layer_factory.hpp:74] Creating layer inception_3b/relu_3x3
I1219 15:43:02.335145 31962 net.cpp:84] Creating Layer inception_3b/relu_3x3
I1219 15:43:02.335158 31962 net.cpp:380] inception_3b/relu_3x3 <- inception_3b/3x3
I1219 15:43:02.335173 31962 net.cpp:327] inception_3b/relu_3x3 -> inception_3b/3x3 (in-place)
I1219 15:43:02.335191 31962 net.cpp:113] Setting up inception_3b/relu_3x3
I1219 15:43:02.335294 31962 net.cpp:120] Top shape: 80 192 28 28 (12042240)
I1219 15:43:02.335305 31962 layer_factory.hpp:74] Creating layer inception_3b/5x5_reduce
I1219 15:43:02.335326 31962 net.cpp:84] Creating Layer inception_3b/5x5_reduce
I1219 15:43:02.335337 31962 net.cpp:380] inception_3b/5x5_reduce <- inception_3a/output_inception_3a/output_0_split_2
I1219 15:43:02.335353 31962 net.cpp:338] inception_3b/5x5_reduce -> inception_3b/5x5_reduce
I1219 15:43:02.335371 31962 net.cpp:113] Setting up inception_3b/5x5_reduce
I1219 15:43:02.337746 31962 net.cpp:120] Top shape: 80 32 28 28 (2007040)
I1219 15:43:02.337797 31962 layer_factory.hpp:74] Creating layer inception_3b/relu_5x5_reduce
I1219 15:43:02.337812 31962 net.cpp:84] Creating Layer inception_3b/relu_5x5_reduce
I1219 15:43:02.337823 31962 net.cpp:380] inception_3b/relu_5x5_reduce <- inception_3b/5x5_reduce
I1219 15:43:02.337838 31962 net.cpp:327] inception_3b/relu_5x5_reduce -> inception_3b/5x5_reduce (in-place)
I1219 15:43:02.337854 31962 net.cpp:113] Setting up inception_3b/relu_5x5_reduce
I1219 15:43:02.337955 31962 net.cpp:120] Top shape: 80 32 28 28 (2007040)
I1219 15:43:02.337966 31962 layer_factory.hpp:74] Creating layer inception_3b/5x5
I1219 15:43:02.337981 31962 net.cpp:84] Creating Layer inception_3b/5x5
I1219 15:43:02.337990 31962 net.cpp:380] inception_3b/5x5 <- inception_3b/5x5_reduce
I1219 15:43:02.338007 31962 net.cpp:338] inception_3b/5x5 -> inception_3b/5x5
I1219 15:43:02.338032 31962 net.cpp:113] Setting up inception_3b/5x5
I1219 15:43:02.340492 31962 net.cpp:120] Top shape: 80 96 28 28 (6021120)
I1219 15:43:02.340535 31962 layer_factory.hpp:74] Creating layer inception_3b/relu_5x5
I1219 15:43:02.340570 31962 net.cpp:84] Creating Layer inception_3b/relu_5x5
I1219 15:43:02.340580 31962 net.cpp:380] inception_3b/relu_5x5 <- inception_3b/5x5
I1219 15:43:02.340594 31962 net.cpp:327] inception_3b/relu_5x5 -> inception_3b/5x5 (in-place)
I1219 15:43:02.340608 31962 net.cpp:113] Setting up inception_3b/relu_5x5
I1219 15:43:02.342571 31962 net.cpp:120] Top shape: 80 96 28 28 (6021120)
I1219 15:43:02.342588 31962 layer_factory.hpp:74] Creating layer inception_3b/pool
I1219 15:43:02.342598 31962 layer_factory.cpp:56] CUDNN does not support padding or multiple tops. Using Caffe's own pooling layer.
I1219 15:43:02.342608 31962 net.cpp:84] Creating Layer inception_3b/pool
I1219 15:43:02.342617 31962 net.cpp:380] inception_3b/pool <- inception_3a/output_inception_3a/output_0_split_3
I1219 15:43:02.342640 31962 net.cpp:338] inception_3b/pool -> inception_3b/pool
I1219 15:43:02.342654 31962 net.cpp:113] Setting up inception_3b/pool
I1219 15:43:02.342669 31962 net.cpp:120] Top shape: 80 256 28 28 (16056320)
I1219 15:43:02.342684 31962 layer_factory.hpp:74] Creating layer inception_3b/pool_proj
I1219 15:43:02.342700 31962 net.cpp:84] Creating Layer inception_3b/pool_proj
I1219 15:43:02.342708 31962 net.cpp:380] inception_3b/pool_proj <- inception_3b/pool
I1219 15:43:02.342718 31962 net.cpp:338] inception_3b/pool_proj -> inception_3b/pool_proj
I1219 15:43:02.342731 31962 net.cpp:113] Setting up inception_3b/pool_proj
I1219 15:43:02.353447 31962 net.cpp:120] Top shape: 80 64 28 28 (4014080)
I1219 15:43:02.353503 31962 layer_factory.hpp:74] Creating layer inception_3b/relu_pool_proj
I1219 15:43:02.353529 31962 net.cpp:84] Creating Layer inception_3b/relu_pool_proj
I1219 15:43:02.353539 31962 net.cpp:380] inception_3b/relu_pool_proj <- inception_3b/pool_proj
I1219 15:43:02.353550 31962 net.cpp:327] inception_3b/relu_pool_proj -> inception_3b/pool_proj (in-place)
I1219 15:43:02.353562 31962 net.cpp:113] Setting up inception_3b/relu_pool_proj
I1219 15:43:02.353662 31962 net.cpp:120] Top shape: 80 64 28 28 (4014080)
I1219 15:43:02.353678 31962 layer_factory.hpp:74] Creating layer inception_3b/output
I1219 15:43:02.353688 31962 net.cpp:84] Creating Layer inception_3b/output
I1219 15:43:02.353696 31962 net.cpp:380] inception_3b/output <- inception_3b/1x1
I1219 15:43:02.353705 31962 net.cpp:380] inception_3b/output <- inception_3b/3x3
I1219 15:43:02.353713 31962 net.cpp:380] inception_3b/output <- inception_3b/5x5
I1219 15:43:02.353721 31962 net.cpp:380] inception_3b/output <- inception_3b/pool_proj
I1219 15:43:02.353730 31962 net.cpp:338] inception_3b/output -> inception_3b/output
I1219 15:43:02.353741 31962 net.cpp:113] Setting up inception_3b/output
I1219 15:43:02.353754 31962 net.cpp:120] Top shape: 80 480 28 28 (30105600)
I1219 15:43:02.353760 31962 layer_factory.hpp:74] Creating layer pool3/3x3_s2
I1219 15:43:02.353770 31962 net.cpp:84] Creating Layer pool3/3x3_s2
I1219 15:43:02.353777 31962 net.cpp:380] pool3/3x3_s2 <- inception_3b/output
I1219 15:43:02.353790 31962 net.cpp:338] pool3/3x3_s2 -> pool3/3x3_s2
I1219 15:43:02.353801 31962 net.cpp:113] Setting up pool3/3x3_s2
I1219 15:43:02.353895 31962 net.cpp:120] Top shape: 80 480 14 14 (7526400)
I1219 15:43:02.353904 31962 layer_factory.hpp:74] Creating layer pool3/3x3_s2_pool3/3x3_s2_0_split
I1219 15:43:02.353926 31962 net.cpp:84] Creating Layer pool3/3x3_s2_pool3/3x3_s2_0_split
I1219 15:43:02.353935 31962 net.cpp:380] pool3/3x3_s2_pool3/3x3_s2_0_split <- pool3/3x3_s2
I1219 15:43:02.353945 31962 net.cpp:338] pool3/3x3_s2_pool3/3x3_s2_0_split -> pool3/3x3_s2_pool3/3x3_s2_0_split_0
I1219 15:43:02.353956 31962 net.cpp:338] pool3/3x3_s2_pool3/3x3_s2_0_split -> pool3/3x3_s2_pool3/3x3_s2_0_split_1
I1219 15:43:02.353970 31962 net.cpp:338] pool3/3x3_s2_pool3/3x3_s2_0_split -> pool3/3x3_s2_pool3/3x3_s2_0_split_2
I1219 15:43:02.353979 31962 net.cpp:338] pool3/3x3_s2_pool3/3x3_s2_0_split -> pool3/3x3_s2_pool3/3x3_s2_0_split_3
I1219 15:43:02.353989 31962 net.cpp:113] Setting up pool3/3x3_s2_pool3/3x3_s2_0_split
I1219 15:43:02.354001 31962 net.cpp:120] Top shape: 80 480 14 14 (7526400)
I1219 15:43:02.354008 31962 net.cpp:120] Top shape: 80 480 14 14 (7526400)
I1219 15:43:02.354017 31962 net.cpp:120] Top shape: 80 480 14 14 (7526400)
I1219 15:43:02.354024 31962 net.cpp:120] Top shape: 80 480 14 14 (7526400)
I1219 15:43:02.354032 31962 layer_factory.hpp:74] Creating layer inception_4a/1x1
I1219 15:43:02.354043 31962 net.cpp:84] Creating Layer inception_4a/1x1
I1219 15:43:02.354050 31962 net.cpp:380] inception_4a/1x1 <- pool3/3x3_s2_pool3/3x3_s2_0_split_0
I1219 15:43:02.354061 31962 net.cpp:338] inception_4a/1x1 -> inception_4a/1x1
I1219 15:43:02.354074 31962 net.cpp:113] Setting up inception_4a/1x1
I1219 15:43:02.365313 31962 net.cpp:120] Top shape: 80 192 14 14 (3010560)
I1219 15:43:02.365360 31962 layer_factory.hpp:74] Creating layer inception_4a/relu_1x1
I1219 15:43:02.365393 31962 net.cpp:84] Creating Layer inception_4a/relu_1x1
I1219 15:43:02.365404 31962 net.cpp:380] inception_4a/relu_1x1 <- inception_4a/1x1
I1219 15:43:02.365420 31962 net.cpp:327] inception_4a/relu_1x1 -> inception_4a/1x1 (in-place)
I1219 15:43:02.365434 31962 net.cpp:113] Setting up inception_4a/relu_1x1
I1219 15:43:02.369163 31962 net.cpp:120] Top shape: 80 192 14 14 (3010560)
I1219 15:43:02.369181 31962 layer_factory.hpp:74] Creating layer inception_4a/3x3_reduce
I1219 15:43:02.369227 31962 net.cpp:84] Creating Layer inception_4a/3x3_reduce
I1219 15:43:02.369237 31962 net.cpp:380] inception_4a/3x3_reduce <- pool3/3x3_s2_pool3/3x3_s2_0_split_1
I1219 15:43:02.369261 31962 net.cpp:338] inception_4a/3x3_reduce -> inception_4a/3x3_reduce
I1219 15:43:02.369292 31962 net.cpp:113] Setting up inception_4a/3x3_reduce
I1219 15:43:02.372131 31962 net.cpp:120] Top shape: 80 96 14 14 (1505280)
I1219 15:43:02.372166 31962 layer_factory.hpp:74] Creating layer inception_4a/relu_3x3_reduce
I1219 15:43:02.372177 31962 net.cpp:84] Creating Layer inception_4a/relu_3x3_reduce
I1219 15:43:02.372185 31962 net.cpp:380] inception_4a/relu_3x3_reduce <- inception_4a/3x3_reduce
I1219 15:43:02.372196 31962 net.cpp:327] inception_4a/relu_3x3_reduce -> inception_4a/3x3_reduce (in-place)
I1219 15:43:02.372207 31962 net.cpp:113] Setting up inception_4a/relu_3x3_reduce
I1219 15:43:02.372309 31962 net.cpp:120] Top shape: 80 96 14 14 (1505280)
I1219 15:43:02.372329 31962 layer_factory.hpp:74] Creating layer inception_4a/3x3
I1219 15:43:02.372346 31962 net.cpp:84] Creating Layer inception_4a/3x3
I1219 15:43:02.372359 31962 net.cpp:380] inception_4a/3x3 <- inception_4a/3x3_reduce
I1219 15:43:02.372376 31962 net.cpp:338] inception_4a/3x3 -> inception_4a/3x3
I1219 15:43:02.372390 31962 net.cpp:113] Setting up inception_4a/3x3
I1219 15:43:02.376778 31962 net.cpp:120] Top shape: 80 208 14 14 (3261440)
I1219 15:43:02.376801 31962 layer_factory.hpp:74] Creating layer inception_4a/relu_3x3
I1219 15:43:02.376812 31962 net.cpp:84] Creating Layer inception_4a/relu_3x3
I1219 15:43:02.376821 31962 net.cpp:380] inception_4a/relu_3x3 <- inception_4a/3x3
I1219 15:43:02.376832 31962 net.cpp:327] inception_4a/relu_3x3 -> inception_4a/3x3 (in-place)
I1219 15:43:02.376844 31962 net.cpp:113] Setting up inception_4a/relu_3x3
I1219 15:43:02.376941 31962 net.cpp:120] Top shape: 80 208 14 14 (3261440)
I1219 15:43:02.376950 31962 layer_factory.hpp:74] Creating layer inception_4a/5x5_reduce
I1219 15:43:02.376963 31962 net.cpp:84] Creating Layer inception_4a/5x5_reduce
I1219 15:43:02.376971 31962 net.cpp:380] inception_4a/5x5_reduce <- pool3/3x3_s2_pool3/3x3_s2_0_split_2
I1219 15:43:02.376982 31962 net.cpp:338] inception_4a/5x5_reduce -> inception_4a/5x5_reduce
I1219 15:43:02.376994 31962 net.cpp:113] Setting up inception_4a/5x5_reduce
I1219 15:43:02.378861 31962 net.cpp:120] Top shape: 80 16 14 14 (250880)
I1219 15:43:02.378885 31962 layer_factory.hpp:74] Creating layer inception_4a/relu_5x5_reduce
I1219 15:43:02.378906 31962 net.cpp:84] Creating Layer inception_4a/relu_5x5_reduce
I1219 15:43:02.378914 31962 net.cpp:380] inception_4a/relu_5x5_reduce <- inception_4a/5x5_reduce
I1219 15:43:02.378927 31962 net.cpp:327] inception_4a/relu_5x5_reduce -> inception_4a/5x5_reduce (in-place)
I1219 15:43:02.378938 31962 net.cpp:113] Setting up inception_4a/relu_5x5_reduce
I1219 15:43:02.379032 31962 net.cpp:120] Top shape: 80 16 14 14 (250880)
I1219 15:43:02.379048 31962 layer_factory.hpp:74] Creating layer inception_4a/5x5
I1219 15:43:02.379062 31962 net.cpp:84] Creating Layer inception_4a/5x5
I1219 15:43:02.379070 31962 net.cpp:380] inception_4a/5x5 <- inception_4a/5x5_reduce
I1219 15:43:02.379082 31962 net.cpp:338] inception_4a/5x5 -> inception_4a/5x5
I1219 15:43:02.379094 31962 net.cpp:113] Setting up inception_4a/5x5
I1219 15:43:02.381922 31962 net.cpp:120] Top shape: 80 48 14 14 (752640)
I1219 15:43:02.381945 31962 layer_factory.hpp:74] Creating layer inception_4a/relu_5x5
I1219 15:43:02.381955 31962 net.cpp:84] Creating Layer inception_4a/relu_5x5
I1219 15:43:02.381963 31962 net.cpp:380] inception_4a/relu_5x5 <- inception_4a/5x5
I1219 15:43:02.381973 31962 net.cpp:327] inception_4a/relu_5x5 -> inception_4a/5x5 (in-place)
I1219 15:43:02.381984 31962 net.cpp:113] Setting up inception_4a/relu_5x5
I1219 15:43:02.388795 31962 net.cpp:120] Top shape: 80 48 14 14 (752640)
I1219 15:43:02.388816 31962 layer_factory.hpp:74] Creating layer inception_4a/pool
I1219 15:43:02.388826 31962 layer_factory.cpp:56] CUDNN does not support padding or multiple tops. Using Caffe's own pooling layer.
I1219 15:43:02.388839 31962 net.cpp:84] Creating Layer inception_4a/pool
I1219 15:43:02.388849 31962 net.cpp:380] inception_4a/pool <- pool3/3x3_s2_pool3/3x3_s2_0_split_3
I1219 15:43:02.388870 31962 net.cpp:338] inception_4a/pool -> inception_4a/pool
I1219 15:43:02.388895 31962 net.cpp:113] Setting up inception_4a/pool
I1219 15:43:02.388912 31962 net.cpp:120] Top shape: 80 480 14 14 (7526400)
I1219 15:43:02.388919 31962 layer_factory.hpp:74] Creating layer inception_4a/pool_proj
I1219 15:43:02.388939 31962 net.cpp:84] Creating Layer inception_4a/pool_proj
I1219 15:43:02.388947 31962 net.cpp:380] inception_4a/pool_proj <- inception_4a/pool
I1219 15:43:02.388963 31962 net.cpp:338] inception_4a/pool_proj -> inception_4a/pool_proj
I1219 15:43:02.388975 31962 net.cpp:113] Setting up inception_4a/pool_proj
I1219 15:43:02.393072 31962 net.cpp:120] Top shape: 80 64 14 14 (1003520)
I1219 15:43:02.393095 31962 layer_factory.hpp:74] Creating layer inception_4a/relu_pool_proj
I1219 15:43:02.393108 31962 net.cpp:84] Creating Layer inception_4a/relu_pool_proj
I1219 15:43:02.393116 31962 net.cpp:380] inception_4a/relu_pool_proj <- inception_4a/pool_proj
I1219 15:43:02.393126 31962 net.cpp:327] inception_4a/relu_pool_proj -> inception_4a/pool_proj (in-place)
I1219 15:43:02.393137 31962 net.cpp:113] Setting up inception_4a/relu_pool_proj
I1219 15:43:02.393241 31962 net.cpp:120] Top shape: 80 64 14 14 (1003520)
I1219 15:43:02.393260 31962 layer_factory.hpp:74] Creating layer inception_4a/output
I1219 15:43:02.393272 31962 net.cpp:84] Creating Layer inception_4a/output
I1219 15:43:02.393280 31962 net.cpp:380] inception_4a/output <- inception_4a/1x1
I1219 15:43:02.393288 31962 net.cpp:380] inception_4a/output <- inception_4a/3x3
I1219 15:43:02.393296 31962 net.cpp:380] inception_4a/output <- inception_4a/5x5
I1219 15:43:02.393304 31962 net.cpp:380] inception_4a/output <- inception_4a/pool_proj
I1219 15:43:02.393313 31962 net.cpp:338] inception_4a/output -> inception_4a/output
I1219 15:43:02.393324 31962 net.cpp:113] Setting up inception_4a/output
I1219 15:43:02.393342 31962 net.cpp:120] Top shape: 80 512 14 14 (8028160)
I1219 15:43:02.393348 31962 layer_factory.hpp:74] Creating layer inception_4a/output_inception_4a/output_0_split
I1219 15:43:02.393360 31962 net.cpp:84] Creating Layer inception_4a/output_inception_4a/output_0_split
I1219 15:43:02.393368 31962 net.cpp:380] inception_4a/output_inception_4a/output_0_split <- inception_4a/output
I1219 15:43:02.393376 31962 net.cpp:338] inception_4a/output_inception_4a/output_0_split -> inception_4a/output_inception_4a/output_0_split_0
I1219 15:43:02.393388 31962 net.cpp:338] inception_4a/output_inception_4a/output_0_split -> inception_4a/output_inception_4a/output_0_split_1
I1219 15:43:02.393399 31962 net.cpp:338] inception_4a/output_inception_4a/output_0_split -> inception_4a/output_inception_4a/output_0_split_2
I1219 15:43:02.393409 31962 net.cpp:338] inception_4a/output_inception_4a/output_0_split -> inception_4a/output_inception_4a/output_0_split_3
I1219 15:43:02.393419 31962 net.cpp:338] inception_4a/output_inception_4a/output_0_split -> inception_4a/output_inception_4a/output_0_split_4
I1219 15:43:02.393429 31962 net.cpp:113] Setting up inception_4a/output_inception_4a/output_0_split
I1219 15:43:02.393443 31962 net.cpp:120] Top shape: 80 512 14 14 (8028160)
I1219 15:43:02.393451 31962 net.cpp:120] Top shape: 80 512 14 14 (8028160)
I1219 15:43:02.393460 31962 net.cpp:120] Top shape: 80 512 14 14 (8028160)
I1219 15:43:02.393468 31962 net.cpp:120] Top shape: 80 512 14 14 (8028160)
I1219 15:43:02.393476 31962 net.cpp:120] Top shape: 80 512 14 14 (8028160)
I1219 15:43:02.393482 31962 layer_factory.hpp:74] Creating layer loss1/ave_pool
I1219 15:43:02.393498 31962 net.cpp:84] Creating Layer loss1/ave_pool
I1219 15:43:02.393507 31962 net.cpp:380] loss1/ave_pool <- inception_4a/output_inception_4a/output_0_split_0
I1219 15:43:02.393518 31962 net.cpp:338] loss1/ave_pool -> loss1/ave_pool
I1219 15:43:02.393528 31962 net.cpp:113] Setting up loss1/ave_pool
I1219 15:43:02.393622 31962 net.cpp:120] Top shape: 80 512 4 4 (655360)
I1219 15:43:02.393631 31962 layer_factory.hpp:74] Creating layer loss1/conv
I1219 15:43:02.393645 31962 net.cpp:84] Creating Layer loss1/conv
I1219 15:43:02.393656 31962 net.cpp:380] loss1/conv <- loss1/ave_pool
I1219 15:43:02.393676 31962 net.cpp:338] loss1/conv -> loss1/conv
I1219 15:43:02.393688 31962 net.cpp:113] Setting up loss1/conv
I1219 15:43:02.444787 31962 net.cpp:120] Top shape: 80 128 4 4 (163840)
I1219 15:43:02.444839 31962 layer_factory.hpp:74] Creating layer loss1/relu_conv
I1219 15:43:02.444875 31962 net.cpp:84] Creating Layer loss1/relu_conv
I1219 15:43:02.444885 31962 net.cpp:380] loss1/relu_conv <- loss1/conv
I1219 15:43:02.444900 31962 net.cpp:327] loss1/relu_conv -> loss1/conv (in-place)
I1219 15:43:02.444928 31962 net.cpp:113] Setting up loss1/relu_conv
I1219 15:43:02.445037 31962 net.cpp:120] Top shape: 80 128 4 4 (163840)
I1219 15:43:02.445047 31962 layer_factory.hpp:74] Creating layer loss1/fc
I1219 15:43:02.445080 31962 net.cpp:84] Creating Layer loss1/fc
I1219 15:43:02.445089 31962 net.cpp:380] loss1/fc <- loss1/conv
I1219 15:43:02.445099 31962 net.cpp:338] loss1/fc -> loss1/fc
I1219 15:43:02.445118 31962 net.cpp:113] Setting up loss1/fc
I1219 15:43:02.556825 31962 net.cpp:120] Top shape: 80 1024 (81920)
I1219 15:43:02.556879 31962 layer_factory.hpp:74] Creating layer loss1/relu_fc
I1219 15:43:02.556913 31962 net.cpp:84] Creating Layer loss1/relu_fc
I1219 15:43:02.556926 31962 net.cpp:380] loss1/relu_fc <- loss1/fc
I1219 15:43:02.556939 31962 net.cpp:327] loss1/relu_fc -> loss1/fc (in-place)
I1219 15:43:02.556953 31962 net.cpp:113] Setting up loss1/relu_fc
I1219 15:43:02.581382 31962 net.cpp:120] Top shape: 80 1024 (81920)
I1219 15:43:02.581409 31962 layer_factory.hpp:74] Creating layer loss1/drop_fc
I1219 15:43:02.581442 31962 net.cpp:84] Creating Layer loss1/drop_fc
I1219 15:43:02.581452 31962 net.cpp:380] loss1/drop_fc <- loss1/fc
I1219 15:43:02.581466 31962 net.cpp:327] loss1/drop_fc -> loss1/fc (in-place)
I1219 15:43:02.581482 31962 net.cpp:113] Setting up loss1/drop_fc
I1219 15:43:02.581498 31962 net.cpp:120] Top shape: 80 1024 (81920)
I1219 15:43:02.581506 31962 layer_factory.hpp:74] Creating layer loss1/classifier_kaggle
I1219 15:43:02.581524 31962 net.cpp:84] Creating Layer loss1/classifier_kaggle
I1219 15:43:02.581532 31962 net.cpp:380] loss1/classifier_kaggle <- loss1/fc
I1219 15:43:02.581542 31962 net.cpp:338] loss1/classifier_kaggle -> loss1/classifier_kaggle
I1219 15:43:02.581557 31962 net.cpp:113] Setting up loss1/classifier_kaggle
I1219 15:43:02.587347 31962 net.cpp:120] Top shape: 80 447 (35760)
I1219 15:43:02.587378 31962 layer_factory.hpp:74] Creating layer loss1/loss
I1219 15:43:02.587398 31962 net.cpp:84] Creating Layer loss1/loss
I1219 15:43:02.587405 31962 net.cpp:380] loss1/loss <- loss1/classifier_kaggle
I1219 15:43:02.587415 31962 net.cpp:380] loss1/loss <- label_data_1_split_0
I1219 15:43:02.587425 31962 net.cpp:338] loss1/loss -> loss1/loss1
I1219 15:43:02.587440 31962 net.cpp:113] Setting up loss1/loss
I1219 15:43:02.587452 31962 layer_factory.hpp:74] Creating layer loss1/loss
I1219 15:43:02.587690 31962 net.cpp:120] Top shape: (1)
I1219 15:43:02.587702 31962 net.cpp:122]     with loss weight 0.3
I1219 15:43:02.587724 31962 layer_factory.hpp:74] Creating layer inception_4b/1x1
I1219 15:43:02.587748 31962 net.cpp:84] Creating Layer inception_4b/1x1
I1219 15:43:02.587756 31962 net.cpp:380] inception_4b/1x1 <- inception_4a/output_inception_4a/output_0_split_1
I1219 15:43:02.587770 31962 net.cpp:338] inception_4b/1x1 -> inception_4b/1x1
I1219 15:43:02.587784 31962 net.cpp:113] Setting up inception_4b/1x1
I1219 15:43:02.599860 31962 net.cpp:120] Top shape: 80 160 14 14 (2508800)
I1219 15:43:02.599885 31962 layer_factory.hpp:74] Creating layer inception_4b/relu_1x1
I1219 15:43:02.599900 31962 net.cpp:84] Creating Layer inception_4b/relu_1x1
I1219 15:43:02.599908 31962 net.cpp:380] inception_4b/relu_1x1 <- inception_4b/1x1
I1219 15:43:02.599920 31962 net.cpp:327] inception_4b/relu_1x1 -> inception_4b/1x1 (in-place)
I1219 15:43:02.599931 31962 net.cpp:113] Setting up inception_4b/relu_1x1
I1219 15:43:02.600035 31962 net.cpp:120] Top shape: 80 160 14 14 (2508800)
I1219 15:43:02.600059 31962 layer_factory.hpp:74] Creating layer inception_4b/3x3_reduce
I1219 15:43:02.600087 31962 net.cpp:84] Creating Layer inception_4b/3x3_reduce
I1219 15:43:02.600095 31962 net.cpp:380] inception_4b/3x3_reduce <- inception_4a/output_inception_4a/output_0_split_2
I1219 15:43:02.600106 31962 net.cpp:338] inception_4b/3x3_reduce -> inception_4b/3x3_reduce
I1219 15:43:02.600121 31962 net.cpp:113] Setting up inception_4b/3x3_reduce
I1219 15:43:02.602156 31962 net.cpp:120] Top shape: 80 112 14 14 (1756160)
I1219 15:43:02.602180 31962 layer_factory.hpp:74] Creating layer inception_4b/relu_3x3_reduce
I1219 15:43:02.602197 31962 net.cpp:84] Creating Layer inception_4b/relu_3x3_reduce
I1219 15:43:02.602205 31962 net.cpp:380] inception_4b/relu_3x3_reduce <- inception_4b/3x3_reduce
I1219 15:43:02.602218 31962 net.cpp:327] inception_4b/relu_3x3_reduce -> inception_4b/3x3_reduce (in-place)
I1219 15:43:02.602229 31962 net.cpp:113] Setting up inception_4b/relu_3x3_reduce
I1219 15:43:02.602329 31962 net.cpp:120] Top shape: 80 112 14 14 (1756160)
I1219 15:43:02.602339 31962 layer_factory.hpp:74] Creating layer inception_4b/3x3
I1219 15:43:02.602360 31962 net.cpp:84] Creating Layer inception_4b/3x3
I1219 15:43:02.602367 31962 net.cpp:380] inception_4b/3x3 <- inception_4b/3x3_reduce
I1219 15:43:02.602380 31962 net.cpp:338] inception_4b/3x3 -> inception_4b/3x3
I1219 15:43:02.602392 31962 net.cpp:113] Setting up inception_4b/3x3
I1219 15:43:02.610265 31962 net.cpp:120] Top shape: 80 224 14 14 (3512320)
I1219 15:43:02.610294 31962 layer_factory.hpp:74] Creating layer inception_4b/relu_3x3
I1219 15:43:02.610306 31962 net.cpp:84] Creating Layer inception_4b/relu_3x3
I1219 15:43:02.610314 31962 net.cpp:380] inception_4b/relu_3x3 <- inception_4b/3x3
I1219 15:43:02.610324 31962 net.cpp:327] inception_4b/relu_3x3 -> inception_4b/3x3 (in-place)
I1219 15:43:02.610335 31962 net.cpp:113] Setting up inception_4b/relu_3x3
I1219 15:43:02.610636 31962 net.cpp:120] Top shape: 80 224 14 14 (3512320)
I1219 15:43:02.610651 31962 layer_factory.hpp:74] Creating layer inception_4b/5x5_reduce
I1219 15:43:02.610663 31962 net.cpp:84] Creating Layer inception_4b/5x5_reduce
I1219 15:43:02.610671 31962 net.cpp:380] inception_4b/5x5_reduce <- inception_4a/output_inception_4a/output_0_split_3
I1219 15:43:02.610685 31962 net.cpp:338] inception_4b/5x5_reduce -> inception_4b/5x5_reduce
I1219 15:43:02.610698 31962 net.cpp:113] Setting up inception_4b/5x5_reduce
I1219 15:43:02.611446 31962 net.cpp:120] Top shape: 80 24 14 14 (376320)
I1219 15:43:02.611467 31962 layer_factory.hpp:74] Creating layer inception_4b/relu_5x5_reduce
I1219 15:43:02.611485 31962 net.cpp:84] Creating Layer inception_4b/relu_5x5_reduce
I1219 15:43:02.611493 31962 net.cpp:380] inception_4b/relu_5x5_reduce <- inception_4b/5x5_reduce
I1219 15:43:02.611506 31962 net.cpp:327] inception_4b/relu_5x5_reduce -> inception_4b/5x5_reduce (in-place)
I1219 15:43:02.611517 31962 net.cpp:113] Setting up inception_4b/relu_5x5_reduce
I1219 15:43:02.611620 31962 net.cpp:120] Top shape: 80 24 14 14 (376320)
I1219 15:43:02.611634 31962 layer_factory.hpp:74] Creating layer inception_4b/5x5
I1219 15:43:02.611646 31962 net.cpp:84] Creating Layer inception_4b/5x5
I1219 15:43:02.611654 31962 net.cpp:380] inception_4b/5x5 <- inception_4b/5x5_reduce
I1219 15:43:02.611668 31962 net.cpp:338] inception_4b/5x5 -> inception_4b/5x5
I1219 15:43:02.611680 31962 net.cpp:113] Setting up inception_4b/5x5
I1219 15:43:02.612716 31962 net.cpp:120] Top shape: 80 64 14 14 (1003520)
I1219 15:43:02.612736 31962 layer_factory.hpp:74] Creating layer inception_4b/relu_5x5
I1219 15:43:02.612748 31962 net.cpp:84] Creating Layer inception_4b/relu_5x5
I1219 15:43:02.612757 31962 net.cpp:380] inception_4b/relu_5x5 <- inception_4b/5x5
I1219 15:43:02.612767 31962 net.cpp:327] inception_4b/relu_5x5 -> inception_4b/5x5 (in-place)
I1219 15:43:02.612777 31962 net.cpp:113] Setting up inception_4b/relu_5x5
I1219 15:43:02.612877 31962 net.cpp:120] Top shape: 80 64 14 14 (1003520)
I1219 15:43:02.612886 31962 layer_factory.hpp:74] Creating layer inception_4b/pool
I1219 15:43:02.612902 31962 layer_factory.cpp:56] CUDNN does not support padding or multiple tops. Using Caffe's own pooling layer.
I1219 15:43:02.612926 31962 net.cpp:84] Creating Layer inception_4b/pool
I1219 15:43:02.612933 31962 net.cpp:380] inception_4b/pool <- inception_4a/output_inception_4a/output_0_split_4
I1219 15:43:02.612944 31962 net.cpp:338] inception_4b/pool -> inception_4b/pool
I1219 15:43:02.612972 31962 net.cpp:113] Setting up inception_4b/pool
I1219 15:43:02.612987 31962 net.cpp:120] Top shape: 80 512 14 14 (8028160)
I1219 15:43:02.612994 31962 layer_factory.hpp:74] Creating layer inception_4b/pool_proj
I1219 15:43:02.613016 31962 net.cpp:84] Creating Layer inception_4b/pool_proj
I1219 15:43:02.613023 31962 net.cpp:380] inception_4b/pool_proj <- inception_4b/pool
I1219 15:43:02.613036 31962 net.cpp:338] inception_4b/pool_proj -> inception_4b/pool_proj
I1219 15:43:02.613049 31962 net.cpp:113] Setting up inception_4b/pool_proj
I1219 15:43:02.618033 31962 net.cpp:120] Top shape: 80 64 14 14 (1003520)
I1219 15:43:02.618064 31962 layer_factory.hpp:74] Creating layer inception_4b/relu_pool_proj
I1219 15:43:02.618077 31962 net.cpp:84] Creating Layer inception_4b/relu_pool_proj
I1219 15:43:02.618084 31962 net.cpp:380] inception_4b/relu_pool_proj <- inception_4b/pool_proj
I1219 15:43:02.618098 31962 net.cpp:327] inception_4b/relu_pool_proj -> inception_4b/pool_proj (in-place)
I1219 15:43:02.618109 31962 net.cpp:113] Setting up inception_4b/relu_pool_proj
I1219 15:43:02.618414 31962 net.cpp:120] Top shape: 80 64 14 14 (1003520)
I1219 15:43:02.618428 31962 layer_factory.hpp:74] Creating layer inception_4b/output
I1219 15:43:02.618439 31962 net.cpp:84] Creating Layer inception_4b/output
I1219 15:43:02.618448 31962 net.cpp:380] inception_4b/output <- inception_4b/1x1
I1219 15:43:02.618459 31962 net.cpp:380] inception_4b/output <- inception_4b/3x3
I1219 15:43:02.618468 31962 net.cpp:380] inception_4b/output <- inception_4b/5x5
I1219 15:43:02.618475 31962 net.cpp:380] inception_4b/output <- inception_4b/pool_proj
I1219 15:43:02.618485 31962 net.cpp:338] inception_4b/output -> inception_4b/output
I1219 15:43:02.618496 31962 net.cpp:113] Setting up inception_4b/output
I1219 15:43:02.618510 31962 net.cpp:120] Top shape: 80 512 14 14 (8028160)
I1219 15:43:02.618516 31962 layer_factory.hpp:74] Creating layer inception_4b/output_inception_4b/output_0_split
I1219 15:43:02.618527 31962 net.cpp:84] Creating Layer inception_4b/output_inception_4b/output_0_split
I1219 15:43:02.618535 31962 net.cpp:380] inception_4b/output_inception_4b/output_0_split <- inception_4b/output
I1219 15:43:02.618546 31962 net.cpp:338] inception_4b/output_inception_4b/output_0_split -> inception_4b/output_inception_4b/output_0_split_0
I1219 15:43:02.618557 31962 net.cpp:338] inception_4b/output_inception_4b/output_0_split -> inception_4b/output_inception_4b/output_0_split_1
I1219 15:43:02.618568 31962 net.cpp:338] inception_4b/output_inception_4b/output_0_split -> inception_4b/output_inception_4b/output_0_split_2
I1219 15:43:02.618579 31962 net.cpp:338] inception_4b/output_inception_4b/output_0_split -> inception_4b/output_inception_4b/output_0_split_3
I1219 15:43:02.618588 31962 net.cpp:113] Setting up inception_4b/output_inception_4b/output_0_split
I1219 15:43:02.618600 31962 net.cpp:120] Top shape: 80 512 14 14 (8028160)
I1219 15:43:02.618608 31962 net.cpp:120] Top shape: 80 512 14 14 (8028160)
I1219 15:43:02.618616 31962 net.cpp:120] Top shape: 80 512 14 14 (8028160)
I1219 15:43:02.618625 31962 net.cpp:120] Top shape: 80 512 14 14 (8028160)
I1219 15:43:02.618631 31962 layer_factory.hpp:74] Creating layer inception_4c/1x1
I1219 15:43:02.618654 31962 net.cpp:84] Creating Layer inception_4c/1x1
I1219 15:43:02.618660 31962 net.cpp:380] inception_4c/1x1 <- inception_4b/output_inception_4b/output_0_split_0
I1219 15:43:02.618672 31962 net.cpp:338] inception_4c/1x1 -> inception_4c/1x1
I1219 15:43:02.618685 31962 net.cpp:113] Setting up inception_4c/1x1
I1219 15:43:02.620036 31962 net.cpp:120] Top shape: 80 128 14 14 (2007040)
I1219 15:43:02.620064 31962 layer_factory.hpp:74] Creating layer inception_4c/relu_1x1
I1219 15:43:02.620096 31962 net.cpp:84] Creating Layer inception_4c/relu_1x1
I1219 15:43:02.620105 31962 net.cpp:380] inception_4c/relu_1x1 <- inception_4c/1x1
I1219 15:43:02.620115 31962 net.cpp:327] inception_4c/relu_1x1 -> inception_4c/1x1 (in-place)
I1219 15:43:02.620126 31962 net.cpp:113] Setting up inception_4c/relu_1x1
I1219 15:43:02.620225 31962 net.cpp:120] Top shape: 80 128 14 14 (2007040)
I1219 15:43:02.620234 31962 layer_factory.hpp:74] Creating layer inception_4c/3x3_reduce
I1219 15:43:02.620247 31962 net.cpp:84] Creating Layer inception_4c/3x3_reduce
I1219 15:43:02.620255 31962 net.cpp:380] inception_4c/3x3_reduce <- inception_4b/output_inception_4b/output_0_split_1
I1219 15:43:02.620268 31962 net.cpp:338] inception_4c/3x3_reduce -> inception_4c/3x3_reduce
I1219 15:43:02.620280 31962 net.cpp:113] Setting up inception_4c/3x3_reduce
I1219 15:43:02.625665 31962 net.cpp:120] Top shape: 80 128 14 14 (2007040)
I1219 15:43:02.625689 31962 layer_factory.hpp:74] Creating layer inception_4c/relu_3x3_reduce
I1219 15:43:02.625710 31962 net.cpp:84] Creating Layer inception_4c/relu_3x3_reduce
I1219 15:43:02.625718 31962 net.cpp:380] inception_4c/relu_3x3_reduce <- inception_4c/3x3_reduce
I1219 15:43:02.625728 31962 net.cpp:327] inception_4c/relu_3x3_reduce -> inception_4c/3x3_reduce (in-place)
I1219 15:43:02.625741 31962 net.cpp:113] Setting up inception_4c/relu_3x3_reduce
I1219 15:43:02.625839 31962 net.cpp:120] Top shape: 80 128 14 14 (2007040)
I1219 15:43:02.625849 31962 layer_factory.hpp:74] Creating layer inception_4c/3x3
I1219 15:43:02.625861 31962 net.cpp:84] Creating Layer inception_4c/3x3
I1219 15:43:02.625869 31962 net.cpp:380] inception_4c/3x3 <- inception_4c/3x3_reduce
I1219 15:43:02.625882 31962 net.cpp:338] inception_4c/3x3 -> inception_4c/3x3
I1219 15:43:02.625895 31962 net.cpp:113] Setting up inception_4c/3x3
I1219 15:43:02.647498 31962 net.cpp:120] Top shape: 80 256 14 14 (4014080)
I1219 15:43:02.647547 31962 layer_factory.hpp:74] Creating layer inception_4c/relu_3x3
I1219 15:43:02.647563 31962 net.cpp:84] Creating Layer inception_4c/relu_3x3
I1219 15:43:02.647573 31962 net.cpp:380] inception_4c/relu_3x3 <- inception_4c/3x3
I1219 15:43:02.647586 31962 net.cpp:327] inception_4c/relu_3x3 -> inception_4c/3x3 (in-place)
I1219 15:43:02.647601 31962 net.cpp:113] Setting up inception_4c/relu_3x3
I1219 15:43:02.647716 31962 net.cpp:120] Top shape: 80 256 14 14 (4014080)
I1219 15:43:02.647743 31962 layer_factory.hpp:74] Creating layer inception_4c/5x5_reduce
I1219 15:43:02.647769 31962 net.cpp:84] Creating Layer inception_4c/5x5_reduce
I1219 15:43:02.647780 31962 net.cpp:380] inception_4c/5x5_reduce <- inception_4b/output_inception_4b/output_0_split_2
I1219 15:43:02.647794 31962 net.cpp:338] inception_4c/5x5_reduce -> inception_4c/5x5_reduce
I1219 15:43:02.647809 31962 net.cpp:113] Setting up inception_4c/5x5_reduce
I1219 15:43:02.648530 31962 net.cpp:120] Top shape: 80 24 14 14 (376320)
I1219 15:43:02.648552 31962 layer_factory.hpp:74] Creating layer inception_4c/relu_5x5_reduce
I1219 15:43:02.648568 31962 net.cpp:84] Creating Layer inception_4c/relu_5x5_reduce
I1219 15:43:02.648579 31962 net.cpp:380] inception_4c/relu_5x5_reduce <- inception_4c/5x5_reduce
I1219 15:43:02.648591 31962 net.cpp:327] inception_4c/relu_5x5_reduce -> inception_4c/5x5_reduce (in-place)
I1219 15:43:02.648604 31962 net.cpp:113] Setting up inception_4c/relu_5x5_reduce
I1219 15:43:02.648919 31962 net.cpp:120] Top shape: 80 24 14 14 (376320)
I1219 15:43:02.648936 31962 layer_factory.hpp:74] Creating layer inception_4c/5x5
I1219 15:43:02.648949 31962 net.cpp:84] Creating Layer inception_4c/5x5
I1219 15:43:02.648959 31962 net.cpp:380] inception_4c/5x5 <- inception_4c/5x5_reduce
I1219 15:43:02.648975 31962 net.cpp:338] inception_4c/5x5 -> inception_4c/5x5
I1219 15:43:02.648990 31962 net.cpp:113] Setting up inception_4c/5x5
I1219 15:43:02.650063 31962 net.cpp:120] Top shape: 80 64 14 14 (1003520)
I1219 15:43:02.650089 31962 layer_factory.hpp:74] Creating layer inception_4c/relu_5x5
I1219 15:43:02.650110 31962 net.cpp:84] Creating Layer inception_4c/relu_5x5
I1219 15:43:02.650133 31962 net.cpp:380] inception_4c/relu_5x5 <- inception_4c/5x5
I1219 15:43:02.650148 31962 net.cpp:327] inception_4c/relu_5x5 -> inception_4c/5x5 (in-place)
I1219 15:43:02.650163 31962 net.cpp:113] Setting up inception_4c/relu_5x5
I1219 15:43:02.650275 31962 net.cpp:120] Top shape: 80 64 14 14 (1003520)
I1219 15:43:02.650287 31962 layer_factory.hpp:74] Creating layer inception_4c/pool
I1219 15:43:02.650313 31962 layer_factory.cpp:56] CUDNN does not support padding or multiple tops. Using Caffe's own pooling layer.
I1219 15:43:02.650328 31962 net.cpp:84] Creating Layer inception_4c/pool
I1219 15:43:02.650339 31962 net.cpp:380] inception_4c/pool <- inception_4b/output_inception_4b/output_0_split_3
I1219 15:43:02.650352 31962 net.cpp:338] inception_4c/pool -> inception_4c/pool
I1219 15:43:02.650365 31962 net.cpp:113] Setting up inception_4c/pool
I1219 15:43:02.650382 31962 net.cpp:120] Top shape: 80 512 14 14 (8028160)
I1219 15:43:02.650393 31962 layer_factory.hpp:74] Creating layer inception_4c/pool_proj
I1219 15:43:02.650408 31962 net.cpp:84] Creating Layer inception_4c/pool_proj
I1219 15:43:02.650418 31962 net.cpp:380] inception_4c/pool_proj <- inception_4c/pool
I1219 15:43:02.650431 31962 net.cpp:338] inception_4c/pool_proj -> inception_4c/pool_proj
I1219 15:43:02.650445 31962 net.cpp:113] Setting up inception_4c/pool_proj
I1219 15:43:02.651660 31962 net.cpp:120] Top shape: 80 64 14 14 (1003520)
I1219 15:43:02.651684 31962 layer_factory.hpp:74] Creating layer inception_4c/relu_pool_proj
I1219 15:43:02.651695 31962 net.cpp:84] Creating Layer inception_4c/relu_pool_proj
I1219 15:43:02.651705 31962 net.cpp:380] inception_4c/relu_pool_proj <- inception_4c/pool_proj
I1219 15:43:02.651717 31962 net.cpp:327] inception_4c/relu_pool_proj -> inception_4c/pool_proj (in-place)
I1219 15:43:02.651731 31962 net.cpp:113] Setting up inception_4c/relu_pool_proj
I1219 15:43:02.651836 31962 net.cpp:120] Top shape: 80 64 14 14 (1003520)
I1219 15:43:02.651849 31962 layer_factory.hpp:74] Creating layer inception_4c/output
I1219 15:43:02.651872 31962 net.cpp:84] Creating Layer inception_4c/output
I1219 15:43:02.651883 31962 net.cpp:380] inception_4c/output <- inception_4c/1x1
I1219 15:43:02.651895 31962 net.cpp:380] inception_4c/output <- inception_4c/3x3
I1219 15:43:02.651904 31962 net.cpp:380] inception_4c/output <- inception_4c/5x5
I1219 15:43:02.651913 31962 net.cpp:380] inception_4c/output <- inception_4c/pool_proj
I1219 15:43:02.651926 31962 net.cpp:338] inception_4c/output -> inception_4c/output
I1219 15:43:02.651939 31962 net.cpp:113] Setting up inception_4c/output
I1219 15:43:02.651954 31962 net.cpp:120] Top shape: 80 512 14 14 (8028160)
I1219 15:43:02.651964 31962 layer_factory.hpp:74] Creating layer inception_4c/output_inception_4c/output_0_split
I1219 15:43:02.651976 31962 net.cpp:84] Creating Layer inception_4c/output_inception_4c/output_0_split
I1219 15:43:02.651985 31962 net.cpp:380] inception_4c/output_inception_4c/output_0_split <- inception_4c/output
I1219 15:43:02.651998 31962 net.cpp:338] inception_4c/output_inception_4c/output_0_split -> inception_4c/output_inception_4c/output_0_split_0
I1219 15:43:02.652014 31962 net.cpp:338] inception_4c/output_inception_4c/output_0_split -> inception_4c/output_inception_4c/output_0_split_1
I1219 15:43:02.652029 31962 net.cpp:338] inception_4c/output_inception_4c/output_0_split -> inception_4c/output_inception_4c/output_0_split_2
I1219 15:43:02.652042 31962 net.cpp:338] inception_4c/output_inception_4c/output_0_split -> inception_4c/output_inception_4c/output_0_split_3
I1219 15:43:02.652055 31962 net.cpp:113] Setting up inception_4c/output_inception_4c/output_0_split
I1219 15:43:02.652068 31962 net.cpp:120] Top shape: 80 512 14 14 (8028160)
I1219 15:43:02.652078 31962 net.cpp:120] Top shape: 80 512 14 14 (8028160)
I1219 15:43:02.652088 31962 net.cpp:120] Top shape: 80 512 14 14 (8028160)
I1219 15:43:02.652098 31962 net.cpp:120] Top shape: 80 512 14 14 (8028160)
I1219 15:43:02.652114 31962 layer_factory.hpp:74] Creating layer inception_4d/1x1
I1219 15:43:02.652146 31962 net.cpp:84] Creating Layer inception_4d/1x1
I1219 15:43:02.652156 31962 net.cpp:380] inception_4d/1x1 <- inception_4c/output_inception_4c/output_0_split_0
I1219 15:43:02.652169 31962 net.cpp:338] inception_4d/1x1 -> inception_4d/1x1
I1219 15:43:02.652184 31962 net.cpp:113] Setting up inception_4d/1x1
I1219 15:43:02.653693 31962 net.cpp:120] Top shape: 80 112 14 14 (1756160)
I1219 15:43:02.653718 31962 layer_factory.hpp:74] Creating layer inception_4d/relu_1x1
I1219 15:43:02.653734 31962 net.cpp:84] Creating Layer inception_4d/relu_1x1
I1219 15:43:02.653745 31962 net.cpp:380] inception_4d/relu_1x1 <- inception_4d/1x1
I1219 15:43:02.653758 31962 net.cpp:327] inception_4d/relu_1x1 -> inception_4d/1x1 (in-place)
I1219 15:43:02.653770 31962 net.cpp:113] Setting up inception_4d/relu_1x1
I1219 15:43:02.653872 31962 net.cpp:120] Top shape: 80 112 14 14 (1756160)
I1219 15:43:02.653885 31962 layer_factory.hpp:74] Creating layer inception_4d/3x3_reduce
I1219 15:43:02.653901 31962 net.cpp:84] Creating Layer inception_4d/3x3_reduce
I1219 15:43:02.653911 31962 net.cpp:380] inception_4d/3x3_reduce <- inception_4c/output_inception_4c/output_0_split_1
I1219 15:43:02.653925 31962 net.cpp:338] inception_4d/3x3_reduce -> inception_4d/3x3_reduce
I1219 15:43:02.653940 31962 net.cpp:113] Setting up inception_4d/3x3_reduce
I1219 15:43:02.655459 31962 net.cpp:120] Top shape: 80 144 14 14 (2257920)
I1219 15:43:02.655480 31962 layer_factory.hpp:74] Creating layer inception_4d/relu_3x3_reduce
I1219 15:43:02.655503 31962 net.cpp:84] Creating Layer inception_4d/relu_3x3_reduce
I1219 15:43:02.655511 31962 net.cpp:380] inception_4d/relu_3x3_reduce <- inception_4d/3x3_reduce
I1219 15:43:02.655521 31962 net.cpp:327] inception_4d/relu_3x3_reduce -> inception_4d/3x3_reduce (in-place)
I1219 15:43:02.655532 31962 net.cpp:113] Setting up inception_4d/relu_3x3_reduce
I1219 15:43:02.655836 31962 net.cpp:120] Top shape: 80 144 14 14 (2257920)
I1219 15:43:02.655850 31962 layer_factory.hpp:74] Creating layer inception_4d/3x3
I1219 15:43:02.655870 31962 net.cpp:84] Creating Layer inception_4d/3x3
I1219 15:43:02.655879 31962 net.cpp:380] inception_4d/3x3 <- inception_4d/3x3_reduce
I1219 15:43:02.655892 31962 net.cpp:338] inception_4d/3x3 -> inception_4d/3x3
I1219 15:43:02.655905 31962 net.cpp:113] Setting up inception_4d/3x3
I1219 15:43:02.665297 31962 net.cpp:120] Top shape: 80 288 14 14 (4515840)
I1219 15:43:02.665323 31962 layer_factory.hpp:74] Creating layer inception_4d/relu_3x3
I1219 15:43:02.665333 31962 net.cpp:84] Creating Layer inception_4d/relu_3x3
I1219 15:43:02.665341 31962 net.cpp:380] inception_4d/relu_3x3 <- inception_4d/3x3
I1219 15:43:02.665354 31962 net.cpp:327] inception_4d/relu_3x3 -> inception_4d/3x3 (in-place)
I1219 15:43:02.665366 31962 net.cpp:113] Setting up inception_4d/relu_3x3
I1219 15:43:02.665465 31962 net.cpp:120] Top shape: 80 288 14 14 (4515840)
I1219 15:43:02.665477 31962 layer_factory.hpp:74] Creating layer inception_4d/5x5_reduce
I1219 15:43:02.665501 31962 net.cpp:84] Creating Layer inception_4d/5x5_reduce
I1219 15:43:02.665509 31962 net.cpp:380] inception_4d/5x5_reduce <- inception_4c/output_inception_4c/output_0_split_2
I1219 15:43:02.665520 31962 net.cpp:338] inception_4d/5x5_reduce -> inception_4d/5x5_reduce
I1219 15:43:02.665540 31962 net.cpp:113] Setting up inception_4d/5x5_reduce
I1219 15:43:02.666281 31962 net.cpp:120] Top shape: 80 32 14 14 (501760)
I1219 15:43:02.666302 31962 layer_factory.hpp:74] Creating layer inception_4d/relu_5x5_reduce
I1219 15:43:02.666314 31962 net.cpp:84] Creating Layer inception_4d/relu_5x5_reduce
I1219 15:43:02.666322 31962 net.cpp:380] inception_4d/relu_5x5_reduce <- inception_4d/5x5_reduce
I1219 15:43:02.666333 31962 net.cpp:327] inception_4d/relu_5x5_reduce -> inception_4d/5x5_reduce (in-place)
I1219 15:43:02.666343 31962 net.cpp:113] Setting up inception_4d/relu_5x5_reduce
I1219 15:43:02.666443 31962 net.cpp:120] Top shape: 80 32 14 14 (501760)
I1219 15:43:02.666452 31962 layer_factory.hpp:74] Creating layer inception_4d/5x5
I1219 15:43:02.666472 31962 net.cpp:84] Creating Layer inception_4d/5x5
I1219 15:43:02.666489 31962 net.cpp:380] inception_4d/5x5 <- inception_4d/5x5_reduce
I1219 15:43:02.666503 31962 net.cpp:338] inception_4d/5x5 -> inception_4d/5x5
I1219 15:43:02.666515 31962 net.cpp:113] Setting up inception_4d/5x5
I1219 15:43:02.667695 31962 net.cpp:120] Top shape: 80 64 14 14 (1003520)
I1219 15:43:02.667722 31962 layer_factory.hpp:74] Creating layer inception_4d/relu_5x5
I1219 15:43:02.667742 31962 net.cpp:84] Creating Layer inception_4d/relu_5x5
I1219 15:43:02.667752 31962 net.cpp:380] inception_4d/relu_5x5 <- inception_4d/5x5
I1219 15:43:02.667762 31962 net.cpp:327] inception_4d/relu_5x5 -> inception_4d/5x5 (in-place)
I1219 15:43:02.667773 31962 net.cpp:113] Setting up inception_4d/relu_5x5
I1219 15:43:02.667871 31962 net.cpp:120] Top shape: 80 64 14 14 (1003520)
I1219 15:43:02.667881 31962 layer_factory.hpp:74] Creating layer inception_4d/pool
I1219 15:43:02.667888 31962 layer_factory.cpp:56] CUDNN does not support padding or multiple tops. Using Caffe's own pooling layer.
I1219 15:43:02.667897 31962 net.cpp:84] Creating Layer inception_4d/pool
I1219 15:43:02.667906 31962 net.cpp:380] inception_4d/pool <- inception_4c/output_inception_4c/output_0_split_3
I1219 15:43:02.667917 31962 net.cpp:338] inception_4d/pool -> inception_4d/pool
I1219 15:43:02.667929 31962 net.cpp:113] Setting up inception_4d/pool
I1219 15:43:02.667943 31962 net.cpp:120] Top shape: 80 512 14 14 (8028160)
I1219 15:43:02.667949 31962 layer_factory.hpp:74] Creating layer inception_4d/pool_proj
I1219 15:43:02.667963 31962 net.cpp:84] Creating Layer inception_4d/pool_proj
I1219 15:43:02.667970 31962 net.cpp:380] inception_4d/pool_proj <- inception_4d/pool
I1219 15:43:02.667980 31962 net.cpp:338] inception_4d/pool_proj -> inception_4d/pool_proj
I1219 15:43:02.667991 31962 net.cpp:113] Setting up inception_4d/pool_proj
I1219 15:43:02.668931 31962 net.cpp:120] Top shape: 80 64 14 14 (1003520)
I1219 15:43:02.668951 31962 layer_factory.hpp:74] Creating layer inception_4d/relu_pool_proj
I1219 15:43:02.668962 31962 net.cpp:84] Creating Layer inception_4d/relu_pool_proj
I1219 15:43:02.668969 31962 net.cpp:380] inception_4d/relu_pool_proj <- inception_4d/pool_proj
I1219 15:43:02.668982 31962 net.cpp:327] inception_4d/relu_pool_proj -> inception_4d/pool_proj (in-place)
I1219 15:43:02.668992 31962 net.cpp:113] Setting up inception_4d/relu_pool_proj
I1219 15:43:02.679837 31962 net.cpp:120] Top shape: 80 64 14 14 (1003520)
I1219 15:43:02.679858 31962 layer_factory.hpp:74] Creating layer inception_4d/output
I1219 15:43:02.679878 31962 net.cpp:84] Creating Layer inception_4d/output
I1219 15:43:02.679888 31962 net.cpp:380] inception_4d/output <- inception_4d/1x1
I1219 15:43:02.679898 31962 net.cpp:380] inception_4d/output <- inception_4d/3x3
I1219 15:43:02.679906 31962 net.cpp:380] inception_4d/output <- inception_4d/5x5
I1219 15:43:02.679914 31962 net.cpp:380] inception_4d/output <- inception_4d/pool_proj
I1219 15:43:02.679924 31962 net.cpp:338] inception_4d/output -> inception_4d/output
I1219 15:43:02.679936 31962 net.cpp:113] Setting up inception_4d/output
I1219 15:43:02.679949 31962 net.cpp:120] Top shape: 80 528 14 14 (8279040)
I1219 15:43:02.679962 31962 layer_factory.hpp:74] Creating layer inception_4d/output_inception_4d/output_0_split
I1219 15:43:02.679975 31962 net.cpp:84] Creating Layer inception_4d/output_inception_4d/output_0_split
I1219 15:43:02.679982 31962 net.cpp:380] inception_4d/output_inception_4d/output_0_split <- inception_4d/output
I1219 15:43:02.679992 31962 net.cpp:338] inception_4d/output_inception_4d/output_0_split -> inception_4d/output_inception_4d/output_0_split_0
I1219 15:43:02.680004 31962 net.cpp:338] inception_4d/output_inception_4d/output_0_split -> inception_4d/output_inception_4d/output_0_split_1
I1219 15:43:02.680016 31962 net.cpp:338] inception_4d/output_inception_4d/output_0_split -> inception_4d/output_inception_4d/output_0_split_2
I1219 15:43:02.680027 31962 net.cpp:338] inception_4d/output_inception_4d/output_0_split -> inception_4d/output_inception_4d/output_0_split_3
I1219 15:43:02.680055 31962 net.cpp:338] inception_4d/output_inception_4d/output_0_split -> inception_4d/output_inception_4d/output_0_split_4
I1219 15:43:02.680066 31962 net.cpp:113] Setting up inception_4d/output_inception_4d/output_0_split
I1219 15:43:02.680078 31962 net.cpp:120] Top shape: 80 528 14 14 (8279040)
I1219 15:43:02.680088 31962 net.cpp:120] Top shape: 80 528 14 14 (8279040)
I1219 15:43:02.680095 31962 net.cpp:120] Top shape: 80 528 14 14 (8279040)
I1219 15:43:02.680104 31962 net.cpp:120] Top shape: 80 528 14 14 (8279040)
I1219 15:43:02.680112 31962 net.cpp:120] Top shape: 80 528 14 14 (8279040)
I1219 15:43:02.680119 31962 layer_factory.hpp:74] Creating layer loss2/ave_pool
I1219 15:43:02.680129 31962 net.cpp:84] Creating Layer loss2/ave_pool
I1219 15:43:02.680135 31962 net.cpp:380] loss2/ave_pool <- inception_4d/output_inception_4d/output_0_split_0
I1219 15:43:02.680148 31962 net.cpp:338] loss2/ave_pool -> loss2/ave_pool
I1219 15:43:02.680158 31962 net.cpp:113] Setting up loss2/ave_pool
I1219 15:43:02.680269 31962 net.cpp:120] Top shape: 80 528 4 4 (675840)
I1219 15:43:02.680279 31962 layer_factory.hpp:74] Creating layer loss2/conv
I1219 15:43:02.680291 31962 net.cpp:84] Creating Layer loss2/conv
I1219 15:43:02.680299 31962 net.cpp:380] loss2/conv <- loss2/ave_pool
I1219 15:43:02.680311 31962 net.cpp:338] loss2/conv -> loss2/conv
I1219 15:43:02.680322 31962 net.cpp:113] Setting up loss2/conv
I1219 15:43:02.681725 31962 net.cpp:120] Top shape: 80 128 4 4 (163840)
I1219 15:43:02.681752 31962 layer_factory.hpp:74] Creating layer loss2/relu_conv
I1219 15:43:02.681771 31962 net.cpp:84] Creating Layer loss2/relu_conv
I1219 15:43:02.681781 31962 net.cpp:380] loss2/relu_conv <- loss2/conv
I1219 15:43:02.681790 31962 net.cpp:327] loss2/relu_conv -> loss2/conv (in-place)
I1219 15:43:02.681802 31962 net.cpp:113] Setting up loss2/relu_conv
I1219 15:43:02.681903 31962 net.cpp:120] Top shape: 80 128 4 4 (163840)
I1219 15:43:02.681920 31962 layer_factory.hpp:74] Creating layer loss2/fc
I1219 15:43:02.681932 31962 net.cpp:84] Creating Layer loss2/fc
I1219 15:43:02.681939 31962 net.cpp:380] loss2/fc <- loss2/conv
I1219 15:43:02.681951 31962 net.cpp:338] loss2/fc -> loss2/fc
I1219 15:43:02.681962 31962 net.cpp:113] Setting up loss2/fc
I1219 15:43:02.790591 31962 net.cpp:120] Top shape: 80 1024 (81920)
I1219 15:43:02.790637 31962 layer_factory.hpp:74] Creating layer loss2/relu_fc
I1219 15:43:02.790657 31962 net.cpp:84] Creating Layer loss2/relu_fc
I1219 15:43:02.790674 31962 net.cpp:380] loss2/relu_fc <- loss2/fc
I1219 15:43:02.790689 31962 net.cpp:327] loss2/relu_fc -> loss2/fc (in-place)
I1219 15:43:02.790705 31962 net.cpp:113] Setting up loss2/relu_fc
I1219 15:43:02.791321 31962 net.cpp:120] Top shape: 80 1024 (81920)
I1219 15:43:02.791338 31962 layer_factory.hpp:74] Creating layer loss2/drop_fc
I1219 15:43:02.791357 31962 net.cpp:84] Creating Layer loss2/drop_fc
I1219 15:43:02.791365 31962 net.cpp:380] loss2/drop_fc <- loss2/fc
I1219 15:43:02.791378 31962 net.cpp:327] loss2/drop_fc -> loss2/fc (in-place)
I1219 15:43:02.791391 31962 net.cpp:113] Setting up loss2/drop_fc
I1219 15:43:02.791406 31962 net.cpp:120] Top shape: 80 1024 (81920)
I1219 15:43:02.791415 31962 layer_factory.hpp:74] Creating layer loss2/classifier_kaggle
I1219 15:43:02.791442 31962 net.cpp:84] Creating Layer loss2/classifier_kaggle
I1219 15:43:02.791453 31962 net.cpp:380] loss2/classifier_kaggle <- loss2/fc
I1219 15:43:02.791473 31962 net.cpp:338] loss2/classifier_kaggle -> loss2/classifier_kaggle
I1219 15:43:02.791491 31962 net.cpp:113] Setting up loss2/classifier_kaggle
I1219 15:43:02.805796 31962 net.cpp:120] Top shape: 80 447 (35760)
I1219 15:43:02.805835 31962 layer_factory.hpp:74] Creating layer loss2/loss
I1219 15:43:02.805855 31962 net.cpp:84] Creating Layer loss2/loss
I1219 15:43:02.805866 31962 net.cpp:380] loss2/loss <- loss2/classifier_kaggle
I1219 15:43:02.805879 31962 net.cpp:380] loss2/loss <- label_data_1_split_1
I1219 15:43:02.805891 31962 net.cpp:338] loss2/loss -> loss2/loss1
I1219 15:43:02.805918 31962 net.cpp:113] Setting up loss2/loss
I1219 15:43:02.805944 31962 layer_factory.hpp:74] Creating layer loss2/loss
I1219 15:43:02.806226 31962 net.cpp:120] Top shape: (1)
I1219 15:43:02.806241 31962 net.cpp:122]     with loss weight 0.3
I1219 15:43:02.806259 31962 layer_factory.hpp:74] Creating layer inception_4e/1x1
I1219 15:43:02.806285 31962 net.cpp:84] Creating Layer inception_4e/1x1
I1219 15:43:02.806295 31962 net.cpp:380] inception_4e/1x1 <- inception_4d/output_inception_4d/output_0_split_1
I1219 15:43:02.806310 31962 net.cpp:338] inception_4e/1x1 -> inception_4e/1x1
I1219 15:43:02.806326 31962 net.cpp:113] Setting up inception_4e/1x1
I1219 15:43:02.814013 31962 net.cpp:120] Top shape: 80 256 14 14 (4014080)
I1219 15:43:02.814038 31962 layer_factory.hpp:74] Creating layer inception_4e/relu_1x1
I1219 15:43:02.814056 31962 net.cpp:84] Creating Layer inception_4e/relu_1x1
I1219 15:43:02.814066 31962 net.cpp:380] inception_4e/relu_1x1 <- inception_4e/1x1
I1219 15:43:02.814079 31962 net.cpp:327] inception_4e/relu_1x1 -> inception_4e/1x1 (in-place)
I1219 15:43:02.814092 31962 net.cpp:113] Setting up inception_4e/relu_1x1
I1219 15:43:02.814208 31962 net.cpp:120] Top shape: 80 256 14 14 (4014080)
I1219 15:43:02.814219 31962 layer_factory.hpp:74] Creating layer inception_4e/3x3_reduce
I1219 15:43:02.814235 31962 net.cpp:84] Creating Layer inception_4e/3x3_reduce
I1219 15:43:02.814244 31962 net.cpp:380] inception_4e/3x3_reduce <- inception_4d/output_inception_4d/output_0_split_2
I1219 15:43:02.814260 31962 net.cpp:338] inception_4e/3x3_reduce -> inception_4e/3x3_reduce
I1219 15:43:02.814275 31962 net.cpp:113] Setting up inception_4e/3x3_reduce
I1219 15:43:02.821429 31962 net.cpp:120] Top shape: 80 160 14 14 (2508800)
I1219 15:43:02.821455 31962 layer_factory.hpp:74] Creating layer inception_4e/relu_3x3_reduce
I1219 15:43:02.821478 31962 net.cpp:84] Creating Layer inception_4e/relu_3x3_reduce
I1219 15:43:02.821488 31962 net.cpp:380] inception_4e/relu_3x3_reduce <- inception_4e/3x3_reduce
I1219 15:43:02.821501 31962 net.cpp:327] inception_4e/relu_3x3_reduce -> inception_4e/3x3_reduce (in-place)
I1219 15:43:02.821513 31962 net.cpp:113] Setting up inception_4e/relu_3x3_reduce
I1219 15:43:02.821653 31962 net.cpp:120] Top shape: 80 160 14 14 (2508800)
I1219 15:43:02.821671 31962 layer_factory.hpp:74] Creating layer inception_4e/3x3
I1219 15:43:02.821687 31962 net.cpp:84] Creating Layer inception_4e/3x3
I1219 15:43:02.821697 31962 net.cpp:380] inception_4e/3x3 <- inception_4e/3x3_reduce
I1219 15:43:02.821709 31962 net.cpp:338] inception_4e/3x3 -> inception_4e/3x3
I1219 15:43:02.821723 31962 net.cpp:113] Setting up inception_4e/3x3
I1219 15:43:02.828171 31962 net.cpp:120] Top shape: 80 320 14 14 (5017600)
I1219 15:43:02.828194 31962 layer_factory.hpp:74] Creating layer inception_4e/relu_3x3
I1219 15:43:02.828207 31962 net.cpp:84] Creating Layer inception_4e/relu_3x3
I1219 15:43:02.828217 31962 net.cpp:380] inception_4e/relu_3x3 <- inception_4e/3x3
I1219 15:43:02.828227 31962 net.cpp:327] inception_4e/relu_3x3 -> inception_4e/3x3 (in-place)
I1219 15:43:02.828240 31962 net.cpp:113] Setting up inception_4e/relu_3x3
I1219 15:43:02.828584 31962 net.cpp:120] Top shape: 80 320 14 14 (5017600)
I1219 15:43:02.828600 31962 layer_factory.hpp:74] Creating layer inception_4e/5x5_reduce
I1219 15:43:02.828629 31962 net.cpp:84] Creating Layer inception_4e/5x5_reduce
I1219 15:43:02.828639 31962 net.cpp:380] inception_4e/5x5_reduce <- inception_4d/output_inception_4d/output_0_split_3
I1219 15:43:02.828655 31962 net.cpp:338] inception_4e/5x5_reduce -> inception_4e/5x5_reduce
I1219 15:43:02.828670 31962 net.cpp:113] Setting up inception_4e/5x5_reduce
I1219 15:43:02.833647 31962 net.cpp:120] Top shape: 80 32 14 14 (501760)
I1219 15:43:02.833672 31962 layer_factory.hpp:74] Creating layer inception_4e/relu_5x5_reduce
I1219 15:43:02.833686 31962 net.cpp:84] Creating Layer inception_4e/relu_5x5_reduce
I1219 15:43:02.833696 31962 net.cpp:380] inception_4e/relu_5x5_reduce <- inception_4e/5x5_reduce
I1219 15:43:02.833709 31962 net.cpp:327] inception_4e/relu_5x5_reduce -> inception_4e/5x5_reduce (in-place)
I1219 15:43:02.833746 31962 net.cpp:113] Setting up inception_4e/relu_5x5_reduce
I1219 15:43:02.833855 31962 net.cpp:120] Top shape: 80 32 14 14 (501760)
I1219 15:43:02.833865 31962 layer_factory.hpp:74] Creating layer inception_4e/5x5
I1219 15:43:02.833919 31962 net.cpp:84] Creating Layer inception_4e/5x5
I1219 15:43:02.833930 31962 net.cpp:380] inception_4e/5x5 <- inception_4e/5x5_reduce
I1219 15:43:02.833942 31962 net.cpp:338] inception_4e/5x5 -> inception_4e/5x5
I1219 15:43:02.833956 31962 net.cpp:113] Setting up inception_4e/5x5
I1219 15:43:02.835902 31962 net.cpp:120] Top shape: 80 128 14 14 (2007040)
I1219 15:43:02.835928 31962 layer_factory.hpp:74] Creating layer inception_4e/relu_5x5
I1219 15:43:02.835949 31962 net.cpp:84] Creating Layer inception_4e/relu_5x5
I1219 15:43:02.835959 31962 net.cpp:380] inception_4e/relu_5x5 <- inception_4e/5x5
I1219 15:43:02.835970 31962 net.cpp:327] inception_4e/relu_5x5 -> inception_4e/5x5 (in-place)
I1219 15:43:02.835983 31962 net.cpp:113] Setting up inception_4e/relu_5x5
I1219 15:43:02.836092 31962 net.cpp:120] Top shape: 80 128 14 14 (2007040)
I1219 15:43:02.836103 31962 layer_factory.hpp:74] Creating layer inception_4e/pool
I1219 15:43:02.836112 31962 layer_factory.cpp:56] CUDNN does not support padding or multiple tops. Using Caffe's own pooling layer.
I1219 15:43:02.836123 31962 net.cpp:84] Creating Layer inception_4e/pool
I1219 15:43:02.836133 31962 net.cpp:380] inception_4e/pool <- inception_4d/output_inception_4d/output_0_split_4
I1219 15:43:02.836146 31962 net.cpp:338] inception_4e/pool -> inception_4e/pool
I1219 15:43:02.836159 31962 net.cpp:113] Setting up inception_4e/pool
I1219 15:43:02.836175 31962 net.cpp:120] Top shape: 80 528 14 14 (8279040)
I1219 15:43:02.836184 31962 layer_factory.hpp:74] Creating layer inception_4e/pool_proj
I1219 15:43:02.836199 31962 net.cpp:84] Creating Layer inception_4e/pool_proj
I1219 15:43:02.836210 31962 net.cpp:380] inception_4e/pool_proj <- inception_4e/pool
I1219 15:43:02.836221 31962 net.cpp:338] inception_4e/pool_proj -> inception_4e/pool_proj
I1219 15:43:02.836235 31962 net.cpp:113] Setting up inception_4e/pool_proj
I1219 15:43:02.841825 31962 net.cpp:120] Top shape: 80 128 14 14 (2007040)
I1219 15:43:02.841850 31962 layer_factory.hpp:74] Creating layer inception_4e/relu_pool_proj
I1219 15:43:02.841877 31962 net.cpp:84] Creating Layer inception_4e/relu_pool_proj
I1219 15:43:02.841887 31962 net.cpp:380] inception_4e/relu_pool_proj <- inception_4e/pool_proj
I1219 15:43:02.841899 31962 net.cpp:327] inception_4e/relu_pool_proj -> inception_4e/pool_proj (in-place)
I1219 15:43:02.841913 31962 net.cpp:113] Setting up inception_4e/relu_pool_proj
I1219 15:43:02.842027 31962 net.cpp:120] Top shape: 80 128 14 14 (2007040)
I1219 15:43:02.842048 31962 layer_factory.hpp:74] Creating layer inception_4e/output
I1219 15:43:02.842064 31962 net.cpp:84] Creating Layer inception_4e/output
I1219 15:43:02.842073 31962 net.cpp:380] inception_4e/output <- inception_4e/1x1
I1219 15:43:02.842084 31962 net.cpp:380] inception_4e/output <- inception_4e/3x3
I1219 15:43:02.842093 31962 net.cpp:380] inception_4e/output <- inception_4e/5x5
I1219 15:43:02.842103 31962 net.cpp:380] inception_4e/output <- inception_4e/pool_proj
I1219 15:43:02.842113 31962 net.cpp:338] inception_4e/output -> inception_4e/output
I1219 15:43:02.842126 31962 net.cpp:113] Setting up inception_4e/output
I1219 15:43:02.842141 31962 net.cpp:120] Top shape: 80 832 14 14 (13045760)
I1219 15:43:02.842150 31962 layer_factory.hpp:74] Creating layer pool4/3x3_s2
I1219 15:43:02.842161 31962 net.cpp:84] Creating Layer pool4/3x3_s2
I1219 15:43:02.842170 31962 net.cpp:380] pool4/3x3_s2 <- inception_4e/output
I1219 15:43:02.842185 31962 net.cpp:338] pool4/3x3_s2 -> pool4/3x3_s2
I1219 15:43:02.842198 31962 net.cpp:113] Setting up pool4/3x3_s2
I1219 15:43:02.857565 31962 net.cpp:120] Top shape: 80 832 7 7 (3261440)
I1219 15:43:02.857588 31962 layer_factory.hpp:74] Creating layer pool4/3x3_s2_pool4/3x3_s2_0_split
I1219 15:43:02.857605 31962 net.cpp:84] Creating Layer pool4/3x3_s2_pool4/3x3_s2_0_split
I1219 15:43:02.857632 31962 net.cpp:380] pool4/3x3_s2_pool4/3x3_s2_0_split <- pool4/3x3_s2
I1219 15:43:02.857646 31962 net.cpp:338] pool4/3x3_s2_pool4/3x3_s2_0_split -> pool4/3x3_s2_pool4/3x3_s2_0_split_0
I1219 15:43:02.857662 31962 net.cpp:338] pool4/3x3_s2_pool4/3x3_s2_0_split -> pool4/3x3_s2_pool4/3x3_s2_0_split_1
I1219 15:43:02.857676 31962 net.cpp:338] pool4/3x3_s2_pool4/3x3_s2_0_split -> pool4/3x3_s2_pool4/3x3_s2_0_split_2
I1219 15:43:02.857692 31962 net.cpp:338] pool4/3x3_s2_pool4/3x3_s2_0_split -> pool4/3x3_s2_pool4/3x3_s2_0_split_3
I1219 15:43:02.857703 31962 net.cpp:113] Setting up pool4/3x3_s2_pool4/3x3_s2_0_split
I1219 15:43:02.857717 31962 net.cpp:120] Top shape: 80 832 7 7 (3261440)
I1219 15:43:02.857728 31962 net.cpp:120] Top shape: 80 832 7 7 (3261440)
I1219 15:43:02.857736 31962 net.cpp:120] Top shape: 80 832 7 7 (3261440)
I1219 15:43:02.857745 31962 net.cpp:120] Top shape: 80 832 7 7 (3261440)
I1219 15:43:02.857753 31962 layer_factory.hpp:74] Creating layer inception_5a/1x1
I1219 15:43:02.857767 31962 net.cpp:84] Creating Layer inception_5a/1x1
I1219 15:43:02.857776 31962 net.cpp:380] inception_5a/1x1 <- pool4/3x3_s2_pool4/3x3_s2_0_split_0
I1219 15:43:02.857791 31962 net.cpp:338] inception_5a/1x1 -> inception_5a/1x1
I1219 15:43:02.857805 31962 net.cpp:113] Setting up inception_5a/1x1
I1219 15:43:02.861029 31962 net.cpp:120] Top shape: 80 256 7 7 (1003520)
I1219 15:43:02.861052 31962 layer_factory.hpp:74] Creating layer inception_5a/relu_1x1
I1219 15:43:02.861217 31962 net.cpp:84] Creating Layer inception_5a/relu_1x1
I1219 15:43:02.861228 31962 net.cpp:380] inception_5a/relu_1x1 <- inception_5a/1x1
I1219 15:43:02.861240 31962 net.cpp:327] inception_5a/relu_1x1 -> inception_5a/1x1 (in-place)
I1219 15:43:02.861253 31962 net.cpp:113] Setting up inception_5a/relu_1x1
I1219 15:43:02.861364 31962 net.cpp:120] Top shape: 80 256 7 7 (1003520)
I1219 15:43:02.861376 31962 layer_factory.hpp:74] Creating layer inception_5a/3x3_reduce
I1219 15:43:02.861387 31962 net.cpp:84] Creating Layer inception_5a/3x3_reduce
I1219 15:43:02.861397 31962 net.cpp:380] inception_5a/3x3_reduce <- pool4/3x3_s2_pool4/3x3_s2_0_split_1
I1219 15:43:02.861413 31962 net.cpp:338] inception_5a/3x3_reduce -> inception_5a/3x3_reduce
I1219 15:43:02.861426 31962 net.cpp:113] Setting up inception_5a/3x3_reduce
I1219 15:43:02.863646 31962 net.cpp:120] Top shape: 80 160 7 7 (627200)
I1219 15:43:02.863668 31962 layer_factory.hpp:74] Creating layer inception_5a/relu_3x3_reduce
I1219 15:43:02.863680 31962 net.cpp:84] Creating Layer inception_5a/relu_3x3_reduce
I1219 15:43:02.863689 31962 net.cpp:380] inception_5a/relu_3x3_reduce <- inception_5a/3x3_reduce
I1219 15:43:02.863700 31962 net.cpp:327] inception_5a/relu_3x3_reduce -> inception_5a/3x3_reduce (in-place)
I1219 15:43:02.863713 31962 net.cpp:113] Setting up inception_5a/relu_3x3_reduce
I1219 15:43:02.863823 31962 net.cpp:120] Top shape: 80 160 7 7 (627200)
I1219 15:43:02.863834 31962 layer_factory.hpp:74] Creating layer inception_5a/3x3
I1219 15:43:02.863858 31962 net.cpp:84] Creating Layer inception_5a/3x3
I1219 15:43:02.863867 31962 net.cpp:380] inception_5a/3x3 <- inception_5a/3x3_reduce
I1219 15:43:02.863879 31962 net.cpp:338] inception_5a/3x3 -> inception_5a/3x3
I1219 15:43:02.863893 31962 net.cpp:113] Setting up inception_5a/3x3
I1219 15:43:02.883575 31962 net.cpp:120] Top shape: 80 320 7 7 (1254400)
I1219 15:43:02.883602 31962 layer_factory.hpp:74] Creating layer inception_5a/relu_3x3
I1219 15:43:02.883615 31962 net.cpp:84] Creating Layer inception_5a/relu_3x3
I1219 15:43:02.883622 31962 net.cpp:380] inception_5a/relu_3x3 <- inception_5a/3x3
I1219 15:43:02.883633 31962 net.cpp:327] inception_5a/relu_3x3 -> inception_5a/3x3 (in-place)
I1219 15:43:02.883644 31962 net.cpp:113] Setting up inception_5a/relu_3x3
I1219 15:43:02.883749 31962 net.cpp:120] Top shape: 80 320 7 7 (1254400)
I1219 15:43:02.883766 31962 layer_factory.hpp:74] Creating layer inception_5a/5x5_reduce
I1219 15:43:02.883781 31962 net.cpp:84] Creating Layer inception_5a/5x5_reduce
I1219 15:43:02.883797 31962 net.cpp:380] inception_5a/5x5_reduce <- pool4/3x3_s2_pool4/3x3_s2_0_split_2
I1219 15:43:02.883819 31962 net.cpp:338] inception_5a/5x5_reduce -> inception_5a/5x5_reduce
I1219 15:43:02.883832 31962 net.cpp:113] Setting up inception_5a/5x5_reduce
I1219 15:43:02.884708 31962 net.cpp:120] Top shape: 80 32 7 7 (125440)
I1219 15:43:02.884729 31962 layer_factory.hpp:74] Creating layer inception_5a/relu_5x5_reduce
I1219 15:43:02.884748 31962 net.cpp:84] Creating Layer inception_5a/relu_5x5_reduce
I1219 15:43:02.884757 31962 net.cpp:380] inception_5a/relu_5x5_reduce <- inception_5a/5x5_reduce
I1219 15:43:02.884769 31962 net.cpp:327] inception_5a/relu_5x5_reduce -> inception_5a/5x5_reduce (in-place)
I1219 15:43:02.884780 31962 net.cpp:113] Setting up inception_5a/relu_5x5_reduce
I1219 15:43:02.885087 31962 net.cpp:120] Top shape: 80 32 7 7 (125440)
I1219 15:43:02.885102 31962 layer_factory.hpp:74] Creating layer inception_5a/5x5
I1219 15:43:02.885113 31962 net.cpp:84] Creating Layer inception_5a/5x5
I1219 15:43:02.885121 31962 net.cpp:380] inception_5a/5x5 <- inception_5a/5x5_reduce
I1219 15:43:02.885135 31962 net.cpp:338] inception_5a/5x5 -> inception_5a/5x5
I1219 15:43:02.885149 31962 net.cpp:113] Setting up inception_5a/5x5
I1219 15:43:02.887030 31962 net.cpp:120] Top shape: 80 128 7 7 (501760)
I1219 15:43:02.887050 31962 layer_factory.hpp:74] Creating layer inception_5a/relu_5x5
I1219 15:43:02.887063 31962 net.cpp:84] Creating Layer inception_5a/relu_5x5
I1219 15:43:02.887071 31962 net.cpp:380] inception_5a/relu_5x5 <- inception_5a/5x5
I1219 15:43:02.887081 31962 net.cpp:327] inception_5a/relu_5x5 -> inception_5a/5x5 (in-place)
I1219 15:43:02.887092 31962 net.cpp:113] Setting up inception_5a/relu_5x5
I1219 15:43:02.887192 31962 net.cpp:120] Top shape: 80 128 7 7 (501760)
I1219 15:43:02.887210 31962 layer_factory.hpp:74] Creating layer inception_5a/pool
I1219 15:43:02.887219 31962 layer_factory.cpp:56] CUDNN does not support padding or multiple tops. Using Caffe's own pooling layer.
I1219 15:43:02.887228 31962 net.cpp:84] Creating Layer inception_5a/pool
I1219 15:43:02.887236 31962 net.cpp:380] inception_5a/pool <- pool4/3x3_s2_pool4/3x3_s2_0_split_3
I1219 15:43:02.887248 31962 net.cpp:338] inception_5a/pool -> inception_5a/pool
I1219 15:43:02.887260 31962 net.cpp:113] Setting up inception_5a/pool
I1219 15:43:02.887274 31962 net.cpp:120] Top shape: 80 832 7 7 (3261440)
I1219 15:43:02.887280 31962 layer_factory.hpp:74] Creating layer inception_5a/pool_proj
I1219 15:43:02.887298 31962 net.cpp:84] Creating Layer inception_5a/pool_proj
I1219 15:43:02.887306 31962 net.cpp:380] inception_5a/pool_proj <- inception_5a/pool
I1219 15:43:02.887325 31962 net.cpp:338] inception_5a/pool_proj -> inception_5a/pool_proj
I1219 15:43:02.887337 31962 net.cpp:113] Setting up inception_5a/pool_proj
I1219 15:43:02.897373 31962 net.cpp:120] Top shape: 80 128 7 7 (501760)
I1219 15:43:02.897397 31962 layer_factory.hpp:74] Creating layer inception_5a/relu_pool_proj
I1219 15:43:02.897410 31962 net.cpp:84] Creating Layer inception_5a/relu_pool_proj
I1219 15:43:02.897418 31962 net.cpp:380] inception_5a/relu_pool_proj <- inception_5a/pool_proj
I1219 15:43:02.897429 31962 net.cpp:327] inception_5a/relu_pool_proj -> inception_5a/pool_proj (in-place)
I1219 15:43:02.897440 31962 net.cpp:113] Setting up inception_5a/relu_pool_proj
I1219 15:43:02.897541 31962 net.cpp:120] Top shape: 80 128 7 7 (501760)
I1219 15:43:02.897550 31962 layer_factory.hpp:74] Creating layer inception_5a/output
I1219 15:43:02.897560 31962 net.cpp:84] Creating Layer inception_5a/output
I1219 15:43:02.897567 31962 net.cpp:380] inception_5a/output <- inception_5a/1x1
I1219 15:43:02.897577 31962 net.cpp:380] inception_5a/output <- inception_5a/3x3
I1219 15:43:02.897584 31962 net.cpp:380] inception_5a/output <- inception_5a/5x5
I1219 15:43:02.897593 31962 net.cpp:380] inception_5a/output <- inception_5a/pool_proj
I1219 15:43:02.897601 31962 net.cpp:338] inception_5a/output -> inception_5a/output
I1219 15:43:02.897613 31962 net.cpp:113] Setting up inception_5a/output
I1219 15:43:02.897634 31962 net.cpp:120] Top shape: 80 832 7 7 (3261440)
I1219 15:43:02.897650 31962 layer_factory.hpp:74] Creating layer inception_5a/output_inception_5a/output_0_split
I1219 15:43:02.897672 31962 net.cpp:84] Creating Layer inception_5a/output_inception_5a/output_0_split
I1219 15:43:02.897680 31962 net.cpp:380] inception_5a/output_inception_5a/output_0_split <- inception_5a/output
I1219 15:43:02.897692 31962 net.cpp:338] inception_5a/output_inception_5a/output_0_split -> inception_5a/output_inception_5a/output_0_split_0
I1219 15:43:02.897704 31962 net.cpp:338] inception_5a/output_inception_5a/output_0_split -> inception_5a/output_inception_5a/output_0_split_1
I1219 15:43:02.897716 31962 net.cpp:338] inception_5a/output_inception_5a/output_0_split -> inception_5a/output_inception_5a/output_0_split_2
I1219 15:43:02.897727 31962 net.cpp:338] inception_5a/output_inception_5a/output_0_split -> inception_5a/output_inception_5a/output_0_split_3
I1219 15:43:02.897737 31962 net.cpp:113] Setting up inception_5a/output_inception_5a/output_0_split
I1219 15:43:02.897750 31962 net.cpp:120] Top shape: 80 832 7 7 (3261440)
I1219 15:43:02.897759 31962 net.cpp:120] Top shape: 80 832 7 7 (3261440)
I1219 15:43:02.897768 31962 net.cpp:120] Top shape: 80 832 7 7 (3261440)
I1219 15:43:02.897775 31962 net.cpp:120] Top shape: 80 832 7 7 (3261440)
I1219 15:43:02.897783 31962 layer_factory.hpp:74] Creating layer inception_5b/1x1
I1219 15:43:02.897800 31962 net.cpp:84] Creating Layer inception_5b/1x1
I1219 15:43:02.897809 31962 net.cpp:380] inception_5b/1x1 <- inception_5a/output_inception_5a/output_0_split_0
I1219 15:43:02.897825 31962 net.cpp:338] inception_5b/1x1 -> inception_5b/1x1
I1219 15:43:02.897837 31962 net.cpp:113] Setting up inception_5b/1x1
I1219 15:43:02.906807 31962 net.cpp:120] Top shape: 80 384 7 7 (1505280)
I1219 15:43:02.906831 31962 layer_factory.hpp:74] Creating layer inception_5b/relu_1x1
I1219 15:43:02.906842 31962 net.cpp:84] Creating Layer inception_5b/relu_1x1
I1219 15:43:02.906851 31962 net.cpp:380] inception_5b/relu_1x1 <- inception_5b/1x1
I1219 15:43:02.906862 31962 net.cpp:327] inception_5b/relu_1x1 -> inception_5b/1x1 (in-place)
I1219 15:43:02.906873 31962 net.cpp:113] Setting up inception_5b/relu_1x1
I1219 15:43:02.907171 31962 net.cpp:120] Top shape: 80 384 7 7 (1505280)
I1219 15:43:02.907186 31962 layer_factory.hpp:74] Creating layer inception_5b/3x3_reduce
I1219 15:43:02.907201 31962 net.cpp:84] Creating Layer inception_5b/3x3_reduce
I1219 15:43:02.907209 31962 net.cpp:380] inception_5b/3x3_reduce <- inception_5a/output_inception_5a/output_0_split_1
I1219 15:43:02.907222 31962 net.cpp:338] inception_5b/3x3_reduce -> inception_5b/3x3_reduce
I1219 15:43:02.907237 31962 net.cpp:113] Setting up inception_5b/3x3_reduce
I1219 15:43:02.913704 31962 net.cpp:120] Top shape: 80 192 7 7 (752640)
I1219 15:43:02.913727 31962 layer_factory.hpp:74] Creating layer inception_5b/relu_3x3_reduce
I1219 15:43:02.913753 31962 net.cpp:84] Creating Layer inception_5b/relu_3x3_reduce
I1219 15:43:02.913761 31962 net.cpp:380] inception_5b/relu_3x3_reduce <- inception_5b/3x3_reduce
I1219 15:43:02.913771 31962 net.cpp:327] inception_5b/relu_3x3_reduce -> inception_5b/3x3_reduce (in-place)
I1219 15:43:02.913784 31962 net.cpp:113] Setting up inception_5b/relu_3x3_reduce
I1219 15:43:02.913888 31962 net.cpp:120] Top shape: 80 192 7 7 (752640)
I1219 15:43:02.913897 31962 layer_factory.hpp:74] Creating layer inception_5b/3x3
I1219 15:43:02.913909 31962 net.cpp:84] Creating Layer inception_5b/3x3
I1219 15:43:02.913918 31962 net.cpp:380] inception_5b/3x3 <- inception_5b/3x3_reduce
I1219 15:43:02.913929 31962 net.cpp:338] inception_5b/3x3 -> inception_5b/3x3
I1219 15:43:02.913966 31962 net.cpp:113] Setting up inception_5b/3x3
I1219 15:43:02.930330 31962 net.cpp:120] Top shape: 80 384 7 7 (1505280)
I1219 15:43:02.930356 31962 layer_factory.hpp:74] Creating layer inception_5b/relu_3x3
I1219 15:43:02.930367 31962 net.cpp:84] Creating Layer inception_5b/relu_3x3
I1219 15:43:02.930377 31962 net.cpp:380] inception_5b/relu_3x3 <- inception_5b/3x3
I1219 15:43:02.930397 31962 net.cpp:327] inception_5b/relu_3x3 -> inception_5b/3x3 (in-place)
I1219 15:43:02.930419 31962 net.cpp:113] Setting up inception_5b/relu_3x3
I1219 15:43:02.930521 31962 net.cpp:120] Top shape: 80 384 7 7 (1505280)
I1219 15:43:02.930531 31962 layer_factory.hpp:74] Creating layer inception_5b/5x5_reduce
I1219 15:43:02.930543 31962 net.cpp:84] Creating Layer inception_5b/5x5_reduce
I1219 15:43:02.930552 31962 net.cpp:380] inception_5b/5x5_reduce <- inception_5a/output_inception_5a/output_0_split_2
I1219 15:43:02.930564 31962 net.cpp:338] inception_5b/5x5_reduce -> inception_5b/5x5_reduce
I1219 15:43:02.930577 31962 net.cpp:113] Setting up inception_5b/5x5_reduce
I1219 15:43:02.931614 31962 net.cpp:120] Top shape: 80 48 7 7 (188160)
I1219 15:43:02.931640 31962 layer_factory.hpp:74] Creating layer inception_5b/relu_5x5_reduce
I1219 15:43:02.931661 31962 net.cpp:84] Creating Layer inception_5b/relu_5x5_reduce
I1219 15:43:02.931670 31962 net.cpp:380] inception_5b/relu_5x5_reduce <- inception_5b/5x5_reduce
I1219 15:43:02.931680 31962 net.cpp:327] inception_5b/relu_5x5_reduce -> inception_5b/5x5_reduce (in-place)
I1219 15:43:02.931691 31962 net.cpp:113] Setting up inception_5b/relu_5x5_reduce
I1219 15:43:02.931792 31962 net.cpp:120] Top shape: 80 48 7 7 (188160)
I1219 15:43:02.931802 31962 layer_factory.hpp:74] Creating layer inception_5b/5x5
I1219 15:43:02.931816 31962 net.cpp:84] Creating Layer inception_5b/5x5
I1219 15:43:02.931824 31962 net.cpp:380] inception_5b/5x5 <- inception_5b/5x5_reduce
I1219 15:43:02.931834 31962 net.cpp:338] inception_5b/5x5 -> inception_5b/5x5
I1219 15:43:02.931846 31962 net.cpp:113] Setting up inception_5b/5x5
I1219 15:43:02.934447 31962 net.cpp:120] Top shape: 80 128 7 7 (501760)
I1219 15:43:02.934468 31962 layer_factory.hpp:74] Creating layer inception_5b/relu_5x5
I1219 15:43:02.934481 31962 net.cpp:84] Creating Layer inception_5b/relu_5x5
I1219 15:43:02.934489 31962 net.cpp:380] inception_5b/relu_5x5 <- inception_5b/5x5
I1219 15:43:02.934499 31962 net.cpp:327] inception_5b/relu_5x5 -> inception_5b/5x5 (in-place)
I1219 15:43:02.934511 31962 net.cpp:113] Setting up inception_5b/relu_5x5
I1219 15:43:02.934813 31962 net.cpp:120] Top shape: 80 128 7 7 (501760)
I1219 15:43:02.934828 31962 layer_factory.hpp:74] Creating layer inception_5b/pool
I1219 15:43:02.934845 31962 layer_factory.cpp:56] CUDNN does not support padding or multiple tops. Using Caffe's own pooling layer.
I1219 15:43:02.934856 31962 net.cpp:84] Creating Layer inception_5b/pool
I1219 15:43:02.934864 31962 net.cpp:380] inception_5b/pool <- inception_5a/output_inception_5a/output_0_split_3
I1219 15:43:02.934875 31962 net.cpp:338] inception_5b/pool -> inception_5b/pool
I1219 15:43:02.934887 31962 net.cpp:113] Setting up inception_5b/pool
I1219 15:43:02.934900 31962 net.cpp:120] Top shape: 80 832 7 7 (3261440)
I1219 15:43:02.934908 31962 layer_factory.hpp:74] Creating layer inception_5b/pool_proj
I1219 15:43:02.934922 31962 net.cpp:84] Creating Layer inception_5b/pool_proj
I1219 15:43:02.934931 31962 net.cpp:380] inception_5b/pool_proj <- inception_5b/pool
I1219 15:43:02.934942 31962 net.cpp:338] inception_5b/pool_proj -> inception_5b/pool_proj
I1219 15:43:02.934954 31962 net.cpp:113] Setting up inception_5b/pool_proj
I1219 15:43:02.936832 31962 net.cpp:120] Top shape: 80 128 7 7 (501760)
I1219 15:43:02.936852 31962 layer_factory.hpp:74] Creating layer inception_5b/relu_pool_proj
I1219 15:43:02.936862 31962 net.cpp:84] Creating Layer inception_5b/relu_pool_proj
I1219 15:43:02.936871 31962 net.cpp:380] inception_5b/relu_pool_proj <- inception_5b/pool_proj
I1219 15:43:02.936882 31962 net.cpp:327] inception_5b/relu_pool_proj -> inception_5b/pool_proj (in-place)
I1219 15:43:02.936894 31962 net.cpp:113] Setting up inception_5b/relu_pool_proj
I1219 15:43:02.936991 31962 net.cpp:120] Top shape: 80 128 7 7 (501760)
I1219 15:43:02.937001 31962 layer_factory.hpp:74] Creating layer inception_5b/output
I1219 15:43:02.937011 31962 net.cpp:84] Creating Layer inception_5b/output
I1219 15:43:02.937018 31962 net.cpp:380] inception_5b/output <- inception_5b/1x1
I1219 15:43:02.937042 31962 net.cpp:380] inception_5b/output <- inception_5b/3x3
I1219 15:43:02.937052 31962 net.cpp:380] inception_5b/output <- inception_5b/5x5
I1219 15:43:02.937193 31962 net.cpp:380] inception_5b/output <- inception_5b/pool_proj
I1219 15:43:02.937216 31962 net.cpp:338] inception_5b/output -> inception_5b/output
I1219 15:43:02.937228 31962 net.cpp:113] Setting up inception_5b/output
I1219 15:43:02.937240 31962 net.cpp:120] Top shape: 80 1024 7 7 (4014080)
I1219 15:43:02.937247 31962 layer_factory.hpp:74] Creating layer pool5/7x7_s1
I1219 15:43:02.937258 31962 net.cpp:84] Creating Layer pool5/7x7_s1
I1219 15:43:02.937264 31962 net.cpp:380] pool5/7x7_s1 <- inception_5b/output
I1219 15:43:02.937278 31962 net.cpp:338] pool5/7x7_s1 -> pool5/7x7_s1
I1219 15:43:02.937288 31962 net.cpp:113] Setting up pool5/7x7_s1
I1219 15:43:02.937397 31962 net.cpp:120] Top shape: 80 1024 1 1 (81920)
I1219 15:43:02.937407 31962 layer_factory.hpp:74] Creating layer pool5/drop_7x7_s1
I1219 15:43:02.937422 31962 net.cpp:84] Creating Layer pool5/drop_7x7_s1
I1219 15:43:02.937429 31962 net.cpp:380] pool5/drop_7x7_s1 <- pool5/7x7_s1
I1219 15:43:02.937438 31962 net.cpp:327] pool5/drop_7x7_s1 -> pool5/7x7_s1 (in-place)
I1219 15:43:02.937448 31962 net.cpp:113] Setting up pool5/drop_7x7_s1
I1219 15:43:02.937463 31962 net.cpp:120] Top shape: 80 1024 1 1 (81920)
I1219 15:43:02.937469 31962 layer_factory.hpp:74] Creating layer loss3/classifier_kaggle
I1219 15:43:02.937482 31962 net.cpp:84] Creating Layer loss3/classifier_kaggle
I1219 15:43:02.937489 31962 net.cpp:380] loss3/classifier_kaggle <- pool5/7x7_s1
I1219 15:43:02.937500 31962 net.cpp:338] loss3/classifier_kaggle -> loss3/classifier_kaggle
I1219 15:43:02.937511 31962 net.cpp:113] Setting up loss3/classifier_kaggle
I1219 15:43:02.943431 31962 net.cpp:120] Top shape: 80 447 (35760)
I1219 15:43:02.943452 31962 layer_factory.hpp:74] Creating layer loss3/loss3
I1219 15:43:02.943475 31962 net.cpp:84] Creating Layer loss3/loss3
I1219 15:43:02.943485 31962 net.cpp:380] loss3/loss3 <- loss3/classifier_kaggle
I1219 15:43:02.943496 31962 net.cpp:380] loss3/loss3 <- label_data_1_split_2
I1219 15:43:02.943506 31962 net.cpp:338] loss3/loss3 -> loss3/loss3
I1219 15:43:02.943518 31962 net.cpp:113] Setting up loss3/loss3
…
I1219 15:43:02.960997 31962 net.cpp:257] The NetState phase (1) differed from the phase (0) specified by a rule in layer data
I1219 15:43:02.964313 31962 net.cpp:42] Initializing net from parameters: 
name: "MYNET"
state {
  phase: TEST
}
layer {
  name: "data"
  type: "ImageData"
  top: "data"
  top: "label"
  include {
    phase: TEST
  }
  transform_param {
    mirror: false
    crop_size: 224
    mean_value: 129
    mean_value: 129
    mean_value: 129
  }
  image_data_param {
    source: "/home/coldmanck/kaggle/label_val_full.txt"
    batch_size: 50
    shuffle: true
  }
}
layer {
  name: "conv1/7x7_s2"
  type: "Convolution"
  bottom: "data"
  top: "conv1/7x7_s2"
  param {
    lr_mult: 1
    decay_mult: 1
  }
  param {
    lr_mult: 2
    decay_mult: 0
  }
  convolution_param {
    num_output: 64
    pad: 3
    kernel_size: 7
    stride: 2
    weight_filler {
      type: "xavier"
    }
    bias_filler {
      type: "constant"
      value: 0.2
    }
  }
}
layer {
  name: "conv1/relu_7x7"
  type: "ReLU"
  bottom: "conv1/7x7_s2"
  top: "conv1/7x7_s2"
}
layer {
  name: "pool1/3x3_s2"
  type: "Pooling"
  bottom: "conv1/7x7_s2"
  top: "pool1/3x3_s2"
  pooling_param {
    pool: MAX
    kernel_size: 3
    stride: 2
  }
}
layer {
  name: "pool1/norm1"
  type: "LRN"
  bottom: "pool1/3x3_s2"
  top: "pool1/norm1"
  lrn_param {
    local_size: 5
    alpha: 0.0001
    beta: 0.75
  }
}
layer {
  name: "conv2/3x3_reduce"
  type: "Convolution"
  bottom: "pool1/norm1"
  top: "conv2/3x3_reduce"
  param {
    lr_mult: 1
    decay_mult: 1
  }
  param {
    lr_mult: 2
    decay_mult: 0
  }
  convolution_param {
    num_output: 64
    kernel_size: 1
    weight_filler {
      type: "xavier"
    }
    bias_filler {
      type: "constant"
      value: 0.2
    }
  }
}
layer {
  name: "conv2/relu_3x3_reduce"
  type: "ReLU"
  bottom: "conv2/3x3_reduce"
  top: "conv2/3x3_reduce"
}
layer {
  name: "conv2/3x3"
  type: "Convolution"
  bottom: "conv2/3x3_reduce"
  top: "conv2/3x3"
  param {
    lr_mult: 1
    decay_mult: 1
  }
  param {
    lr_mult: 2
    decay_mult: 0
  }
  convolution_param {
    num_output: 192
    pad: 1
    kernel_size: 3
    weight_filler {
      type: "xavier"
    }
    bias_filler {
      type: "constant"
      value: 0.2
    }
  }
}
layer {
  name: "conv2/relu_3x3"
  type: "ReLU"
  bottom: "conv2/3x3"
  top: "conv2/3x3"
}
layer {
  name: "conv2/norm2"
  type: "LRN"
  bottom: "conv2/3x3"
  top: "conv2/norm2"
  lrn_param {
    local_size: 5
    alpha: 0.0001
    beta: 0.75
  }
}
layer {
  name: "pool2/3x3_s2"
  type: "Pooling"
  bottom: "conv2/norm2"
  top: "pool2/3x3_s2"
  pooling_param {
    pool: MAX
    kernel_size: 3
    stride: 2
  }
}
layer {
  name: "inception_3a/1x1"
  type: "Convolution"
  bottom: "pool2/3x3_s2"
  top: "inception_3a/1x1"
  param {
    lr_mult: 1
    decay_mult: 1
  }
  param {
    lr_mult: 2
    decay_mult: 0
  }
  convolution_param {
    num_output: 64
    kernel_size: 1
    weight_filler {
      type: "xavier"
    }
    bias_filler {
      type: "constant"
      value: 0.2
    }
  }
}
layer {
  name: "inception_3a/relu_1x1"
  type: "ReLU"
  bottom: "inception_3a/1x1"
  top: "inception_3a/1x1"
}
layer {
  name: "inception_3a/3x3_reduce"
  type: "Convolution"
  bottom: "pool2/3x3_s2"
  top: "inception_3a/3x3_reduce"
  param {
    lr_mult: 1
    decay_mult: 1
  }
  param {
    lr_mult: 2
    decay_mult: 0
  }
  convolution_param {
    num_output: 96
    kernel_size: 1
    weight_filler {
      type: "xavier"
    }
    bias_filler {
      type: "constant"
      value: 0.2
    }
  }
}
layer {
  name: "inception_3a/relu_3x3_reduce"
  type: "ReLU"
  bottom: "inception_3a/3x3_reduce"
  top: "inception_3a/3x3_reduce"
}
layer {
  name: "inception_3a/3x3"
  type: "Convolution"
  bottom: "inception_3a/3x3_reduce"
  top: "inception_3a/3x3"
  param {
    lr_mult: 1
    decay_mult: 1
  }
  param {
    lr_mult: 2
    decay_mult: 0
  }
  convolution_param {
    num_output: 128
    pad: 1
    kernel_size: 3
    weight_filler {
      type: "xavier"
    }
    bias_filler {
      type: "constant"
      value: 0.2
    }
  }
}
layer {
  name: "inception_3a/relu_3x3"
  type: "ReLU"
  bottom: "inception_3a/3x3"
  top: "inception_3a/3x3"
}
layer {
  name: "inception_3a/5x5_reduce"
  type: "Convolution"
  bottom: "pool2/3x3_s2"
  top: "inception_3a/5x5_reduce"
  param {
    lr_mult: 1
    decay_mult: 1
  }
  param {
    lr_mult: 2
    decay_mult: 0
  }
  convolution_param {
    num_output: 16
    kernel_size: 1
    weight_filler {
      type: "xavier"
    }
    bias_filler {
      type: "constant"
      value: 0.2
    }
  }
}
layer {
  name: "inception_3a/relu_5x5_reduce"
  type: "ReLU"
  bottom: "inception_3a/5x5_reduce"
  top: "inception_3a/5x5_reduce"
}
layer {
  name: "inception_3a/5x5"
  type: "Convolution"
  bottom: "inception_3a/5x5_reduce"
  top: "inception_3a/5x5"
  param {
    lr_mult: 1
    decay_mult: 1
  }
  param {
    lr_mult: 2
    decay_mult: 0
  }
  convolution_param {
    num_output: 32
    pad: 2
    kernel_size: 5
    weight_filler {
      type: "xavier"
    }
    bias_filler {
      type: "constant"
      value: 0.2
    }
  }
}
layer {
  name: "inception_3a/relu_5x5"
  type: "ReLU"
  bottom: "inception_3a/5x5"
  top: "inception_3a/5x5"
}
layer {
  name: "inception_3a/pool"
  type: "Pooling"
  bottom: "pool2/3x3_s2"
  top: "inception_3a/pool"
  pooling_param {
    pool: MAX
    kernel_size: 3
    stride: 1
    pad: 1
  }
}
layer {
  name: "inception_3a/pool_proj"
  type: "Convolution"
  bottom: "inception_3a/pool"
  top: "inception_3a/pool_proj"
  param {
    lr_mult: 1
    decay_mult: 1
  }
  param {
    lr_mult: 2
    decay_mult: 0
  }
  convolution_param {
    num_output: 32
    kernel_size: 1
    weight_filler {
      type: "xavier"
    }
    bias_filler {
      type: "constant"
      value: 0.2
    }
  }
}
layer {
  name: "inception_3a/relu_pool_proj"
  type: "ReLU"
  bottom: "inception_3a/pool_proj"
  top: "inception_3a/pool_proj"
}
layer {
  name: "inception_3a/output"
  type: "Concat"
  bottom: "inception_3a/1x1"
  bottom: "inception_3a/3x3"
  bottom: "inception_3a/5x5"
  bottom: "inception_3a/pool_proj"
  top: "inception_3a/output"
}
layer {
  name: "inception_3b/1x1"
  type: "Convolution"
  bottom: "inception_3a/output"
  top: "inception_3b/1x1"
  param {
    lr_mult: 1
    decay_mult: 1
  }
  param {
    lr_mult: 2
    decay_mult: 0
  }
  convolution_param {
    num_output: 128
    kernel_size: 1
    weight_filler {
      type: "xavier"
    }
    bias_filler {
      type: "constant"
      value: 0.2
    }
  }
}
layer {
  name: "inception_3b/relu_1x1"
  type: "ReLU"
  bottom: "inception_3b/1x1"
  top: "inception_3b/1x1"
}
layer {
  name: "inception_3b/3x3_reduce"
  type: "Convolution"
  bottom: "inception_3a/output"
  top: "inception_3b/3x3_reduce"
  param {
    lr_mult: 1
    decay_mult: 1
  }
  param {
    lr_mult: 2
    decay_mult: 0
  }
  convolution_param {
    num_output: 128
    kernel_size: 1
    weight_filler {
      type: "xavier"
    }
    bias_filler {
      type: "constant"
      value: 0.2
    }
  }
}
layer {
  name: "inception_3b/relu_3x3_reduce"
  type: "ReLU"
  bottom: "inception_3b/3x3_reduce"
  top: "inception_3b/3x3_reduce"
}
layer {
  name: "inception_3b/3x3"
  type: "Convolution"
  bottom: "inception_3b/3x3_reduce"
  top: "inception_3b/3x3"
  param {
    lr_mult: 1
    decay_mult: 1
  }
  param {
    lr_mult: 2
    decay_mult: 0
  }
  convolution_param {
    num_output: 192
    pad: 1
    kernel_size: 3
    weight_filler {
      type: "xavier"
    }
    bias_filler {
      type: "constant"
      value: 0.2
    }
  }
}
layer {
  name: "inception_3b/relu_3x3"
  type: "ReLU"
  bottom: "inception_3b/3x3"
  top: "inception_3b/3x3"
}
layer {
  name: "inception_3b/5x5_reduce"
  type: "Convolution"
  bottom: "inception_3a/output"
  top: "inception_3b/5x5_reduce"
  param {
    lr_mult: 1
    decay_mult: 1
  }
  param {
    lr_mult: 2
    decay_mult: 0
  }
  convolution_param {
    num_output: 32
    kernel_size: 1
    weight_filler {
      type: "xavier"
    }
    bias_filler {
      type: "constant"
      value: 0.2
    }
  }
}
layer {
  name: "inception_3b/relu_5x5_reduce"
  type: "ReLU"
  bottom: "inception_3b/5x5_reduce"
  top: "inception_3b/5x5_reduce"
}
layer {
  name: "inception_3b/5x5"
  type: "Convolution"
  bottom: "inception_3b/5x5_reduce"
  top: "inception_3b/5x5"
  param {
    lr_mult: 1
    decay_mult: 1
  }
  param {
    lr_mult: 2
    decay_mult: 0
  }
  convolution_param {
    num_output: 96
    pad: 2
    kernel_size: 5
    weight_filler {
      type: "xavier"
    }
    bias_filler {
      type: "constant"
      value: 0.2
    }
  }
}
layer {
  name: "inception_3b/relu_5x5"
  type: "ReLU"
  bottom: "inception_3b/5x5"
  top: "inception_3b/5x5"
}
layer {
  name: "inception_3b/pool"
  type: "Pooling"
  bottom: "inception_3a/output"
  top: "inception_3b/pool"
  pooling_param {
    pool: MAX
    kernel_size: 3
    stride: 1
    pad: 1
  }
}
layer {
  name: "inception_3b/pool_proj"
  type: "Convolution"
  bottom: "inception_3b/pool"
  top: "inception_3b/pool_proj"
  param {
    lr_mult: 1
    decay_mult: 1
  }
  param {
    lr_mult: 2
    decay_mult: 0
  }
  convolution_param {
    num_output: 64
    kernel_size: 1
    weight_filler {
      type: "xavier"
    }
    bias_filler {
      type: "constant"
      value: 0.2
    }
  }
}
layer {
  name: "inception_3b/relu_pool_proj"
  type: "ReLU"
  bottom: "inception_3b/pool_proj"
  top: "inception_3b/pool_proj"
}
layer {
  name: "inception_3b/output"
  type: "Concat"
  bottom: "inception_3b/1x1"
  bottom: "inception_3b/3x3"
  bottom: "inception_3b/5x5"
  bottom: "inception_3b/pool_proj"
  top: "inception_3b/output"
}
layer {
  name: "pool3/3x3_s2"
  type: "Pooling"
  bottom: "inception_3b/output"
  top: "pool3/3x3_s2"
  pooling_param {
    pool: MAX
    kernel_size: 3
    stride: 2
  }
}
layer {
  name: "inception_4a/1x1"
  type: "Convolution"
  bottom: "pool3/3x3_s2"
  top: "inception_4a/1x1"
  param {
    lr_mult: 1
    decay_mult: 1
  }
  param {
    lr_mult: 2
    decay_mult: 0
  }
  convolution_param {
    num_output: 192
    kernel_size: 1
    weight_filler {
      type: "xavier"
    }
    bias_filler {
      type: "constant"
      value: 0.2
    }
  }
}
layer {
  name: "inception_4a/relu_1x1"
  type: "ReLU"
  bottom: "inception_4a/1x1"
  top: "inception_4a/1x1"
}
layer {
  name: "inception_4a/3x3_reduce"
  type: "Convolution"
  bottom: "pool3/3x3_s2"
  top: "inception_4a/3x3_reduce"
  param {
    lr_mult: 1
    decay_mult: 1
  }
  param {
    lr_mult: 2
    decay_mult: 0
  }
  convolution_param {
    num_output: 96
    kernel_size: 1
    weight_filler {
      type: "xavier"
    }
    bias_filler {
      type: "constant"
      value: 0.2
    }
  }
}
layer {
  name: "inception_4a/relu_3x3_reduce"
  type: "ReLU"
  bottom: "inception_4a/3x3_reduce"
  top: "inception_4a/3x3_reduce"
}
layer {
  name: "inception_4a/3x3"
  type: "Convolution"
  bottom: "inception_4a/3x3_reduce"
  top: "inception_4a/3x3"
  param {
    lr_mult: 1
    decay_mult: 1
  }
  param {
    lr_mult: 2
    decay_mult: 0
  }
  convolution_param {
    num_output: 208
    pad: 1
    kernel_size: 3
    weight_filler {
      type: "xavier"
    }
    bias_filler {
      type: "constant"
      value: 0.2
    }
  }
}
layer {
  name: "inception_4a/relu_3x3"
  type: "ReLU"
  bottom: "inception_4a/3x3"
  top: "inception_4a/3x3"
}
layer {
  name: "inception_4a/5x5_reduce"
  type: "Convolution"
  bottom: "pool3/3x3_s2"
  top: "inception_4a/5x5_reduce"
  param {
    lr_mult: 1
    decay_mult: 1
  }
  param {
    lr_mult: 2
    decay_mult: 0
  }
  convolution_param {
    num_output: 16
    kernel_size: 1
    weight_filler {
      type: "xavier"
    }
    bias_filler {
      type: "constant"
      value: 0.2
    }
  }
}
layer {
  name: "inception_4a/relu_5x5_reduce"
  type: "ReLU"
  bottom: "inception_4a/5x5_reduce"
  top: "inception_4a/5x5_reduce"
}
layer {
  name: "inception_4a/5x5"
  type: "Convolution"
  bottom: "inception_4a/5x5_reduce"
  top: "inception_4a/5x5"
  param {
    lr_mult: 1
    decay_mult: 1
  }
  param {
    lr_mult: 2
    decay_mult: 0
  }
  convolution_param {
    num_output: 48
    pad: 2
    kernel_size: 5
    weight_filler {
      type: "xavier"
    }
    bias_filler {
      type: "constant"
      value: 0.2
    }
  }
}
layer {
  name: "inception_4a/relu_5x5"
  type: "ReLU"
  bottom: "inception_4a/5x5"
  top: "inception_4a/5x5"
}
layer {
  name: "inception_4a/pool"
  type: "Pooling"
  bottom: "pool3/3x3_s2"
  top: "inception_4a/pool"
  pooling_param {
    pool: MAX
    kernel_size: 3
    stride: 1
    pad: 1
  }
}
layer {
  name: "inception_4a/pool_proj"
  type: "Convolution"
  bottom: "inception_4a/pool"
  top: "inception_4a/pool_proj"
  param {
    lr_mult: 1
    decay_mult: 1
  }
  param {
    lr_mult: 2
    decay_mult: 0
  }
  convolution_param {
    num_output: 64
    kernel_size: 1
    weight_filler {
      type: "xavier"
    }
    bias_filler {
      type: "constant"
      value: 0.2
    }
  }
}
layer {
  name: "inception_4a/relu_pool_proj"
  type: "ReLU"
  bottom: "inception_4a/pool_proj"
  top: "inception_4a/pool_proj"
}
layer {
  name: "inception_4a/output"
  type: "Concat"
  bottom: "inception_4a/1x1"
  bottom: "inception_4a/3x3"
  bottom: "inception_4a/5x5"
  bottom: "inception_4a/pool_proj"
  top: "inception_4a/output"
}
layer {
  name: "loss1/ave_pool"
  type: "Pooling"
  bottom: "inception_4a/output"
  top: "loss1/ave_pool"
  pooling_param {
    pool: AVE
    kernel_size: 5
    stride: 3
  }
}
layer {
  name: "loss1/conv"
  type: "Convolution"
  bottom: "loss1/ave_pool"
  top: "loss1/conv"
  param {
    lr_mult: 1
    decay_mult: 1
  }
  param {
    lr_mult: 2
    decay_mult: 0
  }
  convolution_param {
    num_output: 128
    kernel_size: 1
    weight_filler {
      type: "xavier"
    }
    bias_filler {
      type: "constant"
      value: 0.2
    }
  }
}
layer {
  name: "loss1/relu_conv"
  type: "ReLU"
  bottom: "loss1/conv"
  top: "loss1/conv"
}
layer {
  name: "loss1/fc"
  type: "InnerProduct"
  bottom: "loss1/conv"
  top: "loss1/fc"
  param {
    lr_mult: 1
    decay_mult: 1
  }
  param {
    lr_mult: 2
    decay_mult: 0
  }
  inner_product_param {
    num_output: 1024
    weight_filler {
      type: "xavier"
    }
    bias_filler {
      type: "constant"
      value: 0.2
    }
  }
}
layer {
  name: "loss1/relu_fc"
  type: "ReLU"
  bottom: "loss1/fc"
  top: "loss1/fc"
}
layer {
  name: "loss1/drop_fc"
  type: "Dropout"
  bottom: "loss1/fc"
  top: "loss1/fc"
  dropout_param {
    dropout_ratio: 0.7
  }
}
layer {
  name: "loss1/classifier_kaggle"
  type: "InnerProduct"
  bottom: "loss1/fc"
  top: "loss1/classifier_kaggle"
  param {
    lr_mult: 1
    decay_mult: 1
  }
  param {
    lr_mult: 2
    decay_mult: 0
  }
  inner_product_param {
    num_output: 447
    weight_filler {
      type: "xavier"
    }
    bias_filler {
      type: "constant"
      value: 0
    }
  }
}
layer {
  name: "loss1/loss"
  type: "SoftmaxWithLoss"
  bottom: "loss1/classifier_kaggle"
  bottom: "label"
  top: "loss1/loss1"
  loss_weight: 0.3
}
layer {
  name: "loss1/top-1"
  type: "Accuracy"
  bottom: "loss1/classifier_kaggle"
  bottom: "label"
  top: "loss1/top-1"
  include {
    phase: TEST
  }
}
layer {
  name: "loss1/top-5"
  type: "Accuracy"
  bottom: "loss1/classifier_kaggle"
  bottom: "label"
  top: "loss1/top-5"
  include {
    phase: TEST
  }
  accuracy_param {
    top_k: 5
  }
}
layer {
  name: "inception_4b/1x1"
  type: "Convolution"
  bottom: "inception_4a/output"
  top: "inception_4b/1x1"
  param {
    lr_mult: 1
    decay_mult: 1
  }
  param {
    lr_mult: 2
    decay_mult: 0
  }
  convolution_param {
    num_output: 160
    kernel_size: 1
    weight_filler {
      type: "xavier"
    }
    bias_filler {
      type: "constant"
      value: 0.2
    }
  }
}
layer {
  name: "inception_4b/relu_1x1"
  type: "ReLU"
  bottom: "inception_4b/1x1"
  top: "inception_4b/1x1"
}
layer {
  name: "inception_4b/3x3_reduce"
  type: "Convolution"
  bottom: "inception_4a/output"
  top: "inception_4b/3x3_reduce"
  param {
    lr_mult: 1
    decay_mult: 1
  }
  param {
    lr_mult: 2
    decay_mult: 0
  }
  convolution_param {
    num_output: 112
    kernel_size: 1
    weight_filler {
      type: "xavier"
    }
    bias_filler {
      type: "constant"
      value: 0.2
    }
  }
}
layer {
  name: "inception_4b/relu_3x3_reduce"
  type: "ReLU"
  bottom: "inception_4b/3x3_reduce"
  top: "inception_4b/3x3_reduce"
}
layer {
  name: "inception_4b/3x3"
  type: "Convolution"
  bottom: "inception_4b/3x3_reduce"
  top: "inception_4b/3x3"
  param {
    lr_mult: 1
    decay_mult: 1
  }
  param {
    lr_mult: 2
    decay_mult: 0
  }
  convolution_param {
    num_output: 224
    pad: 1
    kernel_size: 3
    weight_filler {
      type: "xavier"
    }
    bias_filler {
      type: "constant"
      value: 0.2
    }
  }
}
layer {
  name: "inception_4b/relu_3x3"
  type: "ReLU"
  bottom: "inception_4b/3x3"
  top: "inception_4b/3x3"
}
layer {
  name: "inception_4b/5x5_reduce"
  type: "Convolution"
  bottom: "inception_4a/output"
  top: "inception_4b/5x5_reduce"
  param {
    lr_mult: 1
    decay_mult: 1
  }
  param {
    lr_mult: 2
    decay_mult: 0
  }
  convolution_param {
    num_output: 24
    kernel_size: 1
    weight_filler {
      type: "xavier"
    }
    bias_filler {
      type: "constant"
      value: 0.2
    }
  }
}
layer {
  name: "inception_4b/relu_5x5_reduce"
  type: "ReLU"
  bottom: "inception_4b/5x5_reduce"
  top: "inception_4b/5x5_reduce"
}
layer {
  name: "inception_4b/5x5"
  type: "Convolution"
  bottom: "inception_4b/5x5_reduce"
  top: "inception_4b/5x5"
  param {
    lr_mult: 1
    decay_mult: 1
  }
  param {
    lr_mult: 2
    decay_mult: 0
  }
  convolution_param {
    num_output: 64
    pad: 2
    kernel_size: 5
    weight_filler {
      type: "xavier"
    }
    bias_filler {
      type: "constant"
      value: 0.2
    }
  }
}
layer {
  name: "inception_4b/relu_5x5"
  type: "ReLU"
  bottom: "inception_4b/5x5"
  top: "inception_4b/5x5"
}
layer {
  name: "inception_4b/pool"
  type: "Pooling"
  bottom: "inception_4a/output"
  top: "inception_4b/pool"
  pooling_param {
    pool: MAX
    kernel_size: 3
    stride: 1
    pad: 1
  }
}
layer {
  name: "inception_4b/pool_proj"
  type: "Convolution"
  bottom: "inception_4b/pool"
  top: "inception_4b/pool_proj"
  param {
    lr_mult: 1
    decay_mult: 1
  }
  param {
    lr_mult: 2
    decay_mult: 0
  }
  convolution_param {
    num_output: 64
    kernel_size: 1
    weight_filler {
      type: "xavier"
    }
    bias_filler {
      type: "constant"
      value: 0.2
    }
  }
}
layer {
  name: "inception_4b/relu_pool_proj"
  type: "ReLU"
  bottom: "inception_4b/pool_proj"
  top: "inception_4b/pool_proj"
}
layer {
  name: "inception_4b/output"
  type: "Concat"
  bottom: "inception_4b/1x1"
  bottom: "inception_4b/3x3"
  bottom: "inception_4b/5x5"
  bottom: "inception_4b/pool_proj"
  top: "inception_4b/output"
}
layer {
  name: "inception_4c/1x1"
  type: "Convolution"
  bottom: "inception_4b/output"
  top: "inception_4c/1x1"
  param {
    lr_mult: 1
    decay_mult: 1
  }
  param {
    lr_mult: 2
    decay_mult: 0
  }
  convolution_param {
    num_output: 128
    kernel_size: 1
    weight_filler {
      type: "xavier"
    }
    bias_filler {
      type: "constant"
      value: 0.2
    }
  }
}
layer {
  name: "inception_4c/relu_1x1"
  type: "ReLU"
  bottom: "inception_4c/1x1"
  top: "inception_4c/1x1"
}
layer {
  name: "inception_4c/3x3_reduce"
  type: "Convolution"
  bottom: "inception_4b/output"
  top: "inception_4c/3x3_reduce"
  param {
    lr_mult: 1
    decay_mult: 1
  }
  param {
    lr_mult: 2
    decay_mult: 0
  }
  convolution_param {
    num_output: 128
    kernel_size: 1
    weight_filler {
      type: "xavier"
    }
    bias_filler {
      type: "constant"
      value: 0.2
    }
  }
}
layer {
  name: "inception_4c/relu_3x3_reduce"
  type: "ReLU"
  bottom: "inception_4c/3x3_reduce"
  top: "inception_4c/3x3_reduce"
}
layer {
  name: "inception_4c/3x3"
  type: "Convolution"
  bottom: "inception_4c/3x3_reduce"
  top: "inception_4c/3x3"
  param {
    lr_mult: 1
    decay_mult: 1
  }
  param {
    lr_mult: 2
    decay_mult: 0
  }
  convolution_param {
    num_output: 256
    pad: 1
    kernel_size: 3
    weight_filler {
      type: "xavier"
    }
    bias_filler {
      type: "constant"
      value: 0.2
    }
  }
}
layer {
  name: "inception_4c/relu_3x3"
  type: "ReLU"
  bottom: "inception_4c/3x3"
  top: "inception_4c/3x3"
}
layer {
  name: "inception_4c/5x5_reduce"
  type: "Convolution"
  bottom: "inception_4b/output"
  top: "inception_4c/5x5_reduce"
  param {
    lr_mult: 1
    decay_mult: 1
  }
  param {
    lr_mult: 2
    decay_mult: 0
  }
  convolution_param {
    num_output: 24
    kernel_size: 1
    weight_filler {
      type: "xavier"
    }
    bias_filler {
      type: "constant"
      value: 0.2
    }
  }
}
layer {
  name: "inception_4c/relu_5x5_reduce"
  type: "ReLU"
  bottom: "inception_4c/5x5_reduce"
  top: "inception_4c/5x5_reduce"
}
layer {
  name: "inception_4c/5x5"
  type: "Convolution"
  bottom: "inception_4c/5x5_reduce"
  top: "inception_4c/5x5"
  param {
    lr_mult: 1
    decay_mult: 1
  }
  param {
    lr_mult: 2
    decay_mult: 0
  }
  convolution_param {
    num_output: 64
    pad: 2
    kernel_size: 5
    weight_filler {
      type: "xavier"
    }
    bias_filler {
      type: "constant"
      value: 0.2
    }
  }
}
layer {
  name: "inception_4c/relu_5x5"
  type: "ReLU"
  bottom: "inception_4c/5x5"
  top: "inception_4c/5x5"
}
layer {
  name: "inception_4c/pool"
  type: "Pooling"
  bottom: "inception_4b/output"
  top: "inception_4c/pool"
  pooling_param {
    pool: MAX
    kernel_size: 3
    stride: 1
    pad: 1
  }
}
layer {
  name: "inception_4c/pool_proj"
  type: "Convolution"
  bottom: "inception_4c/pool"
  top: "inception_4c/pool_proj"
  param {
    lr_mult: 1
    decay_mult: 1
  }
  param {
    lr_mult: 2
    decay_mult: 0
  }
  convolution_param {
    num_output: 64
    kernel_size: 1
    weight_filler {
      type: "xavier"
    }
    bias_filler {
      type: "constant"
      value: 0.2
    }
  }
}
layer {
  name: "inception_4c/relu_pool_proj"
  type: "ReLU"
  bottom: "inception_4c/pool_proj"
  top: "inception_4c/pool_proj"
}
layer {
  name: "inception_4c/output"
  type: "Concat"
  bottom: "inception_4c/1x1"
  bottom: "inception_4c/3x3"
  bottom: "inception_4c/5x5"
  bottom: "inception_4c/pool_proj"
  top: "inception_4c/output"
}
layer {
  name: "inception_4d/1x1"
  type: "Convolution"
  bottom: "inception_4c/output"
  top: "inception_4d/1x1"
  param {
    lr_mult: 1
    decay_mult: 1
  }
  param {
    lr_mult: 2
    decay_mult: 0
  }
  convolution_param {
    num_output: 112
    kernel_size: 1
    weight_filler {
      type: "xavier"
    }
    bias_filler {
      type: "constant"
      value: 0.2
    }
  }
}
layer {
  name: "inception_4d/relu_1x1"
  type: "ReLU"
  bottom: "inception_4d/1x1"
  top: "inception_4d/1x1"
}
layer {
  name: "inception_4d/3x3_reduce"
  type: "Convolution"
  bottom: "inception_4c/output"
  top: "inception_4d/3x3_reduce"
  param {
    lr_mult: 1
    decay_mult: 1
  }
  param {
    lr_mult: 2
    decay_mult: 0
  }
  convolution_param {
    num_output: 144
    kernel_size: 1
    weight_filler {
      type: "xavier"
    }
    bias_filler {
      type: "constant"
      value: 0.2
    }
  }
}
layer {
  name: "inception_4d/relu_3x3_reduce"
  type: "ReLU"
  bottom: "inception_4d/3x3_reduce"
  top: "inception_4d/3x3_reduce"
}
layer {
  name: "inception_4d/3x3"
  type: "Convolution"
  bottom: "inception_4d/3x3_reduce"
  top: "inception_4d/3x3"
  param {
    lr_mult: 1
    decay_mult: 1
  }
  param {
    lr_mult: 2
    decay_mult: 0
  }
  convolution_param {
    num_output: 288
    pad: 1
    kernel_size: 3
    weight_filler {
      type: "xavier"
    }
    bias_filler {
      type: "constant"
      value: 0.2
    }
  }
}
layer {
  name: "inception_4d/relu_3x3"
  type: "ReLU"
  bottom: "inception_4d/3x3"
  top: "inception_4d/3x3"
}
layer {
  name: "inception_4d/5x5_reduce"
  type: "Convolution"
  bottom: "inception_4c/output"
  top: "inception_4d/5x5_reduce"
  param {
    lr_mult: 1
    decay_mult: 1
  }
  param {
    lr_mult: 2
    decay_mult: 0
  }
  convolution_param {
    num_output: 32
    kernel_size: 1
    weight_filler {
      type: "xavier"
    }
    bias_filler {
      type: "constant"
      value: 0.2
    }
  }
}
layer {
  name: "inception_4d/relu_5x5_reduce"
  type: "ReLU"
  bottom: "inception_4d/5x5_reduce"
  top: "inception_4d/5x5_reduce"
}
layer {
  name: "inception_4d/5x5"
  type: "Convolution"
  bottom: "inception_4d/5x5_reduce"
  top: "inception_4d/5x5"
  param {
    lr_mult: 1
    decay_mult: 1
  }
  param {
    lr_mult: 2
    decay_mult: 0
  }
  convolution_param {
    num_output: 64
    pad: 2
    kernel_size: 5
    weight_filler {
      type: "xavier"
    }
    bias_filler {
      type: "constant"
      value: 0.2
    }
  }
}
layer {
  name: "inception_4d/relu_5x5"
  type: "ReLU"
  bottom: "inception_4d/5x5"
  top: "inception_4d/5x5"
}
layer {
  name: "inception_4d/pool"
  type: "Pooling"
  bottom: "inception_4c/output"
  top: "inception_4d/pool"
  pooling_param {
    pool: MAX
    kernel_size: 3
    stride: 1
    pad: 1
  }
}
layer {
  name: "inception_4d/pool_proj"
  type: "Convolution"
  bottom: "inception_4d/pool"
  top: "inception_4d/pool_proj"
  param {
    lr_mult: 1
    decay_mult: 1
  }
  param {
    lr_mult: 2
    decay_mult: 0
  }
  convolution_param {
    num_output: 64
    kernel_size: 1
    weight_filler {
      type: "xavier"
    }
    bias_filler {
      type: "constant"
      value: 0.2
    }
  }
}
layer {
  name: "inception_4d/relu_pool_proj"
  type: "ReLU"
  bottom: "inception_4d/pool_proj"
  top: "inception_4d/pool_proj"
}
layer {
  name: "inception_4d/output"
  type: "Concat"
  bottom: "inception_4d/1x1"
  bottom: "inception_4d/3x3"
  bottom: "inception_4d/5x5"
  bottom: "inception_4d/pool_proj"
  top: "inception_4d/output"
}
layer {
  name: "loss2/ave_pool"
  type: "Pooling"
  bottom: "inception_4d/output"
  top: "loss2/ave_pool"
  pooling_param {
    pool: AVE
    kernel_size: 5
    stride: 3
  }
}
layer {
  name: "loss2/conv"
  type: "Convolution"
…
I1219 15:43:03.266598 31962 net.cpp:84] Creating Layer inception_4c/1x1
I1219 15:43:03.266607 31962 net.cpp:380] inception_4c/1x1 <- inception_4b/output_inception_4b/output_0_split_0
I1219 15:43:03.266618 31962 net.cpp:338] inception_4c/1x1 -> inception_4c/1x1
I1219 15:43:03.266629 31962 net.cpp:113] Setting up inception_4c/1x1
I1219 15:43:03.267971 31962 net.cpp:120] Top shape: 50 128 14 14 (1254400)
I1219 15:43:03.267990 31962 layer_factory.hpp:74] Creating layer inception_4c/relu_1x1
I1219 15:43:03.268002 31962 net.cpp:84] Creating Layer inception_4c/relu_1x1
I1219 15:43:03.268010 31962 net.cpp:380] inception_4c/relu_1x1 <- inception_4c/1x1
I1219 15:43:03.268019 31962 net.cpp:327] inception_4c/relu_1x1 -> inception_4c/1x1 (in-place)
I1219 15:43:03.268030 31962 net.cpp:113] Setting up inception_4c/relu_1x1
I1219 15:43:03.268332 31962 net.cpp:120] Top shape: 50 128 14 14 (1254400)
I1219 15:43:03.268355 31962 layer_factory.hpp:74] Creating layer inception_4c/3x3_reduce
I1219 15:43:03.268369 31962 net.cpp:84] Creating Layer inception_4c/3x3_reduce
I1219 15:43:03.268378 31962 net.cpp:380] inception_4c/3x3_reduce <- inception_4b/output_inception_4b/output_0_split_1
I1219 15:43:03.268389 31962 net.cpp:338] inception_4c/3x3_reduce -> inception_4c/3x3_reduce
I1219 15:43:03.268401 31962 net.cpp:113] Setting up inception_4c/3x3_reduce
I1219 15:43:03.269767 31962 net.cpp:120] Top shape: 50 128 14 14 (1254400)
I1219 15:43:03.269788 31962 layer_factory.hpp:74] Creating layer inception_4c/relu_3x3_reduce
I1219 15:43:03.269804 31962 net.cpp:84] Creating Layer inception_4c/relu_3x3_reduce
I1219 15:43:03.269811 31962 net.cpp:380] inception_4c/relu_3x3_reduce <- inception_4c/3x3_reduce
I1219 15:43:03.269822 31962 net.cpp:327] inception_4c/relu_3x3_reduce -> inception_4c/3x3_reduce (in-place)
I1219 15:43:03.269832 31962 net.cpp:113] Setting up inception_4c/relu_3x3_reduce
I1219 15:43:03.269929 31962 net.cpp:120] Top shape: 50 128 14 14 (1254400)
I1219 15:43:03.269940 31962 layer_factory.hpp:74] Creating layer inception_4c/3x3
I1219 15:43:03.269953 31962 net.cpp:84] Creating Layer inception_4c/3x3
I1219 15:43:03.269961 31962 net.cpp:380] inception_4c/3x3 <- inception_4c/3x3_reduce
I1219 15:43:03.269971 31962 net.cpp:338] inception_4c/3x3 -> inception_4c/3x3
I1219 15:43:03.269984 31962 net.cpp:113] Setting up inception_4c/3x3
I1219 15:43:03.274191 31962 net.cpp:120] Top shape: 50 256 14 14 (2508800)
I1219 15:43:03.274227 31962 layer_factory.hpp:74] Creating layer inception_4c/relu_3x3
I1219 15:43:03.274241 31962 net.cpp:84] Creating Layer inception_4c/relu_3x3
I1219 15:43:03.274250 31962 net.cpp:380] inception_4c/relu_3x3 <- inception_4c/3x3
I1219 15:43:03.274260 31962 net.cpp:327] inception_4c/relu_3x3 -> inception_4c/3x3 (in-place)
I1219 15:43:03.274271 31962 net.cpp:113] Setting up inception_4c/relu_3x3
I1219 15:43:03.274372 31962 net.cpp:120] Top shape: 50 256 14 14 (2508800)
I1219 15:43:03.274381 31962 layer_factory.hpp:74] Creating layer inception_4c/5x5_reduce
I1219 15:43:03.274395 31962 net.cpp:84] Creating Layer inception_4c/5x5_reduce
I1219 15:43:03.274402 31962 net.cpp:380] inception_4c/5x5_reduce <- inception_4b/output_inception_4b/output_0_split_2
I1219 15:43:03.274415 31962 net.cpp:338] inception_4c/5x5_reduce -> inception_4c/5x5_reduce
I1219 15:43:03.274427 31962 net.cpp:113] Setting up inception_4c/5x5_reduce
I1219 15:43:03.275100 31962 net.cpp:120] Top shape: 50 24 14 14 (235200)
I1219 15:43:03.275120 31962 layer_factory.hpp:74] Creating layer inception_4c/relu_5x5_reduce
I1219 15:43:03.275131 31962 net.cpp:84] Creating Layer inception_4c/relu_5x5_reduce
I1219 15:43:03.275140 31962 net.cpp:380] inception_4c/relu_5x5_reduce <- inception_4c/5x5_reduce
I1219 15:43:03.275151 31962 net.cpp:327] inception_4c/relu_5x5_reduce -> inception_4c/5x5_reduce (in-place)
I1219 15:43:03.275162 31962 net.cpp:113] Setting up inception_4c/relu_5x5_reduce
I1219 15:43:03.275460 31962 net.cpp:120] Top shape: 50 24 14 14 (235200)
I1219 15:43:03.275475 31962 layer_factory.hpp:74] Creating layer inception_4c/5x5
I1219 15:43:03.275490 31962 net.cpp:84] Creating Layer inception_4c/5x5
I1219 15:43:03.275497 31962 net.cpp:380] inception_4c/5x5 <- inception_4c/5x5_reduce
I1219 15:43:03.275508 31962 net.cpp:338] inception_4c/5x5 -> inception_4c/5x5
I1219 15:43:03.275521 31962 net.cpp:113] Setting up inception_4c/5x5
I1219 15:43:03.276530 31962 net.cpp:120] Top shape: 50 64 14 14 (627200)
I1219 15:43:03.276548 31962 layer_factory.hpp:74] Creating layer inception_4c/relu_5x5
I1219 15:43:03.276558 31962 net.cpp:84] Creating Layer inception_4c/relu_5x5
I1219 15:43:03.276566 31962 net.cpp:380] inception_4c/relu_5x5 <- inception_4c/5x5
I1219 15:43:03.276576 31962 net.cpp:327] inception_4c/relu_5x5 -> inception_4c/5x5 (in-place)
I1219 15:43:03.276587 31962 net.cpp:113] Setting up inception_4c/relu_5x5
I1219 15:43:03.276685 31962 net.cpp:120] Top shape: 50 64 14 14 (627200)
I1219 15:43:03.276700 31962 layer_factory.hpp:74] Creating layer inception_4c/pool
I1219 15:43:03.276717 31962 layer_factory.cpp:56] CUDNN does not support padding or multiple tops. Using Caffe's own pooling layer.
I1219 15:43:03.276729 31962 net.cpp:84] Creating Layer inception_4c/pool
I1219 15:43:03.276736 31962 net.cpp:380] inception_4c/pool <- inception_4b/output_inception_4b/output_0_split_3
I1219 15:43:03.276746 31962 net.cpp:338] inception_4c/pool -> inception_4c/pool
I1219 15:43:03.276757 31962 net.cpp:113] Setting up inception_4c/pool
I1219 15:43:03.276772 31962 net.cpp:120] Top shape: 50 512 14 14 (5017600)
I1219 15:43:03.276777 31962 layer_factory.hpp:74] Creating layer inception_4c/pool_proj
I1219 15:43:03.276792 31962 net.cpp:84] Creating Layer inception_4c/pool_proj
I1219 15:43:03.276798 31962 net.cpp:380] inception_4c/pool_proj <- inception_4c/pool
I1219 15:43:03.276808 31962 net.cpp:338] inception_4c/pool_proj -> inception_4c/pool_proj
I1219 15:43:03.276823 31962 net.cpp:113] Setting up inception_4c/pool_proj
I1219 15:43:03.277772 31962 net.cpp:120] Top shape: 50 64 14 14 (627200)
I1219 15:43:03.277793 31962 layer_factory.hpp:74] Creating layer inception_4c/relu_pool_proj
I1219 15:43:03.277804 31962 net.cpp:84] Creating Layer inception_4c/relu_pool_proj
I1219 15:43:03.277812 31962 net.cpp:380] inception_4c/relu_pool_proj <- inception_4c/pool_proj
I1219 15:43:03.277824 31962 net.cpp:327] inception_4c/relu_pool_proj -> inception_4c/pool_proj (in-place)
I1219 15:43:03.277835 31962 net.cpp:113] Setting up inception_4c/relu_pool_proj
I1219 15:43:03.277930 31962 net.cpp:120] Top shape: 50 64 14 14 (627200)
I1219 15:43:03.277940 31962 layer_factory.hpp:74] Creating layer inception_4c/output
I1219 15:43:03.277950 31962 net.cpp:84] Creating Layer inception_4c/output
I1219 15:43:03.277956 31962 net.cpp:380] inception_4c/output <- inception_4c/1x1
I1219 15:43:03.277966 31962 net.cpp:380] inception_4c/output <- inception_4c/3x3
I1219 15:43:03.277973 31962 net.cpp:380] inception_4c/output <- inception_4c/5x5
I1219 15:43:03.277981 31962 net.cpp:380] inception_4c/output <- inception_4c/pool_proj
I1219 15:43:03.277993 31962 net.cpp:338] inception_4c/output -> inception_4c/output
I1219 15:43:03.278004 31962 net.cpp:113] Setting up inception_4c/output
I1219 15:43:03.278017 31962 net.cpp:120] Top shape: 50 512 14 14 (5017600)
I1219 15:43:03.278023 31962 layer_factory.hpp:74] Creating layer inception_4c/output_inception_4c/output_0_split
I1219 15:43:03.278033 31962 net.cpp:84] Creating Layer inception_4c/output_inception_4c/output_0_split
I1219 15:43:03.278040 31962 net.cpp:380] inception_4c/output_inception_4c/output_0_split <- inception_4c/output
I1219 15:43:03.278053 31962 net.cpp:338] inception_4c/output_inception_4c/output_0_split -> inception_4c/output_inception_4c/output_0_split_0
I1219 15:43:03.278064 31962 net.cpp:338] inception_4c/output_inception_4c/output_0_split -> inception_4c/output_inception_4c/output_0_split_1
I1219 15:43:03.278074 31962 net.cpp:338] inception_4c/output_inception_4c/output_0_split -> inception_4c/output_inception_4c/output_0_split_2
I1219 15:43:03.278084 31962 net.cpp:338] inception_4c/output_inception_4c/output_0_split -> inception_4c/output_inception_4c/output_0_split_3
I1219 15:43:03.278095 31962 net.cpp:113] Setting up inception_4c/output_inception_4c/output_0_split
I1219 15:43:03.278105 31962 net.cpp:120] Top shape: 50 512 14 14 (5017600)
I1219 15:43:03.278115 31962 net.cpp:120] Top shape: 50 512 14 14 (5017600)
I1219 15:43:03.278122 31962 net.cpp:120] Top shape: 50 512 14 14 (5017600)
I1219 15:43:03.278131 31962 net.cpp:120] Top shape: 50 512 14 14 (5017600)
I1219 15:43:03.278136 31962 layer_factory.hpp:74] Creating layer inception_4d/1x1
I1219 15:43:03.278151 31962 net.cpp:84] Creating Layer inception_4d/1x1
I1219 15:43:03.278157 31962 net.cpp:380] inception_4d/1x1 <- inception_4c/output_inception_4c/output_0_split_0
I1219 15:43:03.278167 31962 net.cpp:338] inception_4d/1x1 -> inception_4d/1x1
I1219 15:43:03.278178 31962 net.cpp:113] Setting up inception_4d/1x1
I1219 15:43:03.279431 31962 net.cpp:120] Top shape: 50 112 14 14 (1097600)
I1219 15:43:03.279463 31962 layer_factory.hpp:74] Creating layer inception_4d/relu_1x1
I1219 15:43:03.279474 31962 net.cpp:84] Creating Layer inception_4d/relu_1x1
I1219 15:43:03.279481 31962 net.cpp:380] inception_4d/relu_1x1 <- inception_4d/1x1
I1219 15:43:03.279495 31962 net.cpp:327] inception_4d/relu_1x1 -> inception_4d/1x1 (in-place)
I1219 15:43:03.279505 31962 net.cpp:113] Setting up inception_4d/relu_1x1
I1219 15:43:03.279602 31962 net.cpp:120] Top shape: 50 112 14 14 (1097600)
I1219 15:43:03.279609 31962 layer_factory.hpp:74] Creating layer inception_4d/3x3_reduce
I1219 15:43:03.279623 31962 net.cpp:84] Creating Layer inception_4d/3x3_reduce
I1219 15:43:03.279631 31962 net.cpp:380] inception_4d/3x3_reduce <- inception_4c/output_inception_4c/output_0_split_1
I1219 15:43:03.279644 31962 net.cpp:338] inception_4d/3x3_reduce -> inception_4d/3x3_reduce
I1219 15:43:03.279656 31962 net.cpp:113] Setting up inception_4d/3x3_reduce
I1219 15:43:03.281114 31962 net.cpp:120] Top shape: 50 144 14 14 (1411200)
I1219 15:43:03.281136 31962 layer_factory.hpp:74] Creating layer inception_4d/relu_3x3_reduce
I1219 15:43:03.281148 31962 net.cpp:84] Creating Layer inception_4d/relu_3x3_reduce
I1219 15:43:03.281158 31962 net.cpp:380] inception_4d/relu_3x3_reduce <- inception_4d/3x3_reduce
I1219 15:43:03.281168 31962 net.cpp:327] inception_4d/relu_3x3_reduce -> inception_4d/3x3_reduce (in-place)
I1219 15:43:03.281179 31962 net.cpp:113] Setting up inception_4d/relu_3x3_reduce
I1219 15:43:03.281482 31962 net.cpp:120] Top shape: 50 144 14 14 (1411200)
I1219 15:43:03.281497 31962 layer_factory.hpp:74] Creating layer inception_4d/3x3
I1219 15:43:03.281512 31962 net.cpp:84] Creating Layer inception_4d/3x3
I1219 15:43:03.281519 31962 net.cpp:380] inception_4d/3x3 <- inception_4d/3x3_reduce
I1219 15:43:03.281532 31962 net.cpp:338] inception_4d/3x3 -> inception_4d/3x3
I1219 15:43:03.281544 31962 net.cpp:113] Setting up inception_4d/3x3
I1219 15:43:03.286732 31962 net.cpp:120] Top shape: 50 288 14 14 (2822400)
I1219 15:43:03.286754 31962 layer_factory.hpp:74] Creating layer inception_4d/relu_3x3
I1219 15:43:03.286764 31962 net.cpp:84] Creating Layer inception_4d/relu_3x3
I1219 15:43:03.286772 31962 net.cpp:380] inception_4d/relu_3x3 <- inception_4d/3x3
I1219 15:43:03.286782 31962 net.cpp:327] inception_4d/relu_3x3 -> inception_4d/3x3 (in-place)
I1219 15:43:03.286793 31962 net.cpp:113] Setting up inception_4d/relu_3x3
I1219 15:43:03.286888 31962 net.cpp:120] Top shape: 50 288 14 14 (2822400)
I1219 15:43:03.286897 31962 layer_factory.hpp:74] Creating layer inception_4d/5x5_reduce
I1219 15:43:03.286908 31962 net.cpp:84] Creating Layer inception_4d/5x5_reduce
I1219 15:43:03.286916 31962 net.cpp:380] inception_4d/5x5_reduce <- inception_4c/output_inception_4c/output_0_split_2
I1219 15:43:03.286928 31962 net.cpp:338] inception_4d/5x5_reduce -> inception_4d/5x5_reduce
I1219 15:43:03.286941 31962 net.cpp:113] Setting up inception_4d/5x5_reduce
I1219 15:43:03.287724 31962 net.cpp:120] Top shape: 50 32 14 14 (313600)
I1219 15:43:03.287744 31962 layer_factory.hpp:74] Creating layer inception_4d/relu_5x5_reduce
I1219 15:43:03.287755 31962 net.cpp:84] Creating Layer inception_4d/relu_5x5_reduce
I1219 15:43:03.287762 31962 net.cpp:380] inception_4d/relu_5x5_reduce <- inception_4d/5x5_reduce
I1219 15:43:03.287772 31962 net.cpp:327] inception_4d/relu_5x5_reduce -> inception_4d/5x5_reduce (in-place)
I1219 15:43:03.287782 31962 net.cpp:113] Setting up inception_4d/relu_5x5_reduce
I1219 15:43:03.287880 31962 net.cpp:120] Top shape: 50 32 14 14 (313600)
I1219 15:43:03.287889 31962 layer_factory.hpp:74] Creating layer inception_4d/5x5
I1219 15:43:03.287904 31962 net.cpp:84] Creating Layer inception_4d/5x5
I1219 15:43:03.287910 31962 net.cpp:380] inception_4d/5x5 <- inception_4d/5x5_reduce
I1219 15:43:03.287920 31962 net.cpp:338] inception_4d/5x5 -> inception_4d/5x5
I1219 15:43:03.287932 31962 net.cpp:113] Setting up inception_4d/5x5
I1219 15:43:03.289113 31962 net.cpp:120] Top shape: 50 64 14 14 (627200)
I1219 15:43:03.289139 31962 layer_factory.hpp:74] Creating layer inception_4d/relu_5x5
I1219 15:43:03.289158 31962 net.cpp:84] Creating Layer inception_4d/relu_5x5
I1219 15:43:03.289167 31962 net.cpp:380] inception_4d/relu_5x5 <- inception_4d/5x5
I1219 15:43:03.289177 31962 net.cpp:327] inception_4d/relu_5x5 -> inception_4d/5x5 (in-place)
I1219 15:43:03.289187 31962 net.cpp:113] Setting up inception_4d/relu_5x5
I1219 15:43:03.289290 31962 net.cpp:120] Top shape: 50 64 14 14 (627200)
I1219 15:43:03.289299 31962 layer_factory.hpp:74] Creating layer inception_4d/pool
I1219 15:43:03.289307 31962 layer_factory.cpp:56] CUDNN does not support padding or multiple tops. Using Caffe's own pooling layer.
I1219 15:43:03.289320 31962 net.cpp:84] Creating Layer inception_4d/pool
I1219 15:43:03.289327 31962 net.cpp:380] inception_4d/pool <- inception_4c/output_inception_4c/output_0_split_3
I1219 15:43:03.289337 31962 net.cpp:338] inception_4d/pool -> inception_4d/pool
I1219 15:43:03.289347 31962 net.cpp:113] Setting up inception_4d/pool
I1219 15:43:03.289361 31962 net.cpp:120] Top shape: 50 512 14 14 (5017600)
I1219 15:43:03.289368 31962 layer_factory.hpp:74] Creating layer inception_4d/pool_proj
I1219 15:43:03.289381 31962 net.cpp:84] Creating Layer inception_4d/pool_proj
I1219 15:43:03.289389 31962 net.cpp:380] inception_4d/pool_proj <- inception_4d/pool
I1219 15:43:03.289399 31962 net.cpp:338] inception_4d/pool_proj -> inception_4d/pool_proj
I1219 15:43:03.289410 31962 net.cpp:113] Setting up inception_4d/pool_proj
I1219 15:43:03.290351 31962 net.cpp:120] Top shape: 50 64 14 14 (627200)
I1219 15:43:03.290371 31962 layer_factory.hpp:74] Creating layer inception_4d/relu_pool_proj
I1219 15:43:03.290382 31962 net.cpp:84] Creating Layer inception_4d/relu_pool_proj
I1219 15:43:03.290390 31962 net.cpp:380] inception_4d/relu_pool_proj <- inception_4d/pool_proj
I1219 15:43:03.290400 31962 net.cpp:327] inception_4d/relu_pool_proj -> inception_4d/pool_proj (in-place)
I1219 15:43:03.290410 31962 net.cpp:113] Setting up inception_4d/relu_pool_proj
I1219 15:43:03.290709 31962 net.cpp:120] Top shape: 50 64 14 14 (627200)
I1219 15:43:03.290722 31962 layer_factory.hpp:74] Creating layer inception_4d/output
I1219 15:43:03.290735 31962 net.cpp:84] Creating Layer inception_4d/output
I1219 15:43:03.290743 31962 net.cpp:380] inception_4d/output <- inception_4d/1x1
I1219 15:43:03.290752 31962 net.cpp:380] inception_4d/output <- inception_4d/3x3
I1219 15:43:03.290761 31962 net.cpp:380] inception_4d/output <- inception_4d/5x5
I1219 15:43:03.290769 31962 net.cpp:380] inception_4d/output <- inception_4d/pool_proj
I1219 15:43:03.290778 31962 net.cpp:338] inception_4d/output -> inception_4d/output
I1219 15:43:03.290789 31962 net.cpp:113] Setting up inception_4d/output
I1219 15:43:03.290802 31962 net.cpp:120] Top shape: 50 528 14 14 (5174400)
I1219 15:43:03.290808 31962 layer_factory.hpp:74] Creating layer inception_4d/output_inception_4d/output_0_split
I1219 15:43:03.290820 31962 net.cpp:84] Creating Layer inception_4d/output_inception_4d/output_0_split
I1219 15:43:03.290827 31962 net.cpp:380] inception_4d/output_inception_4d/output_0_split <- inception_4d/output
I1219 15:43:03.290838 31962 net.cpp:338] inception_4d/output_inception_4d/output_0_split -> inception_4d/output_inception_4d/output_0_split_0
I1219 15:43:03.290848 31962 net.cpp:338] inception_4d/output_inception_4d/output_0_split -> inception_4d/output_inception_4d/output_0_split_1
I1219 15:43:03.290860 31962 net.cpp:338] inception_4d/output_inception_4d/output_0_split -> inception_4d/output_inception_4d/output_0_split_2
I1219 15:43:03.290871 31962 net.cpp:338] inception_4d/output_inception_4d/output_0_split -> inception_4d/output_inception_4d/output_0_split_3
I1219 15:43:03.290881 31962 net.cpp:338] inception_4d/output_inception_4d/output_0_split -> inception_4d/output_inception_4d/output_0_split_4
I1219 15:43:03.290890 31962 net.cpp:113] Setting up inception_4d/output_inception_4d/output_0_split
I1219 15:43:03.290904 31962 net.cpp:120] Top shape: 50 528 14 14 (5174400)
I1219 15:43:03.290920 31962 net.cpp:120] Top shape: 50 528 14 14 (5174400)
I1219 15:43:03.290935 31962 net.cpp:120] Top shape: 50 528 14 14 (5174400)
I1219 15:43:03.290945 31962 net.cpp:120] Top shape: 50 528 14 14 (5174400)
I1219 15:43:03.290952 31962 net.cpp:120] Top shape: 50 528 14 14 (5174400)
I1219 15:43:03.290959 31962 layer_factory.hpp:74] Creating layer loss2/ave_pool
I1219 15:43:03.290969 31962 net.cpp:84] Creating Layer loss2/ave_pool
I1219 15:43:03.290977 31962 net.cpp:380] loss2/ave_pool <- inception_4d/output_inception_4d/output_0_split_0
I1219 15:43:03.290988 31962 net.cpp:338] loss2/ave_pool -> loss2/ave_pool
I1219 15:43:03.290999 31962 net.cpp:113] Setting up loss2/ave_pool
I1219 15:43:03.291102 31962 net.cpp:120] Top shape: 50 528 4 4 (422400)
I1219 15:43:03.291111 31962 layer_factory.hpp:74] Creating layer loss2/conv
I1219 15:43:03.291124 31962 net.cpp:84] Creating Layer loss2/conv
I1219 15:43:03.291131 31962 net.cpp:380] loss2/conv <- loss2/ave_pool
I1219 15:43:03.291147 31962 net.cpp:338] loss2/conv -> loss2/conv
I1219 15:43:03.291159 31962 net.cpp:113] Setting up loss2/conv
I1219 15:43:03.292533 31962 net.cpp:120] Top shape: 50 128 4 4 (102400)
I1219 15:43:03.292552 31962 layer_factory.hpp:74] Creating layer loss2/relu_conv
I1219 15:43:03.292564 31962 net.cpp:84] Creating Layer loss2/relu_conv
I1219 15:43:03.292573 31962 net.cpp:380] loss2/relu_conv <- loss2/conv
I1219 15:43:03.292583 31962 net.cpp:327] loss2/relu_conv -> loss2/conv (in-place)
I1219 15:43:03.292593 31962 net.cpp:113] Setting up loss2/relu_conv
I1219 15:43:03.292688 31962 net.cpp:120] Top shape: 50 128 4 4 (102400)
I1219 15:43:03.292696 31962 layer_factory.hpp:74] Creating layer loss2/fc
I1219 15:43:03.292711 31962 net.cpp:84] Creating Layer loss2/fc
I1219 15:43:03.292718 31962 net.cpp:380] loss2/fc <- loss2/conv
I1219 15:43:03.292732 31962 net.cpp:338] loss2/fc -> loss2/fc
I1219 15:43:03.292744 31962 net.cpp:113] Setting up loss2/fc
I1219 15:43:03.340277 31962 net.cpp:120] Top shape: 50 1024 (51200)
I1219 15:43:03.340335 31962 layer_factory.hpp:74] Creating layer loss2/relu_fc
I1219 15:43:03.340363 31962 net.cpp:84] Creating Layer loss2/relu_fc
I1219 15:43:03.340374 31962 net.cpp:380] loss2/relu_fc <- loss2/fc
I1219 15:43:03.340391 31962 net.cpp:327] loss2/relu_fc -> loss2/fc (in-place)
I1219 15:43:03.340405 31962 net.cpp:113] Setting up loss2/relu_fc
I1219 15:43:03.340564 31962 net.cpp:120] Top shape: 50 1024 (51200)
I1219 15:43:03.340574 31962 layer_factory.hpp:74] Creating layer loss2/drop_fc
I1219 15:43:03.340586 31962 net.cpp:84] Creating Layer loss2/drop_fc
I1219 15:43:03.340595 31962 net.cpp:380] loss2/drop_fc <- loss2/fc
I1219 15:43:03.340603 31962 net.cpp:327] loss2/drop_fc -> loss2/fc (in-place)
I1219 15:43:03.340613 31962 net.cpp:113] Setting up loss2/drop_fc
I1219 15:43:03.340625 31962 net.cpp:120] Top shape: 50 1024 (51200)
I1219 15:43:03.340631 31962 layer_factory.hpp:74] Creating layer loss2/classifier_kaggle
I1219 15:43:03.340644 31962 net.cpp:84] Creating Layer loss2/classifier_kaggle
I1219 15:43:03.340651 31962 net.cpp:380] loss2/classifier_kaggle <- loss2/fc
I1219 15:43:03.340664 31962 net.cpp:338] loss2/classifier_kaggle -> loss2/classifier_kaggle
I1219 15:43:03.340677 31962 net.cpp:113] Setting up loss2/classifier_kaggle
I1219 15:43:03.346397 31962 net.cpp:120] Top shape: 50 447 (22350)
I1219 15:43:03.346416 31962 layer_factory.hpp:74] Creating layer loss2/classifier_kaggle_loss2/classifier_kaggle_0_split
I1219 15:43:03.346431 31962 net.cpp:84] Creating Layer loss2/classifier_kaggle_loss2/classifier_kaggle_0_split
I1219 15:43:03.346438 31962 net.cpp:380] loss2/classifier_kaggle_loss2/classifier_kaggle_0_split <- loss2/classifier_kaggle
I1219 15:43:03.346449 31962 net.cpp:338] loss2/classifier_kaggle_loss2/classifier_kaggle_0_split -> loss2/classifier_kaggle_loss2/classifier_kaggle_0_split_0
I1219 15:43:03.346462 31962 net.cpp:338] loss2/classifier_kaggle_loss2/classifier_kaggle_0_split -> loss2/classifier_kaggle_loss2/classifier_kaggle_0_split_1
I1219 15:43:03.346472 31962 net.cpp:338] loss2/classifier_kaggle_loss2/classifier_kaggle_0_split -> loss2/classifier_kaggle_loss2/classifier_kaggle_0_split_2
I1219 15:43:03.346508 31962 net.cpp:113] Setting up loss2/classifier_kaggle_loss2/classifier_kaggle_0_split
I1219 15:43:03.346519 31962 net.cpp:120] Top shape: 50 447 (22350)
I1219 15:43:03.346528 31962 net.cpp:120] Top shape: 50 447 (22350)
I1219 15:43:03.346535 31962 net.cpp:120] Top shape: 50 447 (22350)
I1219 15:43:03.346542 31962 layer_factory.hpp:74] Creating layer loss2/loss
I1219 15:43:03.346554 31962 net.cpp:84] Creating Layer loss2/loss
I1219 15:43:03.346560 31962 net.cpp:380] loss2/loss <- loss2/classifier_kaggle_loss2/classifier_kaggle_0_split_0
I1219 15:43:03.346570 31962 net.cpp:380] loss2/loss <- label_data_1_split_3
I1219 15:43:03.346578 31962 net.cpp:338] loss2/loss -> loss2/loss1
…
I1219 15:43:03.347309 31962 net.cpp:338] loss2/top-5 -> loss2/top-5
I1219 15:43:03.347319 31962 net.cpp:113] Setting up loss2/top-5
I1219 15:43:03.347327 31962 net.cpp:120] Top shape: (1)
I1219 15:43:03.347333 31962 layer_factory.hpp:74] Creating layer inception_4e/1x1
I1219 15:43:03.347347 31962 net.cpp:84] Creating Layer inception_4e/1x1
I1219 15:43:03.347355 31962 net.cpp:380] inception_4e/1x1 <- inception_4d/output_inception_4d/output_0_split_1
I1219 15:43:03.347368 31962 net.cpp:338] inception_4e/1x1 -> inception_4e/1x1
I1219 15:43:03.347380 31962 net.cpp:113] Setting up inception_4e/1x1
I1219 15:43:03.349630 31962 net.cpp:120] Top shape: 50 256 14 14 (2508800)
I1219 15:43:03.349653 31962 layer_factory.hpp:74] Creating layer inception_4e/relu_1x1
I1219 15:43:03.349663 31962 net.cpp:84] Creating Layer inception_4e/relu_1x1
I1219 15:43:03.349671 31962 net.cpp:380] inception_4e/relu_1x1 <- inception_4e/1x1
I1219 15:43:03.349681 31962 net.cpp:327] inception_4e/relu_1x1 -> inception_4e/1x1 (in-place)
I1219 15:43:03.349692 31962 net.cpp:113] Setting up inception_4e/relu_1x1
I1219 15:43:03.349791 31962 net.cpp:120] Top shape: 50 256 14 14 (2508800)
I1219 15:43:03.349799 31962 layer_factory.hpp:74] Creating layer inception_4e/3x3_reduce
I1219 15:43:03.349841 31962 net.cpp:84] Creating Layer inception_4e/3x3_reduce
I1219 15:43:03.349850 31962 net.cpp:380] inception_4e/3x3_reduce <- inception_4d/output_inception_4d/output_0_split_2
I1219 15:43:03.349861 31962 net.cpp:338] inception_4e/3x3_reduce -> inception_4e/3x3_reduce
I1219 15:43:03.349874 31962 net.cpp:113] Setting up inception_4e/3x3_reduce
I1219 15:43:03.351469 31962 net.cpp:120] Top shape: 50 160 14 14 (1568000)
I1219 15:43:03.351490 31962 layer_factory.hpp:74] Creating layer inception_4e/relu_3x3_reduce
I1219 15:43:03.351502 31962 net.cpp:84] Creating Layer inception_4e/relu_3x3_reduce
I1219 15:43:03.351511 31962 net.cpp:380] inception_4e/relu_3x3_reduce <- inception_4e/3x3_reduce
I1219 15:43:03.351521 31962 net.cpp:327] inception_4e/relu_3x3_reduce -> inception_4e/3x3_reduce (in-place)
I1219 15:43:03.351531 31962 net.cpp:113] Setting up inception_4e/relu_3x3_reduce
I1219 15:43:03.351634 31962 net.cpp:120] Top shape: 50 160 14 14 (1568000)
I1219 15:43:03.351650 31962 layer_factory.hpp:74] Creating layer inception_4e/3x3
I1219 15:43:03.351671 31962 net.cpp:84] Creating Layer inception_4e/3x3
I1219 15:43:03.351678 31962 net.cpp:380] inception_4e/3x3 <- inception_4e/3x3_reduce
I1219 15:43:03.351691 31962 net.cpp:338] inception_4e/3x3 -> inception_4e/3x3
I1219 15:43:03.351703 31962 net.cpp:113] Setting up inception_4e/3x3
I1219 15:43:03.358108 31962 net.cpp:120] Top shape: 50 320 14 14 (3136000)
I1219 15:43:03.358132 31962 layer_factory.hpp:74] Creating layer inception_4e/relu_3x3
I1219 15:43:03.358144 31962 net.cpp:84] Creating Layer inception_4e/relu_3x3
I1219 15:43:03.358151 31962 net.cpp:380] inception_4e/relu_3x3 <- inception_4e/3x3
I1219 15:43:03.358161 31962 net.cpp:327] inception_4e/relu_3x3 -> inception_4e/3x3 (in-place)
I1219 15:43:03.358172 31962 net.cpp:113] Setting up inception_4e/relu_3x3
I1219 15:43:03.358903 31962 net.cpp:120] Top shape: 50 320 14 14 (3136000)
I1219 15:43:03.358919 31962 layer_factory.hpp:74] Creating layer inception_4e/5x5_reduce
I1219 15:43:03.358932 31962 net.cpp:84] Creating Layer inception_4e/5x5_reduce
I1219 15:43:03.358940 31962 net.cpp:380] inception_4e/5x5_reduce <- inception_4d/output_inception_4d/output_0_split_3
I1219 15:43:03.358952 31962 net.cpp:338] inception_4e/5x5_reduce -> inception_4e/5x5_reduce
I1219 15:43:03.358965 31962 net.cpp:113] Setting up inception_4e/5x5_reduce
I1219 15:43:03.359686 31962 net.cpp:120] Top shape: 50 32 14 14 (313600)
I1219 15:43:03.359706 31962 layer_factory.hpp:74] Creating layer inception_4e/relu_5x5_reduce
I1219 15:43:03.359716 31962 net.cpp:84] Creating Layer inception_4e/relu_5x5_reduce
I1219 15:43:03.359724 31962 net.cpp:380] inception_4e/relu_5x5_reduce <- inception_4e/5x5_reduce
I1219 15:43:03.359735 31962 net.cpp:327] inception_4e/relu_5x5_reduce -> inception_4e/5x5_reduce (in-place)
I1219 15:43:03.359745 31962 net.cpp:113] Setting up inception_4e/relu_5x5_reduce
I1219 15:43:03.359843 31962 net.cpp:120] Top shape: 50 32 14 14 (313600)
I1219 15:43:03.359853 31962 layer_factory.hpp:74] Creating layer inception_4e/5x5
I1219 15:43:03.359868 31962 net.cpp:84] Creating Layer inception_4e/5x5
I1219 15:43:03.359875 31962 net.cpp:380] inception_4e/5x5 <- inception_4e/5x5_reduce
I1219 15:43:03.359885 31962 net.cpp:338] inception_4e/5x5 -> inception_4e/5x5
I1219 15:43:03.359897 31962 net.cpp:113] Setting up inception_4e/5x5
I1219 15:43:03.361728 31962 net.cpp:120] Top shape: 50 128 14 14 (1254400)
I1219 15:43:03.361749 31962 layer_factory.hpp:74] Creating layer inception_4e/relu_5x5
I1219 15:43:03.361763 31962 net.cpp:84] Creating Layer inception_4e/relu_5x5
I1219 15:43:03.361773 31962 net.cpp:380] inception_4e/relu_5x5 <- inception_4e/5x5
I1219 15:43:03.361783 31962 net.cpp:327] inception_4e/relu_5x5 -> inception_4e/5x5 (in-place)
I1219 15:43:03.361793 31962 net.cpp:113] Setting up inception_4e/relu_5x5
I1219 15:43:03.361891 31962 net.cpp:120] Top shape: 50 128 14 14 (1254400)
I1219 15:43:03.361899 31962 layer_factory.hpp:74] Creating layer inception_4e/pool
I1219 15:43:03.361907 31962 layer_factory.cpp:56] CUDNN does not support padding or multiple tops. Using Caffe's own pooling layer.
I1219 15:43:03.361917 31962 net.cpp:84] Creating Layer inception_4e/pool
I1219 15:43:03.361925 31962 net.cpp:380] inception_4e/pool <- inception_4d/output_inception_4d/output_0_split_4
I1219 15:43:03.361935 31962 net.cpp:338] inception_4e/pool -> inception_4e/pool
I1219 15:43:03.361946 31962 net.cpp:113] Setting up inception_4e/pool
I1219 15:43:03.361959 31962 net.cpp:120] Top shape: 50 528 14 14 (5174400)
I1219 15:43:03.361966 31962 layer_factory.hpp:74] Creating layer inception_4e/pool_proj
I1219 15:43:03.361980 31962 net.cpp:84] Creating Layer inception_4e/pool_proj
I1219 15:43:03.361989 31962 net.cpp:380] inception_4e/pool_proj <- inception_4e/pool
I1219 15:43:03.362000 31962 net.cpp:338] inception_4e/pool_proj -> inception_4e/pool_proj
I1219 15:43:03.362012 31962 net.cpp:113] Setting up inception_4e/pool_proj
I1219 15:43:03.363392 31962 net.cpp:120] Top shape: 50 128 14 14 (1254400)
I1219 15:43:03.363420 31962 layer_factory.hpp:74] Creating layer inception_4e/relu_pool_proj
I1219 15:43:03.363443 31962 net.cpp:84] Creating Layer inception_4e/relu_pool_proj
I1219 15:43:03.363452 31962 net.cpp:380] inception_4e/relu_pool_proj <- inception_4e/pool_proj
I1219 15:43:03.363462 31962 net.cpp:327] inception_4e/relu_pool_proj -> inception_4e/pool_proj (in-place)
I1219 15:43:03.363472 31962 net.cpp:113] Setting up inception_4e/relu_pool_proj
I1219 15:43:03.363569 31962 net.cpp:120] Top shape: 50 128 14 14 (1254400)
I1219 15:43:03.363579 31962 layer_factory.hpp:74] Creating layer inception_4e/output
I1219 15:43:03.363590 31962 net.cpp:84] Creating Layer inception_4e/output
I1219 15:43:03.363598 31962 net.cpp:380] inception_4e/output <- inception_4e/1x1
I1219 15:43:03.363607 31962 net.cpp:380] inception_4e/output <- inception_4e/3x3
I1219 15:43:03.363615 31962 net.cpp:380] inception_4e/output <- inception_4e/5x5
I1219 15:43:03.363623 31962 net.cpp:380] inception_4e/output <- inception_4e/pool_proj
I1219 15:43:03.363632 31962 net.cpp:338] inception_4e/output -> inception_4e/output
I1219 15:43:03.363643 31962 net.cpp:113] Setting up inception_4e/output
I1219 15:43:03.363654 31962 net.cpp:120] Top shape: 50 832 14 14 (8153600)
I1219 15:43:03.363662 31962 layer_factory.hpp:74] Creating layer pool4/3x3_s2
I1219 15:43:03.363674 31962 net.cpp:84] Creating Layer pool4/3x3_s2
I1219 15:43:03.363682 31962 net.cpp:380] pool4/3x3_s2 <- inception_4e/output
I1219 15:43:03.363692 31962 net.cpp:338] pool4/3x3_s2 -> pool4/3x3_s2
I1219 15:43:03.363703 31962 net.cpp:113] Setting up pool4/3x3_s2
I1219 15:43:03.364799 31962 net.cpp:120] Top shape: 50 832 7 7 (2038400)
I1219 15:43:03.364815 31962 layer_factory.hpp:74] Creating layer pool4/3x3_s2_pool4/3x3_s2_0_split
I1219 15:43:03.364827 31962 net.cpp:84] Creating Layer pool4/3x3_s2_pool4/3x3_s2_0_split
I1219 15:43:03.364835 31962 net.cpp:380] pool4/3x3_s2_pool4/3x3_s2_0_split <- pool4/3x3_s2
I1219 15:43:03.364845 31962 net.cpp:338] pool4/3x3_s2_pool4/3x3_s2_0_split -> pool4/3x3_s2_pool4/3x3_s2_0_split_0
I1219 15:43:03.364857 31962 net.cpp:338] pool4/3x3_s2_pool4/3x3_s2_0_split -> pool4/3x3_s2_pool4/3x3_s2_0_split_1
I1219 15:43:03.364868 31962 net.cpp:338] pool4/3x3_s2_pool4/3x3_s2_0_split -> pool4/3x3_s2_pool4/3x3_s2_0_split_2
I1219 15:43:03.364903 31962 net.cpp:338] pool4/3x3_s2_pool4/3x3_s2_0_split -> pool4/3x3_s2_pool4/3x3_s2_0_split_3
I1219 15:43:03.364913 31962 net.cpp:113] Setting up pool4/3x3_s2_pool4/3x3_s2_0_split
I1219 15:43:03.364925 31962 net.cpp:120] Top shape: 50 832 7 7 (2038400)
I1219 15:43:03.364933 31962 net.cpp:120] Top shape: 50 832 7 7 (2038400)
I1219 15:43:03.364945 31962 net.cpp:120] Top shape: 50 832 7 7 (2038400)
I1219 15:43:03.364953 31962 net.cpp:120] Top shape: 50 832 7 7 (2038400)
I1219 15:43:03.364961 31962 layer_factory.hpp:74] Creating layer inception_5a/1x1
I1219 15:43:03.364972 31962 net.cpp:84] Creating Layer inception_5a/1x1
I1219 15:43:03.364980 31962 net.cpp:380] inception_5a/1x1 <- pool4/3x3_s2_pool4/3x3_s2_0_split_0
I1219 15:43:03.364991 31962 net.cpp:338] inception_5a/1x1 -> inception_5a/1x1
I1219 15:43:03.365002 31962 net.cpp:113] Setting up inception_5a/1x1
I1219 15:43:03.368208 31962 net.cpp:120] Top shape: 50 256 7 7 (627200)
I1219 15:43:03.368230 31962 layer_factory.hpp:74] Creating layer inception_5a/relu_1x1
I1219 15:43:03.368242 31962 net.cpp:84] Creating Layer inception_5a/relu_1x1
I1219 15:43:03.368250 31962 net.cpp:380] inception_5a/relu_1x1 <- inception_5a/1x1
I1219 15:43:03.368260 31962 net.cpp:327] inception_5a/relu_1x1 -> inception_5a/1x1 (in-place)
I1219 15:43:03.368273 31962 net.cpp:113] Setting up inception_5a/relu_1x1
I1219 15:43:03.368367 31962 net.cpp:120] Top shape: 50 256 7 7 (627200)
I1219 15:43:03.368378 31962 layer_factory.hpp:74] Creating layer inception_5a/3x3_reduce
I1219 15:43:03.368389 31962 net.cpp:84] Creating Layer inception_5a/3x3_reduce
I1219 15:43:03.368399 31962 net.cpp:380] inception_5a/3x3_reduce <- pool4/3x3_s2_pool4/3x3_s2_0_split_1
I1219 15:43:03.368410 31962 net.cpp:338] inception_5a/3x3_reduce -> inception_5a/3x3_reduce
I1219 15:43:03.368438 31962 net.cpp:113] Setting up inception_5a/3x3_reduce
I1219 15:43:03.370647 31962 net.cpp:120] Top shape: 50 160 7 7 (392000)
I1219 15:43:03.370668 31962 layer_factory.hpp:74] Creating layer inception_5a/relu_3x3_reduce
I1219 15:43:03.370682 31962 net.cpp:84] Creating Layer inception_5a/relu_3x3_reduce
I1219 15:43:03.370690 31962 net.cpp:380] inception_5a/relu_3x3_reduce <- inception_5a/3x3_reduce
I1219 15:43:03.370700 31962 net.cpp:327] inception_5a/relu_3x3_reduce -> inception_5a/3x3_reduce (in-place)
I1219 15:43:03.370710 31962 net.cpp:113] Setting up inception_5a/relu_3x3_reduce
I1219 15:43:03.370812 31962 net.cpp:120] Top shape: 50 160 7 7 (392000)
I1219 15:43:03.370821 31962 layer_factory.hpp:74] Creating layer inception_5a/3x3
I1219 15:43:03.370836 31962 net.cpp:84] Creating Layer inception_5a/3x3
I1219 15:43:03.370842 31962 net.cpp:380] inception_5a/3x3 <- inception_5a/3x3_reduce
I1219 15:43:03.370853 31962 net.cpp:338] inception_5a/3x3 -> inception_5a/3x3
I1219 15:43:03.370864 31962 net.cpp:113] Setting up inception_5a/3x3
I1219 15:43:03.377152 31962 net.cpp:120] Top shape: 50 320 7 7 (784000)
I1219 15:43:03.377174 31962 layer_factory.hpp:74] Creating layer inception_5a/relu_3x3
I1219 15:43:03.377185 31962 net.cpp:84] Creating Layer inception_5a/relu_3x3
I1219 15:43:03.377193 31962 net.cpp:380] inception_5a/relu_3x3 <- inception_5a/3x3
I1219 15:43:03.377205 31962 net.cpp:327] inception_5a/relu_3x3 -> inception_5a/3x3 (in-place)
I1219 15:43:03.377215 31962 net.cpp:113] Setting up inception_5a/relu_3x3
I1219 15:43:03.377316 31962 net.cpp:120] Top shape: 50 320 7 7 (784000)
I1219 15:43:03.377327 31962 layer_factory.hpp:74] Creating layer inception_5a/5x5_reduce
I1219 15:43:03.377341 31962 net.cpp:84] Creating Layer inception_5a/5x5_reduce
I1219 15:43:03.377349 31962 net.cpp:380] inception_5a/5x5_reduce <- pool4/3x3_s2_pool4/3x3_s2_0_split_2
I1219 15:43:03.377362 31962 net.cpp:338] inception_5a/5x5_reduce -> inception_5a/5x5_reduce
I1219 15:43:03.377373 31962 net.cpp:113] Setting up inception_5a/5x5_reduce
I1219 15:43:03.378237 31962 net.cpp:120] Top shape: 50 32 7 7 (78400)
I1219 15:43:03.378255 31962 layer_factory.hpp:74] Creating layer inception_5a/relu_5x5_reduce
I1219 15:43:03.378265 31962 net.cpp:84] Creating Layer inception_5a/relu_5x5_reduce
I1219 15:43:03.378273 31962 net.cpp:380] inception_5a/relu_5x5_reduce <- inception_5a/5x5_reduce
I1219 15:43:03.378283 31962 net.cpp:327] inception_5a/relu_5x5_reduce -> inception_5a/5x5_reduce (in-place)
I1219 15:43:03.378294 31962 net.cpp:113] Setting up inception_5a/relu_5x5_reduce
I1219 15:43:03.378595 31962 net.cpp:120] Top shape: 50 32 7 7 (78400)
I1219 15:43:03.378609 31962 layer_factory.hpp:74] Creating layer inception_5a/5x5
I1219 15:43:03.378623 31962 net.cpp:84] Creating Layer inception_5a/5x5
I1219 15:43:03.378633 31962 net.cpp:380] inception_5a/5x5 <- inception_5a/5x5_reduce
I1219 15:43:03.378645 31962 net.cpp:338] inception_5a/5x5 -> inception_5a/5x5
I1219 15:43:03.378657 31962 net.cpp:113] Setting up inception_5a/5x5
I1219 15:43:03.380496 31962 net.cpp:120] Top shape: 50 128 7 7 (313600)
I1219 15:43:03.380517 31962 layer_factory.hpp:74] Creating layer inception_5a/relu_5x5
I1219 15:43:03.380529 31962 net.cpp:84] Creating Layer inception_5a/relu_5x5
I1219 15:43:03.380537 31962 net.cpp:380] inception_5a/relu_5x5 <- inception_5a/5x5
I1219 15:43:03.380547 31962 net.cpp:327] inception_5a/relu_5x5 -> inception_5a/5x5 (in-place)
I1219 15:43:03.380556 31962 net.cpp:113] Setting up inception_5a/relu_5x5
I1219 15:43:03.380659 31962 net.cpp:120] Top shape: 50 128 7 7 (313600)
I1219 15:43:03.380669 31962 layer_factory.hpp:74] Creating layer inception_5a/pool
I1219 15:43:03.380676 31962 layer_factory.cpp:56] CUDNN does not support padding or multiple tops. Using Caffe's own pooling layer.
I1219 15:43:03.380686 31962 net.cpp:84] Creating Layer inception_5a/pool
I1219 15:43:03.380694 31962 net.cpp:380] inception_5a/pool <- pool4/3x3_s2_pool4/3x3_s2_0_split_3
I1219 15:43:03.380704 31962 net.cpp:338] inception_5a/pool -> inception_5a/pool
I1219 15:43:03.380723 31962 net.cpp:113] Setting up inception_5a/pool
I1219 15:43:03.380746 31962 net.cpp:120] Top shape: 50 832 7 7 (2038400)
I1219 15:43:03.380753 31962 layer_factory.hpp:74] Creating layer inception_5a/pool_proj
I1219 15:43:03.380767 31962 net.cpp:84] Creating Layer inception_5a/pool_proj
I1219 15:43:03.380775 31962 net.cpp:380] inception_5a/pool_proj <- inception_5a/pool
I1219 15:43:03.380787 31962 net.cpp:338] inception_5a/pool_proj -> inception_5a/pool_proj
I1219 15:43:03.380800 31962 net.cpp:113] Setting up inception_5a/pool_proj
I1219 15:43:03.382675 31962 net.cpp:120] Top shape: 50 128 7 7 (313600)
I1219 15:43:03.382696 31962 layer_factory.hpp:74] Creating layer inception_5a/relu_pool_proj
I1219 15:43:03.382709 31962 net.cpp:84] Creating Layer inception_5a/relu_pool_proj
I1219 15:43:03.382717 31962 net.cpp:380] inception_5a/relu_pool_proj <- inception_5a/pool_proj
I1219 15:43:03.382727 31962 net.cpp:327] inception_5a/relu_pool_proj -> inception_5a/pool_proj (in-place)
I1219 15:43:03.382738 31962 net.cpp:113] Setting up inception_5a/relu_pool_proj
I1219 15:43:03.382839 31962 net.cpp:120] Top shape: 50 128 7 7 (313600)
I1219 15:43:03.382849 31962 layer_factory.hpp:74] Creating layer inception_5a/output
I1219 15:43:03.382861 31962 net.cpp:84] Creating Layer inception_5a/output
I1219 15:43:03.382869 31962 net.cpp:380] inception_5a/output <- inception_5a/1x1
I1219 15:43:03.382877 31962 net.cpp:380] inception_5a/output <- inception_5a/3x3
I1219 15:43:03.382884 31962 net.cpp:380] inception_5a/output <- inception_5a/5x5
I1219 15:43:03.382892 31962 net.cpp:380] inception_5a/output <- inception_5a/pool_proj
I1219 15:43:03.382900 31962 net.cpp:338] inception_5a/output -> inception_5a/output
I1219 15:43:03.382911 31962 net.cpp:113] Setting up inception_5a/output
I1219 15:43:03.382923 31962 net.cpp:120] Top shape: 50 832 7 7 (2038400)
I1219 15:43:03.382930 31962 layer_factory.hpp:74] Creating layer inception_5a/output_inception_5a/output_0_split
I1219 15:43:03.382941 31962 net.cpp:84] Creating Layer inception_5a/output_inception_5a/output_0_split
I1219 15:43:03.382951 31962 net.cpp:380] inception_5a/output_inception_5a/output_0_split <- inception_5a/output
I1219 15:43:03.382961 31962 net.cpp:338] inception_5a/output_inception_5a/output_0_split -> inception_5a/output_inception_5a/output_0_split_0
I1219 15:43:03.382972 31962 net.cpp:338] inception_5a/output_inception_5a/output_0_split -> inception_5a/output_inception_5a/output_0_split_1
I1219 15:43:03.382983 31962 net.cpp:338] inception_5a/output_inception_5a/output_0_split -> inception_5a/output_inception_5a/output_0_split_2
I1219 15:43:03.382993 31962 net.cpp:338] inception_5a/output_inception_5a/output_0_split -> inception_5a/output_inception_5a/output_0_split_3
I1219 15:43:03.383002 31962 net.cpp:113] Setting up inception_5a/output_inception_5a/output_0_split
I1219 15:43:03.383014 31962 net.cpp:120] Top shape: 50 832 7 7 (2038400)
I1219 15:43:03.383021 31962 net.cpp:120] Top shape: 50 832 7 7 (2038400)
I1219 15:43:03.383030 31962 net.cpp:120] Top shape: 50 832 7 7 (2038400)
I1219 15:43:03.383038 31962 net.cpp:120] Top shape: 50 832 7 7 (2038400)
I1219 15:43:03.383044 31962 layer_factory.hpp:74] Creating layer inception_5b/1x1
I1219 15:43:03.383059 31962 net.cpp:84] Creating Layer inception_5b/1x1
I1219 15:43:03.383065 31962 net.cpp:380] inception_5b/1x1 <- inception_5a/output_inception_5a/output_0_split_0
I1219 15:43:03.383077 31962 net.cpp:338] inception_5b/1x1 -> inception_5b/1x1
I1219 15:43:03.383087 31962 net.cpp:113] Setting up inception_5b/1x1
I1219 15:43:03.389171 31962 net.cpp:120] Top shape: 50 384 7 7 (940800)
I1219 15:43:03.389194 31962 layer_factory.hpp:74] Creating layer inception_5b/relu_1x1
I1219 15:43:03.389209 31962 net.cpp:84] Creating Layer inception_5b/relu_1x1
I1219 15:43:03.389217 31962 net.cpp:380] inception_5b/relu_1x1 <- inception_5b/1x1
I1219 15:43:03.389227 31962 net.cpp:327] inception_5b/relu_1x1 -> inception_5b/1x1 (in-place)
I1219 15:43:03.389238 31962 net.cpp:113] Setting up inception_5b/relu_1x1
I1219 15:43:03.389348 31962 net.cpp:120] Top shape: 50 384 7 7 (940800)
I1219 15:43:03.389367 31962 layer_factory.hpp:74] Creating layer inception_5b/3x3_reduce
I1219 15:43:03.389385 31962 net.cpp:84] Creating Layer inception_5b/3x3_reduce
I1219 15:43:03.389394 31962 net.cpp:380] inception_5b/3x3_reduce <- inception_5a/output_inception_5a/output_0_split_1
I1219 15:43:03.389405 31962 net.cpp:338] inception_5b/3x3_reduce -> inception_5b/3x3_reduce
I1219 15:43:03.389425 31962 net.cpp:113] Setting up inception_5b/3x3_reduce
I1219 15:43:03.391963 31962 net.cpp:120] Top shape: 50 192 7 7 (470400)
I1219 15:43:03.391983 31962 layer_factory.hpp:74] Creating layer inception_5b/relu_3x3_reduce
I1219 15:43:03.392002 31962 net.cpp:84] Creating Layer inception_5b/relu_3x3_reduce
I1219 15:43:03.392024 31962 net.cpp:380] inception_5b/relu_3x3_reduce <- inception_5b/3x3_reduce
I1219 15:43:03.392038 31962 net.cpp:327] inception_5b/relu_3x3_reduce -> inception_5b/3x3_reduce (in-place)
I1219 15:43:03.392050 31962 net.cpp:113] Setting up inception_5b/relu_3x3_reduce
I1219 15:43:03.392357 31962 net.cpp:120] Top shape: 50 192 7 7 (470400)
I1219 15:43:03.392374 31962 layer_factory.hpp:74] Creating layer inception_5b/3x3
I1219 15:43:03.392388 31962 net.cpp:84] Creating Layer inception_5b/3x3
I1219 15:43:03.392398 31962 net.cpp:380] inception_5b/3x3 <- inception_5b/3x3_reduce
I1219 15:43:03.392410 31962 net.cpp:338] inception_5b/3x3 -> inception_5b/3x3
I1219 15:43:03.392422 31962 net.cpp:113] Setting up inception_5b/3x3
I1219 15:43:03.401330 31962 net.cpp:120] Top shape: 50 384 7 7 (940800)
I1219 15:43:03.401355 31962 layer_factory.hpp:74] Creating layer inception_5b/relu_3x3
I1219 15:43:03.401366 31962 net.cpp:84] Creating Layer inception_5b/relu_3x3
I1219 15:43:03.401374 31962 net.cpp:380] inception_5b/relu_3x3 <- inception_5b/3x3
I1219 15:43:03.401387 31962 net.cpp:327] inception_5b/relu_3x3 -> inception_5b/3x3 (in-place)
I1219 15:43:03.401398 31962 net.cpp:113] Setting up inception_5b/relu_3x3
I1219 15:43:03.401495 31962 net.cpp:120] Top shape: 50 384 7 7 (940800)
I1219 15:43:03.401504 31962 layer_factory.hpp:74] Creating layer inception_5b/5x5_reduce
I1219 15:43:03.401518 31962 net.cpp:84] Creating Layer inception_5b/5x5_reduce
I1219 15:43:03.401527 31962 net.cpp:380] inception_5b/5x5_reduce <- inception_5a/output_inception_5a/output_0_split_2
I1219 15:43:03.401537 31962 net.cpp:338] inception_5b/5x5_reduce -> inception_5b/5x5_reduce
I1219 15:43:03.401549 31962 net.cpp:113] Setting up inception_5b/5x5_reduce
I1219 15:43:03.402585 31962 net.cpp:120] Top shape: 50 48 7 7 (117600)
I1219 15:43:03.402604 31962 layer_factory.hpp:74] Creating layer inception_5b/relu_5x5_reduce
I1219 15:43:03.402616 31962 net.cpp:84] Creating Layer inception_5b/relu_5x5_reduce
I1219 15:43:03.402626 31962 net.cpp:380] inception_5b/relu_5x5_reduce <- inception_5b/5x5_reduce
I1219 15:43:03.402636 31962 net.cpp:327] inception_5b/relu_5x5_reduce -> inception_5b/5x5_reduce (in-place)
I1219 15:43:03.402645 31962 net.cpp:113] Setting up inception_5b/relu_5x5_reduce
I1219 15:43:03.402791 31962 net.cpp:120] Top shape: 50 48 7 7 (117600)
I1219 15:43:03.402801 31962 layer_factory.hpp:74] Creating layer inception_5b/5x5
I1219 15:43:03.402814 31962 net.cpp:84] Creating Layer inception_5b/5x5
I1219 15:43:03.402822 31962 net.cpp:380] inception_5b/5x5 <- inception_5b/5x5_reduce
I1219 15:43:03.402833 31962 net.cpp:338] inception_5b/5x5 -> inception_5b/5x5
I1219 15:43:03.402845 31962 net.cpp:113] Setting up inception_5b/5x5
I1219 15:43:03.405329 31962 net.cpp:120] Top shape: 50 128 7 7 (313600)
I1219 15:43:03.405351 31962 layer_factory.hpp:74] Creating layer inception_5b/relu_5x5
I1219 15:43:03.405361 31962 net.cpp:84] Creating Layer inception_5b/relu_5x5
I1219 15:43:03.405369 31962 net.cpp:380] inception_5b/relu_5x5 <- inception_5b/5x5
I1219 15:43:03.405380 31962 net.cpp:327] inception_5b/relu_5x5 -> inception_5b/5x5 (in-place)
I1219 15:43:03.405390 31962 net.cpp:113] Setting up inception_5b/relu_5x5
I1219 15:43:03.410693 31962 net.cpp:120] Top shape: 50 128 7 7 (313600)
I1219 15:43:03.410724 31962 layer_factory.hpp:74] Creating layer inception_5b/pool
I1219 15:43:03.410747 31962 layer_factory.cpp:56] CUDNN does not support padding or multiple tops. Using Caffe's own pooling layer.
I1219 15:43:03.410760 31962 net.cpp:84] Creating Layer inception_5b/pool
I1219 15:43:03.410770 31962 net.cpp:380] inception_5b/pool <- inception_5a/output_inception_5a/output_0_split_3
I1219 15:43:03.410781 31962 net.cpp:338] inception_5b/pool -> inception_5b/pool
I1219 15:43:03.410795 31962 net.cpp:113] Setting up inception_5b/pool
I1219 15:43:03.410812 31962 net.cpp:120] Top shape: 50 832 7 7 (2038400)
I1219 15:43:03.410820 31962 layer_factory.hpp:74] Creating layer inception_5b/pool_proj
I1219 15:43:03.410832 31962 net.cpp:84] Creating Layer inception_5b/pool_proj
I1219 15:43:03.410840 31962 net.cpp:380] inception_5b/pool_proj <- inception_5b/pool
I1219 15:43:03.410853 31962 net.cpp:338] inception_5b/pool_proj -> inception_5b/pool_proj
I1219 15:43:03.410866 31962 net.cpp:113] Setting up inception_5b/pool_proj
I1219 15:43:03.412741 31962 net.cpp:120] Top shape: 50 128 7 7 (313600)
I1219 15:43:03.412761 31962 layer_factory.hpp:74] Creating layer inception_5b/relu_pool_proj
I1219 15:43:03.412773 31962 net.cpp:84] Creating Layer inception_5b/relu_pool_proj
I1219 15:43:03.412782 31962 net.cpp:380] inception_5b/relu_pool_proj <- inception_5b/pool_proj
I1219 15:43:03.412792 31962 net.cpp:327] inception_5b/relu_pool_proj -> inception_5b/pool_proj (in-place)
I1219 15:43:03.412803 31962 net.cpp:113] Setting up inception_5b/relu_pool_proj
I1219 15:43:03.412905 31962 net.cpp:120] Top shape: 50 128 7 7 (313600)
I1219 15:43:03.412914 31962 layer_factory.hpp:74] Creating layer inception_5b/output
I1219 15:43:03.412926 31962 net.cpp:84] Creating Layer inception_5b/output
I1219 15:43:03.412935 31962 net.cpp:380] inception_5b/output <- inception_5b/1x1
I1219 15:43:03.412945 31962 net.cpp:380] inception_5b/output <- inception_5b/3x3
I1219 15:43:03.412952 31962 net.cpp:380] inception_5b/output <- inception_5b/5x5
I1219 15:43:03.412961 31962 net.cpp:380] inception_5b/output <- inception_5b/pool_proj
I1219 15:43:03.412971 31962 net.cpp:338] inception_5b/output -> inception_5b/output
I1219 15:43:03.412981 31962 net.cpp:113] Setting up inception_5b/output
I1219 15:43:03.412993 31962 net.cpp:120] Top shape: 50 1024 7 7 (2508800)
I1219 15:43:03.413000 31962 layer_factory.hpp:74] Creating layer pool5/7x7_s1
I1219 15:43:03.413009 31962 net.cpp:84] Creating Layer pool5/7x7_s1
I1219 15:43:03.413017 31962 net.cpp:380] pool5/7x7_s1 <- inception_5b/output
I1219 15:43:03.413029 31962 net.cpp:338] pool5/7x7_s1 -> pool5/7x7_s1
I1219 15:43:03.413040 31962 net.cpp:113] Setting up pool5/7x7_s1
I1219 15:43:03.413156 31962 net.cpp:120] Top shape: 50 1024 1 1 (51200)
I1219 15:43:03.413167 31962 layer_factory.hpp:74] Creating layer pool5/drop_7x7_s1
I1219 15:43:03.413178 31962 net.cpp:84] Creating Layer pool5/drop_7x7_s1
I1219 15:43:03.413185 31962 net.cpp:380] pool5/drop_7x7_s1 <- pool5/7x7_s1
I1219 15:43:03.413195 31962 net.cpp:327] pool5/drop_7x7_s1 -> pool5/7x7_s1 (in-place)
I1219 15:43:03.413205 31962 net.cpp:113] Setting up pool5/drop_7x7_s1
I1219 15:43:03.413218 31962 net.cpp:120] Top shape: 50 1024 1 1 (51200)
I1219 15:43:03.413224 31962 layer_factory.hpp:74] Creating layer loss3/classifier_kaggle
I1219 15:43:03.413239 31962 net.cpp:84] Creating Layer loss3/classifier_kaggle
I1219 15:43:03.413246 31962 net.cpp:380] loss3/classifier_kaggle <- pool5/7x7_s1
I1219 15:43:03.413259 31962 net.cpp:338] loss3/classifier_kaggle -> loss3/classifier_kaggle
I1219 15:43:03.413271 31962 net.cpp:113] Setting up loss3/classifier_kaggle
I1219 15:43:03.418982 31962 net.cpp:120] Top shape: 50 447 (22350)
I1219 15:43:03.418998 31962 layer_factory.hpp:74] Creating layer loss3/classifier_kaggle_loss3/classifier_kaggle_0_split
I1219 15:43:03.419009 31962 net.cpp:84] Creating Layer loss3/classifier_kaggle_loss3/classifier_kaggle_0_split
I1219 15:43:03.419016 31962 net.cpp:380] loss3/classifier_kaggle_loss3/classifier_kaggle_0_split <- loss3/classifier_kaggle
I1219 15:43:03.419035 31962 net.cpp:338] loss3/classifier_kaggle_loss3/classifier_kaggle_0_split -> loss3/classifier_kaggle_loss3/classifier_kaggle_0_split_0
I1219 15:43:03.419057 31962 net.cpp:338] loss3/classifier_kaggle_loss3/classifier_kaggle_0_split -> loss3/classifier_kaggle_loss3/classifier_kaggle_0_split_1
I1219 15:43:03.419069 31962 net.cpp:338] loss3/classifier_kaggle_loss3/classifier_kaggle_0_split -> loss3/classifier_kaggle_loss3/classifier_kaggle_0_split_2
I1219 15:43:03.419078 31962 net.cpp:113] Setting up loss3/classifier_kaggle_loss3/classifier_kaggle_0_split
I1219 15:43:03.419090 31962 net.cpp:120] Top shape: 50 447 (22350)
I1219 15:43:03.419098 31962 net.cpp:120] Top shape: 50 447 (22350)
I1219 15:43:03.419106 31962 net.cpp:120] Top shape: 50 447 (22350)
I1219 15:43:03.419113 31962 layer_factory.hpp:74] Creating layer loss3/loss3
I1219 15:43:03.419123 31962 net.cpp:84] Creating Layer loss3/loss3
I1219 15:43:03.419131 31962 net.cpp:380] loss3/loss3 <- loss3/classifier_kaggle_loss3/classifier_kaggle_0_split_0
I1219 15:43:03.419139 31962 net.cpp:380] loss3/loss3 <- label_data_1_split_6
I1219 15:43:03.419150 31962 net.cpp:338] loss3/loss3 -> loss3/loss3
…
