…
I0103 19:48:15.522642  9752 net.cpp:257] The NetState phase (0) differed from the phase (1) specified by a rule in layer loss3/top-5
I0103 19:48:15.524001  9752 net.cpp:42] Initializing net from parameters: 
name: "MYNET"
state {
  phase: TRAIN
}
layer {
  name: "data"
  type: "ImageData"
  top: "data"
  top: "label"
  include {
    phase: TRAIN
  }
  transform_param {
    mirror: false
    crop_size: 224
    mean_value: 129
    mean_value: 129
    mean_value: 129
  }
  image_data_param {
    source: "/home/coldmanck/kaggle/label_train_full_resize_rotated.txt"
    batch_size: 80
    shuffle: true
  }
}
layer {
  name: "conv1/7x7_s2"
  type: "Convolution"
  bottom: "data"
  top: "conv1/7x7_s2"
  param {
    lr_mult: 1
    decay_mult: 1
  }
  param {
    lr_mult: 2
    decay_mult: 0
  }
  convolution_param {
    num_output: 64
    pad: 3
    kernel_size: 7
    stride: 2
    weight_filler {
      type: "xavier"
    }
    bias_filler {
      type: "constant"
      value: 0.2
    }
  }
}
layer {
  name: "conv1/relu_7x7"
  type: "ReLU"
  bottom: "conv1/7x7_s2"
  top: "conv1/7x7_s2"
}
layer {
  name: "pool1/3x3_s2"
  type: "Pooling"
  bottom: "conv1/7x7_s2"
  top: "pool1/3x3_s2"
  pooling_param {
    pool: MAX
    kernel_size: 3
    stride: 2
  }
}
layer {
  name: "pool1/norm1"
  type: "LRN"
  bottom: "pool1/3x3_s2"
  top: "pool1/norm1"
  lrn_param {
    local_size: 5
    alpha: 0.0001
    beta: 0.75
  }
}
layer {
  name: "conv2/3x3_reduce"
  type: "Convolution"
  bottom: "pool1/norm1"
  top: "conv2/3x3_reduce"
  param {
    lr_mult: 1
    decay_mult: 1
  }
  param {
    lr_mult: 2
    decay_mult: 0
  }
  convolution_param {
    num_output: 64
    kernel_size: 1
    weight_filler {
      type: "xavier"
    }
    bias_filler {
      type: "constant"
      value: 0.2
    }
  }
}
layer {
  name: "conv2/relu_3x3_reduce"
  type: "ReLU"
  bottom: "conv2/3x3_reduce"
  top: "conv2/3x3_reduce"
}
layer {
  name: "conv2/3x3"
  type: "Convolution"
  bottom: "conv2/3x3_reduce"
  top: "conv2/3x3"
  param {
    lr_mult: 1
    decay_mult: 1
  }
  param {
    lr_mult: 2
    decay_mult: 0
  }
  convolution_param {
    num_output: 192
    pad: 1
    kernel_size: 3
    weight_filler {
      type: "xavier"
    }
    bias_filler {
      type: "constant"
      value: 0.2
    }
  }
}
layer {
  name: "conv2/relu_3x3"
  type: "ReLU"
  bottom: "conv2/3x3"
  top: "conv2/3x3"
}
layer {
  name: "conv2/norm2"
  type: "LRN"
  bottom: "conv2/3x3"
  top: "conv2/norm2"
  lrn_param {
    local_size: 5
    alpha: 0.0001
    beta: 0.75
  }
}
layer {
  name: "pool2/3x3_s2"
  type: "Pooling"
  bottom: "conv2/norm2"
  top: "pool2/3x3_s2"
  pooling_param {
    pool: MAX
    kernel_size: 3
    stride: 2
  }
}
layer {
  name: "inception_3a/1x1"
  type: "Convolution"
  bottom: "pool2/3x3_s2"
  top: "inception_3a/1x1"
  param {
    lr_mult: 1
    decay_mult: 1
  }
  param {
    lr_mult: 2
    decay_mult: 0
  }
  convolution_param {
    num_output: 64
    kernel_size: 1
    weight_filler {
      type: "xavier"
    }
    bias_filler {
      type: "constant"
      value: 0.2
    }
  }
}
layer {
  name: "inception_3a/relu_1x1"
  type: "ReLU"
  bottom: "inception_3a/1x1"
  top: "inception_3a/1x1"
}
layer {
  name: "inception_3a/3x3_reduce"
  type: "Convolution"
  bottom: "pool2/3x3_s2"
  top: "inception_3a/3x3_reduce"
  param {
    lr_mult: 1
    decay_mult: 1
  }
  param {
    lr_mult: 2
    decay_mult: 0
  }
  convolution_param {
    num_output: 96
    kernel_size: 1
    weight_filler {
      type: "xavier"
    }
    bias_filler {
      type: "constant"
      value: 0.2
    }
  }
}
layer {
  name: "inception_3a/relu_3x3_reduce"
  type: "ReLU"
  bottom: "inception_3a/3x3_reduce"
  top: "inception_3a/3x3_reduce"
}
layer {
  name: "inception_3a/3x3"
  type: "Convolution"
  bottom: "inception_3a/3x3_reduce"
  top: "inception_3a/3x3"
  param {
    lr_mult: 1
    decay_mult: 1
  }
  param {
    lr_mult: 2
    decay_mult: 0
  }
  convolution_param {
    num_output: 128
    pad: 1
    kernel_size: 3
    weight_filler {
      type: "xavier"
    }
    bias_filler {
      type: "constant"
      value: 0.2
    }
  }
}
layer {
  name: "inception_3a/relu_3x3"
  type: "ReLU"
  bottom: "inception_3a/3x3"
  top: "inception_3a/3x3"
}
layer {
  name: "inception_3a/5x5_reduce"
  type: "Convolution"
  bottom: "pool2/3x3_s2"
  top: "inception_3a/5x5_reduce"
  param {
    lr_mult: 1
    decay_mult: 1
  }
  param {
    lr_mult: 2
    decay_mult: 0
  }
  convolution_param {
    num_output: 16
    kernel_size: 1
    weight_filler {
      type: "xavier"
    }
    bias_filler {
      type: "constant"
      value: 0.2
    }
  }
}
layer {
  name: "inception_3a/relu_5x5_reduce"
  type: "ReLU"
  bottom: "inception_3a/5x5_reduce"
  top: "inception_3a/5x5_reduce"
}
layer {
  name: "inception_3a/5x5"
  type: "Convolution"
  bottom: "inception_3a/5x5_reduce"
  top: "inception_3a/5x5"
  param {
    lr_mult: 1
    decay_mult: 1
  }
  param {
    lr_mult: 2
    decay_mult: 0
  }
  convolution_param {
    num_output: 32
    pad: 2
    kernel_size: 5
    weight_filler {
      type: "xavier"
    }
    bias_filler {
      type: "constant"
      value: 0.2
    }
  }
}
layer {
  name: "inception_3a/relu_5x5"
  type: "ReLU"
  bottom: "inception_3a/5x5"
  top: "inception_3a/5x5"
}
layer {
  name: "inception_3a/pool"
  type: "Pooling"
  bottom: "pool2/3x3_s2"
  top: "inception_3a/pool"
  pooling_param {
    pool: MAX
    kernel_size: 3
    stride: 1
    pad: 1
  }
}
layer {
  name: "inception_3a/pool_proj"
  type: "Convolution"
  bottom: "inception_3a/pool"
  top: "inception_3a/pool_proj"
  param {
    lr_mult: 1
    decay_mult: 1
  }
  param {
    lr_mult: 2
    decay_mult: 0
  }
  convolution_param {
    num_output: 32
    kernel_size: 1
    weight_filler {
      type: "xavier"
    }
    bias_filler {
      type: "constant"
      value: 0.2
    }
  }
}
layer {
  name: "inception_3a/relu_pool_proj"
  type: "ReLU"
  bottom: "inception_3a/pool_proj"
  top: "inception_3a/pool_proj"
}
layer {
  name: "inception_3a/output"
  type: "Concat"
  bottom: "inception_3a/1x1"
  bottom: "inception_3a/3x3"
  bottom: "inception_3a/5x5"
  bottom: "inception_3a/pool_proj"
  top: "inception_3a/output"
}
layer {
  name: "inception_3b/1x1"
  type: "Convolution"
  bottom: "inception_3a/output"
  top: "inception_3b/1x1"
  param {
    lr_mult: 1
    decay_mult: 1
  }
  param {
    lr_mult: 2
    decay_mult: 0
  }
  convolution_param {
    num_output: 128
    kernel_size: 1
    weight_filler {
      type: "xavier"
    }
    bias_filler {
      type: "constant"
      value: 0.2
    }
  }
}
layer {
  name: "inception_3b/relu_1x1"
  type: "ReLU"
  bottom: "inception_3b/1x1"
  top: "inception_3b/1x1"
}
layer {
  name: "inception_3b/3x3_reduce"
  type: "Convolution"
  bottom: "inception_3a/output"
  top: "inception_3b/3x3_reduce"
  param {
    lr_mult: 1
    decay_mult: 1
  }
  param {
    lr_mult: 2
    decay_mult: 0
  }
  convolution_param {
    num_output: 128
    kernel_size: 1
    weight_filler {
      type: "xavier"
    }
    bias_filler {
      type: "constant"
      value: 0.2
    }
  }
}
layer {
  name: "inception_3b/relu_3x3_reduce"
  type: "ReLU"
  bottom: "inception_3b/3x3_reduce"
  top: "inception_3b/3x3_reduce"
}
layer {
  name: "inception_3b/3x3"
  type: "Convolution"
  bottom: "inception_3b/3x3_reduce"
  top: "inception_3b/3x3"
  param {
    lr_mult: 1
    decay_mult: 1
  }
  param {
    lr_mult: 2
    decay_mult: 0
  }
  convolution_param {
    num_output: 192
    pad: 1
    kernel_size: 3
    weight_filler {
      type: "xavier"
    }
    bias_filler {
      type: "constant"
      value: 0.2
    }
  }
}
layer {
  name: "inception_3b/relu_3x3"
  type: "ReLU"
  bottom: "inception_3b/3x3"
  top: "inception_3b/3x3"
}
layer {
  name: "inception_3b/5x5_reduce"
  type: "Convolution"
  bottom: "inception_3a/output"
  top: "inception_3b/5x5_reduce"
  param {
    lr_mult: 1
    decay_mult: 1
  }
  param {
    lr_mult: 2
    decay_mult: 0
  }
  convolution_param {
    num_output: 32
    kernel_size: 1
    weight_filler {
      type: "xavier"
    }
    bias_filler {
      type: "constant"
      value: 0.2
    }
  }
}
layer {
  name: "inception_3b/relu_5x5_reduce"
  type: "ReLU"
  bottom: "inception_3b/5x5_reduce"
  top: "inception_3b/5x5_reduce"
}
layer {
  name: "inception_3b/5x5"
  type: "Convolution"
  bottom: "inception_3b/5x5_reduce"
  top: "inception_3b/5x5"
  param {
    lr_mult: 1
    decay_mult: 1
  }
  param {
    lr_mult: 2
    decay_mult: 0
  }
  convolution_param {
    num_output: 96
    pad: 2
    kernel_size: 5
    weight_filler {
      type: "xavier"
    }
    bias_filler {
      type: "constant"
      value: 0.2
    }
  }
}
layer {
  name: "inception_3b/relu_5x5"
  type: "ReLU"
  bottom: "inception_3b/5x5"
  top: "inception_3b/5x5"
}
layer {
  name: "inception_3b/pool"
  type: "Pooling"
  bottom: "inception_3a/output"
  top: "inception_3b/pool"
  pooling_param {
    pool: MAX
    kernel_size: 3
    stride: 1
    pad: 1
  }
}
layer {
  name: "inception_3b/pool_proj"
  type: "Convolution"
  bottom: "inception_3b/pool"
  top: "inception_3b/pool_proj"
  param {
    lr_mult: 1
    decay_mult: 1
  }
  param {
    lr_mult: 2
    decay_mult: 0
  }
  convolution_param {
    num_output: 64
    kernel_size: 1
    weight_filler {
      type: "xavier"
    }
    bias_filler {
      type: "constant"
      value: 0.2
    }
  }
}
layer {
  name: "inception_3b/relu_pool_proj"
  type: "ReLU"
  bottom: "inception_3b/pool_proj"
  top: "inception_3b/pool_proj"
}
layer {
  name: "inception_3b/output"
  type: "Concat"
  bottom: "inception_3b/1x1"
  bottom: "inception_3b/3x3"
  bottom: "inception_3b/5x5"
  bottom: "inception_3b/pool_proj"
  top: "inception_3b/output"
}
layer {
  name: "pool3/3x3_s2"
  type: "Pooling"
  bottom: "inception_3b/output"
  top: "pool3/3x3_s2"
  pooling_param {
    pool: MAX
    kernel_size: 3
    stride: 2
  }
}
layer {
  name: "inception_4a/1x1"
  type: "Convolution"
  bottom: "pool3/3x3_s2"
  top: "inception_4a/1x1"
  param {
    lr_mult: 1
    decay_mult: 1
  }
  param {
    lr_mult: 2
    decay_mult: 0
  }
  convolution_param {
    num_output: 192
    kernel_size: 1
    weight_filler {
      type: "xavier"
    }
    bias_filler {
      type: "constant"
      value: 0.2
    }
  }
}
layer {
  name: "inception_4a/relu_1x1"
  type: "ReLU"
  bottom: "inception_4a/1x1"
  top: "inception_4a/1x1"
}
layer {
  name: "inception_4a/3x3_reduce"
  type: "Convolution"
  bottom: "pool3/3x3_s2"
  top: "inception_4a/3x3_reduce"
  param {
    lr_mult: 1
    decay_mult: 1
  }
  param {
    lr_mult: 2
    decay_mult: 0
  }
  convolution_param {
    num_output: 96
    kernel_size: 1
    weight_filler {
      type: "xavier"
    }
    bias_filler {
      type: "constant"
      value: 0.2
    }
  }
}
layer {
  name: "inception_4a/relu_3x3_reduce"
  type: "ReLU"
  bottom: "inception_4a/3x3_reduce"
  top: "inception_4a/3x3_reduce"
}
layer {
  name: "inception_4a/3x3"
  type: "Convolution"
  bottom: "inception_4a/3x3_reduce"
  top: "inception_4a/3x3"
  param {
    lr_mult: 1
    decay_mult: 1
  }
  param {
    lr_mult: 2
    decay_mult: 0
  }
  convolution_param {
    num_output: 208
    pad: 1
    kernel_size: 3
    weight_filler {
      type: "xavier"
    }
    bias_filler {
      type: "constant"
      value: 0.2
    }
  }
}
layer {
  name: "inception_4a/relu_3x3"
  type: "ReLU"
  bottom: "inception_4a/3x3"
  top: "inception_4a/3x3"
}
layer {
  name: "inception_4a/5x5_reduce"
  type: "Convolution"
  bottom: "pool3/3x3_s2"
  top: "inception_4a/5x5_reduce"
  param {
    lr_mult: 1
    decay_mult: 1
  }
  param {
    lr_mult: 2
    decay_mult: 0
  }
  convolution_param {
    num_output: 16
    kernel_size: 1
    weight_filler {
      type: "xavier"
    }
    bias_filler {
      type: "constant"
      value: 0.2
    }
  }
}
layer {
  name: "inception_4a/relu_5x5_reduce"
  type: "ReLU"
  bottom: "inception_4a/5x5_reduce"
  top: "inception_4a/5x5_reduce"
}
layer {
  name: "inception_4a/5x5"
  type: "Convolution"
  bottom: "inception_4a/5x5_reduce"
  top: "inception_4a/5x5"
  param {
    lr_mult: 1
    decay_mult: 1
  }
  param {
    lr_mult: 2
    decay_mult: 0
  }
  convolution_param {
    num_output: 48
    pad: 2
    kernel_size: 5
    weight_filler {
      type: "xavier"
    }
    bias_filler {
      type: "constant"
      value: 0.2
    }
  }
}
layer {
  name: "inception_4a/relu_5x5"
  type: "ReLU"
  bottom: "inception_4a/5x5"
  top: "inception_4a/5x5"
}
layer {
  name: "inception_4a/pool"
  type: "Pooling"
  bottom: "pool3/3x3_s2"
  top: "inception_4a/pool"
  pooling_param {
    pool: MAX
    kernel_size: 3
    stride: 1
    pad: 1
  }
}
layer {
  name: "inception_4a/pool_proj"
  type: "Convolution"
  bottom: "inception_4a/pool"
  top: "inception_4a/pool_proj"
  param {
    lr_mult: 1
    decay_mult: 1
  }
  param {
    lr_mult: 2
    decay_mult: 0
  }
  convolution_param {
    num_output: 64
    kernel_size: 1
    weight_filler {
      type: "xavier"
    }
    bias_filler {
      type: "constant"
      value: 0.2
    }
  }
}
layer {
  name: "inception_4a/relu_pool_proj"
  type: "ReLU"
  bottom: "inception_4a/pool_proj"
  top: "inception_4a/pool_proj"
}
layer {
  name: "inception_4a/output"
  type: "Concat"
  bottom: "inception_4a/1x1"
  bottom: "inception_4a/3x3"
  bottom: "inception_4a/5x5"
  bottom: "inception_4a/pool_proj"
  top: "inception_4a/output"
}
layer {
  name: "loss1/ave_pool"
  type: "Pooling"
  bottom: "inception_4a/output"
  top: "loss1/ave_pool"
  pooling_param {
    pool: AVE
    kernel_size: 5
    stride: 3
  }
}
layer {
  name: "loss1/conv"
  type: "Convolution"
  bottom: "loss1/ave_pool"
  top: "loss1/conv"
  param {
    lr_mult: 1
    decay_mult: 1
  }
  param {
    lr_mult: 2
    decay_mult: 0
  }
  convolution_param {
    num_output: 128
    kernel_size: 1
    weight_filler {
      type: "xavier"
    }
    bias_filler {
      type: "constant"
      value: 0.2
    }
  }
}
layer {
  name: "loss1/relu_conv"
  type: "ReLU"
  bottom: "loss1/conv"
  top: "loss1/conv"
}
layer {
  name: "loss1/fc"
  type: "InnerProduct"
  bottom: "loss1/conv"
  top: "loss1/fc"
  param {
    lr_mult: 1
    decay_mult: 1
  }
  param {
    lr_mult: 2
    decay_mult: 0
  }
  inner_product_param {
    num_output: 1024
    weight_filler {
      type: "xavier"
    }
    bias_filler {
      type: "constant"
      value: 0.2
    }
  }
}
layer {
  name: "loss1/relu_fc"
  type: "ReLU"
  bottom: "loss1/fc"
  top: "loss1/fc"
}
layer {
  name: "loss1/drop_fc"
  type: "Dropout"
  bottom: "loss1/fc"
  top: "loss1/fc"
  dropout_param {
    dropout_ratio: 0.7
  }
}
layer {
  name: "loss1/classifier_kaggle"
  type: "InnerProduct"
  bottom: "loss1/fc"
  top: "loss1/classifier_kaggle"
  param {
    lr_mult: 1
    decay_mult: 1
  }
  param {
    lr_mult: 2
    decay_mult: 0
  }
  inner_product_param {
    num_output: 447
    weight_filler {
      type: "xavier"
    }
    bias_filler {
      type: "constant"
      value: 0
    }
  }
}
layer {
  name: "loss1/loss"
  type: "SoftmaxWithLoss"
  bottom: "loss1/classifier_kaggle"
  bottom: "label"
  top: "loss1/loss1"
  loss_weight: 0.3
}
layer {
  name: "inception_4b/1x1"
  type: "Convolution"
  bottom: "inception_4a/output"
  top: "inception_4b/1x1"
  param {
    lr_mult: 1
    decay_mult: 1
  }
  param {
    lr_mult: 2
    decay_mult: 0
  }
  convolution_param {
    num_output: 160
    kernel_size: 1
    weight_filler {
      type: "xavier"
    }
    bias_filler {
      type: "constant"
      value: 0.2
    }
  }
}
layer {
  name: "inception_4b/relu_1x1"
  type: "ReLU"
  bottom: "inception_4b/1x1"
  top: "inception_4b/1x1"
}
layer {
  name: "inception_4b/3x3_reduce"
  type: "Convolution"
  bottom: "inception_4a/output"
  top: "inception_4b/3x3_reduce"
  param {
    lr_mult: 1
    decay_mult: 1
  }
  param {
    lr_mult: 2
    decay_mult: 0
  }
  convolution_param {
    num_output: 112
    kernel_size: 1
    weight_filler {
      type: "xavier"
    }
    bias_filler {
      type: "constant"
      value: 0.2
    }
  }
}
layer {
  name: "inception_4b/relu_3x3_reduce"
  type: "ReLU"
  bottom: "inception_4b/3x3_reduce"
  top: "inception_4b/3x3_reduce"
}
layer {
  name: "inception_4b/3x3"
  type: "Convolution"
  bottom: "inception_4b/3x3_reduce"
  top: "inception_4b/3x3"
  param {
    lr_mult: 1
    decay_mult: 1
  }
  param {
    lr_mult: 2
    decay_mult: 0
  }
  convolution_param {
    num_output: 224
    pad: 1
    kernel_size: 3
    weight_filler {
      type: "xavier"
    }
    bias_filler {
      type: "constant"
      value: 0.2
    }
  }
}
layer {
  name: "inception_4b/relu_3x3"
  type: "ReLU"
  bottom: "inception_4b/3x3"
  top: "inception_4b/3x3"
}
layer {
  name: "inception_4b/5x5_reduce"
  type: "Convolution"
  bottom: "inception_4a/output"
  top: "inception_4b/5x5_reduce"
  param {
    lr_mult: 1
    decay_mult: 1
  }
  param {
    lr_mult: 2
    decay_mult: 0
  }
  convolution_param {
    num_output: 24
    kernel_size: 1
    weight_filler {
      type: "xavier"
    }
    bias_filler {
      type: "constant"
      value: 0.2
    }
  }
}
layer {
  name: "inception_4b/relu_5x5_reduce"
  type: "ReLU"
  bottom: "inception_4b/5x5_reduce"
  top: "inception_4b/5x5_reduce"
}
layer {
  name: "inception_4b/5x5"
  type: "Convolution"
  bottom: "inception_4b/5x5_reduce"
  top: "inception_4b/5x5"
  param {
    lr_mult: 1
    decay_mult: 1
  }
  param {
    lr_mult: 2
    decay_mult: 0
  }
  convolution_param {
    num_output: 64
    pad: 2
    kernel_size: 5
    weight_filler {
      type: "xavier"
    }
    bias_filler {
      type: "constant"
      value: 0.2
    }
  }
}
layer {
  name: "inception_4b/relu_5x5"
  type: "ReLU"
  bottom: "inception_4b/5x5"
  top: "inception_4b/5x5"
}
layer {
  name: "inception_4b/pool"
  type: "Pooling"
  bottom: "inception_4a/output"
  top: "inception_4b/pool"
  pooling_param {
    pool: MAX
    kernel_size: 3
    stride: 1
    pad: 1
  }
}
layer {
  name: "inception_4b/pool_proj"
  type: "Convolution"
  bottom: "inception_4b/pool"
  top: "inception_4b/pool_proj"
  param {
    lr_mult: 1
    decay_mult: 1
  }
  param {
    lr_mult: 2
    decay_mult: 0
  }
  convolution_param {
    num_output: 64
    kernel_size: 1
    weight_filler {
      type: "xavier"
    }
    bias_filler {
      type: "constant"
      value: 0.2
    }
  }
}
layer {
  name: "inception_4b/relu_pool_proj"
  type: "ReLU"
  bottom: "inception_4b/pool_proj"
  top: "inception_4b/pool_proj"
}
layer {
  name: "inception_4b/output"
  type: "Concat"
  bottom: "inception_4b/1x1"
  bottom: "inception_4b/3x3"
  bottom: "inception_4b/5x5"
  bottom: "inception_4b/pool_proj"
  top: "inception_4b/output"
}
layer {
  name: "inception_4c/1x1"
  type: "Convolution"
  bottom: "inception_4b/output"
  top: "inception_4c/1x1"
  param {
    lr_mult: 1
    decay_mult: 1
  }
  param {
    lr_mult: 2
    decay_mult: 0
  }
  convolution_param {
    num_output: 128
    kernel_size: 1
    weight_filler {
      type: "xavier"
    }
    bias_filler {
      type: "constant"
      value: 0.2
    }
  }
}
layer {
  name: "inception_4c/relu_1x1"
  type: "ReLU"
  bottom: "inception_4c/1x1"
  top: "inception_4c/1x1"
}
layer {
  name: "inception_4c/3x3_reduce"
  type: "Convolution"
  bottom: "inception_4b/output"
  top: "inception_4c/3x3_reduce"
  param {
    lr_mult: 1
    decay_mult: 1
  }
  param {
    lr_mult: 2
    decay_mult: 0
  }
  convolution_param {
    num_output: 128
    kernel_size: 1
    weight_filler {
      type: "xavier"
    }
    bias_filler {
      type: "constant"
      value: 0.2
    }
  }
}
layer {
  name: "inception_4c/relu_3x3_reduce"
  type: "ReLU"
  bottom: "inception_4c/3x3_reduce"
  top: "inception_4c/3x3_reduce"
}
layer {
  name: "inception_4c/3x3"
  type: "Convolution"
  bottom: "inception_4c/3x3_reduce"
  top: "inception_4c/3x3"
  param {
    lr_mult: 1
    decay_mult: 1
  }
  param {
    lr_mult: 2
    decay_mult: 0
  }
  convolution_param {
    num_output: 256
    pad: 1
    kernel_size: 3
    weight_filler {
      type: "xavier"
    }
    bias_filler {
      type: "constant"
      value: 0.2
    }
  }
}
layer {
  name: "inception_4c/relu_3x3"
  type: "ReLU"
  bottom: "inception_4c/3x3"
  top: "inception_4c/3x3"
}
layer {
  name: "inception_4c/5x5_reduce"
  type: "Convolution"
  bottom: "inception_4b/output"
  top: "inception_4c/5x5_reduce"
  param {
    lr_mult: 1
    decay_mult: 1
  }
  param {
    lr_mult: 2
    decay_mult: 0
  }
  convolution_param {
    num_output: 24
    kernel_size: 1
    weight_filler {
      type: "xavier"
    }
    bias_filler {
      type: "constant"
      value: 0.2
    }
  }
}
layer {
  name: "inception_4c/relu_5x5_reduce"
  type: "ReLU"
  bottom: "inception_4c/5x5_reduce"
  top: "inception_4c/5x5_reduce"
}
layer {
  name: "inception_4c/5x5"
  type: "Convolution"
  bottom: "inception_4c/5x5_reduce"
  top: "inception_4c/5x5"
  param {
    lr_mult: 1
    decay_mult: 1
  }
  param {
    lr_mult: 2
    decay_mult: 0
  }
  convolution_param {
    num_output: 64
    pad: 2
    kernel_size: 5
    weight_filler {
      type: "xavier"
    }
    bias_filler {
      type: "constant"
      value: 0.2
    }
  }
}
layer {
  name: "inception_4c/relu_5x5"
  type: "ReLU"
  bottom: "inception_4c/5x5"
  top: "inception_4c/5x5"
}
layer {
  name: "inception_4c/pool"
  type: "Pooling"
  bottom: "inception_4b/output"
  top: "inception_4c/pool"
  pooling_param {
    pool: MAX
    kernel_size: 3
    stride: 1
    pad: 1
  }
}
layer {
  name: "inception_4c/pool_proj"
  type: "Convolution"
  bottom: "inception_4c/pool"
  top: "inception_4c/pool_proj"
  param {
    lr_mult: 1
    decay_mult: 1
  }
  param {
    lr_mult: 2
    decay_mult: 0
  }
  convolution_param {
    num_output: 64
    kernel_size: 1
    weight_filler {
      type: "xavier"
    }
    bias_filler {
      type: "constant"
      value: 0.2
    }
  }
}
layer {
  name: "inception_4c/relu_pool_proj"
  type: "ReLU"
  bottom: "inception_4c/pool_proj"
  top: "inception_4c/pool_proj"
}
layer {
  name: "inception_4c/output"
  type: "Concat"
  bottom: "inception_4c/1x1"
  bottom: "inception_4c/3x3"
  bottom: "inception_4c/5x5"
  bottom: "inception_4c/pool_proj"
  top: "inception_4c/output"
}
layer {
  name: "inception_4d/1x1"
  type: "Convolution"
  bottom: "inception_4c/output"
  top: "inception_4d/1x1"
  param {
    lr_mult: 1
    decay_mult: 1
  }
  param {
    lr_mult: 2
    decay_mult: 0
  }
  convolution_param {
    num_output: 112
    kernel_size: 1
    weight_filler {
      type: "xavier"
    }
    bias_filler {
      type: "constant"
      value: 0.2
    }
  }
}
layer {
  name: "inception_4d/relu_1x1"
  type: "ReLU"
  bottom: "inception_4d/1x1"
  top: "inception_4d/1x1"
}
layer {
  name: "inception_4d/3x3_reduce"
  type: "Convolution"
  bottom: "inception_4c/output"
  top: "inception_4d/3x3_reduce"
  param {
    lr_mult: 1
    decay_mult: 1
  }
  param {
    lr_mult: 2
    decay_mult: 0
  }
  convolution_param {
    num_output: 144
    kernel_size: 1
    weight_filler {
      type: "xavier"
    }
    bias_filler {
      type: "constant"
      value: 0.2
    }
  }
}
layer {
  name: "inception_4d/relu_3x3_reduce"
  type: "ReLU"
  bottom: "inception_4d/3x3_reduce"
  top: "inception_4d/3x3_reduce"
}
layer {
  name: "inception_4d/3x3"
  type: "Convolution"
  bottom: "inception_4d/3x3_reduce"
  top: "inception_4d/3x3"
  param {
    lr_mult: 1
    decay_mult: 1
  }
  param {
    lr_mult: 2
    decay_mult: 0
  }
  convolution_param {
    num_output: 288
    pad: 1
    kernel_size: 3
    weight_filler {
      type: "xavier"
    }
    bias_filler {
      type: "constant"
      value: 0.2
    }
  }
}
layer {
  name: "inception_4d/relu_3x3"
  type: "ReLU"
  bottom: "inception_4d/3x3"
  top: "inception_4d/3x3"
}
layer {
  name: "inception_4d/5x5_reduce"
  type: "Convolution"
  bottom: "inception_4c/output"
  top: "inception_4d/5x5_reduce"
  param {
    lr_mult: 1
    decay_mult: 1
  }
  param {
    lr_mult: 2
    decay_mult: 0
  }
  convolution_param {
    num_output: 32
    kernel_size: 1
    weight_filler {
      type: "xavier"
    }
    bias_filler {
      type: "constant"
      value: 0.2
    }
  }
}
layer {
  name: "inception_4d/relu_5x5_reduce"
  type: "ReLU"
  bottom: "inception_4d/5x5_reduce"
  top: "inception_4d/5x5_reduce"
}
layer {
  name: "inception_4d/5x5"
  type: "Convolution"
  bottom: "inception_4d/5x5_reduce"
  top: "inception_4d/5x5"
  param {
    lr_mult: 1
    decay_mult: 1
  }
  param {
    lr_mult: 2
    decay_mult: 0
  }
  convolution_param {
    num_output: 64
    pad: 2
    kernel_size: 5
    weight_filler {
      type: "xavier"
    }
    bias_filler {
      type: "constant"
      value: 0.2
    }
  }
}
layer {
  name: "inception_4d/relu_5x5"
  type: "ReLU"
  bottom: "inception_4d/5x5"
  top: "inception_4d/5x5"
}
layer {
  name: "inception_4d/pool"
  type: "Pooling"
  bottom: "inception_4c/output"
  top: "inception_4d/pool"
  pooling_param {
    pool: MAX
    kernel_size: 3
    stride: 1
    pad: 1
  }
}
layer {
  name: "inception_4d/pool_proj"
  type: "Convolution"
  bottom: "inception_4d/pool"
  top: "inception_4d/pool_proj"
  param {
    lr_mult: 1
    decay_mult: 1
  }
  param {
    lr_mult: 2
    decay_mult: 0
  }
  convolution_param {
    num_output: 64
    kernel_size: 1
    weight_filler {
      type: "xavier"
    }
    bias_filler {
      type: "constant"
      value: 0.2
    }
  }
}
layer {
  name: "inception_4d/relu_pool_proj"
  type: "ReLU"
  bottom: "inception_4d/pool_proj"
  top: "inception_4d/pool_proj"
}
layer {
  name: "inception_4d/output"
  type: "Concat"
  bottom: "inception_4d/1x1"
  bottom: "inception_4d/3x3"
  bottom: "inception_4d/5x5"
  bottom: "inception_4d/pool_proj"
  top: "inception_4d/output"
}
layer {
  name: "loss2/ave_pool"
  type: "Pooling"
  bottom: "inception_4d/output"
  top: "loss2/ave_pool"
  pooling_param {
    pool: AVE
    kernel_size: 5
    stride: 3
  }
}
layer {
  name: "loss2/conv"
  type: "Convolution"
  bottom: "loss2/ave_pool"
  top: "loss2/conv"
  param {
    lr_mult: 1
    decay_mult: 1
  }
  param {
    lr_mult: 2
    decay_mult: 0
  }
  convolution_param {
    num_output: 128
    kernel_size: 1
    weight_filler {
      type: "xavier"
    }
    bias_filler {
      type: "constant"
      value: 0.2
    }
  }
}
layer {
  name: "loss2/relu_conv"
  type: "ReLU"
  bottom: "loss2/conv"
  top: "loss2/conv"
}
layer {
  name: "loss2/fc"
  type: "InnerProduct"
  bottom: "loss2/conv"
  top: "loss2/fc"
  param {
    lr_mult: 1
    decay_mult: 1
  }
  param {
    lr_mult: 2
    decay_mult: 0
  }
  inner_product_param {
    num_output: 1024
    weight_filler {
      type: "xavier"
    }
    bias_filler {
      type: "constant"
      value: 0.2
    }
  }
}
layer {
  name: "loss2/relu_fc"
  type: "ReLU"
  bottom: "loss2/fc"
  top: "loss2/fc"
}
layer {
  name: "loss2/drop_fc"
  type: "Dropout"
  bottom: "loss2/fc"
  top: "loss2/fc"
  dropout_param {
    dropout_ratio: 0.7
  }
}
layer {
  name: "loss2/classifier_kaggle"
  type: "InnerProduct"
  bottom: "loss2/fc"
  top: "loss2/classifier_kaggle"
  param {
    lr_mult: 1
    decay_mult: 1
  }
  param {
    lr_mult: 2
    decay_mult: 0
  }
  inner_product_param {
    num_output: 447
    weight_filler {
      type: "xavier"
    }
    bias_filler {
      type: "constant"
      value: 0
    }
  }
}
layer {
  name: "loss2/loss"
  type: "SoftmaxWithLoss"
  bottom: "loss2/classifier_kaggle"
  bottom: "label"
  top: "loss2/loss1"
  loss_weight: 0.3
}
layer {
  name: "inception_4e/1x1"
  type: "Convolution"
  bottom: "inception_4d/output"
  top: "inception_4e/1x1"
  param {
    lr_mult: 1
    decay_mult: 1
  }
  param {
    lr_mult: 2
    decay_mult: 0
  }
  convolution_param {
    num_output: 256
    kernel_size: 1
    weight_filler {
      type: "xavier"
    }
    bias_filler {
      type: "constant"
      value: 0.2
    }
  }
}
layer {
  name: "inception_4e/relu_1x1"
  type: "ReLU"
  bottom: "inception_4e/1x1"
  top: "inception_4e/1x1"
}
layer {
  name: "inception_4e/3x3_reduce"
  type: "Convolution"
  bottom: "inception_4d/output"
  top: "inception_4e/3x3_reduce"
  param {
    lr_mult: 1
    decay_mult: 1
  }
  param {
    lr_mult: 2
    decay_mult: 0
  }
  convolution_param {
    num_output: 160
    kernel_size: 1
    weight_filler {
      type: "xavier"
    }
    bias_filler {
      type: "constant"
      value: 0.2
    }
  }
}
layer {
  name: "inception_4e/relu_3x3_reduce"
  type: "ReLU"
  bottom: "inception_4e/3x3_reduce"
  top: "inception_4e/3x3_reduce"
}
layer {
  name: "inception_4e/3x3"
  type: "Convolution"
  bottom: "inception_4e/3x3_reduce"
  top: "inception_4e/3x3"
  param {
    lr_mult: 1
    decay_mult: 1
  }
  param {
    lr_mult: 2
    decay_mult: 0
  }
  convolution_param {
    num_output: 320
    pad: 1
    kernel_size: 3
    weight_filler {
      type: "xavier"
    }
    bias_filler {
      type: "constant"
      value: 0.2
    }
  }
}
layer {
  name: "inception_4e/relu_3x3"
  type: "ReLU"
  bottom: "inception_4e/3x3"
  top: "inception_4e/3x3"
}
layer {
  name: "inception_4e/5x5_reduce"
  type: "Convolution"
  bottom: "inception_4d/output"
  top: "inception_4e/5x5_reduce"
  param {
    lr_mult: 1
    decay_mult: 1
  }
  param {
    lr_mult: 2
    decay_mult: 0
  }
  convolution_param {
    num_output: 32
    kernel_size: 1
    weight_filler {
      type: "xavier"
    }
    bias_filler {
      type: "constant"
      value: 0.2
    }
  }
}
layer {
  name: "inception_4e/relu_5x5_reduce"
  type: "ReLU"
  bottom: "inception_4e/5x5_reduce"
  top: "inception_4e/5x5_reduce"
}
layer {
  name: "inception_4e/5x5"
  type: "Convolution"
  bottom: "inception_4e/5x5_reduce"
  top: "inception_4e/5x5"
  param {
    lr_mult: 1
    decay_mult: 1
  }
  param {
    lr_mult: 2
    decay_mult: 0
  }
  convolution_param {
    num_output: 128
    pad: 2
    kernel_size: 5
    weight_filler {
      type: "xavier"
    }
    bias_filler {
      type: "constant"
      value: 0.2
    }
  }
}
layer {
  name: "inception_4e/relu_5x5"
  type: "ReLU"
  bottom: "inception_4e/5x5"
  top: "inception_4e/5x5"
}
layer {
  name: "inception_4e/pool"
  type: "Pooling"
  bottom: "inception_4d/output"
  top: "inception_4e/po
I0103 19:48:15.524766  9752 layer_factory.hpp:74] Creating layer data
I0103 19:48:15.524796  9752 net.cpp:84] Creating Layer data
I0103 19:48:15.524806  9752 net.cpp:338] data -> data
I0103 19:48:15.524838  9752 net.cpp:338] data -> label
I0103 19:48:15.524850  9752 net.cpp:113] Setting up data
I0103 19:48:15.524857  9752 image_data_layer.cpp:36] Opening file /home/coldmanck/kaggle/label_train_full_resize_rotated.txt
I0103 19:48:15.527155  9752 image_data_layer.cpp:46] Shuffling data
I0103 19:48:15.527935  9752 image_data_layer.cpp:51] A total of 4235 images.
I0103 19:48:15.528980  9752 image_data_layer.cpp:80] output data size: 80,3,224,224
I0103 19:48:16.436607  9752 net.cpp:120] Top shape: 80 3 224 224 (12042240)
I0103 19:48:16.436689  9752 net.cpp:120] Top shape: 80 (80)
I0103 19:48:16.436705  9752 layer_factory.hpp:74] Creating layer label_data_1_split
I0103 19:48:16.436779  9752 net.cpp:84] Creating Layer label_data_1_split
I0103 19:48:16.436789  9752 net.cpp:380] label_data_1_split <- label
I0103 19:48:16.436808  9752 net.cpp:338] label_data_1_split -> label_data_1_split_0
I0103 19:48:16.436841  9752 net.cpp:338] label_data_1_split -> label_data_1_split_1
I0103 19:48:16.436862  9752 net.cpp:338] label_data_1_split -> label_data_1_split_2
I0103 19:48:16.436872  9752 net.cpp:113] Setting up label_data_1_split
I0103 19:48:16.436887  9752 net.cpp:120] Top shape: 80 (80)
I0103 19:48:16.436893  9752 net.cpp:120] Top shape: 80 (80)
I0103 19:48:16.436900  9752 net.cpp:120] Top shape: 80 (80)
I0103 19:48:16.436913  9752 layer_factory.hpp:74] Creating layer conv1/7x7_s2
I0103 19:48:16.436936  9752 net.cpp:84] Creating Layer conv1/7x7_s2
I0103 19:48:16.436944  9752 net.cpp:380] conv1/7x7_s2 <- data
I0103 19:48:16.436955  9752 net.cpp:338] conv1/7x7_s2 -> conv1/7x7_s2
I0103 19:48:16.436969  9752 net.cpp:113] Setting up conv1/7x7_s2
I0103 19:48:16.855159  9752 net.cpp:120] Top shape: 80 64 112 112 (64225280)
I0103 19:48:16.855265  9752 layer_factory.hpp:74] Creating layer conv1/relu_7x7
I0103 19:48:16.855278  9752 net.cpp:84] Creating Layer conv1/relu_7x7
I0103 19:48:16.855284  9752 net.cpp:380] conv1/relu_7x7 <- conv1/7x7_s2
I0103 19:48:16.855293  9752 net.cpp:327] conv1/relu_7x7 -> conv1/7x7_s2 (in-place)
I0103 19:48:16.855303  9752 net.cpp:113] Setting up conv1/relu_7x7
I0103 19:48:16.856528  9752 net.cpp:120] Top shape: 80 64 112 112 (64225280)
I0103 19:48:16.856540  9752 layer_factory.hpp:74] Creating layer pool1/3x3_s2
I0103 19:48:16.856554  9752 net.cpp:84] Creating Layer pool1/3x3_s2
I0103 19:48:16.856559  9752 net.cpp:380] pool1/3x3_s2 <- conv1/7x7_s2
I0103 19:48:16.856567  9752 net.cpp:338] pool1/3x3_s2 -> pool1/3x3_s2
I0103 19:48:16.856575  9752 net.cpp:113] Setting up pool1/3x3_s2
I0103 19:48:16.856678  9752 net.cpp:120] Top shape: 80 64 56 56 (16056320)
I0103 19:48:16.856688  9752 layer_factory.hpp:74] Creating layer pool1/norm1
I0103 19:48:16.856698  9752 net.cpp:84] Creating Layer pool1/norm1
I0103 19:48:16.856703  9752 net.cpp:380] pool1/norm1 <- pool1/3x3_s2
I0103 19:48:16.856709  9752 net.cpp:338] pool1/norm1 -> pool1/norm1
I0103 19:48:16.856717  9752 net.cpp:113] Setting up pool1/norm1
I0103 19:48:16.856725  9752 net.cpp:120] Top shape: 80 64 56 56 (16056320)
I0103 19:48:16.856731  9752 layer_factory.hpp:74] Creating layer conv2/3x3_reduce
I0103 19:48:16.856740  9752 net.cpp:84] Creating Layer conv2/3x3_reduce
I0103 19:48:16.856745  9752 net.cpp:380] conv2/3x3_reduce <- pool1/norm1
I0103 19:48:16.856751  9752 net.cpp:338] conv2/3x3_reduce -> conv2/3x3_reduce
I0103 19:48:16.856761  9752 net.cpp:113] Setting up conv2/3x3_reduce
I0103 19:48:16.857216  9752 net.cpp:120] Top shape: 80 64 56 56 (16056320)
I0103 19:48:16.857233  9752 layer_factory.hpp:74] Creating layer conv2/relu_3x3_reduce
I0103 19:48:16.857240  9752 net.cpp:84] Creating Layer conv2/relu_3x3_reduce
I0103 19:48:16.857245  9752 net.cpp:380] conv2/relu_3x3_reduce <- conv2/3x3_reduce
I0103 19:48:16.857251  9752 net.cpp:327] conv2/relu_3x3_reduce -> conv2/3x3_reduce (in-place)
I0103 19:48:16.857259  9752 net.cpp:113] Setting up conv2/relu_3x3_reduce
I0103 19:48:16.857312  9752 net.cpp:120] Top shape: 80 64 56 56 (16056320)
I0103 19:48:16.857317  9752 layer_factory.hpp:74] Creating layer conv2/3x3
I0103 19:48:16.857331  9752 net.cpp:84] Creating Layer conv2/3x3
I0103 19:48:16.857337  9752 net.cpp:380] conv2/3x3 <- conv2/3x3_reduce
I0103 19:48:16.857344  9752 net.cpp:338] conv2/3x3 -> conv2/3x3
I0103 19:48:16.857352  9752 net.cpp:113] Setting up conv2/3x3
I0103 19:48:16.859192  9752 net.cpp:120] Top shape: 80 192 56 56 (48168960)
I0103 19:48:16.859210  9752 layer_factory.hpp:74] Creating layer conv2/relu_3x3
I0103 19:48:16.859216  9752 net.cpp:84] Creating Layer conv2/relu_3x3
I0103 19:48:16.859221  9752 net.cpp:380] conv2/relu_3x3 <- conv2/3x3
I0103 19:48:16.859227  9752 net.cpp:327] conv2/relu_3x3 -> conv2/3x3 (in-place)
I0103 19:48:16.859235  9752 net.cpp:113] Setting up conv2/relu_3x3
I0103 19:48:16.859669  9752 net.cpp:120] Top shape: 80 192 56 56 (48168960)
I0103 19:48:16.859681  9752 layer_factory.hpp:74] Creating layer conv2/norm2
I0103 19:48:16.859689  9752 net.cpp:84] Creating Layer conv2/norm2
I0103 19:48:16.859704  9752 net.cpp:380] conv2/norm2 <- conv2/3x3
I0103 19:48:16.859721  9752 net.cpp:338] conv2/norm2 -> conv2/norm2
I0103 19:48:16.859730  9752 net.cpp:113] Setting up conv2/norm2
I0103 19:48:16.859737  9752 net.cpp:120] Top shape: 80 192 56 56 (48168960)
I0103 19:48:16.859741  9752 layer_factory.hpp:74] Creating layer pool2/3x3_s2
I0103 19:48:16.859747  9752 net.cpp:84] Creating Layer pool2/3x3_s2
I0103 19:48:16.859751  9752 net.cpp:380] pool2/3x3_s2 <- conv2/norm2
I0103 19:48:16.859756  9752 net.cpp:338] pool2/3x3_s2 -> pool2/3x3_s2
I0103 19:48:16.859763  9752 net.cpp:113] Setting up pool2/3x3_s2
I0103 19:48:16.859818  9752 net.cpp:120] Top shape: 80 192 28 28 (12042240)
I0103 19:48:16.859824  9752 layer_factory.hpp:74] Creating layer pool2/3x3_s2_pool2/3x3_s2_0_split
I0103 19:48:16.859832  9752 net.cpp:84] Creating Layer pool2/3x3_s2_pool2/3x3_s2_0_split
I0103 19:48:16.859835  9752 net.cpp:380] pool2/3x3_s2_pool2/3x3_s2_0_split <- pool2/3x3_s2
I0103 19:48:16.859843  9752 net.cpp:338] pool2/3x3_s2_pool2/3x3_s2_0_split -> pool2/3x3_s2_pool2/3x3_s2_0_split_0
I0103 19:48:16.859849  9752 net.cpp:338] pool2/3x3_s2_pool2/3x3_s2_0_split -> pool2/3x3_s2_pool2/3x3_s2_0_split_1
I0103 19:48:16.859855  9752 net.cpp:338] pool2/3x3_s2_pool2/3x3_s2_0_split -> pool2/3x3_s2_pool2/3x3_s2_0_split_2
I0103 19:48:16.859863  9752 net.cpp:338] pool2/3x3_s2_pool2/3x3_s2_0_split -> pool2/3x3_s2_pool2/3x3_s2_0_split_3
I0103 19:48:16.859868  9752 net.cpp:113] Setting up pool2/3x3_s2_pool2/3x3_s2_0_split
I0103 19:48:16.859874  9752 net.cpp:120] Top shape: 80 192 28 28 (12042240)
I0103 19:48:16.859879  9752 net.cpp:120] Top shape: 80 192 28 28 (12042240)
I0103 19:48:16.859884  9752 net.cpp:120] Top shape: 80 192 28 28 (12042240)
I0103 19:48:16.859889  9752 net.cpp:120] Top shape: 80 192 28 28 (12042240)
I0103 19:48:16.859892  9752 layer_factory.hpp:74] Creating layer inception_3a/1x1
I0103 19:48:16.859900  9752 net.cpp:84] Creating Layer inception_3a/1x1
I0103 19:48:16.859905  9752 net.cpp:380] inception_3a/1x1 <- pool2/3x3_s2_pool2/3x3_s2_0_split_0
I0103 19:48:16.859910  9752 net.cpp:338] inception_3a/1x1 -> inception_3a/1x1
I0103 19:48:16.859918  9752 net.cpp:113] Setting up inception_3a/1x1
I0103 19:48:16.861719  9752 net.cpp:120] Top shape: 80 64 28 28 (4014080)
I0103 19:48:16.861738  9752 layer_factory.hpp:74] Creating layer inception_3a/relu_1x1
I0103 19:48:16.861747  9752 net.cpp:84] Creating Layer inception_3a/relu_1x1
I0103 19:48:16.861752  9752 net.cpp:380] inception_3a/relu_1x1 <- inception_3a/1x1
I0103 19:48:16.861764  9752 net.cpp:327] inception_3a/relu_1x1 -> inception_3a/1x1 (in-place)
I0103 19:48:16.861773  9752 net.cpp:113] Setting up inception_3a/relu_1x1
I0103 19:48:16.861856  9752 net.cpp:120] Top shape: 80 64 28 28 (4014080)
I0103 19:48:16.861865  9752 layer_factory.hpp:74] Creating layer inception_3a/3x3_reduce
I0103 19:48:16.861876  9752 net.cpp:84] Creating Layer inception_3a/3x3_reduce
I0103 19:48:16.861881  9752 net.cpp:380] inception_3a/3x3_reduce <- pool2/3x3_s2_pool2/3x3_s2_0_split_1
I0103 19:48:16.861887  9752 net.cpp:338] inception_3a/3x3_reduce -> inception_3a/3x3_reduce
I0103 19:48:16.861896  9752 net.cpp:113] Setting up inception_3a/3x3_reduce
I0103 19:48:16.862498  9752 net.cpp:120] Top shape: 80 96 28 28 (6021120)
I0103 19:48:16.862515  9752 layer_factory.hpp:74] Creating layer inception_3a/relu_3x3_reduce
I0103 19:48:16.862525  9752 net.cpp:84] Creating Layer inception_3a/relu_3x3_reduce
I0103 19:48:16.862530  9752 net.cpp:380] inception_3a/relu_3x3_reduce <- inception_3a/3x3_reduce
I0103 19:48:16.862536  9752 net.cpp:327] inception_3a/relu_3x3_reduce -> inception_3a/3x3_reduce (in-place)
I0103 19:48:16.862543  9752 net.cpp:113] Setting up inception_3a/relu_3x3_reduce
I0103 19:48:16.862596  9752 net.cpp:120] Top shape: 80 96 28 28 (6021120)
I0103 19:48:16.862601  9752 layer_factory.hpp:74] Creating layer inception_3a/3x3
I0103 19:48:16.862608  9752 net.cpp:84] Creating Layer inception_3a/3x3
I0103 19:48:16.862613  9752 net.cpp:380] inception_3a/3x3 <- inception_3a/3x3_reduce
I0103 19:48:16.862632  9752 net.cpp:338] inception_3a/3x3 -> inception_3a/3x3
I0103 19:48:16.862646  9752 net.cpp:113] Setting up inception_3a/3x3
I0103 19:48:16.864009  9752 net.cpp:120] Top shape: 80 128 28 28 (8028160)
I0103 19:48:16.864024  9752 layer_factory.hpp:74] Creating layer inception_3a/relu_3x3
I0103 19:48:16.864032  9752 net.cpp:84] Creating Layer inception_3a/relu_3x3
I0103 19:48:16.864037  9752 net.cpp:380] inception_3a/relu_3x3 <- inception_3a/3x3
I0103 19:48:16.864042  9752 net.cpp:327] inception_3a/relu_3x3 -> inception_3a/3x3 (in-place)
I0103 19:48:16.864049  9752 net.cpp:113] Setting up inception_3a/relu_3x3
I0103 19:48:16.864310  9752 net.cpp:120] Top shape: 80 128 28 28 (8028160)
I0103 19:48:16.864320  9752 layer_factory.hpp:74] Creating layer inception_3a/5x5_reduce
I0103 19:48:16.864326  9752 net.cpp:84] Creating Layer inception_3a/5x5_reduce
I0103 19:48:16.864331  9752 net.cpp:380] inception_3a/5x5_reduce <- pool2/3x3_s2_pool2/3x3_s2_0_split_2
I0103 19:48:16.864338  9752 net.cpp:338] inception_3a/5x5_reduce -> inception_3a/5x5_reduce
I0103 19:48:16.864347  9752 net.cpp:113] Setting up inception_3a/5x5_reduce
I0103 19:48:16.864768  9752 net.cpp:120] Top shape: 80 16 28 28 (1003520)
I0103 19:48:16.864784  9752 layer_factory.hpp:74] Creating layer inception_3a/relu_5x5_reduce
I0103 19:48:16.864791  9752 net.cpp:84] Creating Layer inception_3a/relu_5x5_reduce
I0103 19:48:16.864797  9752 net.cpp:380] inception_3a/relu_5x5_reduce <- inception_3a/5x5_reduce
I0103 19:48:16.864804  9752 net.cpp:327] inception_3a/relu_5x5_reduce -> inception_3a/5x5_reduce (in-place)
I0103 19:48:16.864811  9752 net.cpp:113] Setting up inception_3a/relu_5x5_reduce
I0103 19:48:16.864914  9752 net.cpp:120] Top shape: 80 16 28 28 (1003520)
I0103 19:48:16.864923  9752 layer_factory.hpp:74] Creating layer inception_3a/5x5
I0103 19:48:16.864929  9752 net.cpp:84] Creating Layer inception_3a/5x5
I0103 19:48:16.864934  9752 net.cpp:380] inception_3a/5x5 <- inception_3a/5x5_reduce
I0103 19:48:16.864940  9752 net.cpp:338] inception_3a/5x5 -> inception_3a/5x5
I0103 19:48:16.864948  9752 net.cpp:113] Setting up inception_3a/5x5
I0103 19:48:16.865488  9752 net.cpp:120] Top shape: 80 32 28 28 (2007040)
I0103 19:48:16.865501  9752 layer_factory.hpp:74] Creating layer inception_3a/relu_5x5
I0103 19:48:16.865509  9752 net.cpp:84] Creating Layer inception_3a/relu_5x5
I0103 19:48:16.865512  9752 net.cpp:380] inception_3a/relu_5x5 <- inception_3a/5x5
I0103 19:48:16.865519  9752 net.cpp:327] inception_3a/relu_5x5 -> inception_3a/5x5 (in-place)
I0103 19:48:16.865525  9752 net.cpp:113] Setting up inception_3a/relu_5x5
I0103 19:48:16.865582  9752 net.cpp:120] Top shape: 80 32 28 28 (2007040)
I0103 19:48:16.865587  9752 layer_factory.hpp:74] Creating layer inception_3a/pool
I0103 19:48:16.865594  9752 layer_factory.cpp:56] CUDNN does not support padding or multiple tops. Using Caffe's own pooling layer.
I0103 19:48:16.865602  9752 net.cpp:84] Creating Layer inception_3a/pool
I0103 19:48:16.865607  9752 net.cpp:380] inception_3a/pool <- pool2/3x3_s2_pool2/3x3_s2_0_split_3
I0103 19:48:16.865613  9752 net.cpp:338] inception_3a/pool -> inception_3a/pool
I0103 19:48:16.865622  9752 net.cpp:113] Setting up inception_3a/pool
I0103 19:48:16.865630  9752 net.cpp:120] Top shape: 80 192 28 28 (12042240)
I0103 19:48:16.865635  9752 layer_factory.hpp:74] Creating layer inception_3a/pool_proj
I0103 19:48:16.865643  9752 net.cpp:84] Creating Layer inception_3a/pool_proj
I0103 19:48:16.865648  9752 net.cpp:380] inception_3a/pool_proj <- inception_3a/pool
I0103 19:48:16.865655  9752 net.cpp:338] inception_3a/pool_proj -> inception_3a/pool_proj
I0103 19:48:16.865664  9752 net.cpp:113] Setting up inception_3a/pool_proj
I0103 19:48:16.866144  9752 net.cpp:120] Top shape: 80 32 28 28 (2007040)
I0103 19:48:16.866163  9752 layer_factory.hpp:74] Creating layer inception_3a/relu_pool_proj
I0103 19:48:16.866170  9752 net.cpp:84] Creating Layer inception_3a/relu_pool_proj
I0103 19:48:16.866175  9752 net.cpp:380] inception_3a/relu_pool_proj <- inception_3a/pool_proj
I0103 19:48:16.866188  9752 net.cpp:327] inception_3a/relu_pool_proj -> inception_3a/pool_proj (in-place)
I0103 19:48:16.866202  9752 net.cpp:113] Setting up inception_3a/relu_pool_proj
I0103 19:48:16.866303  9752 net.cpp:120] Top shape: 80 32 28 28 (2007040)
I0103 19:48:16.866310  9752 layer_factory.hpp:74] Creating layer inception_3a/output
I0103 19:48:16.866318  9752 net.cpp:84] Creating Layer inception_3a/output
I0103 19:48:16.866322  9752 net.cpp:380] inception_3a/output <- inception_3a/1x1
I0103 19:48:16.866328  9752 net.cpp:380] inception_3a/output <- inception_3a/3x3
I0103 19:48:16.866333  9752 net.cpp:380] inception_3a/output <- inception_3a/5x5
I0103 19:48:16.866338  9752 net.cpp:380] inception_3a/output <- inception_3a/pool_proj
I0103 19:48:16.866343  9752 net.cpp:338] inception_3a/output -> inception_3a/output
I0103 19:48:16.866351  9752 net.cpp:113] Setting up inception_3a/output
I0103 19:48:16.866365  9752 net.cpp:120] Top shape: 80 256 28 28 (16056320)
I0103 19:48:16.866370  9752 layer_factory.hpp:74] Creating layer inception_3a/output_inception_3a/output_0_split
I0103 19:48:16.866377  9752 net.cpp:84] Creating Layer inception_3a/output_inception_3a/output_0_split
I0103 19:48:16.866382  9752 net.cpp:380] inception_3a/output_inception_3a/output_0_split <- inception_3a/output
I0103 19:48:16.866389  9752 net.cpp:338] inception_3a/output_inception_3a/output_0_split -> inception_3a/output_inception_3a/output_0_split_0
I0103 19:48:16.866396  9752 net.cpp:338] inception_3a/output_inception_3a/output_0_split -> inception_3a/output_inception_3a/output_0_split_1
I0103 19:48:16.866405  9752 net.cpp:338] inception_3a/output_inception_3a/output_0_split -> inception_3a/output_inception_3a/output_0_split_2
I0103 19:48:16.866411  9752 net.cpp:338] inception_3a/output_inception_3a/output_0_split -> inception_3a/output_inception_3a/output_0_split_3
I0103 19:48:16.866417  9752 net.cpp:113] Setting up inception_3a/output_inception_3a/output_0_split
I0103 19:48:16.866425  9752 net.cpp:120] Top shape: 80 256 28 28 (16056320)
I0103 19:48:16.866430  9752 net.cpp:120] Top shape: 80 256 28 28 (16056320)
I0103 19:48:16.866436  9752 net.cpp:120] Top shape: 80 256 28 28 (16056320)
I0103 19:48:16.866439  9752 net.cpp:120] Top shape: 80 256 28 28 (16056320)
I0103 19:48:16.866443  9752 layer_factory.hpp:74] Creating layer inception_3b/1x1
I0103 19:48:16.866451  9752 net.cpp:84] Creating Layer inception_3b/1x1
I0103 19:48:16.866456  9752 net.cpp:380] inception_3b/1x1 <- inception_3a/output_inception_3a/output_0_split_0
I0103 19:48:16.866462  9752 net.cpp:338] inception_3b/1x1 -> inception_3b/1x1
I0103 19:48:16.866469  9752 net.cpp:113] Setting up inception_3b/1x1
I0103 19:48:16.867265  9752 net.cpp:120] Top shape: 80 128 28 28 (8028160)
I0103 19:48:16.867281  9752 layer_factory.hpp:74] Creating layer inception_3b/relu_1x1
I0103 19:48:16.867288  9752 net.cpp:84] Creating Layer inception_3b/relu_1x1
I0103 19:48:16.867293  9752 net.cpp:380] inception_3b/relu_1x1 <- inception_3b/1x1
I0103 19:48:16.867300  9752 net.cpp:327] inception_3b/relu_1x1 -> inception_3b/1x1 (in-place)
I0103 19:48:16.867306  9752 net.cpp:113] Setting up inception_3b/relu_1x1
I0103 19:48:16.867571  9752 net.cpp:120] Top shape: 80 128 28 28 (8028160)
I0103 19:48:16.867580  9752 layer_factory.hpp:74] Creating layer inception_3b/3x3_reduce
I0103 19:48:16.867589  9752 net.cpp:84] Creating Layer inception_3b/3x3_reduce
I0103 19:48:16.867594  9752 net.cpp:380] inception_3b/3x3_reduce <- inception_3a/output_inception_3a/output_0_split_1
I0103 19:48:16.867601  9752 net.cpp:338] inception_3b/3x3_reduce -> inception_3b/3x3_reduce
I0103 19:48:16.867609  9752 net.cpp:113] Setting up inception_3b/3x3_reduce
I0103 19:48:16.868333  9752 net.cpp:120] Top shape: 80 128 28 28 (8028160)
I0103 19:48:16.868348  9752 layer_factory.hpp:74] Creating layer inception_3b/relu_3x3_reduce
I0103 19:48:16.868357  9752 net.cpp:84] Creating Layer inception_3b/relu_3x3_reduce
I0103 19:48:16.868361  9752 net.cpp:380] inception_3b/relu_3x3_reduce <- inception_3b/3x3_reduce
I0103 19:48:16.868369  9752 net.cpp:327] inception_3b/relu_3x3_reduce -> inception_3b/3x3_reduce (in-place)
I0103 19:48:16.868387  9752 net.cpp:113] Setting up inception_3b/relu_3x3_reduce
I0103 19:48:16.868496  9752 net.cpp:120] Top shape: 80 128 28 28 (8028160)
I0103 19:48:16.868504  9752 layer_factory.hpp:74] Creating layer inception_3b/3x3
I0103 19:48:16.868515  9752 net.cpp:84] Creating Layer inception_3b/3x3
I0103 19:48:16.868518  9752 net.cpp:380] inception_3b/3x3 <- inception_3b/3x3_reduce
I0103 19:48:16.868526  9752 net.cpp:338] inception_3b/3x3 -> inception_3b/3x3
I0103 19:48:16.868535  9752 net.cpp:113] Setting up inception_3b/3x3
I0103 19:48:16.872179  9752 net.cpp:120] Top shape: 80 192 28 28 (12042240)
I0103 19:48:16.872197  9752 layer_factory.hpp:74] Creating layer inception_3b/relu_3x3
I0103 19:48:16.872206  9752 net.cpp:84] Creating Layer inception_3b/relu_3x3
I0103 19:48:16.872210  9752 net.cpp:380] inception_3b/relu_3x3 <- inception_3b/3x3
I0103 19:48:16.872218  9752 net.cpp:327] inception_3b/relu_3x3 -> inception_3b/3x3 (in-place)
I0103 19:48:16.872225  9752 net.cpp:113] Setting up inception_3b/relu_3x3
I0103 19:48:16.872287  9752 net.cpp:120] Top shape: 80 192 28 28 (12042240)
I0103 19:48:16.872293  9752 layer_factory.hpp:74] Creating layer inception_3b/5x5_reduce
I0103 19:48:16.872303  9752 net.cpp:84] Creating Layer inception_3b/5x5_reduce
I0103 19:48:16.872308  9752 net.cpp:380] inception_3b/5x5_reduce <- inception_3a/output_inception_3a/output_0_split_2
I0103 19:48:16.872318  9752 net.cpp:338] inception_3b/5x5_reduce -> inception_3b/5x5_reduce
I0103 19:48:16.872325  9752 net.cpp:113] Setting up inception_3b/5x5_reduce
I0103 19:48:16.872877  9752 net.cpp:120] Top shape: 80 32 28 28 (2007040)
I0103 19:48:16.872892  9752 layer_factory.hpp:74] Creating layer inception_3b/relu_5x5_reduce
I0103 19:48:16.872900  9752 net.cpp:84] Creating Layer inception_3b/relu_5x5_reduce
I0103 19:48:16.872905  9752 net.cpp:380] inception_3b/relu_5x5_reduce <- inception_3b/5x5_reduce
I0103 19:48:16.872912  9752 net.cpp:327] inception_3b/relu_5x5_reduce -> inception_3b/5x5_reduce (in-place)
I0103 19:48:16.872920  9752 net.cpp:113] Setting up inception_3b/relu_5x5_reduce
I0103 19:48:16.872980  9752 net.cpp:120] Top shape: 80 32 28 28 (2007040)
I0103 19:48:16.872987  9752 layer_factory.hpp:74] Creating layer inception_3b/5x5
I0103 19:48:16.872994  9752 net.cpp:84] Creating Layer inception_3b/5x5
I0103 19:48:16.872999  9752 net.cpp:380] inception_3b/5x5 <- inception_3b/5x5_reduce
I0103 19:48:16.873005  9752 net.cpp:338] inception_3b/5x5 -> inception_3b/5x5
I0103 19:48:16.873045  9752 net.cpp:113] Setting up inception_3b/5x5
I0103 19:48:16.874318  9752 net.cpp:120] Top shape: 80 96 28 28 (6021120)
I0103 19:48:16.874333  9752 layer_factory.hpp:74] Creating layer inception_3b/relu_5x5
I0103 19:48:16.874341  9752 net.cpp:84] Creating Layer inception_3b/relu_5x5
I0103 19:48:16.874346  9752 net.cpp:380] inception_3b/relu_5x5 <- inception_3b/5x5
I0103 19:48:16.874353  9752 net.cpp:327] inception_3b/relu_5x5 -> inception_3b/5x5 (in-place)
I0103 19:48:16.874361  9752 net.cpp:113] Setting up inception_3b/relu_5x5
I0103 19:48:16.874639  9752 net.cpp:120] Top shape: 80 96 28 28 (6021120)
I0103 19:48:16.874651  9752 layer_factory.hpp:74] Creating layer inception_3b/pool
I0103 19:48:16.874656  9752 layer_factory.cpp:56] CUDNN does not support padding or multiple tops. Using Caffe's own pooling layer.
I0103 19:48:16.874662  9752 net.cpp:84] Creating Layer inception_3b/pool
I0103 19:48:16.874667  9752 net.cpp:380] inception_3b/pool <- inception_3a/output_inception_3a/output_0_split_3
I0103 19:48:16.874675  9752 net.cpp:338] inception_3b/pool -> inception_3b/pool
I0103 19:48:16.874682  9752 net.cpp:113] Setting up inception_3b/pool
I0103 19:48:16.874691  9752 net.cpp:120] Top shape: 80 256 28 28 (16056320)
I0103 19:48:16.874696  9752 layer_factory.hpp:74] Creating layer inception_3b/pool_proj
I0103 19:48:16.874704  9752 net.cpp:84] Creating Layer inception_3b/pool_proj
I0103 19:48:16.874709  9752 net.cpp:380] inception_3b/pool_proj <- inception_3b/pool
I0103 19:48:16.874717  9752 net.cpp:338] inception_3b/pool_proj -> inception_3b/pool_proj
I0103 19:48:16.874737  9752 net.cpp:113] Setting up inception_3b/pool_proj
I0103 19:48:16.875349  9752 net.cpp:120] Top shape: 80 64 28 28 (4014080)
I0103 19:48:16.875362  9752 layer_factory.hpp:74] Creating layer inception_3b/relu_pool_proj
I0103 19:48:16.875370  9752 net.cpp:84] Creating Layer inception_3b/relu_pool_proj
I0103 19:48:16.875375  9752 net.cpp:380] inception_3b/relu_pool_proj <- inception_3b/pool_proj
I0103 19:48:16.875380  9752 net.cpp:327] inception_3b/relu_pool_proj -> inception_3b/pool_proj (in-place)
I0103 19:48:16.875387  9752 net.cpp:113] Setting up inception_3b/relu_pool_proj
I0103 19:48:16.875452  9752 net.cpp:120] Top shape: 80 64 28 28 (4014080)
I0103 19:48:16.875458  9752 layer_factory.hpp:74] Creating layer inception_3b/output
I0103 19:48:16.875464  9752 net.cpp:84] Creating Layer inception_3b/output
I0103 19:48:16.875469  9752 net.cpp:380] inception_3b/output <- inception_3b/1x1
I0103 19:48:16.875486  9752 net.cpp:380] inception_3b/output <- inception_3b/3x3
I0103 19:48:16.875491  9752 net.cpp:380] inception_3b/output <- inception_3b/5x5
I0103 19:48:16.875496  9752 net.cpp:380] inception_3b/output <- inception_3b/pool_proj
I0103 19:48:16.875504  9752 net.cpp:338] inception_3b/output -> inception_3b/output
I0103 19:48:16.875510  9752 net.cpp:113] Setting up inception_3b/output
I0103 19:48:16.875519  9752 net.cpp:120] Top shape: 80 480 28 28 (30105600)
I0103 19:48:16.875522  9752 layer_factory.hpp:74] Creating layer pool3/3x3_s2
I0103 19:48:16.875530  9752 net.cpp:84] Creating Layer pool3/3x3_s2
I0103 19:48:16.875535  9752 net.cpp:380] pool3/3x3_s2 <- inception_3b/output
I0103 19:48:16.875541  9752 net.cpp:338] pool3/3x3_s2 -> pool3/3x3_s2
I0103 19:48:16.875547  9752 net.cpp:113] Setting up pool3/3x3_s2
I0103 19:48:16.875614  9752 net.cpp:120] Top shape: 80 480 14 14 (7526400)
I0103 19:48:16.875622  9752 layer_factory.hpp:74] Creating layer pool3/3x3_s2_pool3/3x3_s2_0_split
I0103 19:48:16.875628  9752 net.cpp:84] Creating Layer pool3/3x3_s2_pool3/3x3_s2_0_split
I0103 19:48:16.875633  9752 net.cpp:380] pool3/3x3_s2_pool3/3x3_s2_0_split <- pool3/3x3_s2
I0103 19:48:16.875641  9752 net.cpp:338] pool3/3x3_s2_pool3/3x3_s2_0_split -> pool3/3x3_s2_pool3/3x3_s2_0_split_0
I0103 19:48:16.875648  9752 net.cpp:338] pool3/3x3_s2_pool3/3x3_s2_0_split -> pool3/3x3_s2_pool3/3x3_s2_0_split_1
I0103 19:48:16.875655  9752 net.cpp:338] pool3/3x3_s2_pool3/3x3_s2_0_split -> pool3/3x3_s2_pool3/3x3_s2_0_split_2
I0103 19:48:16.875661  9752 net.cpp:338] pool3/3x3_s2_pool3/3x3_s2_0_split -> pool3/3x3_s2_pool3/3x3_s2_0_split_3
I0103 19:48:16.875668  9752 net.cpp:113] Setting up pool3/3x3_s2_pool3/3x3_s2_0_split
I0103 19:48:16.875675  9752 net.cpp:120] Top shape: 80 480 14 14 (7526400)
I0103 19:48:16.875681  9752 net.cpp:120] Top shape: 80 480 14 14 (7526400)
I0103 19:48:16.875685  9752 net.cpp:120] Top shape: 80 480 14 14 (7526400)
I0103 19:48:16.875690  9752 net.cpp:120] Top shape: 80 480 14 14 (7526400)
I0103 19:48:16.875694  9752 layer_factory.hpp:74] Creating layer inception_4a/1x1
I0103 19:48:16.875704  9752 net.cpp:84] Creating Layer inception_4a/1x1
I0103 19:48:16.875707  9752 net.cpp:380] inception_4a/1x1 <- pool3/3x3_s2_pool3/3x3_s2_0_split_0
I0103 19:48:16.875716  9752 net.cpp:338] inception_4a/1x1 -> inception_4a/1x1
I0103 19:48:16.875723  9752 net.cpp:113] Setting up inception_4a/1x1
I0103 19:48:16.877207  9752 net.cpp:120] Top shape: 80 192 14 14 (3010560)
I0103 19:48:16.877223  9752 layer_factory.hpp:74] Creating layer inception_4a/relu_1x1
I0103 19:48:16.877229  9752 net.cpp:84] Creating Layer inception_4a/relu_1x1
I0103 19:48:16.877234  9752 net.cpp:380] inception_4a/relu_1x1 <- inception_4a/1x1
I0103 19:48:16.877240  9752 net.cpp:327] inception_4a/relu_1x1 -> inception_4a/1x1 (in-place)
I0103 19:48:16.877248  9752 net.cpp:113] Setting up inception_4a/relu_1x1
I0103 19:48:16.877552  9752 net.cpp:120] Top shape: 80 192 14 14 (3010560)
I0103 19:48:16.877562  9752 layer_factory.hpp:74] Creating layer inception_4a/3x3_reduce
I0103 19:48:16.877571  9752 net.cpp:84] Creating Layer inception_4a/3x3_reduce
I0103 19:48:16.877581  9752 net.cpp:380] inception_4a/3x3_reduce <- pool3/3x3_s2_pool3/3x3_s2_0_split_1
I0103 19:48:16.877599  9752 net.cpp:338] inception_4a/3x3_reduce -> inception_4a/3x3_reduce
I0103 19:48:16.877607  9752 net.cpp:113] Setting up inception_4a/3x3_reduce
I0103 19:48:16.878559  9752 net.cpp:120] Top shape: 80 96 14 14 (1505280)
I0103 19:48:16.878576  9752 layer_factory.hpp:74] Creating layer inception_4a/relu_3x3_reduce
I0103 19:48:16.878587  9752 net.cpp:84] Creating Layer inception_4a/relu_3x3_reduce
I0103 19:48:16.878592  9752 net.cpp:380] inception_4a/relu_3x3_reduce <- inception_4a/3x3_reduce
I0103 19:48:16.878597  9752 net.cpp:327] inception_4a/relu_3x3_reduce -> inception_4a/3x3_reduce (in-place)
I0103 19:48:16.878604  9752 net.cpp:113] Setting up inception_4a/relu_3x3_reduce
I0103 19:48:16.878669  9752 net.cpp:120] Top shape: 80 96 14 14 (1505280)
I0103 19:48:16.878674  9752 layer_factory.hpp:74] Creating layer inception_4a/3x3
I0103 19:48:16.878684  9752 net.cpp:84] Creating Layer inception_4a/3x3
I0103 19:48:16.878689  9752 net.cpp:380] inception_4a/3x3 <- inception_4a/3x3_reduce
I0103 19:48:16.878695  9752 net.cpp:338] inception_4a/3x3 -> inception_4a/3x3
I0103 19:48:16.878703  9752 net.cpp:113] Setting up inception_4a/3x3
I0103 19:48:16.881075  9752 net.cpp:120] Top shape: 80 208 14 14 (3261440)
I0103 19:48:16.881091  9752 layer_factory.hpp:74] Creating layer inception_4a/relu_3x3
I0103 19:48:16.881098  9752 net.cpp:84] Creating Layer inception_4a/relu_3x3
I0103 19:48:16.881103  9752 net.cpp:380] inception_4a/relu_3x3 <- inception_4a/3x3
I0103 19:48:16.881110  9752 net.cpp:327] inception_4a/relu_3x3 -> inception_4a/3x3 (in-place)
I0103 19:48:16.881116  9752 net.cpp:113] Setting up inception_4a/relu_3x3
I0103 19:48:16.881182  9752 net.cpp:120] Top shape: 80 208 14 14 (3261440)
I0103 19:48:16.881188  9752 layer_factory.hpp:74] Creating layer inception_4a/5x5_reduce
I0103 19:48:16.881196  9752 net.cpp:84] Creating Layer inception_4a/5x5_reduce
I0103 19:48:16.881201  9752 net.cpp:380] inception_4a/5x5_reduce <- pool3/3x3_s2_pool3/3x3_s2_0_split_2
I0103 19:48:16.881209  9752 net.cpp:338] inception_4a/5x5_reduce -> inception_4a/5x5_reduce
I0103 19:48:16.881217  9752 net.cpp:113] Setting up inception_4a/5x5_reduce
I0103 19:48:16.881731  9752 net.cpp:120] Top shape: 80 16 14 14 (250880)
I0103 19:48:16.881745  9752 layer_factory.hpp:74] Creating layer inception_4a/relu_5x5_reduce
I0103 19:48:16.881755  9752 net.cpp:84] Creating Layer inception_4a/relu_5x5_reduce
I0103 19:48:16.881760  9752 net.cpp:380] inception_4a/relu_5x5_reduce <- inception_4a/5x5_reduce
I0103 19:48:16.881767  9752 net.cpp:327] inception_4a/relu_5x5_reduce -> inception_4a/5x5_reduce (in-place)
I0103 19:48:16.881774  9752 net.cpp:113] Setting up inception_4a/relu_5x5_reduce
I0103 19:48:16.881839  9752 net.cpp:120] Top shape: 80 16 14 14 (250880)
I0103 19:48:16.881845  9752 layer_factory.hpp:74] Creating layer inception_4a/5x5
I0103 19:48:16.881855  9752 net.cpp:84] Creating Layer inception_4a/5x5
I0103 19:48:16.881860  9752 net.cpp:380] inception_4a/5x5 <- inception_4a/5x5_reduce
I0103 19:48:16.881866  9752 net.cpp:338] inception_4a/5x5 -> inception_4a/5x5
I0103 19:48:16.881873  9752 net.cpp:113] Setting up inception_4a/5x5
I0103 19:48:16.882514  9752 net.cpp:120] Top shape: 80 48 14 14 (752640)
I0103 19:48:16.882529  9752 layer_factory.hpp:74] Creating layer inception_4a/relu_5x5
I0103 19:48:16.882537  9752 net.cpp:84] Creating Layer inception_4a/relu_5x5
I0103 19:48:16.882544  9752 net.cpp:380] inception_4a/relu_5x5 <- inception_4a/5x5
I0103 19:48:16.882550  9752 net.cpp:327] inception_4a/relu_5x5 -> inception_4a/5x5 (in-place)
I0103 19:48:16.882556  9752 net.cpp:113] Setting up inception_4a/relu_5x5
I0103 19:48:16.882827  9752 net.cpp:120] Top shape: 80 48 14 14 (752640)
I0103 19:48:16.882838  9752 layer_factory.hpp:74] Creating layer inception_4a/pool
I0103 19:48:16.882844  9752 layer_factory.cpp:56] CUDNN does not support padding or multiple tops. Using Caffe's own pooling layer.
I0103 19:48:16.882855  9752 net.cpp:84] Creating Layer inception_4a/pool
I0103 19:48:16.882869  9752 net.cpp:380] inception_4a/pool <- pool3/3x3_s2_pool3/3x3_s2_0_split_3
I0103 19:48:16.882879  9752 net.cpp:338] inception_4a/pool -> inception_4a/pool
I0103 19:48:16.882886  9752 net.cpp:113] Setting up inception_4a/pool
I0103 19:48:16.882894  9752 net.cpp:120] Top shape: 80 480 14 14 (7526400)
I0103 19:48:16.882899  9752 layer_factory.hpp:74] Creating layer inception_4a/pool_proj
I0103 19:48:16.882908  9752 net.cpp:84] Creating Layer inception_4a/pool_proj
I0103 19:48:16.882913  9752 net.cpp:380] inception_4a/pool_proj <- inception_4a/pool
I0103 19:48:16.882920  9752 net.cpp:338] inception_4a/pool_proj -> inception_4a/pool_proj
I0103 19:48:16.882926  9752 net.cpp:113] Setting up inception_4a/pool_proj
I0103 19:48:16.883689  9752 net.cpp:120] Top shape: 80 64 14 14 (1003520)
I0103 19:48:16.883704  9752 layer_factory.hpp:74] Creating layer inception_4a/relu_pool_proj
I0103 19:48:16.883712  9752 net.cpp:84] Creating Layer inception_4a/relu_pool_proj
I0103 19:48:16.883716  9752 net.cpp:380] inception_4a/relu_pool_proj <- inception_4a/pool_proj
I0103 19:48:16.883724  9752 net.cpp:327] inception_4a/relu_pool_proj -> inception_4a/pool_proj (in-place)
I0103 19:48:16.883731  9752 net.cpp:113] Setting up inception_4a/relu_pool_proj
I0103 19:48:16.883796  9752 net.cpp:120] Top shape: 80 64 14 14 (1003520)
I0103 19:48:16.883803  9752 layer_factory.hpp:74] Creating layer inception_4a/output
I0103 19:48:16.883812  9752 net.cpp:84] Creating Layer inception_4a/output
I0103 19:48:16.883816  9752 net.cpp:380] inception_4a/output <- inception_4a/1x1
I0103 19:48:16.883823  9752 net.cpp:380] inception_4a/output <- inception_4a/3x3
I0103 19:48:16.883828  9752 net.cpp:380] inception_4a/output <- inception_4a/5x5
I0103 19:48:16.883832  9752 net.cpp:380] inception_4a/output <- inception_4a/pool_proj
I0103 19:48:16.883838  9752 net.cpp:338] inception_4a/output -> inception_4a/output
I0103 19:48:16.883846  9752 net.cpp:113] Setting up inception_4a/output
I0103 19:48:16.883852  9752 net.cpp:120] Top shape: 80 512 14 14 (8028160)
I0103 19:48:16.883857  9752 layer_factory.hpp:74] Creating layer inception_4a/output_inception_4a/output_0_split
I0103 19:48:16.883863  9752 net.cpp:84] Creating Layer inception_4a/output_inception_4a/output_0_split
I0103 19:48:16.883867  9752 net.cpp:380] inception_4a/output_inception_4a/output_0_split <- inception_4a/output
I0103 19:48:16.883875  9752 net.cpp:338] inception_4a/output_inception_4a/output_0_split -> inception_4a/output_inception_4a/output_0_split_0
I0103 19:48:16.883882  9752 net.cpp:338] inception_4a/output_inception_4a/output_0_split -> inception_4a/output_inception_4a/output_0_split_1
I0103 19:48:16.883889  9752 net.cpp:338] inception_4a/output_inception_4a/output_0_split -> inception_4a/output_inception_4a/output_0_split_2
I0103 19:48:16.883896  9752 net.cpp:338] inception_4a/output_inception_4a/output_0_split -> inception_4a/output_inception_4a/output_0_split_3
I0103 19:48:16.883903  9752 net.cpp:338] inception_4a/output_inception_4a/output_0_split -> inception_4a/output_inception_4a/output_0_split_4
I0103 19:48:16.883909  9752 net.cpp:113] Setting up inception_4a/output_inception_4a/output_0_split
I0103 19:48:16.883916  9752 net.cpp:120] Top shape: 80 512 14 14 (8028160)
I0103 19:48:16.883921  9752 net.cpp:120] Top shape: 80 512 14 14 (8028160)
I0103 19:48:16.883926  9752 net.cpp:120] Top shape: 80 512 14 14 (8028160)
I0103 19:48:16.883931  9752 net.cpp:120] Top shape: 80 512 14 14 (8028160)
I0103 19:48:16.883935  9752 net.cpp:120] Top shape: 80 512 14 14 (8028160)
I0103 19:48:16.883940  9752 layer_factory.hpp:74] Creating layer loss1/ave_pool
I0103 19:48:16.883949  9752 net.cpp:84] Creating Layer loss1/ave_pool
I0103 19:48:16.883952  9752 net.cpp:380] loss1/ave_pool <- inception_4a/output_inception_4a/output_0_split_0
I0103 19:48:16.883958  9752 net.cpp:338] loss1/ave_pool -> loss1/ave_pool
I0103 19:48:16.883965  9752 net.cpp:113] Setting up loss1/ave_pool
I0103 19:48:16.884029  9752 net.cpp:120] Top shape: 80 512 4 4 (655360)
I0103 19:48:16.884040  9752 layer_factory.hpp:74] Creating layer loss1/conv
I0103 19:48:16.884057  9752 net.cpp:84] Creating Layer loss1/conv
I0103 19:48:16.884062  9752 net.cpp:380] loss1/conv <- loss1/ave_pool
I0103 19:48:16.884068  9752 net.cpp:338] loss1/conv -> loss1/conv
I0103 19:48:16.884075  9752 net.cpp:113] Setting up loss1/conv
I0103 19:48:16.885236  9752 net.cpp:120] Top shape: 80 128 4 4 (163840)
I0103 19:48:16.885253  9752 layer_factory.hpp:74] Creating layer loss1/relu_conv
I0103 19:48:16.885262  9752 net.cpp:84] Creating Layer loss1/relu_conv
I0103 19:48:16.885267  9752 net.cpp:380] loss1/relu_conv <- loss1/conv
I0103 19:48:16.885273  9752 net.cpp:327] loss1/relu_conv -> loss1/conv (in-place)
I0103 19:48:16.885280  9752 net.cpp:113] Setting up loss1/relu_conv
I0103 19:48:16.885349  9752 net.cpp:120] Top shape: 80 128 4 4 (163840)
I0103 19:48:16.885360  9752 layer_factory.hpp:74] Creating layer loss1/fc
I0103 19:48:16.885371  9752 net.cpp:84] Creating Layer loss1/fc
I0103 19:48:16.885376  9752 net.cpp:380] loss1/fc <- loss1/conv
I0103 19:48:16.885385  9752 net.cpp:338] loss1/fc -> loss1/fc
I0103 19:48:16.885395  9752 net.cpp:113] Setting up loss1/fc
I0103 19:48:17.060428  9752 net.cpp:120] Top shape: 80 1024 (81920)
I0103 19:48:17.060468  9752 layer_factory.hpp:74] Creating layer loss1/relu_fc
I0103 19:48:17.060482  9752 net.cpp:84] Creating Layer loss1/relu_fc
I0103 19:48:17.060489  9752 net.cpp:380] loss1/relu_fc <- loss1/fc
I0103 19:48:17.060498  9752 net.cpp:327] loss1/relu_fc -> loss1/fc (in-place)
I0103 19:48:17.060506  9752 net.cpp:113] Setting up loss1/relu_fc
I0103 19:48:17.060959  9752 net.cpp:120] Top shape: 80 1024 (81920)
I0103 19:48:17.060971  9752 layer_factory.hpp:74] Creating layer loss1/drop_fc
I0103 19:48:17.060992  9752 net.cpp:84] Creating Layer loss1/drop_fc
I0103 19:48:17.060997  9752 net.cpp:380] loss1/drop_fc <- loss1/fc
I0103 19:48:17.061004  9752 net.cpp:327] loss1/drop_fc -> loss1/fc (in-place)
I0103 19:48:17.061013  9752 net.cpp:113] Setting up loss1/drop_fc
I0103 19:48:17.061028  9752 net.cpp:120] Top shape: 80 1024 (81920)
I0103 19:48:17.061039  9752 layer_factory.hpp:74] Creating layer loss1/classifier_kaggle
I0103 19:48:17.061069  9752 net.cpp:84] Creating Layer loss1/classifier_kaggle
I0103 19:48:17.061074  9752 net.cpp:380] loss1/classifier_kaggle <- loss1/fc
I0103 19:48:17.061089  9752 net.cpp:338] loss1/classifier_kaggle -> loss1/classifier_kaggle
I0103 19:48:17.061100  9752 net.cpp:113] Setting up loss1/classifier_kaggle
I0103 19:48:17.066179  9752 net.cpp:120] Top shape: 80 447 (35760)
I0103 19:48:17.066195  9752 layer_factory.hpp:74] Creating layer loss1/loss
I0103 19:48:17.066205  9752 net.cpp:84] Creating Layer loss1/loss
I0103 19:48:17.066210  9752 net.cpp:380] loss1/loss <- loss1/classifier_kaggle
I0103 19:48:17.066216  9752 net.cpp:380] loss1/loss <- label_data_1_split_0
I0103 19:48:17.066223  9752 net.cpp:338] loss1/loss -> loss1/loss1
I0103 19:48:17.066231  9752 net.cpp:113] Setting up loss1/loss
I0103 19:48:17.066239  9752 layer_factory.hpp:74] Creating layer loss1/loss
I0103 19:48:17.066427  9752 net.cpp:120] Top shape: (1)
I0103 19:48:17.066436  9752 net.cpp:122]     with loss weight 0.3
I0103 19:48:17.066463  9752 layer_factory.hpp:74] Creating layer inception_4b/1x1
I0103 19:48:17.066478  9752 net.cpp:84] Creating Layer inception_4b/1x1
I0103 19:48:17.066485  9752 net.cpp:380] inception_4b/1x1 <- inception_4a/output_inception_4a/output_0_split_1
I0103 19:48:17.066494  9752 net.cpp:338] inception_4b/1x1 -> inception_4b/1x1
I0103 19:48:17.066504  9752 net.cpp:113] Setting up inception_4b/1x1
I0103 19:48:17.068079  9752 net.cpp:120] Top shape: 80 160 14 14 (2508800)
I0103 19:48:17.068100  9752 layer_factory.hpp:74] Creating layer inception_4b/relu_1x1
I0103 19:48:17.068110  9752 net.cpp:84] Creating Layer inception_4b/relu_1x1
I0103 19:48:17.068116  9752 net.cpp:380] inception_4b/relu_1x1 <- inception_4b/1x1
I0103 19:48:17.068125  9752 net.cpp:327] inception_4b/relu_1x1 -> inception_4b/1x1 (in-place)
I0103 19:48:17.068131  9752 net.cpp:113] Setting up inception_4b/relu_1x1
I0103 19:48:17.068218  9752 net.cpp:120] Top shape: 80 160 14 14 (2508800)
I0103 19:48:17.068236  9752 layer_factory.hpp:74] Creating layer inception_4b/3x3_reduce
I0103 19:48:17.068246  9752 net.cpp:84] Creating Layer inception_4b/3x3_reduce
I0103 19:48:17.068251  9752 net.cpp:380] inception_4b/3x3_reduce <- inception_4a/output_inception_4a/output_0_split_2
I0103 19:48:17.068260  9752 net.cpp:338] inception_4b/3x3_reduce -> inception_4b/3x3_reduce
I0103 19:48:17.068269  9752 net.cpp:113] Setting up inception_4b/3x3_reduce
I0103 19:48:17.069389  9752 net.cpp:120] Top shape: 80 112 14 14 (1756160)
I0103 19:48:17.069406  9752 layer_factory.hpp:74] Creating layer inception_4b/relu_3x3_reduce
I0103 19:48:17.069414  9752 net.cpp:84] Creating Layer inception_4b/relu_3x3_reduce
I0103 19:48:17.069419  9752 net.cpp:380] inception_4b/relu_3x3_reduce <- inception_4b/3x3_reduce
I0103 19:48:17.069427  9752 net.cpp:327] inception_4b/relu_3x3_reduce -> inception_4b/3x3_reduce (in-place)
I0103 19:48:17.069434  9752 net.cpp:113] Setting up inception_4b/relu_3x3_reduce
I0103 19:48:17.069502  9752 net.cpp:120] Top shape: 80 112 14 14 (1756160)
I0103 19:48:17.069509  9752 layer_factory.hpp:74] Creating layer inception_4b/3x3
I0103 19:48:17.069516  9752 net.cpp:84] Creating Layer inception_4b/3x3
I0103 19:48:17.069521  9752 net.cpp:380] inception_4b/3x3 <- inception_4b/3x3_reduce
I0103 19:48:17.069530  9752 net.cpp:338] inception_4b/3x3 -> inception_4b/3x3
I0103 19:48:17.069538  9752 net.cpp:113] Setting up inception_4b/3x3
I0103 19:48:17.072461  9752 net.cpp:120] Top shape: 80 224 14 14 (3512320)
I0103 19:48:17.072477  9752 layer_factory.hpp:74] Creating layer inception_4b/relu_3x3
I0103 19:48:17.072484  9752 net.cpp:84] Creating Layer inception_4b/relu_3x3
I0103 19:48:17.072492  9752 net.cpp:380] inception_4b/relu_3x3 <- inception_4b/3x3
I0103 19:48:17.072499  9752 net.cpp:327] inception_4b/relu_3x3 -> inception_4b/3x3 (in-place)
I0103 19:48:17.072505  9752 net.cpp:113] Setting up inception_4b/relu_3x3
I0103 19:48:17.072787  9752 net.cpp:120] Top shape: 80 224 14 14 (3512320)
I0103 19:48:17.072798  9752 layer_factory.hpp:74] Creating layer inception_4b/5x5_reduce
I0103 19:48:17.072809  9752 net.cpp:84] Creating Layer inception_4b/5x5_reduce
I0103 19:48:17.072814  9752 net.cpp:380] inception_4b/5x5_reduce <- inception_4a/output_inception_4a/output_0_split_3
I0103 19:48:17.072823  9752 net.cpp:338] inception_4b/5x5_reduce -> inception_4b/5x5_reduce
I0103 19:48:17.072834  9752 net.cpp:113] Setting up inception_4b/5x5_reduce
I0103 19:48:17.073436  9752 net.cpp:120] Top shape: 80 24 14 14 (376320)
I0103 19:48:17.073451  9752 layer_factory.hpp:74] Creating layer inception_4b/relu_5x5_reduce
I0103 19:48:17.073458  9752 net.cpp:84] Creating Layer inception_4b/relu_5x5_reduce
I0103 19:48:17.073463  9752 net.cpp:380] inception_4b/relu_5x5_reduce <- inception_4b/5x5_reduce
I0103 19:48:17.073470  9752 net.cpp:327] inception_4b/relu_5x5_reduce -> inception_4b/5x5_reduce (in-place)
I0103 19:48:17.073477  9752 net.cpp:113] Setting up inception_4b/relu_5x5_reduce
I0103 19:48:17.073545  9752 net.cpp:120] Top shape: 80 24 14 14 (376320)
I0103 19:48:17.073551  9752 layer_factory.hpp:74] Creating layer inception_4b/5x5
I0103 19:48:17.073560  9752 net.cpp:84] Creating Layer inception_4b/5x5
I0103 19:48:17.073565  9752 net.cpp:380] inception_4b/5x5 <- inception_4b/5x5_reduce
I0103 19:48:17.073571  9752 net.cpp:338] inception_4b/5x5 -> inception_4b/5x5
I0103 19:48:17.073580  9752 net.cpp:113] Setting up inception_4b/5x5
I0103 19:48:17.074452  9752 net.cpp:120] Top shape: 80 64 14 14 (1003520)
I0103 19:48:17.074467  9752 layer_factory.hpp:74] Creating layer inception_4b/relu_5x5
I0103 19:48:17.074476  9752 net.cpp:84] Creating Layer inception_4b/relu_5x5
I0103 19:48:17.074481  9752 net.cpp:380] inception_4b/relu_5x5 <- inception_4b/5x5
I0103 19:48:17.074488  9752 net.cpp:327] inception_4b/relu_5x5 -> inception_4b/5x5 (in-place)
I0103 19:48:17.074496  9752 net.cpp:113] Setting up inception_4b/relu_5x5
I0103 19:48:17.074559  9752 net.cpp:120] Top shape: 80 64 14 14 (1003520)
I0103 19:48:17.074578  9752 layer_factory.hpp:74] Creating layer inception_4b/pool
I0103 19:48:17.074585  9752 layer_factory.cpp:56] CUDNN does not support padding or multiple tops. Using Caffe's own pooling layer.
I0103 19:48:17.074591  9752 net.cpp:84] Creating Layer inception_4b/pool
I0103 19:48:17.074596  9752 net.cpp:380] inception_4b/pool <- inception_4a/output_inception_4a/output_0_split_4
I0103 19:48:17.074614  9752 net.cpp:338] inception_4b/pool -> inception_4b/pool
I0103 19:48:17.074630  9752 net.cpp:113] Setting up inception_4b/pool
I0103 19:48:17.074640  9752 net.cpp:120] Top shape: 80 512 14 14 (8028160)
I0103 19:48:17.074645  9752 layer_factory.hpp:74] Creating layer inception_4b/pool_proj
I0103 19:48:17.074654  9752 net.cpp:84] Creating Layer inception_4b/pool_proj
I0103 19:48:17.074658  9752 net.cpp:380] inception_4b/pool_proj <- inception_4b/pool
I0103 19:48:17.074667  9752 net.cpp:338] inception_4b/pool_proj -> inception_4b/pool_proj
I0103 19:48:17.074674  9752 net.cpp:113] Setting up inception_4b/pool_proj
I0103 19:48:17.075465  9752 net.cpp:120] Top shape: 80 64 14 14 (1003520)
I0103 19:48:17.075480  9752 layer_factory.hpp:74] Creating layer inception_4b/relu_pool_proj
I0103 19:48:17.075487  9752 net.cpp:84] Creating Layer inception_4b/relu_pool_proj
I0103 19:48:17.075492  9752 net.cpp:380] inception_4b/relu_pool_proj <- inception_4b/pool_proj
I0103 19:48:17.075498  9752 net.cpp:327] inception_4b/relu_pool_proj -> inception_4b/pool_proj (in-place)
I0103 19:48:17.075505  9752 net.cpp:113] Setting up inception_4b/relu_pool_proj
I0103 19:48:17.075794  9752 net.cpp:120] Top shape: 80 64 14 14 (1003520)
I0103 19:48:17.075805  9752 layer_factory.hpp:74] Creating layer inception_4b/output
I0103 19:48:17.075814  9752 net.cpp:84] Creating Layer inception_4b/output
I0103 19:48:17.075819  9752 net.cpp:380] inception_4b/output <- inception_4b/1x1
I0103 19:48:17.075825  9752 net.cpp:380] inception_4b/output <- inception_4b/3x3
I0103 19:48:17.075830  9752 net.cpp:380] inception_4b/output <- inception_4b/5x5
I0103 19:48:17.075835  9752 net.cpp:380] inception_4b/output <- inception_4b/pool_proj
I0103 19:48:17.075840  9752 net.cpp:338] inception_4b/output -> inception_4b/output
I0103 19:48:17.075848  9752 net.cpp:113] Setting up inception_4b/output
I0103 19:48:17.075856  9752 net.cpp:120] Top shape: 80 512 14 14 (8028160)
I0103 19:48:17.075861  9752 layer_factory.hpp:74] Creating layer inception_4b/output_inception_4b/output_0_split
I0103 19:48:17.075870  9752 net.cpp:84] Creating Layer inception_4b/output_inception_4b/output_0_split
I0103 19:48:17.075875  9752 net.cpp:380] inception_4b/output_inception_4b/output_0_split <- inception_4b/output
I0103 19:48:17.075881  9752 net.cpp:338] inception_4b/output_inception_4b/output_0_split -> inception_4b/output_inception_4b/output_0_split_0
I0103 19:48:17.075887  9752 net.cpp:338] inception_4b/output_inception_4b/output_0_split -> inception_4b/output_inception_4b/output_0_split_1
I0103 19:48:17.075896  9752 net.cpp:338] inception_4b/output_inception_4b/output_0_split -> inception_4b/output_inception_4b/output_0_split_2
I0103 19:48:17.075903  9752 net.cpp:338] inception_4b/output_inception_4b/output_0_split -> inception_4b/output_inception_4b/output_0_split_3
I0103 19:48:17.075909  9752 net.cpp:113] Setting up inception_4b/output_inception_4b/output_0_split
I0103 19:48:17.075917  9752 net.cpp:120] Top shape: 80 512 14 14 (8028160)
I0103 19:48:17.075922  9752 net.cpp:120] Top shape: 80 512 14 14 (8028160)
I0103 19:48:17.075927  9752 net.cpp:120] Top shape: 80 512 14 14 (8028160)
I0103 19:48:17.075932  9752 net.cpp:120] Top shape: 80 512 14 14 (8028160)
I0103 19:48:17.075935  9752 layer_factory.hpp:74] Creating layer inception_4c/1x1
I0103 19:48:17.075944  9752 net.cpp:84] Creating Layer inception_4c/1x1
I0103 19:48:17.075949  9752 net.cpp:380] inception_4c/1x1 <- inception_4b/output_inception_4b/output_0_split_0
I0103 19:48:17.075956  9752 net.cpp:338] inception_4c/1x1 -> inception_4c/1x1
I0103 19:48:17.075964  9752 net.cpp:113] Setting up inception_4c/1x1
I0103 19:48:17.077114  9752 net.cpp:120] Top shape: 80 128 14 14 (2007040)
I0103 19:48:17.077138  9752 layer_factory.hpp:74] Creating layer inception_4c/relu_1x1
I0103 19:48:17.077146  9752 net.cpp:84] Creating Layer inception_4c/relu_1x1
I0103 19:48:17.077150  9752 net.cpp:380] inception_4c/relu_1x1 <- inception_4c/1x1
I0103 19:48:17.077158  9752 net.cpp:327] inception_4c/relu_1x1 -> inception_4c/1x1 (in-place)
I0103 19:48:17.077167  9752 net.cpp:113] Setting up inception_4c/relu_1x1
I0103 19:48:17.077232  9752 net.cpp:120] Top shape: 80 128 14 14 (2007040)
I0103 19:48:17.077239  9752 layer_factory.hpp:74] Creating layer inception_4c/3x3_reduce
I0103 19:48:17.077250  9752 net.cpp:84] Creating Layer inception_4c/3x3_reduce
I0103 19:48:17.077255  9752 net.cpp:380] inception_4c/3x3_reduce <- inception_4b/output_inception_4b/output_0_split_1
I0103 19:48:17.077262  9752 net.cpp:338] inception_4c/3x3_reduce -> inception_4c/3x3_reduce
I0103 19:48:17.077270  9752 net.cpp:113] Setting up inception_4c/3x3_reduce
I0103 19:48:17.078444  9752 net.cpp:120] Top shape: 80 128 14 14 (2007040)
I0103 19:48:17.078459  9752 layer_factory.hpp:74] Creating layer inception_4c/relu_3x3_reduce
I0103 19:48:17.078465  9752 net.cpp:84] Creating Layer inception_4c/relu_3x3_reduce
I0103 19:48:17.078470  9752 net.cpp:380] inception_4c/relu_3x3_reduce <- inception_4c/3x3_reduce
I0103 19:48:17.078480  9752 net.cpp:327] inception_4c/relu_3x3_reduce -> inception_4c/3x3_reduce (in-place)
I0103 19:48:17.078486  9752 net.cpp:113] Setting up inception_4c/relu_3x3_reduce
I0103 19:48:17.078549  9752 net.cpp:120] Top shape: 80 128 14 14 (2007040)
I0103 19:48:17.078557  9752 layer_factory.hpp:74] Creating layer inception_4c/3x3
I0103 19:48:17.078567  9752 net.cpp:84] Creating Layer inception_4c/3x3
I0103 19:48:17.078572  9752 net.cpp:380] inception_4c/3x3 <- inception_4c/3x3_reduce
I0103 19:48:17.078579  9752 net.cpp:338] inception_4c/3x3 -> inception_4c/3x3
I0103 19:48:17.078586  9752 net.cpp:113] Setting up inception_4c/3x3
I0103 19:48:17.082217  9752 net.cpp:120] Top shape: 80 256 14 14 (4014080)
I0103 19:48:17.082247  9752 layer_factory.hpp:74] Creating layer inception_4c/relu_3x3
I0103 19:48:17.082254  9752 net.cpp:84] Creating Layer inception_4c/relu_3x3
I0103 19:48:17.082259  9752 net.cpp:380] inception_4c/relu_3x3 <- inception_4c/3x3
I0103 19:48:17.082267  9752 net.cpp:327] inception_4c/relu_3x3 -> inception_4c/3x3 (in-place)
I0103 19:48:17.082273  9752 net.cpp:113] Setting up inception_4c/relu_3x3
I0103 19:48:17.082350  9752 net.cpp:120] Top shape: 80 256 14 14 (4014080)
I0103 19:48:17.082356  9752 layer_factory.hpp:74] Creating layer inception_4c/5x5_reduce
I0103 19:48:17.082367  9752 net.cpp:84] Creating Layer inception_4c/5x5_reduce
I0103 19:48:17.082373  9752 net.cpp:380] inception_4c/5x5_reduce <- inception_4b/output_inception_4b/output_0_split_2
I0103 19:48:17.082379  9752 net.cpp:338] inception_4c/5x5_reduce -> inception_4c/5x5_reduce
I0103 19:48:17.082387  9752 net.cpp:113] Setting up inception_4c/5x5_reduce
I0103 19:48:17.082975  9752 net.cpp:120] Top shape: 80 24 14 14 (376320)
I0103 19:48:17.082990  9752 layer_factory.hpp:74] Creating layer inception_4c/relu_5x5_reduce
I0103 19:48:17.082996  9752 net.cpp:84] Creating Layer inception_4c/relu_5x5_reduce
I0103 19:48:17.083003  9752 net.cpp:380] inception_4c/relu_5x5_reduce <- inception_4c/5x5_reduce
I0103 19:48:17.083010  9752 net.cpp:327] inception_4c/relu_5x5_reduce -> inception_4c/5x5_reduce (in-place)
I0103 19:48:17.083019  9752 net.cpp:113] Setting up inception_4c/relu_5x5_reduce
I0103 19:48:17.083297  9752 net.cpp:120] Top shape: 80 24 14 14 (376320)
I0103 19:48:17.083307  9752 layer_factory.hpp:74] Creating layer inception_4c/5x5
I0103 19:48:17.083315  9752 net.cpp:84] Creating Layer inception_4c/5x5
I0103 19:48:17.083320  9752 net.cpp:380] inception_4c/5x5 <- inception_4c/5x5_reduce
I0103 19:48:17.083329  9752 net.cpp:338] inception_4c/5x5 -> inception_4c/5x5
I0103 19:48:17.083338  9752 net.cpp:113] Setting up inception_4c/5x5
I0103 19:48:17.084208  9752 net.cpp:120] Top shape: 80 64 14 14 (1003520)
I0103 19:48:17.084226  9752 layer_factory.hpp:74] Creating layer inception_4c/relu_5x5
I0103 19:48:17.084244  9752 net.cpp:84] Creating Layer inception_4c/relu_5x5
I0103 19:48:17.084249  9752 net.cpp:380] inception_4c/relu_5x5 <- inception_4c/5x5
I0103 19:48:17.084255  9752 net.cpp:327] inception_4c/relu_5x5 -> inception_4c/5x5 (in-place)
I0103 19:48:17.084262  9752 net.cpp:113] Setting up inception_4c/relu_5x5
I0103 19:48:17.084331  9752 net.cpp:120] Top shape: 80 64 14 14 (1003520)
I0103 19:48:17.084339  9752 layer_factory.hpp:74] Creating layer inception_4c/pool
I0103 19:48:17.084344  9752 layer_factory.cpp:56] CUDNN does not support padding or multiple tops. Using Caffe's own pooling layer.
I0103 19:48:17.084350  9752 net.cpp:84] Creating Layer inception_4c/pool
I0103 19:48:17.084355  9752 net.cpp:380] inception_4c/pool <- inception_4b/output_inception_4b/output_0_split_3
I0103 19:48:17.084363  9752 net.cpp:338] inception_4c/pool -> inception_4c/pool
I0103 19:48:17.084372  9752 net.cpp:113] Setting up inception_4c/pool
I0103 19:48:17.084378  9752 net.cpp:120] Top shape: 80 512 14 14 (8028160)
I0103 19:48:17.084383  9752 layer_factory.hpp:74] Creating layer inception_4c/pool_proj
I0103 19:48:17.084393  9752 net.cpp:84] Creating Layer inception_4c/pool_proj
I0103 19:48:17.084398  9752 net.cpp:380] inception_4c/pool_proj <- inception_4c/pool
I0103 19:48:17.084404  9752 net.cpp:338] inception_4c/pool_proj -> inception_4c/pool_proj
I0103 19:48:17.084411  9752 net.cpp:113] Setting up inception_4c/pool_proj
I0103 19:48:17.085242  9752 net.cpp:120] Top shape: 80 64 14 14 (1003520)
I0103 19:48:17.085258  9752 layer_factory.hpp:74] Creating layer inception_4c/relu_pool_proj
I0103 19:48:17.085268  9752 net.cpp:84] Creating Layer inception_4c/relu_pool_proj
I0103 19:48:17.085273  9752 net.cpp:380] inception_4c/relu_pool_proj <- inception_4c/pool_proj
I0103 19:48:17.085279  9752 net.cpp:327] inception_4c/relu_pool_proj -> inception_4c/pool_proj (in-place)
I0103 19:48:17.085286  9752 net.cpp:113] Setting up inception_4c/relu_pool_proj
I0103 19:48:17.085366  9752 net.cpp:120] Top shape: 80 64 14 14 (1003520)
I0103 19:48:17.085374  9752 layer_factory.hpp:74] Creating layer inception_4c/output
I0103 19:48:17.085381  9752 net.cpp:84] Creating Layer inception_4c/output
I0103 19:48:17.085386  9752 net.cpp:380] inception_4c/output <- inception_4c/1x1
I0103 19:48:17.085392  9752 net.cpp:380] inception_4c/output <- inception_4c/3x3
I0103 19:48:17.085397  9752 net.cpp:380] inception_4c/output <- inception_4c/5x5
I0103 19:48:17.085402  9752 net.cpp:380] inception_4c/output <- inception_4c/pool_proj
I0103 19:48:17.085410  9752 net.cpp:338] inception_4c/output -> inception_4c/output
I0103 19:48:17.085417  9752 net.cpp:113] Setting up inception_4c/output
I0103 19:48:17.085424  9752 net.cpp:120] Top shape: 80 512 14 14 (8028160)
I0103 19:48:17.085430  9752 layer_factory.hpp:74] Creating layer inception_4c/output_inception_4c/output_0_split
I0103 19:48:17.085436  9752 net.cpp:84] Creating Layer inception_4c/output_inception_4c/output_0_split
I0103 19:48:17.085440  9752 net.cpp:380] inception_4c/output_inception_4c/output_0_split <- inception_4c/output
I0103 19:48:17.085446  9752 net.cpp:338] inception_4c/output_inception_4c/output_0_split -> inception_4c/output_inception_4c/output_0_split_0
I0103 19:48:17.085453  9752 net.cpp:338] inception_4c/output_inception_4c/output_0_split -> inception_4c/output_inception_4c/output_0_split_1
I0103 19:48:17.085460  9752 net.cpp:338] inception_4c/output_inception_4c/output_0_split -> inception_4c/output_inception_4c/output_0_split_2
I0103 19:48:17.085467  9752 net.cpp:338] inception_4c/output_inception_4c/output_0_split -> inception_4c/output_inception_4c/output_0_split_3
I0103 19:48:17.085474  9752 net.cpp:113] Setting up inception_4c/output_inception_4c/output_0_split
I0103 19:48:17.085482  9752 net.cpp:120] Top shape: 80 512 14 14 (8028160)
I0103 19:48:17.085487  9752 net.cpp:120] Top shape: 80 512 14 14 (8028160)
I0103 19:48:17.085492  9752 net.cpp:120] Top shape: 80 512 14 14 (8028160)
I0103 19:48:17.085501  9752 net.cpp:120] Top shape: 80 512 14 14 (8028160)
I0103 19:48:17.085515  9752 layer_factory.hpp:74] Creating layer inception_4d/1x1
I0103 19:48:17.085525  9752 net.cpp:84] Creating Layer inception_4d/1x1
I0103 19:48:17.085530  9752 net.cpp:380] inception_4d/1x1 <- inception_4c/output_inception_4c/output_0_split_0
I0103 19:48:17.085536  9752 net.cpp:338] inception_4d/1x1 -> inception_4d/1x1
I0103 19:48:17.085544  9752 net.cpp:113] Setting up inception_4d/1x1
I0103 19:48:17.086612  9752 net.cpp:120] Top shape: 80 112 14 14 (1756160)
I0103 19:48:17.086627  9752 layer_factory.hpp:74] Creating layer inception_4d/relu_1x1
I0103 19:48:17.086634  9752 net.cpp:84] Creating Layer inception_4d/relu_1x1
I0103 19:48:17.086640  9752 net.cpp:380] inception_4d/relu_1x1 <- inception_4d/1x1
I0103 19:48:17.086648  9752 net.cpp:327] inception_4d/relu_1x1 -> inception_4d/1x1 (in-place)
I0103 19:48:17.086657  9752 net.cpp:113] Setting up inception_4d/relu_1x1
I0103 19:48:17.086722  9752 net.cpp:120] Top shape: 80 112 14 14 (1756160)
I0103 19:48:17.086730  9752 layer_factory.hpp:74] Creating layer inception_4d/3x3_reduce
I0103 19:48:17.086741  9752 net.cpp:84] Creating Layer inception_4d/3x3_reduce
I0103 19:48:17.086746  9752 net.cpp:380] inception_4d/3x3_reduce <- inception_4c/output_inception_4c/output_0_split_1
I0103 19:48:17.086753  9752 net.cpp:338] inception_4d/3x3_reduce -> inception_4d/3x3_reduce
I0103 19:48:17.086761  9752 net.cpp:113] Setting up inception_4d/3x3_reduce
I0103 19:48:17.088068  9752 net.cpp:120] Top shape: 80 144 14 14 (2257920)
I0103 19:48:17.088088  9752 layer_factory.hpp:74] Creating layer inception_4d/relu_3x3_reduce
I0103 19:48:17.088096  9752 net.cpp:84] Creating Layer inception_4d/relu_3x3_reduce
I0103 19:48:17.088102  9752 net.cpp:380] inception_4d/relu_3x3_reduce <- inception_4d/3x3_reduce
I0103 19:48:17.088114  9752 net.cpp:327] inception_4d/relu_3x3_reduce -> inception_4d/3x3_reduce (in-place)
I0103 19:48:17.088121  9752 net.cpp:113] Setting up inception_4d/relu_3x3_reduce
I0103 19:48:17.088402  9752 net.cpp:120] Top shape: 80 144 14 14 (2257920)
I0103 19:48:17.088413  9752 layer_factory.hpp:74] Creating layer inception_4d/3x3
I0103 19:48:17.088423  9752 net.cpp:84] Creating Layer inception_4d/3x3
I0103 19:48:17.088428  9752 net.cpp:380] inception_4d/3x3 <- inception_4d/3x3_reduce
I0103 19:48:17.088434  9752 net.cpp:338] inception_4d/3x3 -> inception_4d/3x3
I0103 19:48:17.088443  9752 net.cpp:113] Setting up inception_4d/3x3
I0103 19:48:17.092967  9752 net.cpp:120] Top shape: 80 288 14 14 (4515840)
I0103 19:48:17.092983  9752 layer_factory.hpp:74] Creating layer inception_4d/relu_3x3
I0103 19:48:17.092993  9752 net.cpp:84] Creating Layer inception_4d/relu_3x3
I0103 19:48:17.092998  9752 net.cpp:380] inception_4d/relu_3x3 <- inception_4d/3x3
I0103 19:48:17.093004  9752 net.cpp:327] inception_4d/relu_3x3 -> inception_4d/3x3 (in-place)
I0103 19:48:17.093013  9752 net.cpp:113] Setting up inception_4d/relu_3x3
I0103 19:48:17.093123  9752 net.cpp:120] Top shape: 80 288 14 14 (4515840)
I0103 19:48:17.093130  9752 layer_factory.hpp:74] Creating layer inception_4d/5x5_reduce
I0103 19:48:17.093140  9752 net.cpp:84] Creating Layer inception_4d/5x5_reduce
I0103 19:48:17.093145  9752 net.cpp:380] inception_4d/5x5_reduce <- inception_4c/output_inception_4c/output_0_split_2
I0103 19:48:17.093154  9752 net.cpp:338] inception_4d/5x5_reduce -> inception_4d/5x5_reduce
I0103 19:48:17.093163  9752 net.cpp:113] Setting up inception_4d/5x5_reduce
I0103 19:48:17.093770  9752 net.cpp:120] Top shape: 80 32 14 14 (501760)
I0103 19:48:17.093786  9752 layer_factory.hpp:74] Creating layer inception_4d/relu_5x5_reduce
I0103 19:48:17.093793  9752 net.cpp:84] Creating Layer inception_4d/relu_5x5_reduce
I0103 19:48:17.093799  9752 net.cpp:380] inception_4d/relu_5x5_reduce <- inception_4d/5x5_reduce
I0103 19:48:17.093806  9752 net.cpp:327] inception_4d/relu_5x5_reduce -> inception_4d/5x5_reduce (in-place)
I0103 19:48:17.093812  9752 net.cpp:113] Setting up inception_4d/relu_5x5_reduce
I0103 19:48:17.093891  9752 net.cpp:120] Top shape: 80 32 14 14 (501760)
I0103 19:48:17.093907  9752 layer_factory.hpp:74] Creating layer inception_4d/5x5
I0103 19:48:17.093917  9752 net.cpp:84] Creating Layer inception_4d/5x5
I0103 19:48:17.093922  9752 net.cpp:380] inception_4d/5x5 <- inception_4d/5x5_reduce
I0103 19:48:17.093930  9752 net.cpp:338] inception_4d/5x5 -> inception_4d/5x5
I0103 19:48:17.093938  9752 net.cpp:113] Setting up inception_4d/5x5
I0103 19:48:17.094956  9752 net.cpp:120] Top shape: 80 64 14 14 (1003520)
I0103 19:48:17.094971  9752 layer_factory.hpp:74] Creating layer inception_4d/relu_5x5
I0103 19:48:17.094980  9752 net.cpp:84] Creating Layer inception_4d/relu_5x5
I0103 19:48:17.094986  9752 net.cpp:380] inception_4d/relu_5x5 <- inception_4d/5x5
I0103 19:48:17.094993  9752 net.cpp:327] inception_4d/relu_5x5 -> inception_4d/5x5 (in-place)
I0103 19:48:17.095000  9752 net.cpp:113] Setting up inception_4d/relu_5x5
I0103 19:48:17.095067  9752 net.cpp:120] Top shape: 80 64 14 14 (1003520)
I0103 19:48:17.095073  9752 layer_factory.hpp:74] Creating layer inception_4d/pool
I0103 19:48:17.095079  9752 layer_factory.cpp:56] CUDNN does not support padding or multiple tops. Using Caffe's own pooling layer.
I0103 19:48:17.095084  9752 net.cpp:84] Creating Layer inception_4d/pool
I0103 19:48:17.095090  9752 net.cpp:380] inception_4d/pool <- inception_4c/output_inception_4c/output_0_split_3
I0103 19:48:17.095096  9752 net.cpp:338] inception_4d/pool -> inception_4d/pool
I0103 19:48:17.095104  9752 net.cpp:113] Setting up inception_4d/pool
I0103 19:48:17.095113  9752 net.cpp:120] Top shape: 80 512 14 14 (8028160)
I0103 19:48:17.095118  9752 layer_factory.hpp:74] Creating layer inception_4d/pool_proj
I0103 19:48:17.095126  9752 net.cpp:84] Creating Layer inception_4d/pool_proj
I0103 19:48:17.095131  9752 net.cpp:380] inception_4d/pool_proj <- inception_4d/pool
I0103 19:48:17.095140  9752 net.cpp:338] inception_4d/pool_proj -> inception_4d/pool_proj
I0103 19:48:17.095147  9752 net.cpp:113] Setting up inception_4d/pool_proj
I0103 19:48:17.095947  9752 net.cpp:120] Top shape: 80 64 14 14 (1003520)
I0103 19:48:17.095963  9752 layer_factory.hpp:74] Creating layer inception_4d/relu_pool_proj
I0103 19:48:17.095973  9752 net.cpp:84] Creating Layer inception_4d/relu_pool_proj
I0103 19:48:17.095978  9752 net.cpp:380] inception_4d/relu_pool_proj <- inception_4d/pool_proj
I0103 19:48:17.095985  9752 net.cpp:327] inception_4d/relu_pool_proj -> inception_4d/pool_proj (in-place)
I0103 19:48:17.095993  9752 net.cpp:113] Setting up inception_4d/relu_pool_proj
I0103 19:48:17.096274  9752 net.cpp:120] Top shape: 80 64 14 14 (1003520)
I0103 19:48:17.096297  9752 layer_factory.hpp:74] Creating layer inception_4d/output
I0103 19:48:17.096305  9752 net.cpp:84] Creating Layer inception_4d/output
I0103 19:48:17.096312  9752 net.cpp:380] inception_4d/output <- inception_4d/1x1
I0103 19:48:17.096318  9752 net.cpp:380] inception_4d/output <- inception_4d/3x3
I0103 19:48:17.096323  9752 net.cpp:380] inception_4d/output <- inception_4d/5x5
I0103 19:48:17.096328  9752 net.cpp:380] inception_4d/output <- inception_4d/pool_proj
I0103 19:48:17.096333  9752 net.cpp:338] inception_4d/output -> inception_4d/output
I0103 19:48:17.096341  9752 net.cpp:113] Setting up inception_4d/output
I0103 19:48:17.096349  9752 net.cpp:120] Top shape: 80 528 14 14 (8279040)
I0103 19:48:17.096354  9752 layer_factory.hpp:74] Creating layer inception_4d/output_inception_4d/output_0_split
I0103 19:48:17.096360  9752 net.cpp:84] Creating Layer inception_4d/output_inception_4d/output_0_split
I0103 19:48:17.096364  9752 net.cpp:380] inception_4d/output_inception_4d/output_0_split <- inception_4d/output
I0103 19:48:17.096372  9752 net.cpp:338] inception_4d/output_inception_4d/output_0_split -> inception_4d/output_inception_4d/output_0_split_0
I0103 19:48:17.096380  9752 net.cpp:338] inception_4d/output_inception_4d/output_0_split -> inception_4d/output_inception_4d/output_0_split_1
I0103 19:48:17.096387  9752 net.cpp:338] inception_4d/output_inception_4d/output_0_split -> inception_4d/output_inception_4d/output_0_split_2
I0103 19:48:17.096400  9752 net.cpp:338] inception_4d/output_inception_4d/output_0_split -> inception_4d/output_inception_4d/output_0_split_3
I0103 19:48:17.096412  9752 net.cpp:338] inception_4d/output_inception_4d/output_0_split -> inception_4d/output_inception_4d/output_0_split_4
I0103 19:48:17.096420  9752 net.cpp:113] Setting up inception_4d/output_inception_4d/output_0_split
I0103 19:48:17.096439  9752 net.cpp:120] Top shape: 80 528 14 14 (8279040)
I0103 19:48:17.096446  9752 net.cpp:120] Top shape: 80 528 14 14 (8279040)
I0103 19:48:17.096451  9752 net.cpp:120] Top shape: 80 528 14 14 (8279040)
I0103 19:48:17.096454  9752 net.cpp:120] Top shape: 80 528 14 14 (8279040)
I0103 19:48:17.096459  9752 net.cpp:120] Top shape: 80 528 14 14 (8279040)
I0103 19:48:17.096463  9752 layer_factory.hpp:74] Creating layer loss2/ave_pool
I0103 19:48:17.096470  9752 net.cpp:84] Creating Layer loss2/ave_pool
I0103 19:48:17.096474  9752 net.cpp:380] loss2/ave_pool <- inception_4d/output_inception_4d/output_0_split_0
I0103 19:48:17.096482  9752 net.cpp:338] loss2/ave_pool -> loss2/ave_pool
I0103 19:48:17.096488  9752 net.cpp:113] Setting up loss2/ave_pool
I0103 19:48:17.096555  9752 net.cpp:120] Top shape: 80 528 4 4 (675840)
I0103 19:48:17.096565  9752 layer_factory.hpp:74] Creating layer loss2/conv
I0103 19:48:17.096571  9752 net.cpp:84] Creating Layer loss2/conv
I0103 19:48:17.096576  9752 net.cpp:380] loss2/conv <- loss2/ave_pool
I0103 19:48:17.096585  9752 net.cpp:338] loss2/conv -> loss2/conv
I0103 19:48:17.096592  9752 net.cpp:113] Setting up loss2/conv
I0103 19:48:17.098419  9752 net.cpp:120] Top shape: 80 128 4 4 (163840)
I0103 19:48:17.098438  9752 layer_factory.hpp:74] Creating layer loss2/relu_conv
I0103 19:48:17.098445  9752 net.cpp:84] Creating Layer loss2/relu_conv
I0103 19:48:17.098450  9752 net.cpp:380] loss2/relu_conv <- loss2/conv
I0103 19:48:17.098459  9752 net.cpp:327] loss2/relu_conv -> loss2/conv (in-place)
I0103 19:48:17.098466  9752 net.cpp:113] Setting up loss2/relu_conv
I0103 19:48:17.098533  9752 net.cpp:120] Top shape: 80 128 4 4 (163840)
I0103 19:48:17.098541  9752 layer_factory.hpp:74] Creating layer loss2/fc
I0103 19:48:17.098549  9752 net.cpp:84] Creating Layer loss2/fc
I0103 19:48:17.098554  9752 net.cpp:380] loss2/fc <- loss2/conv
I0103 19:48:17.098562  9752 net.cpp:338] loss2/fc -> loss2/fc
I0103 19:48:17.098569  9752 net.cpp:113] Setting up loss2/fc
I0103 19:48:17.270066  9752 net.cpp:120] Top shape: 80 1024 (81920)
I0103 19:48:17.270100  9752 layer_factory.hpp:74] Creating layer loss2/relu_fc
I0103 19:48:17.270114  9752 net.cpp:84] Creating Layer loss2/relu_fc
I0103 19:48:17.270123  9752 net.cpp:380] loss2/relu_fc <- loss2/fc
I0103 19:48:17.270131  9752 net.cpp:327] loss2/relu_fc -> loss2/fc (in-place)
I0103 19:48:17.270140  9752 net.cpp:113] Setting up loss2/relu_fc
I0103 19:48:17.270593  9752 net.cpp:120] Top shape: 80 1024 (81920)
I0103 19:48:17.270606  9752 layer_factory.hpp:74] Creating layer loss2/drop_fc
I0103 19:48:17.270617  9752 net.cpp:84] Creating Layer loss2/drop_fc
I0103 19:48:17.270622  9752 net.cpp:380] loss2/drop_fc <- loss2/fc
I0103 19:48:17.270630  9752 net.cpp:327] loss2/drop_fc -> loss2/fc (in-place)
I0103 19:48:17.270638  9752 net.cpp:113] Setting up loss2/drop_fc
I0103 19:48:17.270645  9752 net.cpp:120] Top shape: 80 1024 (81920)
I0103 19:48:17.270650  9752 layer_factory.hpp:74] Creating layer loss2/classifier_kaggle
I0103 19:48:17.270660  9752 net.cpp:84] Creating Layer loss2/classifier_kaggle
I0103 19:48:17.270664  9752 net.cpp:380] loss2/classifier_kaggle <- loss2/fc
I0103 19:48:17.270671  9752 net.cpp:338] loss2/classifier_kaggle -> loss2/classifier_kaggle
I0103 19:48:17.270681  9752 net.cpp:113] Setting up loss2/classifier_kaggle
I0103 19:48:17.275642  9752 net.cpp:120] Top shape: 80 447 (35760)
I0103 19:48:17.275657  9752 layer_factory.hpp:74] Creating layer loss2/loss
I0103 19:48:17.275665  9752 net.cpp:84] Creating Layer loss2/loss
I0103 19:48:17.275671  9752 net.cpp:380] loss2/loss <- loss2/classifier_kaggle
I0103 19:48:17.275677  9752 net.cpp:380] loss2/loss <- label_data_1_split_1
I0103 19:48:17.275707  9752 net.cpp:338] loss2/loss -> loss2/loss1
I0103 19:48:17.275715  9752 net.cpp:113] Setting up loss2/loss
I0103 19:48:17.275722  9752 layer_factory.hpp:74] Creating layer loss2/loss
I0103 19:48:17.275897  9752 net.cpp:120] Top shape: (1)
I0103 19:48:17.275904  9752 net.cpp:122]     with loss weight 0.3
I0103 19:48:17.275915  9752 layer_factory.hpp:74] Creating layer inception_4e/1x1
I0103 19:48:17.275925  9752 net.cpp:84] Creating Layer inception_4e/1x1
I0103 19:48:17.275931  9752 net.cpp:380] inception_4e/1x1 <- inception_4d/output_inception_4d/output_0_split_1
I0103 19:48:17.275940  9752 net.cpp:338] inception_4e/1x1 -> inception_4e/1x1
I0103 19:48:17.275949  9752 net.cpp:113] Setting up inception_4e/1x1
I0103 19:48:17.277946  9752 net.cpp:120] Top shape: 80 256 14 14 (4014080)
I0103 19:48:17.277962  9752 layer_factory.hpp:74] Creating layer inception_4e/relu_1x1
I0103 19:48:17.277971  9752 net.cpp:84] Creating Layer inception_4e/relu_1x1
I0103 19:48:17.277976  9752 net.cpp:380] inception_4e/relu_1x1 <- inception_4e/1x1
I0103 19:48:17.277983  9752 net.cpp:327] inception_4e/relu_1x1 -> inception_4e/1x1 (in-place)
I0103 19:48:17.277992  9752 net.cpp:113] Setting up inception_4e/relu_1x1
I0103 19:48:17.278058  9752 net.cpp:120] Top shape: 80 256 14 14 (4014080)
I0103 19:48:17.278064  9752 layer_factory.hpp:74] Creating layer inception_4e/3x3_reduce
I0103 19:48:17.278075  9752 net.cpp:84] Creating Layer inception_4e/3x3_reduce
I0103 19:48:17.278080  9752 net.cpp:380] inception_4e/3x3_reduce <- inception_4d/output_inception_4d/output_0_split_2
I0103 19:48:17.278087  9752 net.cpp:338] inception_4e/3x3_reduce -> inception_4e/3x3_reduce
I0103 19:48:17.278097  9752 net.cpp:113] Setting up inception_4e/3x3_reduce
I0103 19:48:17.279487  9752 net.cpp:120] Top shape: 80 160 14 14 (2508800)
I0103 19:48:17.279503  9752 layer_factory.hpp:74] Creating layer inception_4e/relu_3x3_reduce
I0103 19:48:17.279512  9752 net.cpp:84] Creating Layer inception_4e/relu_3x3_reduce
I0103 19:48:17.279517  9752 net.cpp:380] inception_4e/relu_3x3_reduce <- inception_4e/3x3_reduce
I0103 19:48:17.279525  9752 net.cpp:327] inception_4e/relu_3x3_reduce -> inception_4e/3x3_reduce (in-place)
I0103 19:48:17.279531  9752 net.cpp:113] Setting up inception_4e/relu_3x3_reduce
I0103 19:48:17.279598  9752 net.cpp:120] Top shape: 80 160 14 14 (2508800)
I0103 19:48:17.279608  9752 layer_factory.hpp:74] Creating layer inception_4e/3x3
I0103 19:48:17.279615  9752 net.cpp:84] Creating Layer inception_4e/3x3
I0103 19:48:17.279620  9752 net.cpp:380] inception_4e/3x3 <- inception_4e/3x3_reduce
I0103 19:48:17.279628  9752 net.cpp:338] inception_4e/3x3 -> inception_4e/3x3
I0103 19:48:17.279636  9752 net.cpp:113] Setting up inception_4e/3x3
I0103 19:48:17.285259  9752 net.cpp:120] Top shape: 80 320 14 14 (5017600)
I0103 19:48:17.285277  9752 layer_factory.hpp:74] Creating layer inception_4e/relu_3x3
I0103 19:48:17.285289  9752 net.cpp:84] Creating Layer inception_4e/relu_3x3
I0103 19:48:17.285293  9752 net.cpp:380] inception_4e/relu_3x3 <- inception_4e/3x3
I0103 19:48:17.285300  9752 net.cpp:327] inception_4e/relu_3x3 -> inception_4e/3x3 (in-place)
I0103 19:48:17.285307  9752 net.cpp:113] Setting up inception_4e/relu_3x3
I0103 19:48:17.285598  9752 net.cpp:120] Top shape: 80 320 14 14 (5017600)
I0103 19:48:17.285609  9752 layer_factory.hpp:74] Creating layer inception_4e/5x5_reduce
I0103 19:48:17.285619  9752 net.cpp:84] Creating Layer inception_4e/5x5_reduce
I0103 19:48:17.285624  9752 net.cpp:380] inception_4e/5x5_reduce <- inception_4d/output_inception_4d/output_0_split_3
I0103 19:48:17.285632  9752 net.cpp:338] inception_4e/5x5_reduce -> inception_4e/5x5_reduce
I0103 19:48:17.285641  9752 net.cpp:113] Setting up inception_4e/5x5_reduce
I0103 19:48:17.286267  9752 net.cpp:120] Top shape: 80 32 14 14 (501760)
I0103 19:48:17.286281  9752 layer_factory.hpp:74] Creating layer inception_4e/relu_5x5_reduce
I0103 19:48:17.286289  9752 net.cpp:84] Creating Layer inception_4e/relu_5x5_reduce
I0103 19:48:17.286304  9752 net.cpp:380] inception_4e/relu_5x5_reduce <- inception_4e/5x5_reduce
I0103 19:48:17.286319  9752 net.cpp:327] inception_4e/relu_5x5_reduce -> inception_4e/5x5_reduce (in-place)
I0103 19:48:17.286329  9752 net.cpp:113] Setting up inception_4e/relu_5x5_reduce
I0103 19:48:17.286396  9752 net.cpp:120] Top shape: 80 32 14 14 (501760)
I0103 19:48:17.286402  9752 layer_factory.hpp:74] Creating layer inception_4e/5x5
I0103 19:48:17.286432  9752 net.cpp:84] Creating Layer inception_4e/5x5
I0103 19:48:17.286437  9752 net.cpp:380] inception_4e/5x5 <- inception_4e/5x5_reduce
I0103 19:48:17.286447  9752 net.cpp:338] inception_4e/5x5 -> inception_4e/5x5
I0103 19:48:17.286454  9752 net.cpp:113] Setting up inception_4e/5x5
I0103 19:48:17.288050  9752 net.cpp:120] Top shape: 80 128 14 14 (2007040)
I0103 19:48:17.288065  9752 layer_factory.hpp:74] Creating layer inception_4e/relu_5x5
I0103 19:48:17.288075  9752 net.cpp:84] Creating Layer inception_4e/relu_5x5
I0103 19:48:17.288081  9752 net.cpp:380] inception_4e/relu_5x5 <- inception_4e/5x5
I0103 19:48:17.288087  9752 net.cpp:327] inception_4e/relu_5x5 -> inception_4e/5x5 (in-place)
I0103 19:48:17.288094  9752 net.cpp:113] Setting up inception_4e/relu_5x5
I0103 19:48:17.288163  9752 net.cpp:120] Top shape: 80 128 14 14 (2007040)
I0103 19:48:17.288169  9752 layer_factory.hpp:74] Creating layer inception_4e/pool
I0103 19:48:17.288175  9752 layer_factory.cpp:56] CUDNN does not support padding or multiple tops. Using Caffe's own pooling layer.
I0103 19:48:17.288180  9752 net.cpp:84] Creating Layer inception_4e/pool
I0103 19:48:17.288187  9752 net.cpp:380] inception_4e/pool <- inception_4d/output_inception_4d/output_0_split_4
I0103 19:48:17.288192  9752 net.cpp:338] inception_4e/pool -> inception_4e/pool
I0103 19:48:17.288199  9752 net.cpp:113] Setting up inception_4e/pool
I0103 19:48:17.288209  9752 net.cpp:120] Top shape: 80 528 14 14 (8279040)
I0103 19:48:17.288214  9752 layer_factory.hpp:74] Creating layer inception_4e/pool_proj
I0103 19:48:17.288221  9752 net.cpp:84] Creating Layer inception_4e/pool_proj
I0103 19:48:17.288226  9752 net.cpp:380] inception_4e/pool_proj <- inception_4e/pool
I0103 19:48:17.288234  9752 net.cpp:338] inception_4e/pool_proj -> inception_4e/pool_proj
I0103 19:48:17.288242  9752 net.cpp:113] Setting up inception_4e/pool_proj
I0103 19:48:17.289448  9752 net.cpp:120] Top shape: 80 128 14 14 (2007040)
I0103 19:48:17.289466  9752 layer_factory.hpp:74] Creating layer inception_4e/relu_pool_proj
I0103 19:48:17.289474  9752 net.cpp:84] Creating Layer inception_4e/relu_pool_proj
I0103 19:48:17.289479  9752 net.cpp:380] inception_4e/relu_pool_proj <- inception_4e/pool_proj
I0103 19:48:17.289486  9752 net.cpp:327] inception_4e/relu_pool_proj -> inception_4e/pool_proj (in-place)
I0103 19:48:17.289494  9752 net.cpp:113] Setting up inception_4e/relu_pool_proj
I0103 19:48:17.289563  9752 net.cpp:120] Top shape: 80 128 14 14 (2007040)
I0103 19:48:17.289572  9752 layer_factory.hpp:74] Creating layer inception_4e/output
I0103 19:48:17.289578  9752 net.cpp:84] Creating Layer inception_4e/output
I0103 19:48:17.289583  9752 net.cpp:380] inception_4e/output <- inception_4e/1x1
I0103 19:48:17.289589  9752 net.cpp:380] inception_4e/output <- inception_4e/3x3
I0103 19:48:17.289597  9752 net.cpp:380] inception_4e/output <- inception_4e/5x5
I0103 19:48:17.289602  9752 net.cpp:380] inception_4e/output <- inception_4e/pool_proj
I0103 19:48:17.289609  9752 net.cpp:338] inception_4e/output -> inception_4e/output
I0103 19:48:17.289618  9752 net.cpp:113] Setting up inception_4e/output
I0103 19:48:17.289625  9752 net.cpp:120] Top shape: 80 832 14 14 (13045760)
I0103 19:48:17.289629  9752 layer_factory.hpp:74] Creating layer pool4/3x3_s2
I0103 19:48:17.289636  9752 net.cpp:84] Creating Layer pool4/3x3_s2
I0103 19:48:17.289641  9752 net.cpp:380] pool4/3x3_s2 <- inception_4e/output
I0103 19:48:17.289647  9752 net.cpp:338] pool4/3x3_s2 -> pool4/3x3_s2
I0103 19:48:17.289654  9752 net.cpp:113] Setting up pool4/3x3_s2
I0103 19:48:17.289940  9752 net.cpp:120] Top shape: 80 832 7 7 (3261440)
I0103 19:48:17.289957  9752 layer_factory.hpp:74] Creating layer pool4/3x3_s2_pool4/3x3_s2_0_split
I0103 19:48:17.289970  9752 net.cpp:84] Creating Layer pool4/3x3_s2_pool4/3x3_s2_0_split
I0103 19:48:17.289976  9752 net.cpp:380] pool4/3x3_s2_pool4/3x3_s2_0_split <- pool4/3x3_s2
I0103 19:48:17.289985  9752 net.cpp:338] pool4/3x3_s2_pool4/3x3_s2_0_split -> pool4/3x3_s2_pool4/3x3_s2_0_split_0
I0103 19:48:17.289994  9752 net.cpp:338] pool4/3x3_s2_pool4/3x3_s2_0_split -> pool4/3x3_s2_pool4/3x3_s2_0_split_1
I0103 19:48:17.290000  9752 net.cpp:338] pool4/3x3_s2_pool4/3x3_s2_0_split -> pool4/3x3_s2_pool4/3x3_s2_0_split_2
I0103 19:48:17.290007  9752 net.cpp:338] pool4/3x3_s2_pool4/3x3_s2_0_split -> pool4/3x3_s2_pool4/3x3_s2_0_split_3
I0103 19:48:17.290014  9752 net.cpp:113] Setting up pool4/3x3_s2_pool4/3x3_s2_0_split
I0103 19:48:17.290021  9752 net.cpp:120] Top shape: 80 832 7 7 (3261440)
I0103 19:48:17.290026  9752 net.cpp:120] Top shape: 80 832 7 7 (3261440)
I0103 19:48:17.290030  9752 net.cpp:120] Top shape: 80 832 7 7 (3261440)
I0103 19:48:17.290035  9752 net.cpp:120] Top shape: 80 832 7 7 (3261440)
I0103 19:48:17.290040  9752 layer_factory.hpp:74] Creating layer inception_5a/1x1
I0103 19:48:17.290050  9752 net.cpp:84] Creating Layer inception_5a/1x1
I0103 19:48:17.290055  9752 net.cpp:380] inception_5a/1x1 <- pool4/3x3_s2_pool4/3x3_s2_0_split_0
I0103 19:48:17.290063  9752 net.cpp:338] inception_5a/1x1 -> inception_5a/1x1
I0103 19:48:17.290071  9752 net.cpp:113] Setting up inception_5a/1x1
I0103 19:48:17.292862  9752 net.cpp:120] Top shape: 80 256 7 7 (1003520)
I0103 19:48:17.292878  9752 layer_factory.hpp:74] Creating layer inception_5a/relu_1x1
I0103 19:48:17.292887  9752 net.cpp:84] Creating Layer inception_5a/relu_1x1
I0103 19:48:17.292892  9752 net.cpp:380] inception_5a/relu_1x1 <- inception_5a/1x1
I0103 19:48:17.292899  9752 net.cpp:327] inception_5a/relu_1x1 -> inception_5a/1x1 (in-place)
I0103 19:48:17.292906  9752 net.cpp:113] Setting up inception_5a/relu_1x1
I0103 19:48:17.292973  9752 net.cpp:120] Top shape: 80 256 7 7 (1003520)
I0103 19:48:17.292979  9752 layer_factory.hpp:74] Creating layer inception_5a/3x3_reduce
I0103 19:48:17.292985  9752 net.cpp:84] Creating Layer inception_5a/3x3_reduce
I0103 19:48:17.292990  9752 net.cpp:380] inception_5a/3x3_reduce <- pool4/3x3_s2_pool4/3x3_s2_0_split_1
I0103 19:48:17.292999  9752 net.cpp:338] inception_5a/3x3_reduce -> inception_5a/3x3_reduce
I0103 19:48:17.293007  9752 net.cpp:113] Setting up inception_5a/3x3_reduce
I0103 19:48:17.294906  9752 net.cpp:120] Top shape: 80 160 7 7 (627200)
I0103 19:48:17.294922  9752 layer_factory.hpp:74] Creating layer inception_5a/relu_3x3_reduce
I0103 19:48:17.294932  9752 net.cpp:84] Creating Layer inception_5a/relu_3x3_reduce
I0103 19:48:17.294939  9752 net.cpp:380] inception_5a/relu_3x3_reduce <- inception_5a/3x3_reduce
I0103 19:48:17.294945  9752 net.cpp:327] inception_5a/relu_3x3_reduce -> inception_5a/3x3_reduce (in-place)
I0103 19:48:17.294951  9752 net.cpp:113] Setting up inception_5a/relu_3x3_reduce
I0103 19:48:17.295019  9752 net.cpp:120] Top shape: 80 160 7 7 (627200)
I0103 19:48:17.295025  9752 layer_factory.hpp:74] Creating layer inception_5a/3x3
I0103 19:48:17.295035  9752 net.cpp:84] Creating Layer inception_5a/3x3
I0103 19:48:17.295039  9752 net.cpp:380] inception_5a/3x3 <- inception_5a/3x3_reduce
I0103 19:48:17.295047  9752 net.cpp:338] inception_5a/3x3 -> inception_5a/3x3
I0103 19:48:17.295055  9752 net.cpp:113] Setting up inception_5a/3x3
I0103 19:48:17.300437  9752 net.cpp:120] Top shape: 80 320 7 7 (1254400)
I0103 19:48:17.300457  9752 layer_factory.hpp:74] Creating layer inception_5a/relu_3x3
I0103 19:48:17.300465  9752 net.cpp:84] Creating Layer inception_5a/relu_3x3
I0103 19:48:17.300470  9752 net.cpp:380] inception_5a/relu_3x3 <- inception_5a/3x3
I0103 19:48:17.300477  9752 net.cpp:327] inception_5a/relu_3x3 -> inception_5a/3x3 (in-place)
I0103 19:48:17.300484  9752 net.cpp:113] Setting up inception_5a/relu_3x3
I0103 19:48:17.300552  9752 net.cpp:120] Top shape: 80 320 7 7 (1254400)
I0103 19:48:17.300560  9752 layer_factory.hpp:74] Creating layer inception_5a/5x5_reduce
I0103 19:48:17.300581  9752 net.cpp:84] Creating Layer inception_5a/5x5_reduce
I0103 19:48:17.300587  9752 net.cpp:380] inception_5a/5x5_reduce <- pool4/3x3_s2_pool4/3x3_s2_0_split_2
I0103 19:48:17.300595  9752 net.cpp:338] inception_5a/5x5_reduce -> inception_5a/5x5_reduce
I0103 19:48:17.300602  9752 net.cpp:113] Setting up inception_5a/5x5_reduce
I0103 19:48:17.301363  9752 net.cpp:120] Top shape: 80 32 7 7 (125440)
I0103 19:48:17.301381  9752 layer_factory.hpp:74] Creating layer inception_5a/relu_5x5_reduce
I0103 19:48:17.301391  9752 net.cpp:84] Creating Layer inception_5a/relu_5x5_reduce
I0103 19:48:17.301396  9752 net.cpp:380] inception_5a/relu_5x5_reduce <- inception_5a/5x5_reduce
I0103 19:48:17.301403  9752 net.cpp:327] inception_5a/relu_5x5_reduce -> inception_5a/5x5_reduce (in-place)
I0103 19:48:17.301410  9752 net.cpp:113] Setting up inception_5a/relu_5x5_reduce
I0103 19:48:17.301690  9752 net.cpp:120] Top shape: 80 32 7 7 (125440)
I0103 19:48:17.301702  9752 layer_factory.hpp:74] Creating layer inception_5a/5x5
I0103 19:48:17.301712  9752 net.cpp:84] Creating Layer inception_5a/5x5
I0103 19:48:17.301717  9752 net.cpp:380] inception_5a/5x5 <- inception_5a/5x5_reduce
I0103 19:48:17.301724  9752 net.cpp:338] inception_5a/5x5 -> inception_5a/5x5
I0103 19:48:17.301733  9752 net.cpp:113] Setting up inception_5a/5x5
I0103 19:48:17.303325  9752 net.cpp:120] Top shape: 80 128 7 7 (501760)
I0103 19:48:17.303340  9752 layer_factory.hpp:74] Creating layer inception_5a/relu_5x5
I0103 19:48:17.303349  9752 net.cpp:84] Creating Layer inception_5a/relu_5x5
I0103 19:48:17.303354  9752 net.cpp:380] inception_5a/relu_5x5 <- inception_5a/5x5
I0103 19:48:17.303362  9752 net.cpp:327] inception_5a/relu_5x5 -> inception_5a/5x5 (in-place)
I0103 19:48:17.303370  9752 net.cpp:113] Setting up inception_5a/relu_5x5
I0103 19:48:17.303438  9752 net.cpp:120] Top shape: 80 128 7 7 (501760)
I0103 19:48:17.303444  9752 layer_factory.hpp:74] Creating layer inception_5a/pool
I0103 19:48:17.303450  9752 layer_factory.cpp:56] CUDNN does not support padding or multiple tops. Using Caffe's own pooling layer.
I0103 19:48:17.303458  9752 net.cpp:84] Creating Layer inception_5a/pool
I0103 19:48:17.303463  9752 net.cpp:380] inception_5a/pool <- pool4/3x3_s2_pool4/3x3_s2_0_split_3
I0103 19:48:17.303470  9752 net.cpp:338] inception_5a/pool -> inception_5a/pool
I0103 19:48:17.303478  9752 net.cpp:113] Setting up inception_5a/pool
I0103 19:48:17.303488  9752 net.cpp:120] Top shape: 80 832 7 7 (3261440)
I0103 19:48:17.303493  9752 layer_factory.hpp:74] Creating layer inception_5a/pool_proj
I0103 19:48:17.303499  9752 net.cpp:84] Creating Layer inception_5a/pool_proj
I0103 19:48:17.303504  9752 net.cpp:380] inception_5a/pool_proj <- inception_5a/pool
I0103 19:48:17.303510  9752 net.cpp:338] inception_5a/pool_proj -> inception_5a/pool_proj
I0103 19:48:17.303517  9752 net.cpp:113] Setting up inception_5a/pool_proj
I0103 19:48:17.305147  9752 net.cpp:120] Top shape: 80 128 7 7 (501760)
I0103 19:48:17.305163  9752 layer_factory.hpp:74] Creating layer inception_5a/relu_pool_proj
I0103 19:48:17.305171  9752 net.cpp:84] Creating Layer inception_5a/relu_pool_proj
I0103 19:48:17.305176  9752 net.cpp:380] inception_5a/relu_pool_proj <- inception_5a/pool_proj
I0103 19:48:17.305184  9752 net.cpp:327] inception_5a/relu_pool_proj -> inception_5a/pool_proj (in-place)
I0103 19:48:17.305192  9752 net.cpp:113] Setting up inception_5a/relu_pool_proj
I0103 19:48:17.305255  9752 net.cpp:120] Top shape: 80 128 7 7 (501760)
I0103 19:48:17.305261  9752 layer_factory.hpp:74] Creating layer inception_5a/output
I0103 19:48:17.305269  9752 net.cpp:84] Creating Layer inception_5a/output
I0103 19:48:17.305274  9752 net.cpp:380] inception_5a/output <- inception_5a/1x1
I0103 19:48:17.305280  9752 net.cpp:380] inception_5a/output <- inception_5a/3x3
I0103 19:48:17.305289  9752 net.cpp:380] inception_5a/output <- inception_5a/5x5
I0103 19:48:17.305294  9752 net.cpp:380] inception_5a/output <- inception_5a/pool_proj
I0103 19:48:17.305306  9752 net.cpp:338] inception_5a/output -> inception_5a/output
I0103 19:48:17.305321  9752 net.cpp:113] Setting up inception_5a/output
I0103 19:48:17.305330  9752 net.cpp:120] Top shape: 80 832 7 7 (3261440)
I0103 19:48:17.305335  9752 layer_factory.hpp:74] Creating layer inception_5a/output_inception_5a/output_0_split
I0103 19:48:17.305342  9752 net.cpp:84] Creating Layer inception_5a/output_inception_5a/output_0_split
I0103 19:48:17.305346  9752 net.cpp:380] inception_5a/output_inception_5a/output_0_split <- inception_5a/output
I0103 19:48:17.305352  9752 net.cpp:338] inception_5a/output_inception_5a/output_0_split -> inception_5a/output_inception_5a/output_0_split_0
I0103 19:48:17.305361  9752 net.cpp:338] inception_5a/output_inception_5a/output_0_split -> inception_5a/output_inception_5a/output_0_split_1
I0103 19:48:17.305371  9752 net.cpp:338] inception_5a/output_inception_5a/output_0_split -> inception_5a/output_inception_5a/output_0_split_2
I0103 19:48:17.305377  9752 net.cpp:338] inception_5a/output_inception_5a/output_0_split -> inception_5a/output_inception_5a/output_0_split_3
I0103 19:48:17.305383  9752 net.cpp:113] Setting up inception_5a/output_inception_5a/output_0_split
I0103 19:48:17.305392  9752 net.cpp:120] Top shape: 80 832 7 7 (3261440)
I0103 19:48:17.305397  9752 net.cpp:120] Top shape: 80 832 7 7 (3261440)
I0103 19:48:17.305402  9752 net.cpp:120] Top shape: 80 832 7 7 (3261440)
I0103 19:48:17.305405  9752 net.cpp:120] Top shape: 80 832 7 7 (3261440)
I0103 19:48:17.305410  9752 layer_factory.hpp:74] Creating layer inception_5b/1x1
I0103 19:48:17.305419  9752 net.cpp:84] Creating Layer inception_5b/1x1
I0103 19:48:17.305424  9752 net.cpp:380] inception_5b/1x1 <- inception_5a/output_inception_5a/output_0_split_0
I0103 19:48:17.305430  9752 net.cpp:338] inception_5b/1x1 -> inception_5b/1x1
I0103 19:48:17.305438  9752 net.cpp:113] Setting up inception_5b/1x1
I0103 19:48:17.309491  9752 net.cpp:120] Top shape: 80 384 7 7 (1505280)
I0103 19:48:17.309507  9752 layer_factory.hpp:74] Creating layer inception_5b/relu_1x1
I0103 19:48:17.309515  9752 net.cpp:84] Creating Layer inception_5b/relu_1x1
I0103 19:48:17.309521  9752 net.cpp:380] inception_5b/relu_1x1 <- inception_5b/1x1
I0103 19:48:17.309528  9752 net.cpp:327] inception_5b/relu_1x1 -> inception_5b/1x1 (in-place)
I0103 19:48:17.309535  9752 net.cpp:113] Setting up inception_5b/relu_1x1
I0103 19:48:17.309821  9752 net.cpp:120] Top shape: 80 384 7 7 (1505280)
I0103 19:48:17.309831  9752 layer_factory.hpp:74] Creating layer inception_5b/3x3_reduce
I0103 19:48:17.309841  9752 net.cpp:84] Creating Layer inception_5b/3x3_reduce
I0103 19:48:17.309847  9752 net.cpp:380] inception_5b/3x3_reduce <- inception_5a/output_inception_5a/output_0_split_1
I0103 19:48:17.309854  9752 net.cpp:338] inception_5b/3x3_reduce -> inception_5b/3x3_reduce
I0103 19:48:17.309864  9752 net.cpp:113] Setting up inception_5b/3x3_reduce
I0103 19:48:17.312014  9752 net.cpp:120] Top shape: 80 192 7 7 (752640)
I0103 19:48:17.312031  9752 layer_factory.hpp:74] Creating layer inception_5b/relu_3x3_reduce
I0103 19:48:17.312038  9752 net.cpp:84] Creating Layer inception_5b/relu_3x3_reduce
I0103 19:48:17.312043  9752 net.cpp:380] inception_5b/relu_3x3_reduce <- inception_5b/3x3_reduce
I0103 19:48:17.312050  9752 net.cpp:327] inception_5b/relu_3x3_reduce -> inception_5b/3x3_reduce (in-place)
I0103 19:48:17.312057  9752 net.cpp:113] Setting up inception_5b/relu_3x3_reduce
I0103 19:48:17.312131  9752 net.cpp:120] Top shape: 80 192 7 7 (752640)
I0103 19:48:17.312137  9752 layer_factory.hpp:74] Creating layer inception_5b/3x3
I0103 19:48:17.312144  9752 net.cpp:84] Creating Layer inception_5b/3x3
I0103 19:48:17.312150  9752 net.cpp:380] inception_5b/3x3 <- inception_5b/3x3_reduce
I0103 19:48:17.312157  9752 net.cpp:338] inception_5b/3x3 -> inception_5b/3x3
I0103 19:48:17.312183  9752 net.cpp:113] Setting up inception_5b/3x3
I0103 19:48:17.370375  9752 net.cpp:120] Top shape: 80 384 7 7 (1505280)
I0103 19:48:17.370442  9752 layer_factory.hpp:74] Creating layer inception_5b/relu_3x3
I0103 19:48:17.370476  9752 net.cpp:84] Creating Layer inception_5b/relu_3x3
I0103 19:48:17.370504  9752 net.cpp:380] inception_5b/relu_3x3 <- inception_5b/3x3
I0103 19:48:17.370520  9752 net.cpp:327] inception_5b/relu_3x3 -> inception_5b/3x3 (in-place)
I0103 19:48:17.370538  9752 net.cpp:113] Setting up inception_5b/relu_3x3
I0103 19:48:17.370681  9752 net.cpp:120] Top shape: 80 384 7 7 (1505280)
I0103 19:48:17.370692  9752 layer_factory.hpp:74] Creating layer inception_5b/5x5_reduce
I0103 19:48:17.370713  9752 net.cpp:84] Creating Layer inception_5b/5x5_reduce
I0103 19:48:17.370724  9752 net.cpp:380] inception_5b/5x5_reduce <- inception_5a/output_inception_5a/output_0_split_2
I0103 19:48:17.370741  9752 net.cpp:338] inception_5b/5x5_reduce -> inception_5b/5x5_reduce
I0103 19:48:17.370759  9752 net.cpp:113] Setting up inception_5b/5x5_reduce
I0103 19:48:17.372424  9752 net.cpp:120] Top shape: 80 48 7 7 (188160)
I0103 19:48:17.372452  9752 layer_factory.hpp:74] Creating layer inception_5b/relu_5x5_reduce
I0103 19:48:17.372465  9752 net.cpp:84] Creating Layer inception_5b/relu_5x5_reduce
I0103 19:48:17.372476  9752 net.cpp:380] inception_5b/relu_5x5_reduce <- inception_5b/5x5_reduce
I0103 19:48:17.372514  9752 net.cpp:327] inception_5b/relu_5x5_reduce -> inception_5b/5x5_reduce (in-place)
I0103 19:48:17.372529  9752 net.cpp:113] Setting up inception_5b/relu_5x5_reduce
I0103 19:48:17.372658  9752 net.cpp:120] Top shape: 80 48 7 7 (188160)
I0103 19:48:17.372670  9752 layer_factory.hpp:74] Creating layer inception_5b/5x5
I0103 19:48:17.372687  9752 net.cpp:84] Creating Layer inception_5b/5x5
I0103 19:48:17.372696  9752 net.cpp:380] inception_5b/5x5 <- inception_5b/5x5_reduce
I0103 19:48:17.372712  9752 net.cpp:338] inception_5b/5x5 -> inception_5b/5x5
I0103 19:48:17.372728  9752 net.cpp:113] Setting up inception_5b/5x5
I0103 19:48:17.377136  9752 net.cpp:120] Top shape: 80 128 7 7 (501760)
I0103 19:48:17.377169  9752 layer_factory.hpp:74] Creating layer inception_5b/relu_5x5
I0103 19:48:17.377187  9752 net.cpp:84] Creating Layer inception_5b/relu_5x5
I0103 19:48:17.377197  9752 net.cpp:380] inception_5b/relu_5x5 <- inception_5b/5x5
I0103 19:48:17.377214  9752 net.cpp:327] inception_5b/relu_5x5 -> inception_5b/5x5 (in-place)
I0103 19:48:17.377231  9752 net.cpp:113] Setting up inception_5b/relu_5x5
I0103 19:48:17.377703  9752 net.cpp:120] Top shape: 80 128 7 7 (501760)
I0103 19:48:17.377724  9752 layer_factory.hpp:74] Creating layer inception_5b/pool
I0103 19:48:17.377735  9752 layer_factory.cpp:56] CUDNN does not support padding or multiple tops. Using Caffe's own pooling layer.
I0103 19:48:17.377748  9752 net.cpp:84] Creating Layer inception_5b/pool
I0103 19:48:17.377759  9752 net.cpp:380] inception_5b/pool <- inception_5a/output_inception_5a/output_0_split_3
I0103 19:48:17.377778  9752 net.cpp:338] inception_5b/pool -> inception_5b/pool
I0103 19:48:17.377794  9752 net.cpp:113] Setting up inception_5b/pool
I0103 19:48:17.377813  9752 net.cpp:120] Top shape: 80 832 7 7 (3261440)
I0103 19:48:17.377822  9752 layer_factory.hpp:74] Creating layer inception_5b/pool_proj
I0103 19:48:17.377838  9752 net.cpp:84] Creating Layer inception_5b/pool_proj
I0103 19:48:17.377848  9752 net.cpp:380] inception_5b/pool_proj <- inception_5b/pool
I0103 19:48:17.377864  9752 net.cpp:338] inception_5b/pool_proj -> inception_5b/pool_proj
I0103 19:48:17.377882  9752 net.cpp:113] Setting up inception_5b/pool_proj
I0103 19:48:17.381139  9752 net.cpp:120] Top shape: 80 128 7 7 (501760)
I0103 19:48:17.381173  9752 layer_factory.hpp:74] Creating layer inception_5b/relu_pool_proj
I0103 19:48:17.381187  9752 net.cpp:84] Creating Layer inception_5b/relu_pool_proj
I0103 19:48:17.381198  9752 net.cpp:380] inception_5b/relu_pool_proj <- inception_5b/pool_proj
I0103 19:48:17.381212  9752 net.cpp:327] inception_5b/relu_pool_proj -> inception_5b/pool_proj (in-place)
I0103 19:48:17.381227  9752 net.cpp:113] Setting up inception_5b/relu_pool_proj
I0103 19:48:17.381361  9752 net.cpp:120] Top shape: 80 128 7 7 (501760)
I0103 19:48:17.381373  9752 layer_factory.hpp:74] Creating layer inception_5b/output
I0103 19:48:17.381397  9752 net.cpp:84] Creating Layer inception_5b/output
I0103 19:48:17.381422  9752 net.cpp:380] inception_5b/output <- inception_5b/1x1
I0103 19:48:17.381434  9752 net.cpp:380] inception_5b/output <- inception_5b/3x3
I0103 19:48:17.381445  9752 net.cpp:380] inception_5b/output <- inception_5b/5x5
I0103 19:48:17.381456  9752 net.cpp:380] inception_5b/output <- inception_5b/pool_proj
I0103 19:48:17.381469  9752 net.cpp:338] inception_5b/output -> inception_5b/output
I0103 19:48:17.381484  9752 net.cpp:113] Setting up inception_5b/output
I0103 19:48:17.381500  9752 net.cpp:120] Top shape: 80 1024 7 7 (4014080)
I0103 19:48:17.381510  9752 layer_factory.hpp:74] Creating layer pool5/7x7_s1
I0103 19:48:17.381527  9752 net.cpp:84] Creating Layer pool5/7x7_s1
I0103 19:48:17.381537  9752 net.cpp:380] pool5/7x7_s1 <- inception_5b/output
I0103 19:48:17.381551  9752 net.cpp:338] pool5/7x7_s1 -> pool5/7x7_s1
I0103 19:48:17.381567  9752 net.cpp:113] Setting up pool5/7x7_s1
I0103 19:48:17.381707  9752 net.cpp:120] Top shape: 80 1024 1 1 (81920)
I0103 19:48:17.381721  9752 layer_factory.hpp:74] Creating layer pool5/drop_7x7_s1
I0103 19:48:17.381733  9752 net.cpp:84] Creating Layer pool5/drop_7x7_s1
I0103 19:48:17.381743  9752 net.cpp:380] pool5/drop_7x7_s1 <- pool5/7x7_s1
I0103 19:48:17.381758  9752 net.cpp:327] pool5/drop_7x7_s1 -> pool5/7x7_s1 (in-place)
I0103 19:48:17.381772  9752 net.cpp:113] Setting up pool5/drop_7x7_s1
I0103 19:48:17.381786  9752 net.cpp:120] Top shape: 80 1024 1 1 (81920)
I0103 19:48:17.381796  9752 layer_factory.hpp:74] Creating layer loss3/classifier_kaggle
I0103 19:48:17.381811  9752 net.cpp:84] Creating Layer loss3/classifier_kaggle
I0103 19:48:17.381821  9752 net.cpp:380] loss3/classifier_kaggle <- pool5/7x7_s1
I0103 19:48:17.381837  9752 net.cpp:338] loss3/classifier_kaggle -> loss3/classifier_kaggle
I0103 19:48:17.381853  9752 net.cpp:113] Setting up loss3/classifier_kaggle
I0103 19:48:17.391597  9752 net.cpp:120] Top shape: 80 447 (35760)
I0103 19:48:17.391620  9752 layer_factory.hpp:74] Creating layer loss3/loss3
I0103 19:48:17.391638  9752 net.cpp:84] Creating Layer loss3/loss3
I0103 19:48:17.391649  9752 net.cpp:380] loss3/loss3 <- loss3/classifier_kaggle
I0103 19:48:17.391659  9752 net.cpp:380] loss3/loss3 <- label_data_1_split_2
I0103 19:48:17.391671  9752 net.cpp:338] loss3/loss3 -> loss3/loss3
I0103 19:48:17.391685  9752 net.cpp:113] Setting up loss3/loss3
…
I0103 19:48:17.401175  9752 net.cpp:257] The NetState phase (1) differed from the phase (0) specified by a rule in layer data
I0103 19:48:17.403760  9752 net.cpp:42] Initializing net from parameters: 
name: "MYNET"
state {
  phase: TEST
}
layer {
  name: "data"
  type: "ImageData"
  top: "data"
  top: "label"
  include {
    phase: TEST
  }
  transform_param {
    mirror: false
    crop_size: 224
    mean_value: 129
    mean_value: 129
    mean_value: 129
  }
  image_data_param {
    source: "/home/coldmanck/kaggle/label_val_full_resize_rotated.txt"
    batch_size: 50
    shuffle: true
  }
}
layer {
  name: "conv1/7x7_s2"
  type: "Convolution"
  bottom: "data"
  top: "conv1/7x7_s2"
  param {
    lr_mult: 1
    decay_mult: 1
  }
  param {
    lr_mult: 2
    decay_mult: 0
  }
  convolution_param {
    num_output: 64
    pad: 3
    kernel_size: 7
    stride: 2
    weight_filler {
      type: "xavier"
    }
    bias_filler {
      type: "constant"
      value: 0.2
    }
  }
}
layer {
  name: "conv1/relu_7x7"
  type: "ReLU"
  bottom: "conv1/7x7_s2"
  top: "conv1/7x7_s2"
}
layer {
  name: "pool1/3x3_s2"
  type: "Pooling"
  bottom: "conv1/7x7_s2"
  top: "pool1/3x3_s2"
  pooling_param {
    pool: MAX
    kernel_size: 3
    stride: 2
  }
}
layer {
  name: "pool1/norm1"
  type: "LRN"
  bottom: "pool1/3x3_s2"
  top: "pool1/norm1"
  lrn_param {
    local_size: 5
    alpha: 0.0001
    beta: 0.75
  }
}
layer {
  name: "conv2/3x3_reduce"
  type: "Convolution"
  bottom: "pool1/norm1"
  top: "conv2/3x3_reduce"
  param {
    lr_mult: 1
    decay_mult: 1
  }
  param {
    lr_mult: 2
    decay_mult: 0
  }
  convolution_param {
    num_output: 64
    kernel_size: 1
    weight_filler {
      type: "xavier"
    }
    bias_filler {
      type: "constant"
      value: 0.2
    }
  }
}
layer {
  name: "conv2/relu_3x3_reduce"
  type: "ReLU"
  bottom: "conv2/3x3_reduce"
  top: "conv2/3x3_reduce"
}
layer {
  name: "conv2/3x3"
  type: "Convolution"
  bottom: "conv2/3x3_reduce"
  top: "conv2/3x3"
  param {
    lr_mult: 1
    decay_mult: 1
  }
  param {
    lr_mult: 2
    decay_mult: 0
  }
  convolution_param {
    num_output: 192
    pad: 1
    kernel_size: 3
    weight_filler {
      type: "xavier"
    }
    bias_filler {
      type: "constant"
      value: 0.2
    }
  }
}
layer {
  name: "conv2/relu_3x3"
  type: "ReLU"
  bottom: "conv2/3x3"
  top: "conv2/3x3"
}
layer {
  name: "conv2/norm2"
  type: "LRN"
  bottom: "conv2/3x3"
  top: "conv2/norm2"
  lrn_param {
    local_size: 5
    alpha: 0.0001
    beta: 0.75
  }
}
layer {
  name: "pool2/3x3_s2"
  type: "Pooling"
  bottom: "conv2/norm2"
  top: "pool2/3x3_s2"
  pooling_param {
    pool: MAX
    kernel_size: 3
    stride: 2
  }
}
layer {
  name: "inception_3a/1x1"
  type: "Convolution"
  bottom: "pool2/3x3_s2"
  top: "inception_3a/1x1"
  param {
    lr_mult: 1
    decay_mult: 1
  }
  param {
    lr_mult: 2
    decay_mult: 0
  }
  convolution_param {
    num_output: 64
    kernel_size: 1
    weight_filler {
      type: "xavier"
    }
    bias_filler {
      type: "constant"
      value: 0.2
    }
  }
}
layer {
  name: "inception_3a/relu_1x1"
  type: "ReLU"
  bottom: "inception_3a/1x1"
  top: "inception_3a/1x1"
}
layer {
  name: "inception_3a/3x3_reduce"
  type: "Convolution"
  bottom: "pool2/3x3_s2"
  top: "inception_3a/3x3_reduce"
  param {
    lr_mult: 1
    decay_mult: 1
  }
  param {
    lr_mult: 2
    decay_mult: 0
  }
  convolution_param {
    num_output: 96
    kernel_size: 1
    weight_filler {
      type: "xavier"
    }
    bias_filler {
      type: "constant"
      value: 0.2
    }
  }
}
layer {
  name: "inception_3a/relu_3x3_reduce"
  type: "ReLU"
  bottom: "inception_3a/3x3_reduce"
  top: "inception_3a/3x3_reduce"
}
layer {
  name: "inception_3a/3x3"
  type: "Convolution"
  bottom: "inception_3a/3x3_reduce"
  top: "inception_3a/3x3"
  param {
    lr_mult: 1
    decay_mult: 1
  }
  param {
    lr_mult: 2
    decay_mult: 0
  }
  convolution_param {
    num_output: 128
    pad: 1
    kernel_size: 3
    weight_filler {
      type: "xavier"
    }
    bias_filler {
      type: "constant"
      value: 0.2
    }
  }
}
layer {
  name: "inception_3a/relu_3x3"
  type: "ReLU"
  bottom: "inception_3a/3x3"
  top: "inception_3a/3x3"
}
layer {
  name: "inception_3a/5x5_reduce"
  type: "Convolution"
  bottom: "pool2/3x3_s2"
  top: "inception_3a/5x5_reduce"
  param {
    lr_mult: 1
    decay_mult: 1
  }
  param {
    lr_mult: 2
    decay_mult: 0
  }
  convolution_param {
    num_output: 16
    kernel_size: 1
    weight_filler {
      type: "xavier"
    }
    bias_filler {
      type: "constant"
      value: 0.2
    }
  }
}
layer {
  name: "inception_3a/relu_5x5_reduce"
  type: "ReLU"
  bottom: "inception_3a/5x5_reduce"
  top: "inception_3a/5x5_reduce"
}
layer {
  name: "inception_3a/5x5"
  type: "Convolution"
  bottom: "inception_3a/5x5_reduce"
  top: "inception_3a/5x5"
  param {
    lr_mult: 1
    decay_mult: 1
  }
  param {
    lr_mult: 2
    decay_mult: 0
  }
  convolution_param {
    num_output: 32
    pad: 2
    kernel_size: 5
    weight_filler {
      type: "xavier"
    }
    bias_filler {
      type: "constant"
      value: 0.2
    }
  }
}
layer {
  name: "inception_3a/relu_5x5"
  type: "ReLU"
  bottom: "inception_3a/5x5"
  top: "inception_3a/5x5"
}
layer {
  name: "inception_3a/pool"
  type: "Pooling"
  bottom: "pool2/3x3_s2"
  top: "inception_3a/pool"
  pooling_param {
    pool: MAX
    kernel_size: 3
    stride: 1
    pad: 1
  }
}
layer {
  name: "inception_3a/pool_proj"
  type: "Convolution"
  bottom: "inception_3a/pool"
  top: "inception_3a/pool_proj"
  param {
    lr_mult: 1
    decay_mult: 1
  }
  param {
    lr_mult: 2
    decay_mult: 0
  }
  convolution_param {
    num_output: 32
    kernel_size: 1
    weight_filler {
      type: "xavier"
    }
    bias_filler {
      type: "constant"
      value: 0.2
    }
  }
}
layer {
  name: "inception_3a/relu_pool_proj"
  type: "ReLU"
  bottom: "inception_3a/pool_proj"
  top: "inception_3a/pool_proj"
}
layer {
  name: "inception_3a/output"
  type: "Concat"
  bottom: "inception_3a/1x1"
  bottom: "inception_3a/3x3"
  bottom: "inception_3a/5x5"
  bottom: "inception_3a/pool_proj"
  top: "inception_3a/output"
}
layer {
  name: "inception_3b/1x1"
  type: "Convolution"
  bottom: "inception_3a/output"
  top: "inception_3b/1x1"
  param {
    lr_mult: 1
    decay_mult: 1
  }
  param {
    lr_mult: 2
    decay_mult: 0
  }
  convolution_param {
    num_output: 128
    kernel_size: 1
    weight_filler {
      type: "xavier"
    }
    bias_filler {
      type: "constant"
      value: 0.2
    }
  }
}
layer {
  name: "inception_3b/relu_1x1"
  type: "ReLU"
  bottom: "inception_3b/1x1"
  top: "inception_3b/1x1"
}
layer {
  name: "inception_3b/3x3_reduce"
  type: "Convolution"
  bottom: "inception_3a/output"
  top: "inception_3b/3x3_reduce"
  param {
    lr_mult: 1
    decay_mult: 1
  }
  param {
    lr_mult: 2
    decay_mult: 0
  }
  convolution_param {
    num_output: 128
    kernel_size: 1
    weight_filler {
      type: "xavier"
    }
    bias_filler {
      type: "constant"
      value: 0.2
    }
  }
}
layer {
  name: "inception_3b/relu_3x3_reduce"
  type: "ReLU"
  bottom: "inception_3b/3x3_reduce"
  top: "inception_3b/3x3_reduce"
}
layer {
  name: "inception_3b/3x3"
  type: "Convolution"
  bottom: "inception_3b/3x3_reduce"
  top: "inception_3b/3x3"
  param {
    lr_mult: 1
    decay_mult: 1
  }
  param {
    lr_mult: 2
    decay_mult: 0
  }
  convolution_param {
    num_output: 192
    pad: 1
    kernel_size: 3
    weight_filler {
      type: "xavier"
    }
    bias_filler {
      type: "constant"
      value: 0.2
    }
  }
}
layer {
  name: "inception_3b/relu_3x3"
  type: "ReLU"
  bottom: "inception_3b/3x3"
  top: "inception_3b/3x3"
}
layer {
  name: "inception_3b/5x5_reduce"
  type: "Convolution"
  bottom: "inception_3a/output"
  top: "inception_3b/5x5_reduce"
  param {
    lr_mult: 1
    decay_mult: 1
  }
  param {
    lr_mult: 2
    decay_mult: 0
  }
  convolution_param {
    num_output: 32
    kernel_size: 1
    weight_filler {
      type: "xavier"
    }
    bias_filler {
      type: "constant"
      value: 0.2
    }
  }
}
layer {
  name: "inception_3b/relu_5x5_reduce"
  type: "ReLU"
  bottom: "inception_3b/5x5_reduce"
  top: "inception_3b/5x5_reduce"
}
layer {
  name: "inception_3b/5x5"
  type: "Convolution"
  bottom: "inception_3b/5x5_reduce"
  top: "inception_3b/5x5"
  param {
    lr_mult: 1
    decay_mult: 1
  }
  param {
    lr_mult: 2
    decay_mult: 0
  }
  convolution_param {
    num_output: 96
    pad: 2
    kernel_size: 5
    weight_filler {
      type: "xavier"
    }
    bias_filler {
      type: "constant"
      value: 0.2
    }
  }
}
layer {
  name: "inception_3b/relu_5x5"
  type: "ReLU"
  bottom: "inception_3b/5x5"
  top: "inception_3b/5x5"
}
layer {
  name: "inception_3b/pool"
  type: "Pooling"
  bottom: "inception_3a/output"
  top: "inception_3b/pool"
  pooling_param {
    pool: MAX
    kernel_size: 3
    stride: 1
    pad: 1
  }
}
layer {
  name: "inception_3b/pool_proj"
  type: "Convolution"
  bottom: "inception_3b/pool"
  top: "inception_3b/pool_proj"
  param {
    lr_mult: 1
    decay_mult: 1
  }
  param {
    lr_mult: 2
    decay_mult: 0
  }
  convolution_param {
    num_output: 64
    kernel_size: 1
    weight_filler {
      type: "xavier"
    }
    bias_filler {
      type: "constant"
      value: 0.2
    }
  }
}
layer {
  name: "inception_3b/relu_pool_proj"
  type: "ReLU"
  bottom: "inception_3b/pool_proj"
  top: "inception_3b/pool_proj"
}
layer {
  name: "inception_3b/output"
  type: "Concat"
  bottom: "inception_3b/1x1"
  bottom: "inception_3b/3x3"
  bottom: "inception_3b/5x5"
  bottom: "inception_3b/pool_proj"
  top: "inception_3b/output"
}
layer {
  name: "pool3/3x3_s2"
  type: "Pooling"
  bottom: "inception_3b/output"
  top: "pool3/3x3_s2"
  pooling_param {
    pool: MAX
    kernel_size: 3
    stride: 2
  }
}
layer {
  name: "inception_4a/1x1"
  type: "Convolution"
  bottom: "pool3/3x3_s2"
  top: "inception_4a/1x1"
  param {
    lr_mult: 1
    decay_mult: 1
  }
  param {
    lr_mult: 2
    decay_mult: 0
  }
  convolution_param {
    num_output: 192
    kernel_size: 1
    weight_filler {
      type: "xavier"
    }
    bias_filler {
      type: "constant"
      value: 0.2
    }
  }
}
layer {
  name: "inception_4a/relu_1x1"
  type: "ReLU"
  bottom: "inception_4a/1x1"
  top: "inception_4a/1x1"
}
layer {
  name: "inception_4a/3x3_reduce"
  type: "Convolution"
  bottom: "pool3/3x3_s2"
  top: "inception_4a/3x3_reduce"
  param {
    lr_mult: 1
    decay_mult: 1
  }
  param {
    lr_mult: 2
    decay_mult: 0
  }
  convolution_param {
    num_output: 96
    kernel_size: 1
    weight_filler {
      type: "xavier"
    }
    bias_filler {
      type: "constant"
      value: 0.2
    }
  }
}
layer {
  name: "inception_4a/relu_3x3_reduce"
  type: "ReLU"
  bottom: "inception_4a/3x3_reduce"
  top: "inception_4a/3x3_reduce"
}
layer {
  name: "inception_4a/3x3"
  type: "Convolution"
  bottom: "inception_4a/3x3_reduce"
  top: "inception_4a/3x3"
  param {
    lr_mult: 1
    decay_mult: 1
  }
  param {
    lr_mult: 2
    decay_mult: 0
  }
  convolution_param {
    num_output: 208
    pad: 1
    kernel_size: 3
    weight_filler {
      type: "xavier"
    }
    bias_filler {
      type: "constant"
      value: 0.2
    }
  }
}
layer {
  name: "inception_4a/relu_3x3"
  type: "ReLU"
  bottom: "inception_4a/3x3"
  top: "inception_4a/3x3"
}
layer {
  name: "inception_4a/5x5_reduce"
  type: "Convolution"
  bottom: "pool3/3x3_s2"
  top: "inception_4a/5x5_reduce"
  param {
    lr_mult: 1
    decay_mult: 1
  }
  param {
    lr_mult: 2
    decay_mult: 0
  }
  convolution_param {
    num_output: 16
    kernel_size: 1
    weight_filler {
      type: "xavier"
    }
    bias_filler {
      type: "constant"
      value: 0.2
    }
  }
}
layer {
  name: "inception_4a/relu_5x5_reduce"
  type: "ReLU"
  bottom: "inception_4a/5x5_reduce"
  top: "inception_4a/5x5_reduce"
}
layer {
  name: "inception_4a/5x5"
  type: "Convolution"
  bottom: "inception_4a/5x5_reduce"
  top: "inception_4a/5x5"
  param {
    lr_mult: 1
    decay_mult: 1
  }
  param {
    lr_mult: 2
    decay_mult: 0
  }
  convolution_param {
    num_output: 48
    pad: 2
    kernel_size: 5
    weight_filler {
      type: "xavier"
    }
    bias_filler {
      type: "constant"
      value: 0.2
    }
  }
}
layer {
  name: "inception_4a/relu_5x5"
  type: "ReLU"
  bottom: "inception_4a/5x5"
  top: "inception_4a/5x5"
}
layer {
  name: "inception_4a/pool"
  type: "Pooling"
  bottom: "pool3/3x3_s2"
  top: "inception_4a/pool"
  pooling_param {
    pool: MAX
    kernel_size: 3
    stride: 1
    pad: 1
  }
}
layer {
  name: "inception_4a/pool_proj"
  type: "Convolution"
  bottom: "inception_4a/pool"
  top: "inception_4a/pool_proj"
  param {
    lr_mult: 1
    decay_mult: 1
  }
  param {
    lr_mult: 2
    decay_mult: 0
  }
  convolution_param {
    num_output: 64
    kernel_size: 1
    weight_filler {
      type: "xavier"
    }
    bias_filler {
      type: "constant"
      value: 0.2
    }
  }
}
layer {
  name: "inception_4a/relu_pool_proj"
  type: "ReLU"
  bottom: "inception_4a/pool_proj"
  top: "inception_4a/pool_proj"
}
layer {
  name: "inception_4a/output"
  type: "Concat"
  bottom: "inception_4a/1x1"
  bottom: "inception_4a/3x3"
  bottom: "inception_4a/5x5"
  bottom: "inception_4a/pool_proj"
  top: "inception_4a/output"
}
layer {
  name: "loss1/ave_pool"
  type: "Pooling"
  bottom: "inception_4a/output"
  top: "loss1/ave_pool"
  pooling_param {
    pool: AVE
    kernel_size: 5
    stride: 3
  }
}
layer {
  name: "loss1/conv"
  type: "Convolution"
  bottom: "loss1/ave_pool"
  top: "loss1/conv"
  param {
    lr_mult: 1
    decay_mult: 1
  }
  param {
    lr_mult: 2
    decay_mult: 0
  }
  convolution_param {
    num_output: 128
    kernel_size: 1
    weight_filler {
      type: "xavier"
    }
    bias_filler {
      type: "constant"
      value: 0.2
    }
  }
}
layer {
  name: "loss1/relu_conv"
  type: "ReLU"
  bottom: "loss1/conv"
  top: "loss1/conv"
}
layer {
  name: "loss1/fc"
  type: "InnerProduct"
  bottom: "loss1/conv"
  top: "loss1/fc"
  param {
    lr_mult: 1
    decay_mult: 1
  }
  param {
    lr_mult: 2
    decay_mult: 0
  }
  inner_product_param {
    num_output: 1024
    weight_filler {
      type: "xavier"
    }
    bias_filler {
      type: "constant"
      value: 0.2
    }
  }
}
layer {
  name: "loss1/relu_fc"
  type: "ReLU"
  bottom: "loss1/fc"
  top: "loss1/fc"
}
layer {
  name: "loss1/drop_fc"
  type: "Dropout"
  bottom: "loss1/fc"
  top: "loss1/fc"
  dropout_param {
    dropout_ratio: 0.7
  }
}
layer {
  name: "loss1/classifier_kaggle"
  type: "InnerProduct"
  bottom: "loss1/fc"
  top: "loss1/classifier_kaggle"
  param {
    lr_mult: 1
    decay_mult: 1
  }
  param {
    lr_mult: 2
    decay_mult: 0
  }
  inner_product_param {
    num_output: 447
    weight_filler {
      type: "xavier"
    }
    bias_filler {
      type: "constant"
      value: 0
    }
  }
}
layer {
  name: "loss1/loss"
  type: "SoftmaxWithLoss"
  bottom: "loss1/classifier_kaggle"
  bottom: "label"
  top: "loss1/loss1"
  loss_weight: 0.3
}
layer {
  name: "loss1/top-1"
  type: "Accuracy"
  bottom: "loss1/classifier_kaggle"
  bottom: "label"
  top: "loss1/top-1"
  include {
    phase: TEST
  }
}
layer {
  name: "loss1/top-5"
  type: "Accuracy"
  bottom: "loss1/classifier_kaggle"
  bottom: "label"
  top: "loss1/top-5"
  include {
    phase: TEST
  }
  accuracy_param {
    top_k: 5
  }
}
layer {
  name: "inception_4b/1x1"
  type: "Convolution"
  bottom: "inception_4a/output"
  top: "inception_4b/1x1"
  param {
    lr_mult: 1
    decay_mult: 1
  }
  param {
    lr_mult: 2
    decay_mult: 0
  }
  convolution_param {
    num_output: 160
    kernel_size: 1
    weight_filler {
      type: "xavier"
    }
    bias_filler {
      type: "constant"
      value: 0.2
    }
  }
}
layer {
  name: "inception_4b/relu_1x1"
  type: "ReLU"
  bottom: "inception_4b/1x1"
  top: "inception_4b/1x1"
}
layer {
  name: "inception_4b/3x3_reduce"
  type: "Convolution"
  bottom: "inception_4a/output"
  top: "inception_4b/3x3_reduce"
  param {
    lr_mult: 1
    decay_mult: 1
  }
  param {
    lr_mult: 2
    decay_mult: 0
  }
  convolution_param {
    num_output: 112
    kernel_size: 1
    weight_filler {
      type: "xavier"
    }
    bias_filler {
      type: "constant"
      value: 0.2
    }
  }
}
layer {
  name: "inception_4b/relu_3x3_reduce"
  type: "ReLU"
  bottom: "inception_4b/3x3_reduce"
  top: "inception_4b/3x3_reduce"
}
layer {
  name: "inception_4b/3x3"
  type: "Convolution"
  bottom: "inception_4b/3x3_reduce"
  top: "inception_4b/3x3"
  param {
    lr_mult: 1
    decay_mult: 1
  }
  param {
    lr_mult: 2
    decay_mult: 0
  }
  convolution_param {
    num_output: 224
    pad: 1
    kernel_size: 3
    weight_filler {
      type: "xavier"
    }
    bias_filler {
      type: "constant"
      value: 0.2
    }
  }
}
layer {
  name: "inception_4b/relu_3x3"
  type: "ReLU"
  bottom: "inception_4b/3x3"
  top: "inception_4b/3x3"
}
layer {
  name: "inception_4b/5x5_reduce"
  type: "Convolution"
  bottom: "inception_4a/output"
  top: "inception_4b/5x5_reduce"
  param {
    lr_mult: 1
    decay_mult: 1
  }
  param {
    lr_mult: 2
    decay_mult: 0
  }
  convolution_param {
    num_output: 24
    kernel_size: 1
    weight_filler {
      type: "xavier"
    }
    bias_filler {
      type: "constant"
      value: 0.2
    }
  }
}
layer {
  name: "inception_4b/relu_5x5_reduce"
  type: "ReLU"
  bottom: "inception_4b/5x5_reduce"
  top: "inception_4b/5x5_reduce"
}
layer {
  name: "inception_4b/5x5"
  type: "Convolution"
  bottom: "inception_4b/5x5_reduce"
  top: "inception_4b/5x5"
  param {
    lr_mult: 1
    decay_mult: 1
  }
  param {
    lr_mult: 2
    decay_mult: 0
  }
  convolution_param {
    num_output: 64
    pad: 2
    kernel_size: 5
    weight_filler {
      type: "xavier"
    }
    bias_filler {
      type: "constant"
      value: 0.2
    }
  }
}
layer {
  name: "inception_4b/relu_5x5"
  type: "ReLU"
  bottom: "inception_4b/5x5"
  top: "inception_4b/5x5"
}
layer {
  name: "inception_4b/pool"
  type: "Pooling"
  bottom: "inception_4a/output"
  top: "inception_4b/pool"
  pooling_param {
    pool: MAX
    kernel_size: 3
    stride: 1
    pad: 1
  }
}
layer {
  name: "inception_4b/pool_proj"
  type: "Convolution"
  bottom: "inception_4b/pool"
  top: "inception_4b/pool_proj"
  param {
    lr_mult: 1
    decay_mult: 1
  }
  param {
    lr_mult: 2
    decay_mult: 0
  }
  convolution_param {
    num_output: 64
    kernel_size: 1
    weight_filler {
      type: "xavier"
    }
    bias_filler {
      type: "constant"
      value: 0.2
    }
  }
}
layer {
  name: "inception_4b/relu_pool_proj"
  type: "ReLU"
  bottom: "inception_4b/pool_proj"
  top: "inception_4b/pool_proj"
}
layer {
  name: "inception_4b/output"
  type: "Concat"
  bottom: "inception_4b/1x1"
  bottom: "inception_4b/3x3"
  bottom: "inception_4b/5x5"
  bottom: "inception_4b/pool_proj"
  top: "inception_4b/output"
}
layer {
  name: "inception_4c/1x1"
  type: "Convolution"
  bottom: "inception_4b/output"
  top: "inception_4c/1x1"
  param {
    lr_mult: 1
    decay_mult: 1
  }
  param {
    lr_mult: 2
    decay_mult: 0
  }
  convolution_param {
    num_output: 128
    kernel_size: 1
    weight_filler {
      type: "xavier"
    }
    bias_filler {
      type: "constant"
      value: 0.2
    }
  }
}
layer {
  name: "inception_4c/relu_1x1"
  type: "ReLU"
  bottom: "inception_4c/1x1"
  top: "inception_4c/1x1"
}
layer {
  name: "inception_4c/3x3_reduce"
  type: "Convolution"
  bottom: "inception_4b/output"
  top: "inception_4c/3x3_reduce"
  param {
    lr_mult: 1
    decay_mult: 1
  }
  param {
    lr_mult: 2
    decay_mult: 0
  }
  convolution_param {
    num_output: 128
    kernel_size: 1
    weight_filler {
      type: "xavier"
    }
    bias_filler {
      type: "constant"
      value: 0.2
    }
  }
}
layer {
  name: "inception_4c/relu_3x3_reduce"
  type: "ReLU"
  bottom: "inception_4c/3x3_reduce"
  top: "inception_4c/3x3_reduce"
}
layer {
  name: "inception_4c/3x3"
  type: "Convolution"
  bottom: "inception_4c/3x3_reduce"
  top: "inception_4c/3x3"
  param {
    lr_mult: 1
    decay_mult: 1
  }
  param {
    lr_mult: 2
    decay_mult: 0
  }
  convolution_param {
    num_output: 256
    pad: 1
    kernel_size: 3
    weight_filler {
      type: "xavier"
    }
    bias_filler {
      type: "constant"
      value: 0.2
    }
  }
}
layer {
  name: "inception_4c/relu_3x3"
  type: "ReLU"
  bottom: "inception_4c/3x3"
  top: "inception_4c/3x3"
}
layer {
  name: "inception_4c/5x5_reduce"
  type: "Convolution"
  bottom: "inception_4b/output"
  top: "inception_4c/5x5_reduce"
  param {
    lr_mult: 1
    decay_mult: 1
  }
  param {
    lr_mult: 2
    decay_mult: 0
  }
  convolution_param {
    num_output: 24
    kernel_size: 1
    weight_filler {
      type: "xavier"
    }
    bias_filler {
      type: "constant"
      value: 0.2
    }
  }
}
layer {
  name: "inception_4c/relu_5x5_reduce"
  type: "ReLU"
  bottom: "inception_4c/5x5_reduce"
  top: "inception_4c/5x5_reduce"
}
layer {
  name: "inception_4c/5x5"
  type: "Convolution"
  bottom: "inception_4c/5x5_reduce"
  top: "inception_4c/5x5"
  param {
    lr_mult: 1
    decay_mult: 1
  }
  param {
    lr_mult: 2
    decay_mult: 0
  }
  convolution_param {
    num_output: 64
    pad: 2
    kernel_size: 5
    weight_filler {
      type: "xavier"
    }
    bias_filler {
      type: "constant"
      value: 0.2
    }
  }
}
layer {
  name: "inception_4c/relu_5x5"
  type: "ReLU"
  bottom: "inception_4c/5x5"
  top: "inception_4c/5x5"
}
layer {
  name: "inception_4c/pool"
  type: "Pooling"
  bottom: "inception_4b/output"
  top: "inception_4c/pool"
  pooling_param {
    pool: MAX
    kernel_size: 3
    stride: 1
    pad: 1
  }
}
layer {
  name: "inception_4c/pool_proj"
  type: "Convolution"
  bottom: "inception_4c/pool"
  top: "inception_4c/pool_proj"
  param {
    lr_mult: 1
    decay_mult: 1
  }
  param {
    lr_mult: 2
    decay_mult: 0
  }
  convolution_param {
    num_output: 64
    kernel_size: 1
    weight_filler {
      type: "xavier"
    }
    bias_filler {
      type: "constant"
      value: 0.2
    }
  }
}
layer {
  name: "inception_4c/relu_pool_proj"
  type: "ReLU"
  bottom: "inception_4c/pool_proj"
  top: "inception_4c/pool_proj"
}
layer {
  name: "inception_4c/output"
  type: "Concat"
  bottom: "inception_4c/1x1"
  bottom: "inception_4c/3x3"
  bottom: "inception_4c/5x5"
  bottom: "inception_4c/pool_proj"
  top: "inception_4c/output"
}
layer {
  name: "inception_4d/1x1"
  type: "Convolution"
  bottom: "inception_4c/output"
  top: "inception_4d/1x1"
  param {
    lr_mult: 1
    decay_mult: 1
  }
  param {
    lr_mult: 2
    decay_mult: 0
  }
  convolution_param {
    num_output: 112
    kernel_size: 1
    weight_filler {
      type: "xavier"
    }
    bias_filler {
      type: "constant"
      value: 0.2
    }
  }
}
layer {
  name: "inception_4d/relu_1x1"
  type: "ReLU"
  bottom: "inception_4d/1x1"
  top: "inception_4d/1x1"
}
layer {
  name: "inception_4d/3x3_reduce"
  type: "Convolution"
  bottom: "inception_4c/output"
  top: "inception_4d/3x3_reduce"
  param {
    lr_mult: 1
    decay_mult: 1
  }
  param {
    lr_mult: 2
    decay_mult: 0
  }
  convolution_param {
    num_output: 144
    kernel_size: 1
    weight_filler {
      type: "xavier"
    }
    bias_filler {
      type: "constant"
      value: 0.2
    }
  }
}
layer {
  name: "inception_4d/relu_3x3_reduce"
  type: "ReLU"
  bottom: "inception_4d/3x3_reduce"
  top: "inception_4d/3x3_reduce"
}
layer {
  name: "inception_4d/3x3"
  type: "Convolution"
  bottom: "inception_4d/3x3_reduce"
  top: "inception_4d/3x3"
  param {
    lr_mult: 1
    decay_mult: 1
  }
  param {
    lr_mult: 2
    decay_mult: 0
  }
  convolution_param {
    num_output: 288
    pad: 1
    kernel_size: 3
    weight_filler {
      type: "xavier"
    }
    bias_filler {
      type: "constant"
      value: 0.2
    }
  }
}
layer {
  name: "inception_4d/relu_3x3"
  type: "ReLU"
  bottom: "inception_4d/3x3"
  top: "inception_4d/3x3"
}
layer {
  name: "inception_4d/5x5_reduce"
  type: "Convolution"
  bottom: "inception_4c/output"
  top: "inception_4d/5x5_reduce"
  param {
    lr_mult: 1
    decay_mult: 1
  }
  param {
    lr_mult: 2
    decay_mult: 0
  }
  convolution_param {
    num_output: 32
    kernel_size: 1
    weight_filler {
      type: "xavier"
    }
    bias_filler {
      type: "constant"
      value: 0.2
    }
  }
}
layer {
  name: "inception_4d/relu_5x5_reduce"
  type: "ReLU"
  bottom: "inception_4d/5x5_reduce"
  top: "inception_4d/5x5_reduce"
}
layer {
  name: "inception_4d/5x5"
  type: "Convolution"
  bottom: "inception_4d/5x5_reduce"
  top: "inception_4d/5x5"
  param {
    lr_mult: 1
    decay_mult: 1
  }
  param {
    lr_mult: 2
    decay_mult: 0
  }
  convolution_param {
    num_output: 64
    pad: 2
    kernel_size: 5
    weight_filler {
      type: "xavier"
    }
    bias_filler {
      type: "constant"
      value: 0.2
    }
  }
}
layer {
  name: "inception_4d/relu_5x5"
  type: "ReLU"
  bottom: "inception_4d/5x5"
  top: "inception_4d/5x5"
}
layer {
  name: "inception_4d/pool"
  type: "Pooling"
  bottom: "inception_4c/output"
  top: "inception_4d/pool"
  pooling_param {
    pool: MAX
    kernel_size: 3
    stride: 1
    pad: 1
  }
}
layer {
  name: "inception_4d/pool_proj"
  type: "Convolution"
  bottom: "inception_4d/pool"
  top: "inception_4d/pool_proj"
  param {
    lr_mult: 1
    decay_mult: 1
  }
  param {
    lr_mult: 2
    decay_mult: 0
  }
  convolution_param {
    num_output: 64
    kernel_size: 1
    weight_filler {
      type: "xavier"
    }
    bias_filler {
      type: "constant"
      value: 0.2
    }
  }
}
layer {
  name: "inception_4d/relu_pool_proj"
  type: "ReLU"
  bottom: "inception_4d/pool_proj"
  top: "inception_4d/pool_proj"
}
layer {
  name: "inception_4d/output"
  type: "Concat"
  bottom: "inception_4d/1x1"
  bottom: "inception_4d/3x3"
  bottom: "inception_4d/5x5"
  bottom: "inception_4d/pool_proj"
  top: "inception_4d/output"
}
layer {
  name: "loss2/ave_pool"
  type: "Pooling"
  bottom: "inception_4d/output"
  top: "loss2/ave_pool"
  pooling_param {
    pool: AVE
    kernel_size: 5
    stride: 3
  }
}
layer {
…
I0103 19:48:18.101501  9752 net.cpp:84] Creating Layer inception_4c/1x1
I0103 19:48:18.101506  9752 net.cpp:380] inception_4c/1x1 <- inception_4b/output_inception_4b/output_0_split_0
I0103 19:48:18.101514  9752 net.cpp:338] inception_4c/1x1 -> inception_4c/1x1
I0103 19:48:18.101521  9752 net.cpp:113] Setting up inception_4c/1x1
I0103 19:48:18.102680  9752 net.cpp:120] Top shape: 50 128 14 14 (1254400)
I0103 19:48:18.102696  9752 layer_factory.hpp:74] Creating layer inception_4c/relu_1x1
I0103 19:48:18.102705  9752 net.cpp:84] Creating Layer inception_4c/relu_1x1
I0103 19:48:18.102710  9752 net.cpp:380] inception_4c/relu_1x1 <- inception_4c/1x1
I0103 19:48:18.102721  9752 net.cpp:327] inception_4c/relu_1x1 -> inception_4c/1x1 (in-place)
I0103 19:48:18.102742  9752 net.cpp:113] Setting up inception_4c/relu_1x1
I0103 19:48:18.103034  9752 net.cpp:120] Top shape: 50 128 14 14 (1254400)
I0103 19:48:18.103044  9752 layer_factory.hpp:74] Creating layer inception_4c/3x3_reduce
I0103 19:48:18.103054  9752 net.cpp:84] Creating Layer inception_4c/3x3_reduce
I0103 19:48:18.103059  9752 net.cpp:380] inception_4c/3x3_reduce <- inception_4b/output_inception_4b/output_0_split_1
I0103 19:48:18.103068  9752 net.cpp:338] inception_4c/3x3_reduce -> inception_4c/3x3_reduce
I0103 19:48:18.103077  9752 net.cpp:113] Setting up inception_4c/3x3_reduce
I0103 19:48:18.104228  9752 net.cpp:120] Top shape: 50 128 14 14 (1254400)
I0103 19:48:18.104241  9752 layer_factory.hpp:74] Creating layer inception_4c/relu_3x3_reduce
I0103 19:48:18.104249  9752 net.cpp:84] Creating Layer inception_4c/relu_3x3_reduce
I0103 19:48:18.104254  9752 net.cpp:380] inception_4c/relu_3x3_reduce <- inception_4c/3x3_reduce
I0103 19:48:18.104260  9752 net.cpp:327] inception_4c/relu_3x3_reduce -> inception_4c/3x3_reduce (in-place)
I0103 19:48:18.104269  9752 net.cpp:113] Setting up inception_4c/relu_3x3_reduce
I0103 19:48:18.104336  9752 net.cpp:120] Top shape: 50 128 14 14 (1254400)
I0103 19:48:18.104342  9752 layer_factory.hpp:74] Creating layer inception_4c/3x3
I0103 19:48:18.104351  9752 net.cpp:84] Creating Layer inception_4c/3x3
I0103 19:48:18.104356  9752 net.cpp:380] inception_4c/3x3 <- inception_4c/3x3_reduce
I0103 19:48:18.104362  9752 net.cpp:338] inception_4c/3x3 -> inception_4c/3x3
I0103 19:48:18.104370  9752 net.cpp:113] Setting up inception_4c/3x3
I0103 19:48:18.111178  9752 net.cpp:120] Top shape: 50 256 14 14 (2508800)
I0103 19:48:18.111210  9752 layer_factory.hpp:74] Creating layer inception_4c/relu_3x3
I0103 19:48:18.111220  9752 net.cpp:84] Creating Layer inception_4c/relu_3x3
I0103 19:48:18.111227  9752 net.cpp:380] inception_4c/relu_3x3 <- inception_4c/3x3
I0103 19:48:18.111233  9752 net.cpp:327] inception_4c/relu_3x3 -> inception_4c/3x3 (in-place)
I0103 19:48:18.111243  9752 net.cpp:113] Setting up inception_4c/relu_3x3
I0103 19:48:18.111313  9752 net.cpp:120] Top shape: 50 256 14 14 (2508800)
I0103 19:48:18.111321  9752 layer_factory.hpp:74] Creating layer inception_4c/5x5_reduce
I0103 19:48:18.111331  9752 net.cpp:84] Creating Layer inception_4c/5x5_reduce
I0103 19:48:18.111336  9752 net.cpp:380] inception_4c/5x5_reduce <- inception_4b/output_inception_4b/output_0_split_2
I0103 19:48:18.111346  9752 net.cpp:338] inception_4c/5x5_reduce -> inception_4c/5x5_reduce
I0103 19:48:18.111354  9752 net.cpp:113] Setting up inception_4c/5x5_reduce
I0103 19:48:18.111963  9752 net.cpp:120] Top shape: 50 24 14 14 (235200)
I0103 19:48:18.111979  9752 layer_factory.hpp:74] Creating layer inception_4c/relu_5x5_reduce
I0103 19:48:18.111989  9752 net.cpp:84] Creating Layer inception_4c/relu_5x5_reduce
I0103 19:48:18.111994  9752 net.cpp:380] inception_4c/relu_5x5_reduce <- inception_4c/5x5_reduce
I0103 19:48:18.112000  9752 net.cpp:327] inception_4c/relu_5x5_reduce -> inception_4c/5x5_reduce (in-place)
I0103 19:48:18.112007  9752 net.cpp:113] Setting up inception_4c/relu_5x5_reduce
I0103 19:48:18.112298  9752 net.cpp:120] Top shape: 50 24 14 14 (235200)
I0103 19:48:18.112314  9752 layer_factory.hpp:74] Creating layer inception_4c/5x5
I0103 19:48:18.112325  9752 net.cpp:84] Creating Layer inception_4c/5x5
I0103 19:48:18.112331  9752 net.cpp:380] inception_4c/5x5 <- inception_4c/5x5_reduce
I0103 19:48:18.112339  9752 net.cpp:338] inception_4c/5x5 -> inception_4c/5x5
I0103 19:48:18.112346  9752 net.cpp:113] Setting up inception_4c/5x5
I0103 19:48:18.113292  9752 net.cpp:120] Top shape: 50 64 14 14 (627200)
I0103 19:48:18.113308  9752 layer_factory.hpp:74] Creating layer inception_4c/relu_5x5
I0103 19:48:18.113317  9752 net.cpp:84] Creating Layer inception_4c/relu_5x5
I0103 19:48:18.113322  9752 net.cpp:380] inception_4c/relu_5x5 <- inception_4c/5x5
I0103 19:48:18.113328  9752 net.cpp:327] inception_4c/relu_5x5 -> inception_4c/5x5 (in-place)
I0103 19:48:18.113343  9752 net.cpp:113] Setting up inception_4c/relu_5x5
I0103 19:48:18.113420  9752 net.cpp:120] Top shape: 50 64 14 14 (627200)
I0103 19:48:18.113427  9752 layer_factory.hpp:74] Creating layer inception_4c/pool
I0103 19:48:18.113435  9752 layer_factory.cpp:56] CUDNN does not support padding or multiple tops. Using Caffe's own pooling layer.
I0103 19:48:18.113440  9752 net.cpp:84] Creating Layer inception_4c/pool
I0103 19:48:18.113445  9752 net.cpp:380] inception_4c/pool <- inception_4b/output_inception_4b/output_0_split_3
I0103 19:48:18.113452  9752 net.cpp:338] inception_4c/pool -> inception_4c/pool
I0103 19:48:18.113461  9752 net.cpp:113] Setting up inception_4c/pool
I0103 19:48:18.113468  9752 net.cpp:120] Top shape: 50 512 14 14 (5017600)
I0103 19:48:18.113473  9752 layer_factory.hpp:74] Creating layer inception_4c/pool_proj
I0103 19:48:18.113482  9752 net.cpp:84] Creating Layer inception_4c/pool_proj
I0103 19:48:18.113487  9752 net.cpp:380] inception_4c/pool_proj <- inception_4c/pool
I0103 19:48:18.113495  9752 net.cpp:338] inception_4c/pool_proj -> inception_4c/pool_proj
I0103 19:48:18.113503  9752 net.cpp:113] Setting up inception_4c/pool_proj
I0103 19:48:18.114300  9752 net.cpp:120] Top shape: 50 64 14 14 (627200)
I0103 19:48:18.114315  9752 layer_factory.hpp:74] Creating layer inception_4c/relu_pool_proj
I0103 19:48:18.114322  9752 net.cpp:84] Creating Layer inception_4c/relu_pool_proj
I0103 19:48:18.114327  9752 net.cpp:380] inception_4c/relu_pool_proj <- inception_4c/pool_proj
I0103 19:48:18.114338  9752 net.cpp:327] inception_4c/relu_pool_proj -> inception_4c/pool_proj (in-place)
I0103 19:48:18.114346  9752 net.cpp:113] Setting up inception_4c/relu_pool_proj
I0103 19:48:18.114413  9752 net.cpp:120] Top shape: 50 64 14 14 (627200)
I0103 19:48:18.114419  9752 layer_factory.hpp:74] Creating layer inception_4c/output
I0103 19:48:18.114426  9752 net.cpp:84] Creating Layer inception_4c/output
I0103 19:48:18.114431  9752 net.cpp:380] inception_4c/output <- inception_4c/1x1
I0103 19:48:18.114437  9752 net.cpp:380] inception_4c/output <- inception_4c/3x3
I0103 19:48:18.114442  9752 net.cpp:380] inception_4c/output <- inception_4c/5x5
I0103 19:48:18.114447  9752 net.cpp:380] inception_4c/output <- inception_4c/pool_proj
I0103 19:48:18.114455  9752 net.cpp:338] inception_4c/output -> inception_4c/output
I0103 19:48:18.114462  9752 net.cpp:113] Setting up inception_4c/output
I0103 19:48:18.114470  9752 net.cpp:120] Top shape: 50 512 14 14 (5017600)
I0103 19:48:18.114475  9752 layer_factory.hpp:74] Creating layer inception_4c/output_inception_4c/output_0_split
I0103 19:48:18.114481  9752 net.cpp:84] Creating Layer inception_4c/output_inception_4c/output_0_split
I0103 19:48:18.114485  9752 net.cpp:380] inception_4c/output_inception_4c/output_0_split <- inception_4c/output
I0103 19:48:18.114493  9752 net.cpp:338] inception_4c/output_inception_4c/output_0_split -> inception_4c/output_inception_4c/output_0_split_0
I0103 19:48:18.114500  9752 net.cpp:338] inception_4c/output_inception_4c/output_0_split -> inception_4c/output_inception_4c/output_0_split_1
I0103 19:48:18.114507  9752 net.cpp:338] inception_4c/output_inception_4c/output_0_split -> inception_4c/output_inception_4c/output_0_split_2
I0103 19:48:18.114514  9752 net.cpp:338] inception_4c/output_inception_4c/output_0_split -> inception_4c/output_inception_4c/output_0_split_3
I0103 19:48:18.114521  9752 net.cpp:113] Setting up inception_4c/output_inception_4c/output_0_split
I0103 19:48:18.114527  9752 net.cpp:120] Top shape: 50 512 14 14 (5017600)
I0103 19:48:18.114532  9752 net.cpp:120] Top shape: 50 512 14 14 (5017600)
I0103 19:48:18.114537  9752 net.cpp:120] Top shape: 50 512 14 14 (5017600)
I0103 19:48:18.114542  9752 net.cpp:120] Top shape: 50 512 14 14 (5017600)
I0103 19:48:18.114547  9752 layer_factory.hpp:74] Creating layer inception_4d/1x1
I0103 19:48:18.114557  9752 net.cpp:84] Creating Layer inception_4d/1x1
I0103 19:48:18.114562  9752 net.cpp:380] inception_4d/1x1 <- inception_4c/output_inception_4c/output_0_split_0
I0103 19:48:18.114574  9752 net.cpp:338] inception_4d/1x1 -> inception_4d/1x1
I0103 19:48:18.114588  9752 net.cpp:113] Setting up inception_4d/1x1
I0103 19:48:18.115648  9752 net.cpp:120] Top shape: 50 112 14 14 (1097600)
I0103 19:48:18.115663  9752 layer_factory.hpp:74] Creating layer inception_4d/relu_1x1
I0103 19:48:18.115671  9752 net.cpp:84] Creating Layer inception_4d/relu_1x1
I0103 19:48:18.115676  9752 net.cpp:380] inception_4d/relu_1x1 <- inception_4d/1x1
I0103 19:48:18.115684  9752 net.cpp:327] inception_4d/relu_1x1 -> inception_4d/1x1 (in-place)
I0103 19:48:18.115690  9752 net.cpp:113] Setting up inception_4d/relu_1x1
I0103 19:48:18.115759  9752 net.cpp:120] Top shape: 50 112 14 14 (1097600)
I0103 19:48:18.115766  9752 layer_factory.hpp:74] Creating layer inception_4d/3x3_reduce
I0103 19:48:18.115775  9752 net.cpp:84] Creating Layer inception_4d/3x3_reduce
I0103 19:48:18.115780  9752 net.cpp:380] inception_4d/3x3_reduce <- inception_4c/output_inception_4c/output_0_split_1
I0103 19:48:18.115788  9752 net.cpp:338] inception_4d/3x3_reduce -> inception_4d/3x3_reduce
I0103 19:48:18.115797  9752 net.cpp:113] Setting up inception_4d/3x3_reduce
I0103 19:48:18.117070  9752 net.cpp:120] Top shape: 50 144 14 14 (1411200)
I0103 19:48:18.117086  9752 layer_factory.hpp:74] Creating layer inception_4d/relu_3x3_reduce
I0103 19:48:18.117095  9752 net.cpp:84] Creating Layer inception_4d/relu_3x3_reduce
I0103 19:48:18.117101  9752 net.cpp:380] inception_4d/relu_3x3_reduce <- inception_4d/3x3_reduce
I0103 19:48:18.117107  9752 net.cpp:327] inception_4d/relu_3x3_reduce -> inception_4d/3x3_reduce (in-place)
I0103 19:48:18.117115  9752 net.cpp:113] Setting up inception_4d/relu_3x3_reduce
I0103 19:48:18.117410  9752 net.cpp:120] Top shape: 50 144 14 14 (1411200)
I0103 19:48:18.117424  9752 layer_factory.hpp:74] Creating layer inception_4d/3x3
I0103 19:48:18.117434  9752 net.cpp:84] Creating Layer inception_4d/3x3
I0103 19:48:18.117439  9752 net.cpp:380] inception_4d/3x3 <- inception_4d/3x3_reduce
I0103 19:48:18.117449  9752 net.cpp:338] inception_4d/3x3 -> inception_4d/3x3
I0103 19:48:18.117457  9752 net.cpp:113] Setting up inception_4d/3x3
I0103 19:48:18.121887  9752 net.cpp:120] Top shape: 50 288 14 14 (2822400)
I0103 19:48:18.121903  9752 layer_factory.hpp:74] Creating layer inception_4d/relu_3x3
I0103 19:48:18.121911  9752 net.cpp:84] Creating Layer inception_4d/relu_3x3
I0103 19:48:18.121917  9752 net.cpp:380] inception_4d/relu_3x3 <- inception_4d/3x3
I0103 19:48:18.121922  9752 net.cpp:327] inception_4d/relu_3x3 -> inception_4d/3x3 (in-place)
I0103 19:48:18.121929  9752 net.cpp:113] Setting up inception_4d/relu_3x3
I0103 19:48:18.121997  9752 net.cpp:120] Top shape: 50 288 14 14 (2822400)
I0103 19:48:18.122004  9752 layer_factory.hpp:74] Creating layer inception_4d/5x5_reduce
I0103 19:48:18.122012  9752 net.cpp:84] Creating Layer inception_4d/5x5_reduce
I0103 19:48:18.122017  9752 net.cpp:380] inception_4d/5x5_reduce <- inception_4c/output_inception_4c/output_0_split_2
I0103 19:48:18.122026  9752 net.cpp:338] inception_4d/5x5_reduce -> inception_4d/5x5_reduce
I0103 19:48:18.122035  9752 net.cpp:113] Setting up inception_4d/5x5_reduce
I0103 19:48:18.122701  9752 net.cpp:120] Top shape: 50 32 14 14 (313600)
I0103 19:48:18.122716  9752 layer_factory.hpp:74] Creating layer inception_4d/relu_5x5_reduce
I0103 19:48:18.122723  9752 net.cpp:84] Creating Layer inception_4d/relu_5x5_reduce
I0103 19:48:18.122728  9752 net.cpp:380] inception_4d/relu_5x5_reduce <- inception_4d/5x5_reduce
I0103 19:48:18.122735  9752 net.cpp:327] inception_4d/relu_5x5_reduce -> inception_4d/5x5_reduce (in-place)
I0103 19:48:18.122742  9752 net.cpp:113] Setting up inception_4d/relu_5x5_reduce
I0103 19:48:18.122812  9752 net.cpp:120] Top shape: 50 32 14 14 (313600)
I0103 19:48:18.122817  9752 layer_factory.hpp:74] Creating layer inception_4d/5x5
I0103 19:48:18.122828  9752 net.cpp:84] Creating Layer inception_4d/5x5
I0103 19:48:18.122833  9752 net.cpp:380] inception_4d/5x5 <- inception_4d/5x5_reduce
I0103 19:48:18.122838  9752 net.cpp:338] inception_4d/5x5 -> inception_4d/5x5
I0103 19:48:18.122851  9752 net.cpp:113] Setting up inception_4d/5x5
I0103 19:48:18.123854  9752 net.cpp:120] Top shape: 50 64 14 14 (627200)
I0103 19:48:18.123870  9752 layer_factory.hpp:74] Creating layer inception_4d/relu_5x5
I0103 19:48:18.123878  9752 net.cpp:84] Creating Layer inception_4d/relu_5x5
I0103 19:48:18.123883  9752 net.cpp:380] inception_4d/relu_5x5 <- inception_4d/5x5
I0103 19:48:18.123889  9752 net.cpp:327] inception_4d/relu_5x5 -> inception_4d/5x5 (in-place)
I0103 19:48:18.123896  9752 net.cpp:113] Setting up inception_4d/relu_5x5
I0103 19:48:18.123963  9752 net.cpp:120] Top shape: 50 64 14 14 (627200)
I0103 19:48:18.123968  9752 layer_factory.hpp:74] Creating layer inception_4d/pool
I0103 19:48:18.123975  9752 layer_factory.cpp:56] CUDNN does not support padding or multiple tops. Using Caffe's own pooling layer.
I0103 19:48:18.123982  9752 net.cpp:84] Creating Layer inception_4d/pool
I0103 19:48:18.123987  9752 net.cpp:380] inception_4d/pool <- inception_4c/output_inception_4c/output_0_split_3
I0103 19:48:18.123994  9752 net.cpp:338] inception_4d/pool -> inception_4d/pool
I0103 19:48:18.124001  9752 net.cpp:113] Setting up inception_4d/pool
I0103 19:48:18.124009  9752 net.cpp:120] Top shape: 50 512 14 14 (5017600)
I0103 19:48:18.124013  9752 layer_factory.hpp:74] Creating layer inception_4d/pool_proj
I0103 19:48:18.124023  9752 net.cpp:84] Creating Layer inception_4d/pool_proj
I0103 19:48:18.124028  9752 net.cpp:380] inception_4d/pool_proj <- inception_4d/pool
I0103 19:48:18.124034  9752 net.cpp:338] inception_4d/pool_proj -> inception_4d/pool_proj
I0103 19:48:18.124042  9752 net.cpp:113] Setting up inception_4d/pool_proj
I0103 19:48:18.127365  9752 net.cpp:120] Top shape: 50 64 14 14 (627200)
I0103 19:48:18.127385  9752 layer_factory.hpp:74] Creating layer inception_4d/relu_pool_proj
I0103 19:48:18.127393  9752 net.cpp:84] Creating Layer inception_4d/relu_pool_proj
I0103 19:48:18.127399  9752 net.cpp:380] inception_4d/relu_pool_proj <- inception_4d/pool_proj
I0103 19:48:18.127408  9752 net.cpp:327] inception_4d/relu_pool_proj -> inception_4d/pool_proj (in-place)
I0103 19:48:18.127418  9752 net.cpp:113] Setting up inception_4d/relu_pool_proj
I0103 19:48:18.127852  9752 net.cpp:120] Top shape: 50 64 14 14 (627200)
I0103 19:48:18.127866  9752 layer_factory.hpp:74] Creating layer inception_4d/output
I0103 19:48:18.127874  9752 net.cpp:84] Creating Layer inception_4d/output
I0103 19:48:18.127879  9752 net.cpp:380] inception_4d/output <- inception_4d/1x1
I0103 19:48:18.127887  9752 net.cpp:380] inception_4d/output <- inception_4d/3x3
I0103 19:48:18.127892  9752 net.cpp:380] inception_4d/output <- inception_4d/5x5
I0103 19:48:18.127897  9752 net.cpp:380] inception_4d/output <- inception_4d/pool_proj
I0103 19:48:18.127902  9752 net.cpp:338] inception_4d/output -> inception_4d/output
I0103 19:48:18.127912  9752 net.cpp:113] Setting up inception_4d/output
I0103 19:48:18.127920  9752 net.cpp:120] Top shape: 50 528 14 14 (5174400)
I0103 19:48:18.127924  9752 layer_factory.hpp:74] Creating layer inception_4d/output_inception_4d/output_0_split
I0103 19:48:18.127931  9752 net.cpp:84] Creating Layer inception_4d/output_inception_4d/output_0_split
I0103 19:48:18.127936  9752 net.cpp:380] inception_4d/output_inception_4d/output_0_split <- inception_4d/output
I0103 19:48:18.127943  9752 net.cpp:338] inception_4d/output_inception_4d/output_0_split -> inception_4d/output_inception_4d/output_0_split_0
I0103 19:48:18.127949  9752 net.cpp:338] inception_4d/output_inception_4d/output_0_split -> inception_4d/output_inception_4d/output_0_split_1
I0103 19:48:18.127957  9752 net.cpp:338] inception_4d/output_inception_4d/output_0_split -> inception_4d/output_inception_4d/output_0_split_2
I0103 19:48:18.127964  9752 net.cpp:338] inception_4d/output_inception_4d/output_0_split -> inception_4d/output_inception_4d/output_0_split_3
I0103 19:48:18.127972  9752 net.cpp:338] inception_4d/output_inception_4d/output_0_split -> inception_4d/output_inception_4d/output_0_split_4
I0103 19:48:18.127979  9752 net.cpp:113] Setting up inception_4d/output_inception_4d/output_0_split
I0103 19:48:18.127997  9752 net.cpp:120] Top shape: 50 528 14 14 (5174400)
I0103 19:48:18.128002  9752 net.cpp:120] Top shape: 50 528 14 14 (5174400)
I0103 19:48:18.128007  9752 net.cpp:120] Top shape: 50 528 14 14 (5174400)
I0103 19:48:18.128012  9752 net.cpp:120] Top shape: 50 528 14 14 (5174400)
I0103 19:48:18.128017  9752 net.cpp:120] Top shape: 50 528 14 14 (5174400)
I0103 19:48:18.128021  9752 layer_factory.hpp:74] Creating layer loss2/ave_pool
I0103 19:48:18.128028  9752 net.cpp:84] Creating Layer loss2/ave_pool
I0103 19:48:18.128032  9752 net.cpp:380] loss2/ave_pool <- inception_4d/output_inception_4d/output_0_split_0
I0103 19:48:18.128041  9752 net.cpp:338] loss2/ave_pool -> loss2/ave_pool
I0103 19:48:18.128048  9752 net.cpp:113] Setting up loss2/ave_pool
I0103 19:48:18.128120  9752 net.cpp:120] Top shape: 50 528 4 4 (422400)
I0103 19:48:18.128129  9752 layer_factory.hpp:74] Creating layer loss2/conv
I0103 19:48:18.128137  9752 net.cpp:84] Creating Layer loss2/conv
I0103 19:48:18.128144  9752 net.cpp:380] loss2/conv <- loss2/ave_pool
I0103 19:48:18.128149  9752 net.cpp:338] loss2/conv -> loss2/conv
I0103 19:48:18.128157  9752 net.cpp:113] Setting up loss2/conv
I0103 19:48:18.129343  9752 net.cpp:120] Top shape: 50 128 4 4 (102400)
I0103 19:48:18.129360  9752 layer_factory.hpp:74] Creating layer loss2/relu_conv
I0103 19:48:18.129369  9752 net.cpp:84] Creating Layer loss2/relu_conv
I0103 19:48:18.129374  9752 net.cpp:380] loss2/relu_conv <- loss2/conv
I0103 19:48:18.129381  9752 net.cpp:327] loss2/relu_conv -> loss2/conv (in-place)
I0103 19:48:18.129389  9752 net.cpp:113] Setting up loss2/relu_conv
I0103 19:48:18.129454  9752 net.cpp:120] Top shape: 50 128 4 4 (102400)
I0103 19:48:18.129462  9752 layer_factory.hpp:74] Creating layer loss2/fc
I0103 19:48:18.129472  9752 net.cpp:84] Creating Layer loss2/fc
I0103 19:48:18.129477  9752 net.cpp:380] loss2/fc <- loss2/conv
I0103 19:48:18.129485  9752 net.cpp:338] loss2/fc -> loss2/fc
I0103 19:48:18.129494  9752 net.cpp:113] Setting up loss2/fc
I0103 19:48:18.308984  9752 net.cpp:120] Top shape: 50 1024 (51200)
I0103 19:48:18.309027  9752 layer_factory.hpp:74] Creating layer loss2/relu_fc
I0103 19:48:18.309038  9752 net.cpp:84] Creating Layer loss2/relu_fc
I0103 19:48:18.309046  9752 net.cpp:380] loss2/relu_fc <- loss2/fc
I0103 19:48:18.309065  9752 net.cpp:327] loss2/relu_fc -> loss2/fc (in-place)
I0103 19:48:18.309075  9752 net.cpp:113] Setting up loss2/relu_fc
I0103 19:48:18.309204  9752 net.cpp:120] Top shape: 50 1024 (51200)
I0103 19:48:18.309211  9752 layer_factory.hpp:74] Creating layer loss2/drop_fc
I0103 19:48:18.309219  9752 net.cpp:84] Creating Layer loss2/drop_fc
I0103 19:48:18.309223  9752 net.cpp:380] loss2/drop_fc <- loss2/fc
I0103 19:48:18.309229  9752 net.cpp:327] loss2/drop_fc -> loss2/fc (in-place)
I0103 19:48:18.309237  9752 net.cpp:113] Setting up loss2/drop_fc
I0103 19:48:18.309243  9752 net.cpp:120] Top shape: 50 1024 (51200)
I0103 19:48:18.309248  9752 layer_factory.hpp:74] Creating layer loss2/classifier_kaggle
I0103 19:48:18.309258  9752 net.cpp:84] Creating Layer loss2/classifier_kaggle
I0103 19:48:18.309262  9752 net.cpp:380] loss2/classifier_kaggle <- loss2/fc
I0103 19:48:18.309269  9752 net.cpp:338] loss2/classifier_kaggle -> loss2/classifier_kaggle
I0103 19:48:18.309278  9752 net.cpp:113] Setting up loss2/classifier_kaggle
I0103 19:48:18.314069  9752 net.cpp:120] Top shape: 50 447 (22350)
I0103 19:48:18.314081  9752 layer_factory.hpp:74] Creating layer loss2/classifier_kaggle_loss2/classifier_kaggle_0_split
I0103 19:48:18.314091  9752 net.cpp:84] Creating Layer loss2/classifier_kaggle_loss2/classifier_kaggle_0_split
I0103 19:48:18.314097  9752 net.cpp:380] loss2/classifier_kaggle_loss2/classifier_kaggle_0_split <- loss2/classifier_kaggle
I0103 19:48:18.314105  9752 net.cpp:338] loss2/classifier_kaggle_loss2/classifier_kaggle_0_split -> loss2/classifier_kaggle_loss2/classifier_kaggle_0_split_0
I0103 19:48:18.314112  9752 net.cpp:338] loss2/classifier_kaggle_loss2/classifier_kaggle_0_split -> loss2/classifier_kaggle_loss2/classifier_kaggle_0_split_1
I0103 19:48:18.314143  9752 net.cpp:338] loss2/classifier_kaggle_loss2/classifier_kaggle_0_split -> loss2/classifier_kaggle_loss2/classifier_kaggle_0_split_2
I0103 19:48:18.314151  9752 net.cpp:113] Setting up loss2/classifier_kaggle_loss2/classifier_kaggle_0_split
I0103 19:48:18.314157  9752 net.cpp:120] Top shape: 50 447 (22350)
I0103 19:48:18.314162  9752 net.cpp:120] Top shape: 50 447 (22350)
I0103 19:48:18.314167  9752 net.cpp:120] Top shape: 50 447 (22350)
I0103 19:48:18.314170  9752 layer_factory.hpp:74] Creating layer loss2/loss
I0103 19:48:18.314178  9752 net.cpp:84] Creating Layer loss2/loss
I0103 19:48:18.314182  9752 net.cpp:380] loss2/loss <- loss2/classifier_kaggle_loss2/classifier_kaggle_0_split_0
I0103 19:48:18.314188  9752 net.cpp:380] loss2/loss <- label_data_1_split_3
I0103 19:48:18.314194  9752 net.cpp:338] loss2/loss -> loss2/loss1
…
I0103 19:48:18.314842  9752 net.cpp:338] loss2/top-5 -> loss2/top-5
I0103 19:48:18.314849  9752 net.cpp:113] Setting up loss2/top-5
I0103 19:48:18.314854  9752 net.cpp:120] Top shape: (1)
I0103 19:48:18.314859  9752 layer_factory.hpp:74] Creating layer inception_4e/1x1
I0103 19:48:18.314868  9752 net.cpp:84] Creating Layer inception_4e/1x1
I0103 19:48:18.314873  9752 net.cpp:380] inception_4e/1x1 <- inception_4d/output_inception_4d/output_0_split_1
I0103 19:48:18.314882  9752 net.cpp:338] inception_4e/1x1 -> inception_4e/1x1
I0103 19:48:18.314888  9752 net.cpp:113] Setting up inception_4e/1x1
I0103 19:48:18.316772  9752 net.cpp:120] Top shape: 50 256 14 14 (2508800)
I0103 19:48:18.316788  9752 layer_factory.hpp:74] Creating layer inception_4e/relu_1x1
I0103 19:48:18.316795  9752 net.cpp:84] Creating Layer inception_4e/relu_1x1
I0103 19:48:18.316800  9752 net.cpp:380] inception_4e/relu_1x1 <- inception_4e/1x1
I0103 19:48:18.316807  9752 net.cpp:327] inception_4e/relu_1x1 -> inception_4e/1x1 (in-place)
I0103 19:48:18.316814  9752 net.cpp:113] Setting up inception_4e/relu_1x1
I0103 19:48:18.316880  9752 net.cpp:120] Top shape: 50 256 14 14 (2508800)
I0103 19:48:18.316886  9752 layer_factory.hpp:74] Creating layer inception_4e/3x3_reduce
I0103 19:48:18.316916  9752 net.cpp:84] Creating Layer inception_4e/3x3_reduce
I0103 19:48:18.316922  9752 net.cpp:380] inception_4e/3x3_reduce <- inception_4d/output_inception_4d/output_0_split_2
I0103 19:48:18.316929  9752 net.cpp:338] inception_4e/3x3_reduce -> inception_4e/3x3_reduce
I0103 19:48:18.316936  9752 net.cpp:113] Setting up inception_4e/3x3_reduce
I0103 19:48:18.318274  9752 net.cpp:120] Top shape: 50 160 14 14 (1568000)
I0103 19:48:18.318289  9752 layer_factory.hpp:74] Creating layer inception_4e/relu_3x3_reduce
I0103 19:48:18.318297  9752 net.cpp:84] Creating Layer inception_4e/relu_3x3_reduce
I0103 19:48:18.318302  9752 net.cpp:380] inception_4e/relu_3x3_reduce <- inception_4e/3x3_reduce
I0103 19:48:18.318308  9752 net.cpp:327] inception_4e/relu_3x3_reduce -> inception_4e/3x3_reduce (in-place)
I0103 19:48:18.318320  9752 net.cpp:113] Setting up inception_4e/relu_3x3_reduce
I0103 19:48:18.318406  9752 net.cpp:120] Top shape: 50 160 14 14 (1568000)
I0103 19:48:18.318413  9752 layer_factory.hpp:74] Creating layer inception_4e/3x3
I0103 19:48:18.318423  9752 net.cpp:84] Creating Layer inception_4e/3x3
I0103 19:48:18.318428  9752 net.cpp:380] inception_4e/3x3 <- inception_4e/3x3_reduce
I0103 19:48:18.318434  9752 net.cpp:338] inception_4e/3x3 -> inception_4e/3x3
I0103 19:48:18.318440  9752 net.cpp:113] Setting up inception_4e/3x3
I0103 19:48:18.323846  9752 net.cpp:120] Top shape: 50 320 14 14 (3136000)
I0103 19:48:18.323863  9752 layer_factory.hpp:74] Creating layer inception_4e/relu_3x3
I0103 19:48:18.323871  9752 net.cpp:84] Creating Layer inception_4e/relu_3x3
I0103 19:48:18.323876  9752 net.cpp:380] inception_4e/relu_3x3 <- inception_4e/3x3
I0103 19:48:18.323884  9752 net.cpp:327] inception_4e/relu_3x3 -> inception_4e/3x3 (in-place)
I0103 19:48:18.323890  9752 net.cpp:113] Setting up inception_4e/relu_3x3
I0103 19:48:18.324167  9752 net.cpp:120] Top shape: 50 320 14 14 (3136000)
I0103 19:48:18.324177  9752 layer_factory.hpp:74] Creating layer inception_4e/5x5_reduce
I0103 19:48:18.324187  9752 net.cpp:84] Creating Layer inception_4e/5x5_reduce
I0103 19:48:18.324192  9752 net.cpp:380] inception_4e/5x5_reduce <- inception_4d/output_inception_4d/output_0_split_3
I0103 19:48:18.324199  9752 net.cpp:338] inception_4e/5x5_reduce -> inception_4e/5x5_reduce
I0103 19:48:18.324208  9752 net.cpp:113] Setting up inception_4e/5x5_reduce
I0103 19:48:18.324802  9752 net.cpp:120] Top shape: 50 32 14 14 (313600)
I0103 19:48:18.324816  9752 layer_factory.hpp:74] Creating layer inception_4e/relu_5x5_reduce
I0103 19:48:18.324823  9752 net.cpp:84] Creating Layer inception_4e/relu_5x5_reduce
I0103 19:48:18.324828  9752 net.cpp:380] inception_4e/relu_5x5_reduce <- inception_4e/5x5_reduce
I0103 19:48:18.324836  9752 net.cpp:327] inception_4e/relu_5x5_reduce -> inception_4e/5x5_reduce (in-place)
I0103 19:48:18.324843  9752 net.cpp:113] Setting up inception_4e/relu_5x5_reduce
I0103 19:48:18.324911  9752 net.cpp:120] Top shape: 50 32 14 14 (313600)
I0103 19:48:18.324918  9752 layer_factory.hpp:74] Creating layer inception_4e/5x5
I0103 19:48:18.324924  9752 net.cpp:84] Creating Layer inception_4e/5x5
I0103 19:48:18.324929  9752 net.cpp:380] inception_4e/5x5 <- inception_4e/5x5_reduce
I0103 19:48:18.324937  9752 net.cpp:338] inception_4e/5x5 -> inception_4e/5x5
I0103 19:48:18.324944  9752 net.cpp:113] Setting up inception_4e/5x5
I0103 19:48:18.326447  9752 net.cpp:120] Top shape: 50 128 14 14 (1254400)
I0103 19:48:18.326462  9752 layer_factory.hpp:74] Creating layer inception_4e/relu_5x5
I0103 19:48:18.326469  9752 net.cpp:84] Creating Layer inception_4e/relu_5x5
I0103 19:48:18.326474  9752 net.cpp:380] inception_4e/relu_5x5 <- inception_4e/5x5
I0103 19:48:18.326480  9752 net.cpp:327] inception_4e/relu_5x5 -> inception_4e/5x5 (in-place)
I0103 19:48:18.326488  9752 net.cpp:113] Setting up inception_4e/relu_5x5
I0103 19:48:18.326573  9752 net.cpp:120] Top shape: 50 128 14 14 (1254400)
I0103 19:48:18.326581  9752 layer_factory.hpp:74] Creating layer inception_4e/pool
I0103 19:48:18.326586  9752 layer_factory.cpp:56] CUDNN does not support padding or multiple tops. Using Caffe's own pooling layer.
I0103 19:48:18.326592  9752 net.cpp:84] Creating Layer inception_4e/pool
I0103 19:48:18.326597  9752 net.cpp:380] inception_4e/pool <- inception_4d/output_inception_4d/output_0_split_4
I0103 19:48:18.326603  9752 net.cpp:338] inception_4e/pool -> inception_4e/pool
I0103 19:48:18.326611  9752 net.cpp:113] Setting up inception_4e/pool
I0103 19:48:18.326619  9752 net.cpp:120] Top shape: 50 528 14 14 (5174400)
I0103 19:48:18.326624  9752 layer_factory.hpp:74] Creating layer inception_4e/pool_proj
I0103 19:48:18.326633  9752 net.cpp:84] Creating Layer inception_4e/pool_proj
I0103 19:48:18.326638  9752 net.cpp:380] inception_4e/pool_proj <- inception_4e/pool
I0103 19:48:18.326653  9752 net.cpp:338] inception_4e/pool_proj -> inception_4e/pool_proj
I0103 19:48:18.326668  9752 net.cpp:113] Setting up inception_4e/pool_proj
I0103 19:48:18.327829  9752 net.cpp:120] Top shape: 50 128 14 14 (1254400)
I0103 19:48:18.327843  9752 layer_factory.hpp:74] Creating layer inception_4e/relu_pool_proj
I0103 19:48:18.327852  9752 net.cpp:84] Creating Layer inception_4e/relu_pool_proj
I0103 19:48:18.327857  9752 net.cpp:380] inception_4e/relu_pool_proj <- inception_4e/pool_proj
I0103 19:48:18.327863  9752 net.cpp:327] inception_4e/relu_pool_proj -> inception_4e/pool_proj (in-place)
I0103 19:48:18.327869  9752 net.cpp:113] Setting up inception_4e/relu_pool_proj
I0103 19:48:18.327934  9752 net.cpp:120] Top shape: 50 128 14 14 (1254400)
I0103 19:48:18.327940  9752 layer_factory.hpp:74] Creating layer inception_4e/output
I0103 19:48:18.327949  9752 net.cpp:84] Creating Layer inception_4e/output
I0103 19:48:18.327953  9752 net.cpp:380] inception_4e/output <- inception_4e/1x1
I0103 19:48:18.327958  9752 net.cpp:380] inception_4e/output <- inception_4e/3x3
I0103 19:48:18.327963  9752 net.cpp:380] inception_4e/output <- inception_4e/5x5
I0103 19:48:18.327968  9752 net.cpp:380] inception_4e/output <- inception_4e/pool_proj
I0103 19:48:18.327975  9752 net.cpp:338] inception_4e/output -> inception_4e/output
I0103 19:48:18.327981  9752 net.cpp:113] Setting up inception_4e/output
I0103 19:48:18.327989  9752 net.cpp:120] Top shape: 50 832 14 14 (8153600)
I0103 19:48:18.327996  9752 layer_factory.hpp:74] Creating layer pool4/3x3_s2
I0103 19:48:18.328003  9752 net.cpp:84] Creating Layer pool4/3x3_s2
I0103 19:48:18.328007  9752 net.cpp:380] pool4/3x3_s2 <- inception_4e/output
I0103 19:48:18.328014  9752 net.cpp:338] pool4/3x3_s2 -> pool4/3x3_s2
I0103 19:48:18.328021  9752 net.cpp:113] Setting up pool4/3x3_s2
I0103 19:48:18.328307  9752 net.cpp:120] Top shape: 50 832 7 7 (2038400)
I0103 19:48:18.328318  9752 layer_factory.hpp:74] Creating layer pool4/3x3_s2_pool4/3x3_s2_0_split
I0103 19:48:18.328325  9752 net.cpp:84] Creating Layer pool4/3x3_s2_pool4/3x3_s2_0_split
I0103 19:48:18.328330  9752 net.cpp:380] pool4/3x3_s2_pool4/3x3_s2_0_split <- pool4/3x3_s2
I0103 19:48:18.328336  9752 net.cpp:338] pool4/3x3_s2_pool4/3x3_s2_0_split -> pool4/3x3_s2_pool4/3x3_s2_0_split_0
I0103 19:48:18.328344  9752 net.cpp:338] pool4/3x3_s2_pool4/3x3_s2_0_split -> pool4/3x3_s2_pool4/3x3_s2_0_split_1
I0103 19:48:18.328353  9752 net.cpp:338] pool4/3x3_s2_pool4/3x3_s2_0_split -> pool4/3x3_s2_pool4/3x3_s2_0_split_2
I0103 19:48:18.328377  9752 net.cpp:338] pool4/3x3_s2_pool4/3x3_s2_0_split -> pool4/3x3_s2_pool4/3x3_s2_0_split_3
I0103 19:48:18.328383  9752 net.cpp:113] Setting up pool4/3x3_s2_pool4/3x3_s2_0_split
I0103 19:48:18.328390  9752 net.cpp:120] Top shape: 50 832 7 7 (2038400)
I0103 19:48:18.328395  9752 net.cpp:120] Top shape: 50 832 7 7 (2038400)
I0103 19:48:18.328402  9752 net.cpp:120] Top shape: 50 832 7 7 (2038400)
I0103 19:48:18.328408  9752 net.cpp:120] Top shape: 50 832 7 7 (2038400)
I0103 19:48:18.328411  9752 layer_factory.hpp:74] Creating layer inception_5a/1x1
I0103 19:48:18.328419  9752 net.cpp:84] Creating Layer inception_5a/1x1
I0103 19:48:18.328423  9752 net.cpp:380] inception_5a/1x1 <- pool4/3x3_s2_pool4/3x3_s2_0_split_0
I0103 19:48:18.328430  9752 net.cpp:338] inception_5a/1x1 -> inception_5a/1x1
I0103 19:48:18.328438  9752 net.cpp:113] Setting up inception_5a/1x1
I0103 19:48:18.331066  9752 net.cpp:120] Top shape: 50 256 7 7 (627200)
I0103 19:48:18.331081  9752 layer_factory.hpp:74] Creating layer inception_5a/relu_1x1
I0103 19:48:18.331089  9752 net.cpp:84] Creating Layer inception_5a/relu_1x1
I0103 19:48:18.331094  9752 net.cpp:380] inception_5a/relu_1x1 <- inception_5a/1x1
I0103 19:48:18.331101  9752 net.cpp:327] inception_5a/relu_1x1 -> inception_5a/1x1 (in-place)
I0103 19:48:18.331107  9752 net.cpp:113] Setting up inception_5a/relu_1x1
I0103 19:48:18.331172  9752 net.cpp:120] Top shape: 50 256 7 7 (627200)
I0103 19:48:18.331179  9752 layer_factory.hpp:74] Creating layer inception_5a/3x3_reduce
I0103 19:48:18.331188  9752 net.cpp:84] Creating Layer inception_5a/3x3_reduce
I0103 19:48:18.331198  9752 net.cpp:380] inception_5a/3x3_reduce <- pool4/3x3_s2_pool4/3x3_s2_0_split_1
I0103 19:48:18.331212  9752 net.cpp:338] inception_5a/3x3_reduce -> inception_5a/3x3_reduce
I0103 19:48:18.331219  9752 net.cpp:113] Setting up inception_5a/3x3_reduce
I0103 19:48:18.333026  9752 net.cpp:120] Top shape: 50 160 7 7 (392000)
I0103 19:48:18.333042  9752 layer_factory.hpp:74] Creating layer inception_5a/relu_3x3_reduce
I0103 19:48:18.333050  9752 net.cpp:84] Creating Layer inception_5a/relu_3x3_reduce
I0103 19:48:18.333055  9752 net.cpp:380] inception_5a/relu_3x3_reduce <- inception_5a/3x3_reduce
I0103 19:48:18.333062  9752 net.cpp:327] inception_5a/relu_3x3_reduce -> inception_5a/3x3_reduce (in-place)
I0103 19:48:18.333070  9752 net.cpp:113] Setting up inception_5a/relu_3x3_reduce
I0103 19:48:18.333138  9752 net.cpp:120] Top shape: 50 160 7 7 (392000)
I0103 19:48:18.333144  9752 layer_factory.hpp:74] Creating layer inception_5a/3x3
I0103 19:48:18.333154  9752 net.cpp:84] Creating Layer inception_5a/3x3
I0103 19:48:18.333158  9752 net.cpp:380] inception_5a/3x3 <- inception_5a/3x3_reduce
I0103 19:48:18.333165  9752 net.cpp:338] inception_5a/3x3 -> inception_5a/3x3
I0103 19:48:18.333174  9752 net.cpp:113] Setting up inception_5a/3x3
I0103 19:48:18.338430  9752 net.cpp:120] Top shape: 50 320 7 7 (784000)
I0103 19:48:18.338445  9752 layer_factory.hpp:74] Creating layer inception_5a/relu_3x3
I0103 19:48:18.338454  9752 net.cpp:84] Creating Layer inception_5a/relu_3x3
I0103 19:48:18.338459  9752 net.cpp:380] inception_5a/relu_3x3 <- inception_5a/3x3
I0103 19:48:18.338465  9752 net.cpp:327] inception_5a/relu_3x3 -> inception_5a/3x3 (in-place)
I0103 19:48:18.338472  9752 net.cpp:113] Setting up inception_5a/relu_3x3
I0103 19:48:18.338537  9752 net.cpp:120] Top shape: 50 320 7 7 (784000)
I0103 19:48:18.338543  9752 layer_factory.hpp:74] Creating layer inception_5a/5x5_reduce
I0103 19:48:18.338553  9752 net.cpp:84] Creating Layer inception_5a/5x5_reduce
I0103 19:48:18.338558  9752 net.cpp:380] inception_5a/5x5_reduce <- pool4/3x3_s2_pool4/3x3_s2_0_split_2
I0103 19:48:18.338567  9752 net.cpp:338] inception_5a/5x5_reduce -> inception_5a/5x5_reduce
I0103 19:48:18.338573  9752 net.cpp:113] Setting up inception_5a/5x5_reduce
I0103 19:48:18.339308  9752 net.cpp:120] Top shape: 50 32 7 7 (78400)
I0103 19:48:18.339321  9752 layer_factory.hpp:74] Creating layer inception_5a/relu_5x5_reduce
I0103 19:48:18.339328  9752 net.cpp:84] Creating Layer inception_5a/relu_5x5_reduce
I0103 19:48:18.339334  9752 net.cpp:380] inception_5a/relu_5x5_reduce <- inception_5a/5x5_reduce
I0103 19:48:18.339339  9752 net.cpp:327] inception_5a/relu_5x5_reduce -> inception_5a/5x5_reduce (in-place)
I0103 19:48:18.339346  9752 net.cpp:113] Setting up inception_5a/relu_5x5_reduce
I0103 19:48:18.339632  9752 net.cpp:120] Top shape: 50 32 7 7 (78400)
I0103 19:48:18.339643  9752 layer_factory.hpp:74] Creating layer inception_5a/5x5
I0103 19:48:18.339653  9752 net.cpp:84] Creating Layer inception_5a/5x5
I0103 19:48:18.339658  9752 net.cpp:380] inception_5a/5x5 <- inception_5a/5x5_reduce
I0103 19:48:18.339666  9752 net.cpp:338] inception_5a/5x5 -> inception_5a/5x5
I0103 19:48:18.339673  9752 net.cpp:113] Setting up inception_5a/5x5
I0103 19:48:18.341253  9752 net.cpp:120] Top shape: 50 128 7 7 (313600)
I0103 19:48:18.341269  9752 layer_factory.hpp:74] Creating layer inception_5a/relu_5x5
I0103 19:48:18.341277  9752 net.cpp:84] Creating Layer inception_5a/relu_5x5
I0103 19:48:18.341284  9752 net.cpp:380] inception_5a/relu_5x5 <- inception_5a/5x5
I0103 19:48:18.341289  9752 net.cpp:327] inception_5a/relu_5x5 -> inception_5a/5x5 (in-place)
I0103 19:48:18.341296  9752 net.cpp:113] Setting up inception_5a/relu_5x5
I0103 19:48:18.341363  9752 net.cpp:120] Top shape: 50 128 7 7 (313600)
I0103 19:48:18.341368  9752 layer_factory.hpp:74] Creating layer inception_5a/pool
I0103 19:48:18.341373  9752 layer_factory.cpp:56] CUDNN does not support padding or multiple tops. Using Caffe's own pooling layer.
I0103 19:48:18.341379  9752 net.cpp:84] Creating Layer inception_5a/pool
I0103 19:48:18.341389  9752 net.cpp:380] inception_5a/pool <- pool4/3x3_s2_pool4/3x3_s2_0_split_3
I0103 19:48:18.341413  9752 net.cpp:338] inception_5a/pool -> inception_5a/pool
I0103 19:48:18.341421  9752 net.cpp:113] Setting up inception_5a/pool
I0103 19:48:18.341429  9752 net.cpp:120] Top shape: 50 832 7 7 (2038400)
I0103 19:48:18.341434  9752 layer_factory.hpp:74] Creating layer inception_5a/pool_proj
I0103 19:48:18.341441  9752 net.cpp:84] Creating Layer inception_5a/pool_proj
I0103 19:48:18.341447  9752 net.cpp:380] inception_5a/pool_proj <- inception_5a/pool
I0103 19:48:18.341454  9752 net.cpp:338] inception_5a/pool_proj -> inception_5a/pool_proj
I0103 19:48:18.341460  9752 net.cpp:113] Setting up inception_5a/pool_proj
I0103 19:48:18.343039  9752 net.cpp:120] Top shape: 50 128 7 7 (313600)
I0103 19:48:18.343053  9752 layer_factory.hpp:74] Creating layer inception_5a/relu_pool_proj
I0103 19:48:18.343062  9752 net.cpp:84] Creating Layer inception_5a/relu_pool_proj
I0103 19:48:18.343067  9752 net.cpp:380] inception_5a/relu_pool_proj <- inception_5a/pool_proj
I0103 19:48:18.343073  9752 net.cpp:327] inception_5a/relu_pool_proj -> inception_5a/pool_proj (in-place)
I0103 19:48:18.343080  9752 net.cpp:113] Setting up inception_5a/relu_pool_proj
I0103 19:48:18.343144  9752 net.cpp:120] Top shape: 50 128 7 7 (313600)
I0103 19:48:18.343149  9752 layer_factory.hpp:74] Creating layer inception_5a/output
I0103 19:48:18.343158  9752 net.cpp:84] Creating Layer inception_5a/output
I0103 19:48:18.343163  9752 net.cpp:380] inception_5a/output <- inception_5a/1x1
I0103 19:48:18.343168  9752 net.cpp:380] inception_5a/output <- inception_5a/3x3
I0103 19:48:18.343173  9752 net.cpp:380] inception_5a/output <- inception_5a/5x5
I0103 19:48:18.343178  9752 net.cpp:380] inception_5a/output <- inception_5a/pool_proj
I0103 19:48:18.343183  9752 net.cpp:338] inception_5a/output -> inception_5a/output
I0103 19:48:18.343190  9752 net.cpp:113] Setting up inception_5a/output
I0103 19:48:18.343197  9752 net.cpp:120] Top shape: 50 832 7 7 (2038400)
I0103 19:48:18.343202  9752 layer_factory.hpp:74] Creating layer inception_5a/output_inception_5a/output_0_split
I0103 19:48:18.343210  9752 net.cpp:84] Creating Layer inception_5a/output_inception_5a/output_0_split
I0103 19:48:18.343214  9752 net.cpp:380] inception_5a/output_inception_5a/output_0_split <- inception_5a/output
I0103 19:48:18.343220  9752 net.cpp:338] inception_5a/output_inception_5a/output_0_split -> inception_5a/output_inception_5a/output_0_split_0
I0103 19:48:18.343227  9752 net.cpp:338] inception_5a/output_inception_5a/output_0_split -> inception_5a/output_inception_5a/output_0_split_1
I0103 19:48:18.343235  9752 net.cpp:338] inception_5a/output_inception_5a/output_0_split -> inception_5a/output_inception_5a/output_0_split_2
I0103 19:48:18.343241  9752 net.cpp:338] inception_5a/output_inception_5a/output_0_split -> inception_5a/output_inception_5a/output_0_split_3
I0103 19:48:18.343246  9752 net.cpp:113] Setting up inception_5a/output_inception_5a/output_0_split
I0103 19:48:18.343253  9752 net.cpp:120] Top shape: 50 832 7 7 (2038400)
I0103 19:48:18.343258  9752 net.cpp:120] Top shape: 50 832 7 7 (2038400)
I0103 19:48:18.343262  9752 net.cpp:120] Top shape: 50 832 7 7 (2038400)
I0103 19:48:18.343267  9752 net.cpp:120] Top shape: 50 832 7 7 (2038400)
I0103 19:48:18.343271  9752 layer_factory.hpp:74] Creating layer inception_5b/1x1
I0103 19:48:18.343281  9752 net.cpp:84] Creating Layer inception_5b/1x1
I0103 19:48:18.343284  9752 net.cpp:380] inception_5b/1x1 <- inception_5a/output_inception_5a/output_0_split_0
I0103 19:48:18.343291  9752 net.cpp:338] inception_5b/1x1 -> inception_5b/1x1
I0103 19:48:18.343298  9752 net.cpp:113] Setting up inception_5b/1x1
I0103 19:48:18.347148  9752 net.cpp:120] Top shape: 50 384 7 7 (940800)
I0103 19:48:18.347163  9752 layer_factory.hpp:74] Creating layer inception_5b/relu_1x1
I0103 19:48:18.347170  9752 net.cpp:84] Creating Layer inception_5b/relu_1x1
I0103 19:48:18.347175  9752 net.cpp:380] inception_5b/relu_1x1 <- inception_5b/1x1
I0103 19:48:18.347190  9752 net.cpp:327] inception_5b/relu_1x1 -> inception_5b/1x1 (in-place)
I0103 19:48:18.347204  9752 net.cpp:113] Setting up inception_5b/relu_1x1
I0103 19:48:18.347273  9752 net.cpp:120] Top shape: 50 384 7 7 (940800)
I0103 19:48:18.347280  9752 layer_factory.hpp:74] Creating layer inception_5b/3x3_reduce
I0103 19:48:18.347288  9752 net.cpp:84] Creating Layer inception_5b/3x3_reduce
I0103 19:48:18.347293  9752 net.cpp:380] inception_5b/3x3_reduce <- inception_5a/output_inception_5a/output_0_split_1
I0103 19:48:18.347302  9752 net.cpp:338] inception_5b/3x3_reduce -> inception_5b/3x3_reduce
I0103 19:48:18.347309  9752 net.cpp:113] Setting up inception_5b/3x3_reduce
I0103 19:48:18.349457  9752 net.cpp:120] Top shape: 50 192 7 7 (470400)
I0103 19:48:18.349472  9752 layer_factory.hpp:74] Creating layer inception_5b/relu_3x3_reduce
I0103 19:48:18.349480  9752 net.cpp:84] Creating Layer inception_5b/relu_3x3_reduce
I0103 19:48:18.349485  9752 net.cpp:380] inception_5b/relu_3x3_reduce <- inception_5b/3x3_reduce
I0103 19:48:18.349493  9752 net.cpp:327] inception_5b/relu_3x3_reduce -> inception_5b/3x3_reduce (in-place)
I0103 19:48:18.349500  9752 net.cpp:113] Setting up inception_5b/relu_3x3_reduce
I0103 19:48:18.349777  9752 net.cpp:120] Top shape: 50 192 7 7 (470400)
I0103 19:48:18.349789  9752 layer_factory.hpp:74] Creating layer inception_5b/3x3
I0103 19:48:18.349798  9752 net.cpp:84] Creating Layer inception_5b/3x3
I0103 19:48:18.349804  9752 net.cpp:380] inception_5b/3x3 <- inception_5b/3x3_reduce
I0103 19:48:18.349810  9752 net.cpp:338] inception_5b/3x3 -> inception_5b/3x3
I0103 19:48:18.349818  9752 net.cpp:113] Setting up inception_5b/3x3
I0103 19:48:18.357134  9752 net.cpp:120] Top shape: 50 384 7 7 (940800)
I0103 19:48:18.357149  9752 layer_factory.hpp:74] Creating layer inception_5b/relu_3x3
I0103 19:48:18.357158  9752 net.cpp:84] Creating Layer inception_5b/relu_3x3
I0103 19:48:18.357163  9752 net.cpp:380] inception_5b/relu_3x3 <- inception_5b/3x3
I0103 19:48:18.357169  9752 net.cpp:327] inception_5b/relu_3x3 -> inception_5b/3x3 (in-place)
I0103 19:48:18.357177  9752 net.cpp:113] Setting up inception_5b/relu_3x3
I0103 19:48:18.357240  9752 net.cpp:120] Top shape: 50 384 7 7 (940800)
I0103 19:48:18.357246  9752 layer_factory.hpp:74] Creating layer inception_5b/5x5_reduce
I0103 19:48:18.357255  9752 net.cpp:84] Creating Layer inception_5b/5x5_reduce
I0103 19:48:18.357260  9752 net.cpp:380] inception_5b/5x5_reduce <- inception_5a/output_inception_5a/output_0_split_2
I0103 19:48:18.357267  9752 net.cpp:338] inception_5b/5x5_reduce -> inception_5b/5x5_reduce
I0103 19:48:18.357275  9752 net.cpp:113] Setting up inception_5b/5x5_reduce
I0103 19:48:18.358124  9752 net.cpp:120] Top shape: 50 48 7 7 (117600)
I0103 19:48:18.358140  9752 layer_factory.hpp:74] Creating layer inception_5b/relu_5x5_reduce
I0103 19:48:18.358147  9752 net.cpp:84] Creating Layer inception_5b/relu_5x5_reduce
I0103 19:48:18.358152  9752 net.cpp:380] inception_5b/relu_5x5_reduce <- inception_5b/5x5_reduce
I0103 19:48:18.358160  9752 net.cpp:327] inception_5b/relu_5x5_reduce -> inception_5b/5x5_reduce (in-place)
I0103 19:48:18.358167  9752 net.cpp:113] Setting up inception_5b/relu_5x5_reduce
I0103 19:48:18.358232  9752 net.cpp:120] Top shape: 50 48 7 7 (117600)
I0103 19:48:18.358238  9752 layer_factory.hpp:74] Creating layer inception_5b/5x5
I0103 19:48:18.358248  9752 net.cpp:84] Creating Layer inception_5b/5x5
I0103 19:48:18.358253  9752 net.cpp:380] inception_5b/5x5 <- inception_5b/5x5_reduce
I0103 19:48:18.358260  9752 net.cpp:338] inception_5b/5x5 -> inception_5b/5x5
I0103 19:48:18.358268  9752 net.cpp:113] Setting up inception_5b/5x5
I0103 19:48:18.360291  9752 net.cpp:120] Top shape: 50 128 7 7 (313600)
I0103 19:48:18.360304  9752 layer_factory.hpp:74] Creating layer inception_5b/relu_5x5
I0103 19:48:18.360311  9752 net.cpp:84] Creating Layer inception_5b/relu_5x5
I0103 19:48:18.360317  9752 net.cpp:380] inception_5b/relu_5x5 <- inception_5b/5x5
I0103 19:48:18.360326  9752 net.cpp:327] inception_5b/relu_5x5 -> inception_5b/5x5 (in-place)
I0103 19:48:18.360337  9752 net.cpp:113] Setting up inception_5b/relu_5x5
I0103 19:48:18.360620  9752 net.cpp:120] Top shape: 50 128 7 7 (313600)
I0103 19:48:18.360631  9752 layer_factory.hpp:74] Creating layer inception_5b/pool
I0103 19:48:18.360636  9752 layer_factory.cpp:56] CUDNN does not support padding or multiple tops. Using Caffe's own pooling layer.
I0103 19:48:18.360644  9752 net.cpp:84] Creating Layer inception_5b/pool
I0103 19:48:18.360649  9752 net.cpp:380] inception_5b/pool <- inception_5a/output_inception_5a/output_0_split_3
I0103 19:48:18.360657  9752 net.cpp:338] inception_5b/pool -> inception_5b/pool
I0103 19:48:18.360666  9752 net.cpp:113] Setting up inception_5b/pool
I0103 19:48:18.360673  9752 net.cpp:120] Top shape: 50 832 7 7 (2038400)
I0103 19:48:18.360677  9752 layer_factory.hpp:74] Creating layer inception_5b/pool_proj
I0103 19:48:18.360685  9752 net.cpp:84] Creating Layer inception_5b/pool_proj
I0103 19:48:18.360690  9752 net.cpp:380] inception_5b/pool_proj <- inception_5b/pool
I0103 19:48:18.360697  9752 net.cpp:338] inception_5b/pool_proj -> inception_5b/pool_proj
I0103 19:48:18.360705  9752 net.cpp:113] Setting up inception_5b/pool_proj
I0103 19:48:18.362349  9752 net.cpp:120] Top shape: 50 128 7 7 (313600)
I0103 19:48:18.362365  9752 layer_factory.hpp:74] Creating layer inception_5b/relu_pool_proj
I0103 19:48:18.362375  9752 net.cpp:84] Creating Layer inception_5b/relu_pool_proj
I0103 19:48:18.362380  9752 net.cpp:380] inception_5b/relu_pool_proj <- inception_5b/pool_proj
I0103 19:48:18.362385  9752 net.cpp:327] inception_5b/relu_pool_proj -> inception_5b/pool_proj (in-place)
I0103 19:48:18.362392  9752 net.cpp:113] Setting up inception_5b/relu_pool_proj
I0103 19:48:18.362458  9752 net.cpp:120] Top shape: 50 128 7 7 (313600)
I0103 19:48:18.362464  9752 layer_factory.hpp:74] Creating layer inception_5b/output
I0103 19:48:18.362470  9752 net.cpp:84] Creating Layer inception_5b/output
I0103 19:48:18.362475  9752 net.cpp:380] inception_5b/output <- inception_5b/1x1
I0103 19:48:18.362480  9752 net.cpp:380] inception_5b/output <- inception_5b/3x3
I0103 19:48:18.362485  9752 net.cpp:380] inception_5b/output <- inception_5b/5x5
I0103 19:48:18.362490  9752 net.cpp:380] inception_5b/output <- inception_5b/pool_proj
I0103 19:48:18.362496  9752 net.cpp:338] inception_5b/output -> inception_5b/output
I0103 19:48:18.362503  9752 net.cpp:113] Setting up inception_5b/output
I0103 19:48:18.362509  9752 net.cpp:120] Top shape: 50 1024 7 7 (2508800)
I0103 19:48:18.362514  9752 layer_factory.hpp:74] Creating layer pool5/7x7_s1
I0103 19:48:18.362520  9752 net.cpp:84] Creating Layer pool5/7x7_s1
I0103 19:48:18.362524  9752 net.cpp:380] pool5/7x7_s1 <- inception_5b/output
I0103 19:48:18.362534  9752 net.cpp:338] pool5/7x7_s1 -> pool5/7x7_s1
I0103 19:48:18.362540  9752 net.cpp:113] Setting up pool5/7x7_s1
I0103 19:48:18.362608  9752 net.cpp:120] Top shape: 50 1024 1 1 (51200)
I0103 19:48:18.362614  9752 layer_factory.hpp:74] Creating layer pool5/drop_7x7_s1
I0103 19:48:18.362622  9752 net.cpp:84] Creating Layer pool5/drop_7x7_s1
I0103 19:48:18.362625  9752 net.cpp:380] pool5/drop_7x7_s1 <- pool5/7x7_s1
I0103 19:48:18.362632  9752 net.cpp:327] pool5/drop_7x7_s1 -> pool5/7x7_s1 (in-place)
I0103 19:48:18.362637  9752 net.cpp:113] Setting up pool5/drop_7x7_s1
I0103 19:48:18.362644  9752 net.cpp:120] Top shape: 50 1024 1 1 (51200)
I0103 19:48:18.362648  9752 layer_factory.hpp:74] Creating layer loss3/classifier_kaggle
I0103 19:48:18.362658  9752 net.cpp:84] Creating Layer loss3/classifier_kaggle
I0103 19:48:18.362663  9752 net.cpp:380] loss3/classifier_kaggle <- pool5/7x7_s1
I0103 19:48:18.362671  9752 net.cpp:338] loss3/classifier_kaggle -> loss3/classifier_kaggle
I0103 19:48:18.362679  9752 net.cpp:113] Setting up loss3/classifier_kaggle
I0103 19:48:18.367619  9752 net.cpp:120] Top shape: 50 447 (22350)
I0103 19:48:18.367631  9752 layer_factory.hpp:74] Creating layer loss3/classifier_kaggle_loss3/classifier_kaggle_0_split
I0103 19:48:18.367638  9752 net.cpp:84] Creating Layer loss3/classifier_kaggle_loss3/classifier_kaggle_0_split
I0103 19:48:18.367650  9752 net.cpp:380] loss3/classifier_kaggle_loss3/classifier_kaggle_0_split <- loss3/classifier_kaggle
I0103 19:48:18.367665  9752 net.cpp:338] loss3/classifier_kaggle_loss3/classifier_kaggle_0_split -> loss3/classifier_kaggle_loss3/classifier_kaggle_0_split_0
I0103 19:48:18.367672  9752 net.cpp:338] loss3/classifier_kaggle_loss3/classifier_kaggle_0_split -> loss3/classifier_kaggle_loss3/classifier_kaggle_0_split_1
I0103 19:48:18.367679  9752 net.cpp:338] loss3/classifier_kaggle_loss3/classifier_kaggle_0_split -> loss3/classifier_kaggle_loss3/classifier_kaggle_0_split_2
I0103 19:48:18.367686  9752 net.cpp:113] Setting up loss3/classifier_kaggle_loss3/classifier_kaggle_0_split
I0103 19:48:18.367692  9752 net.cpp:120] Top shape: 50 447 (22350)
I0103 19:48:18.367697  9752 net.cpp:120] Top shape: 50 447 (22350)
I0103 19:48:18.367702  9752 net.cpp:120] Top shape: 50 447 (22350)
I0103 19:48:18.367705  9752 layer_factory.hpp:74] Creating layer loss3/loss3
I0103 19:48:18.367712  9752 net.cpp:84] Creating Layer loss3/loss3
I0103 19:48:18.367717  9752 net.cpp:380] loss3/loss3 <- loss3/classifier_kaggle_loss3/classifier_kaggle_0_split_0
I0103 19:48:18.367722  9752 net.cpp:380] loss3/loss3 <- label_data_1_split_6
I0103 19:48:18.367729  9752 net.cpp:338] loss3/loss3 -> loss3/loss3
…
