…
I1215 22:27:20.980936 27136 net.cpp:257] The NetState phase (0) differed from the phase (1) specified by a rule in layer loss3/top-5
I1215 22:27:20.982936 27136 net.cpp:42] Initializing net from parameters: 
name: "GoogleNet"
state {
  phase: TRAIN
}
layer {
  name: "data"
  type: "Data"
  top: "data"
  top: "label"
  include {
    phase: TRAIN
  }
  transform_param {
    mirror: true
    crop_size: 224
    mean_value: 104
    mean_value: 117
    mean_value: 123
  }
  data_param {
    source: "/home/coldmanck/kaggle/kaggle2_train_lmdb"
    batch_size: 32
    backend: LMDB
  }
}
layer {
  name: "conv1/7x7_s2"
  type: "Convolution"
  bottom: "data"
  top: "conv1/7x7_s2"
  param {
    lr_mult: 1
    decay_mult: 1
  }
  param {
    lr_mult: 2
    decay_mult: 0
  }
  convolution_param {
    num_output: 64
    pad: 3
    kernel_size: 7
    stride: 2
    weight_filler {
      type: "xavier"
      std: 0.1
    }
    bias_filler {
      type: "constant"
      value: 0.2
    }
  }
}
layer {
  name: "conv1/relu_7x7"
  type: "ReLU"
  bottom: "conv1/7x7_s2"
  top: "conv1/7x7_s2"
}
layer {
  name: "pool1/3x3_s2"
  type: "Pooling"
  bottom: "conv1/7x7_s2"
  top: "pool1/3x3_s2"
  pooling_param {
    pool: MAX
    kernel_size: 3
    stride: 2
  }
}
layer {
  name: "pool1/norm1"
  type: "LRN"
  bottom: "pool1/3x3_s2"
  top: "pool1/norm1"
  lrn_param {
    local_size: 5
    alpha: 0.0001
    beta: 0.75
  }
}
layer {
  name: "conv2/3x3_reduce"
  type: "Convolution"
  bottom: "pool1/norm1"
  top: "conv2/3x3_reduce"
  param {
    lr_mult: 1
    decay_mult: 1
  }
  param {
    lr_mult: 2
    decay_mult: 0
  }
  convolution_param {
    num_output: 64
    kernel_size: 1
    weight_filler {
      type: "xavier"
      std: 0.1
    }
    bias_filler {
      type: "constant"
      value: 0.2
    }
  }
}
layer {
  name: "conv2/relu_3x3_reduce"
  type: "ReLU"
  bottom: "conv2/3x3_reduce"
  top: "conv2/3x3_reduce"
}
layer {
  name: "conv2/3x3"
  type: "Convolution"
  bottom: "conv2/3x3_reduce"
  top: "conv2/3x3"
  param {
    lr_mult: 1
    decay_mult: 1
  }
  param {
    lr_mult: 2
    decay_mult: 0
  }
  convolution_param {
    num_output: 192
    pad: 1
    kernel_size: 3
    weight_filler {
      type: "xavier"
      std: 0.03
    }
    bias_filler {
      type: "constant"
      value: 0.2
    }
  }
}
layer {
  name: "conv2/relu_3x3"
  type: "ReLU"
  bottom: "conv2/3x3"
  top: "conv2/3x3"
}
layer {
  name: "conv2/norm2"
  type: "LRN"
  bottom: "conv2/3x3"
  top: "conv2/norm2"
  lrn_param {
    local_size: 5
    alpha: 0.0001
    beta: 0.75
  }
}
layer {
  name: "pool2/3x3_s2"
  type: "Pooling"
  bottom: "conv2/norm2"
  top: "pool2/3x3_s2"
  pooling_param {
    pool: MAX
    kernel_size: 3
    stride: 2
  }
}
layer {
  name: "inception_3a/1x1"
  type: "Convolution"
  bottom: "pool2/3x3_s2"
  top: "inception_3a/1x1"
  param {
    lr_mult: 1
    decay_mult: 1
  }
  param {
    lr_mult: 2
    decay_mult: 0
  }
  convolution_param {
    num_output: 64
    kernel_size: 1
    weight_filler {
      type: "xavier"
      std: 0.03
    }
    bias_filler {
      type: "constant"
      value: 0.2
    }
  }
}
layer {
  name: "inception_3a/relu_1x1"
  type: "ReLU"
  bottom: "inception_3a/1x1"
  top: "inception_3a/1x1"
}
layer {
  name: "inception_3a/3x3_reduce"
  type: "Convolution"
  bottom: "pool2/3x3_s2"
  top: "inception_3a/3x3_reduce"
  param {
    lr_mult: 1
    decay_mult: 1
  }
  param {
    lr_mult: 2
    decay_mult: 0
  }
  convolution_param {
    num_output: 96
    kernel_size: 1
    weight_filler {
      type: "xavier"
      std: 0.09
    }
    bias_filler {
      type: "constant"
      value: 0.2
    }
  }
}
layer {
  name: "inception_3a/relu_3x3_reduce"
  type: "ReLU"
  bottom: "inception_3a/3x3_reduce"
  top: "inception_3a/3x3_reduce"
}
layer {
  name: "inception_3a/3x3"
  type: "Convolution"
  bottom: "inception_3a/3x3_reduce"
  top: "inception_3a/3x3"
  param {
    lr_mult: 1
    decay_mult: 1
  }
  param {
    lr_mult: 2
    decay_mult: 0
  }
  convolution_param {
    num_output: 128
    pad: 1
    kernel_size: 3
    weight_filler {
      type: "xavier"
      std: 0.03
    }
    bias_filler {
      type: "constant"
      value: 0.2
    }
  }
}
layer {
  name: "inception_3a/relu_3x3"
  type: "ReLU"
  bottom: "inception_3a/3x3"
  top: "inception_3a/3x3"
}
layer {
  name: "inception_3a/5x5_reduce"
  type: "Convolution"
  bottom: "pool2/3x3_s2"
  top: "inception_3a/5x5_reduce"
  param {
    lr_mult: 1
    decay_mult: 1
  }
  param {
    lr_mult: 2
    decay_mult: 0
  }
  convolution_param {
    num_output: 16
    kernel_size: 1
    weight_filler {
      type: "xavier"
      std: 0.2
    }
    bias_filler {
      type: "constant"
      value: 0.2
    }
  }
}
layer {
  name: "inception_3a/relu_5x5_reduce"
  type: "ReLU"
  bottom: "inception_3a/5x5_reduce"
  top: "inception_3a/5x5_reduce"
}
layer {
  name: "inception_3a/5x5"
  type: "Convolution"
  bottom: "inception_3a/5x5_reduce"
  top: "inception_3a/5x5"
  param {
    lr_mult: 1
    decay_mult: 1
  }
  param {
    lr_mult: 2
    decay_mult: 0
  }
  convolution_param {
    num_output: 32
    pad: 2
    kernel_size: 5
    weight_filler {
      type: "xavier"
      std: 0.03
    }
    bias_filler {
      type: "constant"
      value: 0.2
    }
  }
}
layer {
  name: "inception_3a/relu_5x5"
  type: "ReLU"
  bottom: "inception_3a/5x5"
  top: "inception_3a/5x5"
}
layer {
  name: "inception_3a/pool"
  type: "Pooling"
  bottom: "pool2/3x3_s2"
  top: "inception_3a/pool"
  pooling_param {
    pool: MAX
    kernel_size: 3
    stride: 1
    pad: 1
  }
}
layer {
  name: "inception_3a/pool_proj"
  type: "Convolution"
  bottom: "inception_3a/pool"
  top: "inception_3a/pool_proj"
  param {
    lr_mult: 1
    decay_mult: 1
  }
  param {
    lr_mult: 2
    decay_mult: 0
  }
  convolution_param {
    num_output: 32
    kernel_size: 1
    weight_filler {
      type: "xavier"
      std: 0.1
    }
    bias_filler {
      type: "constant"
      value: 0.2
    }
  }
}
layer {
  name: "inception_3a/relu_pool_proj"
  type: "ReLU"
  bottom: "inception_3a/pool_proj"
  top: "inception_3a/pool_proj"
}
layer {
  name: "inception_3a/output"
  type: "Concat"
  bottom: "inception_3a/1x1"
  bottom: "inception_3a/3x3"
  bottom: "inception_3a/5x5"
  bottom: "inception_3a/pool_proj"
  top: "inception_3a/output"
}
layer {
  name: "inception_3b/1x1"
  type: "Convolution"
  bottom: "inception_3a/output"
  top: "inception_3b/1x1"
  param {
    lr_mult: 1
    decay_mult: 1
  }
  param {
    lr_mult: 2
    decay_mult: 0
  }
  convolution_param {
    num_output: 128
    kernel_size: 1
    weight_filler {
      type: "xavier"
      std: 0.03
    }
    bias_filler {
      type: "constant"
      value: 0.2
    }
  }
}
layer {
  name: "inception_3b/relu_1x1"
  type: "ReLU"
  bottom: "inception_3b/1x1"
  top: "inception_3b/1x1"
}
layer {
  name: "inception_3b/3x3_reduce"
  type: "Convolution"
  bottom: "inception_3a/output"
  top: "inception_3b/3x3_reduce"
  param {
    lr_mult: 1
    decay_mult: 1
  }
  param {
    lr_mult: 2
    decay_mult: 0
  }
  convolution_param {
    num_output: 128
    kernel_size: 1
    weight_filler {
      type: "xavier"
      std: 0.09
    }
    bias_filler {
      type: "constant"
      value: 0.2
    }
  }
}
layer {
  name: "inception_3b/relu_3x3_reduce"
  type: "ReLU"
  bottom: "inception_3b/3x3_reduce"
  top: "inception_3b/3x3_reduce"
}
layer {
  name: "inception_3b/3x3"
  type: "Convolution"
  bottom: "inception_3b/3x3_reduce"
  top: "inception_3b/3x3"
  param {
    lr_mult: 1
    decay_mult: 1
  }
  param {
    lr_mult: 2
    decay_mult: 0
  }
  convolution_param {
    num_output: 192
    pad: 1
    kernel_size: 3
    weight_filler {
      type: "xavier"
      std: 0.03
    }
    bias_filler {
      type: "constant"
      value: 0.2
    }
  }
}
layer {
  name: "inception_3b/relu_3x3"
  type: "ReLU"
  bottom: "inception_3b/3x3"
  top: "inception_3b/3x3"
}
layer {
  name: "inception_3b/5x5_reduce"
  type: "Convolution"
  bottom: "inception_3a/output"
  top: "inception_3b/5x5_reduce"
  param {
    lr_mult: 1
    decay_mult: 1
  }
  param {
    lr_mult: 2
    decay_mult: 0
  }
  convolution_param {
    num_output: 32
    kernel_size: 1
    weight_filler {
      type: "xavier"
      std: 0.2
    }
    bias_filler {
      type: "constant"
      value: 0.2
    }
  }
}
layer {
  name: "inception_3b/relu_5x5_reduce"
  type: "ReLU"
  bottom: "inception_3b/5x5_reduce"
  top: "inception_3b/5x5_reduce"
}
layer {
  name: "inception_3b/5x5"
  type: "Convolution"
  bottom: "inception_3b/5x5_reduce"
  top: "inception_3b/5x5"
  param {
    lr_mult: 1
    decay_mult: 1
  }
  param {
    lr_mult: 2
    decay_mult: 0
  }
  convolution_param {
    num_output: 96
    pad: 2
    kernel_size: 5
    weight_filler {
      type: "xavier"
      std: 0.03
    }
    bias_filler {
      type: "constant"
      value: 0.2
    }
  }
}
layer {
  name: "inception_3b/relu_5x5"
  type: "ReLU"
  bottom: "inception_3b/5x5"
  top: "inception_3b/5x5"
}
layer {
  name: "inception_3b/pool"
  type: "Pooling"
  bottom: "inception_3a/output"
  top: "inception_3b/pool"
  pooling_param {
    pool: MAX
    kernel_size: 3
    stride: 1
    pad: 1
  }
}
layer {
  name: "inception_3b/pool_proj"
  type: "Convolution"
  bottom: "inception_3b/pool"
  top: "inception_3b/pool_proj"
  param {
    lr_mult: 1
    decay_mult: 1
  }
  param {
    lr_mult: 2
    decay_mult: 0
  }
  convolution_param {
    num_output: 64
    kernel_size: 1
    weight_filler {
      type: "xavier"
      std: 0.1
    }
    bias_filler {
      type: "constant"
      value: 0.2
    }
  }
}
layer {
  name: "inception_3b/relu_pool_proj"
  type: "ReLU"
  bottom: "inception_3b/pool_proj"
  top: "inception_3b/pool_proj"
}
layer {
  name: "inception_3b/output"
  type: "Concat"
  bottom: "inception_3b/1x1"
  bottom: "inception_3b/3x3"
  bottom: "inception_3b/5x5"
  bottom: "inception_3b/pool_proj"
  top: "inception_3b/output"
}
layer {
  name: "pool3/3x3_s2"
  type: "Pooling"
  bottom: "inception_3b/output"
  top: "pool3/3x3_s2"
  pooling_param {
    pool: MAX
    kernel_size: 3
    stride: 2
  }
}
layer {
  name: "inception_4a/1x1"
  type: "Convolution"
  bottom: "pool3/3x3_s2"
  top: "inception_4a/1x1"
  param {
    lr_mult: 1
    decay_mult: 1
  }
  param {
    lr_mult: 2
    decay_mult: 0
  }
  convolution_param {
    num_output: 192
    kernel_size: 1
    weight_filler {
      type: "xavier"
      std: 0.03
    }
    bias_filler {
      type: "constant"
      value: 0.2
    }
  }
}
layer {
  name: "inception_4a/relu_1x1"
  type: "ReLU"
  bottom: "inception_4a/1x1"
  top: "inception_4a/1x1"
}
layer {
  name: "inception_4a/3x3_reduce"
  type: "Convolution"
  bottom: "pool3/3x3_s2"
  top: "inception_4a/3x3_reduce"
  param {
    lr_mult: 1
    decay_mult: 1
  }
  param {
    lr_mult: 2
    decay_mult: 0
  }
  convolution_param {
    num_output: 96
    kernel_size: 1
    weight_filler {
      type: "xavier"
      std: 0.09
    }
    bias_filler {
      type: "constant"
      value: 0.2
    }
  }
}
layer {
  name: "inception_4a/relu_3x3_reduce"
  type: "ReLU"
  bottom: "inception_4a/3x3_reduce"
  top: "inception_4a/3x3_reduce"
}
layer {
  name: "inception_4a/3x3"
  type: "Convolution"
  bottom: "inception_4a/3x3_reduce"
  top: "inception_4a/3x3"
  param {
    lr_mult: 1
    decay_mult: 1
  }
  param {
    lr_mult: 2
    decay_mult: 0
  }
  convolution_param {
    num_output: 208
    pad: 1
    kernel_size: 3
    weight_filler {
      type: "xavier"
      std: 0.03
    }
    bias_filler {
      type: "constant"
      value: 0.2
    }
  }
}
layer {
  name: "inception_4a/relu_3x3"
  type: "ReLU"
  bottom: "inception_4a/3x3"
  top: "inception_4a/3x3"
}
layer {
  name: "inception_4a/5x5_reduce"
  type: "Convolution"
  bottom: "pool3/3x3_s2"
  top: "inception_4a/5x5_reduce"
  param {
    lr_mult: 1
    decay_mult: 1
  }
  param {
    lr_mult: 2
    decay_mult: 0
  }
  convolution_param {
    num_output: 16
    kernel_size: 1
    weight_filler {
      type: "xavier"
      std: 0.2
    }
    bias_filler {
      type: "constant"
      value: 0.2
    }
  }
}
layer {
  name: "inception_4a/relu_5x5_reduce"
  type: "ReLU"
  bottom: "inception_4a/5x5_reduce"
  top: "inception_4a/5x5_reduce"
}
layer {
  name: "inception_4a/5x5"
  type: "Convolution"
  bottom: "inception_4a/5x5_reduce"
  top: "inception_4a/5x5"
  param {
    lr_mult: 1
    decay_mult: 1
  }
  param {
    lr_mult: 2
    decay_mult: 0
  }
  convolution_param {
    num_output: 48
    pad: 2
    kernel_size: 5
    weight_filler {
      type: "xavier"
      std: 0.03
    }
    bias_filler {
      type: "constant"
      value: 0.2
    }
  }
}
layer {
  name: "inception_4a/relu_5x5"
  type: "ReLU"
  bottom: "inception_4a/5x5"
  top: "inception_4a/5x5"
}
layer {
  name: "inception_4a/pool"
  type: "Pooling"
  bottom: "pool3/3x3_s2"
  top: "inception_4a/pool"
  pooling_param {
    pool: MAX
    kernel_size: 3
    stride: 1
    pad: 1
  }
}
layer {
  name: "inception_4a/pool_proj"
  type: "Convolution"
  bottom: "inception_4a/pool"
  top: "inception_4a/pool_proj"
  param {
    lr_mult: 1
    decay_mult: 1
  }
  param {
    lr_mult: 2
    decay_mult: 0
  }
  convolution_param {
    num_output: 64
    kernel_size: 1
    weight_filler {
      type: "xavier"
      std: 0.1
    }
    bias_filler {
      type: "constant"
      value: 0.2
    }
  }
}
layer {
  name: "inception_4a/relu_pool_proj"
  type: "ReLU"
  bottom: "inception_4a/pool_proj"
  top: "inception_4a/pool_proj"
}
layer {
  name: "inception_4a/output"
  type: "Concat"
  bottom: "inception_4a/1x1"
  bottom: "inception_4a/3x3"
  bottom: "inception_4a/5x5"
  bottom: "inception_4a/pool_proj"
  top: "inception_4a/output"
}
layer {
  name: "loss1/ave_pool"
  type: "Pooling"
  bottom: "inception_4a/output"
  top: "loss1/ave_pool"
  pooling_param {
    pool: AVE
    kernel_size: 5
    stride: 3
  }
}
layer {
  name: "loss1/conv"
  type: "Convolution"
  bottom: "loss1/ave_pool"
  top: "loss1/conv"
  param {
    lr_mult: 1
    decay_mult: 1
  }
  param {
    lr_mult: 2
    decay_mult: 0
  }
  convolution_param {
    num_output: 128
    kernel_size: 1
    weight_filler {
      type: "xavier"
      std: 0.08
    }
    bias_filler {
      type: "constant"
      value: 0.2
    }
  }
}
layer {
  name: "loss1/relu_conv"
  type: "ReLU"
  bottom: "loss1/conv"
  top: "loss1/conv"
}
layer {
  name: "loss1/fc"
  type: "InnerProduct"
  bottom: "loss1/conv"
  top: "loss1/fc"
  param {
    lr_mult: 1
    decay_mult: 1
  }
  param {
    lr_mult: 2
    decay_mult: 0
  }
  inner_product_param {
    num_output: 1024
    weight_filler {
      type: "xavier"
      std: 0.02
    }
    bias_filler {
      type: "constant"
      value: 0.2
    }
  }
}
layer {
  name: "loss1/relu_fc"
  type: "ReLU"
  bottom: "loss1/fc"
  top: "loss1/fc"
}
layer {
  name: "loss1/drop_fc"
  type: "Dropout"
  bottom: "loss1/fc"
  top: "loss1/fc"
  dropout_param {
    dropout_ratio: 0.7
  }
}
layer {
  name: "loss1/classifier_kaggle"
  type: "InnerProduct"
  bottom: "loss1/fc"
  top: "loss1/classifier_kaggle"
  param {
    lr_mult: 1
    decay_mult: 1
  }
  param {
    lr_mult: 2
    decay_mult: 0
  }
  inner_product_param {
    num_output: 447
    weight_filler {
      type: "xavier"
      std: 0.0009765625
    }
    bias_filler {
      type: "constant"
      value: 0
    }
  }
}
layer {
  name: "loss1/loss"
  type: "SoftmaxWithLoss"
  bottom: "loss1/classifier_kaggle"
  bottom: "label"
  top: "loss1/loss1"
  loss_weight: 0.3
}
layer {
  name: "inception_4b/1x1"
  type: "Convolution"
  bottom: "inception_4a/output"
  top: "inception_4b/1x1"
  param {
    lr_mult: 1
    decay_mult: 1
  }
  param {
    lr_mult: 2
    decay_mult: 0
  }
  convolution_param {
    num_output: 160
    kernel_size: 1
    weight_filler {
      type: "xavier"
      std: 0.03
    }
    bias_filler {
      type: "constant"
      value: 0.2
    }
  }
}
layer {
  name: "inception_4b/relu_1x1"
  type: "ReLU"
  bottom: "inception_4b/1x1"
  top: "inception_4b/1x1"
}
layer {
  name: "inception_4b/3x3_reduce"
  type: "Convolution"
  bottom: "inception_4a/output"
  top: "inception_4b/3x3_reduce"
  param {
    lr_mult: 1
    decay_mult: 1
  }
  param {
    lr_mult: 2
    decay_mult: 0
  }
  convolution_param {
    num_output: 112
    kernel_size: 1
    weight_filler {
      type: "xavier"
      std: 0.09
    }
    bias_filler {
      type: "constant"
      value: 0.2
    }
  }
}
layer {
  name: "inception_4b/relu_3x3_reduce"
  type: "ReLU"
  bottom: "inception_4b/3x3_reduce"
  top: "inception_4b/3x3_reduce"
}
layer {
  name: "inception_4b/3x3"
  type: "Convolution"
  bottom: "inception_4b/3x3_reduce"
  top: "inception_4b/3x3"
  param {
    lr_mult: 1
    decay_mult: 1
  }
  param {
    lr_mult: 2
    decay_mult: 0
  }
  convolution_param {
    num_output: 224
    pad: 1
    kernel_size: 3
    weight_filler {
      type: "xavier"
      std: 0.03
    }
    bias_filler {
      type: "constant"
      value: 0.2
    }
  }
}
layer {
  name: "inception_4b/relu_3x3"
  type: "ReLU"
  bottom: "inception_4b/3x3"
  top: "inception_4b/3x3"
}
layer {
  name: "inception_4b/5x5_reduce"
  type: "Convolution"
  bottom: "inception_4a/output"
  top: "inception_4b/5x5_reduce"
  param {
    lr_mult: 1
    decay_mult: 1
  }
  param {
    lr_mult: 2
    decay_mult: 0
  }
  convolution_param {
    num_output: 24
    kernel_size: 1
    weight_filler {
      type: "xavier"
      std: 0.2
    }
    bias_filler {
      type: "constant"
      value: 0.2
    }
  }
}
layer {
  name: "inception_4b/relu_5x5_reduce"
  type: "ReLU"
  bottom: "inception_4b/5x5_reduce"
  top: "inception_4b/5x5_reduce"
}
layer {
  name: "inception_4b/5x5"
  type: "Convolution"
  bottom: "inception_4b/5x5_reduce"
  top: "inception_4b/5x5"
  param {
    lr_mult: 1
    decay_mult: 1
  }
  param {
    lr_mult: 2
    decay_mult: 0
  }
  convolution_param {
    num_output: 64
    pad: 2
    kernel_size: 5
    weight_filler {
      type: "xavier"
      std: 0.03
    }
    bias_filler {
      type: "constant"
      value: 0.2
    }
  }
}
layer {
  name: "inception_4b/relu_5x5"
  type: "ReLU"
  bottom: "inception_4b/5x5"
  top: "inception_4b/5x5"
}
layer {
  name: "inception_4b/pool"
  type: "Pooling"
  bottom: "inception_4a/output"
  top: "inception_4b/pool"
  pooling_param {
    pool: MAX
    kernel_size: 3
    stride: 1
    pad: 1
  }
}
layer {
  name: "inception_4b/pool_proj"
  type: "Convolution"
  bottom: "inception_4b/pool"
  top: "inception_4b/pool_proj"
  param {
    lr_mult: 1
    decay_mult: 1
  }
  param {
    lr_mult: 2
    decay_mult: 0
  }
  convolution_param {
    num_output: 64
    kernel_size: 1
    weight_filler {
      type: "xavier"
      std: 0.1
    }
    bias_filler {
      type: "constant"
      value: 0.2
    }
  }
}
layer {
  name: "inception_4b/relu_pool_proj"
  type: "ReLU"
  bottom: "inception_4b/pool_proj"
  top: "inception_4b/pool_proj"
}
layer {
  name: "inception_4b/output"
  type: "Concat"
  bottom: "inception_4b/1x1"
  bottom: "inception_4b/3x3"
  bottom: "inception_4b/5x5"
  bottom: "inception_4b/pool_proj"
  top: "inception_4b/output"
}
layer {
  name: "inception_4c/1x1"
  type: "Convolution"
  bottom: "inception_4b/output"
  top: "inception_4c/1x1"
  param {
    lr_mult: 1
    decay_mult: 1
  }
  param {
    lr_mult: 2
    decay_mult: 0
  }
  convolution_param {
    num_output: 128
    kernel_size: 1
    weight_filler {
      type: "xavier"
      std: 0.03
    }
    bias_filler {
      type: "constant"
      value: 0.2
    }
  }
}
layer {
  name: "inception_4c/relu_1x1"
  type: "ReLU"
  bottom: "inception_4c/1x1"
  top: "inception_4c/1x1"
}
layer {
  name: "inception_4c/3x3_reduce"
  type: "Convolution"
  bottom: "inception_4b/output"
  top: "inception_4c/3x3_reduce"
  param {
    lr_mult: 1
    decay_mult: 1
  }
  param {
    lr_mult: 2
    decay_mult: 0
  }
  convolution_param {
    num_output: 128
    kernel_size: 1
    weight_filler {
      type: "xavier"
      std: 0.09
    }
    bias_filler {
      type: "constant"
      value: 0.2
    }
  }
}
layer {
  name: "inception_4c/relu_3x3_reduce"
  type: "ReLU"
  bottom: "inception_4c/3x3_reduce"
  top: "inception_4c/3x3_reduce"
}
layer {
  name: "inception_4c/3x3"
  type: "Convolution"
  bottom: "inception_4c/3x3_reduce"
  top: "inception_4c/3x3"
  param {
    lr_mult: 1
    decay_mult: 1
  }
  param {
    lr_mult: 2
    decay_mult: 0
  }
  convolution_param {
    num_output: 256
    pad: 1
    kernel_size: 3
    weight_filler {
      type: "xavier"
      std: 0.03
    }
    bias_filler {
      type: "constant"
      value: 0.2
    }
  }
}
layer {
  name: "inception_4c/relu_3x3"
  type: "ReLU"
  bottom: "inception_4c/3x3"
  top: "inception_4c/3x3"
}
layer {
  name: "inception_4c/5x5_reduce"
  type: "Convolution"
  bottom: "inception_4b/output"
  top: "inception_4c/5x5_reduce"
  param {
    lr_mult: 1
    decay_mult: 1
  }
  param {
    lr_mult: 2
    decay_mult: 0
  }
  convolution_param {
    num_output: 24
    kernel_size: 1
    weight_filler {
      type: "xavier"
      std: 0.2
    }
    bias_filler {
      type: "constant"
      value: 0.2
    }
  }
}
layer {
  name: "inception_4c/relu_5x5_reduce"
  type: "ReLU"
  bottom: "inception_4c/5x5_reduce"
  top: "inception_4c/5x5_reduce"
}
layer {
  name: "inception_4c/5x5"
  type: "Convolution"
  bottom: "inception_4c/5x5_reduce"
  top: "inception_4c/5x5"
  param {
    lr_mult: 1
    decay_mult: 1
  }
  param {
    lr_mult: 2
    decay_mult: 0
  }
  convolution_param {
    num_output: 64
    pad: 2
    kernel_size: 5
    weight_filler {
      type: "xavier"
      std: 0.03
    }
    bias_filler {
      type: "constant"
      value: 0.2
    }
  }
}
layer {
  name: "inception_4c/relu_5x5"
  type: "ReLU"
  bottom: "inception_4c/5x5"
  top: "inception_4c/5x5"
}
layer {
  name: "inception_4c/pool"
  type: "Pooling"
  bottom: "inception_4b/output"
  top: "inception_4c/pool"
  pooling_param {
    pool: MAX
    kernel_size: 3
    stride: 1
    pad: 1
  }
}
layer {
  name: "inception_4c/pool_proj"
  type: "Convolution"
  bottom: "inception_4c/pool"
  top: "inception_4c/pool_proj"
  param {
    lr_mult: 1
    decay_mult: 1
  }
  param {
    lr_mult: 2
    decay_mult: 0
  }
  convolution_param {
    num_output: 64
    kernel_size: 1
    weight_filler {
      type: "xavier"
      std: 0.1
    }
    bias_filler {
      type: "constant"
      value: 0.2
    }
  }
}
layer {
  name: "inception_4c/relu_pool_proj"
  type: "ReLU"
  bottom: "inception_4c/pool_proj"
  top: "inception_4c/pool_proj"
}
layer {
  name: "inception_4c/output"
  type: "Concat"
  bottom: "inception_4c/1x1"
  bottom: "inception_4c/3x3"
  bottom: "inception_4c/5x5"
  bottom: "inception_4c/pool_proj"
  top: "inception_4c/output"
}
layer {
  name: "inception_4d/1x1"
  type: "Convolution"
  bottom: "inception_4c/output"
  top: "inception_4d/1x1"
  param {
    lr_mult: 1
    decay_mult: 1
  }
  param {
    lr_mult: 2
    decay_mult: 0
  }
  convolution_param {
    num_output: 112
    kernel_size: 1
    weight_filler {
      type: "xavier"
      std: 0.03
    }
    bias_filler {
      type: "constant"
      value: 0.2
    }
  }
}
layer {
  name: "inception_4d/relu_1x1"
  type: "ReLU"
  bottom: "inception_4d/1x1"
  top: "inception_4d/1x1"
}
layer {
  name: "inception_4d/3x3_reduce"
  type: "Convolution"
  bottom: "inception_4c/output"
  top: "inception_4d/3x3_reduce"
  param {
    lr_mult: 1
    decay_mult: 1
  }
  param {
    lr_mult: 2
    decay_mult: 0
  }
  convolution_param {
    num_output: 144
    kernel_size: 1
    weight_filler {
      type: "xavier"
      std: 0.09
    }
    bias_filler {
      type: "constant"
      value: 0.2
    }
  }
}
layer {
  name: "inception_4d/relu_3x3_reduce"
  type: "ReLU"
  bottom: "inception_4d/3x3_reduce"
  top: "inception_4d/3x3_reduce"
}
layer {
  name: "inception_4d/3x3"
  type: "Convolution"
  bottom: "inception_4d/3x3_reduce"
  top: "inception_4d/3x3"
  param {
    lr_mult: 1
    decay_mult: 1
  }
  param {
    lr_mult: 2
    decay_mult: 0
  }
  convolution_param {
    num_output: 288
    pad: 1
    kernel_size: 3
    weight_filler {
      type: "xavier"
      std: 0.03
    }
    bias_filler {
      type: "constant"
      value: 0.2
    }
  }
}
layer {
  name: "inception_4d/relu_3x3"
  type: "ReLU"
  bottom: "inception_4d/3x3"
  top: "inception_4d/3x3"
}
layer {
  name: "inception_4d/5x5_reduce"
  type: "Convolution"
  bottom: "inception_4c/output"
  top: "inception_4d/5x5_reduce"
  param {
    lr_mult: 1
    decay_mult: 1
  }
  param {
    lr_mult: 2
    decay_mult: 0
  }
  convolution_param {
    num_output: 32
    kernel_size: 1
    weight_filler {
      type: "xavier"
      std: 0.2
    }
    bias_filler {
      type: "constant"
      value: 0.2
    }
  }
}
layer {
  name: "inception_4d/relu_5x5_reduce"
  type: "ReLU"
  bottom: "inception_4d/5x5_reduce"
  top: "inception_4d/5x5_reduce"
}
layer {
  name: "inception_4d/5x5"
  type: "Convolution"
  bottom: "inception_4d/5x5_reduce"
  top: "inception_4d/5x5"
  param {
    lr_mult: 1
    decay_mult: 1
  }
  param {
    lr_mult: 2
    decay_mult: 0
  }
  convolution_param {
    num_output: 64
    pad: 2
    kernel_size: 5
    weight_filler {
      type: "xavier"
      std: 0.03
    }
    bias_filler {
      type: "constant"
      value: 0.2
    }
  }
}
layer {
  name: "inception_4d/relu_5x5"
  type: "ReLU"
  bottom: "inception_4d/5x5"
  top: "inception_4d/5x5"
}
layer {
  name: "inception_4d/pool"
  type: "Pooling"
  bottom: "inception_4c/output"
  top: "inception_4d/pool"
  pooling_param {
    pool: MAX
    kernel_size: 3
    stride: 1
    pad: 1
  }
}
layer {
  name: "inception_4d/pool_proj"
  type: "Convolution"
  bottom: "inception_4d/pool"
  top: "inception_4d/pool_proj"
  param {
    lr_mult: 1
    decay_mult: 1
  }
  param {
    lr_mult: 2
    decay_mult: 0
  }
  convolution_param {
    num_output: 64
    kernel_size: 1
    weight_filler {
      type: "xavier"
      std: 0.1
    }
    bias_filler {
      type: "constant"
      value: 0.2
    }
  }
}
layer {
  name: "inception_4d/relu_pool_proj"
  type: "ReLU"
  bottom: "inception_4d/pool_proj"
  top: "inception_4d/pool_proj"
}
layer {
  name: "inception_4d/output"
  type: "Concat"
  bottom: "inception_4d/1x1"
  bottom: "inception_4d/3x3"
  bottom: "inception_4d/5x5"
  bottom: "inception_4d/pool_proj"
  top: "inception_4d/output"
}
layer {
  name: "loss2/ave_pool"
  type: "Pooling"
  bottom: "inception_4d/output"
  top: "loss2/ave_pool"
  pooling_param {
    pool: AVE
    kernel_size: 5
    stride: 3
  }
}
layer {
  name: "loss2/conv"
  type: "Convolution"
  bottom: "loss2/ave_pool"
  top: "loss2/conv"
  param {
    lr_mult: 1
    decay_mult: 1
  }
  param {
    lr_mult: 2
    decay_mult: 0
  }
  convolution_param {
    num_output: 128
    kernel_size: 1
    weight_filler {
      type: "xavier"
      std: 0.08
    }
    bias_filler {
      type: "constant"
      value: 0.2
    }
  }
}
layer {
  name: "loss2/relu_conv"
  type: "ReLU"
  bottom: "loss2/conv"
  top: "loss2/conv"
}
layer {
  name: "loss2/fc"
  type: "InnerProduct"
  bottom: "loss2/conv"
  top: "loss2/fc"
  param {
    lr_mult: 1
    decay_mult: 1
  }
  param {
    lr_mult: 2
    decay_mult: 0
  }
  inner_product_param {
    num_output: 1024
    weight_filler {
      type: "xavier"
      std: 0.02
    }
    bias_filler {
      type: "constant"
      value: 0.2
    }
  }
}
layer {
  name: "loss2/relu_fc"
  type: "ReLU"
  bottom: "loss2/fc"
  top: "loss2/fc"
}
layer {
  name: "loss2/drop_fc"
  type: "Dropout"
  bottom: "loss2/fc"
  top: "loss2/fc"
  dropout_param {
    dropout_ratio: 0.7
  }
}
layer {
  name: "loss2/classifier_kaggle"
  type: "InnerProduct"
  bottom: "loss2/fc"
  top: "loss2/classifier_kaggle"
  param {
    lr_mult: 1
    decay_mult: 1
  }
  param {
    lr_mult: 2
    decay_mult: 0
  }
  inner_product_param {
    num_output: 447
    weight_filler {
      type: "xavier"
      std: 0.0009765625
    }
    bias_filler {
      type: "constant"
      value: 0
    }
  }
}
layer {
  name: "loss2/loss"
  type: "SoftmaxWithLoss"
  bottom: "loss2/classifier_kaggle"
  bottom: "label"
  top: "loss2/loss1"
  loss_weight: 0.3
}
layer {
  name: "inception_4e/1x1"
  type: "Convolution"
  bottom: "inception_4d/output"
  top: "inception_4e/1x1"
  param {
    lr_mult: 1
    decay_mult: 1
  }
  param {
    lr_mult: 2
    decay_mult: 0
  }
  convolution_param {
    num_output: 256
    kernel_size: 1
    weight_filler {
      type: "xavier"
      std: 0.03
    }
    bias_filler {
      type: "constant"
      value: 0.2
    }
  }
}
layer {
  name: "inception_4e/relu_1x1"
  type: "ReLU"
  bottom: "inception_4e/1x1"
  top: "inception_4e/1x1"
}
layer {
  name: "inception_4e/3x3_reduce"
  type: "Convolution"
  bottom: "inception_4d/output"
  top: "inception_4e/3x3_reduce"
  param {
    lr_mult: 1
    decay_mult: 1
  }
  param {
    lr_mult: 2
    decay_mult: 0
  }
  convolution_param {
    num_output: 160
    kernel_size: 1
    weight_filler {
      type: "xavier"
      std: 0.09
    }
    bias_filler {
      type: "constant"
      value: 0.2
    }
  }
}
layer {
  name: "inception_4e/relu_3x3_reduce"
  type: "ReLU"
  bottom: "inception_4e/3x3_reduce"
  top: "inception_4e/3x3_reduce"
}
layer {
  name: "inception_4e/3x3"
  type: "Convolution"
  bottom: "inception_4e/3x3_reduce"
  top: "inception_4e/3x3"
  param {
    lr_mult: 1
    decay_mult: 1
  }
  param {
    lr_mult: 2
    decay_mult: 0
  }
  convolution_param {
    num_output: 320
    pad: 1
    kernel_size: 3
    weight_filler {
      type: "xavier"
      std: 0.03
    }
    bias_filler {
      type: "constant"
      value: 0.2
    }
  }
}
layer {
  name: "inception_4e/relu_3x3"
  type: "ReLU"
  bottom: "inception_4e/3x3"
  top: "inception_4e/3x3"
}
layer {
  name: "inception_4e/5x5_reduce"
  type: "Convolution"
  bottom: "inception_4d/output"
  top: "inception_4e/5x5_reduce"
  param {
    lr_mult: 1
    decay_mult: 1
  }
  param {
    lr_mult: 2
    decay_mult: 0
  }
  convolution_param {
    num_output: 32
    kernel_size: 1
    weight_filler {
      type: "xavier"
      std: 0.2
    }
    bias_filler {
      type: "constant"
      value: 0.2
    }
  
I1215 22:27:20.983991 27136 layer_factory.hpp:74] Creating layer data
I1215 22:27:20.984032 27136 net.cpp:84] Creating Layer data
I1215 22:27:20.984046 27136 net.cpp:338] data -> data
I1215 22:27:20.984103 27136 net.cpp:338] data -> label
I1215 22:27:20.984118 27136 net.cpp:113] Setting up data
I1215 22:27:20.984210 27136 db.cpp:34] Opened lmdb /home/coldmanck/kaggle/kaggle2_train_lmdb
I1215 22:27:20.984493 27136 data_layer.cpp:67] output data size: 32,3,224,224
I1215 22:27:20.991695 27136 net.cpp:120] Top shape: 32 3 224 224 (4816896)
I1215 22:27:20.991724 27136 net.cpp:120] Top shape: 32 (32)
I1215 22:27:20.991737 27136 layer_factory.hpp:74] Creating layer label_data_1_split
I1215 22:27:20.991761 27136 net.cpp:84] Creating Layer label_data_1_split
I1215 22:27:20.991771 27136 net.cpp:380] label_data_1_split <- label
I1215 22:27:20.991791 27136 net.cpp:338] label_data_1_split -> label_data_1_split_0
I1215 22:27:20.991807 27136 net.cpp:338] label_data_1_split -> label_data_1_split_1
I1215 22:27:20.991818 27136 net.cpp:338] label_data_1_split -> label_data_1_split_2
I1215 22:27:20.991828 27136 net.cpp:113] Setting up label_data_1_split
I1215 22:27:20.991842 27136 net.cpp:120] Top shape: 32 (32)
I1215 22:27:20.991861 27136 net.cpp:120] Top shape: 32 (32)
I1215 22:27:20.991880 27136 net.cpp:120] Top shape: 32 (32)
I1215 22:27:20.991888 27136 layer_factory.hpp:74] Creating layer conv1/7x7_s2
I1215 22:27:20.991904 27136 net.cpp:84] Creating Layer conv1/7x7_s2
I1215 22:27:20.991911 27136 net.cpp:380] conv1/7x7_s2 <- data
I1215 22:27:20.991930 27136 net.cpp:338] conv1/7x7_s2 -> conv1/7x7_s2
I1215 22:27:20.991945 27136 net.cpp:113] Setting up conv1/7x7_s2
I1215 22:27:21.294760 27136 net.cpp:120] Top shape: 32 64 112 112 (25690112)
I1215 22:27:21.294821 27136 layer_factory.hpp:74] Creating layer conv1/relu_7x7
I1215 22:27:21.294838 27136 net.cpp:84] Creating Layer conv1/relu_7x7
I1215 22:27:21.294847 27136 net.cpp:380] conv1/relu_7x7 <- conv1/7x7_s2
I1215 22:27:21.294857 27136 net.cpp:327] conv1/relu_7x7 -> conv1/7x7_s2 (in-place)
I1215 22:27:21.294870 27136 net.cpp:113] Setting up conv1/relu_7x7
I1215 22:27:21.295506 27136 net.cpp:120] Top shape: 32 64 112 112 (25690112)
I1215 22:27:21.295521 27136 layer_factory.hpp:74] Creating layer pool1/3x3_s2
I1215 22:27:21.295536 27136 net.cpp:84] Creating Layer pool1/3x3_s2
I1215 22:27:21.295542 27136 net.cpp:380] pool1/3x3_s2 <- conv1/7x7_s2
I1215 22:27:21.295552 27136 net.cpp:338] pool1/3x3_s2 -> pool1/3x3_s2
I1215 22:27:21.295560 27136 net.cpp:113] Setting up pool1/3x3_s2
I1215 22:27:21.295639 27136 net.cpp:120] Top shape: 32 64 56 56 (6422528)
I1215 22:27:21.295647 27136 layer_factory.hpp:74] Creating layer pool1/norm1
I1215 22:27:21.295660 27136 net.cpp:84] Creating Layer pool1/norm1
I1215 22:27:21.295665 27136 net.cpp:380] pool1/norm1 <- pool1/3x3_s2
I1215 22:27:21.295671 27136 net.cpp:338] pool1/norm1 -> pool1/norm1
I1215 22:27:21.295681 27136 net.cpp:113] Setting up pool1/norm1
I1215 22:27:21.295689 27136 net.cpp:120] Top shape: 32 64 56 56 (6422528)
I1215 22:27:21.295696 27136 layer_factory.hpp:74] Creating layer conv2/3x3_reduce
I1215 22:27:21.295706 27136 net.cpp:84] Creating Layer conv2/3x3_reduce
I1215 22:27:21.295711 27136 net.cpp:380] conv2/3x3_reduce <- pool1/norm1
I1215 22:27:21.295719 27136 net.cpp:338] conv2/3x3_reduce -> conv2/3x3_reduce
I1215 22:27:21.295730 27136 net.cpp:113] Setting up conv2/3x3_reduce
I1215 22:27:21.296169 27136 net.cpp:120] Top shape: 32 64 56 56 (6422528)
I1215 22:27:21.296187 27136 layer_factory.hpp:74] Creating layer conv2/relu_3x3_reduce
I1215 22:27:21.296195 27136 net.cpp:84] Creating Layer conv2/relu_3x3_reduce
I1215 22:27:21.296200 27136 net.cpp:380] conv2/relu_3x3_reduce <- conv2/3x3_reduce
I1215 22:27:21.296208 27136 net.cpp:327] conv2/relu_3x3_reduce -> conv2/3x3_reduce (in-place)
I1215 22:27:21.296216 27136 net.cpp:113] Setting up conv2/relu_3x3_reduce
I1215 22:27:21.296277 27136 net.cpp:120] Top shape: 32 64 56 56 (6422528)
I1215 22:27:21.296284 27136 layer_factory.hpp:74] Creating layer conv2/3x3
I1215 22:27:21.296294 27136 net.cpp:84] Creating Layer conv2/3x3
I1215 22:27:21.296299 27136 net.cpp:380] conv2/3x3 <- conv2/3x3_reduce
I1215 22:27:21.296308 27136 net.cpp:338] conv2/3x3 -> conv2/3x3
I1215 22:27:21.296317 27136 net.cpp:113] Setting up conv2/3x3
I1215 22:27:21.298321 27136 net.cpp:120] Top shape: 32 192 56 56 (19267584)
I1215 22:27:21.298341 27136 layer_factory.hpp:74] Creating layer conv2/relu_3x3
I1215 22:27:21.298351 27136 net.cpp:84] Creating Layer conv2/relu_3x3
I1215 22:27:21.298357 27136 net.cpp:380] conv2/relu_3x3 <- conv2/3x3
I1215 22:27:21.298363 27136 net.cpp:327] conv2/relu_3x3 -> conv2/3x3 (in-place)
I1215 22:27:21.298372 27136 net.cpp:113] Setting up conv2/relu_3x3
I1215 22:27:21.299118 27136 net.cpp:120] Top shape: 32 192 56 56 (19267584)
I1215 22:27:21.299139 27136 layer_factory.hpp:74] Creating layer conv2/norm2
I1215 22:27:21.299147 27136 net.cpp:84] Creating Layer conv2/norm2
I1215 22:27:21.299154 27136 net.cpp:380] conv2/norm2 <- conv2/3x3
I1215 22:27:21.299161 27136 net.cpp:338] conv2/norm2 -> conv2/norm2
I1215 22:27:21.299170 27136 net.cpp:113] Setting up conv2/norm2
I1215 22:27:21.299180 27136 net.cpp:120] Top shape: 32 192 56 56 (19267584)
I1215 22:27:21.299186 27136 layer_factory.hpp:74] Creating layer pool2/3x3_s2
I1215 22:27:21.299203 27136 net.cpp:84] Creating Layer pool2/3x3_s2
I1215 22:27:21.299219 27136 net.cpp:380] pool2/3x3_s2 <- conv2/norm2
I1215 22:27:21.299227 27136 net.cpp:338] pool2/3x3_s2 -> pool2/3x3_s2
I1215 22:27:21.299234 27136 net.cpp:113] Setting up pool2/3x3_s2
I1215 22:27:21.299924 27136 net.cpp:120] Top shape: 32 192 28 28 (4816896)
I1215 22:27:21.299942 27136 layer_factory.hpp:74] Creating layer pool2/3x3_s2_pool2/3x3_s2_0_split
I1215 22:27:21.299950 27136 net.cpp:84] Creating Layer pool2/3x3_s2_pool2/3x3_s2_0_split
I1215 22:27:21.299957 27136 net.cpp:380] pool2/3x3_s2_pool2/3x3_s2_0_split <- pool2/3x3_s2
I1215 22:27:21.299967 27136 net.cpp:338] pool2/3x3_s2_pool2/3x3_s2_0_split -> pool2/3x3_s2_pool2/3x3_s2_0_split_0
I1215 22:27:21.299976 27136 net.cpp:338] pool2/3x3_s2_pool2/3x3_s2_0_split -> pool2/3x3_s2_pool2/3x3_s2_0_split_1
I1215 22:27:21.299984 27136 net.cpp:338] pool2/3x3_s2_pool2/3x3_s2_0_split -> pool2/3x3_s2_pool2/3x3_s2_0_split_2
I1215 22:27:21.299991 27136 net.cpp:338] pool2/3x3_s2_pool2/3x3_s2_0_split -> pool2/3x3_s2_pool2/3x3_s2_0_split_3
I1215 22:27:21.299998 27136 net.cpp:113] Setting up pool2/3x3_s2_pool2/3x3_s2_0_split
I1215 22:27:21.300006 27136 net.cpp:120] Top shape: 32 192 28 28 (4816896)
I1215 22:27:21.300012 27136 net.cpp:120] Top shape: 32 192 28 28 (4816896)
I1215 22:27:21.300017 27136 net.cpp:120] Top shape: 32 192 28 28 (4816896)
I1215 22:27:21.300024 27136 net.cpp:120] Top shape: 32 192 28 28 (4816896)
I1215 22:27:21.300027 27136 layer_factory.hpp:74] Creating layer inception_3a/1x1
I1215 22:27:21.300036 27136 net.cpp:84] Creating Layer inception_3a/1x1
I1215 22:27:21.300041 27136 net.cpp:380] inception_3a/1x1 <- pool2/3x3_s2_pool2/3x3_s2_0_split_0
I1215 22:27:21.300048 27136 net.cpp:338] inception_3a/1x1 -> inception_3a/1x1
I1215 22:27:21.300060 27136 net.cpp:113] Setting up inception_3a/1x1
I1215 22:27:21.300662 27136 net.cpp:120] Top shape: 32 64 28 28 (1605632)
I1215 22:27:21.300678 27136 layer_factory.hpp:74] Creating layer inception_3a/relu_1x1
I1215 22:27:21.300688 27136 net.cpp:84] Creating Layer inception_3a/relu_1x1
I1215 22:27:21.300694 27136 net.cpp:380] inception_3a/relu_1x1 <- inception_3a/1x1
I1215 22:27:21.300703 27136 net.cpp:327] inception_3a/relu_1x1 -> inception_3a/1x1 (in-place)
I1215 22:27:21.300710 27136 net.cpp:113] Setting up inception_3a/relu_1x1
I1215 22:27:21.300772 27136 net.cpp:120] Top shape: 32 64 28 28 (1605632)
I1215 22:27:21.300778 27136 layer_factory.hpp:74] Creating layer inception_3a/3x3_reduce
I1215 22:27:21.300787 27136 net.cpp:84] Creating Layer inception_3a/3x3_reduce
I1215 22:27:21.300792 27136 net.cpp:380] inception_3a/3x3_reduce <- pool2/3x3_s2_pool2/3x3_s2_0_split_1
I1215 22:27:21.300801 27136 net.cpp:338] inception_3a/3x3_reduce -> inception_3a/3x3_reduce
I1215 22:27:21.300809 27136 net.cpp:113] Setting up inception_3a/3x3_reduce
I1215 22:27:21.302309 27136 net.cpp:120] Top shape: 32 96 28 28 (2408448)
I1215 22:27:21.302333 27136 layer_factory.hpp:74] Creating layer inception_3a/relu_3x3_reduce
I1215 22:27:21.302345 27136 net.cpp:84] Creating Layer inception_3a/relu_3x3_reduce
I1215 22:27:21.302350 27136 net.cpp:380] inception_3a/relu_3x3_reduce <- inception_3a/3x3_reduce
I1215 22:27:21.302362 27136 net.cpp:327] inception_3a/relu_3x3_reduce -> inception_3a/3x3_reduce (in-place)
I1215 22:27:21.302372 27136 net.cpp:113] Setting up inception_3a/relu_3x3_reduce
I1215 22:27:21.302436 27136 net.cpp:120] Top shape: 32 96 28 28 (2408448)
I1215 22:27:21.302443 27136 layer_factory.hpp:74] Creating layer inception_3a/3x3
I1215 22:27:21.302453 27136 net.cpp:84] Creating Layer inception_3a/3x3
I1215 22:27:21.302459 27136 net.cpp:380] inception_3a/3x3 <- inception_3a/3x3_reduce
I1215 22:27:21.302466 27136 net.cpp:338] inception_3a/3x3 -> inception_3a/3x3
I1215 22:27:21.302475 27136 net.cpp:113] Setting up inception_3a/3x3
I1215 22:27:21.304250 27136 net.cpp:120] Top shape: 32 128 28 28 (3211264)
I1215 22:27:21.304268 27136 layer_factory.hpp:74] Creating layer inception_3a/relu_3x3
I1215 22:27:21.304278 27136 net.cpp:84] Creating Layer inception_3a/relu_3x3
I1215 22:27:21.304298 27136 net.cpp:380] inception_3a/relu_3x3 <- inception_3a/3x3
I1215 22:27:21.304306 27136 net.cpp:327] inception_3a/relu_3x3 -> inception_3a/3x3 (in-place)
I1215 22:27:21.304314 27136 net.cpp:113] Setting up inception_3a/relu_3x3
I1215 22:27:21.304570 27136 net.cpp:120] Top shape: 32 128 28 28 (3211264)
I1215 22:27:21.304581 27136 layer_factory.hpp:74] Creating layer inception_3a/5x5_reduce
I1215 22:27:21.304590 27136 net.cpp:84] Creating Layer inception_3a/5x5_reduce
I1215 22:27:21.304596 27136 net.cpp:380] inception_3a/5x5_reduce <- pool2/3x3_s2_pool2/3x3_s2_0_split_2
I1215 22:27:21.304606 27136 net.cpp:338] inception_3a/5x5_reduce -> inception_3a/5x5_reduce
I1215 22:27:21.304618 27136 net.cpp:113] Setting up inception_3a/5x5_reduce
I1215 22:27:21.305376 27136 net.cpp:120] Top shape: 32 16 28 28 (401408)
I1215 22:27:21.305392 27136 layer_factory.hpp:74] Creating layer inception_3a/relu_5x5_reduce
I1215 22:27:21.305402 27136 net.cpp:84] Creating Layer inception_3a/relu_5x5_reduce
I1215 22:27:21.305407 27136 net.cpp:380] inception_3a/relu_5x5_reduce <- inception_3a/5x5_reduce
I1215 22:27:21.305416 27136 net.cpp:327] inception_3a/relu_5x5_reduce -> inception_3a/5x5_reduce (in-place)
I1215 22:27:21.305424 27136 net.cpp:113] Setting up inception_3a/relu_5x5_reduce
I1215 22:27:21.305498 27136 net.cpp:120] Top shape: 32 16 28 28 (401408)
I1215 22:27:21.305505 27136 layer_factory.hpp:74] Creating layer inception_3a/5x5
I1215 22:27:21.305516 27136 net.cpp:84] Creating Layer inception_3a/5x5
I1215 22:27:21.305521 27136 net.cpp:380] inception_3a/5x5 <- inception_3a/5x5_reduce
I1215 22:27:21.305531 27136 net.cpp:338] inception_3a/5x5 -> inception_3a/5x5
I1215 22:27:21.305538 27136 net.cpp:113] Setting up inception_3a/5x5
I1215 22:27:21.306119 27136 net.cpp:120] Top shape: 32 32 28 28 (802816)
I1215 22:27:21.306135 27136 layer_factory.hpp:74] Creating layer inception_3a/relu_5x5
I1215 22:27:21.306146 27136 net.cpp:84] Creating Layer inception_3a/relu_5x5
I1215 22:27:21.306152 27136 net.cpp:380] inception_3a/relu_5x5 <- inception_3a/5x5
I1215 22:27:21.306159 27136 net.cpp:327] inception_3a/relu_5x5 -> inception_3a/5x5 (in-place)
I1215 22:27:21.306166 27136 net.cpp:113] Setting up inception_3a/relu_5x5
I1215 22:27:21.306234 27136 net.cpp:120] Top shape: 32 32 28 28 (802816)
I1215 22:27:21.306241 27136 layer_factory.hpp:74] Creating layer inception_3a/pool
I1215 22:27:21.306246 27136 layer_factory.cpp:56] CUDNN does not support padding or multiple tops. Using Caffe's own pooling layer.
I1215 22:27:21.306258 27136 net.cpp:84] Creating Layer inception_3a/pool
I1215 22:27:21.306264 27136 net.cpp:380] inception_3a/pool <- pool2/3x3_s2_pool2/3x3_s2_0_split_3
I1215 22:27:21.306272 27136 net.cpp:338] inception_3a/pool -> inception_3a/pool
I1215 22:27:21.306279 27136 net.cpp:113] Setting up inception_3a/pool
I1215 22:27:21.306291 27136 net.cpp:120] Top shape: 32 192 28 28 (4816896)
I1215 22:27:21.306296 27136 layer_factory.hpp:74] Creating layer inception_3a/pool_proj
I1215 22:27:21.306305 27136 net.cpp:84] Creating Layer inception_3a/pool_proj
I1215 22:27:21.306310 27136 net.cpp:380] inception_3a/pool_proj <- inception_3a/pool
I1215 22:27:21.306318 27136 net.cpp:338] inception_3a/pool_proj -> inception_3a/pool_proj
I1215 22:27:21.306324 27136 net.cpp:113] Setting up inception_3a/pool_proj
I1215 22:27:21.306862 27136 net.cpp:120] Top shape: 32 32 28 28 (802816)
I1215 22:27:21.306881 27136 layer_factory.hpp:74] Creating layer inception_3a/relu_pool_proj
I1215 22:27:21.306890 27136 net.cpp:84] Creating Layer inception_3a/relu_pool_proj
I1215 22:27:21.306896 27136 net.cpp:380] inception_3a/relu_pool_proj <- inception_3a/pool_proj
I1215 22:27:21.306903 27136 net.cpp:327] inception_3a/relu_pool_proj -> inception_3a/pool_proj (in-place)
I1215 22:27:21.306910 27136 net.cpp:113] Setting up inception_3a/relu_pool_proj
I1215 22:27:21.306999 27136 net.cpp:120] Top shape: 32 32 28 28 (802816)
I1215 22:27:21.307008 27136 layer_factory.hpp:74] Creating layer inception_3a/output
I1215 22:27:21.307027 27136 net.cpp:84] Creating Layer inception_3a/output
I1215 22:27:21.307040 27136 net.cpp:380] inception_3a/output <- inception_3a/1x1
I1215 22:27:21.307047 27136 net.cpp:380] inception_3a/output <- inception_3a/3x3
I1215 22:27:21.307052 27136 net.cpp:380] inception_3a/output <- inception_3a/5x5
I1215 22:27:21.307059 27136 net.cpp:380] inception_3a/output <- inception_3a/pool_proj
I1215 22:27:21.307066 27136 net.cpp:338] inception_3a/output -> inception_3a/output
I1215 22:27:21.307075 27136 net.cpp:113] Setting up inception_3a/output
I1215 22:27:21.307088 27136 net.cpp:120] Top shape: 32 256 28 28 (6422528)
I1215 22:27:21.307095 27136 layer_factory.hpp:74] Creating layer inception_3a/output_inception_3a/output_0_split
I1215 22:27:21.307101 27136 net.cpp:84] Creating Layer inception_3a/output_inception_3a/output_0_split
I1215 22:27:21.307106 27136 net.cpp:380] inception_3a/output_inception_3a/output_0_split <- inception_3a/output
I1215 22:27:21.307113 27136 net.cpp:338] inception_3a/output_inception_3a/output_0_split -> inception_3a/output_inception_3a/output_0_split_0
I1215 22:27:21.307121 27136 net.cpp:338] inception_3a/output_inception_3a/output_0_split -> inception_3a/output_inception_3a/output_0_split_1
I1215 22:27:21.307128 27136 net.cpp:338] inception_3a/output_inception_3a/output_0_split -> inception_3a/output_inception_3a/output_0_split_2
I1215 22:27:21.307135 27136 net.cpp:338] inception_3a/output_inception_3a/output_0_split -> inception_3a/output_inception_3a/output_0_split_3
I1215 22:27:21.307142 27136 net.cpp:113] Setting up inception_3a/output_inception_3a/output_0_split
I1215 22:27:21.307149 27136 net.cpp:120] Top shape: 32 256 28 28 (6422528)
I1215 22:27:21.307155 27136 net.cpp:120] Top shape: 32 256 28 28 (6422528)
I1215 22:27:21.307160 27136 net.cpp:120] Top shape: 32 256 28 28 (6422528)
I1215 22:27:21.307165 27136 net.cpp:120] Top shape: 32 256 28 28 (6422528)
I1215 22:27:21.307170 27136 layer_factory.hpp:74] Creating layer inception_3b/1x1
I1215 22:27:21.307181 27136 net.cpp:84] Creating Layer inception_3b/1x1
I1215 22:27:21.307186 27136 net.cpp:380] inception_3b/1x1 <- inception_3a/output_inception_3a/output_0_split_0
I1215 22:27:21.307193 27136 net.cpp:338] inception_3b/1x1 -> inception_3b/1x1
I1215 22:27:21.307200 27136 net.cpp:113] Setting up inception_3b/1x1
I1215 22:27:21.308498 27136 net.cpp:120] Top shape: 32 128 28 28 (3211264)
I1215 22:27:21.308514 27136 layer_factory.hpp:74] Creating layer inception_3b/relu_1x1
I1215 22:27:21.308522 27136 net.cpp:84] Creating Layer inception_3b/relu_1x1
I1215 22:27:21.308527 27136 net.cpp:380] inception_3b/relu_1x1 <- inception_3b/1x1
I1215 22:27:21.308534 27136 net.cpp:327] inception_3b/relu_1x1 -> inception_3b/1x1 (in-place)
I1215 22:27:21.308542 27136 net.cpp:113] Setting up inception_3b/relu_1x1
I1215 22:27:21.308787 27136 net.cpp:120] Top shape: 32 128 28 28 (3211264)
I1215 22:27:21.308799 27136 layer_factory.hpp:74] Creating layer inception_3b/3x3_reduce
I1215 22:27:21.308809 27136 net.cpp:84] Creating Layer inception_3b/3x3_reduce
I1215 22:27:21.308815 27136 net.cpp:380] inception_3b/3x3_reduce <- inception_3a/output_inception_3a/output_0_split_1
I1215 22:27:21.308822 27136 net.cpp:338] inception_3b/3x3_reduce -> inception_3b/3x3_reduce
I1215 22:27:21.308831 27136 net.cpp:113] Setting up inception_3b/3x3_reduce
I1215 22:27:21.309643 27136 net.cpp:120] Top shape: 32 128 28 28 (3211264)
I1215 22:27:21.309660 27136 layer_factory.hpp:74] Creating layer inception_3b/relu_3x3_reduce
I1215 22:27:21.309671 27136 net.cpp:84] Creating Layer inception_3b/relu_3x3_reduce
I1215 22:27:21.309677 27136 net.cpp:380] inception_3b/relu_3x3_reduce <- inception_3b/3x3_reduce
I1215 22:27:21.309684 27136 net.cpp:327] inception_3b/relu_3x3_reduce -> inception_3b/3x3_reduce (in-place)
I1215 22:27:21.309692 27136 net.cpp:113] Setting up inception_3b/relu_3x3_reduce
I1215 22:27:21.309759 27136 net.cpp:120] Top shape: 32 128 28 28 (3211264)
I1215 22:27:21.309768 27136 layer_factory.hpp:74] Creating layer inception_3b/3x3
I1215 22:27:21.309782 27136 net.cpp:84] Creating Layer inception_3b/3x3
I1215 22:27:21.309792 27136 net.cpp:380] inception_3b/3x3 <- inception_3b/3x3_reduce
I1215 22:27:21.309809 27136 net.cpp:338] inception_3b/3x3 -> inception_3b/3x3
I1215 22:27:21.309818 27136 net.cpp:113] Setting up inception_3b/3x3
I1215 22:27:21.312827 27136 net.cpp:120] Top shape: 32 192 28 28 (4816896)
I1215 22:27:21.312844 27136 layer_factory.hpp:74] Creating layer inception_3b/relu_3x3
I1215 22:27:21.312850 27136 net.cpp:84] Creating Layer inception_3b/relu_3x3
I1215 22:27:21.312856 27136 net.cpp:380] inception_3b/relu_3x3 <- inception_3b/3x3
I1215 22:27:21.312865 27136 net.cpp:327] inception_3b/relu_3x3 -> inception_3b/3x3 (in-place)
I1215 22:27:21.312873 27136 net.cpp:113] Setting up inception_3b/relu_3x3
I1215 22:27:21.312947 27136 net.cpp:120] Top shape: 32 192 28 28 (4816896)
I1215 22:27:21.312953 27136 layer_factory.hpp:74] Creating layer inception_3b/5x5_reduce
I1215 22:27:21.312964 27136 net.cpp:84] Creating Layer inception_3b/5x5_reduce
I1215 22:27:21.312970 27136 net.cpp:380] inception_3b/5x5_reduce <- inception_3a/output_inception_3a/output_0_split_2
I1215 22:27:21.312979 27136 net.cpp:338] inception_3b/5x5_reduce -> inception_3b/5x5_reduce
I1215 22:27:21.313002 27136 net.cpp:113] Setting up inception_3b/5x5_reduce
I1215 22:27:21.313527 27136 net.cpp:120] Top shape: 32 32 28 28 (802816)
I1215 22:27:21.313544 27136 layer_factory.hpp:74] Creating layer inception_3b/relu_5x5_reduce
I1215 22:27:21.313552 27136 net.cpp:84] Creating Layer inception_3b/relu_5x5_reduce
I1215 22:27:21.313558 27136 net.cpp:380] inception_3b/relu_5x5_reduce <- inception_3b/5x5_reduce
I1215 22:27:21.313566 27136 net.cpp:327] inception_3b/relu_5x5_reduce -> inception_3b/5x5_reduce (in-place)
I1215 22:27:21.313573 27136 net.cpp:113] Setting up inception_3b/relu_5x5_reduce
I1215 22:27:21.313643 27136 net.cpp:120] Top shape: 32 32 28 28 (802816)
I1215 22:27:21.313650 27136 layer_factory.hpp:74] Creating layer inception_3b/5x5
I1215 22:27:21.313658 27136 net.cpp:84] Creating Layer inception_3b/5x5
I1215 22:27:21.313663 27136 net.cpp:380] inception_3b/5x5 <- inception_3b/5x5_reduce
I1215 22:27:21.313673 27136 net.cpp:338] inception_3b/5x5 -> inception_3b/5x5
I1215 22:27:21.313684 27136 net.cpp:113] Setting up inception_3b/5x5
I1215 22:27:21.314997 27136 net.cpp:120] Top shape: 32 96 28 28 (2408448)
I1215 22:27:21.315013 27136 layer_factory.hpp:74] Creating layer inception_3b/relu_5x5
I1215 22:27:21.315021 27136 net.cpp:84] Creating Layer inception_3b/relu_5x5
I1215 22:27:21.315026 27136 net.cpp:380] inception_3b/relu_5x5 <- inception_3b/5x5
I1215 22:27:21.315034 27136 net.cpp:327] inception_3b/relu_5x5 -> inception_3b/5x5 (in-place)
I1215 22:27:21.315042 27136 net.cpp:113] Setting up inception_3b/relu_5x5
I1215 22:27:21.315281 27136 net.cpp:120] Top shape: 32 96 28 28 (2408448)
I1215 22:27:21.315292 27136 layer_factory.hpp:74] Creating layer inception_3b/pool
I1215 22:27:21.315299 27136 layer_factory.cpp:56] CUDNN does not support padding or multiple tops. Using Caffe's own pooling layer.
I1215 22:27:21.315305 27136 net.cpp:84] Creating Layer inception_3b/pool
I1215 22:27:21.315311 27136 net.cpp:380] inception_3b/pool <- inception_3a/output_inception_3a/output_0_split_3
I1215 22:27:21.315318 27136 net.cpp:338] inception_3b/pool -> inception_3b/pool
I1215 22:27:21.315326 27136 net.cpp:113] Setting up inception_3b/pool
I1215 22:27:21.315335 27136 net.cpp:120] Top shape: 32 256 28 28 (6422528)
I1215 22:27:21.315340 27136 layer_factory.hpp:74] Creating layer inception_3b/pool_proj
I1215 22:27:21.315351 27136 net.cpp:84] Creating Layer inception_3b/pool_proj
I1215 22:27:21.315356 27136 net.cpp:380] inception_3b/pool_proj <- inception_3b/pool
I1215 22:27:21.315364 27136 net.cpp:338] inception_3b/pool_proj -> inception_3b/pool_proj
I1215 22:27:21.315372 27136 net.cpp:113] Setting up inception_3b/pool_proj
I1215 22:27:21.315979 27136 net.cpp:120] Top shape: 32 64 28 28 (1605632)
I1215 22:27:21.315994 27136 layer_factory.hpp:74] Creating layer inception_3b/relu_pool_proj
I1215 22:27:21.316004 27136 net.cpp:84] Creating Layer inception_3b/relu_pool_proj
I1215 22:27:21.316015 27136 net.cpp:380] inception_3b/relu_pool_proj <- inception_3b/pool_proj
I1215 22:27:21.316028 27136 net.cpp:327] inception_3b/relu_pool_proj -> inception_3b/pool_proj (in-place)
I1215 22:27:21.316036 27136 net.cpp:113] Setting up inception_3b/relu_pool_proj
I1215 22:27:21.316112 27136 net.cpp:120] Top shape: 32 64 28 28 (1605632)
I1215 22:27:21.316118 27136 layer_factory.hpp:74] Creating layer inception_3b/output
I1215 22:27:21.316126 27136 net.cpp:84] Creating Layer inception_3b/output
I1215 22:27:21.316133 27136 net.cpp:380] inception_3b/output <- inception_3b/1x1
I1215 22:27:21.316139 27136 net.cpp:380] inception_3b/output <- inception_3b/3x3
I1215 22:27:21.316145 27136 net.cpp:380] inception_3b/output <- inception_3b/5x5
I1215 22:27:21.316150 27136 net.cpp:380] inception_3b/output <- inception_3b/pool_proj
I1215 22:27:21.316156 27136 net.cpp:338] inception_3b/output -> inception_3b/output
I1215 22:27:21.316164 27136 net.cpp:113] Setting up inception_3b/output
I1215 22:27:21.316171 27136 net.cpp:120] Top shape: 32 480 28 28 (12042240)
I1215 22:27:21.316176 27136 layer_factory.hpp:74] Creating layer pool3/3x3_s2
I1215 22:27:21.316184 27136 net.cpp:84] Creating Layer pool3/3x3_s2
I1215 22:27:21.316189 27136 net.cpp:380] pool3/3x3_s2 <- inception_3b/output
I1215 22:27:21.316198 27136 net.cpp:338] pool3/3x3_s2 -> pool3/3x3_s2
I1215 22:27:21.316207 27136 net.cpp:113] Setting up pool3/3x3_s2
I1215 22:27:21.316279 27136 net.cpp:120] Top shape: 32 480 14 14 (3010560)
I1215 22:27:21.316285 27136 layer_factory.hpp:74] Creating layer pool3/3x3_s2_pool3/3x3_s2_0_split
I1215 22:27:21.316293 27136 net.cpp:84] Creating Layer pool3/3x3_s2_pool3/3x3_s2_0_split
I1215 22:27:21.316298 27136 net.cpp:380] pool3/3x3_s2_pool3/3x3_s2_0_split <- pool3/3x3_s2
I1215 22:27:21.316305 27136 net.cpp:338] pool3/3x3_s2_pool3/3x3_s2_0_split -> pool3/3x3_s2_pool3/3x3_s2_0_split_0
I1215 22:27:21.316313 27136 net.cpp:338] pool3/3x3_s2_pool3/3x3_s2_0_split -> pool3/3x3_s2_pool3/3x3_s2_0_split_1
I1215 22:27:21.316320 27136 net.cpp:338] pool3/3x3_s2_pool3/3x3_s2_0_split -> pool3/3x3_s2_pool3/3x3_s2_0_split_2
I1215 22:27:21.316328 27136 net.cpp:338] pool3/3x3_s2_pool3/3x3_s2_0_split -> pool3/3x3_s2_pool3/3x3_s2_0_split_3
I1215 22:27:21.316336 27136 net.cpp:113] Setting up pool3/3x3_s2_pool3/3x3_s2_0_split
I1215 22:27:21.316344 27136 net.cpp:120] Top shape: 32 480 14 14 (3010560)
I1215 22:27:21.316349 27136 net.cpp:120] Top shape: 32 480 14 14 (3010560)
I1215 22:27:21.316355 27136 net.cpp:120] Top shape: 32 480 14 14 (3010560)
I1215 22:27:21.316360 27136 net.cpp:120] Top shape: 32 480 14 14 (3010560)
I1215 22:27:21.316365 27136 layer_factory.hpp:74] Creating layer inception_4a/1x1
I1215 22:27:21.316373 27136 net.cpp:84] Creating Layer inception_4a/1x1
I1215 22:27:21.316378 27136 net.cpp:380] inception_4a/1x1 <- pool3/3x3_s2_pool3/3x3_s2_0_split_0
I1215 22:27:21.316387 27136 net.cpp:338] inception_4a/1x1 -> inception_4a/1x1
I1215 22:27:21.316395 27136 net.cpp:113] Setting up inception_4a/1x1
I1215 22:27:21.318054 27136 net.cpp:120] Top shape: 32 192 14 14 (1204224)
I1215 22:27:21.318071 27136 layer_factory.hpp:74] Creating layer inception_4a/relu_1x1
I1215 22:27:21.318079 27136 net.cpp:84] Creating Layer inception_4a/relu_1x1
I1215 22:27:21.318084 27136 net.cpp:380] inception_4a/relu_1x1 <- inception_4a/1x1
I1215 22:27:21.318092 27136 net.cpp:327] inception_4a/relu_1x1 -> inception_4a/1x1 (in-place)
I1215 22:27:21.318099 27136 net.cpp:113] Setting up inception_4a/relu_1x1
I1215 22:27:21.318496 27136 net.cpp:120] Top shape: 32 192 14 14 (1204224)
I1215 22:27:21.318507 27136 layer_factory.hpp:74] Creating layer inception_4a/3x3_reduce
I1215 22:27:21.318518 27136 net.cpp:84] Creating Layer inception_4a/3x3_reduce
I1215 22:27:21.318524 27136 net.cpp:380] inception_4a/3x3_reduce <- pool3/3x3_s2_pool3/3x3_s2_0_split_1
I1215 22:27:21.318534 27136 net.cpp:338] inception_4a/3x3_reduce -> inception_4a/3x3_reduce
I1215 22:27:21.318544 27136 net.cpp:113] Setting up inception_4a/3x3_reduce
I1215 22:27:21.319501 27136 net.cpp:120] Top shape: 32 96 14 14 (602112)
I1215 22:27:21.319525 27136 layer_factory.hpp:74] Creating layer inception_4a/relu_3x3_reduce
I1215 22:27:21.319542 27136 net.cpp:84] Creating Layer inception_4a/relu_3x3_reduce
I1215 22:27:21.319548 27136 net.cpp:380] inception_4a/relu_3x3_reduce <- inception_4a/3x3_reduce
I1215 22:27:21.319556 27136 net.cpp:327] inception_4a/relu_3x3_reduce -> inception_4a/3x3_reduce (in-place)
I1215 22:27:21.319563 27136 net.cpp:113] Setting up inception_4a/relu_3x3_reduce
I1215 22:27:21.319636 27136 net.cpp:120] Top shape: 32 96 14 14 (602112)
I1215 22:27:21.319643 27136 layer_factory.hpp:74] Creating layer inception_4a/3x3
I1215 22:27:21.319653 27136 net.cpp:84] Creating Layer inception_4a/3x3
I1215 22:27:21.319658 27136 net.cpp:380] inception_4a/3x3 <- inception_4a/3x3_reduce
I1215 22:27:21.319666 27136 net.cpp:338] inception_4a/3x3 -> inception_4a/3x3
I1215 22:27:21.319675 27136 net.cpp:113] Setting up inception_4a/3x3
I1215 22:27:21.322201 27136 net.cpp:120] Top shape: 32 208 14 14 (1304576)
I1215 22:27:21.322219 27136 layer_factory.hpp:74] Creating layer inception_4a/relu_3x3
I1215 22:27:21.322227 27136 net.cpp:84] Creating Layer inception_4a/relu_3x3
I1215 22:27:21.322233 27136 net.cpp:380] inception_4a/relu_3x3 <- inception_4a/3x3
I1215 22:27:21.322240 27136 net.cpp:327] inception_4a/relu_3x3 -> inception_4a/3x3 (in-place)
I1215 22:27:21.322248 27136 net.cpp:113] Setting up inception_4a/relu_3x3
I1215 22:27:21.322317 27136 net.cpp:120] Top shape: 32 208 14 14 (1304576)
I1215 22:27:21.322324 27136 layer_factory.hpp:74] Creating layer inception_4a/5x5_reduce
I1215 22:27:21.322332 27136 net.cpp:84] Creating Layer inception_4a/5x5_reduce
I1215 22:27:21.322337 27136 net.cpp:380] inception_4a/5x5_reduce <- pool3/3x3_s2_pool3/3x3_s2_0_split_2
I1215 22:27:21.322346 27136 net.cpp:338] inception_4a/5x5_reduce -> inception_4a/5x5_reduce
I1215 22:27:21.322355 27136 net.cpp:113] Setting up inception_4a/5x5_reduce
I1215 22:27:21.322860 27136 net.cpp:120] Top shape: 32 16 14 14 (100352)
I1215 22:27:21.322875 27136 layer_factory.hpp:74] Creating layer inception_4a/relu_5x5_reduce
I1215 22:27:21.322883 27136 net.cpp:84] Creating Layer inception_4a/relu_5x5_reduce
I1215 22:27:21.322890 27136 net.cpp:380] inception_4a/relu_5x5_reduce <- inception_4a/5x5_reduce
I1215 22:27:21.322896 27136 net.cpp:327] inception_4a/relu_5x5_reduce -> inception_4a/5x5_reduce (in-place)
I1215 22:27:21.322904 27136 net.cpp:113] Setting up inception_4a/relu_5x5_reduce
I1215 22:27:21.322975 27136 net.cpp:120] Top shape: 32 16 14 14 (100352)
I1215 22:27:21.322981 27136 layer_factory.hpp:74] Creating layer inception_4a/5x5
I1215 22:27:21.322993 27136 net.cpp:84] Creating Layer inception_4a/5x5
I1215 22:27:21.322998 27136 net.cpp:380] inception_4a/5x5 <- inception_4a/5x5_reduce
I1215 22:27:21.323004 27136 net.cpp:338] inception_4a/5x5 -> inception_4a/5x5
I1215 22:27:21.323012 27136 net.cpp:113] Setting up inception_4a/5x5
I1215 22:27:21.323650 27136 net.cpp:120] Top shape: 32 48 14 14 (301056)
I1215 22:27:21.323665 27136 layer_factory.hpp:74] Creating layer inception_4a/relu_5x5
I1215 22:27:21.323673 27136 net.cpp:84] Creating Layer inception_4a/relu_5x5
I1215 22:27:21.323678 27136 net.cpp:380] inception_4a/relu_5x5 <- inception_4a/5x5
I1215 22:27:21.323685 27136 net.cpp:327] inception_4a/relu_5x5 -> inception_4a/5x5 (in-place)
I1215 22:27:21.323693 27136 net.cpp:113] Setting up inception_4a/relu_5x5
I1215 22:27:21.323933 27136 net.cpp:120] Top shape: 32 48 14 14 (301056)
I1215 22:27:21.323945 27136 layer_factory.hpp:74] Creating layer inception_4a/pool
I1215 22:27:21.323951 27136 layer_factory.cpp:56] CUDNN does not support padding or multiple tops. Using Caffe's own pooling layer.
I1215 22:27:21.323958 27136 net.cpp:84] Creating Layer inception_4a/pool
I1215 22:27:21.323963 27136 net.cpp:380] inception_4a/pool <- pool3/3x3_s2_pool3/3x3_s2_0_split_3
I1215 22:27:21.323973 27136 net.cpp:338] inception_4a/pool -> inception_4a/pool
I1215 22:27:21.323982 27136 net.cpp:113] Setting up inception_4a/pool
I1215 22:27:21.323992 27136 net.cpp:120] Top shape: 32 480 14 14 (3010560)
I1215 22:27:21.324002 27136 layer_factory.hpp:74] Creating layer inception_4a/pool_proj
I1215 22:27:21.324018 27136 net.cpp:84] Creating Layer inception_4a/pool_proj
I1215 22:27:21.324024 27136 net.cpp:380] inception_4a/pool_proj <- inception_4a/pool
I1215 22:27:21.324031 27136 net.cpp:338] inception_4a/pool_proj -> inception_4a/pool_proj
I1215 22:27:21.324039 27136 net.cpp:113] Setting up inception_4a/pool_proj
I1215 22:27:21.324816 27136 net.cpp:120] Top shape: 32 64 14 14 (401408)
I1215 22:27:21.324832 27136 layer_factory.hpp:74] Creating layer inception_4a/relu_pool_proj
I1215 22:27:21.324841 27136 net.cpp:84] Creating Layer inception_4a/relu_pool_proj
I1215 22:27:21.324846 27136 net.cpp:380] inception_4a/relu_pool_proj <- inception_4a/pool_proj
I1215 22:27:21.324856 27136 net.cpp:327] inception_4a/relu_pool_proj -> inception_4a/pool_proj (in-place)
I1215 22:27:21.324864 27136 net.cpp:113] Setting up inception_4a/relu_pool_proj
I1215 22:27:21.324935 27136 net.cpp:120] Top shape: 32 64 14 14 (401408)
I1215 22:27:21.324942 27136 layer_factory.hpp:74] Creating layer inception_4a/output
I1215 22:27:21.324951 27136 net.cpp:84] Creating Layer inception_4a/output
I1215 22:27:21.324957 27136 net.cpp:380] inception_4a/output <- inception_4a/1x1
I1215 22:27:21.324965 27136 net.cpp:380] inception_4a/output <- inception_4a/3x3
I1215 22:27:21.324972 27136 net.cpp:380] inception_4a/output <- inception_4a/5x5
I1215 22:27:21.324977 27136 net.cpp:380] inception_4a/output <- inception_4a/pool_proj
I1215 22:27:21.324983 27136 net.cpp:338] inception_4a/output -> inception_4a/output
I1215 22:27:21.324991 27136 net.cpp:113] Setting up inception_4a/output
I1215 22:27:21.325000 27136 net.cpp:120] Top shape: 32 512 14 14 (3211264)
I1215 22:27:21.325004 27136 layer_factory.hpp:74] Creating layer inception_4a/output_inception_4a/output_0_split
I1215 22:27:21.325014 27136 net.cpp:84] Creating Layer inception_4a/output_inception_4a/output_0_split
I1215 22:27:21.325019 27136 net.cpp:380] inception_4a/output_inception_4a/output_0_split <- inception_4a/output
I1215 22:27:21.325026 27136 net.cpp:338] inception_4a/output_inception_4a/output_0_split -> inception_4a/output_inception_4a/output_0_split_0
I1215 22:27:21.325033 27136 net.cpp:338] inception_4a/output_inception_4a/output_0_split -> inception_4a/output_inception_4a/output_0_split_1
I1215 22:27:21.325042 27136 net.cpp:338] inception_4a/output_inception_4a/output_0_split -> inception_4a/output_inception_4a/output_0_split_2
I1215 22:27:21.325048 27136 net.cpp:338] inception_4a/output_inception_4a/output_0_split -> inception_4a/output_inception_4a/output_0_split_3
I1215 22:27:21.325062 27136 net.cpp:338] inception_4a/output_inception_4a/output_0_split -> inception_4a/output_inception_4a/output_0_split_4
I1215 22:27:21.325069 27136 net.cpp:113] Setting up inception_4a/output_inception_4a/output_0_split
I1215 22:27:21.325078 27136 net.cpp:120] Top shape: 32 512 14 14 (3211264)
I1215 22:27:21.325083 27136 net.cpp:120] Top shape: 32 512 14 14 (3211264)
I1215 22:27:21.325088 27136 net.cpp:120] Top shape: 32 512 14 14 (3211264)
I1215 22:27:21.325093 27136 net.cpp:120] Top shape: 32 512 14 14 (3211264)
I1215 22:27:21.325098 27136 net.cpp:120] Top shape: 32 512 14 14 (3211264)
I1215 22:27:21.325103 27136 layer_factory.hpp:74] Creating layer loss1/ave_pool
I1215 22:27:21.325112 27136 net.cpp:84] Creating Layer loss1/ave_pool
I1215 22:27:21.325117 27136 net.cpp:380] loss1/ave_pool <- inception_4a/output_inception_4a/output_0_split_0
I1215 22:27:21.325125 27136 net.cpp:338] loss1/ave_pool -> loss1/ave_pool
I1215 22:27:21.325132 27136 net.cpp:113] Setting up loss1/ave_pool
I1215 22:27:21.325204 27136 net.cpp:120] Top shape: 32 512 4 4 (262144)
I1215 22:27:21.325211 27136 layer_factory.hpp:74] Creating layer loss1/conv
I1215 22:27:21.325222 27136 net.cpp:84] Creating Layer loss1/conv
I1215 22:27:21.325227 27136 net.cpp:380] loss1/conv <- loss1/ave_pool
I1215 22:27:21.325233 27136 net.cpp:338] loss1/conv -> loss1/conv
I1215 22:27:21.325242 27136 net.cpp:113] Setting up loss1/conv
I1215 22:27:21.326449 27136 net.cpp:120] Top shape: 32 128 4 4 (65536)
I1215 22:27:21.326474 27136 layer_factory.hpp:74] Creating layer loss1/relu_conv
I1215 22:27:21.326481 27136 net.cpp:84] Creating Layer loss1/relu_conv
I1215 22:27:21.326488 27136 net.cpp:380] loss1/relu_conv <- loss1/conv
I1215 22:27:21.326500 27136 net.cpp:327] loss1/relu_conv -> loss1/conv (in-place)
I1215 22:27:21.326508 27136 net.cpp:113] Setting up loss1/relu_conv
I1215 22:27:21.326577 27136 net.cpp:120] Top shape: 32 128 4 4 (65536)
I1215 22:27:21.326586 27136 layer_factory.hpp:74] Creating layer loss1/fc
I1215 22:27:21.326596 27136 net.cpp:84] Creating Layer loss1/fc
I1215 22:27:21.326602 27136 net.cpp:380] loss1/fc <- loss1/conv
I1215 22:27:21.326611 27136 net.cpp:338] loss1/fc -> loss1/fc
I1215 22:27:21.326624 27136 net.cpp:113] Setting up loss1/fc
I1215 22:27:21.349675 27136 net.cpp:120] Top shape: 32 1024 (32768)
I1215 22:27:21.349696 27136 layer_factory.hpp:74] Creating layer loss1/relu_fc
I1215 22:27:21.349706 27136 net.cpp:84] Creating Layer loss1/relu_fc
I1215 22:27:21.349712 27136 net.cpp:380] loss1/relu_fc <- loss1/fc
I1215 22:27:21.349720 27136 net.cpp:327] loss1/relu_fc -> loss1/fc (in-place)
I1215 22:27:21.349726 27136 net.cpp:113] Setting up loss1/relu_fc
I1215 22:27:21.350013 27136 net.cpp:120] Top shape: 32 1024 (32768)
I1215 22:27:21.350024 27136 layer_factory.hpp:74] Creating layer loss1/drop_fc
I1215 22:27:21.350042 27136 net.cpp:84] Creating Layer loss1/drop_fc
I1215 22:27:21.350049 27136 net.cpp:380] loss1/drop_fc <- loss1/fc
I1215 22:27:21.350055 27136 net.cpp:327] loss1/drop_fc -> loss1/fc (in-place)
I1215 22:27:21.350065 27136 net.cpp:113] Setting up loss1/drop_fc
I1215 22:27:21.350075 27136 net.cpp:120] Top shape: 32 1024 (32768)
I1215 22:27:21.350080 27136 layer_factory.hpp:74] Creating layer loss1/classifier_kaggle
I1215 22:27:21.350088 27136 net.cpp:84] Creating Layer loss1/classifier_kaggle
I1215 22:27:21.350093 27136 net.cpp:380] loss1/classifier_kaggle <- loss1/fc
I1215 22:27:21.350106 27136 net.cpp:338] loss1/classifier_kaggle -> loss1/classifier_kaggle
I1215 22:27:21.350113 27136 net.cpp:113] Setting up loss1/classifier_kaggle
I1215 22:27:21.355471 27136 net.cpp:120] Top shape: 32 447 (14304)
I1215 22:27:21.355484 27136 layer_factory.hpp:74] Creating layer loss1/loss
I1215 22:27:21.355494 27136 net.cpp:84] Creating Layer loss1/loss
I1215 22:27:21.355499 27136 net.cpp:380] loss1/loss <- loss1/classifier_kaggle
I1215 22:27:21.355506 27136 net.cpp:380] loss1/loss <- label_data_1_split_0
I1215 22:27:21.355514 27136 net.cpp:338] loss1/loss -> loss1/loss1
I1215 22:27:21.355521 27136 net.cpp:113] Setting up loss1/loss
I1215 22:27:21.355530 27136 layer_factory.hpp:74] Creating layer loss1/loss
I1215 22:27:21.355650 27136 net.cpp:120] Top shape: (1)
I1215 22:27:21.355659 27136 net.cpp:122]     with loss weight 0.3
I1215 22:27:21.355679 27136 layer_factory.hpp:74] Creating layer inception_4b/1x1
I1215 22:27:21.355691 27136 net.cpp:84] Creating Layer inception_4b/1x1
I1215 22:27:21.355696 27136 net.cpp:380] inception_4b/1x1 <- inception_4a/output_inception_4a/output_0_split_1
I1215 22:27:21.355706 27136 net.cpp:338] inception_4b/1x1 -> inception_4b/1x1
I1215 22:27:21.355715 27136 net.cpp:113] Setting up inception_4b/1x1
I1215 22:27:21.357115 27136 net.cpp:120] Top shape: 32 160 14 14 (1003520)
I1215 22:27:21.357132 27136 layer_factory.hpp:74] Creating layer inception_4b/relu_1x1
I1215 22:27:21.357143 27136 net.cpp:84] Creating Layer inception_4b/relu_1x1
I1215 22:27:21.357149 27136 net.cpp:380] inception_4b/relu_1x1 <- inception_4b/1x1
I1215 22:27:21.357156 27136 net.cpp:327] inception_4b/relu_1x1 -> inception_4b/1x1 (in-place)
I1215 22:27:21.357163 27136 net.cpp:113] Setting up inception_4b/relu_1x1
I1215 22:27:21.357241 27136 net.cpp:120] Top shape: 32 160 14 14 (1003520)
I1215 22:27:21.357249 27136 layer_factory.hpp:74] Creating layer inception_4b/3x3_reduce
I1215 22:27:21.357256 27136 net.cpp:84] Creating Layer inception_4b/3x3_reduce
I1215 22:27:21.357261 27136 net.cpp:380] inception_4b/3x3_reduce <- inception_4a/output_inception_4a/output_0_split_2
I1215 22:27:21.357285 27136 net.cpp:338] inception_4b/3x3_reduce -> inception_4b/3x3_reduce
I1215 22:27:21.357293 27136 net.cpp:113] Setting up inception_4b/3x3_reduce
I1215 22:27:21.358396 27136 net.cpp:120] Top shape: 32 112 14 14 (702464)
I1215 22:27:21.358412 27136 layer_factory.hpp:74] Creating layer inception_4b/relu_3x3_reduce
I1215 22:27:21.358419 27136 net.cpp:84] Creating Layer inception_4b/relu_3x3_reduce
I1215 22:27:21.358424 27136 net.cpp:380] inception_4b/relu_3x3_reduce <- inception_4b/3x3_reduce
I1215 22:27:21.358431 27136 net.cpp:327] inception_4b/relu_3x3_reduce -> inception_4b/3x3_reduce (in-place)
I1215 22:27:21.358439 27136 net.cpp:113] Setting up inception_4b/relu_3x3_reduce
I1215 22:27:21.358507 27136 net.cpp:120] Top shape: 32 112 14 14 (702464)
I1215 22:27:21.358513 27136 layer_factory.hpp:74] Creating layer inception_4b/3x3
I1215 22:27:21.358521 27136 net.cpp:84] Creating Layer inception_4b/3x3
I1215 22:27:21.358526 27136 net.cpp:380] inception_4b/3x3 <- inception_4b/3x3_reduce
I1215 22:27:21.358536 27136 net.cpp:338] inception_4b/3x3 -> inception_4b/3x3
I1215 22:27:21.358543 27136 net.cpp:113] Setting up inception_4b/3x3
I1215 22:27:21.367152 27136 net.cpp:120] Top shape: 32 224 14 14 (1404928)
I1215 22:27:21.367198 27136 layer_factory.hpp:74] Creating layer inception_4b/relu_3x3
I1215 22:27:21.367218 27136 net.cpp:84] Creating Layer inception_4b/relu_3x3
I1215 22:27:21.367226 27136 net.cpp:380] inception_4b/relu_3x3 <- inception_4b/3x3
I1215 22:27:21.367235 27136 net.cpp:327] inception_4b/relu_3x3 -> inception_4b/3x3 (in-place)
I1215 22:27:21.367245 27136 net.cpp:113] Setting up inception_4b/relu_3x3
I1215 22:27:21.367501 27136 net.cpp:120] Top shape: 32 224 14 14 (1404928)
I1215 22:27:21.367512 27136 layer_factory.hpp:74] Creating layer inception_4b/5x5_reduce
I1215 22:27:21.367524 27136 net.cpp:84] Creating Layer inception_4b/5x5_reduce
I1215 22:27:21.367529 27136 net.cpp:380] inception_4b/5x5_reduce <- inception_4a/output_inception_4a/output_0_split_3
I1215 22:27:21.367537 27136 net.cpp:338] inception_4b/5x5_reduce -> inception_4b/5x5_reduce
I1215 22:27:21.367547 27136 net.cpp:113] Setting up inception_4b/5x5_reduce
I1215 22:27:21.368088 27136 net.cpp:120] Top shape: 32 24 14 14 (150528)
I1215 22:27:21.368103 27136 layer_factory.hpp:74] Creating layer inception_4b/relu_5x5_reduce
I1215 22:27:21.368109 27136 net.cpp:84] Creating Layer inception_4b/relu_5x5_reduce
I1215 22:27:21.368115 27136 net.cpp:380] inception_4b/relu_5x5_reduce <- inception_4b/5x5_reduce
I1215 22:27:21.368121 27136 net.cpp:327] inception_4b/relu_5x5_reduce -> inception_4b/5x5_reduce (in-place)
I1215 22:27:21.368129 27136 net.cpp:113] Setting up inception_4b/relu_5x5_reduce
I1215 22:27:21.368193 27136 net.cpp:120] Top shape: 32 24 14 14 (150528)
I1215 22:27:21.368199 27136 layer_factory.hpp:74] Creating layer inception_4b/5x5
I1215 22:27:21.368216 27136 net.cpp:84] Creating Layer inception_4b/5x5
I1215 22:27:21.368221 27136 net.cpp:380] inception_4b/5x5 <- inception_4b/5x5_reduce
I1215 22:27:21.368227 27136 net.cpp:338] inception_4b/5x5 -> inception_4b/5x5
I1215 22:27:21.368235 27136 net.cpp:113] Setting up inception_4b/5x5
I1215 22:27:21.369022 27136 net.cpp:120] Top shape: 32 64 14 14 (401408)
I1215 22:27:21.369036 27136 layer_factory.hpp:74] Creating layer inception_4b/relu_5x5
I1215 22:27:21.369050 27136 net.cpp:84] Creating Layer inception_4b/relu_5x5
I1215 22:27:21.369067 27136 net.cpp:380] inception_4b/relu_5x5 <- inception_4b/5x5
I1215 22:27:21.369081 27136 net.cpp:327] inception_4b/relu_5x5 -> inception_4b/5x5 (in-place)
I1215 22:27:21.369089 27136 net.cpp:113] Setting up inception_4b/relu_5x5
I1215 22:27:21.369154 27136 net.cpp:120] Top shape: 32 64 14 14 (401408)
I1215 22:27:21.369160 27136 layer_factory.hpp:74] Creating layer inception_4b/pool
I1215 22:27:21.369165 27136 layer_factory.cpp:56] CUDNN does not support padding or multiple tops. Using Caffe's own pooling layer.
I1215 22:27:21.369173 27136 net.cpp:84] Creating Layer inception_4b/pool
I1215 22:27:21.369182 27136 net.cpp:380] inception_4b/pool <- inception_4a/output_inception_4a/output_0_split_4
I1215 22:27:21.369201 27136 net.cpp:338] inception_4b/pool -> inception_4b/pool
I1215 22:27:21.369222 27136 net.cpp:113] Setting up inception_4b/pool
I1215 22:27:21.369232 27136 net.cpp:120] Top shape: 32 512 14 14 (3211264)
I1215 22:27:21.369237 27136 layer_factory.hpp:74] Creating layer inception_4b/pool_proj
I1215 22:27:21.369245 27136 net.cpp:84] Creating Layer inception_4b/pool_proj
I1215 22:27:21.369248 27136 net.cpp:380] inception_4b/pool_proj <- inception_4b/pool
I1215 22:27:21.369256 27136 net.cpp:338] inception_4b/pool_proj -> inception_4b/pool_proj
I1215 22:27:21.369264 27136 net.cpp:113] Setting up inception_4b/pool_proj
I1215 22:27:21.370522 27136 net.cpp:120] Top shape: 32 64 14 14 (401408)
I1215 22:27:21.370545 27136 layer_factory.hpp:74] Creating layer inception_4b/relu_pool_proj
I1215 22:27:21.370569 27136 net.cpp:84] Creating Layer inception_4b/relu_pool_proj
I1215 22:27:21.370580 27136 net.cpp:380] inception_4b/relu_pool_proj <- inception_4b/pool_proj
I1215 22:27:21.370592 27136 net.cpp:327] inception_4b/relu_pool_proj -> inception_4b/pool_proj (in-place)
I1215 22:27:21.370604 27136 net.cpp:113] Setting up inception_4b/relu_pool_proj
I1215 22:27:21.370957 27136 net.cpp:120] Top shape: 32 64 14 14 (401408)
I1215 22:27:21.370975 27136 layer_factory.hpp:74] Creating layer inception_4b/output
I1215 22:27:21.370987 27136 net.cpp:84] Creating Layer inception_4b/output
I1215 22:27:21.370996 27136 net.cpp:380] inception_4b/output <- inception_4b/1x1
I1215 22:27:21.371007 27136 net.cpp:380] inception_4b/output <- inception_4b/3x3
I1215 22:27:21.371016 27136 net.cpp:380] inception_4b/output <- inception_4b/5x5
I1215 22:27:21.371026 27136 net.cpp:380] inception_4b/output <- inception_4b/pool_proj
I1215 22:27:21.371038 27136 net.cpp:338] inception_4b/output -> inception_4b/output
I1215 22:27:21.371052 27136 net.cpp:113] Setting up inception_4b/output
I1215 22:27:21.371068 27136 net.cpp:120] Top shape: 32 512 14 14 (3211264)
I1215 22:27:21.371085 27136 layer_factory.hpp:74] Creating layer inception_4b/output_inception_4b/output_0_split
I1215 22:27:21.371099 27136 net.cpp:84] Creating Layer inception_4b/output_inception_4b/output_0_split
I1215 22:27:21.371107 27136 net.cpp:380] inception_4b/output_inception_4b/output_0_split <- inception_4b/output
I1215 22:27:21.371119 27136 net.cpp:338] inception_4b/output_inception_4b/output_0_split -> inception_4b/output_inception_4b/output_0_split_0
I1215 22:27:21.371134 27136 net.cpp:338] inception_4b/output_inception_4b/output_0_split -> inception_4b/output_inception_4b/output_0_split_1
I1215 22:27:21.371147 27136 net.cpp:338] inception_4b/output_inception_4b/output_0_split -> inception_4b/output_inception_4b/output_0_split_2
I1215 22:27:21.371160 27136 net.cpp:338] inception_4b/output_inception_4b/output_0_split -> inception_4b/output_inception_4b/output_0_split_3
I1215 22:27:21.371171 27136 net.cpp:113] Setting up inception_4b/output_inception_4b/output_0_split
I1215 22:27:21.371184 27136 net.cpp:120] Top shape: 32 512 14 14 (3211264)
I1215 22:27:21.371194 27136 net.cpp:120] Top shape: 32 512 14 14 (3211264)
I1215 22:27:21.371202 27136 net.cpp:120] Top shape: 32 512 14 14 (3211264)
I1215 22:27:21.371212 27136 net.cpp:120] Top shape: 32 512 14 14 (3211264)
I1215 22:27:21.371218 27136 layer_factory.hpp:74] Creating layer inception_4c/1x1
I1215 22:27:21.371234 27136 net.cpp:84] Creating Layer inception_4c/1x1
I1215 22:27:21.371243 27136 net.cpp:380] inception_4c/1x1 <- inception_4b/output_inception_4b/output_0_split_0
I1215 22:27:21.371253 27136 net.cpp:338] inception_4c/1x1 -> inception_4c/1x1
I1215 22:27:21.371268 27136 net.cpp:113] Setting up inception_4c/1x1
I1215 22:27:21.373193 27136 net.cpp:120] Top shape: 32 128 14 14 (802816)
I1215 22:27:21.373224 27136 layer_factory.hpp:74] Creating layer inception_4c/relu_1x1
I1215 22:27:21.373250 27136 net.cpp:84] Creating Layer inception_4c/relu_1x1
I1215 22:27:21.373260 27136 net.cpp:380] inception_4c/relu_1x1 <- inception_4c/1x1
I1215 22:27:21.373283 27136 net.cpp:327] inception_4c/relu_1x1 -> inception_4c/1x1 (in-place)
I1215 22:27:21.373309 27136 net.cpp:113] Setting up inception_4c/relu_1x1
I1215 22:27:21.373428 27136 net.cpp:120] Top shape: 32 128 14 14 (802816)
I1215 22:27:21.373438 27136 layer_factory.hpp:74] Creating layer inception_4c/3x3_reduce
I1215 22:27:21.373455 27136 net.cpp:84] Creating Layer inception_4c/3x3_reduce
I1215 22:27:21.373463 27136 net.cpp:380] inception_4c/3x3_reduce <- inception_4b/output_inception_4b/output_0_split_1
I1215 22:27:21.373476 27136 net.cpp:338] inception_4c/3x3_reduce -> inception_4c/3x3_reduce
I1215 22:27:21.373491 27136 net.cpp:113] Setting up inception_4c/3x3_reduce
I1215 22:27:21.375390 27136 net.cpp:120] Top shape: 32 128 14 14 (802816)
I1215 22:27:21.375425 27136 layer_factory.hpp:74] Creating layer inception_4c/relu_3x3_reduce
I1215 22:27:21.375439 27136 net.cpp:84] Creating Layer inception_4c/relu_3x3_reduce
I1215 22:27:21.375449 27136 net.cpp:380] inception_4c/relu_3x3_reduce <- inception_4c/3x3_reduce
I1215 22:27:21.375464 27136 net.cpp:327] inception_4c/relu_3x3_reduce -> inception_4c/3x3_reduce (in-place)
I1215 22:27:21.375478 27136 net.cpp:113] Setting up inception_4c/relu_3x3_reduce
I1215 22:27:21.375594 27136 net.cpp:120] Top shape: 32 128 14 14 (802816)
I1215 22:27:21.375604 27136 layer_factory.hpp:74] Creating layer inception_4c/3x3
I1215 22:27:21.375628 27136 net.cpp:84] Creating Layer inception_4c/3x3
I1215 22:27:21.375638 27136 net.cpp:380] inception_4c/3x3 <- inception_4c/3x3_reduce
I1215 22:27:21.375651 27136 net.cpp:338] inception_4c/3x3 -> inception_4c/3x3
I1215 22:27:21.375665 27136 net.cpp:113] Setting up inception_4c/3x3
I1215 22:27:21.382045 27136 net.cpp:120] Top shape: 32 256 14 14 (1605632)
I1215 22:27:21.382091 27136 layer_factory.hpp:74] Creating layer inception_4c/relu_3x3
I1215 22:27:21.382103 27136 net.cpp:84] Creating Layer inception_4c/relu_3x3
I1215 22:27:21.382113 27136 net.cpp:380] inception_4c/relu_3x3 <- inception_4c/3x3
I1215 22:27:21.382124 27136 net.cpp:327] inception_4c/relu_3x3 -> inception_4c/3x3 (in-place)
I1215 22:27:21.382136 27136 net.cpp:113] Setting up inception_4c/relu_3x3
I1215 22:27:21.382249 27136 net.cpp:120] Top shape: 32 256 14 14 (1605632)
I1215 22:27:21.382258 27136 layer_factory.hpp:74] Creating layer inception_4c/5x5_reduce
I1215 22:27:21.382273 27136 net.cpp:84] Creating Layer inception_4c/5x5_reduce
I1215 22:27:21.382282 27136 net.cpp:380] inception_4c/5x5_reduce <- inception_4b/output_inception_4b/output_0_split_2
I1215 22:27:21.382294 27136 net.cpp:338] inception_4c/5x5_reduce -> inception_4c/5x5_reduce
I1215 22:27:21.382308 27136 net.cpp:113] Setting up inception_4c/5x5_reduce
I1215 22:27:21.383108 27136 net.cpp:120] Top shape: 32 24 14 14 (150528)
I1215 22:27:21.383131 27136 layer_factory.hpp:74] Creating layer inception_4c/relu_5x5_reduce
I1215 22:27:21.383152 27136 net.cpp:84] Creating Layer inception_4c/relu_5x5_reduce
I1215 22:27:21.383163 27136 net.cpp:380] inception_4c/relu_5x5_reduce <- inception_4c/5x5_reduce
I1215 22:27:21.383177 27136 net.cpp:327] inception_4c/relu_5x5_reduce -> inception_4c/5x5_reduce (in-place)
I1215 22:27:21.383190 27136 net.cpp:113] Setting up inception_4c/relu_5x5_reduce
I1215 22:27:21.383519 27136 net.cpp:120] Top shape: 32 24 14 14 (150528)
I1215 22:27:21.383544 27136 layer_factory.hpp:74] Creating layer inception_4c/5x5
I1215 22:27:21.383558 27136 net.cpp:84] Creating Layer inception_4c/5x5
I1215 22:27:21.383568 27136 net.cpp:380] inception_4c/5x5 <- inception_4c/5x5_reduce
I1215 22:27:21.383582 27136 net.cpp:338] inception_4c/5x5 -> inception_4c/5x5
I1215 22:27:21.383596 27136 net.cpp:113] Setting up inception_4c/5x5
I1215 22:27:21.384881 27136 net.cpp:120] Top shape: 32 64 14 14 (401408)
I1215 22:27:21.384902 27136 layer_factory.hpp:74] Creating layer inception_4c/relu_5x5
I1215 22:27:21.384915 27136 net.cpp:84] Creating Layer inception_4c/relu_5x5
I1215 22:27:21.384924 27136 net.cpp:380] inception_4c/relu_5x5 <- inception_4c/5x5
I1215 22:27:21.384935 27136 net.cpp:327] inception_4c/relu_5x5 -> inception_4c/5x5 (in-place)
I1215 22:27:21.384954 27136 net.cpp:113] Setting up inception_4c/relu_5x5
I1215 22:27:21.385095 27136 net.cpp:120] Top shape: 32 64 14 14 (401408)
I1215 22:27:21.385107 27136 layer_factory.hpp:74] Creating layer inception_4c/pool
I1215 22:27:21.385116 27136 layer_factory.cpp:56] CUDNN does not support padding or multiple tops. Using Caffe's own pooling layer.
I1215 22:27:21.385125 27136 net.cpp:84] Creating Layer inception_4c/pool
I1215 22:27:21.385134 27136 net.cpp:380] inception_4c/pool <- inception_4b/output_inception_4b/output_0_split_3
I1215 22:27:21.385148 27136 net.cpp:338] inception_4c/pool -> inception_4c/pool
I1215 22:27:21.385160 27136 net.cpp:113] Setting up inception_4c/pool
I1215 22:27:21.385174 27136 net.cpp:120] Top shape: 32 512 14 14 (3211264)
I1215 22:27:21.385181 27136 layer_factory.hpp:74] Creating layer inception_4c/pool_proj
I1215 22:27:21.385208 27136 net.cpp:84] Creating Layer inception_4c/pool_proj
I1215 22:27:21.385218 27136 net.cpp:380] inception_4c/pool_proj <- inception_4c/pool
I1215 22:27:21.385229 27136 net.cpp:338] inception_4c/pool_proj -> inception_4c/pool_proj
I1215 22:27:21.385242 27136 net.cpp:113] Setting up inception_4c/pool_proj
I1215 22:27:21.386824 27136 net.cpp:120] Top shape: 32 64 14 14 (401408)
I1215 22:27:21.386860 27136 layer_factory.hpp:74] Creating layer inception_4c/relu_pool_proj
I1215 22:27:21.386876 27136 net.cpp:84] Creating Layer inception_4c/relu_pool_proj
I1215 22:27:21.386886 27136 net.cpp:380] inception_4c/relu_pool_proj <- inception_4c/pool_proj
I1215 22:27:21.386898 27136 net.cpp:327] inception_4c/relu_pool_proj -> inception_4c/pool_proj (in-place)
I1215 22:27:21.386909 27136 net.cpp:113] Setting up inception_4c/relu_pool_proj
I1215 22:27:21.387022 27136 net.cpp:120] Top shape: 32 64 14 14 (401408)
I1215 22:27:21.387033 27136 layer_factory.hpp:74] Creating layer inception_4c/output
I1215 22:27:21.387043 27136 net.cpp:84] Creating Layer inception_4c/output
I1215 22:27:21.387051 27136 net.cpp:380] inception_4c/output <- inception_4c/1x1
I1215 22:27:21.387061 27136 net.cpp:380] inception_4c/output <- inception_4c/3x3
I1215 22:27:21.387070 27136 net.cpp:380] inception_4c/output <- inception_4c/5x5
I1215 22:27:21.387079 27136 net.cpp:380] inception_4c/output <- inception_4c/pool_proj
I1215 22:27:21.387090 27136 net.cpp:338] inception_4c/output -> inception_4c/output
I1215 22:27:21.387102 27136 net.cpp:113] Setting up inception_4c/output
I1215 22:27:21.387115 27136 net.cpp:120] Top shape: 32 512 14 14 (3211264)
I1215 22:27:21.387122 27136 layer_factory.hpp:74] Creating layer inception_4c/output_inception_4c/output_0_split
I1215 22:27:21.387132 27136 net.cpp:84] Creating Layer inception_4c/output_inception_4c/output_0_split
I1215 22:27:21.387140 27136 net.cpp:380] inception_4c/output_inception_4c/output_0_split <- inception_4c/output
I1215 22:27:21.387151 27136 net.cpp:338] inception_4c/output_inception_4c/output_0_split -> inception_4c/output_inception_4c/output_0_split_0
I1215 22:27:21.387162 27136 net.cpp:338] inception_4c/output_inception_4c/output_0_split -> inception_4c/output_inception_4c/output_0_split_1
I1215 22:27:21.387174 27136 net.cpp:338] inception_4c/output_inception_4c/output_0_split -> inception_4c/output_inception_4c/output_0_split_2
I1215 22:27:21.387188 27136 net.cpp:338] inception_4c/output_inception_4c/output_0_split -> inception_4c/output_inception_4c/output_0_split_3
I1215 22:27:21.387198 27136 net.cpp:113] Setting up inception_4c/output_inception_4c/output_0_split
I1215 22:27:21.387210 27136 net.cpp:120] Top shape: 32 512 14 14 (3211264)
I1215 22:27:21.387219 27136 net.cpp:120] Top shape: 32 512 14 14 (3211264)
I1215 22:27:21.387228 27136 net.cpp:120] Top shape: 32 512 14 14 (3211264)
I1215 22:27:21.387235 27136 net.cpp:120] Top shape: 32 512 14 14 (3211264)
I1215 22:27:21.387243 27136 layer_factory.hpp:74] Creating layer inception_4d/1x1
I1215 22:27:21.387265 27136 net.cpp:84] Creating Layer inception_4d/1x1
I1215 22:27:21.387275 27136 net.cpp:380] inception_4d/1x1 <- inception_4c/output_inception_4c/output_0_split_0
I1215 22:27:21.387295 27136 net.cpp:338] inception_4d/1x1 -> inception_4d/1x1
I1215 22:27:21.387318 27136 net.cpp:113] Setting up inception_4d/1x1
I1215 22:27:21.388954 27136 net.cpp:120] Top shape: 32 112 14 14 (702464)
I1215 22:27:21.388978 27136 layer_factory.hpp:74] Creating layer inception_4d/relu_1x1
I1215 22:27:21.389003 27136 net.cpp:84] Creating Layer inception_4d/relu_1x1
I1215 22:27:21.389014 27136 net.cpp:380] inception_4d/relu_1x1 <- inception_4d/1x1
I1215 22:27:21.389027 27136 net.cpp:327] inception_4d/relu_1x1 -> inception_4d/1x1 (in-place)
I1215 22:27:21.389040 27136 net.cpp:113] Setting up inception_4d/relu_1x1
I1215 22:27:21.389163 27136 net.cpp:120] Top shape: 32 112 14 14 (702464)
I1215 22:27:21.389178 27136 layer_factory.hpp:74] Creating layer inception_4d/3x3_reduce
I1215 22:27:21.389194 27136 net.cpp:84] Creating Layer inception_4d/3x3_reduce
I1215 22:27:21.389207 27136 net.cpp:380] inception_4d/3x3_reduce <- inception_4c/output_inception_4c/output_0_split_1
I1215 22:27:21.389219 27136 net.cpp:338] inception_4d/3x3_reduce -> inception_4d/3x3_reduce
I1215 22:27:21.389233 27136 net.cpp:113] Setting up inception_4d/3x3_reduce
I1215 22:27:21.392138 27136 net.cpp:120] Top shape: 32 144 14 14 (903168)
I1215 22:27:21.392169 27136 layer_factory.hpp:74] Creating layer inception_4d/relu_3x3_reduce
I1215 22:27:21.392182 27136 net.cpp:84] Creating Layer inception_4d/relu_3x3_reduce
I1215 22:27:21.392192 27136 net.cpp:380] inception_4d/relu_3x3_reduce <- inception_4d/3x3_reduce
I1215 22:27:21.392621 27136 net.cpp:327] inception_4d/relu_3x3_reduce -> inception_4d/3x3_reduce (in-place)
I1215 22:27:21.392642 27136 net.cpp:113] Setting up inception_4d/relu_3x3_reduce
I1215 22:27:21.392989 27136 net.cpp:120] Top shape: 32 144 14 14 (903168)
I1215 22:27:21.393007 27136 layer_factory.hpp:74] Creating layer inception_4d/3x3
I1215 22:27:21.393034 27136 net.cpp:84] Creating Layer inception_4d/3x3
I1215 22:27:21.393045 27136 net.cpp:380] inception_4d/3x3 <- inception_4d/3x3_reduce
I1215 22:27:21.393075 27136 net.cpp:338] inception_4d/3x3 -> inception_4d/3x3
I1215 22:27:21.393093 27136 net.cpp:113] Setting up inception_4d/3x3
I1215 22:27:21.400066 27136 net.cpp:120] Top shape: 32 288 14 14 (1806336)
I1215 22:27:21.400090 27136 layer_factory.hpp:74] Creating layer inception_4d/relu_3x3
I1215 22:27:21.400104 27136 net.cpp:84] Creating Layer inception_4d/relu_3x3
I1215 22:27:21.400113 27136 net.cpp:380] inception_4d/relu_3x3 <- inception_4d/3x3
I1215 22:27:21.400123 27136 net.cpp:327] inception_4d/relu_3x3 -> inception_4d/3x3 (in-place)
I1215 22:27:21.400135 27136 net.cpp:113] Setting up inception_4d/relu_3x3
I1215 22:27:21.400239 27136 net.cpp:120] Top shape: 32 288 14 14 (1806336)
I1215 22:27:21.400259 27136 layer_factory.hpp:74] Creating layer inception_4d/5x5_reduce
I1215 22:27:21.400277 27136 net.cpp:84] Creating Layer inception_4d/5x5_reduce
I1215 22:27:21.400286 27136 net.cpp:380] inception_4d/5x5_reduce <- inception_4c/output_inception_4c/output_0_split_2
I1215 22:27:21.400300 27136 net.cpp:338] inception_4d/5x5_reduce -> inception_4d/5x5_reduce
I1215 22:27:21.400313 27136 net.cpp:113] Setting up inception_4d/5x5_reduce
I1215 22:27:21.401161 27136 net.cpp:120] Top shape: 32 32 14 14 (200704)
I1215 22:27:21.401185 27136 layer_factory.hpp:74] Creating layer inception_4d/relu_5x5_reduce
I1215 22:27:21.401211 27136 net.cpp:84] Creating Layer inception_4d/relu_5x5_reduce
I1215 22:27:21.401221 27136 net.cpp:380] inception_4d/relu_5x5_reduce <- inception_4d/5x5_reduce
I1215 22:27:21.401232 27136 net.cpp:327] inception_4d/relu_5x5_reduce -> inception_4d/5x5_reduce (in-place)
I1215 22:27:21.401243 27136 net.cpp:113] Setting up inception_4d/relu_5x5_reduce
I1215 22:27:21.401350 27136 net.cpp:120] Top shape: 32 32 14 14 (200704)
I1215 22:27:21.401358 27136 layer_factory.hpp:74] Creating layer inception_4d/5x5
I1215 22:27:21.401371 27136 net.cpp:84] Creating Layer inception_4d/5x5
I1215 22:27:21.401379 27136 net.cpp:380] inception_4d/5x5 <- inception_4d/5x5_reduce
I1215 22:27:21.401392 27136 net.cpp:338] inception_4d/5x5 -> inception_4d/5x5
I1215 22:27:21.401415 27136 net.cpp:113] Setting up inception_4d/5x5
I1215 22:27:21.402863 27136 net.cpp:120] Top shape: 32 64 14 14 (401408)
I1215 22:27:21.402884 27136 layer_factory.hpp:74] Creating layer inception_4d/relu_5x5
I1215 22:27:21.402897 27136 net.cpp:84] Creating Layer inception_4d/relu_5x5
I1215 22:27:21.402905 27136 net.cpp:380] inception_4d/relu_5x5 <- inception_4d/5x5
I1215 22:27:21.402916 27136 net.cpp:327] inception_4d/relu_5x5 -> inception_4d/5x5 (in-place)
I1215 22:27:21.402927 27136 net.cpp:113] Setting up inception_4d/relu_5x5
I1215 22:27:21.403033 27136 net.cpp:120] Top shape: 32 64 14 14 (401408)
I1215 22:27:21.403043 27136 layer_factory.hpp:74] Creating layer inception_4d/pool
I1215 22:27:21.403059 27136 layer_factory.cpp:56] CUDNN does not support padding or multiple tops. Using Caffe's own pooling layer.
I1215 22:27:21.403070 27136 net.cpp:84] Creating Layer inception_4d/pool
I1215 22:27:21.403079 27136 net.cpp:380] inception_4d/pool <- inception_4c/output_inception_4c/output_0_split_3
I1215 22:27:21.403089 27136 net.cpp:338] inception_4d/pool -> inception_4d/pool
I1215 22:27:21.403100 27136 net.cpp:113] Setting up inception_4d/pool
I1215 22:27:21.403116 27136 net.cpp:120] Top shape: 32 512 14 14 (3211264)
I1215 22:27:21.403123 27136 layer_factory.hpp:74] Creating layer inception_4d/pool_proj
I1215 22:27:21.403142 27136 net.cpp:84] Creating Layer inception_4d/pool_proj
I1215 22:27:21.403151 27136 net.cpp:380] inception_4d/pool_proj <- inception_4d/pool
I1215 22:27:21.403164 27136 net.cpp:338] inception_4d/pool_proj -> inception_4d/pool_proj
I1215 22:27:21.403177 27136 net.cpp:113] Setting up inception_4d/pool_proj
I1215 22:27:21.404295 27136 net.cpp:120] Top shape: 32 64 14 14 (401408)
I1215 22:27:21.404317 27136 layer_factory.hpp:74] Creating layer inception_4d/relu_pool_proj
I1215 22:27:21.404330 27136 net.cpp:84] Creating Layer inception_4d/relu_pool_proj
I1215 22:27:21.404338 27136 net.cpp:380] inception_4d/relu_pool_proj <- inception_4d/pool_proj
I1215 22:27:21.404348 27136 net.cpp:327] inception_4d/relu_pool_proj -> inception_4d/pool_proj (in-place)
I1215 22:27:21.404361 27136 net.cpp:113] Setting up inception_4d/relu_pool_proj
I1215 22:27:21.404675 27136 net.cpp:120] Top shape: 32 64 14 14 (401408)
I1215 22:27:21.404690 27136 layer_factory.hpp:74] Creating layer inception_4d/output
I1215 22:27:21.404702 27136 net.cpp:84] Creating Layer inception_4d/output
I1215 22:27:21.404711 27136 net.cpp:380] inception_4d/output <- inception_4d/1x1
I1215 22:27:21.404721 27136 net.cpp:380] inception_4d/output <- inception_4d/3x3
I1215 22:27:21.404729 27136 net.cpp:380] inception_4d/output <- inception_4d/5x5
I1215 22:27:21.404737 27136 net.cpp:380] inception_4d/output <- inception_4d/pool_proj
I1215 22:27:21.404747 27136 net.cpp:338] inception_4d/output -> inception_4d/output
I1215 22:27:21.404758 27136 net.cpp:113] Setting up inception_4d/output
I1215 22:27:21.404770 27136 net.cpp:120] Top shape: 32 528 14 14 (3311616)
I1215 22:27:21.404778 27136 layer_factory.hpp:74] Creating layer inception_4d/output_inception_4d/output_0_split
I1215 22:27:21.404788 27136 net.cpp:84] Creating Layer inception_4d/output_inception_4d/output_0_split
I1215 22:27:21.404794 27136 net.cpp:380] inception_4d/output_inception_4d/output_0_split <- inception_4d/output
I1215 22:27:21.404808 27136 net.cpp:338] inception_4d/output_inception_4d/output_0_split -> inception_4d/output_inception_4d/output_0_split_0
I1215 22:27:21.404819 27136 net.cpp:338] inception_4d/output_inception_4d/output_0_split -> inception_4d/output_inception_4d/output_0_split_1
I1215 22:27:21.404829 27136 net.cpp:338] inception_4d/output_inception_4d/output_0_split -> inception_4d/output_inception_4d/output_0_split_2
I1215 22:27:21.404840 27136 net.cpp:338] inception_4d/output_inception_4d/output_0_split -> inception_4d/output_inception_4d/output_0_split_3
I1215 22:27:21.404851 27136 net.cpp:338] inception_4d/output_inception_4d/output_0_split -> inception_4d/output_inception_4d/output_0_split_4
I1215 22:27:21.404861 27136 net.cpp:113] Setting up inception_4d/output_inception_4d/output_0_split
I1215 22:27:21.404882 27136 net.cpp:120] Top shape: 32 528 14 14 (3311616)
I1215 22:27:21.404899 27136 net.cpp:120] Top shape: 32 528 14 14 (3311616)
I1215 22:27:21.404907 27136 net.cpp:120] Top shape: 32 528 14 14 (3311616)
I1215 22:27:21.404916 27136 net.cpp:120] Top shape: 32 528 14 14 (3311616)
I1215 22:27:21.404922 27136 net.cpp:120] Top shape: 32 528 14 14 (3311616)
I1215 22:27:21.404938 27136 layer_factory.hpp:74] Creating layer loss2/ave_pool
I1215 22:27:21.404956 27136 net.cpp:84] Creating Layer loss2/ave_pool
I1215 22:27:21.404965 27136 net.cpp:380] loss2/ave_pool <- inception_4d/output_inception_4d/output_0_split_0
I1215 22:27:21.404975 27136 net.cpp:338] loss2/ave_pool -> loss2/ave_pool
I1215 22:27:21.404986 27136 net.cpp:113] Setting up loss2/ave_pool
I1215 22:27:21.405117 27136 net.cpp:120] Top shape: 32 528 4 4 (270336)
I1215 22:27:21.405128 27136 layer_factory.hpp:74] Creating layer loss2/conv
I1215 22:27:21.405139 27136 net.cpp:84] Creating Layer loss2/conv
I1215 22:27:21.405148 27136 net.cpp:380] loss2/conv <- loss2/ave_pool
I1215 22:27:21.405160 27136 net.cpp:338] loss2/conv -> loss2/conv
I1215 22:27:21.405172 27136 net.cpp:113] Setting up loss2/conv
I1215 22:27:21.406807 27136 net.cpp:120] Top shape: 32 128 4 4 (65536)
I1215 22:27:21.406827 27136 layer_factory.hpp:74] Creating layer loss2/relu_conv
I1215 22:27:21.406841 27136 net.cpp:84] Creating Layer loss2/relu_conv
I1215 22:27:21.406848 27136 net.cpp:380] loss2/relu_conv <- loss2/conv
I1215 22:27:21.406858 27136 net.cpp:327] loss2/relu_conv -> loss2/conv (in-place)
I1215 22:27:21.406868 27136 net.cpp:113] Setting up loss2/relu_conv
I1215 22:27:21.406965 27136 net.cpp:120] Top shape: 32 128 4 4 (65536)
I1215 22:27:21.406973 27136 layer_factory.hpp:74] Creating layer loss2/fc
I1215 22:27:21.406996 27136 net.cpp:84] Creating Layer loss2/fc
I1215 22:27:21.407006 27136 net.cpp:380] loss2/fc <- loss2/conv
I1215 22:27:21.407016 27136 net.cpp:338] loss2/fc -> loss2/fc
I1215 22:27:21.407027 27136 net.cpp:113] Setting up loss2/fc
I1215 22:27:21.438894 27136 net.cpp:120] Top shape: 32 1024 (32768)
I1215 22:27:21.438922 27136 layer_factory.hpp:74] Creating layer loss2/relu_fc
I1215 22:27:21.438943 27136 net.cpp:84] Creating Layer loss2/relu_fc
I1215 22:27:21.438952 27136 net.cpp:380] loss2/relu_fc <- loss2/fc
I1215 22:27:21.438961 27136 net.cpp:327] loss2/relu_fc -> loss2/fc (in-place)
I1215 22:27:21.438971 27136 net.cpp:113] Setting up loss2/relu_fc
I1215 22:27:21.439280 27136 net.cpp:120] Top shape: 32 1024 (32768)
I1215 22:27:21.439296 27136 layer_factory.hpp:74] Creating layer loss2/drop_fc
I1215 22:27:21.439304 27136 net.cpp:84] Creating Layer loss2/drop_fc
I1215 22:27:21.439311 27136 net.cpp:380] loss2/drop_fc <- loss2/fc
I1215 22:27:21.439321 27136 net.cpp:327] loss2/drop_fc -> loss2/fc (in-place)
I1215 22:27:21.439330 27136 net.cpp:113] Setting up loss2/drop_fc
I1215 22:27:21.439339 27136 net.cpp:120] Top shape: 32 1024 (32768)
I1215 22:27:21.439344 27136 layer_factory.hpp:74] Creating layer loss2/classifier_kaggle
I1215 22:27:21.439353 27136 net.cpp:84] Creating Layer loss2/classifier_kaggle
I1215 22:27:21.439358 27136 net.cpp:380] loss2/classifier_kaggle <- loss2/fc
I1215 22:27:21.439366 27136 net.cpp:338] loss2/classifier_kaggle -> loss2/classifier_kaggle
I1215 22:27:21.439376 27136 net.cpp:113] Setting up loss2/classifier_kaggle
I1215 22:27:21.445425 27136 net.cpp:120] Top shape: 32 447 (14304)
I1215 22:27:21.445441 27136 layer_factory.hpp:74] Creating layer loss2/loss
I1215 22:27:21.445458 27136 net.cpp:84] Creating Layer loss2/loss
I1215 22:27:21.445466 27136 net.cpp:380] loss2/loss <- loss2/classifier_kaggle
I1215 22:27:21.445475 27136 net.cpp:380] loss2/loss <- label_data_1_split_1
I1215 22:27:21.445482 27136 net.cpp:338] loss2/loss -> loss2/loss1
I1215 22:27:21.445492 27136 net.cpp:113] Setting up loss2/loss
I1215 22:27:21.445499 27136 layer_factory.hpp:74] Creating layer loss2/loss
I1215 22:27:21.445641 27136 net.cpp:120] Top shape: (1)
I1215 22:27:21.445650 27136 net.cpp:122]     with loss weight 0.3
I1215 22:27:21.445667 27136 layer_factory.hpp:74] Creating layer inception_4e/1x1
I1215 22:27:21.445703 27136 net.cpp:84] Creating Layer inception_4e/1x1
I1215 22:27:21.445710 27136 net.cpp:380] inception_4e/1x1 <- inception_4d/output_inception_4d/output_0_split_1
I1215 22:27:21.445721 27136 net.cpp:338] inception_4e/1x1 -> inception_4e/1x1
I1215 22:27:21.445732 27136 net.cpp:113] Setting up inception_4e/1x1
I1215 22:27:21.447975 27136 net.cpp:120] Top shape: 32 256 14 14 (1605632)
I1215 22:27:21.447993 27136 layer_factory.hpp:74] Creating layer inception_4e/relu_1x1
I1215 22:27:21.448001 27136 net.cpp:84] Creating Layer inception_4e/relu_1x1
I1215 22:27:21.448009 27136 net.cpp:380] inception_4e/relu_1x1 <- inception_4e/1x1
I1215 22:27:21.448019 27136 net.cpp:327] inception_4e/relu_1x1 -> inception_4e/1x1 (in-place)
I1215 22:27:21.448027 27136 net.cpp:113] Setting up inception_4e/relu_1x1
I1215 22:27:21.448107 27136 net.cpp:120] Top shape: 32 256 14 14 (1605632)
I1215 22:27:21.448114 27136 layer_factory.hpp:74] Creating layer inception_4e/3x3_reduce
I1215 22:27:21.448127 27136 net.cpp:84] Creating Layer inception_4e/3x3_reduce
I1215 22:27:21.448132 27136 net.cpp:380] inception_4e/3x3_reduce <- inception_4d/output_inception_4d/output_0_split_2
I1215 22:27:21.448140 27136 net.cpp:338] inception_4e/3x3_reduce -> inception_4e/3x3_reduce
I1215 22:27:21.448149 27136 net.cpp:113] Setting up inception_4e/3x3_reduce
I1215 22:27:21.449738 27136 net.cpp:120] Top shape: 32 160 14 14 (1003520)
I1215 22:27:21.449756 27136 layer_factory.hpp:74] Creating layer inception_4e/relu_3x3_reduce
I1215 22:27:21.449767 27136 net.cpp:84] Creating Layer inception_4e/relu_3x3_reduce
I1215 22:27:21.449774 27136 net.cpp:380] inception_4e/relu_3x3_reduce <- inception_4e/3x3_reduce
I1215 22:27:21.449782 27136 net.cpp:327] inception_4e/relu_3x3_reduce -> inception_4e/3x3_reduce (in-place)
I1215 22:27:21.449791 27136 net.cpp:113] Setting up inception_4e/relu_3x3_reduce
I1215 22:27:21.449877 27136 net.cpp:120] Top shape: 32 160 14 14 (1003520)
I1215 22:27:21.449884 27136 layer_factory.hpp:74] Creating layer inception_4e/3x3
I1215 22:27:21.449905 27136 net.cpp:84] Creating Layer inception_4e/3x3
I1215 22:27:21.449913 27136 net.cpp:380] inception_4e/3x3 <- inception_4e/3x3_reduce
I1215 22:27:21.449923 27136 net.cpp:338] inception_4e/3x3 -> inception_4e/3x3
I1215 22:27:21.449933 27136 net.cpp:113] Setting up inception_4e/3x3
I1215 22:27:21.456339 27136 net.cpp:120] Top shape: 32 320 14 14 (2007040)
I1215 22:27:21.456357 27136 layer_factory.hpp:74] Creating layer inception_4e/relu_3x3
I1215 22:27:21.456378 27136 net.cpp:84] Creating Layer inception_4e/relu_3x3
I1215 22:27:21.456385 27136 net.cpp:380] inception_4e/relu_3x3 <- inception_4e/3x3
I1215 22:27:21.456393 27136 net.cpp:327] inception_4e/relu_3x3 -> inception_4e/3x3 (in-place)
I1215 22:27:21.456401 27136 net.cpp:113] Setting up inception_4e/relu_3x3
I1215 22:27:21.456658 27136 net.cpp:120] Top shape: 32 320 14 14 (2007040)
I1215 22:27:21.456670 27136 layer_factory.hpp:74] Creating layer inception_4e/5x5_reduce
I1215 22:27:21.456679 27136 net.cpp:84] Creating Layer inception_4e/5x5_reduce
I1215 22:27:21.456686 27136 net.cpp:380] inception_4e/5x5_reduce <- inception_4d/output_inception_4d/output_0_split_3
I1215 22:27:21.456696 27136 net.cpp:338] inception_4e/5x5_reduce -> inception_4e/5x5_reduce
I1215 22:27:21.456707 27136 net.cpp:113] Setting up inception_4e/5x5_reduce
I1215 22:27:21.457384 27136 net.cpp:120] Top shape: 32 32 14 14 (200704)
I1215 22:27:21.457402 27136 layer_factory.hpp:74] Creating layer inception_4e/relu_5x5_reduce
I1215 22:27:21.457420 27136 net.cpp:84] Creating Layer inception_4e/relu_5x5_reduce
I1215 22:27:21.457427 27136 net.cpp:380] inception_4e/relu_5x5_reduce <- inception_4e/5x5_reduce
I1215 22:27:21.457435 27136 net.cpp:327] inception_4e/relu_5x5_reduce -> inception_4e/5x5_reduce (in-place)
I1215 22:27:21.457443 27136 net.cpp:113] Setting up inception_4e/relu_5x5_reduce
I1215 22:27:21.457527 27136 net.cpp:120] Top shape: 32 32 14 14 (200704)
I1215 22:27:21.457535 27136 layer_factory.hpp:74] Creating layer inception_4e/5x5
I1215 22:27:21.457574 27136 net.cpp:84] Creating Layer inception_4e/5x5
I1215 22:27:21.457582 27136 net.cpp:380] inception_4e/5x5 <- inception_4e/5x5_reduce
I1215 22:27:21.457592 27136 net.cpp:338] inception_4e/5x5 -> inception_4e/5x5
I1215 22:27:21.457602 27136 net.cpp:113] Setting up inception_4e/5x5
I1215 22:27:21.459327 27136 net.cpp:120] Top shape: 32 128 14 14 (802816)
I1215 22:27:21.459343 27136 layer_factory.hpp:74] Creating layer inception_4e/relu_5x5
I1215 22:27:21.459353 27136 net.cpp:84] Creating Layer inception_4e/relu_5x5
I1215 22:27:21.459360 27136 net.cpp:380] inception_4e/relu_5x5 <- inception_4e/5x5
I1215 22:27:21.459367 27136 net.cpp:327] inception_4e/relu_5x5 -> inception_4e/5x5 (in-place)
I1215 22:27:21.459375 27136 net.cpp:113] Setting up inception_4e/relu_5x5
I1215 22:27:21.459455 27136 net.cpp:120] Top shape: 32 128 14 14 (802816)
I1215 22:27:21.459470 27136 layer_factory.hpp:74] Creating layer inception_4e/pool
I1215 22:27:21.459476 27136 layer_factory.cpp:56] CUDNN does not support padding or multiple tops. Using Caffe's own pooling layer.
I1215 22:27:21.459483 27136 net.cpp:84] Creating Layer inception_4e/pool
I1215 22:27:21.459489 27136 net.cpp:380] inception_4e/pool <- inception_4d/output_inception_4d/output_0_split_4
I1215 22:27:21.459497 27136 net.cpp:338] inception_4e/pool -> inception_4e/pool
I1215 22:27:21.459506 27136 net.cpp:113] Setting up inception_4e/pool
I1215 22:27:21.459516 27136 net.cpp:120] Top shape: 32 528 14 14 (3311616)
I1215 22:27:21.459520 27136 layer_factory.hpp:74] Creating layer inception_4e/pool_proj
I1215 22:27:21.459538 27136 net.cpp:84] Creating Layer inception_4e/pool_proj
I1215 22:27:21.459545 27136 net.cpp:380] inception_4e/pool_proj <- inception_4e/pool
I1215 22:27:21.459555 27136 net.cpp:338] inception_4e/pool_proj -> inception_4e/pool_proj
I1215 22:27:21.459564 27136 net.cpp:113] Setting up inception_4e/pool_proj
I1215 22:27:21.460862 27136 net.cpp:120] Top shape: 32 128 14 14 (802816)
I1215 22:27:21.460878 27136 layer_factory.hpp:74] Creating layer inception_4e/relu_pool_proj
I1215 22:27:21.460887 27136 net.cpp:84] Creating Layer inception_4e/relu_pool_proj
I1215 22:27:21.460894 27136 net.cpp:380] inception_4e/relu_pool_proj <- inception_4e/pool_proj
I1215 22:27:21.460901 27136 net.cpp:327] inception_4e/relu_pool_proj -> inception_4e/pool_proj (in-place)
I1215 22:27:21.460911 27136 net.cpp:113] Setting up inception_4e/relu_pool_proj
I1215 22:27:21.460986 27136 net.cpp:120] Top shape: 32 128 14 14 (802816)
I1215 22:27:21.460995 27136 layer_factory.hpp:74] Creating layer inception_4e/output
I1215 22:27:21.461010 27136 net.cpp:84] Creating Layer inception_4e/output
I1215 22:27:21.461017 27136 net.cpp:380] inception_4e/output <- inception_4e/1x1
I1215 22:27:21.461024 27136 net.cpp:380] inception_4e/output <- inception_4e/3x3
I1215 22:27:21.461030 27136 net.cpp:380] inception_4e/output <- inception_4e/5x5
I1215 22:27:21.461036 27136 net.cpp:380] inception_4e/output <- inception_4e/pool_proj
I1215 22:27:21.461043 27136 net.cpp:338] inception_4e/output -> inception_4e/output
I1215 22:27:21.461067 27136 net.cpp:113] Setting up inception_4e/output
I1215 22:27:21.461084 27136 net.cpp:120] Top shape: 32 832 14 14 (5218304)
I1215 22:27:21.461102 27136 layer_factory.hpp:74] Creating layer pool4/3x3_s2
I1215 22:27:21.461114 27136 net.cpp:84] Creating Layer pool4/3x3_s2
I1215 22:27:21.461123 27136 net.cpp:380] pool4/3x3_s2 <- inception_4e/output
I1215 22:27:21.461135 27136 net.cpp:338] pool4/3x3_s2 -> pool4/3x3_s2
I1215 22:27:21.461145 27136 net.cpp:113] Setting up pool4/3x3_s2
I1215 22:27:21.461413 27136 net.cpp:120] Top shape: 32 832 7 7 (1304576)
I1215 22:27:21.461426 27136 layer_factory.hpp:74] Creating layer pool4/3x3_s2_pool4/3x3_s2_0_split
I1215 22:27:21.461433 27136 net.cpp:84] Creating Layer pool4/3x3_s2_pool4/3x3_s2_0_split
I1215 22:27:21.461439 27136 net.cpp:380] pool4/3x3_s2_pool4/3x3_s2_0_split <- pool4/3x3_s2
I1215 22:27:21.461449 27136 net.cpp:338] pool4/3x3_s2_pool4/3x3_s2_0_split -> pool4/3x3_s2_pool4/3x3_s2_0_split_0
I1215 22:27:21.461464 27136 net.cpp:338] pool4/3x3_s2_pool4/3x3_s2_0_split -> pool4/3x3_s2_pool4/3x3_s2_0_split_1
I1215 22:27:21.461480 27136 net.cpp:338] pool4/3x3_s2_pool4/3x3_s2_0_split -> pool4/3x3_s2_pool4/3x3_s2_0_split_2
I1215 22:27:21.461488 27136 net.cpp:338] pool4/3x3_s2_pool4/3x3_s2_0_split -> pool4/3x3_s2_pool4/3x3_s2_0_split_3
I1215 22:27:21.461495 27136 net.cpp:113] Setting up pool4/3x3_s2_pool4/3x3_s2_0_split
I1215 22:27:21.461503 27136 net.cpp:120] Top shape: 32 832 7 7 (1304576)
I1215 22:27:21.461509 27136 net.cpp:120] Top shape: 32 832 7 7 (1304576)
I1215 22:27:21.461515 27136 net.cpp:120] Top shape: 32 832 7 7 (1304576)
I1215 22:27:21.461521 27136 net.cpp:120] Top shape: 32 832 7 7 (1304576)
I1215 22:27:21.461525 27136 layer_factory.hpp:74] Creating layer inception_5a/1x1
I1215 22:27:21.461536 27136 net.cpp:84] Creating Layer inception_5a/1x1
I1215 22:27:21.461542 27136 net.cpp:380] inception_5a/1x1 <- pool4/3x3_s2_pool4/3x3_s2_0_split_0
I1215 22:27:21.461550 27136 net.cpp:338] inception_5a/1x1 -> inception_5a/1x1
I1215 22:27:21.461558 27136 net.cpp:113] Setting up inception_5a/1x1
I1215 22:27:21.464746 27136 net.cpp:120] Top shape: 32 256 7 7 (401408)
I1215 22:27:21.464766 27136 layer_factory.hpp:74] Creating layer inception_5a/relu_1x1
I1215 22:27:21.464776 27136 net.cpp:84] Creating Layer inception_5a/relu_1x1
I1215 22:27:21.464782 27136 net.cpp:380] inception_5a/relu_1x1 <- inception_5a/1x1
I1215 22:27:21.464789 27136 net.cpp:327] inception_5a/relu_1x1 -> inception_5a/1x1 (in-place)
I1215 22:27:21.464797 27136 net.cpp:113] Setting up inception_5a/relu_1x1
I1215 22:27:21.464874 27136 net.cpp:120] Top shape: 32 256 7 7 (401408)
I1215 22:27:21.464882 27136 layer_factory.hpp:74] Creating layer inception_5a/3x3_reduce
I1215 22:27:21.464905 27136 net.cpp:84] Creating Layer inception_5a/3x3_reduce
I1215 22:27:21.464912 27136 net.cpp:380] inception_5a/3x3_reduce <- pool4/3x3_s2_pool4/3x3_s2_0_split_1
I1215 22:27:21.464925 27136 net.cpp:338] inception_5a/3x3_reduce -> inception_5a/3x3_reduce
I1215 22:27:21.464936 27136 net.cpp:113] Setting up inception_5a/3x3_reduce
I1215 22:27:21.467036 27136 net.cpp:120] Top shape: 32 160 7 7 (250880)
I1215 22:27:21.467053 27136 layer_factory.hpp:74] Creating layer inception_5a/relu_3x3_reduce
I1215 22:27:21.467066 27136 net.cpp:84] Creating Layer inception_5a/relu_3x3_reduce
I1215 22:27:21.467072 27136 net.cpp:380] inception_5a/relu_3x3_reduce <- inception_5a/3x3_reduce
I1215 22:27:21.467079 27136 net.cpp:327] inception_5a/relu_3x3_reduce -> inception_5a/3x3_reduce (in-place)
I1215 22:27:21.467088 27136 net.cpp:113] Setting up inception_5a/relu_3x3_reduce
I1215 22:27:21.467164 27136 net.cpp:120] Top shape: 32 160 7 7 (250880)
I1215 22:27:21.467170 27136 layer_factory.hpp:74] Creating layer inception_5a/3x3
I1215 22:27:21.467180 27136 net.cpp:84] Creating Layer inception_5a/3x3
I1215 22:27:21.467185 27136 net.cpp:380] inception_5a/3x3 <- inception_5a/3x3_reduce
I1215 22:27:21.467195 27136 net.cpp:338] inception_5a/3x3 -> inception_5a/3x3
I1215 22:27:21.467203 27136 net.cpp:113] Setting up inception_5a/3x3
I1215 22:27:21.476156 27136 net.cpp:120] Top shape: 32 320 7 7 (501760)
I1215 22:27:21.476178 27136 layer_factory.hpp:74] Creating layer inception_5a/relu_3x3
I1215 22:27:21.476197 27136 net.cpp:84] Creating Layer inception_5a/relu_3x3
I1215 22:27:21.476205 27136 net.cpp:380] inception_5a/relu_3x3 <- inception_5a/3x3
I1215 22:27:21.476213 27136 net.cpp:327] inception_5a/relu_3x3 -> inception_5a/3x3 (in-place)
I1215 22:27:21.476222 27136 net.cpp:113] Setting up inception_5a/relu_3x3
I1215 22:27:21.476302 27136 net.cpp:120] Top shape: 32 320 7 7 (501760)
I1215 22:27:21.476311 27136 layer_factory.hpp:74] Creating layer inception_5a/5x5_reduce
I1215 22:27:21.476322 27136 net.cpp:84] Creating Layer inception_5a/5x5_reduce
I1215 22:27:21.476328 27136 net.cpp:380] inception_5a/5x5_reduce <- pool4/3x3_s2_pool4/3x3_s2_0_split_2
I1215 22:27:21.476336 27136 net.cpp:338] inception_5a/5x5_reduce -> inception_5a/5x5_reduce
I1215 22:27:21.476346 27136 net.cpp:113] Setting up inception_5a/5x5_reduce
I1215 22:27:21.477138 27136 net.cpp:120] Top shape: 32 32 7 7 (50176)
I1215 22:27:21.477164 27136 layer_factory.hpp:74] Creating layer inception_5a/relu_5x5_reduce
I1215 22:27:21.477182 27136 net.cpp:84] Creating Layer inception_5a/relu_5x5_reduce
I1215 22:27:21.477190 27136 net.cpp:380] inception_5a/relu_5x5_reduce <- inception_5a/5x5_reduce
I1215 22:27:21.477198 27136 net.cpp:327] inception_5a/relu_5x5_reduce -> inception_5a/5x5_reduce (in-place)
I1215 22:27:21.477216 27136 net.cpp:113] Setting up inception_5a/relu_5x5_reduce
I1215 22:27:21.477466 27136 net.cpp:120] Top shape: 32 32 7 7 (50176)
I1215 22:27:21.477478 27136 layer_factory.hpp:74] Creating layer inception_5a/5x5
I1215 22:27:21.477495 27136 net.cpp:84] Creating Layer inception_5a/5x5
I1215 22:27:21.477504 27136 net.cpp:380] inception_5a/5x5 <- inception_5a/5x5_reduce
I1215 22:27:21.477511 27136 net.cpp:338] inception_5a/5x5 -> inception_5a/5x5
I1215 22:27:21.477521 27136 net.cpp:113] Setting up inception_5a/5x5
I1215 22:27:21.479166 27136 net.cpp:120] Top shape: 32 128 7 7 (200704)
I1215 22:27:21.479182 27136 layer_factory.hpp:74] Creating layer inception_5a/relu_5x5
I1215 22:27:21.479189 27136 net.cpp:84] Creating Layer inception_5a/relu_5x5
I1215 22:27:21.479195 27136 net.cpp:380] inception_5a/relu_5x5 <- inception_5a/5x5
I1215 22:27:21.479204 27136 net.cpp:327] inception_5a/relu_5x5 -> inception_5a/5x5 (in-place)
I1215 22:27:21.479212 27136 net.cpp:113] Setting up inception_5a/relu_5x5
I1215 22:27:21.479287 27136 net.cpp:120] Top shape: 32 128 7 7 (200704)
I1215 22:27:21.479293 27136 layer_factory.hpp:74] Creating layer inception_5a/pool
I1215 22:27:21.479300 27136 layer_factory.cpp:56] CUDNN does not support padding or multiple tops. Using Caffe's own pooling layer.
I1215 22:27:21.479310 27136 net.cpp:84] Creating Layer inception_5a/pool
I1215 22:27:21.479315 27136 net.cpp:380] inception_5a/pool <- pool4/3x3_s2_pool4/3x3_s2_0_split_3
I1215 22:27:21.479322 27136 net.cpp:338] inception_5a/pool -> inception_5a/pool
I1215 22:27:21.479331 27136 net.cpp:113] Setting up inception_5a/pool
I1215 22:27:21.479341 27136 net.cpp:120] Top shape: 32 832 7 7 (1304576)
I1215 22:27:21.479346 27136 layer_factory.hpp:74] Creating layer inception_5a/pool_proj
I1215 22:27:21.479360 27136 net.cpp:84] Creating Layer inception_5a/pool_proj
I1215 22:27:21.479367 27136 net.cpp:380] inception_5a/pool_proj <- inception_5a/pool
I1215 22:27:21.479374 27136 net.cpp:338] inception_5a/pool_proj -> inception_5a/pool_proj
I1215 22:27:21.479382 27136 net.cpp:113] Setting up inception_5a/pool_proj
I1215 22:27:21.481037 27136 net.cpp:120] Top shape: 32 128 7 7 (200704)
I1215 22:27:21.481053 27136 layer_factory.hpp:74] Creating layer inception_5a/relu_pool_proj
I1215 22:27:21.481082 27136 net.cpp:84] Creating Layer inception_5a/relu_pool_proj
I1215 22:27:21.481092 27136 net.cpp:380] inception_5a/relu_pool_proj <- inception_5a/pool_proj
I1215 22:27:21.481106 27136 net.cpp:327] inception_5a/relu_pool_proj -> inception_5a/pool_proj (in-place)
I1215 22:27:21.481118 27136 net.cpp:113] Setting up inception_5a/relu_pool_proj
I1215 22:27:21.481194 27136 net.cpp:120] Top shape: 32 128 7 7 (200704)
I1215 22:27:21.481201 27136 layer_factory.hpp:74] Creating layer inception_5a/output
I1215 22:27:21.481209 27136 net.cpp:84] Creating Layer inception_5a/output
I1215 22:27:21.481214 27136 net.cpp:380] inception_5a/output <- inception_5a/1x1
I1215 22:27:21.481220 27136 net.cpp:380] inception_5a/output <- inception_5a/3x3
I1215 22:27:21.481225 27136 net.cpp:380] inception_5a/output <- inception_5a/5x5
I1215 22:27:21.481230 27136 net.cpp:380] inception_5a/output <- inception_5a/pool_proj
I1215 22:27:21.481238 27136 net.cpp:338] inception_5a/output -> inception_5a/output
I1215 22:27:21.481246 27136 net.cpp:113] Setting up inception_5a/output
I1215 22:27:21.481254 27136 net.cpp:120] Top shape: 32 832 7 7 (1304576)
I1215 22:27:21.481259 27136 layer_factory.hpp:74] Creating layer inception_5a/output_inception_5a/output_0_split
I1215 22:27:21.481266 27136 net.cpp:84] Creating Layer inception_5a/output_inception_5a/output_0_split
I1215 22:27:21.481276 27136 net.cpp:380] inception_5a/output_inception_5a/output_0_split <- inception_5a/output
I1215 22:27:21.481290 27136 net.cpp:338] inception_5a/output_inception_5a/output_0_split -> inception_5a/output_inception_5a/output_0_split_0
I1215 22:27:21.481298 27136 net.cpp:338] inception_5a/output_inception_5a/output_0_split -> inception_5a/output_inception_5a/output_0_split_1
I1215 22:27:21.481308 27136 net.cpp:338] inception_5a/output_inception_5a/output_0_split -> inception_5a/output_inception_5a/output_0_split_2
I1215 22:27:21.481317 27136 net.cpp:338] inception_5a/output_inception_5a/output_0_split -> inception_5a/output_inception_5a/output_0_split_3
I1215 22:27:21.481323 27136 net.cpp:113] Setting up inception_5a/output_inception_5a/output_0_split
I1215 22:27:21.481330 27136 net.cpp:120] Top shape: 32 832 7 7 (1304576)
I1215 22:27:21.481336 27136 net.cpp:120] Top shape: 32 832 7 7 (1304576)
I1215 22:27:21.481341 27136 net.cpp:120] Top shape: 32 832 7 7 (1304576)
I1215 22:27:21.481346 27136 net.cpp:120] Top shape: 32 832 7 7 (1304576)
I1215 22:27:21.481351 27136 layer_factory.hpp:74] Creating layer inception_5b/1x1
I1215 22:27:21.481360 27136 net.cpp:84] Creating Layer inception_5b/1x1
I1215 22:27:21.481365 27136 net.cpp:380] inception_5b/1x1 <- inception_5a/output_inception_5a/output_0_split_0
I1215 22:27:21.481372 27136 net.cpp:338] inception_5b/1x1 -> inception_5b/1x1
I1215 22:27:21.481380 27136 net.cpp:113] Setting up inception_5b/1x1
I1215 22:27:21.485559 27136 net.cpp:120] Top shape: 32 384 7 7 (602112)
I1215 22:27:21.485584 27136 layer_factory.hpp:74] Creating layer inception_5b/relu_1x1
I1215 22:27:21.485600 27136 net.cpp:84] Creating Layer inception_5b/relu_1x1
I1215 22:27:21.485607 27136 net.cpp:380] inception_5b/relu_1x1 <- inception_5b/1x1
I1215 22:27:21.485615 27136 net.cpp:327] inception_5b/relu_1x1 -> inception_5b/1x1 (in-place)
I1215 22:27:21.485623 27136 net.cpp:113] Setting up inception_5b/relu_1x1
I1215 22:27:21.485869 27136 net.cpp:120] Top shape: 32 384 7 7 (602112)
I1215 22:27:21.485880 27136 layer_factory.hpp:74] Creating layer inception_5b/3x3_reduce
I1215 22:27:21.485891 27136 net.cpp:84] Creating Layer inception_5b/3x3_reduce
I1215 22:27:21.485898 27136 net.cpp:380] inception_5b/3x3_reduce <- inception_5a/output_inception_5a/output_0_split_1
I1215 22:27:21.485905 27136 net.cpp:338] inception_5b/3x3_reduce -> inception_5b/3x3_reduce
I1215 22:27:21.485914 27136 net.cpp:113] Setting up inception_5b/3x3_reduce
I1215 22:27:21.488180 27136 net.cpp:120] Top shape: 32 192 7 7 (301056)
I1215 22:27:21.488195 27136 layer_factory.hpp:74] Creating layer inception_5b/relu_3x3_reduce
I1215 22:27:21.488203 27136 net.cpp:84] Creating Layer inception_5b/relu_3x3_reduce
I1215 22:27:21.488209 27136 net.cpp:380] inception_5b/relu_3x3_reduce <- inception_5b/3x3_reduce
I1215 22:27:21.488215 27136 net.cpp:327] inception_5b/relu_3x3_reduce -> inception_5b/3x3_reduce (in-place)
I1215 22:27:21.488224 27136 net.cpp:113] Setting up inception_5b/relu_3x3_reduce
I1215 22:27:21.488297 27136 net.cpp:120] Top shape: 32 192 7 7 (301056)
I1215 22:27:21.488308 27136 layer_factory.hpp:74] Creating layer inception_5b/3x3
I1215 22:27:21.488323 27136 net.cpp:84] Creating Layer inception_5b/3x3
I1215 22:27:21.488329 27136 net.cpp:380] inception_5b/3x3 <- inception_5b/3x3_reduce
I1215 22:27:21.488338 27136 net.cpp:338] inception_5b/3x3 -> inception_5b/3x3
I1215 22:27:21.488364 27136 net.cpp:113] Setting up inception_5b/3x3
I1215 22:27:21.496491 27136 net.cpp:120] Top shape: 32 384 7 7 (602112)
I1215 22:27:21.496510 27136 layer_factory.hpp:74] Creating layer inception_5b/relu_3x3
I1215 22:27:21.496516 27136 net.cpp:84] Creating Layer inception_5b/relu_3x3
I1215 22:27:21.496522 27136 net.cpp:380] inception_5b/relu_3x3 <- inception_5b/3x3
I1215 22:27:21.496531 27136 net.cpp:327] inception_5b/relu_3x3 -> inception_5b/3x3 (in-place)
I1215 22:27:21.496538 27136 net.cpp:113] Setting up inception_5b/relu_3x3
I1215 22:27:21.496610 27136 net.cpp:120] Top shape: 32 384 7 7 (602112)
I1215 22:27:21.496623 27136 layer_factory.hpp:74] Creating layer inception_5b/5x5_reduce
I1215 22:27:21.496639 27136 net.cpp:84] Creating Layer inception_5b/5x5_reduce
I1215 22:27:21.496644 27136 net.cpp:380] inception_5b/5x5_reduce <- inception_5a/output_inception_5a/output_0_split_2
I1215 22:27:21.496654 27136 net.cpp:338] inception_5b/5x5_reduce -> inception_5b/5x5_reduce
I1215 22:27:21.496662 27136 net.cpp:113] Setting up inception_5b/5x5_reduce
I1215 22:27:21.497561 27136 net.cpp:120] Top shape: 32 48 7 7 (75264)
I1215 22:27:21.497578 27136 layer_factory.hpp:74] Creating layer inception_5b/relu_5x5_reduce
I1215 22:27:21.497586 27136 net.cpp:84] Creating Layer inception_5b/relu_5x5_reduce
I1215 22:27:21.497592 27136 net.cpp:380] inception_5b/relu_5x5_reduce <- inception_5b/5x5_reduce
I1215 22:27:21.497601 27136 net.cpp:327] inception_5b/relu_5x5_reduce -> inception_5b/5x5_reduce (in-place)
I1215 22:27:21.497609 27136 net.cpp:113] Setting up inception_5b/relu_5x5_reduce
I1215 22:27:21.497681 27136 net.cpp:120] Top shape: 32 48 7 7 (75264)
I1215 22:27:21.497689 27136 layer_factory.hpp:74] Creating layer inception_5b/5x5
I1215 22:27:21.497707 27136 net.cpp:84] Creating Layer inception_5b/5x5
I1215 22:27:21.497714 27136 net.cpp:380] inception_5b/5x5 <- inception_5b/5x5_reduce
I1215 22:27:21.497723 27136 net.cpp:338] inception_5b/5x5 -> inception_5b/5x5
I1215 22:27:21.497732 27136 net.cpp:113] Setting up inception_5b/5x5
I1215 22:27:21.499919 27136 net.cpp:120] Top shape: 32 128 7 7 (200704)
I1215 22:27:21.499934 27136 layer_factory.hpp:74] Creating layer inception_5b/relu_5x5
I1215 22:27:21.499941 27136 net.cpp:84] Creating Layer inception_5b/relu_5x5
I1215 22:27:21.499948 27136 net.cpp:380] inception_5b/relu_5x5 <- inception_5b/5x5
I1215 22:27:21.499956 27136 net.cpp:327] inception_5b/relu_5x5 -> inception_5b/5x5 (in-place)
I1215 22:27:21.499964 27136 net.cpp:113] Setting up inception_5b/relu_5x5
I1215 22:27:21.500210 27136 net.cpp:120] Top shape: 32 128 7 7 (200704)
I1215 22:27:21.500221 27136 layer_factory.hpp:74] Creating layer inception_5b/pool
I1215 22:27:21.500228 27136 layer_factory.cpp:56] CUDNN does not support padding or multiple tops. Using Caffe's own pooling layer.
I1215 22:27:21.500234 27136 net.cpp:84] Creating Layer inception_5b/pool
I1215 22:27:21.500241 27136 net.cpp:380] inception_5b/pool <- inception_5a/output_inception_5a/output_0_split_3
I1215 22:27:21.500249 27136 net.cpp:338] inception_5b/pool -> inception_5b/pool
I1215 22:27:21.500258 27136 net.cpp:113] Setting up inception_5b/pool
I1215 22:27:21.500267 27136 net.cpp:120] Top shape: 32 832 7 7 (1304576)
I1215 22:27:21.500272 27136 layer_factory.hpp:74] Creating layer inception_5b/pool_proj
I1215 22:27:21.500288 27136 net.cpp:84] Creating Layer inception_5b/pool_proj
I1215 22:27:21.500294 27136 net.cpp:380] inception_5b/pool_proj <- inception_5b/pool
I1215 22:27:21.500303 27136 net.cpp:338] inception_5b/pool_proj -> inception_5b/pool_proj
I1215 22:27:21.500313 27136 net.cpp:113] Setting up inception_5b/pool_proj
I1215 22:27:21.501982 27136 net.cpp:120] Top shape: 32 128 7 7 (200704)
I1215 22:27:21.501999 27136 layer_factory.hpp:74] Creating layer inception_5b/relu_pool_proj
I1215 22:27:21.502007 27136 net.cpp:84] Creating Layer inception_5b/relu_pool_proj
I1215 22:27:21.502012 27136 net.cpp:380] inception_5b/relu_pool_proj <- inception_5b/pool_proj
I1215 22:27:21.502019 27136 net.cpp:327] inception_5b/relu_pool_proj -> inception_5b/pool_proj (in-place)
I1215 22:27:21.502027 27136 net.cpp:113] Setting up inception_5b/relu_pool_proj
I1215 22:27:21.502099 27136 net.cpp:120] Top shape: 32 128 7 7 (200704)
I1215 22:27:21.502106 27136 layer_factory.hpp:74] Creating layer inception_5b/output
I1215 22:27:21.502113 27136 net.cpp:84] Creating Layer inception_5b/output
I1215 22:27:21.502118 27136 net.cpp:380] inception_5b/output <- inception_5b/1x1
I1215 22:27:21.502125 27136 net.cpp:380] inception_5b/output <- inception_5b/3x3
I1215 22:27:21.502130 27136 net.cpp:380] inception_5b/output <- inception_5b/5x5
I1215 22:27:21.502135 27136 net.cpp:380] inception_5b/output <- inception_5b/pool_proj
I1215 22:27:21.502148 27136 net.cpp:338] inception_5b/output -> inception_5b/output
I1215 22:27:21.502163 27136 net.cpp:113] Setting up inception_5b/output
I1215 22:27:21.502171 27136 net.cpp:120] Top shape: 32 1024 7 7 (1605632)
I1215 22:27:21.502177 27136 layer_factory.hpp:74] Creating layer pool5/7x7_s1
I1215 22:27:21.502185 27136 net.cpp:84] Creating Layer pool5/7x7_s1
I1215 22:27:21.502190 27136 net.cpp:380] pool5/7x7_s1 <- inception_5b/output
I1215 22:27:21.502197 27136 net.cpp:338] pool5/7x7_s1 -> pool5/7x7_s1
I1215 22:27:21.502204 27136 net.cpp:113] Setting up pool5/7x7_s1
I1215 22:27:21.502279 27136 net.cpp:120] Top shape: 32 1024 1 1 (32768)
I1215 22:27:21.502285 27136 layer_factory.hpp:74] Creating layer pool5/drop_7x7_s1
I1215 22:27:21.502300 27136 net.cpp:84] Creating Layer pool5/drop_7x7_s1
I1215 22:27:21.502306 27136 net.cpp:380] pool5/drop_7x7_s1 <- pool5/7x7_s1
I1215 22:27:21.502315 27136 net.cpp:327] pool5/drop_7x7_s1 -> pool5/7x7_s1 (in-place)
I1215 22:27:21.502322 27136 net.cpp:113] Setting up pool5/drop_7x7_s1
I1215 22:27:21.502331 27136 net.cpp:120] Top shape: 32 1024 1 1 (32768)
I1215 22:27:21.502336 27136 layer_factory.hpp:74] Creating layer loss3/classifier_kaggle
I1215 22:27:21.502344 27136 net.cpp:84] Creating Layer loss3/classifier_kaggle
I1215 22:27:21.502349 27136 net.cpp:380] loss3/classifier_kaggle <- pool5/7x7_s1
I1215 22:27:21.502360 27136 net.cpp:338] loss3/classifier_kaggle -> loss3/classifier_kaggle
I1215 22:27:21.502369 27136 net.cpp:113] Setting up loss3/classifier_kaggle
I1215 22:27:21.507693 27136 net.cpp:120] Top shape: 32 447 (14304)
I1215 22:27:21.507707 27136 layer_factory.hpp:74] Creating layer loss3/loss3
I1215 22:27:21.507717 27136 net.cpp:84] Creating Layer loss3/loss3
I1215 22:27:21.507724 27136 net.cpp:380] loss3/loss3 <- loss3/classifier_kaggle
I1215 22:27:21.507730 27136 net.cpp:380] loss3/loss3 <- label_data_1_split_2
I1215 22:27:21.507737 27136 net.cpp:338] loss3/loss3 -> loss3/loss3
I1215 22:27:21.507745 27136 net.cpp:113] Setting up loss3/loss3
…
I1215 22:27:21.515449 27136 net.cpp:257] The NetState phase (1) differed from the phase (0) specified by a rule in layer data
I1215 22:27:21.517257 27136 net.cpp:42] Initializing net from parameters: 
name: "GoogleNet"
state {
  phase: TEST
}
layer {
  name: "data"
  type: "Data"
  top: "data"
  top: "label"
  include {
    phase: TEST
  }
  transform_param {
    mirror: false
    crop_size: 224
    mean_value: 104
    mean_value: 117
    mean_value: 123
  }
  data_param {
    source: "/home/coldmanck/kaggle/kaggle2_val_lmdb"
    batch_size: 50
    backend: LMDB
  }
}
layer {
  name: "conv1/7x7_s2"
  type: "Convolution"
  bottom: "data"
  top: "conv1/7x7_s2"
  param {
    lr_mult: 1
    decay_mult: 1
  }
  param {
    lr_mult: 2
    decay_mult: 0
  }
  convolution_param {
    num_output: 64
    pad: 3
    kernel_size: 7
    stride: 2
    weight_filler {
      type: "xavier"
      std: 0.1
    }
    bias_filler {
      type: "constant"
      value: 0.2
    }
  }
}
layer {
  name: "conv1/relu_7x7"
  type: "ReLU"
  bottom: "conv1/7x7_s2"
  top: "conv1/7x7_s2"
}
layer {
  name: "pool1/3x3_s2"
  type: "Pooling"
  bottom: "conv1/7x7_s2"
  top: "pool1/3x3_s2"
  pooling_param {
    pool: MAX
    kernel_size: 3
    stride: 2
  }
}
layer {
  name: "pool1/norm1"
  type: "LRN"
  bottom: "pool1/3x3_s2"
  top: "pool1/norm1"
  lrn_param {
    local_size: 5
    alpha: 0.0001
    beta: 0.75
  }
}
layer {
  name: "conv2/3x3_reduce"
  type: "Convolution"
  bottom: "pool1/norm1"
  top: "conv2/3x3_reduce"
  param {
    lr_mult: 1
    decay_mult: 1
  }
  param {
    lr_mult: 2
    decay_mult: 0
  }
  convolution_param {
    num_output: 64
    kernel_size: 1
    weight_filler {
      type: "xavier"
      std: 0.1
    }
    bias_filler {
      type: "constant"
      value: 0.2
    }
  }
}
layer {
  name: "conv2/relu_3x3_reduce"
  type: "ReLU"
  bottom: "conv2/3x3_reduce"
  top: "conv2/3x3_reduce"
}
layer {
  name: "conv2/3x3"
  type: "Convolution"
  bottom: "conv2/3x3_reduce"
  top: "conv2/3x3"
  param {
    lr_mult: 1
    decay_mult: 1
  }
  param {
    lr_mult: 2
    decay_mult: 0
  }
  convolution_param {
    num_output: 192
    pad: 1
    kernel_size: 3
    weight_filler {
      type: "xavier"
      std: 0.03
    }
    bias_filler {
      type: "constant"
      value: 0.2
    }
  }
}
layer {
  name: "conv2/relu_3x3"
  type: "ReLU"
  bottom: "conv2/3x3"
  top: "conv2/3x3"
}
layer {
  name: "conv2/norm2"
  type: "LRN"
  bottom: "conv2/3x3"
  top: "conv2/norm2"
  lrn_param {
    local_size: 5
    alpha: 0.0001
    beta: 0.75
  }
}
layer {
  name: "pool2/3x3_s2"
  type: "Pooling"
  bottom: "conv2/norm2"
  top: "pool2/3x3_s2"
  pooling_param {
    pool: MAX
    kernel_size: 3
    stride: 2
  }
}
layer {
  name: "inception_3a/1x1"
  type: "Convolution"
  bottom: "pool2/3x3_s2"
  top: "inception_3a/1x1"
  param {
    lr_mult: 1
    decay_mult: 1
  }
  param {
    lr_mult: 2
    decay_mult: 0
  }
  convolution_param {
    num_output: 64
    kernel_size: 1
    weight_filler {
      type: "xavier"
      std: 0.03
    }
    bias_filler {
      type: "constant"
      value: 0.2
    }
  }
}
layer {
  name: "inception_3a/relu_1x1"
  type: "ReLU"
  bottom: "inception_3a/1x1"
  top: "inception_3a/1x1"
}
layer {
  name: "inception_3a/3x3_reduce"
  type: "Convolution"
  bottom: "pool2/3x3_s2"
  top: "inception_3a/3x3_reduce"
  param {
    lr_mult: 1
    decay_mult: 1
  }
  param {
    lr_mult: 2
    decay_mult: 0
  }
  convolution_param {
    num_output: 96
    kernel_size: 1
    weight_filler {
      type: "xavier"
      std: 0.09
    }
    bias_filler {
      type: "constant"
      value: 0.2
    }
  }
}
layer {
  name: "inception_3a/relu_3x3_reduce"
  type: "ReLU"
  bottom: "inception_3a/3x3_reduce"
  top: "inception_3a/3x3_reduce"
}
layer {
  name: "inception_3a/3x3"
  type: "Convolution"
  bottom: "inception_3a/3x3_reduce"
  top: "inception_3a/3x3"
  param {
    lr_mult: 1
    decay_mult: 1
  }
  param {
    lr_mult: 2
    decay_mult: 0
  }
  convolution_param {
    num_output: 128
    pad: 1
    kernel_size: 3
    weight_filler {
      type: "xavier"
      std: 0.03
    }
    bias_filler {
      type: "constant"
      value: 0.2
    }
  }
}
layer {
  name: "inception_3a/relu_3x3"
  type: "ReLU"
  bottom: "inception_3a/3x3"
  top: "inception_3a/3x3"
}
layer {
  name: "inception_3a/5x5_reduce"
  type: "Convolution"
  bottom: "pool2/3x3_s2"
  top: "inception_3a/5x5_reduce"
  param {
    lr_mult: 1
    decay_mult: 1
  }
  param {
    lr_mult: 2
    decay_mult: 0
  }
  convolution_param {
    num_output: 16
    kernel_size: 1
    weight_filler {
      type: "xavier"
      std: 0.2
    }
    bias_filler {
      type: "constant"
      value: 0.2
    }
  }
}
layer {
  name: "inception_3a/relu_5x5_reduce"
  type: "ReLU"
  bottom: "inception_3a/5x5_reduce"
  top: "inception_3a/5x5_reduce"
}
layer {
  name: "inception_3a/5x5"
  type: "Convolution"
  bottom: "inception_3a/5x5_reduce"
  top: "inception_3a/5x5"
  param {
    lr_mult: 1
    decay_mult: 1
  }
  param {
    lr_mult: 2
    decay_mult: 0
  }
  convolution_param {
    num_output: 32
    pad: 2
    kernel_size: 5
    weight_filler {
      type: "xavier"
      std: 0.03
    }
    bias_filler {
      type: "constant"
      value: 0.2
    }
  }
}
layer {
  name: "inception_3a/relu_5x5"
  type: "ReLU"
  bottom: "inception_3a/5x5"
  top: "inception_3a/5x5"
}
layer {
  name: "inception_3a/pool"
  type: "Pooling"
  bottom: "pool2/3x3_s2"
  top: "inception_3a/pool"
  pooling_param {
    pool: MAX
    kernel_size: 3
    stride: 1
    pad: 1
  }
}
layer {
  name: "inception_3a/pool_proj"
  type: "Convolution"
  bottom: "inception_3a/pool"
  top: "inception_3a/pool_proj"
  param {
    lr_mult: 1
    decay_mult: 1
  }
  param {
    lr_mult: 2
    decay_mult: 0
  }
  convolution_param {
    num_output: 32
    kernel_size: 1
    weight_filler {
      type: "xavier"
      std: 0.1
    }
    bias_filler {
      type: "constant"
      value: 0.2
    }
  }
}
layer {
  name: "inception_3a/relu_pool_proj"
  type: "ReLU"
  bottom: "inception_3a/pool_proj"
  top: "inception_3a/pool_proj"
}
layer {
  name: "inception_3a/output"
  type: "Concat"
  bottom: "inception_3a/1x1"
  bottom: "inception_3a/3x3"
  bottom: "inception_3a/5x5"
  bottom: "inception_3a/pool_proj"
  top: "inception_3a/output"
}
layer {
  name: "inception_3b/1x1"
  type: "Convolution"
  bottom: "inception_3a/output"
  top: "inception_3b/1x1"
  param {
    lr_mult: 1
    decay_mult: 1
  }
  param {
    lr_mult: 2
    decay_mult: 0
  }
  convolution_param {
    num_output: 128
    kernel_size: 1
    weight_filler {
      type: "xavier"
      std: 0.03
    }
    bias_filler {
      type: "constant"
      value: 0.2
    }
  }
}
layer {
  name: "inception_3b/relu_1x1"
  type: "ReLU"
  bottom: "inception_3b/1x1"
  top: "inception_3b/1x1"
}
layer {
  name: "inception_3b/3x3_reduce"
  type: "Convolution"
  bottom: "inception_3a/output"
  top: "inception_3b/3x3_reduce"
  param {
    lr_mult: 1
    decay_mult: 1
  }
  param {
    lr_mult: 2
    decay_mult: 0
  }
  convolution_param {
    num_output: 128
    kernel_size: 1
    weight_filler {
      type: "xavier"
      std: 0.09
    }
    bias_filler {
      type: "constant"
      value: 0.2
    }
  }
}
layer {
  name: "inception_3b/relu_3x3_reduce"
  type: "ReLU"
  bottom: "inception_3b/3x3_reduce"
  top: "inception_3b/3x3_reduce"
}
layer {
  name: "inception_3b/3x3"
  type: "Convolution"
  bottom: "inception_3b/3x3_reduce"
  top: "inception_3b/3x3"
  param {
    lr_mult: 1
    decay_mult: 1
  }
  param {
    lr_mult: 2
    decay_mult: 0
  }
  convolution_param {
    num_output: 192
    pad: 1
    kernel_size: 3
    weight_filler {
      type: "xavier"
      std: 0.03
    }
    bias_filler {
      type: "constant"
      value: 0.2
    }
  }
}
layer {
  name: "inception_3b/relu_3x3"
  type: "ReLU"
  bottom: "inception_3b/3x3"
  top: "inception_3b/3x3"
}
layer {
  name: "inception_3b/5x5_reduce"
  type: "Convolution"
  bottom: "inception_3a/output"
  top: "inception_3b/5x5_reduce"
  param {
    lr_mult: 1
    decay_mult: 1
  }
  param {
    lr_mult: 2
    decay_mult: 0
  }
  convolution_param {
    num_output: 32
    kernel_size: 1
    weight_filler {
      type: "xavier"
      std: 0.2
    }
    bias_filler {
      type: "constant"
      value: 0.2
    }
  }
}
layer {
  name: "inception_3b/relu_5x5_reduce"
  type: "ReLU"
  bottom: "inception_3b/5x5_reduce"
  top: "inception_3b/5x5_reduce"
}
layer {
  name: "inception_3b/5x5"
  type: "Convolution"
  bottom: "inception_3b/5x5_reduce"
  top: "inception_3b/5x5"
  param {
    lr_mult: 1
    decay_mult: 1
  }
  param {
    lr_mult: 2
    decay_mult: 0
  }
  convolution_param {
    num_output: 96
    pad: 2
    kernel_size: 5
    weight_filler {
      type: "xavier"
      std: 0.03
    }
    bias_filler {
      type: "constant"
      value: 0.2
    }
  }
}
layer {
  name: "inception_3b/relu_5x5"
  type: "ReLU"
  bottom: "inception_3b/5x5"
  top: "inception_3b/5x5"
}
layer {
  name: "inception_3b/pool"
  type: "Pooling"
  bottom: "inception_3a/output"
  top: "inception_3b/pool"
  pooling_param {
    pool: MAX
    kernel_size: 3
    stride: 1
    pad: 1
  }
}
layer {
  name: "inception_3b/pool_proj"
  type: "Convolution"
  bottom: "inception_3b/pool"
  top: "inception_3b/pool_proj"
  param {
    lr_mult: 1
    decay_mult: 1
  }
  param {
    lr_mult: 2
    decay_mult: 0
  }
  convolution_param {
    num_output: 64
    kernel_size: 1
    weight_filler {
      type: "xavier"
      std: 0.1
    }
    bias_filler {
      type: "constant"
      value: 0.2
    }
  }
}
layer {
  name: "inception_3b/relu_pool_proj"
  type: "ReLU"
  bottom: "inception_3b/pool_proj"
  top: "inception_3b/pool_proj"
}
layer {
  name: "inception_3b/output"
  type: "Concat"
  bottom: "inception_3b/1x1"
  bottom: "inception_3b/3x3"
  bottom: "inception_3b/5x5"
  bottom: "inception_3b/pool_proj"
  top: "inception_3b/output"
}
layer {
  name: "pool3/3x3_s2"
  type: "Pooling"
  bottom: "inception_3b/output"
  top: "pool3/3x3_s2"
  pooling_param {
    pool: MAX
    kernel_size: 3
    stride: 2
  }
}
layer {
  name: "inception_4a/1x1"
  type: "Convolution"
  bottom: "pool3/3x3_s2"
  top: "inception_4a/1x1"
  param {
    lr_mult: 1
    decay_mult: 1
  }
  param {
    lr_mult: 2
    decay_mult: 0
  }
  convolution_param {
    num_output: 192
    kernel_size: 1
    weight_filler {
      type: "xavier"
      std: 0.03
    }
    bias_filler {
      type: "constant"
      value: 0.2
    }
  }
}
layer {
  name: "inception_4a/relu_1x1"
  type: "ReLU"
  bottom: "inception_4a/1x1"
  top: "inception_4a/1x1"
}
layer {
  name: "inception_4a/3x3_reduce"
  type: "Convolution"
  bottom: "pool3/3x3_s2"
  top: "inception_4a/3x3_reduce"
  param {
    lr_mult: 1
    decay_mult: 1
  }
  param {
    lr_mult: 2
    decay_mult: 0
  }
  convolution_param {
    num_output: 96
    kernel_size: 1
    weight_filler {
      type: "xavier"
      std: 0.09
    }
    bias_filler {
      type: "constant"
      value: 0.2
    }
  }
}
layer {
  name: "inception_4a/relu_3x3_reduce"
  type: "ReLU"
  bottom: "inception_4a/3x3_reduce"
  top: "inception_4a/3x3_reduce"
}
layer {
  name: "inception_4a/3x3"
  type: "Convolution"
  bottom: "inception_4a/3x3_reduce"
  top: "inception_4a/3x3"
  param {
    lr_mult: 1
    decay_mult: 1
  }
  param {
    lr_mult: 2
    decay_mult: 0
  }
  convolution_param {
    num_output: 208
    pad: 1
    kernel_size: 3
    weight_filler {
      type: "xavier"
      std: 0.03
    }
    bias_filler {
      type: "constant"
      value: 0.2
    }
  }
}
layer {
  name: "inception_4a/relu_3x3"
  type: "ReLU"
  bottom: "inception_4a/3x3"
  top: "inception_4a/3x3"
}
layer {
  name: "inception_4a/5x5_reduce"
  type: "Convolution"
  bottom: "pool3/3x3_s2"
  top: "inception_4a/5x5_reduce"
  param {
    lr_mult: 1
    decay_mult: 1
  }
  param {
    lr_mult: 2
    decay_mult: 0
  }
  convolution_param {
    num_output: 16
    kernel_size: 1
    weight_filler {
      type: "xavier"
      std: 0.2
    }
    bias_filler {
      type: "constant"
      value: 0.2
    }
  }
}
layer {
  name: "inception_4a/relu_5x5_reduce"
  type: "ReLU"
  bottom: "inception_4a/5x5_reduce"
  top: "inception_4a/5x5_reduce"
}
layer {
  name: "inception_4a/5x5"
  type: "Convolution"
  bottom: "inception_4a/5x5_reduce"
  top: "inception_4a/5x5"
  param {
    lr_mult: 1
    decay_mult: 1
  }
  param {
    lr_mult: 2
    decay_mult: 0
  }
  convolution_param {
    num_output: 48
    pad: 2
    kernel_size: 5
    weight_filler {
      type: "xavier"
      std: 0.03
    }
    bias_filler {
      type: "constant"
      value: 0.2
    }
  }
}
layer {
  name: "inception_4a/relu_5x5"
  type: "ReLU"
  bottom: "inception_4a/5x5"
  top: "inception_4a/5x5"
}
layer {
  name: "inception_4a/pool"
  type: "Pooling"
  bottom: "pool3/3x3_s2"
  top: "inception_4a/pool"
  pooling_param {
    pool: MAX
    kernel_size: 3
    stride: 1
    pad: 1
  }
}
layer {
  name: "inception_4a/pool_proj"
  type: "Convolution"
  bottom: "inception_4a/pool"
  top: "inception_4a/pool_proj"
  param {
    lr_mult: 1
    decay_mult: 1
  }
  param {
    lr_mult: 2
    decay_mult: 0
  }
  convolution_param {
    num_output: 64
    kernel_size: 1
    weight_filler {
      type: "xavier"
      std: 0.1
    }
    bias_filler {
      type: "constant"
      value: 0.2
    }
  }
}
layer {
  name: "inception_4a/relu_pool_proj"
  type: "ReLU"
  bottom: "inception_4a/pool_proj"
  top: "inception_4a/pool_proj"
}
layer {
  name: "inception_4a/output"
  type: "Concat"
  bottom: "inception_4a/1x1"
  bottom: "inception_4a/3x3"
  bottom: "inception_4a/5x5"
  bottom: "inception_4a/pool_proj"
  top: "inception_4a/output"
}
layer {
  name: "loss1/ave_pool"
  type: "Pooling"
  bottom: "inception_4a/output"
  top: "loss1/ave_pool"
  pooling_param {
    pool: AVE
    kernel_size: 5
    stride: 3
  }
}
layer {
  name: "loss1/conv"
  type: "Convolution"
  bottom: "loss1/ave_pool"
  top: "loss1/conv"
  param {
    lr_mult: 1
    decay_mult: 1
  }
  param {
    lr_mult: 2
    decay_mult: 0
  }
  convolution_param {
    num_output: 128
    kernel_size: 1
    weight_filler {
      type: "xavier"
      std: 0.08
    }
    bias_filler {
      type: "constant"
      value: 0.2
    }
  }
}
layer {
  name: "loss1/relu_conv"
  type: "ReLU"
  bottom: "loss1/conv"
  top: "loss1/conv"
}
layer {
  name: "loss1/fc"
  type: "InnerProduct"
  bottom: "loss1/conv"
  top: "loss1/fc"
  param {
    lr_mult: 1
    decay_mult: 1
  }
  param {
    lr_mult: 2
    decay_mult: 0
  }
  inner_product_param {
    num_output: 1024
    weight_filler {
      type: "xavier"
      std: 0.02
    }
    bias_filler {
      type: "constant"
      value: 0.2
    }
  }
}
layer {
  name: "loss1/relu_fc"
  type: "ReLU"
  bottom: "loss1/fc"
  top: "loss1/fc"
}
layer {
  name: "loss1/drop_fc"
  type: "Dropout"
  bottom: "loss1/fc"
  top: "loss1/fc"
  dropout_param {
    dropout_ratio: 0.7
  }
}
layer {
  name: "loss1/classifier_kaggle"
  type: "InnerProduct"
  bottom: "loss1/fc"
  top: "loss1/classifier_kaggle"
  param {
    lr_mult: 1
    decay_mult: 1
  }
  param {
    lr_mult: 2
    decay_mult: 0
  }
  inner_product_param {
    num_output: 447
    weight_filler {
      type: "xavier"
      std: 0.0009765625
    }
    bias_filler {
      type: "constant"
      value: 0
    }
  }
}
layer {
  name: "loss1/loss"
  type: "SoftmaxWithLoss"
  bottom: "loss1/classifier_kaggle"
  bottom: "label"
  top: "loss1/loss1"
  loss_weight: 0.3
}
layer {
  name: "loss1/top-1"
  type: "Accuracy"
  bottom: "loss1/classifier_kaggle"
  bottom: "label"
  top: "loss1/top-1"
  include {
    phase: TEST
  }
}
layer {
  name: "loss1/top-5"
  type: "Accuracy"
  bottom: "loss1/classifier_kaggle"
  bottom: "label"
  top: "loss1/top-5"
  include {
    phase: TEST
  }
  accuracy_param {
    top_k: 5
  }
}
layer {
  name: "inception_4b/1x1"
  type: "Convolution"
  bottom: "inception_4a/output"
  top: "inception_4b/1x1"
  param {
    lr_mult: 1
    decay_mult: 1
  }
  param {
    lr_mult: 2
    decay_mult: 0
  }
  convolution_param {
    num_output: 160
    kernel_size: 1
    weight_filler {
      type: "xavier"
      std: 0.03
    }
    bias_filler {
      type: "constant"
      value: 0.2
    }
  }
}
layer {
  name: "inception_4b/relu_1x1"
  type: "ReLU"
  bottom: "inception_4b/1x1"
  top: "inception_4b/1x1"
}
layer {
  name: "inception_4b/3x3_reduce"
  type: "Convolution"
  bottom: "inception_4a/output"
  top: "inception_4b/3x3_reduce"
  param {
    lr_mult: 1
    decay_mult: 1
  }
  param {
    lr_mult: 2
    decay_mult: 0
  }
  convolution_param {
    num_output: 112
    kernel_size: 1
    weight_filler {
      type: "xavier"
      std: 0.09
    }
    bias_filler {
      type: "constant"
      value: 0.2
    }
  }
}
layer {
  name: "inception_4b/relu_3x3_reduce"
  type: "ReLU"
  bottom: "inception_4b/3x3_reduce"
  top: "inception_4b/3x3_reduce"
}
layer {
  name: "inception_4b/3x3"
  type: "Convolution"
  bottom: "inception_4b/3x3_reduce"
  top: "inception_4b/3x3"
  param {
    lr_mult: 1
    decay_mult: 1
  }
  param {
    lr_mult: 2
    decay_mult: 0
  }
  convolution_param {
    num_output: 224
    pad: 1
    kernel_size: 3
    weight_filler {
      type: "xavier"
      std: 0.03
    }
    bias_filler {
      type: "constant"
      value: 0.2
    }
  }
}
layer {
  name: "inception_4b/relu_3x3"
  type: "ReLU"
  bottom: "inception_4b/3x3"
  top: "inception_4b/3x3"
}
layer {
  name: "inception_4b/5x5_reduce"
  type: "Convolution"
  bottom: "inception_4a/output"
  top: "inception_4b/5x5_reduce"
  param {
    lr_mult: 1
    decay_mult: 1
  }
  param {
    lr_mult: 2
    decay_mult: 0
  }
  convolution_param {
    num_output: 24
    kernel_size: 1
    weight_filler {
      type: "xavier"
      std: 0.2
    }
    bias_filler {
      type: "constant"
      value: 0.2
    }
  }
}
layer {
  name: "inception_4b/relu_5x5_reduce"
  type: "ReLU"
  bottom: "inception_4b/5x5_reduce"
  top: "inception_4b/5x5_reduce"
}
layer {
  name: "inception_4b/5x5"
  type: "Convolution"
  bottom: "inception_4b/5x5_reduce"
  top: "inception_4b/5x5"
  param {
    lr_mult: 1
    decay_mult: 1
  }
  param {
    lr_mult: 2
    decay_mult: 0
  }
  convolution_param {
    num_output: 64
    pad: 2
    kernel_size: 5
    weight_filler {
      type: "xavier"
      std: 0.03
    }
    bias_filler {
      type: "constant"
      value: 0.2
    }
  }
}
layer {
  name: "inception_4b/relu_5x5"
  type: "ReLU"
  bottom: "inception_4b/5x5"
  top: "inception_4b/5x5"
}
layer {
  name: "inception_4b/pool"
  type: "Pooling"
  bottom: "inception_4a/output"
  top: "inception_4b/pool"
  pooling_param {
    pool: MAX
    kernel_size: 3
    stride: 1
    pad: 1
  }
}
layer {
  name: "inception_4b/pool_proj"
  type: "Convolution"
  bottom: "inception_4b/pool"
  top: "inception_4b/pool_proj"
  param {
    lr_mult: 1
    decay_mult: 1
  }
  param {
    lr_mult: 2
    decay_mult: 0
  }
  convolution_param {
    num_output: 64
    kernel_size: 1
    weight_filler {
      type: "xavier"
      std: 0.1
    }
    bias_filler {
      type: "constant"
      value: 0.2
    }
  }
}
layer {
  name: "inception_4b/relu_pool_proj"
  type: "ReLU"
  bottom: "inception_4b/pool_proj"
  top: "inception_4b/pool_proj"
}
layer {
  name: "inception_4b/output"
  type: "Concat"
  bottom: "inception_4b/1x1"
  bottom: "inception_4b/3x3"
  bottom: "inception_4b/5x5"
  bottom: "inception_4b/pool_proj"
  top: "inception_4b/output"
}
layer {
  name: "inception_4c/1x1"
  type: "Convolution"
  bottom: "inception_4b/output"
  top: "inception_4c/1x1"
  param {
    lr_mult: 1
    decay_mult: 1
  }
  param {
    lr_mult: 2
    decay_mult: 0
  }
  convolution_param {
    num_output: 128
    kernel_size: 1
    weight_filler {
      type: "xavier"
      std: 0.03
    }
    bias_filler {
      type: "constant"
      value: 0.2
    }
  }
}
layer {
  name: "inception_4c/relu_1x1"
  type: "ReLU"
  bottom: "inception_4c/1x1"
  top: "inception_4c/1x1"
}
layer {
  name: "inception_4c/3x3_reduce"
  type: "Convolution"
  bottom: "inception_4b/output"
  top: "inception_4c/3x3_reduce"
  param {
    lr_mult: 1
    decay_mult: 1
  }
  param {
    lr_mult: 2
    decay_mult: 0
  }
  convolution_param {
    num_output: 128
    kernel_size: 1
    weight_filler {
      type: "xavier"
      std: 0.09
    }
    bias_filler {
      type: "constant"
      value: 0.2
    }
  }
}
layer {
  name: "inception_4c/relu_3x3_reduce"
  type: "ReLU"
  bottom: "inception_4c/3x3_reduce"
  top: "inception_4c/3x3_reduce"
}
layer {
  name: "inception_4c/3x3"
  type: "Convolution"
  bottom: "inception_4c/3x3_reduce"
  top: "inception_4c/3x3"
  param {
    lr_mult: 1
    decay_mult: 1
  }
  param {
    lr_mult: 2
    decay_mult: 0
  }
  convolution_param {
    num_output: 256
    pad: 1
    kernel_size: 3
    weight_filler {
      type: "xavier"
      std: 0.03
    }
    bias_filler {
      type: "constant"
      value: 0.2
    }
  }
}
layer {
  name: "inception_4c/relu_3x3"
  type: "ReLU"
  bottom: "inception_4c/3x3"
  top: "inception_4c/3x3"
}
layer {
  name: "inception_4c/5x5_reduce"
  type: "Convolution"
  bottom: "inception_4b/output"
  top: "inception_4c/5x5_reduce"
  param {
    lr_mult: 1
    decay_mult: 1
  }
  param {
    lr_mult: 2
    decay_mult: 0
  }
  convolution_param {
    num_output: 24
    kernel_size: 1
    weight_filler {
      type: "xavier"
      std: 0.2
    }
    bias_filler {
      type: "constant"
      value: 0.2
    }
  }
}
layer {
  name: "inception_4c/relu_5x5_reduce"
  type: "ReLU"
  bottom: "inception_4c/5x5_reduce"
  top: "inception_4c/5x5_reduce"
}
layer {
  name: "inception_4c/5x5"
  type: "Convolution"
  bottom: "inception_4c/5x5_reduce"
  top: "inception_4c/5x5"
  param {
    lr_mult: 1
    decay_mult: 1
  }
  param {
    lr_mult: 2
    decay_mult: 0
  }
  convolution_param {
    num_output: 64
    pad: 2
    kernel_size: 5
    weight_filler {
      type: "xavier"
      std: 0.03
    }
    bias_filler {
      type: "constant"
      value: 0.2
    }
  }
}
layer {
  name: "inception_4c/relu_5x5"
  type: "ReLU"
  bottom: "inception_4c/5x5"
  top: "inception_4c/5x5"
}
layer {
  name: "inception_4c/pool"
  type: "Pooling"
  bottom: "inception_4b/output"
  top: "inception_4c/pool"
  pooling_param {
    pool: MAX
    kernel_size: 3
    stride: 1
    pad: 1
  }
}
layer {
  name: "inception_4c/pool_proj"
  type: "Convolution"
  bottom: "inception_4c/pool"
  top: "inception_4c/pool_proj"
  param {
    lr_mult: 1
    decay_mult: 1
  }
  param {
    lr_mult: 2
    decay_mult: 0
  }
  convolution_param {
    num_output: 64
    kernel_size: 1
    weight_filler {
      type: "xavier"
      std: 0.1
    }
    bias_filler {
      type: "constant"
      value: 0.2
    }
  }
}
layer {
  name: "inception_4c/relu_pool_proj"
  type: "ReLU"
  bottom: "inception_4c/pool_proj"
  top: "inception_4c/pool_proj"
}
layer {
  name: "inception_4c/output"
  type: "Concat"
  bottom: "inception_4c/1x1"
  bottom: "inception_4c/3x3"
  bottom: "inception_4c/5x5"
  bottom: "inception_4c/pool_proj"
  top: "inception_4c/output"
}
layer {
  name: "inception_4d/1x1"
  type: "Convolution"
  bottom: "inception_4c/output"
  top: "inception_4d/1x1"
  param {
    lr_mult: 1
    decay_mult: 1
  }
  param {
    lr_mult: 2
    decay_mult: 0
  }
  convolution_param {
    num_output: 112
    kernel_size: 1
    weight_filler {
      type: "xavier"
      std: 0.03
    }
    bias_filler {
      type: "constant"
      value: 0.2
    }
  }
}
layer {
  name: "inception_4d/relu_1x1"
  type: "ReLU"
  bottom: "inception_4d/1x1"
  top: "inception_4d/1x1"
}
layer {
  name: "inception_4d/3x3_reduce"
  type: "Convolution"
  bottom: "inception_4c/output"
  top: "inception_4d/3x3_reduce"
  param {
    lr_mult: 1
    decay_mult: 1
  }
  param {
    lr_mult: 2
    decay_mult: 0
  }
  convolution_param {
    num_output: 144
    kernel_size: 1
    weight_filler {
      type: "xavier"
      std: 0.09
    }
    bias_filler {
      type: "constant"
      value: 0.2
    }
  }
}
layer {
  name: "inception_4d/relu_3x3_reduce"
  type: "ReLU"
  bottom: "inception_4d/3x3_reduce"
  top: "inception_4d/3x3_reduce"
}
layer {
  name: "inception_4d/3x3"
  type: "Convolution"
  bottom: "inception_4d/3x3_reduce"
  top: "inception_4d/3x3"
  param {
    lr_mult: 1
    decay_mult: 1
  }
  param {
    lr_mult: 2
    decay_mult: 0
  }
  convolution_param {
    num_output: 288
    pad: 1
    kernel_size: 3
    weight_filler {
      type: "xavier"
      std: 0.03
    }
    bias_filler {
      type: "constant"
      value: 0.2
    }
  }
}
layer {
  name: "inception_4d/relu_3x3"
  type: "ReLU"
  bottom: "inception_4d/3x3"
  top: "inception_4d/3x3"
}
layer {
  name: "inception_4d/5x5_reduce"
  type: "Convolution"
  bottom: "inception_4c/output"
  top: "inception_4d/5x5_reduce"
  param {
    lr_mult: 1
    decay_mult: 1
  }
  param {
    lr_mult: 2
    decay_mult: 0
  }
  convolution_param {
    num_output: 32
    kernel_size: 1
    weight_filler {
      type: "xavier"
      std: 0.2
    }
    bias_filler {
      type: "constant"
      value: 0.2
    }
  }
}
layer {
  name: "inception_4d/relu_5x5_reduce"
  type: "ReLU"
  bottom: "inception_4d/5x5_reduce"
  top: "inception_4d/5x5_reduce"
}
layer {
  name: "inception_4d/5x5"
  type: "Convolution"
  bottom: "inception_4d/5x5_reduce"
  top: "inception_4d/5x5"
  param {
    lr_mult: 1
    decay_mult: 1
  }
  param {
    lr_mult: 2
    decay_mult: 0
  }
  convolution_param {
    num_output: 64
    pad: 2
    kernel_size: 5
    weight_filler {
      type: "xavier"
      std: 0.03
    }
    bias_filler {
      type: "constant"
      value: 0.2
    }
  }
}
layer {
  name: "inception_4d/relu_5x5"
  type: "ReLU"
  bottom: "inception_4d/5x5"
  top: "inception_4d/5x5"
}
layer {
  name: "inception_4d/pool"
  type: "Pooling"
  bottom: "inception_4c/output"
  top: "inception_4d/pool"
  pooling_param {
    pool: MAX
    kernel_size: 3
    stride: 1
    pad: 1
  }
}
layer {
  name: "inception_4d/pool_proj"
  type: "Convolution"
  bottom: "inception_4d/pool"
  top: "inception_4d/pool_proj"
  param {
    lr_mult: 1
    decay_mult: 1
  }
  param {
    lr_mult: 2
    decay_mult: 0
  }
  convolution_param {
    num_output: 64
    kernel_size: 1
    weight_filler {
      type: "xavier"
      std: 0.1
    }
    bias_filler {
      type: "constant"
      value: 0.2
    }
  }
}
layer {
  name: "inception_4d/relu_pool_proj"
  type: "ReLU"
  bottom: "inception_4d/pool_proj"
  top: "inception_4d/pool_proj"
}
layer {
…
I1215 22:27:21.593698 27136 net.cpp:84] Creating Layer inception_4c/1x1
I1215 22:27:21.593703 27136 net.cpp:380] inception_4c/1x1 <- inception_4b/output_inception_4b/output_0_split_0
I1215 22:27:21.593709 27136 net.cpp:338] inception_4c/1x1 -> inception_4c/1x1
I1215 22:27:21.593718 27136 net.cpp:113] Setting up inception_4c/1x1
I1215 22:27:21.594907 27136 net.cpp:120] Top shape: 50 128 14 14 (1254400)
I1215 22:27:21.594921 27136 layer_factory.hpp:74] Creating layer inception_4c/relu_1x1
I1215 22:27:21.594931 27136 net.cpp:84] Creating Layer inception_4c/relu_1x1
I1215 22:27:21.594936 27136 net.cpp:380] inception_4c/relu_1x1 <- inception_4c/1x1
I1215 22:27:21.594944 27136 net.cpp:327] inception_4c/relu_1x1 -> inception_4c/1x1 (in-place)
I1215 22:27:21.594951 27136 net.cpp:113] Setting up inception_4c/relu_1x1
I1215 22:27:21.595202 27136 net.cpp:120] Top shape: 50 128 14 14 (1254400)
I1215 22:27:21.595213 27136 layer_factory.hpp:74] Creating layer inception_4c/3x3_reduce
I1215 22:27:21.595223 27136 net.cpp:84] Creating Layer inception_4c/3x3_reduce
I1215 22:27:21.595229 27136 net.cpp:380] inception_4c/3x3_reduce <- inception_4b/output_inception_4b/output_0_split_1
I1215 22:27:21.595237 27136 net.cpp:338] inception_4c/3x3_reduce -> inception_4c/3x3_reduce
I1215 22:27:21.595252 27136 net.cpp:113] Setting up inception_4c/3x3_reduce
I1215 22:27:21.596452 27136 net.cpp:120] Top shape: 50 128 14 14 (1254400)
I1215 22:27:21.596467 27136 layer_factory.hpp:74] Creating layer inception_4c/relu_3x3_reduce
I1215 22:27:21.596475 27136 net.cpp:84] Creating Layer inception_4c/relu_3x3_reduce
I1215 22:27:21.596482 27136 net.cpp:380] inception_4c/relu_3x3_reduce <- inception_4c/3x3_reduce
I1215 22:27:21.596490 27136 net.cpp:327] inception_4c/relu_3x3_reduce -> inception_4c/3x3_reduce (in-place)
I1215 22:27:21.596498 27136 net.cpp:113] Setting up inception_4c/relu_3x3_reduce
I1215 22:27:21.596575 27136 net.cpp:120] Top shape: 50 128 14 14 (1254400)
I1215 22:27:21.596581 27136 layer_factory.hpp:74] Creating layer inception_4c/3x3
I1215 22:27:21.596590 27136 net.cpp:84] Creating Layer inception_4c/3x3
I1215 22:27:21.596596 27136 net.cpp:380] inception_4c/3x3 <- inception_4c/3x3_reduce
I1215 22:27:21.596604 27136 net.cpp:338] inception_4c/3x3 -> inception_4c/3x3
I1215 22:27:21.596612 27136 net.cpp:113] Setting up inception_4c/3x3
I1215 22:27:21.600471 27136 net.cpp:120] Top shape: 50 256 14 14 (2508800)
I1215 22:27:21.600499 27136 layer_factory.hpp:74] Creating layer inception_4c/relu_3x3
I1215 22:27:21.600507 27136 net.cpp:84] Creating Layer inception_4c/relu_3x3
I1215 22:27:21.600513 27136 net.cpp:380] inception_4c/relu_3x3 <- inception_4c/3x3
I1215 22:27:21.600522 27136 net.cpp:327] inception_4c/relu_3x3 -> inception_4c/3x3 (in-place)
I1215 22:27:21.600528 27136 net.cpp:113] Setting up inception_4c/relu_3x3
I1215 22:27:21.600605 27136 net.cpp:120] Top shape: 50 256 14 14 (2508800)
I1215 22:27:21.600611 27136 layer_factory.hpp:74] Creating layer inception_4c/5x5_reduce
I1215 22:27:21.600621 27136 net.cpp:84] Creating Layer inception_4c/5x5_reduce
I1215 22:27:21.600627 27136 net.cpp:380] inception_4c/5x5_reduce <- inception_4b/output_inception_4b/output_0_split_2
I1215 22:27:21.600635 27136 net.cpp:338] inception_4c/5x5_reduce -> inception_4c/5x5_reduce
I1215 22:27:21.600643 27136 net.cpp:113] Setting up inception_4c/5x5_reduce
I1215 22:27:21.601238 27136 net.cpp:120] Top shape: 50 24 14 14 (235200)
I1215 22:27:21.601254 27136 layer_factory.hpp:74] Creating layer inception_4c/relu_5x5_reduce
I1215 22:27:21.601263 27136 net.cpp:84] Creating Layer inception_4c/relu_5x5_reduce
I1215 22:27:21.601269 27136 net.cpp:380] inception_4c/relu_5x5_reduce <- inception_4c/5x5_reduce
I1215 22:27:21.601277 27136 net.cpp:327] inception_4c/relu_5x5_reduce -> inception_4c/5x5_reduce (in-place)
I1215 22:27:21.601285 27136 net.cpp:113] Setting up inception_4c/relu_5x5_reduce
I1215 22:27:21.601536 27136 net.cpp:120] Top shape: 50 24 14 14 (235200)
I1215 22:27:21.601547 27136 layer_factory.hpp:74] Creating layer inception_4c/5x5
I1215 22:27:21.601555 27136 net.cpp:84] Creating Layer inception_4c/5x5
I1215 22:27:21.601562 27136 net.cpp:380] inception_4c/5x5 <- inception_4c/5x5_reduce
I1215 22:27:21.601572 27136 net.cpp:338] inception_4c/5x5 -> inception_4c/5x5
I1215 22:27:21.601580 27136 net.cpp:113] Setting up inception_4c/5x5
I1215 22:27:21.602448 27136 net.cpp:120] Top shape: 50 64 14 14 (627200)
I1215 22:27:21.602463 27136 layer_factory.hpp:74] Creating layer inception_4c/relu_5x5
I1215 22:27:21.602473 27136 net.cpp:84] Creating Layer inception_4c/relu_5x5
I1215 22:27:21.602478 27136 net.cpp:380] inception_4c/relu_5x5 <- inception_4c/5x5
I1215 22:27:21.602485 27136 net.cpp:327] inception_4c/relu_5x5 -> inception_4c/5x5 (in-place)
I1215 22:27:21.602493 27136 net.cpp:113] Setting up inception_4c/relu_5x5
I1215 22:27:21.602571 27136 net.cpp:120] Top shape: 50 64 14 14 (627200)
I1215 22:27:21.602576 27136 layer_factory.hpp:74] Creating layer inception_4c/pool
I1215 22:27:21.602582 27136 layer_factory.cpp:56] CUDNN does not support padding or multiple tops. Using Caffe's own pooling layer.
I1215 22:27:21.602588 27136 net.cpp:84] Creating Layer inception_4c/pool
I1215 22:27:21.602594 27136 net.cpp:380] inception_4c/pool <- inception_4b/output_inception_4b/output_0_split_3
I1215 22:27:21.602602 27136 net.cpp:338] inception_4c/pool -> inception_4c/pool
I1215 22:27:21.602625 27136 net.cpp:113] Setting up inception_4c/pool
I1215 22:27:21.602635 27136 net.cpp:120] Top shape: 50 512 14 14 (5017600)
I1215 22:27:21.602640 27136 layer_factory.hpp:74] Creating layer inception_4c/pool_proj
I1215 22:27:21.602650 27136 net.cpp:84] Creating Layer inception_4c/pool_proj
I1215 22:27:21.602656 27136 net.cpp:380] inception_4c/pool_proj <- inception_4c/pool
I1215 22:27:21.602663 27136 net.cpp:338] inception_4c/pool_proj -> inception_4c/pool_proj
I1215 22:27:21.602670 27136 net.cpp:113] Setting up inception_4c/pool_proj
I1215 22:27:21.603473 27136 net.cpp:120] Top shape: 50 64 14 14 (627200)
I1215 22:27:21.603488 27136 layer_factory.hpp:74] Creating layer inception_4c/relu_pool_proj
I1215 22:27:21.603495 27136 net.cpp:84] Creating Layer inception_4c/relu_pool_proj
I1215 22:27:21.603502 27136 net.cpp:380] inception_4c/relu_pool_proj <- inception_4c/pool_proj
I1215 22:27:21.603510 27136 net.cpp:327] inception_4c/relu_pool_proj -> inception_4c/pool_proj (in-place)
I1215 22:27:21.603518 27136 net.cpp:113] Setting up inception_4c/relu_pool_proj
I1215 22:27:21.603591 27136 net.cpp:120] Top shape: 50 64 14 14 (627200)
I1215 22:27:21.603600 27136 layer_factory.hpp:74] Creating layer inception_4c/output
I1215 22:27:21.603606 27136 net.cpp:84] Creating Layer inception_4c/output
I1215 22:27:21.603612 27136 net.cpp:380] inception_4c/output <- inception_4c/1x1
I1215 22:27:21.603618 27136 net.cpp:380] inception_4c/output <- inception_4c/3x3
I1215 22:27:21.603624 27136 net.cpp:380] inception_4c/output <- inception_4c/5x5
I1215 22:27:21.603629 27136 net.cpp:380] inception_4c/output <- inception_4c/pool_proj
I1215 22:27:21.603637 27136 net.cpp:338] inception_4c/output -> inception_4c/output
I1215 22:27:21.603644 27136 net.cpp:113] Setting up inception_4c/output
I1215 22:27:21.603652 27136 net.cpp:120] Top shape: 50 512 14 14 (5017600)
I1215 22:27:21.603657 27136 layer_factory.hpp:74] Creating layer inception_4c/output_inception_4c/output_0_split
I1215 22:27:21.603663 27136 net.cpp:84] Creating Layer inception_4c/output_inception_4c/output_0_split
I1215 22:27:21.603668 27136 net.cpp:380] inception_4c/output_inception_4c/output_0_split <- inception_4c/output
I1215 22:27:21.603674 27136 net.cpp:338] inception_4c/output_inception_4c/output_0_split -> inception_4c/output_inception_4c/output_0_split_0
I1215 22:27:21.603682 27136 net.cpp:338] inception_4c/output_inception_4c/output_0_split -> inception_4c/output_inception_4c/output_0_split_1
I1215 22:27:21.603689 27136 net.cpp:338] inception_4c/output_inception_4c/output_0_split -> inception_4c/output_inception_4c/output_0_split_2
I1215 22:27:21.603698 27136 net.cpp:338] inception_4c/output_inception_4c/output_0_split -> inception_4c/output_inception_4c/output_0_split_3
I1215 22:27:21.603705 27136 net.cpp:113] Setting up inception_4c/output_inception_4c/output_0_split
I1215 22:27:21.603713 27136 net.cpp:120] Top shape: 50 512 14 14 (5017600)
I1215 22:27:21.603718 27136 net.cpp:120] Top shape: 50 512 14 14 (5017600)
I1215 22:27:21.603724 27136 net.cpp:120] Top shape: 50 512 14 14 (5017600)
I1215 22:27:21.603729 27136 net.cpp:120] Top shape: 50 512 14 14 (5017600)
I1215 22:27:21.603732 27136 layer_factory.hpp:74] Creating layer inception_4d/1x1
I1215 22:27:21.603742 27136 net.cpp:84] Creating Layer inception_4d/1x1
I1215 22:27:21.603747 27136 net.cpp:380] inception_4d/1x1 <- inception_4c/output_inception_4c/output_0_split_0
I1215 22:27:21.603754 27136 net.cpp:338] inception_4d/1x1 -> inception_4d/1x1
I1215 22:27:21.603761 27136 net.cpp:113] Setting up inception_4d/1x1
I1215 22:27:21.604856 27136 net.cpp:120] Top shape: 50 112 14 14 (1097600)
I1215 22:27:21.604871 27136 layer_factory.hpp:74] Creating layer inception_4d/relu_1x1
I1215 22:27:21.604878 27136 net.cpp:84] Creating Layer inception_4d/relu_1x1
I1215 22:27:21.604884 27136 net.cpp:380] inception_4d/relu_1x1 <- inception_4d/1x1
I1215 22:27:21.604893 27136 net.cpp:327] inception_4d/relu_1x1 -> inception_4d/1x1 (in-place)
I1215 22:27:21.604902 27136 net.cpp:113] Setting up inception_4d/relu_1x1
I1215 22:27:21.604977 27136 net.cpp:120] Top shape: 50 112 14 14 (1097600)
I1215 22:27:21.604990 27136 layer_factory.hpp:74] Creating layer inception_4d/3x3_reduce
I1215 22:27:21.605000 27136 net.cpp:84] Creating Layer inception_4d/3x3_reduce
I1215 22:27:21.605006 27136 net.cpp:380] inception_4d/3x3_reduce <- inception_4c/output_inception_4c/output_0_split_1
I1215 22:27:21.605013 27136 net.cpp:338] inception_4d/3x3_reduce -> inception_4d/3x3_reduce
I1215 22:27:21.605021 27136 net.cpp:113] Setting up inception_4d/3x3_reduce
I1215 22:27:21.606330 27136 net.cpp:120] Top shape: 50 144 14 14 (1411200)
I1215 22:27:21.606348 27136 layer_factory.hpp:74] Creating layer inception_4d/relu_3x3_reduce
I1215 22:27:21.606354 27136 net.cpp:84] Creating Layer inception_4d/relu_3x3_reduce
I1215 22:27:21.606360 27136 net.cpp:380] inception_4d/relu_3x3_reduce <- inception_4d/3x3_reduce
I1215 22:27:21.606369 27136 net.cpp:327] inception_4d/relu_3x3_reduce -> inception_4d/3x3_reduce (in-place)
I1215 22:27:21.606377 27136 net.cpp:113] Setting up inception_4d/relu_3x3_reduce
I1215 22:27:21.606629 27136 net.cpp:120] Top shape: 50 144 14 14 (1411200)
I1215 22:27:21.606640 27136 layer_factory.hpp:74] Creating layer inception_4d/3x3
I1215 22:27:21.606652 27136 net.cpp:84] Creating Layer inception_4d/3x3
I1215 22:27:21.606657 27136 net.cpp:380] inception_4d/3x3 <- inception_4d/3x3_reduce
I1215 22:27:21.606665 27136 net.cpp:338] inception_4d/3x3 -> inception_4d/3x3
I1215 22:27:21.606673 27136 net.cpp:113] Setting up inception_4d/3x3
I1215 22:27:21.611580 27136 net.cpp:120] Top shape: 50 288 14 14 (2822400)
I1215 22:27:21.611599 27136 layer_factory.hpp:74] Creating layer inception_4d/relu_3x3
I1215 22:27:21.611613 27136 net.cpp:84] Creating Layer inception_4d/relu_3x3
I1215 22:27:21.611619 27136 net.cpp:380] inception_4d/relu_3x3 <- inception_4d/3x3
I1215 22:27:21.611626 27136 net.cpp:327] inception_4d/relu_3x3 -> inception_4d/3x3 (in-place)
I1215 22:27:21.611635 27136 net.cpp:113] Setting up inception_4d/relu_3x3
I1215 22:27:21.611709 27136 net.cpp:120] Top shape: 50 288 14 14 (2822400)
I1215 22:27:21.611716 27136 layer_factory.hpp:74] Creating layer inception_4d/5x5_reduce
I1215 22:27:21.611726 27136 net.cpp:84] Creating Layer inception_4d/5x5_reduce
I1215 22:27:21.611732 27136 net.cpp:380] inception_4d/5x5_reduce <- inception_4c/output_inception_4c/output_0_split_2
I1215 22:27:21.611742 27136 net.cpp:338] inception_4d/5x5_reduce -> inception_4d/5x5_reduce
I1215 22:27:21.611750 27136 net.cpp:113] Setting up inception_4d/5x5_reduce
I1215 22:27:21.612406 27136 net.cpp:120] Top shape: 50 32 14 14 (313600)
I1215 22:27:21.612422 27136 layer_factory.hpp:74] Creating layer inception_4d/relu_5x5_reduce
I1215 22:27:21.612432 27136 net.cpp:84] Creating Layer inception_4d/relu_5x5_reduce
I1215 22:27:21.612438 27136 net.cpp:380] inception_4d/relu_5x5_reduce <- inception_4d/5x5_reduce
I1215 22:27:21.612445 27136 net.cpp:327] inception_4d/relu_5x5_reduce -> inception_4d/5x5_reduce (in-place)
I1215 22:27:21.612453 27136 net.cpp:113] Setting up inception_4d/relu_5x5_reduce
I1215 22:27:21.612529 27136 net.cpp:120] Top shape: 50 32 14 14 (313600)
I1215 22:27:21.612535 27136 layer_factory.hpp:74] Creating layer inception_4d/5x5
I1215 22:27:21.612545 27136 net.cpp:84] Creating Layer inception_4d/5x5
I1215 22:27:21.612550 27136 net.cpp:380] inception_4d/5x5 <- inception_4d/5x5_reduce
I1215 22:27:21.612558 27136 net.cpp:338] inception_4d/5x5 -> inception_4d/5x5
I1215 22:27:21.612566 27136 net.cpp:113] Setting up inception_4d/5x5
I1215 22:27:21.613600 27136 net.cpp:120] Top shape: 50 64 14 14 (627200)
I1215 22:27:21.613616 27136 layer_factory.hpp:74] Creating layer inception_4d/relu_5x5
I1215 22:27:21.613626 27136 net.cpp:84] Creating Layer inception_4d/relu_5x5
I1215 22:27:21.613632 27136 net.cpp:380] inception_4d/relu_5x5 <- inception_4d/5x5
I1215 22:27:21.613639 27136 net.cpp:327] inception_4d/relu_5x5 -> inception_4d/5x5 (in-place)
I1215 22:27:21.613647 27136 net.cpp:113] Setting up inception_4d/relu_5x5
I1215 22:27:21.613723 27136 net.cpp:120] Top shape: 50 64 14 14 (627200)
I1215 22:27:21.613740 27136 layer_factory.hpp:74] Creating layer inception_4d/pool
I1215 22:27:21.613746 27136 layer_factory.cpp:56] CUDNN does not support padding or multiple tops. Using Caffe's own pooling layer.
I1215 22:27:21.613752 27136 net.cpp:84] Creating Layer inception_4d/pool
I1215 22:27:21.613759 27136 net.cpp:380] inception_4d/pool <- inception_4c/output_inception_4c/output_0_split_3
I1215 22:27:21.613767 27136 net.cpp:338] inception_4d/pool -> inception_4d/pool
I1215 22:27:21.613775 27136 net.cpp:113] Setting up inception_4d/pool
I1215 22:27:21.613785 27136 net.cpp:120] Top shape: 50 512 14 14 (5017600)
I1215 22:27:21.613790 27136 layer_factory.hpp:74] Creating layer inception_4d/pool_proj
I1215 22:27:21.613797 27136 net.cpp:84] Creating Layer inception_4d/pool_proj
I1215 22:27:21.613804 27136 net.cpp:380] inception_4d/pool_proj <- inception_4d/pool
I1215 22:27:21.613811 27136 net.cpp:338] inception_4d/pool_proj -> inception_4d/pool_proj
I1215 22:27:21.613819 27136 net.cpp:113] Setting up inception_4d/pool_proj
I1215 22:27:21.614624 27136 net.cpp:120] Top shape: 50 64 14 14 (627200)
I1215 22:27:21.614639 27136 layer_factory.hpp:74] Creating layer inception_4d/relu_pool_proj
I1215 22:27:21.614650 27136 net.cpp:84] Creating Layer inception_4d/relu_pool_proj
I1215 22:27:21.614655 27136 net.cpp:380] inception_4d/relu_pool_proj <- inception_4d/pool_proj
I1215 22:27:21.614662 27136 net.cpp:327] inception_4d/relu_pool_proj -> inception_4d/pool_proj (in-place)
I1215 22:27:21.614670 27136 net.cpp:113] Setting up inception_4d/relu_pool_proj
I1215 22:27:21.614918 27136 net.cpp:120] Top shape: 50 64 14 14 (627200)
I1215 22:27:21.614933 27136 layer_factory.hpp:74] Creating layer inception_4d/output
I1215 22:27:21.614940 27136 net.cpp:84] Creating Layer inception_4d/output
I1215 22:27:21.614946 27136 net.cpp:380] inception_4d/output <- inception_4d/1x1
I1215 22:27:21.614953 27136 net.cpp:380] inception_4d/output <- inception_4d/3x3
I1215 22:27:21.614959 27136 net.cpp:380] inception_4d/output <- inception_4d/5x5
I1215 22:27:21.614964 27136 net.cpp:380] inception_4d/output <- inception_4d/pool_proj
I1215 22:27:21.614969 27136 net.cpp:338] inception_4d/output -> inception_4d/output
I1215 22:27:21.614977 27136 net.cpp:113] Setting up inception_4d/output
I1215 22:27:21.614985 27136 net.cpp:120] Top shape: 50 528 14 14 (5174400)
I1215 22:27:21.614990 27136 layer_factory.hpp:74] Creating layer inception_4d/output_inception_4d/output_0_split
I1215 22:27:21.614997 27136 net.cpp:84] Creating Layer inception_4d/output_inception_4d/output_0_split
I1215 22:27:21.615002 27136 net.cpp:380] inception_4d/output_inception_4d/output_0_split <- inception_4d/output
I1215 22:27:21.615012 27136 net.cpp:338] inception_4d/output_inception_4d/output_0_split -> inception_4d/output_inception_4d/output_0_split_0
I1215 22:27:21.615021 27136 net.cpp:338] inception_4d/output_inception_4d/output_0_split -> inception_4d/output_inception_4d/output_0_split_1
I1215 22:27:21.615028 27136 net.cpp:338] inception_4d/output_inception_4d/output_0_split -> inception_4d/output_inception_4d/output_0_split_2
I1215 22:27:21.615036 27136 net.cpp:338] inception_4d/output_inception_4d/output_0_split -> inception_4d/output_inception_4d/output_0_split_3
I1215 22:27:21.615042 27136 net.cpp:338] inception_4d/output_inception_4d/output_0_split -> inception_4d/output_inception_4d/output_0_split_4
I1215 22:27:21.615049 27136 net.cpp:113] Setting up inception_4d/output_inception_4d/output_0_split
I1215 22:27:21.615058 27136 net.cpp:120] Top shape: 50 528 14 14 (5174400)
I1215 22:27:21.615064 27136 net.cpp:120] Top shape: 50 528 14 14 (5174400)
I1215 22:27:21.615069 27136 net.cpp:120] Top shape: 50 528 14 14 (5174400)
I1215 22:27:21.615075 27136 net.cpp:120] Top shape: 50 528 14 14 (5174400)
I1215 22:27:21.615080 27136 net.cpp:120] Top shape: 50 528 14 14 (5174400)
I1215 22:27:21.615084 27136 layer_factory.hpp:74] Creating layer loss2/ave_pool
I1215 22:27:21.615092 27136 net.cpp:84] Creating Layer loss2/ave_pool
I1215 22:27:21.615104 27136 net.cpp:380] loss2/ave_pool <- inception_4d/output_inception_4d/output_0_split_0
I1215 22:27:21.615118 27136 net.cpp:338] loss2/ave_pool -> loss2/ave_pool
I1215 22:27:21.615124 27136 net.cpp:113] Setting up loss2/ave_pool
I1215 22:27:21.615201 27136 net.cpp:120] Top shape: 50 528 4 4 (422400)
I1215 22:27:21.615208 27136 layer_factory.hpp:74] Creating layer loss2/conv
I1215 22:27:21.615216 27136 net.cpp:84] Creating Layer loss2/conv
I1215 22:27:21.615221 27136 net.cpp:380] loss2/conv <- loss2/ave_pool
I1215 22:27:21.615231 27136 net.cpp:338] loss2/conv -> loss2/conv
I1215 22:27:21.615239 27136 net.cpp:113] Setting up loss2/conv
I1215 22:27:21.616448 27136 net.cpp:120] Top shape: 50 128 4 4 (102400)
I1215 22:27:21.616464 27136 layer_factory.hpp:74] Creating layer loss2/relu_conv
I1215 22:27:21.616474 27136 net.cpp:84] Creating Layer loss2/relu_conv
I1215 22:27:21.616480 27136 net.cpp:380] loss2/relu_conv <- loss2/conv
I1215 22:27:21.616487 27136 net.cpp:327] loss2/relu_conv -> loss2/conv (in-place)
I1215 22:27:21.616495 27136 net.cpp:113] Setting up loss2/relu_conv
I1215 22:27:21.616566 27136 net.cpp:120] Top shape: 50 128 4 4 (102400)
I1215 22:27:21.616574 27136 layer_factory.hpp:74] Creating layer loss2/fc
I1215 22:27:21.616583 27136 net.cpp:84] Creating Layer loss2/fc
I1215 22:27:21.616588 27136 net.cpp:380] loss2/fc <- loss2/conv
I1215 22:27:21.616595 27136 net.cpp:338] loss2/fc -> loss2/fc
I1215 22:27:21.616603 27136 net.cpp:113] Setting up loss2/fc
I1215 22:27:21.639601 27136 net.cpp:120] Top shape: 50 1024 (51200)
I1215 22:27:21.639616 27136 layer_factory.hpp:74] Creating layer loss2/relu_fc
I1215 22:27:21.639623 27136 net.cpp:84] Creating Layer loss2/relu_fc
I1215 22:27:21.639629 27136 net.cpp:380] loss2/relu_fc <- loss2/fc
I1215 22:27:21.639636 27136 net.cpp:327] loss2/relu_fc -> loss2/fc (in-place)
I1215 22:27:21.639646 27136 net.cpp:113] Setting up loss2/relu_fc
I1215 22:27:21.639727 27136 net.cpp:120] Top shape: 50 1024 (51200)
I1215 22:27:21.639734 27136 layer_factory.hpp:74] Creating layer loss2/drop_fc
I1215 22:27:21.639741 27136 net.cpp:84] Creating Layer loss2/drop_fc
I1215 22:27:21.639746 27136 net.cpp:380] loss2/drop_fc <- loss2/fc
I1215 22:27:21.639755 27136 net.cpp:327] loss2/drop_fc -> loss2/fc (in-place)
I1215 22:27:21.639761 27136 net.cpp:113] Setting up loss2/drop_fc
I1215 22:27:21.639768 27136 net.cpp:120] Top shape: 50 1024 (51200)
I1215 22:27:21.639773 27136 layer_factory.hpp:74] Creating layer loss2/classifier_kaggle
I1215 22:27:21.639781 27136 net.cpp:84] Creating Layer loss2/classifier_kaggle
I1215 22:27:21.639786 27136 net.cpp:380] loss2/classifier_kaggle <- loss2/fc
I1215 22:27:21.639796 27136 net.cpp:338] loss2/classifier_kaggle -> loss2/classifier_kaggle
I1215 22:27:21.639803 27136 net.cpp:113] Setting up loss2/classifier_kaggle
I1215 22:27:21.645126 27136 net.cpp:120] Top shape: 50 447 (22350)
I1215 22:27:21.645139 27136 layer_factory.hpp:74] Creating layer loss2/classifier_kaggle_loss2/classifier_kaggle_0_split
I1215 22:27:21.645148 27136 net.cpp:84] Creating Layer loss2/classifier_kaggle_loss2/classifier_kaggle_0_split
I1215 22:27:21.645154 27136 net.cpp:380] loss2/classifier_kaggle_loss2/classifier_kaggle_0_split <- loss2/classifier_kaggle
I1215 22:27:21.645161 27136 net.cpp:338] loss2/classifier_kaggle_loss2/classifier_kaggle_0_split -> loss2/classifier_kaggle_loss2/classifier_kaggle_0_split_0
I1215 22:27:21.645170 27136 net.cpp:338] loss2/classifier_kaggle_loss2/classifier_kaggle_0_split -> loss2/classifier_kaggle_loss2/classifier_kaggle_0_split_1
I1215 22:27:21.645177 27136 net.cpp:338] loss2/classifier_kaggle_loss2/classifier_kaggle_0_split -> loss2/classifier_kaggle_loss2/classifier_kaggle_0_split_2
I1215 22:27:21.645184 27136 net.cpp:113] Setting up loss2/classifier_kaggle_loss2/classifier_kaggle_0_split
I1215 22:27:21.645191 27136 net.cpp:120] Top shape: 50 447 (22350)
I1215 22:27:21.645197 27136 net.cpp:120] Top shape: 50 447 (22350)
I1215 22:27:21.645202 27136 net.cpp:120] Top shape: 50 447 (22350)
I1215 22:27:21.645206 27136 layer_factory.hpp:74] Creating layer loss2/loss
I1215 22:27:21.645222 27136 net.cpp:84] Creating Layer loss2/loss
I1215 22:27:21.645236 27136 net.cpp:380] loss2/loss <- loss2/classifier_kaggle_loss2/classifier_kaggle_0_split_0
I1215 22:27:21.645242 27136 net.cpp:380] loss2/loss <- label_data_1_split_3
I1215 22:27:21.645248 27136 net.cpp:338] loss2/loss -> loss2/loss1
…
I1215 22:27:21.645685 27136 net.cpp:338] loss2/top-5 -> loss2/top-5
I1215 22:27:21.645692 27136 net.cpp:113] Setting up loss2/top-5
I1215 22:27:21.645699 27136 net.cpp:120] Top shape: (1)
I1215 22:27:21.645704 27136 layer_factory.hpp:74] Creating layer inception_4e/1x1
I1215 22:27:21.645714 27136 net.cpp:84] Creating Layer inception_4e/1x1
I1215 22:27:21.645719 27136 net.cpp:380] inception_4e/1x1 <- inception_4d/output_inception_4d/output_0_split_1
I1215 22:27:21.645725 27136 net.cpp:338] inception_4e/1x1 -> inception_4e/1x1
I1215 22:27:21.645737 27136 net.cpp:113] Setting up inception_4e/1x1
I1215 22:27:21.647735 27136 net.cpp:120] Top shape: 50 256 14 14 (2508800)
I1215 22:27:21.647752 27136 layer_factory.hpp:74] Creating layer inception_4e/relu_1x1
I1215 22:27:21.647761 27136 net.cpp:84] Creating Layer inception_4e/relu_1x1
I1215 22:27:21.647768 27136 net.cpp:380] inception_4e/relu_1x1 <- inception_4e/1x1
I1215 22:27:21.647774 27136 net.cpp:327] inception_4e/relu_1x1 -> inception_4e/1x1 (in-place)
I1215 22:27:21.647783 27136 net.cpp:113] Setting up inception_4e/relu_1x1
I1215 22:27:21.647857 27136 net.cpp:120] Top shape: 50 256 14 14 (2508800)
I1215 22:27:21.647864 27136 layer_factory.hpp:74] Creating layer inception_4e/3x3_reduce
I1215 22:27:21.647891 27136 net.cpp:84] Creating Layer inception_4e/3x3_reduce
I1215 22:27:21.647897 27136 net.cpp:380] inception_4e/3x3_reduce <- inception_4d/output_inception_4d/output_0_split_2
I1215 22:27:21.647907 27136 net.cpp:338] inception_4e/3x3_reduce -> inception_4e/3x3_reduce
I1215 22:27:21.647915 27136 net.cpp:113] Setting up inception_4e/3x3_reduce
I1215 22:27:21.649338 27136 net.cpp:120] Top shape: 50 160 14 14 (1568000)
I1215 22:27:21.649354 27136 layer_factory.hpp:74] Creating layer inception_4e/relu_3x3_reduce
I1215 22:27:21.649364 27136 net.cpp:84] Creating Layer inception_4e/relu_3x3_reduce
I1215 22:27:21.649370 27136 net.cpp:380] inception_4e/relu_3x3_reduce <- inception_4e/3x3_reduce
I1215 22:27:21.649377 27136 net.cpp:327] inception_4e/relu_3x3_reduce -> inception_4e/3x3_reduce (in-place)
I1215 22:27:21.649385 27136 net.cpp:113] Setting up inception_4e/relu_3x3_reduce
I1215 22:27:21.649461 27136 net.cpp:120] Top shape: 50 160 14 14 (1568000)
I1215 22:27:21.649467 27136 layer_factory.hpp:74] Creating layer inception_4e/3x3
I1215 22:27:21.649477 27136 net.cpp:84] Creating Layer inception_4e/3x3
I1215 22:27:21.649482 27136 net.cpp:380] inception_4e/3x3 <- inception_4e/3x3_reduce
I1215 22:27:21.649494 27136 net.cpp:338] inception_4e/3x3 -> inception_4e/3x3
I1215 22:27:21.649502 27136 net.cpp:113] Setting up inception_4e/3x3
I1215 22:27:21.655361 27136 net.cpp:120] Top shape: 50 320 14 14 (3136000)
I1215 22:27:21.655392 27136 layer_factory.hpp:74] Creating layer inception_4e/relu_3x3
I1215 22:27:21.655401 27136 net.cpp:84] Creating Layer inception_4e/relu_3x3
I1215 22:27:21.655407 27136 net.cpp:380] inception_4e/relu_3x3 <- inception_4e/3x3
I1215 22:27:21.655414 27136 net.cpp:327] inception_4e/relu_3x3 -> inception_4e/3x3 (in-place)
I1215 22:27:21.655422 27136 net.cpp:113] Setting up inception_4e/relu_3x3
I1215 22:27:21.655673 27136 net.cpp:120] Top shape: 50 320 14 14 (3136000)
I1215 22:27:21.655683 27136 layer_factory.hpp:74] Creating layer inception_4e/5x5_reduce
I1215 22:27:21.655694 27136 net.cpp:84] Creating Layer inception_4e/5x5_reduce
I1215 22:27:21.655699 27136 net.cpp:380] inception_4e/5x5_reduce <- inception_4d/output_inception_4d/output_0_split_3
I1215 22:27:21.655707 27136 net.cpp:338] inception_4e/5x5_reduce -> inception_4e/5x5_reduce
I1215 22:27:21.655716 27136 net.cpp:113] Setting up inception_4e/5x5_reduce
I1215 22:27:21.656322 27136 net.cpp:120] Top shape: 50 32 14 14 (313600)
I1215 22:27:21.656337 27136 layer_factory.hpp:74] Creating layer inception_4e/relu_5x5_reduce
I1215 22:27:21.656347 27136 net.cpp:84] Creating Layer inception_4e/relu_5x5_reduce
I1215 22:27:21.656353 27136 net.cpp:380] inception_4e/relu_5x5_reduce <- inception_4e/5x5_reduce
I1215 22:27:21.656359 27136 net.cpp:327] inception_4e/relu_5x5_reduce -> inception_4e/5x5_reduce (in-place)
I1215 22:27:21.656368 27136 net.cpp:113] Setting up inception_4e/relu_5x5_reduce
I1215 22:27:21.656443 27136 net.cpp:120] Top shape: 50 32 14 14 (313600)
I1215 22:27:21.656450 27136 layer_factory.hpp:74] Creating layer inception_4e/5x5
I1215 22:27:21.656461 27136 net.cpp:84] Creating Layer inception_4e/5x5
I1215 22:27:21.656466 27136 net.cpp:380] inception_4e/5x5 <- inception_4e/5x5_reduce
I1215 22:27:21.656472 27136 net.cpp:338] inception_4e/5x5 -> inception_4e/5x5
I1215 22:27:21.656481 27136 net.cpp:113] Setting up inception_4e/5x5
I1215 22:27:21.658118 27136 net.cpp:120] Top shape: 50 128 14 14 (1254400)
I1215 22:27:21.658135 27136 layer_factory.hpp:74] Creating layer inception_4e/relu_5x5
I1215 22:27:21.658143 27136 net.cpp:84] Creating Layer inception_4e/relu_5x5
I1215 22:27:21.658149 27136 net.cpp:380] inception_4e/relu_5x5 <- inception_4e/5x5
I1215 22:27:21.658157 27136 net.cpp:327] inception_4e/relu_5x5 -> inception_4e/5x5 (in-place)
I1215 22:27:21.658165 27136 net.cpp:113] Setting up inception_4e/relu_5x5
I1215 22:27:21.658239 27136 net.cpp:120] Top shape: 50 128 14 14 (1254400)
I1215 22:27:21.658246 27136 layer_factory.hpp:74] Creating layer inception_4e/pool
I1215 22:27:21.658252 27136 layer_factory.cpp:56] CUDNN does not support padding or multiple tops. Using Caffe's own pooling layer.
I1215 22:27:21.658258 27136 net.cpp:84] Creating Layer inception_4e/pool
I1215 22:27:21.658263 27136 net.cpp:380] inception_4e/pool <- inception_4d/output_inception_4d/output_0_split_4
I1215 22:27:21.658272 27136 net.cpp:338] inception_4e/pool -> inception_4e/pool
I1215 22:27:21.658280 27136 net.cpp:113] Setting up inception_4e/pool
I1215 22:27:21.658289 27136 net.cpp:120] Top shape: 50 528 14 14 (5174400)
I1215 22:27:21.658294 27136 layer_factory.hpp:74] Creating layer inception_4e/pool_proj
I1215 22:27:21.658304 27136 net.cpp:84] Creating Layer inception_4e/pool_proj
I1215 22:27:21.658309 27136 net.cpp:380] inception_4e/pool_proj <- inception_4e/pool
I1215 22:27:21.658316 27136 net.cpp:338] inception_4e/pool_proj -> inception_4e/pool_proj
I1215 22:27:21.658324 27136 net.cpp:113] Setting up inception_4e/pool_proj
I1215 22:27:21.659540 27136 net.cpp:120] Top shape: 50 128 14 14 (1254400)
I1215 22:27:21.659555 27136 layer_factory.hpp:74] Creating layer inception_4e/relu_pool_proj
I1215 22:27:21.659562 27136 net.cpp:84] Creating Layer inception_4e/relu_pool_proj
I1215 22:27:21.659570 27136 net.cpp:380] inception_4e/relu_pool_proj <- inception_4e/pool_proj
I1215 22:27:21.659577 27136 net.cpp:327] inception_4e/relu_pool_proj -> inception_4e/pool_proj (in-place)
I1215 22:27:21.659585 27136 net.cpp:113] Setting up inception_4e/relu_pool_proj
I1215 22:27:21.659662 27136 net.cpp:120] Top shape: 50 128 14 14 (1254400)
I1215 22:27:21.659675 27136 layer_factory.hpp:74] Creating layer inception_4e/output
I1215 22:27:21.659683 27136 net.cpp:84] Creating Layer inception_4e/output
I1215 22:27:21.659690 27136 net.cpp:380] inception_4e/output <- inception_4e/1x1
I1215 22:27:21.659696 27136 net.cpp:380] inception_4e/output <- inception_4e/3x3
I1215 22:27:21.659703 27136 net.cpp:380] inception_4e/output <- inception_4e/5x5
I1215 22:27:21.659708 27136 net.cpp:380] inception_4e/output <- inception_4e/pool_proj
I1215 22:27:21.659714 27136 net.cpp:338] inception_4e/output -> inception_4e/output
I1215 22:27:21.659723 27136 net.cpp:113] Setting up inception_4e/output
I1215 22:27:21.659730 27136 net.cpp:120] Top shape: 50 832 14 14 (8153600)
I1215 22:27:21.659735 27136 layer_factory.hpp:74] Creating layer pool4/3x3_s2
I1215 22:27:21.659741 27136 net.cpp:84] Creating Layer pool4/3x3_s2
I1215 22:27:21.659746 27136 net.cpp:380] pool4/3x3_s2 <- inception_4e/output
I1215 22:27:21.659754 27136 net.cpp:338] pool4/3x3_s2 -> pool4/3x3_s2
I1215 22:27:21.659762 27136 net.cpp:113] Setting up pool4/3x3_s2
I1215 22:27:21.660027 27136 net.cpp:120] Top shape: 50 832 7 7 (2038400)
I1215 22:27:21.660038 27136 layer_factory.hpp:74] Creating layer pool4/3x3_s2_pool4/3x3_s2_0_split
I1215 22:27:21.660048 27136 net.cpp:84] Creating Layer pool4/3x3_s2_pool4/3x3_s2_0_split
I1215 22:27:21.660053 27136 net.cpp:380] pool4/3x3_s2_pool4/3x3_s2_0_split <- pool4/3x3_s2
I1215 22:27:21.660060 27136 net.cpp:338] pool4/3x3_s2_pool4/3x3_s2_0_split -> pool4/3x3_s2_pool4/3x3_s2_0_split_0
I1215 22:27:21.660068 27136 net.cpp:338] pool4/3x3_s2_pool4/3x3_s2_0_split -> pool4/3x3_s2_pool4/3x3_s2_0_split_1
I1215 22:27:21.660076 27136 net.cpp:338] pool4/3x3_s2_pool4/3x3_s2_0_split -> pool4/3x3_s2_pool4/3x3_s2_0_split_2
I1215 22:27:21.660100 27136 net.cpp:338] pool4/3x3_s2_pool4/3x3_s2_0_split -> pool4/3x3_s2_pool4/3x3_s2_0_split_3
I1215 22:27:21.660107 27136 net.cpp:113] Setting up pool4/3x3_s2_pool4/3x3_s2_0_split
I1215 22:27:21.660115 27136 net.cpp:120] Top shape: 50 832 7 7 (2038400)
I1215 22:27:21.660121 27136 net.cpp:120] Top shape: 50 832 7 7 (2038400)
I1215 22:27:21.660130 27136 net.cpp:120] Top shape: 50 832 7 7 (2038400)
I1215 22:27:21.660135 27136 net.cpp:120] Top shape: 50 832 7 7 (2038400)
I1215 22:27:21.660140 27136 layer_factory.hpp:74] Creating layer inception_5a/1x1
I1215 22:27:21.660148 27136 net.cpp:84] Creating Layer inception_5a/1x1
I1215 22:27:21.660153 27136 net.cpp:380] inception_5a/1x1 <- pool4/3x3_s2_pool4/3x3_s2_0_split_0
I1215 22:27:21.660162 27136 net.cpp:338] inception_5a/1x1 -> inception_5a/1x1
I1215 22:27:21.660171 27136 net.cpp:113] Setting up inception_5a/1x1
I1215 22:27:21.665640 27136 net.cpp:120] Top shape: 50 256 7 7 (627200)
I1215 22:27:21.665659 27136 layer_factory.hpp:74] Creating layer inception_5a/relu_1x1
I1215 22:27:21.665668 27136 net.cpp:84] Creating Layer inception_5a/relu_1x1
I1215 22:27:21.665678 27136 net.cpp:380] inception_5a/relu_1x1 <- inception_5a/1x1
I1215 22:27:21.665685 27136 net.cpp:327] inception_5a/relu_1x1 -> inception_5a/1x1 (in-place)
I1215 22:27:21.665693 27136 net.cpp:113] Setting up inception_5a/relu_1x1
I1215 22:27:21.665771 27136 net.cpp:120] Top shape: 50 256 7 7 (627200)
I1215 22:27:21.665778 27136 layer_factory.hpp:74] Creating layer inception_5a/3x3_reduce
I1215 22:27:21.665787 27136 net.cpp:84] Creating Layer inception_5a/3x3_reduce
I1215 22:27:21.665792 27136 net.cpp:380] inception_5a/3x3_reduce <- pool4/3x3_s2_pool4/3x3_s2_0_split_1
I1215 22:27:21.665802 27136 net.cpp:338] inception_5a/3x3_reduce -> inception_5a/3x3_reduce
I1215 22:27:21.665812 27136 net.cpp:113] Setting up inception_5a/3x3_reduce
I1215 22:27:21.667796 27136 net.cpp:120] Top shape: 50 160 7 7 (392000)
I1215 22:27:21.667811 27136 layer_factory.hpp:74] Creating layer inception_5a/relu_3x3_reduce
I1215 22:27:21.667821 27136 net.cpp:84] Creating Layer inception_5a/relu_3x3_reduce
I1215 22:27:21.667827 27136 net.cpp:380] inception_5a/relu_3x3_reduce <- inception_5a/3x3_reduce
I1215 22:27:21.667840 27136 net.cpp:327] inception_5a/relu_3x3_reduce -> inception_5a/3x3_reduce (in-place)
I1215 22:27:21.667855 27136 net.cpp:113] Setting up inception_5a/relu_3x3_reduce
I1215 22:27:21.667932 27136 net.cpp:120] Top shape: 50 160 7 7 (392000)
I1215 22:27:21.667939 27136 layer_factory.hpp:74] Creating layer inception_5a/3x3
I1215 22:27:21.667949 27136 net.cpp:84] Creating Layer inception_5a/3x3
I1215 22:27:21.667955 27136 net.cpp:380] inception_5a/3x3 <- inception_5a/3x3_reduce
I1215 22:27:21.667963 27136 net.cpp:338] inception_5a/3x3 -> inception_5a/3x3
I1215 22:27:21.667970 27136 net.cpp:113] Setting up inception_5a/3x3
I1215 22:27:21.673768 27136 net.cpp:120] Top shape: 50 320 7 7 (784000)
I1215 22:27:21.673785 27136 layer_factory.hpp:74] Creating layer inception_5a/relu_3x3
I1215 22:27:21.673794 27136 net.cpp:84] Creating Layer inception_5a/relu_3x3
I1215 22:27:21.673799 27136 net.cpp:380] inception_5a/relu_3x3 <- inception_5a/3x3
I1215 22:27:21.673809 27136 net.cpp:327] inception_5a/relu_3x3 -> inception_5a/3x3 (in-place)
I1215 22:27:21.673816 27136 net.cpp:113] Setting up inception_5a/relu_3x3
I1215 22:27:21.673888 27136 net.cpp:120] Top shape: 50 320 7 7 (784000)
I1215 22:27:21.673895 27136 layer_factory.hpp:74] Creating layer inception_5a/5x5_reduce
I1215 22:27:21.673905 27136 net.cpp:84] Creating Layer inception_5a/5x5_reduce
I1215 22:27:21.673912 27136 net.cpp:380] inception_5a/5x5_reduce <- pool4/3x3_s2_pool4/3x3_s2_0_split_2
I1215 22:27:21.673918 27136 net.cpp:338] inception_5a/5x5_reduce -> inception_5a/5x5_reduce
I1215 22:27:21.673926 27136 net.cpp:113] Setting up inception_5a/5x5_reduce
I1215 22:27:21.674666 27136 net.cpp:120] Top shape: 50 32 7 7 (78400)
I1215 22:27:21.674682 27136 layer_factory.hpp:74] Creating layer inception_5a/relu_5x5_reduce
I1215 22:27:21.674691 27136 net.cpp:84] Creating Layer inception_5a/relu_5x5_reduce
I1215 22:27:21.674697 27136 net.cpp:380] inception_5a/relu_5x5_reduce <- inception_5a/5x5_reduce
I1215 22:27:21.674705 27136 net.cpp:327] inception_5a/relu_5x5_reduce -> inception_5a/5x5_reduce (in-place)
I1215 22:27:21.674712 27136 net.cpp:113] Setting up inception_5a/relu_5x5_reduce
I1215 22:27:21.674965 27136 net.cpp:120] Top shape: 50 32 7 7 (78400)
I1215 22:27:21.674976 27136 layer_factory.hpp:74] Creating layer inception_5a/5x5
I1215 22:27:21.674986 27136 net.cpp:84] Creating Layer inception_5a/5x5
I1215 22:27:21.674993 27136 net.cpp:380] inception_5a/5x5 <- inception_5a/5x5_reduce
I1215 22:27:21.675000 27136 net.cpp:338] inception_5a/5x5 -> inception_5a/5x5
I1215 22:27:21.675009 27136 net.cpp:113] Setting up inception_5a/5x5
I1215 22:27:21.676625 27136 net.cpp:120] Top shape: 50 128 7 7 (313600)
I1215 22:27:21.676640 27136 layer_factory.hpp:74] Creating layer inception_5a/relu_5x5
I1215 22:27:21.676648 27136 net.cpp:84] Creating Layer inception_5a/relu_5x5
I1215 22:27:21.676654 27136 net.cpp:380] inception_5a/relu_5x5 <- inception_5a/5x5
I1215 22:27:21.676662 27136 net.cpp:327] inception_5a/relu_5x5 -> inception_5a/5x5 (in-place)
I1215 22:27:21.676671 27136 net.cpp:113] Setting up inception_5a/relu_5x5
I1215 22:27:21.676745 27136 net.cpp:120] Top shape: 50 128 7 7 (313600)
I1215 22:27:21.676751 27136 layer_factory.hpp:74] Creating layer inception_5a/pool
I1215 22:27:21.676758 27136 layer_factory.cpp:56] CUDNN does not support padding or multiple tops. Using Caffe's own pooling layer.
I1215 22:27:21.676765 27136 net.cpp:84] Creating Layer inception_5a/pool
I1215 22:27:21.676771 27136 net.cpp:380] inception_5a/pool <- pool4/3x3_s2_pool4/3x3_s2_0_split_3
I1215 22:27:21.676779 27136 net.cpp:338] inception_5a/pool -> inception_5a/pool
I1215 22:27:21.676786 27136 net.cpp:113] Setting up inception_5a/pool
I1215 22:27:21.676796 27136 net.cpp:120] Top shape: 50 832 7 7 (2038400)
I1215 22:27:21.676801 27136 layer_factory.hpp:74] Creating layer inception_5a/pool_proj
I1215 22:27:21.676810 27136 net.cpp:84] Creating Layer inception_5a/pool_proj
I1215 22:27:21.676815 27136 net.cpp:380] inception_5a/pool_proj <- inception_5a/pool
I1215 22:27:21.676825 27136 net.cpp:338] inception_5a/pool_proj -> inception_5a/pool_proj
I1215 22:27:21.676843 27136 net.cpp:113] Setting up inception_5a/pool_proj
I1215 22:27:21.678530 27136 net.cpp:120] Top shape: 50 128 7 7 (313600)
I1215 22:27:21.678547 27136 layer_factory.hpp:74] Creating layer inception_5a/relu_pool_proj
I1215 22:27:21.678557 27136 net.cpp:84] Creating Layer inception_5a/relu_pool_proj
I1215 22:27:21.678563 27136 net.cpp:380] inception_5a/relu_pool_proj <- inception_5a/pool_proj
I1215 22:27:21.678570 27136 net.cpp:327] inception_5a/relu_pool_proj -> inception_5a/pool_proj (in-place)
I1215 22:27:21.678578 27136 net.cpp:113] Setting up inception_5a/relu_pool_proj
I1215 22:27:21.678650 27136 net.cpp:120] Top shape: 50 128 7 7 (313600)
I1215 22:27:21.678658 27136 layer_factory.hpp:74] Creating layer inception_5a/output
I1215 22:27:21.678666 27136 net.cpp:84] Creating Layer inception_5a/output
I1215 22:27:21.678671 27136 net.cpp:380] inception_5a/output <- inception_5a/1x1
I1215 22:27:21.678678 27136 net.cpp:380] inception_5a/output <- inception_5a/3x3
I1215 22:27:21.678683 27136 net.cpp:380] inception_5a/output <- inception_5a/5x5
I1215 22:27:21.678689 27136 net.cpp:380] inception_5a/output <- inception_5a/pool_proj
I1215 22:27:21.678695 27136 net.cpp:338] inception_5a/output -> inception_5a/output
I1215 22:27:21.678704 27136 net.cpp:113] Setting up inception_5a/output
I1215 22:27:21.678711 27136 net.cpp:120] Top shape: 50 832 7 7 (2038400)
I1215 22:27:21.678716 27136 layer_factory.hpp:74] Creating layer inception_5a/output_inception_5a/output_0_split
I1215 22:27:21.678722 27136 net.cpp:84] Creating Layer inception_5a/output_inception_5a/output_0_split
I1215 22:27:21.678727 27136 net.cpp:380] inception_5a/output_inception_5a/output_0_split <- inception_5a/output
I1215 22:27:21.678733 27136 net.cpp:338] inception_5a/output_inception_5a/output_0_split -> inception_5a/output_inception_5a/output_0_split_0
I1215 22:27:21.678743 27136 net.cpp:338] inception_5a/output_inception_5a/output_0_split -> inception_5a/output_inception_5a/output_0_split_1
I1215 22:27:21.678751 27136 net.cpp:338] inception_5a/output_inception_5a/output_0_split -> inception_5a/output_inception_5a/output_0_split_2
I1215 22:27:21.678758 27136 net.cpp:338] inception_5a/output_inception_5a/output_0_split -> inception_5a/output_inception_5a/output_0_split_3
I1215 22:27:21.678764 27136 net.cpp:113] Setting up inception_5a/output_inception_5a/output_0_split
I1215 22:27:21.678771 27136 net.cpp:120] Top shape: 50 832 7 7 (2038400)
I1215 22:27:21.678777 27136 net.cpp:120] Top shape: 50 832 7 7 (2038400)
I1215 22:27:21.678782 27136 net.cpp:120] Top shape: 50 832 7 7 (2038400)
I1215 22:27:21.678787 27136 net.cpp:120] Top shape: 50 832 7 7 (2038400)
I1215 22:27:21.678792 27136 layer_factory.hpp:74] Creating layer inception_5b/1x1
I1215 22:27:21.678807 27136 net.cpp:84] Creating Layer inception_5b/1x1
I1215 22:27:21.678812 27136 net.cpp:380] inception_5b/1x1 <- inception_5a/output_inception_5a/output_0_split_0
I1215 22:27:21.678818 27136 net.cpp:338] inception_5b/1x1 -> inception_5b/1x1
I1215 22:27:21.678827 27136 net.cpp:113] Setting up inception_5b/1x1
I1215 22:27:21.682982 27136 net.cpp:120] Top shape: 50 384 7 7 (940800)
I1215 22:27:21.682999 27136 layer_factory.hpp:74] Creating layer inception_5b/relu_1x1
I1215 22:27:21.683007 27136 net.cpp:84] Creating Layer inception_5b/relu_1x1
I1215 22:27:21.683012 27136 net.cpp:380] inception_5b/relu_1x1 <- inception_5b/1x1
I1215 22:27:21.683020 27136 net.cpp:327] inception_5b/relu_1x1 -> inception_5b/1x1 (in-place)
I1215 22:27:21.683028 27136 net.cpp:113] Setting up inception_5b/relu_1x1
I1215 22:27:21.683104 27136 net.cpp:120] Top shape: 50 384 7 7 (940800)
I1215 22:27:21.683114 27136 layer_factory.hpp:74] Creating layer inception_5b/3x3_reduce
I1215 22:27:21.683123 27136 net.cpp:84] Creating Layer inception_5b/3x3_reduce
I1215 22:27:21.683128 27136 net.cpp:380] inception_5b/3x3_reduce <- inception_5a/output_inception_5a/output_0_split_1
I1215 22:27:21.683136 27136 net.cpp:338] inception_5b/3x3_reduce -> inception_5b/3x3_reduce
I1215 22:27:21.683151 27136 net.cpp:113] Setting up inception_5b/3x3_reduce
I1215 22:27:21.685506 27136 net.cpp:120] Top shape: 50 192 7 7 (470400)
I1215 22:27:21.685524 27136 layer_factory.hpp:74] Creating layer inception_5b/relu_3x3_reduce
I1215 22:27:21.685534 27136 net.cpp:84] Creating Layer inception_5b/relu_3x3_reduce
I1215 22:27:21.685540 27136 net.cpp:380] inception_5b/relu_3x3_reduce <- inception_5b/3x3_reduce
I1215 22:27:21.685549 27136 net.cpp:327] inception_5b/relu_3x3_reduce -> inception_5b/3x3_reduce (in-place)
I1215 22:27:21.685556 27136 net.cpp:113] Setting up inception_5b/relu_3x3_reduce
I1215 22:27:21.685809 27136 net.cpp:120] Top shape: 50 192 7 7 (470400)
I1215 22:27:21.685820 27136 layer_factory.hpp:74] Creating layer inception_5b/3x3
I1215 22:27:21.685829 27136 net.cpp:84] Creating Layer inception_5b/3x3
I1215 22:27:21.685835 27136 net.cpp:380] inception_5b/3x3 <- inception_5b/3x3_reduce
I1215 22:27:21.685844 27136 net.cpp:338] inception_5b/3x3 -> inception_5b/3x3
I1215 22:27:21.685854 27136 net.cpp:113] Setting up inception_5b/3x3
I1215 22:27:21.693979 27136 net.cpp:120] Top shape: 50 384 7 7 (940800)
I1215 22:27:21.693996 27136 layer_factory.hpp:74] Creating layer inception_5b/relu_3x3
I1215 22:27:21.694005 27136 net.cpp:84] Creating Layer inception_5b/relu_3x3
I1215 22:27:21.694010 27136 net.cpp:380] inception_5b/relu_3x3 <- inception_5b/3x3
I1215 22:27:21.694017 27136 net.cpp:327] inception_5b/relu_3x3 -> inception_5b/3x3 (in-place)
I1215 22:27:21.694025 27136 net.cpp:113] Setting up inception_5b/relu_3x3
I1215 22:27:21.694099 27136 net.cpp:120] Top shape: 50 384 7 7 (940800)
I1215 22:27:21.694105 27136 layer_factory.hpp:74] Creating layer inception_5b/5x5_reduce
I1215 22:27:21.694114 27136 net.cpp:84] Creating Layer inception_5b/5x5_reduce
I1215 22:27:21.694120 27136 net.cpp:380] inception_5b/5x5_reduce <- inception_5a/output_inception_5a/output_0_split_2
I1215 22:27:21.694129 27136 net.cpp:338] inception_5b/5x5_reduce -> inception_5b/5x5_reduce
I1215 22:27:21.694138 27136 net.cpp:113] Setting up inception_5b/5x5_reduce
I1215 22:27:21.695024 27136 net.cpp:120] Top shape: 50 48 7 7 (117600)
I1215 22:27:21.695041 27136 layer_factory.hpp:74] Creating layer inception_5b/relu_5x5_reduce
I1215 22:27:21.695050 27136 net.cpp:84] Creating Layer inception_5b/relu_5x5_reduce
I1215 22:27:21.695055 27136 net.cpp:380] inception_5b/relu_5x5_reduce <- inception_5b/5x5_reduce
I1215 22:27:21.695061 27136 net.cpp:327] inception_5b/relu_5x5_reduce -> inception_5b/5x5_reduce (in-place)
I1215 22:27:21.695070 27136 net.cpp:113] Setting up inception_5b/relu_5x5_reduce
I1215 22:27:21.695142 27136 net.cpp:120] Top shape: 50 48 7 7 (117600)
I1215 22:27:21.695150 27136 layer_factory.hpp:74] Creating layer inception_5b/5x5
I1215 22:27:21.695163 27136 net.cpp:84] Creating Layer inception_5b/5x5
I1215 22:27:21.695168 27136 net.cpp:380] inception_5b/5x5 <- inception_5b/5x5_reduce
I1215 22:27:21.695175 27136 net.cpp:338] inception_5b/5x5 -> inception_5b/5x5
I1215 22:27:21.695184 27136 net.cpp:113] Setting up inception_5b/5x5
I1215 22:27:21.697407 27136 net.cpp:120] Top shape: 50 128 7 7 (313600)
I1215 22:27:21.697423 27136 layer_factory.hpp:74] Creating layer inception_5b/relu_5x5
I1215 22:27:21.697433 27136 net.cpp:84] Creating Layer inception_5b/relu_5x5
I1215 22:27:21.697439 27136 net.cpp:380] inception_5b/relu_5x5 <- inception_5b/5x5
I1215 22:27:21.697446 27136 net.cpp:327] inception_5b/relu_5x5 -> inception_5b/5x5 (in-place)
I1215 22:27:21.697454 27136 net.cpp:113] Setting up inception_5b/relu_5x5
I1215 22:27:21.697705 27136 net.cpp:120] Top shape: 50 128 7 7 (313600)
I1215 22:27:21.697716 27136 layer_factory.hpp:74] Creating layer inception_5b/pool
I1215 22:27:21.697722 27136 layer_factory.cpp:56] CUDNN does not support padding or multiple tops. Using Caffe's own pooling layer.
I1215 22:27:21.697731 27136 net.cpp:84] Creating Layer inception_5b/pool
I1215 22:27:21.697736 27136 net.cpp:380] inception_5b/pool <- inception_5a/output_inception_5a/output_0_split_3
I1215 22:27:21.697744 27136 net.cpp:338] inception_5b/pool -> inception_5b/pool
I1215 22:27:21.697758 27136 net.cpp:113] Setting up inception_5b/pool
I1215 22:27:21.697774 27136 net.cpp:120] Top shape: 50 832 7 7 (2038400)
I1215 22:27:21.697779 27136 layer_factory.hpp:74] Creating layer inception_5b/pool_proj
I1215 22:27:21.697790 27136 net.cpp:84] Creating Layer inception_5b/pool_proj
I1215 22:27:21.697795 27136 net.cpp:380] inception_5b/pool_proj <- inception_5b/pool
I1215 22:27:21.697804 27136 net.cpp:338] inception_5b/pool_proj -> inception_5b/pool_proj
I1215 22:27:21.697813 27136 net.cpp:113] Setting up inception_5b/pool_proj
I1215 22:27:21.699477 27136 net.cpp:120] Top shape: 50 128 7 7 (313600)
I1215 22:27:21.699493 27136 layer_factory.hpp:74] Creating layer inception_5b/relu_pool_proj
I1215 22:27:21.699501 27136 net.cpp:84] Creating Layer inception_5b/relu_pool_proj
I1215 22:27:21.699506 27136 net.cpp:380] inception_5b/relu_pool_proj <- inception_5b/pool_proj
I1215 22:27:21.699517 27136 net.cpp:327] inception_5b/relu_pool_proj -> inception_5b/pool_proj (in-place)
I1215 22:27:21.699524 27136 net.cpp:113] Setting up inception_5b/relu_pool_proj
I1215 22:27:21.699599 27136 net.cpp:120] Top shape: 50 128 7 7 (313600)
I1215 22:27:21.699605 27136 layer_factory.hpp:74] Creating layer inception_5b/output
I1215 22:27:21.699614 27136 net.cpp:84] Creating Layer inception_5b/output
I1215 22:27:21.699618 27136 net.cpp:380] inception_5b/output <- inception_5b/1x1
I1215 22:27:21.699625 27136 net.cpp:380] inception_5b/output <- inception_5b/3x3
I1215 22:27:21.699630 27136 net.cpp:380] inception_5b/output <- inception_5b/5x5
I1215 22:27:21.699635 27136 net.cpp:380] inception_5b/output <- inception_5b/pool_proj
I1215 22:27:21.699643 27136 net.cpp:338] inception_5b/output -> inception_5b/output
I1215 22:27:21.699651 27136 net.cpp:113] Setting up inception_5b/output
I1215 22:27:21.699659 27136 net.cpp:120] Top shape: 50 1024 7 7 (2508800)
I1215 22:27:21.699664 27136 layer_factory.hpp:74] Creating layer pool5/7x7_s1
I1215 22:27:21.699671 27136 net.cpp:84] Creating Layer pool5/7x7_s1
I1215 22:27:21.699676 27136 net.cpp:380] pool5/7x7_s1 <- inception_5b/output
I1215 22:27:21.699686 27136 net.cpp:338] pool5/7x7_s1 -> pool5/7x7_s1
I1215 22:27:21.699692 27136 net.cpp:113] Setting up pool5/7x7_s1
I1215 22:27:21.699766 27136 net.cpp:120] Top shape: 50 1024 1 1 (51200)
I1215 22:27:21.699774 27136 layer_factory.hpp:74] Creating layer pool5/drop_7x7_s1
I1215 22:27:21.699782 27136 net.cpp:84] Creating Layer pool5/drop_7x7_s1
I1215 22:27:21.699789 27136 net.cpp:380] pool5/drop_7x7_s1 <- pool5/7x7_s1
I1215 22:27:21.699795 27136 net.cpp:327] pool5/drop_7x7_s1 -> pool5/7x7_s1 (in-place)
I1215 22:27:21.699801 27136 net.cpp:113] Setting up pool5/drop_7x7_s1
I1215 22:27:21.699808 27136 net.cpp:120] Top shape: 50 1024 1 1 (51200)
I1215 22:27:21.699813 27136 layer_factory.hpp:74] Creating layer loss3/classifier_kaggle
I1215 22:27:21.699822 27136 net.cpp:84] Creating Layer loss3/classifier_kaggle
I1215 22:27:21.699826 27136 net.cpp:380] loss3/classifier_kaggle <- pool5/7x7_s1
I1215 22:27:21.699833 27136 net.cpp:338] loss3/classifier_kaggle -> loss3/classifier_kaggle
I1215 22:27:21.699841 27136 net.cpp:113] Setting up loss3/classifier_kaggle
I1215 22:27:21.705155 27136 net.cpp:120] Top shape: 50 447 (22350)
I1215 22:27:21.705169 27136 layer_factory.hpp:74] Creating layer loss3/classifier_kaggle_loss3/classifier_kaggle_0_split
I1215 22:27:21.705176 27136 net.cpp:84] Creating Layer loss3/classifier_kaggle_loss3/classifier_kaggle_0_split
I1215 22:27:21.705183 27136 net.cpp:380] loss3/classifier_kaggle_loss3/classifier_kaggle_0_split <- loss3/classifier_kaggle
I1215 22:27:21.705189 27136 net.cpp:338] loss3/classifier_kaggle_loss3/classifier_kaggle_0_split -> loss3/classifier_kaggle_loss3/classifier_kaggle_0_split_0
I1215 22:27:21.705199 27136 net.cpp:338] loss3/classifier_kaggle_loss3/classifier_kaggle_0_split -> loss3/classifier_kaggle_loss3/classifier_kaggle_0_split_1
I1215 22:27:21.705205 27136 net.cpp:338] loss3/classifier_kaggle_loss3/classifier_kaggle_0_split -> loss3/classifier_kaggle_loss3/classifier_kaggle_0_split_2
I1215 22:27:21.705217 27136 net.cpp:113] Setting up loss3/classifier_kaggle_loss3/classifier_kaggle_0_split
I1215 22:27:21.705232 27136 net.cpp:120] Top shape: 50 447 (22350)
I1215 22:27:21.705237 27136 net.cpp:120] Top shape: 50 447 (22350)
I1215 22:27:21.705243 27136 net.cpp:120] Top shape: 50 447 (22350)
I1215 22:27:21.705247 27136 layer_factory.hpp:74] Creating layer loss3/loss3
I1215 22:27:21.705256 27136 net.cpp:84] Creating Layer loss3/loss3
I1215 22:27:21.705261 27136 net.cpp:380] loss3/loss3 <- loss3/classifier_kaggle_loss3/classifier_kaggle_0_split_0
I1215 22:27:21.705267 27136 net.cpp:380] loss3/loss3 <- label_data_1_split_6
I1215 22:27:21.705274 27136 net.cpp:338] loss3/loss3 -> loss3/loss3
…
