…
I1217 19:38:07.775717 15822 net.cpp:257] The NetState phase (0) differed from the phase (1) specified by a rule in layer loss3/top-5
I1217 19:38:07.780027 15822 net.cpp:42] Initializing net from parameters: 
name: "MYNET"
state {
  phase: TRAIN
}
layer {
  name: "data"
  type: "ImageData"
  top: "data"
  top: "label"
  include {
    phase: TRAIN
  }
  transform_param {
    mirror: false
    crop_size: 224
    mean_value: 129
    mean_value: 129
    mean_value: 129
  }
  image_data_param {
    source: "/home/coldmanck/kaggle/label_train_full.txt"
    batch_size: 80
    shuffle: true
  }
}
layer {
  name: "conv1/7x7_s2"
  type: "Convolution"
  bottom: "data"
  top: "conv1/7x7_s2"
  param {
    lr_mult: 1
    decay_mult: 1
  }
  param {
    lr_mult: 2
    decay_mult: 0
  }
  convolution_param {
    num_output: 64
    pad: 3
    kernel_size: 7
    stride: 2
    weight_filler {
      type: "xavier"
    }
    bias_filler {
      type: "constant"
      value: 0.2
    }
  }
}
layer {
  name: "conv1/relu_7x7"
  type: "ReLU"
  bottom: "conv1/7x7_s2"
  top: "conv1/7x7_s2"
}
layer {
  name: "pool1/3x3_s2"
  type: "Pooling"
  bottom: "conv1/7x7_s2"
  top: "pool1/3x3_s2"
  pooling_param {
    pool: MAX
    kernel_size: 3
    stride: 2
  }
}
layer {
  name: "pool1/norm1"
  type: "LRN"
  bottom: "pool1/3x3_s2"
  top: "pool1/norm1"
  lrn_param {
    local_size: 5
    alpha: 0.0001
    beta: 0.75
  }
}
layer {
  name: "conv2/3x3_reduce"
  type: "Convolution"
  bottom: "pool1/norm1"
  top: "conv2/3x3_reduce"
  param {
    lr_mult: 1
    decay_mult: 1
  }
  param {
    lr_mult: 2
    decay_mult: 0
  }
  convolution_param {
    num_output: 64
    kernel_size: 1
    weight_filler {
      type: "xavier"
    }
    bias_filler {
      type: "constant"
      value: 0.2
    }
  }
}
layer {
  name: "conv2/relu_3x3_reduce"
  type: "ReLU"
  bottom: "conv2/3x3_reduce"
  top: "conv2/3x3_reduce"
}
layer {
  name: "conv2/3x3"
  type: "Convolution"
  bottom: "conv2/3x3_reduce"
  top: "conv2/3x3"
  param {
    lr_mult: 1
    decay_mult: 1
  }
  param {
    lr_mult: 2
    decay_mult: 0
  }
  convolution_param {
    num_output: 192
    pad: 1
    kernel_size: 3
    weight_filler {
      type: "xavier"
    }
    bias_filler {
      type: "constant"
      value: 0.2
    }
  }
}
layer {
  name: "conv2/relu_3x3"
  type: "ReLU"
  bottom: "conv2/3x3"
  top: "conv2/3x3"
}
layer {
  name: "conv2/norm2"
  type: "LRN"
  bottom: "conv2/3x3"
  top: "conv2/norm2"
  lrn_param {
    local_size: 5
    alpha: 0.0001
    beta: 0.75
  }
}
layer {
  name: "pool2/3x3_s2"
  type: "Pooling"
  bottom: "conv2/norm2"
  top: "pool2/3x3_s2"
  pooling_param {
    pool: MAX
    kernel_size: 3
    stride: 2
  }
}
layer {
  name: "inception_3a/1x1"
  type: "Convolution"
  bottom: "pool2/3x3_s2"
  top: "inception_3a/1x1"
  param {
    lr_mult: 1
    decay_mult: 1
  }
  param {
    lr_mult: 2
    decay_mult: 0
  }
  convolution_param {
    num_output: 64
    kernel_size: 1
    weight_filler {
      type: "xavier"
    }
    bias_filler {
      type: "constant"
      value: 0.2
    }
  }
}
layer {
  name: "inception_3a/relu_1x1"
  type: "ReLU"
  bottom: "inception_3a/1x1"
  top: "inception_3a/1x1"
}
layer {
  name: "inception_3a/3x3_reduce"
  type: "Convolution"
  bottom: "pool2/3x3_s2"
  top: "inception_3a/3x3_reduce"
  param {
    lr_mult: 1
    decay_mult: 1
  }
  param {
    lr_mult: 2
    decay_mult: 0
  }
  convolution_param {
    num_output: 96
    kernel_size: 1
    weight_filler {
      type: "xavier"
    }
    bias_filler {
      type: "constant"
      value: 0.2
    }
  }
}
layer {
  name: "inception_3a/relu_3x3_reduce"
  type: "ReLU"
  bottom: "inception_3a/3x3_reduce"
  top: "inception_3a/3x3_reduce"
}
layer {
  name: "inception_3a/3x3"
  type: "Convolution"
  bottom: "inception_3a/3x3_reduce"
  top: "inception_3a/3x3"
  param {
    lr_mult: 1
    decay_mult: 1
  }
  param {
    lr_mult: 2
    decay_mult: 0
  }
  convolution_param {
    num_output: 128
    pad: 1
    kernel_size: 3
    weight_filler {
      type: "xavier"
    }
    bias_filler {
      type: "constant"
      value: 0.2
    }
  }
}
layer {
  name: "inception_3a/relu_3x3"
  type: "ReLU"
  bottom: "inception_3a/3x3"
  top: "inception_3a/3x3"
}
layer {
  name: "inception_3a/5x5_reduce"
  type: "Convolution"
  bottom: "pool2/3x3_s2"
  top: "inception_3a/5x5_reduce"
  param {
    lr_mult: 1
    decay_mult: 1
  }
  param {
    lr_mult: 2
    decay_mult: 0
  }
  convolution_param {
    num_output: 16
    kernel_size: 1
    weight_filler {
      type: "xavier"
    }
    bias_filler {
      type: "constant"
      value: 0.2
    }
  }
}
layer {
  name: "inception_3a/relu_5x5_reduce"
  type: "ReLU"
  bottom: "inception_3a/5x5_reduce"
  top: "inception_3a/5x5_reduce"
}
layer {
  name: "inception_3a/5x5"
  type: "Convolution"
  bottom: "inception_3a/5x5_reduce"
  top: "inception_3a/5x5"
  param {
    lr_mult: 1
    decay_mult: 1
  }
  param {
    lr_mult: 2
    decay_mult: 0
  }
  convolution_param {
    num_output: 32
    pad: 2
    kernel_size: 5
    weight_filler {
      type: "xavier"
    }
    bias_filler {
      type: "constant"
      value: 0.2
    }
  }
}
layer {
  name: "inception_3a/relu_5x5"
  type: "ReLU"
  bottom: "inception_3a/5x5"
  top: "inception_3a/5x5"
}
layer {
  name: "inception_3a/pool"
  type: "Pooling"
  bottom: "pool2/3x3_s2"
  top: "inception_3a/pool"
  pooling_param {
    pool: MAX
    kernel_size: 3
    stride: 1
    pad: 1
  }
}
layer {
  name: "inception_3a/pool_proj"
  type: "Convolution"
  bottom: "inception_3a/pool"
  top: "inception_3a/pool_proj"
  param {
    lr_mult: 1
    decay_mult: 1
  }
  param {
    lr_mult: 2
    decay_mult: 0
  }
  convolution_param {
    num_output: 32
    kernel_size: 1
    weight_filler {
      type: "xavier"
    }
    bias_filler {
      type: "constant"
      value: 0.2
    }
  }
}
layer {
  name: "inception_3a/relu_pool_proj"
  type: "ReLU"
  bottom: "inception_3a/pool_proj"
  top: "inception_3a/pool_proj"
}
layer {
  name: "inception_3a/output"
  type: "Concat"
  bottom: "inception_3a/1x1"
  bottom: "inception_3a/3x3"
  bottom: "inception_3a/5x5"
  bottom: "inception_3a/pool_proj"
  top: "inception_3a/output"
}
layer {
  name: "inception_3b/1x1"
  type: "Convolution"
  bottom: "inception_3a/output"
  top: "inception_3b/1x1"
  param {
    lr_mult: 1
    decay_mult: 1
  }
  param {
    lr_mult: 2
    decay_mult: 0
  }
  convolution_param {
    num_output: 128
    kernel_size: 1
    weight_filler {
      type: "xavier"
    }
    bias_filler {
      type: "constant"
      value: 0.2
    }
  }
}
layer {
  name: "inception_3b/relu_1x1"
  type: "ReLU"
  bottom: "inception_3b/1x1"
  top: "inception_3b/1x1"
}
layer {
  name: "inception_3b/3x3_reduce"
  type: "Convolution"
  bottom: "inception_3a/output"
  top: "inception_3b/3x3_reduce"
  param {
    lr_mult: 1
    decay_mult: 1
  }
  param {
    lr_mult: 2
    decay_mult: 0
  }
  convolution_param {
    num_output: 128
    kernel_size: 1
    weight_filler {
      type: "xavier"
    }
    bias_filler {
      type: "constant"
      value: 0.2
    }
  }
}
layer {
  name: "inception_3b/relu_3x3_reduce"
  type: "ReLU"
  bottom: "inception_3b/3x3_reduce"
  top: "inception_3b/3x3_reduce"
}
layer {
  name: "inception_3b/3x3"
  type: "Convolution"
  bottom: "inception_3b/3x3_reduce"
  top: "inception_3b/3x3"
  param {
    lr_mult: 1
    decay_mult: 1
  }
  param {
    lr_mult: 2
    decay_mult: 0
  }
  convolution_param {
    num_output: 192
    pad: 1
    kernel_size: 3
    weight_filler {
      type: "xavier"
    }
    bias_filler {
      type: "constant"
      value: 0.2
    }
  }
}
layer {
  name: "inception_3b/relu_3x3"
  type: "ReLU"
  bottom: "inception_3b/3x3"
  top: "inception_3b/3x3"
}
layer {
  name: "inception_3b/5x5_reduce"
  type: "Convolution"
  bottom: "inception_3a/output"
  top: "inception_3b/5x5_reduce"
  param {
    lr_mult: 1
    decay_mult: 1
  }
  param {
    lr_mult: 2
    decay_mult: 0
  }
  convolution_param {
    num_output: 32
    kernel_size: 1
    weight_filler {
      type: "xavier"
    }
    bias_filler {
      type: "constant"
      value: 0.2
    }
  }
}
layer {
  name: "inception_3b/relu_5x5_reduce"
  type: "ReLU"
  bottom: "inception_3b/5x5_reduce"
  top: "inception_3b/5x5_reduce"
}
layer {
  name: "inception_3b/5x5"
  type: "Convolution"
  bottom: "inception_3b/5x5_reduce"
  top: "inception_3b/5x5"
  param {
    lr_mult: 1
    decay_mult: 1
  }
  param {
    lr_mult: 2
    decay_mult: 0
  }
  convolution_param {
    num_output: 96
    pad: 2
    kernel_size: 5
    weight_filler {
      type: "xavier"
    }
    bias_filler {
      type: "constant"
      value: 0.2
    }
  }
}
layer {
  name: "inception_3b/relu_5x5"
  type: "ReLU"
  bottom: "inception_3b/5x5"
  top: "inception_3b/5x5"
}
layer {
  name: "inception_3b/pool"
  type: "Pooling"
  bottom: "inception_3a/output"
  top: "inception_3b/pool"
  pooling_param {
    pool: MAX
    kernel_size: 3
    stride: 1
    pad: 1
  }
}
layer {
  name: "inception_3b/pool_proj"
  type: "Convolution"
  bottom: "inception_3b/pool"
  top: "inception_3b/pool_proj"
  param {
    lr_mult: 1
    decay_mult: 1
  }
  param {
    lr_mult: 2
    decay_mult: 0
  }
  convolution_param {
    num_output: 64
    kernel_size: 1
    weight_filler {
      type: "xavier"
    }
    bias_filler {
      type: "constant"
      value: 0.2
    }
  }
}
layer {
  name: "inception_3b/relu_pool_proj"
  type: "ReLU"
  bottom: "inception_3b/pool_proj"
  top: "inception_3b/pool_proj"
}
layer {
  name: "inception_3b/output"
  type: "Concat"
  bottom: "inception_3b/1x1"
  bottom: "inception_3b/3x3"
  bottom: "inception_3b/5x5"
  bottom: "inception_3b/pool_proj"
  top: "inception_3b/output"
}
layer {
  name: "pool3/3x3_s2"
  type: "Pooling"
  bottom: "inception_3b/output"
  top: "pool3/3x3_s2"
  pooling_param {
    pool: MAX
    kernel_size: 3
    stride: 2
  }
}
layer {
  name: "inception_4a/1x1"
  type: "Convolution"
  bottom: "pool3/3x3_s2"
  top: "inception_4a/1x1"
  param {
    lr_mult: 1
    decay_mult: 1
  }
  param {
    lr_mult: 2
    decay_mult: 0
  }
  convolution_param {
    num_output: 192
    kernel_size: 1
    weight_filler {
      type: "xavier"
    }
    bias_filler {
      type: "constant"
      value: 0.2
    }
  }
}
layer {
  name: "inception_4a/relu_1x1"
  type: "ReLU"
  bottom: "inception_4a/1x1"
  top: "inception_4a/1x1"
}
layer {
  name: "inception_4a/3x3_reduce"
  type: "Convolution"
  bottom: "pool3/3x3_s2"
  top: "inception_4a/3x3_reduce"
  param {
    lr_mult: 1
    decay_mult: 1
  }
  param {
    lr_mult: 2
    decay_mult: 0
  }
  convolution_param {
    num_output: 96
    kernel_size: 1
    weight_filler {
      type: "xavier"
    }
    bias_filler {
      type: "constant"
      value: 0.2
    }
  }
}
layer {
  name: "inception_4a/relu_3x3_reduce"
  type: "ReLU"
  bottom: "inception_4a/3x3_reduce"
  top: "inception_4a/3x3_reduce"
}
layer {
  name: "inception_4a/3x3"
  type: "Convolution"
  bottom: "inception_4a/3x3_reduce"
  top: "inception_4a/3x3"
  param {
    lr_mult: 1
    decay_mult: 1
  }
  param {
    lr_mult: 2
    decay_mult: 0
  }
  convolution_param {
    num_output: 208
    pad: 1
    kernel_size: 3
    weight_filler {
      type: "xavier"
    }
    bias_filler {
      type: "constant"
      value: 0.2
    }
  }
}
layer {
  name: "inception_4a/relu_3x3"
  type: "ReLU"
  bottom: "inception_4a/3x3"
  top: "inception_4a/3x3"
}
layer {
  name: "inception_4a/5x5_reduce"
  type: "Convolution"
  bottom: "pool3/3x3_s2"
  top: "inception_4a/5x5_reduce"
  param {
    lr_mult: 1
    decay_mult: 1
  }
  param {
    lr_mult: 2
    decay_mult: 0
  }
  convolution_param {
    num_output: 16
    kernel_size: 1
    weight_filler {
      type: "xavier"
    }
    bias_filler {
      type: "constant"
      value: 0.2
    }
  }
}
layer {
  name: "inception_4a/relu_5x5_reduce"
  type: "ReLU"
  bottom: "inception_4a/5x5_reduce"
  top: "inception_4a/5x5_reduce"
}
layer {
  name: "inception_4a/5x5"
  type: "Convolution"
  bottom: "inception_4a/5x5_reduce"
  top: "inception_4a/5x5"
  param {
    lr_mult: 1
    decay_mult: 1
  }
  param {
    lr_mult: 2
    decay_mult: 0
  }
  convolution_param {
    num_output: 48
    pad: 2
    kernel_size: 5
    weight_filler {
      type: "xavier"
    }
    bias_filler {
      type: "constant"
      value: 0.2
    }
  }
}
layer {
  name: "inception_4a/relu_5x5"
  type: "ReLU"
  bottom: "inception_4a/5x5"
  top: "inception_4a/5x5"
}
layer {
  name: "inception_4a/pool"
  type: "Pooling"
  bottom: "pool3/3x3_s2"
  top: "inception_4a/pool"
  pooling_param {
    pool: MAX
    kernel_size: 3
    stride: 1
    pad: 1
  }
}
layer {
  name: "inception_4a/pool_proj"
  type: "Convolution"
  bottom: "inception_4a/pool"
  top: "inception_4a/pool_proj"
  param {
    lr_mult: 1
    decay_mult: 1
  }
  param {
    lr_mult: 2
    decay_mult: 0
  }
  convolution_param {
    num_output: 64
    kernel_size: 1
    weight_filler {
      type: "xavier"
    }
    bias_filler {
      type: "constant"
      value: 0.2
    }
  }
}
layer {
  name: "inception_4a/relu_pool_proj"
  type: "ReLU"
  bottom: "inception_4a/pool_proj"
  top: "inception_4a/pool_proj"
}
layer {
  name: "inception_4a/output"
  type: "Concat"
  bottom: "inception_4a/1x1"
  bottom: "inception_4a/3x3"
  bottom: "inception_4a/5x5"
  bottom: "inception_4a/pool_proj"
  top: "inception_4a/output"
}
layer {
  name: "loss1/ave_pool"
  type: "Pooling"
  bottom: "inception_4a/output"
  top: "loss1/ave_pool"
  pooling_param {
    pool: AVE
    kernel_size: 5
    stride: 3
  }
}
layer {
  name: "loss1/conv"
  type: "Convolution"
  bottom: "loss1/ave_pool"
  top: "loss1/conv"
  param {
    lr_mult: 1
    decay_mult: 1
  }
  param {
    lr_mult: 2
    decay_mult: 0
  }
  convolution_param {
    num_output: 128
    kernel_size: 1
    weight_filler {
      type: "xavier"
    }
    bias_filler {
      type: "constant"
      value: 0.2
    }
  }
}
layer {
  name: "loss1/relu_conv"
  type: "ReLU"
  bottom: "loss1/conv"
  top: "loss1/conv"
}
layer {
  name: "loss1/fc"
  type: "InnerProduct"
  bottom: "loss1/conv"
  top: "loss1/fc"
  param {
    lr_mult: 1
    decay_mult: 1
  }
  param {
    lr_mult: 2
    decay_mult: 0
  }
  inner_product_param {
    num_output: 1024
    weight_filler {
      type: "xavier"
    }
    bias_filler {
      type: "constant"
      value: 0.2
    }
  }
}
layer {
  name: "loss1/relu_fc"
  type: "ReLU"
  bottom: "loss1/fc"
  top: "loss1/fc"
}
layer {
  name: "loss1/drop_fc"
  type: "Dropout"
  bottom: "loss1/fc"
  top: "loss1/fc"
  dropout_param {
    dropout_ratio: 0.7
  }
}
layer {
  name: "loss1/classifier_kaggle"
  type: "InnerProduct"
  bottom: "loss1/fc"
  top: "loss1/classifier_kaggle"
  param {
    lr_mult: 1
    decay_mult: 1
  }
  param {
    lr_mult: 2
    decay_mult: 0
  }
  inner_product_param {
    num_output: 447
    weight_filler {
      type: "xavier"
    }
    bias_filler {
      type: "constant"
      value: 0
    }
  }
}
layer {
  name: "loss1/loss"
  type: "SoftmaxWithLoss"
  bottom: "loss1/classifier_kaggle"
  bottom: "label"
  top: "loss1/loss1"
  loss_weight: 0.3
}
layer {
  name: "inception_4b/1x1"
  type: "Convolution"
  bottom: "inception_4a/output"
  top: "inception_4b/1x1"
  param {
    lr_mult: 1
    decay_mult: 1
  }
  param {
    lr_mult: 2
    decay_mult: 0
  }
  convolution_param {
    num_output: 160
    kernel_size: 1
    weight_filler {
      type: "xavier"
    }
    bias_filler {
      type: "constant"
      value: 0.2
    }
  }
}
layer {
  name: "inception_4b/relu_1x1"
  type: "ReLU"
  bottom: "inception_4b/1x1"
  top: "inception_4b/1x1"
}
layer {
  name: "inception_4b/3x3_reduce"
  type: "Convolution"
  bottom: "inception_4a/output"
  top: "inception_4b/3x3_reduce"
  param {
    lr_mult: 1
    decay_mult: 1
  }
  param {
    lr_mult: 2
    decay_mult: 0
  }
  convolution_param {
    num_output: 112
    kernel_size: 1
    weight_filler {
      type: "xavier"
    }
    bias_filler {
      type: "constant"
      value: 0.2
    }
  }
}
layer {
  name: "inception_4b/relu_3x3_reduce"
  type: "ReLU"
  bottom: "inception_4b/3x3_reduce"
  top: "inception_4b/3x3_reduce"
}
layer {
  name: "inception_4b/3x3"
  type: "Convolution"
  bottom: "inception_4b/3x3_reduce"
  top: "inception_4b/3x3"
  param {
    lr_mult: 1
    decay_mult: 1
  }
  param {
    lr_mult: 2
    decay_mult: 0
  }
  convolution_param {
    num_output: 224
    pad: 1
    kernel_size: 3
    weight_filler {
      type: "xavier"
    }
    bias_filler {
      type: "constant"
      value: 0.2
    }
  }
}
layer {
  name: "inception_4b/relu_3x3"
  type: "ReLU"
  bottom: "inception_4b/3x3"
  top: "inception_4b/3x3"
}
layer {
  name: "inception_4b/5x5_reduce"
  type: "Convolution"
  bottom: "inception_4a/output"
  top: "inception_4b/5x5_reduce"
  param {
    lr_mult: 1
    decay_mult: 1
  }
  param {
    lr_mult: 2
    decay_mult: 0
  }
  convolution_param {
    num_output: 24
    kernel_size: 1
    weight_filler {
      type: "xavier"
    }
    bias_filler {
      type: "constant"
      value: 0.2
    }
  }
}
layer {
  name: "inception_4b/relu_5x5_reduce"
  type: "ReLU"
  bottom: "inception_4b/5x5_reduce"
  top: "inception_4b/5x5_reduce"
}
layer {
  name: "inception_4b/5x5"
  type: "Convolution"
  bottom: "inception_4b/5x5_reduce"
  top: "inception_4b/5x5"
  param {
    lr_mult: 1
    decay_mult: 1
  }
  param {
    lr_mult: 2
    decay_mult: 0
  }
  convolution_param {
    num_output: 64
    pad: 2
    kernel_size: 5
    weight_filler {
      type: "xavier"
    }
    bias_filler {
      type: "constant"
      value: 0.2
    }
  }
}
layer {
  name: "inception_4b/relu_5x5"
  type: "ReLU"
  bottom: "inception_4b/5x5"
  top: "inception_4b/5x5"
}
layer {
  name: "inception_4b/pool"
  type: "Pooling"
  bottom: "inception_4a/output"
  top: "inception_4b/pool"
  pooling_param {
    pool: MAX
    kernel_size: 3
    stride: 1
    pad: 1
  }
}
layer {
  name: "inception_4b/pool_proj"
  type: "Convolution"
  bottom: "inception_4b/pool"
  top: "inception_4b/pool_proj"
  param {
    lr_mult: 1
    decay_mult: 1
  }
  param {
    lr_mult: 2
    decay_mult: 0
  }
  convolution_param {
    num_output: 64
    kernel_size: 1
    weight_filler {
      type: "xavier"
    }
    bias_filler {
      type: "constant"
      value: 0.2
    }
  }
}
layer {
  name: "inception_4b/relu_pool_proj"
  type: "ReLU"
  bottom: "inception_4b/pool_proj"
  top: "inception_4b/pool_proj"
}
layer {
  name: "inception_4b/output"
  type: "Concat"
  bottom: "inception_4b/1x1"
  bottom: "inception_4b/3x3"
  bottom: "inception_4b/5x5"
  bottom: "inception_4b/pool_proj"
  top: "inception_4b/output"
}
layer {
  name: "inception_4c/1x1"
  type: "Convolution"
  bottom: "inception_4b/output"
  top: "inception_4c/1x1"
  param {
    lr_mult: 1
    decay_mult: 1
  }
  param {
    lr_mult: 2
    decay_mult: 0
  }
  convolution_param {
    num_output: 128
    kernel_size: 1
    weight_filler {
      type: "xavier"
    }
    bias_filler {
      type: "constant"
      value: 0.2
    }
  }
}
layer {
  name: "inception_4c/relu_1x1"
  type: "ReLU"
  bottom: "inception_4c/1x1"
  top: "inception_4c/1x1"
}
layer {
  name: "inception_4c/3x3_reduce"
  type: "Convolution"
  bottom: "inception_4b/output"
  top: "inception_4c/3x3_reduce"
  param {
    lr_mult: 1
    decay_mult: 1
  }
  param {
    lr_mult: 2
    decay_mult: 0
  }
  convolution_param {
    num_output: 128
    kernel_size: 1
    weight_filler {
      type: "xavier"
    }
    bias_filler {
      type: "constant"
      value: 0.2
    }
  }
}
layer {
  name: "inception_4c/relu_3x3_reduce"
  type: "ReLU"
  bottom: "inception_4c/3x3_reduce"
  top: "inception_4c/3x3_reduce"
}
layer {
  name: "inception_4c/3x3"
  type: "Convolution"
  bottom: "inception_4c/3x3_reduce"
  top: "inception_4c/3x3"
  param {
    lr_mult: 1
    decay_mult: 1
  }
  param {
    lr_mult: 2
    decay_mult: 0
  }
  convolution_param {
    num_output: 256
    pad: 1
    kernel_size: 3
    weight_filler {
      type: "xavier"
    }
    bias_filler {
      type: "constant"
      value: 0.2
    }
  }
}
layer {
  name: "inception_4c/relu_3x3"
  type: "ReLU"
  bottom: "inception_4c/3x3"
  top: "inception_4c/3x3"
}
layer {
  name: "inception_4c/5x5_reduce"
  type: "Convolution"
  bottom: "inception_4b/output"
  top: "inception_4c/5x5_reduce"
  param {
    lr_mult: 1
    decay_mult: 1
  }
  param {
    lr_mult: 2
    decay_mult: 0
  }
  convolution_param {
    num_output: 24
    kernel_size: 1
    weight_filler {
      type: "xavier"
    }
    bias_filler {
      type: "constant"
      value: 0.2
    }
  }
}
layer {
  name: "inception_4c/relu_5x5_reduce"
  type: "ReLU"
  bottom: "inception_4c/5x5_reduce"
  top: "inception_4c/5x5_reduce"
}
layer {
  name: "inception_4c/5x5"
  type: "Convolution"
  bottom: "inception_4c/5x5_reduce"
  top: "inception_4c/5x5"
  param {
    lr_mult: 1
    decay_mult: 1
  }
  param {
    lr_mult: 2
    decay_mult: 0
  }
  convolution_param {
    num_output: 64
    pad: 2
    kernel_size: 5
    weight_filler {
      type: "xavier"
    }
    bias_filler {
      type: "constant"
      value: 0.2
    }
  }
}
layer {
  name: "inception_4c/relu_5x5"
  type: "ReLU"
  bottom: "inception_4c/5x5"
  top: "inception_4c/5x5"
}
layer {
  name: "inception_4c/pool"
  type: "Pooling"
  bottom: "inception_4b/output"
  top: "inception_4c/pool"
  pooling_param {
    pool: MAX
    kernel_size: 3
    stride: 1
    pad: 1
  }
}
layer {
  name: "inception_4c/pool_proj"
  type: "Convolution"
  bottom: "inception_4c/pool"
  top: "inception_4c/pool_proj"
  param {
    lr_mult: 1
    decay_mult: 1
  }
  param {
    lr_mult: 2
    decay_mult: 0
  }
  convolution_param {
    num_output: 64
    kernel_size: 1
    weight_filler {
      type: "xavier"
    }
    bias_filler {
      type: "constant"
      value: 0.2
    }
  }
}
layer {
  name: "inception_4c/relu_pool_proj"
  type: "ReLU"
  bottom: "inception_4c/pool_proj"
  top: "inception_4c/pool_proj"
}
layer {
  name: "inception_4c/output"
  type: "Concat"
  bottom: "inception_4c/1x1"
  bottom: "inception_4c/3x3"
  bottom: "inception_4c/5x5"
  bottom: "inception_4c/pool_proj"
  top: "inception_4c/output"
}
layer {
  name: "inception_4d/1x1"
  type: "Convolution"
  bottom: "inception_4c/output"
  top: "inception_4d/1x1"
  param {
    lr_mult: 1
    decay_mult: 1
  }
  param {
    lr_mult: 2
    decay_mult: 0
  }
  convolution_param {
    num_output: 112
    kernel_size: 1
    weight_filler {
      type: "xavier"
    }
    bias_filler {
      type: "constant"
      value: 0.2
    }
  }
}
layer {
  name: "inception_4d/relu_1x1"
  type: "ReLU"
  bottom: "inception_4d/1x1"
  top: "inception_4d/1x1"
}
layer {
  name: "inception_4d/3x3_reduce"
  type: "Convolution"
  bottom: "inception_4c/output"
  top: "inception_4d/3x3_reduce"
  param {
    lr_mult: 1
    decay_mult: 1
  }
  param {
    lr_mult: 2
    decay_mult: 0
  }
  convolution_param {
    num_output: 144
    kernel_size: 1
    weight_filler {
      type: "xavier"
    }
    bias_filler {
      type: "constant"
      value: 0.2
    }
  }
}
layer {
  name: "inception_4d/relu_3x3_reduce"
  type: "ReLU"
  bottom: "inception_4d/3x3_reduce"
  top: "inception_4d/3x3_reduce"
}
layer {
  name: "inception_4d/3x3"
  type: "Convolution"
  bottom: "inception_4d/3x3_reduce"
  top: "inception_4d/3x3"
  param {
    lr_mult: 1
    decay_mult: 1
  }
  param {
    lr_mult: 2
    decay_mult: 0
  }
  convolution_param {
    num_output: 288
    pad: 1
    kernel_size: 3
    weight_filler {
      type: "xavier"
    }
    bias_filler {
      type: "constant"
      value: 0.2
    }
  }
}
layer {
  name: "inception_4d/relu_3x3"
  type: "ReLU"
  bottom: "inception_4d/3x3"
  top: "inception_4d/3x3"
}
layer {
  name: "inception_4d/5x5_reduce"
  type: "Convolution"
  bottom: "inception_4c/output"
  top: "inception_4d/5x5_reduce"
  param {
    lr_mult: 1
    decay_mult: 1
  }
  param {
    lr_mult: 2
    decay_mult: 0
  }
  convolution_param {
    num_output: 32
    kernel_size: 1
    weight_filler {
      type: "xavier"
    }
    bias_filler {
      type: "constant"
      value: 0.2
    }
  }
}
layer {
  name: "inception_4d/relu_5x5_reduce"
  type: "ReLU"
  bottom: "inception_4d/5x5_reduce"
  top: "inception_4d/5x5_reduce"
}
layer {
  name: "inception_4d/5x5"
  type: "Convolution"
  bottom: "inception_4d/5x5_reduce"
  top: "inception_4d/5x5"
  param {
    lr_mult: 1
    decay_mult: 1
  }
  param {
    lr_mult: 2
    decay_mult: 0
  }
  convolution_param {
    num_output: 64
    pad: 2
    kernel_size: 5
    weight_filler {
      type: "xavier"
    }
    bias_filler {
      type: "constant"
      value: 0.2
    }
  }
}
layer {
  name: "inception_4d/relu_5x5"
  type: "ReLU"
  bottom: "inception_4d/5x5"
  top: "inception_4d/5x5"
}
layer {
  name: "inception_4d/pool"
  type: "Pooling"
  bottom: "inception_4c/output"
  top: "inception_4d/pool"
  pooling_param {
    pool: MAX
    kernel_size: 3
    stride: 1
    pad: 1
  }
}
layer {
  name: "inception_4d/pool_proj"
  type: "Convolution"
  bottom: "inception_4d/pool"
  top: "inception_4d/pool_proj"
  param {
    lr_mult: 1
    decay_mult: 1
  }
  param {
    lr_mult: 2
    decay_mult: 0
  }
  convolution_param {
    num_output: 64
    kernel_size: 1
    weight_filler {
      type: "xavier"
    }
    bias_filler {
      type: "constant"
      value: 0.2
    }
  }
}
layer {
  name: "inception_4d/relu_pool_proj"
  type: "ReLU"
  bottom: "inception_4d/pool_proj"
  top: "inception_4d/pool_proj"
}
layer {
  name: "inception_4d/output"
  type: "Concat"
  bottom: "inception_4d/1x1"
  bottom: "inception_4d/3x3"
  bottom: "inception_4d/5x5"
  bottom: "inception_4d/pool_proj"
  top: "inception_4d/output"
}
layer {
  name: "loss2/ave_pool"
  type: "Pooling"
  bottom: "inception_4d/output"
  top: "loss2/ave_pool"
  pooling_param {
    pool: AVE
    kernel_size: 5
    stride: 3
  }
}
layer {
  name: "loss2/conv"
  type: "Convolution"
  bottom: "loss2/ave_pool"
  top: "loss2/conv"
  param {
    lr_mult: 1
    decay_mult: 1
  }
  param {
    lr_mult: 2
    decay_mult: 0
  }
  convolution_param {
    num_output: 128
    kernel_size: 1
    weight_filler {
      type: "xavier"
    }
    bias_filler {
      type: "constant"
      value: 0.2
    }
  }
}
layer {
  name: "loss2/relu_conv"
  type: "ReLU"
  bottom: "loss2/conv"
  top: "loss2/conv"
}
layer {
  name: "loss2/fc"
  type: "InnerProduct"
  bottom: "loss2/conv"
  top: "loss2/fc"
  param {
    lr_mult: 1
    decay_mult: 1
  }
  param {
    lr_mult: 2
    decay_mult: 0
  }
  inner_product_param {
    num_output: 1024
    weight_filler {
      type: "xavier"
    }
    bias_filler {
      type: "constant"
      value: 0.2
    }
  }
}
layer {
  name: "loss2/relu_fc"
  type: "ReLU"
  bottom: "loss2/fc"
  top: "loss2/fc"
}
layer {
  name: "loss2/drop_fc"
  type: "Dropout"
  bottom: "loss2/fc"
  top: "loss2/fc"
  dropout_param {
    dropout_ratio: 0.7
  }
}
layer {
  name: "loss2/classifier_kaggle"
  type: "InnerProduct"
  bottom: "loss2/fc"
  top: "loss2/classifier_kaggle"
  param {
    lr_mult: 1
    decay_mult: 1
  }
  param {
    lr_mult: 2
    decay_mult: 0
  }
  inner_product_param {
    num_output: 447
    weight_filler {
      type: "xavier"
    }
    bias_filler {
      type: "constant"
      value: 0
    }
  }
}
layer {
  name: "loss2/loss"
  type: "SoftmaxWithLoss"
  bottom: "loss2/classifier_kaggle"
  bottom: "label"
  top: "loss2/loss1"
  loss_weight: 0.3
}
layer {
  name: "inception_4e/1x1"
  type: "Convolution"
  bottom: "inception_4d/output"
  top: "inception_4e/1x1"
  param {
    lr_mult: 1
    decay_mult: 1
  }
  param {
    lr_mult: 2
    decay_mult: 0
  }
  convolution_param {
    num_output: 256
    kernel_size: 1
    weight_filler {
      type: "xavier"
    }
    bias_filler {
      type: "constant"
      value: 0.2
    }
  }
}
layer {
  name: "inception_4e/relu_1x1"
  type: "ReLU"
  bottom: "inception_4e/1x1"
  top: "inception_4e/1x1"
}
layer {
  name: "inception_4e/3x3_reduce"
  type: "Convolution"
  bottom: "inception_4d/output"
  top: "inception_4e/3x3_reduce"
  param {
    lr_mult: 1
    decay_mult: 1
  }
  param {
    lr_mult: 2
    decay_mult: 0
  }
  convolution_param {
    num_output: 160
    kernel_size: 1
    weight_filler {
      type: "xavier"
    }
    bias_filler {
      type: "constant"
      value: 0.2
    }
  }
}
layer {
  name: "inception_4e/relu_3x3_reduce"
  type: "ReLU"
  bottom: "inception_4e/3x3_reduce"
  top: "inception_4e/3x3_reduce"
}
layer {
  name: "inception_4e/3x3"
  type: "Convolution"
  bottom: "inception_4e/3x3_reduce"
  top: "inception_4e/3x3"
  param {
    lr_mult: 1
    decay_mult: 1
  }
  param {
    lr_mult: 2
    decay_mult: 0
  }
  convolution_param {
    num_output: 320
    pad: 1
    kernel_size: 3
    weight_filler {
      type: "xavier"
    }
    bias_filler {
      type: "constant"
      value: 0.2
    }
  }
}
layer {
  name: "inception_4e/relu_3x3"
  type: "ReLU"
  bottom: "inception_4e/3x3"
  top: "inception_4e/3x3"
}
layer {
  name: "inception_4e/5x5_reduce"
  type: "Convolution"
  bottom: "inception_4d/output"
  top: "inception_4e/5x5_reduce"
  param {
    lr_mult: 1
    decay_mult: 1
  }
  param {
    lr_mult: 2
    decay_mult: 0
  }
  convolution_param {
    num_output: 32
    kernel_size: 1
    weight_filler {
      type: "xavier"
    }
    bias_filler {
      type: "constant"
      value: 0.2
    }
  }
}
layer {
  name: "inception_4e/relu_5x5_reduce"
  type: "ReLU"
  bottom: "inception_4e/5x5_reduce"
  top: "inception_4e/5x5_reduce"
}
layer {
  name: "inception_4e/5x5"
  type: "Convolution"
  bottom: "inception_4e/5x5_reduce"
  top: "inception_4e/5x5"
  param {
    lr_mult: 1
    decay_mult: 1
  }
  param {
    lr_mult: 2
    decay_mult: 0
  }
  convolution_param {
    num_output: 128
    pad: 2
    kernel_size: 5
    weight_filler {
      type: "xavier"
    }
    bias_filler {
      type: "constant"
      value: 0.2
    }
  }
}
layer {
  name: "inception_4e/relu_5x5"
  type: "ReLU"
  bottom: "inception_4e/5x5"
  top: "inception_4e/5x5"
}
layer {
  name: "inception_4e/pool"
  type: "Pooling"
  bottom: "inception_4d/output"
  top: "inception_4e/pool"
  pooling_p
I1217 19:38:07.782299 15822 layer_factory.hpp:74] Creating layer data
I1217 19:38:07.782346 15822 net.cpp:84] Creating Layer data
I1217 19:38:07.782502 15822 net.cpp:338] data -> data
I1217 19:38:07.782548 15822 net.cpp:338] data -> label
I1217 19:38:07.782567 15822 net.cpp:113] Setting up data
I1217 19:38:07.782577 15822 image_data_layer.cpp:36] Opening file /home/coldmanck/kaggle/label_train_full.txt
I1217 19:38:07.788725 15822 image_data_layer.cpp:46] Shuffling data
I1217 19:38:07.790740 15822 image_data_layer.cpp:51] A total of 4235 images.
I1217 19:38:07.792431 15822 image_data_layer.cpp:80] output data size: 80,3,224,224
I1217 19:38:07.816524 15822 net.cpp:120] Top shape: 80 3 224 224 (12042240)
I1217 19:38:07.816570 15822 net.cpp:120] Top shape: 80 (80)
I1217 19:38:07.816586 15822 layer_factory.hpp:74] Creating layer label_data_1_split
I1217 19:38:07.816615 15822 net.cpp:84] Creating Layer label_data_1_split
I1217 19:38:07.816625 15822 net.cpp:380] label_data_1_split <- label
I1217 19:38:07.816797 15822 net.cpp:338] label_data_1_split -> label_data_1_split_0
I1217 19:38:07.816823 15822 net.cpp:338] label_data_1_split -> label_data_1_split_1
I1217 19:38:07.816846 15822 net.cpp:338] label_data_1_split -> label_data_1_split_2
I1217 19:38:07.816870 15822 net.cpp:113] Setting up label_data_1_split
I1217 19:38:07.816886 15822 net.cpp:120] Top shape: 80 (80)
I1217 19:38:07.816895 15822 net.cpp:120] Top shape: 80 (80)
I1217 19:38:07.816903 15822 net.cpp:120] Top shape: 80 (80)
I1217 19:38:07.816910 15822 layer_factory.hpp:74] Creating layer conv1/7x7_s2
I1217 19:38:07.816941 15822 net.cpp:84] Creating Layer conv1/7x7_s2
I1217 19:38:07.816964 15822 net.cpp:380] conv1/7x7_s2 <- data
I1217 19:38:07.816987 15822 net.cpp:338] conv1/7x7_s2 -> conv1/7x7_s2
I1217 19:38:07.817167 15822 net.cpp:113] Setting up conv1/7x7_s2
I1217 19:38:08.333426 15822 net.cpp:120] Top shape: 80 64 112 112 (64225280)
I1217 19:38:08.333515 15822 layer_factory.hpp:74] Creating layer conv1/relu_7x7
I1217 19:38:08.333559 15822 net.cpp:84] Creating Layer conv1/relu_7x7
I1217 19:38:08.333571 15822 net.cpp:380] conv1/relu_7x7 <- conv1/7x7_s2
I1217 19:38:08.333590 15822 net.cpp:327] conv1/relu_7x7 -> conv1/7x7_s2 (in-place)
I1217 19:38:08.333606 15822 net.cpp:113] Setting up conv1/relu_7x7
I1217 19:38:08.333989 15822 net.cpp:120] Top shape: 80 64 112 112 (64225280)
I1217 19:38:08.334007 15822 layer_factory.hpp:74] Creating layer pool1/3x3_s2
I1217 19:38:08.334034 15822 net.cpp:84] Creating Layer pool1/3x3_s2
I1217 19:38:08.334043 15822 net.cpp:380] pool1/3x3_s2 <- conv1/7x7_s2
I1217 19:38:08.334056 15822 net.cpp:338] pool1/3x3_s2 -> pool1/3x3_s2
I1217 19:38:08.334069 15822 net.cpp:113] Setting up pool1/3x3_s2
I1217 19:38:08.334180 15822 net.cpp:120] Top shape: 80 64 56 56 (16056320)
I1217 19:38:08.334192 15822 layer_factory.hpp:74] Creating layer pool1/norm1
I1217 19:38:08.334213 15822 net.cpp:84] Creating Layer pool1/norm1
I1217 19:38:08.334221 15822 net.cpp:380] pool1/norm1 <- pool1/3x3_s2
I1217 19:38:08.334233 15822 net.cpp:338] pool1/norm1 -> pool1/norm1
I1217 19:38:08.334244 15822 net.cpp:113] Setting up pool1/norm1
I1217 19:38:08.334257 15822 net.cpp:120] Top shape: 80 64 56 56 (16056320)
I1217 19:38:08.334266 15822 layer_factory.hpp:74] Creating layer conv2/3x3_reduce
I1217 19:38:08.334280 15822 net.cpp:84] Creating Layer conv2/3x3_reduce
I1217 19:38:08.334288 15822 net.cpp:380] conv2/3x3_reduce <- pool1/norm1
I1217 19:38:08.334300 15822 net.cpp:338] conv2/3x3_reduce -> conv2/3x3_reduce
I1217 19:38:08.334316 15822 net.cpp:113] Setting up conv2/3x3_reduce
I1217 19:38:08.334859 15822 net.cpp:120] Top shape: 80 64 56 56 (16056320)
I1217 19:38:08.334882 15822 layer_factory.hpp:74] Creating layer conv2/relu_3x3_reduce
I1217 19:38:08.334895 15822 net.cpp:84] Creating Layer conv2/relu_3x3_reduce
I1217 19:38:08.334903 15822 net.cpp:380] conv2/relu_3x3_reduce <- conv2/3x3_reduce
I1217 19:38:08.334914 15822 net.cpp:327] conv2/relu_3x3_reduce -> conv2/3x3_reduce (in-place)
I1217 19:38:08.334924 15822 net.cpp:113] Setting up conv2/relu_3x3_reduce
I1217 19:38:08.335011 15822 net.cpp:120] Top shape: 80 64 56 56 (16056320)
I1217 19:38:08.335019 15822 layer_factory.hpp:74] Creating layer conv2/3x3
I1217 19:38:08.335033 15822 net.cpp:84] Creating Layer conv2/3x3
I1217 19:38:08.335041 15822 net.cpp:380] conv2/3x3 <- conv2/3x3_reduce
I1217 19:38:08.335054 15822 net.cpp:338] conv2/3x3 -> conv2/3x3
I1217 19:38:08.335067 15822 net.cpp:113] Setting up conv2/3x3
I1217 19:38:08.336738 15822 net.cpp:120] Top shape: 80 192 56 56 (48168960)
I1217 19:38:08.336761 15822 layer_factory.hpp:74] Creating layer conv2/relu_3x3
I1217 19:38:08.336772 15822 net.cpp:84] Creating Layer conv2/relu_3x3
I1217 19:38:08.336781 15822 net.cpp:380] conv2/relu_3x3 <- conv2/3x3
I1217 19:38:08.336791 15822 net.cpp:327] conv2/relu_3x3 -> conv2/3x3 (in-place)
I1217 19:38:08.336802 15822 net.cpp:113] Setting up conv2/relu_3x3
I1217 19:38:08.337086 15822 net.cpp:120] Top shape: 80 192 56 56 (48168960)
I1217 19:38:08.337105 15822 layer_factory.hpp:74] Creating layer conv2/norm2
I1217 19:38:08.337116 15822 net.cpp:84] Creating Layer conv2/norm2
I1217 19:38:08.337124 15822 net.cpp:380] conv2/norm2 <- conv2/3x3
I1217 19:38:08.337136 15822 net.cpp:338] conv2/norm2 -> conv2/norm2
I1217 19:38:08.337158 15822 net.cpp:113] Setting up conv2/norm2
I1217 19:38:08.337184 15822 net.cpp:120] Top shape: 80 192 56 56 (48168960)
I1217 19:38:08.337193 15822 layer_factory.hpp:74] Creating layer pool2/3x3_s2
I1217 19:38:08.337203 15822 net.cpp:84] Creating Layer pool2/3x3_s2
I1217 19:38:08.337209 15822 net.cpp:380] pool2/3x3_s2 <- conv2/norm2
I1217 19:38:08.337220 15822 net.cpp:338] pool2/3x3_s2 -> pool2/3x3_s2
I1217 19:38:08.337230 15822 net.cpp:113] Setting up pool2/3x3_s2
I1217 19:38:08.337322 15822 net.cpp:120] Top shape: 80 192 28 28 (12042240)
I1217 19:38:08.337332 15822 layer_factory.hpp:74] Creating layer pool2/3x3_s2_pool2/3x3_s2_0_split
I1217 19:38:08.337344 15822 net.cpp:84] Creating Layer pool2/3x3_s2_pool2/3x3_s2_0_split
I1217 19:38:08.337352 15822 net.cpp:380] pool2/3x3_s2_pool2/3x3_s2_0_split <- pool2/3x3_s2
I1217 19:38:08.337363 15822 net.cpp:338] pool2/3x3_s2_pool2/3x3_s2_0_split -> pool2/3x3_s2_pool2/3x3_s2_0_split_0
I1217 19:38:08.337375 15822 net.cpp:338] pool2/3x3_s2_pool2/3x3_s2_0_split -> pool2/3x3_s2_pool2/3x3_s2_0_split_1
I1217 19:38:08.337386 15822 net.cpp:338] pool2/3x3_s2_pool2/3x3_s2_0_split -> pool2/3x3_s2_pool2/3x3_s2_0_split_2
I1217 19:38:08.337396 15822 net.cpp:338] pool2/3x3_s2_pool2/3x3_s2_0_split -> pool2/3x3_s2_pool2/3x3_s2_0_split_3
I1217 19:38:08.337406 15822 net.cpp:113] Setting up pool2/3x3_s2_pool2/3x3_s2_0_split
I1217 19:38:08.337420 15822 net.cpp:120] Top shape: 80 192 28 28 (12042240)
I1217 19:38:08.337430 15822 net.cpp:120] Top shape: 80 192 28 28 (12042240)
I1217 19:38:08.337437 15822 net.cpp:120] Top shape: 80 192 28 28 (12042240)
I1217 19:38:08.337445 15822 net.cpp:120] Top shape: 80 192 28 28 (12042240)
I1217 19:38:08.337452 15822 layer_factory.hpp:74] Creating layer inception_3a/1x1
I1217 19:38:08.337466 15822 net.cpp:84] Creating Layer inception_3a/1x1
I1217 19:38:08.337473 15822 net.cpp:380] inception_3a/1x1 <- pool2/3x3_s2_pool2/3x3_s2_0_split_0
I1217 19:38:08.337484 15822 net.cpp:338] inception_3a/1x1 -> inception_3a/1x1
I1217 19:38:08.337498 15822 net.cpp:113] Setting up inception_3a/1x1
I1217 19:38:08.338114 15822 net.cpp:120] Top shape: 80 64 28 28 (4014080)
I1217 19:38:08.338135 15822 layer_factory.hpp:74] Creating layer inception_3a/relu_1x1
I1217 19:38:08.338146 15822 net.cpp:84] Creating Layer inception_3a/relu_1x1
I1217 19:38:08.338155 15822 net.cpp:380] inception_3a/relu_1x1 <- inception_3a/1x1
I1217 19:38:08.338165 15822 net.cpp:327] inception_3a/relu_1x1 -> inception_3a/1x1 (in-place)
I1217 19:38:08.338176 15822 net.cpp:113] Setting up inception_3a/relu_1x1
I1217 19:38:08.338263 15822 net.cpp:120] Top shape: 80 64 28 28 (4014080)
I1217 19:38:08.338271 15822 layer_factory.hpp:74] Creating layer inception_3a/3x3_reduce
I1217 19:38:08.338284 15822 net.cpp:84] Creating Layer inception_3a/3x3_reduce
I1217 19:38:08.338291 15822 net.cpp:380] inception_3a/3x3_reduce <- pool2/3x3_s2_pool2/3x3_s2_0_split_1
I1217 19:38:08.338302 15822 net.cpp:338] inception_3a/3x3_reduce -> inception_3a/3x3_reduce
I1217 19:38:08.338315 15822 net.cpp:113] Setting up inception_3a/3x3_reduce
I1217 19:38:08.339000 15822 net.cpp:120] Top shape: 80 96 28 28 (6021120)
I1217 19:38:08.339022 15822 layer_factory.hpp:74] Creating layer inception_3a/relu_3x3_reduce
I1217 19:38:08.339037 15822 net.cpp:84] Creating Layer inception_3a/relu_3x3_reduce
I1217 19:38:08.339046 15822 net.cpp:380] inception_3a/relu_3x3_reduce <- inception_3a/3x3_reduce
I1217 19:38:08.339056 15822 net.cpp:327] inception_3a/relu_3x3_reduce -> inception_3a/3x3_reduce (in-place)
I1217 19:38:08.339066 15822 net.cpp:113] Setting up inception_3a/relu_3x3_reduce
I1217 19:38:08.339151 15822 net.cpp:120] Top shape: 80 96 28 28 (6021120)
I1217 19:38:08.339160 15822 layer_factory.hpp:74] Creating layer inception_3a/3x3
I1217 19:38:08.339172 15822 net.cpp:84] Creating Layer inception_3a/3x3
I1217 19:38:08.339179 15822 net.cpp:380] inception_3a/3x3 <- inception_3a/3x3_reduce
I1217 19:38:08.339190 15822 net.cpp:338] inception_3a/3x3 -> inception_3a/3x3
I1217 19:38:08.339201 15822 net.cpp:113] Setting up inception_3a/3x3
I1217 19:38:08.341100 15822 net.cpp:120] Top shape: 80 128 28 28 (8028160)
I1217 19:38:08.341151 15822 layer_factory.hpp:74] Creating layer inception_3a/relu_3x3
I1217 19:38:08.341163 15822 net.cpp:84] Creating Layer inception_3a/relu_3x3
I1217 19:38:08.341171 15822 net.cpp:380] inception_3a/relu_3x3 <- inception_3a/3x3
I1217 19:38:08.341181 15822 net.cpp:327] inception_3a/relu_3x3 -> inception_3a/3x3 (in-place)
I1217 19:38:08.341192 15822 net.cpp:113] Setting up inception_3a/relu_3x3
I1217 19:38:08.341470 15822 net.cpp:120] Top shape: 80 128 28 28 (8028160)
I1217 19:38:08.341485 15822 layer_factory.hpp:74] Creating layer inception_3a/5x5_reduce
I1217 19:38:08.341501 15822 net.cpp:84] Creating Layer inception_3a/5x5_reduce
I1217 19:38:08.341508 15822 net.cpp:380] inception_3a/5x5_reduce <- pool2/3x3_s2_pool2/3x3_s2_0_split_2
I1217 19:38:08.341521 15822 net.cpp:338] inception_3a/5x5_reduce -> inception_3a/5x5_reduce
I1217 19:38:08.341536 15822 net.cpp:113] Setting up inception_3a/5x5_reduce
I1217 19:38:08.342047 15822 net.cpp:120] Top shape: 80 16 28 28 (1003520)
I1217 19:38:08.342067 15822 layer_factory.hpp:74] Creating layer inception_3a/relu_5x5_reduce
I1217 19:38:08.342077 15822 net.cpp:84] Creating Layer inception_3a/relu_5x5_reduce
I1217 19:38:08.342085 15822 net.cpp:380] inception_3a/relu_5x5_reduce <- inception_3a/5x5_reduce
I1217 19:38:08.342095 15822 net.cpp:327] inception_3a/relu_5x5_reduce -> inception_3a/5x5_reduce (in-place)
I1217 19:38:08.342105 15822 net.cpp:113] Setting up inception_3a/relu_5x5_reduce
I1217 19:38:08.342191 15822 net.cpp:120] Top shape: 80 16 28 28 (1003520)
I1217 19:38:08.342200 15822 layer_factory.hpp:74] Creating layer inception_3a/5x5
I1217 19:38:08.342212 15822 net.cpp:84] Creating Layer inception_3a/5x5
I1217 19:38:08.342221 15822 net.cpp:380] inception_3a/5x5 <- inception_3a/5x5_reduce
I1217 19:38:08.342231 15822 net.cpp:338] inception_3a/5x5 -> inception_3a/5x5
I1217 19:38:08.342242 15822 net.cpp:113] Setting up inception_3a/5x5
I1217 19:38:08.342854 15822 net.cpp:120] Top shape: 80 32 28 28 (2007040)
I1217 19:38:08.342875 15822 layer_factory.hpp:74] Creating layer inception_3a/relu_5x5
I1217 19:38:08.342886 15822 net.cpp:84] Creating Layer inception_3a/relu_5x5
I1217 19:38:08.342895 15822 net.cpp:380] inception_3a/relu_5x5 <- inception_3a/5x5
I1217 19:38:08.342905 15822 net.cpp:327] inception_3a/relu_5x5 -> inception_3a/5x5 (in-place)
I1217 19:38:08.342916 15822 net.cpp:113] Setting up inception_3a/relu_5x5
I1217 19:38:08.343000 15822 net.cpp:120] Top shape: 80 32 28 28 (2007040)
I1217 19:38:08.343009 15822 layer_factory.hpp:74] Creating layer inception_3a/pool
I1217 19:38:08.343016 15822 layer_factory.cpp:56] CUDNN does not support padding or multiple tops. Using Caffe's own pooling layer.
I1217 19:38:08.343027 15822 net.cpp:84] Creating Layer inception_3a/pool
I1217 19:38:08.343035 15822 net.cpp:380] inception_3a/pool <- pool2/3x3_s2_pool2/3x3_s2_0_split_3
I1217 19:38:08.343045 15822 net.cpp:338] inception_3a/pool -> inception_3a/pool
I1217 19:38:08.343055 15822 net.cpp:113] Setting up inception_3a/pool
I1217 19:38:08.343067 15822 net.cpp:120] Top shape: 80 192 28 28 (12042240)
I1217 19:38:08.343076 15822 layer_factory.hpp:74] Creating layer inception_3a/pool_proj
I1217 19:38:08.343088 15822 net.cpp:84] Creating Layer inception_3a/pool_proj
I1217 19:38:08.343096 15822 net.cpp:380] inception_3a/pool_proj <- inception_3a/pool
I1217 19:38:08.343106 15822 net.cpp:338] inception_3a/pool_proj -> inception_3a/pool_proj
I1217 19:38:08.343117 15822 net.cpp:113] Setting up inception_3a/pool_proj
I1217 19:38:08.343665 15822 net.cpp:120] Top shape: 80 32 28 28 (2007040)
I1217 19:38:08.343688 15822 layer_factory.hpp:74] Creating layer inception_3a/relu_pool_proj
I1217 19:38:08.343699 15822 net.cpp:84] Creating Layer inception_3a/relu_pool_proj
I1217 19:38:08.343708 15822 net.cpp:380] inception_3a/relu_pool_proj <- inception_3a/pool_proj
I1217 19:38:08.343718 15822 net.cpp:327] inception_3a/relu_pool_proj -> inception_3a/pool_proj (in-place)
I1217 19:38:08.343727 15822 net.cpp:113] Setting up inception_3a/relu_pool_proj
I1217 19:38:08.343828 15822 net.cpp:120] Top shape: 80 32 28 28 (2007040)
I1217 19:38:08.343838 15822 layer_factory.hpp:74] Creating layer inception_3a/output
I1217 19:38:08.343857 15822 net.cpp:84] Creating Layer inception_3a/output
I1217 19:38:08.343864 15822 net.cpp:380] inception_3a/output <- inception_3a/1x1
I1217 19:38:08.343873 15822 net.cpp:380] inception_3a/output <- inception_3a/3x3
I1217 19:38:08.343880 15822 net.cpp:380] inception_3a/output <- inception_3a/5x5
I1217 19:38:08.343888 15822 net.cpp:380] inception_3a/output <- inception_3a/pool_proj
I1217 19:38:08.343897 15822 net.cpp:338] inception_3a/output -> inception_3a/output
I1217 19:38:08.343909 15822 net.cpp:113] Setting up inception_3a/output
I1217 19:38:08.343920 15822 net.cpp:120] Top shape: 80 256 28 28 (16056320)
I1217 19:38:08.343927 15822 layer_factory.hpp:74] Creating layer inception_3a/output_inception_3a/output_0_split
I1217 19:38:08.343937 15822 net.cpp:84] Creating Layer inception_3a/output_inception_3a/output_0_split
I1217 19:38:08.343943 15822 net.cpp:380] inception_3a/output_inception_3a/output_0_split <- inception_3a/output
I1217 19:38:08.343953 15822 net.cpp:338] inception_3a/output_inception_3a/output_0_split -> inception_3a/output_inception_3a/output_0_split_0
I1217 19:38:08.343965 15822 net.cpp:338] inception_3a/output_inception_3a/output_0_split -> inception_3a/output_inception_3a/output_0_split_1
I1217 19:38:08.343974 15822 net.cpp:338] inception_3a/output_inception_3a/output_0_split -> inception_3a/output_inception_3a/output_0_split_2
I1217 19:38:08.343986 15822 net.cpp:338] inception_3a/output_inception_3a/output_0_split -> inception_3a/output_inception_3a/output_0_split_3
I1217 19:38:08.343993 15822 net.cpp:113] Setting up inception_3a/output_inception_3a/output_0_split
I1217 19:38:08.344004 15822 net.cpp:120] Top shape: 80 256 28 28 (16056320)
I1217 19:38:08.344013 15822 net.cpp:120] Top shape: 80 256 28 28 (16056320)
I1217 19:38:08.344022 15822 net.cpp:120] Top shape: 80 256 28 28 (16056320)
I1217 19:38:08.344029 15822 net.cpp:120] Top shape: 80 256 28 28 (16056320)
I1217 19:38:08.344038 15822 layer_factory.hpp:74] Creating layer inception_3b/1x1
I1217 19:38:08.344049 15822 net.cpp:84] Creating Layer inception_3b/1x1
I1217 19:38:08.344056 15822 net.cpp:380] inception_3b/1x1 <- inception_3a/output_inception_3a/output_0_split_0
I1217 19:38:08.344068 15822 net.cpp:338] inception_3b/1x1 -> inception_3b/1x1
I1217 19:38:08.344077 15822 net.cpp:113] Setting up inception_3b/1x1
I1217 19:38:08.345679 15822 net.cpp:120] Top shape: 80 128 28 28 (8028160)
I1217 19:38:08.345701 15822 layer_factory.hpp:74] Creating layer inception_3b/relu_1x1
I1217 19:38:08.345712 15822 net.cpp:84] Creating Layer inception_3b/relu_1x1
I1217 19:38:08.345721 15822 net.cpp:380] inception_3b/relu_1x1 <- inception_3b/1x1
I1217 19:38:08.345731 15822 net.cpp:327] inception_3b/relu_1x1 -> inception_3b/1x1 (in-place)
I1217 19:38:08.345741 15822 net.cpp:113] Setting up inception_3b/relu_1x1
I1217 19:38:08.346024 15822 net.cpp:120] Top shape: 80 128 28 28 (8028160)
I1217 19:38:08.346037 15822 layer_factory.hpp:74] Creating layer inception_3b/3x3_reduce
I1217 19:38:08.346052 15822 net.cpp:84] Creating Layer inception_3b/3x3_reduce
I1217 19:38:08.346060 15822 net.cpp:380] inception_3b/3x3_reduce <- inception_3a/output_inception_3a/output_0_split_1
I1217 19:38:08.346072 15822 net.cpp:338] inception_3b/3x3_reduce -> inception_3b/3x3_reduce
I1217 19:38:08.346086 15822 net.cpp:113] Setting up inception_3b/3x3_reduce
I1217 19:38:08.346940 15822 net.cpp:120] Top shape: 80 128 28 28 (8028160)
I1217 19:38:08.346961 15822 layer_factory.hpp:74] Creating layer inception_3b/relu_3x3_reduce
I1217 19:38:08.346971 15822 net.cpp:84] Creating Layer inception_3b/relu_3x3_reduce
I1217 19:38:08.346978 15822 net.cpp:380] inception_3b/relu_3x3_reduce <- inception_3b/3x3_reduce
I1217 19:38:08.346990 15822 net.cpp:327] inception_3b/relu_3x3_reduce -> inception_3b/3x3_reduce (in-place)
I1217 19:38:08.347000 15822 net.cpp:113] Setting up inception_3b/relu_3x3_reduce
I1217 19:38:08.347102 15822 net.cpp:120] Top shape: 80 128 28 28 (8028160)
I1217 19:38:08.347121 15822 layer_factory.hpp:74] Creating layer inception_3b/3x3
I1217 19:38:08.347138 15822 net.cpp:84] Creating Layer inception_3b/3x3
I1217 19:38:08.347146 15822 net.cpp:380] inception_3b/3x3 <- inception_3b/3x3_reduce
I1217 19:38:08.347159 15822 net.cpp:338] inception_3b/3x3 -> inception_3b/3x3
I1217 19:38:08.347172 15822 net.cpp:113] Setting up inception_3b/3x3
I1217 19:38:08.350428 15822 net.cpp:120] Top shape: 80 192 28 28 (12042240)
I1217 19:38:08.350450 15822 layer_factory.hpp:74] Creating layer inception_3b/relu_3x3
I1217 19:38:08.350461 15822 net.cpp:84] Creating Layer inception_3b/relu_3x3
I1217 19:38:08.350469 15822 net.cpp:380] inception_3b/relu_3x3 <- inception_3b/3x3
I1217 19:38:08.350478 15822 net.cpp:327] inception_3b/relu_3x3 -> inception_3b/3x3 (in-place)
I1217 19:38:08.350489 15822 net.cpp:113] Setting up inception_3b/relu_3x3
I1217 19:38:08.350582 15822 net.cpp:120] Top shape: 80 192 28 28 (12042240)
I1217 19:38:08.350591 15822 layer_factory.hpp:74] Creating layer inception_3b/5x5_reduce
I1217 19:38:08.350606 15822 net.cpp:84] Creating Layer inception_3b/5x5_reduce
I1217 19:38:08.350615 15822 net.cpp:380] inception_3b/5x5_reduce <- inception_3a/output_inception_3a/output_0_split_2
I1217 19:38:08.350625 15822 net.cpp:338] inception_3b/5x5_reduce -> inception_3b/5x5_reduce
I1217 19:38:08.350636 15822 net.cpp:113] Setting up inception_3b/5x5_reduce
I1217 19:38:08.351254 15822 net.cpp:120] Top shape: 80 32 28 28 (2007040)
I1217 19:38:08.351274 15822 layer_factory.hpp:74] Creating layer inception_3b/relu_5x5_reduce
I1217 19:38:08.351284 15822 net.cpp:84] Creating Layer inception_3b/relu_5x5_reduce
I1217 19:38:08.351292 15822 net.cpp:380] inception_3b/relu_5x5_reduce <- inception_3b/5x5_reduce
I1217 19:38:08.351305 15822 net.cpp:327] inception_3b/relu_5x5_reduce -> inception_3b/5x5_reduce (in-place)
I1217 19:38:08.351315 15822 net.cpp:113] Setting up inception_3b/relu_5x5_reduce
I1217 19:38:08.351408 15822 net.cpp:120] Top shape: 80 32 28 28 (2007040)
I1217 19:38:08.351416 15822 layer_factory.hpp:74] Creating layer inception_3b/5x5
I1217 19:38:08.351430 15822 net.cpp:84] Creating Layer inception_3b/5x5
I1217 19:38:08.351438 15822 net.cpp:380] inception_3b/5x5 <- inception_3b/5x5_reduce
I1217 19:38:08.351450 15822 net.cpp:338] inception_3b/5x5 -> inception_3b/5x5
I1217 19:38:08.351464 15822 net.cpp:113] Setting up inception_3b/5x5
I1217 19:38:08.352918 15822 net.cpp:120] Top shape: 80 96 28 28 (6021120)
I1217 19:38:08.352938 15822 layer_factory.hpp:74] Creating layer inception_3b/relu_5x5
I1217 19:38:08.352949 15822 net.cpp:84] Creating Layer inception_3b/relu_5x5
I1217 19:38:08.352957 15822 net.cpp:380] inception_3b/relu_5x5 <- inception_3b/5x5
I1217 19:38:08.352967 15822 net.cpp:327] inception_3b/relu_5x5 -> inception_3b/5x5 (in-place)
I1217 19:38:08.352977 15822 net.cpp:113] Setting up inception_3b/relu_5x5
I1217 19:38:08.353273 15822 net.cpp:120] Top shape: 80 96 28 28 (6021120)
I1217 19:38:08.353288 15822 layer_factory.hpp:74] Creating layer inception_3b/pool
I1217 19:38:08.353296 15822 layer_factory.cpp:56] CUDNN does not support padding or multiple tops. Using Caffe's own pooling layer.
I1217 19:38:08.353307 15822 net.cpp:84] Creating Layer inception_3b/pool
I1217 19:38:08.353315 15822 net.cpp:380] inception_3b/pool <- inception_3a/output_inception_3a/output_0_split_3
I1217 19:38:08.353325 15822 net.cpp:338] inception_3b/pool -> inception_3b/pool
I1217 19:38:08.353338 15822 net.cpp:113] Setting up inception_3b/pool
I1217 19:38:08.353353 15822 net.cpp:120] Top shape: 80 256 28 28 (16056320)
I1217 19:38:08.353360 15822 layer_factory.hpp:74] Creating layer inception_3b/pool_proj
I1217 19:38:08.353374 15822 net.cpp:84] Creating Layer inception_3b/pool_proj
I1217 19:38:08.353380 15822 net.cpp:380] inception_3b/pool_proj <- inception_3b/pool
I1217 19:38:08.353392 15822 net.cpp:338] inception_3b/pool_proj -> inception_3b/pool_proj
I1217 19:38:08.353404 15822 net.cpp:113] Setting up inception_3b/pool_proj
I1217 19:38:08.354120 15822 net.cpp:120] Top shape: 80 64 28 28 (4014080)
I1217 19:38:08.354149 15822 layer_factory.hpp:74] Creating layer inception_3b/relu_pool_proj
I1217 19:38:08.354164 15822 net.cpp:84] Creating Layer inception_3b/relu_pool_proj
I1217 19:38:08.354172 15822 net.cpp:380] inception_3b/relu_pool_proj <- inception_3b/pool_proj
I1217 19:38:08.354182 15822 net.cpp:327] inception_3b/relu_pool_proj -> inception_3b/pool_proj (in-place)
I1217 19:38:08.354192 15822 net.cpp:113] Setting up inception_3b/relu_pool_proj
I1217 19:38:08.354290 15822 net.cpp:120] Top shape: 80 64 28 28 (4014080)
I1217 19:38:08.354300 15822 layer_factory.hpp:74] Creating layer inception_3b/output
I1217 19:38:08.354310 15822 net.cpp:84] Creating Layer inception_3b/output
I1217 19:38:08.354316 15822 net.cpp:380] inception_3b/output <- inception_3b/1x1
I1217 19:38:08.354326 15822 net.cpp:380] inception_3b/output <- inception_3b/3x3
I1217 19:38:08.354333 15822 net.cpp:380] inception_3b/output <- inception_3b/5x5
I1217 19:38:08.354341 15822 net.cpp:380] inception_3b/output <- inception_3b/pool_proj
I1217 19:38:08.354351 15822 net.cpp:338] inception_3b/output -> inception_3b/output
I1217 19:38:08.354362 15822 net.cpp:113] Setting up inception_3b/output
I1217 19:38:08.354373 15822 net.cpp:120] Top shape: 80 480 28 28 (30105600)
I1217 19:38:08.354382 15822 layer_factory.hpp:74] Creating layer pool3/3x3_s2
I1217 19:38:08.354392 15822 net.cpp:84] Creating Layer pool3/3x3_s2
I1217 19:38:08.354398 15822 net.cpp:380] pool3/3x3_s2 <- inception_3b/output
I1217 19:38:08.354408 15822 net.cpp:338] pool3/3x3_s2 -> pool3/3x3_s2
I1217 19:38:08.354423 15822 net.cpp:113] Setting up pool3/3x3_s2
I1217 19:38:08.354513 15822 net.cpp:120] Top shape: 80 480 14 14 (7526400)
I1217 19:38:08.354523 15822 layer_factory.hpp:74] Creating layer pool3/3x3_s2_pool3/3x3_s2_0_split
I1217 19:38:08.354533 15822 net.cpp:84] Creating Layer pool3/3x3_s2_pool3/3x3_s2_0_split
I1217 19:38:08.354540 15822 net.cpp:380] pool3/3x3_s2_pool3/3x3_s2_0_split <- pool3/3x3_s2
I1217 19:38:08.354550 15822 net.cpp:338] pool3/3x3_s2_pool3/3x3_s2_0_split -> pool3/3x3_s2_pool3/3x3_s2_0_split_0
I1217 19:38:08.354560 15822 net.cpp:338] pool3/3x3_s2_pool3/3x3_s2_0_split -> pool3/3x3_s2_pool3/3x3_s2_0_split_1
I1217 19:38:08.354571 15822 net.cpp:338] pool3/3x3_s2_pool3/3x3_s2_0_split -> pool3/3x3_s2_pool3/3x3_s2_0_split_2
I1217 19:38:08.354581 15822 net.cpp:338] pool3/3x3_s2_pool3/3x3_s2_0_split -> pool3/3x3_s2_pool3/3x3_s2_0_split_3
I1217 19:38:08.354590 15822 net.cpp:113] Setting up pool3/3x3_s2_pool3/3x3_s2_0_split
I1217 19:38:08.354601 15822 net.cpp:120] Top shape: 80 480 14 14 (7526400)
I1217 19:38:08.354609 15822 net.cpp:120] Top shape: 80 480 14 14 (7526400)
I1217 19:38:08.354617 15822 net.cpp:120] Top shape: 80 480 14 14 (7526400)
I1217 19:38:08.354625 15822 net.cpp:120] Top shape: 80 480 14 14 (7526400)
I1217 19:38:08.354632 15822 layer_factory.hpp:74] Creating layer inception_4a/1x1
I1217 19:38:08.354655 15822 net.cpp:84] Creating Layer inception_4a/1x1
I1217 19:38:08.354662 15822 net.cpp:380] inception_4a/1x1 <- pool3/3x3_s2_pool3/3x3_s2_0_split_0
I1217 19:38:08.354674 15822 net.cpp:338] inception_4a/1x1 -> inception_4a/1x1
I1217 19:38:08.354686 15822 net.cpp:113] Setting up inception_4a/1x1
I1217 19:38:08.356334 15822 net.cpp:120] Top shape: 80 192 14 14 (3010560)
I1217 19:38:08.356353 15822 layer_factory.hpp:74] Creating layer inception_4a/relu_1x1
I1217 19:38:08.356366 15822 net.cpp:84] Creating Layer inception_4a/relu_1x1
I1217 19:38:08.356374 15822 net.cpp:380] inception_4a/relu_1x1 <- inception_4a/1x1
I1217 19:38:08.356384 15822 net.cpp:327] inception_4a/relu_1x1 -> inception_4a/1x1 (in-place)
I1217 19:38:08.356394 15822 net.cpp:113] Setting up inception_4a/relu_1x1
I1217 19:38:08.356678 15822 net.cpp:120] Top shape: 80 192 14 14 (3010560)
I1217 19:38:08.356693 15822 layer_factory.hpp:74] Creating layer inception_4a/3x3_reduce
I1217 19:38:08.356709 15822 net.cpp:84] Creating Layer inception_4a/3x3_reduce
I1217 19:38:08.356716 15822 net.cpp:380] inception_4a/3x3_reduce <- pool3/3x3_s2_pool3/3x3_s2_0_split_1
I1217 19:38:08.356734 15822 net.cpp:338] inception_4a/3x3_reduce -> inception_4a/3x3_reduce
I1217 19:38:08.356755 15822 net.cpp:113] Setting up inception_4a/3x3_reduce
I1217 19:38:08.358042 15822 net.cpp:120] Top shape: 80 96 14 14 (1505280)
I1217 19:38:08.358094 15822 layer_factory.hpp:74] Creating layer inception_4a/relu_3x3_reduce
I1217 19:38:08.358134 15822 net.cpp:84] Creating Layer inception_4a/relu_3x3_reduce
I1217 19:38:08.358142 15822 net.cpp:380] inception_4a/relu_3x3_reduce <- inception_4a/3x3_reduce
I1217 19:38:08.358152 15822 net.cpp:327] inception_4a/relu_3x3_reduce -> inception_4a/3x3_reduce (in-place)
I1217 19:38:08.358163 15822 net.cpp:113] Setting up inception_4a/relu_3x3_reduce
I1217 19:38:08.358302 15822 net.cpp:120] Top shape: 80 96 14 14 (1505280)
I1217 19:38:08.358325 15822 layer_factory.hpp:74] Creating layer inception_4a/3x3
I1217 19:38:08.358337 15822 net.cpp:84] Creating Layer inception_4a/3x3
I1217 19:38:08.358345 15822 net.cpp:380] inception_4a/3x3 <- inception_4a/3x3_reduce
I1217 19:38:08.358374 15822 net.cpp:338] inception_4a/3x3 -> inception_4a/3x3
I1217 19:38:08.358389 15822 net.cpp:113] Setting up inception_4a/3x3
I1217 19:38:08.369876 15822 net.cpp:120] Top shape: 80 208 14 14 (3261440)
I1217 19:38:08.369902 15822 layer_factory.hpp:74] Creating layer inception_4a/relu_3x3
I1217 19:38:08.369915 15822 net.cpp:84] Creating Layer inception_4a/relu_3x3
I1217 19:38:08.369925 15822 net.cpp:380] inception_4a/relu_3x3 <- inception_4a/3x3
I1217 19:38:08.369935 15822 net.cpp:327] inception_4a/relu_3x3 -> inception_4a/3x3 (in-place)
I1217 19:38:08.369946 15822 net.cpp:113] Setting up inception_4a/relu_3x3
I1217 19:38:08.370045 15822 net.cpp:120] Top shape: 80 208 14 14 (3261440)
I1217 19:38:08.370055 15822 layer_factory.hpp:74] Creating layer inception_4a/5x5_reduce
I1217 19:38:08.370076 15822 net.cpp:84] Creating Layer inception_4a/5x5_reduce
I1217 19:38:08.370085 15822 net.cpp:380] inception_4a/5x5_reduce <- pool3/3x3_s2_pool3/3x3_s2_0_split_2
I1217 19:38:08.370098 15822 net.cpp:338] inception_4a/5x5_reduce -> inception_4a/5x5_reduce
I1217 19:38:08.370111 15822 net.cpp:113] Setting up inception_4a/5x5_reduce
I1217 19:38:08.370728 15822 net.cpp:120] Top shape: 80 16 14 14 (250880)
I1217 19:38:08.370749 15822 layer_factory.hpp:74] Creating layer inception_4a/relu_5x5_reduce
I1217 19:38:08.370759 15822 net.cpp:84] Creating Layer inception_4a/relu_5x5_reduce
I1217 19:38:08.370767 15822 net.cpp:380] inception_4a/relu_5x5_reduce <- inception_4a/5x5_reduce
I1217 19:38:08.370777 15822 net.cpp:327] inception_4a/relu_5x5_reduce -> inception_4a/5x5_reduce (in-place)
I1217 19:38:08.370787 15822 net.cpp:113] Setting up inception_4a/relu_5x5_reduce
I1217 19:38:08.370883 15822 net.cpp:120] Top shape: 80 16 14 14 (250880)
I1217 19:38:08.370893 15822 layer_factory.hpp:74] Creating layer inception_4a/5x5
I1217 19:38:08.370906 15822 net.cpp:84] Creating Layer inception_4a/5x5
I1217 19:38:08.370914 15822 net.cpp:380] inception_4a/5x5 <- inception_4a/5x5_reduce
I1217 19:38:08.370924 15822 net.cpp:338] inception_4a/5x5 -> inception_4a/5x5
I1217 19:38:08.370936 15822 net.cpp:113] Setting up inception_4a/5x5
I1217 19:38:08.371693 15822 net.cpp:120] Top shape: 80 48 14 14 (752640)
I1217 19:38:08.371713 15822 layer_factory.hpp:74] Creating layer inception_4a/relu_5x5
I1217 19:38:08.371733 15822 net.cpp:84] Creating Layer inception_4a/relu_5x5
I1217 19:38:08.371742 15822 net.cpp:380] inception_4a/relu_5x5 <- inception_4a/5x5
I1217 19:38:08.371752 15822 net.cpp:327] inception_4a/relu_5x5 -> inception_4a/5x5 (in-place)
I1217 19:38:08.371763 15822 net.cpp:113] Setting up inception_4a/relu_5x5
I1217 19:38:08.372054 15822 net.cpp:120] Top shape: 80 48 14 14 (752640)
I1217 19:38:08.372068 15822 layer_factory.hpp:74] Creating layer inception_4a/pool
I1217 19:38:08.372076 15822 layer_factory.cpp:56] CUDNN does not support padding or multiple tops. Using Caffe's own pooling layer.
I1217 19:38:08.372086 15822 net.cpp:84] Creating Layer inception_4a/pool
I1217 19:38:08.372095 15822 net.cpp:380] inception_4a/pool <- pool3/3x3_s2_pool3/3x3_s2_0_split_3
I1217 19:38:08.372112 15822 net.cpp:338] inception_4a/pool -> inception_4a/pool
I1217 19:38:08.372134 15822 net.cpp:113] Setting up inception_4a/pool
I1217 19:38:08.372148 15822 net.cpp:120] Top shape: 80 480 14 14 (7526400)
I1217 19:38:08.372155 15822 layer_factory.hpp:74] Creating layer inception_4a/pool_proj
I1217 19:38:08.372169 15822 net.cpp:84] Creating Layer inception_4a/pool_proj
I1217 19:38:08.372175 15822 net.cpp:380] inception_4a/pool_proj <- inception_4a/pool
I1217 19:38:08.372189 15822 net.cpp:338] inception_4a/pool_proj -> inception_4a/pool_proj
I1217 19:38:08.372200 15822 net.cpp:113] Setting up inception_4a/pool_proj
I1217 19:38:08.373096 15822 net.cpp:120] Top shape: 80 64 14 14 (1003520)
I1217 19:38:08.373117 15822 layer_factory.hpp:74] Creating layer inception_4a/relu_pool_proj
I1217 19:38:08.373127 15822 net.cpp:84] Creating Layer inception_4a/relu_pool_proj
I1217 19:38:08.373136 15822 net.cpp:380] inception_4a/relu_pool_proj <- inception_4a/pool_proj
I1217 19:38:08.373145 15822 net.cpp:327] inception_4a/relu_pool_proj -> inception_4a/pool_proj (in-place)
I1217 19:38:08.373155 15822 net.cpp:113] Setting up inception_4a/relu_pool_proj
I1217 19:38:08.373251 15822 net.cpp:120] Top shape: 80 64 14 14 (1003520)
I1217 19:38:08.373260 15822 layer_factory.hpp:74] Creating layer inception_4a/output
I1217 19:38:08.373281 15822 net.cpp:84] Creating Layer inception_4a/output
I1217 19:38:08.373289 15822 net.cpp:380] inception_4a/output <- inception_4a/1x1
I1217 19:38:08.373297 15822 net.cpp:380] inception_4a/output <- inception_4a/3x3
I1217 19:38:08.373306 15822 net.cpp:380] inception_4a/output <- inception_4a/5x5
I1217 19:38:08.373313 15822 net.cpp:380] inception_4a/output <- inception_4a/pool_proj
I1217 19:38:08.373575 15822 net.cpp:338] inception_4a/output -> inception_4a/output
I1217 19:38:08.373589 15822 net.cpp:113] Setting up inception_4a/output
I1217 19:38:08.373600 15822 net.cpp:120] Top shape: 80 512 14 14 (8028160)
I1217 19:38:08.373608 15822 layer_factory.hpp:74] Creating layer inception_4a/output_inception_4a/output_0_split
I1217 19:38:08.373618 15822 net.cpp:84] Creating Layer inception_4a/output_inception_4a/output_0_split
I1217 19:38:08.373625 15822 net.cpp:380] inception_4a/output_inception_4a/output_0_split <- inception_4a/output
I1217 19:38:08.373637 15822 net.cpp:338] inception_4a/output_inception_4a/output_0_split -> inception_4a/output_inception_4a/output_0_split_0
I1217 19:38:08.373648 15822 net.cpp:338] inception_4a/output_inception_4a/output_0_split -> inception_4a/output_inception_4a/output_0_split_1
I1217 19:38:08.373659 15822 net.cpp:338] inception_4a/output_inception_4a/output_0_split -> inception_4a/output_inception_4a/output_0_split_2
I1217 19:38:08.373670 15822 net.cpp:338] inception_4a/output_inception_4a/output_0_split -> inception_4a/output_inception_4a/output_0_split_3
I1217 19:38:08.373679 15822 net.cpp:338] inception_4a/output_inception_4a/output_0_split -> inception_4a/output_inception_4a/output_0_split_4
I1217 19:38:08.373689 15822 net.cpp:113] Setting up inception_4a/output_inception_4a/output_0_split
I1217 19:38:08.373703 15822 net.cpp:120] Top shape: 80 512 14 14 (8028160)
I1217 19:38:08.373713 15822 net.cpp:120] Top shape: 80 512 14 14 (8028160)
I1217 19:38:08.373720 15822 net.cpp:120] Top shape: 80 512 14 14 (8028160)
I1217 19:38:08.373728 15822 net.cpp:120] Top shape: 80 512 14 14 (8028160)
I1217 19:38:08.373736 15822 net.cpp:120] Top shape: 80 512 14 14 (8028160)
I1217 19:38:08.373744 15822 layer_factory.hpp:74] Creating layer loss1/ave_pool
I1217 19:38:08.373754 15822 net.cpp:84] Creating Layer loss1/ave_pool
I1217 19:38:08.373760 15822 net.cpp:380] loss1/ave_pool <- inception_4a/output_inception_4a/output_0_split_0
I1217 19:38:08.373769 15822 net.cpp:338] loss1/ave_pool -> loss1/ave_pool
I1217 19:38:08.373778 15822 net.cpp:113] Setting up loss1/ave_pool
I1217 19:38:08.373883 15822 net.cpp:120] Top shape: 80 512 4 4 (655360)
I1217 19:38:08.373894 15822 layer_factory.hpp:74] Creating layer loss1/conv
I1217 19:38:08.373908 15822 net.cpp:84] Creating Layer loss1/conv
I1217 19:38:08.373920 15822 net.cpp:380] loss1/conv <- loss1/ave_pool
I1217 19:38:08.373940 15822 net.cpp:338] loss1/conv -> loss1/conv
I1217 19:38:08.373952 15822 net.cpp:113] Setting up loss1/conv
I1217 19:38:08.375282 15822 net.cpp:120] Top shape: 80 128 4 4 (163840)
I1217 19:38:08.375301 15822 layer_factory.hpp:74] Creating layer loss1/relu_conv
I1217 19:38:08.375313 15822 net.cpp:84] Creating Layer loss1/relu_conv
I1217 19:38:08.375319 15822 net.cpp:380] loss1/relu_conv <- loss1/conv
I1217 19:38:08.375329 15822 net.cpp:327] loss1/relu_conv -> loss1/conv (in-place)
I1217 19:38:08.375339 15822 net.cpp:113] Setting up loss1/relu_conv
I1217 19:38:08.375434 15822 net.cpp:120] Top shape: 80 128 4 4 (163840)
I1217 19:38:08.375443 15822 layer_factory.hpp:74] Creating layer loss1/fc
I1217 19:38:08.375464 15822 net.cpp:84] Creating Layer loss1/fc
I1217 19:38:08.375473 15822 net.cpp:380] loss1/fc <- loss1/conv
I1217 19:38:08.375486 15822 net.cpp:338] loss1/fc -> loss1/fc
I1217 19:38:08.375501 15822 net.cpp:113] Setting up loss1/fc
I1217 19:38:08.422224 15822 net.cpp:120] Top shape: 80 1024 (81920)
I1217 19:38:08.422268 15822 layer_factory.hpp:74] Creating layer loss1/relu_fc
I1217 19:38:08.422286 15822 net.cpp:84] Creating Layer loss1/relu_fc
I1217 19:38:08.422297 15822 net.cpp:380] loss1/relu_fc <- loss1/fc
I1217 19:38:08.422310 15822 net.cpp:327] loss1/relu_fc -> loss1/fc (in-place)
I1217 19:38:08.422324 15822 net.cpp:113] Setting up loss1/relu_fc
I1217 19:38:08.422818 15822 net.cpp:120] Top shape: 80 1024 (81920)
I1217 19:38:08.422834 15822 layer_factory.hpp:74] Creating layer loss1/drop_fc
I1217 19:38:08.422863 15822 net.cpp:84] Creating Layer loss1/drop_fc
I1217 19:38:08.422870 15822 net.cpp:380] loss1/drop_fc <- loss1/fc
I1217 19:38:08.422881 15822 net.cpp:327] loss1/drop_fc -> loss1/fc (in-place)
I1217 19:38:08.422894 15822 net.cpp:113] Setting up loss1/drop_fc
I1217 19:38:08.422907 15822 net.cpp:120] Top shape: 80 1024 (81920)
I1217 19:38:08.422915 15822 layer_factory.hpp:74] Creating layer loss1/classifier_kaggle
I1217 19:38:08.422941 15822 net.cpp:84] Creating Layer loss1/classifier_kaggle
I1217 19:38:08.422950 15822 net.cpp:380] loss1/classifier_kaggle <- loss1/fc
I1217 19:38:08.422960 15822 net.cpp:338] loss1/classifier_kaggle -> loss1/classifier_kaggle
I1217 19:38:08.422974 15822 net.cpp:113] Setting up loss1/classifier_kaggle
I1217 19:38:08.428730 15822 net.cpp:120] Top shape: 80 447 (35760)
I1217 19:38:08.428750 15822 layer_factory.hpp:74] Creating layer loss1/loss
I1217 19:38:08.428762 15822 net.cpp:84] Creating Layer loss1/loss
I1217 19:38:08.428771 15822 net.cpp:380] loss1/loss <- loss1/classifier_kaggle
I1217 19:38:08.428781 15822 net.cpp:380] loss1/loss <- label_data_1_split_0
I1217 19:38:08.428791 15822 net.cpp:338] loss1/loss -> loss1/loss1
I1217 19:38:08.428802 15822 net.cpp:113] Setting up loss1/loss
I1217 19:38:08.428813 15822 layer_factory.hpp:74] Creating layer loss1/loss
I1217 19:38:08.429040 15822 net.cpp:120] Top shape: (1)
I1217 19:38:08.429051 15822 net.cpp:122]     with loss weight 0.3
I1217 19:38:08.429085 15822 layer_factory.hpp:74] Creating layer inception_4b/1x1
I1217 19:38:08.429111 15822 net.cpp:84] Creating Layer inception_4b/1x1
I1217 19:38:08.429121 15822 net.cpp:380] inception_4b/1x1 <- inception_4a/output_inception_4a/output_0_split_1
I1217 19:38:08.429133 15822 net.cpp:338] inception_4b/1x1 -> inception_4b/1x1
I1217 19:38:08.429146 15822 net.cpp:113] Setting up inception_4b/1x1
I1217 19:38:08.430987 15822 net.cpp:120] Top shape: 80 160 14 14 (2508800)
I1217 19:38:08.431010 15822 layer_factory.hpp:74] Creating layer inception_4b/relu_1x1
I1217 19:38:08.431023 15822 net.cpp:84] Creating Layer inception_4b/relu_1x1
I1217 19:38:08.431032 15822 net.cpp:380] inception_4b/relu_1x1 <- inception_4b/1x1
I1217 19:38:08.431042 15822 net.cpp:327] inception_4b/relu_1x1 -> inception_4b/1x1 (in-place)
I1217 19:38:08.431053 15822 net.cpp:113] Setting up inception_4b/relu_1x1
I1217 19:38:08.431149 15822 net.cpp:120] Top shape: 80 160 14 14 (2508800)
I1217 19:38:08.431174 15822 layer_factory.hpp:74] Creating layer inception_4b/3x3_reduce
I1217 19:38:08.431207 15822 net.cpp:84] Creating Layer inception_4b/3x3_reduce
I1217 19:38:08.431218 15822 net.cpp:380] inception_4b/3x3_reduce <- inception_4a/output_inception_4a/output_0_split_2
I1217 19:38:08.431231 15822 net.cpp:338] inception_4b/3x3_reduce -> inception_4b/3x3_reduce
I1217 19:38:08.431242 15822 net.cpp:113] Setting up inception_4b/3x3_reduce
I1217 19:38:08.432489 15822 net.cpp:120] Top shape: 80 112 14 14 (1756160)
I1217 19:38:08.432512 15822 layer_factory.hpp:74] Creating layer inception_4b/relu_3x3_reduce
I1217 19:38:08.432523 15822 net.cpp:84] Creating Layer inception_4b/relu_3x3_reduce
I1217 19:38:08.432531 15822 net.cpp:380] inception_4b/relu_3x3_reduce <- inception_4b/3x3_reduce
I1217 19:38:08.432543 15822 net.cpp:327] inception_4b/relu_3x3_reduce -> inception_4b/3x3_reduce (in-place)
I1217 19:38:08.432554 15822 net.cpp:113] Setting up inception_4b/relu_3x3_reduce
I1217 19:38:08.432646 15822 net.cpp:120] Top shape: 80 112 14 14 (1756160)
I1217 19:38:08.432660 15822 layer_factory.hpp:74] Creating layer inception_4b/3x3
I1217 19:38:08.432675 15822 net.cpp:84] Creating Layer inception_4b/3x3
I1217 19:38:08.432682 15822 net.cpp:380] inception_4b/3x3 <- inception_4b/3x3_reduce
I1217 19:38:08.432693 15822 net.cpp:338] inception_4b/3x3 -> inception_4b/3x3
I1217 19:38:08.432704 15822 net.cpp:113] Setting up inception_4b/3x3
I1217 19:38:08.436036 15822 net.cpp:120] Top shape: 80 224 14 14 (3512320)
I1217 19:38:08.436058 15822 layer_factory.hpp:74] Creating layer inception_4b/relu_3x3
I1217 19:38:08.436069 15822 net.cpp:84] Creating Layer inception_4b/relu_3x3
I1217 19:38:08.436076 15822 net.cpp:380] inception_4b/relu_3x3 <- inception_4b/3x3
I1217 19:38:08.436089 15822 net.cpp:327] inception_4b/relu_3x3 -> inception_4b/3x3 (in-place)
I1217 19:38:08.436099 15822 net.cpp:113] Setting up inception_4b/relu_3x3
I1217 19:38:08.436386 15822 net.cpp:120] Top shape: 80 224 14 14 (3512320)
I1217 19:38:08.436400 15822 layer_factory.hpp:74] Creating layer inception_4b/5x5_reduce
I1217 19:38:08.436427 15822 net.cpp:84] Creating Layer inception_4b/5x5_reduce
I1217 19:38:08.436436 15822 net.cpp:380] inception_4b/5x5_reduce <- inception_4a/output_inception_4a/output_0_split_3
I1217 19:38:08.436450 15822 net.cpp:338] inception_4b/5x5_reduce -> inception_4b/5x5_reduce
I1217 19:38:08.436461 15822 net.cpp:113] Setting up inception_4b/5x5_reduce
I1217 19:38:08.437160 15822 net.cpp:120] Top shape: 80 24 14 14 (376320)
I1217 19:38:08.437181 15822 layer_factory.hpp:74] Creating layer inception_4b/relu_5x5_reduce
I1217 19:38:08.437193 15822 net.cpp:84] Creating Layer inception_4b/relu_5x5_reduce
I1217 19:38:08.437202 15822 net.cpp:380] inception_4b/relu_5x5_reduce <- inception_4b/5x5_reduce
I1217 19:38:08.437212 15822 net.cpp:327] inception_4b/relu_5x5_reduce -> inception_4b/5x5_reduce (in-place)
I1217 19:38:08.437222 15822 net.cpp:113] Setting up inception_4b/relu_5x5_reduce
I1217 19:38:08.437322 15822 net.cpp:120] Top shape: 80 24 14 14 (376320)
I1217 19:38:08.437331 15822 layer_factory.hpp:74] Creating layer inception_4b/5x5
I1217 19:38:08.437345 15822 net.cpp:84] Creating Layer inception_4b/5x5
I1217 19:38:08.437352 15822 net.cpp:380] inception_4b/5x5 <- inception_4b/5x5_reduce
I1217 19:38:08.437363 15822 net.cpp:338] inception_4b/5x5 -> inception_4b/5x5
I1217 19:38:08.437374 15822 net.cpp:113] Setting up inception_4b/5x5
I1217 19:38:08.438372 15822 net.cpp:120] Top shape: 80 64 14 14 (1003520)
I1217 19:38:08.438392 15822 layer_factory.hpp:74] Creating layer inception_4b/relu_5x5
I1217 19:38:08.438412 15822 net.cpp:84] Creating Layer inception_4b/relu_5x5
I1217 19:38:08.438421 15822 net.cpp:380] inception_4b/relu_5x5 <- inception_4b/5x5
I1217 19:38:08.438433 15822 net.cpp:327] inception_4b/relu_5x5 -> inception_4b/5x5 (in-place)
I1217 19:38:08.438443 15822 net.cpp:113] Setting up inception_4b/relu_5x5
I1217 19:38:08.438539 15822 net.cpp:120] Top shape: 80 64 14 14 (1003520)
I1217 19:38:08.438549 15822 layer_factory.hpp:74] Creating layer inception_4b/pool
I1217 19:38:08.438562 15822 layer_factory.cpp:56] CUDNN does not support padding or multiple tops. Using Caffe's own pooling layer.
I1217 19:38:08.438580 15822 net.cpp:84] Creating Layer inception_4b/pool
I1217 19:38:08.438591 15822 net.cpp:380] inception_4b/pool <- inception_4a/output_inception_4a/output_0_split_4
I1217 19:38:08.438601 15822 net.cpp:338] inception_4b/pool -> inception_4b/pool
I1217 19:38:08.438623 15822 net.cpp:113] Setting up inception_4b/pool
I1217 19:38:08.438638 15822 net.cpp:120] Top shape: 80 512 14 14 (8028160)
I1217 19:38:08.438647 15822 layer_factory.hpp:74] Creating layer inception_4b/pool_proj
I1217 19:38:08.438660 15822 net.cpp:84] Creating Layer inception_4b/pool_proj
I1217 19:38:08.438668 15822 net.cpp:380] inception_4b/pool_proj <- inception_4b/pool
I1217 19:38:08.438678 15822 net.cpp:338] inception_4b/pool_proj -> inception_4b/pool_proj
I1217 19:38:08.438689 15822 net.cpp:113] Setting up inception_4b/pool_proj
I1217 19:38:08.439888 15822 net.cpp:120] Top shape: 80 64 14 14 (1003520)
I1217 19:38:08.439910 15822 layer_factory.hpp:74] Creating layer inception_4b/relu_pool_proj
I1217 19:38:08.439920 15822 net.cpp:84] Creating Layer inception_4b/relu_pool_proj
I1217 19:38:08.439929 15822 net.cpp:380] inception_4b/relu_pool_proj <- inception_4b/pool_proj
I1217 19:38:08.439939 15822 net.cpp:327] inception_4b/relu_pool_proj -> inception_4b/pool_proj (in-place)
I1217 19:38:08.439954 15822 net.cpp:113] Setting up inception_4b/relu_pool_proj
I1217 19:38:08.440248 15822 net.cpp:120] Top shape: 80 64 14 14 (1003520)
I1217 19:38:08.440265 15822 layer_factory.hpp:74] Creating layer inception_4b/output
I1217 19:38:08.440286 15822 net.cpp:84] Creating Layer inception_4b/output
I1217 19:38:08.440294 15822 net.cpp:380] inception_4b/output <- inception_4b/1x1
I1217 19:38:08.440304 15822 net.cpp:380] inception_4b/output <- inception_4b/3x3
I1217 19:38:08.440312 15822 net.cpp:380] inception_4b/output <- inception_4b/5x5
I1217 19:38:08.440320 15822 net.cpp:380] inception_4b/output <- inception_4b/pool_proj
I1217 19:38:08.440331 15822 net.cpp:338] inception_4b/output -> inception_4b/output
I1217 19:38:08.440342 15822 net.cpp:113] Setting up inception_4b/output
I1217 19:38:08.440356 15822 net.cpp:120] Top shape: 80 512 14 14 (8028160)
I1217 19:38:08.440362 15822 layer_factory.hpp:74] Creating layer inception_4b/output_inception_4b/output_0_split
I1217 19:38:08.440372 15822 net.cpp:84] Creating Layer inception_4b/output_inception_4b/output_0_split
I1217 19:38:08.440379 15822 net.cpp:380] inception_4b/output_inception_4b/output_0_split <- inception_4b/output
I1217 19:38:08.440389 15822 net.cpp:338] inception_4b/output_inception_4b/output_0_split -> inception_4b/output_inception_4b/output_0_split_0
I1217 19:38:08.440400 15822 net.cpp:338] inception_4b/output_inception_4b/output_0_split -> inception_4b/output_inception_4b/output_0_split_1
I1217 19:38:08.440410 15822 net.cpp:338] inception_4b/output_inception_4b/output_0_split -> inception_4b/output_inception_4b/output_0_split_2
I1217 19:38:08.440423 15822 net.cpp:338] inception_4b/output_inception_4b/output_0_split -> inception_4b/output_inception_4b/output_0_split_3
I1217 19:38:08.440433 15822 net.cpp:113] Setting up inception_4b/output_inception_4b/output_0_split
I1217 19:38:08.440444 15822 net.cpp:120] Top shape: 80 512 14 14 (8028160)
I1217 19:38:08.440453 15822 net.cpp:120] Top shape: 80 512 14 14 (8028160)
I1217 19:38:08.440461 15822 net.cpp:120] Top shape: 80 512 14 14 (8028160)
I1217 19:38:08.440469 15822 net.cpp:120] Top shape: 80 512 14 14 (8028160)
I1217 19:38:08.440497 15822 layer_factory.hpp:74] Creating layer inception_4c/1x1
I1217 19:38:08.440512 15822 net.cpp:84] Creating Layer inception_4c/1x1
I1217 19:38:08.440521 15822 net.cpp:380] inception_4c/1x1 <- inception_4b/output_inception_4b/output_0_split_0
I1217 19:38:08.440531 15822 net.cpp:338] inception_4c/1x1 -> inception_4c/1x1
I1217 19:38:08.440542 15822 net.cpp:113] Setting up inception_4c/1x1
I1217 19:38:08.446924 15822 net.cpp:120] Top shape: 80 128 14 14 (2007040)
I1217 19:38:08.446954 15822 layer_factory.hpp:74] Creating layer inception_4c/relu_1x1
I1217 19:38:08.446974 15822 net.cpp:84] Creating Layer inception_4c/relu_1x1
I1217 19:38:08.446982 15822 net.cpp:380] inception_4c/relu_1x1 <- inception_4c/1x1
I1217 19:38:08.446995 15822 net.cpp:327] inception_4c/relu_1x1 -> inception_4c/1x1 (in-place)
I1217 19:38:08.447006 15822 net.cpp:113] Setting up inception_4c/relu_1x1
I1217 19:38:08.447104 15822 net.cpp:120] Top shape: 80 128 14 14 (2007040)
I1217 19:38:08.447113 15822 layer_factory.hpp:74] Creating layer inception_4c/3x3_reduce
I1217 19:38:08.447139 15822 net.cpp:84] Creating Layer inception_4c/3x3_reduce
I1217 19:38:08.447149 15822 net.cpp:380] inception_4c/3x3_reduce <- inception_4b/output_inception_4b/output_0_split_1
I1217 19:38:08.447159 15822 net.cpp:338] inception_4c/3x3_reduce -> inception_4c/3x3_reduce
I1217 19:38:08.447171 15822 net.cpp:113] Setting up inception_4c/3x3_reduce
I1217 19:38:08.448516 15822 net.cpp:120] Top shape: 80 128 14 14 (2007040)
I1217 19:38:08.448536 15822 layer_factory.hpp:74] Creating layer inception_4c/relu_3x3_reduce
I1217 19:38:08.448546 15822 net.cpp:84] Creating Layer inception_4c/relu_3x3_reduce
I1217 19:38:08.448554 15822 net.cpp:380] inception_4c/relu_3x3_reduce <- inception_4c/3x3_reduce
I1217 19:38:08.448567 15822 net.cpp:327] inception_4c/relu_3x3_reduce -> inception_4c/3x3_reduce (in-place)
I1217 19:38:08.448578 15822 net.cpp:113] Setting up inception_4c/relu_3x3_reduce
I1217 19:38:08.448669 15822 net.cpp:120] Top shape: 80 128 14 14 (2007040)
I1217 19:38:08.448678 15822 layer_factory.hpp:74] Creating layer inception_4c/3x3
I1217 19:38:08.448693 15822 net.cpp:84] Creating Layer inception_4c/3x3
I1217 19:38:08.448701 15822 net.cpp:380] inception_4c/3x3 <- inception_4c/3x3_reduce
I1217 19:38:08.448711 15822 net.cpp:338] inception_4c/3x3 -> inception_4c/3x3
I1217 19:38:08.448724 15822 net.cpp:113] Setting up inception_4c/3x3
I1217 19:38:08.453034 15822 net.cpp:120] Top shape: 80 256 14 14 (4014080)
I1217 19:38:08.453079 15822 layer_factory.hpp:74] Creating layer inception_4c/relu_3x3
I1217 19:38:08.453104 15822 net.cpp:84] Creating Layer inception_4c/relu_3x3
I1217 19:38:08.453112 15822 net.cpp:380] inception_4c/relu_3x3 <- inception_4c/3x3
I1217 19:38:08.453124 15822 net.cpp:327] inception_4c/relu_3x3 -> inception_4c/3x3 (in-place)
I1217 19:38:08.453135 15822 net.cpp:113] Setting up inception_4c/relu_3x3
I1217 19:38:08.453235 15822 net.cpp:120] Top shape: 80 256 14 14 (4014080)
I1217 19:38:08.453244 15822 layer_factory.hpp:74] Creating layer inception_4c/5x5_reduce
I1217 19:38:08.453258 15822 net.cpp:84] Creating Layer inception_4c/5x5_reduce
I1217 19:38:08.453266 15822 net.cpp:380] inception_4c/5x5_reduce <- inception_4b/output_inception_4b/output_0_split_2
I1217 19:38:08.453277 15822 net.cpp:338] inception_4c/5x5_reduce -> inception_4c/5x5_reduce
I1217 19:38:08.453289 15822 net.cpp:113] Setting up inception_4c/5x5_reduce
I1217 19:38:08.453963 15822 net.cpp:120] Top shape: 80 24 14 14 (376320)
I1217 19:38:08.453982 15822 layer_factory.hpp:74] Creating layer inception_4c/relu_5x5_reduce
I1217 19:38:08.453992 15822 net.cpp:84] Creating Layer inception_4c/relu_5x5_reduce
I1217 19:38:08.454000 15822 net.cpp:380] inception_4c/relu_5x5_reduce <- inception_4c/5x5_reduce
I1217 19:38:08.454010 15822 net.cpp:327] inception_4c/relu_5x5_reduce -> inception_4c/5x5_reduce (in-place)
I1217 19:38:08.454021 15822 net.cpp:113] Setting up inception_4c/relu_5x5_reduce
I1217 19:38:08.454308 15822 net.cpp:120] Top shape: 80 24 14 14 (376320)
I1217 19:38:08.454321 15822 layer_factory.hpp:74] Creating layer inception_4c/5x5
I1217 19:38:08.454335 15822 net.cpp:84] Creating Layer inception_4c/5x5
I1217 19:38:08.454344 15822 net.cpp:380] inception_4c/5x5 <- inception_4c/5x5_reduce
I1217 19:38:08.454357 15822 net.cpp:338] inception_4c/5x5 -> inception_4c/5x5
I1217 19:38:08.454370 15822 net.cpp:113] Setting up inception_4c/5x5
I1217 19:38:08.455366 15822 net.cpp:120] Top shape: 80 64 14 14 (1003520)
I1217 19:38:08.455389 15822 layer_factory.hpp:74] Creating layer inception_4c/relu_5x5
I1217 19:38:08.455415 15822 net.cpp:84] Creating Layer inception_4c/relu_5x5
I1217 19:38:08.455440 15822 net.cpp:380] inception_4c/relu_5x5 <- inception_4c/5x5
I1217 19:38:08.455451 15822 net.cpp:327] inception_4c/relu_5x5 -> inception_4c/5x5 (in-place)
I1217 19:38:08.455461 15822 net.cpp:113] Setting up inception_4c/relu_5x5
I1217 19:38:08.455562 15822 net.cpp:120] Top shape: 80 64 14 14 (1003520)
I1217 19:38:08.455572 15822 layer_factory.hpp:74] Creating layer inception_4c/pool
I1217 19:38:08.455579 15822 layer_factory.cpp:56] CUDNN does not support padding or multiple tops. Using Caffe's own pooling layer.
I1217 19:38:08.455588 15822 net.cpp:84] Creating Layer inception_4c/pool
I1217 19:38:08.455596 15822 net.cpp:380] inception_4c/pool <- inception_4b/output_inception_4b/output_0_split_3
I1217 19:38:08.455610 15822 net.cpp:338] inception_4c/pool -> inception_4c/pool
I1217 19:38:08.455621 15822 net.cpp:113] Setting up inception_4c/pool
I1217 19:38:08.455634 15822 net.cpp:120] Top shape: 80 512 14 14 (8028160)
I1217 19:38:08.455641 15822 layer_factory.hpp:74] Creating layer inception_4c/pool_proj
I1217 19:38:08.455652 15822 net.cpp:84] Creating Layer inception_4c/pool_proj
I1217 19:38:08.455660 15822 net.cpp:380] inception_4c/pool_proj <- inception_4c/pool
I1217 19:38:08.455672 15822 net.cpp:338] inception_4c/pool_proj -> inception_4c/pool_proj
I1217 19:38:08.455683 15822 net.cpp:113] Setting up inception_4c/pool_proj
I1217 19:38:08.456609 15822 net.cpp:120] Top shape: 80 64 14 14 (1003520)
I1217 19:38:08.456629 15822 layer_factory.hpp:74] Creating layer inception_4c/relu_pool_proj
I1217 19:38:08.456650 15822 net.cpp:84] Creating Layer inception_4c/relu_pool_proj
I1217 19:38:08.456658 15822 net.cpp:380] inception_4c/relu_pool_proj <- inception_4c/pool_proj
I1217 19:38:08.456668 15822 net.cpp:327] inception_4c/relu_pool_proj -> inception_4c/pool_proj (in-place)
I1217 19:38:08.456679 15822 net.cpp:113] Setting up inception_4c/relu_pool_proj
I1217 19:38:08.456782 15822 net.cpp:120] Top shape: 80 64 14 14 (1003520)
I1217 19:38:08.456794 15822 layer_factory.hpp:74] Creating layer inception_4c/output
I1217 19:38:08.456804 15822 net.cpp:84] Creating Layer inception_4c/output
I1217 19:38:08.456810 15822 net.cpp:380] inception_4c/output <- inception_4c/1x1
I1217 19:38:08.456820 15822 net.cpp:380] inception_4c/output <- inception_4c/3x3
I1217 19:38:08.456827 15822 net.cpp:380] inception_4c/output <- inception_4c/5x5
I1217 19:38:08.456835 15822 net.cpp:380] inception_4c/output <- inception_4c/pool_proj
I1217 19:38:08.456845 15822 net.cpp:338] inception_4c/output -> inception_4c/output
I1217 19:38:08.456854 15822 net.cpp:113] Setting up inception_4c/output
I1217 19:38:08.456866 15822 net.cpp:120] Top shape: 80 512 14 14 (8028160)
I1217 19:38:08.456872 15822 layer_factory.hpp:74] Creating layer inception_4c/output_inception_4c/output_0_split
I1217 19:38:08.456884 15822 net.cpp:84] Creating Layer inception_4c/output_inception_4c/output_0_split
I1217 19:38:08.456892 15822 net.cpp:380] inception_4c/output_inception_4c/output_0_split <- inception_4c/output
I1217 19:38:08.456900 15822 net.cpp:338] inception_4c/output_inception_4c/output_0_split -> inception_4c/output_inception_4c/output_0_split_0
I1217 19:38:08.456912 15822 net.cpp:338] inception_4c/output_inception_4c/output_0_split -> inception_4c/output_inception_4c/output_0_split_1
I1217 19:38:08.456923 15822 net.cpp:338] inception_4c/output_inception_4c/output_0_split -> inception_4c/output_inception_4c/output_0_split_2
I1217 19:38:08.456935 15822 net.cpp:338] inception_4c/output_inception_4c/output_0_split -> inception_4c/output_inception_4c/output_0_split_3
I1217 19:38:08.456944 15822 net.cpp:113] Setting up inception_4c/output_inception_4c/output_0_split
I1217 19:38:08.456955 15822 net.cpp:120] Top shape: 80 512 14 14 (8028160)
I1217 19:38:08.456964 15822 net.cpp:120] Top shape: 80 512 14 14 (8028160)
I1217 19:38:08.456972 15822 net.cpp:120] Top shape: 80 512 14 14 (8028160)
I1217 19:38:08.456980 15822 net.cpp:120] Top shape: 80 512 14 14 (8028160)
I1217 19:38:08.456987 15822 layer_factory.hpp:74] Creating layer inception_4d/1x1
I1217 19:38:08.457011 15822 net.cpp:84] Creating Layer inception_4d/1x1
I1217 19:38:08.457020 15822 net.cpp:380] inception_4d/1x1 <- inception_4c/output_inception_4c/output_0_split_0
I1217 19:38:08.457033 15822 net.cpp:338] inception_4d/1x1 -> inception_4d/1x1
I1217 19:38:08.457046 15822 net.cpp:113] Setting up inception_4d/1x1
I1217 19:38:08.458297 15822 net.cpp:120] Top shape: 80 112 14 14 (1756160)
I1217 19:38:08.458319 15822 layer_factory.hpp:74] Creating layer inception_4d/relu_1x1
I1217 19:38:08.458343 15822 net.cpp:84] Creating Layer inception_4d/relu_1x1
I1217 19:38:08.458351 15822 net.cpp:380] inception_4d/relu_1x1 <- inception_4d/1x1
I1217 19:38:08.458361 15822 net.cpp:327] inception_4d/relu_1x1 -> inception_4d/1x1 (in-place)
I1217 19:38:08.458372 15822 net.cpp:113] Setting up inception_4d/relu_1x1
I1217 19:38:08.458469 15822 net.cpp:120] Top shape: 80 112 14 14 (1756160)
I1217 19:38:08.458478 15822 layer_factory.hpp:74] Creating layer inception_4d/3x3_reduce
I1217 19:38:08.458490 15822 net.cpp:84] Creating Layer inception_4d/3x3_reduce
I1217 19:38:08.458498 15822 net.cpp:380] inception_4d/3x3_reduce <- inception_4c/output_inception_4c/output_0_split_1
I1217 19:38:08.458510 15822 net.cpp:338] inception_4d/3x3_reduce -> inception_4d/3x3_reduce
I1217 19:38:08.458523 15822 net.cpp:113] Setting up inception_4d/3x3_reduce
I1217 19:38:08.459959 15822 net.cpp:120] Top shape: 80 144 14 14 (2257920)
I1217 19:38:08.459980 15822 layer_factory.hpp:74] Creating layer inception_4d/relu_3x3_reduce
I1217 19:38:08.459990 15822 net.cpp:84] Creating Layer inception_4d/relu_3x3_reduce
I1217 19:38:08.459998 15822 net.cpp:380] inception_4d/relu_3x3_reduce <- inception_4d/3x3_reduce
I1217 19:38:08.460008 15822 net.cpp:327] inception_4d/relu_3x3_reduce -> inception_4d/3x3_reduce (in-place)
I1217 19:38:08.460018 15822 net.cpp:113] Setting up inception_4d/relu_3x3_reduce
I1217 19:38:08.460314 15822 net.cpp:120] Top shape: 80 144 14 14 (2257920)
I1217 19:38:08.460327 15822 layer_factory.hpp:74] Creating layer inception_4d/3x3
I1217 19:38:08.460341 15822 net.cpp:84] Creating Layer inception_4d/3x3
I1217 19:38:08.460350 15822 net.cpp:380] inception_4d/3x3 <- inception_4d/3x3_reduce
I1217 19:38:08.460361 15822 net.cpp:338] inception_4d/3x3 -> inception_4d/3x3
I1217 19:38:08.460373 15822 net.cpp:113] Setting up inception_4d/3x3
I1217 19:38:08.473413 15822 net.cpp:120] Top shape: 80 288 14 14 (4515840)
I1217 19:38:08.473444 15822 layer_factory.hpp:74] Creating layer inception_4d/relu_3x3
I1217 19:38:08.473469 15822 net.cpp:84] Creating Layer inception_4d/relu_3x3
I1217 19:38:08.473479 15822 net.cpp:380] inception_4d/relu_3x3 <- inception_4d/3x3
I1217 19:38:08.473489 15822 net.cpp:327] inception_4d/relu_3x3 -> inception_4d/3x3 (in-place)
I1217 19:38:08.473501 15822 net.cpp:113] Setting up inception_4d/relu_3x3
I1217 19:38:08.473603 15822 net.cpp:120] Top shape: 80 288 14 14 (4515840)
I1217 19:38:08.473613 15822 layer_factory.hpp:74] Creating layer inception_4d/5x5_reduce
I1217 19:38:08.473624 15822 net.cpp:84] Creating Layer inception_4d/5x5_reduce
I1217 19:38:08.473633 15822 net.cpp:380] inception_4d/5x5_reduce <- inception_4c/output_inception_4c/output_0_split_2
I1217 19:38:08.473645 15822 net.cpp:338] inception_4d/5x5_reduce -> inception_4d/5x5_reduce
I1217 19:38:08.473659 15822 net.cpp:113] Setting up inception_4d/5x5_reduce
I1217 19:38:08.474376 15822 net.cpp:120] Top shape: 80 32 14 14 (501760)
I1217 19:38:08.474396 15822 layer_factory.hpp:74] Creating layer inception_4d/relu_5x5_reduce
I1217 19:38:08.474411 15822 net.cpp:84] Creating Layer inception_4d/relu_5x5_reduce
I1217 19:38:08.474421 15822 net.cpp:380] inception_4d/relu_5x5_reduce <- inception_4d/5x5_reduce
I1217 19:38:08.474431 15822 net.cpp:327] inception_4d/relu_5x5_reduce -> inception_4d/5x5_reduce (in-place)
I1217 19:38:08.474441 15822 net.cpp:113] Setting up inception_4d/relu_5x5_reduce
I1217 19:38:08.474532 15822 net.cpp:120] Top shape: 80 32 14 14 (501760)
I1217 19:38:08.474544 15822 layer_factory.hpp:74] Creating layer inception_4d/5x5
I1217 19:38:08.474570 15822 net.cpp:84] Creating Layer inception_4d/5x5
I1217 19:38:08.474589 15822 net.cpp:380] inception_4d/5x5 <- inception_4d/5x5_reduce
I1217 19:38:08.474602 15822 net.cpp:338] inception_4d/5x5 -> inception_4d/5x5
I1217 19:38:08.474616 15822 net.cpp:113] Setting up inception_4d/5x5
I1217 19:38:08.475754 15822 net.cpp:120] Top shape: 80 64 14 14 (1003520)
I1217 19:38:08.475772 15822 layer_factory.hpp:74] Creating layer inception_4d/relu_5x5
I1217 19:38:08.475785 15822 net.cpp:84] Creating Layer inception_4d/relu_5x5
I1217 19:38:08.475793 15822 net.cpp:380] inception_4d/relu_5x5 <- inception_4d/5x5
I1217 19:38:08.475803 15822 net.cpp:327] inception_4d/relu_5x5 -> inception_4d/5x5 (in-place)
I1217 19:38:08.475813 15822 net.cpp:113] Setting up inception_4d/relu_5x5
I1217 19:38:08.475905 15822 net.cpp:120] Top shape: 80 64 14 14 (1003520)
I1217 19:38:08.475916 15822 layer_factory.hpp:74] Creating layer inception_4d/pool
I1217 19:38:08.475924 15822 layer_factory.cpp:56] CUDNN does not support padding or multiple tops. Using Caffe's own pooling layer.
I1217 19:38:08.475932 15822 net.cpp:84] Creating Layer inception_4d/pool
I1217 19:38:08.475940 15822 net.cpp:380] inception_4d/pool <- inception_4c/output_inception_4c/output_0_split_3
I1217 19:38:08.475952 15822 net.cpp:338] inception_4d/pool -> inception_4d/pool
I1217 19:38:08.475963 15822 net.cpp:113] Setting up inception_4d/pool
I1217 19:38:08.475975 15822 net.cpp:120] Top shape: 80 512 14 14 (8028160)
I1217 19:38:08.475982 15822 layer_factory.hpp:74] Creating layer inception_4d/pool_proj
I1217 19:38:08.475993 15822 net.cpp:84] Creating Layer inception_4d/pool_proj
I1217 19:38:08.476001 15822 net.cpp:380] inception_4d/pool_proj <- inception_4d/pool
I1217 19:38:08.476012 15822 net.cpp:338] inception_4d/pool_proj -> inception_4d/pool_proj
I1217 19:38:08.476023 15822 net.cpp:113] Setting up inception_4d/pool_proj
I1217 19:38:08.476934 15822 net.cpp:120] Top shape: 80 64 14 14 (1003520)
I1217 19:38:08.476955 15822 layer_factory.hpp:74] Creating layer inception_4d/relu_pool_proj
I1217 19:38:08.476966 15822 net.cpp:84] Creating Layer inception_4d/relu_pool_proj
I1217 19:38:08.476974 15822 net.cpp:380] inception_4d/relu_pool_proj <- inception_4d/pool_proj
I1217 19:38:08.476984 15822 net.cpp:327] inception_4d/relu_pool_proj -> inception_4d/pool_proj (in-place)
I1217 19:38:08.476995 15822 net.cpp:113] Setting up inception_4d/relu_pool_proj
I1217 19:38:08.477535 15822 net.cpp:120] Top shape: 80 64 14 14 (1003520)
I1217 19:38:08.477550 15822 layer_factory.hpp:74] Creating layer inception_4d/output
I1217 19:38:08.477561 15822 net.cpp:84] Creating Layer inception_4d/output
I1217 19:38:08.477578 15822 net.cpp:380] inception_4d/output <- inception_4d/1x1
I1217 19:38:08.477617 15822 net.cpp:380] inception_4d/output <- inception_4d/3x3
I1217 19:38:08.477632 15822 net.cpp:380] inception_4d/output <- inception_4d/5x5
I1217 19:38:08.477640 15822 net.cpp:380] inception_4d/output <- inception_4d/pool_proj
I1217 19:38:08.477649 15822 net.cpp:338] inception_4d/output -> inception_4d/output
I1217 19:38:08.477660 15822 net.cpp:113] Setting up inception_4d/output
I1217 19:38:08.477672 15822 net.cpp:120] Top shape: 80 528 14 14 (8279040)
I1217 19:38:08.477679 15822 layer_factory.hpp:74] Creating layer inception_4d/output_inception_4d/output_0_split
I1217 19:38:08.477689 15822 net.cpp:84] Creating Layer inception_4d/output_inception_4d/output_0_split
I1217 19:38:08.477696 15822 net.cpp:380] inception_4d/output_inception_4d/output_0_split <- inception_4d/output
I1217 19:38:08.477707 15822 net.cpp:338] inception_4d/output_inception_4d/output_0_split -> inception_4d/output_inception_4d/output_0_split_0
I1217 19:38:08.477720 15822 net.cpp:338] inception_4d/output_inception_4d/output_0_split -> inception_4d/output_inception_4d/output_0_split_1
I1217 19:38:08.477730 15822 net.cpp:338] inception_4d/output_inception_4d/output_0_split -> inception_4d/output_inception_4d/output_0_split_2
I1217 19:38:08.477740 15822 net.cpp:338] inception_4d/output_inception_4d/output_0_split -> inception_4d/output_inception_4d/output_0_split_3
I1217 19:38:08.477764 15822 net.cpp:338] inception_4d/output_inception_4d/output_0_split -> inception_4d/output_inception_4d/output_0_split_4
I1217 19:38:08.477776 15822 net.cpp:113] Setting up inception_4d/output_inception_4d/output_0_split
I1217 19:38:08.477787 15822 net.cpp:120] Top shape: 80 528 14 14 (8279040)
I1217 19:38:08.477793 15822 net.cpp:120] Top shape: 80 528 14 14 (8279040)
I1217 19:38:08.477802 15822 net.cpp:120] Top shape: 80 528 14 14 (8279040)
I1217 19:38:08.477810 15822 net.cpp:120] Top shape: 80 528 14 14 (8279040)
I1217 19:38:08.477818 15822 net.cpp:120] Top shape: 80 528 14 14 (8279040)
I1217 19:38:08.477824 15822 layer_factory.hpp:74] Creating layer loss2/ave_pool
I1217 19:38:08.477838 15822 net.cpp:84] Creating Layer loss2/ave_pool
I1217 19:38:08.477844 15822 net.cpp:380] loss2/ave_pool <- inception_4d/output_inception_4d/output_0_split_0
I1217 19:38:08.477854 15822 net.cpp:338] loss2/ave_pool -> loss2/ave_pool
I1217 19:38:08.477864 15822 net.cpp:113] Setting up loss2/ave_pool
I1217 19:38:08.477965 15822 net.cpp:120] Top shape: 80 528 4 4 (675840)
I1217 19:38:08.477974 15822 layer_factory.hpp:74] Creating layer loss2/conv
I1217 19:38:08.477989 15822 net.cpp:84] Creating Layer loss2/conv
I1217 19:38:08.477998 15822 net.cpp:380] loss2/conv <- loss2/ave_pool
I1217 19:38:08.478009 15822 net.cpp:338] loss2/conv -> loss2/conv
I1217 19:38:08.478020 15822 net.cpp:113] Setting up loss2/conv
I1217 19:38:08.479369 15822 net.cpp:120] Top shape: 80 128 4 4 (163840)
I1217 19:38:08.479389 15822 layer_factory.hpp:74] Creating layer loss2/relu_conv
I1217 19:38:08.479399 15822 net.cpp:84] Creating Layer loss2/relu_conv
I1217 19:38:08.479408 15822 net.cpp:380] loss2/relu_conv <- loss2/conv
I1217 19:38:08.479419 15822 net.cpp:327] loss2/relu_conv -> loss2/conv (in-place)
I1217 19:38:08.479429 15822 net.cpp:113] Setting up loss2/relu_conv
I1217 19:38:08.479521 15822 net.cpp:120] Top shape: 80 128 4 4 (163840)
I1217 19:38:08.479531 15822 layer_factory.hpp:74] Creating layer loss2/fc
I1217 19:38:08.479542 15822 net.cpp:84] Creating Layer loss2/fc
I1217 19:38:08.479549 15822 net.cpp:380] loss2/fc <- loss2/conv
I1217 19:38:08.479562 15822 net.cpp:338] loss2/fc -> loss2/fc
I1217 19:38:08.479573 15822 net.cpp:113] Setting up loss2/fc
I1217 19:38:08.524250 15822 net.cpp:120] Top shape: 80 1024 (81920)
I1217 19:38:08.524305 15822 layer_factory.hpp:74] Creating layer loss2/relu_fc
I1217 19:38:08.524323 15822 net.cpp:84] Creating Layer loss2/relu_fc
I1217 19:38:08.524335 15822 net.cpp:380] loss2/relu_fc <- loss2/fc
I1217 19:38:08.524348 15822 net.cpp:327] loss2/relu_fc -> loss2/fc (in-place)
I1217 19:38:08.524361 15822 net.cpp:113] Setting up loss2/relu_fc
I1217 19:38:08.524844 15822 net.cpp:120] Top shape: 80 1024 (81920)
I1217 19:38:08.524862 15822 layer_factory.hpp:74] Creating layer loss2/drop_fc
I1217 19:38:08.524895 15822 net.cpp:84] Creating Layer loss2/drop_fc
I1217 19:38:08.524906 15822 net.cpp:380] loss2/drop_fc <- loss2/fc
I1217 19:38:08.524919 15822 net.cpp:327] loss2/drop_fc -> loss2/fc (in-place)
I1217 19:38:08.524930 15822 net.cpp:113] Setting up loss2/drop_fc
I1217 19:38:08.524942 15822 net.cpp:120] Top shape: 80 1024 (81920)
I1217 19:38:08.524960 15822 layer_factory.hpp:74] Creating layer loss2/classifier_kaggle
I1217 19:38:08.524976 15822 net.cpp:84] Creating Layer loss2/classifier_kaggle
I1217 19:38:08.524984 15822 net.cpp:380] loss2/classifier_kaggle <- loss2/fc
I1217 19:38:08.524996 15822 net.cpp:338] loss2/classifier_kaggle -> loss2/classifier_kaggle
I1217 19:38:08.525010 15822 net.cpp:113] Setting up loss2/classifier_kaggle
I1217 19:38:08.530977 15822 net.cpp:120] Top shape: 80 447 (35760)
I1217 19:38:08.530998 15822 layer_factory.hpp:74] Creating layer loss2/loss
I1217 19:38:08.531010 15822 net.cpp:84] Creating Layer loss2/loss
I1217 19:38:08.531018 15822 net.cpp:380] loss2/loss <- loss2/classifier_kaggle
I1217 19:38:08.531028 15822 net.cpp:380] loss2/loss <- label_data_1_split_1
I1217 19:38:08.531041 15822 net.cpp:338] loss2/loss -> loss2/loss1
I1217 19:38:08.531069 15822 net.cpp:113] Setting up loss2/loss
I1217 19:38:08.531093 15822 layer_factory.hpp:74] Creating layer loss2/loss
I1217 19:38:08.531337 15822 net.cpp:120] Top shape: (1)
I1217 19:38:08.531348 15822 net.cpp:122]     with loss weight 0.3
I1217 19:38:08.531380 15822 layer_factory.hpp:74] Creating layer inception_4e/1x1
I1217 19:38:08.531405 15822 net.cpp:84] Creating Layer inception_4e/1x1
I1217 19:38:08.531415 15822 net.cpp:380] inception_4e/1x1 <- inception_4d/output_inception_4d/output_0_split_1
I1217 19:38:08.531426 15822 net.cpp:338] inception_4e/1x1 -> inception_4e/1x1
I1217 19:38:08.531440 15822 net.cpp:113] Setting up inception_4e/1x1
I1217 19:38:08.534937 15822 net.cpp:120] Top shape: 80 256 14 14 (4014080)
I1217 19:38:08.534960 15822 layer_factory.hpp:74] Creating layer inception_4e/relu_1x1
I1217 19:38:08.534984 15822 net.cpp:84] Creating Layer inception_4e/relu_1x1
I1217 19:38:08.534994 15822 net.cpp:380] inception_4e/relu_1x1 <- inception_4e/1x1
I1217 19:38:08.535004 15822 net.cpp:327] inception_4e/relu_1x1 -> inception_4e/1x1 (in-place)
I1217 19:38:08.535015 15822 net.cpp:113] Setting up inception_4e/relu_1x1
I1217 19:38:08.535117 15822 net.cpp:120] Top shape: 80 256 14 14 (4014080)
I1217 19:38:08.535136 15822 layer_factory.hpp:74] Creating layer inception_4e/3x3_reduce
I1217 19:38:08.535152 15822 net.cpp:84] Creating Layer inception_4e/3x3_reduce
I1217 19:38:08.535161 15822 net.cpp:380] inception_4e/3x3_reduce <- inception_4d/output_inception_4d/output_0_split_2
I1217 19:38:08.535171 15822 net.cpp:338] inception_4e/3x3_reduce -> inception_4e/3x3_reduce
I1217 19:38:08.535184 15822 net.cpp:113] Setting up inception_4e/3x3_reduce
I1217 19:38:08.536818 15822 net.cpp:120] Top shape: 80 160 14 14 (2508800)
I1217 19:38:08.536839 15822 layer_factory.hpp:74] Creating layer inception_4e/relu_3x3_reduce
I1217 19:38:08.536850 15822 net.cpp:84] Creating Layer inception_4e/relu_3x3_reduce
I1217 19:38:08.536859 15822 net.cpp:380] inception_4e/relu_3x3_reduce <- inception_4e/3x3_reduce
I1217 19:38:08.536871 15822 net.cpp:327] inception_4e/relu_3x3_reduce -> inception_4e/3x3_reduce (in-place)
I1217 19:38:08.536882 15822 net.cpp:113] Setting up inception_4e/relu_3x3_reduce
I1217 19:38:08.536983 15822 net.cpp:120] Top shape: 80 160 14 14 (2508800)
I1217 19:38:08.536991 15822 layer_factory.hpp:74] Creating layer inception_4e/3x3
I1217 19:38:08.537003 15822 net.cpp:84] Creating Layer inception_4e/3x3
I1217 19:38:08.537011 15822 net.cpp:380] inception_4e/3x3 <- inception_4e/3x3_reduce
I1217 19:38:08.537024 15822 net.cpp:338] inception_4e/3x3 -> inception_4e/3x3
I1217 19:38:08.537036 15822 net.cpp:113] Setting up inception_4e/3x3
I1217 19:38:08.544009 15822 net.cpp:120] Top shape: 80 320 14 14 (5017600)
I1217 19:38:08.544034 15822 layer_factory.hpp:74] Creating layer inception_4e/relu_3x3
I1217 19:38:08.544683 15822 net.cpp:84] Creating Layer inception_4e/relu_3x3
I1217 19:38:08.544693 15822 net.cpp:380] inception_4e/relu_3x3 <- inception_4e/3x3
I1217 19:38:08.544708 15822 net.cpp:327] inception_4e/relu_3x3 -> inception_4e/3x3 (in-place)
I1217 19:38:08.544719 15822 net.cpp:113] Setting up inception_4e/relu_3x3
I1217 19:38:08.545042 15822 net.cpp:120] Top shape: 80 320 14 14 (5017600)
I1217 19:38:08.545070 15822 layer_factory.hpp:74] Creating layer inception_4e/5x5_reduce
I1217 19:38:08.545089 15822 net.cpp:84] Creating Layer inception_4e/5x5_reduce
I1217 19:38:08.545097 15822 net.cpp:380] inception_4e/5x5_reduce <- inception_4d/output_inception_4d/output_0_split_3
I1217 19:38:08.545109 15822 net.cpp:338] inception_4e/5x5_reduce -> inception_4e/5x5_reduce
I1217 19:38:08.545121 15822 net.cpp:113] Setting up inception_4e/5x5_reduce
I1217 19:38:08.545969 15822 net.cpp:120] Top shape: 80 32 14 14 (501760)
I1217 19:38:08.546000 15822 layer_factory.hpp:74] Creating layer inception_4e/relu_5x5_reduce
I1217 19:38:08.546013 15822 net.cpp:84] Creating Layer inception_4e/relu_5x5_reduce
I1217 19:38:08.546022 15822 net.cpp:380] inception_4e/relu_5x5_reduce <- inception_4e/5x5_reduce
I1217 19:38:08.546033 15822 net.cpp:327] inception_4e/relu_5x5_reduce -> inception_4e/5x5_reduce (in-place)
I1217 19:38:08.546066 15822 net.cpp:113] Setting up inception_4e/relu_5x5_reduce
I1217 19:38:08.546171 15822 net.cpp:120] Top shape: 80 32 14 14 (501760)
I1217 19:38:08.546182 15822 layer_factory.hpp:74] Creating layer inception_4e/5x5
I1217 19:38:08.546241 15822 net.cpp:84] Creating Layer inception_4e/5x5
I1217 19:38:08.546253 15822 net.cpp:380] inception_4e/5x5 <- inception_4e/5x5_reduce
I1217 19:38:08.546267 15822 net.cpp:338] inception_4e/5x5 -> inception_4e/5x5
I1217 19:38:08.546278 15822 net.cpp:113] Setting up inception_4e/5x5
I1217 19:38:08.548136 15822 net.cpp:120] Top shape: 80 128 14 14 (2007040)
I1217 19:38:08.548158 15822 layer_factory.hpp:74] Creating layer inception_4e/relu_5x5
I1217 19:38:08.548173 15822 net.cpp:84] Creating Layer inception_4e/relu_5x5
I1217 19:38:08.548182 15822 net.cpp:380] inception_4e/relu_5x5 <- inception_4e/5x5
I1217 19:38:08.548190 15822 net.cpp:327] inception_4e/relu_5x5 -> inception_4e/5x5 (in-place)
I1217 19:38:08.548202 15822 net.cpp:113] Setting up inception_4e/relu_5x5
I1217 19:38:08.548301 15822 net.cpp:120] Top shape: 80 128 14 14 (2007040)
I1217 19:38:08.548313 15822 layer_factory.hpp:74] Creating layer inception_4e/pool
I1217 19:38:08.548323 15822 layer_factory.cpp:56] CUDNN does not support padding or multiple tops. Using Caffe's own pooling layer.
I1217 19:38:08.548332 15822 net.cpp:84] Creating Layer inception_4e/pool
I1217 19:38:08.548341 15822 net.cpp:380] inception_4e/pool <- inception_4d/output_inception_4d/output_0_split_4
I1217 19:38:08.548352 15822 net.cpp:338] inception_4e/pool -> inception_4e/pool
I1217 19:38:08.548363 15822 net.cpp:113] Setting up inception_4e/pool
I1217 19:38:08.548377 15822 net.cpp:120] Top shape: 80 528 14 14 (8279040)
I1217 19:38:08.548384 15822 layer_factory.hpp:74] Creating layer inception_4e/pool_proj
I1217 19:38:08.548408 15822 net.cpp:84] Creating Layer inception_4e/pool_proj
I1217 19:38:08.548415 15822 net.cpp:380] inception_4e/pool_proj <- inception_4e/pool
I1217 19:38:08.548429 15822 net.cpp:338] inception_4e/pool_proj -> inception_4e/pool_proj
I1217 19:38:08.548440 15822 net.cpp:113] Setting up inception_4e/pool_proj
I1217 19:38:08.550462 15822 net.cpp:120] Top shape: 80 128 14 14 (2007040)
I1217 19:38:08.550485 15822 layer_factory.hpp:74] Creating layer inception_4e/relu_pool_proj
I1217 19:38:08.550508 15822 net.cpp:84] Creating Layer inception_4e/relu_pool_proj
I1217 19:38:08.550518 15822 net.cpp:380] inception_4e/relu_pool_proj <- inception_4e/pool_proj
I1217 19:38:08.550529 15822 net.cpp:327] inception_4e/relu_pool_proj -> inception_4e/pool_proj (in-place)
I1217 19:38:08.550539 15822 net.cpp:113] Setting up inception_4e/relu_pool_proj
I1217 19:38:08.550637 15822 net.cpp:120] Top shape: 80 128 14 14 (2007040)
I1217 19:38:08.550647 15822 layer_factory.hpp:74] Creating layer inception_4e/output
I1217 19:38:08.550657 15822 net.cpp:84] Creating Layer inception_4e/output
I1217 19:38:08.550662 15822 net.cpp:380] inception_4e/output <- inception_4e/1x1
I1217 19:38:08.550670 15822 net.cpp:380] inception_4e/output <- inception_4e/3x3
I1217 19:38:08.550678 15822 net.cpp:380] inception_4e/output <- inception_4e/5x5
I1217 19:38:08.550684 15822 net.cpp:380] inception_4e/output <- inception_4e/pool_proj
I1217 19:38:08.550694 15822 net.cpp:338] inception_4e/output -> inception_4e/output
I1217 19:38:08.550704 15822 net.cpp:113] Setting up inception_4e/output
I1217 19:38:08.550715 15822 net.cpp:120] Top shape: 80 832 14 14 (13045760)
I1217 19:38:08.550722 15822 layer_factory.hpp:74] Creating layer pool4/3x3_s2
I1217 19:38:08.550745 15822 net.cpp:84] Creating Layer pool4/3x3_s2
I1217 19:38:08.550752 15822 net.cpp:380] pool4/3x3_s2 <- inception_4e/output
I1217 19:38:08.550761 15822 net.cpp:338] pool4/3x3_s2 -> pool4/3x3_s2
I1217 19:38:08.550772 15822 net.cpp:113] Setting up pool4/3x3_s2
I1217 19:38:08.551074 15822 net.cpp:120] Top shape: 80 832 7 7 (3261440)
I1217 19:38:08.551086 15822 layer_factory.hpp:74] Creating layer pool4/3x3_s2_pool4/3x3_s2_0_split
I1217 19:38:08.551097 15822 net.cpp:84] Creating Layer pool4/3x3_s2_pool4/3x3_s2_0_split
I1217 19:38:08.551120 15822 net.cpp:380] pool4/3x3_s2_pool4/3x3_s2_0_split <- pool4/3x3_s2
I1217 19:38:08.551132 15822 net.cpp:338] pool4/3x3_s2_pool4/3x3_s2_0_split -> pool4/3x3_s2_pool4/3x3_s2_0_split_0
I1217 19:38:08.551142 15822 net.cpp:338] pool4/3x3_s2_pool4/3x3_s2_0_split -> pool4/3x3_s2_pool4/3x3_s2_0_split_1
I1217 19:38:08.551152 15822 net.cpp:338] pool4/3x3_s2_pool4/3x3_s2_0_split -> pool4/3x3_s2_pool4/3x3_s2_0_split_2
I1217 19:38:08.551162 15822 net.cpp:338] pool4/3x3_s2_pool4/3x3_s2_0_split -> pool4/3x3_s2_pool4/3x3_s2_0_split_3
I1217 19:38:08.551170 15822 net.cpp:113] Setting up pool4/3x3_s2_pool4/3x3_s2_0_split
I1217 19:38:08.551182 15822 net.cpp:120] Top shape: 80 832 7 7 (3261440)
I1217 19:38:08.551189 15822 net.cpp:120] Top shape: 80 832 7 7 (3261440)
I1217 19:38:08.551198 15822 net.cpp:120] Top shape: 80 832 7 7 (3261440)
I1217 19:38:08.551205 15822 net.cpp:120] Top shape: 80 832 7 7 (3261440)
I1217 19:38:08.551223 15822 layer_factory.hpp:74] Creating layer inception_5a/1x1
I1217 19:38:08.551237 15822 net.cpp:84] Creating Layer inception_5a/1x1
I1217 19:38:08.551245 15822 net.cpp:380] inception_5a/1x1 <- pool4/3x3_s2_pool4/3x3_s2_0_split_0
I1217 19:38:08.551257 15822 net.cpp:338] inception_5a/1x1 -> inception_5a/1x1
I1217 19:38:08.551268 15822 net.cpp:113] Setting up inception_5a/1x1
I1217 19:38:08.554777 15822 net.cpp:120] Top shape: 80 256 7 7 (1003520)
I1217 19:38:08.554800 15822 layer_factory.hpp:74] Creating layer inception_5a/relu_1x1
I1217 19:38:08.554813 15822 net.cpp:84] Creating Layer inception_5a/relu_1x1
I1217 19:38:08.554821 15822 net.cpp:380] inception_5a/relu_1x1 <- inception_5a/1x1
I1217 19:38:08.554831 15822 net.cpp:327] inception_5a/relu_1x1 -> inception_5a/1x1 (in-place)
I1217 19:38:08.554841 15822 net.cpp:113] Setting up inception_5a/relu_1x1
I1217 19:38:08.554939 15822 net.cpp:120] Top shape: 80 256 7 7 (1003520)
I1217 19:38:08.554949 15822 layer_factory.hpp:74] Creating layer inception_5a/3x3_reduce
I1217 19:38:08.554980 15822 net.cpp:84] Creating Layer inception_5a/3x3_reduce
I1217 19:38:08.554991 15822 net.cpp:380] inception_5a/3x3_reduce <- pool4/3x3_s2_pool4/3x3_s2_0_split_1
I1217 19:38:08.555006 15822 net.cpp:338] inception_5a/3x3_reduce -> inception_5a/3x3_reduce
I1217 19:38:08.555018 15822 net.cpp:113] Setting up inception_5a/3x3_reduce
I1217 19:38:08.557301 15822 net.cpp:120] Top shape: 80 160 7 7 (627200)
I1217 19:38:08.557323 15822 layer_factory.hpp:74] Creating layer inception_5a/relu_3x3_reduce
I1217 19:38:08.557346 15822 net.cpp:84] Creating Layer inception_5a/relu_3x3_reduce
I1217 19:38:08.557355 15822 net.cpp:380] inception_5a/relu_3x3_reduce <- inception_5a/3x3_reduce
I1217 19:38:08.557368 15822 net.cpp:327] inception_5a/relu_3x3_reduce -> inception_5a/3x3_reduce (in-place)
I1217 19:38:08.557379 15822 net.cpp:113] Setting up inception_5a/relu_3x3_reduce
I1217 19:38:08.557487 15822 net.cpp:120] Top shape: 80 160 7 7 (627200)
I1217 19:38:08.557504 15822 layer_factory.hpp:74] Creating layer inception_5a/3x3
I1217 19:38:08.557518 15822 net.cpp:84] Creating Layer inception_5a/3x3
I1217 19:38:08.557525 15822 net.cpp:380] inception_5a/3x3 <- inception_5a/3x3_reduce
I1217 19:38:08.557538 15822 net.cpp:338] inception_5a/3x3 -> inception_5a/3x3
I1217 19:38:08.557550 15822 net.cpp:113] Setting up inception_5a/3x3
I1217 19:38:08.564332 15822 net.cpp:120] Top shape: 80 320 7 7 (1254400)
I1217 19:38:08.564366 15822 layer_factory.hpp:74] Creating layer inception_5a/relu_3x3
I1217 19:38:08.564381 15822 net.cpp:84] Creating Layer inception_5a/relu_3x3
I1217 19:38:08.564391 15822 net.cpp:380] inception_5a/relu_3x3 <- inception_5a/3x3
I1217 19:38:08.564402 15822 net.cpp:327] inception_5a/relu_3x3 -> inception_5a/3x3 (in-place)
I1217 19:38:08.564414 15822 net.cpp:113] Setting up inception_5a/relu_3x3
I1217 19:38:08.564517 15822 net.cpp:120] Top shape: 80 320 7 7 (1254400)
I1217 19:38:08.564527 15822 layer_factory.hpp:74] Creating layer inception_5a/5x5_reduce
I1217 19:38:08.564553 15822 net.cpp:84] Creating Layer inception_5a/5x5_reduce
I1217 19:38:08.564576 15822 net.cpp:380] inception_5a/5x5_reduce <- pool4/3x3_s2_pool4/3x3_s2_0_split_2
I1217 19:38:08.564602 15822 net.cpp:338] inception_5a/5x5_reduce -> inception_5a/5x5_reduce
I1217 19:38:08.564616 15822 net.cpp:113] Setting up inception_5a/5x5_reduce
I1217 19:38:08.565510 15822 net.cpp:120] Top shape: 80 32 7 7 (125440)
I1217 19:38:08.565534 15822 layer_factory.hpp:74] Creating layer inception_5a/relu_5x5_reduce
I1217 19:38:08.565546 15822 net.cpp:84] Creating Layer inception_5a/relu_5x5_reduce
I1217 19:38:08.565554 15822 net.cpp:380] inception_5a/relu_5x5_reduce <- inception_5a/5x5_reduce
I1217 19:38:08.565564 15822 net.cpp:327] inception_5a/relu_5x5_reduce -> inception_5a/5x5_reduce (in-place)
I1217 19:38:08.565574 15822 net.cpp:113] Setting up inception_5a/relu_5x5_reduce
I1217 19:38:08.565887 15822 net.cpp:120] Top shape: 80 32 7 7 (125440)
I1217 19:38:08.565902 15822 layer_factory.hpp:74] Creating layer inception_5a/5x5
I1217 19:38:08.565927 15822 net.cpp:84] Creating Layer inception_5a/5x5
I1217 19:38:08.565937 15822 net.cpp:380] inception_5a/5x5 <- inception_5a/5x5_reduce
I1217 19:38:08.565949 15822 net.cpp:338] inception_5a/5x5 -> inception_5a/5x5
I1217 19:38:08.565964 15822 net.cpp:113] Setting up inception_5a/5x5
I1217 19:38:08.567867 15822 net.cpp:120] Top shape: 80 128 7 7 (501760)
I1217 19:38:08.567889 15822 layer_factory.hpp:74] Creating layer inception_5a/relu_5x5
I1217 19:38:08.567911 15822 net.cpp:84] Creating Layer inception_5a/relu_5x5
I1217 19:38:08.567920 15822 net.cpp:380] inception_5a/relu_5x5 <- inception_5a/5x5
I1217 19:38:08.567930 15822 net.cpp:327] inception_5a/relu_5x5 -> inception_5a/5x5 (in-place)
I1217 19:38:08.567940 15822 net.cpp:113] Setting up inception_5a/relu_5x5
I1217 19:38:08.568058 15822 net.cpp:120] Top shape: 80 128 7 7 (501760)
I1217 19:38:08.568068 15822 layer_factory.hpp:74] Creating layer inception_5a/pool
I1217 19:38:08.568076 15822 layer_factory.cpp:56] CUDNN does not support padding or multiple tops. Using Caffe's own pooling layer.
I1217 19:38:08.568086 15822 net.cpp:84] Creating Layer inception_5a/pool
I1217 19:38:08.568094 15822 net.cpp:380] inception_5a/pool <- pool4/3x3_s2_pool4/3x3_s2_0_split_3
I1217 19:38:08.568104 15822 net.cpp:338] inception_5a/pool -> inception_5a/pool
I1217 19:38:08.568116 15822 net.cpp:113] Setting up inception_5a/pool
I1217 19:38:08.568130 15822 net.cpp:120] Top shape: 80 832 7 7 (3261440)
I1217 19:38:08.568137 15822 layer_factory.hpp:74] Creating layer inception_5a/pool_proj
I1217 19:38:08.568150 15822 net.cpp:84] Creating Layer inception_5a/pool_proj
I1217 19:38:08.568158 15822 net.cpp:380] inception_5a/pool_proj <- inception_5a/pool
I1217 19:38:08.568176 15822 net.cpp:338] inception_5a/pool_proj -> inception_5a/pool_proj
I1217 19:38:08.568189 15822 net.cpp:113] Setting up inception_5a/pool_proj
I1217 19:38:08.570112 15822 net.cpp:120] Top shape: 80 128 7 7 (501760)
I1217 19:38:08.570135 15822 layer_factory.hpp:74] Creating layer inception_5a/relu_pool_proj
I1217 19:38:08.570147 15822 net.cpp:84] Creating Layer inception_5a/relu_pool_proj
I1217 19:38:08.570155 15822 net.cpp:380] inception_5a/relu_pool_proj <- inception_5a/pool_proj
I1217 19:38:08.570168 15822 net.cpp:327] inception_5a/relu_pool_proj -> inception_5a/pool_proj (in-place)
I1217 19:38:08.570179 15822 net.cpp:113] Setting up inception_5a/relu_pool_proj
I1217 19:38:08.570276 15822 net.cpp:120] Top shape: 80 128 7 7 (501760)
I1217 19:38:08.570297 15822 layer_factory.hpp:74] Creating layer inception_5a/output
I1217 19:38:08.570318 15822 net.cpp:84] Creating Layer inception_5a/output
I1217 19:38:08.570327 15822 net.cpp:380] inception_5a/output <- inception_5a/1x1
I1217 19:38:08.570336 15822 net.cpp:380] inception_5a/output <- inception_5a/3x3
I1217 19:38:08.570344 15822 net.cpp:380] inception_5a/output <- inception_5a/5x5
I1217 19:38:08.570353 15822 net.cpp:380] inception_5a/output <- inception_5a/pool_proj
I1217 19:38:08.570363 15822 net.cpp:338] inception_5a/output -> inception_5a/output
I1217 19:38:08.570374 15822 net.cpp:113] Setting up inception_5a/output
I1217 19:38:08.570399 15822 net.cpp:120] Top shape: 80 832 7 7 (3261440)
I1217 19:38:08.570423 15822 layer_factory.hpp:74] Creating layer inception_5a/output_inception_5a/output_0_split
I1217 19:38:08.570435 15822 net.cpp:84] Creating Layer inception_5a/output_inception_5a/output_0_split
I1217 19:38:08.570441 15822 net.cpp:380] inception_5a/output_inception_5a/output_0_split <- inception_5a/output
I1217 19:38:08.570451 15822 net.cpp:338] inception_5a/output_inception_5a/output_0_split -> inception_5a/output_inception_5a/output_0_split_0
I1217 19:38:08.570464 15822 net.cpp:338] inception_5a/output_inception_5a/output_0_split -> inception_5a/output_inception_5a/output_0_split_1
I1217 19:38:08.570475 15822 net.cpp:338] inception_5a/output_inception_5a/output_0_split -> inception_5a/output_inception_5a/output_0_split_2
I1217 19:38:08.570487 15822 net.cpp:338] inception_5a/output_inception_5a/output_0_split -> inception_5a/output_inception_5a/output_0_split_3
I1217 19:38:08.570494 15822 net.cpp:113] Setting up inception_5a/output_inception_5a/output_0_split
I1217 19:38:08.570507 15822 net.cpp:120] Top shape: 80 832 7 7 (3261440)
I1217 19:38:08.570515 15822 net.cpp:120] Top shape: 80 832 7 7 (3261440)
I1217 19:38:08.570523 15822 net.cpp:120] Top shape: 80 832 7 7 (3261440)
I1217 19:38:08.570531 15822 net.cpp:120] Top shape: 80 832 7 7 (3261440)
I1217 19:38:08.570538 15822 layer_factory.hpp:74] Creating layer inception_5b/1x1
I1217 19:38:08.570551 15822 net.cpp:84] Creating Layer inception_5b/1x1
I1217 19:38:08.570559 15822 net.cpp:380] inception_5b/1x1 <- inception_5a/output_inception_5a/output_0_split_0
I1217 19:38:08.570569 15822 net.cpp:338] inception_5b/1x1 -> inception_5b/1x1
I1217 19:38:08.570583 15822 net.cpp:113] Setting up inception_5b/1x1
I1217 19:38:08.575448 15822 net.cpp:120] Top shape: 80 384 7 7 (1505280)
I1217 19:38:08.575479 15822 layer_factory.hpp:74] Creating layer inception_5b/relu_1x1
I1217 19:38:08.575492 15822 net.cpp:84] Creating Layer inception_5b/relu_1x1
I1217 19:38:08.575501 15822 net.cpp:380] inception_5b/relu_1x1 <- inception_5b/1x1
I1217 19:38:08.575511 15822 net.cpp:327] inception_5b/relu_1x1 -> inception_5b/1x1 (in-place)
I1217 19:38:08.575522 15822 net.cpp:113] Setting up inception_5b/relu_1x1
I1217 19:38:08.575825 15822 net.cpp:120] Top shape: 80 384 7 7 (1505280)
I1217 19:38:08.575839 15822 layer_factory.hpp:74] Creating layer inception_5b/3x3_reduce
I1217 19:38:08.575870 15822 net.cpp:84] Creating Layer inception_5b/3x3_reduce
I1217 19:38:08.575881 15822 net.cpp:380] inception_5b/3x3_reduce <- inception_5a/output_inception_5a/output_0_split_1
I1217 19:38:08.575892 15822 net.cpp:338] inception_5b/3x3_reduce -> inception_5b/3x3_reduce
I1217 19:38:08.575906 15822 net.cpp:113] Setting up inception_5b/3x3_reduce
I1217 19:38:08.578455 15822 net.cpp:120] Top shape: 80 192 7 7 (752640)
I1217 19:38:08.578481 15822 layer_factory.hpp:74] Creating layer inception_5b/relu_3x3_reduce
I1217 19:38:08.578492 15822 net.cpp:84] Creating Layer inception_5b/relu_3x3_reduce
I1217 19:38:08.578501 15822 net.cpp:380] inception_5b/relu_3x3_reduce <- inception_5b/3x3_reduce
I1217 19:38:08.578513 15822 net.cpp:327] inception_5b/relu_3x3_reduce -> inception_5b/3x3_reduce (in-place)
I1217 19:38:08.578526 15822 net.cpp:113] Setting up inception_5b/relu_3x3_reduce
I1217 19:38:08.578629 15822 net.cpp:120] Top shape: 80 192 7 7 (752640)
I1217 19:38:08.578639 15822 layer_factory.hpp:74] Creating layer inception_5b/3x3
I1217 19:38:08.578651 15822 net.cpp:84] Creating Layer inception_5b/3x3
I1217 19:38:08.578660 15822 net.cpp:380] inception_5b/3x3 <- inception_5b/3x3_reduce
I1217 19:38:08.578672 15822 net.cpp:338] inception_5b/3x3 -> inception_5b/3x3
I1217 19:38:08.578714 15822 net.cpp:113] Setting up inception_5b/3x3
I1217 19:38:08.586989 15822 net.cpp:120] Top shape: 80 384 7 7 (1505280)
I1217 19:38:08.587028 15822 layer_factory.hpp:74] Creating layer inception_5b/relu_3x3
I1217 19:38:08.587056 15822 net.cpp:84] Creating Layer inception_5b/relu_3x3
I1217 19:38:08.587069 15822 net.cpp:380] inception_5b/relu_3x3 <- inception_5b/3x3
I1217 19:38:08.587095 15822 net.cpp:327] inception_5b/relu_3x3 -> inception_5b/3x3 (in-place)
I1217 19:38:08.587121 15822 net.cpp:113] Setting up inception_5b/relu_3x3
I1217 19:38:08.587225 15822 net.cpp:120] Top shape: 80 384 7 7 (1505280)
I1217 19:38:08.587235 15822 layer_factory.hpp:74] Creating layer inception_5b/5x5_reduce
I1217 19:38:08.587251 15822 net.cpp:84] Creating Layer inception_5b/5x5_reduce
I1217 19:38:08.587260 15822 net.cpp:380] inception_5b/5x5_reduce <- inception_5a/output_inception_5a/output_0_split_2
I1217 19:38:08.587273 15822 net.cpp:338] inception_5b/5x5_reduce -> inception_5b/5x5_reduce
I1217 19:38:08.587285 15822 net.cpp:113] Setting up inception_5b/5x5_reduce
I1217 19:38:08.588310 15822 net.cpp:120] Top shape: 80 48 7 7 (188160)
I1217 19:38:08.588331 15822 layer_factory.hpp:74] Creating layer inception_5b/relu_5x5_reduce
I1217 19:38:08.588341 15822 net.cpp:84] Creating Layer inception_5b/relu_5x5_reduce
I1217 19:38:08.588349 15822 net.cpp:380] inception_5b/relu_5x5_reduce <- inception_5b/5x5_reduce
I1217 19:38:08.588362 15822 net.cpp:327] inception_5b/relu_5x5_reduce -> inception_5b/5x5_reduce (in-place)
I1217 19:38:08.588373 15822 net.cpp:113] Setting up inception_5b/relu_5x5_reduce
I1217 19:38:08.588470 15822 net.cpp:120] Top shape: 80 48 7 7 (188160)
I1217 19:38:08.588479 15822 layer_factory.hpp:74] Creating layer inception_5b/5x5
I1217 19:38:08.588492 15822 net.cpp:84] Creating Layer inception_5b/5x5
I1217 19:38:08.588500 15822 net.cpp:380] inception_5b/5x5 <- inception_5b/5x5_reduce
I1217 19:38:08.588512 15822 net.cpp:338] inception_5b/5x5 -> inception_5b/5x5
I1217 19:38:08.588524 15822 net.cpp:113] Setting up inception_5b/5x5
I1217 19:38:08.590950 15822 net.cpp:120] Top shape: 80 128 7 7 (501760)
I1217 19:38:08.590971 15822 layer_factory.hpp:74] Creating layer inception_5b/relu_5x5
I1217 19:38:08.590992 15822 net.cpp:84] Creating Layer inception_5b/relu_5x5
I1217 19:38:08.591001 15822 net.cpp:380] inception_5b/relu_5x5 <- inception_5b/5x5
I1217 19:38:08.591012 15822 net.cpp:327] inception_5b/relu_5x5 -> inception_5b/5x5 (in-place)
I1217 19:38:08.591022 15822 net.cpp:113] Setting up inception_5b/relu_5x5
I1217 19:38:08.591327 15822 net.cpp:120] Top shape: 80 128 7 7 (501760)
I1217 19:38:08.591341 15822 layer_factory.hpp:74] Creating layer inception_5b/pool
I1217 19:38:08.591351 15822 layer_factory.cpp:56] CUDNN does not support padding or multiple tops. Using Caffe's own pooling layer.
I1217 19:38:08.591361 15822 net.cpp:84] Creating Layer inception_5b/pool
I1217 19:38:08.591368 15822 net.cpp:380] inception_5b/pool <- inception_5a/output_inception_5a/output_0_split_3
I1217 19:38:08.591380 15822 net.cpp:338] inception_5b/pool -> inception_5b/pool
I1217 19:38:08.591392 15822 net.cpp:113] Setting up inception_5b/pool
I1217 19:38:08.591406 15822 net.cpp:120] Top shape: 80 832 7 7 (3261440)
I1217 19:38:08.591413 15822 layer_factory.hpp:74] Creating layer inception_5b/pool_proj
I1217 19:38:08.591428 15822 net.cpp:84] Creating Layer inception_5b/pool_proj
I1217 19:38:08.591434 15822 net.cpp:380] inception_5b/pool_proj <- inception_5b/pool
I1217 19:38:08.591444 15822 net.cpp:338] inception_5b/pool_proj -> inception_5b/pool_proj
I1217 19:38:08.591456 15822 net.cpp:113] Setting up inception_5b/pool_proj
I1217 19:38:08.593303 15822 net.cpp:120] Top shape: 80 128 7 7 (501760)
I1217 19:38:08.593324 15822 layer_factory.hpp:74] Creating layer inception_5b/relu_pool_proj
I1217 19:38:08.593349 15822 net.cpp:84] Creating Layer inception_5b/relu_pool_proj
I1217 19:38:08.593358 15822 net.cpp:380] inception_5b/relu_pool_proj <- inception_5b/pool_proj
I1217 19:38:08.593368 15822 net.cpp:327] inception_5b/relu_pool_proj -> inception_5b/pool_proj (in-place)
I1217 19:38:08.593379 15822 net.cpp:113] Setting up inception_5b/relu_pool_proj
I1217 19:38:08.593473 15822 net.cpp:120] Top shape: 80 128 7 7 (501760)
I1217 19:38:08.593482 15822 layer_factory.hpp:74] Creating layer inception_5b/output
I1217 19:38:08.593497 15822 net.cpp:84] Creating Layer inception_5b/output
I1217 19:38:08.593504 15822 net.cpp:380] inception_5b/output <- inception_5b/1x1
I1217 19:38:08.593528 15822 net.cpp:380] inception_5b/output <- inception_5b/3x3
I1217 19:38:08.593536 15822 net.cpp:380] inception_5b/output <- inception_5b/5x5
I1217 19:38:08.593544 15822 net.cpp:380] inception_5b/output <- inception_5b/pool_proj
I1217 19:38:08.593552 15822 net.cpp:338] inception_5b/output -> inception_5b/output
I1217 19:38:08.593564 15822 net.cpp:113] Setting up inception_5b/output
I1217 19:38:08.593575 15822 net.cpp:120] Top shape: 80 1024 7 7 (4014080)
I1217 19:38:08.593585 15822 layer_factory.hpp:74] Creating layer pool5/7x7_s1
I1217 19:38:08.593595 15822 net.cpp:84] Creating Layer pool5/7x7_s1
I1217 19:38:08.593601 15822 net.cpp:380] pool5/7x7_s1 <- inception_5b/output
I1217 19:38:08.593612 15822 net.cpp:338] pool5/7x7_s1 -> pool5/7x7_s1
I1217 19:38:08.593622 15822 net.cpp:113] Setting up pool5/7x7_s1
I1217 19:38:08.593719 15822 net.cpp:120] Top shape: 80 1024 1 1 (81920)
I1217 19:38:08.593727 15822 layer_factory.hpp:74] Creating layer pool5/drop_7x7_s1
I1217 19:38:08.593737 15822 net.cpp:84] Creating Layer pool5/drop_7x7_s1
I1217 19:38:08.593744 15822 net.cpp:380] pool5/drop_7x7_s1 <- pool5/7x7_s1
I1217 19:38:08.593754 15822 net.cpp:327] pool5/drop_7x7_s1 -> pool5/7x7_s1 (in-place)
I1217 19:38:08.593763 15822 net.cpp:113] Setting up pool5/drop_7x7_s1
I1217 19:38:08.593775 15822 net.cpp:120] Top shape: 80 1024 1 1 (81920)
I1217 19:38:08.593781 15822 layer_factory.hpp:74] Creating layer loss3/classifier_kaggle
I1217 19:38:08.593801 15822 net.cpp:84] Creating Layer loss3/classifier_kaggle
I1217 19:38:08.593808 15822 net.cpp:380] loss3/classifier_kaggle <- pool5/7x7_s1
I1217 19:38:08.593822 15822 net.cpp:338] loss3/classifier_kaggle -> loss3/classifier_kaggle
I1217 19:38:08.593833 15822 net.cpp:113] Setting up loss3/classifier_kaggle
I1217 19:38:08.599550 15822 net.cpp:120] Top shape: 80 447 (35760)
I1217 19:38:08.599568 15822 layer_factory.hpp:74] Creating layer loss3/loss3
I1217 19:38:08.599581 15822 net.cpp:84] Creating Layer loss3/loss3
I1217 19:38:08.599588 15822 net.cpp:380] loss3/loss3 <- loss3/classifier_kaggle
I1217 19:38:08.599598 15822 net.cpp:380] loss3/loss3 <- label_data_1_split_2
I1217 19:38:08.599607 15822 net.cpp:338] loss3/loss3 -> loss3/loss3
I1217 19:38:08.599618 15822 net.cpp:113] Setting up loss3/loss3
…
I1217 19:38:08.607775 15822 net.cpp:257] The NetState phase (1) differed from the phase (0) specified by a rule in layer data
I1217 19:38:08.610172 15822 net.cpp:42] Initializing net from parameters: 
name: "MYNET"
state {
  phase: TEST
}
layer {
  name: "data"
  type: "ImageData"
  top: "data"
  top: "label"
  include {
    phase: TEST
  }
  transform_param {
    mirror: false
    crop_size: 224
    mean_value: 129
    mean_value: 129
    mean_value: 129
  }
  image_data_param {
    source: "/home/coldmanck/kaggle/label_val_full.txt"
    batch_size: 50
    shuffle: true
  }
}
layer {
  name: "conv1/7x7_s2"
  type: "Convolution"
  bottom: "data"
  top: "conv1/7x7_s2"
  param {
    lr_mult: 1
    decay_mult: 1
  }
  param {
    lr_mult: 2
    decay_mult: 0
  }
  convolution_param {
    num_output: 64
    pad: 3
    kernel_size: 7
    stride: 2
    weight_filler {
      type: "xavier"
    }
    bias_filler {
      type: "constant"
      value: 0.2
    }
  }
}
layer {
  name: "conv1/relu_7x7"
  type: "ReLU"
  bottom: "conv1/7x7_s2"
  top: "conv1/7x7_s2"
}
layer {
  name: "pool1/3x3_s2"
  type: "Pooling"
  bottom: "conv1/7x7_s2"
  top: "pool1/3x3_s2"
  pooling_param {
    pool: MAX
    kernel_size: 3
    stride: 2
  }
}
layer {
  name: "pool1/norm1"
  type: "LRN"
  bottom: "pool1/3x3_s2"
  top: "pool1/norm1"
  lrn_param {
    local_size: 5
    alpha: 0.0001
    beta: 0.75
  }
}
layer {
  name: "conv2/3x3_reduce"
  type: "Convolution"
  bottom: "pool1/norm1"
  top: "conv2/3x3_reduce"
  param {
    lr_mult: 1
    decay_mult: 1
  }
  param {
    lr_mult: 2
    decay_mult: 0
  }
  convolution_param {
    num_output: 64
    kernel_size: 1
    weight_filler {
      type: "xavier"
    }
    bias_filler {
      type: "constant"
      value: 0.2
    }
  }
}
layer {
  name: "conv2/relu_3x3_reduce"
  type: "ReLU"
  bottom: "conv2/3x3_reduce"
  top: "conv2/3x3_reduce"
}
layer {
  name: "conv2/3x3"
  type: "Convolution"
  bottom: "conv2/3x3_reduce"
  top: "conv2/3x3"
  param {
    lr_mult: 1
    decay_mult: 1
  }
  param {
    lr_mult: 2
    decay_mult: 0
  }
  convolution_param {
    num_output: 192
    pad: 1
    kernel_size: 3
    weight_filler {
      type: "xavier"
    }
    bias_filler {
      type: "constant"
      value: 0.2
    }
  }
}
layer {
  name: "conv2/relu_3x3"
  type: "ReLU"
  bottom: "conv2/3x3"
  top: "conv2/3x3"
}
layer {
  name: "conv2/norm2"
  type: "LRN"
  bottom: "conv2/3x3"
  top: "conv2/norm2"
  lrn_param {
    local_size: 5
    alpha: 0.0001
    beta: 0.75
  }
}
layer {
  name: "pool2/3x3_s2"
  type: "Pooling"
  bottom: "conv2/norm2"
  top: "pool2/3x3_s2"
  pooling_param {
    pool: MAX
    kernel_size: 3
    stride: 2
  }
}
layer {
  name: "inception_3a/1x1"
  type: "Convolution"
  bottom: "pool2/3x3_s2"
  top: "inception_3a/1x1"
  param {
    lr_mult: 1
    decay_mult: 1
  }
  param {
    lr_mult: 2
    decay_mult: 0
  }
  convolution_param {
    num_output: 64
    kernel_size: 1
    weight_filler {
      type: "xavier"
    }
    bias_filler {
      type: "constant"
      value: 0.2
    }
  }
}
layer {
  name: "inception_3a/relu_1x1"
  type: "ReLU"
  bottom: "inception_3a/1x1"
  top: "inception_3a/1x1"
}
layer {
  name: "inception_3a/3x3_reduce"
  type: "Convolution"
  bottom: "pool2/3x3_s2"
  top: "inception_3a/3x3_reduce"
  param {
    lr_mult: 1
    decay_mult: 1
  }
  param {
    lr_mult: 2
    decay_mult: 0
  }
  convolution_param {
    num_output: 96
    kernel_size: 1
    weight_filler {
      type: "xavier"
    }
    bias_filler {
      type: "constant"
      value: 0.2
    }
  }
}
layer {
  name: "inception_3a/relu_3x3_reduce"
  type: "ReLU"
  bottom: "inception_3a/3x3_reduce"
  top: "inception_3a/3x3_reduce"
}
layer {
  name: "inception_3a/3x3"
  type: "Convolution"
  bottom: "inception_3a/3x3_reduce"
  top: "inception_3a/3x3"
  param {
    lr_mult: 1
    decay_mult: 1
  }
  param {
    lr_mult: 2
    decay_mult: 0
  }
  convolution_param {
    num_output: 128
    pad: 1
    kernel_size: 3
    weight_filler {
      type: "xavier"
    }
    bias_filler {
      type: "constant"
      value: 0.2
    }
  }
}
layer {
  name: "inception_3a/relu_3x3"
  type: "ReLU"
  bottom: "inception_3a/3x3"
  top: "inception_3a/3x3"
}
layer {
  name: "inception_3a/5x5_reduce"
  type: "Convolution"
  bottom: "pool2/3x3_s2"
  top: "inception_3a/5x5_reduce"
  param {
    lr_mult: 1
    decay_mult: 1
  }
  param {
    lr_mult: 2
    decay_mult: 0
  }
  convolution_param {
    num_output: 16
    kernel_size: 1
    weight_filler {
      type: "xavier"
    }
    bias_filler {
      type: "constant"
      value: 0.2
    }
  }
}
layer {
  name: "inception_3a/relu_5x5_reduce"
  type: "ReLU"
  bottom: "inception_3a/5x5_reduce"
  top: "inception_3a/5x5_reduce"
}
layer {
  name: "inception_3a/5x5"
  type: "Convolution"
  bottom: "inception_3a/5x5_reduce"
  top: "inception_3a/5x5"
  param {
    lr_mult: 1
    decay_mult: 1
  }
  param {
    lr_mult: 2
    decay_mult: 0
  }
  convolution_param {
    num_output: 32
    pad: 2
    kernel_size: 5
    weight_filler {
      type: "xavier"
    }
    bias_filler {
      type: "constant"
      value: 0.2
    }
  }
}
layer {
  name: "inception_3a/relu_5x5"
  type: "ReLU"
  bottom: "inception_3a/5x5"
  top: "inception_3a/5x5"
}
layer {
  name: "inception_3a/pool"
  type: "Pooling"
  bottom: "pool2/3x3_s2"
  top: "inception_3a/pool"
  pooling_param {
    pool: MAX
    kernel_size: 3
    stride: 1
    pad: 1
  }
}
layer {
  name: "inception_3a/pool_proj"
  type: "Convolution"
  bottom: "inception_3a/pool"
  top: "inception_3a/pool_proj"
  param {
    lr_mult: 1
    decay_mult: 1
  }
  param {
    lr_mult: 2
    decay_mult: 0
  }
  convolution_param {
    num_output: 32
    kernel_size: 1
    weight_filler {
      type: "xavier"
    }
    bias_filler {
      type: "constant"
      value: 0.2
    }
  }
}
layer {
  name: "inception_3a/relu_pool_proj"
  type: "ReLU"
  bottom: "inception_3a/pool_proj"
  top: "inception_3a/pool_proj"
}
layer {
  name: "inception_3a/output"
  type: "Concat"
  bottom: "inception_3a/1x1"
  bottom: "inception_3a/3x3"
  bottom: "inception_3a/5x5"
  bottom: "inception_3a/pool_proj"
  top: "inception_3a/output"
}
layer {
  name: "inception_3b/1x1"
  type: "Convolution"
  bottom: "inception_3a/output"
  top: "inception_3b/1x1"
  param {
    lr_mult: 1
    decay_mult: 1
  }
  param {
    lr_mult: 2
    decay_mult: 0
  }
  convolution_param {
    num_output: 128
    kernel_size: 1
    weight_filler {
      type: "xavier"
    }
    bias_filler {
      type: "constant"
      value: 0.2
    }
  }
}
layer {
  name: "inception_3b/relu_1x1"
  type: "ReLU"
  bottom: "inception_3b/1x1"
  top: "inception_3b/1x1"
}
layer {
  name: "inception_3b/3x3_reduce"
  type: "Convolution"
  bottom: "inception_3a/output"
  top: "inception_3b/3x3_reduce"
  param {
    lr_mult: 1
    decay_mult: 1
  }
  param {
    lr_mult: 2
    decay_mult: 0
  }
  convolution_param {
    num_output: 128
    kernel_size: 1
    weight_filler {
      type: "xavier"
    }
    bias_filler {
      type: "constant"
      value: 0.2
    }
  }
}
layer {
  name: "inception_3b/relu_3x3_reduce"
  type: "ReLU"
  bottom: "inception_3b/3x3_reduce"
  top: "inception_3b/3x3_reduce"
}
layer {
  name: "inception_3b/3x3"
  type: "Convolution"
  bottom: "inception_3b/3x3_reduce"
  top: "inception_3b/3x3"
  param {
    lr_mult: 1
    decay_mult: 1
  }
  param {
    lr_mult: 2
    decay_mult: 0
  }
  convolution_param {
    num_output: 192
    pad: 1
    kernel_size: 3
    weight_filler {
      type: "xavier"
    }
    bias_filler {
      type: "constant"
      value: 0.2
    }
  }
}
layer {
  name: "inception_3b/relu_3x3"
  type: "ReLU"
  bottom: "inception_3b/3x3"
  top: "inception_3b/3x3"
}
layer {
  name: "inception_3b/5x5_reduce"
  type: "Convolution"
  bottom: "inception_3a/output"
  top: "inception_3b/5x5_reduce"
  param {
    lr_mult: 1
    decay_mult: 1
  }
  param {
    lr_mult: 2
    decay_mult: 0
  }
  convolution_param {
    num_output: 32
    kernel_size: 1
    weight_filler {
      type: "xavier"
    }
    bias_filler {
      type: "constant"
      value: 0.2
    }
  }
}
layer {
  name: "inception_3b/relu_5x5_reduce"
  type: "ReLU"
  bottom: "inception_3b/5x5_reduce"
  top: "inception_3b/5x5_reduce"
}
layer {
  name: "inception_3b/5x5"
  type: "Convolution"
  bottom: "inception_3b/5x5_reduce"
  top: "inception_3b/5x5"
  param {
    lr_mult: 1
    decay_mult: 1
  }
  param {
    lr_mult: 2
    decay_mult: 0
  }
  convolution_param {
    num_output: 96
    pad: 2
    kernel_size: 5
    weight_filler {
      type: "xavier"
    }
    bias_filler {
      type: "constant"
      value: 0.2
    }
  }
}
layer {
  name: "inception_3b/relu_5x5"
  type: "ReLU"
  bottom: "inception_3b/5x5"
  top: "inception_3b/5x5"
}
layer {
  name: "inception_3b/pool"
  type: "Pooling"
  bottom: "inception_3a/output"
  top: "inception_3b/pool"
  pooling_param {
    pool: MAX
    kernel_size: 3
    stride: 1
    pad: 1
  }
}
layer {
  name: "inception_3b/pool_proj"
  type: "Convolution"
  bottom: "inception_3b/pool"
  top: "inception_3b/pool_proj"
  param {
    lr_mult: 1
    decay_mult: 1
  }
  param {
    lr_mult: 2
    decay_mult: 0
  }
  convolution_param {
    num_output: 64
    kernel_size: 1
    weight_filler {
      type: "xavier"
    }
    bias_filler {
      type: "constant"
      value: 0.2
    }
  }
}
layer {
  name: "inception_3b/relu_pool_proj"
  type: "ReLU"
  bottom: "inception_3b/pool_proj"
  top: "inception_3b/pool_proj"
}
layer {
  name: "inception_3b/output"
  type: "Concat"
  bottom: "inception_3b/1x1"
  bottom: "inception_3b/3x3"
  bottom: "inception_3b/5x5"
  bottom: "inception_3b/pool_proj"
  top: "inception_3b/output"
}
layer {
  name: "pool3/3x3_s2"
  type: "Pooling"
  bottom: "inception_3b/output"
  top: "pool3/3x3_s2"
  pooling_param {
    pool: MAX
    kernel_size: 3
    stride: 2
  }
}
layer {
  name: "inception_4a/1x1"
  type: "Convolution"
  bottom: "pool3/3x3_s2"
  top: "inception_4a/1x1"
  param {
    lr_mult: 1
    decay_mult: 1
  }
  param {
    lr_mult: 2
    decay_mult: 0
  }
  convolution_param {
    num_output: 192
    kernel_size: 1
    weight_filler {
      type: "xavier"
    }
    bias_filler {
      type: "constant"
      value: 0.2
    }
  }
}
layer {
  name: "inception_4a/relu_1x1"
  type: "ReLU"
  bottom: "inception_4a/1x1"
  top: "inception_4a/1x1"
}
layer {
  name: "inception_4a/3x3_reduce"
  type: "Convolution"
  bottom: "pool3/3x3_s2"
  top: "inception_4a/3x3_reduce"
  param {
    lr_mult: 1
    decay_mult: 1
  }
  param {
    lr_mult: 2
    decay_mult: 0
  }
  convolution_param {
    num_output: 96
    kernel_size: 1
    weight_filler {
      type: "xavier"
    }
    bias_filler {
      type: "constant"
      value: 0.2
    }
  }
}
layer {
  name: "inception_4a/relu_3x3_reduce"
  type: "ReLU"
  bottom: "inception_4a/3x3_reduce"
  top: "inception_4a/3x3_reduce"
}
layer {
  name: "inception_4a/3x3"
  type: "Convolution"
  bottom: "inception_4a/3x3_reduce"
  top: "inception_4a/3x3"
  param {
    lr_mult: 1
    decay_mult: 1
  }
  param {
    lr_mult: 2
    decay_mult: 0
  }
  convolution_param {
    num_output: 208
    pad: 1
    kernel_size: 3
    weight_filler {
      type: "xavier"
    }
    bias_filler {
      type: "constant"
      value: 0.2
    }
  }
}
layer {
  name: "inception_4a/relu_3x3"
  type: "ReLU"
  bottom: "inception_4a/3x3"
  top: "inception_4a/3x3"
}
layer {
  name: "inception_4a/5x5_reduce"
  type: "Convolution"
  bottom: "pool3/3x3_s2"
  top: "inception_4a/5x5_reduce"
  param {
    lr_mult: 1
    decay_mult: 1
  }
  param {
    lr_mult: 2
    decay_mult: 0
  }
  convolution_param {
    num_output: 16
    kernel_size: 1
    weight_filler {
      type: "xavier"
    }
    bias_filler {
      type: "constant"
      value: 0.2
    }
  }
}
layer {
  name: "inception_4a/relu_5x5_reduce"
  type: "ReLU"
  bottom: "inception_4a/5x5_reduce"
  top: "inception_4a/5x5_reduce"
}
layer {
  name: "inception_4a/5x5"
  type: "Convolution"
  bottom: "inception_4a/5x5_reduce"
  top: "inception_4a/5x5"
  param {
    lr_mult: 1
    decay_mult: 1
  }
  param {
    lr_mult: 2
    decay_mult: 0
  }
  convolution_param {
    num_output: 48
    pad: 2
    kernel_size: 5
    weight_filler {
      type: "xavier"
    }
    bias_filler {
      type: "constant"
      value: 0.2
    }
  }
}
layer {
  name: "inception_4a/relu_5x5"
  type: "ReLU"
  bottom: "inception_4a/5x5"
  top: "inception_4a/5x5"
}
layer {
  name: "inception_4a/pool"
  type: "Pooling"
  bottom: "pool3/3x3_s2"
  top: "inception_4a/pool"
  pooling_param {
    pool: MAX
    kernel_size: 3
    stride: 1
    pad: 1
  }
}
layer {
  name: "inception_4a/pool_proj"
  type: "Convolution"
  bottom: "inception_4a/pool"
  top: "inception_4a/pool_proj"
  param {
    lr_mult: 1
    decay_mult: 1
  }
  param {
    lr_mult: 2
    decay_mult: 0
  }
  convolution_param {
    num_output: 64
    kernel_size: 1
    weight_filler {
      type: "xavier"
    }
    bias_filler {
      type: "constant"
      value: 0.2
    }
  }
}
layer {
  name: "inception_4a/relu_pool_proj"
  type: "ReLU"
  bottom: "inception_4a/pool_proj"
  top: "inception_4a/pool_proj"
}
layer {
  name: "inception_4a/output"
  type: "Concat"
  bottom: "inception_4a/1x1"
  bottom: "inception_4a/3x3"
  bottom: "inception_4a/5x5"
  bottom: "inception_4a/pool_proj"
  top: "inception_4a/output"
}
layer {
  name: "loss1/ave_pool"
  type: "Pooling"
  bottom: "inception_4a/output"
  top: "loss1/ave_pool"
  pooling_param {
    pool: AVE
    kernel_size: 5
    stride: 3
  }
}
layer {
  name: "loss1/conv"
  type: "Convolution"
  bottom: "loss1/ave_pool"
  top: "loss1/conv"
  param {
    lr_mult: 1
    decay_mult: 1
  }
  param {
    lr_mult: 2
    decay_mult: 0
  }
  convolution_param {
    num_output: 128
    kernel_size: 1
    weight_filler {
      type: "xavier"
    }
    bias_filler {
      type: "constant"
      value: 0.2
    }
  }
}
layer {
  name: "loss1/relu_conv"
  type: "ReLU"
  bottom: "loss1/conv"
  top: "loss1/conv"
}
layer {
  name: "loss1/fc"
  type: "InnerProduct"
  bottom: "loss1/conv"
  top: "loss1/fc"
  param {
    lr_mult: 1
    decay_mult: 1
  }
  param {
    lr_mult: 2
    decay_mult: 0
  }
  inner_product_param {
    num_output: 1024
    weight_filler {
      type: "xavier"
    }
    bias_filler {
      type: "constant"
      value: 0.2
    }
  }
}
layer {
  name: "loss1/relu_fc"
  type: "ReLU"
  bottom: "loss1/fc"
  top: "loss1/fc"
}
layer {
  name: "loss1/drop_fc"
  type: "Dropout"
  bottom: "loss1/fc"
  top: "loss1/fc"
  dropout_param {
    dropout_ratio: 0.7
  }
}
layer {
  name: "loss1/classifier_kaggle"
  type: "InnerProduct"
  bottom: "loss1/fc"
  top: "loss1/classifier_kaggle"
  param {
    lr_mult: 1
    decay_mult: 1
  }
  param {
    lr_mult: 2
    decay_mult: 0
  }
  inner_product_param {
    num_output: 447
    weight_filler {
      type: "xavier"
    }
    bias_filler {
      type: "constant"
      value: 0
    }
  }
}
layer {
  name: "loss1/loss"
  type: "SoftmaxWithLoss"
  bottom: "loss1/classifier_kaggle"
  bottom: "label"
  top: "loss1/loss1"
  loss_weight: 0.3
}
layer {
  name: "loss1/top-1"
  type: "Accuracy"
  bottom: "loss1/classifier_kaggle"
  bottom: "label"
  top: "loss1/top-1"
  include {
    phase: TEST
  }
}
layer {
  name: "loss1/top-5"
  type: "Accuracy"
  bottom: "loss1/classifier_kaggle"
  bottom: "label"
  top: "loss1/top-5"
  include {
    phase: TEST
  }
  accuracy_param {
    top_k: 5
  }
}
layer {
  name: "inception_4b/1x1"
  type: "Convolution"
  bottom: "inception_4a/output"
  top: "inception_4b/1x1"
  param {
    lr_mult: 1
    decay_mult: 1
  }
  param {
    lr_mult: 2
    decay_mult: 0
  }
  convolution_param {
    num_output: 160
    kernel_size: 1
    weight_filler {
      type: "xavier"
    }
    bias_filler {
      type: "constant"
      value: 0.2
    }
  }
}
layer {
  name: "inception_4b/relu_1x1"
  type: "ReLU"
  bottom: "inception_4b/1x1"
  top: "inception_4b/1x1"
}
layer {
  name: "inception_4b/3x3_reduce"
  type: "Convolution"
  bottom: "inception_4a/output"
  top: "inception_4b/3x3_reduce"
  param {
    lr_mult: 1
    decay_mult: 1
  }
  param {
    lr_mult: 2
    decay_mult: 0
  }
  convolution_param {
    num_output: 112
    kernel_size: 1
    weight_filler {
      type: "xavier"
    }
    bias_filler {
      type: "constant"
      value: 0.2
    }
  }
}
layer {
  name: "inception_4b/relu_3x3_reduce"
  type: "ReLU"
  bottom: "inception_4b/3x3_reduce"
  top: "inception_4b/3x3_reduce"
}
layer {
  name: "inception_4b/3x3"
  type: "Convolution"
  bottom: "inception_4b/3x3_reduce"
  top: "inception_4b/3x3"
  param {
    lr_mult: 1
    decay_mult: 1
  }
  param {
    lr_mult: 2
    decay_mult: 0
  }
  convolution_param {
    num_output: 224
    pad: 1
    kernel_size: 3
    weight_filler {
      type: "xavier"
    }
    bias_filler {
      type: "constant"
      value: 0.2
    }
  }
}
layer {
  name: "inception_4b/relu_3x3"
  type: "ReLU"
  bottom: "inception_4b/3x3"
  top: "inception_4b/3x3"
}
layer {
  name: "inception_4b/5x5_reduce"
  type: "Convolution"
  bottom: "inception_4a/output"
  top: "inception_4b/5x5_reduce"
  param {
    lr_mult: 1
    decay_mult: 1
  }
  param {
    lr_mult: 2
    decay_mult: 0
  }
  convolution_param {
    num_output: 24
    kernel_size: 1
    weight_filler {
      type: "xavier"
    }
    bias_filler {
      type: "constant"
      value: 0.2
    }
  }
}
layer {
  name: "inception_4b/relu_5x5_reduce"
  type: "ReLU"
  bottom: "inception_4b/5x5_reduce"
  top: "inception_4b/5x5_reduce"
}
layer {
  name: "inception_4b/5x5"
  type: "Convolution"
  bottom: "inception_4b/5x5_reduce"
  top: "inception_4b/5x5"
  param {
    lr_mult: 1
    decay_mult: 1
  }
  param {
    lr_mult: 2
    decay_mult: 0
  }
  convolution_param {
    num_output: 64
    pad: 2
    kernel_size: 5
    weight_filler {
      type: "xavier"
    }
    bias_filler {
      type: "constant"
      value: 0.2
    }
  }
}
layer {
  name: "inception_4b/relu_5x5"
  type: "ReLU"
  bottom: "inception_4b/5x5"
  top: "inception_4b/5x5"
}
layer {
  name: "inception_4b/pool"
  type: "Pooling"
  bottom: "inception_4a/output"
  top: "inception_4b/pool"
  pooling_param {
    pool: MAX
    kernel_size: 3
    stride: 1
    pad: 1
  }
}
layer {
  name: "inception_4b/pool_proj"
  type: "Convolution"
  bottom: "inception_4b/pool"
  top: "inception_4b/pool_proj"
  param {
    lr_mult: 1
    decay_mult: 1
  }
  param {
    lr_mult: 2
    decay_mult: 0
  }
  convolution_param {
    num_output: 64
    kernel_size: 1
    weight_filler {
      type: "xavier"
    }
    bias_filler {
      type: "constant"
      value: 0.2
    }
  }
}
layer {
  name: "inception_4b/relu_pool_proj"
  type: "ReLU"
  bottom: "inception_4b/pool_proj"
  top: "inception_4b/pool_proj"
}
layer {
  name: "inception_4b/output"
  type: "Concat"
  bottom: "inception_4b/1x1"
  bottom: "inception_4b/3x3"
  bottom: "inception_4b/5x5"
  bottom: "inception_4b/pool_proj"
  top: "inception_4b/output"
}
layer {
  name: "inception_4c/1x1"
  type: "Convolution"
  bottom: "inception_4b/output"
  top: "inception_4c/1x1"
  param {
    lr_mult: 1
    decay_mult: 1
  }
  param {
    lr_mult: 2
    decay_mult: 0
  }
  convolution_param {
    num_output: 128
    kernel_size: 1
    weight_filler {
      type: "xavier"
    }
    bias_filler {
      type: "constant"
      value: 0.2
    }
  }
}
layer {
  name: "inception_4c/relu_1x1"
  type: "ReLU"
  bottom: "inception_4c/1x1"
  top: "inception_4c/1x1"
}
layer {
  name: "inception_4c/3x3_reduce"
  type: "Convolution"
  bottom: "inception_4b/output"
  top: "inception_4c/3x3_reduce"
  param {
    lr_mult: 1
    decay_mult: 1
  }
  param {
    lr_mult: 2
    decay_mult: 0
  }
  convolution_param {
    num_output: 128
    kernel_size: 1
    weight_filler {
      type: "xavier"
    }
    bias_filler {
      type: "constant"
      value: 0.2
    }
  }
}
layer {
  name: "inception_4c/relu_3x3_reduce"
  type: "ReLU"
  bottom: "inception_4c/3x3_reduce"
  top: "inception_4c/3x3_reduce"
}
layer {
  name: "inception_4c/3x3"
  type: "Convolution"
  bottom: "inception_4c/3x3_reduce"
  top: "inception_4c/3x3"
  param {
    lr_mult: 1
    decay_mult: 1
  }
  param {
    lr_mult: 2
    decay_mult: 0
  }
  convolution_param {
    num_output: 256
    pad: 1
    kernel_size: 3
    weight_filler {
      type: "xavier"
    }
    bias_filler {
      type: "constant"
      value: 0.2
    }
  }
}
layer {
  name: "inception_4c/relu_3x3"
  type: "ReLU"
  bottom: "inception_4c/3x3"
  top: "inception_4c/3x3"
}
layer {
  name: "inception_4c/5x5_reduce"
  type: "Convolution"
  bottom: "inception_4b/output"
  top: "inception_4c/5x5_reduce"
  param {
    lr_mult: 1
    decay_mult: 1
  }
  param {
    lr_mult: 2
    decay_mult: 0
  }
  convolution_param {
    num_output: 24
    kernel_size: 1
    weight_filler {
      type: "xavier"
    }
    bias_filler {
      type: "constant"
      value: 0.2
    }
  }
}
layer {
  name: "inception_4c/relu_5x5_reduce"
  type: "ReLU"
  bottom: "inception_4c/5x5_reduce"
  top: "inception_4c/5x5_reduce"
}
layer {
  name: "inception_4c/5x5"
  type: "Convolution"
  bottom: "inception_4c/5x5_reduce"
  top: "inception_4c/5x5"
  param {
    lr_mult: 1
    decay_mult: 1
  }
  param {
    lr_mult: 2
    decay_mult: 0
  }
  convolution_param {
    num_output: 64
    pad: 2
    kernel_size: 5
    weight_filler {
      type: "xavier"
    }
    bias_filler {
      type: "constant"
      value: 0.2
    }
  }
}
layer {
  name: "inception_4c/relu_5x5"
  type: "ReLU"
  bottom: "inception_4c/5x5"
  top: "inception_4c/5x5"
}
layer {
  name: "inception_4c/pool"
  type: "Pooling"
  bottom: "inception_4b/output"
  top: "inception_4c/pool"
  pooling_param {
    pool: MAX
    kernel_size: 3
    stride: 1
    pad: 1
  }
}
layer {
  name: "inception_4c/pool_proj"
  type: "Convolution"
  bottom: "inception_4c/pool"
  top: "inception_4c/pool_proj"
  param {
    lr_mult: 1
    decay_mult: 1
  }
  param {
    lr_mult: 2
    decay_mult: 0
  }
  convolution_param {
    num_output: 64
    kernel_size: 1
    weight_filler {
      type: "xavier"
    }
    bias_filler {
      type: "constant"
      value: 0.2
    }
  }
}
layer {
  name: "inception_4c/relu_pool_proj"
  type: "ReLU"
  bottom: "inception_4c/pool_proj"
  top: "inception_4c/pool_proj"
}
layer {
  name: "inception_4c/output"
  type: "Concat"
  bottom: "inception_4c/1x1"
  bottom: "inception_4c/3x3"
  bottom: "inception_4c/5x5"
  bottom: "inception_4c/pool_proj"
  top: "inception_4c/output"
}
layer {
  name: "inception_4d/1x1"
  type: "Convolution"
  bottom: "inception_4c/output"
  top: "inception_4d/1x1"
  param {
    lr_mult: 1
    decay_mult: 1
  }
  param {
    lr_mult: 2
    decay_mult: 0
  }
  convolution_param {
    num_output: 112
    kernel_size: 1
    weight_filler {
      type: "xavier"
    }
    bias_filler {
      type: "constant"
      value: 0.2
    }
  }
}
layer {
  name: "inception_4d/relu_1x1"
  type: "ReLU"
  bottom: "inception_4d/1x1"
  top: "inception_4d/1x1"
}
layer {
  name: "inception_4d/3x3_reduce"
  type: "Convolution"
  bottom: "inception_4c/output"
  top: "inception_4d/3x3_reduce"
  param {
    lr_mult: 1
    decay_mult: 1
  }
  param {
    lr_mult: 2
    decay_mult: 0
  }
  convolution_param {
    num_output: 144
    kernel_size: 1
    weight_filler {
      type: "xavier"
    }
    bias_filler {
      type: "constant"
      value: 0.2
    }
  }
}
layer {
  name: "inception_4d/relu_3x3_reduce"
  type: "ReLU"
  bottom: "inception_4d/3x3_reduce"
  top: "inception_4d/3x3_reduce"
}
layer {
  name: "inception_4d/3x3"
  type: "Convolution"
  bottom: "inception_4d/3x3_reduce"
  top: "inception_4d/3x3"
  param {
    lr_mult: 1
    decay_mult: 1
  }
  param {
    lr_mult: 2
    decay_mult: 0
  }
  convolution_param {
    num_output: 288
    pad: 1
    kernel_size: 3
    weight_filler {
      type: "xavier"
    }
    bias_filler {
      type: "constant"
      value: 0.2
    }
  }
}
layer {
  name: "inception_4d/relu_3x3"
  type: "ReLU"
  bottom: "inception_4d/3x3"
  top: "inception_4d/3x3"
}
layer {
  name: "inception_4d/5x5_reduce"
  type: "Convolution"
  bottom: "inception_4c/output"
  top: "inception_4d/5x5_reduce"
  param {
    lr_mult: 1
    decay_mult: 1
  }
  param {
    lr_mult: 2
    decay_mult: 0
  }
  convolution_param {
    num_output: 32
    kernel_size: 1
    weight_filler {
      type: "xavier"
    }
    bias_filler {
      type: "constant"
      value: 0.2
    }
  }
}
layer {
  name: "inception_4d/relu_5x5_reduce"
  type: "ReLU"
  bottom: "inception_4d/5x5_reduce"
  top: "inception_4d/5x5_reduce"
}
layer {
  name: "inception_4d/5x5"
  type: "Convolution"
  bottom: "inception_4d/5x5_reduce"
  top: "inception_4d/5x5"
  param {
    lr_mult: 1
    decay_mult: 1
  }
  param {
    lr_mult: 2
    decay_mult: 0
  }
  convolution_param {
    num_output: 64
    pad: 2
    kernel_size: 5
    weight_filler {
      type: "xavier"
    }
    bias_filler {
      type: "constant"
      value: 0.2
    }
  }
}
layer {
  name: "inception_4d/relu_5x5"
  type: "ReLU"
  bottom: "inception_4d/5x5"
  top: "inception_4d/5x5"
}
layer {
  name: "inception_4d/pool"
  type: "Pooling"
  bottom: "inception_4c/output"
  top: "inception_4d/pool"
  pooling_param {
    pool: MAX
    kernel_size: 3
    stride: 1
    pad: 1
  }
}
layer {
  name: "inception_4d/pool_proj"
  type: "Convolution"
  bottom: "inception_4d/pool"
  top: "inception_4d/pool_proj"
  param {
    lr_mult: 1
    decay_mult: 1
  }
  param {
    lr_mult: 2
    decay_mult: 0
  }
  convolution_param {
    num_output: 64
    kernel_size: 1
    weight_filler {
      type: "xavier"
    }
    bias_filler {
      type: "constant"
      value: 0.2
    }
  }
}
layer {
  name: "inception_4d/relu_pool_proj"
  type: "ReLU"
  bottom: "inception_4d/pool_proj"
  top: "inception_4d/pool_proj"
}
layer {
  name: "inception_4d/output"
  type: "Concat"
  bottom: "inception_4d/1x1"
  bottom: "inception_4d/3x3"
  bottom: "inception_4d/5x5"
  bottom: "inception_4d/pool_proj"
  top: "inception_4d/output"
}
layer {
  name: "loss2/ave_pool"
  type: "Pooling"
  bottom: "inception_4d/output"
  top: "loss2/ave_pool"
  pooling_param {
    pool: AVE
    kernel_size: 5
    stride: 3
  }
}
layer {
  name: "loss2/conv"
  type: "Convolution"
…
I1217 19:38:08.760606 15822 net.cpp:84] Creating Layer inception_4c/1x1
I1217 19:38:08.760612 15822 net.cpp:380] inception_4c/1x1 <- inception_4b/output_inception_4b/output_0_split_0
I1217 19:38:08.760622 15822 net.cpp:338] inception_4c/1x1 -> inception_4c/1x1
I1217 19:38:08.760633 15822 net.cpp:113] Setting up inception_4c/1x1
I1217 19:38:08.761989 15822 net.cpp:120] Top shape: 50 128 14 14 (1254400)
I1217 19:38:08.762011 15822 layer_factory.hpp:74] Creating layer inception_4c/relu_1x1
I1217 19:38:08.762023 15822 net.cpp:84] Creating Layer inception_4c/relu_1x1
I1217 19:38:08.762032 15822 net.cpp:380] inception_4c/relu_1x1 <- inception_4c/1x1
I1217 19:38:08.762042 15822 net.cpp:327] inception_4c/relu_1x1 -> inception_4c/1x1 (in-place)
I1217 19:38:08.762051 15822 net.cpp:113] Setting up inception_4c/relu_1x1
I1217 19:38:08.762357 15822 net.cpp:120] Top shape: 50 128 14 14 (1254400)
I1217 19:38:08.762382 15822 layer_factory.hpp:74] Creating layer inception_4c/3x3_reduce
I1217 19:38:08.762398 15822 net.cpp:84] Creating Layer inception_4c/3x3_reduce
I1217 19:38:08.762405 15822 net.cpp:380] inception_4c/3x3_reduce <- inception_4b/output_inception_4b/output_0_split_1
I1217 19:38:08.762418 15822 net.cpp:338] inception_4c/3x3_reduce -> inception_4c/3x3_reduce
I1217 19:38:08.762429 15822 net.cpp:113] Setting up inception_4c/3x3_reduce
I1217 19:38:08.763785 15822 net.cpp:120] Top shape: 50 128 14 14 (1254400)
I1217 19:38:08.763804 15822 layer_factory.hpp:74] Creating layer inception_4c/relu_3x3_reduce
I1217 19:38:08.763815 15822 net.cpp:84] Creating Layer inception_4c/relu_3x3_reduce
I1217 19:38:08.763823 15822 net.cpp:380] inception_4c/relu_3x3_reduce <- inception_4c/3x3_reduce
I1217 19:38:08.763835 15822 net.cpp:327] inception_4c/relu_3x3_reduce -> inception_4c/3x3_reduce (in-place)
I1217 19:38:08.763846 15822 net.cpp:113] Setting up inception_4c/relu_3x3_reduce
I1217 19:38:08.763944 15822 net.cpp:120] Top shape: 50 128 14 14 (1254400)
I1217 19:38:08.763952 15822 layer_factory.hpp:74] Creating layer inception_4c/3x3
I1217 19:38:08.763965 15822 net.cpp:84] Creating Layer inception_4c/3x3
I1217 19:38:08.763972 15822 net.cpp:380] inception_4c/3x3 <- inception_4c/3x3_reduce
I1217 19:38:08.763984 15822 net.cpp:338] inception_4c/3x3 -> inception_4c/3x3
I1217 19:38:08.763996 15822 net.cpp:113] Setting up inception_4c/3x3
I1217 19:38:08.768990 15822 net.cpp:120] Top shape: 50 256 14 14 (2508800)
I1217 19:38:08.769027 15822 layer_factory.hpp:74] Creating layer inception_4c/relu_3x3
I1217 19:38:08.769039 15822 net.cpp:84] Creating Layer inception_4c/relu_3x3
I1217 19:38:08.769047 15822 net.cpp:380] inception_4c/relu_3x3 <- inception_4c/3x3
I1217 19:38:08.769479 15822 net.cpp:327] inception_4c/relu_3x3 -> inception_4c/3x3 (in-place)
I1217 19:38:08.769495 15822 net.cpp:113] Setting up inception_4c/relu_3x3
I1217 19:38:08.769600 15822 net.cpp:120] Top shape: 50 256 14 14 (2508800)
I1217 19:38:08.769609 15822 layer_factory.hpp:74] Creating layer inception_4c/5x5_reduce
I1217 19:38:08.769624 15822 net.cpp:84] Creating Layer inception_4c/5x5_reduce
I1217 19:38:08.769632 15822 net.cpp:380] inception_4c/5x5_reduce <- inception_4b/output_inception_4b/output_0_split_2
I1217 19:38:08.769642 15822 net.cpp:338] inception_4c/5x5_reduce -> inception_4c/5x5_reduce
I1217 19:38:08.769654 15822 net.cpp:113] Setting up inception_4c/5x5_reduce
I1217 19:38:08.771842 15822 net.cpp:120] Top shape: 50 24 14 14 (235200)
I1217 19:38:08.771888 15822 layer_factory.hpp:74] Creating layer inception_4c/relu_5x5_reduce
I1217 19:38:08.771903 15822 net.cpp:84] Creating Layer inception_4c/relu_5x5_reduce
I1217 19:38:08.771914 15822 net.cpp:380] inception_4c/relu_5x5_reduce <- inception_4c/5x5_reduce
I1217 19:38:08.771932 15822 net.cpp:327] inception_4c/relu_5x5_reduce -> inception_4c/5x5_reduce (in-place)
I1217 19:38:08.771946 15822 net.cpp:113] Setting up inception_4c/relu_5x5_reduce
I1217 19:38:08.772363 15822 net.cpp:120] Top shape: 50 24 14 14 (235200)
I1217 19:38:08.772379 15822 layer_factory.hpp:74] Creating layer inception_4c/5x5
I1217 19:38:08.772394 15822 net.cpp:84] Creating Layer inception_4c/5x5
I1217 19:38:08.772403 15822 net.cpp:380] inception_4c/5x5 <- inception_4c/5x5_reduce
I1217 19:38:08.772416 15822 net.cpp:338] inception_4c/5x5 -> inception_4c/5x5
I1217 19:38:08.772431 15822 net.cpp:113] Setting up inception_4c/5x5
I1217 19:38:08.773694 15822 net.cpp:120] Top shape: 50 64 14 14 (627200)
I1217 19:38:08.773716 15822 layer_factory.hpp:74] Creating layer inception_4c/relu_5x5
I1217 19:38:08.773730 15822 net.cpp:84] Creating Layer inception_4c/relu_5x5
I1217 19:38:08.773738 15822 net.cpp:380] inception_4c/relu_5x5 <- inception_4c/5x5
I1217 19:38:08.773748 15822 net.cpp:327] inception_4c/relu_5x5 -> inception_4c/5x5 (in-place)
I1217 19:38:08.773759 15822 net.cpp:113] Setting up inception_4c/relu_5x5
I1217 19:38:08.773869 15822 net.cpp:120] Top shape: 50 64 14 14 (627200)
I1217 19:38:08.773890 15822 layer_factory.hpp:74] Creating layer inception_4c/pool
I1217 19:38:08.773910 15822 layer_factory.cpp:56] CUDNN does not support padding or multiple tops. Using Caffe's own pooling layer.
I1217 19:38:08.773921 15822 net.cpp:84] Creating Layer inception_4c/pool
I1217 19:38:08.773928 15822 net.cpp:380] inception_4c/pool <- inception_4b/output_inception_4b/output_0_split_3
I1217 19:38:08.773941 15822 net.cpp:338] inception_4c/pool -> inception_4c/pool
I1217 19:38:08.773952 15822 net.cpp:113] Setting up inception_4c/pool
I1217 19:38:08.773967 15822 net.cpp:120] Top shape: 50 512 14 14 (5017600)
I1217 19:38:08.773973 15822 layer_factory.hpp:74] Creating layer inception_4c/pool_proj
I1217 19:38:08.773988 15822 net.cpp:84] Creating Layer inception_4c/pool_proj
I1217 19:38:08.773995 15822 net.cpp:380] inception_4c/pool_proj <- inception_4c/pool
I1217 19:38:08.774005 15822 net.cpp:338] inception_4c/pool_proj -> inception_4c/pool_proj
I1217 19:38:08.774018 15822 net.cpp:113] Setting up inception_4c/pool_proj
I1217 19:38:08.784884 15822 net.cpp:120] Top shape: 50 64 14 14 (627200)
I1217 19:38:08.784907 15822 layer_factory.hpp:74] Creating layer inception_4c/relu_pool_proj
I1217 19:38:08.784919 15822 net.cpp:84] Creating Layer inception_4c/relu_pool_proj
I1217 19:38:08.784927 15822 net.cpp:380] inception_4c/relu_pool_proj <- inception_4c/pool_proj
I1217 19:38:08.784940 15822 net.cpp:327] inception_4c/relu_pool_proj -> inception_4c/pool_proj (in-place)
I1217 19:38:08.784951 15822 net.cpp:113] Setting up inception_4c/relu_pool_proj
I1217 19:38:08.785048 15822 net.cpp:120] Top shape: 50 64 14 14 (627200)
I1217 19:38:08.785074 15822 layer_factory.hpp:74] Creating layer inception_4c/output
I1217 19:38:08.785089 15822 net.cpp:84] Creating Layer inception_4c/output
I1217 19:38:08.785096 15822 net.cpp:380] inception_4c/output <- inception_4c/1x1
I1217 19:38:08.785105 15822 net.cpp:380] inception_4c/output <- inception_4c/3x3
I1217 19:38:08.785114 15822 net.cpp:380] inception_4c/output <- inception_4c/5x5
I1217 19:38:08.785121 15822 net.cpp:380] inception_4c/output <- inception_4c/pool_proj
I1217 19:38:08.785132 15822 net.cpp:338] inception_4c/output -> inception_4c/output
I1217 19:38:08.785143 15822 net.cpp:113] Setting up inception_4c/output
I1217 19:38:08.785156 15822 net.cpp:120] Top shape: 50 512 14 14 (5017600)
I1217 19:38:08.785387 15822 layer_factory.hpp:74] Creating layer inception_4c/output_inception_4c/output_0_split
I1217 19:38:08.785399 15822 net.cpp:84] Creating Layer inception_4c/output_inception_4c/output_0_split
I1217 19:38:08.785406 15822 net.cpp:380] inception_4c/output_inception_4c/output_0_split <- inception_4c/output
I1217 19:38:08.785416 15822 net.cpp:338] inception_4c/output_inception_4c/output_0_split -> inception_4c/output_inception_4c/output_0_split_0
I1217 19:38:08.785429 15822 net.cpp:338] inception_4c/output_inception_4c/output_0_split -> inception_4c/output_inception_4c/output_0_split_1
I1217 19:38:08.785439 15822 net.cpp:338] inception_4c/output_inception_4c/output_0_split -> inception_4c/output_inception_4c/output_0_split_2
I1217 19:38:08.785452 15822 net.cpp:338] inception_4c/output_inception_4c/output_0_split -> inception_4c/output_inception_4c/output_0_split_3
I1217 19:38:08.785461 15822 net.cpp:113] Setting up inception_4c/output_inception_4c/output_0_split
I1217 19:38:08.785473 15822 net.cpp:120] Top shape: 50 512 14 14 (5017600)
I1217 19:38:08.785482 15822 net.cpp:120] Top shape: 50 512 14 14 (5017600)
I1217 19:38:08.785490 15822 net.cpp:120] Top shape: 50 512 14 14 (5017600)
I1217 19:38:08.785498 15822 net.cpp:120] Top shape: 50 512 14 14 (5017600)
I1217 19:38:08.785506 15822 layer_factory.hpp:74] Creating layer inception_4d/1x1
I1217 19:38:08.785519 15822 net.cpp:84] Creating Layer inception_4d/1x1
I1217 19:38:08.785527 15822 net.cpp:380] inception_4d/1x1 <- inception_4c/output_inception_4c/output_0_split_0
I1217 19:38:08.785537 15822 net.cpp:338] inception_4d/1x1 -> inception_4d/1x1
I1217 19:38:08.785549 15822 net.cpp:113] Setting up inception_4d/1x1
I1217 19:38:08.786792 15822 net.cpp:120] Top shape: 50 112 14 14 (1097600)
I1217 19:38:08.786823 15822 layer_factory.hpp:74] Creating layer inception_4d/relu_1x1
I1217 19:38:08.786834 15822 net.cpp:84] Creating Layer inception_4d/relu_1x1
I1217 19:38:08.786841 15822 net.cpp:380] inception_4d/relu_1x1 <- inception_4d/1x1
I1217 19:38:08.786854 15822 net.cpp:327] inception_4d/relu_1x1 -> inception_4d/1x1 (in-place)
I1217 19:38:08.786864 15822 net.cpp:113] Setting up inception_4d/relu_1x1
I1217 19:38:08.786963 15822 net.cpp:120] Top shape: 50 112 14 14 (1097600)
I1217 19:38:08.786975 15822 layer_factory.hpp:74] Creating layer inception_4d/3x3_reduce
I1217 19:38:08.786989 15822 net.cpp:84] Creating Layer inception_4d/3x3_reduce
I1217 19:38:08.786998 15822 net.cpp:380] inception_4d/3x3_reduce <- inception_4c/output_inception_4c/output_0_split_1
I1217 19:38:08.787009 15822 net.cpp:338] inception_4d/3x3_reduce -> inception_4d/3x3_reduce
I1217 19:38:08.787020 15822 net.cpp:113] Setting up inception_4d/3x3_reduce
I1217 19:38:08.788478 15822 net.cpp:120] Top shape: 50 144 14 14 (1411200)
I1217 19:38:08.788502 15822 layer_factory.hpp:74] Creating layer inception_4d/relu_3x3_reduce
I1217 19:38:08.788513 15822 net.cpp:84] Creating Layer inception_4d/relu_3x3_reduce
I1217 19:38:08.788522 15822 net.cpp:380] inception_4d/relu_3x3_reduce <- inception_4d/3x3_reduce
I1217 19:38:08.788533 15822 net.cpp:327] inception_4d/relu_3x3_reduce -> inception_4d/3x3_reduce (in-place)
I1217 19:38:08.788544 15822 net.cpp:113] Setting up inception_4d/relu_3x3_reduce
I1217 19:38:08.788851 15822 net.cpp:120] Top shape: 50 144 14 14 (1411200)
I1217 19:38:08.788866 15822 layer_factory.hpp:74] Creating layer inception_4d/3x3
I1217 19:38:08.788880 15822 net.cpp:84] Creating Layer inception_4d/3x3
I1217 19:38:08.788888 15822 net.cpp:380] inception_4d/3x3 <- inception_4d/3x3_reduce
I1217 19:38:08.788899 15822 net.cpp:338] inception_4d/3x3 -> inception_4d/3x3
I1217 19:38:08.788911 15822 net.cpp:113] Setting up inception_4d/3x3
I1217 19:38:08.794134 15822 net.cpp:120] Top shape: 50 288 14 14 (2822400)
I1217 19:38:08.794159 15822 layer_factory.hpp:74] Creating layer inception_4d/relu_3x3
I1217 19:38:08.794173 15822 net.cpp:84] Creating Layer inception_4d/relu_3x3
I1217 19:38:08.794180 15822 net.cpp:380] inception_4d/relu_3x3 <- inception_4d/3x3
I1217 19:38:08.794191 15822 net.cpp:327] inception_4d/relu_3x3 -> inception_4d/3x3 (in-place)
I1217 19:38:08.794203 15822 net.cpp:113] Setting up inception_4d/relu_3x3
I1217 19:38:08.794303 15822 net.cpp:120] Top shape: 50 288 14 14 (2822400)
I1217 19:38:08.794312 15822 layer_factory.hpp:74] Creating layer inception_4d/5x5_reduce
I1217 19:38:08.794327 15822 net.cpp:84] Creating Layer inception_4d/5x5_reduce
I1217 19:38:08.794337 15822 net.cpp:380] inception_4d/5x5_reduce <- inception_4c/output_inception_4c/output_0_split_2
I1217 19:38:08.794349 15822 net.cpp:338] inception_4d/5x5_reduce -> inception_4d/5x5_reduce
I1217 19:38:08.794361 15822 net.cpp:113] Setting up inception_4d/5x5_reduce
I1217 19:38:08.795162 15822 net.cpp:120] Top shape: 50 32 14 14 (313600)
I1217 19:38:08.795182 15822 layer_factory.hpp:74] Creating layer inception_4d/relu_5x5_reduce
I1217 19:38:08.795195 15822 net.cpp:84] Creating Layer inception_4d/relu_5x5_reduce
I1217 19:38:08.795204 15822 net.cpp:380] inception_4d/relu_5x5_reduce <- inception_4d/5x5_reduce
I1217 19:38:08.795214 15822 net.cpp:327] inception_4d/relu_5x5_reduce -> inception_4d/5x5_reduce (in-place)
I1217 19:38:08.795224 15822 net.cpp:113] Setting up inception_4d/relu_5x5_reduce
I1217 19:38:08.795328 15822 net.cpp:120] Top shape: 50 32 14 14 (313600)
I1217 19:38:08.795339 15822 layer_factory.hpp:74] Creating layer inception_4d/5x5
I1217 19:38:08.795353 15822 net.cpp:84] Creating Layer inception_4d/5x5
I1217 19:38:08.795361 15822 net.cpp:380] inception_4d/5x5 <- inception_4d/5x5_reduce
I1217 19:38:08.795373 15822 net.cpp:338] inception_4d/5x5 -> inception_4d/5x5
I1217 19:38:08.795387 15822 net.cpp:113] Setting up inception_4d/5x5
I1217 19:38:08.796562 15822 net.cpp:120] Top shape: 50 64 14 14 (627200)
I1217 19:38:08.796591 15822 layer_factory.hpp:74] Creating layer inception_4d/relu_5x5
I1217 19:38:08.796612 15822 net.cpp:84] Creating Layer inception_4d/relu_5x5
I1217 19:38:08.796620 15822 net.cpp:380] inception_4d/relu_5x5 <- inception_4d/5x5
I1217 19:38:08.796630 15822 net.cpp:327] inception_4d/relu_5x5 -> inception_4d/5x5 (in-place)
I1217 19:38:08.796641 15822 net.cpp:113] Setting up inception_4d/relu_5x5
I1217 19:38:08.796742 15822 net.cpp:120] Top shape: 50 64 14 14 (627200)
I1217 19:38:08.796752 15822 layer_factory.hpp:74] Creating layer inception_4d/pool
I1217 19:38:08.796761 15822 layer_factory.cpp:56] CUDNN does not support padding or multiple tops. Using Caffe's own pooling layer.
I1217 19:38:08.796769 15822 net.cpp:84] Creating Layer inception_4d/pool
I1217 19:38:08.796777 15822 net.cpp:380] inception_4d/pool <- inception_4c/output_inception_4c/output_0_split_3
I1217 19:38:08.796790 15822 net.cpp:338] inception_4d/pool -> inception_4d/pool
I1217 19:38:08.796802 15822 net.cpp:113] Setting up inception_4d/pool
I1217 19:38:08.796814 15822 net.cpp:120] Top shape: 50 512 14 14 (5017600)
I1217 19:38:08.796821 15822 layer_factory.hpp:74] Creating layer inception_4d/pool_proj
I1217 19:38:08.796834 15822 net.cpp:84] Creating Layer inception_4d/pool_proj
I1217 19:38:08.796841 15822 net.cpp:380] inception_4d/pool_proj <- inception_4d/pool
I1217 19:38:08.796854 15822 net.cpp:338] inception_4d/pool_proj -> inception_4d/pool_proj
I1217 19:38:08.796865 15822 net.cpp:113] Setting up inception_4d/pool_proj
I1217 19:38:08.797827 15822 net.cpp:120] Top shape: 50 64 14 14 (627200)
I1217 19:38:08.797849 15822 layer_factory.hpp:74] Creating layer inception_4d/relu_pool_proj
I1217 19:38:08.797862 15822 net.cpp:84] Creating Layer inception_4d/relu_pool_proj
I1217 19:38:08.797870 15822 net.cpp:380] inception_4d/relu_pool_proj <- inception_4d/pool_proj
I1217 19:38:08.797879 15822 net.cpp:327] inception_4d/relu_pool_proj -> inception_4d/pool_proj (in-place)
I1217 19:38:08.797890 15822 net.cpp:113] Setting up inception_4d/relu_pool_proj
I1217 19:38:08.798194 15822 net.cpp:120] Top shape: 50 64 14 14 (627200)
I1217 19:38:08.798210 15822 layer_factory.hpp:74] Creating layer inception_4d/output
I1217 19:38:08.798221 15822 net.cpp:84] Creating Layer inception_4d/output
I1217 19:38:08.798229 15822 net.cpp:380] inception_4d/output <- inception_4d/1x1
I1217 19:38:08.798238 15822 net.cpp:380] inception_4d/output <- inception_4d/3x3
I1217 19:38:08.798246 15822 net.cpp:380] inception_4d/output <- inception_4d/5x5
I1217 19:38:08.798254 15822 net.cpp:380] inception_4d/output <- inception_4d/pool_proj
I1217 19:38:08.798264 15822 net.cpp:338] inception_4d/output -> inception_4d/output
I1217 19:38:08.798275 15822 net.cpp:113] Setting up inception_4d/output
I1217 19:38:08.798286 15822 net.cpp:120] Top shape: 50 528 14 14 (5174400)
I1217 19:38:08.798295 15822 layer_factory.hpp:74] Creating layer inception_4d/output_inception_4d/output_0_split
I1217 19:38:08.798307 15822 net.cpp:84] Creating Layer inception_4d/output_inception_4d/output_0_split
I1217 19:38:08.798315 15822 net.cpp:380] inception_4d/output_inception_4d/output_0_split <- inception_4d/output
I1217 19:38:08.798326 15822 net.cpp:338] inception_4d/output_inception_4d/output_0_split -> inception_4d/output_inception_4d/output_0_split_0
I1217 19:38:08.798337 15822 net.cpp:338] inception_4d/output_inception_4d/output_0_split -> inception_4d/output_inception_4d/output_0_split_1
I1217 19:38:08.798348 15822 net.cpp:338] inception_4d/output_inception_4d/output_0_split -> inception_4d/output_inception_4d/output_0_split_2
I1217 19:38:08.798360 15822 net.cpp:338] inception_4d/output_inception_4d/output_0_split -> inception_4d/output_inception_4d/output_0_split_3
I1217 19:38:08.798370 15822 net.cpp:338] inception_4d/output_inception_4d/output_0_split -> inception_4d/output_inception_4d/output_0_split_4
I1217 19:38:08.798380 15822 net.cpp:113] Setting up inception_4d/output_inception_4d/output_0_split
I1217 19:38:08.798394 15822 net.cpp:120] Top shape: 50 528 14 14 (5174400)
I1217 19:38:08.798409 15822 net.cpp:120] Top shape: 50 528 14 14 (5174400)
I1217 19:38:08.798426 15822 net.cpp:120] Top shape: 50 528 14 14 (5174400)
I1217 19:38:08.798435 15822 net.cpp:120] Top shape: 50 528 14 14 (5174400)
I1217 19:38:08.798444 15822 net.cpp:120] Top shape: 50 528 14 14 (5174400)
I1217 19:38:08.798450 15822 layer_factory.hpp:74] Creating layer loss2/ave_pool
I1217 19:38:08.798460 15822 net.cpp:84] Creating Layer loss2/ave_pool
I1217 19:38:08.798467 15822 net.cpp:380] loss2/ave_pool <- inception_4d/output_inception_4d/output_0_split_0
I1217 19:38:08.798480 15822 net.cpp:338] loss2/ave_pool -> loss2/ave_pool
I1217 19:38:08.798491 15822 net.cpp:113] Setting up loss2/ave_pool
I1217 19:38:08.798598 15822 net.cpp:120] Top shape: 50 528 4 4 (422400)
I1217 19:38:08.798606 15822 layer_factory.hpp:74] Creating layer loss2/conv
I1217 19:38:08.798620 15822 net.cpp:84] Creating Layer loss2/conv
I1217 19:38:08.798629 15822 net.cpp:380] loss2/conv <- loss2/ave_pool
I1217 19:38:08.798642 15822 net.cpp:338] loss2/conv -> loss2/conv
I1217 19:38:08.798655 15822 net.cpp:113] Setting up loss2/conv
I1217 19:38:08.800034 15822 net.cpp:120] Top shape: 50 128 4 4 (102400)
I1217 19:38:08.800053 15822 layer_factory.hpp:74] Creating layer loss2/relu_conv
I1217 19:38:08.800065 15822 net.cpp:84] Creating Layer loss2/relu_conv
I1217 19:38:08.800074 15822 net.cpp:380] loss2/relu_conv <- loss2/conv
I1217 19:38:08.800083 15822 net.cpp:327] loss2/relu_conv -> loss2/conv (in-place)
I1217 19:38:08.800094 15822 net.cpp:113] Setting up loss2/relu_conv
I1217 19:38:08.800189 15822 net.cpp:120] Top shape: 50 128 4 4 (102400)
I1217 19:38:08.800199 15822 layer_factory.hpp:74] Creating layer loss2/fc
I1217 19:38:08.800214 15822 net.cpp:84] Creating Layer loss2/fc
I1217 19:38:08.800220 15822 net.cpp:380] loss2/fc <- loss2/conv
I1217 19:38:08.800230 15822 net.cpp:338] loss2/fc -> loss2/fc
I1217 19:38:08.800243 15822 net.cpp:113] Setting up loss2/fc
I1217 19:38:08.824934 15822 net.cpp:120] Top shape: 50 1024 (51200)
I1217 19:38:08.824970 15822 layer_factory.hpp:74] Creating layer loss2/relu_fc
I1217 19:38:08.824986 15822 net.cpp:84] Creating Layer loss2/relu_fc
I1217 19:38:08.824996 15822 net.cpp:380] loss2/relu_fc <- loss2/fc
I1217 19:38:08.825008 15822 net.cpp:327] loss2/relu_fc -> loss2/fc (in-place)
I1217 19:38:08.825021 15822 net.cpp:113] Setting up loss2/relu_fc
I1217 19:38:08.825158 15822 net.cpp:120] Top shape: 50 1024 (51200)
I1217 19:38:08.825178 15822 layer_factory.hpp:74] Creating layer loss2/drop_fc
I1217 19:38:08.825191 15822 net.cpp:84] Creating Layer loss2/drop_fc
I1217 19:38:08.825201 15822 net.cpp:380] loss2/drop_fc <- loss2/fc
I1217 19:38:08.825214 15822 net.cpp:327] loss2/drop_fc -> loss2/fc (in-place)
I1217 19:38:08.825227 15822 net.cpp:113] Setting up loss2/drop_fc
I1217 19:38:08.825240 15822 net.cpp:120] Top shape: 50 1024 (51200)
I1217 19:38:08.825248 15822 layer_factory.hpp:74] Creating layer loss2/classifier_kaggle
I1217 19:38:08.825261 15822 net.cpp:84] Creating Layer loss2/classifier_kaggle
I1217 19:38:08.825268 15822 net.cpp:380] loss2/classifier_kaggle <- loss2/fc
I1217 19:38:08.825283 15822 net.cpp:338] loss2/classifier_kaggle -> loss2/classifier_kaggle
I1217 19:38:08.825295 15822 net.cpp:113] Setting up loss2/classifier_kaggle
I1217 19:38:08.831006 15822 net.cpp:120] Top shape: 50 447 (22350)
I1217 19:38:08.831022 15822 layer_factory.hpp:74] Creating layer loss2/classifier_kaggle_loss2/classifier_kaggle_0_split
I1217 19:38:08.831037 15822 net.cpp:84] Creating Layer loss2/classifier_kaggle_loss2/classifier_kaggle_0_split
I1217 19:38:08.831044 15822 net.cpp:380] loss2/classifier_kaggle_loss2/classifier_kaggle_0_split <- loss2/classifier_kaggle
I1217 19:38:08.831055 15822 net.cpp:338] loss2/classifier_kaggle_loss2/classifier_kaggle_0_split -> loss2/classifier_kaggle_loss2/classifier_kaggle_0_split_0
I1217 19:38:08.831068 15822 net.cpp:338] loss2/classifier_kaggle_loss2/classifier_kaggle_0_split -> loss2/classifier_kaggle_loss2/classifier_kaggle_0_split_1
I1217 19:38:08.831078 15822 net.cpp:338] loss2/classifier_kaggle_loss2/classifier_kaggle_0_split -> loss2/classifier_kaggle_loss2/classifier_kaggle_0_split_2
I1217 19:38:08.831109 15822 net.cpp:113] Setting up loss2/classifier_kaggle_loss2/classifier_kaggle_0_split
I1217 19:38:08.831120 15822 net.cpp:120] Top shape: 50 447 (22350)
I1217 19:38:08.831128 15822 net.cpp:120] Top shape: 50 447 (22350)
I1217 19:38:08.831136 15822 net.cpp:120] Top shape: 50 447 (22350)
I1217 19:38:08.831143 15822 layer_factory.hpp:74] Creating layer loss2/loss
I1217 19:38:08.831156 15822 net.cpp:84] Creating Layer loss2/loss
I1217 19:38:08.831162 15822 net.cpp:380] loss2/loss <- loss2/classifier_kaggle_loss2/classifier_kaggle_0_split_0
I1217 19:38:08.831172 15822 net.cpp:380] loss2/loss <- label_data_1_split_3
I1217 19:38:08.831182 15822 net.cpp:338] loss2/loss -> loss2/loss1
…
I1217 19:38:08.835228 15822 net.cpp:338] loss2/top-5 -> loss2/top-5
I1217 19:38:08.835238 15822 net.cpp:113] Setting up loss2/top-5
I1217 19:38:08.835247 15822 net.cpp:120] Top shape: (1)
I1217 19:38:08.835254 15822 layer_factory.hpp:74] Creating layer inception_4e/1x1
I1217 19:38:08.835269 15822 net.cpp:84] Creating Layer inception_4e/1x1
I1217 19:38:08.835278 15822 net.cpp:380] inception_4e/1x1 <- inception_4d/output_inception_4d/output_0_split_1
I1217 19:38:08.835289 15822 net.cpp:338] inception_4e/1x1 -> inception_4e/1x1
I1217 19:38:08.835301 15822 net.cpp:113] Setting up inception_4e/1x1
I1217 19:38:08.845698 15822 net.cpp:120] Top shape: 50 256 14 14 (2508800)
I1217 19:38:08.845722 15822 layer_factory.hpp:74] Creating layer inception_4e/relu_1x1
I1217 19:38:08.845736 15822 net.cpp:84] Creating Layer inception_4e/relu_1x1
I1217 19:38:08.845746 15822 net.cpp:380] inception_4e/relu_1x1 <- inception_4e/1x1
I1217 19:38:08.845755 15822 net.cpp:327] inception_4e/relu_1x1 -> inception_4e/1x1 (in-place)
I1217 19:38:08.845767 15822 net.cpp:113] Setting up inception_4e/relu_1x1
I1217 19:38:08.845870 15822 net.cpp:120] Top shape: 50 256 14 14 (2508800)
I1217 19:38:08.845878 15822 layer_factory.hpp:74] Creating layer inception_4e/3x3_reduce
I1217 19:38:08.845957 15822 net.cpp:84] Creating Layer inception_4e/3x3_reduce
I1217 19:38:08.845964 15822 net.cpp:380] inception_4e/3x3_reduce <- inception_4d/output_inception_4d/output_0_split_2
I1217 19:38:08.845983 15822 net.cpp:338] inception_4e/3x3_reduce -> inception_4e/3x3_reduce
I1217 19:38:08.845995 15822 net.cpp:113] Setting up inception_4e/3x3_reduce
I1217 19:38:08.848088 15822 net.cpp:120] Top shape: 50 160 14 14 (1568000)
I1217 19:38:08.848114 15822 layer_factory.hpp:74] Creating layer inception_4e/relu_3x3_reduce
I1217 19:38:08.848126 15822 net.cpp:84] Creating Layer inception_4e/relu_3x3_reduce
I1217 19:38:08.848135 15822 net.cpp:380] inception_4e/relu_3x3_reduce <- inception_4e/3x3_reduce
I1217 19:38:08.848145 15822 net.cpp:327] inception_4e/relu_3x3_reduce -> inception_4e/3x3_reduce (in-place)
I1217 19:38:08.848156 15822 net.cpp:113] Setting up inception_4e/relu_3x3_reduce
I1217 19:38:08.848259 15822 net.cpp:120] Top shape: 50 160 14 14 (1568000)
I1217 19:38:08.848275 15822 layer_factory.hpp:74] Creating layer inception_4e/3x3
I1217 19:38:08.848300 15822 net.cpp:84] Creating Layer inception_4e/3x3
I1217 19:38:08.848309 15822 net.cpp:380] inception_4e/3x3 <- inception_4e/3x3_reduce
I1217 19:38:08.848321 15822 net.cpp:338] inception_4e/3x3 -> inception_4e/3x3
I1217 19:38:08.848333 15822 net.cpp:113] Setting up inception_4e/3x3
I1217 19:38:08.854794 15822 net.cpp:120] Top shape: 50 320 14 14 (3136000)
I1217 19:38:08.854820 15822 layer_factory.hpp:74] Creating layer inception_4e/relu_3x3
I1217 19:38:08.854831 15822 net.cpp:84] Creating Layer inception_4e/relu_3x3
I1217 19:38:08.854840 15822 net.cpp:380] inception_4e/relu_3x3 <- inception_4e/3x3
I1217 19:38:08.854851 15822 net.cpp:327] inception_4e/relu_3x3 -> inception_4e/3x3 (in-place)
I1217 19:38:08.854861 15822 net.cpp:113] Setting up inception_4e/relu_3x3
I1217 19:38:08.855159 15822 net.cpp:120] Top shape: 50 320 14 14 (3136000)
I1217 19:38:08.855173 15822 layer_factory.hpp:74] Creating layer inception_4e/5x5_reduce
I1217 19:38:08.855186 15822 net.cpp:84] Creating Layer inception_4e/5x5_reduce
I1217 19:38:08.855195 15822 net.cpp:380] inception_4e/5x5_reduce <- inception_4d/output_inception_4d/output_0_split_3
I1217 19:38:08.855207 15822 net.cpp:338] inception_4e/5x5_reduce -> inception_4e/5x5_reduce
I1217 19:38:08.855219 15822 net.cpp:113] Setting up inception_4e/5x5_reduce
I1217 19:38:08.855944 15822 net.cpp:120] Top shape: 50 32 14 14 (313600)
I1217 19:38:08.855964 15822 layer_factory.hpp:74] Creating layer inception_4e/relu_5x5_reduce
I1217 19:38:08.855978 15822 net.cpp:84] Creating Layer inception_4e/relu_5x5_reduce
I1217 19:38:08.855985 15822 net.cpp:380] inception_4e/relu_5x5_reduce <- inception_4e/5x5_reduce
I1217 19:38:08.855995 15822 net.cpp:327] inception_4e/relu_5x5_reduce -> inception_4e/5x5_reduce (in-place)
I1217 19:38:08.856005 15822 net.cpp:113] Setting up inception_4e/relu_5x5_reduce
I1217 19:38:08.856107 15822 net.cpp:120] Top shape: 50 32 14 14 (313600)
I1217 19:38:08.856117 15822 layer_factory.hpp:74] Creating layer inception_4e/5x5
I1217 19:38:08.856132 15822 net.cpp:84] Creating Layer inception_4e/5x5
I1217 19:38:08.856138 15822 net.cpp:380] inception_4e/5x5 <- inception_4e/5x5_reduce
I1217 19:38:08.856149 15822 net.cpp:338] inception_4e/5x5 -> inception_4e/5x5
I1217 19:38:08.856160 15822 net.cpp:113] Setting up inception_4e/5x5
I1217 19:38:08.857988 15822 net.cpp:120] Top shape: 50 128 14 14 (1254400)
I1217 19:38:08.858011 15822 layer_factory.hpp:74] Creating layer inception_4e/relu_5x5
I1217 19:38:08.858021 15822 net.cpp:84] Creating Layer inception_4e/relu_5x5
I1217 19:38:08.858029 15822 net.cpp:380] inception_4e/relu_5x5 <- inception_4e/5x5
I1217 19:38:08.858042 15822 net.cpp:327] inception_4e/relu_5x5 -> inception_4e/5x5 (in-place)
I1217 19:38:08.858052 15822 net.cpp:113] Setting up inception_4e/relu_5x5
I1217 19:38:08.858150 15822 net.cpp:120] Top shape: 50 128 14 14 (1254400)
I1217 19:38:08.858160 15822 layer_factory.hpp:74] Creating layer inception_4e/pool
I1217 19:38:08.858168 15822 layer_factory.cpp:56] CUDNN does not support padding or multiple tops. Using Caffe's own pooling layer.
I1217 19:38:08.858178 15822 net.cpp:84] Creating Layer inception_4e/pool
I1217 19:38:08.858186 15822 net.cpp:380] inception_4e/pool <- inception_4d/output_inception_4d/output_0_split_4
I1217 19:38:08.858197 15822 net.cpp:338] inception_4e/pool -> inception_4e/pool
I1217 19:38:08.858209 15822 net.cpp:113] Setting up inception_4e/pool
I1217 19:38:08.858222 15822 net.cpp:120] Top shape: 50 528 14 14 (5174400)
I1217 19:38:08.858229 15822 layer_factory.hpp:74] Creating layer inception_4e/pool_proj
I1217 19:38:08.858243 15822 net.cpp:84] Creating Layer inception_4e/pool_proj
I1217 19:38:08.858252 15822 net.cpp:380] inception_4e/pool_proj <- inception_4e/pool
I1217 19:38:08.858261 15822 net.cpp:338] inception_4e/pool_proj -> inception_4e/pool_proj
I1217 19:38:08.858273 15822 net.cpp:113] Setting up inception_4e/pool_proj
I1217 19:38:08.859654 15822 net.cpp:120] Top shape: 50 128 14 14 (1254400)
I1217 19:38:08.859680 15822 layer_factory.hpp:74] Creating layer inception_4e/relu_pool_proj
I1217 19:38:08.859699 15822 net.cpp:84] Creating Layer inception_4e/relu_pool_proj
I1217 19:38:08.859710 15822 net.cpp:380] inception_4e/relu_pool_proj <- inception_4e/pool_proj
I1217 19:38:08.859720 15822 net.cpp:327] inception_4e/relu_pool_proj -> inception_4e/pool_proj (in-place)
I1217 19:38:08.859730 15822 net.cpp:113] Setting up inception_4e/relu_pool_proj
I1217 19:38:08.859828 15822 net.cpp:120] Top shape: 50 128 14 14 (1254400)
I1217 19:38:08.859838 15822 layer_factory.hpp:74] Creating layer inception_4e/output
I1217 19:38:08.859848 15822 net.cpp:84] Creating Layer inception_4e/output
I1217 19:38:08.859858 15822 net.cpp:380] inception_4e/output <- inception_4e/1x1
I1217 19:38:08.859866 15822 net.cpp:380] inception_4e/output <- inception_4e/3x3
I1217 19:38:08.859874 15822 net.cpp:380] inception_4e/output <- inception_4e/5x5
I1217 19:38:08.859882 15822 net.cpp:380] inception_4e/output <- inception_4e/pool_proj
I1217 19:38:08.859891 15822 net.cpp:338] inception_4e/output -> inception_4e/output
I1217 19:38:08.859902 15822 net.cpp:113] Setting up inception_4e/output
I1217 19:38:08.859913 15822 net.cpp:120] Top shape: 50 832 14 14 (8153600)
I1217 19:38:08.859920 15822 layer_factory.hpp:74] Creating layer pool4/3x3_s2
I1217 19:38:08.859930 15822 net.cpp:84] Creating Layer pool4/3x3_s2
I1217 19:38:08.859937 15822 net.cpp:380] pool4/3x3_s2 <- inception_4e/output
I1217 19:38:08.859947 15822 net.cpp:338] pool4/3x3_s2 -> pool4/3x3_s2
I1217 19:38:08.859961 15822 net.cpp:113] Setting up pool4/3x3_s2
I1217 19:38:08.860272 15822 net.cpp:120] Top shape: 50 832 7 7 (2038400)
I1217 19:38:08.860287 15822 layer_factory.hpp:74] Creating layer pool4/3x3_s2_pool4/3x3_s2_0_split
I1217 19:38:08.860301 15822 net.cpp:84] Creating Layer pool4/3x3_s2_pool4/3x3_s2_0_split
I1217 19:38:08.860309 15822 net.cpp:380] pool4/3x3_s2_pool4/3x3_s2_0_split <- pool4/3x3_s2
I1217 19:38:08.860321 15822 net.cpp:338] pool4/3x3_s2_pool4/3x3_s2_0_split -> pool4/3x3_s2_pool4/3x3_s2_0_split_0
I1217 19:38:08.860332 15822 net.cpp:338] pool4/3x3_s2_pool4/3x3_s2_0_split -> pool4/3x3_s2_pool4/3x3_s2_0_split_1
I1217 19:38:08.860342 15822 net.cpp:338] pool4/3x3_s2_pool4/3x3_s2_0_split -> pool4/3x3_s2_pool4/3x3_s2_0_split_2
I1217 19:38:08.860389 15822 net.cpp:338] pool4/3x3_s2_pool4/3x3_s2_0_split -> pool4/3x3_s2_pool4/3x3_s2_0_split_3
I1217 19:38:08.860399 15822 net.cpp:113] Setting up pool4/3x3_s2_pool4/3x3_s2_0_split
I1217 19:38:08.860411 15822 net.cpp:120] Top shape: 50 832 7 7 (2038400)
I1217 19:38:08.860419 15822 net.cpp:120] Top shape: 50 832 7 7 (2038400)
I1217 19:38:08.860431 15822 net.cpp:120] Top shape: 50 832 7 7 (2038400)
I1217 19:38:08.860440 15822 net.cpp:120] Top shape: 50 832 7 7 (2038400)
I1217 19:38:08.860446 15822 layer_factory.hpp:74] Creating layer inception_5a/1x1
I1217 19:38:08.860460 15822 net.cpp:84] Creating Layer inception_5a/1x1
I1217 19:38:08.860466 15822 net.cpp:380] inception_5a/1x1 <- pool4/3x3_s2_pool4/3x3_s2_0_split_0
I1217 19:38:08.860479 15822 net.cpp:338] inception_5a/1x1 -> inception_5a/1x1
I1217 19:38:08.860491 15822 net.cpp:113] Setting up inception_5a/1x1
I1217 19:38:08.863694 15822 net.cpp:120] Top shape: 50 256 7 7 (627200)
I1217 19:38:08.863715 15822 layer_factory.hpp:74] Creating layer inception_5a/relu_1x1
I1217 19:38:08.863726 15822 net.cpp:84] Creating Layer inception_5a/relu_1x1
I1217 19:38:08.863734 15822 net.cpp:380] inception_5a/relu_1x1 <- inception_5a/1x1
I1217 19:38:08.863744 15822 net.cpp:327] inception_5a/relu_1x1 -> inception_5a/1x1 (in-place)
I1217 19:38:08.863755 15822 net.cpp:113] Setting up inception_5a/relu_1x1
I1217 19:38:08.863854 15822 net.cpp:120] Top shape: 50 256 7 7 (627200)
I1217 19:38:08.863863 15822 layer_factory.hpp:74] Creating layer inception_5a/3x3_reduce
I1217 19:38:08.863875 15822 net.cpp:84] Creating Layer inception_5a/3x3_reduce
I1217 19:38:08.863883 15822 net.cpp:380] inception_5a/3x3_reduce <- pool4/3x3_s2_pool4/3x3_s2_0_split_1
I1217 19:38:08.863896 15822 net.cpp:338] inception_5a/3x3_reduce -> inception_5a/3x3_reduce
I1217 19:38:08.863915 15822 net.cpp:113] Setting up inception_5a/3x3_reduce
I1217 19:38:08.866427 15822 net.cpp:120] Top shape: 50 160 7 7 (392000)
I1217 19:38:08.866451 15822 layer_factory.hpp:74] Creating layer inception_5a/relu_3x3_reduce
I1217 19:38:08.866464 15822 net.cpp:84] Creating Layer inception_5a/relu_3x3_reduce
I1217 19:38:08.866472 15822 net.cpp:380] inception_5a/relu_3x3_reduce <- inception_5a/3x3_reduce
I1217 19:38:08.866482 15822 net.cpp:327] inception_5a/relu_3x3_reduce -> inception_5a/3x3_reduce (in-place)
I1217 19:38:08.866494 15822 net.cpp:113] Setting up inception_5a/relu_3x3_reduce
I1217 19:38:08.866595 15822 net.cpp:120] Top shape: 50 160 7 7 (392000)
I1217 19:38:08.866605 15822 layer_factory.hpp:74] Creating layer inception_5a/3x3
I1217 19:38:08.866619 15822 net.cpp:84] Creating Layer inception_5a/3x3
I1217 19:38:08.866627 15822 net.cpp:380] inception_5a/3x3 <- inception_5a/3x3_reduce
I1217 19:38:08.866638 15822 net.cpp:338] inception_5a/3x3 -> inception_5a/3x3
I1217 19:38:08.866650 15822 net.cpp:113] Setting up inception_5a/3x3
I1217 19:38:08.872948 15822 net.cpp:120] Top shape: 50 320 7 7 (784000)
I1217 19:38:08.872972 15822 layer_factory.hpp:74] Creating layer inception_5a/relu_3x3
I1217 19:38:08.872982 15822 net.cpp:84] Creating Layer inception_5a/relu_3x3
I1217 19:38:08.872990 15822 net.cpp:380] inception_5a/relu_3x3 <- inception_5a/3x3
I1217 19:38:08.873003 15822 net.cpp:327] inception_5a/relu_3x3 -> inception_5a/3x3 (in-place)
I1217 19:38:08.873014 15822 net.cpp:113] Setting up inception_5a/relu_3x3
I1217 19:38:08.873122 15822 net.cpp:120] Top shape: 50 320 7 7 (784000)
I1217 19:38:08.873133 15822 layer_factory.hpp:74] Creating layer inception_5a/5x5_reduce
I1217 19:38:08.873148 15822 net.cpp:84] Creating Layer inception_5a/5x5_reduce
I1217 19:38:08.873157 15822 net.cpp:380] inception_5a/5x5_reduce <- pool4/3x3_s2_pool4/3x3_s2_0_split_2
I1217 19:38:08.873167 15822 net.cpp:338] inception_5a/5x5_reduce -> inception_5a/5x5_reduce
I1217 19:38:08.873179 15822 net.cpp:113] Setting up inception_5a/5x5_reduce
I1217 19:38:08.874326 15822 net.cpp:120] Top shape: 50 32 7 7 (78400)
I1217 19:38:08.874348 15822 layer_factory.hpp:74] Creating layer inception_5a/relu_5x5_reduce
I1217 19:38:08.874364 15822 net.cpp:84] Creating Layer inception_5a/relu_5x5_reduce
I1217 19:38:08.874373 15822 net.cpp:380] inception_5a/relu_5x5_reduce <- inception_5a/5x5_reduce
I1217 19:38:08.874383 15822 net.cpp:327] inception_5a/relu_5x5_reduce -> inception_5a/5x5_reduce (in-place)
I1217 19:38:08.874394 15822 net.cpp:113] Setting up inception_5a/relu_5x5_reduce
I1217 19:38:08.874696 15822 net.cpp:120] Top shape: 50 32 7 7 (78400)
I1217 19:38:08.874711 15822 layer_factory.hpp:74] Creating layer inception_5a/5x5
I1217 19:38:08.874725 15822 net.cpp:84] Creating Layer inception_5a/5x5
I1217 19:38:08.874734 15822 net.cpp:380] inception_5a/5x5 <- inception_5a/5x5_reduce
I1217 19:38:08.874745 15822 net.cpp:338] inception_5a/5x5 -> inception_5a/5x5
I1217 19:38:08.874758 15822 net.cpp:113] Setting up inception_5a/5x5
I1217 19:38:08.876567 15822 net.cpp:120] Top shape: 50 128 7 7 (313600)
I1217 19:38:08.876588 15822 layer_factory.hpp:74] Creating layer inception_5a/relu_5x5
I1217 19:38:08.876600 15822 net.cpp:84] Creating Layer inception_5a/relu_5x5
I1217 19:38:08.876607 15822 net.cpp:380] inception_5a/relu_5x5 <- inception_5a/5x5
I1217 19:38:08.876619 15822 net.cpp:327] inception_5a/relu_5x5 -> inception_5a/5x5 (in-place)
I1217 19:38:08.876631 15822 net.cpp:113] Setting up inception_5a/relu_5x5
I1217 19:38:08.876729 15822 net.cpp:120] Top shape: 50 128 7 7 (313600)
I1217 19:38:08.876739 15822 layer_factory.hpp:74] Creating layer inception_5a/pool
I1217 19:38:08.876746 15822 layer_factory.cpp:56] CUDNN does not support padding or multiple tops. Using Caffe's own pooling layer.
I1217 19:38:08.876759 15822 net.cpp:84] Creating Layer inception_5a/pool
I1217 19:38:08.876766 15822 net.cpp:380] inception_5a/pool <- pool4/3x3_s2_pool4/3x3_s2_0_split_3
I1217 19:38:08.876776 15822 net.cpp:338] inception_5a/pool -> inception_5a/pool
I1217 19:38:08.876793 15822 net.cpp:113] Setting up inception_5a/pool
I1217 19:38:08.876819 15822 net.cpp:120] Top shape: 50 832 7 7 (2038400)
I1217 19:38:08.876827 15822 layer_factory.hpp:74] Creating layer inception_5a/pool_proj
I1217 19:38:08.876840 15822 net.cpp:84] Creating Layer inception_5a/pool_proj
I1217 19:38:08.876847 15822 net.cpp:380] inception_5a/pool_proj <- inception_5a/pool
I1217 19:38:08.876860 15822 net.cpp:338] inception_5a/pool_proj -> inception_5a/pool_proj
I1217 19:38:08.876871 15822 net.cpp:113] Setting up inception_5a/pool_proj
I1217 19:38:08.878746 15822 net.cpp:120] Top shape: 50 128 7 7 (313600)
I1217 19:38:08.878767 15822 layer_factory.hpp:74] Creating layer inception_5a/relu_pool_proj
I1217 19:38:08.878782 15822 net.cpp:84] Creating Layer inception_5a/relu_pool_proj
I1217 19:38:08.878790 15822 net.cpp:380] inception_5a/relu_pool_proj <- inception_5a/pool_proj
I1217 19:38:08.878800 15822 net.cpp:327] inception_5a/relu_pool_proj -> inception_5a/pool_proj (in-place)
I1217 19:38:08.878811 15822 net.cpp:113] Setting up inception_5a/relu_pool_proj
I1217 19:38:08.878911 15822 net.cpp:120] Top shape: 50 128 7 7 (313600)
I1217 19:38:08.878921 15822 layer_factory.hpp:74] Creating layer inception_5a/output
I1217 19:38:08.878933 15822 net.cpp:84] Creating Layer inception_5a/output
I1217 19:38:08.878942 15822 net.cpp:380] inception_5a/output <- inception_5a/1x1
I1217 19:38:08.878950 15822 net.cpp:380] inception_5a/output <- inception_5a/3x3
I1217 19:38:08.878958 15822 net.cpp:380] inception_5a/output <- inception_5a/5x5
I1217 19:38:08.878965 15822 net.cpp:380] inception_5a/output <- inception_5a/pool_proj
I1217 19:38:08.878975 15822 net.cpp:338] inception_5a/output -> inception_5a/output
I1217 19:38:08.878985 15822 net.cpp:113] Setting up inception_5a/output
I1217 19:38:08.878996 15822 net.cpp:120] Top shape: 50 832 7 7 (2038400)
I1217 19:38:08.879004 15822 layer_factory.hpp:74] Creating layer inception_5a/output_inception_5a/output_0_split
I1217 19:38:08.879014 15822 net.cpp:84] Creating Layer inception_5a/output_inception_5a/output_0_split
I1217 19:38:08.879021 15822 net.cpp:380] inception_5a/output_inception_5a/output_0_split <- inception_5a/output
I1217 19:38:08.879030 15822 net.cpp:338] inception_5a/output_inception_5a/output_0_split -> inception_5a/output_inception_5a/output_0_split_0
I1217 19:38:08.879043 15822 net.cpp:338] inception_5a/output_inception_5a/output_0_split -> inception_5a/output_inception_5a/output_0_split_1
I1217 19:38:08.879055 15822 net.cpp:338] inception_5a/output_inception_5a/output_0_split -> inception_5a/output_inception_5a/output_0_split_2
I1217 19:38:08.879065 15822 net.cpp:338] inception_5a/output_inception_5a/output_0_split -> inception_5a/output_inception_5a/output_0_split_3
I1217 19:38:08.879075 15822 net.cpp:113] Setting up inception_5a/output_inception_5a/output_0_split
I1217 19:38:08.879086 15822 net.cpp:120] Top shape: 50 832 7 7 (2038400)
I1217 19:38:08.879094 15822 net.cpp:120] Top shape: 50 832 7 7 (2038400)
I1217 19:38:08.879102 15822 net.cpp:120] Top shape: 50 832 7 7 (2038400)
I1217 19:38:08.879111 15822 net.cpp:120] Top shape: 50 832 7 7 (2038400)
I1217 19:38:08.879117 15822 layer_factory.hpp:74] Creating layer inception_5b/1x1
I1217 19:38:08.879130 15822 net.cpp:84] Creating Layer inception_5b/1x1
I1217 19:38:08.879138 15822 net.cpp:380] inception_5b/1x1 <- inception_5a/output_inception_5a/output_0_split_0
I1217 19:38:08.879148 15822 net.cpp:338] inception_5b/1x1 -> inception_5b/1x1
I1217 19:38:08.879159 15822 net.cpp:113] Setting up inception_5b/1x1
I1217 19:38:08.883692 15822 net.cpp:120] Top shape: 50 384 7 7 (940800)
I1217 19:38:08.883716 15822 layer_factory.hpp:74] Creating layer inception_5b/relu_1x1
I1217 19:38:08.883728 15822 net.cpp:84] Creating Layer inception_5b/relu_1x1
I1217 19:38:08.883736 15822 net.cpp:380] inception_5b/relu_1x1 <- inception_5b/1x1
I1217 19:38:08.883746 15822 net.cpp:327] inception_5b/relu_1x1 -> inception_5b/1x1 (in-place)
I1217 19:38:08.883757 15822 net.cpp:113] Setting up inception_5b/relu_1x1
I1217 19:38:08.883867 15822 net.cpp:120] Top shape: 50 384 7 7 (940800)
I1217 19:38:08.883888 15822 layer_factory.hpp:74] Creating layer inception_5b/3x3_reduce
I1217 19:38:08.883903 15822 net.cpp:84] Creating Layer inception_5b/3x3_reduce
I1217 19:38:08.883910 15822 net.cpp:380] inception_5b/3x3_reduce <- inception_5a/output_inception_5a/output_0_split_1
I1217 19:38:08.883921 15822 net.cpp:338] inception_5b/3x3_reduce -> inception_5b/3x3_reduce
I1217 19:38:08.883934 15822 net.cpp:113] Setting up inception_5b/3x3_reduce
I1217 19:38:08.886466 15822 net.cpp:120] Top shape: 50 192 7 7 (470400)
I1217 19:38:08.886487 15822 layer_factory.hpp:74] Creating layer inception_5b/relu_3x3_reduce
I1217 19:38:08.886502 15822 net.cpp:84] Creating Layer inception_5b/relu_3x3_reduce
I1217 19:38:08.886510 15822 net.cpp:380] inception_5b/relu_3x3_reduce <- inception_5b/3x3_reduce
I1217 19:38:08.886520 15822 net.cpp:327] inception_5b/relu_3x3_reduce -> inception_5b/3x3_reduce (in-place)
I1217 19:38:08.886530 15822 net.cpp:113] Setting up inception_5b/relu_3x3_reduce
I1217 19:38:08.886838 15822 net.cpp:120] Top shape: 50 192 7 7 (470400)
I1217 19:38:08.886853 15822 layer_factory.hpp:74] Creating layer inception_5b/3x3
I1217 19:38:08.886867 15822 net.cpp:84] Creating Layer inception_5b/3x3
I1217 19:38:08.886874 15822 net.cpp:380] inception_5b/3x3 <- inception_5b/3x3_reduce
I1217 19:38:08.886888 15822 net.cpp:338] inception_5b/3x3 -> inception_5b/3x3
I1217 19:38:08.886900 15822 net.cpp:113] Setting up inception_5b/3x3
I1217 19:38:08.899988 15822 net.cpp:120] Top shape: 50 384 7 7 (940800)
I1217 19:38:08.900029 15822 layer_factory.hpp:74] Creating layer inception_5b/relu_3x3
I1217 19:38:08.900041 15822 net.cpp:84] Creating Layer inception_5b/relu_3x3
I1217 19:38:08.900049 15822 net.cpp:380] inception_5b/relu_3x3 <- inception_5b/3x3
I1217 19:38:08.900058 15822 net.cpp:327] inception_5b/relu_3x3 -> inception_5b/3x3 (in-place)
I1217 19:38:08.900068 15822 net.cpp:113] Setting up inception_5b/relu_3x3
I1217 19:38:08.900141 15822 net.cpp:120] Top shape: 50 384 7 7 (940800)
I1217 19:38:08.900148 15822 layer_factory.hpp:74] Creating layer inception_5b/5x5_reduce
I1217 19:38:08.900158 15822 net.cpp:84] Creating Layer inception_5b/5x5_reduce
I1217 19:38:08.900164 15822 net.cpp:380] inception_5b/5x5_reduce <- inception_5a/output_inception_5a/output_0_split_2
I1217 19:38:08.900174 15822 net.cpp:338] inception_5b/5x5_reduce -> inception_5b/5x5_reduce
I1217 19:38:08.900182 15822 net.cpp:113] Setting up inception_5b/5x5_reduce
I1217 19:38:08.901046 15822 net.cpp:120] Top shape: 50 48 7 7 (117600)
I1217 19:38:08.901113 15822 layer_factory.hpp:74] Creating layer inception_5b/relu_5x5_reduce
I1217 19:38:08.901131 15822 net.cpp:84] Creating Layer inception_5b/relu_5x5_reduce
I1217 19:38:08.901141 15822 net.cpp:380] inception_5b/relu_5x5_reduce <- inception_5b/5x5_reduce
I1217 19:38:08.901151 15822 net.cpp:327] inception_5b/relu_5x5_reduce -> inception_5b/5x5_reduce (in-place)
I1217 19:38:08.901165 15822 net.cpp:113] Setting up inception_5b/relu_5x5_reduce
I1217 19:38:08.901281 15822 net.cpp:120] Top shape: 50 48 7 7 (117600)
I1217 19:38:08.901300 15822 layer_factory.hpp:74] Creating layer inception_5b/5x5
I1217 19:38:08.901317 15822 net.cpp:84] Creating Layer inception_5b/5x5
I1217 19:38:08.901327 15822 net.cpp:380] inception_5b/5x5 <- inception_5b/5x5_reduce
I1217 19:38:08.901340 15822 net.cpp:338] inception_5b/5x5 -> inception_5b/5x5
I1217 19:38:08.901355 15822 net.cpp:113] Setting up inception_5b/5x5
I1217 19:38:08.903822 15822 net.cpp:120] Top shape: 50 128 7 7 (313600)
I1217 19:38:08.903848 15822 layer_factory.hpp:74] Creating layer inception_5b/relu_5x5
I1217 19:38:08.903867 15822 net.cpp:84] Creating Layer inception_5b/relu_5x5
I1217 19:38:08.903880 15822 net.cpp:380] inception_5b/relu_5x5 <- inception_5b/5x5
I1217 19:38:08.903893 15822 net.cpp:327] inception_5b/relu_5x5 -> inception_5b/5x5 (in-place)
I1217 19:38:08.903908 15822 net.cpp:113] Setting up inception_5b/relu_5x5
I1217 19:38:08.904263 15822 net.cpp:120] Top shape: 50 128 7 7 (313600)
I1217 19:38:08.904295 15822 layer_factory.hpp:74] Creating layer inception_5b/pool
I1217 19:38:08.904325 15822 layer_factory.cpp:56] CUDNN does not support padding or multiple tops. Using Caffe's own pooling layer.
I1217 19:38:08.904341 15822 net.cpp:84] Creating Layer inception_5b/pool
I1217 19:38:08.904352 15822 net.cpp:380] inception_5b/pool <- inception_5a/output_inception_5a/output_0_split_3
I1217 19:38:08.904366 15822 net.cpp:338] inception_5b/pool -> inception_5b/pool
I1217 19:38:08.904381 15822 net.cpp:113] Setting up inception_5b/pool
I1217 19:38:08.904398 15822 net.cpp:120] Top shape: 50 832 7 7 (2038400)
I1217 19:38:08.904408 15822 layer_factory.hpp:74] Creating layer inception_5b/pool_proj
I1217 19:38:08.904425 15822 net.cpp:84] Creating Layer inception_5b/pool_proj
I1217 19:38:08.904436 15822 net.cpp:380] inception_5b/pool_proj <- inception_5b/pool
I1217 19:38:08.904453 15822 net.cpp:338] inception_5b/pool_proj -> inception_5b/pool_proj
I1217 19:38:08.904469 15822 net.cpp:113] Setting up inception_5b/pool_proj
I1217 19:38:08.906374 15822 net.cpp:120] Top shape: 50 128 7 7 (313600)
I1217 19:38:08.906401 15822 layer_factory.hpp:74] Creating layer inception_5b/relu_pool_proj
I1217 19:38:08.906415 15822 net.cpp:84] Creating Layer inception_5b/relu_pool_proj
I1217 19:38:08.906426 15822 net.cpp:380] inception_5b/relu_pool_proj <- inception_5b/pool_proj
I1217 19:38:08.906441 15822 net.cpp:327] inception_5b/relu_pool_proj -> inception_5b/pool_proj (in-place)
I1217 19:38:08.906457 15822 net.cpp:113] Setting up inception_5b/relu_pool_proj
I1217 19:38:08.906576 15822 net.cpp:120] Top shape: 50 128 7 7 (313600)
I1217 19:38:08.906594 15822 layer_factory.hpp:74] Creating layer inception_5b/output
I1217 19:38:08.906606 15822 net.cpp:84] Creating Layer inception_5b/output
I1217 19:38:08.906615 15822 net.cpp:380] inception_5b/output <- inception_5b/1x1
I1217 19:38:08.906626 15822 net.cpp:380] inception_5b/output <- inception_5b/3x3
I1217 19:38:08.906636 15822 net.cpp:380] inception_5b/output <- inception_5b/5x5
I1217 19:38:08.906646 15822 net.cpp:380] inception_5b/output <- inception_5b/pool_proj
I1217 19:38:08.906659 15822 net.cpp:338] inception_5b/output -> inception_5b/output
I1217 19:38:08.906674 15822 net.cpp:113] Setting up inception_5b/output
I1217 19:38:08.906689 15822 net.cpp:120] Top shape: 50 1024 7 7 (2508800)
I1217 19:38:08.906698 15822 layer_factory.hpp:74] Creating layer pool5/7x7_s1
I1217 19:38:08.906710 15822 net.cpp:84] Creating Layer pool5/7x7_s1
I1217 19:38:08.906720 15822 net.cpp:380] pool5/7x7_s1 <- inception_5b/output
I1217 19:38:08.906736 15822 net.cpp:338] pool5/7x7_s1 -> pool5/7x7_s1
I1217 19:38:08.906750 15822 net.cpp:113] Setting up pool5/7x7_s1
I1217 19:38:08.906872 15822 net.cpp:120] Top shape: 50 1024 1 1 (51200)
I1217 19:38:08.906889 15822 layer_factory.hpp:74] Creating layer pool5/drop_7x7_s1
I1217 19:38:08.906905 15822 net.cpp:84] Creating Layer pool5/drop_7x7_s1
I1217 19:38:08.906915 15822 net.cpp:380] pool5/drop_7x7_s1 <- pool5/7x7_s1
I1217 19:38:08.906926 15822 net.cpp:327] pool5/drop_7x7_s1 -> pool5/7x7_s1 (in-place)
I1217 19:38:08.906939 15822 net.cpp:113] Setting up pool5/drop_7x7_s1
I1217 19:38:08.906952 15822 net.cpp:120] Top shape: 50 1024 1 1 (51200)
I1217 19:38:08.906961 15822 layer_factory.hpp:74] Creating layer loss3/classifier_kaggle
I1217 19:38:08.906975 15822 net.cpp:84] Creating Layer loss3/classifier_kaggle
I1217 19:38:08.906985 15822 net.cpp:380] loss3/classifier_kaggle <- pool5/7x7_s1
I1217 19:38:08.906999 15822 net.cpp:338] loss3/classifier_kaggle -> loss3/classifier_kaggle
I1217 19:38:08.907014 15822 net.cpp:113] Setting up loss3/classifier_kaggle
I1217 19:38:08.912621 15822 net.cpp:120] Top shape: 50 447 (22350)
I1217 19:38:08.912647 15822 layer_factory.hpp:74] Creating layer loss3/classifier_kaggle_loss3/classifier_kaggle_0_split
I1217 19:38:08.912658 15822 net.cpp:84] Creating Layer loss3/classifier_kaggle_loss3/classifier_kaggle_0_split
I1217 19:38:08.912667 15822 net.cpp:380] loss3/classifier_kaggle_loss3/classifier_kaggle_0_split <- loss3/classifier_kaggle
I1217 19:38:08.912686 15822 net.cpp:338] loss3/classifier_kaggle_loss3/classifier_kaggle_0_split -> loss3/classifier_kaggle_loss3/classifier_kaggle_0_split_0
I1217 19:38:08.912711 15822 net.cpp:338] loss3/classifier_kaggle_loss3/classifier_kaggle_0_split -> loss3/classifier_kaggle_loss3/classifier_kaggle_0_split_1
I1217 19:38:08.912724 15822 net.cpp:338] loss3/classifier_kaggle_loss3/classifier_kaggle_0_split -> loss3/classifier_kaggle_loss3/classifier_kaggle_0_split_2
I1217 19:38:08.912734 15822 net.cpp:113] Setting up loss3/classifier_kaggle_loss3/classifier_kaggle_0_split
I1217 19:38:08.912744 15822 net.cpp:120] Top shape: 50 447 (22350)
I1217 19:38:08.912753 15822 net.cpp:120] Top shape: 50 447 (22350)
I1217 19:38:08.912761 15822 net.cpp:120] Top shape: 50 447 (22350)
I1217 19:38:08.912768 15822 layer_factory.hpp:74] Creating layer loss3/loss3
I1217 19:38:08.912781 15822 net.cpp:84] Creating Layer loss3/loss3
I1217 19:38:08.912788 15822 net.cpp:380] loss3/loss3 <- loss3/classifier_kaggle_loss3/classifier_kaggle_0_split_0
I1217 19:38:08.912797 15822 net.cpp:380] loss3/loss3 <- label_data_1_split_6
I1217 19:38:08.912807 15822 net.cpp:338] loss3/loss3 -> loss3/loss3
…
