…
I1215 11:51:17.709164 29126 net.cpp:257] The NetState phase (0) differed from the phase (1) specified by a rule in layer loss3/top-5
I1215 11:51:17.710798 29126 net.cpp:42] Initializing net from parameters: 
name: "GoogleNet"
state {
  phase: TRAIN
}
layer {
  name: "data"
  type: "Data"
  top: "data"
  top: "label"
  include {
    phase: TRAIN
  }
  transform_param {
    mirror: true
    crop_size: 224
    mean_value: 104
    mean_value: 117
    mean_value: 123
  }
  data_param {
    source: "/home/coldmanck/kaggle/kaggle2_train_lmdb"
    batch_size: 32
    backend: LMDB
  }
}
layer {
  name: "conv1/7x7_s2"
  type: "Convolution"
  bottom: "data"
  top: "conv1/7x7_s2"
  param {
    lr_mult: 1
    decay_mult: 1
  }
  param {
    lr_mult: 2
    decay_mult: 0
  }
  convolution_param {
    num_output: 64
    pad: 3
    kernel_size: 7
    stride: 2
    weight_filler {
      type: "xavier"
      std: 0.1
    }
    bias_filler {
      type: "constant"
      value: 0.2
    }
  }
}
layer {
  name: "conv1/relu_7x7"
  type: "ReLU"
  bottom: "conv1/7x7_s2"
  top: "conv1/7x7_s2"
}
layer {
  name: "pool1/3x3_s2"
  type: "Pooling"
  bottom: "conv1/7x7_s2"
  top: "pool1/3x3_s2"
  pooling_param {
    pool: MAX
    kernel_size: 3
    stride: 2
  }
}
layer {
  name: "pool1/norm1"
  type: "LRN"
  bottom: "pool1/3x3_s2"
  top: "pool1/norm1"
  lrn_param {
    local_size: 5
    alpha: 0.0001
    beta: 0.75
  }
}
layer {
  name: "conv2/3x3_reduce"
  type: "Convolution"
  bottom: "pool1/norm1"
  top: "conv2/3x3_reduce"
  param {
    lr_mult: 1
    decay_mult: 1
  }
  param {
    lr_mult: 2
    decay_mult: 0
  }
  convolution_param {
    num_output: 64
    kernel_size: 1
    weight_filler {
      type: "xavier"
      std: 0.1
    }
    bias_filler {
      type: "constant"
      value: 0.2
    }
  }
}
layer {
  name: "conv2/relu_3x3_reduce"
  type: "ReLU"
  bottom: "conv2/3x3_reduce"
  top: "conv2/3x3_reduce"
}
layer {
  name: "conv2/3x3"
  type: "Convolution"
  bottom: "conv2/3x3_reduce"
  top: "conv2/3x3"
  param {
    lr_mult: 1
    decay_mult: 1
  }
  param {
    lr_mult: 2
    decay_mult: 0
  }
  convolution_param {
    num_output: 192
    pad: 1
    kernel_size: 3
    weight_filler {
      type: "xavier"
      std: 0.03
    }
    bias_filler {
      type: "constant"
      value: 0.2
    }
  }
}
layer {
  name: "conv2/relu_3x3"
  type: "ReLU"
  bottom: "conv2/3x3"
  top: "conv2/3x3"
}
layer {
  name: "conv2/norm2"
  type: "LRN"
  bottom: "conv2/3x3"
  top: "conv2/norm2"
  lrn_param {
    local_size: 5
    alpha: 0.0001
    beta: 0.75
  }
}
layer {
  name: "pool2/3x3_s2"
  type: "Pooling"
  bottom: "conv2/norm2"
  top: "pool2/3x3_s2"
  pooling_param {
    pool: MAX
    kernel_size: 3
    stride: 2
  }
}
layer {
  name: "inception_3a/1x1"
  type: "Convolution"
  bottom: "pool2/3x3_s2"
  top: "inception_3a/1x1"
  param {
    lr_mult: 1
    decay_mult: 1
  }
  param {
    lr_mult: 2
    decay_mult: 0
  }
  convolution_param {
    num_output: 64
    kernel_size: 1
    weight_filler {
      type: "xavier"
      std: 0.03
    }
    bias_filler {
      type: "constant"
      value: 0.2
    }
  }
}
layer {
  name: "inception_3a/relu_1x1"
  type: "ReLU"
  bottom: "inception_3a/1x1"
  top: "inception_3a/1x1"
}
layer {
  name: "inception_3a/3x3_reduce"
  type: "Convolution"
  bottom: "pool2/3x3_s2"
  top: "inception_3a/3x3_reduce"
  param {
    lr_mult: 1
    decay_mult: 1
  }
  param {
    lr_mult: 2
    decay_mult: 0
  }
  convolution_param {
    num_output: 96
    kernel_size: 1
    weight_filler {
      type: "xavier"
      std: 0.09
    }
    bias_filler {
      type: "constant"
      value: 0.2
    }
  }
}
layer {
  name: "inception_3a/relu_3x3_reduce"
  type: "ReLU"
  bottom: "inception_3a/3x3_reduce"
  top: "inception_3a/3x3_reduce"
}
layer {
  name: "inception_3a/3x3"
  type: "Convolution"
  bottom: "inception_3a/3x3_reduce"
  top: "inception_3a/3x3"
  param {
    lr_mult: 1
    decay_mult: 1
  }
  param {
    lr_mult: 2
    decay_mult: 0
  }
  convolution_param {
    num_output: 128
    pad: 1
    kernel_size: 3
    weight_filler {
      type: "xavier"
      std: 0.03
    }
    bias_filler {
      type: "constant"
      value: 0.2
    }
  }
}
layer {
  name: "inception_3a/relu_3x3"
  type: "ReLU"
  bottom: "inception_3a/3x3"
  top: "inception_3a/3x3"
}
layer {
  name: "inception_3a/5x5_reduce"
  type: "Convolution"
  bottom: "pool2/3x3_s2"
  top: "inception_3a/5x5_reduce"
  param {
    lr_mult: 1
    decay_mult: 1
  }
  param {
    lr_mult: 2
    decay_mult: 0
  }
  convolution_param {
    num_output: 16
    kernel_size: 1
    weight_filler {
      type: "xavier"
      std: 0.2
    }
    bias_filler {
      type: "constant"
      value: 0.2
    }
  }
}
layer {
  name: "inception_3a/relu_5x5_reduce"
  type: "ReLU"
  bottom: "inception_3a/5x5_reduce"
  top: "inception_3a/5x5_reduce"
}
layer {
  name: "inception_3a/5x5"
  type: "Convolution"
  bottom: "inception_3a/5x5_reduce"
  top: "inception_3a/5x5"
  param {
    lr_mult: 1
    decay_mult: 1
  }
  param {
    lr_mult: 2
    decay_mult: 0
  }
  convolution_param {
    num_output: 32
    pad: 2
    kernel_size: 5
    weight_filler {
      type: "xavier"
      std: 0.03
    }
    bias_filler {
      type: "constant"
      value: 0.2
    }
  }
}
layer {
  name: "inception_3a/relu_5x5"
  type: "ReLU"
  bottom: "inception_3a/5x5"
  top: "inception_3a/5x5"
}
layer {
  name: "inception_3a/pool"
  type: "Pooling"
  bottom: "pool2/3x3_s2"
  top: "inception_3a/pool"
  pooling_param {
    pool: MAX
    kernel_size: 3
    stride: 1
    pad: 1
  }
}
layer {
  name: "inception_3a/pool_proj"
  type: "Convolution"
  bottom: "inception_3a/pool"
  top: "inception_3a/pool_proj"
  param {
    lr_mult: 1
    decay_mult: 1
  }
  param {
    lr_mult: 2
    decay_mult: 0
  }
  convolution_param {
    num_output: 32
    kernel_size: 1
    weight_filler {
      type: "xavier"
      std: 0.1
    }
    bias_filler {
      type: "constant"
      value: 0.2
    }
  }
}
layer {
  name: "inception_3a/relu_pool_proj"
  type: "ReLU"
  bottom: "inception_3a/pool_proj"
  top: "inception_3a/pool_proj"
}
layer {
  name: "inception_3a/output"
  type: "Concat"
  bottom: "inception_3a/1x1"
  bottom: "inception_3a/3x3"
  bottom: "inception_3a/5x5"
  bottom: "inception_3a/pool_proj"
  top: "inception_3a/output"
}
layer {
  name: "inception_3b/1x1"
  type: "Convolution"
  bottom: "inception_3a/output"
  top: "inception_3b/1x1"
  param {
    lr_mult: 1
    decay_mult: 1
  }
  param {
    lr_mult: 2
    decay_mult: 0
  }
  convolution_param {
    num_output: 128
    kernel_size: 1
    weight_filler {
      type: "xavier"
      std: 0.03
    }
    bias_filler {
      type: "constant"
      value: 0.2
    }
  }
}
layer {
  name: "inception_3b/relu_1x1"
  type: "ReLU"
  bottom: "inception_3b/1x1"
  top: "inception_3b/1x1"
}
layer {
  name: "inception_3b/3x3_reduce"
  type: "Convolution"
  bottom: "inception_3a/output"
  top: "inception_3b/3x3_reduce"
  param {
    lr_mult: 1
    decay_mult: 1
  }
  param {
    lr_mult: 2
    decay_mult: 0
  }
  convolution_param {
    num_output: 128
    kernel_size: 1
    weight_filler {
      type: "xavier"
      std: 0.09
    }
    bias_filler {
      type: "constant"
      value: 0.2
    }
  }
}
layer {
  name: "inception_3b/relu_3x3_reduce"
  type: "ReLU"
  bottom: "inception_3b/3x3_reduce"
  top: "inception_3b/3x3_reduce"
}
layer {
  name: "inception_3b/3x3"
  type: "Convolution"
  bottom: "inception_3b/3x3_reduce"
  top: "inception_3b/3x3"
  param {
    lr_mult: 1
    decay_mult: 1
  }
  param {
    lr_mult: 2
    decay_mult: 0
  }
  convolution_param {
    num_output: 192
    pad: 1
    kernel_size: 3
    weight_filler {
      type: "xavier"
      std: 0.03
    }
    bias_filler {
      type: "constant"
      value: 0.2
    }
  }
}
layer {
  name: "inception_3b/relu_3x3"
  type: "ReLU"
  bottom: "inception_3b/3x3"
  top: "inception_3b/3x3"
}
layer {
  name: "inception_3b/5x5_reduce"
  type: "Convolution"
  bottom: "inception_3a/output"
  top: "inception_3b/5x5_reduce"
  param {
    lr_mult: 1
    decay_mult: 1
  }
  param {
    lr_mult: 2
    decay_mult: 0
  }
  convolution_param {
    num_output: 32
    kernel_size: 1
    weight_filler {
      type: "xavier"
      std: 0.2
    }
    bias_filler {
      type: "constant"
      value: 0.2
    }
  }
}
layer {
  name: "inception_3b/relu_5x5_reduce"
  type: "ReLU"
  bottom: "inception_3b/5x5_reduce"
  top: "inception_3b/5x5_reduce"
}
layer {
  name: "inception_3b/5x5"
  type: "Convolution"
  bottom: "inception_3b/5x5_reduce"
  top: "inception_3b/5x5"
  param {
    lr_mult: 1
    decay_mult: 1
  }
  param {
    lr_mult: 2
    decay_mult: 0
  }
  convolution_param {
    num_output: 96
    pad: 2
    kernel_size: 5
    weight_filler {
      type: "xavier"
      std: 0.03
    }
    bias_filler {
      type: "constant"
      value: 0.2
    }
  }
}
layer {
  name: "inception_3b/relu_5x5"
  type: "ReLU"
  bottom: "inception_3b/5x5"
  top: "inception_3b/5x5"
}
layer {
  name: "inception_3b/pool"
  type: "Pooling"
  bottom: "inception_3a/output"
  top: "inception_3b/pool"
  pooling_param {
    pool: MAX
    kernel_size: 3
    stride: 1
    pad: 1
  }
}
layer {
  name: "inception_3b/pool_proj"
  type: "Convolution"
  bottom: "inception_3b/pool"
  top: "inception_3b/pool_proj"
  param {
    lr_mult: 1
    decay_mult: 1
  }
  param {
    lr_mult: 2
    decay_mult: 0
  }
  convolution_param {
    num_output: 64
    kernel_size: 1
    weight_filler {
      type: "xavier"
      std: 0.1
    }
    bias_filler {
      type: "constant"
      value: 0.2
    }
  }
}
layer {
  name: "inception_3b/relu_pool_proj"
  type: "ReLU"
  bottom: "inception_3b/pool_proj"
  top: "inception_3b/pool_proj"
}
layer {
  name: "inception_3b/output"
  type: "Concat"
  bottom: "inception_3b/1x1"
  bottom: "inception_3b/3x3"
  bottom: "inception_3b/5x5"
  bottom: "inception_3b/pool_proj"
  top: "inception_3b/output"
}
layer {
  name: "pool3/3x3_s2"
  type: "Pooling"
  bottom: "inception_3b/output"
  top: "pool3/3x3_s2"
  pooling_param {
    pool: MAX
    kernel_size: 3
    stride: 2
  }
}
layer {
  name: "inception_4a/1x1"
  type: "Convolution"
  bottom: "pool3/3x3_s2"
  top: "inception_4a/1x1"
  param {
    lr_mult: 1
    decay_mult: 1
  }
  param {
    lr_mult: 2
    decay_mult: 0
  }
  convolution_param {
    num_output: 192
    kernel_size: 1
    weight_filler {
      type: "xavier"
      std: 0.03
    }
    bias_filler {
      type: "constant"
      value: 0.2
    }
  }
}
layer {
  name: "inception_4a/relu_1x1"
  type: "ReLU"
  bottom: "inception_4a/1x1"
  top: "inception_4a/1x1"
}
layer {
  name: "inception_4a/3x3_reduce"
  type: "Convolution"
  bottom: "pool3/3x3_s2"
  top: "inception_4a/3x3_reduce"
  param {
    lr_mult: 1
    decay_mult: 1
  }
  param {
    lr_mult: 2
    decay_mult: 0
  }
  convolution_param {
    num_output: 96
    kernel_size: 1
    weight_filler {
      type: "xavier"
      std: 0.09
    }
    bias_filler {
      type: "constant"
      value: 0.2
    }
  }
}
layer {
  name: "inception_4a/relu_3x3_reduce"
  type: "ReLU"
  bottom: "inception_4a/3x3_reduce"
  top: "inception_4a/3x3_reduce"
}
layer {
  name: "inception_4a/3x3"
  type: "Convolution"
  bottom: "inception_4a/3x3_reduce"
  top: "inception_4a/3x3"
  param {
    lr_mult: 1
    decay_mult: 1
  }
  param {
    lr_mult: 2
    decay_mult: 0
  }
  convolution_param {
    num_output: 208
    pad: 1
    kernel_size: 3
    weight_filler {
      type: "xavier"
      std: 0.03
    }
    bias_filler {
      type: "constant"
      value: 0.2
    }
  }
}
layer {
  name: "inception_4a/relu_3x3"
  type: "ReLU"
  bottom: "inception_4a/3x3"
  top: "inception_4a/3x3"
}
layer {
  name: "inception_4a/5x5_reduce"
  type: "Convolution"
  bottom: "pool3/3x3_s2"
  top: "inception_4a/5x5_reduce"
  param {
    lr_mult: 1
    decay_mult: 1
  }
  param {
    lr_mult: 2
    decay_mult: 0
  }
  convolution_param {
    num_output: 16
    kernel_size: 1
    weight_filler {
      type: "xavier"
      std: 0.2
    }
    bias_filler {
      type: "constant"
      value: 0.2
    }
  }
}
layer {
  name: "inception_4a/relu_5x5_reduce"
  type: "ReLU"
  bottom: "inception_4a/5x5_reduce"
  top: "inception_4a/5x5_reduce"
}
layer {
  name: "inception_4a/5x5"
  type: "Convolution"
  bottom: "inception_4a/5x5_reduce"
  top: "inception_4a/5x5"
  param {
    lr_mult: 1
    decay_mult: 1
  }
  param {
    lr_mult: 2
    decay_mult: 0
  }
  convolution_param {
    num_output: 48
    pad: 2
    kernel_size: 5
    weight_filler {
      type: "xavier"
      std: 0.03
    }
    bias_filler {
      type: "constant"
      value: 0.2
    }
  }
}
layer {
  name: "inception_4a/relu_5x5"
  type: "ReLU"
  bottom: "inception_4a/5x5"
  top: "inception_4a/5x5"
}
layer {
  name: "inception_4a/pool"
  type: "Pooling"
  bottom: "pool3/3x3_s2"
  top: "inception_4a/pool"
  pooling_param {
    pool: MAX
    kernel_size: 3
    stride: 1
    pad: 1
  }
}
layer {
  name: "inception_4a/pool_proj"
  type: "Convolution"
  bottom: "inception_4a/pool"
  top: "inception_4a/pool_proj"
  param {
    lr_mult: 1
    decay_mult: 1
  }
  param {
    lr_mult: 2
    decay_mult: 0
  }
  convolution_param {
    num_output: 64
    kernel_size: 1
    weight_filler {
      type: "xavier"
      std: 0.1
    }
    bias_filler {
      type: "constant"
      value: 0.2
    }
  }
}
layer {
  name: "inception_4a/relu_pool_proj"
  type: "ReLU"
  bottom: "inception_4a/pool_proj"
  top: "inception_4a/pool_proj"
}
layer {
  name: "inception_4a/output"
  type: "Concat"
  bottom: "inception_4a/1x1"
  bottom: "inception_4a/3x3"
  bottom: "inception_4a/5x5"
  bottom: "inception_4a/pool_proj"
  top: "inception_4a/output"
}
layer {
  name: "loss1/ave_pool"
  type: "Pooling"
  bottom: "inception_4a/output"
  top: "loss1/ave_pool"
  pooling_param {
    pool: AVE
    kernel_size: 5
    stride: 3
  }
}
layer {
  name: "loss1/conv"
  type: "Convolution"
  bottom: "loss1/ave_pool"
  top: "loss1/conv"
  param {
    lr_mult: 1
    decay_mult: 1
  }
  param {
    lr_mult: 2
    decay_mult: 0
  }
  convolution_param {
    num_output: 128
    kernel_size: 1
    weight_filler {
      type: "xavier"
      std: 0.08
    }
    bias_filler {
      type: "constant"
      value: 0.2
    }
  }
}
layer {
  name: "loss1/relu_conv"
  type: "ReLU"
  bottom: "loss1/conv"
  top: "loss1/conv"
}
layer {
  name: "loss1/fc"
  type: "InnerProduct"
  bottom: "loss1/conv"
  top: "loss1/fc"
  param {
    lr_mult: 1
    decay_mult: 1
  }
  param {
    lr_mult: 2
    decay_mult: 0
  }
  inner_product_param {
    num_output: 1024
    weight_filler {
      type: "xavier"
      std: 0.02
    }
    bias_filler {
      type: "constant"
      value: 0.2
    }
  }
}
layer {
  name: "loss1/relu_fc"
  type: "ReLU"
  bottom: "loss1/fc"
  top: "loss1/fc"
}
layer {
  name: "loss1/drop_fc"
  type: "Dropout"
  bottom: "loss1/fc"
  top: "loss1/fc"
  dropout_param {
    dropout_ratio: 0.7
  }
}
layer {
  name: "loss1/classifier_kaggle"
  type: "InnerProduct"
  bottom: "loss1/fc"
  top: "loss1/classifier_kaggle"
  param {
    lr_mult: 1
    decay_mult: 1
  }
  param {
    lr_mult: 2
    decay_mult: 0
  }
  inner_product_param {
    num_output: 447
    weight_filler {
      type: "xavier"
      std: 0.0009765625
    }
    bias_filler {
      type: "constant"
      value: 0
    }
  }
}
layer {
  name: "loss1/loss"
  type: "SoftmaxWithLoss"
  bottom: "loss1/classifier_kaggle"
  bottom: "label"
  top: "loss1/loss1"
  loss_weight: 0.3
}
layer {
  name: "inception_4b/1x1"
  type: "Convolution"
  bottom: "inception_4a/output"
  top: "inception_4b/1x1"
  param {
    lr_mult: 1
    decay_mult: 1
  }
  param {
    lr_mult: 2
    decay_mult: 0
  }
  convolution_param {
    num_output: 160
    kernel_size: 1
    weight_filler {
      type: "xavier"
      std: 0.03
    }
    bias_filler {
      type: "constant"
      value: 0.2
    }
  }
}
layer {
  name: "inception_4b/relu_1x1"
  type: "ReLU"
  bottom: "inception_4b/1x1"
  top: "inception_4b/1x1"
}
layer {
  name: "inception_4b/3x3_reduce"
  type: "Convolution"
  bottom: "inception_4a/output"
  top: "inception_4b/3x3_reduce"
  param {
    lr_mult: 1
    decay_mult: 1
  }
  param {
    lr_mult: 2
    decay_mult: 0
  }
  convolution_param {
    num_output: 112
    kernel_size: 1
    weight_filler {
      type: "xavier"
      std: 0.09
    }
    bias_filler {
      type: "constant"
      value: 0.2
    }
  }
}
layer {
  name: "inception_4b/relu_3x3_reduce"
  type: "ReLU"
  bottom: "inception_4b/3x3_reduce"
  top: "inception_4b/3x3_reduce"
}
layer {
  name: "inception_4b/3x3"
  type: "Convolution"
  bottom: "inception_4b/3x3_reduce"
  top: "inception_4b/3x3"
  param {
    lr_mult: 1
    decay_mult: 1
  }
  param {
    lr_mult: 2
    decay_mult: 0
  }
  convolution_param {
    num_output: 224
    pad: 1
    kernel_size: 3
    weight_filler {
      type: "xavier"
      std: 0.03
    }
    bias_filler {
      type: "constant"
      value: 0.2
    }
  }
}
layer {
  name: "inception_4b/relu_3x3"
  type: "ReLU"
  bottom: "inception_4b/3x3"
  top: "inception_4b/3x3"
}
layer {
  name: "inception_4b/5x5_reduce"
  type: "Convolution"
  bottom: "inception_4a/output"
  top: "inception_4b/5x5_reduce"
  param {
    lr_mult: 1
    decay_mult: 1
  }
  param {
    lr_mult: 2
    decay_mult: 0
  }
  convolution_param {
    num_output: 24
    kernel_size: 1
    weight_filler {
      type: "xavier"
      std: 0.2
    }
    bias_filler {
      type: "constant"
      value: 0.2
    }
  }
}
layer {
  name: "inception_4b/relu_5x5_reduce"
  type: "ReLU"
  bottom: "inception_4b/5x5_reduce"
  top: "inception_4b/5x5_reduce"
}
layer {
  name: "inception_4b/5x5"
  type: "Convolution"
  bottom: "inception_4b/5x5_reduce"
  top: "inception_4b/5x5"
  param {
    lr_mult: 1
    decay_mult: 1
  }
  param {
    lr_mult: 2
    decay_mult: 0
  }
  convolution_param {
    num_output: 64
    pad: 2
    kernel_size: 5
    weight_filler {
      type: "xavier"
      std: 0.03
    }
    bias_filler {
      type: "constant"
      value: 0.2
    }
  }
}
layer {
  name: "inception_4b/relu_5x5"
  type: "ReLU"
  bottom: "inception_4b/5x5"
  top: "inception_4b/5x5"
}
layer {
  name: "inception_4b/pool"
  type: "Pooling"
  bottom: "inception_4a/output"
  top: "inception_4b/pool"
  pooling_param {
    pool: MAX
    kernel_size: 3
    stride: 1
    pad: 1
  }
}
layer {
  name: "inception_4b/pool_proj"
  type: "Convolution"
  bottom: "inception_4b/pool"
  top: "inception_4b/pool_proj"
  param {
    lr_mult: 1
    decay_mult: 1
  }
  param {
    lr_mult: 2
    decay_mult: 0
  }
  convolution_param {
    num_output: 64
    kernel_size: 1
    weight_filler {
      type: "xavier"
      std: 0.1
    }
    bias_filler {
      type: "constant"
      value: 0.2
    }
  }
}
layer {
  name: "inception_4b/relu_pool_proj"
  type: "ReLU"
  bottom: "inception_4b/pool_proj"
  top: "inception_4b/pool_proj"
}
layer {
  name: "inception_4b/output"
  type: "Concat"
  bottom: "inception_4b/1x1"
  bottom: "inception_4b/3x3"
  bottom: "inception_4b/5x5"
  bottom: "inception_4b/pool_proj"
  top: "inception_4b/output"
}
layer {
  name: "inception_4c/1x1"
  type: "Convolution"
  bottom: "inception_4b/output"
  top: "inception_4c/1x1"
  param {
    lr_mult: 1
    decay_mult: 1
  }
  param {
    lr_mult: 2
    decay_mult: 0
  }
  convolution_param {
    num_output: 128
    kernel_size: 1
    weight_filler {
      type: "xavier"
      std: 0.03
    }
    bias_filler {
      type: "constant"
      value: 0.2
    }
  }
}
layer {
  name: "inception_4c/relu_1x1"
  type: "ReLU"
  bottom: "inception_4c/1x1"
  top: "inception_4c/1x1"
}
layer {
  name: "inception_4c/3x3_reduce"
  type: "Convolution"
  bottom: "inception_4b/output"
  top: "inception_4c/3x3_reduce"
  param {
    lr_mult: 1
    decay_mult: 1
  }
  param {
    lr_mult: 2
    decay_mult: 0
  }
  convolution_param {
    num_output: 128
    kernel_size: 1
    weight_filler {
      type: "xavier"
      std: 0.09
    }
    bias_filler {
      type: "constant"
      value: 0.2
    }
  }
}
layer {
  name: "inception_4c/relu_3x3_reduce"
  type: "ReLU"
  bottom: "inception_4c/3x3_reduce"
  top: "inception_4c/3x3_reduce"
}
layer {
  name: "inception_4c/3x3"
  type: "Convolution"
  bottom: "inception_4c/3x3_reduce"
  top: "inception_4c/3x3"
  param {
    lr_mult: 1
    decay_mult: 1
  }
  param {
    lr_mult: 2
    decay_mult: 0
  }
  convolution_param {
    num_output: 256
    pad: 1
    kernel_size: 3
    weight_filler {
      type: "xavier"
      std: 0.03
    }
    bias_filler {
      type: "constant"
      value: 0.2
    }
  }
}
layer {
  name: "inception_4c/relu_3x3"
  type: "ReLU"
  bottom: "inception_4c/3x3"
  top: "inception_4c/3x3"
}
layer {
  name: "inception_4c/5x5_reduce"
  type: "Convolution"
  bottom: "inception_4b/output"
  top: "inception_4c/5x5_reduce"
  param {
    lr_mult: 1
    decay_mult: 1
  }
  param {
    lr_mult: 2
    decay_mult: 0
  }
  convolution_param {
    num_output: 24
    kernel_size: 1
    weight_filler {
      type: "xavier"
      std: 0.2
    }
    bias_filler {
      type: "constant"
      value: 0.2
    }
  }
}
layer {
  name: "inception_4c/relu_5x5_reduce"
  type: "ReLU"
  bottom: "inception_4c/5x5_reduce"
  top: "inception_4c/5x5_reduce"
}
layer {
  name: "inception_4c/5x5"
  type: "Convolution"
  bottom: "inception_4c/5x5_reduce"
  top: "inception_4c/5x5"
  param {
    lr_mult: 1
    decay_mult: 1
  }
  param {
    lr_mult: 2
    decay_mult: 0
  }
  convolution_param {
    num_output: 64
    pad: 2
    kernel_size: 5
    weight_filler {
      type: "xavier"
      std: 0.03
    }
    bias_filler {
      type: "constant"
      value: 0.2
    }
  }
}
layer {
  name: "inception_4c/relu_5x5"
  type: "ReLU"
  bottom: "inception_4c/5x5"
  top: "inception_4c/5x5"
}
layer {
  name: "inception_4c/pool"
  type: "Pooling"
  bottom: "inception_4b/output"
  top: "inception_4c/pool"
  pooling_param {
    pool: MAX
    kernel_size: 3
    stride: 1
    pad: 1
  }
}
layer {
  name: "inception_4c/pool_proj"
  type: "Convolution"
  bottom: "inception_4c/pool"
  top: "inception_4c/pool_proj"
  param {
    lr_mult: 1
    decay_mult: 1
  }
  param {
    lr_mult: 2
    decay_mult: 0
  }
  convolution_param {
    num_output: 64
    kernel_size: 1
    weight_filler {
      type: "xavier"
      std: 0.1
    }
    bias_filler {
      type: "constant"
      value: 0.2
    }
  }
}
layer {
  name: "inception_4c/relu_pool_proj"
  type: "ReLU"
  bottom: "inception_4c/pool_proj"
  top: "inception_4c/pool_proj"
}
layer {
  name: "inception_4c/output"
  type: "Concat"
  bottom: "inception_4c/1x1"
  bottom: "inception_4c/3x3"
  bottom: "inception_4c/5x5"
  bottom: "inception_4c/pool_proj"
  top: "inception_4c/output"
}
layer {
  name: "inception_4d/1x1"
  type: "Convolution"
  bottom: "inception_4c/output"
  top: "inception_4d/1x1"
  param {
    lr_mult: 1
    decay_mult: 1
  }
  param {
    lr_mult: 2
    decay_mult: 0
  }
  convolution_param {
    num_output: 112
    kernel_size: 1
    weight_filler {
      type: "xavier"
      std: 0.03
    }
    bias_filler {
      type: "constant"
      value: 0.2
    }
  }
}
layer {
  name: "inception_4d/relu_1x1"
  type: "ReLU"
  bottom: "inception_4d/1x1"
  top: "inception_4d/1x1"
}
layer {
  name: "inception_4d/3x3_reduce"
  type: "Convolution"
  bottom: "inception_4c/output"
  top: "inception_4d/3x3_reduce"
  param {
    lr_mult: 1
    decay_mult: 1
  }
  param {
    lr_mult: 2
    decay_mult: 0
  }
  convolution_param {
    num_output: 144
    kernel_size: 1
    weight_filler {
      type: "xavier"
      std: 0.09
    }
    bias_filler {
      type: "constant"
      value: 0.2
    }
  }
}
layer {
  name: "inception_4d/relu_3x3_reduce"
  type: "ReLU"
  bottom: "inception_4d/3x3_reduce"
  top: "inception_4d/3x3_reduce"
}
layer {
  name: "inception_4d/3x3"
  type: "Convolution"
  bottom: "inception_4d/3x3_reduce"
  top: "inception_4d/3x3"
  param {
    lr_mult: 1
    decay_mult: 1
  }
  param {
    lr_mult: 2
    decay_mult: 0
  }
  convolution_param {
    num_output: 288
    pad: 1
    kernel_size: 3
    weight_filler {
      type: "xavier"
      std: 0.03
    }
    bias_filler {
      type: "constant"
      value: 0.2
    }
  }
}
layer {
  name: "inception_4d/relu_3x3"
  type: "ReLU"
  bottom: "inception_4d/3x3"
  top: "inception_4d/3x3"
}
layer {
  name: "inception_4d/5x5_reduce"
  type: "Convolution"
  bottom: "inception_4c/output"
  top: "inception_4d/5x5_reduce"
  param {
    lr_mult: 1
    decay_mult: 1
  }
  param {
    lr_mult: 2
    decay_mult: 0
  }
  convolution_param {
    num_output: 32
    kernel_size: 1
    weight_filler {
      type: "xavier"
      std: 0.2
    }
    bias_filler {
      type: "constant"
      value: 0.2
    }
  }
}
layer {
  name: "inception_4d/relu_5x5_reduce"
  type: "ReLU"
  bottom: "inception_4d/5x5_reduce"
  top: "inception_4d/5x5_reduce"
}
layer {
  name: "inception_4d/5x5"
  type: "Convolution"
  bottom: "inception_4d/5x5_reduce"
  top: "inception_4d/5x5"
  param {
    lr_mult: 1
    decay_mult: 1
  }
  param {
    lr_mult: 2
    decay_mult: 0
  }
  convolution_param {
    num_output: 64
    pad: 2
    kernel_size: 5
    weight_filler {
      type: "xavier"
      std: 0.03
    }
    bias_filler {
      type: "constant"
      value: 0.2
    }
  }
}
layer {
  name: "inception_4d/relu_5x5"
  type: "ReLU"
  bottom: "inception_4d/5x5"
  top: "inception_4d/5x5"
}
layer {
  name: "inception_4d/pool"
  type: "Pooling"
  bottom: "inception_4c/output"
  top: "inception_4d/pool"
  pooling_param {
    pool: MAX
    kernel_size: 3
    stride: 1
    pad: 1
  }
}
layer {
  name: "inception_4d/pool_proj"
  type: "Convolution"
  bottom: "inception_4d/pool"
  top: "inception_4d/pool_proj"
  param {
    lr_mult: 1
    decay_mult: 1
  }
  param {
    lr_mult: 2
    decay_mult: 0
  }
  convolution_param {
    num_output: 64
    kernel_size: 1
    weight_filler {
      type: "xavier"
      std: 0.1
    }
    bias_filler {
      type: "constant"
      value: 0.2
    }
  }
}
layer {
  name: "inception_4d/relu_pool_proj"
  type: "ReLU"
  bottom: "inception_4d/pool_proj"
  top: "inception_4d/pool_proj"
}
layer {
  name: "inception_4d/output"
  type: "Concat"
  bottom: "inception_4d/1x1"
  bottom: "inception_4d/3x3"
  bottom: "inception_4d/5x5"
  bottom: "inception_4d/pool_proj"
  top: "inception_4d/output"
}
layer {
  name: "loss2/ave_pool"
  type: "Pooling"
  bottom: "inception_4d/output"
  top: "loss2/ave_pool"
  pooling_param {
    pool: AVE
    kernel_size: 5
    stride: 3
  }
}
layer {
  name: "loss2/conv"
  type: "Convolution"
  bottom: "loss2/ave_pool"
  top: "loss2/conv"
  param {
    lr_mult: 1
    decay_mult: 1
  }
  param {
    lr_mult: 2
    decay_mult: 0
  }
  convolution_param {
    num_output: 128
    kernel_size: 1
    weight_filler {
      type: "xavier"
      std: 0.08
    }
    bias_filler {
      type: "constant"
      value: 0.2
    }
  }
}
layer {
  name: "loss2/relu_conv"
  type: "ReLU"
  bottom: "loss2/conv"
  top: "loss2/conv"
}
layer {
  name: "loss2/fc"
  type: "InnerProduct"
  bottom: "loss2/conv"
  top: "loss2/fc"
  param {
    lr_mult: 1
    decay_mult: 1
  }
  param {
    lr_mult: 2
    decay_mult: 0
  }
  inner_product_param {
    num_output: 1024
    weight_filler {
      type: "xavier"
      std: 0.02
    }
    bias_filler {
      type: "constant"
      value: 0.2
    }
  }
}
layer {
  name: "loss2/relu_fc"
  type: "ReLU"
  bottom: "loss2/fc"
  top: "loss2/fc"
}
layer {
  name: "loss2/drop_fc"
  type: "Dropout"
  bottom: "loss2/fc"
  top: "loss2/fc"
  dropout_param {
    dropout_ratio: 0.7
  }
}
layer {
  name: "loss2/classifier_kaggle"
  type: "InnerProduct"
  bottom: "loss2/fc"
  top: "loss2/classifier_kaggle"
  param {
    lr_mult: 1
    decay_mult: 1
  }
  param {
    lr_mult: 2
    decay_mult: 0
  }
  inner_product_param {
    num_output: 447
    weight_filler {
      type: "xavier"
      std: 0.0009765625
    }
    bias_filler {
      type: "constant"
      value: 0
    }
  }
}
layer {
  name: "loss2/loss"
  type: "SoftmaxWithLoss"
  bottom: "loss2/classifier_kaggle"
  bottom: "label"
  top: "loss2/loss1"
  loss_weight: 0.3
}
layer {
  name: "inception_4e/1x1"
  type: "Convolution"
  bottom: "inception_4d/output"
  top: "inception_4e/1x1"
  param {
    lr_mult: 1
    decay_mult: 1
  }
  param {
    lr_mult: 2
    decay_mult: 0
  }
  convolution_param {
    num_output: 256
    kernel_size: 1
    weight_filler {
      type: "xavier"
      std: 0.03
    }
    bias_filler {
      type: "constant"
      value: 0.2
    }
  }
}
layer {
  name: "inception_4e/relu_1x1"
  type: "ReLU"
  bottom: "inception_4e/1x1"
  top: "inception_4e/1x1"
}
layer {
  name: "inception_4e/3x3_reduce"
  type: "Convolution"
  bottom: "inception_4d/output"
  top: "inception_4e/3x3_reduce"
  param {
    lr_mult: 1
    decay_mult: 1
  }
  param {
    lr_mult: 2
    decay_mult: 0
  }
  convolution_param {
    num_output: 160
    kernel_size: 1
    weight_filler {
      type: "xavier"
      std: 0.09
    }
    bias_filler {
      type: "constant"
      value: 0.2
    }
  }
}
layer {
  name: "inception_4e/relu_3x3_reduce"
  type: "ReLU"
  bottom: "inception_4e/3x3_reduce"
  top: "inception_4e/3x3_reduce"
}
layer {
  name: "inception_4e/3x3"
  type: "Convolution"
  bottom: "inception_4e/3x3_reduce"
  top: "inception_4e/3x3"
  param {
    lr_mult: 1
    decay_mult: 1
  }
  param {
    lr_mult: 2
    decay_mult: 0
  }
  convolution_param {
    num_output: 320
    pad: 1
    kernel_size: 3
    weight_filler {
      type: "xavier"
      std: 0.03
    }
    bias_filler {
      type: "constant"
      value: 0.2
    }
  }
}
layer {
  name: "inception_4e/relu_3x3"
  type: "ReLU"
  bottom: "inception_4e/3x3"
  top: "inception_4e/3x3"
}
layer {
  name: "inception_4e/5x5_reduce"
  type: "Convolution"
  bottom: "inception_4d/output"
  top: "inception_4e/5x5_reduce"
  param {
    lr_mult: 1
    decay_mult: 1
  }
  param {
    lr_mult: 2
    decay_mult: 0
  }
  convolution_param {
    num_output: 32
    kernel_size: 1
    weight_filler {
      type: "xavier"
      std: 0.2
    }
    bias_filler {
      type: "constant"
      value: 0.2
    }
  
I1215 11:51:17.711648 29126 layer_factory.hpp:74] Creating layer data
I1215 11:51:17.711679 29126 net.cpp:84] Creating Layer data
I1215 11:51:17.711690 29126 net.cpp:338] data -> data
I1215 11:51:17.711727 29126 net.cpp:338] data -> label
I1215 11:51:17.711738 29126 net.cpp:113] Setting up data
I1215 11:51:17.711813 29126 db.cpp:34] Opened lmdb /home/coldmanck/kaggle/kaggle2_train_lmdb
I1215 11:51:17.712049 29126 data_layer.cpp:67] output data size: 32,3,224,224
I1215 11:51:17.717926 29126 net.cpp:120] Top shape: 32 3 224 224 (4816896)
I1215 11:51:17.717948 29126 net.cpp:120] Top shape: 32 (32)
I1215 11:51:17.717959 29126 layer_factory.hpp:74] Creating layer label_data_1_split
I1215 11:51:17.717978 29126 net.cpp:84] Creating Layer label_data_1_split
I1215 11:51:17.717986 29126 net.cpp:380] label_data_1_split <- label
I1215 11:51:17.718000 29126 net.cpp:338] label_data_1_split -> label_data_1_split_0
I1215 11:51:17.718014 29126 net.cpp:338] label_data_1_split -> label_data_1_split_1
I1215 11:51:17.718021 29126 net.cpp:338] label_data_1_split -> label_data_1_split_2
I1215 11:51:17.718029 29126 net.cpp:113] Setting up label_data_1_split
I1215 11:51:17.718039 29126 net.cpp:120] Top shape: 32 (32)
I1215 11:51:17.718053 29126 net.cpp:120] Top shape: 32 (32)
I1215 11:51:17.718070 29126 net.cpp:120] Top shape: 32 (32)
I1215 11:51:17.718075 29126 layer_factory.hpp:74] Creating layer conv1/7x7_s2
I1215 11:51:17.718087 29126 net.cpp:84] Creating Layer conv1/7x7_s2
I1215 11:51:17.718092 29126 net.cpp:380] conv1/7x7_s2 <- data
I1215 11:51:17.718101 29126 net.cpp:338] conv1/7x7_s2 -> conv1/7x7_s2
I1215 11:51:17.718111 29126 net.cpp:113] Setting up conv1/7x7_s2
I1215 11:51:18.111170 29126 net.cpp:120] Top shape: 32 64 112 112 (25690112)
I1215 11:51:18.111248 29126 layer_factory.hpp:74] Creating layer conv1/relu_7x7
I1215 11:51:18.111346 29126 net.cpp:84] Creating Layer conv1/relu_7x7
I1215 11:51:18.111356 29126 net.cpp:380] conv1/relu_7x7 <- conv1/7x7_s2
I1215 11:51:18.111369 29126 net.cpp:327] conv1/relu_7x7 -> conv1/7x7_s2 (in-place)
I1215 11:51:18.111382 29126 net.cpp:113] Setting up conv1/relu_7x7
I1215 11:51:18.111996 29126 net.cpp:120] Top shape: 32 64 112 112 (25690112)
I1215 11:51:18.112013 29126 layer_factory.hpp:74] Creating layer pool1/3x3_s2
I1215 11:51:18.112037 29126 net.cpp:84] Creating Layer pool1/3x3_s2
I1215 11:51:18.112046 29126 net.cpp:380] pool1/3x3_s2 <- conv1/7x7_s2
I1215 11:51:18.112056 29126 net.cpp:338] pool1/3x3_s2 -> pool1/3x3_s2
I1215 11:51:18.112066 29126 net.cpp:113] Setting up pool1/3x3_s2
I1215 11:51:18.112155 29126 net.cpp:120] Top shape: 32 64 56 56 (6422528)
I1215 11:51:18.112165 29126 layer_factory.hpp:74] Creating layer pool1/norm1
I1215 11:51:18.112185 29126 net.cpp:84] Creating Layer pool1/norm1
I1215 11:51:18.112191 29126 net.cpp:380] pool1/norm1 <- pool1/3x3_s2
I1215 11:51:18.112200 29126 net.cpp:338] pool1/norm1 -> pool1/norm1
I1215 11:51:18.112211 29126 net.cpp:113] Setting up pool1/norm1
I1215 11:51:18.112221 29126 net.cpp:120] Top shape: 32 64 56 56 (6422528)
I1215 11:51:18.112236 29126 layer_factory.hpp:74] Creating layer conv2/3x3_reduce
I1215 11:51:18.112248 29126 net.cpp:84] Creating Layer conv2/3x3_reduce
I1215 11:51:18.112254 29126 net.cpp:380] conv2/3x3_reduce <- pool1/norm1
I1215 11:51:18.112267 29126 net.cpp:338] conv2/3x3_reduce -> conv2/3x3_reduce
I1215 11:51:18.112282 29126 net.cpp:113] Setting up conv2/3x3_reduce
I1215 11:51:18.112908 29126 net.cpp:120] Top shape: 32 64 56 56 (6422528)
I1215 11:51:18.112932 29126 layer_factory.hpp:74] Creating layer conv2/relu_3x3_reduce
I1215 11:51:18.112944 29126 net.cpp:84] Creating Layer conv2/relu_3x3_reduce
I1215 11:51:18.112951 29126 net.cpp:380] conv2/relu_3x3_reduce <- conv2/3x3_reduce
I1215 11:51:18.112958 29126 net.cpp:327] conv2/relu_3x3_reduce -> conv2/3x3_reduce (in-place)
I1215 11:51:18.112968 29126 net.cpp:113] Setting up conv2/relu_3x3_reduce
I1215 11:51:18.113051 29126 net.cpp:120] Top shape: 32 64 56 56 (6422528)
I1215 11:51:18.113076 29126 layer_factory.hpp:74] Creating layer conv2/3x3
I1215 11:51:18.113091 29126 net.cpp:84] Creating Layer conv2/3x3
I1215 11:51:18.113097 29126 net.cpp:380] conv2/3x3 <- conv2/3x3_reduce
I1215 11:51:18.113109 29126 net.cpp:338] conv2/3x3 -> conv2/3x3
I1215 11:51:18.113119 29126 net.cpp:113] Setting up conv2/3x3
I1215 11:51:18.116454 29126 net.cpp:120] Top shape: 32 192 56 56 (19267584)
I1215 11:51:18.116477 29126 layer_factory.hpp:74] Creating layer conv2/relu_3x3
I1215 11:51:18.116488 29126 net.cpp:84] Creating Layer conv2/relu_3x3
I1215 11:51:18.116494 29126 net.cpp:380] conv2/relu_3x3 <- conv2/3x3
I1215 11:51:18.116503 29126 net.cpp:327] conv2/relu_3x3 -> conv2/3x3 (in-place)
I1215 11:51:18.116511 29126 net.cpp:113] Setting up conv2/relu_3x3
I1215 11:51:18.116833 29126 net.cpp:120] Top shape: 32 192 56 56 (19267584)
I1215 11:51:18.116849 29126 layer_factory.hpp:74] Creating layer conv2/norm2
I1215 11:51:18.116860 29126 net.cpp:84] Creating Layer conv2/norm2
I1215 11:51:18.116866 29126 net.cpp:380] conv2/norm2 <- conv2/3x3
I1215 11:51:18.116878 29126 net.cpp:338] conv2/norm2 -> conv2/norm2
I1215 11:51:18.116888 29126 net.cpp:113] Setting up conv2/norm2
I1215 11:51:18.116897 29126 net.cpp:120] Top shape: 32 192 56 56 (19267584)
I1215 11:51:18.116902 29126 layer_factory.hpp:74] Creating layer pool2/3x3_s2
I1215 11:51:18.116919 29126 net.cpp:84] Creating Layer pool2/3x3_s2
I1215 11:51:18.116938 29126 net.cpp:380] pool2/3x3_s2 <- conv2/norm2
I1215 11:51:18.116946 29126 net.cpp:338] pool2/3x3_s2 -> pool2/3x3_s2
I1215 11:51:18.116955 29126 net.cpp:113] Setting up pool2/3x3_s2
I1215 11:51:18.117403 29126 net.cpp:120] Top shape: 32 192 28 28 (4816896)
I1215 11:51:18.117416 29126 layer_factory.hpp:74] Creating layer pool2/3x3_s2_pool2/3x3_s2_0_split
I1215 11:51:18.117425 29126 net.cpp:84] Creating Layer pool2/3x3_s2_pool2/3x3_s2_0_split
I1215 11:51:18.117431 29126 net.cpp:380] pool2/3x3_s2_pool2/3x3_s2_0_split <- pool2/3x3_s2
I1215 11:51:18.117444 29126 net.cpp:338] pool2/3x3_s2_pool2/3x3_s2_0_split -> pool2/3x3_s2_pool2/3x3_s2_0_split_0
I1215 11:51:18.117455 29126 net.cpp:338] pool2/3x3_s2_pool2/3x3_s2_0_split -> pool2/3x3_s2_pool2/3x3_s2_0_split_1
I1215 11:51:18.117463 29126 net.cpp:338] pool2/3x3_s2_pool2/3x3_s2_0_split -> pool2/3x3_s2_pool2/3x3_s2_0_split_2
I1215 11:51:18.117471 29126 net.cpp:338] pool2/3x3_s2_pool2/3x3_s2_0_split -> pool2/3x3_s2_pool2/3x3_s2_0_split_3
I1215 11:51:18.117478 29126 net.cpp:113] Setting up pool2/3x3_s2_pool2/3x3_s2_0_split
I1215 11:51:18.117490 29126 net.cpp:120] Top shape: 32 192 28 28 (4816896)
I1215 11:51:18.117496 29126 net.cpp:120] Top shape: 32 192 28 28 (4816896)
I1215 11:51:18.117502 29126 net.cpp:120] Top shape: 32 192 28 28 (4816896)
I1215 11:51:18.117508 29126 net.cpp:120] Top shape: 32 192 28 28 (4816896)
I1215 11:51:18.117514 29126 layer_factory.hpp:74] Creating layer inception_3a/1x1
I1215 11:51:18.117524 29126 net.cpp:84] Creating Layer inception_3a/1x1
I1215 11:51:18.117529 29126 net.cpp:380] inception_3a/1x1 <- pool2/3x3_s2_pool2/3x3_s2_0_split_0
I1215 11:51:18.117542 29126 net.cpp:338] inception_3a/1x1 -> inception_3a/1x1
I1215 11:51:18.117555 29126 net.cpp:113] Setting up inception_3a/1x1
I1215 11:51:18.119077 29126 net.cpp:120] Top shape: 32 64 28 28 (1605632)
I1215 11:51:18.119097 29126 layer_factory.hpp:74] Creating layer inception_3a/relu_1x1
I1215 11:51:18.119107 29126 net.cpp:84] Creating Layer inception_3a/relu_1x1
I1215 11:51:18.119112 29126 net.cpp:380] inception_3a/relu_1x1 <- inception_3a/1x1
I1215 11:51:18.119122 29126 net.cpp:327] inception_3a/relu_1x1 -> inception_3a/1x1 (in-place)
I1215 11:51:18.119133 29126 net.cpp:113] Setting up inception_3a/relu_1x1
I1215 11:51:18.119251 29126 net.cpp:120] Top shape: 32 64 28 28 (1605632)
I1215 11:51:18.119261 29126 layer_factory.hpp:74] Creating layer inception_3a/3x3_reduce
I1215 11:51:18.119273 29126 net.cpp:84] Creating Layer inception_3a/3x3_reduce
I1215 11:51:18.119281 29126 net.cpp:380] inception_3a/3x3_reduce <- pool2/3x3_s2_pool2/3x3_s2_0_split_1
I1215 11:51:18.119290 29126 net.cpp:338] inception_3a/3x3_reduce -> inception_3a/3x3_reduce
I1215 11:51:18.119302 29126 net.cpp:113] Setting up inception_3a/3x3_reduce
I1215 11:51:18.120133 29126 net.cpp:120] Top shape: 32 96 28 28 (2408448)
I1215 11:51:18.120157 29126 layer_factory.hpp:74] Creating layer inception_3a/relu_3x3_reduce
I1215 11:51:18.120168 29126 net.cpp:84] Creating Layer inception_3a/relu_3x3_reduce
I1215 11:51:18.120174 29126 net.cpp:380] inception_3a/relu_3x3_reduce <- inception_3a/3x3_reduce
I1215 11:51:18.120183 29126 net.cpp:327] inception_3a/relu_3x3_reduce -> inception_3a/3x3_reduce (in-place)
I1215 11:51:18.120193 29126 net.cpp:113] Setting up inception_3a/relu_3x3_reduce
I1215 11:51:18.120271 29126 net.cpp:120] Top shape: 32 96 28 28 (2408448)
I1215 11:51:18.120280 29126 layer_factory.hpp:74] Creating layer inception_3a/3x3
I1215 11:51:18.120288 29126 net.cpp:84] Creating Layer inception_3a/3x3
I1215 11:51:18.120295 29126 net.cpp:380] inception_3a/3x3 <- inception_3a/3x3_reduce
I1215 11:51:18.120304 29126 net.cpp:338] inception_3a/3x3 -> inception_3a/3x3
I1215 11:51:18.120316 29126 net.cpp:113] Setting up inception_3a/3x3
I1215 11:51:18.128046 29126 net.cpp:120] Top shape: 32 128 28 28 (3211264)
I1215 11:51:18.128067 29126 layer_factory.hpp:74] Creating layer inception_3a/relu_3x3
I1215 11:51:18.128078 29126 net.cpp:84] Creating Layer inception_3a/relu_3x3
I1215 11:51:18.128090 29126 net.cpp:380] inception_3a/relu_3x3 <- inception_3a/3x3
I1215 11:51:18.128109 29126 net.cpp:327] inception_3a/relu_3x3 -> inception_3a/3x3 (in-place)
I1215 11:51:18.128118 29126 net.cpp:113] Setting up inception_3a/relu_3x3
I1215 11:51:18.128388 29126 net.cpp:120] Top shape: 32 128 28 28 (3211264)
I1215 11:51:18.128401 29126 layer_factory.hpp:74] Creating layer inception_3a/5x5_reduce
I1215 11:51:18.128412 29126 net.cpp:84] Creating Layer inception_3a/5x5_reduce
I1215 11:51:18.128417 29126 net.cpp:380] inception_3a/5x5_reduce <- pool2/3x3_s2_pool2/3x3_s2_0_split_2
I1215 11:51:18.128428 29126 net.cpp:338] inception_3a/5x5_reduce -> inception_3a/5x5_reduce
I1215 11:51:18.128443 29126 net.cpp:113] Setting up inception_3a/5x5_reduce
I1215 11:51:18.128989 29126 net.cpp:120] Top shape: 32 16 28 28 (401408)
I1215 11:51:18.129007 29126 layer_factory.hpp:74] Creating layer inception_3a/relu_5x5_reduce
I1215 11:51:18.129022 29126 net.cpp:84] Creating Layer inception_3a/relu_5x5_reduce
I1215 11:51:18.129029 29126 net.cpp:380] inception_3a/relu_5x5_reduce <- inception_3a/5x5_reduce
I1215 11:51:18.129036 29126 net.cpp:327] inception_3a/relu_5x5_reduce -> inception_3a/5x5_reduce (in-place)
I1215 11:51:18.129045 29126 net.cpp:113] Setting up inception_3a/relu_5x5_reduce
I1215 11:51:18.129142 29126 net.cpp:120] Top shape: 32 16 28 28 (401408)
I1215 11:51:18.129150 29126 layer_factory.hpp:74] Creating layer inception_3a/5x5
I1215 11:51:18.129161 29126 net.cpp:84] Creating Layer inception_3a/5x5
I1215 11:51:18.129168 29126 net.cpp:380] inception_3a/5x5 <- inception_3a/5x5_reduce
I1215 11:51:18.129175 29126 net.cpp:338] inception_3a/5x5 -> inception_3a/5x5
I1215 11:51:18.129192 29126 net.cpp:113] Setting up inception_3a/5x5
I1215 11:51:18.129845 29126 net.cpp:120] Top shape: 32 32 28 28 (802816)
I1215 11:51:18.129864 29126 layer_factory.hpp:74] Creating layer inception_3a/relu_5x5
I1215 11:51:18.129874 29126 net.cpp:84] Creating Layer inception_3a/relu_5x5
I1215 11:51:18.129880 29126 net.cpp:380] inception_3a/relu_5x5 <- inception_3a/5x5
I1215 11:51:18.129890 29126 net.cpp:327] inception_3a/relu_5x5 -> inception_3a/5x5 (in-place)
I1215 11:51:18.129899 29126 net.cpp:113] Setting up inception_3a/relu_5x5
I1215 11:51:18.129990 29126 net.cpp:120] Top shape: 32 32 28 28 (802816)
I1215 11:51:18.130000 29126 layer_factory.hpp:74] Creating layer inception_3a/pool
I1215 11:51:18.130007 29126 layer_factory.cpp:56] CUDNN does not support padding or multiple tops. Using Caffe's own pooling layer.
I1215 11:51:18.130015 29126 net.cpp:84] Creating Layer inception_3a/pool
I1215 11:51:18.130022 29126 net.cpp:380] inception_3a/pool <- pool2/3x3_s2_pool2/3x3_s2_0_split_3
I1215 11:51:18.130031 29126 net.cpp:338] inception_3a/pool -> inception_3a/pool
I1215 11:51:18.130041 29126 net.cpp:113] Setting up inception_3a/pool
I1215 11:51:18.130051 29126 net.cpp:120] Top shape: 32 192 28 28 (4816896)
I1215 11:51:18.130058 29126 layer_factory.hpp:74] Creating layer inception_3a/pool_proj
I1215 11:51:18.130069 29126 net.cpp:84] Creating Layer inception_3a/pool_proj
I1215 11:51:18.130074 29126 net.cpp:380] inception_3a/pool_proj <- inception_3a/pool
I1215 11:51:18.130081 29126 net.cpp:338] inception_3a/pool_proj -> inception_3a/pool_proj
I1215 11:51:18.130090 29126 net.cpp:113] Setting up inception_3a/pool_proj
I1215 11:51:18.130641 29126 net.cpp:120] Top shape: 32 32 28 28 (802816)
I1215 11:51:18.130662 29126 layer_factory.hpp:74] Creating layer inception_3a/relu_pool_proj
I1215 11:51:18.130674 29126 net.cpp:84] Creating Layer inception_3a/relu_pool_proj
I1215 11:51:18.130681 29126 net.cpp:380] inception_3a/relu_pool_proj <- inception_3a/pool_proj
I1215 11:51:18.130688 29126 net.cpp:327] inception_3a/relu_pool_proj -> inception_3a/pool_proj (in-place)
I1215 11:51:18.130697 29126 net.cpp:113] Setting up inception_3a/relu_pool_proj
I1215 11:51:18.130775 29126 net.cpp:120] Top shape: 32 32 28 28 (802816)
I1215 11:51:18.130784 29126 layer_factory.hpp:74] Creating layer inception_3a/output
I1215 11:51:18.130797 29126 net.cpp:84] Creating Layer inception_3a/output
I1215 11:51:18.130816 29126 net.cpp:380] inception_3a/output <- inception_3a/1x1
I1215 11:51:18.130825 29126 net.cpp:380] inception_3a/output <- inception_3a/3x3
I1215 11:51:18.130831 29126 net.cpp:380] inception_3a/output <- inception_3a/5x5
I1215 11:51:18.130836 29126 net.cpp:380] inception_3a/output <- inception_3a/pool_proj
I1215 11:51:18.130843 29126 net.cpp:338] inception_3a/output -> inception_3a/output
I1215 11:51:18.130852 29126 net.cpp:113] Setting up inception_3a/output
I1215 11:51:18.130862 29126 net.cpp:120] Top shape: 32 256 28 28 (6422528)
I1215 11:51:18.130867 29126 layer_factory.hpp:74] Creating layer inception_3a/output_inception_3a/output_0_split
I1215 11:51:18.130878 29126 net.cpp:84] Creating Layer inception_3a/output_inception_3a/output_0_split
I1215 11:51:18.130884 29126 net.cpp:380] inception_3a/output_inception_3a/output_0_split <- inception_3a/output
I1215 11:51:18.130892 29126 net.cpp:338] inception_3a/output_inception_3a/output_0_split -> inception_3a/output_inception_3a/output_0_split_0
I1215 11:51:18.130900 29126 net.cpp:338] inception_3a/output_inception_3a/output_0_split -> inception_3a/output_inception_3a/output_0_split_1
I1215 11:51:18.130910 29126 net.cpp:338] inception_3a/output_inception_3a/output_0_split -> inception_3a/output_inception_3a/output_0_split_2
I1215 11:51:18.130918 29126 net.cpp:338] inception_3a/output_inception_3a/output_0_split -> inception_3a/output_inception_3a/output_0_split_3
I1215 11:51:18.130925 29126 net.cpp:113] Setting up inception_3a/output_inception_3a/output_0_split
I1215 11:51:18.130934 29126 net.cpp:120] Top shape: 32 256 28 28 (6422528)
I1215 11:51:18.130940 29126 net.cpp:120] Top shape: 32 256 28 28 (6422528)
I1215 11:51:18.130946 29126 net.cpp:120] Top shape: 32 256 28 28 (6422528)
I1215 11:51:18.130952 29126 net.cpp:120] Top shape: 32 256 28 28 (6422528)
I1215 11:51:18.130957 29126 layer_factory.hpp:74] Creating layer inception_3b/1x1
I1215 11:51:18.130966 29126 net.cpp:84] Creating Layer inception_3b/1x1
I1215 11:51:18.130971 29126 net.cpp:380] inception_3b/1x1 <- inception_3a/output_inception_3a/output_0_split_0
I1215 11:51:18.130981 29126 net.cpp:338] inception_3b/1x1 -> inception_3b/1x1
I1215 11:51:18.130990 29126 net.cpp:113] Setting up inception_3b/1x1
I1215 11:51:18.131990 29126 net.cpp:120] Top shape: 32 128 28 28 (3211264)
I1215 11:51:18.132009 29126 layer_factory.hpp:74] Creating layer inception_3b/relu_1x1
I1215 11:51:18.132019 29126 net.cpp:84] Creating Layer inception_3b/relu_1x1
I1215 11:51:18.132025 29126 net.cpp:380] inception_3b/relu_1x1 <- inception_3b/1x1
I1215 11:51:18.132033 29126 net.cpp:327] inception_3b/relu_1x1 -> inception_3b/1x1 (in-place)
I1215 11:51:18.132042 29126 net.cpp:113] Setting up inception_3b/relu_1x1
I1215 11:51:18.132307 29126 net.cpp:120] Top shape: 32 128 28 28 (3211264)
I1215 11:51:18.132319 29126 layer_factory.hpp:74] Creating layer inception_3b/3x3_reduce
I1215 11:51:18.132329 29126 net.cpp:84] Creating Layer inception_3b/3x3_reduce
I1215 11:51:18.132335 29126 net.cpp:380] inception_3b/3x3_reduce <- inception_3a/output_inception_3a/output_0_split_1
I1215 11:51:18.132346 29126 net.cpp:338] inception_3b/3x3_reduce -> inception_3b/3x3_reduce
I1215 11:51:18.132357 29126 net.cpp:113] Setting up inception_3b/3x3_reduce
I1215 11:51:18.133245 29126 net.cpp:120] Top shape: 32 128 28 28 (3211264)
I1215 11:51:18.133265 29126 layer_factory.hpp:74] Creating layer inception_3b/relu_3x3_reduce
I1215 11:51:18.133273 29126 net.cpp:84] Creating Layer inception_3b/relu_3x3_reduce
I1215 11:51:18.133280 29126 net.cpp:380] inception_3b/relu_3x3_reduce <- inception_3b/3x3_reduce
I1215 11:51:18.133290 29126 net.cpp:327] inception_3b/relu_3x3_reduce -> inception_3b/3x3_reduce (in-place)
I1215 11:51:18.133298 29126 net.cpp:113] Setting up inception_3b/relu_3x3_reduce
I1215 11:51:18.133373 29126 net.cpp:120] Top shape: 32 128 28 28 (3211264)
I1215 11:51:18.133393 29126 layer_factory.hpp:74] Creating layer inception_3b/3x3
I1215 11:51:18.133411 29126 net.cpp:84] Creating Layer inception_3b/3x3
I1215 11:51:18.133422 29126 net.cpp:380] inception_3b/3x3 <- inception_3b/3x3_reduce
I1215 11:51:18.133447 29126 net.cpp:338] inception_3b/3x3 -> inception_3b/3x3
I1215 11:51:18.133457 29126 net.cpp:113] Setting up inception_3b/3x3
I1215 11:51:18.136667 29126 net.cpp:120] Top shape: 32 192 28 28 (4816896)
I1215 11:51:18.136683 29126 layer_factory.hpp:74] Creating layer inception_3b/relu_3x3
I1215 11:51:18.136694 29126 net.cpp:84] Creating Layer inception_3b/relu_3x3
I1215 11:51:18.136700 29126 net.cpp:380] inception_3b/relu_3x3 <- inception_3b/3x3
I1215 11:51:18.136708 29126 net.cpp:327] inception_3b/relu_3x3 -> inception_3b/3x3 (in-place)
I1215 11:51:18.136716 29126 net.cpp:113] Setting up inception_3b/relu_3x3
I1215 11:51:18.136793 29126 net.cpp:120] Top shape: 32 192 28 28 (4816896)
I1215 11:51:18.136801 29126 layer_factory.hpp:74] Creating layer inception_3b/5x5_reduce
I1215 11:51:18.136811 29126 net.cpp:84] Creating Layer inception_3b/5x5_reduce
I1215 11:51:18.136817 29126 net.cpp:380] inception_3b/5x5_reduce <- inception_3a/output_inception_3a/output_0_split_2
I1215 11:51:18.136826 29126 net.cpp:338] inception_3b/5x5_reduce -> inception_3b/5x5_reduce
I1215 11:51:18.136837 29126 net.cpp:113] Setting up inception_3b/5x5_reduce
I1215 11:51:18.137370 29126 net.cpp:120] Top shape: 32 32 28 28 (802816)
I1215 11:51:18.137388 29126 layer_factory.hpp:74] Creating layer inception_3b/relu_5x5_reduce
I1215 11:51:18.137406 29126 net.cpp:84] Creating Layer inception_3b/relu_5x5_reduce
I1215 11:51:18.137413 29126 net.cpp:380] inception_3b/relu_5x5_reduce <- inception_3b/5x5_reduce
I1215 11:51:18.137419 29126 net.cpp:327] inception_3b/relu_5x5_reduce -> inception_3b/5x5_reduce (in-place)
I1215 11:51:18.137428 29126 net.cpp:113] Setting up inception_3b/relu_5x5_reduce
I1215 11:51:18.137501 29126 net.cpp:120] Top shape: 32 32 28 28 (802816)
I1215 11:51:18.137508 29126 layer_factory.hpp:74] Creating layer inception_3b/5x5
I1215 11:51:18.137521 29126 net.cpp:84] Creating Layer inception_3b/5x5
I1215 11:51:18.137526 29126 net.cpp:380] inception_3b/5x5 <- inception_3b/5x5_reduce
I1215 11:51:18.137533 29126 net.cpp:338] inception_3b/5x5 -> inception_3b/5x5
I1215 11:51:18.137547 29126 net.cpp:113] Setting up inception_3b/5x5
I1215 11:51:18.138926 29126 net.cpp:120] Top shape: 32 96 28 28 (2408448)
I1215 11:51:18.138942 29126 layer_factory.hpp:74] Creating layer inception_3b/relu_5x5
I1215 11:51:18.138952 29126 net.cpp:84] Creating Layer inception_3b/relu_5x5
I1215 11:51:18.138957 29126 net.cpp:380] inception_3b/relu_5x5 <- inception_3b/5x5
I1215 11:51:18.138963 29126 net.cpp:327] inception_3b/relu_5x5 -> inception_3b/5x5 (in-place)
I1215 11:51:18.138974 29126 net.cpp:113] Setting up inception_3b/relu_5x5
I1215 11:51:18.139227 29126 net.cpp:120] Top shape: 32 96 28 28 (2408448)
I1215 11:51:18.139240 29126 layer_factory.hpp:74] Creating layer inception_3b/pool
I1215 11:51:18.139246 29126 layer_factory.cpp:56] CUDNN does not support padding or multiple tops. Using Caffe's own pooling layer.
I1215 11:51:18.139253 29126 net.cpp:84] Creating Layer inception_3b/pool
I1215 11:51:18.139259 29126 net.cpp:380] inception_3b/pool <- inception_3a/output_inception_3a/output_0_split_3
I1215 11:51:18.139267 29126 net.cpp:338] inception_3b/pool -> inception_3b/pool
I1215 11:51:18.139276 29126 net.cpp:113] Setting up inception_3b/pool
I1215 11:51:18.139286 29126 net.cpp:120] Top shape: 32 256 28 28 (6422528)
I1215 11:51:18.139291 29126 layer_factory.hpp:74] Creating layer inception_3b/pool_proj
I1215 11:51:18.139300 29126 net.cpp:84] Creating Layer inception_3b/pool_proj
I1215 11:51:18.139307 29126 net.cpp:380] inception_3b/pool_proj <- inception_3b/pool
I1215 11:51:18.139315 29126 net.cpp:338] inception_3b/pool_proj -> inception_3b/pool_proj
I1215 11:51:18.139323 29126 net.cpp:113] Setting up inception_3b/pool_proj
I1215 11:51:18.139950 29126 net.cpp:120] Top shape: 32 64 28 28 (1605632)
I1215 11:51:18.139971 29126 layer_factory.hpp:74] Creating layer inception_3b/relu_pool_proj
I1215 11:51:18.139981 29126 net.cpp:84] Creating Layer inception_3b/relu_pool_proj
I1215 11:51:18.139992 29126 net.cpp:380] inception_3b/relu_pool_proj <- inception_3b/pool_proj
I1215 11:51:18.140008 29126 net.cpp:327] inception_3b/relu_pool_proj -> inception_3b/pool_proj (in-place)
I1215 11:51:18.140017 29126 net.cpp:113] Setting up inception_3b/relu_pool_proj
I1215 11:51:18.140092 29126 net.cpp:120] Top shape: 32 64 28 28 (1605632)
I1215 11:51:18.140102 29126 layer_factory.hpp:74] Creating layer inception_3b/output
I1215 11:51:18.140111 29126 net.cpp:84] Creating Layer inception_3b/output
I1215 11:51:18.140117 29126 net.cpp:380] inception_3b/output <- inception_3b/1x1
I1215 11:51:18.140123 29126 net.cpp:380] inception_3b/output <- inception_3b/3x3
I1215 11:51:18.140130 29126 net.cpp:380] inception_3b/output <- inception_3b/5x5
I1215 11:51:18.140135 29126 net.cpp:380] inception_3b/output <- inception_3b/pool_proj
I1215 11:51:18.140143 29126 net.cpp:338] inception_3b/output -> inception_3b/output
I1215 11:51:18.140151 29126 net.cpp:113] Setting up inception_3b/output
I1215 11:51:18.140159 29126 net.cpp:120] Top shape: 32 480 28 28 (12042240)
I1215 11:51:18.140164 29126 layer_factory.hpp:74] Creating layer pool3/3x3_s2
I1215 11:51:18.140172 29126 net.cpp:84] Creating Layer pool3/3x3_s2
I1215 11:51:18.140177 29126 net.cpp:380] pool3/3x3_s2 <- inception_3b/output
I1215 11:51:18.140184 29126 net.cpp:338] pool3/3x3_s2 -> pool3/3x3_s2
I1215 11:51:18.140192 29126 net.cpp:113] Setting up pool3/3x3_s2
I1215 11:51:18.140264 29126 net.cpp:120] Top shape: 32 480 14 14 (3010560)
I1215 11:51:18.140271 29126 layer_factory.hpp:74] Creating layer pool3/3x3_s2_pool3/3x3_s2_0_split
I1215 11:51:18.140280 29126 net.cpp:84] Creating Layer pool3/3x3_s2_pool3/3x3_s2_0_split
I1215 11:51:18.140285 29126 net.cpp:380] pool3/3x3_s2_pool3/3x3_s2_0_split <- pool3/3x3_s2
I1215 11:51:18.140292 29126 net.cpp:338] pool3/3x3_s2_pool3/3x3_s2_0_split -> pool3/3x3_s2_pool3/3x3_s2_0_split_0
I1215 11:51:18.140301 29126 net.cpp:338] pool3/3x3_s2_pool3/3x3_s2_0_split -> pool3/3x3_s2_pool3/3x3_s2_0_split_1
I1215 11:51:18.140310 29126 net.cpp:338] pool3/3x3_s2_pool3/3x3_s2_0_split -> pool3/3x3_s2_pool3/3x3_s2_0_split_2
I1215 11:51:18.140316 29126 net.cpp:338] pool3/3x3_s2_pool3/3x3_s2_0_split -> pool3/3x3_s2_pool3/3x3_s2_0_split_3
I1215 11:51:18.140323 29126 net.cpp:113] Setting up pool3/3x3_s2_pool3/3x3_s2_0_split
I1215 11:51:18.140333 29126 net.cpp:120] Top shape: 32 480 14 14 (3010560)
I1215 11:51:18.140339 29126 net.cpp:120] Top shape: 32 480 14 14 (3010560)
I1215 11:51:18.140344 29126 net.cpp:120] Top shape: 32 480 14 14 (3010560)
I1215 11:51:18.140350 29126 net.cpp:120] Top shape: 32 480 14 14 (3010560)
I1215 11:51:18.140355 29126 layer_factory.hpp:74] Creating layer inception_4a/1x1
I1215 11:51:18.140363 29126 net.cpp:84] Creating Layer inception_4a/1x1
I1215 11:51:18.140368 29126 net.cpp:380] inception_4a/1x1 <- pool3/3x3_s2_pool3/3x3_s2_0_split_0
I1215 11:51:18.140377 29126 net.cpp:338] inception_4a/1x1 -> inception_4a/1x1
I1215 11:51:18.140386 29126 net.cpp:113] Setting up inception_4a/1x1
I1215 11:51:18.141981 29126 net.cpp:120] Top shape: 32 192 14 14 (1204224)
I1215 11:51:18.142001 29126 layer_factory.hpp:74] Creating layer inception_4a/relu_1x1
I1215 11:51:18.142009 29126 net.cpp:84] Creating Layer inception_4a/relu_1x1
I1215 11:51:18.142015 29126 net.cpp:380] inception_4a/relu_1x1 <- inception_4a/1x1
I1215 11:51:18.142024 29126 net.cpp:327] inception_4a/relu_1x1 -> inception_4a/1x1 (in-place)
I1215 11:51:18.142031 29126 net.cpp:113] Setting up inception_4a/relu_1x1
I1215 11:51:18.142287 29126 net.cpp:120] Top shape: 32 192 14 14 (1204224)
I1215 11:51:18.142298 29126 layer_factory.hpp:74] Creating layer inception_4a/3x3_reduce
I1215 11:51:18.142309 29126 net.cpp:84] Creating Layer inception_4a/3x3_reduce
I1215 11:51:18.142315 29126 net.cpp:380] inception_4a/3x3_reduce <- pool3/3x3_s2_pool3/3x3_s2_0_split_1
I1215 11:51:18.142326 29126 net.cpp:338] inception_4a/3x3_reduce -> inception_4a/3x3_reduce
I1215 11:51:18.142336 29126 net.cpp:113] Setting up inception_4a/3x3_reduce
I1215 11:51:18.143337 29126 net.cpp:120] Top shape: 32 96 14 14 (602112)
I1215 11:51:18.143363 29126 layer_factory.hpp:74] Creating layer inception_4a/relu_3x3_reduce
I1215 11:51:18.143383 29126 net.cpp:84] Creating Layer inception_4a/relu_3x3_reduce
I1215 11:51:18.143389 29126 net.cpp:380] inception_4a/relu_3x3_reduce <- inception_4a/3x3_reduce
I1215 11:51:18.143398 29126 net.cpp:327] inception_4a/relu_3x3_reduce -> inception_4a/3x3_reduce (in-place)
I1215 11:51:18.143405 29126 net.cpp:113] Setting up inception_4a/relu_3x3_reduce
I1215 11:51:18.143483 29126 net.cpp:120] Top shape: 32 96 14 14 (602112)
I1215 11:51:18.143491 29126 layer_factory.hpp:74] Creating layer inception_4a/3x3
I1215 11:51:18.143501 29126 net.cpp:84] Creating Layer inception_4a/3x3
I1215 11:51:18.143507 29126 net.cpp:380] inception_4a/3x3 <- inception_4a/3x3_reduce
I1215 11:51:18.143517 29126 net.cpp:338] inception_4a/3x3 -> inception_4a/3x3
I1215 11:51:18.143527 29126 net.cpp:113] Setting up inception_4a/3x3
I1215 11:51:18.146221 29126 net.cpp:120] Top shape: 32 208 14 14 (1304576)
I1215 11:51:18.146239 29126 layer_factory.hpp:74] Creating layer inception_4a/relu_3x3
I1215 11:51:18.146250 29126 net.cpp:84] Creating Layer inception_4a/relu_3x3
I1215 11:51:18.146255 29126 net.cpp:380] inception_4a/relu_3x3 <- inception_4a/3x3
I1215 11:51:18.146262 29126 net.cpp:327] inception_4a/relu_3x3 -> inception_4a/3x3 (in-place)
I1215 11:51:18.146270 29126 net.cpp:113] Setting up inception_4a/relu_3x3
I1215 11:51:18.146352 29126 net.cpp:120] Top shape: 32 208 14 14 (1304576)
I1215 11:51:18.146359 29126 layer_factory.hpp:74] Creating layer inception_4a/5x5_reduce
I1215 11:51:18.146368 29126 net.cpp:84] Creating Layer inception_4a/5x5_reduce
I1215 11:51:18.146373 29126 net.cpp:380] inception_4a/5x5_reduce <- pool3/3x3_s2_pool3/3x3_s2_0_split_2
I1215 11:51:18.146384 29126 net.cpp:338] inception_4a/5x5_reduce -> inception_4a/5x5_reduce
I1215 11:51:18.146392 29126 net.cpp:113] Setting up inception_4a/5x5_reduce
I1215 11:51:18.147249 29126 net.cpp:120] Top shape: 32 16 14 14 (100352)
I1215 11:51:18.147266 29126 layer_factory.hpp:74] Creating layer inception_4a/relu_5x5_reduce
I1215 11:51:18.147276 29126 net.cpp:84] Creating Layer inception_4a/relu_5x5_reduce
I1215 11:51:18.147282 29126 net.cpp:380] inception_4a/relu_5x5_reduce <- inception_4a/5x5_reduce
I1215 11:51:18.147289 29126 net.cpp:327] inception_4a/relu_5x5_reduce -> inception_4a/5x5_reduce (in-place)
I1215 11:51:18.147297 29126 net.cpp:113] Setting up inception_4a/relu_5x5_reduce
I1215 11:51:18.147370 29126 net.cpp:120] Top shape: 32 16 14 14 (100352)
I1215 11:51:18.147377 29126 layer_factory.hpp:74] Creating layer inception_4a/5x5
I1215 11:51:18.147385 29126 net.cpp:84] Creating Layer inception_4a/5x5
I1215 11:51:18.147392 29126 net.cpp:380] inception_4a/5x5 <- inception_4a/5x5_reduce
I1215 11:51:18.147400 29126 net.cpp:338] inception_4a/5x5 -> inception_4a/5x5
I1215 11:51:18.147408 29126 net.cpp:113] Setting up inception_4a/5x5
I1215 11:51:18.148067 29126 net.cpp:120] Top shape: 32 48 14 14 (301056)
I1215 11:51:18.148084 29126 layer_factory.hpp:74] Creating layer inception_4a/relu_5x5
I1215 11:51:18.148094 29126 net.cpp:84] Creating Layer inception_4a/relu_5x5
I1215 11:51:18.148100 29126 net.cpp:380] inception_4a/relu_5x5 <- inception_4a/5x5
I1215 11:51:18.148108 29126 net.cpp:327] inception_4a/relu_5x5 -> inception_4a/5x5 (in-place)
I1215 11:51:18.148115 29126 net.cpp:113] Setting up inception_4a/relu_5x5
I1215 11:51:18.148363 29126 net.cpp:120] Top shape: 32 48 14 14 (301056)
I1215 11:51:18.148375 29126 layer_factory.hpp:74] Creating layer inception_4a/pool
I1215 11:51:18.148382 29126 layer_factory.cpp:56] CUDNN does not support padding or multiple tops. Using Caffe's own pooling layer.
I1215 11:51:18.148389 29126 net.cpp:84] Creating Layer inception_4a/pool
I1215 11:51:18.148394 29126 net.cpp:380] inception_4a/pool <- pool3/3x3_s2_pool3/3x3_s2_0_split_3
I1215 11:51:18.148404 29126 net.cpp:338] inception_4a/pool -> inception_4a/pool
I1215 11:51:18.148413 29126 net.cpp:113] Setting up inception_4a/pool
I1215 11:51:18.148422 29126 net.cpp:120] Top shape: 32 480 14 14 (3010560)
I1215 11:51:18.148437 29126 layer_factory.hpp:74] Creating layer inception_4a/pool_proj
I1215 11:51:18.148454 29126 net.cpp:84] Creating Layer inception_4a/pool_proj
I1215 11:51:18.148460 29126 net.cpp:380] inception_4a/pool_proj <- inception_4a/pool
I1215 11:51:18.148468 29126 net.cpp:338] inception_4a/pool_proj -> inception_4a/pool_proj
I1215 11:51:18.148475 29126 net.cpp:113] Setting up inception_4a/pool_proj
I1215 11:51:18.149273 29126 net.cpp:120] Top shape: 32 64 14 14 (401408)
I1215 11:51:18.149292 29126 layer_factory.hpp:74] Creating layer inception_4a/relu_pool_proj
I1215 11:51:18.149302 29126 net.cpp:84] Creating Layer inception_4a/relu_pool_proj
I1215 11:51:18.149307 29126 net.cpp:380] inception_4a/relu_pool_proj <- inception_4a/pool_proj
I1215 11:51:18.149317 29126 net.cpp:327] inception_4a/relu_pool_proj -> inception_4a/pool_proj (in-place)
I1215 11:51:18.149324 29126 net.cpp:113] Setting up inception_4a/relu_pool_proj
I1215 11:51:18.149396 29126 net.cpp:120] Top shape: 32 64 14 14 (401408)
I1215 11:51:18.149404 29126 layer_factory.hpp:74] Creating layer inception_4a/output
I1215 11:51:18.149410 29126 net.cpp:84] Creating Layer inception_4a/output
I1215 11:51:18.149415 29126 net.cpp:380] inception_4a/output <- inception_4a/1x1
I1215 11:51:18.149421 29126 net.cpp:380] inception_4a/output <- inception_4a/3x3
I1215 11:51:18.149435 29126 net.cpp:380] inception_4a/output <- inception_4a/5x5
I1215 11:51:18.149440 29126 net.cpp:380] inception_4a/output <- inception_4a/pool_proj
I1215 11:51:18.149447 29126 net.cpp:338] inception_4a/output -> inception_4a/output
I1215 11:51:18.149456 29126 net.cpp:113] Setting up inception_4a/output
I1215 11:51:18.149463 29126 net.cpp:120] Top shape: 32 512 14 14 (3211264)
I1215 11:51:18.149468 29126 layer_factory.hpp:74] Creating layer inception_4a/output_inception_4a/output_0_split
I1215 11:51:18.149476 29126 net.cpp:84] Creating Layer inception_4a/output_inception_4a/output_0_split
I1215 11:51:18.149480 29126 net.cpp:380] inception_4a/output_inception_4a/output_0_split <- inception_4a/output
I1215 11:51:18.149488 29126 net.cpp:338] inception_4a/output_inception_4a/output_0_split -> inception_4a/output_inception_4a/output_0_split_0
I1215 11:51:18.149497 29126 net.cpp:338] inception_4a/output_inception_4a/output_0_split -> inception_4a/output_inception_4a/output_0_split_1
I1215 11:51:18.149504 29126 net.cpp:338] inception_4a/output_inception_4a/output_0_split -> inception_4a/output_inception_4a/output_0_split_2
I1215 11:51:18.149512 29126 net.cpp:338] inception_4a/output_inception_4a/output_0_split -> inception_4a/output_inception_4a/output_0_split_3
I1215 11:51:18.149518 29126 net.cpp:338] inception_4a/output_inception_4a/output_0_split -> inception_4a/output_inception_4a/output_0_split_4
I1215 11:51:18.149525 29126 net.cpp:113] Setting up inception_4a/output_inception_4a/output_0_split
I1215 11:51:18.149533 29126 net.cpp:120] Top shape: 32 512 14 14 (3211264)
I1215 11:51:18.149539 29126 net.cpp:120] Top shape: 32 512 14 14 (3211264)
I1215 11:51:18.149544 29126 net.cpp:120] Top shape: 32 512 14 14 (3211264)
I1215 11:51:18.149549 29126 net.cpp:120] Top shape: 32 512 14 14 (3211264)
I1215 11:51:18.149555 29126 net.cpp:120] Top shape: 32 512 14 14 (3211264)
I1215 11:51:18.149560 29126 layer_factory.hpp:74] Creating layer loss1/ave_pool
I1215 11:51:18.149569 29126 net.cpp:84] Creating Layer loss1/ave_pool
I1215 11:51:18.149574 29126 net.cpp:380] loss1/ave_pool <- inception_4a/output_inception_4a/output_0_split_0
I1215 11:51:18.149580 29126 net.cpp:338] loss1/ave_pool -> loss1/ave_pool
I1215 11:51:18.149587 29126 net.cpp:113] Setting up loss1/ave_pool
I1215 11:51:18.149654 29126 net.cpp:120] Top shape: 32 512 4 4 (262144)
I1215 11:51:18.149663 29126 layer_factory.hpp:74] Creating layer loss1/conv
I1215 11:51:18.149673 29126 net.cpp:84] Creating Layer loss1/conv
I1215 11:51:18.149678 29126 net.cpp:380] loss1/conv <- loss1/ave_pool
I1215 11:51:18.149685 29126 net.cpp:338] loss1/conv -> loss1/conv
I1215 11:51:18.149693 29126 net.cpp:113] Setting up loss1/conv
I1215 11:51:18.150898 29126 net.cpp:120] Top shape: 32 128 4 4 (65536)
I1215 11:51:18.150924 29126 layer_factory.hpp:74] Creating layer loss1/relu_conv
I1215 11:51:18.150936 29126 net.cpp:84] Creating Layer loss1/relu_conv
I1215 11:51:18.150941 29126 net.cpp:380] loss1/relu_conv <- loss1/conv
I1215 11:51:18.150949 29126 net.cpp:327] loss1/relu_conv -> loss1/conv (in-place)
I1215 11:51:18.150957 29126 net.cpp:113] Setting up loss1/relu_conv
I1215 11:51:18.151031 29126 net.cpp:120] Top shape: 32 128 4 4 (65536)
I1215 11:51:18.151037 29126 layer_factory.hpp:74] Creating layer loss1/fc
I1215 11:51:18.151048 29126 net.cpp:84] Creating Layer loss1/fc
I1215 11:51:18.151053 29126 net.cpp:380] loss1/fc <- loss1/conv
I1215 11:51:18.151062 29126 net.cpp:338] loss1/fc -> loss1/fc
I1215 11:51:18.151077 29126 net.cpp:113] Setting up loss1/fc
I1215 11:51:18.174531 29126 net.cpp:120] Top shape: 32 1024 (32768)
I1215 11:51:18.174563 29126 layer_factory.hpp:74] Creating layer loss1/relu_fc
I1215 11:51:18.174574 29126 net.cpp:84] Creating Layer loss1/relu_fc
I1215 11:51:18.174582 29126 net.cpp:380] loss1/relu_fc <- loss1/fc
I1215 11:51:18.174592 29126 net.cpp:327] loss1/relu_fc -> loss1/fc (in-place)
I1215 11:51:18.174602 29126 net.cpp:113] Setting up loss1/relu_fc
I1215 11:51:18.174958 29126 net.cpp:120] Top shape: 32 1024 (32768)
I1215 11:51:18.174970 29126 layer_factory.hpp:74] Creating layer loss1/drop_fc
I1215 11:51:18.174990 29126 net.cpp:84] Creating Layer loss1/drop_fc
I1215 11:51:18.174998 29126 net.cpp:380] loss1/drop_fc <- loss1/fc
I1215 11:51:18.175004 29126 net.cpp:327] loss1/drop_fc -> loss1/fc (in-place)
I1215 11:51:18.175014 29126 net.cpp:113] Setting up loss1/drop_fc
I1215 11:51:18.175024 29126 net.cpp:120] Top shape: 32 1024 (32768)
I1215 11:51:18.175029 29126 layer_factory.hpp:74] Creating layer loss1/classifier_kaggle
I1215 11:51:18.175040 29126 net.cpp:84] Creating Layer loss1/classifier_kaggle
I1215 11:51:18.175045 29126 net.cpp:380] loss1/classifier_kaggle <- loss1/fc
I1215 11:51:18.175053 29126 net.cpp:338] loss1/classifier_kaggle -> loss1/classifier_kaggle
I1215 11:51:18.175062 29126 net.cpp:113] Setting up loss1/classifier_kaggle
I1215 11:51:18.180351 29126 net.cpp:120] Top shape: 32 447 (14304)
I1215 11:51:18.180363 29126 layer_factory.hpp:74] Creating layer loss1/loss
I1215 11:51:18.180371 29126 net.cpp:84] Creating Layer loss1/loss
I1215 11:51:18.180377 29126 net.cpp:380] loss1/loss <- loss1/classifier_kaggle
I1215 11:51:18.180383 29126 net.cpp:380] loss1/loss <- label_data_1_split_0
I1215 11:51:18.180392 29126 net.cpp:338] loss1/loss -> loss1/loss1
I1215 11:51:18.180402 29126 net.cpp:113] Setting up loss1/loss
I1215 11:51:18.180410 29126 layer_factory.hpp:74] Creating layer loss1/loss
I1215 11:51:18.180531 29126 net.cpp:120] Top shape: (1)
I1215 11:51:18.180539 29126 net.cpp:122]     with loss weight 0.3
I1215 11:51:18.180557 29126 layer_factory.hpp:74] Creating layer inception_4b/1x1
I1215 11:51:18.180569 29126 net.cpp:84] Creating Layer inception_4b/1x1
I1215 11:51:18.180575 29126 net.cpp:380] inception_4b/1x1 <- inception_4a/output_inception_4a/output_0_split_1
I1215 11:51:18.180583 29126 net.cpp:338] inception_4b/1x1 -> inception_4b/1x1
I1215 11:51:18.180593 29126 net.cpp:113] Setting up inception_4b/1x1
I1215 11:51:18.182277 29126 net.cpp:120] Top shape: 32 160 14 14 (1003520)
I1215 11:51:18.182296 29126 layer_factory.hpp:74] Creating layer inception_4b/relu_1x1
I1215 11:51:18.182304 29126 net.cpp:84] Creating Layer inception_4b/relu_1x1
I1215 11:51:18.182310 29126 net.cpp:380] inception_4b/relu_1x1 <- inception_4b/1x1
I1215 11:51:18.182319 29126 net.cpp:327] inception_4b/relu_1x1 -> inception_4b/1x1 (in-place)
I1215 11:51:18.182327 29126 net.cpp:113] Setting up inception_4b/relu_1x1
I1215 11:51:18.182400 29126 net.cpp:120] Top shape: 32 160 14 14 (1003520)
I1215 11:51:18.182407 29126 layer_factory.hpp:74] Creating layer inception_4b/3x3_reduce
I1215 11:51:18.182416 29126 net.cpp:84] Creating Layer inception_4b/3x3_reduce
I1215 11:51:18.182421 29126 net.cpp:380] inception_4b/3x3_reduce <- inception_4a/output_inception_4a/output_0_split_2
I1215 11:51:18.182441 29126 net.cpp:338] inception_4b/3x3_reduce -> inception_4b/3x3_reduce
I1215 11:51:18.182461 29126 net.cpp:113] Setting up inception_4b/3x3_reduce
I1215 11:51:18.183528 29126 net.cpp:120] Top shape: 32 112 14 14 (702464)
I1215 11:51:18.183544 29126 layer_factory.hpp:74] Creating layer inception_4b/relu_3x3_reduce
I1215 11:51:18.183552 29126 net.cpp:84] Creating Layer inception_4b/relu_3x3_reduce
I1215 11:51:18.183557 29126 net.cpp:380] inception_4b/relu_3x3_reduce <- inception_4b/3x3_reduce
I1215 11:51:18.183564 29126 net.cpp:327] inception_4b/relu_3x3_reduce -> inception_4b/3x3_reduce (in-place)
I1215 11:51:18.183573 29126 net.cpp:113] Setting up inception_4b/relu_3x3_reduce
I1215 11:51:18.183640 29126 net.cpp:120] Top shape: 32 112 14 14 (702464)
I1215 11:51:18.183646 29126 layer_factory.hpp:74] Creating layer inception_4b/3x3
I1215 11:51:18.183655 29126 net.cpp:84] Creating Layer inception_4b/3x3
I1215 11:51:18.183658 29126 net.cpp:380] inception_4b/3x3 <- inception_4b/3x3_reduce
I1215 11:51:18.183668 29126 net.cpp:338] inception_4b/3x3 -> inception_4b/3x3
I1215 11:51:18.183677 29126 net.cpp:113] Setting up inception_4b/3x3
I1215 11:51:18.186686 29126 net.cpp:120] Top shape: 32 224 14 14 (1404928)
I1215 11:51:18.186704 29126 layer_factory.hpp:74] Creating layer inception_4b/relu_3x3
I1215 11:51:18.186713 29126 net.cpp:84] Creating Layer inception_4b/relu_3x3
I1215 11:51:18.186718 29126 net.cpp:380] inception_4b/relu_3x3 <- inception_4b/3x3
I1215 11:51:18.186727 29126 net.cpp:327] inception_4b/relu_3x3 -> inception_4b/3x3 (in-place)
I1215 11:51:18.186734 29126 net.cpp:113] Setting up inception_4b/relu_3x3
I1215 11:51:18.186971 29126 net.cpp:120] Top shape: 32 224 14 14 (1404928)
I1215 11:51:18.186982 29126 layer_factory.hpp:74] Creating layer inception_4b/5x5_reduce
I1215 11:51:18.186993 29126 net.cpp:84] Creating Layer inception_4b/5x5_reduce
I1215 11:51:18.186998 29126 net.cpp:380] inception_4b/5x5_reduce <- inception_4a/output_inception_4a/output_0_split_3
I1215 11:51:18.187006 29126 net.cpp:338] inception_4b/5x5_reduce -> inception_4b/5x5_reduce
I1215 11:51:18.187016 29126 net.cpp:113] Setting up inception_4b/5x5_reduce
I1215 11:51:18.187572 29126 net.cpp:120] Top shape: 32 24 14 14 (150528)
I1215 11:51:18.187587 29126 layer_factory.hpp:74] Creating layer inception_4b/relu_5x5_reduce
I1215 11:51:18.187594 29126 net.cpp:84] Creating Layer inception_4b/relu_5x5_reduce
I1215 11:51:18.187600 29126 net.cpp:380] inception_4b/relu_5x5_reduce <- inception_4b/5x5_reduce
I1215 11:51:18.187607 29126 net.cpp:327] inception_4b/relu_5x5_reduce -> inception_4b/5x5_reduce (in-place)
I1215 11:51:18.187614 29126 net.cpp:113] Setting up inception_4b/relu_5x5_reduce
I1215 11:51:18.187683 29126 net.cpp:120] Top shape: 32 24 14 14 (150528)
I1215 11:51:18.187690 29126 layer_factory.hpp:74] Creating layer inception_4b/5x5
I1215 11:51:18.187700 29126 net.cpp:84] Creating Layer inception_4b/5x5
I1215 11:51:18.187706 29126 net.cpp:380] inception_4b/5x5 <- inception_4b/5x5_reduce
I1215 11:51:18.187712 29126 net.cpp:338] inception_4b/5x5 -> inception_4b/5x5
I1215 11:51:18.187721 29126 net.cpp:113] Setting up inception_4b/5x5
I1215 11:51:18.188561 29126 net.cpp:120] Top shape: 32 64 14 14 (401408)
I1215 11:51:18.188577 29126 layer_factory.hpp:74] Creating layer inception_4b/relu_5x5
I1215 11:51:18.188585 29126 net.cpp:84] Creating Layer inception_4b/relu_5x5
I1215 11:51:18.188590 29126 net.cpp:380] inception_4b/relu_5x5 <- inception_4b/5x5
I1215 11:51:18.188596 29126 net.cpp:327] inception_4b/relu_5x5 -> inception_4b/5x5 (in-place)
I1215 11:51:18.188603 29126 net.cpp:113] Setting up inception_4b/relu_5x5
I1215 11:51:18.188674 29126 net.cpp:120] Top shape: 32 64 14 14 (401408)
I1215 11:51:18.188683 29126 layer_factory.hpp:74] Creating layer inception_4b/pool
I1215 11:51:18.188688 29126 layer_factory.cpp:56] CUDNN does not support padding or multiple tops. Using Caffe's own pooling layer.
I1215 11:51:18.188694 29126 net.cpp:84] Creating Layer inception_4b/pool
I1215 11:51:18.188699 29126 net.cpp:380] inception_4b/pool <- inception_4a/output_inception_4a/output_0_split_4
I1215 11:51:18.188720 29126 net.cpp:338] inception_4b/pool -> inception_4b/pool
I1215 11:51:18.188737 29126 net.cpp:113] Setting up inception_4b/pool
I1215 11:51:18.188748 29126 net.cpp:120] Top shape: 32 512 14 14 (3211264)
I1215 11:51:18.188753 29126 layer_factory.hpp:74] Creating layer inception_4b/pool_proj
I1215 11:51:18.188761 29126 net.cpp:84] Creating Layer inception_4b/pool_proj
I1215 11:51:18.188766 29126 net.cpp:380] inception_4b/pool_proj <- inception_4b/pool
I1215 11:51:18.188776 29126 net.cpp:338] inception_4b/pool_proj -> inception_4b/pool_proj
I1215 11:51:18.188783 29126 net.cpp:113] Setting up inception_4b/pool_proj
I1215 11:51:18.189580 29126 net.cpp:120] Top shape: 32 64 14 14 (401408)
I1215 11:51:18.189597 29126 layer_factory.hpp:74] Creating layer inception_4b/relu_pool_proj
I1215 11:51:18.189606 29126 net.cpp:84] Creating Layer inception_4b/relu_pool_proj
I1215 11:51:18.189611 29126 net.cpp:380] inception_4b/relu_pool_proj <- inception_4b/pool_proj
I1215 11:51:18.189618 29126 net.cpp:327] inception_4b/relu_pool_proj -> inception_4b/pool_proj (in-place)
I1215 11:51:18.189626 29126 net.cpp:113] Setting up inception_4b/relu_pool_proj
I1215 11:51:18.189870 29126 net.cpp:120] Top shape: 32 64 14 14 (401408)
I1215 11:51:18.189882 29126 layer_factory.hpp:74] Creating layer inception_4b/output
I1215 11:51:18.189889 29126 net.cpp:84] Creating Layer inception_4b/output
I1215 11:51:18.189894 29126 net.cpp:380] inception_4b/output <- inception_4b/1x1
I1215 11:51:18.189900 29126 net.cpp:380] inception_4b/output <- inception_4b/3x3
I1215 11:51:18.189906 29126 net.cpp:380] inception_4b/output <- inception_4b/5x5
I1215 11:51:18.189911 29126 net.cpp:380] inception_4b/output <- inception_4b/pool_proj
I1215 11:51:18.189918 29126 net.cpp:338] inception_4b/output -> inception_4b/output
I1215 11:51:18.189925 29126 net.cpp:113] Setting up inception_4b/output
I1215 11:51:18.189934 29126 net.cpp:120] Top shape: 32 512 14 14 (3211264)
I1215 11:51:18.189939 29126 layer_factory.hpp:74] Creating layer inception_4b/output_inception_4b/output_0_split
I1215 11:51:18.189949 29126 net.cpp:84] Creating Layer inception_4b/output_inception_4b/output_0_split
I1215 11:51:18.189954 29126 net.cpp:380] inception_4b/output_inception_4b/output_0_split <- inception_4b/output
I1215 11:51:18.189960 29126 net.cpp:338] inception_4b/output_inception_4b/output_0_split -> inception_4b/output_inception_4b/output_0_split_0
I1215 11:51:18.189967 29126 net.cpp:338] inception_4b/output_inception_4b/output_0_split -> inception_4b/output_inception_4b/output_0_split_1
I1215 11:51:18.189975 29126 net.cpp:338] inception_4b/output_inception_4b/output_0_split -> inception_4b/output_inception_4b/output_0_split_2
I1215 11:51:18.189985 29126 net.cpp:338] inception_4b/output_inception_4b/output_0_split -> inception_4b/output_inception_4b/output_0_split_3
I1215 11:51:18.189990 29126 net.cpp:113] Setting up inception_4b/output_inception_4b/output_0_split
I1215 11:51:18.189998 29126 net.cpp:120] Top shape: 32 512 14 14 (3211264)
I1215 11:51:18.190004 29126 net.cpp:120] Top shape: 32 512 14 14 (3211264)
I1215 11:51:18.190009 29126 net.cpp:120] Top shape: 32 512 14 14 (3211264)
I1215 11:51:18.190014 29126 net.cpp:120] Top shape: 32 512 14 14 (3211264)
I1215 11:51:18.190018 29126 layer_factory.hpp:74] Creating layer inception_4c/1x1
I1215 11:51:18.190026 29126 net.cpp:84] Creating Layer inception_4c/1x1
I1215 11:51:18.190031 29126 net.cpp:380] inception_4c/1x1 <- inception_4b/output_inception_4b/output_0_split_0
I1215 11:51:18.190039 29126 net.cpp:338] inception_4c/1x1 -> inception_4c/1x1
I1215 11:51:18.190047 29126 net.cpp:113] Setting up inception_4c/1x1
I1215 11:51:18.191227 29126 net.cpp:120] Top shape: 32 128 14 14 (802816)
I1215 11:51:18.191243 29126 layer_factory.hpp:74] Creating layer inception_4c/relu_1x1
I1215 11:51:18.191251 29126 net.cpp:84] Creating Layer inception_4c/relu_1x1
I1215 11:51:18.191257 29126 net.cpp:380] inception_4c/relu_1x1 <- inception_4c/1x1
I1215 11:51:18.191264 29126 net.cpp:327] inception_4c/relu_1x1 -> inception_4c/1x1 (in-place)
I1215 11:51:18.191283 29126 net.cpp:113] Setting up inception_4c/relu_1x1
I1215 11:51:18.191352 29126 net.cpp:120] Top shape: 32 128 14 14 (802816)
I1215 11:51:18.191359 29126 layer_factory.hpp:74] Creating layer inception_4c/3x3_reduce
I1215 11:51:18.191366 29126 net.cpp:84] Creating Layer inception_4c/3x3_reduce
I1215 11:51:18.191372 29126 net.cpp:380] inception_4c/3x3_reduce <- inception_4b/output_inception_4b/output_0_split_1
I1215 11:51:18.191381 29126 net.cpp:338] inception_4c/3x3_reduce -> inception_4c/3x3_reduce
I1215 11:51:18.191390 29126 net.cpp:113] Setting up inception_4c/3x3_reduce
I1215 11:51:18.192540 29126 net.cpp:120] Top shape: 32 128 14 14 (802816)
I1215 11:51:18.192558 29126 layer_factory.hpp:74] Creating layer inception_4c/relu_3x3_reduce
I1215 11:51:18.192565 29126 net.cpp:84] Creating Layer inception_4c/relu_3x3_reduce
I1215 11:51:18.192570 29126 net.cpp:380] inception_4c/relu_3x3_reduce <- inception_4c/3x3_reduce
I1215 11:51:18.192577 29126 net.cpp:327] inception_4c/relu_3x3_reduce -> inception_4c/3x3_reduce (in-place)
I1215 11:51:18.192585 29126 net.cpp:113] Setting up inception_4c/relu_3x3_reduce
I1215 11:51:18.192652 29126 net.cpp:120] Top shape: 32 128 14 14 (802816)
I1215 11:51:18.192659 29126 layer_factory.hpp:74] Creating layer inception_4c/3x3
I1215 11:51:18.192667 29126 net.cpp:84] Creating Layer inception_4c/3x3
I1215 11:51:18.192672 29126 net.cpp:380] inception_4c/3x3 <- inception_4c/3x3_reduce
I1215 11:51:18.192682 29126 net.cpp:338] inception_4c/3x3 -> inception_4c/3x3
I1215 11:51:18.192690 29126 net.cpp:113] Setting up inception_4c/3x3
I1215 11:51:18.196494 29126 net.cpp:120] Top shape: 32 256 14 14 (1605632)
I1215 11:51:18.196523 29126 layer_factory.hpp:74] Creating layer inception_4c/relu_3x3
I1215 11:51:18.196532 29126 net.cpp:84] Creating Layer inception_4c/relu_3x3
I1215 11:51:18.196538 29126 net.cpp:380] inception_4c/relu_3x3 <- inception_4c/3x3
I1215 11:51:18.196545 29126 net.cpp:327] inception_4c/relu_3x3 -> inception_4c/3x3 (in-place)
I1215 11:51:18.196553 29126 net.cpp:113] Setting up inception_4c/relu_3x3
I1215 11:51:18.196624 29126 net.cpp:120] Top shape: 32 256 14 14 (1605632)
I1215 11:51:18.196631 29126 layer_factory.hpp:74] Creating layer inception_4c/5x5_reduce
I1215 11:51:18.196642 29126 net.cpp:84] Creating Layer inception_4c/5x5_reduce
I1215 11:51:18.196647 29126 net.cpp:380] inception_4c/5x5_reduce <- inception_4b/output_inception_4b/output_0_split_2
I1215 11:51:18.196655 29126 net.cpp:338] inception_4c/5x5_reduce -> inception_4c/5x5_reduce
I1215 11:51:18.196663 29126 net.cpp:113] Setting up inception_4c/5x5_reduce
I1215 11:51:18.197216 29126 net.cpp:120] Top shape: 32 24 14 14 (150528)
I1215 11:51:18.197232 29126 layer_factory.hpp:74] Creating layer inception_4c/relu_5x5_reduce
I1215 11:51:18.197242 29126 net.cpp:84] Creating Layer inception_4c/relu_5x5_reduce
I1215 11:51:18.197247 29126 net.cpp:380] inception_4c/relu_5x5_reduce <- inception_4c/5x5_reduce
I1215 11:51:18.197254 29126 net.cpp:327] inception_4c/relu_5x5_reduce -> inception_4c/5x5_reduce (in-place)
I1215 11:51:18.197262 29126 net.cpp:113] Setting up inception_4c/relu_5x5_reduce
I1215 11:51:18.197511 29126 net.cpp:120] Top shape: 32 24 14 14 (150528)
I1215 11:51:18.197525 29126 layer_factory.hpp:74] Creating layer inception_4c/5x5
I1215 11:51:18.197535 29126 net.cpp:84] Creating Layer inception_4c/5x5
I1215 11:51:18.197540 29126 net.cpp:380] inception_4c/5x5 <- inception_4c/5x5_reduce
I1215 11:51:18.197549 29126 net.cpp:338] inception_4c/5x5 -> inception_4c/5x5
I1215 11:51:18.197558 29126 net.cpp:113] Setting up inception_4c/5x5
I1215 11:51:18.198405 29126 net.cpp:120] Top shape: 32 64 14 14 (401408)
I1215 11:51:18.198421 29126 layer_factory.hpp:74] Creating layer inception_4c/relu_5x5
I1215 11:51:18.198429 29126 net.cpp:84] Creating Layer inception_4c/relu_5x5
I1215 11:51:18.198436 29126 net.cpp:380] inception_4c/relu_5x5 <- inception_4c/5x5
I1215 11:51:18.198441 29126 net.cpp:327] inception_4c/relu_5x5 -> inception_4c/5x5 (in-place)
I1215 11:51:18.198454 29126 net.cpp:113] Setting up inception_4c/relu_5x5
I1215 11:51:18.198534 29126 net.cpp:120] Top shape: 32 64 14 14 (401408)
I1215 11:51:18.198542 29126 layer_factory.hpp:74] Creating layer inception_4c/pool
I1215 11:51:18.198547 29126 layer_factory.cpp:56] CUDNN does not support padding or multiple tops. Using Caffe's own pooling layer.
I1215 11:51:18.198554 29126 net.cpp:84] Creating Layer inception_4c/pool
I1215 11:51:18.198559 29126 net.cpp:380] inception_4c/pool <- inception_4b/output_inception_4b/output_0_split_3
I1215 11:51:18.198565 29126 net.cpp:338] inception_4c/pool -> inception_4c/pool
I1215 11:51:18.198573 29126 net.cpp:113] Setting up inception_4c/pool
I1215 11:51:18.198581 29126 net.cpp:120] Top shape: 32 512 14 14 (3211264)
I1215 11:51:18.198586 29126 layer_factory.hpp:74] Creating layer inception_4c/pool_proj
I1215 11:51:18.198596 29126 net.cpp:84] Creating Layer inception_4c/pool_proj
I1215 11:51:18.198601 29126 net.cpp:380] inception_4c/pool_proj <- inception_4c/pool
I1215 11:51:18.198611 29126 net.cpp:338] inception_4c/pool_proj -> inception_4c/pool_proj
I1215 11:51:18.198618 29126 net.cpp:113] Setting up inception_4c/pool_proj
I1215 11:51:18.199395 29126 net.cpp:120] Top shape: 32 64 14 14 (401408)
I1215 11:51:18.199412 29126 layer_factory.hpp:74] Creating layer inception_4c/relu_pool_proj
I1215 11:51:18.199422 29126 net.cpp:84] Creating Layer inception_4c/relu_pool_proj
I1215 11:51:18.199429 29126 net.cpp:380] inception_4c/relu_pool_proj <- inception_4c/pool_proj
I1215 11:51:18.199435 29126 net.cpp:327] inception_4c/relu_pool_proj -> inception_4c/pool_proj (in-place)
I1215 11:51:18.199442 29126 net.cpp:113] Setting up inception_4c/relu_pool_proj
I1215 11:51:18.199514 29126 net.cpp:120] Top shape: 32 64 14 14 (401408)
I1215 11:51:18.199520 29126 layer_factory.hpp:74] Creating layer inception_4c/output
I1215 11:51:18.199529 29126 net.cpp:84] Creating Layer inception_4c/output
I1215 11:51:18.199534 29126 net.cpp:380] inception_4c/output <- inception_4c/1x1
I1215 11:51:18.199539 29126 net.cpp:380] inception_4c/output <- inception_4c/3x3
I1215 11:51:18.199545 29126 net.cpp:380] inception_4c/output <- inception_4c/5x5
I1215 11:51:18.199550 29126 net.cpp:380] inception_4c/output <- inception_4c/pool_proj
I1215 11:51:18.199556 29126 net.cpp:338] inception_4c/output -> inception_4c/output
I1215 11:51:18.199563 29126 net.cpp:113] Setting up inception_4c/output
I1215 11:51:18.199571 29126 net.cpp:120] Top shape: 32 512 14 14 (3211264)
I1215 11:51:18.199575 29126 layer_factory.hpp:74] Creating layer inception_4c/output_inception_4c/output_0_split
I1215 11:51:18.199584 29126 net.cpp:84] Creating Layer inception_4c/output_inception_4c/output_0_split
I1215 11:51:18.199589 29126 net.cpp:380] inception_4c/output_inception_4c/output_0_split <- inception_4c/output
I1215 11:51:18.199594 29126 net.cpp:338] inception_4c/output_inception_4c/output_0_split -> inception_4c/output_inception_4c/output_0_split_0
I1215 11:51:18.199602 29126 net.cpp:338] inception_4c/output_inception_4c/output_0_split -> inception_4c/output_inception_4c/output_0_split_1
I1215 11:51:18.199609 29126 net.cpp:338] inception_4c/output_inception_4c/output_0_split -> inception_4c/output_inception_4c/output_0_split_2
I1215 11:51:18.199616 29126 net.cpp:338] inception_4c/output_inception_4c/output_0_split -> inception_4c/output_inception_4c/output_0_split_3
I1215 11:51:18.199623 29126 net.cpp:113] Setting up inception_4c/output_inception_4c/output_0_split
I1215 11:51:18.199630 29126 net.cpp:120] Top shape: 32 512 14 14 (3211264)
I1215 11:51:18.199635 29126 net.cpp:120] Top shape: 32 512 14 14 (3211264)
I1215 11:51:18.199640 29126 net.cpp:120] Top shape: 32 512 14 14 (3211264)
I1215 11:51:18.199645 29126 net.cpp:120] Top shape: 32 512 14 14 (3211264)
I1215 11:51:18.199651 29126 layer_factory.hpp:74] Creating layer inception_4d/1x1
I1215 11:51:18.199659 29126 net.cpp:84] Creating Layer inception_4d/1x1
I1215 11:51:18.199664 29126 net.cpp:380] inception_4d/1x1 <- inception_4c/output_inception_4c/output_0_split_0
I1215 11:51:18.199672 29126 net.cpp:338] inception_4d/1x1 -> inception_4d/1x1
I1215 11:51:18.199692 29126 net.cpp:113] Setting up inception_4d/1x1
I1215 11:51:18.200752 29126 net.cpp:120] Top shape: 32 112 14 14 (702464)
I1215 11:51:18.200767 29126 layer_factory.hpp:74] Creating layer inception_4d/relu_1x1
I1215 11:51:18.200778 29126 net.cpp:84] Creating Layer inception_4d/relu_1x1
I1215 11:51:18.200783 29126 net.cpp:380] inception_4d/relu_1x1 <- inception_4d/1x1
I1215 11:51:18.200790 29126 net.cpp:327] inception_4d/relu_1x1 -> inception_4d/1x1 (in-place)
I1215 11:51:18.200798 29126 net.cpp:113] Setting up inception_4d/relu_1x1
I1215 11:51:18.200867 29126 net.cpp:120] Top shape: 32 112 14 14 (702464)
I1215 11:51:18.200875 29126 layer_factory.hpp:74] Creating layer inception_4d/3x3_reduce
I1215 11:51:18.200884 29126 net.cpp:84] Creating Layer inception_4d/3x3_reduce
I1215 11:51:18.200889 29126 net.cpp:380] inception_4d/3x3_reduce <- inception_4c/output_inception_4c/output_0_split_1
I1215 11:51:18.200898 29126 net.cpp:338] inception_4d/3x3_reduce -> inception_4d/3x3_reduce
I1215 11:51:18.200907 29126 net.cpp:113] Setting up inception_4d/3x3_reduce
I1215 11:51:18.202165 29126 net.cpp:120] Top shape: 32 144 14 14 (903168)
I1215 11:51:18.202183 29126 layer_factory.hpp:74] Creating layer inception_4d/relu_3x3_reduce
I1215 11:51:18.202191 29126 net.cpp:84] Creating Layer inception_4d/relu_3x3_reduce
I1215 11:51:18.202198 29126 net.cpp:380] inception_4d/relu_3x3_reduce <- inception_4d/3x3_reduce
I1215 11:51:18.202203 29126 net.cpp:327] inception_4d/relu_3x3_reduce -> inception_4d/3x3_reduce (in-place)
I1215 11:51:18.202214 29126 net.cpp:113] Setting up inception_4d/relu_3x3_reduce
I1215 11:51:18.202452 29126 net.cpp:120] Top shape: 32 144 14 14 (903168)
I1215 11:51:18.202466 29126 layer_factory.hpp:74] Creating layer inception_4d/3x3
I1215 11:51:18.202477 29126 net.cpp:84] Creating Layer inception_4d/3x3
I1215 11:51:18.202483 29126 net.cpp:380] inception_4d/3x3 <- inception_4d/3x3_reduce
I1215 11:51:18.202491 29126 net.cpp:338] inception_4d/3x3 -> inception_4d/3x3
I1215 11:51:18.202499 29126 net.cpp:113] Setting up inception_4d/3x3
I1215 11:51:18.207197 29126 net.cpp:120] Top shape: 32 288 14 14 (1806336)
I1215 11:51:18.207214 29126 layer_factory.hpp:74] Creating layer inception_4d/relu_3x3
I1215 11:51:18.207221 29126 net.cpp:84] Creating Layer inception_4d/relu_3x3
I1215 11:51:18.207227 29126 net.cpp:380] inception_4d/relu_3x3 <- inception_4d/3x3
I1215 11:51:18.207236 29126 net.cpp:327] inception_4d/relu_3x3 -> inception_4d/3x3 (in-place)
I1215 11:51:18.207244 29126 net.cpp:113] Setting up inception_4d/relu_3x3
I1215 11:51:18.207312 29126 net.cpp:120] Top shape: 32 288 14 14 (1806336)
I1215 11:51:18.207319 29126 layer_factory.hpp:74] Creating layer inception_4d/5x5_reduce
I1215 11:51:18.207329 29126 net.cpp:84] Creating Layer inception_4d/5x5_reduce
I1215 11:51:18.207335 29126 net.cpp:380] inception_4d/5x5_reduce <- inception_4c/output_inception_4c/output_0_split_2
I1215 11:51:18.207343 29126 net.cpp:338] inception_4d/5x5_reduce -> inception_4d/5x5_reduce
I1215 11:51:18.207352 29126 net.cpp:113] Setting up inception_4d/5x5_reduce
I1215 11:51:18.207937 29126 net.cpp:120] Top shape: 32 32 14 14 (200704)
I1215 11:51:18.207952 29126 layer_factory.hpp:74] Creating layer inception_4d/relu_5x5_reduce
I1215 11:51:18.207962 29126 net.cpp:84] Creating Layer inception_4d/relu_5x5_reduce
I1215 11:51:18.207967 29126 net.cpp:380] inception_4d/relu_5x5_reduce <- inception_4d/5x5_reduce
I1215 11:51:18.207975 29126 net.cpp:327] inception_4d/relu_5x5_reduce -> inception_4d/5x5_reduce (in-place)
I1215 11:51:18.207983 29126 net.cpp:113] Setting up inception_4d/relu_5x5_reduce
I1215 11:51:18.208051 29126 net.cpp:120] Top shape: 32 32 14 14 (200704)
I1215 11:51:18.208057 29126 layer_factory.hpp:74] Creating layer inception_4d/5x5
I1215 11:51:18.208067 29126 net.cpp:84] Creating Layer inception_4d/5x5
I1215 11:51:18.208073 29126 net.cpp:380] inception_4d/5x5 <- inception_4d/5x5_reduce
I1215 11:51:18.208081 29126 net.cpp:338] inception_4d/5x5 -> inception_4d/5x5
I1215 11:51:18.208096 29126 net.cpp:113] Setting up inception_4d/5x5
I1215 11:51:18.209105 29126 net.cpp:120] Top shape: 32 64 14 14 (401408)
I1215 11:51:18.209121 29126 layer_factory.hpp:74] Creating layer inception_4d/relu_5x5
I1215 11:51:18.209130 29126 net.cpp:84] Creating Layer inception_4d/relu_5x5
I1215 11:51:18.209134 29126 net.cpp:380] inception_4d/relu_5x5 <- inception_4d/5x5
I1215 11:51:18.209143 29126 net.cpp:327] inception_4d/relu_5x5 -> inception_4d/5x5 (in-place)
I1215 11:51:18.209151 29126 net.cpp:113] Setting up inception_4d/relu_5x5
I1215 11:51:18.209221 29126 net.cpp:120] Top shape: 32 64 14 14 (401408)
I1215 11:51:18.209228 29126 layer_factory.hpp:74] Creating layer inception_4d/pool
I1215 11:51:18.209234 29126 layer_factory.cpp:56] CUDNN does not support padding or multiple tops. Using Caffe's own pooling layer.
I1215 11:51:18.209239 29126 net.cpp:84] Creating Layer inception_4d/pool
I1215 11:51:18.209244 29126 net.cpp:380] inception_4d/pool <- inception_4c/output_inception_4c/output_0_split_3
I1215 11:51:18.209251 29126 net.cpp:338] inception_4d/pool -> inception_4d/pool
I1215 11:51:18.209259 29126 net.cpp:113] Setting up inception_4d/pool
I1215 11:51:18.209267 29126 net.cpp:120] Top shape: 32 512 14 14 (3211264)
I1215 11:51:18.209274 29126 layer_factory.hpp:74] Creating layer inception_4d/pool_proj
I1215 11:51:18.209286 29126 net.cpp:84] Creating Layer inception_4d/pool_proj
I1215 11:51:18.209291 29126 net.cpp:380] inception_4d/pool_proj <- inception_4d/pool
I1215 11:51:18.209300 29126 net.cpp:338] inception_4d/pool_proj -> inception_4d/pool_proj
I1215 11:51:18.209308 29126 net.cpp:113] Setting up inception_4d/pool_proj
I1215 11:51:18.210083 29126 net.cpp:120] Top shape: 32 64 14 14 (401408)
I1215 11:51:18.210098 29126 layer_factory.hpp:74] Creating layer inception_4d/relu_pool_proj
I1215 11:51:18.210108 29126 net.cpp:84] Creating Layer inception_4d/relu_pool_proj
I1215 11:51:18.210114 29126 net.cpp:380] inception_4d/relu_pool_proj <- inception_4d/pool_proj
I1215 11:51:18.210120 29126 net.cpp:327] inception_4d/relu_pool_proj -> inception_4d/pool_proj (in-place)
I1215 11:51:18.210129 29126 net.cpp:113] Setting up inception_4d/relu_pool_proj
I1215 11:51:18.210364 29126 net.cpp:120] Top shape: 32 64 14 14 (401408)
I1215 11:51:18.210376 29126 layer_factory.hpp:74] Creating layer inception_4d/output
I1215 11:51:18.210383 29126 net.cpp:84] Creating Layer inception_4d/output
I1215 11:51:18.210391 29126 net.cpp:380] inception_4d/output <- inception_4d/1x1
I1215 11:51:18.210397 29126 net.cpp:380] inception_4d/output <- inception_4d/3x3
I1215 11:51:18.210403 29126 net.cpp:380] inception_4d/output <- inception_4d/5x5
I1215 11:51:18.210408 29126 net.cpp:380] inception_4d/output <- inception_4d/pool_proj
I1215 11:51:18.210414 29126 net.cpp:338] inception_4d/output -> inception_4d/output
I1215 11:51:18.210422 29126 net.cpp:113] Setting up inception_4d/output
I1215 11:51:18.210430 29126 net.cpp:120] Top shape: 32 528 14 14 (3311616)
I1215 11:51:18.210434 29126 layer_factory.hpp:74] Creating layer inception_4d/output_inception_4d/output_0_split
I1215 11:51:18.210441 29126 net.cpp:84] Creating Layer inception_4d/output_inception_4d/output_0_split
I1215 11:51:18.210446 29126 net.cpp:380] inception_4d/output_inception_4d/output_0_split <- inception_4d/output
I1215 11:51:18.210453 29126 net.cpp:338] inception_4d/output_inception_4d/output_0_split -> inception_4d/output_inception_4d/output_0_split_0
I1215 11:51:18.210461 29126 net.cpp:338] inception_4d/output_inception_4d/output_0_split -> inception_4d/output_inception_4d/output_0_split_1
I1215 11:51:18.210469 29126 net.cpp:338] inception_4d/output_inception_4d/output_0_split -> inception_4d/output_inception_4d/output_0_split_2
I1215 11:51:18.210476 29126 net.cpp:338] inception_4d/output_inception_4d/output_0_split -> inception_4d/output_inception_4d/output_0_split_3
I1215 11:51:18.210484 29126 net.cpp:338] inception_4d/output_inception_4d/output_0_split -> inception_4d/output_inception_4d/output_0_split_4
I1215 11:51:18.210490 29126 net.cpp:113] Setting up inception_4d/output_inception_4d/output_0_split
I1215 11:51:18.210502 29126 net.cpp:120] Top shape: 32 528 14 14 (3311616)
I1215 11:51:18.210515 29126 net.cpp:120] Top shape: 32 528 14 14 (3311616)
I1215 11:51:18.210521 29126 net.cpp:120] Top shape: 32 528 14 14 (3311616)
I1215 11:51:18.210526 29126 net.cpp:120] Top shape: 32 528 14 14 (3311616)
I1215 11:51:18.210531 29126 net.cpp:120] Top shape: 32 528 14 14 (3311616)
I1215 11:51:18.210536 29126 layer_factory.hpp:74] Creating layer loss2/ave_pool
I1215 11:51:18.210546 29126 net.cpp:84] Creating Layer loss2/ave_pool
I1215 11:51:18.210551 29126 net.cpp:380] loss2/ave_pool <- inception_4d/output_inception_4d/output_0_split_0
I1215 11:51:18.210557 29126 net.cpp:338] loss2/ave_pool -> loss2/ave_pool
I1215 11:51:18.210564 29126 net.cpp:113] Setting up loss2/ave_pool
I1215 11:51:18.210634 29126 net.cpp:120] Top shape: 32 528 4 4 (270336)
I1215 11:51:18.210641 29126 layer_factory.hpp:74] Creating layer loss2/conv
I1215 11:51:18.210651 29126 net.cpp:84] Creating Layer loss2/conv
I1215 11:51:18.210656 29126 net.cpp:380] loss2/conv <- loss2/ave_pool
I1215 11:51:18.210664 29126 net.cpp:338] loss2/conv -> loss2/conv
I1215 11:51:18.210670 29126 net.cpp:113] Setting up loss2/conv
I1215 11:51:18.211853 29126 net.cpp:120] Top shape: 32 128 4 4 (65536)
I1215 11:51:18.211869 29126 layer_factory.hpp:74] Creating layer loss2/relu_conv
I1215 11:51:18.211875 29126 net.cpp:84] Creating Layer loss2/relu_conv
I1215 11:51:18.211881 29126 net.cpp:380] loss2/relu_conv <- loss2/conv
I1215 11:51:18.211890 29126 net.cpp:327] loss2/relu_conv -> loss2/conv (in-place)
I1215 11:51:18.211897 29126 net.cpp:113] Setting up loss2/relu_conv
I1215 11:51:18.211964 29126 net.cpp:120] Top shape: 32 128 4 4 (65536)
I1215 11:51:18.211972 29126 layer_factory.hpp:74] Creating layer loss2/fc
I1215 11:51:18.211980 29126 net.cpp:84] Creating Layer loss2/fc
I1215 11:51:18.211987 29126 net.cpp:380] loss2/fc <- loss2/conv
I1215 11:51:18.211994 29126 net.cpp:338] loss2/fc -> loss2/fc
I1215 11:51:18.212002 29126 net.cpp:113] Setting up loss2/fc
I1215 11:51:18.235172 29126 net.cpp:120] Top shape: 32 1024 (32768)
I1215 11:51:18.235185 29126 layer_factory.hpp:74] Creating layer loss2/relu_fc
I1215 11:51:18.235195 29126 net.cpp:84] Creating Layer loss2/relu_fc
I1215 11:51:18.235201 29126 net.cpp:380] loss2/relu_fc <- loss2/fc
I1215 11:51:18.235208 29126 net.cpp:327] loss2/relu_fc -> loss2/fc (in-place)
I1215 11:51:18.235214 29126 net.cpp:113] Setting up loss2/relu_fc
I1215 11:51:18.235467 29126 net.cpp:120] Top shape: 32 1024 (32768)
I1215 11:51:18.235481 29126 layer_factory.hpp:74] Creating layer loss2/drop_fc
I1215 11:51:18.235489 29126 net.cpp:84] Creating Layer loss2/drop_fc
I1215 11:51:18.235496 29126 net.cpp:380] loss2/drop_fc <- loss2/fc
I1215 11:51:18.235502 29126 net.cpp:327] loss2/drop_fc -> loss2/fc (in-place)
I1215 11:51:18.235509 29126 net.cpp:113] Setting up loss2/drop_fc
I1215 11:51:18.235517 29126 net.cpp:120] Top shape: 32 1024 (32768)
I1215 11:51:18.235522 29126 layer_factory.hpp:74] Creating layer loss2/classifier_kaggle
I1215 11:51:18.235529 29126 net.cpp:84] Creating Layer loss2/classifier_kaggle
I1215 11:51:18.235534 29126 net.cpp:380] loss2/classifier_kaggle <- loss2/fc
I1215 11:51:18.235541 29126 net.cpp:338] loss2/classifier_kaggle -> loss2/classifier_kaggle
I1215 11:51:18.235549 29126 net.cpp:113] Setting up loss2/classifier_kaggle
I1215 11:51:18.240839 29126 net.cpp:120] Top shape: 32 447 (14304)
I1215 11:51:18.240851 29126 layer_factory.hpp:74] Creating layer loss2/loss
I1215 11:51:18.240860 29126 net.cpp:84] Creating Layer loss2/loss
I1215 11:51:18.240865 29126 net.cpp:380] loss2/loss <- loss2/classifier_kaggle
I1215 11:51:18.240872 29126 net.cpp:380] loss2/loss <- label_data_1_split_1
I1215 11:51:18.240878 29126 net.cpp:338] loss2/loss -> loss2/loss1
I1215 11:51:18.240886 29126 net.cpp:113] Setting up loss2/loss
I1215 11:51:18.240892 29126 layer_factory.hpp:74] Creating layer loss2/loss
I1215 11:51:18.241011 29126 net.cpp:120] Top shape: (1)
I1215 11:51:18.241019 29126 net.cpp:122]     with loss weight 0.3
I1215 11:51:18.241034 29126 layer_factory.hpp:74] Creating layer inception_4e/1x1
I1215 11:51:18.241050 29126 net.cpp:84] Creating Layer inception_4e/1x1
I1215 11:51:18.241061 29126 net.cpp:380] inception_4e/1x1 <- inception_4d/output_inception_4d/output_0_split_1
I1215 11:51:18.241078 29126 net.cpp:338] inception_4e/1x1 -> inception_4e/1x1
I1215 11:51:18.241087 29126 net.cpp:113] Setting up inception_4e/1x1
I1215 11:51:18.245607 29126 net.cpp:120] Top shape: 32 256 14 14 (1605632)
I1215 11:51:18.245625 29126 layer_factory.hpp:74] Creating layer inception_4e/relu_1x1
I1215 11:51:18.245635 29126 net.cpp:84] Creating Layer inception_4e/relu_1x1
I1215 11:51:18.245640 29126 net.cpp:380] inception_4e/relu_1x1 <- inception_4e/1x1
I1215 11:51:18.245647 29126 net.cpp:327] inception_4e/relu_1x1 -> inception_4e/1x1 (in-place)
I1215 11:51:18.245654 29126 net.cpp:113] Setting up inception_4e/relu_1x1
I1215 11:51:18.245726 29126 net.cpp:120] Top shape: 32 256 14 14 (1605632)
I1215 11:51:18.245733 29126 layer_factory.hpp:74] Creating layer inception_4e/3x3_reduce
I1215 11:51:18.245741 29126 net.cpp:84] Creating Layer inception_4e/3x3_reduce
I1215 11:51:18.245746 29126 net.cpp:380] inception_4e/3x3_reduce <- inception_4d/output_inception_4d/output_0_split_2
I1215 11:51:18.245756 29126 net.cpp:338] inception_4e/3x3_reduce -> inception_4e/3x3_reduce
I1215 11:51:18.245765 29126 net.cpp:113] Setting up inception_4e/3x3_reduce
I1215 11:51:18.247146 29126 net.cpp:120] Top shape: 32 160 14 14 (1003520)
I1215 11:51:18.247162 29126 layer_factory.hpp:74] Creating layer inception_4e/relu_3x3_reduce
I1215 11:51:18.247170 29126 net.cpp:84] Creating Layer inception_4e/relu_3x3_reduce
I1215 11:51:18.247176 29126 net.cpp:380] inception_4e/relu_3x3_reduce <- inception_4e/3x3_reduce
I1215 11:51:18.247185 29126 net.cpp:327] inception_4e/relu_3x3_reduce -> inception_4e/3x3_reduce (in-place)
I1215 11:51:18.247192 29126 net.cpp:113] Setting up inception_4e/relu_3x3_reduce
I1215 11:51:18.247265 29126 net.cpp:120] Top shape: 32 160 14 14 (1003520)
I1215 11:51:18.247272 29126 layer_factory.hpp:74] Creating layer inception_4e/3x3
I1215 11:51:18.247282 29126 net.cpp:84] Creating Layer inception_4e/3x3
I1215 11:51:18.247287 29126 net.cpp:380] inception_4e/3x3 <- inception_4e/3x3_reduce
I1215 11:51:18.247297 29126 net.cpp:338] inception_4e/3x3 -> inception_4e/3x3
I1215 11:51:18.247304 29126 net.cpp:113] Setting up inception_4e/3x3
I1215 11:51:18.253048 29126 net.cpp:120] Top shape: 32 320 14 14 (2007040)
I1215 11:51:18.253077 29126 layer_factory.hpp:74] Creating layer inception_4e/relu_3x3
I1215 11:51:18.253083 29126 net.cpp:84] Creating Layer inception_4e/relu_3x3
I1215 11:51:18.253089 29126 net.cpp:380] inception_4e/relu_3x3 <- inception_4e/3x3
I1215 11:51:18.253098 29126 net.cpp:327] inception_4e/relu_3x3 -> inception_4e/3x3 (in-place)
I1215 11:51:18.253106 29126 net.cpp:113] Setting up inception_4e/relu_3x3
I1215 11:51:18.253346 29126 net.cpp:120] Top shape: 32 320 14 14 (2007040)
I1215 11:51:18.253360 29126 layer_factory.hpp:74] Creating layer inception_4e/5x5_reduce
I1215 11:51:18.253368 29126 net.cpp:84] Creating Layer inception_4e/5x5_reduce
I1215 11:51:18.253375 29126 net.cpp:380] inception_4e/5x5_reduce <- inception_4d/output_inception_4d/output_0_split_3
I1215 11:51:18.253384 29126 net.cpp:338] inception_4e/5x5_reduce -> inception_4e/5x5_reduce
I1215 11:51:18.253393 29126 net.cpp:113] Setting up inception_4e/5x5_reduce
I1215 11:51:18.254004 29126 net.cpp:120] Top shape: 32 32 14 14 (200704)
I1215 11:51:18.254019 29126 layer_factory.hpp:74] Creating layer inception_4e/relu_5x5_reduce
I1215 11:51:18.254029 29126 net.cpp:84] Creating Layer inception_4e/relu_5x5_reduce
I1215 11:51:18.254034 29126 net.cpp:380] inception_4e/relu_5x5_reduce <- inception_4e/5x5_reduce
I1215 11:51:18.254041 29126 net.cpp:327] inception_4e/relu_5x5_reduce -> inception_4e/5x5_reduce (in-place)
I1215 11:51:18.254048 29126 net.cpp:113] Setting up inception_4e/relu_5x5_reduce
I1215 11:51:18.254122 29126 net.cpp:120] Top shape: 32 32 14 14 (200704)
I1215 11:51:18.254127 29126 layer_factory.hpp:74] Creating layer inception_4e/5x5
I1215 11:51:18.254158 29126 net.cpp:84] Creating Layer inception_4e/5x5
I1215 11:51:18.254173 29126 net.cpp:380] inception_4e/5x5 <- inception_4e/5x5_reduce
I1215 11:51:18.254184 29126 net.cpp:338] inception_4e/5x5 -> inception_4e/5x5
I1215 11:51:18.254192 29126 net.cpp:113] Setting up inception_4e/5x5
I1215 11:51:18.255772 29126 net.cpp:120] Top shape: 32 128 14 14 (802816)
I1215 11:51:18.255789 29126 layer_factory.hpp:74] Creating layer inception_4e/relu_5x5
I1215 11:51:18.255796 29126 net.cpp:84] Creating Layer inception_4e/relu_5x5
I1215 11:51:18.255802 29126 net.cpp:380] inception_4e/relu_5x5 <- inception_4e/5x5
I1215 11:51:18.255810 29126 net.cpp:327] inception_4e/relu_5x5 -> inception_4e/5x5 (in-place)
I1215 11:51:18.255820 29126 net.cpp:113] Setting up inception_4e/relu_5x5
I1215 11:51:18.255893 29126 net.cpp:120] Top shape: 32 128 14 14 (802816)
I1215 11:51:18.255902 29126 layer_factory.hpp:74] Creating layer inception_4e/pool
I1215 11:51:18.255908 29126 layer_factory.cpp:56] CUDNN does not support padding or multiple tops. Using Caffe's own pooling layer.
I1215 11:51:18.255913 29126 net.cpp:84] Creating Layer inception_4e/pool
I1215 11:51:18.255918 29126 net.cpp:380] inception_4e/pool <- inception_4d/output_inception_4d/output_0_split_4
I1215 11:51:18.255925 29126 net.cpp:338] inception_4e/pool -> inception_4e/pool
I1215 11:51:18.255934 29126 net.cpp:113] Setting up inception_4e/pool
I1215 11:51:18.255941 29126 net.cpp:120] Top shape: 32 528 14 14 (3311616)
I1215 11:51:18.255946 29126 layer_factory.hpp:74] Creating layer inception_4e/pool_proj
I1215 11:51:18.255956 29126 net.cpp:84] Creating Layer inception_4e/pool_proj
I1215 11:51:18.255961 29126 net.cpp:380] inception_4e/pool_proj <- inception_4e/pool
I1215 11:51:18.255970 29126 net.cpp:338] inception_4e/pool_proj -> inception_4e/pool_proj
I1215 11:51:18.255977 29126 net.cpp:113] Setting up inception_4e/pool_proj
I1215 11:51:18.257169 29126 net.cpp:120] Top shape: 32 128 14 14 (802816)
I1215 11:51:18.257185 29126 layer_factory.hpp:74] Creating layer inception_4e/relu_pool_proj
I1215 11:51:18.257195 29126 net.cpp:84] Creating Layer inception_4e/relu_pool_proj
I1215 11:51:18.257201 29126 net.cpp:380] inception_4e/relu_pool_proj <- inception_4e/pool_proj
I1215 11:51:18.257208 29126 net.cpp:327] inception_4e/relu_pool_proj -> inception_4e/pool_proj (in-place)
I1215 11:51:18.257216 29126 net.cpp:113] Setting up inception_4e/relu_pool_proj
I1215 11:51:18.257287 29126 net.cpp:120] Top shape: 32 128 14 14 (802816)
I1215 11:51:18.257293 29126 layer_factory.hpp:74] Creating layer inception_4e/output
I1215 11:51:18.257302 29126 net.cpp:84] Creating Layer inception_4e/output
I1215 11:51:18.257308 29126 net.cpp:380] inception_4e/output <- inception_4e/1x1
I1215 11:51:18.257313 29126 net.cpp:380] inception_4e/output <- inception_4e/3x3
I1215 11:51:18.257318 29126 net.cpp:380] inception_4e/output <- inception_4e/5x5
I1215 11:51:18.257324 29126 net.cpp:380] inception_4e/output <- inception_4e/pool_proj
I1215 11:51:18.257330 29126 net.cpp:338] inception_4e/output -> inception_4e/output
I1215 11:51:18.257339 29126 net.cpp:113] Setting up inception_4e/output
I1215 11:51:18.257346 29126 net.cpp:120] Top shape: 32 832 14 14 (5218304)
I1215 11:51:18.257351 29126 layer_factory.hpp:74] Creating layer pool4/3x3_s2
I1215 11:51:18.257359 29126 net.cpp:84] Creating Layer pool4/3x3_s2
I1215 11:51:18.257364 29126 net.cpp:380] pool4/3x3_s2 <- inception_4e/output
I1215 11:51:18.257371 29126 net.cpp:338] pool4/3x3_s2 -> pool4/3x3_s2
I1215 11:51:18.257378 29126 net.cpp:113] Setting up pool4/3x3_s2
I1215 11:51:18.257624 29126 net.cpp:120] Top shape: 32 832 7 7 (1304576)
I1215 11:51:18.257637 29126 layer_factory.hpp:74] Creating layer pool4/3x3_s2_pool4/3x3_s2_0_split
I1215 11:51:18.257644 29126 net.cpp:84] Creating Layer pool4/3x3_s2_pool4/3x3_s2_0_split
I1215 11:51:18.257650 29126 net.cpp:380] pool4/3x3_s2_pool4/3x3_s2_0_split <- pool4/3x3_s2
I1215 11:51:18.257658 29126 net.cpp:338] pool4/3x3_s2_pool4/3x3_s2_0_split -> pool4/3x3_s2_pool4/3x3_s2_0_split_0
I1215 11:51:18.257673 29126 net.cpp:338] pool4/3x3_s2_pool4/3x3_s2_0_split -> pool4/3x3_s2_pool4/3x3_s2_0_split_1
I1215 11:51:18.257688 29126 net.cpp:338] pool4/3x3_s2_pool4/3x3_s2_0_split -> pool4/3x3_s2_pool4/3x3_s2_0_split_2
I1215 11:51:18.257695 29126 net.cpp:338] pool4/3x3_s2_pool4/3x3_s2_0_split -> pool4/3x3_s2_pool4/3x3_s2_0_split_3
I1215 11:51:18.257701 29126 net.cpp:113] Setting up pool4/3x3_s2_pool4/3x3_s2_0_split
I1215 11:51:18.257709 29126 net.cpp:120] Top shape: 32 832 7 7 (1304576)
I1215 11:51:18.257714 29126 net.cpp:120] Top shape: 32 832 7 7 (1304576)
I1215 11:51:18.257719 29126 net.cpp:120] Top shape: 32 832 7 7 (1304576)
I1215 11:51:18.257725 29126 net.cpp:120] Top shape: 32 832 7 7 (1304576)
I1215 11:51:18.257730 29126 layer_factory.hpp:74] Creating layer inception_5a/1x1
I1215 11:51:18.257740 29126 net.cpp:84] Creating Layer inception_5a/1x1
I1215 11:51:18.257745 29126 net.cpp:380] inception_5a/1x1 <- pool4/3x3_s2_pool4/3x3_s2_0_split_0
I1215 11:51:18.257751 29126 net.cpp:338] inception_5a/1x1 -> inception_5a/1x1
I1215 11:51:18.257760 29126 net.cpp:113] Setting up inception_5a/1x1
I1215 11:51:18.260620 29126 net.cpp:120] Top shape: 32 256 7 7 (401408)
I1215 11:51:18.260637 29126 layer_factory.hpp:74] Creating layer inception_5a/relu_1x1
I1215 11:51:18.260645 29126 net.cpp:84] Creating Layer inception_5a/relu_1x1
I1215 11:51:18.260651 29126 net.cpp:380] inception_5a/relu_1x1 <- inception_5a/1x1
I1215 11:51:18.260658 29126 net.cpp:327] inception_5a/relu_1x1 -> inception_5a/1x1 (in-place)
I1215 11:51:18.260666 29126 net.cpp:113] Setting up inception_5a/relu_1x1
I1215 11:51:18.260736 29126 net.cpp:120] Top shape: 32 256 7 7 (401408)
I1215 11:51:18.260742 29126 layer_factory.hpp:74] Creating layer inception_5a/3x3_reduce
I1215 11:51:18.260753 29126 net.cpp:84] Creating Layer inception_5a/3x3_reduce
I1215 11:51:18.260759 29126 net.cpp:380] inception_5a/3x3_reduce <- pool4/3x3_s2_pool4/3x3_s2_0_split_1
I1215 11:51:18.260766 29126 net.cpp:338] inception_5a/3x3_reduce -> inception_5a/3x3_reduce
I1215 11:51:18.260774 29126 net.cpp:113] Setting up inception_5a/3x3_reduce
I1215 11:51:18.262724 29126 net.cpp:120] Top shape: 32 160 7 7 (250880)
I1215 11:51:18.262742 29126 layer_factory.hpp:74] Creating layer inception_5a/relu_3x3_reduce
I1215 11:51:18.262750 29126 net.cpp:84] Creating Layer inception_5a/relu_3x3_reduce
I1215 11:51:18.262756 29126 net.cpp:380] inception_5a/relu_3x3_reduce <- inception_5a/3x3_reduce
I1215 11:51:18.262764 29126 net.cpp:327] inception_5a/relu_3x3_reduce -> inception_5a/3x3_reduce (in-place)
I1215 11:51:18.262773 29126 net.cpp:113] Setting up inception_5a/relu_3x3_reduce
I1215 11:51:18.262846 29126 net.cpp:120] Top shape: 32 160 7 7 (250880)
I1215 11:51:18.262853 29126 layer_factory.hpp:74] Creating layer inception_5a/3x3
I1215 11:51:18.262862 29126 net.cpp:84] Creating Layer inception_5a/3x3
I1215 11:51:18.262868 29126 net.cpp:380] inception_5a/3x3 <- inception_5a/3x3_reduce
I1215 11:51:18.262876 29126 net.cpp:338] inception_5a/3x3 -> inception_5a/3x3
I1215 11:51:18.262886 29126 net.cpp:113] Setting up inception_5a/3x3
I1215 11:51:18.268589 29126 net.cpp:120] Top shape: 32 320 7 7 (501760)
I1215 11:51:18.268606 29126 layer_factory.hpp:74] Creating layer inception_5a/relu_3x3
I1215 11:51:18.268617 29126 net.cpp:84] Creating Layer inception_5a/relu_3x3
I1215 11:51:18.268622 29126 net.cpp:380] inception_5a/relu_3x3 <- inception_5a/3x3
I1215 11:51:18.268630 29126 net.cpp:327] inception_5a/relu_3x3 -> inception_5a/3x3 (in-place)
I1215 11:51:18.268637 29126 net.cpp:113] Setting up inception_5a/relu_3x3
I1215 11:51:18.268710 29126 net.cpp:120] Top shape: 32 320 7 7 (501760)
I1215 11:51:18.268717 29126 layer_factory.hpp:74] Creating layer inception_5a/5x5_reduce
I1215 11:51:18.268726 29126 net.cpp:84] Creating Layer inception_5a/5x5_reduce
I1215 11:51:18.268731 29126 net.cpp:380] inception_5a/5x5_reduce <- pool4/3x3_s2_pool4/3x3_s2_0_split_2
I1215 11:51:18.268740 29126 net.cpp:338] inception_5a/5x5_reduce -> inception_5a/5x5_reduce
I1215 11:51:18.268749 29126 net.cpp:113] Setting up inception_5a/5x5_reduce
I1215 11:51:18.269481 29126 net.cpp:120] Top shape: 32 32 7 7 (50176)
I1215 11:51:18.269506 29126 layer_factory.hpp:74] Creating layer inception_5a/relu_5x5_reduce
I1215 11:51:18.269513 29126 net.cpp:84] Creating Layer inception_5a/relu_5x5_reduce
I1215 11:51:18.269520 29126 net.cpp:380] inception_5a/relu_5x5_reduce <- inception_5a/5x5_reduce
I1215 11:51:18.269528 29126 net.cpp:327] inception_5a/relu_5x5_reduce -> inception_5a/5x5_reduce (in-place)
I1215 11:51:18.269536 29126 net.cpp:113] Setting up inception_5a/relu_5x5_reduce
I1215 11:51:18.269776 29126 net.cpp:120] Top shape: 32 32 7 7 (50176)
I1215 11:51:18.269791 29126 layer_factory.hpp:74] Creating layer inception_5a/5x5
I1215 11:51:18.269801 29126 net.cpp:84] Creating Layer inception_5a/5x5
I1215 11:51:18.269807 29126 net.cpp:380] inception_5a/5x5 <- inception_5a/5x5_reduce
I1215 11:51:18.269815 29126 net.cpp:338] inception_5a/5x5 -> inception_5a/5x5
I1215 11:51:18.269824 29126 net.cpp:113] Setting up inception_5a/5x5
I1215 11:51:18.271436 29126 net.cpp:120] Top shape: 32 128 7 7 (200704)
I1215 11:51:18.271452 29126 layer_factory.hpp:74] Creating layer inception_5a/relu_5x5
I1215 11:51:18.271463 29126 net.cpp:84] Creating Layer inception_5a/relu_5x5
I1215 11:51:18.271469 29126 net.cpp:380] inception_5a/relu_5x5 <- inception_5a/5x5
I1215 11:51:18.271476 29126 net.cpp:327] inception_5a/relu_5x5 -> inception_5a/5x5 (in-place)
I1215 11:51:18.271483 29126 net.cpp:113] Setting up inception_5a/relu_5x5
I1215 11:51:18.271556 29126 net.cpp:120] Top shape: 32 128 7 7 (200704)
I1215 11:51:18.271564 29126 layer_factory.hpp:74] Creating layer inception_5a/pool
I1215 11:51:18.271569 29126 layer_factory.cpp:56] CUDNN does not support padding or multiple tops. Using Caffe's own pooling layer.
I1215 11:51:18.271574 29126 net.cpp:84] Creating Layer inception_5a/pool
I1215 11:51:18.271579 29126 net.cpp:380] inception_5a/pool <- pool4/3x3_s2_pool4/3x3_s2_0_split_3
I1215 11:51:18.271589 29126 net.cpp:338] inception_5a/pool -> inception_5a/pool
I1215 11:51:18.271597 29126 net.cpp:113] Setting up inception_5a/pool
I1215 11:51:18.271606 29126 net.cpp:120] Top shape: 32 832 7 7 (1304576)
I1215 11:51:18.271610 29126 layer_factory.hpp:74] Creating layer inception_5a/pool_proj
I1215 11:51:18.271620 29126 net.cpp:84] Creating Layer inception_5a/pool_proj
I1215 11:51:18.271625 29126 net.cpp:380] inception_5a/pool_proj <- inception_5a/pool
I1215 11:51:18.271631 29126 net.cpp:338] inception_5a/pool_proj -> inception_5a/pool_proj
I1215 11:51:18.271639 29126 net.cpp:113] Setting up inception_5a/pool_proj
I1215 11:51:18.273288 29126 net.cpp:120] Top shape: 32 128 7 7 (200704)
I1215 11:51:18.273308 29126 layer_factory.hpp:74] Creating layer inception_5a/relu_pool_proj
I1215 11:51:18.273316 29126 net.cpp:84] Creating Layer inception_5a/relu_pool_proj
I1215 11:51:18.273321 29126 net.cpp:380] inception_5a/relu_pool_proj <- inception_5a/pool_proj
I1215 11:51:18.273330 29126 net.cpp:327] inception_5a/relu_pool_proj -> inception_5a/pool_proj (in-place)
I1215 11:51:18.273339 29126 net.cpp:113] Setting up inception_5a/relu_pool_proj
I1215 11:51:18.273408 29126 net.cpp:120] Top shape: 32 128 7 7 (200704)
I1215 11:51:18.273416 29126 layer_factory.hpp:74] Creating layer inception_5a/output
I1215 11:51:18.273430 29126 net.cpp:84] Creating Layer inception_5a/output
I1215 11:51:18.273435 29126 net.cpp:380] inception_5a/output <- inception_5a/1x1
I1215 11:51:18.273442 29126 net.cpp:380] inception_5a/output <- inception_5a/3x3
I1215 11:51:18.273447 29126 net.cpp:380] inception_5a/output <- inception_5a/5x5
I1215 11:51:18.273452 29126 net.cpp:380] inception_5a/output <- inception_5a/pool_proj
I1215 11:51:18.273459 29126 net.cpp:338] inception_5a/output -> inception_5a/output
I1215 11:51:18.273468 29126 net.cpp:113] Setting up inception_5a/output
I1215 11:51:18.273474 29126 net.cpp:120] Top shape: 32 832 7 7 (1304576)
I1215 11:51:18.273479 29126 layer_factory.hpp:74] Creating layer inception_5a/output_inception_5a/output_0_split
I1215 11:51:18.273486 29126 net.cpp:84] Creating Layer inception_5a/output_inception_5a/output_0_split
I1215 11:51:18.273495 29126 net.cpp:380] inception_5a/output_inception_5a/output_0_split <- inception_5a/output
I1215 11:51:18.273510 29126 net.cpp:338] inception_5a/output_inception_5a/output_0_split -> inception_5a/output_inception_5a/output_0_split_0
I1215 11:51:18.273519 29126 net.cpp:338] inception_5a/output_inception_5a/output_0_split -> inception_5a/output_inception_5a/output_0_split_1
I1215 11:51:18.273526 29126 net.cpp:338] inception_5a/output_inception_5a/output_0_split -> inception_5a/output_inception_5a/output_0_split_2
I1215 11:51:18.273533 29126 net.cpp:338] inception_5a/output_inception_5a/output_0_split -> inception_5a/output_inception_5a/output_0_split_3
I1215 11:51:18.273540 29126 net.cpp:113] Setting up inception_5a/output_inception_5a/output_0_split
I1215 11:51:18.273550 29126 net.cpp:120] Top shape: 32 832 7 7 (1304576)
I1215 11:51:18.273555 29126 net.cpp:120] Top shape: 32 832 7 7 (1304576)
I1215 11:51:18.273560 29126 net.cpp:120] Top shape: 32 832 7 7 (1304576)
I1215 11:51:18.273564 29126 net.cpp:120] Top shape: 32 832 7 7 (1304576)
I1215 11:51:18.273568 29126 layer_factory.hpp:74] Creating layer inception_5b/1x1
I1215 11:51:18.273578 29126 net.cpp:84] Creating Layer inception_5b/1x1
I1215 11:51:18.273583 29126 net.cpp:380] inception_5b/1x1 <- inception_5a/output_inception_5a/output_0_split_0
I1215 11:51:18.273591 29126 net.cpp:338] inception_5b/1x1 -> inception_5b/1x1
I1215 11:51:18.273597 29126 net.cpp:113] Setting up inception_5b/1x1
I1215 11:51:18.277690 29126 net.cpp:120] Top shape: 32 384 7 7 (602112)
I1215 11:51:18.277707 29126 layer_factory.hpp:74] Creating layer inception_5b/relu_1x1
I1215 11:51:18.277717 29126 net.cpp:84] Creating Layer inception_5b/relu_1x1
I1215 11:51:18.277724 29126 net.cpp:380] inception_5b/relu_1x1 <- inception_5b/1x1
I1215 11:51:18.277731 29126 net.cpp:327] inception_5b/relu_1x1 -> inception_5b/1x1 (in-place)
I1215 11:51:18.277740 29126 net.cpp:113] Setting up inception_5b/relu_1x1
I1215 11:51:18.277983 29126 net.cpp:120] Top shape: 32 384 7 7 (602112)
I1215 11:51:18.277994 29126 layer_factory.hpp:74] Creating layer inception_5b/3x3_reduce
I1215 11:51:18.278003 29126 net.cpp:84] Creating Layer inception_5b/3x3_reduce
I1215 11:51:18.278008 29126 net.cpp:380] inception_5b/3x3_reduce <- inception_5a/output_inception_5a/output_0_split_1
I1215 11:51:18.278018 29126 net.cpp:338] inception_5b/3x3_reduce -> inception_5b/3x3_reduce
I1215 11:51:18.278028 29126 net.cpp:113] Setting up inception_5b/3x3_reduce
I1215 11:51:18.280269 29126 net.cpp:120] Top shape: 32 192 7 7 (301056)
I1215 11:51:18.280285 29126 layer_factory.hpp:74] Creating layer inception_5b/relu_3x3_reduce
I1215 11:51:18.280292 29126 net.cpp:84] Creating Layer inception_5b/relu_3x3_reduce
I1215 11:51:18.280298 29126 net.cpp:380] inception_5b/relu_3x3_reduce <- inception_5b/3x3_reduce
I1215 11:51:18.280305 29126 net.cpp:327] inception_5b/relu_3x3_reduce -> inception_5b/3x3_reduce (in-place)
I1215 11:51:18.280313 29126 net.cpp:113] Setting up inception_5b/relu_3x3_reduce
I1215 11:51:18.280385 29126 net.cpp:120] Top shape: 32 192 7 7 (301056)
I1215 11:51:18.280391 29126 layer_factory.hpp:74] Creating layer inception_5b/3x3
I1215 11:51:18.280401 29126 net.cpp:84] Creating Layer inception_5b/3x3
I1215 11:51:18.280406 29126 net.cpp:380] inception_5b/3x3 <- inception_5b/3x3_reduce
I1215 11:51:18.280413 29126 net.cpp:338] inception_5b/3x3 -> inception_5b/3x3
I1215 11:51:18.280437 29126 net.cpp:113] Setting up inception_5b/3x3
I1215 11:51:18.288256 29126 net.cpp:120] Top shape: 32 384 7 7 (602112)
I1215 11:51:18.288275 29126 layer_factory.hpp:74] Creating layer inception_5b/relu_3x3
I1215 11:51:18.288285 29126 net.cpp:84] Creating Layer inception_5b/relu_3x3
I1215 11:51:18.288290 29126 net.cpp:380] inception_5b/relu_3x3 <- inception_5b/3x3
I1215 11:51:18.288305 29126 net.cpp:327] inception_5b/relu_3x3 -> inception_5b/3x3 (in-place)
I1215 11:51:18.288313 29126 net.cpp:113] Setting up inception_5b/relu_3x3
I1215 11:51:18.288384 29126 net.cpp:120] Top shape: 32 384 7 7 (602112)
I1215 11:51:18.288391 29126 layer_factory.hpp:74] Creating layer inception_5b/5x5_reduce
I1215 11:51:18.288414 29126 net.cpp:84] Creating Layer inception_5b/5x5_reduce
I1215 11:51:18.288420 29126 net.cpp:380] inception_5b/5x5_reduce <- inception_5a/output_inception_5a/output_0_split_2
I1215 11:51:18.288429 29126 net.cpp:338] inception_5b/5x5_reduce -> inception_5b/5x5_reduce
I1215 11:51:18.288437 29126 net.cpp:113] Setting up inception_5b/5x5_reduce
I1215 11:51:18.289324 29126 net.cpp:120] Top shape: 32 48 7 7 (75264)
I1215 11:51:18.289343 29126 layer_factory.hpp:74] Creating layer inception_5b/relu_5x5_reduce
I1215 11:51:18.289351 29126 net.cpp:84] Creating Layer inception_5b/relu_5x5_reduce
I1215 11:51:18.289357 29126 net.cpp:380] inception_5b/relu_5x5_reduce <- inception_5b/5x5_reduce
I1215 11:51:18.289366 29126 net.cpp:327] inception_5b/relu_5x5_reduce -> inception_5b/5x5_reduce (in-place)
I1215 11:51:18.289376 29126 net.cpp:113] Setting up inception_5b/relu_5x5_reduce
I1215 11:51:18.289448 29126 net.cpp:120] Top shape: 32 48 7 7 (75264)
I1215 11:51:18.289455 29126 layer_factory.hpp:74] Creating layer inception_5b/5x5
I1215 11:51:18.289466 29126 net.cpp:84] Creating Layer inception_5b/5x5
I1215 11:51:18.289472 29126 net.cpp:380] inception_5b/5x5 <- inception_5b/5x5_reduce
I1215 11:51:18.289481 29126 net.cpp:338] inception_5b/5x5 -> inception_5b/5x5
I1215 11:51:18.289489 29126 net.cpp:113] Setting up inception_5b/5x5
I1215 11:51:18.291664 29126 net.cpp:120] Top shape: 32 128 7 7 (200704)
I1215 11:51:18.291681 29126 layer_factory.hpp:74] Creating layer inception_5b/relu_5x5
I1215 11:51:18.291689 29126 net.cpp:84] Creating Layer inception_5b/relu_5x5
I1215 11:51:18.291695 29126 net.cpp:380] inception_5b/relu_5x5 <- inception_5b/5x5
I1215 11:51:18.291702 29126 net.cpp:327] inception_5b/relu_5x5 -> inception_5b/5x5 (in-place)
I1215 11:51:18.291710 29126 net.cpp:113] Setting up inception_5b/relu_5x5
I1215 11:51:18.291957 29126 net.cpp:120] Top shape: 32 128 7 7 (200704)
I1215 11:51:18.291970 29126 layer_factory.hpp:74] Creating layer inception_5b/pool
I1215 11:51:18.291975 29126 layer_factory.cpp:56] CUDNN does not support padding or multiple tops. Using Caffe's own pooling layer.
I1215 11:51:18.291983 29126 net.cpp:84] Creating Layer inception_5b/pool
I1215 11:51:18.291990 29126 net.cpp:380] inception_5b/pool <- inception_5a/output_inception_5a/output_0_split_3
I1215 11:51:18.291998 29126 net.cpp:338] inception_5b/pool -> inception_5b/pool
I1215 11:51:18.292006 29126 net.cpp:113] Setting up inception_5b/pool
I1215 11:51:18.292016 29126 net.cpp:120] Top shape: 32 832 7 7 (1304576)
I1215 11:51:18.292021 29126 layer_factory.hpp:74] Creating layer inception_5b/pool_proj
I1215 11:51:18.292027 29126 net.cpp:84] Creating Layer inception_5b/pool_proj
I1215 11:51:18.292032 29126 net.cpp:380] inception_5b/pool_proj <- inception_5b/pool
I1215 11:51:18.292042 29126 net.cpp:338] inception_5b/pool_proj -> inception_5b/pool_proj
I1215 11:51:18.292049 29126 net.cpp:113] Setting up inception_5b/pool_proj
I1215 11:51:18.293707 29126 net.cpp:120] Top shape: 32 128 7 7 (200704)
I1215 11:51:18.293725 29126 layer_factory.hpp:74] Creating layer inception_5b/relu_pool_proj
I1215 11:51:18.293735 29126 net.cpp:84] Creating Layer inception_5b/relu_pool_proj
I1215 11:51:18.293740 29126 net.cpp:380] inception_5b/relu_pool_proj <- inception_5b/pool_proj
I1215 11:51:18.293747 29126 net.cpp:327] inception_5b/relu_pool_proj -> inception_5b/pool_proj (in-place)
I1215 11:51:18.293756 29126 net.cpp:113] Setting up inception_5b/relu_pool_proj
I1215 11:51:18.293826 29126 net.cpp:120] Top shape: 32 128 7 7 (200704)
I1215 11:51:18.293833 29126 layer_factory.hpp:74] Creating layer inception_5b/output
I1215 11:51:18.293840 29126 net.cpp:84] Creating Layer inception_5b/output
I1215 11:51:18.293845 29126 net.cpp:380] inception_5b/output <- inception_5b/1x1
I1215 11:51:18.293851 29126 net.cpp:380] inception_5b/output <- inception_5b/3x3
I1215 11:51:18.293856 29126 net.cpp:380] inception_5b/output <- inception_5b/5x5
I1215 11:51:18.293861 29126 net.cpp:380] inception_5b/output <- inception_5b/pool_proj
I1215 11:51:18.293874 29126 net.cpp:338] inception_5b/output -> inception_5b/output
I1215 11:51:18.293889 29126 net.cpp:113] Setting up inception_5b/output
I1215 11:51:18.293896 29126 net.cpp:120] Top shape: 32 1024 7 7 (1605632)
I1215 11:51:18.293901 29126 layer_factory.hpp:74] Creating layer pool5/7x7_s1
I1215 11:51:18.293907 29126 net.cpp:84] Creating Layer pool5/7x7_s1
I1215 11:51:18.293912 29126 net.cpp:380] pool5/7x7_s1 <- inception_5b/output
I1215 11:51:18.293921 29126 net.cpp:338] pool5/7x7_s1 -> pool5/7x7_s1
I1215 11:51:18.293927 29126 net.cpp:113] Setting up pool5/7x7_s1
I1215 11:51:18.294000 29126 net.cpp:120] Top shape: 32 1024 1 1 (32768)
I1215 11:51:18.294008 29126 layer_factory.hpp:74] Creating layer pool5/drop_7x7_s1
I1215 11:51:18.294016 29126 net.cpp:84] Creating Layer pool5/drop_7x7_s1
I1215 11:51:18.294021 29126 net.cpp:380] pool5/drop_7x7_s1 <- pool5/7x7_s1
I1215 11:51:18.294028 29126 net.cpp:327] pool5/drop_7x7_s1 -> pool5/7x7_s1 (in-place)
I1215 11:51:18.294036 29126 net.cpp:113] Setting up pool5/drop_7x7_s1
I1215 11:51:18.294044 29126 net.cpp:120] Top shape: 32 1024 1 1 (32768)
I1215 11:51:18.294049 29126 layer_factory.hpp:74] Creating layer loss3/classifier_kaggle
I1215 11:51:18.294056 29126 net.cpp:84] Creating Layer loss3/classifier_kaggle
I1215 11:51:18.294061 29126 net.cpp:380] loss3/classifier_kaggle <- pool5/7x7_s1
I1215 11:51:18.294073 29126 net.cpp:338] loss3/classifier_kaggle -> loss3/classifier_kaggle
I1215 11:51:18.294081 29126 net.cpp:113] Setting up loss3/classifier_kaggle
I1215 11:51:18.299398 29126 net.cpp:120] Top shape: 32 447 (14304)
I1215 11:51:18.299410 29126 layer_factory.hpp:74] Creating layer loss3/loss3
I1215 11:51:18.299419 29126 net.cpp:84] Creating Layer loss3/loss3
I1215 11:51:18.299424 29126 net.cpp:380] loss3/loss3 <- loss3/classifier_kaggle
I1215 11:51:18.299432 29126 net.cpp:380] loss3/loss3 <- label_data_1_split_2
I1215 11:51:18.299439 29126 net.cpp:338] loss3/loss3 -> loss3/loss3
I1215 11:51:18.299448 29126 net.cpp:113] Setting up loss3/loss3
…
I1215 11:51:18.304671 29126 net.cpp:257] The NetState phase (1) differed from the phase (0) specified by a rule in layer data
I1215 11:51:18.306242 29126 net.cpp:42] Initializing net from parameters: 
name: "GoogleNet"
state {
  phase: TEST
}
layer {
  name: "data"
  type: "Data"
  top: "data"
  top: "label"
  include {
    phase: TEST
  }
  transform_param {
    mirror: false
    crop_size: 224
    mean_value: 104
    mean_value: 117
    mean_value: 123
  }
  data_param {
    source: "/home/coldmanck/kaggle/kaggle2_val_lmdb"
    batch_size: 50
    backend: LMDB
  }
}
layer {
  name: "conv1/7x7_s2"
  type: "Convolution"
  bottom: "data"
  top: "conv1/7x7_s2"
  param {
    lr_mult: 1
    decay_mult: 1
  }
  param {
    lr_mult: 2
    decay_mult: 0
  }
  convolution_param {
    num_output: 64
    pad: 3
    kernel_size: 7
    stride: 2
    weight_filler {
      type: "xavier"
      std: 0.1
    }
    bias_filler {
      type: "constant"
      value: 0.2
    }
  }
}
layer {
  name: "conv1/relu_7x7"
  type: "ReLU"
  bottom: "conv1/7x7_s2"
  top: "conv1/7x7_s2"
}
layer {
  name: "pool1/3x3_s2"
  type: "Pooling"
  bottom: "conv1/7x7_s2"
  top: "pool1/3x3_s2"
  pooling_param {
    pool: MAX
    kernel_size: 3
    stride: 2
  }
}
layer {
  name: "pool1/norm1"
  type: "LRN"
  bottom: "pool1/3x3_s2"
  top: "pool1/norm1"
  lrn_param {
    local_size: 5
    alpha: 0.0001
    beta: 0.75
  }
}
layer {
  name: "conv2/3x3_reduce"
  type: "Convolution"
  bottom: "pool1/norm1"
  top: "conv2/3x3_reduce"
  param {
    lr_mult: 1
    decay_mult: 1
  }
  param {
    lr_mult: 2
    decay_mult: 0
  }
  convolution_param {
    num_output: 64
    kernel_size: 1
    weight_filler {
      type: "xavier"
      std: 0.1
    }
    bias_filler {
      type: "constant"
      value: 0.2
    }
  }
}
layer {
  name: "conv2/relu_3x3_reduce"
  type: "ReLU"
  bottom: "conv2/3x3_reduce"
  top: "conv2/3x3_reduce"
}
layer {
  name: "conv2/3x3"
  type: "Convolution"
  bottom: "conv2/3x3_reduce"
  top: "conv2/3x3"
  param {
    lr_mult: 1
    decay_mult: 1
  }
  param {
    lr_mult: 2
    decay_mult: 0
  }
  convolution_param {
    num_output: 192
    pad: 1
    kernel_size: 3
    weight_filler {
      type: "xavier"
      std: 0.03
    }
    bias_filler {
      type: "constant"
      value: 0.2
    }
  }
}
layer {
  name: "conv2/relu_3x3"
  type: "ReLU"
  bottom: "conv2/3x3"
  top: "conv2/3x3"
}
layer {
  name: "conv2/norm2"
  type: "LRN"
  bottom: "conv2/3x3"
  top: "conv2/norm2"
  lrn_param {
    local_size: 5
    alpha: 0.0001
    beta: 0.75
  }
}
layer {
  name: "pool2/3x3_s2"
  type: "Pooling"
  bottom: "conv2/norm2"
  top: "pool2/3x3_s2"
  pooling_param {
    pool: MAX
    kernel_size: 3
    stride: 2
  }
}
layer {
  name: "inception_3a/1x1"
  type: "Convolution"
  bottom: "pool2/3x3_s2"
  top: "inception_3a/1x1"
  param {
    lr_mult: 1
    decay_mult: 1
  }
  param {
    lr_mult: 2
    decay_mult: 0
  }
  convolution_param {
    num_output: 64
    kernel_size: 1
    weight_filler {
      type: "xavier"
      std: 0.03
    }
    bias_filler {
      type: "constant"
      value: 0.2
    }
  }
}
layer {
  name: "inception_3a/relu_1x1"
  type: "ReLU"
  bottom: "inception_3a/1x1"
  top: "inception_3a/1x1"
}
layer {
  name: "inception_3a/3x3_reduce"
  type: "Convolution"
  bottom: "pool2/3x3_s2"
  top: "inception_3a/3x3_reduce"
  param {
    lr_mult: 1
    decay_mult: 1
  }
  param {
    lr_mult: 2
    decay_mult: 0
  }
  convolution_param {
    num_output: 96
    kernel_size: 1
    weight_filler {
      type: "xavier"
      std: 0.09
    }
    bias_filler {
      type: "constant"
      value: 0.2
    }
  }
}
layer {
  name: "inception_3a/relu_3x3_reduce"
  type: "ReLU"
  bottom: "inception_3a/3x3_reduce"
  top: "inception_3a/3x3_reduce"
}
layer {
  name: "inception_3a/3x3"
  type: "Convolution"
  bottom: "inception_3a/3x3_reduce"
  top: "inception_3a/3x3"
  param {
    lr_mult: 1
    decay_mult: 1
  }
  param {
    lr_mult: 2
    decay_mult: 0
  }
  convolution_param {
    num_output: 128
    pad: 1
    kernel_size: 3
    weight_filler {
      type: "xavier"
      std: 0.03
    }
    bias_filler {
      type: "constant"
      value: 0.2
    }
  }
}
layer {
  name: "inception_3a/relu_3x3"
  type: "ReLU"
  bottom: "inception_3a/3x3"
  top: "inception_3a/3x3"
}
layer {
  name: "inception_3a/5x5_reduce"
  type: "Convolution"
  bottom: "pool2/3x3_s2"
  top: "inception_3a/5x5_reduce"
  param {
    lr_mult: 1
    decay_mult: 1
  }
  param {
    lr_mult: 2
    decay_mult: 0
  }
  convolution_param {
    num_output: 16
    kernel_size: 1
    weight_filler {
      type: "xavier"
      std: 0.2
    }
    bias_filler {
      type: "constant"
      value: 0.2
    }
  }
}
layer {
  name: "inception_3a/relu_5x5_reduce"
  type: "ReLU"
  bottom: "inception_3a/5x5_reduce"
  top: "inception_3a/5x5_reduce"
}
layer {
  name: "inception_3a/5x5"
  type: "Convolution"
  bottom: "inception_3a/5x5_reduce"
  top: "inception_3a/5x5"
  param {
    lr_mult: 1
    decay_mult: 1
  }
  param {
    lr_mult: 2
    decay_mult: 0
  }
  convolution_param {
    num_output: 32
    pad: 2
    kernel_size: 5
    weight_filler {
      type: "xavier"
      std: 0.03
    }
    bias_filler {
      type: "constant"
      value: 0.2
    }
  }
}
layer {
  name: "inception_3a/relu_5x5"
  type: "ReLU"
  bottom: "inception_3a/5x5"
  top: "inception_3a/5x5"
}
layer {
  name: "inception_3a/pool"
  type: "Pooling"
  bottom: "pool2/3x3_s2"
  top: "inception_3a/pool"
  pooling_param {
    pool: MAX
    kernel_size: 3
    stride: 1
    pad: 1
  }
}
layer {
  name: "inception_3a/pool_proj"
  type: "Convolution"
  bottom: "inception_3a/pool"
  top: "inception_3a/pool_proj"
  param {
    lr_mult: 1
    decay_mult: 1
  }
  param {
    lr_mult: 2
    decay_mult: 0
  }
  convolution_param {
    num_output: 32
    kernel_size: 1
    weight_filler {
      type: "xavier"
      std: 0.1
    }
    bias_filler {
      type: "constant"
      value: 0.2
    }
  }
}
layer {
  name: "inception_3a/relu_pool_proj"
  type: "ReLU"
  bottom: "inception_3a/pool_proj"
  top: "inception_3a/pool_proj"
}
layer {
  name: "inception_3a/output"
  type: "Concat"
  bottom: "inception_3a/1x1"
  bottom: "inception_3a/3x3"
  bottom: "inception_3a/5x5"
  bottom: "inception_3a/pool_proj"
  top: "inception_3a/output"
}
layer {
  name: "inception_3b/1x1"
  type: "Convolution"
  bottom: "inception_3a/output"
  top: "inception_3b/1x1"
  param {
    lr_mult: 1
    decay_mult: 1
  }
  param {
    lr_mult: 2
    decay_mult: 0
  }
  convolution_param {
    num_output: 128
    kernel_size: 1
    weight_filler {
      type: "xavier"
      std: 0.03
    }
    bias_filler {
      type: "constant"
      value: 0.2
    }
  }
}
layer {
  name: "inception_3b/relu_1x1"
  type: "ReLU"
  bottom: "inception_3b/1x1"
  top: "inception_3b/1x1"
}
layer {
  name: "inception_3b/3x3_reduce"
  type: "Convolution"
  bottom: "inception_3a/output"
  top: "inception_3b/3x3_reduce"
  param {
    lr_mult: 1
    decay_mult: 1
  }
  param {
    lr_mult: 2
    decay_mult: 0
  }
  convolution_param {
    num_output: 128
    kernel_size: 1
    weight_filler {
      type: "xavier"
      std: 0.09
    }
    bias_filler {
      type: "constant"
      value: 0.2
    }
  }
}
layer {
  name: "inception_3b/relu_3x3_reduce"
  type: "ReLU"
  bottom: "inception_3b/3x3_reduce"
  top: "inception_3b/3x3_reduce"
}
layer {
  name: "inception_3b/3x3"
  type: "Convolution"
  bottom: "inception_3b/3x3_reduce"
  top: "inception_3b/3x3"
  param {
    lr_mult: 1
    decay_mult: 1
  }
  param {
    lr_mult: 2
    decay_mult: 0
  }
  convolution_param {
    num_output: 192
    pad: 1
    kernel_size: 3
    weight_filler {
      type: "xavier"
      std: 0.03
    }
    bias_filler {
      type: "constant"
      value: 0.2
    }
  }
}
layer {
  name: "inception_3b/relu_3x3"
  type: "ReLU"
  bottom: "inception_3b/3x3"
  top: "inception_3b/3x3"
}
layer {
  name: "inception_3b/5x5_reduce"
  type: "Convolution"
  bottom: "inception_3a/output"
  top: "inception_3b/5x5_reduce"
  param {
    lr_mult: 1
    decay_mult: 1
  }
  param {
    lr_mult: 2
    decay_mult: 0
  }
  convolution_param {
    num_output: 32
    kernel_size: 1
    weight_filler {
      type: "xavier"
      std: 0.2
    }
    bias_filler {
      type: "constant"
      value: 0.2
    }
  }
}
layer {
  name: "inception_3b/relu_5x5_reduce"
  type: "ReLU"
  bottom: "inception_3b/5x5_reduce"
  top: "inception_3b/5x5_reduce"
}
layer {
  name: "inception_3b/5x5"
  type: "Convolution"
  bottom: "inception_3b/5x5_reduce"
  top: "inception_3b/5x5"
  param {
    lr_mult: 1
    decay_mult: 1
  }
  param {
    lr_mult: 2
    decay_mult: 0
  }
  convolution_param {
    num_output: 96
    pad: 2
    kernel_size: 5
    weight_filler {
      type: "xavier"
      std: 0.03
    }
    bias_filler {
      type: "constant"
      value: 0.2
    }
  }
}
layer {
  name: "inception_3b/relu_5x5"
  type: "ReLU"
  bottom: "inception_3b/5x5"
  top: "inception_3b/5x5"
}
layer {
  name: "inception_3b/pool"
  type: "Pooling"
  bottom: "inception_3a/output"
  top: "inception_3b/pool"
  pooling_param {
    pool: MAX
    kernel_size: 3
    stride: 1
    pad: 1
  }
}
layer {
  name: "inception_3b/pool_proj"
  type: "Convolution"
  bottom: "inception_3b/pool"
  top: "inception_3b/pool_proj"
  param {
    lr_mult: 1
    decay_mult: 1
  }
  param {
    lr_mult: 2
    decay_mult: 0
  }
  convolution_param {
    num_output: 64
    kernel_size: 1
    weight_filler {
      type: "xavier"
      std: 0.1
    }
    bias_filler {
      type: "constant"
      value: 0.2
    }
  }
}
layer {
  name: "inception_3b/relu_pool_proj"
  type: "ReLU"
  bottom: "inception_3b/pool_proj"
  top: "inception_3b/pool_proj"
}
layer {
  name: "inception_3b/output"
  type: "Concat"
  bottom: "inception_3b/1x1"
  bottom: "inception_3b/3x3"
  bottom: "inception_3b/5x5"
  bottom: "inception_3b/pool_proj"
  top: "inception_3b/output"
}
layer {
  name: "pool3/3x3_s2"
  type: "Pooling"
  bottom: "inception_3b/output"
  top: "pool3/3x3_s2"
  pooling_param {
    pool: MAX
    kernel_size: 3
    stride: 2
  }
}
layer {
  name: "inception_4a/1x1"
  type: "Convolution"
  bottom: "pool3/3x3_s2"
  top: "inception_4a/1x1"
  param {
    lr_mult: 1
    decay_mult: 1
  }
  param {
    lr_mult: 2
    decay_mult: 0
  }
  convolution_param {
    num_output: 192
    kernel_size: 1
    weight_filler {
      type: "xavier"
      std: 0.03
    }
    bias_filler {
      type: "constant"
      value: 0.2
    }
  }
}
layer {
  name: "inception_4a/relu_1x1"
  type: "ReLU"
  bottom: "inception_4a/1x1"
  top: "inception_4a/1x1"
}
layer {
  name: "inception_4a/3x3_reduce"
  type: "Convolution"
  bottom: "pool3/3x3_s2"
  top: "inception_4a/3x3_reduce"
  param {
    lr_mult: 1
    decay_mult: 1
  }
  param {
    lr_mult: 2
    decay_mult: 0
  }
  convolution_param {
    num_output: 96
    kernel_size: 1
    weight_filler {
      type: "xavier"
      std: 0.09
    }
    bias_filler {
      type: "constant"
      value: 0.2
    }
  }
}
layer {
  name: "inception_4a/relu_3x3_reduce"
  type: "ReLU"
  bottom: "inception_4a/3x3_reduce"
  top: "inception_4a/3x3_reduce"
}
layer {
  name: "inception_4a/3x3"
  type: "Convolution"
  bottom: "inception_4a/3x3_reduce"
  top: "inception_4a/3x3"
  param {
    lr_mult: 1
    decay_mult: 1
  }
  param {
    lr_mult: 2
    decay_mult: 0
  }
  convolution_param {
    num_output: 208
    pad: 1
    kernel_size: 3
    weight_filler {
      type: "xavier"
      std: 0.03
    }
    bias_filler {
      type: "constant"
      value: 0.2
    }
  }
}
layer {
  name: "inception_4a/relu_3x3"
  type: "ReLU"
  bottom: "inception_4a/3x3"
  top: "inception_4a/3x3"
}
layer {
  name: "inception_4a/5x5_reduce"
  type: "Convolution"
  bottom: "pool3/3x3_s2"
  top: "inception_4a/5x5_reduce"
  param {
    lr_mult: 1
    decay_mult: 1
  }
  param {
    lr_mult: 2
    decay_mult: 0
  }
  convolution_param {
    num_output: 16
    kernel_size: 1
    weight_filler {
      type: "xavier"
      std: 0.2
    }
    bias_filler {
      type: "constant"
      value: 0.2
    }
  }
}
layer {
  name: "inception_4a/relu_5x5_reduce"
  type: "ReLU"
  bottom: "inception_4a/5x5_reduce"
  top: "inception_4a/5x5_reduce"
}
layer {
  name: "inception_4a/5x5"
  type: "Convolution"
  bottom: "inception_4a/5x5_reduce"
  top: "inception_4a/5x5"
  param {
    lr_mult: 1
    decay_mult: 1
  }
  param {
    lr_mult: 2
    decay_mult: 0
  }
  convolution_param {
    num_output: 48
    pad: 2
    kernel_size: 5
    weight_filler {
      type: "xavier"
      std: 0.03
    }
    bias_filler {
      type: "constant"
      value: 0.2
    }
  }
}
layer {
  name: "inception_4a/relu_5x5"
  type: "ReLU"
  bottom: "inception_4a/5x5"
  top: "inception_4a/5x5"
}
layer {
  name: "inception_4a/pool"
  type: "Pooling"
  bottom: "pool3/3x3_s2"
  top: "inception_4a/pool"
  pooling_param {
    pool: MAX
    kernel_size: 3
    stride: 1
    pad: 1
  }
}
layer {
  name: "inception_4a/pool_proj"
  type: "Convolution"
  bottom: "inception_4a/pool"
  top: "inception_4a/pool_proj"
  param {
    lr_mult: 1
    decay_mult: 1
  }
  param {
    lr_mult: 2
    decay_mult: 0
  }
  convolution_param {
    num_output: 64
    kernel_size: 1
    weight_filler {
      type: "xavier"
      std: 0.1
    }
    bias_filler {
      type: "constant"
      value: 0.2
    }
  }
}
layer {
  name: "inception_4a/relu_pool_proj"
  type: "ReLU"
  bottom: "inception_4a/pool_proj"
  top: "inception_4a/pool_proj"
}
layer {
  name: "inception_4a/output"
  type: "Concat"
  bottom: "inception_4a/1x1"
  bottom: "inception_4a/3x3"
  bottom: "inception_4a/5x5"
  bottom: "inception_4a/pool_proj"
  top: "inception_4a/output"
}
layer {
  name: "loss1/ave_pool"
  type: "Pooling"
  bottom: "inception_4a/output"
  top: "loss1/ave_pool"
  pooling_param {
    pool: AVE
    kernel_size: 5
    stride: 3
  }
}
layer {
  name: "loss1/conv"
  type: "Convolution"
  bottom: "loss1/ave_pool"
  top: "loss1/conv"
  param {
    lr_mult: 1
    decay_mult: 1
  }
  param {
    lr_mult: 2
    decay_mult: 0
  }
  convolution_param {
    num_output: 128
    kernel_size: 1
    weight_filler {
      type: "xavier"
      std: 0.08
    }
    bias_filler {
      type: "constant"
      value: 0.2
    }
  }
}
layer {
  name: "loss1/relu_conv"
  type: "ReLU"
  bottom: "loss1/conv"
  top: "loss1/conv"
}
layer {
  name: "loss1/fc"
  type: "InnerProduct"
  bottom: "loss1/conv"
  top: "loss1/fc"
  param {
    lr_mult: 1
    decay_mult: 1
  }
  param {
    lr_mult: 2
    decay_mult: 0
  }
  inner_product_param {
    num_output: 1024
    weight_filler {
      type: "xavier"
      std: 0.02
    }
    bias_filler {
      type: "constant"
      value: 0.2
    }
  }
}
layer {
  name: "loss1/relu_fc"
  type: "ReLU"
  bottom: "loss1/fc"
  top: "loss1/fc"
}
layer {
  name: "loss1/drop_fc"
  type: "Dropout"
  bottom: "loss1/fc"
  top: "loss1/fc"
  dropout_param {
    dropout_ratio: 0.7
  }
}
layer {
  name: "loss1/classifier_kaggle"
  type: "InnerProduct"
  bottom: "loss1/fc"
  top: "loss1/classifier_kaggle"
  param {
    lr_mult: 1
    decay_mult: 1
  }
  param {
    lr_mult: 2
    decay_mult: 0
  }
  inner_product_param {
    num_output: 447
    weight_filler {
      type: "xavier"
      std: 0.0009765625
    }
    bias_filler {
      type: "constant"
      value: 0
    }
  }
}
layer {
  name: "loss1/loss"
  type: "SoftmaxWithLoss"
  bottom: "loss1/classifier_kaggle"
  bottom: "label"
  top: "loss1/loss1"
  loss_weight: 0.3
}
layer {
  name: "loss1/top-1"
  type: "Accuracy"
  bottom: "loss1/classifier_kaggle"
  bottom: "label"
  top: "loss1/top-1"
  include {
    phase: TEST
  }
}
layer {
  name: "loss1/top-5"
  type: "Accuracy"
  bottom: "loss1/classifier_kaggle"
  bottom: "label"
  top: "loss1/top-5"
  include {
    phase: TEST
  }
  accuracy_param {
    top_k: 5
  }
}
layer {
  name: "inception_4b/1x1"
  type: "Convolution"
  bottom: "inception_4a/output"
  top: "inception_4b/1x1"
  param {
    lr_mult: 1
    decay_mult: 1
  }
  param {
    lr_mult: 2
    decay_mult: 0
  }
  convolution_param {
    num_output: 160
    kernel_size: 1
    weight_filler {
      type: "xavier"
      std: 0.03
    }
    bias_filler {
      type: "constant"
      value: 0.2
    }
  }
}
layer {
  name: "inception_4b/relu_1x1"
  type: "ReLU"
  bottom: "inception_4b/1x1"
  top: "inception_4b/1x1"
}
layer {
  name: "inception_4b/3x3_reduce"
  type: "Convolution"
  bottom: "inception_4a/output"
  top: "inception_4b/3x3_reduce"
  param {
    lr_mult: 1
    decay_mult: 1
  }
  param {
    lr_mult: 2
    decay_mult: 0
  }
  convolution_param {
    num_output: 112
    kernel_size: 1
    weight_filler {
      type: "xavier"
      std: 0.09
    }
    bias_filler {
      type: "constant"
      value: 0.2
    }
  }
}
layer {
  name: "inception_4b/relu_3x3_reduce"
  type: "ReLU"
  bottom: "inception_4b/3x3_reduce"
  top: "inception_4b/3x3_reduce"
}
layer {
  name: "inception_4b/3x3"
  type: "Convolution"
  bottom: "inception_4b/3x3_reduce"
  top: "inception_4b/3x3"
  param {
    lr_mult: 1
    decay_mult: 1
  }
  param {
    lr_mult: 2
    decay_mult: 0
  }
  convolution_param {
    num_output: 224
    pad: 1
    kernel_size: 3
    weight_filler {
      type: "xavier"
      std: 0.03
    }
    bias_filler {
      type: "constant"
      value: 0.2
    }
  }
}
layer {
  name: "inception_4b/relu_3x3"
  type: "ReLU"
  bottom: "inception_4b/3x3"
  top: "inception_4b/3x3"
}
layer {
  name: "inception_4b/5x5_reduce"
  type: "Convolution"
  bottom: "inception_4a/output"
  top: "inception_4b/5x5_reduce"
  param {
    lr_mult: 1
    decay_mult: 1
  }
  param {
    lr_mult: 2
    decay_mult: 0
  }
  convolution_param {
    num_output: 24
    kernel_size: 1
    weight_filler {
      type: "xavier"
      std: 0.2
    }
    bias_filler {
      type: "constant"
      value: 0.2
    }
  }
}
layer {
  name: "inception_4b/relu_5x5_reduce"
  type: "ReLU"
  bottom: "inception_4b/5x5_reduce"
  top: "inception_4b/5x5_reduce"
}
layer {
  name: "inception_4b/5x5"
  type: "Convolution"
  bottom: "inception_4b/5x5_reduce"
  top: "inception_4b/5x5"
  param {
    lr_mult: 1
    decay_mult: 1
  }
  param {
    lr_mult: 2
    decay_mult: 0
  }
  convolution_param {
    num_output: 64
    pad: 2
    kernel_size: 5
    weight_filler {
      type: "xavier"
      std: 0.03
    }
    bias_filler {
      type: "constant"
      value: 0.2
    }
  }
}
layer {
  name: "inception_4b/relu_5x5"
  type: "ReLU"
  bottom: "inception_4b/5x5"
  top: "inception_4b/5x5"
}
layer {
  name: "inception_4b/pool"
  type: "Pooling"
  bottom: "inception_4a/output"
  top: "inception_4b/pool"
  pooling_param {
    pool: MAX
    kernel_size: 3
    stride: 1
    pad: 1
  }
}
layer {
  name: "inception_4b/pool_proj"
  type: "Convolution"
  bottom: "inception_4b/pool"
  top: "inception_4b/pool_proj"
  param {
    lr_mult: 1
    decay_mult: 1
  }
  param {
    lr_mult: 2
    decay_mult: 0
  }
  convolution_param {
    num_output: 64
    kernel_size: 1
    weight_filler {
      type: "xavier"
      std: 0.1
    }
    bias_filler {
      type: "constant"
      value: 0.2
    }
  }
}
layer {
  name: "inception_4b/relu_pool_proj"
  type: "ReLU"
  bottom: "inception_4b/pool_proj"
  top: "inception_4b/pool_proj"
}
layer {
  name: "inception_4b/output"
  type: "Concat"
  bottom: "inception_4b/1x1"
  bottom: "inception_4b/3x3"
  bottom: "inception_4b/5x5"
  bottom: "inception_4b/pool_proj"
  top: "inception_4b/output"
}
layer {
  name: "inception_4c/1x1"
  type: "Convolution"
  bottom: "inception_4b/output"
  top: "inception_4c/1x1"
  param {
    lr_mult: 1
    decay_mult: 1
  }
  param {
    lr_mult: 2
    decay_mult: 0
  }
  convolution_param {
    num_output: 128
    kernel_size: 1
    weight_filler {
      type: "xavier"
      std: 0.03
    }
    bias_filler {
      type: "constant"
      value: 0.2
    }
  }
}
layer {
  name: "inception_4c/relu_1x1"
  type: "ReLU"
  bottom: "inception_4c/1x1"
  top: "inception_4c/1x1"
}
layer {
  name: "inception_4c/3x3_reduce"
  type: "Convolution"
  bottom: "inception_4b/output"
  top: "inception_4c/3x3_reduce"
  param {
    lr_mult: 1
    decay_mult: 1
  }
  param {
    lr_mult: 2
    decay_mult: 0
  }
  convolution_param {
    num_output: 128
    kernel_size: 1
    weight_filler {
      type: "xavier"
      std: 0.09
    }
    bias_filler {
      type: "constant"
      value: 0.2
    }
  }
}
layer {
  name: "inception_4c/relu_3x3_reduce"
  type: "ReLU"
  bottom: "inception_4c/3x3_reduce"
  top: "inception_4c/3x3_reduce"
}
layer {
  name: "inception_4c/3x3"
  type: "Convolution"
  bottom: "inception_4c/3x3_reduce"
  top: "inception_4c/3x3"
  param {
    lr_mult: 1
    decay_mult: 1
  }
  param {
    lr_mult: 2
    decay_mult: 0
  }
  convolution_param {
    num_output: 256
    pad: 1
    kernel_size: 3
    weight_filler {
      type: "xavier"
      std: 0.03
    }
    bias_filler {
      type: "constant"
      value: 0.2
    }
  }
}
layer {
  name: "inception_4c/relu_3x3"
  type: "ReLU"
  bottom: "inception_4c/3x3"
  top: "inception_4c/3x3"
}
layer {
  name: "inception_4c/5x5_reduce"
  type: "Convolution"
  bottom: "inception_4b/output"
  top: "inception_4c/5x5_reduce"
  param {
    lr_mult: 1
    decay_mult: 1
  }
  param {
    lr_mult: 2
    decay_mult: 0
  }
  convolution_param {
    num_output: 24
    kernel_size: 1
    weight_filler {
      type: "xavier"
      std: 0.2
    }
    bias_filler {
      type: "constant"
      value: 0.2
    }
  }
}
layer {
  name: "inception_4c/relu_5x5_reduce"
  type: "ReLU"
  bottom: "inception_4c/5x5_reduce"
  top: "inception_4c/5x5_reduce"
}
layer {
  name: "inception_4c/5x5"
  type: "Convolution"
  bottom: "inception_4c/5x5_reduce"
  top: "inception_4c/5x5"
  param {
    lr_mult: 1
    decay_mult: 1
  }
  param {
    lr_mult: 2
    decay_mult: 0
  }
  convolution_param {
    num_output: 64
    pad: 2
    kernel_size: 5
    weight_filler {
      type: "xavier"
      std: 0.03
    }
    bias_filler {
      type: "constant"
      value: 0.2
    }
  }
}
layer {
  name: "inception_4c/relu_5x5"
  type: "ReLU"
  bottom: "inception_4c/5x5"
  top: "inception_4c/5x5"
}
layer {
  name: "inception_4c/pool"
  type: "Pooling"
  bottom: "inception_4b/output"
  top: "inception_4c/pool"
  pooling_param {
    pool: MAX
    kernel_size: 3
    stride: 1
    pad: 1
  }
}
layer {
  name: "inception_4c/pool_proj"
  type: "Convolution"
  bottom: "inception_4c/pool"
  top: "inception_4c/pool_proj"
  param {
    lr_mult: 1
    decay_mult: 1
  }
  param {
    lr_mult: 2
    decay_mult: 0
  }
  convolution_param {
    num_output: 64
    kernel_size: 1
    weight_filler {
      type: "xavier"
      std: 0.1
    }
    bias_filler {
      type: "constant"
      value: 0.2
    }
  }
}
layer {
  name: "inception_4c/relu_pool_proj"
  type: "ReLU"
  bottom: "inception_4c/pool_proj"
  top: "inception_4c/pool_proj"
}
layer {
  name: "inception_4c/output"
  type: "Concat"
  bottom: "inception_4c/1x1"
  bottom: "inception_4c/3x3"
  bottom: "inception_4c/5x5"
  bottom: "inception_4c/pool_proj"
  top: "inception_4c/output"
}
layer {
  name: "inception_4d/1x1"
  type: "Convolution"
  bottom: "inception_4c/output"
  top: "inception_4d/1x1"
  param {
    lr_mult: 1
    decay_mult: 1
  }
  param {
    lr_mult: 2
    decay_mult: 0
  }
  convolution_param {
    num_output: 112
    kernel_size: 1
    weight_filler {
      type: "xavier"
      std: 0.03
    }
    bias_filler {
      type: "constant"
      value: 0.2
    }
  }
}
layer {
  name: "inception_4d/relu_1x1"
  type: "ReLU"
  bottom: "inception_4d/1x1"
  top: "inception_4d/1x1"
}
layer {
  name: "inception_4d/3x3_reduce"
  type: "Convolution"
  bottom: "inception_4c/output"
  top: "inception_4d/3x3_reduce"
  param {
    lr_mult: 1
    decay_mult: 1
  }
  param {
    lr_mult: 2
    decay_mult: 0
  }
  convolution_param {
    num_output: 144
    kernel_size: 1
    weight_filler {
      type: "xavier"
      std: 0.09
    }
    bias_filler {
      type: "constant"
      value: 0.2
    }
  }
}
layer {
  name: "inception_4d/relu_3x3_reduce"
  type: "ReLU"
  bottom: "inception_4d/3x3_reduce"
  top: "inception_4d/3x3_reduce"
}
layer {
  name: "inception_4d/3x3"
  type: "Convolution"
  bottom: "inception_4d/3x3_reduce"
  top: "inception_4d/3x3"
  param {
    lr_mult: 1
    decay_mult: 1
  }
  param {
    lr_mult: 2
    decay_mult: 0
  }
  convolution_param {
    num_output: 288
    pad: 1
    kernel_size: 3
    weight_filler {
      type: "xavier"
      std: 0.03
    }
    bias_filler {
      type: "constant"
      value: 0.2
    }
  }
}
layer {
  name: "inception_4d/relu_3x3"
  type: "ReLU"
  bottom: "inception_4d/3x3"
  top: "inception_4d/3x3"
}
layer {
  name: "inception_4d/5x5_reduce"
  type: "Convolution"
  bottom: "inception_4c/output"
  top: "inception_4d/5x5_reduce"
  param {
    lr_mult: 1
    decay_mult: 1
  }
  param {
    lr_mult: 2
    decay_mult: 0
  }
  convolution_param {
    num_output: 32
    kernel_size: 1
    weight_filler {
      type: "xavier"
      std: 0.2
    }
    bias_filler {
      type: "constant"
      value: 0.2
    }
  }
}
layer {
  name: "inception_4d/relu_5x5_reduce"
  type: "ReLU"
  bottom: "inception_4d/5x5_reduce"
  top: "inception_4d/5x5_reduce"
}
layer {
  name: "inception_4d/5x5"
  type: "Convolution"
  bottom: "inception_4d/5x5_reduce"
  top: "inception_4d/5x5"
  param {
    lr_mult: 1
    decay_mult: 1
  }
  param {
    lr_mult: 2
    decay_mult: 0
  }
  convolution_param {
    num_output: 64
    pad: 2
    kernel_size: 5
    weight_filler {
      type: "xavier"
      std: 0.03
    }
    bias_filler {
      type: "constant"
      value: 0.2
    }
  }
}
layer {
  name: "inception_4d/relu_5x5"
  type: "ReLU"
  bottom: "inception_4d/5x5"
  top: "inception_4d/5x5"
}
layer {
  name: "inception_4d/pool"
  type: "Pooling"
  bottom: "inception_4c/output"
  top: "inception_4d/pool"
  pooling_param {
    pool: MAX
    kernel_size: 3
    stride: 1
    pad: 1
  }
}
layer {
  name: "inception_4d/pool_proj"
  type: "Convolution"
  bottom: "inception_4d/pool"
  top: "inception_4d/pool_proj"
  param {
    lr_mult: 1
    decay_mult: 1
  }
  param {
    lr_mult: 2
    decay_mult: 0
  }
  convolution_param {
    num_output: 64
    kernel_size: 1
    weight_filler {
      type: "xavier"
      std: 0.1
    }
    bias_filler {
      type: "constant"
      value: 0.2
    }
  }
}
layer {
  name: "inception_4d/relu_pool_proj"
  type: "ReLU"
  bottom: "inception_4d/pool_proj"
  top: "inception_4d/pool_proj"
}
layer {
…
I1215 11:51:18.420030 29126 net.cpp:84] Creating Layer inception_4c/1x1
I1215 11:51:18.420037 29126 net.cpp:380] inception_4c/1x1 <- inception_4b/output_inception_4b/output_0_split_0
I1215 11:51:18.420047 29126 net.cpp:338] inception_4c/1x1 -> inception_4c/1x1
I1215 11:51:18.420058 29126 net.cpp:113] Setting up inception_4c/1x1
I1215 11:51:18.421666 29126 net.cpp:120] Top shape: 50 128 14 14 (1254400)
I1215 11:51:18.421689 29126 layer_factory.hpp:74] Creating layer inception_4c/relu_1x1
I1215 11:51:18.421701 29126 net.cpp:84] Creating Layer inception_4c/relu_1x1
I1215 11:51:18.421710 29126 net.cpp:380] inception_4c/relu_1x1 <- inception_4c/1x1
I1215 11:51:18.421720 29126 net.cpp:327] inception_4c/relu_1x1 -> inception_4c/1x1 (in-place)
I1215 11:51:18.421730 29126 net.cpp:113] Setting up inception_4c/relu_1x1
I1215 11:51:18.422044 29126 net.cpp:120] Top shape: 50 128 14 14 (1254400)
I1215 11:51:18.422060 29126 layer_factory.hpp:74] Creating layer inception_4c/3x3_reduce
I1215 11:51:18.422071 29126 net.cpp:84] Creating Layer inception_4c/3x3_reduce
I1215 11:51:18.422080 29126 net.cpp:380] inception_4c/3x3_reduce <- inception_4b/output_inception_4b/output_0_split_1
I1215 11:51:18.422092 29126 net.cpp:338] inception_4c/3x3_reduce -> inception_4c/3x3_reduce
I1215 11:51:18.422113 29126 net.cpp:113] Setting up inception_4c/3x3_reduce
I1215 11:51:18.423734 29126 net.cpp:120] Top shape: 50 128 14 14 (1254400)
I1215 11:51:18.423755 29126 layer_factory.hpp:74] Creating layer inception_4c/relu_3x3_reduce
I1215 11:51:18.423766 29126 net.cpp:84] Creating Layer inception_4c/relu_3x3_reduce
I1215 11:51:18.423774 29126 net.cpp:380] inception_4c/relu_3x3_reduce <- inception_4c/3x3_reduce
I1215 11:51:18.423784 29126 net.cpp:327] inception_4c/relu_3x3_reduce -> inception_4c/3x3_reduce (in-place)
I1215 11:51:18.423794 29126 net.cpp:113] Setting up inception_4c/relu_3x3_reduce
I1215 11:51:18.423897 29126 net.cpp:120] Top shape: 50 128 14 14 (1254400)
I1215 11:51:18.423907 29126 layer_factory.hpp:74] Creating layer inception_4c/3x3
I1215 11:51:18.423918 29126 net.cpp:84] Creating Layer inception_4c/3x3
I1215 11:51:18.423925 29126 net.cpp:380] inception_4c/3x3 <- inception_4c/3x3_reduce
I1215 11:51:18.423938 29126 net.cpp:338] inception_4c/3x3 -> inception_4c/3x3
I1215 11:51:18.423949 29126 net.cpp:113] Setting up inception_4c/3x3
I1215 11:51:18.429045 29126 net.cpp:120] Top shape: 50 256 14 14 (2508800)
I1215 11:51:18.429092 29126 layer_factory.hpp:74] Creating layer inception_4c/relu_3x3
I1215 11:51:18.429103 29126 net.cpp:84] Creating Layer inception_4c/relu_3x3
I1215 11:51:18.429111 29126 net.cpp:380] inception_4c/relu_3x3 <- inception_4c/3x3
I1215 11:51:18.429121 29126 net.cpp:327] inception_4c/relu_3x3 -> inception_4c/3x3 (in-place)
I1215 11:51:18.429131 29126 net.cpp:113] Setting up inception_4c/relu_3x3
I1215 11:51:18.429229 29126 net.cpp:120] Top shape: 50 256 14 14 (2508800)
I1215 11:51:18.429239 29126 layer_factory.hpp:74] Creating layer inception_4c/5x5_reduce
I1215 11:51:18.429252 29126 net.cpp:84] Creating Layer inception_4c/5x5_reduce
I1215 11:51:18.429260 29126 net.cpp:380] inception_4c/5x5_reduce <- inception_4b/output_inception_4b/output_0_split_2
I1215 11:51:18.429268 29126 net.cpp:338] inception_4c/5x5_reduce -> inception_4c/5x5_reduce
I1215 11:51:18.429280 29126 net.cpp:113] Setting up inception_4c/5x5_reduce
I1215 11:51:18.429988 29126 net.cpp:120] Top shape: 50 24 14 14 (235200)
I1215 11:51:18.430007 29126 layer_factory.hpp:74] Creating layer inception_4c/relu_5x5_reduce
I1215 11:51:18.430019 29126 net.cpp:84] Creating Layer inception_4c/relu_5x5_reduce
I1215 11:51:18.430027 29126 net.cpp:380] inception_4c/relu_5x5_reduce <- inception_4c/5x5_reduce
I1215 11:51:18.430037 29126 net.cpp:327] inception_4c/relu_5x5_reduce -> inception_4c/5x5_reduce (in-place)
I1215 11:51:18.430048 29126 net.cpp:113] Setting up inception_4c/relu_5x5_reduce
I1215 11:51:18.430353 29126 net.cpp:120] Top shape: 50 24 14 14 (235200)
I1215 11:51:18.430367 29126 layer_factory.hpp:74] Creating layer inception_4c/5x5
I1215 11:51:18.430379 29126 net.cpp:84] Creating Layer inception_4c/5x5
I1215 11:51:18.430387 29126 net.cpp:380] inception_4c/5x5 <- inception_4c/5x5_reduce
I1215 11:51:18.430399 29126 net.cpp:338] inception_4c/5x5 -> inception_4c/5x5
I1215 11:51:18.430411 29126 net.cpp:113] Setting up inception_4c/5x5
I1215 11:51:18.431525 29126 net.cpp:120] Top shape: 50 64 14 14 (627200)
I1215 11:51:18.431545 29126 layer_factory.hpp:74] Creating layer inception_4c/relu_5x5
I1215 11:51:18.431556 29126 net.cpp:84] Creating Layer inception_4c/relu_5x5
I1215 11:51:18.431565 29126 net.cpp:380] inception_4c/relu_5x5 <- inception_4c/5x5
I1215 11:51:18.431573 29126 net.cpp:327] inception_4c/relu_5x5 -> inception_4c/5x5 (in-place)
I1215 11:51:18.431583 29126 net.cpp:113] Setting up inception_4c/relu_5x5
I1215 11:51:18.431681 29126 net.cpp:120] Top shape: 50 64 14 14 (627200)
I1215 11:51:18.431690 29126 layer_factory.hpp:74] Creating layer inception_4c/pool
I1215 11:51:18.431697 29126 layer_factory.cpp:56] CUDNN does not support padding or multiple tops. Using Caffe's own pooling layer.
I1215 11:51:18.431705 29126 net.cpp:84] Creating Layer inception_4c/pool
I1215 11:51:18.431712 29126 net.cpp:380] inception_4c/pool <- inception_4b/output_inception_4b/output_0_split_3
I1215 11:51:18.431723 29126 net.cpp:338] inception_4c/pool -> inception_4c/pool
I1215 11:51:18.431740 29126 net.cpp:113] Setting up inception_4c/pool
I1215 11:51:18.431761 29126 net.cpp:120] Top shape: 50 512 14 14 (5017600)
I1215 11:51:18.431768 29126 layer_factory.hpp:74] Creating layer inception_4c/pool_proj
I1215 11:51:18.431779 29126 net.cpp:84] Creating Layer inception_4c/pool_proj
I1215 11:51:18.431785 29126 net.cpp:380] inception_4c/pool_proj <- inception_4c/pool
I1215 11:51:18.431797 29126 net.cpp:338] inception_4c/pool_proj -> inception_4c/pool_proj
I1215 11:51:18.431807 29126 net.cpp:113] Setting up inception_4c/pool_proj
I1215 11:51:18.432833 29126 net.cpp:120] Top shape: 50 64 14 14 (627200)
I1215 11:51:18.432853 29126 layer_factory.hpp:74] Creating layer inception_4c/relu_pool_proj
I1215 11:51:18.432865 29126 net.cpp:84] Creating Layer inception_4c/relu_pool_proj
I1215 11:51:18.432873 29126 net.cpp:380] inception_4c/relu_pool_proj <- inception_4c/pool_proj
I1215 11:51:18.432883 29126 net.cpp:327] inception_4c/relu_pool_proj -> inception_4c/pool_proj (in-place)
I1215 11:51:18.432893 29126 net.cpp:113] Setting up inception_4c/relu_pool_proj
I1215 11:51:18.432987 29126 net.cpp:120] Top shape: 50 64 14 14 (627200)
I1215 11:51:18.432996 29126 layer_factory.hpp:74] Creating layer inception_4c/output
I1215 11:51:18.433007 29126 net.cpp:84] Creating Layer inception_4c/output
I1215 11:51:18.433013 29126 net.cpp:380] inception_4c/output <- inception_4c/1x1
I1215 11:51:18.433022 29126 net.cpp:380] inception_4c/output <- inception_4c/3x3
I1215 11:51:18.433029 29126 net.cpp:380] inception_4c/output <- inception_4c/5x5
I1215 11:51:18.433037 29126 net.cpp:380] inception_4c/output <- inception_4c/pool_proj
I1215 11:51:18.433044 29126 net.cpp:338] inception_4c/output -> inception_4c/output
I1215 11:51:18.433061 29126 net.cpp:113] Setting up inception_4c/output
I1215 11:51:18.433076 29126 net.cpp:120] Top shape: 50 512 14 14 (5017600)
I1215 11:51:18.433084 29126 layer_factory.hpp:74] Creating layer inception_4c/output_inception_4c/output_0_split
I1215 11:51:18.433091 29126 net.cpp:84] Creating Layer inception_4c/output_inception_4c/output_0_split
I1215 11:51:18.433097 29126 net.cpp:380] inception_4c/output_inception_4c/output_0_split <- inception_4c/output
I1215 11:51:18.433106 29126 net.cpp:338] inception_4c/output_inception_4c/output_0_split -> inception_4c/output_inception_4c/output_0_split_0
I1215 11:51:18.433116 29126 net.cpp:338] inception_4c/output_inception_4c/output_0_split -> inception_4c/output_inception_4c/output_0_split_1
I1215 11:51:18.433126 29126 net.cpp:338] inception_4c/output_inception_4c/output_0_split -> inception_4c/output_inception_4c/output_0_split_2
I1215 11:51:18.433136 29126 net.cpp:338] inception_4c/output_inception_4c/output_0_split -> inception_4c/output_inception_4c/output_0_split_3
I1215 11:51:18.433145 29126 net.cpp:113] Setting up inception_4c/output_inception_4c/output_0_split
I1215 11:51:18.433154 29126 net.cpp:120] Top shape: 50 512 14 14 (5017600)
I1215 11:51:18.433161 29126 net.cpp:120] Top shape: 50 512 14 14 (5017600)
I1215 11:51:18.433168 29126 net.cpp:120] Top shape: 50 512 14 14 (5017600)
I1215 11:51:18.433174 29126 net.cpp:120] Top shape: 50 512 14 14 (5017600)
I1215 11:51:18.433181 29126 layer_factory.hpp:74] Creating layer inception_4d/1x1
I1215 11:51:18.433192 29126 net.cpp:84] Creating Layer inception_4d/1x1
I1215 11:51:18.433199 29126 net.cpp:380] inception_4d/1x1 <- inception_4c/output_inception_4c/output_0_split_0
I1215 11:51:18.433210 29126 net.cpp:338] inception_4d/1x1 -> inception_4d/1x1
I1215 11:51:18.433220 29126 net.cpp:113] Setting up inception_4d/1x1
I1215 11:51:18.434622 29126 net.cpp:120] Top shape: 50 112 14 14 (1097600)
I1215 11:51:18.434641 29126 layer_factory.hpp:74] Creating layer inception_4d/relu_1x1
I1215 11:51:18.434654 29126 net.cpp:84] Creating Layer inception_4d/relu_1x1
I1215 11:51:18.434662 29126 net.cpp:380] inception_4d/relu_1x1 <- inception_4d/1x1
I1215 11:51:18.434671 29126 net.cpp:327] inception_4d/relu_1x1 -> inception_4d/1x1 (in-place)
I1215 11:51:18.434681 29126 net.cpp:113] Setting up inception_4d/relu_1x1
I1215 11:51:18.434782 29126 net.cpp:120] Top shape: 50 112 14 14 (1097600)
I1215 11:51:18.434801 29126 layer_factory.hpp:74] Creating layer inception_4d/3x3_reduce
I1215 11:51:18.434813 29126 net.cpp:84] Creating Layer inception_4d/3x3_reduce
I1215 11:51:18.434819 29126 net.cpp:380] inception_4d/3x3_reduce <- inception_4c/output_inception_4c/output_0_split_1
I1215 11:51:18.434831 29126 net.cpp:338] inception_4d/3x3_reduce -> inception_4d/3x3_reduce
I1215 11:51:18.434842 29126 net.cpp:113] Setting up inception_4d/3x3_reduce
I1215 11:51:18.436496 29126 net.cpp:120] Top shape: 50 144 14 14 (1411200)
I1215 11:51:18.436516 29126 layer_factory.hpp:74] Creating layer inception_4d/relu_3x3_reduce
I1215 11:51:18.436525 29126 net.cpp:84] Creating Layer inception_4d/relu_3x3_reduce
I1215 11:51:18.436532 29126 net.cpp:380] inception_4d/relu_3x3_reduce <- inception_4d/3x3_reduce
I1215 11:51:18.436544 29126 net.cpp:327] inception_4d/relu_3x3_reduce -> inception_4d/3x3_reduce (in-place)
I1215 11:51:18.436554 29126 net.cpp:113] Setting up inception_4d/relu_3x3_reduce
I1215 11:51:18.436875 29126 net.cpp:120] Top shape: 50 144 14 14 (1411200)
I1215 11:51:18.436889 29126 layer_factory.hpp:74] Creating layer inception_4d/3x3
I1215 11:51:18.436904 29126 net.cpp:84] Creating Layer inception_4d/3x3
I1215 11:51:18.436911 29126 net.cpp:380] inception_4d/3x3 <- inception_4d/3x3_reduce
I1215 11:51:18.436921 29126 net.cpp:338] inception_4d/3x3 -> inception_4d/3x3
I1215 11:51:18.436933 29126 net.cpp:113] Setting up inception_4d/3x3
I1215 11:51:18.442880 29126 net.cpp:120] Top shape: 50 288 14 14 (2822400)
I1215 11:51:18.442901 29126 layer_factory.hpp:74] Creating layer inception_4d/relu_3x3
I1215 11:51:18.442912 29126 net.cpp:84] Creating Layer inception_4d/relu_3x3
I1215 11:51:18.442920 29126 net.cpp:380] inception_4d/relu_3x3 <- inception_4d/3x3
I1215 11:51:18.442929 29126 net.cpp:327] inception_4d/relu_3x3 -> inception_4d/3x3 (in-place)
I1215 11:51:18.442939 29126 net.cpp:113] Setting up inception_4d/relu_3x3
I1215 11:51:18.443032 29126 net.cpp:120] Top shape: 50 288 14 14 (2822400)
I1215 11:51:18.443042 29126 layer_factory.hpp:74] Creating layer inception_4d/5x5_reduce
I1215 11:51:18.443054 29126 net.cpp:84] Creating Layer inception_4d/5x5_reduce
I1215 11:51:18.443060 29126 net.cpp:380] inception_4d/5x5_reduce <- inception_4c/output_inception_4c/output_0_split_2
I1215 11:51:18.443073 29126 net.cpp:338] inception_4d/5x5_reduce -> inception_4d/5x5_reduce
I1215 11:51:18.443084 29126 net.cpp:113] Setting up inception_4d/5x5_reduce
I1215 11:51:18.443867 29126 net.cpp:120] Top shape: 50 32 14 14 (313600)
I1215 11:51:18.443886 29126 layer_factory.hpp:74] Creating layer inception_4d/relu_5x5_reduce
I1215 11:51:18.443895 29126 net.cpp:84] Creating Layer inception_4d/relu_5x5_reduce
I1215 11:51:18.443902 29126 net.cpp:380] inception_4d/relu_5x5_reduce <- inception_4d/5x5_reduce
I1215 11:51:18.443915 29126 net.cpp:327] inception_4d/relu_5x5_reduce -> inception_4d/5x5_reduce (in-place)
I1215 11:51:18.443924 29126 net.cpp:113] Setting up inception_4d/relu_5x5_reduce
I1215 11:51:18.444021 29126 net.cpp:120] Top shape: 50 32 14 14 (313600)
I1215 11:51:18.444030 29126 layer_factory.hpp:74] Creating layer inception_4d/5x5
I1215 11:51:18.444041 29126 net.cpp:84] Creating Layer inception_4d/5x5
I1215 11:51:18.444046 29126 net.cpp:380] inception_4d/5x5 <- inception_4d/5x5_reduce
I1215 11:51:18.444057 29126 net.cpp:338] inception_4d/5x5 -> inception_4d/5x5
I1215 11:51:18.444068 29126 net.cpp:113] Setting up inception_4d/5x5
I1215 11:51:18.445322 29126 net.cpp:120] Top shape: 50 64 14 14 (627200)
I1215 11:51:18.445343 29126 layer_factory.hpp:74] Creating layer inception_4d/relu_5x5
I1215 11:51:18.445353 29126 net.cpp:84] Creating Layer inception_4d/relu_5x5
I1215 11:51:18.445358 29126 net.cpp:380] inception_4d/relu_5x5 <- inception_4d/5x5
I1215 11:51:18.445369 29126 net.cpp:327] inception_4d/relu_5x5 -> inception_4d/5x5 (in-place)
I1215 11:51:18.445379 29126 net.cpp:113] Setting up inception_4d/relu_5x5
I1215 11:51:18.445472 29126 net.cpp:120] Top shape: 50 64 14 14 (627200)
I1215 11:51:18.445487 29126 layer_factory.hpp:74] Creating layer inception_4d/pool
I1215 11:51:18.445502 29126 layer_factory.cpp:56] CUDNN does not support padding or multiple tops. Using Caffe's own pooling layer.
I1215 11:51:18.445510 29126 net.cpp:84] Creating Layer inception_4d/pool
I1215 11:51:18.445518 29126 net.cpp:380] inception_4d/pool <- inception_4c/output_inception_4c/output_0_split_3
I1215 11:51:18.445526 29126 net.cpp:338] inception_4d/pool -> inception_4d/pool
I1215 11:51:18.445536 29126 net.cpp:113] Setting up inception_4d/pool
I1215 11:51:18.445546 29126 net.cpp:120] Top shape: 50 512 14 14 (5017600)
I1215 11:51:18.445552 29126 layer_factory.hpp:74] Creating layer inception_4d/pool_proj
I1215 11:51:18.445566 29126 net.cpp:84] Creating Layer inception_4d/pool_proj
I1215 11:51:18.445572 29126 net.cpp:380] inception_4d/pool_proj <- inception_4d/pool
I1215 11:51:18.445583 29126 net.cpp:338] inception_4d/pool_proj -> inception_4d/pool_proj
I1215 11:51:18.445593 29126 net.cpp:113] Setting up inception_4d/pool_proj
I1215 11:51:18.446578 29126 net.cpp:120] Top shape: 50 64 14 14 (627200)
I1215 11:51:18.446596 29126 layer_factory.hpp:74] Creating layer inception_4d/relu_pool_proj
I1215 11:51:18.446607 29126 net.cpp:84] Creating Layer inception_4d/relu_pool_proj
I1215 11:51:18.446615 29126 net.cpp:380] inception_4d/relu_pool_proj <- inception_4d/pool_proj
I1215 11:51:18.446624 29126 net.cpp:327] inception_4d/relu_pool_proj -> inception_4d/pool_proj (in-place)
I1215 11:51:18.446633 29126 net.cpp:113] Setting up inception_4d/relu_pool_proj
I1215 11:51:18.446930 29126 net.cpp:120] Top shape: 50 64 14 14 (627200)
I1215 11:51:18.446944 29126 layer_factory.hpp:74] Creating layer inception_4d/output
I1215 11:51:18.446956 29126 net.cpp:84] Creating Layer inception_4d/output
I1215 11:51:18.446964 29126 net.cpp:380] inception_4d/output <- inception_4d/1x1
I1215 11:51:18.446971 29126 net.cpp:380] inception_4d/output <- inception_4d/3x3
I1215 11:51:18.446979 29126 net.cpp:380] inception_4d/output <- inception_4d/5x5
I1215 11:51:18.446985 29126 net.cpp:380] inception_4d/output <- inception_4d/pool_proj
I1215 11:51:18.446993 29126 net.cpp:338] inception_4d/output -> inception_4d/output
I1215 11:51:18.447002 29126 net.cpp:113] Setting up inception_4d/output
I1215 11:51:18.447012 29126 net.cpp:120] Top shape: 50 528 14 14 (5174400)
I1215 11:51:18.447018 29126 layer_factory.hpp:74] Creating layer inception_4d/output_inception_4d/output_0_split
I1215 11:51:18.447027 29126 net.cpp:84] Creating Layer inception_4d/output_inception_4d/output_0_split
I1215 11:51:18.447033 29126 net.cpp:380] inception_4d/output_inception_4d/output_0_split <- inception_4d/output
I1215 11:51:18.447041 29126 net.cpp:338] inception_4d/output_inception_4d/output_0_split -> inception_4d/output_inception_4d/output_0_split_0
I1215 11:51:18.447053 29126 net.cpp:338] inception_4d/output_inception_4d/output_0_split -> inception_4d/output_inception_4d/output_0_split_1
I1215 11:51:18.447062 29126 net.cpp:338] inception_4d/output_inception_4d/output_0_split -> inception_4d/output_inception_4d/output_0_split_2
I1215 11:51:18.447072 29126 net.cpp:338] inception_4d/output_inception_4d/output_0_split -> inception_4d/output_inception_4d/output_0_split_3
I1215 11:51:18.447080 29126 net.cpp:338] inception_4d/output_inception_4d/output_0_split -> inception_4d/output_inception_4d/output_0_split_4
I1215 11:51:18.447088 29126 net.cpp:113] Setting up inception_4d/output_inception_4d/output_0_split
I1215 11:51:18.447100 29126 net.cpp:120] Top shape: 50 528 14 14 (5174400)
I1215 11:51:18.447108 29126 net.cpp:120] Top shape: 50 528 14 14 (5174400)
I1215 11:51:18.447114 29126 net.cpp:120] Top shape: 50 528 14 14 (5174400)
I1215 11:51:18.447120 29126 net.cpp:120] Top shape: 50 528 14 14 (5174400)
I1215 11:51:18.447126 29126 net.cpp:120] Top shape: 50 528 14 14 (5174400)
I1215 11:51:18.447132 29126 layer_factory.hpp:74] Creating layer loss2/ave_pool
I1215 11:51:18.447140 29126 net.cpp:84] Creating Layer loss2/ave_pool
I1215 11:51:18.447146 29126 net.cpp:380] loss2/ave_pool <- inception_4d/output_inception_4d/output_0_split_0
I1215 11:51:18.447170 29126 net.cpp:338] loss2/ave_pool -> loss2/ave_pool
I1215 11:51:18.447178 29126 net.cpp:113] Setting up loss2/ave_pool
I1215 11:51:18.447274 29126 net.cpp:120] Top shape: 50 528 4 4 (422400)
I1215 11:51:18.447283 29126 layer_factory.hpp:74] Creating layer loss2/conv
I1215 11:51:18.447295 29126 net.cpp:84] Creating Layer loss2/conv
I1215 11:51:18.447302 29126 net.cpp:380] loss2/conv <- loss2/ave_pool
I1215 11:51:18.447311 29126 net.cpp:338] loss2/conv -> loss2/conv
I1215 11:51:18.447321 29126 net.cpp:113] Setting up loss2/conv
I1215 11:51:18.448818 29126 net.cpp:120] Top shape: 50 128 4 4 (102400)
I1215 11:51:18.448837 29126 layer_factory.hpp:74] Creating layer loss2/relu_conv
I1215 11:51:18.448848 29126 net.cpp:84] Creating Layer loss2/relu_conv
I1215 11:51:18.448854 29126 net.cpp:380] loss2/relu_conv <- loss2/conv
I1215 11:51:18.448865 29126 net.cpp:327] loss2/relu_conv -> loss2/conv (in-place)
I1215 11:51:18.448875 29126 net.cpp:113] Setting up loss2/relu_conv
I1215 11:51:18.448962 29126 net.cpp:120] Top shape: 50 128 4 4 (102400)
I1215 11:51:18.448971 29126 layer_factory.hpp:74] Creating layer loss2/fc
I1215 11:51:18.448983 29126 net.cpp:84] Creating Layer loss2/fc
I1215 11:51:18.448990 29126 net.cpp:380] loss2/fc <- loss2/conv
I1215 11:51:18.448998 29126 net.cpp:338] loss2/fc -> loss2/fc
I1215 11:51:18.449009 29126 net.cpp:113] Setting up loss2/fc
I1215 11:51:18.475525 29126 net.cpp:120] Top shape: 50 1024 (51200)
I1215 11:51:18.475541 29126 layer_factory.hpp:74] Creating layer loss2/relu_fc
I1215 11:51:18.475551 29126 net.cpp:84] Creating Layer loss2/relu_fc
I1215 11:51:18.475558 29126 net.cpp:380] loss2/relu_fc <- loss2/fc
I1215 11:51:18.475565 29126 net.cpp:327] loss2/relu_fc -> loss2/fc (in-place)
I1215 11:51:18.475574 29126 net.cpp:113] Setting up loss2/relu_fc
I1215 11:51:18.475667 29126 net.cpp:120] Top shape: 50 1024 (51200)
I1215 11:51:18.475674 29126 layer_factory.hpp:74] Creating layer loss2/drop_fc
I1215 11:51:18.475682 29126 net.cpp:84] Creating Layer loss2/drop_fc
I1215 11:51:18.475688 29126 net.cpp:380] loss2/drop_fc <- loss2/fc
I1215 11:51:18.475697 29126 net.cpp:327] loss2/drop_fc -> loss2/fc (in-place)
I1215 11:51:18.475703 29126 net.cpp:113] Setting up loss2/drop_fc
I1215 11:51:18.475711 29126 net.cpp:120] Top shape: 50 1024 (51200)
I1215 11:51:18.475716 29126 layer_factory.hpp:74] Creating layer loss2/classifier_kaggle
I1215 11:51:18.475726 29126 net.cpp:84] Creating Layer loss2/classifier_kaggle
I1215 11:51:18.475731 29126 net.cpp:380] loss2/classifier_kaggle <- loss2/fc
I1215 11:51:18.475741 29126 net.cpp:338] loss2/classifier_kaggle -> loss2/classifier_kaggle
I1215 11:51:18.475749 29126 net.cpp:113] Setting up loss2/classifier_kaggle
I1215 11:51:18.481528 29126 net.cpp:120] Top shape: 50 447 (22350)
I1215 11:51:18.481541 29126 layer_factory.hpp:74] Creating layer loss2/classifier_kaggle_loss2/classifier_kaggle_0_split
I1215 11:51:18.481550 29126 net.cpp:84] Creating Layer loss2/classifier_kaggle_loss2/classifier_kaggle_0_split
I1215 11:51:18.481559 29126 net.cpp:380] loss2/classifier_kaggle_loss2/classifier_kaggle_0_split <- loss2/classifier_kaggle
I1215 11:51:18.481566 29126 net.cpp:338] loss2/classifier_kaggle_loss2/classifier_kaggle_0_split -> loss2/classifier_kaggle_loss2/classifier_kaggle_0_split_0
I1215 11:51:18.481575 29126 net.cpp:338] loss2/classifier_kaggle_loss2/classifier_kaggle_0_split -> loss2/classifier_kaggle_loss2/classifier_kaggle_0_split_1
I1215 11:51:18.481583 29126 net.cpp:338] loss2/classifier_kaggle_loss2/classifier_kaggle_0_split -> loss2/classifier_kaggle_loss2/classifier_kaggle_0_split_2
I1215 11:51:18.481590 29126 net.cpp:113] Setting up loss2/classifier_kaggle_loss2/classifier_kaggle_0_split
I1215 11:51:18.481598 29126 net.cpp:120] Top shape: 50 447 (22350)
I1215 11:51:18.481605 29126 net.cpp:120] Top shape: 50 447 (22350)
I1215 11:51:18.481609 29126 net.cpp:120] Top shape: 50 447 (22350)
I1215 11:51:18.481614 29126 layer_factory.hpp:74] Creating layer loss2/loss
I1215 11:51:18.481629 29126 net.cpp:84] Creating Layer loss2/loss
I1215 11:51:18.481643 29126 net.cpp:380] loss2/loss <- loss2/classifier_kaggle_loss2/classifier_kaggle_0_split_0
I1215 11:51:18.481650 29126 net.cpp:380] loss2/loss <- label_data_1_split_3
I1215 11:51:18.481659 29126 net.cpp:338] loss2/loss -> loss2/loss1
…
I1215 11:51:18.482137 29126 net.cpp:338] loss2/top-5 -> loss2/top-5
I1215 11:51:18.482146 29126 net.cpp:113] Setting up loss2/top-5
I1215 11:51:18.482151 29126 net.cpp:120] Top shape: (1)
I1215 11:51:18.482156 29126 layer_factory.hpp:74] Creating layer inception_4e/1x1
I1215 11:51:18.482168 29126 net.cpp:84] Creating Layer inception_4e/1x1
I1215 11:51:18.482173 29126 net.cpp:380] inception_4e/1x1 <- inception_4d/output_inception_4d/output_0_split_1
I1215 11:51:18.482182 29126 net.cpp:338] inception_4e/1x1 -> inception_4e/1x1
I1215 11:51:18.482189 29126 net.cpp:113] Setting up inception_4e/1x1
I1215 11:51:18.484829 29126 net.cpp:120] Top shape: 50 256 14 14 (2508800)
I1215 11:51:18.484870 29126 layer_factory.hpp:74] Creating layer inception_4e/relu_1x1
I1215 11:51:18.484890 29126 net.cpp:84] Creating Layer inception_4e/relu_1x1
I1215 11:51:18.484905 29126 net.cpp:380] inception_4e/relu_1x1 <- inception_4e/1x1
I1215 11:51:18.484918 29126 net.cpp:327] inception_4e/relu_1x1 -> inception_4e/1x1 (in-place)
I1215 11:51:18.484935 29126 net.cpp:113] Setting up inception_4e/relu_1x1
I1215 11:51:18.485112 29126 net.cpp:120] Top shape: 50 256 14 14 (2508800)
I1215 11:51:18.485129 29126 layer_factory.hpp:74] Creating layer inception_4e/3x3_reduce
I1215 11:51:18.485175 29126 net.cpp:84] Creating Layer inception_4e/3x3_reduce
I1215 11:51:18.485188 29126 net.cpp:380] inception_4e/3x3_reduce <- inception_4d/output_inception_4d/output_0_split_2
I1215 11:51:18.485204 29126 net.cpp:338] inception_4e/3x3_reduce -> inception_4e/3x3_reduce
I1215 11:51:18.485222 29126 net.cpp:113] Setting up inception_4e/3x3_reduce
I1215 11:51:18.488171 29126 net.cpp:120] Top shape: 50 160 14 14 (1568000)
I1215 11:51:18.488203 29126 layer_factory.hpp:74] Creating layer inception_4e/relu_3x3_reduce
I1215 11:51:18.488217 29126 net.cpp:84] Creating Layer inception_4e/relu_3x3_reduce
I1215 11:51:18.488227 29126 net.cpp:380] inception_4e/relu_3x3_reduce <- inception_4e/3x3_reduce
I1215 11:51:18.488243 29126 net.cpp:327] inception_4e/relu_3x3_reduce -> inception_4e/3x3_reduce (in-place)
I1215 11:51:18.488258 29126 net.cpp:113] Setting up inception_4e/relu_3x3_reduce
I1215 11:51:18.488394 29126 net.cpp:120] Top shape: 50 160 14 14 (1568000)
I1215 11:51:18.488406 29126 layer_factory.hpp:74] Creating layer inception_4e/3x3
I1215 11:51:18.488423 29126 net.cpp:84] Creating Layer inception_4e/3x3
I1215 11:51:18.488432 29126 net.cpp:380] inception_4e/3x3 <- inception_4e/3x3_reduce
I1215 11:51:18.488448 29126 net.cpp:338] inception_4e/3x3 -> inception_4e/3x3
I1215 11:51:18.488463 29126 net.cpp:113] Setting up inception_4e/3x3
I1215 11:51:18.498786 29126 net.cpp:120] Top shape: 50 320 14 14 (3136000)
I1215 11:51:18.498824 29126 layer_factory.hpp:74] Creating layer inception_4e/relu_3x3
I1215 11:51:18.498852 29126 net.cpp:84] Creating Layer inception_4e/relu_3x3
I1215 11:51:18.498863 29126 net.cpp:380] inception_4e/relu_3x3 <- inception_4e/3x3
I1215 11:51:18.498875 29126 net.cpp:327] inception_4e/relu_3x3 -> inception_4e/3x3 (in-place)
I1215 11:51:18.498888 29126 net.cpp:113] Setting up inception_4e/relu_3x3
I1215 11:51:18.499248 29126 net.cpp:120] Top shape: 50 320 14 14 (3136000)
I1215 11:51:18.499267 29126 layer_factory.hpp:74] Creating layer inception_4e/5x5_reduce
I1215 11:51:18.499281 29126 net.cpp:84] Creating Layer inception_4e/5x5_reduce
I1215 11:51:18.499291 29126 net.cpp:380] inception_4e/5x5_reduce <- inception_4d/output_inception_4d/output_0_split_3
I1215 11:51:18.499305 29126 net.cpp:338] inception_4e/5x5_reduce -> inception_4e/5x5_reduce
I1215 11:51:18.499321 29126 net.cpp:113] Setting up inception_4e/5x5_reduce
I1215 11:51:18.500268 29126 net.cpp:120] Top shape: 50 32 14 14 (313600)
I1215 11:51:18.500293 29126 layer_factory.hpp:74] Creating layer inception_4e/relu_5x5_reduce
I1215 11:51:18.500308 29126 net.cpp:84] Creating Layer inception_4e/relu_5x5_reduce
I1215 11:51:18.500318 29126 net.cpp:380] inception_4e/relu_5x5_reduce <- inception_4e/5x5_reduce
I1215 11:51:18.500329 29126 net.cpp:327] inception_4e/relu_5x5_reduce -> inception_4e/5x5_reduce (in-place)
I1215 11:51:18.500341 29126 net.cpp:113] Setting up inception_4e/relu_5x5_reduce
I1215 11:51:18.500470 29126 net.cpp:120] Top shape: 50 32 14 14 (313600)
I1215 11:51:18.500481 29126 layer_factory.hpp:74] Creating layer inception_4e/5x5
I1215 11:51:18.500494 29126 net.cpp:84] Creating Layer inception_4e/5x5
I1215 11:51:18.500502 29126 net.cpp:380] inception_4e/5x5 <- inception_4e/5x5_reduce
I1215 11:51:18.500517 29126 net.cpp:338] inception_4e/5x5 -> inception_4e/5x5
I1215 11:51:18.500530 29126 net.cpp:113] Setting up inception_4e/5x5
I1215 11:51:18.503165 29126 net.cpp:120] Top shape: 50 128 14 14 (1254400)
I1215 11:51:18.503191 29126 layer_factory.hpp:74] Creating layer inception_4e/relu_5x5
I1215 11:51:18.503203 29126 net.cpp:84] Creating Layer inception_4e/relu_5x5
I1215 11:51:18.503213 29126 net.cpp:380] inception_4e/relu_5x5 <- inception_4e/5x5
I1215 11:51:18.503224 29126 net.cpp:327] inception_4e/relu_5x5 -> inception_4e/5x5 (in-place)
I1215 11:51:18.503237 29126 net.cpp:113] Setting up inception_4e/relu_5x5
I1215 11:51:18.503356 29126 net.cpp:120] Top shape: 50 128 14 14 (1254400)
I1215 11:51:18.503367 29126 layer_factory.hpp:74] Creating layer inception_4e/pool
I1215 11:51:18.503376 29126 layer_factory.cpp:56] CUDNN does not support padding or multiple tops. Using Caffe's own pooling layer.
I1215 11:51:18.503386 29126 net.cpp:84] Creating Layer inception_4e/pool
I1215 11:51:18.503396 29126 net.cpp:380] inception_4e/pool <- inception_4d/output_inception_4d/output_0_split_4
I1215 11:51:18.503410 29126 net.cpp:338] inception_4e/pool -> inception_4e/pool
I1215 11:51:18.503423 29126 net.cpp:113] Setting up inception_4e/pool
I1215 11:51:18.503437 29126 net.cpp:120] Top shape: 50 528 14 14 (5174400)
I1215 11:51:18.503445 29126 layer_factory.hpp:74] Creating layer inception_4e/pool_proj
I1215 11:51:18.503460 29126 net.cpp:84] Creating Layer inception_4e/pool_proj
I1215 11:51:18.503469 29126 net.cpp:380] inception_4e/pool_proj <- inception_4e/pool
I1215 11:51:18.503480 29126 net.cpp:338] inception_4e/pool_proj -> inception_4e/pool_proj
I1215 11:51:18.503494 29126 net.cpp:113] Setting up inception_4e/pool_proj
I1215 11:51:18.505458 29126 net.cpp:120] Top shape: 50 128 14 14 (1254400)
I1215 11:51:18.505486 29126 layer_factory.hpp:74] Creating layer inception_4e/relu_pool_proj
I1215 11:51:18.505497 29126 net.cpp:84] Creating Layer inception_4e/relu_pool_proj
I1215 11:51:18.505507 29126 net.cpp:380] inception_4e/relu_pool_proj <- inception_4e/pool_proj
I1215 11:51:18.505522 29126 net.cpp:327] inception_4e/relu_pool_proj -> inception_4e/pool_proj (in-place)
I1215 11:51:18.505534 29126 net.cpp:113] Setting up inception_4e/relu_pool_proj
I1215 11:51:18.505662 29126 net.cpp:120] Top shape: 50 128 14 14 (1254400)
I1215 11:51:18.505687 29126 layer_factory.hpp:74] Creating layer inception_4e/output
I1215 11:51:18.505699 29126 net.cpp:84] Creating Layer inception_4e/output
I1215 11:51:18.505708 29126 net.cpp:380] inception_4e/output <- inception_4e/1x1
I1215 11:51:18.505718 29126 net.cpp:380] inception_4e/output <- inception_4e/3x3
I1215 11:51:18.505728 29126 net.cpp:380] inception_4e/output <- inception_4e/5x5
I1215 11:51:18.505738 29126 net.cpp:380] inception_4e/output <- inception_4e/pool_proj
I1215 11:51:18.505750 29126 net.cpp:338] inception_4e/output -> inception_4e/output
I1215 11:51:18.505764 29126 net.cpp:113] Setting up inception_4e/output
I1215 11:51:18.505777 29126 net.cpp:120] Top shape: 50 832 14 14 (8153600)
I1215 11:51:18.505785 29126 layer_factory.hpp:74] Creating layer pool4/3x3_s2
I1215 11:51:18.505796 29126 net.cpp:84] Creating Layer pool4/3x3_s2
I1215 11:51:18.505805 29126 net.cpp:380] pool4/3x3_s2 <- inception_4e/output
I1215 11:51:18.505816 29126 net.cpp:338] pool4/3x3_s2 -> pool4/3x3_s2
I1215 11:51:18.505828 29126 net.cpp:113] Setting up pool4/3x3_s2
I1215 11:51:18.506206 29126 net.cpp:120] Top shape: 50 832 7 7 (2038400)
I1215 11:51:18.506225 29126 layer_factory.hpp:74] Creating layer pool4/3x3_s2_pool4/3x3_s2_0_split
I1215 11:51:18.506237 29126 net.cpp:84] Creating Layer pool4/3x3_s2_pool4/3x3_s2_0_split
I1215 11:51:18.506247 29126 net.cpp:380] pool4/3x3_s2_pool4/3x3_s2_0_split <- pool4/3x3_s2
I1215 11:51:18.506263 29126 net.cpp:338] pool4/3x3_s2_pool4/3x3_s2_0_split -> pool4/3x3_s2_pool4/3x3_s2_0_split_0
I1215 11:51:18.506278 29126 net.cpp:338] pool4/3x3_s2_pool4/3x3_s2_0_split -> pool4/3x3_s2_pool4/3x3_s2_0_split_1
I1215 11:51:18.506290 29126 net.cpp:338] pool4/3x3_s2_pool4/3x3_s2_0_split -> pool4/3x3_s2_pool4/3x3_s2_0_split_2
I1215 11:51:18.506327 29126 net.cpp:338] pool4/3x3_s2_pool4/3x3_s2_0_split -> pool4/3x3_s2_pool4/3x3_s2_0_split_3
I1215 11:51:18.506340 29126 net.cpp:113] Setting up pool4/3x3_s2_pool4/3x3_s2_0_split
I1215 11:51:18.506352 29126 net.cpp:120] Top shape: 50 832 7 7 (2038400)
I1215 11:51:18.506361 29126 net.cpp:120] Top shape: 50 832 7 7 (2038400)
I1215 11:51:18.506372 29126 net.cpp:120] Top shape: 50 832 7 7 (2038400)
I1215 11:51:18.506381 29126 net.cpp:120] Top shape: 50 832 7 7 (2038400)
I1215 11:51:18.506388 29126 layer_factory.hpp:74] Creating layer inception_5a/1x1
I1215 11:51:18.506402 29126 net.cpp:84] Creating Layer inception_5a/1x1
I1215 11:51:18.506410 29126 net.cpp:380] inception_5a/1x1 <- pool4/3x3_s2_pool4/3x3_s2_0_split_0
I1215 11:51:18.506423 29126 net.cpp:338] inception_5a/1x1 -> inception_5a/1x1
I1215 11:51:18.506436 29126 net.cpp:113] Setting up inception_5a/1x1
I1215 11:51:18.511137 29126 net.cpp:120] Top shape: 50 256 7 7 (627200)
I1215 11:51:18.511170 29126 layer_factory.hpp:74] Creating layer inception_5a/relu_1x1
I1215 11:51:18.511186 29126 net.cpp:84] Creating Layer inception_5a/relu_1x1
I1215 11:51:18.511196 29126 net.cpp:380] inception_5a/relu_1x1 <- inception_5a/1x1
I1215 11:51:18.511207 29126 net.cpp:327] inception_5a/relu_1x1 -> inception_5a/1x1 (in-place)
I1215 11:51:18.511220 29126 net.cpp:113] Setting up inception_5a/relu_1x1
I1215 11:51:18.511332 29126 net.cpp:120] Top shape: 50 256 7 7 (627200)
I1215 11:51:18.511340 29126 layer_factory.hpp:74] Creating layer inception_5a/3x3_reduce
I1215 11:51:18.511358 29126 net.cpp:84] Creating Layer inception_5a/3x3_reduce
I1215 11:51:18.511366 29126 net.cpp:380] inception_5a/3x3_reduce <- pool4/3x3_s2_pool4/3x3_s2_0_split_1
I1215 11:51:18.511378 29126 net.cpp:338] inception_5a/3x3_reduce -> inception_5a/3x3_reduce
I1215 11:51:18.511391 29126 net.cpp:113] Setting up inception_5a/3x3_reduce
I1215 11:51:18.518304 29126 net.cpp:120] Top shape: 50 160 7 7 (392000)
I1215 11:51:18.518333 29126 layer_factory.hpp:74] Creating layer inception_5a/relu_3x3_reduce
I1215 11:51:18.518348 29126 net.cpp:84] Creating Layer inception_5a/relu_3x3_reduce
I1215 11:51:18.518358 29126 net.cpp:380] inception_5a/relu_3x3_reduce <- inception_5a/3x3_reduce
I1215 11:51:18.518378 29126 net.cpp:327] inception_5a/relu_3x3_reduce -> inception_5a/3x3_reduce (in-place)
I1215 11:51:18.518407 29126 net.cpp:113] Setting up inception_5a/relu_3x3_reduce
I1215 11:51:18.518525 29126 net.cpp:120] Top shape: 50 160 7 7 (392000)
I1215 11:51:18.518537 29126 layer_factory.hpp:74] Creating layer inception_5a/3x3
I1215 11:51:18.518551 29126 net.cpp:84] Creating Layer inception_5a/3x3
I1215 11:51:18.518559 29126 net.cpp:380] inception_5a/3x3 <- inception_5a/3x3_reduce
I1215 11:51:18.518573 29126 net.cpp:338] inception_5a/3x3 -> inception_5a/3x3
I1215 11:51:18.518586 29126 net.cpp:113] Setting up inception_5a/3x3
I1215 11:51:18.530638 29126 net.cpp:120] Top shape: 50 320 7 7 (784000)
I1215 11:51:18.530676 29126 layer_factory.hpp:74] Creating layer inception_5a/relu_3x3
I1215 11:51:18.530689 29126 net.cpp:84] Creating Layer inception_5a/relu_3x3
I1215 11:51:18.530697 29126 net.cpp:380] inception_5a/relu_3x3 <- inception_5a/3x3
I1215 11:51:18.530707 29126 net.cpp:327] inception_5a/relu_3x3 -> inception_5a/3x3 (in-place)
I1215 11:51:18.530722 29126 net.cpp:113] Setting up inception_5a/relu_3x3
I1215 11:51:18.530829 29126 net.cpp:120] Top shape: 50 320 7 7 (784000)
I1215 11:51:18.530841 29126 layer_factory.hpp:74] Creating layer inception_5a/5x5_reduce
I1215 11:51:18.530855 29126 net.cpp:84] Creating Layer inception_5a/5x5_reduce
I1215 11:51:18.530864 29126 net.cpp:380] inception_5a/5x5_reduce <- pool4/3x3_s2_pool4/3x3_s2_0_split_2
I1215 11:51:18.530874 29126 net.cpp:338] inception_5a/5x5_reduce -> inception_5a/5x5_reduce
I1215 11:51:18.530887 29126 net.cpp:113] Setting up inception_5a/5x5_reduce
I1215 11:51:18.531936 29126 net.cpp:120] Top shape: 50 32 7 7 (78400)
I1215 11:51:18.531960 29126 layer_factory.hpp:74] Creating layer inception_5a/relu_5x5_reduce
I1215 11:51:18.531975 29126 net.cpp:84] Creating Layer inception_5a/relu_5x5_reduce
I1215 11:51:18.531985 29126 net.cpp:380] inception_5a/relu_5x5_reduce <- inception_5a/5x5_reduce
I1215 11:51:18.531994 29126 net.cpp:327] inception_5a/relu_5x5_reduce -> inception_5a/5x5_reduce (in-place)
I1215 11:51:18.532006 29126 net.cpp:113] Setting up inception_5a/relu_5x5_reduce
I1215 11:51:18.532336 29126 net.cpp:120] Top shape: 50 32 7 7 (78400)
I1215 11:51:18.532352 29126 layer_factory.hpp:74] Creating layer inception_5a/5x5
I1215 11:51:18.532367 29126 net.cpp:84] Creating Layer inception_5a/5x5
I1215 11:51:18.532376 29126 net.cpp:380] inception_5a/5x5 <- inception_5a/5x5_reduce
I1215 11:51:18.532387 29126 net.cpp:338] inception_5a/5x5 -> inception_5a/5x5
I1215 11:51:18.532399 29126 net.cpp:113] Setting up inception_5a/5x5
I1215 11:51:18.534744 29126 net.cpp:120] Top shape: 50 128 7 7 (313600)
I1215 11:51:18.534768 29126 layer_factory.hpp:74] Creating layer inception_5a/relu_5x5
I1215 11:51:18.534780 29126 net.cpp:84] Creating Layer inception_5a/relu_5x5
I1215 11:51:18.534788 29126 net.cpp:380] inception_5a/relu_5x5 <- inception_5a/5x5
I1215 11:51:18.534801 29126 net.cpp:327] inception_5a/relu_5x5 -> inception_5a/5x5 (in-place)
I1215 11:51:18.534812 29126 net.cpp:113] Setting up inception_5a/relu_5x5
I1215 11:51:18.534920 29126 net.cpp:120] Top shape: 50 128 7 7 (313600)
I1215 11:51:18.534929 29126 layer_factory.hpp:74] Creating layer inception_5a/pool
I1215 11:51:18.534939 29126 layer_factory.cpp:56] CUDNN does not support padding or multiple tops. Using Caffe's own pooling layer.
I1215 11:51:18.534950 29126 net.cpp:84] Creating Layer inception_5a/pool
I1215 11:51:18.534957 29126 net.cpp:380] inception_5a/pool <- pool4/3x3_s2_pool4/3x3_s2_0_split_3
I1215 11:51:18.534967 29126 net.cpp:338] inception_5a/pool -> inception_5a/pool
I1215 11:51:18.534979 29126 net.cpp:113] Setting up inception_5a/pool
I1215 11:51:18.534991 29126 net.cpp:120] Top shape: 50 832 7 7 (2038400)
I1215 11:51:18.534998 29126 layer_factory.hpp:74] Creating layer inception_5a/pool_proj
I1215 11:51:18.535012 29126 net.cpp:84] Creating Layer inception_5a/pool_proj
I1215 11:51:18.535019 29126 net.cpp:380] inception_5a/pool_proj <- inception_5a/pool
I1215 11:51:18.535030 29126 net.cpp:338] inception_5a/pool_proj -> inception_5a/pool_proj
I1215 11:51:18.535050 29126 net.cpp:113] Setting up inception_5a/pool_proj
I1215 11:51:18.537544 29126 net.cpp:120] Top shape: 50 128 7 7 (313600)
I1215 11:51:18.537571 29126 layer_factory.hpp:74] Creating layer inception_5a/relu_pool_proj
I1215 11:51:18.537582 29126 net.cpp:84] Creating Layer inception_5a/relu_pool_proj
I1215 11:51:18.537591 29126 net.cpp:380] inception_5a/relu_pool_proj <- inception_5a/pool_proj
I1215 11:51:18.537605 29126 net.cpp:327] inception_5a/relu_pool_proj -> inception_5a/pool_proj (in-place)
I1215 11:51:18.537616 29126 net.cpp:113] Setting up inception_5a/relu_pool_proj
I1215 11:51:18.537721 29126 net.cpp:120] Top shape: 50 128 7 7 (313600)
I1215 11:51:18.537731 29126 layer_factory.hpp:74] Creating layer inception_5a/output
I1215 11:51:18.537741 29126 net.cpp:84] Creating Layer inception_5a/output
I1215 11:51:18.537749 29126 net.cpp:380] inception_5a/output <- inception_5a/1x1
I1215 11:51:18.537757 29126 net.cpp:380] inception_5a/output <- inception_5a/3x3
I1215 11:51:18.537766 29126 net.cpp:380] inception_5a/output <- inception_5a/5x5
I1215 11:51:18.537773 29126 net.cpp:380] inception_5a/output <- inception_5a/pool_proj
I1215 11:51:18.537786 29126 net.cpp:338] inception_5a/output -> inception_5a/output
I1215 11:51:18.537797 29126 net.cpp:113] Setting up inception_5a/output
I1215 11:51:18.537808 29126 net.cpp:120] Top shape: 50 832 7 7 (2038400)
I1215 11:51:18.537816 29126 layer_factory.hpp:74] Creating layer inception_5a/output_inception_5a/output_0_split
I1215 11:51:18.537825 29126 net.cpp:84] Creating Layer inception_5a/output_inception_5a/output_0_split
I1215 11:51:18.537832 29126 net.cpp:380] inception_5a/output_inception_5a/output_0_split <- inception_5a/output
I1215 11:51:18.537842 29126 net.cpp:338] inception_5a/output_inception_5a/output_0_split -> inception_5a/output_inception_5a/output_0_split_0
I1215 11:51:18.537853 29126 net.cpp:338] inception_5a/output_inception_5a/output_0_split -> inception_5a/output_inception_5a/output_0_split_1
I1215 11:51:18.537866 29126 net.cpp:338] inception_5a/output_inception_5a/output_0_split -> inception_5a/output_inception_5a/output_0_split_2
I1215 11:51:18.537878 29126 net.cpp:338] inception_5a/output_inception_5a/output_0_split -> inception_5a/output_inception_5a/output_0_split_3
I1215 11:51:18.537888 29126 net.cpp:113] Setting up inception_5a/output_inception_5a/output_0_split
I1215 11:51:18.537899 29126 net.cpp:120] Top shape: 50 832 7 7 (2038400)
I1215 11:51:18.537906 29126 net.cpp:120] Top shape: 50 832 7 7 (2038400)
I1215 11:51:18.537914 29126 net.cpp:120] Top shape: 50 832 7 7 (2038400)
I1215 11:51:18.537921 29126 net.cpp:120] Top shape: 50 832 7 7 (2038400)
I1215 11:51:18.537928 29126 layer_factory.hpp:74] Creating layer inception_5b/1x1
I1215 11:51:18.537941 29126 net.cpp:84] Creating Layer inception_5b/1x1
I1215 11:51:18.537948 29126 net.cpp:380] inception_5b/1x1 <- inception_5a/output_inception_5a/output_0_split_0
I1215 11:51:18.537958 29126 net.cpp:338] inception_5b/1x1 -> inception_5b/1x1
I1215 11:51:18.537969 29126 net.cpp:113] Setting up inception_5b/1x1
I1215 11:51:18.543643 29126 net.cpp:120] Top shape: 50 384 7 7 (940800)
I1215 11:51:18.543665 29126 layer_factory.hpp:74] Creating layer inception_5b/relu_1x1
I1215 11:51:18.543676 29126 net.cpp:84] Creating Layer inception_5b/relu_1x1
I1215 11:51:18.543684 29126 net.cpp:380] inception_5b/relu_1x1 <- inception_5b/1x1
I1215 11:51:18.543692 29126 net.cpp:327] inception_5b/relu_1x1 -> inception_5b/1x1 (in-place)
I1215 11:51:18.543702 29126 net.cpp:113] Setting up inception_5b/relu_1x1
I1215 11:51:18.543793 29126 net.cpp:120] Top shape: 50 384 7 7 (940800)
I1215 11:51:18.543804 29126 layer_factory.hpp:74] Creating layer inception_5b/3x3_reduce
I1215 11:51:18.543814 29126 net.cpp:84] Creating Layer inception_5b/3x3_reduce
I1215 11:51:18.543822 29126 net.cpp:380] inception_5b/3x3_reduce <- inception_5a/output_inception_5a/output_0_split_1
I1215 11:51:18.543833 29126 net.cpp:338] inception_5b/3x3_reduce -> inception_5b/3x3_reduce
I1215 11:51:18.543851 29126 net.cpp:113] Setting up inception_5b/3x3_reduce
I1215 11:51:18.547888 29126 net.cpp:120] Top shape: 50 192 7 7 (470400)
I1215 11:51:18.547914 29126 layer_factory.hpp:74] Creating layer inception_5b/relu_3x3_reduce
I1215 11:51:18.547931 29126 net.cpp:84] Creating Layer inception_5b/relu_3x3_reduce
I1215 11:51:18.547940 29126 net.cpp:380] inception_5b/relu_3x3_reduce <- inception_5b/3x3_reduce
I1215 11:51:18.547950 29126 net.cpp:327] inception_5b/relu_3x3_reduce -> inception_5b/3x3_reduce (in-place)
I1215 11:51:18.547960 29126 net.cpp:113] Setting up inception_5b/relu_3x3_reduce
I1215 11:51:18.548267 29126 net.cpp:120] Top shape: 50 192 7 7 (470400)
I1215 11:51:18.548282 29126 layer_factory.hpp:74] Creating layer inception_5b/3x3
I1215 11:51:18.548296 29126 net.cpp:84] Creating Layer inception_5b/3x3
I1215 11:51:18.548305 29126 net.cpp:380] inception_5b/3x3 <- inception_5b/3x3_reduce
I1215 11:51:18.548315 29126 net.cpp:338] inception_5b/3x3 -> inception_5b/3x3
I1215 11:51:18.548326 29126 net.cpp:113] Setting up inception_5b/3x3
I1215 11:51:18.558418 29126 net.cpp:120] Top shape: 50 384 7 7 (940800)
I1215 11:51:18.558440 29126 layer_factory.hpp:74] Creating layer inception_5b/relu_3x3
I1215 11:51:18.558450 29126 net.cpp:84] Creating Layer inception_5b/relu_3x3
I1215 11:51:18.558459 29126 net.cpp:380] inception_5b/relu_3x3 <- inception_5b/3x3
I1215 11:51:18.558467 29126 net.cpp:327] inception_5b/relu_3x3 -> inception_5b/3x3 (in-place)
I1215 11:51:18.558477 29126 net.cpp:113] Setting up inception_5b/relu_3x3
I1215 11:51:18.558569 29126 net.cpp:120] Top shape: 50 384 7 7 (940800)
I1215 11:51:18.558578 29126 layer_factory.hpp:74] Creating layer inception_5b/5x5_reduce
I1215 11:51:18.558588 29126 net.cpp:84] Creating Layer inception_5b/5x5_reduce
I1215 11:51:18.558595 29126 net.cpp:380] inception_5b/5x5_reduce <- inception_5a/output_inception_5a/output_0_split_2
I1215 11:51:18.558607 29126 net.cpp:338] inception_5b/5x5_reduce -> inception_5b/5x5_reduce
I1215 11:51:18.558619 29126 net.cpp:113] Setting up inception_5b/5x5_reduce
I1215 11:51:18.559708 29126 net.cpp:120] Top shape: 50 48 7 7 (117600)
I1215 11:51:18.559727 29126 layer_factory.hpp:74] Creating layer inception_5b/relu_5x5_reduce
I1215 11:51:18.559739 29126 net.cpp:84] Creating Layer inception_5b/relu_5x5_reduce
I1215 11:51:18.559747 29126 net.cpp:380] inception_5b/relu_5x5_reduce <- inception_5b/5x5_reduce
I1215 11:51:18.559756 29126 net.cpp:327] inception_5b/relu_5x5_reduce -> inception_5b/5x5_reduce (in-place)
I1215 11:51:18.559765 29126 net.cpp:113] Setting up inception_5b/relu_5x5_reduce
I1215 11:51:18.559856 29126 net.cpp:120] Top shape: 50 48 7 7 (117600)
I1215 11:51:18.559865 29126 layer_factory.hpp:74] Creating layer inception_5b/5x5
I1215 11:51:18.559877 29126 net.cpp:84] Creating Layer inception_5b/5x5
I1215 11:51:18.559883 29126 net.cpp:380] inception_5b/5x5 <- inception_5b/5x5_reduce
I1215 11:51:18.559895 29126 net.cpp:338] inception_5b/5x5 -> inception_5b/5x5
I1215 11:51:18.559905 29126 net.cpp:113] Setting up inception_5b/5x5
I1215 11:51:18.562643 29126 net.cpp:120] Top shape: 50 128 7 7 (313600)
I1215 11:51:18.562664 29126 layer_factory.hpp:74] Creating layer inception_5b/relu_5x5
I1215 11:51:18.562674 29126 net.cpp:84] Creating Layer inception_5b/relu_5x5
I1215 11:51:18.562682 29126 net.cpp:380] inception_5b/relu_5x5 <- inception_5b/5x5
I1215 11:51:18.562690 29126 net.cpp:327] inception_5b/relu_5x5 -> inception_5b/5x5 (in-place)
I1215 11:51:18.562700 29126 net.cpp:113] Setting up inception_5b/relu_5x5
I1215 11:51:18.562994 29126 net.cpp:120] Top shape: 50 128 7 7 (313600)
I1215 11:51:18.563009 29126 layer_factory.hpp:74] Creating layer inception_5b/pool
I1215 11:51:18.563015 29126 layer_factory.cpp:56] CUDNN does not support padding or multiple tops. Using Caffe's own pooling layer.
I1215 11:51:18.563026 29126 net.cpp:84] Creating Layer inception_5b/pool
I1215 11:51:18.563033 29126 net.cpp:380] inception_5b/pool <- inception_5a/output_inception_5a/output_0_split_3
I1215 11:51:18.563042 29126 net.cpp:338] inception_5b/pool -> inception_5b/pool
I1215 11:51:18.563060 29126 net.cpp:113] Setting up inception_5b/pool
I1215 11:51:18.563081 29126 net.cpp:120] Top shape: 50 832 7 7 (2038400)
I1215 11:51:18.563087 29126 layer_factory.hpp:74] Creating layer inception_5b/pool_proj
I1215 11:51:18.563102 29126 net.cpp:84] Creating Layer inception_5b/pool_proj
I1215 11:51:18.563108 29126 net.cpp:380] inception_5b/pool_proj <- inception_5b/pool
I1215 11:51:18.563117 29126 net.cpp:338] inception_5b/pool_proj -> inception_5b/pool_proj
I1215 11:51:18.563127 29126 net.cpp:113] Setting up inception_5b/pool_proj
I1215 11:51:18.565181 29126 net.cpp:120] Top shape: 50 128 7 7 (313600)
I1215 11:51:18.565201 29126 layer_factory.hpp:74] Creating layer inception_5b/relu_pool_proj
I1215 11:51:18.565210 29126 net.cpp:84] Creating Layer inception_5b/relu_pool_proj
I1215 11:51:18.565217 29126 net.cpp:380] inception_5b/relu_pool_proj <- inception_5b/pool_proj
I1215 11:51:18.565227 29126 net.cpp:327] inception_5b/relu_pool_proj -> inception_5b/pool_proj (in-place)
I1215 11:51:18.565237 29126 net.cpp:113] Setting up inception_5b/relu_pool_proj
I1215 11:51:18.565340 29126 net.cpp:120] Top shape: 50 128 7 7 (313600)
I1215 11:51:18.565347 29126 layer_factory.hpp:74] Creating layer inception_5b/output
I1215 11:51:18.565356 29126 net.cpp:84] Creating Layer inception_5b/output
I1215 11:51:18.565361 29126 net.cpp:380] inception_5b/output <- inception_5b/1x1
I1215 11:51:18.565369 29126 net.cpp:380] inception_5b/output <- inception_5b/3x3
I1215 11:51:18.565376 29126 net.cpp:380] inception_5b/output <- inception_5b/5x5
I1215 11:51:18.565382 29126 net.cpp:380] inception_5b/output <- inception_5b/pool_proj
I1215 11:51:18.565389 29126 net.cpp:338] inception_5b/output -> inception_5b/output
I1215 11:51:18.565398 29126 net.cpp:113] Setting up inception_5b/output
I1215 11:51:18.565407 29126 net.cpp:120] Top shape: 50 1024 7 7 (2508800)
I1215 11:51:18.565413 29126 layer_factory.hpp:74] Creating layer pool5/7x7_s1
I1215 11:51:18.565423 29126 net.cpp:84] Creating Layer pool5/7x7_s1
I1215 11:51:18.565429 29126 net.cpp:380] pool5/7x7_s1 <- inception_5b/output
I1215 11:51:18.565438 29126 net.cpp:338] pool5/7x7_s1 -> pool5/7x7_s1
I1215 11:51:18.565446 29126 net.cpp:113] Setting up pool5/7x7_s1
I1215 11:51:18.565534 29126 net.cpp:120] Top shape: 50 1024 1 1 (51200)
I1215 11:51:18.565542 29126 layer_factory.hpp:74] Creating layer pool5/drop_7x7_s1
I1215 11:51:18.565552 29126 net.cpp:84] Creating Layer pool5/drop_7x7_s1
I1215 11:51:18.565558 29126 net.cpp:380] pool5/drop_7x7_s1 <- pool5/7x7_s1
I1215 11:51:18.565567 29126 net.cpp:327] pool5/drop_7x7_s1 -> pool5/7x7_s1 (in-place)
I1215 11:51:18.565574 29126 net.cpp:113] Setting up pool5/drop_7x7_s1
I1215 11:51:18.565583 29126 net.cpp:120] Top shape: 50 1024 1 1 (51200)
I1215 11:51:18.565588 29126 layer_factory.hpp:74] Creating layer loss3/classifier_kaggle
I1215 11:51:18.565600 29126 net.cpp:84] Creating Layer loss3/classifier_kaggle
I1215 11:51:18.565606 29126 net.cpp:380] loss3/classifier_kaggle <- pool5/7x7_s1
I1215 11:51:18.565614 29126 net.cpp:338] loss3/classifier_kaggle -> loss3/classifier_kaggle
I1215 11:51:18.565623 29126 net.cpp:113] Setting up loss3/classifier_kaggle
I1215 11:51:18.572043 29126 net.cpp:120] Top shape: 50 447 (22350)
I1215 11:51:18.572062 29126 layer_factory.hpp:74] Creating layer loss3/classifier_kaggle_loss3/classifier_kaggle_0_split
I1215 11:51:18.572072 29126 net.cpp:84] Creating Layer loss3/classifier_kaggle_loss3/classifier_kaggle_0_split
I1215 11:51:18.572078 29126 net.cpp:380] loss3/classifier_kaggle_loss3/classifier_kaggle_0_split <- loss3/classifier_kaggle
I1215 11:51:18.572087 29126 net.cpp:338] loss3/classifier_kaggle_loss3/classifier_kaggle_0_split -> loss3/classifier_kaggle_loss3/classifier_kaggle_0_split_0
I1215 11:51:18.572103 29126 net.cpp:338] loss3/classifier_kaggle_loss3/classifier_kaggle_0_split -> loss3/classifier_kaggle_loss3/classifier_kaggle_0_split_1
I1215 11:51:18.572111 29126 net.cpp:338] loss3/classifier_kaggle_loss3/classifier_kaggle_0_split -> loss3/classifier_kaggle_loss3/classifier_kaggle_0_split_2
I1215 11:51:18.572126 29126 net.cpp:113] Setting up loss3/classifier_kaggle_loss3/classifier_kaggle_0_split
I1215 11:51:18.572144 29126 net.cpp:120] Top shape: 50 447 (22350)
I1215 11:51:18.572150 29126 net.cpp:120] Top shape: 50 447 (22350)
I1215 11:51:18.572156 29126 net.cpp:120] Top shape: 50 447 (22350)
I1215 11:51:18.572161 29126 layer_factory.hpp:74] Creating layer loss3/loss3
I1215 11:51:18.572172 29126 net.cpp:84] Creating Layer loss3/loss3
I1215 11:51:18.572178 29126 net.cpp:380] loss3/loss3 <- loss3/classifier_kaggle_loss3/classifier_kaggle_0_split_0
I1215 11:51:18.572186 29126 net.cpp:380] loss3/loss3 <- label_data_1_split_6
I1215 11:51:18.572195 29126 net.cpp:338] loss3/loss3 -> loss3/loss3
…
