…
I1215 10:43:35.844017  8310 net.cpp:257] The NetState phase (0) differed from the phase (1) specified by a rule in layer loss3/top-5
I1215 10:43:35.846422  8310 net.cpp:42] Initializing net from parameters: 
name: "GoogleNet"
state {
  phase: TRAIN
}
layer {
  name: "data"
  type: "Data"
  top: "data"
  top: "label"
  include {
    phase: TRAIN
  }
  transform_param {
    mirror: true
    crop_size: 224
    mean_value: 104
    mean_value: 117
    mean_value: 123
  }
  data_param {
    source: "/home/coldmanck/kaggle/kaggle2_train_lmdb"
    batch_size: 32
    backend: LMDB
  }
}
layer {
  name: "conv1/7x7_s2"
  type: "Convolution"
  bottom: "data"
  top: "conv1/7x7_s2"
  param {
    lr_mult: 1
    decay_mult: 1
  }
  param {
    lr_mult: 2
    decay_mult: 0
  }
  convolution_param {
    num_output: 64
    pad: 3
    kernel_size: 7
    stride: 2
    weight_filler {
      type: "xavier"
      std: 0.1
    }
    bias_filler {
      type: "constant"
      value: 0.2
    }
  }
}
layer {
  name: "conv1/relu_7x7"
  type: "ReLU"
  bottom: "conv1/7x7_s2"
  top: "conv1/7x7_s2"
}
layer {
  name: "pool1/3x3_s2"
  type: "Pooling"
  bottom: "conv1/7x7_s2"
  top: "pool1/3x3_s2"
  pooling_param {
    pool: MAX
    kernel_size: 3
    stride: 2
  }
}
layer {
  name: "pool1/norm1"
  type: "LRN"
  bottom: "pool1/3x3_s2"
  top: "pool1/norm1"
  lrn_param {
    local_size: 5
    alpha: 0.0001
    beta: 0.75
  }
}
layer {
  name: "conv2/3x3_reduce"
  type: "Convolution"
  bottom: "pool1/norm1"
  top: "conv2/3x3_reduce"
  param {
    lr_mult: 1
    decay_mult: 1
  }
  param {
    lr_mult: 2
    decay_mult: 0
  }
  convolution_param {
    num_output: 64
    kernel_size: 1
    weight_filler {
      type: "xavier"
      std: 0.1
    }
    bias_filler {
      type: "constant"
      value: 0.2
    }
  }
}
layer {
  name: "conv2/relu_3x3_reduce"
  type: "ReLU"
  bottom: "conv2/3x3_reduce"
  top: "conv2/3x3_reduce"
}
layer {
  name: "conv2/3x3"
  type: "Convolution"
  bottom: "conv2/3x3_reduce"
  top: "conv2/3x3"
  param {
    lr_mult: 1
    decay_mult: 1
  }
  param {
    lr_mult: 2
    decay_mult: 0
  }
  convolution_param {
    num_output: 192
    pad: 1
    kernel_size: 3
    weight_filler {
      type: "xavier"
      std: 0.03
    }
    bias_filler {
      type: "constant"
      value: 0.2
    }
  }
}
layer {
  name: "conv2/relu_3x3"
  type: "ReLU"
  bottom: "conv2/3x3"
  top: "conv2/3x3"
}
layer {
  name: "conv2/norm2"
  type: "LRN"
  bottom: "conv2/3x3"
  top: "conv2/norm2"
  lrn_param {
    local_size: 5
    alpha: 0.0001
    beta: 0.75
  }
}
layer {
  name: "pool2/3x3_s2"
  type: "Pooling"
  bottom: "conv2/norm2"
  top: "pool2/3x3_s2"
  pooling_param {
    pool: MAX
    kernel_size: 3
    stride: 2
  }
}
layer {
  name: "inception_3a/1x1"
  type: "Convolution"
  bottom: "pool2/3x3_s2"
  top: "inception_3a/1x1"
  param {
    lr_mult: 1
    decay_mult: 1
  }
  param {
    lr_mult: 2
    decay_mult: 0
  }
  convolution_param {
    num_output: 64
    kernel_size: 1
    weight_filler {
      type: "xavier"
      std: 0.03
    }
    bias_filler {
      type: "constant"
      value: 0.2
    }
  }
}
layer {
  name: "inception_3a/relu_1x1"
  type: "ReLU"
  bottom: "inception_3a/1x1"
  top: "inception_3a/1x1"
}
layer {
  name: "inception_3a/3x3_reduce"
  type: "Convolution"
  bottom: "pool2/3x3_s2"
  top: "inception_3a/3x3_reduce"
  param {
    lr_mult: 1
    decay_mult: 1
  }
  param {
    lr_mult: 2
    decay_mult: 0
  }
  convolution_param {
    num_output: 96
    kernel_size: 1
    weight_filler {
      type: "xavier"
      std: 0.09
    }
    bias_filler {
      type: "constant"
      value: 0.2
    }
  }
}
layer {
  name: "inception_3a/relu_3x3_reduce"
  type: "ReLU"
  bottom: "inception_3a/3x3_reduce"
  top: "inception_3a/3x3_reduce"
}
layer {
  name: "inception_3a/3x3"
  type: "Convolution"
  bottom: "inception_3a/3x3_reduce"
  top: "inception_3a/3x3"
  param {
    lr_mult: 1
    decay_mult: 1
  }
  param {
    lr_mult: 2
    decay_mult: 0
  }
  convolution_param {
    num_output: 128
    pad: 1
    kernel_size: 3
    weight_filler {
      type: "xavier"
      std: 0.03
    }
    bias_filler {
      type: "constant"
      value: 0.2
    }
  }
}
layer {
  name: "inception_3a/relu_3x3"
  type: "ReLU"
  bottom: "inception_3a/3x3"
  top: "inception_3a/3x3"
}
layer {
  name: "inception_3a/5x5_reduce"
  type: "Convolution"
  bottom: "pool2/3x3_s2"
  top: "inception_3a/5x5_reduce"
  param {
    lr_mult: 1
    decay_mult: 1
  }
  param {
    lr_mult: 2
    decay_mult: 0
  }
  convolution_param {
    num_output: 16
    kernel_size: 1
    weight_filler {
      type: "xavier"
      std: 0.2
    }
    bias_filler {
      type: "constant"
      value: 0.2
    }
  }
}
layer {
  name: "inception_3a/relu_5x5_reduce"
  type: "ReLU"
  bottom: "inception_3a/5x5_reduce"
  top: "inception_3a/5x5_reduce"
}
layer {
  name: "inception_3a/5x5"
  type: "Convolution"
  bottom: "inception_3a/5x5_reduce"
  top: "inception_3a/5x5"
  param {
    lr_mult: 1
    decay_mult: 1
  }
  param {
    lr_mult: 2
    decay_mult: 0
  }
  convolution_param {
    num_output: 32
    pad: 2
    kernel_size: 5
    weight_filler {
      type: "xavier"
      std: 0.03
    }
    bias_filler {
      type: "constant"
      value: 0.2
    }
  }
}
layer {
  name: "inception_3a/relu_5x5"
  type: "ReLU"
  bottom: "inception_3a/5x5"
  top: "inception_3a/5x5"
}
layer {
  name: "inception_3a/pool"
  type: "Pooling"
  bottom: "pool2/3x3_s2"
  top: "inception_3a/pool"
  pooling_param {
    pool: MAX
    kernel_size: 3
    stride: 1
    pad: 1
  }
}
layer {
  name: "inception_3a/pool_proj"
  type: "Convolution"
  bottom: "inception_3a/pool"
  top: "inception_3a/pool_proj"
  param {
    lr_mult: 1
    decay_mult: 1
  }
  param {
    lr_mult: 2
    decay_mult: 0
  }
  convolution_param {
    num_output: 32
    kernel_size: 1
    weight_filler {
      type: "xavier"
      std: 0.1
    }
    bias_filler {
      type: "constant"
      value: 0.2
    }
  }
}
layer {
  name: "inception_3a/relu_pool_proj"
  type: "ReLU"
  bottom: "inception_3a/pool_proj"
  top: "inception_3a/pool_proj"
}
layer {
  name: "inception_3a/output"
  type: "Concat"
  bottom: "inception_3a/1x1"
  bottom: "inception_3a/3x3"
  bottom: "inception_3a/5x5"
  bottom: "inception_3a/pool_proj"
  top: "inception_3a/output"
}
layer {
  name: "inception_3b/1x1"
  type: "Convolution"
  bottom: "inception_3a/output"
  top: "inception_3b/1x1"
  param {
    lr_mult: 1
    decay_mult: 1
  }
  param {
    lr_mult: 2
    decay_mult: 0
  }
  convolution_param {
    num_output: 128
    kernel_size: 1
    weight_filler {
      type: "xavier"
      std: 0.03
    }
    bias_filler {
      type: "constant"
      value: 0.2
    }
  }
}
layer {
  name: "inception_3b/relu_1x1"
  type: "ReLU"
  bottom: "inception_3b/1x1"
  top: "inception_3b/1x1"
}
layer {
  name: "inception_3b/3x3_reduce"
  type: "Convolution"
  bottom: "inception_3a/output"
  top: "inception_3b/3x3_reduce"
  param {
    lr_mult: 1
    decay_mult: 1
  }
  param {
    lr_mult: 2
    decay_mult: 0
  }
  convolution_param {
    num_output: 128
    kernel_size: 1
    weight_filler {
      type: "xavier"
      std: 0.09
    }
    bias_filler {
      type: "constant"
      value: 0.2
    }
  }
}
layer {
  name: "inception_3b/relu_3x3_reduce"
  type: "ReLU"
  bottom: "inception_3b/3x3_reduce"
  top: "inception_3b/3x3_reduce"
}
layer {
  name: "inception_3b/3x3"
  type: "Convolution"
  bottom: "inception_3b/3x3_reduce"
  top: "inception_3b/3x3"
  param {
    lr_mult: 1
    decay_mult: 1
  }
  param {
    lr_mult: 2
    decay_mult: 0
  }
  convolution_param {
    num_output: 192
    pad: 1
    kernel_size: 3
    weight_filler {
      type: "xavier"
      std: 0.03
    }
    bias_filler {
      type: "constant"
      value: 0.2
    }
  }
}
layer {
  name: "inception_3b/relu_3x3"
  type: "ReLU"
  bottom: "inception_3b/3x3"
  top: "inception_3b/3x3"
}
layer {
  name: "inception_3b/5x5_reduce"
  type: "Convolution"
  bottom: "inception_3a/output"
  top: "inception_3b/5x5_reduce"
  param {
    lr_mult: 1
    decay_mult: 1
  }
  param {
    lr_mult: 2
    decay_mult: 0
  }
  convolution_param {
    num_output: 32
    kernel_size: 1
    weight_filler {
      type: "xavier"
      std: 0.2
    }
    bias_filler {
      type: "constant"
      value: 0.2
    }
  }
}
layer {
  name: "inception_3b/relu_5x5_reduce"
  type: "ReLU"
  bottom: "inception_3b/5x5_reduce"
  top: "inception_3b/5x5_reduce"
}
layer {
  name: "inception_3b/5x5"
  type: "Convolution"
  bottom: "inception_3b/5x5_reduce"
  top: "inception_3b/5x5"
  param {
    lr_mult: 1
    decay_mult: 1
  }
  param {
    lr_mult: 2
    decay_mult: 0
  }
  convolution_param {
    num_output: 96
    pad: 2
    kernel_size: 5
    weight_filler {
      type: "xavier"
      std: 0.03
    }
    bias_filler {
      type: "constant"
      value: 0.2
    }
  }
}
layer {
  name: "inception_3b/relu_5x5"
  type: "ReLU"
  bottom: "inception_3b/5x5"
  top: "inception_3b/5x5"
}
layer {
  name: "inception_3b/pool"
  type: "Pooling"
  bottom: "inception_3a/output"
  top: "inception_3b/pool"
  pooling_param {
    pool: MAX
    kernel_size: 3
    stride: 1
    pad: 1
  }
}
layer {
  name: "inception_3b/pool_proj"
  type: "Convolution"
  bottom: "inception_3b/pool"
  top: "inception_3b/pool_proj"
  param {
    lr_mult: 1
    decay_mult: 1
  }
  param {
    lr_mult: 2
    decay_mult: 0
  }
  convolution_param {
    num_output: 64
    kernel_size: 1
    weight_filler {
      type: "xavier"
      std: 0.1
    }
    bias_filler {
      type: "constant"
      value: 0.2
    }
  }
}
layer {
  name: "inception_3b/relu_pool_proj"
  type: "ReLU"
  bottom: "inception_3b/pool_proj"
  top: "inception_3b/pool_proj"
}
layer {
  name: "inception_3b/output"
  type: "Concat"
  bottom: "inception_3b/1x1"
  bottom: "inception_3b/3x3"
  bottom: "inception_3b/5x5"
  bottom: "inception_3b/pool_proj"
  top: "inception_3b/output"
}
layer {
  name: "pool3/3x3_s2"
  type: "Pooling"
  bottom: "inception_3b/output"
  top: "pool3/3x3_s2"
  pooling_param {
    pool: MAX
    kernel_size: 3
    stride: 2
  }
}
layer {
  name: "inception_4a/1x1"
  type: "Convolution"
  bottom: "pool3/3x3_s2"
  top: "inception_4a/1x1"
  param {
    lr_mult: 1
    decay_mult: 1
  }
  param {
    lr_mult: 2
    decay_mult: 0
  }
  convolution_param {
    num_output: 192
    kernel_size: 1
    weight_filler {
      type: "xavier"
      std: 0.03
    }
    bias_filler {
      type: "constant"
      value: 0.2
    }
  }
}
layer {
  name: "inception_4a/relu_1x1"
  type: "ReLU"
  bottom: "inception_4a/1x1"
  top: "inception_4a/1x1"
}
layer {
  name: "inception_4a/3x3_reduce"
  type: "Convolution"
  bottom: "pool3/3x3_s2"
  top: "inception_4a/3x3_reduce"
  param {
    lr_mult: 1
    decay_mult: 1
  }
  param {
    lr_mult: 2
    decay_mult: 0
  }
  convolution_param {
    num_output: 96
    kernel_size: 1
    weight_filler {
      type: "xavier"
      std: 0.09
    }
    bias_filler {
      type: "constant"
      value: 0.2
    }
  }
}
layer {
  name: "inception_4a/relu_3x3_reduce"
  type: "ReLU"
  bottom: "inception_4a/3x3_reduce"
  top: "inception_4a/3x3_reduce"
}
layer {
  name: "inception_4a/3x3"
  type: "Convolution"
  bottom: "inception_4a/3x3_reduce"
  top: "inception_4a/3x3"
  param {
    lr_mult: 1
    decay_mult: 1
  }
  param {
    lr_mult: 2
    decay_mult: 0
  }
  convolution_param {
    num_output: 208
    pad: 1
    kernel_size: 3
    weight_filler {
      type: "xavier"
      std: 0.03
    }
    bias_filler {
      type: "constant"
      value: 0.2
    }
  }
}
layer {
  name: "inception_4a/relu_3x3"
  type: "ReLU"
  bottom: "inception_4a/3x3"
  top: "inception_4a/3x3"
}
layer {
  name: "inception_4a/5x5_reduce"
  type: "Convolution"
  bottom: "pool3/3x3_s2"
  top: "inception_4a/5x5_reduce"
  param {
    lr_mult: 1
    decay_mult: 1
  }
  param {
    lr_mult: 2
    decay_mult: 0
  }
  convolution_param {
    num_output: 16
    kernel_size: 1
    weight_filler {
      type: "xavier"
      std: 0.2
    }
    bias_filler {
      type: "constant"
      value: 0.2
    }
  }
}
layer {
  name: "inception_4a/relu_5x5_reduce"
  type: "ReLU"
  bottom: "inception_4a/5x5_reduce"
  top: "inception_4a/5x5_reduce"
}
layer {
  name: "inception_4a/5x5"
  type: "Convolution"
  bottom: "inception_4a/5x5_reduce"
  top: "inception_4a/5x5"
  param {
    lr_mult: 1
    decay_mult: 1
  }
  param {
    lr_mult: 2
    decay_mult: 0
  }
  convolution_param {
    num_output: 48
    pad: 2
    kernel_size: 5
    weight_filler {
      type: "xavier"
      std: 0.03
    }
    bias_filler {
      type: "constant"
      value: 0.2
    }
  }
}
layer {
  name: "inception_4a/relu_5x5"
  type: "ReLU"
  bottom: "inception_4a/5x5"
  top: "inception_4a/5x5"
}
layer {
  name: "inception_4a/pool"
  type: "Pooling"
  bottom: "pool3/3x3_s2"
  top: "inception_4a/pool"
  pooling_param {
    pool: MAX
    kernel_size: 3
    stride: 1
    pad: 1
  }
}
layer {
  name: "inception_4a/pool_proj"
  type: "Convolution"
  bottom: "inception_4a/pool"
  top: "inception_4a/pool_proj"
  param {
    lr_mult: 1
    decay_mult: 1
  }
  param {
    lr_mult: 2
    decay_mult: 0
  }
  convolution_param {
    num_output: 64
    kernel_size: 1
    weight_filler {
      type: "xavier"
      std: 0.1
    }
    bias_filler {
      type: "constant"
      value: 0.2
    }
  }
}
layer {
  name: "inception_4a/relu_pool_proj"
  type: "ReLU"
  bottom: "inception_4a/pool_proj"
  top: "inception_4a/pool_proj"
}
layer {
  name: "inception_4a/output"
  type: "Concat"
  bottom: "inception_4a/1x1"
  bottom: "inception_4a/3x3"
  bottom: "inception_4a/5x5"
  bottom: "inception_4a/pool_proj"
  top: "inception_4a/output"
}
layer {
  name: "loss1/ave_pool"
  type: "Pooling"
  bottom: "inception_4a/output"
  top: "loss1/ave_pool"
  pooling_param {
    pool: AVE
    kernel_size: 5
    stride: 3
  }
}
layer {
  name: "loss1/conv"
  type: "Convolution"
  bottom: "loss1/ave_pool"
  top: "loss1/conv"
  param {
    lr_mult: 1
    decay_mult: 1
  }
  param {
    lr_mult: 2
    decay_mult: 0
  }
  convolution_param {
    num_output: 128
    kernel_size: 1
    weight_filler {
      type: "xavier"
      std: 0.08
    }
    bias_filler {
      type: "constant"
      value: 0.2
    }
  }
}
layer {
  name: "loss1/relu_conv"
  type: "ReLU"
  bottom: "loss1/conv"
  top: "loss1/conv"
}
layer {
  name: "loss1/fc"
  type: "InnerProduct"
  bottom: "loss1/conv"
  top: "loss1/fc"
  param {
    lr_mult: 1
    decay_mult: 1
  }
  param {
    lr_mult: 2
    decay_mult: 0
  }
  inner_product_param {
    num_output: 1024
    weight_filler {
      type: "xavier"
      std: 0.02
    }
    bias_filler {
      type: "constant"
      value: 0.2
    }
  }
}
layer {
  name: "loss1/relu_fc"
  type: "ReLU"
  bottom: "loss1/fc"
  top: "loss1/fc"
}
layer {
  name: "loss1/drop_fc"
  type: "Dropout"
  bottom: "loss1/fc"
  top: "loss1/fc"
  dropout_param {
    dropout_ratio: 0.7
  }
}
layer {
  name: "loss1/classifier_kaggle"
  type: "InnerProduct"
  bottom: "loss1/fc"
  top: "loss1/classifier_kaggle"
  param {
    lr_mult: 1
    decay_mult: 1
  }
  param {
    lr_mult: 2
    decay_mult: 0
  }
  inner_product_param {
    num_output: 447
    weight_filler {
      type: "xavier"
      std: 0.0009765625
    }
    bias_filler {
      type: "constant"
      value: 0
    }
  }
}
layer {
  name: "loss1/loss"
  type: "SoftmaxWithLoss"
  bottom: "loss1/classifier_kaggle"
  bottom: "label"
  top: "loss1/loss1"
  loss_weight: 0.3
}
layer {
  name: "inception_4b/1x1"
  type: "Convolution"
  bottom: "inception_4a/output"
  top: "inception_4b/1x1"
  param {
    lr_mult: 1
    decay_mult: 1
  }
  param {
    lr_mult: 2
    decay_mult: 0
  }
  convolution_param {
    num_output: 160
    kernel_size: 1
    weight_filler {
      type: "xavier"
      std: 0.03
    }
    bias_filler {
      type: "constant"
      value: 0.2
    }
  }
}
layer {
  name: "inception_4b/relu_1x1"
  type: "ReLU"
  bottom: "inception_4b/1x1"
  top: "inception_4b/1x1"
}
layer {
  name: "inception_4b/3x3_reduce"
  type: "Convolution"
  bottom: "inception_4a/output"
  top: "inception_4b/3x3_reduce"
  param {
    lr_mult: 1
    decay_mult: 1
  }
  param {
    lr_mult: 2
    decay_mult: 0
  }
  convolution_param {
    num_output: 112
    kernel_size: 1
    weight_filler {
      type: "xavier"
      std: 0.09
    }
    bias_filler {
      type: "constant"
      value: 0.2
    }
  }
}
layer {
  name: "inception_4b/relu_3x3_reduce"
  type: "ReLU"
  bottom: "inception_4b/3x3_reduce"
  top: "inception_4b/3x3_reduce"
}
layer {
  name: "inception_4b/3x3"
  type: "Convolution"
  bottom: "inception_4b/3x3_reduce"
  top: "inception_4b/3x3"
  param {
    lr_mult: 1
    decay_mult: 1
  }
  param {
    lr_mult: 2
    decay_mult: 0
  }
  convolution_param {
    num_output: 224
    pad: 1
    kernel_size: 3
    weight_filler {
      type: "xavier"
      std: 0.03
    }
    bias_filler {
      type: "constant"
      value: 0.2
    }
  }
}
layer {
  name: "inception_4b/relu_3x3"
  type: "ReLU"
  bottom: "inception_4b/3x3"
  top: "inception_4b/3x3"
}
layer {
  name: "inception_4b/5x5_reduce"
  type: "Convolution"
  bottom: "inception_4a/output"
  top: "inception_4b/5x5_reduce"
  param {
    lr_mult: 1
    decay_mult: 1
  }
  param {
    lr_mult: 2
    decay_mult: 0
  }
  convolution_param {
    num_output: 24
    kernel_size: 1
    weight_filler {
      type: "xavier"
      std: 0.2
    }
    bias_filler {
      type: "constant"
      value: 0.2
    }
  }
}
layer {
  name: "inception_4b/relu_5x5_reduce"
  type: "ReLU"
  bottom: "inception_4b/5x5_reduce"
  top: "inception_4b/5x5_reduce"
}
layer {
  name: "inception_4b/5x5"
  type: "Convolution"
  bottom: "inception_4b/5x5_reduce"
  top: "inception_4b/5x5"
  param {
    lr_mult: 1
    decay_mult: 1
  }
  param {
    lr_mult: 2
    decay_mult: 0
  }
  convolution_param {
    num_output: 64
    pad: 2
    kernel_size: 5
    weight_filler {
      type: "xavier"
      std: 0.03
    }
    bias_filler {
      type: "constant"
      value: 0.2
    }
  }
}
layer {
  name: "inception_4b/relu_5x5"
  type: "ReLU"
  bottom: "inception_4b/5x5"
  top: "inception_4b/5x5"
}
layer {
  name: "inception_4b/pool"
  type: "Pooling"
  bottom: "inception_4a/output"
  top: "inception_4b/pool"
  pooling_param {
    pool: MAX
    kernel_size: 3
    stride: 1
    pad: 1
  }
}
layer {
  name: "inception_4b/pool_proj"
  type: "Convolution"
  bottom: "inception_4b/pool"
  top: "inception_4b/pool_proj"
  param {
    lr_mult: 1
    decay_mult: 1
  }
  param {
    lr_mult: 2
    decay_mult: 0
  }
  convolution_param {
    num_output: 64
    kernel_size: 1
    weight_filler {
      type: "xavier"
      std: 0.1
    }
    bias_filler {
      type: "constant"
      value: 0.2
    }
  }
}
layer {
  name: "inception_4b/relu_pool_proj"
  type: "ReLU"
  bottom: "inception_4b/pool_proj"
  top: "inception_4b/pool_proj"
}
layer {
  name: "inception_4b/output"
  type: "Concat"
  bottom: "inception_4b/1x1"
  bottom: "inception_4b/3x3"
  bottom: "inception_4b/5x5"
  bottom: "inception_4b/pool_proj"
  top: "inception_4b/output"
}
layer {
  name: "inception_4c/1x1"
  type: "Convolution"
  bottom: "inception_4b/output"
  top: "inception_4c/1x1"
  param {
    lr_mult: 1
    decay_mult: 1
  }
  param {
    lr_mult: 2
    decay_mult: 0
  }
  convolution_param {
    num_output: 128
    kernel_size: 1
    weight_filler {
      type: "xavier"
      std: 0.03
    }
    bias_filler {
      type: "constant"
      value: 0.2
    }
  }
}
layer {
  name: "inception_4c/relu_1x1"
  type: "ReLU"
  bottom: "inception_4c/1x1"
  top: "inception_4c/1x1"
}
layer {
  name: "inception_4c/3x3_reduce"
  type: "Convolution"
  bottom: "inception_4b/output"
  top: "inception_4c/3x3_reduce"
  param {
    lr_mult: 1
    decay_mult: 1
  }
  param {
    lr_mult: 2
    decay_mult: 0
  }
  convolution_param {
    num_output: 128
    kernel_size: 1
    weight_filler {
      type: "xavier"
      std: 0.09
    }
    bias_filler {
      type: "constant"
      value: 0.2
    }
  }
}
layer {
  name: "inception_4c/relu_3x3_reduce"
  type: "ReLU"
  bottom: "inception_4c/3x3_reduce"
  top: "inception_4c/3x3_reduce"
}
layer {
  name: "inception_4c/3x3"
  type: "Convolution"
  bottom: "inception_4c/3x3_reduce"
  top: "inception_4c/3x3"
  param {
    lr_mult: 1
    decay_mult: 1
  }
  param {
    lr_mult: 2
    decay_mult: 0
  }
  convolution_param {
    num_output: 256
    pad: 1
    kernel_size: 3
    weight_filler {
      type: "xavier"
      std: 0.03
    }
    bias_filler {
      type: "constant"
      value: 0.2
    }
  }
}
layer {
  name: "inception_4c/relu_3x3"
  type: "ReLU"
  bottom: "inception_4c/3x3"
  top: "inception_4c/3x3"
}
layer {
  name: "inception_4c/5x5_reduce"
  type: "Convolution"
  bottom: "inception_4b/output"
  top: "inception_4c/5x5_reduce"
  param {
    lr_mult: 1
    decay_mult: 1
  }
  param {
    lr_mult: 2
    decay_mult: 0
  }
  convolution_param {
    num_output: 24
    kernel_size: 1
    weight_filler {
      type: "xavier"
      std: 0.2
    }
    bias_filler {
      type: "constant"
      value: 0.2
    }
  }
}
layer {
  name: "inception_4c/relu_5x5_reduce"
  type: "ReLU"
  bottom: "inception_4c/5x5_reduce"
  top: "inception_4c/5x5_reduce"
}
layer {
  name: "inception_4c/5x5"
  type: "Convolution"
  bottom: "inception_4c/5x5_reduce"
  top: "inception_4c/5x5"
  param {
    lr_mult: 1
    decay_mult: 1
  }
  param {
    lr_mult: 2
    decay_mult: 0
  }
  convolution_param {
    num_output: 64
    pad: 2
    kernel_size: 5
    weight_filler {
      type: "xavier"
      std: 0.03
    }
    bias_filler {
      type: "constant"
      value: 0.2
    }
  }
}
layer {
  name: "inception_4c/relu_5x5"
  type: "ReLU"
  bottom: "inception_4c/5x5"
  top: "inception_4c/5x5"
}
layer {
  name: "inception_4c/pool"
  type: "Pooling"
  bottom: "inception_4b/output"
  top: "inception_4c/pool"
  pooling_param {
    pool: MAX
    kernel_size: 3
    stride: 1
    pad: 1
  }
}
layer {
  name: "inception_4c/pool_proj"
  type: "Convolution"
  bottom: "inception_4c/pool"
  top: "inception_4c/pool_proj"
  param {
    lr_mult: 1
    decay_mult: 1
  }
  param {
    lr_mult: 2
    decay_mult: 0
  }
  convolution_param {
    num_output: 64
    kernel_size: 1
    weight_filler {
      type: "xavier"
      std: 0.1
    }
    bias_filler {
      type: "constant"
      value: 0.2
    }
  }
}
layer {
  name: "inception_4c/relu_pool_proj"
  type: "ReLU"
  bottom: "inception_4c/pool_proj"
  top: "inception_4c/pool_proj"
}
layer {
  name: "inception_4c/output"
  type: "Concat"
  bottom: "inception_4c/1x1"
  bottom: "inception_4c/3x3"
  bottom: "inception_4c/5x5"
  bottom: "inception_4c/pool_proj"
  top: "inception_4c/output"
}
layer {
  name: "inception_4d/1x1"
  type: "Convolution"
  bottom: "inception_4c/output"
  top: "inception_4d/1x1"
  param {
    lr_mult: 1
    decay_mult: 1
  }
  param {
    lr_mult: 2
    decay_mult: 0
  }
  convolution_param {
    num_output: 112
    kernel_size: 1
    weight_filler {
      type: "xavier"
      std: 0.03
    }
    bias_filler {
      type: "constant"
      value: 0.2
    }
  }
}
layer {
  name: "inception_4d/relu_1x1"
  type: "ReLU"
  bottom: "inception_4d/1x1"
  top: "inception_4d/1x1"
}
layer {
  name: "inception_4d/3x3_reduce"
  type: "Convolution"
  bottom: "inception_4c/output"
  top: "inception_4d/3x3_reduce"
  param {
    lr_mult: 1
    decay_mult: 1
  }
  param {
    lr_mult: 2
    decay_mult: 0
  }
  convolution_param {
    num_output: 144
    kernel_size: 1
    weight_filler {
      type: "xavier"
      std: 0.09
    }
    bias_filler {
      type: "constant"
      value: 0.2
    }
  }
}
layer {
  name: "inception_4d/relu_3x3_reduce"
  type: "ReLU"
  bottom: "inception_4d/3x3_reduce"
  top: "inception_4d/3x3_reduce"
}
layer {
  name: "inception_4d/3x3"
  type: "Convolution"
  bottom: "inception_4d/3x3_reduce"
  top: "inception_4d/3x3"
  param {
    lr_mult: 1
    decay_mult: 1
  }
  param {
    lr_mult: 2
    decay_mult: 0
  }
  convolution_param {
    num_output: 288
    pad: 1
    kernel_size: 3
    weight_filler {
      type: "xavier"
      std: 0.03
    }
    bias_filler {
      type: "constant"
      value: 0.2
    }
  }
}
layer {
  name: "inception_4d/relu_3x3"
  type: "ReLU"
  bottom: "inception_4d/3x3"
  top: "inception_4d/3x3"
}
layer {
  name: "inception_4d/5x5_reduce"
  type: "Convolution"
  bottom: "inception_4c/output"
  top: "inception_4d/5x5_reduce"
  param {
    lr_mult: 1
    decay_mult: 1
  }
  param {
    lr_mult: 2
    decay_mult: 0
  }
  convolution_param {
    num_output: 32
    kernel_size: 1
    weight_filler {
      type: "xavier"
      std: 0.2
    }
    bias_filler {
      type: "constant"
      value: 0.2
    }
  }
}
layer {
  name: "inception_4d/relu_5x5_reduce"
  type: "ReLU"
  bottom: "inception_4d/5x5_reduce"
  top: "inception_4d/5x5_reduce"
}
layer {
  name: "inception_4d/5x5"
  type: "Convolution"
  bottom: "inception_4d/5x5_reduce"
  top: "inception_4d/5x5"
  param {
    lr_mult: 1
    decay_mult: 1
  }
  param {
    lr_mult: 2
    decay_mult: 0
  }
  convolution_param {
    num_output: 64
    pad: 2
    kernel_size: 5
    weight_filler {
      type: "xavier"
      std: 0.03
    }
    bias_filler {
      type: "constant"
      value: 0.2
    }
  }
}
layer {
  name: "inception_4d/relu_5x5"
  type: "ReLU"
  bottom: "inception_4d/5x5"
  top: "inception_4d/5x5"
}
layer {
  name: "inception_4d/pool"
  type: "Pooling"
  bottom: "inception_4c/output"
  top: "inception_4d/pool"
  pooling_param {
    pool: MAX
    kernel_size: 3
    stride: 1
    pad: 1
  }
}
layer {
  name: "inception_4d/pool_proj"
  type: "Convolution"
  bottom: "inception_4d/pool"
  top: "inception_4d/pool_proj"
  param {
    lr_mult: 1
    decay_mult: 1
  }
  param {
    lr_mult: 2
    decay_mult: 0
  }
  convolution_param {
    num_output: 64
    kernel_size: 1
    weight_filler {
      type: "xavier"
      std: 0.1
    }
    bias_filler {
      type: "constant"
      value: 0.2
    }
  }
}
layer {
  name: "inception_4d/relu_pool_proj"
  type: "ReLU"
  bottom: "inception_4d/pool_proj"
  top: "inception_4d/pool_proj"
}
layer {
  name: "inception_4d/output"
  type: "Concat"
  bottom: "inception_4d/1x1"
  bottom: "inception_4d/3x3"
  bottom: "inception_4d/5x5"
  bottom: "inception_4d/pool_proj"
  top: "inception_4d/output"
}
layer {
  name: "loss2/ave_pool"
  type: "Pooling"
  bottom: "inception_4d/output"
  top: "loss2/ave_pool"
  pooling_param {
    pool: AVE
    kernel_size: 5
    stride: 3
  }
}
layer {
  name: "loss2/conv"
  type: "Convolution"
  bottom: "loss2/ave_pool"
  top: "loss2/conv"
  param {
    lr_mult: 1
    decay_mult: 1
  }
  param {
    lr_mult: 2
    decay_mult: 0
  }
  convolution_param {
    num_output: 128
    kernel_size: 1
    weight_filler {
      type: "xavier"
      std: 0.08
    }
    bias_filler {
      type: "constant"
      value: 0.2
    }
  }
}
layer {
  name: "loss2/relu_conv"
  type: "ReLU"
  bottom: "loss2/conv"
  top: "loss2/conv"
}
layer {
  name: "loss2/fc"
  type: "InnerProduct"
  bottom: "loss2/conv"
  top: "loss2/fc"
  param {
    lr_mult: 1
    decay_mult: 1
  }
  param {
    lr_mult: 2
    decay_mult: 0
  }
  inner_product_param {
    num_output: 1024
    weight_filler {
      type: "xavier"
      std: 0.02
    }
    bias_filler {
      type: "constant"
      value: 0.2
    }
  }
}
layer {
  name: "loss2/relu_fc"
  type: "ReLU"
  bottom: "loss2/fc"
  top: "loss2/fc"
}
layer {
  name: "loss2/drop_fc"
  type: "Dropout"
  bottom: "loss2/fc"
  top: "loss2/fc"
  dropout_param {
    dropout_ratio: 0.7
  }
}
layer {
  name: "loss2/classifier_kaggle"
  type: "InnerProduct"
  bottom: "loss2/fc"
  top: "loss2/classifier_kaggle"
  param {
    lr_mult: 1
    decay_mult: 1
  }
  param {
    lr_mult: 2
    decay_mult: 0
  }
  inner_product_param {
    num_output: 447
    weight_filler {
      type: "xavier"
      std: 0.0009765625
    }
    bias_filler {
      type: "constant"
      value: 0
    }
  }
}
layer {
  name: "loss2/loss"
  type: "SoftmaxWithLoss"
  bottom: "loss2/classifier_kaggle"
  bottom: "label"
  top: "loss2/loss1"
  loss_weight: 0.3
}
layer {
  name: "inception_4e/1x1"
  type: "Convolution"
  bottom: "inception_4d/output"
  top: "inception_4e/1x1"
  param {
    lr_mult: 1
    decay_mult: 1
  }
  param {
    lr_mult: 2
    decay_mult: 0
  }
  convolution_param {
    num_output: 256
    kernel_size: 1
    weight_filler {
      type: "xavier"
      std: 0.03
    }
    bias_filler {
      type: "constant"
      value: 0.2
    }
  }
}
layer {
  name: "inception_4e/relu_1x1"
  type: "ReLU"
  bottom: "inception_4e/1x1"
  top: "inception_4e/1x1"
}
layer {
  name: "inception_4e/3x3_reduce"
  type: "Convolution"
  bottom: "inception_4d/output"
  top: "inception_4e/3x3_reduce"
  param {
    lr_mult: 1
    decay_mult: 1
  }
  param {
    lr_mult: 2
    decay_mult: 0
  }
  convolution_param {
    num_output: 160
    kernel_size: 1
    weight_filler {
      type: "xavier"
      std: 0.09
    }
    bias_filler {
      type: "constant"
      value: 0.2
    }
  }
}
layer {
  name: "inception_4e/relu_3x3_reduce"
  type: "ReLU"
  bottom: "inception_4e/3x3_reduce"
  top: "inception_4e/3x3_reduce"
}
layer {
  name: "inception_4e/3x3"
  type: "Convolution"
  bottom: "inception_4e/3x3_reduce"
  top: "inception_4e/3x3"
  param {
    lr_mult: 1
    decay_mult: 1
  }
  param {
    lr_mult: 2
    decay_mult: 0
  }
  convolution_param {
    num_output: 320
    pad: 1
    kernel_size: 3
    weight_filler {
      type: "xavier"
      std: 0.03
    }
    bias_filler {
      type: "constant"
      value: 0.2
    }
  }
}
layer {
  name: "inception_4e/relu_3x3"
  type: "ReLU"
  bottom: "inception_4e/3x3"
  top: "inception_4e/3x3"
}
layer {
  name: "inception_4e/5x5_reduce"
  type: "Convolution"
  bottom: "inception_4d/output"
  top: "inception_4e/5x5_reduce"
  param {
    lr_mult: 1
    decay_mult: 1
  }
  param {
    lr_mult: 2
    decay_mult: 0
  }
  convolution_param {
    num_output: 32
    kernel_size: 1
    weight_filler {
      type: "xavier"
      std: 0.2
    }
    bias_filler {
      type: "constant"
      value: 0.2
    }
  
I1215 10:43:35.847661  8310 layer_factory.hpp:74] Creating layer data
I1215 10:43:35.847702  8310 net.cpp:84] Creating Layer data
I1215 10:43:35.847718  8310 net.cpp:338] data -> data
I1215 10:43:35.847770  8310 net.cpp:338] data -> label
I1215 10:43:35.847787  8310 net.cpp:113] Setting up data
I1215 10:43:35.847887  8310 db.cpp:34] Opened lmdb /home/coldmanck/kaggle/kaggle2_train_lmdb
I1215 10:43:35.848191  8310 data_layer.cpp:67] output data size: 32,3,224,224
I1215 10:43:35.855298  8310 net.cpp:120] Top shape: 32 3 224 224 (4816896)
I1215 10:43:35.855334  8310 net.cpp:120] Top shape: 32 (32)
I1215 10:43:35.855347  8310 layer_factory.hpp:74] Creating layer label_data_1_split
I1215 10:43:35.855402  8310 net.cpp:84] Creating Layer label_data_1_split
I1215 10:43:35.855415  8310 net.cpp:380] label_data_1_split <- label
I1215 10:43:35.855437  8310 net.cpp:338] label_data_1_split -> label_data_1_split_0
I1215 10:43:35.855458  8310 net.cpp:338] label_data_1_split -> label_data_1_split_1
I1215 10:43:35.855471  8310 net.cpp:338] label_data_1_split -> label_data_1_split_2
I1215 10:43:35.855484  8310 net.cpp:113] Setting up label_data_1_split
I1215 10:43:35.855500  8310 net.cpp:120] Top shape: 32 (32)
I1215 10:43:35.855521  8310 net.cpp:120] Top shape: 32 (32)
I1215 10:43:35.855545  8310 net.cpp:120] Top shape: 32 (32)
I1215 10:43:35.855552  8310 layer_factory.hpp:74] Creating layer conv1/7x7_s2
I1215 10:43:35.855571  8310 net.cpp:84] Creating Layer conv1/7x7_s2
I1215 10:43:35.855579  8310 net.cpp:380] conv1/7x7_s2 <- data
I1215 10:43:35.855592  8310 net.cpp:338] conv1/7x7_s2 -> conv1/7x7_s2
I1215 10:43:35.855608  8310 net.cpp:113] Setting up conv1/7x7_s2
I1215 10:43:36.312049  8310 net.cpp:120] Top shape: 32 64 112 112 (25690112)
I1215 10:43:36.312131  8310 layer_factory.hpp:74] Creating layer conv1/relu_7x7
I1215 10:43:36.312160  8310 net.cpp:84] Creating Layer conv1/relu_7x7
I1215 10:43:36.312167  8310 net.cpp:380] conv1/relu_7x7 <- conv1/7x7_s2
I1215 10:43:36.312178  8310 net.cpp:327] conv1/relu_7x7 -> conv1/7x7_s2 (in-place)
I1215 10:43:36.312191  8310 net.cpp:113] Setting up conv1/relu_7x7
I1215 10:43:36.314041  8310 net.cpp:120] Top shape: 32 64 112 112 (25690112)
I1215 10:43:36.314057  8310 layer_factory.hpp:74] Creating layer pool1/3x3_s2
I1215 10:43:36.314081  8310 net.cpp:84] Creating Layer pool1/3x3_s2
I1215 10:43:36.314087  8310 net.cpp:380] pool1/3x3_s2 <- conv1/7x7_s2
I1215 10:43:36.314096  8310 net.cpp:338] pool1/3x3_s2 -> pool1/3x3_s2
I1215 10:43:36.314105  8310 net.cpp:113] Setting up pool1/3x3_s2
I1215 10:43:36.314173  8310 net.cpp:120] Top shape: 32 64 56 56 (6422528)
I1215 10:43:36.314182  8310 layer_factory.hpp:74] Creating layer pool1/norm1
I1215 10:43:36.314196  8310 net.cpp:84] Creating Layer pool1/norm1
I1215 10:43:36.314203  8310 net.cpp:380] pool1/norm1 <- pool1/3x3_s2
I1215 10:43:36.314208  8310 net.cpp:338] pool1/norm1 -> pool1/norm1
I1215 10:43:36.314218  8310 net.cpp:113] Setting up pool1/norm1
I1215 10:43:36.314225  8310 net.cpp:120] Top shape: 32 64 56 56 (6422528)
I1215 10:43:36.314230  8310 layer_factory.hpp:74] Creating layer conv2/3x3_reduce
I1215 10:43:36.314241  8310 net.cpp:84] Creating Layer conv2/3x3_reduce
I1215 10:43:36.314246  8310 net.cpp:380] conv2/3x3_reduce <- pool1/norm1
I1215 10:43:36.314254  8310 net.cpp:338] conv2/3x3_reduce -> conv2/3x3_reduce
I1215 10:43:36.314263  8310 net.cpp:113] Setting up conv2/3x3_reduce
I1215 10:43:36.316344  8310 net.cpp:120] Top shape: 32 64 56 56 (6422528)
I1215 10:43:36.316366  8310 layer_factory.hpp:74] Creating layer conv2/relu_3x3_reduce
I1215 10:43:36.316375  8310 net.cpp:84] Creating Layer conv2/relu_3x3_reduce
I1215 10:43:36.316380  8310 net.cpp:380] conv2/relu_3x3_reduce <- conv2/3x3_reduce
I1215 10:43:36.316387  8310 net.cpp:327] conv2/relu_3x3_reduce -> conv2/3x3_reduce (in-place)
I1215 10:43:36.316395  8310 net.cpp:113] Setting up conv2/relu_3x3_reduce
I1215 10:43:36.316449  8310 net.cpp:120] Top shape: 32 64 56 56 (6422528)
I1215 10:43:36.316455  8310 layer_factory.hpp:74] Creating layer conv2/3x3
I1215 10:43:36.316465  8310 net.cpp:84] Creating Layer conv2/3x3
I1215 10:43:36.316469  8310 net.cpp:380] conv2/3x3 <- conv2/3x3_reduce
I1215 10:43:36.316478  8310 net.cpp:338] conv2/3x3 -> conv2/3x3
I1215 10:43:36.316486  8310 net.cpp:113] Setting up conv2/3x3
I1215 10:43:36.323437  8310 net.cpp:120] Top shape: 32 192 56 56 (19267584)
I1215 10:43:36.323493  8310 layer_factory.hpp:74] Creating layer conv2/relu_3x3
I1215 10:43:36.323601  8310 net.cpp:84] Creating Layer conv2/relu_3x3
I1215 10:43:36.323608  8310 net.cpp:380] conv2/relu_3x3 <- conv2/3x3
I1215 10:43:36.323618  8310 net.cpp:327] conv2/relu_3x3 -> conv2/3x3 (in-place)
I1215 10:43:36.323628  8310 net.cpp:113] Setting up conv2/relu_3x3
I1215 10:43:36.325103  8310 net.cpp:120] Top shape: 32 192 56 56 (19267584)
I1215 10:43:36.325124  8310 layer_factory.hpp:74] Creating layer conv2/norm2
I1215 10:43:36.325134  8310 net.cpp:84] Creating Layer conv2/norm2
I1215 10:43:36.325139  8310 net.cpp:380] conv2/norm2 <- conv2/3x3
I1215 10:43:36.325146  8310 net.cpp:338] conv2/norm2 -> conv2/norm2
I1215 10:43:36.325155  8310 net.cpp:113] Setting up conv2/norm2
I1215 10:43:36.325165  8310 net.cpp:120] Top shape: 32 192 56 56 (19267584)
I1215 10:43:36.325170  8310 layer_factory.hpp:74] Creating layer pool2/3x3_s2
I1215 10:43:36.325188  8310 net.cpp:84] Creating Layer pool2/3x3_s2
I1215 10:43:36.325204  8310 net.cpp:380] pool2/3x3_s2 <- conv2/norm2
I1215 10:43:36.325212  8310 net.cpp:338] pool2/3x3_s2 -> pool2/3x3_s2
I1215 10:43:36.325218  8310 net.cpp:113] Setting up pool2/3x3_s2
I1215 10:43:36.325275  8310 net.cpp:120] Top shape: 32 192 28 28 (4816896)
I1215 10:43:36.325283  8310 layer_factory.hpp:74] Creating layer pool2/3x3_s2_pool2/3x3_s2_0_split
I1215 10:43:36.325289  8310 net.cpp:84] Creating Layer pool2/3x3_s2_pool2/3x3_s2_0_split
I1215 10:43:36.325294  8310 net.cpp:380] pool2/3x3_s2_pool2/3x3_s2_0_split <- pool2/3x3_s2
I1215 10:43:36.325299  8310 net.cpp:338] pool2/3x3_s2_pool2/3x3_s2_0_split -> pool2/3x3_s2_pool2/3x3_s2_0_split_0
I1215 10:43:36.325306  8310 net.cpp:338] pool2/3x3_s2_pool2/3x3_s2_0_split -> pool2/3x3_s2_pool2/3x3_s2_0_split_1
I1215 10:43:36.325314  8310 net.cpp:338] pool2/3x3_s2_pool2/3x3_s2_0_split -> pool2/3x3_s2_pool2/3x3_s2_0_split_2
I1215 10:43:36.325320  8310 net.cpp:338] pool2/3x3_s2_pool2/3x3_s2_0_split -> pool2/3x3_s2_pool2/3x3_s2_0_split_3
I1215 10:43:36.325325  8310 net.cpp:113] Setting up pool2/3x3_s2_pool2/3x3_s2_0_split
I1215 10:43:36.325332  8310 net.cpp:120] Top shape: 32 192 28 28 (4816896)
I1215 10:43:36.325337  8310 net.cpp:120] Top shape: 32 192 28 28 (4816896)
I1215 10:43:36.325342  8310 net.cpp:120] Top shape: 32 192 28 28 (4816896)
I1215 10:43:36.325346  8310 net.cpp:120] Top shape: 32 192 28 28 (4816896)
I1215 10:43:36.325350  8310 layer_factory.hpp:74] Creating layer inception_3a/1x1
I1215 10:43:36.325361  8310 net.cpp:84] Creating Layer inception_3a/1x1
I1215 10:43:36.325366  8310 net.cpp:380] inception_3a/1x1 <- pool2/3x3_s2_pool2/3x3_s2_0_split_0
I1215 10:43:36.325372  8310 net.cpp:338] inception_3a/1x1 -> inception_3a/1x1
I1215 10:43:36.325382  8310 net.cpp:113] Setting up inception_3a/1x1
I1215 10:43:36.328763  8310 net.cpp:120] Top shape: 32 64 28 28 (1605632)
I1215 10:43:36.328780  8310 layer_factory.hpp:74] Creating layer inception_3a/relu_1x1
I1215 10:43:36.328788  8310 net.cpp:84] Creating Layer inception_3a/relu_1x1
I1215 10:43:36.328794  8310 net.cpp:380] inception_3a/relu_1x1 <- inception_3a/1x1
I1215 10:43:36.328802  8310 net.cpp:327] inception_3a/relu_1x1 -> inception_3a/1x1 (in-place)
I1215 10:43:36.328810  8310 net.cpp:113] Setting up inception_3a/relu_1x1
I1215 10:43:36.328866  8310 net.cpp:120] Top shape: 32 64 28 28 (1605632)
I1215 10:43:36.328872  8310 layer_factory.hpp:74] Creating layer inception_3a/3x3_reduce
I1215 10:43:36.328881  8310 net.cpp:84] Creating Layer inception_3a/3x3_reduce
I1215 10:43:36.328886  8310 net.cpp:380] inception_3a/3x3_reduce <- pool2/3x3_s2_pool2/3x3_s2_0_split_1
I1215 10:43:36.328893  8310 net.cpp:338] inception_3a/3x3_reduce -> inception_3a/3x3_reduce
I1215 10:43:36.328902  8310 net.cpp:113] Setting up inception_3a/3x3_reduce
I1215 10:43:36.330721  8310 net.cpp:120] Top shape: 32 96 28 28 (2408448)
I1215 10:43:36.330745  8310 layer_factory.hpp:74] Creating layer inception_3a/relu_3x3_reduce
I1215 10:43:36.330757  8310 net.cpp:84] Creating Layer inception_3a/relu_3x3_reduce
I1215 10:43:36.330762  8310 net.cpp:380] inception_3a/relu_3x3_reduce <- inception_3a/3x3_reduce
I1215 10:43:36.330770  8310 net.cpp:327] inception_3a/relu_3x3_reduce -> inception_3a/3x3_reduce (in-place)
I1215 10:43:36.330777  8310 net.cpp:113] Setting up inception_3a/relu_3x3_reduce
I1215 10:43:36.330831  8310 net.cpp:120] Top shape: 32 96 28 28 (2408448)
I1215 10:43:36.330837  8310 layer_factory.hpp:74] Creating layer inception_3a/3x3
I1215 10:43:36.330845  8310 net.cpp:84] Creating Layer inception_3a/3x3
I1215 10:43:36.330850  8310 net.cpp:380] inception_3a/3x3 <- inception_3a/3x3_reduce
I1215 10:43:36.330858  8310 net.cpp:338] inception_3a/3x3 -> inception_3a/3x3
I1215 10:43:36.330865  8310 net.cpp:113] Setting up inception_3a/3x3
I1215 10:43:36.333117  8310 net.cpp:120] Top shape: 32 128 28 28 (3211264)
I1215 10:43:36.333137  8310 layer_factory.hpp:74] Creating layer inception_3a/relu_3x3
I1215 10:43:36.333144  8310 net.cpp:84] Creating Layer inception_3a/relu_3x3
I1215 10:43:36.333161  8310 net.cpp:380] inception_3a/relu_3x3 <- inception_3a/3x3
I1215 10:43:36.333169  8310 net.cpp:327] inception_3a/relu_3x3 -> inception_3a/3x3 (in-place)
I1215 10:43:36.333178  8310 net.cpp:113] Setting up inception_3a/relu_3x3
I1215 10:43:36.333958  8310 net.cpp:120] Top shape: 32 128 28 28 (3211264)
I1215 10:43:36.333971  8310 layer_factory.hpp:74] Creating layer inception_3a/5x5_reduce
I1215 10:43:36.333981  8310 net.cpp:84] Creating Layer inception_3a/5x5_reduce
I1215 10:43:36.333986  8310 net.cpp:380] inception_3a/5x5_reduce <- pool2/3x3_s2_pool2/3x3_s2_0_split_2
I1215 10:43:36.333993  8310 net.cpp:338] inception_3a/5x5_reduce -> inception_3a/5x5_reduce
I1215 10:43:36.334005  8310 net.cpp:113] Setting up inception_3a/5x5_reduce
I1215 10:43:36.334892  8310 net.cpp:120] Top shape: 32 16 28 28 (401408)
I1215 10:43:36.334906  8310 layer_factory.hpp:74] Creating layer inception_3a/relu_5x5_reduce
I1215 10:43:36.334916  8310 net.cpp:84] Creating Layer inception_3a/relu_5x5_reduce
I1215 10:43:36.334921  8310 net.cpp:380] inception_3a/relu_5x5_reduce <- inception_3a/5x5_reduce
I1215 10:43:36.334928  8310 net.cpp:327] inception_3a/relu_5x5_reduce -> inception_3a/5x5_reduce (in-place)
I1215 10:43:36.334934  8310 net.cpp:113] Setting up inception_3a/relu_5x5_reduce
I1215 10:43:36.334990  8310 net.cpp:120] Top shape: 32 16 28 28 (401408)
I1215 10:43:36.334996  8310 layer_factory.hpp:74] Creating layer inception_3a/5x5
I1215 10:43:36.335003  8310 net.cpp:84] Creating Layer inception_3a/5x5
I1215 10:43:36.335008  8310 net.cpp:380] inception_3a/5x5 <- inception_3a/5x5_reduce
I1215 10:43:36.335016  8310 net.cpp:338] inception_3a/5x5 -> inception_3a/5x5
I1215 10:43:36.335023  8310 net.cpp:113] Setting up inception_3a/5x5
I1215 10:43:36.336406  8310 net.cpp:120] Top shape: 32 32 28 28 (802816)
I1215 10:43:36.336426  8310 layer_factory.hpp:74] Creating layer inception_3a/relu_5x5
I1215 10:43:36.336433  8310 net.cpp:84] Creating Layer inception_3a/relu_5x5
I1215 10:43:36.336438  8310 net.cpp:380] inception_3a/relu_5x5 <- inception_3a/5x5
I1215 10:43:36.336446  8310 net.cpp:327] inception_3a/relu_5x5 -> inception_3a/5x5 (in-place)
I1215 10:43:36.336453  8310 net.cpp:113] Setting up inception_3a/relu_5x5
I1215 10:43:36.336506  8310 net.cpp:120] Top shape: 32 32 28 28 (802816)
I1215 10:43:36.336513  8310 layer_factory.hpp:74] Creating layer inception_3a/pool
I1215 10:43:36.336518  8310 layer_factory.cpp:56] CUDNN does not support padding or multiple tops. Using Caffe's own pooling layer.
I1215 10:43:36.336526  8310 net.cpp:84] Creating Layer inception_3a/pool
I1215 10:43:36.336531  8310 net.cpp:380] inception_3a/pool <- pool2/3x3_s2_pool2/3x3_s2_0_split_3
I1215 10:43:36.336539  8310 net.cpp:338] inception_3a/pool -> inception_3a/pool
I1215 10:43:36.336546  8310 net.cpp:113] Setting up inception_3a/pool
I1215 10:43:36.336555  8310 net.cpp:120] Top shape: 32 192 28 28 (4816896)
I1215 10:43:36.336558  8310 layer_factory.hpp:74] Creating layer inception_3a/pool_proj
I1215 10:43:36.336566  8310 net.cpp:84] Creating Layer inception_3a/pool_proj
I1215 10:43:36.336571  8310 net.cpp:380] inception_3a/pool_proj <- inception_3a/pool
I1215 10:43:36.336578  8310 net.cpp:338] inception_3a/pool_proj -> inception_3a/pool_proj
I1215 10:43:36.336585  8310 net.cpp:113] Setting up inception_3a/pool_proj
I1215 10:43:36.338444  8310 net.cpp:120] Top shape: 32 32 28 28 (802816)
I1215 10:43:36.338469  8310 layer_factory.hpp:74] Creating layer inception_3a/relu_pool_proj
I1215 10:43:36.338477  8310 net.cpp:84] Creating Layer inception_3a/relu_pool_proj
I1215 10:43:36.338481  8310 net.cpp:380] inception_3a/relu_pool_proj <- inception_3a/pool_proj
I1215 10:43:36.338490  8310 net.cpp:327] inception_3a/relu_pool_proj -> inception_3a/pool_proj (in-place)
I1215 10:43:36.338496  8310 net.cpp:113] Setting up inception_3a/relu_pool_proj
I1215 10:43:36.338551  8310 net.cpp:120] Top shape: 32 32 28 28 (802816)
I1215 10:43:36.338557  8310 layer_factory.hpp:74] Creating layer inception_3a/output
I1215 10:43:36.338577  8310 net.cpp:84] Creating Layer inception_3a/output
I1215 10:43:36.338588  8310 net.cpp:380] inception_3a/output <- inception_3a/1x1
I1215 10:43:36.338593  8310 net.cpp:380] inception_3a/output <- inception_3a/3x3
I1215 10:43:36.338598  8310 net.cpp:380] inception_3a/output <- inception_3a/5x5
I1215 10:43:36.338603  8310 net.cpp:380] inception_3a/output <- inception_3a/pool_proj
I1215 10:43:36.338608  8310 net.cpp:338] inception_3a/output -> inception_3a/output
I1215 10:43:36.338615  8310 net.cpp:113] Setting up inception_3a/output
I1215 10:43:36.338624  8310 net.cpp:120] Top shape: 32 256 28 28 (6422528)
I1215 10:43:36.338627  8310 layer_factory.hpp:74] Creating layer inception_3a/output_inception_3a/output_0_split
I1215 10:43:36.338634  8310 net.cpp:84] Creating Layer inception_3a/output_inception_3a/output_0_split
I1215 10:43:36.338639  8310 net.cpp:380] inception_3a/output_inception_3a/output_0_split <- inception_3a/output
I1215 10:43:36.338644  8310 net.cpp:338] inception_3a/output_inception_3a/output_0_split -> inception_3a/output_inception_3a/output_0_split_0
I1215 10:43:36.338650  8310 net.cpp:338] inception_3a/output_inception_3a/output_0_split -> inception_3a/output_inception_3a/output_0_split_1
I1215 10:43:36.338657  8310 net.cpp:338] inception_3a/output_inception_3a/output_0_split -> inception_3a/output_inception_3a/output_0_split_2
I1215 10:43:36.338663  8310 net.cpp:338] inception_3a/output_inception_3a/output_0_split -> inception_3a/output_inception_3a/output_0_split_3
I1215 10:43:36.338670  8310 net.cpp:113] Setting up inception_3a/output_inception_3a/output_0_split
I1215 10:43:36.338675  8310 net.cpp:120] Top shape: 32 256 28 28 (6422528)
I1215 10:43:36.338680  8310 net.cpp:120] Top shape: 32 256 28 28 (6422528)
I1215 10:43:36.338685  8310 net.cpp:120] Top shape: 32 256 28 28 (6422528)
I1215 10:43:36.338690  8310 net.cpp:120] Top shape: 32 256 28 28 (6422528)
I1215 10:43:36.338693  8310 layer_factory.hpp:74] Creating layer inception_3b/1x1
I1215 10:43:36.338701  8310 net.cpp:84] Creating Layer inception_3b/1x1
I1215 10:43:36.338706  8310 net.cpp:380] inception_3b/1x1 <- inception_3a/output_inception_3a/output_0_split_0
I1215 10:43:36.338712  8310 net.cpp:338] inception_3b/1x1 -> inception_3b/1x1
I1215 10:43:36.338719  8310 net.cpp:113] Setting up inception_3b/1x1
I1215 10:43:36.340157  8310 net.cpp:120] Top shape: 32 128 28 28 (3211264)
I1215 10:43:36.340174  8310 layer_factory.hpp:74] Creating layer inception_3b/relu_1x1
I1215 10:43:36.340185  8310 net.cpp:84] Creating Layer inception_3b/relu_1x1
I1215 10:43:36.340190  8310 net.cpp:380] inception_3b/relu_1x1 <- inception_3b/1x1
I1215 10:43:36.340198  8310 net.cpp:327] inception_3b/relu_1x1 -> inception_3b/1x1 (in-place)
I1215 10:43:36.340204  8310 net.cpp:113] Setting up inception_3b/relu_1x1
I1215 10:43:36.341213  8310 net.cpp:120] Top shape: 32 128 28 28 (3211264)
I1215 10:43:36.341229  8310 layer_factory.hpp:74] Creating layer inception_3b/3x3_reduce
I1215 10:43:36.341238  8310 net.cpp:84] Creating Layer inception_3b/3x3_reduce
I1215 10:43:36.341243  8310 net.cpp:380] inception_3b/3x3_reduce <- inception_3a/output_inception_3a/output_0_split_1
I1215 10:43:36.341253  8310 net.cpp:338] inception_3b/3x3_reduce -> inception_3b/3x3_reduce
I1215 10:43:36.341261  8310 net.cpp:113] Setting up inception_3b/3x3_reduce
I1215 10:43:36.342977  8310 net.cpp:120] Top shape: 32 128 28 28 (3211264)
I1215 10:43:36.342993  8310 layer_factory.hpp:74] Creating layer inception_3b/relu_3x3_reduce
I1215 10:43:36.343001  8310 net.cpp:84] Creating Layer inception_3b/relu_3x3_reduce
I1215 10:43:36.343006  8310 net.cpp:380] inception_3b/relu_3x3_reduce <- inception_3b/3x3_reduce
I1215 10:43:36.343014  8310 net.cpp:327] inception_3b/relu_3x3_reduce -> inception_3b/3x3_reduce (in-place)
I1215 10:43:36.343020  8310 net.cpp:113] Setting up inception_3b/relu_3x3_reduce
I1215 10:43:36.343075  8310 net.cpp:120] Top shape: 32 128 28 28 (3211264)
I1215 10:43:36.343081  8310 layer_factory.hpp:74] Creating layer inception_3b/3x3
I1215 10:43:36.343091  8310 net.cpp:84] Creating Layer inception_3b/3x3
I1215 10:43:36.343101  8310 net.cpp:380] inception_3b/3x3 <- inception_3b/3x3_reduce
I1215 10:43:36.343116  8310 net.cpp:338] inception_3b/3x3 -> inception_3b/3x3
I1215 10:43:36.343124  8310 net.cpp:113] Setting up inception_3b/3x3
I1215 10:43:36.347262  8310 net.cpp:120] Top shape: 32 192 28 28 (4816896)
I1215 10:43:36.347277  8310 layer_factory.hpp:74] Creating layer inception_3b/relu_3x3
I1215 10:43:36.347285  8310 net.cpp:84] Creating Layer inception_3b/relu_3x3
I1215 10:43:36.347290  8310 net.cpp:380] inception_3b/relu_3x3 <- inception_3b/3x3
I1215 10:43:36.347296  8310 net.cpp:327] inception_3b/relu_3x3 -> inception_3b/3x3 (in-place)
I1215 10:43:36.347303  8310 net.cpp:113] Setting up inception_3b/relu_3x3
I1215 10:43:36.348817  8310 net.cpp:120] Top shape: 32 192 28 28 (4816896)
I1215 10:43:36.348829  8310 layer_factory.hpp:74] Creating layer inception_3b/5x5_reduce
I1215 10:43:36.348839  8310 net.cpp:84] Creating Layer inception_3b/5x5_reduce
I1215 10:43:36.348845  8310 net.cpp:380] inception_3b/5x5_reduce <- inception_3a/output_inception_3a/output_0_split_2
I1215 10:43:36.348852  8310 net.cpp:338] inception_3b/5x5_reduce -> inception_3b/5x5_reduce
I1215 10:43:36.348860  8310 net.cpp:113] Setting up inception_3b/5x5_reduce
I1215 10:43:36.350162  8310 net.cpp:120] Top shape: 32 32 28 28 (802816)
I1215 10:43:36.350178  8310 layer_factory.hpp:74] Creating layer inception_3b/relu_5x5_reduce
I1215 10:43:36.350184  8310 net.cpp:84] Creating Layer inception_3b/relu_5x5_reduce
I1215 10:43:36.350189  8310 net.cpp:380] inception_3b/relu_5x5_reduce <- inception_3b/5x5_reduce
I1215 10:43:36.350196  8310 net.cpp:327] inception_3b/relu_5x5_reduce -> inception_3b/5x5_reduce (in-place)
I1215 10:43:36.350203  8310 net.cpp:113] Setting up inception_3b/relu_5x5_reduce
I1215 10:43:36.350318  8310 net.cpp:120] Top shape: 32 32 28 28 (802816)
I1215 10:43:36.350327  8310 layer_factory.hpp:74] Creating layer inception_3b/5x5
I1215 10:43:36.350337  8310 net.cpp:84] Creating Layer inception_3b/5x5
I1215 10:43:36.350343  8310 net.cpp:380] inception_3b/5x5 <- inception_3b/5x5_reduce
I1215 10:43:36.350352  8310 net.cpp:338] inception_3b/5x5 -> inception_3b/5x5
I1215 10:43:36.350363  8310 net.cpp:113] Setting up inception_3b/5x5
I1215 10:43:36.351871  8310 net.cpp:120] Top shape: 32 96 28 28 (2408448)
I1215 10:43:36.351886  8310 layer_factory.hpp:74] Creating layer inception_3b/relu_5x5
I1215 10:43:36.351897  8310 net.cpp:84] Creating Layer inception_3b/relu_5x5
I1215 10:43:36.351902  8310 net.cpp:380] inception_3b/relu_5x5 <- inception_3b/5x5
I1215 10:43:36.351908  8310 net.cpp:327] inception_3b/relu_5x5 -> inception_3b/5x5 (in-place)
I1215 10:43:36.351914  8310 net.cpp:113] Setting up inception_3b/relu_5x5
I1215 10:43:36.352541  8310 net.cpp:120] Top shape: 32 96 28 28 (2408448)
I1215 10:43:36.352552  8310 layer_factory.hpp:74] Creating layer inception_3b/pool
I1215 10:43:36.352558  8310 layer_factory.cpp:56] CUDNN does not support padding or multiple tops. Using Caffe's own pooling layer.
I1215 10:43:36.352566  8310 net.cpp:84] Creating Layer inception_3b/pool
I1215 10:43:36.352571  8310 net.cpp:380] inception_3b/pool <- inception_3a/output_inception_3a/output_0_split_3
I1215 10:43:36.352576  8310 net.cpp:338] inception_3b/pool -> inception_3b/pool
I1215 10:43:36.352584  8310 net.cpp:113] Setting up inception_3b/pool
I1215 10:43:36.352594  8310 net.cpp:120] Top shape: 32 256 28 28 (6422528)
I1215 10:43:36.352599  8310 layer_factory.hpp:74] Creating layer inception_3b/pool_proj
I1215 10:43:36.352607  8310 net.cpp:84] Creating Layer inception_3b/pool_proj
I1215 10:43:36.352612  8310 net.cpp:380] inception_3b/pool_proj <- inception_3b/pool
I1215 10:43:36.352617  8310 net.cpp:338] inception_3b/pool_proj -> inception_3b/pool_proj
I1215 10:43:36.352624  8310 net.cpp:113] Setting up inception_3b/pool_proj
I1215 10:43:36.353533  8310 net.cpp:120] Top shape: 32 64 28 28 (1605632)
I1215 10:43:36.353548  8310 layer_factory.hpp:74] Creating layer inception_3b/relu_pool_proj
I1215 10:43:36.353559  8310 net.cpp:84] Creating Layer inception_3b/relu_pool_proj
I1215 10:43:36.353567  8310 net.cpp:380] inception_3b/relu_pool_proj <- inception_3b/pool_proj
I1215 10:43:36.353580  8310 net.cpp:327] inception_3b/relu_pool_proj -> inception_3b/pool_proj (in-place)
I1215 10:43:36.353587  8310 net.cpp:113] Setting up inception_3b/relu_pool_proj
I1215 10:43:36.353647  8310 net.cpp:120] Top shape: 32 64 28 28 (1605632)
I1215 10:43:36.353653  8310 layer_factory.hpp:74] Creating layer inception_3b/output
I1215 10:43:36.353659  8310 net.cpp:84] Creating Layer inception_3b/output
I1215 10:43:36.353663  8310 net.cpp:380] inception_3b/output <- inception_3b/1x1
I1215 10:43:36.353668  8310 net.cpp:380] inception_3b/output <- inception_3b/3x3
I1215 10:43:36.353673  8310 net.cpp:380] inception_3b/output <- inception_3b/5x5
I1215 10:43:36.353677  8310 net.cpp:380] inception_3b/output <- inception_3b/pool_proj
I1215 10:43:36.353682  8310 net.cpp:338] inception_3b/output -> inception_3b/output
I1215 10:43:36.353689  8310 net.cpp:113] Setting up inception_3b/output
I1215 10:43:36.353696  8310 net.cpp:120] Top shape: 32 480 28 28 (12042240)
I1215 10:43:36.353700  8310 layer_factory.hpp:74] Creating layer pool3/3x3_s2
I1215 10:43:36.353713  8310 net.cpp:84] Creating Layer pool3/3x3_s2
I1215 10:43:36.353718  8310 net.cpp:380] pool3/3x3_s2 <- inception_3b/output
I1215 10:43:36.353724  8310 net.cpp:338] pool3/3x3_s2 -> pool3/3x3_s2
I1215 10:43:36.353729  8310 net.cpp:113] Setting up pool3/3x3_s2
I1215 10:43:36.353786  8310 net.cpp:120] Top shape: 32 480 14 14 (3010560)
I1215 10:43:36.353793  8310 layer_factory.hpp:74] Creating layer pool3/3x3_s2_pool3/3x3_s2_0_split
I1215 10:43:36.353799  8310 net.cpp:84] Creating Layer pool3/3x3_s2_pool3/3x3_s2_0_split
I1215 10:43:36.353804  8310 net.cpp:380] pool3/3x3_s2_pool3/3x3_s2_0_split <- pool3/3x3_s2
I1215 10:43:36.353809  8310 net.cpp:338] pool3/3x3_s2_pool3/3x3_s2_0_split -> pool3/3x3_s2_pool3/3x3_s2_0_split_0
I1215 10:43:36.353816  8310 net.cpp:338] pool3/3x3_s2_pool3/3x3_s2_0_split -> pool3/3x3_s2_pool3/3x3_s2_0_split_1
I1215 10:43:36.353822  8310 net.cpp:338] pool3/3x3_s2_pool3/3x3_s2_0_split -> pool3/3x3_s2_pool3/3x3_s2_0_split_2
I1215 10:43:36.353828  8310 net.cpp:338] pool3/3x3_s2_pool3/3x3_s2_0_split -> pool3/3x3_s2_pool3/3x3_s2_0_split_3
I1215 10:43:36.353833  8310 net.cpp:113] Setting up pool3/3x3_s2_pool3/3x3_s2_0_split
I1215 10:43:36.353840  8310 net.cpp:120] Top shape: 32 480 14 14 (3010560)
I1215 10:43:36.353844  8310 net.cpp:120] Top shape: 32 480 14 14 (3010560)
I1215 10:43:36.353849  8310 net.cpp:120] Top shape: 32 480 14 14 (3010560)
I1215 10:43:36.353853  8310 net.cpp:120] Top shape: 32 480 14 14 (3010560)
I1215 10:43:36.353857  8310 layer_factory.hpp:74] Creating layer inception_4a/1x1
I1215 10:43:36.353866  8310 net.cpp:84] Creating Layer inception_4a/1x1
I1215 10:43:36.353871  8310 net.cpp:380] inception_4a/1x1 <- pool3/3x3_s2_pool3/3x3_s2_0_split_0
I1215 10:43:36.353878  8310 net.cpp:338] inception_4a/1x1 -> inception_4a/1x1
I1215 10:43:36.353884  8310 net.cpp:113] Setting up inception_4a/1x1
I1215 10:43:36.355589  8310 net.cpp:120] Top shape: 32 192 14 14 (1204224)
I1215 10:43:36.355604  8310 layer_factory.hpp:74] Creating layer inception_4a/relu_1x1
I1215 10:43:36.355615  8310 net.cpp:84] Creating Layer inception_4a/relu_1x1
I1215 10:43:36.355620  8310 net.cpp:380] inception_4a/relu_1x1 <- inception_4a/1x1
I1215 10:43:36.355626  8310 net.cpp:327] inception_4a/relu_1x1 -> inception_4a/1x1 (in-place)
I1215 10:43:36.355633  8310 net.cpp:113] Setting up inception_4a/relu_1x1
I1215 10:43:36.356559  8310 net.cpp:120] Top shape: 32 192 14 14 (1204224)
I1215 10:43:36.356570  8310 layer_factory.hpp:74] Creating layer inception_4a/3x3_reduce
I1215 10:43:36.356578  8310 net.cpp:84] Creating Layer inception_4a/3x3_reduce
I1215 10:43:36.356583  8310 net.cpp:380] inception_4a/3x3_reduce <- pool3/3x3_s2_pool3/3x3_s2_0_split_1
I1215 10:43:36.356595  8310 net.cpp:338] inception_4a/3x3_reduce -> inception_4a/3x3_reduce
I1215 10:43:36.356605  8310 net.cpp:113] Setting up inception_4a/3x3_reduce
I1215 10:43:36.358666  8310 net.cpp:120] Top shape: 32 96 14 14 (602112)
I1215 10:43:36.358693  8310 layer_factory.hpp:74] Creating layer inception_4a/relu_3x3_reduce
I1215 10:43:36.358711  8310 net.cpp:84] Creating Layer inception_4a/relu_3x3_reduce
I1215 10:43:36.358716  8310 net.cpp:380] inception_4a/relu_3x3_reduce <- inception_4a/3x3_reduce
I1215 10:43:36.358721  8310 net.cpp:327] inception_4a/relu_3x3_reduce -> inception_4a/3x3_reduce (in-place)
I1215 10:43:36.358728  8310 net.cpp:113] Setting up inception_4a/relu_3x3_reduce
I1215 10:43:36.358788  8310 net.cpp:120] Top shape: 32 96 14 14 (602112)
I1215 10:43:36.358793  8310 layer_factory.hpp:74] Creating layer inception_4a/3x3
I1215 10:43:36.358803  8310 net.cpp:84] Creating Layer inception_4a/3x3
I1215 10:43:36.358808  8310 net.cpp:380] inception_4a/3x3 <- inception_4a/3x3_reduce
I1215 10:43:36.358814  8310 net.cpp:338] inception_4a/3x3 -> inception_4a/3x3
I1215 10:43:36.358821  8310 net.cpp:113] Setting up inception_4a/3x3
I1215 10:43:36.361399  8310 net.cpp:120] Top shape: 32 208 14 14 (1304576)
I1215 10:43:36.361416  8310 layer_factory.hpp:74] Creating layer inception_4a/relu_3x3
I1215 10:43:36.361424  8310 net.cpp:84] Creating Layer inception_4a/relu_3x3
I1215 10:43:36.361429  8310 net.cpp:380] inception_4a/relu_3x3 <- inception_4a/3x3
I1215 10:43:36.361436  8310 net.cpp:327] inception_4a/relu_3x3 -> inception_4a/3x3 (in-place)
I1215 10:43:36.361443  8310 net.cpp:113] Setting up inception_4a/relu_3x3
I1215 10:43:36.361500  8310 net.cpp:120] Top shape: 32 208 14 14 (1304576)
I1215 10:43:36.361505  8310 layer_factory.hpp:74] Creating layer inception_4a/5x5_reduce
I1215 10:43:36.361515  8310 net.cpp:84] Creating Layer inception_4a/5x5_reduce
I1215 10:43:36.361518  8310 net.cpp:380] inception_4a/5x5_reduce <- pool3/3x3_s2_pool3/3x3_s2_0_split_2
I1215 10:43:36.361526  8310 net.cpp:338] inception_4a/5x5_reduce -> inception_4a/5x5_reduce
I1215 10:43:36.361534  8310 net.cpp:113] Setting up inception_4a/5x5_reduce
I1215 10:43:36.362329  8310 net.cpp:120] Top shape: 32 16 14 14 (100352)
I1215 10:43:36.362342  8310 layer_factory.hpp:74] Creating layer inception_4a/relu_5x5_reduce
I1215 10:43:36.362352  8310 net.cpp:84] Creating Layer inception_4a/relu_5x5_reduce
I1215 10:43:36.362357  8310 net.cpp:380] inception_4a/relu_5x5_reduce <- inception_4a/5x5_reduce
I1215 10:43:36.362363  8310 net.cpp:327] inception_4a/relu_5x5_reduce -> inception_4a/5x5_reduce (in-place)
I1215 10:43:36.362370  8310 net.cpp:113] Setting up inception_4a/relu_5x5_reduce
I1215 10:43:36.362431  8310 net.cpp:120] Top shape: 32 16 14 14 (100352)
I1215 10:43:36.362438  8310 layer_factory.hpp:74] Creating layer inception_4a/5x5
I1215 10:43:36.362445  8310 net.cpp:84] Creating Layer inception_4a/5x5
I1215 10:43:36.362452  8310 net.cpp:380] inception_4a/5x5 <- inception_4a/5x5_reduce
I1215 10:43:36.362457  8310 net.cpp:338] inception_4a/5x5 -> inception_4a/5x5
I1215 10:43:36.362464  8310 net.cpp:113] Setting up inception_4a/5x5
I1215 10:43:36.363504  8310 net.cpp:120] Top shape: 32 48 14 14 (301056)
I1215 10:43:36.363518  8310 layer_factory.hpp:74] Creating layer inception_4a/relu_5x5
I1215 10:43:36.363524  8310 net.cpp:84] Creating Layer inception_4a/relu_5x5
I1215 10:43:36.363529  8310 net.cpp:380] inception_4a/relu_5x5 <- inception_4a/5x5
I1215 10:43:36.363536  8310 net.cpp:327] inception_4a/relu_5x5 -> inception_4a/5x5 (in-place)
I1215 10:43:36.363543  8310 net.cpp:113] Setting up inception_4a/relu_5x5
I1215 10:43:36.364243  8310 net.cpp:120] Top shape: 32 48 14 14 (301056)
I1215 10:43:36.364255  8310 layer_factory.hpp:74] Creating layer inception_4a/pool
I1215 10:43:36.364261  8310 layer_factory.cpp:56] CUDNN does not support padding or multiple tops. Using Caffe's own pooling layer.
I1215 10:43:36.364269  8310 net.cpp:84] Creating Layer inception_4a/pool
I1215 10:43:36.364274  8310 net.cpp:380] inception_4a/pool <- pool3/3x3_s2_pool3/3x3_s2_0_split_3
I1215 10:43:36.364282  8310 net.cpp:338] inception_4a/pool -> inception_4a/pool
I1215 10:43:36.364289  8310 net.cpp:113] Setting up inception_4a/pool
I1215 10:43:36.364297  8310 net.cpp:120] Top shape: 32 480 14 14 (3010560)
I1215 10:43:36.364307  8310 layer_factory.hpp:74] Creating layer inception_4a/pool_proj
I1215 10:43:36.364321  8310 net.cpp:84] Creating Layer inception_4a/pool_proj
I1215 10:43:36.364326  8310 net.cpp:380] inception_4a/pool_proj <- inception_4a/pool
I1215 10:43:36.364334  8310 net.cpp:338] inception_4a/pool_proj -> inception_4a/pool_proj
I1215 10:43:36.364341  8310 net.cpp:113] Setting up inception_4a/pool_proj
I1215 10:43:36.365387  8310 net.cpp:120] Top shape: 32 64 14 14 (401408)
I1215 10:43:36.365402  8310 layer_factory.hpp:74] Creating layer inception_4a/relu_pool_proj
I1215 10:43:36.365411  8310 net.cpp:84] Creating Layer inception_4a/relu_pool_proj
I1215 10:43:36.365416  8310 net.cpp:380] inception_4a/relu_pool_proj <- inception_4a/pool_proj
I1215 10:43:36.365420  8310 net.cpp:327] inception_4a/relu_pool_proj -> inception_4a/pool_proj (in-place)
I1215 10:43:36.365427  8310 net.cpp:113] Setting up inception_4a/relu_pool_proj
I1215 10:43:36.365486  8310 net.cpp:120] Top shape: 32 64 14 14 (401408)
I1215 10:43:36.365492  8310 layer_factory.hpp:74] Creating layer inception_4a/output
I1215 10:43:36.365499  8310 net.cpp:84] Creating Layer inception_4a/output
I1215 10:43:36.365504  8310 net.cpp:380] inception_4a/output <- inception_4a/1x1
I1215 10:43:36.365509  8310 net.cpp:380] inception_4a/output <- inception_4a/3x3
I1215 10:43:36.365514  8310 net.cpp:380] inception_4a/output <- inception_4a/5x5
I1215 10:43:36.365519  8310 net.cpp:380] inception_4a/output <- inception_4a/pool_proj
I1215 10:43:36.365524  8310 net.cpp:338] inception_4a/output -> inception_4a/output
I1215 10:43:36.365530  8310 net.cpp:113] Setting up inception_4a/output
I1215 10:43:36.365536  8310 net.cpp:120] Top shape: 32 512 14 14 (3211264)
I1215 10:43:36.365540  8310 layer_factory.hpp:74] Creating layer inception_4a/output_inception_4a/output_0_split
I1215 10:43:36.365546  8310 net.cpp:84] Creating Layer inception_4a/output_inception_4a/output_0_split
I1215 10:43:36.365550  8310 net.cpp:380] inception_4a/output_inception_4a/output_0_split <- inception_4a/output
I1215 10:43:36.365556  8310 net.cpp:338] inception_4a/output_inception_4a/output_0_split -> inception_4a/output_inception_4a/output_0_split_0
I1215 10:43:36.365564  8310 net.cpp:338] inception_4a/output_inception_4a/output_0_split -> inception_4a/output_inception_4a/output_0_split_1
I1215 10:43:36.365571  8310 net.cpp:338] inception_4a/output_inception_4a/output_0_split -> inception_4a/output_inception_4a/output_0_split_2
I1215 10:43:36.365577  8310 net.cpp:338] inception_4a/output_inception_4a/output_0_split -> inception_4a/output_inception_4a/output_0_split_3
I1215 10:43:36.365583  8310 net.cpp:338] inception_4a/output_inception_4a/output_0_split -> inception_4a/output_inception_4a/output_0_split_4
I1215 10:43:36.365589  8310 net.cpp:113] Setting up inception_4a/output_inception_4a/output_0_split
I1215 10:43:36.365597  8310 net.cpp:120] Top shape: 32 512 14 14 (3211264)
I1215 10:43:36.365605  8310 net.cpp:120] Top shape: 32 512 14 14 (3211264)
I1215 10:43:36.365610  8310 net.cpp:120] Top shape: 32 512 14 14 (3211264)
I1215 10:43:36.365614  8310 net.cpp:120] Top shape: 32 512 14 14 (3211264)
I1215 10:43:36.365618  8310 net.cpp:120] Top shape: 32 512 14 14 (3211264)
I1215 10:43:36.365622  8310 layer_factory.hpp:74] Creating layer loss1/ave_pool
I1215 10:43:36.365629  8310 net.cpp:84] Creating Layer loss1/ave_pool
I1215 10:43:36.365633  8310 net.cpp:380] loss1/ave_pool <- inception_4a/output_inception_4a/output_0_split_0
I1215 10:43:36.365638  8310 net.cpp:338] loss1/ave_pool -> loss1/ave_pool
I1215 10:43:36.365644  8310 net.cpp:113] Setting up loss1/ave_pool
I1215 10:43:36.365701  8310 net.cpp:120] Top shape: 32 512 4 4 (262144)
I1215 10:43:36.365707  8310 layer_factory.hpp:74] Creating layer loss1/conv
I1215 10:43:36.365715  8310 net.cpp:84] Creating Layer loss1/conv
I1215 10:43:36.365718  8310 net.cpp:380] loss1/conv <- loss1/ave_pool
I1215 10:43:36.365725  8310 net.cpp:338] loss1/conv -> loss1/conv
I1215 10:43:36.365732  8310 net.cpp:113] Setting up loss1/conv
I1215 10:43:36.367066  8310 net.cpp:120] Top shape: 32 128 4 4 (65536)
I1215 10:43:36.367089  8310 layer_factory.hpp:74] Creating layer loss1/relu_conv
I1215 10:43:36.367096  8310 net.cpp:84] Creating Layer loss1/relu_conv
I1215 10:43:36.367101  8310 net.cpp:380] loss1/relu_conv <- loss1/conv
I1215 10:43:36.367107  8310 net.cpp:327] loss1/relu_conv -> loss1/conv (in-place)
I1215 10:43:36.367115  8310 net.cpp:113] Setting up loss1/relu_conv
I1215 10:43:36.367172  8310 net.cpp:120] Top shape: 32 128 4 4 (65536)
I1215 10:43:36.367177  8310 layer_factory.hpp:74] Creating layer loss1/fc
I1215 10:43:36.367187  8310 net.cpp:84] Creating Layer loss1/fc
I1215 10:43:36.367190  8310 net.cpp:380] loss1/fc <- loss1/conv
I1215 10:43:36.367197  8310 net.cpp:338] loss1/fc -> loss1/fc
I1215 10:43:36.367207  8310 net.cpp:113] Setting up loss1/fc
I1215 10:43:36.387392  8310 net.cpp:120] Top shape: 32 1024 (32768)
I1215 10:43:36.387421  8310 layer_factory.hpp:74] Creating layer loss1/relu_fc
I1215 10:43:36.387431  8310 net.cpp:84] Creating Layer loss1/relu_fc
I1215 10:43:36.387436  8310 net.cpp:380] loss1/relu_fc <- loss1/fc
I1215 10:43:36.387446  8310 net.cpp:327] loss1/relu_fc -> loss1/fc (in-place)
I1215 10:43:36.387456  8310 net.cpp:113] Setting up loss1/relu_fc
I1215 10:43:36.388120  8310 net.cpp:120] Top shape: 32 1024 (32768)
I1215 10:43:36.388133  8310 layer_factory.hpp:74] Creating layer loss1/drop_fc
I1215 10:43:36.388151  8310 net.cpp:84] Creating Layer loss1/drop_fc
I1215 10:43:36.388156  8310 net.cpp:380] loss1/drop_fc <- loss1/fc
I1215 10:43:36.388162  8310 net.cpp:327] loss1/drop_fc -> loss1/fc (in-place)
I1215 10:43:36.388171  8310 net.cpp:113] Setting up loss1/drop_fc
I1215 10:43:36.388180  8310 net.cpp:120] Top shape: 32 1024 (32768)
I1215 10:43:36.388187  8310 layer_factory.hpp:74] Creating layer loss1/classifier_kaggle
I1215 10:43:36.388197  8310 net.cpp:84] Creating Layer loss1/classifier_kaggle
I1215 10:43:36.388201  8310 net.cpp:380] loss1/classifier_kaggle <- loss1/fc
I1215 10:43:36.388207  8310 net.cpp:338] loss1/classifier_kaggle -> loss1/classifier_kaggle
I1215 10:43:36.388216  8310 net.cpp:113] Setting up loss1/classifier_kaggle
I1215 10:43:36.392822  8310 net.cpp:120] Top shape: 32 447 (14304)
I1215 10:43:36.392832  8310 layer_factory.hpp:74] Creating layer loss1/loss
I1215 10:43:36.392841  8310 net.cpp:84] Creating Layer loss1/loss
I1215 10:43:36.392845  8310 net.cpp:380] loss1/loss <- loss1/classifier_kaggle
I1215 10:43:36.392851  8310 net.cpp:380] loss1/loss <- label_data_1_split_0
I1215 10:43:36.392858  8310 net.cpp:338] loss1/loss -> loss1/loss1
I1215 10:43:36.392866  8310 net.cpp:113] Setting up loss1/loss
I1215 10:43:36.392874  8310 layer_factory.hpp:74] Creating layer loss1/loss
I1215 10:43:36.392988  8310 net.cpp:120] Top shape: (1)
I1215 10:43:36.392995  8310 net.cpp:122]     with loss weight 0.3
I1215 10:43:36.393014  8310 layer_factory.hpp:74] Creating layer inception_4b/1x1
I1215 10:43:36.393025  8310 net.cpp:84] Creating Layer inception_4b/1x1
I1215 10:43:36.393030  8310 net.cpp:380] inception_4b/1x1 <- inception_4a/output_inception_4a/output_0_split_1
I1215 10:43:36.393038  8310 net.cpp:338] inception_4b/1x1 -> inception_4b/1x1
I1215 10:43:36.393045  8310 net.cpp:113] Setting up inception_4b/1x1
I1215 10:43:36.394562  8310 net.cpp:120] Top shape: 32 160 14 14 (1003520)
I1215 10:43:36.394578  8310 layer_factory.hpp:74] Creating layer inception_4b/relu_1x1
I1215 10:43:36.394585  8310 net.cpp:84] Creating Layer inception_4b/relu_1x1
I1215 10:43:36.394590  8310 net.cpp:380] inception_4b/relu_1x1 <- inception_4b/1x1
I1215 10:43:36.394598  8310 net.cpp:327] inception_4b/relu_1x1 -> inception_4b/1x1 (in-place)
I1215 10:43:36.394605  8310 net.cpp:113] Setting up inception_4b/relu_1x1
I1215 10:43:36.394665  8310 net.cpp:120] Top shape: 32 160 14 14 (1003520)
I1215 10:43:36.394670  8310 layer_factory.hpp:74] Creating layer inception_4b/3x3_reduce
I1215 10:43:36.394680  8310 net.cpp:84] Creating Layer inception_4b/3x3_reduce
I1215 10:43:36.394683  8310 net.cpp:380] inception_4b/3x3_reduce <- inception_4a/output_inception_4a/output_0_split_2
I1215 10:43:36.394711  8310 net.cpp:338] inception_4b/3x3_reduce -> inception_4b/3x3_reduce
I1215 10:43:36.394719  8310 net.cpp:113] Setting up inception_4b/3x3_reduce
I1215 10:43:36.395932  8310 net.cpp:120] Top shape: 32 112 14 14 (702464)
I1215 10:43:36.395947  8310 layer_factory.hpp:74] Creating layer inception_4b/relu_3x3_reduce
I1215 10:43:36.395956  8310 net.cpp:84] Creating Layer inception_4b/relu_3x3_reduce
I1215 10:43:36.395961  8310 net.cpp:380] inception_4b/relu_3x3_reduce <- inception_4b/3x3_reduce
I1215 10:43:36.395967  8310 net.cpp:327] inception_4b/relu_3x3_reduce -> inception_4b/3x3_reduce (in-place)
I1215 10:43:36.395974  8310 net.cpp:113] Setting up inception_4b/relu_3x3_reduce
I1215 10:43:36.396034  8310 net.cpp:120] Top shape: 32 112 14 14 (702464)
I1215 10:43:36.396039  8310 layer_factory.hpp:74] Creating layer inception_4b/3x3
I1215 10:43:36.396049  8310 net.cpp:84] Creating Layer inception_4b/3x3
I1215 10:43:36.396052  8310 net.cpp:380] inception_4b/3x3 <- inception_4b/3x3_reduce
I1215 10:43:36.396060  8310 net.cpp:338] inception_4b/3x3 -> inception_4b/3x3
I1215 10:43:36.396067  8310 net.cpp:113] Setting up inception_4b/3x3
I1215 10:43:36.399081  8310 net.cpp:120] Top shape: 32 224 14 14 (1404928)
I1215 10:43:36.399096  8310 layer_factory.hpp:74] Creating layer inception_4b/relu_3x3
I1215 10:43:36.399103  8310 net.cpp:84] Creating Layer inception_4b/relu_3x3
I1215 10:43:36.399107  8310 net.cpp:380] inception_4b/relu_3x3 <- inception_4b/3x3
I1215 10:43:36.399113  8310 net.cpp:327] inception_4b/relu_3x3 -> inception_4b/3x3 (in-place)
I1215 10:43:36.399121  8310 net.cpp:113] Setting up inception_4b/relu_3x3
I1215 10:43:36.400032  8310 net.cpp:120] Top shape: 32 224 14 14 (1404928)
I1215 10:43:36.400043  8310 layer_factory.hpp:74] Creating layer inception_4b/5x5_reduce
I1215 10:43:36.400051  8310 net.cpp:84] Creating Layer inception_4b/5x5_reduce
I1215 10:43:36.400055  8310 net.cpp:380] inception_4b/5x5_reduce <- inception_4a/output_inception_4a/output_0_split_3
I1215 10:43:36.400064  8310 net.cpp:338] inception_4b/5x5_reduce -> inception_4b/5x5_reduce
I1215 10:43:36.400073  8310 net.cpp:113] Setting up inception_4b/5x5_reduce
I1215 10:43:36.401149  8310 net.cpp:120] Top shape: 32 24 14 14 (150528)
I1215 10:43:36.401166  8310 layer_factory.hpp:74] Creating layer inception_4b/relu_5x5_reduce
I1215 10:43:36.401175  8310 net.cpp:84] Creating Layer inception_4b/relu_5x5_reduce
I1215 10:43:36.401180  8310 net.cpp:380] inception_4b/relu_5x5_reduce <- inception_4b/5x5_reduce
I1215 10:43:36.401187  8310 net.cpp:327] inception_4b/relu_5x5_reduce -> inception_4b/5x5_reduce (in-place)
I1215 10:43:36.401193  8310 net.cpp:113] Setting up inception_4b/relu_5x5_reduce
I1215 10:43:36.401257  8310 net.cpp:120] Top shape: 32 24 14 14 (150528)
I1215 10:43:36.401262  8310 layer_factory.hpp:74] Creating layer inception_4b/5x5
I1215 10:43:36.401269  8310 net.cpp:84] Creating Layer inception_4b/5x5
I1215 10:43:36.401274  8310 net.cpp:380] inception_4b/5x5 <- inception_4b/5x5_reduce
I1215 10:43:36.401281  8310 net.cpp:338] inception_4b/5x5 -> inception_4b/5x5
I1215 10:43:36.401289  8310 net.cpp:113] Setting up inception_4b/5x5
I1215 10:43:36.403216  8310 net.cpp:120] Top shape: 32 64 14 14 (401408)
I1215 10:43:36.403233  8310 layer_factory.hpp:74] Creating layer inception_4b/relu_5x5
I1215 10:43:36.403239  8310 net.cpp:84] Creating Layer inception_4b/relu_5x5
I1215 10:43:36.403244  8310 net.cpp:380] inception_4b/relu_5x5 <- inception_4b/5x5
I1215 10:43:36.403249  8310 net.cpp:327] inception_4b/relu_5x5 -> inception_4b/5x5 (in-place)
I1215 10:43:36.403257  8310 net.cpp:113] Setting up inception_4b/relu_5x5
I1215 10:43:36.403313  8310 net.cpp:120] Top shape: 32 64 14 14 (401408)
I1215 10:43:36.403321  8310 layer_factory.hpp:74] Creating layer inception_4b/pool
I1215 10:43:36.403326  8310 layer_factory.cpp:56] CUDNN does not support padding or multiple tops. Using Caffe's own pooling layer.
I1215 10:43:36.403332  8310 net.cpp:84] Creating Layer inception_4b/pool
I1215 10:43:36.403342  8310 net.cpp:380] inception_4b/pool <- inception_4a/output_inception_4a/output_0_split_4
I1215 10:43:36.403355  8310 net.cpp:338] inception_4b/pool -> inception_4b/pool
I1215 10:43:36.403369  8310 net.cpp:113] Setting up inception_4b/pool
I1215 10:43:36.403379  8310 net.cpp:120] Top shape: 32 512 14 14 (3211264)
I1215 10:43:36.403383  8310 layer_factory.hpp:74] Creating layer inception_4b/pool_proj
I1215 10:43:36.403393  8310 net.cpp:84] Creating Layer inception_4b/pool_proj
I1215 10:43:36.403398  8310 net.cpp:380] inception_4b/pool_proj <- inception_4b/pool
I1215 10:43:36.403405  8310 net.cpp:338] inception_4b/pool_proj -> inception_4b/pool_proj
I1215 10:43:36.403412  8310 net.cpp:113] Setting up inception_4b/pool_proj
I1215 10:43:36.404553  8310 net.cpp:120] Top shape: 32 64 14 14 (401408)
I1215 10:43:36.404567  8310 layer_factory.hpp:74] Creating layer inception_4b/relu_pool_proj
I1215 10:43:36.404577  8310 net.cpp:84] Creating Layer inception_4b/relu_pool_proj
I1215 10:43:36.404582  8310 net.cpp:380] inception_4b/relu_pool_proj <- inception_4b/pool_proj
I1215 10:43:36.404587  8310 net.cpp:327] inception_4b/relu_pool_proj -> inception_4b/pool_proj (in-place)
I1215 10:43:36.404593  8310 net.cpp:113] Setting up inception_4b/relu_pool_proj
I1215 10:43:36.405534  8310 net.cpp:120] Top shape: 32 64 14 14 (401408)
I1215 10:43:36.405544  8310 layer_factory.hpp:74] Creating layer inception_4b/output
I1215 10:43:36.405555  8310 net.cpp:84] Creating Layer inception_4b/output
I1215 10:43:36.405560  8310 net.cpp:380] inception_4b/output <- inception_4b/1x1
I1215 10:43:36.405565  8310 net.cpp:380] inception_4b/output <- inception_4b/3x3
I1215 10:43:36.405570  8310 net.cpp:380] inception_4b/output <- inception_4b/5x5
I1215 10:43:36.405573  8310 net.cpp:380] inception_4b/output <- inception_4b/pool_proj
I1215 10:43:36.405580  8310 net.cpp:338] inception_4b/output -> inception_4b/output
I1215 10:43:36.405586  8310 net.cpp:113] Setting up inception_4b/output
I1215 10:43:36.405594  8310 net.cpp:120] Top shape: 32 512 14 14 (3211264)
I1215 10:43:36.405598  8310 layer_factory.hpp:74] Creating layer inception_4b/output_inception_4b/output_0_split
I1215 10:43:36.405606  8310 net.cpp:84] Creating Layer inception_4b/output_inception_4b/output_0_split
I1215 10:43:36.405611  8310 net.cpp:380] inception_4b/output_inception_4b/output_0_split <- inception_4b/output
I1215 10:43:36.405616  8310 net.cpp:338] inception_4b/output_inception_4b/output_0_split -> inception_4b/output_inception_4b/output_0_split_0
I1215 10:43:36.405622  8310 net.cpp:338] inception_4b/output_inception_4b/output_0_split -> inception_4b/output_inception_4b/output_0_split_1
I1215 10:43:36.405628  8310 net.cpp:338] inception_4b/output_inception_4b/output_0_split -> inception_4b/output_inception_4b/output_0_split_2
I1215 10:43:36.405635  8310 net.cpp:338] inception_4b/output_inception_4b/output_0_split -> inception_4b/output_inception_4b/output_0_split_3
I1215 10:43:36.405642  8310 net.cpp:113] Setting up inception_4b/output_inception_4b/output_0_split
I1215 10:43:36.405647  8310 net.cpp:120] Top shape: 32 512 14 14 (3211264)
I1215 10:43:36.405652  8310 net.cpp:120] Top shape: 32 512 14 14 (3211264)
I1215 10:43:36.405657  8310 net.cpp:120] Top shape: 32 512 14 14 (3211264)
I1215 10:43:36.405661  8310 net.cpp:120] Top shape: 32 512 14 14 (3211264)
I1215 10:43:36.405665  8310 layer_factory.hpp:74] Creating layer inception_4c/1x1
I1215 10:43:36.405673  8310 net.cpp:84] Creating Layer inception_4c/1x1
I1215 10:43:36.405678  8310 net.cpp:380] inception_4c/1x1 <- inception_4b/output_inception_4b/output_0_split_0
I1215 10:43:36.405684  8310 net.cpp:338] inception_4c/1x1 -> inception_4c/1x1
I1215 10:43:36.405691  8310 net.cpp:113] Setting up inception_4c/1x1
I1215 10:43:36.406893  8310 net.cpp:120] Top shape: 32 128 14 14 (802816)
I1215 10:43:36.406908  8310 layer_factory.hpp:74] Creating layer inception_4c/relu_1x1
I1215 10:43:36.406916  8310 net.cpp:84] Creating Layer inception_4c/relu_1x1
I1215 10:43:36.406921  8310 net.cpp:380] inception_4c/relu_1x1 <- inception_4c/1x1
I1215 10:43:36.406931  8310 net.cpp:327] inception_4c/relu_1x1 -> inception_4c/1x1 (in-place)
I1215 10:43:36.406945  8310 net.cpp:113] Setting up inception_4c/relu_1x1
I1215 10:43:36.407006  8310 net.cpp:120] Top shape: 32 128 14 14 (802816)
I1215 10:43:36.407012  8310 layer_factory.hpp:74] Creating layer inception_4c/3x3_reduce
I1215 10:43:36.407021  8310 net.cpp:84] Creating Layer inception_4c/3x3_reduce
I1215 10:43:36.407026  8310 net.cpp:380] inception_4c/3x3_reduce <- inception_4b/output_inception_4b/output_0_split_1
I1215 10:43:36.407033  8310 net.cpp:338] inception_4c/3x3_reduce -> inception_4c/3x3_reduce
I1215 10:43:36.407042  8310 net.cpp:113] Setting up inception_4c/3x3_reduce
I1215 10:43:36.408325  8310 net.cpp:120] Top shape: 32 128 14 14 (802816)
I1215 10:43:36.408340  8310 layer_factory.hpp:74] Creating layer inception_4c/relu_3x3_reduce
I1215 10:43:36.408349  8310 net.cpp:84] Creating Layer inception_4c/relu_3x3_reduce
I1215 10:43:36.408354  8310 net.cpp:380] inception_4c/relu_3x3_reduce <- inception_4c/3x3_reduce
I1215 10:43:36.408360  8310 net.cpp:327] inception_4c/relu_3x3_reduce -> inception_4c/3x3_reduce (in-place)
I1215 10:43:36.408367  8310 net.cpp:113] Setting up inception_4c/relu_3x3_reduce
I1215 10:43:36.408426  8310 net.cpp:120] Top shape: 32 128 14 14 (802816)
I1215 10:43:36.408432  8310 layer_factory.hpp:74] Creating layer inception_4c/3x3
I1215 10:43:36.408442  8310 net.cpp:84] Creating Layer inception_4c/3x3
I1215 10:43:36.408445  8310 net.cpp:380] inception_4c/3x3 <- inception_4c/3x3_reduce
I1215 10:43:36.408452  8310 net.cpp:338] inception_4c/3x3 -> inception_4c/3x3
I1215 10:43:36.408458  8310 net.cpp:113] Setting up inception_4c/3x3
I1215 10:43:36.412155  8310 net.cpp:120] Top shape: 32 256 14 14 (1605632)
I1215 10:43:36.412179  8310 layer_factory.hpp:74] Creating layer inception_4c/relu_3x3
I1215 10:43:36.412190  8310 net.cpp:84] Creating Layer inception_4c/relu_3x3
I1215 10:43:36.412195  8310 net.cpp:380] inception_4c/relu_3x3 <- inception_4c/3x3
I1215 10:43:36.412201  8310 net.cpp:327] inception_4c/relu_3x3 -> inception_4c/3x3 (in-place)
I1215 10:43:36.412207  8310 net.cpp:113] Setting up inception_4c/relu_3x3
I1215 10:43:36.412269  8310 net.cpp:120] Top shape: 32 256 14 14 (1605632)
I1215 10:43:36.412274  8310 layer_factory.hpp:74] Creating layer inception_4c/5x5_reduce
I1215 10:43:36.412282  8310 net.cpp:84] Creating Layer inception_4c/5x5_reduce
I1215 10:43:36.412287  8310 net.cpp:380] inception_4c/5x5_reduce <- inception_4b/output_inception_4b/output_0_split_2
I1215 10:43:36.412295  8310 net.cpp:338] inception_4c/5x5_reduce -> inception_4c/5x5_reduce
I1215 10:43:36.412302  8310 net.cpp:113] Setting up inception_4c/5x5_reduce
I1215 10:43:36.413101  8310 net.cpp:120] Top shape: 32 24 14 14 (150528)
I1215 10:43:36.413116  8310 layer_factory.hpp:74] Creating layer inception_4c/relu_5x5_reduce
I1215 10:43:36.413123  8310 net.cpp:84] Creating Layer inception_4c/relu_5x5_reduce
I1215 10:43:36.413128  8310 net.cpp:380] inception_4c/relu_5x5_reduce <- inception_4c/5x5_reduce
I1215 10:43:36.413135  8310 net.cpp:327] inception_4c/relu_5x5_reduce -> inception_4c/5x5_reduce (in-place)
I1215 10:43:36.413141  8310 net.cpp:113] Setting up inception_4c/relu_5x5_reduce
I1215 10:43:36.414950  8310 net.cpp:120] Top shape: 32 24 14 14 (150528)
I1215 10:43:36.414966  8310 layer_factory.hpp:74] Creating layer inception_4c/5x5
I1215 10:43:36.414976  8310 net.cpp:84] Creating Layer inception_4c/5x5
I1215 10:43:36.414983  8310 net.cpp:380] inception_4c/5x5 <- inception_4c/5x5_reduce
I1215 10:43:36.414991  8310 net.cpp:338] inception_4c/5x5 -> inception_4c/5x5
I1215 10:43:36.415000  8310 net.cpp:113] Setting up inception_4c/5x5
I1215 10:43:36.416360  8310 net.cpp:120] Top shape: 32 64 14 14 (401408)
I1215 10:43:36.416378  8310 layer_factory.hpp:74] Creating layer inception_4c/relu_5x5
I1215 10:43:36.416389  8310 net.cpp:84] Creating Layer inception_4c/relu_5x5
I1215 10:43:36.416394  8310 net.cpp:380] inception_4c/relu_5x5 <- inception_4c/5x5
I1215 10:43:36.416401  8310 net.cpp:327] inception_4c/relu_5x5 -> inception_4c/5x5 (in-place)
I1215 10:43:36.416414  8310 net.cpp:113] Setting up inception_4c/relu_5x5
I1215 10:43:36.416486  8310 net.cpp:120] Top shape: 32 64 14 14 (401408)
I1215 10:43:36.416492  8310 layer_factory.hpp:74] Creating layer inception_4c/pool
I1215 10:43:36.416497  8310 layer_factory.cpp:56] CUDNN does not support padding or multiple tops. Using Caffe's own pooling layer.
I1215 10:43:36.416504  8310 net.cpp:84] Creating Layer inception_4c/pool
I1215 10:43:36.416508  8310 net.cpp:380] inception_4c/pool <- inception_4b/output_inception_4b/output_0_split_3
I1215 10:43:36.416514  8310 net.cpp:338] inception_4c/pool -> inception_4c/pool
I1215 10:43:36.416527  8310 net.cpp:113] Setting up inception_4c/pool
I1215 10:43:36.416534  8310 net.cpp:120] Top shape: 32 512 14 14 (3211264)
I1215 10:43:36.416538  8310 layer_factory.hpp:74] Creating layer inception_4c/pool_proj
I1215 10:43:36.416546  8310 net.cpp:84] Creating Layer inception_4c/pool_proj
I1215 10:43:36.416550  8310 net.cpp:380] inception_4c/pool_proj <- inception_4c/pool
I1215 10:43:36.416558  8310 net.cpp:338] inception_4c/pool_proj -> inception_4c/pool_proj
I1215 10:43:36.416565  8310 net.cpp:113] Setting up inception_4c/pool_proj
I1215 10:43:36.417701  8310 net.cpp:120] Top shape: 32 64 14 14 (401408)
I1215 10:43:36.417716  8310 layer_factory.hpp:74] Creating layer inception_4c/relu_pool_proj
I1215 10:43:36.417723  8310 net.cpp:84] Creating Layer inception_4c/relu_pool_proj
I1215 10:43:36.417728  8310 net.cpp:380] inception_4c/relu_pool_proj <- inception_4c/pool_proj
I1215 10:43:36.417737  8310 net.cpp:327] inception_4c/relu_pool_proj -> inception_4c/pool_proj (in-place)
I1215 10:43:36.417743  8310 net.cpp:113] Setting up inception_4c/relu_pool_proj
I1215 10:43:36.417805  8310 net.cpp:120] Top shape: 32 64 14 14 (401408)
I1215 10:43:36.417811  8310 layer_factory.hpp:74] Creating layer inception_4c/output
I1215 10:43:36.417819  8310 net.cpp:84] Creating Layer inception_4c/output
I1215 10:43:36.417822  8310 net.cpp:380] inception_4c/output <- inception_4c/1x1
I1215 10:43:36.417829  8310 net.cpp:380] inception_4c/output <- inception_4c/3x3
I1215 10:43:36.417832  8310 net.cpp:380] inception_4c/output <- inception_4c/5x5
I1215 10:43:36.417837  8310 net.cpp:380] inception_4c/output <- inception_4c/pool_proj
I1215 10:43:36.417842  8310 net.cpp:338] inception_4c/output -> inception_4c/output
I1215 10:43:36.417850  8310 net.cpp:113] Setting up inception_4c/output
I1215 10:43:36.417856  8310 net.cpp:120] Top shape: 32 512 14 14 (3211264)
I1215 10:43:36.417860  8310 layer_factory.hpp:74] Creating layer inception_4c/output_inception_4c/output_0_split
I1215 10:43:36.417866  8310 net.cpp:84] Creating Layer inception_4c/output_inception_4c/output_0_split
I1215 10:43:36.417870  8310 net.cpp:380] inception_4c/output_inception_4c/output_0_split <- inception_4c/output
I1215 10:43:36.417877  8310 net.cpp:338] inception_4c/output_inception_4c/output_0_split -> inception_4c/output_inception_4c/output_0_split_0
I1215 10:43:36.417884  8310 net.cpp:338] inception_4c/output_inception_4c/output_0_split -> inception_4c/output_inception_4c/output_0_split_1
I1215 10:43:36.417891  8310 net.cpp:338] inception_4c/output_inception_4c/output_0_split -> inception_4c/output_inception_4c/output_0_split_2
I1215 10:43:36.417897  8310 net.cpp:338] inception_4c/output_inception_4c/output_0_split -> inception_4c/output_inception_4c/output_0_split_3
I1215 10:43:36.417903  8310 net.cpp:113] Setting up inception_4c/output_inception_4c/output_0_split
I1215 10:43:36.417912  8310 net.cpp:120] Top shape: 32 512 14 14 (3211264)
I1215 10:43:36.417917  8310 net.cpp:120] Top shape: 32 512 14 14 (3211264)
I1215 10:43:36.417920  8310 net.cpp:120] Top shape: 32 512 14 14 (3211264)
I1215 10:43:36.417925  8310 net.cpp:120] Top shape: 32 512 14 14 (3211264)
I1215 10:43:36.417929  8310 layer_factory.hpp:74] Creating layer inception_4d/1x1
I1215 10:43:36.417935  8310 net.cpp:84] Creating Layer inception_4d/1x1
I1215 10:43:36.417940  8310 net.cpp:380] inception_4d/1x1 <- inception_4c/output_inception_4c/output_0_split_0
I1215 10:43:36.417953  8310 net.cpp:338] inception_4d/1x1 -> inception_4d/1x1
I1215 10:43:36.417965  8310 net.cpp:113] Setting up inception_4d/1x1
I1215 10:43:36.419221  8310 net.cpp:120] Top shape: 32 112 14 14 (702464)
I1215 10:43:36.419236  8310 layer_factory.hpp:74] Creating layer inception_4d/relu_1x1
I1215 10:43:36.419244  8310 net.cpp:84] Creating Layer inception_4d/relu_1x1
I1215 10:43:36.419248  8310 net.cpp:380] inception_4d/relu_1x1 <- inception_4d/1x1
I1215 10:43:36.419255  8310 net.cpp:327] inception_4d/relu_1x1 -> inception_4d/1x1 (in-place)
I1215 10:43:36.419261  8310 net.cpp:113] Setting up inception_4d/relu_1x1
I1215 10:43:36.419319  8310 net.cpp:120] Top shape: 32 112 14 14 (702464)
I1215 10:43:36.419325  8310 layer_factory.hpp:74] Creating layer inception_4d/3x3_reduce
I1215 10:43:36.419333  8310 net.cpp:84] Creating Layer inception_4d/3x3_reduce
I1215 10:43:36.419337  8310 net.cpp:380] inception_4d/3x3_reduce <- inception_4c/output_inception_4c/output_0_split_1
I1215 10:43:36.419345  8310 net.cpp:338] inception_4d/3x3_reduce -> inception_4d/3x3_reduce
I1215 10:43:36.419353  8310 net.cpp:113] Setting up inception_4d/3x3_reduce
I1215 10:43:36.420770  8310 net.cpp:120] Top shape: 32 144 14 14 (903168)
I1215 10:43:36.420785  8310 layer_factory.hpp:74] Creating layer inception_4d/relu_3x3_reduce
I1215 10:43:36.420791  8310 net.cpp:84] Creating Layer inception_4d/relu_3x3_reduce
I1215 10:43:36.420796  8310 net.cpp:380] inception_4d/relu_3x3_reduce <- inception_4d/3x3_reduce
I1215 10:43:36.420802  8310 net.cpp:327] inception_4d/relu_3x3_reduce -> inception_4d/3x3_reduce (in-place)
I1215 10:43:36.420809  8310 net.cpp:113] Setting up inception_4d/relu_3x3_reduce
I1215 10:43:36.421468  8310 net.cpp:120] Top shape: 32 144 14 14 (903168)
I1215 10:43:36.421480  8310 layer_factory.hpp:74] Creating layer inception_4d/3x3
I1215 10:43:36.421489  8310 net.cpp:84] Creating Layer inception_4d/3x3
I1215 10:43:36.421494  8310 net.cpp:380] inception_4d/3x3 <- inception_4d/3x3_reduce
I1215 10:43:36.421502  8310 net.cpp:338] inception_4d/3x3 -> inception_4d/3x3
I1215 10:43:36.421510  8310 net.cpp:113] Setting up inception_4d/3x3
I1215 10:43:36.425993  8310 net.cpp:120] Top shape: 32 288 14 14 (1806336)
I1215 10:43:36.426008  8310 layer_factory.hpp:74] Creating layer inception_4d/relu_3x3
I1215 10:43:36.426017  8310 net.cpp:84] Creating Layer inception_4d/relu_3x3
I1215 10:43:36.426023  8310 net.cpp:380] inception_4d/relu_3x3 <- inception_4d/3x3
I1215 10:43:36.426028  8310 net.cpp:327] inception_4d/relu_3x3 -> inception_4d/3x3 (in-place)
I1215 10:43:36.426035  8310 net.cpp:113] Setting up inception_4d/relu_3x3
I1215 10:43:36.426095  8310 net.cpp:120] Top shape: 32 288 14 14 (1806336)
I1215 10:43:36.426100  8310 layer_factory.hpp:74] Creating layer inception_4d/5x5_reduce
I1215 10:43:36.426110  8310 net.cpp:84] Creating Layer inception_4d/5x5_reduce
I1215 10:43:36.426115  8310 net.cpp:380] inception_4d/5x5_reduce <- inception_4c/output_inception_4c/output_0_split_2
I1215 10:43:36.426120  8310 net.cpp:338] inception_4d/5x5_reduce -> inception_4d/5x5_reduce
I1215 10:43:36.426127  8310 net.cpp:113] Setting up inception_4d/5x5_reduce
I1215 10:43:36.427078  8310 net.cpp:120] Top shape: 32 32 14 14 (200704)
I1215 10:43:36.427091  8310 layer_factory.hpp:74] Creating layer inception_4d/relu_5x5_reduce
I1215 10:43:36.427098  8310 net.cpp:84] Creating Layer inception_4d/relu_5x5_reduce
I1215 10:43:36.427103  8310 net.cpp:380] inception_4d/relu_5x5_reduce <- inception_4d/5x5_reduce
I1215 10:43:36.427114  8310 net.cpp:327] inception_4d/relu_5x5_reduce -> inception_4d/5x5_reduce (in-place)
I1215 10:43:36.427120  8310 net.cpp:113] Setting up inception_4d/relu_5x5_reduce
I1215 10:43:36.427176  8310 net.cpp:120] Top shape: 32 32 14 14 (200704)
I1215 10:43:36.427181  8310 layer_factory.hpp:74] Creating layer inception_4d/5x5
I1215 10:43:36.427191  8310 net.cpp:84] Creating Layer inception_4d/5x5
I1215 10:43:36.427196  8310 net.cpp:380] inception_4d/5x5 <- inception_4d/5x5_reduce
I1215 10:43:36.427201  8310 net.cpp:338] inception_4d/5x5 -> inception_4d/5x5
I1215 10:43:36.427213  8310 net.cpp:113] Setting up inception_4d/5x5
I1215 10:43:36.428388  8310 net.cpp:120] Top shape: 32 64 14 14 (401408)
I1215 10:43:36.428402  8310 layer_factory.hpp:74] Creating layer inception_4d/relu_5x5
I1215 10:43:36.428410  8310 net.cpp:84] Creating Layer inception_4d/relu_5x5
I1215 10:43:36.428414  8310 net.cpp:380] inception_4d/relu_5x5 <- inception_4d/5x5
I1215 10:43:36.428422  8310 net.cpp:327] inception_4d/relu_5x5 -> inception_4d/5x5 (in-place)
I1215 10:43:36.428428  8310 net.cpp:113] Setting up inception_4d/relu_5x5
I1215 10:43:36.428488  8310 net.cpp:120] Top shape: 32 64 14 14 (401408)
I1215 10:43:36.428493  8310 layer_factory.hpp:74] Creating layer inception_4d/pool
I1215 10:43:36.428498  8310 layer_factory.cpp:56] CUDNN does not support padding or multiple tops. Using Caffe's own pooling layer.
I1215 10:43:36.428505  8310 net.cpp:84] Creating Layer inception_4d/pool
I1215 10:43:36.428509  8310 net.cpp:380] inception_4d/pool <- inception_4c/output_inception_4c/output_0_split_3
I1215 10:43:36.428515  8310 net.cpp:338] inception_4d/pool -> inception_4d/pool
I1215 10:43:36.428522  8310 net.cpp:113] Setting up inception_4d/pool
I1215 10:43:36.428532  8310 net.cpp:120] Top shape: 32 512 14 14 (3211264)
I1215 10:43:36.428536  8310 layer_factory.hpp:74] Creating layer inception_4d/pool_proj
I1215 10:43:36.428544  8310 net.cpp:84] Creating Layer inception_4d/pool_proj
I1215 10:43:36.428547  8310 net.cpp:380] inception_4d/pool_proj <- inception_4d/pool
I1215 10:43:36.428555  8310 net.cpp:338] inception_4d/pool_proj -> inception_4d/pool_proj
I1215 10:43:36.428562  8310 net.cpp:113] Setting up inception_4d/pool_proj
I1215 10:43:36.429688  8310 net.cpp:120] Top shape: 32 64 14 14 (401408)
I1215 10:43:36.429703  8310 layer_factory.hpp:74] Creating layer inception_4d/relu_pool_proj
I1215 10:43:36.429713  8310 net.cpp:84] Creating Layer inception_4d/relu_pool_proj
I1215 10:43:36.429718  8310 net.cpp:380] inception_4d/relu_pool_proj <- inception_4d/pool_proj
I1215 10:43:36.429724  8310 net.cpp:327] inception_4d/relu_pool_proj -> inception_4d/pool_proj (in-place)
I1215 10:43:36.429730  8310 net.cpp:113] Setting up inception_4d/relu_pool_proj
I1215 10:43:36.430434  8310 net.cpp:120] Top shape: 32 64 14 14 (401408)
I1215 10:43:36.430445  8310 layer_factory.hpp:74] Creating layer inception_4d/output
I1215 10:43:36.430452  8310 net.cpp:84] Creating Layer inception_4d/output
I1215 10:43:36.430457  8310 net.cpp:380] inception_4d/output <- inception_4d/1x1
I1215 10:43:36.430464  8310 net.cpp:380] inception_4d/output <- inception_4d/3x3
I1215 10:43:36.430467  8310 net.cpp:380] inception_4d/output <- inception_4d/5x5
I1215 10:43:36.430472  8310 net.cpp:380] inception_4d/output <- inception_4d/pool_proj
I1215 10:43:36.430480  8310 net.cpp:338] inception_4d/output -> inception_4d/output
I1215 10:43:36.430486  8310 net.cpp:113] Setting up inception_4d/output
I1215 10:43:36.430493  8310 net.cpp:120] Top shape: 32 528 14 14 (3311616)
I1215 10:43:36.430497  8310 layer_factory.hpp:74] Creating layer inception_4d/output_inception_4d/output_0_split
I1215 10:43:36.430505  8310 net.cpp:84] Creating Layer inception_4d/output_inception_4d/output_0_split
I1215 10:43:36.430508  8310 net.cpp:380] inception_4d/output_inception_4d/output_0_split <- inception_4d/output
I1215 10:43:36.430515  8310 net.cpp:338] inception_4d/output_inception_4d/output_0_split -> inception_4d/output_inception_4d/output_0_split_0
I1215 10:43:36.430522  8310 net.cpp:338] inception_4d/output_inception_4d/output_0_split -> inception_4d/output_inception_4d/output_0_split_1
I1215 10:43:36.430529  8310 net.cpp:338] inception_4d/output_inception_4d/output_0_split -> inception_4d/output_inception_4d/output_0_split_2
I1215 10:43:36.430536  8310 net.cpp:338] inception_4d/output_inception_4d/output_0_split -> inception_4d/output_inception_4d/output_0_split_3
I1215 10:43:36.430541  8310 net.cpp:338] inception_4d/output_inception_4d/output_0_split -> inception_4d/output_inception_4d/output_0_split_4
I1215 10:43:36.430547  8310 net.cpp:113] Setting up inception_4d/output_inception_4d/output_0_split
I1215 10:43:36.430562  8310 net.cpp:120] Top shape: 32 528 14 14 (3311616)
I1215 10:43:36.430572  8310 net.cpp:120] Top shape: 32 528 14 14 (3311616)
I1215 10:43:36.430577  8310 net.cpp:120] Top shape: 32 528 14 14 (3311616)
I1215 10:43:36.430582  8310 net.cpp:120] Top shape: 32 528 14 14 (3311616)
I1215 10:43:36.430585  8310 net.cpp:120] Top shape: 32 528 14 14 (3311616)
I1215 10:43:36.430589  8310 layer_factory.hpp:74] Creating layer loss2/ave_pool
I1215 10:43:36.430598  8310 net.cpp:84] Creating Layer loss2/ave_pool
I1215 10:43:36.430603  8310 net.cpp:380] loss2/ave_pool <- inception_4d/output_inception_4d/output_0_split_0
I1215 10:43:36.430608  8310 net.cpp:338] loss2/ave_pool -> loss2/ave_pool
I1215 10:43:36.430614  8310 net.cpp:113] Setting up loss2/ave_pool
I1215 10:43:36.430677  8310 net.cpp:120] Top shape: 32 528 4 4 (270336)
I1215 10:43:36.430683  8310 layer_factory.hpp:74] Creating layer loss2/conv
I1215 10:43:36.430691  8310 net.cpp:84] Creating Layer loss2/conv
I1215 10:43:36.430696  8310 net.cpp:380] loss2/conv <- loss2/ave_pool
I1215 10:43:36.430702  8310 net.cpp:338] loss2/conv -> loss2/conv
I1215 10:43:36.430709  8310 net.cpp:113] Setting up loss2/conv
I1215 10:43:36.432111  8310 net.cpp:120] Top shape: 32 128 4 4 (65536)
I1215 10:43:36.432126  8310 layer_factory.hpp:74] Creating layer loss2/relu_conv
I1215 10:43:36.432134  8310 net.cpp:84] Creating Layer loss2/relu_conv
I1215 10:43:36.432139  8310 net.cpp:380] loss2/relu_conv <- loss2/conv
I1215 10:43:36.432145  8310 net.cpp:327] loss2/relu_conv -> loss2/conv (in-place)
I1215 10:43:36.432152  8310 net.cpp:113] Setting up loss2/relu_conv
I1215 10:43:36.432210  8310 net.cpp:120] Top shape: 32 128 4 4 (65536)
I1215 10:43:36.432216  8310 layer_factory.hpp:74] Creating layer loss2/fc
I1215 10:43:36.432224  8310 net.cpp:84] Creating Layer loss2/fc
I1215 10:43:36.432227  8310 net.cpp:380] loss2/fc <- loss2/conv
I1215 10:43:36.432235  8310 net.cpp:338] loss2/fc -> loss2/fc
I1215 10:43:36.432242  8310 net.cpp:113] Setting up loss2/fc
I1215 10:43:36.452141  8310 net.cpp:120] Top shape: 32 1024 (32768)
I1215 10:43:36.452154  8310 layer_factory.hpp:74] Creating layer loss2/relu_fc
I1215 10:43:36.452162  8310 net.cpp:84] Creating Layer loss2/relu_fc
I1215 10:43:36.452167  8310 net.cpp:380] loss2/relu_fc <- loss2/fc
I1215 10:43:36.452173  8310 net.cpp:327] loss2/relu_fc -> loss2/fc (in-place)
I1215 10:43:36.452179  8310 net.cpp:113] Setting up loss2/relu_fc
I1215 10:43:36.452682  8310 net.cpp:120] Top shape: 32 1024 (32768)
I1215 10:43:36.452693  8310 layer_factory.hpp:74] Creating layer loss2/drop_fc
I1215 10:43:36.452699  8310 net.cpp:84] Creating Layer loss2/drop_fc
I1215 10:43:36.452704  8310 net.cpp:380] loss2/drop_fc <- loss2/fc
I1215 10:43:36.452710  8310 net.cpp:327] loss2/drop_fc -> loss2/fc (in-place)
I1215 10:43:36.452716  8310 net.cpp:113] Setting up loss2/drop_fc
I1215 10:43:36.452723  8310 net.cpp:120] Top shape: 32 1024 (32768)
I1215 10:43:36.452728  8310 layer_factory.hpp:74] Creating layer loss2/classifier_kaggle
I1215 10:43:36.452735  8310 net.cpp:84] Creating Layer loss2/classifier_kaggle
I1215 10:43:36.452739  8310 net.cpp:380] loss2/classifier_kaggle <- loss2/fc
I1215 10:43:36.452747  8310 net.cpp:338] loss2/classifier_kaggle -> loss2/classifier_kaggle
I1215 10:43:36.452755  8310 net.cpp:113] Setting up loss2/classifier_kaggle
I1215 10:43:36.457352  8310 net.cpp:120] Top shape: 32 447 (14304)
I1215 10:43:36.457365  8310 layer_factory.hpp:74] Creating layer loss2/loss
I1215 10:43:36.457373  8310 net.cpp:84] Creating Layer loss2/loss
I1215 10:43:36.457378  8310 net.cpp:380] loss2/loss <- loss2/classifier_kaggle
I1215 10:43:36.457383  8310 net.cpp:380] loss2/loss <- label_data_1_split_1
I1215 10:43:36.457389  8310 net.cpp:338] loss2/loss -> loss2/loss1
I1215 10:43:36.457396  8310 net.cpp:113] Setting up loss2/loss
I1215 10:43:36.457401  8310 layer_factory.hpp:74] Creating layer loss2/loss
I1215 10:43:36.457501  8310 net.cpp:120] Top shape: (1)
I1215 10:43:36.457509  8310 net.cpp:122]     with loss weight 0.3
I1215 10:43:36.457522  8310 layer_factory.hpp:74] Creating layer inception_4e/1x1
I1215 10:43:36.457540  8310 net.cpp:84] Creating Layer inception_4e/1x1
I1215 10:43:36.457545  8310 net.cpp:380] inception_4e/1x1 <- inception_4d/output_inception_4d/output_0_split_1
I1215 10:43:36.457553  8310 net.cpp:338] inception_4e/1x1 -> inception_4e/1x1
I1215 10:43:36.457561  8310 net.cpp:113] Setting up inception_4e/1x1
I1215 10:43:36.459643  8310 net.cpp:120] Top shape: 32 256 14 14 (1605632)
I1215 10:43:36.459657  8310 layer_factory.hpp:74] Creating layer inception_4e/relu_1x1
I1215 10:43:36.459666  8310 net.cpp:84] Creating Layer inception_4e/relu_1x1
I1215 10:43:36.459671  8310 net.cpp:380] inception_4e/relu_1x1 <- inception_4e/1x1
I1215 10:43:36.459677  8310 net.cpp:327] inception_4e/relu_1x1 -> inception_4e/1x1 (in-place)
I1215 10:43:36.459686  8310 net.cpp:113] Setting up inception_4e/relu_1x1
I1215 10:43:36.459741  8310 net.cpp:120] Top shape: 32 256 14 14 (1605632)
I1215 10:43:36.459748  8310 layer_factory.hpp:74] Creating layer inception_4e/3x3_reduce
I1215 10:43:36.459756  8310 net.cpp:84] Creating Layer inception_4e/3x3_reduce
I1215 10:43:36.459763  8310 net.cpp:380] inception_4e/3x3_reduce <- inception_4d/output_inception_4d/output_0_split_2
I1215 10:43:36.459769  8310 net.cpp:338] inception_4e/3x3_reduce -> inception_4e/3x3_reduce
I1215 10:43:36.459776  8310 net.cpp:113] Setting up inception_4e/3x3_reduce
I1215 10:43:36.461395  8310 net.cpp:120] Top shape: 32 160 14 14 (1003520)
I1215 10:43:36.461410  8310 layer_factory.hpp:74] Creating layer inception_4e/relu_3x3_reduce
I1215 10:43:36.461418  8310 net.cpp:84] Creating Layer inception_4e/relu_3x3_reduce
I1215 10:43:36.461423  8310 net.cpp:380] inception_4e/relu_3x3_reduce <- inception_4e/3x3_reduce
I1215 10:43:36.461429  8310 net.cpp:327] inception_4e/relu_3x3_reduce -> inception_4e/3x3_reduce (in-place)
I1215 10:43:36.461436  8310 net.cpp:113] Setting up inception_4e/relu_3x3_reduce
I1215 10:43:36.461496  8310 net.cpp:120] Top shape: 32 160 14 14 (1003520)
I1215 10:43:36.461503  8310 layer_factory.hpp:74] Creating layer inception_4e/3x3
I1215 10:43:36.461511  8310 net.cpp:84] Creating Layer inception_4e/3x3
I1215 10:43:36.461515  8310 net.cpp:380] inception_4e/3x3 <- inception_4e/3x3_reduce
I1215 10:43:36.461524  8310 net.cpp:338] inception_4e/3x3 -> inception_4e/3x3
I1215 10:43:36.461530  8310 net.cpp:113] Setting up inception_4e/3x3
I1215 10:43:36.466740  8310 net.cpp:120] Top shape: 32 320 14 14 (2007040)
I1215 10:43:36.466755  8310 layer_factory.hpp:74] Creating layer inception_4e/relu_3x3
I1215 10:43:36.466761  8310 net.cpp:84] Creating Layer inception_4e/relu_3x3
I1215 10:43:36.466766  8310 net.cpp:380] inception_4e/relu_3x3 <- inception_4e/3x3
I1215 10:43:36.466773  8310 net.cpp:327] inception_4e/relu_3x3 -> inception_4e/3x3 (in-place)
I1215 10:43:36.466778  8310 net.cpp:113] Setting up inception_4e/relu_3x3
I1215 10:43:36.467406  8310 net.cpp:120] Top shape: 32 320 14 14 (2007040)
I1215 10:43:36.467416  8310 layer_factory.hpp:74] Creating layer inception_4e/5x5_reduce
I1215 10:43:36.467427  8310 net.cpp:84] Creating Layer inception_4e/5x5_reduce
I1215 10:43:36.467432  8310 net.cpp:380] inception_4e/5x5_reduce <- inception_4d/output_inception_4d/output_0_split_3
I1215 10:43:36.467439  8310 net.cpp:338] inception_4e/5x5_reduce -> inception_4e/5x5_reduce
I1215 10:43:36.467447  8310 net.cpp:113] Setting up inception_4e/5x5_reduce
I1215 10:43:36.468214  8310 net.cpp:120] Top shape: 32 32 14 14 (200704)
I1215 10:43:36.468227  8310 layer_factory.hpp:74] Creating layer inception_4e/relu_5x5_reduce
I1215 10:43:36.468236  8310 net.cpp:84] Creating Layer inception_4e/relu_5x5_reduce
I1215 10:43:36.468241  8310 net.cpp:380] inception_4e/relu_5x5_reduce <- inception_4e/5x5_reduce
I1215 10:43:36.468247  8310 net.cpp:327] inception_4e/relu_5x5_reduce -> inception_4e/5x5_reduce (in-place)
I1215 10:43:36.468253  8310 net.cpp:113] Setting up inception_4e/relu_5x5_reduce
I1215 10:43:36.468314  8310 net.cpp:120] Top shape: 32 32 14 14 (200704)
I1215 10:43:36.468322  8310 layer_factory.hpp:74] Creating layer inception_4e/5x5
I1215 10:43:36.468356  8310 net.cpp:84] Creating Layer inception_4e/5x5
I1215 10:43:36.468361  8310 net.cpp:380] inception_4e/5x5 <- inception_4e/5x5_reduce
I1215 10:43:36.468370  8310 net.cpp:338] inception_4e/5x5 -> inception_4e/5x5
I1215 10:43:36.468377  8310 net.cpp:113] Setting up inception_4e/5x5
I1215 10:43:36.471173  8310 net.cpp:120] Top shape: 32 128 14 14 (802816)
I1215 10:43:36.471192  8310 layer_factory.hpp:74] Creating layer inception_4e/relu_5x5
I1215 10:43:36.471201  8310 net.cpp:84] Creating Layer inception_4e/relu_5x5
I1215 10:43:36.471206  8310 net.cpp:380] inception_4e/relu_5x5 <- inception_4e/5x5
I1215 10:43:36.471215  8310 net.cpp:327] inception_4e/relu_5x5 -> inception_4e/5x5 (in-place)
I1215 10:43:36.471222  8310 net.cpp:113] Setting up inception_4e/relu_5x5
I1215 10:43:36.471284  8310 net.cpp:120] Top shape: 32 128 14 14 (802816)
I1215 10:43:36.471290  8310 layer_factory.hpp:74] Creating layer inception_4e/pool
I1215 10:43:36.471295  8310 layer_factory.cpp:56] CUDNN does not support padding or multiple tops. Using Caffe's own pooling layer.
I1215 10:43:36.471302  8310 net.cpp:84] Creating Layer inception_4e/pool
I1215 10:43:36.471307  8310 net.cpp:380] inception_4e/pool <- inception_4d/output_inception_4d/output_0_split_4
I1215 10:43:36.471313  8310 net.cpp:338] inception_4e/pool -> inception_4e/pool
I1215 10:43:36.471320  8310 net.cpp:113] Setting up inception_4e/pool
I1215 10:43:36.471329  8310 net.cpp:120] Top shape: 32 528 14 14 (3311616)
I1215 10:43:36.471334  8310 layer_factory.hpp:74] Creating layer inception_4e/pool_proj
I1215 10:43:36.471341  8310 net.cpp:84] Creating Layer inception_4e/pool_proj
I1215 10:43:36.471346  8310 net.cpp:380] inception_4e/pool_proj <- inception_4e/pool
I1215 10:43:36.471352  8310 net.cpp:338] inception_4e/pool_proj -> inception_4e/pool_proj
I1215 10:43:36.471359  8310 net.cpp:113] Setting up inception_4e/pool_proj
I1215 10:43:36.472524  8310 net.cpp:120] Top shape: 32 128 14 14 (802816)
I1215 10:43:36.472540  8310 layer_factory.hpp:74] Creating layer inception_4e/relu_pool_proj
I1215 10:43:36.472549  8310 net.cpp:84] Creating Layer inception_4e/relu_pool_proj
I1215 10:43:36.472554  8310 net.cpp:380] inception_4e/relu_pool_proj <- inception_4e/pool_proj
I1215 10:43:36.472561  8310 net.cpp:327] inception_4e/relu_pool_proj -> inception_4e/pool_proj (in-place)
I1215 10:43:36.472568  8310 net.cpp:113] Setting up inception_4e/relu_pool_proj
I1215 10:43:36.472626  8310 net.cpp:120] Top shape: 32 128 14 14 (802816)
I1215 10:43:36.472632  8310 layer_factory.hpp:74] Creating layer inception_4e/output
I1215 10:43:36.472638  8310 net.cpp:84] Creating Layer inception_4e/output
I1215 10:43:36.472642  8310 net.cpp:380] inception_4e/output <- inception_4e/1x1
I1215 10:43:36.472647  8310 net.cpp:380] inception_4e/output <- inception_4e/3x3
I1215 10:43:36.472652  8310 net.cpp:380] inception_4e/output <- inception_4e/5x5
I1215 10:43:36.472656  8310 net.cpp:380] inception_4e/output <- inception_4e/pool_proj
I1215 10:43:36.472662  8310 net.cpp:338] inception_4e/output -> inception_4e/output
I1215 10:43:36.472668  8310 net.cpp:113] Setting up inception_4e/output
I1215 10:43:36.472676  8310 net.cpp:120] Top shape: 32 832 14 14 (5218304)
I1215 10:43:36.472679  8310 layer_factory.hpp:74] Creating layer pool4/3x3_s2
I1215 10:43:36.472686  8310 net.cpp:84] Creating Layer pool4/3x3_s2
I1215 10:43:36.472689  8310 net.cpp:380] pool4/3x3_s2 <- inception_4e/output
I1215 10:43:36.472697  8310 net.cpp:338] pool4/3x3_s2 -> pool4/3x3_s2
I1215 10:43:36.472704  8310 net.cpp:113] Setting up pool4/3x3_s2
I1215 10:43:36.473348  8310 net.cpp:120] Top shape: 32 832 7 7 (1304576)
I1215 10:43:36.473359  8310 layer_factory.hpp:74] Creating layer pool4/3x3_s2_pool4/3x3_s2_0_split
I1215 10:43:36.473367  8310 net.cpp:84] Creating Layer pool4/3x3_s2_pool4/3x3_s2_0_split
I1215 10:43:36.473372  8310 net.cpp:380] pool4/3x3_s2_pool4/3x3_s2_0_split <- pool4/3x3_s2
I1215 10:43:36.473378  8310 net.cpp:338] pool4/3x3_s2_pool4/3x3_s2_0_split -> pool4/3x3_s2_pool4/3x3_s2_0_split_0
I1215 10:43:36.473393  8310 net.cpp:338] pool4/3x3_s2_pool4/3x3_s2_0_split -> pool4/3x3_s2_pool4/3x3_s2_0_split_1
I1215 10:43:36.473408  8310 net.cpp:338] pool4/3x3_s2_pool4/3x3_s2_0_split -> pool4/3x3_s2_pool4/3x3_s2_0_split_2
I1215 10:43:36.473414  8310 net.cpp:338] pool4/3x3_s2_pool4/3x3_s2_0_split -> pool4/3x3_s2_pool4/3x3_s2_0_split_3
I1215 10:43:36.473419  8310 net.cpp:113] Setting up pool4/3x3_s2_pool4/3x3_s2_0_split
I1215 10:43:36.473426  8310 net.cpp:120] Top shape: 32 832 7 7 (1304576)
I1215 10:43:36.473431  8310 net.cpp:120] Top shape: 32 832 7 7 (1304576)
I1215 10:43:36.473435  8310 net.cpp:120] Top shape: 32 832 7 7 (1304576)
I1215 10:43:36.473440  8310 net.cpp:120] Top shape: 32 832 7 7 (1304576)
I1215 10:43:36.473444  8310 layer_factory.hpp:74] Creating layer inception_5a/1x1
I1215 10:43:36.473454  8310 net.cpp:84] Creating Layer inception_5a/1x1
I1215 10:43:36.473459  8310 net.cpp:380] inception_5a/1x1 <- pool4/3x3_s2_pool4/3x3_s2_0_split_0
I1215 10:43:36.473464  8310 net.cpp:338] inception_5a/1x1 -> inception_5a/1x1
I1215 10:43:36.473471  8310 net.cpp:113] Setting up inception_5a/1x1
I1215 10:43:36.476388  8310 net.cpp:120] Top shape: 32 256 7 7 (401408)
I1215 10:43:36.476404  8310 layer_factory.hpp:74] Creating layer inception_5a/relu_1x1
I1215 10:43:36.476411  8310 net.cpp:84] Creating Layer inception_5a/relu_1x1
I1215 10:43:36.476416  8310 net.cpp:380] inception_5a/relu_1x1 <- inception_5a/1x1
I1215 10:43:36.476423  8310 net.cpp:327] inception_5a/relu_1x1 -> inception_5a/1x1 (in-place)
I1215 10:43:36.476430  8310 net.cpp:113] Setting up inception_5a/relu_1x1
I1215 10:43:36.476491  8310 net.cpp:120] Top shape: 32 256 7 7 (401408)
I1215 10:43:36.476497  8310 layer_factory.hpp:74] Creating layer inception_5a/3x3_reduce
I1215 10:43:36.476505  8310 net.cpp:84] Creating Layer inception_5a/3x3_reduce
I1215 10:43:36.476511  8310 net.cpp:380] inception_5a/3x3_reduce <- pool4/3x3_s2_pool4/3x3_s2_0_split_1
I1215 10:43:36.476516  8310 net.cpp:338] inception_5a/3x3_reduce -> inception_5a/3x3_reduce
I1215 10:43:36.476523  8310 net.cpp:113] Setting up inception_5a/3x3_reduce
I1215 10:43:36.478647  8310 net.cpp:120] Top shape: 32 160 7 7 (250880)
I1215 10:43:36.478662  8310 layer_factory.hpp:74] Creating layer inception_5a/relu_3x3_reduce
I1215 10:43:36.478670  8310 net.cpp:84] Creating Layer inception_5a/relu_3x3_reduce
I1215 10:43:36.478675  8310 net.cpp:380] inception_5a/relu_3x3_reduce <- inception_5a/3x3_reduce
I1215 10:43:36.478682  8310 net.cpp:327] inception_5a/relu_3x3_reduce -> inception_5a/3x3_reduce (in-place)
I1215 10:43:36.478688  8310 net.cpp:113] Setting up inception_5a/relu_3x3_reduce
I1215 10:43:36.478747  8310 net.cpp:120] Top shape: 32 160 7 7 (250880)
I1215 10:43:36.478754  8310 layer_factory.hpp:74] Creating layer inception_5a/3x3
I1215 10:43:36.478762  8310 net.cpp:84] Creating Layer inception_5a/3x3
I1215 10:43:36.478767  8310 net.cpp:380] inception_5a/3x3 <- inception_5a/3x3_reduce
I1215 10:43:36.478773  8310 net.cpp:338] inception_5a/3x3 -> inception_5a/3x3
I1215 10:43:36.478780  8310 net.cpp:113] Setting up inception_5a/3x3
I1215 10:43:36.484197  8310 net.cpp:120] Top shape: 32 320 7 7 (501760)
I1215 10:43:36.484212  8310 layer_factory.hpp:74] Creating layer inception_5a/relu_3x3
I1215 10:43:36.484220  8310 net.cpp:84] Creating Layer inception_5a/relu_3x3
I1215 10:43:36.484225  8310 net.cpp:380] inception_5a/relu_3x3 <- inception_5a/3x3
I1215 10:43:36.484233  8310 net.cpp:327] inception_5a/relu_3x3 -> inception_5a/3x3 (in-place)
I1215 10:43:36.484241  8310 net.cpp:113] Setting up inception_5a/relu_3x3
I1215 10:43:36.484302  8310 net.cpp:120] Top shape: 32 320 7 7 (501760)
I1215 10:43:36.484307  8310 layer_factory.hpp:74] Creating layer inception_5a/5x5_reduce
I1215 10:43:36.484313  8310 net.cpp:84] Creating Layer inception_5a/5x5_reduce
I1215 10:43:36.484318  8310 net.cpp:380] inception_5a/5x5_reduce <- pool4/3x3_s2_pool4/3x3_s2_0_split_2
I1215 10:43:36.484326  8310 net.cpp:338] inception_5a/5x5_reduce -> inception_5a/5x5_reduce
I1215 10:43:36.484333  8310 net.cpp:113] Setting up inception_5a/5x5_reduce
I1215 10:43:36.485394  8310 net.cpp:120] Top shape: 32 32 7 7 (50176)
I1215 10:43:36.485415  8310 layer_factory.hpp:74] Creating layer inception_5a/relu_5x5_reduce
I1215 10:43:36.485424  8310 net.cpp:84] Creating Layer inception_5a/relu_5x5_reduce
I1215 10:43:36.485430  8310 net.cpp:380] inception_5a/relu_5x5_reduce <- inception_5a/5x5_reduce
I1215 10:43:36.485436  8310 net.cpp:327] inception_5a/relu_5x5_reduce -> inception_5a/5x5_reduce (in-place)
I1215 10:43:36.485445  8310 net.cpp:113] Setting up inception_5a/relu_5x5_reduce
I1215 10:43:36.485977  8310 net.cpp:120] Top shape: 32 32 7 7 (50176)
I1215 10:43:36.485988  8310 layer_factory.hpp:74] Creating layer inception_5a/5x5
I1215 10:43:36.485996  8310 net.cpp:84] Creating Layer inception_5a/5x5
I1215 10:43:36.486001  8310 net.cpp:380] inception_5a/5x5 <- inception_5a/5x5_reduce
I1215 10:43:36.486011  8310 net.cpp:338] inception_5a/5x5 -> inception_5a/5x5
I1215 10:43:36.486018  8310 net.cpp:113] Setting up inception_5a/5x5
I1215 10:43:36.487838  8310 net.cpp:120] Top shape: 32 128 7 7 (200704)
I1215 10:43:36.487851  8310 layer_factory.hpp:74] Creating layer inception_5a/relu_5x5
I1215 10:43:36.487859  8310 net.cpp:84] Creating Layer inception_5a/relu_5x5
I1215 10:43:36.487864  8310 net.cpp:380] inception_5a/relu_5x5 <- inception_5a/5x5
I1215 10:43:36.487869  8310 net.cpp:327] inception_5a/relu_5x5 -> inception_5a/5x5 (in-place)
I1215 10:43:36.487875  8310 net.cpp:113] Setting up inception_5a/relu_5x5
I1215 10:43:36.487934  8310 net.cpp:120] Top shape: 32 128 7 7 (200704)
I1215 10:43:36.487941  8310 layer_factory.hpp:74] Creating layer inception_5a/pool
I1215 10:43:36.487946  8310 layer_factory.cpp:56] CUDNN does not support padding or multiple tops. Using Caffe's own pooling layer.
I1215 10:43:36.487952  8310 net.cpp:84] Creating Layer inception_5a/pool
I1215 10:43:36.487957  8310 net.cpp:380] inception_5a/pool <- pool4/3x3_s2_pool4/3x3_s2_0_split_3
I1215 10:43:36.487964  8310 net.cpp:338] inception_5a/pool -> inception_5a/pool
I1215 10:43:36.487972  8310 net.cpp:113] Setting up inception_5a/pool
I1215 10:43:36.487979  8310 net.cpp:120] Top shape: 32 832 7 7 (1304576)
I1215 10:43:36.487983  8310 layer_factory.hpp:74] Creating layer inception_5a/pool_proj
I1215 10:43:36.487990  8310 net.cpp:84] Creating Layer inception_5a/pool_proj
I1215 10:43:36.487994  8310 net.cpp:380] inception_5a/pool_proj <- inception_5a/pool
I1215 10:43:36.488004  8310 net.cpp:338] inception_5a/pool_proj -> inception_5a/pool_proj
I1215 10:43:36.488013  8310 net.cpp:113] Setting up inception_5a/pool_proj
I1215 10:43:36.489776  8310 net.cpp:120] Top shape: 32 128 7 7 (200704)
I1215 10:43:36.489791  8310 layer_factory.hpp:74] Creating layer inception_5a/relu_pool_proj
I1215 10:43:36.489797  8310 net.cpp:84] Creating Layer inception_5a/relu_pool_proj
I1215 10:43:36.489802  8310 net.cpp:380] inception_5a/relu_pool_proj <- inception_5a/pool_proj
I1215 10:43:36.489809  8310 net.cpp:327] inception_5a/relu_pool_proj -> inception_5a/pool_proj (in-place)
I1215 10:43:36.489815  8310 net.cpp:113] Setting up inception_5a/relu_pool_proj
I1215 10:43:36.489876  8310 net.cpp:120] Top shape: 32 128 7 7 (200704)
I1215 10:43:36.489881  8310 layer_factory.hpp:74] Creating layer inception_5a/output
I1215 10:43:36.489887  8310 net.cpp:84] Creating Layer inception_5a/output
I1215 10:43:36.489892  8310 net.cpp:380] inception_5a/output <- inception_5a/1x1
I1215 10:43:36.489897  8310 net.cpp:380] inception_5a/output <- inception_5a/3x3
I1215 10:43:36.489902  8310 net.cpp:380] inception_5a/output <- inception_5a/5x5
I1215 10:43:36.489907  8310 net.cpp:380] inception_5a/output <- inception_5a/pool_proj
I1215 10:43:36.489912  8310 net.cpp:338] inception_5a/output -> inception_5a/output
I1215 10:43:36.489917  8310 net.cpp:113] Setting up inception_5a/output
I1215 10:43:36.489924  8310 net.cpp:120] Top shape: 32 832 7 7 (1304576)
I1215 10:43:36.489929  8310 layer_factory.hpp:74] Creating layer inception_5a/output_inception_5a/output_0_split
I1215 10:43:36.489938  8310 net.cpp:84] Creating Layer inception_5a/output_inception_5a/output_0_split
I1215 10:43:36.489945  8310 net.cpp:380] inception_5a/output_inception_5a/output_0_split <- inception_5a/output
I1215 10:43:36.489959  8310 net.cpp:338] inception_5a/output_inception_5a/output_0_split -> inception_5a/output_inception_5a/output_0_split_0
I1215 10:43:36.489965  8310 net.cpp:338] inception_5a/output_inception_5a/output_0_split -> inception_5a/output_inception_5a/output_0_split_1
I1215 10:43:36.489972  8310 net.cpp:338] inception_5a/output_inception_5a/output_0_split -> inception_5a/output_inception_5a/output_0_split_2
I1215 10:43:36.489980  8310 net.cpp:338] inception_5a/output_inception_5a/output_0_split -> inception_5a/output_inception_5a/output_0_split_3
I1215 10:43:36.489986  8310 net.cpp:113] Setting up inception_5a/output_inception_5a/output_0_split
I1215 10:43:36.489994  8310 net.cpp:120] Top shape: 32 832 7 7 (1304576)
I1215 10:43:36.489997  8310 net.cpp:120] Top shape: 32 832 7 7 (1304576)
I1215 10:43:36.490002  8310 net.cpp:120] Top shape: 32 832 7 7 (1304576)
I1215 10:43:36.490006  8310 net.cpp:120] Top shape: 32 832 7 7 (1304576)
I1215 10:43:36.490010  8310 layer_factory.hpp:74] Creating layer inception_5b/1x1
I1215 10:43:36.490018  8310 net.cpp:84] Creating Layer inception_5b/1x1
I1215 10:43:36.490022  8310 net.cpp:380] inception_5b/1x1 <- inception_5a/output_inception_5a/output_0_split_0
I1215 10:43:36.490031  8310 net.cpp:338] inception_5b/1x1 -> inception_5b/1x1
I1215 10:43:36.490036  8310 net.cpp:113] Setting up inception_5b/1x1
I1215 10:43:36.493888  8310 net.cpp:120] Top shape: 32 384 7 7 (602112)
I1215 10:43:36.493903  8310 layer_factory.hpp:74] Creating layer inception_5b/relu_1x1
I1215 10:43:36.493911  8310 net.cpp:84] Creating Layer inception_5b/relu_1x1
I1215 10:43:36.493916  8310 net.cpp:380] inception_5b/relu_1x1 <- inception_5b/1x1
I1215 10:43:36.493922  8310 net.cpp:327] inception_5b/relu_1x1 -> inception_5b/1x1 (in-place)
I1215 10:43:36.493929  8310 net.cpp:113] Setting up inception_5b/relu_1x1
I1215 10:43:36.494648  8310 net.cpp:120] Top shape: 32 384 7 7 (602112)
I1215 10:43:36.494659  8310 layer_factory.hpp:74] Creating layer inception_5b/3x3_reduce
I1215 10:43:36.494668  8310 net.cpp:84] Creating Layer inception_5b/3x3_reduce
I1215 10:43:36.494673  8310 net.cpp:380] inception_5b/3x3_reduce <- inception_5a/output_inception_5a/output_0_split_1
I1215 10:43:36.494681  8310 net.cpp:338] inception_5b/3x3_reduce -> inception_5b/3x3_reduce
I1215 10:43:36.494690  8310 net.cpp:113] Setting up inception_5b/3x3_reduce
I1215 10:43:36.497073  8310 net.cpp:120] Top shape: 32 192 7 7 (301056)
I1215 10:43:36.497088  8310 layer_factory.hpp:74] Creating layer inception_5b/relu_3x3_reduce
I1215 10:43:36.497097  8310 net.cpp:84] Creating Layer inception_5b/relu_3x3_reduce
I1215 10:43:36.497103  8310 net.cpp:380] inception_5b/relu_3x3_reduce <- inception_5b/3x3_reduce
I1215 10:43:36.497109  8310 net.cpp:327] inception_5b/relu_3x3_reduce -> inception_5b/3x3_reduce (in-place)
I1215 10:43:36.497117  8310 net.cpp:113] Setting up inception_5b/relu_3x3_reduce
I1215 10:43:36.497180  8310 net.cpp:120] Top shape: 32 192 7 7 (301056)
I1215 10:43:36.497186  8310 layer_factory.hpp:74] Creating layer inception_5b/3x3
I1215 10:43:36.497195  8310 net.cpp:84] Creating Layer inception_5b/3x3
I1215 10:43:36.497200  8310 net.cpp:380] inception_5b/3x3 <- inception_5b/3x3_reduce
I1215 10:43:36.497205  8310 net.cpp:338] inception_5b/3x3 -> inception_5b/3x3
I1215 10:43:36.497227  8310 net.cpp:113] Setting up inception_5b/3x3
I1215 10:43:36.504166  8310 net.cpp:120] Top shape: 32 384 7 7 (602112)
I1215 10:43:36.504182  8310 layer_factory.hpp:74] Creating layer inception_5b/relu_3x3
I1215 10:43:36.504189  8310 net.cpp:84] Creating Layer inception_5b/relu_3x3
I1215 10:43:36.504194  8310 net.cpp:380] inception_5b/relu_3x3 <- inception_5b/3x3
I1215 10:43:36.504201  8310 net.cpp:327] inception_5b/relu_3x3 -> inception_5b/3x3 (in-place)
I1215 10:43:36.504209  8310 net.cpp:113] Setting up inception_5b/relu_3x3
I1215 10:43:36.504269  8310 net.cpp:120] Top shape: 32 384 7 7 (602112)
I1215 10:43:36.504279  8310 layer_factory.hpp:74] Creating layer inception_5b/5x5_reduce
I1215 10:43:36.504295  8310 net.cpp:84] Creating Layer inception_5b/5x5_reduce
I1215 10:43:36.504300  8310 net.cpp:380] inception_5b/5x5_reduce <- inception_5a/output_inception_5a/output_0_split_2
I1215 10:43:36.504307  8310 net.cpp:338] inception_5b/5x5_reduce -> inception_5b/5x5_reduce
I1215 10:43:36.504314  8310 net.cpp:113] Setting up inception_5b/5x5_reduce
I1215 10:43:36.505465  8310 net.cpp:120] Top shape: 32 48 7 7 (75264)
I1215 10:43:36.505480  8310 layer_factory.hpp:74] Creating layer inception_5b/relu_5x5_reduce
I1215 10:43:36.505486  8310 net.cpp:84] Creating Layer inception_5b/relu_5x5_reduce
I1215 10:43:36.505491  8310 net.cpp:380] inception_5b/relu_5x5_reduce <- inception_5b/5x5_reduce
I1215 10:43:36.505496  8310 net.cpp:327] inception_5b/relu_5x5_reduce -> inception_5b/5x5_reduce (in-place)
I1215 10:43:36.505503  8310 net.cpp:113] Setting up inception_5b/relu_5x5_reduce
I1215 10:43:36.505563  8310 net.cpp:120] Top shape: 32 48 7 7 (75264)
I1215 10:43:36.505568  8310 layer_factory.hpp:74] Creating layer inception_5b/5x5
I1215 10:43:36.505576  8310 net.cpp:84] Creating Layer inception_5b/5x5
I1215 10:43:36.505581  8310 net.cpp:380] inception_5b/5x5 <- inception_5b/5x5_reduce
I1215 10:43:36.505587  8310 net.cpp:338] inception_5b/5x5 -> inception_5b/5x5
I1215 10:43:36.505594  8310 net.cpp:113] Setting up inception_5b/5x5
I1215 10:43:36.507951  8310 net.cpp:120] Top shape: 32 128 7 7 (200704)
I1215 10:43:36.507966  8310 layer_factory.hpp:74] Creating layer inception_5b/relu_5x5
I1215 10:43:36.507972  8310 net.cpp:84] Creating Layer inception_5b/relu_5x5
I1215 10:43:36.507977  8310 net.cpp:380] inception_5b/relu_5x5 <- inception_5b/5x5
I1215 10:43:36.507982  8310 net.cpp:327] inception_5b/relu_5x5 -> inception_5b/5x5 (in-place)
I1215 10:43:36.507989  8310 net.cpp:113] Setting up inception_5b/relu_5x5
I1215 10:43:36.508705  8310 net.cpp:120] Top shape: 32 128 7 7 (200704)
I1215 10:43:36.508715  8310 layer_factory.hpp:74] Creating layer inception_5b/pool
I1215 10:43:36.508723  8310 layer_factory.cpp:56] CUDNN does not support padding or multiple tops. Using Caffe's own pooling layer.
I1215 10:43:36.508728  8310 net.cpp:84] Creating Layer inception_5b/pool
I1215 10:43:36.508733  8310 net.cpp:380] inception_5b/pool <- inception_5a/output_inception_5a/output_0_split_3
I1215 10:43:36.508739  8310 net.cpp:338] inception_5b/pool -> inception_5b/pool
I1215 10:43:36.508746  8310 net.cpp:113] Setting up inception_5b/pool
I1215 10:43:36.508754  8310 net.cpp:120] Top shape: 32 832 7 7 (1304576)
I1215 10:43:36.508759  8310 layer_factory.hpp:74] Creating layer inception_5b/pool_proj
I1215 10:43:36.508767  8310 net.cpp:84] Creating Layer inception_5b/pool_proj
I1215 10:43:36.508772  8310 net.cpp:380] inception_5b/pool_proj <- inception_5b/pool
I1215 10:43:36.508780  8310 net.cpp:338] inception_5b/pool_proj -> inception_5b/pool_proj
I1215 10:43:36.508786  8310 net.cpp:113] Setting up inception_5b/pool_proj
I1215 10:43:36.511776  8310 net.cpp:120] Top shape: 32 128 7 7 (200704)
I1215 10:43:36.511792  8310 layer_factory.hpp:74] Creating layer inception_5b/relu_pool_proj
I1215 10:43:36.511800  8310 net.cpp:84] Creating Layer inception_5b/relu_pool_proj
I1215 10:43:36.511804  8310 net.cpp:380] inception_5b/relu_pool_proj <- inception_5b/pool_proj
I1215 10:43:36.511816  8310 net.cpp:327] inception_5b/relu_pool_proj -> inception_5b/pool_proj (in-place)
I1215 10:43:36.511823  8310 net.cpp:113] Setting up inception_5b/relu_pool_proj
I1215 10:43:36.511886  8310 net.cpp:120] Top shape: 32 128 7 7 (200704)
I1215 10:43:36.511893  8310 layer_factory.hpp:74] Creating layer inception_5b/output
I1215 10:43:36.511899  8310 net.cpp:84] Creating Layer inception_5b/output
I1215 10:43:36.511904  8310 net.cpp:380] inception_5b/output <- inception_5b/1x1
I1215 10:43:36.511910  8310 net.cpp:380] inception_5b/output <- inception_5b/3x3
I1215 10:43:36.511915  8310 net.cpp:380] inception_5b/output <- inception_5b/5x5
I1215 10:43:36.511920  8310 net.cpp:380] inception_5b/output <- inception_5b/pool_proj
I1215 10:43:36.511930  8310 net.cpp:338] inception_5b/output -> inception_5b/output
I1215 10:43:36.511955  8310 net.cpp:113] Setting up inception_5b/output
I1215 10:43:36.511962  8310 net.cpp:120] Top shape: 32 1024 7 7 (1605632)
I1215 10:43:36.511966  8310 layer_factory.hpp:74] Creating layer pool5/7x7_s1
I1215 10:43:36.511972  8310 net.cpp:84] Creating Layer pool5/7x7_s1
I1215 10:43:36.511978  8310 net.cpp:380] pool5/7x7_s1 <- inception_5b/output
I1215 10:43:36.511984  8310 net.cpp:338] pool5/7x7_s1 -> pool5/7x7_s1
I1215 10:43:36.511991  8310 net.cpp:113] Setting up pool5/7x7_s1
I1215 10:43:36.512051  8310 net.cpp:120] Top shape: 32 1024 1 1 (32768)
I1215 10:43:36.512058  8310 layer_factory.hpp:74] Creating layer pool5/drop_7x7_s1
I1215 10:43:36.512064  8310 net.cpp:84] Creating Layer pool5/drop_7x7_s1
I1215 10:43:36.512069  8310 net.cpp:380] pool5/drop_7x7_s1 <- pool5/7x7_s1
I1215 10:43:36.512074  8310 net.cpp:327] pool5/drop_7x7_s1 -> pool5/7x7_s1 (in-place)
I1215 10:43:36.512080  8310 net.cpp:113] Setting up pool5/drop_7x7_s1
I1215 10:43:36.512086  8310 net.cpp:120] Top shape: 32 1024 1 1 (32768)
I1215 10:43:36.512090  8310 layer_factory.hpp:74] Creating layer loss3/classifier_kaggle
I1215 10:43:36.512097  8310 net.cpp:84] Creating Layer loss3/classifier_kaggle
I1215 10:43:36.512101  8310 net.cpp:380] loss3/classifier_kaggle <- pool5/7x7_s1
I1215 10:43:36.512109  8310 net.cpp:338] loss3/classifier_kaggle -> loss3/classifier_kaggle
I1215 10:43:36.512115  8310 net.cpp:113] Setting up loss3/classifier_kaggle
I1215 10:43:36.516726  8310 net.cpp:120] Top shape: 32 447 (14304)
I1215 10:43:36.516738  8310 layer_factory.hpp:74] Creating layer loss3/loss3
I1215 10:43:36.516746  8310 net.cpp:84] Creating Layer loss3/loss3
I1215 10:43:36.516751  8310 net.cpp:380] loss3/loss3 <- loss3/classifier_kaggle
I1215 10:43:36.516755  8310 net.cpp:380] loss3/loss3 <- label_data_1_split_2
I1215 10:43:36.516762  8310 net.cpp:338] loss3/loss3 -> loss3/loss3
I1215 10:43:36.516767  8310 net.cpp:113] Setting up loss3/loss3
…
I1215 10:43:36.521467  8310 net.cpp:257] The NetState phase (1) differed from the phase (0) specified by a rule in layer data
I1215 10:43:36.522790  8310 net.cpp:42] Initializing net from parameters: 
name: "GoogleNet"
state {
  phase: TEST
}
layer {
  name: "data"
  type: "Data"
  top: "data"
  top: "label"
  include {
    phase: TEST
  }
  transform_param {
    mirror: false
    crop_size: 224
    mean_value: 104
    mean_value: 117
    mean_value: 123
  }
  data_param {
    source: "/home/coldmanck/kaggle/kaggle2_val_lmdb"
    batch_size: 50
    backend: LMDB
  }
}
layer {
  name: "conv1/7x7_s2"
  type: "Convolution"
  bottom: "data"
  top: "conv1/7x7_s2"
  param {
    lr_mult: 1
    decay_mult: 1
  }
  param {
    lr_mult: 2
    decay_mult: 0
  }
  convolution_param {
    num_output: 64
    pad: 3
    kernel_size: 7
    stride: 2
    weight_filler {
      type: "xavier"
      std: 0.1
    }
    bias_filler {
      type: "constant"
      value: 0.2
    }
  }
}
layer {
  name: "conv1/relu_7x7"
  type: "ReLU"
  bottom: "conv1/7x7_s2"
  top: "conv1/7x7_s2"
}
layer {
  name: "pool1/3x3_s2"
  type: "Pooling"
  bottom: "conv1/7x7_s2"
  top: "pool1/3x3_s2"
  pooling_param {
    pool: MAX
    kernel_size: 3
    stride: 2
  }
}
layer {
  name: "pool1/norm1"
  type: "LRN"
  bottom: "pool1/3x3_s2"
  top: "pool1/norm1"
  lrn_param {
    local_size: 5
    alpha: 0.0001
    beta: 0.75
  }
}
layer {
  name: "conv2/3x3_reduce"
  type: "Convolution"
  bottom: "pool1/norm1"
  top: "conv2/3x3_reduce"
  param {
    lr_mult: 1
    decay_mult: 1
  }
  param {
    lr_mult: 2
    decay_mult: 0
  }
  convolution_param {
    num_output: 64
    kernel_size: 1
    weight_filler {
      type: "xavier"
      std: 0.1
    }
    bias_filler {
      type: "constant"
      value: 0.2
    }
  }
}
layer {
  name: "conv2/relu_3x3_reduce"
  type: "ReLU"
  bottom: "conv2/3x3_reduce"
  top: "conv2/3x3_reduce"
}
layer {
  name: "conv2/3x3"
  type: "Convolution"
  bottom: "conv2/3x3_reduce"
  top: "conv2/3x3"
  param {
    lr_mult: 1
    decay_mult: 1
  }
  param {
    lr_mult: 2
    decay_mult: 0
  }
  convolution_param {
    num_output: 192
    pad: 1
    kernel_size: 3
    weight_filler {
      type: "xavier"
      std: 0.03
    }
    bias_filler {
      type: "constant"
      value: 0.2
    }
  }
}
layer {
  name: "conv2/relu_3x3"
  type: "ReLU"
  bottom: "conv2/3x3"
  top: "conv2/3x3"
}
layer {
  name: "conv2/norm2"
  type: "LRN"
  bottom: "conv2/3x3"
  top: "conv2/norm2"
  lrn_param {
    local_size: 5
    alpha: 0.0001
    beta: 0.75
  }
}
layer {
  name: "pool2/3x3_s2"
  type: "Pooling"
  bottom: "conv2/norm2"
  top: "pool2/3x3_s2"
  pooling_param {
    pool: MAX
    kernel_size: 3
    stride: 2
  }
}
layer {
  name: "inception_3a/1x1"
  type: "Convolution"
  bottom: "pool2/3x3_s2"
  top: "inception_3a/1x1"
  param {
    lr_mult: 1
    decay_mult: 1
  }
  param {
    lr_mult: 2
    decay_mult: 0
  }
  convolution_param {
    num_output: 64
    kernel_size: 1
    weight_filler {
      type: "xavier"
      std: 0.03
    }
    bias_filler {
      type: "constant"
      value: 0.2
    }
  }
}
layer {
  name: "inception_3a/relu_1x1"
  type: "ReLU"
  bottom: "inception_3a/1x1"
  top: "inception_3a/1x1"
}
layer {
  name: "inception_3a/3x3_reduce"
  type: "Convolution"
  bottom: "pool2/3x3_s2"
  top: "inception_3a/3x3_reduce"
  param {
    lr_mult: 1
    decay_mult: 1
  }
  param {
    lr_mult: 2
    decay_mult: 0
  }
  convolution_param {
    num_output: 96
    kernel_size: 1
    weight_filler {
      type: "xavier"
      std: 0.09
    }
    bias_filler {
      type: "constant"
      value: 0.2
    }
  }
}
layer {
  name: "inception_3a/relu_3x3_reduce"
  type: "ReLU"
  bottom: "inception_3a/3x3_reduce"
  top: "inception_3a/3x3_reduce"
}
layer {
  name: "inception_3a/3x3"
  type: "Convolution"
  bottom: "inception_3a/3x3_reduce"
  top: "inception_3a/3x3"
  param {
    lr_mult: 1
    decay_mult: 1
  }
  param {
    lr_mult: 2
    decay_mult: 0
  }
  convolution_param {
    num_output: 128
    pad: 1
    kernel_size: 3
    weight_filler {
      type: "xavier"
      std: 0.03
    }
    bias_filler {
      type: "constant"
      value: 0.2
    }
  }
}
layer {
  name: "inception_3a/relu_3x3"
  type: "ReLU"
  bottom: "inception_3a/3x3"
  top: "inception_3a/3x3"
}
layer {
  name: "inception_3a/5x5_reduce"
  type: "Convolution"
  bottom: "pool2/3x3_s2"
  top: "inception_3a/5x5_reduce"
  param {
    lr_mult: 1
    decay_mult: 1
  }
  param {
    lr_mult: 2
    decay_mult: 0
  }
  convolution_param {
    num_output: 16
    kernel_size: 1
    weight_filler {
      type: "xavier"
      std: 0.2
    }
    bias_filler {
      type: "constant"
      value: 0.2
    }
  }
}
layer {
  name: "inception_3a/relu_5x5_reduce"
  type: "ReLU"
  bottom: "inception_3a/5x5_reduce"
  top: "inception_3a/5x5_reduce"
}
layer {
  name: "inception_3a/5x5"
  type: "Convolution"
  bottom: "inception_3a/5x5_reduce"
  top: "inception_3a/5x5"
  param {
    lr_mult: 1
    decay_mult: 1
  }
  param {
    lr_mult: 2
    decay_mult: 0
  }
  convolution_param {
    num_output: 32
    pad: 2
    kernel_size: 5
    weight_filler {
      type: "xavier"
      std: 0.03
    }
    bias_filler {
      type: "constant"
      value: 0.2
    }
  }
}
layer {
  name: "inception_3a/relu_5x5"
  type: "ReLU"
  bottom: "inception_3a/5x5"
  top: "inception_3a/5x5"
}
layer {
  name: "inception_3a/pool"
  type: "Pooling"
  bottom: "pool2/3x3_s2"
  top: "inception_3a/pool"
  pooling_param {
    pool: MAX
    kernel_size: 3
    stride: 1
    pad: 1
  }
}
layer {
  name: "inception_3a/pool_proj"
  type: "Convolution"
  bottom: "inception_3a/pool"
  top: "inception_3a/pool_proj"
  param {
    lr_mult: 1
    decay_mult: 1
  }
  param {
    lr_mult: 2
    decay_mult: 0
  }
  convolution_param {
    num_output: 32
    kernel_size: 1
    weight_filler {
      type: "xavier"
      std: 0.1
    }
    bias_filler {
      type: "constant"
      value: 0.2
    }
  }
}
layer {
  name: "inception_3a/relu_pool_proj"
  type: "ReLU"
  bottom: "inception_3a/pool_proj"
  top: "inception_3a/pool_proj"
}
layer {
  name: "inception_3a/output"
  type: "Concat"
  bottom: "inception_3a/1x1"
  bottom: "inception_3a/3x3"
  bottom: "inception_3a/5x5"
  bottom: "inception_3a/pool_proj"
  top: "inception_3a/output"
}
layer {
  name: "inception_3b/1x1"
  type: "Convolution"
  bottom: "inception_3a/output"
  top: "inception_3b/1x1"
  param {
    lr_mult: 1
    decay_mult: 1
  }
  param {
    lr_mult: 2
    decay_mult: 0
  }
  convolution_param {
    num_output: 128
    kernel_size: 1
    weight_filler {
      type: "xavier"
      std: 0.03
    }
    bias_filler {
      type: "constant"
      value: 0.2
    }
  }
}
layer {
  name: "inception_3b/relu_1x1"
  type: "ReLU"
  bottom: "inception_3b/1x1"
  top: "inception_3b/1x1"
}
layer {
  name: "inception_3b/3x3_reduce"
  type: "Convolution"
  bottom: "inception_3a/output"
  top: "inception_3b/3x3_reduce"
  param {
    lr_mult: 1
    decay_mult: 1
  }
  param {
    lr_mult: 2
    decay_mult: 0
  }
  convolution_param {
    num_output: 128
    kernel_size: 1
    weight_filler {
      type: "xavier"
      std: 0.09
    }
    bias_filler {
      type: "constant"
      value: 0.2
    }
  }
}
layer {
  name: "inception_3b/relu_3x3_reduce"
  type: "ReLU"
  bottom: "inception_3b/3x3_reduce"
  top: "inception_3b/3x3_reduce"
}
layer {
  name: "inception_3b/3x3"
  type: "Convolution"
  bottom: "inception_3b/3x3_reduce"
  top: "inception_3b/3x3"
  param {
    lr_mult: 1
    decay_mult: 1
  }
  param {
    lr_mult: 2
    decay_mult: 0
  }
  convolution_param {
    num_output: 192
    pad: 1
    kernel_size: 3
    weight_filler {
      type: "xavier"
      std: 0.03
    }
    bias_filler {
      type: "constant"
      value: 0.2
    }
  }
}
layer {
  name: "inception_3b/relu_3x3"
  type: "ReLU"
  bottom: "inception_3b/3x3"
  top: "inception_3b/3x3"
}
layer {
  name: "inception_3b/5x5_reduce"
  type: "Convolution"
  bottom: "inception_3a/output"
  top: "inception_3b/5x5_reduce"
  param {
    lr_mult: 1
    decay_mult: 1
  }
  param {
    lr_mult: 2
    decay_mult: 0
  }
  convolution_param {
    num_output: 32
    kernel_size: 1
    weight_filler {
      type: "xavier"
      std: 0.2
    }
    bias_filler {
      type: "constant"
      value: 0.2
    }
  }
}
layer {
  name: "inception_3b/relu_5x5_reduce"
  type: "ReLU"
  bottom: "inception_3b/5x5_reduce"
  top: "inception_3b/5x5_reduce"
}
layer {
  name: "inception_3b/5x5"
  type: "Convolution"
  bottom: "inception_3b/5x5_reduce"
  top: "inception_3b/5x5"
  param {
    lr_mult: 1
    decay_mult: 1
  }
  param {
    lr_mult: 2
    decay_mult: 0
  }
  convolution_param {
    num_output: 96
    pad: 2
    kernel_size: 5
    weight_filler {
      type: "xavier"
      std: 0.03
    }
    bias_filler {
      type: "constant"
      value: 0.2
    }
  }
}
layer {
  name: "inception_3b/relu_5x5"
  type: "ReLU"
  bottom: "inception_3b/5x5"
  top: "inception_3b/5x5"
}
layer {
  name: "inception_3b/pool"
  type: "Pooling"
  bottom: "inception_3a/output"
  top: "inception_3b/pool"
  pooling_param {
    pool: MAX
    kernel_size: 3
    stride: 1
    pad: 1
  }
}
layer {
  name: "inception_3b/pool_proj"
  type: "Convolution"
  bottom: "inception_3b/pool"
  top: "inception_3b/pool_proj"
  param {
    lr_mult: 1
    decay_mult: 1
  }
  param {
    lr_mult: 2
    decay_mult: 0
  }
  convolution_param {
    num_output: 64
    kernel_size: 1
    weight_filler {
      type: "xavier"
      std: 0.1
    }
    bias_filler {
      type: "constant"
      value: 0.2
    }
  }
}
layer {
  name: "inception_3b/relu_pool_proj"
  type: "ReLU"
  bottom: "inception_3b/pool_proj"
  top: "inception_3b/pool_proj"
}
layer {
  name: "inception_3b/output"
  type: "Concat"
  bottom: "inception_3b/1x1"
  bottom: "inception_3b/3x3"
  bottom: "inception_3b/5x5"
  bottom: "inception_3b/pool_proj"
  top: "inception_3b/output"
}
layer {
  name: "pool3/3x3_s2"
  type: "Pooling"
  bottom: "inception_3b/output"
  top: "pool3/3x3_s2"
  pooling_param {
    pool: MAX
    kernel_size: 3
    stride: 2
  }
}
layer {
  name: "inception_4a/1x1"
  type: "Convolution"
  bottom: "pool3/3x3_s2"
  top: "inception_4a/1x1"
  param {
    lr_mult: 1
    decay_mult: 1
  }
  param {
    lr_mult: 2
    decay_mult: 0
  }
  convolution_param {
    num_output: 192
    kernel_size: 1
    weight_filler {
      type: "xavier"
      std: 0.03
    }
    bias_filler {
      type: "constant"
      value: 0.2
    }
  }
}
layer {
  name: "inception_4a/relu_1x1"
  type: "ReLU"
  bottom: "inception_4a/1x1"
  top: "inception_4a/1x1"
}
layer {
  name: "inception_4a/3x3_reduce"
  type: "Convolution"
  bottom: "pool3/3x3_s2"
  top: "inception_4a/3x3_reduce"
  param {
    lr_mult: 1
    decay_mult: 1
  }
  param {
    lr_mult: 2
    decay_mult: 0
  }
  convolution_param {
    num_output: 96
    kernel_size: 1
    weight_filler {
      type: "xavier"
      std: 0.09
    }
    bias_filler {
      type: "constant"
      value: 0.2
    }
  }
}
layer {
  name: "inception_4a/relu_3x3_reduce"
  type: "ReLU"
  bottom: "inception_4a/3x3_reduce"
  top: "inception_4a/3x3_reduce"
}
layer {
  name: "inception_4a/3x3"
  type: "Convolution"
  bottom: "inception_4a/3x3_reduce"
  top: "inception_4a/3x3"
  param {
    lr_mult: 1
    decay_mult: 1
  }
  param {
    lr_mult: 2
    decay_mult: 0
  }
  convolution_param {
    num_output: 208
    pad: 1
    kernel_size: 3
    weight_filler {
      type: "xavier"
      std: 0.03
    }
    bias_filler {
      type: "constant"
      value: 0.2
    }
  }
}
layer {
  name: "inception_4a/relu_3x3"
  type: "ReLU"
  bottom: "inception_4a/3x3"
  top: "inception_4a/3x3"
}
layer {
  name: "inception_4a/5x5_reduce"
  type: "Convolution"
  bottom: "pool3/3x3_s2"
  top: "inception_4a/5x5_reduce"
  param {
    lr_mult: 1
    decay_mult: 1
  }
  param {
    lr_mult: 2
    decay_mult: 0
  }
  convolution_param {
    num_output: 16
    kernel_size: 1
    weight_filler {
      type: "xavier"
      std: 0.2
    }
    bias_filler {
      type: "constant"
      value: 0.2
    }
  }
}
layer {
  name: "inception_4a/relu_5x5_reduce"
  type: "ReLU"
  bottom: "inception_4a/5x5_reduce"
  top: "inception_4a/5x5_reduce"
}
layer {
  name: "inception_4a/5x5"
  type: "Convolution"
  bottom: "inception_4a/5x5_reduce"
  top: "inception_4a/5x5"
  param {
    lr_mult: 1
    decay_mult: 1
  }
  param {
    lr_mult: 2
    decay_mult: 0
  }
  convolution_param {
    num_output: 48
    pad: 2
    kernel_size: 5
    weight_filler {
      type: "xavier"
      std: 0.03
    }
    bias_filler {
      type: "constant"
      value: 0.2
    }
  }
}
layer {
  name: "inception_4a/relu_5x5"
  type: "ReLU"
  bottom: "inception_4a/5x5"
  top: "inception_4a/5x5"
}
layer {
  name: "inception_4a/pool"
  type: "Pooling"
  bottom: "pool3/3x3_s2"
  top: "inception_4a/pool"
  pooling_param {
    pool: MAX
    kernel_size: 3
    stride: 1
    pad: 1
  }
}
layer {
  name: "inception_4a/pool_proj"
  type: "Convolution"
  bottom: "inception_4a/pool"
  top: "inception_4a/pool_proj"
  param {
    lr_mult: 1
    decay_mult: 1
  }
  param {
    lr_mult: 2
    decay_mult: 0
  }
  convolution_param {
    num_output: 64
    kernel_size: 1
    weight_filler {
      type: "xavier"
      std: 0.1
    }
    bias_filler {
      type: "constant"
      value: 0.2
    }
  }
}
layer {
  name: "inception_4a/relu_pool_proj"
  type: "ReLU"
  bottom: "inception_4a/pool_proj"
  top: "inception_4a/pool_proj"
}
layer {
  name: "inception_4a/output"
  type: "Concat"
  bottom: "inception_4a/1x1"
  bottom: "inception_4a/3x3"
  bottom: "inception_4a/5x5"
  bottom: "inception_4a/pool_proj"
  top: "inception_4a/output"
}
layer {
  name: "loss1/ave_pool"
  type: "Pooling"
  bottom: "inception_4a/output"
  top: "loss1/ave_pool"
  pooling_param {
    pool: AVE
    kernel_size: 5
    stride: 3
  }
}
layer {
  name: "loss1/conv"
  type: "Convolution"
  bottom: "loss1/ave_pool"
  top: "loss1/conv"
  param {
    lr_mult: 1
    decay_mult: 1
  }
  param {
    lr_mult: 2
    decay_mult: 0
  }
  convolution_param {
    num_output: 128
    kernel_size: 1
    weight_filler {
      type: "xavier"
      std: 0.08
    }
    bias_filler {
      type: "constant"
      value: 0.2
    }
  }
}
layer {
  name: "loss1/relu_conv"
  type: "ReLU"
  bottom: "loss1/conv"
  top: "loss1/conv"
}
layer {
  name: "loss1/fc"
  type: "InnerProduct"
  bottom: "loss1/conv"
  top: "loss1/fc"
  param {
    lr_mult: 1
    decay_mult: 1
  }
  param {
    lr_mult: 2
    decay_mult: 0
  }
  inner_product_param {
    num_output: 1024
    weight_filler {
      type: "xavier"
      std: 0.02
    }
    bias_filler {
      type: "constant"
      value: 0.2
    }
  }
}
layer {
  name: "loss1/relu_fc"
  type: "ReLU"
  bottom: "loss1/fc"
  top: "loss1/fc"
}
layer {
  name: "loss1/drop_fc"
  type: "Dropout"
  bottom: "loss1/fc"
  top: "loss1/fc"
  dropout_param {
    dropout_ratio: 0.7
  }
}
layer {
  name: "loss1/classifier_kaggle"
  type: "InnerProduct"
  bottom: "loss1/fc"
  top: "loss1/classifier_kaggle"
  param {
    lr_mult: 1
    decay_mult: 1
  }
  param {
    lr_mult: 2
    decay_mult: 0
  }
  inner_product_param {
    num_output: 447
    weight_filler {
      type: "xavier"
      std: 0.0009765625
    }
    bias_filler {
      type: "constant"
      value: 0
    }
  }
}
layer {
  name: "loss1/loss"
  type: "SoftmaxWithLoss"
  bottom: "loss1/classifier_kaggle"
  bottom: "label"
  top: "loss1/loss1"
  loss_weight: 0.3
}
layer {
  name: "loss1/top-1"
  type: "Accuracy"
  bottom: "loss1/classifier_kaggle"
  bottom: "label"
  top: "loss1/top-1"
  include {
    phase: TEST
  }
}
layer {
  name: "loss1/top-5"
  type: "Accuracy"
  bottom: "loss1/classifier_kaggle"
  bottom: "label"
  top: "loss1/top-5"
  include {
    phase: TEST
  }
  accuracy_param {
    top_k: 5
  }
}
layer {
  name: "inception_4b/1x1"
  type: "Convolution"
  bottom: "inception_4a/output"
  top: "inception_4b/1x1"
  param {
    lr_mult: 1
    decay_mult: 1
  }
  param {
    lr_mult: 2
    decay_mult: 0
  }
  convolution_param {
    num_output: 160
    kernel_size: 1
    weight_filler {
      type: "xavier"
      std: 0.03
    }
    bias_filler {
      type: "constant"
      value: 0.2
    }
  }
}
layer {
  name: "inception_4b/relu_1x1"
  type: "ReLU"
  bottom: "inception_4b/1x1"
  top: "inception_4b/1x1"
}
layer {
  name: "inception_4b/3x3_reduce"
  type: "Convolution"
  bottom: "inception_4a/output"
  top: "inception_4b/3x3_reduce"
  param {
    lr_mult: 1
    decay_mult: 1
  }
  param {
    lr_mult: 2
    decay_mult: 0
  }
  convolution_param {
    num_output: 112
    kernel_size: 1
    weight_filler {
      type: "xavier"
      std: 0.09
    }
    bias_filler {
      type: "constant"
      value: 0.2
    }
  }
}
layer {
  name: "inception_4b/relu_3x3_reduce"
  type: "ReLU"
  bottom: "inception_4b/3x3_reduce"
  top: "inception_4b/3x3_reduce"
}
layer {
  name: "inception_4b/3x3"
  type: "Convolution"
  bottom: "inception_4b/3x3_reduce"
  top: "inception_4b/3x3"
  param {
    lr_mult: 1
    decay_mult: 1
  }
  param {
    lr_mult: 2
    decay_mult: 0
  }
  convolution_param {
    num_output: 224
    pad: 1
    kernel_size: 3
    weight_filler {
      type: "xavier"
      std: 0.03
    }
    bias_filler {
      type: "constant"
      value: 0.2
    }
  }
}
layer {
  name: "inception_4b/relu_3x3"
  type: "ReLU"
  bottom: "inception_4b/3x3"
  top: "inception_4b/3x3"
}
layer {
  name: "inception_4b/5x5_reduce"
  type: "Convolution"
  bottom: "inception_4a/output"
  top: "inception_4b/5x5_reduce"
  param {
    lr_mult: 1
    decay_mult: 1
  }
  param {
    lr_mult: 2
    decay_mult: 0
  }
  convolution_param {
    num_output: 24
    kernel_size: 1
    weight_filler {
      type: "xavier"
      std: 0.2
    }
    bias_filler {
      type: "constant"
      value: 0.2
    }
  }
}
layer {
  name: "inception_4b/relu_5x5_reduce"
  type: "ReLU"
  bottom: "inception_4b/5x5_reduce"
  top: "inception_4b/5x5_reduce"
}
layer {
  name: "inception_4b/5x5"
  type: "Convolution"
  bottom: "inception_4b/5x5_reduce"
  top: "inception_4b/5x5"
  param {
    lr_mult: 1
    decay_mult: 1
  }
  param {
    lr_mult: 2
    decay_mult: 0
  }
  convolution_param {
    num_output: 64
    pad: 2
    kernel_size: 5
    weight_filler {
      type: "xavier"
      std: 0.03
    }
    bias_filler {
      type: "constant"
      value: 0.2
    }
  }
}
layer {
  name: "inception_4b/relu_5x5"
  type: "ReLU"
  bottom: "inception_4b/5x5"
  top: "inception_4b/5x5"
}
layer {
  name: "inception_4b/pool"
  type: "Pooling"
  bottom: "inception_4a/output"
  top: "inception_4b/pool"
  pooling_param {
    pool: MAX
    kernel_size: 3
    stride: 1
    pad: 1
  }
}
layer {
  name: "inception_4b/pool_proj"
  type: "Convolution"
  bottom: "inception_4b/pool"
  top: "inception_4b/pool_proj"
  param {
    lr_mult: 1
    decay_mult: 1
  }
  param {
    lr_mult: 2
    decay_mult: 0
  }
  convolution_param {
    num_output: 64
    kernel_size: 1
    weight_filler {
      type: "xavier"
      std: 0.1
    }
    bias_filler {
      type: "constant"
      value: 0.2
    }
  }
}
layer {
  name: "inception_4b/relu_pool_proj"
  type: "ReLU"
  bottom: "inception_4b/pool_proj"
  top: "inception_4b/pool_proj"
}
layer {
  name: "inception_4b/output"
  type: "Concat"
  bottom: "inception_4b/1x1"
  bottom: "inception_4b/3x3"
  bottom: "inception_4b/5x5"
  bottom: "inception_4b/pool_proj"
  top: "inception_4b/output"
}
layer {
  name: "inception_4c/1x1"
  type: "Convolution"
  bottom: "inception_4b/output"
  top: "inception_4c/1x1"
  param {
    lr_mult: 1
    decay_mult: 1
  }
  param {
    lr_mult: 2
    decay_mult: 0
  }
  convolution_param {
    num_output: 128
    kernel_size: 1
    weight_filler {
      type: "xavier"
      std: 0.03
    }
    bias_filler {
      type: "constant"
      value: 0.2
    }
  }
}
layer {
  name: "inception_4c/relu_1x1"
  type: "ReLU"
  bottom: "inception_4c/1x1"
  top: "inception_4c/1x1"
}
layer {
  name: "inception_4c/3x3_reduce"
  type: "Convolution"
  bottom: "inception_4b/output"
  top: "inception_4c/3x3_reduce"
  param {
    lr_mult: 1
    decay_mult: 1
  }
  param {
    lr_mult: 2
    decay_mult: 0
  }
  convolution_param {
    num_output: 128
    kernel_size: 1
    weight_filler {
      type: "xavier"
      std: 0.09
    }
    bias_filler {
      type: "constant"
      value: 0.2
    }
  }
}
layer {
  name: "inception_4c/relu_3x3_reduce"
  type: "ReLU"
  bottom: "inception_4c/3x3_reduce"
  top: "inception_4c/3x3_reduce"
}
layer {
  name: "inception_4c/3x3"
  type: "Convolution"
  bottom: "inception_4c/3x3_reduce"
  top: "inception_4c/3x3"
  param {
    lr_mult: 1
    decay_mult: 1
  }
  param {
    lr_mult: 2
    decay_mult: 0
  }
  convolution_param {
    num_output: 256
    pad: 1
    kernel_size: 3
    weight_filler {
      type: "xavier"
      std: 0.03
    }
    bias_filler {
      type: "constant"
      value: 0.2
    }
  }
}
layer {
  name: "inception_4c/relu_3x3"
  type: "ReLU"
  bottom: "inception_4c/3x3"
  top: "inception_4c/3x3"
}
layer {
  name: "inception_4c/5x5_reduce"
  type: "Convolution"
  bottom: "inception_4b/output"
  top: "inception_4c/5x5_reduce"
  param {
    lr_mult: 1
    decay_mult: 1
  }
  param {
    lr_mult: 2
    decay_mult: 0
  }
  convolution_param {
    num_output: 24
    kernel_size: 1
    weight_filler {
      type: "xavier"
      std: 0.2
    }
    bias_filler {
      type: "constant"
      value: 0.2
    }
  }
}
layer {
  name: "inception_4c/relu_5x5_reduce"
  type: "ReLU"
  bottom: "inception_4c/5x5_reduce"
  top: "inception_4c/5x5_reduce"
}
layer {
  name: "inception_4c/5x5"
  type: "Convolution"
  bottom: "inception_4c/5x5_reduce"
  top: "inception_4c/5x5"
  param {
    lr_mult: 1
    decay_mult: 1
  }
  param {
    lr_mult: 2
    decay_mult: 0
  }
  convolution_param {
    num_output: 64
    pad: 2
    kernel_size: 5
    weight_filler {
      type: "xavier"
      std: 0.03
    }
    bias_filler {
      type: "constant"
      value: 0.2
    }
  }
}
layer {
  name: "inception_4c/relu_5x5"
  type: "ReLU"
  bottom: "inception_4c/5x5"
  top: "inception_4c/5x5"
}
layer {
  name: "inception_4c/pool"
  type: "Pooling"
  bottom: "inception_4b/output"
  top: "inception_4c/pool"
  pooling_param {
    pool: MAX
    kernel_size: 3
    stride: 1
    pad: 1
  }
}
layer {
  name: "inception_4c/pool_proj"
  type: "Convolution"
  bottom: "inception_4c/pool"
  top: "inception_4c/pool_proj"
  param {
    lr_mult: 1
    decay_mult: 1
  }
  param {
    lr_mult: 2
    decay_mult: 0
  }
  convolution_param {
    num_output: 64
    kernel_size: 1
    weight_filler {
      type: "xavier"
      std: 0.1
    }
    bias_filler {
      type: "constant"
      value: 0.2
    }
  }
}
layer {
  name: "inception_4c/relu_pool_proj"
  type: "ReLU"
  bottom: "inception_4c/pool_proj"
  top: "inception_4c/pool_proj"
}
layer {
  name: "inception_4c/output"
  type: "Concat"
  bottom: "inception_4c/1x1"
  bottom: "inception_4c/3x3"
  bottom: "inception_4c/5x5"
  bottom: "inception_4c/pool_proj"
  top: "inception_4c/output"
}
layer {
  name: "inception_4d/1x1"
  type: "Convolution"
  bottom: "inception_4c/output"
  top: "inception_4d/1x1"
  param {
    lr_mult: 1
    decay_mult: 1
  }
  param {
    lr_mult: 2
    decay_mult: 0
  }
  convolution_param {
    num_output: 112
    kernel_size: 1
    weight_filler {
      type: "xavier"
      std: 0.03
    }
    bias_filler {
      type: "constant"
      value: 0.2
    }
  }
}
layer {
  name: "inception_4d/relu_1x1"
  type: "ReLU"
  bottom: "inception_4d/1x1"
  top: "inception_4d/1x1"
}
layer {
  name: "inception_4d/3x3_reduce"
  type: "Convolution"
  bottom: "inception_4c/output"
  top: "inception_4d/3x3_reduce"
  param {
    lr_mult: 1
    decay_mult: 1
  }
  param {
    lr_mult: 2
    decay_mult: 0
  }
  convolution_param {
    num_output: 144
    kernel_size: 1
    weight_filler {
      type: "xavier"
      std: 0.09
    }
    bias_filler {
      type: "constant"
      value: 0.2
    }
  }
}
layer {
  name: "inception_4d/relu_3x3_reduce"
  type: "ReLU"
  bottom: "inception_4d/3x3_reduce"
  top: "inception_4d/3x3_reduce"
}
layer {
  name: "inception_4d/3x3"
  type: "Convolution"
  bottom: "inception_4d/3x3_reduce"
  top: "inception_4d/3x3"
  param {
    lr_mult: 1
    decay_mult: 1
  }
  param {
    lr_mult: 2
    decay_mult: 0
  }
  convolution_param {
    num_output: 288
    pad: 1
    kernel_size: 3
    weight_filler {
      type: "xavier"
      std: 0.03
    }
    bias_filler {
      type: "constant"
      value: 0.2
    }
  }
}
layer {
  name: "inception_4d/relu_3x3"
  type: "ReLU"
  bottom: "inception_4d/3x3"
  top: "inception_4d/3x3"
}
layer {
  name: "inception_4d/5x5_reduce"
  type: "Convolution"
  bottom: "inception_4c/output"
  top: "inception_4d/5x5_reduce"
  param {
    lr_mult: 1
    decay_mult: 1
  }
  param {
    lr_mult: 2
    decay_mult: 0
  }
  convolution_param {
    num_output: 32
    kernel_size: 1
    weight_filler {
      type: "xavier"
      std: 0.2
    }
    bias_filler {
      type: "constant"
      value: 0.2
    }
  }
}
layer {
  name: "inception_4d/relu_5x5_reduce"
  type: "ReLU"
  bottom: "inception_4d/5x5_reduce"
  top: "inception_4d/5x5_reduce"
}
layer {
  name: "inception_4d/5x5"
  type: "Convolution"
  bottom: "inception_4d/5x5_reduce"
  top: "inception_4d/5x5"
  param {
    lr_mult: 1
    decay_mult: 1
  }
  param {
    lr_mult: 2
    decay_mult: 0
  }
  convolution_param {
    num_output: 64
    pad: 2
    kernel_size: 5
    weight_filler {
      type: "xavier"
      std: 0.03
    }
    bias_filler {
      type: "constant"
      value: 0.2
    }
  }
}
layer {
  name: "inception_4d/relu_5x5"
  type: "ReLU"
  bottom: "inception_4d/5x5"
  top: "inception_4d/5x5"
}
layer {
  name: "inception_4d/pool"
  type: "Pooling"
  bottom: "inception_4c/output"
  top: "inception_4d/pool"
  pooling_param {
    pool: MAX
    kernel_size: 3
    stride: 1
    pad: 1
  }
}
layer {
  name: "inception_4d/pool_proj"
  type: "Convolution"
  bottom: "inception_4d/pool"
  top: "inception_4d/pool_proj"
  param {
    lr_mult: 1
    decay_mult: 1
  }
  param {
    lr_mult: 2
    decay_mult: 0
  }
  convolution_param {
    num_output: 64
    kernel_size: 1
    weight_filler {
      type: "xavier"
      std: 0.1
    }
    bias_filler {
      type: "constant"
      value: 0.2
    }
  }
}
layer {
  name: "inception_4d/relu_pool_proj"
  type: "ReLU"
  bottom: "inception_4d/pool_proj"
  top: "inception_4d/pool_proj"
}
layer {
…
I1215 10:43:36.604223  8310 net.cpp:84] Creating Layer inception_4c/1x1
I1215 10:43:36.604228  8310 net.cpp:380] inception_4c/1x1 <- inception_4b/output_inception_4b/output_0_split_0
I1215 10:43:36.604233  8310 net.cpp:338] inception_4c/1x1 -> inception_4c/1x1
I1215 10:43:36.604240  8310 net.cpp:113] Setting up inception_4c/1x1
I1215 10:43:36.605922  8310 net.cpp:120] Top shape: 50 128 14 14 (1254400)
I1215 10:43:36.605937  8310 layer_factory.hpp:74] Creating layer inception_4c/relu_1x1
I1215 10:43:36.605943  8310 net.cpp:84] Creating Layer inception_4c/relu_1x1
I1215 10:43:36.605948  8310 net.cpp:380] inception_4c/relu_1x1 <- inception_4c/1x1
I1215 10:43:36.605957  8310 net.cpp:327] inception_4c/relu_1x1 -> inception_4c/1x1 (in-place)
I1215 10:43:36.605963  8310 net.cpp:113] Setting up inception_4c/relu_1x1
I1215 10:43:36.606551  8310 net.cpp:120] Top shape: 50 128 14 14 (1254400)
I1215 10:43:36.606564  8310 layer_factory.hpp:74] Creating layer inception_4c/3x3_reduce
I1215 10:43:36.606571  8310 net.cpp:84] Creating Layer inception_4c/3x3_reduce
I1215 10:43:36.606578  8310 net.cpp:380] inception_4c/3x3_reduce <- inception_4b/output_inception_4b/output_0_split_1
I1215 10:43:36.606585  8310 net.cpp:338] inception_4c/3x3_reduce -> inception_4c/3x3_reduce
I1215 10:43:36.606597  8310 net.cpp:113] Setting up inception_4c/3x3_reduce
I1215 10:43:36.608218  8310 net.cpp:120] Top shape: 50 128 14 14 (1254400)
I1215 10:43:36.608233  8310 layer_factory.hpp:74] Creating layer inception_4c/relu_3x3_reduce
I1215 10:43:36.608239  8310 net.cpp:84] Creating Layer inception_4c/relu_3x3_reduce
I1215 10:43:36.608244  8310 net.cpp:380] inception_4c/relu_3x3_reduce <- inception_4c/3x3_reduce
I1215 10:43:36.608253  8310 net.cpp:327] inception_4c/relu_3x3_reduce -> inception_4c/3x3_reduce (in-place)
I1215 10:43:36.608259  8310 net.cpp:113] Setting up inception_4c/relu_3x3_reduce
I1215 10:43:36.608321  8310 net.cpp:120] Top shape: 50 128 14 14 (1254400)
I1215 10:43:36.608326  8310 layer_factory.hpp:74] Creating layer inception_4c/3x3
I1215 10:43:36.608336  8310 net.cpp:84] Creating Layer inception_4c/3x3
I1215 10:43:36.608341  8310 net.cpp:380] inception_4c/3x3 <- inception_4c/3x3_reduce
I1215 10:43:36.608348  8310 net.cpp:338] inception_4c/3x3 -> inception_4c/3x3
I1215 10:43:36.608355  8310 net.cpp:113] Setting up inception_4c/3x3
I1215 10:43:36.612125  8310 net.cpp:120] Top shape: 50 256 14 14 (2508800)
I1215 10:43:36.612149  8310 layer_factory.hpp:74] Creating layer inception_4c/relu_3x3
I1215 10:43:36.612157  8310 net.cpp:84] Creating Layer inception_4c/relu_3x3
I1215 10:43:36.612162  8310 net.cpp:380] inception_4c/relu_3x3 <- inception_4c/3x3
I1215 10:43:36.612169  8310 net.cpp:327] inception_4c/relu_3x3 -> inception_4c/3x3 (in-place)
I1215 10:43:36.612175  8310 net.cpp:113] Setting up inception_4c/relu_3x3
I1215 10:43:36.612238  8310 net.cpp:120] Top shape: 50 256 14 14 (2508800)
I1215 10:43:36.612244  8310 layer_factory.hpp:74] Creating layer inception_4c/5x5_reduce
I1215 10:43:36.612251  8310 net.cpp:84] Creating Layer inception_4c/5x5_reduce
I1215 10:43:36.612256  8310 net.cpp:380] inception_4c/5x5_reduce <- inception_4b/output_inception_4b/output_0_split_2
I1215 10:43:36.612263  8310 net.cpp:338] inception_4c/5x5_reduce -> inception_4c/5x5_reduce
I1215 10:43:36.612272  8310 net.cpp:113] Setting up inception_4c/5x5_reduce
I1215 10:43:36.613273  8310 net.cpp:120] Top shape: 50 24 14 14 (235200)
I1215 10:43:36.613288  8310 layer_factory.hpp:74] Creating layer inception_4c/relu_5x5_reduce
I1215 10:43:36.613296  8310 net.cpp:84] Creating Layer inception_4c/relu_5x5_reduce
I1215 10:43:36.613301  8310 net.cpp:380] inception_4c/relu_5x5_reduce <- inception_4c/5x5_reduce
I1215 10:43:36.613306  8310 net.cpp:327] inception_4c/relu_5x5_reduce -> inception_4c/5x5_reduce (in-place)
I1215 10:43:36.613313  8310 net.cpp:113] Setting up inception_4c/relu_5x5_reduce
I1215 10:43:36.615322  8310 net.cpp:120] Top shape: 50 24 14 14 (235200)
I1215 10:43:36.615332  8310 layer_factory.hpp:74] Creating layer inception_4c/5x5
I1215 10:43:36.615342  8310 net.cpp:84] Creating Layer inception_4c/5x5
I1215 10:43:36.615347  8310 net.cpp:380] inception_4c/5x5 <- inception_4c/5x5_reduce
I1215 10:43:36.615355  8310 net.cpp:338] inception_4c/5x5 -> inception_4c/5x5
I1215 10:43:36.615365  8310 net.cpp:113] Setting up inception_4c/5x5
I1215 10:43:36.616919  8310 net.cpp:120] Top shape: 50 64 14 14 (627200)
I1215 10:43:36.616932  8310 layer_factory.hpp:74] Creating layer inception_4c/relu_5x5
I1215 10:43:36.616941  8310 net.cpp:84] Creating Layer inception_4c/relu_5x5
I1215 10:43:36.616946  8310 net.cpp:380] inception_4c/relu_5x5 <- inception_4c/5x5
I1215 10:43:36.616952  8310 net.cpp:327] inception_4c/relu_5x5 -> inception_4c/5x5 (in-place)
I1215 10:43:36.616958  8310 net.cpp:113] Setting up inception_4c/relu_5x5
I1215 10:43:36.617020  8310 net.cpp:120] Top shape: 50 64 14 14 (627200)
I1215 10:43:36.617027  8310 layer_factory.hpp:74] Creating layer inception_4c/pool
I1215 10:43:36.617033  8310 layer_factory.cpp:56] CUDNN does not support padding or multiple tops. Using Caffe's own pooling layer.
I1215 10:43:36.617038  8310 net.cpp:84] Creating Layer inception_4c/pool
I1215 10:43:36.617043  8310 net.cpp:380] inception_4c/pool <- inception_4b/output_inception_4b/output_0_split_3
I1215 10:43:36.617050  8310 net.cpp:338] inception_4c/pool -> inception_4c/pool
I1215 10:43:36.617080  8310 net.cpp:113] Setting up inception_4c/pool
I1215 10:43:36.617089  8310 net.cpp:120] Top shape: 50 512 14 14 (5017600)
I1215 10:43:36.617094  8310 layer_factory.hpp:74] Creating layer inception_4c/pool_proj
I1215 10:43:36.617100  8310 net.cpp:84] Creating Layer inception_4c/pool_proj
I1215 10:43:36.617105  8310 net.cpp:380] inception_4c/pool_proj <- inception_4c/pool
I1215 10:43:36.617112  8310 net.cpp:338] inception_4c/pool_proj -> inception_4c/pool_proj
I1215 10:43:36.617120  8310 net.cpp:113] Setting up inception_4c/pool_proj
I1215 10:43:36.618366  8310 net.cpp:120] Top shape: 50 64 14 14 (627200)
I1215 10:43:36.618381  8310 layer_factory.hpp:74] Creating layer inception_4c/relu_pool_proj
I1215 10:43:36.618387  8310 net.cpp:84] Creating Layer inception_4c/relu_pool_proj
I1215 10:43:36.618392  8310 net.cpp:380] inception_4c/relu_pool_proj <- inception_4c/pool_proj
I1215 10:43:36.618398  8310 net.cpp:327] inception_4c/relu_pool_proj -> inception_4c/pool_proj (in-place)
I1215 10:43:36.618404  8310 net.cpp:113] Setting up inception_4c/relu_pool_proj
I1215 10:43:36.618466  8310 net.cpp:120] Top shape: 50 64 14 14 (627200)
I1215 10:43:36.618473  8310 layer_factory.hpp:74] Creating layer inception_4c/output
I1215 10:43:36.618479  8310 net.cpp:84] Creating Layer inception_4c/output
I1215 10:43:36.618482  8310 net.cpp:380] inception_4c/output <- inception_4c/1x1
I1215 10:43:36.618487  8310 net.cpp:380] inception_4c/output <- inception_4c/3x3
I1215 10:43:36.618492  8310 net.cpp:380] inception_4c/output <- inception_4c/5x5
I1215 10:43:36.618497  8310 net.cpp:380] inception_4c/output <- inception_4c/pool_proj
I1215 10:43:36.618502  8310 net.cpp:338] inception_4c/output -> inception_4c/output
I1215 10:43:36.618510  8310 net.cpp:113] Setting up inception_4c/output
I1215 10:43:36.618515  8310 net.cpp:120] Top shape: 50 512 14 14 (5017600)
I1215 10:43:36.618520  8310 layer_factory.hpp:74] Creating layer inception_4c/output_inception_4c/output_0_split
I1215 10:43:36.618525  8310 net.cpp:84] Creating Layer inception_4c/output_inception_4c/output_0_split
I1215 10:43:36.618530  8310 net.cpp:380] inception_4c/output_inception_4c/output_0_split <- inception_4c/output
I1215 10:43:36.618536  8310 net.cpp:338] inception_4c/output_inception_4c/output_0_split -> inception_4c/output_inception_4c/output_0_split_0
I1215 10:43:36.618543  8310 net.cpp:338] inception_4c/output_inception_4c/output_0_split -> inception_4c/output_inception_4c/output_0_split_1
I1215 10:43:36.618549  8310 net.cpp:338] inception_4c/output_inception_4c/output_0_split -> inception_4c/output_inception_4c/output_0_split_2
I1215 10:43:36.618556  8310 net.cpp:338] inception_4c/output_inception_4c/output_0_split -> inception_4c/output_inception_4c/output_0_split_3
I1215 10:43:36.618561  8310 net.cpp:113] Setting up inception_4c/output_inception_4c/output_0_split
I1215 10:43:36.618569  8310 net.cpp:120] Top shape: 50 512 14 14 (5017600)
I1215 10:43:36.618574  8310 net.cpp:120] Top shape: 50 512 14 14 (5017600)
I1215 10:43:36.618579  8310 net.cpp:120] Top shape: 50 512 14 14 (5017600)
I1215 10:43:36.618583  8310 net.cpp:120] Top shape: 50 512 14 14 (5017600)
I1215 10:43:36.618587  8310 layer_factory.hpp:74] Creating layer inception_4d/1x1
I1215 10:43:36.618594  8310 net.cpp:84] Creating Layer inception_4d/1x1
I1215 10:43:36.618598  8310 net.cpp:380] inception_4d/1x1 <- inception_4c/output_inception_4c/output_0_split_0
I1215 10:43:36.618605  8310 net.cpp:338] inception_4d/1x1 -> inception_4d/1x1
I1215 10:43:36.618613  8310 net.cpp:113] Setting up inception_4d/1x1
I1215 10:43:36.620123  8310 net.cpp:120] Top shape: 50 112 14 14 (1097600)
I1215 10:43:36.620137  8310 layer_factory.hpp:74] Creating layer inception_4d/relu_1x1
I1215 10:43:36.620144  8310 net.cpp:84] Creating Layer inception_4d/relu_1x1
I1215 10:43:36.620148  8310 net.cpp:380] inception_4d/relu_1x1 <- inception_4d/1x1
I1215 10:43:36.620154  8310 net.cpp:327] inception_4d/relu_1x1 -> inception_4d/1x1 (in-place)
I1215 10:43:36.620162  8310 net.cpp:113] Setting up inception_4d/relu_1x1
I1215 10:43:36.620226  8310 net.cpp:120] Top shape: 50 112 14 14 (1097600)
I1215 10:43:36.620239  8310 layer_factory.hpp:74] Creating layer inception_4d/3x3_reduce
I1215 10:43:36.620246  8310 net.cpp:84] Creating Layer inception_4d/3x3_reduce
I1215 10:43:36.620250  8310 net.cpp:380] inception_4d/3x3_reduce <- inception_4c/output_inception_4c/output_0_split_1
I1215 10:43:36.620260  8310 net.cpp:338] inception_4d/3x3_reduce -> inception_4d/3x3_reduce
I1215 10:43:36.620268  8310 net.cpp:113] Setting up inception_4d/3x3_reduce
I1215 10:43:36.652324  8310 net.cpp:120] Top shape: 50 144 14 14 (1411200)
I1215 10:43:36.652339  8310 layer_factory.hpp:74] Creating layer inception_4d/relu_3x3_reduce
I1215 10:43:36.652345  8310 net.cpp:84] Creating Layer inception_4d/relu_3x3_reduce
I1215 10:43:36.652351  8310 net.cpp:380] inception_4d/relu_3x3_reduce <- inception_4d/3x3_reduce
I1215 10:43:36.652357  8310 net.cpp:327] inception_4d/relu_3x3_reduce -> inception_4d/3x3_reduce (in-place)
I1215 10:43:36.652364  8310 net.cpp:113] Setting up inception_4d/relu_3x3_reduce
I1215 10:43:36.652627  8310 net.cpp:120] Top shape: 50 144 14 14 (1411200)
I1215 10:43:36.652638  8310 layer_factory.hpp:74] Creating layer inception_4d/3x3
I1215 10:43:36.652647  8310 net.cpp:84] Creating Layer inception_4d/3x3
I1215 10:43:36.652650  8310 net.cpp:380] inception_4d/3x3 <- inception_4d/3x3_reduce
I1215 10:43:36.652660  8310 net.cpp:338] inception_4d/3x3 -> inception_4d/3x3
I1215 10:43:36.652668  8310 net.cpp:113] Setting up inception_4d/3x3
I1215 10:43:36.659400  8310 net.cpp:120] Top shape: 50 288 14 14 (2822400)
I1215 10:43:36.659425  8310 layer_factory.hpp:74] Creating layer inception_4d/relu_3x3
I1215 10:43:36.659440  8310 net.cpp:84] Creating Layer inception_4d/relu_3x3
I1215 10:43:36.659449  8310 net.cpp:380] inception_4d/relu_3x3 <- inception_4d/3x3
I1215 10:43:36.659459  8310 net.cpp:327] inception_4d/relu_3x3 -> inception_4d/3x3 (in-place)
I1215 10:43:36.659471  8310 net.cpp:113] Setting up inception_4d/relu_3x3
I1215 10:43:36.659571  8310 net.cpp:120] Top shape: 50 288 14 14 (2822400)
I1215 10:43:36.659580  8310 layer_factory.hpp:74] Creating layer inception_4d/5x5_reduce
I1215 10:43:36.659593  8310 net.cpp:84] Creating Layer inception_4d/5x5_reduce
I1215 10:43:36.659602  8310 net.cpp:380] inception_4d/5x5_reduce <- inception_4c/output_inception_4c/output_0_split_2
I1215 10:43:36.659612  8310 net.cpp:338] inception_4d/5x5_reduce -> inception_4d/5x5_reduce
I1215 10:43:36.659625  8310 net.cpp:113] Setting up inception_4d/5x5_reduce
I1215 10:43:36.660533  8310 net.cpp:120] Top shape: 50 32 14 14 (313600)
I1215 10:43:36.660555  8310 layer_factory.hpp:74] Creating layer inception_4d/relu_5x5_reduce
I1215 10:43:36.660568  8310 net.cpp:84] Creating Layer inception_4d/relu_5x5_reduce
I1215 10:43:36.660576  8310 net.cpp:380] inception_4d/relu_5x5_reduce <- inception_4d/5x5_reduce
I1215 10:43:36.660586  8310 net.cpp:327] inception_4d/relu_5x5_reduce -> inception_4d/5x5_reduce (in-place)
I1215 10:43:36.660599  8310 net.cpp:113] Setting up inception_4d/relu_5x5_reduce
I1215 10:43:36.660701  8310 net.cpp:120] Top shape: 50 32 14 14 (313600)
I1215 10:43:36.660711  8310 layer_factory.hpp:74] Creating layer inception_4d/5x5
I1215 10:43:36.660723  8310 net.cpp:84] Creating Layer inception_4d/5x5
I1215 10:43:36.660732  8310 net.cpp:380] inception_4d/5x5 <- inception_4d/5x5_reduce
I1215 10:43:36.660743  8310 net.cpp:338] inception_4d/5x5 -> inception_4d/5x5
I1215 10:43:36.660755  8310 net.cpp:113] Setting up inception_4d/5x5
I1215 10:43:36.662202  8310 net.cpp:120] Top shape: 50 64 14 14 (627200)
I1215 10:43:36.662225  8310 layer_factory.hpp:74] Creating layer inception_4d/relu_5x5
I1215 10:43:36.662235  8310 net.cpp:84] Creating Layer inception_4d/relu_5x5
I1215 10:43:36.662245  8310 net.cpp:380] inception_4d/relu_5x5 <- inception_4d/5x5
I1215 10:43:36.662256  8310 net.cpp:327] inception_4d/relu_5x5 -> inception_4d/5x5 (in-place)
I1215 10:43:36.662267  8310 net.cpp:113] Setting up inception_4d/relu_5x5
I1215 10:43:36.662370  8310 net.cpp:120] Top shape: 50 64 14 14 (627200)
I1215 10:43:36.662395  8310 layer_factory.hpp:74] Creating layer inception_4d/pool
I1215 10:43:36.662405  8310 layer_factory.cpp:56] CUDNN does not support padding or multiple tops. Using Caffe's own pooling layer.
I1215 10:43:36.662415  8310 net.cpp:84] Creating Layer inception_4d/pool
I1215 10:43:36.662423  8310 net.cpp:380] inception_4d/pool <- inception_4c/output_inception_4c/output_0_split_3
I1215 10:43:36.662434  8310 net.cpp:338] inception_4d/pool -> inception_4d/pool
I1215 10:43:36.662446  8310 net.cpp:113] Setting up inception_4d/pool
I1215 10:43:36.662461  8310 net.cpp:120] Top shape: 50 512 14 14 (5017600)
I1215 10:43:36.662468  8310 layer_factory.hpp:74] Creating layer inception_4d/pool_proj
I1215 10:43:36.662479  8310 net.cpp:84] Creating Layer inception_4d/pool_proj
I1215 10:43:36.662487  8310 net.cpp:380] inception_4d/pool_proj <- inception_4d/pool
I1215 10:43:36.662499  8310 net.cpp:338] inception_4d/pool_proj -> inception_4d/pool_proj
I1215 10:43:36.662511  8310 net.cpp:113] Setting up inception_4d/pool_proj
I1215 10:43:36.663643  8310 net.cpp:120] Top shape: 50 64 14 14 (627200)
I1215 10:43:36.663666  8310 layer_factory.hpp:74] Creating layer inception_4d/relu_pool_proj
I1215 10:43:36.663678  8310 net.cpp:84] Creating Layer inception_4d/relu_pool_proj
I1215 10:43:36.663687  8310 net.cpp:380] inception_4d/relu_pool_proj <- inception_4d/pool_proj
I1215 10:43:36.663697  8310 net.cpp:327] inception_4d/relu_pool_proj -> inception_4d/pool_proj (in-place)
I1215 10:43:36.663708  8310 net.cpp:113] Setting up inception_4d/relu_pool_proj
I1215 10:43:36.664041  8310 net.cpp:120] Top shape: 50 64 14 14 (627200)
I1215 10:43:36.664055  8310 layer_factory.hpp:74] Creating layer inception_4d/output
I1215 10:43:36.664067  8310 net.cpp:84] Creating Layer inception_4d/output
I1215 10:43:36.664073  8310 net.cpp:380] inception_4d/output <- inception_4d/1x1
I1215 10:43:36.664083  8310 net.cpp:380] inception_4d/output <- inception_4d/3x3
I1215 10:43:36.664091  8310 net.cpp:380] inception_4d/output <- inception_4d/5x5
I1215 10:43:36.664099  8310 net.cpp:380] inception_4d/output <- inception_4d/pool_proj
I1215 10:43:36.664111  8310 net.cpp:338] inception_4d/output -> inception_4d/output
I1215 10:43:36.664124  8310 net.cpp:113] Setting up inception_4d/output
I1215 10:43:36.664135  8310 net.cpp:120] Top shape: 50 528 14 14 (5174400)
I1215 10:43:36.664142  8310 layer_factory.hpp:74] Creating layer inception_4d/output_inception_4d/output_0_split
I1215 10:43:36.664151  8310 net.cpp:84] Creating Layer inception_4d/output_inception_4d/output_0_split
I1215 10:43:36.664158  8310 net.cpp:380] inception_4d/output_inception_4d/output_0_split <- inception_4d/output
I1215 10:43:36.664172  8310 net.cpp:338] inception_4d/output_inception_4d/output_0_split -> inception_4d/output_inception_4d/output_0_split_0
I1215 10:43:36.664185  8310 net.cpp:338] inception_4d/output_inception_4d/output_0_split -> inception_4d/output_inception_4d/output_0_split_1
I1215 10:43:36.664196  8310 net.cpp:338] inception_4d/output_inception_4d/output_0_split -> inception_4d/output_inception_4d/output_0_split_2
I1215 10:43:36.664207  8310 net.cpp:338] inception_4d/output_inception_4d/output_0_split -> inception_4d/output_inception_4d/output_0_split_3
I1215 10:43:36.664217  8310 net.cpp:338] inception_4d/output_inception_4d/output_0_split -> inception_4d/output_inception_4d/output_0_split_4
I1215 10:43:36.664227  8310 net.cpp:113] Setting up inception_4d/output_inception_4d/output_0_split
I1215 10:43:36.664239  8310 net.cpp:120] Top shape: 50 528 14 14 (5174400)
I1215 10:43:36.664247  8310 net.cpp:120] Top shape: 50 528 14 14 (5174400)
I1215 10:43:36.664255  8310 net.cpp:120] Top shape: 50 528 14 14 (5174400)
I1215 10:43:36.664263  8310 net.cpp:120] Top shape: 50 528 14 14 (5174400)
I1215 10:43:36.664270  8310 net.cpp:120] Top shape: 50 528 14 14 (5174400)
I1215 10:43:36.664278  8310 layer_factory.hpp:74] Creating layer loss2/ave_pool
I1215 10:43:36.664290  8310 net.cpp:84] Creating Layer loss2/ave_pool
I1215 10:43:36.664304  8310 net.cpp:380] loss2/ave_pool <- inception_4d/output_inception_4d/output_0_split_0
I1215 10:43:36.664324  8310 net.cpp:338] loss2/ave_pool -> loss2/ave_pool
I1215 10:43:36.664335  8310 net.cpp:113] Setting up loss2/ave_pool
I1215 10:43:36.664443  8310 net.cpp:120] Top shape: 50 528 4 4 (422400)
I1215 10:43:36.664453  8310 layer_factory.hpp:74] Creating layer loss2/conv
I1215 10:43:36.664465  8310 net.cpp:84] Creating Layer loss2/conv
I1215 10:43:36.664474  8310 net.cpp:380] loss2/conv <- loss2/ave_pool
I1215 10:43:36.664484  8310 net.cpp:338] loss2/conv -> loss2/conv
I1215 10:43:36.664499  8310 net.cpp:113] Setting up loss2/conv
I1215 10:43:36.666369  8310 net.cpp:120] Top shape: 50 128 4 4 (102400)
I1215 10:43:36.666393  8310 layer_factory.hpp:74] Creating layer loss2/relu_conv
I1215 10:43:36.666402  8310 net.cpp:84] Creating Layer loss2/relu_conv
I1215 10:43:36.666410  8310 net.cpp:380] loss2/relu_conv <- loss2/conv
I1215 10:43:36.666420  8310 net.cpp:327] loss2/relu_conv -> loss2/conv (in-place)
I1215 10:43:36.666430  8310 net.cpp:113] Setting up loss2/relu_conv
I1215 10:43:36.666527  8310 net.cpp:120] Top shape: 50 128 4 4 (102400)
I1215 10:43:36.666535  8310 layer_factory.hpp:74] Creating layer loss2/fc
I1215 10:43:36.666546  8310 net.cpp:84] Creating Layer loss2/fc
I1215 10:43:36.666553  8310 net.cpp:380] loss2/fc <- loss2/conv
I1215 10:43:36.666564  8310 net.cpp:338] loss2/fc -> loss2/fc
I1215 10:43:36.666576  8310 net.cpp:113] Setting up loss2/fc
I1215 10:43:36.696813  8310 net.cpp:120] Top shape: 50 1024 (51200)
I1215 10:43:36.696831  8310 layer_factory.hpp:74] Creating layer loss2/relu_fc
I1215 10:43:36.696840  8310 net.cpp:84] Creating Layer loss2/relu_fc
I1215 10:43:36.696846  8310 net.cpp:380] loss2/relu_fc <- loss2/fc
I1215 10:43:36.696856  8310 net.cpp:327] loss2/relu_fc -> loss2/fc (in-place)
I1215 10:43:36.696863  8310 net.cpp:113] Setting up loss2/relu_fc
I1215 10:43:36.696959  8310 net.cpp:120] Top shape: 50 1024 (51200)
I1215 10:43:36.696967  8310 layer_factory.hpp:74] Creating layer loss2/drop_fc
I1215 10:43:36.696976  8310 net.cpp:84] Creating Layer loss2/drop_fc
I1215 10:43:36.696982  8310 net.cpp:380] loss2/drop_fc <- loss2/fc
I1215 10:43:36.696992  8310 net.cpp:327] loss2/drop_fc -> loss2/fc (in-place)
I1215 10:43:36.697000  8310 net.cpp:113] Setting up loss2/drop_fc
I1215 10:43:36.697010  8310 net.cpp:120] Top shape: 50 1024 (51200)
I1215 10:43:36.697016  8310 layer_factory.hpp:74] Creating layer loss2/classifier_kaggle
I1215 10:43:36.697024  8310 net.cpp:84] Creating Layer loss2/classifier_kaggle
I1215 10:43:36.697031  8310 net.cpp:380] loss2/classifier_kaggle <- loss2/fc
I1215 10:43:36.697038  8310 net.cpp:338] loss2/classifier_kaggle -> loss2/classifier_kaggle
I1215 10:43:36.697048  8310 net.cpp:113] Setting up loss2/classifier_kaggle
I1215 10:43:36.703508  8310 net.cpp:120] Top shape: 50 447 (22350)
I1215 10:43:36.703523  8310 layer_factory.hpp:74] Creating layer loss2/classifier_kaggle_loss2/classifier_kaggle_0_split
I1215 10:43:36.703531  8310 net.cpp:84] Creating Layer loss2/classifier_kaggle_loss2/classifier_kaggle_0_split
I1215 10:43:36.703538  8310 net.cpp:380] loss2/classifier_kaggle_loss2/classifier_kaggle_0_split <- loss2/classifier_kaggle
I1215 10:43:36.703550  8310 net.cpp:338] loss2/classifier_kaggle_loss2/classifier_kaggle_0_split -> loss2/classifier_kaggle_loss2/classifier_kaggle_0_split_0
I1215 10:43:36.703560  8310 net.cpp:338] loss2/classifier_kaggle_loss2/classifier_kaggle_0_split -> loss2/classifier_kaggle_loss2/classifier_kaggle_0_split_1
I1215 10:43:36.703569  8310 net.cpp:338] loss2/classifier_kaggle_loss2/classifier_kaggle_0_split -> loss2/classifier_kaggle_loss2/classifier_kaggle_0_split_2
I1215 10:43:36.703577  8310 net.cpp:113] Setting up loss2/classifier_kaggle_loss2/classifier_kaggle_0_split
I1215 10:43:36.703586  8310 net.cpp:120] Top shape: 50 447 (22350)
I1215 10:43:36.703593  8310 net.cpp:120] Top shape: 50 447 (22350)
I1215 10:43:36.703598  8310 net.cpp:120] Top shape: 50 447 (22350)
I1215 10:43:36.703604  8310 layer_factory.hpp:74] Creating layer loss2/loss
I1215 10:43:36.703619  8310 net.cpp:84] Creating Layer loss2/loss
I1215 10:43:36.703632  8310 net.cpp:380] loss2/loss <- loss2/classifier_kaggle_loss2/classifier_kaggle_0_split_0
I1215 10:43:36.703640  8310 net.cpp:380] loss2/loss <- label_data_1_split_3
I1215 10:43:36.703650  8310 net.cpp:338] loss2/loss -> loss2/loss1
…
I1215 10:43:36.704164  8310 net.cpp:338] loss2/top-5 -> loss2/top-5
I1215 10:43:36.704172  8310 net.cpp:113] Setting up loss2/top-5
I1215 10:43:36.704180  8310 net.cpp:120] Top shape: (1)
I1215 10:43:36.704185  8310 layer_factory.hpp:74] Creating layer inception_4e/1x1
I1215 10:43:36.704196  8310 net.cpp:84] Creating Layer inception_4e/1x1
I1215 10:43:36.704202  8310 net.cpp:380] inception_4e/1x1 <- inception_4d/output_inception_4d/output_0_split_1
I1215 10:43:36.704211  8310 net.cpp:338] inception_4e/1x1 -> inception_4e/1x1
I1215 10:43:36.704221  8310 net.cpp:113] Setting up inception_4e/1x1
I1215 10:43:36.706570  8310 net.cpp:120] Top shape: 50 256 14 14 (2508800)
I1215 10:43:36.706590  8310 layer_factory.hpp:74] Creating layer inception_4e/relu_1x1
I1215 10:43:36.706600  8310 net.cpp:84] Creating Layer inception_4e/relu_1x1
I1215 10:43:36.706607  8310 net.cpp:380] inception_4e/relu_1x1 <- inception_4e/1x1
I1215 10:43:36.706615  8310 net.cpp:327] inception_4e/relu_1x1 -> inception_4e/1x1 (in-place)
I1215 10:43:36.706624  8310 net.cpp:113] Setting up inception_4e/relu_1x1
I1215 10:43:36.706712  8310 net.cpp:120] Top shape: 50 256 14 14 (2508800)
I1215 10:43:36.706719  8310 layer_factory.hpp:74] Creating layer inception_4e/3x3_reduce
I1215 10:43:36.706748  8310 net.cpp:84] Creating Layer inception_4e/3x3_reduce
I1215 10:43:36.706754  8310 net.cpp:380] inception_4e/3x3_reduce <- inception_4d/output_inception_4d/output_0_split_2
I1215 10:43:36.706763  8310 net.cpp:338] inception_4e/3x3_reduce -> inception_4e/3x3_reduce
I1215 10:43:36.706773  8310 net.cpp:113] Setting up inception_4e/3x3_reduce
I1215 10:43:36.708421  8310 net.cpp:120] Top shape: 50 160 14 14 (1568000)
I1215 10:43:36.708441  8310 layer_factory.hpp:74] Creating layer inception_4e/relu_3x3_reduce
I1215 10:43:36.708448  8310 net.cpp:84] Creating Layer inception_4e/relu_3x3_reduce
I1215 10:43:36.708456  8310 net.cpp:380] inception_4e/relu_3x3_reduce <- inception_4e/3x3_reduce
I1215 10:43:36.708463  8310 net.cpp:327] inception_4e/relu_3x3_reduce -> inception_4e/3x3_reduce (in-place)
I1215 10:43:36.708472  8310 net.cpp:113] Setting up inception_4e/relu_3x3_reduce
I1215 10:43:36.708557  8310 net.cpp:120] Top shape: 50 160 14 14 (1568000)
I1215 10:43:36.708564  8310 layer_factory.hpp:74] Creating layer inception_4e/3x3
I1215 10:43:36.708575  8310 net.cpp:84] Creating Layer inception_4e/3x3
I1215 10:43:36.708581  8310 net.cpp:380] inception_4e/3x3 <- inception_4e/3x3_reduce
I1215 10:43:36.708590  8310 net.cpp:338] inception_4e/3x3 -> inception_4e/3x3
I1215 10:43:36.708600  8310 net.cpp:113] Setting up inception_4e/3x3
I1215 10:43:36.715409  8310 net.cpp:120] Top shape: 50 320 14 14 (3136000)
I1215 10:43:36.715432  8310 layer_factory.hpp:74] Creating layer inception_4e/relu_3x3
I1215 10:43:36.715451  8310 net.cpp:84] Creating Layer inception_4e/relu_3x3
I1215 10:43:36.715458  8310 net.cpp:380] inception_4e/relu_3x3 <- inception_4e/3x3
I1215 10:43:36.715466  8310 net.cpp:327] inception_4e/relu_3x3 -> inception_4e/3x3 (in-place)
I1215 10:43:36.715476  8310 net.cpp:113] Setting up inception_4e/relu_3x3
I1215 10:43:36.715749  8310 net.cpp:120] Top shape: 50 320 14 14 (3136000)
I1215 10:43:36.715761  8310 layer_factory.hpp:74] Creating layer inception_4e/5x5_reduce
I1215 10:43:36.715771  8310 net.cpp:84] Creating Layer inception_4e/5x5_reduce
I1215 10:43:36.715777  8310 net.cpp:380] inception_4e/5x5_reduce <- inception_4d/output_inception_4d/output_0_split_3
I1215 10:43:36.715786  8310 net.cpp:338] inception_4e/5x5_reduce -> inception_4e/5x5_reduce
I1215 10:43:36.715797  8310 net.cpp:113] Setting up inception_4e/5x5_reduce
I1215 10:43:36.716467  8310 net.cpp:120] Top shape: 50 32 14 14 (313600)
I1215 10:43:36.716485  8310 layer_factory.hpp:74] Creating layer inception_4e/relu_5x5_reduce
I1215 10:43:36.716495  8310 net.cpp:84] Creating Layer inception_4e/relu_5x5_reduce
I1215 10:43:36.716500  8310 net.cpp:380] inception_4e/relu_5x5_reduce <- inception_4e/5x5_reduce
I1215 10:43:36.716508  8310 net.cpp:327] inception_4e/relu_5x5_reduce -> inception_4e/5x5_reduce (in-place)
I1215 10:43:36.716516  8310 net.cpp:113] Setting up inception_4e/relu_5x5_reduce
I1215 10:43:36.716599  8310 net.cpp:120] Top shape: 50 32 14 14 (313600)
I1215 10:43:36.716609  8310 layer_factory.hpp:74] Creating layer inception_4e/5x5
I1215 10:43:36.716617  8310 net.cpp:84] Creating Layer inception_4e/5x5
I1215 10:43:36.716625  8310 net.cpp:380] inception_4e/5x5 <- inception_4e/5x5_reduce
I1215 10:43:36.716634  8310 net.cpp:338] inception_4e/5x5 -> inception_4e/5x5
I1215 10:43:36.716642  8310 net.cpp:113] Setting up inception_4e/5x5
I1215 10:43:36.718457  8310 net.cpp:120] Top shape: 50 128 14 14 (1254400)
I1215 10:43:36.718475  8310 layer_factory.hpp:74] Creating layer inception_4e/relu_5x5
I1215 10:43:36.718483  8310 net.cpp:84] Creating Layer inception_4e/relu_5x5
I1215 10:43:36.718489  8310 net.cpp:380] inception_4e/relu_5x5 <- inception_4e/5x5
I1215 10:43:36.718498  8310 net.cpp:327] inception_4e/relu_5x5 -> inception_4e/5x5 (in-place)
I1215 10:43:36.718508  8310 net.cpp:113] Setting up inception_4e/relu_5x5
I1215 10:43:36.718585  8310 net.cpp:120] Top shape: 50 128 14 14 (1254400)
I1215 10:43:36.718595  8310 layer_factory.hpp:74] Creating layer inception_4e/pool
I1215 10:43:36.718601  8310 layer_factory.cpp:56] CUDNN does not support padding or multiple tops. Using Caffe's own pooling layer.
I1215 10:43:36.718608  8310 net.cpp:84] Creating Layer inception_4e/pool
I1215 10:43:36.718613  8310 net.cpp:380] inception_4e/pool <- inception_4d/output_inception_4d/output_0_split_4
I1215 10:43:36.718623  8310 net.cpp:338] inception_4e/pool -> inception_4e/pool
I1215 10:43:36.718632  8310 net.cpp:113] Setting up inception_4e/pool
I1215 10:43:36.718642  8310 net.cpp:120] Top shape: 50 528 14 14 (5174400)
I1215 10:43:36.718647  8310 layer_factory.hpp:74] Creating layer inception_4e/pool_proj
I1215 10:43:36.718657  8310 net.cpp:84] Creating Layer inception_4e/pool_proj
I1215 10:43:36.718662  8310 net.cpp:380] inception_4e/pool_proj <- inception_4e/pool
I1215 10:43:36.718672  8310 net.cpp:338] inception_4e/pool_proj -> inception_4e/pool_proj
I1215 10:43:36.718680  8310 net.cpp:113] Setting up inception_4e/pool_proj
I1215 10:43:36.723192  8310 net.cpp:120] Top shape: 50 128 14 14 (1254400)
I1215 10:43:36.723207  8310 layer_factory.hpp:74] Creating layer inception_4e/relu_pool_proj
I1215 10:43:36.723214  8310 net.cpp:84] Creating Layer inception_4e/relu_pool_proj
I1215 10:43:36.723232  8310 net.cpp:380] inception_4e/relu_pool_proj <- inception_4e/pool_proj
I1215 10:43:36.723237  8310 net.cpp:327] inception_4e/relu_pool_proj -> inception_4e/pool_proj (in-place)
I1215 10:43:36.723244  8310 net.cpp:113] Setting up inception_4e/relu_pool_proj
I1215 10:43:36.723317  8310 net.cpp:120] Top shape: 50 128 14 14 (1254400)
I1215 10:43:36.723330  8310 layer_factory.hpp:74] Creating layer inception_4e/output
I1215 10:43:36.723337  8310 net.cpp:84] Creating Layer inception_4e/output
I1215 10:43:36.723342  8310 net.cpp:380] inception_4e/output <- inception_4e/1x1
I1215 10:43:36.723347  8310 net.cpp:380] inception_4e/output <- inception_4e/3x3
I1215 10:43:36.723352  8310 net.cpp:380] inception_4e/output <- inception_4e/5x5
I1215 10:43:36.723357  8310 net.cpp:380] inception_4e/output <- inception_4e/pool_proj
I1215 10:43:36.723363  8310 net.cpp:338] inception_4e/output -> inception_4e/output
I1215 10:43:36.723371  8310 net.cpp:113] Setting up inception_4e/output
I1215 10:43:36.723377  8310 net.cpp:120] Top shape: 50 832 14 14 (8153600)
I1215 10:43:36.723382  8310 layer_factory.hpp:74] Creating layer pool4/3x3_s2
I1215 10:43:36.723390  8310 net.cpp:84] Creating Layer pool4/3x3_s2
I1215 10:43:36.723395  8310 net.cpp:380] pool4/3x3_s2 <- inception_4e/output
I1215 10:43:36.723412  8310 net.cpp:338] pool4/3x3_s2 -> pool4/3x3_s2
I1215 10:43:36.723420  8310 net.cpp:113] Setting up pool4/3x3_s2
I1215 10:43:36.723718  8310 net.cpp:120] Top shape: 50 832 7 7 (2038400)
I1215 10:43:36.723731  8310 layer_factory.hpp:74] Creating layer pool4/3x3_s2_pool4/3x3_s2_0_split
I1215 10:43:36.723739  8310 net.cpp:84] Creating Layer pool4/3x3_s2_pool4/3x3_s2_0_split
I1215 10:43:36.723745  8310 net.cpp:380] pool4/3x3_s2_pool4/3x3_s2_0_split <- pool4/3x3_s2
I1215 10:43:36.723757  8310 net.cpp:338] pool4/3x3_s2_pool4/3x3_s2_0_split -> pool4/3x3_s2_pool4/3x3_s2_0_split_0
I1215 10:43:36.723767  8310 net.cpp:338] pool4/3x3_s2_pool4/3x3_s2_0_split -> pool4/3x3_s2_pool4/3x3_s2_0_split_1
I1215 10:43:36.723775  8310 net.cpp:338] pool4/3x3_s2_pool4/3x3_s2_0_split -> pool4/3x3_s2_pool4/3x3_s2_0_split_2
I1215 10:43:36.723803  8310 net.cpp:338] pool4/3x3_s2_pool4/3x3_s2_0_split -> pool4/3x3_s2_pool4/3x3_s2_0_split_3
I1215 10:43:36.723810  8310 net.cpp:113] Setting up pool4/3x3_s2_pool4/3x3_s2_0_split
I1215 10:43:36.723819  8310 net.cpp:120] Top shape: 50 832 7 7 (2038400)
I1215 10:43:36.723825  8310 net.cpp:120] Top shape: 50 832 7 7 (2038400)
I1215 10:43:36.723832  8310 net.cpp:120] Top shape: 50 832 7 7 (2038400)
I1215 10:43:36.723839  8310 net.cpp:120] Top shape: 50 832 7 7 (2038400)
I1215 10:43:36.723845  8310 layer_factory.hpp:74] Creating layer inception_5a/1x1
I1215 10:43:36.723855  8310 net.cpp:84] Creating Layer inception_5a/1x1
I1215 10:43:36.723861  8310 net.cpp:380] inception_5a/1x1 <- pool4/3x3_s2_pool4/3x3_s2_0_split_0
I1215 10:43:36.723870  8310 net.cpp:338] inception_5a/1x1 -> inception_5a/1x1
I1215 10:43:36.723878  8310 net.cpp:113] Setting up inception_5a/1x1
I1215 10:43:36.727061  8310 net.cpp:120] Top shape: 50 256 7 7 (627200)
I1215 10:43:36.727079  8310 layer_factory.hpp:74] Creating layer inception_5a/relu_1x1
I1215 10:43:36.727087  8310 net.cpp:84] Creating Layer inception_5a/relu_1x1
I1215 10:43:36.727093  8310 net.cpp:380] inception_5a/relu_1x1 <- inception_5a/1x1
I1215 10:43:36.727102  8310 net.cpp:327] inception_5a/relu_1x1 -> inception_5a/1x1 (in-place)
I1215 10:43:36.727111  8310 net.cpp:113] Setting up inception_5a/relu_1x1
I1215 10:43:36.727188  8310 net.cpp:120] Top shape: 50 256 7 7 (627200)
I1215 10:43:36.727195  8310 layer_factory.hpp:74] Creating layer inception_5a/3x3_reduce
I1215 10:43:36.727205  8310 net.cpp:84] Creating Layer inception_5a/3x3_reduce
I1215 10:43:36.727211  8310 net.cpp:380] inception_5a/3x3_reduce <- pool4/3x3_s2_pool4/3x3_s2_0_split_1
I1215 10:43:36.727221  8310 net.cpp:338] inception_5a/3x3_reduce -> inception_5a/3x3_reduce
I1215 10:43:36.727229  8310 net.cpp:113] Setting up inception_5a/3x3_reduce
I1215 10:43:36.729353  8310 net.cpp:120] Top shape: 50 160 7 7 (392000)
I1215 10:43:36.729372  8310 layer_factory.hpp:74] Creating layer inception_5a/relu_3x3_reduce
I1215 10:43:36.729379  8310 net.cpp:84] Creating Layer inception_5a/relu_3x3_reduce
I1215 10:43:36.729385  8310 net.cpp:380] inception_5a/relu_3x3_reduce <- inception_5a/3x3_reduce
I1215 10:43:36.729399  8310 net.cpp:327] inception_5a/relu_3x3_reduce -> inception_5a/3x3_reduce (in-place)
I1215 10:43:36.729415  8310 net.cpp:113] Setting up inception_5a/relu_3x3_reduce
I1215 10:43:36.729496  8310 net.cpp:120] Top shape: 50 160 7 7 (392000)
I1215 10:43:36.729502  8310 layer_factory.hpp:74] Creating layer inception_5a/3x3
I1215 10:43:36.729511  8310 net.cpp:84] Creating Layer inception_5a/3x3
I1215 10:43:36.729516  8310 net.cpp:380] inception_5a/3x3 <- inception_5a/3x3_reduce
I1215 10:43:36.729526  8310 net.cpp:338] inception_5a/3x3 -> inception_5a/3x3
I1215 10:43:36.729534  8310 net.cpp:113] Setting up inception_5a/3x3
I1215 10:43:36.735748  8310 net.cpp:120] Top shape: 50 320 7 7 (784000)
I1215 10:43:36.735764  8310 layer_factory.hpp:74] Creating layer inception_5a/relu_3x3
I1215 10:43:36.735772  8310 net.cpp:84] Creating Layer inception_5a/relu_3x3
I1215 10:43:36.735779  8310 net.cpp:380] inception_5a/relu_3x3 <- inception_5a/3x3
I1215 10:43:36.735786  8310 net.cpp:327] inception_5a/relu_3x3 -> inception_5a/3x3 (in-place)
I1215 10:43:36.735795  8310 net.cpp:113] Setting up inception_5a/relu_3x3
I1215 10:43:36.735868  8310 net.cpp:120] Top shape: 50 320 7 7 (784000)
I1215 10:43:36.735875  8310 layer_factory.hpp:74] Creating layer inception_5a/5x5_reduce
I1215 10:43:36.735883  8310 net.cpp:84] Creating Layer inception_5a/5x5_reduce
I1215 10:43:36.735889  8310 net.cpp:380] inception_5a/5x5_reduce <- pool4/3x3_s2_pool4/3x3_s2_0_split_2
I1215 10:43:36.735899  8310 net.cpp:338] inception_5a/5x5_reduce -> inception_5a/5x5_reduce
I1215 10:43:36.735908  8310 net.cpp:113] Setting up inception_5a/5x5_reduce
I1215 10:43:36.736713  8310 net.cpp:120] Top shape: 50 32 7 7 (78400)
I1215 10:43:36.736731  8310 layer_factory.hpp:74] Creating layer inception_5a/relu_5x5_reduce
I1215 10:43:36.736739  8310 net.cpp:84] Creating Layer inception_5a/relu_5x5_reduce
I1215 10:43:36.736747  8310 net.cpp:380] inception_5a/relu_5x5_reduce <- inception_5a/5x5_reduce
I1215 10:43:36.736753  8310 net.cpp:327] inception_5a/relu_5x5_reduce -> inception_5a/5x5_reduce (in-place)
I1215 10:43:36.736762  8310 net.cpp:113] Setting up inception_5a/relu_5x5_reduce
I1215 10:43:36.737031  8310 net.cpp:120] Top shape: 50 32 7 7 (78400)
I1215 10:43:36.737043  8310 layer_factory.hpp:74] Creating layer inception_5a/5x5
I1215 10:43:36.737063  8310 net.cpp:84] Creating Layer inception_5a/5x5
I1215 10:43:36.737071  8310 net.cpp:380] inception_5a/5x5 <- inception_5a/5x5_reduce
I1215 10:43:36.737079  8310 net.cpp:338] inception_5a/5x5 -> inception_5a/5x5
I1215 10:43:36.737089  8310 net.cpp:113] Setting up inception_5a/5x5
I1215 10:43:36.738787  8310 net.cpp:120] Top shape: 50 128 7 7 (313600)
I1215 10:43:36.738803  8310 layer_factory.hpp:74] Creating layer inception_5a/relu_5x5
I1215 10:43:36.738811  8310 net.cpp:84] Creating Layer inception_5a/relu_5x5
I1215 10:43:36.738817  8310 net.cpp:380] inception_5a/relu_5x5 <- inception_5a/5x5
I1215 10:43:36.738823  8310 net.cpp:327] inception_5a/relu_5x5 -> inception_5a/5x5 (in-place)
I1215 10:43:36.738831  8310 net.cpp:113] Setting up inception_5a/relu_5x5
I1215 10:43:36.738908  8310 net.cpp:120] Top shape: 50 128 7 7 (313600)
I1215 10:43:36.738914  8310 layer_factory.hpp:74] Creating layer inception_5a/pool
I1215 10:43:36.738919  8310 layer_factory.cpp:56] CUDNN does not support padding or multiple tops. Using Caffe's own pooling layer.
I1215 10:43:36.738927  8310 net.cpp:84] Creating Layer inception_5a/pool
I1215 10:43:36.738934  8310 net.cpp:380] inception_5a/pool <- pool4/3x3_s2_pool4/3x3_s2_0_split_3
I1215 10:43:36.738940  8310 net.cpp:338] inception_5a/pool -> inception_5a/pool
I1215 10:43:36.738948  8310 net.cpp:113] Setting up inception_5a/pool
I1215 10:43:36.738957  8310 net.cpp:120] Top shape: 50 832 7 7 (2038400)
I1215 10:43:36.738967  8310 layer_factory.hpp:74] Creating layer inception_5a/pool_proj
I1215 10:43:36.738977  8310 net.cpp:84] Creating Layer inception_5a/pool_proj
I1215 10:43:36.738982  8310 net.cpp:380] inception_5a/pool_proj <- inception_5a/pool
I1215 10:43:36.738989  8310 net.cpp:338] inception_5a/pool_proj -> inception_5a/pool_proj
I1215 10:43:36.739009  8310 net.cpp:113] Setting up inception_5a/pool_proj
I1215 10:43:36.740727  8310 net.cpp:120] Top shape: 50 128 7 7 (313600)
I1215 10:43:36.740743  8310 layer_factory.hpp:74] Creating layer inception_5a/relu_pool_proj
I1215 10:43:36.740751  8310 net.cpp:84] Creating Layer inception_5a/relu_pool_proj
I1215 10:43:36.740756  8310 net.cpp:380] inception_5a/relu_pool_proj <- inception_5a/pool_proj
I1215 10:43:36.740763  8310 net.cpp:327] inception_5a/relu_pool_proj -> inception_5a/pool_proj (in-place)
I1215 10:43:36.740772  8310 net.cpp:113] Setting up inception_5a/relu_pool_proj
I1215 10:43:36.740844  8310 net.cpp:120] Top shape: 50 128 7 7 (313600)
I1215 10:43:36.740850  8310 layer_factory.hpp:74] Creating layer inception_5a/output
I1215 10:43:36.740857  8310 net.cpp:84] Creating Layer inception_5a/output
I1215 10:43:36.740862  8310 net.cpp:380] inception_5a/output <- inception_5a/1x1
I1215 10:43:36.740869  8310 net.cpp:380] inception_5a/output <- inception_5a/3x3
I1215 10:43:36.740875  8310 net.cpp:380] inception_5a/output <- inception_5a/5x5
I1215 10:43:36.740880  8310 net.cpp:380] inception_5a/output <- inception_5a/pool_proj
I1215 10:43:36.740886  8310 net.cpp:338] inception_5a/output -> inception_5a/output
I1215 10:43:36.740893  8310 net.cpp:113] Setting up inception_5a/output
I1215 10:43:36.740901  8310 net.cpp:120] Top shape: 50 832 7 7 (2038400)
I1215 10:43:36.740906  8310 layer_factory.hpp:74] Creating layer inception_5a/output_inception_5a/output_0_split
I1215 10:43:36.740916  8310 net.cpp:84] Creating Layer inception_5a/output_inception_5a/output_0_split
I1215 10:43:36.740921  8310 net.cpp:380] inception_5a/output_inception_5a/output_0_split <- inception_5a/output
I1215 10:43:36.740926  8310 net.cpp:338] inception_5a/output_inception_5a/output_0_split -> inception_5a/output_inception_5a/output_0_split_0
I1215 10:43:36.740934  8310 net.cpp:338] inception_5a/output_inception_5a/output_0_split -> inception_5a/output_inception_5a/output_0_split_1
I1215 10:43:36.740944  8310 net.cpp:338] inception_5a/output_inception_5a/output_0_split -> inception_5a/output_inception_5a/output_0_split_2
I1215 10:43:36.740952  8310 net.cpp:338] inception_5a/output_inception_5a/output_0_split -> inception_5a/output_inception_5a/output_0_split_3
I1215 10:43:36.740958  8310 net.cpp:113] Setting up inception_5a/output_inception_5a/output_0_split
I1215 10:43:36.740967  8310 net.cpp:120] Top shape: 50 832 7 7 (2038400)
I1215 10:43:36.740972  8310 net.cpp:120] Top shape: 50 832 7 7 (2038400)
I1215 10:43:36.740978  8310 net.cpp:120] Top shape: 50 832 7 7 (2038400)
I1215 10:43:36.740983  8310 net.cpp:120] Top shape: 50 832 7 7 (2038400)
I1215 10:43:36.740988  8310 layer_factory.hpp:74] Creating layer inception_5b/1x1
I1215 10:43:36.740994  8310 net.cpp:84] Creating Layer inception_5b/1x1
I1215 10:43:36.740999  8310 net.cpp:380] inception_5b/1x1 <- inception_5a/output_inception_5a/output_0_split_0
I1215 10:43:36.741008  8310 net.cpp:338] inception_5b/1x1 -> inception_5b/1x1
I1215 10:43:36.741017  8310 net.cpp:113] Setting up inception_5b/1x1
I1215 10:43:36.745301  8310 net.cpp:120] Top shape: 50 384 7 7 (940800)
I1215 10:43:36.745317  8310 layer_factory.hpp:74] Creating layer inception_5b/relu_1x1
I1215 10:43:36.745326  8310 net.cpp:84] Creating Layer inception_5b/relu_1x1
I1215 10:43:36.745332  8310 net.cpp:380] inception_5b/relu_1x1 <- inception_5b/1x1
I1215 10:43:36.745340  8310 net.cpp:327] inception_5b/relu_1x1 -> inception_5b/1x1 (in-place)
I1215 10:43:36.745348  8310 net.cpp:113] Setting up inception_5b/relu_1x1
I1215 10:43:36.745427  8310 net.cpp:120] Top shape: 50 384 7 7 (940800)
I1215 10:43:36.745434  8310 layer_factory.hpp:74] Creating layer inception_5b/3x3_reduce
I1215 10:43:36.745442  8310 net.cpp:84] Creating Layer inception_5b/3x3_reduce
I1215 10:43:36.745447  8310 net.cpp:380] inception_5b/3x3_reduce <- inception_5a/output_inception_5a/output_0_split_1
I1215 10:43:36.745457  8310 net.cpp:338] inception_5b/3x3_reduce -> inception_5b/3x3_reduce
I1215 10:43:36.745471  8310 net.cpp:113] Setting up inception_5b/3x3_reduce
I1215 10:43:36.747824  8310 net.cpp:120] Top shape: 50 192 7 7 (470400)
I1215 10:43:36.747840  8310 layer_factory.hpp:74] Creating layer inception_5b/relu_3x3_reduce
I1215 10:43:36.747848  8310 net.cpp:84] Creating Layer inception_5b/relu_3x3_reduce
I1215 10:43:36.747854  8310 net.cpp:380] inception_5b/relu_3x3_reduce <- inception_5b/3x3_reduce
I1215 10:43:36.747862  8310 net.cpp:327] inception_5b/relu_3x3_reduce -> inception_5b/3x3_reduce (in-place)
I1215 10:43:36.747871  8310 net.cpp:113] Setting up inception_5b/relu_3x3_reduce
I1215 10:43:36.748137  8310 net.cpp:120] Top shape: 50 192 7 7 (470400)
I1215 10:43:36.748148  8310 layer_factory.hpp:74] Creating layer inception_5b/3x3
I1215 10:43:36.748158  8310 net.cpp:84] Creating Layer inception_5b/3x3
I1215 10:43:36.748164  8310 net.cpp:380] inception_5b/3x3 <- inception_5b/3x3_reduce
I1215 10:43:36.748174  8310 net.cpp:338] inception_5b/3x3 -> inception_5b/3x3
I1215 10:43:36.748183  8310 net.cpp:113] Setting up inception_5b/3x3
I1215 10:43:36.756283  8310 net.cpp:120] Top shape: 50 384 7 7 (940800)
I1215 10:43:36.756299  8310 layer_factory.hpp:74] Creating layer inception_5b/relu_3x3
I1215 10:43:36.756309  8310 net.cpp:84] Creating Layer inception_5b/relu_3x3
I1215 10:43:36.756315  8310 net.cpp:380] inception_5b/relu_3x3 <- inception_5b/3x3
I1215 10:43:36.756321  8310 net.cpp:327] inception_5b/relu_3x3 -> inception_5b/3x3 (in-place)
I1215 10:43:36.756330  8310 net.cpp:113] Setting up inception_5b/relu_3x3
I1215 10:43:36.756400  8310 net.cpp:120] Top shape: 50 384 7 7 (940800)
I1215 10:43:36.756407  8310 layer_factory.hpp:74] Creating layer inception_5b/5x5_reduce
I1215 10:43:36.756417  8310 net.cpp:84] Creating Layer inception_5b/5x5_reduce
I1215 10:43:36.756422  8310 net.cpp:380] inception_5b/5x5_reduce <- inception_5a/output_inception_5a/output_0_split_2
I1215 10:43:36.756430  8310 net.cpp:338] inception_5b/5x5_reduce -> inception_5b/5x5_reduce
I1215 10:43:36.756439  8310 net.cpp:113] Setting up inception_5b/5x5_reduce
I1215 10:43:36.757331  8310 net.cpp:120] Top shape: 50 48 7 7 (117600)
I1215 10:43:36.757347  8310 layer_factory.hpp:74] Creating layer inception_5b/relu_5x5_reduce
I1215 10:43:36.757354  8310 net.cpp:84] Creating Layer inception_5b/relu_5x5_reduce
I1215 10:43:36.757360  8310 net.cpp:380] inception_5b/relu_5x5_reduce <- inception_5b/5x5_reduce
I1215 10:43:36.757369  8310 net.cpp:327] inception_5b/relu_5x5_reduce -> inception_5b/5x5_reduce (in-place)
I1215 10:43:36.757376  8310 net.cpp:113] Setting up inception_5b/relu_5x5_reduce
I1215 10:43:36.757452  8310 net.cpp:120] Top shape: 50 48 7 7 (117600)
I1215 10:43:36.757458  8310 layer_factory.hpp:74] Creating layer inception_5b/5x5
I1215 10:43:36.757467  8310 net.cpp:84] Creating Layer inception_5b/5x5
I1215 10:43:36.757472  8310 net.cpp:380] inception_5b/5x5 <- inception_5b/5x5_reduce
I1215 10:43:36.757480  8310 net.cpp:338] inception_5b/5x5 -> inception_5b/5x5
I1215 10:43:36.757488  8310 net.cpp:113] Setting up inception_5b/5x5
I1215 10:43:36.759682  8310 net.cpp:120] Top shape: 50 128 7 7 (313600)
I1215 10:43:36.759697  8310 layer_factory.hpp:74] Creating layer inception_5b/relu_5x5
I1215 10:43:36.759706  8310 net.cpp:84] Creating Layer inception_5b/relu_5x5
I1215 10:43:36.759711  8310 net.cpp:380] inception_5b/relu_5x5 <- inception_5b/5x5
I1215 10:43:36.759718  8310 net.cpp:327] inception_5b/relu_5x5 -> inception_5b/5x5 (in-place)
I1215 10:43:36.759727  8310 net.cpp:113] Setting up inception_5b/relu_5x5
I1215 10:43:36.759984  8310 net.cpp:120] Top shape: 50 128 7 7 (313600)
I1215 10:43:36.759994  8310 layer_factory.hpp:74] Creating layer inception_5b/pool
I1215 10:43:36.760000  8310 layer_factory.cpp:56] CUDNN does not support padding or multiple tops. Using Caffe's own pooling layer.
I1215 10:43:36.760006  8310 net.cpp:84] Creating Layer inception_5b/pool
I1215 10:43:36.760012  8310 net.cpp:380] inception_5b/pool <- inception_5a/output_inception_5a/output_0_split_3
I1215 10:43:36.760022  8310 net.cpp:338] inception_5b/pool -> inception_5b/pool
I1215 10:43:36.760035  8310 net.cpp:113] Setting up inception_5b/pool
I1215 10:43:36.760051  8310 net.cpp:120] Top shape: 50 832 7 7 (2038400)
I1215 10:43:36.760056  8310 layer_factory.hpp:74] Creating layer inception_5b/pool_proj
I1215 10:43:36.760066  8310 net.cpp:84] Creating Layer inception_5b/pool_proj
I1215 10:43:36.760072  8310 net.cpp:380] inception_5b/pool_proj <- inception_5b/pool
I1215 10:43:36.760078  8310 net.cpp:338] inception_5b/pool_proj -> inception_5b/pool_proj
I1215 10:43:36.760087  8310 net.cpp:113] Setting up inception_5b/pool_proj
I1215 10:43:36.761749  8310 net.cpp:120] Top shape: 50 128 7 7 (313600)
I1215 10:43:36.761765  8310 layer_factory.hpp:74] Creating layer inception_5b/relu_pool_proj
I1215 10:43:36.761772  8310 net.cpp:84] Creating Layer inception_5b/relu_pool_proj
I1215 10:43:36.761778  8310 net.cpp:380] inception_5b/relu_pool_proj <- inception_5b/pool_proj
I1215 10:43:36.761785  8310 net.cpp:327] inception_5b/relu_pool_proj -> inception_5b/pool_proj (in-place)
I1215 10:43:36.761791  8310 net.cpp:113] Setting up inception_5b/relu_pool_proj
I1215 10:43:36.761855  8310 net.cpp:120] Top shape: 50 128 7 7 (313600)
I1215 10:43:36.761863  8310 layer_factory.hpp:74] Creating layer inception_5b/output
I1215 10:43:36.761869  8310 net.cpp:84] Creating Layer inception_5b/output
I1215 10:43:36.761874  8310 net.cpp:380] inception_5b/output <- inception_5b/1x1
I1215 10:43:36.761879  8310 net.cpp:380] inception_5b/output <- inception_5b/3x3
I1215 10:43:36.761884  8310 net.cpp:380] inception_5b/output <- inception_5b/5x5
I1215 10:43:36.761888  8310 net.cpp:380] inception_5b/output <- inception_5b/pool_proj
I1215 10:43:36.761894  8310 net.cpp:338] inception_5b/output -> inception_5b/output
I1215 10:43:36.761901  8310 net.cpp:113] Setting up inception_5b/output
I1215 10:43:36.761909  8310 net.cpp:120] Top shape: 50 1024 7 7 (2508800)
I1215 10:43:36.761914  8310 layer_factory.hpp:74] Creating layer pool5/7x7_s1
I1215 10:43:36.761920  8310 net.cpp:84] Creating Layer pool5/7x7_s1
I1215 10:43:36.761924  8310 net.cpp:380] pool5/7x7_s1 <- inception_5b/output
I1215 10:43:36.761930  8310 net.cpp:338] pool5/7x7_s1 -> pool5/7x7_s1
I1215 10:43:36.761936  8310 net.cpp:113] Setting up pool5/7x7_s1
I1215 10:43:36.761999  8310 net.cpp:120] Top shape: 50 1024 1 1 (51200)
I1215 10:43:36.762006  8310 layer_factory.hpp:74] Creating layer pool5/drop_7x7_s1
I1215 10:43:36.762012  8310 net.cpp:84] Creating Layer pool5/drop_7x7_s1
I1215 10:43:36.762017  8310 net.cpp:380] pool5/drop_7x7_s1 <- pool5/7x7_s1
I1215 10:43:36.762022  8310 net.cpp:327] pool5/drop_7x7_s1 -> pool5/7x7_s1 (in-place)
I1215 10:43:36.762027  8310 net.cpp:113] Setting up pool5/drop_7x7_s1
I1215 10:43:36.762034  8310 net.cpp:120] Top shape: 50 1024 1 1 (51200)
I1215 10:43:36.762038  8310 layer_factory.hpp:74] Creating layer loss3/classifier_kaggle
I1215 10:43:36.762045  8310 net.cpp:84] Creating Layer loss3/classifier_kaggle
I1215 10:43:36.762049  8310 net.cpp:380] loss3/classifier_kaggle <- pool5/7x7_s1
I1215 10:43:36.762058  8310 net.cpp:338] loss3/classifier_kaggle -> loss3/classifier_kaggle
I1215 10:43:36.762064  8310 net.cpp:113] Setting up loss3/classifier_kaggle
I1215 10:43:36.766779  8310 net.cpp:120] Top shape: 50 447 (22350)
I1215 10:43:36.766790  8310 layer_factory.hpp:74] Creating layer loss3/classifier_kaggle_loss3/classifier_kaggle_0_split
I1215 10:43:36.766798  8310 net.cpp:84] Creating Layer loss3/classifier_kaggle_loss3/classifier_kaggle_0_split
I1215 10:43:36.766803  8310 net.cpp:380] loss3/classifier_kaggle_loss3/classifier_kaggle_0_split <- loss3/classifier_kaggle
I1215 10:43:36.766808  8310 net.cpp:338] loss3/classifier_kaggle_loss3/classifier_kaggle_0_split -> loss3/classifier_kaggle_loss3/classifier_kaggle_0_split_0
I1215 10:43:36.766815  8310 net.cpp:338] loss3/classifier_kaggle_loss3/classifier_kaggle_0_split -> loss3/classifier_kaggle_loss3/classifier_kaggle_0_split_1
I1215 10:43:36.766823  8310 net.cpp:338] loss3/classifier_kaggle_loss3/classifier_kaggle_0_split -> loss3/classifier_kaggle_loss3/classifier_kaggle_0_split_2
I1215 10:43:36.766834  8310 net.cpp:113] Setting up loss3/classifier_kaggle_loss3/classifier_kaggle_0_split
I1215 10:43:36.766847  8310 net.cpp:120] Top shape: 50 447 (22350)
I1215 10:43:36.766852  8310 net.cpp:120] Top shape: 50 447 (22350)
I1215 10:43:36.766857  8310 net.cpp:120] Top shape: 50 447 (22350)
I1215 10:43:36.766861  8310 layer_factory.hpp:74] Creating layer loss3/loss3
I1215 10:43:36.766867  8310 net.cpp:84] Creating Layer loss3/loss3
I1215 10:43:36.766871  8310 net.cpp:380] loss3/loss3 <- loss3/classifier_kaggle_loss3/classifier_kaggle_0_split_0
I1215 10:43:36.766877  8310 net.cpp:380] loss3/loss3 <- label_data_1_split_6
I1215 10:43:36.766882  8310 net.cpp:338] loss3/loss3 -> loss3/loss3
…
