…
I1220 11:08:55.382818 27701 net.cpp:257] The NetState phase (0) differed from the phase (1) specified by a rule in layer loss3/top-5
I1220 11:08:55.385473 27701 net.cpp:42] Initializing net from parameters: 
name: "MYNET"
state {
  phase: TRAIN
}
layer {
  name: "data"
  type: "ImageData"
  top: "data"
  top: "label"
  include {
    phase: TRAIN
  }
  transform_param {
    mirror: false
    crop_size: 224
    mean_value: 129
    mean_value: 129
    mean_value: 129
  }
  image_data_param {
    source: "/home/coldmanck/kaggle/label_train_full.txt"
    batch_size: 80
    shuffle: true
  }
}
layer {
  name: "conv1/7x7_s2"
  type: "Convolution"
  bottom: "data"
  top: "conv1/7x7_s2"
  param {
    lr_mult: 1
    decay_mult: 1
  }
  param {
    lr_mult: 2
    decay_mult: 0
  }
  convolution_param {
    num_output: 64
    pad: 3
    kernel_size: 7
    stride: 2
    weight_filler {
      type: "xavier"
    }
    bias_filler {
      type: "constant"
      value: 0.2
    }
  }
}
layer {
  name: "conv1/relu_7x7"
  type: "ReLU"
  bottom: "conv1/7x7_s2"
  top: "conv1/7x7_s2"
}
layer {
  name: "pool1/3x3_s2"
  type: "Pooling"
  bottom: "conv1/7x7_s2"
  top: "pool1/3x3_s2"
  pooling_param {
    pool: MAX
    kernel_size: 3
    stride: 2
  }
}
layer {
  name: "pool1/norm1"
  type: "LRN"
  bottom: "pool1/3x3_s2"
  top: "pool1/norm1"
  lrn_param {
    local_size: 5
    alpha: 0.0001
    beta: 0.75
  }
}
layer {
  name: "conv2/3x3_reduce"
  type: "Convolution"
  bottom: "pool1/norm1"
  top: "conv2/3x3_reduce"
  param {
    lr_mult: 1
    decay_mult: 1
  }
  param {
    lr_mult: 2
    decay_mult: 0
  }
  convolution_param {
    num_output: 64
    kernel_size: 1
    weight_filler {
      type: "xavier"
    }
    bias_filler {
      type: "constant"
      value: 0.2
    }
  }
}
layer {
  name: "conv2/relu_3x3_reduce"
  type: "ReLU"
  bottom: "conv2/3x3_reduce"
  top: "conv2/3x3_reduce"
}
layer {
  name: "conv2/3x3"
  type: "Convolution"
  bottom: "conv2/3x3_reduce"
  top: "conv2/3x3"
  param {
    lr_mult: 1
    decay_mult: 1
  }
  param {
    lr_mult: 2
    decay_mult: 0
  }
  convolution_param {
    num_output: 192
    pad: 1
    kernel_size: 3
    weight_filler {
      type: "xavier"
    }
    bias_filler {
      type: "constant"
      value: 0.2
    }
  }
}
layer {
  name: "conv2/relu_3x3"
  type: "ReLU"
  bottom: "conv2/3x3"
  top: "conv2/3x3"
}
layer {
  name: "conv2/norm2"
  type: "LRN"
  bottom: "conv2/3x3"
  top: "conv2/norm2"
  lrn_param {
    local_size: 5
    alpha: 0.0001
    beta: 0.75
  }
}
layer {
  name: "pool2/3x3_s2"
  type: "Pooling"
  bottom: "conv2/norm2"
  top: "pool2/3x3_s2"
  pooling_param {
    pool: MAX
    kernel_size: 3
    stride: 2
  }
}
layer {
  name: "inception_3a/1x1"
  type: "Convolution"
  bottom: "pool2/3x3_s2"
  top: "inception_3a/1x1"
  param {
    lr_mult: 1
    decay_mult: 1
  }
  param {
    lr_mult: 2
    decay_mult: 0
  }
  convolution_param {
    num_output: 64
    kernel_size: 1
    weight_filler {
      type: "xavier"
    }
    bias_filler {
      type: "constant"
      value: 0.2
    }
  }
}
layer {
  name: "inception_3a/relu_1x1"
  type: "ReLU"
  bottom: "inception_3a/1x1"
  top: "inception_3a/1x1"
}
layer {
  name: "inception_3a/3x3_reduce"
  type: "Convolution"
  bottom: "pool2/3x3_s2"
  top: "inception_3a/3x3_reduce"
  param {
    lr_mult: 1
    decay_mult: 1
  }
  param {
    lr_mult: 2
    decay_mult: 0
  }
  convolution_param {
    num_output: 96
    kernel_size: 1
    weight_filler {
      type: "xavier"
    }
    bias_filler {
      type: "constant"
      value: 0.2
    }
  }
}
layer {
  name: "inception_3a/relu_3x3_reduce"
  type: "ReLU"
  bottom: "inception_3a/3x3_reduce"
  top: "inception_3a/3x3_reduce"
}
layer {
  name: "inception_3a/3x3"
  type: "Convolution"
  bottom: "inception_3a/3x3_reduce"
  top: "inception_3a/3x3"
  param {
    lr_mult: 1
    decay_mult: 1
  }
  param {
    lr_mult: 2
    decay_mult: 0
  }
  convolution_param {
    num_output: 128
    pad: 1
    kernel_size: 3
    weight_filler {
      type: "xavier"
    }
    bias_filler {
      type: "constant"
      value: 0.2
    }
  }
}
layer {
  name: "inception_3a/relu_3x3"
  type: "ReLU"
  bottom: "inception_3a/3x3"
  top: "inception_3a/3x3"
}
layer {
  name: "inception_3a/5x5_reduce"
  type: "Convolution"
  bottom: "pool2/3x3_s2"
  top: "inception_3a/5x5_reduce"
  param {
    lr_mult: 1
    decay_mult: 1
  }
  param {
    lr_mult: 2
    decay_mult: 0
  }
  convolution_param {
    num_output: 16
    kernel_size: 1
    weight_filler {
      type: "xavier"
    }
    bias_filler {
      type: "constant"
      value: 0.2
    }
  }
}
layer {
  name: "inception_3a/relu_5x5_reduce"
  type: "ReLU"
  bottom: "inception_3a/5x5_reduce"
  top: "inception_3a/5x5_reduce"
}
layer {
  name: "inception_3a/5x5"
  type: "Convolution"
  bottom: "inception_3a/5x5_reduce"
  top: "inception_3a/5x5"
  param {
    lr_mult: 1
    decay_mult: 1
  }
  param {
    lr_mult: 2
    decay_mult: 0
  }
  convolution_param {
    num_output: 32
    pad: 2
    kernel_size: 5
    weight_filler {
      type: "xavier"
    }
    bias_filler {
      type: "constant"
      value: 0.2
    }
  }
}
layer {
  name: "inception_3a/relu_5x5"
  type: "ReLU"
  bottom: "inception_3a/5x5"
  top: "inception_3a/5x5"
}
layer {
  name: "inception_3a/pool"
  type: "Pooling"
  bottom: "pool2/3x3_s2"
  top: "inception_3a/pool"
  pooling_param {
    pool: MAX
    kernel_size: 3
    stride: 1
    pad: 1
  }
}
layer {
  name: "inception_3a/pool_proj"
  type: "Convolution"
  bottom: "inception_3a/pool"
  top: "inception_3a/pool_proj"
  param {
    lr_mult: 1
    decay_mult: 1
  }
  param {
    lr_mult: 2
    decay_mult: 0
  }
  convolution_param {
    num_output: 32
    kernel_size: 1
    weight_filler {
      type: "xavier"
    }
    bias_filler {
      type: "constant"
      value: 0.2
    }
  }
}
layer {
  name: "inception_3a/relu_pool_proj"
  type: "ReLU"
  bottom: "inception_3a/pool_proj"
  top: "inception_3a/pool_proj"
}
layer {
  name: "inception_3a/output"
  type: "Concat"
  bottom: "inception_3a/1x1"
  bottom: "inception_3a/3x3"
  bottom: "inception_3a/5x5"
  bottom: "inception_3a/pool_proj"
  top: "inception_3a/output"
}
layer {
  name: "inception_3b/1x1"
  type: "Convolution"
  bottom: "inception_3a/output"
  top: "inception_3b/1x1"
  param {
    lr_mult: 1
    decay_mult: 1
  }
  param {
    lr_mult: 2
    decay_mult: 0
  }
  convolution_param {
    num_output: 128
    kernel_size: 1
    weight_filler {
      type: "xavier"
    }
    bias_filler {
      type: "constant"
      value: 0.2
    }
  }
}
layer {
  name: "inception_3b/relu_1x1"
  type: "ReLU"
  bottom: "inception_3b/1x1"
  top: "inception_3b/1x1"
}
layer {
  name: "inception_3b/3x3_reduce"
  type: "Convolution"
  bottom: "inception_3a/output"
  top: "inception_3b/3x3_reduce"
  param {
    lr_mult: 1
    decay_mult: 1
  }
  param {
    lr_mult: 2
    decay_mult: 0
  }
  convolution_param {
    num_output: 128
    kernel_size: 1
    weight_filler {
      type: "xavier"
    }
    bias_filler {
      type: "constant"
      value: 0.2
    }
  }
}
layer {
  name: "inception_3b/relu_3x3_reduce"
  type: "ReLU"
  bottom: "inception_3b/3x3_reduce"
  top: "inception_3b/3x3_reduce"
}
layer {
  name: "inception_3b/3x3"
  type: "Convolution"
  bottom: "inception_3b/3x3_reduce"
  top: "inception_3b/3x3"
  param {
    lr_mult: 1
    decay_mult: 1
  }
  param {
    lr_mult: 2
    decay_mult: 0
  }
  convolution_param {
    num_output: 192
    pad: 1
    kernel_size: 3
    weight_filler {
      type: "xavier"
    }
    bias_filler {
      type: "constant"
      value: 0.2
    }
  }
}
layer {
  name: "inception_3b/relu_3x3"
  type: "ReLU"
  bottom: "inception_3b/3x3"
  top: "inception_3b/3x3"
}
layer {
  name: "inception_3b/5x5_reduce"
  type: "Convolution"
  bottom: "inception_3a/output"
  top: "inception_3b/5x5_reduce"
  param {
    lr_mult: 1
    decay_mult: 1
  }
  param {
    lr_mult: 2
    decay_mult: 0
  }
  convolution_param {
    num_output: 32
    kernel_size: 1
    weight_filler {
      type: "xavier"
    }
    bias_filler {
      type: "constant"
      value: 0.2
    }
  }
}
layer {
  name: "inception_3b/relu_5x5_reduce"
  type: "ReLU"
  bottom: "inception_3b/5x5_reduce"
  top: "inception_3b/5x5_reduce"
}
layer {
  name: "inception_3b/5x5"
  type: "Convolution"
  bottom: "inception_3b/5x5_reduce"
  top: "inception_3b/5x5"
  param {
    lr_mult: 1
    decay_mult: 1
  }
  param {
    lr_mult: 2
    decay_mult: 0
  }
  convolution_param {
    num_output: 96
    pad: 2
    kernel_size: 5
    weight_filler {
      type: "xavier"
    }
    bias_filler {
      type: "constant"
      value: 0.2
    }
  }
}
layer {
  name: "inception_3b/relu_5x5"
  type: "ReLU"
  bottom: "inception_3b/5x5"
  top: "inception_3b/5x5"
}
layer {
  name: "inception_3b/pool"
  type: "Pooling"
  bottom: "inception_3a/output"
  top: "inception_3b/pool"
  pooling_param {
    pool: MAX
    kernel_size: 3
    stride: 1
    pad: 1
  }
}
layer {
  name: "inception_3b/pool_proj"
  type: "Convolution"
  bottom: "inception_3b/pool"
  top: "inception_3b/pool_proj"
  param {
    lr_mult: 1
    decay_mult: 1
  }
  param {
    lr_mult: 2
    decay_mult: 0
  }
  convolution_param {
    num_output: 64
    kernel_size: 1
    weight_filler {
      type: "xavier"
    }
    bias_filler {
      type: "constant"
      value: 0.2
    }
  }
}
layer {
  name: "inception_3b/relu_pool_proj"
  type: "ReLU"
  bottom: "inception_3b/pool_proj"
  top: "inception_3b/pool_proj"
}
layer {
  name: "inception_3b/output"
  type: "Concat"
  bottom: "inception_3b/1x1"
  bottom: "inception_3b/3x3"
  bottom: "inception_3b/5x5"
  bottom: "inception_3b/pool_proj"
  top: "inception_3b/output"
}
layer {
  name: "pool3/3x3_s2"
  type: "Pooling"
  bottom: "inception_3b/output"
  top: "pool3/3x3_s2"
  pooling_param {
    pool: MAX
    kernel_size: 3
    stride: 2
  }
}
layer {
  name: "inception_4a/1x1"
  type: "Convolution"
  bottom: "pool3/3x3_s2"
  top: "inception_4a/1x1"
  param {
    lr_mult: 1
    decay_mult: 1
  }
  param {
    lr_mult: 2
    decay_mult: 0
  }
  convolution_param {
    num_output: 192
    kernel_size: 1
    weight_filler {
      type: "xavier"
    }
    bias_filler {
      type: "constant"
      value: 0.2
    }
  }
}
layer {
  name: "inception_4a/relu_1x1"
  type: "ReLU"
  bottom: "inception_4a/1x1"
  top: "inception_4a/1x1"
}
layer {
  name: "inception_4a/3x3_reduce"
  type: "Convolution"
  bottom: "pool3/3x3_s2"
  top: "inception_4a/3x3_reduce"
  param {
    lr_mult: 1
    decay_mult: 1
  }
  param {
    lr_mult: 2
    decay_mult: 0
  }
  convolution_param {
    num_output: 96
    kernel_size: 1
    weight_filler {
      type: "xavier"
    }
    bias_filler {
      type: "constant"
      value: 0.2
    }
  }
}
layer {
  name: "inception_4a/relu_3x3_reduce"
  type: "ReLU"
  bottom: "inception_4a/3x3_reduce"
  top: "inception_4a/3x3_reduce"
}
layer {
  name: "inception_4a/3x3"
  type: "Convolution"
  bottom: "inception_4a/3x3_reduce"
  top: "inception_4a/3x3"
  param {
    lr_mult: 1
    decay_mult: 1
  }
  param {
    lr_mult: 2
    decay_mult: 0
  }
  convolution_param {
    num_output: 208
    pad: 1
    kernel_size: 3
    weight_filler {
      type: "xavier"
    }
    bias_filler {
      type: "constant"
      value: 0.2
    }
  }
}
layer {
  name: "inception_4a/relu_3x3"
  type: "ReLU"
  bottom: "inception_4a/3x3"
  top: "inception_4a/3x3"
}
layer {
  name: "inception_4a/5x5_reduce"
  type: "Convolution"
  bottom: "pool3/3x3_s2"
  top: "inception_4a/5x5_reduce"
  param {
    lr_mult: 1
    decay_mult: 1
  }
  param {
    lr_mult: 2
    decay_mult: 0
  }
  convolution_param {
    num_output: 16
    kernel_size: 1
    weight_filler {
      type: "xavier"
    }
    bias_filler {
      type: "constant"
      value: 0.2
    }
  }
}
layer {
  name: "inception_4a/relu_5x5_reduce"
  type: "ReLU"
  bottom: "inception_4a/5x5_reduce"
  top: "inception_4a/5x5_reduce"
}
layer {
  name: "inception_4a/5x5"
  type: "Convolution"
  bottom: "inception_4a/5x5_reduce"
  top: "inception_4a/5x5"
  param {
    lr_mult: 1
    decay_mult: 1
  }
  param {
    lr_mult: 2
    decay_mult: 0
  }
  convolution_param {
    num_output: 48
    pad: 2
    kernel_size: 5
    weight_filler {
      type: "xavier"
    }
    bias_filler {
      type: "constant"
      value: 0.2
    }
  }
}
layer {
  name: "inception_4a/relu_5x5"
  type: "ReLU"
  bottom: "inception_4a/5x5"
  top: "inception_4a/5x5"
}
layer {
  name: "inception_4a/pool"
  type: "Pooling"
  bottom: "pool3/3x3_s2"
  top: "inception_4a/pool"
  pooling_param {
    pool: MAX
    kernel_size: 3
    stride: 1
    pad: 1
  }
}
layer {
  name: "inception_4a/pool_proj"
  type: "Convolution"
  bottom: "inception_4a/pool"
  top: "inception_4a/pool_proj"
  param {
    lr_mult: 1
    decay_mult: 1
  }
  param {
    lr_mult: 2
    decay_mult: 0
  }
  convolution_param {
    num_output: 64
    kernel_size: 1
    weight_filler {
      type: "xavier"
    }
    bias_filler {
      type: "constant"
      value: 0.2
    }
  }
}
layer {
  name: "inception_4a/relu_pool_proj"
  type: "ReLU"
  bottom: "inception_4a/pool_proj"
  top: "inception_4a/pool_proj"
}
layer {
  name: "inception_4a/output"
  type: "Concat"
  bottom: "inception_4a/1x1"
  bottom: "inception_4a/3x3"
  bottom: "inception_4a/5x5"
  bottom: "inception_4a/pool_proj"
  top: "inception_4a/output"
}
layer {
  name: "loss1/ave_pool"
  type: "Pooling"
  bottom: "inception_4a/output"
  top: "loss1/ave_pool"
  pooling_param {
    pool: AVE
    kernel_size: 5
    stride: 3
  }
}
layer {
  name: "loss1/conv"
  type: "Convolution"
  bottom: "loss1/ave_pool"
  top: "loss1/conv"
  param {
    lr_mult: 1
    decay_mult: 1
  }
  param {
    lr_mult: 2
    decay_mult: 0
  }
  convolution_param {
    num_output: 128
    kernel_size: 1
    weight_filler {
      type: "xavier"
    }
    bias_filler {
      type: "constant"
      value: 0.2
    }
  }
}
layer {
  name: "loss1/relu_conv"
  type: "ReLU"
  bottom: "loss1/conv"
  top: "loss1/conv"
}
layer {
  name: "loss1/fc_kaggle"
  type: "InnerProduct"
  bottom: "loss1/conv"
  top: "loss1/fc_kaggle"
  param {
    lr_mult: 1
    decay_mult: 1
  }
  param {
    lr_mult: 2
    decay_mult: 0
  }
  inner_product_param {
    num_output: 1024
    weight_filler {
      type: "xavier"
    }
    bias_filler {
      type: "constant"
      value: 0.2
    }
  }
}
layer {
  name: "loss1/relu_fc_kaggle"
  type: "ReLU"
  bottom: "loss1/fc_kaggle"
  top: "loss1/fc_kaggle"
}
layer {
  name: "loss1/drop_fc_kaggle"
  type: "Dropout"
  bottom: "loss1/fc_kaggle"
  top: "loss1/fc_kaggle"
  dropout_param {
    dropout_ratio: 0.7
  }
}
layer {
  name: "loss1/classifier_kaggle"
  type: "InnerProduct"
  bottom: "loss1/fc_kaggle"
  top: "loss1/classifier_kaggle"
  param {
    lr_mult: 1
    decay_mult: 1
  }
  param {
    lr_mult: 2
    decay_mult: 0
  }
  inner_product_param {
    num_output: 447
    weight_filler {
      type: "xavier"
    }
    bias_filler {
      type: "constant"
      value: 0
    }
  }
}
layer {
  name: "loss1/loss"
  type: "SoftmaxWithLoss"
  bottom: "loss1/classifier_kaggle"
  bottom: "label"
  top: "loss1/loss1"
  loss_weight: 0.3
}
layer {
  name: "inception_4b/1x1"
  type: "Convolution"
  bottom: "inception_4a/output"
  top: "inception_4b/1x1"
  param {
    lr_mult: 1
    decay_mult: 1
  }
  param {
    lr_mult: 2
    decay_mult: 0
  }
  convolution_param {
    num_output: 160
    kernel_size: 1
    weight_filler {
      type: "xavier"
    }
    bias_filler {
      type: "constant"
      value: 0.2
    }
  }
}
layer {
  name: "inception_4b/relu_1x1"
  type: "ReLU"
  bottom: "inception_4b/1x1"
  top: "inception_4b/1x1"
}
layer {
  name: "inception_4b/3x3_reduce"
  type: "Convolution"
  bottom: "inception_4a/output"
  top: "inception_4b/3x3_reduce"
  param {
    lr_mult: 1
    decay_mult: 1
  }
  param {
    lr_mult: 2
    decay_mult: 0
  }
  convolution_param {
    num_output: 112
    kernel_size: 1
    weight_filler {
      type: "xavier"
    }
    bias_filler {
      type: "constant"
      value: 0.2
    }
  }
}
layer {
  name: "inception_4b/relu_3x3_reduce"
  type: "ReLU"
  bottom: "inception_4b/3x3_reduce"
  top: "inception_4b/3x3_reduce"
}
layer {
  name: "inception_4b/3x3"
  type: "Convolution"
  bottom: "inception_4b/3x3_reduce"
  top: "inception_4b/3x3"
  param {
    lr_mult: 1
    decay_mult: 1
  }
  param {
    lr_mult: 2
    decay_mult: 0
  }
  convolution_param {
    num_output: 224
    pad: 1
    kernel_size: 3
    weight_filler {
      type: "xavier"
    }
    bias_filler {
      type: "constant"
      value: 0.2
    }
  }
}
layer {
  name: "inception_4b/relu_3x3"
  type: "ReLU"
  bottom: "inception_4b/3x3"
  top: "inception_4b/3x3"
}
layer {
  name: "inception_4b/5x5_reduce"
  type: "Convolution"
  bottom: "inception_4a/output"
  top: "inception_4b/5x5_reduce"
  param {
    lr_mult: 1
    decay_mult: 1
  }
  param {
    lr_mult: 2
    decay_mult: 0
  }
  convolution_param {
    num_output: 24
    kernel_size: 1
    weight_filler {
      type: "xavier"
    }
    bias_filler {
      type: "constant"
      value: 0.2
    }
  }
}
layer {
  name: "inception_4b/relu_5x5_reduce"
  type: "ReLU"
  bottom: "inception_4b/5x5_reduce"
  top: "inception_4b/5x5_reduce"
}
layer {
  name: "inception_4b/5x5"
  type: "Convolution"
  bottom: "inception_4b/5x5_reduce"
  top: "inception_4b/5x5"
  param {
    lr_mult: 1
    decay_mult: 1
  }
  param {
    lr_mult: 2
    decay_mult: 0
  }
  convolution_param {
    num_output: 64
    pad: 2
    kernel_size: 5
    weight_filler {
      type: "xavier"
    }
    bias_filler {
      type: "constant"
      value: 0.2
    }
  }
}
layer {
  name: "inception_4b/relu_5x5"
  type: "ReLU"
  bottom: "inception_4b/5x5"
  top: "inception_4b/5x5"
}
layer {
  name: "inception_4b/pool"
  type: "Pooling"
  bottom: "inception_4a/output"
  top: "inception_4b/pool"
  pooling_param {
    pool: MAX
    kernel_size: 3
    stride: 1
    pad: 1
  }
}
layer {
  name: "inception_4b/pool_proj"
  type: "Convolution"
  bottom: "inception_4b/pool"
  top: "inception_4b/pool_proj"
  param {
    lr_mult: 1
    decay_mult: 1
  }
  param {
    lr_mult: 2
    decay_mult: 0
  }
  convolution_param {
    num_output: 64
    kernel_size: 1
    weight_filler {
      type: "xavier"
    }
    bias_filler {
      type: "constant"
      value: 0.2
    }
  }
}
layer {
  name: "inception_4b/relu_pool_proj"
  type: "ReLU"
  bottom: "inception_4b/pool_proj"
  top: "inception_4b/pool_proj"
}
layer {
  name: "inception_4b/output"
  type: "Concat"
  bottom: "inception_4b/1x1"
  bottom: "inception_4b/3x3"
  bottom: "inception_4b/5x5"
  bottom: "inception_4b/pool_proj"
  top: "inception_4b/output"
}
layer {
  name: "inception_4c/1x1"
  type: "Convolution"
  bottom: "inception_4b/output"
  top: "inception_4c/1x1"
  param {
    lr_mult: 1
    decay_mult: 1
  }
  param {
    lr_mult: 2
    decay_mult: 0
  }
  convolution_param {
    num_output: 128
    kernel_size: 1
    weight_filler {
      type: "xavier"
    }
    bias_filler {
      type: "constant"
      value: 0.2
    }
  }
}
layer {
  name: "inception_4c/relu_1x1"
  type: "ReLU"
  bottom: "inception_4c/1x1"
  top: "inception_4c/1x1"
}
layer {
  name: "inception_4c/3x3_reduce"
  type: "Convolution"
  bottom: "inception_4b/output"
  top: "inception_4c/3x3_reduce"
  param {
    lr_mult: 1
    decay_mult: 1
  }
  param {
    lr_mult: 2
    decay_mult: 0
  }
  convolution_param {
    num_output: 128
    kernel_size: 1
    weight_filler {
      type: "xavier"
    }
    bias_filler {
      type: "constant"
      value: 0.2
    }
  }
}
layer {
  name: "inception_4c/relu_3x3_reduce"
  type: "ReLU"
  bottom: "inception_4c/3x3_reduce"
  top: "inception_4c/3x3_reduce"
}
layer {
  name: "inception_4c/3x3"
  type: "Convolution"
  bottom: "inception_4c/3x3_reduce"
  top: "inception_4c/3x3"
  param {
    lr_mult: 1
    decay_mult: 1
  }
  param {
    lr_mult: 2
    decay_mult: 0
  }
  convolution_param {
    num_output: 256
    pad: 1
    kernel_size: 3
    weight_filler {
      type: "xavier"
    }
    bias_filler {
      type: "constant"
      value: 0.2
    }
  }
}
layer {
  name: "inception_4c/relu_3x3"
  type: "ReLU"
  bottom: "inception_4c/3x3"
  top: "inception_4c/3x3"
}
layer {
  name: "inception_4c/5x5_reduce"
  type: "Convolution"
  bottom: "inception_4b/output"
  top: "inception_4c/5x5_reduce"
  param {
    lr_mult: 1
    decay_mult: 1
  }
  param {
    lr_mult: 2
    decay_mult: 0
  }
  convolution_param {
    num_output: 24
    kernel_size: 1
    weight_filler {
      type: "xavier"
    }
    bias_filler {
      type: "constant"
      value: 0.2
    }
  }
}
layer {
  name: "inception_4c/relu_5x5_reduce"
  type: "ReLU"
  bottom: "inception_4c/5x5_reduce"
  top: "inception_4c/5x5_reduce"
}
layer {
  name: "inception_4c/5x5"
  type: "Convolution"
  bottom: "inception_4c/5x5_reduce"
  top: "inception_4c/5x5"
  param {
    lr_mult: 1
    decay_mult: 1
  }
  param {
    lr_mult: 2
    decay_mult: 0
  }
  convolution_param {
    num_output: 64
    pad: 2
    kernel_size: 5
    weight_filler {
      type: "xavier"
    }
    bias_filler {
      type: "constant"
      value: 0.2
    }
  }
}
layer {
  name: "inception_4c/relu_5x5"
  type: "ReLU"
  bottom: "inception_4c/5x5"
  top: "inception_4c/5x5"
}
layer {
  name: "inception_4c/pool"
  type: "Pooling"
  bottom: "inception_4b/output"
  top: "inception_4c/pool"
  pooling_param {
    pool: MAX
    kernel_size: 3
    stride: 1
    pad: 1
  }
}
layer {
  name: "inception_4c/pool_proj"
  type: "Convolution"
  bottom: "inception_4c/pool"
  top: "inception_4c/pool_proj"
  param {
    lr_mult: 1
    decay_mult: 1
  }
  param {
    lr_mult: 2
    decay_mult: 0
  }
  convolution_param {
    num_output: 64
    kernel_size: 1
    weight_filler {
      type: "xavier"
    }
    bias_filler {
      type: "constant"
      value: 0.2
    }
  }
}
layer {
  name: "inception_4c/relu_pool_proj"
  type: "ReLU"
  bottom: "inception_4c/pool_proj"
  top: "inception_4c/pool_proj"
}
layer {
  name: "inception_4c/output"
  type: "Concat"
  bottom: "inception_4c/1x1"
  bottom: "inception_4c/3x3"
  bottom: "inception_4c/5x5"
  bottom: "inception_4c/pool_proj"
  top: "inception_4c/output"
}
layer {
  name: "inception_4d/1x1"
  type: "Convolution"
  bottom: "inception_4c/output"
  top: "inception_4d/1x1"
  param {
    lr_mult: 1
    decay_mult: 1
  }
  param {
    lr_mult: 2
    decay_mult: 0
  }
  convolution_param {
    num_output: 112
    kernel_size: 1
    weight_filler {
      type: "xavier"
    }
    bias_filler {
      type: "constant"
      value: 0.2
    }
  }
}
layer {
  name: "inception_4d/relu_1x1"
  type: "ReLU"
  bottom: "inception_4d/1x1"
  top: "inception_4d/1x1"
}
layer {
  name: "inception_4d/3x3_reduce"
  type: "Convolution"
  bottom: "inception_4c/output"
  top: "inception_4d/3x3_reduce"
  param {
    lr_mult: 1
    decay_mult: 1
  }
  param {
    lr_mult: 2
    decay_mult: 0
  }
  convolution_param {
    num_output: 144
    kernel_size: 1
    weight_filler {
      type: "xavier"
    }
    bias_filler {
      type: "constant"
      value: 0.2
    }
  }
}
layer {
  name: "inception_4d/relu_3x3_reduce"
  type: "ReLU"
  bottom: "inception_4d/3x3_reduce"
  top: "inception_4d/3x3_reduce"
}
layer {
  name: "inception_4d/3x3"
  type: "Convolution"
  bottom: "inception_4d/3x3_reduce"
  top: "inception_4d/3x3"
  param {
    lr_mult: 1
    decay_mult: 1
  }
  param {
    lr_mult: 2
    decay_mult: 0
  }
  convolution_param {
    num_output: 288
    pad: 1
    kernel_size: 3
    weight_filler {
      type: "xavier"
    }
    bias_filler {
      type: "constant"
      value: 0.2
    }
  }
}
layer {
  name: "inception_4d/relu_3x3"
  type: "ReLU"
  bottom: "inception_4d/3x3"
  top: "inception_4d/3x3"
}
layer {
  name: "inception_4d/5x5_reduce"
  type: "Convolution"
  bottom: "inception_4c/output"
  top: "inception_4d/5x5_reduce"
  param {
    lr_mult: 1
    decay_mult: 1
  }
  param {
    lr_mult: 2
    decay_mult: 0
  }
  convolution_param {
    num_output: 32
    kernel_size: 1
    weight_filler {
      type: "xavier"
    }
    bias_filler {
      type: "constant"
      value: 0.2
    }
  }
}
layer {
  name: "inception_4d/relu_5x5_reduce"
  type: "ReLU"
  bottom: "inception_4d/5x5_reduce"
  top: "inception_4d/5x5_reduce"
}
layer {
  name: "inception_4d/5x5"
  type: "Convolution"
  bottom: "inception_4d/5x5_reduce"
  top: "inception_4d/5x5"
  param {
    lr_mult: 1
    decay_mult: 1
  }
  param {
    lr_mult: 2
    decay_mult: 0
  }
  convolution_param {
    num_output: 64
    pad: 2
    kernel_size: 5
    weight_filler {
      type: "xavier"
    }
    bias_filler {
      type: "constant"
      value: 0.2
    }
  }
}
layer {
  name: "inception_4d/relu_5x5"
  type: "ReLU"
  bottom: "inception_4d/5x5"
  top: "inception_4d/5x5"
}
layer {
  name: "inception_4d/pool"
  type: "Pooling"
  bottom: "inception_4c/output"
  top: "inception_4d/pool"
  pooling_param {
    pool: MAX
    kernel_size: 3
    stride: 1
    pad: 1
  }
}
layer {
  name: "inception_4d/pool_proj"
  type: "Convolution"
  bottom: "inception_4d/pool"
  top: "inception_4d/pool_proj"
  param {
    lr_mult: 1
    decay_mult: 1
  }
  param {
    lr_mult: 2
    decay_mult: 0
  }
  convolution_param {
    num_output: 64
    kernel_size: 1
    weight_filler {
      type: "xavier"
    }
    bias_filler {
      type: "constant"
      value: 0.2
    }
  }
}
layer {
  name: "inception_4d/relu_pool_proj"
  type: "ReLU"
  bottom: "inception_4d/pool_proj"
  top: "inception_4d/pool_proj"
}
layer {
  name: "inception_4d/output"
  type: "Concat"
  bottom: "inception_4d/1x1"
  bottom: "inception_4d/3x3"
  bottom: "inception_4d/5x5"
  bottom: "inception_4d/pool_proj"
  top: "inception_4d/output"
}
layer {
  name: "loss2/ave_pool"
  type: "Pooling"
  bottom: "inception_4d/output"
  top: "loss2/ave_pool"
  pooling_param {
    pool: AVE
    kernel_size: 5
    stride: 3
  }
}
layer {
  name: "loss2/conv"
  type: "Convolution"
  bottom: "loss2/ave_pool"
  top: "loss2/conv"
  param {
    lr_mult: 1
    decay_mult: 1
  }
  param {
    lr_mult: 2
    decay_mult: 0
  }
  convolution_param {
    num_output: 128
    kernel_size: 1
    weight_filler {
      type: "xavier"
    }
    bias_filler {
      type: "constant"
      value: 0.2
    }
  }
}
layer {
  name: "loss2/relu_conv"
  type: "ReLU"
  bottom: "loss2/conv"
  top: "loss2/conv"
}
layer {
  name: "loss2/fc_kaggle"
  type: "InnerProduct"
  bottom: "loss2/conv"
  top: "loss2/fc_kaggle"
  param {
    lr_mult: 1
    decay_mult: 1
  }
  param {
    lr_mult: 2
    decay_mult: 0
  }
  inner_product_param {
    num_output: 1024
    weight_filler {
      type: "xavier"
    }
    bias_filler {
      type: "constant"
      value: 0.2
    }
  }
}
layer {
  name: "loss2/relu_fc_kaggle"
  type: "ReLU"
  bottom: "loss2/fc_kaggle"
  top: "loss2/fc_kaggle"
}
layer {
  name: "loss2/drop_fc_kaggle"
  type: "Dropout"
  bottom: "loss2/fc_kaggle"
  top: "loss2/fc_kaggle"
  dropout_param {
    dropout_ratio: 0.7
  }
}
layer {
  name: "loss2/classifier_kaggle"
  type: "InnerProduct"
  bottom: "loss2/fc_kaggle"
  top: "loss2/classifier_kaggle"
  param {
    lr_mult: 1
    decay_mult: 1
  }
  param {
    lr_mult: 2
    decay_mult: 0
  }
  inner_product_param {
    num_output: 447
    weight_filler {
      type: "xavier"
    }
    bias_filler {
      type: "constant"
      value: 0
    }
  }
}
layer {
  name: "loss2/loss"
  type: "SoftmaxWithLoss"
  bottom: "loss2/classifier_kaggle"
  bottom: "label"
  top: "loss2/loss1"
  loss_weight: 0.3
}
layer {
  name: "inception_4e/1x1"
  type: "Convolution"
  bottom: "inception_4d/output"
  top: "inception_4e/1x1"
  param {
    lr_mult: 1
    decay_mult: 1
  }
  param {
    lr_mult: 2
    decay_mult: 0
  }
  convolution_param {
    num_output: 256
    kernel_size: 1
    weight_filler {
      type: "xavier"
    }
    bias_filler {
      type: "constant"
      value: 0.2
    }
  }
}
layer {
  name: "inception_4e/relu_1x1"
  type: "ReLU"
  bottom: "inception_4e/1x1"
  top: "inception_4e/1x1"
}
layer {
  name: "inception_4e/3x3_reduce"
  type: "Convolution"
  bottom: "inception_4d/output"
  top: "inception_4e/3x3_reduce"
  param {
    lr_mult: 1
    decay_mult: 1
  }
  param {
    lr_mult: 2
    decay_mult: 0
  }
  convolution_param {
    num_output: 160
    kernel_size: 1
    weight_filler {
      type: "xavier"
    }
    bias_filler {
      type: "constant"
      value: 0.2
    }
  }
}
layer {
  name: "inception_4e/relu_3x3_reduce"
  type: "ReLU"
  bottom: "inception_4e/3x3_reduce"
  top: "inception_4e/3x3_reduce"
}
layer {
  name: "inception_4e/3x3"
  type: "Convolution"
  bottom: "inception_4e/3x3_reduce"
  top: "inception_4e/3x3"
  param {
    lr_mult: 1
    decay_mult: 1
  }
  param {
    lr_mult: 2
    decay_mult: 0
  }
  convolution_param {
    num_output: 320
    pad: 1
    kernel_size: 3
    weight_filler {
      type: "xavier"
    }
    bias_filler {
      type: "constant"
      value: 0.2
    }
  }
}
layer {
  name: "inception_4e/relu_3x3"
  type: "ReLU"
  bottom: "inception_4e/3x3"
  top: "inception_4e/3x3"
}
layer {
  name: "inception_4e/5x5_reduce"
  type: "Convolution"
  bottom: "inception_4d/output"
  top: "inception_4e/5x5_reduce"
  param {
    lr_mult: 1
    decay_mult: 1
  }
  param {
    lr_mult: 2
    decay_mult: 0
  }
  convolution_param {
    num_output: 32
    kernel_size: 1
    weight_filler {
      type: "xavier"
    }
    bias_filler {
      type: "constant"
      value: 0.2
    }
  }
}
layer {
  name: "inception_4e/relu_5x5_reduce"
  type: "ReLU"
  bottom: "inception_4e/5x5_reduce"
  top: "inception_4e/5x5_reduce"
}
layer {
  name: "inception_4e/5x5"
  type: "Convolution"
  bottom: "inception_4e/5x5_reduce"
  top: "inception_4e/5x5"
  param {
    lr_mult: 1
    decay_mult: 1
  }
  param {
    lr_mult: 2
    decay_mult: 0
  }
  convolution_param {
    num_output: 128
    pad: 2
    kernel_size: 5
    weight_filler {
      type: "xavier"
    }
    bias_filler {
      type: "constant"
      value: 0.2
    }
  }
}
layer {
  name: "inception_4e/relu_5x5"
  type: "ReLU"
  bottom: "inception_4e/5x5"
  top: "inception_4e/5x5"
I1220 11:08:55.387342 27701 layer_factory.hpp:74] Creating layer data
I1220 11:08:55.387392 27701 net.cpp:84] Creating Layer data
I1220 11:08:55.387406 27701 net.cpp:338] data -> data
I1220 11:08:55.387451 27701 net.cpp:338] data -> label
I1220 11:08:55.387467 27701 net.cpp:113] Setting up data
I1220 11:08:55.387476 27701 image_data_layer.cpp:36] Opening file /home/coldmanck/kaggle/label_train_full.txt
I1220 11:08:55.423120 27701 image_data_layer.cpp:46] Shuffling data
I1220 11:08:55.424038 27701 image_data_layer.cpp:51] A total of 4235 images.
I1220 11:08:55.424908 27701 image_data_layer.cpp:80] output data size: 80,3,224,224
I1220 11:08:56.592381 27701 net.cpp:120] Top shape: 80 3 224 224 (12042240)
I1220 11:08:56.592458 27701 net.cpp:120] Top shape: 80 (80)
I1220 11:08:56.592476 27701 layer_factory.hpp:74] Creating layer label_data_1_split
I1220 11:08:56.592533 27701 net.cpp:84] Creating Layer label_data_1_split
I1220 11:08:56.592542 27701 net.cpp:380] label_data_1_split <- label
I1220 11:08:56.592560 27701 net.cpp:338] label_data_1_split -> label_data_1_split_0
I1220 11:08:56.592573 27701 net.cpp:338] label_data_1_split -> label_data_1_split_1
I1220 11:08:56.592595 27701 net.cpp:338] label_data_1_split -> label_data_1_split_2
I1220 11:08:56.592618 27701 net.cpp:113] Setting up label_data_1_split
I1220 11:08:56.592629 27701 net.cpp:120] Top shape: 80 (80)
I1220 11:08:56.592634 27701 net.cpp:120] Top shape: 80 (80)
I1220 11:08:56.592639 27701 net.cpp:120] Top shape: 80 (80)
I1220 11:08:56.592646 27701 layer_factory.hpp:74] Creating layer conv1/7x7_s2
I1220 11:08:56.592661 27701 net.cpp:84] Creating Layer conv1/7x7_s2
I1220 11:08:56.592666 27701 net.cpp:380] conv1/7x7_s2 <- data
I1220 11:08:56.592676 27701 net.cpp:338] conv1/7x7_s2 -> conv1/7x7_s2
I1220 11:08:56.592686 27701 net.cpp:113] Setting up conv1/7x7_s2
I1220 11:08:57.093788 27701 net.cpp:120] Top shape: 80 64 112 112 (64225280)
I1220 11:08:57.093859 27701 layer_factory.hpp:74] Creating layer conv1/relu_7x7
I1220 11:08:57.093875 27701 net.cpp:84] Creating Layer conv1/relu_7x7
I1220 11:08:57.093883 27701 net.cpp:380] conv1/relu_7x7 <- conv1/7x7_s2
I1220 11:08:57.093895 27701 net.cpp:327] conv1/relu_7x7 -> conv1/7x7_s2 (in-place)
I1220 11:08:57.093909 27701 net.cpp:113] Setting up conv1/relu_7x7
I1220 11:08:57.094589 27701 net.cpp:120] Top shape: 80 64 112 112 (64225280)
I1220 11:08:57.094604 27701 layer_factory.hpp:74] Creating layer pool1/3x3_s2
I1220 11:08:57.094621 27701 net.cpp:84] Creating Layer pool1/3x3_s2
I1220 11:08:57.094627 27701 net.cpp:380] pool1/3x3_s2 <- conv1/7x7_s2
I1220 11:08:57.094636 27701 net.cpp:338] pool1/3x3_s2 -> pool1/3x3_s2
I1220 11:08:57.094674 27701 net.cpp:113] Setting up pool1/3x3_s2
I1220 11:08:57.094776 27701 net.cpp:120] Top shape: 80 64 56 56 (16056320)
I1220 11:08:57.094787 27701 layer_factory.hpp:74] Creating layer pool1/norm1
I1220 11:08:57.094799 27701 net.cpp:84] Creating Layer pool1/norm1
I1220 11:08:57.094805 27701 net.cpp:380] pool1/norm1 <- pool1/3x3_s2
I1220 11:08:57.094813 27701 net.cpp:338] pool1/norm1 -> pool1/norm1
I1220 11:08:57.094825 27701 net.cpp:113] Setting up pool1/norm1
I1220 11:08:57.094835 27701 net.cpp:120] Top shape: 80 64 56 56 (16056320)
I1220 11:08:57.094841 27701 layer_factory.hpp:74] Creating layer conv2/3x3_reduce
I1220 11:08:57.094853 27701 net.cpp:84] Creating Layer conv2/3x3_reduce
I1220 11:08:57.094859 27701 net.cpp:380] conv2/3x3_reduce <- pool1/norm1
I1220 11:08:57.094868 27701 net.cpp:338] conv2/3x3_reduce -> conv2/3x3_reduce
I1220 11:08:57.094880 27701 net.cpp:113] Setting up conv2/3x3_reduce
I1220 11:08:57.095476 27701 net.cpp:120] Top shape: 80 64 56 56 (16056320)
I1220 11:08:57.095499 27701 layer_factory.hpp:74] Creating layer conv2/relu_3x3_reduce
I1220 11:08:57.095509 27701 net.cpp:84] Creating Layer conv2/relu_3x3_reduce
I1220 11:08:57.095515 27701 net.cpp:380] conv2/relu_3x3_reduce <- conv2/3x3_reduce
I1220 11:08:57.095525 27701 net.cpp:327] conv2/relu_3x3_reduce -> conv2/3x3_reduce (in-place)
I1220 11:08:57.095533 27701 net.cpp:113] Setting up conv2/relu_3x3_reduce
I1220 11:08:57.095605 27701 net.cpp:120] Top shape: 80 64 56 56 (16056320)
I1220 11:08:57.095613 27701 layer_factory.hpp:74] Creating layer conv2/3x3
I1220 11:08:57.095624 27701 net.cpp:84] Creating Layer conv2/3x3
I1220 11:08:57.095630 27701 net.cpp:380] conv2/3x3 <- conv2/3x3_reduce
I1220 11:08:57.095640 27701 net.cpp:338] conv2/3x3 -> conv2/3x3
I1220 11:08:57.095650 27701 net.cpp:113] Setting up conv2/3x3
I1220 11:08:57.098860 27701 net.cpp:120] Top shape: 80 192 56 56 (48168960)
I1220 11:08:57.098888 27701 layer_factory.hpp:74] Creating layer conv2/relu_3x3
I1220 11:08:57.098901 27701 net.cpp:84] Creating Layer conv2/relu_3x3
I1220 11:08:57.098909 27701 net.cpp:380] conv2/relu_3x3 <- conv2/3x3
I1220 11:08:57.098918 27701 net.cpp:327] conv2/relu_3x3 -> conv2/3x3 (in-place)
I1220 11:08:57.098928 27701 net.cpp:113] Setting up conv2/relu_3x3
I1220 11:08:57.099510 27701 net.cpp:120] Top shape: 80 192 56 56 (48168960)
I1220 11:08:57.099527 27701 layer_factory.hpp:74] Creating layer conv2/norm2
I1220 11:08:57.099539 27701 net.cpp:84] Creating Layer conv2/norm2
I1220 11:08:57.099545 27701 net.cpp:380] conv2/norm2 <- conv2/3x3
I1220 11:08:57.099565 27701 net.cpp:338] conv2/norm2 -> conv2/norm2
I1220 11:08:57.099587 27701 net.cpp:113] Setting up conv2/norm2
I1220 11:08:57.099597 27701 net.cpp:120] Top shape: 80 192 56 56 (48168960)
I1220 11:08:57.099603 27701 layer_factory.hpp:74] Creating layer pool2/3x3_s2
I1220 11:08:57.099612 27701 net.cpp:84] Creating Layer pool2/3x3_s2
I1220 11:08:57.099617 27701 net.cpp:380] pool2/3x3_s2 <- conv2/norm2
I1220 11:08:57.099625 27701 net.cpp:338] pool2/3x3_s2 -> pool2/3x3_s2
I1220 11:08:57.099634 27701 net.cpp:113] Setting up pool2/3x3_s2
I1220 11:08:57.099737 27701 net.cpp:120] Top shape: 80 192 28 28 (12042240)
I1220 11:08:57.099746 27701 layer_factory.hpp:74] Creating layer pool2/3x3_s2_pool2/3x3_s2_0_split
I1220 11:08:57.099756 27701 net.cpp:84] Creating Layer pool2/3x3_s2_pool2/3x3_s2_0_split
I1220 11:08:57.099761 27701 net.cpp:380] pool2/3x3_s2_pool2/3x3_s2_0_split <- pool2/3x3_s2
I1220 11:08:57.099771 27701 net.cpp:338] pool2/3x3_s2_pool2/3x3_s2_0_split -> pool2/3x3_s2_pool2/3x3_s2_0_split_0
I1220 11:08:57.099781 27701 net.cpp:338] pool2/3x3_s2_pool2/3x3_s2_0_split -> pool2/3x3_s2_pool2/3x3_s2_0_split_1
I1220 11:08:57.099789 27701 net.cpp:338] pool2/3x3_s2_pool2/3x3_s2_0_split -> pool2/3x3_s2_pool2/3x3_s2_0_split_2
I1220 11:08:57.099798 27701 net.cpp:338] pool2/3x3_s2_pool2/3x3_s2_0_split -> pool2/3x3_s2_pool2/3x3_s2_0_split_3
I1220 11:08:57.099805 27701 net.cpp:113] Setting up pool2/3x3_s2_pool2/3x3_s2_0_split
I1220 11:08:57.099815 27701 net.cpp:120] Top shape: 80 192 28 28 (12042240)
I1220 11:08:57.099822 27701 net.cpp:120] Top shape: 80 192 28 28 (12042240)
I1220 11:08:57.099828 27701 net.cpp:120] Top shape: 80 192 28 28 (12042240)
I1220 11:08:57.099834 27701 net.cpp:120] Top shape: 80 192 28 28 (12042240)
I1220 11:08:57.099839 27701 layer_factory.hpp:74] Creating layer inception_3a/1x1
I1220 11:08:57.099849 27701 net.cpp:84] Creating Layer inception_3a/1x1
I1220 11:08:57.099855 27701 net.cpp:380] inception_3a/1x1 <- pool2/3x3_s2_pool2/3x3_s2_0_split_0
I1220 11:08:57.099865 27701 net.cpp:338] inception_3a/1x1 -> inception_3a/1x1
I1220 11:08:57.099876 27701 net.cpp:113] Setting up inception_3a/1x1
I1220 11:08:57.100514 27701 net.cpp:120] Top shape: 80 64 28 28 (4014080)
I1220 11:08:57.100533 27701 layer_factory.hpp:74] Creating layer inception_3a/relu_1x1
I1220 11:08:57.100544 27701 net.cpp:84] Creating Layer inception_3a/relu_1x1
I1220 11:08:57.100551 27701 net.cpp:380] inception_3a/relu_1x1 <- inception_3a/1x1
I1220 11:08:57.100560 27701 net.cpp:327] inception_3a/relu_1x1 -> inception_3a/1x1 (in-place)
I1220 11:08:57.100569 27701 net.cpp:113] Setting up inception_3a/relu_1x1
I1220 11:08:57.100647 27701 net.cpp:120] Top shape: 80 64 28 28 (4014080)
I1220 11:08:57.100656 27701 layer_factory.hpp:74] Creating layer inception_3a/3x3_reduce
I1220 11:08:57.100666 27701 net.cpp:84] Creating Layer inception_3a/3x3_reduce
I1220 11:08:57.100672 27701 net.cpp:380] inception_3a/3x3_reduce <- pool2/3x3_s2_pool2/3x3_s2_0_split_1
I1220 11:08:57.100680 27701 net.cpp:338] inception_3a/3x3_reduce -> inception_3a/3x3_reduce
I1220 11:08:57.100692 27701 net.cpp:113] Setting up inception_3a/3x3_reduce
I1220 11:08:57.101543 27701 net.cpp:120] Top shape: 80 96 28 28 (6021120)
I1220 11:08:57.101567 27701 layer_factory.hpp:74] Creating layer inception_3a/relu_3x3_reduce
I1220 11:08:57.101580 27701 net.cpp:84] Creating Layer inception_3a/relu_3x3_reduce
I1220 11:08:57.101586 27701 net.cpp:380] inception_3a/relu_3x3_reduce <- inception_3a/3x3_reduce
I1220 11:08:57.101594 27701 net.cpp:327] inception_3a/relu_3x3_reduce -> inception_3a/3x3_reduce (in-place)
I1220 11:08:57.101603 27701 net.cpp:113] Setting up inception_3a/relu_3x3_reduce
I1220 11:08:57.101681 27701 net.cpp:120] Top shape: 80 96 28 28 (6021120)
I1220 11:08:57.101689 27701 layer_factory.hpp:74] Creating layer inception_3a/3x3
I1220 11:08:57.101701 27701 net.cpp:84] Creating Layer inception_3a/3x3
I1220 11:08:57.101707 27701 net.cpp:380] inception_3a/3x3 <- inception_3a/3x3_reduce
I1220 11:08:57.101717 27701 net.cpp:338] inception_3a/3x3 -> inception_3a/3x3
I1220 11:08:57.101734 27701 net.cpp:113] Setting up inception_3a/3x3
I1220 11:08:57.103708 27701 net.cpp:120] Top shape: 80 128 28 28 (8028160)
I1220 11:08:57.103725 27701 layer_factory.hpp:74] Creating layer inception_3a/relu_3x3
I1220 11:08:57.103734 27701 net.cpp:84] Creating Layer inception_3a/relu_3x3
I1220 11:08:57.103740 27701 net.cpp:380] inception_3a/relu_3x3 <- inception_3a/3x3
I1220 11:08:57.103749 27701 net.cpp:327] inception_3a/relu_3x3 -> inception_3a/3x3 (in-place)
I1220 11:08:57.103757 27701 net.cpp:113] Setting up inception_3a/relu_3x3
I1220 11:08:57.104037 27701 net.cpp:120] Top shape: 80 128 28 28 (8028160)
I1220 11:08:57.104048 27701 layer_factory.hpp:74] Creating layer inception_3a/5x5_reduce
I1220 11:08:57.104060 27701 net.cpp:84] Creating Layer inception_3a/5x5_reduce
I1220 11:08:57.104066 27701 net.cpp:380] inception_3a/5x5_reduce <- pool2/3x3_s2_pool2/3x3_s2_0_split_2
I1220 11:08:57.104079 27701 net.cpp:338] inception_3a/5x5_reduce -> inception_3a/5x5_reduce
I1220 11:08:57.104091 27701 net.cpp:113] Setting up inception_3a/5x5_reduce
I1220 11:08:57.104655 27701 net.cpp:120] Top shape: 80 16 28 28 (1003520)
I1220 11:08:57.104672 27701 layer_factory.hpp:74] Creating layer inception_3a/relu_5x5_reduce
I1220 11:08:57.104686 27701 net.cpp:84] Creating Layer inception_3a/relu_5x5_reduce
I1220 11:08:57.104693 27701 net.cpp:380] inception_3a/relu_5x5_reduce <- inception_3a/5x5_reduce
I1220 11:08:57.104701 27701 net.cpp:327] inception_3a/relu_5x5_reduce -> inception_3a/5x5_reduce (in-place)
I1220 11:08:57.104709 27701 net.cpp:113] Setting up inception_3a/relu_5x5_reduce
I1220 11:08:57.104790 27701 net.cpp:120] Top shape: 80 16 28 28 (1003520)
I1220 11:08:57.104799 27701 layer_factory.hpp:74] Creating layer inception_3a/5x5
I1220 11:08:57.104811 27701 net.cpp:84] Creating Layer inception_3a/5x5
I1220 11:08:57.104817 27701 net.cpp:380] inception_3a/5x5 <- inception_3a/5x5_reduce
I1220 11:08:57.104825 27701 net.cpp:338] inception_3a/5x5 -> inception_3a/5x5
I1220 11:08:57.104835 27701 net.cpp:113] Setting up inception_3a/5x5
I1220 11:08:57.105517 27701 net.cpp:120] Top shape: 80 32 28 28 (2007040)
I1220 11:08:57.105537 27701 layer_factory.hpp:74] Creating layer inception_3a/relu_5x5
I1220 11:08:57.105545 27701 net.cpp:84] Creating Layer inception_3a/relu_5x5
I1220 11:08:57.105551 27701 net.cpp:380] inception_3a/relu_5x5 <- inception_3a/5x5
I1220 11:08:57.105562 27701 net.cpp:327] inception_3a/relu_5x5 -> inception_3a/5x5 (in-place)
I1220 11:08:57.105571 27701 net.cpp:113] Setting up inception_3a/relu_5x5
I1220 11:08:57.105657 27701 net.cpp:120] Top shape: 80 32 28 28 (2007040)
I1220 11:08:57.105669 27701 layer_factory.hpp:74] Creating layer inception_3a/pool
I1220 11:08:57.105674 27701 layer_factory.cpp:56] CUDNN does not support padding or multiple tops. Using Caffe's own pooling layer.
I1220 11:08:57.105684 27701 net.cpp:84] Creating Layer inception_3a/pool
I1220 11:08:57.105690 27701 net.cpp:380] inception_3a/pool <- pool2/3x3_s2_pool2/3x3_s2_0_split_3
I1220 11:08:57.105700 27701 net.cpp:338] inception_3a/pool -> inception_3a/pool
I1220 11:08:57.105708 27701 net.cpp:113] Setting up inception_3a/pool
I1220 11:08:57.105718 27701 net.cpp:120] Top shape: 80 192 28 28 (12042240)
I1220 11:08:57.105723 27701 layer_factory.hpp:74] Creating layer inception_3a/pool_proj
I1220 11:08:57.105734 27701 net.cpp:84] Creating Layer inception_3a/pool_proj
I1220 11:08:57.105739 27701 net.cpp:380] inception_3a/pool_proj <- inception_3a/pool
I1220 11:08:57.105749 27701 net.cpp:338] inception_3a/pool_proj -> inception_3a/pool_proj
I1220 11:08:57.105758 27701 net.cpp:113] Setting up inception_3a/pool_proj
I1220 11:08:57.106309 27701 net.cpp:120] Top shape: 80 32 28 28 (2007040)
I1220 11:08:57.106331 27701 layer_factory.hpp:74] Creating layer inception_3a/relu_pool_proj
I1220 11:08:57.106339 27701 net.cpp:84] Creating Layer inception_3a/relu_pool_proj
I1220 11:08:57.106345 27701 net.cpp:380] inception_3a/relu_pool_proj <- inception_3a/pool_proj
I1220 11:08:57.106355 27701 net.cpp:327] inception_3a/relu_pool_proj -> inception_3a/pool_proj (in-place)
I1220 11:08:57.106370 27701 net.cpp:113] Setting up inception_3a/relu_pool_proj
I1220 11:08:57.106462 27701 net.cpp:120] Top shape: 80 32 28 28 (2007040)
I1220 11:08:57.106469 27701 layer_factory.hpp:74] Creating layer inception_3a/output
I1220 11:08:57.106479 27701 net.cpp:84] Creating Layer inception_3a/output
I1220 11:08:57.106485 27701 net.cpp:380] inception_3a/output <- inception_3a/1x1
I1220 11:08:57.106492 27701 net.cpp:380] inception_3a/output <- inception_3a/3x3
I1220 11:08:57.106498 27701 net.cpp:380] inception_3a/output <- inception_3a/5x5
I1220 11:08:57.106504 27701 net.cpp:380] inception_3a/output <- inception_3a/pool_proj
I1220 11:08:57.106510 27701 net.cpp:338] inception_3a/output -> inception_3a/output
I1220 11:08:57.106519 27701 net.cpp:113] Setting up inception_3a/output
I1220 11:08:57.106528 27701 net.cpp:120] Top shape: 80 256 28 28 (16056320)
I1220 11:08:57.106534 27701 layer_factory.hpp:74] Creating layer inception_3a/output_inception_3a/output_0_split
I1220 11:08:57.106544 27701 net.cpp:84] Creating Layer inception_3a/output_inception_3a/output_0_split
I1220 11:08:57.106549 27701 net.cpp:380] inception_3a/output_inception_3a/output_0_split <- inception_3a/output
I1220 11:08:57.106555 27701 net.cpp:338] inception_3a/output_inception_3a/output_0_split -> inception_3a/output_inception_3a/output_0_split_0
I1220 11:08:57.106564 27701 net.cpp:338] inception_3a/output_inception_3a/output_0_split -> inception_3a/output_inception_3a/output_0_split_1
I1220 11:08:57.106572 27701 net.cpp:338] inception_3a/output_inception_3a/output_0_split -> inception_3a/output_inception_3a/output_0_split_2
I1220 11:08:57.106580 27701 net.cpp:338] inception_3a/output_inception_3a/output_0_split -> inception_3a/output_inception_3a/output_0_split_3
I1220 11:08:57.106587 27701 net.cpp:113] Setting up inception_3a/output_inception_3a/output_0_split
I1220 11:08:57.106595 27701 net.cpp:120] Top shape: 80 256 28 28 (16056320)
I1220 11:08:57.106601 27701 net.cpp:120] Top shape: 80 256 28 28 (16056320)
I1220 11:08:57.106607 27701 net.cpp:120] Top shape: 80 256 28 28 (16056320)
I1220 11:08:57.106613 27701 net.cpp:120] Top shape: 80 256 28 28 (16056320)
I1220 11:08:57.106618 27701 layer_factory.hpp:74] Creating layer inception_3b/1x1
I1220 11:08:57.106631 27701 net.cpp:84] Creating Layer inception_3b/1x1
I1220 11:08:57.106636 27701 net.cpp:380] inception_3b/1x1 <- inception_3a/output_inception_3a/output_0_split_0
I1220 11:08:57.106645 27701 net.cpp:338] inception_3b/1x1 -> inception_3b/1x1
I1220 11:08:57.106653 27701 net.cpp:113] Setting up inception_3b/1x1
I1220 11:08:57.107565 27701 net.cpp:120] Top shape: 80 128 28 28 (8028160)
I1220 11:08:57.107583 27701 layer_factory.hpp:74] Creating layer inception_3b/relu_1x1
I1220 11:08:57.107595 27701 net.cpp:84] Creating Layer inception_3b/relu_1x1
I1220 11:08:57.107601 27701 net.cpp:380] inception_3b/relu_1x1 <- inception_3b/1x1
I1220 11:08:57.107609 27701 net.cpp:327] inception_3b/relu_1x1 -> inception_3b/1x1 (in-place)
I1220 11:08:57.107617 27701 net.cpp:113] Setting up inception_3b/relu_1x1
I1220 11:08:57.107900 27701 net.cpp:120] Top shape: 80 128 28 28 (8028160)
I1220 11:08:57.107913 27701 layer_factory.hpp:74] Creating layer inception_3b/3x3_reduce
I1220 11:08:57.107924 27701 net.cpp:84] Creating Layer inception_3b/3x3_reduce
I1220 11:08:57.107930 27701 net.cpp:380] inception_3b/3x3_reduce <- inception_3a/output_inception_3a/output_0_split_1
I1220 11:08:57.107944 27701 net.cpp:338] inception_3b/3x3_reduce -> inception_3b/3x3_reduce
I1220 11:08:57.107954 27701 net.cpp:113] Setting up inception_3b/3x3_reduce
I1220 11:08:57.108860 27701 net.cpp:120] Top shape: 80 128 28 28 (8028160)
I1220 11:08:57.108877 27701 layer_factory.hpp:74] Creating layer inception_3b/relu_3x3_reduce
I1220 11:08:57.108887 27701 net.cpp:84] Creating Layer inception_3b/relu_3x3_reduce
I1220 11:08:57.108893 27701 net.cpp:380] inception_3b/relu_3x3_reduce <- inception_3b/3x3_reduce
I1220 11:08:57.108901 27701 net.cpp:327] inception_3b/relu_3x3_reduce -> inception_3b/3x3_reduce (in-place)
I1220 11:08:57.108909 27701 net.cpp:113] Setting up inception_3b/relu_3x3_reduce
I1220 11:08:57.109002 27701 net.cpp:120] Top shape: 80 128 28 28 (8028160)
I1220 11:08:57.109010 27701 layer_factory.hpp:74] Creating layer inception_3b/3x3
I1220 11:08:57.109025 27701 net.cpp:84] Creating Layer inception_3b/3x3
I1220 11:08:57.109031 27701 net.cpp:380] inception_3b/3x3 <- inception_3b/3x3_reduce
I1220 11:08:57.109040 27701 net.cpp:338] inception_3b/3x3 -> inception_3b/3x3
I1220 11:08:57.109050 27701 net.cpp:113] Setting up inception_3b/3x3
I1220 11:08:57.112493 27701 net.cpp:120] Top shape: 80 192 28 28 (12042240)
I1220 11:08:57.112512 27701 layer_factory.hpp:74] Creating layer inception_3b/relu_3x3
I1220 11:08:57.112524 27701 net.cpp:84] Creating Layer inception_3b/relu_3x3
I1220 11:08:57.112529 27701 net.cpp:380] inception_3b/relu_3x3 <- inception_3b/3x3
I1220 11:08:57.112536 27701 net.cpp:327] inception_3b/relu_3x3 -> inception_3b/3x3 (in-place)
I1220 11:08:57.112545 27701 net.cpp:113] Setting up inception_3b/relu_3x3
I1220 11:08:57.112625 27701 net.cpp:120] Top shape: 80 192 28 28 (12042240)
I1220 11:08:57.112635 27701 layer_factory.hpp:74] Creating layer inception_3b/5x5_reduce
I1220 11:08:57.112646 27701 net.cpp:84] Creating Layer inception_3b/5x5_reduce
I1220 11:08:57.112653 27701 net.cpp:380] inception_3b/5x5_reduce <- inception_3a/output_inception_3a/output_0_split_2
I1220 11:08:57.112660 27701 net.cpp:338] inception_3b/5x5_reduce -> inception_3b/5x5_reduce
I1220 11:08:57.112670 27701 net.cpp:113] Setting up inception_3b/5x5_reduce
I1220 11:08:57.113271 27701 net.cpp:120] Top shape: 80 32 28 28 (2007040)
I1220 11:08:57.113289 27701 layer_factory.hpp:74] Creating layer inception_3b/relu_5x5_reduce
I1220 11:08:57.113301 27701 net.cpp:84] Creating Layer inception_3b/relu_5x5_reduce
I1220 11:08:57.113306 27701 net.cpp:380] inception_3b/relu_5x5_reduce <- inception_3b/5x5_reduce
I1220 11:08:57.113313 27701 net.cpp:327] inception_3b/relu_5x5_reduce -> inception_3b/5x5_reduce (in-place)
I1220 11:08:57.113322 27701 net.cpp:113] Setting up inception_3b/relu_5x5_reduce
I1220 11:08:57.113400 27701 net.cpp:120] Top shape: 80 32 28 28 (2007040)
I1220 11:08:57.113409 27701 layer_factory.hpp:74] Creating layer inception_3b/5x5
I1220 11:08:57.113420 27701 net.cpp:84] Creating Layer inception_3b/5x5
I1220 11:08:57.113426 27701 net.cpp:380] inception_3b/5x5 <- inception_3b/5x5_reduce
I1220 11:08:57.113436 27701 net.cpp:338] inception_3b/5x5 -> inception_3b/5x5
I1220 11:08:57.113451 27701 net.cpp:113] Setting up inception_3b/5x5
I1220 11:08:57.114946 27701 net.cpp:120] Top shape: 80 96 28 28 (6021120)
I1220 11:08:57.114964 27701 layer_factory.hpp:74] Creating layer inception_3b/relu_5x5
I1220 11:08:57.114971 27701 net.cpp:84] Creating Layer inception_3b/relu_5x5
I1220 11:08:57.114977 27701 net.cpp:380] inception_3b/relu_5x5 <- inception_3b/5x5
I1220 11:08:57.114985 27701 net.cpp:327] inception_3b/relu_5x5 -> inception_3b/5x5 (in-place)
I1220 11:08:57.114994 27701 net.cpp:113] Setting up inception_3b/relu_5x5
I1220 11:08:57.115263 27701 net.cpp:120] Top shape: 80 96 28 28 (6021120)
I1220 11:08:57.115275 27701 layer_factory.hpp:74] Creating layer inception_3b/pool
I1220 11:08:57.115283 27701 layer_factory.cpp:56] CUDNN does not support padding or multiple tops. Using Caffe's own pooling layer.
I1220 11:08:57.115290 27701 net.cpp:84] Creating Layer inception_3b/pool
I1220 11:08:57.115295 27701 net.cpp:380] inception_3b/pool <- inception_3a/output_inception_3a/output_0_split_3
I1220 11:08:57.115305 27701 net.cpp:338] inception_3b/pool -> inception_3b/pool
I1220 11:08:57.115314 27701 net.cpp:113] Setting up inception_3b/pool
I1220 11:08:57.115324 27701 net.cpp:120] Top shape: 80 256 28 28 (16056320)
I1220 11:08:57.115329 27701 layer_factory.hpp:74] Creating layer inception_3b/pool_proj
I1220 11:08:57.115339 27701 net.cpp:84] Creating Layer inception_3b/pool_proj
I1220 11:08:57.115345 27701 net.cpp:380] inception_3b/pool_proj <- inception_3b/pool
I1220 11:08:57.115352 27701 net.cpp:338] inception_3b/pool_proj -> inception_3b/pool_proj
I1220 11:08:57.115360 27701 net.cpp:113] Setting up inception_3b/pool_proj
I1220 11:08:57.116034 27701 net.cpp:120] Top shape: 80 64 28 28 (4014080)
I1220 11:08:57.116060 27701 layer_factory.hpp:74] Creating layer inception_3b/relu_pool_proj
I1220 11:08:57.116070 27701 net.cpp:84] Creating Layer inception_3b/relu_pool_proj
I1220 11:08:57.116075 27701 net.cpp:380] inception_3b/relu_pool_proj <- inception_3b/pool_proj
I1220 11:08:57.116085 27701 net.cpp:327] inception_3b/relu_pool_proj -> inception_3b/pool_proj (in-place)
I1220 11:08:57.116093 27701 net.cpp:113] Setting up inception_3b/relu_pool_proj
I1220 11:08:57.116174 27701 net.cpp:120] Top shape: 80 64 28 28 (4014080)
I1220 11:08:57.116181 27701 layer_factory.hpp:74] Creating layer inception_3b/output
I1220 11:08:57.116189 27701 net.cpp:84] Creating Layer inception_3b/output
I1220 11:08:57.116194 27701 net.cpp:380] inception_3b/output <- inception_3b/1x1
I1220 11:08:57.116201 27701 net.cpp:380] inception_3b/output <- inception_3b/3x3
I1220 11:08:57.116206 27701 net.cpp:380] inception_3b/output <- inception_3b/5x5
I1220 11:08:57.116212 27701 net.cpp:380] inception_3b/output <- inception_3b/pool_proj
I1220 11:08:57.116219 27701 net.cpp:338] inception_3b/output -> inception_3b/output
I1220 11:08:57.116227 27701 net.cpp:113] Setting up inception_3b/output
I1220 11:08:57.116235 27701 net.cpp:120] Top shape: 80 480 28 28 (30105600)
I1220 11:08:57.116240 27701 layer_factory.hpp:74] Creating layer pool3/3x3_s2
I1220 11:08:57.116251 27701 net.cpp:84] Creating Layer pool3/3x3_s2
I1220 11:08:57.116266 27701 net.cpp:380] pool3/3x3_s2 <- inception_3b/output
I1220 11:08:57.116272 27701 net.cpp:338] pool3/3x3_s2 -> pool3/3x3_s2
I1220 11:08:57.116281 27701 net.cpp:113] Setting up pool3/3x3_s2
I1220 11:08:57.116359 27701 net.cpp:120] Top shape: 80 480 14 14 (7526400)
I1220 11:08:57.116369 27701 layer_factory.hpp:74] Creating layer pool3/3x3_s2_pool3/3x3_s2_0_split
I1220 11:08:57.116377 27701 net.cpp:84] Creating Layer pool3/3x3_s2_pool3/3x3_s2_0_split
I1220 11:08:57.116382 27701 net.cpp:380] pool3/3x3_s2_pool3/3x3_s2_0_split <- pool3/3x3_s2
I1220 11:08:57.116389 27701 net.cpp:338] pool3/3x3_s2_pool3/3x3_s2_0_split -> pool3/3x3_s2_pool3/3x3_s2_0_split_0
I1220 11:08:57.116397 27701 net.cpp:338] pool3/3x3_s2_pool3/3x3_s2_0_split -> pool3/3x3_s2_pool3/3x3_s2_0_split_1
I1220 11:08:57.116405 27701 net.cpp:338] pool3/3x3_s2_pool3/3x3_s2_0_split -> pool3/3x3_s2_pool3/3x3_s2_0_split_2
I1220 11:08:57.116412 27701 net.cpp:338] pool3/3x3_s2_pool3/3x3_s2_0_split -> pool3/3x3_s2_pool3/3x3_s2_0_split_3
I1220 11:08:57.116420 27701 net.cpp:113] Setting up pool3/3x3_s2_pool3/3x3_s2_0_split
I1220 11:08:57.116426 27701 net.cpp:120] Top shape: 80 480 14 14 (7526400)
I1220 11:08:57.116432 27701 net.cpp:120] Top shape: 80 480 14 14 (7526400)
I1220 11:08:57.116438 27701 net.cpp:120] Top shape: 80 480 14 14 (7526400)
I1220 11:08:57.116444 27701 net.cpp:120] Top shape: 80 480 14 14 (7526400)
I1220 11:08:57.116448 27701 layer_factory.hpp:74] Creating layer inception_4a/1x1
I1220 11:08:57.116458 27701 net.cpp:84] Creating Layer inception_4a/1x1
I1220 11:08:57.116464 27701 net.cpp:380] inception_4a/1x1 <- pool3/3x3_s2_pool3/3x3_s2_0_split_0
I1220 11:08:57.116472 27701 net.cpp:338] inception_4a/1x1 -> inception_4a/1x1
I1220 11:08:57.116479 27701 net.cpp:113] Setting up inception_4a/1x1
I1220 11:08:57.118160 27701 net.cpp:120] Top shape: 80 192 14 14 (3010560)
I1220 11:08:57.118178 27701 layer_factory.hpp:74] Creating layer inception_4a/relu_1x1
I1220 11:08:57.118190 27701 net.cpp:84] Creating Layer inception_4a/relu_1x1
I1220 11:08:57.118196 27701 net.cpp:380] inception_4a/relu_1x1 <- inception_4a/1x1
I1220 11:08:57.118203 27701 net.cpp:327] inception_4a/relu_1x1 -> inception_4a/1x1 (in-place)
I1220 11:08:57.118211 27701 net.cpp:113] Setting up inception_4a/relu_1x1
I1220 11:08:57.118489 27701 net.cpp:120] Top shape: 80 192 14 14 (3010560)
I1220 11:08:57.118500 27701 layer_factory.hpp:74] Creating layer inception_4a/3x3_reduce
I1220 11:08:57.118512 27701 net.cpp:84] Creating Layer inception_4a/3x3_reduce
I1220 11:08:57.118518 27701 net.cpp:380] inception_4a/3x3_reduce <- pool3/3x3_s2_pool3/3x3_s2_0_split_1
I1220 11:08:57.118541 27701 net.cpp:338] inception_4a/3x3_reduce -> inception_4a/3x3_reduce
I1220 11:08:57.118552 27701 net.cpp:113] Setting up inception_4a/3x3_reduce
I1220 11:08:57.119593 27701 net.cpp:120] Top shape: 80 96 14 14 (1505280)
I1220 11:08:57.119618 27701 layer_factory.hpp:74] Creating layer inception_4a/relu_3x3_reduce
I1220 11:08:57.119629 27701 net.cpp:84] Creating Layer inception_4a/relu_3x3_reduce
I1220 11:08:57.119635 27701 net.cpp:380] inception_4a/relu_3x3_reduce <- inception_4a/3x3_reduce
I1220 11:08:57.119643 27701 net.cpp:327] inception_4a/relu_3x3_reduce -> inception_4a/3x3_reduce (in-place)
I1220 11:08:57.119652 27701 net.cpp:113] Setting up inception_4a/relu_3x3_reduce
I1220 11:08:57.119725 27701 net.cpp:120] Top shape: 80 96 14 14 (1505280)
I1220 11:08:57.119732 27701 layer_factory.hpp:74] Creating layer inception_4a/3x3
I1220 11:08:57.119745 27701 net.cpp:84] Creating Layer inception_4a/3x3
I1220 11:08:57.119750 27701 net.cpp:380] inception_4a/3x3 <- inception_4a/3x3_reduce
I1220 11:08:57.119757 27701 net.cpp:338] inception_4a/3x3 -> inception_4a/3x3
I1220 11:08:57.119766 27701 net.cpp:113] Setting up inception_4a/3x3
I1220 11:08:57.122553 27701 net.cpp:120] Top shape: 80 208 14 14 (3261440)
I1220 11:08:57.122571 27701 layer_factory.hpp:74] Creating layer inception_4a/relu_3x3
I1220 11:08:57.122580 27701 net.cpp:84] Creating Layer inception_4a/relu_3x3
I1220 11:08:57.122586 27701 net.cpp:380] inception_4a/relu_3x3 <- inception_4a/3x3
I1220 11:08:57.122596 27701 net.cpp:327] inception_4a/relu_3x3 -> inception_4a/3x3 (in-place)
I1220 11:08:57.122604 27701 net.cpp:113] Setting up inception_4a/relu_3x3
I1220 11:08:57.122678 27701 net.cpp:120] Top shape: 80 208 14 14 (3261440)
I1220 11:08:57.122685 27701 layer_factory.hpp:74] Creating layer inception_4a/5x5_reduce
I1220 11:08:57.122697 27701 net.cpp:84] Creating Layer inception_4a/5x5_reduce
I1220 11:08:57.122704 27701 net.cpp:380] inception_4a/5x5_reduce <- pool3/3x3_s2_pool3/3x3_s2_0_split_2
I1220 11:08:57.122714 27701 net.cpp:338] inception_4a/5x5_reduce -> inception_4a/5x5_reduce
I1220 11:08:57.122722 27701 net.cpp:113] Setting up inception_4a/5x5_reduce
I1220 11:08:57.123270 27701 net.cpp:120] Top shape: 80 16 14 14 (250880)
I1220 11:08:57.123286 27701 layer_factory.hpp:74] Creating layer inception_4a/relu_5x5_reduce
I1220 11:08:57.123296 27701 net.cpp:84] Creating Layer inception_4a/relu_5x5_reduce
I1220 11:08:57.123303 27701 net.cpp:380] inception_4a/relu_5x5_reduce <- inception_4a/5x5_reduce
I1220 11:08:57.123311 27701 net.cpp:327] inception_4a/relu_5x5_reduce -> inception_4a/5x5_reduce (in-place)
I1220 11:08:57.123319 27701 net.cpp:113] Setting up inception_4a/relu_5x5_reduce
I1220 11:08:57.123395 27701 net.cpp:120] Top shape: 80 16 14 14 (250880)
I1220 11:08:57.123404 27701 layer_factory.hpp:74] Creating layer inception_4a/5x5
I1220 11:08:57.123414 27701 net.cpp:84] Creating Layer inception_4a/5x5
I1220 11:08:57.123420 27701 net.cpp:380] inception_4a/5x5 <- inception_4a/5x5_reduce
I1220 11:08:57.123430 27701 net.cpp:338] inception_4a/5x5 -> inception_4a/5x5
I1220 11:08:57.123438 27701 net.cpp:113] Setting up inception_4a/5x5
I1220 11:08:57.124141 27701 net.cpp:120] Top shape: 80 48 14 14 (752640)
I1220 11:08:57.124157 27701 layer_factory.hpp:74] Creating layer inception_4a/relu_5x5
I1220 11:08:57.124166 27701 net.cpp:84] Creating Layer inception_4a/relu_5x5
I1220 11:08:57.124171 27701 net.cpp:380] inception_4a/relu_5x5 <- inception_4a/5x5
I1220 11:08:57.124181 27701 net.cpp:327] inception_4a/relu_5x5 -> inception_4a/5x5 (in-place)
I1220 11:08:57.124188 27701 net.cpp:113] Setting up inception_4a/relu_5x5
I1220 11:08:57.124464 27701 net.cpp:120] Top shape: 80 48 14 14 (752640)
I1220 11:08:57.124475 27701 layer_factory.hpp:74] Creating layer inception_4a/pool
I1220 11:08:57.124481 27701 layer_factory.cpp:56] CUDNN does not support padding or multiple tops. Using Caffe's own pooling layer.
I1220 11:08:57.124490 27701 net.cpp:84] Creating Layer inception_4a/pool
I1220 11:08:57.124496 27701 net.cpp:380] inception_4a/pool <- pool3/3x3_s2_pool3/3x3_s2_0_split_3
I1220 11:08:57.124519 27701 net.cpp:338] inception_4a/pool -> inception_4a/pool
I1220 11:08:57.124529 27701 net.cpp:113] Setting up inception_4a/pool
I1220 11:08:57.124538 27701 net.cpp:120] Top shape: 80 480 14 14 (7526400)
I1220 11:08:57.124543 27701 layer_factory.hpp:74] Creating layer inception_4a/pool_proj
I1220 11:08:57.124553 27701 net.cpp:84] Creating Layer inception_4a/pool_proj
I1220 11:08:57.124559 27701 net.cpp:380] inception_4a/pool_proj <- inception_4a/pool
I1220 11:08:57.124568 27701 net.cpp:338] inception_4a/pool_proj -> inception_4a/pool_proj
I1220 11:08:57.124577 27701 net.cpp:113] Setting up inception_4a/pool_proj
I1220 11:08:57.130300 27701 net.cpp:120] Top shape: 80 64 14 14 (1003520)
I1220 11:08:57.130317 27701 layer_factory.hpp:74] Creating layer inception_4a/relu_pool_proj
I1220 11:08:57.130326 27701 net.cpp:84] Creating Layer inception_4a/relu_pool_proj
I1220 11:08:57.130332 27701 net.cpp:380] inception_4a/relu_pool_proj <- inception_4a/pool_proj
I1220 11:08:57.130339 27701 net.cpp:327] inception_4a/relu_pool_proj -> inception_4a/pool_proj (in-place)
I1220 11:08:57.130347 27701 net.cpp:113] Setting up inception_4a/relu_pool_proj
I1220 11:08:57.130424 27701 net.cpp:120] Top shape: 80 64 14 14 (1003520)
I1220 11:08:57.130430 27701 layer_factory.hpp:74] Creating layer inception_4a/output
I1220 11:08:57.130437 27701 net.cpp:84] Creating Layer inception_4a/output
I1220 11:08:57.130442 27701 net.cpp:380] inception_4a/output <- inception_4a/1x1
I1220 11:08:57.130450 27701 net.cpp:380] inception_4a/output <- inception_4a/3x3
I1220 11:08:57.130455 27701 net.cpp:380] inception_4a/output <- inception_4a/5x5
I1220 11:08:57.130460 27701 net.cpp:380] inception_4a/output <- inception_4a/pool_proj
I1220 11:08:57.130468 27701 net.cpp:338] inception_4a/output -> inception_4a/output
I1220 11:08:57.130476 27701 net.cpp:113] Setting up inception_4a/output
I1220 11:08:57.130484 27701 net.cpp:120] Top shape: 80 512 14 14 (8028160)
I1220 11:08:57.130489 27701 layer_factory.hpp:74] Creating layer inception_4a/output_inception_4a/output_0_split
I1220 11:08:57.130496 27701 net.cpp:84] Creating Layer inception_4a/output_inception_4a/output_0_split
I1220 11:08:57.130501 27701 net.cpp:380] inception_4a/output_inception_4a/output_0_split <- inception_4a/output
I1220 11:08:57.130507 27701 net.cpp:338] inception_4a/output_inception_4a/output_0_split -> inception_4a/output_inception_4a/output_0_split_0
I1220 11:08:57.130516 27701 net.cpp:338] inception_4a/output_inception_4a/output_0_split -> inception_4a/output_inception_4a/output_0_split_1
I1220 11:08:57.130524 27701 net.cpp:338] inception_4a/output_inception_4a/output_0_split -> inception_4a/output_inception_4a/output_0_split_2
I1220 11:08:57.130532 27701 net.cpp:338] inception_4a/output_inception_4a/output_0_split -> inception_4a/output_inception_4a/output_0_split_3
I1220 11:08:57.130539 27701 net.cpp:338] inception_4a/output_inception_4a/output_0_split -> inception_4a/output_inception_4a/output_0_split_4
I1220 11:08:57.130545 27701 net.cpp:113] Setting up inception_4a/output_inception_4a/output_0_split
I1220 11:08:57.130553 27701 net.cpp:120] Top shape: 80 512 14 14 (8028160)
I1220 11:08:57.130559 27701 net.cpp:120] Top shape: 80 512 14 14 (8028160)
I1220 11:08:57.130564 27701 net.cpp:120] Top shape: 80 512 14 14 (8028160)
I1220 11:08:57.130570 27701 net.cpp:120] Top shape: 80 512 14 14 (8028160)
I1220 11:08:57.130575 27701 net.cpp:120] Top shape: 80 512 14 14 (8028160)
I1220 11:08:57.130579 27701 layer_factory.hpp:74] Creating layer loss1/ave_pool
I1220 11:08:57.130590 27701 net.cpp:84] Creating Layer loss1/ave_pool
I1220 11:08:57.130595 27701 net.cpp:380] loss1/ave_pool <- inception_4a/output_inception_4a/output_0_split_0
I1220 11:08:57.130601 27701 net.cpp:338] loss1/ave_pool -> loss1/ave_pool
I1220 11:08:57.130609 27701 net.cpp:113] Setting up loss1/ave_pool
I1220 11:08:57.130681 27701 net.cpp:120] Top shape: 80 512 4 4 (655360)
I1220 11:08:57.130688 27701 layer_factory.hpp:74] Creating layer loss1/conv
I1220 11:08:57.130702 27701 net.cpp:84] Creating Layer loss1/conv
I1220 11:08:57.130714 27701 net.cpp:380] loss1/conv <- loss1/ave_pool
I1220 11:08:57.130724 27701 net.cpp:338] loss1/conv -> loss1/conv
I1220 11:08:57.130733 27701 net.cpp:113] Setting up loss1/conv
I1220 11:08:57.132027 27701 net.cpp:120] Top shape: 80 128 4 4 (163840)
I1220 11:08:57.132045 27701 layer_factory.hpp:74] Creating layer loss1/relu_conv
I1220 11:08:57.132055 27701 net.cpp:84] Creating Layer loss1/relu_conv
I1220 11:08:57.132061 27701 net.cpp:380] loss1/relu_conv <- loss1/conv
I1220 11:08:57.132068 27701 net.cpp:327] loss1/relu_conv -> loss1/conv (in-place)
I1220 11:08:57.132076 27701 net.cpp:113] Setting up loss1/relu_conv
I1220 11:08:57.132151 27701 net.cpp:120] Top shape: 80 128 4 4 (163840)
I1220 11:08:57.132158 27701 layer_factory.hpp:74] Creating layer loss1/fc_kaggle
I1220 11:08:57.132169 27701 net.cpp:84] Creating Layer loss1/fc_kaggle
I1220 11:08:57.132174 27701 net.cpp:380] loss1/fc_kaggle <- loss1/conv
I1220 11:08:57.132181 27701 net.cpp:338] loss1/fc_kaggle -> loss1/fc_kaggle
I1220 11:08:57.132192 27701 net.cpp:113] Setting up loss1/fc_kaggle
I1220 11:08:57.311218 27701 net.cpp:120] Top shape: 80 1024 (81920)
I1220 11:08:57.311255 27701 layer_factory.hpp:74] Creating layer loss1/relu_fc_kaggle
I1220 11:08:57.311269 27701 net.cpp:84] Creating Layer loss1/relu_fc_kaggle
I1220 11:08:57.311277 27701 net.cpp:380] loss1/relu_fc_kaggle <- loss1/fc_kaggle
I1220 11:08:57.311290 27701 net.cpp:327] loss1/relu_fc_kaggle -> loss1/fc_kaggle (in-place)
I1220 11:08:57.311300 27701 net.cpp:113] Setting up loss1/relu_fc_kaggle
I1220 11:08:57.311861 27701 net.cpp:120] Top shape: 80 1024 (81920)
I1220 11:08:57.311873 27701 layer_factory.hpp:74] Creating layer loss1/drop_fc_kaggle
I1220 11:08:57.311895 27701 net.cpp:84] Creating Layer loss1/drop_fc_kaggle
I1220 11:08:57.311902 27701 net.cpp:380] loss1/drop_fc_kaggle <- loss1/fc_kaggle
I1220 11:08:57.311909 27701 net.cpp:327] loss1/drop_fc_kaggle -> loss1/fc_kaggle (in-place)
I1220 11:08:57.311919 27701 net.cpp:113] Setting up loss1/drop_fc_kaggle
I1220 11:08:57.311929 27701 net.cpp:120] Top shape: 80 1024 (81920)
I1220 11:08:57.311935 27701 layer_factory.hpp:74] Creating layer loss1/classifier_kaggle
I1220 11:08:57.311946 27701 net.cpp:84] Creating Layer loss1/classifier_kaggle
I1220 11:08:57.311951 27701 net.cpp:380] loss1/classifier_kaggle <- loss1/fc_kaggle
I1220 11:08:57.311959 27701 net.cpp:338] loss1/classifier_kaggle -> loss1/classifier_kaggle
I1220 11:08:57.311967 27701 net.cpp:113] Setting up loss1/classifier_kaggle
I1220 11:08:57.317275 27701 net.cpp:120] Top shape: 80 447 (35760)
I1220 11:08:57.317297 27701 layer_factory.hpp:74] Creating layer loss1/loss
I1220 11:08:57.317308 27701 net.cpp:84] Creating Layer loss1/loss
I1220 11:08:57.317315 27701 net.cpp:380] loss1/loss <- loss1/classifier_kaggle
I1220 11:08:57.317322 27701 net.cpp:380] loss1/loss <- label_data_1_split_0
I1220 11:08:57.317332 27701 net.cpp:338] loss1/loss -> loss1/loss1
I1220 11:08:57.317349 27701 net.cpp:113] Setting up loss1/loss
I1220 11:08:57.317358 27701 layer_factory.hpp:74] Creating layer loss1/loss
I1220 11:08:57.317580 27701 net.cpp:120] Top shape: (1)
I1220 11:08:57.317589 27701 net.cpp:122]     with loss weight 0.3
I1220 11:08:57.317615 27701 layer_factory.hpp:74] Creating layer inception_4b/1x1
I1220 11:08:57.317639 27701 net.cpp:84] Creating Layer inception_4b/1x1
I1220 11:08:57.317647 27701 net.cpp:380] inception_4b/1x1 <- inception_4a/output_inception_4a/output_0_split_1
I1220 11:08:57.317656 27701 net.cpp:338] inception_4b/1x1 -> inception_4b/1x1
I1220 11:08:57.317663 27701 net.cpp:113] Setting up inception_4b/1x1
I1220 11:08:57.319275 27701 net.cpp:120] Top shape: 80 160 14 14 (2508800)
I1220 11:08:57.319293 27701 layer_factory.hpp:74] Creating layer inception_4b/relu_1x1
I1220 11:08:57.319300 27701 net.cpp:84] Creating Layer inception_4b/relu_1x1
I1220 11:08:57.319306 27701 net.cpp:380] inception_4b/relu_1x1 <- inception_4b/1x1
I1220 11:08:57.319316 27701 net.cpp:327] inception_4b/relu_1x1 -> inception_4b/1x1 (in-place)
I1220 11:08:57.319336 27701 net.cpp:113] Setting up inception_4b/relu_1x1
I1220 11:08:57.319428 27701 net.cpp:120] Top shape: 80 160 14 14 (2508800)
I1220 11:08:57.319435 27701 layer_factory.hpp:74] Creating layer inception_4b/3x3_reduce
I1220 11:08:57.319445 27701 net.cpp:84] Creating Layer inception_4b/3x3_reduce
I1220 11:08:57.319450 27701 net.cpp:380] inception_4b/3x3_reduce <- inception_4a/output_inception_4a/output_0_split_2
I1220 11:08:57.319460 27701 net.cpp:338] inception_4b/3x3_reduce -> inception_4b/3x3_reduce
I1220 11:08:57.319468 27701 net.cpp:113] Setting up inception_4b/3x3_reduce
I1220 11:08:57.320585 27701 net.cpp:120] Top shape: 80 112 14 14 (1756160)
I1220 11:08:57.320602 27701 layer_factory.hpp:74] Creating layer inception_4b/relu_3x3_reduce
I1220 11:08:57.320612 27701 net.cpp:84] Creating Layer inception_4b/relu_3x3_reduce
I1220 11:08:57.320618 27701 net.cpp:380] inception_4b/relu_3x3_reduce <- inception_4b/3x3_reduce
I1220 11:08:57.320626 27701 net.cpp:327] inception_4b/relu_3x3_reduce -> inception_4b/3x3_reduce (in-place)
I1220 11:08:57.320632 27701 net.cpp:113] Setting up inception_4b/relu_3x3_reduce
I1220 11:08:57.320704 27701 net.cpp:120] Top shape: 80 112 14 14 (1756160)
I1220 11:08:57.320711 27701 layer_factory.hpp:74] Creating layer inception_4b/3x3
I1220 11:08:57.320721 27701 net.cpp:84] Creating Layer inception_4b/3x3
I1220 11:08:57.320726 27701 net.cpp:380] inception_4b/3x3 <- inception_4b/3x3_reduce
I1220 11:08:57.320735 27701 net.cpp:338] inception_4b/3x3 -> inception_4b/3x3
I1220 11:08:57.320744 27701 net.cpp:113] Setting up inception_4b/3x3
I1220 11:08:57.323871 27701 net.cpp:120] Top shape: 80 224 14 14 (3512320)
I1220 11:08:57.323889 27701 layer_factory.hpp:74] Creating layer inception_4b/relu_3x3
I1220 11:08:57.323896 27701 net.cpp:84] Creating Layer inception_4b/relu_3x3
I1220 11:08:57.323902 27701 net.cpp:380] inception_4b/relu_3x3 <- inception_4b/3x3
I1220 11:08:57.323909 27701 net.cpp:327] inception_4b/relu_3x3 -> inception_4b/3x3 (in-place)
I1220 11:08:57.323916 27701 net.cpp:113] Setting up inception_4b/relu_3x3
I1220 11:08:57.324182 27701 net.cpp:120] Top shape: 80 224 14 14 (3512320)
I1220 11:08:57.324193 27701 layer_factory.hpp:74] Creating layer inception_4b/5x5_reduce
I1220 11:08:57.324201 27701 net.cpp:84] Creating Layer inception_4b/5x5_reduce
I1220 11:08:57.324206 27701 net.cpp:380] inception_4b/5x5_reduce <- inception_4a/output_inception_4a/output_0_split_3
I1220 11:08:57.324216 27701 net.cpp:338] inception_4b/5x5_reduce -> inception_4b/5x5_reduce
I1220 11:08:57.324225 27701 net.cpp:113] Setting up inception_4b/5x5_reduce
I1220 11:08:57.324815 27701 net.cpp:120] Top shape: 80 24 14 14 (376320)
I1220 11:08:57.324832 27701 layer_factory.hpp:74] Creating layer inception_4b/relu_5x5_reduce
I1220 11:08:57.324841 27701 net.cpp:84] Creating Layer inception_4b/relu_5x5_reduce
I1220 11:08:57.324846 27701 net.cpp:380] inception_4b/relu_5x5_reduce <- inception_4b/5x5_reduce
I1220 11:08:57.324856 27701 net.cpp:327] inception_4b/relu_5x5_reduce -> inception_4b/5x5_reduce (in-place)
I1220 11:08:57.324862 27701 net.cpp:113] Setting up inception_4b/relu_5x5_reduce
I1220 11:08:57.324942 27701 net.cpp:120] Top shape: 80 24 14 14 (376320)
I1220 11:08:57.324949 27701 layer_factory.hpp:74] Creating layer inception_4b/5x5
I1220 11:08:57.324957 27701 net.cpp:84] Creating Layer inception_4b/5x5
I1220 11:08:57.324962 27701 net.cpp:380] inception_4b/5x5 <- inception_4b/5x5_reduce
I1220 11:08:57.324970 27701 net.cpp:338] inception_4b/5x5 -> inception_4b/5x5
I1220 11:08:57.324980 27701 net.cpp:113] Setting up inception_4b/5x5
I1220 11:08:57.325955 27701 net.cpp:120] Top shape: 80 64 14 14 (1003520)
I1220 11:08:57.325973 27701 layer_factory.hpp:74] Creating layer inception_4b/relu_5x5
I1220 11:08:57.325983 27701 net.cpp:84] Creating Layer inception_4b/relu_5x5
I1220 11:08:57.325987 27701 net.cpp:380] inception_4b/relu_5x5 <- inception_4b/5x5
I1220 11:08:57.325994 27701 net.cpp:327] inception_4b/relu_5x5 -> inception_4b/5x5 (in-place)
I1220 11:08:57.326002 27701 net.cpp:113] Setting up inception_4b/relu_5x5
I1220 11:08:57.326079 27701 net.cpp:120] Top shape: 80 64 14 14 (1003520)
I1220 11:08:57.326097 27701 layer_factory.hpp:74] Creating layer inception_4b/pool
I1220 11:08:57.326103 27701 layer_factory.cpp:56] CUDNN does not support padding or multiple tops. Using Caffe's own pooling layer.
I1220 11:08:57.326112 27701 net.cpp:84] Creating Layer inception_4b/pool
I1220 11:08:57.326118 27701 net.cpp:380] inception_4b/pool <- inception_4a/output_inception_4a/output_0_split_4
I1220 11:08:57.326128 27701 net.cpp:338] inception_4b/pool -> inception_4b/pool
I1220 11:08:57.326143 27701 net.cpp:113] Setting up inception_4b/pool
I1220 11:08:57.326154 27701 net.cpp:120] Top shape: 80 512 14 14 (8028160)
I1220 11:08:57.326159 27701 layer_factory.hpp:74] Creating layer inception_4b/pool_proj
I1220 11:08:57.326170 27701 net.cpp:84] Creating Layer inception_4b/pool_proj
I1220 11:08:57.326175 27701 net.cpp:380] inception_4b/pool_proj <- inception_4b/pool
I1220 11:08:57.326184 27701 net.cpp:338] inception_4b/pool_proj -> inception_4b/pool_proj
I1220 11:08:57.326191 27701 net.cpp:113] Setting up inception_4b/pool_proj
I1220 11:08:57.327011 27701 net.cpp:120] Top shape: 80 64 14 14 (1003520)
I1220 11:08:57.327028 27701 layer_factory.hpp:74] Creating layer inception_4b/relu_pool_proj
I1220 11:08:57.327038 27701 net.cpp:84] Creating Layer inception_4b/relu_pool_proj
I1220 11:08:57.327042 27701 net.cpp:380] inception_4b/relu_pool_proj <- inception_4b/pool_proj
I1220 11:08:57.327049 27701 net.cpp:327] inception_4b/relu_pool_proj -> inception_4b/pool_proj (in-place)
I1220 11:08:57.327057 27701 net.cpp:113] Setting up inception_4b/relu_pool_proj
I1220 11:08:57.327322 27701 net.cpp:120] Top shape: 80 64 14 14 (1003520)
I1220 11:08:57.327333 27701 layer_factory.hpp:74] Creating layer inception_4b/output
I1220 11:08:57.327343 27701 net.cpp:84] Creating Layer inception_4b/output
I1220 11:08:57.327348 27701 net.cpp:380] inception_4b/output <- inception_4b/1x1
I1220 11:08:57.327355 27701 net.cpp:380] inception_4b/output <- inception_4b/3x3
I1220 11:08:57.327360 27701 net.cpp:380] inception_4b/output <- inception_4b/5x5
I1220 11:08:57.327366 27701 net.cpp:380] inception_4b/output <- inception_4b/pool_proj
I1220 11:08:57.327373 27701 net.cpp:338] inception_4b/output -> inception_4b/output
I1220 11:08:57.327379 27701 net.cpp:113] Setting up inception_4b/output
I1220 11:08:57.327389 27701 net.cpp:120] Top shape: 80 512 14 14 (8028160)
I1220 11:08:57.327394 27701 layer_factory.hpp:74] Creating layer inception_4b/output_inception_4b/output_0_split
I1220 11:08:57.327402 27701 net.cpp:84] Creating Layer inception_4b/output_inception_4b/output_0_split
I1220 11:08:57.327407 27701 net.cpp:380] inception_4b/output_inception_4b/output_0_split <- inception_4b/output
I1220 11:08:57.327414 27701 net.cpp:338] inception_4b/output_inception_4b/output_0_split -> inception_4b/output_inception_4b/output_0_split_0
I1220 11:08:57.327420 27701 net.cpp:338] inception_4b/output_inception_4b/output_0_split -> inception_4b/output_inception_4b/output_0_split_1
I1220 11:08:57.327427 27701 net.cpp:338] inception_4b/output_inception_4b/output_0_split -> inception_4b/output_inception_4b/output_0_split_2
I1220 11:08:57.327435 27701 net.cpp:338] inception_4b/output_inception_4b/output_0_split -> inception_4b/output_inception_4b/output_0_split_3
I1220 11:08:57.327441 27701 net.cpp:113] Setting up inception_4b/output_inception_4b/output_0_split
I1220 11:08:57.327448 27701 net.cpp:120] Top shape: 80 512 14 14 (8028160)
I1220 11:08:57.327455 27701 net.cpp:120] Top shape: 80 512 14 14 (8028160)
I1220 11:08:57.327460 27701 net.cpp:120] Top shape: 80 512 14 14 (8028160)
I1220 11:08:57.327464 27701 net.cpp:120] Top shape: 80 512 14 14 (8028160)
I1220 11:08:57.327468 27701 layer_factory.hpp:74] Creating layer inception_4c/1x1
I1220 11:08:57.327479 27701 net.cpp:84] Creating Layer inception_4c/1x1
I1220 11:08:57.327484 27701 net.cpp:380] inception_4c/1x1 <- inception_4b/output_inception_4b/output_0_split_0
I1220 11:08:57.327492 27701 net.cpp:338] inception_4c/1x1 -> inception_4c/1x1
I1220 11:08:57.327505 27701 net.cpp:113] Setting up inception_4c/1x1
I1220 11:08:57.328708 27701 net.cpp:120] Top shape: 80 128 14 14 (2007040)
I1220 11:08:57.328726 27701 layer_factory.hpp:74] Creating layer inception_4c/relu_1x1
I1220 11:08:57.328734 27701 net.cpp:84] Creating Layer inception_4c/relu_1x1
I1220 11:08:57.328740 27701 net.cpp:380] inception_4c/relu_1x1 <- inception_4c/1x1
I1220 11:08:57.328747 27701 net.cpp:327] inception_4c/relu_1x1 -> inception_4c/1x1 (in-place)
I1220 11:08:57.328755 27701 net.cpp:113] Setting up inception_4c/relu_1x1
I1220 11:08:57.328830 27701 net.cpp:120] Top shape: 80 128 14 14 (2007040)
I1220 11:08:57.328836 27701 layer_factory.hpp:74] Creating layer inception_4c/3x3_reduce
I1220 11:08:57.328846 27701 net.cpp:84] Creating Layer inception_4c/3x3_reduce
I1220 11:08:57.328851 27701 net.cpp:380] inception_4c/3x3_reduce <- inception_4b/output_inception_4b/output_0_split_1
I1220 11:08:57.328860 27701 net.cpp:338] inception_4c/3x3_reduce -> inception_4c/3x3_reduce
I1220 11:08:57.328868 27701 net.cpp:113] Setting up inception_4c/3x3_reduce
I1220 11:08:57.330077 27701 net.cpp:120] Top shape: 80 128 14 14 (2007040)
I1220 11:08:57.330095 27701 layer_factory.hpp:74] Creating layer inception_4c/relu_3x3_reduce
I1220 11:08:57.330114 27701 net.cpp:84] Creating Layer inception_4c/relu_3x3_reduce
I1220 11:08:57.330121 27701 net.cpp:380] inception_4c/relu_3x3_reduce <- inception_4c/3x3_reduce
I1220 11:08:57.330127 27701 net.cpp:327] inception_4c/relu_3x3_reduce -> inception_4c/3x3_reduce (in-place)
I1220 11:08:57.330135 27701 net.cpp:113] Setting up inception_4c/relu_3x3_reduce
I1220 11:08:57.330205 27701 net.cpp:120] Top shape: 80 128 14 14 (2007040)
I1220 11:08:57.330212 27701 layer_factory.hpp:74] Creating layer inception_4c/3x3
I1220 11:08:57.330222 27701 net.cpp:84] Creating Layer inception_4c/3x3
I1220 11:08:57.330227 27701 net.cpp:380] inception_4c/3x3 <- inception_4c/3x3_reduce
I1220 11:08:57.330237 27701 net.cpp:338] inception_4c/3x3 -> inception_4c/3x3
I1220 11:08:57.330245 27701 net.cpp:113] Setting up inception_4c/3x3
I1220 11:08:57.338572 27701 net.cpp:120] Top shape: 80 256 14 14 (4014080)
I1220 11:08:57.338657 27701 layer_factory.hpp:74] Creating layer inception_4c/relu_3x3
I1220 11:08:57.338682 27701 net.cpp:84] Creating Layer inception_4c/relu_3x3
I1220 11:08:57.338697 27701 net.cpp:380] inception_4c/relu_3x3 <- inception_4c/3x3
I1220 11:08:57.338721 27701 net.cpp:327] inception_4c/relu_3x3 -> inception_4c/3x3 (in-place)
I1220 11:08:57.338742 27701 net.cpp:113] Setting up inception_4c/relu_3x3
I1220 11:08:57.338894 27701 net.cpp:120] Top shape: 80 256 14 14 (4014080)
I1220 11:08:57.338927 27701 layer_factory.hpp:74] Creating layer inception_4c/5x5_reduce
I1220 11:08:57.338956 27701 net.cpp:84] Creating Layer inception_4c/5x5_reduce
I1220 11:08:57.338968 27701 net.cpp:380] inception_4c/5x5_reduce <- inception_4b/output_inception_4b/output_0_split_2
I1220 11:08:57.338989 27701 net.cpp:338] inception_4c/5x5_reduce -> inception_4c/5x5_reduce
I1220 11:08:57.339010 27701 net.cpp:113] Setting up inception_4c/5x5_reduce
I1220 11:08:57.339834 27701 net.cpp:120] Top shape: 80 24 14 14 (376320)
I1220 11:08:57.339861 27701 layer_factory.hpp:74] Creating layer inception_4c/relu_5x5_reduce
I1220 11:08:57.339872 27701 net.cpp:84] Creating Layer inception_4c/relu_5x5_reduce
I1220 11:08:57.339880 27701 net.cpp:380] inception_4c/relu_5x5_reduce <- inception_4c/5x5_reduce
I1220 11:08:57.339889 27701 net.cpp:327] inception_4c/relu_5x5_reduce -> inception_4c/5x5_reduce (in-place)
I1220 11:08:57.339897 27701 net.cpp:113] Setting up inception_4c/relu_5x5_reduce
I1220 11:08:57.340170 27701 net.cpp:120] Top shape: 80 24 14 14 (376320)
I1220 11:08:57.340183 27701 layer_factory.hpp:74] Creating layer inception_4c/5x5
I1220 11:08:57.340194 27701 net.cpp:84] Creating Layer inception_4c/5x5
I1220 11:08:57.340200 27701 net.cpp:380] inception_4c/5x5 <- inception_4c/5x5_reduce
I1220 11:08:57.340209 27701 net.cpp:338] inception_4c/5x5 -> inception_4c/5x5
I1220 11:08:57.340220 27701 net.cpp:113] Setting up inception_4c/5x5
I1220 11:08:57.341135 27701 net.cpp:120] Top shape: 80 64 14 14 (1003520)
I1220 11:08:57.341166 27701 layer_factory.hpp:74] Creating layer inception_4c/relu_5x5
I1220 11:08:57.341173 27701 net.cpp:84] Creating Layer inception_4c/relu_5x5
I1220 11:08:57.341181 27701 net.cpp:380] inception_4c/relu_5x5 <- inception_4c/5x5
I1220 11:08:57.341191 27701 net.cpp:327] inception_4c/relu_5x5 -> inception_4c/5x5 (in-place)
I1220 11:08:57.341198 27701 net.cpp:113] Setting up inception_4c/relu_5x5
I1220 11:08:57.341272 27701 net.cpp:120] Top shape: 80 64 14 14 (1003520)
I1220 11:08:57.341279 27701 layer_factory.hpp:74] Creating layer inception_4c/pool
I1220 11:08:57.341286 27701 layer_factory.cpp:56] CUDNN does not support padding or multiple tops. Using Caffe's own pooling layer.
I1220 11:08:57.341295 27701 net.cpp:84] Creating Layer inception_4c/pool
I1220 11:08:57.341300 27701 net.cpp:380] inception_4c/pool <- inception_4b/output_inception_4b/output_0_split_3
I1220 11:08:57.341307 27701 net.cpp:338] inception_4c/pool -> inception_4c/pool
I1220 11:08:57.341316 27701 net.cpp:113] Setting up inception_4c/pool
I1220 11:08:57.341351 27701 net.cpp:120] Top shape: 80 512 14 14 (8028160)
I1220 11:08:57.341356 27701 layer_factory.hpp:74] Creating layer inception_4c/pool_proj
I1220 11:08:57.341364 27701 net.cpp:84] Creating Layer inception_4c/pool_proj
I1220 11:08:57.341369 27701 net.cpp:380] inception_4c/pool_proj <- inception_4c/pool
I1220 11:08:57.341378 27701 net.cpp:338] inception_4c/pool_proj -> inception_4c/pool_proj
I1220 11:08:57.341387 27701 net.cpp:113] Setting up inception_4c/pool_proj
I1220 11:08:57.342209 27701 net.cpp:120] Top shape: 80 64 14 14 (1003520)
I1220 11:08:57.342226 27701 layer_factory.hpp:74] Creating layer inception_4c/relu_pool_proj
I1220 11:08:57.342233 27701 net.cpp:84] Creating Layer inception_4c/relu_pool_proj
I1220 11:08:57.342239 27701 net.cpp:380] inception_4c/relu_pool_proj <- inception_4c/pool_proj
I1220 11:08:57.342248 27701 net.cpp:327] inception_4c/relu_pool_proj -> inception_4c/pool_proj (in-place)
I1220 11:08:57.342257 27701 net.cpp:113] Setting up inception_4c/relu_pool_proj
I1220 11:08:57.342335 27701 net.cpp:120] Top shape: 80 64 14 14 (1003520)
I1220 11:08:57.342342 27701 layer_factory.hpp:74] Creating layer inception_4c/output
I1220 11:08:57.342351 27701 net.cpp:84] Creating Layer inception_4c/output
I1220 11:08:57.342357 27701 net.cpp:380] inception_4c/output <- inception_4c/1x1
I1220 11:08:57.342365 27701 net.cpp:380] inception_4c/output <- inception_4c/3x3
I1220 11:08:57.342370 27701 net.cpp:380] inception_4c/output <- inception_4c/5x5
I1220 11:08:57.342375 27701 net.cpp:380] inception_4c/output <- inception_4c/pool_proj
I1220 11:08:57.342381 27701 net.cpp:338] inception_4c/output -> inception_4c/output
I1220 11:08:57.342388 27701 net.cpp:113] Setting up inception_4c/output
I1220 11:08:57.342397 27701 net.cpp:120] Top shape: 80 512 14 14 (8028160)
I1220 11:08:57.342401 27701 layer_factory.hpp:74] Creating layer inception_4c/output_inception_4c/output_0_split
I1220 11:08:57.342411 27701 net.cpp:84] Creating Layer inception_4c/output_inception_4c/output_0_split
I1220 11:08:57.342416 27701 net.cpp:380] inception_4c/output_inception_4c/output_0_split <- inception_4c/output
I1220 11:08:57.342427 27701 net.cpp:338] inception_4c/output_inception_4c/output_0_split -> inception_4c/output_inception_4c/output_0_split_0
I1220 11:08:57.342434 27701 net.cpp:338] inception_4c/output_inception_4c/output_0_split -> inception_4c/output_inception_4c/output_0_split_1
I1220 11:08:57.342442 27701 net.cpp:338] inception_4c/output_inception_4c/output_0_split -> inception_4c/output_inception_4c/output_0_split_2
I1220 11:08:57.342449 27701 net.cpp:338] inception_4c/output_inception_4c/output_0_split -> inception_4c/output_inception_4c/output_0_split_3
I1220 11:08:57.342455 27701 net.cpp:113] Setting up inception_4c/output_inception_4c/output_0_split
I1220 11:08:57.342465 27701 net.cpp:120] Top shape: 80 512 14 14 (8028160)
I1220 11:08:57.342471 27701 net.cpp:120] Top shape: 80 512 14 14 (8028160)
I1220 11:08:57.342481 27701 net.cpp:120] Top shape: 80 512 14 14 (8028160)
I1220 11:08:57.342494 27701 net.cpp:120] Top shape: 80 512 14 14 (8028160)
I1220 11:08:57.342497 27701 layer_factory.hpp:74] Creating layer inception_4d/1x1
I1220 11:08:57.342506 27701 net.cpp:84] Creating Layer inception_4d/1x1
I1220 11:08:57.342511 27701 net.cpp:380] inception_4d/1x1 <- inception_4c/output_inception_4c/output_0_split_0
I1220 11:08:57.342520 27701 net.cpp:338] inception_4d/1x1 -> inception_4d/1x1
I1220 11:08:57.342528 27701 net.cpp:113] Setting up inception_4d/1x1
I1220 11:08:57.343634 27701 net.cpp:120] Top shape: 80 112 14 14 (1756160)
I1220 11:08:57.343652 27701 layer_factory.hpp:74] Creating layer inception_4d/relu_1x1
I1220 11:08:57.343659 27701 net.cpp:84] Creating Layer inception_4d/relu_1x1
I1220 11:08:57.343665 27701 net.cpp:380] inception_4d/relu_1x1 <- inception_4d/1x1
I1220 11:08:57.343672 27701 net.cpp:327] inception_4d/relu_1x1 -> inception_4d/1x1 (in-place)
I1220 11:08:57.343680 27701 net.cpp:113] Setting up inception_4d/relu_1x1
I1220 11:08:57.343750 27701 net.cpp:120] Top shape: 80 112 14 14 (1756160)
I1220 11:08:57.343755 27701 layer_factory.hpp:74] Creating layer inception_4d/3x3_reduce
I1220 11:08:57.343765 27701 net.cpp:84] Creating Layer inception_4d/3x3_reduce
I1220 11:08:57.343770 27701 net.cpp:380] inception_4d/3x3_reduce <- inception_4c/output_inception_4c/output_0_split_1
I1220 11:08:57.343780 27701 net.cpp:338] inception_4d/3x3_reduce -> inception_4d/3x3_reduce
I1220 11:08:57.343787 27701 net.cpp:113] Setting up inception_4d/3x3_reduce
I1220 11:08:57.345106 27701 net.cpp:120] Top shape: 80 144 14 14 (2257920)
I1220 11:08:57.345124 27701 layer_factory.hpp:74] Creating layer inception_4d/relu_3x3_reduce
I1220 11:08:57.345130 27701 net.cpp:84] Creating Layer inception_4d/relu_3x3_reduce
I1220 11:08:57.345136 27701 net.cpp:380] inception_4d/relu_3x3_reduce <- inception_4d/3x3_reduce
I1220 11:08:57.345144 27701 net.cpp:327] inception_4d/relu_3x3_reduce -> inception_4d/3x3_reduce (in-place)
I1220 11:08:57.345151 27701 net.cpp:113] Setting up inception_4d/relu_3x3_reduce
I1220 11:08:57.345422 27701 net.cpp:120] Top shape: 80 144 14 14 (2257920)
I1220 11:08:57.345433 27701 layer_factory.hpp:74] Creating layer inception_4d/3x3
I1220 11:08:57.345443 27701 net.cpp:84] Creating Layer inception_4d/3x3
I1220 11:08:57.345448 27701 net.cpp:380] inception_4d/3x3 <- inception_4d/3x3_reduce
I1220 11:08:57.345458 27701 net.cpp:338] inception_4d/3x3 -> inception_4d/3x3
I1220 11:08:57.345466 27701 net.cpp:113] Setting up inception_4d/3x3
I1220 11:08:57.350445 27701 net.cpp:120] Top shape: 80 288 14 14 (4515840)
I1220 11:08:57.350466 27701 layer_factory.hpp:74] Creating layer inception_4d/relu_3x3
I1220 11:08:57.350476 27701 net.cpp:84] Creating Layer inception_4d/relu_3x3
I1220 11:08:57.350482 27701 net.cpp:380] inception_4d/relu_3x3 <- inception_4d/3x3
I1220 11:08:57.350492 27701 net.cpp:327] inception_4d/relu_3x3 -> inception_4d/3x3 (in-place)
I1220 11:08:57.350500 27701 net.cpp:113] Setting up inception_4d/relu_3x3
I1220 11:08:57.350569 27701 net.cpp:120] Top shape: 80 288 14 14 (4515840)
I1220 11:08:57.350576 27701 layer_factory.hpp:74] Creating layer inception_4d/5x5_reduce
I1220 11:08:57.350589 27701 net.cpp:84] Creating Layer inception_4d/5x5_reduce
I1220 11:08:57.350594 27701 net.cpp:380] inception_4d/5x5_reduce <- inception_4c/output_inception_4c/output_0_split_2
I1220 11:08:57.350601 27701 net.cpp:338] inception_4d/5x5_reduce -> inception_4d/5x5_reduce
I1220 11:08:57.350610 27701 net.cpp:113] Setting up inception_4d/5x5_reduce
I1220 11:08:57.351239 27701 net.cpp:120] Top shape: 80 32 14 14 (501760)
I1220 11:08:57.351255 27701 layer_factory.hpp:74] Creating layer inception_4d/relu_5x5_reduce
I1220 11:08:57.351263 27701 net.cpp:84] Creating Layer inception_4d/relu_5x5_reduce
I1220 11:08:57.351269 27701 net.cpp:380] inception_4d/relu_5x5_reduce <- inception_4d/5x5_reduce
I1220 11:08:57.351277 27701 net.cpp:327] inception_4d/relu_5x5_reduce -> inception_4d/5x5_reduce (in-place)
I1220 11:08:57.351289 27701 net.cpp:113] Setting up inception_4d/relu_5x5_reduce
I1220 11:08:57.351368 27701 net.cpp:120] Top shape: 80 32 14 14 (501760)
I1220 11:08:57.351387 27701 layer_factory.hpp:74] Creating layer inception_4d/5x5
I1220 11:08:57.351398 27701 net.cpp:84] Creating Layer inception_4d/5x5
I1220 11:08:57.351404 27701 net.cpp:380] inception_4d/5x5 <- inception_4d/5x5_reduce
I1220 11:08:57.351411 27701 net.cpp:338] inception_4d/5x5 -> inception_4d/5x5
I1220 11:08:57.351419 27701 net.cpp:113] Setting up inception_4d/5x5
I1220 11:08:57.352459 27701 net.cpp:120] Top shape: 80 64 14 14 (1003520)
I1220 11:08:57.352475 27701 layer_factory.hpp:74] Creating layer inception_4d/relu_5x5
I1220 11:08:57.352483 27701 net.cpp:84] Creating Layer inception_4d/relu_5x5
I1220 11:08:57.352489 27701 net.cpp:380] inception_4d/relu_5x5 <- inception_4d/5x5
I1220 11:08:57.352499 27701 net.cpp:327] inception_4d/relu_5x5 -> inception_4d/5x5 (in-place)
I1220 11:08:57.352506 27701 net.cpp:113] Setting up inception_4d/relu_5x5
I1220 11:08:57.352578 27701 net.cpp:120] Top shape: 80 64 14 14 (1003520)
I1220 11:08:57.352584 27701 layer_factory.hpp:74] Creating layer inception_4d/pool
I1220 11:08:57.352591 27701 layer_factory.cpp:56] CUDNN does not support padding or multiple tops. Using Caffe's own pooling layer.
I1220 11:08:57.352599 27701 net.cpp:84] Creating Layer inception_4d/pool
I1220 11:08:57.352605 27701 net.cpp:380] inception_4d/pool <- inception_4c/output_inception_4c/output_0_split_3
I1220 11:08:57.352612 27701 net.cpp:338] inception_4d/pool -> inception_4d/pool
I1220 11:08:57.352620 27701 net.cpp:113] Setting up inception_4d/pool
I1220 11:08:57.352632 27701 net.cpp:120] Top shape: 80 512 14 14 (8028160)
I1220 11:08:57.352637 27701 layer_factory.hpp:74] Creating layer inception_4d/pool_proj
I1220 11:08:57.352644 27701 net.cpp:84] Creating Layer inception_4d/pool_proj
I1220 11:08:57.352649 27701 net.cpp:380] inception_4d/pool_proj <- inception_4d/pool
I1220 11:08:57.352656 27701 net.cpp:338] inception_4d/pool_proj -> inception_4d/pool_proj
I1220 11:08:57.352664 27701 net.cpp:113] Setting up inception_4d/pool_proj
I1220 11:08:57.353502 27701 net.cpp:120] Top shape: 80 64 14 14 (1003520)
I1220 11:08:57.353518 27701 layer_factory.hpp:74] Creating layer inception_4d/relu_pool_proj
I1220 11:08:57.353528 27701 net.cpp:84] Creating Layer inception_4d/relu_pool_proj
I1220 11:08:57.353534 27701 net.cpp:380] inception_4d/relu_pool_proj <- inception_4d/pool_proj
I1220 11:08:57.353541 27701 net.cpp:327] inception_4d/relu_pool_proj -> inception_4d/pool_proj (in-place)
I1220 11:08:57.353549 27701 net.cpp:113] Setting up inception_4d/relu_pool_proj
I1220 11:08:57.353812 27701 net.cpp:120] Top shape: 80 64 14 14 (1003520)
I1220 11:08:57.353824 27701 layer_factory.hpp:74] Creating layer inception_4d/output
I1220 11:08:57.353832 27701 net.cpp:84] Creating Layer inception_4d/output
I1220 11:08:57.353838 27701 net.cpp:380] inception_4d/output <- inception_4d/1x1
I1220 11:08:57.353845 27701 net.cpp:380] inception_4d/output <- inception_4d/3x3
I1220 11:08:57.353850 27701 net.cpp:380] inception_4d/output <- inception_4d/5x5
I1220 11:08:57.353857 27701 net.cpp:380] inception_4d/output <- inception_4d/pool_proj
I1220 11:08:57.353863 27701 net.cpp:338] inception_4d/output -> inception_4d/output
I1220 11:08:57.353869 27701 net.cpp:113] Setting up inception_4d/output
I1220 11:08:57.353878 27701 net.cpp:120] Top shape: 80 528 14 14 (8279040)
I1220 11:08:57.353883 27701 layer_factory.hpp:74] Creating layer inception_4d/output_inception_4d/output_0_split
I1220 11:08:57.353893 27701 net.cpp:84] Creating Layer inception_4d/output_inception_4d/output_0_split
I1220 11:08:57.353899 27701 net.cpp:380] inception_4d/output_inception_4d/output_0_split <- inception_4d/output
I1220 11:08:57.353905 27701 net.cpp:338] inception_4d/output_inception_4d/output_0_split -> inception_4d/output_inception_4d/output_0_split_0
I1220 11:08:57.353912 27701 net.cpp:338] inception_4d/output_inception_4d/output_0_split -> inception_4d/output_inception_4d/output_0_split_1
I1220 11:08:57.353922 27701 net.cpp:338] inception_4d/output_inception_4d/output_0_split -> inception_4d/output_inception_4d/output_0_split_2
I1220 11:08:57.353943 27701 net.cpp:338] inception_4d/output_inception_4d/output_0_split -> inception_4d/output_inception_4d/output_0_split_3
I1220 11:08:57.353951 27701 net.cpp:338] inception_4d/output_inception_4d/output_0_split -> inception_4d/output_inception_4d/output_0_split_4
I1220 11:08:57.353958 27701 net.cpp:113] Setting up inception_4d/output_inception_4d/output_0_split
I1220 11:08:57.353966 27701 net.cpp:120] Top shape: 80 528 14 14 (8279040)
I1220 11:08:57.353971 27701 net.cpp:120] Top shape: 80 528 14 14 (8279040)
I1220 11:08:57.353976 27701 net.cpp:120] Top shape: 80 528 14 14 (8279040)
I1220 11:08:57.353981 27701 net.cpp:120] Top shape: 80 528 14 14 (8279040)
I1220 11:08:57.353986 27701 net.cpp:120] Top shape: 80 528 14 14 (8279040)
I1220 11:08:57.353991 27701 layer_factory.hpp:74] Creating layer loss2/ave_pool
I1220 11:08:57.353998 27701 net.cpp:84] Creating Layer loss2/ave_pool
I1220 11:08:57.354002 27701 net.cpp:380] loss2/ave_pool <- inception_4d/output_inception_4d/output_0_split_0
I1220 11:08:57.354012 27701 net.cpp:338] loss2/ave_pool -> loss2/ave_pool
I1220 11:08:57.354018 27701 net.cpp:113] Setting up loss2/ave_pool
I1220 11:08:57.354096 27701 net.cpp:120] Top shape: 80 528 4 4 (675840)
I1220 11:08:57.354104 27701 layer_factory.hpp:74] Creating layer loss2/conv
I1220 11:08:57.354112 27701 net.cpp:84] Creating Layer loss2/conv
I1220 11:08:57.354118 27701 net.cpp:380] loss2/conv <- loss2/ave_pool
I1220 11:08:57.354125 27701 net.cpp:338] loss2/conv -> loss2/conv
I1220 11:08:57.354132 27701 net.cpp:113] Setting up loss2/conv
I1220 11:08:57.355378 27701 net.cpp:120] Top shape: 80 128 4 4 (163840)
I1220 11:08:57.355394 27701 layer_factory.hpp:74] Creating layer loss2/relu_conv
I1220 11:08:57.355403 27701 net.cpp:84] Creating Layer loss2/relu_conv
I1220 11:08:57.355409 27701 net.cpp:380] loss2/relu_conv <- loss2/conv
I1220 11:08:57.355417 27701 net.cpp:327] loss2/relu_conv -> loss2/conv (in-place)
I1220 11:08:57.355423 27701 net.cpp:113] Setting up loss2/relu_conv
I1220 11:08:57.355495 27701 net.cpp:120] Top shape: 80 128 4 4 (163840)
I1220 11:08:57.355501 27701 layer_factory.hpp:74] Creating layer loss2/fc_kaggle
I1220 11:08:57.355510 27701 net.cpp:84] Creating Layer loss2/fc_kaggle
I1220 11:08:57.355515 27701 net.cpp:380] loss2/fc_kaggle <- loss2/conv
I1220 11:08:57.355526 27701 net.cpp:338] loss2/fc_kaggle -> loss2/fc_kaggle
I1220 11:08:57.355535 27701 net.cpp:113] Setting up loss2/fc_kaggle
I1220 11:08:57.643887 27701 net.cpp:120] Top shape: 80 1024 (81920)
I1220 11:08:57.643921 27701 layer_factory.hpp:74] Creating layer loss2/relu_fc_kaggle
I1220 11:08:57.643936 27701 net.cpp:84] Creating Layer loss2/relu_fc_kaggle
I1220 11:08:57.643944 27701 net.cpp:380] loss2/relu_fc_kaggle <- loss2/fc_kaggle
I1220 11:08:57.643954 27701 net.cpp:327] loss2/relu_fc_kaggle -> loss2/fc_kaggle (in-place)
I1220 11:08:57.643965 27701 net.cpp:113] Setting up loss2/relu_fc_kaggle
I1220 11:08:57.645051 27701 net.cpp:120] Top shape: 80 1024 (81920)
I1220 11:08:57.645071 27701 layer_factory.hpp:74] Creating layer loss2/drop_fc_kaggle
I1220 11:08:57.645081 27701 net.cpp:84] Creating Layer loss2/drop_fc_kaggle
I1220 11:08:57.645086 27701 net.cpp:380] loss2/drop_fc_kaggle <- loss2/fc_kaggle
I1220 11:08:57.645092 27701 net.cpp:327] loss2/drop_fc_kaggle -> loss2/fc_kaggle (in-place)
I1220 11:08:57.645102 27701 net.cpp:113] Setting up loss2/drop_fc_kaggle
I1220 11:08:57.645109 27701 net.cpp:120] Top shape: 80 1024 (81920)
I1220 11:08:57.645114 27701 layer_factory.hpp:74] Creating layer loss2/classifier_kaggle
I1220 11:08:57.645125 27701 net.cpp:84] Creating Layer loss2/classifier_kaggle
I1220 11:08:57.645130 27701 net.cpp:380] loss2/classifier_kaggle <- loss2/fc_kaggle
I1220 11:08:57.645140 27701 net.cpp:338] loss2/classifier_kaggle -> loss2/classifier_kaggle
I1220 11:08:57.645150 27701 net.cpp:113] Setting up loss2/classifier_kaggle
I1220 11:08:57.650585 27701 net.cpp:120] Top shape: 80 447 (35760)
I1220 11:08:57.650610 27701 layer_factory.hpp:74] Creating layer loss2/loss
I1220 11:08:57.650637 27701 net.cpp:84] Creating Layer loss2/loss
I1220 11:08:57.650657 27701 net.cpp:380] loss2/loss <- loss2/classifier_kaggle
I1220 11:08:57.650666 27701 net.cpp:380] loss2/loss <- label_data_1_split_1
I1220 11:08:57.650673 27701 net.cpp:338] loss2/loss -> loss2/loss1
I1220 11:08:57.650682 27701 net.cpp:113] Setting up loss2/loss
I1220 11:08:57.650689 27701 layer_factory.hpp:74] Creating layer loss2/loss
I1220 11:08:57.650897 27701 net.cpp:120] Top shape: (1)
I1220 11:08:57.650905 27701 net.cpp:122]     with loss weight 0.3
I1220 11:08:57.650918 27701 layer_factory.hpp:74] Creating layer inception_4e/1x1
I1220 11:08:57.650930 27701 net.cpp:84] Creating Layer inception_4e/1x1
I1220 11:08:57.650936 27701 net.cpp:380] inception_4e/1x1 <- inception_4d/output_inception_4d/output_0_split_1
I1220 11:08:57.650946 27701 net.cpp:338] inception_4e/1x1 -> inception_4e/1x1
I1220 11:08:57.650954 27701 net.cpp:113] Setting up inception_4e/1x1
I1220 11:08:57.665149 27701 net.cpp:120] Top shape: 80 256 14 14 (4014080)
I1220 11:08:57.665207 27701 layer_factory.hpp:74] Creating layer inception_4e/relu_1x1
I1220 11:08:57.665230 27701 net.cpp:84] Creating Layer inception_4e/relu_1x1
I1220 11:08:57.665246 27701 net.cpp:380] inception_4e/relu_1x1 <- inception_4e/1x1
I1220 11:08:57.665264 27701 net.cpp:327] inception_4e/relu_1x1 -> inception_4e/1x1 (in-place)
I1220 11:08:57.665282 27701 net.cpp:113] Setting up inception_4e/relu_1x1
I1220 11:08:57.665380 27701 net.cpp:120] Top shape: 80 256 14 14 (4014080)
I1220 11:08:57.665390 27701 layer_factory.hpp:74] Creating layer inception_4e/3x3_reduce
I1220 11:08:57.665405 27701 net.cpp:84] Creating Layer inception_4e/3x3_reduce
I1220 11:08:57.665415 27701 net.cpp:380] inception_4e/3x3_reduce <- inception_4d/output_inception_4d/output_0_split_2
I1220 11:08:57.665424 27701 net.cpp:338] inception_4e/3x3_reduce -> inception_4e/3x3_reduce
I1220 11:08:57.665436 27701 net.cpp:113] Setting up inception_4e/3x3_reduce
I1220 11:08:57.693881 27701 net.cpp:120] Top shape: 80 160 14 14 (2508800)
I1220 11:08:57.693929 27701 layer_factory.hpp:74] Creating layer inception_4e/relu_3x3_reduce
I1220 11:08:57.693948 27701 net.cpp:84] Creating Layer inception_4e/relu_3x3_reduce
I1220 11:08:57.693959 27701 net.cpp:380] inception_4e/relu_3x3_reduce <- inception_4e/3x3_reduce
I1220 11:08:57.693974 27701 net.cpp:327] inception_4e/relu_3x3_reduce -> inception_4e/3x3_reduce (in-place)
I1220 11:08:57.693989 27701 net.cpp:113] Setting up inception_4e/relu_3x3_reduce
I1220 11:08:57.694100 27701 net.cpp:120] Top shape: 80 160 14 14 (2508800)
I1220 11:08:57.694113 27701 layer_factory.hpp:74] Creating layer inception_4e/3x3
I1220 11:08:57.694128 27701 net.cpp:84] Creating Layer inception_4e/3x3
I1220 11:08:57.694136 27701 net.cpp:380] inception_4e/3x3 <- inception_4e/3x3_reduce
I1220 11:08:57.694149 27701 net.cpp:338] inception_4e/3x3 -> inception_4e/3x3
I1220 11:08:57.694164 27701 net.cpp:113] Setting up inception_4e/3x3
I1220 11:08:57.700831 27701 net.cpp:120] Top shape: 80 320 14 14 (5017600)
I1220 11:08:57.700867 27701 layer_factory.hpp:74] Creating layer inception_4e/relu_3x3
I1220 11:08:57.700881 27701 net.cpp:84] Creating Layer inception_4e/relu_3x3
I1220 11:08:57.700888 27701 net.cpp:380] inception_4e/relu_3x3 <- inception_4e/3x3
I1220 11:08:57.700897 27701 net.cpp:327] inception_4e/relu_3x3 -> inception_4e/3x3 (in-place)
I1220 11:08:57.700908 27701 net.cpp:113] Setting up inception_4e/relu_3x3
I1220 11:08:57.701221 27701 net.cpp:120] Top shape: 80 320 14 14 (5017600)
I1220 11:08:57.701234 27701 layer_factory.hpp:74] Creating layer inception_4e/5x5_reduce
I1220 11:08:57.701249 27701 net.cpp:84] Creating Layer inception_4e/5x5_reduce
I1220 11:08:57.701256 27701 net.cpp:380] inception_4e/5x5_reduce <- inception_4d/output_inception_4d/output_0_split_3
I1220 11:08:57.701267 27701 net.cpp:338] inception_4e/5x5_reduce -> inception_4e/5x5_reduce
I1220 11:08:57.701277 27701 net.cpp:113] Setting up inception_4e/5x5_reduce
I1220 11:08:57.701933 27701 net.cpp:120] Top shape: 80 32 14 14 (501760)
I1220 11:08:57.701958 27701 layer_factory.hpp:74] Creating layer inception_4e/relu_5x5_reduce
I1220 11:08:57.701980 27701 net.cpp:84] Creating Layer inception_4e/relu_5x5_reduce
I1220 11:08:57.701987 27701 net.cpp:380] inception_4e/relu_5x5_reduce <- inception_4e/5x5_reduce
I1220 11:08:57.701993 27701 net.cpp:327] inception_4e/relu_5x5_reduce -> inception_4e/5x5_reduce (in-place)
I1220 11:08:57.702003 27701 net.cpp:113] Setting up inception_4e/relu_5x5_reduce
I1220 11:08:57.702075 27701 net.cpp:120] Top shape: 80 32 14 14 (501760)
I1220 11:08:57.702083 27701 layer_factory.hpp:74] Creating layer inception_4e/5x5
I1220 11:08:57.702112 27701 net.cpp:84] Creating Layer inception_4e/5x5
I1220 11:08:57.702118 27701 net.cpp:380] inception_4e/5x5 <- inception_4e/5x5_reduce
I1220 11:08:57.702127 27701 net.cpp:338] inception_4e/5x5 -> inception_4e/5x5
I1220 11:08:57.702136 27701 net.cpp:113] Setting up inception_4e/5x5
I1220 11:08:57.703775 27701 net.cpp:120] Top shape: 80 128 14 14 (2007040)
I1220 11:08:57.703794 27701 layer_factory.hpp:74] Creating layer inception_4e/relu_5x5
I1220 11:08:57.703804 27701 net.cpp:84] Creating Layer inception_4e/relu_5x5
I1220 11:08:57.703809 27701 net.cpp:380] inception_4e/relu_5x5 <- inception_4e/5x5
I1220 11:08:57.703819 27701 net.cpp:327] inception_4e/relu_5x5 -> inception_4e/5x5 (in-place)
I1220 11:08:57.703831 27701 net.cpp:113] Setting up inception_4e/relu_5x5
I1220 11:08:57.703904 27701 net.cpp:120] Top shape: 80 128 14 14 (2007040)
I1220 11:08:57.703912 27701 layer_factory.hpp:74] Creating layer inception_4e/pool
I1220 11:08:57.703917 27701 layer_factory.cpp:56] CUDNN does not support padding or multiple tops. Using Caffe's own pooling layer.
I1220 11:08:57.703927 27701 net.cpp:84] Creating Layer inception_4e/pool
I1220 11:08:57.703933 27701 net.cpp:380] inception_4e/pool <- inception_4d/output_inception_4d/output_0_split_4
I1220 11:08:57.703939 27701 net.cpp:338] inception_4e/pool -> inception_4e/pool
I1220 11:08:57.703946 27701 net.cpp:113] Setting up inception_4e/pool
I1220 11:08:57.703958 27701 net.cpp:120] Top shape: 80 528 14 14 (8279040)
I1220 11:08:57.703963 27701 layer_factory.hpp:74] Creating layer inception_4e/pool_proj
I1220 11:08:57.703972 27701 net.cpp:84] Creating Layer inception_4e/pool_proj
I1220 11:08:57.703977 27701 net.cpp:380] inception_4e/pool_proj <- inception_4e/pool
I1220 11:08:57.703984 27701 net.cpp:338] inception_4e/pool_proj -> inception_4e/pool_proj
I1220 11:08:57.703991 27701 net.cpp:113] Setting up inception_4e/pool_proj
I1220 11:08:57.705893 27701 net.cpp:120] Top shape: 80 128 14 14 (2007040)
I1220 11:08:57.705914 27701 layer_factory.hpp:74] Creating layer inception_4e/relu_pool_proj
I1220 11:08:57.705925 27701 net.cpp:84] Creating Layer inception_4e/relu_pool_proj
I1220 11:08:57.705931 27701 net.cpp:380] inception_4e/relu_pool_proj <- inception_4e/pool_proj
I1220 11:08:57.705938 27701 net.cpp:327] inception_4e/relu_pool_proj -> inception_4e/pool_proj (in-place)
I1220 11:08:57.705946 27701 net.cpp:113] Setting up inception_4e/relu_pool_proj
I1220 11:08:57.706028 27701 net.cpp:120] Top shape: 80 128 14 14 (2007040)
I1220 11:08:57.706035 27701 layer_factory.hpp:74] Creating layer inception_4e/output
I1220 11:08:57.706043 27701 net.cpp:84] Creating Layer inception_4e/output
I1220 11:08:57.706048 27701 net.cpp:380] inception_4e/output <- inception_4e/1x1
I1220 11:08:57.706054 27701 net.cpp:380] inception_4e/output <- inception_4e/3x3
I1220 11:08:57.706060 27701 net.cpp:380] inception_4e/output <- inception_4e/5x5
I1220 11:08:57.706065 27701 net.cpp:380] inception_4e/output <- inception_4e/pool_proj
I1220 11:08:57.706073 27701 net.cpp:338] inception_4e/output -> inception_4e/output
I1220 11:08:57.706079 27701 net.cpp:113] Setting up inception_4e/output
I1220 11:08:57.706089 27701 net.cpp:120] Top shape: 80 832 14 14 (13045760)
I1220 11:08:57.706092 27701 layer_factory.hpp:74] Creating layer pool4/3x3_s2
I1220 11:08:57.706100 27701 net.cpp:84] Creating Layer pool4/3x3_s2
I1220 11:08:57.706105 27701 net.cpp:380] pool4/3x3_s2 <- inception_4e/output
I1220 11:08:57.706123 27701 net.cpp:338] pool4/3x3_s2 -> pool4/3x3_s2
I1220 11:08:57.706142 27701 net.cpp:113] Setting up pool4/3x3_s2
I1220 11:08:57.707196 27701 net.cpp:120] Top shape: 80 832 7 7 (3261440)
I1220 11:08:57.707209 27701 layer_factory.hpp:74] Creating layer pool4/3x3_s2_pool4/3x3_s2_0_split
I1220 11:08:57.707221 27701 net.cpp:84] Creating Layer pool4/3x3_s2_pool4/3x3_s2_0_split
I1220 11:08:57.707226 27701 net.cpp:380] pool4/3x3_s2_pool4/3x3_s2_0_split <- pool4/3x3_s2
I1220 11:08:57.707233 27701 net.cpp:338] pool4/3x3_s2_pool4/3x3_s2_0_split -> pool4/3x3_s2_pool4/3x3_s2_0_split_0
I1220 11:08:57.707247 27701 net.cpp:338] pool4/3x3_s2_pool4/3x3_s2_0_split -> pool4/3x3_s2_pool4/3x3_s2_0_split_1
I1220 11:08:57.707255 27701 net.cpp:338] pool4/3x3_s2_pool4/3x3_s2_0_split -> pool4/3x3_s2_pool4/3x3_s2_0_split_2
I1220 11:08:57.707262 27701 net.cpp:338] pool4/3x3_s2_pool4/3x3_s2_0_split -> pool4/3x3_s2_pool4/3x3_s2_0_split_3
I1220 11:08:57.707268 27701 net.cpp:113] Setting up pool4/3x3_s2_pool4/3x3_s2_0_split
I1220 11:08:57.707276 27701 net.cpp:120] Top shape: 80 832 7 7 (3261440)
I1220 11:08:57.707283 27701 net.cpp:120] Top shape: 80 832 7 7 (3261440)
I1220 11:08:57.707288 27701 net.cpp:120] Top shape: 80 832 7 7 (3261440)
I1220 11:08:57.707293 27701 net.cpp:120] Top shape: 80 832 7 7 (3261440)
I1220 11:08:57.707296 27701 layer_factory.hpp:74] Creating layer inception_5a/1x1
I1220 11:08:57.707309 27701 net.cpp:84] Creating Layer inception_5a/1x1
I1220 11:08:57.707314 27701 net.cpp:380] inception_5a/1x1 <- pool4/3x3_s2_pool4/3x3_s2_0_split_0
I1220 11:08:57.707320 27701 net.cpp:338] inception_5a/1x1 -> inception_5a/1x1
I1220 11:08:57.707329 27701 net.cpp:113] Setting up inception_5a/1x1
I1220 11:08:57.710561 27701 net.cpp:120] Top shape: 80 256 7 7 (1003520)
I1220 11:08:57.710594 27701 layer_factory.hpp:74] Creating layer inception_5a/relu_1x1
I1220 11:08:57.710605 27701 net.cpp:84] Creating Layer inception_5a/relu_1x1
I1220 11:08:57.710613 27701 net.cpp:380] inception_5a/relu_1x1 <- inception_5a/1x1
I1220 11:08:57.710624 27701 net.cpp:327] inception_5a/relu_1x1 -> inception_5a/1x1 (in-place)
I1220 11:08:57.710634 27701 net.cpp:113] Setting up inception_5a/relu_1x1
I1220 11:08:57.710711 27701 net.cpp:120] Top shape: 80 256 7 7 (1003520)
I1220 11:08:57.710718 27701 layer_factory.hpp:74] Creating layer inception_5a/3x3_reduce
I1220 11:08:57.710731 27701 net.cpp:84] Creating Layer inception_5a/3x3_reduce
I1220 11:08:57.710736 27701 net.cpp:380] inception_5a/3x3_reduce <- pool4/3x3_s2_pool4/3x3_s2_0_split_1
I1220 11:08:57.710744 27701 net.cpp:338] inception_5a/3x3_reduce -> inception_5a/3x3_reduce
I1220 11:08:57.710753 27701 net.cpp:113] Setting up inception_5a/3x3_reduce
I1220 11:08:57.713309 27701 net.cpp:120] Top shape: 80 160 7 7 (627200)
I1220 11:08:57.713328 27701 layer_factory.hpp:74] Creating layer inception_5a/relu_3x3_reduce
I1220 11:08:57.713338 27701 net.cpp:84] Creating Layer inception_5a/relu_3x3_reduce
I1220 11:08:57.713345 27701 net.cpp:380] inception_5a/relu_3x3_reduce <- inception_5a/3x3_reduce
I1220 11:08:57.713351 27701 net.cpp:327] inception_5a/relu_3x3_reduce -> inception_5a/3x3_reduce (in-place)
I1220 11:08:57.713361 27701 net.cpp:113] Setting up inception_5a/relu_3x3_reduce
I1220 11:08:57.713433 27701 net.cpp:120] Top shape: 80 160 7 7 (627200)
I1220 11:08:57.713438 27701 layer_factory.hpp:74] Creating layer inception_5a/3x3
I1220 11:08:57.713449 27701 net.cpp:84] Creating Layer inception_5a/3x3
I1220 11:08:57.713455 27701 net.cpp:380] inception_5a/3x3 <- inception_5a/3x3_reduce
I1220 11:08:57.713462 27701 net.cpp:338] inception_5a/3x3 -> inception_5a/3x3
I1220 11:08:57.713470 27701 net.cpp:113] Setting up inception_5a/3x3
I1220 11:08:57.720528 27701 net.cpp:120] Top shape: 80 320 7 7 (1254400)
I1220 11:08:57.720561 27701 layer_factory.hpp:74] Creating layer inception_5a/relu_3x3
I1220 11:08:57.720572 27701 net.cpp:84] Creating Layer inception_5a/relu_3x3
I1220 11:08:57.720579 27701 net.cpp:380] inception_5a/relu_3x3 <- inception_5a/3x3
I1220 11:08:57.720589 27701 net.cpp:327] inception_5a/relu_3x3 -> inception_5a/3x3 (in-place)
I1220 11:08:57.720609 27701 net.cpp:113] Setting up inception_5a/relu_3x3
I1220 11:08:57.720706 27701 net.cpp:120] Top shape: 80 320 7 7 (1254400)
I1220 11:08:57.720713 27701 layer_factory.hpp:74] Creating layer inception_5a/5x5_reduce
I1220 11:08:57.720723 27701 net.cpp:84] Creating Layer inception_5a/5x5_reduce
I1220 11:08:57.720729 27701 net.cpp:380] inception_5a/5x5_reduce <- pool4/3x3_s2_pool4/3x3_s2_0_split_2
I1220 11:08:57.720739 27701 net.cpp:338] inception_5a/5x5_reduce -> inception_5a/5x5_reduce
I1220 11:08:57.720748 27701 net.cpp:113] Setting up inception_5a/5x5_reduce
I1220 11:08:57.721993 27701 net.cpp:120] Top shape: 80 32 7 7 (125440)
I1220 11:08:57.722012 27701 layer_factory.hpp:74] Creating layer inception_5a/relu_5x5_reduce
I1220 11:08:57.722020 27701 net.cpp:84] Creating Layer inception_5a/relu_5x5_reduce
I1220 11:08:57.722028 27701 net.cpp:380] inception_5a/relu_5x5_reduce <- inception_5a/5x5_reduce
I1220 11:08:57.722035 27701 net.cpp:327] inception_5a/relu_5x5_reduce -> inception_5a/5x5_reduce (in-place)
I1220 11:08:57.722043 27701 net.cpp:113] Setting up inception_5a/relu_5x5_reduce
I1220 11:08:57.722746 27701 net.cpp:120] Top shape: 80 32 7 7 (125440)
I1220 11:08:57.722759 27701 layer_factory.hpp:74] Creating layer inception_5a/5x5
I1220 11:08:57.722769 27701 net.cpp:84] Creating Layer inception_5a/5x5
I1220 11:08:57.722774 27701 net.cpp:380] inception_5a/5x5 <- inception_5a/5x5_reduce
I1220 11:08:57.722790 27701 net.cpp:338] inception_5a/5x5 -> inception_5a/5x5
I1220 11:08:57.722800 27701 net.cpp:113] Setting up inception_5a/5x5
I1220 11:08:57.725080 27701 net.cpp:120] Top shape: 80 128 7 7 (501760)
I1220 11:08:57.725096 27701 layer_factory.hpp:74] Creating layer inception_5a/relu_5x5
I1220 11:08:57.725106 27701 net.cpp:84] Creating Layer inception_5a/relu_5x5
I1220 11:08:57.725111 27701 net.cpp:380] inception_5a/relu_5x5 <- inception_5a/5x5
I1220 11:08:57.725118 27701 net.cpp:327] inception_5a/relu_5x5 -> inception_5a/5x5 (in-place)
I1220 11:08:57.725126 27701 net.cpp:113] Setting up inception_5a/relu_5x5
I1220 11:08:57.725199 27701 net.cpp:120] Top shape: 80 128 7 7 (501760)
I1220 11:08:57.725208 27701 layer_factory.hpp:74] Creating layer inception_5a/pool
I1220 11:08:57.725214 27701 layer_factory.cpp:56] CUDNN does not support padding or multiple tops. Using Caffe's own pooling layer.
I1220 11:08:57.725221 27701 net.cpp:84] Creating Layer inception_5a/pool
I1220 11:08:57.725227 27701 net.cpp:380] inception_5a/pool <- pool4/3x3_s2_pool4/3x3_s2_0_split_3
I1220 11:08:57.725236 27701 net.cpp:338] inception_5a/pool -> inception_5a/pool
I1220 11:08:57.725244 27701 net.cpp:113] Setting up inception_5a/pool
I1220 11:08:57.725253 27701 net.cpp:120] Top shape: 80 832 7 7 (3261440)
I1220 11:08:57.725258 27701 layer_factory.hpp:74] Creating layer inception_5a/pool_proj
I1220 11:08:57.725267 27701 net.cpp:84] Creating Layer inception_5a/pool_proj
I1220 11:08:57.725272 27701 net.cpp:380] inception_5a/pool_proj <- inception_5a/pool
I1220 11:08:57.725286 27701 net.cpp:338] inception_5a/pool_proj -> inception_5a/pool_proj
I1220 11:08:57.725294 27701 net.cpp:113] Setting up inception_5a/pool_proj
I1220 11:08:57.727334 27701 net.cpp:120] Top shape: 80 128 7 7 (501760)
I1220 11:08:57.727349 27701 layer_factory.hpp:74] Creating layer inception_5a/relu_pool_proj
I1220 11:08:57.727357 27701 net.cpp:84] Creating Layer inception_5a/relu_pool_proj
I1220 11:08:57.727363 27701 net.cpp:380] inception_5a/relu_pool_proj <- inception_5a/pool_proj
I1220 11:08:57.727370 27701 net.cpp:327] inception_5a/relu_pool_proj -> inception_5a/pool_proj (in-place)
I1220 11:08:57.727378 27701 net.cpp:113] Setting up inception_5a/relu_pool_proj
I1220 11:08:57.727449 27701 net.cpp:120] Top shape: 80 128 7 7 (501760)
I1220 11:08:57.727457 27701 layer_factory.hpp:74] Creating layer inception_5a/output
I1220 11:08:57.727464 27701 net.cpp:84] Creating Layer inception_5a/output
I1220 11:08:57.727469 27701 net.cpp:380] inception_5a/output <- inception_5a/1x1
I1220 11:08:57.727475 27701 net.cpp:380] inception_5a/output <- inception_5a/3x3
I1220 11:08:57.727490 27701 net.cpp:380] inception_5a/output <- inception_5a/5x5
I1220 11:08:57.727506 27701 net.cpp:380] inception_5a/output <- inception_5a/pool_proj
I1220 11:08:57.727514 27701 net.cpp:338] inception_5a/output -> inception_5a/output
I1220 11:08:57.727521 27701 net.cpp:113] Setting up inception_5a/output
I1220 11:08:57.727530 27701 net.cpp:120] Top shape: 80 832 7 7 (3261440)
I1220 11:08:57.727536 27701 layer_factory.hpp:74] Creating layer inception_5a/output_inception_5a/output_0_split
I1220 11:08:57.727545 27701 net.cpp:84] Creating Layer inception_5a/output_inception_5a/output_0_split
I1220 11:08:57.727550 27701 net.cpp:380] inception_5a/output_inception_5a/output_0_split <- inception_5a/output
I1220 11:08:57.727556 27701 net.cpp:338] inception_5a/output_inception_5a/output_0_split -> inception_5a/output_inception_5a/output_0_split_0
I1220 11:08:57.727565 27701 net.cpp:338] inception_5a/output_inception_5a/output_0_split -> inception_5a/output_inception_5a/output_0_split_1
I1220 11:08:57.727571 27701 net.cpp:338] inception_5a/output_inception_5a/output_0_split -> inception_5a/output_inception_5a/output_0_split_2
I1220 11:08:57.727581 27701 net.cpp:338] inception_5a/output_inception_5a/output_0_split -> inception_5a/output_inception_5a/output_0_split_3
I1220 11:08:57.727587 27701 net.cpp:113] Setting up inception_5a/output_inception_5a/output_0_split
I1220 11:08:57.727596 27701 net.cpp:120] Top shape: 80 832 7 7 (3261440)
I1220 11:08:57.727601 27701 net.cpp:120] Top shape: 80 832 7 7 (3261440)
I1220 11:08:57.727605 27701 net.cpp:120] Top shape: 80 832 7 7 (3261440)
I1220 11:08:57.727610 27701 net.cpp:120] Top shape: 80 832 7 7 (3261440)
I1220 11:08:57.727615 27701 layer_factory.hpp:74] Creating layer inception_5b/1x1
I1220 11:08:57.727624 27701 net.cpp:84] Creating Layer inception_5b/1x1
I1220 11:08:57.727629 27701 net.cpp:380] inception_5b/1x1 <- inception_5a/output_inception_5a/output_0_split_0
I1220 11:08:57.727638 27701 net.cpp:338] inception_5b/1x1 -> inception_5b/1x1
I1220 11:08:57.727645 27701 net.cpp:113] Setting up inception_5b/1x1
I1220 11:08:57.732198 27701 net.cpp:120] Top shape: 80 384 7 7 (1505280)
I1220 11:08:57.732216 27701 layer_factory.hpp:74] Creating layer inception_5b/relu_1x1
I1220 11:08:57.732224 27701 net.cpp:84] Creating Layer inception_5b/relu_1x1
I1220 11:08:57.732229 27701 net.cpp:380] inception_5b/relu_1x1 <- inception_5b/1x1
I1220 11:08:57.732239 27701 net.cpp:327] inception_5b/relu_1x1 -> inception_5b/1x1 (in-place)
I1220 11:08:57.732247 27701 net.cpp:113] Setting up inception_5b/relu_1x1
I1220 11:08:57.733106 27701 net.cpp:120] Top shape: 80 384 7 7 (1505280)
I1220 11:08:57.733119 27701 layer_factory.hpp:74] Creating layer inception_5b/3x3_reduce
I1220 11:08:57.733134 27701 net.cpp:84] Creating Layer inception_5b/3x3_reduce
I1220 11:08:57.733139 27701 net.cpp:380] inception_5b/3x3_reduce <- inception_5a/output_inception_5a/output_0_split_1
I1220 11:08:57.733150 27701 net.cpp:338] inception_5b/3x3_reduce -> inception_5b/3x3_reduce
I1220 11:08:57.733160 27701 net.cpp:113] Setting up inception_5b/3x3_reduce
I1220 11:08:57.735677 27701 net.cpp:120] Top shape: 80 192 7 7 (752640)
I1220 11:08:57.735693 27701 layer_factory.hpp:74] Creating layer inception_5b/relu_3x3_reduce
I1220 11:08:57.735704 27701 net.cpp:84] Creating Layer inception_5b/relu_3x3_reduce
I1220 11:08:57.735712 27701 net.cpp:380] inception_5b/relu_3x3_reduce <- inception_5b/3x3_reduce
I1220 11:08:57.735718 27701 net.cpp:327] inception_5b/relu_3x3_reduce -> inception_5b/3x3_reduce (in-place)
I1220 11:08:57.735726 27701 net.cpp:113] Setting up inception_5b/relu_3x3_reduce
I1220 11:08:57.735802 27701 net.cpp:120] Top shape: 80 192 7 7 (752640)
I1220 11:08:57.735810 27701 layer_factory.hpp:74] Creating layer inception_5b/3x3
I1220 11:08:57.735819 27701 net.cpp:84] Creating Layer inception_5b/3x3
I1220 11:08:57.735824 27701 net.cpp:380] inception_5b/3x3 <- inception_5b/3x3_reduce
I1220 11:08:57.735831 27701 net.cpp:338] inception_5b/3x3 -> inception_5b/3x3
I1220 11:08:57.735860 27701 net.cpp:113] Setting up inception_5b/3x3
I1220 11:08:57.744441 27701 net.cpp:120] Top shape: 80 384 7 7 (1505280)
I1220 11:08:57.744482 27701 layer_factory.hpp:74] Creating layer inception_5b/relu_3x3
I1220 11:08:57.744491 27701 net.cpp:84] Creating Layer inception_5b/relu_3x3
I1220 11:08:57.744498 27701 net.cpp:380] inception_5b/relu_3x3 <- inception_5b/3x3
I1220 11:08:57.744508 27701 net.cpp:327] inception_5b/relu_3x3 -> inception_5b/3x3 (in-place)
I1220 11:08:57.744518 27701 net.cpp:113] Setting up inception_5b/relu_3x3
I1220 11:08:57.744601 27701 net.cpp:120] Top shape: 80 384 7 7 (1505280)
I1220 11:08:57.744607 27701 layer_factory.hpp:74] Creating layer inception_5b/5x5_reduce
I1220 11:08:57.744619 27701 net.cpp:84] Creating Layer inception_5b/5x5_reduce
I1220 11:08:57.744626 27701 net.cpp:380] inception_5b/5x5_reduce <- inception_5a/output_inception_5a/output_0_split_2
I1220 11:08:57.744633 27701 net.cpp:338] inception_5b/5x5_reduce -> inception_5b/5x5_reduce
I1220 11:08:57.744642 27701 net.cpp:113] Setting up inception_5b/5x5_reduce
I1220 11:08:57.752506 27701 net.cpp:120] Top shape: 80 48 7 7 (188160)
I1220 11:08:57.752526 27701 layer_factory.hpp:74] Creating layer inception_5b/relu_5x5_reduce
I1220 11:08:57.752534 27701 net.cpp:84] Creating Layer inception_5b/relu_5x5_reduce
I1220 11:08:57.752540 27701 net.cpp:380] inception_5b/relu_5x5_reduce <- inception_5b/5x5_reduce
I1220 11:08:57.752548 27701 net.cpp:327] inception_5b/relu_5x5_reduce -> inception_5b/5x5_reduce (in-place)
I1220 11:08:57.752559 27701 net.cpp:113] Setting up inception_5b/relu_5x5_reduce
I1220 11:08:57.752634 27701 net.cpp:120] Top shape: 80 48 7 7 (188160)
I1220 11:08:57.752640 27701 layer_factory.hpp:74] Creating layer inception_5b/5x5
I1220 11:08:57.752652 27701 net.cpp:84] Creating Layer inception_5b/5x5
I1220 11:08:57.752657 27701 net.cpp:380] inception_5b/5x5 <- inception_5b/5x5_reduce
I1220 11:08:57.752665 27701 net.cpp:338] inception_5b/5x5 -> inception_5b/5x5
I1220 11:08:57.752673 27701 net.cpp:113] Setting up inception_5b/5x5
I1220 11:08:57.758067 27701 net.cpp:120] Top shape: 80 128 7 7 (501760)
I1220 11:08:57.758086 27701 layer_factory.hpp:74] Creating layer inception_5b/relu_5x5
I1220 11:08:57.758095 27701 net.cpp:84] Creating Layer inception_5b/relu_5x5
I1220 11:08:57.758100 27701 net.cpp:380] inception_5b/relu_5x5 <- inception_5b/5x5
I1220 11:08:57.758107 27701 net.cpp:327] inception_5b/relu_5x5 -> inception_5b/5x5 (in-place)
I1220 11:08:57.758116 27701 net.cpp:113] Setting up inception_5b/relu_5x5
I1220 11:08:57.758694 27701 net.cpp:120] Top shape: 80 128 7 7 (501760)
I1220 11:08:57.758707 27701 layer_factory.hpp:74] Creating layer inception_5b/pool
I1220 11:08:57.758715 27701 layer_factory.cpp:56] CUDNN does not support padding or multiple tops. Using Caffe's own pooling layer.
I1220 11:08:57.758723 27701 net.cpp:84] Creating Layer inception_5b/pool
I1220 11:08:57.758728 27701 net.cpp:380] inception_5b/pool <- inception_5a/output_inception_5a/output_0_split_3
I1220 11:08:57.758736 27701 net.cpp:338] inception_5b/pool -> inception_5b/pool
I1220 11:08:57.758745 27701 net.cpp:113] Setting up inception_5b/pool
I1220 11:08:57.758755 27701 net.cpp:120] Top shape: 80 832 7 7 (3261440)
I1220 11:08:57.758760 27701 layer_factory.hpp:74] Creating layer inception_5b/pool_proj
I1220 11:08:57.758771 27701 net.cpp:84] Creating Layer inception_5b/pool_proj
I1220 11:08:57.758777 27701 net.cpp:380] inception_5b/pool_proj <- inception_5b/pool
I1220 11:08:57.758786 27701 net.cpp:338] inception_5b/pool_proj -> inception_5b/pool_proj
I1220 11:08:57.758795 27701 net.cpp:113] Setting up inception_5b/pool_proj
I1220 11:08:57.760902 27701 net.cpp:120] Top shape: 80 128 7 7 (501760)
I1220 11:08:57.760918 27701 layer_factory.hpp:74] Creating layer inception_5b/relu_pool_proj
I1220 11:08:57.760926 27701 net.cpp:84] Creating Layer inception_5b/relu_pool_proj
I1220 11:08:57.760932 27701 net.cpp:380] inception_5b/relu_pool_proj <- inception_5b/pool_proj
I1220 11:08:57.760944 27701 net.cpp:327] inception_5b/relu_pool_proj -> inception_5b/pool_proj (in-place)
I1220 11:08:57.760962 27701 net.cpp:113] Setting up inception_5b/relu_pool_proj
I1220 11:08:57.761046 27701 net.cpp:120] Top shape: 80 128 7 7 (501760)
I1220 11:08:57.761054 27701 layer_factory.hpp:74] Creating layer inception_5b/output
I1220 11:08:57.761075 27701 net.cpp:84] Creating Layer inception_5b/output
I1220 11:08:57.761080 27701 net.cpp:380] inception_5b/output <- inception_5b/1x1
I1220 11:08:57.761090 27701 net.cpp:380] inception_5b/output <- inception_5b/3x3
I1220 11:08:57.761096 27701 net.cpp:380] inception_5b/output <- inception_5b/5x5
I1220 11:08:57.761102 27701 net.cpp:380] inception_5b/output <- inception_5b/pool_proj
I1220 11:08:57.761108 27701 net.cpp:338] inception_5b/output -> inception_5b/output
I1220 11:08:57.761116 27701 net.cpp:113] Setting up inception_5b/output
I1220 11:08:57.761124 27701 net.cpp:120] Top shape: 80 1024 7 7 (4014080)
I1220 11:08:57.761129 27701 layer_factory.hpp:74] Creating layer pool5/7x7_s1_kaggle
I1220 11:08:57.761137 27701 net.cpp:84] Creating Layer pool5/7x7_s1_kaggle
I1220 11:08:57.761144 27701 net.cpp:380] pool5/7x7_s1_kaggle <- inception_5b/output
I1220 11:08:57.761152 27701 net.cpp:338] pool5/7x7_s1_kaggle -> pool5/7x7_s1_kaggle
I1220 11:08:57.761159 27701 net.cpp:113] Setting up pool5/7x7_s1_kaggle
I1220 11:08:57.761231 27701 net.cpp:120] Top shape: 80 1024 1 1 (81920)
I1220 11:08:57.761240 27701 layer_factory.hpp:74] Creating layer pool5/drop_7x7_s1_kaggle
I1220 11:08:57.761247 27701 net.cpp:84] Creating Layer pool5/drop_7x7_s1_kaggle
I1220 11:08:57.761252 27701 net.cpp:380] pool5/drop_7x7_s1_kaggle <- pool5/7x7_s1_kaggle
I1220 11:08:57.761258 27701 net.cpp:327] pool5/drop_7x7_s1_kaggle -> pool5/7x7_s1_kaggle (in-place)
I1220 11:08:57.761265 27701 net.cpp:113] Setting up pool5/drop_7x7_s1_kaggle
I1220 11:08:57.761273 27701 net.cpp:120] Top shape: 80 1024 1 1 (81920)
I1220 11:08:57.761278 27701 layer_factory.hpp:74] Creating layer loss3/classifier_kaggle
I1220 11:08:57.761287 27701 net.cpp:84] Creating Layer loss3/classifier_kaggle
I1220 11:08:57.761292 27701 net.cpp:380] loss3/classifier_kaggle <- pool5/7x7_s1_kaggle
I1220 11:08:57.761299 27701 net.cpp:338] loss3/classifier_kaggle -> loss3/classifier_kaggle
I1220 11:08:57.761312 27701 net.cpp:113] Setting up loss3/classifier_kaggle
I1220 11:08:57.766708 27701 net.cpp:120] Top shape: 80 447 (35760)
I1220 11:08:57.766723 27701 layer_factory.hpp:74] Creating layer loss3/loss3
I1220 11:08:57.766733 27701 net.cpp:84] Creating Layer loss3/loss3
I1220 11:08:57.766739 27701 net.cpp:380] loss3/loss3 <- loss3/classifier_kaggle
I1220 11:08:57.766746 27701 net.cpp:380] loss3/loss3 <- label_data_1_split_2
I1220 11:08:57.766754 27701 net.cpp:338] loss3/loss3 -> loss3/loss3
I1220 11:08:57.766762 27701 net.cpp:113] Setting up loss3/loss3
…
I1220 11:08:57.772068 27701 net.cpp:257] The NetState phase (1) differed from the phase (0) specified by a rule in layer data
I1220 11:08:57.773560 27701 net.cpp:42] Initializing net from parameters: 
name: "MYNET"
state {
  phase: TEST
}
layer {
  name: "data"
  type: "ImageData"
  top: "data"
  top: "label"
  include {
    phase: TEST
  }
  transform_param {
    mirror: false
    crop_size: 224
    mean_value: 129
    mean_value: 129
    mean_value: 129
  }
  image_data_param {
    source: "/home/coldmanck/kaggle/label_val_full.txt"
    batch_size: 50
    shuffle: true
  }
}
layer {
  name: "conv1/7x7_s2"
  type: "Convolution"
  bottom: "data"
  top: "conv1/7x7_s2"
  param {
    lr_mult: 1
    decay_mult: 1
  }
  param {
    lr_mult: 2
    decay_mult: 0
  }
  convolution_param {
    num_output: 64
    pad: 3
    kernel_size: 7
    stride: 2
    weight_filler {
      type: "xavier"
    }
    bias_filler {
      type: "constant"
      value: 0.2
    }
  }
}
layer {
  name: "conv1/relu_7x7"
  type: "ReLU"
  bottom: "conv1/7x7_s2"
  top: "conv1/7x7_s2"
}
layer {
  name: "pool1/3x3_s2"
  type: "Pooling"
  bottom: "conv1/7x7_s2"
  top: "pool1/3x3_s2"
  pooling_param {
    pool: MAX
    kernel_size: 3
    stride: 2
  }
}
layer {
  name: "pool1/norm1"
  type: "LRN"
  bottom: "pool1/3x3_s2"
  top: "pool1/norm1"
  lrn_param {
    local_size: 5
    alpha: 0.0001
    beta: 0.75
  }
}
layer {
  name: "conv2/3x3_reduce"
  type: "Convolution"
  bottom: "pool1/norm1"
  top: "conv2/3x3_reduce"
  param {
    lr_mult: 1
    decay_mult: 1
  }
  param {
    lr_mult: 2
    decay_mult: 0
  }
  convolution_param {
    num_output: 64
    kernel_size: 1
    weight_filler {
      type: "xavier"
    }
    bias_filler {
      type: "constant"
      value: 0.2
    }
  }
}
layer {
  name: "conv2/relu_3x3_reduce"
  type: "ReLU"
  bottom: "conv2/3x3_reduce"
  top: "conv2/3x3_reduce"
}
layer {
  name: "conv2/3x3"
  type: "Convolution"
  bottom: "conv2/3x3_reduce"
  top: "conv2/3x3"
  param {
    lr_mult: 1
    decay_mult: 1
  }
  param {
    lr_mult: 2
    decay_mult: 0
  }
  convolution_param {
    num_output: 192
    pad: 1
    kernel_size: 3
    weight_filler {
      type: "xavier"
    }
    bias_filler {
      type: "constant"
      value: 0.2
    }
  }
}
layer {
  name: "conv2/relu_3x3"
  type: "ReLU"
  bottom: "conv2/3x3"
  top: "conv2/3x3"
}
layer {
  name: "conv2/norm2"
  type: "LRN"
  bottom: "conv2/3x3"
  top: "conv2/norm2"
  lrn_param {
    local_size: 5
    alpha: 0.0001
    beta: 0.75
  }
}
layer {
  name: "pool2/3x3_s2"
  type: "Pooling"
  bottom: "conv2/norm2"
  top: "pool2/3x3_s2"
  pooling_param {
    pool: MAX
    kernel_size: 3
    stride: 2
  }
}
layer {
  name: "inception_3a/1x1"
  type: "Convolution"
  bottom: "pool2/3x3_s2"
  top: "inception_3a/1x1"
  param {
    lr_mult: 1
    decay_mult: 1
  }
  param {
    lr_mult: 2
    decay_mult: 0
  }
  convolution_param {
    num_output: 64
    kernel_size: 1
    weight_filler {
      type: "xavier"
    }
    bias_filler {
      type: "constant"
      value: 0.2
    }
  }
}
layer {
  name: "inception_3a/relu_1x1"
  type: "ReLU"
  bottom: "inception_3a/1x1"
  top: "inception_3a/1x1"
}
layer {
  name: "inception_3a/3x3_reduce"
  type: "Convolution"
  bottom: "pool2/3x3_s2"
  top: "inception_3a/3x3_reduce"
  param {
    lr_mult: 1
    decay_mult: 1
  }
  param {
    lr_mult: 2
    decay_mult: 0
  }
  convolution_param {
    num_output: 96
    kernel_size: 1
    weight_filler {
      type: "xavier"
    }
    bias_filler {
      type: "constant"
      value: 0.2
    }
  }
}
layer {
  name: "inception_3a/relu_3x3_reduce"
  type: "ReLU"
  bottom: "inception_3a/3x3_reduce"
  top: "inception_3a/3x3_reduce"
}
layer {
  name: "inception_3a/3x3"
  type: "Convolution"
  bottom: "inception_3a/3x3_reduce"
  top: "inception_3a/3x3"
  param {
    lr_mult: 1
    decay_mult: 1
  }
  param {
    lr_mult: 2
    decay_mult: 0
  }
  convolution_param {
    num_output: 128
    pad: 1
    kernel_size: 3
    weight_filler {
      type: "xavier"
    }
    bias_filler {
      type: "constant"
      value: 0.2
    }
  }
}
layer {
  name: "inception_3a/relu_3x3"
  type: "ReLU"
  bottom: "inception_3a/3x3"
  top: "inception_3a/3x3"
}
layer {
  name: "inception_3a/5x5_reduce"
  type: "Convolution"
  bottom: "pool2/3x3_s2"
  top: "inception_3a/5x5_reduce"
  param {
    lr_mult: 1
    decay_mult: 1
  }
  param {
    lr_mult: 2
    decay_mult: 0
  }
  convolution_param {
    num_output: 16
    kernel_size: 1
    weight_filler {
      type: "xavier"
    }
    bias_filler {
      type: "constant"
      value: 0.2
    }
  }
}
layer {
  name: "inception_3a/relu_5x5_reduce"
  type: "ReLU"
  bottom: "inception_3a/5x5_reduce"
  top: "inception_3a/5x5_reduce"
}
layer {
  name: "inception_3a/5x5"
  type: "Convolution"
  bottom: "inception_3a/5x5_reduce"
  top: "inception_3a/5x5"
  param {
    lr_mult: 1
    decay_mult: 1
  }
  param {
    lr_mult: 2
    decay_mult: 0
  }
  convolution_param {
    num_output: 32
    pad: 2
    kernel_size: 5
    weight_filler {
      type: "xavier"
    }
    bias_filler {
      type: "constant"
      value: 0.2
    }
  }
}
layer {
  name: "inception_3a/relu_5x5"
  type: "ReLU"
  bottom: "inception_3a/5x5"
  top: "inception_3a/5x5"
}
layer {
  name: "inception_3a/pool"
  type: "Pooling"
  bottom: "pool2/3x3_s2"
  top: "inception_3a/pool"
  pooling_param {
    pool: MAX
    kernel_size: 3
    stride: 1
    pad: 1
  }
}
layer {
  name: "inception_3a/pool_proj"
  type: "Convolution"
  bottom: "inception_3a/pool"
  top: "inception_3a/pool_proj"
  param {
    lr_mult: 1
    decay_mult: 1
  }
  param {
    lr_mult: 2
    decay_mult: 0
  }
  convolution_param {
    num_output: 32
    kernel_size: 1
    weight_filler {
      type: "xavier"
    }
    bias_filler {
      type: "constant"
      value: 0.2
    }
  }
}
layer {
  name: "inception_3a/relu_pool_proj"
  type: "ReLU"
  bottom: "inception_3a/pool_proj"
  top: "inception_3a/pool_proj"
}
layer {
  name: "inception_3a/output"
  type: "Concat"
  bottom: "inception_3a/1x1"
  bottom: "inception_3a/3x3"
  bottom: "inception_3a/5x5"
  bottom: "inception_3a/pool_proj"
  top: "inception_3a/output"
}
layer {
  name: "inception_3b/1x1"
  type: "Convolution"
  bottom: "inception_3a/output"
  top: "inception_3b/1x1"
  param {
    lr_mult: 1
    decay_mult: 1
  }
  param {
    lr_mult: 2
    decay_mult: 0
  }
  convolution_param {
    num_output: 128
    kernel_size: 1
    weight_filler {
      type: "xavier"
    }
    bias_filler {
      type: "constant"
      value: 0.2
    }
  }
}
layer {
  name: "inception_3b/relu_1x1"
  type: "ReLU"
  bottom: "inception_3b/1x1"
  top: "inception_3b/1x1"
}
layer {
  name: "inception_3b/3x3_reduce"
  type: "Convolution"
  bottom: "inception_3a/output"
  top: "inception_3b/3x3_reduce"
  param {
    lr_mult: 1
    decay_mult: 1
  }
  param {
    lr_mult: 2
    decay_mult: 0
  }
  convolution_param {
    num_output: 128
    kernel_size: 1
    weight_filler {
      type: "xavier"
    }
    bias_filler {
      type: "constant"
      value: 0.2
    }
  }
}
layer {
  name: "inception_3b/relu_3x3_reduce"
  type: "ReLU"
  bottom: "inception_3b/3x3_reduce"
  top: "inception_3b/3x3_reduce"
}
layer {
  name: "inception_3b/3x3"
  type: "Convolution"
  bottom: "inception_3b/3x3_reduce"
  top: "inception_3b/3x3"
  param {
    lr_mult: 1
    decay_mult: 1
  }
  param {
    lr_mult: 2
    decay_mult: 0
  }
  convolution_param {
    num_output: 192
    pad: 1
    kernel_size: 3
    weight_filler {
      type: "xavier"
    }
    bias_filler {
      type: "constant"
      value: 0.2
    }
  }
}
layer {
  name: "inception_3b/relu_3x3"
  type: "ReLU"
  bottom: "inception_3b/3x3"
  top: "inception_3b/3x3"
}
layer {
  name: "inception_3b/5x5_reduce"
  type: "Convolution"
  bottom: "inception_3a/output"
  top: "inception_3b/5x5_reduce"
  param {
    lr_mult: 1
    decay_mult: 1
  }
  param {
    lr_mult: 2
    decay_mult: 0
  }
  convolution_param {
    num_output: 32
    kernel_size: 1
    weight_filler {
      type: "xavier"
    }
    bias_filler {
      type: "constant"
      value: 0.2
    }
  }
}
layer {
  name: "inception_3b/relu_5x5_reduce"
  type: "ReLU"
  bottom: "inception_3b/5x5_reduce"
  top: "inception_3b/5x5_reduce"
}
layer {
  name: "inception_3b/5x5"
  type: "Convolution"
  bottom: "inception_3b/5x5_reduce"
  top: "inception_3b/5x5"
  param {
    lr_mult: 1
    decay_mult: 1
  }
  param {
    lr_mult: 2
    decay_mult: 0
  }
  convolution_param {
    num_output: 96
    pad: 2
    kernel_size: 5
    weight_filler {
      type: "xavier"
    }
    bias_filler {
      type: "constant"
      value: 0.2
    }
  }
}
layer {
  name: "inception_3b/relu_5x5"
  type: "ReLU"
  bottom: "inception_3b/5x5"
  top: "inception_3b/5x5"
}
layer {
  name: "inception_3b/pool"
  type: "Pooling"
  bottom: "inception_3a/output"
  top: "inception_3b/pool"
  pooling_param {
    pool: MAX
    kernel_size: 3
    stride: 1
    pad: 1
  }
}
layer {
  name: "inception_3b/pool_proj"
  type: "Convolution"
  bottom: "inception_3b/pool"
  top: "inception_3b/pool_proj"
  param {
    lr_mult: 1
    decay_mult: 1
  }
  param {
    lr_mult: 2
    decay_mult: 0
  }
  convolution_param {
    num_output: 64
    kernel_size: 1
    weight_filler {
      type: "xavier"
    }
    bias_filler {
      type: "constant"
      value: 0.2
    }
  }
}
layer {
  name: "inception_3b/relu_pool_proj"
  type: "ReLU"
  bottom: "inception_3b/pool_proj"
  top: "inception_3b/pool_proj"
}
layer {
  name: "inception_3b/output"
  type: "Concat"
  bottom: "inception_3b/1x1"
  bottom: "inception_3b/3x3"
  bottom: "inception_3b/5x5"
  bottom: "inception_3b/pool_proj"
  top: "inception_3b/output"
}
layer {
  name: "pool3/3x3_s2"
  type: "Pooling"
  bottom: "inception_3b/output"
  top: "pool3/3x3_s2"
  pooling_param {
    pool: MAX
    kernel_size: 3
    stride: 2
  }
}
layer {
  name: "inception_4a/1x1"
  type: "Convolution"
  bottom: "pool3/3x3_s2"
  top: "inception_4a/1x1"
  param {
    lr_mult: 1
    decay_mult: 1
  }
  param {
    lr_mult: 2
    decay_mult: 0
  }
  convolution_param {
    num_output: 192
    kernel_size: 1
    weight_filler {
      type: "xavier"
    }
    bias_filler {
      type: "constant"
      value: 0.2
    }
  }
}
layer {
  name: "inception_4a/relu_1x1"
  type: "ReLU"
  bottom: "inception_4a/1x1"
  top: "inception_4a/1x1"
}
layer {
  name: "inception_4a/3x3_reduce"
  type: "Convolution"
  bottom: "pool3/3x3_s2"
  top: "inception_4a/3x3_reduce"
  param {
    lr_mult: 1
    decay_mult: 1
  }
  param {
    lr_mult: 2
    decay_mult: 0
  }
  convolution_param {
    num_output: 96
    kernel_size: 1
    weight_filler {
      type: "xavier"
    }
    bias_filler {
      type: "constant"
      value: 0.2
    }
  }
}
layer {
  name: "inception_4a/relu_3x3_reduce"
  type: "ReLU"
  bottom: "inception_4a/3x3_reduce"
  top: "inception_4a/3x3_reduce"
}
layer {
  name: "inception_4a/3x3"
  type: "Convolution"
  bottom: "inception_4a/3x3_reduce"
  top: "inception_4a/3x3"
  param {
    lr_mult: 1
    decay_mult: 1
  }
  param {
    lr_mult: 2
    decay_mult: 0
  }
  convolution_param {
    num_output: 208
    pad: 1
    kernel_size: 3
    weight_filler {
      type: "xavier"
    }
    bias_filler {
      type: "constant"
      value: 0.2
    }
  }
}
layer {
  name: "inception_4a/relu_3x3"
  type: "ReLU"
  bottom: "inception_4a/3x3"
  top: "inception_4a/3x3"
}
layer {
  name: "inception_4a/5x5_reduce"
  type: "Convolution"
  bottom: "pool3/3x3_s2"
  top: "inception_4a/5x5_reduce"
  param {
    lr_mult: 1
    decay_mult: 1
  }
  param {
    lr_mult: 2
    decay_mult: 0
  }
  convolution_param {
    num_output: 16
    kernel_size: 1
    weight_filler {
      type: "xavier"
    }
    bias_filler {
      type: "constant"
      value: 0.2
    }
  }
}
layer {
  name: "inception_4a/relu_5x5_reduce"
  type: "ReLU"
  bottom: "inception_4a/5x5_reduce"
  top: "inception_4a/5x5_reduce"
}
layer {
  name: "inception_4a/5x5"
  type: "Convolution"
  bottom: "inception_4a/5x5_reduce"
  top: "inception_4a/5x5"
  param {
    lr_mult: 1
    decay_mult: 1
  }
  param {
    lr_mult: 2
    decay_mult: 0
  }
  convolution_param {
    num_output: 48
    pad: 2
    kernel_size: 5
    weight_filler {
      type: "xavier"
    }
    bias_filler {
      type: "constant"
      value: 0.2
    }
  }
}
layer {
  name: "inception_4a/relu_5x5"
  type: "ReLU"
  bottom: "inception_4a/5x5"
  top: "inception_4a/5x5"
}
layer {
  name: "inception_4a/pool"
  type: "Pooling"
  bottom: "pool3/3x3_s2"
  top: "inception_4a/pool"
  pooling_param {
    pool: MAX
    kernel_size: 3
    stride: 1
    pad: 1
  }
}
layer {
  name: "inception_4a/pool_proj"
  type: "Convolution"
  bottom: "inception_4a/pool"
  top: "inception_4a/pool_proj"
  param {
    lr_mult: 1
    decay_mult: 1
  }
  param {
    lr_mult: 2
    decay_mult: 0
  }
  convolution_param {
    num_output: 64
    kernel_size: 1
    weight_filler {
      type: "xavier"
    }
    bias_filler {
      type: "constant"
      value: 0.2
    }
  }
}
layer {
  name: "inception_4a/relu_pool_proj"
  type: "ReLU"
  bottom: "inception_4a/pool_proj"
  top: "inception_4a/pool_proj"
}
layer {
  name: "inception_4a/output"
  type: "Concat"
  bottom: "inception_4a/1x1"
  bottom: "inception_4a/3x3"
  bottom: "inception_4a/5x5"
  bottom: "inception_4a/pool_proj"
  top: "inception_4a/output"
}
layer {
  name: "loss1/ave_pool"
  type: "Pooling"
  bottom: "inception_4a/output"
  top: "loss1/ave_pool"
  pooling_param {
    pool: AVE
    kernel_size: 5
    stride: 3
  }
}
layer {
  name: "loss1/conv"
  type: "Convolution"
  bottom: "loss1/ave_pool"
  top: "loss1/conv"
  param {
    lr_mult: 1
    decay_mult: 1
  }
  param {
    lr_mult: 2
    decay_mult: 0
  }
  convolution_param {
    num_output: 128
    kernel_size: 1
    weight_filler {
      type: "xavier"
    }
    bias_filler {
      type: "constant"
      value: 0.2
    }
  }
}
layer {
  name: "loss1/relu_conv"
  type: "ReLU"
  bottom: "loss1/conv"
  top: "loss1/conv"
}
layer {
  name: "loss1/fc_kaggle"
  type: "InnerProduct"
  bottom: "loss1/conv"
  top: "loss1/fc_kaggle"
  param {
    lr_mult: 1
    decay_mult: 1
  }
  param {
    lr_mult: 2
    decay_mult: 0
  }
  inner_product_param {
    num_output: 1024
    weight_filler {
      type: "xavier"
    }
    bias_filler {
      type: "constant"
      value: 0.2
    }
  }
}
layer {
  name: "loss1/relu_fc_kaggle"
  type: "ReLU"
  bottom: "loss1/fc_kaggle"
  top: "loss1/fc_kaggle"
}
layer {
  name: "loss1/drop_fc_kaggle"
  type: "Dropout"
  bottom: "loss1/fc_kaggle"
  top: "loss1/fc_kaggle"
  dropout_param {
    dropout_ratio: 0.7
  }
}
layer {
  name: "loss1/classifier_kaggle"
  type: "InnerProduct"
  bottom: "loss1/fc_kaggle"
  top: "loss1/classifier_kaggle"
  param {
    lr_mult: 1
    decay_mult: 1
  }
  param {
    lr_mult: 2
    decay_mult: 0
  }
  inner_product_param {
    num_output: 447
    weight_filler {
      type: "xavier"
    }
    bias_filler {
      type: "constant"
      value: 0
    }
  }
}
layer {
  name: "loss1/loss"
  type: "SoftmaxWithLoss"
  bottom: "loss1/classifier_kaggle"
  bottom: "label"
  top: "loss1/loss1"
  loss_weight: 0.3
}
layer {
  name: "loss1/top-1"
  type: "Accuracy"
  bottom: "loss1/classifier_kaggle"
  bottom: "label"
  top: "loss1/top-1"
  include {
    phase: TEST
  }
}
layer {
  name: "loss1/top-5"
  type: "Accuracy"
  bottom: "loss1/classifier_kaggle"
  bottom: "label"
  top: "loss1/top-5"
  include {
    phase: TEST
  }
  accuracy_param {
    top_k: 5
  }
}
layer {
  name: "inception_4b/1x1"
  type: "Convolution"
  bottom: "inception_4a/output"
  top: "inception_4b/1x1"
  param {
    lr_mult: 1
    decay_mult: 1
  }
  param {
    lr_mult: 2
    decay_mult: 0
  }
  convolution_param {
    num_output: 160
    kernel_size: 1
    weight_filler {
      type: "xavier"
    }
    bias_filler {
      type: "constant"
      value: 0.2
    }
  }
}
layer {
  name: "inception_4b/relu_1x1"
  type: "ReLU"
  bottom: "inception_4b/1x1"
  top: "inception_4b/1x1"
}
layer {
  name: "inception_4b/3x3_reduce"
  type: "Convolution"
  bottom: "inception_4a/output"
  top: "inception_4b/3x3_reduce"
  param {
    lr_mult: 1
    decay_mult: 1
  }
  param {
    lr_mult: 2
    decay_mult: 0
  }
  convolution_param {
    num_output: 112
    kernel_size: 1
    weight_filler {
      type: "xavier"
    }
    bias_filler {
      type: "constant"
      value: 0.2
    }
  }
}
layer {
  name: "inception_4b/relu_3x3_reduce"
  type: "ReLU"
  bottom: "inception_4b/3x3_reduce"
  top: "inception_4b/3x3_reduce"
}
layer {
  name: "inception_4b/3x3"
  type: "Convolution"
  bottom: "inception_4b/3x3_reduce"
  top: "inception_4b/3x3"
  param {
    lr_mult: 1
    decay_mult: 1
  }
  param {
    lr_mult: 2
    decay_mult: 0
  }
  convolution_param {
    num_output: 224
    pad: 1
    kernel_size: 3
    weight_filler {
      type: "xavier"
    }
    bias_filler {
      type: "constant"
      value: 0.2
    }
  }
}
layer {
  name: "inception_4b/relu_3x3"
  type: "ReLU"
  bottom: "inception_4b/3x3"
  top: "inception_4b/3x3"
}
layer {
  name: "inception_4b/5x5_reduce"
  type: "Convolution"
  bottom: "inception_4a/output"
  top: "inception_4b/5x5_reduce"
  param {
    lr_mult: 1
    decay_mult: 1
  }
  param {
    lr_mult: 2
    decay_mult: 0
  }
  convolution_param {
    num_output: 24
    kernel_size: 1
    weight_filler {
      type: "xavier"
    }
    bias_filler {
      type: "constant"
      value: 0.2
    }
  }
}
layer {
  name: "inception_4b/relu_5x5_reduce"
  type: "ReLU"
  bottom: "inception_4b/5x5_reduce"
  top: "inception_4b/5x5_reduce"
}
layer {
  name: "inception_4b/5x5"
  type: "Convolution"
  bottom: "inception_4b/5x5_reduce"
  top: "inception_4b/5x5"
  param {
    lr_mult: 1
    decay_mult: 1
  }
  param {
    lr_mult: 2
    decay_mult: 0
  }
  convolution_param {
    num_output: 64
    pad: 2
    kernel_size: 5
    weight_filler {
      type: "xavier"
    }
    bias_filler {
      type: "constant"
      value: 0.2
    }
  }
}
layer {
  name: "inception_4b/relu_5x5"
  type: "ReLU"
  bottom: "inception_4b/5x5"
  top: "inception_4b/5x5"
}
layer {
  name: "inception_4b/pool"
  type: "Pooling"
  bottom: "inception_4a/output"
  top: "inception_4b/pool"
  pooling_param {
    pool: MAX
    kernel_size: 3
    stride: 1
    pad: 1
  }
}
layer {
  name: "inception_4b/pool_proj"
  type: "Convolution"
  bottom: "inception_4b/pool"
  top: "inception_4b/pool_proj"
  param {
    lr_mult: 1
    decay_mult: 1
  }
  param {
    lr_mult: 2
    decay_mult: 0
  }
  convolution_param {
    num_output: 64
    kernel_size: 1
    weight_filler {
      type: "xavier"
    }
    bias_filler {
      type: "constant"
      value: 0.2
    }
  }
}
layer {
  name: "inception_4b/relu_pool_proj"
  type: "ReLU"
  bottom: "inception_4b/pool_proj"
  top: "inception_4b/pool_proj"
}
layer {
  name: "inception_4b/output"
  type: "Concat"
  bottom: "inception_4b/1x1"
  bottom: "inception_4b/3x3"
  bottom: "inception_4b/5x5"
  bottom: "inception_4b/pool_proj"
  top: "inception_4b/output"
}
layer {
  name: "inception_4c/1x1"
  type: "Convolution"
  bottom: "inception_4b/output"
  top: "inception_4c/1x1"
  param {
    lr_mult: 1
    decay_mult: 1
  }
  param {
    lr_mult: 2
    decay_mult: 0
  }
  convolution_param {
    num_output: 128
    kernel_size: 1
    weight_filler {
      type: "xavier"
    }
    bias_filler {
      type: "constant"
      value: 0.2
    }
  }
}
layer {
  name: "inception_4c/relu_1x1"
  type: "ReLU"
  bottom: "inception_4c/1x1"
  top: "inception_4c/1x1"
}
layer {
  name: "inception_4c/3x3_reduce"
  type: "Convolution"
  bottom: "inception_4b/output"
  top: "inception_4c/3x3_reduce"
  param {
    lr_mult: 1
    decay_mult: 1
  }
  param {
    lr_mult: 2
    decay_mult: 0
  }
  convolution_param {
    num_output: 128
    kernel_size: 1
    weight_filler {
      type: "xavier"
    }
    bias_filler {
      type: "constant"
      value: 0.2
    }
  }
}
layer {
  name: "inception_4c/relu_3x3_reduce"
  type: "ReLU"
  bottom: "inception_4c/3x3_reduce"
  top: "inception_4c/3x3_reduce"
}
layer {
  name: "inception_4c/3x3"
  type: "Convolution"
  bottom: "inception_4c/3x3_reduce"
  top: "inception_4c/3x3"
  param {
    lr_mult: 1
    decay_mult: 1
  }
  param {
    lr_mult: 2
    decay_mult: 0
  }
  convolution_param {
    num_output: 256
    pad: 1
    kernel_size: 3
    weight_filler {
      type: "xavier"
    }
    bias_filler {
      type: "constant"
      value: 0.2
    }
  }
}
layer {
  name: "inception_4c/relu_3x3"
  type: "ReLU"
  bottom: "inception_4c/3x3"
  top: "inception_4c/3x3"
}
layer {
  name: "inception_4c/5x5_reduce"
  type: "Convolution"
  bottom: "inception_4b/output"
  top: "inception_4c/5x5_reduce"
  param {
    lr_mult: 1
    decay_mult: 1
  }
  param {
    lr_mult: 2
    decay_mult: 0
  }
  convolution_param {
    num_output: 24
    kernel_size: 1
    weight_filler {
      type: "xavier"
    }
    bias_filler {
      type: "constant"
      value: 0.2
    }
  }
}
layer {
  name: "inception_4c/relu_5x5_reduce"
  type: "ReLU"
  bottom: "inception_4c/5x5_reduce"
  top: "inception_4c/5x5_reduce"
}
layer {
  name: "inception_4c/5x5"
  type: "Convolution"
  bottom: "inception_4c/5x5_reduce"
  top: "inception_4c/5x5"
  param {
    lr_mult: 1
    decay_mult: 1
  }
  param {
    lr_mult: 2
    decay_mult: 0
  }
  convolution_param {
    num_output: 64
    pad: 2
    kernel_size: 5
    weight_filler {
      type: "xavier"
    }
    bias_filler {
      type: "constant"
      value: 0.2
    }
  }
}
layer {
  name: "inception_4c/relu_5x5"
  type: "ReLU"
  bottom: "inception_4c/5x5"
  top: "inception_4c/5x5"
}
layer {
  name: "inception_4c/pool"
  type: "Pooling"
  bottom: "inception_4b/output"
  top: "inception_4c/pool"
  pooling_param {
    pool: MAX
    kernel_size: 3
    stride: 1
    pad: 1
  }
}
layer {
  name: "inception_4c/pool_proj"
  type: "Convolution"
  bottom: "inception_4c/pool"
  top: "inception_4c/pool_proj"
  param {
    lr_mult: 1
    decay_mult: 1
  }
  param {
    lr_mult: 2
    decay_mult: 0
  }
  convolution_param {
    num_output: 64
    kernel_size: 1
    weight_filler {
      type: "xavier"
    }
    bias_filler {
      type: "constant"
      value: 0.2
    }
  }
}
layer {
  name: "inception_4c/relu_pool_proj"
  type: "ReLU"
  bottom: "inception_4c/pool_proj"
  top: "inception_4c/pool_proj"
}
layer {
  name: "inception_4c/output"
  type: "Concat"
  bottom: "inception_4c/1x1"
  bottom: "inception_4c/3x3"
  bottom: "inception_4c/5x5"
  bottom: "inception_4c/pool_proj"
  top: "inception_4c/output"
}
layer {
  name: "inception_4d/1x1"
  type: "Convolution"
  bottom: "inception_4c/output"
  top: "inception_4d/1x1"
  param {
    lr_mult: 1
    decay_mult: 1
  }
  param {
    lr_mult: 2
    decay_mult: 0
  }
  convolution_param {
    num_output: 112
    kernel_size: 1
    weight_filler {
      type: "xavier"
    }
    bias_filler {
      type: "constant"
      value: 0.2
    }
  }
}
layer {
  name: "inception_4d/relu_1x1"
  type: "ReLU"
  bottom: "inception_4d/1x1"
  top: "inception_4d/1x1"
}
layer {
  name: "inception_4d/3x3_reduce"
  type: "Convolution"
  bottom: "inception_4c/output"
  top: "inception_4d/3x3_reduce"
  param {
    lr_mult: 1
    decay_mult: 1
  }
  param {
    lr_mult: 2
    decay_mult: 0
  }
  convolution_param {
    num_output: 144
    kernel_size: 1
    weight_filler {
      type: "xavier"
    }
    bias_filler {
      type: "constant"
      value: 0.2
    }
  }
}
layer {
  name: "inception_4d/relu_3x3_reduce"
  type: "ReLU"
  bottom: "inception_4d/3x3_reduce"
  top: "inception_4d/3x3_reduce"
}
layer {
  name: "inception_4d/3x3"
  type: "Convolution"
  bottom: "inception_4d/3x3_reduce"
  top: "inception_4d/3x3"
  param {
    lr_mult: 1
    decay_mult: 1
  }
  param {
    lr_mult: 2
    decay_mult: 0
  }
  convolution_param {
    num_output: 288
    pad: 1
    kernel_size: 3
    weight_filler {
      type: "xavier"
    }
    bias_filler {
      type: "constant"
      value: 0.2
    }
  }
}
layer {
  name: "inception_4d/relu_3x3"
  type: "ReLU"
  bottom: "inception_4d/3x3"
  top: "inception_4d/3x3"
}
layer {
  name: "inception_4d/5x5_reduce"
  type: "Convolution"
  bottom: "inception_4c/output"
  top: "inception_4d/5x5_reduce"
  param {
    lr_mult: 1
    decay_mult: 1
  }
  param {
    lr_mult: 2
    decay_mult: 0
  }
  convolution_param {
    num_output: 32
    kernel_size: 1
    weight_filler {
      type: "xavier"
    }
    bias_filler {
      type: "constant"
      value: 0.2
    }
  }
}
layer {
  name: "inception_4d/relu_5x5_reduce"
  type: "ReLU"
  bottom: "inception_4d/5x5_reduce"
  top: "inception_4d/5x5_reduce"
}
layer {
  name: "inception_4d/5x5"
  type: "Convolution"
  bottom: "inception_4d/5x5_reduce"
  top: "inception_4d/5x5"
  param {
    lr_mult: 1
    decay_mult: 1
  }
  param {
    lr_mult: 2
    decay_mult: 0
  }
  convolution_param {
    num_output: 64
    pad: 2
    kernel_size: 5
    weight_filler {
      type: "xavier"
    }
    bias_filler {
      type: "constant"
      value: 0.2
    }
  }
}
layer {
  name: "inception_4d/relu_5x5"
  type: "ReLU"
  bottom: "inception_4d/5x5"
  top: "inception_4d/5x5"
}
layer {
  name: "inception_4d/pool"
  type: "Pooling"
  bottom: "inception_4c/output"
  top: "inception_4d/pool"
  pooling_param {
    pool: MAX
    kernel_size: 3
    stride: 1
    pad: 1
  }
}
layer {
  name: "inception_4d/pool_proj"
  type: "Convolution"
  bottom: "inception_4d/pool"
  top: "inception_4d/pool_proj"
  param {
    lr_mult: 1
    decay_mult: 1
  }
  param {
    lr_mult: 2
    decay_mult: 0
  }
  convolution_param {
    num_output: 64
    kernel_size: 1
    weight_filler {
      type: "xavier"
    }
    bias_filler {
      type: "constant"
      value: 0.2
    }
  }
}
layer {
  name: "inception_4d/relu_pool_proj"
  type: "ReLU"
  bottom: "inception_4d/pool_proj"
…
I1220 11:09:01.239253 27701 net.cpp:338] inception_4c/1x1 -> inception_4c/1x1
I1220 11:09:01.239267 27701 net.cpp:113] Setting up inception_4c/1x1
I1220 11:09:01.240486 27701 net.cpp:120] Top shape: 50 128 14 14 (1254400)
I1220 11:09:01.240502 27701 layer_factory.hpp:74] Creating layer inception_4c/relu_1x1
I1220 11:09:01.240511 27701 net.cpp:84] Creating Layer inception_4c/relu_1x1
I1220 11:09:01.240516 27701 net.cpp:380] inception_4c/relu_1x1 <- inception_4c/1x1
I1220 11:09:01.240523 27701 net.cpp:327] inception_4c/relu_1x1 -> inception_4c/1x1 (in-place)
I1220 11:09:01.240531 27701 net.cpp:113] Setting up inception_4c/relu_1x1
I1220 11:09:01.240800 27701 net.cpp:120] Top shape: 50 128 14 14 (1254400)
I1220 11:09:01.240813 27701 layer_factory.hpp:74] Creating layer inception_4c/3x3_reduce
I1220 11:09:01.240823 27701 net.cpp:84] Creating Layer inception_4c/3x3_reduce
I1220 11:09:01.240828 27701 net.cpp:380] inception_4c/3x3_reduce <- inception_4b/output_inception_4b/output_0_split_1
I1220 11:09:01.240836 27701 net.cpp:338] inception_4c/3x3_reduce -> inception_4c/3x3_reduce
I1220 11:09:01.240845 27701 net.cpp:113] Setting up inception_4c/3x3_reduce
I1220 11:09:01.242069 27701 net.cpp:120] Top shape: 50 128 14 14 (1254400)
I1220 11:09:01.242085 27701 layer_factory.hpp:74] Creating layer inception_4c/relu_3x3_reduce
I1220 11:09:01.242094 27701 net.cpp:84] Creating Layer inception_4c/relu_3x3_reduce
I1220 11:09:01.242099 27701 net.cpp:380] inception_4c/relu_3x3_reduce <- inception_4c/3x3_reduce
I1220 11:09:01.242108 27701 net.cpp:327] inception_4c/relu_3x3_reduce -> inception_4c/3x3_reduce (in-place)
I1220 11:09:01.242116 27701 net.cpp:113] Setting up inception_4c/relu_3x3_reduce
I1220 11:09:01.242192 27701 net.cpp:120] Top shape: 50 128 14 14 (1254400)
I1220 11:09:01.242198 27701 layer_factory.hpp:74] Creating layer inception_4c/3x3
I1220 11:09:01.242207 27701 net.cpp:84] Creating Layer inception_4c/3x3
I1220 11:09:01.242211 27701 net.cpp:380] inception_4c/3x3 <- inception_4c/3x3_reduce
I1220 11:09:01.242220 27701 net.cpp:338] inception_4c/3x3 -> inception_4c/3x3
I1220 11:09:01.242228 27701 net.cpp:113] Setting up inception_4c/3x3
I1220 11:09:01.246136 27701 net.cpp:120] Top shape: 50 256 14 14 (2508800)
I1220 11:09:01.246166 27701 layer_factory.hpp:74] Creating layer inception_4c/relu_3x3
I1220 11:09:01.246176 27701 net.cpp:84] Creating Layer inception_4c/relu_3x3
I1220 11:09:01.246181 27701 net.cpp:380] inception_4c/relu_3x3 <- inception_4c/3x3
I1220 11:09:01.246187 27701 net.cpp:327] inception_4c/relu_3x3 -> inception_4c/3x3 (in-place)
I1220 11:09:01.246196 27701 net.cpp:113] Setting up inception_4c/relu_3x3
I1220 11:09:01.246269 27701 net.cpp:120] Top shape: 50 256 14 14 (2508800)
I1220 11:09:01.246276 27701 layer_factory.hpp:74] Creating layer inception_4c/5x5_reduce
I1220 11:09:01.246285 27701 net.cpp:84] Creating Layer inception_4c/5x5_reduce
I1220 11:09:01.246291 27701 net.cpp:380] inception_4c/5x5_reduce <- inception_4b/output_inception_4b/output_0_split_2
I1220 11:09:01.246299 27701 net.cpp:338] inception_4c/5x5_reduce -> inception_4c/5x5_reduce
I1220 11:09:01.246306 27701 net.cpp:113] Setting up inception_4c/5x5_reduce
I1220 11:09:01.246896 27701 net.cpp:120] Top shape: 50 24 14 14 (235200)
I1220 11:09:01.246912 27701 layer_factory.hpp:74] Creating layer inception_4c/relu_5x5_reduce
I1220 11:09:01.246919 27701 net.cpp:84] Creating Layer inception_4c/relu_5x5_reduce
I1220 11:09:01.246924 27701 net.cpp:380] inception_4c/relu_5x5_reduce <- inception_4c/5x5_reduce
I1220 11:09:01.246933 27701 net.cpp:327] inception_4c/relu_5x5_reduce -> inception_4c/5x5_reduce (in-place)
I1220 11:09:01.246942 27701 net.cpp:113] Setting up inception_4c/relu_5x5_reduce
I1220 11:09:01.247210 27701 net.cpp:120] Top shape: 50 24 14 14 (235200)
I1220 11:09:01.247221 27701 layer_factory.hpp:74] Creating layer inception_4c/5x5
I1220 11:09:01.247230 27701 net.cpp:84] Creating Layer inception_4c/5x5
I1220 11:09:01.247236 27701 net.cpp:380] inception_4c/5x5 <- inception_4c/5x5_reduce
I1220 11:09:01.247244 27701 net.cpp:338] inception_4c/5x5 -> inception_4c/5x5
I1220 11:09:01.247259 27701 net.cpp:113] Setting up inception_4c/5x5
I1220 11:09:01.248170 27701 net.cpp:120] Top shape: 50 64 14 14 (627200)
I1220 11:09:01.248185 27701 layer_factory.hpp:74] Creating layer inception_4c/relu_5x5
I1220 11:09:01.248195 27701 net.cpp:84] Creating Layer inception_4c/relu_5x5
I1220 11:09:01.248201 27701 net.cpp:380] inception_4c/relu_5x5 <- inception_4c/5x5
I1220 11:09:01.248208 27701 net.cpp:327] inception_4c/relu_5x5 -> inception_4c/5x5 (in-place)
I1220 11:09:01.248215 27701 net.cpp:113] Setting up inception_4c/relu_5x5
I1220 11:09:01.248291 27701 net.cpp:120] Top shape: 50 64 14 14 (627200)
I1220 11:09:01.248297 27701 layer_factory.hpp:74] Creating layer inception_4c/pool
I1220 11:09:01.248303 27701 layer_factory.cpp:56] CUDNN does not support padding or multiple tops. Using Caffe's own pooling layer.
I1220 11:09:01.248309 27701 net.cpp:84] Creating Layer inception_4c/pool
I1220 11:09:01.248314 27701 net.cpp:380] inception_4c/pool <- inception_4b/output_inception_4b/output_0_split_3
I1220 11:09:01.248323 27701 net.cpp:338] inception_4c/pool -> inception_4c/pool
I1220 11:09:01.248332 27701 net.cpp:113] Setting up inception_4c/pool
I1220 11:09:01.248339 27701 net.cpp:120] Top shape: 50 512 14 14 (5017600)
I1220 11:09:01.248344 27701 layer_factory.hpp:74] Creating layer inception_4c/pool_proj
I1220 11:09:01.248354 27701 net.cpp:84] Creating Layer inception_4c/pool_proj
I1220 11:09:01.248359 27701 net.cpp:380] inception_4c/pool_proj <- inception_4c/pool
I1220 11:09:01.248366 27701 net.cpp:338] inception_4c/pool_proj -> inception_4c/pool_proj
I1220 11:09:01.248374 27701 net.cpp:113] Setting up inception_4c/pool_proj
I1220 11:09:01.249212 27701 net.cpp:120] Top shape: 50 64 14 14 (627200)
I1220 11:09:01.249230 27701 layer_factory.hpp:74] Creating layer inception_4c/relu_pool_proj
I1220 11:09:01.249238 27701 net.cpp:84] Creating Layer inception_4c/relu_pool_proj
I1220 11:09:01.249243 27701 net.cpp:380] inception_4c/relu_pool_proj <- inception_4c/pool_proj
I1220 11:09:01.249253 27701 net.cpp:327] inception_4c/relu_pool_proj -> inception_4c/pool_proj (in-place)
I1220 11:09:01.249260 27701 net.cpp:113] Setting up inception_4c/relu_pool_proj
I1220 11:09:01.249331 27701 net.cpp:120] Top shape: 50 64 14 14 (627200)
I1220 11:09:01.249341 27701 layer_factory.hpp:74] Creating layer inception_4c/output
I1220 11:09:01.249347 27701 net.cpp:84] Creating Layer inception_4c/output
I1220 11:09:01.249352 27701 net.cpp:380] inception_4c/output <- inception_4c/1x1
I1220 11:09:01.249358 27701 net.cpp:380] inception_4c/output <- inception_4c/3x3
I1220 11:09:01.249364 27701 net.cpp:380] inception_4c/output <- inception_4c/5x5
I1220 11:09:01.249369 27701 net.cpp:380] inception_4c/output <- inception_4c/pool_proj
I1220 11:09:01.249377 27701 net.cpp:338] inception_4c/output -> inception_4c/output
I1220 11:09:01.249384 27701 net.cpp:113] Setting up inception_4c/output
I1220 11:09:01.249392 27701 net.cpp:120] Top shape: 50 512 14 14 (5017600)
I1220 11:09:01.249397 27701 layer_factory.hpp:74] Creating layer inception_4c/output_inception_4c/output_0_split
I1220 11:09:01.249403 27701 net.cpp:84] Creating Layer inception_4c/output_inception_4c/output_0_split
I1220 11:09:01.249408 27701 net.cpp:380] inception_4c/output_inception_4c/output_0_split <- inception_4c/output
I1220 11:09:01.249415 27701 net.cpp:338] inception_4c/output_inception_4c/output_0_split -> inception_4c/output_inception_4c/output_0_split_0
I1220 11:09:01.249424 27701 net.cpp:338] inception_4c/output_inception_4c/output_0_split -> inception_4c/output_inception_4c/output_0_split_1
I1220 11:09:01.249431 27701 net.cpp:338] inception_4c/output_inception_4c/output_0_split -> inception_4c/output_inception_4c/output_0_split_2
I1220 11:09:01.249439 27701 net.cpp:338] inception_4c/output_inception_4c/output_0_split -> inception_4c/output_inception_4c/output_0_split_3
I1220 11:09:01.249444 27701 net.cpp:113] Setting up inception_4c/output_inception_4c/output_0_split
I1220 11:09:01.249454 27701 net.cpp:120] Top shape: 50 512 14 14 (5017600)
I1220 11:09:01.249464 27701 net.cpp:120] Top shape: 50 512 14 14 (5017600)
I1220 11:09:01.249482 27701 net.cpp:120] Top shape: 50 512 14 14 (5017600)
I1220 11:09:01.249487 27701 net.cpp:120] Top shape: 50 512 14 14 (5017600)
I1220 11:09:01.249492 27701 layer_factory.hpp:74] Creating layer inception_4d/1x1
I1220 11:09:01.249501 27701 net.cpp:84] Creating Layer inception_4d/1x1
I1220 11:09:01.249506 27701 net.cpp:380] inception_4d/1x1 <- inception_4c/output_inception_4c/output_0_split_0
I1220 11:09:01.249513 27701 net.cpp:338] inception_4d/1x1 -> inception_4d/1x1
I1220 11:09:01.249521 27701 net.cpp:113] Setting up inception_4d/1x1
I1220 11:09:01.250643 27701 net.cpp:120] Top shape: 50 112 14 14 (1097600)
I1220 11:09:01.250658 27701 layer_factory.hpp:74] Creating layer inception_4d/relu_1x1
I1220 11:09:01.250665 27701 net.cpp:84] Creating Layer inception_4d/relu_1x1
I1220 11:09:01.250671 27701 net.cpp:380] inception_4d/relu_1x1 <- inception_4d/1x1
I1220 11:09:01.250681 27701 net.cpp:327] inception_4d/relu_1x1 -> inception_4d/1x1 (in-place)
I1220 11:09:01.250689 27701 net.cpp:113] Setting up inception_4d/relu_1x1
I1220 11:09:01.250759 27701 net.cpp:120] Top shape: 50 112 14 14 (1097600)
I1220 11:09:01.250768 27701 layer_factory.hpp:74] Creating layer inception_4d/3x3_reduce
I1220 11:09:01.250778 27701 net.cpp:84] Creating Layer inception_4d/3x3_reduce
I1220 11:09:01.250783 27701 net.cpp:380] inception_4d/3x3_reduce <- inception_4c/output_inception_4c/output_0_split_1
I1220 11:09:01.250792 27701 net.cpp:338] inception_4d/3x3_reduce -> inception_4d/3x3_reduce
I1220 11:09:01.250799 27701 net.cpp:113] Setting up inception_4d/3x3_reduce
I1220 11:09:01.252115 27701 net.cpp:120] Top shape: 50 144 14 14 (1411200)
I1220 11:09:01.252131 27701 layer_factory.hpp:74] Creating layer inception_4d/relu_3x3_reduce
I1220 11:09:01.252138 27701 net.cpp:84] Creating Layer inception_4d/relu_3x3_reduce
I1220 11:09:01.252145 27701 net.cpp:380] inception_4d/relu_3x3_reduce <- inception_4d/3x3_reduce
I1220 11:09:01.252153 27701 net.cpp:327] inception_4d/relu_3x3_reduce -> inception_4d/3x3_reduce (in-place)
I1220 11:09:01.252161 27701 net.cpp:113] Setting up inception_4d/relu_3x3_reduce
I1220 11:09:01.252437 27701 net.cpp:120] Top shape: 50 144 14 14 (1411200)
I1220 11:09:01.252449 27701 layer_factory.hpp:74] Creating layer inception_4d/3x3
I1220 11:09:01.252459 27701 net.cpp:84] Creating Layer inception_4d/3x3
I1220 11:09:01.252465 27701 net.cpp:380] inception_4d/3x3 <- inception_4d/3x3_reduce
I1220 11:09:01.252471 27701 net.cpp:338] inception_4d/3x3 -> inception_4d/3x3
I1220 11:09:01.252480 27701 net.cpp:113] Setting up inception_4d/3x3
I1220 11:09:01.257376 27701 net.cpp:120] Top shape: 50 288 14 14 (2822400)
I1220 11:09:01.257392 27701 layer_factory.hpp:74] Creating layer inception_4d/relu_3x3
I1220 11:09:01.257402 27701 net.cpp:84] Creating Layer inception_4d/relu_3x3
I1220 11:09:01.257408 27701 net.cpp:380] inception_4d/relu_3x3 <- inception_4d/3x3
I1220 11:09:01.257417 27701 net.cpp:327] inception_4d/relu_3x3 -> inception_4d/3x3 (in-place)
I1220 11:09:01.257426 27701 net.cpp:113] Setting up inception_4d/relu_3x3
I1220 11:09:01.257504 27701 net.cpp:120] Top shape: 50 288 14 14 (2822400)
I1220 11:09:01.257511 27701 layer_factory.hpp:74] Creating layer inception_4d/5x5_reduce
I1220 11:09:01.257521 27701 net.cpp:84] Creating Layer inception_4d/5x5_reduce
I1220 11:09:01.257526 27701 net.cpp:380] inception_4d/5x5_reduce <- inception_4c/output_inception_4c/output_0_split_2
I1220 11:09:01.257537 27701 net.cpp:338] inception_4d/5x5_reduce -> inception_4d/5x5_reduce
I1220 11:09:01.257545 27701 net.cpp:113] Setting up inception_4d/5x5_reduce
I1220 11:09:01.258671 27701 net.cpp:120] Top shape: 50 32 14 14 (313600)
I1220 11:09:01.258692 27701 layer_factory.hpp:74] Creating layer inception_4d/relu_5x5_reduce
I1220 11:09:01.258703 27701 net.cpp:84] Creating Layer inception_4d/relu_5x5_reduce
I1220 11:09:01.258709 27701 net.cpp:380] inception_4d/relu_5x5_reduce <- inception_4d/5x5_reduce
I1220 11:09:01.258718 27701 net.cpp:327] inception_4d/relu_5x5_reduce -> inception_4d/5x5_reduce (in-place)
I1220 11:09:01.258731 27701 net.cpp:113] Setting up inception_4d/relu_5x5_reduce
I1220 11:09:01.258821 27701 net.cpp:120] Top shape: 50 32 14 14 (313600)
I1220 11:09:01.258827 27701 layer_factory.hpp:74] Creating layer inception_4d/5x5
I1220 11:09:01.258837 27701 net.cpp:84] Creating Layer inception_4d/5x5
I1220 11:09:01.258842 27701 net.cpp:380] inception_4d/5x5 <- inception_4d/5x5_reduce
I1220 11:09:01.258852 27701 net.cpp:338] inception_4d/5x5 -> inception_4d/5x5
I1220 11:09:01.258860 27701 net.cpp:113] Setting up inception_4d/5x5
I1220 11:09:01.259927 27701 net.cpp:120] Top shape: 50 64 14 14 (627200)
I1220 11:09:01.259943 27701 layer_factory.hpp:74] Creating layer inception_4d/relu_5x5
I1220 11:09:01.259953 27701 net.cpp:84] Creating Layer inception_4d/relu_5x5
I1220 11:09:01.259960 27701 net.cpp:380] inception_4d/relu_5x5 <- inception_4d/5x5
I1220 11:09:01.259968 27701 net.cpp:327] inception_4d/relu_5x5 -> inception_4d/5x5 (in-place)
I1220 11:09:01.259975 27701 net.cpp:113] Setting up inception_4d/relu_5x5
I1220 11:09:01.260051 27701 net.cpp:120] Top shape: 50 64 14 14 (627200)
I1220 11:09:01.260058 27701 layer_factory.hpp:74] Creating layer inception_4d/pool
I1220 11:09:01.260063 27701 layer_factory.cpp:56] CUDNN does not support padding or multiple tops. Using Caffe's own pooling layer.
I1220 11:09:01.260069 27701 net.cpp:84] Creating Layer inception_4d/pool
I1220 11:09:01.260076 27701 net.cpp:380] inception_4d/pool <- inception_4c/output_inception_4c/output_0_split_3
I1220 11:09:01.260083 27701 net.cpp:338] inception_4d/pool -> inception_4d/pool
I1220 11:09:01.260092 27701 net.cpp:113] Setting up inception_4d/pool
I1220 11:09:01.260102 27701 net.cpp:120] Top shape: 50 512 14 14 (5017600)
I1220 11:09:01.260107 27701 layer_factory.hpp:74] Creating layer inception_4d/pool_proj
I1220 11:09:01.260115 27701 net.cpp:84] Creating Layer inception_4d/pool_proj
I1220 11:09:01.260120 27701 net.cpp:380] inception_4d/pool_proj <- inception_4d/pool
I1220 11:09:01.260129 27701 net.cpp:338] inception_4d/pool_proj -> inception_4d/pool_proj
I1220 11:09:01.260138 27701 net.cpp:113] Setting up inception_4d/pool_proj
I1220 11:09:01.260967 27701 net.cpp:120] Top shape: 50 64 14 14 (627200)
I1220 11:09:01.260983 27701 layer_factory.hpp:74] Creating layer inception_4d/relu_pool_proj
I1220 11:09:01.260993 27701 net.cpp:84] Creating Layer inception_4d/relu_pool_proj
I1220 11:09:01.260998 27701 net.cpp:380] inception_4d/relu_pool_proj <- inception_4d/pool_proj
I1220 11:09:01.261006 27701 net.cpp:327] inception_4d/relu_pool_proj -> inception_4d/pool_proj (in-place)
I1220 11:09:01.261014 27701 net.cpp:113] Setting up inception_4d/relu_pool_proj
I1220 11:09:01.261553 27701 net.cpp:120] Top shape: 50 64 14 14 (627200)
I1220 11:09:01.261567 27701 layer_factory.hpp:74] Creating layer inception_4d/output
I1220 11:09:01.261577 27701 net.cpp:84] Creating Layer inception_4d/output
I1220 11:09:01.261584 27701 net.cpp:380] inception_4d/output <- inception_4d/1x1
I1220 11:09:01.261590 27701 net.cpp:380] inception_4d/output <- inception_4d/3x3
I1220 11:09:01.261595 27701 net.cpp:380] inception_4d/output <- inception_4d/5x5
I1220 11:09:01.261601 27701 net.cpp:380] inception_4d/output <- inception_4d/pool_proj
I1220 11:09:01.261607 27701 net.cpp:338] inception_4d/output -> inception_4d/output
I1220 11:09:01.261615 27701 net.cpp:113] Setting up inception_4d/output
I1220 11:09:01.261625 27701 net.cpp:120] Top shape: 50 528 14 14 (5174400)
I1220 11:09:01.261629 27701 layer_factory.hpp:74] Creating layer inception_4d/output_inception_4d/output_0_split
I1220 11:09:01.261636 27701 net.cpp:84] Creating Layer inception_4d/output_inception_4d/output_0_split
I1220 11:09:01.261641 27701 net.cpp:380] inception_4d/output_inception_4d/output_0_split <- inception_4d/output
I1220 11:09:01.261649 27701 net.cpp:338] inception_4d/output_inception_4d/output_0_split -> inception_4d/output_inception_4d/output_0_split_0
I1220 11:09:01.261657 27701 net.cpp:338] inception_4d/output_inception_4d/output_0_split -> inception_4d/output_inception_4d/output_0_split_1
I1220 11:09:01.261672 27701 net.cpp:338] inception_4d/output_inception_4d/output_0_split -> inception_4d/output_inception_4d/output_0_split_2
I1220 11:09:01.261687 27701 net.cpp:338] inception_4d/output_inception_4d/output_0_split -> inception_4d/output_inception_4d/output_0_split_3
I1220 11:09:01.261693 27701 net.cpp:338] inception_4d/output_inception_4d/output_0_split -> inception_4d/output_inception_4d/output_0_split_4
I1220 11:09:01.261700 27701 net.cpp:113] Setting up inception_4d/output_inception_4d/output_0_split
I1220 11:09:01.261709 27701 net.cpp:120] Top shape: 50 528 14 14 (5174400)
I1220 11:09:01.261715 27701 net.cpp:120] Top shape: 50 528 14 14 (5174400)
I1220 11:09:01.261720 27701 net.cpp:120] Top shape: 50 528 14 14 (5174400)
I1220 11:09:01.261725 27701 net.cpp:120] Top shape: 50 528 14 14 (5174400)
I1220 11:09:01.261730 27701 net.cpp:120] Top shape: 50 528 14 14 (5174400)
I1220 11:09:01.261735 27701 layer_factory.hpp:74] Creating layer loss2/ave_pool
I1220 11:09:01.261742 27701 net.cpp:84] Creating Layer loss2/ave_pool
I1220 11:09:01.261747 27701 net.cpp:380] loss2/ave_pool <- inception_4d/output_inception_4d/output_0_split_0
I1220 11:09:01.261754 27701 net.cpp:338] loss2/ave_pool -> loss2/ave_pool
I1220 11:09:01.261761 27701 net.cpp:113] Setting up loss2/ave_pool
I1220 11:09:01.261840 27701 net.cpp:120] Top shape: 50 528 4 4 (422400)
I1220 11:09:01.261847 27701 layer_factory.hpp:74] Creating layer loss2/conv
I1220 11:09:01.261855 27701 net.cpp:84] Creating Layer loss2/conv
I1220 11:09:01.261860 27701 net.cpp:380] loss2/conv <- loss2/ave_pool
I1220 11:09:01.261869 27701 net.cpp:338] loss2/conv -> loss2/conv
I1220 11:09:01.261878 27701 net.cpp:113] Setting up loss2/conv
I1220 11:09:01.263120 27701 net.cpp:120] Top shape: 50 128 4 4 (102400)
I1220 11:09:01.263137 27701 layer_factory.hpp:74] Creating layer loss2/relu_conv
I1220 11:09:01.263144 27701 net.cpp:84] Creating Layer loss2/relu_conv
I1220 11:09:01.263152 27701 net.cpp:380] loss2/relu_conv <- loss2/conv
I1220 11:09:01.263159 27701 net.cpp:327] loss2/relu_conv -> loss2/conv (in-place)
I1220 11:09:01.263167 27701 net.cpp:113] Setting up loss2/relu_conv
I1220 11:09:01.263239 27701 net.cpp:120] Top shape: 50 128 4 4 (102400)
I1220 11:09:01.263245 27701 layer_factory.hpp:74] Creating layer loss2/fc_kaggle
I1220 11:09:01.263257 27701 net.cpp:84] Creating Layer loss2/fc_kaggle
I1220 11:09:01.263262 27701 net.cpp:380] loss2/fc_kaggle <- loss2/conv
I1220 11:09:01.263269 27701 net.cpp:338] loss2/fc_kaggle -> loss2/fc_kaggle
I1220 11:09:01.263278 27701 net.cpp:113] Setting up loss2/fc_kaggle
I1220 11:09:01.430320 27701 net.cpp:120] Top shape: 50 1024 (51200)
I1220 11:09:01.430371 27701 layer_factory.hpp:74] Creating layer loss2/relu_fc_kaggle
I1220 11:09:01.430392 27701 net.cpp:84] Creating Layer loss2/relu_fc_kaggle
I1220 11:09:01.430409 27701 net.cpp:380] loss2/relu_fc_kaggle <- loss2/fc_kaggle
I1220 11:09:01.430420 27701 net.cpp:327] loss2/relu_fc_kaggle -> loss2/fc_kaggle (in-place)
I1220 11:09:01.430430 27701 net.cpp:113] Setting up loss2/relu_fc_kaggle
I1220 11:09:01.430718 27701 net.cpp:120] Top shape: 50 1024 (51200)
I1220 11:09:01.430727 27701 layer_factory.hpp:74] Creating layer loss2/drop_fc_kaggle
I1220 11:09:01.430738 27701 net.cpp:84] Creating Layer loss2/drop_fc_kaggle
I1220 11:09:01.430743 27701 net.cpp:380] loss2/drop_fc_kaggle <- loss2/fc_kaggle
I1220 11:09:01.430752 27701 net.cpp:327] loss2/drop_fc_kaggle -> loss2/fc_kaggle (in-place)
I1220 11:09:01.430760 27701 net.cpp:113] Setting up loss2/drop_fc_kaggle
I1220 11:09:01.430768 27701 net.cpp:120] Top shape: 50 1024 (51200)
I1220 11:09:01.430773 27701 layer_factory.hpp:74] Creating layer loss2/classifier_kaggle
I1220 11:09:01.430785 27701 net.cpp:84] Creating Layer loss2/classifier_kaggle
I1220 11:09:01.430790 27701 net.cpp:380] loss2/classifier_kaggle <- loss2/fc_kaggle
I1220 11:09:01.430800 27701 net.cpp:338] loss2/classifier_kaggle -> loss2/classifier_kaggle
I1220 11:09:01.430811 27701 net.cpp:113] Setting up loss2/classifier_kaggle
I1220 11:09:01.436183 27701 net.cpp:120] Top shape: 50 447 (22350)
I1220 11:09:01.436206 27701 layer_factory.hpp:74] Creating layer loss2/classifier_kaggle_loss2/classifier_kaggle_0_split
I1220 11:09:01.436228 27701 net.cpp:84] Creating Layer loss2/classifier_kaggle_loss2/classifier_kaggle_0_split
I1220 11:09:01.436234 27701 net.cpp:380] loss2/classifier_kaggle_loss2/classifier_kaggle_0_split <- loss2/classifier_kaggle
I1220 11:09:01.436242 27701 net.cpp:338] loss2/classifier_kaggle_loss2/classifier_kaggle_0_split -> loss2/classifier_kaggle_loss2/classifier_kaggle_0_split_0
I1220 11:09:01.436252 27701 net.cpp:338] loss2/classifier_kaggle_loss2/classifier_kaggle_0_split -> loss2/classifier_kaggle_loss2/classifier_kaggle_0_split_1
I1220 11:09:01.436259 27701 net.cpp:338] loss2/classifier_kaggle_loss2/classifier_kaggle_0_split -> loss2/classifier_kaggle_loss2/classifier_kaggle_0_split_2
I1220 11:09:01.436266 27701 net.cpp:113] Setting up loss2/classifier_kaggle_loss2/classifier_kaggle_0_split
I1220 11:09:01.436274 27701 net.cpp:120] Top shape: 50 447 (22350)
I1220 11:09:01.436280 27701 net.cpp:120] Top shape: 50 447 (22350)
I1220 11:09:01.436285 27701 net.cpp:120] Top shape: 50 447 (22350)
I1220 11:09:01.436290 27701 layer_factory.hpp:74] Creating layer loss2/loss
I1220 11:09:01.436300 27701 net.cpp:84] Creating Layer loss2/loss
I1220 11:09:01.436305 27701 net.cpp:380] loss2/loss <- loss2/classifier_kaggle_loss2/classifier_kaggle_0_split_0
I1220 11:09:01.436312 27701 net.cpp:380] loss2/loss <- label_data_1_split_3
I1220 11:09:01.436319 27701 net.cpp:338] loss2/loss -> loss2/loss1
…
I1220 11:09:01.437044 27701 net.cpp:338] loss2/top-5 -> loss2/top-5
I1220 11:09:01.437052 27701 net.cpp:113] Setting up loss2/top-5
I1220 11:09:01.437072 27701 net.cpp:120] Top shape: (1)
I1220 11:09:01.437077 27701 layer_factory.hpp:74] Creating layer inception_4e/1x1
I1220 11:09:01.437093 27701 net.cpp:84] Creating Layer inception_4e/1x1
I1220 11:09:01.437099 27701 net.cpp:380] inception_4e/1x1 <- inception_4d/output_inception_4d/output_0_split_1
I1220 11:09:01.437109 27701 net.cpp:338] inception_4e/1x1 -> inception_4e/1x1
I1220 11:09:01.437118 27701 net.cpp:113] Setting up inception_4e/1x1
I1220 11:09:01.439257 27701 net.cpp:120] Top shape: 50 256 14 14 (2508800)
I1220 11:09:01.439275 27701 layer_factory.hpp:74] Creating layer inception_4e/relu_1x1
I1220 11:09:01.439286 27701 net.cpp:84] Creating Layer inception_4e/relu_1x1
I1220 11:09:01.439291 27701 net.cpp:380] inception_4e/relu_1x1 <- inception_4e/1x1
I1220 11:09:01.439299 27701 net.cpp:327] inception_4e/relu_1x1 -> inception_4e/1x1 (in-place)
I1220 11:09:01.439306 27701 net.cpp:113] Setting up inception_4e/relu_1x1
I1220 11:09:01.439383 27701 net.cpp:120] Top shape: 50 256 14 14 (2508800)
I1220 11:09:01.439389 27701 layer_factory.hpp:74] Creating layer inception_4e/3x3_reduce
I1220 11:09:01.439532 27701 net.cpp:84] Creating Layer inception_4e/3x3_reduce
I1220 11:09:01.439539 27701 net.cpp:380] inception_4e/3x3_reduce <- inception_4d/output_inception_4d/output_0_split_2
I1220 11:09:01.439556 27701 net.cpp:338] inception_4e/3x3_reduce -> inception_4e/3x3_reduce
I1220 11:09:01.439574 27701 net.cpp:113] Setting up inception_4e/3x3_reduce
I1220 11:09:01.441023 27701 net.cpp:120] Top shape: 50 160 14 14 (1568000)
I1220 11:09:01.441040 27701 layer_factory.hpp:74] Creating layer inception_4e/relu_3x3_reduce
I1220 11:09:01.441047 27701 net.cpp:84] Creating Layer inception_4e/relu_3x3_reduce
I1220 11:09:01.441061 27701 net.cpp:380] inception_4e/relu_3x3_reduce <- inception_4e/3x3_reduce
I1220 11:09:01.441071 27701 net.cpp:327] inception_4e/relu_3x3_reduce -> inception_4e/3x3_reduce (in-place)
I1220 11:09:01.441079 27701 net.cpp:113] Setting up inception_4e/relu_3x3_reduce
I1220 11:09:01.441154 27701 net.cpp:120] Top shape: 50 160 14 14 (1568000)
I1220 11:09:01.441161 27701 layer_factory.hpp:74] Creating layer inception_4e/3x3
I1220 11:09:01.441172 27701 net.cpp:84] Creating Layer inception_4e/3x3
I1220 11:09:01.441177 27701 net.cpp:380] inception_4e/3x3 <- inception_4e/3x3_reduce
I1220 11:09:01.441186 27701 net.cpp:338] inception_4e/3x3 -> inception_4e/3x3
I1220 11:09:01.441195 27701 net.cpp:113] Setting up inception_4e/3x3
I1220 11:09:01.458493 27701 net.cpp:120] Top shape: 50 320 14 14 (3136000)
I1220 11:09:01.458516 27701 layer_factory.hpp:74] Creating layer inception_4e/relu_3x3
I1220 11:09:01.458528 27701 net.cpp:84] Creating Layer inception_4e/relu_3x3
I1220 11:09:01.458534 27701 net.cpp:380] inception_4e/relu_3x3 <- inception_4e/3x3
I1220 11:09:01.458542 27701 net.cpp:327] inception_4e/relu_3x3 -> inception_4e/3x3 (in-place)
I1220 11:09:01.458550 27701 net.cpp:113] Setting up inception_4e/relu_3x3
I1220 11:09:01.458978 27701 net.cpp:120] Top shape: 50 320 14 14 (3136000)
I1220 11:09:01.458992 27701 layer_factory.hpp:74] Creating layer inception_4e/5x5_reduce
I1220 11:09:01.459002 27701 net.cpp:84] Creating Layer inception_4e/5x5_reduce
I1220 11:09:01.459007 27701 net.cpp:380] inception_4e/5x5_reduce <- inception_4d/output_inception_4d/output_0_split_3
I1220 11:09:01.459015 27701 net.cpp:338] inception_4e/5x5_reduce -> inception_4e/5x5_reduce
I1220 11:09:01.459025 27701 net.cpp:113] Setting up inception_4e/5x5_reduce
I1220 11:09:01.459666 27701 net.cpp:120] Top shape: 50 32 14 14 (313600)
I1220 11:09:01.459682 27701 layer_factory.hpp:74] Creating layer inception_4e/relu_5x5_reduce
I1220 11:09:01.459693 27701 net.cpp:84] Creating Layer inception_4e/relu_5x5_reduce
I1220 11:09:01.459699 27701 net.cpp:380] inception_4e/relu_5x5_reduce <- inception_4e/5x5_reduce
I1220 11:09:01.459707 27701 net.cpp:327] inception_4e/relu_5x5_reduce -> inception_4e/5x5_reduce (in-place)
I1220 11:09:01.459714 27701 net.cpp:113] Setting up inception_4e/relu_5x5_reduce
I1220 11:09:01.459792 27701 net.cpp:120] Top shape: 50 32 14 14 (313600)
I1220 11:09:01.459799 27701 layer_factory.hpp:74] Creating layer inception_4e/5x5
I1220 11:09:01.459810 27701 net.cpp:84] Creating Layer inception_4e/5x5
I1220 11:09:01.459815 27701 net.cpp:380] inception_4e/5x5 <- inception_4e/5x5_reduce
I1220 11:09:01.459821 27701 net.cpp:338] inception_4e/5x5 -> inception_4e/5x5
I1220 11:09:01.459830 27701 net.cpp:113] Setting up inception_4e/5x5
I1220 11:09:01.461660 27701 net.cpp:120] Top shape: 50 128 14 14 (1254400)
I1220 11:09:01.461678 27701 layer_factory.hpp:74] Creating layer inception_4e/relu_5x5
I1220 11:09:01.461685 27701 net.cpp:84] Creating Layer inception_4e/relu_5x5
I1220 11:09:01.461691 27701 net.cpp:380] inception_4e/relu_5x5 <- inception_4e/5x5
I1220 11:09:01.461700 27701 net.cpp:327] inception_4e/relu_5x5 -> inception_4e/5x5 (in-place)
I1220 11:09:01.461709 27701 net.cpp:113] Setting up inception_4e/relu_5x5
I1220 11:09:01.461798 27701 net.cpp:120] Top shape: 50 128 14 14 (1254400)
I1220 11:09:01.461808 27701 layer_factory.hpp:74] Creating layer inception_4e/pool
I1220 11:09:01.461817 27701 layer_factory.cpp:56] CUDNN does not support padding or multiple tops. Using Caffe's own pooling layer.
I1220 11:09:01.461822 27701 net.cpp:84] Creating Layer inception_4e/pool
I1220 11:09:01.461828 27701 net.cpp:380] inception_4e/pool <- inception_4d/output_inception_4d/output_0_split_4
I1220 11:09:01.461855 27701 net.cpp:338] inception_4e/pool -> inception_4e/pool
I1220 11:09:01.461865 27701 net.cpp:113] Setting up inception_4e/pool
I1220 11:09:01.461874 27701 net.cpp:120] Top shape: 50 528 14 14 (5174400)
I1220 11:09:01.461879 27701 layer_factory.hpp:74] Creating layer inception_4e/pool_proj
I1220 11:09:01.461890 27701 net.cpp:84] Creating Layer inception_4e/pool_proj
I1220 11:09:01.461895 27701 net.cpp:380] inception_4e/pool_proj <- inception_4e/pool
I1220 11:09:01.461902 27701 net.cpp:338] inception_4e/pool_proj -> inception_4e/pool_proj
I1220 11:09:01.461910 27701 net.cpp:113] Setting up inception_4e/pool_proj
I1220 11:09:01.463153 27701 net.cpp:120] Top shape: 50 128 14 14 (1254400)
I1220 11:09:01.463170 27701 layer_factory.hpp:74] Creating layer inception_4e/relu_pool_proj
I1220 11:09:01.463178 27701 net.cpp:84] Creating Layer inception_4e/relu_pool_proj
I1220 11:09:01.463183 27701 net.cpp:380] inception_4e/relu_pool_proj <- inception_4e/pool_proj
I1220 11:09:01.463192 27701 net.cpp:327] inception_4e/relu_pool_proj -> inception_4e/pool_proj (in-place)
I1220 11:09:01.463201 27701 net.cpp:113] Setting up inception_4e/relu_pool_proj
I1220 11:09:01.463270 27701 net.cpp:120] Top shape: 50 128 14 14 (1254400)
I1220 11:09:01.463277 27701 layer_factory.hpp:74] Creating layer inception_4e/output
I1220 11:09:01.463284 27701 net.cpp:84] Creating Layer inception_4e/output
I1220 11:09:01.463290 27701 net.cpp:380] inception_4e/output <- inception_4e/1x1
I1220 11:09:01.463296 27701 net.cpp:380] inception_4e/output <- inception_4e/3x3
I1220 11:09:01.463304 27701 net.cpp:380] inception_4e/output <- inception_4e/5x5
I1220 11:09:01.463310 27701 net.cpp:380] inception_4e/output <- inception_4e/pool_proj
I1220 11:09:01.463316 27701 net.cpp:338] inception_4e/output -> inception_4e/output
I1220 11:09:01.463323 27701 net.cpp:113] Setting up inception_4e/output
I1220 11:09:01.463332 27701 net.cpp:120] Top shape: 50 832 14 14 (8153600)
I1220 11:09:01.463337 27701 layer_factory.hpp:74] Creating layer pool4/3x3_s2
I1220 11:09:01.463346 27701 net.cpp:84] Creating Layer pool4/3x3_s2
I1220 11:09:01.463351 27701 net.cpp:380] pool4/3x3_s2 <- inception_4e/output
I1220 11:09:01.463358 27701 net.cpp:338] pool4/3x3_s2 -> pool4/3x3_s2
I1220 11:09:01.463367 27701 net.cpp:113] Setting up pool4/3x3_s2
I1220 11:09:01.463649 27701 net.cpp:120] Top shape: 50 832 7 7 (2038400)
I1220 11:09:01.463660 27701 layer_factory.hpp:74] Creating layer pool4/3x3_s2_pool4/3x3_s2_0_split
I1220 11:09:01.463670 27701 net.cpp:84] Creating Layer pool4/3x3_s2_pool4/3x3_s2_0_split
I1220 11:09:01.463676 27701 net.cpp:380] pool4/3x3_s2_pool4/3x3_s2_0_split <- pool4/3x3_s2
I1220 11:09:01.463685 27701 net.cpp:338] pool4/3x3_s2_pool4/3x3_s2_0_split -> pool4/3x3_s2_pool4/3x3_s2_0_split_0
I1220 11:09:01.463693 27701 net.cpp:338] pool4/3x3_s2_pool4/3x3_s2_0_split -> pool4/3x3_s2_pool4/3x3_s2_0_split_1
I1220 11:09:01.463701 27701 net.cpp:338] pool4/3x3_s2_pool4/3x3_s2_0_split -> pool4/3x3_s2_pool4/3x3_s2_0_split_2
I1220 11:09:01.463749 27701 net.cpp:338] pool4/3x3_s2_pool4/3x3_s2_0_split -> pool4/3x3_s2_pool4/3x3_s2_0_split_3
I1220 11:09:01.463757 27701 net.cpp:113] Setting up pool4/3x3_s2_pool4/3x3_s2_0_split
I1220 11:09:01.463765 27701 net.cpp:120] Top shape: 50 832 7 7 (2038400)
I1220 11:09:01.463771 27701 net.cpp:120] Top shape: 50 832 7 7 (2038400)
I1220 11:09:01.463779 27701 net.cpp:120] Top shape: 50 832 7 7 (2038400)
I1220 11:09:01.463784 27701 net.cpp:120] Top shape: 50 832 7 7 (2038400)
I1220 11:09:01.463789 27701 layer_factory.hpp:74] Creating layer inception_5a/1x1
I1220 11:09:01.463798 27701 net.cpp:84] Creating Layer inception_5a/1x1
I1220 11:09:01.463804 27701 net.cpp:380] inception_5a/1x1 <- pool4/3x3_s2_pool4/3x3_s2_0_split_0
I1220 11:09:01.463812 27701 net.cpp:338] inception_5a/1x1 -> inception_5a/1x1
I1220 11:09:01.463820 27701 net.cpp:113] Setting up inception_5a/1x1
I1220 11:09:01.473372 27701 net.cpp:120] Top shape: 50 256 7 7 (627200)
I1220 11:09:01.473397 27701 layer_factory.hpp:74] Creating layer inception_5a/relu_1x1
I1220 11:09:01.473417 27701 net.cpp:84] Creating Layer inception_5a/relu_1x1
I1220 11:09:01.473424 27701 net.cpp:380] inception_5a/relu_1x1 <- inception_5a/1x1
I1220 11:09:01.473431 27701 net.cpp:327] inception_5a/relu_1x1 -> inception_5a/1x1 (in-place)
I1220 11:09:01.473440 27701 net.cpp:113] Setting up inception_5a/relu_1x1
I1220 11:09:01.473521 27701 net.cpp:120] Top shape: 50 256 7 7 (627200)
I1220 11:09:01.473528 27701 layer_factory.hpp:74] Creating layer inception_5a/3x3_reduce
I1220 11:09:01.473544 27701 net.cpp:84] Creating Layer inception_5a/3x3_reduce
I1220 11:09:01.473549 27701 net.cpp:380] inception_5a/3x3_reduce <- pool4/3x3_s2_pool4/3x3_s2_0_split_1
I1220 11:09:01.473559 27701 net.cpp:338] inception_5a/3x3_reduce -> inception_5a/3x3_reduce
I1220 11:09:01.473569 27701 net.cpp:113] Setting up inception_5a/3x3_reduce
I1220 11:09:01.475600 27701 net.cpp:120] Top shape: 50 160 7 7 (392000)
I1220 11:09:01.475617 27701 layer_factory.hpp:74] Creating layer inception_5a/relu_3x3_reduce
I1220 11:09:01.475627 27701 net.cpp:84] Creating Layer inception_5a/relu_3x3_reduce
I1220 11:09:01.475633 27701 net.cpp:380] inception_5a/relu_3x3_reduce <- inception_5a/3x3_reduce
I1220 11:09:01.475641 27701 net.cpp:327] inception_5a/relu_3x3_reduce -> inception_5a/3x3_reduce (in-place)
I1220 11:09:01.475648 27701 net.cpp:113] Setting up inception_5a/relu_3x3_reduce
I1220 11:09:01.475723 27701 net.cpp:120] Top shape: 50 160 7 7 (392000)
I1220 11:09:01.475733 27701 layer_factory.hpp:74] Creating layer inception_5a/3x3
I1220 11:09:01.475744 27701 net.cpp:84] Creating Layer inception_5a/3x3
I1220 11:09:01.475749 27701 net.cpp:380] inception_5a/3x3 <- inception_5a/3x3_reduce
I1220 11:09:01.475757 27701 net.cpp:338] inception_5a/3x3 -> inception_5a/3x3
I1220 11:09:01.475766 27701 net.cpp:113] Setting up inception_5a/3x3
I1220 11:09:01.481632 27701 net.cpp:120] Top shape: 50 320 7 7 (784000)
I1220 11:09:01.481649 27701 layer_factory.hpp:74] Creating layer inception_5a/relu_3x3
I1220 11:09:01.481658 27701 net.cpp:84] Creating Layer inception_5a/relu_3x3
I1220 11:09:01.481663 27701 net.cpp:380] inception_5a/relu_3x3 <- inception_5a/3x3
I1220 11:09:01.481674 27701 net.cpp:327] inception_5a/relu_3x3 -> inception_5a/3x3 (in-place)
I1220 11:09:01.481683 27701 net.cpp:113] Setting up inception_5a/relu_3x3
I1220 11:09:01.481752 27701 net.cpp:120] Top shape: 50 320 7 7 (784000)
I1220 11:09:01.481761 27701 layer_factory.hpp:74] Creating layer inception_5a/5x5_reduce
I1220 11:09:01.481771 27701 net.cpp:84] Creating Layer inception_5a/5x5_reduce
I1220 11:09:01.481777 27701 net.cpp:380] inception_5a/5x5_reduce <- pool4/3x3_s2_pool4/3x3_s2_0_split_2
I1220 11:09:01.481784 27701 net.cpp:338] inception_5a/5x5_reduce -> inception_5a/5x5_reduce
I1220 11:09:01.481792 27701 net.cpp:113] Setting up inception_5a/5x5_reduce
I1220 11:09:01.482555 27701 net.cpp:120] Top shape: 50 32 7 7 (78400)
I1220 11:09:01.482570 27701 layer_factory.hpp:74] Creating layer inception_5a/relu_5x5_reduce
I1220 11:09:01.482583 27701 net.cpp:84] Creating Layer inception_5a/relu_5x5_reduce
I1220 11:09:01.482589 27701 net.cpp:380] inception_5a/relu_5x5_reduce <- inception_5a/5x5_reduce
I1220 11:09:01.482595 27701 net.cpp:327] inception_5a/relu_5x5_reduce -> inception_5a/5x5_reduce (in-place)
I1220 11:09:01.482604 27701 net.cpp:113] Setting up inception_5a/relu_5x5_reduce
I1220 11:09:01.482875 27701 net.cpp:120] Top shape: 50 32 7 7 (78400)
I1220 11:09:01.482887 27701 layer_factory.hpp:74] Creating layer inception_5a/5x5
I1220 11:09:01.482899 27701 net.cpp:84] Creating Layer inception_5a/5x5
I1220 11:09:01.482904 27701 net.cpp:380] inception_5a/5x5 <- inception_5a/5x5_reduce
I1220 11:09:01.482913 27701 net.cpp:338] inception_5a/5x5 -> inception_5a/5x5
I1220 11:09:01.482920 27701 net.cpp:113] Setting up inception_5a/5x5
I1220 11:09:01.484575 27701 net.cpp:120] Top shape: 50 128 7 7 (313600)
I1220 11:09:01.484591 27701 layer_factory.hpp:74] Creating layer inception_5a/relu_5x5
I1220 11:09:01.484598 27701 net.cpp:84] Creating Layer inception_5a/relu_5x5
I1220 11:09:01.484611 27701 net.cpp:380] inception_5a/relu_5x5 <- inception_5a/5x5
I1220 11:09:01.484627 27701 net.cpp:327] inception_5a/relu_5x5 -> inception_5a/5x5 (in-place)
I1220 11:09:01.484637 27701 net.cpp:113] Setting up inception_5a/relu_5x5
I1220 11:09:01.484710 27701 net.cpp:120] Top shape: 50 128 7 7 (313600)
I1220 11:09:01.484716 27701 layer_factory.hpp:74] Creating layer inception_5a/pool
I1220 11:09:01.484724 27701 layer_factory.cpp:56] CUDNN does not support padding or multiple tops. Using Caffe's own pooling layer.
I1220 11:09:01.484731 27701 net.cpp:84] Creating Layer inception_5a/pool
I1220 11:09:01.484737 27701 net.cpp:380] inception_5a/pool <- pool4/3x3_s2_pool4/3x3_s2_0_split_3
I1220 11:09:01.484745 27701 net.cpp:338] inception_5a/pool -> inception_5a/pool
I1220 11:09:01.484752 27701 net.cpp:113] Setting up inception_5a/pool
I1220 11:09:01.484762 27701 net.cpp:120] Top shape: 50 832 7 7 (2038400)
I1220 11:09:01.484767 27701 layer_factory.hpp:74] Creating layer inception_5a/pool_proj
I1220 11:09:01.484776 27701 net.cpp:84] Creating Layer inception_5a/pool_proj
I1220 11:09:01.484781 27701 net.cpp:380] inception_5a/pool_proj <- inception_5a/pool
I1220 11:09:01.484787 27701 net.cpp:338] inception_5a/pool_proj -> inception_5a/pool_proj
I1220 11:09:01.484796 27701 net.cpp:113] Setting up inception_5a/pool_proj
I1220 11:09:01.486505 27701 net.cpp:120] Top shape: 50 128 7 7 (313600)
I1220 11:09:01.486521 27701 layer_factory.hpp:74] Creating layer inception_5a/relu_pool_proj
I1220 11:09:01.486529 27701 net.cpp:84] Creating Layer inception_5a/relu_pool_proj
I1220 11:09:01.486537 27701 net.cpp:380] inception_5a/relu_pool_proj <- inception_5a/pool_proj
I1220 11:09:01.486544 27701 net.cpp:327] inception_5a/relu_pool_proj -> inception_5a/pool_proj (in-place)
I1220 11:09:01.486552 27701 net.cpp:113] Setting up inception_5a/relu_pool_proj
I1220 11:09:01.486624 27701 net.cpp:120] Top shape: 50 128 7 7 (313600)
I1220 11:09:01.486629 27701 layer_factory.hpp:74] Creating layer inception_5a/output
I1220 11:09:01.486637 27701 net.cpp:84] Creating Layer inception_5a/output
I1220 11:09:01.486644 27701 net.cpp:380] inception_5a/output <- inception_5a/1x1
I1220 11:09:01.486650 27701 net.cpp:380] inception_5a/output <- inception_5a/3x3
I1220 11:09:01.486655 27701 net.cpp:380] inception_5a/output <- inception_5a/5x5
I1220 11:09:01.486661 27701 net.cpp:380] inception_5a/output <- inception_5a/pool_proj
I1220 11:09:01.486667 27701 net.cpp:338] inception_5a/output -> inception_5a/output
I1220 11:09:01.486675 27701 net.cpp:113] Setting up inception_5a/output
I1220 11:09:01.486682 27701 net.cpp:120] Top shape: 50 832 7 7 (2038400)
I1220 11:09:01.486687 27701 layer_factory.hpp:74] Creating layer inception_5a/output_inception_5a/output_0_split
I1220 11:09:01.486695 27701 net.cpp:84] Creating Layer inception_5a/output_inception_5a/output_0_split
I1220 11:09:01.486698 27701 net.cpp:380] inception_5a/output_inception_5a/output_0_split <- inception_5a/output
I1220 11:09:01.486706 27701 net.cpp:338] inception_5a/output_inception_5a/output_0_split -> inception_5a/output_inception_5a/output_0_split_0
I1220 11:09:01.486714 27701 net.cpp:338] inception_5a/output_inception_5a/output_0_split -> inception_5a/output_inception_5a/output_0_split_1
I1220 11:09:01.486722 27701 net.cpp:338] inception_5a/output_inception_5a/output_0_split -> inception_5a/output_inception_5a/output_0_split_2
I1220 11:09:01.486729 27701 net.cpp:338] inception_5a/output_inception_5a/output_0_split -> inception_5a/output_inception_5a/output_0_split_3
I1220 11:09:01.486735 27701 net.cpp:113] Setting up inception_5a/output_inception_5a/output_0_split
I1220 11:09:01.486742 27701 net.cpp:120] Top shape: 50 832 7 7 (2038400)
I1220 11:09:01.486747 27701 net.cpp:120] Top shape: 50 832 7 7 (2038400)
I1220 11:09:01.486753 27701 net.cpp:120] Top shape: 50 832 7 7 (2038400)
I1220 11:09:01.486758 27701 net.cpp:120] Top shape: 50 832 7 7 (2038400)
I1220 11:09:01.486763 27701 layer_factory.hpp:74] Creating layer inception_5b/1x1
I1220 11:09:01.486773 27701 net.cpp:84] Creating Layer inception_5b/1x1
I1220 11:09:01.486784 27701 net.cpp:380] inception_5b/1x1 <- inception_5a/output_inception_5a/output_0_split_0
I1220 11:09:01.486800 27701 net.cpp:338] inception_5b/1x1 -> inception_5b/1x1
I1220 11:09:01.486809 27701 net.cpp:113] Setting up inception_5b/1x1
I1220 11:09:01.491029 27701 net.cpp:120] Top shape: 50 384 7 7 (940800)
I1220 11:09:01.491046 27701 layer_factory.hpp:74] Creating layer inception_5b/relu_1x1
I1220 11:09:01.491056 27701 net.cpp:84] Creating Layer inception_5b/relu_1x1
I1220 11:09:01.491062 27701 net.cpp:380] inception_5b/relu_1x1 <- inception_5b/1x1
I1220 11:09:01.491070 27701 net.cpp:327] inception_5b/relu_1x1 -> inception_5b/1x1 (in-place)
I1220 11:09:01.491077 27701 net.cpp:113] Setting up inception_5b/relu_1x1
I1220 11:09:01.491152 27701 net.cpp:120] Top shape: 50 384 7 7 (940800)
I1220 11:09:01.491159 27701 layer_factory.hpp:74] Creating layer inception_5b/3x3_reduce
I1220 11:09:01.491170 27701 net.cpp:84] Creating Layer inception_5b/3x3_reduce
I1220 11:09:01.491175 27701 net.cpp:380] inception_5b/3x3_reduce <- inception_5a/output_inception_5a/output_0_split_1
I1220 11:09:01.491183 27701 net.cpp:338] inception_5b/3x3_reduce -> inception_5b/3x3_reduce
I1220 11:09:01.491191 27701 net.cpp:113] Setting up inception_5b/3x3_reduce
I1220 11:09:01.493536 27701 net.cpp:120] Top shape: 50 192 7 7 (470400)
I1220 11:09:01.493553 27701 layer_factory.hpp:74] Creating layer inception_5b/relu_3x3_reduce
I1220 11:09:01.493563 27701 net.cpp:84] Creating Layer inception_5b/relu_3x3_reduce
I1220 11:09:01.493571 27701 net.cpp:380] inception_5b/relu_3x3_reduce <- inception_5b/3x3_reduce
I1220 11:09:01.493577 27701 net.cpp:327] inception_5b/relu_3x3_reduce -> inception_5b/3x3_reduce (in-place)
I1220 11:09:01.493585 27701 net.cpp:113] Setting up inception_5b/relu_3x3_reduce
I1220 11:09:01.493862 27701 net.cpp:120] Top shape: 50 192 7 7 (470400)
I1220 11:09:01.493873 27701 layer_factory.hpp:74] Creating layer inception_5b/3x3
I1220 11:09:01.493883 27701 net.cpp:84] Creating Layer inception_5b/3x3
I1220 11:09:01.493888 27701 net.cpp:380] inception_5b/3x3 <- inception_5b/3x3_reduce
I1220 11:09:01.493898 27701 net.cpp:338] inception_5b/3x3 -> inception_5b/3x3
I1220 11:09:01.493908 27701 net.cpp:113] Setting up inception_5b/3x3
I1220 11:09:01.502224 27701 net.cpp:120] Top shape: 50 384 7 7 (940800)
I1220 11:09:01.502241 27701 layer_factory.hpp:74] Creating layer inception_5b/relu_3x3
I1220 11:09:01.502249 27701 net.cpp:84] Creating Layer inception_5b/relu_3x3
I1220 11:09:01.502255 27701 net.cpp:380] inception_5b/relu_3x3 <- inception_5b/3x3
I1220 11:09:01.502262 27701 net.cpp:327] inception_5b/relu_3x3 -> inception_5b/3x3 (in-place)
I1220 11:09:01.502269 27701 net.cpp:113] Setting up inception_5b/relu_3x3
I1220 11:09:01.502343 27701 net.cpp:120] Top shape: 50 384 7 7 (940800)
I1220 11:09:01.502349 27701 layer_factory.hpp:74] Creating layer inception_5b/5x5_reduce
I1220 11:09:01.502358 27701 net.cpp:84] Creating Layer inception_5b/5x5_reduce
I1220 11:09:01.502363 27701 net.cpp:380] inception_5b/5x5_reduce <- inception_5a/output_inception_5a/output_0_split_2
I1220 11:09:01.502373 27701 net.cpp:338] inception_5b/5x5_reduce -> inception_5b/5x5_reduce
I1220 11:09:01.502382 27701 net.cpp:113] Setting up inception_5b/5x5_reduce
I1220 11:09:01.503299 27701 net.cpp:120] Top shape: 50 48 7 7 (117600)
I1220 11:09:01.503314 27701 layer_factory.hpp:74] Creating layer inception_5b/relu_5x5_reduce
I1220 11:09:01.503324 27701 net.cpp:84] Creating Layer inception_5b/relu_5x5_reduce
I1220 11:09:01.503329 27701 net.cpp:380] inception_5b/relu_5x5_reduce <- inception_5b/5x5_reduce
I1220 11:09:01.503336 27701 net.cpp:327] inception_5b/relu_5x5_reduce -> inception_5b/5x5_reduce (in-place)
I1220 11:09:01.503345 27701 net.cpp:113] Setting up inception_5b/relu_5x5_reduce
I1220 11:09:01.503417 27701 net.cpp:120] Top shape: 50 48 7 7 (117600)
I1220 11:09:01.503427 27701 layer_factory.hpp:74] Creating layer inception_5b/5x5
I1220 11:09:01.503437 27701 net.cpp:84] Creating Layer inception_5b/5x5
I1220 11:09:01.503448 27701 net.cpp:380] inception_5b/5x5 <- inception_5b/5x5_reduce
I1220 11:09:01.503463 27701 net.cpp:338] inception_5b/5x5 -> inception_5b/5x5
I1220 11:09:01.503473 27701 net.cpp:113] Setting up inception_5b/5x5
I1220 11:09:01.505733 27701 net.cpp:120] Top shape: 50 128 7 7 (313600)
I1220 11:09:01.505749 27701 layer_factory.hpp:74] Creating layer inception_5b/relu_5x5
I1220 11:09:01.505759 27701 net.cpp:84] Creating Layer inception_5b/relu_5x5
I1220 11:09:01.505765 27701 net.cpp:380] inception_5b/relu_5x5 <- inception_5b/5x5
I1220 11:09:01.505772 27701 net.cpp:327] inception_5b/relu_5x5 -> inception_5b/5x5 (in-place)
I1220 11:09:01.505780 27701 net.cpp:113] Setting up inception_5b/relu_5x5
I1220 11:09:01.506052 27701 net.cpp:120] Top shape: 50 128 7 7 (313600)
I1220 11:09:01.506063 27701 layer_factory.hpp:74] Creating layer inception_5b/pool
I1220 11:09:01.506069 27701 layer_factory.cpp:56] CUDNN does not support padding or multiple tops. Using Caffe's own pooling layer.
I1220 11:09:01.506078 27701 net.cpp:84] Creating Layer inception_5b/pool
I1220 11:09:01.506084 27701 net.cpp:380] inception_5b/pool <- inception_5a/output_inception_5a/output_0_split_3
I1220 11:09:01.506091 27701 net.cpp:338] inception_5b/pool -> inception_5b/pool
I1220 11:09:01.506099 27701 net.cpp:113] Setting up inception_5b/pool
I1220 11:09:01.506108 27701 net.cpp:120] Top shape: 50 832 7 7 (2038400)
I1220 11:09:01.506114 27701 layer_factory.hpp:74] Creating layer inception_5b/pool_proj
I1220 11:09:01.506124 27701 net.cpp:84] Creating Layer inception_5b/pool_proj
I1220 11:09:01.506129 27701 net.cpp:380] inception_5b/pool_proj <- inception_5b/pool
I1220 11:09:01.506136 27701 net.cpp:338] inception_5b/pool_proj -> inception_5b/pool_proj
I1220 11:09:01.506146 27701 net.cpp:113] Setting up inception_5b/pool_proj
I1220 11:09:01.507850 27701 net.cpp:120] Top shape: 50 128 7 7 (313600)
I1220 11:09:01.507865 27701 layer_factory.hpp:74] Creating layer inception_5b/relu_pool_proj
I1220 11:09:01.507874 27701 net.cpp:84] Creating Layer inception_5b/relu_pool_proj
I1220 11:09:01.507879 27701 net.cpp:380] inception_5b/relu_pool_proj <- inception_5b/pool_proj
I1220 11:09:01.507885 27701 net.cpp:327] inception_5b/relu_pool_proj -> inception_5b/pool_proj (in-place)
I1220 11:09:01.507894 27701 net.cpp:113] Setting up inception_5b/relu_pool_proj
I1220 11:09:01.507968 27701 net.cpp:120] Top shape: 50 128 7 7 (313600)
I1220 11:09:01.507975 27701 layer_factory.hpp:74] Creating layer inception_5b/output
I1220 11:09:01.507982 27701 net.cpp:84] Creating Layer inception_5b/output
I1220 11:09:01.507987 27701 net.cpp:380] inception_5b/output <- inception_5b/1x1
I1220 11:09:01.507993 27701 net.cpp:380] inception_5b/output <- inception_5b/3x3
I1220 11:09:01.507999 27701 net.cpp:380] inception_5b/output <- inception_5b/5x5
I1220 11:09:01.508004 27701 net.cpp:380] inception_5b/output <- inception_5b/pool_proj
I1220 11:09:01.508013 27701 net.cpp:338] inception_5b/output -> inception_5b/output
I1220 11:09:01.508020 27701 net.cpp:113] Setting up inception_5b/output
I1220 11:09:01.508028 27701 net.cpp:120] Top shape: 50 1024 7 7 (2508800)
I1220 11:09:01.508033 27701 layer_factory.hpp:74] Creating layer pool5/7x7_s1_kaggle
I1220 11:09:01.508039 27701 net.cpp:84] Creating Layer pool5/7x7_s1_kaggle
I1220 11:09:01.508044 27701 net.cpp:380] pool5/7x7_s1_kaggle <- inception_5b/output
I1220 11:09:01.508050 27701 net.cpp:338] pool5/7x7_s1_kaggle -> pool5/7x7_s1_kaggle
I1220 11:09:01.508059 27701 net.cpp:113] Setting up pool5/7x7_s1_kaggle
I1220 11:09:01.508134 27701 net.cpp:120] Top shape: 50 1024 1 1 (51200)
I1220 11:09:01.508141 27701 layer_factory.hpp:74] Creating layer pool5/drop_7x7_s1_kaggle
I1220 11:09:01.508150 27701 net.cpp:84] Creating Layer pool5/drop_7x7_s1_kaggle
I1220 11:09:01.508155 27701 net.cpp:380] pool5/drop_7x7_s1_kaggle <- pool5/7x7_s1_kaggle
I1220 11:09:01.508162 27701 net.cpp:327] pool5/drop_7x7_s1_kaggle -> pool5/7x7_s1_kaggle (in-place)
I1220 11:09:01.508168 27701 net.cpp:113] Setting up pool5/drop_7x7_s1_kaggle
I1220 11:09:01.508177 27701 net.cpp:120] Top shape: 50 1024 1 1 (51200)
I1220 11:09:01.508186 27701 layer_factory.hpp:74] Creating layer loss3/classifier_kaggle
I1220 11:09:01.508206 27701 net.cpp:84] Creating Layer loss3/classifier_kaggle
I1220 11:09:01.508211 27701 net.cpp:380] loss3/classifier_kaggle <- pool5/7x7_s1_kaggle
I1220 11:09:01.508219 27701 net.cpp:338] loss3/classifier_kaggle -> loss3/classifier_kaggle
I1220 11:09:01.508227 27701 net.cpp:113] Setting up loss3/classifier_kaggle
I1220 11:09:01.513620 27701 net.cpp:120] Top shape: 50 447 (22350)
I1220 11:09:01.513633 27701 layer_factory.hpp:74] Creating layer loss3/classifier_kaggle_loss3/classifier_kaggle_0_split
I1220 11:09:01.513640 27701 net.cpp:84] Creating Layer loss3/classifier_kaggle_loss3/classifier_kaggle_0_split
I1220 11:09:01.513645 27701 net.cpp:380] loss3/classifier_kaggle_loss3/classifier_kaggle_0_split <- loss3/classifier_kaggle
I1220 11:09:01.513653 27701 net.cpp:338] loss3/classifier_kaggle_loss3/classifier_kaggle_0_split -> loss3/classifier_kaggle_loss3/classifier_kaggle_0_split_0
I1220 11:09:01.513660 27701 net.cpp:338] loss3/classifier_kaggle_loss3/classifier_kaggle_0_split -> loss3/classifier_kaggle_loss3/classifier_kaggle_0_split_1
I1220 11:09:01.513669 27701 net.cpp:338] loss3/classifier_kaggle_loss3/classifier_kaggle_0_split -> loss3/classifier_kaggle_loss3/classifier_kaggle_0_split_2
I1220 11:09:01.513676 27701 net.cpp:113] Setting up loss3/classifier_kaggle_loss3/classifier_kaggle_0_split
I1220 11:09:01.513684 27701 net.cpp:120] Top shape: 50 447 (22350)
I1220 11:09:01.513689 27701 net.cpp:120] Top shape: 50 447 (22350)
I1220 11:09:01.513694 27701 net.cpp:120] Top shape: 50 447 (22350)
I1220 11:09:01.513697 27701 layer_factory.hpp:74] Creating layer loss3/loss3
I1220 11:09:01.513706 27701 net.cpp:84] Creating Layer loss3/loss3
I1220 11:09:01.513711 27701 net.cpp:380] loss3/loss3 <- loss3/classifier_kaggle_loss3/classifier_kaggle_0_split_0
I1220 11:09:01.513717 27701 net.cpp:380] loss3/loss3 <- label_data_1_split_6
I1220 11:09:01.513725 27701 net.cpp:338] loss3/loss3 -> loss3/loss3
…
