…
I1215 22:19:20.927459 25506 net.cpp:257] The NetState phase (0) differed from the phase (1) specified by a rule in layer loss3/top-5
I1215 22:19:20.928899 25506 net.cpp:42] Initializing net from parameters: 
name: "GoogleNet"
state {
  phase: TRAIN
}
layer {
  name: "data"
  type: "Data"
  top: "data"
  top: "label"
  include {
    phase: TRAIN
  }
  transform_param {
    mirror: true
    crop_size: 224
    mean_value: 104
    mean_value: 117
    mean_value: 123
  }
  data_param {
    source: "/home/coldmanck/kaggle/kaggle2_train_lmdb"
    batch_size: 128
    backend: LMDB
  }
}
layer {
  name: "conv1/7x7_s2"
  type: "Convolution"
  bottom: "data"
  top: "conv1/7x7_s2"
  param {
    lr_mult: 1
    decay_mult: 1
  }
  param {
    lr_mult: 2
    decay_mult: 0
  }
  convolution_param {
    num_output: 64
    pad: 3
    kernel_size: 7
    stride: 2
    weight_filler {
      type: "xavier"
      std: 0.1
    }
    bias_filler {
      type: "constant"
      value: 0.2
    }
  }
}
layer {
  name: "conv1/relu_7x7"
  type: "ReLU"
  bottom: "conv1/7x7_s2"
  top: "conv1/7x7_s2"
}
layer {
  name: "pool1/3x3_s2"
  type: "Pooling"
  bottom: "conv1/7x7_s2"
  top: "pool1/3x3_s2"
  pooling_param {
    pool: MAX
    kernel_size: 3
    stride: 2
  }
}
layer {
  name: "pool1/norm1"
  type: "LRN"
  bottom: "pool1/3x3_s2"
  top: "pool1/norm1"
  lrn_param {
    local_size: 5
    alpha: 0.0001
    beta: 0.75
  }
}
layer {
  name: "conv2/3x3_reduce"
  type: "Convolution"
  bottom: "pool1/norm1"
  top: "conv2/3x3_reduce"
  param {
    lr_mult: 1
    decay_mult: 1
  }
  param {
    lr_mult: 2
    decay_mult: 0
  }
  convolution_param {
    num_output: 64
    kernel_size: 1
    weight_filler {
      type: "xavier"
      std: 0.1
    }
    bias_filler {
      type: "constant"
      value: 0.2
    }
  }
}
layer {
  name: "conv2/relu_3x3_reduce"
  type: "ReLU"
  bottom: "conv2/3x3_reduce"
  top: "conv2/3x3_reduce"
}
layer {
  name: "conv2/3x3"
  type: "Convolution"
  bottom: "conv2/3x3_reduce"
  top: "conv2/3x3"
  param {
    lr_mult: 1
    decay_mult: 1
  }
  param {
    lr_mult: 2
    decay_mult: 0
  }
  convolution_param {
    num_output: 192
    pad: 1
    kernel_size: 3
    weight_filler {
      type: "xavier"
      std: 0.03
    }
    bias_filler {
      type: "constant"
      value: 0.2
    }
  }
}
layer {
  name: "conv2/relu_3x3"
  type: "ReLU"
  bottom: "conv2/3x3"
  top: "conv2/3x3"
}
layer {
  name: "conv2/norm2"
  type: "LRN"
  bottom: "conv2/3x3"
  top: "conv2/norm2"
  lrn_param {
    local_size: 5
    alpha: 0.0001
    beta: 0.75
  }
}
layer {
  name: "pool2/3x3_s2"
  type: "Pooling"
  bottom: "conv2/norm2"
  top: "pool2/3x3_s2"
  pooling_param {
    pool: MAX
    kernel_size: 3
    stride: 2
  }
}
layer {
  name: "inception_3a/1x1"
  type: "Convolution"
  bottom: "pool2/3x3_s2"
  top: "inception_3a/1x1"
  param {
    lr_mult: 1
    decay_mult: 1
  }
  param {
    lr_mult: 2
    decay_mult: 0
  }
  convolution_param {
    num_output: 64
    kernel_size: 1
    weight_filler {
      type: "xavier"
      std: 0.03
    }
    bias_filler {
      type: "constant"
      value: 0.2
    }
  }
}
layer {
  name: "inception_3a/relu_1x1"
  type: "ReLU"
  bottom: "inception_3a/1x1"
  top: "inception_3a/1x1"
}
layer {
  name: "inception_3a/3x3_reduce"
  type: "Convolution"
  bottom: "pool2/3x3_s2"
  top: "inception_3a/3x3_reduce"
  param {
    lr_mult: 1
    decay_mult: 1
  }
  param {
    lr_mult: 2
    decay_mult: 0
  }
  convolution_param {
    num_output: 96
    kernel_size: 1
    weight_filler {
      type: "xavier"
      std: 0.09
    }
    bias_filler {
      type: "constant"
      value: 0.2
    }
  }
}
layer {
  name: "inception_3a/relu_3x3_reduce"
  type: "ReLU"
  bottom: "inception_3a/3x3_reduce"
  top: "inception_3a/3x3_reduce"
}
layer {
  name: "inception_3a/3x3"
  type: "Convolution"
  bottom: "inception_3a/3x3_reduce"
  top: "inception_3a/3x3"
  param {
    lr_mult: 1
    decay_mult: 1
  }
  param {
    lr_mult: 2
    decay_mult: 0
  }
  convolution_param {
    num_output: 128
    pad: 1
    kernel_size: 3
    weight_filler {
      type: "xavier"
      std: 0.03
    }
    bias_filler {
      type: "constant"
      value: 0.2
    }
  }
}
layer {
  name: "inception_3a/relu_3x3"
  type: "ReLU"
  bottom: "inception_3a/3x3"
  top: "inception_3a/3x3"
}
layer {
  name: "inception_3a/5x5_reduce"
  type: "Convolution"
  bottom: "pool2/3x3_s2"
  top: "inception_3a/5x5_reduce"
  param {
    lr_mult: 1
    decay_mult: 1
  }
  param {
    lr_mult: 2
    decay_mult: 0
  }
  convolution_param {
    num_output: 16
    kernel_size: 1
    weight_filler {
      type: "xavier"
      std: 0.2
    }
    bias_filler {
      type: "constant"
      value: 0.2
    }
  }
}
layer {
  name: "inception_3a/relu_5x5_reduce"
  type: "ReLU"
  bottom: "inception_3a/5x5_reduce"
  top: "inception_3a/5x5_reduce"
}
layer {
  name: "inception_3a/5x5"
  type: "Convolution"
  bottom: "inception_3a/5x5_reduce"
  top: "inception_3a/5x5"
  param {
    lr_mult: 1
    decay_mult: 1
  }
  param {
    lr_mult: 2
    decay_mult: 0
  }
  convolution_param {
    num_output: 32
    pad: 2
    kernel_size: 5
    weight_filler {
      type: "xavier"
      std: 0.03
    }
    bias_filler {
      type: "constant"
      value: 0.2
    }
  }
}
layer {
  name: "inception_3a/relu_5x5"
  type: "ReLU"
  bottom: "inception_3a/5x5"
  top: "inception_3a/5x5"
}
layer {
  name: "inception_3a/pool"
  type: "Pooling"
  bottom: "pool2/3x3_s2"
  top: "inception_3a/pool"
  pooling_param {
    pool: MAX
    kernel_size: 3
    stride: 1
    pad: 1
  }
}
layer {
  name: "inception_3a/pool_proj"
  type: "Convolution"
  bottom: "inception_3a/pool"
  top: "inception_3a/pool_proj"
  param {
    lr_mult: 1
    decay_mult: 1
  }
  param {
    lr_mult: 2
    decay_mult: 0
  }
  convolution_param {
    num_output: 32
    kernel_size: 1
    weight_filler {
      type: "xavier"
      std: 0.1
    }
    bias_filler {
      type: "constant"
      value: 0.2
    }
  }
}
layer {
  name: "inception_3a/relu_pool_proj"
  type: "ReLU"
  bottom: "inception_3a/pool_proj"
  top: "inception_3a/pool_proj"
}
layer {
  name: "inception_3a/output"
  type: "Concat"
  bottom: "inception_3a/1x1"
  bottom: "inception_3a/3x3"
  bottom: "inception_3a/5x5"
  bottom: "inception_3a/pool_proj"
  top: "inception_3a/output"
}
layer {
  name: "inception_3b/1x1"
  type: "Convolution"
  bottom: "inception_3a/output"
  top: "inception_3b/1x1"
  param {
    lr_mult: 1
    decay_mult: 1
  }
  param {
    lr_mult: 2
    decay_mult: 0
  }
  convolution_param {
    num_output: 128
    kernel_size: 1
    weight_filler {
      type: "xavier"
      std: 0.03
    }
    bias_filler {
      type: "constant"
      value: 0.2
    }
  }
}
layer {
  name: "inception_3b/relu_1x1"
  type: "ReLU"
  bottom: "inception_3b/1x1"
  top: "inception_3b/1x1"
}
layer {
  name: "inception_3b/3x3_reduce"
  type: "Convolution"
  bottom: "inception_3a/output"
  top: "inception_3b/3x3_reduce"
  param {
    lr_mult: 1
    decay_mult: 1
  }
  param {
    lr_mult: 2
    decay_mult: 0
  }
  convolution_param {
    num_output: 128
    kernel_size: 1
    weight_filler {
      type: "xavier"
      std: 0.09
    }
    bias_filler {
      type: "constant"
      value: 0.2
    }
  }
}
layer {
  name: "inception_3b/relu_3x3_reduce"
  type: "ReLU"
  bottom: "inception_3b/3x3_reduce"
  top: "inception_3b/3x3_reduce"
}
layer {
  name: "inception_3b/3x3"
  type: "Convolution"
  bottom: "inception_3b/3x3_reduce"
  top: "inception_3b/3x3"
  param {
    lr_mult: 1
    decay_mult: 1
  }
  param {
    lr_mult: 2
    decay_mult: 0
  }
  convolution_param {
    num_output: 192
    pad: 1
    kernel_size: 3
    weight_filler {
      type: "xavier"
      std: 0.03
    }
    bias_filler {
      type: "constant"
      value: 0.2
    }
  }
}
layer {
  name: "inception_3b/relu_3x3"
  type: "ReLU"
  bottom: "inception_3b/3x3"
  top: "inception_3b/3x3"
}
layer {
  name: "inception_3b/5x5_reduce"
  type: "Convolution"
  bottom: "inception_3a/output"
  top: "inception_3b/5x5_reduce"
  param {
    lr_mult: 1
    decay_mult: 1
  }
  param {
    lr_mult: 2
    decay_mult: 0
  }
  convolution_param {
    num_output: 32
    kernel_size: 1
    weight_filler {
      type: "xavier"
      std: 0.2
    }
    bias_filler {
      type: "constant"
      value: 0.2
    }
  }
}
layer {
  name: "inception_3b/relu_5x5_reduce"
  type: "ReLU"
  bottom: "inception_3b/5x5_reduce"
  top: "inception_3b/5x5_reduce"
}
layer {
  name: "inception_3b/5x5"
  type: "Convolution"
  bottom: "inception_3b/5x5_reduce"
  top: "inception_3b/5x5"
  param {
    lr_mult: 1
    decay_mult: 1
  }
  param {
    lr_mult: 2
    decay_mult: 0
  }
  convolution_param {
    num_output: 96
    pad: 2
    kernel_size: 5
    weight_filler {
      type: "xavier"
      std: 0.03
    }
    bias_filler {
      type: "constant"
      value: 0.2
    }
  }
}
layer {
  name: "inception_3b/relu_5x5"
  type: "ReLU"
  bottom: "inception_3b/5x5"
  top: "inception_3b/5x5"
}
layer {
  name: "inception_3b/pool"
  type: "Pooling"
  bottom: "inception_3a/output"
  top: "inception_3b/pool"
  pooling_param {
    pool: MAX
    kernel_size: 3
    stride: 1
    pad: 1
  }
}
layer {
  name: "inception_3b/pool_proj"
  type: "Convolution"
  bottom: "inception_3b/pool"
  top: "inception_3b/pool_proj"
  param {
    lr_mult: 1
    decay_mult: 1
  }
  param {
    lr_mult: 2
    decay_mult: 0
  }
  convolution_param {
    num_output: 64
    kernel_size: 1
    weight_filler {
      type: "xavier"
      std: 0.1
    }
    bias_filler {
      type: "constant"
      value: 0.2
    }
  }
}
layer {
  name: "inception_3b/relu_pool_proj"
  type: "ReLU"
  bottom: "inception_3b/pool_proj"
  top: "inception_3b/pool_proj"
}
layer {
  name: "inception_3b/output"
  type: "Concat"
  bottom: "inception_3b/1x1"
  bottom: "inception_3b/3x3"
  bottom: "inception_3b/5x5"
  bottom: "inception_3b/pool_proj"
  top: "inception_3b/output"
}
layer {
  name: "pool3/3x3_s2"
  type: "Pooling"
  bottom: "inception_3b/output"
  top: "pool3/3x3_s2"
  pooling_param {
    pool: MAX
    kernel_size: 3
    stride: 2
  }
}
layer {
  name: "inception_4a/1x1"
  type: "Convolution"
  bottom: "pool3/3x3_s2"
  top: "inception_4a/1x1"
  param {
    lr_mult: 1
    decay_mult: 1
  }
  param {
    lr_mult: 2
    decay_mult: 0
  }
  convolution_param {
    num_output: 192
    kernel_size: 1
    weight_filler {
      type: "xavier"
      std: 0.03
    }
    bias_filler {
      type: "constant"
      value: 0.2
    }
  }
}
layer {
  name: "inception_4a/relu_1x1"
  type: "ReLU"
  bottom: "inception_4a/1x1"
  top: "inception_4a/1x1"
}
layer {
  name: "inception_4a/3x3_reduce"
  type: "Convolution"
  bottom: "pool3/3x3_s2"
  top: "inception_4a/3x3_reduce"
  param {
    lr_mult: 1
    decay_mult: 1
  }
  param {
    lr_mult: 2
    decay_mult: 0
  }
  convolution_param {
    num_output: 96
    kernel_size: 1
    weight_filler {
      type: "xavier"
      std: 0.09
    }
    bias_filler {
      type: "constant"
      value: 0.2
    }
  }
}
layer {
  name: "inception_4a/relu_3x3_reduce"
  type: "ReLU"
  bottom: "inception_4a/3x3_reduce"
  top: "inception_4a/3x3_reduce"
}
layer {
  name: "inception_4a/3x3"
  type: "Convolution"
  bottom: "inception_4a/3x3_reduce"
  top: "inception_4a/3x3"
  param {
    lr_mult: 1
    decay_mult: 1
  }
  param {
    lr_mult: 2
    decay_mult: 0
  }
  convolution_param {
    num_output: 208
    pad: 1
    kernel_size: 3
    weight_filler {
      type: "xavier"
      std: 0.03
    }
    bias_filler {
      type: "constant"
      value: 0.2
    }
  }
}
layer {
  name: "inception_4a/relu_3x3"
  type: "ReLU"
  bottom: "inception_4a/3x3"
  top: "inception_4a/3x3"
}
layer {
  name: "inception_4a/5x5_reduce"
  type: "Convolution"
  bottom: "pool3/3x3_s2"
  top: "inception_4a/5x5_reduce"
  param {
    lr_mult: 1
    decay_mult: 1
  }
  param {
    lr_mult: 2
    decay_mult: 0
  }
  convolution_param {
    num_output: 16
    kernel_size: 1
    weight_filler {
      type: "xavier"
      std: 0.2
    }
    bias_filler {
      type: "constant"
      value: 0.2
    }
  }
}
layer {
  name: "inception_4a/relu_5x5_reduce"
  type: "ReLU"
  bottom: "inception_4a/5x5_reduce"
  top: "inception_4a/5x5_reduce"
}
layer {
  name: "inception_4a/5x5"
  type: "Convolution"
  bottom: "inception_4a/5x5_reduce"
  top: "inception_4a/5x5"
  param {
    lr_mult: 1
    decay_mult: 1
  }
  param {
    lr_mult: 2
    decay_mult: 0
  }
  convolution_param {
    num_output: 48
    pad: 2
    kernel_size: 5
    weight_filler {
      type: "xavier"
      std: 0.03
    }
    bias_filler {
      type: "constant"
      value: 0.2
    }
  }
}
layer {
  name: "inception_4a/relu_5x5"
  type: "ReLU"
  bottom: "inception_4a/5x5"
  top: "inception_4a/5x5"
}
layer {
  name: "inception_4a/pool"
  type: "Pooling"
  bottom: "pool3/3x3_s2"
  top: "inception_4a/pool"
  pooling_param {
    pool: MAX
    kernel_size: 3
    stride: 1
    pad: 1
  }
}
layer {
  name: "inception_4a/pool_proj"
  type: "Convolution"
  bottom: "inception_4a/pool"
  top: "inception_4a/pool_proj"
  param {
    lr_mult: 1
    decay_mult: 1
  }
  param {
    lr_mult: 2
    decay_mult: 0
  }
  convolution_param {
    num_output: 64
    kernel_size: 1
    weight_filler {
      type: "xavier"
      std: 0.1
    }
    bias_filler {
      type: "constant"
      value: 0.2
    }
  }
}
layer {
  name: "inception_4a/relu_pool_proj"
  type: "ReLU"
  bottom: "inception_4a/pool_proj"
  top: "inception_4a/pool_proj"
}
layer {
  name: "inception_4a/output"
  type: "Concat"
  bottom: "inception_4a/1x1"
  bottom: "inception_4a/3x3"
  bottom: "inception_4a/5x5"
  bottom: "inception_4a/pool_proj"
  top: "inception_4a/output"
}
layer {
  name: "loss1/ave_pool"
  type: "Pooling"
  bottom: "inception_4a/output"
  top: "loss1/ave_pool"
  pooling_param {
    pool: AVE
    kernel_size: 5
    stride: 3
  }
}
layer {
  name: "loss1/conv"
  type: "Convolution"
  bottom: "loss1/ave_pool"
  top: "loss1/conv"
  param {
    lr_mult: 1
    decay_mult: 1
  }
  param {
    lr_mult: 2
    decay_mult: 0
  }
  convolution_param {
    num_output: 128
    kernel_size: 1
    weight_filler {
      type: "xavier"
      std: 0.08
    }
    bias_filler {
      type: "constant"
      value: 0.2
    }
  }
}
layer {
  name: "loss1/relu_conv"
  type: "ReLU"
  bottom: "loss1/conv"
  top: "loss1/conv"
}
layer {
  name: "loss1/fc"
  type: "InnerProduct"
  bottom: "loss1/conv"
  top: "loss1/fc"
  param {
    lr_mult: 1
    decay_mult: 1
  }
  param {
    lr_mult: 2
    decay_mult: 0
  }
  inner_product_param {
    num_output: 1024
    weight_filler {
      type: "xavier"
      std: 0.02
    }
    bias_filler {
      type: "constant"
      value: 0.2
    }
  }
}
layer {
  name: "loss1/relu_fc"
  type: "ReLU"
  bottom: "loss1/fc"
  top: "loss1/fc"
}
layer {
  name: "loss1/drop_fc"
  type: "Dropout"
  bottom: "loss1/fc"
  top: "loss1/fc"
  dropout_param {
    dropout_ratio: 0.7
  }
}
layer {
  name: "loss1/classifier_kaggle"
  type: "InnerProduct"
  bottom: "loss1/fc"
  top: "loss1/classifier_kaggle"
  param {
    lr_mult: 1
    decay_mult: 1
  }
  param {
    lr_mult: 2
    decay_mult: 0
  }
  inner_product_param {
    num_output: 447
    weight_filler {
      type: "xavier"
      std: 0.0009765625
    }
    bias_filler {
      type: "constant"
      value: 0
    }
  }
}
layer {
  name: "loss1/loss"
  type: "SoftmaxWithLoss"
  bottom: "loss1/classifier_kaggle"
  bottom: "label"
  top: "loss1/loss1"
  loss_weight: 0.3
}
layer {
  name: "inception_4b/1x1"
  type: "Convolution"
  bottom: "inception_4a/output"
  top: "inception_4b/1x1"
  param {
    lr_mult: 1
    decay_mult: 1
  }
  param {
    lr_mult: 2
    decay_mult: 0
  }
  convolution_param {
    num_output: 160
    kernel_size: 1
    weight_filler {
      type: "xavier"
      std: 0.03
    }
    bias_filler {
      type: "constant"
      value: 0.2
    }
  }
}
layer {
  name: "inception_4b/relu_1x1"
  type: "ReLU"
  bottom: "inception_4b/1x1"
  top: "inception_4b/1x1"
}
layer {
  name: "inception_4b/3x3_reduce"
  type: "Convolution"
  bottom: "inception_4a/output"
  top: "inception_4b/3x3_reduce"
  param {
    lr_mult: 1
    decay_mult: 1
  }
  param {
    lr_mult: 2
    decay_mult: 0
  }
  convolution_param {
    num_output: 112
    kernel_size: 1
    weight_filler {
      type: "xavier"
      std: 0.09
    }
    bias_filler {
      type: "constant"
      value: 0.2
    }
  }
}
layer {
  name: "inception_4b/relu_3x3_reduce"
  type: "ReLU"
  bottom: "inception_4b/3x3_reduce"
  top: "inception_4b/3x3_reduce"
}
layer {
  name: "inception_4b/3x3"
  type: "Convolution"
  bottom: "inception_4b/3x3_reduce"
  top: "inception_4b/3x3"
  param {
    lr_mult: 1
    decay_mult: 1
  }
  param {
    lr_mult: 2
    decay_mult: 0
  }
  convolution_param {
    num_output: 224
    pad: 1
    kernel_size: 3
    weight_filler {
      type: "xavier"
      std: 0.03
    }
    bias_filler {
      type: "constant"
      value: 0.2
    }
  }
}
layer {
  name: "inception_4b/relu_3x3"
  type: "ReLU"
  bottom: "inception_4b/3x3"
  top: "inception_4b/3x3"
}
layer {
  name: "inception_4b/5x5_reduce"
  type: "Convolution"
  bottom: "inception_4a/output"
  top: "inception_4b/5x5_reduce"
  param {
    lr_mult: 1
    decay_mult: 1
  }
  param {
    lr_mult: 2
    decay_mult: 0
  }
  convolution_param {
    num_output: 24
    kernel_size: 1
    weight_filler {
      type: "xavier"
      std: 0.2
    }
    bias_filler {
      type: "constant"
      value: 0.2
    }
  }
}
layer {
  name: "inception_4b/relu_5x5_reduce"
  type: "ReLU"
  bottom: "inception_4b/5x5_reduce"
  top: "inception_4b/5x5_reduce"
}
layer {
  name: "inception_4b/5x5"
  type: "Convolution"
  bottom: "inception_4b/5x5_reduce"
  top: "inception_4b/5x5"
  param {
    lr_mult: 1
    decay_mult: 1
  }
  param {
    lr_mult: 2
    decay_mult: 0
  }
  convolution_param {
    num_output: 64
    pad: 2
    kernel_size: 5
    weight_filler {
      type: "xavier"
      std: 0.03
    }
    bias_filler {
      type: "constant"
      value: 0.2
    }
  }
}
layer {
  name: "inception_4b/relu_5x5"
  type: "ReLU"
  bottom: "inception_4b/5x5"
  top: "inception_4b/5x5"
}
layer {
  name: "inception_4b/pool"
  type: "Pooling"
  bottom: "inception_4a/output"
  top: "inception_4b/pool"
  pooling_param {
    pool: MAX
    kernel_size: 3
    stride: 1
    pad: 1
  }
}
layer {
  name: "inception_4b/pool_proj"
  type: "Convolution"
  bottom: "inception_4b/pool"
  top: "inception_4b/pool_proj"
  param {
    lr_mult: 1
    decay_mult: 1
  }
  param {
    lr_mult: 2
    decay_mult: 0
  }
  convolution_param {
    num_output: 64
    kernel_size: 1
    weight_filler {
      type: "xavier"
      std: 0.1
    }
    bias_filler {
      type: "constant"
      value: 0.2
    }
  }
}
layer {
  name: "inception_4b/relu_pool_proj"
  type: "ReLU"
  bottom: "inception_4b/pool_proj"
  top: "inception_4b/pool_proj"
}
layer {
  name: "inception_4b/output"
  type: "Concat"
  bottom: "inception_4b/1x1"
  bottom: "inception_4b/3x3"
  bottom: "inception_4b/5x5"
  bottom: "inception_4b/pool_proj"
  top: "inception_4b/output"
}
layer {
  name: "inception_4c/1x1"
  type: "Convolution"
  bottom: "inception_4b/output"
  top: "inception_4c/1x1"
  param {
    lr_mult: 1
    decay_mult: 1
  }
  param {
    lr_mult: 2
    decay_mult: 0
  }
  convolution_param {
    num_output: 128
    kernel_size: 1
    weight_filler {
      type: "xavier"
      std: 0.03
    }
    bias_filler {
      type: "constant"
      value: 0.2
    }
  }
}
layer {
  name: "inception_4c/relu_1x1"
  type: "ReLU"
  bottom: "inception_4c/1x1"
  top: "inception_4c/1x1"
}
layer {
  name: "inception_4c/3x3_reduce"
  type: "Convolution"
  bottom: "inception_4b/output"
  top: "inception_4c/3x3_reduce"
  param {
    lr_mult: 1
    decay_mult: 1
  }
  param {
    lr_mult: 2
    decay_mult: 0
  }
  convolution_param {
    num_output: 128
    kernel_size: 1
    weight_filler {
      type: "xavier"
      std: 0.09
    }
    bias_filler {
      type: "constant"
      value: 0.2
    }
  }
}
layer {
  name: "inception_4c/relu_3x3_reduce"
  type: "ReLU"
  bottom: "inception_4c/3x3_reduce"
  top: "inception_4c/3x3_reduce"
}
layer {
  name: "inception_4c/3x3"
  type: "Convolution"
  bottom: "inception_4c/3x3_reduce"
  top: "inception_4c/3x3"
  param {
    lr_mult: 1
    decay_mult: 1
  }
  param {
    lr_mult: 2
    decay_mult: 0
  }
  convolution_param {
    num_output: 256
    pad: 1
    kernel_size: 3
    weight_filler {
      type: "xavier"
      std: 0.03
    }
    bias_filler {
      type: "constant"
      value: 0.2
    }
  }
}
layer {
  name: "inception_4c/relu_3x3"
  type: "ReLU"
  bottom: "inception_4c/3x3"
  top: "inception_4c/3x3"
}
layer {
  name: "inception_4c/5x5_reduce"
  type: "Convolution"
  bottom: "inception_4b/output"
  top: "inception_4c/5x5_reduce"
  param {
    lr_mult: 1
    decay_mult: 1
  }
  param {
    lr_mult: 2
    decay_mult: 0
  }
  convolution_param {
    num_output: 24
    kernel_size: 1
    weight_filler {
      type: "xavier"
      std: 0.2
    }
    bias_filler {
      type: "constant"
      value: 0.2
    }
  }
}
layer {
  name: "inception_4c/relu_5x5_reduce"
  type: "ReLU"
  bottom: "inception_4c/5x5_reduce"
  top: "inception_4c/5x5_reduce"
}
layer {
  name: "inception_4c/5x5"
  type: "Convolution"
  bottom: "inception_4c/5x5_reduce"
  top: "inception_4c/5x5"
  param {
    lr_mult: 1
    decay_mult: 1
  }
  param {
    lr_mult: 2
    decay_mult: 0
  }
  convolution_param {
    num_output: 64
    pad: 2
    kernel_size: 5
    weight_filler {
      type: "xavier"
      std: 0.03
    }
    bias_filler {
      type: "constant"
      value: 0.2
    }
  }
}
layer {
  name: "inception_4c/relu_5x5"
  type: "ReLU"
  bottom: "inception_4c/5x5"
  top: "inception_4c/5x5"
}
layer {
  name: "inception_4c/pool"
  type: "Pooling"
  bottom: "inception_4b/output"
  top: "inception_4c/pool"
  pooling_param {
    pool: MAX
    kernel_size: 3
    stride: 1
    pad: 1
  }
}
layer {
  name: "inception_4c/pool_proj"
  type: "Convolution"
  bottom: "inception_4c/pool"
  top: "inception_4c/pool_proj"
  param {
    lr_mult: 1
    decay_mult: 1
  }
  param {
    lr_mult: 2
    decay_mult: 0
  }
  convolution_param {
    num_output: 64
    kernel_size: 1
    weight_filler {
      type: "xavier"
      std: 0.1
    }
    bias_filler {
      type: "constant"
      value: 0.2
    }
  }
}
layer {
  name: "inception_4c/relu_pool_proj"
  type: "ReLU"
  bottom: "inception_4c/pool_proj"
  top: "inception_4c/pool_proj"
}
layer {
  name: "inception_4c/output"
  type: "Concat"
  bottom: "inception_4c/1x1"
  bottom: "inception_4c/3x3"
  bottom: "inception_4c/5x5"
  bottom: "inception_4c/pool_proj"
  top: "inception_4c/output"
}
layer {
  name: "inception_4d/1x1"
  type: "Convolution"
  bottom: "inception_4c/output"
  top: "inception_4d/1x1"
  param {
    lr_mult: 1
    decay_mult: 1
  }
  param {
    lr_mult: 2
    decay_mult: 0
  }
  convolution_param {
    num_output: 112
    kernel_size: 1
    weight_filler {
      type: "xavier"
      std: 0.03
    }
    bias_filler {
      type: "constant"
      value: 0.2
    }
  }
}
layer {
  name: "inception_4d/relu_1x1"
  type: "ReLU"
  bottom: "inception_4d/1x1"
  top: "inception_4d/1x1"
}
layer {
  name: "inception_4d/3x3_reduce"
  type: "Convolution"
  bottom: "inception_4c/output"
  top: "inception_4d/3x3_reduce"
  param {
    lr_mult: 1
    decay_mult: 1
  }
  param {
    lr_mult: 2
    decay_mult: 0
  }
  convolution_param {
    num_output: 144
    kernel_size: 1
    weight_filler {
      type: "xavier"
      std: 0.09
    }
    bias_filler {
      type: "constant"
      value: 0.2
    }
  }
}
layer {
  name: "inception_4d/relu_3x3_reduce"
  type: "ReLU"
  bottom: "inception_4d/3x3_reduce"
  top: "inception_4d/3x3_reduce"
}
layer {
  name: "inception_4d/3x3"
  type: "Convolution"
  bottom: "inception_4d/3x3_reduce"
  top: "inception_4d/3x3"
  param {
    lr_mult: 1
    decay_mult: 1
  }
  param {
    lr_mult: 2
    decay_mult: 0
  }
  convolution_param {
    num_output: 288
    pad: 1
    kernel_size: 3
    weight_filler {
      type: "xavier"
      std: 0.03
    }
    bias_filler {
      type: "constant"
      value: 0.2
    }
  }
}
layer {
  name: "inception_4d/relu_3x3"
  type: "ReLU"
  bottom: "inception_4d/3x3"
  top: "inception_4d/3x3"
}
layer {
  name: "inception_4d/5x5_reduce"
  type: "Convolution"
  bottom: "inception_4c/output"
  top: "inception_4d/5x5_reduce"
  param {
    lr_mult: 1
    decay_mult: 1
  }
  param {
    lr_mult: 2
    decay_mult: 0
  }
  convolution_param {
    num_output: 32
    kernel_size: 1
    weight_filler {
      type: "xavier"
      std: 0.2
    }
    bias_filler {
      type: "constant"
      value: 0.2
    }
  }
}
layer {
  name: "inception_4d/relu_5x5_reduce"
  type: "ReLU"
  bottom: "inception_4d/5x5_reduce"
  top: "inception_4d/5x5_reduce"
}
layer {
  name: "inception_4d/5x5"
  type: "Convolution"
  bottom: "inception_4d/5x5_reduce"
  top: "inception_4d/5x5"
  param {
    lr_mult: 1
    decay_mult: 1
  }
  param {
    lr_mult: 2
    decay_mult: 0
  }
  convolution_param {
    num_output: 64
    pad: 2
    kernel_size: 5
    weight_filler {
      type: "xavier"
      std: 0.03
    }
    bias_filler {
      type: "constant"
      value: 0.2
    }
  }
}
layer {
  name: "inception_4d/relu_5x5"
  type: "ReLU"
  bottom: "inception_4d/5x5"
  top: "inception_4d/5x5"
}
layer {
  name: "inception_4d/pool"
  type: "Pooling"
  bottom: "inception_4c/output"
  top: "inception_4d/pool"
  pooling_param {
    pool: MAX
    kernel_size: 3
    stride: 1
    pad: 1
  }
}
layer {
  name: "inception_4d/pool_proj"
  type: "Convolution"
  bottom: "inception_4d/pool"
  top: "inception_4d/pool_proj"
  param {
    lr_mult: 1
    decay_mult: 1
  }
  param {
    lr_mult: 2
    decay_mult: 0
  }
  convolution_param {
    num_output: 64
    kernel_size: 1
    weight_filler {
      type: "xavier"
      std: 0.1
    }
    bias_filler {
      type: "constant"
      value: 0.2
    }
  }
}
layer {
  name: "inception_4d/relu_pool_proj"
  type: "ReLU"
  bottom: "inception_4d/pool_proj"
  top: "inception_4d/pool_proj"
}
layer {
  name: "inception_4d/output"
  type: "Concat"
  bottom: "inception_4d/1x1"
  bottom: "inception_4d/3x3"
  bottom: "inception_4d/5x5"
  bottom: "inception_4d/pool_proj"
  top: "inception_4d/output"
}
layer {
  name: "loss2/ave_pool"
  type: "Pooling"
  bottom: "inception_4d/output"
  top: "loss2/ave_pool"
  pooling_param {
    pool: AVE
    kernel_size: 5
    stride: 3
  }
}
layer {
  name: "loss2/conv"
  type: "Convolution"
  bottom: "loss2/ave_pool"
  top: "loss2/conv"
  param {
    lr_mult: 1
    decay_mult: 1
  }
  param {
    lr_mult: 2
    decay_mult: 0
  }
  convolution_param {
    num_output: 128
    kernel_size: 1
    weight_filler {
      type: "xavier"
      std: 0.08
    }
    bias_filler {
      type: "constant"
      value: 0.2
    }
  }
}
layer {
  name: "loss2/relu_conv"
  type: "ReLU"
  bottom: "loss2/conv"
  top: "loss2/conv"
}
layer {
  name: "loss2/fc"
  type: "InnerProduct"
  bottom: "loss2/conv"
  top: "loss2/fc"
  param {
    lr_mult: 1
    decay_mult: 1
  }
  param {
    lr_mult: 2
    decay_mult: 0
  }
  inner_product_param {
    num_output: 1024
    weight_filler {
      type: "xavier"
      std: 0.02
    }
    bias_filler {
      type: "constant"
      value: 0.2
    }
  }
}
layer {
  name: "loss2/relu_fc"
  type: "ReLU"
  bottom: "loss2/fc"
  top: "loss2/fc"
}
layer {
  name: "loss2/drop_fc"
  type: "Dropout"
  bottom: "loss2/fc"
  top: "loss2/fc"
  dropout_param {
    dropout_ratio: 0.7
  }
}
layer {
  name: "loss2/classifier_kaggle"
  type: "InnerProduct"
  bottom: "loss2/fc"
  top: "loss2/classifier_kaggle"
  param {
    lr_mult: 1
    decay_mult: 1
  }
  param {
    lr_mult: 2
    decay_mult: 0
  }
  inner_product_param {
    num_output: 447
    weight_filler {
      type: "xavier"
      std: 0.0009765625
    }
    bias_filler {
      type: "constant"
      value: 0
    }
  }
}
layer {
  name: "loss2/loss"
  type: "SoftmaxWithLoss"
  bottom: "loss2/classifier_kaggle"
  bottom: "label"
  top: "loss2/loss1"
  loss_weight: 0.3
}
layer {
  name: "inception_4e/1x1"
  type: "Convolution"
  bottom: "inception_4d/output"
  top: "inception_4e/1x1"
  param {
    lr_mult: 1
    decay_mult: 1
  }
  param {
    lr_mult: 2
    decay_mult: 0
  }
  convolution_param {
    num_output: 256
    kernel_size: 1
    weight_filler {
      type: "xavier"
      std: 0.03
    }
    bias_filler {
      type: "constant"
      value: 0.2
    }
  }
}
layer {
  name: "inception_4e/relu_1x1"
  type: "ReLU"
  bottom: "inception_4e/1x1"
  top: "inception_4e/1x1"
}
layer {
  name: "inception_4e/3x3_reduce"
  type: "Convolution"
  bottom: "inception_4d/output"
  top: "inception_4e/3x3_reduce"
  param {
    lr_mult: 1
    decay_mult: 1
  }
  param {
    lr_mult: 2
    decay_mult: 0
  }
  convolution_param {
    num_output: 160
    kernel_size: 1
    weight_filler {
      type: "xavier"
      std: 0.09
    }
    bias_filler {
      type: "constant"
      value: 0.2
    }
  }
}
layer {
  name: "inception_4e/relu_3x3_reduce"
  type: "ReLU"
  bottom: "inception_4e/3x3_reduce"
  top: "inception_4e/3x3_reduce"
}
layer {
  name: "inception_4e/3x3"
  type: "Convolution"
  bottom: "inception_4e/3x3_reduce"
  top: "inception_4e/3x3"
  param {
    lr_mult: 1
    decay_mult: 1
  }
  param {
    lr_mult: 2
    decay_mult: 0
  }
  convolution_param {
    num_output: 320
    pad: 1
    kernel_size: 3
    weight_filler {
      type: "xavier"
      std: 0.03
    }
    bias_filler {
      type: "constant"
      value: 0.2
    }
  }
}
layer {
  name: "inception_4e/relu_3x3"
  type: "ReLU"
  bottom: "inception_4e/3x3"
  top: "inception_4e/3x3"
}
layer {
  name: "inception_4e/5x5_reduce"
  type: "Convolution"
  bottom: "inception_4d/output"
  top: "inception_4e/5x5_reduce"
  param {
    lr_mult: 1
    decay_mult: 1
  }
  param {
    lr_mult: 2
    decay_mult: 0
  }
  convolution_param {
    num_output: 32
    kernel_size: 1
    weight_filler {
      type: "xavier"
      std: 0.2
    }
    bias_filler {
      type: "constant"
      value: 0.2
    }
 
I1215 22:19:20.929668 25506 layer_factory.hpp:74] Creating layer data
I1215 22:19:20.929702 25506 net.cpp:84] Creating Layer data
I1215 22:19:20.929711 25506 net.cpp:338] data -> data
I1215 22:19:20.929754 25506 net.cpp:338] data -> label
I1215 22:19:20.929762 25506 net.cpp:113] Setting up data
I1215 22:19:20.929833 25506 db.cpp:34] Opened lmdb /home/coldmanck/kaggle/kaggle2_train_lmdb
I1215 22:19:20.930042 25506 data_layer.cpp:67] output data size: 128,3,224,224
I1215 22:19:20.949113 25506 net.cpp:120] Top shape: 128 3 224 224 (19267584)
I1215 22:19:20.949153 25506 net.cpp:120] Top shape: 128 (128)
I1215 22:19:20.949164 25506 layer_factory.hpp:74] Creating layer label_data_1_split
I1215 22:19:20.949184 25506 net.cpp:84] Creating Layer label_data_1_split
I1215 22:19:20.949193 25506 net.cpp:380] label_data_1_split <- label
I1215 22:19:20.949208 25506 net.cpp:338] label_data_1_split -> label_data_1_split_0
I1215 22:19:20.949223 25506 net.cpp:338] label_data_1_split -> label_data_1_split_1
I1215 22:19:20.949230 25506 net.cpp:338] label_data_1_split -> label_data_1_split_2
I1215 22:19:20.949237 25506 net.cpp:113] Setting up label_data_1_split
I1215 22:19:20.949247 25506 net.cpp:120] Top shape: 128 (128)
I1215 22:19:20.949265 25506 net.cpp:120] Top shape: 128 (128)
I1215 22:19:20.949281 25506 net.cpp:120] Top shape: 128 (128)
I1215 22:19:20.949286 25506 layer_factory.hpp:74] Creating layer conv1/7x7_s2
I1215 22:19:20.949301 25506 net.cpp:84] Creating Layer conv1/7x7_s2
I1215 22:19:20.949306 25506 net.cpp:380] conv1/7x7_s2 <- data
I1215 22:19:20.949313 25506 net.cpp:338] conv1/7x7_s2 -> conv1/7x7_s2
I1215 22:19:20.949324 25506 net.cpp:113] Setting up conv1/7x7_s2
I1215 22:19:21.268569 25506 net.cpp:120] Top shape: 128 64 112 112 (102760448)
I1215 22:19:21.268637 25506 layer_factory.hpp:74] Creating layer conv1/relu_7x7
I1215 22:19:21.268671 25506 net.cpp:84] Creating Layer conv1/relu_7x7
I1215 22:19:21.268683 25506 net.cpp:380] conv1/relu_7x7 <- conv1/7x7_s2
I1215 22:19:21.268693 25506 net.cpp:327] conv1/relu_7x7 -> conv1/7x7_s2 (in-place)
I1215 22:19:21.268704 25506 net.cpp:113] Setting up conv1/relu_7x7
I1215 22:19:21.269008 25506 net.cpp:120] Top shape: 128 64 112 112 (102760448)
I1215 22:19:21.269018 25506 layer_factory.hpp:74] Creating layer pool1/3x3_s2
I1215 22:19:21.269048 25506 net.cpp:84] Creating Layer pool1/3x3_s2
I1215 22:19:21.269062 25506 net.cpp:380] pool1/3x3_s2 <- conv1/7x7_s2
I1215 22:19:21.269073 25506 net.cpp:338] pool1/3x3_s2 -> pool1/3x3_s2
I1215 22:19:21.269079 25506 net.cpp:113] Setting up pool1/3x3_s2
I1215 22:19:21.269145 25506 net.cpp:120] Top shape: 128 64 56 56 (25690112)
I1215 22:19:21.269153 25506 layer_factory.hpp:74] Creating layer pool1/norm1
I1215 22:19:21.269177 25506 net.cpp:84] Creating Layer pool1/norm1
I1215 22:19:21.269184 25506 net.cpp:380] pool1/norm1 <- pool1/3x3_s2
I1215 22:19:21.269189 25506 net.cpp:338] pool1/norm1 -> pool1/norm1
I1215 22:19:21.269197 25506 net.cpp:113] Setting up pool1/norm1
I1215 22:19:21.269204 25506 net.cpp:120] Top shape: 128 64 56 56 (25690112)
I1215 22:19:21.269210 25506 layer_factory.hpp:74] Creating layer conv2/3x3_reduce
I1215 22:19:21.269219 25506 net.cpp:84] Creating Layer conv2/3x3_reduce
I1215 22:19:21.269224 25506 net.cpp:380] conv2/3x3_reduce <- pool1/norm1
I1215 22:19:21.269230 25506 net.cpp:338] conv2/3x3_reduce -> conv2/3x3_reduce
I1215 22:19:21.269239 25506 net.cpp:113] Setting up conv2/3x3_reduce
I1215 22:19:21.269614 25506 net.cpp:120] Top shape: 128 64 56 56 (25690112)
I1215 22:19:21.269629 25506 layer_factory.hpp:74] Creating layer conv2/relu_3x3_reduce
I1215 22:19:21.269635 25506 net.cpp:84] Creating Layer conv2/relu_3x3_reduce
I1215 22:19:21.269640 25506 net.cpp:380] conv2/relu_3x3_reduce <- conv2/3x3_reduce
I1215 22:19:21.269646 25506 net.cpp:327] conv2/relu_3x3_reduce -> conv2/3x3_reduce (in-place)
I1215 22:19:21.269652 25506 net.cpp:113] Setting up conv2/relu_3x3_reduce
I1215 22:19:21.269701 25506 net.cpp:120] Top shape: 128 64 56 56 (25690112)
I1215 22:19:21.269706 25506 layer_factory.hpp:74] Creating layer conv2/3x3
I1215 22:19:21.269716 25506 net.cpp:84] Creating Layer conv2/3x3
I1215 22:19:21.269721 25506 net.cpp:380] conv2/3x3 <- conv2/3x3_reduce
I1215 22:19:21.269726 25506 net.cpp:338] conv2/3x3 -> conv2/3x3
I1215 22:19:21.269733 25506 net.cpp:113] Setting up conv2/3x3
I1215 22:19:21.271082 25506 net.cpp:120] Top shape: 128 192 56 56 (77070336)
I1215 22:19:21.271097 25506 layer_factory.hpp:74] Creating layer conv2/relu_3x3
I1215 22:19:21.271105 25506 net.cpp:84] Creating Layer conv2/relu_3x3
I1215 22:19:21.271109 25506 net.cpp:380] conv2/relu_3x3 <- conv2/3x3
I1215 22:19:21.271114 25506 net.cpp:327] conv2/relu_3x3 -> conv2/3x3 (in-place)
I1215 22:19:21.271121 25506 net.cpp:113] Setting up conv2/relu_3x3
I1215 22:19:21.271672 25506 net.cpp:120] Top shape: 128 192 56 56 (77070336)
I1215 22:19:21.271684 25506 layer_factory.hpp:74] Creating layer conv2/norm2
I1215 22:19:21.271692 25506 net.cpp:84] Creating Layer conv2/norm2
I1215 22:19:21.271697 25506 net.cpp:380] conv2/norm2 <- conv2/3x3
I1215 22:19:21.271703 25506 net.cpp:338] conv2/norm2 -> conv2/norm2
I1215 22:19:21.271710 25506 net.cpp:113] Setting up conv2/norm2
I1215 22:19:21.271716 25506 net.cpp:120] Top shape: 128 192 56 56 (77070336)
I1215 22:19:21.271733 25506 layer_factory.hpp:74] Creating layer pool2/3x3_s2
I1215 22:19:21.271749 25506 net.cpp:84] Creating Layer pool2/3x3_s2
I1215 22:19:21.271752 25506 net.cpp:380] pool2/3x3_s2 <- conv2/norm2
I1215 22:19:21.271757 25506 net.cpp:338] pool2/3x3_s2 -> pool2/3x3_s2
I1215 22:19:21.271764 25506 net.cpp:113] Setting up pool2/3x3_s2
I1215 22:19:21.271814 25506 net.cpp:120] Top shape: 128 192 28 28 (19267584)
I1215 22:19:21.271821 25506 layer_factory.hpp:74] Creating layer pool2/3x3_s2_pool2/3x3_s2_0_split
I1215 22:19:21.271826 25506 net.cpp:84] Creating Layer pool2/3x3_s2_pool2/3x3_s2_0_split
I1215 22:19:21.271829 25506 net.cpp:380] pool2/3x3_s2_pool2/3x3_s2_0_split <- pool2/3x3_s2
I1215 22:19:21.271836 25506 net.cpp:338] pool2/3x3_s2_pool2/3x3_s2_0_split -> pool2/3x3_s2_pool2/3x3_s2_0_split_0
I1215 22:19:21.271842 25506 net.cpp:338] pool2/3x3_s2_pool2/3x3_s2_0_split -> pool2/3x3_s2_pool2/3x3_s2_0_split_1
I1215 22:19:21.271847 25506 net.cpp:338] pool2/3x3_s2_pool2/3x3_s2_0_split -> pool2/3x3_s2_pool2/3x3_s2_0_split_2
I1215 22:19:21.271852 25506 net.cpp:338] pool2/3x3_s2_pool2/3x3_s2_0_split -> pool2/3x3_s2_pool2/3x3_s2_0_split_3
I1215 22:19:21.271857 25506 net.cpp:113] Setting up pool2/3x3_s2_pool2/3x3_s2_0_split
I1215 22:19:21.271863 25506 net.cpp:120] Top shape: 128 192 28 28 (19267584)
I1215 22:19:21.271867 25506 net.cpp:120] Top shape: 128 192 28 28 (19267584)
I1215 22:19:21.271872 25506 net.cpp:120] Top shape: 128 192 28 28 (19267584)
I1215 22:19:21.271888 25506 net.cpp:120] Top shape: 128 192 28 28 (19267584)
I1215 22:19:21.271893 25506 layer_factory.hpp:74] Creating layer inception_3a/1x1
I1215 22:19:21.271903 25506 net.cpp:84] Creating Layer inception_3a/1x1
I1215 22:19:21.271913 25506 net.cpp:380] inception_3a/1x1 <- pool2/3x3_s2_pool2/3x3_s2_0_split_0
I1215 22:19:21.271917 25506 net.cpp:338] inception_3a/1x1 -> inception_3a/1x1
I1215 22:19:21.271926 25506 net.cpp:113] Setting up inception_3a/1x1
I1215 22:19:21.272586 25506 net.cpp:120] Top shape: 128 64 28 28 (6422528)
I1215 22:19:21.272600 25506 layer_factory.hpp:74] Creating layer inception_3a/relu_1x1
I1215 22:19:21.272608 25506 net.cpp:84] Creating Layer inception_3a/relu_1x1
I1215 22:19:21.272611 25506 net.cpp:380] inception_3a/relu_1x1 <- inception_3a/1x1
I1215 22:19:21.272619 25506 net.cpp:327] inception_3a/relu_1x1 -> inception_3a/1x1 (in-place)
I1215 22:19:21.272625 25506 net.cpp:113] Setting up inception_3a/relu_1x1
I1215 22:19:21.272681 25506 net.cpp:120] Top shape: 128 64 28 28 (6422528)
I1215 22:19:21.272686 25506 layer_factory.hpp:74] Creating layer inception_3a/3x3_reduce
I1215 22:19:21.272696 25506 net.cpp:84] Creating Layer inception_3a/3x3_reduce
I1215 22:19:21.272699 25506 net.cpp:380] inception_3a/3x3_reduce <- pool2/3x3_s2_pool2/3x3_s2_0_split_1
I1215 22:19:21.272706 25506 net.cpp:338] inception_3a/3x3_reduce -> inception_3a/3x3_reduce
I1215 22:19:21.272713 25506 net.cpp:113] Setting up inception_3a/3x3_reduce
I1215 22:19:21.273774 25506 net.cpp:120] Top shape: 128 96 28 28 (9633792)
I1215 22:19:21.273790 25506 layer_factory.hpp:74] Creating layer inception_3a/relu_3x3_reduce
I1215 22:19:21.273800 25506 net.cpp:84] Creating Layer inception_3a/relu_3x3_reduce
I1215 22:19:21.273804 25506 net.cpp:380] inception_3a/relu_3x3_reduce <- inception_3a/3x3_reduce
I1215 22:19:21.273813 25506 net.cpp:327] inception_3a/relu_3x3_reduce -> inception_3a/3x3_reduce (in-place)
I1215 22:19:21.273818 25506 net.cpp:113] Setting up inception_3a/relu_3x3_reduce
I1215 22:19:21.273870 25506 net.cpp:120] Top shape: 128 96 28 28 (9633792)
I1215 22:19:21.273876 25506 layer_factory.hpp:74] Creating layer inception_3a/3x3
I1215 22:19:21.273885 25506 net.cpp:84] Creating Layer inception_3a/3x3
I1215 22:19:21.273890 25506 net.cpp:380] inception_3a/3x3 <- inception_3a/3x3_reduce
I1215 22:19:21.273895 25506 net.cpp:338] inception_3a/3x3 -> inception_3a/3x3
I1215 22:19:21.273901 25506 net.cpp:113] Setting up inception_3a/3x3
I1215 22:19:21.275717 25506 net.cpp:120] Top shape: 128 128 28 28 (12845056)
I1215 22:19:21.275730 25506 layer_factory.hpp:74] Creating layer inception_3a/relu_3x3
I1215 22:19:21.275741 25506 net.cpp:84] Creating Layer inception_3a/relu_3x3
I1215 22:19:21.275751 25506 net.cpp:380] inception_3a/relu_3x3 <- inception_3a/3x3
I1215 22:19:21.275758 25506 net.cpp:327] inception_3a/relu_3x3 -> inception_3a/3x3 (in-place)
I1215 22:19:21.275764 25506 net.cpp:113] Setting up inception_3a/relu_3x3
I1215 22:19:21.276054 25506 net.cpp:120] Top shape: 128 128 28 28 (12845056)
I1215 22:19:21.276064 25506 layer_factory.hpp:74] Creating layer inception_3a/5x5_reduce
I1215 22:19:21.276073 25506 net.cpp:84] Creating Layer inception_3a/5x5_reduce
I1215 22:19:21.276077 25506 net.cpp:380] inception_3a/5x5_reduce <- pool2/3x3_s2_pool2/3x3_s2_0_split_2
I1215 22:19:21.276083 25506 net.cpp:338] inception_3a/5x5_reduce -> inception_3a/5x5_reduce
I1215 22:19:21.276093 25506 net.cpp:113] Setting up inception_3a/5x5_reduce
I1215 22:19:21.276525 25506 net.cpp:120] Top shape: 128 16 28 28 (1605632)
I1215 22:19:21.276540 25506 layer_factory.hpp:74] Creating layer inception_3a/relu_5x5_reduce
I1215 22:19:21.276546 25506 net.cpp:84] Creating Layer inception_3a/relu_5x5_reduce
I1215 22:19:21.276551 25506 net.cpp:380] inception_3a/relu_5x5_reduce <- inception_3a/5x5_reduce
I1215 22:19:21.276558 25506 net.cpp:327] inception_3a/relu_5x5_reduce -> inception_3a/5x5_reduce (in-place)
I1215 22:19:21.276564 25506 net.cpp:113] Setting up inception_3a/relu_5x5_reduce
I1215 22:19:21.276638 25506 net.cpp:120] Top shape: 128 16 28 28 (1605632)
I1215 22:19:21.276645 25506 layer_factory.hpp:74] Creating layer inception_3a/5x5
I1215 22:19:21.276654 25506 net.cpp:84] Creating Layer inception_3a/5x5
I1215 22:19:21.276657 25506 net.cpp:380] inception_3a/5x5 <- inception_3a/5x5_reduce
I1215 22:19:21.276664 25506 net.cpp:338] inception_3a/5x5 -> inception_3a/5x5
I1215 22:19:21.276671 25506 net.cpp:113] Setting up inception_3a/5x5
I1215 22:19:21.277158 25506 net.cpp:120] Top shape: 128 32 28 28 (3211264)
I1215 22:19:21.277173 25506 layer_factory.hpp:74] Creating layer inception_3a/relu_5x5
I1215 22:19:21.277181 25506 net.cpp:84] Creating Layer inception_3a/relu_5x5
I1215 22:19:21.277186 25506 net.cpp:380] inception_3a/relu_5x5 <- inception_3a/5x5
I1215 22:19:21.277192 25506 net.cpp:327] inception_3a/relu_5x5 -> inception_3a/5x5 (in-place)
I1215 22:19:21.277199 25506 net.cpp:113] Setting up inception_3a/relu_5x5
I1215 22:19:21.277261 25506 net.cpp:120] Top shape: 128 32 28 28 (3211264)
I1215 22:19:21.277267 25506 layer_factory.hpp:74] Creating layer inception_3a/pool
I1215 22:19:21.277273 25506 layer_factory.cpp:56] CUDNN does not support padding or multiple tops. Using Caffe's own pooling layer.
I1215 22:19:21.277281 25506 net.cpp:84] Creating Layer inception_3a/pool
I1215 22:19:21.277286 25506 net.cpp:380] inception_3a/pool <- pool2/3x3_s2_pool2/3x3_s2_0_split_3
I1215 22:19:21.277292 25506 net.cpp:338] inception_3a/pool -> inception_3a/pool
I1215 22:19:21.277297 25506 net.cpp:113] Setting up inception_3a/pool
I1215 22:19:21.277305 25506 net.cpp:120] Top shape: 128 192 28 28 (19267584)
I1215 22:19:21.277309 25506 layer_factory.hpp:74] Creating layer inception_3a/pool_proj
I1215 22:19:21.277317 25506 net.cpp:84] Creating Layer inception_3a/pool_proj
I1215 22:19:21.277319 25506 net.cpp:380] inception_3a/pool_proj <- inception_3a/pool
I1215 22:19:21.277326 25506 net.cpp:338] inception_3a/pool_proj -> inception_3a/pool_proj
I1215 22:19:21.277333 25506 net.cpp:113] Setting up inception_3a/pool_proj
I1215 22:19:21.277765 25506 net.cpp:120] Top shape: 128 32 28 28 (3211264)
I1215 22:19:21.277779 25506 layer_factory.hpp:74] Creating layer inception_3a/relu_pool_proj
I1215 22:19:21.277787 25506 net.cpp:84] Creating Layer inception_3a/relu_pool_proj
I1215 22:19:21.277791 25506 net.cpp:380] inception_3a/relu_pool_proj <- inception_3a/pool_proj
I1215 22:19:21.277797 25506 net.cpp:327] inception_3a/relu_pool_proj -> inception_3a/pool_proj (in-place)
I1215 22:19:21.277802 25506 net.cpp:113] Setting up inception_3a/relu_pool_proj
I1215 22:19:21.277858 25506 net.cpp:120] Top shape: 128 32 28 28 (3211264)
I1215 22:19:21.277863 25506 layer_factory.hpp:74] Creating layer inception_3a/output
I1215 22:19:21.277885 25506 net.cpp:84] Creating Layer inception_3a/output
I1215 22:19:21.277890 25506 net.cpp:380] inception_3a/output <- inception_3a/1x1
I1215 22:19:21.277895 25506 net.cpp:380] inception_3a/output <- inception_3a/3x3
I1215 22:19:21.277900 25506 net.cpp:380] inception_3a/output <- inception_3a/5x5
I1215 22:19:21.277904 25506 net.cpp:380] inception_3a/output <- inception_3a/pool_proj
I1215 22:19:21.277909 25506 net.cpp:338] inception_3a/output -> inception_3a/output
I1215 22:19:21.277916 25506 net.cpp:113] Setting up inception_3a/output
I1215 22:19:21.277923 25506 net.cpp:120] Top shape: 128 256 28 28 (25690112)
I1215 22:19:21.277927 25506 layer_factory.hpp:74] Creating layer inception_3a/output_inception_3a/output_0_split
I1215 22:19:21.277932 25506 net.cpp:84] Creating Layer inception_3a/output_inception_3a/output_0_split
I1215 22:19:21.277935 25506 net.cpp:380] inception_3a/output_inception_3a/output_0_split <- inception_3a/output
I1215 22:19:21.277941 25506 net.cpp:338] inception_3a/output_inception_3a/output_0_split -> inception_3a/output_inception_3a/output_0_split_0
I1215 22:19:21.277948 25506 net.cpp:338] inception_3a/output_inception_3a/output_0_split -> inception_3a/output_inception_3a/output_0_split_1
I1215 22:19:21.277953 25506 net.cpp:338] inception_3a/output_inception_3a/output_0_split -> inception_3a/output_inception_3a/output_0_split_2
I1215 22:19:21.277958 25506 net.cpp:338] inception_3a/output_inception_3a/output_0_split -> inception_3a/output_inception_3a/output_0_split_3
I1215 22:19:21.277963 25506 net.cpp:113] Setting up inception_3a/output_inception_3a/output_0_split
I1215 22:19:21.277969 25506 net.cpp:120] Top shape: 128 256 28 28 (25690112)
I1215 22:19:21.277974 25506 net.cpp:120] Top shape: 128 256 28 28 (25690112)
I1215 22:19:21.277978 25506 net.cpp:120] Top shape: 128 256 28 28 (25690112)
I1215 22:19:21.277982 25506 net.cpp:120] Top shape: 128 256 28 28 (25690112)
I1215 22:19:21.277986 25506 layer_factory.hpp:74] Creating layer inception_3b/1x1
I1215 22:19:21.277993 25506 net.cpp:84] Creating Layer inception_3b/1x1
I1215 22:19:21.277997 25506 net.cpp:380] inception_3b/1x1 <- inception_3a/output_inception_3a/output_0_split_0
I1215 22:19:21.278003 25506 net.cpp:338] inception_3b/1x1 -> inception_3b/1x1
I1215 22:19:21.278009 25506 net.cpp:113] Setting up inception_3b/1x1
I1215 22:19:21.278715 25506 net.cpp:120] Top shape: 128 128 28 28 (12845056)
I1215 22:19:21.278730 25506 layer_factory.hpp:74] Creating layer inception_3b/relu_1x1
I1215 22:19:21.278736 25506 net.cpp:84] Creating Layer inception_3b/relu_1x1
I1215 22:19:21.278741 25506 net.cpp:380] inception_3b/relu_1x1 <- inception_3b/1x1
I1215 22:19:21.278748 25506 net.cpp:327] inception_3b/relu_1x1 -> inception_3b/1x1 (in-place)
I1215 22:19:21.278753 25506 net.cpp:113] Setting up inception_3b/relu_1x1
I1215 22:19:21.278978 25506 net.cpp:120] Top shape: 128 128 28 28 (12845056)
I1215 22:19:21.278998 25506 layer_factory.hpp:74] Creating layer inception_3b/3x3_reduce
I1215 22:19:21.279007 25506 net.cpp:84] Creating Layer inception_3b/3x3_reduce
I1215 22:19:21.279012 25506 net.cpp:380] inception_3b/3x3_reduce <- inception_3a/output_inception_3a/output_0_split_1
I1215 22:19:21.279018 25506 net.cpp:338] inception_3b/3x3_reduce -> inception_3b/3x3_reduce
I1215 22:19:21.279026 25506 net.cpp:113] Setting up inception_3b/3x3_reduce
I1215 22:19:21.279749 25506 net.cpp:120] Top shape: 128 128 28 28 (12845056)
I1215 22:19:21.279763 25506 layer_factory.hpp:74] Creating layer inception_3b/relu_3x3_reduce
I1215 22:19:21.279772 25506 net.cpp:84] Creating Layer inception_3b/relu_3x3_reduce
I1215 22:19:21.279777 25506 net.cpp:380] inception_3b/relu_3x3_reduce <- inception_3b/3x3_reduce
I1215 22:19:21.279783 25506 net.cpp:327] inception_3b/relu_3x3_reduce -> inception_3b/3x3_reduce (in-place)
I1215 22:19:21.279788 25506 net.cpp:113] Setting up inception_3b/relu_3x3_reduce
I1215 22:19:21.279850 25506 net.cpp:120] Top shape: 128 128 28 28 (12845056)
I1215 22:19:21.279855 25506 layer_factory.hpp:74] Creating layer inception_3b/3x3
I1215 22:19:21.279870 25506 net.cpp:84] Creating Layer inception_3b/3x3
I1215 22:19:21.279881 25506 net.cpp:380] inception_3b/3x3 <- inception_3b/3x3_reduce
I1215 22:19:21.279888 25506 net.cpp:338] inception_3b/3x3 -> inception_3b/3x3
I1215 22:19:21.279896 25506 net.cpp:113] Setting up inception_3b/3x3
I1215 22:19:21.287346 25506 net.cpp:120] Top shape: 128 192 28 28 (19267584)
I1215 22:19:21.287363 25506 layer_factory.hpp:74] Creating layer inception_3b/relu_3x3
I1215 22:19:21.287369 25506 net.cpp:84] Creating Layer inception_3b/relu_3x3
I1215 22:19:21.287374 25506 net.cpp:380] inception_3b/relu_3x3 <- inception_3b/3x3
I1215 22:19:21.287380 25506 net.cpp:327] inception_3b/relu_3x3 -> inception_3b/3x3 (in-place)
I1215 22:19:21.287387 25506 net.cpp:113] Setting up inception_3b/relu_3x3
I1215 22:19:21.287442 25506 net.cpp:120] Top shape: 128 192 28 28 (19267584)
I1215 22:19:21.287447 25506 layer_factory.hpp:74] Creating layer inception_3b/5x5_reduce
I1215 22:19:21.287457 25506 net.cpp:84] Creating Layer inception_3b/5x5_reduce
I1215 22:19:21.287462 25506 net.cpp:380] inception_3b/5x5_reduce <- inception_3a/output_inception_3a/output_0_split_2
I1215 22:19:21.287469 25506 net.cpp:338] inception_3b/5x5_reduce -> inception_3b/5x5_reduce
I1215 22:19:21.287477 25506 net.cpp:113] Setting up inception_3b/5x5_reduce
I1215 22:19:21.287914 25506 net.cpp:120] Top shape: 128 32 28 28 (3211264)
I1215 22:19:21.287930 25506 layer_factory.hpp:74] Creating layer inception_3b/relu_5x5_reduce
I1215 22:19:21.287936 25506 net.cpp:84] Creating Layer inception_3b/relu_5x5_reduce
I1215 22:19:21.287940 25506 net.cpp:380] inception_3b/relu_5x5_reduce <- inception_3b/5x5_reduce
I1215 22:19:21.287945 25506 net.cpp:327] inception_3b/relu_5x5_reduce -> inception_3b/5x5_reduce (in-place)
I1215 22:19:21.287951 25506 net.cpp:113] Setting up inception_3b/relu_5x5_reduce
I1215 22:19:21.288007 25506 net.cpp:120] Top shape: 128 32 28 28 (3211264)
I1215 22:19:21.288012 25506 layer_factory.hpp:74] Creating layer inception_3b/5x5
I1215 22:19:21.288018 25506 net.cpp:84] Creating Layer inception_3b/5x5
I1215 22:19:21.288022 25506 net.cpp:380] inception_3b/5x5 <- inception_3b/5x5_reduce
I1215 22:19:21.288029 25506 net.cpp:338] inception_3b/5x5 -> inception_3b/5x5
I1215 22:19:21.288039 25506 net.cpp:113] Setting up inception_3b/5x5
I1215 22:19:21.289109 25506 net.cpp:120] Top shape: 128 96 28 28 (9633792)
I1215 22:19:21.289124 25506 layer_factory.hpp:74] Creating layer inception_3b/relu_5x5
I1215 22:19:21.289130 25506 net.cpp:84] Creating Layer inception_3b/relu_5x5
I1215 22:19:21.289134 25506 net.cpp:380] inception_3b/relu_5x5 <- inception_3b/5x5
I1215 22:19:21.289141 25506 net.cpp:327] inception_3b/relu_5x5 -> inception_3b/5x5 (in-place)
I1215 22:19:21.289147 25506 net.cpp:113] Setting up inception_3b/relu_5x5
I1215 22:19:21.289361 25506 net.cpp:120] Top shape: 128 96 28 28 (9633792)
I1215 22:19:21.289371 25506 layer_factory.hpp:74] Creating layer inception_3b/pool
I1215 22:19:21.289376 25506 layer_factory.cpp:56] CUDNN does not support padding or multiple tops. Using Caffe's own pooling layer.
I1215 22:19:21.289381 25506 net.cpp:84] Creating Layer inception_3b/pool
I1215 22:19:21.289386 25506 net.cpp:380] inception_3b/pool <- inception_3a/output_inception_3a/output_0_split_3
I1215 22:19:21.289392 25506 net.cpp:338] inception_3b/pool -> inception_3b/pool
I1215 22:19:21.289399 25506 net.cpp:113] Setting up inception_3b/pool
I1215 22:19:21.289407 25506 net.cpp:120] Top shape: 128 256 28 28 (25690112)
I1215 22:19:21.289412 25506 layer_factory.hpp:74] Creating layer inception_3b/pool_proj
I1215 22:19:21.289420 25506 net.cpp:84] Creating Layer inception_3b/pool_proj
I1215 22:19:21.289425 25506 net.cpp:380] inception_3b/pool_proj <- inception_3b/pool
I1215 22:19:21.289432 25506 net.cpp:338] inception_3b/pool_proj -> inception_3b/pool_proj
I1215 22:19:21.289438 25506 net.cpp:113] Setting up inception_3b/pool_proj
I1215 22:19:21.289939 25506 net.cpp:120] Top shape: 128 64 28 28 (6422528)
I1215 22:19:21.289953 25506 layer_factory.hpp:74] Creating layer inception_3b/relu_pool_proj
I1215 22:19:21.289965 25506 net.cpp:84] Creating Layer inception_3b/relu_pool_proj
I1215 22:19:21.289976 25506 net.cpp:380] inception_3b/relu_pool_proj <- inception_3b/pool_proj
I1215 22:19:21.289983 25506 net.cpp:327] inception_3b/relu_pool_proj -> inception_3b/pool_proj (in-place)
I1215 22:19:21.289988 25506 net.cpp:113] Setting up inception_3b/relu_pool_proj
I1215 22:19:21.290045 25506 net.cpp:120] Top shape: 128 64 28 28 (6422528)
I1215 22:19:21.290050 25506 layer_factory.hpp:74] Creating layer inception_3b/output
I1215 22:19:21.290060 25506 net.cpp:84] Creating Layer inception_3b/output
I1215 22:19:21.290063 25506 net.cpp:380] inception_3b/output <- inception_3b/1x1
I1215 22:19:21.290067 25506 net.cpp:380] inception_3b/output <- inception_3b/3x3
I1215 22:19:21.290072 25506 net.cpp:380] inception_3b/output <- inception_3b/5x5
I1215 22:19:21.290076 25506 net.cpp:380] inception_3b/output <- inception_3b/pool_proj
I1215 22:19:21.290081 25506 net.cpp:338] inception_3b/output -> inception_3b/output
I1215 22:19:21.290087 25506 net.cpp:113] Setting up inception_3b/output
I1215 22:19:21.290093 25506 net.cpp:120] Top shape: 128 480 28 28 (48168960)
I1215 22:19:21.290097 25506 layer_factory.hpp:74] Creating layer pool3/3x3_s2
I1215 22:19:21.290102 25506 net.cpp:84] Creating Layer pool3/3x3_s2
I1215 22:19:21.290107 25506 net.cpp:380] pool3/3x3_s2 <- inception_3b/output
I1215 22:19:21.290113 25506 net.cpp:338] pool3/3x3_s2 -> pool3/3x3_s2
I1215 22:19:21.290119 25506 net.cpp:113] Setting up pool3/3x3_s2
I1215 22:19:21.290179 25506 net.cpp:120] Top shape: 128 480 14 14 (12042240)
I1215 22:19:21.290186 25506 layer_factory.hpp:74] Creating layer pool3/3x3_s2_pool3/3x3_s2_0_split
I1215 22:19:21.290194 25506 net.cpp:84] Creating Layer pool3/3x3_s2_pool3/3x3_s2_0_split
I1215 22:19:21.290197 25506 net.cpp:380] pool3/3x3_s2_pool3/3x3_s2_0_split <- pool3/3x3_s2
I1215 22:19:21.290202 25506 net.cpp:338] pool3/3x3_s2_pool3/3x3_s2_0_split -> pool3/3x3_s2_pool3/3x3_s2_0_split_0
I1215 22:19:21.290208 25506 net.cpp:338] pool3/3x3_s2_pool3/3x3_s2_0_split -> pool3/3x3_s2_pool3/3x3_s2_0_split_1
I1215 22:19:21.290215 25506 net.cpp:338] pool3/3x3_s2_pool3/3x3_s2_0_split -> pool3/3x3_s2_pool3/3x3_s2_0_split_2
I1215 22:19:21.290220 25506 net.cpp:338] pool3/3x3_s2_pool3/3x3_s2_0_split -> pool3/3x3_s2_pool3/3x3_s2_0_split_3
I1215 22:19:21.290225 25506 net.cpp:113] Setting up pool3/3x3_s2_pool3/3x3_s2_0_split
I1215 22:19:21.290231 25506 net.cpp:120] Top shape: 128 480 14 14 (12042240)
I1215 22:19:21.290236 25506 net.cpp:120] Top shape: 128 480 14 14 (12042240)
I1215 22:19:21.290241 25506 net.cpp:120] Top shape: 128 480 14 14 (12042240)
I1215 22:19:21.290244 25506 net.cpp:120] Top shape: 128 480 14 14 (12042240)
I1215 22:19:21.290248 25506 layer_factory.hpp:74] Creating layer inception_4a/1x1
I1215 22:19:21.290256 25506 net.cpp:84] Creating Layer inception_4a/1x1
I1215 22:19:21.290259 25506 net.cpp:380] inception_4a/1x1 <- pool3/3x3_s2_pool3/3x3_s2_0_split_0
I1215 22:19:21.290266 25506 net.cpp:338] inception_4a/1x1 -> inception_4a/1x1
I1215 22:19:21.290272 25506 net.cpp:113] Setting up inception_4a/1x1
I1215 22:19:21.291481 25506 net.cpp:120] Top shape: 128 192 14 14 (4816896)
I1215 22:19:21.291494 25506 layer_factory.hpp:74] Creating layer inception_4a/relu_1x1
I1215 22:19:21.291501 25506 net.cpp:84] Creating Layer inception_4a/relu_1x1
I1215 22:19:21.291507 25506 net.cpp:380] inception_4a/relu_1x1 <- inception_4a/1x1
I1215 22:19:21.291512 25506 net.cpp:327] inception_4a/relu_1x1 -> inception_4a/1x1 (in-place)
I1215 22:19:21.291517 25506 net.cpp:113] Setting up inception_4a/relu_1x1
I1215 22:19:21.291733 25506 net.cpp:120] Top shape: 128 192 14 14 (4816896)
I1215 22:19:21.291743 25506 layer_factory.hpp:74] Creating layer inception_4a/3x3_reduce
I1215 22:19:21.291751 25506 net.cpp:84] Creating Layer inception_4a/3x3_reduce
I1215 22:19:21.291756 25506 net.cpp:380] inception_4a/3x3_reduce <- pool3/3x3_s2_pool3/3x3_s2_0_split_1
I1215 22:19:21.291762 25506 net.cpp:338] inception_4a/3x3_reduce -> inception_4a/3x3_reduce
I1215 22:19:21.291774 25506 net.cpp:113] Setting up inception_4a/3x3_reduce
I1215 22:19:21.292551 25506 net.cpp:120] Top shape: 128 96 14 14 (2408448)
I1215 22:19:21.292568 25506 layer_factory.hpp:74] Creating layer inception_4a/relu_3x3_reduce
I1215 22:19:21.292577 25506 net.cpp:84] Creating Layer inception_4a/relu_3x3_reduce
I1215 22:19:21.292582 25506 net.cpp:380] inception_4a/relu_3x3_reduce <- inception_4a/3x3_reduce
I1215 22:19:21.292587 25506 net.cpp:327] inception_4a/relu_3x3_reduce -> inception_4a/3x3_reduce (in-place)
I1215 22:19:21.292593 25506 net.cpp:113] Setting up inception_4a/relu_3x3_reduce
I1215 22:19:21.292649 25506 net.cpp:120] Top shape: 128 96 14 14 (2408448)
I1215 22:19:21.292654 25506 layer_factory.hpp:74] Creating layer inception_4a/3x3
I1215 22:19:21.292662 25506 net.cpp:84] Creating Layer inception_4a/3x3
I1215 22:19:21.292667 25506 net.cpp:380] inception_4a/3x3 <- inception_4a/3x3_reduce
I1215 22:19:21.292675 25506 net.cpp:338] inception_4a/3x3 -> inception_4a/3x3
I1215 22:19:21.292680 25506 net.cpp:113] Setting up inception_4a/3x3
I1215 22:19:21.294709 25506 net.cpp:120] Top shape: 128 208 14 14 (5218304)
I1215 22:19:21.294723 25506 layer_factory.hpp:74] Creating layer inception_4a/relu_3x3
I1215 22:19:21.294731 25506 net.cpp:84] Creating Layer inception_4a/relu_3x3
I1215 22:19:21.294735 25506 net.cpp:380] inception_4a/relu_3x3 <- inception_4a/3x3
I1215 22:19:21.294741 25506 net.cpp:327] inception_4a/relu_3x3 -> inception_4a/3x3 (in-place)
I1215 22:19:21.294747 25506 net.cpp:113] Setting up inception_4a/relu_3x3
I1215 22:19:21.294802 25506 net.cpp:120] Top shape: 128 208 14 14 (5218304)
I1215 22:19:21.294807 25506 layer_factory.hpp:74] Creating layer inception_4a/5x5_reduce
I1215 22:19:21.294814 25506 net.cpp:84] Creating Layer inception_4a/5x5_reduce
I1215 22:19:21.294818 25506 net.cpp:380] inception_4a/5x5_reduce <- pool3/3x3_s2_pool3/3x3_s2_0_split_2
I1215 22:19:21.294826 25506 net.cpp:338] inception_4a/5x5_reduce -> inception_4a/5x5_reduce
I1215 22:19:21.294832 25506 net.cpp:113] Setting up inception_4a/5x5_reduce
I1215 22:19:21.295248 25506 net.cpp:120] Top shape: 128 16 14 14 (401408)
I1215 22:19:21.295259 25506 layer_factory.hpp:74] Creating layer inception_4a/relu_5x5_reduce
I1215 22:19:21.295269 25506 net.cpp:84] Creating Layer inception_4a/relu_5x5_reduce
I1215 22:19:21.295274 25506 net.cpp:380] inception_4a/relu_5x5_reduce <- inception_4a/5x5_reduce
I1215 22:19:21.295280 25506 net.cpp:327] inception_4a/relu_5x5_reduce -> inception_4a/5x5_reduce (in-place)
I1215 22:19:21.295286 25506 net.cpp:113] Setting up inception_4a/relu_5x5_reduce
I1215 22:19:21.295346 25506 net.cpp:120] Top shape: 128 16 14 14 (401408)
I1215 22:19:21.295351 25506 layer_factory.hpp:74] Creating layer inception_4a/5x5
I1215 22:19:21.295361 25506 net.cpp:84] Creating Layer inception_4a/5x5
I1215 22:19:21.295366 25506 net.cpp:380] inception_4a/5x5 <- inception_4a/5x5_reduce
I1215 22:19:21.295372 25506 net.cpp:338] inception_4a/5x5 -> inception_4a/5x5
I1215 22:19:21.295377 25506 net.cpp:113] Setting up inception_4a/5x5
I1215 22:19:21.295900 25506 net.cpp:120] Top shape: 128 48 14 14 (1204224)
I1215 22:19:21.295914 25506 layer_factory.hpp:74] Creating layer inception_4a/relu_5x5
I1215 22:19:21.295922 25506 net.cpp:84] Creating Layer inception_4a/relu_5x5
I1215 22:19:21.295927 25506 net.cpp:380] inception_4a/relu_5x5 <- inception_4a/5x5
I1215 22:19:21.295931 25506 net.cpp:327] inception_4a/relu_5x5 -> inception_4a/5x5 (in-place)
I1215 22:19:21.295938 25506 net.cpp:113] Setting up inception_4a/relu_5x5
I1215 22:19:21.296159 25506 net.cpp:120] Top shape: 128 48 14 14 (1204224)
I1215 22:19:21.296169 25506 layer_factory.hpp:74] Creating layer inception_4a/pool
I1215 22:19:21.296172 25506 layer_factory.cpp:56] CUDNN does not support padding or multiple tops. Using Caffe's own pooling layer.
I1215 22:19:21.296177 25506 net.cpp:84] Creating Layer inception_4a/pool
I1215 22:19:21.296182 25506 net.cpp:380] inception_4a/pool <- pool3/3x3_s2_pool3/3x3_s2_0_split_3
I1215 22:19:21.296190 25506 net.cpp:338] inception_4a/pool -> inception_4a/pool
I1215 22:19:21.296201 25506 net.cpp:113] Setting up inception_4a/pool
I1215 22:19:21.296216 25506 net.cpp:120] Top shape: 128 480 14 14 (12042240)
I1215 22:19:21.296219 25506 layer_factory.hpp:74] Creating layer inception_4a/pool_proj
I1215 22:19:21.296228 25506 net.cpp:84] Creating Layer inception_4a/pool_proj
I1215 22:19:21.296232 25506 net.cpp:380] inception_4a/pool_proj <- inception_4a/pool
I1215 22:19:21.296239 25506 net.cpp:338] inception_4a/pool_proj -> inception_4a/pool_proj
I1215 22:19:21.296246 25506 net.cpp:113] Setting up inception_4a/pool_proj
I1215 22:19:21.296882 25506 net.cpp:120] Top shape: 128 64 14 14 (1605632)
I1215 22:19:21.296895 25506 layer_factory.hpp:74] Creating layer inception_4a/relu_pool_proj
I1215 22:19:21.296900 25506 net.cpp:84] Creating Layer inception_4a/relu_pool_proj
I1215 22:19:21.296905 25506 net.cpp:380] inception_4a/relu_pool_proj <- inception_4a/pool_proj
I1215 22:19:21.296912 25506 net.cpp:327] inception_4a/relu_pool_proj -> inception_4a/pool_proj (in-place)
I1215 22:19:21.296918 25506 net.cpp:113] Setting up inception_4a/relu_pool_proj
I1215 22:19:21.296974 25506 net.cpp:120] Top shape: 128 64 14 14 (1605632)
I1215 22:19:21.296979 25506 layer_factory.hpp:74] Creating layer inception_4a/output
I1215 22:19:21.296988 25506 net.cpp:84] Creating Layer inception_4a/output
I1215 22:19:21.296991 25506 net.cpp:380] inception_4a/output <- inception_4a/1x1
I1215 22:19:21.296996 25506 net.cpp:380] inception_4a/output <- inception_4a/3x3
I1215 22:19:21.297000 25506 net.cpp:380] inception_4a/output <- inception_4a/5x5
I1215 22:19:21.297004 25506 net.cpp:380] inception_4a/output <- inception_4a/pool_proj
I1215 22:19:21.297009 25506 net.cpp:338] inception_4a/output -> inception_4a/output
I1215 22:19:21.297015 25506 net.cpp:113] Setting up inception_4a/output
I1215 22:19:21.297021 25506 net.cpp:120] Top shape: 128 512 14 14 (12845056)
I1215 22:19:21.297026 25506 layer_factory.hpp:74] Creating layer inception_4a/output_inception_4a/output_0_split
I1215 22:19:21.297034 25506 net.cpp:84] Creating Layer inception_4a/output_inception_4a/output_0_split
I1215 22:19:21.297039 25506 net.cpp:380] inception_4a/output_inception_4a/output_0_split <- inception_4a/output
I1215 22:19:21.297044 25506 net.cpp:338] inception_4a/output_inception_4a/output_0_split -> inception_4a/output_inception_4a/output_0_split_0
I1215 22:19:21.297049 25506 net.cpp:338] inception_4a/output_inception_4a/output_0_split -> inception_4a/output_inception_4a/output_0_split_1
I1215 22:19:21.297060 25506 net.cpp:338] inception_4a/output_inception_4a/output_0_split -> inception_4a/output_inception_4a/output_0_split_2
I1215 22:19:21.297067 25506 net.cpp:338] inception_4a/output_inception_4a/output_0_split -> inception_4a/output_inception_4a/output_0_split_3
I1215 22:19:21.297072 25506 net.cpp:338] inception_4a/output_inception_4a/output_0_split -> inception_4a/output_inception_4a/output_0_split_4
I1215 22:19:21.297090 25506 net.cpp:113] Setting up inception_4a/output_inception_4a/output_0_split
I1215 22:19:21.297096 25506 net.cpp:120] Top shape: 128 512 14 14 (12845056)
I1215 22:19:21.297101 25506 net.cpp:120] Top shape: 128 512 14 14 (12845056)
I1215 22:19:21.297104 25506 net.cpp:120] Top shape: 128 512 14 14 (12845056)
I1215 22:19:21.297109 25506 net.cpp:120] Top shape: 128 512 14 14 (12845056)
I1215 22:19:21.297113 25506 net.cpp:120] Top shape: 128 512 14 14 (12845056)
I1215 22:19:21.297117 25506 layer_factory.hpp:74] Creating layer loss1/ave_pool
I1215 22:19:21.297127 25506 net.cpp:84] Creating Layer loss1/ave_pool
I1215 22:19:21.297130 25506 net.cpp:380] loss1/ave_pool <- inception_4a/output_inception_4a/output_0_split_0
I1215 22:19:21.297137 25506 net.cpp:338] loss1/ave_pool -> loss1/ave_pool
I1215 22:19:21.297143 25506 net.cpp:113] Setting up loss1/ave_pool
I1215 22:19:21.297199 25506 net.cpp:120] Top shape: 128 512 4 4 (1048576)
I1215 22:19:21.297207 25506 layer_factory.hpp:74] Creating layer loss1/conv
I1215 22:19:21.297217 25506 net.cpp:84] Creating Layer loss1/conv
I1215 22:19:21.297221 25506 net.cpp:380] loss1/conv <- loss1/ave_pool
I1215 22:19:21.297231 25506 net.cpp:338] loss1/conv -> loss1/conv
I1215 22:19:21.297245 25506 net.cpp:113] Setting up loss1/conv
I1215 22:19:21.298365 25506 net.cpp:120] Top shape: 128 128 4 4 (262144)
I1215 22:19:21.298379 25506 layer_factory.hpp:74] Creating layer loss1/relu_conv
I1215 22:19:21.298385 25506 net.cpp:84] Creating Layer loss1/relu_conv
I1215 22:19:21.298390 25506 net.cpp:380] loss1/relu_conv <- loss1/conv
I1215 22:19:21.298398 25506 net.cpp:327] loss1/relu_conv -> loss1/conv (in-place)
I1215 22:19:21.298404 25506 net.cpp:113] Setting up loss1/relu_conv
I1215 22:19:21.298459 25506 net.cpp:120] Top shape: 128 128 4 4 (262144)
I1215 22:19:21.298465 25506 layer_factory.hpp:74] Creating layer loss1/fc
I1215 22:19:21.298475 25506 net.cpp:84] Creating Layer loss1/fc
I1215 22:19:21.298477 25506 net.cpp:380] loss1/fc <- loss1/conv
I1215 22:19:21.298485 25506 net.cpp:338] loss1/fc -> loss1/fc
I1215 22:19:21.298494 25506 net.cpp:113] Setting up loss1/fc
I1215 22:19:21.317134 25506 net.cpp:120] Top shape: 128 1024 (131072)
I1215 22:19:21.317164 25506 layer_factory.hpp:74] Creating layer loss1/relu_fc
I1215 22:19:21.317175 25506 net.cpp:84] Creating Layer loss1/relu_fc
I1215 22:19:21.317181 25506 net.cpp:380] loss1/relu_fc <- loss1/fc
I1215 22:19:21.317188 25506 net.cpp:327] loss1/relu_fc -> loss1/fc (in-place)
I1215 22:19:21.317195 25506 net.cpp:113] Setting up loss1/relu_fc
I1215 22:19:21.317595 25506 net.cpp:120] Top shape: 128 1024 (131072)
I1215 22:19:21.317606 25506 layer_factory.hpp:74] Creating layer loss1/drop_fc
I1215 22:19:21.317626 25506 net.cpp:84] Creating Layer loss1/drop_fc
I1215 22:19:21.317632 25506 net.cpp:380] loss1/drop_fc <- loss1/fc
I1215 22:19:21.317638 25506 net.cpp:327] loss1/drop_fc -> loss1/fc (in-place)
I1215 22:19:21.317646 25506 net.cpp:113] Setting up loss1/drop_fc
I1215 22:19:21.317656 25506 net.cpp:120] Top shape: 128 1024 (131072)
I1215 22:19:21.317659 25506 layer_factory.hpp:74] Creating layer loss1/classifier_kaggle
I1215 22:19:21.317667 25506 net.cpp:84] Creating Layer loss1/classifier_kaggle
I1215 22:19:21.317672 25506 net.cpp:380] loss1/classifier_kaggle <- loss1/fc
I1215 22:19:21.317679 25506 net.cpp:338] loss1/classifier_kaggle -> loss1/classifier_kaggle
I1215 22:19:21.317687 25506 net.cpp:113] Setting up loss1/classifier_kaggle
I1215 22:19:21.321962 25506 net.cpp:120] Top shape: 128 447 (57216)
I1215 22:19:21.321974 25506 layer_factory.hpp:74] Creating layer loss1/loss
I1215 22:19:21.321980 25506 net.cpp:84] Creating Layer loss1/loss
I1215 22:19:21.321985 25506 net.cpp:380] loss1/loss <- loss1/classifier_kaggle
I1215 22:19:21.321991 25506 net.cpp:380] loss1/loss <- label_data_1_split_0
I1215 22:19:21.321996 25506 net.cpp:338] loss1/loss -> loss1/loss1
I1215 22:19:21.322005 25506 net.cpp:113] Setting up loss1/loss
I1215 22:19:21.322012 25506 layer_factory.hpp:74] Creating layer loss1/loss
I1215 22:19:21.322190 25506 net.cpp:120] Top shape: (1)
I1215 22:19:21.322196 25506 net.cpp:122]     with loss weight 0.3
I1215 22:19:21.322216 25506 layer_factory.hpp:74] Creating layer inception_4b/1x1
I1215 22:19:21.322227 25506 net.cpp:84] Creating Layer inception_4b/1x1
I1215 22:19:21.322232 25506 net.cpp:380] inception_4b/1x1 <- inception_4a/output_inception_4a/output_0_split_1
I1215 22:19:21.322239 25506 net.cpp:338] inception_4b/1x1 -> inception_4b/1x1
I1215 22:19:21.322247 25506 net.cpp:113] Setting up inception_4b/1x1
I1215 22:19:21.323379 25506 net.cpp:120] Top shape: 128 160 14 14 (4014080)
I1215 22:19:21.323393 25506 layer_factory.hpp:74] Creating layer inception_4b/relu_1x1
I1215 22:19:21.323402 25506 net.cpp:84] Creating Layer inception_4b/relu_1x1
I1215 22:19:21.323407 25506 net.cpp:380] inception_4b/relu_1x1 <- inception_4b/1x1
I1215 22:19:21.323413 25506 net.cpp:327] inception_4b/relu_1x1 -> inception_4b/1x1 (in-place)
I1215 22:19:21.323420 25506 net.cpp:113] Setting up inception_4b/relu_1x1
I1215 22:19:21.323479 25506 net.cpp:120] Top shape: 128 160 14 14 (4014080)
I1215 22:19:21.323485 25506 layer_factory.hpp:74] Creating layer inception_4b/3x3_reduce
I1215 22:19:21.323503 25506 net.cpp:84] Creating Layer inception_4b/3x3_reduce
I1215 22:19:21.323518 25506 net.cpp:380] inception_4b/3x3_reduce <- inception_4a/output_inception_4a/output_0_split_2
I1215 22:19:21.323523 25506 net.cpp:338] inception_4b/3x3_reduce -> inception_4b/3x3_reduce
I1215 22:19:21.323530 25506 net.cpp:113] Setting up inception_4b/3x3_reduce
I1215 22:19:21.324424 25506 net.cpp:120] Top shape: 128 112 14 14 (2809856)
I1215 22:19:21.324437 25506 layer_factory.hpp:74] Creating layer inception_4b/relu_3x3_reduce
I1215 22:19:21.324445 25506 net.cpp:84] Creating Layer inception_4b/relu_3x3_reduce
I1215 22:19:21.324448 25506 net.cpp:380] inception_4b/relu_3x3_reduce <- inception_4b/3x3_reduce
I1215 22:19:21.324455 25506 net.cpp:327] inception_4b/relu_3x3_reduce -> inception_4b/3x3_reduce (in-place)
I1215 22:19:21.324462 25506 net.cpp:113] Setting up inception_4b/relu_3x3_reduce
I1215 22:19:21.324515 25506 net.cpp:120] Top shape: 128 112 14 14 (2809856)
I1215 22:19:21.324522 25506 layer_factory.hpp:74] Creating layer inception_4b/3x3
I1215 22:19:21.324532 25506 net.cpp:84] Creating Layer inception_4b/3x3
I1215 22:19:21.324537 25506 net.cpp:380] inception_4b/3x3 <- inception_4b/3x3_reduce
I1215 22:19:21.324542 25506 net.cpp:338] inception_4b/3x3 -> inception_4b/3x3
I1215 22:19:21.324548 25506 net.cpp:113] Setting up inception_4b/3x3
I1215 22:19:21.327002 25506 net.cpp:120] Top shape: 128 224 14 14 (5619712)
I1215 22:19:21.327015 25506 layer_factory.hpp:74] Creating layer inception_4b/relu_3x3
I1215 22:19:21.327023 25506 net.cpp:84] Creating Layer inception_4b/relu_3x3
I1215 22:19:21.327028 25506 net.cpp:380] inception_4b/relu_3x3 <- inception_4b/3x3
I1215 22:19:21.327033 25506 net.cpp:327] inception_4b/relu_3x3 -> inception_4b/3x3 (in-place)
I1215 22:19:21.327039 25506 net.cpp:113] Setting up inception_4b/relu_3x3
I1215 22:19:21.327261 25506 net.cpp:120] Top shape: 128 224 14 14 (5619712)
I1215 22:19:21.327271 25506 layer_factory.hpp:74] Creating layer inception_4b/5x5_reduce
I1215 22:19:21.327278 25506 net.cpp:84] Creating Layer inception_4b/5x5_reduce
I1215 22:19:21.327283 25506 net.cpp:380] inception_4b/5x5_reduce <- inception_4a/output_inception_4a/output_0_split_3
I1215 22:19:21.327291 25506 net.cpp:338] inception_4b/5x5_reduce -> inception_4b/5x5_reduce
I1215 22:19:21.327298 25506 net.cpp:113] Setting up inception_4b/5x5_reduce
I1215 22:19:21.327778 25506 net.cpp:120] Top shape: 128 24 14 14 (602112)
I1215 22:19:21.327791 25506 layer_factory.hpp:74] Creating layer inception_4b/relu_5x5_reduce
I1215 22:19:21.327797 25506 net.cpp:84] Creating Layer inception_4b/relu_5x5_reduce
I1215 22:19:21.327801 25506 net.cpp:380] inception_4b/relu_5x5_reduce <- inception_4b/5x5_reduce
I1215 22:19:21.327807 25506 net.cpp:327] inception_4b/relu_5x5_reduce -> inception_4b/5x5_reduce (in-place)
I1215 22:19:21.327813 25506 net.cpp:113] Setting up inception_4b/relu_5x5_reduce
I1215 22:19:21.327872 25506 net.cpp:120] Top shape: 128 24 14 14 (602112)
I1215 22:19:21.327879 25506 layer_factory.hpp:74] Creating layer inception_4b/5x5
I1215 22:19:21.327888 25506 net.cpp:84] Creating Layer inception_4b/5x5
I1215 22:19:21.327891 25506 net.cpp:380] inception_4b/5x5 <- inception_4b/5x5_reduce
I1215 22:19:21.327898 25506 net.cpp:338] inception_4b/5x5 -> inception_4b/5x5
I1215 22:19:21.327905 25506 net.cpp:113] Setting up inception_4b/5x5
I1215 22:19:21.328611 25506 net.cpp:120] Top shape: 128 64 14 14 (1605632)
I1215 22:19:21.328625 25506 layer_factory.hpp:74] Creating layer inception_4b/relu_5x5
I1215 22:19:21.328634 25506 net.cpp:84] Creating Layer inception_4b/relu_5x5
I1215 22:19:21.328637 25506 net.cpp:380] inception_4b/relu_5x5 <- inception_4b/5x5
I1215 22:19:21.328642 25506 net.cpp:327] inception_4b/relu_5x5 -> inception_4b/5x5 (in-place)
I1215 22:19:21.328649 25506 net.cpp:113] Setting up inception_4b/relu_5x5
I1215 22:19:21.328703 25506 net.cpp:120] Top shape: 128 64 14 14 (1605632)
I1215 22:19:21.328708 25506 layer_factory.hpp:74] Creating layer inception_4b/pool
I1215 22:19:21.328713 25506 layer_factory.cpp:56] CUDNN does not support padding or multiple tops. Using Caffe's own pooling layer.
I1215 22:19:21.328732 25506 net.cpp:84] Creating Layer inception_4b/pool
I1215 22:19:21.328737 25506 net.cpp:380] inception_4b/pool <- inception_4a/output_inception_4a/output_0_split_4
I1215 22:19:21.328743 25506 net.cpp:338] inception_4b/pool -> inception_4b/pool
I1215 22:19:21.328758 25506 net.cpp:113] Setting up inception_4b/pool
I1215 22:19:21.328766 25506 net.cpp:120] Top shape: 128 512 14 14 (12845056)
I1215 22:19:21.328770 25506 layer_factory.hpp:74] Creating layer inception_4b/pool_proj
I1215 22:19:21.328780 25506 net.cpp:84] Creating Layer inception_4b/pool_proj
I1215 22:19:21.328784 25506 net.cpp:380] inception_4b/pool_proj <- inception_4b/pool
I1215 22:19:21.328789 25506 net.cpp:338] inception_4b/pool_proj -> inception_4b/pool_proj
I1215 22:19:21.328796 25506 net.cpp:113] Setting up inception_4b/pool_proj
I1215 22:19:21.329463 25506 net.cpp:120] Top shape: 128 64 14 14 (1605632)
I1215 22:19:21.329478 25506 layer_factory.hpp:74] Creating layer inception_4b/relu_pool_proj
I1215 22:19:21.329483 25506 net.cpp:84] Creating Layer inception_4b/relu_pool_proj
I1215 22:19:21.329488 25506 net.cpp:380] inception_4b/relu_pool_proj <- inception_4b/pool_proj
I1215 22:19:21.329494 25506 net.cpp:327] inception_4b/relu_pool_proj -> inception_4b/pool_proj (in-place)
I1215 22:19:21.329500 25506 net.cpp:113] Setting up inception_4b/relu_pool_proj
I1215 22:19:21.329723 25506 net.cpp:120] Top shape: 128 64 14 14 (1605632)
I1215 22:19:21.329733 25506 layer_factory.hpp:74] Creating layer inception_4b/output
I1215 22:19:21.329741 25506 net.cpp:84] Creating Layer inception_4b/output
I1215 22:19:21.329744 25506 net.cpp:380] inception_4b/output <- inception_4b/1x1
I1215 22:19:21.329751 25506 net.cpp:380] inception_4b/output <- inception_4b/3x3
I1215 22:19:21.329754 25506 net.cpp:380] inception_4b/output <- inception_4b/5x5
I1215 22:19:21.329758 25506 net.cpp:380] inception_4b/output <- inception_4b/pool_proj
I1215 22:19:21.329766 25506 net.cpp:338] inception_4b/output -> inception_4b/output
I1215 22:19:21.329771 25506 net.cpp:113] Setting up inception_4b/output
I1215 22:19:21.329778 25506 net.cpp:120] Top shape: 128 512 14 14 (12845056)
I1215 22:19:21.329782 25506 layer_factory.hpp:74] Creating layer inception_4b/output_inception_4b/output_0_split
I1215 22:19:21.329788 25506 net.cpp:84] Creating Layer inception_4b/output_inception_4b/output_0_split
I1215 22:19:21.329792 25506 net.cpp:380] inception_4b/output_inception_4b/output_0_split <- inception_4b/output
I1215 22:19:21.329798 25506 net.cpp:338] inception_4b/output_inception_4b/output_0_split -> inception_4b/output_inception_4b/output_0_split_0
I1215 22:19:21.329804 25506 net.cpp:338] inception_4b/output_inception_4b/output_0_split -> inception_4b/output_inception_4b/output_0_split_1
I1215 22:19:21.329810 25506 net.cpp:338] inception_4b/output_inception_4b/output_0_split -> inception_4b/output_inception_4b/output_0_split_2
I1215 22:19:21.329815 25506 net.cpp:338] inception_4b/output_inception_4b/output_0_split -> inception_4b/output_inception_4b/output_0_split_3
I1215 22:19:21.329820 25506 net.cpp:113] Setting up inception_4b/output_inception_4b/output_0_split
I1215 22:19:21.329826 25506 net.cpp:120] Top shape: 128 512 14 14 (12845056)
I1215 22:19:21.329831 25506 net.cpp:120] Top shape: 128 512 14 14 (12845056)
I1215 22:19:21.329835 25506 net.cpp:120] Top shape: 128 512 14 14 (12845056)
I1215 22:19:21.329839 25506 net.cpp:120] Top shape: 128 512 14 14 (12845056)
I1215 22:19:21.329843 25506 layer_factory.hpp:74] Creating layer inception_4c/1x1
I1215 22:19:21.329851 25506 net.cpp:84] Creating Layer inception_4c/1x1
I1215 22:19:21.329855 25506 net.cpp:380] inception_4c/1x1 <- inception_4b/output_inception_4b/output_0_split_0
I1215 22:19:21.329861 25506 net.cpp:338] inception_4c/1x1 -> inception_4c/1x1
I1215 22:19:21.329869 25506 net.cpp:113] Setting up inception_4c/1x1
I1215 22:19:21.330829 25506 net.cpp:120] Top shape: 128 128 14 14 (3211264)
I1215 22:19:21.330842 25506 layer_factory.hpp:74] Creating layer inception_4c/relu_1x1
I1215 22:19:21.330852 25506 net.cpp:84] Creating Layer inception_4c/relu_1x1
I1215 22:19:21.330865 25506 net.cpp:380] inception_4c/relu_1x1 <- inception_4c/1x1
I1215 22:19:21.330873 25506 net.cpp:327] inception_4c/relu_1x1 -> inception_4c/1x1 (in-place)
I1215 22:19:21.330879 25506 net.cpp:113] Setting up inception_4c/relu_1x1
I1215 22:19:21.330935 25506 net.cpp:120] Top shape: 128 128 14 14 (3211264)
I1215 22:19:21.330940 25506 layer_factory.hpp:74] Creating layer inception_4c/3x3_reduce
I1215 22:19:21.330950 25506 net.cpp:84] Creating Layer inception_4c/3x3_reduce
I1215 22:19:21.330955 25506 net.cpp:380] inception_4c/3x3_reduce <- inception_4b/output_inception_4b/output_0_split_1
I1215 22:19:21.330961 25506 net.cpp:338] inception_4c/3x3_reduce -> inception_4c/3x3_reduce
I1215 22:19:21.330968 25506 net.cpp:113] Setting up inception_4c/3x3_reduce
I1215 22:19:21.331928 25506 net.cpp:120] Top shape: 128 128 14 14 (3211264)
I1215 22:19:21.331940 25506 layer_factory.hpp:74] Creating layer inception_4c/relu_3x3_reduce
I1215 22:19:21.331949 25506 net.cpp:84] Creating Layer inception_4c/relu_3x3_reduce
I1215 22:19:21.331954 25506 net.cpp:380] inception_4c/relu_3x3_reduce <- inception_4c/3x3_reduce
I1215 22:19:21.331960 25506 net.cpp:327] inception_4c/relu_3x3_reduce -> inception_4c/3x3_reduce (in-place)
I1215 22:19:21.331966 25506 net.cpp:113] Setting up inception_4c/relu_3x3_reduce
I1215 22:19:21.332025 25506 net.cpp:120] Top shape: 128 128 14 14 (3211264)
I1215 22:19:21.332031 25506 layer_factory.hpp:74] Creating layer inception_4c/3x3
I1215 22:19:21.332039 25506 net.cpp:84] Creating Layer inception_4c/3x3
I1215 22:19:21.332043 25506 net.cpp:380] inception_4c/3x3 <- inception_4c/3x3_reduce
I1215 22:19:21.332051 25506 net.cpp:338] inception_4c/3x3 -> inception_4c/3x3
I1215 22:19:21.332057 25506 net.cpp:113] Setting up inception_4c/3x3
I1215 22:19:21.335150 25506 net.cpp:120] Top shape: 128 256 14 14 (6422528)
I1215 22:19:21.335175 25506 layer_factory.hpp:74] Creating layer inception_4c/relu_3x3
I1215 22:19:21.335183 25506 net.cpp:84] Creating Layer inception_4c/relu_3x3
I1215 22:19:21.335187 25506 net.cpp:380] inception_4c/relu_3x3 <- inception_4c/3x3
I1215 22:19:21.335193 25506 net.cpp:327] inception_4c/relu_3x3 -> inception_4c/3x3 (in-place)
I1215 22:19:21.335199 25506 net.cpp:113] Setting up inception_4c/relu_3x3
I1215 22:19:21.335260 25506 net.cpp:120] Top shape: 128 256 14 14 (6422528)
I1215 22:19:21.335266 25506 layer_factory.hpp:74] Creating layer inception_4c/5x5_reduce
I1215 22:19:21.335274 25506 net.cpp:84] Creating Layer inception_4c/5x5_reduce
I1215 22:19:21.335278 25506 net.cpp:380] inception_4c/5x5_reduce <- inception_4b/output_inception_4b/output_0_split_2
I1215 22:19:21.335284 25506 net.cpp:338] inception_4c/5x5_reduce -> inception_4c/5x5_reduce
I1215 22:19:21.335291 25506 net.cpp:113] Setting up inception_4c/5x5_reduce
I1215 22:19:21.335753 25506 net.cpp:120] Top shape: 128 24 14 14 (602112)
I1215 22:19:21.335767 25506 layer_factory.hpp:74] Creating layer inception_4c/relu_5x5_reduce
I1215 22:19:21.335774 25506 net.cpp:84] Creating Layer inception_4c/relu_5x5_reduce
I1215 22:19:21.335780 25506 net.cpp:380] inception_4c/relu_5x5_reduce <- inception_4c/5x5_reduce
I1215 22:19:21.335786 25506 net.cpp:327] inception_4c/relu_5x5_reduce -> inception_4c/5x5_reduce (in-place)
I1215 22:19:21.335793 25506 net.cpp:113] Setting up inception_4c/relu_5x5_reduce
I1215 22:19:21.336014 25506 net.cpp:120] Top shape: 128 24 14 14 (602112)
I1215 22:19:21.336024 25506 layer_factory.hpp:74] Creating layer inception_4c/5x5
I1215 22:19:21.336031 25506 net.cpp:84] Creating Layer inception_4c/5x5
I1215 22:19:21.336035 25506 net.cpp:380] inception_4c/5x5 <- inception_4c/5x5_reduce
I1215 22:19:21.336043 25506 net.cpp:338] inception_4c/5x5 -> inception_4c/5x5
I1215 22:19:21.336050 25506 net.cpp:113] Setting up inception_4c/5x5
I1215 22:19:21.336758 25506 net.cpp:120] Top shape: 128 64 14 14 (1605632)
I1215 22:19:21.336771 25506 layer_factory.hpp:74] Creating layer inception_4c/relu_5x5
I1215 22:19:21.336778 25506 net.cpp:84] Creating Layer inception_4c/relu_5x5
I1215 22:19:21.336788 25506 net.cpp:380] inception_4c/relu_5x5 <- inception_4c/5x5
I1215 22:19:21.336799 25506 net.cpp:327] inception_4c/relu_5x5 -> inception_4c/5x5 (in-place)
I1215 22:19:21.336807 25506 net.cpp:113] Setting up inception_4c/relu_5x5
I1215 22:19:21.336868 25506 net.cpp:120] Top shape: 128 64 14 14 (1605632)
I1215 22:19:21.336874 25506 layer_factory.hpp:74] Creating layer inception_4c/pool
I1215 22:19:21.336879 25506 layer_factory.cpp:56] CUDNN does not support padding or multiple tops. Using Caffe's own pooling layer.
I1215 22:19:21.336884 25506 net.cpp:84] Creating Layer inception_4c/pool
I1215 22:19:21.336887 25506 net.cpp:380] inception_4c/pool <- inception_4b/output_inception_4b/output_0_split_3
I1215 22:19:21.336894 25506 net.cpp:338] inception_4c/pool -> inception_4c/pool
I1215 22:19:21.336900 25506 net.cpp:113] Setting up inception_4c/pool
I1215 22:19:21.336907 25506 net.cpp:120] Top shape: 128 512 14 14 (12845056)
I1215 22:19:21.336910 25506 layer_factory.hpp:74] Creating layer inception_4c/pool_proj
I1215 22:19:21.336920 25506 net.cpp:84] Creating Layer inception_4c/pool_proj
I1215 22:19:21.336925 25506 net.cpp:380] inception_4c/pool_proj <- inception_4c/pool
I1215 22:19:21.336930 25506 net.cpp:338] inception_4c/pool_proj -> inception_4c/pool_proj
I1215 22:19:21.336936 25506 net.cpp:113] Setting up inception_4c/pool_proj
I1215 22:19:21.337594 25506 net.cpp:120] Top shape: 128 64 14 14 (1605632)
I1215 22:19:21.337609 25506 layer_factory.hpp:74] Creating layer inception_4c/relu_pool_proj
I1215 22:19:21.337615 25506 net.cpp:84] Creating Layer inception_4c/relu_pool_proj
I1215 22:19:21.337620 25506 net.cpp:380] inception_4c/relu_pool_proj <- inception_4c/pool_proj
I1215 22:19:21.337625 25506 net.cpp:327] inception_4c/relu_pool_proj -> inception_4c/pool_proj (in-place)
I1215 22:19:21.337631 25506 net.cpp:113] Setting up inception_4c/relu_pool_proj
I1215 22:19:21.337687 25506 net.cpp:120] Top shape: 128 64 14 14 (1605632)
I1215 22:19:21.337692 25506 layer_factory.hpp:74] Creating layer inception_4c/output
I1215 22:19:21.337697 25506 net.cpp:84] Creating Layer inception_4c/output
I1215 22:19:21.337702 25506 net.cpp:380] inception_4c/output <- inception_4c/1x1
I1215 22:19:21.337707 25506 net.cpp:380] inception_4c/output <- inception_4c/3x3
I1215 22:19:21.337712 25506 net.cpp:380] inception_4c/output <- inception_4c/5x5
I1215 22:19:21.337715 25506 net.cpp:380] inception_4c/output <- inception_4c/pool_proj
I1215 22:19:21.337721 25506 net.cpp:338] inception_4c/output -> inception_4c/output
I1215 22:19:21.337728 25506 net.cpp:113] Setting up inception_4c/output
I1215 22:19:21.337733 25506 net.cpp:120] Top shape: 128 512 14 14 (12845056)
I1215 22:19:21.337738 25506 layer_factory.hpp:74] Creating layer inception_4c/output_inception_4c/output_0_split
I1215 22:19:21.337743 25506 net.cpp:84] Creating Layer inception_4c/output_inception_4c/output_0_split
I1215 22:19:21.337749 25506 net.cpp:380] inception_4c/output_inception_4c/output_0_split <- inception_4c/output
I1215 22:19:21.337755 25506 net.cpp:338] inception_4c/output_inception_4c/output_0_split -> inception_4c/output_inception_4c/output_0_split_0
I1215 22:19:21.337785 25506 net.cpp:338] inception_4c/output_inception_4c/output_0_split -> inception_4c/output_inception_4c/output_0_split_1
I1215 22:19:21.337795 25506 net.cpp:338] inception_4c/output_inception_4c/output_0_split -> inception_4c/output_inception_4c/output_0_split_2
I1215 22:19:21.337800 25506 net.cpp:338] inception_4c/output_inception_4c/output_0_split -> inception_4c/output_inception_4c/output_0_split_3
I1215 22:19:21.337805 25506 net.cpp:113] Setting up inception_4c/output_inception_4c/output_0_split
I1215 22:19:21.337811 25506 net.cpp:120] Top shape: 128 512 14 14 (12845056)
I1215 22:19:21.337815 25506 net.cpp:120] Top shape: 128 512 14 14 (12845056)
I1215 22:19:21.337820 25506 net.cpp:120] Top shape: 128 512 14 14 (12845056)
I1215 22:19:21.337823 25506 net.cpp:120] Top shape: 128 512 14 14 (12845056)
I1215 22:19:21.337827 25506 layer_factory.hpp:74] Creating layer inception_4d/1x1
I1215 22:19:21.337841 25506 net.cpp:84] Creating Layer inception_4d/1x1
I1215 22:19:21.337852 25506 net.cpp:380] inception_4d/1x1 <- inception_4c/output_inception_4c/output_0_split_0
I1215 22:19:21.337858 25506 net.cpp:338] inception_4d/1x1 -> inception_4d/1x1
I1215 22:19:21.337864 25506 net.cpp:113] Setting up inception_4d/1x1
I1215 22:19:21.338762 25506 net.cpp:120] Top shape: 128 112 14 14 (2809856)
I1215 22:19:21.338776 25506 layer_factory.hpp:74] Creating layer inception_4d/relu_1x1
I1215 22:19:21.338783 25506 net.cpp:84] Creating Layer inception_4d/relu_1x1
I1215 22:19:21.338788 25506 net.cpp:380] inception_4d/relu_1x1 <- inception_4d/1x1
I1215 22:19:21.338794 25506 net.cpp:327] inception_4d/relu_1x1 -> inception_4d/1x1 (in-place)
I1215 22:19:21.338800 25506 net.cpp:113] Setting up inception_4d/relu_1x1
I1215 22:19:21.338855 25506 net.cpp:120] Top shape: 128 112 14 14 (2809856)
I1215 22:19:21.338860 25506 layer_factory.hpp:74] Creating layer inception_4d/3x3_reduce
I1215 22:19:21.338868 25506 net.cpp:84] Creating Layer inception_4d/3x3_reduce
I1215 22:19:21.338873 25506 net.cpp:380] inception_4d/3x3_reduce <- inception_4c/output_inception_4c/output_0_split_1
I1215 22:19:21.338879 25506 net.cpp:338] inception_4d/3x3_reduce -> inception_4d/3x3_reduce
I1215 22:19:21.338886 25506 net.cpp:113] Setting up inception_4d/3x3_reduce
I1215 22:19:21.339929 25506 net.cpp:120] Top shape: 128 144 14 14 (3612672)
I1215 22:19:21.339941 25506 layer_factory.hpp:74] Creating layer inception_4d/relu_3x3_reduce
I1215 22:19:21.339952 25506 net.cpp:84] Creating Layer inception_4d/relu_3x3_reduce
I1215 22:19:21.339957 25506 net.cpp:380] inception_4d/relu_3x3_reduce <- inception_4d/3x3_reduce
I1215 22:19:21.339963 25506 net.cpp:327] inception_4d/relu_3x3_reduce -> inception_4d/3x3_reduce (in-place)
I1215 22:19:21.339969 25506 net.cpp:113] Setting up inception_4d/relu_3x3_reduce
I1215 22:19:21.340193 25506 net.cpp:120] Top shape: 128 144 14 14 (3612672)
I1215 22:19:21.340201 25506 layer_factory.hpp:74] Creating layer inception_4d/3x3
I1215 22:19:21.340210 25506 net.cpp:84] Creating Layer inception_4d/3x3
I1215 22:19:21.340215 25506 net.cpp:380] inception_4d/3x3 <- inception_4d/3x3_reduce
I1215 22:19:21.340221 25506 net.cpp:338] inception_4d/3x3 -> inception_4d/3x3
I1215 22:19:21.340229 25506 net.cpp:113] Setting up inception_4d/3x3
I1215 22:19:21.344061 25506 net.cpp:120] Top shape: 128 288 14 14 (7225344)
I1215 22:19:21.344076 25506 layer_factory.hpp:74] Creating layer inception_4d/relu_3x3
I1215 22:19:21.344084 25506 net.cpp:84] Creating Layer inception_4d/relu_3x3
I1215 22:19:21.344089 25506 net.cpp:380] inception_4d/relu_3x3 <- inception_4d/3x3
I1215 22:19:21.344094 25506 net.cpp:327] inception_4d/relu_3x3 -> inception_4d/3x3 (in-place)
I1215 22:19:21.344099 25506 net.cpp:113] Setting up inception_4d/relu_3x3
I1215 22:19:21.344156 25506 net.cpp:120] Top shape: 128 288 14 14 (7225344)
I1215 22:19:21.344161 25506 layer_factory.hpp:74] Creating layer inception_4d/5x5_reduce
I1215 22:19:21.344169 25506 net.cpp:84] Creating Layer inception_4d/5x5_reduce
I1215 22:19:21.344173 25506 net.cpp:380] inception_4d/5x5_reduce <- inception_4c/output_inception_4c/output_0_split_2
I1215 22:19:21.344180 25506 net.cpp:338] inception_4d/5x5_reduce -> inception_4d/5x5_reduce
I1215 22:19:21.344187 25506 net.cpp:113] Setting up inception_4d/5x5_reduce
I1215 22:19:21.344691 25506 net.cpp:120] Top shape: 128 32 14 14 (802816)
I1215 22:19:21.344703 25506 layer_factory.hpp:74] Creating layer inception_4d/relu_5x5_reduce
I1215 22:19:21.344712 25506 net.cpp:84] Creating Layer inception_4d/relu_5x5_reduce
I1215 22:19:21.344717 25506 net.cpp:380] inception_4d/relu_5x5_reduce <- inception_4d/5x5_reduce
I1215 22:19:21.344722 25506 net.cpp:327] inception_4d/relu_5x5_reduce -> inception_4d/5x5_reduce (in-place)
I1215 22:19:21.344728 25506 net.cpp:113] Setting up inception_4d/relu_5x5_reduce
I1215 22:19:21.344785 25506 net.cpp:120] Top shape: 128 32 14 14 (802816)
I1215 22:19:21.344791 25506 layer_factory.hpp:74] Creating layer inception_4d/5x5
I1215 22:19:21.344805 25506 net.cpp:84] Creating Layer inception_4d/5x5
I1215 22:19:21.344817 25506 net.cpp:380] inception_4d/5x5 <- inception_4d/5x5_reduce
I1215 22:19:21.344825 25506 net.cpp:338] inception_4d/5x5 -> inception_4d/5x5
I1215 22:19:21.344832 25506 net.cpp:113] Setting up inception_4d/5x5
I1215 22:19:21.345670 25506 net.cpp:120] Top shape: 128 64 14 14 (1605632)
I1215 22:19:21.345685 25506 layer_factory.hpp:74] Creating layer inception_4d/relu_5x5
I1215 22:19:21.345692 25506 net.cpp:84] Creating Layer inception_4d/relu_5x5
I1215 22:19:21.345697 25506 net.cpp:380] inception_4d/relu_5x5 <- inception_4d/5x5
I1215 22:19:21.345703 25506 net.cpp:327] inception_4d/relu_5x5 -> inception_4d/5x5 (in-place)
I1215 22:19:21.345710 25506 net.cpp:113] Setting up inception_4d/relu_5x5
I1215 22:19:21.345767 25506 net.cpp:120] Top shape: 128 64 14 14 (1605632)
I1215 22:19:21.345772 25506 layer_factory.hpp:74] Creating layer inception_4d/pool
I1215 22:19:21.345777 25506 layer_factory.cpp:56] CUDNN does not support padding or multiple tops. Using Caffe's own pooling layer.
I1215 22:19:21.345782 25506 net.cpp:84] Creating Layer inception_4d/pool
I1215 22:19:21.345787 25506 net.cpp:380] inception_4d/pool <- inception_4c/output_inception_4c/output_0_split_3
I1215 22:19:21.345793 25506 net.cpp:338] inception_4d/pool -> inception_4d/pool
I1215 22:19:21.345800 25506 net.cpp:113] Setting up inception_4d/pool
I1215 22:19:21.345808 25506 net.cpp:120] Top shape: 128 512 14 14 (12845056)
I1215 22:19:21.345810 25506 layer_factory.hpp:74] Creating layer inception_4d/pool_proj
I1215 22:19:21.345819 25506 net.cpp:84] Creating Layer inception_4d/pool_proj
I1215 22:19:21.345824 25506 net.cpp:380] inception_4d/pool_proj <- inception_4d/pool
I1215 22:19:21.345829 25506 net.cpp:338] inception_4d/pool_proj -> inception_4d/pool_proj
I1215 22:19:21.345835 25506 net.cpp:113] Setting up inception_4d/pool_proj
I1215 22:19:21.346489 25506 net.cpp:120] Top shape: 128 64 14 14 (1605632)
I1215 22:19:21.346503 25506 layer_factory.hpp:74] Creating layer inception_4d/relu_pool_proj
I1215 22:19:21.346508 25506 net.cpp:84] Creating Layer inception_4d/relu_pool_proj
I1215 22:19:21.346513 25506 net.cpp:380] inception_4d/relu_pool_proj <- inception_4d/pool_proj
I1215 22:19:21.346520 25506 net.cpp:327] inception_4d/relu_pool_proj -> inception_4d/pool_proj (in-place)
I1215 22:19:21.346528 25506 net.cpp:113] Setting up inception_4d/relu_pool_proj
I1215 22:19:21.346747 25506 net.cpp:120] Top shape: 128 64 14 14 (1605632)
I1215 22:19:21.346757 25506 layer_factory.hpp:74] Creating layer inception_4d/output
I1215 22:19:21.346765 25506 net.cpp:84] Creating Layer inception_4d/output
I1215 22:19:21.346770 25506 net.cpp:380] inception_4d/output <- inception_4d/1x1
I1215 22:19:21.346774 25506 net.cpp:380] inception_4d/output <- inception_4d/3x3
I1215 22:19:21.346779 25506 net.cpp:380] inception_4d/output <- inception_4d/5x5
I1215 22:19:21.346783 25506 net.cpp:380] inception_4d/output <- inception_4d/pool_proj
I1215 22:19:21.346788 25506 net.cpp:338] inception_4d/output -> inception_4d/output
I1215 22:19:21.346794 25506 net.cpp:113] Setting up inception_4d/output
I1215 22:19:21.346803 25506 net.cpp:120] Top shape: 128 528 14 14 (13246464)
I1215 22:19:21.346807 25506 layer_factory.hpp:74] Creating layer inception_4d/output_inception_4d/output_0_split
I1215 22:19:21.346814 25506 net.cpp:84] Creating Layer inception_4d/output_inception_4d/output_0_split
I1215 22:19:21.346818 25506 net.cpp:380] inception_4d/output_inception_4d/output_0_split <- inception_4d/output
I1215 22:19:21.346825 25506 net.cpp:338] inception_4d/output_inception_4d/output_0_split -> inception_4d/output_inception_4d/output_0_split_0
I1215 22:19:21.346832 25506 net.cpp:338] inception_4d/output_inception_4d/output_0_split -> inception_4d/output_inception_4d/output_0_split_1
I1215 22:19:21.346838 25506 net.cpp:338] inception_4d/output_inception_4d/output_0_split -> inception_4d/output_inception_4d/output_0_split_2
I1215 22:19:21.346843 25506 net.cpp:338] inception_4d/output_inception_4d/output_0_split -> inception_4d/output_inception_4d/output_0_split_3
I1215 22:19:21.346853 25506 net.cpp:338] inception_4d/output_inception_4d/output_0_split -> inception_4d/output_inception_4d/output_0_split_4
I1215 22:19:21.346868 25506 net.cpp:113] Setting up inception_4d/output_inception_4d/output_0_split
I1215 22:19:21.346874 25506 net.cpp:120] Top shape: 128 528 14 14 (13246464)
I1215 22:19:21.346879 25506 net.cpp:120] Top shape: 128 528 14 14 (13246464)
I1215 22:19:21.346882 25506 net.cpp:120] Top shape: 128 528 14 14 (13246464)
I1215 22:19:21.346886 25506 net.cpp:120] Top shape: 128 528 14 14 (13246464)
I1215 22:19:21.346890 25506 net.cpp:120] Top shape: 128 528 14 14 (13246464)
I1215 22:19:21.346894 25506 layer_factory.hpp:74] Creating layer loss2/ave_pool
I1215 22:19:21.346900 25506 net.cpp:84] Creating Layer loss2/ave_pool
I1215 22:19:21.346904 25506 net.cpp:380] loss2/ave_pool <- inception_4d/output_inception_4d/output_0_split_0
I1215 22:19:21.346909 25506 net.cpp:338] loss2/ave_pool -> loss2/ave_pool
I1215 22:19:21.346915 25506 net.cpp:113] Setting up loss2/ave_pool
I1215 22:19:21.346978 25506 net.cpp:120] Top shape: 128 528 4 4 (1081344)
I1215 22:19:21.346983 25506 layer_factory.hpp:74] Creating layer loss2/conv
I1215 22:19:21.346990 25506 net.cpp:84] Creating Layer loss2/conv
I1215 22:19:21.346994 25506 net.cpp:380] loss2/conv <- loss2/ave_pool
I1215 22:19:21.347002 25506 net.cpp:338] loss2/conv -> loss2/conv
I1215 22:19:21.347008 25506 net.cpp:113] Setting up loss2/conv
I1215 22:19:21.347988 25506 net.cpp:120] Top shape: 128 128 4 4 (262144)
I1215 22:19:21.348001 25506 layer_factory.hpp:74] Creating layer loss2/relu_conv
I1215 22:19:21.348011 25506 net.cpp:84] Creating Layer loss2/relu_conv
I1215 22:19:21.348016 25506 net.cpp:380] loss2/relu_conv <- loss2/conv
I1215 22:19:21.348022 25506 net.cpp:327] loss2/relu_conv -> loss2/conv (in-place)
I1215 22:19:21.348028 25506 net.cpp:113] Setting up loss2/relu_conv
I1215 22:19:21.348081 25506 net.cpp:120] Top shape: 128 128 4 4 (262144)
I1215 22:19:21.348088 25506 layer_factory.hpp:74] Creating layer loss2/fc
I1215 22:19:21.348098 25506 net.cpp:84] Creating Layer loss2/fc
I1215 22:19:21.348104 25506 net.cpp:380] loss2/fc <- loss2/conv
I1215 22:19:21.348109 25506 net.cpp:338] loss2/fc -> loss2/fc
I1215 22:19:21.348115 25506 net.cpp:113] Setting up loss2/fc
I1215 22:19:21.367188 25506 net.cpp:120] Top shape: 128 1024 (131072)
I1215 22:19:21.367218 25506 layer_factory.hpp:74] Creating layer loss2/relu_fc
I1215 22:19:21.367228 25506 net.cpp:84] Creating Layer loss2/relu_fc
I1215 22:19:21.367233 25506 net.cpp:380] loss2/relu_fc <- loss2/fc
I1215 22:19:21.367241 25506 net.cpp:327] loss2/relu_fc -> loss2/fc (in-place)
I1215 22:19:21.367250 25506 net.cpp:113] Setting up loss2/relu_fc
I1215 22:19:21.367575 25506 net.cpp:120] Top shape: 128 1024 (131072)
I1215 22:19:21.367584 25506 layer_factory.hpp:74] Creating layer loss2/drop_fc
I1215 22:19:21.367594 25506 net.cpp:84] Creating Layer loss2/drop_fc
I1215 22:19:21.367599 25506 net.cpp:380] loss2/drop_fc <- loss2/fc
I1215 22:19:21.367604 25506 net.cpp:327] loss2/drop_fc -> loss2/fc (in-place)
I1215 22:19:21.367609 25506 net.cpp:113] Setting up loss2/drop_fc
I1215 22:19:21.367616 25506 net.cpp:120] Top shape: 128 1024 (131072)
I1215 22:19:21.367620 25506 layer_factory.hpp:74] Creating layer loss2/classifier_kaggle
I1215 22:19:21.367629 25506 net.cpp:84] Creating Layer loss2/classifier_kaggle
I1215 22:19:21.367632 25506 net.cpp:380] loss2/classifier_kaggle <- loss2/fc
I1215 22:19:21.367640 25506 net.cpp:338] loss2/classifier_kaggle -> loss2/classifier_kaggle
I1215 22:19:21.367648 25506 net.cpp:113] Setting up loss2/classifier_kaggle
I1215 22:19:21.371914 25506 net.cpp:120] Top shape: 128 447 (57216)
I1215 22:19:21.371925 25506 layer_factory.hpp:74] Creating layer loss2/loss
I1215 22:19:21.371934 25506 net.cpp:84] Creating Layer loss2/loss
I1215 22:19:21.371939 25506 net.cpp:380] loss2/loss <- loss2/classifier_kaggle
I1215 22:19:21.371945 25506 net.cpp:380] loss2/loss <- label_data_1_split_1
I1215 22:19:21.371951 25506 net.cpp:338] loss2/loss -> loss2/loss1
I1215 22:19:21.371965 25506 net.cpp:113] Setting up loss2/loss
I1215 22:19:21.371981 25506 layer_factory.hpp:74] Creating layer loss2/loss
I1215 22:19:21.372156 25506 net.cpp:120] Top shape: (1)
I1215 22:19:21.372164 25506 net.cpp:122]     with loss weight 0.3
I1215 22:19:21.372174 25506 layer_factory.hpp:74] Creating layer inception_4e/1x1
I1215 22:19:21.372184 25506 net.cpp:84] Creating Layer inception_4e/1x1
I1215 22:19:21.372189 25506 net.cpp:380] inception_4e/1x1 <- inception_4d/output_inception_4d/output_0_split_1
I1215 22:19:21.372196 25506 net.cpp:338] inception_4e/1x1 -> inception_4e/1x1
I1215 22:19:21.372205 25506 net.cpp:113] Setting up inception_4e/1x1
I1215 22:19:21.373868 25506 net.cpp:120] Top shape: 128 256 14 14 (6422528)
I1215 22:19:21.373883 25506 layer_factory.hpp:74] Creating layer inception_4e/relu_1x1
I1215 22:19:21.373893 25506 net.cpp:84] Creating Layer inception_4e/relu_1x1
I1215 22:19:21.373898 25506 net.cpp:380] inception_4e/relu_1x1 <- inception_4e/1x1
I1215 22:19:21.373903 25506 net.cpp:327] inception_4e/relu_1x1 -> inception_4e/1x1 (in-place)
I1215 22:19:21.373909 25506 net.cpp:113] Setting up inception_4e/relu_1x1
I1215 22:19:21.373965 25506 net.cpp:120] Top shape: 128 256 14 14 (6422528)
I1215 22:19:21.373970 25506 layer_factory.hpp:74] Creating layer inception_4e/3x3_reduce
I1215 22:19:21.373980 25506 net.cpp:84] Creating Layer inception_4e/3x3_reduce
I1215 22:19:21.373985 25506 net.cpp:380] inception_4e/3x3_reduce <- inception_4d/output_inception_4d/output_0_split_2
I1215 22:19:21.373991 25506 net.cpp:338] inception_4e/3x3_reduce -> inception_4e/3x3_reduce
I1215 22:19:21.373998 25506 net.cpp:113] Setting up inception_4e/3x3_reduce
I1215 22:19:21.375136 25506 net.cpp:120] Top shape: 128 160 14 14 (4014080)
I1215 22:19:21.375149 25506 layer_factory.hpp:74] Creating layer inception_4e/relu_3x3_reduce
I1215 22:19:21.375159 25506 net.cpp:84] Creating Layer inception_4e/relu_3x3_reduce
I1215 22:19:21.375162 25506 net.cpp:380] inception_4e/relu_3x3_reduce <- inception_4e/3x3_reduce
I1215 22:19:21.375169 25506 net.cpp:327] inception_4e/relu_3x3_reduce -> inception_4e/3x3_reduce (in-place)
I1215 22:19:21.375174 25506 net.cpp:113] Setting up inception_4e/relu_3x3_reduce
I1215 22:19:21.375232 25506 net.cpp:120] Top shape: 128 160 14 14 (4014080)
I1215 22:19:21.375237 25506 layer_factory.hpp:74] Creating layer inception_4e/3x3
I1215 22:19:21.375247 25506 net.cpp:84] Creating Layer inception_4e/3x3
I1215 22:19:21.375250 25506 net.cpp:380] inception_4e/3x3 <- inception_4e/3x3_reduce
I1215 22:19:21.375257 25506 net.cpp:338] inception_4e/3x3 -> inception_4e/3x3
I1215 22:19:21.375262 25506 net.cpp:113] Setting up inception_4e/3x3
I1215 22:19:21.379925 25506 net.cpp:120] Top shape: 128 320 14 14 (8028160)
I1215 22:19:21.379940 25506 layer_factory.hpp:74] Creating layer inception_4e/relu_3x3
I1215 22:19:21.379947 25506 net.cpp:84] Creating Layer inception_4e/relu_3x3
I1215 22:19:21.379951 25506 net.cpp:380] inception_4e/relu_3x3 <- inception_4e/3x3
I1215 22:19:21.379957 25506 net.cpp:327] inception_4e/relu_3x3 -> inception_4e/3x3 (in-place)
I1215 22:19:21.379963 25506 net.cpp:113] Setting up inception_4e/relu_3x3
I1215 22:19:21.380187 25506 net.cpp:120] Top shape: 128 320 14 14 (8028160)
I1215 22:19:21.380197 25506 layer_factory.hpp:74] Creating layer inception_4e/5x5_reduce
I1215 22:19:21.380204 25506 net.cpp:84] Creating Layer inception_4e/5x5_reduce
I1215 22:19:21.380209 25506 net.cpp:380] inception_4e/5x5_reduce <- inception_4d/output_inception_4d/output_0_split_3
I1215 22:19:21.380218 25506 net.cpp:338] inception_4e/5x5_reduce -> inception_4e/5x5_reduce
I1215 22:19:21.380224 25506 net.cpp:113] Setting up inception_4e/5x5_reduce
I1215 22:19:21.380733 25506 net.cpp:120] Top shape: 128 32 14 14 (802816)
I1215 22:19:21.380744 25506 layer_factory.hpp:74] Creating layer inception_4e/relu_5x5_reduce
I1215 22:19:21.380751 25506 net.cpp:84] Creating Layer inception_4e/relu_5x5_reduce
I1215 22:19:21.380759 25506 net.cpp:380] inception_4e/relu_5x5_reduce <- inception_4e/5x5_reduce
I1215 22:19:21.380764 25506 net.cpp:327] inception_4e/relu_5x5_reduce -> inception_4e/5x5_reduce (in-place)
I1215 22:19:21.380780 25506 net.cpp:113] Setting up inception_4e/relu_5x5_reduce
I1215 22:19:21.380838 25506 net.cpp:120] Top shape: 128 32 14 14 (802816)
I1215 22:19:21.380844 25506 layer_factory.hpp:74] Creating layer inception_4e/5x5
I1215 22:19:21.380868 25506 net.cpp:84] Creating Layer inception_4e/5x5
I1215 22:19:21.380872 25506 net.cpp:380] inception_4e/5x5 <- inception_4e/5x5_reduce
I1215 22:19:21.380878 25506 net.cpp:338] inception_4e/5x5 -> inception_4e/5x5
I1215 22:19:21.380885 25506 net.cpp:113] Setting up inception_4e/5x5
I1215 22:19:21.382225 25506 net.cpp:120] Top shape: 128 128 14 14 (3211264)
I1215 22:19:21.382241 25506 layer_factory.hpp:74] Creating layer inception_4e/relu_5x5
I1215 22:19:21.382248 25506 net.cpp:84] Creating Layer inception_4e/relu_5x5
I1215 22:19:21.382253 25506 net.cpp:380] inception_4e/relu_5x5 <- inception_4e/5x5
I1215 22:19:21.382258 25506 net.cpp:327] inception_4e/relu_5x5 -> inception_4e/5x5 (in-place)
I1215 22:19:21.382264 25506 net.cpp:113] Setting up inception_4e/relu_5x5
I1215 22:19:21.382323 25506 net.cpp:120] Top shape: 128 128 14 14 (3211264)
I1215 22:19:21.382328 25506 layer_factory.hpp:74] Creating layer inception_4e/pool
I1215 22:19:21.382334 25506 layer_factory.cpp:56] CUDNN does not support padding or multiple tops. Using Caffe's own pooling layer.
I1215 22:19:21.382339 25506 net.cpp:84] Creating Layer inception_4e/pool
I1215 22:19:21.382344 25506 net.cpp:380] inception_4e/pool <- inception_4d/output_inception_4d/output_0_split_4
I1215 22:19:21.382350 25506 net.cpp:338] inception_4e/pool -> inception_4e/pool
I1215 22:19:21.382356 25506 net.cpp:113] Setting up inception_4e/pool
I1215 22:19:21.382364 25506 net.cpp:120] Top shape: 128 528 14 14 (13246464)
I1215 22:19:21.382367 25506 layer_factory.hpp:74] Creating layer inception_4e/pool_proj
I1215 22:19:21.382375 25506 net.cpp:84] Creating Layer inception_4e/pool_proj
I1215 22:19:21.382380 25506 net.cpp:380] inception_4e/pool_proj <- inception_4e/pool
I1215 22:19:21.382385 25506 net.cpp:338] inception_4e/pool_proj -> inception_4e/pool_proj
I1215 22:19:21.382391 25506 net.cpp:113] Setting up inception_4e/pool_proj
I1215 22:19:21.383368 25506 net.cpp:120] Top shape: 128 128 14 14 (3211264)
I1215 22:19:21.383380 25506 layer_factory.hpp:74] Creating layer inception_4e/relu_pool_proj
I1215 22:19:21.383388 25506 net.cpp:84] Creating Layer inception_4e/relu_pool_proj
I1215 22:19:21.383394 25506 net.cpp:380] inception_4e/relu_pool_proj <- inception_4e/pool_proj
I1215 22:19:21.383399 25506 net.cpp:327] inception_4e/relu_pool_proj -> inception_4e/pool_proj (in-place)
I1215 22:19:21.383404 25506 net.cpp:113] Setting up inception_4e/relu_pool_proj
I1215 22:19:21.383458 25506 net.cpp:120] Top shape: 128 128 14 14 (3211264)
I1215 22:19:21.383465 25506 layer_factory.hpp:74] Creating layer inception_4e/output
I1215 22:19:21.383471 25506 net.cpp:84] Creating Layer inception_4e/output
I1215 22:19:21.383476 25506 net.cpp:380] inception_4e/output <- inception_4e/1x1
I1215 22:19:21.383481 25506 net.cpp:380] inception_4e/output <- inception_4e/3x3
I1215 22:19:21.383486 25506 net.cpp:380] inception_4e/output <- inception_4e/5x5
I1215 22:19:21.383491 25506 net.cpp:380] inception_4e/output <- inception_4e/pool_proj
I1215 22:19:21.383496 25506 net.cpp:338] inception_4e/output -> inception_4e/output
I1215 22:19:21.383502 25506 net.cpp:113] Setting up inception_4e/output
I1215 22:19:21.383507 25506 net.cpp:120] Top shape: 128 832 14 14 (20873216)
I1215 22:19:21.383512 25506 layer_factory.hpp:74] Creating layer pool4/3x3_s2
I1215 22:19:21.383517 25506 net.cpp:84] Creating Layer pool4/3x3_s2
I1215 22:19:21.383522 25506 net.cpp:380] pool4/3x3_s2 <- inception_4e/output
I1215 22:19:21.383527 25506 net.cpp:338] pool4/3x3_s2 -> pool4/3x3_s2
I1215 22:19:21.383534 25506 net.cpp:113] Setting up pool4/3x3_s2
I1215 22:19:21.383757 25506 net.cpp:120] Top shape: 128 832 7 7 (5218304)
I1215 22:19:21.383767 25506 layer_factory.hpp:74] Creating layer pool4/3x3_s2_pool4/3x3_s2_0_split
I1215 22:19:21.383780 25506 net.cpp:84] Creating Layer pool4/3x3_s2_pool4/3x3_s2_0_split
I1215 22:19:21.383791 25506 net.cpp:380] pool4/3x3_s2_pool4/3x3_s2_0_split <- pool4/3x3_s2
I1215 22:19:21.383797 25506 net.cpp:338] pool4/3x3_s2_pool4/3x3_s2_0_split -> pool4/3x3_s2_pool4/3x3_s2_0_split_0
I1215 22:19:21.383805 25506 net.cpp:338] pool4/3x3_s2_pool4/3x3_s2_0_split -> pool4/3x3_s2_pool4/3x3_s2_0_split_1
I1215 22:19:21.383810 25506 net.cpp:338] pool4/3x3_s2_pool4/3x3_s2_0_split -> pool4/3x3_s2_pool4/3x3_s2_0_split_2
I1215 22:19:21.383816 25506 net.cpp:338] pool4/3x3_s2_pool4/3x3_s2_0_split -> pool4/3x3_s2_pool4/3x3_s2_0_split_3
I1215 22:19:21.383821 25506 net.cpp:113] Setting up pool4/3x3_s2_pool4/3x3_s2_0_split
I1215 22:19:21.383828 25506 net.cpp:120] Top shape: 128 832 7 7 (5218304)
I1215 22:19:21.383832 25506 net.cpp:120] Top shape: 128 832 7 7 (5218304)
I1215 22:19:21.383837 25506 net.cpp:120] Top shape: 128 832 7 7 (5218304)
I1215 22:19:21.383841 25506 net.cpp:120] Top shape: 128 832 7 7 (5218304)
I1215 22:19:21.383844 25506 layer_factory.hpp:74] Creating layer inception_5a/1x1
I1215 22:19:21.383852 25506 net.cpp:84] Creating Layer inception_5a/1x1
I1215 22:19:21.383855 25506 net.cpp:380] inception_5a/1x1 <- pool4/3x3_s2_pool4/3x3_s2_0_split_0
I1215 22:19:21.383862 25506 net.cpp:338] inception_5a/1x1 -> inception_5a/1x1
I1215 22:19:21.383868 25506 net.cpp:113] Setting up inception_5a/1x1
I1215 22:19:21.386204 25506 net.cpp:120] Top shape: 128 256 7 7 (1605632)
I1215 22:19:21.386217 25506 layer_factory.hpp:74] Creating layer inception_5a/relu_1x1
I1215 22:19:21.386224 25506 net.cpp:84] Creating Layer inception_5a/relu_1x1
I1215 22:19:21.386229 25506 net.cpp:380] inception_5a/relu_1x1 <- inception_5a/1x1
I1215 22:19:21.386234 25506 net.cpp:327] inception_5a/relu_1x1 -> inception_5a/1x1 (in-place)
I1215 22:19:21.386240 25506 net.cpp:113] Setting up inception_5a/relu_1x1
I1215 22:19:21.386297 25506 net.cpp:120] Top shape: 128 256 7 7 (1605632)
I1215 22:19:21.386302 25506 layer_factory.hpp:74] Creating layer inception_5a/3x3_reduce
I1215 22:19:21.386310 25506 net.cpp:84] Creating Layer inception_5a/3x3_reduce
I1215 22:19:21.386314 25506 net.cpp:380] inception_5a/3x3_reduce <- pool4/3x3_s2_pool4/3x3_s2_0_split_1
I1215 22:19:21.386322 25506 net.cpp:338] inception_5a/3x3_reduce -> inception_5a/3x3_reduce
I1215 22:19:21.386329 25506 net.cpp:113] Setting up inception_5a/3x3_reduce
I1215 22:19:21.387912 25506 net.cpp:120] Top shape: 128 160 7 7 (1003520)
I1215 22:19:21.387925 25506 layer_factory.hpp:74] Creating layer inception_5a/relu_3x3_reduce
I1215 22:19:21.387931 25506 net.cpp:84] Creating Layer inception_5a/relu_3x3_reduce
I1215 22:19:21.387935 25506 net.cpp:380] inception_5a/relu_3x3_reduce <- inception_5a/3x3_reduce
I1215 22:19:21.387941 25506 net.cpp:327] inception_5a/relu_3x3_reduce -> inception_5a/3x3_reduce (in-place)
I1215 22:19:21.387948 25506 net.cpp:113] Setting up inception_5a/relu_3x3_reduce
I1215 22:19:21.388008 25506 net.cpp:120] Top shape: 128 160 7 7 (1003520)
I1215 22:19:21.388013 25506 layer_factory.hpp:74] Creating layer inception_5a/3x3
I1215 22:19:21.388021 25506 net.cpp:84] Creating Layer inception_5a/3x3
I1215 22:19:21.388026 25506 net.cpp:380] inception_5a/3x3 <- inception_5a/3x3_reduce
I1215 22:19:21.388031 25506 net.cpp:338] inception_5a/3x3 -> inception_5a/3x3
I1215 22:19:21.388038 25506 net.cpp:113] Setting up inception_5a/3x3
I1215 22:19:21.392802 25506 net.cpp:120] Top shape: 128 320 7 7 (2007040)
I1215 22:19:21.392817 25506 layer_factory.hpp:74] Creating layer inception_5a/relu_3x3
I1215 22:19:21.392823 25506 net.cpp:84] Creating Layer inception_5a/relu_3x3
I1215 22:19:21.392828 25506 net.cpp:380] inception_5a/relu_3x3 <- inception_5a/3x3
I1215 22:19:21.392833 25506 net.cpp:327] inception_5a/relu_3x3 -> inception_5a/3x3 (in-place)
I1215 22:19:21.392839 25506 net.cpp:113] Setting up inception_5a/relu_3x3
I1215 22:19:21.392896 25506 net.cpp:120] Top shape: 128 320 7 7 (2007040)
I1215 22:19:21.392902 25506 layer_factory.hpp:74] Creating layer inception_5a/5x5_reduce
I1215 22:19:21.392910 25506 net.cpp:84] Creating Layer inception_5a/5x5_reduce
I1215 22:19:21.392925 25506 net.cpp:380] inception_5a/5x5_reduce <- pool4/3x3_s2_pool4/3x3_s2_0_split_2
I1215 22:19:21.392931 25506 net.cpp:338] inception_5a/5x5_reduce -> inception_5a/5x5_reduce
I1215 22:19:21.392938 25506 net.cpp:113] Setting up inception_5a/5x5_reduce
I1215 22:19:21.393539 25506 net.cpp:120] Top shape: 128 32 7 7 (200704)
I1215 22:19:21.393553 25506 layer_factory.hpp:74] Creating layer inception_5a/relu_5x5_reduce
I1215 22:19:21.393560 25506 net.cpp:84] Creating Layer inception_5a/relu_5x5_reduce
I1215 22:19:21.393564 25506 net.cpp:380] inception_5a/relu_5x5_reduce <- inception_5a/5x5_reduce
I1215 22:19:21.393573 25506 net.cpp:327] inception_5a/relu_5x5_reduce -> inception_5a/5x5_reduce (in-place)
I1215 22:19:21.393579 25506 net.cpp:113] Setting up inception_5a/relu_5x5_reduce
I1215 22:19:21.393796 25506 net.cpp:120] Top shape: 128 32 7 7 (200704)
I1215 22:19:21.393805 25506 layer_factory.hpp:74] Creating layer inception_5a/5x5
I1215 22:19:21.393813 25506 net.cpp:84] Creating Layer inception_5a/5x5
I1215 22:19:21.393818 25506 net.cpp:380] inception_5a/5x5 <- inception_5a/5x5_reduce
I1215 22:19:21.393826 25506 net.cpp:338] inception_5a/5x5 -> inception_5a/5x5
I1215 22:19:21.393832 25506 net.cpp:113] Setting up inception_5a/5x5
I1215 22:19:21.395161 25506 net.cpp:120] Top shape: 128 128 7 7 (802816)
I1215 22:19:21.395174 25506 layer_factory.hpp:74] Creating layer inception_5a/relu_5x5
I1215 22:19:21.395182 25506 net.cpp:84] Creating Layer inception_5a/relu_5x5
I1215 22:19:21.395187 25506 net.cpp:380] inception_5a/relu_5x5 <- inception_5a/5x5
I1215 22:19:21.395193 25506 net.cpp:327] inception_5a/relu_5x5 -> inception_5a/5x5 (in-place)
I1215 22:19:21.395198 25506 net.cpp:113] Setting up inception_5a/relu_5x5
I1215 22:19:21.395257 25506 net.cpp:120] Top shape: 128 128 7 7 (802816)
I1215 22:19:21.395263 25506 layer_factory.hpp:74] Creating layer inception_5a/pool
I1215 22:19:21.395268 25506 layer_factory.cpp:56] CUDNN does not support padding or multiple tops. Using Caffe's own pooling layer.
I1215 22:19:21.395273 25506 net.cpp:84] Creating Layer inception_5a/pool
I1215 22:19:21.395277 25506 net.cpp:380] inception_5a/pool <- pool4/3x3_s2_pool4/3x3_s2_0_split_3
I1215 22:19:21.395284 25506 net.cpp:338] inception_5a/pool -> inception_5a/pool
I1215 22:19:21.395292 25506 net.cpp:113] Setting up inception_5a/pool
I1215 22:19:21.395298 25506 net.cpp:120] Top shape: 128 832 7 7 (5218304)
I1215 22:19:21.395303 25506 layer_factory.hpp:74] Creating layer inception_5a/pool_proj
I1215 22:19:21.395310 25506 net.cpp:84] Creating Layer inception_5a/pool_proj
I1215 22:19:21.395314 25506 net.cpp:380] inception_5a/pool_proj <- inception_5a/pool
I1215 22:19:21.395323 25506 net.cpp:338] inception_5a/pool_proj -> inception_5a/pool_proj
I1215 22:19:21.395329 25506 net.cpp:113] Setting up inception_5a/pool_proj
I1215 22:19:21.396674 25506 net.cpp:120] Top shape: 128 128 7 7 (802816)
I1215 22:19:21.396689 25506 layer_factory.hpp:74] Creating layer inception_5a/relu_pool_proj
I1215 22:19:21.396695 25506 net.cpp:84] Creating Layer inception_5a/relu_pool_proj
I1215 22:19:21.396700 25506 net.cpp:380] inception_5a/relu_pool_proj <- inception_5a/pool_proj
I1215 22:19:21.396706 25506 net.cpp:327] inception_5a/relu_pool_proj -> inception_5a/pool_proj (in-place)
I1215 22:19:21.396713 25506 net.cpp:113] Setting up inception_5a/relu_pool_proj
I1215 22:19:21.396769 25506 net.cpp:120] Top shape: 128 128 7 7 (802816)
I1215 22:19:21.396774 25506 layer_factory.hpp:74] Creating layer inception_5a/output
I1215 22:19:21.396780 25506 net.cpp:84] Creating Layer inception_5a/output
I1215 22:19:21.396783 25506 net.cpp:380] inception_5a/output <- inception_5a/1x1
I1215 22:19:21.396788 25506 net.cpp:380] inception_5a/output <- inception_5a/3x3
I1215 22:19:21.396792 25506 net.cpp:380] inception_5a/output <- inception_5a/5x5
I1215 22:19:21.396797 25506 net.cpp:380] inception_5a/output <- inception_5a/pool_proj
I1215 22:19:21.396802 25506 net.cpp:338] inception_5a/output -> inception_5a/output
I1215 22:19:21.396818 25506 net.cpp:113] Setting up inception_5a/output
I1215 22:19:21.396831 25506 net.cpp:120] Top shape: 128 832 7 7 (5218304)
I1215 22:19:21.396836 25506 layer_factory.hpp:74] Creating layer inception_5a/output_inception_5a/output_0_split
I1215 22:19:21.396842 25506 net.cpp:84] Creating Layer inception_5a/output_inception_5a/output_0_split
I1215 22:19:21.396844 25506 net.cpp:380] inception_5a/output_inception_5a/output_0_split <- inception_5a/output
I1215 22:19:21.396852 25506 net.cpp:338] inception_5a/output_inception_5a/output_0_split -> inception_5a/output_inception_5a/output_0_split_0
I1215 22:19:21.396858 25506 net.cpp:338] inception_5a/output_inception_5a/output_0_split -> inception_5a/output_inception_5a/output_0_split_1
I1215 22:19:21.396863 25506 net.cpp:338] inception_5a/output_inception_5a/output_0_split -> inception_5a/output_inception_5a/output_0_split_2
I1215 22:19:21.396869 25506 net.cpp:338] inception_5a/output_inception_5a/output_0_split -> inception_5a/output_inception_5a/output_0_split_3
I1215 22:19:21.396874 25506 net.cpp:113] Setting up inception_5a/output_inception_5a/output_0_split
I1215 22:19:21.396881 25506 net.cpp:120] Top shape: 128 832 7 7 (5218304)
I1215 22:19:21.396885 25506 net.cpp:120] Top shape: 128 832 7 7 (5218304)
I1215 22:19:21.396889 25506 net.cpp:120] Top shape: 128 832 7 7 (5218304)
I1215 22:19:21.396894 25506 net.cpp:120] Top shape: 128 832 7 7 (5218304)
I1215 22:19:21.396898 25506 layer_factory.hpp:74] Creating layer inception_5b/1x1
I1215 22:19:21.396905 25506 net.cpp:84] Creating Layer inception_5b/1x1
I1215 22:19:21.396909 25506 net.cpp:380] inception_5b/1x1 <- inception_5a/output_inception_5a/output_0_split_0
I1215 22:19:21.396915 25506 net.cpp:338] inception_5b/1x1 -> inception_5b/1x1
I1215 22:19:21.396922 25506 net.cpp:113] Setting up inception_5b/1x1
I1215 22:19:21.400259 25506 net.cpp:120] Top shape: 128 384 7 7 (2408448)
I1215 22:19:21.400274 25506 layer_factory.hpp:74] Creating layer inception_5b/relu_1x1
I1215 22:19:21.400280 25506 net.cpp:84] Creating Layer inception_5b/relu_1x1
I1215 22:19:21.400285 25506 net.cpp:380] inception_5b/relu_1x1 <- inception_5b/1x1
I1215 22:19:21.400290 25506 net.cpp:327] inception_5b/relu_1x1 -> inception_5b/1x1 (in-place)
I1215 22:19:21.400296 25506 net.cpp:113] Setting up inception_5b/relu_1x1
I1215 22:19:21.400516 25506 net.cpp:120] Top shape: 128 384 7 7 (2408448)
I1215 22:19:21.400526 25506 layer_factory.hpp:74] Creating layer inception_5b/3x3_reduce
I1215 22:19:21.400534 25506 net.cpp:84] Creating Layer inception_5b/3x3_reduce
I1215 22:19:21.400539 25506 net.cpp:380] inception_5b/3x3_reduce <- inception_5a/output_inception_5a/output_0_split_1
I1215 22:19:21.400547 25506 net.cpp:338] inception_5b/3x3_reduce -> inception_5b/3x3_reduce
I1215 22:19:21.400554 25506 net.cpp:113] Setting up inception_5b/3x3_reduce
I1215 22:19:21.402392 25506 net.cpp:120] Top shape: 128 192 7 7 (1204224)
I1215 22:19:21.402406 25506 layer_factory.hpp:74] Creating layer inception_5b/relu_3x3_reduce
I1215 22:19:21.402415 25506 net.cpp:84] Creating Layer inception_5b/relu_3x3_reduce
I1215 22:19:21.402420 25506 net.cpp:380] inception_5b/relu_3x3_reduce <- inception_5b/3x3_reduce
I1215 22:19:21.402425 25506 net.cpp:327] inception_5b/relu_3x3_reduce -> inception_5b/3x3_reduce (in-place)
I1215 22:19:21.402431 25506 net.cpp:113] Setting up inception_5b/relu_3x3_reduce
I1215 22:19:21.402490 25506 net.cpp:120] Top shape: 128 192 7 7 (1204224)
I1215 22:19:21.402497 25506 layer_factory.hpp:74] Creating layer inception_5b/3x3
I1215 22:19:21.402503 25506 net.cpp:84] Creating Layer inception_5b/3x3
I1215 22:19:21.402508 25506 net.cpp:380] inception_5b/3x3 <- inception_5b/3x3_reduce
I1215 22:19:21.402514 25506 net.cpp:338] inception_5b/3x3 -> inception_5b/3x3
I1215 22:19:21.402537 25506 net.cpp:113] Setting up inception_5b/3x3
I1215 22:19:21.408738 25506 net.cpp:120] Top shape: 128 384 7 7 (2408448)
I1215 22:19:21.408753 25506 layer_factory.hpp:74] Creating layer inception_5b/relu_3x3
I1215 22:19:21.408759 25506 net.cpp:84] Creating Layer inception_5b/relu_3x3
I1215 22:19:21.408768 25506 net.cpp:380] inception_5b/relu_3x3 <- inception_5b/3x3
I1215 22:19:21.408781 25506 net.cpp:327] inception_5b/relu_3x3 -> inception_5b/3x3 (in-place)
I1215 22:19:21.408787 25506 net.cpp:113] Setting up inception_5b/relu_3x3
I1215 22:19:21.408844 25506 net.cpp:120] Top shape: 128 384 7 7 (2408448)
I1215 22:19:21.408850 25506 layer_factory.hpp:74] Creating layer inception_5b/5x5_reduce
I1215 22:19:21.408856 25506 net.cpp:84] Creating Layer inception_5b/5x5_reduce
I1215 22:19:21.408860 25506 net.cpp:380] inception_5b/5x5_reduce <- inception_5a/output_inception_5a/output_0_split_2
I1215 22:19:21.408869 25506 net.cpp:338] inception_5b/5x5_reduce -> inception_5b/5x5_reduce
I1215 22:19:21.408875 25506 net.cpp:113] Setting up inception_5b/5x5_reduce
I1215 22:19:21.409605 25506 net.cpp:120] Top shape: 128 48 7 7 (301056)
I1215 22:19:21.409620 25506 layer_factory.hpp:74] Creating layer inception_5b/relu_5x5_reduce
I1215 22:19:21.409626 25506 net.cpp:84] Creating Layer inception_5b/relu_5x5_reduce
I1215 22:19:21.409631 25506 net.cpp:380] inception_5b/relu_5x5_reduce <- inception_5b/5x5_reduce
I1215 22:19:21.409636 25506 net.cpp:327] inception_5b/relu_5x5_reduce -> inception_5b/5x5_reduce (in-place)
I1215 22:19:21.409643 25506 net.cpp:113] Setting up inception_5b/relu_5x5_reduce
I1215 22:19:21.409700 25506 net.cpp:120] Top shape: 128 48 7 7 (301056)
I1215 22:19:21.409708 25506 layer_factory.hpp:74] Creating layer inception_5b/5x5
I1215 22:19:21.409715 25506 net.cpp:84] Creating Layer inception_5b/5x5
I1215 22:19:21.409719 25506 net.cpp:380] inception_5b/5x5 <- inception_5b/5x5_reduce
I1215 22:19:21.409725 25506 net.cpp:338] inception_5b/5x5 -> inception_5b/5x5
I1215 22:19:21.409731 25506 net.cpp:113] Setting up inception_5b/5x5
I1215 22:19:21.411506 25506 net.cpp:120] Top shape: 128 128 7 7 (802816)
I1215 22:19:21.411520 25506 layer_factory.hpp:74] Creating layer inception_5b/relu_5x5
I1215 22:19:21.411527 25506 net.cpp:84] Creating Layer inception_5b/relu_5x5
I1215 22:19:21.411532 25506 net.cpp:380] inception_5b/relu_5x5 <- inception_5b/5x5
I1215 22:19:21.411537 25506 net.cpp:327] inception_5b/relu_5x5 -> inception_5b/5x5 (in-place)
I1215 22:19:21.411543 25506 net.cpp:113] Setting up inception_5b/relu_5x5
I1215 22:19:21.411764 25506 net.cpp:120] Top shape: 128 128 7 7 (802816)
I1215 22:19:21.411774 25506 layer_factory.hpp:74] Creating layer inception_5b/pool
I1215 22:19:21.411779 25506 layer_factory.cpp:56] CUDNN does not support padding or multiple tops. Using Caffe's own pooling layer.
I1215 22:19:21.411784 25506 net.cpp:84] Creating Layer inception_5b/pool
I1215 22:19:21.411789 25506 net.cpp:380] inception_5b/pool <- inception_5a/output_inception_5a/output_0_split_3
I1215 22:19:21.411795 25506 net.cpp:338] inception_5b/pool -> inception_5b/pool
I1215 22:19:21.411802 25506 net.cpp:113] Setting up inception_5b/pool
I1215 22:19:21.411808 25506 net.cpp:120] Top shape: 128 832 7 7 (5218304)
I1215 22:19:21.411813 25506 layer_factory.hpp:74] Creating layer inception_5b/pool_proj
I1215 22:19:21.411821 25506 net.cpp:84] Creating Layer inception_5b/pool_proj
I1215 22:19:21.411826 25506 net.cpp:380] inception_5b/pool_proj <- inception_5b/pool
I1215 22:19:21.411834 25506 net.cpp:338] inception_5b/pool_proj -> inception_5b/pool_proj
I1215 22:19:21.411841 25506 net.cpp:113] Setting up inception_5b/pool_proj
I1215 22:19:21.413190 25506 net.cpp:120] Top shape: 128 128 7 7 (802816)
I1215 22:19:21.413203 25506 layer_factory.hpp:74] Creating layer inception_5b/relu_pool_proj
I1215 22:19:21.413209 25506 net.cpp:84] Creating Layer inception_5b/relu_pool_proj
I1215 22:19:21.413214 25506 net.cpp:380] inception_5b/relu_pool_proj <- inception_5b/pool_proj
I1215 22:19:21.413223 25506 net.cpp:327] inception_5b/relu_pool_proj -> inception_5b/pool_proj (in-place)
I1215 22:19:21.413228 25506 net.cpp:113] Setting up inception_5b/relu_pool_proj
I1215 22:19:21.413286 25506 net.cpp:120] Top shape: 128 128 7 7 (802816)
I1215 22:19:21.413291 25506 layer_factory.hpp:74] Creating layer inception_5b/output
I1215 22:19:21.413297 25506 net.cpp:84] Creating Layer inception_5b/output
I1215 22:19:21.413305 25506 net.cpp:380] inception_5b/output <- inception_5b/1x1
I1215 22:19:21.413316 25506 net.cpp:380] inception_5b/output <- inception_5b/3x3
I1215 22:19:21.413321 25506 net.cpp:380] inception_5b/output <- inception_5b/5x5
I1215 22:19:21.413326 25506 net.cpp:380] inception_5b/output <- inception_5b/pool_proj
I1215 22:19:21.413332 25506 net.cpp:338] inception_5b/output -> inception_5b/output
I1215 22:19:21.413338 25506 net.cpp:113] Setting up inception_5b/output
I1215 22:19:21.413344 25506 net.cpp:120] Top shape: 128 1024 7 7 (6422528)
I1215 22:19:21.413348 25506 layer_factory.hpp:74] Creating layer pool5/7x7_s1
I1215 22:19:21.413355 25506 net.cpp:84] Creating Layer pool5/7x7_s1
I1215 22:19:21.413359 25506 net.cpp:380] pool5/7x7_s1 <- inception_5b/output
I1215 22:19:21.413367 25506 net.cpp:338] pool5/7x7_s1 -> pool5/7x7_s1
I1215 22:19:21.413373 25506 net.cpp:113] Setting up pool5/7x7_s1
I1215 22:19:21.413437 25506 net.cpp:120] Top shape: 128 1024 1 1 (131072)
I1215 22:19:21.413444 25506 layer_factory.hpp:74] Creating layer pool5/drop_7x7_s1
I1215 22:19:21.413450 25506 net.cpp:84] Creating Layer pool5/drop_7x7_s1
I1215 22:19:21.413455 25506 net.cpp:380] pool5/drop_7x7_s1 <- pool5/7x7_s1
I1215 22:19:21.413460 25506 net.cpp:327] pool5/drop_7x7_s1 -> pool5/7x7_s1 (in-place)
I1215 22:19:21.413465 25506 net.cpp:113] Setting up pool5/drop_7x7_s1
I1215 22:19:21.413470 25506 net.cpp:120] Top shape: 128 1024 1 1 (131072)
I1215 22:19:21.413475 25506 layer_factory.hpp:74] Creating layer loss3/classifier_kaggle
I1215 22:19:21.413482 25506 net.cpp:84] Creating Layer loss3/classifier_kaggle
I1215 22:19:21.413486 25506 net.cpp:380] loss3/classifier_kaggle <- pool5/7x7_s1
I1215 22:19:21.413491 25506 net.cpp:338] loss3/classifier_kaggle -> loss3/classifier_kaggle
I1215 22:19:21.413497 25506 net.cpp:113] Setting up loss3/classifier_kaggle
I1215 22:19:21.417752 25506 net.cpp:120] Top shape: 128 447 (57216)
I1215 22:19:21.417762 25506 layer_factory.hpp:74] Creating layer loss3/loss3
I1215 22:19:21.417768 25506 net.cpp:84] Creating Layer loss3/loss3
I1215 22:19:21.417771 25506 net.cpp:380] loss3/loss3 <- loss3/classifier_kaggle
I1215 22:19:21.417776 25506 net.cpp:380] loss3/loss3 <- label_data_1_split_2
I1215 22:19:21.417781 25506 net.cpp:338] loss3/loss3 -> loss3/loss3
I1215 22:19:21.417788 25506 net.cpp:113] Setting up loss3/loss3
…
I1215 22:19:21.422253 25506 net.cpp:257] The NetState phase (1) differed from the phase (0) specified by a rule in layer data
I1215 22:19:21.423524 25506 net.cpp:42] Initializing net from parameters: 
name: "GoogleNet"
state {
  phase: TEST
}
layer {
  name: "data"
  type: "Data"
  top: "data"
  top: "label"
  include {
    phase: TEST
  }
  transform_param {
    mirror: false
    crop_size: 224
    mean_value: 104
    mean_value: 117
    mean_value: 123
  }
  data_param {
    source: "/home/coldmanck/kaggle/kaggle2_val_lmdb"
    batch_size: 50
    backend: LMDB
  }
}
layer {
  name: "conv1/7x7_s2"
  type: "Convolution"
  bottom: "data"
  top: "conv1/7x7_s2"
  param {
    lr_mult: 1
    decay_mult: 1
  }
  param {
    lr_mult: 2
    decay_mult: 0
  }
  convolution_param {
    num_output: 64
    pad: 3
    kernel_size: 7
    stride: 2
    weight_filler {
      type: "xavier"
      std: 0.1
    }
    bias_filler {
      type: "constant"
      value: 0.2
    }
  }
}
layer {
  name: "conv1/relu_7x7"
  type: "ReLU"
  bottom: "conv1/7x7_s2"
  top: "conv1/7x7_s2"
}
layer {
  name: "pool1/3x3_s2"
  type: "Pooling"
  bottom: "conv1/7x7_s2"
  top: "pool1/3x3_s2"
  pooling_param {
    pool: MAX
    kernel_size: 3
    stride: 2
  }
}
layer {
  name: "pool1/norm1"
  type: "LRN"
  bottom: "pool1/3x3_s2"
  top: "pool1/norm1"
  lrn_param {
    local_size: 5
    alpha: 0.0001
    beta: 0.75
  }
}
layer {
  name: "conv2/3x3_reduce"
  type: "Convolution"
  bottom: "pool1/norm1"
  top: "conv2/3x3_reduce"
  param {
    lr_mult: 1
    decay_mult: 1
  }
  param {
    lr_mult: 2
    decay_mult: 0
  }
  convolution_param {
    num_output: 64
    kernel_size: 1
    weight_filler {
      type: "xavier"
      std: 0.1
    }
    bias_filler {
      type: "constant"
      value: 0.2
    }
  }
}
layer {
  name: "conv2/relu_3x3_reduce"
  type: "ReLU"
  bottom: "conv2/3x3_reduce"
  top: "conv2/3x3_reduce"
}
layer {
  name: "conv2/3x3"
  type: "Convolution"
  bottom: "conv2/3x3_reduce"
  top: "conv2/3x3"
  param {
    lr_mult: 1
    decay_mult: 1
  }
  param {
    lr_mult: 2
    decay_mult: 0
  }
  convolution_param {
    num_output: 192
    pad: 1
    kernel_size: 3
    weight_filler {
      type: "xavier"
      std: 0.03
    }
    bias_filler {
      type: "constant"
      value: 0.2
    }
  }
}
layer {
  name: "conv2/relu_3x3"
  type: "ReLU"
  bottom: "conv2/3x3"
  top: "conv2/3x3"
}
layer {
  name: "conv2/norm2"
  type: "LRN"
  bottom: "conv2/3x3"
  top: "conv2/norm2"
  lrn_param {
    local_size: 5
    alpha: 0.0001
    beta: 0.75
  }
}
layer {
  name: "pool2/3x3_s2"
  type: "Pooling"
  bottom: "conv2/norm2"
  top: "pool2/3x3_s2"
  pooling_param {
    pool: MAX
    kernel_size: 3
    stride: 2
  }
}
layer {
  name: "inception_3a/1x1"
  type: "Convolution"
  bottom: "pool2/3x3_s2"
  top: "inception_3a/1x1"
  param {
    lr_mult: 1
    decay_mult: 1
  }
  param {
    lr_mult: 2
    decay_mult: 0
  }
  convolution_param {
    num_output: 64
    kernel_size: 1
    weight_filler {
      type: "xavier"
      std: 0.03
    }
    bias_filler {
      type: "constant"
      value: 0.2
    }
  }
}
layer {
  name: "inception_3a/relu_1x1"
  type: "ReLU"
  bottom: "inception_3a/1x1"
  top: "inception_3a/1x1"
}
layer {
  name: "inception_3a/3x3_reduce"
  type: "Convolution"
  bottom: "pool2/3x3_s2"
  top: "inception_3a/3x3_reduce"
  param {
    lr_mult: 1
    decay_mult: 1
  }
  param {
    lr_mult: 2
    decay_mult: 0
  }
  convolution_param {
    num_output: 96
    kernel_size: 1
    weight_filler {
      type: "xavier"
      std: 0.09
    }
    bias_filler {
      type: "constant"
      value: 0.2
    }
  }
}
layer {
  name: "inception_3a/relu_3x3_reduce"
  type: "ReLU"
  bottom: "inception_3a/3x3_reduce"
  top: "inception_3a/3x3_reduce"
}
layer {
  name: "inception_3a/3x3"
  type: "Convolution"
  bottom: "inception_3a/3x3_reduce"
  top: "inception_3a/3x3"
  param {
    lr_mult: 1
    decay_mult: 1
  }
  param {
    lr_mult: 2
    decay_mult: 0
  }
  convolution_param {
    num_output: 128
    pad: 1
    kernel_size: 3
    weight_filler {
      type: "xavier"
      std: 0.03
    }
    bias_filler {
      type: "constant"
      value: 0.2
    }
  }
}
layer {
  name: "inception_3a/relu_3x3"
  type: "ReLU"
  bottom: "inception_3a/3x3"
  top: "inception_3a/3x3"
}
layer {
  name: "inception_3a/5x5_reduce"
  type: "Convolution"
  bottom: "pool2/3x3_s2"
  top: "inception_3a/5x5_reduce"
  param {
    lr_mult: 1
    decay_mult: 1
  }
  param {
    lr_mult: 2
    decay_mult: 0
  }
  convolution_param {
    num_output: 16
    kernel_size: 1
    weight_filler {
      type: "xavier"
      std: 0.2
    }
    bias_filler {
      type: "constant"
      value: 0.2
    }
  }
}
layer {
  name: "inception_3a/relu_5x5_reduce"
  type: "ReLU"
  bottom: "inception_3a/5x5_reduce"
  top: "inception_3a/5x5_reduce"
}
layer {
  name: "inception_3a/5x5"
  type: "Convolution"
  bottom: "inception_3a/5x5_reduce"
  top: "inception_3a/5x5"
  param {
    lr_mult: 1
    decay_mult: 1
  }
  param {
    lr_mult: 2
    decay_mult: 0
  }
  convolution_param {
    num_output: 32
    pad: 2
    kernel_size: 5
    weight_filler {
      type: "xavier"
      std: 0.03
    }
    bias_filler {
      type: "constant"
      value: 0.2
    }
  }
}
layer {
  name: "inception_3a/relu_5x5"
  type: "ReLU"
  bottom: "inception_3a/5x5"
  top: "inception_3a/5x5"
}
layer {
  name: "inception_3a/pool"
  type: "Pooling"
  bottom: "pool2/3x3_s2"
  top: "inception_3a/pool"
  pooling_param {
    pool: MAX
    kernel_size: 3
    stride: 1
    pad: 1
  }
}
layer {
  name: "inception_3a/pool_proj"
  type: "Convolution"
  bottom: "inception_3a/pool"
  top: "inception_3a/pool_proj"
  param {
    lr_mult: 1
    decay_mult: 1
  }
  param {
    lr_mult: 2
    decay_mult: 0
  }
  convolution_param {
    num_output: 32
    kernel_size: 1
    weight_filler {
      type: "xavier"
      std: 0.1
    }
    bias_filler {
      type: "constant"
      value: 0.2
    }
  }
}
layer {
  name: "inception_3a/relu_pool_proj"
  type: "ReLU"
  bottom: "inception_3a/pool_proj"
  top: "inception_3a/pool_proj"
}
layer {
  name: "inception_3a/output"
  type: "Concat"
  bottom: "inception_3a/1x1"
  bottom: "inception_3a/3x3"
  bottom: "inception_3a/5x5"
  bottom: "inception_3a/pool_proj"
  top: "inception_3a/output"
}
layer {
  name: "inception_3b/1x1"
  type: "Convolution"
  bottom: "inception_3a/output"
  top: "inception_3b/1x1"
  param {
    lr_mult: 1
    decay_mult: 1
  }
  param {
    lr_mult: 2
    decay_mult: 0
  }
  convolution_param {
    num_output: 128
    kernel_size: 1
    weight_filler {
      type: "xavier"
      std: 0.03
    }
    bias_filler {
      type: "constant"
      value: 0.2
    }
  }
}
layer {
  name: "inception_3b/relu_1x1"
  type: "ReLU"
  bottom: "inception_3b/1x1"
  top: "inception_3b/1x1"
}
layer {
  name: "inception_3b/3x3_reduce"
  type: "Convolution"
  bottom: "inception_3a/output"
  top: "inception_3b/3x3_reduce"
  param {
    lr_mult: 1
    decay_mult: 1
  }
  param {
    lr_mult: 2
    decay_mult: 0
  }
  convolution_param {
    num_output: 128
    kernel_size: 1
    weight_filler {
      type: "xavier"
      std: 0.09
    }
    bias_filler {
      type: "constant"
      value: 0.2
    }
  }
}
layer {
  name: "inception_3b/relu_3x3_reduce"
  type: "ReLU"
  bottom: "inception_3b/3x3_reduce"
  top: "inception_3b/3x3_reduce"
}
layer {
  name: "inception_3b/3x3"
  type: "Convolution"
  bottom: "inception_3b/3x3_reduce"
  top: "inception_3b/3x3"
  param {
    lr_mult: 1
    decay_mult: 1
  }
  param {
    lr_mult: 2
    decay_mult: 0
  }
  convolution_param {
    num_output: 192
    pad: 1
    kernel_size: 3
    weight_filler {
      type: "xavier"
      std: 0.03
    }
    bias_filler {
      type: "constant"
      value: 0.2
    }
  }
}
layer {
  name: "inception_3b/relu_3x3"
  type: "ReLU"
  bottom: "inception_3b/3x3"
  top: "inception_3b/3x3"
}
layer {
  name: "inception_3b/5x5_reduce"
  type: "Convolution"
  bottom: "inception_3a/output"
  top: "inception_3b/5x5_reduce"
  param {
    lr_mult: 1
    decay_mult: 1
  }
  param {
    lr_mult: 2
    decay_mult: 0
  }
  convolution_param {
    num_output: 32
    kernel_size: 1
    weight_filler {
      type: "xavier"
      std: 0.2
    }
    bias_filler {
      type: "constant"
      value: 0.2
    }
  }
}
layer {
  name: "inception_3b/relu_5x5_reduce"
  type: "ReLU"
  bottom: "inception_3b/5x5_reduce"
  top: "inception_3b/5x5_reduce"
}
layer {
  name: "inception_3b/5x5"
  type: "Convolution"
  bottom: "inception_3b/5x5_reduce"
  top: "inception_3b/5x5"
  param {
    lr_mult: 1
    decay_mult: 1
  }
  param {
    lr_mult: 2
    decay_mult: 0
  }
  convolution_param {
    num_output: 96
    pad: 2
    kernel_size: 5
    weight_filler {
      type: "xavier"
      std: 0.03
    }
    bias_filler {
      type: "constant"
      value: 0.2
    }
  }
}
layer {
  name: "inception_3b/relu_5x5"
  type: "ReLU"
  bottom: "inception_3b/5x5"
  top: "inception_3b/5x5"
}
layer {
  name: "inception_3b/pool"
  type: "Pooling"
  bottom: "inception_3a/output"
  top: "inception_3b/pool"
  pooling_param {
    pool: MAX
    kernel_size: 3
    stride: 1
    pad: 1
  }
}
layer {
  name: "inception_3b/pool_proj"
  type: "Convolution"
  bottom: "inception_3b/pool"
  top: "inception_3b/pool_proj"
  param {
    lr_mult: 1
    decay_mult: 1
  }
  param {
    lr_mult: 2
    decay_mult: 0
  }
  convolution_param {
    num_output: 64
    kernel_size: 1
    weight_filler {
      type: "xavier"
      std: 0.1
    }
    bias_filler {
      type: "constant"
      value: 0.2
    }
  }
}
layer {
  name: "inception_3b/relu_pool_proj"
  type: "ReLU"
  bottom: "inception_3b/pool_proj"
  top: "inception_3b/pool_proj"
}
layer {
  name: "inception_3b/output"
  type: "Concat"
  bottom: "inception_3b/1x1"
  bottom: "inception_3b/3x3"
  bottom: "inception_3b/5x5"
  bottom: "inception_3b/pool_proj"
  top: "inception_3b/output"
}
layer {
  name: "pool3/3x3_s2"
  type: "Pooling"
  bottom: "inception_3b/output"
  top: "pool3/3x3_s2"
  pooling_param {
    pool: MAX
    kernel_size: 3
    stride: 2
  }
}
layer {
  name: "inception_4a/1x1"
  type: "Convolution"
  bottom: "pool3/3x3_s2"
  top: "inception_4a/1x1"
  param {
    lr_mult: 1
    decay_mult: 1
  }
  param {
    lr_mult: 2
    decay_mult: 0
  }
  convolution_param {
    num_output: 192
    kernel_size: 1
    weight_filler {
      type: "xavier"
      std: 0.03
    }
    bias_filler {
      type: "constant"
      value: 0.2
    }
  }
}
layer {
  name: "inception_4a/relu_1x1"
  type: "ReLU"
  bottom: "inception_4a/1x1"
  top: "inception_4a/1x1"
}
layer {
  name: "inception_4a/3x3_reduce"
  type: "Convolution"
  bottom: "pool3/3x3_s2"
  top: "inception_4a/3x3_reduce"
  param {
    lr_mult: 1
    decay_mult: 1
  }
  param {
    lr_mult: 2
    decay_mult: 0
  }
  convolution_param {
    num_output: 96
    kernel_size: 1
    weight_filler {
      type: "xavier"
      std: 0.09
    }
    bias_filler {
      type: "constant"
      value: 0.2
    }
  }
}
layer {
  name: "inception_4a/relu_3x3_reduce"
  type: "ReLU"
  bottom: "inception_4a/3x3_reduce"
  top: "inception_4a/3x3_reduce"
}
layer {
  name: "inception_4a/3x3"
  type: "Convolution"
  bottom: "inception_4a/3x3_reduce"
  top: "inception_4a/3x3"
  param {
    lr_mult: 1
    decay_mult: 1
  }
  param {
    lr_mult: 2
    decay_mult: 0
  }
  convolution_param {
    num_output: 208
    pad: 1
    kernel_size: 3
    weight_filler {
      type: "xavier"
      std: 0.03
    }
    bias_filler {
      type: "constant"
      value: 0.2
    }
  }
}
layer {
  name: "inception_4a/relu_3x3"
  type: "ReLU"
  bottom: "inception_4a/3x3"
  top: "inception_4a/3x3"
}
layer {
  name: "inception_4a/5x5_reduce"
  type: "Convolution"
  bottom: "pool3/3x3_s2"
  top: "inception_4a/5x5_reduce"
  param {
    lr_mult: 1
    decay_mult: 1
  }
  param {
    lr_mult: 2
    decay_mult: 0
  }
  convolution_param {
    num_output: 16
    kernel_size: 1
    weight_filler {
      type: "xavier"
      std: 0.2
    }
    bias_filler {
      type: "constant"
      value: 0.2
    }
  }
}
layer {
  name: "inception_4a/relu_5x5_reduce"
  type: "ReLU"
  bottom: "inception_4a/5x5_reduce"
  top: "inception_4a/5x5_reduce"
}
layer {
  name: "inception_4a/5x5"
  type: "Convolution"
  bottom: "inception_4a/5x5_reduce"
  top: "inception_4a/5x5"
  param {
    lr_mult: 1
    decay_mult: 1
  }
  param {
    lr_mult: 2
    decay_mult: 0
  }
  convolution_param {
    num_output: 48
    pad: 2
    kernel_size: 5
    weight_filler {
      type: "xavier"
      std: 0.03
    }
    bias_filler {
      type: "constant"
      value: 0.2
    }
  }
}
layer {
  name: "inception_4a/relu_5x5"
  type: "ReLU"
  bottom: "inception_4a/5x5"
  top: "inception_4a/5x5"
}
layer {
  name: "inception_4a/pool"
  type: "Pooling"
  bottom: "pool3/3x3_s2"
  top: "inception_4a/pool"
  pooling_param {
    pool: MAX
    kernel_size: 3
    stride: 1
    pad: 1
  }
}
layer {
  name: "inception_4a/pool_proj"
  type: "Convolution"
  bottom: "inception_4a/pool"
  top: "inception_4a/pool_proj"
  param {
    lr_mult: 1
    decay_mult: 1
  }
  param {
    lr_mult: 2
    decay_mult: 0
  }
  convolution_param {
    num_output: 64
    kernel_size: 1
    weight_filler {
      type: "xavier"
      std: 0.1
    }
    bias_filler {
      type: "constant"
      value: 0.2
    }
  }
}
layer {
  name: "inception_4a/relu_pool_proj"
  type: "ReLU"
  bottom: "inception_4a/pool_proj"
  top: "inception_4a/pool_proj"
}
layer {
  name: "inception_4a/output"
  type: "Concat"
  bottom: "inception_4a/1x1"
  bottom: "inception_4a/3x3"
  bottom: "inception_4a/5x5"
  bottom: "inception_4a/pool_proj"
  top: "inception_4a/output"
}
layer {
  name: "loss1/ave_pool"
  type: "Pooling"
  bottom: "inception_4a/output"
  top: "loss1/ave_pool"
  pooling_param {
    pool: AVE
    kernel_size: 5
    stride: 3
  }
}
layer {
  name: "loss1/conv"
  type: "Convolution"
  bottom: "loss1/ave_pool"
  top: "loss1/conv"
  param {
    lr_mult: 1
    decay_mult: 1
  }
  param {
    lr_mult: 2
    decay_mult: 0
  }
  convolution_param {
    num_output: 128
    kernel_size: 1
    weight_filler {
      type: "xavier"
      std: 0.08
    }
    bias_filler {
      type: "constant"
      value: 0.2
    }
  }
}
layer {
  name: "loss1/relu_conv"
  type: "ReLU"
  bottom: "loss1/conv"
  top: "loss1/conv"
}
layer {
  name: "loss1/fc"
  type: "InnerProduct"
  bottom: "loss1/conv"
  top: "loss1/fc"
  param {
    lr_mult: 1
    decay_mult: 1
  }
  param {
    lr_mult: 2
    decay_mult: 0
  }
  inner_product_param {
    num_output: 1024
    weight_filler {
      type: "xavier"
      std: 0.02
    }
    bias_filler {
      type: "constant"
      value: 0.2
    }
  }
}
layer {
  name: "loss1/relu_fc"
  type: "ReLU"
  bottom: "loss1/fc"
  top: "loss1/fc"
}
layer {
  name: "loss1/drop_fc"
  type: "Dropout"
  bottom: "loss1/fc"
  top: "loss1/fc"
  dropout_param {
    dropout_ratio: 0.7
  }
}
layer {
  name: "loss1/classifier_kaggle"
  type: "InnerProduct"
  bottom: "loss1/fc"
  top: "loss1/classifier_kaggle"
  param {
    lr_mult: 1
    decay_mult: 1
  }
  param {
    lr_mult: 2
    decay_mult: 0
  }
  inner_product_param {
    num_output: 447
    weight_filler {
      type: "xavier"
      std: 0.0009765625
    }
    bias_filler {
      type: "constant"
      value: 0
    }
  }
}
layer {
  name: "loss1/loss"
  type: "SoftmaxWithLoss"
  bottom: "loss1/classifier_kaggle"
  bottom: "label"
  top: "loss1/loss1"
  loss_weight: 0.3
}
layer {
  name: "loss1/top-1"
  type: "Accuracy"
  bottom: "loss1/classifier_kaggle"
  bottom: "label"
  top: "loss1/top-1"
  include {
    phase: TEST
  }
}
layer {
  name: "loss1/top-5"
  type: "Accuracy"
  bottom: "loss1/classifier_kaggle"
  bottom: "label"
  top: "loss1/top-5"
  include {
    phase: TEST
  }
  accuracy_param {
    top_k: 5
  }
}
layer {
  name: "inception_4b/1x1"
  type: "Convolution"
  bottom: "inception_4a/output"
  top: "inception_4b/1x1"
  param {
    lr_mult: 1
    decay_mult: 1
  }
  param {
    lr_mult: 2
    decay_mult: 0
  }
  convolution_param {
    num_output: 160
    kernel_size: 1
    weight_filler {
      type: "xavier"
      std: 0.03
    }
    bias_filler {
      type: "constant"
      value: 0.2
    }
  }
}
layer {
  name: "inception_4b/relu_1x1"
  type: "ReLU"
  bottom: "inception_4b/1x1"
  top: "inception_4b/1x1"
}
layer {
  name: "inception_4b/3x3_reduce"
  type: "Convolution"
  bottom: "inception_4a/output"
  top: "inception_4b/3x3_reduce"
  param {
    lr_mult: 1
    decay_mult: 1
  }
  param {
    lr_mult: 2
    decay_mult: 0
  }
  convolution_param {
    num_output: 112
    kernel_size: 1
    weight_filler {
      type: "xavier"
      std: 0.09
    }
    bias_filler {
      type: "constant"
      value: 0.2
    }
  }
}
layer {
  name: "inception_4b/relu_3x3_reduce"
  type: "ReLU"
  bottom: "inception_4b/3x3_reduce"
  top: "inception_4b/3x3_reduce"
}
layer {
  name: "inception_4b/3x3"
  type: "Convolution"
  bottom: "inception_4b/3x3_reduce"
  top: "inception_4b/3x3"
  param {
    lr_mult: 1
    decay_mult: 1
  }
  param {
    lr_mult: 2
    decay_mult: 0
  }
  convolution_param {
    num_output: 224
    pad: 1
    kernel_size: 3
    weight_filler {
      type: "xavier"
      std: 0.03
    }
    bias_filler {
      type: "constant"
      value: 0.2
    }
  }
}
layer {
  name: "inception_4b/relu_3x3"
  type: "ReLU"
  bottom: "inception_4b/3x3"
  top: "inception_4b/3x3"
}
layer {
  name: "inception_4b/5x5_reduce"
  type: "Convolution"
  bottom: "inception_4a/output"
  top: "inception_4b/5x5_reduce"
  param {
    lr_mult: 1
    decay_mult: 1
  }
  param {
    lr_mult: 2
    decay_mult: 0
  }
  convolution_param {
    num_output: 24
    kernel_size: 1
    weight_filler {
      type: "xavier"
      std: 0.2
    }
    bias_filler {
      type: "constant"
      value: 0.2
    }
  }
}
layer {
  name: "inception_4b/relu_5x5_reduce"
  type: "ReLU"
  bottom: "inception_4b/5x5_reduce"
  top: "inception_4b/5x5_reduce"
}
layer {
  name: "inception_4b/5x5"
  type: "Convolution"
  bottom: "inception_4b/5x5_reduce"
  top: "inception_4b/5x5"
  param {
    lr_mult: 1
    decay_mult: 1
  }
  param {
    lr_mult: 2
    decay_mult: 0
  }
  convolution_param {
    num_output: 64
    pad: 2
    kernel_size: 5
    weight_filler {
      type: "xavier"
      std: 0.03
    }
    bias_filler {
      type: "constant"
      value: 0.2
    }
  }
}
layer {
  name: "inception_4b/relu_5x5"
  type: "ReLU"
  bottom: "inception_4b/5x5"
  top: "inception_4b/5x5"
}
layer {
  name: "inception_4b/pool"
  type: "Pooling"
  bottom: "inception_4a/output"
  top: "inception_4b/pool"
  pooling_param {
    pool: MAX
    kernel_size: 3
    stride: 1
    pad: 1
  }
}
layer {
  name: "inception_4b/pool_proj"
  type: "Convolution"
  bottom: "inception_4b/pool"
  top: "inception_4b/pool_proj"
  param {
    lr_mult: 1
    decay_mult: 1
  }
  param {
    lr_mult: 2
    decay_mult: 0
  }
  convolution_param {
    num_output: 64
    kernel_size: 1
    weight_filler {
      type: "xavier"
      std: 0.1
    }
    bias_filler {
      type: "constant"
      value: 0.2
    }
  }
}
layer {
  name: "inception_4b/relu_pool_proj"
  type: "ReLU"
  bottom: "inception_4b/pool_proj"
  top: "inception_4b/pool_proj"
}
layer {
  name: "inception_4b/output"
  type: "Concat"
  bottom: "inception_4b/1x1"
  bottom: "inception_4b/3x3"
  bottom: "inception_4b/5x5"
  bottom: "inception_4b/pool_proj"
  top: "inception_4b/output"
}
layer {
  name: "inception_4c/1x1"
  type: "Convolution"
  bottom: "inception_4b/output"
  top: "inception_4c/1x1"
  param {
    lr_mult: 1
    decay_mult: 1
  }
  param {
    lr_mult: 2
    decay_mult: 0
  }
  convolution_param {
    num_output: 128
    kernel_size: 1
    weight_filler {
      type: "xavier"
      std: 0.03
    }
    bias_filler {
      type: "constant"
      value: 0.2
    }
  }
}
layer {
  name: "inception_4c/relu_1x1"
  type: "ReLU"
  bottom: "inception_4c/1x1"
  top: "inception_4c/1x1"
}
layer {
  name: "inception_4c/3x3_reduce"
  type: "Convolution"
  bottom: "inception_4b/output"
  top: "inception_4c/3x3_reduce"
  param {
    lr_mult: 1
    decay_mult: 1
  }
  param {
    lr_mult: 2
    decay_mult: 0
  }
  convolution_param {
    num_output: 128
    kernel_size: 1
    weight_filler {
      type: "xavier"
      std: 0.09
    }
    bias_filler {
      type: "constant"
      value: 0.2
    }
  }
}
layer {
  name: "inception_4c/relu_3x3_reduce"
  type: "ReLU"
  bottom: "inception_4c/3x3_reduce"
  top: "inception_4c/3x3_reduce"
}
layer {
  name: "inception_4c/3x3"
  type: "Convolution"
  bottom: "inception_4c/3x3_reduce"
  top: "inception_4c/3x3"
  param {
    lr_mult: 1
    decay_mult: 1
  }
  param {
    lr_mult: 2
    decay_mult: 0
  }
  convolution_param {
    num_output: 256
    pad: 1
    kernel_size: 3
    weight_filler {
      type: "xavier"
      std: 0.03
    }
    bias_filler {
      type: "constant"
      value: 0.2
    }
  }
}
layer {
  name: "inception_4c/relu_3x3"
  type: "ReLU"
  bottom: "inception_4c/3x3"
  top: "inception_4c/3x3"
}
layer {
  name: "inception_4c/5x5_reduce"
  type: "Convolution"
  bottom: "inception_4b/output"
  top: "inception_4c/5x5_reduce"
  param {
    lr_mult: 1
    decay_mult: 1
  }
  param {
    lr_mult: 2
    decay_mult: 0
  }
  convolution_param {
    num_output: 24
    kernel_size: 1
    weight_filler {
      type: "xavier"
      std: 0.2
    }
    bias_filler {
      type: "constant"
      value: 0.2
    }
  }
}
layer {
  name: "inception_4c/relu_5x5_reduce"
  type: "ReLU"
  bottom: "inception_4c/5x5_reduce"
  top: "inception_4c/5x5_reduce"
}
layer {
  name: "inception_4c/5x5"
  type: "Convolution"
  bottom: "inception_4c/5x5_reduce"
  top: "inception_4c/5x5"
  param {
    lr_mult: 1
    decay_mult: 1
  }
  param {
    lr_mult: 2
    decay_mult: 0
  }
  convolution_param {
    num_output: 64
    pad: 2
    kernel_size: 5
    weight_filler {
      type: "xavier"
      std: 0.03
    }
    bias_filler {
      type: "constant"
      value: 0.2
    }
  }
}
layer {
  name: "inception_4c/relu_5x5"
  type: "ReLU"
  bottom: "inception_4c/5x5"
  top: "inception_4c/5x5"
}
layer {
  name: "inception_4c/pool"
  type: "Pooling"
  bottom: "inception_4b/output"
  top: "inception_4c/pool"
  pooling_param {
    pool: MAX
    kernel_size: 3
    stride: 1
    pad: 1
  }
}
layer {
  name: "inception_4c/pool_proj"
  type: "Convolution"
  bottom: "inception_4c/pool"
  top: "inception_4c/pool_proj"
  param {
    lr_mult: 1
    decay_mult: 1
  }
  param {
    lr_mult: 2
    decay_mult: 0
  }
  convolution_param {
    num_output: 64
    kernel_size: 1
    weight_filler {
      type: "xavier"
      std: 0.1
    }
    bias_filler {
      type: "constant"
      value: 0.2
    }
  }
}
layer {
  name: "inception_4c/relu_pool_proj"
  type: "ReLU"
  bottom: "inception_4c/pool_proj"
  top: "inception_4c/pool_proj"
}
layer {
  name: "inception_4c/output"
  type: "Concat"
  bottom: "inception_4c/1x1"
  bottom: "inception_4c/3x3"
  bottom: "inception_4c/5x5"
  bottom: "inception_4c/pool_proj"
  top: "inception_4c/output"
}
layer {
  name: "inception_4d/1x1"
  type: "Convolution"
  bottom: "inception_4c/output"
  top: "inception_4d/1x1"
  param {
    lr_mult: 1
    decay_mult: 1
  }
  param {
    lr_mult: 2
    decay_mult: 0
  }
  convolution_param {
    num_output: 112
    kernel_size: 1
    weight_filler {
      type: "xavier"
      std: 0.03
    }
    bias_filler {
      type: "constant"
      value: 0.2
    }
  }
}
layer {
  name: "inception_4d/relu_1x1"
  type: "ReLU"
  bottom: "inception_4d/1x1"
  top: "inception_4d/1x1"
}
layer {
  name: "inception_4d/3x3_reduce"
  type: "Convolution"
  bottom: "inception_4c/output"
  top: "inception_4d/3x3_reduce"
  param {
    lr_mult: 1
    decay_mult: 1
  }
  param {
    lr_mult: 2
    decay_mult: 0
  }
  convolution_param {
    num_output: 144
    kernel_size: 1
    weight_filler {
      type: "xavier"
      std: 0.09
    }
    bias_filler {
      type: "constant"
      value: 0.2
    }
  }
}
layer {
  name: "inception_4d/relu_3x3_reduce"
  type: "ReLU"
  bottom: "inception_4d/3x3_reduce"
  top: "inception_4d/3x3_reduce"
}
layer {
  name: "inception_4d/3x3"
  type: "Convolution"
  bottom: "inception_4d/3x3_reduce"
  top: "inception_4d/3x3"
  param {
    lr_mult: 1
    decay_mult: 1
  }
  param {
    lr_mult: 2
    decay_mult: 0
  }
  convolution_param {
    num_output: 288
    pad: 1
    kernel_size: 3
    weight_filler {
      type: "xavier"
      std: 0.03
    }
    bias_filler {
      type: "constant"
      value: 0.2
    }
  }
}
layer {
  name: "inception_4d/relu_3x3"
  type: "ReLU"
  bottom: "inception_4d/3x3"
  top: "inception_4d/3x3"
}
layer {
  name: "inception_4d/5x5_reduce"
  type: "Convolution"
  bottom: "inception_4c/output"
  top: "inception_4d/5x5_reduce"
  param {
    lr_mult: 1
    decay_mult: 1
  }
  param {
    lr_mult: 2
    decay_mult: 0
  }
  convolution_param {
    num_output: 32
    kernel_size: 1
    weight_filler {
      type: "xavier"
      std: 0.2
    }
    bias_filler {
      type: "constant"
      value: 0.2
    }
  }
}
layer {
  name: "inception_4d/relu_5x5_reduce"
  type: "ReLU"
  bottom: "inception_4d/5x5_reduce"
  top: "inception_4d/5x5_reduce"
}
layer {
  name: "inception_4d/5x5"
  type: "Convolution"
  bottom: "inception_4d/5x5_reduce"
  top: "inception_4d/5x5"
  param {
    lr_mult: 1
    decay_mult: 1
  }
  param {
    lr_mult: 2
    decay_mult: 0
  }
  convolution_param {
    num_output: 64
    pad: 2
    kernel_size: 5
    weight_filler {
      type: "xavier"
      std: 0.03
    }
    bias_filler {
      type: "constant"
      value: 0.2
    }
  }
}
layer {
  name: "inception_4d/relu_5x5"
  type: "ReLU"
  bottom: "inception_4d/5x5"
  top: "inception_4d/5x5"
}
layer {
  name: "inception_4d/pool"
  type: "Pooling"
  bottom: "inception_4c/output"
  top: "inception_4d/pool"
  pooling_param {
    pool: MAX
    kernel_size: 3
    stride: 1
    pad: 1
  }
}
layer {
  name: "inception_4d/pool_proj"
  type: "Convolution"
  bottom: "inception_4d/pool"
  top: "inception_4d/pool_proj"
  param {
    lr_mult: 1
    decay_mult: 1
  }
  param {
    lr_mult: 2
    decay_mult: 0
  }
…
I1215 22:19:21.486593 25506 net.cpp:84] Creating Layer inception_4c/1x1
I1215 22:19:21.486596 25506 net.cpp:380] inception_4c/1x1 <- inception_4b/output_inception_4b/output_0_split_0
I1215 22:19:21.486603 25506 net.cpp:338] inception_4c/1x1 -> inception_4c/1x1
I1215 22:19:21.486609 25506 net.cpp:113] Setting up inception_4c/1x1
I1215 22:19:21.487582 25506 net.cpp:120] Top shape: 50 128 14 14 (1254400)
I1215 22:19:21.487596 25506 layer_factory.hpp:74] Creating layer inception_4c/relu_1x1
I1215 22:19:21.487602 25506 net.cpp:84] Creating Layer inception_4c/relu_1x1
I1215 22:19:21.487607 25506 net.cpp:380] inception_4c/relu_1x1 <- inception_4c/1x1
I1215 22:19:21.487612 25506 net.cpp:327] inception_4c/relu_1x1 -> inception_4c/1x1 (in-place)
I1215 22:19:21.487618 25506 net.cpp:113] Setting up inception_4c/relu_1x1
I1215 22:19:21.487843 25506 net.cpp:120] Top shape: 50 128 14 14 (1254400)
I1215 22:19:21.487853 25506 layer_factory.hpp:74] Creating layer inception_4c/3x3_reduce
I1215 22:19:21.487870 25506 net.cpp:84] Creating Layer inception_4c/3x3_reduce
I1215 22:19:21.487875 25506 net.cpp:380] inception_4c/3x3_reduce <- inception_4b/output_inception_4b/output_0_split_1
I1215 22:19:21.487884 25506 net.cpp:338] inception_4c/3x3_reduce -> inception_4c/3x3_reduce
I1215 22:19:21.487891 25506 net.cpp:113] Setting up inception_4c/3x3_reduce
I1215 22:19:21.488870 25506 net.cpp:120] Top shape: 50 128 14 14 (1254400)
I1215 22:19:21.488883 25506 layer_factory.hpp:74] Creating layer inception_4c/relu_3x3_reduce
I1215 22:19:21.488891 25506 net.cpp:84] Creating Layer inception_4c/relu_3x3_reduce
I1215 22:19:21.488896 25506 net.cpp:380] inception_4c/relu_3x3_reduce <- inception_4c/3x3_reduce
I1215 22:19:21.488903 25506 net.cpp:327] inception_4c/relu_3x3_reduce -> inception_4c/3x3_reduce (in-place)
I1215 22:19:21.488909 25506 net.cpp:113] Setting up inception_4c/relu_3x3_reduce
I1215 22:19:21.488967 25506 net.cpp:120] Top shape: 50 128 14 14 (1254400)
I1215 22:19:21.488972 25506 layer_factory.hpp:74] Creating layer inception_4c/3x3
I1215 22:19:21.488979 25506 net.cpp:84] Creating Layer inception_4c/3x3
I1215 22:19:21.488983 25506 net.cpp:380] inception_4c/3x3 <- inception_4c/3x3_reduce
I1215 22:19:21.488991 25506 net.cpp:338] inception_4c/3x3 -> inception_4c/3x3
I1215 22:19:21.488997 25506 net.cpp:113] Setting up inception_4c/3x3
I1215 22:19:21.492125 25506 net.cpp:120] Top shape: 50 256 14 14 (2508800)
I1215 22:19:21.492148 25506 layer_factory.hpp:74] Creating layer inception_4c/relu_3x3
I1215 22:19:21.492156 25506 net.cpp:84] Creating Layer inception_4c/relu_3x3
I1215 22:19:21.492159 25506 net.cpp:380] inception_4c/relu_3x3 <- inception_4c/3x3
I1215 22:19:21.492166 25506 net.cpp:327] inception_4c/relu_3x3 -> inception_4c/3x3 (in-place)
I1215 22:19:21.492172 25506 net.cpp:113] Setting up inception_4c/relu_3x3
I1215 22:19:21.492233 25506 net.cpp:120] Top shape: 50 256 14 14 (2508800)
I1215 22:19:21.492238 25506 layer_factory.hpp:74] Creating layer inception_4c/5x5_reduce
I1215 22:19:21.492245 25506 net.cpp:84] Creating Layer inception_4c/5x5_reduce
I1215 22:19:21.492250 25506 net.cpp:380] inception_4c/5x5_reduce <- inception_4b/output_inception_4b/output_0_split_2
I1215 22:19:21.492256 25506 net.cpp:338] inception_4c/5x5_reduce -> inception_4c/5x5_reduce
I1215 22:19:21.492262 25506 net.cpp:113] Setting up inception_4c/5x5_reduce
I1215 22:19:21.492736 25506 net.cpp:120] Top shape: 50 24 14 14 (235200)
I1215 22:19:21.492749 25506 layer_factory.hpp:74] Creating layer inception_4c/relu_5x5_reduce
I1215 22:19:21.492758 25506 net.cpp:84] Creating Layer inception_4c/relu_5x5_reduce
I1215 22:19:21.492763 25506 net.cpp:380] inception_4c/relu_5x5_reduce <- inception_4c/5x5_reduce
I1215 22:19:21.492769 25506 net.cpp:327] inception_4c/relu_5x5_reduce -> inception_4c/5x5_reduce (in-place)
I1215 22:19:21.492774 25506 net.cpp:113] Setting up inception_4c/relu_5x5_reduce
I1215 22:19:21.493000 25506 net.cpp:120] Top shape: 50 24 14 14 (235200)
I1215 22:19:21.493010 25506 layer_factory.hpp:74] Creating layer inception_4c/5x5
I1215 22:19:21.493016 25506 net.cpp:84] Creating Layer inception_4c/5x5
I1215 22:19:21.493021 25506 net.cpp:380] inception_4c/5x5 <- inception_4c/5x5_reduce
I1215 22:19:21.493029 25506 net.cpp:338] inception_4c/5x5 -> inception_4c/5x5
I1215 22:19:21.493036 25506 net.cpp:113] Setting up inception_4c/5x5
I1215 22:19:21.493772 25506 net.cpp:120] Top shape: 50 64 14 14 (627200)
I1215 22:19:21.493787 25506 layer_factory.hpp:74] Creating layer inception_4c/relu_5x5
I1215 22:19:21.493794 25506 net.cpp:84] Creating Layer inception_4c/relu_5x5
I1215 22:19:21.493798 25506 net.cpp:380] inception_4c/relu_5x5 <- inception_4c/5x5
I1215 22:19:21.493804 25506 net.cpp:327] inception_4c/relu_5x5 -> inception_4c/5x5 (in-place)
I1215 22:19:21.493810 25506 net.cpp:113] Setting up inception_4c/relu_5x5
I1215 22:19:21.493870 25506 net.cpp:120] Top shape: 50 64 14 14 (627200)
I1215 22:19:21.493876 25506 layer_factory.hpp:74] Creating layer inception_4c/pool
I1215 22:19:21.493886 25506 layer_factory.cpp:56] CUDNN does not support padding or multiple tops. Using Caffe's own pooling layer.
I1215 22:19:21.493897 25506 net.cpp:84] Creating Layer inception_4c/pool
I1215 22:19:21.493902 25506 net.cpp:380] inception_4c/pool <- inception_4b/output_inception_4b/output_0_split_3
I1215 22:19:21.493909 25506 net.cpp:338] inception_4c/pool -> inception_4c/pool
I1215 22:19:21.493916 25506 net.cpp:113] Setting up inception_4c/pool
I1215 22:19:21.493922 25506 net.cpp:120] Top shape: 50 512 14 14 (5017600)
I1215 22:19:21.493927 25506 layer_factory.hpp:74] Creating layer inception_4c/pool_proj
I1215 22:19:21.493935 25506 net.cpp:84] Creating Layer inception_4c/pool_proj
I1215 22:19:21.493939 25506 net.cpp:380] inception_4c/pool_proj <- inception_4c/pool
I1215 22:19:21.493945 25506 net.cpp:338] inception_4c/pool_proj -> inception_4c/pool_proj
I1215 22:19:21.493952 25506 net.cpp:113] Setting up inception_4c/pool_proj
I1215 22:19:21.494618 25506 net.cpp:120] Top shape: 50 64 14 14 (627200)
I1215 22:19:21.494632 25506 layer_factory.hpp:74] Creating layer inception_4c/relu_pool_proj
I1215 22:19:21.494637 25506 net.cpp:84] Creating Layer inception_4c/relu_pool_proj
I1215 22:19:21.494642 25506 net.cpp:380] inception_4c/relu_pool_proj <- inception_4c/pool_proj
I1215 22:19:21.494649 25506 net.cpp:327] inception_4c/relu_pool_proj -> inception_4c/pool_proj (in-place)
I1215 22:19:21.494655 25506 net.cpp:113] Setting up inception_4c/relu_pool_proj
I1215 22:19:21.494711 25506 net.cpp:120] Top shape: 50 64 14 14 (627200)
I1215 22:19:21.494716 25506 layer_factory.hpp:74] Creating layer inception_4c/output
I1215 22:19:21.494722 25506 net.cpp:84] Creating Layer inception_4c/output
I1215 22:19:21.494726 25506 net.cpp:380] inception_4c/output <- inception_4c/1x1
I1215 22:19:21.494730 25506 net.cpp:380] inception_4c/output <- inception_4c/3x3
I1215 22:19:21.494735 25506 net.cpp:380] inception_4c/output <- inception_4c/5x5
I1215 22:19:21.494740 25506 net.cpp:380] inception_4c/output <- inception_4c/pool_proj
I1215 22:19:21.494746 25506 net.cpp:338] inception_4c/output -> inception_4c/output
I1215 22:19:21.494752 25506 net.cpp:113] Setting up inception_4c/output
I1215 22:19:21.494758 25506 net.cpp:120] Top shape: 50 512 14 14 (5017600)
I1215 22:19:21.494761 25506 layer_factory.hpp:74] Creating layer inception_4c/output_inception_4c/output_0_split
I1215 22:19:21.494767 25506 net.cpp:84] Creating Layer inception_4c/output_inception_4c/output_0_split
I1215 22:19:21.494771 25506 net.cpp:380] inception_4c/output_inception_4c/output_0_split <- inception_4c/output
I1215 22:19:21.494776 25506 net.cpp:338] inception_4c/output_inception_4c/output_0_split -> inception_4c/output_inception_4c/output_0_split_0
I1215 22:19:21.494781 25506 net.cpp:338] inception_4c/output_inception_4c/output_0_split -> inception_4c/output_inception_4c/output_0_split_1
I1215 22:19:21.494789 25506 net.cpp:338] inception_4c/output_inception_4c/output_0_split -> inception_4c/output_inception_4c/output_0_split_2
I1215 22:19:21.494794 25506 net.cpp:338] inception_4c/output_inception_4c/output_0_split -> inception_4c/output_inception_4c/output_0_split_3
I1215 22:19:21.494799 25506 net.cpp:113] Setting up inception_4c/output_inception_4c/output_0_split
I1215 22:19:21.494806 25506 net.cpp:120] Top shape: 50 512 14 14 (5017600)
I1215 22:19:21.494809 25506 net.cpp:120] Top shape: 50 512 14 14 (5017600)
I1215 22:19:21.494813 25506 net.cpp:120] Top shape: 50 512 14 14 (5017600)
I1215 22:19:21.494818 25506 net.cpp:120] Top shape: 50 512 14 14 (5017600)
I1215 22:19:21.494822 25506 layer_factory.hpp:74] Creating layer inception_4d/1x1
I1215 22:19:21.494829 25506 net.cpp:84] Creating Layer inception_4d/1x1
I1215 22:19:21.494833 25506 net.cpp:380] inception_4d/1x1 <- inception_4c/output_inception_4c/output_0_split_0
I1215 22:19:21.494838 25506 net.cpp:338] inception_4d/1x1 -> inception_4d/1x1
I1215 22:19:21.494844 25506 net.cpp:113] Setting up inception_4d/1x1
I1215 22:19:21.495744 25506 net.cpp:120] Top shape: 50 112 14 14 (1097600)
I1215 22:19:21.495757 25506 layer_factory.hpp:74] Creating layer inception_4d/relu_1x1
I1215 22:19:21.495772 25506 net.cpp:84] Creating Layer inception_4d/relu_1x1
I1215 22:19:21.495777 25506 net.cpp:380] inception_4d/relu_1x1 <- inception_4d/1x1
I1215 22:19:21.495784 25506 net.cpp:327] inception_4d/relu_1x1 -> inception_4d/1x1 (in-place)
I1215 22:19:21.495791 25506 net.cpp:113] Setting up inception_4d/relu_1x1
I1215 22:19:21.495846 25506 net.cpp:120] Top shape: 50 112 14 14 (1097600)
I1215 22:19:21.495851 25506 layer_factory.hpp:74] Creating layer inception_4d/3x3_reduce
I1215 22:19:21.495862 25506 net.cpp:84] Creating Layer inception_4d/3x3_reduce
I1215 22:19:21.495867 25506 net.cpp:380] inception_4d/3x3_reduce <- inception_4c/output_inception_4c/output_0_split_1
I1215 22:19:21.495872 25506 net.cpp:338] inception_4d/3x3_reduce -> inception_4d/3x3_reduce
I1215 22:19:21.495879 25506 net.cpp:113] Setting up inception_4d/3x3_reduce
I1215 22:19:21.496929 25506 net.cpp:120] Top shape: 50 144 14 14 (1411200)
I1215 22:19:21.496943 25506 layer_factory.hpp:74] Creating layer inception_4d/relu_3x3_reduce
I1215 22:19:21.496951 25506 net.cpp:84] Creating Layer inception_4d/relu_3x3_reduce
I1215 22:19:21.496956 25506 net.cpp:380] inception_4d/relu_3x3_reduce <- inception_4d/3x3_reduce
I1215 22:19:21.496963 25506 net.cpp:327] inception_4d/relu_3x3_reduce -> inception_4d/3x3_reduce (in-place)
I1215 22:19:21.496968 25506 net.cpp:113] Setting up inception_4d/relu_3x3_reduce
I1215 22:19:21.497201 25506 net.cpp:120] Top shape: 50 144 14 14 (1411200)
I1215 22:19:21.497211 25506 layer_factory.hpp:74] Creating layer inception_4d/3x3
I1215 22:19:21.497220 25506 net.cpp:84] Creating Layer inception_4d/3x3
I1215 22:19:21.497225 25506 net.cpp:380] inception_4d/3x3 <- inception_4d/3x3_reduce
I1215 22:19:21.497231 25506 net.cpp:338] inception_4d/3x3 -> inception_4d/3x3
I1215 22:19:21.497238 25506 net.cpp:113] Setting up inception_4d/3x3
I1215 22:19:21.501096 25506 net.cpp:120] Top shape: 50 288 14 14 (2822400)
I1215 22:19:21.501122 25506 layer_factory.hpp:74] Creating layer inception_4d/relu_3x3
I1215 22:19:21.501130 25506 net.cpp:84] Creating Layer inception_4d/relu_3x3
I1215 22:19:21.501135 25506 net.cpp:380] inception_4d/relu_3x3 <- inception_4d/3x3
I1215 22:19:21.501142 25506 net.cpp:327] inception_4d/relu_3x3 -> inception_4d/3x3 (in-place)
I1215 22:19:21.501148 25506 net.cpp:113] Setting up inception_4d/relu_3x3
I1215 22:19:21.501214 25506 net.cpp:120] Top shape: 50 288 14 14 (2822400)
I1215 22:19:21.501220 25506 layer_factory.hpp:74] Creating layer inception_4d/5x5_reduce
I1215 22:19:21.501230 25506 net.cpp:84] Creating Layer inception_4d/5x5_reduce
I1215 22:19:21.501233 25506 net.cpp:380] inception_4d/5x5_reduce <- inception_4c/output_inception_4c/output_0_split_2
I1215 22:19:21.501241 25506 net.cpp:338] inception_4d/5x5_reduce -> inception_4d/5x5_reduce
I1215 22:19:21.501248 25506 net.cpp:113] Setting up inception_4d/5x5_reduce
I1215 22:19:21.501827 25506 net.cpp:120] Top shape: 50 32 14 14 (313600)
I1215 22:19:21.501840 25506 layer_factory.hpp:74] Creating layer inception_4d/relu_5x5_reduce
I1215 22:19:21.501848 25506 net.cpp:84] Creating Layer inception_4d/relu_5x5_reduce
I1215 22:19:21.501852 25506 net.cpp:380] inception_4d/relu_5x5_reduce <- inception_4d/5x5_reduce
I1215 22:19:21.501858 25506 net.cpp:327] inception_4d/relu_5x5_reduce -> inception_4d/5x5_reduce (in-place)
I1215 22:19:21.501864 25506 net.cpp:113] Setting up inception_4d/relu_5x5_reduce
I1215 22:19:21.501924 25506 net.cpp:120] Top shape: 50 32 14 14 (313600)
I1215 22:19:21.501929 25506 layer_factory.hpp:74] Creating layer inception_4d/5x5
I1215 22:19:21.501938 25506 net.cpp:84] Creating Layer inception_4d/5x5
I1215 22:19:21.501942 25506 net.cpp:380] inception_4d/5x5 <- inception_4d/5x5_reduce
I1215 22:19:21.501948 25506 net.cpp:338] inception_4d/5x5 -> inception_4d/5x5
I1215 22:19:21.501955 25506 net.cpp:113] Setting up inception_4d/5x5
I1215 22:19:21.502787 25506 net.cpp:120] Top shape: 50 64 14 14 (627200)
I1215 22:19:21.502800 25506 layer_factory.hpp:74] Creating layer inception_4d/relu_5x5
I1215 22:19:21.502812 25506 net.cpp:84] Creating Layer inception_4d/relu_5x5
I1215 22:19:21.502823 25506 net.cpp:380] inception_4d/relu_5x5 <- inception_4d/5x5
I1215 22:19:21.502830 25506 net.cpp:327] inception_4d/relu_5x5 -> inception_4d/5x5 (in-place)
I1215 22:19:21.502835 25506 net.cpp:113] Setting up inception_4d/relu_5x5
I1215 22:19:21.502897 25506 net.cpp:120] Top shape: 50 64 14 14 (627200)
I1215 22:19:21.502902 25506 layer_factory.hpp:74] Creating layer inception_4d/pool
I1215 22:19:21.502907 25506 layer_factory.cpp:56] CUDNN does not support padding or multiple tops. Using Caffe's own pooling layer.
I1215 22:19:21.502910 25506 net.cpp:84] Creating Layer inception_4d/pool
I1215 22:19:21.502915 25506 net.cpp:380] inception_4d/pool <- inception_4c/output_inception_4c/output_0_split_3
I1215 22:19:21.502923 25506 net.cpp:338] inception_4d/pool -> inception_4d/pool
I1215 22:19:21.502928 25506 net.cpp:113] Setting up inception_4d/pool
I1215 22:19:21.502935 25506 net.cpp:120] Top shape: 50 512 14 14 (5017600)
I1215 22:19:21.502939 25506 layer_factory.hpp:74] Creating layer inception_4d/pool_proj
I1215 22:19:21.502948 25506 net.cpp:84] Creating Layer inception_4d/pool_proj
I1215 22:19:21.502951 25506 net.cpp:380] inception_4d/pool_proj <- inception_4d/pool
I1215 22:19:21.502956 25506 net.cpp:338] inception_4d/pool_proj -> inception_4d/pool_proj
I1215 22:19:21.502964 25506 net.cpp:113] Setting up inception_4d/pool_proj
I1215 22:19:21.503628 25506 net.cpp:120] Top shape: 50 64 14 14 (627200)
I1215 22:19:21.503641 25506 layer_factory.hpp:74] Creating layer inception_4d/relu_pool_proj
I1215 22:19:21.503648 25506 net.cpp:84] Creating Layer inception_4d/relu_pool_proj
I1215 22:19:21.503653 25506 net.cpp:380] inception_4d/relu_pool_proj <- inception_4d/pool_proj
I1215 22:19:21.503659 25506 net.cpp:327] inception_4d/relu_pool_proj -> inception_4d/pool_proj (in-place)
I1215 22:19:21.503666 25506 net.cpp:113] Setting up inception_4d/relu_pool_proj
I1215 22:19:21.503891 25506 net.cpp:120] Top shape: 50 64 14 14 (627200)
I1215 22:19:21.503901 25506 layer_factory.hpp:74] Creating layer inception_4d/output
I1215 22:19:21.503907 25506 net.cpp:84] Creating Layer inception_4d/output
I1215 22:19:21.503912 25506 net.cpp:380] inception_4d/output <- inception_4d/1x1
I1215 22:19:21.503917 25506 net.cpp:380] inception_4d/output <- inception_4d/3x3
I1215 22:19:21.503921 25506 net.cpp:380] inception_4d/output <- inception_4d/5x5
I1215 22:19:21.503926 25506 net.cpp:380] inception_4d/output <- inception_4d/pool_proj
I1215 22:19:21.503931 25506 net.cpp:338] inception_4d/output -> inception_4d/output
I1215 22:19:21.503937 25506 net.cpp:113] Setting up inception_4d/output
I1215 22:19:21.503943 25506 net.cpp:120] Top shape: 50 528 14 14 (5174400)
I1215 22:19:21.503947 25506 layer_factory.hpp:74] Creating layer inception_4d/output_inception_4d/output_0_split
I1215 22:19:21.503952 25506 net.cpp:84] Creating Layer inception_4d/output_inception_4d/output_0_split
I1215 22:19:21.503957 25506 net.cpp:380] inception_4d/output_inception_4d/output_0_split <- inception_4d/output
I1215 22:19:21.503965 25506 net.cpp:338] inception_4d/output_inception_4d/output_0_split -> inception_4d/output_inception_4d/output_0_split_0
I1215 22:19:21.503972 25506 net.cpp:338] inception_4d/output_inception_4d/output_0_split -> inception_4d/output_inception_4d/output_0_split_1
I1215 22:19:21.503978 25506 net.cpp:338] inception_4d/output_inception_4d/output_0_split -> inception_4d/output_inception_4d/output_0_split_2
I1215 22:19:21.503983 25506 net.cpp:338] inception_4d/output_inception_4d/output_0_split -> inception_4d/output_inception_4d/output_0_split_3
I1215 22:19:21.503988 25506 net.cpp:338] inception_4d/output_inception_4d/output_0_split -> inception_4d/output_inception_4d/output_0_split_4
I1215 22:19:21.503994 25506 net.cpp:113] Setting up inception_4d/output_inception_4d/output_0_split
I1215 22:19:21.504001 25506 net.cpp:120] Top shape: 50 528 14 14 (5174400)
I1215 22:19:21.504005 25506 net.cpp:120] Top shape: 50 528 14 14 (5174400)
I1215 22:19:21.504009 25506 net.cpp:120] Top shape: 50 528 14 14 (5174400)
I1215 22:19:21.504017 25506 net.cpp:120] Top shape: 50 528 14 14 (5174400)
I1215 22:19:21.504027 25506 net.cpp:120] Top shape: 50 528 14 14 (5174400)
I1215 22:19:21.504031 25506 layer_factory.hpp:74] Creating layer loss2/ave_pool
I1215 22:19:21.504036 25506 net.cpp:84] Creating Layer loss2/ave_pool
I1215 22:19:21.504040 25506 net.cpp:380] loss2/ave_pool <- inception_4d/output_inception_4d/output_0_split_0
I1215 22:19:21.504046 25506 net.cpp:338] loss2/ave_pool -> loss2/ave_pool
I1215 22:19:21.504051 25506 net.cpp:113] Setting up loss2/ave_pool
I1215 22:19:21.504113 25506 net.cpp:120] Top shape: 50 528 4 4 (422400)
I1215 22:19:21.504119 25506 layer_factory.hpp:74] Creating layer loss2/conv
I1215 22:19:21.504125 25506 net.cpp:84] Creating Layer loss2/conv
I1215 22:19:21.504130 25506 net.cpp:380] loss2/conv <- loss2/ave_pool
I1215 22:19:21.504137 25506 net.cpp:338] loss2/conv -> loss2/conv
I1215 22:19:21.504143 25506 net.cpp:113] Setting up loss2/conv
I1215 22:19:21.505147 25506 net.cpp:120] Top shape: 50 128 4 4 (102400)
I1215 22:19:21.505162 25506 layer_factory.hpp:74] Creating layer loss2/relu_conv
I1215 22:19:21.505169 25506 net.cpp:84] Creating Layer loss2/relu_conv
I1215 22:19:21.505173 25506 net.cpp:380] loss2/relu_conv <- loss2/conv
I1215 22:19:21.505179 25506 net.cpp:327] loss2/relu_conv -> loss2/conv (in-place)
I1215 22:19:21.505185 25506 net.cpp:113] Setting up loss2/relu_conv
I1215 22:19:21.505241 25506 net.cpp:120] Top shape: 50 128 4 4 (102400)
I1215 22:19:21.505249 25506 layer_factory.hpp:74] Creating layer loss2/fc
I1215 22:19:21.505254 25506 net.cpp:84] Creating Layer loss2/fc
I1215 22:19:21.505259 25506 net.cpp:380] loss2/fc <- loss2/conv
I1215 22:19:21.505264 25506 net.cpp:338] loss2/fc -> loss2/fc
I1215 22:19:21.505270 25506 net.cpp:113] Setting up loss2/fc
I1215 22:19:21.523882 25506 net.cpp:120] Top shape: 50 1024 (51200)
I1215 22:19:21.523893 25506 layer_factory.hpp:74] Creating layer loss2/relu_fc
I1215 22:19:21.523900 25506 net.cpp:84] Creating Layer loss2/relu_fc
I1215 22:19:21.523903 25506 net.cpp:380] loss2/relu_fc <- loss2/fc
I1215 22:19:21.523910 25506 net.cpp:327] loss2/relu_fc -> loss2/fc (in-place)
I1215 22:19:21.523916 25506 net.cpp:113] Setting up loss2/relu_fc
I1215 22:19:21.523978 25506 net.cpp:120] Top shape: 50 1024 (51200)
I1215 22:19:21.523984 25506 layer_factory.hpp:74] Creating layer loss2/drop_fc
I1215 22:19:21.523991 25506 net.cpp:84] Creating Layer loss2/drop_fc
I1215 22:19:21.523995 25506 net.cpp:380] loss2/drop_fc <- loss2/fc
I1215 22:19:21.523999 25506 net.cpp:327] loss2/drop_fc -> loss2/fc (in-place)
I1215 22:19:21.524005 25506 net.cpp:113] Setting up loss2/drop_fc
I1215 22:19:21.524010 25506 net.cpp:120] Top shape: 50 1024 (51200)
I1215 22:19:21.524014 25506 layer_factory.hpp:74] Creating layer loss2/classifier_kaggle
I1215 22:19:21.524024 25506 net.cpp:84] Creating Layer loss2/classifier_kaggle
I1215 22:19:21.524027 25506 net.cpp:380] loss2/classifier_kaggle <- loss2/fc
I1215 22:19:21.524032 25506 net.cpp:338] loss2/classifier_kaggle -> loss2/classifier_kaggle
I1215 22:19:21.524039 25506 net.cpp:113] Setting up loss2/classifier_kaggle
I1215 22:19:21.528295 25506 net.cpp:120] Top shape: 50 447 (22350)
I1215 22:19:21.528304 25506 layer_factory.hpp:74] Creating layer loss2/classifier_kaggle_loss2/classifier_kaggle_0_split
I1215 22:19:21.528311 25506 net.cpp:84] Creating Layer loss2/classifier_kaggle_loss2/classifier_kaggle_0_split
I1215 22:19:21.528316 25506 net.cpp:380] loss2/classifier_kaggle_loss2/classifier_kaggle_0_split <- loss2/classifier_kaggle
I1215 22:19:21.528321 25506 net.cpp:338] loss2/classifier_kaggle_loss2/classifier_kaggle_0_split -> loss2/classifier_kaggle_loss2/classifier_kaggle_0_split_0
I1215 22:19:21.528327 25506 net.cpp:338] loss2/classifier_kaggle_loss2/classifier_kaggle_0_split -> loss2/classifier_kaggle_loss2/classifier_kaggle_0_split_1
I1215 22:19:21.528332 25506 net.cpp:338] loss2/classifier_kaggle_loss2/classifier_kaggle_0_split -> loss2/classifier_kaggle_loss2/classifier_kaggle_0_split_2
I1215 22:19:21.528337 25506 net.cpp:113] Setting up loss2/classifier_kaggle_loss2/classifier_kaggle_0_split
I1215 22:19:21.528353 25506 net.cpp:120] Top shape: 50 447 (22350)
I1215 22:19:21.528358 25506 net.cpp:120] Top shape: 50 447 (22350)
I1215 22:19:21.528362 25506 net.cpp:120] Top shape: 50 447 (22350)
I1215 22:19:21.528367 25506 layer_factory.hpp:74] Creating layer loss2/loss
I1215 22:19:21.528374 25506 net.cpp:84] Creating Layer loss2/loss
I1215 22:19:21.528378 25506 net.cpp:380] loss2/loss <- loss2/classifier_kaggle_loss2/classifier_kaggle_0_split_0
I1215 22:19:21.528383 25506 net.cpp:380] loss2/loss <- label_data_1_split_3
I1215 22:19:21.528388 25506 net.cpp:338] loss2/loss -> loss2/loss1
…
I1215 22:19:21.528764 25506 net.cpp:338] loss2/top-5 -> loss2/top-5
I1215 22:19:21.528769 25506 net.cpp:113] Setting up loss2/top-5
I1215 22:19:21.528774 25506 net.cpp:120] Top shape: (1)
I1215 22:19:21.528777 25506 layer_factory.hpp:74] Creating layer inception_4e/1x1
I1215 22:19:21.528789 25506 net.cpp:84] Creating Layer inception_4e/1x1
I1215 22:19:21.528792 25506 net.cpp:380] inception_4e/1x1 <- inception_4d/output_inception_4d/output_0_split_1
I1215 22:19:21.528800 25506 net.cpp:338] inception_4e/1x1 -> inception_4e/1x1
I1215 22:19:21.528805 25506 net.cpp:113] Setting up inception_4e/1x1
I1215 22:19:21.530441 25506 net.cpp:120] Top shape: 50 256 14 14 (2508800)
I1215 22:19:21.530455 25506 layer_factory.hpp:74] Creating layer inception_4e/relu_1x1
I1215 22:19:21.530463 25506 net.cpp:84] Creating Layer inception_4e/relu_1x1
I1215 22:19:21.530468 25506 net.cpp:380] inception_4e/relu_1x1 <- inception_4e/1x1
I1215 22:19:21.530473 25506 net.cpp:327] inception_4e/relu_1x1 -> inception_4e/1x1 (in-place)
I1215 22:19:21.530479 25506 net.cpp:113] Setting up inception_4e/relu_1x1
I1215 22:19:21.530539 25506 net.cpp:120] Top shape: 50 256 14 14 (2508800)
I1215 22:19:21.530544 25506 layer_factory.hpp:74] Creating layer inception_4e/3x3_reduce
I1215 22:19:21.530567 25506 net.cpp:84] Creating Layer inception_4e/3x3_reduce
I1215 22:19:21.530572 25506 net.cpp:380] inception_4e/3x3_reduce <- inception_4d/output_inception_4d/output_0_split_2
I1215 22:19:21.530580 25506 net.cpp:338] inception_4e/3x3_reduce -> inception_4e/3x3_reduce
I1215 22:19:21.530586 25506 net.cpp:113] Setting up inception_4e/3x3_reduce
I1215 22:19:21.531730 25506 net.cpp:120] Top shape: 50 160 14 14 (1568000)
I1215 22:19:21.531744 25506 layer_factory.hpp:74] Creating layer inception_4e/relu_3x3_reduce
I1215 22:19:21.531751 25506 net.cpp:84] Creating Layer inception_4e/relu_3x3_reduce
I1215 22:19:21.531756 25506 net.cpp:380] inception_4e/relu_3x3_reduce <- inception_4e/3x3_reduce
I1215 22:19:21.531762 25506 net.cpp:327] inception_4e/relu_3x3_reduce -> inception_4e/3x3_reduce (in-place)
I1215 22:19:21.531769 25506 net.cpp:113] Setting up inception_4e/relu_3x3_reduce
I1215 22:19:21.531826 25506 net.cpp:120] Top shape: 50 160 14 14 (1568000)
I1215 22:19:21.531834 25506 layer_factory.hpp:74] Creating layer inception_4e/3x3
I1215 22:19:21.531846 25506 net.cpp:84] Creating Layer inception_4e/3x3
I1215 22:19:21.531857 25506 net.cpp:380] inception_4e/3x3 <- inception_4e/3x3_reduce
I1215 22:19:21.531863 25506 net.cpp:338] inception_4e/3x3 -> inception_4e/3x3
I1215 22:19:21.531870 25506 net.cpp:113] Setting up inception_4e/3x3
I1215 22:19:21.536593 25506 net.cpp:120] Top shape: 50 320 14 14 (3136000)
I1215 22:19:21.536608 25506 layer_factory.hpp:74] Creating layer inception_4e/relu_3x3
I1215 22:19:21.536614 25506 net.cpp:84] Creating Layer inception_4e/relu_3x3
I1215 22:19:21.536619 25506 net.cpp:380] inception_4e/relu_3x3 <- inception_4e/3x3
I1215 22:19:21.536625 25506 net.cpp:327] inception_4e/relu_3x3 -> inception_4e/3x3 (in-place)
I1215 22:19:21.536631 25506 net.cpp:113] Setting up inception_4e/relu_3x3
I1215 22:19:21.536854 25506 net.cpp:120] Top shape: 50 320 14 14 (3136000)
I1215 22:19:21.536864 25506 layer_factory.hpp:74] Creating layer inception_4e/5x5_reduce
I1215 22:19:21.536870 25506 net.cpp:84] Creating Layer inception_4e/5x5_reduce
I1215 22:19:21.536875 25506 net.cpp:380] inception_4e/5x5_reduce <- inception_4d/output_inception_4d/output_0_split_3
I1215 22:19:21.536881 25506 net.cpp:338] inception_4e/5x5_reduce -> inception_4e/5x5_reduce
I1215 22:19:21.536890 25506 net.cpp:113] Setting up inception_4e/5x5_reduce
I1215 22:19:21.541195 25506 net.cpp:120] Top shape: 50 32 14 14 (313600)
I1215 22:19:21.541213 25506 layer_factory.hpp:74] Creating layer inception_4e/relu_5x5_reduce
I1215 22:19:21.541223 25506 net.cpp:84] Creating Layer inception_4e/relu_5x5_reduce
I1215 22:19:21.541227 25506 net.cpp:380] inception_4e/relu_5x5_reduce <- inception_4e/5x5_reduce
I1215 22:19:21.541234 25506 net.cpp:327] inception_4e/relu_5x5_reduce -> inception_4e/5x5_reduce (in-place)
I1215 22:19:21.541242 25506 net.cpp:113] Setting up inception_4e/relu_5x5_reduce
I1215 22:19:21.541307 25506 net.cpp:120] Top shape: 50 32 14 14 (313600)
I1215 22:19:21.541313 25506 layer_factory.hpp:74] Creating layer inception_4e/5x5
I1215 22:19:21.541322 25506 net.cpp:84] Creating Layer inception_4e/5x5
I1215 22:19:21.541326 25506 net.cpp:380] inception_4e/5x5 <- inception_4e/5x5_reduce
I1215 22:19:21.541333 25506 net.cpp:338] inception_4e/5x5 -> inception_4e/5x5
I1215 22:19:21.541342 25506 net.cpp:113] Setting up inception_4e/5x5
I1215 22:19:21.542672 25506 net.cpp:120] Top shape: 50 128 14 14 (1254400)
I1215 22:19:21.542686 25506 layer_factory.hpp:74] Creating layer inception_4e/relu_5x5
I1215 22:19:21.542695 25506 net.cpp:84] Creating Layer inception_4e/relu_5x5
I1215 22:19:21.542700 25506 net.cpp:380] inception_4e/relu_5x5 <- inception_4e/5x5
I1215 22:19:21.542704 25506 net.cpp:327] inception_4e/relu_5x5 -> inception_4e/5x5 (in-place)
I1215 22:19:21.542711 25506 net.cpp:113] Setting up inception_4e/relu_5x5
I1215 22:19:21.542770 25506 net.cpp:120] Top shape: 50 128 14 14 (1254400)
I1215 22:19:21.542776 25506 layer_factory.hpp:74] Creating layer inception_4e/pool
I1215 22:19:21.542781 25506 layer_factory.cpp:56] CUDNN does not support padding or multiple tops. Using Caffe's own pooling layer.
I1215 22:19:21.542788 25506 net.cpp:84] Creating Layer inception_4e/pool
I1215 22:19:21.542791 25506 net.cpp:380] inception_4e/pool <- inception_4d/output_inception_4d/output_0_split_4
I1215 22:19:21.542798 25506 net.cpp:338] inception_4e/pool -> inception_4e/pool
I1215 22:19:21.542804 25506 net.cpp:113] Setting up inception_4e/pool
I1215 22:19:21.542810 25506 net.cpp:120] Top shape: 50 528 14 14 (5174400)
I1215 22:19:21.542814 25506 layer_factory.hpp:74] Creating layer inception_4e/pool_proj
I1215 22:19:21.542822 25506 net.cpp:84] Creating Layer inception_4e/pool_proj
I1215 22:19:21.542827 25506 net.cpp:380] inception_4e/pool_proj <- inception_4e/pool
I1215 22:19:21.542832 25506 net.cpp:338] inception_4e/pool_proj -> inception_4e/pool_proj
I1215 22:19:21.542839 25506 net.cpp:113] Setting up inception_4e/pool_proj
I1215 22:19:21.543836 25506 net.cpp:120] Top shape: 50 128 14 14 (1254400)
I1215 22:19:21.543849 25506 layer_factory.hpp:74] Creating layer inception_4e/relu_pool_proj
I1215 22:19:21.543864 25506 net.cpp:84] Creating Layer inception_4e/relu_pool_proj
I1215 22:19:21.543876 25506 net.cpp:380] inception_4e/relu_pool_proj <- inception_4e/pool_proj
I1215 22:19:21.543882 25506 net.cpp:327] inception_4e/relu_pool_proj -> inception_4e/pool_proj (in-place)
I1215 22:19:21.543889 25506 net.cpp:113] Setting up inception_4e/relu_pool_proj
I1215 22:19:21.543946 25506 net.cpp:120] Top shape: 50 128 14 14 (1254400)
I1215 22:19:21.543951 25506 layer_factory.hpp:74] Creating layer inception_4e/output
I1215 22:19:21.543958 25506 net.cpp:84] Creating Layer inception_4e/output
I1215 22:19:21.543963 25506 net.cpp:380] inception_4e/output <- inception_4e/1x1
I1215 22:19:21.543968 25506 net.cpp:380] inception_4e/output <- inception_4e/3x3
I1215 22:19:21.543973 25506 net.cpp:380] inception_4e/output <- inception_4e/5x5
I1215 22:19:21.543977 25506 net.cpp:380] inception_4e/output <- inception_4e/pool_proj
I1215 22:19:21.543982 25506 net.cpp:338] inception_4e/output -> inception_4e/output
I1215 22:19:21.543988 25506 net.cpp:113] Setting up inception_4e/output
I1215 22:19:21.543994 25506 net.cpp:120] Top shape: 50 832 14 14 (8153600)
I1215 22:19:21.543998 25506 layer_factory.hpp:74] Creating layer pool4/3x3_s2
I1215 22:19:21.544004 25506 net.cpp:84] Creating Layer pool4/3x3_s2
I1215 22:19:21.544008 25506 net.cpp:380] pool4/3x3_s2 <- inception_4e/output
I1215 22:19:21.544015 25506 net.cpp:338] pool4/3x3_s2 -> pool4/3x3_s2
I1215 22:19:21.544020 25506 net.cpp:113] Setting up pool4/3x3_s2
I1215 22:19:21.544255 25506 net.cpp:120] Top shape: 50 832 7 7 (2038400)
I1215 22:19:21.544265 25506 layer_factory.hpp:74] Creating layer pool4/3x3_s2_pool4/3x3_s2_0_split
I1215 22:19:21.544272 25506 net.cpp:84] Creating Layer pool4/3x3_s2_pool4/3x3_s2_0_split
I1215 22:19:21.544276 25506 net.cpp:380] pool4/3x3_s2_pool4/3x3_s2_0_split <- pool4/3x3_s2
I1215 22:19:21.544282 25506 net.cpp:338] pool4/3x3_s2_pool4/3x3_s2_0_split -> pool4/3x3_s2_pool4/3x3_s2_0_split_0
I1215 22:19:21.544289 25506 net.cpp:338] pool4/3x3_s2_pool4/3x3_s2_0_split -> pool4/3x3_s2_pool4/3x3_s2_0_split_1
I1215 22:19:21.544296 25506 net.cpp:338] pool4/3x3_s2_pool4/3x3_s2_0_split -> pool4/3x3_s2_pool4/3x3_s2_0_split_2
I1215 22:19:21.544317 25506 net.cpp:338] pool4/3x3_s2_pool4/3x3_s2_0_split -> pool4/3x3_s2_pool4/3x3_s2_0_split_3
I1215 22:19:21.544322 25506 net.cpp:113] Setting up pool4/3x3_s2_pool4/3x3_s2_0_split
I1215 22:19:21.544328 25506 net.cpp:120] Top shape: 50 832 7 7 (2038400)
I1215 22:19:21.544332 25506 net.cpp:120] Top shape: 50 832 7 7 (2038400)
I1215 22:19:21.544337 25506 net.cpp:120] Top shape: 50 832 7 7 (2038400)
I1215 22:19:21.544342 25506 net.cpp:120] Top shape: 50 832 7 7 (2038400)
I1215 22:19:21.544345 25506 layer_factory.hpp:74] Creating layer inception_5a/1x1
I1215 22:19:21.544353 25506 net.cpp:84] Creating Layer inception_5a/1x1
I1215 22:19:21.544356 25506 net.cpp:380] inception_5a/1x1 <- pool4/3x3_s2_pool4/3x3_s2_0_split_0
I1215 22:19:21.544364 25506 net.cpp:338] inception_5a/1x1 -> inception_5a/1x1
I1215 22:19:21.544371 25506 net.cpp:113] Setting up inception_5a/1x1
I1215 22:19:21.546727 25506 net.cpp:120] Top shape: 50 256 7 7 (627200)
I1215 22:19:21.546741 25506 layer_factory.hpp:74] Creating layer inception_5a/relu_1x1
I1215 22:19:21.546748 25506 net.cpp:84] Creating Layer inception_5a/relu_1x1
I1215 22:19:21.546752 25506 net.cpp:380] inception_5a/relu_1x1 <- inception_5a/1x1
I1215 22:19:21.546758 25506 net.cpp:327] inception_5a/relu_1x1 -> inception_5a/1x1 (in-place)
I1215 22:19:21.546764 25506 net.cpp:113] Setting up inception_5a/relu_1x1
I1215 22:19:21.546823 25506 net.cpp:120] Top shape: 50 256 7 7 (627200)
I1215 22:19:21.546828 25506 layer_factory.hpp:74] Creating layer inception_5a/3x3_reduce
I1215 22:19:21.546836 25506 net.cpp:84] Creating Layer inception_5a/3x3_reduce
I1215 22:19:21.546840 25506 net.cpp:380] inception_5a/3x3_reduce <- pool4/3x3_s2_pool4/3x3_s2_0_split_1
I1215 22:19:21.546849 25506 net.cpp:338] inception_5a/3x3_reduce -> inception_5a/3x3_reduce
I1215 22:19:21.546855 25506 net.cpp:113] Setting up inception_5a/3x3_reduce
I1215 22:19:21.548475 25506 net.cpp:120] Top shape: 50 160 7 7 (392000)
I1215 22:19:21.548498 25506 layer_factory.hpp:74] Creating layer inception_5a/relu_3x3_reduce
I1215 22:19:21.548506 25506 net.cpp:84] Creating Layer inception_5a/relu_3x3_reduce
I1215 22:19:21.548511 25506 net.cpp:380] inception_5a/relu_3x3_reduce <- inception_5a/3x3_reduce
I1215 22:19:21.548516 25506 net.cpp:327] inception_5a/relu_3x3_reduce -> inception_5a/3x3_reduce (in-place)
I1215 22:19:21.548522 25506 net.cpp:113] Setting up inception_5a/relu_3x3_reduce
I1215 22:19:21.548583 25506 net.cpp:120] Top shape: 50 160 7 7 (392000)
I1215 22:19:21.548588 25506 layer_factory.hpp:74] Creating layer inception_5a/3x3
I1215 22:19:21.548596 25506 net.cpp:84] Creating Layer inception_5a/3x3
I1215 22:19:21.548600 25506 net.cpp:380] inception_5a/3x3 <- inception_5a/3x3_reduce
I1215 22:19:21.548606 25506 net.cpp:338] inception_5a/3x3 -> inception_5a/3x3
I1215 22:19:21.548614 25506 net.cpp:113] Setting up inception_5a/3x3
I1215 22:19:21.553284 25506 net.cpp:120] Top shape: 50 320 7 7 (784000)
I1215 22:19:21.553299 25506 layer_factory.hpp:74] Creating layer inception_5a/relu_3x3
I1215 22:19:21.553308 25506 net.cpp:84] Creating Layer inception_5a/relu_3x3
I1215 22:19:21.553313 25506 net.cpp:380] inception_5a/relu_3x3 <- inception_5a/3x3
I1215 22:19:21.553318 25506 net.cpp:327] inception_5a/relu_3x3 -> inception_5a/3x3 (in-place)
I1215 22:19:21.553324 25506 net.cpp:113] Setting up inception_5a/relu_3x3
I1215 22:19:21.553381 25506 net.cpp:120] Top shape: 50 320 7 7 (784000)
I1215 22:19:21.553386 25506 layer_factory.hpp:74] Creating layer inception_5a/5x5_reduce
I1215 22:19:21.553395 25506 net.cpp:84] Creating Layer inception_5a/5x5_reduce
I1215 22:19:21.553400 25506 net.cpp:380] inception_5a/5x5_reduce <- pool4/3x3_s2_pool4/3x3_s2_0_split_2
I1215 22:19:21.553406 25506 net.cpp:338] inception_5a/5x5_reduce -> inception_5a/5x5_reduce
I1215 22:19:21.553411 25506 net.cpp:113] Setting up inception_5a/5x5_reduce
I1215 22:19:21.554026 25506 net.cpp:120] Top shape: 50 32 7 7 (78400)
I1215 22:19:21.554039 25506 layer_factory.hpp:74] Creating layer inception_5a/relu_5x5_reduce
I1215 22:19:21.554047 25506 net.cpp:84] Creating Layer inception_5a/relu_5x5_reduce
I1215 22:19:21.554052 25506 net.cpp:380] inception_5a/relu_5x5_reduce <- inception_5a/5x5_reduce
I1215 22:19:21.554057 25506 net.cpp:327] inception_5a/relu_5x5_reduce -> inception_5a/5x5_reduce (in-place)
I1215 22:19:21.554065 25506 net.cpp:113] Setting up inception_5a/relu_5x5_reduce
I1215 22:19:21.554293 25506 net.cpp:120] Top shape: 50 32 7 7 (78400)
I1215 22:19:21.554303 25506 layer_factory.hpp:74] Creating layer inception_5a/5x5
I1215 22:19:21.554311 25506 net.cpp:84] Creating Layer inception_5a/5x5
I1215 22:19:21.554314 25506 net.cpp:380] inception_5a/5x5 <- inception_5a/5x5_reduce
I1215 22:19:21.554322 25506 net.cpp:338] inception_5a/5x5 -> inception_5a/5x5
I1215 22:19:21.554329 25506 net.cpp:113] Setting up inception_5a/5x5
I1215 22:19:21.555680 25506 net.cpp:120] Top shape: 50 128 7 7 (313600)
I1215 22:19:21.555693 25506 layer_factory.hpp:74] Creating layer inception_5a/relu_5x5
I1215 22:19:21.555701 25506 net.cpp:84] Creating Layer inception_5a/relu_5x5
I1215 22:19:21.555706 25506 net.cpp:380] inception_5a/relu_5x5 <- inception_5a/5x5
I1215 22:19:21.555711 25506 net.cpp:327] inception_5a/relu_5x5 -> inception_5a/5x5 (in-place)
I1215 22:19:21.555717 25506 net.cpp:113] Setting up inception_5a/relu_5x5
I1215 22:19:21.555776 25506 net.cpp:120] Top shape: 50 128 7 7 (313600)
I1215 22:19:21.555781 25506 layer_factory.hpp:74] Creating layer inception_5a/pool
I1215 22:19:21.555786 25506 layer_factory.cpp:56] CUDNN does not support padding or multiple tops. Using Caffe's own pooling layer.
I1215 22:19:21.555793 25506 net.cpp:84] Creating Layer inception_5a/pool
I1215 22:19:21.555797 25506 net.cpp:380] inception_5a/pool <- pool4/3x3_s2_pool4/3x3_s2_0_split_3
I1215 22:19:21.555802 25506 net.cpp:338] inception_5a/pool -> inception_5a/pool
I1215 22:19:21.555810 25506 net.cpp:113] Setting up inception_5a/pool
I1215 22:19:21.555821 25506 net.cpp:120] Top shape: 50 832 7 7 (2038400)
I1215 22:19:21.555831 25506 layer_factory.hpp:74] Creating layer inception_5a/pool_proj
I1215 22:19:21.555840 25506 net.cpp:84] Creating Layer inception_5a/pool_proj
I1215 22:19:21.555843 25506 net.cpp:380] inception_5a/pool_proj <- inception_5a/pool
I1215 22:19:21.555851 25506 net.cpp:338] inception_5a/pool_proj -> inception_5a/pool_proj
I1215 22:19:21.555858 25506 net.cpp:113] Setting up inception_5a/pool_proj
I1215 22:19:21.557265 25506 net.cpp:120] Top shape: 50 128 7 7 (313600)
I1215 22:19:21.557279 25506 layer_factory.hpp:74] Creating layer inception_5a/relu_pool_proj
I1215 22:19:21.557287 25506 net.cpp:84] Creating Layer inception_5a/relu_pool_proj
I1215 22:19:21.557292 25506 net.cpp:380] inception_5a/relu_pool_proj <- inception_5a/pool_proj
I1215 22:19:21.557298 25506 net.cpp:327] inception_5a/relu_pool_proj -> inception_5a/pool_proj (in-place)
I1215 22:19:21.557304 25506 net.cpp:113] Setting up inception_5a/relu_pool_proj
I1215 22:19:21.557361 25506 net.cpp:120] Top shape: 50 128 7 7 (313600)
I1215 22:19:21.557368 25506 layer_factory.hpp:74] Creating layer inception_5a/output
I1215 22:19:21.557374 25506 net.cpp:84] Creating Layer inception_5a/output
I1215 22:19:21.557377 25506 net.cpp:380] inception_5a/output <- inception_5a/1x1
I1215 22:19:21.557382 25506 net.cpp:380] inception_5a/output <- inception_5a/3x3
I1215 22:19:21.557387 25506 net.cpp:380] inception_5a/output <- inception_5a/5x5
I1215 22:19:21.557391 25506 net.cpp:380] inception_5a/output <- inception_5a/pool_proj
I1215 22:19:21.557396 25506 net.cpp:338] inception_5a/output -> inception_5a/output
I1215 22:19:21.557402 25506 net.cpp:113] Setting up inception_5a/output
I1215 22:19:21.557409 25506 net.cpp:120] Top shape: 50 832 7 7 (2038400)
I1215 22:19:21.557412 25506 layer_factory.hpp:74] Creating layer inception_5a/output_inception_5a/output_0_split
I1215 22:19:21.557418 25506 net.cpp:84] Creating Layer inception_5a/output_inception_5a/output_0_split
I1215 22:19:21.557421 25506 net.cpp:380] inception_5a/output_inception_5a/output_0_split <- inception_5a/output
I1215 22:19:21.557428 25506 net.cpp:338] inception_5a/output_inception_5a/output_0_split -> inception_5a/output_inception_5a/output_0_split_0
I1215 22:19:21.557435 25506 net.cpp:338] inception_5a/output_inception_5a/output_0_split -> inception_5a/output_inception_5a/output_0_split_1
I1215 22:19:21.557440 25506 net.cpp:338] inception_5a/output_inception_5a/output_0_split -> inception_5a/output_inception_5a/output_0_split_2
I1215 22:19:21.557446 25506 net.cpp:338] inception_5a/output_inception_5a/output_0_split -> inception_5a/output_inception_5a/output_0_split_3
I1215 22:19:21.557451 25506 net.cpp:113] Setting up inception_5a/output_inception_5a/output_0_split
I1215 22:19:21.557456 25506 net.cpp:120] Top shape: 50 832 7 7 (2038400)
I1215 22:19:21.557461 25506 net.cpp:120] Top shape: 50 832 7 7 (2038400)
I1215 22:19:21.557466 25506 net.cpp:120] Top shape: 50 832 7 7 (2038400)
I1215 22:19:21.557469 25506 net.cpp:120] Top shape: 50 832 7 7 (2038400)
I1215 22:19:21.557472 25506 layer_factory.hpp:74] Creating layer inception_5b/1x1
I1215 22:19:21.557482 25506 net.cpp:84] Creating Layer inception_5b/1x1
I1215 22:19:21.557485 25506 net.cpp:380] inception_5b/1x1 <- inception_5a/output_inception_5a/output_0_split_0
I1215 22:19:21.557490 25506 net.cpp:338] inception_5b/1x1 -> inception_5b/1x1
I1215 22:19:21.557497 25506 net.cpp:113] Setting up inception_5b/1x1
I1215 22:19:21.561050 25506 net.cpp:120] Top shape: 50 384 7 7 (940800)
I1215 22:19:21.561071 25506 layer_factory.hpp:74] Creating layer inception_5b/relu_1x1
I1215 22:19:21.561077 25506 net.cpp:84] Creating Layer inception_5b/relu_1x1
I1215 22:19:21.561082 25506 net.cpp:380] inception_5b/relu_1x1 <- inception_5b/1x1
I1215 22:19:21.561089 25506 net.cpp:327] inception_5b/relu_1x1 -> inception_5b/1x1 (in-place)
I1215 22:19:21.561094 25506 net.cpp:113] Setting up inception_5b/relu_1x1
I1215 22:19:21.561156 25506 net.cpp:120] Top shape: 50 384 7 7 (940800)
I1215 22:19:21.561162 25506 layer_factory.hpp:74] Creating layer inception_5b/3x3_reduce
I1215 22:19:21.561182 25506 net.cpp:84] Creating Layer inception_5b/3x3_reduce
I1215 22:19:21.561188 25506 net.cpp:380] inception_5b/3x3_reduce <- inception_5a/output_inception_5a/output_0_split_1
I1215 22:19:21.561194 25506 net.cpp:338] inception_5b/3x3_reduce -> inception_5b/3x3_reduce
I1215 22:19:21.561202 25506 net.cpp:113] Setting up inception_5b/3x3_reduce
I1215 22:19:21.563119 25506 net.cpp:120] Top shape: 50 192 7 7 (470400)
I1215 22:19:21.563133 25506 layer_factory.hpp:74] Creating layer inception_5b/relu_3x3_reduce
I1215 22:19:21.563140 25506 net.cpp:84] Creating Layer inception_5b/relu_3x3_reduce
I1215 22:19:21.563145 25506 net.cpp:380] inception_5b/relu_3x3_reduce <- inception_5b/3x3_reduce
I1215 22:19:21.563150 25506 net.cpp:327] inception_5b/relu_3x3_reduce -> inception_5b/3x3_reduce (in-place)
I1215 22:19:21.563158 25506 net.cpp:113] Setting up inception_5b/relu_3x3_reduce
I1215 22:19:21.563400 25506 net.cpp:120] Top shape: 50 192 7 7 (470400)
I1215 22:19:21.563410 25506 layer_factory.hpp:74] Creating layer inception_5b/3x3
I1215 22:19:21.563417 25506 net.cpp:84] Creating Layer inception_5b/3x3
I1215 22:19:21.563421 25506 net.cpp:380] inception_5b/3x3 <- inception_5b/3x3_reduce
I1215 22:19:21.563429 25506 net.cpp:338] inception_5b/3x3 -> inception_5b/3x3
I1215 22:19:21.563437 25506 net.cpp:113] Setting up inception_5b/3x3
I1215 22:19:21.570016 25506 net.cpp:120] Top shape: 50 384 7 7 (940800)
I1215 22:19:21.570030 25506 layer_factory.hpp:74] Creating layer inception_5b/relu_3x3
I1215 22:19:21.570037 25506 net.cpp:84] Creating Layer inception_5b/relu_3x3
I1215 22:19:21.570041 25506 net.cpp:380] inception_5b/relu_3x3 <- inception_5b/3x3
I1215 22:19:21.570047 25506 net.cpp:327] inception_5b/relu_3x3 -> inception_5b/3x3 (in-place)
I1215 22:19:21.570053 25506 net.cpp:113] Setting up inception_5b/relu_3x3
I1215 22:19:21.570111 25506 net.cpp:120] Top shape: 50 384 7 7 (940800)
I1215 22:19:21.570116 25506 layer_factory.hpp:74] Creating layer inception_5b/5x5_reduce
I1215 22:19:21.570127 25506 net.cpp:84] Creating Layer inception_5b/5x5_reduce
I1215 22:19:21.570132 25506 net.cpp:380] inception_5b/5x5_reduce <- inception_5a/output_inception_5a/output_0_split_2
I1215 22:19:21.570137 25506 net.cpp:338] inception_5b/5x5_reduce -> inception_5b/5x5_reduce
I1215 22:19:21.570143 25506 net.cpp:113] Setting up inception_5b/5x5_reduce
I1215 22:19:21.570880 25506 net.cpp:120] Top shape: 50 48 7 7 (117600)
I1215 22:19:21.570894 25506 layer_factory.hpp:74] Creating layer inception_5b/relu_5x5_reduce
I1215 22:19:21.570899 25506 net.cpp:84] Creating Layer inception_5b/relu_5x5_reduce
I1215 22:19:21.570904 25506 net.cpp:380] inception_5b/relu_5x5_reduce <- inception_5b/5x5_reduce
I1215 22:19:21.570910 25506 net.cpp:327] inception_5b/relu_5x5_reduce -> inception_5b/5x5_reduce (in-place)
I1215 22:19:21.570916 25506 net.cpp:113] Setting up inception_5b/relu_5x5_reduce
I1215 22:19:21.570974 25506 net.cpp:120] Top shape: 50 48 7 7 (117600)
I1215 22:19:21.570981 25506 layer_factory.hpp:74] Creating layer inception_5b/5x5
I1215 22:19:21.570991 25506 net.cpp:84] Creating Layer inception_5b/5x5
I1215 22:19:21.570994 25506 net.cpp:380] inception_5b/5x5 <- inception_5b/5x5_reduce
I1215 22:19:21.571001 25506 net.cpp:338] inception_5b/5x5 -> inception_5b/5x5
I1215 22:19:21.571007 25506 net.cpp:113] Setting up inception_5b/5x5
I1215 22:19:21.572800 25506 net.cpp:120] Top shape: 50 128 7 7 (313600)
I1215 22:19:21.572813 25506 layer_factory.hpp:74] Creating layer inception_5b/relu_5x5
I1215 22:19:21.572831 25506 net.cpp:84] Creating Layer inception_5b/relu_5x5
I1215 22:19:21.572836 25506 net.cpp:380] inception_5b/relu_5x5 <- inception_5b/5x5
I1215 22:19:21.572844 25506 net.cpp:327] inception_5b/relu_5x5 -> inception_5b/5x5 (in-place)
I1215 22:19:21.572850 25506 net.cpp:113] Setting up inception_5b/relu_5x5
I1215 22:19:21.573086 25506 net.cpp:120] Top shape: 50 128 7 7 (313600)
I1215 22:19:21.573097 25506 layer_factory.hpp:74] Creating layer inception_5b/pool
I1215 22:19:21.573102 25506 layer_factory.cpp:56] CUDNN does not support padding or multiple tops. Using Caffe's own pooling layer.
I1215 22:19:21.573117 25506 net.cpp:84] Creating Layer inception_5b/pool
I1215 22:19:21.573123 25506 net.cpp:380] inception_5b/pool <- inception_5a/output_inception_5a/output_0_split_3
I1215 22:19:21.573129 25506 net.cpp:338] inception_5b/pool -> inception_5b/pool
I1215 22:19:21.573137 25506 net.cpp:113] Setting up inception_5b/pool
I1215 22:19:21.573143 25506 net.cpp:120] Top shape: 50 832 7 7 (2038400)
I1215 22:19:21.573148 25506 layer_factory.hpp:74] Creating layer inception_5b/pool_proj
I1215 22:19:21.573156 25506 net.cpp:84] Creating Layer inception_5b/pool_proj
I1215 22:19:21.573161 25506 net.cpp:380] inception_5b/pool_proj <- inception_5b/pool
I1215 22:19:21.573168 25506 net.cpp:338] inception_5b/pool_proj -> inception_5b/pool_proj
I1215 22:19:21.573175 25506 net.cpp:113] Setting up inception_5b/pool_proj
I1215 22:19:21.574553 25506 net.cpp:120] Top shape: 50 128 7 7 (313600)
I1215 22:19:21.574565 25506 layer_factory.hpp:74] Creating layer inception_5b/relu_pool_proj
I1215 22:19:21.574573 25506 net.cpp:84] Creating Layer inception_5b/relu_pool_proj
I1215 22:19:21.574578 25506 net.cpp:380] inception_5b/relu_pool_proj <- inception_5b/pool_proj
I1215 22:19:21.574584 25506 net.cpp:327] inception_5b/relu_pool_proj -> inception_5b/pool_proj (in-place)
I1215 22:19:21.574590 25506 net.cpp:113] Setting up inception_5b/relu_pool_proj
I1215 22:19:21.574651 25506 net.cpp:120] Top shape: 50 128 7 7 (313600)
I1215 22:19:21.574656 25506 layer_factory.hpp:74] Creating layer inception_5b/output
I1215 22:19:21.574661 25506 net.cpp:84] Creating Layer inception_5b/output
I1215 22:19:21.574666 25506 net.cpp:380] inception_5b/output <- inception_5b/1x1
I1215 22:19:21.574671 25506 net.cpp:380] inception_5b/output <- inception_5b/3x3
I1215 22:19:21.574676 25506 net.cpp:380] inception_5b/output <- inception_5b/5x5
I1215 22:19:21.574679 25506 net.cpp:380] inception_5b/output <- inception_5b/pool_proj
I1215 22:19:21.574687 25506 net.cpp:338] inception_5b/output -> inception_5b/output
I1215 22:19:21.574692 25506 net.cpp:113] Setting up inception_5b/output
I1215 22:19:21.574698 25506 net.cpp:120] Top shape: 50 1024 7 7 (2508800)
I1215 22:19:21.574702 25506 layer_factory.hpp:74] Creating layer pool5/7x7_s1
I1215 22:19:21.574707 25506 net.cpp:84] Creating Layer pool5/7x7_s1
I1215 22:19:21.574712 25506 net.cpp:380] pool5/7x7_s1 <- inception_5b/output
I1215 22:19:21.574718 25506 net.cpp:338] pool5/7x7_s1 -> pool5/7x7_s1
I1215 22:19:21.574723 25506 net.cpp:113] Setting up pool5/7x7_s1
I1215 22:19:21.574781 25506 net.cpp:120] Top shape: 50 1024 1 1 (51200)
I1215 22:19:21.574787 25506 layer_factory.hpp:74] Creating layer pool5/drop_7x7_s1
I1215 22:19:21.574795 25506 net.cpp:84] Creating Layer pool5/drop_7x7_s1
I1215 22:19:21.574800 25506 net.cpp:380] pool5/drop_7x7_s1 <- pool5/7x7_s1
I1215 22:19:21.574805 25506 net.cpp:327] pool5/drop_7x7_s1 -> pool5/7x7_s1 (in-place)
I1215 22:19:21.574810 25506 net.cpp:113] Setting up pool5/drop_7x7_s1
I1215 22:19:21.574815 25506 net.cpp:120] Top shape: 50 1024 1 1 (51200)
I1215 22:19:21.574820 25506 layer_factory.hpp:74] Creating layer loss3/classifier_kaggle
I1215 22:19:21.574826 25506 net.cpp:84] Creating Layer loss3/classifier_kaggle
I1215 22:19:21.574829 25506 net.cpp:380] loss3/classifier_kaggle <- pool5/7x7_s1
I1215 22:19:21.574836 25506 net.cpp:338] loss3/classifier_kaggle -> loss3/classifier_kaggle
I1215 22:19:21.574841 25506 net.cpp:113] Setting up loss3/classifier_kaggle
I1215 22:19:21.579090 25506 net.cpp:120] Top shape: 50 447 (22350)
I1215 22:19:21.579100 25506 layer_factory.hpp:74] Creating layer loss3/classifier_kaggle_loss3/classifier_kaggle_0_split
I1215 22:19:21.579107 25506 net.cpp:84] Creating Layer loss3/classifier_kaggle_loss3/classifier_kaggle_0_split
I1215 22:19:21.579123 25506 net.cpp:380] loss3/classifier_kaggle_loss3/classifier_kaggle_0_split <- loss3/classifier_kaggle
I1215 22:19:21.579128 25506 net.cpp:338] loss3/classifier_kaggle_loss3/classifier_kaggle_0_split -> loss3/classifier_kaggle_loss3/classifier_kaggle_0_split_0
I1215 22:19:21.579139 25506 net.cpp:338] loss3/classifier_kaggle_loss3/classifier_kaggle_0_split -> loss3/classifier_kaggle_loss3/classifier_kaggle_0_split_1
I1215 22:19:21.579154 25506 net.cpp:338] loss3/classifier_kaggle_loss3/classifier_kaggle_0_split -> loss3/classifier_kaggle_loss3/classifier_kaggle_0_split_2
I1215 22:19:21.579160 25506 net.cpp:113] Setting up loss3/classifier_kaggle_loss3/classifier_kaggle_0_split
I1215 22:19:21.579166 25506 net.cpp:120] Top shape: 50 447 (22350)
I1215 22:19:21.579171 25506 net.cpp:120] Top shape: 50 447 (22350)
I1215 22:19:21.579175 25506 net.cpp:120] Top shape: 50 447 (22350)
I1215 22:19:21.579180 25506 layer_factory.hpp:74] Creating layer loss3/loss3
I1215 22:19:21.579185 25506 net.cpp:84] Creating Layer loss3/loss3
I1215 22:19:21.579188 25506 net.cpp:380] loss3/loss3 <- loss3/classifier_kaggle_loss3/classifier_kaggle_0_split_0
I1215 22:19:21.579193 25506 net.cpp:380] loss3/loss3 <- label_data_1_split_6
I1215 22:19:21.579202 25506 net.cpp:338] loss3/loss3 -> loss3/loss3
…
