…
I1216 01:51:37.081183 25625 net.cpp:257] The NetState phase (0) differed from the phase (1) specified by a rule in layer loss3/top-5
I1216 01:51:37.083325 25625 net.cpp:42] Initializing net from parameters: 
name: "GoogleNet"
state {
  phase: TRAIN
}
layer {
  name: "data"
  type: "Data"
  top: "data"
  top: "label"
  include {
    phase: TRAIN
  }
  transform_param {
    mirror: true
    crop_size: 224
    mean_value: 129
    mean_value: 129
    mean_value: 129
  }
  data_param {
    source: "/home/coldmanck/kaggle/kaggle2_train_lmdb"
    batch_size: 32
    backend: LMDB
  }
}
layer {
  name: "conv1/7x7_s2"
  type: "Convolution"
  bottom: "data"
  top: "conv1/7x7_s2"
  param {
    lr_mult: 1
    decay_mult: 1
  }
  param {
    lr_mult: 2
    decay_mult: 0
  }
  convolution_param {
    num_output: 64
    pad: 3
    kernel_size: 7
    stride: 2
    weight_filler {
      type: "xavier"
      std: 0.1
    }
    bias_filler {
      type: "constant"
      value: 0.2
    }
  }
}
layer {
  name: "conv1/relu_7x7"
  type: "ReLU"
  bottom: "conv1/7x7_s2"
  top: "conv1/7x7_s2"
}
layer {
  name: "pool1/3x3_s2"
  type: "Pooling"
  bottom: "conv1/7x7_s2"
  top: "pool1/3x3_s2"
  pooling_param {
    pool: MAX
    kernel_size: 3
    stride: 2
  }
}
layer {
  name: "pool1/norm1"
  type: "LRN"
  bottom: "pool1/3x3_s2"
  top: "pool1/norm1"
  lrn_param {
    local_size: 5
    alpha: 0.0001
    beta: 0.75
  }
}
layer {
  name: "conv2/3x3_reduce"
  type: "Convolution"
  bottom: "pool1/norm1"
  top: "conv2/3x3_reduce"
  param {
    lr_mult: 1
    decay_mult: 1
  }
  param {
    lr_mult: 2
    decay_mult: 0
  }
  convolution_param {
    num_output: 64
    kernel_size: 1
    weight_filler {
      type: "xavier"
      std: 0.1
    }
    bias_filler {
      type: "constant"
      value: 0.2
    }
  }
}
layer {
  name: "conv2/relu_3x3_reduce"
  type: "ReLU"
  bottom: "conv2/3x3_reduce"
  top: "conv2/3x3_reduce"
}
layer {
  name: "conv2/3x3"
  type: "Convolution"
  bottom: "conv2/3x3_reduce"
  top: "conv2/3x3"
  param {
    lr_mult: 1
    decay_mult: 1
  }
  param {
    lr_mult: 2
    decay_mult: 0
  }
  convolution_param {
    num_output: 192
    pad: 1
    kernel_size: 3
    weight_filler {
      type: "xavier"
      std: 0.03
    }
    bias_filler {
      type: "constant"
      value: 0.2
    }
  }
}
layer {
  name: "conv2/relu_3x3"
  type: "ReLU"
  bottom: "conv2/3x3"
  top: "conv2/3x3"
}
layer {
  name: "conv2/norm2"
  type: "LRN"
  bottom: "conv2/3x3"
  top: "conv2/norm2"
  lrn_param {
    local_size: 5
    alpha: 0.0001
    beta: 0.75
  }
}
layer {
  name: "pool2/3x3_s2"
  type: "Pooling"
  bottom: "conv2/norm2"
  top: "pool2/3x3_s2"
  pooling_param {
    pool: MAX
    kernel_size: 3
    stride: 2
  }
}
layer {
  name: "inception_3a/1x1"
  type: "Convolution"
  bottom: "pool2/3x3_s2"
  top: "inception_3a/1x1"
  param {
    lr_mult: 1
    decay_mult: 1
  }
  param {
    lr_mult: 2
    decay_mult: 0
  }
  convolution_param {
    num_output: 64
    kernel_size: 1
    weight_filler {
      type: "xavier"
      std: 0.03
    }
    bias_filler {
      type: "constant"
      value: 0.2
    }
  }
}
layer {
  name: "inception_3a/relu_1x1"
  type: "ReLU"
  bottom: "inception_3a/1x1"
  top: "inception_3a/1x1"
}
layer {
  name: "inception_3a/3x3_reduce"
  type: "Convolution"
  bottom: "pool2/3x3_s2"
  top: "inception_3a/3x3_reduce"
  param {
    lr_mult: 1
    decay_mult: 1
  }
  param {
    lr_mult: 2
    decay_mult: 0
  }
  convolution_param {
    num_output: 96
    kernel_size: 1
    weight_filler {
      type: "xavier"
      std: 0.09
    }
    bias_filler {
      type: "constant"
      value: 0.2
    }
  }
}
layer {
  name: "inception_3a/relu_3x3_reduce"
  type: "ReLU"
  bottom: "inception_3a/3x3_reduce"
  top: "inception_3a/3x3_reduce"
}
layer {
  name: "inception_3a/3x3"
  type: "Convolution"
  bottom: "inception_3a/3x3_reduce"
  top: "inception_3a/3x3"
  param {
    lr_mult: 1
    decay_mult: 1
  }
  param {
    lr_mult: 2
    decay_mult: 0
  }
  convolution_param {
    num_output: 128
    pad: 1
    kernel_size: 3
    weight_filler {
      type: "xavier"
      std: 0.03
    }
    bias_filler {
      type: "constant"
      value: 0.2
    }
  }
}
layer {
  name: "inception_3a/relu_3x3"
  type: "ReLU"
  bottom: "inception_3a/3x3"
  top: "inception_3a/3x3"
}
layer {
  name: "inception_3a/5x5_reduce"
  type: "Convolution"
  bottom: "pool2/3x3_s2"
  top: "inception_3a/5x5_reduce"
  param {
    lr_mult: 1
    decay_mult: 1
  }
  param {
    lr_mult: 2
    decay_mult: 0
  }
  convolution_param {
    num_output: 16
    kernel_size: 1
    weight_filler {
      type: "xavier"
      std: 0.2
    }
    bias_filler {
      type: "constant"
      value: 0.2
    }
  }
}
layer {
  name: "inception_3a/relu_5x5_reduce"
  type: "ReLU"
  bottom: "inception_3a/5x5_reduce"
  top: "inception_3a/5x5_reduce"
}
layer {
  name: "inception_3a/5x5"
  type: "Convolution"
  bottom: "inception_3a/5x5_reduce"
  top: "inception_3a/5x5"
  param {
    lr_mult: 1
    decay_mult: 1
  }
  param {
    lr_mult: 2
    decay_mult: 0
  }
  convolution_param {
    num_output: 32
    pad: 2
    kernel_size: 5
    weight_filler {
      type: "xavier"
      std: 0.03
    }
    bias_filler {
      type: "constant"
      value: 0.2
    }
  }
}
layer {
  name: "inception_3a/relu_5x5"
  type: "ReLU"
  bottom: "inception_3a/5x5"
  top: "inception_3a/5x5"
}
layer {
  name: "inception_3a/pool"
  type: "Pooling"
  bottom: "pool2/3x3_s2"
  top: "inception_3a/pool"
  pooling_param {
    pool: MAX
    kernel_size: 3
    stride: 1
    pad: 1
  }
}
layer {
  name: "inception_3a/pool_proj"
  type: "Convolution"
  bottom: "inception_3a/pool"
  top: "inception_3a/pool_proj"
  param {
    lr_mult: 1
    decay_mult: 1
  }
  param {
    lr_mult: 2
    decay_mult: 0
  }
  convolution_param {
    num_output: 32
    kernel_size: 1
    weight_filler {
      type: "xavier"
      std: 0.1
    }
    bias_filler {
      type: "constant"
      value: 0.2
    }
  }
}
layer {
  name: "inception_3a/relu_pool_proj"
  type: "ReLU"
  bottom: "inception_3a/pool_proj"
  top: "inception_3a/pool_proj"
}
layer {
  name: "inception_3a/output"
  type: "Concat"
  bottom: "inception_3a/1x1"
  bottom: "inception_3a/3x3"
  bottom: "inception_3a/5x5"
  bottom: "inception_3a/pool_proj"
  top: "inception_3a/output"
}
layer {
  name: "inception_3b/1x1"
  type: "Convolution"
  bottom: "inception_3a/output"
  top: "inception_3b/1x1"
  param {
    lr_mult: 1
    decay_mult: 1
  }
  param {
    lr_mult: 2
    decay_mult: 0
  }
  convolution_param {
    num_output: 128
    kernel_size: 1
    weight_filler {
      type: "xavier"
      std: 0.03
    }
    bias_filler {
      type: "constant"
      value: 0.2
    }
  }
}
layer {
  name: "inception_3b/relu_1x1"
  type: "ReLU"
  bottom: "inception_3b/1x1"
  top: "inception_3b/1x1"
}
layer {
  name: "inception_3b/3x3_reduce"
  type: "Convolution"
  bottom: "inception_3a/output"
  top: "inception_3b/3x3_reduce"
  param {
    lr_mult: 1
    decay_mult: 1
  }
  param {
    lr_mult: 2
    decay_mult: 0
  }
  convolution_param {
    num_output: 128
    kernel_size: 1
    weight_filler {
      type: "xavier"
      std: 0.09
    }
    bias_filler {
      type: "constant"
      value: 0.2
    }
  }
}
layer {
  name: "inception_3b/relu_3x3_reduce"
  type: "ReLU"
  bottom: "inception_3b/3x3_reduce"
  top: "inception_3b/3x3_reduce"
}
layer {
  name: "inception_3b/3x3"
  type: "Convolution"
  bottom: "inception_3b/3x3_reduce"
  top: "inception_3b/3x3"
  param {
    lr_mult: 1
    decay_mult: 1
  }
  param {
    lr_mult: 2
    decay_mult: 0
  }
  convolution_param {
    num_output: 192
    pad: 1
    kernel_size: 3
    weight_filler {
      type: "xavier"
      std: 0.03
    }
    bias_filler {
      type: "constant"
      value: 0.2
    }
  }
}
layer {
  name: "inception_3b/relu_3x3"
  type: "ReLU"
  bottom: "inception_3b/3x3"
  top: "inception_3b/3x3"
}
layer {
  name: "inception_3b/5x5_reduce"
  type: "Convolution"
  bottom: "inception_3a/output"
  top: "inception_3b/5x5_reduce"
  param {
    lr_mult: 1
    decay_mult: 1
  }
  param {
    lr_mult: 2
    decay_mult: 0
  }
  convolution_param {
    num_output: 32
    kernel_size: 1
    weight_filler {
      type: "xavier"
      std: 0.2
    }
    bias_filler {
      type: "constant"
      value: 0.2
    }
  }
}
layer {
  name: "inception_3b/relu_5x5_reduce"
  type: "ReLU"
  bottom: "inception_3b/5x5_reduce"
  top: "inception_3b/5x5_reduce"
}
layer {
  name: "inception_3b/5x5"
  type: "Convolution"
  bottom: "inception_3b/5x5_reduce"
  top: "inception_3b/5x5"
  param {
    lr_mult: 1
    decay_mult: 1
  }
  param {
    lr_mult: 2
    decay_mult: 0
  }
  convolution_param {
    num_output: 96
    pad: 2
    kernel_size: 5
    weight_filler {
      type: "xavier"
      std: 0.03
    }
    bias_filler {
      type: "constant"
      value: 0.2
    }
  }
}
layer {
  name: "inception_3b/relu_5x5"
  type: "ReLU"
  bottom: "inception_3b/5x5"
  top: "inception_3b/5x5"
}
layer {
  name: "inception_3b/pool"
  type: "Pooling"
  bottom: "inception_3a/output"
  top: "inception_3b/pool"
  pooling_param {
    pool: MAX
    kernel_size: 3
    stride: 1
    pad: 1
  }
}
layer {
  name: "inception_3b/pool_proj"
  type: "Convolution"
  bottom: "inception_3b/pool"
  top: "inception_3b/pool_proj"
  param {
    lr_mult: 1
    decay_mult: 1
  }
  param {
    lr_mult: 2
    decay_mult: 0
  }
  convolution_param {
    num_output: 64
    kernel_size: 1
    weight_filler {
      type: "xavier"
      std: 0.1
    }
    bias_filler {
      type: "constant"
      value: 0.2
    }
  }
}
layer {
  name: "inception_3b/relu_pool_proj"
  type: "ReLU"
  bottom: "inception_3b/pool_proj"
  top: "inception_3b/pool_proj"
}
layer {
  name: "inception_3b/output"
  type: "Concat"
  bottom: "inception_3b/1x1"
  bottom: "inception_3b/3x3"
  bottom: "inception_3b/5x5"
  bottom: "inception_3b/pool_proj"
  top: "inception_3b/output"
}
layer {
  name: "pool3/3x3_s2"
  type: "Pooling"
  bottom: "inception_3b/output"
  top: "pool3/3x3_s2"
  pooling_param {
    pool: MAX
    kernel_size: 3
    stride: 2
  }
}
layer {
  name: "inception_4a/1x1"
  type: "Convolution"
  bottom: "pool3/3x3_s2"
  top: "inception_4a/1x1"
  param {
    lr_mult: 1
    decay_mult: 1
  }
  param {
    lr_mult: 2
    decay_mult: 0
  }
  convolution_param {
    num_output: 192
    kernel_size: 1
    weight_filler {
      type: "xavier"
      std: 0.03
    }
    bias_filler {
      type: "constant"
      value: 0.2
    }
  }
}
layer {
  name: "inception_4a/relu_1x1"
  type: "ReLU"
  bottom: "inception_4a/1x1"
  top: "inception_4a/1x1"
}
layer {
  name: "inception_4a/3x3_reduce"
  type: "Convolution"
  bottom: "pool3/3x3_s2"
  top: "inception_4a/3x3_reduce"
  param {
    lr_mult: 1
    decay_mult: 1
  }
  param {
    lr_mult: 2
    decay_mult: 0
  }
  convolution_param {
    num_output: 96
    kernel_size: 1
    weight_filler {
      type: "xavier"
      std: 0.09
    }
    bias_filler {
      type: "constant"
      value: 0.2
    }
  }
}
layer {
  name: "inception_4a/relu_3x3_reduce"
  type: "ReLU"
  bottom: "inception_4a/3x3_reduce"
  top: "inception_4a/3x3_reduce"
}
layer {
  name: "inception_4a/3x3"
  type: "Convolution"
  bottom: "inception_4a/3x3_reduce"
  top: "inception_4a/3x3"
  param {
    lr_mult: 1
    decay_mult: 1
  }
  param {
    lr_mult: 2
    decay_mult: 0
  }
  convolution_param {
    num_output: 208
    pad: 1
    kernel_size: 3
    weight_filler {
      type: "xavier"
      std: 0.03
    }
    bias_filler {
      type: "constant"
      value: 0.2
    }
  }
}
layer {
  name: "inception_4a/relu_3x3"
  type: "ReLU"
  bottom: "inception_4a/3x3"
  top: "inception_4a/3x3"
}
layer {
  name: "inception_4a/5x5_reduce"
  type: "Convolution"
  bottom: "pool3/3x3_s2"
  top: "inception_4a/5x5_reduce"
  param {
    lr_mult: 1
    decay_mult: 1
  }
  param {
    lr_mult: 2
    decay_mult: 0
  }
  convolution_param {
    num_output: 16
    kernel_size: 1
    weight_filler {
      type: "xavier"
      std: 0.2
    }
    bias_filler {
      type: "constant"
      value: 0.2
    }
  }
}
layer {
  name: "inception_4a/relu_5x5_reduce"
  type: "ReLU"
  bottom: "inception_4a/5x5_reduce"
  top: "inception_4a/5x5_reduce"
}
layer {
  name: "inception_4a/5x5"
  type: "Convolution"
  bottom: "inception_4a/5x5_reduce"
  top: "inception_4a/5x5"
  param {
    lr_mult: 1
    decay_mult: 1
  }
  param {
    lr_mult: 2
    decay_mult: 0
  }
  convolution_param {
    num_output: 48
    pad: 2
    kernel_size: 5
    weight_filler {
      type: "xavier"
      std: 0.03
    }
    bias_filler {
      type: "constant"
      value: 0.2
    }
  }
}
layer {
  name: "inception_4a/relu_5x5"
  type: "ReLU"
  bottom: "inception_4a/5x5"
  top: "inception_4a/5x5"
}
layer {
  name: "inception_4a/pool"
  type: "Pooling"
  bottom: "pool3/3x3_s2"
  top: "inception_4a/pool"
  pooling_param {
    pool: MAX
    kernel_size: 3
    stride: 1
    pad: 1
  }
}
layer {
  name: "inception_4a/pool_proj"
  type: "Convolution"
  bottom: "inception_4a/pool"
  top: "inception_4a/pool_proj"
  param {
    lr_mult: 1
    decay_mult: 1
  }
  param {
    lr_mult: 2
    decay_mult: 0
  }
  convolution_param {
    num_output: 64
    kernel_size: 1
    weight_filler {
      type: "xavier"
      std: 0.1
    }
    bias_filler {
      type: "constant"
      value: 0.2
    }
  }
}
layer {
  name: "inception_4a/relu_pool_proj"
  type: "ReLU"
  bottom: "inception_4a/pool_proj"
  top: "inception_4a/pool_proj"
}
layer {
  name: "inception_4a/output"
  type: "Concat"
  bottom: "inception_4a/1x1"
  bottom: "inception_4a/3x3"
  bottom: "inception_4a/5x5"
  bottom: "inception_4a/pool_proj"
  top: "inception_4a/output"
}
layer {
  name: "loss1/ave_pool"
  type: "Pooling"
  bottom: "inception_4a/output"
  top: "loss1/ave_pool"
  pooling_param {
    pool: AVE
    kernel_size: 5
    stride: 3
  }
}
layer {
  name: "loss1/conv"
  type: "Convolution"
  bottom: "loss1/ave_pool"
  top: "loss1/conv"
  param {
    lr_mult: 1
    decay_mult: 1
  }
  param {
    lr_mult: 2
    decay_mult: 0
  }
  convolution_param {
    num_output: 128
    kernel_size: 1
    weight_filler {
      type: "xavier"
      std: 0.08
    }
    bias_filler {
      type: "constant"
      value: 0.2
    }
  }
}
layer {
  name: "loss1/relu_conv"
  type: "ReLU"
  bottom: "loss1/conv"
  top: "loss1/conv"
}
layer {
  name: "loss1/fc"
  type: "InnerProduct"
  bottom: "loss1/conv"
  top: "loss1/fc"
  param {
    lr_mult: 1
    decay_mult: 1
  }
  param {
    lr_mult: 2
    decay_mult: 0
  }
  inner_product_param {
    num_output: 1024
    weight_filler {
      type: "xavier"
      std: 0.02
    }
    bias_filler {
      type: "constant"
      value: 0.2
    }
  }
}
layer {
  name: "loss1/relu_fc"
  type: "ReLU"
  bottom: "loss1/fc"
  top: "loss1/fc"
}
layer {
  name: "loss1/drop_fc"
  type: "Dropout"
  bottom: "loss1/fc"
  top: "loss1/fc"
  dropout_param {
    dropout_ratio: 0.7
  }
}
layer {
  name: "loss1/classifier_kaggle"
  type: "InnerProduct"
  bottom: "loss1/fc"
  top: "loss1/classifier_kaggle"
  param {
    lr_mult: 1
    decay_mult: 1
  }
  param {
    lr_mult: 2
    decay_mult: 0
  }
  inner_product_param {
    num_output: 447
    weight_filler {
      type: "xavier"
      std: 0.0009765625
    }
    bias_filler {
      type: "constant"
      value: 0
    }
  }
}
layer {
  name: "loss1/loss"
  type: "SoftmaxWithLoss"
  bottom: "loss1/classifier_kaggle"
  bottom: "label"
  top: "loss1/loss1"
  loss_weight: 0.3
}
layer {
  name: "inception_4b/1x1"
  type: "Convolution"
  bottom: "inception_4a/output"
  top: "inception_4b/1x1"
  param {
    lr_mult: 1
    decay_mult: 1
  }
  param {
    lr_mult: 2
    decay_mult: 0
  }
  convolution_param {
    num_output: 160
    kernel_size: 1
    weight_filler {
      type: "xavier"
      std: 0.03
    }
    bias_filler {
      type: "constant"
      value: 0.2
    }
  }
}
layer {
  name: "inception_4b/relu_1x1"
  type: "ReLU"
  bottom: "inception_4b/1x1"
  top: "inception_4b/1x1"
}
layer {
  name: "inception_4b/3x3_reduce"
  type: "Convolution"
  bottom: "inception_4a/output"
  top: "inception_4b/3x3_reduce"
  param {
    lr_mult: 1
    decay_mult: 1
  }
  param {
    lr_mult: 2
    decay_mult: 0
  }
  convolution_param {
    num_output: 112
    kernel_size: 1
    weight_filler {
      type: "xavier"
      std: 0.09
    }
    bias_filler {
      type: "constant"
      value: 0.2
    }
  }
}
layer {
  name: "inception_4b/relu_3x3_reduce"
  type: "ReLU"
  bottom: "inception_4b/3x3_reduce"
  top: "inception_4b/3x3_reduce"
}
layer {
  name: "inception_4b/3x3"
  type: "Convolution"
  bottom: "inception_4b/3x3_reduce"
  top: "inception_4b/3x3"
  param {
    lr_mult: 1
    decay_mult: 1
  }
  param {
    lr_mult: 2
    decay_mult: 0
  }
  convolution_param {
    num_output: 224
    pad: 1
    kernel_size: 3
    weight_filler {
      type: "xavier"
      std: 0.03
    }
    bias_filler {
      type: "constant"
      value: 0.2
    }
  }
}
layer {
  name: "inception_4b/relu_3x3"
  type: "ReLU"
  bottom: "inception_4b/3x3"
  top: "inception_4b/3x3"
}
layer {
  name: "inception_4b/5x5_reduce"
  type: "Convolution"
  bottom: "inception_4a/output"
  top: "inception_4b/5x5_reduce"
  param {
    lr_mult: 1
    decay_mult: 1
  }
  param {
    lr_mult: 2
    decay_mult: 0
  }
  convolution_param {
    num_output: 24
    kernel_size: 1
    weight_filler {
      type: "xavier"
      std: 0.2
    }
    bias_filler {
      type: "constant"
      value: 0.2
    }
  }
}
layer {
  name: "inception_4b/relu_5x5_reduce"
  type: "ReLU"
  bottom: "inception_4b/5x5_reduce"
  top: "inception_4b/5x5_reduce"
}
layer {
  name: "inception_4b/5x5"
  type: "Convolution"
  bottom: "inception_4b/5x5_reduce"
  top: "inception_4b/5x5"
  param {
    lr_mult: 1
    decay_mult: 1
  }
  param {
    lr_mult: 2
    decay_mult: 0
  }
  convolution_param {
    num_output: 64
    pad: 2
    kernel_size: 5
    weight_filler {
      type: "xavier"
      std: 0.03
    }
    bias_filler {
      type: "constant"
      value: 0.2
    }
  }
}
layer {
  name: "inception_4b/relu_5x5"
  type: "ReLU"
  bottom: "inception_4b/5x5"
  top: "inception_4b/5x5"
}
layer {
  name: "inception_4b/pool"
  type: "Pooling"
  bottom: "inception_4a/output"
  top: "inception_4b/pool"
  pooling_param {
    pool: MAX
    kernel_size: 3
    stride: 1
    pad: 1
  }
}
layer {
  name: "inception_4b/pool_proj"
  type: "Convolution"
  bottom: "inception_4b/pool"
  top: "inception_4b/pool_proj"
  param {
    lr_mult: 1
    decay_mult: 1
  }
  param {
    lr_mult: 2
    decay_mult: 0
  }
  convolution_param {
    num_output: 64
    kernel_size: 1
    weight_filler {
      type: "xavier"
      std: 0.1
    }
    bias_filler {
      type: "constant"
      value: 0.2
    }
  }
}
layer {
  name: "inception_4b/relu_pool_proj"
  type: "ReLU"
  bottom: "inception_4b/pool_proj"
  top: "inception_4b/pool_proj"
}
layer {
  name: "inception_4b/output"
  type: "Concat"
  bottom: "inception_4b/1x1"
  bottom: "inception_4b/3x3"
  bottom: "inception_4b/5x5"
  bottom: "inception_4b/pool_proj"
  top: "inception_4b/output"
}
layer {
  name: "inception_4c/1x1"
  type: "Convolution"
  bottom: "inception_4b/output"
  top: "inception_4c/1x1"
  param {
    lr_mult: 1
    decay_mult: 1
  }
  param {
    lr_mult: 2
    decay_mult: 0
  }
  convolution_param {
    num_output: 128
    kernel_size: 1
    weight_filler {
      type: "xavier"
      std: 0.03
    }
    bias_filler {
      type: "constant"
      value: 0.2
    }
  }
}
layer {
  name: "inception_4c/relu_1x1"
  type: "ReLU"
  bottom: "inception_4c/1x1"
  top: "inception_4c/1x1"
}
layer {
  name: "inception_4c/3x3_reduce"
  type: "Convolution"
  bottom: "inception_4b/output"
  top: "inception_4c/3x3_reduce"
  param {
    lr_mult: 1
    decay_mult: 1
  }
  param {
    lr_mult: 2
    decay_mult: 0
  }
  convolution_param {
    num_output: 128
    kernel_size: 1
    weight_filler {
      type: "xavier"
      std: 0.09
    }
    bias_filler {
      type: "constant"
      value: 0.2
    }
  }
}
layer {
  name: "inception_4c/relu_3x3_reduce"
  type: "ReLU"
  bottom: "inception_4c/3x3_reduce"
  top: "inception_4c/3x3_reduce"
}
layer {
  name: "inception_4c/3x3"
  type: "Convolution"
  bottom: "inception_4c/3x3_reduce"
  top: "inception_4c/3x3"
  param {
    lr_mult: 1
    decay_mult: 1
  }
  param {
    lr_mult: 2
    decay_mult: 0
  }
  convolution_param {
    num_output: 256
    pad: 1
    kernel_size: 3
    weight_filler {
      type: "xavier"
      std: 0.03
    }
    bias_filler {
      type: "constant"
      value: 0.2
    }
  }
}
layer {
  name: "inception_4c/relu_3x3"
  type: "ReLU"
  bottom: "inception_4c/3x3"
  top: "inception_4c/3x3"
}
layer {
  name: "inception_4c/5x5_reduce"
  type: "Convolution"
  bottom: "inception_4b/output"
  top: "inception_4c/5x5_reduce"
  param {
    lr_mult: 1
    decay_mult: 1
  }
  param {
    lr_mult: 2
    decay_mult: 0
  }
  convolution_param {
    num_output: 24
    kernel_size: 1
    weight_filler {
      type: "xavier"
      std: 0.2
    }
    bias_filler {
      type: "constant"
      value: 0.2
    }
  }
}
layer {
  name: "inception_4c/relu_5x5_reduce"
  type: "ReLU"
  bottom: "inception_4c/5x5_reduce"
  top: "inception_4c/5x5_reduce"
}
layer {
  name: "inception_4c/5x5"
  type: "Convolution"
  bottom: "inception_4c/5x5_reduce"
  top: "inception_4c/5x5"
  param {
    lr_mult: 1
    decay_mult: 1
  }
  param {
    lr_mult: 2
    decay_mult: 0
  }
  convolution_param {
    num_output: 64
    pad: 2
    kernel_size: 5
    weight_filler {
      type: "xavier"
      std: 0.03
    }
    bias_filler {
      type: "constant"
      value: 0.2
    }
  }
}
layer {
  name: "inception_4c/relu_5x5"
  type: "ReLU"
  bottom: "inception_4c/5x5"
  top: "inception_4c/5x5"
}
layer {
  name: "inception_4c/pool"
  type: "Pooling"
  bottom: "inception_4b/output"
  top: "inception_4c/pool"
  pooling_param {
    pool: MAX
    kernel_size: 3
    stride: 1
    pad: 1
  }
}
layer {
  name: "inception_4c/pool_proj"
  type: "Convolution"
  bottom: "inception_4c/pool"
  top: "inception_4c/pool_proj"
  param {
    lr_mult: 1
    decay_mult: 1
  }
  param {
    lr_mult: 2
    decay_mult: 0
  }
  convolution_param {
    num_output: 64
    kernel_size: 1
    weight_filler {
      type: "xavier"
      std: 0.1
    }
    bias_filler {
      type: "constant"
      value: 0.2
    }
  }
}
layer {
  name: "inception_4c/relu_pool_proj"
  type: "ReLU"
  bottom: "inception_4c/pool_proj"
  top: "inception_4c/pool_proj"
}
layer {
  name: "inception_4c/output"
  type: "Concat"
  bottom: "inception_4c/1x1"
  bottom: "inception_4c/3x3"
  bottom: "inception_4c/5x5"
  bottom: "inception_4c/pool_proj"
  top: "inception_4c/output"
}
layer {
  name: "inception_4d/1x1"
  type: "Convolution"
  bottom: "inception_4c/output"
  top: "inception_4d/1x1"
  param {
    lr_mult: 1
    decay_mult: 1
  }
  param {
    lr_mult: 2
    decay_mult: 0
  }
  convolution_param {
    num_output: 112
    kernel_size: 1
    weight_filler {
      type: "xavier"
      std: 0.03
    }
    bias_filler {
      type: "constant"
      value: 0.2
    }
  }
}
layer {
  name: "inception_4d/relu_1x1"
  type: "ReLU"
  bottom: "inception_4d/1x1"
  top: "inception_4d/1x1"
}
layer {
  name: "inception_4d/3x3_reduce"
  type: "Convolution"
  bottom: "inception_4c/output"
  top: "inception_4d/3x3_reduce"
  param {
    lr_mult: 1
    decay_mult: 1
  }
  param {
    lr_mult: 2
    decay_mult: 0
  }
  convolution_param {
    num_output: 144
    kernel_size: 1
    weight_filler {
      type: "xavier"
      std: 0.09
    }
    bias_filler {
      type: "constant"
      value: 0.2
    }
  }
}
layer {
  name: "inception_4d/relu_3x3_reduce"
  type: "ReLU"
  bottom: "inception_4d/3x3_reduce"
  top: "inception_4d/3x3_reduce"
}
layer {
  name: "inception_4d/3x3"
  type: "Convolution"
  bottom: "inception_4d/3x3_reduce"
  top: "inception_4d/3x3"
  param {
    lr_mult: 1
    decay_mult: 1
  }
  param {
    lr_mult: 2
    decay_mult: 0
  }
  convolution_param {
    num_output: 288
    pad: 1
    kernel_size: 3
    weight_filler {
      type: "xavier"
      std: 0.03
    }
    bias_filler {
      type: "constant"
      value: 0.2
    }
  }
}
layer {
  name: "inception_4d/relu_3x3"
  type: "ReLU"
  bottom: "inception_4d/3x3"
  top: "inception_4d/3x3"
}
layer {
  name: "inception_4d/5x5_reduce"
  type: "Convolution"
  bottom: "inception_4c/output"
  top: "inception_4d/5x5_reduce"
  param {
    lr_mult: 1
    decay_mult: 1
  }
  param {
    lr_mult: 2
    decay_mult: 0
  }
  convolution_param {
    num_output: 32
    kernel_size: 1
    weight_filler {
      type: "xavier"
      std: 0.2
    }
    bias_filler {
      type: "constant"
      value: 0.2
    }
  }
}
layer {
  name: "inception_4d/relu_5x5_reduce"
  type: "ReLU"
  bottom: "inception_4d/5x5_reduce"
  top: "inception_4d/5x5_reduce"
}
layer {
  name: "inception_4d/5x5"
  type: "Convolution"
  bottom: "inception_4d/5x5_reduce"
  top: "inception_4d/5x5"
  param {
    lr_mult: 1
    decay_mult: 1
  }
  param {
    lr_mult: 2
    decay_mult: 0
  }
  convolution_param {
    num_output: 64
    pad: 2
    kernel_size: 5
    weight_filler {
      type: "xavier"
      std: 0.03
    }
    bias_filler {
      type: "constant"
      value: 0.2
    }
  }
}
layer {
  name: "inception_4d/relu_5x5"
  type: "ReLU"
  bottom: "inception_4d/5x5"
  top: "inception_4d/5x5"
}
layer {
  name: "inception_4d/pool"
  type: "Pooling"
  bottom: "inception_4c/output"
  top: "inception_4d/pool"
  pooling_param {
    pool: MAX
    kernel_size: 3
    stride: 1
    pad: 1
  }
}
layer {
  name: "inception_4d/pool_proj"
  type: "Convolution"
  bottom: "inception_4d/pool"
  top: "inception_4d/pool_proj"
  param {
    lr_mult: 1
    decay_mult: 1
  }
  param {
    lr_mult: 2
    decay_mult: 0
  }
  convolution_param {
    num_output: 64
    kernel_size: 1
    weight_filler {
      type: "xavier"
      std: 0.1
    }
    bias_filler {
      type: "constant"
      value: 0.2
    }
  }
}
layer {
  name: "inception_4d/relu_pool_proj"
  type: "ReLU"
  bottom: "inception_4d/pool_proj"
  top: "inception_4d/pool_proj"
}
layer {
  name: "inception_4d/output"
  type: "Concat"
  bottom: "inception_4d/1x1"
  bottom: "inception_4d/3x3"
  bottom: "inception_4d/5x5"
  bottom: "inception_4d/pool_proj"
  top: "inception_4d/output"
}
layer {
  name: "loss2/ave_pool"
  type: "Pooling"
  bottom: "inception_4d/output"
  top: "loss2/ave_pool"
  pooling_param {
    pool: AVE
    kernel_size: 5
    stride: 3
  }
}
layer {
  name: "loss2/conv"
  type: "Convolution"
  bottom: "loss2/ave_pool"
  top: "loss2/conv"
  param {
    lr_mult: 1
    decay_mult: 1
  }
  param {
    lr_mult: 2
    decay_mult: 0
  }
  convolution_param {
    num_output: 128
    kernel_size: 1
    weight_filler {
      type: "xavier"
      std: 0.08
    }
    bias_filler {
      type: "constant"
      value: 0.2
    }
  }
}
layer {
  name: "loss2/relu_conv"
  type: "ReLU"
  bottom: "loss2/conv"
  top: "loss2/conv"
}
layer {
  name: "loss2/fc"
  type: "InnerProduct"
  bottom: "loss2/conv"
  top: "loss2/fc"
  param {
    lr_mult: 1
    decay_mult: 1
  }
  param {
    lr_mult: 2
    decay_mult: 0
  }
  inner_product_param {
    num_output: 1024
    weight_filler {
      type: "xavier"
      std: 0.02
    }
    bias_filler {
      type: "constant"
      value: 0.2
    }
  }
}
layer {
  name: "loss2/relu_fc"
  type: "ReLU"
  bottom: "loss2/fc"
  top: "loss2/fc"
}
layer {
  name: "loss2/drop_fc"
  type: "Dropout"
  bottom: "loss2/fc"
  top: "loss2/fc"
  dropout_param {
    dropout_ratio: 0.7
  }
}
layer {
  name: "loss2/classifier_kaggle"
  type: "InnerProduct"
  bottom: "loss2/fc"
  top: "loss2/classifier_kaggle"
  param {
    lr_mult: 1
    decay_mult: 1
  }
  param {
    lr_mult: 2
    decay_mult: 0
  }
  inner_product_param {
    num_output: 447
    weight_filler {
      type: "xavier"
      std: 0.0009765625
    }
    bias_filler {
      type: "constant"
      value: 0
    }
  }
}
layer {
  name: "loss2/loss"
  type: "SoftmaxWithLoss"
  bottom: "loss2/classifier_kaggle"
  bottom: "label"
  top: "loss2/loss1"
  loss_weight: 0.3
}
layer {
  name: "inception_4e/1x1"
  type: "Convolution"
  bottom: "inception_4d/output"
  top: "inception_4e/1x1"
  param {
    lr_mult: 1
    decay_mult: 1
  }
  param {
    lr_mult: 2
    decay_mult: 0
  }
  convolution_param {
    num_output: 256
    kernel_size: 1
    weight_filler {
      type: "xavier"
      std: 0.03
    }
    bias_filler {
      type: "constant"
      value: 0.2
    }
  }
}
layer {
  name: "inception_4e/relu_1x1"
  type: "ReLU"
  bottom: "inception_4e/1x1"
  top: "inception_4e/1x1"
}
layer {
  name: "inception_4e/3x3_reduce"
  type: "Convolution"
  bottom: "inception_4d/output"
  top: "inception_4e/3x3_reduce"
  param {
    lr_mult: 1
    decay_mult: 1
  }
  param {
    lr_mult: 2
    decay_mult: 0
  }
  convolution_param {
    num_output: 160
    kernel_size: 1
    weight_filler {
      type: "xavier"
      std: 0.09
    }
    bias_filler {
      type: "constant"
      value: 0.2
    }
  }
}
layer {
  name: "inception_4e/relu_3x3_reduce"
  type: "ReLU"
  bottom: "inception_4e/3x3_reduce"
  top: "inception_4e/3x3_reduce"
}
layer {
  name: "inception_4e/3x3"
  type: "Convolution"
  bottom: "inception_4e/3x3_reduce"
  top: "inception_4e/3x3"
  param {
    lr_mult: 1
    decay_mult: 1
  }
  param {
    lr_mult: 2
    decay_mult: 0
  }
  convolution_param {
    num_output: 320
    pad: 1
    kernel_size: 3
    weight_filler {
      type: "xavier"
      std: 0.03
    }
    bias_filler {
      type: "constant"
      value: 0.2
    }
  }
}
layer {
  name: "inception_4e/relu_3x3"
  type: "ReLU"
  bottom: "inception_4e/3x3"
  top: "inception_4e/3x3"
}
layer {
  name: "inception_4e/5x5_reduce"
  type: "Convolution"
  bottom: "inception_4d/output"
  top: "inception_4e/5x5_reduce"
  param {
    lr_mult: 1
    decay_mult: 1
  }
  param {
    lr_mult: 2
    decay_mult: 0
  }
  convolution_param {
    num_output: 32
    kernel_size: 1
    weight_filler {
      type: "xavier"
      std: 0.2
    }
    bias_filler {
      type: "constant"
      value: 0.2
    }
  
I1216 01:51:37.084383 25625 layer_factory.hpp:74] Creating layer data
I1216 01:51:37.084419 25625 net.cpp:84] Creating Layer data
I1216 01:51:37.084432 25625 net.cpp:338] data -> data
I1216 01:51:37.084475 25625 net.cpp:338] data -> label
I1216 01:51:37.084494 25625 net.cpp:113] Setting up data
I1216 01:51:37.084584 25625 db.cpp:34] Opened lmdb /home/coldmanck/kaggle/kaggle2_train_lmdb
I1216 01:51:37.084867 25625 data_layer.cpp:67] output data size: 32,3,224,224
I1216 01:51:37.091147 25625 net.cpp:120] Top shape: 32 3 224 224 (4816896)
I1216 01:51:37.091177 25625 net.cpp:120] Top shape: 32 (32)
I1216 01:51:37.091192 25625 layer_factory.hpp:74] Creating layer label_data_1_split
I1216 01:51:37.091218 25625 net.cpp:84] Creating Layer label_data_1_split
I1216 01:51:37.091230 25625 net.cpp:380] label_data_1_split <- label
I1216 01:51:37.091609 25625 net.cpp:338] label_data_1_split -> label_data_1_split_0
I1216 01:51:37.091627 25625 net.cpp:338] label_data_1_split -> label_data_1_split_1
I1216 01:51:37.091641 25625 net.cpp:338] label_data_1_split -> label_data_1_split_2
I1216 01:51:37.091653 25625 net.cpp:113] Setting up label_data_1_split
I1216 01:51:37.091681 25625 net.cpp:120] Top shape: 32 (32)
I1216 01:51:37.091691 25625 net.cpp:120] Top shape: 32 (32)
I1216 01:51:37.091717 25625 net.cpp:120] Top shape: 32 (32)
I1216 01:51:37.091725 25625 layer_factory.hpp:74] Creating layer conv1/7x7_s2
I1216 01:51:37.091744 25625 net.cpp:84] Creating Layer conv1/7x7_s2
I1216 01:51:37.091753 25625 net.cpp:380] conv1/7x7_s2 <- data
I1216 01:51:37.091764 25625 net.cpp:338] conv1/7x7_s2 -> conv1/7x7_s2
I1216 01:51:37.091780 25625 net.cpp:113] Setting up conv1/7x7_s2
I1216 01:51:37.441887 25625 net.cpp:120] Top shape: 32 64 112 112 (25690112)
I1216 01:51:37.441951 25625 layer_factory.hpp:74] Creating layer conv1/relu_7x7
I1216 01:51:37.441969 25625 net.cpp:84] Creating Layer conv1/relu_7x7
I1216 01:51:37.441977 25625 net.cpp:380] conv1/relu_7x7 <- conv1/7x7_s2
I1216 01:51:37.441989 25625 net.cpp:327] conv1/relu_7x7 -> conv1/7x7_s2 (in-place)
I1216 01:51:37.442003 25625 net.cpp:113] Setting up conv1/relu_7x7
I1216 01:51:37.445368 25625 net.cpp:120] Top shape: 32 64 112 112 (25690112)
I1216 01:51:37.445385 25625 layer_factory.hpp:74] Creating layer pool1/3x3_s2
I1216 01:51:37.445404 25625 net.cpp:84] Creating Layer pool1/3x3_s2
I1216 01:51:37.445410 25625 net.cpp:380] pool1/3x3_s2 <- conv1/7x7_s2
I1216 01:51:37.445417 25625 net.cpp:338] pool1/3x3_s2 -> pool1/3x3_s2
I1216 01:51:37.445426 25625 net.cpp:113] Setting up pool1/3x3_s2
I1216 01:51:37.445504 25625 net.cpp:120] Top shape: 32 64 56 56 (6422528)
I1216 01:51:37.445513 25625 layer_factory.hpp:74] Creating layer pool1/norm1
I1216 01:51:37.445530 25625 net.cpp:84] Creating Layer pool1/norm1
I1216 01:51:37.445536 25625 net.cpp:380] pool1/norm1 <- pool1/3x3_s2
I1216 01:51:37.445544 25625 net.cpp:338] pool1/norm1 -> pool1/norm1
I1216 01:51:37.445554 25625 net.cpp:113] Setting up pool1/norm1
I1216 01:51:37.445561 25625 net.cpp:120] Top shape: 32 64 56 56 (6422528)
I1216 01:51:37.445665 25625 layer_factory.hpp:74] Creating layer conv2/3x3_reduce
I1216 01:51:37.445677 25625 net.cpp:84] Creating Layer conv2/3x3_reduce
I1216 01:51:37.445683 25625 net.cpp:380] conv2/3x3_reduce <- pool1/norm1
I1216 01:51:37.445693 25625 net.cpp:338] conv2/3x3_reduce -> conv2/3x3_reduce
I1216 01:51:37.445703 25625 net.cpp:113] Setting up conv2/3x3_reduce
I1216 01:51:37.446126 25625 net.cpp:120] Top shape: 32 64 56 56 (6422528)
I1216 01:51:37.446146 25625 layer_factory.hpp:74] Creating layer conv2/relu_3x3_reduce
I1216 01:51:37.446154 25625 net.cpp:84] Creating Layer conv2/relu_3x3_reduce
I1216 01:51:37.446161 25625 net.cpp:380] conv2/relu_3x3_reduce <- conv2/3x3_reduce
I1216 01:51:37.446168 25625 net.cpp:327] conv2/relu_3x3_reduce -> conv2/3x3_reduce (in-place)
I1216 01:51:37.446176 25625 net.cpp:113] Setting up conv2/relu_3x3_reduce
I1216 01:51:37.446236 25625 net.cpp:120] Top shape: 32 64 56 56 (6422528)
I1216 01:51:37.446243 25625 layer_factory.hpp:74] Creating layer conv2/3x3
I1216 01:51:37.446252 25625 net.cpp:84] Creating Layer conv2/3x3
I1216 01:51:37.446261 25625 net.cpp:380] conv2/3x3 <- conv2/3x3_reduce
I1216 01:51:37.446270 25625 net.cpp:338] conv2/3x3 -> conv2/3x3
I1216 01:51:37.446280 25625 net.cpp:113] Setting up conv2/3x3
I1216 01:51:37.447806 25625 net.cpp:120] Top shape: 32 192 56 56 (19267584)
I1216 01:51:37.447824 25625 layer_factory.hpp:74] Creating layer conv2/relu_3x3
I1216 01:51:37.447832 25625 net.cpp:84] Creating Layer conv2/relu_3x3
I1216 01:51:37.447839 25625 net.cpp:380] conv2/relu_3x3 <- conv2/3x3
I1216 01:51:37.447845 25625 net.cpp:327] conv2/relu_3x3 -> conv2/3x3 (in-place)
I1216 01:51:37.447854 25625 net.cpp:113] Setting up conv2/relu_3x3
I1216 01:51:37.448389 25625 net.cpp:120] Top shape: 32 192 56 56 (19267584)
I1216 01:51:37.448402 25625 layer_factory.hpp:74] Creating layer conv2/norm2
I1216 01:51:37.448411 25625 net.cpp:84] Creating Layer conv2/norm2
I1216 01:51:37.448417 25625 net.cpp:380] conv2/norm2 <- conv2/3x3
I1216 01:51:37.448426 25625 net.cpp:338] conv2/norm2 -> conv2/norm2
I1216 01:51:37.448434 25625 net.cpp:113] Setting up conv2/norm2
I1216 01:51:37.448442 25625 net.cpp:120] Top shape: 32 192 56 56 (19267584)
I1216 01:51:37.448458 25625 layer_factory.hpp:74] Creating layer pool2/3x3_s2
I1216 01:51:37.448477 25625 net.cpp:84] Creating Layer pool2/3x3_s2
I1216 01:51:37.448483 25625 net.cpp:380] pool2/3x3_s2 <- conv2/norm2
I1216 01:51:37.448489 25625 net.cpp:338] pool2/3x3_s2 -> pool2/3x3_s2
I1216 01:51:37.448498 25625 net.cpp:113] Setting up pool2/3x3_s2
I1216 01:51:37.448560 25625 net.cpp:120] Top shape: 32 192 28 28 (4816896)
I1216 01:51:37.448566 25625 layer_factory.hpp:74] Creating layer pool2/3x3_s2_pool2/3x3_s2_0_split
I1216 01:51:37.448575 25625 net.cpp:84] Creating Layer pool2/3x3_s2_pool2/3x3_s2_0_split
I1216 01:51:37.448580 25625 net.cpp:380] pool2/3x3_s2_pool2/3x3_s2_0_split <- pool2/3x3_s2
I1216 01:51:37.448587 25625 net.cpp:338] pool2/3x3_s2_pool2/3x3_s2_0_split -> pool2/3x3_s2_pool2/3x3_s2_0_split_0
I1216 01:51:37.448596 25625 net.cpp:338] pool2/3x3_s2_pool2/3x3_s2_0_split -> pool2/3x3_s2_pool2/3x3_s2_0_split_1
I1216 01:51:37.448603 25625 net.cpp:338] pool2/3x3_s2_pool2/3x3_s2_0_split -> pool2/3x3_s2_pool2/3x3_s2_0_split_2
I1216 01:51:37.448611 25625 net.cpp:338] pool2/3x3_s2_pool2/3x3_s2_0_split -> pool2/3x3_s2_pool2/3x3_s2_0_split_3
I1216 01:51:37.448616 25625 net.cpp:113] Setting up pool2/3x3_s2_pool2/3x3_s2_0_split
I1216 01:51:37.448624 25625 net.cpp:120] Top shape: 32 192 28 28 (4816896)
I1216 01:51:37.448631 25625 net.cpp:120] Top shape: 32 192 28 28 (4816896)
I1216 01:51:37.448635 25625 net.cpp:120] Top shape: 32 192 28 28 (4816896)
I1216 01:51:37.448642 25625 net.cpp:120] Top shape: 32 192 28 28 (4816896)
I1216 01:51:37.448647 25625 layer_factory.hpp:74] Creating layer inception_3a/1x1
I1216 01:51:37.448655 25625 net.cpp:84] Creating Layer inception_3a/1x1
I1216 01:51:37.448660 25625 net.cpp:380] inception_3a/1x1 <- pool2/3x3_s2_pool2/3x3_s2_0_split_0
I1216 01:51:37.448668 25625 net.cpp:338] inception_3a/1x1 -> inception_3a/1x1
I1216 01:51:37.448678 25625 net.cpp:113] Setting up inception_3a/1x1
I1216 01:51:37.449398 25625 net.cpp:120] Top shape: 32 64 28 28 (1605632)
I1216 01:51:37.449415 25625 layer_factory.hpp:74] Creating layer inception_3a/relu_1x1
I1216 01:51:37.449424 25625 net.cpp:84] Creating Layer inception_3a/relu_1x1
I1216 01:51:37.449429 25625 net.cpp:380] inception_3a/relu_1x1 <- inception_3a/1x1
I1216 01:51:37.449435 25625 net.cpp:327] inception_3a/relu_1x1 -> inception_3a/1x1 (in-place)
I1216 01:51:37.449443 25625 net.cpp:113] Setting up inception_3a/relu_1x1
I1216 01:51:37.449926 25625 net.cpp:120] Top shape: 32 64 28 28 (1605632)
I1216 01:51:37.449944 25625 layer_factory.hpp:74] Creating layer inception_3a/3x3_reduce
I1216 01:51:37.449954 25625 net.cpp:84] Creating Layer inception_3a/3x3_reduce
I1216 01:51:37.449960 25625 net.cpp:380] inception_3a/3x3_reduce <- pool2/3x3_s2_pool2/3x3_s2_0_split_1
I1216 01:51:37.449970 25625 net.cpp:338] inception_3a/3x3_reduce -> inception_3a/3x3_reduce
I1216 01:51:37.449982 25625 net.cpp:113] Setting up inception_3a/3x3_reduce
I1216 01:51:37.451298 25625 net.cpp:120] Top shape: 32 96 28 28 (2408448)
I1216 01:51:37.451324 25625 layer_factory.hpp:74] Creating layer inception_3a/relu_3x3_reduce
I1216 01:51:37.451338 25625 net.cpp:84] Creating Layer inception_3a/relu_3x3_reduce
I1216 01:51:37.451344 25625 net.cpp:380] inception_3a/relu_3x3_reduce <- inception_3a/3x3_reduce
I1216 01:51:37.451352 25625 net.cpp:327] inception_3a/relu_3x3_reduce -> inception_3a/3x3_reduce (in-place)
I1216 01:51:37.451361 25625 net.cpp:113] Setting up inception_3a/relu_3x3_reduce
I1216 01:51:37.451459 25625 net.cpp:120] Top shape: 32 96 28 28 (2408448)
I1216 01:51:37.451468 25625 layer_factory.hpp:74] Creating layer inception_3a/3x3
I1216 01:51:37.451479 25625 net.cpp:84] Creating Layer inception_3a/3x3
I1216 01:51:37.451485 25625 net.cpp:380] inception_3a/3x3 <- inception_3a/3x3_reduce
I1216 01:51:37.451493 25625 net.cpp:338] inception_3a/3x3 -> inception_3a/3x3
I1216 01:51:37.451501 25625 net.cpp:113] Setting up inception_3a/3x3
I1216 01:51:37.453249 25625 net.cpp:120] Top shape: 32 128 28 28 (3211264)
I1216 01:51:37.453269 25625 layer_factory.hpp:74] Creating layer inception_3a/relu_3x3
I1216 01:51:37.453282 25625 net.cpp:84] Creating Layer inception_3a/relu_3x3
I1216 01:51:37.453295 25625 net.cpp:380] inception_3a/relu_3x3 <- inception_3a/3x3
I1216 01:51:37.453305 25625 net.cpp:327] inception_3a/relu_3x3 -> inception_3a/3x3 (in-place)
I1216 01:51:37.453315 25625 net.cpp:113] Setting up inception_3a/relu_3x3
I1216 01:51:37.453562 25625 net.cpp:120] Top shape: 32 128 28 28 (3211264)
I1216 01:51:37.453574 25625 layer_factory.hpp:74] Creating layer inception_3a/5x5_reduce
I1216 01:51:37.453586 25625 net.cpp:84] Creating Layer inception_3a/5x5_reduce
I1216 01:51:37.453593 25625 net.cpp:380] inception_3a/5x5_reduce <- pool2/3x3_s2_pool2/3x3_s2_0_split_2
I1216 01:51:37.453600 25625 net.cpp:338] inception_3a/5x5_reduce -> inception_3a/5x5_reduce
I1216 01:51:37.453613 25625 net.cpp:113] Setting up inception_3a/5x5_reduce
I1216 01:51:37.454062 25625 net.cpp:120] Top shape: 32 16 28 28 (401408)
I1216 01:51:37.454078 25625 layer_factory.hpp:74] Creating layer inception_3a/relu_5x5_reduce
I1216 01:51:37.454088 25625 net.cpp:84] Creating Layer inception_3a/relu_5x5_reduce
I1216 01:51:37.454094 25625 net.cpp:380] inception_3a/relu_5x5_reduce <- inception_3a/5x5_reduce
I1216 01:51:37.454102 25625 net.cpp:327] inception_3a/relu_5x5_reduce -> inception_3a/5x5_reduce (in-place)
I1216 01:51:37.454110 25625 net.cpp:113] Setting up inception_3a/relu_5x5_reduce
I1216 01:51:37.454190 25625 net.cpp:120] Top shape: 32 16 28 28 (401408)
I1216 01:51:37.454196 25625 layer_factory.hpp:74] Creating layer inception_3a/5x5
I1216 01:51:37.454213 25625 net.cpp:84] Creating Layer inception_3a/5x5
I1216 01:51:37.454219 25625 net.cpp:380] inception_3a/5x5 <- inception_3a/5x5_reduce
I1216 01:51:37.454227 25625 net.cpp:338] inception_3a/5x5 -> inception_3a/5x5
I1216 01:51:37.454237 25625 net.cpp:113] Setting up inception_3a/5x5
I1216 01:51:37.454869 25625 net.cpp:120] Top shape: 32 32 28 28 (802816)
I1216 01:51:37.454885 25625 layer_factory.hpp:74] Creating layer inception_3a/relu_5x5
I1216 01:51:37.454907 25625 net.cpp:84] Creating Layer inception_3a/relu_5x5
I1216 01:51:37.454915 25625 net.cpp:380] inception_3a/relu_5x5 <- inception_3a/5x5
I1216 01:51:37.454922 25625 net.cpp:327] inception_3a/relu_5x5 -> inception_3a/5x5 (in-place)
I1216 01:51:37.454931 25625 net.cpp:113] Setting up inception_3a/relu_5x5
I1216 01:51:37.455009 25625 net.cpp:120] Top shape: 32 32 28 28 (802816)
I1216 01:51:37.455016 25625 layer_factory.hpp:74] Creating layer inception_3a/pool
I1216 01:51:37.455024 25625 layer_factory.cpp:56] CUDNN does not support padding or multiple tops. Using Caffe's own pooling layer.
I1216 01:51:37.455035 25625 net.cpp:84] Creating Layer inception_3a/pool
I1216 01:51:37.455042 25625 net.cpp:380] inception_3a/pool <- pool2/3x3_s2_pool2/3x3_s2_0_split_3
I1216 01:51:37.455050 25625 net.cpp:338] inception_3a/pool -> inception_3a/pool
I1216 01:51:37.455059 25625 net.cpp:113] Setting up inception_3a/pool
I1216 01:51:37.455067 25625 net.cpp:120] Top shape: 32 192 28 28 (4816896)
I1216 01:51:37.455073 25625 layer_factory.hpp:74] Creating layer inception_3a/pool_proj
I1216 01:51:37.455087 25625 net.cpp:84] Creating Layer inception_3a/pool_proj
I1216 01:51:37.455093 25625 net.cpp:380] inception_3a/pool_proj <- inception_3a/pool
I1216 01:51:37.455108 25625 net.cpp:338] inception_3a/pool_proj -> inception_3a/pool_proj
I1216 01:51:37.455116 25625 net.cpp:113] Setting up inception_3a/pool_proj
I1216 01:51:37.455631 25625 net.cpp:120] Top shape: 32 32 28 28 (802816)
I1216 01:51:37.455651 25625 layer_factory.hpp:74] Creating layer inception_3a/relu_pool_proj
I1216 01:51:37.455662 25625 net.cpp:84] Creating Layer inception_3a/relu_pool_proj
I1216 01:51:37.455667 25625 net.cpp:380] inception_3a/relu_pool_proj <- inception_3a/pool_proj
I1216 01:51:37.455674 25625 net.cpp:327] inception_3a/relu_pool_proj -> inception_3a/pool_proj (in-place)
I1216 01:51:37.455682 25625 net.cpp:113] Setting up inception_3a/relu_pool_proj
I1216 01:51:37.455776 25625 net.cpp:120] Top shape: 32 32 28 28 (802816)
I1216 01:51:37.455786 25625 layer_factory.hpp:74] Creating layer inception_3a/output
I1216 01:51:37.455807 25625 net.cpp:84] Creating Layer inception_3a/output
I1216 01:51:37.455819 25625 net.cpp:380] inception_3a/output <- inception_3a/1x1
I1216 01:51:37.455826 25625 net.cpp:380] inception_3a/output <- inception_3a/3x3
I1216 01:51:37.455832 25625 net.cpp:380] inception_3a/output <- inception_3a/5x5
I1216 01:51:37.455838 25625 net.cpp:380] inception_3a/output <- inception_3a/pool_proj
I1216 01:51:37.455849 25625 net.cpp:338] inception_3a/output -> inception_3a/output
I1216 01:51:37.455857 25625 net.cpp:113] Setting up inception_3a/output
I1216 01:51:37.455868 25625 net.cpp:120] Top shape: 32 256 28 28 (6422528)
I1216 01:51:37.455873 25625 layer_factory.hpp:74] Creating layer inception_3a/output_inception_3a/output_0_split
I1216 01:51:37.455880 25625 net.cpp:84] Creating Layer inception_3a/output_inception_3a/output_0_split
I1216 01:51:37.455885 25625 net.cpp:380] inception_3a/output_inception_3a/output_0_split <- inception_3a/output
I1216 01:51:37.455891 25625 net.cpp:338] inception_3a/output_inception_3a/output_0_split -> inception_3a/output_inception_3a/output_0_split_0
I1216 01:51:37.455899 25625 net.cpp:338] inception_3a/output_inception_3a/output_0_split -> inception_3a/output_inception_3a/output_0_split_1
I1216 01:51:37.455906 25625 net.cpp:338] inception_3a/output_inception_3a/output_0_split -> inception_3a/output_inception_3a/output_0_split_2
I1216 01:51:37.455915 25625 net.cpp:338] inception_3a/output_inception_3a/output_0_split -> inception_3a/output_inception_3a/output_0_split_3
I1216 01:51:37.455922 25625 net.cpp:113] Setting up inception_3a/output_inception_3a/output_0_split
I1216 01:51:37.455929 25625 net.cpp:120] Top shape: 32 256 28 28 (6422528)
I1216 01:51:37.455935 25625 net.cpp:120] Top shape: 32 256 28 28 (6422528)
I1216 01:51:37.455940 25625 net.cpp:120] Top shape: 32 256 28 28 (6422528)
I1216 01:51:37.455945 25625 net.cpp:120] Top shape: 32 256 28 28 (6422528)
I1216 01:51:37.455950 25625 layer_factory.hpp:74] Creating layer inception_3b/1x1
I1216 01:51:37.455960 25625 net.cpp:84] Creating Layer inception_3b/1x1
I1216 01:51:37.455965 25625 net.cpp:380] inception_3b/1x1 <- inception_3a/output_inception_3a/output_0_split_0
I1216 01:51:37.455972 25625 net.cpp:338] inception_3b/1x1 -> inception_3b/1x1
I1216 01:51:37.455979 25625 net.cpp:113] Setting up inception_3b/1x1
I1216 01:51:37.456792 25625 net.cpp:120] Top shape: 32 128 28 28 (3211264)
I1216 01:51:37.456809 25625 layer_factory.hpp:74] Creating layer inception_3b/relu_1x1
I1216 01:51:37.456820 25625 net.cpp:84] Creating Layer inception_3b/relu_1x1
I1216 01:51:37.456825 25625 net.cpp:380] inception_3b/relu_1x1 <- inception_3b/1x1
I1216 01:51:37.456833 25625 net.cpp:327] inception_3b/relu_1x1 -> inception_3b/1x1 (in-place)
I1216 01:51:37.456840 25625 net.cpp:113] Setting up inception_3b/relu_1x1
I1216 01:51:37.457181 25625 net.cpp:120] Top shape: 32 128 28 28 (3211264)
I1216 01:51:37.457197 25625 layer_factory.hpp:74] Creating layer inception_3b/3x3_reduce
I1216 01:51:37.457214 25625 net.cpp:84] Creating Layer inception_3b/3x3_reduce
I1216 01:51:37.457221 25625 net.cpp:380] inception_3b/3x3_reduce <- inception_3a/output_inception_3a/output_0_split_1
I1216 01:51:37.457231 25625 net.cpp:338] inception_3b/3x3_reduce -> inception_3b/3x3_reduce
I1216 01:51:37.457240 25625 net.cpp:113] Setting up inception_3b/3x3_reduce
I1216 01:51:37.458087 25625 net.cpp:120] Top shape: 32 128 28 28 (3211264)
I1216 01:51:37.458104 25625 layer_factory.hpp:74] Creating layer inception_3b/relu_3x3_reduce
I1216 01:51:37.458113 25625 net.cpp:84] Creating Layer inception_3b/relu_3x3_reduce
I1216 01:51:37.458119 25625 net.cpp:380] inception_3b/relu_3x3_reduce <- inception_3b/3x3_reduce
I1216 01:51:37.458129 25625 net.cpp:327] inception_3b/relu_3x3_reduce -> inception_3b/3x3_reduce (in-place)
I1216 01:51:37.458137 25625 net.cpp:113] Setting up inception_3b/relu_3x3_reduce
I1216 01:51:37.458240 25625 net.cpp:120] Top shape: 32 128 28 28 (3211264)
I1216 01:51:37.458248 25625 layer_factory.hpp:74] Creating layer inception_3b/3x3
I1216 01:51:37.458269 25625 net.cpp:84] Creating Layer inception_3b/3x3
I1216 01:51:37.458282 25625 net.cpp:380] inception_3b/3x3 <- inception_3b/3x3_reduce
I1216 01:51:37.458294 25625 net.cpp:338] inception_3b/3x3 -> inception_3b/3x3
I1216 01:51:37.458303 25625 net.cpp:113] Setting up inception_3b/3x3
I1216 01:51:37.461426 25625 net.cpp:120] Top shape: 32 192 28 28 (4816896)
I1216 01:51:37.461442 25625 layer_factory.hpp:74] Creating layer inception_3b/relu_3x3
I1216 01:51:37.461452 25625 net.cpp:84] Creating Layer inception_3b/relu_3x3
I1216 01:51:37.461458 25625 net.cpp:380] inception_3b/relu_3x3 <- inception_3b/3x3
I1216 01:51:37.461467 25625 net.cpp:327] inception_3b/relu_3x3 -> inception_3b/3x3 (in-place)
I1216 01:51:37.461474 25625 net.cpp:113] Setting up inception_3b/relu_3x3
I1216 01:51:37.461573 25625 net.cpp:120] Top shape: 32 192 28 28 (4816896)
I1216 01:51:37.461583 25625 layer_factory.hpp:74] Creating layer inception_3b/5x5_reduce
I1216 01:51:37.461594 25625 net.cpp:84] Creating Layer inception_3b/5x5_reduce
I1216 01:51:37.461601 25625 net.cpp:380] inception_3b/5x5_reduce <- inception_3a/output_inception_3a/output_0_split_2
I1216 01:51:37.461608 25625 net.cpp:338] inception_3b/5x5_reduce -> inception_3b/5x5_reduce
I1216 01:51:37.461617 25625 net.cpp:113] Setting up inception_3b/5x5_reduce
I1216 01:51:37.462147 25625 net.cpp:120] Top shape: 32 32 28 28 (802816)
I1216 01:51:37.462165 25625 layer_factory.hpp:74] Creating layer inception_3b/relu_5x5_reduce
I1216 01:51:37.462175 25625 net.cpp:84] Creating Layer inception_3b/relu_5x5_reduce
I1216 01:51:37.462182 25625 net.cpp:380] inception_3b/relu_5x5_reduce <- inception_3b/5x5_reduce
I1216 01:51:37.462189 25625 net.cpp:327] inception_3b/relu_5x5_reduce -> inception_3b/5x5_reduce (in-place)
I1216 01:51:37.462198 25625 net.cpp:113] Setting up inception_3b/relu_5x5_reduce
I1216 01:51:37.462273 25625 net.cpp:120] Top shape: 32 32 28 28 (802816)
I1216 01:51:37.462280 25625 layer_factory.hpp:74] Creating layer inception_3b/5x5
I1216 01:51:37.462293 25625 net.cpp:84] Creating Layer inception_3b/5x5
I1216 01:51:37.462301 25625 net.cpp:380] inception_3b/5x5 <- inception_3b/5x5_reduce
I1216 01:51:37.462311 25625 net.cpp:338] inception_3b/5x5 -> inception_3b/5x5
I1216 01:51:37.462323 25625 net.cpp:113] Setting up inception_3b/5x5
I1216 01:51:37.463690 25625 net.cpp:120] Top shape: 32 96 28 28 (2408448)
I1216 01:51:37.463704 25625 layer_factory.hpp:74] Creating layer inception_3b/relu_5x5
I1216 01:51:37.463711 25625 net.cpp:84] Creating Layer inception_3b/relu_5x5
I1216 01:51:37.463717 25625 net.cpp:380] inception_3b/relu_5x5 <- inception_3b/5x5
I1216 01:51:37.463724 25625 net.cpp:327] inception_3b/relu_5x5 -> inception_3b/5x5 (in-place)
I1216 01:51:37.463732 25625 net.cpp:113] Setting up inception_3b/relu_5x5
I1216 01:51:37.463968 25625 net.cpp:120] Top shape: 32 96 28 28 (2408448)
I1216 01:51:37.463979 25625 layer_factory.hpp:74] Creating layer inception_3b/pool
I1216 01:51:37.463986 25625 layer_factory.cpp:56] CUDNN does not support padding or multiple tops. Using Caffe's own pooling layer.
I1216 01:51:37.463994 25625 net.cpp:84] Creating Layer inception_3b/pool
I1216 01:51:37.464000 25625 net.cpp:380] inception_3b/pool <- inception_3a/output_inception_3a/output_0_split_3
I1216 01:51:37.464009 25625 net.cpp:338] inception_3b/pool -> inception_3b/pool
I1216 01:51:37.464016 25625 net.cpp:113] Setting up inception_3b/pool
I1216 01:51:37.464026 25625 net.cpp:120] Top shape: 32 256 28 28 (6422528)
I1216 01:51:37.464031 25625 layer_factory.hpp:74] Creating layer inception_3b/pool_proj
I1216 01:51:37.464040 25625 net.cpp:84] Creating Layer inception_3b/pool_proj
I1216 01:51:37.464046 25625 net.cpp:380] inception_3b/pool_proj <- inception_3b/pool
I1216 01:51:37.464056 25625 net.cpp:338] inception_3b/pool_proj -> inception_3b/pool_proj
I1216 01:51:37.464063 25625 net.cpp:113] Setting up inception_3b/pool_proj
I1216 01:51:37.464766 25625 net.cpp:120] Top shape: 32 64 28 28 (1605632)
I1216 01:51:37.464783 25625 layer_factory.hpp:74] Creating layer inception_3b/relu_pool_proj
I1216 01:51:37.464793 25625 net.cpp:84] Creating Layer inception_3b/relu_pool_proj
I1216 01:51:37.464812 25625 net.cpp:380] inception_3b/relu_pool_proj <- inception_3b/pool_proj
I1216 01:51:37.464819 25625 net.cpp:327] inception_3b/relu_pool_proj -> inception_3b/pool_proj (in-place)
I1216 01:51:37.464828 25625 net.cpp:113] Setting up inception_3b/relu_pool_proj
I1216 01:51:37.464906 25625 net.cpp:120] Top shape: 32 64 28 28 (1605632)
I1216 01:51:37.464912 25625 layer_factory.hpp:74] Creating layer inception_3b/output
I1216 01:51:37.464920 25625 net.cpp:84] Creating Layer inception_3b/output
I1216 01:51:37.464926 25625 net.cpp:380] inception_3b/output <- inception_3b/1x1
I1216 01:51:37.464931 25625 net.cpp:380] inception_3b/output <- inception_3b/3x3
I1216 01:51:37.464937 25625 net.cpp:380] inception_3b/output <- inception_3b/5x5
I1216 01:51:37.464942 25625 net.cpp:380] inception_3b/output <- inception_3b/pool_proj
I1216 01:51:37.464951 25625 net.cpp:338] inception_3b/output -> inception_3b/output
I1216 01:51:37.464958 25625 net.cpp:113] Setting up inception_3b/output
I1216 01:51:37.464967 25625 net.cpp:120] Top shape: 32 480 28 28 (12042240)
I1216 01:51:37.464972 25625 layer_factory.hpp:74] Creating layer pool3/3x3_s2
I1216 01:51:37.464978 25625 net.cpp:84] Creating Layer pool3/3x3_s2
I1216 01:51:37.464983 25625 net.cpp:380] pool3/3x3_s2 <- inception_3b/output
I1216 01:51:37.464993 25625 net.cpp:338] pool3/3x3_s2 -> pool3/3x3_s2
I1216 01:51:37.465000 25625 net.cpp:113] Setting up pool3/3x3_s2
I1216 01:51:37.465075 25625 net.cpp:120] Top shape: 32 480 14 14 (3010560)
I1216 01:51:37.465085 25625 layer_factory.hpp:74] Creating layer pool3/3x3_s2_pool3/3x3_s2_0_split
I1216 01:51:37.465091 25625 net.cpp:84] Creating Layer pool3/3x3_s2_pool3/3x3_s2_0_split
I1216 01:51:37.465096 25625 net.cpp:380] pool3/3x3_s2_pool3/3x3_s2_0_split <- pool3/3x3_s2
I1216 01:51:37.465103 25625 net.cpp:338] pool3/3x3_s2_pool3/3x3_s2_0_split -> pool3/3x3_s2_pool3/3x3_s2_0_split_0
I1216 01:51:37.465111 25625 net.cpp:338] pool3/3x3_s2_pool3/3x3_s2_0_split -> pool3/3x3_s2_pool3/3x3_s2_0_split_1
I1216 01:51:37.465118 25625 net.cpp:338] pool3/3x3_s2_pool3/3x3_s2_0_split -> pool3/3x3_s2_pool3/3x3_s2_0_split_2
I1216 01:51:37.465126 25625 net.cpp:338] pool3/3x3_s2_pool3/3x3_s2_0_split -> pool3/3x3_s2_pool3/3x3_s2_0_split_3
I1216 01:51:37.465131 25625 net.cpp:113] Setting up pool3/3x3_s2_pool3/3x3_s2_0_split
I1216 01:51:37.465139 25625 net.cpp:120] Top shape: 32 480 14 14 (3010560)
I1216 01:51:37.465144 25625 net.cpp:120] Top shape: 32 480 14 14 (3010560)
I1216 01:51:37.465150 25625 net.cpp:120] Top shape: 32 480 14 14 (3010560)
I1216 01:51:37.465155 25625 net.cpp:120] Top shape: 32 480 14 14 (3010560)
I1216 01:51:37.465160 25625 layer_factory.hpp:74] Creating layer inception_4a/1x1
I1216 01:51:37.465173 25625 net.cpp:84] Creating Layer inception_4a/1x1
I1216 01:51:37.465179 25625 net.cpp:380] inception_4a/1x1 <- pool3/3x3_s2_pool3/3x3_s2_0_split_0
I1216 01:51:37.465188 25625 net.cpp:338] inception_4a/1x1 -> inception_4a/1x1
I1216 01:51:37.465195 25625 net.cpp:113] Setting up inception_4a/1x1
I1216 01:51:37.466660 25625 net.cpp:120] Top shape: 32 192 14 14 (1204224)
I1216 01:51:37.466676 25625 layer_factory.hpp:74] Creating layer inception_4a/relu_1x1
I1216 01:51:37.466686 25625 net.cpp:84] Creating Layer inception_4a/relu_1x1
I1216 01:51:37.466691 25625 net.cpp:380] inception_4a/relu_1x1 <- inception_4a/1x1
I1216 01:51:37.466698 25625 net.cpp:327] inception_4a/relu_1x1 -> inception_4a/1x1 (in-place)
I1216 01:51:37.466706 25625 net.cpp:113] Setting up inception_4a/relu_1x1
I1216 01:51:37.466943 25625 net.cpp:120] Top shape: 32 192 14 14 (1204224)
I1216 01:51:37.466956 25625 layer_factory.hpp:74] Creating layer inception_4a/3x3_reduce
I1216 01:51:37.466966 25625 net.cpp:84] Creating Layer inception_4a/3x3_reduce
I1216 01:51:37.466972 25625 net.cpp:380] inception_4a/3x3_reduce <- pool3/3x3_s2_pool3/3x3_s2_0_split_1
I1216 01:51:37.466980 25625 net.cpp:338] inception_4a/3x3_reduce -> inception_4a/3x3_reduce
I1216 01:51:37.466989 25625 net.cpp:113] Setting up inception_4a/3x3_reduce
I1216 01:51:37.467921 25625 net.cpp:120] Top shape: 32 96 14 14 (602112)
I1216 01:51:37.467953 25625 layer_factory.hpp:74] Creating layer inception_4a/relu_3x3_reduce
I1216 01:51:37.467962 25625 net.cpp:84] Creating Layer inception_4a/relu_3x3_reduce
I1216 01:51:37.467968 25625 net.cpp:380] inception_4a/relu_3x3_reduce <- inception_4a/3x3_reduce
I1216 01:51:37.467975 25625 net.cpp:327] inception_4a/relu_3x3_reduce -> inception_4a/3x3_reduce (in-place)
I1216 01:51:37.467983 25625 net.cpp:113] Setting up inception_4a/relu_3x3_reduce
I1216 01:51:37.468052 25625 net.cpp:120] Top shape: 32 96 14 14 (602112)
I1216 01:51:37.468060 25625 layer_factory.hpp:74] Creating layer inception_4a/3x3
I1216 01:51:37.468070 25625 net.cpp:84] Creating Layer inception_4a/3x3
I1216 01:51:37.468075 25625 net.cpp:380] inception_4a/3x3 <- inception_4a/3x3_reduce
I1216 01:51:37.468083 25625 net.cpp:338] inception_4a/3x3 -> inception_4a/3x3
I1216 01:51:37.468092 25625 net.cpp:113] Setting up inception_4a/3x3
I1216 01:51:37.470690 25625 net.cpp:120] Top shape: 32 208 14 14 (1304576)
I1216 01:51:37.470715 25625 layer_factory.hpp:74] Creating layer inception_4a/relu_3x3
I1216 01:51:37.470728 25625 net.cpp:84] Creating Layer inception_4a/relu_3x3
I1216 01:51:37.470738 25625 net.cpp:380] inception_4a/relu_3x3 <- inception_4a/3x3
I1216 01:51:37.470749 25625 net.cpp:327] inception_4a/relu_3x3 -> inception_4a/3x3 (in-place)
I1216 01:51:37.470762 25625 net.cpp:113] Setting up inception_4a/relu_3x3
I1216 01:51:37.470860 25625 net.cpp:120] Top shape: 32 208 14 14 (1304576)
I1216 01:51:37.470870 25625 layer_factory.hpp:74] Creating layer inception_4a/5x5_reduce
I1216 01:51:37.470885 25625 net.cpp:84] Creating Layer inception_4a/5x5_reduce
I1216 01:51:37.470892 25625 net.cpp:380] inception_4a/5x5_reduce <- pool3/3x3_s2_pool3/3x3_s2_0_split_2
I1216 01:51:37.470902 25625 net.cpp:338] inception_4a/5x5_reduce -> inception_4a/5x5_reduce
I1216 01:51:37.470911 25625 net.cpp:113] Setting up inception_4a/5x5_reduce
I1216 01:51:37.471940 25625 net.cpp:120] Top shape: 32 16 14 14 (100352)
I1216 01:51:37.471957 25625 layer_factory.hpp:74] Creating layer inception_4a/relu_5x5_reduce
I1216 01:51:37.471966 25625 net.cpp:84] Creating Layer inception_4a/relu_5x5_reduce
I1216 01:51:37.471972 25625 net.cpp:380] inception_4a/relu_5x5_reduce <- inception_4a/5x5_reduce
I1216 01:51:37.471979 25625 net.cpp:327] inception_4a/relu_5x5_reduce -> inception_4a/5x5_reduce (in-place)
I1216 01:51:37.471987 25625 net.cpp:113] Setting up inception_4a/relu_5x5_reduce
I1216 01:51:37.472059 25625 net.cpp:120] Top shape: 32 16 14 14 (100352)
I1216 01:51:37.472070 25625 layer_factory.hpp:74] Creating layer inception_4a/5x5
I1216 01:51:37.472081 25625 net.cpp:84] Creating Layer inception_4a/5x5
I1216 01:51:37.472087 25625 net.cpp:380] inception_4a/5x5 <- inception_4a/5x5_reduce
I1216 01:51:37.472095 25625 net.cpp:338] inception_4a/5x5 -> inception_4a/5x5
I1216 01:51:37.472102 25625 net.cpp:113] Setting up inception_4a/5x5
I1216 01:51:37.472736 25625 net.cpp:120] Top shape: 32 48 14 14 (301056)
I1216 01:51:37.472753 25625 layer_factory.hpp:74] Creating layer inception_4a/relu_5x5
I1216 01:51:37.472761 25625 net.cpp:84] Creating Layer inception_4a/relu_5x5
I1216 01:51:37.472767 25625 net.cpp:380] inception_4a/relu_5x5 <- inception_4a/5x5
I1216 01:51:37.472774 25625 net.cpp:327] inception_4a/relu_5x5 -> inception_4a/5x5 (in-place)
I1216 01:51:37.472782 25625 net.cpp:113] Setting up inception_4a/relu_5x5
I1216 01:51:37.473026 25625 net.cpp:120] Top shape: 32 48 14 14 (301056)
I1216 01:51:37.473037 25625 layer_factory.hpp:74] Creating layer inception_4a/pool
I1216 01:51:37.473042 25625 layer_factory.cpp:56] CUDNN does not support padding or multiple tops. Using Caffe's own pooling layer.
I1216 01:51:37.473048 25625 net.cpp:84] Creating Layer inception_4a/pool
I1216 01:51:37.473065 25625 net.cpp:380] inception_4a/pool <- pool3/3x3_s2_pool3/3x3_s2_0_split_3
I1216 01:51:37.473075 25625 net.cpp:338] inception_4a/pool -> inception_4a/pool
I1216 01:51:37.473083 25625 net.cpp:113] Setting up inception_4a/pool
I1216 01:51:37.473099 25625 net.cpp:120] Top shape: 32 480 14 14 (3010560)
I1216 01:51:37.473112 25625 layer_factory.hpp:74] Creating layer inception_4a/pool_proj
I1216 01:51:37.473122 25625 net.cpp:84] Creating Layer inception_4a/pool_proj
I1216 01:51:37.473129 25625 net.cpp:380] inception_4a/pool_proj <- inception_4a/pool
I1216 01:51:37.473139 25625 net.cpp:338] inception_4a/pool_proj -> inception_4a/pool_proj
I1216 01:51:37.473146 25625 net.cpp:113] Setting up inception_4a/pool_proj
I1216 01:51:37.473911 25625 net.cpp:120] Top shape: 32 64 14 14 (401408)
I1216 01:51:37.473927 25625 layer_factory.hpp:74] Creating layer inception_4a/relu_pool_proj
I1216 01:51:37.473935 25625 net.cpp:84] Creating Layer inception_4a/relu_pool_proj
I1216 01:51:37.473942 25625 net.cpp:380] inception_4a/relu_pool_proj <- inception_4a/pool_proj
I1216 01:51:37.473948 25625 net.cpp:327] inception_4a/relu_pool_proj -> inception_4a/pool_proj (in-place)
I1216 01:51:37.473956 25625 net.cpp:113] Setting up inception_4a/relu_pool_proj
I1216 01:51:37.474027 25625 net.cpp:120] Top shape: 32 64 14 14 (401408)
I1216 01:51:37.474036 25625 layer_factory.hpp:74] Creating layer inception_4a/output
I1216 01:51:37.474043 25625 net.cpp:84] Creating Layer inception_4a/output
I1216 01:51:37.474048 25625 net.cpp:380] inception_4a/output <- inception_4a/1x1
I1216 01:51:37.474055 25625 net.cpp:380] inception_4a/output <- inception_4a/3x3
I1216 01:51:37.474061 25625 net.cpp:380] inception_4a/output <- inception_4a/5x5
I1216 01:51:37.474066 25625 net.cpp:380] inception_4a/output <- inception_4a/pool_proj
I1216 01:51:37.474072 25625 net.cpp:338] inception_4a/output -> inception_4a/output
I1216 01:51:37.474079 25625 net.cpp:113] Setting up inception_4a/output
I1216 01:51:37.474087 25625 net.cpp:120] Top shape: 32 512 14 14 (3211264)
I1216 01:51:37.474092 25625 layer_factory.hpp:74] Creating layer inception_4a/output_inception_4a/output_0_split
I1216 01:51:37.474098 25625 net.cpp:84] Creating Layer inception_4a/output_inception_4a/output_0_split
I1216 01:51:37.474103 25625 net.cpp:380] inception_4a/output_inception_4a/output_0_split <- inception_4a/output
I1216 01:51:37.474112 25625 net.cpp:338] inception_4a/output_inception_4a/output_0_split -> inception_4a/output_inception_4a/output_0_split_0
I1216 01:51:37.474119 25625 net.cpp:338] inception_4a/output_inception_4a/output_0_split -> inception_4a/output_inception_4a/output_0_split_1
I1216 01:51:37.474128 25625 net.cpp:338] inception_4a/output_inception_4a/output_0_split -> inception_4a/output_inception_4a/output_0_split_2
I1216 01:51:37.474134 25625 net.cpp:338] inception_4a/output_inception_4a/output_0_split -> inception_4a/output_inception_4a/output_0_split_3
I1216 01:51:37.474141 25625 net.cpp:338] inception_4a/output_inception_4a/output_0_split -> inception_4a/output_inception_4a/output_0_split_4
I1216 01:51:37.474148 25625 net.cpp:113] Setting up inception_4a/output_inception_4a/output_0_split
I1216 01:51:37.474158 25625 net.cpp:120] Top shape: 32 512 14 14 (3211264)
I1216 01:51:37.474164 25625 net.cpp:120] Top shape: 32 512 14 14 (3211264)
I1216 01:51:37.474169 25625 net.cpp:120] Top shape: 32 512 14 14 (3211264)
I1216 01:51:37.474174 25625 net.cpp:120] Top shape: 32 512 14 14 (3211264)
I1216 01:51:37.474179 25625 net.cpp:120] Top shape: 32 512 14 14 (3211264)
I1216 01:51:37.474184 25625 layer_factory.hpp:74] Creating layer loss1/ave_pool
I1216 01:51:37.474191 25625 net.cpp:84] Creating Layer loss1/ave_pool
I1216 01:51:37.474196 25625 net.cpp:380] loss1/ave_pool <- inception_4a/output_inception_4a/output_0_split_0
I1216 01:51:37.474203 25625 net.cpp:338] loss1/ave_pool -> loss1/ave_pool
I1216 01:51:37.474210 25625 net.cpp:113] Setting up loss1/ave_pool
I1216 01:51:37.474280 25625 net.cpp:120] Top shape: 32 512 4 4 (262144)
I1216 01:51:37.474287 25625 layer_factory.hpp:74] Creating layer loss1/conv
I1216 01:51:37.474297 25625 net.cpp:84] Creating Layer loss1/conv
I1216 01:51:37.474303 25625 net.cpp:380] loss1/conv <- loss1/ave_pool
I1216 01:51:37.474309 25625 net.cpp:338] loss1/conv -> loss1/conv
I1216 01:51:37.474318 25625 net.cpp:113] Setting up loss1/conv
I1216 01:51:37.475479 25625 net.cpp:120] Top shape: 32 128 4 4 (65536)
I1216 01:51:37.475505 25625 layer_factory.hpp:74] Creating layer loss1/relu_conv
I1216 01:51:37.475513 25625 net.cpp:84] Creating Layer loss1/relu_conv
I1216 01:51:37.475519 25625 net.cpp:380] loss1/relu_conv <- loss1/conv
I1216 01:51:37.475527 25625 net.cpp:327] loss1/relu_conv -> loss1/conv (in-place)
I1216 01:51:37.475534 25625 net.cpp:113] Setting up loss1/relu_conv
I1216 01:51:37.475611 25625 net.cpp:120] Top shape: 32 128 4 4 (65536)
I1216 01:51:37.475620 25625 layer_factory.hpp:74] Creating layer loss1/fc
I1216 01:51:37.475628 25625 net.cpp:84] Creating Layer loss1/fc
I1216 01:51:37.475633 25625 net.cpp:380] loss1/fc <- loss1/conv
I1216 01:51:37.475642 25625 net.cpp:338] loss1/fc -> loss1/fc
I1216 01:51:37.475653 25625 net.cpp:113] Setting up loss1/fc
I1216 01:51:37.499003 25625 net.cpp:120] Top shape: 32 1024 (32768)
I1216 01:51:37.499025 25625 layer_factory.hpp:74] Creating layer loss1/relu_fc
I1216 01:51:37.499038 25625 net.cpp:84] Creating Layer loss1/relu_fc
I1216 01:51:37.499044 25625 net.cpp:380] loss1/relu_fc <- loss1/fc
I1216 01:51:37.499053 25625 net.cpp:327] loss1/relu_fc -> loss1/fc (in-place)
I1216 01:51:37.499059 25625 net.cpp:113] Setting up loss1/relu_fc
I1216 01:51:37.499346 25625 net.cpp:120] Top shape: 32 1024 (32768)
I1216 01:51:37.499357 25625 layer_factory.hpp:74] Creating layer loss1/drop_fc
I1216 01:51:37.499375 25625 net.cpp:84] Creating Layer loss1/drop_fc
I1216 01:51:37.499382 25625 net.cpp:380] loss1/drop_fc <- loss1/fc
I1216 01:51:37.499389 25625 net.cpp:327] loss1/drop_fc -> loss1/fc (in-place)
I1216 01:51:37.499402 25625 net.cpp:113] Setting up loss1/drop_fc
I1216 01:51:37.499410 25625 net.cpp:120] Top shape: 32 1024 (32768)
I1216 01:51:37.499416 25625 layer_factory.hpp:74] Creating layer loss1/classifier_kaggle
I1216 01:51:37.499426 25625 net.cpp:84] Creating Layer loss1/classifier_kaggle
I1216 01:51:37.499430 25625 net.cpp:380] loss1/classifier_kaggle <- loss1/fc
I1216 01:51:37.499438 25625 net.cpp:338] loss1/classifier_kaggle -> loss1/classifier_kaggle
I1216 01:51:37.499445 25625 net.cpp:113] Setting up loss1/classifier_kaggle
I1216 01:51:37.504688 25625 net.cpp:120] Top shape: 32 447 (14304)
I1216 01:51:37.504701 25625 layer_factory.hpp:74] Creating layer loss1/loss
I1216 01:51:37.504711 25625 net.cpp:84] Creating Layer loss1/loss
I1216 01:51:37.504717 25625 net.cpp:380] loss1/loss <- loss1/classifier_kaggle
I1216 01:51:37.504724 25625 net.cpp:380] loss1/loss <- label_data_1_split_0
I1216 01:51:37.504730 25625 net.cpp:338] loss1/loss -> loss1/loss1
I1216 01:51:37.504739 25625 net.cpp:113] Setting up loss1/loss
I1216 01:51:37.504748 25625 layer_factory.hpp:74] Creating layer loss1/loss
I1216 01:51:37.504868 25625 net.cpp:120] Top shape: (1)
I1216 01:51:37.504875 25625 net.cpp:122]     with loss weight 0.3
I1216 01:51:37.504896 25625 layer_factory.hpp:74] Creating layer inception_4b/1x1
I1216 01:51:37.504909 25625 net.cpp:84] Creating Layer inception_4b/1x1
I1216 01:51:37.504914 25625 net.cpp:380] inception_4b/1x1 <- inception_4a/output_inception_4a/output_0_split_1
I1216 01:51:37.504922 25625 net.cpp:338] inception_4b/1x1 -> inception_4b/1x1
I1216 01:51:37.504931 25625 net.cpp:113] Setting up inception_4b/1x1
I1216 01:51:37.506290 25625 net.cpp:120] Top shape: 32 160 14 14 (1003520)
I1216 01:51:37.506307 25625 layer_factory.hpp:74] Creating layer inception_4b/relu_1x1
I1216 01:51:37.506317 25625 net.cpp:84] Creating Layer inception_4b/relu_1x1
I1216 01:51:37.506324 25625 net.cpp:380] inception_4b/relu_1x1 <- inception_4b/1x1
I1216 01:51:37.506330 25625 net.cpp:327] inception_4b/relu_1x1 -> inception_4b/1x1 (in-place)
I1216 01:51:37.506338 25625 net.cpp:113] Setting up inception_4b/relu_1x1
I1216 01:51:37.506408 25625 net.cpp:120] Top shape: 32 160 14 14 (1003520)
I1216 01:51:37.506415 25625 layer_factory.hpp:74] Creating layer inception_4b/3x3_reduce
I1216 01:51:37.506425 25625 net.cpp:84] Creating Layer inception_4b/3x3_reduce
I1216 01:51:37.506430 25625 net.cpp:380] inception_4b/3x3_reduce <- inception_4a/output_inception_4a/output_0_split_2
I1216 01:51:37.506455 25625 net.cpp:338] inception_4b/3x3_reduce -> inception_4b/3x3_reduce
I1216 01:51:37.506464 25625 net.cpp:113] Setting up inception_4b/3x3_reduce
I1216 01:51:37.507529 25625 net.cpp:120] Top shape: 32 112 14 14 (702464)
I1216 01:51:37.507546 25625 layer_factory.hpp:74] Creating layer inception_4b/relu_3x3_reduce
I1216 01:51:37.507557 25625 net.cpp:84] Creating Layer inception_4b/relu_3x3_reduce
I1216 01:51:37.507563 25625 net.cpp:380] inception_4b/relu_3x3_reduce <- inception_4b/3x3_reduce
I1216 01:51:37.507570 25625 net.cpp:327] inception_4b/relu_3x3_reduce -> inception_4b/3x3_reduce (in-place)
I1216 01:51:37.507580 25625 net.cpp:113] Setting up inception_4b/relu_3x3_reduce
I1216 01:51:37.507647 25625 net.cpp:120] Top shape: 32 112 14 14 (702464)
I1216 01:51:37.507655 25625 layer_factory.hpp:74] Creating layer inception_4b/3x3
I1216 01:51:37.507663 25625 net.cpp:84] Creating Layer inception_4b/3x3
I1216 01:51:37.507673 25625 net.cpp:380] inception_4b/3x3 <- inception_4b/3x3_reduce
I1216 01:51:37.507679 25625 net.cpp:338] inception_4b/3x3 -> inception_4b/3x3
I1216 01:51:37.507688 25625 net.cpp:113] Setting up inception_4b/3x3
I1216 01:51:37.510689 25625 net.cpp:120] Top shape: 32 224 14 14 (1404928)
I1216 01:51:37.510704 25625 layer_factory.hpp:74] Creating layer inception_4b/relu_3x3
I1216 01:51:37.510712 25625 net.cpp:84] Creating Layer inception_4b/relu_3x3
I1216 01:51:37.510718 25625 net.cpp:380] inception_4b/relu_3x3 <- inception_4b/3x3
I1216 01:51:37.510727 25625 net.cpp:327] inception_4b/relu_3x3 -> inception_4b/3x3 (in-place)
I1216 01:51:37.510735 25625 net.cpp:113] Setting up inception_4b/relu_3x3
I1216 01:51:37.510973 25625 net.cpp:120] Top shape: 32 224 14 14 (1404928)
I1216 01:51:37.510984 25625 layer_factory.hpp:74] Creating layer inception_4b/5x5_reduce
I1216 01:51:37.510994 25625 net.cpp:84] Creating Layer inception_4b/5x5_reduce
I1216 01:51:37.511000 25625 net.cpp:380] inception_4b/5x5_reduce <- inception_4a/output_inception_4a/output_0_split_3
I1216 01:51:37.511008 25625 net.cpp:338] inception_4b/5x5_reduce -> inception_4b/5x5_reduce
I1216 01:51:37.511018 25625 net.cpp:113] Setting up inception_4b/5x5_reduce
I1216 01:51:37.511574 25625 net.cpp:120] Top shape: 32 24 14 14 (150528)
I1216 01:51:37.511591 25625 layer_factory.hpp:74] Creating layer inception_4b/relu_5x5_reduce
I1216 01:51:37.511601 25625 net.cpp:84] Creating Layer inception_4b/relu_5x5_reduce
I1216 01:51:37.511607 25625 net.cpp:380] inception_4b/relu_5x5_reduce <- inception_4b/5x5_reduce
I1216 01:51:37.511615 25625 net.cpp:327] inception_4b/relu_5x5_reduce -> inception_4b/5x5_reduce (in-place)
I1216 01:51:37.511621 25625 net.cpp:113] Setting up inception_4b/relu_5x5_reduce
I1216 01:51:37.511694 25625 net.cpp:120] Top shape: 32 24 14 14 (150528)
I1216 01:51:37.511700 25625 layer_factory.hpp:74] Creating layer inception_4b/5x5
I1216 01:51:37.511710 25625 net.cpp:84] Creating Layer inception_4b/5x5
I1216 01:51:37.511715 25625 net.cpp:380] inception_4b/5x5 <- inception_4b/5x5_reduce
I1216 01:51:37.511723 25625 net.cpp:338] inception_4b/5x5 -> inception_4b/5x5
I1216 01:51:37.511730 25625 net.cpp:113] Setting up inception_4b/5x5
I1216 01:51:37.512570 25625 net.cpp:120] Top shape: 32 64 14 14 (401408)
I1216 01:51:37.512585 25625 layer_factory.hpp:74] Creating layer inception_4b/relu_5x5
I1216 01:51:37.512593 25625 net.cpp:84] Creating Layer inception_4b/relu_5x5
I1216 01:51:37.512598 25625 net.cpp:380] inception_4b/relu_5x5 <- inception_4b/5x5
I1216 01:51:37.512608 25625 net.cpp:327] inception_4b/relu_5x5 -> inception_4b/5x5 (in-place)
I1216 01:51:37.512615 25625 net.cpp:113] Setting up inception_4b/relu_5x5
I1216 01:51:37.512681 25625 net.cpp:120] Top shape: 32 64 14 14 (401408)
I1216 01:51:37.512687 25625 layer_factory.hpp:74] Creating layer inception_4b/pool
I1216 01:51:37.512694 25625 layer_factory.cpp:56] CUDNN does not support padding or multiple tops. Using Caffe's own pooling layer.
I1216 01:51:37.512702 25625 net.cpp:84] Creating Layer inception_4b/pool
I1216 01:51:37.512713 25625 net.cpp:380] inception_4b/pool <- inception_4a/output_inception_4a/output_0_split_4
I1216 01:51:37.512728 25625 net.cpp:338] inception_4b/pool -> inception_4b/pool
I1216 01:51:37.512743 25625 net.cpp:113] Setting up inception_4b/pool
I1216 01:51:37.512756 25625 net.cpp:120] Top shape: 32 512 14 14 (3211264)
I1216 01:51:37.512761 25625 layer_factory.hpp:74] Creating layer inception_4b/pool_proj
I1216 01:51:37.512770 25625 net.cpp:84] Creating Layer inception_4b/pool_proj
I1216 01:51:37.512778 25625 net.cpp:380] inception_4b/pool_proj <- inception_4b/pool
I1216 01:51:37.512784 25625 net.cpp:338] inception_4b/pool_proj -> inception_4b/pool_proj
I1216 01:51:37.512792 25625 net.cpp:113] Setting up inception_4b/pool_proj
I1216 01:51:37.513577 25625 net.cpp:120] Top shape: 32 64 14 14 (401408)
I1216 01:51:37.513594 25625 layer_factory.hpp:74] Creating layer inception_4b/relu_pool_proj
I1216 01:51:37.513603 25625 net.cpp:84] Creating Layer inception_4b/relu_pool_proj
I1216 01:51:37.513609 25625 net.cpp:380] inception_4b/relu_pool_proj <- inception_4b/pool_proj
I1216 01:51:37.513617 25625 net.cpp:327] inception_4b/relu_pool_proj -> inception_4b/pool_proj (in-place)
I1216 01:51:37.513624 25625 net.cpp:113] Setting up inception_4b/relu_pool_proj
I1216 01:51:37.513864 25625 net.cpp:120] Top shape: 32 64 14 14 (401408)
I1216 01:51:37.513877 25625 layer_factory.hpp:74] Creating layer inception_4b/output
I1216 01:51:37.513885 25625 net.cpp:84] Creating Layer inception_4b/output
I1216 01:51:37.513891 25625 net.cpp:380] inception_4b/output <- inception_4b/1x1
I1216 01:51:37.513897 25625 net.cpp:380] inception_4b/output <- inception_4b/3x3
I1216 01:51:37.513903 25625 net.cpp:380] inception_4b/output <- inception_4b/5x5
I1216 01:51:37.513908 25625 net.cpp:380] inception_4b/output <- inception_4b/pool_proj
I1216 01:51:37.513916 25625 net.cpp:338] inception_4b/output -> inception_4b/output
I1216 01:51:37.513924 25625 net.cpp:113] Setting up inception_4b/output
I1216 01:51:37.513933 25625 net.cpp:120] Top shape: 32 512 14 14 (3211264)
I1216 01:51:37.513938 25625 layer_factory.hpp:74] Creating layer inception_4b/output_inception_4b/output_0_split
I1216 01:51:37.513944 25625 net.cpp:84] Creating Layer inception_4b/output_inception_4b/output_0_split
I1216 01:51:37.513949 25625 net.cpp:380] inception_4b/output_inception_4b/output_0_split <- inception_4b/output
I1216 01:51:37.513957 25625 net.cpp:338] inception_4b/output_inception_4b/output_0_split -> inception_4b/output_inception_4b/output_0_split_0
I1216 01:51:37.513964 25625 net.cpp:338] inception_4b/output_inception_4b/output_0_split -> inception_4b/output_inception_4b/output_0_split_1
I1216 01:51:37.513972 25625 net.cpp:338] inception_4b/output_inception_4b/output_0_split -> inception_4b/output_inception_4b/output_0_split_2
I1216 01:51:37.513979 25625 net.cpp:338] inception_4b/output_inception_4b/output_0_split -> inception_4b/output_inception_4b/output_0_split_3
I1216 01:51:37.513985 25625 net.cpp:113] Setting up inception_4b/output_inception_4b/output_0_split
I1216 01:51:37.513994 25625 net.cpp:120] Top shape: 32 512 14 14 (3211264)
I1216 01:51:37.514000 25625 net.cpp:120] Top shape: 32 512 14 14 (3211264)
I1216 01:51:37.514005 25625 net.cpp:120] Top shape: 32 512 14 14 (3211264)
I1216 01:51:37.514011 25625 net.cpp:120] Top shape: 32 512 14 14 (3211264)
I1216 01:51:37.514015 25625 layer_factory.hpp:74] Creating layer inception_4c/1x1
I1216 01:51:37.514027 25625 net.cpp:84] Creating Layer inception_4c/1x1
I1216 01:51:37.514032 25625 net.cpp:380] inception_4c/1x1 <- inception_4b/output_inception_4b/output_0_split_0
I1216 01:51:37.514039 25625 net.cpp:338] inception_4c/1x1 -> inception_4c/1x1
I1216 01:51:37.514046 25625 net.cpp:113] Setting up inception_4c/1x1
I1216 01:51:37.515197 25625 net.cpp:120] Top shape: 32 128 14 14 (802816)
I1216 01:51:37.515213 25625 layer_factory.hpp:74] Creating layer inception_4c/relu_1x1
I1216 01:51:37.515221 25625 net.cpp:84] Creating Layer inception_4c/relu_1x1
I1216 01:51:37.515226 25625 net.cpp:380] inception_4c/relu_1x1 <- inception_4c/1x1
I1216 01:51:37.515241 25625 net.cpp:327] inception_4c/relu_1x1 -> inception_4c/1x1 (in-place)
I1216 01:51:37.515257 25625 net.cpp:113] Setting up inception_4c/relu_1x1
I1216 01:51:37.515326 25625 net.cpp:120] Top shape: 32 128 14 14 (802816)
I1216 01:51:37.515333 25625 layer_factory.hpp:74] Creating layer inception_4c/3x3_reduce
I1216 01:51:37.515344 25625 net.cpp:84] Creating Layer inception_4c/3x3_reduce
I1216 01:51:37.515349 25625 net.cpp:380] inception_4c/3x3_reduce <- inception_4b/output_inception_4b/output_0_split_1
I1216 01:51:37.515357 25625 net.cpp:338] inception_4c/3x3_reduce -> inception_4c/3x3_reduce
I1216 01:51:37.515365 25625 net.cpp:113] Setting up inception_4c/3x3_reduce
I1216 01:51:37.516516 25625 net.cpp:120] Top shape: 32 128 14 14 (802816)
I1216 01:51:37.516531 25625 layer_factory.hpp:74] Creating layer inception_4c/relu_3x3_reduce
I1216 01:51:37.516541 25625 net.cpp:84] Creating Layer inception_4c/relu_3x3_reduce
I1216 01:51:37.516546 25625 net.cpp:380] inception_4c/relu_3x3_reduce <- inception_4c/3x3_reduce
I1216 01:51:37.516556 25625 net.cpp:327] inception_4c/relu_3x3_reduce -> inception_4c/3x3_reduce (in-place)
I1216 01:51:37.516563 25625 net.cpp:113] Setting up inception_4c/relu_3x3_reduce
I1216 01:51:37.516631 25625 net.cpp:120] Top shape: 32 128 14 14 (802816)
I1216 01:51:37.516638 25625 layer_factory.hpp:74] Creating layer inception_4c/3x3
I1216 01:51:37.516647 25625 net.cpp:84] Creating Layer inception_4c/3x3
I1216 01:51:37.516654 25625 net.cpp:380] inception_4c/3x3 <- inception_4c/3x3_reduce
I1216 01:51:37.516660 25625 net.cpp:338] inception_4c/3x3 -> inception_4c/3x3
I1216 01:51:37.516669 25625 net.cpp:113] Setting up inception_4c/3x3
I1216 01:51:37.520450 25625 net.cpp:120] Top shape: 32 256 14 14 (1605632)
I1216 01:51:37.520479 25625 layer_factory.hpp:74] Creating layer inception_4c/relu_3x3
I1216 01:51:37.520488 25625 net.cpp:84] Creating Layer inception_4c/relu_3x3
I1216 01:51:37.520493 25625 net.cpp:380] inception_4c/relu_3x3 <- inception_4c/3x3
I1216 01:51:37.520501 25625 net.cpp:327] inception_4c/relu_3x3 -> inception_4c/3x3 (in-place)
I1216 01:51:37.520509 25625 net.cpp:113] Setting up inception_4c/relu_3x3
I1216 01:51:37.520581 25625 net.cpp:120] Top shape: 32 256 14 14 (1605632)
I1216 01:51:37.520589 25625 layer_factory.hpp:74] Creating layer inception_4c/5x5_reduce
I1216 01:51:37.520598 25625 net.cpp:84] Creating Layer inception_4c/5x5_reduce
I1216 01:51:37.520603 25625 net.cpp:380] inception_4c/5x5_reduce <- inception_4b/output_inception_4b/output_0_split_2
I1216 01:51:37.520613 25625 net.cpp:338] inception_4c/5x5_reduce -> inception_4c/5x5_reduce
I1216 01:51:37.520622 25625 net.cpp:113] Setting up inception_4c/5x5_reduce
I1216 01:51:37.521170 25625 net.cpp:120] Top shape: 32 24 14 14 (150528)
I1216 01:51:37.521186 25625 layer_factory.hpp:74] Creating layer inception_4c/relu_5x5_reduce
I1216 01:51:37.521194 25625 net.cpp:84] Creating Layer inception_4c/relu_5x5_reduce
I1216 01:51:37.521200 25625 net.cpp:380] inception_4c/relu_5x5_reduce <- inception_4c/5x5_reduce
I1216 01:51:37.521208 25625 net.cpp:327] inception_4c/relu_5x5_reduce -> inception_4c/5x5_reduce (in-place)
I1216 01:51:37.521215 25625 net.cpp:113] Setting up inception_4c/relu_5x5_reduce
I1216 01:51:37.521455 25625 net.cpp:120] Top shape: 32 24 14 14 (150528)
I1216 01:51:37.521466 25625 layer_factory.hpp:74] Creating layer inception_4c/5x5
I1216 01:51:37.521477 25625 net.cpp:84] Creating Layer inception_4c/5x5
I1216 01:51:37.521483 25625 net.cpp:380] inception_4c/5x5 <- inception_4c/5x5_reduce
I1216 01:51:37.521492 25625 net.cpp:338] inception_4c/5x5 -> inception_4c/5x5
I1216 01:51:37.521502 25625 net.cpp:113] Setting up inception_4c/5x5
I1216 01:51:37.522346 25625 net.cpp:120] Top shape: 32 64 14 14 (401408)
I1216 01:51:37.522361 25625 layer_factory.hpp:74] Creating layer inception_4c/relu_5x5
I1216 01:51:37.522369 25625 net.cpp:84] Creating Layer inception_4c/relu_5x5
I1216 01:51:37.522375 25625 net.cpp:380] inception_4c/relu_5x5 <- inception_4c/5x5
I1216 01:51:37.522382 25625 net.cpp:327] inception_4c/relu_5x5 -> inception_4c/5x5 (in-place)
I1216 01:51:37.522395 25625 net.cpp:113] Setting up inception_4c/relu_5x5
I1216 01:51:37.522474 25625 net.cpp:120] Top shape: 32 64 14 14 (401408)
I1216 01:51:37.522483 25625 layer_factory.hpp:74] Creating layer inception_4c/pool
I1216 01:51:37.522490 25625 layer_factory.cpp:56] CUDNN does not support padding or multiple tops. Using Caffe's own pooling layer.
I1216 01:51:37.522497 25625 net.cpp:84] Creating Layer inception_4c/pool
I1216 01:51:37.522502 25625 net.cpp:380] inception_4c/pool <- inception_4b/output_inception_4b/output_0_split_3
I1216 01:51:37.522511 25625 net.cpp:338] inception_4c/pool -> inception_4c/pool
I1216 01:51:37.522519 25625 net.cpp:113] Setting up inception_4c/pool
I1216 01:51:37.522528 25625 net.cpp:120] Top shape: 32 512 14 14 (3211264)
I1216 01:51:37.522533 25625 layer_factory.hpp:74] Creating layer inception_4c/pool_proj
I1216 01:51:37.522541 25625 net.cpp:84] Creating Layer inception_4c/pool_proj
I1216 01:51:37.522547 25625 net.cpp:380] inception_4c/pool_proj <- inception_4c/pool
I1216 01:51:37.522555 25625 net.cpp:338] inception_4c/pool_proj -> inception_4c/pool_proj
I1216 01:51:37.522563 25625 net.cpp:113] Setting up inception_4c/pool_proj
I1216 01:51:37.523341 25625 net.cpp:120] Top shape: 32 64 14 14 (401408)
I1216 01:51:37.523356 25625 layer_factory.hpp:74] Creating layer inception_4c/relu_pool_proj
I1216 01:51:37.523365 25625 net.cpp:84] Creating Layer inception_4c/relu_pool_proj
I1216 01:51:37.523370 25625 net.cpp:380] inception_4c/relu_pool_proj <- inception_4c/pool_proj
I1216 01:51:37.523380 25625 net.cpp:327] inception_4c/relu_pool_proj -> inception_4c/pool_proj (in-place)
I1216 01:51:37.523387 25625 net.cpp:113] Setting up inception_4c/relu_pool_proj
I1216 01:51:37.523458 25625 net.cpp:120] Top shape: 32 64 14 14 (401408)
I1216 01:51:37.523464 25625 layer_factory.hpp:74] Creating layer inception_4c/output
I1216 01:51:37.523473 25625 net.cpp:84] Creating Layer inception_4c/output
I1216 01:51:37.523478 25625 net.cpp:380] inception_4c/output <- inception_4c/1x1
I1216 01:51:37.523484 25625 net.cpp:380] inception_4c/output <- inception_4c/3x3
I1216 01:51:37.523489 25625 net.cpp:380] inception_4c/output <- inception_4c/5x5
I1216 01:51:37.523495 25625 net.cpp:380] inception_4c/output <- inception_4c/pool_proj
I1216 01:51:37.523501 25625 net.cpp:338] inception_4c/output -> inception_4c/output
I1216 01:51:37.523509 25625 net.cpp:113] Setting up inception_4c/output
I1216 01:51:37.523516 25625 net.cpp:120] Top shape: 32 512 14 14 (3211264)
I1216 01:51:37.523521 25625 layer_factory.hpp:74] Creating layer inception_4c/output_inception_4c/output_0_split
I1216 01:51:37.523530 25625 net.cpp:84] Creating Layer inception_4c/output_inception_4c/output_0_split
I1216 01:51:37.523535 25625 net.cpp:380] inception_4c/output_inception_4c/output_0_split <- inception_4c/output
I1216 01:51:37.523542 25625 net.cpp:338] inception_4c/output_inception_4c/output_0_split -> inception_4c/output_inception_4c/output_0_split_0
I1216 01:51:37.523550 25625 net.cpp:338] inception_4c/output_inception_4c/output_0_split -> inception_4c/output_inception_4c/output_0_split_1
I1216 01:51:37.523557 25625 net.cpp:338] inception_4c/output_inception_4c/output_0_split -> inception_4c/output_inception_4c/output_0_split_2
I1216 01:51:37.523566 25625 net.cpp:338] inception_4c/output_inception_4c/output_0_split -> inception_4c/output_inception_4c/output_0_split_3
I1216 01:51:37.523573 25625 net.cpp:113] Setting up inception_4c/output_inception_4c/output_0_split
I1216 01:51:37.523581 25625 net.cpp:120] Top shape: 32 512 14 14 (3211264)
I1216 01:51:37.523586 25625 net.cpp:120] Top shape: 32 512 14 14 (3211264)
I1216 01:51:37.523591 25625 net.cpp:120] Top shape: 32 512 14 14 (3211264)
I1216 01:51:37.523597 25625 net.cpp:120] Top shape: 32 512 14 14 (3211264)
I1216 01:51:37.523602 25625 layer_factory.hpp:74] Creating layer inception_4d/1x1
I1216 01:51:37.523609 25625 net.cpp:84] Creating Layer inception_4d/1x1
I1216 01:51:37.523614 25625 net.cpp:380] inception_4d/1x1 <- inception_4c/output_inception_4c/output_0_split_0
I1216 01:51:37.523628 25625 net.cpp:338] inception_4d/1x1 -> inception_4d/1x1
I1216 01:51:37.523643 25625 net.cpp:113] Setting up inception_4d/1x1
I1216 01:51:37.524703 25625 net.cpp:120] Top shape: 32 112 14 14 (702464)
I1216 01:51:37.524718 25625 layer_factory.hpp:74] Creating layer inception_4d/relu_1x1
I1216 01:51:37.524725 25625 net.cpp:84] Creating Layer inception_4d/relu_1x1
I1216 01:51:37.524730 25625 net.cpp:380] inception_4d/relu_1x1 <- inception_4d/1x1
I1216 01:51:37.524739 25625 net.cpp:327] inception_4d/relu_1x1 -> inception_4d/1x1 (in-place)
I1216 01:51:37.524745 25625 net.cpp:113] Setting up inception_4d/relu_1x1
I1216 01:51:37.524813 25625 net.cpp:120] Top shape: 32 112 14 14 (702464)
I1216 01:51:37.524821 25625 layer_factory.hpp:74] Creating layer inception_4d/3x3_reduce
I1216 01:51:37.524830 25625 net.cpp:84] Creating Layer inception_4d/3x3_reduce
I1216 01:51:37.524835 25625 net.cpp:380] inception_4d/3x3_reduce <- inception_4c/output_inception_4c/output_0_split_1
I1216 01:51:37.524844 25625 net.cpp:338] inception_4d/3x3_reduce -> inception_4d/3x3_reduce
I1216 01:51:37.524853 25625 net.cpp:113] Setting up inception_4d/3x3_reduce
I1216 01:51:37.526113 25625 net.cpp:120] Top shape: 32 144 14 14 (903168)
I1216 01:51:37.526129 25625 layer_factory.hpp:74] Creating layer inception_4d/relu_3x3_reduce
I1216 01:51:37.526136 25625 net.cpp:84] Creating Layer inception_4d/relu_3x3_reduce
I1216 01:51:37.526142 25625 net.cpp:380] inception_4d/relu_3x3_reduce <- inception_4d/3x3_reduce
I1216 01:51:37.526149 25625 net.cpp:327] inception_4d/relu_3x3_reduce -> inception_4d/3x3_reduce (in-place)
I1216 01:51:37.526157 25625 net.cpp:113] Setting up inception_4d/relu_3x3_reduce
I1216 01:51:37.526398 25625 net.cpp:120] Top shape: 32 144 14 14 (903168)
I1216 01:51:37.526410 25625 layer_factory.hpp:74] Creating layer inception_4d/3x3
I1216 01:51:37.526422 25625 net.cpp:84] Creating Layer inception_4d/3x3
I1216 01:51:37.526427 25625 net.cpp:380] inception_4d/3x3 <- inception_4d/3x3_reduce
I1216 01:51:37.526435 25625 net.cpp:338] inception_4d/3x3 -> inception_4d/3x3
I1216 01:51:37.526444 25625 net.cpp:113] Setting up inception_4d/3x3
I1216 01:51:37.531132 25625 net.cpp:120] Top shape: 32 288 14 14 (1806336)
I1216 01:51:37.531148 25625 layer_factory.hpp:74] Creating layer inception_4d/relu_3x3
I1216 01:51:37.531158 25625 net.cpp:84] Creating Layer inception_4d/relu_3x3
I1216 01:51:37.531164 25625 net.cpp:380] inception_4d/relu_3x3 <- inception_4d/3x3
I1216 01:51:37.531172 25625 net.cpp:327] inception_4d/relu_3x3 -> inception_4d/3x3 (in-place)
I1216 01:51:37.531179 25625 net.cpp:113] Setting up inception_4d/relu_3x3
I1216 01:51:37.531247 25625 net.cpp:120] Top shape: 32 288 14 14 (1806336)
I1216 01:51:37.531256 25625 layer_factory.hpp:74] Creating layer inception_4d/5x5_reduce
I1216 01:51:37.531265 25625 net.cpp:84] Creating Layer inception_4d/5x5_reduce
I1216 01:51:37.531271 25625 net.cpp:380] inception_4d/5x5_reduce <- inception_4c/output_inception_4c/output_0_split_2
I1216 01:51:37.531280 25625 net.cpp:338] inception_4d/5x5_reduce -> inception_4d/5x5_reduce
I1216 01:51:37.531289 25625 net.cpp:113] Setting up inception_4d/5x5_reduce
I1216 01:51:37.531877 25625 net.cpp:120] Top shape: 32 32 14 14 (200704)
I1216 01:51:37.531893 25625 layer_factory.hpp:74] Creating layer inception_4d/relu_5x5_reduce
I1216 01:51:37.531901 25625 net.cpp:84] Creating Layer inception_4d/relu_5x5_reduce
I1216 01:51:37.531908 25625 net.cpp:380] inception_4d/relu_5x5_reduce <- inception_4d/5x5_reduce
I1216 01:51:37.531914 25625 net.cpp:327] inception_4d/relu_5x5_reduce -> inception_4d/5x5_reduce (in-place)
I1216 01:51:37.531922 25625 net.cpp:113] Setting up inception_4d/relu_5x5_reduce
I1216 01:51:37.531991 25625 net.cpp:120] Top shape: 32 32 14 14 (200704)
I1216 01:51:37.531998 25625 layer_factory.hpp:74] Creating layer inception_4d/5x5
I1216 01:51:37.532009 25625 net.cpp:84] Creating Layer inception_4d/5x5
I1216 01:51:37.532014 25625 net.cpp:380] inception_4d/5x5 <- inception_4d/5x5_reduce
I1216 01:51:37.532021 25625 net.cpp:338] inception_4d/5x5 -> inception_4d/5x5
I1216 01:51:37.532035 25625 net.cpp:113] Setting up inception_4d/5x5
I1216 01:51:37.533033 25625 net.cpp:120] Top shape: 32 64 14 14 (401408)
I1216 01:51:37.533049 25625 layer_factory.hpp:74] Creating layer inception_4d/relu_5x5
I1216 01:51:37.533066 25625 net.cpp:84] Creating Layer inception_4d/relu_5x5
I1216 01:51:37.533073 25625 net.cpp:380] inception_4d/relu_5x5 <- inception_4d/5x5
I1216 01:51:37.533082 25625 net.cpp:327] inception_4d/relu_5x5 -> inception_4d/5x5 (in-place)
I1216 01:51:37.533088 25625 net.cpp:113] Setting up inception_4d/relu_5x5
I1216 01:51:37.533159 25625 net.cpp:120] Top shape: 32 64 14 14 (401408)
I1216 01:51:37.533165 25625 layer_factory.hpp:74] Creating layer inception_4d/pool
I1216 01:51:37.533171 25625 layer_factory.cpp:56] CUDNN does not support padding or multiple tops. Using Caffe's own pooling layer.
I1216 01:51:37.533179 25625 net.cpp:84] Creating Layer inception_4d/pool
I1216 01:51:37.533185 25625 net.cpp:380] inception_4d/pool <- inception_4c/output_inception_4c/output_0_split_3
I1216 01:51:37.533193 25625 net.cpp:338] inception_4d/pool -> inception_4d/pool
I1216 01:51:37.533201 25625 net.cpp:113] Setting up inception_4d/pool
I1216 01:51:37.533210 25625 net.cpp:120] Top shape: 32 512 14 14 (3211264)
I1216 01:51:37.533215 25625 layer_factory.hpp:74] Creating layer inception_4d/pool_proj
I1216 01:51:37.533223 25625 net.cpp:84] Creating Layer inception_4d/pool_proj
I1216 01:51:37.533228 25625 net.cpp:380] inception_4d/pool_proj <- inception_4d/pool
I1216 01:51:37.533237 25625 net.cpp:338] inception_4d/pool_proj -> inception_4d/pool_proj
I1216 01:51:37.533246 25625 net.cpp:113] Setting up inception_4d/pool_proj
I1216 01:51:37.534023 25625 net.cpp:120] Top shape: 32 64 14 14 (401408)
I1216 01:51:37.534037 25625 layer_factory.hpp:74] Creating layer inception_4d/relu_pool_proj
I1216 01:51:37.534046 25625 net.cpp:84] Creating Layer inception_4d/relu_pool_proj
I1216 01:51:37.534052 25625 net.cpp:380] inception_4d/relu_pool_proj <- inception_4d/pool_proj
I1216 01:51:37.534060 25625 net.cpp:327] inception_4d/relu_pool_proj -> inception_4d/pool_proj (in-place)
I1216 01:51:37.534067 25625 net.cpp:113] Setting up inception_4d/relu_pool_proj
I1216 01:51:37.534304 25625 net.cpp:120] Top shape: 32 64 14 14 (401408)
I1216 01:51:37.534315 25625 layer_factory.hpp:74] Creating layer inception_4d/output
I1216 01:51:37.534324 25625 net.cpp:84] Creating Layer inception_4d/output
I1216 01:51:37.534330 25625 net.cpp:380] inception_4d/output <- inception_4d/1x1
I1216 01:51:37.534337 25625 net.cpp:380] inception_4d/output <- inception_4d/3x3
I1216 01:51:37.534343 25625 net.cpp:380] inception_4d/output <- inception_4d/5x5
I1216 01:51:37.534348 25625 net.cpp:380] inception_4d/output <- inception_4d/pool_proj
I1216 01:51:37.534356 25625 net.cpp:338] inception_4d/output -> inception_4d/output
I1216 01:51:37.534364 25625 net.cpp:113] Setting up inception_4d/output
I1216 01:51:37.534373 25625 net.cpp:120] Top shape: 32 528 14 14 (3311616)
I1216 01:51:37.534378 25625 layer_factory.hpp:74] Creating layer inception_4d/output_inception_4d/output_0_split
I1216 01:51:37.534384 25625 net.cpp:84] Creating Layer inception_4d/output_inception_4d/output_0_split
I1216 01:51:37.534389 25625 net.cpp:380] inception_4d/output_inception_4d/output_0_split <- inception_4d/output
I1216 01:51:37.534397 25625 net.cpp:338] inception_4d/output_inception_4d/output_0_split -> inception_4d/output_inception_4d/output_0_split_0
I1216 01:51:37.534405 25625 net.cpp:338] inception_4d/output_inception_4d/output_0_split -> inception_4d/output_inception_4d/output_0_split_1
I1216 01:51:37.534414 25625 net.cpp:338] inception_4d/output_inception_4d/output_0_split -> inception_4d/output_inception_4d/output_0_split_2
I1216 01:51:37.534420 25625 net.cpp:338] inception_4d/output_inception_4d/output_0_split -> inception_4d/output_inception_4d/output_0_split_3
I1216 01:51:37.534427 25625 net.cpp:338] inception_4d/output_inception_4d/output_0_split -> inception_4d/output_inception_4d/output_0_split_4
I1216 01:51:37.534435 25625 net.cpp:113] Setting up inception_4d/output_inception_4d/output_0_split
I1216 01:51:37.534453 25625 net.cpp:120] Top shape: 32 528 14 14 (3311616)
I1216 01:51:37.534459 25625 net.cpp:120] Top shape: 32 528 14 14 (3311616)
I1216 01:51:37.534466 25625 net.cpp:120] Top shape: 32 528 14 14 (3311616)
I1216 01:51:37.534471 25625 net.cpp:120] Top shape: 32 528 14 14 (3311616)
I1216 01:51:37.534476 25625 net.cpp:120] Top shape: 32 528 14 14 (3311616)
I1216 01:51:37.534481 25625 layer_factory.hpp:74] Creating layer loss2/ave_pool
I1216 01:51:37.534489 25625 net.cpp:84] Creating Layer loss2/ave_pool
I1216 01:51:37.534494 25625 net.cpp:380] loss2/ave_pool <- inception_4d/output_inception_4d/output_0_split_0
I1216 01:51:37.534502 25625 net.cpp:338] loss2/ave_pool -> loss2/ave_pool
I1216 01:51:37.534508 25625 net.cpp:113] Setting up loss2/ave_pool
I1216 01:51:37.534584 25625 net.cpp:120] Top shape: 32 528 4 4 (270336)
I1216 01:51:37.534591 25625 layer_factory.hpp:74] Creating layer loss2/conv
I1216 01:51:37.534601 25625 net.cpp:84] Creating Layer loss2/conv
I1216 01:51:37.534606 25625 net.cpp:380] loss2/conv <- loss2/ave_pool
I1216 01:51:37.534615 25625 net.cpp:338] loss2/conv -> loss2/conv
I1216 01:51:37.534623 25625 net.cpp:113] Setting up loss2/conv
I1216 01:51:37.535800 25625 net.cpp:120] Top shape: 32 128 4 4 (65536)
I1216 01:51:37.535815 25625 layer_factory.hpp:74] Creating layer loss2/relu_conv
I1216 01:51:37.535825 25625 net.cpp:84] Creating Layer loss2/relu_conv
I1216 01:51:37.535831 25625 net.cpp:380] loss2/relu_conv <- loss2/conv
I1216 01:51:37.535840 25625 net.cpp:327] loss2/relu_conv -> loss2/conv (in-place)
I1216 01:51:37.535847 25625 net.cpp:113] Setting up loss2/relu_conv
I1216 01:51:37.535917 25625 net.cpp:120] Top shape: 32 128 4 4 (65536)
I1216 01:51:37.535923 25625 layer_factory.hpp:74] Creating layer loss2/fc
I1216 01:51:37.535933 25625 net.cpp:84] Creating Layer loss2/fc
I1216 01:51:37.535938 25625 net.cpp:380] loss2/fc <- loss2/conv
I1216 01:51:37.535946 25625 net.cpp:338] loss2/fc -> loss2/fc
I1216 01:51:37.535954 25625 net.cpp:113] Setting up loss2/fc
I1216 01:51:37.558846 25625 net.cpp:120] Top shape: 32 1024 (32768)
I1216 01:51:37.558861 25625 layer_factory.hpp:74] Creating layer loss2/relu_fc
I1216 01:51:37.558868 25625 net.cpp:84] Creating Layer loss2/relu_fc
I1216 01:51:37.558874 25625 net.cpp:380] loss2/relu_fc <- loss2/fc
I1216 01:51:37.558881 25625 net.cpp:327] loss2/relu_fc -> loss2/fc (in-place)
I1216 01:51:37.558887 25625 net.cpp:113] Setting up loss2/relu_fc
I1216 01:51:37.559140 25625 net.cpp:120] Top shape: 32 1024 (32768)
I1216 01:51:37.559151 25625 layer_factory.hpp:74] Creating layer loss2/drop_fc
I1216 01:51:37.559159 25625 net.cpp:84] Creating Layer loss2/drop_fc
I1216 01:51:37.559172 25625 net.cpp:380] loss2/drop_fc <- loss2/fc
I1216 01:51:37.559180 25625 net.cpp:327] loss2/drop_fc -> loss2/fc (in-place)
I1216 01:51:37.559186 25625 net.cpp:113] Setting up loss2/drop_fc
I1216 01:51:37.559195 25625 net.cpp:120] Top shape: 32 1024 (32768)
I1216 01:51:37.559200 25625 layer_factory.hpp:74] Creating layer loss2/classifier_kaggle
I1216 01:51:37.559211 25625 net.cpp:84] Creating Layer loss2/classifier_kaggle
I1216 01:51:37.559216 25625 net.cpp:380] loss2/classifier_kaggle <- loss2/fc
I1216 01:51:37.559222 25625 net.cpp:338] loss2/classifier_kaggle -> loss2/classifier_kaggle
I1216 01:51:37.559231 25625 net.cpp:113] Setting up loss2/classifier_kaggle
I1216 01:51:37.564510 25625 net.cpp:120] Top shape: 32 447 (14304)
I1216 01:51:37.564524 25625 layer_factory.hpp:74] Creating layer loss2/loss
I1216 01:51:37.564533 25625 net.cpp:84] Creating Layer loss2/loss
I1216 01:51:37.564539 25625 net.cpp:380] loss2/loss <- loss2/classifier_kaggle
I1216 01:51:37.564546 25625 net.cpp:380] loss2/loss <- label_data_1_split_1
I1216 01:51:37.564553 25625 net.cpp:338] loss2/loss -> loss2/loss1
I1216 01:51:37.564563 25625 net.cpp:113] Setting up loss2/loss
I1216 01:51:37.564569 25625 layer_factory.hpp:74] Creating layer loss2/loss
I1216 01:51:37.564682 25625 net.cpp:120] Top shape: (1)
I1216 01:51:37.564690 25625 net.cpp:122]     with loss weight 0.3
I1216 01:51:37.564707 25625 layer_factory.hpp:74] Creating layer inception_4e/1x1
I1216 01:51:37.564728 25625 net.cpp:84] Creating Layer inception_4e/1x1
I1216 01:51:37.564733 25625 net.cpp:380] inception_4e/1x1 <- inception_4d/output_inception_4d/output_0_split_1
I1216 01:51:37.564743 25625 net.cpp:338] inception_4e/1x1 -> inception_4e/1x1
I1216 01:51:37.564751 25625 net.cpp:113] Setting up inception_4e/1x1
I1216 01:51:37.566723 25625 net.cpp:120] Top shape: 32 256 14 14 (1605632)
I1216 01:51:37.566740 25625 layer_factory.hpp:74] Creating layer inception_4e/relu_1x1
I1216 01:51:37.566747 25625 net.cpp:84] Creating Layer inception_4e/relu_1x1
I1216 01:51:37.566753 25625 net.cpp:380] inception_4e/relu_1x1 <- inception_4e/1x1
I1216 01:51:37.566762 25625 net.cpp:327] inception_4e/relu_1x1 -> inception_4e/1x1 (in-place)
I1216 01:51:37.566771 25625 net.cpp:113] Setting up inception_4e/relu_1x1
I1216 01:51:37.566840 25625 net.cpp:120] Top shape: 32 256 14 14 (1605632)
I1216 01:51:37.566848 25625 layer_factory.hpp:74] Creating layer inception_4e/3x3_reduce
I1216 01:51:37.566858 25625 net.cpp:84] Creating Layer inception_4e/3x3_reduce
I1216 01:51:37.566862 25625 net.cpp:380] inception_4e/3x3_reduce <- inception_4d/output_inception_4d/output_0_split_2
I1216 01:51:37.566870 25625 net.cpp:338] inception_4e/3x3_reduce -> inception_4e/3x3_reduce
I1216 01:51:37.566879 25625 net.cpp:113] Setting up inception_4e/3x3_reduce
I1216 01:51:37.568475 25625 net.cpp:120] Top shape: 32 160 14 14 (1003520)
I1216 01:51:37.568491 25625 layer_factory.hpp:74] Creating layer inception_4e/relu_3x3_reduce
I1216 01:51:37.568501 25625 net.cpp:84] Creating Layer inception_4e/relu_3x3_reduce
I1216 01:51:37.568507 25625 net.cpp:380] inception_4e/relu_3x3_reduce <- inception_4e/3x3_reduce
I1216 01:51:37.568516 25625 net.cpp:327] inception_4e/relu_3x3_reduce -> inception_4e/3x3_reduce (in-place)
I1216 01:51:37.568524 25625 net.cpp:113] Setting up inception_4e/relu_3x3_reduce
I1216 01:51:37.568598 25625 net.cpp:120] Top shape: 32 160 14 14 (1003520)
I1216 01:51:37.568605 25625 layer_factory.hpp:74] Creating layer inception_4e/3x3
I1216 01:51:37.568614 25625 net.cpp:84] Creating Layer inception_4e/3x3
I1216 01:51:37.568619 25625 net.cpp:380] inception_4e/3x3 <- inception_4e/3x3_reduce
I1216 01:51:37.568627 25625 net.cpp:338] inception_4e/3x3 -> inception_4e/3x3
I1216 01:51:37.568635 25625 net.cpp:113] Setting up inception_4e/3x3
I1216 01:51:37.574347 25625 net.cpp:120] Top shape: 32 320 14 14 (2007040)
I1216 01:51:37.574363 25625 layer_factory.hpp:74] Creating layer inception_4e/relu_3x3
I1216 01:51:37.574372 25625 net.cpp:84] Creating Layer inception_4e/relu_3x3
I1216 01:51:37.574378 25625 net.cpp:380] inception_4e/relu_3x3 <- inception_4e/3x3
I1216 01:51:37.574386 25625 net.cpp:327] inception_4e/relu_3x3 -> inception_4e/3x3 (in-place)
I1216 01:51:37.574394 25625 net.cpp:113] Setting up inception_4e/relu_3x3
I1216 01:51:37.574636 25625 net.cpp:120] Top shape: 32 320 14 14 (2007040)
I1216 01:51:37.574647 25625 layer_factory.hpp:74] Creating layer inception_4e/5x5_reduce
I1216 01:51:37.574659 25625 net.cpp:84] Creating Layer inception_4e/5x5_reduce
I1216 01:51:37.574666 25625 net.cpp:380] inception_4e/5x5_reduce <- inception_4d/output_inception_4d/output_0_split_3
I1216 01:51:37.574674 25625 net.cpp:338] inception_4e/5x5_reduce -> inception_4e/5x5_reduce
I1216 01:51:37.574683 25625 net.cpp:113] Setting up inception_4e/5x5_reduce
I1216 01:51:37.575284 25625 net.cpp:120] Top shape: 32 32 14 14 (200704)
I1216 01:51:37.575299 25625 layer_factory.hpp:74] Creating layer inception_4e/relu_5x5_reduce
I1216 01:51:37.575306 25625 net.cpp:84] Creating Layer inception_4e/relu_5x5_reduce
I1216 01:51:37.575312 25625 net.cpp:380] inception_4e/relu_5x5_reduce <- inception_4e/5x5_reduce
I1216 01:51:37.575320 25625 net.cpp:327] inception_4e/relu_5x5_reduce -> inception_4e/5x5_reduce (in-place)
I1216 01:51:37.575327 25625 net.cpp:113] Setting up inception_4e/relu_5x5_reduce
I1216 01:51:37.575398 25625 net.cpp:120] Top shape: 32 32 14 14 (200704)
I1216 01:51:37.575412 25625 layer_factory.hpp:74] Creating layer inception_4e/5x5
I1216 01:51:37.575448 25625 net.cpp:84] Creating Layer inception_4e/5x5
I1216 01:51:37.575454 25625 net.cpp:380] inception_4e/5x5 <- inception_4e/5x5_reduce
I1216 01:51:37.575462 25625 net.cpp:338] inception_4e/5x5 -> inception_4e/5x5
I1216 01:51:37.575470 25625 net.cpp:113] Setting up inception_4e/5x5
I1216 01:51:37.577049 25625 net.cpp:120] Top shape: 32 128 14 14 (802816)
I1216 01:51:37.577072 25625 layer_factory.hpp:74] Creating layer inception_4e/relu_5x5
I1216 01:51:37.577083 25625 net.cpp:84] Creating Layer inception_4e/relu_5x5
I1216 01:51:37.577090 25625 net.cpp:380] inception_4e/relu_5x5 <- inception_4e/5x5
I1216 01:51:37.577096 25625 net.cpp:327] inception_4e/relu_5x5 -> inception_4e/5x5 (in-place)
I1216 01:51:37.577105 25625 net.cpp:113] Setting up inception_4e/relu_5x5
I1216 01:51:37.577174 25625 net.cpp:120] Top shape: 32 128 14 14 (802816)
I1216 01:51:37.577181 25625 layer_factory.hpp:74] Creating layer inception_4e/pool
I1216 01:51:37.577188 25625 layer_factory.cpp:56] CUDNN does not support padding or multiple tops. Using Caffe's own pooling layer.
I1216 01:51:37.577196 25625 net.cpp:84] Creating Layer inception_4e/pool
I1216 01:51:37.577203 25625 net.cpp:380] inception_4e/pool <- inception_4d/output_inception_4d/output_0_split_4
I1216 01:51:37.577209 25625 net.cpp:338] inception_4e/pool -> inception_4e/pool
I1216 01:51:37.577219 25625 net.cpp:113] Setting up inception_4e/pool
I1216 01:51:37.577227 25625 net.cpp:120] Top shape: 32 528 14 14 (3311616)
I1216 01:51:37.577232 25625 layer_factory.hpp:74] Creating layer inception_4e/pool_proj
I1216 01:51:37.577240 25625 net.cpp:84] Creating Layer inception_4e/pool_proj
I1216 01:51:37.577245 25625 net.cpp:380] inception_4e/pool_proj <- inception_4e/pool
I1216 01:51:37.577255 25625 net.cpp:338] inception_4e/pool_proj -> inception_4e/pool_proj
I1216 01:51:37.577262 25625 net.cpp:113] Setting up inception_4e/pool_proj
I1216 01:51:37.578444 25625 net.cpp:120] Top shape: 32 128 14 14 (802816)
I1216 01:51:37.578459 25625 layer_factory.hpp:74] Creating layer inception_4e/relu_pool_proj
I1216 01:51:37.578469 25625 net.cpp:84] Creating Layer inception_4e/relu_pool_proj
I1216 01:51:37.578475 25625 net.cpp:380] inception_4e/relu_pool_proj <- inception_4e/pool_proj
I1216 01:51:37.578482 25625 net.cpp:327] inception_4e/relu_pool_proj -> inception_4e/pool_proj (in-place)
I1216 01:51:37.578490 25625 net.cpp:113] Setting up inception_4e/relu_pool_proj
I1216 01:51:37.578558 25625 net.cpp:120] Top shape: 32 128 14 14 (802816)
I1216 01:51:37.578565 25625 layer_factory.hpp:74] Creating layer inception_4e/output
I1216 01:51:37.578573 25625 net.cpp:84] Creating Layer inception_4e/output
I1216 01:51:37.578578 25625 net.cpp:380] inception_4e/output <- inception_4e/1x1
I1216 01:51:37.578584 25625 net.cpp:380] inception_4e/output <- inception_4e/3x3
I1216 01:51:37.578589 25625 net.cpp:380] inception_4e/output <- inception_4e/5x5
I1216 01:51:37.578595 25625 net.cpp:380] inception_4e/output <- inception_4e/pool_proj
I1216 01:51:37.578603 25625 net.cpp:338] inception_4e/output -> inception_4e/output
I1216 01:51:37.578609 25625 net.cpp:113] Setting up inception_4e/output
I1216 01:51:37.578618 25625 net.cpp:120] Top shape: 32 832 14 14 (5218304)
I1216 01:51:37.578622 25625 layer_factory.hpp:74] Creating layer pool4/3x3_s2
I1216 01:51:37.578631 25625 net.cpp:84] Creating Layer pool4/3x3_s2
I1216 01:51:37.578636 25625 net.cpp:380] pool4/3x3_s2 <- inception_4e/output
I1216 01:51:37.578644 25625 net.cpp:338] pool4/3x3_s2 -> pool4/3x3_s2
I1216 01:51:37.578650 25625 net.cpp:113] Setting up pool4/3x3_s2
I1216 01:51:37.578897 25625 net.cpp:120] Top shape: 32 832 7 7 (1304576)
I1216 01:51:37.578910 25625 layer_factory.hpp:74] Creating layer pool4/3x3_s2_pool4/3x3_s2_0_split
I1216 01:51:37.578918 25625 net.cpp:84] Creating Layer pool4/3x3_s2_pool4/3x3_s2_0_split
I1216 01:51:37.578924 25625 net.cpp:380] pool4/3x3_s2_pool4/3x3_s2_0_split <- pool4/3x3_s2
I1216 01:51:37.578933 25625 net.cpp:338] pool4/3x3_s2_pool4/3x3_s2_0_split -> pool4/3x3_s2_pool4/3x3_s2_0_split_0
I1216 01:51:37.578954 25625 net.cpp:338] pool4/3x3_s2_pool4/3x3_s2_0_split -> pool4/3x3_s2_pool4/3x3_s2_0_split_1
I1216 01:51:37.578969 25625 net.cpp:338] pool4/3x3_s2_pool4/3x3_s2_0_split -> pool4/3x3_s2_pool4/3x3_s2_0_split_2
I1216 01:51:37.578976 25625 net.cpp:338] pool4/3x3_s2_pool4/3x3_s2_0_split -> pool4/3x3_s2_pool4/3x3_s2_0_split_3
I1216 01:51:37.578982 25625 net.cpp:113] Setting up pool4/3x3_s2_pool4/3x3_s2_0_split
I1216 01:51:37.578990 25625 net.cpp:120] Top shape: 32 832 7 7 (1304576)
I1216 01:51:37.578996 25625 net.cpp:120] Top shape: 32 832 7 7 (1304576)
I1216 01:51:37.579001 25625 net.cpp:120] Top shape: 32 832 7 7 (1304576)
I1216 01:51:37.579007 25625 net.cpp:120] Top shape: 32 832 7 7 (1304576)
I1216 01:51:37.579012 25625 layer_factory.hpp:74] Creating layer inception_5a/1x1
I1216 01:51:37.579025 25625 net.cpp:84] Creating Layer inception_5a/1x1
I1216 01:51:37.579030 25625 net.cpp:380] inception_5a/1x1 <- pool4/3x3_s2_pool4/3x3_s2_0_split_0
I1216 01:51:37.579038 25625 net.cpp:338] inception_5a/1x1 -> inception_5a/1x1
I1216 01:51:37.579046 25625 net.cpp:113] Setting up inception_5a/1x1
I1216 01:51:37.582020 25625 net.cpp:120] Top shape: 32 256 7 7 (401408)
I1216 01:51:37.582057 25625 layer_factory.hpp:74] Creating layer inception_5a/relu_1x1
I1216 01:51:37.582068 25625 net.cpp:84] Creating Layer inception_5a/relu_1x1
I1216 01:51:37.582075 25625 net.cpp:380] inception_5a/relu_1x1 <- inception_5a/1x1
I1216 01:51:37.582087 25625 net.cpp:327] inception_5a/relu_1x1 -> inception_5a/1x1 (in-place)
I1216 01:51:37.582095 25625 net.cpp:113] Setting up inception_5a/relu_1x1
I1216 01:51:37.582167 25625 net.cpp:120] Top shape: 32 256 7 7 (401408)
I1216 01:51:37.582175 25625 layer_factory.hpp:74] Creating layer inception_5a/3x3_reduce
I1216 01:51:37.582185 25625 net.cpp:84] Creating Layer inception_5a/3x3_reduce
I1216 01:51:37.582192 25625 net.cpp:380] inception_5a/3x3_reduce <- pool4/3x3_s2_pool4/3x3_s2_0_split_1
I1216 01:51:37.582201 25625 net.cpp:338] inception_5a/3x3_reduce -> inception_5a/3x3_reduce
I1216 01:51:37.582211 25625 net.cpp:113] Setting up inception_5a/3x3_reduce
I1216 01:51:37.584156 25625 net.cpp:120] Top shape: 32 160 7 7 (250880)
I1216 01:51:37.584172 25625 layer_factory.hpp:74] Creating layer inception_5a/relu_3x3_reduce
I1216 01:51:37.584178 25625 net.cpp:84] Creating Layer inception_5a/relu_3x3_reduce
I1216 01:51:37.584184 25625 net.cpp:380] inception_5a/relu_3x3_reduce <- inception_5a/3x3_reduce
I1216 01:51:37.584193 25625 net.cpp:327] inception_5a/relu_3x3_reduce -> inception_5a/3x3_reduce (in-place)
I1216 01:51:37.584203 25625 net.cpp:113] Setting up inception_5a/relu_3x3_reduce
I1216 01:51:37.584274 25625 net.cpp:120] Top shape: 32 160 7 7 (250880)
I1216 01:51:37.584280 25625 layer_factory.hpp:74] Creating layer inception_5a/3x3
I1216 01:51:37.584290 25625 net.cpp:84] Creating Layer inception_5a/3x3
I1216 01:51:37.584295 25625 net.cpp:380] inception_5a/3x3 <- inception_5a/3x3_reduce
I1216 01:51:37.584305 25625 net.cpp:338] inception_5a/3x3 -> inception_5a/3x3
I1216 01:51:37.584313 25625 net.cpp:113] Setting up inception_5a/3x3
I1216 01:51:37.593112 25625 net.cpp:120] Top shape: 32 320 7 7 (501760)
I1216 01:51:37.593137 25625 layer_factory.hpp:74] Creating layer inception_5a/relu_3x3
I1216 01:51:37.593147 25625 net.cpp:84] Creating Layer inception_5a/relu_3x3
I1216 01:51:37.593154 25625 net.cpp:380] inception_5a/relu_3x3 <- inception_5a/3x3
I1216 01:51:37.593163 25625 net.cpp:327] inception_5a/relu_3x3 -> inception_5a/3x3 (in-place)
I1216 01:51:37.593173 25625 net.cpp:113] Setting up inception_5a/relu_3x3
I1216 01:51:37.593250 25625 net.cpp:120] Top shape: 32 320 7 7 (501760)
I1216 01:51:37.593256 25625 layer_factory.hpp:74] Creating layer inception_5a/5x5_reduce
I1216 01:51:37.593266 25625 net.cpp:84] Creating Layer inception_5a/5x5_reduce
I1216 01:51:37.593271 25625 net.cpp:380] inception_5a/5x5_reduce <- pool4/3x3_s2_pool4/3x3_s2_0_split_2
I1216 01:51:37.593281 25625 net.cpp:338] inception_5a/5x5_reduce -> inception_5a/5x5_reduce
I1216 01:51:37.593291 25625 net.cpp:113] Setting up inception_5a/5x5_reduce
I1216 01:51:37.594153 25625 net.cpp:120] Top shape: 32 32 7 7 (50176)
I1216 01:51:37.594171 25625 layer_factory.hpp:74] Creating layer inception_5a/relu_5x5_reduce
I1216 01:51:37.594182 25625 net.cpp:84] Creating Layer inception_5a/relu_5x5_reduce
I1216 01:51:37.594189 25625 net.cpp:380] inception_5a/relu_5x5_reduce <- inception_5a/5x5_reduce
I1216 01:51:37.594197 25625 net.cpp:327] inception_5a/relu_5x5_reduce -> inception_5a/5x5_reduce (in-place)
I1216 01:51:37.594205 25625 net.cpp:113] Setting up inception_5a/relu_5x5_reduce
I1216 01:51:37.594449 25625 net.cpp:120] Top shape: 32 32 7 7 (50176)
I1216 01:51:37.594460 25625 layer_factory.hpp:74] Creating layer inception_5a/5x5
I1216 01:51:37.594471 25625 net.cpp:84] Creating Layer inception_5a/5x5
I1216 01:51:37.594477 25625 net.cpp:380] inception_5a/5x5 <- inception_5a/5x5_reduce
I1216 01:51:37.594485 25625 net.cpp:338] inception_5a/5x5 -> inception_5a/5x5
I1216 01:51:37.594494 25625 net.cpp:113] Setting up inception_5a/5x5
I1216 01:51:37.596112 25625 net.cpp:120] Top shape: 32 128 7 7 (200704)
I1216 01:51:37.596128 25625 layer_factory.hpp:74] Creating layer inception_5a/relu_5x5
I1216 01:51:37.596137 25625 net.cpp:84] Creating Layer inception_5a/relu_5x5
I1216 01:51:37.596143 25625 net.cpp:380] inception_5a/relu_5x5 <- inception_5a/5x5
I1216 01:51:37.596149 25625 net.cpp:327] inception_5a/relu_5x5 -> inception_5a/5x5 (in-place)
I1216 01:51:37.596158 25625 net.cpp:113] Setting up inception_5a/relu_5x5
I1216 01:51:37.596230 25625 net.cpp:120] Top shape: 32 128 7 7 (200704)
I1216 01:51:37.596238 25625 layer_factory.hpp:74] Creating layer inception_5a/pool
I1216 01:51:37.596245 25625 layer_factory.cpp:56] CUDNN does not support padding or multiple tops. Using Caffe's own pooling layer.
I1216 01:51:37.596253 25625 net.cpp:84] Creating Layer inception_5a/pool
I1216 01:51:37.596259 25625 net.cpp:380] inception_5a/pool <- pool4/3x3_s2_pool4/3x3_s2_0_split_3
I1216 01:51:37.596266 25625 net.cpp:338] inception_5a/pool -> inception_5a/pool
I1216 01:51:37.596274 25625 net.cpp:113] Setting up inception_5a/pool
I1216 01:51:37.596284 25625 net.cpp:120] Top shape: 32 832 7 7 (1304576)
I1216 01:51:37.596289 25625 layer_factory.hpp:74] Creating layer inception_5a/pool_proj
I1216 01:51:37.596307 25625 net.cpp:84] Creating Layer inception_5a/pool_proj
I1216 01:51:37.596313 25625 net.cpp:380] inception_5a/pool_proj <- inception_5a/pool
I1216 01:51:37.596321 25625 net.cpp:338] inception_5a/pool_proj -> inception_5a/pool_proj
I1216 01:51:37.596329 25625 net.cpp:113] Setting up inception_5a/pool_proj
I1216 01:51:37.597971 25625 net.cpp:120] Top shape: 32 128 7 7 (200704)
I1216 01:51:37.597988 25625 layer_factory.hpp:74] Creating layer inception_5a/relu_pool_proj
I1216 01:51:37.597996 25625 net.cpp:84] Creating Layer inception_5a/relu_pool_proj
I1216 01:51:37.598002 25625 net.cpp:380] inception_5a/relu_pool_proj <- inception_5a/pool_proj
I1216 01:51:37.598009 25625 net.cpp:327] inception_5a/relu_pool_proj -> inception_5a/pool_proj (in-place)
I1216 01:51:37.598017 25625 net.cpp:113] Setting up inception_5a/relu_pool_proj
I1216 01:51:37.598088 25625 net.cpp:120] Top shape: 32 128 7 7 (200704)
I1216 01:51:37.598094 25625 layer_factory.hpp:74] Creating layer inception_5a/output
I1216 01:51:37.598103 25625 net.cpp:84] Creating Layer inception_5a/output
I1216 01:51:37.598108 25625 net.cpp:380] inception_5a/output <- inception_5a/1x1
I1216 01:51:37.598114 25625 net.cpp:380] inception_5a/output <- inception_5a/3x3
I1216 01:51:37.598119 25625 net.cpp:380] inception_5a/output <- inception_5a/5x5
I1216 01:51:37.598124 25625 net.cpp:380] inception_5a/output <- inception_5a/pool_proj
I1216 01:51:37.598131 25625 net.cpp:338] inception_5a/output -> inception_5a/output
I1216 01:51:37.598140 25625 net.cpp:113] Setting up inception_5a/output
I1216 01:51:37.598147 25625 net.cpp:120] Top shape: 32 832 7 7 (1304576)
I1216 01:51:37.598153 25625 layer_factory.hpp:74] Creating layer inception_5a/output_inception_5a/output_0_split
I1216 01:51:37.598162 25625 net.cpp:84] Creating Layer inception_5a/output_inception_5a/output_0_split
I1216 01:51:37.598181 25625 net.cpp:380] inception_5a/output_inception_5a/output_0_split <- inception_5a/output
I1216 01:51:37.598187 25625 net.cpp:338] inception_5a/output_inception_5a/output_0_split -> inception_5a/output_inception_5a/output_0_split_0
I1216 01:51:37.598196 25625 net.cpp:338] inception_5a/output_inception_5a/output_0_split -> inception_5a/output_inception_5a/output_0_split_1
I1216 01:51:37.598206 25625 net.cpp:338] inception_5a/output_inception_5a/output_0_split -> inception_5a/output_inception_5a/output_0_split_2
I1216 01:51:37.598213 25625 net.cpp:338] inception_5a/output_inception_5a/output_0_split -> inception_5a/output_inception_5a/output_0_split_3
I1216 01:51:37.598219 25625 net.cpp:113] Setting up inception_5a/output_inception_5a/output_0_split
I1216 01:51:37.598227 25625 net.cpp:120] Top shape: 32 832 7 7 (1304576)
I1216 01:51:37.598233 25625 net.cpp:120] Top shape: 32 832 7 7 (1304576)
I1216 01:51:37.598238 25625 net.cpp:120] Top shape: 32 832 7 7 (1304576)
I1216 01:51:37.598243 25625 net.cpp:120] Top shape: 32 832 7 7 (1304576)
I1216 01:51:37.598248 25625 layer_factory.hpp:74] Creating layer inception_5b/1x1_kaggle
I1216 01:51:37.598258 25625 net.cpp:84] Creating Layer inception_5b/1x1_kaggle
I1216 01:51:37.598263 25625 net.cpp:380] inception_5b/1x1_kaggle <- inception_5a/output_inception_5a/output_0_split_0
I1216 01:51:37.598271 25625 net.cpp:338] inception_5b/1x1_kaggle -> inception_5b/1x1_kaggle
I1216 01:51:37.598279 25625 net.cpp:113] Setting up inception_5b/1x1_kaggle
I1216 01:51:37.602358 25625 net.cpp:120] Top shape: 32 384 7 7 (602112)
I1216 01:51:37.602376 25625 layer_factory.hpp:74] Creating layer inception_5b/relu_1x1_kaggle
I1216 01:51:37.602385 25625 net.cpp:84] Creating Layer inception_5b/relu_1x1_kaggle
I1216 01:51:37.602391 25625 net.cpp:380] inception_5b/relu_1x1_kaggle <- inception_5b/1x1_kaggle
I1216 01:51:37.602399 25625 net.cpp:327] inception_5b/relu_1x1_kaggle -> inception_5b/1x1_kaggle (in-place)
I1216 01:51:37.602408 25625 net.cpp:113] Setting up inception_5b/relu_1x1_kaggle
I1216 01:51:37.602648 25625 net.cpp:120] Top shape: 32 384 7 7 (602112)
I1216 01:51:37.602661 25625 layer_factory.hpp:74] Creating layer inception_5b/3x3_reduce_kaggle
I1216 01:51:37.602671 25625 net.cpp:84] Creating Layer inception_5b/3x3_reduce_kaggle
I1216 01:51:37.602677 25625 net.cpp:380] inception_5b/3x3_reduce_kaggle <- inception_5a/output_inception_5a/output_0_split_1
I1216 01:51:37.602685 25625 net.cpp:338] inception_5b/3x3_reduce_kaggle -> inception_5b/3x3_reduce_kaggle
I1216 01:51:37.602694 25625 net.cpp:113] Setting up inception_5b/3x3_reduce_kaggle
I1216 01:51:37.604926 25625 net.cpp:120] Top shape: 32 192 7 7 (301056)
I1216 01:51:37.604944 25625 layer_factory.hpp:74] Creating layer inception_5b/relu_3x3_reduce_kaggle
I1216 01:51:37.604954 25625 net.cpp:84] Creating Layer inception_5b/relu_3x3_reduce_kaggle
I1216 01:51:37.604959 25625 net.cpp:380] inception_5b/relu_3x3_reduce_kaggle <- inception_5b/3x3_reduce_kaggle
I1216 01:51:37.604969 25625 net.cpp:327] inception_5b/relu_3x3_reduce_kaggle -> inception_5b/3x3_reduce_kaggle (in-place)
I1216 01:51:37.604976 25625 net.cpp:113] Setting up inception_5b/relu_3x3_reduce_kaggle
I1216 01:51:37.605048 25625 net.cpp:120] Top shape: 32 192 7 7 (301056)
I1216 01:51:37.605062 25625 layer_factory.hpp:74] Creating layer inception_5b/3x3_kaggle
I1216 01:51:37.605077 25625 net.cpp:84] Creating Layer inception_5b/3x3_kaggle
I1216 01:51:37.605082 25625 net.cpp:380] inception_5b/3x3_kaggle <- inception_5b/3x3_reduce_kaggle
I1216 01:51:37.605093 25625 net.cpp:338] inception_5b/3x3_kaggle -> inception_5b/3x3_kaggle
I1216 01:51:37.605119 25625 net.cpp:113] Setting up inception_5b/3x3_kaggle
I1216 01:51:37.613168 25625 net.cpp:120] Top shape: 32 384 7 7 (602112)
I1216 01:51:37.613185 25625 layer_factory.hpp:74] Creating layer inception_5b/relu_3x3_kaggle
I1216 01:51:37.613193 25625 net.cpp:84] Creating Layer inception_5b/relu_3x3_kaggle
I1216 01:51:37.613199 25625 net.cpp:380] inception_5b/relu_3x3_kaggle <- inception_5b/3x3_kaggle
I1216 01:51:37.613214 25625 net.cpp:327] inception_5b/relu_3x3_kaggle -> inception_5b/3x3_kaggle (in-place)
I1216 01:51:37.613230 25625 net.cpp:113] Setting up inception_5b/relu_3x3_kaggle
I1216 01:51:37.613301 25625 net.cpp:120] Top shape: 32 384 7 7 (602112)
I1216 01:51:37.613308 25625 layer_factory.hpp:74] Creating layer inception_5b/5x5_reduce_kaggle
I1216 01:51:37.613320 25625 net.cpp:84] Creating Layer inception_5b/5x5_reduce_kaggle
I1216 01:51:37.613327 25625 net.cpp:380] inception_5b/5x5_reduce_kaggle <- inception_5a/output_inception_5a/output_0_split_2
I1216 01:51:37.613335 25625 net.cpp:338] inception_5b/5x5_reduce_kaggle -> inception_5b/5x5_reduce_kaggle
I1216 01:51:37.613344 25625 net.cpp:113] Setting up inception_5b/5x5_reduce_kaggle
I1216 01:51:37.614212 25625 net.cpp:120] Top shape: 32 48 7 7 (75264)
I1216 01:51:37.614228 25625 layer_factory.hpp:74] Creating layer inception_5b/relu_5x5_reduce_kaggle
I1216 01:51:37.614235 25625 net.cpp:84] Creating Layer inception_5b/relu_5x5_reduce_kaggle
I1216 01:51:37.614241 25625 net.cpp:380] inception_5b/relu_5x5_reduce_kaggle <- inception_5b/5x5_reduce_kaggle
I1216 01:51:37.614248 25625 net.cpp:327] inception_5b/relu_5x5_reduce_kaggle -> inception_5b/5x5_reduce_kaggle (in-place)
I1216 01:51:37.614256 25625 net.cpp:113] Setting up inception_5b/relu_5x5_reduce_kaggle
I1216 01:51:37.614328 25625 net.cpp:120] Top shape: 32 48 7 7 (75264)
I1216 01:51:37.614334 25625 layer_factory.hpp:74] Creating layer inception_5b/5x5_kaggle
I1216 01:51:37.614342 25625 net.cpp:84] Creating Layer inception_5b/5x5_kaggle
I1216 01:51:37.614348 25625 net.cpp:380] inception_5b/5x5_kaggle <- inception_5b/5x5_reduce_kaggle
I1216 01:51:37.614357 25625 net.cpp:338] inception_5b/5x5_kaggle -> inception_5b/5x5_kaggle
I1216 01:51:37.614365 25625 net.cpp:113] Setting up inception_5b/5x5_kaggle
I1216 01:51:37.616533 25625 net.cpp:120] Top shape: 32 128 7 7 (200704)
I1216 01:51:37.616549 25625 layer_factory.hpp:74] Creating layer inception_5b/relu_5x5_kaggle
I1216 01:51:37.616555 25625 net.cpp:84] Creating Layer inception_5b/relu_5x5_kaggle
I1216 01:51:37.616562 25625 net.cpp:380] inception_5b/relu_5x5_kaggle <- inception_5b/5x5_kaggle
I1216 01:51:37.616569 25625 net.cpp:327] inception_5b/relu_5x5_kaggle -> inception_5b/5x5_kaggle (in-place)
I1216 01:51:37.616576 25625 net.cpp:113] Setting up inception_5b/relu_5x5_kaggle
I1216 01:51:37.616823 25625 net.cpp:120] Top shape: 32 128 7 7 (200704)
I1216 01:51:37.616835 25625 layer_factory.hpp:74] Creating layer inception_5b/pool_kaggle
I1216 01:51:37.616843 25625 layer_factory.cpp:56] CUDNN does not support padding or multiple tops. Using Caffe's own pooling layer.
I1216 01:51:37.616849 25625 net.cpp:84] Creating Layer inception_5b/pool_kaggle
I1216 01:51:37.616855 25625 net.cpp:380] inception_5b/pool_kaggle <- inception_5a/output_inception_5a/output_0_split_3
I1216 01:51:37.616864 25625 net.cpp:338] inception_5b/pool_kaggle -> inception_5b/pool_kaggle
I1216 01:51:37.616873 25625 net.cpp:113] Setting up inception_5b/pool_kaggle
I1216 01:51:37.616883 25625 net.cpp:120] Top shape: 32 832 7 7 (1304576)
I1216 01:51:37.616888 25625 layer_factory.hpp:74] Creating layer inception_5b/pool_proj_kaggle
I1216 01:51:37.616896 25625 net.cpp:84] Creating Layer inception_5b/pool_proj_kaggle
I1216 01:51:37.616904 25625 net.cpp:380] inception_5b/pool_proj_kaggle <- inception_5b/pool_kaggle
I1216 01:51:37.616910 25625 net.cpp:338] inception_5b/pool_proj_kaggle -> inception_5b/pool_proj_kaggle
I1216 01:51:37.616919 25625 net.cpp:113] Setting up inception_5b/pool_proj_kaggle
I1216 01:51:37.618559 25625 net.cpp:120] Top shape: 32 128 7 7 (200704)
I1216 01:51:37.618577 25625 layer_factory.hpp:74] Creating layer inception_5b/relu_pool_proj_kaggle
I1216 01:51:37.618587 25625 net.cpp:84] Creating Layer inception_5b/relu_pool_proj_kaggle
I1216 01:51:37.618593 25625 net.cpp:380] inception_5b/relu_pool_proj_kaggle <- inception_5b/pool_proj_kaggle
I1216 01:51:37.618602 25625 net.cpp:327] inception_5b/relu_pool_proj_kaggle -> inception_5b/pool_proj_kaggle (in-place)
I1216 01:51:37.618615 25625 net.cpp:113] Setting up inception_5b/relu_pool_proj_kaggle
I1216 01:51:37.618695 25625 net.cpp:120] Top shape: 32 128 7 7 (200704)
I1216 01:51:37.618701 25625 layer_factory.hpp:74] Creating layer inception_5b/output_kaggle
I1216 01:51:37.618711 25625 net.cpp:84] Creating Layer inception_5b/output_kaggle
I1216 01:51:37.618717 25625 net.cpp:380] inception_5b/output_kaggle <- inception_5b/1x1_kaggle
I1216 01:51:37.618723 25625 net.cpp:380] inception_5b/output_kaggle <- inception_5b/3x3_kaggle
I1216 01:51:37.618729 25625 net.cpp:380] inception_5b/output_kaggle <- inception_5b/5x5_kaggle
I1216 01:51:37.618736 25625 net.cpp:380] inception_5b/output_kaggle <- inception_5b/pool_proj_kaggle
I1216 01:51:37.618741 25625 net.cpp:338] inception_5b/output_kaggle -> inception_5b/output_kaggle
I1216 01:51:37.618749 25625 net.cpp:113] Setting up inception_5b/output_kaggle
I1216 01:51:37.618757 25625 net.cpp:120] Top shape: 32 1024 7 7 (1605632)
I1216 01:51:37.618762 25625 layer_factory.hpp:74] Creating layer pool5/7x7_s1
I1216 01:51:37.618770 25625 net.cpp:84] Creating Layer pool5/7x7_s1
I1216 01:51:37.618775 25625 net.cpp:380] pool5/7x7_s1 <- inception_5b/output_kaggle
I1216 01:51:37.618782 25625 net.cpp:338] pool5/7x7_s1 -> pool5/7x7_s1
I1216 01:51:37.618790 25625 net.cpp:113] Setting up pool5/7x7_s1
I1216 01:51:37.618860 25625 net.cpp:120] Top shape: 32 1024 1 1 (32768)
I1216 01:51:37.618867 25625 layer_factory.hpp:74] Creating layer pool5/drop_7x7_s1
I1216 01:51:37.618875 25625 net.cpp:84] Creating Layer pool5/drop_7x7_s1
I1216 01:51:37.618880 25625 net.cpp:380] pool5/drop_7x7_s1 <- pool5/7x7_s1
I1216 01:51:37.618886 25625 net.cpp:327] pool5/drop_7x7_s1 -> pool5/7x7_s1 (in-place)
I1216 01:51:37.618894 25625 net.cpp:113] Setting up pool5/drop_7x7_s1
I1216 01:51:37.618902 25625 net.cpp:120] Top shape: 32 1024 1 1 (32768)
I1216 01:51:37.618907 25625 layer_factory.hpp:74] Creating layer loss3/classifier_kaggle
I1216 01:51:37.618916 25625 net.cpp:84] Creating Layer loss3/classifier_kaggle
I1216 01:51:37.618921 25625 net.cpp:380] loss3/classifier_kaggle <- pool5/7x7_s1
I1216 01:51:37.618929 25625 net.cpp:338] loss3/classifier_kaggle -> loss3/classifier_kaggle
I1216 01:51:37.618937 25625 net.cpp:113] Setting up loss3/classifier_kaggle
I1216 01:51:37.624202 25625 net.cpp:120] Top shape: 32 447 (14304)
I1216 01:51:37.624215 25625 layer_factory.hpp:74] Creating layer loss3/loss3
I1216 01:51:37.624224 25625 net.cpp:84] Creating Layer loss3/loss3
I1216 01:51:37.624230 25625 net.cpp:380] loss3/loss3 <- loss3/classifier_kaggle
I1216 01:51:37.624238 25625 net.cpp:380] loss3/loss3 <- label_data_1_split_2
I1216 01:51:37.624245 25625 net.cpp:338] loss3/loss3 -> loss3/loss3
I1216 01:51:37.624253 25625 net.cpp:113] Setting up loss3/loss3
…
I1216 01:51:37.629611 25625 net.cpp:257] The NetState phase (1) differed from the phase (0) specified by a rule in layer data
I1216 01:51:37.631141 25625 net.cpp:42] Initializing net from parameters: 
name: "GoogleNet"
state {
  phase: TEST
}
layer {
  name: "data"
  type: "Data"
  top: "data"
  top: "label"
  include {
    phase: TEST
  }
  transform_param {
    mirror: false
    crop_size: 224
    mean_value: 129
    mean_value: 129
    mean_value: 129
  }
  data_param {
    source: "/home/coldmanck/kaggle/kaggle2_val_lmdb"
    batch_size: 50
    backend: LMDB
  }
}
layer {
  name: "conv1/7x7_s2"
  type: "Convolution"
  bottom: "data"
  top: "conv1/7x7_s2"
  param {
    lr_mult: 1
    decay_mult: 1
  }
  param {
    lr_mult: 2
    decay_mult: 0
  }
  convolution_param {
    num_output: 64
    pad: 3
    kernel_size: 7
    stride: 2
    weight_filler {
      type: "xavier"
      std: 0.1
    }
    bias_filler {
      type: "constant"
      value: 0.2
    }
  }
}
layer {
  name: "conv1/relu_7x7"
  type: "ReLU"
  bottom: "conv1/7x7_s2"
  top: "conv1/7x7_s2"
}
layer {
  name: "pool1/3x3_s2"
  type: "Pooling"
  bottom: "conv1/7x7_s2"
  top: "pool1/3x3_s2"
  pooling_param {
    pool: MAX
    kernel_size: 3
    stride: 2
  }
}
layer {
  name: "pool1/norm1"
  type: "LRN"
  bottom: "pool1/3x3_s2"
  top: "pool1/norm1"
  lrn_param {
    local_size: 5
    alpha: 0.0001
    beta: 0.75
  }
}
layer {
  name: "conv2/3x3_reduce"
  type: "Convolution"
  bottom: "pool1/norm1"
  top: "conv2/3x3_reduce"
  param {
    lr_mult: 1
    decay_mult: 1
  }
  param {
    lr_mult: 2
    decay_mult: 0
  }
  convolution_param {
    num_output: 64
    kernel_size: 1
    weight_filler {
      type: "xavier"
      std: 0.1
    }
    bias_filler {
      type: "constant"
      value: 0.2
    }
  }
}
layer {
  name: "conv2/relu_3x3_reduce"
  type: "ReLU"
  bottom: "conv2/3x3_reduce"
  top: "conv2/3x3_reduce"
}
layer {
  name: "conv2/3x3"
  type: "Convolution"
  bottom: "conv2/3x3_reduce"
  top: "conv2/3x3"
  param {
    lr_mult: 1
    decay_mult: 1
  }
  param {
    lr_mult: 2
    decay_mult: 0
  }
  convolution_param {
    num_output: 192
    pad: 1
    kernel_size: 3
    weight_filler {
      type: "xavier"
      std: 0.03
    }
    bias_filler {
      type: "constant"
      value: 0.2
    }
  }
}
layer {
  name: "conv2/relu_3x3"
  type: "ReLU"
  bottom: "conv2/3x3"
  top: "conv2/3x3"
}
layer {
  name: "conv2/norm2"
  type: "LRN"
  bottom: "conv2/3x3"
  top: "conv2/norm2"
  lrn_param {
    local_size: 5
    alpha: 0.0001
    beta: 0.75
  }
}
layer {
  name: "pool2/3x3_s2"
  type: "Pooling"
  bottom: "conv2/norm2"
  top: "pool2/3x3_s2"
  pooling_param {
    pool: MAX
    kernel_size: 3
    stride: 2
  }
}
layer {
  name: "inception_3a/1x1"
  type: "Convolution"
  bottom: "pool2/3x3_s2"
  top: "inception_3a/1x1"
  param {
    lr_mult: 1
    decay_mult: 1
  }
  param {
    lr_mult: 2
    decay_mult: 0
  }
  convolution_param {
    num_output: 64
    kernel_size: 1
    weight_filler {
      type: "xavier"
      std: 0.03
    }
    bias_filler {
      type: "constant"
      value: 0.2
    }
  }
}
layer {
  name: "inception_3a/relu_1x1"
  type: "ReLU"
  bottom: "inception_3a/1x1"
  top: "inception_3a/1x1"
}
layer {
  name: "inception_3a/3x3_reduce"
  type: "Convolution"
  bottom: "pool2/3x3_s2"
  top: "inception_3a/3x3_reduce"
  param {
    lr_mult: 1
    decay_mult: 1
  }
  param {
    lr_mult: 2
    decay_mult: 0
  }
  convolution_param {
    num_output: 96
    kernel_size: 1
    weight_filler {
      type: "xavier"
      std: 0.09
    }
    bias_filler {
      type: "constant"
      value: 0.2
    }
  }
}
layer {
  name: "inception_3a/relu_3x3_reduce"
  type: "ReLU"
  bottom: "inception_3a/3x3_reduce"
  top: "inception_3a/3x3_reduce"
}
layer {
  name: "inception_3a/3x3"
  type: "Convolution"
  bottom: "inception_3a/3x3_reduce"
  top: "inception_3a/3x3"
  param {
    lr_mult: 1
    decay_mult: 1
  }
  param {
    lr_mult: 2
    decay_mult: 0
  }
  convolution_param {
    num_output: 128
    pad: 1
    kernel_size: 3
    weight_filler {
      type: "xavier"
      std: 0.03
    }
    bias_filler {
      type: "constant"
      value: 0.2
    }
  }
}
layer {
  name: "inception_3a/relu_3x3"
  type: "ReLU"
  bottom: "inception_3a/3x3"
  top: "inception_3a/3x3"
}
layer {
  name: "inception_3a/5x5_reduce"
  type: "Convolution"
  bottom: "pool2/3x3_s2"
  top: "inception_3a/5x5_reduce"
  param {
    lr_mult: 1
    decay_mult: 1
  }
  param {
    lr_mult: 2
    decay_mult: 0
  }
  convolution_param {
    num_output: 16
    kernel_size: 1
    weight_filler {
      type: "xavier"
      std: 0.2
    }
    bias_filler {
      type: "constant"
      value: 0.2
    }
  }
}
layer {
  name: "inception_3a/relu_5x5_reduce"
  type: "ReLU"
  bottom: "inception_3a/5x5_reduce"
  top: "inception_3a/5x5_reduce"
}
layer {
  name: "inception_3a/5x5"
  type: "Convolution"
  bottom: "inception_3a/5x5_reduce"
  top: "inception_3a/5x5"
  param {
    lr_mult: 1
    decay_mult: 1
  }
  param {
    lr_mult: 2
    decay_mult: 0
  }
  convolution_param {
    num_output: 32
    pad: 2
    kernel_size: 5
    weight_filler {
      type: "xavier"
      std: 0.03
    }
    bias_filler {
      type: "constant"
      value: 0.2
    }
  }
}
layer {
  name: "inception_3a/relu_5x5"
  type: "ReLU"
  bottom: "inception_3a/5x5"
  top: "inception_3a/5x5"
}
layer {
  name: "inception_3a/pool"
  type: "Pooling"
  bottom: "pool2/3x3_s2"
  top: "inception_3a/pool"
  pooling_param {
    pool: MAX
    kernel_size: 3
    stride: 1
    pad: 1
  }
}
layer {
  name: "inception_3a/pool_proj"
  type: "Convolution"
  bottom: "inception_3a/pool"
  top: "inception_3a/pool_proj"
  param {
    lr_mult: 1
    decay_mult: 1
  }
  param {
    lr_mult: 2
    decay_mult: 0
  }
  convolution_param {
    num_output: 32
    kernel_size: 1
    weight_filler {
      type: "xavier"
      std: 0.1
    }
    bias_filler {
      type: "constant"
      value: 0.2
    }
  }
}
layer {
  name: "inception_3a/relu_pool_proj"
  type: "ReLU"
  bottom: "inception_3a/pool_proj"
  top: "inception_3a/pool_proj"
}
layer {
  name: "inception_3a/output"
  type: "Concat"
  bottom: "inception_3a/1x1"
  bottom: "inception_3a/3x3"
  bottom: "inception_3a/5x5"
  bottom: "inception_3a/pool_proj"
  top: "inception_3a/output"
}
layer {
  name: "inception_3b/1x1"
  type: "Convolution"
  bottom: "inception_3a/output"
  top: "inception_3b/1x1"
  param {
    lr_mult: 1
    decay_mult: 1
  }
  param {
    lr_mult: 2
    decay_mult: 0
  }
  convolution_param {
    num_output: 128
    kernel_size: 1
    weight_filler {
      type: "xavier"
      std: 0.03
    }
    bias_filler {
      type: "constant"
      value: 0.2
    }
  }
}
layer {
  name: "inception_3b/relu_1x1"
  type: "ReLU"
  bottom: "inception_3b/1x1"
  top: "inception_3b/1x1"
}
layer {
  name: "inception_3b/3x3_reduce"
  type: "Convolution"
  bottom: "inception_3a/output"
  top: "inception_3b/3x3_reduce"
  param {
    lr_mult: 1
    decay_mult: 1
  }
  param {
    lr_mult: 2
    decay_mult: 0
  }
  convolution_param {
    num_output: 128
    kernel_size: 1
    weight_filler {
      type: "xavier"
      std: 0.09
    }
    bias_filler {
      type: "constant"
      value: 0.2
    }
  }
}
layer {
  name: "inception_3b/relu_3x3_reduce"
  type: "ReLU"
  bottom: "inception_3b/3x3_reduce"
  top: "inception_3b/3x3_reduce"
}
layer {
  name: "inception_3b/3x3"
  type: "Convolution"
  bottom: "inception_3b/3x3_reduce"
  top: "inception_3b/3x3"
  param {
    lr_mult: 1
    decay_mult: 1
  }
  param {
    lr_mult: 2
    decay_mult: 0
  }
  convolution_param {
    num_output: 192
    pad: 1
    kernel_size: 3
    weight_filler {
      type: "xavier"
      std: 0.03
    }
    bias_filler {
      type: "constant"
      value: 0.2
    }
  }
}
layer {
  name: "inception_3b/relu_3x3"
  type: "ReLU"
  bottom: "inception_3b/3x3"
  top: "inception_3b/3x3"
}
layer {
  name: "inception_3b/5x5_reduce"
  type: "Convolution"
  bottom: "inception_3a/output"
  top: "inception_3b/5x5_reduce"
  param {
    lr_mult: 1
    decay_mult: 1
  }
  param {
    lr_mult: 2
    decay_mult: 0
  }
  convolution_param {
    num_output: 32
    kernel_size: 1
    weight_filler {
      type: "xavier"
      std: 0.2
    }
    bias_filler {
      type: "constant"
      value: 0.2
    }
  }
}
layer {
  name: "inception_3b/relu_5x5_reduce"
  type: "ReLU"
  bottom: "inception_3b/5x5_reduce"
  top: "inception_3b/5x5_reduce"
}
layer {
  name: "inception_3b/5x5"
  type: "Convolution"
  bottom: "inception_3b/5x5_reduce"
  top: "inception_3b/5x5"
  param {
    lr_mult: 1
    decay_mult: 1
  }
  param {
    lr_mult: 2
    decay_mult: 0
  }
  convolution_param {
    num_output: 96
    pad: 2
    kernel_size: 5
    weight_filler {
      type: "xavier"
      std: 0.03
    }
    bias_filler {
      type: "constant"
      value: 0.2
    }
  }
}
layer {
  name: "inception_3b/relu_5x5"
  type: "ReLU"
  bottom: "inception_3b/5x5"
  top: "inception_3b/5x5"
}
layer {
  name: "inception_3b/pool"
  type: "Pooling"
  bottom: "inception_3a/output"
  top: "inception_3b/pool"
  pooling_param {
    pool: MAX
    kernel_size: 3
    stride: 1
    pad: 1
  }
}
layer {
  name: "inception_3b/pool_proj"
  type: "Convolution"
  bottom: "inception_3b/pool"
  top: "inception_3b/pool_proj"
  param {
    lr_mult: 1
    decay_mult: 1
  }
  param {
    lr_mult: 2
    decay_mult: 0
  }
  convolution_param {
    num_output: 64
    kernel_size: 1
    weight_filler {
      type: "xavier"
      std: 0.1
    }
    bias_filler {
      type: "constant"
      value: 0.2
    }
  }
}
layer {
  name: "inception_3b/relu_pool_proj"
  type: "ReLU"
  bottom: "inception_3b/pool_proj"
  top: "inception_3b/pool_proj"
}
layer {
  name: "inception_3b/output"
  type: "Concat"
  bottom: "inception_3b/1x1"
  bottom: "inception_3b/3x3"
  bottom: "inception_3b/5x5"
  bottom: "inception_3b/pool_proj"
  top: "inception_3b/output"
}
layer {
  name: "pool3/3x3_s2"
  type: "Pooling"
  bottom: "inception_3b/output"
  top: "pool3/3x3_s2"
  pooling_param {
    pool: MAX
    kernel_size: 3
    stride: 2
  }
}
layer {
  name: "inception_4a/1x1"
  type: "Convolution"
  bottom: "pool3/3x3_s2"
  top: "inception_4a/1x1"
  param {
    lr_mult: 1
    decay_mult: 1
  }
  param {
    lr_mult: 2
    decay_mult: 0
  }
  convolution_param {
    num_output: 192
    kernel_size: 1
    weight_filler {
      type: "xavier"
      std: 0.03
    }
    bias_filler {
      type: "constant"
      value: 0.2
    }
  }
}
layer {
  name: "inception_4a/relu_1x1"
  type: "ReLU"
  bottom: "inception_4a/1x1"
  top: "inception_4a/1x1"
}
layer {
  name: "inception_4a/3x3_reduce"
  type: "Convolution"
  bottom: "pool3/3x3_s2"
  top: "inception_4a/3x3_reduce"
  param {
    lr_mult: 1
    decay_mult: 1
  }
  param {
    lr_mult: 2
    decay_mult: 0
  }
  convolution_param {
    num_output: 96
    kernel_size: 1
    weight_filler {
      type: "xavier"
      std: 0.09
    }
    bias_filler {
      type: "constant"
      value: 0.2
    }
  }
}
layer {
  name: "inception_4a/relu_3x3_reduce"
  type: "ReLU"
  bottom: "inception_4a/3x3_reduce"
  top: "inception_4a/3x3_reduce"
}
layer {
  name: "inception_4a/3x3"
  type: "Convolution"
  bottom: "inception_4a/3x3_reduce"
  top: "inception_4a/3x3"
  param {
    lr_mult: 1
    decay_mult: 1
  }
  param {
    lr_mult: 2
    decay_mult: 0
  }
  convolution_param {
    num_output: 208
    pad: 1
    kernel_size: 3
    weight_filler {
      type: "xavier"
      std: 0.03
    }
    bias_filler {
      type: "constant"
      value: 0.2
    }
  }
}
layer {
  name: "inception_4a/relu_3x3"
  type: "ReLU"
  bottom: "inception_4a/3x3"
  top: "inception_4a/3x3"
}
layer {
  name: "inception_4a/5x5_reduce"
  type: "Convolution"
  bottom: "pool3/3x3_s2"
  top: "inception_4a/5x5_reduce"
  param {
    lr_mult: 1
    decay_mult: 1
  }
  param {
    lr_mult: 2
    decay_mult: 0
  }
  convolution_param {
    num_output: 16
    kernel_size: 1
    weight_filler {
      type: "xavier"
      std: 0.2
    }
    bias_filler {
      type: "constant"
      value: 0.2
    }
  }
}
layer {
  name: "inception_4a/relu_5x5_reduce"
  type: "ReLU"
  bottom: "inception_4a/5x5_reduce"
  top: "inception_4a/5x5_reduce"
}
layer {
  name: "inception_4a/5x5"
  type: "Convolution"
  bottom: "inception_4a/5x5_reduce"
  top: "inception_4a/5x5"
  param {
    lr_mult: 1
    decay_mult: 1
  }
  param {
    lr_mult: 2
    decay_mult: 0
  }
  convolution_param {
    num_output: 48
    pad: 2
    kernel_size: 5
    weight_filler {
      type: "xavier"
      std: 0.03
    }
    bias_filler {
      type: "constant"
      value: 0.2
    }
  }
}
layer {
  name: "inception_4a/relu_5x5"
  type: "ReLU"
  bottom: "inception_4a/5x5"
  top: "inception_4a/5x5"
}
layer {
  name: "inception_4a/pool"
  type: "Pooling"
  bottom: "pool3/3x3_s2"
  top: "inception_4a/pool"
  pooling_param {
    pool: MAX
    kernel_size: 3
    stride: 1
    pad: 1
  }
}
layer {
  name: "inception_4a/pool_proj"
  type: "Convolution"
  bottom: "inception_4a/pool"
  top: "inception_4a/pool_proj"
  param {
    lr_mult: 1
    decay_mult: 1
  }
  param {
    lr_mult: 2
    decay_mult: 0
  }
  convolution_param {
    num_output: 64
    kernel_size: 1
    weight_filler {
      type: "xavier"
      std: 0.1
    }
    bias_filler {
      type: "constant"
      value: 0.2
    }
  }
}
layer {
  name: "inception_4a/relu_pool_proj"
  type: "ReLU"
  bottom: "inception_4a/pool_proj"
  top: "inception_4a/pool_proj"
}
layer {
  name: "inception_4a/output"
  type: "Concat"
  bottom: "inception_4a/1x1"
  bottom: "inception_4a/3x3"
  bottom: "inception_4a/5x5"
  bottom: "inception_4a/pool_proj"
  top: "inception_4a/output"
}
layer {
  name: "loss1/ave_pool"
  type: "Pooling"
  bottom: "inception_4a/output"
  top: "loss1/ave_pool"
  pooling_param {
    pool: AVE
    kernel_size: 5
    stride: 3
  }
}
layer {
  name: "loss1/conv"
  type: "Convolution"
  bottom: "loss1/ave_pool"
  top: "loss1/conv"
  param {
    lr_mult: 1
    decay_mult: 1
  }
  param {
    lr_mult: 2
    decay_mult: 0
  }
  convolution_param {
    num_output: 128
    kernel_size: 1
    weight_filler {
      type: "xavier"
      std: 0.08
    }
    bias_filler {
      type: "constant"
      value: 0.2
    }
  }
}
layer {
  name: "loss1/relu_conv"
  type: "ReLU"
  bottom: "loss1/conv"
  top: "loss1/conv"
}
layer {
  name: "loss1/fc"
  type: "InnerProduct"
  bottom: "loss1/conv"
  top: "loss1/fc"
  param {
    lr_mult: 1
    decay_mult: 1
  }
  param {
    lr_mult: 2
    decay_mult: 0
  }
  inner_product_param {
    num_output: 1024
    weight_filler {
      type: "xavier"
      std: 0.02
    }
    bias_filler {
      type: "constant"
      value: 0.2
    }
  }
}
layer {
  name: "loss1/relu_fc"
  type: "ReLU"
  bottom: "loss1/fc"
  top: "loss1/fc"
}
layer {
  name: "loss1/drop_fc"
  type: "Dropout"
  bottom: "loss1/fc"
  top: "loss1/fc"
  dropout_param {
    dropout_ratio: 0.7
  }
}
layer {
  name: "loss1/classifier_kaggle"
  type: "InnerProduct"
  bottom: "loss1/fc"
  top: "loss1/classifier_kaggle"
  param {
    lr_mult: 1
    decay_mult: 1
  }
  param {
    lr_mult: 2
    decay_mult: 0
  }
  inner_product_param {
    num_output: 447
    weight_filler {
      type: "xavier"
      std: 0.0009765625
    }
    bias_filler {
      type: "constant"
      value: 0
    }
  }
}
layer {
  name: "loss1/loss"
  type: "SoftmaxWithLoss"
  bottom: "loss1/classifier_kaggle"
  bottom: "label"
  top: "loss1/loss1"
  loss_weight: 0.3
}
layer {
  name: "loss1/top-1"
  type: "Accuracy"
  bottom: "loss1/classifier_kaggle"
  bottom: "label"
  top: "loss1/top-1"
  include {
    phase: TEST
  }
}
layer {
  name: "loss1/top-5"
  type: "Accuracy"
  bottom: "loss1/classifier_kaggle"
  bottom: "label"
  top: "loss1/top-5"
  include {
    phase: TEST
  }
  accuracy_param {
    top_k: 5
  }
}
layer {
  name: "inception_4b/1x1"
  type: "Convolution"
  bottom: "inception_4a/output"
  top: "inception_4b/1x1"
  param {
    lr_mult: 1
    decay_mult: 1
  }
  param {
    lr_mult: 2
    decay_mult: 0
  }
  convolution_param {
    num_output: 160
    kernel_size: 1
    weight_filler {
      type: "xavier"
      std: 0.03
    }
    bias_filler {
      type: "constant"
      value: 0.2
    }
  }
}
layer {
  name: "inception_4b/relu_1x1"
  type: "ReLU"
  bottom: "inception_4b/1x1"
  top: "inception_4b/1x1"
}
layer {
  name: "inception_4b/3x3_reduce"
  type: "Convolution"
  bottom: "inception_4a/output"
  top: "inception_4b/3x3_reduce"
  param {
    lr_mult: 1
    decay_mult: 1
  }
  param {
    lr_mult: 2
    decay_mult: 0
  }
  convolution_param {
    num_output: 112
    kernel_size: 1
    weight_filler {
      type: "xavier"
      std: 0.09
    }
    bias_filler {
      type: "constant"
      value: 0.2
    }
  }
}
layer {
  name: "inception_4b/relu_3x3_reduce"
  type: "ReLU"
  bottom: "inception_4b/3x3_reduce"
  top: "inception_4b/3x3_reduce"
}
layer {
  name: "inception_4b/3x3"
  type: "Convolution"
  bottom: "inception_4b/3x3_reduce"
  top: "inception_4b/3x3"
  param {
    lr_mult: 1
    decay_mult: 1
  }
  param {
    lr_mult: 2
    decay_mult: 0
  }
  convolution_param {
    num_output: 224
    pad: 1
    kernel_size: 3
    weight_filler {
      type: "xavier"
      std: 0.03
    }
    bias_filler {
      type: "constant"
      value: 0.2
    }
  }
}
layer {
  name: "inception_4b/relu_3x3"
  type: "ReLU"
  bottom: "inception_4b/3x3"
  top: "inception_4b/3x3"
}
layer {
  name: "inception_4b/5x5_reduce"
  type: "Convolution"
  bottom: "inception_4a/output"
  top: "inception_4b/5x5_reduce"
  param {
    lr_mult: 1
    decay_mult: 1
  }
  param {
    lr_mult: 2
    decay_mult: 0
  }
  convolution_param {
    num_output: 24
    kernel_size: 1
    weight_filler {
      type: "xavier"
      std: 0.2
    }
    bias_filler {
      type: "constant"
      value: 0.2
    }
  }
}
layer {
  name: "inception_4b/relu_5x5_reduce"
  type: "ReLU"
  bottom: "inception_4b/5x5_reduce"
  top: "inception_4b/5x5_reduce"
}
layer {
  name: "inception_4b/5x5"
  type: "Convolution"
  bottom: "inception_4b/5x5_reduce"
  top: "inception_4b/5x5"
  param {
    lr_mult: 1
    decay_mult: 1
  }
  param {
    lr_mult: 2
    decay_mult: 0
  }
  convolution_param {
    num_output: 64
    pad: 2
    kernel_size: 5
    weight_filler {
      type: "xavier"
      std: 0.03
    }
    bias_filler {
      type: "constant"
      value: 0.2
    }
  }
}
layer {
  name: "inception_4b/relu_5x5"
  type: "ReLU"
  bottom: "inception_4b/5x5"
  top: "inception_4b/5x5"
}
layer {
  name: "inception_4b/pool"
  type: "Pooling"
  bottom: "inception_4a/output"
  top: "inception_4b/pool"
  pooling_param {
    pool: MAX
    kernel_size: 3
    stride: 1
    pad: 1
  }
}
layer {
  name: "inception_4b/pool_proj"
  type: "Convolution"
  bottom: "inception_4b/pool"
  top: "inception_4b/pool_proj"
  param {
    lr_mult: 1
    decay_mult: 1
  }
  param {
    lr_mult: 2
    decay_mult: 0
  }
  convolution_param {
    num_output: 64
    kernel_size: 1
    weight_filler {
      type: "xavier"
      std: 0.1
    }
    bias_filler {
      type: "constant"
      value: 0.2
    }
  }
}
layer {
  name: "inception_4b/relu_pool_proj"
  type: "ReLU"
  bottom: "inception_4b/pool_proj"
  top: "inception_4b/pool_proj"
}
layer {
  name: "inception_4b/output"
  type: "Concat"
  bottom: "inception_4b/1x1"
  bottom: "inception_4b/3x3"
  bottom: "inception_4b/5x5"
  bottom: "inception_4b/pool_proj"
  top: "inception_4b/output"
}
layer {
  name: "inception_4c/1x1"
  type: "Convolution"
  bottom: "inception_4b/output"
  top: "inception_4c/1x1"
  param {
    lr_mult: 1
    decay_mult: 1
  }
  param {
    lr_mult: 2
    decay_mult: 0
  }
  convolution_param {
    num_output: 128
    kernel_size: 1
    weight_filler {
      type: "xavier"
      std: 0.03
    }
    bias_filler {
      type: "constant"
      value: 0.2
    }
  }
}
layer {
  name: "inception_4c/relu_1x1"
  type: "ReLU"
  bottom: "inception_4c/1x1"
  top: "inception_4c/1x1"
}
layer {
  name: "inception_4c/3x3_reduce"
  type: "Convolution"
  bottom: "inception_4b/output"
  top: "inception_4c/3x3_reduce"
  param {
    lr_mult: 1
    decay_mult: 1
  }
  param {
    lr_mult: 2
    decay_mult: 0
  }
  convolution_param {
    num_output: 128
    kernel_size: 1
    weight_filler {
      type: "xavier"
      std: 0.09
    }
    bias_filler {
      type: "constant"
      value: 0.2
    }
  }
}
layer {
  name: "inception_4c/relu_3x3_reduce"
  type: "ReLU"
  bottom: "inception_4c/3x3_reduce"
  top: "inception_4c/3x3_reduce"
}
layer {
  name: "inception_4c/3x3"
  type: "Convolution"
  bottom: "inception_4c/3x3_reduce"
  top: "inception_4c/3x3"
  param {
    lr_mult: 1
    decay_mult: 1
  }
  param {
    lr_mult: 2
    decay_mult: 0
  }
  convolution_param {
    num_output: 256
    pad: 1
    kernel_size: 3
    weight_filler {
      type: "xavier"
      std: 0.03
    }
    bias_filler {
      type: "constant"
      value: 0.2
    }
  }
}
layer {
  name: "inception_4c/relu_3x3"
  type: "ReLU"
  bottom: "inception_4c/3x3"
  top: "inception_4c/3x3"
}
layer {
  name: "inception_4c/5x5_reduce"
  type: "Convolution"
  bottom: "inception_4b/output"
  top: "inception_4c/5x5_reduce"
  param {
    lr_mult: 1
    decay_mult: 1
  }
  param {
    lr_mult: 2
    decay_mult: 0
  }
  convolution_param {
    num_output: 24
    kernel_size: 1
    weight_filler {
      type: "xavier"
      std: 0.2
    }
    bias_filler {
      type: "constant"
      value: 0.2
    }
  }
}
layer {
  name: "inception_4c/relu_5x5_reduce"
  type: "ReLU"
  bottom: "inception_4c/5x5_reduce"
  top: "inception_4c/5x5_reduce"
}
layer {
  name: "inception_4c/5x5"
  type: "Convolution"
  bottom: "inception_4c/5x5_reduce"
  top: "inception_4c/5x5"
  param {
    lr_mult: 1
    decay_mult: 1
  }
  param {
    lr_mult: 2
    decay_mult: 0
  }
  convolution_param {
    num_output: 64
    pad: 2
    kernel_size: 5
    weight_filler {
      type: "xavier"
      std: 0.03
    }
    bias_filler {
      type: "constant"
      value: 0.2
    }
  }
}
layer {
  name: "inception_4c/relu_5x5"
  type: "ReLU"
  bottom: "inception_4c/5x5"
  top: "inception_4c/5x5"
}
layer {
  name: "inception_4c/pool"
  type: "Pooling"
  bottom: "inception_4b/output"
  top: "inception_4c/pool"
  pooling_param {
    pool: MAX
    kernel_size: 3
    stride: 1
    pad: 1
  }
}
layer {
  name: "inception_4c/pool_proj"
  type: "Convolution"
  bottom: "inception_4c/pool"
  top: "inception_4c/pool_proj"
  param {
    lr_mult: 1
    decay_mult: 1
  }
  param {
    lr_mult: 2
    decay_mult: 0
  }
  convolution_param {
    num_output: 64
    kernel_size: 1
    weight_filler {
      type: "xavier"
      std: 0.1
    }
    bias_filler {
      type: "constant"
      value: 0.2
    }
  }
}
layer {
  name: "inception_4c/relu_pool_proj"
  type: "ReLU"
  bottom: "inception_4c/pool_proj"
  top: "inception_4c/pool_proj"
}
layer {
  name: "inception_4c/output"
  type: "Concat"
  bottom: "inception_4c/1x1"
  bottom: "inception_4c/3x3"
  bottom: "inception_4c/5x5"
  bottom: "inception_4c/pool_proj"
  top: "inception_4c/output"
}
layer {
  name: "inception_4d/1x1"
  type: "Convolution"
  bottom: "inception_4c/output"
  top: "inception_4d/1x1"
  param {
    lr_mult: 1
    decay_mult: 1
  }
  param {
    lr_mult: 2
    decay_mult: 0
  }
  convolution_param {
    num_output: 112
    kernel_size: 1
    weight_filler {
      type: "xavier"
      std: 0.03
    }
    bias_filler {
      type: "constant"
      value: 0.2
    }
  }
}
layer {
  name: "inception_4d/relu_1x1"
  type: "ReLU"
  bottom: "inception_4d/1x1"
  top: "inception_4d/1x1"
}
layer {
  name: "inception_4d/3x3_reduce"
  type: "Convolution"
  bottom: "inception_4c/output"
  top: "inception_4d/3x3_reduce"
  param {
    lr_mult: 1
    decay_mult: 1
  }
  param {
    lr_mult: 2
    decay_mult: 0
  }
  convolution_param {
    num_output: 144
    kernel_size: 1
    weight_filler {
      type: "xavier"
      std: 0.09
    }
    bias_filler {
      type: "constant"
      value: 0.2
    }
  }
}
layer {
  name: "inception_4d/relu_3x3_reduce"
  type: "ReLU"
  bottom: "inception_4d/3x3_reduce"
  top: "inception_4d/3x3_reduce"
}
layer {
  name: "inception_4d/3x3"
  type: "Convolution"
  bottom: "inception_4d/3x3_reduce"
  top: "inception_4d/3x3"
  param {
    lr_mult: 1
    decay_mult: 1
  }
  param {
    lr_mult: 2
    decay_mult: 0
  }
  convolution_param {
    num_output: 288
    pad: 1
    kernel_size: 3
    weight_filler {
      type: "xavier"
      std: 0.03
    }
    bias_filler {
      type: "constant"
      value: 0.2
    }
  }
}
layer {
  name: "inception_4d/relu_3x3"
  type: "ReLU"
  bottom: "inception_4d/3x3"
  top: "inception_4d/3x3"
}
layer {
  name: "inception_4d/5x5_reduce"
  type: "Convolution"
  bottom: "inception_4c/output"
  top: "inception_4d/5x5_reduce"
  param {
    lr_mult: 1
    decay_mult: 1
  }
  param {
    lr_mult: 2
    decay_mult: 0
  }
  convolution_param {
    num_output: 32
    kernel_size: 1
    weight_filler {
      type: "xavier"
      std: 0.2
    }
    bias_filler {
      type: "constant"
      value: 0.2
    }
  }
}
layer {
  name: "inception_4d/relu_5x5_reduce"
  type: "ReLU"
  bottom: "inception_4d/5x5_reduce"
  top: "inception_4d/5x5_reduce"
}
layer {
  name: "inception_4d/5x5"
  type: "Convolution"
  bottom: "inception_4d/5x5_reduce"
  top: "inception_4d/5x5"
  param {
    lr_mult: 1
    decay_mult: 1
  }
  param {
    lr_mult: 2
    decay_mult: 0
  }
  convolution_param {
    num_output: 64
    pad: 2
    kernel_size: 5
    weight_filler {
      type: "xavier"
      std: 0.03
    }
    bias_filler {
      type: "constant"
      value: 0.2
    }
  }
}
layer {
  name: "inception_4d/relu_5x5"
  type: "ReLU"
  bottom: "inception_4d/5x5"
  top: "inception_4d/5x5"
}
layer {
  name: "inception_4d/pool"
…
I1216 01:51:37.710183 25625 net.cpp:327] inception_4c/relu_1x1 -> inception_4c/1x1 (in-place)
I1216 01:51:37.710191 25625 net.cpp:113] Setting up inception_4c/relu_1x1
I1216 01:51:37.710438 25625 net.cpp:120] Top shape: 50 128 14 14 (1254400)
I1216 01:51:37.710450 25625 layer_factory.hpp:74] Creating layer inception_4c/3x3_reduce
I1216 01:51:37.710461 25625 net.cpp:84] Creating Layer inception_4c/3x3_reduce
I1216 01:51:37.710467 25625 net.cpp:380] inception_4c/3x3_reduce <- inception_4b/output_inception_4b/output_0_split_1
I1216 01:51:37.710475 25625 net.cpp:338] inception_4c/3x3_reduce -> inception_4c/3x3_reduce
I1216 01:51:37.710484 25625 net.cpp:113] Setting up inception_4c/3x3_reduce
I1216 01:51:37.711653 25625 net.cpp:120] Top shape: 50 128 14 14 (1254400)
I1216 01:51:37.711668 25625 layer_factory.hpp:74] Creating layer inception_4c/relu_3x3_reduce
I1216 01:51:37.711678 25625 net.cpp:84] Creating Layer inception_4c/relu_3x3_reduce
I1216 01:51:37.711684 25625 net.cpp:380] inception_4c/relu_3x3_reduce <- inception_4c/3x3_reduce
I1216 01:51:37.711691 25625 net.cpp:327] inception_4c/relu_3x3_reduce -> inception_4c/3x3_reduce (in-place)
I1216 01:51:37.711699 25625 net.cpp:113] Setting up inception_4c/relu_3x3_reduce
I1216 01:51:37.711771 25625 net.cpp:120] Top shape: 50 128 14 14 (1254400)
I1216 01:51:37.711777 25625 layer_factory.hpp:74] Creating layer inception_4c/3x3
I1216 01:51:37.711787 25625 net.cpp:84] Creating Layer inception_4c/3x3
I1216 01:51:37.711792 25625 net.cpp:380] inception_4c/3x3 <- inception_4c/3x3_reduce
I1216 01:51:37.711802 25625 net.cpp:338] inception_4c/3x3 -> inception_4c/3x3
I1216 01:51:37.711809 25625 net.cpp:113] Setting up inception_4c/3x3
I1216 01:51:37.715618 25625 net.cpp:120] Top shape: 50 256 14 14 (2508800)
I1216 01:51:37.715646 25625 layer_factory.hpp:74] Creating layer inception_4c/relu_3x3
I1216 01:51:37.715654 25625 net.cpp:84] Creating Layer inception_4c/relu_3x3
I1216 01:51:37.715661 25625 net.cpp:380] inception_4c/relu_3x3 <- inception_4c/3x3
I1216 01:51:37.715667 25625 net.cpp:327] inception_4c/relu_3x3 -> inception_4c/3x3 (in-place)
I1216 01:51:37.715675 25625 net.cpp:113] Setting up inception_4c/relu_3x3
I1216 01:51:37.715750 25625 net.cpp:120] Top shape: 50 256 14 14 (2508800)
I1216 01:51:37.715757 25625 layer_factory.hpp:74] Creating layer inception_4c/5x5_reduce
I1216 01:51:37.715767 25625 net.cpp:84] Creating Layer inception_4c/5x5_reduce
I1216 01:51:37.715772 25625 net.cpp:380] inception_4c/5x5_reduce <- inception_4b/output_inception_4b/output_0_split_2
I1216 01:51:37.715780 25625 net.cpp:338] inception_4c/5x5_reduce -> inception_4c/5x5_reduce
I1216 01:51:37.715788 25625 net.cpp:113] Setting up inception_4c/5x5_reduce
I1216 01:51:37.716344 25625 net.cpp:120] Top shape: 50 24 14 14 (235200)
I1216 01:51:37.716361 25625 layer_factory.hpp:74] Creating layer inception_4c/relu_5x5_reduce
I1216 01:51:37.716367 25625 net.cpp:84] Creating Layer inception_4c/relu_5x5_reduce
I1216 01:51:37.716373 25625 net.cpp:380] inception_4c/relu_5x5_reduce <- inception_4c/5x5_reduce
I1216 01:51:37.716380 25625 net.cpp:327] inception_4c/relu_5x5_reduce -> inception_4c/5x5_reduce (in-place)
I1216 01:51:37.716387 25625 net.cpp:113] Setting up inception_4c/relu_5x5_reduce
I1216 01:51:37.716635 25625 net.cpp:120] Top shape: 50 24 14 14 (235200)
I1216 01:51:37.716646 25625 layer_factory.hpp:74] Creating layer inception_4c/5x5
I1216 01:51:37.716656 25625 net.cpp:84] Creating Layer inception_4c/5x5
I1216 01:51:37.716662 25625 net.cpp:380] inception_4c/5x5 <- inception_4c/5x5_reduce
I1216 01:51:37.716672 25625 net.cpp:338] inception_4c/5x5 -> inception_4c/5x5
I1216 01:51:37.716681 25625 net.cpp:113] Setting up inception_4c/5x5
I1216 01:51:37.717548 25625 net.cpp:120] Top shape: 50 64 14 14 (627200)
I1216 01:51:37.717564 25625 layer_factory.hpp:74] Creating layer inception_4c/relu_5x5
I1216 01:51:37.717576 25625 net.cpp:84] Creating Layer inception_4c/relu_5x5
I1216 01:51:37.717589 25625 net.cpp:380] inception_4c/relu_5x5 <- inception_4c/5x5
I1216 01:51:37.717597 25625 net.cpp:327] inception_4c/relu_5x5 -> inception_4c/5x5 (in-place)
I1216 01:51:37.717604 25625 net.cpp:113] Setting up inception_4c/relu_5x5
I1216 01:51:37.717679 25625 net.cpp:120] Top shape: 50 64 14 14 (627200)
I1216 01:51:37.717685 25625 layer_factory.hpp:74] Creating layer inception_4c/pool
I1216 01:51:37.717691 25625 layer_factory.cpp:56] CUDNN does not support padding or multiple tops. Using Caffe's own pooling layer.
I1216 01:51:37.717697 25625 net.cpp:84] Creating Layer inception_4c/pool
I1216 01:51:37.717702 25625 net.cpp:380] inception_4c/pool <- inception_4b/output_inception_4b/output_0_split_3
I1216 01:51:37.717711 25625 net.cpp:338] inception_4c/pool -> inception_4c/pool
I1216 01:51:37.717720 25625 net.cpp:113] Setting up inception_4c/pool
I1216 01:51:37.717728 25625 net.cpp:120] Top shape: 50 512 14 14 (5017600)
I1216 01:51:37.717733 25625 layer_factory.hpp:74] Creating layer inception_4c/pool_proj
I1216 01:51:37.717741 25625 net.cpp:84] Creating Layer inception_4c/pool_proj
I1216 01:51:37.717746 25625 net.cpp:380] inception_4c/pool_proj <- inception_4c/pool
I1216 01:51:37.717756 25625 net.cpp:338] inception_4c/pool_proj -> inception_4c/pool_proj
I1216 01:51:37.717763 25625 net.cpp:113] Setting up inception_4c/pool_proj
I1216 01:51:37.718559 25625 net.cpp:120] Top shape: 50 64 14 14 (627200)
I1216 01:51:37.718575 25625 layer_factory.hpp:74] Creating layer inception_4c/relu_pool_proj
I1216 01:51:37.718581 25625 net.cpp:84] Creating Layer inception_4c/relu_pool_proj
I1216 01:51:37.718587 25625 net.cpp:380] inception_4c/relu_pool_proj <- inception_4c/pool_proj
I1216 01:51:37.718595 25625 net.cpp:327] inception_4c/relu_pool_proj -> inception_4c/pool_proj (in-place)
I1216 01:51:37.718602 25625 net.cpp:113] Setting up inception_4c/relu_pool_proj
I1216 01:51:37.718674 25625 net.cpp:120] Top shape: 50 64 14 14 (627200)
I1216 01:51:37.718682 25625 layer_factory.hpp:74] Creating layer inception_4c/output
I1216 01:51:37.718688 25625 net.cpp:84] Creating Layer inception_4c/output
I1216 01:51:37.718693 25625 net.cpp:380] inception_4c/output <- inception_4c/1x1
I1216 01:51:37.718699 25625 net.cpp:380] inception_4c/output <- inception_4c/3x3
I1216 01:51:37.718705 25625 net.cpp:380] inception_4c/output <- inception_4c/5x5
I1216 01:51:37.718710 25625 net.cpp:380] inception_4c/output <- inception_4c/pool_proj
I1216 01:51:37.718716 25625 net.cpp:338] inception_4c/output -> inception_4c/output
I1216 01:51:37.718724 25625 net.cpp:113] Setting up inception_4c/output
I1216 01:51:37.718731 25625 net.cpp:120] Top shape: 50 512 14 14 (5017600)
I1216 01:51:37.718736 25625 layer_factory.hpp:74] Creating layer inception_4c/output_inception_4c/output_0_split
I1216 01:51:37.718745 25625 net.cpp:84] Creating Layer inception_4c/output_inception_4c/output_0_split
I1216 01:51:37.718750 25625 net.cpp:380] inception_4c/output_inception_4c/output_0_split <- inception_4c/output
I1216 01:51:37.718757 25625 net.cpp:338] inception_4c/output_inception_4c/output_0_split -> inception_4c/output_inception_4c/output_0_split_0
I1216 01:51:37.718765 25625 net.cpp:338] inception_4c/output_inception_4c/output_0_split -> inception_4c/output_inception_4c/output_0_split_1
I1216 01:51:37.718773 25625 net.cpp:338] inception_4c/output_inception_4c/output_0_split -> inception_4c/output_inception_4c/output_0_split_2
I1216 01:51:37.718781 25625 net.cpp:338] inception_4c/output_inception_4c/output_0_split -> inception_4c/output_inception_4c/output_0_split_3
I1216 01:51:37.718787 25625 net.cpp:113] Setting up inception_4c/output_inception_4c/output_0_split
I1216 01:51:37.718796 25625 net.cpp:120] Top shape: 50 512 14 14 (5017600)
I1216 01:51:37.718801 25625 net.cpp:120] Top shape: 50 512 14 14 (5017600)
I1216 01:51:37.718806 25625 net.cpp:120] Top shape: 50 512 14 14 (5017600)
I1216 01:51:37.718811 25625 net.cpp:120] Top shape: 50 512 14 14 (5017600)
I1216 01:51:37.718821 25625 layer_factory.hpp:74] Creating layer inception_4d/1x1
I1216 01:51:37.718834 25625 net.cpp:84] Creating Layer inception_4d/1x1
I1216 01:51:37.718840 25625 net.cpp:380] inception_4d/1x1 <- inception_4c/output_inception_4c/output_0_split_0
I1216 01:51:37.718849 25625 net.cpp:338] inception_4d/1x1 -> inception_4d/1x1
I1216 01:51:37.718857 25625 net.cpp:113] Setting up inception_4d/1x1
I1216 01:51:37.719936 25625 net.cpp:120] Top shape: 50 112 14 14 (1097600)
I1216 01:51:37.719952 25625 layer_factory.hpp:74] Creating layer inception_4d/relu_1x1
I1216 01:51:37.719959 25625 net.cpp:84] Creating Layer inception_4d/relu_1x1
I1216 01:51:37.719965 25625 net.cpp:380] inception_4d/relu_1x1 <- inception_4d/1x1
I1216 01:51:37.719972 25625 net.cpp:327] inception_4d/relu_1x1 -> inception_4d/1x1 (in-place)
I1216 01:51:37.719980 25625 net.cpp:113] Setting up inception_4d/relu_1x1
I1216 01:51:37.720051 25625 net.cpp:120] Top shape: 50 112 14 14 (1097600)
I1216 01:51:37.720057 25625 layer_factory.hpp:74] Creating layer inception_4d/3x3_reduce
I1216 01:51:37.720067 25625 net.cpp:84] Creating Layer inception_4d/3x3_reduce
I1216 01:51:37.720072 25625 net.cpp:380] inception_4d/3x3_reduce <- inception_4c/output_inception_4c/output_0_split_1
I1216 01:51:37.720080 25625 net.cpp:338] inception_4d/3x3_reduce -> inception_4d/3x3_reduce
I1216 01:51:37.720089 25625 net.cpp:113] Setting up inception_4d/3x3_reduce
I1216 01:51:37.721364 25625 net.cpp:120] Top shape: 50 144 14 14 (1411200)
I1216 01:51:37.721380 25625 layer_factory.hpp:74] Creating layer inception_4d/relu_3x3_reduce
I1216 01:51:37.721388 25625 net.cpp:84] Creating Layer inception_4d/relu_3x3_reduce
I1216 01:51:37.721395 25625 net.cpp:380] inception_4d/relu_3x3_reduce <- inception_4d/3x3_reduce
I1216 01:51:37.721402 25625 net.cpp:327] inception_4d/relu_3x3_reduce -> inception_4d/3x3_reduce (in-place)
I1216 01:51:37.721410 25625 net.cpp:113] Setting up inception_4d/relu_3x3_reduce
I1216 01:51:37.721662 25625 net.cpp:120] Top shape: 50 144 14 14 (1411200)
I1216 01:51:37.721673 25625 layer_factory.hpp:74] Creating layer inception_4d/3x3
I1216 01:51:37.721683 25625 net.cpp:84] Creating Layer inception_4d/3x3
I1216 01:51:37.721688 25625 net.cpp:380] inception_4d/3x3 <- inception_4d/3x3_reduce
I1216 01:51:37.721696 25625 net.cpp:338] inception_4d/3x3 -> inception_4d/3x3
I1216 01:51:37.721707 25625 net.cpp:113] Setting up inception_4d/3x3
I1216 01:51:37.726407 25625 net.cpp:120] Top shape: 50 288 14 14 (2822400)
I1216 01:51:37.726423 25625 layer_factory.hpp:74] Creating layer inception_4d/relu_3x3
I1216 01:51:37.726430 25625 net.cpp:84] Creating Layer inception_4d/relu_3x3
I1216 01:51:37.726436 25625 net.cpp:380] inception_4d/relu_3x3 <- inception_4d/3x3
I1216 01:51:37.726444 25625 net.cpp:327] inception_4d/relu_3x3 -> inception_4d/3x3 (in-place)
I1216 01:51:37.726451 25625 net.cpp:113] Setting up inception_4d/relu_3x3
I1216 01:51:37.726522 25625 net.cpp:120] Top shape: 50 288 14 14 (2822400)
I1216 01:51:37.726529 25625 layer_factory.hpp:74] Creating layer inception_4d/5x5_reduce
I1216 01:51:37.726537 25625 net.cpp:84] Creating Layer inception_4d/5x5_reduce
I1216 01:51:37.726543 25625 net.cpp:380] inception_4d/5x5_reduce <- inception_4c/output_inception_4c/output_0_split_2
I1216 01:51:37.726554 25625 net.cpp:338] inception_4d/5x5_reduce -> inception_4d/5x5_reduce
I1216 01:51:37.726562 25625 net.cpp:113] Setting up inception_4d/5x5_reduce
I1216 01:51:37.727198 25625 net.cpp:120] Top shape: 50 32 14 14 (313600)
I1216 01:51:37.727215 25625 layer_factory.hpp:74] Creating layer inception_4d/relu_5x5_reduce
I1216 01:51:37.727224 25625 net.cpp:84] Creating Layer inception_4d/relu_5x5_reduce
I1216 01:51:37.727231 25625 net.cpp:380] inception_4d/relu_5x5_reduce <- inception_4d/5x5_reduce
I1216 01:51:37.727237 25625 net.cpp:327] inception_4d/relu_5x5_reduce -> inception_4d/5x5_reduce (in-place)
I1216 01:51:37.727246 25625 net.cpp:113] Setting up inception_4d/relu_5x5_reduce
I1216 01:51:37.727319 25625 net.cpp:120] Top shape: 50 32 14 14 (313600)
I1216 01:51:37.727327 25625 layer_factory.hpp:74] Creating layer inception_4d/5x5
I1216 01:51:37.727342 25625 net.cpp:84] Creating Layer inception_4d/5x5
I1216 01:51:37.727355 25625 net.cpp:380] inception_4d/5x5 <- inception_4d/5x5_reduce
I1216 01:51:37.727362 25625 net.cpp:338] inception_4d/5x5 -> inception_4d/5x5
I1216 01:51:37.727370 25625 net.cpp:113] Setting up inception_4d/5x5
I1216 01:51:37.728377 25625 net.cpp:120] Top shape: 50 64 14 14 (627200)
I1216 01:51:37.728394 25625 layer_factory.hpp:74] Creating layer inception_4d/relu_5x5
I1216 01:51:37.728404 25625 net.cpp:84] Creating Layer inception_4d/relu_5x5
I1216 01:51:37.728409 25625 net.cpp:380] inception_4d/relu_5x5 <- inception_4d/5x5
I1216 01:51:37.728415 25625 net.cpp:327] inception_4d/relu_5x5 -> inception_4d/5x5 (in-place)
I1216 01:51:37.728423 25625 net.cpp:113] Setting up inception_4d/relu_5x5
I1216 01:51:37.728495 25625 net.cpp:120] Top shape: 50 64 14 14 (627200)
I1216 01:51:37.728503 25625 layer_factory.hpp:74] Creating layer inception_4d/pool
I1216 01:51:37.728509 25625 layer_factory.cpp:56] CUDNN does not support padding or multiple tops. Using Caffe's own pooling layer.
I1216 01:51:37.728515 25625 net.cpp:84] Creating Layer inception_4d/pool
I1216 01:51:37.728521 25625 net.cpp:380] inception_4d/pool <- inception_4c/output_inception_4c/output_0_split_3
I1216 01:51:37.728530 25625 net.cpp:338] inception_4d/pool -> inception_4d/pool
I1216 01:51:37.728538 25625 net.cpp:113] Setting up inception_4d/pool
I1216 01:51:37.728546 25625 net.cpp:120] Top shape: 50 512 14 14 (5017600)
I1216 01:51:37.728551 25625 layer_factory.hpp:74] Creating layer inception_4d/pool_proj
I1216 01:51:37.728559 25625 net.cpp:84] Creating Layer inception_4d/pool_proj
I1216 01:51:37.728565 25625 net.cpp:380] inception_4d/pool_proj <- inception_4d/pool
I1216 01:51:37.728574 25625 net.cpp:338] inception_4d/pool_proj -> inception_4d/pool_proj
I1216 01:51:37.728581 25625 net.cpp:113] Setting up inception_4d/pool_proj
I1216 01:51:37.729387 25625 net.cpp:120] Top shape: 50 64 14 14 (627200)
I1216 01:51:37.729403 25625 layer_factory.hpp:74] Creating layer inception_4d/relu_pool_proj
I1216 01:51:37.729410 25625 net.cpp:84] Creating Layer inception_4d/relu_pool_proj
I1216 01:51:37.729416 25625 net.cpp:380] inception_4d/relu_pool_proj <- inception_4d/pool_proj
I1216 01:51:37.729423 25625 net.cpp:327] inception_4d/relu_pool_proj -> inception_4d/pool_proj (in-place)
I1216 01:51:37.729431 25625 net.cpp:113] Setting up inception_4d/relu_pool_proj
I1216 01:51:37.729681 25625 net.cpp:120] Top shape: 50 64 14 14 (627200)
I1216 01:51:37.729691 25625 layer_factory.hpp:74] Creating layer inception_4d/output
I1216 01:51:37.729701 25625 net.cpp:84] Creating Layer inception_4d/output
I1216 01:51:37.729707 25625 net.cpp:380] inception_4d/output <- inception_4d/1x1
I1216 01:51:37.729713 25625 net.cpp:380] inception_4d/output <- inception_4d/3x3
I1216 01:51:37.729719 25625 net.cpp:380] inception_4d/output <- inception_4d/5x5
I1216 01:51:37.729724 25625 net.cpp:380] inception_4d/output <- inception_4d/pool_proj
I1216 01:51:37.729732 25625 net.cpp:338] inception_4d/output -> inception_4d/output
I1216 01:51:37.729739 25625 net.cpp:113] Setting up inception_4d/output
I1216 01:51:37.729748 25625 net.cpp:120] Top shape: 50 528 14 14 (5174400)
I1216 01:51:37.729753 25625 layer_factory.hpp:74] Creating layer inception_4d/output_inception_4d/output_0_split
I1216 01:51:37.729759 25625 net.cpp:84] Creating Layer inception_4d/output_inception_4d/output_0_split
I1216 01:51:37.729763 25625 net.cpp:380] inception_4d/output_inception_4d/output_0_split <- inception_4d/output
I1216 01:51:37.729773 25625 net.cpp:338] inception_4d/output_inception_4d/output_0_split -> inception_4d/output_inception_4d/output_0_split_0
I1216 01:51:37.729780 25625 net.cpp:338] inception_4d/output_inception_4d/output_0_split -> inception_4d/output_inception_4d/output_0_split_1
I1216 01:51:37.729789 25625 net.cpp:338] inception_4d/output_inception_4d/output_0_split -> inception_4d/output_inception_4d/output_0_split_2
I1216 01:51:37.729795 25625 net.cpp:338] inception_4d/output_inception_4d/output_0_split -> inception_4d/output_inception_4d/output_0_split_3
I1216 01:51:37.729814 25625 net.cpp:338] inception_4d/output_inception_4d/output_0_split -> inception_4d/output_inception_4d/output_0_split_4
I1216 01:51:37.729820 25625 net.cpp:113] Setting up inception_4d/output_inception_4d/output_0_split
I1216 01:51:37.729828 25625 net.cpp:120] Top shape: 50 528 14 14 (5174400)
I1216 01:51:37.729835 25625 net.cpp:120] Top shape: 50 528 14 14 (5174400)
I1216 01:51:37.729840 25625 net.cpp:120] Top shape: 50 528 14 14 (5174400)
I1216 01:51:37.729846 25625 net.cpp:120] Top shape: 50 528 14 14 (5174400)
I1216 01:51:37.729851 25625 net.cpp:120] Top shape: 50 528 14 14 (5174400)
I1216 01:51:37.729856 25625 layer_factory.hpp:74] Creating layer loss2/ave_pool
I1216 01:51:37.729866 25625 net.cpp:84] Creating Layer loss2/ave_pool
I1216 01:51:37.729871 25625 net.cpp:380] loss2/ave_pool <- inception_4d/output_inception_4d/output_0_split_0
I1216 01:51:37.729877 25625 net.cpp:338] loss2/ave_pool -> loss2/ave_pool
I1216 01:51:37.729884 25625 net.cpp:113] Setting up loss2/ave_pool
I1216 01:51:37.729964 25625 net.cpp:120] Top shape: 50 528 4 4 (422400)
I1216 01:51:37.729970 25625 layer_factory.hpp:74] Creating layer loss2/conv
I1216 01:51:37.729980 25625 net.cpp:84] Creating Layer loss2/conv
I1216 01:51:37.729986 25625 net.cpp:380] loss2/conv <- loss2/ave_pool
I1216 01:51:37.729995 25625 net.cpp:338] loss2/conv -> loss2/conv
I1216 01:51:37.730003 25625 net.cpp:113] Setting up loss2/conv
I1216 01:51:37.731202 25625 net.cpp:120] Top shape: 50 128 4 4 (102400)
I1216 01:51:37.731217 25625 layer_factory.hpp:74] Creating layer loss2/relu_conv
I1216 01:51:37.731225 25625 net.cpp:84] Creating Layer loss2/relu_conv
I1216 01:51:37.731230 25625 net.cpp:380] loss2/relu_conv <- loss2/conv
I1216 01:51:37.731240 25625 net.cpp:327] loss2/relu_conv -> loss2/conv (in-place)
I1216 01:51:37.731247 25625 net.cpp:113] Setting up loss2/relu_conv
I1216 01:51:37.731318 25625 net.cpp:120] Top shape: 50 128 4 4 (102400)
I1216 01:51:37.731325 25625 layer_factory.hpp:74] Creating layer loss2/fc
I1216 01:51:37.731335 25625 net.cpp:84] Creating Layer loss2/fc
I1216 01:51:37.731340 25625 net.cpp:380] loss2/fc <- loss2/conv
I1216 01:51:37.731348 25625 net.cpp:338] loss2/fc -> loss2/fc
I1216 01:51:37.731355 25625 net.cpp:113] Setting up loss2/fc
I1216 01:51:37.754259 25625 net.cpp:120] Top shape: 50 1024 (51200)
I1216 01:51:37.754274 25625 layer_factory.hpp:74] Creating layer loss2/relu_fc
I1216 01:51:37.754281 25625 net.cpp:84] Creating Layer loss2/relu_fc
I1216 01:51:37.754287 25625 net.cpp:380] loss2/relu_fc <- loss2/fc
I1216 01:51:37.754293 25625 net.cpp:327] loss2/relu_fc -> loss2/fc (in-place)
I1216 01:51:37.754300 25625 net.cpp:113] Setting up loss2/relu_fc
I1216 01:51:37.754377 25625 net.cpp:120] Top shape: 50 1024 (51200)
I1216 01:51:37.754384 25625 layer_factory.hpp:74] Creating layer loss2/drop_fc
I1216 01:51:37.754393 25625 net.cpp:84] Creating Layer loss2/drop_fc
I1216 01:51:37.754398 25625 net.cpp:380] loss2/drop_fc <- loss2/fc
I1216 01:51:37.754405 25625 net.cpp:327] loss2/drop_fc -> loss2/fc (in-place)
I1216 01:51:37.754411 25625 net.cpp:113] Setting up loss2/drop_fc
I1216 01:51:37.754418 25625 net.cpp:120] Top shape: 50 1024 (51200)
I1216 01:51:37.754423 25625 layer_factory.hpp:74] Creating layer loss2/classifier_kaggle
I1216 01:51:37.754431 25625 net.cpp:84] Creating Layer loss2/classifier_kaggle
I1216 01:51:37.754436 25625 net.cpp:380] loss2/classifier_kaggle <- loss2/fc
I1216 01:51:37.754444 25625 net.cpp:338] loss2/classifier_kaggle -> loss2/classifier_kaggle
I1216 01:51:37.754452 25625 net.cpp:113] Setting up loss2/classifier_kaggle
I1216 01:51:37.759703 25625 net.cpp:120] Top shape: 50 447 (22350)
I1216 01:51:37.759716 25625 layer_factory.hpp:74] Creating layer loss2/classifier_kaggle_loss2/classifier_kaggle_0_split
I1216 01:51:37.759723 25625 net.cpp:84] Creating Layer loss2/classifier_kaggle_loss2/classifier_kaggle_0_split
I1216 01:51:37.759729 25625 net.cpp:380] loss2/classifier_kaggle_loss2/classifier_kaggle_0_split <- loss2/classifier_kaggle
I1216 01:51:37.759743 25625 net.cpp:338] loss2/classifier_kaggle_loss2/classifier_kaggle_0_split -> loss2/classifier_kaggle_loss2/classifier_kaggle_0_split_0
I1216 01:51:37.759759 25625 net.cpp:338] loss2/classifier_kaggle_loss2/classifier_kaggle_0_split -> loss2/classifier_kaggle_loss2/classifier_kaggle_0_split_1
I1216 01:51:37.759768 25625 net.cpp:338] loss2/classifier_kaggle_loss2/classifier_kaggle_0_split -> loss2/classifier_kaggle_loss2/classifier_kaggle_0_split_2
I1216 01:51:37.759774 25625 net.cpp:113] Setting up loss2/classifier_kaggle_loss2/classifier_kaggle_0_split
I1216 01:51:37.759783 25625 net.cpp:120] Top shape: 50 447 (22350)
I1216 01:51:37.759789 25625 net.cpp:120] Top shape: 50 447 (22350)
I1216 01:51:37.759794 25625 net.cpp:120] Top shape: 50 447 (22350)
I1216 01:51:37.759799 25625 layer_factory.hpp:74] Creating layer loss2/loss
I1216 01:51:37.759806 25625 net.cpp:84] Creating Layer loss2/loss
I1216 01:51:37.759811 25625 net.cpp:380] loss2/loss <- loss2/classifier_kaggle_loss2/classifier_kaggle_0_split_0
I1216 01:51:37.759819 25625 net.cpp:380] loss2/loss <- label_data_1_split_3
I1216 01:51:37.759824 25625 net.cpp:338] loss2/loss -> loss2/loss1
…
I1216 01:51:37.760269 25625 net.cpp:338] loss2/top-5 -> loss2/top-5
I1216 01:51:37.760277 25625 net.cpp:113] Setting up loss2/top-5
I1216 01:51:37.760282 25625 net.cpp:120] Top shape: (1)
I1216 01:51:37.760287 25625 layer_factory.hpp:74] Creating layer inception_4e/1x1
I1216 01:51:37.760296 25625 net.cpp:84] Creating Layer inception_4e/1x1
I1216 01:51:37.760301 25625 net.cpp:380] inception_4e/1x1 <- inception_4d/output_inception_4d/output_0_split_1
I1216 01:51:37.760309 25625 net.cpp:338] inception_4e/1x1 -> inception_4e/1x1
I1216 01:51:37.760316 25625 net.cpp:113] Setting up inception_4e/1x1
I1216 01:51:37.762311 25625 net.cpp:120] Top shape: 50 256 14 14 (2508800)
I1216 01:51:37.762329 25625 layer_factory.hpp:74] Creating layer inception_4e/relu_1x1
I1216 01:51:37.762337 25625 net.cpp:84] Creating Layer inception_4e/relu_1x1
I1216 01:51:37.762343 25625 net.cpp:380] inception_4e/relu_1x1 <- inception_4e/1x1
I1216 01:51:37.762351 25625 net.cpp:327] inception_4e/relu_1x1 -> inception_4e/1x1 (in-place)
I1216 01:51:37.762358 25625 net.cpp:113] Setting up inception_4e/relu_1x1
I1216 01:51:37.762433 25625 net.cpp:120] Top shape: 50 256 14 14 (2508800)
I1216 01:51:37.762440 25625 layer_factory.hpp:74] Creating layer inception_4e/3x3_reduce
I1216 01:51:37.762467 25625 net.cpp:84] Creating Layer inception_4e/3x3_reduce
I1216 01:51:37.762473 25625 net.cpp:380] inception_4e/3x3_reduce <- inception_4d/output_inception_4d/output_0_split_2
I1216 01:51:37.762481 25625 net.cpp:338] inception_4e/3x3_reduce -> inception_4e/3x3_reduce
I1216 01:51:37.762490 25625 net.cpp:113] Setting up inception_4e/3x3_reduce
I1216 01:51:37.763877 25625 net.cpp:120] Top shape: 50 160 14 14 (1568000)
I1216 01:51:37.763893 25625 layer_factory.hpp:74] Creating layer inception_4e/relu_3x3_reduce
I1216 01:51:37.763906 25625 net.cpp:84] Creating Layer inception_4e/relu_3x3_reduce
I1216 01:51:37.763919 25625 net.cpp:380] inception_4e/relu_3x3_reduce <- inception_4e/3x3_reduce
I1216 01:51:37.763929 25625 net.cpp:327] inception_4e/relu_3x3_reduce -> inception_4e/3x3_reduce (in-place)
I1216 01:51:37.763937 25625 net.cpp:113] Setting up inception_4e/relu_3x3_reduce
I1216 01:51:37.764011 25625 net.cpp:120] Top shape: 50 160 14 14 (1568000)
I1216 01:51:37.764019 25625 layer_factory.hpp:74] Creating layer inception_4e/3x3
I1216 01:51:37.764027 25625 net.cpp:84] Creating Layer inception_4e/3x3
I1216 01:51:37.764032 25625 net.cpp:380] inception_4e/3x3 <- inception_4e/3x3_reduce
I1216 01:51:37.764041 25625 net.cpp:338] inception_4e/3x3 -> inception_4e/3x3
I1216 01:51:37.764050 25625 net.cpp:113] Setting up inception_4e/3x3
I1216 01:51:37.769865 25625 net.cpp:120] Top shape: 50 320 14 14 (3136000)
I1216 01:51:37.769882 25625 layer_factory.hpp:74] Creating layer inception_4e/relu_3x3
I1216 01:51:37.769891 25625 net.cpp:84] Creating Layer inception_4e/relu_3x3
I1216 01:51:37.769896 25625 net.cpp:380] inception_4e/relu_3x3 <- inception_4e/3x3
I1216 01:51:37.769903 25625 net.cpp:327] inception_4e/relu_3x3 -> inception_4e/3x3 (in-place)
I1216 01:51:37.769912 25625 net.cpp:113] Setting up inception_4e/relu_3x3
I1216 01:51:37.770160 25625 net.cpp:120] Top shape: 50 320 14 14 (3136000)
I1216 01:51:37.770171 25625 layer_factory.hpp:74] Creating layer inception_4e/5x5_reduce
I1216 01:51:37.770180 25625 net.cpp:84] Creating Layer inception_4e/5x5_reduce
I1216 01:51:37.770186 25625 net.cpp:380] inception_4e/5x5_reduce <- inception_4d/output_inception_4d/output_0_split_3
I1216 01:51:37.770195 25625 net.cpp:338] inception_4e/5x5_reduce -> inception_4e/5x5_reduce
I1216 01:51:37.770203 25625 net.cpp:113] Setting up inception_4e/5x5_reduce
I1216 01:51:37.770804 25625 net.cpp:120] Top shape: 50 32 14 14 (313600)
I1216 01:51:37.770819 25625 layer_factory.hpp:74] Creating layer inception_4e/relu_5x5_reduce
I1216 01:51:37.770828 25625 net.cpp:84] Creating Layer inception_4e/relu_5x5_reduce
I1216 01:51:37.770833 25625 net.cpp:380] inception_4e/relu_5x5_reduce <- inception_4e/5x5_reduce
I1216 01:51:37.770840 25625 net.cpp:327] inception_4e/relu_5x5_reduce -> inception_4e/5x5_reduce (in-place)
I1216 01:51:37.770848 25625 net.cpp:113] Setting up inception_4e/relu_5x5_reduce
I1216 01:51:37.770922 25625 net.cpp:120] Top shape: 50 32 14 14 (313600)
I1216 01:51:37.770930 25625 layer_factory.hpp:74] Creating layer inception_4e/5x5
I1216 01:51:37.770939 25625 net.cpp:84] Creating Layer inception_4e/5x5
I1216 01:51:37.770944 25625 net.cpp:380] inception_4e/5x5 <- inception_4e/5x5_reduce
I1216 01:51:37.770952 25625 net.cpp:338] inception_4e/5x5 -> inception_4e/5x5
I1216 01:51:37.770961 25625 net.cpp:113] Setting up inception_4e/5x5
I1216 01:51:37.772559 25625 net.cpp:120] Top shape: 50 128 14 14 (1254400)
I1216 01:51:37.772575 25625 layer_factory.hpp:74] Creating layer inception_4e/relu_5x5
I1216 01:51:37.772583 25625 net.cpp:84] Creating Layer inception_4e/relu_5x5
I1216 01:51:37.772590 25625 net.cpp:380] inception_4e/relu_5x5 <- inception_4e/5x5
I1216 01:51:37.772598 25625 net.cpp:327] inception_4e/relu_5x5 -> inception_4e/5x5 (in-place)
I1216 01:51:37.772604 25625 net.cpp:113] Setting up inception_4e/relu_5x5
I1216 01:51:37.772675 25625 net.cpp:120] Top shape: 50 128 14 14 (1254400)
I1216 01:51:37.772680 25625 layer_factory.hpp:74] Creating layer inception_4e/pool
I1216 01:51:37.772686 25625 layer_factory.cpp:56] CUDNN does not support padding or multiple tops. Using Caffe's own pooling layer.
I1216 01:51:37.772694 25625 net.cpp:84] Creating Layer inception_4e/pool
I1216 01:51:37.772701 25625 net.cpp:380] inception_4e/pool <- inception_4d/output_inception_4d/output_0_split_4
I1216 01:51:37.772707 25625 net.cpp:338] inception_4e/pool -> inception_4e/pool
I1216 01:51:37.772716 25625 net.cpp:113] Setting up inception_4e/pool
I1216 01:51:37.772723 25625 net.cpp:120] Top shape: 50 528 14 14 (5174400)
I1216 01:51:37.772728 25625 layer_factory.hpp:74] Creating layer inception_4e/pool_proj
I1216 01:51:37.772743 25625 net.cpp:84] Creating Layer inception_4e/pool_proj
I1216 01:51:37.772757 25625 net.cpp:380] inception_4e/pool_proj <- inception_4e/pool
I1216 01:51:37.772764 25625 net.cpp:338] inception_4e/pool_proj -> inception_4e/pool_proj
I1216 01:51:37.772771 25625 net.cpp:113] Setting up inception_4e/pool_proj
I1216 01:51:37.783594 25625 net.cpp:120] Top shape: 50 128 14 14 (1254400)
I1216 01:51:37.783619 25625 layer_factory.hpp:74] Creating layer inception_4e/relu_pool_proj
I1216 01:51:37.783629 25625 net.cpp:84] Creating Layer inception_4e/relu_pool_proj
I1216 01:51:37.783635 25625 net.cpp:380] inception_4e/relu_pool_proj <- inception_4e/pool_proj
I1216 01:51:37.783645 25625 net.cpp:327] inception_4e/relu_pool_proj -> inception_4e/pool_proj (in-place)
I1216 01:51:37.783655 25625 net.cpp:113] Setting up inception_4e/relu_pool_proj
I1216 01:51:37.783731 25625 net.cpp:120] Top shape: 50 128 14 14 (1254400)
I1216 01:51:37.783738 25625 layer_factory.hpp:74] Creating layer inception_4e/output
I1216 01:51:37.783746 25625 net.cpp:84] Creating Layer inception_4e/output
I1216 01:51:37.783752 25625 net.cpp:380] inception_4e/output <- inception_4e/1x1
I1216 01:51:37.783758 25625 net.cpp:380] inception_4e/output <- inception_4e/3x3
I1216 01:51:37.783766 25625 net.cpp:380] inception_4e/output <- inception_4e/5x5
I1216 01:51:37.783771 25625 net.cpp:380] inception_4e/output <- inception_4e/pool_proj
I1216 01:51:37.783779 25625 net.cpp:338] inception_4e/output -> inception_4e/output
I1216 01:51:37.783787 25625 net.cpp:113] Setting up inception_4e/output
I1216 01:51:37.783795 25625 net.cpp:120] Top shape: 50 832 14 14 (8153600)
I1216 01:51:37.783800 25625 layer_factory.hpp:74] Creating layer pool4/3x3_s2
I1216 01:51:37.783807 25625 net.cpp:84] Creating Layer pool4/3x3_s2
I1216 01:51:37.783812 25625 net.cpp:380] pool4/3x3_s2 <- inception_4e/output
I1216 01:51:37.783821 25625 net.cpp:338] pool4/3x3_s2 -> pool4/3x3_s2
I1216 01:51:37.783829 25625 net.cpp:113] Setting up pool4/3x3_s2
I1216 01:51:37.784097 25625 net.cpp:120] Top shape: 50 832 7 7 (2038400)
I1216 01:51:37.784109 25625 layer_factory.hpp:74] Creating layer pool4/3x3_s2_pool4/3x3_s2_0_split
I1216 01:51:37.784117 25625 net.cpp:84] Creating Layer pool4/3x3_s2_pool4/3x3_s2_0_split
I1216 01:51:37.784123 25625 net.cpp:380] pool4/3x3_s2_pool4/3x3_s2_0_split <- pool4/3x3_s2
I1216 01:51:37.784131 25625 net.cpp:338] pool4/3x3_s2_pool4/3x3_s2_0_split -> pool4/3x3_s2_pool4/3x3_s2_0_split_0
I1216 01:51:37.784139 25625 net.cpp:338] pool4/3x3_s2_pool4/3x3_s2_0_split -> pool4/3x3_s2_pool4/3x3_s2_0_split_1
I1216 01:51:37.784147 25625 net.cpp:338] pool4/3x3_s2_pool4/3x3_s2_0_split -> pool4/3x3_s2_pool4/3x3_s2_0_split_2
I1216 01:51:37.784178 25625 net.cpp:338] pool4/3x3_s2_pool4/3x3_s2_0_split -> pool4/3x3_s2_pool4/3x3_s2_0_split_3
I1216 01:51:37.784185 25625 net.cpp:113] Setting up pool4/3x3_s2_pool4/3x3_s2_0_split
I1216 01:51:37.784193 25625 net.cpp:120] Top shape: 50 832 7 7 (2038400)
I1216 01:51:37.784199 25625 net.cpp:120] Top shape: 50 832 7 7 (2038400)
I1216 01:51:37.784205 25625 net.cpp:120] Top shape: 50 832 7 7 (2038400)
I1216 01:51:37.784211 25625 net.cpp:120] Top shape: 50 832 7 7 (2038400)
I1216 01:51:37.784216 25625 layer_factory.hpp:74] Creating layer inception_5a/1x1
I1216 01:51:37.784229 25625 net.cpp:84] Creating Layer inception_5a/1x1
I1216 01:51:37.784234 25625 net.cpp:380] inception_5a/1x1 <- pool4/3x3_s2_pool4/3x3_s2_0_split_0
I1216 01:51:37.784241 25625 net.cpp:338] inception_5a/1x1 -> inception_5a/1x1
I1216 01:51:37.784250 25625 net.cpp:113] Setting up inception_5a/1x1
I1216 01:51:37.787180 25625 net.cpp:120] Top shape: 50 256 7 7 (627200)
I1216 01:51:37.787204 25625 layer_factory.hpp:74] Creating layer inception_5a/relu_1x1
I1216 01:51:37.787214 25625 net.cpp:84] Creating Layer inception_5a/relu_1x1
I1216 01:51:37.787220 25625 net.cpp:380] inception_5a/relu_1x1 <- inception_5a/1x1
I1216 01:51:37.787228 25625 net.cpp:327] inception_5a/relu_1x1 -> inception_5a/1x1 (in-place)
I1216 01:51:37.787236 25625 net.cpp:113] Setting up inception_5a/relu_1x1
I1216 01:51:37.787322 25625 net.cpp:120] Top shape: 50 256 7 7 (627200)
I1216 01:51:37.787338 25625 layer_factory.hpp:74] Creating layer inception_5a/3x3_reduce
I1216 01:51:37.787348 25625 net.cpp:84] Creating Layer inception_5a/3x3_reduce
I1216 01:51:37.787358 25625 net.cpp:380] inception_5a/3x3_reduce <- pool4/3x3_s2_pool4/3x3_s2_0_split_1
I1216 01:51:37.787367 25625 net.cpp:338] inception_5a/3x3_reduce -> inception_5a/3x3_reduce
I1216 01:51:37.787376 25625 net.cpp:113] Setting up inception_5a/3x3_reduce
I1216 01:51:37.789338 25625 net.cpp:120] Top shape: 50 160 7 7 (392000)
I1216 01:51:37.789355 25625 layer_factory.hpp:74] Creating layer inception_5a/relu_3x3_reduce
I1216 01:51:37.789365 25625 net.cpp:84] Creating Layer inception_5a/relu_3x3_reduce
I1216 01:51:37.789371 25625 net.cpp:380] inception_5a/relu_3x3_reduce <- inception_5a/3x3_reduce
I1216 01:51:37.789378 25625 net.cpp:327] inception_5a/relu_3x3_reduce -> inception_5a/3x3_reduce (in-place)
I1216 01:51:37.789386 25625 net.cpp:113] Setting up inception_5a/relu_3x3_reduce
I1216 01:51:37.789461 25625 net.cpp:120] Top shape: 50 160 7 7 (392000)
I1216 01:51:37.789469 25625 layer_factory.hpp:74] Creating layer inception_5a/3x3
I1216 01:51:37.789477 25625 net.cpp:84] Creating Layer inception_5a/3x3
I1216 01:51:37.789482 25625 net.cpp:380] inception_5a/3x3 <- inception_5a/3x3_reduce
I1216 01:51:37.789492 25625 net.cpp:338] inception_5a/3x3 -> inception_5a/3x3
I1216 01:51:37.789500 25625 net.cpp:113] Setting up inception_5a/3x3
I1216 01:51:37.796491 25625 net.cpp:120] Top shape: 50 320 7 7 (784000)
I1216 01:51:37.796525 25625 layer_factory.hpp:74] Creating layer inception_5a/relu_3x3
I1216 01:51:37.796536 25625 net.cpp:84] Creating Layer inception_5a/relu_3x3
I1216 01:51:37.796543 25625 net.cpp:380] inception_5a/relu_3x3 <- inception_5a/3x3
I1216 01:51:37.796552 25625 net.cpp:327] inception_5a/relu_3x3 -> inception_5a/3x3 (in-place)
I1216 01:51:37.796562 25625 net.cpp:113] Setting up inception_5a/relu_3x3
I1216 01:51:37.796638 25625 net.cpp:120] Top shape: 50 320 7 7 (784000)
I1216 01:51:37.796645 25625 layer_factory.hpp:74] Creating layer inception_5a/5x5_reduce
I1216 01:51:37.796658 25625 net.cpp:84] Creating Layer inception_5a/5x5_reduce
I1216 01:51:37.796664 25625 net.cpp:380] inception_5a/5x5_reduce <- pool4/3x3_s2_pool4/3x3_s2_0_split_2
I1216 01:51:37.796671 25625 net.cpp:338] inception_5a/5x5_reduce -> inception_5a/5x5_reduce
I1216 01:51:37.796681 25625 net.cpp:113] Setting up inception_5a/5x5_reduce
I1216 01:51:37.797436 25625 net.cpp:120] Top shape: 50 32 7 7 (78400)
I1216 01:51:37.797453 25625 layer_factory.hpp:74] Creating layer inception_5a/relu_5x5_reduce
I1216 01:51:37.797462 25625 net.cpp:84] Creating Layer inception_5a/relu_5x5_reduce
I1216 01:51:37.797468 25625 net.cpp:380] inception_5a/relu_5x5_reduce <- inception_5a/5x5_reduce
I1216 01:51:37.797476 25625 net.cpp:327] inception_5a/relu_5x5_reduce -> inception_5a/5x5_reduce (in-place)
I1216 01:51:37.797483 25625 net.cpp:113] Setting up inception_5a/relu_5x5_reduce
I1216 01:51:37.797736 25625 net.cpp:120] Top shape: 50 32 7 7 (78400)
I1216 01:51:37.797749 25625 layer_factory.hpp:74] Creating layer inception_5a/5x5
I1216 01:51:37.797760 25625 net.cpp:84] Creating Layer inception_5a/5x5
I1216 01:51:37.797765 25625 net.cpp:380] inception_5a/5x5 <- inception_5a/5x5_reduce
I1216 01:51:37.797775 25625 net.cpp:338] inception_5a/5x5 -> inception_5a/5x5
I1216 01:51:37.797785 25625 net.cpp:113] Setting up inception_5a/5x5
I1216 01:51:37.799381 25625 net.cpp:120] Top shape: 50 128 7 7 (313600)
I1216 01:51:37.799397 25625 layer_factory.hpp:74] Creating layer inception_5a/relu_5x5
I1216 01:51:37.799406 25625 net.cpp:84] Creating Layer inception_5a/relu_5x5
I1216 01:51:37.799412 25625 net.cpp:380] inception_5a/relu_5x5 <- inception_5a/5x5
I1216 01:51:37.799420 25625 net.cpp:327] inception_5a/relu_5x5 -> inception_5a/5x5 (in-place)
I1216 01:51:37.799428 25625 net.cpp:113] Setting up inception_5a/relu_5x5
I1216 01:51:37.799506 25625 net.cpp:120] Top shape: 50 128 7 7 (313600)
I1216 01:51:37.799513 25625 layer_factory.hpp:74] Creating layer inception_5a/pool
I1216 01:51:37.799528 25625 layer_factory.cpp:56] CUDNN does not support padding or multiple tops. Using Caffe's own pooling layer.
I1216 01:51:37.799546 25625 net.cpp:84] Creating Layer inception_5a/pool
I1216 01:51:37.799551 25625 net.cpp:380] inception_5a/pool <- pool4/3x3_s2_pool4/3x3_s2_0_split_3
I1216 01:51:37.799559 25625 net.cpp:338] inception_5a/pool -> inception_5a/pool
I1216 01:51:37.799567 25625 net.cpp:113] Setting up inception_5a/pool
I1216 01:51:37.799576 25625 net.cpp:120] Top shape: 50 832 7 7 (2038400)
I1216 01:51:37.799582 25625 layer_factory.hpp:74] Creating layer inception_5a/pool_proj
I1216 01:51:37.799592 25625 net.cpp:84] Creating Layer inception_5a/pool_proj
I1216 01:51:37.799597 25625 net.cpp:380] inception_5a/pool_proj <- inception_5a/pool
I1216 01:51:37.799607 25625 net.cpp:338] inception_5a/pool_proj -> inception_5a/pool_proj
I1216 01:51:37.799614 25625 net.cpp:113] Setting up inception_5a/pool_proj
I1216 01:51:37.801280 25625 net.cpp:120] Top shape: 50 128 7 7 (313600)
I1216 01:51:37.801296 25625 layer_factory.hpp:74] Creating layer inception_5a/relu_pool_proj
I1216 01:51:37.801304 25625 net.cpp:84] Creating Layer inception_5a/relu_pool_proj
I1216 01:51:37.801311 25625 net.cpp:380] inception_5a/relu_pool_proj <- inception_5a/pool_proj
I1216 01:51:37.801319 25625 net.cpp:327] inception_5a/relu_pool_proj -> inception_5a/pool_proj (in-place)
I1216 01:51:37.801327 25625 net.cpp:113] Setting up inception_5a/relu_pool_proj
I1216 01:51:37.801399 25625 net.cpp:120] Top shape: 50 128 7 7 (313600)
I1216 01:51:37.801405 25625 layer_factory.hpp:74] Creating layer inception_5a/output
I1216 01:51:37.801414 25625 net.cpp:84] Creating Layer inception_5a/output
I1216 01:51:37.801419 25625 net.cpp:380] inception_5a/output <- inception_5a/1x1
I1216 01:51:37.801425 25625 net.cpp:380] inception_5a/output <- inception_5a/3x3
I1216 01:51:37.801431 25625 net.cpp:380] inception_5a/output <- inception_5a/5x5
I1216 01:51:37.801436 25625 net.cpp:380] inception_5a/output <- inception_5a/pool_proj
I1216 01:51:37.801445 25625 net.cpp:338] inception_5a/output -> inception_5a/output
I1216 01:51:37.801453 25625 net.cpp:113] Setting up inception_5a/output
I1216 01:51:37.801461 25625 net.cpp:120] Top shape: 50 832 7 7 (2038400)
I1216 01:51:37.801466 25625 layer_factory.hpp:74] Creating layer inception_5a/output_inception_5a/output_0_split
I1216 01:51:37.801473 25625 net.cpp:84] Creating Layer inception_5a/output_inception_5a/output_0_split
I1216 01:51:37.801478 25625 net.cpp:380] inception_5a/output_inception_5a/output_0_split <- inception_5a/output
I1216 01:51:37.801486 25625 net.cpp:338] inception_5a/output_inception_5a/output_0_split -> inception_5a/output_inception_5a/output_0_split_0
I1216 01:51:37.801494 25625 net.cpp:338] inception_5a/output_inception_5a/output_0_split -> inception_5a/output_inception_5a/output_0_split_1
I1216 01:51:37.801502 25625 net.cpp:338] inception_5a/output_inception_5a/output_0_split -> inception_5a/output_inception_5a/output_0_split_2
I1216 01:51:37.801509 25625 net.cpp:338] inception_5a/output_inception_5a/output_0_split -> inception_5a/output_inception_5a/output_0_split_3
I1216 01:51:37.801517 25625 net.cpp:113] Setting up inception_5a/output_inception_5a/output_0_split
I1216 01:51:37.801523 25625 net.cpp:120] Top shape: 50 832 7 7 (2038400)
I1216 01:51:37.801529 25625 net.cpp:120] Top shape: 50 832 7 7 (2038400)
I1216 01:51:37.801534 25625 net.cpp:120] Top shape: 50 832 7 7 (2038400)
I1216 01:51:37.801539 25625 net.cpp:120] Top shape: 50 832 7 7 (2038400)
I1216 01:51:37.801544 25625 layer_factory.hpp:74] Creating layer inception_5b/1x1_kaggle
I1216 01:51:37.801554 25625 net.cpp:84] Creating Layer inception_5b/1x1_kaggle
I1216 01:51:37.801559 25625 net.cpp:380] inception_5b/1x1_kaggle <- inception_5a/output_inception_5a/output_0_split_0
I1216 01:51:37.801566 25625 net.cpp:338] inception_5b/1x1_kaggle -> inception_5b/1x1_kaggle
I1216 01:51:37.801579 25625 net.cpp:113] Setting up inception_5b/1x1_kaggle
I1216 01:51:37.805668 25625 net.cpp:120] Top shape: 50 384 7 7 (940800)
I1216 01:51:37.805692 25625 layer_factory.hpp:74] Creating layer inception_5b/relu_1x1_kaggle
I1216 01:51:37.805711 25625 net.cpp:84] Creating Layer inception_5b/relu_1x1_kaggle
I1216 01:51:37.805717 25625 net.cpp:380] inception_5b/relu_1x1_kaggle <- inception_5b/1x1_kaggle
I1216 01:51:37.805724 25625 net.cpp:327] inception_5b/relu_1x1_kaggle -> inception_5b/1x1_kaggle (in-place)
I1216 01:51:37.805732 25625 net.cpp:113] Setting up inception_5b/relu_1x1_kaggle
I1216 01:51:37.805811 25625 net.cpp:120] Top shape: 50 384 7 7 (940800)
I1216 01:51:37.805819 25625 layer_factory.hpp:74] Creating layer inception_5b/3x3_reduce_kaggle
I1216 01:51:37.805826 25625 net.cpp:84] Creating Layer inception_5b/3x3_reduce_kaggle
I1216 01:51:37.805832 25625 net.cpp:380] inception_5b/3x3_reduce_kaggle <- inception_5a/output_inception_5a/output_0_split_1
I1216 01:51:37.805841 25625 net.cpp:338] inception_5b/3x3_reduce_kaggle -> inception_5b/3x3_reduce_kaggle
I1216 01:51:37.805850 25625 net.cpp:113] Setting up inception_5b/3x3_reduce_kaggle
I1216 01:51:37.808107 25625 net.cpp:120] Top shape: 50 192 7 7 (470400)
I1216 01:51:37.808123 25625 layer_factory.hpp:74] Creating layer inception_5b/relu_3x3_reduce_kaggle
I1216 01:51:37.808132 25625 net.cpp:84] Creating Layer inception_5b/relu_3x3_reduce_kaggle
I1216 01:51:37.808140 25625 net.cpp:380] inception_5b/relu_3x3_reduce_kaggle <- inception_5b/3x3_reduce_kaggle
I1216 01:51:37.808146 25625 net.cpp:327] inception_5b/relu_3x3_reduce_kaggle -> inception_5b/3x3_reduce_kaggle (in-place)
I1216 01:51:37.808154 25625 net.cpp:113] Setting up inception_5b/relu_3x3_reduce_kaggle
I1216 01:51:37.808408 25625 net.cpp:120] Top shape: 50 192 7 7 (470400)
I1216 01:51:37.808419 25625 layer_factory.hpp:74] Creating layer inception_5b/3x3_kaggle
I1216 01:51:37.808430 25625 net.cpp:84] Creating Layer inception_5b/3x3_kaggle
I1216 01:51:37.808437 25625 net.cpp:380] inception_5b/3x3_kaggle <- inception_5b/3x3_reduce_kaggle
I1216 01:51:37.808446 25625 net.cpp:338] inception_5b/3x3_kaggle -> inception_5b/3x3_kaggle
I1216 01:51:37.808455 25625 net.cpp:113] Setting up inception_5b/3x3_kaggle
I1216 01:51:37.816510 25625 net.cpp:120] Top shape: 50 384 7 7 (940800)
I1216 01:51:37.816529 25625 layer_factory.hpp:74] Creating layer inception_5b/relu_3x3_kaggle
I1216 01:51:37.816537 25625 net.cpp:84] Creating Layer inception_5b/relu_3x3_kaggle
I1216 01:51:37.816545 25625 net.cpp:380] inception_5b/relu_3x3_kaggle <- inception_5b/3x3_kaggle
I1216 01:51:37.816551 25625 net.cpp:327] inception_5b/relu_3x3_kaggle -> inception_5b/3x3_kaggle (in-place)
I1216 01:51:37.816561 25625 net.cpp:113] Setting up inception_5b/relu_3x3_kaggle
I1216 01:51:37.816634 25625 net.cpp:120] Top shape: 50 384 7 7 (940800)
I1216 01:51:37.816642 25625 layer_factory.hpp:74] Creating layer inception_5b/5x5_reduce_kaggle
I1216 01:51:37.816651 25625 net.cpp:84] Creating Layer inception_5b/5x5_reduce_kaggle
I1216 01:51:37.816658 25625 net.cpp:380] inception_5b/5x5_reduce_kaggle <- inception_5a/output_inception_5a/output_0_split_2
I1216 01:51:37.816666 25625 net.cpp:338] inception_5b/5x5_reduce_kaggle -> inception_5b/5x5_reduce_kaggle
I1216 01:51:37.816674 25625 net.cpp:113] Setting up inception_5b/5x5_reduce_kaggle
I1216 01:51:37.817566 25625 net.cpp:120] Top shape: 50 48 7 7 (117600)
I1216 01:51:37.817584 25625 layer_factory.hpp:74] Creating layer inception_5b/relu_5x5_reduce_kaggle
I1216 01:51:37.817594 25625 net.cpp:84] Creating Layer inception_5b/relu_5x5_reduce_kaggle
I1216 01:51:37.817600 25625 net.cpp:380] inception_5b/relu_5x5_reduce_kaggle <- inception_5b/5x5_reduce_kaggle
I1216 01:51:37.817606 25625 net.cpp:327] inception_5b/relu_5x5_reduce_kaggle -> inception_5b/5x5_reduce_kaggle (in-place)
I1216 01:51:37.817615 25625 net.cpp:113] Setting up inception_5b/relu_5x5_reduce_kaggle
I1216 01:51:37.817690 25625 net.cpp:120] Top shape: 50 48 7 7 (117600)
I1216 01:51:37.817698 25625 layer_factory.hpp:74] Creating layer inception_5b/5x5_kaggle
I1216 01:51:37.817706 25625 net.cpp:84] Creating Layer inception_5b/5x5_kaggle
I1216 01:51:37.817719 25625 net.cpp:380] inception_5b/5x5_kaggle <- inception_5b/5x5_reduce_kaggle
I1216 01:51:37.817736 25625 net.cpp:338] inception_5b/5x5_kaggle -> inception_5b/5x5_kaggle
I1216 01:51:37.817745 25625 net.cpp:113] Setting up inception_5b/5x5_kaggle
I1216 01:51:37.819937 25625 net.cpp:120] Top shape: 50 128 7 7 (313600)
I1216 01:51:37.819953 25625 layer_factory.hpp:74] Creating layer inception_5b/relu_5x5_kaggle
I1216 01:51:37.819962 25625 net.cpp:84] Creating Layer inception_5b/relu_5x5_kaggle
I1216 01:51:37.819967 25625 net.cpp:380] inception_5b/relu_5x5_kaggle <- inception_5b/5x5_kaggle
I1216 01:51:37.819974 25625 net.cpp:327] inception_5b/relu_5x5_kaggle -> inception_5b/5x5_kaggle (in-place)
I1216 01:51:37.819983 25625 net.cpp:113] Setting up inception_5b/relu_5x5_kaggle
I1216 01:51:37.820232 25625 net.cpp:120] Top shape: 50 128 7 7 (313600)
I1216 01:51:37.820245 25625 layer_factory.hpp:74] Creating layer inception_5b/pool_kaggle
I1216 01:51:37.820250 25625 layer_factory.cpp:56] CUDNN does not support padding or multiple tops. Using Caffe's own pooling layer.
I1216 01:51:37.820258 25625 net.cpp:84] Creating Layer inception_5b/pool_kaggle
I1216 01:51:37.820264 25625 net.cpp:380] inception_5b/pool_kaggle <- inception_5a/output_inception_5a/output_0_split_3
I1216 01:51:37.820272 25625 net.cpp:338] inception_5b/pool_kaggle -> inception_5b/pool_kaggle
I1216 01:51:37.820281 25625 net.cpp:113] Setting up inception_5b/pool_kaggle
I1216 01:51:37.820289 25625 net.cpp:120] Top shape: 50 832 7 7 (2038400)
I1216 01:51:37.820296 25625 layer_factory.hpp:74] Creating layer inception_5b/pool_proj_kaggle
I1216 01:51:37.820304 25625 net.cpp:84] Creating Layer inception_5b/pool_proj_kaggle
I1216 01:51:37.820310 25625 net.cpp:380] inception_5b/pool_proj_kaggle <- inception_5b/pool_kaggle
I1216 01:51:37.820317 25625 net.cpp:338] inception_5b/pool_proj_kaggle -> inception_5b/pool_proj_kaggle
I1216 01:51:37.820325 25625 net.cpp:113] Setting up inception_5b/pool_proj_kaggle
I1216 01:51:37.821981 25625 net.cpp:120] Top shape: 50 128 7 7 (313600)
I1216 01:51:37.821998 25625 layer_factory.hpp:74] Creating layer inception_5b/relu_pool_proj_kaggle
I1216 01:51:37.822005 25625 net.cpp:84] Creating Layer inception_5b/relu_pool_proj_kaggle
I1216 01:51:37.822011 25625 net.cpp:380] inception_5b/relu_pool_proj_kaggle <- inception_5b/pool_proj_kaggle
I1216 01:51:37.822022 25625 net.cpp:327] inception_5b/relu_pool_proj_kaggle -> inception_5b/pool_proj_kaggle (in-place)
I1216 01:51:37.822031 25625 net.cpp:113] Setting up inception_5b/relu_pool_proj_kaggle
I1216 01:51:37.822103 25625 net.cpp:120] Top shape: 50 128 7 7 (313600)
I1216 01:51:37.822110 25625 layer_factory.hpp:74] Creating layer inception_5b/output_kaggle
I1216 01:51:37.822118 25625 net.cpp:84] Creating Layer inception_5b/output_kaggle
I1216 01:51:37.822124 25625 net.cpp:380] inception_5b/output_kaggle <- inception_5b/1x1_kaggle
I1216 01:51:37.822129 25625 net.cpp:380] inception_5b/output_kaggle <- inception_5b/3x3_kaggle
I1216 01:51:37.822135 25625 net.cpp:380] inception_5b/output_kaggle <- inception_5b/5x5_kaggle
I1216 01:51:37.822140 25625 net.cpp:380] inception_5b/output_kaggle <- inception_5b/pool_proj_kaggle
I1216 01:51:37.822149 25625 net.cpp:338] inception_5b/output_kaggle -> inception_5b/output_kaggle
I1216 01:51:37.822157 25625 net.cpp:113] Setting up inception_5b/output_kaggle
I1216 01:51:37.822165 25625 net.cpp:120] Top shape: 50 1024 7 7 (2508800)
I1216 01:51:37.822170 25625 layer_factory.hpp:74] Creating layer pool5/7x7_s1
I1216 01:51:37.822177 25625 net.cpp:84] Creating Layer pool5/7x7_s1
I1216 01:51:37.822182 25625 net.cpp:380] pool5/7x7_s1 <- inception_5b/output_kaggle
I1216 01:51:37.822190 25625 net.cpp:338] pool5/7x7_s1 -> pool5/7x7_s1
I1216 01:51:37.822197 25625 net.cpp:113] Setting up pool5/7x7_s1
I1216 01:51:37.822271 25625 net.cpp:120] Top shape: 50 1024 1 1 (51200)
I1216 01:51:37.822278 25625 layer_factory.hpp:74] Creating layer pool5/drop_7x7_s1
I1216 01:51:37.822285 25625 net.cpp:84] Creating Layer pool5/drop_7x7_s1
I1216 01:51:37.822291 25625 net.cpp:380] pool5/drop_7x7_s1 <- pool5/7x7_s1
I1216 01:51:37.822302 25625 net.cpp:327] pool5/drop_7x7_s1 -> pool5/7x7_s1 (in-place)
I1216 01:51:37.822317 25625 net.cpp:113] Setting up pool5/drop_7x7_s1
I1216 01:51:37.822325 25625 net.cpp:120] Top shape: 50 1024 1 1 (51200)
I1216 01:51:37.822330 25625 layer_factory.hpp:74] Creating layer loss3/classifier_kaggle
I1216 01:51:37.822342 25625 net.cpp:84] Creating Layer loss3/classifier_kaggle
I1216 01:51:37.822347 25625 net.cpp:380] loss3/classifier_kaggle <- pool5/7x7_s1
I1216 01:51:37.822355 25625 net.cpp:338] loss3/classifier_kaggle -> loss3/classifier_kaggle
I1216 01:51:37.822363 25625 net.cpp:113] Setting up loss3/classifier_kaggle
I1216 01:51:37.827623 25625 net.cpp:120] Top shape: 50 447 (22350)
I1216 01:51:37.827636 25625 layer_factory.hpp:74] Creating layer loss3/classifier_kaggle_loss3/classifier_kaggle_0_split
I1216 01:51:37.827646 25625 net.cpp:84] Creating Layer loss3/classifier_kaggle_loss3/classifier_kaggle_0_split
I1216 01:51:37.827651 25625 net.cpp:380] loss3/classifier_kaggle_loss3/classifier_kaggle_0_split <- loss3/classifier_kaggle
I1216 01:51:37.827659 25625 net.cpp:338] loss3/classifier_kaggle_loss3/classifier_kaggle_0_split -> loss3/classifier_kaggle_loss3/classifier_kaggle_0_split_0
I1216 01:51:37.827667 25625 net.cpp:338] loss3/classifier_kaggle_loss3/classifier_kaggle_0_split -> loss3/classifier_kaggle_loss3/classifier_kaggle_0_split_1
I1216 01:51:37.827677 25625 net.cpp:338] loss3/classifier_kaggle_loss3/classifier_kaggle_0_split -> loss3/classifier_kaggle_loss3/classifier_kaggle_0_split_2
I1216 01:51:37.827684 25625 net.cpp:113] Setting up loss3/classifier_kaggle_loss3/classifier_kaggle_0_split
I1216 01:51:37.827692 25625 net.cpp:120] Top shape: 50 447 (22350)
I1216 01:51:37.827697 25625 net.cpp:120] Top shape: 50 447 (22350)
I1216 01:51:37.827702 25625 net.cpp:120] Top shape: 50 447 (22350)
I1216 01:51:37.827708 25625 layer_factory.hpp:74] Creating layer loss3/loss3
I1216 01:51:37.827715 25625 net.cpp:84] Creating Layer loss3/loss3
I1216 01:51:37.827720 25625 net.cpp:380] loss3/loss3 <- loss3/classifier_kaggle_loss3/classifier_kaggle_0_split_0
I1216 01:51:37.827726 25625 net.cpp:380] loss3/loss3 <- label_data_1_split_6
I1216 01:51:37.827734 25625 net.cpp:338] loss3/loss3 -> loss3/loss3
…
