…
I1230 19:22:09.449276 31124 net.cpp:257] The NetState phase (0) differed from the phase (1) specified by a rule in layer loss3/top-5
I1230 19:22:09.451006 31124 net.cpp:42] Initializing net from parameters: 
name: "MYNET"
state {
  phase: TRAIN
}
layer {
  name: "data"
  type: "ImageData"
  top: "data"
  top: "label"
  include {
    phase: TRAIN
  }
  transform_param {
    mirror: false
    crop_size: 224
    mean_value: 129
    mean_value: 129
    mean_value: 129
  }
  image_data_param {
    source: "/home/coldmanck/kaggle/label_train_full_resize.txt"
    batch_size: 80
    shuffle: true
  }
}
layer {
  name: "conv1/7x7_s2"
  type: "Convolution"
  bottom: "data"
  top: "conv1/7x7_s2"
  param {
    lr_mult: 1
    decay_mult: 1
  }
  param {
    lr_mult: 2
    decay_mult: 0
  }
  convolution_param {
    num_output: 64
    pad: 3
    kernel_size: 7
    stride: 2
    weight_filler {
      type: "xavier"
    }
    bias_filler {
      type: "constant"
      value: 0.2
    }
  }
}
layer {
  name: "conv1/relu_7x7"
  type: "ReLU"
  bottom: "conv1/7x7_s2"
  top: "conv1/7x7_s2"
}
layer {
  name: "pool1/3x3_s2"
  type: "Pooling"
  bottom: "conv1/7x7_s2"
  top: "pool1/3x3_s2"
  pooling_param {
    pool: MAX
    kernel_size: 3
    stride: 2
  }
}
layer {
  name: "pool1/norm1"
  type: "LRN"
  bottom: "pool1/3x3_s2"
  top: "pool1/norm1"
  lrn_param {
    local_size: 5
    alpha: 0.0001
    beta: 0.75
  }
}
layer {
  name: "conv2/3x3_reduce"
  type: "Convolution"
  bottom: "pool1/norm1"
  top: "conv2/3x3_reduce"
  param {
    lr_mult: 1
    decay_mult: 1
  }
  param {
    lr_mult: 2
    decay_mult: 0
  }
  convolution_param {
    num_output: 64
    kernel_size: 1
    weight_filler {
      type: "xavier"
    }
    bias_filler {
      type: "constant"
      value: 0.2
    }
  }
}
layer {
  name: "conv2/relu_3x3_reduce"
  type: "ReLU"
  bottom: "conv2/3x3_reduce"
  top: "conv2/3x3_reduce"
}
layer {
  name: "conv2/3x3"
  type: "Convolution"
  bottom: "conv2/3x3_reduce"
  top: "conv2/3x3"
  param {
    lr_mult: 1
    decay_mult: 1
  }
  param {
    lr_mult: 2
    decay_mult: 0
  }
  convolution_param {
    num_output: 192
    pad: 1
    kernel_size: 3
    weight_filler {
      type: "xavier"
    }
    bias_filler {
      type: "constant"
      value: 0.2
    }
  }
}
layer {
  name: "conv2/relu_3x3"
  type: "ReLU"
  bottom: "conv2/3x3"
  top: "conv2/3x3"
}
layer {
  name: "conv2/norm2"
  type: "LRN"
  bottom: "conv2/3x3"
  top: "conv2/norm2"
  lrn_param {
    local_size: 5
    alpha: 0.0001
    beta: 0.75
  }
}
layer {
  name: "pool2/3x3_s2"
  type: "Pooling"
  bottom: "conv2/norm2"
  top: "pool2/3x3_s2"
  pooling_param {
    pool: MAX
    kernel_size: 3
    stride: 2
  }
}
layer {
  name: "inception_3a/1x1"
  type: "Convolution"
  bottom: "pool2/3x3_s2"
  top: "inception_3a/1x1"
  param {
    lr_mult: 1
    decay_mult: 1
  }
  param {
    lr_mult: 2
    decay_mult: 0
  }
  convolution_param {
    num_output: 64
    kernel_size: 1
    weight_filler {
      type: "xavier"
    }
    bias_filler {
      type: "constant"
      value: 0.2
    }
  }
}
layer {
  name: "inception_3a/relu_1x1"
  type: "ReLU"
  bottom: "inception_3a/1x1"
  top: "inception_3a/1x1"
}
layer {
  name: "inception_3a/3x3_reduce"
  type: "Convolution"
  bottom: "pool2/3x3_s2"
  top: "inception_3a/3x3_reduce"
  param {
    lr_mult: 1
    decay_mult: 1
  }
  param {
    lr_mult: 2
    decay_mult: 0
  }
  convolution_param {
    num_output: 96
    kernel_size: 1
    weight_filler {
      type: "xavier"
    }
    bias_filler {
      type: "constant"
      value: 0.2
    }
  }
}
layer {
  name: "inception_3a/relu_3x3_reduce"
  type: "ReLU"
  bottom: "inception_3a/3x3_reduce"
  top: "inception_3a/3x3_reduce"
}
layer {
  name: "inception_3a/3x3"
  type: "Convolution"
  bottom: "inception_3a/3x3_reduce"
  top: "inception_3a/3x3"
  param {
    lr_mult: 1
    decay_mult: 1
  }
  param {
    lr_mult: 2
    decay_mult: 0
  }
  convolution_param {
    num_output: 128
    pad: 1
    kernel_size: 3
    weight_filler {
      type: "xavier"
    }
    bias_filler {
      type: "constant"
      value: 0.2
    }
  }
}
layer {
  name: "inception_3a/relu_3x3"
  type: "ReLU"
  bottom: "inception_3a/3x3"
  top: "inception_3a/3x3"
}
layer {
  name: "inception_3a/5x5_reduce"
  type: "Convolution"
  bottom: "pool2/3x3_s2"
  top: "inception_3a/5x5_reduce"
  param {
    lr_mult: 1
    decay_mult: 1
  }
  param {
    lr_mult: 2
    decay_mult: 0
  }
  convolution_param {
    num_output: 16
    kernel_size: 1
    weight_filler {
      type: "xavier"
    }
    bias_filler {
      type: "constant"
      value: 0.2
    }
  }
}
layer {
  name: "inception_3a/relu_5x5_reduce"
  type: "ReLU"
  bottom: "inception_3a/5x5_reduce"
  top: "inception_3a/5x5_reduce"
}
layer {
  name: "inception_3a/5x5"
  type: "Convolution"
  bottom: "inception_3a/5x5_reduce"
  top: "inception_3a/5x5"
  param {
    lr_mult: 1
    decay_mult: 1
  }
  param {
    lr_mult: 2
    decay_mult: 0
  }
  convolution_param {
    num_output: 32
    pad: 2
    kernel_size: 5
    weight_filler {
      type: "xavier"
    }
    bias_filler {
      type: "constant"
      value: 0.2
    }
  }
}
layer {
  name: "inception_3a/relu_5x5"
  type: "ReLU"
  bottom: "inception_3a/5x5"
  top: "inception_3a/5x5"
}
layer {
  name: "inception_3a/pool"
  type: "Pooling"
  bottom: "pool2/3x3_s2"
  top: "inception_3a/pool"
  pooling_param {
    pool: MAX
    kernel_size: 3
    stride: 1
    pad: 1
  }
}
layer {
  name: "inception_3a/pool_proj"
  type: "Convolution"
  bottom: "inception_3a/pool"
  top: "inception_3a/pool_proj"
  param {
    lr_mult: 1
    decay_mult: 1
  }
  param {
    lr_mult: 2
    decay_mult: 0
  }
  convolution_param {
    num_output: 32
    kernel_size: 1
    weight_filler {
      type: "xavier"
    }
    bias_filler {
      type: "constant"
      value: 0.2
    }
  }
}
layer {
  name: "inception_3a/relu_pool_proj"
  type: "ReLU"
  bottom: "inception_3a/pool_proj"
  top: "inception_3a/pool_proj"
}
layer {
  name: "inception_3a/output"
  type: "Concat"
  bottom: "inception_3a/1x1"
  bottom: "inception_3a/3x3"
  bottom: "inception_3a/5x5"
  bottom: "inception_3a/pool_proj"
  top: "inception_3a/output"
}
layer {
  name: "inception_3b/1x1"
  type: "Convolution"
  bottom: "inception_3a/output"
  top: "inception_3b/1x1"
  param {
    lr_mult: 1
    decay_mult: 1
  }
  param {
    lr_mult: 2
    decay_mult: 0
  }
  convolution_param {
    num_output: 128
    kernel_size: 1
    weight_filler {
      type: "xavier"
    }
    bias_filler {
      type: "constant"
      value: 0.2
    }
  }
}
layer {
  name: "inception_3b/relu_1x1"
  type: "ReLU"
  bottom: "inception_3b/1x1"
  top: "inception_3b/1x1"
}
layer {
  name: "inception_3b/3x3_reduce"
  type: "Convolution"
  bottom: "inception_3a/output"
  top: "inception_3b/3x3_reduce"
  param {
    lr_mult: 1
    decay_mult: 1
  }
  param {
    lr_mult: 2
    decay_mult: 0
  }
  convolution_param {
    num_output: 128
    kernel_size: 1
    weight_filler {
      type: "xavier"
    }
    bias_filler {
      type: "constant"
      value: 0.2
    }
  }
}
layer {
  name: "inception_3b/relu_3x3_reduce"
  type: "ReLU"
  bottom: "inception_3b/3x3_reduce"
  top: "inception_3b/3x3_reduce"
}
layer {
  name: "inception_3b/3x3"
  type: "Convolution"
  bottom: "inception_3b/3x3_reduce"
  top: "inception_3b/3x3"
  param {
    lr_mult: 1
    decay_mult: 1
  }
  param {
    lr_mult: 2
    decay_mult: 0
  }
  convolution_param {
    num_output: 192
    pad: 1
    kernel_size: 3
    weight_filler {
      type: "xavier"
    }
    bias_filler {
      type: "constant"
      value: 0.2
    }
  }
}
layer {
  name: "inception_3b/relu_3x3"
  type: "ReLU"
  bottom: "inception_3b/3x3"
  top: "inception_3b/3x3"
}
layer {
  name: "inception_3b/5x5_reduce"
  type: "Convolution"
  bottom: "inception_3a/output"
  top: "inception_3b/5x5_reduce"
  param {
    lr_mult: 1
    decay_mult: 1
  }
  param {
    lr_mult: 2
    decay_mult: 0
  }
  convolution_param {
    num_output: 32
    kernel_size: 1
    weight_filler {
      type: "xavier"
    }
    bias_filler {
      type: "constant"
      value: 0.2
    }
  }
}
layer {
  name: "inception_3b/relu_5x5_reduce"
  type: "ReLU"
  bottom: "inception_3b/5x5_reduce"
  top: "inception_3b/5x5_reduce"
}
layer {
  name: "inception_3b/5x5"
  type: "Convolution"
  bottom: "inception_3b/5x5_reduce"
  top: "inception_3b/5x5"
  param {
    lr_mult: 1
    decay_mult: 1
  }
  param {
    lr_mult: 2
    decay_mult: 0
  }
  convolution_param {
    num_output: 96
    pad: 2
    kernel_size: 5
    weight_filler {
      type: "xavier"
    }
    bias_filler {
      type: "constant"
      value: 0.2
    }
  }
}
layer {
  name: "inception_3b/relu_5x5"
  type: "ReLU"
  bottom: "inception_3b/5x5"
  top: "inception_3b/5x5"
}
layer {
  name: "inception_3b/pool"
  type: "Pooling"
  bottom: "inception_3a/output"
  top: "inception_3b/pool"
  pooling_param {
    pool: MAX
    kernel_size: 3
    stride: 1
    pad: 1
  }
}
layer {
  name: "inception_3b/pool_proj"
  type: "Convolution"
  bottom: "inception_3b/pool"
  top: "inception_3b/pool_proj"
  param {
    lr_mult: 1
    decay_mult: 1
  }
  param {
    lr_mult: 2
    decay_mult: 0
  }
  convolution_param {
    num_output: 64
    kernel_size: 1
    weight_filler {
      type: "xavier"
    }
    bias_filler {
      type: "constant"
      value: 0.2
    }
  }
}
layer {
  name: "inception_3b/relu_pool_proj"
  type: "ReLU"
  bottom: "inception_3b/pool_proj"
  top: "inception_3b/pool_proj"
}
layer {
  name: "inception_3b/output"
  type: "Concat"
  bottom: "inception_3b/1x1"
  bottom: "inception_3b/3x3"
  bottom: "inception_3b/5x5"
  bottom: "inception_3b/pool_proj"
  top: "inception_3b/output"
}
layer {
  name: "pool3/3x3_s2"
  type: "Pooling"
  bottom: "inception_3b/output"
  top: "pool3/3x3_s2"
  pooling_param {
    pool: MAX
    kernel_size: 3
    stride: 2
  }
}
layer {
  name: "inception_4a/1x1"
  type: "Convolution"
  bottom: "pool3/3x3_s2"
  top: "inception_4a/1x1"
  param {
    lr_mult: 1
    decay_mult: 1
  }
  param {
    lr_mult: 2
    decay_mult: 0
  }
  convolution_param {
    num_output: 192
    kernel_size: 1
    weight_filler {
      type: "xavier"
    }
    bias_filler {
      type: "constant"
      value: 0.2
    }
  }
}
layer {
  name: "inception_4a/relu_1x1"
  type: "ReLU"
  bottom: "inception_4a/1x1"
  top: "inception_4a/1x1"
}
layer {
  name: "inception_4a/3x3_reduce"
  type: "Convolution"
  bottom: "pool3/3x3_s2"
  top: "inception_4a/3x3_reduce"
  param {
    lr_mult: 1
    decay_mult: 1
  }
  param {
    lr_mult: 2
    decay_mult: 0
  }
  convolution_param {
    num_output: 96
    kernel_size: 1
    weight_filler {
      type: "xavier"
    }
    bias_filler {
      type: "constant"
      value: 0.2
    }
  }
}
layer {
  name: "inception_4a/relu_3x3_reduce"
  type: "ReLU"
  bottom: "inception_4a/3x3_reduce"
  top: "inception_4a/3x3_reduce"
}
layer {
  name: "inception_4a/3x3"
  type: "Convolution"
  bottom: "inception_4a/3x3_reduce"
  top: "inception_4a/3x3"
  param {
    lr_mult: 1
    decay_mult: 1
  }
  param {
    lr_mult: 2
    decay_mult: 0
  }
  convolution_param {
    num_output: 208
    pad: 1
    kernel_size: 3
    weight_filler {
      type: "xavier"
    }
    bias_filler {
      type: "constant"
      value: 0.2
    }
  }
}
layer {
  name: "inception_4a/relu_3x3"
  type: "ReLU"
  bottom: "inception_4a/3x3"
  top: "inception_4a/3x3"
}
layer {
  name: "inception_4a/5x5_reduce"
  type: "Convolution"
  bottom: "pool3/3x3_s2"
  top: "inception_4a/5x5_reduce"
  param {
    lr_mult: 1
    decay_mult: 1
  }
  param {
    lr_mult: 2
    decay_mult: 0
  }
  convolution_param {
    num_output: 16
    kernel_size: 1
    weight_filler {
      type: "xavier"
    }
    bias_filler {
      type: "constant"
      value: 0.2
    }
  }
}
layer {
  name: "inception_4a/relu_5x5_reduce"
  type: "ReLU"
  bottom: "inception_4a/5x5_reduce"
  top: "inception_4a/5x5_reduce"
}
layer {
  name: "inception_4a/5x5"
  type: "Convolution"
  bottom: "inception_4a/5x5_reduce"
  top: "inception_4a/5x5"
  param {
    lr_mult: 1
    decay_mult: 1
  }
  param {
    lr_mult: 2
    decay_mult: 0
  }
  convolution_param {
    num_output: 48
    pad: 2
    kernel_size: 5
    weight_filler {
      type: "xavier"
    }
    bias_filler {
      type: "constant"
      value: 0.2
    }
  }
}
layer {
  name: "inception_4a/relu_5x5"
  type: "ReLU"
  bottom: "inception_4a/5x5"
  top: "inception_4a/5x5"
}
layer {
  name: "inception_4a/pool"
  type: "Pooling"
  bottom: "pool3/3x3_s2"
  top: "inception_4a/pool"
  pooling_param {
    pool: MAX
    kernel_size: 3
    stride: 1
    pad: 1
  }
}
layer {
  name: "inception_4a/pool_proj"
  type: "Convolution"
  bottom: "inception_4a/pool"
  top: "inception_4a/pool_proj"
  param {
    lr_mult: 1
    decay_mult: 1
  }
  param {
    lr_mult: 2
    decay_mult: 0
  }
  convolution_param {
    num_output: 64
    kernel_size: 1
    weight_filler {
      type: "xavier"
    }
    bias_filler {
      type: "constant"
      value: 0.2
    }
  }
}
layer {
  name: "inception_4a/relu_pool_proj"
  type: "ReLU"
  bottom: "inception_4a/pool_proj"
  top: "inception_4a/pool_proj"
}
layer {
  name: "inception_4a/output"
  type: "Concat"
  bottom: "inception_4a/1x1"
  bottom: "inception_4a/3x3"
  bottom: "inception_4a/5x5"
  bottom: "inception_4a/pool_proj"
  top: "inception_4a/output"
}
layer {
  name: "loss1/ave_pool"
  type: "Pooling"
  bottom: "inception_4a/output"
  top: "loss1/ave_pool"
  pooling_param {
    pool: AVE
    kernel_size: 5
    stride: 3
  }
}
layer {
  name: "loss1/conv"
  type: "Convolution"
  bottom: "loss1/ave_pool"
  top: "loss1/conv"
  param {
    lr_mult: 1
    decay_mult: 1
  }
  param {
    lr_mult: 2
    decay_mult: 0
  }
  convolution_param {
    num_output: 128
    kernel_size: 1
    weight_filler {
      type: "xavier"
    }
    bias_filler {
      type: "constant"
      value: 0.2
    }
  }
}
layer {
  name: "loss1/relu_conv"
  type: "ReLU"
  bottom: "loss1/conv"
  top: "loss1/conv"
}
layer {
  name: "loss1/fc"
  type: "InnerProduct"
  bottom: "loss1/conv"
  top: "loss1/fc"
  param {
    lr_mult: 1
    decay_mult: 1
  }
  param {
    lr_mult: 2
    decay_mult: 0
  }
  inner_product_param {
    num_output: 1024
    weight_filler {
      type: "xavier"
    }
    bias_filler {
      type: "constant"
      value: 0.2
    }
  }
}
layer {
  name: "loss1/relu_fc"
  type: "ReLU"
  bottom: "loss1/fc"
  top: "loss1/fc"
}
layer {
  name: "loss1/drop_fc"
  type: "Dropout"
  bottom: "loss1/fc"
  top: "loss1/fc"
  dropout_param {
    dropout_ratio: 0.7
  }
}
layer {
  name: "loss1/classifier_kaggle"
  type: "InnerProduct"
  bottom: "loss1/fc"
  top: "loss1/classifier_kaggle"
  param {
    lr_mult: 1
    decay_mult: 1
  }
  param {
    lr_mult: 2
    decay_mult: 0
  }
  inner_product_param {
    num_output: 447
    weight_filler {
      type: "xavier"
    }
    bias_filler {
      type: "constant"
      value: 0
    }
  }
}
layer {
  name: "loss1/loss"
  type: "SoftmaxWithLoss"
  bottom: "loss1/classifier_kaggle"
  bottom: "label"
  top: "loss1/loss1"
  loss_weight: 0.3
}
layer {
  name: "inception_4b/1x1"
  type: "Convolution"
  bottom: "inception_4a/output"
  top: "inception_4b/1x1"
  param {
    lr_mult: 1
    decay_mult: 1
  }
  param {
    lr_mult: 2
    decay_mult: 0
  }
  convolution_param {
    num_output: 160
    kernel_size: 1
    weight_filler {
      type: "xavier"
    }
    bias_filler {
      type: "constant"
      value: 0.2
    }
  }
}
layer {
  name: "inception_4b/relu_1x1"
  type: "ReLU"
  bottom: "inception_4b/1x1"
  top: "inception_4b/1x1"
}
layer {
  name: "inception_4b/3x3_reduce"
  type: "Convolution"
  bottom: "inception_4a/output"
  top: "inception_4b/3x3_reduce"
  param {
    lr_mult: 1
    decay_mult: 1
  }
  param {
    lr_mult: 2
    decay_mult: 0
  }
  convolution_param {
    num_output: 112
    kernel_size: 1
    weight_filler {
      type: "xavier"
    }
    bias_filler {
      type: "constant"
      value: 0.2
    }
  }
}
layer {
  name: "inception_4b/relu_3x3_reduce"
  type: "ReLU"
  bottom: "inception_4b/3x3_reduce"
  top: "inception_4b/3x3_reduce"
}
layer {
  name: "inception_4b/3x3"
  type: "Convolution"
  bottom: "inception_4b/3x3_reduce"
  top: "inception_4b/3x3"
  param {
    lr_mult: 1
    decay_mult: 1
  }
  param {
    lr_mult: 2
    decay_mult: 0
  }
  convolution_param {
    num_output: 224
    pad: 1
    kernel_size: 3
    weight_filler {
      type: "xavier"
    }
    bias_filler {
      type: "constant"
      value: 0.2
    }
  }
}
layer {
  name: "inception_4b/relu_3x3"
  type: "ReLU"
  bottom: "inception_4b/3x3"
  top: "inception_4b/3x3"
}
layer {
  name: "inception_4b/5x5_reduce"
  type: "Convolution"
  bottom: "inception_4a/output"
  top: "inception_4b/5x5_reduce"
  param {
    lr_mult: 1
    decay_mult: 1
  }
  param {
    lr_mult: 2
    decay_mult: 0
  }
  convolution_param {
    num_output: 24
    kernel_size: 1
    weight_filler {
      type: "xavier"
    }
    bias_filler {
      type: "constant"
      value: 0.2
    }
  }
}
layer {
  name: "inception_4b/relu_5x5_reduce"
  type: "ReLU"
  bottom: "inception_4b/5x5_reduce"
  top: "inception_4b/5x5_reduce"
}
layer {
  name: "inception_4b/5x5"
  type: "Convolution"
  bottom: "inception_4b/5x5_reduce"
  top: "inception_4b/5x5"
  param {
    lr_mult: 1
    decay_mult: 1
  }
  param {
    lr_mult: 2
    decay_mult: 0
  }
  convolution_param {
    num_output: 64
    pad: 2
    kernel_size: 5
    weight_filler {
      type: "xavier"
    }
    bias_filler {
      type: "constant"
      value: 0.2
    }
  }
}
layer {
  name: "inception_4b/relu_5x5"
  type: "ReLU"
  bottom: "inception_4b/5x5"
  top: "inception_4b/5x5"
}
layer {
  name: "inception_4b/pool"
  type: "Pooling"
  bottom: "inception_4a/output"
  top: "inception_4b/pool"
  pooling_param {
    pool: MAX
    kernel_size: 3
    stride: 1
    pad: 1
  }
}
layer {
  name: "inception_4b/pool_proj"
  type: "Convolution"
  bottom: "inception_4b/pool"
  top: "inception_4b/pool_proj"
  param {
    lr_mult: 1
    decay_mult: 1
  }
  param {
    lr_mult: 2
    decay_mult: 0
  }
  convolution_param {
    num_output: 64
    kernel_size: 1
    weight_filler {
      type: "xavier"
    }
    bias_filler {
      type: "constant"
      value: 0.2
    }
  }
}
layer {
  name: "inception_4b/relu_pool_proj"
  type: "ReLU"
  bottom: "inception_4b/pool_proj"
  top: "inception_4b/pool_proj"
}
layer {
  name: "inception_4b/output"
  type: "Concat"
  bottom: "inception_4b/1x1"
  bottom: "inception_4b/3x3"
  bottom: "inception_4b/5x5"
  bottom: "inception_4b/pool_proj"
  top: "inception_4b/output"
}
layer {
  name: "inception_4c/1x1"
  type: "Convolution"
  bottom: "inception_4b/output"
  top: "inception_4c/1x1"
  param {
    lr_mult: 1
    decay_mult: 1
  }
  param {
    lr_mult: 2
    decay_mult: 0
  }
  convolution_param {
    num_output: 128
    kernel_size: 1
    weight_filler {
      type: "xavier"
    }
    bias_filler {
      type: "constant"
      value: 0.2
    }
  }
}
layer {
  name: "inception_4c/relu_1x1"
  type: "ReLU"
  bottom: "inception_4c/1x1"
  top: "inception_4c/1x1"
}
layer {
  name: "inception_4c/3x3_reduce"
  type: "Convolution"
  bottom: "inception_4b/output"
  top: "inception_4c/3x3_reduce"
  param {
    lr_mult: 1
    decay_mult: 1
  }
  param {
    lr_mult: 2
    decay_mult: 0
  }
  convolution_param {
    num_output: 128
    kernel_size: 1
    weight_filler {
      type: "xavier"
    }
    bias_filler {
      type: "constant"
      value: 0.2
    }
  }
}
layer {
  name: "inception_4c/relu_3x3_reduce"
  type: "ReLU"
  bottom: "inception_4c/3x3_reduce"
  top: "inception_4c/3x3_reduce"
}
layer {
  name: "inception_4c/3x3"
  type: "Convolution"
  bottom: "inception_4c/3x3_reduce"
  top: "inception_4c/3x3"
  param {
    lr_mult: 1
    decay_mult: 1
  }
  param {
    lr_mult: 2
    decay_mult: 0
  }
  convolution_param {
    num_output: 256
    pad: 1
    kernel_size: 3
    weight_filler {
      type: "xavier"
    }
    bias_filler {
      type: "constant"
      value: 0.2
    }
  }
}
layer {
  name: "inception_4c/relu_3x3"
  type: "ReLU"
  bottom: "inception_4c/3x3"
  top: "inception_4c/3x3"
}
layer {
  name: "inception_4c/5x5_reduce"
  type: "Convolution"
  bottom: "inception_4b/output"
  top: "inception_4c/5x5_reduce"
  param {
    lr_mult: 1
    decay_mult: 1
  }
  param {
    lr_mult: 2
    decay_mult: 0
  }
  convolution_param {
    num_output: 24
    kernel_size: 1
    weight_filler {
      type: "xavier"
    }
    bias_filler {
      type: "constant"
      value: 0.2
    }
  }
}
layer {
  name: "inception_4c/relu_5x5_reduce"
  type: "ReLU"
  bottom: "inception_4c/5x5_reduce"
  top: "inception_4c/5x5_reduce"
}
layer {
  name: "inception_4c/5x5"
  type: "Convolution"
  bottom: "inception_4c/5x5_reduce"
  top: "inception_4c/5x5"
  param {
    lr_mult: 1
    decay_mult: 1
  }
  param {
    lr_mult: 2
    decay_mult: 0
  }
  convolution_param {
    num_output: 64
    pad: 2
    kernel_size: 5
    weight_filler {
      type: "xavier"
    }
    bias_filler {
      type: "constant"
      value: 0.2
    }
  }
}
layer {
  name: "inception_4c/relu_5x5"
  type: "ReLU"
  bottom: "inception_4c/5x5"
  top: "inception_4c/5x5"
}
layer {
  name: "inception_4c/pool"
  type: "Pooling"
  bottom: "inception_4b/output"
  top: "inception_4c/pool"
  pooling_param {
    pool: MAX
    kernel_size: 3
    stride: 1
    pad: 1
  }
}
layer {
  name: "inception_4c/pool_proj"
  type: "Convolution"
  bottom: "inception_4c/pool"
  top: "inception_4c/pool_proj"
  param {
    lr_mult: 1
    decay_mult: 1
  }
  param {
    lr_mult: 2
    decay_mult: 0
  }
  convolution_param {
    num_output: 64
    kernel_size: 1
    weight_filler {
      type: "xavier"
    }
    bias_filler {
      type: "constant"
      value: 0.2
    }
  }
}
layer {
  name: "inception_4c/relu_pool_proj"
  type: "ReLU"
  bottom: "inception_4c/pool_proj"
  top: "inception_4c/pool_proj"
}
layer {
  name: "inception_4c/output"
  type: "Concat"
  bottom: "inception_4c/1x1"
  bottom: "inception_4c/3x3"
  bottom: "inception_4c/5x5"
  bottom: "inception_4c/pool_proj"
  top: "inception_4c/output"
}
layer {
  name: "inception_4d/1x1"
  type: "Convolution"
  bottom: "inception_4c/output"
  top: "inception_4d/1x1"
  param {
    lr_mult: 1
    decay_mult: 1
  }
  param {
    lr_mult: 2
    decay_mult: 0
  }
  convolution_param {
    num_output: 112
    kernel_size: 1
    weight_filler {
      type: "xavier"
    }
    bias_filler {
      type: "constant"
      value: 0.2
    }
  }
}
layer {
  name: "inception_4d/relu_1x1"
  type: "ReLU"
  bottom: "inception_4d/1x1"
  top: "inception_4d/1x1"
}
layer {
  name: "inception_4d/3x3_reduce"
  type: "Convolution"
  bottom: "inception_4c/output"
  top: "inception_4d/3x3_reduce"
  param {
    lr_mult: 1
    decay_mult: 1
  }
  param {
    lr_mult: 2
    decay_mult: 0
  }
  convolution_param {
    num_output: 144
    kernel_size: 1
    weight_filler {
      type: "xavier"
    }
    bias_filler {
      type: "constant"
      value: 0.2
    }
  }
}
layer {
  name: "inception_4d/relu_3x3_reduce"
  type: "ReLU"
  bottom: "inception_4d/3x3_reduce"
  top: "inception_4d/3x3_reduce"
}
layer {
  name: "inception_4d/3x3"
  type: "Convolution"
  bottom: "inception_4d/3x3_reduce"
  top: "inception_4d/3x3"
  param {
    lr_mult: 1
    decay_mult: 1
  }
  param {
    lr_mult: 2
    decay_mult: 0
  }
  convolution_param {
    num_output: 288
    pad: 1
    kernel_size: 3
    weight_filler {
      type: "xavier"
    }
    bias_filler {
      type: "constant"
      value: 0.2
    }
  }
}
layer {
  name: "inception_4d/relu_3x3"
  type: "ReLU"
  bottom: "inception_4d/3x3"
  top: "inception_4d/3x3"
}
layer {
  name: "inception_4d/5x5_reduce"
  type: "Convolution"
  bottom: "inception_4c/output"
  top: "inception_4d/5x5_reduce"
  param {
    lr_mult: 1
    decay_mult: 1
  }
  param {
    lr_mult: 2
    decay_mult: 0
  }
  convolution_param {
    num_output: 32
    kernel_size: 1
    weight_filler {
      type: "xavier"
    }
    bias_filler {
      type: "constant"
      value: 0.2
    }
  }
}
layer {
  name: "inception_4d/relu_5x5_reduce"
  type: "ReLU"
  bottom: "inception_4d/5x5_reduce"
  top: "inception_4d/5x5_reduce"
}
layer {
  name: "inception_4d/5x5"
  type: "Convolution"
  bottom: "inception_4d/5x5_reduce"
  top: "inception_4d/5x5"
  param {
    lr_mult: 1
    decay_mult: 1
  }
  param {
    lr_mult: 2
    decay_mult: 0
  }
  convolution_param {
    num_output: 64
    pad: 2
    kernel_size: 5
    weight_filler {
      type: "xavier"
    }
    bias_filler {
      type: "constant"
      value: 0.2
    }
  }
}
layer {
  name: "inception_4d/relu_5x5"
  type: "ReLU"
  bottom: "inception_4d/5x5"
  top: "inception_4d/5x5"
}
layer {
  name: "inception_4d/pool"
  type: "Pooling"
  bottom: "inception_4c/output"
  top: "inception_4d/pool"
  pooling_param {
    pool: MAX
    kernel_size: 3
    stride: 1
    pad: 1
  }
}
layer {
  name: "inception_4d/pool_proj"
  type: "Convolution"
  bottom: "inception_4d/pool"
  top: "inception_4d/pool_proj"
  param {
    lr_mult: 1
    decay_mult: 1
  }
  param {
    lr_mult: 2
    decay_mult: 0
  }
  convolution_param {
    num_output: 64
    kernel_size: 1
    weight_filler {
      type: "xavier"
    }
    bias_filler {
      type: "constant"
      value: 0.2
    }
  }
}
layer {
  name: "inception_4d/relu_pool_proj"
  type: "ReLU"
  bottom: "inception_4d/pool_proj"
  top: "inception_4d/pool_proj"
}
layer {
  name: "inception_4d/output"
  type: "Concat"
  bottom: "inception_4d/1x1"
  bottom: "inception_4d/3x3"
  bottom: "inception_4d/5x5"
  bottom: "inception_4d/pool_proj"
  top: "inception_4d/output"
}
layer {
  name: "loss2/ave_pool"
  type: "Pooling"
  bottom: "inception_4d/output"
  top: "loss2/ave_pool"
  pooling_param {
    pool: AVE
    kernel_size: 5
    stride: 3
  }
}
layer {
  name: "loss2/conv"
  type: "Convolution"
  bottom: "loss2/ave_pool"
  top: "loss2/conv"
  param {
    lr_mult: 1
    decay_mult: 1
  }
  param {
    lr_mult: 2
    decay_mult: 0
  }
  convolution_param {
    num_output: 128
    kernel_size: 1
    weight_filler {
      type: "xavier"
    }
    bias_filler {
      type: "constant"
      value: 0.2
    }
  }
}
layer {
  name: "loss2/relu_conv"
  type: "ReLU"
  bottom: "loss2/conv"
  top: "loss2/conv"
}
layer {
  name: "loss2/fc"
  type: "InnerProduct"
  bottom: "loss2/conv"
  top: "loss2/fc"
  param {
    lr_mult: 1
    decay_mult: 1
  }
  param {
    lr_mult: 2
    decay_mult: 0
  }
  inner_product_param {
    num_output: 1024
    weight_filler {
      type: "xavier"
    }
    bias_filler {
      type: "constant"
      value: 0.2
    }
  }
}
layer {
  name: "loss2/relu_fc"
  type: "ReLU"
  bottom: "loss2/fc"
  top: "loss2/fc"
}
layer {
  name: "loss2/drop_fc"
  type: "Dropout"
  bottom: "loss2/fc"
  top: "loss2/fc"
  dropout_param {
    dropout_ratio: 0.7
  }
}
layer {
  name: "loss2/classifier_kaggle"
  type: "InnerProduct"
  bottom: "loss2/fc"
  top: "loss2/classifier_kaggle"
  param {
    lr_mult: 1
    decay_mult: 1
  }
  param {
    lr_mult: 2
    decay_mult: 0
  }
  inner_product_param {
    num_output: 447
    weight_filler {
      type: "xavier"
    }
    bias_filler {
      type: "constant"
      value: 0
    }
  }
}
layer {
  name: "loss2/loss"
  type: "SoftmaxWithLoss"
  bottom: "loss2/classifier_kaggle"
  bottom: "label"
  top: "loss2/loss1"
  loss_weight: 0.3
}
layer {
  name: "inception_4e/1x1"
  type: "Convolution"
  bottom: "inception_4d/output"
  top: "inception_4e/1x1"
  param {
    lr_mult: 1
    decay_mult: 1
  }
  param {
    lr_mult: 2
    decay_mult: 0
  }
  convolution_param {
    num_output: 256
    kernel_size: 1
    weight_filler {
      type: "xavier"
    }
    bias_filler {
      type: "constant"
      value: 0.2
    }
  }
}
layer {
  name: "inception_4e/relu_1x1"
  type: "ReLU"
  bottom: "inception_4e/1x1"
  top: "inception_4e/1x1"
}
layer {
  name: "inception_4e/3x3_reduce"
  type: "Convolution"
  bottom: "inception_4d/output"
  top: "inception_4e/3x3_reduce"
  param {
    lr_mult: 1
    decay_mult: 1
  }
  param {
    lr_mult: 2
    decay_mult: 0
  }
  convolution_param {
    num_output: 160
    kernel_size: 1
    weight_filler {
      type: "xavier"
    }
    bias_filler {
      type: "constant"
      value: 0.2
    }
  }
}
layer {
  name: "inception_4e/relu_3x3_reduce"
  type: "ReLU"
  bottom: "inception_4e/3x3_reduce"
  top: "inception_4e/3x3_reduce"
}
layer {
  name: "inception_4e/3x3"
  type: "Convolution"
  bottom: "inception_4e/3x3_reduce"
  top: "inception_4e/3x3"
  param {
    lr_mult: 1
    decay_mult: 1
  }
  param {
    lr_mult: 2
    decay_mult: 0
  }
  convolution_param {
    num_output: 320
    pad: 1
    kernel_size: 3
    weight_filler {
      type: "xavier"
    }
    bias_filler {
      type: "constant"
      value: 0.2
    }
  }
}
layer {
  name: "inception_4e/relu_3x3"
  type: "ReLU"
  bottom: "inception_4e/3x3"
  top: "inception_4e/3x3"
}
layer {
  name: "inception_4e/5x5_reduce"
  type: "Convolution"
  bottom: "inception_4d/output"
  top: "inception_4e/5x5_reduce"
  param {
    lr_mult: 1
    decay_mult: 1
  }
  param {
    lr_mult: 2
    decay_mult: 0
  }
  convolution_param {
    num_output: 32
    kernel_size: 1
    weight_filler {
      type: "xavier"
    }
    bias_filler {
      type: "constant"
      value: 0.2
    }
  }
}
layer {
  name: "inception_4e/relu_5x5_reduce"
  type: "ReLU"
  bottom: "inception_4e/5x5_reduce"
  top: "inception_4e/5x5_reduce"
}
layer {
  name: "inception_4e/5x5"
  type: "Convolution"
  bottom: "inception_4e/5x5_reduce"
  top: "inception_4e/5x5"
  param {
    lr_mult: 1
    decay_mult: 1
  }
  param {
    lr_mult: 2
    decay_mult: 0
  }
  convolution_param {
    num_output: 128
    pad: 2
    kernel_size: 5
    weight_filler {
      type: "xavier"
    }
    bias_filler {
      type: "constant"
      value: 0.2
    }
  }
}
layer {
  name: "inception_4e/relu_5x5"
  type: "ReLU"
  bottom: "inception_4e/5x5"
  top: "inception_4e/5x5"
}
layer {
  name: "inception_4e/pool"
  type: "Pooling"
  bottom: "inception_4d/output"
  top: "inception_4e/pool"
  po
I1230 19:22:09.451956 31124 layer_factory.hpp:74] Creating layer data
I1230 19:22:09.451992 31124 net.cpp:84] Creating Layer data
I1230 19:22:09.452004 31124 net.cpp:338] data -> data
I1230 19:22:09.452049 31124 net.cpp:338] data -> label
I1230 19:22:09.452062 31124 net.cpp:113] Setting up data
I1230 19:22:09.452070 31124 image_data_layer.cpp:36] Opening file /home/coldmanck/kaggle/label_train_full_resize.txt
I1230 19:22:09.454864 31124 image_data_layer.cpp:46] Shuffling data
I1230 19:22:09.455778 31124 image_data_layer.cpp:51] A total of 4235 images.
I1230 19:22:09.456929 31124 image_data_layer.cpp:80] output data size: 80,3,224,224
I1230 19:22:10.302902 31124 net.cpp:120] Top shape: 80 3 224 224 (12042240)
I1230 19:22:10.302971 31124 net.cpp:120] Top shape: 80 (80)
I1230 19:22:10.303077 31124 layer_factory.hpp:74] Creating layer label_data_1_split
I1230 19:22:10.303175 31124 net.cpp:84] Creating Layer label_data_1_split
I1230 19:22:10.303186 31124 net.cpp:380] label_data_1_split <- label
I1230 19:22:10.303239 31124 net.cpp:338] label_data_1_split -> label_data_1_split_0
I1230 19:22:10.303264 31124 net.cpp:338] label_data_1_split -> label_data_1_split_1
I1230 19:22:10.303287 31124 net.cpp:338] label_data_1_split -> label_data_1_split_2
I1230 19:22:10.303294 31124 net.cpp:113] Setting up label_data_1_split
I1230 19:22:10.303306 31124 net.cpp:120] Top shape: 80 (80)
I1230 19:22:10.303311 31124 net.cpp:120] Top shape: 80 (80)
I1230 19:22:10.303316 31124 net.cpp:120] Top shape: 80 (80)
I1230 19:22:10.303321 31124 layer_factory.hpp:74] Creating layer conv1/7x7_s2
I1230 19:22:10.303340 31124 net.cpp:84] Creating Layer conv1/7x7_s2
I1230 19:22:10.303346 31124 net.cpp:380] conv1/7x7_s2 <- data
I1230 19:22:10.303361 31124 net.cpp:338] conv1/7x7_s2 -> conv1/7x7_s2
I1230 19:22:10.303374 31124 net.cpp:113] Setting up conv1/7x7_s2
I1230 19:22:10.660320 31124 net.cpp:120] Top shape: 80 64 112 112 (64225280)
I1230 19:22:10.660383 31124 layer_factory.hpp:74] Creating layer conv1/relu_7x7
I1230 19:22:10.660398 31124 net.cpp:84] Creating Layer conv1/relu_7x7
I1230 19:22:10.660405 31124 net.cpp:380] conv1/relu_7x7 <- conv1/7x7_s2
I1230 19:22:10.660415 31124 net.cpp:327] conv1/relu_7x7 -> conv1/7x7_s2 (in-place)
I1230 19:22:10.660428 31124 net.cpp:113] Setting up conv1/relu_7x7
I1230 19:22:10.661026 31124 net.cpp:120] Top shape: 80 64 112 112 (64225280)
I1230 19:22:10.661041 31124 layer_factory.hpp:74] Creating layer pool1/3x3_s2
I1230 19:22:10.661067 31124 net.cpp:84] Creating Layer pool1/3x3_s2
I1230 19:22:10.661075 31124 net.cpp:380] pool1/3x3_s2 <- conv1/7x7_s2
I1230 19:22:10.661089 31124 net.cpp:338] pool1/3x3_s2 -> pool1/3x3_s2
I1230 19:22:10.661099 31124 net.cpp:113] Setting up pool1/3x3_s2
I1230 19:22:10.661183 31124 net.cpp:120] Top shape: 80 64 56 56 (16056320)
I1230 19:22:10.661192 31124 layer_factory.hpp:74] Creating layer pool1/norm1
I1230 19:22:10.661206 31124 net.cpp:84] Creating Layer pool1/norm1
I1230 19:22:10.661211 31124 net.cpp:380] pool1/norm1 <- pool1/3x3_s2
I1230 19:22:10.661217 31124 net.cpp:338] pool1/norm1 -> pool1/norm1
I1230 19:22:10.661227 31124 net.cpp:113] Setting up pool1/norm1
I1230 19:22:10.661236 31124 net.cpp:120] Top shape: 80 64 56 56 (16056320)
I1230 19:22:10.661242 31124 layer_factory.hpp:74] Creating layer conv2/3x3_reduce
I1230 19:22:10.661253 31124 net.cpp:84] Creating Layer conv2/3x3_reduce
I1230 19:22:10.661259 31124 net.cpp:380] conv2/3x3_reduce <- pool1/norm1
I1230 19:22:10.661267 31124 net.cpp:338] conv2/3x3_reduce -> conv2/3x3_reduce
I1230 19:22:10.661278 31124 net.cpp:113] Setting up conv2/3x3_reduce
I1230 19:22:10.661936 31124 net.cpp:120] Top shape: 80 64 56 56 (16056320)
I1230 19:22:10.661955 31124 layer_factory.hpp:74] Creating layer conv2/relu_3x3_reduce
I1230 19:22:10.661964 31124 net.cpp:84] Creating Layer conv2/relu_3x3_reduce
I1230 19:22:10.661970 31124 net.cpp:380] conv2/relu_3x3_reduce <- conv2/3x3_reduce
I1230 19:22:10.661978 31124 net.cpp:327] conv2/relu_3x3_reduce -> conv2/3x3_reduce (in-place)
I1230 19:22:10.661986 31124 net.cpp:113] Setting up conv2/relu_3x3_reduce
I1230 19:22:10.662050 31124 net.cpp:120] Top shape: 80 64 56 56 (16056320)
I1230 19:22:10.662056 31124 layer_factory.hpp:74] Creating layer conv2/3x3
I1230 19:22:10.662067 31124 net.cpp:84] Creating Layer conv2/3x3
I1230 19:22:10.662072 31124 net.cpp:380] conv2/3x3 <- conv2/3x3_reduce
I1230 19:22:10.662082 31124 net.cpp:338] conv2/3x3 -> conv2/3x3
I1230 19:22:10.662091 31124 net.cpp:113] Setting up conv2/3x3
I1230 19:22:10.669824 31124 net.cpp:120] Top shape: 80 192 56 56 (48168960)
I1230 19:22:10.669847 31124 layer_factory.hpp:74] Creating layer conv2/relu_3x3
I1230 19:22:10.669857 31124 net.cpp:84] Creating Layer conv2/relu_3x3
I1230 19:22:10.669862 31124 net.cpp:380] conv2/relu_3x3 <- conv2/3x3
I1230 19:22:10.669869 31124 net.cpp:327] conv2/relu_3x3 -> conv2/3x3 (in-place)
I1230 19:22:10.669878 31124 net.cpp:113] Setting up conv2/relu_3x3
I1230 19:22:10.670256 31124 net.cpp:120] Top shape: 80 192 56 56 (48168960)
I1230 19:22:10.670271 31124 layer_factory.hpp:74] Creating layer conv2/norm2
I1230 19:22:10.670281 31124 net.cpp:84] Creating Layer conv2/norm2
I1230 19:22:10.670297 31124 net.cpp:380] conv2/norm2 <- conv2/3x3
I1230 19:22:10.670307 31124 net.cpp:338] conv2/norm2 -> conv2/norm2
I1230 19:22:10.670331 31124 net.cpp:113] Setting up conv2/norm2
I1230 19:22:10.670339 31124 net.cpp:120] Top shape: 80 192 56 56 (48168960)
I1230 19:22:10.670344 31124 layer_factory.hpp:74] Creating layer pool2/3x3_s2
I1230 19:22:10.670352 31124 net.cpp:84] Creating Layer pool2/3x3_s2
I1230 19:22:10.670357 31124 net.cpp:380] pool2/3x3_s2 <- conv2/norm2
I1230 19:22:10.670363 31124 net.cpp:338] pool2/3x3_s2 -> pool2/3x3_s2
I1230 19:22:10.670372 31124 net.cpp:113] Setting up pool2/3x3_s2
I1230 19:22:10.670441 31124 net.cpp:120] Top shape: 80 192 28 28 (12042240)
I1230 19:22:10.670449 31124 layer_factory.hpp:74] Creating layer pool2/3x3_s2_pool2/3x3_s2_0_split
I1230 19:22:10.670457 31124 net.cpp:84] Creating Layer pool2/3x3_s2_pool2/3x3_s2_0_split
I1230 19:22:10.670462 31124 net.cpp:380] pool2/3x3_s2_pool2/3x3_s2_0_split <- pool2/3x3_s2
I1230 19:22:10.670470 31124 net.cpp:338] pool2/3x3_s2_pool2/3x3_s2_0_split -> pool2/3x3_s2_pool2/3x3_s2_0_split_0
I1230 19:22:10.670478 31124 net.cpp:338] pool2/3x3_s2_pool2/3x3_s2_0_split -> pool2/3x3_s2_pool2/3x3_s2_0_split_1
I1230 19:22:10.670486 31124 net.cpp:338] pool2/3x3_s2_pool2/3x3_s2_0_split -> pool2/3x3_s2_pool2/3x3_s2_0_split_2
I1230 19:22:10.670493 31124 net.cpp:338] pool2/3x3_s2_pool2/3x3_s2_0_split -> pool2/3x3_s2_pool2/3x3_s2_0_split_3
I1230 19:22:10.670500 31124 net.cpp:113] Setting up pool2/3x3_s2_pool2/3x3_s2_0_split
I1230 19:22:10.670507 31124 net.cpp:120] Top shape: 80 192 28 28 (12042240)
I1230 19:22:10.670513 31124 net.cpp:120] Top shape: 80 192 28 28 (12042240)
I1230 19:22:10.670518 31124 net.cpp:120] Top shape: 80 192 28 28 (12042240)
I1230 19:22:10.670523 31124 net.cpp:120] Top shape: 80 192 28 28 (12042240)
I1230 19:22:10.670529 31124 layer_factory.hpp:74] Creating layer inception_3a/1x1
I1230 19:22:10.670538 31124 net.cpp:84] Creating Layer inception_3a/1x1
I1230 19:22:10.670543 31124 net.cpp:380] inception_3a/1x1 <- pool2/3x3_s2_pool2/3x3_s2_0_split_0
I1230 19:22:10.670550 31124 net.cpp:338] inception_3a/1x1 -> inception_3a/1x1
I1230 19:22:10.670560 31124 net.cpp:113] Setting up inception_3a/1x1
I1230 19:22:10.671506 31124 net.cpp:120] Top shape: 80 64 28 28 (4014080)
I1230 19:22:10.671525 31124 layer_factory.hpp:74] Creating layer inception_3a/relu_1x1
I1230 19:22:10.671535 31124 net.cpp:84] Creating Layer inception_3a/relu_1x1
I1230 19:22:10.671540 31124 net.cpp:380] inception_3a/relu_1x1 <- inception_3a/1x1
I1230 19:22:10.671550 31124 net.cpp:327] inception_3a/relu_1x1 -> inception_3a/1x1 (in-place)
I1230 19:22:10.671557 31124 net.cpp:113] Setting up inception_3a/relu_1x1
I1230 19:22:10.671633 31124 net.cpp:120] Top shape: 80 64 28 28 (4014080)
I1230 19:22:10.671640 31124 layer_factory.hpp:74] Creating layer inception_3a/3x3_reduce
I1230 19:22:10.671650 31124 net.cpp:84] Creating Layer inception_3a/3x3_reduce
I1230 19:22:10.671655 31124 net.cpp:380] inception_3a/3x3_reduce <- pool2/3x3_s2_pool2/3x3_s2_0_split_1
I1230 19:22:10.671668 31124 net.cpp:338] inception_3a/3x3_reduce -> inception_3a/3x3_reduce
I1230 19:22:10.671677 31124 net.cpp:113] Setting up inception_3a/3x3_reduce
I1230 19:22:10.672627 31124 net.cpp:120] Top shape: 80 96 28 28 (6021120)
I1230 19:22:10.672648 31124 layer_factory.hpp:74] Creating layer inception_3a/relu_3x3_reduce
I1230 19:22:10.672658 31124 net.cpp:84] Creating Layer inception_3a/relu_3x3_reduce
I1230 19:22:10.672665 31124 net.cpp:380] inception_3a/relu_3x3_reduce <- inception_3a/3x3_reduce
I1230 19:22:10.672673 31124 net.cpp:327] inception_3a/relu_3x3_reduce -> inception_3a/3x3_reduce (in-place)
I1230 19:22:10.672682 31124 net.cpp:113] Setting up inception_3a/relu_3x3_reduce
I1230 19:22:10.674017 31124 net.cpp:120] Top shape: 80 96 28 28 (6021120)
I1230 19:22:10.674037 31124 layer_factory.hpp:74] Creating layer inception_3a/3x3
I1230 19:22:10.674059 31124 net.cpp:84] Creating Layer inception_3a/3x3
I1230 19:22:10.674069 31124 net.cpp:380] inception_3a/3x3 <- inception_3a/3x3_reduce
I1230 19:22:10.674082 31124 net.cpp:338] inception_3a/3x3 -> inception_3a/3x3
I1230 19:22:10.674110 31124 net.cpp:113] Setting up inception_3a/3x3
I1230 19:22:10.676069 31124 net.cpp:120] Top shape: 80 128 28 28 (8028160)
I1230 19:22:10.676086 31124 layer_factory.hpp:74] Creating layer inception_3a/relu_3x3
I1230 19:22:10.676100 31124 net.cpp:84] Creating Layer inception_3a/relu_3x3
I1230 19:22:10.676105 31124 net.cpp:380] inception_3a/relu_3x3 <- inception_3a/3x3
I1230 19:22:10.676112 31124 net.cpp:327] inception_3a/relu_3x3 -> inception_3a/3x3 (in-place)
I1230 19:22:10.676120 31124 net.cpp:113] Setting up inception_3a/relu_3x3
I1230 19:22:10.676381 31124 net.cpp:120] Top shape: 80 128 28 28 (8028160)
I1230 19:22:10.676394 31124 layer_factory.hpp:74] Creating layer inception_3a/5x5_reduce
I1230 19:22:10.676405 31124 net.cpp:84] Creating Layer inception_3a/5x5_reduce
I1230 19:22:10.676411 31124 net.cpp:380] inception_3a/5x5_reduce <- pool2/3x3_s2_pool2/3x3_s2_0_split_2
I1230 19:22:10.676419 31124 net.cpp:338] inception_3a/5x5_reduce -> inception_3a/5x5_reduce
I1230 19:22:10.676431 31124 net.cpp:113] Setting up inception_3a/5x5_reduce
I1230 19:22:10.676892 31124 net.cpp:120] Top shape: 80 16 28 28 (1003520)
I1230 19:22:10.676908 31124 layer_factory.hpp:74] Creating layer inception_3a/relu_5x5_reduce
I1230 19:22:10.676916 31124 net.cpp:84] Creating Layer inception_3a/relu_5x5_reduce
I1230 19:22:10.676921 31124 net.cpp:380] inception_3a/relu_5x5_reduce <- inception_3a/5x5_reduce
I1230 19:22:10.676931 31124 net.cpp:327] inception_3a/relu_5x5_reduce -> inception_3a/5x5_reduce (in-place)
I1230 19:22:10.676939 31124 net.cpp:113] Setting up inception_3a/relu_5x5_reduce
I1230 19:22:10.677013 31124 net.cpp:120] Top shape: 80 16 28 28 (1003520)
I1230 19:22:10.677019 31124 layer_factory.hpp:74] Creating layer inception_3a/5x5
I1230 19:22:10.677028 31124 net.cpp:84] Creating Layer inception_3a/5x5
I1230 19:22:10.677033 31124 net.cpp:380] inception_3a/5x5 <- inception_3a/5x5_reduce
I1230 19:22:10.677042 31124 net.cpp:338] inception_3a/5x5 -> inception_3a/5x5
I1230 19:22:10.677050 31124 net.cpp:113] Setting up inception_3a/5x5
I1230 19:22:10.677697 31124 net.cpp:120] Top shape: 80 32 28 28 (2007040)
I1230 19:22:10.677716 31124 layer_factory.hpp:74] Creating layer inception_3a/relu_5x5
I1230 19:22:10.677724 31124 net.cpp:84] Creating Layer inception_3a/relu_5x5
I1230 19:22:10.677729 31124 net.cpp:380] inception_3a/relu_5x5 <- inception_3a/5x5
I1230 19:22:10.677736 31124 net.cpp:327] inception_3a/relu_5x5 -> inception_3a/5x5 (in-place)
I1230 19:22:10.677744 31124 net.cpp:113] Setting up inception_3a/relu_5x5
I1230 19:22:10.677841 31124 net.cpp:120] Top shape: 80 32 28 28 (2007040)
I1230 19:22:10.677850 31124 layer_factory.hpp:74] Creating layer inception_3a/pool
I1230 19:22:10.677857 31124 layer_factory.cpp:56] CUDNN does not support padding or multiple tops. Using Caffe's own pooling layer.
I1230 19:22:10.677865 31124 net.cpp:84] Creating Layer inception_3a/pool
I1230 19:22:10.677870 31124 net.cpp:380] inception_3a/pool <- pool2/3x3_s2_pool2/3x3_s2_0_split_3
I1230 19:22:10.677877 31124 net.cpp:338] inception_3a/pool -> inception_3a/pool
I1230 19:22:10.677886 31124 net.cpp:113] Setting up inception_3a/pool
I1230 19:22:10.677894 31124 net.cpp:120] Top shape: 80 192 28 28 (12042240)
I1230 19:22:10.677898 31124 layer_factory.hpp:74] Creating layer inception_3a/pool_proj
I1230 19:22:10.677914 31124 net.cpp:84] Creating Layer inception_3a/pool_proj
I1230 19:22:10.677919 31124 net.cpp:380] inception_3a/pool_proj <- inception_3a/pool
I1230 19:22:10.677929 31124 net.cpp:338] inception_3a/pool_proj -> inception_3a/pool_proj
I1230 19:22:10.677937 31124 net.cpp:113] Setting up inception_3a/pool_proj
I1230 19:22:10.678465 31124 net.cpp:120] Top shape: 80 32 28 28 (2007040)
I1230 19:22:10.678485 31124 layer_factory.hpp:74] Creating layer inception_3a/relu_pool_proj
I1230 19:22:10.678493 31124 net.cpp:84] Creating Layer inception_3a/relu_pool_proj
I1230 19:22:10.678498 31124 net.cpp:380] inception_3a/relu_pool_proj <- inception_3a/pool_proj
I1230 19:22:10.678505 31124 net.cpp:327] inception_3a/relu_pool_proj -> inception_3a/pool_proj (in-place)
I1230 19:22:10.678526 31124 net.cpp:113] Setting up inception_3a/relu_pool_proj
I1230 19:22:10.678608 31124 net.cpp:120] Top shape: 80 32 28 28 (2007040)
I1230 19:22:10.678617 31124 layer_factory.hpp:74] Creating layer inception_3a/output
I1230 19:22:10.678623 31124 net.cpp:84] Creating Layer inception_3a/output
I1230 19:22:10.678637 31124 net.cpp:380] inception_3a/output <- inception_3a/1x1
I1230 19:22:10.678644 31124 net.cpp:380] inception_3a/output <- inception_3a/3x3
I1230 19:22:10.678649 31124 net.cpp:380] inception_3a/output <- inception_3a/5x5
I1230 19:22:10.678654 31124 net.cpp:380] inception_3a/output <- inception_3a/pool_proj
I1230 19:22:10.678660 31124 net.cpp:338] inception_3a/output -> inception_3a/output
I1230 19:22:10.678668 31124 net.cpp:113] Setting up inception_3a/output
I1230 19:22:10.678678 31124 net.cpp:120] Top shape: 80 256 28 28 (16056320)
I1230 19:22:10.678681 31124 layer_factory.hpp:74] Creating layer inception_3a/output_inception_3a/output_0_split
I1230 19:22:10.678689 31124 net.cpp:84] Creating Layer inception_3a/output_inception_3a/output_0_split
I1230 19:22:10.678694 31124 net.cpp:380] inception_3a/output_inception_3a/output_0_split <- inception_3a/output
I1230 19:22:10.678699 31124 net.cpp:338] inception_3a/output_inception_3a/output_0_split -> inception_3a/output_inception_3a/output_0_split_0
I1230 19:22:10.678709 31124 net.cpp:338] inception_3a/output_inception_3a/output_0_split -> inception_3a/output_inception_3a/output_0_split_1
I1230 19:22:10.678716 31124 net.cpp:338] inception_3a/output_inception_3a/output_0_split -> inception_3a/output_inception_3a/output_0_split_2
I1230 19:22:10.678724 31124 net.cpp:338] inception_3a/output_inception_3a/output_0_split -> inception_3a/output_inception_3a/output_0_split_3
I1230 19:22:10.678730 31124 net.cpp:113] Setting up inception_3a/output_inception_3a/output_0_split
I1230 19:22:10.678737 31124 net.cpp:120] Top shape: 80 256 28 28 (16056320)
I1230 19:22:10.678742 31124 net.cpp:120] Top shape: 80 256 28 28 (16056320)
I1230 19:22:10.678747 31124 net.cpp:120] Top shape: 80 256 28 28 (16056320)
I1230 19:22:10.678752 31124 net.cpp:120] Top shape: 80 256 28 28 (16056320)
I1230 19:22:10.678758 31124 layer_factory.hpp:74] Creating layer inception_3b/1x1
I1230 19:22:10.678769 31124 net.cpp:84] Creating Layer inception_3b/1x1
I1230 19:22:10.678774 31124 net.cpp:380] inception_3b/1x1 <- inception_3a/output_inception_3a/output_0_split_0
I1230 19:22:10.678781 31124 net.cpp:338] inception_3b/1x1 -> inception_3b/1x1
I1230 19:22:10.678789 31124 net.cpp:113] Setting up inception_3b/1x1
I1230 19:22:10.679623 31124 net.cpp:120] Top shape: 80 128 28 28 (8028160)
I1230 19:22:10.679641 31124 layer_factory.hpp:74] Creating layer inception_3b/relu_1x1
I1230 19:22:10.679647 31124 net.cpp:84] Creating Layer inception_3b/relu_1x1
I1230 19:22:10.679653 31124 net.cpp:380] inception_3b/relu_1x1 <- inception_3b/1x1
I1230 19:22:10.679672 31124 net.cpp:327] inception_3b/relu_1x1 -> inception_3b/1x1 (in-place)
I1230 19:22:10.679680 31124 net.cpp:113] Setting up inception_3b/relu_1x1
I1230 19:22:10.679942 31124 net.cpp:120] Top shape: 80 128 28 28 (8028160)
I1230 19:22:10.679955 31124 layer_factory.hpp:74] Creating layer inception_3b/3x3_reduce
I1230 19:22:10.679965 31124 net.cpp:84] Creating Layer inception_3b/3x3_reduce
I1230 19:22:10.679971 31124 net.cpp:380] inception_3b/3x3_reduce <- inception_3a/output_inception_3a/output_0_split_1
I1230 19:22:10.679980 31124 net.cpp:338] inception_3b/3x3_reduce -> inception_3b/3x3_reduce
I1230 19:22:10.679988 31124 net.cpp:113] Setting up inception_3b/3x3_reduce
I1230 19:22:10.680872 31124 net.cpp:120] Top shape: 80 128 28 28 (8028160)
I1230 19:22:10.680889 31124 layer_factory.hpp:74] Creating layer inception_3b/relu_3x3_reduce
I1230 19:22:10.680897 31124 net.cpp:84] Creating Layer inception_3b/relu_3x3_reduce
I1230 19:22:10.680902 31124 net.cpp:380] inception_3b/relu_3x3_reduce <- inception_3b/3x3_reduce
I1230 19:22:10.680912 31124 net.cpp:327] inception_3b/relu_3x3_reduce -> inception_3b/3x3_reduce (in-place)
I1230 19:22:10.680925 31124 net.cpp:113] Setting up inception_3b/relu_3x3_reduce
I1230 19:22:10.681006 31124 net.cpp:120] Top shape: 80 128 28 28 (8028160)
I1230 19:22:10.681015 31124 layer_factory.hpp:74] Creating layer inception_3b/3x3
I1230 19:22:10.681028 31124 net.cpp:84] Creating Layer inception_3b/3x3
I1230 19:22:10.681033 31124 net.cpp:380] inception_3b/3x3 <- inception_3b/3x3_reduce
I1230 19:22:10.681043 31124 net.cpp:338] inception_3b/3x3 -> inception_3b/3x3
I1230 19:22:10.681052 31124 net.cpp:113] Setting up inception_3b/3x3
I1230 19:22:10.684187 31124 net.cpp:120] Top shape: 80 192 28 28 (12042240)
I1230 19:22:10.684204 31124 layer_factory.hpp:74] Creating layer inception_3b/relu_3x3
I1230 19:22:10.684212 31124 net.cpp:84] Creating Layer inception_3b/relu_3x3
I1230 19:22:10.684217 31124 net.cpp:380] inception_3b/relu_3x3 <- inception_3b/3x3
I1230 19:22:10.684226 31124 net.cpp:327] inception_3b/relu_3x3 -> inception_3b/3x3 (in-place)
I1230 19:22:10.684234 31124 net.cpp:113] Setting up inception_3b/relu_3x3
I1230 19:22:10.684309 31124 net.cpp:120] Top shape: 80 192 28 28 (12042240)
I1230 19:22:10.684316 31124 layer_factory.hpp:74] Creating layer inception_3b/5x5_reduce
I1230 19:22:10.684325 31124 net.cpp:84] Creating Layer inception_3b/5x5_reduce
I1230 19:22:10.684330 31124 net.cpp:380] inception_3b/5x5_reduce <- inception_3a/output_inception_3a/output_0_split_2
I1230 19:22:10.684340 31124 net.cpp:338] inception_3b/5x5_reduce -> inception_3b/5x5_reduce
I1230 19:22:10.684348 31124 net.cpp:113] Setting up inception_3b/5x5_reduce
I1230 19:22:10.684887 31124 net.cpp:120] Top shape: 80 32 28 28 (2007040)
I1230 19:22:10.684903 31124 layer_factory.hpp:74] Creating layer inception_3b/relu_5x5_reduce
I1230 19:22:10.684913 31124 net.cpp:84] Creating Layer inception_3b/relu_5x5_reduce
I1230 19:22:10.684919 31124 net.cpp:380] inception_3b/relu_5x5_reduce <- inception_3b/5x5_reduce
I1230 19:22:10.684926 31124 net.cpp:327] inception_3b/relu_5x5_reduce -> inception_3b/5x5_reduce (in-place)
I1230 19:22:10.684933 31124 net.cpp:113] Setting up inception_3b/relu_5x5_reduce
I1230 19:22:10.685003 31124 net.cpp:120] Top shape: 80 32 28 28 (2007040)
I1230 19:22:10.685010 31124 layer_factory.hpp:74] Creating layer inception_3b/5x5
I1230 19:22:10.685039 31124 net.cpp:84] Creating Layer inception_3b/5x5
I1230 19:22:10.685045 31124 net.cpp:380] inception_3b/5x5 <- inception_3b/5x5_reduce
I1230 19:22:10.685063 31124 net.cpp:338] inception_3b/5x5 -> inception_3b/5x5
I1230 19:22:10.685077 31124 net.cpp:113] Setting up inception_3b/5x5
I1230 19:22:10.686440 31124 net.cpp:120] Top shape: 80 96 28 28 (6021120)
I1230 19:22:10.686457 31124 layer_factory.hpp:74] Creating layer inception_3b/relu_5x5
I1230 19:22:10.686465 31124 net.cpp:84] Creating Layer inception_3b/relu_5x5
I1230 19:22:10.686470 31124 net.cpp:380] inception_3b/relu_5x5 <- inception_3b/5x5
I1230 19:22:10.686480 31124 net.cpp:327] inception_3b/relu_5x5 -> inception_3b/5x5 (in-place)
I1230 19:22:10.686486 31124 net.cpp:113] Setting up inception_3b/relu_5x5
I1230 19:22:10.686731 31124 net.cpp:120] Top shape: 80 96 28 28 (6021120)
I1230 19:22:10.686745 31124 layer_factory.hpp:74] Creating layer inception_3b/pool
I1230 19:22:10.686751 31124 layer_factory.cpp:56] CUDNN does not support padding or multiple tops. Using Caffe's own pooling layer.
I1230 19:22:10.686759 31124 net.cpp:84] Creating Layer inception_3b/pool
I1230 19:22:10.686764 31124 net.cpp:380] inception_3b/pool <- inception_3a/output_inception_3a/output_0_split_3
I1230 19:22:10.686774 31124 net.cpp:338] inception_3b/pool -> inception_3b/pool
I1230 19:22:10.686782 31124 net.cpp:113] Setting up inception_3b/pool
I1230 19:22:10.686791 31124 net.cpp:120] Top shape: 80 256 28 28 (16056320)
I1230 19:22:10.686796 31124 layer_factory.hpp:74] Creating layer inception_3b/pool_proj
I1230 19:22:10.686805 31124 net.cpp:84] Creating Layer inception_3b/pool_proj
I1230 19:22:10.686810 31124 net.cpp:380] inception_3b/pool_proj <- inception_3b/pool
I1230 19:22:10.686818 31124 net.cpp:338] inception_3b/pool_proj -> inception_3b/pool_proj
I1230 19:22:10.686832 31124 net.cpp:113] Setting up inception_3b/pool_proj
I1230 19:22:10.687484 31124 net.cpp:120] Top shape: 80 64 28 28 (4014080)
I1230 19:22:10.687500 31124 layer_factory.hpp:74] Creating layer inception_3b/relu_pool_proj
I1230 19:22:10.687510 31124 net.cpp:84] Creating Layer inception_3b/relu_pool_proj
I1230 19:22:10.687515 31124 net.cpp:380] inception_3b/relu_pool_proj <- inception_3b/pool_proj
I1230 19:22:10.687521 31124 net.cpp:327] inception_3b/relu_pool_proj -> inception_3b/pool_proj (in-place)
I1230 19:22:10.687531 31124 net.cpp:113] Setting up inception_3b/relu_pool_proj
I1230 19:22:10.687605 31124 net.cpp:120] Top shape: 80 64 28 28 (4014080)
I1230 19:22:10.687613 31124 layer_factory.hpp:74] Creating layer inception_3b/output
I1230 19:22:10.687620 31124 net.cpp:84] Creating Layer inception_3b/output
I1230 19:22:10.687625 31124 net.cpp:380] inception_3b/output <- inception_3b/1x1
I1230 19:22:10.687631 31124 net.cpp:380] inception_3b/output <- inception_3b/3x3
I1230 19:22:10.687638 31124 net.cpp:380] inception_3b/output <- inception_3b/5x5
I1230 19:22:10.687643 31124 net.cpp:380] inception_3b/output <- inception_3b/pool_proj
I1230 19:22:10.687650 31124 net.cpp:338] inception_3b/output -> inception_3b/output
I1230 19:22:10.687657 31124 net.cpp:113] Setting up inception_3b/output
I1230 19:22:10.687665 31124 net.cpp:120] Top shape: 80 480 28 28 (30105600)
I1230 19:22:10.687670 31124 layer_factory.hpp:74] Creating layer pool3/3x3_s2
I1230 19:22:10.687679 31124 net.cpp:84] Creating Layer pool3/3x3_s2
I1230 19:22:10.687683 31124 net.cpp:380] pool3/3x3_s2 <- inception_3b/output
I1230 19:22:10.687692 31124 net.cpp:338] pool3/3x3_s2 -> pool3/3x3_s2
I1230 19:22:10.687700 31124 net.cpp:113] Setting up pool3/3x3_s2
I1230 19:22:10.687767 31124 net.cpp:120] Top shape: 80 480 14 14 (7526400)
I1230 19:22:10.687773 31124 layer_factory.hpp:74] Creating layer pool3/3x3_s2_pool3/3x3_s2_0_split
I1230 19:22:10.687779 31124 net.cpp:84] Creating Layer pool3/3x3_s2_pool3/3x3_s2_0_split
I1230 19:22:10.687784 31124 net.cpp:380] pool3/3x3_s2_pool3/3x3_s2_0_split <- pool3/3x3_s2
I1230 19:22:10.687790 31124 net.cpp:338] pool3/3x3_s2_pool3/3x3_s2_0_split -> pool3/3x3_s2_pool3/3x3_s2_0_split_0
I1230 19:22:10.687798 31124 net.cpp:338] pool3/3x3_s2_pool3/3x3_s2_0_split -> pool3/3x3_s2_pool3/3x3_s2_0_split_1
I1230 19:22:10.687805 31124 net.cpp:338] pool3/3x3_s2_pool3/3x3_s2_0_split -> pool3/3x3_s2_pool3/3x3_s2_0_split_2
I1230 19:22:10.687811 31124 net.cpp:338] pool3/3x3_s2_pool3/3x3_s2_0_split -> pool3/3x3_s2_pool3/3x3_s2_0_split_3
I1230 19:22:10.687818 31124 net.cpp:113] Setting up pool3/3x3_s2_pool3/3x3_s2_0_split
I1230 19:22:10.687825 31124 net.cpp:120] Top shape: 80 480 14 14 (7526400)
I1230 19:22:10.687830 31124 net.cpp:120] Top shape: 80 480 14 14 (7526400)
I1230 19:22:10.687835 31124 net.cpp:120] Top shape: 80 480 14 14 (7526400)
I1230 19:22:10.687840 31124 net.cpp:120] Top shape: 80 480 14 14 (7526400)
I1230 19:22:10.687844 31124 layer_factory.hpp:74] Creating layer inception_4a/1x1
I1230 19:22:10.687855 31124 net.cpp:84] Creating Layer inception_4a/1x1
I1230 19:22:10.687860 31124 net.cpp:380] inception_4a/1x1 <- pool3/3x3_s2_pool3/3x3_s2_0_split_0
I1230 19:22:10.687867 31124 net.cpp:338] inception_4a/1x1 -> inception_4a/1x1
I1230 19:22:10.687875 31124 net.cpp:113] Setting up inception_4a/1x1
I1230 19:22:10.695063 31124 net.cpp:120] Top shape: 80 192 14 14 (3010560)
I1230 19:22:10.695106 31124 layer_factory.hpp:74] Creating layer inception_4a/relu_1x1
I1230 19:22:10.695127 31124 net.cpp:84] Creating Layer inception_4a/relu_1x1
I1230 19:22:10.695139 31124 net.cpp:380] inception_4a/relu_1x1 <- inception_4a/1x1
I1230 19:22:10.695158 31124 net.cpp:327] inception_4a/relu_1x1 -> inception_4a/1x1 (in-place)
I1230 19:22:10.695176 31124 net.cpp:113] Setting up inception_4a/relu_1x1
I1230 19:22:10.695579 31124 net.cpp:120] Top shape: 80 192 14 14 (3010560)
I1230 19:22:10.695600 31124 layer_factory.hpp:74] Creating layer inception_4a/3x3_reduce
I1230 19:22:10.695623 31124 net.cpp:84] Creating Layer inception_4a/3x3_reduce
I1230 19:22:10.695647 31124 net.cpp:380] inception_4a/3x3_reduce <- pool3/3x3_s2_pool3/3x3_s2_0_split_1
I1230 19:22:10.695683 31124 net.cpp:338] inception_4a/3x3_reduce -> inception_4a/3x3_reduce
I1230 19:22:10.695703 31124 net.cpp:113] Setting up inception_4a/3x3_reduce
I1230 19:22:10.697321 31124 net.cpp:120] Top shape: 80 96 14 14 (1505280)
I1230 19:22:10.697366 31124 layer_factory.hpp:74] Creating layer inception_4a/relu_3x3_reduce
I1230 19:22:10.697384 31124 net.cpp:84] Creating Layer inception_4a/relu_3x3_reduce
I1230 19:22:10.697396 31124 net.cpp:380] inception_4a/relu_3x3_reduce <- inception_4a/3x3_reduce
I1230 19:22:10.697410 31124 net.cpp:327] inception_4a/relu_3x3_reduce -> inception_4a/3x3_reduce (in-place)
I1230 19:22:10.697425 31124 net.cpp:113] Setting up inception_4a/relu_3x3_reduce
I1230 19:22:10.697593 31124 net.cpp:120] Top shape: 80 96 14 14 (1505280)
I1230 19:22:10.697613 31124 layer_factory.hpp:74] Creating layer inception_4a/3x3
I1230 19:22:10.697628 31124 net.cpp:84] Creating Layer inception_4a/3x3
I1230 19:22:10.697639 31124 net.cpp:380] inception_4a/3x3 <- inception_4a/3x3_reduce
I1230 19:22:10.697657 31124 net.cpp:338] inception_4a/3x3 -> inception_4a/3x3
I1230 19:22:10.697675 31124 net.cpp:113] Setting up inception_4a/3x3
I1230 19:22:10.702852 31124 net.cpp:120] Top shape: 80 208 14 14 (3261440)
I1230 19:22:10.702903 31124 layer_factory.hpp:74] Creating layer inception_4a/relu_3x3
I1230 19:22:10.702941 31124 net.cpp:84] Creating Layer inception_4a/relu_3x3
I1230 19:22:10.702955 31124 net.cpp:380] inception_4a/relu_3x3 <- inception_4a/3x3
I1230 19:22:10.702973 31124 net.cpp:327] inception_4a/relu_3x3 -> inception_4a/3x3 (in-place)
I1230 19:22:10.702991 31124 net.cpp:113] Setting up inception_4a/relu_3x3
I1230 19:22:10.703114 31124 net.cpp:120] Top shape: 80 208 14 14 (3261440)
I1230 19:22:10.703145 31124 layer_factory.hpp:74] Creating layer inception_4a/5x5_reduce
I1230 19:22:10.703166 31124 net.cpp:84] Creating Layer inception_4a/5x5_reduce
I1230 19:22:10.703176 31124 net.cpp:380] inception_4a/5x5_reduce <- pool3/3x3_s2_pool3/3x3_s2_0_split_2
I1230 19:22:10.703189 31124 net.cpp:338] inception_4a/5x5_reduce -> inception_4a/5x5_reduce
I1230 19:22:10.703207 31124 net.cpp:113] Setting up inception_4a/5x5_reduce
I1230 19:22:10.704053 31124 net.cpp:120] Top shape: 80 16 14 14 (250880)
I1230 19:22:10.704080 31124 layer_factory.hpp:74] Creating layer inception_4a/relu_5x5_reduce
I1230 19:22:10.704092 31124 net.cpp:84] Creating Layer inception_4a/relu_5x5_reduce
I1230 19:22:10.704102 31124 net.cpp:380] inception_4a/relu_5x5_reduce <- inception_4a/5x5_reduce
I1230 19:22:10.704113 31124 net.cpp:327] inception_4a/relu_5x5_reduce -> inception_4a/5x5_reduce (in-place)
I1230 19:22:10.704126 31124 net.cpp:113] Setting up inception_4a/relu_5x5_reduce
I1230 19:22:10.704262 31124 net.cpp:120] Top shape: 80 16 14 14 (250880)
I1230 19:22:10.704273 31124 layer_factory.hpp:74] Creating layer inception_4a/5x5
I1230 19:22:10.704290 31124 net.cpp:84] Creating Layer inception_4a/5x5
I1230 19:22:10.704298 31124 net.cpp:380] inception_4a/5x5 <- inception_4a/5x5_reduce
I1230 19:22:10.704310 31124 net.cpp:338] inception_4a/5x5 -> inception_4a/5x5
I1230 19:22:10.704325 31124 net.cpp:113] Setting up inception_4a/5x5
I1230 19:22:10.705391 31124 net.cpp:120] Top shape: 80 48 14 14 (752640)
I1230 19:22:10.705420 31124 layer_factory.hpp:74] Creating layer inception_4a/relu_5x5
I1230 19:22:10.705453 31124 net.cpp:84] Creating Layer inception_4a/relu_5x5
I1230 19:22:10.705469 31124 net.cpp:380] inception_4a/relu_5x5 <- inception_4a/5x5
I1230 19:22:10.705487 31124 net.cpp:327] inception_4a/relu_5x5 -> inception_4a/5x5 (in-place)
I1230 19:22:10.705502 31124 net.cpp:113] Setting up inception_4a/relu_5x5
I1230 19:22:10.705865 31124 net.cpp:120] Top shape: 80 48 14 14 (752640)
I1230 19:22:10.705883 31124 layer_factory.hpp:74] Creating layer inception_4a/pool
I1230 19:22:10.705893 31124 layer_factory.cpp:56] CUDNN does not support padding or multiple tops. Using Caffe's own pooling layer.
I1230 19:22:10.705967 31124 net.cpp:84] Creating Layer inception_4a/pool
I1230 19:22:10.706006 31124 net.cpp:380] inception_4a/pool <- pool3/3x3_s2_pool3/3x3_s2_0_split_3
I1230 19:22:10.706040 31124 net.cpp:338] inception_4a/pool -> inception_4a/pool
I1230 19:22:10.706058 31124 net.cpp:113] Setting up inception_4a/pool
I1230 19:22:10.706074 31124 net.cpp:120] Top shape: 80 480 14 14 (7526400)
I1230 19:22:10.706096 31124 layer_factory.hpp:74] Creating layer inception_4a/pool_proj
I1230 19:22:10.706115 31124 net.cpp:84] Creating Layer inception_4a/pool_proj
I1230 19:22:10.706122 31124 net.cpp:380] inception_4a/pool_proj <- inception_4a/pool
I1230 19:22:10.706135 31124 net.cpp:338] inception_4a/pool_proj -> inception_4a/pool_proj
I1230 19:22:10.706152 31124 net.cpp:113] Setting up inception_4a/pool_proj
I1230 19:22:10.707576 31124 net.cpp:120] Top shape: 80 64 14 14 (1003520)
I1230 19:22:10.707604 31124 layer_factory.hpp:74] Creating layer inception_4a/relu_pool_proj
I1230 19:22:10.707633 31124 net.cpp:84] Creating Layer inception_4a/relu_pool_proj
I1230 19:22:10.707643 31124 net.cpp:380] inception_4a/relu_pool_proj <- inception_4a/pool_proj
I1230 19:22:10.707658 31124 net.cpp:327] inception_4a/relu_pool_proj -> inception_4a/pool_proj (in-place)
I1230 19:22:10.707671 31124 net.cpp:113] Setting up inception_4a/relu_pool_proj
I1230 19:22:10.707803 31124 net.cpp:120] Top shape: 80 64 14 14 (1003520)
I1230 19:22:10.707814 31124 layer_factory.hpp:74] Creating layer inception_4a/output
I1230 19:22:10.707825 31124 net.cpp:84] Creating Layer inception_4a/output
I1230 19:22:10.707834 31124 net.cpp:380] inception_4a/output <- inception_4a/1x1
I1230 19:22:10.707845 31124 net.cpp:380] inception_4a/output <- inception_4a/3x3
I1230 19:22:10.707855 31124 net.cpp:380] inception_4a/output <- inception_4a/5x5
I1230 19:22:10.707864 31124 net.cpp:380] inception_4a/output <- inception_4a/pool_proj
I1230 19:22:10.707875 31124 net.cpp:338] inception_4a/output -> inception_4a/output
I1230 19:22:10.707887 31124 net.cpp:113] Setting up inception_4a/output
I1230 19:22:10.707902 31124 net.cpp:120] Top shape: 80 512 14 14 (8028160)
I1230 19:22:10.707909 31124 layer_factory.hpp:74] Creating layer inception_4a/output_inception_4a/output_0_split
I1230 19:22:10.707922 31124 net.cpp:84] Creating Layer inception_4a/output_inception_4a/output_0_split
I1230 19:22:10.707929 31124 net.cpp:380] inception_4a/output_inception_4a/output_0_split <- inception_4a/output
I1230 19:22:10.707944 31124 net.cpp:338] inception_4a/output_inception_4a/output_0_split -> inception_4a/output_inception_4a/output_0_split_0
I1230 19:22:10.707957 31124 net.cpp:338] inception_4a/output_inception_4a/output_0_split -> inception_4a/output_inception_4a/output_0_split_1
I1230 19:22:10.707970 31124 net.cpp:338] inception_4a/output_inception_4a/output_0_split -> inception_4a/output_inception_4a/output_0_split_2
I1230 19:22:10.707983 31124 net.cpp:338] inception_4a/output_inception_4a/output_0_split -> inception_4a/output_inception_4a/output_0_split_3
I1230 19:22:10.707994 31124 net.cpp:338] inception_4a/output_inception_4a/output_0_split -> inception_4a/output_inception_4a/output_0_split_4
I1230 19:22:10.708009 31124 net.cpp:113] Setting up inception_4a/output_inception_4a/output_0_split
I1230 19:22:10.708024 31124 net.cpp:120] Top shape: 80 512 14 14 (8028160)
I1230 19:22:10.708032 31124 net.cpp:120] Top shape: 80 512 14 14 (8028160)
I1230 19:22:10.708041 31124 net.cpp:120] Top shape: 80 512 14 14 (8028160)
I1230 19:22:10.708050 31124 net.cpp:120] Top shape: 80 512 14 14 (8028160)
I1230 19:22:10.708058 31124 net.cpp:120] Top shape: 80 512 14 14 (8028160)
I1230 19:22:10.708065 31124 layer_factory.hpp:74] Creating layer loss1/ave_pool
I1230 19:22:10.708087 31124 net.cpp:84] Creating Layer loss1/ave_pool
I1230 19:22:10.708096 31124 net.cpp:380] loss1/ave_pool <- inception_4a/output_inception_4a/output_0_split_0
I1230 19:22:10.708107 31124 net.cpp:338] loss1/ave_pool -> loss1/ave_pool
I1230 19:22:10.708119 31124 net.cpp:113] Setting up loss1/ave_pool
I1230 19:22:10.708240 31124 net.cpp:120] Top shape: 80 512 4 4 (655360)
I1230 19:22:10.708261 31124 layer_factory.hpp:74] Creating layer loss1/conv
I1230 19:22:10.708288 31124 net.cpp:84] Creating Layer loss1/conv
I1230 19:22:10.708298 31124 net.cpp:380] loss1/conv <- loss1/ave_pool
I1230 19:22:10.708310 31124 net.cpp:338] loss1/conv -> loss1/conv
I1230 19:22:10.708326 31124 net.cpp:113] Setting up loss1/conv
I1230 19:22:10.710302 31124 net.cpp:120] Top shape: 80 128 4 4 (163840)
I1230 19:22:10.710335 31124 layer_factory.hpp:74] Creating layer loss1/relu_conv
I1230 19:22:10.710364 31124 net.cpp:84] Creating Layer loss1/relu_conv
I1230 19:22:10.710374 31124 net.cpp:380] loss1/relu_conv <- loss1/conv
I1230 19:22:10.710386 31124 net.cpp:327] loss1/relu_conv -> loss1/conv (in-place)
I1230 19:22:10.710398 31124 net.cpp:113] Setting up loss1/relu_conv
I1230 19:22:10.710528 31124 net.cpp:120] Top shape: 80 128 4 4 (163840)
I1230 19:22:10.710539 31124 layer_factory.hpp:74] Creating layer loss1/fc
I1230 19:22:10.710553 31124 net.cpp:84] Creating Layer loss1/fc
I1230 19:22:10.710561 31124 net.cpp:380] loss1/fc <- loss1/conv
I1230 19:22:10.710577 31124 net.cpp:338] loss1/fc -> loss1/fc
I1230 19:22:10.710594 31124 net.cpp:113] Setting up loss1/fc
I1230 19:22:10.831102 31124 net.cpp:120] Top shape: 80 1024 (81920)
I1230 19:22:10.831163 31124 layer_factory.hpp:74] Creating layer loss1/relu_fc
I1230 19:22:10.831177 31124 net.cpp:84] Creating Layer loss1/relu_fc
I1230 19:22:10.831184 31124 net.cpp:380] loss1/relu_fc <- loss1/fc
I1230 19:22:10.831194 31124 net.cpp:327] loss1/relu_fc -> loss1/fc (in-place)
I1230 19:22:10.831205 31124 net.cpp:113] Setting up loss1/relu_fc
I1230 19:22:10.834995 31124 net.cpp:120] Top shape: 80 1024 (81920)
I1230 19:22:10.835028 31124 layer_factory.hpp:74] Creating layer loss1/drop_fc
I1230 19:22:10.835055 31124 net.cpp:84] Creating Layer loss1/drop_fc
I1230 19:22:10.835062 31124 net.cpp:380] loss1/drop_fc <- loss1/fc
I1230 19:22:10.835072 31124 net.cpp:327] loss1/drop_fc -> loss1/fc (in-place)
I1230 19:22:10.836719 31124 net.cpp:113] Setting up loss1/drop_fc
I1230 19:22:10.836776 31124 net.cpp:120] Top shape: 80 1024 (81920)
I1230 19:22:10.836792 31124 layer_factory.hpp:74] Creating layer loss1/classifier_kaggle
I1230 19:22:10.836819 31124 net.cpp:84] Creating Layer loss1/classifier_kaggle
I1230 19:22:10.836833 31124 net.cpp:380] loss1/classifier_kaggle <- loss1/fc
I1230 19:22:10.836851 31124 net.cpp:338] loss1/classifier_kaggle -> loss1/classifier_kaggle
I1230 19:22:10.837288 31124 net.cpp:113] Setting up loss1/classifier_kaggle
I1230 19:22:10.849295 31124 net.cpp:120] Top shape: 80 447 (35760)
I1230 19:22:10.849340 31124 layer_factory.hpp:74] Creating layer loss1/loss
I1230 19:22:10.849360 31124 net.cpp:84] Creating Layer loss1/loss
I1230 19:22:10.849372 31124 net.cpp:380] loss1/loss <- loss1/classifier_kaggle
I1230 19:22:10.849387 31124 net.cpp:380] loss1/loss <- label_data_1_split_0
I1230 19:22:10.849401 31124 net.cpp:338] loss1/loss -> loss1/loss1
I1230 19:22:10.849421 31124 net.cpp:113] Setting up loss1/loss
I1230 19:22:10.849437 31124 layer_factory.hpp:74] Creating layer loss1/loss
I1230 19:22:10.849810 31124 net.cpp:120] Top shape: (1)
I1230 19:22:10.849828 31124 net.cpp:122]     with loss weight 0.3
I1230 19:22:10.849864 31124 layer_factory.hpp:74] Creating layer inception_4b/1x1
I1230 19:22:10.849884 31124 net.cpp:84] Creating Layer inception_4b/1x1
I1230 19:22:10.849895 31124 net.cpp:380] inception_4b/1x1 <- inception_4a/output_inception_4a/output_0_split_1
I1230 19:22:10.849915 31124 net.cpp:338] inception_4b/1x1 -> inception_4b/1x1
I1230 19:22:10.849931 31124 net.cpp:113] Setting up inception_4b/1x1
I1230 19:22:10.852541 31124 net.cpp:120] Top shape: 80 160 14 14 (2508800)
I1230 19:22:10.852576 31124 layer_factory.hpp:74] Creating layer inception_4b/relu_1x1
I1230 19:22:10.852591 31124 net.cpp:84] Creating Layer inception_4b/relu_1x1
I1230 19:22:10.852602 31124 net.cpp:380] inception_4b/relu_1x1 <- inception_4b/1x1
I1230 19:22:10.852615 31124 net.cpp:327] inception_4b/relu_1x1 -> inception_4b/1x1 (in-place)
I1230 19:22:10.852630 31124 net.cpp:113] Setting up inception_4b/relu_1x1
I1230 19:22:10.852779 31124 net.cpp:120] Top shape: 80 160 14 14 (2508800)
I1230 19:22:10.852810 31124 layer_factory.hpp:74] Creating layer inception_4b/3x3_reduce
I1230 19:22:10.852830 31124 net.cpp:84] Creating Layer inception_4b/3x3_reduce
I1230 19:22:10.852840 31124 net.cpp:380] inception_4b/3x3_reduce <- inception_4a/output_inception_4a/output_0_split_2
I1230 19:22:10.852854 31124 net.cpp:338] inception_4b/3x3_reduce -> inception_4b/3x3_reduce
I1230 19:22:10.852871 31124 net.cpp:113] Setting up inception_4b/3x3_reduce
I1230 19:22:10.854823 31124 net.cpp:120] Top shape: 80 112 14 14 (1756160)
I1230 19:22:10.854858 31124 layer_factory.hpp:74] Creating layer inception_4b/relu_3x3_reduce
I1230 19:22:10.854872 31124 net.cpp:84] Creating Layer inception_4b/relu_3x3_reduce
I1230 19:22:10.854882 31124 net.cpp:380] inception_4b/relu_3x3_reduce <- inception_4b/3x3_reduce
I1230 19:22:10.854904 31124 net.cpp:327] inception_4b/relu_3x3_reduce -> inception_4b/3x3_reduce (in-place)
I1230 19:22:10.854918 31124 net.cpp:113] Setting up inception_4b/relu_3x3_reduce
I1230 19:22:10.855043 31124 net.cpp:120] Top shape: 80 112 14 14 (1756160)
I1230 19:22:10.855056 31124 layer_factory.hpp:74] Creating layer inception_4b/3x3
I1230 19:22:10.855072 31124 net.cpp:84] Creating Layer inception_4b/3x3
I1230 19:22:10.855082 31124 net.cpp:380] inception_4b/3x3 <- inception_4b/3x3_reduce
I1230 19:22:10.855095 31124 net.cpp:338] inception_4b/3x3 -> inception_4b/3x3
I1230 19:22:10.855111 31124 net.cpp:113] Setting up inception_4b/3x3
I1230 19:22:10.865497 31124 net.cpp:120] Top shape: 80 224 14 14 (3512320)
I1230 19:22:10.865541 31124 layer_factory.hpp:74] Creating layer inception_4b/relu_3x3
I1230 19:22:10.865566 31124 net.cpp:84] Creating Layer inception_4b/relu_3x3
I1230 19:22:10.865579 31124 net.cpp:380] inception_4b/relu_3x3 <- inception_4b/3x3
I1230 19:22:10.865594 31124 net.cpp:327] inception_4b/relu_3x3 -> inception_4b/3x3 (in-place)
I1230 19:22:10.865612 31124 net.cpp:113] Setting up inception_4b/relu_3x3
I1230 19:22:10.866022 31124 net.cpp:120] Top shape: 80 224 14 14 (3512320)
I1230 19:22:10.866044 31124 layer_factory.hpp:74] Creating layer inception_4b/5x5_reduce
I1230 19:22:10.866065 31124 net.cpp:84] Creating Layer inception_4b/5x5_reduce
I1230 19:22:10.866076 31124 net.cpp:380] inception_4b/5x5_reduce <- inception_4a/output_inception_4a/output_0_split_3
I1230 19:22:10.866096 31124 net.cpp:338] inception_4b/5x5_reduce -> inception_4b/5x5_reduce
I1230 19:22:10.866114 31124 net.cpp:113] Setting up inception_4b/5x5_reduce
I1230 19:22:10.867166 31124 net.cpp:120] Top shape: 80 24 14 14 (376320)
I1230 19:22:10.867195 31124 layer_factory.hpp:74] Creating layer inception_4b/relu_5x5_reduce
I1230 19:22:10.867209 31124 net.cpp:84] Creating Layer inception_4b/relu_5x5_reduce
I1230 19:22:10.867220 31124 net.cpp:380] inception_4b/relu_5x5_reduce <- inception_4b/5x5_reduce
I1230 19:22:10.867236 31124 net.cpp:327] inception_4b/relu_5x5_reduce -> inception_4b/5x5_reduce (in-place)
I1230 19:22:10.867252 31124 net.cpp:113] Setting up inception_4b/relu_5x5_reduce
I1230 19:22:10.867396 31124 net.cpp:120] Top shape: 80 24 14 14 (376320)
I1230 19:22:10.867409 31124 layer_factory.hpp:74] Creating layer inception_4b/5x5
I1230 19:22:10.867429 31124 net.cpp:84] Creating Layer inception_4b/5x5
I1230 19:22:10.867439 31124 net.cpp:380] inception_4b/5x5 <- inception_4b/5x5_reduce
I1230 19:22:10.867456 31124 net.cpp:338] inception_4b/5x5 -> inception_4b/5x5
I1230 19:22:10.867473 31124 net.cpp:113] Setting up inception_4b/5x5
I1230 19:22:10.869107 31124 net.cpp:120] Top shape: 80 64 14 14 (1003520)
I1230 19:22:10.869138 31124 layer_factory.hpp:74] Creating layer inception_4b/relu_5x5
I1230 19:22:10.869158 31124 net.cpp:84] Creating Layer inception_4b/relu_5x5
I1230 19:22:10.869168 31124 net.cpp:380] inception_4b/relu_5x5 <- inception_4b/5x5
I1230 19:22:10.869181 31124 net.cpp:327] inception_4b/relu_5x5 -> inception_4b/5x5 (in-place)
I1230 19:22:10.869197 31124 net.cpp:113] Setting up inception_4b/relu_5x5
I1230 19:22:10.869333 31124 net.cpp:120] Top shape: 80 64 14 14 (1003520)
I1230 19:22:10.869360 31124 layer_factory.hpp:74] Creating layer inception_4b/pool
I1230 19:22:10.869390 31124 layer_factory.cpp:56] CUDNN does not support padding or multiple tops. Using Caffe's own pooling layer.
I1230 19:22:10.869406 31124 net.cpp:84] Creating Layer inception_4b/pool
I1230 19:22:10.869416 31124 net.cpp:380] inception_4b/pool <- inception_4a/output_inception_4a/output_0_split_4
I1230 19:22:10.869431 31124 net.cpp:338] inception_4b/pool -> inception_4b/pool
I1230 19:22:10.869465 31124 net.cpp:113] Setting up inception_4b/pool
I1230 19:22:10.869485 31124 net.cpp:120] Top shape: 80 512 14 14 (8028160)
I1230 19:22:10.869495 31124 layer_factory.hpp:74] Creating layer inception_4b/pool_proj
I1230 19:22:10.869513 31124 net.cpp:84] Creating Layer inception_4b/pool_proj
I1230 19:22:10.869524 31124 net.cpp:380] inception_4b/pool_proj <- inception_4b/pool
I1230 19:22:10.869537 31124 net.cpp:338] inception_4b/pool_proj -> inception_4b/pool_proj
I1230 19:22:10.869552 31124 net.cpp:113] Setting up inception_4b/pool_proj
I1230 19:22:10.871036 31124 net.cpp:120] Top shape: 80 64 14 14 (1003520)
I1230 19:22:10.871064 31124 layer_factory.hpp:74] Creating layer inception_4b/relu_pool_proj
I1230 19:22:10.871081 31124 net.cpp:84] Creating Layer inception_4b/relu_pool_proj
I1230 19:22:10.871091 31124 net.cpp:380] inception_4b/relu_pool_proj <- inception_4b/pool_proj
I1230 19:22:10.871109 31124 net.cpp:327] inception_4b/relu_pool_proj -> inception_4b/pool_proj (in-place)
I1230 19:22:10.871124 31124 net.cpp:113] Setting up inception_4b/relu_pool_proj
I1230 19:22:10.871515 31124 net.cpp:120] Top shape: 80 64 14 14 (1003520)
I1230 19:22:10.871536 31124 layer_factory.hpp:74] Creating layer inception_4b/output
I1230 19:22:10.871549 31124 net.cpp:84] Creating Layer inception_4b/output
I1230 19:22:10.871572 31124 net.cpp:380] inception_4b/output <- inception_4b/1x1
I1230 19:22:10.871583 31124 net.cpp:380] inception_4b/output <- inception_4b/3x3
I1230 19:22:10.871594 31124 net.cpp:380] inception_4b/output <- inception_4b/5x5
I1230 19:22:10.871605 31124 net.cpp:380] inception_4b/output <- inception_4b/pool_proj
I1230 19:22:10.871618 31124 net.cpp:338] inception_4b/output -> inception_4b/output
I1230 19:22:10.871633 31124 net.cpp:113] Setting up inception_4b/output
I1230 19:22:10.871649 31124 net.cpp:120] Top shape: 80 512 14 14 (8028160)
I1230 19:22:10.871660 31124 layer_factory.hpp:74] Creating layer inception_4b/output_inception_4b/output_0_split
I1230 19:22:10.871675 31124 net.cpp:84] Creating Layer inception_4b/output_inception_4b/output_0_split
I1230 19:22:10.871685 31124 net.cpp:380] inception_4b/output_inception_4b/output_0_split <- inception_4b/output
I1230 19:22:10.871696 31124 net.cpp:338] inception_4b/output_inception_4b/output_0_split -> inception_4b/output_inception_4b/output_0_split_0
I1230 19:22:10.871714 31124 net.cpp:338] inception_4b/output_inception_4b/output_0_split -> inception_4b/output_inception_4b/output_0_split_1
I1230 19:22:10.871731 31124 net.cpp:338] inception_4b/output_inception_4b/output_0_split -> inception_4b/output_inception_4b/output_0_split_2
I1230 19:22:10.871745 31124 net.cpp:338] inception_4b/output_inception_4b/output_0_split -> inception_4b/output_inception_4b/output_0_split_3
I1230 19:22:10.871758 31124 net.cpp:113] Setting up inception_4b/output_inception_4b/output_0_split
I1230 19:22:10.871773 31124 net.cpp:120] Top shape: 80 512 14 14 (8028160)
I1230 19:22:10.871783 31124 net.cpp:120] Top shape: 80 512 14 14 (8028160)
I1230 19:22:10.871793 31124 net.cpp:120] Top shape: 80 512 14 14 (8028160)
I1230 19:22:10.871803 31124 net.cpp:120] Top shape: 80 512 14 14 (8028160)
I1230 19:22:10.871811 31124 layer_factory.hpp:74] Creating layer inception_4c/1x1
I1230 19:22:10.871829 31124 net.cpp:84] Creating Layer inception_4c/1x1
I1230 19:22:10.871839 31124 net.cpp:380] inception_4c/1x1 <- inception_4b/output_inception_4b/output_0_split_0
I1230 19:22:10.871852 31124 net.cpp:338] inception_4c/1x1 -> inception_4c/1x1
I1230 19:22:10.871866 31124 net.cpp:113] Setting up inception_4c/1x1
I1230 19:22:10.874858 31124 net.cpp:120] Top shape: 80 128 14 14 (2007040)
I1230 19:22:10.874913 31124 layer_factory.hpp:74] Creating layer inception_4c/relu_1x1
I1230 19:22:10.874933 31124 net.cpp:84] Creating Layer inception_4c/relu_1x1
I1230 19:22:10.874944 31124 net.cpp:380] inception_4c/relu_1x1 <- inception_4c/1x1
I1230 19:22:10.874958 31124 net.cpp:327] inception_4c/relu_1x1 -> inception_4c/1x1 (in-place)
I1230 19:22:10.874971 31124 net.cpp:113] Setting up inception_4c/relu_1x1
I1230 19:22:10.875108 31124 net.cpp:120] Top shape: 80 128 14 14 (2007040)
I1230 19:22:10.875119 31124 layer_factory.hpp:74] Creating layer inception_4c/3x3_reduce
I1230 19:22:10.875136 31124 net.cpp:84] Creating Layer inception_4c/3x3_reduce
I1230 19:22:10.875146 31124 net.cpp:380] inception_4c/3x3_reduce <- inception_4b/output_inception_4b/output_0_split_1
I1230 19:22:10.875159 31124 net.cpp:338] inception_4c/3x3_reduce -> inception_4c/3x3_reduce
I1230 19:22:10.875175 31124 net.cpp:113] Setting up inception_4c/3x3_reduce
I1230 19:22:10.877284 31124 net.cpp:120] Top shape: 80 128 14 14 (2007040)
I1230 19:22:10.877312 31124 layer_factory.hpp:74] Creating layer inception_4c/relu_3x3_reduce
I1230 19:22:10.877328 31124 net.cpp:84] Creating Layer inception_4c/relu_3x3_reduce
I1230 19:22:10.877338 31124 net.cpp:380] inception_4c/relu_3x3_reduce <- inception_4c/3x3_reduce
I1230 19:22:10.877351 31124 net.cpp:327] inception_4c/relu_3x3_reduce -> inception_4c/3x3_reduce (in-place)
I1230 19:22:10.877365 31124 net.cpp:113] Setting up inception_4c/relu_3x3_reduce
I1230 19:22:10.877492 31124 net.cpp:120] Top shape: 80 128 14 14 (2007040)
I1230 19:22:10.877506 31124 layer_factory.hpp:74] Creating layer inception_4c/3x3
I1230 19:22:10.877522 31124 net.cpp:84] Creating Layer inception_4c/3x3
I1230 19:22:10.877532 31124 net.cpp:380] inception_4c/3x3 <- inception_4c/3x3_reduce
I1230 19:22:10.877544 31124 net.cpp:338] inception_4c/3x3 -> inception_4c/3x3
I1230 19:22:10.877559 31124 net.cpp:113] Setting up inception_4c/3x3
I1230 19:22:10.884546 31124 net.cpp:120] Top shape: 80 256 14 14 (4014080)
I1230 19:22:10.884600 31124 layer_factory.hpp:74] Creating layer inception_4c/relu_3x3
I1230 19:22:10.884618 31124 net.cpp:84] Creating Layer inception_4c/relu_3x3
I1230 19:22:10.884630 31124 net.cpp:380] inception_4c/relu_3x3 <- inception_4c/3x3
I1230 19:22:10.884644 31124 net.cpp:327] inception_4c/relu_3x3 -> inception_4c/3x3 (in-place)
I1230 19:22:10.884659 31124 net.cpp:113] Setting up inception_4c/relu_3x3
I1230 19:22:10.884789 31124 net.cpp:120] Top shape: 80 256 14 14 (4014080)
I1230 19:22:10.884800 31124 layer_factory.hpp:74] Creating layer inception_4c/5x5_reduce
I1230 19:22:10.884817 31124 net.cpp:84] Creating Layer inception_4c/5x5_reduce
I1230 19:22:10.884826 31124 net.cpp:380] inception_4c/5x5_reduce <- inception_4b/output_inception_4b/output_0_split_2
I1230 19:22:10.884842 31124 net.cpp:338] inception_4c/5x5_reduce -> inception_4c/5x5_reduce
I1230 19:22:10.884858 31124 net.cpp:113] Setting up inception_4c/5x5_reduce
I1230 19:22:10.885859 31124 net.cpp:120] Top shape: 80 24 14 14 (376320)
I1230 19:22:10.885885 31124 layer_factory.hpp:74] Creating layer inception_4c/relu_5x5_reduce
I1230 19:22:10.885896 31124 net.cpp:84] Creating Layer inception_4c/relu_5x5_reduce
I1230 19:22:10.885906 31124 net.cpp:380] inception_4c/relu_5x5_reduce <- inception_4c/5x5_reduce
I1230 19:22:10.885921 31124 net.cpp:327] inception_4c/relu_5x5_reduce -> inception_4c/5x5_reduce (in-place)
I1230 19:22:10.885933 31124 net.cpp:113] Setting up inception_4c/relu_5x5_reduce
I1230 19:22:10.886286 31124 net.cpp:120] Top shape: 80 24 14 14 (376320)
I1230 19:22:10.886306 31124 layer_factory.hpp:74] Creating layer inception_4c/5x5
I1230 19:22:10.886328 31124 net.cpp:84] Creating Layer inception_4c/5x5
I1230 19:22:10.886342 31124 net.cpp:380] inception_4c/5x5 <- inception_4c/5x5_reduce
I1230 19:22:10.886354 31124 net.cpp:338] inception_4c/5x5 -> inception_4c/5x5
I1230 19:22:10.886369 31124 net.cpp:113] Setting up inception_4c/5x5
I1230 19:22:10.887820 31124 net.cpp:120] Top shape: 80 64 14 14 (1003520)
I1230 19:22:10.887856 31124 layer_factory.hpp:74] Creating layer inception_4c/relu_5x5
I1230 19:22:10.887884 31124 net.cpp:84] Creating Layer inception_4c/relu_5x5
I1230 19:22:10.887894 31124 net.cpp:380] inception_4c/relu_5x5 <- inception_4c/5x5
I1230 19:22:10.887907 31124 net.cpp:327] inception_4c/relu_5x5 -> inception_4c/5x5 (in-place)
I1230 19:22:10.887920 31124 net.cpp:113] Setting up inception_4c/relu_5x5
I1230 19:22:10.888043 31124 net.cpp:120] Top shape: 80 64 14 14 (1003520)
I1230 19:22:10.888054 31124 layer_factory.hpp:74] Creating layer inception_4c/pool
I1230 19:22:10.888063 31124 layer_factory.cpp:56] CUDNN does not support padding or multiple tops. Using Caffe's own pooling layer.
I1230 19:22:10.888078 31124 net.cpp:84] Creating Layer inception_4c/pool
I1230 19:22:10.888087 31124 net.cpp:380] inception_4c/pool <- inception_4b/output_inception_4b/output_0_split_3
I1230 19:22:10.888099 31124 net.cpp:338] inception_4c/pool -> inception_4c/pool
I1230 19:22:10.888113 31124 net.cpp:113] Setting up inception_4c/pool
I1230 19:22:10.888128 31124 net.cpp:120] Top shape: 80 512 14 14 (8028160)
I1230 19:22:10.888135 31124 layer_factory.hpp:74] Creating layer inception_4c/pool_proj
I1230 19:22:10.888151 31124 net.cpp:84] Creating Layer inception_4c/pool_proj
I1230 19:22:10.888159 31124 net.cpp:380] inception_4c/pool_proj <- inception_4c/pool
I1230 19:22:10.888171 31124 net.cpp:338] inception_4c/pool_proj -> inception_4c/pool_proj
I1230 19:22:10.888185 31124 net.cpp:113] Setting up inception_4c/pool_proj
I1230 19:22:10.889506 31124 net.cpp:120] Top shape: 80 64 14 14 (1003520)
I1230 19:22:10.889533 31124 layer_factory.hpp:74] Creating layer inception_4c/relu_pool_proj
I1230 19:22:10.889550 31124 net.cpp:84] Creating Layer inception_4c/relu_pool_proj
I1230 19:22:10.889560 31124 net.cpp:380] inception_4c/relu_pool_proj <- inception_4c/pool_proj
I1230 19:22:10.889571 31124 net.cpp:327] inception_4c/relu_pool_proj -> inception_4c/pool_proj (in-place)
I1230 19:22:10.889585 31124 net.cpp:113] Setting up inception_4c/relu_pool_proj
I1230 19:22:10.889708 31124 net.cpp:120] Top shape: 80 64 14 14 (1003520)
I1230 19:22:10.889719 31124 layer_factory.hpp:74] Creating layer inception_4c/output
I1230 19:22:10.889730 31124 net.cpp:84] Creating Layer inception_4c/output
I1230 19:22:10.889739 31124 net.cpp:380] inception_4c/output <- inception_4c/1x1
I1230 19:22:10.889750 31124 net.cpp:380] inception_4c/output <- inception_4c/3x3
I1230 19:22:10.889758 31124 net.cpp:380] inception_4c/output <- inception_4c/5x5
I1230 19:22:10.889767 31124 net.cpp:380] inception_4c/output <- inception_4c/pool_proj
I1230 19:22:10.889780 31124 net.cpp:338] inception_4c/output -> inception_4c/output
I1230 19:22:10.889793 31124 net.cpp:113] Setting up inception_4c/output
I1230 19:22:10.889806 31124 net.cpp:120] Top shape: 80 512 14 14 (8028160)
I1230 19:22:10.889814 31124 layer_factory.hpp:74] Creating layer inception_4c/output_inception_4c/output_0_split
I1230 19:22:10.889825 31124 net.cpp:84] Creating Layer inception_4c/output_inception_4c/output_0_split
I1230 19:22:10.889833 31124 net.cpp:380] inception_4c/output_inception_4c/output_0_split <- inception_4c/output
I1230 19:22:10.889844 31124 net.cpp:338] inception_4c/output_inception_4c/output_0_split -> inception_4c/output_inception_4c/output_0_split_0
I1230 19:22:10.889859 31124 net.cpp:338] inception_4c/output_inception_4c/output_0_split -> inception_4c/output_inception_4c/output_0_split_1
I1230 19:22:10.889873 31124 net.cpp:338] inception_4c/output_inception_4c/output_0_split -> inception_4c/output_inception_4c/output_0_split_2
I1230 19:22:10.889885 31124 net.cpp:338] inception_4c/output_inception_4c/output_0_split -> inception_4c/output_inception_4c/output_0_split_3
I1230 19:22:10.889895 31124 net.cpp:113] Setting up inception_4c/output_inception_4c/output_0_split
I1230 19:22:10.889909 31124 net.cpp:120] Top shape: 80 512 14 14 (8028160)
I1230 19:22:10.889919 31124 net.cpp:120] Top shape: 80 512 14 14 (8028160)
I1230 19:22:10.889926 31124 net.cpp:120] Top shape: 80 512 14 14 (8028160)
I1230 19:22:10.889945 31124 net.cpp:120] Top shape: 80 512 14 14 (8028160)
I1230 19:22:10.889963 31124 layer_factory.hpp:74] Creating layer inception_4d/1x1
I1230 19:22:10.889981 31124 net.cpp:84] Creating Layer inception_4d/1x1
I1230 19:22:10.889988 31124 net.cpp:380] inception_4d/1x1 <- inception_4c/output_inception_4c/output_0_split_0
I1230 19:22:10.890000 31124 net.cpp:338] inception_4d/1x1 -> inception_4d/1x1
I1230 19:22:10.890013 31124 net.cpp:113] Setting up inception_4d/1x1
I1230 19:22:10.891801 31124 net.cpp:120] Top shape: 80 112 14 14 (1756160)
I1230 19:22:10.891826 31124 layer_factory.hpp:74] Creating layer inception_4d/relu_1x1
I1230 19:22:10.891840 31124 net.cpp:84] Creating Layer inception_4d/relu_1x1
I1230 19:22:10.891849 31124 net.cpp:380] inception_4d/relu_1x1 <- inception_4d/1x1
I1230 19:22:10.891865 31124 net.cpp:327] inception_4d/relu_1x1 -> inception_4d/1x1 (in-place)
I1230 19:22:10.891877 31124 net.cpp:113] Setting up inception_4d/relu_1x1
I1230 19:22:10.891996 31124 net.cpp:120] Top shape: 80 112 14 14 (1756160)
I1230 19:22:10.892007 31124 layer_factory.hpp:74] Creating layer inception_4d/3x3_reduce
I1230 19:22:10.892024 31124 net.cpp:84] Creating Layer inception_4d/3x3_reduce
I1230 19:22:10.892032 31124 net.cpp:380] inception_4d/3x3_reduce <- inception_4c/output_inception_4c/output_0_split_1
I1230 19:22:10.892048 31124 net.cpp:338] inception_4d/3x3_reduce -> inception_4d/3x3_reduce
I1230 19:22:10.892062 31124 net.cpp:113] Setting up inception_4d/3x3_reduce
I1230 19:22:10.894229 31124 net.cpp:120] Top shape: 80 144 14 14 (2257920)
I1230 19:22:10.894256 31124 layer_factory.hpp:74] Creating layer inception_4d/relu_3x3_reduce
I1230 19:22:10.894268 31124 net.cpp:84] Creating Layer inception_4d/relu_3x3_reduce
I1230 19:22:10.894278 31124 net.cpp:380] inception_4d/relu_3x3_reduce <- inception_4d/3x3_reduce
I1230 19:22:10.894292 31124 net.cpp:327] inception_4d/relu_3x3_reduce -> inception_4d/3x3_reduce (in-place)
I1230 19:22:10.894305 31124 net.cpp:113] Setting up inception_4d/relu_3x3_reduce
I1230 19:22:10.894670 31124 net.cpp:120] Top shape: 80 144 14 14 (2257920)
I1230 19:22:10.894687 31124 layer_factory.hpp:74] Creating layer inception_4d/3x3
I1230 19:22:10.894706 31124 net.cpp:84] Creating Layer inception_4d/3x3
I1230 19:22:10.894716 31124 net.cpp:380] inception_4d/3x3 <- inception_4d/3x3_reduce
I1230 19:22:10.894731 31124 net.cpp:338] inception_4d/3x3 -> inception_4d/3x3
I1230 19:22:10.894745 31124 net.cpp:113] Setting up inception_4d/3x3
I1230 19:22:10.902889 31124 net.cpp:120] Top shape: 80 288 14 14 (4515840)
I1230 19:22:10.902920 31124 layer_factory.hpp:74] Creating layer inception_4d/relu_3x3
I1230 19:22:10.902935 31124 net.cpp:84] Creating Layer inception_4d/relu_3x3
I1230 19:22:10.902943 31124 net.cpp:380] inception_4d/relu_3x3 <- inception_4d/3x3
I1230 19:22:10.902956 31124 net.cpp:327] inception_4d/relu_3x3 -> inception_4d/3x3 (in-place)
I1230 19:22:10.902968 31124 net.cpp:113] Setting up inception_4d/relu_3x3
I1230 19:22:10.903086 31124 net.cpp:120] Top shape: 80 288 14 14 (4515840)
I1230 19:22:10.903097 31124 layer_factory.hpp:74] Creating layer inception_4d/5x5_reduce
I1230 19:22:10.903111 31124 net.cpp:84] Creating Layer inception_4d/5x5_reduce
I1230 19:22:10.903120 31124 net.cpp:380] inception_4d/5x5_reduce <- inception_4c/output_inception_4c/output_0_split_2
I1230 19:22:10.903136 31124 net.cpp:338] inception_4d/5x5_reduce -> inception_4d/5x5_reduce
I1230 19:22:10.903149 31124 net.cpp:113] Setting up inception_4d/5x5_reduce
I1230 19:22:10.904129 31124 net.cpp:120] Top shape: 80 32 14 14 (501760)
I1230 19:22:10.904155 31124 layer_factory.hpp:74] Creating layer inception_4d/relu_5x5_reduce
I1230 19:22:10.904170 31124 net.cpp:84] Creating Layer inception_4d/relu_5x5_reduce
I1230 19:22:10.904180 31124 net.cpp:380] inception_4d/relu_5x5_reduce <- inception_4d/5x5_reduce
I1230 19:22:10.904191 31124 net.cpp:327] inception_4d/relu_5x5_reduce -> inception_4d/5x5_reduce (in-place)
I1230 19:22:10.904204 31124 net.cpp:113] Setting up inception_4d/relu_5x5_reduce
I1230 19:22:10.904321 31124 net.cpp:120] Top shape: 80 32 14 14 (501760)
I1230 19:22:10.904341 31124 layer_factory.hpp:74] Creating layer inception_4d/5x5
I1230 19:22:10.904368 31124 net.cpp:84] Creating Layer inception_4d/5x5
I1230 19:22:10.904377 31124 net.cpp:380] inception_4d/5x5 <- inception_4d/5x5_reduce
I1230 19:22:10.904392 31124 net.cpp:338] inception_4d/5x5 -> inception_4d/5x5
I1230 19:22:10.904407 31124 net.cpp:113] Setting up inception_4d/5x5
I1230 19:22:10.906121 31124 net.cpp:120] Top shape: 80 64 14 14 (1003520)
I1230 19:22:10.906147 31124 layer_factory.hpp:74] Creating layer inception_4d/relu_5x5
I1230 19:22:10.906159 31124 net.cpp:84] Creating Layer inception_4d/relu_5x5
I1230 19:22:10.906168 31124 net.cpp:380] inception_4d/relu_5x5 <- inception_4d/5x5
I1230 19:22:10.906180 31124 net.cpp:327] inception_4d/relu_5x5 -> inception_4d/5x5 (in-place)
I1230 19:22:10.906193 31124 net.cpp:113] Setting up inception_4d/relu_5x5
I1230 19:22:10.906309 31124 net.cpp:120] Top shape: 80 64 14 14 (1003520)
I1230 19:22:10.906321 31124 layer_factory.hpp:74] Creating layer inception_4d/pool
I1230 19:22:10.906329 31124 layer_factory.cpp:56] CUDNN does not support padding or multiple tops. Using Caffe's own pooling layer.
I1230 19:22:10.906339 31124 net.cpp:84] Creating Layer inception_4d/pool
I1230 19:22:10.906348 31124 net.cpp:380] inception_4d/pool <- inception_4c/output_inception_4c/output_0_split_3
I1230 19:22:10.906363 31124 net.cpp:338] inception_4d/pool -> inception_4d/pool
I1230 19:22:10.906376 31124 net.cpp:113] Setting up inception_4d/pool
I1230 19:22:10.906391 31124 net.cpp:120] Top shape: 80 512 14 14 (8028160)
I1230 19:22:10.906400 31124 layer_factory.hpp:74] Creating layer inception_4d/pool_proj
I1230 19:22:10.906415 31124 net.cpp:84] Creating Layer inception_4d/pool_proj
I1230 19:22:10.906424 31124 net.cpp:380] inception_4d/pool_proj <- inception_4d/pool
I1230 19:22:10.906438 31124 net.cpp:338] inception_4d/pool_proj -> inception_4d/pool_proj
I1230 19:22:10.906451 31124 net.cpp:113] Setting up inception_4d/pool_proj
I1230 19:22:10.907728 31124 net.cpp:120] Top shape: 80 64 14 14 (1003520)
I1230 19:22:10.907753 31124 layer_factory.hpp:74] Creating layer inception_4d/relu_pool_proj
I1230 19:22:10.907764 31124 net.cpp:84] Creating Layer inception_4d/relu_pool_proj
I1230 19:22:10.907774 31124 net.cpp:380] inception_4d/relu_pool_proj <- inception_4d/pool_proj
I1230 19:22:10.907785 31124 net.cpp:327] inception_4d/relu_pool_proj -> inception_4d/pool_proj (in-place)
I1230 19:22:10.907799 31124 net.cpp:113] Setting up inception_4d/relu_pool_proj
I1230 19:22:10.908156 31124 net.cpp:120] Top shape: 80 64 14 14 (1003520)
I1230 19:22:10.908174 31124 layer_factory.hpp:74] Creating layer inception_4d/output
I1230 19:22:10.908188 31124 net.cpp:84] Creating Layer inception_4d/output
I1230 19:22:10.908197 31124 net.cpp:380] inception_4d/output <- inception_4d/1x1
I1230 19:22:10.908208 31124 net.cpp:380] inception_4d/output <- inception_4d/3x3
I1230 19:22:10.908218 31124 net.cpp:380] inception_4d/output <- inception_4d/5x5
I1230 19:22:10.908227 31124 net.cpp:380] inception_4d/output <- inception_4d/pool_proj
I1230 19:22:10.908237 31124 net.cpp:338] inception_4d/output -> inception_4d/output
I1230 19:22:10.908252 31124 net.cpp:113] Setting up inception_4d/output
I1230 19:22:10.908264 31124 net.cpp:120] Top shape: 80 528 14 14 (8279040)
I1230 19:22:10.908272 31124 layer_factory.hpp:74] Creating layer inception_4d/output_inception_4d/output_0_split
I1230 19:22:10.908288 31124 net.cpp:84] Creating Layer inception_4d/output_inception_4d/output_0_split
I1230 19:22:10.908295 31124 net.cpp:380] inception_4d/output_inception_4d/output_0_split <- inception_4d/output
I1230 19:22:10.908306 31124 net.cpp:338] inception_4d/output_inception_4d/output_0_split -> inception_4d/output_inception_4d/output_0_split_0
I1230 19:22:10.908319 31124 net.cpp:338] inception_4d/output_inception_4d/output_0_split -> inception_4d/output_inception_4d/output_0_split_1
I1230 19:22:10.908332 31124 net.cpp:338] inception_4d/output_inception_4d/output_0_split -> inception_4d/output_inception_4d/output_0_split_2
I1230 19:22:10.908354 31124 net.cpp:338] inception_4d/output_inception_4d/output_0_split -> inception_4d/output_inception_4d/output_0_split_3
I1230 19:22:10.908378 31124 net.cpp:338] inception_4d/output_inception_4d/output_0_split -> inception_4d/output_inception_4d/output_0_split_4
I1230 19:22:10.908390 31124 net.cpp:113] Setting up inception_4d/output_inception_4d/output_0_split
I1230 19:22:10.908404 31124 net.cpp:120] Top shape: 80 528 14 14 (8279040)
I1230 19:22:10.908413 31124 net.cpp:120] Top shape: 80 528 14 14 (8279040)
I1230 19:22:10.908421 31124 net.cpp:120] Top shape: 80 528 14 14 (8279040)
I1230 19:22:10.908431 31124 net.cpp:120] Top shape: 80 528 14 14 (8279040)
I1230 19:22:10.908439 31124 net.cpp:120] Top shape: 80 528 14 14 (8279040)
I1230 19:22:10.908447 31124 layer_factory.hpp:74] Creating layer loss2/ave_pool
I1230 19:22:10.908460 31124 net.cpp:84] Creating Layer loss2/ave_pool
I1230 19:22:10.908468 31124 net.cpp:380] loss2/ave_pool <- inception_4d/output_inception_4d/output_0_split_0
I1230 19:22:10.908483 31124 net.cpp:338] loss2/ave_pool -> loss2/ave_pool
I1230 19:22:10.908494 31124 net.cpp:113] Setting up loss2/ave_pool
I1230 19:22:10.908617 31124 net.cpp:120] Top shape: 80 528 4 4 (675840)
I1230 19:22:10.908629 31124 layer_factory.hpp:74] Creating layer loss2/conv
I1230 19:22:10.908646 31124 net.cpp:84] Creating Layer loss2/conv
I1230 19:22:10.908654 31124 net.cpp:380] loss2/conv <- loss2/ave_pool
I1230 19:22:10.908669 31124 net.cpp:338] loss2/conv -> loss2/conv
I1230 19:22:10.908682 31124 net.cpp:113] Setting up loss2/conv
I1230 19:22:10.910588 31124 net.cpp:120] Top shape: 80 128 4 4 (163840)
I1230 19:22:10.910614 31124 layer_factory.hpp:74] Creating layer loss2/relu_conv
I1230 19:22:10.910624 31124 net.cpp:84] Creating Layer loss2/relu_conv
I1230 19:22:10.910634 31124 net.cpp:380] loss2/relu_conv <- loss2/conv
I1230 19:22:10.910646 31124 net.cpp:327] loss2/relu_conv -> loss2/conv (in-place)
I1230 19:22:10.910658 31124 net.cpp:113] Setting up loss2/relu_conv
I1230 19:22:10.910769 31124 net.cpp:120] Top shape: 80 128 4 4 (163840)
I1230 19:22:10.910778 31124 layer_factory.hpp:74] Creating layer loss2/fc
I1230 19:22:10.910794 31124 net.cpp:84] Creating Layer loss2/fc
I1230 19:22:10.910801 31124 net.cpp:380] loss2/fc <- loss2/conv
I1230 19:22:10.910812 31124 net.cpp:338] loss2/fc -> loss2/fc
I1230 19:22:10.910826 31124 net.cpp:113] Setting up loss2/fc
I1230 19:22:11.028014 31124 net.cpp:120] Top shape: 80 1024 (81920)
I1230 19:22:11.028054 31124 layer_factory.hpp:74] Creating layer loss2/relu_fc
I1230 19:22:11.028066 31124 net.cpp:84] Creating Layer loss2/relu_fc
I1230 19:22:11.028075 31124 net.cpp:380] loss2/relu_fc <- loss2/fc
I1230 19:22:11.028084 31124 net.cpp:327] loss2/relu_fc -> loss2/fc (in-place)
I1230 19:22:11.028095 31124 net.cpp:113] Setting up loss2/relu_fc
I1230 19:22:11.028475 31124 net.cpp:120] Top shape: 80 1024 (81920)
I1230 19:22:11.028491 31124 layer_factory.hpp:74] Creating layer loss2/drop_fc
I1230 19:22:11.028501 31124 net.cpp:84] Creating Layer loss2/drop_fc
I1230 19:22:11.028506 31124 net.cpp:380] loss2/drop_fc <- loss2/fc
I1230 19:22:11.028514 31124 net.cpp:327] loss2/drop_fc -> loss2/fc (in-place)
I1230 19:22:11.028523 31124 net.cpp:113] Setting up loss2/drop_fc
I1230 19:22:11.028532 31124 net.cpp:120] Top shape: 80 1024 (81920)
I1230 19:22:11.028537 31124 layer_factory.hpp:74] Creating layer loss2/classifier_kaggle
I1230 19:22:11.028547 31124 net.cpp:84] Creating Layer loss2/classifier_kaggle
I1230 19:22:11.028551 31124 net.cpp:380] loss2/classifier_kaggle <- loss2/fc
I1230 19:22:11.028558 31124 net.cpp:338] loss2/classifier_kaggle -> loss2/classifier_kaggle
I1230 19:22:11.028568 31124 net.cpp:113] Setting up loss2/classifier_kaggle
I1230 19:22:11.034009 31124 net.cpp:120] Top shape: 80 447 (35760)
I1230 19:22:11.034025 31124 layer_factory.hpp:74] Creating layer loss2/loss
I1230 19:22:11.034035 31124 net.cpp:84] Creating Layer loss2/loss
I1230 19:22:11.034041 31124 net.cpp:380] loss2/loss <- loss2/classifier_kaggle
I1230 19:22:11.034049 31124 net.cpp:380] loss2/loss <- label_data_1_split_1
I1230 19:22:11.034065 31124 net.cpp:338] loss2/loss -> loss2/loss1
I1230 19:22:11.034086 31124 net.cpp:113] Setting up loss2/loss
I1230 19:22:11.034093 31124 layer_factory.hpp:74] Creating layer loss2/loss
I1230 19:22:11.034288 31124 net.cpp:120] Top shape: (1)
I1230 19:22:11.034296 31124 net.cpp:122]     with loss weight 0.3
I1230 19:22:11.034308 31124 layer_factory.hpp:74] Creating layer inception_4e/1x1
I1230 19:22:11.034320 31124 net.cpp:84] Creating Layer inception_4e/1x1
I1230 19:22:11.034327 31124 net.cpp:380] inception_4e/1x1 <- inception_4d/output_inception_4d/output_0_split_1
I1230 19:22:11.034334 31124 net.cpp:338] inception_4e/1x1 -> inception_4e/1x1
I1230 19:22:11.034343 31124 net.cpp:113] Setting up inception_4e/1x1
I1230 19:22:11.036422 31124 net.cpp:120] Top shape: 80 256 14 14 (4014080)
I1230 19:22:11.036439 31124 layer_factory.hpp:74] Creating layer inception_4e/relu_1x1
I1230 19:22:11.036451 31124 net.cpp:84] Creating Layer inception_4e/relu_1x1
I1230 19:22:11.036456 31124 net.cpp:380] inception_4e/relu_1x1 <- inception_4e/1x1
I1230 19:22:11.036463 31124 net.cpp:327] inception_4e/relu_1x1 -> inception_4e/1x1 (in-place)
I1230 19:22:11.036471 31124 net.cpp:113] Setting up inception_4e/relu_1x1
I1230 19:22:11.036540 31124 net.cpp:120] Top shape: 80 256 14 14 (4014080)
I1230 19:22:11.036553 31124 layer_factory.hpp:74] Creating layer inception_4e/3x3_reduce
I1230 19:22:11.036561 31124 net.cpp:84] Creating Layer inception_4e/3x3_reduce
I1230 19:22:11.036566 31124 net.cpp:380] inception_4e/3x3_reduce <- inception_4d/output_inception_4d/output_0_split_2
I1230 19:22:11.036576 31124 net.cpp:338] inception_4e/3x3_reduce -> inception_4e/3x3_reduce
I1230 19:22:11.036584 31124 net.cpp:113] Setting up inception_4e/3x3_reduce
I1230 19:22:11.038072 31124 net.cpp:120] Top shape: 80 160 14 14 (2508800)
I1230 19:22:11.038089 31124 layer_factory.hpp:74] Creating layer inception_4e/relu_3x3_reduce
I1230 19:22:11.038100 31124 net.cpp:84] Creating Layer inception_4e/relu_3x3_reduce
I1230 19:22:11.038105 31124 net.cpp:380] inception_4e/relu_3x3_reduce <- inception_4e/3x3_reduce
I1230 19:22:11.038112 31124 net.cpp:327] inception_4e/relu_3x3_reduce -> inception_4e/3x3_reduce (in-place)
I1230 19:22:11.038120 31124 net.cpp:113] Setting up inception_4e/relu_3x3_reduce
I1230 19:22:11.038198 31124 net.cpp:120] Top shape: 80 160 14 14 (2508800)
I1230 19:22:11.038205 31124 layer_factory.hpp:74] Creating layer inception_4e/3x3
I1230 19:22:11.038214 31124 net.cpp:84] Creating Layer inception_4e/3x3
I1230 19:22:11.038219 31124 net.cpp:380] inception_4e/3x3 <- inception_4e/3x3_reduce
I1230 19:22:11.038228 31124 net.cpp:338] inception_4e/3x3 -> inception_4e/3x3
I1230 19:22:11.038238 31124 net.cpp:113] Setting up inception_4e/3x3
I1230 19:22:11.044158 31124 net.cpp:120] Top shape: 80 320 14 14 (5017600)
I1230 19:22:11.044174 31124 layer_factory.hpp:74] Creating layer inception_4e/relu_3x3
I1230 19:22:11.044185 31124 net.cpp:84] Creating Layer inception_4e/relu_3x3
I1230 19:22:11.044191 31124 net.cpp:380] inception_4e/relu_3x3 <- inception_4e/3x3
I1230 19:22:11.044198 31124 net.cpp:327] inception_4e/relu_3x3 -> inception_4e/3x3 (in-place)
I1230 19:22:11.044205 31124 net.cpp:113] Setting up inception_4e/relu_3x3
I1230 19:22:11.044453 31124 net.cpp:120] Top shape: 80 320 14 14 (5017600)
I1230 19:22:11.044466 31124 layer_factory.hpp:74] Creating layer inception_4e/5x5_reduce
I1230 19:22:11.044476 31124 net.cpp:84] Creating Layer inception_4e/5x5_reduce
I1230 19:22:11.044482 31124 net.cpp:380] inception_4e/5x5_reduce <- inception_4d/output_inception_4d/output_0_split_3
I1230 19:22:11.044491 31124 net.cpp:338] inception_4e/5x5_reduce -> inception_4e/5x5_reduce
I1230 19:22:11.044499 31124 net.cpp:113] Setting up inception_4e/5x5_reduce
I1230 19:22:11.045130 31124 net.cpp:120] Top shape: 80 32 14 14 (501760)
I1230 19:22:11.045146 31124 layer_factory.hpp:74] Creating layer inception_4e/relu_5x5_reduce
I1230 19:22:11.045153 31124 net.cpp:84] Creating Layer inception_4e/relu_5x5_reduce
I1230 19:22:11.045159 31124 net.cpp:380] inception_4e/relu_5x5_reduce <- inception_4e/5x5_reduce
I1230 19:22:11.045182 31124 net.cpp:327] inception_4e/relu_5x5_reduce -> inception_4e/5x5_reduce (in-place)
I1230 19:22:11.045191 31124 net.cpp:113] Setting up inception_4e/relu_5x5_reduce
I1230 19:22:11.045265 31124 net.cpp:120] Top shape: 80 32 14 14 (501760)
I1230 19:22:11.045274 31124 layer_factory.hpp:74] Creating layer inception_4e/5x5
I1230 19:22:11.045305 31124 net.cpp:84] Creating Layer inception_4e/5x5
I1230 19:22:11.045310 31124 net.cpp:380] inception_4e/5x5 <- inception_4e/5x5_reduce
I1230 19:22:11.045318 31124 net.cpp:338] inception_4e/5x5 -> inception_4e/5x5
I1230 19:22:11.045327 31124 net.cpp:113] Setting up inception_4e/5x5
I1230 19:22:11.046972 31124 net.cpp:120] Top shape: 80 128 14 14 (2007040)
I1230 19:22:11.046988 31124 layer_factory.hpp:74] Creating layer inception_4e/relu_5x5
I1230 19:22:11.046996 31124 net.cpp:84] Creating Layer inception_4e/relu_5x5
I1230 19:22:11.047001 31124 net.cpp:380] inception_4e/relu_5x5 <- inception_4e/5x5
I1230 19:22:11.047008 31124 net.cpp:327] inception_4e/relu_5x5 -> inception_4e/5x5 (in-place)
I1230 19:22:11.047015 31124 net.cpp:113] Setting up inception_4e/relu_5x5
I1230 19:22:11.047087 31124 net.cpp:120] Top shape: 80 128 14 14 (2007040)
I1230 19:22:11.047094 31124 layer_factory.hpp:74] Creating layer inception_4e/pool
I1230 19:22:11.047101 31124 layer_factory.cpp:56] CUDNN does not support padding or multiple tops. Using Caffe's own pooling layer.
I1230 19:22:11.047107 31124 net.cpp:84] Creating Layer inception_4e/pool
I1230 19:22:11.047112 31124 net.cpp:380] inception_4e/pool <- inception_4d/output_inception_4d/output_0_split_4
I1230 19:22:11.047122 31124 net.cpp:338] inception_4e/pool -> inception_4e/pool
I1230 19:22:11.047129 31124 net.cpp:113] Setting up inception_4e/pool
I1230 19:22:11.047139 31124 net.cpp:120] Top shape: 80 528 14 14 (8279040)
I1230 19:22:11.047144 31124 layer_factory.hpp:74] Creating layer inception_4e/pool_proj
I1230 19:22:11.047152 31124 net.cpp:84] Creating Layer inception_4e/pool_proj
I1230 19:22:11.047158 31124 net.cpp:380] inception_4e/pool_proj <- inception_4e/pool
I1230 19:22:11.047166 31124 net.cpp:338] inception_4e/pool_proj -> inception_4e/pool_proj
I1230 19:22:11.047174 31124 net.cpp:113] Setting up inception_4e/pool_proj
I1230 19:22:11.048406 31124 net.cpp:120] Top shape: 80 128 14 14 (2007040)
I1230 19:22:11.048423 31124 layer_factory.hpp:74] Creating layer inception_4e/relu_pool_proj
I1230 19:22:11.048430 31124 net.cpp:84] Creating Layer inception_4e/relu_pool_proj
I1230 19:22:11.048436 31124 net.cpp:380] inception_4e/relu_pool_proj <- inception_4e/pool_proj
I1230 19:22:11.048444 31124 net.cpp:327] inception_4e/relu_pool_proj -> inception_4e/pool_proj (in-place)
I1230 19:22:11.048452 31124 net.cpp:113] Setting up inception_4e/relu_pool_proj
I1230 19:22:11.048530 31124 net.cpp:120] Top shape: 80 128 14 14 (2007040)
I1230 19:22:11.048537 31124 layer_factory.hpp:74] Creating layer inception_4e/output
I1230 19:22:11.048544 31124 net.cpp:84] Creating Layer inception_4e/output
I1230 19:22:11.048549 31124 net.cpp:380] inception_4e/output <- inception_4e/1x1
I1230 19:22:11.048555 31124 net.cpp:380] inception_4e/output <- inception_4e/3x3
I1230 19:22:11.048560 31124 net.cpp:380] inception_4e/output <- inception_4e/5x5
I1230 19:22:11.048565 31124 net.cpp:380] inception_4e/output <- inception_4e/pool_proj
I1230 19:22:11.048573 31124 net.cpp:338] inception_4e/output -> inception_4e/output
I1230 19:22:11.048581 31124 net.cpp:113] Setting up inception_4e/output
I1230 19:22:11.048589 31124 net.cpp:120] Top shape: 80 832 14 14 (13045760)
I1230 19:22:11.048594 31124 layer_factory.hpp:74] Creating layer pool4/3x3_s2
I1230 19:22:11.048602 31124 net.cpp:84] Creating Layer pool4/3x3_s2
I1230 19:22:11.048607 31124 net.cpp:380] pool4/3x3_s2 <- inception_4e/output
I1230 19:22:11.048614 31124 net.cpp:338] pool4/3x3_s2 -> pool4/3x3_s2
I1230 19:22:11.048624 31124 net.cpp:113] Setting up pool4/3x3_s2
I1230 19:22:11.048877 31124 net.cpp:120] Top shape: 80 832 7 7 (3261440)
I1230 19:22:11.048889 31124 layer_factory.hpp:74] Creating layer pool4/3x3_s2_pool4/3x3_s2_0_split
I1230 19:22:11.048909 31124 net.cpp:84] Creating Layer pool4/3x3_s2_pool4/3x3_s2_0_split
I1230 19:22:11.048915 31124 net.cpp:380] pool4/3x3_s2_pool4/3x3_s2_0_split <- pool4/3x3_s2
I1230 19:22:11.048923 31124 net.cpp:338] pool4/3x3_s2_pool4/3x3_s2_0_split -> pool4/3x3_s2_pool4/3x3_s2_0_split_0
I1230 19:22:11.048930 31124 net.cpp:338] pool4/3x3_s2_pool4/3x3_s2_0_split -> pool4/3x3_s2_pool4/3x3_s2_0_split_1
I1230 19:22:11.048938 31124 net.cpp:338] pool4/3x3_s2_pool4/3x3_s2_0_split -> pool4/3x3_s2_pool4/3x3_s2_0_split_2
I1230 19:22:11.048945 31124 net.cpp:338] pool4/3x3_s2_pool4/3x3_s2_0_split -> pool4/3x3_s2_pool4/3x3_s2_0_split_3
I1230 19:22:11.048951 31124 net.cpp:113] Setting up pool4/3x3_s2_pool4/3x3_s2_0_split
I1230 19:22:11.048959 31124 net.cpp:120] Top shape: 80 832 7 7 (3261440)
I1230 19:22:11.048965 31124 net.cpp:120] Top shape: 80 832 7 7 (3261440)
I1230 19:22:11.048970 31124 net.cpp:120] Top shape: 80 832 7 7 (3261440)
I1230 19:22:11.048975 31124 net.cpp:120] Top shape: 80 832 7 7 (3261440)
I1230 19:22:11.048979 31124 layer_factory.hpp:74] Creating layer inception_5a/1x1
I1230 19:22:11.048990 31124 net.cpp:84] Creating Layer inception_5a/1x1
I1230 19:22:11.048995 31124 net.cpp:380] inception_5a/1x1 <- pool4/3x3_s2_pool4/3x3_s2_0_split_0
I1230 19:22:11.049005 31124 net.cpp:338] inception_5a/1x1 -> inception_5a/1x1
I1230 19:22:11.049012 31124 net.cpp:113] Setting up inception_5a/1x1
I1230 19:22:11.052006 31124 net.cpp:120] Top shape: 80 256 7 7 (1003520)
I1230 19:22:11.052024 31124 layer_factory.hpp:74] Creating layer inception_5a/relu_1x1
I1230 19:22:11.052033 31124 net.cpp:84] Creating Layer inception_5a/relu_1x1
I1230 19:22:11.052039 31124 net.cpp:380] inception_5a/relu_1x1 <- inception_5a/1x1
I1230 19:22:11.052047 31124 net.cpp:327] inception_5a/relu_1x1 -> inception_5a/1x1 (in-place)
I1230 19:22:11.052054 31124 net.cpp:113] Setting up inception_5a/relu_1x1
I1230 19:22:11.052127 31124 net.cpp:120] Top shape: 80 256 7 7 (1003520)
I1230 19:22:11.052134 31124 layer_factory.hpp:74] Creating layer inception_5a/3x3_reduce
I1230 19:22:11.052145 31124 net.cpp:84] Creating Layer inception_5a/3x3_reduce
I1230 19:22:11.052150 31124 net.cpp:380] inception_5a/3x3_reduce <- pool4/3x3_s2_pool4/3x3_s2_0_split_1
I1230 19:22:11.052160 31124 net.cpp:338] inception_5a/3x3_reduce -> inception_5a/3x3_reduce
I1230 19:22:11.052170 31124 net.cpp:113] Setting up inception_5a/3x3_reduce
I1230 19:22:11.054178 31124 net.cpp:120] Top shape: 80 160 7 7 (627200)
I1230 19:22:11.054195 31124 layer_factory.hpp:74] Creating layer inception_5a/relu_3x3_reduce
I1230 19:22:11.054206 31124 net.cpp:84] Creating Layer inception_5a/relu_3x3_reduce
I1230 19:22:11.054213 31124 net.cpp:380] inception_5a/relu_3x3_reduce <- inception_5a/3x3_reduce
I1230 19:22:11.054219 31124 net.cpp:327] inception_5a/relu_3x3_reduce -> inception_5a/3x3_reduce (in-place)
I1230 19:22:11.054226 31124 net.cpp:113] Setting up inception_5a/relu_3x3_reduce
I1230 19:22:11.054302 31124 net.cpp:120] Top shape: 80 160 7 7 (627200)
I1230 19:22:11.054308 31124 layer_factory.hpp:74] Creating layer inception_5a/3x3
I1230 19:22:11.054316 31124 net.cpp:84] Creating Layer inception_5a/3x3
I1230 19:22:11.054322 31124 net.cpp:380] inception_5a/3x3 <- inception_5a/3x3_reduce
I1230 19:22:11.054330 31124 net.cpp:338] inception_5a/3x3 -> inception_5a/3x3
I1230 19:22:11.054339 31124 net.cpp:113] Setting up inception_5a/3x3
I1230 19:22:11.060221 31124 net.cpp:120] Top shape: 80 320 7 7 (1254400)
I1230 19:22:11.060238 31124 layer_factory.hpp:74] Creating layer inception_5a/relu_3x3
I1230 19:22:11.060250 31124 net.cpp:84] Creating Layer inception_5a/relu_3x3
I1230 19:22:11.060256 31124 net.cpp:380] inception_5a/relu_3x3 <- inception_5a/3x3
I1230 19:22:11.060262 31124 net.cpp:327] inception_5a/relu_3x3 -> inception_5a/3x3 (in-place)
I1230 19:22:11.060271 31124 net.cpp:113] Setting up inception_5a/relu_3x3
I1230 19:22:11.060344 31124 net.cpp:120] Top shape: 80 320 7 7 (1254400)
I1230 19:22:11.060350 31124 layer_factory.hpp:74] Creating layer inception_5a/5x5_reduce
I1230 19:22:11.060366 31124 net.cpp:84] Creating Layer inception_5a/5x5_reduce
I1230 19:22:11.060380 31124 net.cpp:380] inception_5a/5x5_reduce <- pool4/3x3_s2_pool4/3x3_s2_0_split_2
I1230 19:22:11.060387 31124 net.cpp:338] inception_5a/5x5_reduce -> inception_5a/5x5_reduce
I1230 19:22:11.060396 31124 net.cpp:113] Setting up inception_5a/5x5_reduce
I1230 19:22:11.061147 31124 net.cpp:120] Top shape: 80 32 7 7 (125440)
I1230 19:22:11.061163 31124 layer_factory.hpp:74] Creating layer inception_5a/relu_5x5_reduce
I1230 19:22:11.061172 31124 net.cpp:84] Creating Layer inception_5a/relu_5x5_reduce
I1230 19:22:11.061177 31124 net.cpp:380] inception_5a/relu_5x5_reduce <- inception_5a/5x5_reduce
I1230 19:22:11.061183 31124 net.cpp:327] inception_5a/relu_5x5_reduce -> inception_5a/5x5_reduce (in-place)
I1230 19:22:11.061192 31124 net.cpp:113] Setting up inception_5a/relu_5x5_reduce
I1230 19:22:11.061439 31124 net.cpp:120] Top shape: 80 32 7 7 (125440)
I1230 19:22:11.061450 31124 layer_factory.hpp:74] Creating layer inception_5a/5x5
I1230 19:22:11.061465 31124 net.cpp:84] Creating Layer inception_5a/5x5
I1230 19:22:11.061471 31124 net.cpp:380] inception_5a/5x5 <- inception_5a/5x5_reduce
I1230 19:22:11.061480 31124 net.cpp:338] inception_5a/5x5 -> inception_5a/5x5
I1230 19:22:11.061489 31124 net.cpp:113] Setting up inception_5a/5x5
I1230 19:22:11.063148 31124 net.cpp:120] Top shape: 80 128 7 7 (501760)
I1230 19:22:11.063163 31124 layer_factory.hpp:74] Creating layer inception_5a/relu_5x5
I1230 19:22:11.063172 31124 net.cpp:84] Creating Layer inception_5a/relu_5x5
I1230 19:22:11.063177 31124 net.cpp:380] inception_5a/relu_5x5 <- inception_5a/5x5
I1230 19:22:11.063186 31124 net.cpp:327] inception_5a/relu_5x5 -> inception_5a/5x5 (in-place)
I1230 19:22:11.063194 31124 net.cpp:113] Setting up inception_5a/relu_5x5
I1230 19:22:11.063272 31124 net.cpp:120] Top shape: 80 128 7 7 (501760)
I1230 19:22:11.063279 31124 layer_factory.hpp:74] Creating layer inception_5a/pool
I1230 19:22:11.063285 31124 layer_factory.cpp:56] CUDNN does not support padding or multiple tops. Using Caffe's own pooling layer.
I1230 19:22:11.063292 31124 net.cpp:84] Creating Layer inception_5a/pool
I1230 19:22:11.063297 31124 net.cpp:380] inception_5a/pool <- pool4/3x3_s2_pool4/3x3_s2_0_split_3
I1230 19:22:11.063303 31124 net.cpp:338] inception_5a/pool -> inception_5a/pool
I1230 19:22:11.063311 31124 net.cpp:113] Setting up inception_5a/pool
I1230 19:22:11.063319 31124 net.cpp:120] Top shape: 80 832 7 7 (3261440)
I1230 19:22:11.063324 31124 layer_factory.hpp:74] Creating layer inception_5a/pool_proj
I1230 19:22:11.063334 31124 net.cpp:84] Creating Layer inception_5a/pool_proj
I1230 19:22:11.063339 31124 net.cpp:380] inception_5a/pool_proj <- inception_5a/pool
I1230 19:22:11.063347 31124 net.cpp:338] inception_5a/pool_proj -> inception_5a/pool_proj
I1230 19:22:11.063355 31124 net.cpp:113] Setting up inception_5a/pool_proj
I1230 19:22:11.065063 31124 net.cpp:120] Top shape: 80 128 7 7 (501760)
I1230 19:22:11.065083 31124 layer_factory.hpp:74] Creating layer inception_5a/relu_pool_proj
I1230 19:22:11.065091 31124 net.cpp:84] Creating Layer inception_5a/relu_pool_proj
I1230 19:22:11.065098 31124 net.cpp:380] inception_5a/relu_pool_proj <- inception_5a/pool_proj
I1230 19:22:11.065106 31124 net.cpp:327] inception_5a/relu_pool_proj -> inception_5a/pool_proj (in-place)
I1230 19:22:11.065115 31124 net.cpp:113] Setting up inception_5a/relu_pool_proj
I1230 19:22:11.065188 31124 net.cpp:120] Top shape: 80 128 7 7 (501760)
I1230 19:22:11.065194 31124 layer_factory.hpp:74] Creating layer inception_5a/output
I1230 19:22:11.065201 31124 net.cpp:84] Creating Layer inception_5a/output
I1230 19:22:11.065207 31124 net.cpp:380] inception_5a/output <- inception_5a/1x1
I1230 19:22:11.065214 31124 net.cpp:380] inception_5a/output <- inception_5a/3x3
I1230 19:22:11.065220 31124 net.cpp:380] inception_5a/output <- inception_5a/5x5
I1230 19:22:11.065225 31124 net.cpp:380] inception_5a/output <- inception_5a/pool_proj
I1230 19:22:11.065232 31124 net.cpp:338] inception_5a/output -> inception_5a/output
I1230 19:22:11.065245 31124 net.cpp:113] Setting up inception_5a/output
I1230 19:22:11.065266 31124 net.cpp:120] Top shape: 80 832 7 7 (3261440)
I1230 19:22:11.065273 31124 layer_factory.hpp:74] Creating layer inception_5a/output_inception_5a/output_0_split
I1230 19:22:11.065279 31124 net.cpp:84] Creating Layer inception_5a/output_inception_5a/output_0_split
I1230 19:22:11.065284 31124 net.cpp:380] inception_5a/output_inception_5a/output_0_split <- inception_5a/output
I1230 19:22:11.065294 31124 net.cpp:338] inception_5a/output_inception_5a/output_0_split -> inception_5a/output_inception_5a/output_0_split_0
I1230 19:22:11.065301 31124 net.cpp:338] inception_5a/output_inception_5a/output_0_split -> inception_5a/output_inception_5a/output_0_split_1
I1230 19:22:11.065309 31124 net.cpp:338] inception_5a/output_inception_5a/output_0_split -> inception_5a/output_inception_5a/output_0_split_2
I1230 19:22:11.065316 31124 net.cpp:338] inception_5a/output_inception_5a/output_0_split -> inception_5a/output_inception_5a/output_0_split_3
I1230 19:22:11.065322 31124 net.cpp:113] Setting up inception_5a/output_inception_5a/output_0_split
I1230 19:22:11.065330 31124 net.cpp:120] Top shape: 80 832 7 7 (3261440)
I1230 19:22:11.065335 31124 net.cpp:120] Top shape: 80 832 7 7 (3261440)
I1230 19:22:11.065340 31124 net.cpp:120] Top shape: 80 832 7 7 (3261440)
I1230 19:22:11.065346 31124 net.cpp:120] Top shape: 80 832 7 7 (3261440)
I1230 19:22:11.065351 31124 layer_factory.hpp:74] Creating layer inception_5b/1x1
I1230 19:22:11.065361 31124 net.cpp:84] Creating Layer inception_5b/1x1
I1230 19:22:11.065366 31124 net.cpp:380] inception_5b/1x1 <- inception_5a/output_inception_5a/output_0_split_0
I1230 19:22:11.065373 31124 net.cpp:338] inception_5b/1x1 -> inception_5b/1x1
I1230 19:22:11.065382 31124 net.cpp:113] Setting up inception_5b/1x1
I1230 19:22:11.075253 31124 net.cpp:120] Top shape: 80 384 7 7 (1505280)
I1230 19:22:11.075273 31124 layer_factory.hpp:74] Creating layer inception_5b/relu_1x1
I1230 19:22:11.075281 31124 net.cpp:84] Creating Layer inception_5b/relu_1x1
I1230 19:22:11.075287 31124 net.cpp:380] inception_5b/relu_1x1 <- inception_5b/1x1
I1230 19:22:11.075294 31124 net.cpp:327] inception_5b/relu_1x1 -> inception_5b/1x1 (in-place)
I1230 19:22:11.075302 31124 net.cpp:113] Setting up inception_5b/relu_1x1
I1230 19:22:11.075556 31124 net.cpp:120] Top shape: 80 384 7 7 (1505280)
I1230 19:22:11.075569 31124 layer_factory.hpp:74] Creating layer inception_5b/3x3_reduce
I1230 19:22:11.075582 31124 net.cpp:84] Creating Layer inception_5b/3x3_reduce
I1230 19:22:11.075587 31124 net.cpp:380] inception_5b/3x3_reduce <- inception_5a/output_inception_5a/output_0_split_1
I1230 19:22:11.075594 31124 net.cpp:338] inception_5b/3x3_reduce -> inception_5b/3x3_reduce
I1230 19:22:11.075604 31124 net.cpp:113] Setting up inception_5b/3x3_reduce
I1230 19:22:11.077950 31124 net.cpp:120] Top shape: 80 192 7 7 (752640)
I1230 19:22:11.077967 31124 layer_factory.hpp:74] Creating layer inception_5b/relu_3x3_reduce
I1230 19:22:11.077977 31124 net.cpp:84] Creating Layer inception_5b/relu_3x3_reduce
I1230 19:22:11.077982 31124 net.cpp:380] inception_5b/relu_3x3_reduce <- inception_5b/3x3_reduce
I1230 19:22:11.077989 31124 net.cpp:327] inception_5b/relu_3x3_reduce -> inception_5b/3x3_reduce (in-place)
I1230 19:22:11.077997 31124 net.cpp:113] Setting up inception_5b/relu_3x3_reduce
I1230 19:22:11.078075 31124 net.cpp:120] Top shape: 80 192 7 7 (752640)
I1230 19:22:11.078083 31124 layer_factory.hpp:74] Creating layer inception_5b/3x3
I1230 19:22:11.078094 31124 net.cpp:84] Creating Layer inception_5b/3x3
I1230 19:22:11.078099 31124 net.cpp:380] inception_5b/3x3 <- inception_5b/3x3_reduce
I1230 19:22:11.078107 31124 net.cpp:338] inception_5b/3x3 -> inception_5b/3x3
I1230 19:22:11.078136 31124 net.cpp:113] Setting up inception_5b/3x3
I1230 19:22:11.086433 31124 net.cpp:120] Top shape: 80 384 7 7 (1505280)
I1230 19:22:11.086452 31124 layer_factory.hpp:74] Creating layer inception_5b/relu_3x3
I1230 19:22:11.086462 31124 net.cpp:84] Creating Layer inception_5b/relu_3x3
I1230 19:22:11.086475 31124 net.cpp:380] inception_5b/relu_3x3 <- inception_5b/3x3
I1230 19:22:11.086491 31124 net.cpp:327] inception_5b/relu_3x3 -> inception_5b/3x3 (in-place)
I1230 19:22:11.086499 31124 net.cpp:113] Setting up inception_5b/relu_3x3
I1230 19:22:11.086572 31124 net.cpp:120] Top shape: 80 384 7 7 (1505280)
I1230 19:22:11.086580 31124 layer_factory.hpp:74] Creating layer inception_5b/5x5_reduce
I1230 19:22:11.086590 31124 net.cpp:84] Creating Layer inception_5b/5x5_reduce
I1230 19:22:11.086596 31124 net.cpp:380] inception_5b/5x5_reduce <- inception_5a/output_inception_5a/output_0_split_2
I1230 19:22:11.086604 31124 net.cpp:338] inception_5b/5x5_reduce -> inception_5b/5x5_reduce
I1230 19:22:11.086613 31124 net.cpp:113] Setting up inception_5b/5x5_reduce
I1230 19:22:11.087507 31124 net.cpp:120] Top shape: 80 48 7 7 (188160)
I1230 19:22:11.087523 31124 layer_factory.hpp:74] Creating layer inception_5b/relu_5x5_reduce
I1230 19:22:11.087532 31124 net.cpp:84] Creating Layer inception_5b/relu_5x5_reduce
I1230 19:22:11.087538 31124 net.cpp:380] inception_5b/relu_5x5_reduce <- inception_5b/5x5_reduce
I1230 19:22:11.087546 31124 net.cpp:327] inception_5b/relu_5x5_reduce -> inception_5b/5x5_reduce (in-place)
I1230 19:22:11.087554 31124 net.cpp:113] Setting up inception_5b/relu_5x5_reduce
I1230 19:22:11.087628 31124 net.cpp:120] Top shape: 80 48 7 7 (188160)
I1230 19:22:11.087635 31124 layer_factory.hpp:74] Creating layer inception_5b/5x5
I1230 19:22:11.087644 31124 net.cpp:84] Creating Layer inception_5b/5x5
I1230 19:22:11.087649 31124 net.cpp:380] inception_5b/5x5 <- inception_5b/5x5_reduce
I1230 19:22:11.087658 31124 net.cpp:338] inception_5b/5x5 -> inception_5b/5x5
I1230 19:22:11.087667 31124 net.cpp:113] Setting up inception_5b/5x5
I1230 19:22:11.089910 31124 net.cpp:120] Top shape: 80 128 7 7 (501760)
I1230 19:22:11.089927 31124 layer_factory.hpp:74] Creating layer inception_5b/relu_5x5
I1230 19:22:11.089934 31124 net.cpp:84] Creating Layer inception_5b/relu_5x5
I1230 19:22:11.089941 31124 net.cpp:380] inception_5b/relu_5x5 <- inception_5b/5x5
I1230 19:22:11.089949 31124 net.cpp:327] inception_5b/relu_5x5 -> inception_5b/5x5 (in-place)
I1230 19:22:11.089957 31124 net.cpp:113] Setting up inception_5b/relu_5x5
I1230 19:22:11.090211 31124 net.cpp:120] Top shape: 80 128 7 7 (501760)
I1230 19:22:11.090221 31124 layer_factory.hpp:74] Creating layer inception_5b/pool
I1230 19:22:11.090229 31124 layer_factory.cpp:56] CUDNN does not support padding or multiple tops. Using Caffe's own pooling layer.
I1230 19:22:11.090234 31124 net.cpp:84] Creating Layer inception_5b/pool
I1230 19:22:11.090240 31124 net.cpp:380] inception_5b/pool <- inception_5a/output_inception_5a/output_0_split_3
I1230 19:22:11.090250 31124 net.cpp:338] inception_5b/pool -> inception_5b/pool
I1230 19:22:11.090258 31124 net.cpp:113] Setting up inception_5b/pool
I1230 19:22:11.090267 31124 net.cpp:120] Top shape: 80 832 7 7 (3261440)
I1230 19:22:11.090271 31124 layer_factory.hpp:74] Creating layer inception_5b/pool_proj
I1230 19:22:11.090282 31124 net.cpp:84] Creating Layer inception_5b/pool_proj
I1230 19:22:11.090287 31124 net.cpp:380] inception_5b/pool_proj <- inception_5b/pool
I1230 19:22:11.090294 31124 net.cpp:338] inception_5b/pool_proj -> inception_5b/pool_proj
I1230 19:22:11.090302 31124 net.cpp:113] Setting up inception_5b/pool_proj
I1230 19:22:11.092005 31124 net.cpp:120] Top shape: 80 128 7 7 (501760)
I1230 19:22:11.092020 31124 layer_factory.hpp:74] Creating layer inception_5b/relu_pool_proj
I1230 19:22:11.092030 31124 net.cpp:84] Creating Layer inception_5b/relu_pool_proj
I1230 19:22:11.092036 31124 net.cpp:380] inception_5b/relu_pool_proj <- inception_5b/pool_proj
I1230 19:22:11.092044 31124 net.cpp:327] inception_5b/relu_pool_proj -> inception_5b/pool_proj (in-place)
I1230 19:22:11.092051 31124 net.cpp:113] Setting up inception_5b/relu_pool_proj
I1230 19:22:11.092124 31124 net.cpp:120] Top shape: 80 128 7 7 (501760)
I1230 19:22:11.092133 31124 layer_factory.hpp:74] Creating layer inception_5b/output
I1230 19:22:11.092154 31124 net.cpp:84] Creating Layer inception_5b/output
I1230 19:22:11.092166 31124 net.cpp:380] inception_5b/output <- inception_5b/1x1
I1230 19:22:11.092172 31124 net.cpp:380] inception_5b/output <- inception_5b/3x3
I1230 19:22:11.092178 31124 net.cpp:380] inception_5b/output <- inception_5b/5x5
I1230 19:22:11.092183 31124 net.cpp:380] inception_5b/output <- inception_5b/pool_proj
I1230 19:22:11.092191 31124 net.cpp:338] inception_5b/output -> inception_5b/output
I1230 19:22:11.092200 31124 net.cpp:113] Setting up inception_5b/output
I1230 19:22:11.092208 31124 net.cpp:120] Top shape: 80 1024 7 7 (4014080)
I1230 19:22:11.092212 31124 layer_factory.hpp:74] Creating layer pool5/7x7_s1
I1230 19:22:11.092221 31124 net.cpp:84] Creating Layer pool5/7x7_s1
I1230 19:22:11.092224 31124 net.cpp:380] pool5/7x7_s1 <- inception_5b/output
I1230 19:22:11.092231 31124 net.cpp:338] pool5/7x7_s1 -> pool5/7x7_s1
I1230 19:22:11.092238 31124 net.cpp:113] Setting up pool5/7x7_s1
I1230 19:22:11.092314 31124 net.cpp:120] Top shape: 80 1024 1 1 (81920)
I1230 19:22:11.092321 31124 layer_factory.hpp:74] Creating layer pool5/drop_7x7_s1
I1230 19:22:11.092329 31124 net.cpp:84] Creating Layer pool5/drop_7x7_s1
I1230 19:22:11.092334 31124 net.cpp:380] pool5/drop_7x7_s1 <- pool5/7x7_s1
I1230 19:22:11.092339 31124 net.cpp:327] pool5/drop_7x7_s1 -> pool5/7x7_s1 (in-place)
I1230 19:22:11.092346 31124 net.cpp:113] Setting up pool5/drop_7x7_s1
I1230 19:22:11.092353 31124 net.cpp:120] Top shape: 80 1024 1 1 (81920)
I1230 19:22:11.092358 31124 layer_factory.hpp:74] Creating layer loss3/classifier_kaggle
I1230 19:22:11.092368 31124 net.cpp:84] Creating Layer loss3/classifier_kaggle
I1230 19:22:11.092373 31124 net.cpp:380] loss3/classifier_kaggle <- pool5/7x7_s1
I1230 19:22:11.092382 31124 net.cpp:338] loss3/classifier_kaggle -> loss3/classifier_kaggle
I1230 19:22:11.092391 31124 net.cpp:113] Setting up loss3/classifier_kaggle
I1230 19:22:11.097908 31124 net.cpp:120] Top shape: 80 447 (35760)
I1230 19:22:11.097940 31124 layer_factory.hpp:74] Creating layer loss3/loss3
I1230 19:22:11.097954 31124 net.cpp:84] Creating Layer loss3/loss3
I1230 19:22:11.097961 31124 net.cpp:380] loss3/loss3 <- loss3/classifier_kaggle
I1230 19:22:11.097970 31124 net.cpp:380] loss3/loss3 <- label_data_1_split_2
I1230 19:22:11.097977 31124 net.cpp:338] loss3/loss3 -> loss3/loss3
I1230 19:22:11.097990 31124 net.cpp:113] Setting up loss3/loss3
…
I1230 19:22:11.103379 31124 net.cpp:257] The NetState phase (1) differed from the phase (0) specified by a rule in layer data
I1230 19:22:11.104938 31124 net.cpp:42] Initializing net from parameters: 
name: "MYNET"
state {
  phase: TEST
}
layer {
  name: "data"
  type: "ImageData"
  top: "data"
  top: "label"
  include {
    phase: TEST
  }
  transform_param {
    mirror: false
    crop_size: 224
    mean_value: 129
    mean_value: 129
    mean_value: 129
  }
  image_data_param {
    source: "/home/coldmanck/kaggle/label_val_full_resize.txt"
    batch_size: 50
    shuffle: true
  }
}
layer {
  name: "conv1/7x7_s2"
  type: "Convolution"
  bottom: "data"
  top: "conv1/7x7_s2"
  param {
    lr_mult: 1
    decay_mult: 1
  }
  param {
    lr_mult: 2
    decay_mult: 0
  }
  convolution_param {
    num_output: 64
    pad: 3
    kernel_size: 7
    stride: 2
    weight_filler {
      type: "xavier"
    }
    bias_filler {
      type: "constant"
      value: 0.2
    }
  }
}
layer {
  name: "conv1/relu_7x7"
  type: "ReLU"
  bottom: "conv1/7x7_s2"
  top: "conv1/7x7_s2"
}
layer {
  name: "pool1/3x3_s2"
  type: "Pooling"
  bottom: "conv1/7x7_s2"
  top: "pool1/3x3_s2"
  pooling_param {
    pool: MAX
    kernel_size: 3
    stride: 2
  }
}
layer {
  name: "pool1/norm1"
  type: "LRN"
  bottom: "pool1/3x3_s2"
  top: "pool1/norm1"
  lrn_param {
    local_size: 5
    alpha: 0.0001
    beta: 0.75
  }
}
layer {
  name: "conv2/3x3_reduce"
  type: "Convolution"
  bottom: "pool1/norm1"
  top: "conv2/3x3_reduce"
  param {
    lr_mult: 1
    decay_mult: 1
  }
  param {
    lr_mult: 2
    decay_mult: 0
  }
  convolution_param {
    num_output: 64
    kernel_size: 1
    weight_filler {
      type: "xavier"
    }
    bias_filler {
      type: "constant"
      value: 0.2
    }
  }
}
layer {
  name: "conv2/relu_3x3_reduce"
  type: "ReLU"
  bottom: "conv2/3x3_reduce"
  top: "conv2/3x3_reduce"
}
layer {
  name: "conv2/3x3"
  type: "Convolution"
  bottom: "conv2/3x3_reduce"
  top: "conv2/3x3"
  param {
    lr_mult: 1
    decay_mult: 1
  }
  param {
    lr_mult: 2
    decay_mult: 0
  }
  convolution_param {
    num_output: 192
    pad: 1
    kernel_size: 3
    weight_filler {
      type: "xavier"
    }
    bias_filler {
      type: "constant"
      value: 0.2
    }
  }
}
layer {
  name: "conv2/relu_3x3"
  type: "ReLU"
  bottom: "conv2/3x3"
  top: "conv2/3x3"
}
layer {
  name: "conv2/norm2"
  type: "LRN"
  bottom: "conv2/3x3"
  top: "conv2/norm2"
  lrn_param {
    local_size: 5
    alpha: 0.0001
    beta: 0.75
  }
}
layer {
  name: "pool2/3x3_s2"
  type: "Pooling"
  bottom: "conv2/norm2"
  top: "pool2/3x3_s2"
  pooling_param {
    pool: MAX
    kernel_size: 3
    stride: 2
  }
}
layer {
  name: "inception_3a/1x1"
  type: "Convolution"
  bottom: "pool2/3x3_s2"
  top: "inception_3a/1x1"
  param {
    lr_mult: 1
    decay_mult: 1
  }
  param {
    lr_mult: 2
    decay_mult: 0
  }
  convolution_param {
    num_output: 64
    kernel_size: 1
    weight_filler {
      type: "xavier"
    }
    bias_filler {
      type: "constant"
      value: 0.2
    }
  }
}
layer {
  name: "inception_3a/relu_1x1"
  type: "ReLU"
  bottom: "inception_3a/1x1"
  top: "inception_3a/1x1"
}
layer {
  name: "inception_3a/3x3_reduce"
  type: "Convolution"
  bottom: "pool2/3x3_s2"
  top: "inception_3a/3x3_reduce"
  param {
    lr_mult: 1
    decay_mult: 1
  }
  param {
    lr_mult: 2
    decay_mult: 0
  }
  convolution_param {
    num_output: 96
    kernel_size: 1
    weight_filler {
      type: "xavier"
    }
    bias_filler {
      type: "constant"
      value: 0.2
    }
  }
}
layer {
  name: "inception_3a/relu_3x3_reduce"
  type: "ReLU"
  bottom: "inception_3a/3x3_reduce"
  top: "inception_3a/3x3_reduce"
}
layer {
  name: "inception_3a/3x3"
  type: "Convolution"
  bottom: "inception_3a/3x3_reduce"
  top: "inception_3a/3x3"
  param {
    lr_mult: 1
    decay_mult: 1
  }
  param {
    lr_mult: 2
    decay_mult: 0
  }
  convolution_param {
    num_output: 128
    pad: 1
    kernel_size: 3
    weight_filler {
      type: "xavier"
    }
    bias_filler {
      type: "constant"
      value: 0.2
    }
  }
}
layer {
  name: "inception_3a/relu_3x3"
  type: "ReLU"
  bottom: "inception_3a/3x3"
  top: "inception_3a/3x3"
}
layer {
  name: "inception_3a/5x5_reduce"
  type: "Convolution"
  bottom: "pool2/3x3_s2"
  top: "inception_3a/5x5_reduce"
  param {
    lr_mult: 1
    decay_mult: 1
  }
  param {
    lr_mult: 2
    decay_mult: 0
  }
  convolution_param {
    num_output: 16
    kernel_size: 1
    weight_filler {
      type: "xavier"
    }
    bias_filler {
      type: "constant"
      value: 0.2
    }
  }
}
layer {
  name: "inception_3a/relu_5x5_reduce"
  type: "ReLU"
  bottom: "inception_3a/5x5_reduce"
  top: "inception_3a/5x5_reduce"
}
layer {
  name: "inception_3a/5x5"
  type: "Convolution"
  bottom: "inception_3a/5x5_reduce"
  top: "inception_3a/5x5"
  param {
    lr_mult: 1
    decay_mult: 1
  }
  param {
    lr_mult: 2
    decay_mult: 0
  }
  convolution_param {
    num_output: 32
    pad: 2
    kernel_size: 5
    weight_filler {
      type: "xavier"
    }
    bias_filler {
      type: "constant"
      value: 0.2
    }
  }
}
layer {
  name: "inception_3a/relu_5x5"
  type: "ReLU"
  bottom: "inception_3a/5x5"
  top: "inception_3a/5x5"
}
layer {
  name: "inception_3a/pool"
  type: "Pooling"
  bottom: "pool2/3x3_s2"
  top: "inception_3a/pool"
  pooling_param {
    pool: MAX
    kernel_size: 3
    stride: 1
    pad: 1
  }
}
layer {
  name: "inception_3a/pool_proj"
  type: "Convolution"
  bottom: "inception_3a/pool"
  top: "inception_3a/pool_proj"
  param {
    lr_mult: 1
    decay_mult: 1
  }
  param {
    lr_mult: 2
    decay_mult: 0
  }
  convolution_param {
    num_output: 32
    kernel_size: 1
    weight_filler {
      type: "xavier"
    }
    bias_filler {
      type: "constant"
      value: 0.2
    }
  }
}
layer {
  name: "inception_3a/relu_pool_proj"
  type: "ReLU"
  bottom: "inception_3a/pool_proj"
  top: "inception_3a/pool_proj"
}
layer {
  name: "inception_3a/output"
  type: "Concat"
  bottom: "inception_3a/1x1"
  bottom: "inception_3a/3x3"
  bottom: "inception_3a/5x5"
  bottom: "inception_3a/pool_proj"
  top: "inception_3a/output"
}
layer {
  name: "inception_3b/1x1"
  type: "Convolution"
  bottom: "inception_3a/output"
  top: "inception_3b/1x1"
  param {
    lr_mult: 1
    decay_mult: 1
  }
  param {
    lr_mult: 2
    decay_mult: 0
  }
  convolution_param {
    num_output: 128
    kernel_size: 1
    weight_filler {
      type: "xavier"
    }
    bias_filler {
      type: "constant"
      value: 0.2
    }
  }
}
layer {
  name: "inception_3b/relu_1x1"
  type: "ReLU"
  bottom: "inception_3b/1x1"
  top: "inception_3b/1x1"
}
layer {
  name: "inception_3b/3x3_reduce"
  type: "Convolution"
  bottom: "inception_3a/output"
  top: "inception_3b/3x3_reduce"
  param {
    lr_mult: 1
    decay_mult: 1
  }
  param {
    lr_mult: 2
    decay_mult: 0
  }
  convolution_param {
    num_output: 128
    kernel_size: 1
    weight_filler {
      type: "xavier"
    }
    bias_filler {
      type: "constant"
      value: 0.2
    }
  }
}
layer {
  name: "inception_3b/relu_3x3_reduce"
  type: "ReLU"
  bottom: "inception_3b/3x3_reduce"
  top: "inception_3b/3x3_reduce"
}
layer {
  name: "inception_3b/3x3"
  type: "Convolution"
  bottom: "inception_3b/3x3_reduce"
  top: "inception_3b/3x3"
  param {
    lr_mult: 1
    decay_mult: 1
  }
  param {
    lr_mult: 2
    decay_mult: 0
  }
  convolution_param {
    num_output: 192
    pad: 1
    kernel_size: 3
    weight_filler {
      type: "xavier"
    }
    bias_filler {
      type: "constant"
      value: 0.2
    }
  }
}
layer {
  name: "inception_3b/relu_3x3"
  type: "ReLU"
  bottom: "inception_3b/3x3"
  top: "inception_3b/3x3"
}
layer {
  name: "inception_3b/5x5_reduce"
  type: "Convolution"
  bottom: "inception_3a/output"
  top: "inception_3b/5x5_reduce"
  param {
    lr_mult: 1
    decay_mult: 1
  }
  param {
    lr_mult: 2
    decay_mult: 0
  }
  convolution_param {
    num_output: 32
    kernel_size: 1
    weight_filler {
      type: "xavier"
    }
    bias_filler {
      type: "constant"
      value: 0.2
    }
  }
}
layer {
  name: "inception_3b/relu_5x5_reduce"
  type: "ReLU"
  bottom: "inception_3b/5x5_reduce"
  top: "inception_3b/5x5_reduce"
}
layer {
  name: "inception_3b/5x5"
  type: "Convolution"
  bottom: "inception_3b/5x5_reduce"
  top: "inception_3b/5x5"
  param {
    lr_mult: 1
    decay_mult: 1
  }
  param {
    lr_mult: 2
    decay_mult: 0
  }
  convolution_param {
    num_output: 96
    pad: 2
    kernel_size: 5
    weight_filler {
      type: "xavier"
    }
    bias_filler {
      type: "constant"
      value: 0.2
    }
  }
}
layer {
  name: "inception_3b/relu_5x5"
  type: "ReLU"
  bottom: "inception_3b/5x5"
  top: "inception_3b/5x5"
}
layer {
  name: "inception_3b/pool"
  type: "Pooling"
  bottom: "inception_3a/output"
  top: "inception_3b/pool"
  pooling_param {
    pool: MAX
    kernel_size: 3
    stride: 1
    pad: 1
  }
}
layer {
  name: "inception_3b/pool_proj"
  type: "Convolution"
  bottom: "inception_3b/pool"
  top: "inception_3b/pool_proj"
  param {
    lr_mult: 1
    decay_mult: 1
  }
  param {
    lr_mult: 2
    decay_mult: 0
  }
  convolution_param {
    num_output: 64
    kernel_size: 1
    weight_filler {
      type: "xavier"
    }
    bias_filler {
      type: "constant"
      value: 0.2
    }
  }
}
layer {
  name: "inception_3b/relu_pool_proj"
  type: "ReLU"
  bottom: "inception_3b/pool_proj"
  top: "inception_3b/pool_proj"
}
layer {
  name: "inception_3b/output"
  type: "Concat"
  bottom: "inception_3b/1x1"
  bottom: "inception_3b/3x3"
  bottom: "inception_3b/5x5"
  bottom: "inception_3b/pool_proj"
  top: "inception_3b/output"
}
layer {
  name: "pool3/3x3_s2"
  type: "Pooling"
  bottom: "inception_3b/output"
  top: "pool3/3x3_s2"
  pooling_param {
    pool: MAX
    kernel_size: 3
    stride: 2
  }
}
layer {
  name: "inception_4a/1x1"
  type: "Convolution"
  bottom: "pool3/3x3_s2"
  top: "inception_4a/1x1"
  param {
    lr_mult: 1
    decay_mult: 1
  }
  param {
    lr_mult: 2
    decay_mult: 0
  }
  convolution_param {
    num_output: 192
    kernel_size: 1
    weight_filler {
      type: "xavier"
    }
    bias_filler {
      type: "constant"
      value: 0.2
    }
  }
}
layer {
  name: "inception_4a/relu_1x1"
  type: "ReLU"
  bottom: "inception_4a/1x1"
  top: "inception_4a/1x1"
}
layer {
  name: "inception_4a/3x3_reduce"
  type: "Convolution"
  bottom: "pool3/3x3_s2"
  top: "inception_4a/3x3_reduce"
  param {
    lr_mult: 1
    decay_mult: 1
  }
  param {
    lr_mult: 2
    decay_mult: 0
  }
  convolution_param {
    num_output: 96
    kernel_size: 1
    weight_filler {
      type: "xavier"
    }
    bias_filler {
      type: "constant"
      value: 0.2
    }
  }
}
layer {
  name: "inception_4a/relu_3x3_reduce"
  type: "ReLU"
  bottom: "inception_4a/3x3_reduce"
  top: "inception_4a/3x3_reduce"
}
layer {
  name: "inception_4a/3x3"
  type: "Convolution"
  bottom: "inception_4a/3x3_reduce"
  top: "inception_4a/3x3"
  param {
    lr_mult: 1
    decay_mult: 1
  }
  param {
    lr_mult: 2
    decay_mult: 0
  }
  convolution_param {
    num_output: 208
    pad: 1
    kernel_size: 3
    weight_filler {
      type: "xavier"
    }
    bias_filler {
      type: "constant"
      value: 0.2
    }
  }
}
layer {
  name: "inception_4a/relu_3x3"
  type: "ReLU"
  bottom: "inception_4a/3x3"
  top: "inception_4a/3x3"
}
layer {
  name: "inception_4a/5x5_reduce"
  type: "Convolution"
  bottom: "pool3/3x3_s2"
  top: "inception_4a/5x5_reduce"
  param {
    lr_mult: 1
    decay_mult: 1
  }
  param {
    lr_mult: 2
    decay_mult: 0
  }
  convolution_param {
    num_output: 16
    kernel_size: 1
    weight_filler {
      type: "xavier"
    }
    bias_filler {
      type: "constant"
      value: 0.2
    }
  }
}
layer {
  name: "inception_4a/relu_5x5_reduce"
  type: "ReLU"
  bottom: "inception_4a/5x5_reduce"
  top: "inception_4a/5x5_reduce"
}
layer {
  name: "inception_4a/5x5"
  type: "Convolution"
  bottom: "inception_4a/5x5_reduce"
  top: "inception_4a/5x5"
  param {
    lr_mult: 1
    decay_mult: 1
  }
  param {
    lr_mult: 2
    decay_mult: 0
  }
  convolution_param {
    num_output: 48
    pad: 2
    kernel_size: 5
    weight_filler {
      type: "xavier"
    }
    bias_filler {
      type: "constant"
      value: 0.2
    }
  }
}
layer {
  name: "inception_4a/relu_5x5"
  type: "ReLU"
  bottom: "inception_4a/5x5"
  top: "inception_4a/5x5"
}
layer {
  name: "inception_4a/pool"
  type: "Pooling"
  bottom: "pool3/3x3_s2"
  top: "inception_4a/pool"
  pooling_param {
    pool: MAX
    kernel_size: 3
    stride: 1
    pad: 1
  }
}
layer {
  name: "inception_4a/pool_proj"
  type: "Convolution"
  bottom: "inception_4a/pool"
  top: "inception_4a/pool_proj"
  param {
    lr_mult: 1
    decay_mult: 1
  }
  param {
    lr_mult: 2
    decay_mult: 0
  }
  convolution_param {
    num_output: 64
    kernel_size: 1
    weight_filler {
      type: "xavier"
    }
    bias_filler {
      type: "constant"
      value: 0.2
    }
  }
}
layer {
  name: "inception_4a/relu_pool_proj"
  type: "ReLU"
  bottom: "inception_4a/pool_proj"
  top: "inception_4a/pool_proj"
}
layer {
  name: "inception_4a/output"
  type: "Concat"
  bottom: "inception_4a/1x1"
  bottom: "inception_4a/3x3"
  bottom: "inception_4a/5x5"
  bottom: "inception_4a/pool_proj"
  top: "inception_4a/output"
}
layer {
  name: "loss1/ave_pool"
  type: "Pooling"
  bottom: "inception_4a/output"
  top: "loss1/ave_pool"
  pooling_param {
    pool: AVE
    kernel_size: 5
    stride: 3
  }
}
layer {
  name: "loss1/conv"
  type: "Convolution"
  bottom: "loss1/ave_pool"
  top: "loss1/conv"
  param {
    lr_mult: 1
    decay_mult: 1
  }
  param {
    lr_mult: 2
    decay_mult: 0
  }
  convolution_param {
    num_output: 128
    kernel_size: 1
    weight_filler {
      type: "xavier"
    }
    bias_filler {
      type: "constant"
      value: 0.2
    }
  }
}
layer {
  name: "loss1/relu_conv"
  type: "ReLU"
  bottom: "loss1/conv"
  top: "loss1/conv"
}
layer {
  name: "loss1/fc"
  type: "InnerProduct"
  bottom: "loss1/conv"
  top: "loss1/fc"
  param {
    lr_mult: 1
    decay_mult: 1
  }
  param {
    lr_mult: 2
    decay_mult: 0
  }
  inner_product_param {
    num_output: 1024
    weight_filler {
      type: "xavier"
    }
    bias_filler {
      type: "constant"
      value: 0.2
    }
  }
}
layer {
  name: "loss1/relu_fc"
  type: "ReLU"
  bottom: "loss1/fc"
  top: "loss1/fc"
}
layer {
  name: "loss1/drop_fc"
  type: "Dropout"
  bottom: "loss1/fc"
  top: "loss1/fc"
  dropout_param {
    dropout_ratio: 0.7
  }
}
layer {
  name: "loss1/classifier_kaggle"
  type: "InnerProduct"
  bottom: "loss1/fc"
  top: "loss1/classifier_kaggle"
  param {
    lr_mult: 1
    decay_mult: 1
  }
  param {
    lr_mult: 2
    decay_mult: 0
  }
  inner_product_param {
    num_output: 447
    weight_filler {
      type: "xavier"
    }
    bias_filler {
      type: "constant"
      value: 0
    }
  }
}
layer {
  name: "loss1/loss"
  type: "SoftmaxWithLoss"
  bottom: "loss1/classifier_kaggle"
  bottom: "label"
  top: "loss1/loss1"
  loss_weight: 0.3
}
layer {
  name: "loss1/top-1"
  type: "Accuracy"
  bottom: "loss1/classifier_kaggle"
  bottom: "label"
  top: "loss1/top-1"
  include {
    phase: TEST
  }
}
layer {
  name: "loss1/top-5"
  type: "Accuracy"
  bottom: "loss1/classifier_kaggle"
  bottom: "label"
  top: "loss1/top-5"
  include {
    phase: TEST
  }
  accuracy_param {
    top_k: 5
  }
}
layer {
  name: "inception_4b/1x1"
  type: "Convolution"
  bottom: "inception_4a/output"
  top: "inception_4b/1x1"
  param {
    lr_mult: 1
    decay_mult: 1
  }
  param {
    lr_mult: 2
    decay_mult: 0
  }
  convolution_param {
    num_output: 160
    kernel_size: 1
    weight_filler {
      type: "xavier"
    }
    bias_filler {
      type: "constant"
      value: 0.2
    }
  }
}
layer {
  name: "inception_4b/relu_1x1"
  type: "ReLU"
  bottom: "inception_4b/1x1"
  top: "inception_4b/1x1"
}
layer {
  name: "inception_4b/3x3_reduce"
  type: "Convolution"
  bottom: "inception_4a/output"
  top: "inception_4b/3x3_reduce"
  param {
    lr_mult: 1
    decay_mult: 1
  }
  param {
    lr_mult: 2
    decay_mult: 0
  }
  convolution_param {
    num_output: 112
    kernel_size: 1
    weight_filler {
      type: "xavier"
    }
    bias_filler {
      type: "constant"
      value: 0.2
    }
  }
}
layer {
  name: "inception_4b/relu_3x3_reduce"
  type: "ReLU"
  bottom: "inception_4b/3x3_reduce"
  top: "inception_4b/3x3_reduce"
}
layer {
  name: "inception_4b/3x3"
  type: "Convolution"
  bottom: "inception_4b/3x3_reduce"
  top: "inception_4b/3x3"
  param {
    lr_mult: 1
    decay_mult: 1
  }
  param {
    lr_mult: 2
    decay_mult: 0
  }
  convolution_param {
    num_output: 224
    pad: 1
    kernel_size: 3
    weight_filler {
      type: "xavier"
    }
    bias_filler {
      type: "constant"
      value: 0.2
    }
  }
}
layer {
  name: "inception_4b/relu_3x3"
  type: "ReLU"
  bottom: "inception_4b/3x3"
  top: "inception_4b/3x3"
}
layer {
  name: "inception_4b/5x5_reduce"
  type: "Convolution"
  bottom: "inception_4a/output"
  top: "inception_4b/5x5_reduce"
  param {
    lr_mult: 1
    decay_mult: 1
  }
  param {
    lr_mult: 2
    decay_mult: 0
  }
  convolution_param {
    num_output: 24
    kernel_size: 1
    weight_filler {
      type: "xavier"
    }
    bias_filler {
      type: "constant"
      value: 0.2
    }
  }
}
layer {
  name: "inception_4b/relu_5x5_reduce"
  type: "ReLU"
  bottom: "inception_4b/5x5_reduce"
  top: "inception_4b/5x5_reduce"
}
layer {
  name: "inception_4b/5x5"
  type: "Convolution"
  bottom: "inception_4b/5x5_reduce"
  top: "inception_4b/5x5"
  param {
    lr_mult: 1
    decay_mult: 1
  }
  param {
    lr_mult: 2
    decay_mult: 0
  }
  convolution_param {
    num_output: 64
    pad: 2
    kernel_size: 5
    weight_filler {
      type: "xavier"
    }
    bias_filler {
      type: "constant"
      value: 0.2
    }
  }
}
layer {
  name: "inception_4b/relu_5x5"
  type: "ReLU"
  bottom: "inception_4b/5x5"
  top: "inception_4b/5x5"
}
layer {
  name: "inception_4b/pool"
  type: "Pooling"
  bottom: "inception_4a/output"
  top: "inception_4b/pool"
  pooling_param {
    pool: MAX
    kernel_size: 3
    stride: 1
    pad: 1
  }
}
layer {
  name: "inception_4b/pool_proj"
  type: "Convolution"
  bottom: "inception_4b/pool"
  top: "inception_4b/pool_proj"
  param {
    lr_mult: 1
    decay_mult: 1
  }
  param {
    lr_mult: 2
    decay_mult: 0
  }
  convolution_param {
    num_output: 64
    kernel_size: 1
    weight_filler {
      type: "xavier"
    }
    bias_filler {
      type: "constant"
      value: 0.2
    }
  }
}
layer {
  name: "inception_4b/relu_pool_proj"
  type: "ReLU"
  bottom: "inception_4b/pool_proj"
  top: "inception_4b/pool_proj"
}
layer {
  name: "inception_4b/output"
  type: "Concat"
  bottom: "inception_4b/1x1"
  bottom: "inception_4b/3x3"
  bottom: "inception_4b/5x5"
  bottom: "inception_4b/pool_proj"
  top: "inception_4b/output"
}
layer {
  name: "inception_4c/1x1"
  type: "Convolution"
  bottom: "inception_4b/output"
  top: "inception_4c/1x1"
  param {
    lr_mult: 1
    decay_mult: 1
  }
  param {
    lr_mult: 2
    decay_mult: 0
  }
  convolution_param {
    num_output: 128
    kernel_size: 1
    weight_filler {
      type: "xavier"
    }
    bias_filler {
      type: "constant"
      value: 0.2
    }
  }
}
layer {
  name: "inception_4c/relu_1x1"
  type: "ReLU"
  bottom: "inception_4c/1x1"
  top: "inception_4c/1x1"
}
layer {
  name: "inception_4c/3x3_reduce"
  type: "Convolution"
  bottom: "inception_4b/output"
  top: "inception_4c/3x3_reduce"
  param {
    lr_mult: 1
    decay_mult: 1
  }
  param {
    lr_mult: 2
    decay_mult: 0
  }
  convolution_param {
    num_output: 128
    kernel_size: 1
    weight_filler {
      type: "xavier"
    }
    bias_filler {
      type: "constant"
      value: 0.2
    }
  }
}
layer {
  name: "inception_4c/relu_3x3_reduce"
  type: "ReLU"
  bottom: "inception_4c/3x3_reduce"
  top: "inception_4c/3x3_reduce"
}
layer {
  name: "inception_4c/3x3"
  type: "Convolution"
  bottom: "inception_4c/3x3_reduce"
  top: "inception_4c/3x3"
  param {
    lr_mult: 1
    decay_mult: 1
  }
  param {
    lr_mult: 2
    decay_mult: 0
  }
  convolution_param {
    num_output: 256
    pad: 1
    kernel_size: 3
    weight_filler {
      type: "xavier"
    }
    bias_filler {
      type: "constant"
      value: 0.2
    }
  }
}
layer {
  name: "inception_4c/relu_3x3"
  type: "ReLU"
  bottom: "inception_4c/3x3"
  top: "inception_4c/3x3"
}
layer {
  name: "inception_4c/5x5_reduce"
  type: "Convolution"
  bottom: "inception_4b/output"
  top: "inception_4c/5x5_reduce"
  param {
    lr_mult: 1
    decay_mult: 1
  }
  param {
    lr_mult: 2
    decay_mult: 0
  }
  convolution_param {
    num_output: 24
    kernel_size: 1
    weight_filler {
      type: "xavier"
    }
    bias_filler {
      type: "constant"
      value: 0.2
    }
  }
}
layer {
  name: "inception_4c/relu_5x5_reduce"
  type: "ReLU"
  bottom: "inception_4c/5x5_reduce"
  top: "inception_4c/5x5_reduce"
}
layer {
  name: "inception_4c/5x5"
  type: "Convolution"
  bottom: "inception_4c/5x5_reduce"
  top: "inception_4c/5x5"
  param {
    lr_mult: 1
    decay_mult: 1
  }
  param {
    lr_mult: 2
    decay_mult: 0
  }
  convolution_param {
    num_output: 64
    pad: 2
    kernel_size: 5
    weight_filler {
      type: "xavier"
    }
    bias_filler {
      type: "constant"
      value: 0.2
    }
  }
}
layer {
  name: "inception_4c/relu_5x5"
  type: "ReLU"
  bottom: "inception_4c/5x5"
  top: "inception_4c/5x5"
}
layer {
  name: "inception_4c/pool"
  type: "Pooling"
  bottom: "inception_4b/output"
  top: "inception_4c/pool"
  pooling_param {
    pool: MAX
    kernel_size: 3
    stride: 1
    pad: 1
  }
}
layer {
  name: "inception_4c/pool_proj"
  type: "Convolution"
  bottom: "inception_4c/pool"
  top: "inception_4c/pool_proj"
  param {
    lr_mult: 1
    decay_mult: 1
  }
  param {
    lr_mult: 2
    decay_mult: 0
  }
  convolution_param {
    num_output: 64
    kernel_size: 1
    weight_filler {
      type: "xavier"
    }
    bias_filler {
      type: "constant"
      value: 0.2
    }
  }
}
layer {
  name: "inception_4c/relu_pool_proj"
  type: "ReLU"
  bottom: "inception_4c/pool_proj"
  top: "inception_4c/pool_proj"
}
layer {
  name: "inception_4c/output"
  type: "Concat"
  bottom: "inception_4c/1x1"
  bottom: "inception_4c/3x3"
  bottom: "inception_4c/5x5"
  bottom: "inception_4c/pool_proj"
  top: "inception_4c/output"
}
layer {
  name: "inception_4d/1x1"
  type: "Convolution"
  bottom: "inception_4c/output"
  top: "inception_4d/1x1"
  param {
    lr_mult: 1
    decay_mult: 1
  }
  param {
    lr_mult: 2
    decay_mult: 0
  }
  convolution_param {
    num_output: 112
    kernel_size: 1
    weight_filler {
      type: "xavier"
    }
    bias_filler {
      type: "constant"
      value: 0.2
    }
  }
}
layer {
  name: "inception_4d/relu_1x1"
  type: "ReLU"
  bottom: "inception_4d/1x1"
  top: "inception_4d/1x1"
}
layer {
  name: "inception_4d/3x3_reduce"
  type: "Convolution"
  bottom: "inception_4c/output"
  top: "inception_4d/3x3_reduce"
  param {
    lr_mult: 1
    decay_mult: 1
  }
  param {
    lr_mult: 2
    decay_mult: 0
  }
  convolution_param {
    num_output: 144
    kernel_size: 1
    weight_filler {
      type: "xavier"
    }
    bias_filler {
      type: "constant"
      value: 0.2
    }
  }
}
layer {
  name: "inception_4d/relu_3x3_reduce"
  type: "ReLU"
  bottom: "inception_4d/3x3_reduce"
  top: "inception_4d/3x3_reduce"
}
layer {
  name: "inception_4d/3x3"
  type: "Convolution"
  bottom: "inception_4d/3x3_reduce"
  top: "inception_4d/3x3"
  param {
    lr_mult: 1
    decay_mult: 1
  }
  param {
    lr_mult: 2
    decay_mult: 0
  }
  convolution_param {
    num_output: 288
    pad: 1
    kernel_size: 3
    weight_filler {
      type: "xavier"
    }
    bias_filler {
      type: "constant"
      value: 0.2
    }
  }
}
layer {
  name: "inception_4d/relu_3x3"
  type: "ReLU"
  bottom: "inception_4d/3x3"
  top: "inception_4d/3x3"
}
layer {
  name: "inception_4d/5x5_reduce"
  type: "Convolution"
  bottom: "inception_4c/output"
  top: "inception_4d/5x5_reduce"
  param {
    lr_mult: 1
    decay_mult: 1
  }
  param {
    lr_mult: 2
    decay_mult: 0
  }
  convolution_param {
    num_output: 32
    kernel_size: 1
    weight_filler {
      type: "xavier"
    }
    bias_filler {
      type: "constant"
      value: 0.2
    }
  }
}
layer {
  name: "inception_4d/relu_5x5_reduce"
  type: "ReLU"
  bottom: "inception_4d/5x5_reduce"
  top: "inception_4d/5x5_reduce"
}
layer {
  name: "inception_4d/5x5"
  type: "Convolution"
  bottom: "inception_4d/5x5_reduce"
  top: "inception_4d/5x5"
  param {
    lr_mult: 1
    decay_mult: 1
  }
  param {
    lr_mult: 2
    decay_mult: 0
  }
  convolution_param {
    num_output: 64
    pad: 2
    kernel_size: 5
    weight_filler {
      type: "xavier"
    }
    bias_filler {
      type: "constant"
      value: 0.2
    }
  }
}
layer {
  name: "inception_4d/relu_5x5"
  type: "ReLU"
  bottom: "inception_4d/5x5"
  top: "inception_4d/5x5"
}
layer {
  name: "inception_4d/pool"
  type: "Pooling"
  bottom: "inception_4c/output"
  top: "inception_4d/pool"
  pooling_param {
    pool: MAX
    kernel_size: 3
    stride: 1
    pad: 1
  }
}
layer {
  name: "inception_4d/pool_proj"
  type: "Convolution"
  bottom: "inception_4d/pool"
  top: "inception_4d/pool_proj"
  param {
    lr_mult: 1
    decay_mult: 1
  }
  param {
    lr_mult: 2
    decay_mult: 0
  }
  convolution_param {
    num_output: 64
    kernel_size: 1
    weight_filler {
      type: "xavier"
    }
    bias_filler {
      type: "constant"
      value: 0.2
    }
  }
}
layer {
  name: "inception_4d/relu_pool_proj"
  type: "ReLU"
  bottom: "inception_4d/pool_proj"
  top: "inception_4d/pool_proj"
}
layer {
  name: "inception_4d/output"
  type: "Concat"
  bottom: "inception_4d/1x1"
  bottom: "inception_4d/3x3"
  bottom: "inception_4d/5x5"
  bottom: "inception_4d/pool_proj"
  top: "inception_4d/output"
}
layer {
  name: "loss2/ave_pool"
  type: "Pooling"
  bottom: "inception_4d/output"
  top: "loss2/ave_pool"
  pooling_param {
    pool: AVE
    kernel_size: 5
    stride: 3
  }
}
layer {
  name: "loss2/conv"
…
I1230 19:22:11.898121 31124 net.cpp:84] Creating Layer inception_4c/1x1
I1230 19:22:11.898128 31124 net.cpp:380] inception_4c/1x1 <- inception_4b/output_inception_4b/output_0_split_0
I1230 19:22:11.898140 31124 net.cpp:338] inception_4c/1x1 -> inception_4c/1x1
I1230 19:22:11.898151 31124 net.cpp:113] Setting up inception_4c/1x1
I1230 19:22:11.899535 31124 net.cpp:120] Top shape: 50 128 14 14 (1254400)
I1230 19:22:11.899555 31124 layer_factory.hpp:74] Creating layer inception_4c/relu_1x1
I1230 19:22:11.899565 31124 net.cpp:84] Creating Layer inception_4c/relu_1x1
I1230 19:22:11.899574 31124 net.cpp:380] inception_4c/relu_1x1 <- inception_4c/1x1
I1230 19:22:11.899583 31124 net.cpp:327] inception_4c/relu_1x1 -> inception_4c/1x1 (in-place)
I1230 19:22:11.899600 31124 net.cpp:113] Setting up inception_4c/relu_1x1
I1230 19:22:11.899914 31124 net.cpp:120] Top shape: 50 128 14 14 (1254400)
I1230 19:22:11.899929 31124 layer_factory.hpp:74] Creating layer inception_4c/3x3_reduce
I1230 19:22:11.899942 31124 net.cpp:84] Creating Layer inception_4c/3x3_reduce
I1230 19:22:11.899950 31124 net.cpp:380] inception_4c/3x3_reduce <- inception_4b/output_inception_4b/output_0_split_1
I1230 19:22:11.899966 31124 net.cpp:338] inception_4c/3x3_reduce -> inception_4c/3x3_reduce
I1230 19:22:11.899978 31124 net.cpp:113] Setting up inception_4c/3x3_reduce
I1230 19:22:11.901372 31124 net.cpp:120] Top shape: 50 128 14 14 (1254400)
I1230 19:22:11.901393 31124 layer_factory.hpp:74] Creating layer inception_4c/relu_3x3_reduce
I1230 19:22:11.901407 31124 net.cpp:84] Creating Layer inception_4c/relu_3x3_reduce
I1230 19:22:11.901415 31124 net.cpp:380] inception_4c/relu_3x3_reduce <- inception_4c/3x3_reduce
I1230 19:22:11.901425 31124 net.cpp:327] inception_4c/relu_3x3_reduce -> inception_4c/3x3_reduce (in-place)
I1230 19:22:11.901435 31124 net.cpp:113] Setting up inception_4c/relu_3x3_reduce
I1230 19:22:11.901535 31124 net.cpp:120] Top shape: 50 128 14 14 (1254400)
I1230 19:22:11.901545 31124 layer_factory.hpp:74] Creating layer inception_4c/3x3
I1230 19:22:11.901556 31124 net.cpp:84] Creating Layer inception_4c/3x3
I1230 19:22:11.901563 31124 net.cpp:380] inception_4c/3x3 <- inception_4c/3x3_reduce
I1230 19:22:11.901576 31124 net.cpp:338] inception_4c/3x3 -> inception_4c/3x3
I1230 19:22:11.901587 31124 net.cpp:113] Setting up inception_4c/3x3
I1230 19:22:11.905908 31124 net.cpp:120] Top shape: 50 256 14 14 (2508800)
I1230 19:22:11.905948 31124 layer_factory.hpp:74] Creating layer inception_4c/relu_3x3
I1230 19:22:11.905961 31124 net.cpp:84] Creating Layer inception_4c/relu_3x3
I1230 19:22:11.905971 31124 net.cpp:380] inception_4c/relu_3x3 <- inception_4c/3x3
I1230 19:22:11.905982 31124 net.cpp:327] inception_4c/relu_3x3 -> inception_4c/3x3 (in-place)
I1230 19:22:11.905992 31124 net.cpp:113] Setting up inception_4c/relu_3x3
I1230 19:22:11.906091 31124 net.cpp:120] Top shape: 50 256 14 14 (2508800)
I1230 19:22:11.906100 31124 layer_factory.hpp:74] Creating layer inception_4c/5x5_reduce
I1230 19:22:11.906116 31124 net.cpp:84] Creating Layer inception_4c/5x5_reduce
I1230 19:22:11.906123 31124 net.cpp:380] inception_4c/5x5_reduce <- inception_4b/output_inception_4b/output_0_split_2
I1230 19:22:11.906138 31124 net.cpp:338] inception_4c/5x5_reduce -> inception_4c/5x5_reduce
I1230 19:22:11.906149 31124 net.cpp:113] Setting up inception_4c/5x5_reduce
I1230 19:22:11.906847 31124 net.cpp:120] Top shape: 50 24 14 14 (235200)
I1230 19:22:11.906867 31124 layer_factory.hpp:74] Creating layer inception_4c/relu_5x5_reduce
I1230 19:22:11.906879 31124 net.cpp:84] Creating Layer inception_4c/relu_5x5_reduce
I1230 19:22:11.906888 31124 net.cpp:380] inception_4c/relu_5x5_reduce <- inception_4c/5x5_reduce
I1230 19:22:11.906898 31124 net.cpp:327] inception_4c/relu_5x5_reduce -> inception_4c/5x5_reduce (in-place)
I1230 19:22:11.906908 31124 net.cpp:113] Setting up inception_4c/relu_5x5_reduce
I1230 19:22:11.907204 31124 net.cpp:120] Top shape: 50 24 14 14 (235200)
I1230 19:22:11.907217 31124 layer_factory.hpp:74] Creating layer inception_4c/5x5
I1230 19:22:11.907230 31124 net.cpp:84] Creating Layer inception_4c/5x5
I1230 19:22:11.907238 31124 net.cpp:380] inception_4c/5x5 <- inception_4c/5x5_reduce
I1230 19:22:11.907251 31124 net.cpp:338] inception_4c/5x5 -> inception_4c/5x5
I1230 19:22:11.907264 31124 net.cpp:113] Setting up inception_4c/5x5
I1230 19:22:11.908288 31124 net.cpp:120] Top shape: 50 64 14 14 (627200)
I1230 19:22:11.908308 31124 layer_factory.hpp:74] Creating layer inception_4c/relu_5x5
I1230 19:22:11.908318 31124 net.cpp:84] Creating Layer inception_4c/relu_5x5
I1230 19:22:11.908326 31124 net.cpp:380] inception_4c/relu_5x5 <- inception_4c/5x5
I1230 19:22:11.908340 31124 net.cpp:327] inception_4c/relu_5x5 -> inception_4c/5x5 (in-place)
I1230 19:22:11.908357 31124 net.cpp:113] Setting up inception_4c/relu_5x5
I1230 19:22:11.908468 31124 net.cpp:120] Top shape: 50 64 14 14 (627200)
I1230 19:22:11.908478 31124 layer_factory.hpp:74] Creating layer inception_4c/pool
I1230 19:22:11.908486 31124 layer_factory.cpp:56] CUDNN does not support padding or multiple tops. Using Caffe's own pooling layer.
I1230 19:22:11.908499 31124 net.cpp:84] Creating Layer inception_4c/pool
I1230 19:22:11.908506 31124 net.cpp:380] inception_4c/pool <- inception_4b/output_inception_4b/output_0_split_3
I1230 19:22:11.908516 31124 net.cpp:338] inception_4c/pool -> inception_4c/pool
I1230 19:22:11.908527 31124 net.cpp:113] Setting up inception_4c/pool
I1230 19:22:11.908541 31124 net.cpp:120] Top shape: 50 512 14 14 (5017600)
I1230 19:22:11.908548 31124 layer_factory.hpp:74] Creating layer inception_4c/pool_proj
I1230 19:22:11.908562 31124 net.cpp:84] Creating Layer inception_4c/pool_proj
I1230 19:22:11.908570 31124 net.cpp:380] inception_4c/pool_proj <- inception_4c/pool
I1230 19:22:11.908581 31124 net.cpp:338] inception_4c/pool_proj -> inception_4c/pool_proj
I1230 19:22:11.908591 31124 net.cpp:113] Setting up inception_4c/pool_proj
I1230 19:22:11.909557 31124 net.cpp:120] Top shape: 50 64 14 14 (627200)
I1230 19:22:11.909579 31124 layer_factory.hpp:74] Creating layer inception_4c/relu_pool_proj
I1230 19:22:11.909591 31124 net.cpp:84] Creating Layer inception_4c/relu_pool_proj
I1230 19:22:11.909600 31124 net.cpp:380] inception_4c/relu_pool_proj <- inception_4c/pool_proj
I1230 19:22:11.909610 31124 net.cpp:327] inception_4c/relu_pool_proj -> inception_4c/pool_proj (in-place)
I1230 19:22:11.909621 31124 net.cpp:113] Setting up inception_4c/relu_pool_proj
I1230 19:22:11.909716 31124 net.cpp:120] Top shape: 50 64 14 14 (627200)
I1230 19:22:11.909725 31124 layer_factory.hpp:74] Creating layer inception_4c/output
I1230 19:22:11.909736 31124 net.cpp:84] Creating Layer inception_4c/output
I1230 19:22:11.909745 31124 net.cpp:380] inception_4c/output <- inception_4c/1x1
I1230 19:22:11.909754 31124 net.cpp:380] inception_4c/output <- inception_4c/3x3
I1230 19:22:11.909762 31124 net.cpp:380] inception_4c/output <- inception_4c/5x5
I1230 19:22:11.909770 31124 net.cpp:380] inception_4c/output <- inception_4c/pool_proj
I1230 19:22:11.909780 31124 net.cpp:338] inception_4c/output -> inception_4c/output
I1230 19:22:11.909790 31124 net.cpp:113] Setting up inception_4c/output
I1230 19:22:11.909802 31124 net.cpp:120] Top shape: 50 512 14 14 (5017600)
I1230 19:22:11.909809 31124 layer_factory.hpp:74] Creating layer inception_4c/output_inception_4c/output_0_split
I1230 19:22:11.909821 31124 net.cpp:84] Creating Layer inception_4c/output_inception_4c/output_0_split
I1230 19:22:11.909827 31124 net.cpp:380] inception_4c/output_inception_4c/output_0_split <- inception_4c/output
I1230 19:22:11.909837 31124 net.cpp:338] inception_4c/output_inception_4c/output_0_split -> inception_4c/output_inception_4c/output_0_split_0
I1230 19:22:11.909852 31124 net.cpp:338] inception_4c/output_inception_4c/output_0_split -> inception_4c/output_inception_4c/output_0_split_1
I1230 19:22:11.909862 31124 net.cpp:338] inception_4c/output_inception_4c/output_0_split -> inception_4c/output_inception_4c/output_0_split_2
I1230 19:22:11.909873 31124 net.cpp:338] inception_4c/output_inception_4c/output_0_split -> inception_4c/output_inception_4c/output_0_split_3
I1230 19:22:11.909883 31124 net.cpp:113] Setting up inception_4c/output_inception_4c/output_0_split
I1230 19:22:11.909894 31124 net.cpp:120] Top shape: 50 512 14 14 (5017600)
I1230 19:22:11.909904 31124 net.cpp:120] Top shape: 50 512 14 14 (5017600)
I1230 19:22:11.909911 31124 net.cpp:120] Top shape: 50 512 14 14 (5017600)
I1230 19:22:11.909919 31124 net.cpp:120] Top shape: 50 512 14 14 (5017600)
I1230 19:22:11.909926 31124 layer_factory.hpp:74] Creating layer inception_4d/1x1
I1230 19:22:11.909940 31124 net.cpp:84] Creating Layer inception_4d/1x1
I1230 19:22:11.909947 31124 net.cpp:380] inception_4d/1x1 <- inception_4c/output_inception_4c/output_0_split_0
I1230 19:22:11.909957 31124 net.cpp:338] inception_4d/1x1 -> inception_4d/1x1
I1230 19:22:11.909976 31124 net.cpp:113] Setting up inception_4d/1x1
I1230 19:22:11.911276 31124 net.cpp:120] Top shape: 50 112 14 14 (1097600)
I1230 19:22:11.911296 31124 layer_factory.hpp:74] Creating layer inception_4d/relu_1x1
I1230 19:22:11.911311 31124 net.cpp:84] Creating Layer inception_4d/relu_1x1
I1230 19:22:11.911319 31124 net.cpp:380] inception_4d/relu_1x1 <- inception_4d/1x1
I1230 19:22:11.911329 31124 net.cpp:327] inception_4d/relu_1x1 -> inception_4d/1x1 (in-place)
I1230 19:22:11.911339 31124 net.cpp:113] Setting up inception_4d/relu_1x1
I1230 19:22:11.911434 31124 net.cpp:120] Top shape: 50 112 14 14 (1097600)
I1230 19:22:11.911442 31124 layer_factory.hpp:74] Creating layer inception_4d/3x3_reduce
I1230 19:22:11.911456 31124 net.cpp:84] Creating Layer inception_4d/3x3_reduce
I1230 19:22:11.911464 31124 net.cpp:380] inception_4d/3x3_reduce <- inception_4c/output_inception_4c/output_0_split_1
I1230 19:22:11.911474 31124 net.cpp:338] inception_4d/3x3_reduce -> inception_4d/3x3_reduce
I1230 19:22:11.911486 31124 net.cpp:113] Setting up inception_4d/3x3_reduce
I1230 19:22:11.912977 31124 net.cpp:120] Top shape: 50 144 14 14 (1411200)
I1230 19:22:11.912997 31124 layer_factory.hpp:74] Creating layer inception_4d/relu_3x3_reduce
I1230 19:22:11.913017 31124 net.cpp:84] Creating Layer inception_4d/relu_3x3_reduce
I1230 19:22:11.913024 31124 net.cpp:380] inception_4d/relu_3x3_reduce <- inception_4d/3x3_reduce
I1230 19:22:11.913034 31124 net.cpp:327] inception_4d/relu_3x3_reduce -> inception_4d/3x3_reduce (in-place)
I1230 19:22:11.913044 31124 net.cpp:113] Setting up inception_4d/relu_3x3_reduce
I1230 19:22:11.913360 31124 net.cpp:120] Top shape: 50 144 14 14 (1411200)
I1230 19:22:11.913380 31124 layer_factory.hpp:74] Creating layer inception_4d/3x3
I1230 19:22:11.913393 31124 net.cpp:84] Creating Layer inception_4d/3x3
I1230 19:22:11.913400 31124 net.cpp:380] inception_4d/3x3 <- inception_4d/3x3_reduce
I1230 19:22:11.913414 31124 net.cpp:338] inception_4d/3x3 -> inception_4d/3x3
I1230 19:22:11.913426 31124 net.cpp:113] Setting up inception_4d/3x3
I1230 19:22:11.918922 31124 net.cpp:120] Top shape: 50 288 14 14 (2822400)
I1230 19:22:11.918947 31124 layer_factory.hpp:74] Creating layer inception_4d/relu_3x3
I1230 19:22:11.918959 31124 net.cpp:84] Creating Layer inception_4d/relu_3x3
I1230 19:22:11.918967 31124 net.cpp:380] inception_4d/relu_3x3 <- inception_4d/3x3
I1230 19:22:11.918980 31124 net.cpp:327] inception_4d/relu_3x3 -> inception_4d/3x3 (in-place)
I1230 19:22:11.918992 31124 net.cpp:113] Setting up inception_4d/relu_3x3
I1230 19:22:11.919095 31124 net.cpp:120] Top shape: 50 288 14 14 (2822400)
I1230 19:22:11.919106 31124 layer_factory.hpp:74] Creating layer inception_4d/5x5_reduce
I1230 19:22:11.919122 31124 net.cpp:84] Creating Layer inception_4d/5x5_reduce
I1230 19:22:11.919131 31124 net.cpp:380] inception_4d/5x5_reduce <- inception_4c/output_inception_4c/output_0_split_2
I1230 19:22:11.919142 31124 net.cpp:338] inception_4d/5x5_reduce -> inception_4d/5x5_reduce
I1230 19:22:11.919154 31124 net.cpp:113] Setting up inception_4d/5x5_reduce
I1230 19:22:11.919965 31124 net.cpp:120] Top shape: 50 32 14 14 (313600)
I1230 19:22:11.919986 31124 layer_factory.hpp:74] Creating layer inception_4d/relu_5x5_reduce
I1230 19:22:11.919998 31124 net.cpp:84] Creating Layer inception_4d/relu_5x5_reduce
I1230 19:22:11.920007 31124 net.cpp:380] inception_4d/relu_5x5_reduce <- inception_4d/5x5_reduce
I1230 19:22:11.920017 31124 net.cpp:327] inception_4d/relu_5x5_reduce -> inception_4d/5x5_reduce (in-place)
I1230 19:22:11.920027 31124 net.cpp:113] Setting up inception_4d/relu_5x5_reduce
I1230 19:22:11.920130 31124 net.cpp:120] Top shape: 50 32 14 14 (313600)
I1230 19:22:11.920138 31124 layer_factory.hpp:74] Creating layer inception_4d/5x5
I1230 19:22:11.920153 31124 net.cpp:84] Creating Layer inception_4d/5x5
I1230 19:22:11.920161 31124 net.cpp:380] inception_4d/5x5 <- inception_4d/5x5_reduce
I1230 19:22:11.920171 31124 net.cpp:338] inception_4d/5x5 -> inception_4d/5x5
I1230 19:22:11.920186 31124 net.cpp:113] Setting up inception_4d/5x5
I1230 19:22:11.921394 31124 net.cpp:120] Top shape: 50 64 14 14 (627200)
I1230 19:22:11.921427 31124 layer_factory.hpp:74] Creating layer inception_4d/relu_5x5
I1230 19:22:11.921440 31124 net.cpp:84] Creating Layer inception_4d/relu_5x5
I1230 19:22:11.921449 31124 net.cpp:380] inception_4d/relu_5x5 <- inception_4d/5x5
I1230 19:22:11.921459 31124 net.cpp:327] inception_4d/relu_5x5 -> inception_4d/5x5 (in-place)
I1230 19:22:11.921470 31124 net.cpp:113] Setting up inception_4d/relu_5x5
I1230 19:22:11.921572 31124 net.cpp:120] Top shape: 50 64 14 14 (627200)
I1230 19:22:11.921582 31124 layer_factory.hpp:74] Creating layer inception_4d/pool
I1230 19:22:11.921591 31124 layer_factory.cpp:56] CUDNN does not support padding or multiple tops. Using Caffe's own pooling layer.
I1230 19:22:11.921600 31124 net.cpp:84] Creating Layer inception_4d/pool
I1230 19:22:11.921608 31124 net.cpp:380] inception_4d/pool <- inception_4c/output_inception_4c/output_0_split_3
I1230 19:22:11.921622 31124 net.cpp:338] inception_4d/pool -> inception_4d/pool
I1230 19:22:11.921633 31124 net.cpp:113] Setting up inception_4d/pool
I1230 19:22:11.921649 31124 net.cpp:120] Top shape: 50 512 14 14 (5017600)
I1230 19:22:11.921656 31124 layer_factory.hpp:74] Creating layer inception_4d/pool_proj
I1230 19:22:11.921670 31124 net.cpp:84] Creating Layer inception_4d/pool_proj
I1230 19:22:11.921679 31124 net.cpp:380] inception_4d/pool_proj <- inception_4d/pool
I1230 19:22:11.921689 31124 net.cpp:338] inception_4d/pool_proj -> inception_4d/pool_proj
I1230 19:22:11.921700 31124 net.cpp:113] Setting up inception_4d/pool_proj
I1230 19:22:11.922651 31124 net.cpp:120] Top shape: 50 64 14 14 (627200)
I1230 19:22:11.922670 31124 layer_factory.hpp:74] Creating layer inception_4d/relu_pool_proj
I1230 19:22:11.922682 31124 net.cpp:84] Creating Layer inception_4d/relu_pool_proj
I1230 19:22:11.922689 31124 net.cpp:380] inception_4d/relu_pool_proj <- inception_4d/pool_proj
I1230 19:22:11.922701 31124 net.cpp:327] inception_4d/relu_pool_proj -> inception_4d/pool_proj (in-place)
I1230 19:22:11.922713 31124 net.cpp:113] Setting up inception_4d/relu_pool_proj
I1230 19:22:11.923017 31124 net.cpp:120] Top shape: 50 64 14 14 (627200)
I1230 19:22:11.923032 31124 layer_factory.hpp:74] Creating layer inception_4d/output
I1230 19:22:11.923043 31124 net.cpp:84] Creating Layer inception_4d/output
I1230 19:22:11.923050 31124 net.cpp:380] inception_4d/output <- inception_4d/1x1
I1230 19:22:11.923059 31124 net.cpp:380] inception_4d/output <- inception_4d/3x3
I1230 19:22:11.923069 31124 net.cpp:380] inception_4d/output <- inception_4d/5x5
I1230 19:22:11.923076 31124 net.cpp:380] inception_4d/output <- inception_4d/pool_proj
I1230 19:22:11.923085 31124 net.cpp:338] inception_4d/output -> inception_4d/output
I1230 19:22:11.923096 31124 net.cpp:113] Setting up inception_4d/output
I1230 19:22:11.923110 31124 net.cpp:120] Top shape: 50 528 14 14 (5174400)
I1230 19:22:11.923116 31124 layer_factory.hpp:74] Creating layer inception_4d/output_inception_4d/output_0_split
I1230 19:22:11.923127 31124 net.cpp:84] Creating Layer inception_4d/output_inception_4d/output_0_split
I1230 19:22:11.923135 31124 net.cpp:380] inception_4d/output_inception_4d/output_0_split <- inception_4d/output
I1230 19:22:11.923146 31124 net.cpp:338] inception_4d/output_inception_4d/output_0_split -> inception_4d/output_inception_4d/output_0_split_0
I1230 19:22:11.923162 31124 net.cpp:338] inception_4d/output_inception_4d/output_0_split -> inception_4d/output_inception_4d/output_0_split_1
I1230 19:22:11.923173 31124 net.cpp:338] inception_4d/output_inception_4d/output_0_split -> inception_4d/output_inception_4d/output_0_split_2
I1230 19:22:11.923184 31124 net.cpp:338] inception_4d/output_inception_4d/output_0_split -> inception_4d/output_inception_4d/output_0_split_3
I1230 19:22:11.923197 31124 net.cpp:338] inception_4d/output_inception_4d/output_0_split -> inception_4d/output_inception_4d/output_0_split_4
I1230 19:22:11.923207 31124 net.cpp:113] Setting up inception_4d/output_inception_4d/output_0_split
I1230 19:22:11.923225 31124 net.cpp:120] Top shape: 50 528 14 14 (5174400)
I1230 19:22:11.923243 31124 net.cpp:120] Top shape: 50 528 14 14 (5174400)
I1230 19:22:11.923251 31124 net.cpp:120] Top shape: 50 528 14 14 (5174400)
I1230 19:22:11.923259 31124 net.cpp:120] Top shape: 50 528 14 14 (5174400)
I1230 19:22:11.923267 31124 net.cpp:120] Top shape: 50 528 14 14 (5174400)
I1230 19:22:11.923274 31124 layer_factory.hpp:74] Creating layer loss2/ave_pool
I1230 19:22:11.923285 31124 net.cpp:84] Creating Layer loss2/ave_pool
I1230 19:22:11.923291 31124 net.cpp:380] loss2/ave_pool <- inception_4d/output_inception_4d/output_0_split_0
I1230 19:22:11.923305 31124 net.cpp:338] loss2/ave_pool -> loss2/ave_pool
I1230 19:22:11.923316 31124 net.cpp:113] Setting up loss2/ave_pool
I1230 19:22:11.923423 31124 net.cpp:120] Top shape: 50 528 4 4 (422400)
I1230 19:22:11.923432 31124 layer_factory.hpp:74] Creating layer loss2/conv
I1230 19:22:11.923444 31124 net.cpp:84] Creating Layer loss2/conv
I1230 19:22:11.923451 31124 net.cpp:380] loss2/conv <- loss2/ave_pool
I1230 19:22:11.923463 31124 net.cpp:338] loss2/conv -> loss2/conv
I1230 19:22:11.923475 31124 net.cpp:113] Setting up loss2/conv
I1230 19:22:11.924870 31124 net.cpp:120] Top shape: 50 128 4 4 (102400)
I1230 19:22:11.924892 31124 layer_factory.hpp:74] Creating layer loss2/relu_conv
I1230 19:22:11.924903 31124 net.cpp:84] Creating Layer loss2/relu_conv
I1230 19:22:11.924911 31124 net.cpp:380] loss2/relu_conv <- loss2/conv
I1230 19:22:11.924921 31124 net.cpp:327] loss2/relu_conv -> loss2/conv (in-place)
I1230 19:22:11.924932 31124 net.cpp:113] Setting up loss2/relu_conv
I1230 19:22:11.925027 31124 net.cpp:120] Top shape: 50 128 4 4 (102400)
I1230 19:22:11.925037 31124 layer_factory.hpp:74] Creating layer loss2/fc
I1230 19:22:11.925050 31124 net.cpp:84] Creating Layer loss2/fc
I1230 19:22:11.925065 31124 net.cpp:380] loss2/fc <- loss2/conv
I1230 19:22:11.925078 31124 net.cpp:338] loss2/fc -> loss2/fc
I1230 19:22:11.925091 31124 net.cpp:113] Setting up loss2/fc
I1230 19:22:12.057301 31124 net.cpp:120] Top shape: 50 1024 (51200)
I1230 19:22:12.057385 31124 layer_factory.hpp:74] Creating layer loss2/relu_fc
I1230 19:22:12.057413 31124 net.cpp:84] Creating Layer loss2/relu_fc
I1230 19:22:12.057459 31124 net.cpp:380] loss2/relu_fc <- loss2/fc
I1230 19:22:12.057487 31124 net.cpp:327] loss2/relu_fc -> loss2/fc (in-place)
I1230 19:22:12.057503 31124 net.cpp:113] Setting up loss2/relu_fc
I1230 19:22:12.058167 31124 net.cpp:120] Top shape: 50 1024 (51200)
I1230 19:22:12.058184 31124 layer_factory.hpp:74] Creating layer loss2/drop_fc
I1230 19:22:12.058207 31124 net.cpp:84] Creating Layer loss2/drop_fc
I1230 19:22:12.058218 31124 net.cpp:380] loss2/drop_fc <- loss2/fc
I1230 19:22:12.058228 31124 net.cpp:327] loss2/drop_fc -> loss2/fc (in-place)
I1230 19:22:12.058239 31124 net.cpp:113] Setting up loss2/drop_fc
I1230 19:22:12.058253 31124 net.cpp:120] Top shape: 50 1024 (51200)
I1230 19:22:12.058261 31124 layer_factory.hpp:74] Creating layer loss2/classifier_kaggle
I1230 19:22:12.058290 31124 net.cpp:84] Creating Layer loss2/classifier_kaggle
I1230 19:22:12.058298 31124 net.cpp:380] loss2/classifier_kaggle <- loss2/fc
I1230 19:22:12.058311 31124 net.cpp:338] loss2/classifier_kaggle -> loss2/classifier_kaggle
I1230 19:22:12.058329 31124 net.cpp:113] Setting up loss2/classifier_kaggle
I1230 19:22:12.063726 31124 net.cpp:120] Top shape: 50 447 (22350)
I1230 19:22:12.063745 31124 layer_factory.hpp:74] Creating layer loss2/classifier_kaggle_loss2/classifier_kaggle_0_split
I1230 19:22:12.063756 31124 net.cpp:84] Creating Layer loss2/classifier_kaggle_loss2/classifier_kaggle_0_split
I1230 19:22:12.063763 31124 net.cpp:380] loss2/classifier_kaggle_loss2/classifier_kaggle_0_split <- loss2/classifier_kaggle
I1230 19:22:12.063772 31124 net.cpp:338] loss2/classifier_kaggle_loss2/classifier_kaggle_0_split -> loss2/classifier_kaggle_loss2/classifier_kaggle_0_split_0
I1230 19:22:12.063786 31124 net.cpp:338] loss2/classifier_kaggle_loss2/classifier_kaggle_0_split -> loss2/classifier_kaggle_loss2/classifier_kaggle_0_split_1
I1230 19:22:12.063805 31124 net.cpp:338] loss2/classifier_kaggle_loss2/classifier_kaggle_0_split -> loss2/classifier_kaggle_loss2/classifier_kaggle_0_split_2
I1230 19:22:12.063828 31124 net.cpp:113] Setting up loss2/classifier_kaggle_loss2/classifier_kaggle_0_split
I1230 19:22:12.063839 31124 net.cpp:120] Top shape: 50 447 (22350)
I1230 19:22:12.063846 31124 net.cpp:120] Top shape: 50 447 (22350)
I1230 19:22:12.063853 31124 net.cpp:120] Top shape: 50 447 (22350)
I1230 19:22:12.063859 31124 layer_factory.hpp:74] Creating layer loss2/loss
I1230 19:22:12.063871 31124 net.cpp:84] Creating Layer loss2/loss
I1230 19:22:12.063879 31124 net.cpp:380] loss2/loss <- loss2/classifier_kaggle_loss2/classifier_kaggle_0_split_0
I1230 19:22:12.063900 31124 net.cpp:380] loss2/loss <- label_data_1_split_3
I1230 19:22:12.063911 31124 net.cpp:338] loss2/loss -> loss2/loss1
…
I1230 19:22:12.065130 31124 net.cpp:338] loss2/top-5 -> loss2/top-5
I1230 19:22:12.065140 31124 net.cpp:113] Setting up loss2/top-5
I1230 19:22:12.065147 31124 net.cpp:120] Top shape: (1)
I1230 19:22:12.065153 31124 layer_factory.hpp:74] Creating layer inception_4e/1x1
I1230 19:22:12.065170 31124 net.cpp:84] Creating Layer inception_4e/1x1
I1230 19:22:12.065178 31124 net.cpp:380] inception_4e/1x1 <- inception_4d/output_inception_4d/output_0_split_1
I1230 19:22:12.065192 31124 net.cpp:338] inception_4e/1x1 -> inception_4e/1x1
I1230 19:22:12.065202 31124 net.cpp:113] Setting up inception_4e/1x1
I1230 19:22:12.075117 31124 net.cpp:120] Top shape: 50 256 14 14 (2508800)
I1230 19:22:12.075139 31124 layer_factory.hpp:74] Creating layer inception_4e/relu_1x1
I1230 19:22:12.075155 31124 net.cpp:84] Creating Layer inception_4e/relu_1x1
I1230 19:22:12.075161 31124 net.cpp:380] inception_4e/relu_1x1 <- inception_4e/1x1
I1230 19:22:12.075171 31124 net.cpp:327] inception_4e/relu_1x1 -> inception_4e/1x1 (in-place)
I1230 19:22:12.075181 31124 net.cpp:113] Setting up inception_4e/relu_1x1
I1230 19:22:12.075290 31124 net.cpp:120] Top shape: 50 256 14 14 (2508800)
I1230 19:22:12.075299 31124 layer_factory.hpp:74] Creating layer inception_4e/3x3_reduce
I1230 19:22:12.075563 31124 net.cpp:84] Creating Layer inception_4e/3x3_reduce
I1230 19:22:12.075574 31124 net.cpp:380] inception_4e/3x3_reduce <- inception_4d/output_inception_4d/output_0_split_2
I1230 19:22:12.075587 31124 net.cpp:338] inception_4e/3x3_reduce -> inception_4e/3x3_reduce
I1230 19:22:12.075599 31124 net.cpp:113] Setting up inception_4e/3x3_reduce
I1230 19:22:12.077142 31124 net.cpp:120] Top shape: 50 160 14 14 (1568000)
I1230 19:22:12.077163 31124 layer_factory.hpp:74] Creating layer inception_4e/relu_3x3_reduce
I1230 19:22:12.077175 31124 net.cpp:84] Creating Layer inception_4e/relu_3x3_reduce
I1230 19:22:12.077183 31124 net.cpp:380] inception_4e/relu_3x3_reduce <- inception_4e/3x3_reduce
I1230 19:22:12.077193 31124 net.cpp:327] inception_4e/relu_3x3_reduce -> inception_4e/3x3_reduce (in-place)
I1230 19:22:12.077208 31124 net.cpp:113] Setting up inception_4e/relu_3x3_reduce
I1230 19:22:12.077313 31124 net.cpp:120] Top shape: 50 160 14 14 (1568000)
I1230 19:22:12.077327 31124 layer_factory.hpp:74] Creating layer inception_4e/3x3
I1230 19:22:12.077339 31124 net.cpp:84] Creating Layer inception_4e/3x3
I1230 19:22:12.077347 31124 net.cpp:380] inception_4e/3x3 <- inception_4e/3x3_reduce
I1230 19:22:12.077355 31124 net.cpp:338] inception_4e/3x3 -> inception_4e/3x3
I1230 19:22:12.077368 31124 net.cpp:113] Setting up inception_4e/3x3
I1230 19:22:12.083531 31124 net.cpp:120] Top shape: 50 320 14 14 (3136000)
I1230 19:22:12.083554 31124 layer_factory.hpp:74] Creating layer inception_4e/relu_3x3
I1230 19:22:12.083564 31124 net.cpp:84] Creating Layer inception_4e/relu_3x3
I1230 19:22:12.083570 31124 net.cpp:380] inception_4e/relu_3x3 <- inception_4e/3x3
I1230 19:22:12.083580 31124 net.cpp:327] inception_4e/relu_3x3 -> inception_4e/3x3 (in-place)
I1230 19:22:12.083590 31124 net.cpp:113] Setting up inception_4e/relu_3x3
I1230 19:22:12.083876 31124 net.cpp:120] Top shape: 50 320 14 14 (3136000)
I1230 19:22:12.083890 31124 layer_factory.hpp:74] Creating layer inception_4e/5x5_reduce
I1230 19:22:12.083902 31124 net.cpp:84] Creating Layer inception_4e/5x5_reduce
I1230 19:22:12.083910 31124 net.cpp:380] inception_4e/5x5_reduce <- inception_4d/output_inception_4d/output_0_split_3
I1230 19:22:12.083921 31124 net.cpp:338] inception_4e/5x5_reduce -> inception_4e/5x5_reduce
I1230 19:22:12.083933 31124 net.cpp:113] Setting up inception_4e/5x5_reduce
I1230 19:22:12.084624 31124 net.cpp:120] Top shape: 50 32 14 14 (313600)
I1230 19:22:12.084642 31124 layer_factory.hpp:74] Creating layer inception_4e/relu_5x5_reduce
I1230 19:22:12.084653 31124 net.cpp:84] Creating Layer inception_4e/relu_5x5_reduce
I1230 19:22:12.084661 31124 net.cpp:380] inception_4e/relu_5x5_reduce <- inception_4e/5x5_reduce
I1230 19:22:12.084672 31124 net.cpp:327] inception_4e/relu_5x5_reduce -> inception_4e/5x5_reduce (in-place)
I1230 19:22:12.084682 31124 net.cpp:113] Setting up inception_4e/relu_5x5_reduce
I1230 19:22:12.084774 31124 net.cpp:120] Top shape: 50 32 14 14 (313600)
I1230 19:22:12.084784 31124 layer_factory.hpp:74] Creating layer inception_4e/5x5
I1230 19:22:12.084805 31124 net.cpp:84] Creating Layer inception_4e/5x5
I1230 19:22:12.084812 31124 net.cpp:380] inception_4e/5x5 <- inception_4e/5x5_reduce
I1230 19:22:12.084827 31124 net.cpp:338] inception_4e/5x5 -> inception_4e/5x5
I1230 19:22:12.084838 31124 net.cpp:113] Setting up inception_4e/5x5
I1230 19:22:12.086566 31124 net.cpp:120] Top shape: 50 128 14 14 (1254400)
I1230 19:22:12.086586 31124 layer_factory.hpp:74] Creating layer inception_4e/relu_5x5
I1230 19:22:12.086598 31124 net.cpp:84] Creating Layer inception_4e/relu_5x5
I1230 19:22:12.086606 31124 net.cpp:380] inception_4e/relu_5x5 <- inception_4e/5x5
I1230 19:22:12.086614 31124 net.cpp:327] inception_4e/relu_5x5 -> inception_4e/5x5 (in-place)
I1230 19:22:12.086624 31124 net.cpp:113] Setting up inception_4e/relu_5x5
I1230 19:22:12.086715 31124 net.cpp:120] Top shape: 50 128 14 14 (1254400)
I1230 19:22:12.086724 31124 layer_factory.hpp:74] Creating layer inception_4e/pool
I1230 19:22:12.086733 31124 layer_factory.cpp:56] CUDNN does not support padding or multiple tops. Using Caffe's own pooling layer.
I1230 19:22:12.086752 31124 net.cpp:84] Creating Layer inception_4e/pool
I1230 19:22:12.086760 31124 net.cpp:380] inception_4e/pool <- inception_4d/output_inception_4d/output_0_split_4
I1230 19:22:12.086769 31124 net.cpp:338] inception_4e/pool -> inception_4e/pool
I1230 19:22:12.086779 31124 net.cpp:113] Setting up inception_4e/pool
I1230 19:22:12.086794 31124 net.cpp:120] Top shape: 50 528 14 14 (5174400)
I1230 19:22:12.086802 31124 layer_factory.hpp:74] Creating layer inception_4e/pool_proj
I1230 19:22:12.086813 31124 net.cpp:84] Creating Layer inception_4e/pool_proj
I1230 19:22:12.086819 31124 net.cpp:380] inception_4e/pool_proj <- inception_4e/pool
I1230 19:22:12.086829 31124 net.cpp:338] inception_4e/pool_proj -> inception_4e/pool_proj
I1230 19:22:12.086838 31124 net.cpp:113] Setting up inception_4e/pool_proj
I1230 19:22:12.088153 31124 net.cpp:120] Top shape: 50 128 14 14 (1254400)
I1230 19:22:12.088173 31124 layer_factory.hpp:74] Creating layer inception_4e/relu_pool_proj
I1230 19:22:12.088186 31124 net.cpp:84] Creating Layer inception_4e/relu_pool_proj
I1230 19:22:12.088192 31124 net.cpp:380] inception_4e/relu_pool_proj <- inception_4e/pool_proj
I1230 19:22:12.088201 31124 net.cpp:327] inception_4e/relu_pool_proj -> inception_4e/pool_proj (in-place)
I1230 19:22:12.088212 31124 net.cpp:113] Setting up inception_4e/relu_pool_proj
I1230 19:22:12.088302 31124 net.cpp:120] Top shape: 50 128 14 14 (1254400)
I1230 19:22:12.088316 31124 layer_factory.hpp:74] Creating layer inception_4e/output
I1230 19:22:12.088327 31124 net.cpp:84] Creating Layer inception_4e/output
I1230 19:22:12.088335 31124 net.cpp:380] inception_4e/output <- inception_4e/1x1
I1230 19:22:12.088342 31124 net.cpp:380] inception_4e/output <- inception_4e/3x3
I1230 19:22:12.088349 31124 net.cpp:380] inception_4e/output <- inception_4e/5x5
I1230 19:22:12.088357 31124 net.cpp:380] inception_4e/output <- inception_4e/pool_proj
I1230 19:22:12.088366 31124 net.cpp:338] inception_4e/output -> inception_4e/output
I1230 19:22:12.088376 31124 net.cpp:113] Setting up inception_4e/output
I1230 19:22:12.088388 31124 net.cpp:120] Top shape: 50 832 14 14 (8153600)
I1230 19:22:12.088395 31124 layer_factory.hpp:74] Creating layer pool4/3x3_s2
I1230 19:22:12.088405 31124 net.cpp:84] Creating Layer pool4/3x3_s2
I1230 19:22:12.088413 31124 net.cpp:380] pool4/3x3_s2 <- inception_4e/output
I1230 19:22:12.088425 31124 net.cpp:338] pool4/3x3_s2 -> pool4/3x3_s2
I1230 19:22:12.088436 31124 net.cpp:113] Setting up pool4/3x3_s2
I1230 19:22:12.088747 31124 net.cpp:120] Top shape: 50 832 7 7 (2038400)
I1230 19:22:12.088762 31124 layer_factory.hpp:74] Creating layer pool4/3x3_s2_pool4/3x3_s2_0_split
I1230 19:22:12.088790 31124 net.cpp:84] Creating Layer pool4/3x3_s2_pool4/3x3_s2_0_split
I1230 19:22:12.088798 31124 net.cpp:380] pool4/3x3_s2_pool4/3x3_s2_0_split <- pool4/3x3_s2
I1230 19:22:12.088809 31124 net.cpp:338] pool4/3x3_s2_pool4/3x3_s2_0_split -> pool4/3x3_s2_pool4/3x3_s2_0_split_0
I1230 19:22:12.088829 31124 net.cpp:338] pool4/3x3_s2_pool4/3x3_s2_0_split -> pool4/3x3_s2_pool4/3x3_s2_0_split_1
I1230 19:22:12.088841 31124 net.cpp:338] pool4/3x3_s2_pool4/3x3_s2_0_split -> pool4/3x3_s2_pool4/3x3_s2_0_split_2
I1230 19:22:12.088940 31124 net.cpp:338] pool4/3x3_s2_pool4/3x3_s2_0_split -> pool4/3x3_s2_pool4/3x3_s2_0_split_3
I1230 19:22:12.088951 31124 net.cpp:113] Setting up pool4/3x3_s2_pool4/3x3_s2_0_split
I1230 19:22:12.088963 31124 net.cpp:120] Top shape: 50 832 7 7 (2038400)
I1230 19:22:12.088970 31124 net.cpp:120] Top shape: 50 832 7 7 (2038400)
I1230 19:22:12.088979 31124 net.cpp:120] Top shape: 50 832 7 7 (2038400)
I1230 19:22:12.088986 31124 net.cpp:120] Top shape: 50 832 7 7 (2038400)
I1230 19:22:12.088992 31124 layer_factory.hpp:74] Creating layer inception_5a/1x1
I1230 19:22:12.089005 31124 net.cpp:84] Creating Layer inception_5a/1x1
I1230 19:22:12.089011 31124 net.cpp:380] inception_5a/1x1 <- pool4/3x3_s2_pool4/3x3_s2_0_split_0
I1230 19:22:12.089023 31124 net.cpp:338] inception_5a/1x1 -> inception_5a/1x1
I1230 19:22:12.089033 31124 net.cpp:113] Setting up inception_5a/1x1
I1230 19:22:12.092391 31124 net.cpp:120] Top shape: 50 256 7 7 (627200)
I1230 19:22:12.092443 31124 layer_factory.hpp:74] Creating layer inception_5a/relu_1x1
I1230 19:22:12.092458 31124 net.cpp:84] Creating Layer inception_5a/relu_1x1
I1230 19:22:12.092468 31124 net.cpp:380] inception_5a/relu_1x1 <- inception_5a/1x1
I1230 19:22:12.092479 31124 net.cpp:327] inception_5a/relu_1x1 -> inception_5a/1x1 (in-place)
I1230 19:22:12.092491 31124 net.cpp:113] Setting up inception_5a/relu_1x1
I1230 19:22:12.092581 31124 net.cpp:120] Top shape: 50 256 7 7 (627200)
I1230 19:22:12.092588 31124 layer_factory.hpp:74] Creating layer inception_5a/3x3_reduce
I1230 19:22:12.092604 31124 net.cpp:84] Creating Layer inception_5a/3x3_reduce
I1230 19:22:12.092613 31124 net.cpp:380] inception_5a/3x3_reduce <- pool4/3x3_s2_pool4/3x3_s2_0_split_1
I1230 19:22:12.092649 31124 net.cpp:338] inception_5a/3x3_reduce -> inception_5a/3x3_reduce
I1230 19:22:12.092664 31124 net.cpp:113] Setting up inception_5a/3x3_reduce
I1230 19:22:12.094810 31124 net.cpp:120] Top shape: 50 160 7 7 (392000)
I1230 19:22:12.094832 31124 layer_factory.hpp:74] Creating layer inception_5a/relu_3x3_reduce
I1230 19:22:12.094841 31124 net.cpp:84] Creating Layer inception_5a/relu_3x3_reduce
I1230 19:22:12.094849 31124 net.cpp:380] inception_5a/relu_3x3_reduce <- inception_5a/3x3_reduce
I1230 19:22:12.094857 31124 net.cpp:327] inception_5a/relu_3x3_reduce -> inception_5a/3x3_reduce (in-place)
I1230 19:22:12.094866 31124 net.cpp:113] Setting up inception_5a/relu_3x3_reduce
I1230 19:22:12.094959 31124 net.cpp:120] Top shape: 50 160 7 7 (392000)
I1230 19:22:12.094967 31124 layer_factory.hpp:74] Creating layer inception_5a/3x3
I1230 19:22:12.094980 31124 net.cpp:84] Creating Layer inception_5a/3x3
I1230 19:22:12.094986 31124 net.cpp:380] inception_5a/3x3 <- inception_5a/3x3_reduce
I1230 19:22:12.094996 31124 net.cpp:338] inception_5a/3x3 -> inception_5a/3x3
I1230 19:22:12.095006 31124 net.cpp:113] Setting up inception_5a/3x3
I1230 19:22:12.107203 31124 net.cpp:120] Top shape: 50 320 7 7 (784000)
I1230 19:22:12.107242 31124 layer_factory.hpp:74] Creating layer inception_5a/relu_3x3
I1230 19:22:12.107259 31124 net.cpp:84] Creating Layer inception_5a/relu_3x3
I1230 19:22:12.107266 31124 net.cpp:380] inception_5a/relu_3x3 <- inception_5a/3x3
I1230 19:22:12.107277 31124 net.cpp:327] inception_5a/relu_3x3 -> inception_5a/3x3 (in-place)
I1230 19:22:12.107288 31124 net.cpp:113] Setting up inception_5a/relu_3x3
I1230 19:22:12.107379 31124 net.cpp:120] Top shape: 50 320 7 7 (784000)
I1230 19:22:12.107388 31124 layer_factory.hpp:74] Creating layer inception_5a/5x5_reduce
I1230 19:22:12.107403 31124 net.cpp:84] Creating Layer inception_5a/5x5_reduce
I1230 19:22:12.107413 31124 net.cpp:380] inception_5a/5x5_reduce <- pool4/3x3_s2_pool4/3x3_s2_0_split_2
I1230 19:22:12.107421 31124 net.cpp:338] inception_5a/5x5_reduce -> inception_5a/5x5_reduce
I1230 19:22:12.107434 31124 net.cpp:113] Setting up inception_5a/5x5_reduce
I1230 19:22:12.108368 31124 net.cpp:120] Top shape: 50 32 7 7 (78400)
I1230 19:22:12.108402 31124 layer_factory.hpp:74] Creating layer inception_5a/relu_5x5_reduce
I1230 19:22:12.108413 31124 net.cpp:84] Creating Layer inception_5a/relu_5x5_reduce
I1230 19:22:12.108422 31124 net.cpp:380] inception_5a/relu_5x5_reduce <- inception_5a/5x5_reduce
I1230 19:22:12.108433 31124 net.cpp:327] inception_5a/relu_5x5_reduce -> inception_5a/5x5_reduce (in-place)
I1230 19:22:12.108443 31124 net.cpp:113] Setting up inception_5a/relu_5x5_reduce
I1230 19:22:12.108749 31124 net.cpp:120] Top shape: 50 32 7 7 (78400)
I1230 19:22:12.108763 31124 layer_factory.hpp:74] Creating layer inception_5a/5x5
I1230 19:22:12.108777 31124 net.cpp:84] Creating Layer inception_5a/5x5
I1230 19:22:12.108785 31124 net.cpp:380] inception_5a/5x5 <- inception_5a/5x5_reduce
I1230 19:22:12.108800 31124 net.cpp:338] inception_5a/5x5 -> inception_5a/5x5
I1230 19:22:12.108813 31124 net.cpp:113] Setting up inception_5a/5x5
I1230 19:22:12.110601 31124 net.cpp:120] Top shape: 50 128 7 7 (313600)
I1230 19:22:12.110621 31124 layer_factory.hpp:74] Creating layer inception_5a/relu_5x5
I1230 19:22:12.110643 31124 net.cpp:84] Creating Layer inception_5a/relu_5x5
I1230 19:22:12.110651 31124 net.cpp:380] inception_5a/relu_5x5 <- inception_5a/5x5
I1230 19:22:12.110661 31124 net.cpp:327] inception_5a/relu_5x5 -> inception_5a/5x5 (in-place)
I1230 19:22:12.110669 31124 net.cpp:113] Setting up inception_5a/relu_5x5
I1230 19:22:12.110760 31124 net.cpp:120] Top shape: 50 128 7 7 (313600)
I1230 19:22:12.110771 31124 layer_factory.hpp:74] Creating layer inception_5a/pool
I1230 19:22:12.110780 31124 layer_factory.cpp:56] CUDNN does not support padding or multiple tops. Using Caffe's own pooling layer.
I1230 19:22:12.110790 31124 net.cpp:84] Creating Layer inception_5a/pool
I1230 19:22:12.110796 31124 net.cpp:380] inception_5a/pool <- pool4/3x3_s2_pool4/3x3_s2_0_split_3
I1230 19:22:12.110831 31124 net.cpp:338] inception_5a/pool -> inception_5a/pool
I1230 19:22:12.110841 31124 net.cpp:113] Setting up inception_5a/pool
I1230 19:22:12.110854 31124 net.cpp:120] Top shape: 50 832 7 7 (2038400)
I1230 19:22:12.110860 31124 layer_factory.hpp:74] Creating layer inception_5a/pool_proj
I1230 19:22:12.110872 31124 net.cpp:84] Creating Layer inception_5a/pool_proj
I1230 19:22:12.110878 31124 net.cpp:380] inception_5a/pool_proj <- inception_5a/pool
I1230 19:22:12.110890 31124 net.cpp:338] inception_5a/pool_proj -> inception_5a/pool_proj
I1230 19:22:12.110901 31124 net.cpp:113] Setting up inception_5a/pool_proj
I1230 19:22:12.112718 31124 net.cpp:120] Top shape: 50 128 7 7 (313600)
I1230 19:22:12.112737 31124 layer_factory.hpp:74] Creating layer inception_5a/relu_pool_proj
I1230 19:22:12.112750 31124 net.cpp:84] Creating Layer inception_5a/relu_pool_proj
I1230 19:22:12.112757 31124 net.cpp:380] inception_5a/relu_pool_proj <- inception_5a/pool_proj
I1230 19:22:12.112766 31124 net.cpp:327] inception_5a/relu_pool_proj -> inception_5a/pool_proj (in-place)
I1230 19:22:12.112776 31124 net.cpp:113] Setting up inception_5a/relu_pool_proj
I1230 19:22:12.112874 31124 net.cpp:120] Top shape: 50 128 7 7 (313600)
I1230 19:22:12.112882 31124 layer_factory.hpp:74] Creating layer inception_5a/output
I1230 19:22:12.112897 31124 net.cpp:84] Creating Layer inception_5a/output
I1230 19:22:12.112905 31124 net.cpp:380] inception_5a/output <- inception_5a/1x1
I1230 19:22:12.112913 31124 net.cpp:380] inception_5a/output <- inception_5a/3x3
I1230 19:22:12.112921 31124 net.cpp:380] inception_5a/output <- inception_5a/5x5
I1230 19:22:12.112928 31124 net.cpp:380] inception_5a/output <- inception_5a/pool_proj
I1230 19:22:12.112936 31124 net.cpp:338] inception_5a/output -> inception_5a/output
I1230 19:22:12.112946 31124 net.cpp:113] Setting up inception_5a/output
I1230 19:22:12.112957 31124 net.cpp:120] Top shape: 50 832 7 7 (2038400)
I1230 19:22:12.112972 31124 layer_factory.hpp:74] Creating layer inception_5a/output_inception_5a/output_0_split
I1230 19:22:12.112982 31124 net.cpp:84] Creating Layer inception_5a/output_inception_5a/output_0_split
I1230 19:22:12.112989 31124 net.cpp:380] inception_5a/output_inception_5a/output_0_split <- inception_5a/output
I1230 19:22:12.113000 31124 net.cpp:338] inception_5a/output_inception_5a/output_0_split -> inception_5a/output_inception_5a/output_0_split_0
I1230 19:22:12.113011 31124 net.cpp:338] inception_5a/output_inception_5a/output_0_split -> inception_5a/output_inception_5a/output_0_split_1
I1230 19:22:12.113021 31124 net.cpp:338] inception_5a/output_inception_5a/output_0_split -> inception_5a/output_inception_5a/output_0_split_2
I1230 19:22:12.113031 31124 net.cpp:338] inception_5a/output_inception_5a/output_0_split -> inception_5a/output_inception_5a/output_0_split_3
I1230 19:22:12.113039 31124 net.cpp:113] Setting up inception_5a/output_inception_5a/output_0_split
I1230 19:22:12.113052 31124 net.cpp:120] Top shape: 50 832 7 7 (2038400)
I1230 19:22:12.113070 31124 net.cpp:120] Top shape: 50 832 7 7 (2038400)
I1230 19:22:12.113077 31124 net.cpp:120] Top shape: 50 832 7 7 (2038400)
I1230 19:22:12.113085 31124 net.cpp:120] Top shape: 50 832 7 7 (2038400)
I1230 19:22:12.113090 31124 layer_factory.hpp:74] Creating layer inception_5b/1x1
I1230 19:22:12.113108 31124 net.cpp:84] Creating Layer inception_5b/1x1
I1230 19:22:12.113116 31124 net.cpp:380] inception_5b/1x1 <- inception_5a/output_inception_5a/output_0_split_0
I1230 19:22:12.113128 31124 net.cpp:338] inception_5b/1x1 -> inception_5b/1x1
I1230 19:22:12.113138 31124 net.cpp:113] Setting up inception_5b/1x1
I1230 19:22:12.117584 31124 net.cpp:120] Top shape: 50 384 7 7 (940800)
I1230 19:22:12.117607 31124 layer_factory.hpp:74] Creating layer inception_5b/relu_1x1
I1230 19:22:12.117619 31124 net.cpp:84] Creating Layer inception_5b/relu_1x1
I1230 19:22:12.117627 31124 net.cpp:380] inception_5b/relu_1x1 <- inception_5b/1x1
I1230 19:22:12.117636 31124 net.cpp:327] inception_5b/relu_1x1 -> inception_5b/1x1 (in-place)
I1230 19:22:12.117653 31124 net.cpp:113] Setting up inception_5b/relu_1x1
I1230 19:22:12.117763 31124 net.cpp:120] Top shape: 50 384 7 7 (940800)
I1230 19:22:12.117771 31124 layer_factory.hpp:74] Creating layer inception_5b/3x3_reduce
I1230 19:22:12.117785 31124 net.cpp:84] Creating Layer inception_5b/3x3_reduce
I1230 19:22:12.117792 31124 net.cpp:380] inception_5b/3x3_reduce <- inception_5a/output_inception_5a/output_0_split_1
I1230 19:22:12.117802 31124 net.cpp:338] inception_5b/3x3_reduce -> inception_5b/3x3_reduce
I1230 19:22:12.117815 31124 net.cpp:113] Setting up inception_5b/3x3_reduce
I1230 19:22:12.120290 31124 net.cpp:120] Top shape: 50 192 7 7 (470400)
I1230 19:22:12.120308 31124 layer_factory.hpp:74] Creating layer inception_5b/relu_3x3_reduce
I1230 19:22:12.120317 31124 net.cpp:84] Creating Layer inception_5b/relu_3x3_reduce
I1230 19:22:12.120324 31124 net.cpp:380] inception_5b/relu_3x3_reduce <- inception_5b/3x3_reduce
I1230 19:22:12.120334 31124 net.cpp:327] inception_5b/relu_3x3_reduce -> inception_5b/3x3_reduce (in-place)
I1230 19:22:12.120344 31124 net.cpp:113] Setting up inception_5b/relu_3x3_reduce
I1230 19:22:12.120633 31124 net.cpp:120] Top shape: 50 192 7 7 (470400)
I1230 19:22:12.120646 31124 layer_factory.hpp:74] Creating layer inception_5b/3x3
I1230 19:22:12.120658 31124 net.cpp:84] Creating Layer inception_5b/3x3
I1230 19:22:12.120664 31124 net.cpp:380] inception_5b/3x3 <- inception_5b/3x3_reduce
I1230 19:22:12.120677 31124 net.cpp:338] inception_5b/3x3 -> inception_5b/3x3
I1230 19:22:12.120688 31124 net.cpp:113] Setting up inception_5b/3x3
I1230 19:22:12.129211 31124 net.cpp:120] Top shape: 50 384 7 7 (940800)
I1230 19:22:12.129231 31124 layer_factory.hpp:74] Creating layer inception_5b/relu_3x3
I1230 19:22:12.129242 31124 net.cpp:84] Creating Layer inception_5b/relu_3x3
I1230 19:22:12.129250 31124 net.cpp:380] inception_5b/relu_3x3 <- inception_5b/3x3
I1230 19:22:12.129261 31124 net.cpp:327] inception_5b/relu_3x3 -> inception_5b/3x3 (in-place)
I1230 19:22:12.129272 31124 net.cpp:113] Setting up inception_5b/relu_3x3
I1230 19:22:12.129369 31124 net.cpp:120] Top shape: 50 384 7 7 (940800)
I1230 19:22:12.129379 31124 layer_factory.hpp:74] Creating layer inception_5b/5x5_reduce
I1230 19:22:12.129391 31124 net.cpp:84] Creating Layer inception_5b/5x5_reduce
I1230 19:22:12.129400 31124 net.cpp:380] inception_5b/5x5_reduce <- inception_5a/output_inception_5a/output_0_split_2
I1230 19:22:12.129408 31124 net.cpp:338] inception_5b/5x5_reduce -> inception_5b/5x5_reduce
I1230 19:22:12.129418 31124 net.cpp:113] Setting up inception_5b/5x5_reduce
I1230 19:22:12.130440 31124 net.cpp:120] Top shape: 50 48 7 7 (117600)
I1230 19:22:12.130460 31124 layer_factory.hpp:74] Creating layer inception_5b/relu_5x5_reduce
I1230 19:22:12.130470 31124 net.cpp:84] Creating Layer inception_5b/relu_5x5_reduce
I1230 19:22:12.130477 31124 net.cpp:380] inception_5b/relu_5x5_reduce <- inception_5b/5x5_reduce
I1230 19:22:12.130486 31124 net.cpp:327] inception_5b/relu_5x5_reduce -> inception_5b/5x5_reduce (in-place)
I1230 19:22:12.130496 31124 net.cpp:113] Setting up inception_5b/relu_5x5_reduce
I1230 19:22:12.130595 31124 net.cpp:120] Top shape: 50 48 7 7 (117600)
I1230 19:22:12.130604 31124 layer_factory.hpp:74] Creating layer inception_5b/5x5
I1230 19:22:12.130617 31124 net.cpp:84] Creating Layer inception_5b/5x5
I1230 19:22:12.130625 31124 net.cpp:380] inception_5b/5x5 <- inception_5b/5x5_reduce
I1230 19:22:12.130635 31124 net.cpp:338] inception_5b/5x5 -> inception_5b/5x5
I1230 19:22:12.130646 31124 net.cpp:113] Setting up inception_5b/5x5
I1230 19:22:12.133322 31124 net.cpp:120] Top shape: 50 128 7 7 (313600)
I1230 19:22:12.133360 31124 layer_factory.hpp:74] Creating layer inception_5b/relu_5x5
I1230 19:22:12.133376 31124 net.cpp:84] Creating Layer inception_5b/relu_5x5
I1230 19:22:12.133386 31124 net.cpp:380] inception_5b/relu_5x5 <- inception_5b/5x5
I1230 19:22:12.133402 31124 net.cpp:327] inception_5b/relu_5x5 -> inception_5b/5x5 (in-place)
I1230 19:22:12.133419 31124 net.cpp:113] Setting up inception_5b/relu_5x5
I1230 19:22:12.133746 31124 net.cpp:120] Top shape: 50 128 7 7 (313600)
I1230 19:22:12.133775 31124 layer_factory.hpp:74] Creating layer inception_5b/pool
I1230 19:22:12.133783 31124 layer_factory.cpp:56] CUDNN does not support padding or multiple tops. Using Caffe's own pooling layer.
I1230 19:22:12.133793 31124 net.cpp:84] Creating Layer inception_5b/pool
I1230 19:22:12.133801 31124 net.cpp:380] inception_5b/pool <- inception_5a/output_inception_5a/output_0_split_3
I1230 19:22:12.133811 31124 net.cpp:338] inception_5b/pool -> inception_5b/pool
I1230 19:22:12.133822 31124 net.cpp:113] Setting up inception_5b/pool
I1230 19:22:12.133836 31124 net.cpp:120] Top shape: 50 832 7 7 (2038400)
I1230 19:22:12.133842 31124 layer_factory.hpp:74] Creating layer inception_5b/pool_proj
I1230 19:22:12.133860 31124 net.cpp:84] Creating Layer inception_5b/pool_proj
I1230 19:22:12.133867 31124 net.cpp:380] inception_5b/pool_proj <- inception_5b/pool
I1230 19:22:12.133880 31124 net.cpp:338] inception_5b/pool_proj -> inception_5b/pool_proj
I1230 19:22:12.133890 31124 net.cpp:113] Setting up inception_5b/pool_proj
I1230 19:22:12.135685 31124 net.cpp:120] Top shape: 50 128 7 7 (313600)
I1230 19:22:12.135704 31124 layer_factory.hpp:74] Creating layer inception_5b/relu_pool_proj
I1230 19:22:12.135713 31124 net.cpp:84] Creating Layer inception_5b/relu_pool_proj
I1230 19:22:12.135720 31124 net.cpp:380] inception_5b/relu_pool_proj <- inception_5b/pool_proj
I1230 19:22:12.135731 31124 net.cpp:327] inception_5b/relu_pool_proj -> inception_5b/pool_proj (in-place)
I1230 19:22:12.135741 31124 net.cpp:113] Setting up inception_5b/relu_pool_proj
I1230 19:22:12.135829 31124 net.cpp:120] Top shape: 50 128 7 7 (313600)
I1230 19:22:12.135838 31124 layer_factory.hpp:74] Creating layer inception_5b/output
I1230 19:22:12.135848 31124 net.cpp:84] Creating Layer inception_5b/output
I1230 19:22:12.135854 31124 net.cpp:380] inception_5b/output <- inception_5b/1x1
I1230 19:22:12.135864 31124 net.cpp:380] inception_5b/output <- inception_5b/3x3
I1230 19:22:12.135874 31124 net.cpp:380] inception_5b/output <- inception_5b/5x5
I1230 19:22:12.135880 31124 net.cpp:380] inception_5b/output <- inception_5b/pool_proj
I1230 19:22:12.135889 31124 net.cpp:338] inception_5b/output -> inception_5b/output
I1230 19:22:12.135898 31124 net.cpp:113] Setting up inception_5b/output
I1230 19:22:12.135908 31124 net.cpp:120] Top shape: 50 1024 7 7 (2508800)
I1230 19:22:12.135915 31124 layer_factory.hpp:74] Creating layer pool5/7x7_s1
I1230 19:22:12.135923 31124 net.cpp:84] Creating Layer pool5/7x7_s1
I1230 19:22:12.135931 31124 net.cpp:380] pool5/7x7_s1 <- inception_5b/output
I1230 19:22:12.135941 31124 net.cpp:338] pool5/7x7_s1 -> pool5/7x7_s1
I1230 19:22:12.135951 31124 net.cpp:113] Setting up pool5/7x7_s1
I1230 19:22:12.136041 31124 net.cpp:120] Top shape: 50 1024 1 1 (51200)
I1230 19:22:12.136052 31124 layer_factory.hpp:74] Creating layer pool5/drop_7x7_s1
I1230 19:22:12.136064 31124 net.cpp:84] Creating Layer pool5/drop_7x7_s1
I1230 19:22:12.136070 31124 net.cpp:380] pool5/drop_7x7_s1 <- pool5/7x7_s1
I1230 19:22:12.136077 31124 net.cpp:327] pool5/drop_7x7_s1 -> pool5/7x7_s1 (in-place)
I1230 19:22:12.136086 31124 net.cpp:113] Setting up pool5/drop_7x7_s1
I1230 19:22:12.136097 31124 net.cpp:120] Top shape: 50 1024 1 1 (51200)
I1230 19:22:12.136104 31124 layer_factory.hpp:74] Creating layer loss3/classifier_kaggle
I1230 19:22:12.136116 31124 net.cpp:84] Creating Layer loss3/classifier_kaggle
I1230 19:22:12.136122 31124 net.cpp:380] loss3/classifier_kaggle <- pool5/7x7_s1
I1230 19:22:12.136132 31124 net.cpp:338] loss3/classifier_kaggle -> loss3/classifier_kaggle
I1230 19:22:12.136143 31124 net.cpp:113] Setting up loss3/classifier_kaggle
I1230 19:22:12.141700 31124 net.cpp:120] Top shape: 50 447 (22350)
I1230 19:22:12.141716 31124 layer_factory.hpp:74] Creating layer loss3/classifier_kaggle_loss3/classifier_kaggle_0_split
I1230 19:22:12.141726 31124 net.cpp:84] Creating Layer loss3/classifier_kaggle_loss3/classifier_kaggle_0_split
I1230 19:22:12.141734 31124 net.cpp:380] loss3/classifier_kaggle_loss3/classifier_kaggle_0_split <- loss3/classifier_kaggle
I1230 19:22:12.141757 31124 net.cpp:338] loss3/classifier_kaggle_loss3/classifier_kaggle_0_split -> loss3/classifier_kaggle_loss3/classifier_kaggle_0_split_0
I1230 19:22:12.141773 31124 net.cpp:338] loss3/classifier_kaggle_loss3/classifier_kaggle_0_split -> loss3/classifier_kaggle_loss3/classifier_kaggle_0_split_1
I1230 19:22:12.141783 31124 net.cpp:338] loss3/classifier_kaggle_loss3/classifier_kaggle_0_split -> loss3/classifier_kaggle_loss3/classifier_kaggle_0_split_2
I1230 19:22:12.141793 31124 net.cpp:113] Setting up loss3/classifier_kaggle_loss3/classifier_kaggle_0_split
I1230 19:22:12.141803 31124 net.cpp:120] Top shape: 50 447 (22350)
I1230 19:22:12.141810 31124 net.cpp:120] Top shape: 50 447 (22350)
I1230 19:22:12.141818 31124 net.cpp:120] Top shape: 50 447 (22350)
I1230 19:22:12.141824 31124 layer_factory.hpp:74] Creating layer loss3/loss3
I1230 19:22:12.141832 31124 net.cpp:84] Creating Layer loss3/loss3
I1230 19:22:12.141839 31124 net.cpp:380] loss3/loss3 <- loss3/classifier_kaggle_loss3/classifier_kaggle_0_split_0
I1230 19:22:12.141846 31124 net.cpp:380] loss3/loss3 <- label_data_1_split_6
I1230 19:22:12.141857 31124 net.cpp:338] loss3/loss3 -> loss3/loss3
…
