…
I0107 16:28:26.927966  8329 net.cpp:257] The NetState phase (0) differed from the phase (1) specified by a rule in layer loss3/top-5
I0107 16:28:26.930037  8329 net.cpp:42] Initializing net from parameters: 
name: "MYNET"
state {
  phase: TRAIN
}
layer {
  name: "data"
  type: "ImageData"
  top: "data"
  top: "label"
  include {
    phase: TRAIN
  }
  transform_param {
    mirror: false
    crop_size: 224
    mean_value: 129
    mean_value: 129
    mean_value: 129
  }
  image_data_param {
    source: "/home/coldmanck/kaggle/label_train_full_resize_rotated.txt"
    batch_size: 80
    shuffle: true
  }
}
layer {
  name: "conv1/7x7_s2"
  type: "Convolution"
  bottom: "data"
  top: "conv1/7x7_s2"
  param {
    lr_mult: 1
    decay_mult: 1
  }
  param {
    lr_mult: 2
    decay_mult: 0
  }
  convolution_param {
    num_output: 64
    pad: 3
    kernel_size: 7
    stride: 2
    weight_filler {
      type: "xavier"
    }
    bias_filler {
      type: "constant"
      value: 0.2
    }
  }
}
layer {
  name: "conv1/relu_7x7"
  type: "ReLU"
  bottom: "conv1/7x7_s2"
  top: "conv1/7x7_s2"
}
layer {
  name: "pool1/3x3_s2"
  type: "Pooling"
  bottom: "conv1/7x7_s2"
  top: "pool1/3x3_s2"
  pooling_param {
    pool: MAX
    kernel_size: 3
    stride: 2
  }
}
layer {
  name: "pool1/norm1"
  type: "LRN"
  bottom: "pool1/3x3_s2"
  top: "pool1/norm1"
  lrn_param {
    local_size: 5
    alpha: 0.0001
    beta: 0.75
  }
}
layer {
  name: "conv2/3x3_reduce"
  type: "Convolution"
  bottom: "pool1/norm1"
  top: "conv2/3x3_reduce"
  param {
    lr_mult: 1
    decay_mult: 1
  }
  param {
    lr_mult: 2
    decay_mult: 0
  }
  convolution_param {
    num_output: 64
    kernel_size: 1
    weight_filler {
      type: "xavier"
    }
    bias_filler {
      type: "constant"
      value: 0.2
    }
  }
}
layer {
  name: "conv2/relu_3x3_reduce"
  type: "ReLU"
  bottom: "conv2/3x3_reduce"
  top: "conv2/3x3_reduce"
}
layer {
  name: "conv2/3x3"
  type: "Convolution"
  bottom: "conv2/3x3_reduce"
  top: "conv2/3x3"
  param {
    lr_mult: 1
    decay_mult: 1
  }
  param {
    lr_mult: 2
    decay_mult: 0
  }
  convolution_param {
    num_output: 192
    pad: 1
    kernel_size: 3
    weight_filler {
      type: "xavier"
    }
    bias_filler {
      type: "constant"
      value: 0.2
    }
  }
}
layer {
  name: "conv2/relu_3x3"
  type: "ReLU"
  bottom: "conv2/3x3"
  top: "conv2/3x3"
}
layer {
  name: "conv2/norm2"
  type: "LRN"
  bottom: "conv2/3x3"
  top: "conv2/norm2"
  lrn_param {
    local_size: 5
    alpha: 0.0001
    beta: 0.75
  }
}
layer {
  name: "pool2/3x3_s2"
  type: "Pooling"
  bottom: "conv2/norm2"
  top: "pool2/3x3_s2"
  pooling_param {
    pool: MAX
    kernel_size: 3
    stride: 2
  }
}
layer {
  name: "inception_3a/1x1"
  type: "Convolution"
  bottom: "pool2/3x3_s2"
  top: "inception_3a/1x1"
  param {
    lr_mult: 1
    decay_mult: 1
  }
  param {
    lr_mult: 2
    decay_mult: 0
  }
  convolution_param {
    num_output: 64
    kernel_size: 1
    weight_filler {
      type: "xavier"
    }
    bias_filler {
      type: "constant"
      value: 0.2
    }
  }
}
layer {
  name: "inception_3a/relu_1x1"
  type: "ReLU"
  bottom: "inception_3a/1x1"
  top: "inception_3a/1x1"
}
layer {
  name: "inception_3a/3x3_reduce"
  type: "Convolution"
  bottom: "pool2/3x3_s2"
  top: "inception_3a/3x3_reduce"
  param {
    lr_mult: 1
    decay_mult: 1
  }
  param {
    lr_mult: 2
    decay_mult: 0
  }
  convolution_param {
    num_output: 96
    kernel_size: 1
    weight_filler {
      type: "xavier"
    }
    bias_filler {
      type: "constant"
      value: 0.2
    }
  }
}
layer {
  name: "inception_3a/relu_3x3_reduce"
  type: "ReLU"
  bottom: "inception_3a/3x3_reduce"
  top: "inception_3a/3x3_reduce"
}
layer {
  name: "inception_3a/3x3"
  type: "Convolution"
  bottom: "inception_3a/3x3_reduce"
  top: "inception_3a/3x3"
  param {
    lr_mult: 1
    decay_mult: 1
  }
  param {
    lr_mult: 2
    decay_mult: 0
  }
  convolution_param {
    num_output: 128
    pad: 1
    kernel_size: 3
    weight_filler {
      type: "xavier"
    }
    bias_filler {
      type: "constant"
      value: 0.2
    }
  }
}
layer {
  name: "inception_3a/relu_3x3"
  type: "ReLU"
  bottom: "inception_3a/3x3"
  top: "inception_3a/3x3"
}
layer {
  name: "inception_3a/5x5_reduce"
  type: "Convolution"
  bottom: "pool2/3x3_s2"
  top: "inception_3a/5x5_reduce"
  param {
    lr_mult: 1
    decay_mult: 1
  }
  param {
    lr_mult: 2
    decay_mult: 0
  }
  convolution_param {
    num_output: 16
    kernel_size: 1
    weight_filler {
      type: "xavier"
    }
    bias_filler {
      type: "constant"
      value: 0.2
    }
  }
}
layer {
  name: "inception_3a/relu_5x5_reduce"
  type: "ReLU"
  bottom: "inception_3a/5x5_reduce"
  top: "inception_3a/5x5_reduce"
}
layer {
  name: "inception_3a/5x5"
  type: "Convolution"
  bottom: "inception_3a/5x5_reduce"
  top: "inception_3a/5x5"
  param {
    lr_mult: 1
    decay_mult: 1
  }
  param {
    lr_mult: 2
    decay_mult: 0
  }
  convolution_param {
    num_output: 32
    pad: 2
    kernel_size: 5
    weight_filler {
      type: "xavier"
    }
    bias_filler {
      type: "constant"
      value: 0.2
    }
  }
}
layer {
  name: "inception_3a/relu_5x5"
  type: "ReLU"
  bottom: "inception_3a/5x5"
  top: "inception_3a/5x5"
}
layer {
  name: "inception_3a/pool"
  type: "Pooling"
  bottom: "pool2/3x3_s2"
  top: "inception_3a/pool"
  pooling_param {
    pool: MAX
    kernel_size: 3
    stride: 1
    pad: 1
  }
}
layer {
  name: "inception_3a/pool_proj"
  type: "Convolution"
  bottom: "inception_3a/pool"
  top: "inception_3a/pool_proj"
  param {
    lr_mult: 1
    decay_mult: 1
  }
  param {
    lr_mult: 2
    decay_mult: 0
  }
  convolution_param {
    num_output: 32
    kernel_size: 1
    weight_filler {
      type: "xavier"
    }
    bias_filler {
      type: "constant"
      value: 0.2
    }
  }
}
layer {
  name: "inception_3a/relu_pool_proj"
  type: "ReLU"
  bottom: "inception_3a/pool_proj"
  top: "inception_3a/pool_proj"
}
layer {
  name: "inception_3a/output"
  type: "Concat"
  bottom: "inception_3a/1x1"
  bottom: "inception_3a/3x3"
  bottom: "inception_3a/5x5"
  bottom: "inception_3a/pool_proj"
  top: "inception_3a/output"
}
layer {
  name: "inception_3b/1x1"
  type: "Convolution"
  bottom: "inception_3a/output"
  top: "inception_3b/1x1"
  param {
    lr_mult: 1
    decay_mult: 1
  }
  param {
    lr_mult: 2
    decay_mult: 0
  }
  convolution_param {
    num_output: 128
    kernel_size: 1
    weight_filler {
      type: "xavier"
    }
    bias_filler {
      type: "constant"
      value: 0.2
    }
  }
}
layer {
  name: "inception_3b/relu_1x1"
  type: "ReLU"
  bottom: "inception_3b/1x1"
  top: "inception_3b/1x1"
}
layer {
  name: "inception_3b/3x3_reduce"
  type: "Convolution"
  bottom: "inception_3a/output"
  top: "inception_3b/3x3_reduce"
  param {
    lr_mult: 1
    decay_mult: 1
  }
  param {
    lr_mult: 2
    decay_mult: 0
  }
  convolution_param {
    num_output: 128
    kernel_size: 1
    weight_filler {
      type: "xavier"
    }
    bias_filler {
      type: "constant"
      value: 0.2
    }
  }
}
layer {
  name: "inception_3b/relu_3x3_reduce"
  type: "ReLU"
  bottom: "inception_3b/3x3_reduce"
  top: "inception_3b/3x3_reduce"
}
layer {
  name: "inception_3b/3x3"
  type: "Convolution"
  bottom: "inception_3b/3x3_reduce"
  top: "inception_3b/3x3"
  param {
    lr_mult: 1
    decay_mult: 1
  }
  param {
    lr_mult: 2
    decay_mult: 0
  }
  convolution_param {
    num_output: 192
    pad: 1
    kernel_size: 3
    weight_filler {
      type: "xavier"
    }
    bias_filler {
      type: "constant"
      value: 0.2
    }
  }
}
layer {
  name: "inception_3b/relu_3x3"
  type: "ReLU"
  bottom: "inception_3b/3x3"
  top: "inception_3b/3x3"
}
layer {
  name: "inception_3b/5x5_reduce"
  type: "Convolution"
  bottom: "inception_3a/output"
  top: "inception_3b/5x5_reduce"
  param {
    lr_mult: 1
    decay_mult: 1
  }
  param {
    lr_mult: 2
    decay_mult: 0
  }
  convolution_param {
    num_output: 32
    kernel_size: 1
    weight_filler {
      type: "xavier"
    }
    bias_filler {
      type: "constant"
      value: 0.2
    }
  }
}
layer {
  name: "inception_3b/relu_5x5_reduce"
  type: "ReLU"
  bottom: "inception_3b/5x5_reduce"
  top: "inception_3b/5x5_reduce"
}
layer {
  name: "inception_3b/5x5"
  type: "Convolution"
  bottom: "inception_3b/5x5_reduce"
  top: "inception_3b/5x5"
  param {
    lr_mult: 1
    decay_mult: 1
  }
  param {
    lr_mult: 2
    decay_mult: 0
  }
  convolution_param {
    num_output: 96
    pad: 2
    kernel_size: 5
    weight_filler {
      type: "xavier"
    }
    bias_filler {
      type: "constant"
      value: 0.2
    }
  }
}
layer {
  name: "inception_3b/relu_5x5"
  type: "ReLU"
  bottom: "inception_3b/5x5"
  top: "inception_3b/5x5"
}
layer {
  name: "inception_3b/pool"
  type: "Pooling"
  bottom: "inception_3a/output"
  top: "inception_3b/pool"
  pooling_param {
    pool: MAX
    kernel_size: 3
    stride: 1
    pad: 1
  }
}
layer {
  name: "inception_3b/pool_proj"
  type: "Convolution"
  bottom: "inception_3b/pool"
  top: "inception_3b/pool_proj"
  param {
    lr_mult: 1
    decay_mult: 1
  }
  param {
    lr_mult: 2
    decay_mult: 0
  }
  convolution_param {
    num_output: 64
    kernel_size: 1
    weight_filler {
      type: "xavier"
    }
    bias_filler {
      type: "constant"
      value: 0.2
    }
  }
}
layer {
  name: "inception_3b/relu_pool_proj"
  type: "ReLU"
  bottom: "inception_3b/pool_proj"
  top: "inception_3b/pool_proj"
}
layer {
  name: "inception_3b/output"
  type: "Concat"
  bottom: "inception_3b/1x1"
  bottom: "inception_3b/3x3"
  bottom: "inception_3b/5x5"
  bottom: "inception_3b/pool_proj"
  top: "inception_3b/output"
}
layer {
  name: "pool3/3x3_s2"
  type: "Pooling"
  bottom: "inception_3b/output"
  top: "pool3/3x3_s2"
  pooling_param {
    pool: MAX
    kernel_size: 3
    stride: 2
  }
}
layer {
  name: "inception_4a/1x1"
  type: "Convolution"
  bottom: "pool3/3x3_s2"
  top: "inception_4a/1x1"
  param {
    lr_mult: 1
    decay_mult: 1
  }
  param {
    lr_mult: 2
    decay_mult: 0
  }
  convolution_param {
    num_output: 192
    kernel_size: 1
    weight_filler {
      type: "xavier"
    }
    bias_filler {
      type: "constant"
      value: 0.2
    }
  }
}
layer {
  name: "inception_4a/relu_1x1"
  type: "ReLU"
  bottom: "inception_4a/1x1"
  top: "inception_4a/1x1"
}
layer {
  name: "inception_4a/3x3_reduce"
  type: "Convolution"
  bottom: "pool3/3x3_s2"
  top: "inception_4a/3x3_reduce"
  param {
    lr_mult: 1
    decay_mult: 1
  }
  param {
    lr_mult: 2
    decay_mult: 0
  }
  convolution_param {
    num_output: 96
    kernel_size: 1
    weight_filler {
      type: "xavier"
    }
    bias_filler {
      type: "constant"
      value: 0.2
    }
  }
}
layer {
  name: "inception_4a/relu_3x3_reduce"
  type: "ReLU"
  bottom: "inception_4a/3x3_reduce"
  top: "inception_4a/3x3_reduce"
}
layer {
  name: "inception_4a/3x3"
  type: "Convolution"
  bottom: "inception_4a/3x3_reduce"
  top: "inception_4a/3x3"
  param {
    lr_mult: 1
    decay_mult: 1
  }
  param {
    lr_mult: 2
    decay_mult: 0
  }
  convolution_param {
    num_output: 208
    pad: 1
    kernel_size: 3
    weight_filler {
      type: "xavier"
    }
    bias_filler {
      type: "constant"
      value: 0.2
    }
  }
}
layer {
  name: "inception_4a/relu_3x3"
  type: "ReLU"
  bottom: "inception_4a/3x3"
  top: "inception_4a/3x3"
}
layer {
  name: "inception_4a/5x5_reduce"
  type: "Convolution"
  bottom: "pool3/3x3_s2"
  top: "inception_4a/5x5_reduce"
  param {
    lr_mult: 1
    decay_mult: 1
  }
  param {
    lr_mult: 2
    decay_mult: 0
  }
  convolution_param {
    num_output: 16
    kernel_size: 1
    weight_filler {
      type: "xavier"
    }
    bias_filler {
      type: "constant"
      value: 0.2
    }
  }
}
layer {
  name: "inception_4a/relu_5x5_reduce"
  type: "ReLU"
  bottom: "inception_4a/5x5_reduce"
  top: "inception_4a/5x5_reduce"
}
layer {
  name: "inception_4a/5x5"
  type: "Convolution"
  bottom: "inception_4a/5x5_reduce"
  top: "inception_4a/5x5"
  param {
    lr_mult: 1
    decay_mult: 1
  }
  param {
    lr_mult: 2
    decay_mult: 0
  }
  convolution_param {
    num_output: 48
    pad: 2
    kernel_size: 5
    weight_filler {
      type: "xavier"
    }
    bias_filler {
      type: "constant"
      value: 0.2
    }
  }
}
layer {
  name: "inception_4a/relu_5x5"
  type: "ReLU"
  bottom: "inception_4a/5x5"
  top: "inception_4a/5x5"
}
layer {
  name: "inception_4a/pool"
  type: "Pooling"
  bottom: "pool3/3x3_s2"
  top: "inception_4a/pool"
  pooling_param {
    pool: MAX
    kernel_size: 3
    stride: 1
    pad: 1
  }
}
layer {
  name: "inception_4a/pool_proj"
  type: "Convolution"
  bottom: "inception_4a/pool"
  top: "inception_4a/pool_proj"
  param {
    lr_mult: 1
    decay_mult: 1
  }
  param {
    lr_mult: 2
    decay_mult: 0
  }
  convolution_param {
    num_output: 64
    kernel_size: 1
    weight_filler {
      type: "xavier"
    }
    bias_filler {
      type: "constant"
      value: 0.2
    }
  }
}
layer {
  name: "inception_4a/relu_pool_proj"
  type: "ReLU"
  bottom: "inception_4a/pool_proj"
  top: "inception_4a/pool_proj"
}
layer {
  name: "inception_4a/output"
  type: "Concat"
  bottom: "inception_4a/1x1"
  bottom: "inception_4a/3x3"
  bottom: "inception_4a/5x5"
  bottom: "inception_4a/pool_proj"
  top: "inception_4a/output"
}
layer {
  name: "loss1/ave_pool"
  type: "Pooling"
  bottom: "inception_4a/output"
  top: "loss1/ave_pool"
  pooling_param {
    pool: AVE
    kernel_size: 5
    stride: 3
  }
}
layer {
  name: "loss1/conv"
  type: "Convolution"
  bottom: "loss1/ave_pool"
  top: "loss1/conv"
  param {
    lr_mult: 1
    decay_mult: 1
  }
  param {
    lr_mult: 2
    decay_mult: 0
  }
  convolution_param {
    num_output: 128
    kernel_size: 1
    weight_filler {
      type: "xavier"
    }
    bias_filler {
      type: "constant"
      value: 0.2
    }
  }
}
layer {
  name: "loss1/relu_conv"
  type: "ReLU"
  bottom: "loss1/conv"
  top: "loss1/conv"
}
layer {
  name: "loss1/fc"
  type: "InnerProduct"
  bottom: "loss1/conv"
  top: "loss1/fc"
  param {
    lr_mult: 1
    decay_mult: 1
  }
  param {
    lr_mult: 2
    decay_mult: 0
  }
  inner_product_param {
    num_output: 1024
    weight_filler {
      type: "xavier"
    }
    bias_filler {
      type: "constant"
      value: 0.2
    }
  }
}
layer {
  name: "loss1/relu_fc"
  type: "ReLU"
  bottom: "loss1/fc"
  top: "loss1/fc"
}
layer {
  name: "loss1/drop_fc"
  type: "Dropout"
  bottom: "loss1/fc"
  top: "loss1/fc"
  dropout_param {
    dropout_ratio: 0.7
  }
}
layer {
  name: "loss1/classifier_kaggle"
  type: "InnerProduct"
  bottom: "loss1/fc"
  top: "loss1/classifier_kaggle"
  param {
    lr_mult: 1
    decay_mult: 1
  }
  param {
    lr_mult: 2
    decay_mult: 0
  }
  inner_product_param {
    num_output: 447
    weight_filler {
      type: "xavier"
    }
    bias_filler {
      type: "constant"
      value: 0
    }
  }
}
layer {
  name: "loss1/loss"
  type: "SoftmaxWithLoss"
  bottom: "loss1/classifier_kaggle"
  bottom: "label"
  top: "loss1/loss1"
  loss_weight: 0.3
}
layer {
  name: "inception_4b/1x1"
  type: "Convolution"
  bottom: "inception_4a/output"
  top: "inception_4b/1x1"
  param {
    lr_mult: 1
    decay_mult: 1
  }
  param {
    lr_mult: 2
    decay_mult: 0
  }
  convolution_param {
    num_output: 160
    kernel_size: 1
    weight_filler {
      type: "xavier"
    }
    bias_filler {
      type: "constant"
      value: 0.2
    }
  }
}
layer {
  name: "inception_4b/relu_1x1"
  type: "ReLU"
  bottom: "inception_4b/1x1"
  top: "inception_4b/1x1"
}
layer {
  name: "inception_4b/3x3_reduce"
  type: "Convolution"
  bottom: "inception_4a/output"
  top: "inception_4b/3x3_reduce"
  param {
    lr_mult: 1
    decay_mult: 1
  }
  param {
    lr_mult: 2
    decay_mult: 0
  }
  convolution_param {
    num_output: 112
    kernel_size: 1
    weight_filler {
      type: "xavier"
    }
    bias_filler {
      type: "constant"
      value: 0.2
    }
  }
}
layer {
  name: "inception_4b/relu_3x3_reduce"
  type: "ReLU"
  bottom: "inception_4b/3x3_reduce"
  top: "inception_4b/3x3_reduce"
}
layer {
  name: "inception_4b/3x3"
  type: "Convolution"
  bottom: "inception_4b/3x3_reduce"
  top: "inception_4b/3x3"
  param {
    lr_mult: 1
    decay_mult: 1
  }
  param {
    lr_mult: 2
    decay_mult: 0
  }
  convolution_param {
    num_output: 224
    pad: 1
    kernel_size: 3
    weight_filler {
      type: "xavier"
    }
    bias_filler {
      type: "constant"
      value: 0.2
    }
  }
}
layer {
  name: "inception_4b/relu_3x3"
  type: "ReLU"
  bottom: "inception_4b/3x3"
  top: "inception_4b/3x3"
}
layer {
  name: "inception_4b/5x5_reduce"
  type: "Convolution"
  bottom: "inception_4a/output"
  top: "inception_4b/5x5_reduce"
  param {
    lr_mult: 1
    decay_mult: 1
  }
  param {
    lr_mult: 2
    decay_mult: 0
  }
  convolution_param {
    num_output: 24
    kernel_size: 1
    weight_filler {
      type: "xavier"
    }
    bias_filler {
      type: "constant"
      value: 0.2
    }
  }
}
layer {
  name: "inception_4b/relu_5x5_reduce"
  type: "ReLU"
  bottom: "inception_4b/5x5_reduce"
  top: "inception_4b/5x5_reduce"
}
layer {
  name: "inception_4b/5x5"
  type: "Convolution"
  bottom: "inception_4b/5x5_reduce"
  top: "inception_4b/5x5"
  param {
    lr_mult: 1
    decay_mult: 1
  }
  param {
    lr_mult: 2
    decay_mult: 0
  }
  convolution_param {
    num_output: 64
    pad: 2
    kernel_size: 5
    weight_filler {
      type: "xavier"
    }
    bias_filler {
      type: "constant"
      value: 0.2
    }
  }
}
layer {
  name: "inception_4b/relu_5x5"
  type: "ReLU"
  bottom: "inception_4b/5x5"
  top: "inception_4b/5x5"
}
layer {
  name: "inception_4b/pool"
  type: "Pooling"
  bottom: "inception_4a/output"
  top: "inception_4b/pool"
  pooling_param {
    pool: MAX
    kernel_size: 3
    stride: 1
    pad: 1
  }
}
layer {
  name: "inception_4b/pool_proj"
  type: "Convolution"
  bottom: "inception_4b/pool"
  top: "inception_4b/pool_proj"
  param {
    lr_mult: 1
    decay_mult: 1
  }
  param {
    lr_mult: 2
    decay_mult: 0
  }
  convolution_param {
    num_output: 64
    kernel_size: 1
    weight_filler {
      type: "xavier"
    }
    bias_filler {
      type: "constant"
      value: 0.2
    }
  }
}
layer {
  name: "inception_4b/relu_pool_proj"
  type: "ReLU"
  bottom: "inception_4b/pool_proj"
  top: "inception_4b/pool_proj"
}
layer {
  name: "inception_4b/output"
  type: "Concat"
  bottom: "inception_4b/1x1"
  bottom: "inception_4b/3x3"
  bottom: "inception_4b/5x5"
  bottom: "inception_4b/pool_proj"
  top: "inception_4b/output"
}
layer {
  name: "inception_4c/1x1"
  type: "Convolution"
  bottom: "inception_4b/output"
  top: "inception_4c/1x1"
  param {
    lr_mult: 1
    decay_mult: 1
  }
  param {
    lr_mult: 2
    decay_mult: 0
  }
  convolution_param {
    num_output: 128
    kernel_size: 1
    weight_filler {
      type: "xavier"
    }
    bias_filler {
      type: "constant"
      value: 0.2
    }
  }
}
layer {
  name: "inception_4c/relu_1x1"
  type: "ReLU"
  bottom: "inception_4c/1x1"
  top: "inception_4c/1x1"
}
layer {
  name: "inception_4c/3x3_reduce"
  type: "Convolution"
  bottom: "inception_4b/output"
  top: "inception_4c/3x3_reduce"
  param {
    lr_mult: 1
    decay_mult: 1
  }
  param {
    lr_mult: 2
    decay_mult: 0
  }
  convolution_param {
    num_output: 128
    kernel_size: 1
    weight_filler {
      type: "xavier"
    }
    bias_filler {
      type: "constant"
      value: 0.2
    }
  }
}
layer {
  name: "inception_4c/relu_3x3_reduce"
  type: "ReLU"
  bottom: "inception_4c/3x3_reduce"
  top: "inception_4c/3x3_reduce"
}
layer {
  name: "inception_4c/3x3"
  type: "Convolution"
  bottom: "inception_4c/3x3_reduce"
  top: "inception_4c/3x3"
  param {
    lr_mult: 1
    decay_mult: 1
  }
  param {
    lr_mult: 2
    decay_mult: 0
  }
  convolution_param {
    num_output: 256
    pad: 1
    kernel_size: 3
    weight_filler {
      type: "xavier"
    }
    bias_filler {
      type: "constant"
      value: 0.2
    }
  }
}
layer {
  name: "inception_4c/relu_3x3"
  type: "ReLU"
  bottom: "inception_4c/3x3"
  top: "inception_4c/3x3"
}
layer {
  name: "inception_4c/5x5_reduce"
  type: "Convolution"
  bottom: "inception_4b/output"
  top: "inception_4c/5x5_reduce"
  param {
    lr_mult: 1
    decay_mult: 1
  }
  param {
    lr_mult: 2
    decay_mult: 0
  }
  convolution_param {
    num_output: 24
    kernel_size: 1
    weight_filler {
      type: "xavier"
    }
    bias_filler {
      type: "constant"
      value: 0.2
    }
  }
}
layer {
  name: "inception_4c/relu_5x5_reduce"
  type: "ReLU"
  bottom: "inception_4c/5x5_reduce"
  top: "inception_4c/5x5_reduce"
}
layer {
  name: "inception_4c/5x5"
  type: "Convolution"
  bottom: "inception_4c/5x5_reduce"
  top: "inception_4c/5x5"
  param {
    lr_mult: 1
    decay_mult: 1
  }
  param {
    lr_mult: 2
    decay_mult: 0
  }
  convolution_param {
    num_output: 64
    pad: 2
    kernel_size: 5
    weight_filler {
      type: "xavier"
    }
    bias_filler {
      type: "constant"
      value: 0.2
    }
  }
}
layer {
  name: "inception_4c/relu_5x5"
  type: "ReLU"
  bottom: "inception_4c/5x5"
  top: "inception_4c/5x5"
}
layer {
  name: "inception_4c/pool"
  type: "Pooling"
  bottom: "inception_4b/output"
  top: "inception_4c/pool"
  pooling_param {
    pool: MAX
    kernel_size: 3
    stride: 1
    pad: 1
  }
}
layer {
  name: "inception_4c/pool_proj"
  type: "Convolution"
  bottom: "inception_4c/pool"
  top: "inception_4c/pool_proj"
  param {
    lr_mult: 1
    decay_mult: 1
  }
  param {
    lr_mult: 2
    decay_mult: 0
  }
  convolution_param {
    num_output: 64
    kernel_size: 1
    weight_filler {
      type: "xavier"
    }
    bias_filler {
      type: "constant"
      value: 0.2
    }
  }
}
layer {
  name: "inception_4c/relu_pool_proj"
  type: "ReLU"
  bottom: "inception_4c/pool_proj"
  top: "inception_4c/pool_proj"
}
layer {
  name: "inception_4c/output"
  type: "Concat"
  bottom: "inception_4c/1x1"
  bottom: "inception_4c/3x3"
  bottom: "inception_4c/5x5"
  bottom: "inception_4c/pool_proj"
  top: "inception_4c/output"
}
layer {
  name: "inception_4d/1x1"
  type: "Convolution"
  bottom: "inception_4c/output"
  top: "inception_4d/1x1"
  param {
    lr_mult: 1
    decay_mult: 1
  }
  param {
    lr_mult: 2
    decay_mult: 0
  }
  convolution_param {
    num_output: 112
    kernel_size: 1
    weight_filler {
      type: "xavier"
    }
    bias_filler {
      type: "constant"
      value: 0.2
    }
  }
}
layer {
  name: "inception_4d/relu_1x1"
  type: "ReLU"
  bottom: "inception_4d/1x1"
  top: "inception_4d/1x1"
}
layer {
  name: "inception_4d/3x3_reduce"
  type: "Convolution"
  bottom: "inception_4c/output"
  top: "inception_4d/3x3_reduce"
  param {
    lr_mult: 1
    decay_mult: 1
  }
  param {
    lr_mult: 2
    decay_mult: 0
  }
  convolution_param {
    num_output: 144
    kernel_size: 1
    weight_filler {
      type: "xavier"
    }
    bias_filler {
      type: "constant"
      value: 0.2
    }
  }
}
layer {
  name: "inception_4d/relu_3x3_reduce"
  type: "ReLU"
  bottom: "inception_4d/3x3_reduce"
  top: "inception_4d/3x3_reduce"
}
layer {
  name: "inception_4d/3x3"
  type: "Convolution"
  bottom: "inception_4d/3x3_reduce"
  top: "inception_4d/3x3"
  param {
    lr_mult: 1
    decay_mult: 1
  }
  param {
    lr_mult: 2
    decay_mult: 0
  }
  convolution_param {
    num_output: 288
    pad: 1
    kernel_size: 3
    weight_filler {
      type: "xavier"
    }
    bias_filler {
      type: "constant"
      value: 0.2
    }
  }
}
layer {
  name: "inception_4d/relu_3x3"
  type: "ReLU"
  bottom: "inception_4d/3x3"
  top: "inception_4d/3x3"
}
layer {
  name: "inception_4d/5x5_reduce"
  type: "Convolution"
  bottom: "inception_4c/output"
  top: "inception_4d/5x5_reduce"
  param {
    lr_mult: 1
    decay_mult: 1
  }
  param {
    lr_mult: 2
    decay_mult: 0
  }
  convolution_param {
    num_output: 32
    kernel_size: 1
    weight_filler {
      type: "xavier"
    }
    bias_filler {
      type: "constant"
      value: 0.2
    }
  }
}
layer {
  name: "inception_4d/relu_5x5_reduce"
  type: "ReLU"
  bottom: "inception_4d/5x5_reduce"
  top: "inception_4d/5x5_reduce"
}
layer {
  name: "inception_4d/5x5"
  type: "Convolution"
  bottom: "inception_4d/5x5_reduce"
  top: "inception_4d/5x5"
  param {
    lr_mult: 1
    decay_mult: 1
  }
  param {
    lr_mult: 2
    decay_mult: 0
  }
  convolution_param {
    num_output: 64
    pad: 2
    kernel_size: 5
    weight_filler {
      type: "xavier"
    }
    bias_filler {
      type: "constant"
      value: 0.2
    }
  }
}
layer {
  name: "inception_4d/relu_5x5"
  type: "ReLU"
  bottom: "inception_4d/5x5"
  top: "inception_4d/5x5"
}
layer {
  name: "inception_4d/pool"
  type: "Pooling"
  bottom: "inception_4c/output"
  top: "inception_4d/pool"
  pooling_param {
    pool: MAX
    kernel_size: 3
    stride: 1
    pad: 1
  }
}
layer {
  name: "inception_4d/pool_proj"
  type: "Convolution"
  bottom: "inception_4d/pool"
  top: "inception_4d/pool_proj"
  param {
    lr_mult: 1
    decay_mult: 1
  }
  param {
    lr_mult: 2
    decay_mult: 0
  }
  convolution_param {
    num_output: 64
    kernel_size: 1
    weight_filler {
      type: "xavier"
    }
    bias_filler {
      type: "constant"
      value: 0.2
    }
  }
}
layer {
  name: "inception_4d/relu_pool_proj"
  type: "ReLU"
  bottom: "inception_4d/pool_proj"
  top: "inception_4d/pool_proj"
}
layer {
  name: "inception_4d/output"
  type: "Concat"
  bottom: "inception_4d/1x1"
  bottom: "inception_4d/3x3"
  bottom: "inception_4d/5x5"
  bottom: "inception_4d/pool_proj"
  top: "inception_4d/output"
}
layer {
  name: "loss2/ave_pool"
  type: "Pooling"
  bottom: "inception_4d/output"
  top: "loss2/ave_pool"
  pooling_param {
    pool: AVE
    kernel_size: 5
    stride: 3
  }
}
layer {
  name: "loss2/conv"
  type: "Convolution"
  bottom: "loss2/ave_pool"
  top: "loss2/conv"
  param {
    lr_mult: 1
    decay_mult: 1
  }
  param {
    lr_mult: 2
    decay_mult: 0
  }
  convolution_param {
    num_output: 128
    kernel_size: 1
    weight_filler {
      type: "xavier"
    }
    bias_filler {
      type: "constant"
      value: 0.2
    }
  }
}
layer {
  name: "loss2/relu_conv"
  type: "ReLU"
  bottom: "loss2/conv"
  top: "loss2/conv"
}
layer {
  name: "loss2/fc"
  type: "InnerProduct"
  bottom: "loss2/conv"
  top: "loss2/fc"
  param {
    lr_mult: 1
    decay_mult: 1
  }
  param {
    lr_mult: 2
    decay_mult: 0
  }
  inner_product_param {
    num_output: 1024
    weight_filler {
      type: "xavier"
    }
    bias_filler {
      type: "constant"
      value: 0.2
    }
  }
}
layer {
  name: "loss2/relu_fc"
  type: "ReLU"
  bottom: "loss2/fc"
  top: "loss2/fc"
}
layer {
  name: "loss2/drop_fc"
  type: "Dropout"
  bottom: "loss2/fc"
  top: "loss2/fc"
  dropout_param {
    dropout_ratio: 0.7
  }
}
layer {
  name: "loss2/classifier_kaggle"
  type: "InnerProduct"
  bottom: "loss2/fc"
  top: "loss2/classifier_kaggle"
  param {
    lr_mult: 1
    decay_mult: 1
  }
  param {
    lr_mult: 2
    decay_mult: 0
  }
  inner_product_param {
    num_output: 447
    weight_filler {
      type: "xavier"
    }
    bias_filler {
      type: "constant"
      value: 0
    }
  }
}
layer {
  name: "loss2/loss"
  type: "SoftmaxWithLoss"
  bottom: "loss2/classifier_kaggle"
  bottom: "label"
  top: "loss2/loss1"
  loss_weight: 0.3
}
layer {
  name: "inception_4e/1x1"
  type: "Convolution"
  bottom: "inception_4d/output"
  top: "inception_4e/1x1"
  param {
    lr_mult: 1
    decay_mult: 1
  }
  param {
    lr_mult: 2
    decay_mult: 0
  }
  convolution_param {
    num_output: 256
    kernel_size: 1
    weight_filler {
      type: "xavier"
    }
    bias_filler {
      type: "constant"
      value: 0.2
    }
  }
}
layer {
  name: "inception_4e/relu_1x1"
  type: "ReLU"
  bottom: "inception_4e/1x1"
  top: "inception_4e/1x1"
}
layer {
  name: "inception_4e/3x3_reduce"
  type: "Convolution"
  bottom: "inception_4d/output"
  top: "inception_4e/3x3_reduce"
  param {
    lr_mult: 1
    decay_mult: 1
  }
  param {
    lr_mult: 2
    decay_mult: 0
  }
  convolution_param {
    num_output: 160
    kernel_size: 1
    weight_filler {
      type: "xavier"
    }
    bias_filler {
      type: "constant"
      value: 0.2
    }
  }
}
layer {
  name: "inception_4e/relu_3x3_reduce"
  type: "ReLU"
  bottom: "inception_4e/3x3_reduce"
  top: "inception_4e/3x3_reduce"
}
layer {
  name: "inception_4e/3x3"
  type: "Convolution"
  bottom: "inception_4e/3x3_reduce"
  top: "inception_4e/3x3"
  param {
    lr_mult: 1
    decay_mult: 1
  }
  param {
    lr_mult: 2
    decay_mult: 0
  }
  convolution_param {
    num_output: 320
    pad: 1
    kernel_size: 3
    weight_filler {
      type: "xavier"
    }
    bias_filler {
      type: "constant"
      value: 0.2
    }
  }
}
layer {
  name: "inception_4e/relu_3x3"
  type: "ReLU"
  bottom: "inception_4e/3x3"
  top: "inception_4e/3x3"
}
layer {
  name: "inception_4e/5x5_reduce"
  type: "Convolution"
  bottom: "inception_4d/output"
  top: "inception_4e/5x5_reduce"
  param {
    lr_mult: 1
    decay_mult: 1
  }
  param {
    lr_mult: 2
    decay_mult: 0
  }
  convolution_param {
    num_output: 32
    kernel_size: 1
    weight_filler {
      type: "xavier"
    }
    bias_filler {
      type: "constant"
      value: 0.2
    }
  }
}
layer {
  name: "inception_4e/relu_5x5_reduce"
  type: "ReLU"
  bottom: "inception_4e/5x5_reduce"
  top: "inception_4e/5x5_reduce"
}
layer {
  name: "inception_4e/5x5"
  type: "Convolution"
  bottom: "inception_4e/5x5_reduce"
  top: "inception_4e/5x5"
  param {
    lr_mult: 1
    decay_mult: 1
  }
  param {
    lr_mult: 2
    decay_mult: 0
  }
  convolution_param {
    num_output: 128
    pad: 2
    kernel_size: 5
    weight_filler {
      type: "xavier"
    }
    bias_filler {
      type: "constant"
      value: 0.2
    }
  }
}
layer {
  name: "inception_4e/relu_5x5"
  type: "ReLU"
  bottom: "inception_4e/5x5"
  top: "inception_4e/5x5"
}
layer {
  name: "inception_4e/pool"
  type: "Pooling"
  bottom: "inception_4d/output"
  top: "inception_4e/po
I0107 16:28:26.931138  8329 layer_factory.hpp:74] Creating layer data
I0107 16:28:26.931177  8329 net.cpp:84] Creating Layer data
I0107 16:28:26.931192  8329 net.cpp:338] data -> data
I0107 16:28:26.931241  8329 net.cpp:338] data -> label
I0107 16:28:26.931257  8329 net.cpp:113] Setting up data
I0107 16:28:26.931272  8329 image_data_layer.cpp:36] Opening file /home/coldmanck/kaggle/label_train_full_resize_rotated.txt
I0107 16:28:26.934710  8329 image_data_layer.cpp:46] Shuffling data
I0107 16:28:26.935765  8329 image_data_layer.cpp:51] A total of 4235 images.
I0107 16:28:26.937116  8329 image_data_layer.cpp:80] output data size: 80,3,224,224
I0107 16:28:26.950561  8329 net.cpp:120] Top shape: 80 3 224 224 (12042240)
I0107 16:28:26.950616  8329 net.cpp:120] Top shape: 80 (80)
I0107 16:28:26.950633  8329 layer_factory.hpp:74] Creating layer label_data_1_split
I0107 16:28:26.950660  8329 net.cpp:84] Creating Layer label_data_1_split
I0107 16:28:26.950672  8329 net.cpp:380] label_data_1_split <- label
I0107 16:28:26.950695  8329 net.cpp:338] label_data_1_split -> label_data_1_split_0
I0107 16:28:26.950728  8329 net.cpp:338] label_data_1_split -> label_data_1_split_1
I0107 16:28:26.950755  8329 net.cpp:338] label_data_1_split -> label_data_1_split_2
I0107 16:28:26.950767  8329 net.cpp:113] Setting up label_data_1_split
I0107 16:28:26.950781  8329 net.cpp:120] Top shape: 80 (80)
I0107 16:28:26.950789  8329 net.cpp:120] Top shape: 80 (80)
I0107 16:28:26.950798  8329 net.cpp:120] Top shape: 80 (80)
I0107 16:28:26.950805  8329 layer_factory.hpp:74] Creating layer conv1/7x7_s2
I0107 16:28:26.950825  8329 net.cpp:84] Creating Layer conv1/7x7_s2
I0107 16:28:26.950834  8329 net.cpp:380] conv1/7x7_s2 <- data
I0107 16:28:26.950846  8329 net.cpp:338] conv1/7x7_s2 -> conv1/7x7_s2
I0107 16:28:26.950861  8329 net.cpp:113] Setting up conv1/7x7_s2
I0107 16:28:27.329105  8329 net.cpp:120] Top shape: 80 64 112 112 (64225280)
I0107 16:28:27.329174  8329 layer_factory.hpp:74] Creating layer conv1/relu_7x7
I0107 16:28:27.329192  8329 net.cpp:84] Creating Layer conv1/relu_7x7
I0107 16:28:27.329200  8329 net.cpp:380] conv1/relu_7x7 <- conv1/7x7_s2
I0107 16:28:27.329215  8329 net.cpp:327] conv1/relu_7x7 -> conv1/7x7_s2 (in-place)
I0107 16:28:27.329228  8329 net.cpp:113] Setting up conv1/relu_7x7
I0107 16:28:27.329501  8329 net.cpp:120] Top shape: 80 64 112 112 (64225280)
I0107 16:28:27.329514  8329 layer_factory.hpp:74] Creating layer pool1/3x3_s2
I0107 16:28:27.329533  8329 net.cpp:84] Creating Layer pool1/3x3_s2
I0107 16:28:27.329540  8329 net.cpp:380] pool1/3x3_s2 <- conv1/7x7_s2
I0107 16:28:27.329548  8329 net.cpp:338] pool1/3x3_s2 -> pool1/3x3_s2
I0107 16:28:27.329558  8329 net.cpp:113] Setting up pool1/3x3_s2
I0107 16:28:27.329648  8329 net.cpp:120] Top shape: 80 64 56 56 (16056320)
I0107 16:28:27.329659  8329 layer_factory.hpp:74] Creating layer pool1/norm1
I0107 16:28:27.329675  8329 net.cpp:84] Creating Layer pool1/norm1
I0107 16:28:27.329681  8329 net.cpp:380] pool1/norm1 <- pool1/3x3_s2
I0107 16:28:27.329689  8329 net.cpp:338] pool1/norm1 -> pool1/norm1
I0107 16:28:27.329699  8329 net.cpp:113] Setting up pool1/norm1
I0107 16:28:27.329710  8329 net.cpp:120] Top shape: 80 64 56 56 (16056320)
I0107 16:28:27.329716  8329 layer_factory.hpp:74] Creating layer conv2/3x3_reduce
I0107 16:28:27.329730  8329 net.cpp:84] Creating Layer conv2/3x3_reduce
I0107 16:28:27.329735  8329 net.cpp:380] conv2/3x3_reduce <- pool1/norm1
I0107 16:28:27.329746  8329 net.cpp:338] conv2/3x3_reduce -> conv2/3x3_reduce
I0107 16:28:27.329758  8329 net.cpp:113] Setting up conv2/3x3_reduce
I0107 16:28:27.330214  8329 net.cpp:120] Top shape: 80 64 56 56 (16056320)
I0107 16:28:27.330231  8329 layer_factory.hpp:74] Creating layer conv2/relu_3x3_reduce
I0107 16:28:27.330242  8329 net.cpp:84] Creating Layer conv2/relu_3x3_reduce
I0107 16:28:27.330248  8329 net.cpp:380] conv2/relu_3x3_reduce <- conv2/3x3_reduce
I0107 16:28:27.330258  8329 net.cpp:327] conv2/relu_3x3_reduce -> conv2/3x3_reduce (in-place)
I0107 16:28:27.330266  8329 net.cpp:113] Setting up conv2/relu_3x3_reduce
I0107 16:28:27.330337  8329 net.cpp:120] Top shape: 80 64 56 56 (16056320)
I0107 16:28:27.330344  8329 layer_factory.hpp:74] Creating layer conv2/3x3
I0107 16:28:27.330359  8329 net.cpp:84] Creating Layer conv2/3x3
I0107 16:28:27.330364  8329 net.cpp:380] conv2/3x3 <- conv2/3x3_reduce
I0107 16:28:27.330374  8329 net.cpp:338] conv2/3x3 -> conv2/3x3
I0107 16:28:27.330384  8329 net.cpp:113] Setting up conv2/3x3
I0107 16:28:27.332072  8329 net.cpp:120] Top shape: 80 192 56 56 (48168960)
I0107 16:28:27.332088  8329 layer_factory.hpp:74] Creating layer conv2/relu_3x3
I0107 16:28:27.332098  8329 net.cpp:84] Creating Layer conv2/relu_3x3
I0107 16:28:27.332103  8329 net.cpp:380] conv2/relu_3x3 <- conv2/3x3
I0107 16:28:27.332113  8329 net.cpp:327] conv2/relu_3x3 -> conv2/3x3 (in-place)
I0107 16:28:27.332120  8329 net.cpp:113] Setting up conv2/relu_3x3
I0107 16:28:27.332365  8329 net.cpp:120] Top shape: 80 192 56 56 (48168960)
I0107 16:28:27.332379  8329 layer_factory.hpp:74] Creating layer conv2/norm2
I0107 16:28:27.332391  8329 net.cpp:84] Creating Layer conv2/norm2
I0107 16:28:27.332406  8329 net.cpp:380] conv2/norm2 <- conv2/3x3
I0107 16:28:27.332427  8329 net.cpp:338] conv2/norm2 -> conv2/norm2
I0107 16:28:27.332437  8329 net.cpp:113] Setting up conv2/norm2
I0107 16:28:27.332448  8329 net.cpp:120] Top shape: 80 192 56 56 (48168960)
I0107 16:28:27.332453  8329 layer_factory.hpp:74] Creating layer pool2/3x3_s2
I0107 16:28:27.332461  8329 net.cpp:84] Creating Layer pool2/3x3_s2
I0107 16:28:27.332466  8329 net.cpp:380] pool2/3x3_s2 <- conv2/norm2
I0107 16:28:27.332473  8329 net.cpp:338] pool2/3x3_s2 -> pool2/3x3_s2
I0107 16:28:27.332479  8329 net.cpp:113] Setting up pool2/3x3_s2
I0107 16:28:27.332554  8329 net.cpp:120] Top shape: 80 192 28 28 (12042240)
I0107 16:28:27.332561  8329 layer_factory.hpp:74] Creating layer pool2/3x3_s2_pool2/3x3_s2_0_split
I0107 16:28:27.332569  8329 net.cpp:84] Creating Layer pool2/3x3_s2_pool2/3x3_s2_0_split
I0107 16:28:27.332574  8329 net.cpp:380] pool2/3x3_s2_pool2/3x3_s2_0_split <- pool2/3x3_s2
I0107 16:28:27.332586  8329 net.cpp:338] pool2/3x3_s2_pool2/3x3_s2_0_split -> pool2/3x3_s2_pool2/3x3_s2_0_split_0
I0107 16:28:27.332593  8329 net.cpp:338] pool2/3x3_s2_pool2/3x3_s2_0_split -> pool2/3x3_s2_pool2/3x3_s2_0_split_1
I0107 16:28:27.332602  8329 net.cpp:338] pool2/3x3_s2_pool2/3x3_s2_0_split -> pool2/3x3_s2_pool2/3x3_s2_0_split_2
I0107 16:28:27.332608  8329 net.cpp:338] pool2/3x3_s2_pool2/3x3_s2_0_split -> pool2/3x3_s2_pool2/3x3_s2_0_split_3
I0107 16:28:27.332615  8329 net.cpp:113] Setting up pool2/3x3_s2_pool2/3x3_s2_0_split
I0107 16:28:27.332623  8329 net.cpp:120] Top shape: 80 192 28 28 (12042240)
I0107 16:28:27.332629  8329 net.cpp:120] Top shape: 80 192 28 28 (12042240)
I0107 16:28:27.332634  8329 net.cpp:120] Top shape: 80 192 28 28 (12042240)
I0107 16:28:27.332639  8329 net.cpp:120] Top shape: 80 192 28 28 (12042240)
I0107 16:28:27.332644  8329 layer_factory.hpp:74] Creating layer inception_3a/1x1
I0107 16:28:27.332658  8329 net.cpp:84] Creating Layer inception_3a/1x1
I0107 16:28:27.332664  8329 net.cpp:380] inception_3a/1x1 <- pool2/3x3_s2_pool2/3x3_s2_0_split_0
I0107 16:28:27.332670  8329 net.cpp:338] inception_3a/1x1 -> inception_3a/1x1
I0107 16:28:27.332680  8329 net.cpp:113] Setting up inception_3a/1x1
I0107 16:28:27.333214  8329 net.cpp:120] Top shape: 80 64 28 28 (4014080)
I0107 16:28:27.333230  8329 layer_factory.hpp:74] Creating layer inception_3a/relu_1x1
I0107 16:28:27.333240  8329 net.cpp:84] Creating Layer inception_3a/relu_1x1
I0107 16:28:27.333245  8329 net.cpp:380] inception_3a/relu_1x1 <- inception_3a/1x1
I0107 16:28:27.333252  8329 net.cpp:327] inception_3a/relu_1x1 -> inception_3a/1x1 (in-place)
I0107 16:28:27.333261  8329 net.cpp:113] Setting up inception_3a/relu_1x1
I0107 16:28:27.333330  8329 net.cpp:120] Top shape: 80 64 28 28 (4014080)
I0107 16:28:27.333338  8329 layer_factory.hpp:74] Creating layer inception_3a/3x3_reduce
I0107 16:28:27.333351  8329 net.cpp:84] Creating Layer inception_3a/3x3_reduce
I0107 16:28:27.333358  8329 net.cpp:380] inception_3a/3x3_reduce <- pool2/3x3_s2_pool2/3x3_s2_0_split_1
I0107 16:28:27.333364  8329 net.cpp:338] inception_3a/3x3_reduce -> inception_3a/3x3_reduce
I0107 16:28:27.333374  8329 net.cpp:113] Setting up inception_3a/3x3_reduce
I0107 16:28:27.333979  8329 net.cpp:120] Top shape: 80 96 28 28 (6021120)
I0107 16:28:27.334000  8329 layer_factory.hpp:74] Creating layer inception_3a/relu_3x3_reduce
I0107 16:28:27.334012  8329 net.cpp:84] Creating Layer inception_3a/relu_3x3_reduce
I0107 16:28:27.334018  8329 net.cpp:380] inception_3a/relu_3x3_reduce <- inception_3a/3x3_reduce
I0107 16:28:27.334028  8329 net.cpp:327] inception_3a/relu_3x3_reduce -> inception_3a/3x3_reduce (in-place)
I0107 16:28:27.334036  8329 net.cpp:113] Setting up inception_3a/relu_3x3_reduce
I0107 16:28:27.334108  8329 net.cpp:120] Top shape: 80 96 28 28 (6021120)
I0107 16:28:27.334117  8329 layer_factory.hpp:74] Creating layer inception_3a/3x3
I0107 16:28:27.334126  8329 net.cpp:84] Creating Layer inception_3a/3x3
I0107 16:28:27.334132  8329 net.cpp:380] inception_3a/3x3 <- inception_3a/3x3_reduce
I0107 16:28:27.334146  8329 net.cpp:338] inception_3a/3x3 -> inception_3a/3x3
I0107 16:28:27.334163  8329 net.cpp:113] Setting up inception_3a/3x3
I0107 16:28:27.335850  8329 net.cpp:120] Top shape: 80 128 28 28 (8028160)
I0107 16:28:27.335865  8329 layer_factory.hpp:74] Creating layer inception_3a/relu_3x3
I0107 16:28:27.335875  8329 net.cpp:84] Creating Layer inception_3a/relu_3x3
I0107 16:28:27.335880  8329 net.cpp:380] inception_3a/relu_3x3 <- inception_3a/3x3
I0107 16:28:27.335887  8329 net.cpp:327] inception_3a/relu_3x3 -> inception_3a/3x3 (in-place)
I0107 16:28:27.335897  8329 net.cpp:113] Setting up inception_3a/relu_3x3
I0107 16:28:27.336122  8329 net.cpp:120] Top shape: 80 128 28 28 (8028160)
I0107 16:28:27.336133  8329 layer_factory.hpp:74] Creating layer inception_3a/5x5_reduce
I0107 16:28:27.336145  8329 net.cpp:84] Creating Layer inception_3a/5x5_reduce
I0107 16:28:27.336151  8329 net.cpp:380] inception_3a/5x5_reduce <- pool2/3x3_s2_pool2/3x3_s2_0_split_2
I0107 16:28:27.336161  8329 net.cpp:338] inception_3a/5x5_reduce -> inception_3a/5x5_reduce
I0107 16:28:27.336172  8329 net.cpp:113] Setting up inception_3a/5x5_reduce
I0107 16:28:27.336592  8329 net.cpp:120] Top shape: 80 16 28 28 (1003520)
I0107 16:28:27.336607  8329 layer_factory.hpp:74] Creating layer inception_3a/relu_5x5_reduce
I0107 16:28:27.336617  8329 net.cpp:84] Creating Layer inception_3a/relu_5x5_reduce
I0107 16:28:27.336622  8329 net.cpp:380] inception_3a/relu_5x5_reduce <- inception_3a/5x5_reduce
I0107 16:28:27.336630  8329 net.cpp:327] inception_3a/relu_5x5_reduce -> inception_3a/5x5_reduce (in-place)
I0107 16:28:27.336638  8329 net.cpp:113] Setting up inception_3a/relu_5x5_reduce
I0107 16:28:27.336709  8329 net.cpp:120] Top shape: 80 16 28 28 (1003520)
I0107 16:28:27.336719  8329 layer_factory.hpp:74] Creating layer inception_3a/5x5
I0107 16:28:27.336727  8329 net.cpp:84] Creating Layer inception_3a/5x5
I0107 16:28:27.336732  8329 net.cpp:380] inception_3a/5x5 <- inception_3a/5x5_reduce
I0107 16:28:27.336741  8329 net.cpp:338] inception_3a/5x5 -> inception_3a/5x5
I0107 16:28:27.336750  8329 net.cpp:113] Setting up inception_3a/5x5
I0107 16:28:27.337285  8329 net.cpp:120] Top shape: 80 32 28 28 (2007040)
I0107 16:28:27.337301  8329 layer_factory.hpp:74] Creating layer inception_3a/relu_5x5
I0107 16:28:27.337311  8329 net.cpp:84] Creating Layer inception_3a/relu_5x5
I0107 16:28:27.337316  8329 net.cpp:380] inception_3a/relu_5x5 <- inception_3a/5x5
I0107 16:28:27.337323  8329 net.cpp:327] inception_3a/relu_5x5 -> inception_3a/5x5 (in-place)
I0107 16:28:27.337332  8329 net.cpp:113] Setting up inception_3a/relu_5x5
I0107 16:28:27.337402  8329 net.cpp:120] Top shape: 80 32 28 28 (2007040)
I0107 16:28:27.337409  8329 layer_factory.hpp:74] Creating layer inception_3a/pool
I0107 16:28:27.337414  8329 layer_factory.cpp:56] CUDNN does not support padding or multiple tops. Using Caffe's own pooling layer.
I0107 16:28:27.337422  8329 net.cpp:84] Creating Layer inception_3a/pool
I0107 16:28:27.337429  8329 net.cpp:380] inception_3a/pool <- pool2/3x3_s2_pool2/3x3_s2_0_split_3
I0107 16:28:27.337437  8329 net.cpp:338] inception_3a/pool -> inception_3a/pool
I0107 16:28:27.337445  8329 net.cpp:113] Setting up inception_3a/pool
I0107 16:28:27.337462  8329 net.cpp:120] Top shape: 80 192 28 28 (12042240)
I0107 16:28:27.337468  8329 layer_factory.hpp:74] Creating layer inception_3a/pool_proj
I0107 16:28:27.337479  8329 net.cpp:84] Creating Layer inception_3a/pool_proj
I0107 16:28:27.337486  8329 net.cpp:380] inception_3a/pool_proj <- inception_3a/pool
I0107 16:28:27.337492  8329 net.cpp:338] inception_3a/pool_proj -> inception_3a/pool_proj
I0107 16:28:27.337501  8329 net.cpp:113] Setting up inception_3a/pool_proj
I0107 16:28:27.337966  8329 net.cpp:120] Top shape: 80 32 28 28 (2007040)
I0107 16:28:27.337985  8329 layer_factory.hpp:74] Creating layer inception_3a/relu_pool_proj
I0107 16:28:27.337992  8329 net.cpp:84] Creating Layer inception_3a/relu_pool_proj
I0107 16:28:27.337997  8329 net.cpp:380] inception_3a/relu_pool_proj <- inception_3a/pool_proj
I0107 16:28:27.338006  8329 net.cpp:327] inception_3a/relu_pool_proj -> inception_3a/pool_proj (in-place)
I0107 16:28:27.338027  8329 net.cpp:113] Setting up inception_3a/relu_pool_proj
I0107 16:28:27.338100  8329 net.cpp:120] Top shape: 80 32 28 28 (2007040)
I0107 16:28:27.338109  8329 layer_factory.hpp:74] Creating layer inception_3a/output
I0107 16:28:27.338119  8329 net.cpp:84] Creating Layer inception_3a/output
I0107 16:28:27.338125  8329 net.cpp:380] inception_3a/output <- inception_3a/1x1
I0107 16:28:27.338131  8329 net.cpp:380] inception_3a/output <- inception_3a/3x3
I0107 16:28:27.338137  8329 net.cpp:380] inception_3a/output <- inception_3a/5x5
I0107 16:28:27.338142  8329 net.cpp:380] inception_3a/output <- inception_3a/pool_proj
I0107 16:28:27.338150  8329 net.cpp:338] inception_3a/output -> inception_3a/output
I0107 16:28:27.338157  8329 net.cpp:113] Setting up inception_3a/output
I0107 16:28:27.338166  8329 net.cpp:120] Top shape: 80 256 28 28 (16056320)
I0107 16:28:27.338171  8329 layer_factory.hpp:74] Creating layer inception_3a/output_inception_3a/output_0_split
I0107 16:28:27.338178  8329 net.cpp:84] Creating Layer inception_3a/output_inception_3a/output_0_split
I0107 16:28:27.338183  8329 net.cpp:380] inception_3a/output_inception_3a/output_0_split <- inception_3a/output
I0107 16:28:27.338192  8329 net.cpp:338] inception_3a/output_inception_3a/output_0_split -> inception_3a/output_inception_3a/output_0_split_0
I0107 16:28:27.338201  8329 net.cpp:338] inception_3a/output_inception_3a/output_0_split -> inception_3a/output_inception_3a/output_0_split_1
I0107 16:28:27.338208  8329 net.cpp:338] inception_3a/output_inception_3a/output_0_split -> inception_3a/output_inception_3a/output_0_split_2
I0107 16:28:27.338215  8329 net.cpp:338] inception_3a/output_inception_3a/output_0_split -> inception_3a/output_inception_3a/output_0_split_3
I0107 16:28:27.338222  8329 net.cpp:113] Setting up inception_3a/output_inception_3a/output_0_split
I0107 16:28:27.338232  8329 net.cpp:120] Top shape: 80 256 28 28 (16056320)
I0107 16:28:27.338238  8329 net.cpp:120] Top shape: 80 256 28 28 (16056320)
I0107 16:28:27.338243  8329 net.cpp:120] Top shape: 80 256 28 28 (16056320)
I0107 16:28:27.338248  8329 net.cpp:120] Top shape: 80 256 28 28 (16056320)
I0107 16:28:27.338253  8329 layer_factory.hpp:74] Creating layer inception_3b/1x1
I0107 16:28:27.338261  8329 net.cpp:84] Creating Layer inception_3b/1x1
I0107 16:28:27.338268  8329 net.cpp:380] inception_3b/1x1 <- inception_3a/output_inception_3a/output_0_split_0
I0107 16:28:27.338275  8329 net.cpp:338] inception_3b/1x1 -> inception_3b/1x1
I0107 16:28:27.338284  8329 net.cpp:113] Setting up inception_3b/1x1
I0107 16:28:27.339052  8329 net.cpp:120] Top shape: 80 128 28 28 (8028160)
I0107 16:28:27.339068  8329 layer_factory.hpp:74] Creating layer inception_3b/relu_1x1
I0107 16:28:27.339078  8329 net.cpp:84] Creating Layer inception_3b/relu_1x1
I0107 16:28:27.339084  8329 net.cpp:380] inception_3b/relu_1x1 <- inception_3b/1x1
I0107 16:28:27.339092  8329 net.cpp:327] inception_3b/relu_1x1 -> inception_3b/1x1 (in-place)
I0107 16:28:27.339099  8329 net.cpp:113] Setting up inception_3b/relu_1x1
I0107 16:28:27.339326  8329 net.cpp:120] Top shape: 80 128 28 28 (8028160)
I0107 16:28:27.339339  8329 layer_factory.hpp:74] Creating layer inception_3b/3x3_reduce
I0107 16:28:27.339350  8329 net.cpp:84] Creating Layer inception_3b/3x3_reduce
I0107 16:28:27.339356  8329 net.cpp:380] inception_3b/3x3_reduce <- inception_3a/output_inception_3a/output_0_split_1
I0107 16:28:27.339367  8329 net.cpp:338] inception_3b/3x3_reduce -> inception_3b/3x3_reduce
I0107 16:28:27.339377  8329 net.cpp:113] Setting up inception_3b/3x3_reduce
I0107 16:28:27.340154  8329 net.cpp:120] Top shape: 80 128 28 28 (8028160)
I0107 16:28:27.340169  8329 layer_factory.hpp:74] Creating layer inception_3b/relu_3x3_reduce
I0107 16:28:27.340180  8329 net.cpp:84] Creating Layer inception_3b/relu_3x3_reduce
I0107 16:28:27.340185  8329 net.cpp:380] inception_3b/relu_3x3_reduce <- inception_3b/3x3_reduce
I0107 16:28:27.340193  8329 net.cpp:327] inception_3b/relu_3x3_reduce -> inception_3b/3x3_reduce (in-place)
I0107 16:28:27.340206  8329 net.cpp:113] Setting up inception_3b/relu_3x3_reduce
I0107 16:28:27.340283  8329 net.cpp:120] Top shape: 80 128 28 28 (8028160)
I0107 16:28:27.340292  8329 layer_factory.hpp:74] Creating layer inception_3b/3x3
I0107 16:28:27.340306  8329 net.cpp:84] Creating Layer inception_3b/3x3
I0107 16:28:27.340312  8329 net.cpp:380] inception_3b/3x3 <- inception_3b/3x3_reduce
I0107 16:28:27.340320  8329 net.cpp:338] inception_3b/3x3 -> inception_3b/3x3
I0107 16:28:27.340329  8329 net.cpp:113] Setting up inception_3b/3x3
I0107 16:28:27.343312  8329 net.cpp:120] Top shape: 80 192 28 28 (12042240)
I0107 16:28:27.343328  8329 layer_factory.hpp:74] Creating layer inception_3b/relu_3x3
I0107 16:28:27.343341  8329 net.cpp:84] Creating Layer inception_3b/relu_3x3
I0107 16:28:27.343348  8329 net.cpp:380] inception_3b/relu_3x3 <- inception_3b/3x3
I0107 16:28:27.343355  8329 net.cpp:327] inception_3b/relu_3x3 -> inception_3b/3x3 (in-place)
I0107 16:28:27.343364  8329 net.cpp:113] Setting up inception_3b/relu_3x3
I0107 16:28:27.343435  8329 net.cpp:120] Top shape: 80 192 28 28 (12042240)
I0107 16:28:27.343441  8329 layer_factory.hpp:74] Creating layer inception_3b/5x5_reduce
I0107 16:28:27.343453  8329 net.cpp:84] Creating Layer inception_3b/5x5_reduce
I0107 16:28:27.343458  8329 net.cpp:380] inception_3b/5x5_reduce <- inception_3a/output_inception_3a/output_0_split_2
I0107 16:28:27.343468  8329 net.cpp:338] inception_3b/5x5_reduce -> inception_3b/5x5_reduce
I0107 16:28:27.343477  8329 net.cpp:113] Setting up inception_3b/5x5_reduce
I0107 16:28:27.343968  8329 net.cpp:120] Top shape: 80 32 28 28 (2007040)
I0107 16:28:27.343983  8329 layer_factory.hpp:74] Creating layer inception_3b/relu_5x5_reduce
I0107 16:28:27.343991  8329 net.cpp:84] Creating Layer inception_3b/relu_5x5_reduce
I0107 16:28:27.343997  8329 net.cpp:380] inception_3b/relu_5x5_reduce <- inception_3b/5x5_reduce
I0107 16:28:27.344007  8329 net.cpp:327] inception_3b/relu_5x5_reduce -> inception_3b/5x5_reduce (in-place)
I0107 16:28:27.344017  8329 net.cpp:113] Setting up inception_3b/relu_5x5_reduce
I0107 16:28:27.344084  8329 net.cpp:120] Top shape: 80 32 28 28 (2007040)
I0107 16:28:27.344090  8329 layer_factory.hpp:74] Creating layer inception_3b/5x5
I0107 16:28:27.344100  8329 net.cpp:84] Creating Layer inception_3b/5x5
I0107 16:28:27.344106  8329 net.cpp:380] inception_3b/5x5 <- inception_3b/5x5_reduce
I0107 16:28:27.344116  8329 net.cpp:338] inception_3b/5x5 -> inception_3b/5x5
I0107 16:28:27.344128  8329 net.cpp:113] Setting up inception_3b/5x5
I0107 16:28:27.345417  8329 net.cpp:120] Top shape: 80 96 28 28 (6021120)
I0107 16:28:27.345432  8329 layer_factory.hpp:74] Creating layer inception_3b/relu_5x5
I0107 16:28:27.345444  8329 net.cpp:84] Creating Layer inception_3b/relu_5x5
I0107 16:28:27.345458  8329 net.cpp:380] inception_3b/relu_5x5 <- inception_3b/5x5
I0107 16:28:27.345465  8329 net.cpp:327] inception_3b/relu_5x5 -> inception_3b/5x5 (in-place)
I0107 16:28:27.345474  8329 net.cpp:113] Setting up inception_3b/relu_5x5
I0107 16:28:27.345703  8329 net.cpp:120] Top shape: 80 96 28 28 (6021120)
I0107 16:28:27.345715  8329 layer_factory.hpp:74] Creating layer inception_3b/pool
I0107 16:28:27.345721  8329 layer_factory.cpp:56] CUDNN does not support padding or multiple tops. Using Caffe's own pooling layer.
I0107 16:28:27.345731  8329 net.cpp:84] Creating Layer inception_3b/pool
I0107 16:28:27.345736  8329 net.cpp:380] inception_3b/pool <- inception_3a/output_inception_3a/output_0_split_3
I0107 16:28:27.345746  8329 net.cpp:338] inception_3b/pool -> inception_3b/pool
I0107 16:28:27.345757  8329 net.cpp:113] Setting up inception_3b/pool
I0107 16:28:27.345765  8329 net.cpp:120] Top shape: 80 256 28 28 (16056320)
I0107 16:28:27.345772  8329 layer_factory.hpp:74] Creating layer inception_3b/pool_proj
I0107 16:28:27.345783  8329 net.cpp:84] Creating Layer inception_3b/pool_proj
I0107 16:28:27.345789  8329 net.cpp:380] inception_3b/pool_proj <- inception_3b/pool
I0107 16:28:27.345796  8329 net.cpp:338] inception_3b/pool_proj -> inception_3b/pool_proj
I0107 16:28:27.345810  8329 net.cpp:113] Setting up inception_3b/pool_proj
I0107 16:28:27.346403  8329 net.cpp:120] Top shape: 80 64 28 28 (4014080)
I0107 16:28:27.346418  8329 layer_factory.hpp:74] Creating layer inception_3b/relu_pool_proj
I0107 16:28:27.346431  8329 net.cpp:84] Creating Layer inception_3b/relu_pool_proj
I0107 16:28:27.346437  8329 net.cpp:380] inception_3b/relu_pool_proj <- inception_3b/pool_proj
I0107 16:28:27.346444  8329 net.cpp:327] inception_3b/relu_pool_proj -> inception_3b/pool_proj (in-place)
I0107 16:28:27.346453  8329 net.cpp:113] Setting up inception_3b/relu_pool_proj
I0107 16:28:27.346524  8329 net.cpp:120] Top shape: 80 64 28 28 (4014080)
I0107 16:28:27.346530  8329 layer_factory.hpp:74] Creating layer inception_3b/output
I0107 16:28:27.346540  8329 net.cpp:84] Creating Layer inception_3b/output
I0107 16:28:27.346546  8329 net.cpp:380] inception_3b/output <- inception_3b/1x1
I0107 16:28:27.346552  8329 net.cpp:380] inception_3b/output <- inception_3b/3x3
I0107 16:28:27.346559  8329 net.cpp:380] inception_3b/output <- inception_3b/5x5
I0107 16:28:27.346563  8329 net.cpp:380] inception_3b/output <- inception_3b/pool_proj
I0107 16:28:27.346570  8329 net.cpp:338] inception_3b/output -> inception_3b/output
I0107 16:28:27.346578  8329 net.cpp:113] Setting up inception_3b/output
I0107 16:28:27.346586  8329 net.cpp:120] Top shape: 80 480 28 28 (30105600)
I0107 16:28:27.346591  8329 layer_factory.hpp:74] Creating layer pool3/3x3_s2
I0107 16:28:27.346601  8329 net.cpp:84] Creating Layer pool3/3x3_s2
I0107 16:28:27.346606  8329 net.cpp:380] pool3/3x3_s2 <- inception_3b/output
I0107 16:28:27.346613  8329 net.cpp:338] pool3/3x3_s2 -> pool3/3x3_s2
I0107 16:28:27.346621  8329 net.cpp:113] Setting up pool3/3x3_s2
I0107 16:28:27.346691  8329 net.cpp:120] Top shape: 80 480 14 14 (7526400)
I0107 16:28:27.346698  8329 layer_factory.hpp:74] Creating layer pool3/3x3_s2_pool3/3x3_s2_0_split
I0107 16:28:27.346707  8329 net.cpp:84] Creating Layer pool3/3x3_s2_pool3/3x3_s2_0_split
I0107 16:28:27.346714  8329 net.cpp:380] pool3/3x3_s2_pool3/3x3_s2_0_split <- pool3/3x3_s2
I0107 16:28:27.346719  8329 net.cpp:338] pool3/3x3_s2_pool3/3x3_s2_0_split -> pool3/3x3_s2_pool3/3x3_s2_0_split_0
I0107 16:28:27.346730  8329 net.cpp:338] pool3/3x3_s2_pool3/3x3_s2_0_split -> pool3/3x3_s2_pool3/3x3_s2_0_split_1
I0107 16:28:27.346738  8329 net.cpp:338] pool3/3x3_s2_pool3/3x3_s2_0_split -> pool3/3x3_s2_pool3/3x3_s2_0_split_2
I0107 16:28:27.346745  8329 net.cpp:338] pool3/3x3_s2_pool3/3x3_s2_0_split -> pool3/3x3_s2_pool3/3x3_s2_0_split_3
I0107 16:28:27.346751  8329 net.cpp:113] Setting up pool3/3x3_s2_pool3/3x3_s2_0_split
I0107 16:28:27.346760  8329 net.cpp:120] Top shape: 80 480 14 14 (7526400)
I0107 16:28:27.346765  8329 net.cpp:120] Top shape: 80 480 14 14 (7526400)
I0107 16:28:27.346771  8329 net.cpp:120] Top shape: 80 480 14 14 (7526400)
I0107 16:28:27.346776  8329 net.cpp:120] Top shape: 80 480 14 14 (7526400)
I0107 16:28:27.346781  8329 layer_factory.hpp:74] Creating layer inception_4a/1x1
I0107 16:28:27.346791  8329 net.cpp:84] Creating Layer inception_4a/1x1
I0107 16:28:27.346797  8329 net.cpp:380] inception_4a/1x1 <- pool3/3x3_s2_pool3/3x3_s2_0_split_0
I0107 16:28:27.346804  8329 net.cpp:338] inception_4a/1x1 -> inception_4a/1x1
I0107 16:28:27.346812  8329 net.cpp:113] Setting up inception_4a/1x1
I0107 16:28:27.348276  8329 net.cpp:120] Top shape: 80 192 14 14 (3010560)
I0107 16:28:27.348291  8329 layer_factory.hpp:74] Creating layer inception_4a/relu_1x1
I0107 16:28:27.348304  8329 net.cpp:84] Creating Layer inception_4a/relu_1x1
I0107 16:28:27.348309  8329 net.cpp:380] inception_4a/relu_1x1 <- inception_4a/1x1
I0107 16:28:27.348317  8329 net.cpp:327] inception_4a/relu_1x1 -> inception_4a/1x1 (in-place)
I0107 16:28:27.348325  8329 net.cpp:113] Setting up inception_4a/relu_1x1
I0107 16:28:27.348554  8329 net.cpp:120] Top shape: 80 192 14 14 (3010560)
I0107 16:28:27.348565  8329 layer_factory.hpp:74] Creating layer inception_4a/3x3_reduce
I0107 16:28:27.348574  8329 net.cpp:84] Creating Layer inception_4a/3x3_reduce
I0107 16:28:27.348589  8329 net.cpp:380] inception_4a/3x3_reduce <- pool3/3x3_s2_pool3/3x3_s2_0_split_1
I0107 16:28:27.348608  8329 net.cpp:338] inception_4a/3x3_reduce -> inception_4a/3x3_reduce
I0107 16:28:27.348618  8329 net.cpp:113] Setting up inception_4a/3x3_reduce
I0107 16:28:27.349553  8329 net.cpp:120] Top shape: 80 96 14 14 (1505280)
I0107 16:28:27.349575  8329 layer_factory.hpp:74] Creating layer inception_4a/relu_3x3_reduce
I0107 16:28:27.349586  8329 net.cpp:84] Creating Layer inception_4a/relu_3x3_reduce
I0107 16:28:27.349592  8329 net.cpp:380] inception_4a/relu_3x3_reduce <- inception_4a/3x3_reduce
I0107 16:28:27.349601  8329 net.cpp:327] inception_4a/relu_3x3_reduce -> inception_4a/3x3_reduce (in-place)
I0107 16:28:27.349611  8329 net.cpp:113] Setting up inception_4a/relu_3x3_reduce
I0107 16:28:27.349683  8329 net.cpp:120] Top shape: 80 96 14 14 (1505280)
I0107 16:28:27.349692  8329 layer_factory.hpp:74] Creating layer inception_4a/3x3
I0107 16:28:27.349705  8329 net.cpp:84] Creating Layer inception_4a/3x3
I0107 16:28:27.349711  8329 net.cpp:380] inception_4a/3x3 <- inception_4a/3x3_reduce
I0107 16:28:27.349719  8329 net.cpp:338] inception_4a/3x3 -> inception_4a/3x3
I0107 16:28:27.349727  8329 net.cpp:113] Setting up inception_4a/3x3
I0107 16:28:27.358979  8329 net.cpp:120] Top shape: 80 208 14 14 (3261440)
I0107 16:28:27.358997  8329 layer_factory.hpp:74] Creating layer inception_4a/relu_3x3
I0107 16:28:27.359009  8329 net.cpp:84] Creating Layer inception_4a/relu_3x3
I0107 16:28:27.359014  8329 net.cpp:380] inception_4a/relu_3x3 <- inception_4a/3x3
I0107 16:28:27.359021  8329 net.cpp:327] inception_4a/relu_3x3 -> inception_4a/3x3 (in-place)
I0107 16:28:27.359030  8329 net.cpp:113] Setting up inception_4a/relu_3x3
I0107 16:28:27.359099  8329 net.cpp:120] Top shape: 80 208 14 14 (3261440)
I0107 16:28:27.359107  8329 layer_factory.hpp:74] Creating layer inception_4a/5x5_reduce
I0107 16:28:27.359117  8329 net.cpp:84] Creating Layer inception_4a/5x5_reduce
I0107 16:28:27.359123  8329 net.cpp:380] inception_4a/5x5_reduce <- pool3/3x3_s2_pool3/3x3_s2_0_split_2
I0107 16:28:27.359132  8329 net.cpp:338] inception_4a/5x5_reduce -> inception_4a/5x5_reduce
I0107 16:28:27.359140  8329 net.cpp:113] Setting up inception_4a/5x5_reduce
I0107 16:28:27.359624  8329 net.cpp:120] Top shape: 80 16 14 14 (250880)
I0107 16:28:27.359639  8329 layer_factory.hpp:74] Creating layer inception_4a/relu_5x5_reduce
I0107 16:28:27.359650  8329 net.cpp:84] Creating Layer inception_4a/relu_5x5_reduce
I0107 16:28:27.359657  8329 net.cpp:380] inception_4a/relu_5x5_reduce <- inception_4a/5x5_reduce
I0107 16:28:27.359665  8329 net.cpp:327] inception_4a/relu_5x5_reduce -> inception_4a/5x5_reduce (in-place)
I0107 16:28:27.359674  8329 net.cpp:113] Setting up inception_4a/relu_5x5_reduce
I0107 16:28:27.359750  8329 net.cpp:120] Top shape: 80 16 14 14 (250880)
I0107 16:28:27.359756  8329 layer_factory.hpp:74] Creating layer inception_4a/5x5
I0107 16:28:27.359767  8329 net.cpp:84] Creating Layer inception_4a/5x5
I0107 16:28:27.359773  8329 net.cpp:380] inception_4a/5x5 <- inception_4a/5x5_reduce
I0107 16:28:27.359784  8329 net.cpp:338] inception_4a/5x5 -> inception_4a/5x5
I0107 16:28:27.359793  8329 net.cpp:113] Setting up inception_4a/5x5
I0107 16:28:27.360405  8329 net.cpp:120] Top shape: 80 48 14 14 (752640)
I0107 16:28:27.360420  8329 layer_factory.hpp:74] Creating layer inception_4a/relu_5x5
I0107 16:28:27.360427  8329 net.cpp:84] Creating Layer inception_4a/relu_5x5
I0107 16:28:27.360433  8329 net.cpp:380] inception_4a/relu_5x5 <- inception_4a/5x5
I0107 16:28:27.360443  8329 net.cpp:327] inception_4a/relu_5x5 -> inception_4a/5x5 (in-place)
I0107 16:28:27.360451  8329 net.cpp:113] Setting up inception_4a/relu_5x5
I0107 16:28:27.360682  8329 net.cpp:120] Top shape: 80 48 14 14 (752640)
I0107 16:28:27.360693  8329 layer_factory.hpp:74] Creating layer inception_4a/pool
I0107 16:28:27.360700  8329 layer_factory.cpp:56] CUDNN does not support padding or multiple tops. Using Caffe's own pooling layer.
I0107 16:28:27.360713  8329 net.cpp:84] Creating Layer inception_4a/pool
I0107 16:28:27.360726  8329 net.cpp:380] inception_4a/pool <- pool3/3x3_s2_pool3/3x3_s2_0_split_3
I0107 16:28:27.360735  8329 net.cpp:338] inception_4a/pool -> inception_4a/pool
I0107 16:28:27.360743  8329 net.cpp:113] Setting up inception_4a/pool
I0107 16:28:27.360754  8329 net.cpp:120] Top shape: 80 480 14 14 (7526400)
I0107 16:28:27.360759  8329 layer_factory.hpp:74] Creating layer inception_4a/pool_proj
I0107 16:28:27.360772  8329 net.cpp:84] Creating Layer inception_4a/pool_proj
I0107 16:28:27.360779  8329 net.cpp:380] inception_4a/pool_proj <- inception_4a/pool
I0107 16:28:27.360790  8329 net.cpp:338] inception_4a/pool_proj -> inception_4a/pool_proj
I0107 16:28:27.360800  8329 net.cpp:113] Setting up inception_4a/pool_proj
I0107 16:28:27.361559  8329 net.cpp:120] Top shape: 80 64 14 14 (1003520)
I0107 16:28:27.361575  8329 layer_factory.hpp:74] Creating layer inception_4a/relu_pool_proj
I0107 16:28:27.361587  8329 net.cpp:84] Creating Layer inception_4a/relu_pool_proj
I0107 16:28:27.361593  8329 net.cpp:380] inception_4a/relu_pool_proj <- inception_4a/pool_proj
I0107 16:28:27.361599  8329 net.cpp:327] inception_4a/relu_pool_proj -> inception_4a/pool_proj (in-place)
I0107 16:28:27.361608  8329 net.cpp:113] Setting up inception_4a/relu_pool_proj
I0107 16:28:27.361685  8329 net.cpp:120] Top shape: 80 64 14 14 (1003520)
I0107 16:28:27.361693  8329 layer_factory.hpp:74] Creating layer inception_4a/output
I0107 16:28:27.361701  8329 net.cpp:84] Creating Layer inception_4a/output
I0107 16:28:27.361706  8329 net.cpp:380] inception_4a/output <- inception_4a/1x1
I0107 16:28:27.361713  8329 net.cpp:380] inception_4a/output <- inception_4a/3x3
I0107 16:28:27.361719  8329 net.cpp:380] inception_4a/output <- inception_4a/5x5
I0107 16:28:27.361726  8329 net.cpp:380] inception_4a/output <- inception_4a/pool_proj
I0107 16:28:27.361733  8329 net.cpp:338] inception_4a/output -> inception_4a/output
I0107 16:28:27.361742  8329 net.cpp:113] Setting up inception_4a/output
I0107 16:28:27.361749  8329 net.cpp:120] Top shape: 80 512 14 14 (8028160)
I0107 16:28:27.361754  8329 layer_factory.hpp:74] Creating layer inception_4a/output_inception_4a/output_0_split
I0107 16:28:27.361763  8329 net.cpp:84] Creating Layer inception_4a/output_inception_4a/output_0_split
I0107 16:28:27.361768  8329 net.cpp:380] inception_4a/output_inception_4a/output_0_split <- inception_4a/output
I0107 16:28:27.361773  8329 net.cpp:338] inception_4a/output_inception_4a/output_0_split -> inception_4a/output_inception_4a/output_0_split_0
I0107 16:28:27.361783  8329 net.cpp:338] inception_4a/output_inception_4a/output_0_split -> inception_4a/output_inception_4a/output_0_split_1
I0107 16:28:27.361791  8329 net.cpp:338] inception_4a/output_inception_4a/output_0_split -> inception_4a/output_inception_4a/output_0_split_2
I0107 16:28:27.361799  8329 net.cpp:338] inception_4a/output_inception_4a/output_0_split -> inception_4a/output_inception_4a/output_0_split_3
I0107 16:28:27.361806  8329 net.cpp:338] inception_4a/output_inception_4a/output_0_split -> inception_4a/output_inception_4a/output_0_split_4
I0107 16:28:27.361814  8329 net.cpp:113] Setting up inception_4a/output_inception_4a/output_0_split
I0107 16:28:27.361821  8329 net.cpp:120] Top shape: 80 512 14 14 (8028160)
I0107 16:28:27.361827  8329 net.cpp:120] Top shape: 80 512 14 14 (8028160)
I0107 16:28:27.361834  8329 net.cpp:120] Top shape: 80 512 14 14 (8028160)
I0107 16:28:27.361838  8329 net.cpp:120] Top shape: 80 512 14 14 (8028160)
I0107 16:28:27.361843  8329 net.cpp:120] Top shape: 80 512 14 14 (8028160)
I0107 16:28:27.361848  8329 layer_factory.hpp:74] Creating layer loss1/ave_pool
I0107 16:28:27.361860  8329 net.cpp:84] Creating Layer loss1/ave_pool
I0107 16:28:27.361865  8329 net.cpp:380] loss1/ave_pool <- inception_4a/output_inception_4a/output_0_split_0
I0107 16:28:27.361872  8329 net.cpp:338] loss1/ave_pool -> loss1/ave_pool
I0107 16:28:27.361879  8329 net.cpp:113] Setting up loss1/ave_pool
I0107 16:28:27.361948  8329 net.cpp:120] Top shape: 80 512 4 4 (655360)
I0107 16:28:27.361959  8329 layer_factory.hpp:74] Creating layer loss1/conv
I0107 16:28:27.361979  8329 net.cpp:84] Creating Layer loss1/conv
I0107 16:28:27.361985  8329 net.cpp:380] loss1/conv <- loss1/ave_pool
I0107 16:28:27.361999  8329 net.cpp:338] loss1/conv -> loss1/conv
I0107 16:28:27.362007  8329 net.cpp:113] Setting up loss1/conv
I0107 16:28:27.363162  8329 net.cpp:120] Top shape: 80 128 4 4 (163840)
I0107 16:28:27.363178  8329 layer_factory.hpp:74] Creating layer loss1/relu_conv
I0107 16:28:27.363188  8329 net.cpp:84] Creating Layer loss1/relu_conv
I0107 16:28:27.363193  8329 net.cpp:380] loss1/relu_conv <- loss1/conv
I0107 16:28:27.363200  8329 net.cpp:327] loss1/relu_conv -> loss1/conv (in-place)
I0107 16:28:27.363209  8329 net.cpp:113] Setting up loss1/relu_conv
I0107 16:28:27.363277  8329 net.cpp:120] Top shape: 80 128 4 4 (163840)
I0107 16:28:27.363287  8329 layer_factory.hpp:74] Creating layer loss1/fc
I0107 16:28:27.363299  8329 net.cpp:84] Creating Layer loss1/fc
I0107 16:28:27.363304  8329 net.cpp:380] loss1/fc <- loss1/conv
I0107 16:28:27.363312  8329 net.cpp:338] loss1/fc -> loss1/fc
I0107 16:28:27.363325  8329 net.cpp:113] Setting up loss1/fc
I0107 16:28:27.386425  8329 net.cpp:120] Top shape: 80 1024 (81920)
I0107 16:28:27.386454  8329 layer_factory.hpp:74] Creating layer loss1/relu_fc
I0107 16:28:27.386469  8329 net.cpp:84] Creating Layer loss1/relu_fc
I0107 16:28:27.386477  8329 net.cpp:380] loss1/relu_fc <- loss1/fc
I0107 16:28:27.386489  8329 net.cpp:327] loss1/relu_fc -> loss1/fc (in-place)
I0107 16:28:27.386499  8329 net.cpp:113] Setting up loss1/relu_fc
I0107 16:28:27.386855  8329 net.cpp:120] Top shape: 80 1024 (81920)
I0107 16:28:27.386868  8329 layer_factory.hpp:74] Creating layer loss1/drop_fc
I0107 16:28:27.386889  8329 net.cpp:84] Creating Layer loss1/drop_fc
I0107 16:28:27.386895  8329 net.cpp:380] loss1/drop_fc <- loss1/fc
I0107 16:28:27.386904  8329 net.cpp:327] loss1/drop_fc -> loss1/fc (in-place)
I0107 16:28:27.386914  8329 net.cpp:113] Setting up loss1/drop_fc
I0107 16:28:27.386925  8329 net.cpp:120] Top shape: 80 1024 (81920)
I0107 16:28:27.386931  8329 layer_factory.hpp:74] Creating layer loss1/classifier_kaggle
I0107 16:28:27.386941  8329 net.cpp:84] Creating Layer loss1/classifier_kaggle
I0107 16:28:27.386946  8329 net.cpp:380] loss1/classifier_kaggle <- loss1/fc
I0107 16:28:27.386953  8329 net.cpp:338] loss1/classifier_kaggle -> loss1/classifier_kaggle
I0107 16:28:27.386962  8329 net.cpp:113] Setting up loss1/classifier_kaggle
I0107 16:28:27.392303  8329 net.cpp:120] Top shape: 80 447 (35760)
I0107 16:28:27.392318  8329 layer_factory.hpp:74] Creating layer loss1/loss
I0107 16:28:27.392330  8329 net.cpp:84] Creating Layer loss1/loss
I0107 16:28:27.392336  8329 net.cpp:380] loss1/loss <- loss1/classifier_kaggle
I0107 16:28:27.392343  8329 net.cpp:380] loss1/loss <- label_data_1_split_0
I0107 16:28:27.392354  8329 net.cpp:338] loss1/loss -> loss1/loss1
I0107 16:28:27.392362  8329 net.cpp:113] Setting up loss1/loss
I0107 16:28:27.392371  8329 layer_factory.hpp:74] Creating layer loss1/loss
I0107 16:28:27.392545  8329 net.cpp:120] Top shape: (1)
I0107 16:28:27.392554  8329 net.cpp:122]     with loss weight 0.3
I0107 16:28:27.392577  8329 layer_factory.hpp:74] Creating layer inception_4b/1x1
I0107 16:28:27.392590  8329 net.cpp:84] Creating Layer inception_4b/1x1
I0107 16:28:27.392597  8329 net.cpp:380] inception_4b/1x1 <- inception_4a/output_inception_4a/output_0_split_1
I0107 16:28:27.392607  8329 net.cpp:338] inception_4b/1x1 -> inception_4b/1x1
I0107 16:28:27.392617  8329 net.cpp:113] Setting up inception_4b/1x1
I0107 16:28:27.394000  8329 net.cpp:120] Top shape: 80 160 14 14 (2508800)
I0107 16:28:27.394016  8329 layer_factory.hpp:74] Creating layer inception_4b/relu_1x1
I0107 16:28:27.394026  8329 net.cpp:84] Creating Layer inception_4b/relu_1x1
I0107 16:28:27.394032  8329 net.cpp:380] inception_4b/relu_1x1 <- inception_4b/1x1
I0107 16:28:27.394042  8329 net.cpp:327] inception_4b/relu_1x1 -> inception_4b/1x1 (in-place)
I0107 16:28:27.394049  8329 net.cpp:113] Setting up inception_4b/relu_1x1
I0107 16:28:27.394136  8329 net.cpp:120] Top shape: 80 160 14 14 (2508800)
I0107 16:28:27.394155  8329 layer_factory.hpp:74] Creating layer inception_4b/3x3_reduce
I0107 16:28:27.394165  8329 net.cpp:84] Creating Layer inception_4b/3x3_reduce
I0107 16:28:27.394170  8329 net.cpp:380] inception_4b/3x3_reduce <- inception_4a/output_inception_4a/output_0_split_2
I0107 16:28:27.394179  8329 net.cpp:338] inception_4b/3x3_reduce -> inception_4b/3x3_reduce
I0107 16:28:27.394189  8329 net.cpp:113] Setting up inception_4b/3x3_reduce
I0107 16:28:27.395252  8329 net.cpp:120] Top shape: 80 112 14 14 (1756160)
I0107 16:28:27.395268  8329 layer_factory.hpp:74] Creating layer inception_4b/relu_3x3_reduce
I0107 16:28:27.395279  8329 net.cpp:84] Creating Layer inception_4b/relu_3x3_reduce
I0107 16:28:27.395285  8329 net.cpp:380] inception_4b/relu_3x3_reduce <- inception_4b/3x3_reduce
I0107 16:28:27.395293  8329 net.cpp:327] inception_4b/relu_3x3_reduce -> inception_4b/3x3_reduce (in-place)
I0107 16:28:27.395301  8329 net.cpp:113] Setting up inception_4b/relu_3x3_reduce
I0107 16:28:27.395370  8329 net.cpp:120] Top shape: 80 112 14 14 (1756160)
I0107 16:28:27.395377  8329 layer_factory.hpp:74] Creating layer inception_4b/3x3
I0107 16:28:27.395388  8329 net.cpp:84] Creating Layer inception_4b/3x3
I0107 16:28:27.395395  8329 net.cpp:380] inception_4b/3x3 <- inception_4b/3x3_reduce
I0107 16:28:27.395403  8329 net.cpp:338] inception_4b/3x3 -> inception_4b/3x3
I0107 16:28:27.395412  8329 net.cpp:113] Setting up inception_4b/3x3
I0107 16:28:27.398464  8329 net.cpp:120] Top shape: 80 224 14 14 (3512320)
I0107 16:28:27.398481  8329 layer_factory.hpp:74] Creating layer inception_4b/relu_3x3
I0107 16:28:27.398491  8329 net.cpp:84] Creating Layer inception_4b/relu_3x3
I0107 16:28:27.398499  8329 net.cpp:380] inception_4b/relu_3x3 <- inception_4b/3x3
I0107 16:28:27.398505  8329 net.cpp:327] inception_4b/relu_3x3 -> inception_4b/3x3 (in-place)
I0107 16:28:27.398519  8329 net.cpp:113] Setting up inception_4b/relu_3x3
I0107 16:28:27.398751  8329 net.cpp:120] Top shape: 80 224 14 14 (3512320)
I0107 16:28:27.398763  8329 layer_factory.hpp:74] Creating layer inception_4b/5x5_reduce
I0107 16:28:27.398775  8329 net.cpp:84] Creating Layer inception_4b/5x5_reduce
I0107 16:28:27.398782  8329 net.cpp:380] inception_4b/5x5_reduce <- inception_4a/output_inception_4a/output_0_split_3
I0107 16:28:27.398789  8329 net.cpp:338] inception_4b/5x5_reduce -> inception_4b/5x5_reduce
I0107 16:28:27.398799  8329 net.cpp:113] Setting up inception_4b/5x5_reduce
I0107 16:28:27.399348  8329 net.cpp:120] Top shape: 80 24 14 14 (376320)
I0107 16:28:27.399363  8329 layer_factory.hpp:74] Creating layer inception_4b/relu_5x5_reduce
I0107 16:28:27.399379  8329 net.cpp:84] Creating Layer inception_4b/relu_5x5_reduce
I0107 16:28:27.399385  8329 net.cpp:380] inception_4b/relu_5x5_reduce <- inception_4b/5x5_reduce
I0107 16:28:27.399394  8329 net.cpp:327] inception_4b/relu_5x5_reduce -> inception_4b/5x5_reduce (in-place)
I0107 16:28:27.399401  8329 net.cpp:113] Setting up inception_4b/relu_5x5_reduce
I0107 16:28:27.399473  8329 net.cpp:120] Top shape: 80 24 14 14 (376320)
I0107 16:28:27.399484  8329 layer_factory.hpp:74] Creating layer inception_4b/5x5
I0107 16:28:27.399494  8329 net.cpp:84] Creating Layer inception_4b/5x5
I0107 16:28:27.399502  8329 net.cpp:380] inception_4b/5x5 <- inception_4b/5x5_reduce
I0107 16:28:27.399509  8329 net.cpp:338] inception_4b/5x5 -> inception_4b/5x5
I0107 16:28:27.399518  8329 net.cpp:113] Setting up inception_4b/5x5
I0107 16:28:27.400358  8329 net.cpp:120] Top shape: 80 64 14 14 (1003520)
I0107 16:28:27.400373  8329 layer_factory.hpp:74] Creating layer inception_4b/relu_5x5
I0107 16:28:27.400382  8329 net.cpp:84] Creating Layer inception_4b/relu_5x5
I0107 16:28:27.400387  8329 net.cpp:380] inception_4b/relu_5x5 <- inception_4b/5x5
I0107 16:28:27.400394  8329 net.cpp:327] inception_4b/relu_5x5 -> inception_4b/5x5 (in-place)
I0107 16:28:27.400401  8329 net.cpp:113] Setting up inception_4b/relu_5x5
I0107 16:28:27.400470  8329 net.cpp:120] Top shape: 80 64 14 14 (1003520)
I0107 16:28:27.400482  8329 layer_factory.hpp:74] Creating layer inception_4b/pool
I0107 16:28:27.400496  8329 layer_factory.cpp:56] CUDNN does not support padding or multiple tops. Using Caffe's own pooling layer.
I0107 16:28:27.400503  8329 net.cpp:84] Creating Layer inception_4b/pool
I0107 16:28:27.400509  8329 net.cpp:380] inception_4b/pool <- inception_4a/output_inception_4a/output_0_split_4
I0107 16:28:27.400516  8329 net.cpp:338] inception_4b/pool -> inception_4b/pool
I0107 16:28:27.400542  8329 net.cpp:113] Setting up inception_4b/pool
I0107 16:28:27.400552  8329 net.cpp:120] Top shape: 80 512 14 14 (8028160)
I0107 16:28:27.400557  8329 layer_factory.hpp:74] Creating layer inception_4b/pool_proj
I0107 16:28:27.400570  8329 net.cpp:84] Creating Layer inception_4b/pool_proj
I0107 16:28:27.400575  8329 net.cpp:380] inception_4b/pool_proj <- inception_4b/pool
I0107 16:28:27.400585  8329 net.cpp:338] inception_4b/pool_proj -> inception_4b/pool_proj
I0107 16:28:27.400594  8329 net.cpp:113] Setting up inception_4b/pool_proj
I0107 16:28:27.401372  8329 net.cpp:120] Top shape: 80 64 14 14 (1003520)
I0107 16:28:27.401391  8329 layer_factory.hpp:74] Creating layer inception_4b/relu_pool_proj
I0107 16:28:27.401399  8329 net.cpp:84] Creating Layer inception_4b/relu_pool_proj
I0107 16:28:27.401406  8329 net.cpp:380] inception_4b/relu_pool_proj <- inception_4b/pool_proj
I0107 16:28:27.401412  8329 net.cpp:327] inception_4b/relu_pool_proj -> inception_4b/pool_proj (in-place)
I0107 16:28:27.401420  8329 net.cpp:113] Setting up inception_4b/relu_pool_proj
I0107 16:28:27.401669  8329 net.cpp:120] Top shape: 80 64 14 14 (1003520)
I0107 16:28:27.401680  8329 layer_factory.hpp:74] Creating layer inception_4b/output
I0107 16:28:27.401689  8329 net.cpp:84] Creating Layer inception_4b/output
I0107 16:28:27.401695  8329 net.cpp:380] inception_4b/output <- inception_4b/1x1
I0107 16:28:27.401701  8329 net.cpp:380] inception_4b/output <- inception_4b/3x3
I0107 16:28:27.401707  8329 net.cpp:380] inception_4b/output <- inception_4b/5x5
I0107 16:28:27.401713  8329 net.cpp:380] inception_4b/output <- inception_4b/pool_proj
I0107 16:28:27.401720  8329 net.cpp:338] inception_4b/output -> inception_4b/output
I0107 16:28:27.401728  8329 net.cpp:113] Setting up inception_4b/output
I0107 16:28:27.401736  8329 net.cpp:120] Top shape: 80 512 14 14 (8028160)
I0107 16:28:27.401741  8329 layer_factory.hpp:74] Creating layer inception_4b/output_inception_4b/output_0_split
I0107 16:28:27.401749  8329 net.cpp:84] Creating Layer inception_4b/output_inception_4b/output_0_split
I0107 16:28:27.401754  8329 net.cpp:380] inception_4b/output_inception_4b/output_0_split <- inception_4b/output
I0107 16:28:27.401763  8329 net.cpp:338] inception_4b/output_inception_4b/output_0_split -> inception_4b/output_inception_4b/output_0_split_0
I0107 16:28:27.401772  8329 net.cpp:338] inception_4b/output_inception_4b/output_0_split -> inception_4b/output_inception_4b/output_0_split_1
I0107 16:28:27.401780  8329 net.cpp:338] inception_4b/output_inception_4b/output_0_split -> inception_4b/output_inception_4b/output_0_split_2
I0107 16:28:27.401788  8329 net.cpp:338] inception_4b/output_inception_4b/output_0_split -> inception_4b/output_inception_4b/output_0_split_3
I0107 16:28:27.401794  8329 net.cpp:113] Setting up inception_4b/output_inception_4b/output_0_split
I0107 16:28:27.401804  8329 net.cpp:120] Top shape: 80 512 14 14 (8028160)
I0107 16:28:27.401810  8329 net.cpp:120] Top shape: 80 512 14 14 (8028160)
I0107 16:28:27.401816  8329 net.cpp:120] Top shape: 80 512 14 14 (8028160)
I0107 16:28:27.401821  8329 net.cpp:120] Top shape: 80 512 14 14 (8028160)
I0107 16:28:27.401826  8329 layer_factory.hpp:74] Creating layer inception_4c/1x1
I0107 16:28:27.401837  8329 net.cpp:84] Creating Layer inception_4c/1x1
I0107 16:28:27.401844  8329 net.cpp:380] inception_4c/1x1 <- inception_4b/output_inception_4b/output_0_split_0
I0107 16:28:27.401852  8329 net.cpp:338] inception_4c/1x1 -> inception_4c/1x1
I0107 16:28:27.401860  8329 net.cpp:113] Setting up inception_4c/1x1
I0107 16:28:27.403173  8329 net.cpp:120] Top shape: 80 128 14 14 (2007040)
I0107 16:28:27.403198  8329 layer_factory.hpp:74] Creating layer inception_4c/relu_1x1
I0107 16:28:27.403208  8329 net.cpp:84] Creating Layer inception_4c/relu_1x1
I0107 16:28:27.403213  8329 net.cpp:380] inception_4c/relu_1x1 <- inception_4c/1x1
I0107 16:28:27.403221  8329 net.cpp:327] inception_4c/relu_1x1 -> inception_4c/1x1 (in-place)
I0107 16:28:27.403229  8329 net.cpp:113] Setting up inception_4c/relu_1x1
I0107 16:28:27.403301  8329 net.cpp:120] Top shape: 80 128 14 14 (2007040)
I0107 16:28:27.403311  8329 layer_factory.hpp:74] Creating layer inception_4c/3x3_reduce
I0107 16:28:27.403321  8329 net.cpp:84] Creating Layer inception_4c/3x3_reduce
I0107 16:28:27.403326  8329 net.cpp:380] inception_4c/3x3_reduce <- inception_4b/output_inception_4b/output_0_split_1
I0107 16:28:27.403337  8329 net.cpp:338] inception_4c/3x3_reduce -> inception_4c/3x3_reduce
I0107 16:28:27.403347  8329 net.cpp:113] Setting up inception_4c/3x3_reduce
I0107 16:28:27.404510  8329 net.cpp:120] Top shape: 80 128 14 14 (2007040)
I0107 16:28:27.404525  8329 layer_factory.hpp:74] Creating layer inception_4c/relu_3x3_reduce
I0107 16:28:27.404536  8329 net.cpp:84] Creating Layer inception_4c/relu_3x3_reduce
I0107 16:28:27.404542  8329 net.cpp:380] inception_4c/relu_3x3_reduce <- inception_4c/3x3_reduce
I0107 16:28:27.404549  8329 net.cpp:327] inception_4c/relu_3x3_reduce -> inception_4c/3x3_reduce (in-place)
I0107 16:28:27.404557  8329 net.cpp:113] Setting up inception_4c/relu_3x3_reduce
I0107 16:28:27.404628  8329 net.cpp:120] Top shape: 80 128 14 14 (2007040)
I0107 16:28:27.404634  8329 layer_factory.hpp:74] Creating layer inception_4c/3x3
I0107 16:28:27.404644  8329 net.cpp:84] Creating Layer inception_4c/3x3
I0107 16:28:27.404649  8329 net.cpp:380] inception_4c/3x3 <- inception_4c/3x3_reduce
I0107 16:28:27.404659  8329 net.cpp:338] inception_4c/3x3 -> inception_4c/3x3
I0107 16:28:27.404669  8329 net.cpp:113] Setting up inception_4c/3x3
I0107 16:28:27.408510  8329 net.cpp:120] Top shape: 80 256 14 14 (4014080)
I0107 16:28:27.408541  8329 layer_factory.hpp:74] Creating layer inception_4c/relu_3x3
I0107 16:28:27.408550  8329 net.cpp:84] Creating Layer inception_4c/relu_3x3
I0107 16:28:27.408555  8329 net.cpp:380] inception_4c/relu_3x3 <- inception_4c/3x3
I0107 16:28:27.408563  8329 net.cpp:327] inception_4c/relu_3x3 -> inception_4c/3x3 (in-place)
I0107 16:28:27.408571  8329 net.cpp:113] Setting up inception_4c/relu_3x3
I0107 16:28:27.408644  8329 net.cpp:120] Top shape: 80 256 14 14 (4014080)
I0107 16:28:27.408654  8329 layer_factory.hpp:74] Creating layer inception_4c/5x5_reduce
I0107 16:28:27.408665  8329 net.cpp:84] Creating Layer inception_4c/5x5_reduce
I0107 16:28:27.408671  8329 net.cpp:380] inception_4c/5x5_reduce <- inception_4b/output_inception_4b/output_0_split_2
I0107 16:28:27.408681  8329 net.cpp:338] inception_4c/5x5_reduce -> inception_4c/5x5_reduce
I0107 16:28:27.408690  8329 net.cpp:113] Setting up inception_4c/5x5_reduce
I0107 16:28:27.409226  8329 net.cpp:120] Top shape: 80 24 14 14 (376320)
I0107 16:28:27.409241  8329 layer_factory.hpp:74] Creating layer inception_4c/relu_5x5_reduce
I0107 16:28:27.409255  8329 net.cpp:84] Creating Layer inception_4c/relu_5x5_reduce
I0107 16:28:27.409260  8329 net.cpp:380] inception_4c/relu_5x5_reduce <- inception_4c/5x5_reduce
I0107 16:28:27.409268  8329 net.cpp:327] inception_4c/relu_5x5_reduce -> inception_4c/5x5_reduce (in-place)
I0107 16:28:27.409276  8329 net.cpp:113] Setting up inception_4c/relu_5x5_reduce
I0107 16:28:27.409514  8329 net.cpp:120] Top shape: 80 24 14 14 (376320)
I0107 16:28:27.409526  8329 layer_factory.hpp:74] Creating layer inception_4c/5x5
I0107 16:28:27.409538  8329 net.cpp:84] Creating Layer inception_4c/5x5
I0107 16:28:27.409544  8329 net.cpp:380] inception_4c/5x5 <- inception_4c/5x5_reduce
I0107 16:28:27.409553  8329 net.cpp:338] inception_4c/5x5 -> inception_4c/5x5
I0107 16:28:27.409561  8329 net.cpp:113] Setting up inception_4c/5x5
I0107 16:28:27.410413  8329 net.cpp:120] Top shape: 80 64 14 14 (1003520)
I0107 16:28:27.410434  8329 layer_factory.hpp:74] Creating layer inception_4c/relu_5x5
I0107 16:28:27.410450  8329 net.cpp:84] Creating Layer inception_4c/relu_5x5
I0107 16:28:27.410457  8329 net.cpp:380] inception_4c/relu_5x5 <- inception_4c/5x5
I0107 16:28:27.410467  8329 net.cpp:327] inception_4c/relu_5x5 -> inception_4c/5x5 (in-place)
I0107 16:28:27.410476  8329 net.cpp:113] Setting up inception_4c/relu_5x5
I0107 16:28:27.410550  8329 net.cpp:120] Top shape: 80 64 14 14 (1003520)
I0107 16:28:27.410557  8329 layer_factory.hpp:74] Creating layer inception_4c/pool
I0107 16:28:27.410567  8329 layer_factory.cpp:56] CUDNN does not support padding or multiple tops. Using Caffe's own pooling layer.
I0107 16:28:27.410573  8329 net.cpp:84] Creating Layer inception_4c/pool
I0107 16:28:27.410578  8329 net.cpp:380] inception_4c/pool <- inception_4b/output_inception_4b/output_0_split_3
I0107 16:28:27.410586  8329 net.cpp:338] inception_4c/pool -> inception_4c/pool
I0107 16:28:27.410594  8329 net.cpp:113] Setting up inception_4c/pool
I0107 16:28:27.410604  8329 net.cpp:120] Top shape: 80 512 14 14 (8028160)
I0107 16:28:27.410610  8329 layer_factory.hpp:74] Creating layer inception_4c/pool_proj
I0107 16:28:27.410622  8329 net.cpp:84] Creating Layer inception_4c/pool_proj
I0107 16:28:27.410627  8329 net.cpp:380] inception_4c/pool_proj <- inception_4c/pool
I0107 16:28:27.410637  8329 net.cpp:338] inception_4c/pool_proj -> inception_4c/pool_proj
I0107 16:28:27.410645  8329 net.cpp:113] Setting up inception_4c/pool_proj
I0107 16:28:27.411427  8329 net.cpp:120] Top shape: 80 64 14 14 (1003520)
I0107 16:28:27.411442  8329 layer_factory.hpp:74] Creating layer inception_4c/relu_pool_proj
I0107 16:28:27.411449  8329 net.cpp:84] Creating Layer inception_4c/relu_pool_proj
I0107 16:28:27.411455  8329 net.cpp:380] inception_4c/relu_pool_proj <- inception_4c/pool_proj
I0107 16:28:27.411464  8329 net.cpp:327] inception_4c/relu_pool_proj -> inception_4c/pool_proj (in-place)
I0107 16:28:27.411473  8329 net.cpp:113] Setting up inception_4c/relu_pool_proj
I0107 16:28:27.411543  8329 net.cpp:120] Top shape: 80 64 14 14 (1003520)
I0107 16:28:27.411551  8329 layer_factory.hpp:74] Creating layer inception_4c/output
I0107 16:28:27.411564  8329 net.cpp:84] Creating Layer inception_4c/output
I0107 16:28:27.411571  8329 net.cpp:380] inception_4c/output <- inception_4c/1x1
I0107 16:28:27.411576  8329 net.cpp:380] inception_4c/output <- inception_4c/3x3
I0107 16:28:27.411582  8329 net.cpp:380] inception_4c/output <- inception_4c/5x5
I0107 16:28:27.411588  8329 net.cpp:380] inception_4c/output <- inception_4c/pool_proj
I0107 16:28:27.411594  8329 net.cpp:338] inception_4c/output -> inception_4c/output
I0107 16:28:27.411602  8329 net.cpp:113] Setting up inception_4c/output
I0107 16:28:27.411610  8329 net.cpp:120] Top shape: 80 512 14 14 (8028160)
I0107 16:28:27.411615  8329 layer_factory.hpp:74] Creating layer inception_4c/output_inception_4c/output_0_split
I0107 16:28:27.411623  8329 net.cpp:84] Creating Layer inception_4c/output_inception_4c/output_0_split
I0107 16:28:27.411634  8329 net.cpp:380] inception_4c/output_inception_4c/output_0_split <- inception_4c/output
I0107 16:28:27.411641  8329 net.cpp:338] inception_4c/output_inception_4c/output_0_split -> inception_4c/output_inception_4c/output_0_split_0
I0107 16:28:27.411649  8329 net.cpp:338] inception_4c/output_inception_4c/output_0_split -> inception_4c/output_inception_4c/output_0_split_1
I0107 16:28:27.411656  8329 net.cpp:338] inception_4c/output_inception_4c/output_0_split -> inception_4c/output_inception_4c/output_0_split_2
I0107 16:28:27.411664  8329 net.cpp:338] inception_4c/output_inception_4c/output_0_split -> inception_4c/output_inception_4c/output_0_split_3
I0107 16:28:27.411670  8329 net.cpp:113] Setting up inception_4c/output_inception_4c/output_0_split
I0107 16:28:27.411679  8329 net.cpp:120] Top shape: 80 512 14 14 (8028160)
I0107 16:28:27.411684  8329 net.cpp:120] Top shape: 80 512 14 14 (8028160)
I0107 16:28:27.411689  8329 net.cpp:120] Top shape: 80 512 14 14 (8028160)
I0107 16:28:27.411700  8329 net.cpp:120] Top shape: 80 512 14 14 (8028160)
I0107 16:28:27.411715  8329 layer_factory.hpp:74] Creating layer inception_4d/1x1
I0107 16:28:27.411725  8329 net.cpp:84] Creating Layer inception_4d/1x1
I0107 16:28:27.411731  8329 net.cpp:380] inception_4d/1x1 <- inception_4c/output_inception_4c/output_0_split_0
I0107 16:28:27.411741  8329 net.cpp:338] inception_4d/1x1 -> inception_4d/1x1
I0107 16:28:27.411749  8329 net.cpp:113] Setting up inception_4d/1x1
I0107 16:28:27.412817  8329 net.cpp:120] Top shape: 80 112 14 14 (1756160)
I0107 16:28:27.412832  8329 layer_factory.hpp:74] Creating layer inception_4d/relu_1x1
I0107 16:28:27.412842  8329 net.cpp:84] Creating Layer inception_4d/relu_1x1
I0107 16:28:27.412848  8329 net.cpp:380] inception_4d/relu_1x1 <- inception_4d/1x1
I0107 16:28:27.412856  8329 net.cpp:327] inception_4d/relu_1x1 -> inception_4d/1x1 (in-place)
I0107 16:28:27.412864  8329 net.cpp:113] Setting up inception_4d/relu_1x1
I0107 16:28:27.412936  8329 net.cpp:120] Top shape: 80 112 14 14 (1756160)
I0107 16:28:27.412943  8329 layer_factory.hpp:74] Creating layer inception_4d/3x3_reduce
I0107 16:28:27.412953  8329 net.cpp:84] Creating Layer inception_4d/3x3_reduce
I0107 16:28:27.412960  8329 net.cpp:380] inception_4d/3x3_reduce <- inception_4c/output_inception_4c/output_0_split_1
I0107 16:28:27.412969  8329 net.cpp:338] inception_4d/3x3_reduce -> inception_4d/3x3_reduce
I0107 16:28:27.412978  8329 net.cpp:113] Setting up inception_4d/3x3_reduce
I0107 16:28:27.416323  8329 net.cpp:120] Top shape: 80 144 14 14 (2257920)
I0107 16:28:27.416345  8329 layer_factory.hpp:74] Creating layer inception_4d/relu_3x3_reduce
I0107 16:28:27.416360  8329 net.cpp:84] Creating Layer inception_4d/relu_3x3_reduce
I0107 16:28:27.416368  8329 net.cpp:380] inception_4d/relu_3x3_reduce <- inception_4d/3x3_reduce
I0107 16:28:27.416375  8329 net.cpp:327] inception_4d/relu_3x3_reduce -> inception_4d/3x3_reduce (in-place)
I0107 16:28:27.416385  8329 net.cpp:113] Setting up inception_4d/relu_3x3_reduce
I0107 16:28:27.416626  8329 net.cpp:120] Top shape: 80 144 14 14 (2257920)
I0107 16:28:27.416638  8329 layer_factory.hpp:74] Creating layer inception_4d/3x3
I0107 16:28:27.416654  8329 net.cpp:84] Creating Layer inception_4d/3x3
I0107 16:28:27.416661  8329 net.cpp:380] inception_4d/3x3 <- inception_4d/3x3_reduce
I0107 16:28:27.416671  8329 net.cpp:338] inception_4d/3x3 -> inception_4d/3x3
I0107 16:28:27.416681  8329 net.cpp:113] Setting up inception_4d/3x3
I0107 16:28:27.421916  8329 net.cpp:120] Top shape: 80 288 14 14 (4515840)
I0107 16:28:27.421937  8329 layer_factory.hpp:74] Creating layer inception_4d/relu_3x3
I0107 16:28:27.421947  8329 net.cpp:84] Creating Layer inception_4d/relu_3x3
I0107 16:28:27.421953  8329 net.cpp:380] inception_4d/relu_3x3 <- inception_4d/3x3
I0107 16:28:27.421963  8329 net.cpp:327] inception_4d/relu_3x3 -> inception_4d/3x3 (in-place)
I0107 16:28:27.421973  8329 net.cpp:113] Setting up inception_4d/relu_3x3
I0107 16:28:27.422050  8329 net.cpp:120] Top shape: 80 288 14 14 (4515840)
I0107 16:28:27.422058  8329 layer_factory.hpp:74] Creating layer inception_4d/5x5_reduce
I0107 16:28:27.422073  8329 net.cpp:84] Creating Layer inception_4d/5x5_reduce
I0107 16:28:27.422080  8329 net.cpp:380] inception_4d/5x5_reduce <- inception_4c/output_inception_4c/output_0_split_2
I0107 16:28:27.422087  8329 net.cpp:338] inception_4d/5x5_reduce -> inception_4d/5x5_reduce
I0107 16:28:27.422097  8329 net.cpp:113] Setting up inception_4d/5x5_reduce
I0107 16:28:27.422713  8329 net.cpp:120] Top shape: 80 32 14 14 (501760)
I0107 16:28:27.422729  8329 layer_factory.hpp:74] Creating layer inception_4d/relu_5x5_reduce
I0107 16:28:27.422737  8329 net.cpp:84] Creating Layer inception_4d/relu_5x5_reduce
I0107 16:28:27.422744  8329 net.cpp:380] inception_4d/relu_5x5_reduce <- inception_4d/5x5_reduce
I0107 16:28:27.422754  8329 net.cpp:327] inception_4d/relu_5x5_reduce -> inception_4d/5x5_reduce (in-place)
I0107 16:28:27.422762  8329 net.cpp:113] Setting up inception_4d/relu_5x5_reduce
I0107 16:28:27.422834  8329 net.cpp:120] Top shape: 80 32 14 14 (501760)
I0107 16:28:27.422853  8329 layer_factory.hpp:74] Creating layer inception_4d/5x5
I0107 16:28:27.422865  8329 net.cpp:84] Creating Layer inception_4d/5x5
I0107 16:28:27.422871  8329 net.cpp:380] inception_4d/5x5 <- inception_4d/5x5_reduce
I0107 16:28:27.422879  8329 net.cpp:338] inception_4d/5x5 -> inception_4d/5x5
I0107 16:28:27.422888  8329 net.cpp:113] Setting up inception_4d/5x5
I0107 16:28:27.423892  8329 net.cpp:120] Top shape: 80 64 14 14 (1003520)
I0107 16:28:27.423910  8329 layer_factory.hpp:74] Creating layer inception_4d/relu_5x5
I0107 16:28:27.423920  8329 net.cpp:84] Creating Layer inception_4d/relu_5x5
I0107 16:28:27.423926  8329 net.cpp:380] inception_4d/relu_5x5 <- inception_4d/5x5
I0107 16:28:27.423935  8329 net.cpp:327] inception_4d/relu_5x5 -> inception_4d/5x5 (in-place)
I0107 16:28:27.423944  8329 net.cpp:113] Setting up inception_4d/relu_5x5
I0107 16:28:27.424017  8329 net.cpp:120] Top shape: 80 64 14 14 (1003520)
I0107 16:28:27.424024  8329 layer_factory.hpp:74] Creating layer inception_4d/pool
I0107 16:28:27.424031  8329 layer_factory.cpp:56] CUDNN does not support padding or multiple tops. Using Caffe's own pooling layer.
I0107 16:28:27.424037  8329 net.cpp:84] Creating Layer inception_4d/pool
I0107 16:28:27.424043  8329 net.cpp:380] inception_4d/pool <- inception_4c/output_inception_4c/output_0_split_3
I0107 16:28:27.424051  8329 net.cpp:338] inception_4d/pool -> inception_4d/pool
I0107 16:28:27.424059  8329 net.cpp:113] Setting up inception_4d/pool
I0107 16:28:27.424068  8329 net.cpp:120] Top shape: 80 512 14 14 (8028160)
I0107 16:28:27.424073  8329 layer_factory.hpp:74] Creating layer inception_4d/pool_proj
I0107 16:28:27.424084  8329 net.cpp:84] Creating Layer inception_4d/pool_proj
I0107 16:28:27.424090  8329 net.cpp:380] inception_4d/pool_proj <- inception_4d/pool
I0107 16:28:27.424099  8329 net.cpp:338] inception_4d/pool_proj -> inception_4d/pool_proj
I0107 16:28:27.424108  8329 net.cpp:113] Setting up inception_4d/pool_proj
I0107 16:28:27.424898  8329 net.cpp:120] Top shape: 80 64 14 14 (1003520)
I0107 16:28:27.424914  8329 layer_factory.hpp:74] Creating layer inception_4d/relu_pool_proj
I0107 16:28:27.424922  8329 net.cpp:84] Creating Layer inception_4d/relu_pool_proj
I0107 16:28:27.424928  8329 net.cpp:380] inception_4d/relu_pool_proj <- inception_4d/pool_proj
I0107 16:28:27.424937  8329 net.cpp:327] inception_4d/relu_pool_proj -> inception_4d/pool_proj (in-place)
I0107 16:28:27.424947  8329 net.cpp:113] Setting up inception_4d/relu_pool_proj
I0107 16:28:27.425181  8329 net.cpp:120] Top shape: 80 64 14 14 (1003520)
I0107 16:28:27.425194  8329 layer_factory.hpp:74] Creating layer inception_4d/output
I0107 16:28:27.425205  8329 net.cpp:84] Creating Layer inception_4d/output
I0107 16:28:27.425211  8329 net.cpp:380] inception_4d/output <- inception_4d/1x1
I0107 16:28:27.425218  8329 net.cpp:380] inception_4d/output <- inception_4d/3x3
I0107 16:28:27.425225  8329 net.cpp:380] inception_4d/output <- inception_4d/5x5
I0107 16:28:27.425230  8329 net.cpp:380] inception_4d/output <- inception_4d/pool_proj
I0107 16:28:27.425238  8329 net.cpp:338] inception_4d/output -> inception_4d/output
I0107 16:28:27.425247  8329 net.cpp:113] Setting up inception_4d/output
I0107 16:28:27.425256  8329 net.cpp:120] Top shape: 80 528 14 14 (8279040)
I0107 16:28:27.425262  8329 layer_factory.hpp:74] Creating layer inception_4d/output_inception_4d/output_0_split
I0107 16:28:27.425271  8329 net.cpp:84] Creating Layer inception_4d/output_inception_4d/output_0_split
I0107 16:28:27.425276  8329 net.cpp:380] inception_4d/output_inception_4d/output_0_split <- inception_4d/output
I0107 16:28:27.425283  8329 net.cpp:338] inception_4d/output_inception_4d/output_0_split -> inception_4d/output_inception_4d/output_0_split_0
I0107 16:28:27.425292  8329 net.cpp:338] inception_4d/output_inception_4d/output_0_split -> inception_4d/output_inception_4d/output_0_split_1
I0107 16:28:27.425299  8329 net.cpp:338] inception_4d/output_inception_4d/output_0_split -> inception_4d/output_inception_4d/output_0_split_2
I0107 16:28:27.425315  8329 net.cpp:338] inception_4d/output_inception_4d/output_0_split -> inception_4d/output_inception_4d/output_0_split_3
I0107 16:28:27.425330  8329 net.cpp:338] inception_4d/output_inception_4d/output_0_split -> inception_4d/output_inception_4d/output_0_split_4
I0107 16:28:27.425338  8329 net.cpp:113] Setting up inception_4d/output_inception_4d/output_0_split
I0107 16:28:27.425346  8329 net.cpp:120] Top shape: 80 528 14 14 (8279040)
I0107 16:28:27.425353  8329 net.cpp:120] Top shape: 80 528 14 14 (8279040)
I0107 16:28:27.425357  8329 net.cpp:120] Top shape: 80 528 14 14 (8279040)
I0107 16:28:27.425364  8329 net.cpp:120] Top shape: 80 528 14 14 (8279040)
I0107 16:28:27.425369  8329 net.cpp:120] Top shape: 80 528 14 14 (8279040)
I0107 16:28:27.425374  8329 layer_factory.hpp:74] Creating layer loss2/ave_pool
I0107 16:28:27.425384  8329 net.cpp:84] Creating Layer loss2/ave_pool
I0107 16:28:27.425389  8329 net.cpp:380] loss2/ave_pool <- inception_4d/output_inception_4d/output_0_split_0
I0107 16:28:27.425396  8329 net.cpp:338] loss2/ave_pool -> loss2/ave_pool
I0107 16:28:27.425403  8329 net.cpp:113] Setting up loss2/ave_pool
I0107 16:28:27.425487  8329 net.cpp:120] Top shape: 80 528 4 4 (675840)
I0107 16:28:27.425495  8329 layer_factory.hpp:74] Creating layer loss2/conv
I0107 16:28:27.425508  8329 net.cpp:84] Creating Layer loss2/conv
I0107 16:28:27.425513  8329 net.cpp:380] loss2/conv <- loss2/ave_pool
I0107 16:28:27.425521  8329 net.cpp:338] loss2/conv -> loss2/conv
I0107 16:28:27.425530  8329 net.cpp:113] Setting up loss2/conv
I0107 16:28:27.426728  8329 net.cpp:120] Top shape: 80 128 4 4 (163840)
I0107 16:28:27.426744  8329 layer_factory.hpp:74] Creating layer loss2/relu_conv
I0107 16:28:27.426758  8329 net.cpp:84] Creating Layer loss2/relu_conv
I0107 16:28:27.426764  8329 net.cpp:380] loss2/relu_conv <- loss2/conv
I0107 16:28:27.426771  8329 net.cpp:327] loss2/relu_conv -> loss2/conv (in-place)
I0107 16:28:27.426779  8329 net.cpp:113] Setting up loss2/relu_conv
I0107 16:28:27.426851  8329 net.cpp:120] Top shape: 80 128 4 4 (163840)
I0107 16:28:27.426862  8329 layer_factory.hpp:74] Creating layer loss2/fc
I0107 16:28:27.426872  8329 net.cpp:84] Creating Layer loss2/fc
I0107 16:28:27.426877  8329 net.cpp:380] loss2/fc <- loss2/conv
I0107 16:28:27.426887  8329 net.cpp:338] loss2/fc -> loss2/fc
I0107 16:28:27.426895  8329 net.cpp:113] Setting up loss2/fc
I0107 16:28:27.450011  8329 net.cpp:120] Top shape: 80 1024 (81920)
I0107 16:28:27.450031  8329 layer_factory.hpp:74] Creating layer loss2/relu_fc
I0107 16:28:27.450042  8329 net.cpp:84] Creating Layer loss2/relu_fc
I0107 16:28:27.450048  8329 net.cpp:380] loss2/relu_fc <- loss2/fc
I0107 16:28:27.450055  8329 net.cpp:327] loss2/relu_fc -> loss2/fc (in-place)
I0107 16:28:27.450063  8329 net.cpp:113] Setting up loss2/relu_fc
I0107 16:28:27.463345  8329 net.cpp:120] Top shape: 80 1024 (81920)
I0107 16:28:27.463362  8329 layer_factory.hpp:74] Creating layer loss2/drop_fc
I0107 16:28:27.463376  8329 net.cpp:84] Creating Layer loss2/drop_fc
I0107 16:28:27.463382  8329 net.cpp:380] loss2/drop_fc <- loss2/fc
I0107 16:28:27.463390  8329 net.cpp:327] loss2/drop_fc -> loss2/fc (in-place)
I0107 16:28:27.463399  8329 net.cpp:113] Setting up loss2/drop_fc
I0107 16:28:27.463408  8329 net.cpp:120] Top shape: 80 1024 (81920)
I0107 16:28:27.463413  8329 layer_factory.hpp:74] Creating layer loss2/classifier_kaggle
I0107 16:28:27.463428  8329 net.cpp:84] Creating Layer loss2/classifier_kaggle
I0107 16:28:27.463433  8329 net.cpp:380] loss2/classifier_kaggle <- loss2/fc
I0107 16:28:27.463441  8329 net.cpp:338] loss2/classifier_kaggle -> loss2/classifier_kaggle
I0107 16:28:27.463450  8329 net.cpp:113] Setting up loss2/classifier_kaggle
I0107 16:28:27.468821  8329 net.cpp:120] Top shape: 80 447 (35760)
I0107 16:28:27.468835  8329 layer_factory.hpp:74] Creating layer loss2/loss
I0107 16:28:27.468847  8329 net.cpp:84] Creating Layer loss2/loss
I0107 16:28:27.468853  8329 net.cpp:380] loss2/loss <- loss2/classifier_kaggle
I0107 16:28:27.468861  8329 net.cpp:380] loss2/loss <- label_data_1_split_1
I0107 16:28:27.468883  8329 net.cpp:338] loss2/loss -> loss2/loss1
I0107 16:28:27.468901  8329 net.cpp:113] Setting up loss2/loss
I0107 16:28:27.468909  8329 layer_factory.hpp:74] Creating layer loss2/loss
I0107 16:28:27.469094  8329 net.cpp:120] Top shape: (1)
I0107 16:28:27.469101  8329 net.cpp:122]     with loss weight 0.3
I0107 16:28:27.469115  8329 layer_factory.hpp:74] Creating layer inception_4e/1x1
I0107 16:28:27.469127  8329 net.cpp:84] Creating Layer inception_4e/1x1
I0107 16:28:27.469135  8329 net.cpp:380] inception_4e/1x1 <- inception_4d/output_inception_4d/output_0_split_1
I0107 16:28:27.469144  8329 net.cpp:338] inception_4e/1x1 -> inception_4e/1x1
I0107 16:28:27.469153  8329 net.cpp:113] Setting up inception_4e/1x1
I0107 16:28:27.471165  8329 net.cpp:120] Top shape: 80 256 14 14 (4014080)
I0107 16:28:27.471182  8329 layer_factory.hpp:74] Creating layer inception_4e/relu_1x1
I0107 16:28:27.471190  8329 net.cpp:84] Creating Layer inception_4e/relu_1x1
I0107 16:28:27.471196  8329 net.cpp:380] inception_4e/relu_1x1 <- inception_4e/1x1
I0107 16:28:27.471204  8329 net.cpp:327] inception_4e/relu_1x1 -> inception_4e/1x1 (in-place)
I0107 16:28:27.471212  8329 net.cpp:113] Setting up inception_4e/relu_1x1
I0107 16:28:27.471284  8329 net.cpp:120] Top shape: 80 256 14 14 (4014080)
I0107 16:28:27.471290  8329 layer_factory.hpp:74] Creating layer inception_4e/3x3_reduce
I0107 16:28:27.471300  8329 net.cpp:84] Creating Layer inception_4e/3x3_reduce
I0107 16:28:27.471305  8329 net.cpp:380] inception_4e/3x3_reduce <- inception_4d/output_inception_4d/output_0_split_2
I0107 16:28:27.471315  8329 net.cpp:338] inception_4e/3x3_reduce -> inception_4e/3x3_reduce
I0107 16:28:27.471325  8329 net.cpp:113] Setting up inception_4e/3x3_reduce
I0107 16:28:27.472743  8329 net.cpp:120] Top shape: 80 160 14 14 (2508800)
I0107 16:28:27.472760  8329 layer_factory.hpp:74] Creating layer inception_4e/relu_3x3_reduce
I0107 16:28:27.472772  8329 net.cpp:84] Creating Layer inception_4e/relu_3x3_reduce
I0107 16:28:27.472779  8329 net.cpp:380] inception_4e/relu_3x3_reduce <- inception_4e/3x3_reduce
I0107 16:28:27.472789  8329 net.cpp:327] inception_4e/relu_3x3_reduce -> inception_4e/3x3_reduce (in-place)
I0107 16:28:27.472797  8329 net.cpp:113] Setting up inception_4e/relu_3x3_reduce
I0107 16:28:27.472872  8329 net.cpp:120] Top shape: 80 160 14 14 (2508800)
I0107 16:28:27.472880  8329 layer_factory.hpp:74] Creating layer inception_4e/3x3
I0107 16:28:27.472892  8329 net.cpp:84] Creating Layer inception_4e/3x3
I0107 16:28:27.472898  8329 net.cpp:380] inception_4e/3x3 <- inception_4e/3x3_reduce
I0107 16:28:27.472908  8329 net.cpp:338] inception_4e/3x3 -> inception_4e/3x3
I0107 16:28:27.472918  8329 net.cpp:113] Setting up inception_4e/3x3
I0107 16:28:27.478718  8329 net.cpp:120] Top shape: 80 320 14 14 (5017600)
I0107 16:28:27.478735  8329 layer_factory.hpp:74] Creating layer inception_4e/relu_3x3
I0107 16:28:27.478744  8329 net.cpp:84] Creating Layer inception_4e/relu_3x3
I0107 16:28:27.478749  8329 net.cpp:380] inception_4e/relu_3x3 <- inception_4e/3x3
I0107 16:28:27.478760  8329 net.cpp:327] inception_4e/relu_3x3 -> inception_4e/3x3 (in-place)
I0107 16:28:27.478768  8329 net.cpp:113] Setting up inception_4e/relu_3x3
I0107 16:28:27.479004  8329 net.cpp:120] Top shape: 80 320 14 14 (5017600)
I0107 16:28:27.479015  8329 layer_factory.hpp:74] Creating layer inception_4e/5x5_reduce
I0107 16:28:27.479028  8329 net.cpp:84] Creating Layer inception_4e/5x5_reduce
I0107 16:28:27.479034  8329 net.cpp:380] inception_4e/5x5_reduce <- inception_4d/output_inception_4d/output_0_split_3
I0107 16:28:27.479045  8329 net.cpp:338] inception_4e/5x5_reduce -> inception_4e/5x5_reduce
I0107 16:28:27.479054  8329 net.cpp:113] Setting up inception_4e/5x5_reduce
I0107 16:28:27.479661  8329 net.cpp:120] Top shape: 80 32 14 14 (501760)
I0107 16:28:27.479676  8329 layer_factory.hpp:74] Creating layer inception_4e/relu_5x5_reduce
I0107 16:28:27.479686  8329 net.cpp:84] Creating Layer inception_4e/relu_5x5_reduce
I0107 16:28:27.479693  8329 net.cpp:380] inception_4e/relu_5x5_reduce <- inception_4e/5x5_reduce
I0107 16:28:27.479713  8329 net.cpp:327] inception_4e/relu_5x5_reduce -> inception_4e/5x5_reduce (in-place)
I0107 16:28:27.479722  8329 net.cpp:113] Setting up inception_4e/relu_5x5_reduce
I0107 16:28:27.479825  8329 net.cpp:120] Top shape: 80 32 14 14 (501760)
I0107 16:28:27.479836  8329 layer_factory.hpp:74] Creating layer inception_4e/5x5
I0107 16:28:27.479892  8329 net.cpp:84] Creating Layer inception_4e/5x5
I0107 16:28:27.479898  8329 net.cpp:380] inception_4e/5x5 <- inception_4e/5x5_reduce
I0107 16:28:27.479909  8329 net.cpp:338] inception_4e/5x5 -> inception_4e/5x5
I0107 16:28:27.479919  8329 net.cpp:113] Setting up inception_4e/5x5
I0107 16:28:27.481529  8329 net.cpp:120] Top shape: 80 128 14 14 (2007040)
I0107 16:28:27.481546  8329 layer_factory.hpp:74] Creating layer inception_4e/relu_5x5
I0107 16:28:27.481559  8329 net.cpp:84] Creating Layer inception_4e/relu_5x5
I0107 16:28:27.481565  8329 net.cpp:380] inception_4e/relu_5x5 <- inception_4e/5x5
I0107 16:28:27.481575  8329 net.cpp:327] inception_4e/relu_5x5 -> inception_4e/5x5 (in-place)
I0107 16:28:27.481583  8329 net.cpp:113] Setting up inception_4e/relu_5x5
I0107 16:28:27.481657  8329 net.cpp:120] Top shape: 80 128 14 14 (2007040)
I0107 16:28:27.481664  8329 layer_factory.hpp:74] Creating layer inception_4e/pool
I0107 16:28:27.481670  8329 layer_factory.cpp:56] CUDNN does not support padding or multiple tops. Using Caffe's own pooling layer.
I0107 16:28:27.481678  8329 net.cpp:84] Creating Layer inception_4e/pool
I0107 16:28:27.481683  8329 net.cpp:380] inception_4e/pool <- inception_4d/output_inception_4d/output_0_split_4
I0107 16:28:27.481690  8329 net.cpp:338] inception_4e/pool -> inception_4e/pool
I0107 16:28:27.481698  8329 net.cpp:113] Setting up inception_4e/pool
I0107 16:28:27.481709  8329 net.cpp:120] Top shape: 80 528 14 14 (8279040)
I0107 16:28:27.481714  8329 layer_factory.hpp:74] Creating layer inception_4e/pool_proj
I0107 16:28:27.481724  8329 net.cpp:84] Creating Layer inception_4e/pool_proj
I0107 16:28:27.481730  8329 net.cpp:380] inception_4e/pool_proj <- inception_4e/pool
I0107 16:28:27.481739  8329 net.cpp:338] inception_4e/pool_proj -> inception_4e/pool_proj
I0107 16:28:27.481748  8329 net.cpp:113] Setting up inception_4e/pool_proj
I0107 16:28:27.482942  8329 net.cpp:120] Top shape: 80 128 14 14 (2007040)
I0107 16:28:27.482957  8329 layer_factory.hpp:74] Creating layer inception_4e/relu_pool_proj
I0107 16:28:27.482971  8329 net.cpp:84] Creating Layer inception_4e/relu_pool_proj
I0107 16:28:27.482978  8329 net.cpp:380] inception_4e/relu_pool_proj <- inception_4e/pool_proj
I0107 16:28:27.482985  8329 net.cpp:327] inception_4e/relu_pool_proj -> inception_4e/pool_proj (in-place)
I0107 16:28:27.482993  8329 net.cpp:113] Setting up inception_4e/relu_pool_proj
I0107 16:28:27.483065  8329 net.cpp:120] Top shape: 80 128 14 14 (2007040)
I0107 16:28:27.483073  8329 layer_factory.hpp:74] Creating layer inception_4e/output
I0107 16:28:27.483083  8329 net.cpp:84] Creating Layer inception_4e/output
I0107 16:28:27.483089  8329 net.cpp:380] inception_4e/output <- inception_4e/1x1
I0107 16:28:27.483095  8329 net.cpp:380] inception_4e/output <- inception_4e/3x3
I0107 16:28:27.483101  8329 net.cpp:380] inception_4e/output <- inception_4e/5x5
I0107 16:28:27.483108  8329 net.cpp:380] inception_4e/output <- inception_4e/pool_proj
I0107 16:28:27.483114  8329 net.cpp:338] inception_4e/output -> inception_4e/output
I0107 16:28:27.483121  8329 net.cpp:113] Setting up inception_4e/output
I0107 16:28:27.483129  8329 net.cpp:120] Top shape: 80 832 14 14 (13045760)
I0107 16:28:27.483135  8329 layer_factory.hpp:74] Creating layer pool4/3x3_s2
I0107 16:28:27.483145  8329 net.cpp:84] Creating Layer pool4/3x3_s2
I0107 16:28:27.483150  8329 net.cpp:380] pool4/3x3_s2 <- inception_4e/output
I0107 16:28:27.483158  8329 net.cpp:338] pool4/3x3_s2 -> pool4/3x3_s2
I0107 16:28:27.483165  8329 net.cpp:113] Setting up pool4/3x3_s2
I0107 16:28:27.483404  8329 net.cpp:120] Top shape: 80 832 7 7 (3261440)
I0107 16:28:27.483422  8329 layer_factory.hpp:74] Creating layer pool4/3x3_s2_pool4/3x3_s2_0_split
I0107 16:28:27.483438  8329 net.cpp:84] Creating Layer pool4/3x3_s2_pool4/3x3_s2_0_split
I0107 16:28:27.483443  8329 net.cpp:380] pool4/3x3_s2_pool4/3x3_s2_0_split <- pool4/3x3_s2
I0107 16:28:27.483450  8329 net.cpp:338] pool4/3x3_s2_pool4/3x3_s2_0_split -> pool4/3x3_s2_pool4/3x3_s2_0_split_0
I0107 16:28:27.483459  8329 net.cpp:338] pool4/3x3_s2_pool4/3x3_s2_0_split -> pool4/3x3_s2_pool4/3x3_s2_0_split_1
I0107 16:28:27.483470  8329 net.cpp:338] pool4/3x3_s2_pool4/3x3_s2_0_split -> pool4/3x3_s2_pool4/3x3_s2_0_split_2
I0107 16:28:27.483479  8329 net.cpp:338] pool4/3x3_s2_pool4/3x3_s2_0_split -> pool4/3x3_s2_pool4/3x3_s2_0_split_3
I0107 16:28:27.483485  8329 net.cpp:113] Setting up pool4/3x3_s2_pool4/3x3_s2_0_split
I0107 16:28:27.483494  8329 net.cpp:120] Top shape: 80 832 7 7 (3261440)
I0107 16:28:27.483499  8329 net.cpp:120] Top shape: 80 832 7 7 (3261440)
I0107 16:28:27.483505  8329 net.cpp:120] Top shape: 80 832 7 7 (3261440)
I0107 16:28:27.483510  8329 net.cpp:120] Top shape: 80 832 7 7 (3261440)
I0107 16:28:27.483515  8329 layer_factory.hpp:74] Creating layer inception_5a/1x1
I0107 16:28:27.483525  8329 net.cpp:84] Creating Layer inception_5a/1x1
I0107 16:28:27.483531  8329 net.cpp:380] inception_5a/1x1 <- pool4/3x3_s2_pool4/3x3_s2_0_split_0
I0107 16:28:27.483538  8329 net.cpp:338] inception_5a/1x1 -> inception_5a/1x1
I0107 16:28:27.483546  8329 net.cpp:113] Setting up inception_5a/1x1
I0107 16:28:27.486448  8329 net.cpp:120] Top shape: 80 256 7 7 (1003520)
I0107 16:28:27.486464  8329 layer_factory.hpp:74] Creating layer inception_5a/relu_1x1
I0107 16:28:27.486476  8329 net.cpp:84] Creating Layer inception_5a/relu_1x1
I0107 16:28:27.486482  8329 net.cpp:380] inception_5a/relu_1x1 <- inception_5a/1x1
I0107 16:28:27.486491  8329 net.cpp:327] inception_5a/relu_1x1 -> inception_5a/1x1 (in-place)
I0107 16:28:27.486500  8329 net.cpp:113] Setting up inception_5a/relu_1x1
I0107 16:28:27.486572  8329 net.cpp:120] Top shape: 80 256 7 7 (1003520)
I0107 16:28:27.486579  8329 layer_factory.hpp:74] Creating layer inception_5a/3x3_reduce
I0107 16:28:27.486590  8329 net.cpp:84] Creating Layer inception_5a/3x3_reduce
I0107 16:28:27.486596  8329 net.cpp:380] inception_5a/3x3_reduce <- pool4/3x3_s2_pool4/3x3_s2_0_split_1
I0107 16:28:27.486603  8329 net.cpp:338] inception_5a/3x3_reduce -> inception_5a/3x3_reduce
I0107 16:28:27.486613  8329 net.cpp:113] Setting up inception_5a/3x3_reduce
I0107 16:28:27.488576  8329 net.cpp:120] Top shape: 80 160 7 7 (627200)
I0107 16:28:27.488592  8329 layer_factory.hpp:74] Creating layer inception_5a/relu_3x3_reduce
I0107 16:28:27.488600  8329 net.cpp:84] Creating Layer inception_5a/relu_3x3_reduce
I0107 16:28:27.488606  8329 net.cpp:380] inception_5a/relu_3x3_reduce <- inception_5a/3x3_reduce
I0107 16:28:27.488615  8329 net.cpp:327] inception_5a/relu_3x3_reduce -> inception_5a/3x3_reduce (in-place)
I0107 16:28:27.488625  8329 net.cpp:113] Setting up inception_5a/relu_3x3_reduce
I0107 16:28:27.488698  8329 net.cpp:120] Top shape: 80 160 7 7 (627200)
I0107 16:28:27.488704  8329 layer_factory.hpp:74] Creating layer inception_5a/3x3
I0107 16:28:27.488719  8329 net.cpp:84] Creating Layer inception_5a/3x3
I0107 16:28:27.488725  8329 net.cpp:380] inception_5a/3x3 <- inception_5a/3x3_reduce
I0107 16:28:27.488734  8329 net.cpp:338] inception_5a/3x3 -> inception_5a/3x3
I0107 16:28:27.488744  8329 net.cpp:113] Setting up inception_5a/3x3
I0107 16:28:27.495231  8329 net.cpp:120] Top shape: 80 320 7 7 (1254400)
I0107 16:28:27.495249  8329 layer_factory.hpp:74] Creating layer inception_5a/relu_3x3
I0107 16:28:27.495257  8329 net.cpp:84] Creating Layer inception_5a/relu_3x3
I0107 16:28:27.495266  8329 net.cpp:380] inception_5a/relu_3x3 <- inception_5a/3x3
I0107 16:28:27.495273  8329 net.cpp:327] inception_5a/relu_3x3 -> inception_5a/3x3 (in-place)
I0107 16:28:27.495282  8329 net.cpp:113] Setting up inception_5a/relu_3x3
I0107 16:28:27.495355  8329 net.cpp:120] Top shape: 80 320 7 7 (1254400)
I0107 16:28:27.495365  8329 layer_factory.hpp:74] Creating layer inception_5a/5x5_reduce
I0107 16:28:27.495383  8329 net.cpp:84] Creating Layer inception_5a/5x5_reduce
I0107 16:28:27.495398  8329 net.cpp:380] inception_5a/5x5_reduce <- pool4/3x3_s2_pool4/3x3_s2_0_split_2
I0107 16:28:27.495409  8329 net.cpp:338] inception_5a/5x5_reduce -> inception_5a/5x5_reduce
I0107 16:28:27.495419  8329 net.cpp:113] Setting up inception_5a/5x5_reduce
I0107 16:28:27.496141  8329 net.cpp:120] Top shape: 80 32 7 7 (125440)
I0107 16:28:27.496157  8329 layer_factory.hpp:74] Creating layer inception_5a/relu_5x5_reduce
I0107 16:28:27.496168  8329 net.cpp:84] Creating Layer inception_5a/relu_5x5_reduce
I0107 16:28:27.496176  8329 net.cpp:380] inception_5a/relu_5x5_reduce <- inception_5a/5x5_reduce
I0107 16:28:27.496184  8329 net.cpp:327] inception_5a/relu_5x5_reduce -> inception_5a/5x5_reduce (in-place)
I0107 16:28:27.496192  8329 net.cpp:113] Setting up inception_5a/relu_5x5_reduce
I0107 16:28:27.496433  8329 net.cpp:120] Top shape: 80 32 7 7 (125440)
I0107 16:28:27.496446  8329 layer_factory.hpp:74] Creating layer inception_5a/5x5
I0107 16:28:27.496457  8329 net.cpp:84] Creating Layer inception_5a/5x5
I0107 16:28:27.496464  8329 net.cpp:380] inception_5a/5x5 <- inception_5a/5x5_reduce
I0107 16:28:27.496472  8329 net.cpp:338] inception_5a/5x5 -> inception_5a/5x5
I0107 16:28:27.496481  8329 net.cpp:113] Setting up inception_5a/5x5
I0107 16:28:27.498121  8329 net.cpp:120] Top shape: 80 128 7 7 (501760)
I0107 16:28:27.498137  8329 layer_factory.hpp:74] Creating layer inception_5a/relu_5x5
I0107 16:28:27.498147  8329 net.cpp:84] Creating Layer inception_5a/relu_5x5
I0107 16:28:27.498153  8329 net.cpp:380] inception_5a/relu_5x5 <- inception_5a/5x5
I0107 16:28:27.498160  8329 net.cpp:327] inception_5a/relu_5x5 -> inception_5a/5x5 (in-place)
I0107 16:28:27.498169  8329 net.cpp:113] Setting up inception_5a/relu_5x5
I0107 16:28:27.498248  8329 net.cpp:120] Top shape: 80 128 7 7 (501760)
I0107 16:28:27.498257  8329 layer_factory.hpp:74] Creating layer inception_5a/pool
I0107 16:28:27.498265  8329 layer_factory.cpp:56] CUDNN does not support padding or multiple tops. Using Caffe's own pooling layer.
I0107 16:28:27.498270  8329 net.cpp:84] Creating Layer inception_5a/pool
I0107 16:28:27.498276  8329 net.cpp:380] inception_5a/pool <- pool4/3x3_s2_pool4/3x3_s2_0_split_3
I0107 16:28:27.498286  8329 net.cpp:338] inception_5a/pool -> inception_5a/pool
I0107 16:28:27.498294  8329 net.cpp:113] Setting up inception_5a/pool
I0107 16:28:27.498303  8329 net.cpp:120] Top shape: 80 832 7 7 (3261440)
I0107 16:28:27.498308  8329 layer_factory.hpp:74] Creating layer inception_5a/pool_proj
I0107 16:28:27.498322  8329 net.cpp:84] Creating Layer inception_5a/pool_proj
I0107 16:28:27.498327  8329 net.cpp:380] inception_5a/pool_proj <- inception_5a/pool
I0107 16:28:27.498335  8329 net.cpp:338] inception_5a/pool_proj -> inception_5a/pool_proj
I0107 16:28:27.498343  8329 net.cpp:113] Setting up inception_5a/pool_proj
I0107 16:28:27.499989  8329 net.cpp:120] Top shape: 80 128 7 7 (501760)
I0107 16:28:27.500005  8329 layer_factory.hpp:74] Creating layer inception_5a/relu_pool_proj
I0107 16:28:27.500015  8329 net.cpp:84] Creating Layer inception_5a/relu_pool_proj
I0107 16:28:27.500020  8329 net.cpp:380] inception_5a/relu_pool_proj <- inception_5a/pool_proj
I0107 16:28:27.500027  8329 net.cpp:327] inception_5a/relu_pool_proj -> inception_5a/pool_proj (in-place)
I0107 16:28:27.500038  8329 net.cpp:113] Setting up inception_5a/relu_pool_proj
I0107 16:28:27.500108  8329 net.cpp:120] Top shape: 80 128 7 7 (501760)
I0107 16:28:27.500116  8329 layer_factory.hpp:74] Creating layer inception_5a/output
I0107 16:28:27.500124  8329 net.cpp:84] Creating Layer inception_5a/output
I0107 16:28:27.500130  8329 net.cpp:380] inception_5a/output <- inception_5a/1x1
I0107 16:28:27.500136  8329 net.cpp:380] inception_5a/output <- inception_5a/3x3
I0107 16:28:27.500143  8329 net.cpp:380] inception_5a/output <- inception_5a/5x5
I0107 16:28:27.500149  8329 net.cpp:380] inception_5a/output <- inception_5a/pool_proj
I0107 16:28:27.500154  8329 net.cpp:338] inception_5a/output -> inception_5a/output
I0107 16:28:27.500181  8329 net.cpp:113] Setting up inception_5a/output
I0107 16:28:27.500190  8329 net.cpp:120] Top shape: 80 832 7 7 (3261440)
I0107 16:28:27.500195  8329 layer_factory.hpp:74] Creating layer inception_5a/output_inception_5a/output_0_split
I0107 16:28:27.500203  8329 net.cpp:84] Creating Layer inception_5a/output_inception_5a/output_0_split
I0107 16:28:27.500208  8329 net.cpp:380] inception_5a/output_inception_5a/output_0_split <- inception_5a/output
I0107 16:28:27.500216  8329 net.cpp:338] inception_5a/output_inception_5a/output_0_split -> inception_5a/output_inception_5a/output_0_split_0
I0107 16:28:27.500223  8329 net.cpp:338] inception_5a/output_inception_5a/output_0_split -> inception_5a/output_inception_5a/output_0_split_1
I0107 16:28:27.500231  8329 net.cpp:338] inception_5a/output_inception_5a/output_0_split -> inception_5a/output_inception_5a/output_0_split_2
I0107 16:28:27.500238  8329 net.cpp:338] inception_5a/output_inception_5a/output_0_split -> inception_5a/output_inception_5a/output_0_split_3
I0107 16:28:27.500246  8329 net.cpp:113] Setting up inception_5a/output_inception_5a/output_0_split
I0107 16:28:27.500255  8329 net.cpp:120] Top shape: 80 832 7 7 (3261440)
I0107 16:28:27.500262  8329 net.cpp:120] Top shape: 80 832 7 7 (3261440)
I0107 16:28:27.500267  8329 net.cpp:120] Top shape: 80 832 7 7 (3261440)
I0107 16:28:27.500272  8329 net.cpp:120] Top shape: 80 832 7 7 (3261440)
I0107 16:28:27.500279  8329 layer_factory.hpp:74] Creating layer inception_5b/1x1
I0107 16:28:27.500290  8329 net.cpp:84] Creating Layer inception_5b/1x1
I0107 16:28:27.500298  8329 net.cpp:380] inception_5b/1x1 <- inception_5a/output_inception_5a/output_0_split_0
I0107 16:28:27.500305  8329 net.cpp:338] inception_5b/1x1 -> inception_5b/1x1
I0107 16:28:27.500313  8329 net.cpp:113] Setting up inception_5b/1x1
I0107 16:28:27.504446  8329 net.cpp:120] Top shape: 80 384 7 7 (1505280)
I0107 16:28:27.504463  8329 layer_factory.hpp:74] Creating layer inception_5b/relu_1x1
I0107 16:28:27.504472  8329 net.cpp:84] Creating Layer inception_5b/relu_1x1
I0107 16:28:27.504477  8329 net.cpp:380] inception_5b/relu_1x1 <- inception_5b/1x1
I0107 16:28:27.504487  8329 net.cpp:327] inception_5b/relu_1x1 -> inception_5b/1x1 (in-place)
I0107 16:28:27.504495  8329 net.cpp:113] Setting up inception_5b/relu_1x1
I0107 16:28:27.504729  8329 net.cpp:120] Top shape: 80 384 7 7 (1505280)
I0107 16:28:27.504740  8329 layer_factory.hpp:74] Creating layer inception_5b/3x3_reduce
I0107 16:28:27.504750  8329 net.cpp:84] Creating Layer inception_5b/3x3_reduce
I0107 16:28:27.504756  8329 net.cpp:380] inception_5b/3x3_reduce <- inception_5a/output_inception_5a/output_0_split_1
I0107 16:28:27.504766  8329 net.cpp:338] inception_5b/3x3_reduce -> inception_5b/3x3_reduce
I0107 16:28:27.504776  8329 net.cpp:113] Setting up inception_5b/3x3_reduce
I0107 16:28:27.507055  8329 net.cpp:120] Top shape: 80 192 7 7 (752640)
I0107 16:28:27.507071  8329 layer_factory.hpp:74] Creating layer inception_5b/relu_3x3_reduce
I0107 16:28:27.507081  8329 net.cpp:84] Creating Layer inception_5b/relu_3x3_reduce
I0107 16:28:27.507087  8329 net.cpp:380] inception_5b/relu_3x3_reduce <- inception_5b/3x3_reduce
I0107 16:28:27.507096  8329 net.cpp:327] inception_5b/relu_3x3_reduce -> inception_5b/3x3_reduce (in-place)
I0107 16:28:27.507103  8329 net.cpp:113] Setting up inception_5b/relu_3x3_reduce
I0107 16:28:27.507179  8329 net.cpp:120] Top shape: 80 192 7 7 (752640)
I0107 16:28:27.507186  8329 layer_factory.hpp:74] Creating layer inception_5b/3x3
I0107 16:28:27.507197  8329 net.cpp:84] Creating Layer inception_5b/3x3
I0107 16:28:27.507203  8329 net.cpp:380] inception_5b/3x3 <- inception_5b/3x3_reduce
I0107 16:28:27.507210  8329 net.cpp:338] inception_5b/3x3 -> inception_5b/3x3
I0107 16:28:27.507242  8329 net.cpp:113] Setting up inception_5b/3x3
I0107 16:28:27.515379  8329 net.cpp:120] Top shape: 80 384 7 7 (1505280)
I0107 16:28:27.515398  8329 layer_factory.hpp:74] Creating layer inception_5b/relu_3x3
I0107 16:28:27.515405  8329 net.cpp:84] Creating Layer inception_5b/relu_3x3
I0107 16:28:27.515425  8329 net.cpp:380] inception_5b/relu_3x3 <- inception_5b/3x3
I0107 16:28:27.515434  8329 net.cpp:327] inception_5b/relu_3x3 -> inception_5b/3x3 (in-place)
I0107 16:28:27.515442  8329 net.cpp:113] Setting up inception_5b/relu_3x3
I0107 16:28:27.515516  8329 net.cpp:120] Top shape: 80 384 7 7 (1505280)
I0107 16:28:27.515522  8329 layer_factory.hpp:74] Creating layer inception_5b/5x5_reduce
I0107 16:28:27.515532  8329 net.cpp:84] Creating Layer inception_5b/5x5_reduce
I0107 16:28:27.515538  8329 net.cpp:380] inception_5b/5x5_reduce <- inception_5a/output_inception_5a/output_0_split_2
I0107 16:28:27.515547  8329 net.cpp:338] inception_5b/5x5_reduce -> inception_5b/5x5_reduce
I0107 16:28:27.515555  8329 net.cpp:113] Setting up inception_5b/5x5_reduce
I0107 16:28:27.516433  8329 net.cpp:120] Top shape: 80 48 7 7 (188160)
I0107 16:28:27.516448  8329 layer_factory.hpp:74] Creating layer inception_5b/relu_5x5_reduce
I0107 16:28:27.516469  8329 net.cpp:84] Creating Layer inception_5b/relu_5x5_reduce
I0107 16:28:27.516474  8329 net.cpp:380] inception_5b/relu_5x5_reduce <- inception_5b/5x5_reduce
I0107 16:28:27.516482  8329 net.cpp:327] inception_5b/relu_5x5_reduce -> inception_5b/5x5_reduce (in-place)
I0107 16:28:27.516494  8329 net.cpp:113] Setting up inception_5b/relu_5x5_reduce
I0107 16:28:27.516567  8329 net.cpp:120] Top shape: 80 48 7 7 (188160)
I0107 16:28:27.516573  8329 layer_factory.hpp:74] Creating layer inception_5b/5x5
I0107 16:28:27.516584  8329 net.cpp:84] Creating Layer inception_5b/5x5
I0107 16:28:27.516590  8329 net.cpp:380] inception_5b/5x5 <- inception_5b/5x5_reduce
I0107 16:28:27.516600  8329 net.cpp:338] inception_5b/5x5 -> inception_5b/5x5
I0107 16:28:27.516609  8329 net.cpp:113] Setting up inception_5b/5x5
I0107 16:28:27.518847  8329 net.cpp:120] Top shape: 80 128 7 7 (501760)
I0107 16:28:27.518864  8329 layer_factory.hpp:74] Creating layer inception_5b/relu_5x5
I0107 16:28:27.518874  8329 net.cpp:84] Creating Layer inception_5b/relu_5x5
I0107 16:28:27.518880  8329 net.cpp:380] inception_5b/relu_5x5 <- inception_5b/5x5
I0107 16:28:27.518888  8329 net.cpp:327] inception_5b/relu_5x5 -> inception_5b/5x5 (in-place)
I0107 16:28:27.518896  8329 net.cpp:113] Setting up inception_5b/relu_5x5
I0107 16:28:27.519141  8329 net.cpp:120] Top shape: 80 128 7 7 (501760)
I0107 16:28:27.519153  8329 layer_factory.hpp:74] Creating layer inception_5b/pool
I0107 16:28:27.519160  8329 layer_factory.cpp:56] CUDNN does not support padding or multiple tops. Using Caffe's own pooling layer.
I0107 16:28:27.519171  8329 net.cpp:84] Creating Layer inception_5b/pool
I0107 16:28:27.519177  8329 net.cpp:380] inception_5b/pool <- inception_5a/output_inception_5a/output_0_split_3
I0107 16:28:27.519187  8329 net.cpp:338] inception_5b/pool -> inception_5b/pool
I0107 16:28:27.519196  8329 net.cpp:113] Setting up inception_5b/pool
I0107 16:28:27.519207  8329 net.cpp:120] Top shape: 80 832 7 7 (3261440)
I0107 16:28:27.519212  8329 layer_factory.hpp:74] Creating layer inception_5b/pool_proj
I0107 16:28:27.519220  8329 net.cpp:84] Creating Layer inception_5b/pool_proj
I0107 16:28:27.519225  8329 net.cpp:380] inception_5b/pool_proj <- inception_5b/pool
I0107 16:28:27.519237  8329 net.cpp:338] inception_5b/pool_proj -> inception_5b/pool_proj
I0107 16:28:27.519245  8329 net.cpp:113] Setting up inception_5b/pool_proj
I0107 16:28:27.521749  8329 net.cpp:120] Top shape: 80 128 7 7 (501760)
I0107 16:28:27.521765  8329 layer_factory.hpp:74] Creating layer inception_5b/relu_pool_proj
I0107 16:28:27.521776  8329 net.cpp:84] Creating Layer inception_5b/relu_pool_proj
I0107 16:28:27.521782  8329 net.cpp:380] inception_5b/relu_pool_proj <- inception_5b/pool_proj
I0107 16:28:27.521790  8329 net.cpp:327] inception_5b/relu_pool_proj -> inception_5b/pool_proj (in-place)
I0107 16:28:27.521798  8329 net.cpp:113] Setting up inception_5b/relu_pool_proj
I0107 16:28:27.521868  8329 net.cpp:120] Top shape: 80 128 7 7 (501760)
I0107 16:28:27.521877  8329 layer_factory.hpp:74] Creating layer inception_5b/output
I0107 16:28:27.521889  8329 net.cpp:84] Creating Layer inception_5b/output
I0107 16:28:27.521903  8329 net.cpp:380] inception_5b/output <- inception_5b/1x1
I0107 16:28:27.521908  8329 net.cpp:380] inception_5b/output <- inception_5b/3x3
I0107 16:28:27.521914  8329 net.cpp:380] inception_5b/output <- inception_5b/5x5
I0107 16:28:27.521920  8329 net.cpp:380] inception_5b/output <- inception_5b/pool_proj
I0107 16:28:27.521927  8329 net.cpp:338] inception_5b/output -> inception_5b/output
I0107 16:28:27.521935  8329 net.cpp:113] Setting up inception_5b/output
I0107 16:28:27.521944  8329 net.cpp:120] Top shape: 80 1024 7 7 (4014080)
I0107 16:28:27.521949  8329 layer_factory.hpp:74] Creating layer pool5/7x7_s1
I0107 16:28:27.521960  8329 net.cpp:84] Creating Layer pool5/7x7_s1
I0107 16:28:27.521965  8329 net.cpp:380] pool5/7x7_s1 <- inception_5b/output
I0107 16:28:27.521975  8329 net.cpp:338] pool5/7x7_s1 -> pool5/7x7_s1
I0107 16:28:27.521982  8329 net.cpp:113] Setting up pool5/7x7_s1
I0107 16:28:27.522059  8329 net.cpp:120] Top shape: 80 1024 1 1 (81920)
I0107 16:28:27.522065  8329 layer_factory.hpp:74] Creating layer pool5/drop_7x7_s1
I0107 16:28:27.522073  8329 net.cpp:84] Creating Layer pool5/drop_7x7_s1
I0107 16:28:27.522078  8329 net.cpp:380] pool5/drop_7x7_s1 <- pool5/7x7_s1
I0107 16:28:27.522085  8329 net.cpp:327] pool5/drop_7x7_s1 -> pool5/7x7_s1 (in-place)
I0107 16:28:27.522092  8329 net.cpp:113] Setting up pool5/drop_7x7_s1
I0107 16:28:27.522100  8329 net.cpp:120] Top shape: 80 1024 1 1 (81920)
I0107 16:28:27.522105  8329 layer_factory.hpp:74] Creating layer loss3/classifier_kaggle
I0107 16:28:27.522121  8329 net.cpp:84] Creating Layer loss3/classifier_kaggle
I0107 16:28:27.522126  8329 net.cpp:380] loss3/classifier_kaggle <- pool5/7x7_s1
I0107 16:28:27.522136  8329 net.cpp:338] loss3/classifier_kaggle -> loss3/classifier_kaggle
I0107 16:28:27.522145  8329 net.cpp:113] Setting up loss3/classifier_kaggle
I0107 16:28:27.527478  8329 net.cpp:120] Top shape: 80 447 (35760)
I0107 16:28:27.527493  8329 layer_factory.hpp:74] Creating layer loss3/loss3
I0107 16:28:27.527503  8329 net.cpp:84] Creating Layer loss3/loss3
I0107 16:28:27.527510  8329 net.cpp:380] loss3/loss3 <- loss3/classifier_kaggle
I0107 16:28:27.527518  8329 net.cpp:380] loss3/loss3 <- label_data_1_split_2
I0107 16:28:27.527524  8329 net.cpp:338] loss3/loss3 -> loss3/loss3
I0107 16:28:27.527534  8329 net.cpp:113] Setting up loss3/loss3
…
I0107 16:28:27.532953  8329 net.cpp:257] The NetState phase (1) differed from the phase (0) specified by a rule in layer data
I0107 16:28:27.534432  8329 net.cpp:42] Initializing net from parameters: 
name: "MYNET"
state {
  phase: TEST
}
layer {
  name: "data"
  type: "ImageData"
  top: "data"
  top: "label"
  include {
    phase: TEST
  }
  transform_param {
    mirror: false
    crop_size: 224
    mean_value: 129
    mean_value: 129
    mean_value: 129
  }
  image_data_param {
    source: "/home/coldmanck/kaggle/label_val_full_resize_rotated.txt"
    batch_size: 50
    shuffle: true
  }
}
layer {
  name: "conv1/7x7_s2"
  type: "Convolution"
  bottom: "data"
  top: "conv1/7x7_s2"
  param {
    lr_mult: 1
    decay_mult: 1
  }
  param {
    lr_mult: 2
    decay_mult: 0
  }
  convolution_param {
    num_output: 64
    pad: 3
    kernel_size: 7
    stride: 2
    weight_filler {
      type: "xavier"
    }
    bias_filler {
      type: "constant"
      value: 0.2
    }
  }
}
layer {
  name: "conv1/relu_7x7"
  type: "ReLU"
  bottom: "conv1/7x7_s2"
  top: "conv1/7x7_s2"
}
layer {
  name: "pool1/3x3_s2"
  type: "Pooling"
  bottom: "conv1/7x7_s2"
  top: "pool1/3x3_s2"
  pooling_param {
    pool: MAX
    kernel_size: 3
    stride: 2
  }
}
layer {
  name: "pool1/norm1"
  type: "LRN"
  bottom: "pool1/3x3_s2"
  top: "pool1/norm1"
  lrn_param {
    local_size: 5
    alpha: 0.0001
    beta: 0.75
  }
}
layer {
  name: "conv2/3x3_reduce"
  type: "Convolution"
  bottom: "pool1/norm1"
  top: "conv2/3x3_reduce"
  param {
    lr_mult: 1
    decay_mult: 1
  }
  param {
    lr_mult: 2
    decay_mult: 0
  }
  convolution_param {
    num_output: 64
    kernel_size: 1
    weight_filler {
      type: "xavier"
    }
    bias_filler {
      type: "constant"
      value: 0.2
    }
  }
}
layer {
  name: "conv2/relu_3x3_reduce"
  type: "ReLU"
  bottom: "conv2/3x3_reduce"
  top: "conv2/3x3_reduce"
}
layer {
  name: "conv2/3x3"
  type: "Convolution"
  bottom: "conv2/3x3_reduce"
  top: "conv2/3x3"
  param {
    lr_mult: 1
    decay_mult: 1
  }
  param {
    lr_mult: 2
    decay_mult: 0
  }
  convolution_param {
    num_output: 192
    pad: 1
    kernel_size: 3
    weight_filler {
      type: "xavier"
    }
    bias_filler {
      type: "constant"
      value: 0.2
    }
  }
}
layer {
  name: "conv2/relu_3x3"
  type: "ReLU"
  bottom: "conv2/3x3"
  top: "conv2/3x3"
}
layer {
  name: "conv2/norm2"
  type: "LRN"
  bottom: "conv2/3x3"
  top: "conv2/norm2"
  lrn_param {
    local_size: 5
    alpha: 0.0001
    beta: 0.75
  }
}
layer {
  name: "pool2/3x3_s2"
  type: "Pooling"
  bottom: "conv2/norm2"
  top: "pool2/3x3_s2"
  pooling_param {
    pool: MAX
    kernel_size: 3
    stride: 2
  }
}
layer {
  name: "inception_3a/1x1"
  type: "Convolution"
  bottom: "pool2/3x3_s2"
  top: "inception_3a/1x1"
  param {
    lr_mult: 1
    decay_mult: 1
  }
  param {
    lr_mult: 2
    decay_mult: 0
  }
  convolution_param {
    num_output: 64
    kernel_size: 1
    weight_filler {
      type: "xavier"
    }
    bias_filler {
      type: "constant"
      value: 0.2
    }
  }
}
layer {
  name: "inception_3a/relu_1x1"
  type: "ReLU"
  bottom: "inception_3a/1x1"
  top: "inception_3a/1x1"
}
layer {
  name: "inception_3a/3x3_reduce"
  type: "Convolution"
  bottom: "pool2/3x3_s2"
  top: "inception_3a/3x3_reduce"
  param {
    lr_mult: 1
    decay_mult: 1
  }
  param {
    lr_mult: 2
    decay_mult: 0
  }
  convolution_param {
    num_output: 96
    kernel_size: 1
    weight_filler {
      type: "xavier"
    }
    bias_filler {
      type: "constant"
      value: 0.2
    }
  }
}
layer {
  name: "inception_3a/relu_3x3_reduce"
  type: "ReLU"
  bottom: "inception_3a/3x3_reduce"
  top: "inception_3a/3x3_reduce"
}
layer {
  name: "inception_3a/3x3"
  type: "Convolution"
  bottom: "inception_3a/3x3_reduce"
  top: "inception_3a/3x3"
  param {
    lr_mult: 1
    decay_mult: 1
  }
  param {
    lr_mult: 2
    decay_mult: 0
  }
  convolution_param {
    num_output: 128
    pad: 1
    kernel_size: 3
    weight_filler {
      type: "xavier"
    }
    bias_filler {
      type: "constant"
      value: 0.2
    }
  }
}
layer {
  name: "inception_3a/relu_3x3"
  type: "ReLU"
  bottom: "inception_3a/3x3"
  top: "inception_3a/3x3"
}
layer {
  name: "inception_3a/5x5_reduce"
  type: "Convolution"
  bottom: "pool2/3x3_s2"
  top: "inception_3a/5x5_reduce"
  param {
    lr_mult: 1
    decay_mult: 1
  }
  param {
    lr_mult: 2
    decay_mult: 0
  }
  convolution_param {
    num_output: 16
    kernel_size: 1
    weight_filler {
      type: "xavier"
    }
    bias_filler {
      type: "constant"
      value: 0.2
    }
  }
}
layer {
  name: "inception_3a/relu_5x5_reduce"
  type: "ReLU"
  bottom: "inception_3a/5x5_reduce"
  top: "inception_3a/5x5_reduce"
}
layer {
  name: "inception_3a/5x5"
  type: "Convolution"
  bottom: "inception_3a/5x5_reduce"
  top: "inception_3a/5x5"
  param {
    lr_mult: 1
    decay_mult: 1
  }
  param {
    lr_mult: 2
    decay_mult: 0
  }
  convolution_param {
    num_output: 32
    pad: 2
    kernel_size: 5
    weight_filler {
      type: "xavier"
    }
    bias_filler {
      type: "constant"
      value: 0.2
    }
  }
}
layer {
  name: "inception_3a/relu_5x5"
  type: "ReLU"
  bottom: "inception_3a/5x5"
  top: "inception_3a/5x5"
}
layer {
  name: "inception_3a/pool"
  type: "Pooling"
  bottom: "pool2/3x3_s2"
  top: "inception_3a/pool"
  pooling_param {
    pool: MAX
    kernel_size: 3
    stride: 1
    pad: 1
  }
}
layer {
  name: "inception_3a/pool_proj"
  type: "Convolution"
  bottom: "inception_3a/pool"
  top: "inception_3a/pool_proj"
  param {
    lr_mult: 1
    decay_mult: 1
  }
  param {
    lr_mult: 2
    decay_mult: 0
  }
  convolution_param {
    num_output: 32
    kernel_size: 1
    weight_filler {
      type: "xavier"
    }
    bias_filler {
      type: "constant"
      value: 0.2
    }
  }
}
layer {
  name: "inception_3a/relu_pool_proj"
  type: "ReLU"
  bottom: "inception_3a/pool_proj"
  top: "inception_3a/pool_proj"
}
layer {
  name: "inception_3a/output"
  type: "Concat"
  bottom: "inception_3a/1x1"
  bottom: "inception_3a/3x3"
  bottom: "inception_3a/5x5"
  bottom: "inception_3a/pool_proj"
  top: "inception_3a/output"
}
layer {
  name: "inception_3b/1x1"
  type: "Convolution"
  bottom: "inception_3a/output"
  top: "inception_3b/1x1"
  param {
    lr_mult: 1
    decay_mult: 1
  }
  param {
    lr_mult: 2
    decay_mult: 0
  }
  convolution_param {
    num_output: 128
    kernel_size: 1
    weight_filler {
      type: "xavier"
    }
    bias_filler {
      type: "constant"
      value: 0.2
    }
  }
}
layer {
  name: "inception_3b/relu_1x1"
  type: "ReLU"
  bottom: "inception_3b/1x1"
  top: "inception_3b/1x1"
}
layer {
  name: "inception_3b/3x3_reduce"
  type: "Convolution"
  bottom: "inception_3a/output"
  top: "inception_3b/3x3_reduce"
  param {
    lr_mult: 1
    decay_mult: 1
  }
  param {
    lr_mult: 2
    decay_mult: 0
  }
  convolution_param {
    num_output: 128
    kernel_size: 1
    weight_filler {
      type: "xavier"
    }
    bias_filler {
      type: "constant"
      value: 0.2
    }
  }
}
layer {
  name: "inception_3b/relu_3x3_reduce"
  type: "ReLU"
  bottom: "inception_3b/3x3_reduce"
  top: "inception_3b/3x3_reduce"
}
layer {
  name: "inception_3b/3x3"
  type: "Convolution"
  bottom: "inception_3b/3x3_reduce"
  top: "inception_3b/3x3"
  param {
    lr_mult: 1
    decay_mult: 1
  }
  param {
    lr_mult: 2
    decay_mult: 0
  }
  convolution_param {
    num_output: 192
    pad: 1
    kernel_size: 3
    weight_filler {
      type: "xavier"
    }
    bias_filler {
      type: "constant"
      value: 0.2
    }
  }
}
layer {
  name: "inception_3b/relu_3x3"
  type: "ReLU"
  bottom: "inception_3b/3x3"
  top: "inception_3b/3x3"
}
layer {
  name: "inception_3b/5x5_reduce"
  type: "Convolution"
  bottom: "inception_3a/output"
  top: "inception_3b/5x5_reduce"
  param {
    lr_mult: 1
    decay_mult: 1
  }
  param {
    lr_mult: 2
    decay_mult: 0
  }
  convolution_param {
    num_output: 32
    kernel_size: 1
    weight_filler {
      type: "xavier"
    }
    bias_filler {
      type: "constant"
      value: 0.2
    }
  }
}
layer {
  name: "inception_3b/relu_5x5_reduce"
  type: "ReLU"
  bottom: "inception_3b/5x5_reduce"
  top: "inception_3b/5x5_reduce"
}
layer {
  name: "inception_3b/5x5"
  type: "Convolution"
  bottom: "inception_3b/5x5_reduce"
  top: "inception_3b/5x5"
  param {
    lr_mult: 1
    decay_mult: 1
  }
  param {
    lr_mult: 2
    decay_mult: 0
  }
  convolution_param {
    num_output: 96
    pad: 2
    kernel_size: 5
    weight_filler {
      type: "xavier"
    }
    bias_filler {
      type: "constant"
      value: 0.2
    }
  }
}
layer {
  name: "inception_3b/relu_5x5"
  type: "ReLU"
  bottom: "inception_3b/5x5"
  top: "inception_3b/5x5"
}
layer {
  name: "inception_3b/pool"
  type: "Pooling"
  bottom: "inception_3a/output"
  top: "inception_3b/pool"
  pooling_param {
    pool: MAX
    kernel_size: 3
    stride: 1
    pad: 1
  }
}
layer {
  name: "inception_3b/pool_proj"
  type: "Convolution"
  bottom: "inception_3b/pool"
  top: "inception_3b/pool_proj"
  param {
    lr_mult: 1
    decay_mult: 1
  }
  param {
    lr_mult: 2
    decay_mult: 0
  }
  convolution_param {
    num_output: 64
    kernel_size: 1
    weight_filler {
      type: "xavier"
    }
    bias_filler {
      type: "constant"
      value: 0.2
    }
  }
}
layer {
  name: "inception_3b/relu_pool_proj"
  type: "ReLU"
  bottom: "inception_3b/pool_proj"
  top: "inception_3b/pool_proj"
}
layer {
  name: "inception_3b/output"
  type: "Concat"
  bottom: "inception_3b/1x1"
  bottom: "inception_3b/3x3"
  bottom: "inception_3b/5x5"
  bottom: "inception_3b/pool_proj"
  top: "inception_3b/output"
}
layer {
  name: "pool3/3x3_s2"
  type: "Pooling"
  bottom: "inception_3b/output"
  top: "pool3/3x3_s2"
  pooling_param {
    pool: MAX
    kernel_size: 3
    stride: 2
  }
}
layer {
  name: "inception_4a/1x1"
  type: "Convolution"
  bottom: "pool3/3x3_s2"
  top: "inception_4a/1x1"
  param {
    lr_mult: 1
    decay_mult: 1
  }
  param {
    lr_mult: 2
    decay_mult: 0
  }
  convolution_param {
    num_output: 192
    kernel_size: 1
    weight_filler {
      type: "xavier"
    }
    bias_filler {
      type: "constant"
      value: 0.2
    }
  }
}
layer {
  name: "inception_4a/relu_1x1"
  type: "ReLU"
  bottom: "inception_4a/1x1"
  top: "inception_4a/1x1"
}
layer {
  name: "inception_4a/3x3_reduce"
  type: "Convolution"
  bottom: "pool3/3x3_s2"
  top: "inception_4a/3x3_reduce"
  param {
    lr_mult: 1
    decay_mult: 1
  }
  param {
    lr_mult: 2
    decay_mult: 0
  }
  convolution_param {
    num_output: 96
    kernel_size: 1
    weight_filler {
      type: "xavier"
    }
    bias_filler {
      type: "constant"
      value: 0.2
    }
  }
}
layer {
  name: "inception_4a/relu_3x3_reduce"
  type: "ReLU"
  bottom: "inception_4a/3x3_reduce"
  top: "inception_4a/3x3_reduce"
}
layer {
  name: "inception_4a/3x3"
  type: "Convolution"
  bottom: "inception_4a/3x3_reduce"
  top: "inception_4a/3x3"
  param {
    lr_mult: 1
    decay_mult: 1
  }
  param {
    lr_mult: 2
    decay_mult: 0
  }
  convolution_param {
    num_output: 208
    pad: 1
    kernel_size: 3
    weight_filler {
      type: "xavier"
    }
    bias_filler {
      type: "constant"
      value: 0.2
    }
  }
}
layer {
  name: "inception_4a/relu_3x3"
  type: "ReLU"
  bottom: "inception_4a/3x3"
  top: "inception_4a/3x3"
}
layer {
  name: "inception_4a/5x5_reduce"
  type: "Convolution"
  bottom: "pool3/3x3_s2"
  top: "inception_4a/5x5_reduce"
  param {
    lr_mult: 1
    decay_mult: 1
  }
  param {
    lr_mult: 2
    decay_mult: 0
  }
  convolution_param {
    num_output: 16
    kernel_size: 1
    weight_filler {
      type: "xavier"
    }
    bias_filler {
      type: "constant"
      value: 0.2
    }
  }
}
layer {
  name: "inception_4a/relu_5x5_reduce"
  type: "ReLU"
  bottom: "inception_4a/5x5_reduce"
  top: "inception_4a/5x5_reduce"
}
layer {
  name: "inception_4a/5x5"
  type: "Convolution"
  bottom: "inception_4a/5x5_reduce"
  top: "inception_4a/5x5"
  param {
    lr_mult: 1
    decay_mult: 1
  }
  param {
    lr_mult: 2
    decay_mult: 0
  }
  convolution_param {
    num_output: 48
    pad: 2
    kernel_size: 5
    weight_filler {
      type: "xavier"
    }
    bias_filler {
      type: "constant"
      value: 0.2
    }
  }
}
layer {
  name: "inception_4a/relu_5x5"
  type: "ReLU"
  bottom: "inception_4a/5x5"
  top: "inception_4a/5x5"
}
layer {
  name: "inception_4a/pool"
  type: "Pooling"
  bottom: "pool3/3x3_s2"
  top: "inception_4a/pool"
  pooling_param {
    pool: MAX
    kernel_size: 3
    stride: 1
    pad: 1
  }
}
layer {
  name: "inception_4a/pool_proj"
  type: "Convolution"
  bottom: "inception_4a/pool"
  top: "inception_4a/pool_proj"
  param {
    lr_mult: 1
    decay_mult: 1
  }
  param {
    lr_mult: 2
    decay_mult: 0
  }
  convolution_param {
    num_output: 64
    kernel_size: 1
    weight_filler {
      type: "xavier"
    }
    bias_filler {
      type: "constant"
      value: 0.2
    }
  }
}
layer {
  name: "inception_4a/relu_pool_proj"
  type: "ReLU"
  bottom: "inception_4a/pool_proj"
  top: "inception_4a/pool_proj"
}
layer {
  name: "inception_4a/output"
  type: "Concat"
  bottom: "inception_4a/1x1"
  bottom: "inception_4a/3x3"
  bottom: "inception_4a/5x5"
  bottom: "inception_4a/pool_proj"
  top: "inception_4a/output"
}
layer {
  name: "loss1/ave_pool"
  type: "Pooling"
  bottom: "inception_4a/output"
  top: "loss1/ave_pool"
  pooling_param {
    pool: AVE
    kernel_size: 5
    stride: 3
  }
}
layer {
  name: "loss1/conv"
  type: "Convolution"
  bottom: "loss1/ave_pool"
  top: "loss1/conv"
  param {
    lr_mult: 1
    decay_mult: 1
  }
  param {
    lr_mult: 2
    decay_mult: 0
  }
  convolution_param {
    num_output: 128
    kernel_size: 1
    weight_filler {
      type: "xavier"
    }
    bias_filler {
      type: "constant"
      value: 0.2
    }
  }
}
layer {
  name: "loss1/relu_conv"
  type: "ReLU"
  bottom: "loss1/conv"
  top: "loss1/conv"
}
layer {
  name: "loss1/fc"
  type: "InnerProduct"
  bottom: "loss1/conv"
  top: "loss1/fc"
  param {
    lr_mult: 1
    decay_mult: 1
  }
  param {
    lr_mult: 2
    decay_mult: 0
  }
  inner_product_param {
    num_output: 1024
    weight_filler {
      type: "xavier"
    }
    bias_filler {
      type: "constant"
      value: 0.2
    }
  }
}
layer {
  name: "loss1/relu_fc"
  type: "ReLU"
  bottom: "loss1/fc"
  top: "loss1/fc"
}
layer {
  name: "loss1/drop_fc"
  type: "Dropout"
  bottom: "loss1/fc"
  top: "loss1/fc"
  dropout_param {
    dropout_ratio: 0.7
  }
}
layer {
  name: "loss1/classifier_kaggle"
  type: "InnerProduct"
  bottom: "loss1/fc"
  top: "loss1/classifier_kaggle"
  param {
    lr_mult: 1
    decay_mult: 1
  }
  param {
    lr_mult: 2
    decay_mult: 0
  }
  inner_product_param {
    num_output: 447
    weight_filler {
      type: "xavier"
    }
    bias_filler {
      type: "constant"
      value: 0
    }
  }
}
layer {
  name: "loss1/loss"
  type: "SoftmaxWithLoss"
  bottom: "loss1/classifier_kaggle"
  bottom: "label"
  top: "loss1/loss1"
  loss_weight: 0.3
}
layer {
  name: "loss1/top-1"
  type: "Accuracy"
  bottom: "loss1/classifier_kaggle"
  bottom: "label"
  top: "loss1/top-1"
  include {
    phase: TEST
  }
}
layer {
  name: "loss1/top-5"
  type: "Accuracy"
  bottom: "loss1/classifier_kaggle"
  bottom: "label"
  top: "loss1/top-5"
  include {
    phase: TEST
  }
  accuracy_param {
    top_k: 5
  }
}
layer {
  name: "inception_4b/1x1"
  type: "Convolution"
  bottom: "inception_4a/output"
  top: "inception_4b/1x1"
  param {
    lr_mult: 1
    decay_mult: 1
  }
  param {
    lr_mult: 2
    decay_mult: 0
  }
  convolution_param {
    num_output: 160
    kernel_size: 1
    weight_filler {
      type: "xavier"
    }
    bias_filler {
      type: "constant"
      value: 0.2
    }
  }
}
layer {
  name: "inception_4b/relu_1x1"
  type: "ReLU"
  bottom: "inception_4b/1x1"
  top: "inception_4b/1x1"
}
layer {
  name: "inception_4b/3x3_reduce"
  type: "Convolution"
  bottom: "inception_4a/output"
  top: "inception_4b/3x3_reduce"
  param {
    lr_mult: 1
    decay_mult: 1
  }
  param {
    lr_mult: 2
    decay_mult: 0
  }
  convolution_param {
    num_output: 112
    kernel_size: 1
    weight_filler {
      type: "xavier"
    }
    bias_filler {
      type: "constant"
      value: 0.2
    }
  }
}
layer {
  name: "inception_4b/relu_3x3_reduce"
  type: "ReLU"
  bottom: "inception_4b/3x3_reduce"
  top: "inception_4b/3x3_reduce"
}
layer {
  name: "inception_4b/3x3"
  type: "Convolution"
  bottom: "inception_4b/3x3_reduce"
  top: "inception_4b/3x3"
  param {
    lr_mult: 1
    decay_mult: 1
  }
  param {
    lr_mult: 2
    decay_mult: 0
  }
  convolution_param {
    num_output: 224
    pad: 1
    kernel_size: 3
    weight_filler {
      type: "xavier"
    }
    bias_filler {
      type: "constant"
      value: 0.2
    }
  }
}
layer {
  name: "inception_4b/relu_3x3"
  type: "ReLU"
  bottom: "inception_4b/3x3"
  top: "inception_4b/3x3"
}
layer {
  name: "inception_4b/5x5_reduce"
  type: "Convolution"
  bottom: "inception_4a/output"
  top: "inception_4b/5x5_reduce"
  param {
    lr_mult: 1
    decay_mult: 1
  }
  param {
    lr_mult: 2
    decay_mult: 0
  }
  convolution_param {
    num_output: 24
    kernel_size: 1
    weight_filler {
      type: "xavier"
    }
    bias_filler {
      type: "constant"
      value: 0.2
    }
  }
}
layer {
  name: "inception_4b/relu_5x5_reduce"
  type: "ReLU"
  bottom: "inception_4b/5x5_reduce"
  top: "inception_4b/5x5_reduce"
}
layer {
  name: "inception_4b/5x5"
  type: "Convolution"
  bottom: "inception_4b/5x5_reduce"
  top: "inception_4b/5x5"
  param {
    lr_mult: 1
    decay_mult: 1
  }
  param {
    lr_mult: 2
    decay_mult: 0
  }
  convolution_param {
    num_output: 64
    pad: 2
    kernel_size: 5
    weight_filler {
      type: "xavier"
    }
    bias_filler {
      type: "constant"
      value: 0.2
    }
  }
}
layer {
  name: "inception_4b/relu_5x5"
  type: "ReLU"
  bottom: "inception_4b/5x5"
  top: "inception_4b/5x5"
}
layer {
  name: "inception_4b/pool"
  type: "Pooling"
  bottom: "inception_4a/output"
  top: "inception_4b/pool"
  pooling_param {
    pool: MAX
    kernel_size: 3
    stride: 1
    pad: 1
  }
}
layer {
  name: "inception_4b/pool_proj"
  type: "Convolution"
  bottom: "inception_4b/pool"
  top: "inception_4b/pool_proj"
  param {
    lr_mult: 1
    decay_mult: 1
  }
  param {
    lr_mult: 2
    decay_mult: 0
  }
  convolution_param {
    num_output: 64
    kernel_size: 1
    weight_filler {
      type: "xavier"
    }
    bias_filler {
      type: "constant"
      value: 0.2
    }
  }
}
layer {
  name: "inception_4b/relu_pool_proj"
  type: "ReLU"
  bottom: "inception_4b/pool_proj"
  top: "inception_4b/pool_proj"
}
layer {
  name: "inception_4b/output"
  type: "Concat"
  bottom: "inception_4b/1x1"
  bottom: "inception_4b/3x3"
  bottom: "inception_4b/5x5"
  bottom: "inception_4b/pool_proj"
  top: "inception_4b/output"
}
layer {
  name: "inception_4c/1x1"
  type: "Convolution"
  bottom: "inception_4b/output"
  top: "inception_4c/1x1"
  param {
    lr_mult: 1
    decay_mult: 1
  }
  param {
    lr_mult: 2
    decay_mult: 0
  }
  convolution_param {
    num_output: 128
    kernel_size: 1
    weight_filler {
      type: "xavier"
    }
    bias_filler {
      type: "constant"
      value: 0.2
    }
  }
}
layer {
  name: "inception_4c/relu_1x1"
  type: "ReLU"
  bottom: "inception_4c/1x1"
  top: "inception_4c/1x1"
}
layer {
  name: "inception_4c/3x3_reduce"
  type: "Convolution"
  bottom: "inception_4b/output"
  top: "inception_4c/3x3_reduce"
  param {
    lr_mult: 1
    decay_mult: 1
  }
  param {
    lr_mult: 2
    decay_mult: 0
  }
  convolution_param {
    num_output: 128
    kernel_size: 1
    weight_filler {
      type: "xavier"
    }
    bias_filler {
      type: "constant"
      value: 0.2
    }
  }
}
layer {
  name: "inception_4c/relu_3x3_reduce"
  type: "ReLU"
  bottom: "inception_4c/3x3_reduce"
  top: "inception_4c/3x3_reduce"
}
layer {
  name: "inception_4c/3x3"
  type: "Convolution"
  bottom: "inception_4c/3x3_reduce"
  top: "inception_4c/3x3"
  param {
    lr_mult: 1
    decay_mult: 1
  }
  param {
    lr_mult: 2
    decay_mult: 0
  }
  convolution_param {
    num_output: 256
    pad: 1
    kernel_size: 3
    weight_filler {
      type: "xavier"
    }
    bias_filler {
      type: "constant"
      value: 0.2
    }
  }
}
layer {
  name: "inception_4c/relu_3x3"
  type: "ReLU"
  bottom: "inception_4c/3x3"
  top: "inception_4c/3x3"
}
layer {
  name: "inception_4c/5x5_reduce"
  type: "Convolution"
  bottom: "inception_4b/output"
  top: "inception_4c/5x5_reduce"
  param {
    lr_mult: 1
    decay_mult: 1
  }
  param {
    lr_mult: 2
    decay_mult: 0
  }
  convolution_param {
    num_output: 24
    kernel_size: 1
    weight_filler {
      type: "xavier"
    }
    bias_filler {
      type: "constant"
      value: 0.2
    }
  }
}
layer {
  name: "inception_4c/relu_5x5_reduce"
  type: "ReLU"
  bottom: "inception_4c/5x5_reduce"
  top: "inception_4c/5x5_reduce"
}
layer {
  name: "inception_4c/5x5"
  type: "Convolution"
  bottom: "inception_4c/5x5_reduce"
  top: "inception_4c/5x5"
  param {
    lr_mult: 1
    decay_mult: 1
  }
  param {
    lr_mult: 2
    decay_mult: 0
  }
  convolution_param {
    num_output: 64
    pad: 2
    kernel_size: 5
    weight_filler {
      type: "xavier"
    }
    bias_filler {
      type: "constant"
      value: 0.2
    }
  }
}
layer {
  name: "inception_4c/relu_5x5"
  type: "ReLU"
  bottom: "inception_4c/5x5"
  top: "inception_4c/5x5"
}
layer {
  name: "inception_4c/pool"
  type: "Pooling"
  bottom: "inception_4b/output"
  top: "inception_4c/pool"
  pooling_param {
    pool: MAX
    kernel_size: 3
    stride: 1
    pad: 1
  }
}
layer {
  name: "inception_4c/pool_proj"
  type: "Convolution"
  bottom: "inception_4c/pool"
  top: "inception_4c/pool_proj"
  param {
    lr_mult: 1
    decay_mult: 1
  }
  param {
    lr_mult: 2
    decay_mult: 0
  }
  convolution_param {
    num_output: 64
    kernel_size: 1
    weight_filler {
      type: "xavier"
    }
    bias_filler {
      type: "constant"
      value: 0.2
    }
  }
}
layer {
  name: "inception_4c/relu_pool_proj"
  type: "ReLU"
  bottom: "inception_4c/pool_proj"
  top: "inception_4c/pool_proj"
}
layer {
  name: "inception_4c/output"
  type: "Concat"
  bottom: "inception_4c/1x1"
  bottom: "inception_4c/3x3"
  bottom: "inception_4c/5x5"
  bottom: "inception_4c/pool_proj"
  top: "inception_4c/output"
}
layer {
  name: "inception_4d/1x1"
  type: "Convolution"
  bottom: "inception_4c/output"
  top: "inception_4d/1x1"
  param {
    lr_mult: 1
    decay_mult: 1
  }
  param {
    lr_mult: 2
    decay_mult: 0
  }
  convolution_param {
    num_output: 112
    kernel_size: 1
    weight_filler {
      type: "xavier"
    }
    bias_filler {
      type: "constant"
      value: 0.2
    }
  }
}
layer {
  name: "inception_4d/relu_1x1"
  type: "ReLU"
  bottom: "inception_4d/1x1"
  top: "inception_4d/1x1"
}
layer {
  name: "inception_4d/3x3_reduce"
  type: "Convolution"
  bottom: "inception_4c/output"
  top: "inception_4d/3x3_reduce"
  param {
    lr_mult: 1
    decay_mult: 1
  }
  param {
    lr_mult: 2
    decay_mult: 0
  }
  convolution_param {
    num_output: 144
    kernel_size: 1
    weight_filler {
      type: "xavier"
    }
    bias_filler {
      type: "constant"
      value: 0.2
    }
  }
}
layer {
  name: "inception_4d/relu_3x3_reduce"
  type: "ReLU"
  bottom: "inception_4d/3x3_reduce"
  top: "inception_4d/3x3_reduce"
}
layer {
  name: "inception_4d/3x3"
  type: "Convolution"
  bottom: "inception_4d/3x3_reduce"
  top: "inception_4d/3x3"
  param {
    lr_mult: 1
    decay_mult: 1
  }
  param {
    lr_mult: 2
    decay_mult: 0
  }
  convolution_param {
    num_output: 288
    pad: 1
    kernel_size: 3
    weight_filler {
      type: "xavier"
    }
    bias_filler {
      type: "constant"
      value: 0.2
    }
  }
}
layer {
  name: "inception_4d/relu_3x3"
  type: "ReLU"
  bottom: "inception_4d/3x3"
  top: "inception_4d/3x3"
}
layer {
  name: "inception_4d/5x5_reduce"
  type: "Convolution"
  bottom: "inception_4c/output"
  top: "inception_4d/5x5_reduce"
  param {
    lr_mult: 1
    decay_mult: 1
  }
  param {
    lr_mult: 2
    decay_mult: 0
  }
  convolution_param {
    num_output: 32
    kernel_size: 1
    weight_filler {
      type: "xavier"
    }
    bias_filler {
      type: "constant"
      value: 0.2
    }
  }
}
layer {
  name: "inception_4d/relu_5x5_reduce"
  type: "ReLU"
  bottom: "inception_4d/5x5_reduce"
  top: "inception_4d/5x5_reduce"
}
layer {
  name: "inception_4d/5x5"
  type: "Convolution"
  bottom: "inception_4d/5x5_reduce"
  top: "inception_4d/5x5"
  param {
    lr_mult: 1
    decay_mult: 1
  }
  param {
    lr_mult: 2
    decay_mult: 0
  }
  convolution_param {
    num_output: 64
    pad: 2
    kernel_size: 5
    weight_filler {
      type: "xavier"
    }
    bias_filler {
      type: "constant"
      value: 0.2
    }
  }
}
layer {
  name: "inception_4d/relu_5x5"
  type: "ReLU"
  bottom: "inception_4d/5x5"
  top: "inception_4d/5x5"
}
layer {
  name: "inception_4d/pool"
  type: "Pooling"
  bottom: "inception_4c/output"
  top: "inception_4d/pool"
  pooling_param {
    pool: MAX
    kernel_size: 3
    stride: 1
    pad: 1
  }
}
layer {
  name: "inception_4d/pool_proj"
  type: "Convolution"
  bottom: "inception_4d/pool"
  top: "inception_4d/pool_proj"
  param {
    lr_mult: 1
    decay_mult: 1
  }
  param {
    lr_mult: 2
    decay_mult: 0
  }
  convolution_param {
    num_output: 64
    kernel_size: 1
    weight_filler {
      type: "xavier"
    }
    bias_filler {
      type: "constant"
      value: 0.2
    }
  }
}
layer {
  name: "inception_4d/relu_pool_proj"
  type: "ReLU"
  bottom: "inception_4d/pool_proj"
  top: "inception_4d/pool_proj"
}
layer {
  name: "inception_4d/output"
  type: "Concat"
  bottom: "inception_4d/1x1"
  bottom: "inception_4d/3x3"
  bottom: "inception_4d/5x5"
  bottom: "inception_4d/pool_proj"
  top: "inception_4d/output"
}
layer {
  name: "loss2/ave_pool"
  type: "Pooling"
  bottom: "inception_4d/output"
  top: "loss2/ave_pool"
  pooling_param {
    pool: AVE
    kernel_size: 5
    stride: 3
  }
}
layer {
…
I0107 16:28:27.623354  8329 net.cpp:84] Creating Layer inception_4c/1x1
I0107 16:28:27.623359  8329 net.cpp:380] inception_4c/1x1 <- inception_4b/output_inception_4b/output_0_split_0
I0107 16:28:27.623368  8329 net.cpp:338] inception_4c/1x1 -> inception_4c/1x1
I0107 16:28:27.623376  8329 net.cpp:113] Setting up inception_4c/1x1
I0107 16:28:27.624483  8329 net.cpp:120] Top shape: 50 128 14 14 (1254400)
I0107 16:28:27.624498  8329 layer_factory.hpp:74] Creating layer inception_4c/relu_1x1
I0107 16:28:27.624507  8329 net.cpp:84] Creating Layer inception_4c/relu_1x1
I0107 16:28:27.624513  8329 net.cpp:380] inception_4c/relu_1x1 <- inception_4c/1x1
I0107 16:28:27.624527  8329 net.cpp:327] inception_4c/relu_1x1 -> inception_4c/1x1 (in-place)
I0107 16:28:27.624544  8329 net.cpp:113] Setting up inception_4c/relu_1x1
I0107 16:28:27.624781  8329 net.cpp:120] Top shape: 50 128 14 14 (1254400)
I0107 16:28:27.624793  8329 layer_factory.hpp:74] Creating layer inception_4c/3x3_reduce
I0107 16:28:27.624819  8329 net.cpp:84] Creating Layer inception_4c/3x3_reduce
I0107 16:28:27.624825  8329 net.cpp:380] inception_4c/3x3_reduce <- inception_4b/output_inception_4b/output_0_split_1
I0107 16:28:27.624833  8329 net.cpp:338] inception_4c/3x3_reduce -> inception_4c/3x3_reduce
I0107 16:28:27.624842  8329 net.cpp:113] Setting up inception_4c/3x3_reduce
I0107 16:28:27.626029  8329 net.cpp:120] Top shape: 50 128 14 14 (1254400)
I0107 16:28:27.626044  8329 layer_factory.hpp:74] Creating layer inception_4c/relu_3x3_reduce
I0107 16:28:27.626055  8329 net.cpp:84] Creating Layer inception_4c/relu_3x3_reduce
I0107 16:28:27.626060  8329 net.cpp:380] inception_4c/relu_3x3_reduce <- inception_4c/3x3_reduce
I0107 16:28:27.626067  8329 net.cpp:327] inception_4c/relu_3x3_reduce -> inception_4c/3x3_reduce (in-place)
I0107 16:28:27.626076  8329 net.cpp:113] Setting up inception_4c/relu_3x3_reduce
I0107 16:28:27.626147  8329 net.cpp:120] Top shape: 50 128 14 14 (1254400)
I0107 16:28:27.626154  8329 layer_factory.hpp:74] Creating layer inception_4c/3x3
I0107 16:28:27.626165  8329 net.cpp:84] Creating Layer inception_4c/3x3
I0107 16:28:27.626170  8329 net.cpp:380] inception_4c/3x3 <- inception_4c/3x3_reduce
I0107 16:28:27.626179  8329 net.cpp:338] inception_4c/3x3 -> inception_4c/3x3
I0107 16:28:27.626188  8329 net.cpp:113] Setting up inception_4c/3x3
I0107 16:28:27.629853  8329 net.cpp:120] Top shape: 50 256 14 14 (2508800)
I0107 16:28:27.629880  8329 layer_factory.hpp:74] Creating layer inception_4c/relu_3x3
I0107 16:28:27.629889  8329 net.cpp:84] Creating Layer inception_4c/relu_3x3
I0107 16:28:27.629896  8329 net.cpp:380] inception_4c/relu_3x3 <- inception_4c/3x3
I0107 16:28:27.629904  8329 net.cpp:327] inception_4c/relu_3x3 -> inception_4c/3x3 (in-place)
I0107 16:28:27.629912  8329 net.cpp:113] Setting up inception_4c/relu_3x3
I0107 16:28:27.629983  8329 net.cpp:120] Top shape: 50 256 14 14 (2508800)
I0107 16:28:27.629989  8329 layer_factory.hpp:74] Creating layer inception_4c/5x5_reduce
I0107 16:28:27.630000  8329 net.cpp:84] Creating Layer inception_4c/5x5_reduce
I0107 16:28:27.630005  8329 net.cpp:380] inception_4c/5x5_reduce <- inception_4b/output_inception_4b/output_0_split_2
I0107 16:28:27.630015  8329 net.cpp:338] inception_4c/5x5_reduce -> inception_4c/5x5_reduce
I0107 16:28:27.630024  8329 net.cpp:113] Setting up inception_4c/5x5_reduce
I0107 16:28:27.630548  8329 net.cpp:120] Top shape: 50 24 14 14 (235200)
I0107 16:28:27.630563  8329 layer_factory.hpp:74] Creating layer inception_4c/relu_5x5_reduce
I0107 16:28:27.630571  8329 net.cpp:84] Creating Layer inception_4c/relu_5x5_reduce
I0107 16:28:27.630576  8329 net.cpp:380] inception_4c/relu_5x5_reduce <- inception_4c/5x5_reduce
I0107 16:28:27.630585  8329 net.cpp:327] inception_4c/relu_5x5_reduce -> inception_4c/5x5_reduce (in-place)
I0107 16:28:27.630594  8329 net.cpp:113] Setting up inception_4c/relu_5x5_reduce
I0107 16:28:27.630823  8329 net.cpp:120] Top shape: 50 24 14 14 (235200)
I0107 16:28:27.630836  8329 layer_factory.hpp:74] Creating layer inception_4c/5x5
I0107 16:28:27.630844  8329 net.cpp:84] Creating Layer inception_4c/5x5
I0107 16:28:27.630853  8329 net.cpp:380] inception_4c/5x5 <- inception_4c/5x5_reduce
I0107 16:28:27.630861  8329 net.cpp:338] inception_4c/5x5 -> inception_4c/5x5
I0107 16:28:27.630869  8329 net.cpp:113] Setting up inception_4c/5x5
I0107 16:28:27.631688  8329 net.cpp:120] Top shape: 50 64 14 14 (627200)
I0107 16:28:27.631702  8329 layer_factory.hpp:74] Creating layer inception_4c/relu_5x5
I0107 16:28:27.631711  8329 net.cpp:84] Creating Layer inception_4c/relu_5x5
I0107 16:28:27.631716  8329 net.cpp:380] inception_4c/relu_5x5 <- inception_4c/5x5
I0107 16:28:27.631722  8329 net.cpp:327] inception_4c/relu_5x5 -> inception_4c/5x5 (in-place)
I0107 16:28:27.631736  8329 net.cpp:113] Setting up inception_4c/relu_5x5
I0107 16:28:27.631816  8329 net.cpp:120] Top shape: 50 64 14 14 (627200)
I0107 16:28:27.631824  8329 layer_factory.hpp:74] Creating layer inception_4c/pool
I0107 16:28:27.631829  8329 layer_factory.cpp:56] CUDNN does not support padding or multiple tops. Using Caffe's own pooling layer.
I0107 16:28:27.631837  8329 net.cpp:84] Creating Layer inception_4c/pool
I0107 16:28:27.631842  8329 net.cpp:380] inception_4c/pool <- inception_4b/output_inception_4b/output_0_split_3
I0107 16:28:27.631850  8329 net.cpp:338] inception_4c/pool -> inception_4c/pool
I0107 16:28:27.631857  8329 net.cpp:113] Setting up inception_4c/pool
I0107 16:28:27.631865  8329 net.cpp:120] Top shape: 50 512 14 14 (5017600)
I0107 16:28:27.631870  8329 layer_factory.hpp:74] Creating layer inception_4c/pool_proj
I0107 16:28:27.631880  8329 net.cpp:84] Creating Layer inception_4c/pool_proj
I0107 16:28:27.631886  8329 net.cpp:380] inception_4c/pool_proj <- inception_4c/pool
I0107 16:28:27.631893  8329 net.cpp:338] inception_4c/pool_proj -> inception_4c/pool_proj
I0107 16:28:27.631901  8329 net.cpp:113] Setting up inception_4c/pool_proj
I0107 16:28:27.632663  8329 net.cpp:120] Top shape: 50 64 14 14 (627200)
I0107 16:28:27.632679  8329 layer_factory.hpp:74] Creating layer inception_4c/relu_pool_proj
I0107 16:28:27.632686  8329 net.cpp:84] Creating Layer inception_4c/relu_pool_proj
I0107 16:28:27.632693  8329 net.cpp:380] inception_4c/relu_pool_proj <- inception_4c/pool_proj
I0107 16:28:27.632701  8329 net.cpp:327] inception_4c/relu_pool_proj -> inception_4c/pool_proj (in-place)
I0107 16:28:27.632709  8329 net.cpp:113] Setting up inception_4c/relu_pool_proj
I0107 16:28:27.632779  8329 net.cpp:120] Top shape: 50 64 14 14 (627200)
I0107 16:28:27.632786  8329 layer_factory.hpp:74] Creating layer inception_4c/output
I0107 16:28:27.632792  8329 net.cpp:84] Creating Layer inception_4c/output
I0107 16:28:27.632798  8329 net.cpp:380] inception_4c/output <- inception_4c/1x1
I0107 16:28:27.632804  8329 net.cpp:380] inception_4c/output <- inception_4c/3x3
I0107 16:28:27.632810  8329 net.cpp:380] inception_4c/output <- inception_4c/5x5
I0107 16:28:27.632815  8329 net.cpp:380] inception_4c/output <- inception_4c/pool_proj
I0107 16:28:27.632823  8329 net.cpp:338] inception_4c/output -> inception_4c/output
I0107 16:28:27.632832  8329 net.cpp:113] Setting up inception_4c/output
I0107 16:28:27.632838  8329 net.cpp:120] Top shape: 50 512 14 14 (5017600)
I0107 16:28:27.632843  8329 layer_factory.hpp:74] Creating layer inception_4c/output_inception_4c/output_0_split
I0107 16:28:27.632850  8329 net.cpp:84] Creating Layer inception_4c/output_inception_4c/output_0_split
I0107 16:28:27.632854  8329 net.cpp:380] inception_4c/output_inception_4c/output_0_split <- inception_4c/output
I0107 16:28:27.632861  8329 net.cpp:338] inception_4c/output_inception_4c/output_0_split -> inception_4c/output_inception_4c/output_0_split_0
I0107 16:28:27.632870  8329 net.cpp:338] inception_4c/output_inception_4c/output_0_split -> inception_4c/output_inception_4c/output_0_split_1
I0107 16:28:27.632879  8329 net.cpp:338] inception_4c/output_inception_4c/output_0_split -> inception_4c/output_inception_4c/output_0_split_2
I0107 16:28:27.632885  8329 net.cpp:338] inception_4c/output_inception_4c/output_0_split -> inception_4c/output_inception_4c/output_0_split_3
I0107 16:28:27.632891  8329 net.cpp:113] Setting up inception_4c/output_inception_4c/output_0_split
I0107 16:28:27.632899  8329 net.cpp:120] Top shape: 50 512 14 14 (5017600)
I0107 16:28:27.632905  8329 net.cpp:120] Top shape: 50 512 14 14 (5017600)
I0107 16:28:27.632910  8329 net.cpp:120] Top shape: 50 512 14 14 (5017600)
I0107 16:28:27.632915  8329 net.cpp:120] Top shape: 50 512 14 14 (5017600)
I0107 16:28:27.632920  8329 layer_factory.hpp:74] Creating layer inception_4d/1x1
I0107 16:28:27.632928  8329 net.cpp:84] Creating Layer inception_4d/1x1
I0107 16:28:27.632933  8329 net.cpp:380] inception_4d/1x1 <- inception_4c/output_inception_4c/output_0_split_0
I0107 16:28:27.632946  8329 net.cpp:338] inception_4d/1x1 -> inception_4d/1x1
I0107 16:28:27.632961  8329 net.cpp:113] Setting up inception_4d/1x1
I0107 16:28:27.634263  8329 net.cpp:120] Top shape: 50 112 14 14 (1097600)
I0107 16:28:27.634309  8329 layer_factory.hpp:74] Creating layer inception_4d/relu_1x1
I0107 16:28:27.634325  8329 net.cpp:84] Creating Layer inception_4d/relu_1x1
I0107 16:28:27.634338  8329 net.cpp:380] inception_4d/relu_1x1 <- inception_4d/1x1
I0107 16:28:27.634356  8329 net.cpp:327] inception_4d/relu_1x1 -> inception_4d/1x1 (in-place)
I0107 16:28:27.634372  8329 net.cpp:113] Setting up inception_4d/relu_1x1
I0107 16:28:27.634490  8329 net.cpp:120] Top shape: 50 112 14 14 (1097600)
I0107 16:28:27.634500  8329 layer_factory.hpp:74] Creating layer inception_4d/3x3_reduce
I0107 16:28:27.634521  8329 net.cpp:84] Creating Layer inception_4d/3x3_reduce
I0107 16:28:27.634531  8329 net.cpp:380] inception_4d/3x3_reduce <- inception_4c/output_inception_4c/output_0_split_1
I0107 16:28:27.634543  8329 net.cpp:338] inception_4d/3x3_reduce -> inception_4d/3x3_reduce
I0107 16:28:27.634560  8329 net.cpp:113] Setting up inception_4d/3x3_reduce
I0107 16:28:27.636602  8329 net.cpp:120] Top shape: 50 144 14 14 (1411200)
I0107 16:28:27.636627  8329 layer_factory.hpp:74] Creating layer inception_4d/relu_3x3_reduce
I0107 16:28:27.636639  8329 net.cpp:84] Creating Layer inception_4d/relu_3x3_reduce
I0107 16:28:27.636649  8329 net.cpp:380] inception_4d/relu_3x3_reduce <- inception_4d/3x3_reduce
I0107 16:28:27.636663  8329 net.cpp:327] inception_4d/relu_3x3_reduce -> inception_4d/3x3_reduce (in-place)
I0107 16:28:27.636677  8329 net.cpp:113] Setting up inception_4d/relu_3x3_reduce
I0107 16:28:27.637027  8329 net.cpp:120] Top shape: 50 144 14 14 (1411200)
I0107 16:28:27.637043  8329 layer_factory.hpp:74] Creating layer inception_4d/3x3
I0107 16:28:27.637060  8329 net.cpp:84] Creating Layer inception_4d/3x3
I0107 16:28:27.637070  8329 net.cpp:380] inception_4d/3x3 <- inception_4d/3x3_reduce
I0107 16:28:27.637085  8329 net.cpp:338] inception_4d/3x3 -> inception_4d/3x3
I0107 16:28:27.637100  8329 net.cpp:113] Setting up inception_4d/3x3
I0107 16:28:27.644358  8329 net.cpp:120] Top shape: 50 288 14 14 (2822400)
I0107 16:28:27.644384  8329 layer_factory.hpp:74] Creating layer inception_4d/relu_3x3
I0107 16:28:27.644397  8329 net.cpp:84] Creating Layer inception_4d/relu_3x3
I0107 16:28:27.644405  8329 net.cpp:380] inception_4d/relu_3x3 <- inception_4d/3x3
I0107 16:28:27.644417  8329 net.cpp:327] inception_4d/relu_3x3 -> inception_4d/3x3 (in-place)
I0107 16:28:27.644428  8329 net.cpp:113] Setting up inception_4d/relu_3x3
I0107 16:28:27.644536  8329 net.cpp:120] Top shape: 50 288 14 14 (2822400)
I0107 16:28:27.644546  8329 layer_factory.hpp:74] Creating layer inception_4d/5x5_reduce
I0107 16:28:27.644558  8329 net.cpp:84] Creating Layer inception_4d/5x5_reduce
I0107 16:28:27.644567  8329 net.cpp:380] inception_4d/5x5_reduce <- inception_4c/output_inception_4c/output_0_split_2
I0107 16:28:27.644582  8329 net.cpp:338] inception_4d/5x5_reduce -> inception_4d/5x5_reduce
I0107 16:28:27.644595  8329 net.cpp:113] Setting up inception_4d/5x5_reduce
I0107 16:28:27.645520  8329 net.cpp:120] Top shape: 50 32 14 14 (313600)
I0107 16:28:27.645546  8329 layer_factory.hpp:74] Creating layer inception_4d/relu_5x5_reduce
I0107 16:28:27.645557  8329 net.cpp:84] Creating Layer inception_4d/relu_5x5_reduce
I0107 16:28:27.645566  8329 net.cpp:380] inception_4d/relu_5x5_reduce <- inception_4d/5x5_reduce
I0107 16:28:27.645577  8329 net.cpp:327] inception_4d/relu_5x5_reduce -> inception_4d/5x5_reduce (in-place)
I0107 16:28:27.645591  8329 net.cpp:113] Setting up inception_4d/relu_5x5_reduce
I0107 16:28:27.645699  8329 net.cpp:120] Top shape: 50 32 14 14 (313600)
I0107 16:28:27.645709  8329 layer_factory.hpp:74] Creating layer inception_4d/5x5
I0107 16:28:27.645723  8329 net.cpp:84] Creating Layer inception_4d/5x5
I0107 16:28:27.645731  8329 net.cpp:380] inception_4d/5x5 <- inception_4d/5x5_reduce
I0107 16:28:27.645743  8329 net.cpp:338] inception_4d/5x5 -> inception_4d/5x5
I0107 16:28:27.645767  8329 net.cpp:113] Setting up inception_4d/5x5
I0107 16:28:27.647265  8329 net.cpp:120] Top shape: 50 64 14 14 (627200)
I0107 16:28:27.647287  8329 layer_factory.hpp:74] Creating layer inception_4d/relu_5x5
I0107 16:28:27.647297  8329 net.cpp:84] Creating Layer inception_4d/relu_5x5
I0107 16:28:27.647306  8329 net.cpp:380] inception_4d/relu_5x5 <- inception_4d/5x5
I0107 16:28:27.647317  8329 net.cpp:327] inception_4d/relu_5x5 -> inception_4d/5x5 (in-place)
I0107 16:28:27.647330  8329 net.cpp:113] Setting up inception_4d/relu_5x5
I0107 16:28:27.647438  8329 net.cpp:120] Top shape: 50 64 14 14 (627200)
I0107 16:28:27.647447  8329 layer_factory.hpp:74] Creating layer inception_4d/pool
I0107 16:28:27.647456  8329 layer_factory.cpp:56] CUDNN does not support padding or multiple tops. Using Caffe's own pooling layer.
I0107 16:28:27.647465  8329 net.cpp:84] Creating Layer inception_4d/pool
I0107 16:28:27.647475  8329 net.cpp:380] inception_4d/pool <- inception_4c/output_inception_4c/output_0_split_3
I0107 16:28:27.647487  8329 net.cpp:338] inception_4d/pool -> inception_4d/pool
I0107 16:28:27.647500  8329 net.cpp:113] Setting up inception_4d/pool
I0107 16:28:27.647514  8329 net.cpp:120] Top shape: 50 512 14 14 (5017600)
I0107 16:28:27.647521  8329 layer_factory.hpp:74] Creating layer inception_4d/pool_proj
I0107 16:28:27.647533  8329 net.cpp:84] Creating Layer inception_4d/pool_proj
I0107 16:28:27.647541  8329 net.cpp:380] inception_4d/pool_proj <- inception_4d/pool
I0107 16:28:27.647554  8329 net.cpp:338] inception_4d/pool_proj -> inception_4d/pool_proj
I0107 16:28:27.647567  8329 net.cpp:113] Setting up inception_4d/pool_proj
I0107 16:28:27.648708  8329 net.cpp:120] Top shape: 50 64 14 14 (627200)
I0107 16:28:27.648730  8329 layer_factory.hpp:74] Creating layer inception_4d/relu_pool_proj
I0107 16:28:27.648741  8329 net.cpp:84] Creating Layer inception_4d/relu_pool_proj
I0107 16:28:27.648751  8329 net.cpp:380] inception_4d/relu_pool_proj <- inception_4d/pool_proj
I0107 16:28:27.648761  8329 net.cpp:327] inception_4d/relu_pool_proj -> inception_4d/pool_proj (in-place)
I0107 16:28:27.648773  8329 net.cpp:113] Setting up inception_4d/relu_pool_proj
I0107 16:28:27.649096  8329 net.cpp:120] Top shape: 50 64 14 14 (627200)
I0107 16:28:27.649112  8329 layer_factory.hpp:74] Creating layer inception_4d/output
I0107 16:28:27.649126  8329 net.cpp:84] Creating Layer inception_4d/output
I0107 16:28:27.649134  8329 net.cpp:380] inception_4d/output <- inception_4d/1x1
I0107 16:28:27.649145  8329 net.cpp:380] inception_4d/output <- inception_4d/3x3
I0107 16:28:27.649154  8329 net.cpp:380] inception_4d/output <- inception_4d/5x5
I0107 16:28:27.649163  8329 net.cpp:380] inception_4d/output <- inception_4d/pool_proj
I0107 16:28:27.649173  8329 net.cpp:338] inception_4d/output -> inception_4d/output
I0107 16:28:27.649185  8329 net.cpp:113] Setting up inception_4d/output
I0107 16:28:27.649197  8329 net.cpp:120] Top shape: 50 528 14 14 (5174400)
I0107 16:28:27.649205  8329 layer_factory.hpp:74] Creating layer inception_4d/output_inception_4d/output_0_split
I0107 16:28:27.649219  8329 net.cpp:84] Creating Layer inception_4d/output_inception_4d/output_0_split
I0107 16:28:27.649226  8329 net.cpp:380] inception_4d/output_inception_4d/output_0_split <- inception_4d/output
I0107 16:28:27.649236  8329 net.cpp:338] inception_4d/output_inception_4d/output_0_split -> inception_4d/output_inception_4d/output_0_split_0
I0107 16:28:27.649250  8329 net.cpp:338] inception_4d/output_inception_4d/output_0_split -> inception_4d/output_inception_4d/output_0_split_1
I0107 16:28:27.649266  8329 net.cpp:338] inception_4d/output_inception_4d/output_0_split -> inception_4d/output_inception_4d/output_0_split_2
I0107 16:28:27.649276  8329 net.cpp:338] inception_4d/output_inception_4d/output_0_split -> inception_4d/output_inception_4d/output_0_split_3
I0107 16:28:27.649287  8329 net.cpp:338] inception_4d/output_inception_4d/output_0_split -> inception_4d/output_inception_4d/output_0_split_4
I0107 16:28:27.649298  8329 net.cpp:113] Setting up inception_4d/output_inception_4d/output_0_split
I0107 16:28:27.649327  8329 net.cpp:120] Top shape: 50 528 14 14 (5174400)
I0107 16:28:27.649335  8329 net.cpp:120] Top shape: 50 528 14 14 (5174400)
I0107 16:28:27.649343  8329 net.cpp:120] Top shape: 50 528 14 14 (5174400)
I0107 16:28:27.649351  8329 net.cpp:120] Top shape: 50 528 14 14 (5174400)
I0107 16:28:27.649359  8329 net.cpp:120] Top shape: 50 528 14 14 (5174400)
I0107 16:28:27.649366  8329 layer_factory.hpp:74] Creating layer loss2/ave_pool
I0107 16:28:27.649379  8329 net.cpp:84] Creating Layer loss2/ave_pool
I0107 16:28:27.649387  8329 net.cpp:380] loss2/ave_pool <- inception_4d/output_inception_4d/output_0_split_0
I0107 16:28:27.649422  8329 net.cpp:338] loss2/ave_pool -> loss2/ave_pool
I0107 16:28:27.649436  8329 net.cpp:113] Setting up loss2/ave_pool
I0107 16:28:27.649565  8329 net.cpp:120] Top shape: 50 528 4 4 (422400)
I0107 16:28:27.649577  8329 layer_factory.hpp:74] Creating layer loss2/conv
I0107 16:28:27.649592  8329 net.cpp:84] Creating Layer loss2/conv
I0107 16:28:27.649601  8329 net.cpp:380] loss2/conv <- loss2/ave_pool
I0107 16:28:27.649616  8329 net.cpp:338] loss2/conv -> loss2/conv
I0107 16:28:27.649629  8329 net.cpp:113] Setting up loss2/conv
I0107 16:28:27.651312  8329 net.cpp:120] Top shape: 50 128 4 4 (102400)
I0107 16:28:27.651334  8329 layer_factory.hpp:74] Creating layer loss2/relu_conv
I0107 16:28:27.651345  8329 net.cpp:84] Creating Layer loss2/relu_conv
I0107 16:28:27.651352  8329 net.cpp:380] loss2/relu_conv <- loss2/conv
I0107 16:28:27.651365  8329 net.cpp:327] loss2/relu_conv -> loss2/conv (in-place)
I0107 16:28:27.651376  8329 net.cpp:113] Setting up loss2/relu_conv
I0107 16:28:27.651475  8329 net.cpp:120] Top shape: 50 128 4 4 (102400)
I0107 16:28:27.651484  8329 layer_factory.hpp:74] Creating layer loss2/fc
I0107 16:28:27.651499  8329 net.cpp:84] Creating Layer loss2/fc
I0107 16:28:27.651506  8329 net.cpp:380] loss2/fc <- loss2/conv
I0107 16:28:27.651516  8329 net.cpp:338] loss2/fc -> loss2/fc
I0107 16:28:27.651530  8329 net.cpp:113] Setting up loss2/fc
I0107 16:28:27.683930  8329 net.cpp:120] Top shape: 50 1024 (51200)
I0107 16:28:27.683976  8329 layer_factory.hpp:74] Creating layer loss2/relu_fc
I0107 16:28:27.683995  8329 net.cpp:84] Creating Layer loss2/relu_fc
I0107 16:28:27.684007  8329 net.cpp:380] loss2/relu_fc <- loss2/fc
I0107 16:28:27.684021  8329 net.cpp:327] loss2/relu_fc -> loss2/fc (in-place)
I0107 16:28:27.684044  8329 net.cpp:113] Setting up loss2/relu_fc
I0107 16:28:27.684219  8329 net.cpp:120] Top shape: 50 1024 (51200)
I0107 16:28:27.684232  8329 layer_factory.hpp:74] Creating layer loss2/drop_fc
I0107 16:28:27.684248  8329 net.cpp:84] Creating Layer loss2/drop_fc
I0107 16:28:27.684258  8329 net.cpp:380] loss2/drop_fc <- loss2/fc
I0107 16:28:27.684270  8329 net.cpp:327] loss2/drop_fc -> loss2/fc (in-place)
I0107 16:28:27.684284  8329 net.cpp:113] Setting up loss2/drop_fc
I0107 16:28:27.684299  8329 net.cpp:120] Top shape: 50 1024 (51200)
I0107 16:28:27.684309  8329 layer_factory.hpp:74] Creating layer loss2/classifier_kaggle
I0107 16:28:27.684324  8329 net.cpp:84] Creating Layer loss2/classifier_kaggle
I0107 16:28:27.684332  8329 net.cpp:380] loss2/classifier_kaggle <- loss2/fc
I0107 16:28:27.684348  8329 net.cpp:338] loss2/classifier_kaggle -> loss2/classifier_kaggle
I0107 16:28:27.684365  8329 net.cpp:113] Setting up loss2/classifier_kaggle
I0107 16:28:27.693949  8329 net.cpp:120] Top shape: 50 447 (22350)
I0107 16:28:27.693975  8329 layer_factory.hpp:74] Creating layer loss2/classifier_kaggle_loss2/classifier_kaggle_0_split
I0107 16:28:27.693992  8329 net.cpp:84] Creating Layer loss2/classifier_kaggle_loss2/classifier_kaggle_0_split
I0107 16:28:27.694003  8329 net.cpp:380] loss2/classifier_kaggle_loss2/classifier_kaggle_0_split <- loss2/classifier_kaggle
I0107 16:28:27.694016  8329 net.cpp:338] loss2/classifier_kaggle_loss2/classifier_kaggle_0_split -> loss2/classifier_kaggle_loss2/classifier_kaggle_0_split_0
I0107 16:28:27.694032  8329 net.cpp:338] loss2/classifier_kaggle_loss2/classifier_kaggle_0_split -> loss2/classifier_kaggle_loss2/classifier_kaggle_0_split_1
I0107 16:28:27.694072  8329 net.cpp:338] loss2/classifier_kaggle_loss2/classifier_kaggle_0_split -> loss2/classifier_kaggle_loss2/classifier_kaggle_0_split_2
I0107 16:28:27.694085  8329 net.cpp:113] Setting up loss2/classifier_kaggle_loss2/classifier_kaggle_0_split
I0107 16:28:27.694104  8329 net.cpp:120] Top shape: 50 447 (22350)
I0107 16:28:27.694114  8329 net.cpp:120] Top shape: 50 447 (22350)
I0107 16:28:27.694123  8329 net.cpp:120] Top shape: 50 447 (22350)
I0107 16:28:27.694131  8329 layer_factory.hpp:74] Creating layer loss2/loss
I0107 16:28:27.694144  8329 net.cpp:84] Creating Layer loss2/loss
I0107 16:28:27.694152  8329 net.cpp:380] loss2/loss <- loss2/classifier_kaggle_loss2/classifier_kaggle_0_split_0
I0107 16:28:27.694164  8329 net.cpp:380] loss2/loss <- label_data_1_split_3
I0107 16:28:27.694176  8329 net.cpp:338] loss2/loss -> loss2/loss1
…
I0107 16:28:27.694931  8329 net.cpp:338] loss2/top-5 -> loss2/top-5
I0107 16:28:27.694944  8329 net.cpp:113] Setting up loss2/top-5
I0107 16:28:27.694955  8329 net.cpp:120] Top shape: (1)
I0107 16:28:27.694963  8329 layer_factory.hpp:74] Creating layer inception_4e/1x1
I0107 16:28:27.694980  8329 net.cpp:84] Creating Layer inception_4e/1x1
I0107 16:28:27.694990  8329 net.cpp:380] inception_4e/1x1 <- inception_4d/output_inception_4d/output_0_split_1
I0107 16:28:27.695003  8329 net.cpp:338] inception_4e/1x1 -> inception_4e/1x1
I0107 16:28:27.695018  8329 net.cpp:113] Setting up inception_4e/1x1
I0107 16:28:27.698323  8329 net.cpp:120] Top shape: 50 256 14 14 (2508800)
I0107 16:28:27.698351  8329 layer_factory.hpp:74] Creating layer inception_4e/relu_1x1
I0107 16:28:27.698365  8329 net.cpp:84] Creating Layer inception_4e/relu_1x1
I0107 16:28:27.698375  8329 net.cpp:380] inception_4e/relu_1x1 <- inception_4e/1x1
I0107 16:28:27.698390  8329 net.cpp:327] inception_4e/relu_1x1 -> inception_4e/1x1 (in-place)
I0107 16:28:27.698403  8329 net.cpp:113] Setting up inception_4e/relu_1x1
I0107 16:28:27.698530  8329 net.cpp:120] Top shape: 50 256 14 14 (2508800)
I0107 16:28:27.698541  8329 layer_factory.hpp:74] Creating layer inception_4e/3x3_reduce
I0107 16:28:27.698585  8329 net.cpp:84] Creating Layer inception_4e/3x3_reduce
I0107 16:28:27.698596  8329 net.cpp:380] inception_4e/3x3_reduce <- inception_4d/output_inception_4d/output_0_split_2
I0107 16:28:27.698611  8329 net.cpp:338] inception_4e/3x3_reduce -> inception_4e/3x3_reduce
I0107 16:28:27.698626  8329 net.cpp:113] Setting up inception_4e/3x3_reduce
I0107 16:28:27.700906  8329 net.cpp:120] Top shape: 50 160 14 14 (1568000)
I0107 16:28:27.700932  8329 layer_factory.hpp:74] Creating layer inception_4e/relu_3x3_reduce
I0107 16:28:27.700944  8329 net.cpp:84] Creating Layer inception_4e/relu_3x3_reduce
I0107 16:28:27.700954  8329 net.cpp:380] inception_4e/relu_3x3_reduce <- inception_4e/3x3_reduce
I0107 16:28:27.700969  8329 net.cpp:327] inception_4e/relu_3x3_reduce -> inception_4e/3x3_reduce (in-place)
I0107 16:28:27.700990  8329 net.cpp:113] Setting up inception_4e/relu_3x3_reduce
I0107 16:28:27.701128  8329 net.cpp:120] Top shape: 50 160 14 14 (1568000)
I0107 16:28:27.701139  8329 layer_factory.hpp:74] Creating layer inception_4e/3x3
I0107 16:28:27.701153  8329 net.cpp:84] Creating Layer inception_4e/3x3
I0107 16:28:27.701165  8329 net.cpp:380] inception_4e/3x3 <- inception_4e/3x3_reduce
I0107 16:28:27.701181  8329 net.cpp:338] inception_4e/3x3 -> inception_4e/3x3
I0107 16:28:27.701196  8329 net.cpp:113] Setting up inception_4e/3x3
I0107 16:28:27.712352  8329 net.cpp:120] Top shape: 50 320 14 14 (3136000)
I0107 16:28:27.712410  8329 layer_factory.hpp:74] Creating layer inception_4e/relu_3x3
I0107 16:28:27.712431  8329 net.cpp:84] Creating Layer inception_4e/relu_3x3
I0107 16:28:27.712445  8329 net.cpp:380] inception_4e/relu_3x3 <- inception_4e/3x3
I0107 16:28:27.712461  8329 net.cpp:327] inception_4e/relu_3x3 -> inception_4e/3x3 (in-place)
I0107 16:28:27.712481  8329 net.cpp:113] Setting up inception_4e/relu_3x3
I0107 16:28:27.712887  8329 net.cpp:120] Top shape: 50 320 14 14 (3136000)
I0107 16:28:27.712904  8329 layer_factory.hpp:74] Creating layer inception_4e/5x5_reduce
I0107 16:28:27.712923  8329 net.cpp:84] Creating Layer inception_4e/5x5_reduce
I0107 16:28:27.712934  8329 net.cpp:380] inception_4e/5x5_reduce <- inception_4d/output_inception_4d/output_0_split_3
I0107 16:28:27.712947  8329 net.cpp:338] inception_4e/5x5_reduce -> inception_4e/5x5_reduce
I0107 16:28:27.712965  8329 net.cpp:113] Setting up inception_4e/5x5_reduce
I0107 16:28:27.713907  8329 net.cpp:120] Top shape: 50 32 14 14 (313600)
I0107 16:28:27.713932  8329 layer_factory.hpp:74] Creating layer inception_4e/relu_5x5_reduce
I0107 16:28:27.713944  8329 net.cpp:84] Creating Layer inception_4e/relu_5x5_reduce
I0107 16:28:27.713954  8329 net.cpp:380] inception_4e/relu_5x5_reduce <- inception_4e/5x5_reduce
I0107 16:28:27.713966  8329 net.cpp:327] inception_4e/relu_5x5_reduce -> inception_4e/5x5_reduce (in-place)
I0107 16:28:27.713979  8329 net.cpp:113] Setting up inception_4e/relu_5x5_reduce
I0107 16:28:27.714097  8329 net.cpp:120] Top shape: 50 32 14 14 (313600)
I0107 16:28:27.714108  8329 layer_factory.hpp:74] Creating layer inception_4e/5x5
I0107 16:28:27.714125  8329 net.cpp:84] Creating Layer inception_4e/5x5
I0107 16:28:27.714134  8329 net.cpp:380] inception_4e/5x5 <- inception_4e/5x5_reduce
I0107 16:28:27.714148  8329 net.cpp:338] inception_4e/5x5 -> inception_4e/5x5
I0107 16:28:27.714161  8329 net.cpp:113] Setting up inception_4e/5x5
I0107 16:28:27.716647  8329 net.cpp:120] Top shape: 50 128 14 14 (1254400)
I0107 16:28:27.716671  8329 layer_factory.hpp:74] Creating layer inception_4e/relu_5x5
I0107 16:28:27.716687  8329 net.cpp:84] Creating Layer inception_4e/relu_5x5
I0107 16:28:27.716697  8329 net.cpp:380] inception_4e/relu_5x5 <- inception_4e/5x5
I0107 16:28:27.716708  8329 net.cpp:327] inception_4e/relu_5x5 -> inception_4e/5x5 (in-place)
I0107 16:28:27.716722  8329 net.cpp:113] Setting up inception_4e/relu_5x5
I0107 16:28:27.716833  8329 net.cpp:120] Top shape: 50 128 14 14 (1254400)
I0107 16:28:27.716843  8329 layer_factory.hpp:74] Creating layer inception_4e/pool
I0107 16:28:27.716853  8329 layer_factory.cpp:56] CUDNN does not support padding or multiple tops. Using Caffe's own pooling layer.
I0107 16:28:27.716871  8329 net.cpp:84] Creating Layer inception_4e/pool
I0107 16:28:27.716886  8329 net.cpp:380] inception_4e/pool <- inception_4d/output_inception_4d/output_0_split_4
I0107 16:28:27.716897  8329 net.cpp:338] inception_4e/pool -> inception_4e/pool
I0107 16:28:27.716910  8329 net.cpp:113] Setting up inception_4e/pool
I0107 16:28:27.716925  8329 net.cpp:120] Top shape: 50 528 14 14 (5174400)
I0107 16:28:27.716933  8329 layer_factory.hpp:74] Creating layer inception_4e/pool_proj
I0107 16:28:27.716948  8329 net.cpp:84] Creating Layer inception_4e/pool_proj
I0107 16:28:27.716958  8329 net.cpp:380] inception_4e/pool_proj <- inception_4e/pool
I0107 16:28:27.716969  8329 net.cpp:338] inception_4e/pool_proj -> inception_4e/pool_proj
I0107 16:28:27.717000  8329 net.cpp:113] Setting up inception_4e/pool_proj
I0107 16:28:27.718835  8329 net.cpp:120] Top shape: 50 128 14 14 (1254400)
I0107 16:28:27.718864  8329 layer_factory.hpp:74] Creating layer inception_4e/relu_pool_proj
I0107 16:28:27.718884  8329 net.cpp:84] Creating Layer inception_4e/relu_pool_proj
I0107 16:28:27.718894  8329 net.cpp:380] inception_4e/relu_pool_proj <- inception_4e/pool_proj
I0107 16:28:27.718906  8329 net.cpp:327] inception_4e/relu_pool_proj -> inception_4e/pool_proj (in-place)
I0107 16:28:27.718919  8329 net.cpp:113] Setting up inception_4e/relu_pool_proj
I0107 16:28:27.719034  8329 net.cpp:120] Top shape: 50 128 14 14 (1254400)
I0107 16:28:27.719044  8329 layer_factory.hpp:74] Creating layer inception_4e/output
I0107 16:28:27.719055  8329 net.cpp:84] Creating Layer inception_4e/output
I0107 16:28:27.719063  8329 net.cpp:380] inception_4e/output <- inception_4e/1x1
I0107 16:28:27.719072  8329 net.cpp:380] inception_4e/output <- inception_4e/3x3
I0107 16:28:27.719082  8329 net.cpp:380] inception_4e/output <- inception_4e/5x5
I0107 16:28:27.719091  8329 net.cpp:380] inception_4e/output <- inception_4e/pool_proj
I0107 16:28:27.719104  8329 net.cpp:338] inception_4e/output -> inception_4e/output
I0107 16:28:27.719115  8329 net.cpp:113] Setting up inception_4e/output
I0107 16:28:27.719127  8329 net.cpp:120] Top shape: 50 832 14 14 (8153600)
I0107 16:28:27.719135  8329 layer_factory.hpp:74] Creating layer pool4/3x3_s2
I0107 16:28:27.719146  8329 net.cpp:84] Creating Layer pool4/3x3_s2
I0107 16:28:27.719153  8329 net.cpp:380] pool4/3x3_s2 <- inception_4e/output
I0107 16:28:27.719166  8329 net.cpp:338] pool4/3x3_s2 -> pool4/3x3_s2
I0107 16:28:27.719178  8329 net.cpp:113] Setting up pool4/3x3_s2
I0107 16:28:27.719513  8329 net.cpp:120] Top shape: 50 832 7 7 (2038400)
I0107 16:28:27.719529  8329 layer_factory.hpp:74] Creating layer pool4/3x3_s2_pool4/3x3_s2_0_split
I0107 16:28:27.719540  8329 net.cpp:84] Creating Layer pool4/3x3_s2_pool4/3x3_s2_0_split
I0107 16:28:27.719548  8329 net.cpp:380] pool4/3x3_s2_pool4/3x3_s2_0_split <- pool4/3x3_s2
I0107 16:28:27.719566  8329 net.cpp:338] pool4/3x3_s2_pool4/3x3_s2_0_split -> pool4/3x3_s2_pool4/3x3_s2_0_split_0
I0107 16:28:27.719579  8329 net.cpp:338] pool4/3x3_s2_pool4/3x3_s2_0_split -> pool4/3x3_s2_pool4/3x3_s2_0_split_1
I0107 16:28:27.719590  8329 net.cpp:338] pool4/3x3_s2_pool4/3x3_s2_0_split -> pool4/3x3_s2_pool4/3x3_s2_0_split_2
I0107 16:28:27.719627  8329 net.cpp:338] pool4/3x3_s2_pool4/3x3_s2_0_split -> pool4/3x3_s2_pool4/3x3_s2_0_split_3
I0107 16:28:27.719638  8329 net.cpp:113] Setting up pool4/3x3_s2_pool4/3x3_s2_0_split
I0107 16:28:27.719651  8329 net.cpp:120] Top shape: 50 832 7 7 (2038400)
I0107 16:28:27.719660  8329 net.cpp:120] Top shape: 50 832 7 7 (2038400)
I0107 16:28:27.719671  8329 net.cpp:120] Top shape: 50 832 7 7 (2038400)
I0107 16:28:27.719681  8329 net.cpp:120] Top shape: 50 832 7 7 (2038400)
I0107 16:28:27.719687  8329 layer_factory.hpp:74] Creating layer inception_5a/1x1
I0107 16:28:27.719701  8329 net.cpp:84] Creating Layer inception_5a/1x1
I0107 16:28:27.719708  8329 net.cpp:380] inception_5a/1x1 <- pool4/3x3_s2_pool4/3x3_s2_0_split_0
I0107 16:28:27.719720  8329 net.cpp:338] inception_5a/1x1 -> inception_5a/1x1
I0107 16:28:27.719732  8329 net.cpp:113] Setting up inception_5a/1x1
I0107 16:28:27.723942  8329 net.cpp:120] Top shape: 50 256 7 7 (627200)
I0107 16:28:27.723965  8329 layer_factory.hpp:74] Creating layer inception_5a/relu_1x1
I0107 16:28:27.723979  8329 net.cpp:84] Creating Layer inception_5a/relu_1x1
I0107 16:28:27.723989  8329 net.cpp:380] inception_5a/relu_1x1 <- inception_5a/1x1
I0107 16:28:27.723999  8329 net.cpp:327] inception_5a/relu_1x1 -> inception_5a/1x1 (in-place)
I0107 16:28:27.724011  8329 net.cpp:113] Setting up inception_5a/relu_1x1
I0107 16:28:27.724118  8329 net.cpp:120] Top shape: 50 256 7 7 (627200)
I0107 16:28:27.724128  8329 layer_factory.hpp:74] Creating layer inception_5a/3x3_reduce
I0107 16:28:27.724143  8329 net.cpp:84] Creating Layer inception_5a/3x3_reduce
I0107 16:28:27.724159  8329 net.cpp:380] inception_5a/3x3_reduce <- pool4/3x3_s2_pool4/3x3_s2_0_split_1
I0107 16:28:27.724189  8329 net.cpp:338] inception_5a/3x3_reduce -> inception_5a/3x3_reduce
I0107 16:28:27.724202  8329 net.cpp:113] Setting up inception_5a/3x3_reduce
I0107 16:28:27.727054  8329 net.cpp:120] Top shape: 50 160 7 7 (392000)
I0107 16:28:27.727077  8329 layer_factory.hpp:74] Creating layer inception_5a/relu_3x3_reduce
I0107 16:28:27.727092  8329 net.cpp:84] Creating Layer inception_5a/relu_3x3_reduce
I0107 16:28:27.727100  8329 net.cpp:380] inception_5a/relu_3x3_reduce <- inception_5a/3x3_reduce
I0107 16:28:27.727111  8329 net.cpp:327] inception_5a/relu_3x3_reduce -> inception_5a/3x3_reduce (in-place)
I0107 16:28:27.727123  8329 net.cpp:113] Setting up inception_5a/relu_3x3_reduce
I0107 16:28:27.727234  8329 net.cpp:120] Top shape: 50 160 7 7 (392000)
I0107 16:28:27.727244  8329 layer_factory.hpp:74] Creating layer inception_5a/3x3
I0107 16:28:27.727257  8329 net.cpp:84] Creating Layer inception_5a/3x3
I0107 16:28:27.727264  8329 net.cpp:380] inception_5a/3x3 <- inception_5a/3x3_reduce
I0107 16:28:27.727277  8329 net.cpp:338] inception_5a/3x3 -> inception_5a/3x3
I0107 16:28:27.727291  8329 net.cpp:113] Setting up inception_5a/3x3
I0107 16:28:27.736846  8329 net.cpp:120] Top shape: 50 320 7 7 (784000)
I0107 16:28:27.736876  8329 layer_factory.hpp:74] Creating layer inception_5a/relu_3x3
I0107 16:28:27.736888  8329 net.cpp:84] Creating Layer inception_5a/relu_3x3
I0107 16:28:27.736904  8329 net.cpp:380] inception_5a/relu_3x3 <- inception_5a/3x3
I0107 16:28:27.736920  8329 net.cpp:327] inception_5a/relu_3x3 -> inception_5a/3x3 (in-place)
I0107 16:28:27.736933  8329 net.cpp:113] Setting up inception_5a/relu_3x3
I0107 16:28:27.737037  8329 net.cpp:120] Top shape: 50 320 7 7 (784000)
I0107 16:28:27.737047  8329 layer_factory.hpp:74] Creating layer inception_5a/5x5_reduce
I0107 16:28:27.737061  8329 net.cpp:84] Creating Layer inception_5a/5x5_reduce
I0107 16:28:27.737071  8329 net.cpp:380] inception_5a/5x5_reduce <- pool4/3x3_s2_pool4/3x3_s2_0_split_2
I0107 16:28:27.737082  8329 net.cpp:338] inception_5a/5x5_reduce -> inception_5a/5x5_reduce
I0107 16:28:27.737094  8329 net.cpp:113] Setting up inception_5a/5x5_reduce
I0107 16:28:27.738098  8329 net.cpp:120] Top shape: 50 32 7 7 (78400)
I0107 16:28:27.738122  8329 layer_factory.hpp:74] Creating layer inception_5a/relu_5x5_reduce
I0107 16:28:27.738133  8329 net.cpp:84] Creating Layer inception_5a/relu_5x5_reduce
I0107 16:28:27.738142  8329 net.cpp:380] inception_5a/relu_5x5_reduce <- inception_5a/5x5_reduce
I0107 16:28:27.738152  8329 net.cpp:327] inception_5a/relu_5x5_reduce -> inception_5a/5x5_reduce (in-place)
I0107 16:28:27.738163  8329 net.cpp:113] Setting up inception_5a/relu_5x5_reduce
I0107 16:28:27.738481  8329 net.cpp:120] Top shape: 50 32 7 7 (78400)
I0107 16:28:27.738495  8329 layer_factory.hpp:74] Creating layer inception_5a/5x5
I0107 16:28:27.738510  8329 net.cpp:84] Creating Layer inception_5a/5x5
I0107 16:28:27.738518  8329 net.cpp:380] inception_5a/5x5 <- inception_5a/5x5_reduce
I0107 16:28:27.738533  8329 net.cpp:338] inception_5a/5x5 -> inception_5a/5x5
I0107 16:28:27.738545  8329 net.cpp:113] Setting up inception_5a/5x5
I0107 16:28:27.740736  8329 net.cpp:120] Top shape: 50 128 7 7 (313600)
I0107 16:28:27.740756  8329 layer_factory.hpp:74] Creating layer inception_5a/relu_5x5
I0107 16:28:27.740767  8329 net.cpp:84] Creating Layer inception_5a/relu_5x5
I0107 16:28:27.740774  8329 net.cpp:380] inception_5a/relu_5x5 <- inception_5a/5x5
I0107 16:28:27.740787  8329 net.cpp:327] inception_5a/relu_5x5 -> inception_5a/5x5 (in-place)
I0107 16:28:27.740798  8329 net.cpp:113] Setting up inception_5a/relu_5x5
I0107 16:28:27.740906  8329 net.cpp:120] Top shape: 50 128 7 7 (313600)
I0107 16:28:27.740916  8329 layer_factory.hpp:74] Creating layer inception_5a/pool
I0107 16:28:27.740924  8329 layer_factory.cpp:56] CUDNN does not support padding or multiple tops. Using Caffe's own pooling layer.
I0107 16:28:27.740933  8329 net.cpp:84] Creating Layer inception_5a/pool
I0107 16:28:27.740948  8329 net.cpp:380] inception_5a/pool <- pool4/3x3_s2_pool4/3x3_s2_0_split_3
I0107 16:28:27.740968  8329 net.cpp:338] inception_5a/pool -> inception_5a/pool
I0107 16:28:27.740980  8329 net.cpp:113] Setting up inception_5a/pool
I0107 16:28:27.740993  8329 net.cpp:120] Top shape: 50 832 7 7 (2038400)
I0107 16:28:27.741000  8329 layer_factory.hpp:74] Creating layer inception_5a/pool_proj
I0107 16:28:27.741014  8329 net.cpp:84] Creating Layer inception_5a/pool_proj
I0107 16:28:27.741022  8329 net.cpp:380] inception_5a/pool_proj <- inception_5a/pool
I0107 16:28:27.741034  8329 net.cpp:338] inception_5a/pool_proj -> inception_5a/pool_proj
I0107 16:28:27.741046  8329 net.cpp:113] Setting up inception_5a/pool_proj
I0107 16:28:27.743245  8329 net.cpp:120] Top shape: 50 128 7 7 (313600)
I0107 16:28:27.743268  8329 layer_factory.hpp:74] Creating layer inception_5a/relu_pool_proj
I0107 16:28:27.743278  8329 net.cpp:84] Creating Layer inception_5a/relu_pool_proj
I0107 16:28:27.743285  8329 net.cpp:380] inception_5a/relu_pool_proj <- inception_5a/pool_proj
I0107 16:28:27.743297  8329 net.cpp:327] inception_5a/relu_pool_proj -> inception_5a/pool_proj (in-place)
I0107 16:28:27.743309  8329 net.cpp:113] Setting up inception_5a/relu_pool_proj
I0107 16:28:27.743402  8329 net.cpp:120] Top shape: 50 128 7 7 (313600)
I0107 16:28:27.743412  8329 layer_factory.hpp:74] Creating layer inception_5a/output
I0107 16:28:27.743420  8329 net.cpp:84] Creating Layer inception_5a/output
I0107 16:28:27.743428  8329 net.cpp:380] inception_5a/output <- inception_5a/1x1
I0107 16:28:27.743439  8329 net.cpp:380] inception_5a/output <- inception_5a/3x3
I0107 16:28:27.743448  8329 net.cpp:380] inception_5a/output <- inception_5a/5x5
I0107 16:28:27.743455  8329 net.cpp:380] inception_5a/output <- inception_5a/pool_proj
I0107 16:28:27.743464  8329 net.cpp:338] inception_5a/output -> inception_5a/output
I0107 16:28:27.743474  8329 net.cpp:113] Setting up inception_5a/output
I0107 16:28:27.743485  8329 net.cpp:120] Top shape: 50 832 7 7 (2038400)
I0107 16:28:27.743491  8329 layer_factory.hpp:74] Creating layer inception_5a/output_inception_5a/output_0_split
I0107 16:28:27.743501  8329 net.cpp:84] Creating Layer inception_5a/output_inception_5a/output_0_split
I0107 16:28:27.743507  8329 net.cpp:380] inception_5a/output_inception_5a/output_0_split <- inception_5a/output
I0107 16:28:27.743520  8329 net.cpp:338] inception_5a/output_inception_5a/output_0_split -> inception_5a/output_inception_5a/output_0_split_0
I0107 16:28:27.743530  8329 net.cpp:338] inception_5a/output_inception_5a/output_0_split -> inception_5a/output_inception_5a/output_0_split_1
I0107 16:28:27.743541  8329 net.cpp:338] inception_5a/output_inception_5a/output_0_split -> inception_5a/output_inception_5a/output_0_split_2
I0107 16:28:27.743551  8329 net.cpp:338] inception_5a/output_inception_5a/output_0_split -> inception_5a/output_inception_5a/output_0_split_3
I0107 16:28:27.743558  8329 net.cpp:113] Setting up inception_5a/output_inception_5a/output_0_split
I0107 16:28:27.743569  8329 net.cpp:120] Top shape: 50 832 7 7 (2038400)
I0107 16:28:27.743577  8329 net.cpp:120] Top shape: 50 832 7 7 (2038400)
I0107 16:28:27.743584  8329 net.cpp:120] Top shape: 50 832 7 7 (2038400)
I0107 16:28:27.743592  8329 net.cpp:120] Top shape: 50 832 7 7 (2038400)
I0107 16:28:27.743597  8329 layer_factory.hpp:74] Creating layer inception_5b/1x1
I0107 16:28:27.743610  8329 net.cpp:84] Creating Layer inception_5b/1x1
I0107 16:28:27.743618  8329 net.cpp:380] inception_5b/1x1 <- inception_5a/output_inception_5a/output_0_split_0
I0107 16:28:27.743629  8329 net.cpp:338] inception_5b/1x1 -> inception_5b/1x1
I0107 16:28:27.743640  8329 net.cpp:113] Setting up inception_5b/1x1
I0107 16:28:27.756778  8329 net.cpp:120] Top shape: 50 384 7 7 (940800)
I0107 16:28:27.756806  8329 layer_factory.hpp:74] Creating layer inception_5b/relu_1x1
I0107 16:28:27.756821  8329 net.cpp:84] Creating Layer inception_5b/relu_1x1
I0107 16:28:27.756830  8329 net.cpp:380] inception_5b/relu_1x1 <- inception_5b/1x1
I0107 16:28:27.756850  8329 net.cpp:327] inception_5b/relu_1x1 -> inception_5b/1x1 (in-place)
I0107 16:28:27.756878  8329 net.cpp:113] Setting up inception_5b/relu_1x1
I0107 16:28:27.756983  8329 net.cpp:120] Top shape: 50 384 7 7 (940800)
I0107 16:28:27.756994  8329 layer_factory.hpp:74] Creating layer inception_5b/3x3_reduce
I0107 16:28:27.757007  8329 net.cpp:84] Creating Layer inception_5b/3x3_reduce
I0107 16:28:27.757015  8329 net.cpp:380] inception_5b/3x3_reduce <- inception_5a/output_inception_5a/output_0_split_1
I0107 16:28:27.757026  8329 net.cpp:338] inception_5b/3x3_reduce -> inception_5b/3x3_reduce
I0107 16:28:27.757038  8329 net.cpp:113] Setting up inception_5b/3x3_reduce
I0107 16:28:27.759889  8329 net.cpp:120] Top shape: 50 192 7 7 (470400)
I0107 16:28:27.759910  8329 layer_factory.hpp:74] Creating layer inception_5b/relu_3x3_reduce
I0107 16:28:27.759922  8329 net.cpp:84] Creating Layer inception_5b/relu_3x3_reduce
I0107 16:28:27.759930  8329 net.cpp:380] inception_5b/relu_3x3_reduce <- inception_5b/3x3_reduce
I0107 16:28:27.759940  8329 net.cpp:327] inception_5b/relu_3x3_reduce -> inception_5b/3x3_reduce (in-place)
I0107 16:28:27.759950  8329 net.cpp:113] Setting up inception_5b/relu_3x3_reduce
I0107 16:28:27.760247  8329 net.cpp:120] Top shape: 50 192 7 7 (470400)
I0107 16:28:27.760262  8329 layer_factory.hpp:74] Creating layer inception_5b/3x3
I0107 16:28:27.760274  8329 net.cpp:84] Creating Layer inception_5b/3x3
I0107 16:28:27.760282  8329 net.cpp:380] inception_5b/3x3 <- inception_5b/3x3_reduce
I0107 16:28:27.760294  8329 net.cpp:338] inception_5b/3x3 -> inception_5b/3x3
I0107 16:28:27.760306  8329 net.cpp:113] Setting up inception_5b/3x3
I0107 16:28:27.770329  8329 net.cpp:120] Top shape: 50 384 7 7 (940800)
I0107 16:28:27.770349  8329 layer_factory.hpp:74] Creating layer inception_5b/relu_3x3
I0107 16:28:27.770359  8329 net.cpp:84] Creating Layer inception_5b/relu_3x3
I0107 16:28:27.770367  8329 net.cpp:380] inception_5b/relu_3x3 <- inception_5b/3x3
I0107 16:28:27.770380  8329 net.cpp:327] inception_5b/relu_3x3 -> inception_5b/3x3 (in-place)
I0107 16:28:27.770390  8329 net.cpp:113] Setting up inception_5b/relu_3x3
I0107 16:28:27.770474  8329 net.cpp:120] Top shape: 50 384 7 7 (940800)
I0107 16:28:27.770484  8329 layer_factory.hpp:74] Creating layer inception_5b/5x5_reduce
I0107 16:28:27.770496  8329 net.cpp:84] Creating Layer inception_5b/5x5_reduce
I0107 16:28:27.770503  8329 net.cpp:380] inception_5b/5x5_reduce <- inception_5a/output_inception_5a/output_0_split_2
I0107 16:28:27.770512  8329 net.cpp:338] inception_5b/5x5_reduce -> inception_5b/5x5_reduce
I0107 16:28:27.770522  8329 net.cpp:113] Setting up inception_5b/5x5_reduce
I0107 16:28:27.771559  8329 net.cpp:120] Top shape: 50 48 7 7 (117600)
I0107 16:28:27.771577  8329 layer_factory.hpp:74] Creating layer inception_5b/relu_5x5_reduce
I0107 16:28:27.771589  8329 net.cpp:84] Creating Layer inception_5b/relu_5x5_reduce
I0107 16:28:27.771596  8329 net.cpp:380] inception_5b/relu_5x5_reduce <- inception_5b/5x5_reduce
I0107 16:28:27.771605  8329 net.cpp:327] inception_5b/relu_5x5_reduce -> inception_5b/5x5_reduce (in-place)
I0107 16:28:27.771615  8329 net.cpp:113] Setting up inception_5b/relu_5x5_reduce
I0107 16:28:27.771705  8329 net.cpp:120] Top shape: 50 48 7 7 (117600)
I0107 16:28:27.771713  8329 layer_factory.hpp:74] Creating layer inception_5b/5x5
I0107 16:28:27.771725  8329 net.cpp:84] Creating Layer inception_5b/5x5
I0107 16:28:27.771731  8329 net.cpp:380] inception_5b/5x5 <- inception_5b/5x5_reduce
I0107 16:28:27.771740  8329 net.cpp:338] inception_5b/5x5 -> inception_5b/5x5
I0107 16:28:27.771751  8329 net.cpp:113] Setting up inception_5b/5x5
I0107 16:28:27.774343  8329 net.cpp:120] Top shape: 50 128 7 7 (313600)
I0107 16:28:27.774363  8329 layer_factory.hpp:74] Creating layer inception_5b/relu_5x5
I0107 16:28:27.774371  8329 net.cpp:84] Creating Layer inception_5b/relu_5x5
I0107 16:28:27.774379  8329 net.cpp:380] inception_5b/relu_5x5 <- inception_5b/5x5
I0107 16:28:27.774387  8329 net.cpp:327] inception_5b/relu_5x5 -> inception_5b/5x5 (in-place)
I0107 16:28:27.774404  8329 net.cpp:113] Setting up inception_5b/relu_5x5
I0107 16:28:27.774694  8329 net.cpp:120] Top shape: 50 128 7 7 (313600)
I0107 16:28:27.774706  8329 layer_factory.hpp:74] Creating layer inception_5b/pool
I0107 16:28:27.774714  8329 layer_factory.cpp:56] CUDNN does not support padding or multiple tops. Using Caffe's own pooling layer.
I0107 16:28:27.774724  8329 net.cpp:84] Creating Layer inception_5b/pool
I0107 16:28:27.774731  8329 net.cpp:380] inception_5b/pool <- inception_5a/output_inception_5a/output_0_split_3
I0107 16:28:27.774741  8329 net.cpp:338] inception_5b/pool -> inception_5b/pool
I0107 16:28:27.774751  8329 net.cpp:113] Setting up inception_5b/pool
I0107 16:28:27.774765  8329 net.cpp:120] Top shape: 50 832 7 7 (2038400)
I0107 16:28:27.774770  8329 layer_factory.hpp:74] Creating layer inception_5b/pool_proj
I0107 16:28:27.774781  8329 net.cpp:84] Creating Layer inception_5b/pool_proj
I0107 16:28:27.774788  8329 net.cpp:380] inception_5b/pool_proj <- inception_5b/pool
I0107 16:28:27.774796  8329 net.cpp:338] inception_5b/pool_proj -> inception_5b/pool_proj
I0107 16:28:27.774806  8329 net.cpp:113] Setting up inception_5b/pool_proj
I0107 16:28:27.776748  8329 net.cpp:120] Top shape: 50 128 7 7 (313600)
I0107 16:28:27.776767  8329 layer_factory.hpp:74] Creating layer inception_5b/relu_pool_proj
I0107 16:28:27.776775  8329 net.cpp:84] Creating Layer inception_5b/relu_pool_proj
I0107 16:28:27.776784  8329 net.cpp:380] inception_5b/relu_pool_proj <- inception_5b/pool_proj
I0107 16:28:27.776793  8329 net.cpp:327] inception_5b/relu_pool_proj -> inception_5b/pool_proj (in-place)
I0107 16:28:27.776803  8329 net.cpp:113] Setting up inception_5b/relu_pool_proj
I0107 16:28:27.776890  8329 net.cpp:120] Top shape: 50 128 7 7 (313600)
I0107 16:28:27.776897  8329 layer_factory.hpp:74] Creating layer inception_5b/output
I0107 16:28:27.776906  8329 net.cpp:84] Creating Layer inception_5b/output
I0107 16:28:27.776914  8329 net.cpp:380] inception_5b/output <- inception_5b/1x1
I0107 16:28:27.776922  8329 net.cpp:380] inception_5b/output <- inception_5b/3x3
I0107 16:28:27.776929  8329 net.cpp:380] inception_5b/output <- inception_5b/5x5
I0107 16:28:27.776937  8329 net.cpp:380] inception_5b/output <- inception_5b/pool_proj
I0107 16:28:27.776945  8329 net.cpp:338] inception_5b/output -> inception_5b/output
I0107 16:28:27.776954  8329 net.cpp:113] Setting up inception_5b/output
I0107 16:28:27.776964  8329 net.cpp:120] Top shape: 50 1024 7 7 (2508800)
I0107 16:28:27.776969  8329 layer_factory.hpp:74] Creating layer pool5/7x7_s1
I0107 16:28:27.776978  8329 net.cpp:84] Creating Layer pool5/7x7_s1
I0107 16:28:27.776984  8329 net.cpp:380] pool5/7x7_s1 <- inception_5b/output
I0107 16:28:27.776993  8329 net.cpp:338] pool5/7x7_s1 -> pool5/7x7_s1
I0107 16:28:27.777004  8329 net.cpp:113] Setting up pool5/7x7_s1
I0107 16:28:27.777094  8329 net.cpp:120] Top shape: 50 1024 1 1 (51200)
I0107 16:28:27.777102  8329 layer_factory.hpp:74] Creating layer pool5/drop_7x7_s1
I0107 16:28:27.777112  8329 net.cpp:84] Creating Layer pool5/drop_7x7_s1
I0107 16:28:27.777117  8329 net.cpp:380] pool5/drop_7x7_s1 <- pool5/7x7_s1
I0107 16:28:27.777125  8329 net.cpp:327] pool5/drop_7x7_s1 -> pool5/7x7_s1 (in-place)
I0107 16:28:27.777134  8329 net.cpp:113] Setting up pool5/drop_7x7_s1
I0107 16:28:27.777143  8329 net.cpp:120] Top shape: 50 1024 1 1 (51200)
I0107 16:28:27.777149  8329 layer_factory.hpp:74] Creating layer loss3/classifier_kaggle
I0107 16:28:27.777161  8329 net.cpp:84] Creating Layer loss3/classifier_kaggle
I0107 16:28:27.777168  8329 net.cpp:380] loss3/classifier_kaggle <- pool5/7x7_s1
I0107 16:28:27.777176  8329 net.cpp:338] loss3/classifier_kaggle -> loss3/classifier_kaggle
I0107 16:28:27.777186  8329 net.cpp:113] Setting up loss3/classifier_kaggle
I0107 16:28:27.783365  8329 net.cpp:120] Top shape: 50 447 (22350)
I0107 16:28:27.783378  8329 layer_factory.hpp:74] Creating layer loss3/classifier_kaggle_loss3/classifier_kaggle_0_split
I0107 16:28:27.783390  8329 net.cpp:84] Creating Layer loss3/classifier_kaggle_loss3/classifier_kaggle_0_split
I0107 16:28:27.783402  8329 net.cpp:380] loss3/classifier_kaggle_loss3/classifier_kaggle_0_split <- loss3/classifier_kaggle
I0107 16:28:27.783418  8329 net.cpp:338] loss3/classifier_kaggle_loss3/classifier_kaggle_0_split -> loss3/classifier_kaggle_loss3/classifier_kaggle_0_split_0
I0107 16:28:27.783432  8329 net.cpp:338] loss3/classifier_kaggle_loss3/classifier_kaggle_0_split -> loss3/classifier_kaggle_loss3/classifier_kaggle_0_split_1
I0107 16:28:27.783440  8329 net.cpp:338] loss3/classifier_kaggle_loss3/classifier_kaggle_0_split -> loss3/classifier_kaggle_loss3/classifier_kaggle_0_split_2
I0107 16:28:27.783448  8329 net.cpp:113] Setting up loss3/classifier_kaggle_loss3/classifier_kaggle_0_split
I0107 16:28:27.783457  8329 net.cpp:120] Top shape: 50 447 (22350)
I0107 16:28:27.783463  8329 net.cpp:120] Top shape: 50 447 (22350)
I0107 16:28:27.783469  8329 net.cpp:120] Top shape: 50 447 (22350)
I0107 16:28:27.783475  8329 layer_factory.hpp:74] Creating layer loss3/loss3
I0107 16:28:27.783483  8329 net.cpp:84] Creating Layer loss3/loss3
I0107 16:28:27.783489  8329 net.cpp:380] loss3/loss3 <- loss3/classifier_kaggle_loss3/classifier_kaggle_0_split_0
I0107 16:28:27.783496  8329 net.cpp:380] loss3/loss3 <- label_data_1_split_6
I0107 16:28:27.783504  8329 net.cpp:338] loss3/loss3 -> loss3/loss3
…
