…
I0106 23:20:04.074419 17082 net.cpp:257] The NetState phase (0) differed from the phase (1) specified by a rule in layer loss3/top-5
I0106 23:20:04.076295 17082 net.cpp:42] Initializing net from parameters: 
name: "MYNET"
state {
  phase: TRAIN
}
layer {
  name: "data"
  type: "ImageData"
  top: "data"
  top: "label"
  include {
    phase: TRAIN
  }
  transform_param {
    mirror: false
    crop_size: 224
    mean_value: 129
    mean_value: 129
    mean_value: 129
  }
  image_data_param {
    source: "/home/coldmanck/kaggle/label_train_full_resize_rotated.txt"
    batch_size: 80
    shuffle: true
  }
}
layer {
  name: "conv1/7x7_s2"
  type: "Convolution"
  bottom: "data"
  top: "conv1/7x7_s2"
  param {
    lr_mult: 1
    decay_mult: 1
  }
  param {
    lr_mult: 2
    decay_mult: 0
  }
  convolution_param {
    num_output: 64
    pad: 3
    kernel_size: 7
    stride: 2
    weight_filler {
      type: "xavier"
    }
    bias_filler {
      type: "constant"
      value: 0.2
    }
  }
}
layer {
  name: "conv1/relu_7x7"
  type: "ReLU"
  bottom: "conv1/7x7_s2"
  top: "conv1/7x7_s2"
}
layer {
  name: "pool1/3x3_s2"
  type: "Pooling"
  bottom: "conv1/7x7_s2"
  top: "pool1/3x3_s2"
  pooling_param {
    pool: MAX
    kernel_size: 3
    stride: 2
  }
}
layer {
  name: "pool1/norm1"
  type: "LRN"
  bottom: "pool1/3x3_s2"
  top: "pool1/norm1"
  lrn_param {
    local_size: 5
    alpha: 0.0001
    beta: 0.75
  }
}
layer {
  name: "conv2/3x3_reduce"
  type: "Convolution"
  bottom: "pool1/norm1"
  top: "conv2/3x3_reduce"
  param {
    lr_mult: 1
    decay_mult: 1
  }
  param {
    lr_mult: 2
    decay_mult: 0
  }
  convolution_param {
    num_output: 64
    kernel_size: 1
    weight_filler {
      type: "xavier"
    }
    bias_filler {
      type: "constant"
      value: 0.2
    }
  }
}
layer {
  name: "conv2/relu_3x3_reduce"
  type: "ReLU"
  bottom: "conv2/3x3_reduce"
  top: "conv2/3x3_reduce"
}
layer {
  name: "conv2/3x3"
  type: "Convolution"
  bottom: "conv2/3x3_reduce"
  top: "conv2/3x3"
  param {
    lr_mult: 1
    decay_mult: 1
  }
  param {
    lr_mult: 2
    decay_mult: 0
  }
  convolution_param {
    num_output: 192
    pad: 1
    kernel_size: 3
    weight_filler {
      type: "xavier"
    }
    bias_filler {
      type: "constant"
      value: 0.2
    }
  }
}
layer {
  name: "conv2/relu_3x3"
  type: "ReLU"
  bottom: "conv2/3x3"
  top: "conv2/3x3"
}
layer {
  name: "conv2/norm2"
  type: "LRN"
  bottom: "conv2/3x3"
  top: "conv2/norm2"
  lrn_param {
    local_size: 5
    alpha: 0.0001
    beta: 0.75
  }
}
layer {
  name: "pool2/3x3_s2"
  type: "Pooling"
  bottom: "conv2/norm2"
  top: "pool2/3x3_s2"
  pooling_param {
    pool: MAX
    kernel_size: 3
    stride: 2
  }
}
layer {
  name: "inception_3a/1x1"
  type: "Convolution"
  bottom: "pool2/3x3_s2"
  top: "inception_3a/1x1"
  param {
    lr_mult: 1
    decay_mult: 1
  }
  param {
    lr_mult: 2
    decay_mult: 0
  }
  convolution_param {
    num_output: 64
    kernel_size: 1
    weight_filler {
      type: "xavier"
    }
    bias_filler {
      type: "constant"
      value: 0.2
    }
  }
}
layer {
  name: "inception_3a/relu_1x1"
  type: "ReLU"
  bottom: "inception_3a/1x1"
  top: "inception_3a/1x1"
}
layer {
  name: "inception_3a/3x3_reduce"
  type: "Convolution"
  bottom: "pool2/3x3_s2"
  top: "inception_3a/3x3_reduce"
  param {
    lr_mult: 1
    decay_mult: 1
  }
  param {
    lr_mult: 2
    decay_mult: 0
  }
  convolution_param {
    num_output: 96
    kernel_size: 1
    weight_filler {
      type: "xavier"
    }
    bias_filler {
      type: "constant"
      value: 0.2
    }
  }
}
layer {
  name: "inception_3a/relu_3x3_reduce"
  type: "ReLU"
  bottom: "inception_3a/3x3_reduce"
  top: "inception_3a/3x3_reduce"
}
layer {
  name: "inception_3a/3x3"
  type: "Convolution"
  bottom: "inception_3a/3x3_reduce"
  top: "inception_3a/3x3"
  param {
    lr_mult: 1
    decay_mult: 1
  }
  param {
    lr_mult: 2
    decay_mult: 0
  }
  convolution_param {
    num_output: 128
    pad: 1
    kernel_size: 3
    weight_filler {
      type: "xavier"
    }
    bias_filler {
      type: "constant"
      value: 0.2
    }
  }
}
layer {
  name: "inception_3a/relu_3x3"
  type: "ReLU"
  bottom: "inception_3a/3x3"
  top: "inception_3a/3x3"
}
layer {
  name: "inception_3a/5x5_reduce"
  type: "Convolution"
  bottom: "pool2/3x3_s2"
  top: "inception_3a/5x5_reduce"
  param {
    lr_mult: 1
    decay_mult: 1
  }
  param {
    lr_mult: 2
    decay_mult: 0
  }
  convolution_param {
    num_output: 16
    kernel_size: 1
    weight_filler {
      type: "xavier"
    }
    bias_filler {
      type: "constant"
      value: 0.2
    }
  }
}
layer {
  name: "inception_3a/relu_5x5_reduce"
  type: "ReLU"
  bottom: "inception_3a/5x5_reduce"
  top: "inception_3a/5x5_reduce"
}
layer {
  name: "inception_3a/5x5"
  type: "Convolution"
  bottom: "inception_3a/5x5_reduce"
  top: "inception_3a/5x5"
  param {
    lr_mult: 1
    decay_mult: 1
  }
  param {
    lr_mult: 2
    decay_mult: 0
  }
  convolution_param {
    num_output: 32
    pad: 2
    kernel_size: 5
    weight_filler {
      type: "xavier"
    }
    bias_filler {
      type: "constant"
      value: 0.2
    }
  }
}
layer {
  name: "inception_3a/relu_5x5"
  type: "ReLU"
  bottom: "inception_3a/5x5"
  top: "inception_3a/5x5"
}
layer {
  name: "inception_3a/pool"
  type: "Pooling"
  bottom: "pool2/3x3_s2"
  top: "inception_3a/pool"
  pooling_param {
    pool: MAX
    kernel_size: 3
    stride: 1
    pad: 1
  }
}
layer {
  name: "inception_3a/pool_proj"
  type: "Convolution"
  bottom: "inception_3a/pool"
  top: "inception_3a/pool_proj"
  param {
    lr_mult: 1
    decay_mult: 1
  }
  param {
    lr_mult: 2
    decay_mult: 0
  }
  convolution_param {
    num_output: 32
    kernel_size: 1
    weight_filler {
      type: "xavier"
    }
    bias_filler {
      type: "constant"
      value: 0.2
    }
  }
}
layer {
  name: "inception_3a/relu_pool_proj"
  type: "ReLU"
  bottom: "inception_3a/pool_proj"
  top: "inception_3a/pool_proj"
}
layer {
  name: "inception_3a/output"
  type: "Concat"
  bottom: "inception_3a/1x1"
  bottom: "inception_3a/3x3"
  bottom: "inception_3a/5x5"
  bottom: "inception_3a/pool_proj"
  top: "inception_3a/output"
}
layer {
  name: "inception_3b/1x1"
  type: "Convolution"
  bottom: "inception_3a/output"
  top: "inception_3b/1x1"
  param {
    lr_mult: 1
    decay_mult: 1
  }
  param {
    lr_mult: 2
    decay_mult: 0
  }
  convolution_param {
    num_output: 128
    kernel_size: 1
    weight_filler {
      type: "xavier"
    }
    bias_filler {
      type: "constant"
      value: 0.2
    }
  }
}
layer {
  name: "inception_3b/relu_1x1"
  type: "ReLU"
  bottom: "inception_3b/1x1"
  top: "inception_3b/1x1"
}
layer {
  name: "inception_3b/3x3_reduce"
  type: "Convolution"
  bottom: "inception_3a/output"
  top: "inception_3b/3x3_reduce"
  param {
    lr_mult: 1
    decay_mult: 1
  }
  param {
    lr_mult: 2
    decay_mult: 0
  }
  convolution_param {
    num_output: 128
    kernel_size: 1
    weight_filler {
      type: "xavier"
    }
    bias_filler {
      type: "constant"
      value: 0.2
    }
  }
}
layer {
  name: "inception_3b/relu_3x3_reduce"
  type: "ReLU"
  bottom: "inception_3b/3x3_reduce"
  top: "inception_3b/3x3_reduce"
}
layer {
  name: "inception_3b/3x3"
  type: "Convolution"
  bottom: "inception_3b/3x3_reduce"
  top: "inception_3b/3x3"
  param {
    lr_mult: 1
    decay_mult: 1
  }
  param {
    lr_mult: 2
    decay_mult: 0
  }
  convolution_param {
    num_output: 192
    pad: 1
    kernel_size: 3
    weight_filler {
      type: "xavier"
    }
    bias_filler {
      type: "constant"
      value: 0.2
    }
  }
}
layer {
  name: "inception_3b/relu_3x3"
  type: "ReLU"
  bottom: "inception_3b/3x3"
  top: "inception_3b/3x3"
}
layer {
  name: "inception_3b/5x5_reduce"
  type: "Convolution"
  bottom: "inception_3a/output"
  top: "inception_3b/5x5_reduce"
  param {
    lr_mult: 1
    decay_mult: 1
  }
  param {
    lr_mult: 2
    decay_mult: 0
  }
  convolution_param {
    num_output: 32
    kernel_size: 1
    weight_filler {
      type: "xavier"
    }
    bias_filler {
      type: "constant"
      value: 0.2
    }
  }
}
layer {
  name: "inception_3b/relu_5x5_reduce"
  type: "ReLU"
  bottom: "inception_3b/5x5_reduce"
  top: "inception_3b/5x5_reduce"
}
layer {
  name: "inception_3b/5x5"
  type: "Convolution"
  bottom: "inception_3b/5x5_reduce"
  top: "inception_3b/5x5"
  param {
    lr_mult: 1
    decay_mult: 1
  }
  param {
    lr_mult: 2
    decay_mult: 0
  }
  convolution_param {
    num_output: 96
    pad: 2
    kernel_size: 5
    weight_filler {
      type: "xavier"
    }
    bias_filler {
      type: "constant"
      value: 0.2
    }
  }
}
layer {
  name: "inception_3b/relu_5x5"
  type: "ReLU"
  bottom: "inception_3b/5x5"
  top: "inception_3b/5x5"
}
layer {
  name: "inception_3b/pool"
  type: "Pooling"
  bottom: "inception_3a/output"
  top: "inception_3b/pool"
  pooling_param {
    pool: MAX
    kernel_size: 3
    stride: 1
    pad: 1
  }
}
layer {
  name: "inception_3b/pool_proj"
  type: "Convolution"
  bottom: "inception_3b/pool"
  top: "inception_3b/pool_proj"
  param {
    lr_mult: 1
    decay_mult: 1
  }
  param {
    lr_mult: 2
    decay_mult: 0
  }
  convolution_param {
    num_output: 64
    kernel_size: 1
    weight_filler {
      type: "xavier"
    }
    bias_filler {
      type: "constant"
      value: 0.2
    }
  }
}
layer {
  name: "inception_3b/relu_pool_proj"
  type: "ReLU"
  bottom: "inception_3b/pool_proj"
  top: "inception_3b/pool_proj"
}
layer {
  name: "inception_3b/output"
  type: "Concat"
  bottom: "inception_3b/1x1"
  bottom: "inception_3b/3x3"
  bottom: "inception_3b/5x5"
  bottom: "inception_3b/pool_proj"
  top: "inception_3b/output"
}
layer {
  name: "pool3/3x3_s2"
  type: "Pooling"
  bottom: "inception_3b/output"
  top: "pool3/3x3_s2"
  pooling_param {
    pool: MAX
    kernel_size: 3
    stride: 2
  }
}
layer {
  name: "inception_4a/1x1"
  type: "Convolution"
  bottom: "pool3/3x3_s2"
  top: "inception_4a/1x1"
  param {
    lr_mult: 1
    decay_mult: 1
  }
  param {
    lr_mult: 2
    decay_mult: 0
  }
  convolution_param {
    num_output: 192
    kernel_size: 1
    weight_filler {
      type: "xavier"
    }
    bias_filler {
      type: "constant"
      value: 0.2
    }
  }
}
layer {
  name: "inception_4a/relu_1x1"
  type: "ReLU"
  bottom: "inception_4a/1x1"
  top: "inception_4a/1x1"
}
layer {
  name: "inception_4a/3x3_reduce"
  type: "Convolution"
  bottom: "pool3/3x3_s2"
  top: "inception_4a/3x3_reduce"
  param {
    lr_mult: 1
    decay_mult: 1
  }
  param {
    lr_mult: 2
    decay_mult: 0
  }
  convolution_param {
    num_output: 96
    kernel_size: 1
    weight_filler {
      type: "xavier"
    }
    bias_filler {
      type: "constant"
      value: 0.2
    }
  }
}
layer {
  name: "inception_4a/relu_3x3_reduce"
  type: "ReLU"
  bottom: "inception_4a/3x3_reduce"
  top: "inception_4a/3x3_reduce"
}
layer {
  name: "inception_4a/3x3"
  type: "Convolution"
  bottom: "inception_4a/3x3_reduce"
  top: "inception_4a/3x3"
  param {
    lr_mult: 1
    decay_mult: 1
  }
  param {
    lr_mult: 2
    decay_mult: 0
  }
  convolution_param {
    num_output: 208
    pad: 1
    kernel_size: 3
    weight_filler {
      type: "xavier"
    }
    bias_filler {
      type: "constant"
      value: 0.2
    }
  }
}
layer {
  name: "inception_4a/relu_3x3"
  type: "ReLU"
  bottom: "inception_4a/3x3"
  top: "inception_4a/3x3"
}
layer {
  name: "inception_4a/5x5_reduce"
  type: "Convolution"
  bottom: "pool3/3x3_s2"
  top: "inception_4a/5x5_reduce"
  param {
    lr_mult: 1
    decay_mult: 1
  }
  param {
    lr_mult: 2
    decay_mult: 0
  }
  convolution_param {
    num_output: 16
    kernel_size: 1
    weight_filler {
      type: "xavier"
    }
    bias_filler {
      type: "constant"
      value: 0.2
    }
  }
}
layer {
  name: "inception_4a/relu_5x5_reduce"
  type: "ReLU"
  bottom: "inception_4a/5x5_reduce"
  top: "inception_4a/5x5_reduce"
}
layer {
  name: "inception_4a/5x5"
  type: "Convolution"
  bottom: "inception_4a/5x5_reduce"
  top: "inception_4a/5x5"
  param {
    lr_mult: 1
    decay_mult: 1
  }
  param {
    lr_mult: 2
    decay_mult: 0
  }
  convolution_param {
    num_output: 48
    pad: 2
    kernel_size: 5
    weight_filler {
      type: "xavier"
    }
    bias_filler {
      type: "constant"
      value: 0.2
    }
  }
}
layer {
  name: "inception_4a/relu_5x5"
  type: "ReLU"
  bottom: "inception_4a/5x5"
  top: "inception_4a/5x5"
}
layer {
  name: "inception_4a/pool"
  type: "Pooling"
  bottom: "pool3/3x3_s2"
  top: "inception_4a/pool"
  pooling_param {
    pool: MAX
    kernel_size: 3
    stride: 1
    pad: 1
  }
}
layer {
  name: "inception_4a/pool_proj"
  type: "Convolution"
  bottom: "inception_4a/pool"
  top: "inception_4a/pool_proj"
  param {
    lr_mult: 1
    decay_mult: 1
  }
  param {
    lr_mult: 2
    decay_mult: 0
  }
  convolution_param {
    num_output: 64
    kernel_size: 1
    weight_filler {
      type: "xavier"
    }
    bias_filler {
      type: "constant"
      value: 0.2
    }
  }
}
layer {
  name: "inception_4a/relu_pool_proj"
  type: "ReLU"
  bottom: "inception_4a/pool_proj"
  top: "inception_4a/pool_proj"
}
layer {
  name: "inception_4a/output"
  type: "Concat"
  bottom: "inception_4a/1x1"
  bottom: "inception_4a/3x3"
  bottom: "inception_4a/5x5"
  bottom: "inception_4a/pool_proj"
  top: "inception_4a/output"
}
layer {
  name: "loss1/ave_pool"
  type: "Pooling"
  bottom: "inception_4a/output"
  top: "loss1/ave_pool"
  pooling_param {
    pool: AVE
    kernel_size: 5
    stride: 3
  }
}
layer {
  name: "loss1/conv"
  type: "Convolution"
  bottom: "loss1/ave_pool"
  top: "loss1/conv"
  param {
    lr_mult: 1
    decay_mult: 1
  }
  param {
    lr_mult: 2
    decay_mult: 0
  }
  convolution_param {
    num_output: 128
    kernel_size: 1
    weight_filler {
      type: "xavier"
    }
    bias_filler {
      type: "constant"
      value: 0.2
    }
  }
}
layer {
  name: "loss1/relu_conv"
  type: "ReLU"
  bottom: "loss1/conv"
  top: "loss1/conv"
}
layer {
  name: "loss1/fc"
  type: "InnerProduct"
  bottom: "loss1/conv"
  top: "loss1/fc"
  param {
    lr_mult: 1
    decay_mult: 1
  }
  param {
    lr_mult: 2
    decay_mult: 0
  }
  inner_product_param {
    num_output: 1024
    weight_filler {
      type: "xavier"
    }
    bias_filler {
      type: "constant"
      value: 0.2
    }
  }
}
layer {
  name: "loss1/relu_fc"
  type: "ReLU"
  bottom: "loss1/fc"
  top: "loss1/fc"
}
layer {
  name: "loss1/drop_fc"
  type: "Dropout"
  bottom: "loss1/fc"
  top: "loss1/fc"
  dropout_param {
    dropout_ratio: 0.7
  }
}
layer {
  name: "loss1/classifier_kaggle"
  type: "InnerProduct"
  bottom: "loss1/fc"
  top: "loss1/classifier_kaggle"
  param {
    lr_mult: 1
    decay_mult: 1
  }
  param {
    lr_mult: 2
    decay_mult: 0
  }
  inner_product_param {
    num_output: 447
    weight_filler {
      type: "xavier"
    }
    bias_filler {
      type: "constant"
      value: 0
    }
  }
}
layer {
  name: "loss1/loss"
  type: "SoftmaxWithLoss"
  bottom: "loss1/classifier_kaggle"
  bottom: "label"
  top: "loss1/loss1"
  loss_weight: 0.3
}
layer {
  name: "inception_4b/1x1"
  type: "Convolution"
  bottom: "inception_4a/output"
  top: "inception_4b/1x1"
  param {
    lr_mult: 1
    decay_mult: 1
  }
  param {
    lr_mult: 2
    decay_mult: 0
  }
  convolution_param {
    num_output: 160
    kernel_size: 1
    weight_filler {
      type: "xavier"
    }
    bias_filler {
      type: "constant"
      value: 0.2
    }
  }
}
layer {
  name: "inception_4b/relu_1x1"
  type: "ReLU"
  bottom: "inception_4b/1x1"
  top: "inception_4b/1x1"
}
layer {
  name: "inception_4b/3x3_reduce"
  type: "Convolution"
  bottom: "inception_4a/output"
  top: "inception_4b/3x3_reduce"
  param {
    lr_mult: 1
    decay_mult: 1
  }
  param {
    lr_mult: 2
    decay_mult: 0
  }
  convolution_param {
    num_output: 112
    kernel_size: 1
    weight_filler {
      type: "xavier"
    }
    bias_filler {
      type: "constant"
      value: 0.2
    }
  }
}
layer {
  name: "inception_4b/relu_3x3_reduce"
  type: "ReLU"
  bottom: "inception_4b/3x3_reduce"
  top: "inception_4b/3x3_reduce"
}
layer {
  name: "inception_4b/3x3"
  type: "Convolution"
  bottom: "inception_4b/3x3_reduce"
  top: "inception_4b/3x3"
  param {
    lr_mult: 1
    decay_mult: 1
  }
  param {
    lr_mult: 2
    decay_mult: 0
  }
  convolution_param {
    num_output: 224
    pad: 1
    kernel_size: 3
    weight_filler {
      type: "xavier"
    }
    bias_filler {
      type: "constant"
      value: 0.2
    }
  }
}
layer {
  name: "inception_4b/relu_3x3"
  type: "ReLU"
  bottom: "inception_4b/3x3"
  top: "inception_4b/3x3"
}
layer {
  name: "inception_4b/5x5_reduce"
  type: "Convolution"
  bottom: "inception_4a/output"
  top: "inception_4b/5x5_reduce"
  param {
    lr_mult: 1
    decay_mult: 1
  }
  param {
    lr_mult: 2
    decay_mult: 0
  }
  convolution_param {
    num_output: 24
    kernel_size: 1
    weight_filler {
      type: "xavier"
    }
    bias_filler {
      type: "constant"
      value: 0.2
    }
  }
}
layer {
  name: "inception_4b/relu_5x5_reduce"
  type: "ReLU"
  bottom: "inception_4b/5x5_reduce"
  top: "inception_4b/5x5_reduce"
}
layer {
  name: "inception_4b/5x5"
  type: "Convolution"
  bottom: "inception_4b/5x5_reduce"
  top: "inception_4b/5x5"
  param {
    lr_mult: 1
    decay_mult: 1
  }
  param {
    lr_mult: 2
    decay_mult: 0
  }
  convolution_param {
    num_output: 64
    pad: 2
    kernel_size: 5
    weight_filler {
      type: "xavier"
    }
    bias_filler {
      type: "constant"
      value: 0.2
    }
  }
}
layer {
  name: "inception_4b/relu_5x5"
  type: "ReLU"
  bottom: "inception_4b/5x5"
  top: "inception_4b/5x5"
}
layer {
  name: "inception_4b/pool"
  type: "Pooling"
  bottom: "inception_4a/output"
  top: "inception_4b/pool"
  pooling_param {
    pool: MAX
    kernel_size: 3
    stride: 1
    pad: 1
  }
}
layer {
  name: "inception_4b/pool_proj"
  type: "Convolution"
  bottom: "inception_4b/pool"
  top: "inception_4b/pool_proj"
  param {
    lr_mult: 1
    decay_mult: 1
  }
  param {
    lr_mult: 2
    decay_mult: 0
  }
  convolution_param {
    num_output: 64
    kernel_size: 1
    weight_filler {
      type: "xavier"
    }
    bias_filler {
      type: "constant"
      value: 0.2
    }
  }
}
layer {
  name: "inception_4b/relu_pool_proj"
  type: "ReLU"
  bottom: "inception_4b/pool_proj"
  top: "inception_4b/pool_proj"
}
layer {
  name: "inception_4b/output"
  type: "Concat"
  bottom: "inception_4b/1x1"
  bottom: "inception_4b/3x3"
  bottom: "inception_4b/5x5"
  bottom: "inception_4b/pool_proj"
  top: "inception_4b/output"
}
layer {
  name: "inception_4c/1x1"
  type: "Convolution"
  bottom: "inception_4b/output"
  top: "inception_4c/1x1"
  param {
    lr_mult: 1
    decay_mult: 1
  }
  param {
    lr_mult: 2
    decay_mult: 0
  }
  convolution_param {
    num_output: 128
    kernel_size: 1
    weight_filler {
      type: "xavier"
    }
    bias_filler {
      type: "constant"
      value: 0.2
    }
  }
}
layer {
  name: "inception_4c/relu_1x1"
  type: "ReLU"
  bottom: "inception_4c/1x1"
  top: "inception_4c/1x1"
}
layer {
  name: "inception_4c/3x3_reduce"
  type: "Convolution"
  bottom: "inception_4b/output"
  top: "inception_4c/3x3_reduce"
  param {
    lr_mult: 1
    decay_mult: 1
  }
  param {
    lr_mult: 2
    decay_mult: 0
  }
  convolution_param {
    num_output: 128
    kernel_size: 1
    weight_filler {
      type: "xavier"
    }
    bias_filler {
      type: "constant"
      value: 0.2
    }
  }
}
layer {
  name: "inception_4c/relu_3x3_reduce"
  type: "ReLU"
  bottom: "inception_4c/3x3_reduce"
  top: "inception_4c/3x3_reduce"
}
layer {
  name: "inception_4c/3x3"
  type: "Convolution"
  bottom: "inception_4c/3x3_reduce"
  top: "inception_4c/3x3"
  param {
    lr_mult: 1
    decay_mult: 1
  }
  param {
    lr_mult: 2
    decay_mult: 0
  }
  convolution_param {
    num_output: 256
    pad: 1
    kernel_size: 3
    weight_filler {
      type: "xavier"
    }
    bias_filler {
      type: "constant"
      value: 0.2
    }
  }
}
layer {
  name: "inception_4c/relu_3x3"
  type: "ReLU"
  bottom: "inception_4c/3x3"
  top: "inception_4c/3x3"
}
layer {
  name: "inception_4c/5x5_reduce"
  type: "Convolution"
  bottom: "inception_4b/output"
  top: "inception_4c/5x5_reduce"
  param {
    lr_mult: 1
    decay_mult: 1
  }
  param {
    lr_mult: 2
    decay_mult: 0
  }
  convolution_param {
    num_output: 24
    kernel_size: 1
    weight_filler {
      type: "xavier"
    }
    bias_filler {
      type: "constant"
      value: 0.2
    }
  }
}
layer {
  name: "inception_4c/relu_5x5_reduce"
  type: "ReLU"
  bottom: "inception_4c/5x5_reduce"
  top: "inception_4c/5x5_reduce"
}
layer {
  name: "inception_4c/5x5"
  type: "Convolution"
  bottom: "inception_4c/5x5_reduce"
  top: "inception_4c/5x5"
  param {
    lr_mult: 1
    decay_mult: 1
  }
  param {
    lr_mult: 2
    decay_mult: 0
  }
  convolution_param {
    num_output: 64
    pad: 2
    kernel_size: 5
    weight_filler {
      type: "xavier"
    }
    bias_filler {
      type: "constant"
      value: 0.2
    }
  }
}
layer {
  name: "inception_4c/relu_5x5"
  type: "ReLU"
  bottom: "inception_4c/5x5"
  top: "inception_4c/5x5"
}
layer {
  name: "inception_4c/pool"
  type: "Pooling"
  bottom: "inception_4b/output"
  top: "inception_4c/pool"
  pooling_param {
    pool: MAX
    kernel_size: 3
    stride: 1
    pad: 1
  }
}
layer {
  name: "inception_4c/pool_proj"
  type: "Convolution"
  bottom: "inception_4c/pool"
  top: "inception_4c/pool_proj"
  param {
    lr_mult: 1
    decay_mult: 1
  }
  param {
    lr_mult: 2
    decay_mult: 0
  }
  convolution_param {
    num_output: 64
    kernel_size: 1
    weight_filler {
      type: "xavier"
    }
    bias_filler {
      type: "constant"
      value: 0.2
    }
  }
}
layer {
  name: "inception_4c/relu_pool_proj"
  type: "ReLU"
  bottom: "inception_4c/pool_proj"
  top: "inception_4c/pool_proj"
}
layer {
  name: "inception_4c/output"
  type: "Concat"
  bottom: "inception_4c/1x1"
  bottom: "inception_4c/3x3"
  bottom: "inception_4c/5x5"
  bottom: "inception_4c/pool_proj"
  top: "inception_4c/output"
}
layer {
  name: "inception_4d/1x1"
  type: "Convolution"
  bottom: "inception_4c/output"
  top: "inception_4d/1x1"
  param {
    lr_mult: 1
    decay_mult: 1
  }
  param {
    lr_mult: 2
    decay_mult: 0
  }
  convolution_param {
    num_output: 112
    kernel_size: 1
    weight_filler {
      type: "xavier"
    }
    bias_filler {
      type: "constant"
      value: 0.2
    }
  }
}
layer {
  name: "inception_4d/relu_1x1"
  type: "ReLU"
  bottom: "inception_4d/1x1"
  top: "inception_4d/1x1"
}
layer {
  name: "inception_4d/3x3_reduce"
  type: "Convolution"
  bottom: "inception_4c/output"
  top: "inception_4d/3x3_reduce"
  param {
    lr_mult: 1
    decay_mult: 1
  }
  param {
    lr_mult: 2
    decay_mult: 0
  }
  convolution_param {
    num_output: 144
    kernel_size: 1
    weight_filler {
      type: "xavier"
    }
    bias_filler {
      type: "constant"
      value: 0.2
    }
  }
}
layer {
  name: "inception_4d/relu_3x3_reduce"
  type: "ReLU"
  bottom: "inception_4d/3x3_reduce"
  top: "inception_4d/3x3_reduce"
}
layer {
  name: "inception_4d/3x3"
  type: "Convolution"
  bottom: "inception_4d/3x3_reduce"
  top: "inception_4d/3x3"
  param {
    lr_mult: 1
    decay_mult: 1
  }
  param {
    lr_mult: 2
    decay_mult: 0
  }
  convolution_param {
    num_output: 288
    pad: 1
    kernel_size: 3
    weight_filler {
      type: "xavier"
    }
    bias_filler {
      type: "constant"
      value: 0.2
    }
  }
}
layer {
  name: "inception_4d/relu_3x3"
  type: "ReLU"
  bottom: "inception_4d/3x3"
  top: "inception_4d/3x3"
}
layer {
  name: "inception_4d/5x5_reduce"
  type: "Convolution"
  bottom: "inception_4c/output"
  top: "inception_4d/5x5_reduce"
  param {
    lr_mult: 1
    decay_mult: 1
  }
  param {
    lr_mult: 2
    decay_mult: 0
  }
  convolution_param {
    num_output: 32
    kernel_size: 1
    weight_filler {
      type: "xavier"
    }
    bias_filler {
      type: "constant"
      value: 0.2
    }
  }
}
layer {
  name: "inception_4d/relu_5x5_reduce"
  type: "ReLU"
  bottom: "inception_4d/5x5_reduce"
  top: "inception_4d/5x5_reduce"
}
layer {
  name: "inception_4d/5x5"
  type: "Convolution"
  bottom: "inception_4d/5x5_reduce"
  top: "inception_4d/5x5"
  param {
    lr_mult: 1
    decay_mult: 1
  }
  param {
    lr_mult: 2
    decay_mult: 0
  }
  convolution_param {
    num_output: 64
    pad: 2
    kernel_size: 5
    weight_filler {
      type: "xavier"
    }
    bias_filler {
      type: "constant"
      value: 0.2
    }
  }
}
layer {
  name: "inception_4d/relu_5x5"
  type: "ReLU"
  bottom: "inception_4d/5x5"
  top: "inception_4d/5x5"
}
layer {
  name: "inception_4d/pool"
  type: "Pooling"
  bottom: "inception_4c/output"
  top: "inception_4d/pool"
  pooling_param {
    pool: MAX
    kernel_size: 3
    stride: 1
    pad: 1
  }
}
layer {
  name: "inception_4d/pool_proj"
  type: "Convolution"
  bottom: "inception_4d/pool"
  top: "inception_4d/pool_proj"
  param {
    lr_mult: 1
    decay_mult: 1
  }
  param {
    lr_mult: 2
    decay_mult: 0
  }
  convolution_param {
    num_output: 64
    kernel_size: 1
    weight_filler {
      type: "xavier"
    }
    bias_filler {
      type: "constant"
      value: 0.2
    }
  }
}
layer {
  name: "inception_4d/relu_pool_proj"
  type: "ReLU"
  bottom: "inception_4d/pool_proj"
  top: "inception_4d/pool_proj"
}
layer {
  name: "inception_4d/output"
  type: "Concat"
  bottom: "inception_4d/1x1"
  bottom: "inception_4d/3x3"
  bottom: "inception_4d/5x5"
  bottom: "inception_4d/pool_proj"
  top: "inception_4d/output"
}
layer {
  name: "loss2/ave_pool"
  type: "Pooling"
  bottom: "inception_4d/output"
  top: "loss2/ave_pool"
  pooling_param {
    pool: AVE
    kernel_size: 5
    stride: 3
  }
}
layer {
  name: "loss2/conv"
  type: "Convolution"
  bottom: "loss2/ave_pool"
  top: "loss2/conv"
  param {
    lr_mult: 1
    decay_mult: 1
  }
  param {
    lr_mult: 2
    decay_mult: 0
  }
  convolution_param {
    num_output: 128
    kernel_size: 1
    weight_filler {
      type: "xavier"
    }
    bias_filler {
      type: "constant"
      value: 0.2
    }
  }
}
layer {
  name: "loss2/relu_conv"
  type: "ReLU"
  bottom: "loss2/conv"
  top: "loss2/conv"
}
layer {
  name: "loss2/fc"
  type: "InnerProduct"
  bottom: "loss2/conv"
  top: "loss2/fc"
  param {
    lr_mult: 1
    decay_mult: 1
  }
  param {
    lr_mult: 2
    decay_mult: 0
  }
  inner_product_param {
    num_output: 1024
    weight_filler {
      type: "xavier"
    }
    bias_filler {
      type: "constant"
      value: 0.2
    }
  }
}
layer {
  name: "loss2/relu_fc"
  type: "ReLU"
  bottom: "loss2/fc"
  top: "loss2/fc"
}
layer {
  name: "loss2/drop_fc"
  type: "Dropout"
  bottom: "loss2/fc"
  top: "loss2/fc"
  dropout_param {
    dropout_ratio: 0.7
  }
}
layer {
  name: "loss2/classifier_kaggle"
  type: "InnerProduct"
  bottom: "loss2/fc"
  top: "loss2/classifier_kaggle"
  param {
    lr_mult: 1
    decay_mult: 1
  }
  param {
    lr_mult: 2
    decay_mult: 0
  }
  inner_product_param {
    num_output: 447
    weight_filler {
      type: "xavier"
    }
    bias_filler {
      type: "constant"
      value: 0
    }
  }
}
layer {
  name: "loss2/loss"
  type: "SoftmaxWithLoss"
  bottom: "loss2/classifier_kaggle"
  bottom: "label"
  top: "loss2/loss1"
  loss_weight: 0.3
}
layer {
  name: "inception_4e/1x1"
  type: "Convolution"
  bottom: "inception_4d/output"
  top: "inception_4e/1x1"
  param {
    lr_mult: 1
    decay_mult: 1
  }
  param {
    lr_mult: 2
    decay_mult: 0
  }
  convolution_param {
    num_output: 256
    kernel_size: 1
    weight_filler {
      type: "xavier"
    }
    bias_filler {
      type: "constant"
      value: 0.2
    }
  }
}
layer {
  name: "inception_4e/relu_1x1"
  type: "ReLU"
  bottom: "inception_4e/1x1"
  top: "inception_4e/1x1"
}
layer {
  name: "inception_4e/3x3_reduce"
  type: "Convolution"
  bottom: "inception_4d/output"
  top: "inception_4e/3x3_reduce"
  param {
    lr_mult: 1
    decay_mult: 1
  }
  param {
    lr_mult: 2
    decay_mult: 0
  }
  convolution_param {
    num_output: 160
    kernel_size: 1
    weight_filler {
      type: "xavier"
    }
    bias_filler {
      type: "constant"
      value: 0.2
    }
  }
}
layer {
  name: "inception_4e/relu_3x3_reduce"
  type: "ReLU"
  bottom: "inception_4e/3x3_reduce"
  top: "inception_4e/3x3_reduce"
}
layer {
  name: "inception_4e/3x3"
  type: "Convolution"
  bottom: "inception_4e/3x3_reduce"
  top: "inception_4e/3x3"
  param {
    lr_mult: 1
    decay_mult: 1
  }
  param {
    lr_mult: 2
    decay_mult: 0
  }
  convolution_param {
    num_output: 320
    pad: 1
    kernel_size: 3
    weight_filler {
      type: "xavier"
    }
    bias_filler {
      type: "constant"
      value: 0.2
    }
  }
}
layer {
  name: "inception_4e/relu_3x3"
  type: "ReLU"
  bottom: "inception_4e/3x3"
  top: "inception_4e/3x3"
}
layer {
  name: "inception_4e/5x5_reduce"
  type: "Convolution"
  bottom: "inception_4d/output"
  top: "inception_4e/5x5_reduce"
  param {
    lr_mult: 1
    decay_mult: 1
  }
  param {
    lr_mult: 2
    decay_mult: 0
  }
  convolution_param {
    num_output: 32
    kernel_size: 1
    weight_filler {
      type: "xavier"
    }
    bias_filler {
      type: "constant"
      value: 0.2
    }
  }
}
layer {
  name: "inception_4e/relu_5x5_reduce"
  type: "ReLU"
  bottom: "inception_4e/5x5_reduce"
  top: "inception_4e/5x5_reduce"
}
layer {
  name: "inception_4e/5x5"
  type: "Convolution"
  bottom: "inception_4e/5x5_reduce"
  top: "inception_4e/5x5"
  param {
    lr_mult: 1
    decay_mult: 1
  }
  param {
    lr_mult: 2
    decay_mult: 0
  }
  convolution_param {
    num_output: 128
    pad: 2
    kernel_size: 5
    weight_filler {
      type: "xavier"
    }
    bias_filler {
      type: "constant"
      value: 0.2
    }
  }
}
layer {
  name: "inception_4e/relu_5x5"
  type: "ReLU"
  bottom: "inception_4e/5x5"
  top: "inception_4e/5x5"
}
layer {
  name: "inception_4e/pool"
  type: "Pooling"
  bottom: "inception_4d/output"
  top: "inception_4e/po
I0106 23:20:04.077741 17082 layer_factory.hpp:74] Creating layer data
I0106 23:20:04.077776 17082 net.cpp:84] Creating Layer data
I0106 23:20:04.077790 17082 net.cpp:338] data -> data
I0106 23:20:04.077827 17082 net.cpp:338] data -> label
I0106 23:20:04.077844 17082 net.cpp:113] Setting up data
I0106 23:20:04.077853 17082 image_data_layer.cpp:36] Opening file /home/coldmanck/kaggle/label_train_full_resize_rotated.txt
I0106 23:20:04.080775 17082 image_data_layer.cpp:46] Shuffling data
I0106 23:20:04.082273 17082 image_data_layer.cpp:51] A total of 4235 images.
I0106 23:20:04.102109 17082 image_data_layer.cpp:80] output data size: 80,3,224,224
I0106 23:20:04.118500 17082 net.cpp:120] Top shape: 80 3 224 224 (12042240)
I0106 23:20:04.118546 17082 net.cpp:120] Top shape: 80 (80)
I0106 23:20:04.118564 17082 layer_factory.hpp:74] Creating layer label_data_1_split
I0106 23:20:04.118598 17082 net.cpp:84] Creating Layer label_data_1_split
I0106 23:20:04.118610 17082 net.cpp:380] label_data_1_split <- label
I0106 23:20:04.118634 17082 net.cpp:338] label_data_1_split -> label_data_1_split_0
I0106 23:20:04.118671 17082 net.cpp:338] label_data_1_split -> label_data_1_split_1
I0106 23:20:04.118702 17082 net.cpp:338] label_data_1_split -> label_data_1_split_2
I0106 23:20:04.118716 17082 net.cpp:113] Setting up label_data_1_split
I0106 23:20:04.118733 17082 net.cpp:120] Top shape: 80 (80)
I0106 23:20:04.118743 17082 net.cpp:120] Top shape: 80 (80)
I0106 23:20:04.118753 17082 net.cpp:120] Top shape: 80 (80)
I0106 23:20:04.118762 17082 layer_factory.hpp:74] Creating layer conv1/7x7_s2
I0106 23:20:04.118782 17082 net.cpp:84] Creating Layer conv1/7x7_s2
I0106 23:20:04.118791 17082 net.cpp:380] conv1/7x7_s2 <- data
I0106 23:20:04.118806 17082 net.cpp:338] conv1/7x7_s2 -> conv1/7x7_s2
I0106 23:20:04.118824 17082 net.cpp:113] Setting up conv1/7x7_s2
I0106 23:20:04.481503 17082 net.cpp:120] Top shape: 80 64 112 112 (64225280)
I0106 23:20:04.481585 17082 layer_factory.hpp:74] Creating layer conv1/relu_7x7
I0106 23:20:04.481621 17082 net.cpp:84] Creating Layer conv1/relu_7x7
I0106 23:20:04.481631 17082 net.cpp:380] conv1/relu_7x7 <- conv1/7x7_s2
I0106 23:20:04.481642 17082 net.cpp:327] conv1/relu_7x7 -> conv1/7x7_s2 (in-place)
I0106 23:20:04.481657 17082 net.cpp:113] Setting up conv1/relu_7x7
I0106 23:20:04.482161 17082 net.cpp:120] Top shape: 80 64 112 112 (64225280)
I0106 23:20:04.482175 17082 layer_factory.hpp:74] Creating layer pool1/3x3_s2
I0106 23:20:04.482208 17082 net.cpp:84] Creating Layer pool1/3x3_s2
I0106 23:20:04.482216 17082 net.cpp:380] pool1/3x3_s2 <- conv1/7x7_s2
I0106 23:20:04.482225 17082 net.cpp:338] pool1/3x3_s2 -> pool1/3x3_s2
I0106 23:20:04.482234 17082 net.cpp:113] Setting up pool1/3x3_s2
I0106 23:20:04.482322 17082 net.cpp:120] Top shape: 80 64 56 56 (16056320)
I0106 23:20:04.482337 17082 layer_factory.hpp:74] Creating layer pool1/norm1
I0106 23:20:04.482348 17082 net.cpp:84] Creating Layer pool1/norm1
I0106 23:20:04.482353 17082 net.cpp:380] pool1/norm1 <- pool1/3x3_s2
I0106 23:20:04.482360 17082 net.cpp:338] pool1/norm1 -> pool1/norm1
I0106 23:20:04.482369 17082 net.cpp:113] Setting up pool1/norm1
I0106 23:20:04.482378 17082 net.cpp:120] Top shape: 80 64 56 56 (16056320)
I0106 23:20:04.482384 17082 layer_factory.hpp:74] Creating layer conv2/3x3_reduce
I0106 23:20:04.482394 17082 net.cpp:84] Creating Layer conv2/3x3_reduce
I0106 23:20:04.482399 17082 net.cpp:380] conv2/3x3_reduce <- pool1/norm1
I0106 23:20:04.482406 17082 net.cpp:338] conv2/3x3_reduce -> conv2/3x3_reduce
I0106 23:20:04.482419 17082 net.cpp:113] Setting up conv2/3x3_reduce
I0106 23:20:04.483338 17082 net.cpp:120] Top shape: 80 64 56 56 (16056320)
I0106 23:20:04.483358 17082 layer_factory.hpp:74] Creating layer conv2/relu_3x3_reduce
I0106 23:20:04.483367 17082 net.cpp:84] Creating Layer conv2/relu_3x3_reduce
I0106 23:20:04.483372 17082 net.cpp:380] conv2/relu_3x3_reduce <- conv2/3x3_reduce
I0106 23:20:04.483379 17082 net.cpp:327] conv2/relu_3x3_reduce -> conv2/3x3_reduce (in-place)
I0106 23:20:04.483387 17082 net.cpp:113] Setting up conv2/relu_3x3_reduce
I0106 23:20:04.483454 17082 net.cpp:120] Top shape: 80 64 56 56 (16056320)
I0106 23:20:04.483460 17082 layer_factory.hpp:74] Creating layer conv2/3x3
I0106 23:20:04.483471 17082 net.cpp:84] Creating Layer conv2/3x3
I0106 23:20:04.483476 17082 net.cpp:380] conv2/3x3 <- conv2/3x3_reduce
I0106 23:20:04.483489 17082 net.cpp:338] conv2/3x3 -> conv2/3x3
I0106 23:20:04.483496 17082 net.cpp:113] Setting up conv2/3x3
I0106 23:20:04.485399 17082 net.cpp:120] Top shape: 80 192 56 56 (48168960)
I0106 23:20:04.485417 17082 layer_factory.hpp:74] Creating layer conv2/relu_3x3
I0106 23:20:04.485427 17082 net.cpp:84] Creating Layer conv2/relu_3x3
I0106 23:20:04.485433 17082 net.cpp:380] conv2/relu_3x3 <- conv2/3x3
I0106 23:20:04.485440 17082 net.cpp:327] conv2/relu_3x3 -> conv2/3x3 (in-place)
I0106 23:20:04.485455 17082 net.cpp:113] Setting up conv2/relu_3x3
I0106 23:20:04.485710 17082 net.cpp:120] Top shape: 80 192 56 56 (48168960)
I0106 23:20:04.485723 17082 layer_factory.hpp:74] Creating layer conv2/norm2
I0106 23:20:04.485733 17082 net.cpp:84] Creating Layer conv2/norm2
I0106 23:20:04.485748 17082 net.cpp:380] conv2/norm2 <- conv2/3x3
I0106 23:20:04.485769 17082 net.cpp:338] conv2/norm2 -> conv2/norm2
I0106 23:20:04.485779 17082 net.cpp:113] Setting up conv2/norm2
I0106 23:20:04.485788 17082 net.cpp:120] Top shape: 80 192 56 56 (48168960)
I0106 23:20:04.485793 17082 layer_factory.hpp:74] Creating layer pool2/3x3_s2
I0106 23:20:04.485800 17082 net.cpp:84] Creating Layer pool2/3x3_s2
I0106 23:20:04.485805 17082 net.cpp:380] pool2/3x3_s2 <- conv2/norm2
I0106 23:20:04.485810 17082 net.cpp:338] pool2/3x3_s2 -> pool2/3x3_s2
I0106 23:20:04.485817 17082 net.cpp:113] Setting up pool2/3x3_s2
I0106 23:20:04.485891 17082 net.cpp:120] Top shape: 80 192 28 28 (12042240)
I0106 23:20:04.485898 17082 layer_factory.hpp:74] Creating layer pool2/3x3_s2_pool2/3x3_s2_0_split
I0106 23:20:04.485906 17082 net.cpp:84] Creating Layer pool2/3x3_s2_pool2/3x3_s2_0_split
I0106 23:20:04.485911 17082 net.cpp:380] pool2/3x3_s2_pool2/3x3_s2_0_split <- pool2/3x3_s2
I0106 23:20:04.485921 17082 net.cpp:338] pool2/3x3_s2_pool2/3x3_s2_0_split -> pool2/3x3_s2_pool2/3x3_s2_0_split_0
I0106 23:20:04.485931 17082 net.cpp:338] pool2/3x3_s2_pool2/3x3_s2_0_split -> pool2/3x3_s2_pool2/3x3_s2_0_split_1
I0106 23:20:04.485939 17082 net.cpp:338] pool2/3x3_s2_pool2/3x3_s2_0_split -> pool2/3x3_s2_pool2/3x3_s2_0_split_2
I0106 23:20:04.485947 17082 net.cpp:338] pool2/3x3_s2_pool2/3x3_s2_0_split -> pool2/3x3_s2_pool2/3x3_s2_0_split_3
I0106 23:20:04.485954 17082 net.cpp:113] Setting up pool2/3x3_s2_pool2/3x3_s2_0_split
I0106 23:20:04.485963 17082 net.cpp:120] Top shape: 80 192 28 28 (12042240)
I0106 23:20:04.485970 17082 net.cpp:120] Top shape: 80 192 28 28 (12042240)
I0106 23:20:04.485975 17082 net.cpp:120] Top shape: 80 192 28 28 (12042240)
I0106 23:20:04.485980 17082 net.cpp:120] Top shape: 80 192 28 28 (12042240)
I0106 23:20:04.485987 17082 layer_factory.hpp:74] Creating layer inception_3a/1x1
I0106 23:20:04.485997 17082 net.cpp:84] Creating Layer inception_3a/1x1
I0106 23:20:04.486002 17082 net.cpp:380] inception_3a/1x1 <- pool2/3x3_s2_pool2/3x3_s2_0_split_0
I0106 23:20:04.486014 17082 net.cpp:338] inception_3a/1x1 -> inception_3a/1x1
I0106 23:20:04.486027 17082 net.cpp:113] Setting up inception_3a/1x1
I0106 23:20:04.487012 17082 net.cpp:120] Top shape: 80 64 28 28 (4014080)
I0106 23:20:04.487033 17082 layer_factory.hpp:74] Creating layer inception_3a/relu_1x1
I0106 23:20:04.487041 17082 net.cpp:84] Creating Layer inception_3a/relu_1x1
I0106 23:20:04.487047 17082 net.cpp:380] inception_3a/relu_1x1 <- inception_3a/1x1
I0106 23:20:04.487057 17082 net.cpp:327] inception_3a/relu_1x1 -> inception_3a/1x1 (in-place)
I0106 23:20:04.487066 17082 net.cpp:113] Setting up inception_3a/relu_1x1
I0106 23:20:04.487136 17082 net.cpp:120] Top shape: 80 64 28 28 (4014080)
I0106 23:20:04.487144 17082 layer_factory.hpp:74] Creating layer inception_3a/3x3_reduce
I0106 23:20:04.487155 17082 net.cpp:84] Creating Layer inception_3a/3x3_reduce
I0106 23:20:04.487160 17082 net.cpp:380] inception_3a/3x3_reduce <- pool2/3x3_s2_pool2/3x3_s2_0_split_1
I0106 23:20:04.487170 17082 net.cpp:338] inception_3a/3x3_reduce -> inception_3a/3x3_reduce
I0106 23:20:04.487179 17082 net.cpp:113] Setting up inception_3a/3x3_reduce
I0106 23:20:04.488131 17082 net.cpp:120] Top shape: 80 96 28 28 (6021120)
I0106 23:20:04.488150 17082 layer_factory.hpp:74] Creating layer inception_3a/relu_3x3_reduce
I0106 23:20:04.488162 17082 net.cpp:84] Creating Layer inception_3a/relu_3x3_reduce
I0106 23:20:04.488168 17082 net.cpp:380] inception_3a/relu_3x3_reduce <- inception_3a/3x3_reduce
I0106 23:20:04.488173 17082 net.cpp:327] inception_3a/relu_3x3_reduce -> inception_3a/3x3_reduce (in-place)
I0106 23:20:04.488181 17082 net.cpp:113] Setting up inception_3a/relu_3x3_reduce
I0106 23:20:04.488683 17082 net.cpp:120] Top shape: 80 96 28 28 (6021120)
I0106 23:20:04.488700 17082 layer_factory.hpp:74] Creating layer inception_3a/3x3
I0106 23:20:04.488710 17082 net.cpp:84] Creating Layer inception_3a/3x3
I0106 23:20:04.488715 17082 net.cpp:380] inception_3a/3x3 <- inception_3a/3x3_reduce
I0106 23:20:04.488731 17082 net.cpp:338] inception_3a/3x3 -> inception_3a/3x3
I0106 23:20:04.488749 17082 net.cpp:113] Setting up inception_3a/3x3
I0106 23:20:04.490533 17082 net.cpp:120] Top shape: 80 128 28 28 (8028160)
I0106 23:20:04.490552 17082 layer_factory.hpp:74] Creating layer inception_3a/relu_3x3
I0106 23:20:04.490561 17082 net.cpp:84] Creating Layer inception_3a/relu_3x3
I0106 23:20:04.490568 17082 net.cpp:380] inception_3a/relu_3x3 <- inception_3a/3x3
I0106 23:20:04.490576 17082 net.cpp:327] inception_3a/relu_3x3 -> inception_3a/3x3 (in-place)
I0106 23:20:04.490584 17082 net.cpp:113] Setting up inception_3a/relu_3x3
I0106 23:20:04.490897 17082 net.cpp:120] Top shape: 80 128 28 28 (8028160)
I0106 23:20:04.490911 17082 layer_factory.hpp:74] Creating layer inception_3a/5x5_reduce
I0106 23:20:04.490921 17082 net.cpp:84] Creating Layer inception_3a/5x5_reduce
I0106 23:20:04.490926 17082 net.cpp:380] inception_3a/5x5_reduce <- pool2/3x3_s2_pool2/3x3_s2_0_split_2
I0106 23:20:04.490936 17082 net.cpp:338] inception_3a/5x5_reduce -> inception_3a/5x5_reduce
I0106 23:20:04.490949 17082 net.cpp:113] Setting up inception_3a/5x5_reduce
I0106 23:20:04.491482 17082 net.cpp:120] Top shape: 80 16 28 28 (1003520)
I0106 23:20:04.491502 17082 layer_factory.hpp:74] Creating layer inception_3a/relu_5x5_reduce
I0106 23:20:04.491510 17082 net.cpp:84] Creating Layer inception_3a/relu_5x5_reduce
I0106 23:20:04.491516 17082 net.cpp:380] inception_3a/relu_5x5_reduce <- inception_3a/5x5_reduce
I0106 23:20:04.491525 17082 net.cpp:327] inception_3a/relu_5x5_reduce -> inception_3a/5x5_reduce (in-place)
I0106 23:20:04.491534 17082 net.cpp:113] Setting up inception_3a/relu_5x5_reduce
I0106 23:20:04.491626 17082 net.cpp:120] Top shape: 80 16 28 28 (1003520)
I0106 23:20:04.491633 17082 layer_factory.hpp:74] Creating layer inception_3a/5x5
I0106 23:20:04.491644 17082 net.cpp:84] Creating Layer inception_3a/5x5
I0106 23:20:04.491649 17082 net.cpp:380] inception_3a/5x5 <- inception_3a/5x5_reduce
I0106 23:20:04.491658 17082 net.cpp:338] inception_3a/5x5 -> inception_3a/5x5
I0106 23:20:04.491667 17082 net.cpp:113] Setting up inception_3a/5x5
I0106 23:20:04.492295 17082 net.cpp:120] Top shape: 80 32 28 28 (2007040)
I0106 23:20:04.492311 17082 layer_factory.hpp:74] Creating layer inception_3a/relu_5x5
I0106 23:20:04.492318 17082 net.cpp:84] Creating Layer inception_3a/relu_5x5
I0106 23:20:04.492323 17082 net.cpp:380] inception_3a/relu_5x5 <- inception_3a/5x5
I0106 23:20:04.492334 17082 net.cpp:327] inception_3a/relu_5x5 -> inception_3a/5x5 (in-place)
I0106 23:20:04.492343 17082 net.cpp:113] Setting up inception_3a/relu_5x5
I0106 23:20:04.492439 17082 net.cpp:120] Top shape: 80 32 28 28 (2007040)
I0106 23:20:04.492447 17082 layer_factory.hpp:74] Creating layer inception_3a/pool
I0106 23:20:04.492455 17082 layer_factory.cpp:56] CUDNN does not support padding or multiple tops. Using Caffe's own pooling layer.
I0106 23:20:04.492465 17082 net.cpp:84] Creating Layer inception_3a/pool
I0106 23:20:04.492470 17082 net.cpp:380] inception_3a/pool <- pool2/3x3_s2_pool2/3x3_s2_0_split_3
I0106 23:20:04.492477 17082 net.cpp:338] inception_3a/pool -> inception_3a/pool
I0106 23:20:04.492486 17082 net.cpp:113] Setting up inception_3a/pool
I0106 23:20:04.492494 17082 net.cpp:120] Top shape: 80 192 28 28 (12042240)
I0106 23:20:04.492498 17082 layer_factory.hpp:74] Creating layer inception_3a/pool_proj
I0106 23:20:04.492509 17082 net.cpp:84] Creating Layer inception_3a/pool_proj
I0106 23:20:04.492514 17082 net.cpp:380] inception_3a/pool_proj <- inception_3a/pool
I0106 23:20:04.492522 17082 net.cpp:338] inception_3a/pool_proj -> inception_3a/pool_proj
I0106 23:20:04.492528 17082 net.cpp:113] Setting up inception_3a/pool_proj
I0106 23:20:04.493077 17082 net.cpp:120] Top shape: 80 32 28 28 (2007040)
I0106 23:20:04.493096 17082 layer_factory.hpp:74] Creating layer inception_3a/relu_pool_proj
I0106 23:20:04.493106 17082 net.cpp:84] Creating Layer inception_3a/relu_pool_proj
I0106 23:20:04.493111 17082 net.cpp:380] inception_3a/relu_pool_proj <- inception_3a/pool_proj
I0106 23:20:04.493119 17082 net.cpp:327] inception_3a/relu_pool_proj -> inception_3a/pool_proj (in-place)
I0106 23:20:04.493139 17082 net.cpp:113] Setting up inception_3a/relu_pool_proj
I0106 23:20:04.493219 17082 net.cpp:120] Top shape: 80 32 28 28 (2007040)
I0106 23:20:04.493226 17082 layer_factory.hpp:74] Creating layer inception_3a/output
I0106 23:20:04.493245 17082 net.cpp:84] Creating Layer inception_3a/output
I0106 23:20:04.493250 17082 net.cpp:380] inception_3a/output <- inception_3a/1x1
I0106 23:20:04.493257 17082 net.cpp:380] inception_3a/output <- inception_3a/3x3
I0106 23:20:04.493263 17082 net.cpp:380] inception_3a/output <- inception_3a/5x5
I0106 23:20:04.493268 17082 net.cpp:380] inception_3a/output <- inception_3a/pool_proj
I0106 23:20:04.493279 17082 net.cpp:338] inception_3a/output -> inception_3a/output
I0106 23:20:04.493288 17082 net.cpp:113] Setting up inception_3a/output
I0106 23:20:04.493297 17082 net.cpp:120] Top shape: 80 256 28 28 (16056320)
I0106 23:20:04.493302 17082 layer_factory.hpp:74] Creating layer inception_3a/output_inception_3a/output_0_split
I0106 23:20:04.493309 17082 net.cpp:84] Creating Layer inception_3a/output_inception_3a/output_0_split
I0106 23:20:04.493314 17082 net.cpp:380] inception_3a/output_inception_3a/output_0_split <- inception_3a/output
I0106 23:20:04.493321 17082 net.cpp:338] inception_3a/output_inception_3a/output_0_split -> inception_3a/output_inception_3a/output_0_split_0
I0106 23:20:04.493331 17082 net.cpp:338] inception_3a/output_inception_3a/output_0_split -> inception_3a/output_inception_3a/output_0_split_1
I0106 23:20:04.493340 17082 net.cpp:338] inception_3a/output_inception_3a/output_0_split -> inception_3a/output_inception_3a/output_0_split_2
I0106 23:20:04.493347 17082 net.cpp:338] inception_3a/output_inception_3a/output_0_split -> inception_3a/output_inception_3a/output_0_split_3
I0106 23:20:04.493353 17082 net.cpp:113] Setting up inception_3a/output_inception_3a/output_0_split
I0106 23:20:04.493362 17082 net.cpp:120] Top shape: 80 256 28 28 (16056320)
I0106 23:20:04.493367 17082 net.cpp:120] Top shape: 80 256 28 28 (16056320)
I0106 23:20:04.493372 17082 net.cpp:120] Top shape: 80 256 28 28 (16056320)
I0106 23:20:04.493378 17082 net.cpp:120] Top shape: 80 256 28 28 (16056320)
I0106 23:20:04.493383 17082 layer_factory.hpp:74] Creating layer inception_3b/1x1
I0106 23:20:04.493391 17082 net.cpp:84] Creating Layer inception_3b/1x1
I0106 23:20:04.493396 17082 net.cpp:380] inception_3b/1x1 <- inception_3a/output_inception_3a/output_0_split_0
I0106 23:20:04.493405 17082 net.cpp:338] inception_3b/1x1 -> inception_3b/1x1
I0106 23:20:04.493414 17082 net.cpp:113] Setting up inception_3b/1x1
I0106 23:20:04.494382 17082 net.cpp:120] Top shape: 80 128 28 28 (8028160)
I0106 23:20:04.494400 17082 layer_factory.hpp:74] Creating layer inception_3b/relu_1x1
I0106 23:20:04.494408 17082 net.cpp:84] Creating Layer inception_3b/relu_1x1
I0106 23:20:04.494415 17082 net.cpp:380] inception_3b/relu_1x1 <- inception_3b/1x1
I0106 23:20:04.494421 17082 net.cpp:327] inception_3b/relu_1x1 -> inception_3b/1x1 (in-place)
I0106 23:20:04.494429 17082 net.cpp:113] Setting up inception_3b/relu_1x1
I0106 23:20:04.494684 17082 net.cpp:120] Top shape: 80 128 28 28 (8028160)
I0106 23:20:04.494695 17082 layer_factory.hpp:74] Creating layer inception_3b/3x3_reduce
I0106 23:20:04.494705 17082 net.cpp:84] Creating Layer inception_3b/3x3_reduce
I0106 23:20:04.494710 17082 net.cpp:380] inception_3b/3x3_reduce <- inception_3a/output_inception_3a/output_0_split_1
I0106 23:20:04.494720 17082 net.cpp:338] inception_3b/3x3_reduce -> inception_3b/3x3_reduce
I0106 23:20:04.494730 17082 net.cpp:113] Setting up inception_3b/3x3_reduce
I0106 23:20:04.495652 17082 net.cpp:120] Top shape: 80 128 28 28 (8028160)
I0106 23:20:04.495668 17082 layer_factory.hpp:74] Creating layer inception_3b/relu_3x3_reduce
I0106 23:20:04.495677 17082 net.cpp:84] Creating Layer inception_3b/relu_3x3_reduce
I0106 23:20:04.495683 17082 net.cpp:380] inception_3b/relu_3x3_reduce <- inception_3b/3x3_reduce
I0106 23:20:04.495699 17082 net.cpp:327] inception_3b/relu_3x3_reduce -> inception_3b/3x3_reduce (in-place)
I0106 23:20:04.495719 17082 net.cpp:113] Setting up inception_3b/relu_3x3_reduce
I0106 23:20:04.495828 17082 net.cpp:120] Top shape: 80 128 28 28 (8028160)
I0106 23:20:04.495837 17082 layer_factory.hpp:74] Creating layer inception_3b/3x3
I0106 23:20:04.495851 17082 net.cpp:84] Creating Layer inception_3b/3x3
I0106 23:20:04.495857 17082 net.cpp:380] inception_3b/3x3 <- inception_3b/3x3_reduce
I0106 23:20:04.495868 17082 net.cpp:338] inception_3b/3x3 -> inception_3b/3x3
I0106 23:20:04.495878 17082 net.cpp:113] Setting up inception_3b/3x3
I0106 23:20:04.499351 17082 net.cpp:120] Top shape: 80 192 28 28 (12042240)
I0106 23:20:04.499371 17082 layer_factory.hpp:74] Creating layer inception_3b/relu_3x3
I0106 23:20:04.499380 17082 net.cpp:84] Creating Layer inception_3b/relu_3x3
I0106 23:20:04.499387 17082 net.cpp:380] inception_3b/relu_3x3 <- inception_3b/3x3
I0106 23:20:04.499403 17082 net.cpp:327] inception_3b/relu_3x3 -> inception_3b/3x3 (in-place)
I0106 23:20:04.499413 17082 net.cpp:113] Setting up inception_3b/relu_3x3
I0106 23:20:04.499493 17082 net.cpp:120] Top shape: 80 192 28 28 (12042240)
I0106 23:20:04.499500 17082 layer_factory.hpp:74] Creating layer inception_3b/5x5_reduce
I0106 23:20:04.499526 17082 net.cpp:84] Creating Layer inception_3b/5x5_reduce
I0106 23:20:04.499533 17082 net.cpp:380] inception_3b/5x5_reduce <- inception_3a/output_inception_3a/output_0_split_2
I0106 23:20:04.499544 17082 net.cpp:338] inception_3b/5x5_reduce -> inception_3b/5x5_reduce
I0106 23:20:04.499553 17082 net.cpp:113] Setting up inception_3b/5x5_reduce
I0106 23:20:04.500118 17082 net.cpp:120] Top shape: 80 32 28 28 (2007040)
I0106 23:20:04.500135 17082 layer_factory.hpp:74] Creating layer inception_3b/relu_5x5_reduce
I0106 23:20:04.500145 17082 net.cpp:84] Creating Layer inception_3b/relu_5x5_reduce
I0106 23:20:04.500151 17082 net.cpp:380] inception_3b/relu_5x5_reduce <- inception_3b/5x5_reduce
I0106 23:20:04.500159 17082 net.cpp:327] inception_3b/relu_5x5_reduce -> inception_3b/5x5_reduce (in-place)
I0106 23:20:04.500167 17082 net.cpp:113] Setting up inception_3b/relu_5x5_reduce
I0106 23:20:04.500244 17082 net.cpp:120] Top shape: 80 32 28 28 (2007040)
I0106 23:20:04.500252 17082 layer_factory.hpp:74] Creating layer inception_3b/5x5
I0106 23:20:04.500262 17082 net.cpp:84] Creating Layer inception_3b/5x5
I0106 23:20:04.500267 17082 net.cpp:380] inception_3b/5x5 <- inception_3b/5x5_reduce
I0106 23:20:04.500274 17082 net.cpp:338] inception_3b/5x5 -> inception_3b/5x5
I0106 23:20:04.500288 17082 net.cpp:113] Setting up inception_3b/5x5
I0106 23:20:04.501833 17082 net.cpp:120] Top shape: 80 96 28 28 (6021120)
I0106 23:20:04.501852 17082 layer_factory.hpp:74] Creating layer inception_3b/relu_5x5
I0106 23:20:04.501860 17082 net.cpp:84] Creating Layer inception_3b/relu_5x5
I0106 23:20:04.501866 17082 net.cpp:380] inception_3b/relu_5x5 <- inception_3b/5x5
I0106 23:20:04.501875 17082 net.cpp:327] inception_3b/relu_5x5 -> inception_3b/5x5 (in-place)
I0106 23:20:04.501883 17082 net.cpp:113] Setting up inception_3b/relu_5x5
I0106 23:20:04.502133 17082 net.cpp:120] Top shape: 80 96 28 28 (6021120)
I0106 23:20:04.502146 17082 layer_factory.hpp:74] Creating layer inception_3b/pool
I0106 23:20:04.502151 17082 layer_factory.cpp:56] CUDNN does not support padding or multiple tops. Using Caffe's own pooling layer.
I0106 23:20:04.502158 17082 net.cpp:84] Creating Layer inception_3b/pool
I0106 23:20:04.502163 17082 net.cpp:380] inception_3b/pool <- inception_3a/output_inception_3a/output_0_split_3
I0106 23:20:04.502171 17082 net.cpp:338] inception_3b/pool -> inception_3b/pool
I0106 23:20:04.502181 17082 net.cpp:113] Setting up inception_3b/pool
I0106 23:20:04.502189 17082 net.cpp:120] Top shape: 80 256 28 28 (16056320)
I0106 23:20:04.502194 17082 layer_factory.hpp:74] Creating layer inception_3b/pool_proj
I0106 23:20:04.502205 17082 net.cpp:84] Creating Layer inception_3b/pool_proj
I0106 23:20:04.502210 17082 net.cpp:380] inception_3b/pool_proj <- inception_3b/pool
I0106 23:20:04.502219 17082 net.cpp:338] inception_3b/pool_proj -> inception_3b/pool_proj
I0106 23:20:04.502233 17082 net.cpp:113] Setting up inception_3b/pool_proj
I0106 23:20:04.502974 17082 net.cpp:120] Top shape: 80 64 28 28 (4014080)
I0106 23:20:04.502990 17082 layer_factory.hpp:74] Creating layer inception_3b/relu_pool_proj
I0106 23:20:04.502997 17082 net.cpp:84] Creating Layer inception_3b/relu_pool_proj
I0106 23:20:04.503003 17082 net.cpp:380] inception_3b/relu_pool_proj <- inception_3b/pool_proj
I0106 23:20:04.503011 17082 net.cpp:327] inception_3b/relu_pool_proj -> inception_3b/pool_proj (in-place)
I0106 23:20:04.503020 17082 net.cpp:113] Setting up inception_3b/relu_pool_proj
I0106 23:20:04.503093 17082 net.cpp:120] Top shape: 80 64 28 28 (4014080)
I0106 23:20:04.503100 17082 layer_factory.hpp:74] Creating layer inception_3b/output
I0106 23:20:04.503108 17082 net.cpp:84] Creating Layer inception_3b/output
I0106 23:20:04.503113 17082 net.cpp:380] inception_3b/output <- inception_3b/1x1
I0106 23:20:04.503118 17082 net.cpp:380] inception_3b/output <- inception_3b/3x3
I0106 23:20:04.503123 17082 net.cpp:380] inception_3b/output <- inception_3b/5x5
I0106 23:20:04.503129 17082 net.cpp:380] inception_3b/output <- inception_3b/pool_proj
I0106 23:20:04.503136 17082 net.cpp:338] inception_3b/output -> inception_3b/output
I0106 23:20:04.503144 17082 net.cpp:113] Setting up inception_3b/output
I0106 23:20:04.503151 17082 net.cpp:120] Top shape: 80 480 28 28 (30105600)
I0106 23:20:04.503155 17082 layer_factory.hpp:74] Creating layer pool3/3x3_s2
I0106 23:20:04.503164 17082 net.cpp:84] Creating Layer pool3/3x3_s2
I0106 23:20:04.503167 17082 net.cpp:380] pool3/3x3_s2 <- inception_3b/output
I0106 23:20:04.503175 17082 net.cpp:338] pool3/3x3_s2 -> pool3/3x3_s2
I0106 23:20:04.503180 17082 net.cpp:113] Setting up pool3/3x3_s2
I0106 23:20:04.503248 17082 net.cpp:120] Top shape: 80 480 14 14 (7526400)
I0106 23:20:04.503257 17082 layer_factory.hpp:74] Creating layer pool3/3x3_s2_pool3/3x3_s2_0_split
I0106 23:20:04.503263 17082 net.cpp:84] Creating Layer pool3/3x3_s2_pool3/3x3_s2_0_split
I0106 23:20:04.503268 17082 net.cpp:380] pool3/3x3_s2_pool3/3x3_s2_0_split <- pool3/3x3_s2
I0106 23:20:04.503276 17082 net.cpp:338] pool3/3x3_s2_pool3/3x3_s2_0_split -> pool3/3x3_s2_pool3/3x3_s2_0_split_0
I0106 23:20:04.503284 17082 net.cpp:338] pool3/3x3_s2_pool3/3x3_s2_0_split -> pool3/3x3_s2_pool3/3x3_s2_0_split_1
I0106 23:20:04.503290 17082 net.cpp:338] pool3/3x3_s2_pool3/3x3_s2_0_split -> pool3/3x3_s2_pool3/3x3_s2_0_split_2
I0106 23:20:04.503298 17082 net.cpp:338] pool3/3x3_s2_pool3/3x3_s2_0_split -> pool3/3x3_s2_pool3/3x3_s2_0_split_3
I0106 23:20:04.503304 17082 net.cpp:113] Setting up pool3/3x3_s2_pool3/3x3_s2_0_split
I0106 23:20:04.503312 17082 net.cpp:120] Top shape: 80 480 14 14 (7526400)
I0106 23:20:04.503317 17082 net.cpp:120] Top shape: 80 480 14 14 (7526400)
I0106 23:20:04.503322 17082 net.cpp:120] Top shape: 80 480 14 14 (7526400)
I0106 23:20:04.503327 17082 net.cpp:120] Top shape: 80 480 14 14 (7526400)
I0106 23:20:04.503331 17082 layer_factory.hpp:74] Creating layer inception_4a/1x1
I0106 23:20:04.503340 17082 net.cpp:84] Creating Layer inception_4a/1x1
I0106 23:20:04.503345 17082 net.cpp:380] inception_4a/1x1 <- pool3/3x3_s2_pool3/3x3_s2_0_split_0
I0106 23:20:04.503353 17082 net.cpp:338] inception_4a/1x1 -> inception_4a/1x1
I0106 23:20:04.503361 17082 net.cpp:113] Setting up inception_4a/1x1
I0106 23:20:04.504820 17082 net.cpp:120] Top shape: 80 192 14 14 (3010560)
I0106 23:20:04.504837 17082 layer_factory.hpp:74] Creating layer inception_4a/relu_1x1
I0106 23:20:04.504844 17082 net.cpp:84] Creating Layer inception_4a/relu_1x1
I0106 23:20:04.504849 17082 net.cpp:380] inception_4a/relu_1x1 <- inception_4a/1x1
I0106 23:20:04.504856 17082 net.cpp:327] inception_4a/relu_1x1 -> inception_4a/1x1 (in-place)
I0106 23:20:04.504863 17082 net.cpp:113] Setting up inception_4a/relu_1x1
I0106 23:20:04.505106 17082 net.cpp:120] Top shape: 80 192 14 14 (3010560)
I0106 23:20:04.505117 17082 layer_factory.hpp:74] Creating layer inception_4a/3x3_reduce
I0106 23:20:04.505125 17082 net.cpp:84] Creating Layer inception_4a/3x3_reduce
I0106 23:20:04.505136 17082 net.cpp:380] inception_4a/3x3_reduce <- pool3/3x3_s2_pool3/3x3_s2_0_split_1
I0106 23:20:04.505151 17082 net.cpp:338] inception_4a/3x3_reduce -> inception_4a/3x3_reduce
I0106 23:20:04.505162 17082 net.cpp:113] Setting up inception_4a/3x3_reduce
I0106 23:20:04.506106 17082 net.cpp:120] Top shape: 80 96 14 14 (1505280)
I0106 23:20:04.506127 17082 layer_factory.hpp:74] Creating layer inception_4a/relu_3x3_reduce
I0106 23:20:04.506139 17082 net.cpp:84] Creating Layer inception_4a/relu_3x3_reduce
I0106 23:20:04.506145 17082 net.cpp:380] inception_4a/relu_3x3_reduce <- inception_4a/3x3_reduce
I0106 23:20:04.506151 17082 net.cpp:327] inception_4a/relu_3x3_reduce -> inception_4a/3x3_reduce (in-place)
I0106 23:20:04.506160 17082 net.cpp:113] Setting up inception_4a/relu_3x3_reduce
I0106 23:20:04.506229 17082 net.cpp:120] Top shape: 80 96 14 14 (1505280)
I0106 23:20:04.506235 17082 layer_factory.hpp:74] Creating layer inception_4a/3x3
I0106 23:20:04.506245 17082 net.cpp:84] Creating Layer inception_4a/3x3
I0106 23:20:04.506250 17082 net.cpp:380] inception_4a/3x3 <- inception_4a/3x3_reduce
I0106 23:20:04.506258 17082 net.cpp:338] inception_4a/3x3 -> inception_4a/3x3
I0106 23:20:04.506266 17082 net.cpp:113] Setting up inception_4a/3x3
I0106 23:20:04.508721 17082 net.cpp:120] Top shape: 80 208 14 14 (3261440)
I0106 23:20:04.508736 17082 layer_factory.hpp:74] Creating layer inception_4a/relu_3x3
I0106 23:20:04.508744 17082 net.cpp:84] Creating Layer inception_4a/relu_3x3
I0106 23:20:04.508749 17082 net.cpp:380] inception_4a/relu_3x3 <- inception_4a/3x3
I0106 23:20:04.508756 17082 net.cpp:327] inception_4a/relu_3x3 -> inception_4a/3x3 (in-place)
I0106 23:20:04.508764 17082 net.cpp:113] Setting up inception_4a/relu_3x3
I0106 23:20:04.508831 17082 net.cpp:120] Top shape: 80 208 14 14 (3261440)
I0106 23:20:04.508837 17082 layer_factory.hpp:74] Creating layer inception_4a/5x5_reduce
I0106 23:20:04.508846 17082 net.cpp:84] Creating Layer inception_4a/5x5_reduce
I0106 23:20:04.508851 17082 net.cpp:380] inception_4a/5x5_reduce <- pool3/3x3_s2_pool3/3x3_s2_0_split_2
I0106 23:20:04.508859 17082 net.cpp:338] inception_4a/5x5_reduce -> inception_4a/5x5_reduce
I0106 23:20:04.508868 17082 net.cpp:113] Setting up inception_4a/5x5_reduce
I0106 23:20:04.509358 17082 net.cpp:120] Top shape: 80 16 14 14 (250880)
I0106 23:20:04.509373 17082 layer_factory.hpp:74] Creating layer inception_4a/relu_5x5_reduce
I0106 23:20:04.509384 17082 net.cpp:84] Creating Layer inception_4a/relu_5x5_reduce
I0106 23:20:04.509390 17082 net.cpp:380] inception_4a/relu_5x5_reduce <- inception_4a/5x5_reduce
I0106 23:20:04.509397 17082 net.cpp:327] inception_4a/relu_5x5_reduce -> inception_4a/5x5_reduce (in-place)
I0106 23:20:04.509404 17082 net.cpp:113] Setting up inception_4a/relu_5x5_reduce
I0106 23:20:04.509481 17082 net.cpp:120] Top shape: 80 16 14 14 (250880)
I0106 23:20:04.509490 17082 layer_factory.hpp:74] Creating layer inception_4a/5x5
I0106 23:20:04.509500 17082 net.cpp:84] Creating Layer inception_4a/5x5
I0106 23:20:04.509505 17082 net.cpp:380] inception_4a/5x5 <- inception_4a/5x5_reduce
I0106 23:20:04.509511 17082 net.cpp:338] inception_4a/5x5 -> inception_4a/5x5
I0106 23:20:04.509519 17082 net.cpp:113] Setting up inception_4a/5x5
I0106 23:20:04.510782 17082 net.cpp:120] Top shape: 80 48 14 14 (752640)
I0106 23:20:04.510797 17082 layer_factory.hpp:74] Creating layer inception_4a/relu_5x5
I0106 23:20:04.510807 17082 net.cpp:84] Creating Layer inception_4a/relu_5x5
I0106 23:20:04.510812 17082 net.cpp:380] inception_4a/relu_5x5 <- inception_4a/5x5
I0106 23:20:04.510818 17082 net.cpp:327] inception_4a/relu_5x5 -> inception_4a/5x5 (in-place)
I0106 23:20:04.510826 17082 net.cpp:113] Setting up inception_4a/relu_5x5
I0106 23:20:04.511068 17082 net.cpp:120] Top shape: 80 48 14 14 (752640)
I0106 23:20:04.511080 17082 layer_factory.hpp:74] Creating layer inception_4a/pool
I0106 23:20:04.511086 17082 layer_factory.cpp:56] CUDNN does not support padding or multiple tops. Using Caffe's own pooling layer.
I0106 23:20:04.511097 17082 net.cpp:84] Creating Layer inception_4a/pool
I0106 23:20:04.511109 17082 net.cpp:380] inception_4a/pool <- pool3/3x3_s2_pool3/3x3_s2_0_split_3
I0106 23:20:04.511118 17082 net.cpp:338] inception_4a/pool -> inception_4a/pool
I0106 23:20:04.511127 17082 net.cpp:113] Setting up inception_4a/pool
I0106 23:20:04.511137 17082 net.cpp:120] Top shape: 80 480 14 14 (7526400)
I0106 23:20:04.511140 17082 layer_factory.hpp:74] Creating layer inception_4a/pool_proj
I0106 23:20:04.511150 17082 net.cpp:84] Creating Layer inception_4a/pool_proj
I0106 23:20:04.511155 17082 net.cpp:380] inception_4a/pool_proj <- inception_4a/pool
I0106 23:20:04.511162 17082 net.cpp:338] inception_4a/pool_proj -> inception_4a/pool_proj
I0106 23:20:04.511169 17082 net.cpp:113] Setting up inception_4a/pool_proj
I0106 23:20:04.511922 17082 net.cpp:120] Top shape: 80 64 14 14 (1003520)
I0106 23:20:04.511939 17082 layer_factory.hpp:74] Creating layer inception_4a/relu_pool_proj
I0106 23:20:04.511946 17082 net.cpp:84] Creating Layer inception_4a/relu_pool_proj
I0106 23:20:04.511951 17082 net.cpp:380] inception_4a/relu_pool_proj <- inception_4a/pool_proj
I0106 23:20:04.511960 17082 net.cpp:327] inception_4a/relu_pool_proj -> inception_4a/pool_proj (in-place)
I0106 23:20:04.511968 17082 net.cpp:113] Setting up inception_4a/relu_pool_proj
I0106 23:20:04.512038 17082 net.cpp:120] Top shape: 80 64 14 14 (1003520)
I0106 23:20:04.512044 17082 layer_factory.hpp:74] Creating layer inception_4a/output
I0106 23:20:04.512053 17082 net.cpp:84] Creating Layer inception_4a/output
I0106 23:20:04.512058 17082 net.cpp:380] inception_4a/output <- inception_4a/1x1
I0106 23:20:04.512064 17082 net.cpp:380] inception_4a/output <- inception_4a/3x3
I0106 23:20:04.512069 17082 net.cpp:380] inception_4a/output <- inception_4a/5x5
I0106 23:20:04.512074 17082 net.cpp:380] inception_4a/output <- inception_4a/pool_proj
I0106 23:20:04.512080 17082 net.cpp:338] inception_4a/output -> inception_4a/output
I0106 23:20:04.512089 17082 net.cpp:113] Setting up inception_4a/output
I0106 23:20:04.512095 17082 net.cpp:120] Top shape: 80 512 14 14 (8028160)
I0106 23:20:04.512100 17082 layer_factory.hpp:74] Creating layer inception_4a/output_inception_4a/output_0_split
I0106 23:20:04.512106 17082 net.cpp:84] Creating Layer inception_4a/output_inception_4a/output_0_split
I0106 23:20:04.512111 17082 net.cpp:380] inception_4a/output_inception_4a/output_0_split <- inception_4a/output
I0106 23:20:04.512120 17082 net.cpp:338] inception_4a/output_inception_4a/output_0_split -> inception_4a/output_inception_4a/output_0_split_0
I0106 23:20:04.512127 17082 net.cpp:338] inception_4a/output_inception_4a/output_0_split -> inception_4a/output_inception_4a/output_0_split_1
I0106 23:20:04.512135 17082 net.cpp:338] inception_4a/output_inception_4a/output_0_split -> inception_4a/output_inception_4a/output_0_split_2
I0106 23:20:04.512141 17082 net.cpp:338] inception_4a/output_inception_4a/output_0_split -> inception_4a/output_inception_4a/output_0_split_3
I0106 23:20:04.512147 17082 net.cpp:338] inception_4a/output_inception_4a/output_0_split -> inception_4a/output_inception_4a/output_0_split_4
I0106 23:20:04.512154 17082 net.cpp:113] Setting up inception_4a/output_inception_4a/output_0_split
I0106 23:20:04.512161 17082 net.cpp:120] Top shape: 80 512 14 14 (8028160)
I0106 23:20:04.512167 17082 net.cpp:120] Top shape: 80 512 14 14 (8028160)
I0106 23:20:04.512172 17082 net.cpp:120] Top shape: 80 512 14 14 (8028160)
I0106 23:20:04.512177 17082 net.cpp:120] Top shape: 80 512 14 14 (8028160)
I0106 23:20:04.512182 17082 net.cpp:120] Top shape: 80 512 14 14 (8028160)
I0106 23:20:04.512187 17082 layer_factory.hpp:74] Creating layer loss1/ave_pool
I0106 23:20:04.512194 17082 net.cpp:84] Creating Layer loss1/ave_pool
I0106 23:20:04.512199 17082 net.cpp:380] loss1/ave_pool <- inception_4a/output_inception_4a/output_0_split_0
I0106 23:20:04.512205 17082 net.cpp:338] loss1/ave_pool -> loss1/ave_pool
I0106 23:20:04.512212 17082 net.cpp:113] Setting up loss1/ave_pool
I0106 23:20:04.512279 17082 net.cpp:120] Top shape: 80 512 4 4 (655360)
I0106 23:20:04.512290 17082 layer_factory.hpp:74] Creating layer loss1/conv
I0106 23:20:04.512305 17082 net.cpp:84] Creating Layer loss1/conv
I0106 23:20:04.512310 17082 net.cpp:380] loss1/conv <- loss1/ave_pool
I0106 23:20:04.512317 17082 net.cpp:338] loss1/conv -> loss1/conv
I0106 23:20:04.512326 17082 net.cpp:113] Setting up loss1/conv
I0106 23:20:04.513487 17082 net.cpp:120] Top shape: 80 128 4 4 (163840)
I0106 23:20:04.513504 17082 layer_factory.hpp:74] Creating layer loss1/relu_conv
I0106 23:20:04.513514 17082 net.cpp:84] Creating Layer loss1/relu_conv
I0106 23:20:04.513520 17082 net.cpp:380] loss1/relu_conv <- loss1/conv
I0106 23:20:04.513526 17082 net.cpp:327] loss1/relu_conv -> loss1/conv (in-place)
I0106 23:20:04.513533 17082 net.cpp:113] Setting up loss1/relu_conv
I0106 23:20:04.513602 17082 net.cpp:120] Top shape: 80 128 4 4 (163840)
I0106 23:20:04.513609 17082 layer_factory.hpp:74] Creating layer loss1/fc
I0106 23:20:04.513618 17082 net.cpp:84] Creating Layer loss1/fc
I0106 23:20:04.513623 17082 net.cpp:380] loss1/fc <- loss1/conv
I0106 23:20:04.513633 17082 net.cpp:338] loss1/fc -> loss1/fc
I0106 23:20:04.513643 17082 net.cpp:113] Setting up loss1/fc
I0106 23:20:04.536196 17082 net.cpp:120] Top shape: 80 1024 (81920)
I0106 23:20:04.536212 17082 layer_factory.hpp:74] Creating layer loss1/relu_fc
I0106 23:20:04.536222 17082 net.cpp:84] Creating Layer loss1/relu_fc
I0106 23:20:04.536227 17082 net.cpp:380] loss1/relu_fc <- loss1/fc
I0106 23:20:04.536234 17082 net.cpp:327] loss1/relu_fc -> loss1/fc (in-place)
I0106 23:20:04.536242 17082 net.cpp:113] Setting up loss1/relu_fc
I0106 23:20:04.536509 17082 net.cpp:120] Top shape: 80 1024 (81920)
I0106 23:20:04.536520 17082 layer_factory.hpp:74] Creating layer loss1/drop_fc
I0106 23:20:04.536535 17082 net.cpp:84] Creating Layer loss1/drop_fc
I0106 23:20:04.536540 17082 net.cpp:380] loss1/drop_fc <- loss1/fc
I0106 23:20:04.536547 17082 net.cpp:327] loss1/drop_fc -> loss1/fc (in-place)
I0106 23:20:04.536556 17082 net.cpp:113] Setting up loss1/drop_fc
I0106 23:20:04.536566 17082 net.cpp:120] Top shape: 80 1024 (81920)
I0106 23:20:04.536571 17082 layer_factory.hpp:74] Creating layer loss1/classifier_kaggle
I0106 23:20:04.536579 17082 net.cpp:84] Creating Layer loss1/classifier_kaggle
I0106 23:20:04.536583 17082 net.cpp:380] loss1/classifier_kaggle <- loss1/fc
I0106 23:20:04.536592 17082 net.cpp:338] loss1/classifier_kaggle -> loss1/classifier_kaggle
I0106 23:20:04.536599 17082 net.cpp:113] Setting up loss1/classifier_kaggle
I0106 23:20:04.541846 17082 net.cpp:120] Top shape: 80 447 (35760)
I0106 23:20:04.541858 17082 layer_factory.hpp:74] Creating layer loss1/loss
I0106 23:20:04.541868 17082 net.cpp:84] Creating Layer loss1/loss
I0106 23:20:04.541874 17082 net.cpp:380] loss1/loss <- loss1/classifier_kaggle
I0106 23:20:04.541880 17082 net.cpp:380] loss1/loss <- label_data_1_split_0
I0106 23:20:04.541887 17082 net.cpp:338] loss1/loss -> loss1/loss1
I0106 23:20:04.541894 17082 net.cpp:113] Setting up loss1/loss
I0106 23:20:04.541903 17082 layer_factory.hpp:74] Creating layer loss1/loss
I0106 23:20:04.542065 17082 net.cpp:120] Top shape: (1)
I0106 23:20:04.542073 17082 net.cpp:122]     with loss weight 0.3
I0106 23:20:04.542089 17082 layer_factory.hpp:74] Creating layer inception_4b/1x1
I0106 23:20:04.542101 17082 net.cpp:84] Creating Layer inception_4b/1x1
I0106 23:20:04.542106 17082 net.cpp:380] inception_4b/1x1 <- inception_4a/output_inception_4a/output_0_split_1
I0106 23:20:04.542115 17082 net.cpp:338] inception_4b/1x1 -> inception_4b/1x1
I0106 23:20:04.542124 17082 net.cpp:113] Setting up inception_4b/1x1
I0106 23:20:04.543481 17082 net.cpp:120] Top shape: 80 160 14 14 (2508800)
I0106 23:20:04.543496 17082 layer_factory.hpp:74] Creating layer inception_4b/relu_1x1
I0106 23:20:04.543506 17082 net.cpp:84] Creating Layer inception_4b/relu_1x1
I0106 23:20:04.543512 17082 net.cpp:380] inception_4b/relu_1x1 <- inception_4b/1x1
I0106 23:20:04.543520 17082 net.cpp:327] inception_4b/relu_1x1 -> inception_4b/1x1 (in-place)
I0106 23:20:04.543529 17082 net.cpp:113] Setting up inception_4b/relu_1x1
I0106 23:20:04.543606 17082 net.cpp:120] Top shape: 80 160 14 14 (2508800)
I0106 23:20:04.543622 17082 layer_factory.hpp:74] Creating layer inception_4b/3x3_reduce
I0106 23:20:04.543629 17082 net.cpp:84] Creating Layer inception_4b/3x3_reduce
I0106 23:20:04.543634 17082 net.cpp:380] inception_4b/3x3_reduce <- inception_4a/output_inception_4a/output_0_split_2
I0106 23:20:04.543647 17082 net.cpp:338] inception_4b/3x3_reduce -> inception_4b/3x3_reduce
I0106 23:20:04.543655 17082 net.cpp:113] Setting up inception_4b/3x3_reduce
I0106 23:20:04.544719 17082 net.cpp:120] Top shape: 80 112 14 14 (1756160)
I0106 23:20:04.544734 17082 layer_factory.hpp:74] Creating layer inception_4b/relu_3x3_reduce
I0106 23:20:04.544744 17082 net.cpp:84] Creating Layer inception_4b/relu_3x3_reduce
I0106 23:20:04.544749 17082 net.cpp:380] inception_4b/relu_3x3_reduce <- inception_4b/3x3_reduce
I0106 23:20:04.544756 17082 net.cpp:327] inception_4b/relu_3x3_reduce -> inception_4b/3x3_reduce (in-place)
I0106 23:20:04.544764 17082 net.cpp:113] Setting up inception_4b/relu_3x3_reduce
I0106 23:20:04.544831 17082 net.cpp:120] Top shape: 80 112 14 14 (1756160)
I0106 23:20:04.544837 17082 layer_factory.hpp:74] Creating layer inception_4b/3x3
I0106 23:20:04.544847 17082 net.cpp:84] Creating Layer inception_4b/3x3
I0106 23:20:04.544852 17082 net.cpp:380] inception_4b/3x3 <- inception_4b/3x3_reduce
I0106 23:20:04.544859 17082 net.cpp:338] inception_4b/3x3 -> inception_4b/3x3
I0106 23:20:04.544867 17082 net.cpp:113] Setting up inception_4b/3x3
I0106 23:20:04.549783 17082 net.cpp:120] Top shape: 80 224 14 14 (3512320)
I0106 23:20:04.549800 17082 layer_factory.hpp:74] Creating layer inception_4b/relu_3x3
I0106 23:20:04.549808 17082 net.cpp:84] Creating Layer inception_4b/relu_3x3
I0106 23:20:04.549816 17082 net.cpp:380] inception_4b/relu_3x3 <- inception_4b/3x3
I0106 23:20:04.549823 17082 net.cpp:327] inception_4b/relu_3x3 -> inception_4b/3x3 (in-place)
I0106 23:20:04.549830 17082 net.cpp:113] Setting up inception_4b/relu_3x3
I0106 23:20:04.550078 17082 net.cpp:120] Top shape: 80 224 14 14 (3512320)
I0106 23:20:04.550089 17082 layer_factory.hpp:74] Creating layer inception_4b/5x5_reduce
I0106 23:20:04.550102 17082 net.cpp:84] Creating Layer inception_4b/5x5_reduce
I0106 23:20:04.550107 17082 net.cpp:380] inception_4b/5x5_reduce <- inception_4a/output_inception_4a/output_0_split_3
I0106 23:20:04.550115 17082 net.cpp:338] inception_4b/5x5_reduce -> inception_4b/5x5_reduce
I0106 23:20:04.550123 17082 net.cpp:113] Setting up inception_4b/5x5_reduce
I0106 23:20:04.550695 17082 net.cpp:120] Top shape: 80 24 14 14 (376320)
I0106 23:20:04.550711 17082 layer_factory.hpp:74] Creating layer inception_4b/relu_5x5_reduce
I0106 23:20:04.550719 17082 net.cpp:84] Creating Layer inception_4b/relu_5x5_reduce
I0106 23:20:04.550724 17082 net.cpp:380] inception_4b/relu_5x5_reduce <- inception_4b/5x5_reduce
I0106 23:20:04.550731 17082 net.cpp:327] inception_4b/relu_5x5_reduce -> inception_4b/5x5_reduce (in-place)
I0106 23:20:04.550739 17082 net.cpp:113] Setting up inception_4b/relu_5x5_reduce
I0106 23:20:04.550807 17082 net.cpp:120] Top shape: 80 24 14 14 (376320)
I0106 23:20:04.550814 17082 layer_factory.hpp:74] Creating layer inception_4b/5x5
I0106 23:20:04.550824 17082 net.cpp:84] Creating Layer inception_4b/5x5
I0106 23:20:04.550829 17082 net.cpp:380] inception_4b/5x5 <- inception_4b/5x5_reduce
I0106 23:20:04.550835 17082 net.cpp:338] inception_4b/5x5 -> inception_4b/5x5
I0106 23:20:04.550843 17082 net.cpp:113] Setting up inception_4b/5x5
I0106 23:20:04.551694 17082 net.cpp:120] Top shape: 80 64 14 14 (1003520)
I0106 23:20:04.551709 17082 layer_factory.hpp:74] Creating layer inception_4b/relu_5x5
I0106 23:20:04.551717 17082 net.cpp:84] Creating Layer inception_4b/relu_5x5
I0106 23:20:04.551723 17082 net.cpp:380] inception_4b/relu_5x5 <- inception_4b/5x5
I0106 23:20:04.551730 17082 net.cpp:327] inception_4b/relu_5x5 -> inception_4b/5x5 (in-place)
I0106 23:20:04.551738 17082 net.cpp:113] Setting up inception_4b/relu_5x5
I0106 23:20:04.551805 17082 net.cpp:120] Top shape: 80 64 14 14 (1003520)
I0106 23:20:04.551816 17082 layer_factory.hpp:74] Creating layer inception_4b/pool
I0106 23:20:04.551831 17082 layer_factory.cpp:56] CUDNN does not support padding or multiple tops. Using Caffe's own pooling layer.
I0106 23:20:04.551836 17082 net.cpp:84] Creating Layer inception_4b/pool
I0106 23:20:04.551842 17082 net.cpp:380] inception_4b/pool <- inception_4a/output_inception_4a/output_0_split_4
I0106 23:20:04.551851 17082 net.cpp:338] inception_4b/pool -> inception_4b/pool
I0106 23:20:04.551867 17082 net.cpp:113] Setting up inception_4b/pool
I0106 23:20:04.551877 17082 net.cpp:120] Top shape: 80 512 14 14 (8028160)
I0106 23:20:04.551882 17082 layer_factory.hpp:74] Creating layer inception_4b/pool_proj
I0106 23:20:04.551892 17082 net.cpp:84] Creating Layer inception_4b/pool_proj
I0106 23:20:04.551897 17082 net.cpp:380] inception_4b/pool_proj <- inception_4b/pool
I0106 23:20:04.551904 17082 net.cpp:338] inception_4b/pool_proj -> inception_4b/pool_proj
I0106 23:20:04.551913 17082 net.cpp:113] Setting up inception_4b/pool_proj
I0106 23:20:04.552695 17082 net.cpp:120] Top shape: 80 64 14 14 (1003520)
I0106 23:20:04.552709 17082 layer_factory.hpp:74] Creating layer inception_4b/relu_pool_proj
I0106 23:20:04.552717 17082 net.cpp:84] Creating Layer inception_4b/relu_pool_proj
I0106 23:20:04.552722 17082 net.cpp:380] inception_4b/relu_pool_proj <- inception_4b/pool_proj
I0106 23:20:04.552729 17082 net.cpp:327] inception_4b/relu_pool_proj -> inception_4b/pool_proj (in-place)
I0106 23:20:04.552736 17082 net.cpp:113] Setting up inception_4b/relu_pool_proj
I0106 23:20:04.552985 17082 net.cpp:120] Top shape: 80 64 14 14 (1003520)
I0106 23:20:04.552996 17082 layer_factory.hpp:74] Creating layer inception_4b/output
I0106 23:20:04.553005 17082 net.cpp:84] Creating Layer inception_4b/output
I0106 23:20:04.553010 17082 net.cpp:380] inception_4b/output <- inception_4b/1x1
I0106 23:20:04.553017 17082 net.cpp:380] inception_4b/output <- inception_4b/3x3
I0106 23:20:04.553022 17082 net.cpp:380] inception_4b/output <- inception_4b/5x5
I0106 23:20:04.553027 17082 net.cpp:380] inception_4b/output <- inception_4b/pool_proj
I0106 23:20:04.553033 17082 net.cpp:338] inception_4b/output -> inception_4b/output
I0106 23:20:04.553041 17082 net.cpp:113] Setting up inception_4b/output
I0106 23:20:04.553050 17082 net.cpp:120] Top shape: 80 512 14 14 (8028160)
I0106 23:20:04.553055 17082 layer_factory.hpp:74] Creating layer inception_4b/output_inception_4b/output_0_split
I0106 23:20:04.553062 17082 net.cpp:84] Creating Layer inception_4b/output_inception_4b/output_0_split
I0106 23:20:04.553067 17082 net.cpp:380] inception_4b/output_inception_4b/output_0_split <- inception_4b/output
I0106 23:20:04.553073 17082 net.cpp:338] inception_4b/output_inception_4b/output_0_split -> inception_4b/output_inception_4b/output_0_split_0
I0106 23:20:04.553081 17082 net.cpp:338] inception_4b/output_inception_4b/output_0_split -> inception_4b/output_inception_4b/output_0_split_1
I0106 23:20:04.553091 17082 net.cpp:338] inception_4b/output_inception_4b/output_0_split -> inception_4b/output_inception_4b/output_0_split_2
I0106 23:20:04.553097 17082 net.cpp:338] inception_4b/output_inception_4b/output_0_split -> inception_4b/output_inception_4b/output_0_split_3
I0106 23:20:04.553103 17082 net.cpp:113] Setting up inception_4b/output_inception_4b/output_0_split
I0106 23:20:04.553112 17082 net.cpp:120] Top shape: 80 512 14 14 (8028160)
I0106 23:20:04.553117 17082 net.cpp:120] Top shape: 80 512 14 14 (8028160)
I0106 23:20:04.553122 17082 net.cpp:120] Top shape: 80 512 14 14 (8028160)
I0106 23:20:04.553127 17082 net.cpp:120] Top shape: 80 512 14 14 (8028160)
I0106 23:20:04.553131 17082 layer_factory.hpp:74] Creating layer inception_4c/1x1
I0106 23:20:04.553140 17082 net.cpp:84] Creating Layer inception_4c/1x1
I0106 23:20:04.553144 17082 net.cpp:380] inception_4c/1x1 <- inception_4b/output_inception_4b/output_0_split_0
I0106 23:20:04.553153 17082 net.cpp:338] inception_4c/1x1 -> inception_4c/1x1
I0106 23:20:04.553161 17082 net.cpp:113] Setting up inception_4c/1x1
I0106 23:20:04.554328 17082 net.cpp:120] Top shape: 80 128 14 14 (2007040)
I0106 23:20:04.554352 17082 layer_factory.hpp:74] Creating layer inception_4c/relu_1x1
I0106 23:20:04.554359 17082 net.cpp:84] Creating Layer inception_4c/relu_1x1
I0106 23:20:04.554365 17082 net.cpp:380] inception_4c/relu_1x1 <- inception_4c/1x1
I0106 23:20:04.554373 17082 net.cpp:327] inception_4c/relu_1x1 -> inception_4c/1x1 (in-place)
I0106 23:20:04.554383 17082 net.cpp:113] Setting up inception_4c/relu_1x1
I0106 23:20:04.554455 17082 net.cpp:120] Top shape: 80 128 14 14 (2007040)
I0106 23:20:04.554461 17082 layer_factory.hpp:74] Creating layer inception_4c/3x3_reduce
I0106 23:20:04.554471 17082 net.cpp:84] Creating Layer inception_4c/3x3_reduce
I0106 23:20:04.554476 17082 net.cpp:380] inception_4c/3x3_reduce <- inception_4b/output_inception_4b/output_0_split_1
I0106 23:20:04.554483 17082 net.cpp:338] inception_4c/3x3_reduce -> inception_4c/3x3_reduce
I0106 23:20:04.554491 17082 net.cpp:113] Setting up inception_4c/3x3_reduce
I0106 23:20:04.555649 17082 net.cpp:120] Top shape: 80 128 14 14 (2007040)
I0106 23:20:04.555662 17082 layer_factory.hpp:74] Creating layer inception_4c/relu_3x3_reduce
I0106 23:20:04.555671 17082 net.cpp:84] Creating Layer inception_4c/relu_3x3_reduce
I0106 23:20:04.555677 17082 net.cpp:380] inception_4c/relu_3x3_reduce <- inception_4c/3x3_reduce
I0106 23:20:04.555685 17082 net.cpp:327] inception_4c/relu_3x3_reduce -> inception_4c/3x3_reduce (in-place)
I0106 23:20:04.555693 17082 net.cpp:113] Setting up inception_4c/relu_3x3_reduce
I0106 23:20:04.555763 17082 net.cpp:120] Top shape: 80 128 14 14 (2007040)
I0106 23:20:04.555768 17082 layer_factory.hpp:74] Creating layer inception_4c/3x3
I0106 23:20:04.555778 17082 net.cpp:84] Creating Layer inception_4c/3x3
I0106 23:20:04.555783 17082 net.cpp:380] inception_4c/3x3 <- inception_4c/3x3_reduce
I0106 23:20:04.555790 17082 net.cpp:338] inception_4c/3x3 -> inception_4c/3x3
I0106 23:20:04.555799 17082 net.cpp:113] Setting up inception_4c/3x3
I0106 23:20:04.559588 17082 net.cpp:120] Top shape: 80 256 14 14 (4014080)
I0106 23:20:04.559617 17082 layer_factory.hpp:74] Creating layer inception_4c/relu_3x3
I0106 23:20:04.559625 17082 net.cpp:84] Creating Layer inception_4c/relu_3x3
I0106 23:20:04.559631 17082 net.cpp:380] inception_4c/relu_3x3 <- inception_4c/3x3
I0106 23:20:04.559638 17082 net.cpp:327] inception_4c/relu_3x3 -> inception_4c/3x3 (in-place)
I0106 23:20:04.559646 17082 net.cpp:113] Setting up inception_4c/relu_3x3
I0106 23:20:04.559716 17082 net.cpp:120] Top shape: 80 256 14 14 (4014080)
I0106 23:20:04.559723 17082 layer_factory.hpp:74] Creating layer inception_4c/5x5_reduce
I0106 23:20:04.559734 17082 net.cpp:84] Creating Layer inception_4c/5x5_reduce
I0106 23:20:04.559741 17082 net.cpp:380] inception_4c/5x5_reduce <- inception_4b/output_inception_4b/output_0_split_2
I0106 23:20:04.559747 17082 net.cpp:338] inception_4c/5x5_reduce -> inception_4c/5x5_reduce
I0106 23:20:04.559756 17082 net.cpp:113] Setting up inception_4c/5x5_reduce
I0106 23:20:04.560313 17082 net.cpp:120] Top shape: 80 24 14 14 (376320)
I0106 23:20:04.560329 17082 layer_factory.hpp:74] Creating layer inception_4c/relu_5x5_reduce
I0106 23:20:04.560336 17082 net.cpp:84] Creating Layer inception_4c/relu_5x5_reduce
I0106 23:20:04.560341 17082 net.cpp:380] inception_4c/relu_5x5_reduce <- inception_4c/5x5_reduce
I0106 23:20:04.560350 17082 net.cpp:327] inception_4c/relu_5x5_reduce -> inception_4c/5x5_reduce (in-place)
I0106 23:20:04.560359 17082 net.cpp:113] Setting up inception_4c/relu_5x5_reduce
I0106 23:20:04.560607 17082 net.cpp:120] Top shape: 80 24 14 14 (376320)
I0106 23:20:04.560618 17082 layer_factory.hpp:74] Creating layer inception_4c/5x5
I0106 23:20:04.560626 17082 net.cpp:84] Creating Layer inception_4c/5x5
I0106 23:20:04.560632 17082 net.cpp:380] inception_4c/5x5 <- inception_4c/5x5_reduce
I0106 23:20:04.560642 17082 net.cpp:338] inception_4c/5x5 -> inception_4c/5x5
I0106 23:20:04.560652 17082 net.cpp:113] Setting up inception_4c/5x5
I0106 23:20:04.561508 17082 net.cpp:120] Top shape: 80 64 14 14 (1003520)
I0106 23:20:04.561530 17082 layer_factory.hpp:74] Creating layer inception_4c/relu_5x5
I0106 23:20:04.561547 17082 net.cpp:84] Creating Layer inception_4c/relu_5x5
I0106 23:20:04.561554 17082 net.cpp:380] inception_4c/relu_5x5 <- inception_4c/5x5
I0106 23:20:04.561560 17082 net.cpp:327] inception_4c/relu_5x5 -> inception_4c/5x5 (in-place)
I0106 23:20:04.561568 17082 net.cpp:113] Setting up inception_4c/relu_5x5
I0106 23:20:04.561641 17082 net.cpp:120] Top shape: 80 64 14 14 (1003520)
I0106 23:20:04.561648 17082 layer_factory.hpp:74] Creating layer inception_4c/pool
I0106 23:20:04.561655 17082 layer_factory.cpp:56] CUDNN does not support padding or multiple tops. Using Caffe's own pooling layer.
I0106 23:20:04.561661 17082 net.cpp:84] Creating Layer inception_4c/pool
I0106 23:20:04.561666 17082 net.cpp:380] inception_4c/pool <- inception_4b/output_inception_4b/output_0_split_3
I0106 23:20:04.561674 17082 net.cpp:338] inception_4c/pool -> inception_4c/pool
I0106 23:20:04.561682 17082 net.cpp:113] Setting up inception_4c/pool
I0106 23:20:04.561691 17082 net.cpp:120] Top shape: 80 512 14 14 (8028160)
I0106 23:20:04.561696 17082 layer_factory.hpp:74] Creating layer inception_4c/pool_proj
I0106 23:20:04.561705 17082 net.cpp:84] Creating Layer inception_4c/pool_proj
I0106 23:20:04.561710 17082 net.cpp:380] inception_4c/pool_proj <- inception_4c/pool
I0106 23:20:04.561717 17082 net.cpp:338] inception_4c/pool_proj -> inception_4c/pool_proj
I0106 23:20:04.561724 17082 net.cpp:113] Setting up inception_4c/pool_proj
I0106 23:20:04.562507 17082 net.cpp:120] Top shape: 80 64 14 14 (1003520)
I0106 23:20:04.562522 17082 layer_factory.hpp:74] Creating layer inception_4c/relu_pool_proj
I0106 23:20:04.562531 17082 net.cpp:84] Creating Layer inception_4c/relu_pool_proj
I0106 23:20:04.562537 17082 net.cpp:380] inception_4c/relu_pool_proj <- inception_4c/pool_proj
I0106 23:20:04.562546 17082 net.cpp:327] inception_4c/relu_pool_proj -> inception_4c/pool_proj (in-place)
I0106 23:20:04.562553 17082 net.cpp:113] Setting up inception_4c/relu_pool_proj
I0106 23:20:04.562623 17082 net.cpp:120] Top shape: 80 64 14 14 (1003520)
I0106 23:20:04.562630 17082 layer_factory.hpp:74] Creating layer inception_4c/output
I0106 23:20:04.562638 17082 net.cpp:84] Creating Layer inception_4c/output
I0106 23:20:04.562643 17082 net.cpp:380] inception_4c/output <- inception_4c/1x1
I0106 23:20:04.562649 17082 net.cpp:380] inception_4c/output <- inception_4c/3x3
I0106 23:20:04.562654 17082 net.cpp:380] inception_4c/output <- inception_4c/5x5
I0106 23:20:04.562659 17082 net.cpp:380] inception_4c/output <- inception_4c/pool_proj
I0106 23:20:04.562666 17082 net.cpp:338] inception_4c/output -> inception_4c/output
I0106 23:20:04.562674 17082 net.cpp:113] Setting up inception_4c/output
I0106 23:20:04.562681 17082 net.cpp:120] Top shape: 80 512 14 14 (8028160)
I0106 23:20:04.562686 17082 layer_factory.hpp:74] Creating layer inception_4c/output_inception_4c/output_0_split
I0106 23:20:04.562693 17082 net.cpp:84] Creating Layer inception_4c/output_inception_4c/output_0_split
I0106 23:20:04.562698 17082 net.cpp:380] inception_4c/output_inception_4c/output_0_split <- inception_4c/output
I0106 23:20:04.562705 17082 net.cpp:338] inception_4c/output_inception_4c/output_0_split -> inception_4c/output_inception_4c/output_0_split_0
I0106 23:20:04.562712 17082 net.cpp:338] inception_4c/output_inception_4c/output_0_split -> inception_4c/output_inception_4c/output_0_split_1
I0106 23:20:04.562719 17082 net.cpp:338] inception_4c/output_inception_4c/output_0_split -> inception_4c/output_inception_4c/output_0_split_2
I0106 23:20:04.562726 17082 net.cpp:338] inception_4c/output_inception_4c/output_0_split -> inception_4c/output_inception_4c/output_0_split_3
I0106 23:20:04.562732 17082 net.cpp:113] Setting up inception_4c/output_inception_4c/output_0_split
I0106 23:20:04.562741 17082 net.cpp:120] Top shape: 80 512 14 14 (8028160)
I0106 23:20:04.562747 17082 net.cpp:120] Top shape: 80 512 14 14 (8028160)
I0106 23:20:04.562752 17082 net.cpp:120] Top shape: 80 512 14 14 (8028160)
I0106 23:20:04.562762 17082 net.cpp:120] Top shape: 80 512 14 14 (8028160)
I0106 23:20:04.562772 17082 layer_factory.hpp:74] Creating layer inception_4d/1x1
I0106 23:20:04.562783 17082 net.cpp:84] Creating Layer inception_4d/1x1
I0106 23:20:04.562788 17082 net.cpp:380] inception_4d/1x1 <- inception_4c/output_inception_4c/output_0_split_0
I0106 23:20:04.562794 17082 net.cpp:338] inception_4d/1x1 -> inception_4d/1x1
I0106 23:20:04.562801 17082 net.cpp:113] Setting up inception_4d/1x1
I0106 23:20:04.563868 17082 net.cpp:120] Top shape: 80 112 14 14 (1756160)
I0106 23:20:04.563884 17082 layer_factory.hpp:74] Creating layer inception_4d/relu_1x1
I0106 23:20:04.563891 17082 net.cpp:84] Creating Layer inception_4d/relu_1x1
I0106 23:20:04.563896 17082 net.cpp:380] inception_4d/relu_1x1 <- inception_4d/1x1
I0106 23:20:04.563905 17082 net.cpp:327] inception_4d/relu_1x1 -> inception_4d/1x1 (in-place)
I0106 23:20:04.563913 17082 net.cpp:113] Setting up inception_4d/relu_1x1
I0106 23:20:04.563980 17082 net.cpp:120] Top shape: 80 112 14 14 (1756160)
I0106 23:20:04.563988 17082 layer_factory.hpp:74] Creating layer inception_4d/3x3_reduce
I0106 23:20:04.563999 17082 net.cpp:84] Creating Layer inception_4d/3x3_reduce
I0106 23:20:04.564004 17082 net.cpp:380] inception_4d/3x3_reduce <- inception_4c/output_inception_4c/output_0_split_1
I0106 23:20:04.564012 17082 net.cpp:338] inception_4d/3x3_reduce -> inception_4d/3x3_reduce
I0106 23:20:04.564019 17082 net.cpp:113] Setting up inception_4d/3x3_reduce
I0106 23:20:04.565276 17082 net.cpp:120] Top shape: 80 144 14 14 (2257920)
I0106 23:20:04.565291 17082 layer_factory.hpp:74] Creating layer inception_4d/relu_3x3_reduce
I0106 23:20:04.565299 17082 net.cpp:84] Creating Layer inception_4d/relu_3x3_reduce
I0106 23:20:04.565305 17082 net.cpp:380] inception_4d/relu_3x3_reduce <- inception_4d/3x3_reduce
I0106 23:20:04.565315 17082 net.cpp:327] inception_4d/relu_3x3_reduce -> inception_4d/3x3_reduce (in-place)
I0106 23:20:04.565322 17082 net.cpp:113] Setting up inception_4d/relu_3x3_reduce
I0106 23:20:04.565580 17082 net.cpp:120] Top shape: 80 144 14 14 (2257920)
I0106 23:20:04.565593 17082 layer_factory.hpp:74] Creating layer inception_4d/3x3
I0106 23:20:04.565603 17082 net.cpp:84] Creating Layer inception_4d/3x3
I0106 23:20:04.565608 17082 net.cpp:380] inception_4d/3x3 <- inception_4d/3x3_reduce
I0106 23:20:04.565616 17082 net.cpp:338] inception_4d/3x3 -> inception_4d/3x3
I0106 23:20:04.565624 17082 net.cpp:113] Setting up inception_4d/3x3
I0106 23:20:04.570314 17082 net.cpp:120] Top shape: 80 288 14 14 (4515840)
I0106 23:20:04.570329 17082 layer_factory.hpp:74] Creating layer inception_4d/relu_3x3
I0106 23:20:04.570340 17082 net.cpp:84] Creating Layer inception_4d/relu_3x3
I0106 23:20:04.570346 17082 net.cpp:380] inception_4d/relu_3x3 <- inception_4d/3x3
I0106 23:20:04.570353 17082 net.cpp:327] inception_4d/relu_3x3 -> inception_4d/3x3 (in-place)
I0106 23:20:04.570360 17082 net.cpp:113] Setting up inception_4d/relu_3x3
I0106 23:20:04.570430 17082 net.cpp:120] Top shape: 80 288 14 14 (4515840)
I0106 23:20:04.570436 17082 layer_factory.hpp:74] Creating layer inception_4d/5x5_reduce
I0106 23:20:04.570446 17082 net.cpp:84] Creating Layer inception_4d/5x5_reduce
I0106 23:20:04.570451 17082 net.cpp:380] inception_4d/5x5_reduce <- inception_4c/output_inception_4c/output_0_split_2
I0106 23:20:04.570459 17082 net.cpp:338] inception_4d/5x5_reduce -> inception_4d/5x5_reduce
I0106 23:20:04.570467 17082 net.cpp:113] Setting up inception_4d/5x5_reduce
I0106 23:20:04.571063 17082 net.cpp:120] Top shape: 80 32 14 14 (501760)
I0106 23:20:04.571077 17082 layer_factory.hpp:74] Creating layer inception_4d/relu_5x5_reduce
I0106 23:20:04.571086 17082 net.cpp:84] Creating Layer inception_4d/relu_5x5_reduce
I0106 23:20:04.571092 17082 net.cpp:380] inception_4d/relu_5x5_reduce <- inception_4d/5x5_reduce
I0106 23:20:04.571099 17082 net.cpp:327] inception_4d/relu_5x5_reduce -> inception_4d/5x5_reduce (in-place)
I0106 23:20:04.571106 17082 net.cpp:113] Setting up inception_4d/relu_5x5_reduce
I0106 23:20:04.571176 17082 net.cpp:120] Top shape: 80 32 14 14 (501760)
I0106 23:20:04.571192 17082 layer_factory.hpp:74] Creating layer inception_4d/5x5
I0106 23:20:04.571204 17082 net.cpp:84] Creating Layer inception_4d/5x5
I0106 23:20:04.571209 17082 net.cpp:380] inception_4d/5x5 <- inception_4d/5x5_reduce
I0106 23:20:04.571218 17082 net.cpp:338] inception_4d/5x5 -> inception_4d/5x5
I0106 23:20:04.571226 17082 net.cpp:113] Setting up inception_4d/5x5
I0106 23:20:04.572222 17082 net.cpp:120] Top shape: 80 64 14 14 (1003520)
I0106 23:20:04.572237 17082 layer_factory.hpp:74] Creating layer inception_4d/relu_5x5
I0106 23:20:04.572247 17082 net.cpp:84] Creating Layer inception_4d/relu_5x5
I0106 23:20:04.572253 17082 net.cpp:380] inception_4d/relu_5x5 <- inception_4d/5x5
I0106 23:20:04.572260 17082 net.cpp:327] inception_4d/relu_5x5 -> inception_4d/5x5 (in-place)
I0106 23:20:04.572268 17082 net.cpp:113] Setting up inception_4d/relu_5x5
I0106 23:20:04.572338 17082 net.cpp:120] Top shape: 80 64 14 14 (1003520)
I0106 23:20:04.572345 17082 layer_factory.hpp:74] Creating layer inception_4d/pool
I0106 23:20:04.572350 17082 layer_factory.cpp:56] CUDNN does not support padding or multiple tops. Using Caffe's own pooling layer.
I0106 23:20:04.572356 17082 net.cpp:84] Creating Layer inception_4d/pool
I0106 23:20:04.572361 17082 net.cpp:380] inception_4d/pool <- inception_4c/output_inception_4c/output_0_split_3
I0106 23:20:04.572368 17082 net.cpp:338] inception_4d/pool -> inception_4d/pool
I0106 23:20:04.572376 17082 net.cpp:113] Setting up inception_4d/pool
I0106 23:20:04.572384 17082 net.cpp:120] Top shape: 80 512 14 14 (8028160)
I0106 23:20:04.572388 17082 layer_factory.hpp:74] Creating layer inception_4d/pool_proj
I0106 23:20:04.572398 17082 net.cpp:84] Creating Layer inception_4d/pool_proj
I0106 23:20:04.572403 17082 net.cpp:380] inception_4d/pool_proj <- inception_4d/pool
I0106 23:20:04.572412 17082 net.cpp:338] inception_4d/pool_proj -> inception_4d/pool_proj
I0106 23:20:04.572419 17082 net.cpp:113] Setting up inception_4d/pool_proj
I0106 23:20:04.573199 17082 net.cpp:120] Top shape: 80 64 14 14 (1003520)
I0106 23:20:04.573215 17082 layer_factory.hpp:74] Creating layer inception_4d/relu_pool_proj
I0106 23:20:04.573225 17082 net.cpp:84] Creating Layer inception_4d/relu_pool_proj
I0106 23:20:04.573230 17082 net.cpp:380] inception_4d/relu_pool_proj <- inception_4d/pool_proj
I0106 23:20:04.573237 17082 net.cpp:327] inception_4d/relu_pool_proj -> inception_4d/pool_proj (in-place)
I0106 23:20:04.573245 17082 net.cpp:113] Setting up inception_4d/relu_pool_proj
I0106 23:20:04.573498 17082 net.cpp:120] Top shape: 80 64 14 14 (1003520)
I0106 23:20:04.573509 17082 layer_factory.hpp:74] Creating layer inception_4d/output
I0106 23:20:04.573519 17082 net.cpp:84] Creating Layer inception_4d/output
I0106 23:20:04.573524 17082 net.cpp:380] inception_4d/output <- inception_4d/1x1
I0106 23:20:04.573531 17082 net.cpp:380] inception_4d/output <- inception_4d/3x3
I0106 23:20:04.573536 17082 net.cpp:380] inception_4d/output <- inception_4d/5x5
I0106 23:20:04.573541 17082 net.cpp:380] inception_4d/output <- inception_4d/pool_proj
I0106 23:20:04.573547 17082 net.cpp:338] inception_4d/output -> inception_4d/output
I0106 23:20:04.573555 17082 net.cpp:113] Setting up inception_4d/output
I0106 23:20:04.573564 17082 net.cpp:120] Top shape: 80 528 14 14 (8279040)
I0106 23:20:04.573568 17082 layer_factory.hpp:74] Creating layer inception_4d/output_inception_4d/output_0_split
I0106 23:20:04.573575 17082 net.cpp:84] Creating Layer inception_4d/output_inception_4d/output_0_split
I0106 23:20:04.573580 17082 net.cpp:380] inception_4d/output_inception_4d/output_0_split <- inception_4d/output
I0106 23:20:04.573587 17082 net.cpp:338] inception_4d/output_inception_4d/output_0_split -> inception_4d/output_inception_4d/output_0_split_0
I0106 23:20:04.573596 17082 net.cpp:338] inception_4d/output_inception_4d/output_0_split -> inception_4d/output_inception_4d/output_0_split_1
I0106 23:20:04.573602 17082 net.cpp:338] inception_4d/output_inception_4d/output_0_split -> inception_4d/output_inception_4d/output_0_split_2
I0106 23:20:04.573616 17082 net.cpp:338] inception_4d/output_inception_4d/output_0_split -> inception_4d/output_inception_4d/output_0_split_3
I0106 23:20:04.573629 17082 net.cpp:338] inception_4d/output_inception_4d/output_0_split -> inception_4d/output_inception_4d/output_0_split_4
I0106 23:20:04.573637 17082 net.cpp:113] Setting up inception_4d/output_inception_4d/output_0_split
I0106 23:20:04.573647 17082 net.cpp:120] Top shape: 80 528 14 14 (8279040)
I0106 23:20:04.573652 17082 net.cpp:120] Top shape: 80 528 14 14 (8279040)
I0106 23:20:04.573657 17082 net.cpp:120] Top shape: 80 528 14 14 (8279040)
I0106 23:20:04.573662 17082 net.cpp:120] Top shape: 80 528 14 14 (8279040)
I0106 23:20:04.573668 17082 net.cpp:120] Top shape: 80 528 14 14 (8279040)
I0106 23:20:04.573671 17082 layer_factory.hpp:74] Creating layer loss2/ave_pool
I0106 23:20:04.573678 17082 net.cpp:84] Creating Layer loss2/ave_pool
I0106 23:20:04.573683 17082 net.cpp:380] loss2/ave_pool <- inception_4d/output_inception_4d/output_0_split_0
I0106 23:20:04.573689 17082 net.cpp:338] loss2/ave_pool -> loss2/ave_pool
I0106 23:20:04.573696 17082 net.cpp:113] Setting up loss2/ave_pool
I0106 23:20:04.573766 17082 net.cpp:120] Top shape: 80 528 4 4 (675840)
I0106 23:20:04.573775 17082 layer_factory.hpp:74] Creating layer loss2/conv
I0106 23:20:04.573782 17082 net.cpp:84] Creating Layer loss2/conv
I0106 23:20:04.573787 17082 net.cpp:380] loss2/conv <- loss2/ave_pool
I0106 23:20:04.573796 17082 net.cpp:338] loss2/conv -> loss2/conv
I0106 23:20:04.573803 17082 net.cpp:113] Setting up loss2/conv
I0106 23:20:04.574990 17082 net.cpp:120] Top shape: 80 128 4 4 (163840)
I0106 23:20:04.575006 17082 layer_factory.hpp:74] Creating layer loss2/relu_conv
I0106 23:20:04.575014 17082 net.cpp:84] Creating Layer loss2/relu_conv
I0106 23:20:04.575022 17082 net.cpp:380] loss2/relu_conv <- loss2/conv
I0106 23:20:04.575029 17082 net.cpp:327] loss2/relu_conv -> loss2/conv (in-place)
I0106 23:20:04.575037 17082 net.cpp:113] Setting up loss2/relu_conv
I0106 23:20:04.575104 17082 net.cpp:120] Top shape: 80 128 4 4 (163840)
I0106 23:20:04.575111 17082 layer_factory.hpp:74] Creating layer loss2/fc
I0106 23:20:04.575120 17082 net.cpp:84] Creating Layer loss2/fc
I0106 23:20:04.575125 17082 net.cpp:380] loss2/fc <- loss2/conv
I0106 23:20:04.575132 17082 net.cpp:338] loss2/fc -> loss2/fc
I0106 23:20:04.575140 17082 net.cpp:113] Setting up loss2/fc
I0106 23:20:04.598045 17082 net.cpp:120] Top shape: 80 1024 (81920)
I0106 23:20:04.598058 17082 layer_factory.hpp:74] Creating layer loss2/relu_fc
I0106 23:20:04.598067 17082 net.cpp:84] Creating Layer loss2/relu_fc
I0106 23:20:04.598073 17082 net.cpp:380] loss2/relu_fc <- loss2/fc
I0106 23:20:04.598079 17082 net.cpp:327] loss2/relu_fc -> loss2/fc (in-place)
I0106 23:20:04.598085 17082 net.cpp:113] Setting up loss2/relu_fc
I0106 23:20:04.598351 17082 net.cpp:120] Top shape: 80 1024 (81920)
I0106 23:20:04.598362 17082 layer_factory.hpp:74] Creating layer loss2/drop_fc
I0106 23:20:04.598371 17082 net.cpp:84] Creating Layer loss2/drop_fc
I0106 23:20:04.598377 17082 net.cpp:380] loss2/drop_fc <- loss2/fc
I0106 23:20:04.598386 17082 net.cpp:327] loss2/drop_fc -> loss2/fc (in-place)
I0106 23:20:04.598392 17082 net.cpp:113] Setting up loss2/drop_fc
I0106 23:20:04.598400 17082 net.cpp:120] Top shape: 80 1024 (81920)
I0106 23:20:04.598404 17082 layer_factory.hpp:74] Creating layer loss2/classifier_kaggle
I0106 23:20:04.598413 17082 net.cpp:84] Creating Layer loss2/classifier_kaggle
I0106 23:20:04.598417 17082 net.cpp:380] loss2/classifier_kaggle <- loss2/fc
I0106 23:20:04.598424 17082 net.cpp:338] loss2/classifier_kaggle -> loss2/classifier_kaggle
I0106 23:20:04.598433 17082 net.cpp:113] Setting up loss2/classifier_kaggle
I0106 23:20:04.603679 17082 net.cpp:120] Top shape: 80 447 (35760)
I0106 23:20:04.603693 17082 layer_factory.hpp:74] Creating layer loss2/loss
I0106 23:20:04.603699 17082 net.cpp:84] Creating Layer loss2/loss
I0106 23:20:04.603705 17082 net.cpp:380] loss2/loss <- loss2/classifier_kaggle
I0106 23:20:04.603711 17082 net.cpp:380] loss2/loss <- label_data_1_split_1
I0106 23:20:04.603725 17082 net.cpp:338] loss2/loss -> loss2/loss1
I0106 23:20:04.603740 17082 net.cpp:113] Setting up loss2/loss
I0106 23:20:04.603747 17082 layer_factory.hpp:74] Creating layer loss2/loss
I0106 23:20:04.603911 17082 net.cpp:120] Top shape: (1)
I0106 23:20:04.603919 17082 net.cpp:122]     with loss weight 0.3
I0106 23:20:04.603929 17082 layer_factory.hpp:74] Creating layer inception_4e/1x1
I0106 23:20:04.603938 17082 net.cpp:84] Creating Layer inception_4e/1x1
I0106 23:20:04.603943 17082 net.cpp:380] inception_4e/1x1 <- inception_4d/output_inception_4d/output_0_split_1
I0106 23:20:04.603952 17082 net.cpp:338] inception_4e/1x1 -> inception_4e/1x1
I0106 23:20:04.603961 17082 net.cpp:113] Setting up inception_4e/1x1
I0106 23:20:04.605957 17082 net.cpp:120] Top shape: 80 256 14 14 (4014080)
I0106 23:20:04.605973 17082 layer_factory.hpp:74] Creating layer inception_4e/relu_1x1
I0106 23:20:04.605980 17082 net.cpp:84] Creating Layer inception_4e/relu_1x1
I0106 23:20:04.605985 17082 net.cpp:380] inception_4e/relu_1x1 <- inception_4e/1x1
I0106 23:20:04.605994 17082 net.cpp:327] inception_4e/relu_1x1 -> inception_4e/1x1 (in-place)
I0106 23:20:04.606003 17082 net.cpp:113] Setting up inception_4e/relu_1x1
I0106 23:20:04.606073 17082 net.cpp:120] Top shape: 80 256 14 14 (4014080)
I0106 23:20:04.606081 17082 layer_factory.hpp:74] Creating layer inception_4e/3x3_reduce
I0106 23:20:04.606091 17082 net.cpp:84] Creating Layer inception_4e/3x3_reduce
I0106 23:20:04.606096 17082 net.cpp:380] inception_4e/3x3_reduce <- inception_4d/output_inception_4d/output_0_split_2
I0106 23:20:04.606103 17082 net.cpp:338] inception_4e/3x3_reduce -> inception_4e/3x3_reduce
I0106 23:20:04.606114 17082 net.cpp:113] Setting up inception_4e/3x3_reduce
I0106 23:20:04.607506 17082 net.cpp:120] Top shape: 80 160 14 14 (2508800)
I0106 23:20:04.607522 17082 layer_factory.hpp:74] Creating layer inception_4e/relu_3x3_reduce
I0106 23:20:04.607532 17082 net.cpp:84] Creating Layer inception_4e/relu_3x3_reduce
I0106 23:20:04.607537 17082 net.cpp:380] inception_4e/relu_3x3_reduce <- inception_4e/3x3_reduce
I0106 23:20:04.607544 17082 net.cpp:327] inception_4e/relu_3x3_reduce -> inception_4e/3x3_reduce (in-place)
I0106 23:20:04.607552 17082 net.cpp:113] Setting up inception_4e/relu_3x3_reduce
I0106 23:20:04.607625 17082 net.cpp:120] Top shape: 80 160 14 14 (2508800)
I0106 23:20:04.607633 17082 layer_factory.hpp:74] Creating layer inception_4e/3x3
I0106 23:20:04.607641 17082 net.cpp:84] Creating Layer inception_4e/3x3
I0106 23:20:04.607648 17082 net.cpp:380] inception_4e/3x3 <- inception_4e/3x3_reduce
I0106 23:20:04.607656 17082 net.cpp:338] inception_4e/3x3 -> inception_4e/3x3
I0106 23:20:04.607663 17082 net.cpp:113] Setting up inception_4e/3x3
I0106 23:20:04.613385 17082 net.cpp:120] Top shape: 80 320 14 14 (5017600)
I0106 23:20:04.613402 17082 layer_factory.hpp:74] Creating layer inception_4e/relu_3x3
I0106 23:20:04.613412 17082 net.cpp:84] Creating Layer inception_4e/relu_3x3
I0106 23:20:04.613418 17082 net.cpp:380] inception_4e/relu_3x3 <- inception_4e/3x3
I0106 23:20:04.613425 17082 net.cpp:327] inception_4e/relu_3x3 -> inception_4e/3x3 (in-place)
I0106 23:20:04.613432 17082 net.cpp:113] Setting up inception_4e/relu_3x3
I0106 23:20:04.613687 17082 net.cpp:120] Top shape: 80 320 14 14 (5017600)
I0106 23:20:04.613699 17082 layer_factory.hpp:74] Creating layer inception_4e/5x5_reduce
I0106 23:20:04.613708 17082 net.cpp:84] Creating Layer inception_4e/5x5_reduce
I0106 23:20:04.613713 17082 net.cpp:380] inception_4e/5x5_reduce <- inception_4d/output_inception_4d/output_0_split_3
I0106 23:20:04.613723 17082 net.cpp:338] inception_4e/5x5_reduce -> inception_4e/5x5_reduce
I0106 23:20:04.613731 17082 net.cpp:113] Setting up inception_4e/5x5_reduce
I0106 23:20:04.614338 17082 net.cpp:120] Top shape: 80 32 14 14 (501760)
I0106 23:20:04.614353 17082 layer_factory.hpp:74] Creating layer inception_4e/relu_5x5_reduce
I0106 23:20:04.614362 17082 net.cpp:84] Creating Layer inception_4e/relu_5x5_reduce
I0106 23:20:04.614368 17082 net.cpp:380] inception_4e/relu_5x5_reduce <- inception_4e/5x5_reduce
I0106 23:20:04.614387 17082 net.cpp:327] inception_4e/relu_5x5_reduce -> inception_4e/5x5_reduce (in-place)
I0106 23:20:04.614397 17082 net.cpp:113] Setting up inception_4e/relu_5x5_reduce
I0106 23:20:04.614469 17082 net.cpp:120] Top shape: 80 32 14 14 (501760)
I0106 23:20:04.614475 17082 layer_factory.hpp:74] Creating layer inception_4e/5x5
I0106 23:20:04.614500 17082 net.cpp:84] Creating Layer inception_4e/5x5
I0106 23:20:04.614506 17082 net.cpp:380] inception_4e/5x5 <- inception_4e/5x5_reduce
I0106 23:20:04.614514 17082 net.cpp:338] inception_4e/5x5 -> inception_4e/5x5
I0106 23:20:04.614523 17082 net.cpp:113] Setting up inception_4e/5x5
I0106 23:20:04.616111 17082 net.cpp:120] Top shape: 80 128 14 14 (2007040)
I0106 23:20:04.616125 17082 layer_factory.hpp:74] Creating layer inception_4e/relu_5x5
I0106 23:20:04.616137 17082 net.cpp:84] Creating Layer inception_4e/relu_5x5
I0106 23:20:04.616142 17082 net.cpp:380] inception_4e/relu_5x5 <- inception_4e/5x5
I0106 23:20:04.616148 17082 net.cpp:327] inception_4e/relu_5x5 -> inception_4e/5x5 (in-place)
I0106 23:20:04.616156 17082 net.cpp:113] Setting up inception_4e/relu_5x5
I0106 23:20:04.616226 17082 net.cpp:120] Top shape: 80 128 14 14 (2007040)
I0106 23:20:04.616233 17082 layer_factory.hpp:74] Creating layer inception_4e/pool
I0106 23:20:04.616238 17082 layer_factory.cpp:56] CUDNN does not support padding or multiple tops. Using Caffe's own pooling layer.
I0106 23:20:04.616245 17082 net.cpp:84] Creating Layer inception_4e/pool
I0106 23:20:04.616250 17082 net.cpp:380] inception_4e/pool <- inception_4d/output_inception_4d/output_0_split_4
I0106 23:20:04.616257 17082 net.cpp:338] inception_4e/pool -> inception_4e/pool
I0106 23:20:04.616264 17082 net.cpp:113] Setting up inception_4e/pool
I0106 23:20:04.616274 17082 net.cpp:120] Top shape: 80 528 14 14 (8279040)
I0106 23:20:04.616279 17082 layer_factory.hpp:74] Creating layer inception_4e/pool_proj
I0106 23:20:04.616287 17082 net.cpp:84] Creating Layer inception_4e/pool_proj
I0106 23:20:04.616292 17082 net.cpp:380] inception_4e/pool_proj <- inception_4e/pool
I0106 23:20:04.616300 17082 net.cpp:338] inception_4e/pool_proj -> inception_4e/pool_proj
I0106 23:20:04.616308 17082 net.cpp:113] Setting up inception_4e/pool_proj
I0106 23:20:04.617514 17082 net.cpp:120] Top shape: 80 128 14 14 (2007040)
I0106 23:20:04.617539 17082 layer_factory.hpp:74] Creating layer inception_4e/relu_pool_proj
I0106 23:20:04.617547 17082 net.cpp:84] Creating Layer inception_4e/relu_pool_proj
I0106 23:20:04.617553 17082 net.cpp:380] inception_4e/relu_pool_proj <- inception_4e/pool_proj
I0106 23:20:04.617560 17082 net.cpp:327] inception_4e/relu_pool_proj -> inception_4e/pool_proj (in-place)
I0106 23:20:04.617569 17082 net.cpp:113] Setting up inception_4e/relu_pool_proj
I0106 23:20:04.617637 17082 net.cpp:120] Top shape: 80 128 14 14 (2007040)
I0106 23:20:04.617648 17082 layer_factory.hpp:74] Creating layer inception_4e/output
I0106 23:20:04.617657 17082 net.cpp:84] Creating Layer inception_4e/output
I0106 23:20:04.617666 17082 net.cpp:380] inception_4e/output <- inception_4e/1x1
I0106 23:20:04.617671 17082 net.cpp:380] inception_4e/output <- inception_4e/3x3
I0106 23:20:04.617676 17082 net.cpp:380] inception_4e/output <- inception_4e/5x5
I0106 23:20:04.617681 17082 net.cpp:380] inception_4e/output <- inception_4e/pool_proj
I0106 23:20:04.617689 17082 net.cpp:338] inception_4e/output -> inception_4e/output
I0106 23:20:04.617697 17082 net.cpp:113] Setting up inception_4e/output
I0106 23:20:04.617704 17082 net.cpp:120] Top shape: 80 832 14 14 (13045760)
I0106 23:20:04.617709 17082 layer_factory.hpp:74] Creating layer pool4/3x3_s2
I0106 23:20:04.617717 17082 net.cpp:84] Creating Layer pool4/3x3_s2
I0106 23:20:04.617722 17082 net.cpp:380] pool4/3x3_s2 <- inception_4e/output
I0106 23:20:04.617728 17082 net.cpp:338] pool4/3x3_s2 -> pool4/3x3_s2
I0106 23:20:04.617735 17082 net.cpp:113] Setting up pool4/3x3_s2
I0106 23:20:04.617990 17082 net.cpp:120] Top shape: 80 832 7 7 (3261440)
I0106 23:20:04.618006 17082 layer_factory.hpp:74] Creating layer pool4/3x3_s2_pool4/3x3_s2_0_split
I0106 23:20:04.618021 17082 net.cpp:84] Creating Layer pool4/3x3_s2_pool4/3x3_s2_0_split
I0106 23:20:04.618026 17082 net.cpp:380] pool4/3x3_s2_pool4/3x3_s2_0_split <- pool4/3x3_s2
I0106 23:20:04.618036 17082 net.cpp:338] pool4/3x3_s2_pool4/3x3_s2_0_split -> pool4/3x3_s2_pool4/3x3_s2_0_split_0
I0106 23:20:04.618043 17082 net.cpp:338] pool4/3x3_s2_pool4/3x3_s2_0_split -> pool4/3x3_s2_pool4/3x3_s2_0_split_1
I0106 23:20:04.618051 17082 net.cpp:338] pool4/3x3_s2_pool4/3x3_s2_0_split -> pool4/3x3_s2_pool4/3x3_s2_0_split_2
I0106 23:20:04.618057 17082 net.cpp:338] pool4/3x3_s2_pool4/3x3_s2_0_split -> pool4/3x3_s2_pool4/3x3_s2_0_split_3
I0106 23:20:04.618063 17082 net.cpp:113] Setting up pool4/3x3_s2_pool4/3x3_s2_0_split
I0106 23:20:04.618070 17082 net.cpp:120] Top shape: 80 832 7 7 (3261440)
I0106 23:20:04.618075 17082 net.cpp:120] Top shape: 80 832 7 7 (3261440)
I0106 23:20:04.618082 17082 net.cpp:120] Top shape: 80 832 7 7 (3261440)
I0106 23:20:04.618087 17082 net.cpp:120] Top shape: 80 832 7 7 (3261440)
I0106 23:20:04.618093 17082 layer_factory.hpp:74] Creating layer inception_5a/1x1
I0106 23:20:04.618103 17082 net.cpp:84] Creating Layer inception_5a/1x1
I0106 23:20:04.618108 17082 net.cpp:380] inception_5a/1x1 <- pool4/3x3_s2_pool4/3x3_s2_0_split_0
I0106 23:20:04.618116 17082 net.cpp:338] inception_5a/1x1 -> inception_5a/1x1
I0106 23:20:04.618124 17082 net.cpp:113] Setting up inception_5a/1x1
I0106 23:20:04.620980 17082 net.cpp:120] Top shape: 80 256 7 7 (1003520)
I0106 23:20:04.620996 17082 layer_factory.hpp:74] Creating layer inception_5a/relu_1x1
I0106 23:20:04.621006 17082 net.cpp:84] Creating Layer inception_5a/relu_1x1
I0106 23:20:04.621011 17082 net.cpp:380] inception_5a/relu_1x1 <- inception_5a/1x1
I0106 23:20:04.621018 17082 net.cpp:327] inception_5a/relu_1x1 -> inception_5a/1x1 (in-place)
I0106 23:20:04.621026 17082 net.cpp:113] Setting up inception_5a/relu_1x1
I0106 23:20:04.621094 17082 net.cpp:120] Top shape: 80 256 7 7 (1003520)
I0106 23:20:04.621101 17082 layer_factory.hpp:74] Creating layer inception_5a/3x3_reduce
I0106 23:20:04.621109 17082 net.cpp:84] Creating Layer inception_5a/3x3_reduce
I0106 23:20:04.621114 17082 net.cpp:380] inception_5a/3x3_reduce <- pool4/3x3_s2_pool4/3x3_s2_0_split_1
I0106 23:20:04.621124 17082 net.cpp:338] inception_5a/3x3_reduce -> inception_5a/3x3_reduce
I0106 23:20:04.621131 17082 net.cpp:113] Setting up inception_5a/3x3_reduce
I0106 23:20:04.623087 17082 net.cpp:120] Top shape: 80 160 7 7 (627200)
I0106 23:20:04.623105 17082 layer_factory.hpp:74] Creating layer inception_5a/relu_3x3_reduce
I0106 23:20:04.623116 17082 net.cpp:84] Creating Layer inception_5a/relu_3x3_reduce
I0106 23:20:04.623121 17082 net.cpp:380] inception_5a/relu_3x3_reduce <- inception_5a/3x3_reduce
I0106 23:20:04.623128 17082 net.cpp:327] inception_5a/relu_3x3_reduce -> inception_5a/3x3_reduce (in-place)
I0106 23:20:04.623136 17082 net.cpp:113] Setting up inception_5a/relu_3x3_reduce
I0106 23:20:04.623206 17082 net.cpp:120] Top shape: 80 160 7 7 (627200)
I0106 23:20:04.623214 17082 layer_factory.hpp:74] Creating layer inception_5a/3x3
I0106 23:20:04.623222 17082 net.cpp:84] Creating Layer inception_5a/3x3
I0106 23:20:04.623229 17082 net.cpp:380] inception_5a/3x3 <- inception_5a/3x3_reduce
I0106 23:20:04.623236 17082 net.cpp:338] inception_5a/3x3 -> inception_5a/3x3
I0106 23:20:04.623245 17082 net.cpp:113] Setting up inception_5a/3x3
I0106 23:20:04.630429 17082 net.cpp:120] Top shape: 80 320 7 7 (1254400)
I0106 23:20:04.630455 17082 layer_factory.hpp:74] Creating layer inception_5a/relu_3x3
I0106 23:20:04.630463 17082 net.cpp:84] Creating Layer inception_5a/relu_3x3
I0106 23:20:04.630470 17082 net.cpp:380] inception_5a/relu_3x3 <- inception_5a/3x3
I0106 23:20:04.630477 17082 net.cpp:327] inception_5a/relu_3x3 -> inception_5a/3x3 (in-place)
I0106 23:20:04.630486 17082 net.cpp:113] Setting up inception_5a/relu_3x3
I0106 23:20:04.630559 17082 net.cpp:120] Top shape: 80 320 7 7 (1254400)
I0106 23:20:04.630568 17082 layer_factory.hpp:74] Creating layer inception_5a/5x5_reduce
I0106 23:20:04.630596 17082 net.cpp:84] Creating Layer inception_5a/5x5_reduce
I0106 23:20:04.630602 17082 net.cpp:380] inception_5a/5x5_reduce <- pool4/3x3_s2_pool4/3x3_s2_0_split_2
I0106 23:20:04.630610 17082 net.cpp:338] inception_5a/5x5_reduce -> inception_5a/5x5_reduce
I0106 23:20:04.630620 17082 net.cpp:113] Setting up inception_5a/5x5_reduce
I0106 23:20:04.631346 17082 net.cpp:120] Top shape: 80 32 7 7 (125440)
I0106 23:20:04.631362 17082 layer_factory.hpp:74] Creating layer inception_5a/relu_5x5_reduce
I0106 23:20:04.631373 17082 net.cpp:84] Creating Layer inception_5a/relu_5x5_reduce
I0106 23:20:04.631379 17082 net.cpp:380] inception_5a/relu_5x5_reduce <- inception_5a/5x5_reduce
I0106 23:20:04.631386 17082 net.cpp:327] inception_5a/relu_5x5_reduce -> inception_5a/5x5_reduce (in-place)
I0106 23:20:04.631394 17082 net.cpp:113] Setting up inception_5a/relu_5x5_reduce
I0106 23:20:04.631644 17082 net.cpp:120] Top shape: 80 32 7 7 (125440)
I0106 23:20:04.631656 17082 layer_factory.hpp:74] Creating layer inception_5a/5x5
I0106 23:20:04.631666 17082 net.cpp:84] Creating Layer inception_5a/5x5
I0106 23:20:04.631672 17082 net.cpp:380] inception_5a/5x5 <- inception_5a/5x5_reduce
I0106 23:20:04.631680 17082 net.cpp:338] inception_5a/5x5 -> inception_5a/5x5
I0106 23:20:04.631690 17082 net.cpp:113] Setting up inception_5a/5x5
I0106 23:20:04.633311 17082 net.cpp:120] Top shape: 80 128 7 7 (501760)
I0106 23:20:04.633327 17082 layer_factory.hpp:74] Creating layer inception_5a/relu_5x5
I0106 23:20:04.633335 17082 net.cpp:84] Creating Layer inception_5a/relu_5x5
I0106 23:20:04.633342 17082 net.cpp:380] inception_5a/relu_5x5 <- inception_5a/5x5
I0106 23:20:04.633350 17082 net.cpp:327] inception_5a/relu_5x5 -> inception_5a/5x5 (in-place)
I0106 23:20:04.633358 17082 net.cpp:113] Setting up inception_5a/relu_5x5
I0106 23:20:04.633429 17082 net.cpp:120] Top shape: 80 128 7 7 (501760)
I0106 23:20:04.633435 17082 layer_factory.hpp:74] Creating layer inception_5a/pool
I0106 23:20:04.633441 17082 layer_factory.cpp:56] CUDNN does not support padding or multiple tops. Using Caffe's own pooling layer.
I0106 23:20:04.633458 17082 net.cpp:84] Creating Layer inception_5a/pool
I0106 23:20:04.633466 17082 net.cpp:380] inception_5a/pool <- pool4/3x3_s2_pool4/3x3_s2_0_split_3
I0106 23:20:04.633473 17082 net.cpp:338] inception_5a/pool -> inception_5a/pool
I0106 23:20:04.633481 17082 net.cpp:113] Setting up inception_5a/pool
I0106 23:20:04.633491 17082 net.cpp:120] Top shape: 80 832 7 7 (3261440)
I0106 23:20:04.633496 17082 layer_factory.hpp:74] Creating layer inception_5a/pool_proj
I0106 23:20:04.633505 17082 net.cpp:84] Creating Layer inception_5a/pool_proj
I0106 23:20:04.633510 17082 net.cpp:380] inception_5a/pool_proj <- inception_5a/pool
I0106 23:20:04.633517 17082 net.cpp:338] inception_5a/pool_proj -> inception_5a/pool_proj
I0106 23:20:04.633525 17082 net.cpp:113] Setting up inception_5a/pool_proj
I0106 23:20:04.635164 17082 net.cpp:120] Top shape: 80 128 7 7 (501760)
I0106 23:20:04.635179 17082 layer_factory.hpp:74] Creating layer inception_5a/relu_pool_proj
I0106 23:20:04.635186 17082 net.cpp:84] Creating Layer inception_5a/relu_pool_proj
I0106 23:20:04.635192 17082 net.cpp:380] inception_5a/relu_pool_proj <- inception_5a/pool_proj
I0106 23:20:04.635201 17082 net.cpp:327] inception_5a/relu_pool_proj -> inception_5a/pool_proj (in-place)
I0106 23:20:04.635210 17082 net.cpp:113] Setting up inception_5a/relu_pool_proj
I0106 23:20:04.635278 17082 net.cpp:120] Top shape: 80 128 7 7 (501760)
I0106 23:20:04.635284 17082 layer_factory.hpp:74] Creating layer inception_5a/output
I0106 23:20:04.635293 17082 net.cpp:84] Creating Layer inception_5a/output
I0106 23:20:04.635298 17082 net.cpp:380] inception_5a/output <- inception_5a/1x1
I0106 23:20:04.635304 17082 net.cpp:380] inception_5a/output <- inception_5a/3x3
I0106 23:20:04.635311 17082 net.cpp:380] inception_5a/output <- inception_5a/5x5
I0106 23:20:04.635318 17082 net.cpp:380] inception_5a/output <- inception_5a/pool_proj
I0106 23:20:04.635324 17082 net.cpp:338] inception_5a/output -> inception_5a/output
I0106 23:20:04.635342 17082 net.cpp:113] Setting up inception_5a/output
I0106 23:20:04.635350 17082 net.cpp:120] Top shape: 80 832 7 7 (3261440)
I0106 23:20:04.635356 17082 layer_factory.hpp:74] Creating layer inception_5a/output_inception_5a/output_0_split
I0106 23:20:04.635363 17082 net.cpp:84] Creating Layer inception_5a/output_inception_5a/output_0_split
I0106 23:20:04.635368 17082 net.cpp:380] inception_5a/output_inception_5a/output_0_split <- inception_5a/output
I0106 23:20:04.635375 17082 net.cpp:338] inception_5a/output_inception_5a/output_0_split -> inception_5a/output_inception_5a/output_0_split_0
I0106 23:20:04.635382 17082 net.cpp:338] inception_5a/output_inception_5a/output_0_split -> inception_5a/output_inception_5a/output_0_split_1
I0106 23:20:04.635391 17082 net.cpp:338] inception_5a/output_inception_5a/output_0_split -> inception_5a/output_inception_5a/output_0_split_2
I0106 23:20:04.635399 17082 net.cpp:338] inception_5a/output_inception_5a/output_0_split -> inception_5a/output_inception_5a/output_0_split_3
I0106 23:20:04.635406 17082 net.cpp:113] Setting up inception_5a/output_inception_5a/output_0_split
I0106 23:20:04.635412 17082 net.cpp:120] Top shape: 80 832 7 7 (3261440)
I0106 23:20:04.635417 17082 net.cpp:120] Top shape: 80 832 7 7 (3261440)
I0106 23:20:04.635422 17082 net.cpp:120] Top shape: 80 832 7 7 (3261440)
I0106 23:20:04.635427 17082 net.cpp:120] Top shape: 80 832 7 7 (3261440)
I0106 23:20:04.635432 17082 layer_factory.hpp:74] Creating layer inception_5b/1x1
I0106 23:20:04.635442 17082 net.cpp:84] Creating Layer inception_5b/1x1
I0106 23:20:04.635447 17082 net.cpp:380] inception_5b/1x1 <- inception_5a/output_inception_5a/output_0_split_0
I0106 23:20:04.635453 17082 net.cpp:338] inception_5b/1x1 -> inception_5b/1x1
I0106 23:20:04.635460 17082 net.cpp:113] Setting up inception_5b/1x1
I0106 23:20:04.639547 17082 net.cpp:120] Top shape: 80 384 7 7 (1505280)
I0106 23:20:04.639564 17082 layer_factory.hpp:74] Creating layer inception_5b/relu_1x1
I0106 23:20:04.639574 17082 net.cpp:84] Creating Layer inception_5b/relu_1x1
I0106 23:20:04.639580 17082 net.cpp:380] inception_5b/relu_1x1 <- inception_5b/1x1
I0106 23:20:04.639586 17082 net.cpp:327] inception_5b/relu_1x1 -> inception_5b/1x1 (in-place)
I0106 23:20:04.639593 17082 net.cpp:113] Setting up inception_5b/relu_1x1
I0106 23:20:04.639840 17082 net.cpp:120] Top shape: 80 384 7 7 (1505280)
I0106 23:20:04.639852 17082 layer_factory.hpp:74] Creating layer inception_5b/3x3_reduce
I0106 23:20:04.639863 17082 net.cpp:84] Creating Layer inception_5b/3x3_reduce
I0106 23:20:04.639868 17082 net.cpp:380] inception_5b/3x3_reduce <- inception_5a/output_inception_5a/output_0_split_1
I0106 23:20:04.639876 17082 net.cpp:338] inception_5b/3x3_reduce -> inception_5b/3x3_reduce
I0106 23:20:04.639885 17082 net.cpp:113] Setting up inception_5b/3x3_reduce
I0106 23:20:04.642130 17082 net.cpp:120] Top shape: 80 192 7 7 (752640)
I0106 23:20:04.642148 17082 layer_factory.hpp:74] Creating layer inception_5b/relu_3x3_reduce
I0106 23:20:04.642158 17082 net.cpp:84] Creating Layer inception_5b/relu_3x3_reduce
I0106 23:20:04.642163 17082 net.cpp:380] inception_5b/relu_3x3_reduce <- inception_5b/3x3_reduce
I0106 23:20:04.642169 17082 net.cpp:327] inception_5b/relu_3x3_reduce -> inception_5b/3x3_reduce (in-place)
I0106 23:20:04.642177 17082 net.cpp:113] Setting up inception_5b/relu_3x3_reduce
I0106 23:20:04.642252 17082 net.cpp:120] Top shape: 80 192 7 7 (752640)
I0106 23:20:04.642259 17082 layer_factory.hpp:74] Creating layer inception_5b/3x3
I0106 23:20:04.642267 17082 net.cpp:84] Creating Layer inception_5b/3x3
I0106 23:20:04.642272 17082 net.cpp:380] inception_5b/3x3 <- inception_5b/3x3_reduce
I0106 23:20:04.642282 17082 net.cpp:338] inception_5b/3x3 -> inception_5b/3x3
I0106 23:20:04.642307 17082 net.cpp:113] Setting up inception_5b/3x3
I0106 23:20:04.650333 17082 net.cpp:120] Top shape: 80 384 7 7 (1505280)
I0106 23:20:04.650351 17082 layer_factory.hpp:74] Creating layer inception_5b/relu_3x3
I0106 23:20:04.650358 17082 net.cpp:84] Creating Layer inception_5b/relu_3x3
I0106 23:20:04.650374 17082 net.cpp:380] inception_5b/relu_3x3 <- inception_5b/3x3
I0106 23:20:04.650382 17082 net.cpp:327] inception_5b/relu_3x3 -> inception_5b/3x3 (in-place)
I0106 23:20:04.650390 17082 net.cpp:113] Setting up inception_5b/relu_3x3
I0106 23:20:04.650462 17082 net.cpp:120] Top shape: 80 384 7 7 (1505280)
I0106 23:20:04.650470 17082 layer_factory.hpp:74] Creating layer inception_5b/5x5_reduce
I0106 23:20:04.650480 17082 net.cpp:84] Creating Layer inception_5b/5x5_reduce
I0106 23:20:04.650485 17082 net.cpp:380] inception_5b/5x5_reduce <- inception_5a/output_inception_5a/output_0_split_2
I0106 23:20:04.650493 17082 net.cpp:338] inception_5b/5x5_reduce -> inception_5b/5x5_reduce
I0106 23:20:04.650502 17082 net.cpp:113] Setting up inception_5b/5x5_reduce
I0106 23:20:04.651377 17082 net.cpp:120] Top shape: 80 48 7 7 (188160)
I0106 23:20:04.651392 17082 layer_factory.hpp:74] Creating layer inception_5b/relu_5x5_reduce
I0106 23:20:04.651401 17082 net.cpp:84] Creating Layer inception_5b/relu_5x5_reduce
I0106 23:20:04.651408 17082 net.cpp:380] inception_5b/relu_5x5_reduce <- inception_5b/5x5_reduce
I0106 23:20:04.651415 17082 net.cpp:327] inception_5b/relu_5x5_reduce -> inception_5b/5x5_reduce (in-place)
I0106 23:20:04.651422 17082 net.cpp:113] Setting up inception_5b/relu_5x5_reduce
I0106 23:20:04.651492 17082 net.cpp:120] Top shape: 80 48 7 7 (188160)
I0106 23:20:04.651499 17082 layer_factory.hpp:74] Creating layer inception_5b/5x5
I0106 23:20:04.651510 17082 net.cpp:84] Creating Layer inception_5b/5x5
I0106 23:20:04.651515 17082 net.cpp:380] inception_5b/5x5 <- inception_5b/5x5_reduce
I0106 23:20:04.651525 17082 net.cpp:338] inception_5b/5x5 -> inception_5b/5x5
I0106 23:20:04.651532 17082 net.cpp:113] Setting up inception_5b/5x5
I0106 23:20:04.653715 17082 net.cpp:120] Top shape: 80 128 7 7 (501760)
I0106 23:20:04.653731 17082 layer_factory.hpp:74] Creating layer inception_5b/relu_5x5
I0106 23:20:04.653740 17082 net.cpp:84] Creating Layer inception_5b/relu_5x5
I0106 23:20:04.653746 17082 net.cpp:380] inception_5b/relu_5x5 <- inception_5b/5x5
I0106 23:20:04.653754 17082 net.cpp:327] inception_5b/relu_5x5 -> inception_5b/5x5 (in-place)
I0106 23:20:04.653762 17082 net.cpp:113] Setting up inception_5b/relu_5x5
I0106 23:20:04.654014 17082 net.cpp:120] Top shape: 80 128 7 7 (501760)
I0106 23:20:04.654026 17082 layer_factory.hpp:74] Creating layer inception_5b/pool
I0106 23:20:04.654031 17082 layer_factory.cpp:56] CUDNN does not support padding or multiple tops. Using Caffe's own pooling layer.
I0106 23:20:04.654037 17082 net.cpp:84] Creating Layer inception_5b/pool
I0106 23:20:04.654043 17082 net.cpp:380] inception_5b/pool <- inception_5a/output_inception_5a/output_0_split_3
I0106 23:20:04.654052 17082 net.cpp:338] inception_5b/pool -> inception_5b/pool
I0106 23:20:04.654062 17082 net.cpp:113] Setting up inception_5b/pool
I0106 23:20:04.654070 17082 net.cpp:120] Top shape: 80 832 7 7 (3261440)
I0106 23:20:04.654074 17082 layer_factory.hpp:74] Creating layer inception_5b/pool_proj
I0106 23:20:04.654083 17082 net.cpp:84] Creating Layer inception_5b/pool_proj
I0106 23:20:04.654088 17082 net.cpp:380] inception_5b/pool_proj <- inception_5b/pool
I0106 23:20:04.654096 17082 net.cpp:338] inception_5b/pool_proj -> inception_5b/pool_proj
I0106 23:20:04.654104 17082 net.cpp:113] Setting up inception_5b/pool_proj
I0106 23:20:04.655745 17082 net.cpp:120] Top shape: 80 128 7 7 (501760)
I0106 23:20:04.655761 17082 layer_factory.hpp:74] Creating layer inception_5b/relu_pool_proj
I0106 23:20:04.655767 17082 net.cpp:84] Creating Layer inception_5b/relu_pool_proj
I0106 23:20:04.655773 17082 net.cpp:380] inception_5b/relu_pool_proj <- inception_5b/pool_proj
I0106 23:20:04.655781 17082 net.cpp:327] inception_5b/relu_pool_proj -> inception_5b/pool_proj (in-place)
I0106 23:20:04.655788 17082 net.cpp:113] Setting up inception_5b/relu_pool_proj
I0106 23:20:04.655858 17082 net.cpp:120] Top shape: 80 128 7 7 (501760)
I0106 23:20:04.655865 17082 layer_factory.hpp:74] Creating layer inception_5b/output
I0106 23:20:04.655879 17082 net.cpp:84] Creating Layer inception_5b/output
I0106 23:20:04.655890 17082 net.cpp:380] inception_5b/output <- inception_5b/1x1
I0106 23:20:04.655896 17082 net.cpp:380] inception_5b/output <- inception_5b/3x3
I0106 23:20:04.655902 17082 net.cpp:380] inception_5b/output <- inception_5b/5x5
I0106 23:20:04.655907 17082 net.cpp:380] inception_5b/output <- inception_5b/pool_proj
I0106 23:20:04.655913 17082 net.cpp:338] inception_5b/output -> inception_5b/output
I0106 23:20:04.655921 17082 net.cpp:113] Setting up inception_5b/output
I0106 23:20:04.655928 17082 net.cpp:120] Top shape: 80 1024 7 7 (4014080)
I0106 23:20:04.655933 17082 layer_factory.hpp:74] Creating layer pool5/7x7_s1
I0106 23:20:04.655942 17082 net.cpp:84] Creating Layer pool5/7x7_s1
I0106 23:20:04.655947 17082 net.cpp:380] pool5/7x7_s1 <- inception_5b/output
I0106 23:20:04.655953 17082 net.cpp:338] pool5/7x7_s1 -> pool5/7x7_s1
I0106 23:20:04.655961 17082 net.cpp:113] Setting up pool5/7x7_s1
I0106 23:20:04.656033 17082 net.cpp:120] Top shape: 80 1024 1 1 (81920)
I0106 23:20:04.656039 17082 layer_factory.hpp:74] Creating layer pool5/drop_7x7_s1
I0106 23:20:04.656046 17082 net.cpp:84] Creating Layer pool5/drop_7x7_s1
I0106 23:20:04.656051 17082 net.cpp:380] pool5/drop_7x7_s1 <- pool5/7x7_s1
I0106 23:20:04.656060 17082 net.cpp:327] pool5/drop_7x7_s1 -> pool5/7x7_s1 (in-place)
I0106 23:20:04.656066 17082 net.cpp:113] Setting up pool5/drop_7x7_s1
I0106 23:20:04.656074 17082 net.cpp:120] Top shape: 80 1024 1 1 (81920)
I0106 23:20:04.656078 17082 layer_factory.hpp:74] Creating layer loss3/classifier_kaggle
I0106 23:20:04.656086 17082 net.cpp:84] Creating Layer loss3/classifier_kaggle
I0106 23:20:04.656090 17082 net.cpp:380] loss3/classifier_kaggle <- pool5/7x7_s1
I0106 23:20:04.656100 17082 net.cpp:338] loss3/classifier_kaggle -> loss3/classifier_kaggle
I0106 23:20:04.656106 17082 net.cpp:113] Setting up loss3/classifier_kaggle
I0106 23:20:04.661360 17082 net.cpp:120] Top shape: 80 447 (35760)
I0106 23:20:04.661372 17082 layer_factory.hpp:74] Creating layer loss3/loss3
I0106 23:20:04.661382 17082 net.cpp:84] Creating Layer loss3/loss3
I0106 23:20:04.661388 17082 net.cpp:380] loss3/loss3 <- loss3/classifier_kaggle
I0106 23:20:04.661394 17082 net.cpp:380] loss3/loss3 <- label_data_1_split_2
I0106 23:20:04.661401 17082 net.cpp:338] loss3/loss3 -> loss3/loss3
I0106 23:20:04.661408 17082 net.cpp:113] Setting up loss3/loss3
…
I0106 23:20:04.666613 17082 net.cpp:257] The NetState phase (1) differed from the phase (0) specified by a rule in layer data
I0106 23:20:04.668118 17082 net.cpp:42] Initializing net from parameters: 
name: "MYNET"
state {
  phase: TEST
}
layer {
  name: "data"
  type: "ImageData"
  top: "data"
  top: "label"
  include {
    phase: TEST
  }
  transform_param {
    mirror: false
    crop_size: 224
    mean_value: 129
    mean_value: 129
    mean_value: 129
  }
  image_data_param {
    source: "/home/coldmanck/kaggle/label_val_full_resize_rotated.txt"
    batch_size: 50
    shuffle: true
  }
}
layer {
  name: "conv1/7x7_s2"
  type: "Convolution"
  bottom: "data"
  top: "conv1/7x7_s2"
  param {
    lr_mult: 1
    decay_mult: 1
  }
  param {
    lr_mult: 2
    decay_mult: 0
  }
  convolution_param {
    num_output: 64
    pad: 3
    kernel_size: 7
    stride: 2
    weight_filler {
      type: "xavier"
    }
    bias_filler {
      type: "constant"
      value: 0.2
    }
  }
}
layer {
  name: "conv1/relu_7x7"
  type: "ReLU"
  bottom: "conv1/7x7_s2"
  top: "conv1/7x7_s2"
}
layer {
  name: "pool1/3x3_s2"
  type: "Pooling"
  bottom: "conv1/7x7_s2"
  top: "pool1/3x3_s2"
  pooling_param {
    pool: MAX
    kernel_size: 3
    stride: 2
  }
}
layer {
  name: "pool1/norm1"
  type: "LRN"
  bottom: "pool1/3x3_s2"
  top: "pool1/norm1"
  lrn_param {
    local_size: 5
    alpha: 0.0001
    beta: 0.75
  }
}
layer {
  name: "conv2/3x3_reduce"
  type: "Convolution"
  bottom: "pool1/norm1"
  top: "conv2/3x3_reduce"
  param {
    lr_mult: 1
    decay_mult: 1
  }
  param {
    lr_mult: 2
    decay_mult: 0
  }
  convolution_param {
    num_output: 64
    kernel_size: 1
    weight_filler {
      type: "xavier"
    }
    bias_filler {
      type: "constant"
      value: 0.2
    }
  }
}
layer {
  name: "conv2/relu_3x3_reduce"
  type: "ReLU"
  bottom: "conv2/3x3_reduce"
  top: "conv2/3x3_reduce"
}
layer {
  name: "conv2/3x3"
  type: "Convolution"
  bottom: "conv2/3x3_reduce"
  top: "conv2/3x3"
  param {
    lr_mult: 1
    decay_mult: 1
  }
  param {
    lr_mult: 2
    decay_mult: 0
  }
  convolution_param {
    num_output: 192
    pad: 1
    kernel_size: 3
    weight_filler {
      type: "xavier"
    }
    bias_filler {
      type: "constant"
      value: 0.2
    }
  }
}
layer {
  name: "conv2/relu_3x3"
  type: "ReLU"
  bottom: "conv2/3x3"
  top: "conv2/3x3"
}
layer {
  name: "conv2/norm2"
  type: "LRN"
  bottom: "conv2/3x3"
  top: "conv2/norm2"
  lrn_param {
    local_size: 5
    alpha: 0.0001
    beta: 0.75
  }
}
layer {
  name: "pool2/3x3_s2"
  type: "Pooling"
  bottom: "conv2/norm2"
  top: "pool2/3x3_s2"
  pooling_param {
    pool: MAX
    kernel_size: 3
    stride: 2
  }
}
layer {
  name: "inception_3a/1x1"
  type: "Convolution"
  bottom: "pool2/3x3_s2"
  top: "inception_3a/1x1"
  param {
    lr_mult: 1
    decay_mult: 1
  }
  param {
    lr_mult: 2
    decay_mult: 0
  }
  convolution_param {
    num_output: 64
    kernel_size: 1
    weight_filler {
      type: "xavier"
    }
    bias_filler {
      type: "constant"
      value: 0.2
    }
  }
}
layer {
  name: "inception_3a/relu_1x1"
  type: "ReLU"
  bottom: "inception_3a/1x1"
  top: "inception_3a/1x1"
}
layer {
  name: "inception_3a/3x3_reduce"
  type: "Convolution"
  bottom: "pool2/3x3_s2"
  top: "inception_3a/3x3_reduce"
  param {
    lr_mult: 1
    decay_mult: 1
  }
  param {
    lr_mult: 2
    decay_mult: 0
  }
  convolution_param {
    num_output: 96
    kernel_size: 1
    weight_filler {
      type: "xavier"
    }
    bias_filler {
      type: "constant"
      value: 0.2
    }
  }
}
layer {
  name: "inception_3a/relu_3x3_reduce"
  type: "ReLU"
  bottom: "inception_3a/3x3_reduce"
  top: "inception_3a/3x3_reduce"
}
layer {
  name: "inception_3a/3x3"
  type: "Convolution"
  bottom: "inception_3a/3x3_reduce"
  top: "inception_3a/3x3"
  param {
    lr_mult: 1
    decay_mult: 1
  }
  param {
    lr_mult: 2
    decay_mult: 0
  }
  convolution_param {
    num_output: 128
    pad: 1
    kernel_size: 3
    weight_filler {
      type: "xavier"
    }
    bias_filler {
      type: "constant"
      value: 0.2
    }
  }
}
layer {
  name: "inception_3a/relu_3x3"
  type: "ReLU"
  bottom: "inception_3a/3x3"
  top: "inception_3a/3x3"
}
layer {
  name: "inception_3a/5x5_reduce"
  type: "Convolution"
  bottom: "pool2/3x3_s2"
  top: "inception_3a/5x5_reduce"
  param {
    lr_mult: 1
    decay_mult: 1
  }
  param {
    lr_mult: 2
    decay_mult: 0
  }
  convolution_param {
    num_output: 16
    kernel_size: 1
    weight_filler {
      type: "xavier"
    }
    bias_filler {
      type: "constant"
      value: 0.2
    }
  }
}
layer {
  name: "inception_3a/relu_5x5_reduce"
  type: "ReLU"
  bottom: "inception_3a/5x5_reduce"
  top: "inception_3a/5x5_reduce"
}
layer {
  name: "inception_3a/5x5"
  type: "Convolution"
  bottom: "inception_3a/5x5_reduce"
  top: "inception_3a/5x5"
  param {
    lr_mult: 1
    decay_mult: 1
  }
  param {
    lr_mult: 2
    decay_mult: 0
  }
  convolution_param {
    num_output: 32
    pad: 2
    kernel_size: 5
    weight_filler {
      type: "xavier"
    }
    bias_filler {
      type: "constant"
      value: 0.2
    }
  }
}
layer {
  name: "inception_3a/relu_5x5"
  type: "ReLU"
  bottom: "inception_3a/5x5"
  top: "inception_3a/5x5"
}
layer {
  name: "inception_3a/pool"
  type: "Pooling"
  bottom: "pool2/3x3_s2"
  top: "inception_3a/pool"
  pooling_param {
    pool: MAX
    kernel_size: 3
    stride: 1
    pad: 1
  }
}
layer {
  name: "inception_3a/pool_proj"
  type: "Convolution"
  bottom: "inception_3a/pool"
  top: "inception_3a/pool_proj"
  param {
    lr_mult: 1
    decay_mult: 1
  }
  param {
    lr_mult: 2
    decay_mult: 0
  }
  convolution_param {
    num_output: 32
    kernel_size: 1
    weight_filler {
      type: "xavier"
    }
    bias_filler {
      type: "constant"
      value: 0.2
    }
  }
}
layer {
  name: "inception_3a/relu_pool_proj"
  type: "ReLU"
  bottom: "inception_3a/pool_proj"
  top: "inception_3a/pool_proj"
}
layer {
  name: "inception_3a/output"
  type: "Concat"
  bottom: "inception_3a/1x1"
  bottom: "inception_3a/3x3"
  bottom: "inception_3a/5x5"
  bottom: "inception_3a/pool_proj"
  top: "inception_3a/output"
}
layer {
  name: "inception_3b/1x1"
  type: "Convolution"
  bottom: "inception_3a/output"
  top: "inception_3b/1x1"
  param {
    lr_mult: 1
    decay_mult: 1
  }
  param {
    lr_mult: 2
    decay_mult: 0
  }
  convolution_param {
    num_output: 128
    kernel_size: 1
    weight_filler {
      type: "xavier"
    }
    bias_filler {
      type: "constant"
      value: 0.2
    }
  }
}
layer {
  name: "inception_3b/relu_1x1"
  type: "ReLU"
  bottom: "inception_3b/1x1"
  top: "inception_3b/1x1"
}
layer {
  name: "inception_3b/3x3_reduce"
  type: "Convolution"
  bottom: "inception_3a/output"
  top: "inception_3b/3x3_reduce"
  param {
    lr_mult: 1
    decay_mult: 1
  }
  param {
    lr_mult: 2
    decay_mult: 0
  }
  convolution_param {
    num_output: 128
    kernel_size: 1
    weight_filler {
      type: "xavier"
    }
    bias_filler {
      type: "constant"
      value: 0.2
    }
  }
}
layer {
  name: "inception_3b/relu_3x3_reduce"
  type: "ReLU"
  bottom: "inception_3b/3x3_reduce"
  top: "inception_3b/3x3_reduce"
}
layer {
  name: "inception_3b/3x3"
  type: "Convolution"
  bottom: "inception_3b/3x3_reduce"
  top: "inception_3b/3x3"
  param {
    lr_mult: 1
    decay_mult: 1
  }
  param {
    lr_mult: 2
    decay_mult: 0
  }
  convolution_param {
    num_output: 192
    pad: 1
    kernel_size: 3
    weight_filler {
      type: "xavier"
    }
    bias_filler {
      type: "constant"
      value: 0.2
    }
  }
}
layer {
  name: "inception_3b/relu_3x3"
  type: "ReLU"
  bottom: "inception_3b/3x3"
  top: "inception_3b/3x3"
}
layer {
  name: "inception_3b/5x5_reduce"
  type: "Convolution"
  bottom: "inception_3a/output"
  top: "inception_3b/5x5_reduce"
  param {
    lr_mult: 1
    decay_mult: 1
  }
  param {
    lr_mult: 2
    decay_mult: 0
  }
  convolution_param {
    num_output: 32
    kernel_size: 1
    weight_filler {
      type: "xavier"
    }
    bias_filler {
      type: "constant"
      value: 0.2
    }
  }
}
layer {
  name: "inception_3b/relu_5x5_reduce"
  type: "ReLU"
  bottom: "inception_3b/5x5_reduce"
  top: "inception_3b/5x5_reduce"
}
layer {
  name: "inception_3b/5x5"
  type: "Convolution"
  bottom: "inception_3b/5x5_reduce"
  top: "inception_3b/5x5"
  param {
    lr_mult: 1
    decay_mult: 1
  }
  param {
    lr_mult: 2
    decay_mult: 0
  }
  convolution_param {
    num_output: 96
    pad: 2
    kernel_size: 5
    weight_filler {
      type: "xavier"
    }
    bias_filler {
      type: "constant"
      value: 0.2
    }
  }
}
layer {
  name: "inception_3b/relu_5x5"
  type: "ReLU"
  bottom: "inception_3b/5x5"
  top: "inception_3b/5x5"
}
layer {
  name: "inception_3b/pool"
  type: "Pooling"
  bottom: "inception_3a/output"
  top: "inception_3b/pool"
  pooling_param {
    pool: MAX
    kernel_size: 3
    stride: 1
    pad: 1
  }
}
layer {
  name: "inception_3b/pool_proj"
  type: "Convolution"
  bottom: "inception_3b/pool"
  top: "inception_3b/pool_proj"
  param {
    lr_mult: 1
    decay_mult: 1
  }
  param {
    lr_mult: 2
    decay_mult: 0
  }
  convolution_param {
    num_output: 64
    kernel_size: 1
    weight_filler {
      type: "xavier"
    }
    bias_filler {
      type: "constant"
      value: 0.2
    }
  }
}
layer {
  name: "inception_3b/relu_pool_proj"
  type: "ReLU"
  bottom: "inception_3b/pool_proj"
  top: "inception_3b/pool_proj"
}
layer {
  name: "inception_3b/output"
  type: "Concat"
  bottom: "inception_3b/1x1"
  bottom: "inception_3b/3x3"
  bottom: "inception_3b/5x5"
  bottom: "inception_3b/pool_proj"
  top: "inception_3b/output"
}
layer {
  name: "pool3/3x3_s2"
  type: "Pooling"
  bottom: "inception_3b/output"
  top: "pool3/3x3_s2"
  pooling_param {
    pool: MAX
    kernel_size: 3
    stride: 2
  }
}
layer {
  name: "inception_4a/1x1"
  type: "Convolution"
  bottom: "pool3/3x3_s2"
  top: "inception_4a/1x1"
  param {
    lr_mult: 1
    decay_mult: 1
  }
  param {
    lr_mult: 2
    decay_mult: 0
  }
  convolution_param {
    num_output: 192
    kernel_size: 1
    weight_filler {
      type: "xavier"
    }
    bias_filler {
      type: "constant"
      value: 0.2
    }
  }
}
layer {
  name: "inception_4a/relu_1x1"
  type: "ReLU"
  bottom: "inception_4a/1x1"
  top: "inception_4a/1x1"
}
layer {
  name: "inception_4a/3x3_reduce"
  type: "Convolution"
  bottom: "pool3/3x3_s2"
  top: "inception_4a/3x3_reduce"
  param {
    lr_mult: 1
    decay_mult: 1
  }
  param {
    lr_mult: 2
    decay_mult: 0
  }
  convolution_param {
    num_output: 96
    kernel_size: 1
    weight_filler {
      type: "xavier"
    }
    bias_filler {
      type: "constant"
      value: 0.2
    }
  }
}
layer {
  name: "inception_4a/relu_3x3_reduce"
  type: "ReLU"
  bottom: "inception_4a/3x3_reduce"
  top: "inception_4a/3x3_reduce"
}
layer {
  name: "inception_4a/3x3"
  type: "Convolution"
  bottom: "inception_4a/3x3_reduce"
  top: "inception_4a/3x3"
  param {
    lr_mult: 1
    decay_mult: 1
  }
  param {
    lr_mult: 2
    decay_mult: 0
  }
  convolution_param {
    num_output: 208
    pad: 1
    kernel_size: 3
    weight_filler {
      type: "xavier"
    }
    bias_filler {
      type: "constant"
      value: 0.2
    }
  }
}
layer {
  name: "inception_4a/relu_3x3"
  type: "ReLU"
  bottom: "inception_4a/3x3"
  top: "inception_4a/3x3"
}
layer {
  name: "inception_4a/5x5_reduce"
  type: "Convolution"
  bottom: "pool3/3x3_s2"
  top: "inception_4a/5x5_reduce"
  param {
    lr_mult: 1
    decay_mult: 1
  }
  param {
    lr_mult: 2
    decay_mult: 0
  }
  convolution_param {
    num_output: 16
    kernel_size: 1
    weight_filler {
      type: "xavier"
    }
    bias_filler {
      type: "constant"
      value: 0.2
    }
  }
}
layer {
  name: "inception_4a/relu_5x5_reduce"
  type: "ReLU"
  bottom: "inception_4a/5x5_reduce"
  top: "inception_4a/5x5_reduce"
}
layer {
  name: "inception_4a/5x5"
  type: "Convolution"
  bottom: "inception_4a/5x5_reduce"
  top: "inception_4a/5x5"
  param {
    lr_mult: 1
    decay_mult: 1
  }
  param {
    lr_mult: 2
    decay_mult: 0
  }
  convolution_param {
    num_output: 48
    pad: 2
    kernel_size: 5
    weight_filler {
      type: "xavier"
    }
    bias_filler {
      type: "constant"
      value: 0.2
    }
  }
}
layer {
  name: "inception_4a/relu_5x5"
  type: "ReLU"
  bottom: "inception_4a/5x5"
  top: "inception_4a/5x5"
}
layer {
  name: "inception_4a/pool"
  type: "Pooling"
  bottom: "pool3/3x3_s2"
  top: "inception_4a/pool"
  pooling_param {
    pool: MAX
    kernel_size: 3
    stride: 1
    pad: 1
  }
}
layer {
  name: "inception_4a/pool_proj"
  type: "Convolution"
  bottom: "inception_4a/pool"
  top: "inception_4a/pool_proj"
  param {
    lr_mult: 1
    decay_mult: 1
  }
  param {
    lr_mult: 2
    decay_mult: 0
  }
  convolution_param {
    num_output: 64
    kernel_size: 1
    weight_filler {
      type: "xavier"
    }
    bias_filler {
      type: "constant"
      value: 0.2
    }
  }
}
layer {
  name: "inception_4a/relu_pool_proj"
  type: "ReLU"
  bottom: "inception_4a/pool_proj"
  top: "inception_4a/pool_proj"
}
layer {
  name: "inception_4a/output"
  type: "Concat"
  bottom: "inception_4a/1x1"
  bottom: "inception_4a/3x3"
  bottom: "inception_4a/5x5"
  bottom: "inception_4a/pool_proj"
  top: "inception_4a/output"
}
layer {
  name: "loss1/ave_pool"
  type: "Pooling"
  bottom: "inception_4a/output"
  top: "loss1/ave_pool"
  pooling_param {
    pool: AVE
    kernel_size: 5
    stride: 3
  }
}
layer {
  name: "loss1/conv"
  type: "Convolution"
  bottom: "loss1/ave_pool"
  top: "loss1/conv"
  param {
    lr_mult: 1
    decay_mult: 1
  }
  param {
    lr_mult: 2
    decay_mult: 0
  }
  convolution_param {
    num_output: 128
    kernel_size: 1
    weight_filler {
      type: "xavier"
    }
    bias_filler {
      type: "constant"
      value: 0.2
    }
  }
}
layer {
  name: "loss1/relu_conv"
  type: "ReLU"
  bottom: "loss1/conv"
  top: "loss1/conv"
}
layer {
  name: "loss1/fc"
  type: "InnerProduct"
  bottom: "loss1/conv"
  top: "loss1/fc"
  param {
    lr_mult: 1
    decay_mult: 1
  }
  param {
    lr_mult: 2
    decay_mult: 0
  }
  inner_product_param {
    num_output: 1024
    weight_filler {
      type: "xavier"
    }
    bias_filler {
      type: "constant"
      value: 0.2
    }
  }
}
layer {
  name: "loss1/relu_fc"
  type: "ReLU"
  bottom: "loss1/fc"
  top: "loss1/fc"
}
layer {
  name: "loss1/drop_fc"
  type: "Dropout"
  bottom: "loss1/fc"
  top: "loss1/fc"
  dropout_param {
    dropout_ratio: 0.7
  }
}
layer {
  name: "loss1/classifier_kaggle"
  type: "InnerProduct"
  bottom: "loss1/fc"
  top: "loss1/classifier_kaggle"
  param {
    lr_mult: 1
    decay_mult: 1
  }
  param {
    lr_mult: 2
    decay_mult: 0
  }
  inner_product_param {
    num_output: 447
    weight_filler {
      type: "xavier"
    }
    bias_filler {
      type: "constant"
      value: 0
    }
  }
}
layer {
  name: "loss1/loss"
  type: "SoftmaxWithLoss"
  bottom: "loss1/classifier_kaggle"
  bottom: "label"
  top: "loss1/loss1"
  loss_weight: 0.3
}
layer {
  name: "loss1/top-1"
  type: "Accuracy"
  bottom: "loss1/classifier_kaggle"
  bottom: "label"
  top: "loss1/top-1"
  include {
    phase: TEST
  }
}
layer {
  name: "loss1/top-5"
  type: "Accuracy"
  bottom: "loss1/classifier_kaggle"
  bottom: "label"
  top: "loss1/top-5"
  include {
    phase: TEST
  }
  accuracy_param {
    top_k: 5
  }
}
layer {
  name: "inception_4b/1x1"
  type: "Convolution"
  bottom: "inception_4a/output"
  top: "inception_4b/1x1"
  param {
    lr_mult: 1
    decay_mult: 1
  }
  param {
    lr_mult: 2
    decay_mult: 0
  }
  convolution_param {
    num_output: 160
    kernel_size: 1
    weight_filler {
      type: "xavier"
    }
    bias_filler {
      type: "constant"
      value: 0.2
    }
  }
}
layer {
  name: "inception_4b/relu_1x1"
  type: "ReLU"
  bottom: "inception_4b/1x1"
  top: "inception_4b/1x1"
}
layer {
  name: "inception_4b/3x3_reduce"
  type: "Convolution"
  bottom: "inception_4a/output"
  top: "inception_4b/3x3_reduce"
  param {
    lr_mult: 1
    decay_mult: 1
  }
  param {
    lr_mult: 2
    decay_mult: 0
  }
  convolution_param {
    num_output: 112
    kernel_size: 1
    weight_filler {
      type: "xavier"
    }
    bias_filler {
      type: "constant"
      value: 0.2
    }
  }
}
layer {
  name: "inception_4b/relu_3x3_reduce"
  type: "ReLU"
  bottom: "inception_4b/3x3_reduce"
  top: "inception_4b/3x3_reduce"
}
layer {
  name: "inception_4b/3x3"
  type: "Convolution"
  bottom: "inception_4b/3x3_reduce"
  top: "inception_4b/3x3"
  param {
    lr_mult: 1
    decay_mult: 1
  }
  param {
    lr_mult: 2
    decay_mult: 0
  }
  convolution_param {
    num_output: 224
    pad: 1
    kernel_size: 3
    weight_filler {
      type: "xavier"
    }
    bias_filler {
      type: "constant"
      value: 0.2
    }
  }
}
layer {
  name: "inception_4b/relu_3x3"
  type: "ReLU"
  bottom: "inception_4b/3x3"
  top: "inception_4b/3x3"
}
layer {
  name: "inception_4b/5x5_reduce"
  type: "Convolution"
  bottom: "inception_4a/output"
  top: "inception_4b/5x5_reduce"
  param {
    lr_mult: 1
    decay_mult: 1
  }
  param {
    lr_mult: 2
    decay_mult: 0
  }
  convolution_param {
    num_output: 24
    kernel_size: 1
    weight_filler {
      type: "xavier"
    }
    bias_filler {
      type: "constant"
      value: 0.2
    }
  }
}
layer {
  name: "inception_4b/relu_5x5_reduce"
  type: "ReLU"
  bottom: "inception_4b/5x5_reduce"
  top: "inception_4b/5x5_reduce"
}
layer {
  name: "inception_4b/5x5"
  type: "Convolution"
  bottom: "inception_4b/5x5_reduce"
  top: "inception_4b/5x5"
  param {
    lr_mult: 1
    decay_mult: 1
  }
  param {
    lr_mult: 2
    decay_mult: 0
  }
  convolution_param {
    num_output: 64
    pad: 2
    kernel_size: 5
    weight_filler {
      type: "xavier"
    }
    bias_filler {
      type: "constant"
      value: 0.2
    }
  }
}
layer {
  name: "inception_4b/relu_5x5"
  type: "ReLU"
  bottom: "inception_4b/5x5"
  top: "inception_4b/5x5"
}
layer {
  name: "inception_4b/pool"
  type: "Pooling"
  bottom: "inception_4a/output"
  top: "inception_4b/pool"
  pooling_param {
    pool: MAX
    kernel_size: 3
    stride: 1
    pad: 1
  }
}
layer {
  name: "inception_4b/pool_proj"
  type: "Convolution"
  bottom: "inception_4b/pool"
  top: "inception_4b/pool_proj"
  param {
    lr_mult: 1
    decay_mult: 1
  }
  param {
    lr_mult: 2
    decay_mult: 0
  }
  convolution_param {
    num_output: 64
    kernel_size: 1
    weight_filler {
      type: "xavier"
    }
    bias_filler {
      type: "constant"
      value: 0.2
    }
  }
}
layer {
  name: "inception_4b/relu_pool_proj"
  type: "ReLU"
  bottom: "inception_4b/pool_proj"
  top: "inception_4b/pool_proj"
}
layer {
  name: "inception_4b/output"
  type: "Concat"
  bottom: "inception_4b/1x1"
  bottom: "inception_4b/3x3"
  bottom: "inception_4b/5x5"
  bottom: "inception_4b/pool_proj"
  top: "inception_4b/output"
}
layer {
  name: "inception_4c/1x1"
  type: "Convolution"
  bottom: "inception_4b/output"
  top: "inception_4c/1x1"
  param {
    lr_mult: 1
    decay_mult: 1
  }
  param {
    lr_mult: 2
    decay_mult: 0
  }
  convolution_param {
    num_output: 128
    kernel_size: 1
    weight_filler {
      type: "xavier"
    }
    bias_filler {
      type: "constant"
      value: 0.2
    }
  }
}
layer {
  name: "inception_4c/relu_1x1"
  type: "ReLU"
  bottom: "inception_4c/1x1"
  top: "inception_4c/1x1"
}
layer {
  name: "inception_4c/3x3_reduce"
  type: "Convolution"
  bottom: "inception_4b/output"
  top: "inception_4c/3x3_reduce"
  param {
    lr_mult: 1
    decay_mult: 1
  }
  param {
    lr_mult: 2
    decay_mult: 0
  }
  convolution_param {
    num_output: 128
    kernel_size: 1
    weight_filler {
      type: "xavier"
    }
    bias_filler {
      type: "constant"
      value: 0.2
    }
  }
}
layer {
  name: "inception_4c/relu_3x3_reduce"
  type: "ReLU"
  bottom: "inception_4c/3x3_reduce"
  top: "inception_4c/3x3_reduce"
}
layer {
  name: "inception_4c/3x3"
  type: "Convolution"
  bottom: "inception_4c/3x3_reduce"
  top: "inception_4c/3x3"
  param {
    lr_mult: 1
    decay_mult: 1
  }
  param {
    lr_mult: 2
    decay_mult: 0
  }
  convolution_param {
    num_output: 256
    pad: 1
    kernel_size: 3
    weight_filler {
      type: "xavier"
    }
    bias_filler {
      type: "constant"
      value: 0.2
    }
  }
}
layer {
  name: "inception_4c/relu_3x3"
  type: "ReLU"
  bottom: "inception_4c/3x3"
  top: "inception_4c/3x3"
}
layer {
  name: "inception_4c/5x5_reduce"
  type: "Convolution"
  bottom: "inception_4b/output"
  top: "inception_4c/5x5_reduce"
  param {
    lr_mult: 1
    decay_mult: 1
  }
  param {
    lr_mult: 2
    decay_mult: 0
  }
  convolution_param {
    num_output: 24
    kernel_size: 1
    weight_filler {
      type: "xavier"
    }
    bias_filler {
      type: "constant"
      value: 0.2
    }
  }
}
layer {
  name: "inception_4c/relu_5x5_reduce"
  type: "ReLU"
  bottom: "inception_4c/5x5_reduce"
  top: "inception_4c/5x5_reduce"
}
layer {
  name: "inception_4c/5x5"
  type: "Convolution"
  bottom: "inception_4c/5x5_reduce"
  top: "inception_4c/5x5"
  param {
    lr_mult: 1
    decay_mult: 1
  }
  param {
    lr_mult: 2
    decay_mult: 0
  }
  convolution_param {
    num_output: 64
    pad: 2
    kernel_size: 5
    weight_filler {
      type: "xavier"
    }
    bias_filler {
      type: "constant"
      value: 0.2
    }
  }
}
layer {
  name: "inception_4c/relu_5x5"
  type: "ReLU"
  bottom: "inception_4c/5x5"
  top: "inception_4c/5x5"
}
layer {
  name: "inception_4c/pool"
  type: "Pooling"
  bottom: "inception_4b/output"
  top: "inception_4c/pool"
  pooling_param {
    pool: MAX
    kernel_size: 3
    stride: 1
    pad: 1
  }
}
layer {
  name: "inception_4c/pool_proj"
  type: "Convolution"
  bottom: "inception_4c/pool"
  top: "inception_4c/pool_proj"
  param {
    lr_mult: 1
    decay_mult: 1
  }
  param {
    lr_mult: 2
    decay_mult: 0
  }
  convolution_param {
    num_output: 64
    kernel_size: 1
    weight_filler {
      type: "xavier"
    }
    bias_filler {
      type: "constant"
      value: 0.2
    }
  }
}
layer {
  name: "inception_4c/relu_pool_proj"
  type: "ReLU"
  bottom: "inception_4c/pool_proj"
  top: "inception_4c/pool_proj"
}
layer {
  name: "inception_4c/output"
  type: "Concat"
  bottom: "inception_4c/1x1"
  bottom: "inception_4c/3x3"
  bottom: "inception_4c/5x5"
  bottom: "inception_4c/pool_proj"
  top: "inception_4c/output"
}
layer {
  name: "inception_4d/1x1"
  type: "Convolution"
  bottom: "inception_4c/output"
  top: "inception_4d/1x1"
  param {
    lr_mult: 1
    decay_mult: 1
  }
  param {
    lr_mult: 2
    decay_mult: 0
  }
  convolution_param {
    num_output: 112
    kernel_size: 1
    weight_filler {
      type: "xavier"
    }
    bias_filler {
      type: "constant"
      value: 0.2
    }
  }
}
layer {
  name: "inception_4d/relu_1x1"
  type: "ReLU"
  bottom: "inception_4d/1x1"
  top: "inception_4d/1x1"
}
layer {
  name: "inception_4d/3x3_reduce"
  type: "Convolution"
  bottom: "inception_4c/output"
  top: "inception_4d/3x3_reduce"
  param {
    lr_mult: 1
    decay_mult: 1
  }
  param {
    lr_mult: 2
    decay_mult: 0
  }
  convolution_param {
    num_output: 144
    kernel_size: 1
    weight_filler {
      type: "xavier"
    }
    bias_filler {
      type: "constant"
      value: 0.2
    }
  }
}
layer {
  name: "inception_4d/relu_3x3_reduce"
  type: "ReLU"
  bottom: "inception_4d/3x3_reduce"
  top: "inception_4d/3x3_reduce"
}
layer {
  name: "inception_4d/3x3"
  type: "Convolution"
  bottom: "inception_4d/3x3_reduce"
  top: "inception_4d/3x3"
  param {
    lr_mult: 1
    decay_mult: 1
  }
  param {
    lr_mult: 2
    decay_mult: 0
  }
  convolution_param {
    num_output: 288
    pad: 1
    kernel_size: 3
    weight_filler {
      type: "xavier"
    }
    bias_filler {
      type: "constant"
      value: 0.2
    }
  }
}
layer {
  name: "inception_4d/relu_3x3"
  type: "ReLU"
  bottom: "inception_4d/3x3"
  top: "inception_4d/3x3"
}
layer {
  name: "inception_4d/5x5_reduce"
  type: "Convolution"
  bottom: "inception_4c/output"
  top: "inception_4d/5x5_reduce"
  param {
    lr_mult: 1
    decay_mult: 1
  }
  param {
    lr_mult: 2
    decay_mult: 0
  }
  convolution_param {
    num_output: 32
    kernel_size: 1
    weight_filler {
      type: "xavier"
    }
    bias_filler {
      type: "constant"
      value: 0.2
    }
  }
}
layer {
  name: "inception_4d/relu_5x5_reduce"
  type: "ReLU"
  bottom: "inception_4d/5x5_reduce"
  top: "inception_4d/5x5_reduce"
}
layer {
  name: "inception_4d/5x5"
  type: "Convolution"
  bottom: "inception_4d/5x5_reduce"
  top: "inception_4d/5x5"
  param {
    lr_mult: 1
    decay_mult: 1
  }
  param {
    lr_mult: 2
    decay_mult: 0
  }
  convolution_param {
    num_output: 64
    pad: 2
    kernel_size: 5
    weight_filler {
      type: "xavier"
    }
    bias_filler {
      type: "constant"
      value: 0.2
    }
  }
}
layer {
  name: "inception_4d/relu_5x5"
  type: "ReLU"
  bottom: "inception_4d/5x5"
  top: "inception_4d/5x5"
}
layer {
  name: "inception_4d/pool"
  type: "Pooling"
  bottom: "inception_4c/output"
  top: "inception_4d/pool"
  pooling_param {
    pool: MAX
    kernel_size: 3
    stride: 1
    pad: 1
  }
}
layer {
  name: "inception_4d/pool_proj"
  type: "Convolution"
  bottom: "inception_4d/pool"
  top: "inception_4d/pool_proj"
  param {
    lr_mult: 1
    decay_mult: 1
  }
  param {
    lr_mult: 2
    decay_mult: 0
  }
  convolution_param {
    num_output: 64
    kernel_size: 1
    weight_filler {
      type: "xavier"
    }
    bias_filler {
      type: "constant"
      value: 0.2
    }
  }
}
layer {
  name: "inception_4d/relu_pool_proj"
  type: "ReLU"
  bottom: "inception_4d/pool_proj"
  top: "inception_4d/pool_proj"
}
layer {
  name: "inception_4d/output"
  type: "Concat"
  bottom: "inception_4d/1x1"
  bottom: "inception_4d/3x3"
  bottom: "inception_4d/5x5"
  bottom: "inception_4d/pool_proj"
  top: "inception_4d/output"
}
layer {
  name: "loss2/ave_pool"
  type: "Pooling"
  bottom: "inception_4d/output"
  top: "loss2/ave_pool"
  pooling_param {
    pool: AVE
    kernel_size: 5
    stride: 3
  }
}
layer {
…
I0106 23:20:04.752617 17082 net.cpp:84] Creating Layer inception_4c/1x1
I0106 23:20:04.752624 17082 net.cpp:380] inception_4c/1x1 <- inception_4b/output_inception_4b/output_0_split_0
I0106 23:20:04.752629 17082 net.cpp:338] inception_4c/1x1 -> inception_4c/1x1
I0106 23:20:04.752637 17082 net.cpp:113] Setting up inception_4c/1x1
I0106 23:20:04.753815 17082 net.cpp:120] Top shape: 50 128 14 14 (1254400)
I0106 23:20:04.753832 17082 layer_factory.hpp:74] Creating layer inception_4c/relu_1x1
I0106 23:20:04.753839 17082 net.cpp:84] Creating Layer inception_4c/relu_1x1
I0106 23:20:04.753845 17082 net.cpp:380] inception_4c/relu_1x1 <- inception_4c/1x1
I0106 23:20:04.753859 17082 net.cpp:327] inception_4c/relu_1x1 -> inception_4c/1x1 (in-place)
I0106 23:20:04.753875 17082 net.cpp:113] Setting up inception_4c/relu_1x1
I0106 23:20:04.754128 17082 net.cpp:120] Top shape: 50 128 14 14 (1254400)
I0106 23:20:04.754139 17082 layer_factory.hpp:74] Creating layer inception_4c/3x3_reduce
I0106 23:20:04.754148 17082 net.cpp:84] Creating Layer inception_4c/3x3_reduce
I0106 23:20:04.754155 17082 net.cpp:380] inception_4c/3x3_reduce <- inception_4b/output_inception_4b/output_0_split_1
I0106 23:20:04.754164 17082 net.cpp:338] inception_4c/3x3_reduce -> inception_4c/3x3_reduce
I0106 23:20:04.754173 17082 net.cpp:113] Setting up inception_4c/3x3_reduce
I0106 23:20:04.755352 17082 net.cpp:120] Top shape: 50 128 14 14 (1254400)
I0106 23:20:04.755367 17082 layer_factory.hpp:74] Creating layer inception_4c/relu_3x3_reduce
I0106 23:20:04.755374 17082 net.cpp:84] Creating Layer inception_4c/relu_3x3_reduce
I0106 23:20:04.755380 17082 net.cpp:380] inception_4c/relu_3x3_reduce <- inception_4c/3x3_reduce
I0106 23:20:04.755388 17082 net.cpp:327] inception_4c/relu_3x3_reduce -> inception_4c/3x3_reduce (in-place)
I0106 23:20:04.755394 17082 net.cpp:113] Setting up inception_4c/relu_3x3_reduce
I0106 23:20:04.755467 17082 net.cpp:120] Top shape: 50 128 14 14 (1254400)
I0106 23:20:04.755475 17082 layer_factory.hpp:74] Creating layer inception_4c/3x3
I0106 23:20:04.755483 17082 net.cpp:84] Creating Layer inception_4c/3x3
I0106 23:20:04.755488 17082 net.cpp:380] inception_4c/3x3 <- inception_4c/3x3_reduce
I0106 23:20:04.755496 17082 net.cpp:338] inception_4c/3x3 -> inception_4c/3x3
I0106 23:20:04.755503 17082 net.cpp:113] Setting up inception_4c/3x3
I0106 23:20:04.759311 17082 net.cpp:120] Top shape: 50 256 14 14 (2508800)
I0106 23:20:04.759337 17082 layer_factory.hpp:74] Creating layer inception_4c/relu_3x3
I0106 23:20:04.759346 17082 net.cpp:84] Creating Layer inception_4c/relu_3x3
I0106 23:20:04.759351 17082 net.cpp:380] inception_4c/relu_3x3 <- inception_4c/3x3
I0106 23:20:04.759358 17082 net.cpp:327] inception_4c/relu_3x3 -> inception_4c/3x3 (in-place)
I0106 23:20:04.759366 17082 net.cpp:113] Setting up inception_4c/relu_3x3
I0106 23:20:04.759438 17082 net.cpp:120] Top shape: 50 256 14 14 (2508800)
I0106 23:20:04.759445 17082 layer_factory.hpp:74] Creating layer inception_4c/5x5_reduce
I0106 23:20:04.759455 17082 net.cpp:84] Creating Layer inception_4c/5x5_reduce
I0106 23:20:04.759461 17082 net.cpp:380] inception_4c/5x5_reduce <- inception_4b/output_inception_4b/output_0_split_2
I0106 23:20:04.759471 17082 net.cpp:338] inception_4c/5x5_reduce -> inception_4c/5x5_reduce
I0106 23:20:04.759479 17082 net.cpp:113] Setting up inception_4c/5x5_reduce
I0106 23:20:04.760042 17082 net.cpp:120] Top shape: 50 24 14 14 (235200)
I0106 23:20:04.760057 17082 layer_factory.hpp:74] Creating layer inception_4c/relu_5x5_reduce
I0106 23:20:04.760066 17082 net.cpp:84] Creating Layer inception_4c/relu_5x5_reduce
I0106 23:20:04.760072 17082 net.cpp:380] inception_4c/relu_5x5_reduce <- inception_4c/5x5_reduce
I0106 23:20:04.760079 17082 net.cpp:327] inception_4c/relu_5x5_reduce -> inception_4c/5x5_reduce (in-place)
I0106 23:20:04.760087 17082 net.cpp:113] Setting up inception_4c/relu_5x5_reduce
I0106 23:20:04.760341 17082 net.cpp:120] Top shape: 50 24 14 14 (235200)
I0106 23:20:04.760352 17082 layer_factory.hpp:74] Creating layer inception_4c/5x5
I0106 23:20:04.760362 17082 net.cpp:84] Creating Layer inception_4c/5x5
I0106 23:20:04.760368 17082 net.cpp:380] inception_4c/5x5 <- inception_4c/5x5_reduce
I0106 23:20:04.760375 17082 net.cpp:338] inception_4c/5x5 -> inception_4c/5x5
I0106 23:20:04.760385 17082 net.cpp:113] Setting up inception_4c/5x5
I0106 23:20:04.761246 17082 net.cpp:120] Top shape: 50 64 14 14 (627200)
I0106 23:20:04.761261 17082 layer_factory.hpp:74] Creating layer inception_4c/relu_5x5
I0106 23:20:04.761268 17082 net.cpp:84] Creating Layer inception_4c/relu_5x5
I0106 23:20:04.761275 17082 net.cpp:380] inception_4c/relu_5x5 <- inception_4c/5x5
I0106 23:20:04.761282 17082 net.cpp:327] inception_4c/relu_5x5 -> inception_4c/5x5 (in-place)
I0106 23:20:04.761296 17082 net.cpp:113] Setting up inception_4c/relu_5x5
I0106 23:20:04.761379 17082 net.cpp:120] Top shape: 50 64 14 14 (627200)
I0106 23:20:04.761385 17082 layer_factory.hpp:74] Creating layer inception_4c/pool
I0106 23:20:04.761391 17082 layer_factory.cpp:56] CUDNN does not support padding or multiple tops. Using Caffe's own pooling layer.
I0106 23:20:04.761397 17082 net.cpp:84] Creating Layer inception_4c/pool
I0106 23:20:04.761402 17082 net.cpp:380] inception_4c/pool <- inception_4b/output_inception_4b/output_0_split_3
I0106 23:20:04.761409 17082 net.cpp:338] inception_4c/pool -> inception_4c/pool
I0106 23:20:04.761417 17082 net.cpp:113] Setting up inception_4c/pool
I0106 23:20:04.761426 17082 net.cpp:120] Top shape: 50 512 14 14 (5017600)
I0106 23:20:04.761430 17082 layer_factory.hpp:74] Creating layer inception_4c/pool_proj
I0106 23:20:04.761441 17082 net.cpp:84] Creating Layer inception_4c/pool_proj
I0106 23:20:04.761446 17082 net.cpp:380] inception_4c/pool_proj <- inception_4c/pool
I0106 23:20:04.761462 17082 net.cpp:338] inception_4c/pool_proj -> inception_4c/pool_proj
I0106 23:20:04.761471 17082 net.cpp:113] Setting up inception_4c/pool_proj
I0106 23:20:04.762271 17082 net.cpp:120] Top shape: 50 64 14 14 (627200)
I0106 23:20:04.762286 17082 layer_factory.hpp:74] Creating layer inception_4c/relu_pool_proj
I0106 23:20:04.762295 17082 net.cpp:84] Creating Layer inception_4c/relu_pool_proj
I0106 23:20:04.762301 17082 net.cpp:380] inception_4c/relu_pool_proj <- inception_4c/pool_proj
I0106 23:20:04.762308 17082 net.cpp:327] inception_4c/relu_pool_proj -> inception_4c/pool_proj (in-place)
I0106 23:20:04.762315 17082 net.cpp:113] Setting up inception_4c/relu_pool_proj
I0106 23:20:04.762387 17082 net.cpp:120] Top shape: 50 64 14 14 (627200)
I0106 23:20:04.762394 17082 layer_factory.hpp:74] Creating layer inception_4c/output
I0106 23:20:04.762403 17082 net.cpp:84] Creating Layer inception_4c/output
I0106 23:20:04.762408 17082 net.cpp:380] inception_4c/output <- inception_4c/1x1
I0106 23:20:04.762414 17082 net.cpp:380] inception_4c/output <- inception_4c/3x3
I0106 23:20:04.762419 17082 net.cpp:380] inception_4c/output <- inception_4c/5x5
I0106 23:20:04.762424 17082 net.cpp:380] inception_4c/output <- inception_4c/pool_proj
I0106 23:20:04.762430 17082 net.cpp:338] inception_4c/output -> inception_4c/output
I0106 23:20:04.762439 17082 net.cpp:113] Setting up inception_4c/output
I0106 23:20:04.762445 17082 net.cpp:120] Top shape: 50 512 14 14 (5017600)
I0106 23:20:04.762450 17082 layer_factory.hpp:74] Creating layer inception_4c/output_inception_4c/output_0_split
I0106 23:20:04.762456 17082 net.cpp:84] Creating Layer inception_4c/output_inception_4c/output_0_split
I0106 23:20:04.762461 17082 net.cpp:380] inception_4c/output_inception_4c/output_0_split <- inception_4c/output
I0106 23:20:04.762470 17082 net.cpp:338] inception_4c/output_inception_4c/output_0_split -> inception_4c/output_inception_4c/output_0_split_0
I0106 23:20:04.762477 17082 net.cpp:338] inception_4c/output_inception_4c/output_0_split -> inception_4c/output_inception_4c/output_0_split_1
I0106 23:20:04.762485 17082 net.cpp:338] inception_4c/output_inception_4c/output_0_split -> inception_4c/output_inception_4c/output_0_split_2
I0106 23:20:04.762491 17082 net.cpp:338] inception_4c/output_inception_4c/output_0_split -> inception_4c/output_inception_4c/output_0_split_3
I0106 23:20:04.762497 17082 net.cpp:113] Setting up inception_4c/output_inception_4c/output_0_split
I0106 23:20:04.762504 17082 net.cpp:120] Top shape: 50 512 14 14 (5017600)
I0106 23:20:04.762511 17082 net.cpp:120] Top shape: 50 512 14 14 (5017600)
I0106 23:20:04.762516 17082 net.cpp:120] Top shape: 50 512 14 14 (5017600)
I0106 23:20:04.762521 17082 net.cpp:120] Top shape: 50 512 14 14 (5017600)
I0106 23:20:04.762524 17082 layer_factory.hpp:74] Creating layer inception_4d/1x1
I0106 23:20:04.762534 17082 net.cpp:84] Creating Layer inception_4d/1x1
I0106 23:20:04.762539 17082 net.cpp:380] inception_4d/1x1 <- inception_4c/output_inception_4c/output_0_split_0
I0106 23:20:04.762553 17082 net.cpp:338] inception_4d/1x1 -> inception_4d/1x1
I0106 23:20:04.762568 17082 net.cpp:113] Setting up inception_4d/1x1
I0106 23:20:04.763649 17082 net.cpp:120] Top shape: 50 112 14 14 (1097600)
I0106 23:20:04.763665 17082 layer_factory.hpp:74] Creating layer inception_4d/relu_1x1
I0106 23:20:04.763674 17082 net.cpp:84] Creating Layer inception_4d/relu_1x1
I0106 23:20:04.763679 17082 net.cpp:380] inception_4d/relu_1x1 <- inception_4d/1x1
I0106 23:20:04.763686 17082 net.cpp:327] inception_4d/relu_1x1 -> inception_4d/1x1 (in-place)
I0106 23:20:04.763695 17082 net.cpp:113] Setting up inception_4d/relu_1x1
I0106 23:20:04.763767 17082 net.cpp:120] Top shape: 50 112 14 14 (1097600)
I0106 23:20:04.763772 17082 layer_factory.hpp:74] Creating layer inception_4d/3x3_reduce
I0106 23:20:04.763782 17082 net.cpp:84] Creating Layer inception_4d/3x3_reduce
I0106 23:20:04.763787 17082 net.cpp:380] inception_4d/3x3_reduce <- inception_4c/output_inception_4c/output_0_split_1
I0106 23:20:04.763797 17082 net.cpp:338] inception_4d/3x3_reduce -> inception_4d/3x3_reduce
I0106 23:20:04.763804 17082 net.cpp:113] Setting up inception_4d/3x3_reduce
I0106 23:20:04.765077 17082 net.cpp:120] Top shape: 50 144 14 14 (1411200)
I0106 23:20:04.765092 17082 layer_factory.hpp:74] Creating layer inception_4d/relu_3x3_reduce
I0106 23:20:04.765101 17082 net.cpp:84] Creating Layer inception_4d/relu_3x3_reduce
I0106 23:20:04.765107 17082 net.cpp:380] inception_4d/relu_3x3_reduce <- inception_4d/3x3_reduce
I0106 23:20:04.765115 17082 net.cpp:327] inception_4d/relu_3x3_reduce -> inception_4d/3x3_reduce (in-place)
I0106 23:20:04.765122 17082 net.cpp:113] Setting up inception_4d/relu_3x3_reduce
I0106 23:20:04.765383 17082 net.cpp:120] Top shape: 50 144 14 14 (1411200)
I0106 23:20:04.765393 17082 layer_factory.hpp:74] Creating layer inception_4d/3x3
I0106 23:20:04.765404 17082 net.cpp:84] Creating Layer inception_4d/3x3
I0106 23:20:04.765410 17082 net.cpp:380] inception_4d/3x3 <- inception_4d/3x3_reduce
I0106 23:20:04.765419 17082 net.cpp:338] inception_4d/3x3 -> inception_4d/3x3
I0106 23:20:04.765427 17082 net.cpp:113] Setting up inception_4d/3x3
I0106 23:20:04.770236 17082 net.cpp:120] Top shape: 50 288 14 14 (2822400)
I0106 23:20:04.770253 17082 layer_factory.hpp:74] Creating layer inception_4d/relu_3x3
I0106 23:20:04.770262 17082 net.cpp:84] Creating Layer inception_4d/relu_3x3
I0106 23:20:04.770267 17082 net.cpp:380] inception_4d/relu_3x3 <- inception_4d/3x3
I0106 23:20:04.770277 17082 net.cpp:327] inception_4d/relu_3x3 -> inception_4d/3x3 (in-place)
I0106 23:20:04.770284 17082 net.cpp:113] Setting up inception_4d/relu_3x3
I0106 23:20:04.770356 17082 net.cpp:120] Top shape: 50 288 14 14 (2822400)
I0106 23:20:04.770362 17082 layer_factory.hpp:74] Creating layer inception_4d/5x5_reduce
I0106 23:20:04.770372 17082 net.cpp:84] Creating Layer inception_4d/5x5_reduce
I0106 23:20:04.770378 17082 net.cpp:380] inception_4d/5x5_reduce <- inception_4c/output_inception_4c/output_0_split_2
I0106 23:20:04.770385 17082 net.cpp:338] inception_4d/5x5_reduce -> inception_4d/5x5_reduce
I0106 23:20:04.770393 17082 net.cpp:113] Setting up inception_4d/5x5_reduce
I0106 23:20:04.771050 17082 net.cpp:120] Top shape: 50 32 14 14 (313600)
I0106 23:20:04.771066 17082 layer_factory.hpp:74] Creating layer inception_4d/relu_5x5_reduce
I0106 23:20:04.771075 17082 net.cpp:84] Creating Layer inception_4d/relu_5x5_reduce
I0106 23:20:04.771080 17082 net.cpp:380] inception_4d/relu_5x5_reduce <- inception_4d/5x5_reduce
I0106 23:20:04.771088 17082 net.cpp:327] inception_4d/relu_5x5_reduce -> inception_4d/5x5_reduce (in-place)
I0106 23:20:04.771096 17082 net.cpp:113] Setting up inception_4d/relu_5x5_reduce
I0106 23:20:04.771169 17082 net.cpp:120] Top shape: 50 32 14 14 (313600)
I0106 23:20:04.771175 17082 layer_factory.hpp:74] Creating layer inception_4d/5x5
I0106 23:20:04.771183 17082 net.cpp:84] Creating Layer inception_4d/5x5
I0106 23:20:04.771188 17082 net.cpp:380] inception_4d/5x5 <- inception_4d/5x5_reduce
I0106 23:20:04.771198 17082 net.cpp:338] inception_4d/5x5 -> inception_4d/5x5
I0106 23:20:04.771211 17082 net.cpp:113] Setting up inception_4d/5x5
I0106 23:20:04.772228 17082 net.cpp:120] Top shape: 50 64 14 14 (627200)
I0106 23:20:04.772243 17082 layer_factory.hpp:74] Creating layer inception_4d/relu_5x5
I0106 23:20:04.772251 17082 net.cpp:84] Creating Layer inception_4d/relu_5x5
I0106 23:20:04.772256 17082 net.cpp:380] inception_4d/relu_5x5 <- inception_4d/5x5
I0106 23:20:04.772264 17082 net.cpp:327] inception_4d/relu_5x5 -> inception_4d/5x5 (in-place)
I0106 23:20:04.772271 17082 net.cpp:113] Setting up inception_4d/relu_5x5
I0106 23:20:04.772342 17082 net.cpp:120] Top shape: 50 64 14 14 (627200)
I0106 23:20:04.772351 17082 layer_factory.hpp:74] Creating layer inception_4d/pool
I0106 23:20:04.772356 17082 layer_factory.cpp:56] CUDNN does not support padding or multiple tops. Using Caffe's own pooling layer.
I0106 23:20:04.772361 17082 net.cpp:84] Creating Layer inception_4d/pool
I0106 23:20:04.772367 17082 net.cpp:380] inception_4d/pool <- inception_4c/output_inception_4c/output_0_split_3
I0106 23:20:04.772373 17082 net.cpp:338] inception_4d/pool -> inception_4d/pool
I0106 23:20:04.772382 17082 net.cpp:113] Setting up inception_4d/pool
I0106 23:20:04.772389 17082 net.cpp:120] Top shape: 50 512 14 14 (5017600)
I0106 23:20:04.772394 17082 layer_factory.hpp:74] Creating layer inception_4d/pool_proj
I0106 23:20:04.772404 17082 net.cpp:84] Creating Layer inception_4d/pool_proj
I0106 23:20:04.772409 17082 net.cpp:380] inception_4d/pool_proj <- inception_4d/pool
I0106 23:20:04.772418 17082 net.cpp:338] inception_4d/pool_proj -> inception_4d/pool_proj
I0106 23:20:04.772425 17082 net.cpp:113] Setting up inception_4d/pool_proj
I0106 23:20:04.773224 17082 net.cpp:120] Top shape: 50 64 14 14 (627200)
I0106 23:20:04.773241 17082 layer_factory.hpp:74] Creating layer inception_4d/relu_pool_proj
I0106 23:20:04.773248 17082 net.cpp:84] Creating Layer inception_4d/relu_pool_proj
I0106 23:20:04.773254 17082 net.cpp:380] inception_4d/relu_pool_proj <- inception_4d/pool_proj
I0106 23:20:04.773262 17082 net.cpp:327] inception_4d/relu_pool_proj -> inception_4d/pool_proj (in-place)
I0106 23:20:04.773270 17082 net.cpp:113] Setting up inception_4d/relu_pool_proj
I0106 23:20:04.773536 17082 net.cpp:120] Top shape: 50 64 14 14 (627200)
I0106 23:20:04.773553 17082 layer_factory.hpp:74] Creating layer inception_4d/output
I0106 23:20:04.773561 17082 net.cpp:84] Creating Layer inception_4d/output
I0106 23:20:04.773567 17082 net.cpp:380] inception_4d/output <- inception_4d/1x1
I0106 23:20:04.773573 17082 net.cpp:380] inception_4d/output <- inception_4d/3x3
I0106 23:20:04.773579 17082 net.cpp:380] inception_4d/output <- inception_4d/5x5
I0106 23:20:04.773584 17082 net.cpp:380] inception_4d/output <- inception_4d/pool_proj
I0106 23:20:04.773592 17082 net.cpp:338] inception_4d/output -> inception_4d/output
I0106 23:20:04.773602 17082 net.cpp:113] Setting up inception_4d/output
I0106 23:20:04.773609 17082 net.cpp:120] Top shape: 50 528 14 14 (5174400)
I0106 23:20:04.773613 17082 layer_factory.hpp:74] Creating layer inception_4d/output_inception_4d/output_0_split
I0106 23:20:04.773620 17082 net.cpp:84] Creating Layer inception_4d/output_inception_4d/output_0_split
I0106 23:20:04.773624 17082 net.cpp:380] inception_4d/output_inception_4d/output_0_split <- inception_4d/output
I0106 23:20:04.773632 17082 net.cpp:338] inception_4d/output_inception_4d/output_0_split -> inception_4d/output_inception_4d/output_0_split_0
I0106 23:20:04.773639 17082 net.cpp:338] inception_4d/output_inception_4d/output_0_split -> inception_4d/output_inception_4d/output_0_split_1
I0106 23:20:04.773646 17082 net.cpp:338] inception_4d/output_inception_4d/output_0_split -> inception_4d/output_inception_4d/output_0_split_2
I0106 23:20:04.773655 17082 net.cpp:338] inception_4d/output_inception_4d/output_0_split -> inception_4d/output_inception_4d/output_0_split_3
I0106 23:20:04.773663 17082 net.cpp:338] inception_4d/output_inception_4d/output_0_split -> inception_4d/output_inception_4d/output_0_split_4
I0106 23:20:04.773669 17082 net.cpp:113] Setting up inception_4d/output_inception_4d/output_0_split
I0106 23:20:04.773687 17082 net.cpp:120] Top shape: 50 528 14 14 (5174400)
I0106 23:20:04.773694 17082 net.cpp:120] Top shape: 50 528 14 14 (5174400)
I0106 23:20:04.773699 17082 net.cpp:120] Top shape: 50 528 14 14 (5174400)
I0106 23:20:04.773704 17082 net.cpp:120] Top shape: 50 528 14 14 (5174400)
I0106 23:20:04.773708 17082 net.cpp:120] Top shape: 50 528 14 14 (5174400)
I0106 23:20:04.773713 17082 layer_factory.hpp:74] Creating layer loss2/ave_pool
I0106 23:20:04.773721 17082 net.cpp:84] Creating Layer loss2/ave_pool
I0106 23:20:04.773726 17082 net.cpp:380] loss2/ave_pool <- inception_4d/output_inception_4d/output_0_split_0
I0106 23:20:04.773733 17082 net.cpp:338] loss2/ave_pool -> loss2/ave_pool
I0106 23:20:04.773741 17082 net.cpp:113] Setting up loss2/ave_pool
I0106 23:20:04.773813 17082 net.cpp:120] Top shape: 50 528 4 4 (422400)
I0106 23:20:04.773820 17082 layer_factory.hpp:74] Creating layer loss2/conv
I0106 23:20:04.773830 17082 net.cpp:84] Creating Layer loss2/conv
I0106 23:20:04.773835 17082 net.cpp:380] loss2/conv <- loss2/ave_pool
I0106 23:20:04.773843 17082 net.cpp:338] loss2/conv -> loss2/conv
I0106 23:20:04.773849 17082 net.cpp:113] Setting up loss2/conv
I0106 23:20:04.775049 17082 net.cpp:120] Top shape: 50 128 4 4 (102400)
I0106 23:20:04.775065 17082 layer_factory.hpp:74] Creating layer loss2/relu_conv
I0106 23:20:04.775075 17082 net.cpp:84] Creating Layer loss2/relu_conv
I0106 23:20:04.775081 17082 net.cpp:380] loss2/relu_conv <- loss2/conv
I0106 23:20:04.775089 17082 net.cpp:327] loss2/relu_conv -> loss2/conv (in-place)
I0106 23:20:04.775095 17082 net.cpp:113] Setting up loss2/relu_conv
I0106 23:20:04.775166 17082 net.cpp:120] Top shape: 50 128 4 4 (102400)
I0106 23:20:04.775172 17082 layer_factory.hpp:74] Creating layer loss2/fc
I0106 23:20:04.775182 17082 net.cpp:84] Creating Layer loss2/fc
I0106 23:20:04.775187 17082 net.cpp:380] loss2/fc <- loss2/conv
I0106 23:20:04.775195 17082 net.cpp:338] loss2/fc -> loss2/fc
I0106 23:20:04.775204 17082 net.cpp:113] Setting up loss2/fc
I0106 23:20:04.798113 17082 net.cpp:120] Top shape: 50 1024 (51200)
I0106 23:20:04.798126 17082 layer_factory.hpp:74] Creating layer loss2/relu_fc
I0106 23:20:04.798135 17082 net.cpp:84] Creating Layer loss2/relu_fc
I0106 23:20:04.798140 17082 net.cpp:380] loss2/relu_fc <- loss2/fc
I0106 23:20:04.798147 17082 net.cpp:327] loss2/relu_fc -> loss2/fc (in-place)
I0106 23:20:04.798154 17082 net.cpp:113] Setting up loss2/relu_fc
I0106 23:20:04.798233 17082 net.cpp:120] Top shape: 50 1024 (51200)
I0106 23:20:04.798239 17082 layer_factory.hpp:74] Creating layer loss2/drop_fc
I0106 23:20:04.798246 17082 net.cpp:84] Creating Layer loss2/drop_fc
I0106 23:20:04.798251 17082 net.cpp:380] loss2/drop_fc <- loss2/fc
I0106 23:20:04.798257 17082 net.cpp:327] loss2/drop_fc -> loss2/fc (in-place)
I0106 23:20:04.798264 17082 net.cpp:113] Setting up loss2/drop_fc
I0106 23:20:04.798270 17082 net.cpp:120] Top shape: 50 1024 (51200)
I0106 23:20:04.798275 17082 layer_factory.hpp:74] Creating layer loss2/classifier_kaggle
I0106 23:20:04.798285 17082 net.cpp:84] Creating Layer loss2/classifier_kaggle
I0106 23:20:04.798290 17082 net.cpp:380] loss2/classifier_kaggle <- loss2/fc
I0106 23:20:04.798296 17082 net.cpp:338] loss2/classifier_kaggle -> loss2/classifier_kaggle
I0106 23:20:04.798303 17082 net.cpp:113] Setting up loss2/classifier_kaggle
I0106 23:20:04.803542 17082 net.cpp:120] Top shape: 50 447 (22350)
I0106 23:20:04.803555 17082 layer_factory.hpp:74] Creating layer loss2/classifier_kaggle_loss2/classifier_kaggle_0_split
I0106 23:20:04.803562 17082 net.cpp:84] Creating Layer loss2/classifier_kaggle_loss2/classifier_kaggle_0_split
I0106 23:20:04.803567 17082 net.cpp:380] loss2/classifier_kaggle_loss2/classifier_kaggle_0_split <- loss2/classifier_kaggle
I0106 23:20:04.803575 17082 net.cpp:338] loss2/classifier_kaggle_loss2/classifier_kaggle_0_split -> loss2/classifier_kaggle_loss2/classifier_kaggle_0_split_0
I0106 23:20:04.803586 17082 net.cpp:338] loss2/classifier_kaggle_loss2/classifier_kaggle_0_split -> loss2/classifier_kaggle_loss2/classifier_kaggle_0_split_1
I0106 23:20:04.803604 17082 net.cpp:338] loss2/classifier_kaggle_loss2/classifier_kaggle_0_split -> loss2/classifier_kaggle_loss2/classifier_kaggle_0_split_2
I0106 23:20:04.803611 17082 net.cpp:113] Setting up loss2/classifier_kaggle_loss2/classifier_kaggle_0_split
I0106 23:20:04.803619 17082 net.cpp:120] Top shape: 50 447 (22350)
I0106 23:20:04.803624 17082 net.cpp:120] Top shape: 50 447 (22350)
I0106 23:20:04.803629 17082 net.cpp:120] Top shape: 50 447 (22350)
I0106 23:20:04.803633 17082 layer_factory.hpp:74] Creating layer loss2/loss
I0106 23:20:04.803640 17082 net.cpp:84] Creating Layer loss2/loss
I0106 23:20:04.803645 17082 net.cpp:380] loss2/loss <- loss2/classifier_kaggle_loss2/classifier_kaggle_0_split_0
I0106 23:20:04.803652 17082 net.cpp:380] loss2/loss <- label_data_1_split_3
I0106 23:20:04.803658 17082 net.cpp:338] loss2/loss -> loss2/loss1
…
I0106 23:20:04.804126 17082 net.cpp:338] loss2/top-5 -> loss2/top-5
I0106 23:20:04.804132 17082 net.cpp:113] Setting up loss2/top-5
I0106 23:20:04.804138 17082 net.cpp:120] Top shape: (1)
I0106 23:20:04.804142 17082 layer_factory.hpp:74] Creating layer inception_4e/1x1
I0106 23:20:04.804152 17082 net.cpp:84] Creating Layer inception_4e/1x1
I0106 23:20:04.804157 17082 net.cpp:380] inception_4e/1x1 <- inception_4d/output_inception_4d/output_0_split_1
I0106 23:20:04.804167 17082 net.cpp:338] inception_4e/1x1 -> inception_4e/1x1
I0106 23:20:04.804174 17082 net.cpp:113] Setting up inception_4e/1x1
I0106 23:20:04.806185 17082 net.cpp:120] Top shape: 50 256 14 14 (2508800)
I0106 23:20:04.806202 17082 layer_factory.hpp:74] Creating layer inception_4e/relu_1x1
I0106 23:20:04.806210 17082 net.cpp:84] Creating Layer inception_4e/relu_1x1
I0106 23:20:04.806216 17082 net.cpp:380] inception_4e/relu_1x1 <- inception_4e/1x1
I0106 23:20:04.806226 17082 net.cpp:327] inception_4e/relu_1x1 -> inception_4e/1x1 (in-place)
I0106 23:20:04.806234 17082 net.cpp:113] Setting up inception_4e/relu_1x1
I0106 23:20:04.806308 17082 net.cpp:120] Top shape: 50 256 14 14 (2508800)
I0106 23:20:04.806314 17082 layer_factory.hpp:74] Creating layer inception_4e/3x3_reduce
I0106 23:20:04.806339 17082 net.cpp:84] Creating Layer inception_4e/3x3_reduce
I0106 23:20:04.806344 17082 net.cpp:380] inception_4e/3x3_reduce <- inception_4d/output_inception_4d/output_0_split_2
I0106 23:20:04.806352 17082 net.cpp:338] inception_4e/3x3_reduce -> inception_4e/3x3_reduce
I0106 23:20:04.806360 17082 net.cpp:113] Setting up inception_4e/3x3_reduce
I0106 23:20:04.807752 17082 net.cpp:120] Top shape: 50 160 14 14 (1568000)
I0106 23:20:04.807770 17082 layer_factory.hpp:74] Creating layer inception_4e/relu_3x3_reduce
I0106 23:20:04.807776 17082 net.cpp:84] Creating Layer inception_4e/relu_3x3_reduce
I0106 23:20:04.807782 17082 net.cpp:380] inception_4e/relu_3x3_reduce <- inception_4e/3x3_reduce
I0106 23:20:04.807790 17082 net.cpp:327] inception_4e/relu_3x3_reduce -> inception_4e/3x3_reduce (in-place)
I0106 23:20:04.807801 17082 net.cpp:113] Setting up inception_4e/relu_3x3_reduce
I0106 23:20:04.807885 17082 net.cpp:120] Top shape: 50 160 14 14 (1568000)
I0106 23:20:04.807893 17082 layer_factory.hpp:74] Creating layer inception_4e/3x3
I0106 23:20:04.807903 17082 net.cpp:84] Creating Layer inception_4e/3x3
I0106 23:20:04.807907 17082 net.cpp:380] inception_4e/3x3 <- inception_4e/3x3_reduce
I0106 23:20:04.807914 17082 net.cpp:338] inception_4e/3x3 -> inception_4e/3x3
I0106 23:20:04.807924 17082 net.cpp:113] Setting up inception_4e/3x3
I0106 23:20:04.819556 17082 net.cpp:120] Top shape: 50 320 14 14 (3136000)
I0106 23:20:04.819574 17082 layer_factory.hpp:74] Creating layer inception_4e/relu_3x3
I0106 23:20:04.819582 17082 net.cpp:84] Creating Layer inception_4e/relu_3x3
I0106 23:20:04.819587 17082 net.cpp:380] inception_4e/relu_3x3 <- inception_4e/3x3
I0106 23:20:04.819596 17082 net.cpp:327] inception_4e/relu_3x3 -> inception_4e/3x3 (in-place)
I0106 23:20:04.819602 17082 net.cpp:113] Setting up inception_4e/relu_3x3
I0106 23:20:04.819854 17082 net.cpp:120] Top shape: 50 320 14 14 (3136000)
I0106 23:20:04.819865 17082 layer_factory.hpp:74] Creating layer inception_4e/5x5_reduce
I0106 23:20:04.819875 17082 net.cpp:84] Creating Layer inception_4e/5x5_reduce
I0106 23:20:04.819880 17082 net.cpp:380] inception_4e/5x5_reduce <- inception_4d/output_inception_4d/output_0_split_3
I0106 23:20:04.819888 17082 net.cpp:338] inception_4e/5x5_reduce -> inception_4e/5x5_reduce
I0106 23:20:04.819897 17082 net.cpp:113] Setting up inception_4e/5x5_reduce
I0106 23:20:04.820508 17082 net.cpp:120] Top shape: 50 32 14 14 (313600)
I0106 23:20:04.820523 17082 layer_factory.hpp:74] Creating layer inception_4e/relu_5x5_reduce
I0106 23:20:04.820530 17082 net.cpp:84] Creating Layer inception_4e/relu_5x5_reduce
I0106 23:20:04.820535 17082 net.cpp:380] inception_4e/relu_5x5_reduce <- inception_4e/5x5_reduce
I0106 23:20:04.820544 17082 net.cpp:327] inception_4e/relu_5x5_reduce -> inception_4e/5x5_reduce (in-place)
I0106 23:20:04.820552 17082 net.cpp:113] Setting up inception_4e/relu_5x5_reduce
I0106 23:20:04.820627 17082 net.cpp:120] Top shape: 50 32 14 14 (313600)
I0106 23:20:04.820633 17082 layer_factory.hpp:74] Creating layer inception_4e/5x5
I0106 23:20:04.820642 17082 net.cpp:84] Creating Layer inception_4e/5x5
I0106 23:20:04.820647 17082 net.cpp:380] inception_4e/5x5 <- inception_4e/5x5_reduce
I0106 23:20:04.820657 17082 net.cpp:338] inception_4e/5x5 -> inception_4e/5x5
I0106 23:20:04.820664 17082 net.cpp:113] Setting up inception_4e/5x5
I0106 23:20:04.822270 17082 net.cpp:120] Top shape: 50 128 14 14 (1254400)
I0106 23:20:04.822286 17082 layer_factory.hpp:74] Creating layer inception_4e/relu_5x5
I0106 23:20:04.822294 17082 net.cpp:84] Creating Layer inception_4e/relu_5x5
I0106 23:20:04.822299 17082 net.cpp:380] inception_4e/relu_5x5 <- inception_4e/5x5
I0106 23:20:04.822306 17082 net.cpp:327] inception_4e/relu_5x5 -> inception_4e/5x5 (in-place)
I0106 23:20:04.822314 17082 net.cpp:113] Setting up inception_4e/relu_5x5
I0106 23:20:04.822386 17082 net.cpp:120] Top shape: 50 128 14 14 (1254400)
I0106 23:20:04.822392 17082 layer_factory.hpp:74] Creating layer inception_4e/pool
I0106 23:20:04.822398 17082 layer_factory.cpp:56] CUDNN does not support padding or multiple tops. Using Caffe's own pooling layer.
I0106 23:20:04.822404 17082 net.cpp:84] Creating Layer inception_4e/pool
I0106 23:20:04.822409 17082 net.cpp:380] inception_4e/pool <- inception_4d/output_inception_4d/output_0_split_4
I0106 23:20:04.822417 17082 net.cpp:338] inception_4e/pool -> inception_4e/pool
I0106 23:20:04.822423 17082 net.cpp:113] Setting up inception_4e/pool
I0106 23:20:04.822432 17082 net.cpp:120] Top shape: 50 528 14 14 (5174400)
I0106 23:20:04.822437 17082 layer_factory.hpp:74] Creating layer inception_4e/pool_proj
I0106 23:20:04.822446 17082 net.cpp:84] Creating Layer inception_4e/pool_proj
I0106 23:20:04.822451 17082 net.cpp:380] inception_4e/pool_proj <- inception_4e/pool
I0106 23:20:04.822459 17082 net.cpp:338] inception_4e/pool_proj -> inception_4e/pool_proj
I0106 23:20:04.822474 17082 net.cpp:113] Setting up inception_4e/pool_proj
I0106 23:20:04.823683 17082 net.cpp:120] Top shape: 50 128 14 14 (1254400)
I0106 23:20:04.823698 17082 layer_factory.hpp:74] Creating layer inception_4e/relu_pool_proj
I0106 23:20:04.823707 17082 net.cpp:84] Creating Layer inception_4e/relu_pool_proj
I0106 23:20:04.823714 17082 net.cpp:380] inception_4e/relu_pool_proj <- inception_4e/pool_proj
I0106 23:20:04.823719 17082 net.cpp:327] inception_4e/relu_pool_proj -> inception_4e/pool_proj (in-place)
I0106 23:20:04.823727 17082 net.cpp:113] Setting up inception_4e/relu_pool_proj
I0106 23:20:04.823797 17082 net.cpp:120] Top shape: 50 128 14 14 (1254400)
I0106 23:20:04.823803 17082 layer_factory.hpp:74] Creating layer inception_4e/output
I0106 23:20:04.823812 17082 net.cpp:84] Creating Layer inception_4e/output
I0106 23:20:04.823817 17082 net.cpp:380] inception_4e/output <- inception_4e/1x1
I0106 23:20:04.823823 17082 net.cpp:380] inception_4e/output <- inception_4e/3x3
I0106 23:20:04.823828 17082 net.cpp:380] inception_4e/output <- inception_4e/5x5
I0106 23:20:04.823834 17082 net.cpp:380] inception_4e/output <- inception_4e/pool_proj
I0106 23:20:04.823840 17082 net.cpp:338] inception_4e/output -> inception_4e/output
I0106 23:20:04.823848 17082 net.cpp:113] Setting up inception_4e/output
I0106 23:20:04.823855 17082 net.cpp:120] Top shape: 50 832 14 14 (8153600)
I0106 23:20:04.823860 17082 layer_factory.hpp:74] Creating layer pool4/3x3_s2
I0106 23:20:04.823868 17082 net.cpp:84] Creating Layer pool4/3x3_s2
I0106 23:20:04.823873 17082 net.cpp:380] pool4/3x3_s2 <- inception_4e/output
I0106 23:20:04.823880 17082 net.cpp:338] pool4/3x3_s2 -> pool4/3x3_s2
I0106 23:20:04.823887 17082 net.cpp:113] Setting up pool4/3x3_s2
I0106 23:20:04.824149 17082 net.cpp:120] Top shape: 50 832 7 7 (2038400)
I0106 23:20:04.824159 17082 layer_factory.hpp:74] Creating layer pool4/3x3_s2_pool4/3x3_s2_0_split
I0106 23:20:04.824167 17082 net.cpp:84] Creating Layer pool4/3x3_s2_pool4/3x3_s2_0_split
I0106 23:20:04.824172 17082 net.cpp:380] pool4/3x3_s2_pool4/3x3_s2_0_split <- pool4/3x3_s2
I0106 23:20:04.824179 17082 net.cpp:338] pool4/3x3_s2_pool4/3x3_s2_0_split -> pool4/3x3_s2_pool4/3x3_s2_0_split_0
I0106 23:20:04.824190 17082 net.cpp:338] pool4/3x3_s2_pool4/3x3_s2_0_split -> pool4/3x3_s2_pool4/3x3_s2_0_split_1
I0106 23:20:04.824198 17082 net.cpp:338] pool4/3x3_s2_pool4/3x3_s2_0_split -> pool4/3x3_s2_pool4/3x3_s2_0_split_2
I0106 23:20:04.824221 17082 net.cpp:338] pool4/3x3_s2_pool4/3x3_s2_0_split -> pool4/3x3_s2_pool4/3x3_s2_0_split_3
I0106 23:20:04.824229 17082 net.cpp:113] Setting up pool4/3x3_s2_pool4/3x3_s2_0_split
I0106 23:20:04.824236 17082 net.cpp:120] Top shape: 50 832 7 7 (2038400)
I0106 23:20:04.824241 17082 net.cpp:120] Top shape: 50 832 7 7 (2038400)
I0106 23:20:04.824247 17082 net.cpp:120] Top shape: 50 832 7 7 (2038400)
I0106 23:20:04.824252 17082 net.cpp:120] Top shape: 50 832 7 7 (2038400)
I0106 23:20:04.824257 17082 layer_factory.hpp:74] Creating layer inception_5a/1x1
I0106 23:20:04.824265 17082 net.cpp:84] Creating Layer inception_5a/1x1
I0106 23:20:04.824272 17082 net.cpp:380] inception_5a/1x1 <- pool4/3x3_s2_pool4/3x3_s2_0_split_0
I0106 23:20:04.824280 17082 net.cpp:338] inception_5a/1x1 -> inception_5a/1x1
I0106 23:20:04.824287 17082 net.cpp:113] Setting up inception_5a/1x1
I0106 23:20:04.827178 17082 net.cpp:120] Top shape: 50 256 7 7 (627200)
I0106 23:20:04.827194 17082 layer_factory.hpp:74] Creating layer inception_5a/relu_1x1
I0106 23:20:04.827201 17082 net.cpp:84] Creating Layer inception_5a/relu_1x1
I0106 23:20:04.827208 17082 net.cpp:380] inception_5a/relu_1x1 <- inception_5a/1x1
I0106 23:20:04.827216 17082 net.cpp:327] inception_5a/relu_1x1 -> inception_5a/1x1 (in-place)
I0106 23:20:04.827224 17082 net.cpp:113] Setting up inception_5a/relu_1x1
I0106 23:20:04.827294 17082 net.cpp:120] Top shape: 50 256 7 7 (627200)
I0106 23:20:04.827301 17082 layer_factory.hpp:74] Creating layer inception_5a/3x3_reduce
I0106 23:20:04.827311 17082 net.cpp:84] Creating Layer inception_5a/3x3_reduce
I0106 23:20:04.827322 17082 net.cpp:380] inception_5a/3x3_reduce <- pool4/3x3_s2_pool4/3x3_s2_0_split_1
I0106 23:20:04.827337 17082 net.cpp:338] inception_5a/3x3_reduce -> inception_5a/3x3_reduce
I0106 23:20:04.827345 17082 net.cpp:113] Setting up inception_5a/3x3_reduce
I0106 23:20:04.829304 17082 net.cpp:120] Top shape: 50 160 7 7 (392000)
I0106 23:20:04.829319 17082 layer_factory.hpp:74] Creating layer inception_5a/relu_3x3_reduce
I0106 23:20:04.829327 17082 net.cpp:84] Creating Layer inception_5a/relu_3x3_reduce
I0106 23:20:04.829334 17082 net.cpp:380] inception_5a/relu_3x3_reduce <- inception_5a/3x3_reduce
I0106 23:20:04.829341 17082 net.cpp:327] inception_5a/relu_3x3_reduce -> inception_5a/3x3_reduce (in-place)
I0106 23:20:04.829349 17082 net.cpp:113] Setting up inception_5a/relu_3x3_reduce
I0106 23:20:04.829421 17082 net.cpp:120] Top shape: 50 160 7 7 (392000)
I0106 23:20:04.829427 17082 layer_factory.hpp:74] Creating layer inception_5a/3x3
I0106 23:20:04.829437 17082 net.cpp:84] Creating Layer inception_5a/3x3
I0106 23:20:04.829442 17082 net.cpp:380] inception_5a/3x3 <- inception_5a/3x3_reduce
I0106 23:20:04.829458 17082 net.cpp:338] inception_5a/3x3 -> inception_5a/3x3
I0106 23:20:04.829468 17082 net.cpp:113] Setting up inception_5a/3x3
I0106 23:20:04.835178 17082 net.cpp:120] Top shape: 50 320 7 7 (784000)
I0106 23:20:04.835196 17082 layer_factory.hpp:74] Creating layer inception_5a/relu_3x3
I0106 23:20:04.835204 17082 net.cpp:84] Creating Layer inception_5a/relu_3x3
I0106 23:20:04.835211 17082 net.cpp:380] inception_5a/relu_3x3 <- inception_5a/3x3
I0106 23:20:04.835217 17082 net.cpp:327] inception_5a/relu_3x3 -> inception_5a/3x3 (in-place)
I0106 23:20:04.835224 17082 net.cpp:113] Setting up inception_5a/relu_3x3
I0106 23:20:04.835299 17082 net.cpp:120] Top shape: 50 320 7 7 (784000)
I0106 23:20:04.835304 17082 layer_factory.hpp:74] Creating layer inception_5a/5x5_reduce
I0106 23:20:04.835314 17082 net.cpp:84] Creating Layer inception_5a/5x5_reduce
I0106 23:20:04.835319 17082 net.cpp:380] inception_5a/5x5_reduce <- pool4/3x3_s2_pool4/3x3_s2_0_split_2
I0106 23:20:04.835328 17082 net.cpp:338] inception_5a/5x5_reduce -> inception_5a/5x5_reduce
I0106 23:20:04.835336 17082 net.cpp:113] Setting up inception_5a/5x5_reduce
I0106 23:20:04.836072 17082 net.cpp:120] Top shape: 50 32 7 7 (78400)
I0106 23:20:04.836087 17082 layer_factory.hpp:74] Creating layer inception_5a/relu_5x5_reduce
I0106 23:20:04.836096 17082 net.cpp:84] Creating Layer inception_5a/relu_5x5_reduce
I0106 23:20:04.836100 17082 net.cpp:380] inception_5a/relu_5x5_reduce <- inception_5a/5x5_reduce
I0106 23:20:04.836109 17082 net.cpp:327] inception_5a/relu_5x5_reduce -> inception_5a/5x5_reduce (in-place)
I0106 23:20:04.836117 17082 net.cpp:113] Setting up inception_5a/relu_5x5_reduce
I0106 23:20:04.836374 17082 net.cpp:120] Top shape: 50 32 7 7 (78400)
I0106 23:20:04.836386 17082 layer_factory.hpp:74] Creating layer inception_5a/5x5
I0106 23:20:04.836395 17082 net.cpp:84] Creating Layer inception_5a/5x5
I0106 23:20:04.836403 17082 net.cpp:380] inception_5a/5x5 <- inception_5a/5x5_reduce
I0106 23:20:04.836410 17082 net.cpp:338] inception_5a/5x5 -> inception_5a/5x5
I0106 23:20:04.836419 17082 net.cpp:113] Setting up inception_5a/5x5
I0106 23:20:04.838034 17082 net.cpp:120] Top shape: 50 128 7 7 (313600)
I0106 23:20:04.838052 17082 layer_factory.hpp:74] Creating layer inception_5a/relu_5x5
I0106 23:20:04.838060 17082 net.cpp:84] Creating Layer inception_5a/relu_5x5
I0106 23:20:04.838066 17082 net.cpp:380] inception_5a/relu_5x5 <- inception_5a/5x5
I0106 23:20:04.838073 17082 net.cpp:327] inception_5a/relu_5x5 -> inception_5a/5x5 (in-place)
I0106 23:20:04.838080 17082 net.cpp:113] Setting up inception_5a/relu_5x5
I0106 23:20:04.838155 17082 net.cpp:120] Top shape: 50 128 7 7 (313600)
I0106 23:20:04.838160 17082 layer_factory.hpp:74] Creating layer inception_5a/pool
I0106 23:20:04.838165 17082 layer_factory.cpp:56] CUDNN does not support padding or multiple tops. Using Caffe's own pooling layer.
I0106 23:20:04.838171 17082 net.cpp:84] Creating Layer inception_5a/pool
I0106 23:20:04.838182 17082 net.cpp:380] inception_5a/pool <- pool4/3x3_s2_pool4/3x3_s2_0_split_3
I0106 23:20:04.838198 17082 net.cpp:338] inception_5a/pool -> inception_5a/pool
I0106 23:20:04.838207 17082 net.cpp:113] Setting up inception_5a/pool
I0106 23:20:04.838215 17082 net.cpp:120] Top shape: 50 832 7 7 (2038400)
I0106 23:20:04.838220 17082 layer_factory.hpp:74] Creating layer inception_5a/pool_proj
I0106 23:20:04.838230 17082 net.cpp:84] Creating Layer inception_5a/pool_proj
I0106 23:20:04.838235 17082 net.cpp:380] inception_5a/pool_proj <- inception_5a/pool
I0106 23:20:04.838243 17082 net.cpp:338] inception_5a/pool_proj -> inception_5a/pool_proj
I0106 23:20:04.838250 17082 net.cpp:113] Setting up inception_5a/pool_proj
I0106 23:20:04.839908 17082 net.cpp:120] Top shape: 50 128 7 7 (313600)
I0106 23:20:04.839923 17082 layer_factory.hpp:74] Creating layer inception_5a/relu_pool_proj
I0106 23:20:04.839933 17082 net.cpp:84] Creating Layer inception_5a/relu_pool_proj
I0106 23:20:04.839939 17082 net.cpp:380] inception_5a/relu_pool_proj <- inception_5a/pool_proj
I0106 23:20:04.839946 17082 net.cpp:327] inception_5a/relu_pool_proj -> inception_5a/pool_proj (in-place)
I0106 23:20:04.839953 17082 net.cpp:113] Setting up inception_5a/relu_pool_proj
I0106 23:20:04.840024 17082 net.cpp:120] Top shape: 50 128 7 7 (313600)
I0106 23:20:04.840031 17082 layer_factory.hpp:74] Creating layer inception_5a/output
I0106 23:20:04.840039 17082 net.cpp:84] Creating Layer inception_5a/output
I0106 23:20:04.840044 17082 net.cpp:380] inception_5a/output <- inception_5a/1x1
I0106 23:20:04.840050 17082 net.cpp:380] inception_5a/output <- inception_5a/3x3
I0106 23:20:04.840056 17082 net.cpp:380] inception_5a/output <- inception_5a/5x5
I0106 23:20:04.840061 17082 net.cpp:380] inception_5a/output <- inception_5a/pool_proj
I0106 23:20:04.840068 17082 net.cpp:338] inception_5a/output -> inception_5a/output
I0106 23:20:04.840075 17082 net.cpp:113] Setting up inception_5a/output
I0106 23:20:04.840085 17082 net.cpp:120] Top shape: 50 832 7 7 (2038400)
I0106 23:20:04.840090 17082 layer_factory.hpp:74] Creating layer inception_5a/output_inception_5a/output_0_split
I0106 23:20:04.840096 17082 net.cpp:84] Creating Layer inception_5a/output_inception_5a/output_0_split
I0106 23:20:04.840101 17082 net.cpp:380] inception_5a/output_inception_5a/output_0_split <- inception_5a/output
I0106 23:20:04.840107 17082 net.cpp:338] inception_5a/output_inception_5a/output_0_split -> inception_5a/output_inception_5a/output_0_split_0
I0106 23:20:04.840116 17082 net.cpp:338] inception_5a/output_inception_5a/output_0_split -> inception_5a/output_inception_5a/output_0_split_1
I0106 23:20:04.840122 17082 net.cpp:338] inception_5a/output_inception_5a/output_0_split -> inception_5a/output_inception_5a/output_0_split_2
I0106 23:20:04.840129 17082 net.cpp:338] inception_5a/output_inception_5a/output_0_split -> inception_5a/output_inception_5a/output_0_split_3
I0106 23:20:04.840136 17082 net.cpp:113] Setting up inception_5a/output_inception_5a/output_0_split
I0106 23:20:04.840142 17082 net.cpp:120] Top shape: 50 832 7 7 (2038400)
I0106 23:20:04.840148 17082 net.cpp:120] Top shape: 50 832 7 7 (2038400)
I0106 23:20:04.840153 17082 net.cpp:120] Top shape: 50 832 7 7 (2038400)
I0106 23:20:04.840158 17082 net.cpp:120] Top shape: 50 832 7 7 (2038400)
I0106 23:20:04.840162 17082 layer_factory.hpp:74] Creating layer inception_5b/1x1
I0106 23:20:04.840173 17082 net.cpp:84] Creating Layer inception_5b/1x1
I0106 23:20:04.840178 17082 net.cpp:380] inception_5b/1x1 <- inception_5a/output_inception_5a/output_0_split_0
I0106 23:20:04.840185 17082 net.cpp:338] inception_5b/1x1 -> inception_5b/1x1
I0106 23:20:04.840193 17082 net.cpp:113] Setting up inception_5b/1x1
I0106 23:20:04.844378 17082 net.cpp:120] Top shape: 50 384 7 7 (940800)
I0106 23:20:04.844395 17082 layer_factory.hpp:74] Creating layer inception_5b/relu_1x1
I0106 23:20:04.844403 17082 net.cpp:84] Creating Layer inception_5b/relu_1x1
I0106 23:20:04.844408 17082 net.cpp:380] inception_5b/relu_1x1 <- inception_5b/1x1
I0106 23:20:04.844418 17082 net.cpp:327] inception_5b/relu_1x1 -> inception_5b/1x1 (in-place)
I0106 23:20:04.844439 17082 net.cpp:113] Setting up inception_5b/relu_1x1
I0106 23:20:04.844513 17082 net.cpp:120] Top shape: 50 384 7 7 (940800)
I0106 23:20:04.844521 17082 layer_factory.hpp:74] Creating layer inception_5b/3x3_reduce
I0106 23:20:04.844532 17082 net.cpp:84] Creating Layer inception_5b/3x3_reduce
I0106 23:20:04.844537 17082 net.cpp:380] inception_5b/3x3_reduce <- inception_5a/output_inception_5a/output_0_split_1
I0106 23:20:04.844547 17082 net.cpp:338] inception_5b/3x3_reduce -> inception_5b/3x3_reduce
I0106 23:20:04.844554 17082 net.cpp:113] Setting up inception_5b/3x3_reduce
I0106 23:20:04.851038 17082 net.cpp:120] Top shape: 50 192 7 7 (470400)
I0106 23:20:04.851055 17082 layer_factory.hpp:74] Creating layer inception_5b/relu_3x3_reduce
I0106 23:20:04.851063 17082 net.cpp:84] Creating Layer inception_5b/relu_3x3_reduce
I0106 23:20:04.851069 17082 net.cpp:380] inception_5b/relu_3x3_reduce <- inception_5b/3x3_reduce
I0106 23:20:04.851078 17082 net.cpp:327] inception_5b/relu_3x3_reduce -> inception_5b/3x3_reduce (in-place)
I0106 23:20:04.851085 17082 net.cpp:113] Setting up inception_5b/relu_3x3_reduce
I0106 23:20:04.851353 17082 net.cpp:120] Top shape: 50 192 7 7 (470400)
I0106 23:20:04.851364 17082 layer_factory.hpp:74] Creating layer inception_5b/3x3
I0106 23:20:04.851375 17082 net.cpp:84] Creating Layer inception_5b/3x3
I0106 23:20:04.851382 17082 net.cpp:380] inception_5b/3x3 <- inception_5b/3x3_reduce
I0106 23:20:04.851389 17082 net.cpp:338] inception_5b/3x3 -> inception_5b/3x3
I0106 23:20:04.851397 17082 net.cpp:113] Setting up inception_5b/3x3
I0106 23:20:04.859431 17082 net.cpp:120] Top shape: 50 384 7 7 (940800)
I0106 23:20:04.859447 17082 layer_factory.hpp:74] Creating layer inception_5b/relu_3x3
I0106 23:20:04.859457 17082 net.cpp:84] Creating Layer inception_5b/relu_3x3
I0106 23:20:04.859463 17082 net.cpp:380] inception_5b/relu_3x3 <- inception_5b/3x3
I0106 23:20:04.859469 17082 net.cpp:327] inception_5b/relu_3x3 -> inception_5b/3x3 (in-place)
I0106 23:20:04.859477 17082 net.cpp:113] Setting up inception_5b/relu_3x3
I0106 23:20:04.859547 17082 net.cpp:120] Top shape: 50 384 7 7 (940800)
I0106 23:20:04.859554 17082 layer_factory.hpp:74] Creating layer inception_5b/5x5_reduce
I0106 23:20:04.859563 17082 net.cpp:84] Creating Layer inception_5b/5x5_reduce
I0106 23:20:04.859570 17082 net.cpp:380] inception_5b/5x5_reduce <- inception_5a/output_inception_5a/output_0_split_2
I0106 23:20:04.859576 17082 net.cpp:338] inception_5b/5x5_reduce -> inception_5b/5x5_reduce
I0106 23:20:04.859585 17082 net.cpp:113] Setting up inception_5b/5x5_reduce
I0106 23:20:04.860548 17082 net.cpp:120] Top shape: 50 48 7 7 (117600)
I0106 23:20:04.860563 17082 layer_factory.hpp:74] Creating layer inception_5b/relu_5x5_reduce
I0106 23:20:04.860571 17082 net.cpp:84] Creating Layer inception_5b/relu_5x5_reduce
I0106 23:20:04.860577 17082 net.cpp:380] inception_5b/relu_5x5_reduce <- inception_5b/5x5_reduce
I0106 23:20:04.860586 17082 net.cpp:327] inception_5b/relu_5x5_reduce -> inception_5b/5x5_reduce (in-place)
I0106 23:20:04.860594 17082 net.cpp:113] Setting up inception_5b/relu_5x5_reduce
I0106 23:20:04.860666 17082 net.cpp:120] Top shape: 50 48 7 7 (117600)
I0106 23:20:04.860673 17082 layer_factory.hpp:74] Creating layer inception_5b/5x5
I0106 23:20:04.860684 17082 net.cpp:84] Creating Layer inception_5b/5x5
I0106 23:20:04.860689 17082 net.cpp:380] inception_5b/5x5 <- inception_5b/5x5_reduce
I0106 23:20:04.860698 17082 net.cpp:338] inception_5b/5x5 -> inception_5b/5x5
I0106 23:20:04.860707 17082 net.cpp:113] Setting up inception_5b/5x5
I0106 23:20:04.862902 17082 net.cpp:120] Top shape: 50 128 7 7 (313600)
I0106 23:20:04.862918 17082 layer_factory.hpp:74] Creating layer inception_5b/relu_5x5
I0106 23:20:04.862926 17082 net.cpp:84] Creating Layer inception_5b/relu_5x5
I0106 23:20:04.862931 17082 net.cpp:380] inception_5b/relu_5x5 <- inception_5b/5x5
I0106 23:20:04.862939 17082 net.cpp:327] inception_5b/relu_5x5 -> inception_5b/5x5 (in-place)
I0106 23:20:04.862953 17082 net.cpp:113] Setting up inception_5b/relu_5x5
I0106 23:20:04.863222 17082 net.cpp:120] Top shape: 50 128 7 7 (313600)
I0106 23:20:04.863235 17082 layer_factory.hpp:74] Creating layer inception_5b/pool
I0106 23:20:04.863241 17082 layer_factory.cpp:56] CUDNN does not support padding or multiple tops. Using Caffe's own pooling layer.
I0106 23:20:04.863247 17082 net.cpp:84] Creating Layer inception_5b/pool
I0106 23:20:04.863253 17082 net.cpp:380] inception_5b/pool <- inception_5a/output_inception_5a/output_0_split_3
I0106 23:20:04.863262 17082 net.cpp:338] inception_5b/pool -> inception_5b/pool
I0106 23:20:04.863271 17082 net.cpp:113] Setting up inception_5b/pool
I0106 23:20:04.863279 17082 net.cpp:120] Top shape: 50 832 7 7 (2038400)
I0106 23:20:04.863284 17082 layer_factory.hpp:74] Creating layer inception_5b/pool_proj
I0106 23:20:04.863293 17082 net.cpp:84] Creating Layer inception_5b/pool_proj
I0106 23:20:04.863298 17082 net.cpp:380] inception_5b/pool_proj <- inception_5b/pool
I0106 23:20:04.863306 17082 net.cpp:338] inception_5b/pool_proj -> inception_5b/pool_proj
I0106 23:20:04.863314 17082 net.cpp:113] Setting up inception_5b/pool_proj
I0106 23:20:04.864960 17082 net.cpp:120] Top shape: 50 128 7 7 (313600)
I0106 23:20:04.864975 17082 layer_factory.hpp:74] Creating layer inception_5b/relu_pool_proj
I0106 23:20:04.864984 17082 net.cpp:84] Creating Layer inception_5b/relu_pool_proj
I0106 23:20:04.864989 17082 net.cpp:380] inception_5b/relu_pool_proj <- inception_5b/pool_proj
I0106 23:20:04.864995 17082 net.cpp:327] inception_5b/relu_pool_proj -> inception_5b/pool_proj (in-place)
I0106 23:20:04.865003 17082 net.cpp:113] Setting up inception_5b/relu_pool_proj
I0106 23:20:04.865077 17082 net.cpp:120] Top shape: 50 128 7 7 (313600)
I0106 23:20:04.865083 17082 layer_factory.hpp:74] Creating layer inception_5b/output
I0106 23:20:04.865090 17082 net.cpp:84] Creating Layer inception_5b/output
I0106 23:20:04.865095 17082 net.cpp:380] inception_5b/output <- inception_5b/1x1
I0106 23:20:04.865102 17082 net.cpp:380] inception_5b/output <- inception_5b/3x3
I0106 23:20:04.865108 17082 net.cpp:380] inception_5b/output <- inception_5b/5x5
I0106 23:20:04.865113 17082 net.cpp:380] inception_5b/output <- inception_5b/pool_proj
I0106 23:20:04.865118 17082 net.cpp:338] inception_5b/output -> inception_5b/output
I0106 23:20:04.865125 17082 net.cpp:113] Setting up inception_5b/output
I0106 23:20:04.865134 17082 net.cpp:120] Top shape: 50 1024 7 7 (2508800)
I0106 23:20:04.865137 17082 layer_factory.hpp:74] Creating layer pool5/7x7_s1
I0106 23:20:04.865146 17082 net.cpp:84] Creating Layer pool5/7x7_s1
I0106 23:20:04.865151 17082 net.cpp:380] pool5/7x7_s1 <- inception_5b/output
I0106 23:20:04.865159 17082 net.cpp:338] pool5/7x7_s1 -> pool5/7x7_s1
I0106 23:20:04.865165 17082 net.cpp:113] Setting up pool5/7x7_s1
I0106 23:20:04.865237 17082 net.cpp:120] Top shape: 50 1024 1 1 (51200)
I0106 23:20:04.865244 17082 layer_factory.hpp:74] Creating layer pool5/drop_7x7_s1
I0106 23:20:04.865250 17082 net.cpp:84] Creating Layer pool5/drop_7x7_s1
I0106 23:20:04.865255 17082 net.cpp:380] pool5/drop_7x7_s1 <- pool5/7x7_s1
I0106 23:20:04.865263 17082 net.cpp:327] pool5/drop_7x7_s1 -> pool5/7x7_s1 (in-place)
I0106 23:20:04.865270 17082 net.cpp:113] Setting up pool5/drop_7x7_s1
I0106 23:20:04.865278 17082 net.cpp:120] Top shape: 50 1024 1 1 (51200)
I0106 23:20:04.865281 17082 layer_factory.hpp:74] Creating layer loss3/classifier_kaggle
I0106 23:20:04.865289 17082 net.cpp:84] Creating Layer loss3/classifier_kaggle
I0106 23:20:04.865294 17082 net.cpp:380] loss3/classifier_kaggle <- pool5/7x7_s1
I0106 23:20:04.865303 17082 net.cpp:338] loss3/classifier_kaggle -> loss3/classifier_kaggle
I0106 23:20:04.865310 17082 net.cpp:113] Setting up loss3/classifier_kaggle
I0106 23:20:04.870568 17082 net.cpp:120] Top shape: 50 447 (22350)
I0106 23:20:04.870580 17082 layer_factory.hpp:74] Creating layer loss3/classifier_kaggle_loss3/classifier_kaggle_0_split
I0106 23:20:04.870587 17082 net.cpp:84] Creating Layer loss3/classifier_kaggle_loss3/classifier_kaggle_0_split
I0106 23:20:04.870602 17082 net.cpp:380] loss3/classifier_kaggle_loss3/classifier_kaggle_0_split <- loss3/classifier_kaggle
I0106 23:20:04.870616 17082 net.cpp:338] loss3/classifier_kaggle_loss3/classifier_kaggle_0_split -> loss3/classifier_kaggle_loss3/classifier_kaggle_0_split_0
I0106 23:20:04.870625 17082 net.cpp:338] loss3/classifier_kaggle_loss3/classifier_kaggle_0_split -> loss3/classifier_kaggle_loss3/classifier_kaggle_0_split_1
I0106 23:20:04.870632 17082 net.cpp:338] loss3/classifier_kaggle_loss3/classifier_kaggle_0_split -> loss3/classifier_kaggle_loss3/classifier_kaggle_0_split_2
I0106 23:20:04.870638 17082 net.cpp:113] Setting up loss3/classifier_kaggle_loss3/classifier_kaggle_0_split
I0106 23:20:04.870645 17082 net.cpp:120] Top shape: 50 447 (22350)
I0106 23:20:04.870651 17082 net.cpp:120] Top shape: 50 447 (22350)
I0106 23:20:04.870656 17082 net.cpp:120] Top shape: 50 447 (22350)
I0106 23:20:04.870661 17082 layer_factory.hpp:74] Creating layer loss3/loss3
I0106 23:20:04.870667 17082 net.cpp:84] Creating Layer loss3/loss3
I0106 23:20:04.870672 17082 net.cpp:380] loss3/loss3 <- loss3/classifier_kaggle_loss3/classifier_kaggle_0_split_0
I0106 23:20:04.870678 17082 net.cpp:380] loss3/loss3 <- label_data_1_split_6
I0106 23:20:04.870687 17082 net.cpp:338] loss3/loss3 -> loss3/loss3
…
