…
I1220 02:04:04.006767 27628 net.cpp:257] The NetState phase (0) differed from the phase (1) specified by a rule in layer loss3/top-5
I1220 02:04:04.008205 27628 net.cpp:42] Initializing net from parameters: 
name: "MYNET"
state {
  phase: TRAIN
}
layer {
  name: "data"
  type: "ImageData"
  top: "data"
  top: "label"
  include {
    phase: TRAIN
  }
  transform_param {
    mirror: false
    crop_size: 224
    mean_value: 129
    mean_value: 129
    mean_value: 129
  }
  image_data_param {
    source: "/home/coldmanck/kaggle/label_train_full.txt"
    batch_size: 80
    shuffle: true
  }
}
layer {
  name: "conv1/7x7_s2"
  type: "Convolution"
  bottom: "data"
  top: "conv1/7x7_s2"
  param {
    lr_mult: 1
    decay_mult: 1
  }
  param {
    lr_mult: 2
    decay_mult: 0
  }
  convolution_param {
    num_output: 64
    pad: 3
    kernel_size: 7
    stride: 2
    weight_filler {
      type: "xavier"
    }
    bias_filler {
      type: "constant"
      value: 0.2
    }
  }
}
layer {
  name: "conv1/relu_7x7"
  type: "ReLU"
  bottom: "conv1/7x7_s2"
  top: "conv1/7x7_s2"
}
layer {
  name: "pool1/3x3_s2"
  type: "Pooling"
  bottom: "conv1/7x7_s2"
  top: "pool1/3x3_s2"
  pooling_param {
    pool: MAX
    kernel_size: 3
    stride: 2
  }
}
layer {
  name: "pool1/norm1"
  type: "LRN"
  bottom: "pool1/3x3_s2"
  top: "pool1/norm1"
  lrn_param {
    local_size: 5
    alpha: 0.0001
    beta: 0.75
  }
}
layer {
  name: "conv2/3x3_reduce"
  type: "Convolution"
  bottom: "pool1/norm1"
  top: "conv2/3x3_reduce"
  param {
    lr_mult: 1
    decay_mult: 1
  }
  param {
    lr_mult: 2
    decay_mult: 0
  }
  convolution_param {
    num_output: 64
    kernel_size: 1
    weight_filler {
      type: "xavier"
    }
    bias_filler {
      type: "constant"
      value: 0.2
    }
  }
}
layer {
  name: "conv2/relu_3x3_reduce"
  type: "ReLU"
  bottom: "conv2/3x3_reduce"
  top: "conv2/3x3_reduce"
}
layer {
  name: "conv2/3x3"
  type: "Convolution"
  bottom: "conv2/3x3_reduce"
  top: "conv2/3x3"
  param {
    lr_mult: 1
    decay_mult: 1
  }
  param {
    lr_mult: 2
    decay_mult: 0
  }
  convolution_param {
    num_output: 192
    pad: 1
    kernel_size: 3
    weight_filler {
      type: "xavier"
    }
    bias_filler {
      type: "constant"
      value: 0.2
    }
  }
}
layer {
  name: "conv2/relu_3x3"
  type: "ReLU"
  bottom: "conv2/3x3"
  top: "conv2/3x3"
}
layer {
  name: "conv2/norm2"
  type: "LRN"
  bottom: "conv2/3x3"
  top: "conv2/norm2"
  lrn_param {
    local_size: 5
    alpha: 0.0001
    beta: 0.75
  }
}
layer {
  name: "pool2/3x3_s2"
  type: "Pooling"
  bottom: "conv2/norm2"
  top: "pool2/3x3_s2"
  pooling_param {
    pool: MAX
    kernel_size: 3
    stride: 2
  }
}
layer {
  name: "inception_3a/1x1"
  type: "Convolution"
  bottom: "pool2/3x3_s2"
  top: "inception_3a/1x1"
  param {
    lr_mult: 1
    decay_mult: 1
  }
  param {
    lr_mult: 2
    decay_mult: 0
  }
  convolution_param {
    num_output: 64
    kernel_size: 1
    weight_filler {
      type: "xavier"
    }
    bias_filler {
      type: "constant"
      value: 0.2
    }
  }
}
layer {
  name: "inception_3a/relu_1x1"
  type: "ReLU"
  bottom: "inception_3a/1x1"
  top: "inception_3a/1x1"
}
layer {
  name: "inception_3a/3x3_reduce"
  type: "Convolution"
  bottom: "pool2/3x3_s2"
  top: "inception_3a/3x3_reduce"
  param {
    lr_mult: 1
    decay_mult: 1
  }
  param {
    lr_mult: 2
    decay_mult: 0
  }
  convolution_param {
    num_output: 96
    kernel_size: 1
    weight_filler {
      type: "xavier"
    }
    bias_filler {
      type: "constant"
      value: 0.2
    }
  }
}
layer {
  name: "inception_3a/relu_3x3_reduce"
  type: "ReLU"
  bottom: "inception_3a/3x3_reduce"
  top: "inception_3a/3x3_reduce"
}
layer {
  name: "inception_3a/3x3"
  type: "Convolution"
  bottom: "inception_3a/3x3_reduce"
  top: "inception_3a/3x3"
  param {
    lr_mult: 1
    decay_mult: 1
  }
  param {
    lr_mult: 2
    decay_mult: 0
  }
  convolution_param {
    num_output: 128
    pad: 1
    kernel_size: 3
    weight_filler {
      type: "xavier"
    }
    bias_filler {
      type: "constant"
      value: 0.2
    }
  }
}
layer {
  name: "inception_3a/relu_3x3"
  type: "ReLU"
  bottom: "inception_3a/3x3"
  top: "inception_3a/3x3"
}
layer {
  name: "inception_3a/5x5_reduce"
  type: "Convolution"
  bottom: "pool2/3x3_s2"
  top: "inception_3a/5x5_reduce"
  param {
    lr_mult: 1
    decay_mult: 1
  }
  param {
    lr_mult: 2
    decay_mult: 0
  }
  convolution_param {
    num_output: 16
    kernel_size: 1
    weight_filler {
      type: "xavier"
    }
    bias_filler {
      type: "constant"
      value: 0.2
    }
  }
}
layer {
  name: "inception_3a/relu_5x5_reduce"
  type: "ReLU"
  bottom: "inception_3a/5x5_reduce"
  top: "inception_3a/5x5_reduce"
}
layer {
  name: "inception_3a/5x5"
  type: "Convolution"
  bottom: "inception_3a/5x5_reduce"
  top: "inception_3a/5x5"
  param {
    lr_mult: 1
    decay_mult: 1
  }
  param {
    lr_mult: 2
    decay_mult: 0
  }
  convolution_param {
    num_output: 32
    pad: 2
    kernel_size: 5
    weight_filler {
      type: "xavier"
    }
    bias_filler {
      type: "constant"
      value: 0.2
    }
  }
}
layer {
  name: "inception_3a/relu_5x5"
  type: "ReLU"
  bottom: "inception_3a/5x5"
  top: "inception_3a/5x5"
}
layer {
  name: "inception_3a/pool"
  type: "Pooling"
  bottom: "pool2/3x3_s2"
  top: "inception_3a/pool"
  pooling_param {
    pool: MAX
    kernel_size: 3
    stride: 1
    pad: 1
  }
}
layer {
  name: "inception_3a/pool_proj"
  type: "Convolution"
  bottom: "inception_3a/pool"
  top: "inception_3a/pool_proj"
  param {
    lr_mult: 1
    decay_mult: 1
  }
  param {
    lr_mult: 2
    decay_mult: 0
  }
  convolution_param {
    num_output: 32
    kernel_size: 1
    weight_filler {
      type: "xavier"
    }
    bias_filler {
      type: "constant"
      value: 0.2
    }
  }
}
layer {
  name: "inception_3a/relu_pool_proj"
  type: "ReLU"
  bottom: "inception_3a/pool_proj"
  top: "inception_3a/pool_proj"
}
layer {
  name: "inception_3a/output"
  type: "Concat"
  bottom: "inception_3a/1x1"
  bottom: "inception_3a/3x3"
  bottom: "inception_3a/5x5"
  bottom: "inception_3a/pool_proj"
  top: "inception_3a/output"
}
layer {
  name: "inception_3b/1x1"
  type: "Convolution"
  bottom: "inception_3a/output"
  top: "inception_3b/1x1"
  param {
    lr_mult: 1
    decay_mult: 1
  }
  param {
    lr_mult: 2
    decay_mult: 0
  }
  convolution_param {
    num_output: 128
    kernel_size: 1
    weight_filler {
      type: "xavier"
    }
    bias_filler {
      type: "constant"
      value: 0.2
    }
  }
}
layer {
  name: "inception_3b/relu_1x1"
  type: "ReLU"
  bottom: "inception_3b/1x1"
  top: "inception_3b/1x1"
}
layer {
  name: "inception_3b/3x3_reduce"
  type: "Convolution"
  bottom: "inception_3a/output"
  top: "inception_3b/3x3_reduce"
  param {
    lr_mult: 1
    decay_mult: 1
  }
  param {
    lr_mult: 2
    decay_mult: 0
  }
  convolution_param {
    num_output: 128
    kernel_size: 1
    weight_filler {
      type: "xavier"
    }
    bias_filler {
      type: "constant"
      value: 0.2
    }
  }
}
layer {
  name: "inception_3b/relu_3x3_reduce"
  type: "ReLU"
  bottom: "inception_3b/3x3_reduce"
  top: "inception_3b/3x3_reduce"
}
layer {
  name: "inception_3b/3x3"
  type: "Convolution"
  bottom: "inception_3b/3x3_reduce"
  top: "inception_3b/3x3"
  param {
    lr_mult: 1
    decay_mult: 1
  }
  param {
    lr_mult: 2
    decay_mult: 0
  }
  convolution_param {
    num_output: 192
    pad: 1
    kernel_size: 3
    weight_filler {
      type: "xavier"
    }
    bias_filler {
      type: "constant"
      value: 0.2
    }
  }
}
layer {
  name: "inception_3b/relu_3x3"
  type: "ReLU"
  bottom: "inception_3b/3x3"
  top: "inception_3b/3x3"
}
layer {
  name: "inception_3b/5x5_reduce"
  type: "Convolution"
  bottom: "inception_3a/output"
  top: "inception_3b/5x5_reduce"
  param {
    lr_mult: 1
    decay_mult: 1
  }
  param {
    lr_mult: 2
    decay_mult: 0
  }
  convolution_param {
    num_output: 32
    kernel_size: 1
    weight_filler {
      type: "xavier"
    }
    bias_filler {
      type: "constant"
      value: 0.2
    }
  }
}
layer {
  name: "inception_3b/relu_5x5_reduce"
  type: "ReLU"
  bottom: "inception_3b/5x5_reduce"
  top: "inception_3b/5x5_reduce"
}
layer {
  name: "inception_3b/5x5"
  type: "Convolution"
  bottom: "inception_3b/5x5_reduce"
  top: "inception_3b/5x5"
  param {
    lr_mult: 1
    decay_mult: 1
  }
  param {
    lr_mult: 2
    decay_mult: 0
  }
  convolution_param {
    num_output: 96
    pad: 2
    kernel_size: 5
    weight_filler {
      type: "xavier"
    }
    bias_filler {
      type: "constant"
      value: 0.2
    }
  }
}
layer {
  name: "inception_3b/relu_5x5"
  type: "ReLU"
  bottom: "inception_3b/5x5"
  top: "inception_3b/5x5"
}
layer {
  name: "inception_3b/pool"
  type: "Pooling"
  bottom: "inception_3a/output"
  top: "inception_3b/pool"
  pooling_param {
    pool: MAX
    kernel_size: 3
    stride: 1
    pad: 1
  }
}
layer {
  name: "inception_3b/pool_proj"
  type: "Convolution"
  bottom: "inception_3b/pool"
  top: "inception_3b/pool_proj"
  param {
    lr_mult: 1
    decay_mult: 1
  }
  param {
    lr_mult: 2
    decay_mult: 0
  }
  convolution_param {
    num_output: 64
    kernel_size: 1
    weight_filler {
      type: "xavier"
    }
    bias_filler {
      type: "constant"
      value: 0.2
    }
  }
}
layer {
  name: "inception_3b/relu_pool_proj"
  type: "ReLU"
  bottom: "inception_3b/pool_proj"
  top: "inception_3b/pool_proj"
}
layer {
  name: "inception_3b/output"
  type: "Concat"
  bottom: "inception_3b/1x1"
  bottom: "inception_3b/3x3"
  bottom: "inception_3b/5x5"
  bottom: "inception_3b/pool_proj"
  top: "inception_3b/output"
}
layer {
  name: "pool3/3x3_s2"
  type: "Pooling"
  bottom: "inception_3b/output"
  top: "pool3/3x3_s2"
  pooling_param {
    pool: MAX
    kernel_size: 3
    stride: 2
  }
}
layer {
  name: "inception_4a/1x1"
  type: "Convolution"
  bottom: "pool3/3x3_s2"
  top: "inception_4a/1x1"
  param {
    lr_mult: 1
    decay_mult: 1
  }
  param {
    lr_mult: 2
    decay_mult: 0
  }
  convolution_param {
    num_output: 192
    kernel_size: 1
    weight_filler {
      type: "xavier"
    }
    bias_filler {
      type: "constant"
      value: 0.2
    }
  }
}
layer {
  name: "inception_4a/relu_1x1"
  type: "ReLU"
  bottom: "inception_4a/1x1"
  top: "inception_4a/1x1"
}
layer {
  name: "inception_4a/3x3_reduce"
  type: "Convolution"
  bottom: "pool3/3x3_s2"
  top: "inception_4a/3x3_reduce"
  param {
    lr_mult: 1
    decay_mult: 1
  }
  param {
    lr_mult: 2
    decay_mult: 0
  }
  convolution_param {
    num_output: 96
    kernel_size: 1
    weight_filler {
      type: "xavier"
    }
    bias_filler {
      type: "constant"
      value: 0.2
    }
  }
}
layer {
  name: "inception_4a/relu_3x3_reduce"
  type: "ReLU"
  bottom: "inception_4a/3x3_reduce"
  top: "inception_4a/3x3_reduce"
}
layer {
  name: "inception_4a/3x3"
  type: "Convolution"
  bottom: "inception_4a/3x3_reduce"
  top: "inception_4a/3x3"
  param {
    lr_mult: 1
    decay_mult: 1
  }
  param {
    lr_mult: 2
    decay_mult: 0
  }
  convolution_param {
    num_output: 208
    pad: 1
    kernel_size: 3
    weight_filler {
      type: "xavier"
    }
    bias_filler {
      type: "constant"
      value: 0.2
    }
  }
}
layer {
  name: "inception_4a/relu_3x3"
  type: "ReLU"
  bottom: "inception_4a/3x3"
  top: "inception_4a/3x3"
}
layer {
  name: "inception_4a/5x5_reduce"
  type: "Convolution"
  bottom: "pool3/3x3_s2"
  top: "inception_4a/5x5_reduce"
  param {
    lr_mult: 1
    decay_mult: 1
  }
  param {
    lr_mult: 2
    decay_mult: 0
  }
  convolution_param {
    num_output: 16
    kernel_size: 1
    weight_filler {
      type: "xavier"
    }
    bias_filler {
      type: "constant"
      value: 0.2
    }
  }
}
layer {
  name: "inception_4a/relu_5x5_reduce"
  type: "ReLU"
  bottom: "inception_4a/5x5_reduce"
  top: "inception_4a/5x5_reduce"
}
layer {
  name: "inception_4a/5x5"
  type: "Convolution"
  bottom: "inception_4a/5x5_reduce"
  top: "inception_4a/5x5"
  param {
    lr_mult: 1
    decay_mult: 1
  }
  param {
    lr_mult: 2
    decay_mult: 0
  }
  convolution_param {
    num_output: 48
    pad: 2
    kernel_size: 5
    weight_filler {
      type: "xavier"
    }
    bias_filler {
      type: "constant"
      value: 0.2
    }
  }
}
layer {
  name: "inception_4a/relu_5x5"
  type: "ReLU"
  bottom: "inception_4a/5x5"
  top: "inception_4a/5x5"
}
layer {
  name: "inception_4a/pool"
  type: "Pooling"
  bottom: "pool3/3x3_s2"
  top: "inception_4a/pool"
  pooling_param {
    pool: MAX
    kernel_size: 3
    stride: 1
    pad: 1
  }
}
layer {
  name: "inception_4a/pool_proj"
  type: "Convolution"
  bottom: "inception_4a/pool"
  top: "inception_4a/pool_proj"
  param {
    lr_mult: 1
    decay_mult: 1
  }
  param {
    lr_mult: 2
    decay_mult: 0
  }
  convolution_param {
    num_output: 64
    kernel_size: 1
    weight_filler {
      type: "xavier"
    }
    bias_filler {
      type: "constant"
      value: 0.2
    }
  }
}
layer {
  name: "inception_4a/relu_pool_proj"
  type: "ReLU"
  bottom: "inception_4a/pool_proj"
  top: "inception_4a/pool_proj"
}
layer {
  name: "inception_4a/output"
  type: "Concat"
  bottom: "inception_4a/1x1"
  bottom: "inception_4a/3x3"
  bottom: "inception_4a/5x5"
  bottom: "inception_4a/pool_proj"
  top: "inception_4a/output"
}
layer {
  name: "loss1/ave_pool"
  type: "Pooling"
  bottom: "inception_4a/output"
  top: "loss1/ave_pool"
  pooling_param {
    pool: AVE
    kernel_size: 5
    stride: 3
  }
}
layer {
  name: "loss1/conv"
  type: "Convolution"
  bottom: "loss1/ave_pool"
  top: "loss1/conv"
  param {
    lr_mult: 1
    decay_mult: 1
  }
  param {
    lr_mult: 2
    decay_mult: 0
  }
  convolution_param {
    num_output: 128
    kernel_size: 1
    weight_filler {
      type: "xavier"
    }
    bias_filler {
      type: "constant"
      value: 0.2
    }
  }
}
layer {
  name: "loss1/relu_conv"
  type: "ReLU"
  bottom: "loss1/conv"
  top: "loss1/conv"
}
layer {
  name: "loss1/fc"
  type: "InnerProduct"
  bottom: "loss1/conv"
  top: "loss1/fc"
  param {
    lr_mult: 1
    decay_mult: 1
  }
  param {
    lr_mult: 2
    decay_mult: 0
  }
  inner_product_param {
    num_output: 1024
    weight_filler {
      type: "xavier"
    }
    bias_filler {
      type: "constant"
      value: 0.2
    }
  }
}
layer {
  name: "loss1/relu_fc"
  type: "ReLU"
  bottom: "loss1/fc"
  top: "loss1/fc"
}
layer {
  name: "loss1/drop_fc"
  type: "Dropout"
  bottom: "loss1/fc"
  top: "loss1/fc"
  dropout_param {
    dropout_ratio: 0.7
  }
}
layer {
  name: "loss1/classifier_kaggle"
  type: "InnerProduct"
  bottom: "loss1/fc"
  top: "loss1/classifier_kaggle"
  param {
    lr_mult: 1
    decay_mult: 1
  }
  param {
    lr_mult: 2
    decay_mult: 0
  }
  inner_product_param {
    num_output: 447
    weight_filler {
      type: "xavier"
    }
    bias_filler {
      type: "constant"
      value: 0
    }
  }
}
layer {
  name: "loss1/loss"
  type: "SoftmaxWithLoss"
  bottom: "loss1/classifier_kaggle"
  bottom: "label"
  top: "loss1/loss1"
  loss_weight: 0.3
}
layer {
  name: "inception_4b/1x1"
  type: "Convolution"
  bottom: "inception_4a/output"
  top: "inception_4b/1x1"
  param {
    lr_mult: 1
    decay_mult: 1
  }
  param {
    lr_mult: 2
    decay_mult: 0
  }
  convolution_param {
    num_output: 160
    kernel_size: 1
    weight_filler {
      type: "xavier"
    }
    bias_filler {
      type: "constant"
      value: 0.2
    }
  }
}
layer {
  name: "inception_4b/relu_1x1"
  type: "ReLU"
  bottom: "inception_4b/1x1"
  top: "inception_4b/1x1"
}
layer {
  name: "inception_4b/3x3_reduce"
  type: "Convolution"
  bottom: "inception_4a/output"
  top: "inception_4b/3x3_reduce"
  param {
    lr_mult: 1
    decay_mult: 1
  }
  param {
    lr_mult: 2
    decay_mult: 0
  }
  convolution_param {
    num_output: 112
    kernel_size: 1
    weight_filler {
      type: "xavier"
    }
    bias_filler {
      type: "constant"
      value: 0.2
    }
  }
}
layer {
  name: "inception_4b/relu_3x3_reduce"
  type: "ReLU"
  bottom: "inception_4b/3x3_reduce"
  top: "inception_4b/3x3_reduce"
}
layer {
  name: "inception_4b/3x3"
  type: "Convolution"
  bottom: "inception_4b/3x3_reduce"
  top: "inception_4b/3x3"
  param {
    lr_mult: 1
    decay_mult: 1
  }
  param {
    lr_mult: 2
    decay_mult: 0
  }
  convolution_param {
    num_output: 224
    pad: 1
    kernel_size: 3
    weight_filler {
      type: "xavier"
    }
    bias_filler {
      type: "constant"
      value: 0.2
    }
  }
}
layer {
  name: "inception_4b/relu_3x3"
  type: "ReLU"
  bottom: "inception_4b/3x3"
  top: "inception_4b/3x3"
}
layer {
  name: "inception_4b/5x5_reduce"
  type: "Convolution"
  bottom: "inception_4a/output"
  top: "inception_4b/5x5_reduce"
  param {
    lr_mult: 1
    decay_mult: 1
  }
  param {
    lr_mult: 2
    decay_mult: 0
  }
  convolution_param {
    num_output: 24
    kernel_size: 1
    weight_filler {
      type: "xavier"
    }
    bias_filler {
      type: "constant"
      value: 0.2
    }
  }
}
layer {
  name: "inception_4b/relu_5x5_reduce"
  type: "ReLU"
  bottom: "inception_4b/5x5_reduce"
  top: "inception_4b/5x5_reduce"
}
layer {
  name: "inception_4b/5x5"
  type: "Convolution"
  bottom: "inception_4b/5x5_reduce"
  top: "inception_4b/5x5"
  param {
    lr_mult: 1
    decay_mult: 1
  }
  param {
    lr_mult: 2
    decay_mult: 0
  }
  convolution_param {
    num_output: 64
    pad: 2
    kernel_size: 5
    weight_filler {
      type: "xavier"
    }
    bias_filler {
      type: "constant"
      value: 0.2
    }
  }
}
layer {
  name: "inception_4b/relu_5x5"
  type: "ReLU"
  bottom: "inception_4b/5x5"
  top: "inception_4b/5x5"
}
layer {
  name: "inception_4b/pool"
  type: "Pooling"
  bottom: "inception_4a/output"
  top: "inception_4b/pool"
  pooling_param {
    pool: MAX
    kernel_size: 3
    stride: 1
    pad: 1
  }
}
layer {
  name: "inception_4b/pool_proj"
  type: "Convolution"
  bottom: "inception_4b/pool"
  top: "inception_4b/pool_proj"
  param {
    lr_mult: 1
    decay_mult: 1
  }
  param {
    lr_mult: 2
    decay_mult: 0
  }
  convolution_param {
    num_output: 64
    kernel_size: 1
    weight_filler {
      type: "xavier"
    }
    bias_filler {
      type: "constant"
      value: 0.2
    }
  }
}
layer {
  name: "inception_4b/relu_pool_proj"
  type: "ReLU"
  bottom: "inception_4b/pool_proj"
  top: "inception_4b/pool_proj"
}
layer {
  name: "inception_4b/output"
  type: "Concat"
  bottom: "inception_4b/1x1"
  bottom: "inception_4b/3x3"
  bottom: "inception_4b/5x5"
  bottom: "inception_4b/pool_proj"
  top: "inception_4b/output"
}
layer {
  name: "inception_4c/1x1"
  type: "Convolution"
  bottom: "inception_4b/output"
  top: "inception_4c/1x1"
  param {
    lr_mult: 1
    decay_mult: 1
  }
  param {
    lr_mult: 2
    decay_mult: 0
  }
  convolution_param {
    num_output: 128
    kernel_size: 1
    weight_filler {
      type: "xavier"
    }
    bias_filler {
      type: "constant"
      value: 0.2
    }
  }
}
layer {
  name: "inception_4c/relu_1x1"
  type: "ReLU"
  bottom: "inception_4c/1x1"
  top: "inception_4c/1x1"
}
layer {
  name: "inception_4c/3x3_reduce"
  type: "Convolution"
  bottom: "inception_4b/output"
  top: "inception_4c/3x3_reduce"
  param {
    lr_mult: 1
    decay_mult: 1
  }
  param {
    lr_mult: 2
    decay_mult: 0
  }
  convolution_param {
    num_output: 128
    kernel_size: 1
    weight_filler {
      type: "xavier"
    }
    bias_filler {
      type: "constant"
      value: 0.2
    }
  }
}
layer {
  name: "inception_4c/relu_3x3_reduce"
  type: "ReLU"
  bottom: "inception_4c/3x3_reduce"
  top: "inception_4c/3x3_reduce"
}
layer {
  name: "inception_4c/3x3"
  type: "Convolution"
  bottom: "inception_4c/3x3_reduce"
  top: "inception_4c/3x3"
  param {
    lr_mult: 1
    decay_mult: 1
  }
  param {
    lr_mult: 2
    decay_mult: 0
  }
  convolution_param {
    num_output: 256
    pad: 1
    kernel_size: 3
    weight_filler {
      type: "xavier"
    }
    bias_filler {
      type: "constant"
      value: 0.2
    }
  }
}
layer {
  name: "inception_4c/relu_3x3"
  type: "ReLU"
  bottom: "inception_4c/3x3"
  top: "inception_4c/3x3"
}
layer {
  name: "inception_4c/5x5_reduce"
  type: "Convolution"
  bottom: "inception_4b/output"
  top: "inception_4c/5x5_reduce"
  param {
    lr_mult: 1
    decay_mult: 1
  }
  param {
    lr_mult: 2
    decay_mult: 0
  }
  convolution_param {
    num_output: 24
    kernel_size: 1
    weight_filler {
      type: "xavier"
    }
    bias_filler {
      type: "constant"
      value: 0.2
    }
  }
}
layer {
  name: "inception_4c/relu_5x5_reduce"
  type: "ReLU"
  bottom: "inception_4c/5x5_reduce"
  top: "inception_4c/5x5_reduce"
}
layer {
  name: "inception_4c/5x5"
  type: "Convolution"
  bottom: "inception_4c/5x5_reduce"
  top: "inception_4c/5x5"
  param {
    lr_mult: 1
    decay_mult: 1
  }
  param {
    lr_mult: 2
    decay_mult: 0
  }
  convolution_param {
    num_output: 64
    pad: 2
    kernel_size: 5
    weight_filler {
      type: "xavier"
    }
    bias_filler {
      type: "constant"
      value: 0.2
    }
  }
}
layer {
  name: "inception_4c/relu_5x5"
  type: "ReLU"
  bottom: "inception_4c/5x5"
  top: "inception_4c/5x5"
}
layer {
  name: "inception_4c/pool"
  type: "Pooling"
  bottom: "inception_4b/output"
  top: "inception_4c/pool"
  pooling_param {
    pool: MAX
    kernel_size: 3
    stride: 1
    pad: 1
  }
}
layer {
  name: "inception_4c/pool_proj"
  type: "Convolution"
  bottom: "inception_4c/pool"
  top: "inception_4c/pool_proj"
  param {
    lr_mult: 1
    decay_mult: 1
  }
  param {
    lr_mult: 2
    decay_mult: 0
  }
  convolution_param {
    num_output: 64
    kernel_size: 1
    weight_filler {
      type: "xavier"
    }
    bias_filler {
      type: "constant"
      value: 0.2
    }
  }
}
layer {
  name: "inception_4c/relu_pool_proj"
  type: "ReLU"
  bottom: "inception_4c/pool_proj"
  top: "inception_4c/pool_proj"
}
layer {
  name: "inception_4c/output"
  type: "Concat"
  bottom: "inception_4c/1x1"
  bottom: "inception_4c/3x3"
  bottom: "inception_4c/5x5"
  bottom: "inception_4c/pool_proj"
  top: "inception_4c/output"
}
layer {
  name: "inception_4d/1x1"
  type: "Convolution"
  bottom: "inception_4c/output"
  top: "inception_4d/1x1"
  param {
    lr_mult: 1
    decay_mult: 1
  }
  param {
    lr_mult: 2
    decay_mult: 0
  }
  convolution_param {
    num_output: 112
    kernel_size: 1
    weight_filler {
      type: "xavier"
    }
    bias_filler {
      type: "constant"
      value: 0.2
    }
  }
}
layer {
  name: "inception_4d/relu_1x1"
  type: "ReLU"
  bottom: "inception_4d/1x1"
  top: "inception_4d/1x1"
}
layer {
  name: "inception_4d/3x3_reduce"
  type: "Convolution"
  bottom: "inception_4c/output"
  top: "inception_4d/3x3_reduce"
  param {
    lr_mult: 1
    decay_mult: 1
  }
  param {
    lr_mult: 2
    decay_mult: 0
  }
  convolution_param {
    num_output: 144
    kernel_size: 1
    weight_filler {
      type: "xavier"
    }
    bias_filler {
      type: "constant"
      value: 0.2
    }
  }
}
layer {
  name: "inception_4d/relu_3x3_reduce"
  type: "ReLU"
  bottom: "inception_4d/3x3_reduce"
  top: "inception_4d/3x3_reduce"
}
layer {
  name: "inception_4d/3x3"
  type: "Convolution"
  bottom: "inception_4d/3x3_reduce"
  top: "inception_4d/3x3"
  param {
    lr_mult: 1
    decay_mult: 1
  }
  param {
    lr_mult: 2
    decay_mult: 0
  }
  convolution_param {
    num_output: 288
    pad: 1
    kernel_size: 3
    weight_filler {
      type: "xavier"
    }
    bias_filler {
      type: "constant"
      value: 0.2
    }
  }
}
layer {
  name: "inception_4d/relu_3x3"
  type: "ReLU"
  bottom: "inception_4d/3x3"
  top: "inception_4d/3x3"
}
layer {
  name: "inception_4d/5x5_reduce"
  type: "Convolution"
  bottom: "inception_4c/output"
  top: "inception_4d/5x5_reduce"
  param {
    lr_mult: 1
    decay_mult: 1
  }
  param {
    lr_mult: 2
    decay_mult: 0
  }
  convolution_param {
    num_output: 32
    kernel_size: 1
    weight_filler {
      type: "xavier"
    }
    bias_filler {
      type: "constant"
      value: 0.2
    }
  }
}
layer {
  name: "inception_4d/relu_5x5_reduce"
  type: "ReLU"
  bottom: "inception_4d/5x5_reduce"
  top: "inception_4d/5x5_reduce"
}
layer {
  name: "inception_4d/5x5"
  type: "Convolution"
  bottom: "inception_4d/5x5_reduce"
  top: "inception_4d/5x5"
  param {
    lr_mult: 1
    decay_mult: 1
  }
  param {
    lr_mult: 2
    decay_mult: 0
  }
  convolution_param {
    num_output: 64
    pad: 2
    kernel_size: 5
    weight_filler {
      type: "xavier"
    }
    bias_filler {
      type: "constant"
      value: 0.2
    }
  }
}
layer {
  name: "inception_4d/relu_5x5"
  type: "ReLU"
  bottom: "inception_4d/5x5"
  top: "inception_4d/5x5"
}
layer {
  name: "inception_4d/pool"
  type: "Pooling"
  bottom: "inception_4c/output"
  top: "inception_4d/pool"
  pooling_param {
    pool: MAX
    kernel_size: 3
    stride: 1
    pad: 1
  }
}
layer {
  name: "inception_4d/pool_proj"
  type: "Convolution"
  bottom: "inception_4d/pool"
  top: "inception_4d/pool_proj"
  param {
    lr_mult: 1
    decay_mult: 1
  }
  param {
    lr_mult: 2
    decay_mult: 0
  }
  convolution_param {
    num_output: 64
    kernel_size: 1
    weight_filler {
      type: "xavier"
    }
    bias_filler {
      type: "constant"
      value: 0.2
    }
  }
}
layer {
  name: "inception_4d/relu_pool_proj"
  type: "ReLU"
  bottom: "inception_4d/pool_proj"
  top: "inception_4d/pool_proj"
}
layer {
  name: "inception_4d/output"
  type: "Concat"
  bottom: "inception_4d/1x1"
  bottom: "inception_4d/3x3"
  bottom: "inception_4d/5x5"
  bottom: "inception_4d/pool_proj"
  top: "inception_4d/output"
}
layer {
  name: "loss2/ave_pool"
  type: "Pooling"
  bottom: "inception_4d/output"
  top: "loss2/ave_pool"
  pooling_param {
    pool: AVE
    kernel_size: 5
    stride: 3
  }
}
layer {
  name: "loss2/conv"
  type: "Convolution"
  bottom: "loss2/ave_pool"
  top: "loss2/conv"
  param {
    lr_mult: 1
    decay_mult: 1
  }
  param {
    lr_mult: 2
    decay_mult: 0
  }
  convolution_param {
    num_output: 128
    kernel_size: 1
    weight_filler {
      type: "xavier"
    }
    bias_filler {
      type: "constant"
      value: 0.2
    }
  }
}
layer {
  name: "loss2/relu_conv"
  type: "ReLU"
  bottom: "loss2/conv"
  top: "loss2/conv"
}
layer {
  name: "loss2/fc"
  type: "InnerProduct"
  bottom: "loss2/conv"
  top: "loss2/fc"
  param {
    lr_mult: 1
    decay_mult: 1
  }
  param {
    lr_mult: 2
    decay_mult: 0
  }
  inner_product_param {
    num_output: 1024
    weight_filler {
      type: "xavier"
    }
    bias_filler {
      type: "constant"
      value: 0.2
    }
  }
}
layer {
  name: "loss2/relu_fc"
  type: "ReLU"
  bottom: "loss2/fc"
  top: "loss2/fc"
}
layer {
  name: "loss2/drop_fc"
  type: "Dropout"
  bottom: "loss2/fc"
  top: "loss2/fc"
  dropout_param {
    dropout_ratio: 0.7
  }
}
layer {
  name: "loss2/classifier_kaggle"
  type: "InnerProduct"
  bottom: "loss2/fc"
  top: "loss2/classifier_kaggle"
  param {
    lr_mult: 1
    decay_mult: 1
  }
  param {
    lr_mult: 2
    decay_mult: 0
  }
  inner_product_param {
    num_output: 447
    weight_filler {
      type: "xavier"
    }
    bias_filler {
      type: "constant"
      value: 0
    }
  }
}
layer {
  name: "loss2/loss"
  type: "SoftmaxWithLoss"
  bottom: "loss2/classifier_kaggle"
  bottom: "label"
  top: "loss2/loss1"
  loss_weight: 0.3
}
layer {
  name: "inception_4e/1x1"
  type: "Convolution"
  bottom: "inception_4d/output"
  top: "inception_4e/1x1"
  param {
    lr_mult: 1
    decay_mult: 1
  }
  param {
    lr_mult: 2
    decay_mult: 0
  }
  convolution_param {
    num_output: 256
    kernel_size: 1
    weight_filler {
      type: "xavier"
    }
    bias_filler {
      type: "constant"
      value: 0.2
    }
  }
}
layer {
  name: "inception_4e/relu_1x1"
  type: "ReLU"
  bottom: "inception_4e/1x1"
  top: "inception_4e/1x1"
}
layer {
  name: "inception_4e/3x3_reduce"
  type: "Convolution"
  bottom: "inception_4d/output"
  top: "inception_4e/3x3_reduce"
  param {
    lr_mult: 1
    decay_mult: 1
  }
  param {
    lr_mult: 2
    decay_mult: 0
  }
  convolution_param {
    num_output: 160
    kernel_size: 1
    weight_filler {
      type: "xavier"
    }
    bias_filler {
      type: "constant"
      value: 0.2
    }
  }
}
layer {
  name: "inception_4e/relu_3x3_reduce"
  type: "ReLU"
  bottom: "inception_4e/3x3_reduce"
  top: "inception_4e/3x3_reduce"
}
layer {
  name: "inception_4e/3x3"
  type: "Convolution"
  bottom: "inception_4e/3x3_reduce"
  top: "inception_4e/3x3"
  param {
    lr_mult: 1
    decay_mult: 1
  }
  param {
    lr_mult: 2
    decay_mult: 0
  }
  convolution_param {
    num_output: 320
    pad: 1
    kernel_size: 3
    weight_filler {
      type: "xavier"
    }
    bias_filler {
      type: "constant"
      value: 0.2
    }
  }
}
layer {
  name: "inception_4e/relu_3x3"
  type: "ReLU"
  bottom: "inception_4e/3x3"
  top: "inception_4e/3x3"
}
layer {
  name: "inception_4e/5x5_reduce"
  type: "Convolution"
  bottom: "inception_4d/output"
  top: "inception_4e/5x5_reduce"
  param {
    lr_mult: 1
    decay_mult: 1
  }
  param {
    lr_mult: 2
    decay_mult: 0
  }
  convolution_param {
    num_output: 32
    kernel_size: 1
    weight_filler {
      type: "xavier"
    }
    bias_filler {
      type: "constant"
      value: 0.2
    }
  }
}
layer {
  name: "inception_4e/relu_5x5_reduce"
  type: "ReLU"
  bottom: "inception_4e/5x5_reduce"
  top: "inception_4e/5x5_reduce"
}
layer {
  name: "inception_4e/5x5"
  type: "Convolution"
  bottom: "inception_4e/5x5_reduce"
  top: "inception_4e/5x5"
  param {
    lr_mult: 1
    decay_mult: 1
  }
  param {
    lr_mult: 2
    decay_mult: 0
  }
  convolution_param {
    num_output: 128
    pad: 2
    kernel_size: 5
    weight_filler {
      type: "xavier"
    }
    bias_filler {
      type: "constant"
      value: 0.2
    }
  }
}
layer {
  name: "inception_4e/relu_5x5"
  type: "ReLU"
  bottom: "inception_4e/5x5"
  top: "inception_4e/5x5"
}
layer {
  name: "inception_4e/pool"
  type: "Pooling"
  bottom: "inception_4d/output"
  top: "inception_4e/pool"
  pooling_p
I1220 02:04:04.008996 27628 layer_factory.hpp:74] Creating layer data
I1220 02:04:04.009029 27628 net.cpp:84] Creating Layer data
I1220 02:04:04.009039 27628 net.cpp:338] data -> data
I1220 02:04:04.009089 27628 net.cpp:338] data -> label
I1220 02:04:04.009105 27628 net.cpp:113] Setting up data
I1220 02:04:04.009112 27628 image_data_layer.cpp:36] Opening file /home/coldmanck/kaggle/label_train_full.txt
I1220 02:04:04.011399 27628 image_data_layer.cpp:46] Shuffling data
I1220 02:04:04.012207 27628 image_data_layer.cpp:51] A total of 4235 images.
I1220 02:04:04.012967 27628 image_data_layer.cpp:80] output data size: 80,3,224,224
I1220 02:04:04.510356 27628 net.cpp:120] Top shape: 80 3 224 224 (12042240)
I1220 02:04:04.510421 27628 net.cpp:120] Top shape: 80 (80)
I1220 02:04:04.510500 27628 layer_factory.hpp:74] Creating layer label_data_1_split
I1220 02:04:04.510543 27628 net.cpp:84] Creating Layer label_data_1_split
I1220 02:04:04.510556 27628 net.cpp:380] label_data_1_split <- label
I1220 02:04:04.510581 27628 net.cpp:338] label_data_1_split -> label_data_1_split_0
I1220 02:04:04.510601 27628 net.cpp:338] label_data_1_split -> label_data_1_split_1
I1220 02:04:04.510632 27628 net.cpp:338] label_data_1_split -> label_data_1_split_2
I1220 02:04:04.510656 27628 net.cpp:113] Setting up label_data_1_split
I1220 02:04:04.510673 27628 net.cpp:120] Top shape: 80 (80)
I1220 02:04:04.510681 27628 net.cpp:120] Top shape: 80 (80)
I1220 02:04:04.510690 27628 net.cpp:120] Top shape: 80 (80)
I1220 02:04:04.510699 27628 layer_factory.hpp:74] Creating layer conv1/7x7_s2
I1220 02:04:04.510720 27628 net.cpp:84] Creating Layer conv1/7x7_s2
I1220 02:04:04.510727 27628 net.cpp:380] conv1/7x7_s2 <- data
I1220 02:04:04.510742 27628 net.cpp:338] conv1/7x7_s2 -> conv1/7x7_s2
I1220 02:04:04.510761 27628 net.cpp:113] Setting up conv1/7x7_s2
I1220 02:04:04.992791 27628 net.cpp:120] Top shape: 80 64 112 112 (64225280)
I1220 02:04:04.992872 27628 layer_factory.hpp:74] Creating layer conv1/relu_7x7
I1220 02:04:04.992892 27628 net.cpp:84] Creating Layer conv1/relu_7x7
I1220 02:04:04.992900 27628 net.cpp:380] conv1/relu_7x7 <- conv1/7x7_s2
I1220 02:04:04.992914 27628 net.cpp:327] conv1/relu_7x7 -> conv1/7x7_s2 (in-place)
I1220 02:04:04.992931 27628 net.cpp:113] Setting up conv1/relu_7x7
I1220 02:04:04.996157 27628 net.cpp:120] Top shape: 80 64 112 112 (64225280)
I1220 02:04:04.996186 27628 layer_factory.hpp:74] Creating layer pool1/3x3_s2
I1220 02:04:04.996211 27628 net.cpp:84] Creating Layer pool1/3x3_s2
I1220 02:04:04.996219 27628 net.cpp:380] pool1/3x3_s2 <- conv1/7x7_s2
I1220 02:04:04.996233 27628 net.cpp:338] pool1/3x3_s2 -> pool1/3x3_s2
I1220 02:04:04.996248 27628 net.cpp:113] Setting up pool1/3x3_s2
I1220 02:04:04.996368 27628 net.cpp:120] Top shape: 80 64 56 56 (16056320)
I1220 02:04:04.996631 27628 layer_factory.hpp:74] Creating layer pool1/norm1
I1220 02:04:04.996659 27628 net.cpp:84] Creating Layer pool1/norm1
I1220 02:04:04.996667 27628 net.cpp:380] pool1/norm1 <- pool1/3x3_s2
I1220 02:04:04.996678 27628 net.cpp:338] pool1/norm1 -> pool1/norm1
I1220 02:04:04.996691 27628 net.cpp:113] Setting up pool1/norm1
I1220 02:04:04.996706 27628 net.cpp:120] Top shape: 80 64 56 56 (16056320)
I1220 02:04:04.996714 27628 layer_factory.hpp:74] Creating layer conv2/3x3_reduce
I1220 02:04:04.996729 27628 net.cpp:84] Creating Layer conv2/3x3_reduce
I1220 02:04:04.996738 27628 net.cpp:380] conv2/3x3_reduce <- pool1/norm1
I1220 02:04:04.996750 27628 net.cpp:338] conv2/3x3_reduce -> conv2/3x3_reduce
I1220 02:04:04.996765 27628 net.cpp:113] Setting up conv2/3x3_reduce
I1220 02:04:04.997393 27628 net.cpp:120] Top shape: 80 64 56 56 (16056320)
I1220 02:04:04.997422 27628 layer_factory.hpp:74] Creating layer conv2/relu_3x3_reduce
I1220 02:04:04.997436 27628 net.cpp:84] Creating Layer conv2/relu_3x3_reduce
I1220 02:04:04.997442 27628 net.cpp:380] conv2/relu_3x3_reduce <- conv2/3x3_reduce
I1220 02:04:04.997453 27628 net.cpp:327] conv2/relu_3x3_reduce -> conv2/3x3_reduce (in-place)
I1220 02:04:04.997464 27628 net.cpp:113] Setting up conv2/relu_3x3_reduce
I1220 02:04:04.997556 27628 net.cpp:120] Top shape: 80 64 56 56 (16056320)
I1220 02:04:04.997568 27628 layer_factory.hpp:74] Creating layer conv2/3x3
I1220 02:04:04.997586 27628 net.cpp:84] Creating Layer conv2/3x3
I1220 02:04:04.997593 27628 net.cpp:380] conv2/3x3 <- conv2/3x3_reduce
I1220 02:04:04.997607 27628 net.cpp:338] conv2/3x3 -> conv2/3x3
I1220 02:04:04.997619 27628 net.cpp:113] Setting up conv2/3x3
I1220 02:04:05.000769 27628 net.cpp:120] Top shape: 80 192 56 56 (48168960)
I1220 02:04:05.000814 27628 layer_factory.hpp:74] Creating layer conv2/relu_3x3
I1220 02:04:05.000829 27628 net.cpp:84] Creating Layer conv2/relu_3x3
I1220 02:04:05.000838 27628 net.cpp:380] conv2/relu_3x3 <- conv2/3x3
I1220 02:04:05.000851 27628 net.cpp:327] conv2/relu_3x3 -> conv2/3x3 (in-place)
I1220 02:04:05.000864 27628 net.cpp:113] Setting up conv2/relu_3x3
I1220 02:04:05.001837 27628 net.cpp:120] Top shape: 80 192 56 56 (48168960)
I1220 02:04:05.001860 27628 layer_factory.hpp:74] Creating layer conv2/norm2
I1220 02:04:05.001875 27628 net.cpp:84] Creating Layer conv2/norm2
I1220 02:04:05.001883 27628 net.cpp:380] conv2/norm2 <- conv2/3x3
I1220 02:04:05.001896 27628 net.cpp:338] conv2/norm2 -> conv2/norm2
I1220 02:04:05.001924 27628 net.cpp:113] Setting up conv2/norm2
I1220 02:04:05.001955 27628 net.cpp:120] Top shape: 80 192 56 56 (48168960)
I1220 02:04:05.001963 27628 layer_factory.hpp:74] Creating layer pool2/3x3_s2
I1220 02:04:05.001976 27628 net.cpp:84] Creating Layer pool2/3x3_s2
I1220 02:04:05.001983 27628 net.cpp:380] pool2/3x3_s2 <- conv2/norm2
I1220 02:04:05.001996 27628 net.cpp:338] pool2/3x3_s2 -> pool2/3x3_s2
I1220 02:04:05.002007 27628 net.cpp:113] Setting up pool2/3x3_s2
I1220 02:04:05.002102 27628 net.cpp:120] Top shape: 80 192 28 28 (12042240)
I1220 02:04:05.002113 27628 layer_factory.hpp:74] Creating layer pool2/3x3_s2_pool2/3x3_s2_0_split
I1220 02:04:05.002125 27628 net.cpp:84] Creating Layer pool2/3x3_s2_pool2/3x3_s2_0_split
I1220 02:04:05.002131 27628 net.cpp:380] pool2/3x3_s2_pool2/3x3_s2_0_split <- pool2/3x3_s2
I1220 02:04:05.002142 27628 net.cpp:338] pool2/3x3_s2_pool2/3x3_s2_0_split -> pool2/3x3_s2_pool2/3x3_s2_0_split_0
I1220 02:04:05.002156 27628 net.cpp:338] pool2/3x3_s2_pool2/3x3_s2_0_split -> pool2/3x3_s2_pool2/3x3_s2_0_split_1
I1220 02:04:05.002166 27628 net.cpp:338] pool2/3x3_s2_pool2/3x3_s2_0_split -> pool2/3x3_s2_pool2/3x3_s2_0_split_2
I1220 02:04:05.002177 27628 net.cpp:338] pool2/3x3_s2_pool2/3x3_s2_0_split -> pool2/3x3_s2_pool2/3x3_s2_0_split_3
I1220 02:04:05.002187 27628 net.cpp:113] Setting up pool2/3x3_s2_pool2/3x3_s2_0_split
I1220 02:04:05.002198 27628 net.cpp:120] Top shape: 80 192 28 28 (12042240)
I1220 02:04:05.002208 27628 net.cpp:120] Top shape: 80 192 28 28 (12042240)
I1220 02:04:05.002216 27628 net.cpp:120] Top shape: 80 192 28 28 (12042240)
I1220 02:04:05.002225 27628 net.cpp:120] Top shape: 80 192 28 28 (12042240)
I1220 02:04:05.002233 27628 layer_factory.hpp:74] Creating layer inception_3a/1x1
I1220 02:04:05.002249 27628 net.cpp:84] Creating Layer inception_3a/1x1
I1220 02:04:05.002256 27628 net.cpp:380] inception_3a/1x1 <- pool2/3x3_s2_pool2/3x3_s2_0_split_0
I1220 02:04:05.002267 27628 net.cpp:338] inception_3a/1x1 -> inception_3a/1x1
I1220 02:04:05.002282 27628 net.cpp:113] Setting up inception_3a/1x1
I1220 02:04:05.003329 27628 net.cpp:120] Top shape: 80 64 28 28 (4014080)
I1220 02:04:05.003353 27628 layer_factory.hpp:74] Creating layer inception_3a/relu_1x1
I1220 02:04:05.003367 27628 net.cpp:84] Creating Layer inception_3a/relu_1x1
I1220 02:04:05.003376 27628 net.cpp:380] inception_3a/relu_1x1 <- inception_3a/1x1
I1220 02:04:05.003389 27628 net.cpp:327] inception_3a/relu_1x1 -> inception_3a/1x1 (in-place)
I1220 02:04:05.003401 27628 net.cpp:113] Setting up inception_3a/relu_1x1
I1220 02:04:05.004564 27628 net.cpp:120] Top shape: 80 64 28 28 (4014080)
I1220 02:04:05.004580 27628 layer_factory.hpp:74] Creating layer inception_3a/3x3_reduce
I1220 02:04:05.004595 27628 net.cpp:84] Creating Layer inception_3a/3x3_reduce
I1220 02:04:05.004604 27628 net.cpp:380] inception_3a/3x3_reduce <- pool2/3x3_s2_pool2/3x3_s2_0_split_1
I1220 02:04:05.004616 27628 net.cpp:338] inception_3a/3x3_reduce -> inception_3a/3x3_reduce
I1220 02:04:05.004629 27628 net.cpp:113] Setting up inception_3a/3x3_reduce
I1220 02:04:05.005519 27628 net.cpp:120] Top shape: 80 96 28 28 (6021120)
I1220 02:04:05.005548 27628 layer_factory.hpp:74] Creating layer inception_3a/relu_3x3_reduce
I1220 02:04:05.005566 27628 net.cpp:84] Creating Layer inception_3a/relu_3x3_reduce
I1220 02:04:05.005574 27628 net.cpp:380] inception_3a/relu_3x3_reduce <- inception_3a/3x3_reduce
I1220 02:04:05.005587 27628 net.cpp:327] inception_3a/relu_3x3_reduce -> inception_3a/3x3_reduce (in-place)
I1220 02:04:05.005599 27628 net.cpp:113] Setting up inception_3a/relu_3x3_reduce
I1220 02:04:05.005686 27628 net.cpp:120] Top shape: 80 96 28 28 (6021120)
I1220 02:04:05.005695 27628 layer_factory.hpp:74] Creating layer inception_3a/3x3
I1220 02:04:05.005710 27628 net.cpp:84] Creating Layer inception_3a/3x3
I1220 02:04:05.005718 27628 net.cpp:380] inception_3a/3x3 <- inception_3a/3x3_reduce
I1220 02:04:05.005729 27628 net.cpp:338] inception_3a/3x3 -> inception_3a/3x3
I1220 02:04:05.005741 27628 net.cpp:113] Setting up inception_3a/3x3
I1220 02:04:05.007525 27628 net.cpp:120] Top shape: 80 128 28 28 (8028160)
I1220 02:04:05.007565 27628 layer_factory.hpp:74] Creating layer inception_3a/relu_3x3
I1220 02:04:05.007577 27628 net.cpp:84] Creating Layer inception_3a/relu_3x3
I1220 02:04:05.007586 27628 net.cpp:380] inception_3a/relu_3x3 <- inception_3a/3x3
I1220 02:04:05.007597 27628 net.cpp:327] inception_3a/relu_3x3 -> inception_3a/3x3 (in-place)
I1220 02:04:05.007609 27628 net.cpp:113] Setting up inception_3a/relu_3x3
I1220 02:04:05.007920 27628 net.cpp:120] Top shape: 80 128 28 28 (8028160)
I1220 02:04:05.007935 27628 layer_factory.hpp:74] Creating layer inception_3a/5x5_reduce
I1220 02:04:05.007947 27628 net.cpp:84] Creating Layer inception_3a/5x5_reduce
I1220 02:04:05.007956 27628 net.cpp:380] inception_3a/5x5_reduce <- pool2/3x3_s2_pool2/3x3_s2_0_split_2
I1220 02:04:05.007967 27628 net.cpp:338] inception_3a/5x5_reduce -> inception_3a/5x5_reduce
I1220 02:04:05.007987 27628 net.cpp:113] Setting up inception_3a/5x5_reduce
I1220 02:04:05.008529 27628 net.cpp:120] Top shape: 80 16 28 28 (1003520)
I1220 02:04:05.008548 27628 layer_factory.hpp:74] Creating layer inception_3a/relu_5x5_reduce
I1220 02:04:05.008563 27628 net.cpp:84] Creating Layer inception_3a/relu_5x5_reduce
I1220 02:04:05.008570 27628 net.cpp:380] inception_3a/relu_5x5_reduce <- inception_3a/5x5_reduce
I1220 02:04:05.008582 27628 net.cpp:327] inception_3a/relu_5x5_reduce -> inception_3a/5x5_reduce (in-place)
I1220 02:04:05.008594 27628 net.cpp:113] Setting up inception_3a/relu_5x5_reduce
I1220 02:04:05.008693 27628 net.cpp:120] Top shape: 80 16 28 28 (1003520)
I1220 02:04:05.008703 27628 layer_factory.hpp:74] Creating layer inception_3a/5x5
I1220 02:04:05.008716 27628 net.cpp:84] Creating Layer inception_3a/5x5
I1220 02:04:05.008724 27628 net.cpp:380] inception_3a/5x5 <- inception_3a/5x5_reduce
I1220 02:04:05.008736 27628 net.cpp:338] inception_3a/5x5 -> inception_3a/5x5
I1220 02:04:05.008749 27628 net.cpp:113] Setting up inception_3a/5x5
I1220 02:04:05.009584 27628 net.cpp:120] Top shape: 80 32 28 28 (2007040)
I1220 02:04:05.009623 27628 layer_factory.hpp:74] Creating layer inception_3a/relu_5x5
I1220 02:04:05.009635 27628 net.cpp:84] Creating Layer inception_3a/relu_5x5
I1220 02:04:05.009644 27628 net.cpp:380] inception_3a/relu_5x5 <- inception_3a/5x5
I1220 02:04:05.009654 27628 net.cpp:327] inception_3a/relu_5x5 -> inception_3a/5x5 (in-place)
I1220 02:04:05.009667 27628 net.cpp:113] Setting up inception_3a/relu_5x5
I1220 02:04:05.009804 27628 net.cpp:120] Top shape: 80 32 28 28 (2007040)
I1220 02:04:05.009814 27628 layer_factory.hpp:74] Creating layer inception_3a/pool
I1220 02:04:05.009826 27628 layer_factory.cpp:56] CUDNN does not support padding or multiple tops. Using Caffe's own pooling layer.
I1220 02:04:05.009842 27628 net.cpp:84] Creating Layer inception_3a/pool
I1220 02:04:05.009850 27628 net.cpp:380] inception_3a/pool <- pool2/3x3_s2_pool2/3x3_s2_0_split_3
I1220 02:04:05.009862 27628 net.cpp:338] inception_3a/pool -> inception_3a/pool
I1220 02:04:05.009876 27628 net.cpp:113] Setting up inception_3a/pool
I1220 02:04:05.009889 27628 net.cpp:120] Top shape: 80 192 28 28 (12042240)
I1220 02:04:05.009897 27628 layer_factory.hpp:74] Creating layer inception_3a/pool_proj
I1220 02:04:05.009912 27628 net.cpp:84] Creating Layer inception_3a/pool_proj
I1220 02:04:05.009918 27628 net.cpp:380] inception_3a/pool_proj <- inception_3a/pool
I1220 02:04:05.009930 27628 net.cpp:338] inception_3a/pool_proj -> inception_3a/pool_proj
I1220 02:04:05.009943 27628 net.cpp:113] Setting up inception_3a/pool_proj
I1220 02:04:05.010562 27628 net.cpp:120] Top shape: 80 32 28 28 (2007040)
I1220 02:04:05.010588 27628 layer_factory.hpp:74] Creating layer inception_3a/relu_pool_proj
I1220 02:04:05.010601 27628 net.cpp:84] Creating Layer inception_3a/relu_pool_proj
I1220 02:04:05.010608 27628 net.cpp:380] inception_3a/relu_pool_proj <- inception_3a/pool_proj
I1220 02:04:05.010619 27628 net.cpp:327] inception_3a/relu_pool_proj -> inception_3a/pool_proj (in-place)
I1220 02:04:05.010643 27628 net.cpp:113] Setting up inception_3a/relu_pool_proj
I1220 02:04:05.010783 27628 net.cpp:120] Top shape: 80 32 28 28 (2007040)
I1220 02:04:05.010795 27628 layer_factory.hpp:74] Creating layer inception_3a/output
I1220 02:04:05.010838 27628 net.cpp:84] Creating Layer inception_3a/output
I1220 02:04:05.010845 27628 net.cpp:380] inception_3a/output <- inception_3a/1x1
I1220 02:04:05.010855 27628 net.cpp:380] inception_3a/output <- inception_3a/3x3
I1220 02:04:05.010864 27628 net.cpp:380] inception_3a/output <- inception_3a/5x5
I1220 02:04:05.010872 27628 net.cpp:380] inception_3a/output <- inception_3a/pool_proj
I1220 02:04:05.010882 27628 net.cpp:338] inception_3a/output -> inception_3a/output
I1220 02:04:05.010895 27628 net.cpp:113] Setting up inception_3a/output
I1220 02:04:05.010910 27628 net.cpp:120] Top shape: 80 256 28 28 (16056320)
I1220 02:04:05.010916 27628 layer_factory.hpp:74] Creating layer inception_3a/output_inception_3a/output_0_split
I1220 02:04:05.010927 27628 net.cpp:84] Creating Layer inception_3a/output_inception_3a/output_0_split
I1220 02:04:05.010936 27628 net.cpp:380] inception_3a/output_inception_3a/output_0_split <- inception_3a/output
I1220 02:04:05.010946 27628 net.cpp:338] inception_3a/output_inception_3a/output_0_split -> inception_3a/output_inception_3a/output_0_split_0
I1220 02:04:05.010960 27628 net.cpp:338] inception_3a/output_inception_3a/output_0_split -> inception_3a/output_inception_3a/output_0_split_1
I1220 02:04:05.010972 27628 net.cpp:338] inception_3a/output_inception_3a/output_0_split -> inception_3a/output_inception_3a/output_0_split_2
I1220 02:04:05.010983 27628 net.cpp:338] inception_3a/output_inception_3a/output_0_split -> inception_3a/output_inception_3a/output_0_split_3
I1220 02:04:05.010993 27628 net.cpp:113] Setting up inception_3a/output_inception_3a/output_0_split
I1220 02:04:05.011004 27628 net.cpp:120] Top shape: 80 256 28 28 (16056320)
I1220 02:04:05.011013 27628 net.cpp:120] Top shape: 80 256 28 28 (16056320)
I1220 02:04:05.011023 27628 net.cpp:120] Top shape: 80 256 28 28 (16056320)
I1220 02:04:05.011030 27628 net.cpp:120] Top shape: 80 256 28 28 (16056320)
I1220 02:04:05.011039 27628 layer_factory.hpp:74] Creating layer inception_3b/1x1
I1220 02:04:05.011050 27628 net.cpp:84] Creating Layer inception_3b/1x1
I1220 02:04:05.011059 27628 net.cpp:380] inception_3b/1x1 <- inception_3a/output_inception_3a/output_0_split_0
I1220 02:04:05.011070 27628 net.cpp:338] inception_3b/1x1 -> inception_3b/1x1
I1220 02:04:05.011081 27628 net.cpp:113] Setting up inception_3b/1x1
I1220 02:04:05.012094 27628 net.cpp:120] Top shape: 80 128 28 28 (8028160)
I1220 02:04:05.012115 27628 layer_factory.hpp:74] Creating layer inception_3b/relu_1x1
I1220 02:04:05.012127 27628 net.cpp:84] Creating Layer inception_3b/relu_1x1
I1220 02:04:05.012136 27628 net.cpp:380] inception_3b/relu_1x1 <- inception_3b/1x1
I1220 02:04:05.012148 27628 net.cpp:327] inception_3b/relu_1x1 -> inception_3b/1x1 (in-place)
I1220 02:04:05.012161 27628 net.cpp:113] Setting up inception_3b/relu_1x1
I1220 02:04:05.012497 27628 net.cpp:120] Top shape: 80 128 28 28 (8028160)
I1220 02:04:05.012512 27628 layer_factory.hpp:74] Creating layer inception_3b/3x3_reduce
I1220 02:04:05.012526 27628 net.cpp:84] Creating Layer inception_3b/3x3_reduce
I1220 02:04:05.012534 27628 net.cpp:380] inception_3b/3x3_reduce <- inception_3a/output_inception_3a/output_0_split_1
I1220 02:04:05.012548 27628 net.cpp:338] inception_3b/3x3_reduce -> inception_3b/3x3_reduce
I1220 02:04:05.012562 27628 net.cpp:113] Setting up inception_3b/3x3_reduce
I1220 02:04:05.013520 27628 net.cpp:120] Top shape: 80 128 28 28 (8028160)
I1220 02:04:05.013552 27628 layer_factory.hpp:74] Creating layer inception_3b/relu_3x3_reduce
I1220 02:04:05.013566 27628 net.cpp:84] Creating Layer inception_3b/relu_3x3_reduce
I1220 02:04:05.013574 27628 net.cpp:380] inception_3b/relu_3x3_reduce <- inception_3b/3x3_reduce
I1220 02:04:05.013586 27628 net.cpp:327] inception_3b/relu_3x3_reduce -> inception_3b/3x3_reduce (in-place)
I1220 02:04:05.013597 27628 net.cpp:113] Setting up inception_3b/relu_3x3_reduce
I1220 02:04:05.013703 27628 net.cpp:120] Top shape: 80 128 28 28 (8028160)
I1220 02:04:05.013723 27628 layer_factory.hpp:74] Creating layer inception_3b/3x3
I1220 02:04:05.013741 27628 net.cpp:84] Creating Layer inception_3b/3x3
I1220 02:04:05.013751 27628 net.cpp:380] inception_3b/3x3 <- inception_3b/3x3_reduce
I1220 02:04:05.013762 27628 net.cpp:338] inception_3b/3x3 -> inception_3b/3x3
I1220 02:04:05.013774 27628 net.cpp:113] Setting up inception_3b/3x3
I1220 02:04:05.016731 27628 net.cpp:120] Top shape: 80 192 28 28 (12042240)
I1220 02:04:05.016757 27628 layer_factory.hpp:74] Creating layer inception_3b/relu_3x3
I1220 02:04:05.016770 27628 net.cpp:84] Creating Layer inception_3b/relu_3x3
I1220 02:04:05.016780 27628 net.cpp:380] inception_3b/relu_3x3 <- inception_3b/3x3
I1220 02:04:05.016791 27628 net.cpp:327] inception_3b/relu_3x3 -> inception_3b/3x3 (in-place)
I1220 02:04:05.016804 27628 net.cpp:113] Setting up inception_3b/relu_3x3
I1220 02:04:05.016899 27628 net.cpp:120] Top shape: 80 192 28 28 (12042240)
I1220 02:04:05.016911 27628 layer_factory.hpp:74] Creating layer inception_3b/5x5_reduce
I1220 02:04:05.016928 27628 net.cpp:84] Creating Layer inception_3b/5x5_reduce
I1220 02:04:05.016937 27628 net.cpp:380] inception_3b/5x5_reduce <- inception_3a/output_inception_3a/output_0_split_2
I1220 02:04:05.016950 27628 net.cpp:338] inception_3b/5x5_reduce -> inception_3b/5x5_reduce
I1220 02:04:05.016963 27628 net.cpp:113] Setting up inception_3b/5x5_reduce
I1220 02:04:05.017642 27628 net.cpp:120] Top shape: 80 32 28 28 (2007040)
I1220 02:04:05.017665 27628 layer_factory.hpp:74] Creating layer inception_3b/relu_5x5_reduce
I1220 02:04:05.017678 27628 net.cpp:84] Creating Layer inception_3b/relu_5x5_reduce
I1220 02:04:05.017686 27628 net.cpp:380] inception_3b/relu_5x5_reduce <- inception_3b/5x5_reduce
I1220 02:04:05.017699 27628 net.cpp:327] inception_3b/relu_5x5_reduce -> inception_3b/5x5_reduce (in-place)
I1220 02:04:05.017710 27628 net.cpp:113] Setting up inception_3b/relu_5x5_reduce
I1220 02:04:05.017807 27628 net.cpp:120] Top shape: 80 32 28 28 (2007040)
I1220 02:04:05.017817 27628 layer_factory.hpp:74] Creating layer inception_3b/5x5
I1220 02:04:05.017829 27628 net.cpp:84] Creating Layer inception_3b/5x5
I1220 02:04:05.017838 27628 net.cpp:380] inception_3b/5x5 <- inception_3b/5x5_reduce
I1220 02:04:05.017849 27628 net.cpp:338] inception_3b/5x5 -> inception_3b/5x5
I1220 02:04:05.017869 27628 net.cpp:113] Setting up inception_3b/5x5
I1220 02:04:05.019250 27628 net.cpp:120] Top shape: 80 96 28 28 (6021120)
I1220 02:04:05.019271 27628 layer_factory.hpp:74] Creating layer inception_3b/relu_5x5
I1220 02:04:05.019285 27628 net.cpp:84] Creating Layer inception_3b/relu_5x5
I1220 02:04:05.019294 27628 net.cpp:380] inception_3b/relu_5x5 <- inception_3b/5x5
I1220 02:04:05.019304 27628 net.cpp:327] inception_3b/relu_5x5 -> inception_3b/5x5 (in-place)
I1220 02:04:05.019315 27628 net.cpp:113] Setting up inception_3b/relu_5x5
I1220 02:04:05.019614 27628 net.cpp:120] Top shape: 80 96 28 28 (6021120)
I1220 02:04:05.019629 27628 layer_factory.hpp:74] Creating layer inception_3b/pool
I1220 02:04:05.019639 27628 layer_factory.cpp:56] CUDNN does not support padding or multiple tops. Using Caffe's own pooling layer.
I1220 02:04:05.019649 27628 net.cpp:84] Creating Layer inception_3b/pool
I1220 02:04:05.019656 27628 net.cpp:380] inception_3b/pool <- inception_3a/output_inception_3a/output_0_split_3
I1220 02:04:05.019668 27628 net.cpp:338] inception_3b/pool -> inception_3b/pool
I1220 02:04:05.019680 27628 net.cpp:113] Setting up inception_3b/pool
I1220 02:04:05.019695 27628 net.cpp:120] Top shape: 80 256 28 28 (16056320)
I1220 02:04:05.019702 27628 layer_factory.hpp:74] Creating layer inception_3b/pool_proj
I1220 02:04:05.019714 27628 net.cpp:84] Creating Layer inception_3b/pool_proj
I1220 02:04:05.019722 27628 net.cpp:380] inception_3b/pool_proj <- inception_3b/pool
I1220 02:04:05.019733 27628 net.cpp:338] inception_3b/pool_proj -> inception_3b/pool_proj
I1220 02:04:05.019744 27628 net.cpp:113] Setting up inception_3b/pool_proj
I1220 02:04:05.020457 27628 net.cpp:120] Top shape: 80 64 28 28 (4014080)
I1220 02:04:05.020494 27628 layer_factory.hpp:74] Creating layer inception_3b/relu_pool_proj
I1220 02:04:05.020506 27628 net.cpp:84] Creating Layer inception_3b/relu_pool_proj
I1220 02:04:05.020514 27628 net.cpp:380] inception_3b/relu_pool_proj <- inception_3b/pool_proj
I1220 02:04:05.020525 27628 net.cpp:327] inception_3b/relu_pool_proj -> inception_3b/pool_proj (in-place)
I1220 02:04:05.020536 27628 net.cpp:113] Setting up inception_3b/relu_pool_proj
I1220 02:04:05.020630 27628 net.cpp:120] Top shape: 80 64 28 28 (4014080)
I1220 02:04:05.020640 27628 layer_factory.hpp:74] Creating layer inception_3b/output
I1220 02:04:05.020653 27628 net.cpp:84] Creating Layer inception_3b/output
I1220 02:04:05.020660 27628 net.cpp:380] inception_3b/output <- inception_3b/1x1
I1220 02:04:05.020669 27628 net.cpp:380] inception_3b/output <- inception_3b/3x3
I1220 02:04:05.020678 27628 net.cpp:380] inception_3b/output <- inception_3b/5x5
I1220 02:04:05.020686 27628 net.cpp:380] inception_3b/output <- inception_3b/pool_proj
I1220 02:04:05.020695 27628 net.cpp:338] inception_3b/output -> inception_3b/output
I1220 02:04:05.020706 27628 net.cpp:113] Setting up inception_3b/output
I1220 02:04:05.020719 27628 net.cpp:120] Top shape: 80 480 28 28 (30105600)
I1220 02:04:05.020726 27628 layer_factory.hpp:74] Creating layer pool3/3x3_s2
I1220 02:04:05.020737 27628 net.cpp:84] Creating Layer pool3/3x3_s2
I1220 02:04:05.020745 27628 net.cpp:380] pool3/3x3_s2 <- inception_3b/output
I1220 02:04:05.020756 27628 net.cpp:338] pool3/3x3_s2 -> pool3/3x3_s2
I1220 02:04:05.020766 27628 net.cpp:113] Setting up pool3/3x3_s2
I1220 02:04:05.020859 27628 net.cpp:120] Top shape: 80 480 14 14 (7526400)
I1220 02:04:05.020869 27628 layer_factory.hpp:74] Creating layer pool3/3x3_s2_pool3/3x3_s2_0_split
I1220 02:04:05.020879 27628 net.cpp:84] Creating Layer pool3/3x3_s2_pool3/3x3_s2_0_split
I1220 02:04:05.020885 27628 net.cpp:380] pool3/3x3_s2_pool3/3x3_s2_0_split <- pool3/3x3_s2
I1220 02:04:05.020896 27628 net.cpp:338] pool3/3x3_s2_pool3/3x3_s2_0_split -> pool3/3x3_s2_pool3/3x3_s2_0_split_0
I1220 02:04:05.020908 27628 net.cpp:338] pool3/3x3_s2_pool3/3x3_s2_0_split -> pool3/3x3_s2_pool3/3x3_s2_0_split_1
I1220 02:04:05.020920 27628 net.cpp:338] pool3/3x3_s2_pool3/3x3_s2_0_split -> pool3/3x3_s2_pool3/3x3_s2_0_split_2
I1220 02:04:05.020931 27628 net.cpp:338] pool3/3x3_s2_pool3/3x3_s2_0_split -> pool3/3x3_s2_pool3/3x3_s2_0_split_3
I1220 02:04:05.020939 27628 net.cpp:113] Setting up pool3/3x3_s2_pool3/3x3_s2_0_split
I1220 02:04:05.020951 27628 net.cpp:120] Top shape: 80 480 14 14 (7526400)
I1220 02:04:05.020959 27628 net.cpp:120] Top shape: 80 480 14 14 (7526400)
I1220 02:04:05.020968 27628 net.cpp:120] Top shape: 80 480 14 14 (7526400)
I1220 02:04:05.020977 27628 net.cpp:120] Top shape: 80 480 14 14 (7526400)
I1220 02:04:05.020984 27628 layer_factory.hpp:74] Creating layer inception_4a/1x1
I1220 02:04:05.020998 27628 net.cpp:84] Creating Layer inception_4a/1x1
I1220 02:04:05.021005 27628 net.cpp:380] inception_4a/1x1 <- pool3/3x3_s2_pool3/3x3_s2_0_split_0
I1220 02:04:05.021016 27628 net.cpp:338] inception_4a/1x1 -> inception_4a/1x1
I1220 02:04:05.021028 27628 net.cpp:113] Setting up inception_4a/1x1
I1220 02:04:05.027106 27628 net.cpp:120] Top shape: 80 192 14 14 (3010560)
I1220 02:04:05.027130 27628 layer_factory.hpp:74] Creating layer inception_4a/relu_1x1
I1220 02:04:05.027149 27628 net.cpp:84] Creating Layer inception_4a/relu_1x1
I1220 02:04:05.027158 27628 net.cpp:380] inception_4a/relu_1x1 <- inception_4a/1x1
I1220 02:04:05.027168 27628 net.cpp:327] inception_4a/relu_1x1 -> inception_4a/1x1 (in-place)
I1220 02:04:05.027179 27628 net.cpp:113] Setting up inception_4a/relu_1x1
I1220 02:04:05.027489 27628 net.cpp:120] Top shape: 80 192 14 14 (3010560)
I1220 02:04:05.027503 27628 layer_factory.hpp:74] Creating layer inception_4a/3x3_reduce
I1220 02:04:05.027515 27628 net.cpp:84] Creating Layer inception_4a/3x3_reduce
I1220 02:04:05.027523 27628 net.cpp:380] inception_4a/3x3_reduce <- pool3/3x3_s2_pool3/3x3_s2_0_split_1
I1220 02:04:05.027544 27628 net.cpp:338] inception_4a/3x3_reduce -> inception_4a/3x3_reduce
I1220 02:04:05.027575 27628 net.cpp:113] Setting up inception_4a/3x3_reduce
I1220 02:04:05.028717 27628 net.cpp:120] Top shape: 80 96 14 14 (1505280)
I1220 02:04:05.028744 27628 layer_factory.hpp:74] Creating layer inception_4a/relu_3x3_reduce
I1220 02:04:05.028755 27628 net.cpp:84] Creating Layer inception_4a/relu_3x3_reduce
I1220 02:04:05.028764 27628 net.cpp:380] inception_4a/relu_3x3_reduce <- inception_4a/3x3_reduce
I1220 02:04:05.028776 27628 net.cpp:327] inception_4a/relu_3x3_reduce -> inception_4a/3x3_reduce (in-place)
I1220 02:04:05.028787 27628 net.cpp:113] Setting up inception_4a/relu_3x3_reduce
I1220 02:04:05.028887 27628 net.cpp:120] Top shape: 80 96 14 14 (1505280)
I1220 02:04:05.028897 27628 layer_factory.hpp:74] Creating layer inception_4a/3x3
I1220 02:04:05.028911 27628 net.cpp:84] Creating Layer inception_4a/3x3
I1220 02:04:05.028919 27628 net.cpp:380] inception_4a/3x3 <- inception_4a/3x3_reduce
I1220 02:04:05.028929 27628 net.cpp:338] inception_4a/3x3 -> inception_4a/3x3
I1220 02:04:05.028941 27628 net.cpp:113] Setting up inception_4a/3x3
I1220 02:04:05.031851 27628 net.cpp:120] Top shape: 80 208 14 14 (3261440)
I1220 02:04:05.031874 27628 layer_factory.hpp:74] Creating layer inception_4a/relu_3x3
I1220 02:04:05.031889 27628 net.cpp:84] Creating Layer inception_4a/relu_3x3
I1220 02:04:05.031898 27628 net.cpp:380] inception_4a/relu_3x3 <- inception_4a/3x3
I1220 02:04:05.031908 27628 net.cpp:327] inception_4a/relu_3x3 -> inception_4a/3x3 (in-place)
I1220 02:04:05.031919 27628 net.cpp:113] Setting up inception_4a/relu_3x3
I1220 02:04:05.032016 27628 net.cpp:120] Top shape: 80 208 14 14 (3261440)
I1220 02:04:05.032027 27628 layer_factory.hpp:74] Creating layer inception_4a/5x5_reduce
I1220 02:04:05.032039 27628 net.cpp:84] Creating Layer inception_4a/5x5_reduce
I1220 02:04:05.032047 27628 net.cpp:380] inception_4a/5x5_reduce <- pool3/3x3_s2_pool3/3x3_s2_0_split_2
I1220 02:04:05.032058 27628 net.cpp:338] inception_4a/5x5_reduce -> inception_4a/5x5_reduce
I1220 02:04:05.032069 27628 net.cpp:113] Setting up inception_4a/5x5_reduce
I1220 02:04:05.032718 27628 net.cpp:120] Top shape: 80 16 14 14 (250880)
I1220 02:04:05.032738 27628 layer_factory.hpp:74] Creating layer inception_4a/relu_5x5_reduce
I1220 02:04:05.032748 27628 net.cpp:84] Creating Layer inception_4a/relu_5x5_reduce
I1220 02:04:05.032757 27628 net.cpp:380] inception_4a/relu_5x5_reduce <- inception_4a/5x5_reduce
I1220 02:04:05.032769 27628 net.cpp:327] inception_4a/relu_5x5_reduce -> inception_4a/5x5_reduce (in-place)
I1220 02:04:05.032780 27628 net.cpp:113] Setting up inception_4a/relu_5x5_reduce
I1220 02:04:05.032881 27628 net.cpp:120] Top shape: 80 16 14 14 (250880)
I1220 02:04:05.032889 27628 layer_factory.hpp:74] Creating layer inception_4a/5x5
I1220 02:04:05.032902 27628 net.cpp:84] Creating Layer inception_4a/5x5
I1220 02:04:05.032909 27628 net.cpp:380] inception_4a/5x5 <- inception_4a/5x5_reduce
I1220 02:04:05.032922 27628 net.cpp:338] inception_4a/5x5 -> inception_4a/5x5
I1220 02:04:05.032933 27628 net.cpp:113] Setting up inception_4a/5x5
I1220 02:04:05.033728 27628 net.cpp:120] Top shape: 80 48 14 14 (752640)
I1220 02:04:05.033752 27628 layer_factory.hpp:74] Creating layer inception_4a/relu_5x5
I1220 02:04:05.033763 27628 net.cpp:84] Creating Layer inception_4a/relu_5x5
I1220 02:04:05.033771 27628 net.cpp:380] inception_4a/relu_5x5 <- inception_4a/5x5
I1220 02:04:05.033784 27628 net.cpp:327] inception_4a/relu_5x5 -> inception_4a/5x5 (in-place)
I1220 02:04:05.033795 27628 net.cpp:113] Setting up inception_4a/relu_5x5
I1220 02:04:05.034173 27628 net.cpp:120] Top shape: 80 48 14 14 (752640)
I1220 02:04:05.034188 27628 layer_factory.hpp:74] Creating layer inception_4a/pool
I1220 02:04:05.034201 27628 layer_factory.cpp:56] CUDNN does not support padding or multiple tops. Using Caffe's own pooling layer.
I1220 02:04:05.034212 27628 net.cpp:84] Creating Layer inception_4a/pool
I1220 02:04:05.034220 27628 net.cpp:380] inception_4a/pool <- pool3/3x3_s2_pool3/3x3_s2_0_split_3
I1220 02:04:05.034250 27628 net.cpp:338] inception_4a/pool -> inception_4a/pool
I1220 02:04:05.034262 27628 net.cpp:113] Setting up inception_4a/pool
I1220 02:04:05.034276 27628 net.cpp:120] Top shape: 80 480 14 14 (7526400)
I1220 02:04:05.034284 27628 layer_factory.hpp:74] Creating layer inception_4a/pool_proj
I1220 02:04:05.034301 27628 net.cpp:84] Creating Layer inception_4a/pool_proj
I1220 02:04:05.034308 27628 net.cpp:380] inception_4a/pool_proj <- inception_4a/pool
I1220 02:04:05.034322 27628 net.cpp:338] inception_4a/pool_proj -> inception_4a/pool_proj
I1220 02:04:05.034333 27628 net.cpp:113] Setting up inception_4a/pool_proj
I1220 02:04:05.035538 27628 net.cpp:120] Top shape: 80 64 14 14 (1003520)
I1220 02:04:05.035559 27628 layer_factory.hpp:74] Creating layer inception_4a/relu_pool_proj
I1220 02:04:05.035572 27628 net.cpp:84] Creating Layer inception_4a/relu_pool_proj
I1220 02:04:05.035580 27628 net.cpp:380] inception_4a/relu_pool_proj <- inception_4a/pool_proj
I1220 02:04:05.035590 27628 net.cpp:327] inception_4a/relu_pool_proj -> inception_4a/pool_proj (in-place)
I1220 02:04:05.035601 27628 net.cpp:113] Setting up inception_4a/relu_pool_proj
I1220 02:04:05.035703 27628 net.cpp:120] Top shape: 80 64 14 14 (1003520)
I1220 02:04:05.035712 27628 layer_factory.hpp:74] Creating layer inception_4a/output
I1220 02:04:05.035723 27628 net.cpp:84] Creating Layer inception_4a/output
I1220 02:04:05.035730 27628 net.cpp:380] inception_4a/output <- inception_4a/1x1
I1220 02:04:05.035739 27628 net.cpp:380] inception_4a/output <- inception_4a/3x3
I1220 02:04:05.035748 27628 net.cpp:380] inception_4a/output <- inception_4a/5x5
I1220 02:04:05.035755 27628 net.cpp:380] inception_4a/output <- inception_4a/pool_proj
I1220 02:04:05.035768 27628 net.cpp:338] inception_4a/output -> inception_4a/output
I1220 02:04:05.035778 27628 net.cpp:113] Setting up inception_4a/output
I1220 02:04:05.035789 27628 net.cpp:120] Top shape: 80 512 14 14 (8028160)
I1220 02:04:05.035801 27628 layer_factory.hpp:74] Creating layer inception_4a/output_inception_4a/output_0_split
I1220 02:04:05.035811 27628 net.cpp:84] Creating Layer inception_4a/output_inception_4a/output_0_split
I1220 02:04:05.035820 27628 net.cpp:380] inception_4a/output_inception_4a/output_0_split <- inception_4a/output
I1220 02:04:05.035830 27628 net.cpp:338] inception_4a/output_inception_4a/output_0_split -> inception_4a/output_inception_4a/output_0_split_0
I1220 02:04:05.035843 27628 net.cpp:338] inception_4a/output_inception_4a/output_0_split -> inception_4a/output_inception_4a/output_0_split_1
I1220 02:04:05.035854 27628 net.cpp:338] inception_4a/output_inception_4a/output_0_split -> inception_4a/output_inception_4a/output_0_split_2
I1220 02:04:05.035866 27628 net.cpp:338] inception_4a/output_inception_4a/output_0_split -> inception_4a/output_inception_4a/output_0_split_3
I1220 02:04:05.035876 27628 net.cpp:338] inception_4a/output_inception_4a/output_0_split -> inception_4a/output_inception_4a/output_0_split_4
I1220 02:04:05.035886 27628 net.cpp:113] Setting up inception_4a/output_inception_4a/output_0_split
I1220 02:04:05.035897 27628 net.cpp:120] Top shape: 80 512 14 14 (8028160)
I1220 02:04:05.035907 27628 net.cpp:120] Top shape: 80 512 14 14 (8028160)
I1220 02:04:05.035914 27628 net.cpp:120] Top shape: 80 512 14 14 (8028160)
I1220 02:04:05.035923 27628 net.cpp:120] Top shape: 80 512 14 14 (8028160)
I1220 02:04:05.035931 27628 net.cpp:120] Top shape: 80 512 14 14 (8028160)
I1220 02:04:05.035938 27628 layer_factory.hpp:74] Creating layer loss1/ave_pool
I1220 02:04:05.035954 27628 net.cpp:84] Creating Layer loss1/ave_pool
I1220 02:04:05.035961 27628 net.cpp:380] loss1/ave_pool <- inception_4a/output_inception_4a/output_0_split_0
I1220 02:04:05.035971 27628 net.cpp:338] loss1/ave_pool -> loss1/ave_pool
I1220 02:04:05.035981 27628 net.cpp:113] Setting up loss1/ave_pool
I1220 02:04:05.036080 27628 net.cpp:120] Top shape: 80 512 4 4 (655360)
I1220 02:04:05.036089 27628 layer_factory.hpp:74] Creating layer loss1/conv
I1220 02:04:05.036111 27628 net.cpp:84] Creating Layer loss1/conv
I1220 02:04:05.036128 27628 net.cpp:380] loss1/conv <- loss1/ave_pool
I1220 02:04:05.036140 27628 net.cpp:338] loss1/conv -> loss1/conv
I1220 02:04:05.036152 27628 net.cpp:113] Setting up loss1/conv
I1220 02:04:05.045238 27628 net.cpp:120] Top shape: 80 128 4 4 (163840)
I1220 02:04:05.045269 27628 layer_factory.hpp:74] Creating layer loss1/relu_conv
I1220 02:04:05.045287 27628 net.cpp:84] Creating Layer loss1/relu_conv
I1220 02:04:05.045299 27628 net.cpp:380] loss1/relu_conv <- loss1/conv
I1220 02:04:05.045311 27628 net.cpp:327] loss1/relu_conv -> loss1/conv (in-place)
I1220 02:04:05.045325 27628 net.cpp:113] Setting up loss1/relu_conv
I1220 02:04:05.045430 27628 net.cpp:120] Top shape: 80 128 4 4 (163840)
I1220 02:04:05.045444 27628 layer_factory.hpp:74] Creating layer loss1/fc
I1220 02:04:05.045464 27628 net.cpp:84] Creating Layer loss1/fc
I1220 02:04:05.045474 27628 net.cpp:380] loss1/fc <- loss1/conv
I1220 02:04:05.045493 27628 net.cpp:338] loss1/fc -> loss1/fc
I1220 02:04:05.045516 27628 net.cpp:113] Setting up loss1/fc
I1220 02:04:05.070317 27628 net.cpp:120] Top shape: 80 1024 (81920)
I1220 02:04:05.070363 27628 layer_factory.hpp:74] Creating layer loss1/relu_fc
I1220 02:04:05.070379 27628 net.cpp:84] Creating Layer loss1/relu_fc
I1220 02:04:05.070389 27628 net.cpp:380] loss1/relu_fc <- loss1/fc
I1220 02:04:05.070405 27628 net.cpp:327] loss1/relu_fc -> loss1/fc (in-place)
I1220 02:04:05.070420 27628 net.cpp:113] Setting up loss1/relu_fc
I1220 02:04:05.071261 27628 net.cpp:120] Top shape: 80 1024 (81920)
I1220 02:04:05.071277 27628 layer_factory.hpp:74] Creating layer loss1/drop_fc
I1220 02:04:05.071305 27628 net.cpp:84] Creating Layer loss1/drop_fc
I1220 02:04:05.071313 27628 net.cpp:380] loss1/drop_fc <- loss1/fc
I1220 02:04:05.071324 27628 net.cpp:327] loss1/drop_fc -> loss1/fc (in-place)
I1220 02:04:05.071338 27628 net.cpp:113] Setting up loss1/drop_fc
I1220 02:04:05.071352 27628 net.cpp:120] Top shape: 80 1024 (81920)
I1220 02:04:05.071360 27628 layer_factory.hpp:74] Creating layer loss1/classifier_kaggle
I1220 02:04:05.071374 27628 net.cpp:84] Creating Layer loss1/classifier_kaggle
I1220 02:04:05.071382 27628 net.cpp:380] loss1/classifier_kaggle <- loss1/fc
I1220 02:04:05.071394 27628 net.cpp:338] loss1/classifier_kaggle -> loss1/classifier_kaggle
I1220 02:04:05.071408 27628 net.cpp:113] Setting up loss1/classifier_kaggle
I1220 02:04:05.077281 27628 net.cpp:120] Top shape: 80 447 (35760)
I1220 02:04:05.077302 27628 layer_factory.hpp:74] Creating layer loss1/loss
I1220 02:04:05.077314 27628 net.cpp:84] Creating Layer loss1/loss
I1220 02:04:05.077322 27628 net.cpp:380] loss1/loss <- loss1/classifier_kaggle
I1220 02:04:05.077332 27628 net.cpp:380] loss1/loss <- label_data_1_split_0
I1220 02:04:05.077345 27628 net.cpp:338] loss1/loss -> loss1/loss1
I1220 02:04:05.077358 27628 net.cpp:113] Setting up loss1/loss
I1220 02:04:05.077370 27628 layer_factory.hpp:74] Creating layer loss1/loss
I1220 02:04:05.077630 27628 net.cpp:120] Top shape: (1)
I1220 02:04:05.077641 27628 net.cpp:122]     with loss weight 0.3
I1220 02:04:05.077672 27628 layer_factory.hpp:74] Creating layer inception_4b/1x1
I1220 02:04:05.077687 27628 net.cpp:84] Creating Layer inception_4b/1x1
I1220 02:04:05.077695 27628 net.cpp:380] inception_4b/1x1 <- inception_4a/output_inception_4a/output_0_split_1
I1220 02:04:05.077708 27628 net.cpp:338] inception_4b/1x1 -> inception_4b/1x1
I1220 02:04:05.077721 27628 net.cpp:113] Setting up inception_4b/1x1
I1220 02:04:05.079607 27628 net.cpp:120] Top shape: 80 160 14 14 (2508800)
I1220 02:04:05.079627 27628 layer_factory.hpp:74] Creating layer inception_4b/relu_1x1
I1220 02:04:05.079640 27628 net.cpp:84] Creating Layer inception_4b/relu_1x1
I1220 02:04:05.079648 27628 net.cpp:380] inception_4b/relu_1x1 <- inception_4b/1x1
I1220 02:04:05.079661 27628 net.cpp:327] inception_4b/relu_1x1 -> inception_4b/1x1 (in-place)
I1220 02:04:05.079673 27628 net.cpp:113] Setting up inception_4b/relu_1x1
I1220 02:04:05.079776 27628 net.cpp:120] Top shape: 80 160 14 14 (2508800)
I1220 02:04:05.079798 27628 layer_factory.hpp:74] Creating layer inception_4b/3x3_reduce
I1220 02:04:05.079823 27628 net.cpp:84] Creating Layer inception_4b/3x3_reduce
I1220 02:04:05.079830 27628 net.cpp:380] inception_4b/3x3_reduce <- inception_4a/output_inception_4a/output_0_split_2
I1220 02:04:05.079845 27628 net.cpp:338] inception_4b/3x3_reduce -> inception_4b/3x3_reduce
I1220 02:04:05.079857 27628 net.cpp:113] Setting up inception_4b/3x3_reduce
I1220 02:04:05.081390 27628 net.cpp:120] Top shape: 80 112 14 14 (1756160)
I1220 02:04:05.081413 27628 layer_factory.hpp:74] Creating layer inception_4b/relu_3x3_reduce
I1220 02:04:05.081423 27628 net.cpp:84] Creating Layer inception_4b/relu_3x3_reduce
I1220 02:04:05.081431 27628 net.cpp:380] inception_4b/relu_3x3_reduce <- inception_4b/3x3_reduce
I1220 02:04:05.081441 27628 net.cpp:327] inception_4b/relu_3x3_reduce -> inception_4b/3x3_reduce (in-place)
I1220 02:04:05.081452 27628 net.cpp:113] Setting up inception_4b/relu_3x3_reduce
I1220 02:04:05.081552 27628 net.cpp:120] Top shape: 80 112 14 14 (1756160)
I1220 02:04:05.081562 27628 layer_factory.hpp:74] Creating layer inception_4b/3x3
I1220 02:04:05.081575 27628 net.cpp:84] Creating Layer inception_4b/3x3
I1220 02:04:05.081583 27628 net.cpp:380] inception_4b/3x3 <- inception_4b/3x3_reduce
I1220 02:04:05.081596 27628 net.cpp:338] inception_4b/3x3 -> inception_4b/3x3
I1220 02:04:05.081607 27628 net.cpp:113] Setting up inception_4b/3x3
I1220 02:04:05.085137 27628 net.cpp:120] Top shape: 80 224 14 14 (3512320)
I1220 02:04:05.085161 27628 layer_factory.hpp:74] Creating layer inception_4b/relu_3x3
I1220 02:04:05.085172 27628 net.cpp:84] Creating Layer inception_4b/relu_3x3
I1220 02:04:05.085180 27628 net.cpp:380] inception_4b/relu_3x3 <- inception_4b/3x3
I1220 02:04:05.085192 27628 net.cpp:327] inception_4b/relu_3x3 -> inception_4b/3x3 (in-place)
I1220 02:04:05.085203 27628 net.cpp:113] Setting up inception_4b/relu_3x3
I1220 02:04:05.085794 27628 net.cpp:120] Top shape: 80 224 14 14 (3512320)
I1220 02:04:05.085811 27628 layer_factory.hpp:74] Creating layer inception_4b/5x5_reduce
I1220 02:04:05.085825 27628 net.cpp:84] Creating Layer inception_4b/5x5_reduce
I1220 02:04:05.085834 27628 net.cpp:380] inception_4b/5x5_reduce <- inception_4a/output_inception_4a/output_0_split_3
I1220 02:04:05.085845 27628 net.cpp:338] inception_4b/5x5_reduce -> inception_4b/5x5_reduce
I1220 02:04:05.085861 27628 net.cpp:113] Setting up inception_4b/5x5_reduce
I1220 02:04:05.086809 27628 net.cpp:120] Top shape: 80 24 14 14 (376320)
I1220 02:04:05.086830 27628 layer_factory.hpp:74] Creating layer inception_4b/relu_5x5_reduce
I1220 02:04:05.086843 27628 net.cpp:84] Creating Layer inception_4b/relu_5x5_reduce
I1220 02:04:05.086851 27628 net.cpp:380] inception_4b/relu_5x5_reduce <- inception_4b/5x5_reduce
I1220 02:04:05.086861 27628 net.cpp:327] inception_4b/relu_5x5_reduce -> inception_4b/5x5_reduce (in-place)
I1220 02:04:05.086871 27628 net.cpp:113] Setting up inception_4b/relu_5x5_reduce
I1220 02:04:05.086973 27628 net.cpp:120] Top shape: 80 24 14 14 (376320)
I1220 02:04:05.086984 27628 layer_factory.hpp:74] Creating layer inception_4b/5x5
I1220 02:04:05.086999 27628 net.cpp:84] Creating Layer inception_4b/5x5
I1220 02:04:05.087007 27628 net.cpp:380] inception_4b/5x5 <- inception_4b/5x5_reduce
I1220 02:04:05.087018 27628 net.cpp:338] inception_4b/5x5 -> inception_4b/5x5
I1220 02:04:05.087029 27628 net.cpp:113] Setting up inception_4b/5x5
I1220 02:04:05.088569 27628 net.cpp:120] Top shape: 80 64 14 14 (1003520)
I1220 02:04:05.088592 27628 layer_factory.hpp:74] Creating layer inception_4b/relu_5x5
I1220 02:04:05.088601 27628 net.cpp:84] Creating Layer inception_4b/relu_5x5
I1220 02:04:05.088609 27628 net.cpp:380] inception_4b/relu_5x5 <- inception_4b/5x5
I1220 02:04:05.088619 27628 net.cpp:327] inception_4b/relu_5x5 -> inception_4b/5x5 (in-place)
I1220 02:04:05.088630 27628 net.cpp:113] Setting up inception_4b/relu_5x5
I1220 02:04:05.088732 27628 net.cpp:120] Top shape: 80 64 14 14 (1003520)
I1220 02:04:05.088742 27628 layer_factory.hpp:74] Creating layer inception_4b/pool
I1220 02:04:05.088758 27628 layer_factory.cpp:56] CUDNN does not support padding or multiple tops. Using Caffe's own pooling layer.
I1220 02:04:05.088778 27628 net.cpp:84] Creating Layer inception_4b/pool
I1220 02:04:05.088785 27628 net.cpp:380] inception_4b/pool <- inception_4a/output_inception_4a/output_0_split_4
I1220 02:04:05.088796 27628 net.cpp:338] inception_4b/pool -> inception_4b/pool
I1220 02:04:05.088821 27628 net.cpp:113] Setting up inception_4b/pool
I1220 02:04:05.088836 27628 net.cpp:120] Top shape: 80 512 14 14 (8028160)
I1220 02:04:05.088845 27628 layer_factory.hpp:74] Creating layer inception_4b/pool_proj
I1220 02:04:05.088857 27628 net.cpp:84] Creating Layer inception_4b/pool_proj
I1220 02:04:05.088865 27628 net.cpp:380] inception_4b/pool_proj <- inception_4b/pool
I1220 02:04:05.088877 27628 net.cpp:338] inception_4b/pool_proj -> inception_4b/pool_proj
I1220 02:04:05.088888 27628 net.cpp:113] Setting up inception_4b/pool_proj
I1220 02:04:05.090113 27628 net.cpp:120] Top shape: 80 64 14 14 (1003520)
I1220 02:04:05.090136 27628 layer_factory.hpp:74] Creating layer inception_4b/relu_pool_proj
I1220 02:04:05.090145 27628 net.cpp:84] Creating Layer inception_4b/relu_pool_proj
I1220 02:04:05.090153 27628 net.cpp:380] inception_4b/relu_pool_proj <- inception_4b/pool_proj
I1220 02:04:05.090164 27628 net.cpp:327] inception_4b/relu_pool_proj -> inception_4b/pool_proj (in-place)
I1220 02:04:05.090174 27628 net.cpp:113] Setting up inception_4b/relu_pool_proj
I1220 02:04:05.090740 27628 net.cpp:120] Top shape: 80 64 14 14 (1003520)
I1220 02:04:05.090756 27628 layer_factory.hpp:74] Creating layer inception_4b/output
I1220 02:04:05.090769 27628 net.cpp:84] Creating Layer inception_4b/output
I1220 02:04:05.090776 27628 net.cpp:380] inception_4b/output <- inception_4b/1x1
I1220 02:04:05.090785 27628 net.cpp:380] inception_4b/output <- inception_4b/3x3
I1220 02:04:05.090793 27628 net.cpp:380] inception_4b/output <- inception_4b/5x5
I1220 02:04:05.090801 27628 net.cpp:380] inception_4b/output <- inception_4b/pool_proj
I1220 02:04:05.090811 27628 net.cpp:338] inception_4b/output -> inception_4b/output
I1220 02:04:05.090822 27628 net.cpp:113] Setting up inception_4b/output
I1220 02:04:05.090837 27628 net.cpp:120] Top shape: 80 512 14 14 (8028160)
I1220 02:04:05.090845 27628 layer_factory.hpp:74] Creating layer inception_4b/output_inception_4b/output_0_split
I1220 02:04:05.090855 27628 net.cpp:84] Creating Layer inception_4b/output_inception_4b/output_0_split
I1220 02:04:05.090863 27628 net.cpp:380] inception_4b/output_inception_4b/output_0_split <- inception_4b/output
I1220 02:04:05.090875 27628 net.cpp:338] inception_4b/output_inception_4b/output_0_split -> inception_4b/output_inception_4b/output_0_split_0
I1220 02:04:05.090888 27628 net.cpp:338] inception_4b/output_inception_4b/output_0_split -> inception_4b/output_inception_4b/output_0_split_1
I1220 02:04:05.090898 27628 net.cpp:338] inception_4b/output_inception_4b/output_0_split -> inception_4b/output_inception_4b/output_0_split_2
I1220 02:04:05.090909 27628 net.cpp:338] inception_4b/output_inception_4b/output_0_split -> inception_4b/output_inception_4b/output_0_split_3
I1220 02:04:05.090919 27628 net.cpp:113] Setting up inception_4b/output_inception_4b/output_0_split
I1220 02:04:05.090932 27628 net.cpp:120] Top shape: 80 512 14 14 (8028160)
I1220 02:04:05.090941 27628 net.cpp:120] Top shape: 80 512 14 14 (8028160)
I1220 02:04:05.090950 27628 net.cpp:120] Top shape: 80 512 14 14 (8028160)
I1220 02:04:05.090958 27628 net.cpp:120] Top shape: 80 512 14 14 (8028160)
I1220 02:04:05.090965 27628 layer_factory.hpp:74] Creating layer inception_4c/1x1
I1220 02:04:05.090977 27628 net.cpp:84] Creating Layer inception_4c/1x1
I1220 02:04:05.090984 27628 net.cpp:380] inception_4c/1x1 <- inception_4b/output_inception_4b/output_0_split_0
I1220 02:04:05.090998 27628 net.cpp:338] inception_4c/1x1 -> inception_4c/1x1
I1220 02:04:05.091009 27628 net.cpp:113] Setting up inception_4c/1x1
I1220 02:04:05.092618 27628 net.cpp:120] Top shape: 80 128 14 14 (2007040)
I1220 02:04:05.092644 27628 layer_factory.hpp:74] Creating layer inception_4c/relu_1x1
I1220 02:04:05.092664 27628 net.cpp:84] Creating Layer inception_4c/relu_1x1
I1220 02:04:05.092672 27628 net.cpp:380] inception_4c/relu_1x1 <- inception_4c/1x1
I1220 02:04:05.092682 27628 net.cpp:327] inception_4c/relu_1x1 -> inception_4c/1x1 (in-place)
I1220 02:04:05.092692 27628 net.cpp:113] Setting up inception_4c/relu_1x1
I1220 02:04:05.092790 27628 net.cpp:120] Top shape: 80 128 14 14 (2007040)
I1220 02:04:05.092798 27628 layer_factory.hpp:74] Creating layer inception_4c/3x3_reduce
I1220 02:04:05.092811 27628 net.cpp:84] Creating Layer inception_4c/3x3_reduce
I1220 02:04:05.092818 27628 net.cpp:380] inception_4c/3x3_reduce <- inception_4b/output_inception_4b/output_0_split_1
I1220 02:04:05.092831 27628 net.cpp:338] inception_4c/3x3_reduce -> inception_4c/3x3_reduce
I1220 02:04:05.092844 27628 net.cpp:113] Setting up inception_4c/3x3_reduce
I1220 02:04:05.094614 27628 net.cpp:120] Top shape: 80 128 14 14 (2007040)
I1220 02:04:05.094635 27628 layer_factory.hpp:74] Creating layer inception_4c/relu_3x3_reduce
I1220 02:04:05.094645 27628 net.cpp:84] Creating Layer inception_4c/relu_3x3_reduce
I1220 02:04:05.094652 27628 net.cpp:380] inception_4c/relu_3x3_reduce <- inception_4c/3x3_reduce
I1220 02:04:05.094662 27628 net.cpp:327] inception_4c/relu_3x3_reduce -> inception_4c/3x3_reduce (in-place)
I1220 02:04:05.094673 27628 net.cpp:113] Setting up inception_4c/relu_3x3_reduce
I1220 02:04:05.094772 27628 net.cpp:120] Top shape: 80 128 14 14 (2007040)
I1220 02:04:05.094781 27628 layer_factory.hpp:74] Creating layer inception_4c/3x3
I1220 02:04:05.094794 27628 net.cpp:84] Creating Layer inception_4c/3x3
I1220 02:04:05.094801 27628 net.cpp:380] inception_4c/3x3 <- inception_4c/3x3_reduce
I1220 02:04:05.094813 27628 net.cpp:338] inception_4c/3x3 -> inception_4c/3x3
I1220 02:04:05.094825 27628 net.cpp:113] Setting up inception_4c/3x3
I1220 02:04:05.099378 27628 net.cpp:120] Top shape: 80 256 14 14 (4014080)
I1220 02:04:05.099416 27628 layer_factory.hpp:74] Creating layer inception_4c/relu_3x3
I1220 02:04:05.099427 27628 net.cpp:84] Creating Layer inception_4c/relu_3x3
I1220 02:04:05.099436 27628 net.cpp:380] inception_4c/relu_3x3 <- inception_4c/3x3
I1220 02:04:05.099445 27628 net.cpp:327] inception_4c/relu_3x3 -> inception_4c/3x3 (in-place)
I1220 02:04:05.099457 27628 net.cpp:113] Setting up inception_4c/relu_3x3
I1220 02:04:05.099553 27628 net.cpp:120] Top shape: 80 256 14 14 (4014080)
I1220 02:04:05.099562 27628 layer_factory.hpp:74] Creating layer inception_4c/5x5_reduce
I1220 02:04:05.099575 27628 net.cpp:84] Creating Layer inception_4c/5x5_reduce
I1220 02:04:05.099583 27628 net.cpp:380] inception_4c/5x5_reduce <- inception_4b/output_inception_4b/output_0_split_2
I1220 02:04:05.099596 27628 net.cpp:338] inception_4c/5x5_reduce -> inception_4c/5x5_reduce
I1220 02:04:05.099619 27628 net.cpp:113] Setting up inception_4c/5x5_reduce
I1220 02:04:05.100754 27628 net.cpp:120] Top shape: 80 24 14 14 (376320)
I1220 02:04:05.100775 27628 layer_factory.hpp:74] Creating layer inception_4c/relu_5x5_reduce
I1220 02:04:05.100790 27628 net.cpp:84] Creating Layer inception_4c/relu_5x5_reduce
I1220 02:04:05.100798 27628 net.cpp:380] inception_4c/relu_5x5_reduce <- inception_4c/5x5_reduce
I1220 02:04:05.100808 27628 net.cpp:327] inception_4c/relu_5x5_reduce -> inception_4c/5x5_reduce (in-place)
I1220 02:04:05.100818 27628 net.cpp:113] Setting up inception_4c/relu_5x5_reduce
I1220 02:04:05.101761 27628 net.cpp:120] Top shape: 80 24 14 14 (376320)
I1220 02:04:05.101778 27628 layer_factory.hpp:74] Creating layer inception_4c/5x5
I1220 02:04:05.101793 27628 net.cpp:84] Creating Layer inception_4c/5x5
I1220 02:04:05.101800 27628 net.cpp:380] inception_4c/5x5 <- inception_4c/5x5_reduce
I1220 02:04:05.101811 27628 net.cpp:338] inception_4c/5x5 -> inception_4c/5x5
I1220 02:04:05.101824 27628 net.cpp:113] Setting up inception_4c/5x5
I1220 02:04:05.103103 27628 net.cpp:120] Top shape: 80 64 14 14 (1003520)
I1220 02:04:05.103123 27628 layer_factory.hpp:74] Creating layer inception_4c/relu_5x5
I1220 02:04:05.103139 27628 net.cpp:84] Creating Layer inception_4c/relu_5x5
I1220 02:04:05.103157 27628 net.cpp:380] inception_4c/relu_5x5 <- inception_4c/5x5
I1220 02:04:05.103169 27628 net.cpp:327] inception_4c/relu_5x5 -> inception_4c/5x5 (in-place)
I1220 02:04:05.103180 27628 net.cpp:113] Setting up inception_4c/relu_5x5
I1220 02:04:05.103279 27628 net.cpp:120] Top shape: 80 64 14 14 (1003520)
I1220 02:04:05.103288 27628 layer_factory.hpp:74] Creating layer inception_4c/pool
I1220 02:04:05.103296 27628 layer_factory.cpp:56] CUDNN does not support padding or multiple tops. Using Caffe's own pooling layer.
I1220 02:04:05.103305 27628 net.cpp:84] Creating Layer inception_4c/pool
I1220 02:04:05.103313 27628 net.cpp:380] inception_4c/pool <- inception_4b/output_inception_4b/output_0_split_3
I1220 02:04:05.103322 27628 net.cpp:338] inception_4c/pool -> inception_4c/pool
I1220 02:04:05.103333 27628 net.cpp:113] Setting up inception_4c/pool
I1220 02:04:05.103345 27628 net.cpp:120] Top shape: 80 512 14 14 (8028160)
I1220 02:04:05.103354 27628 layer_factory.hpp:74] Creating layer inception_4c/pool_proj
I1220 02:04:05.103368 27628 net.cpp:84] Creating Layer inception_4c/pool_proj
I1220 02:04:05.103376 27628 net.cpp:380] inception_4c/pool_proj <- inception_4c/pool
I1220 02:04:05.103389 27628 net.cpp:338] inception_4c/pool_proj -> inception_4c/pool_proj
I1220 02:04:05.103399 27628 net.cpp:113] Setting up inception_4c/pool_proj
I1220 02:04:05.104660 27628 net.cpp:120] Top shape: 80 64 14 14 (1003520)
I1220 02:04:05.104679 27628 layer_factory.hpp:74] Creating layer inception_4c/relu_pool_proj
I1220 02:04:05.104689 27628 net.cpp:84] Creating Layer inception_4c/relu_pool_proj
I1220 02:04:05.104697 27628 net.cpp:380] inception_4c/relu_pool_proj <- inception_4c/pool_proj
I1220 02:04:05.104713 27628 net.cpp:327] inception_4c/relu_pool_proj -> inception_4c/pool_proj (in-place)
I1220 02:04:05.104724 27628 net.cpp:113] Setting up inception_4c/relu_pool_proj
I1220 02:04:05.104821 27628 net.cpp:120] Top shape: 80 64 14 14 (1003520)
I1220 02:04:05.104830 27628 layer_factory.hpp:74] Creating layer inception_4c/output
I1220 02:04:05.104842 27628 net.cpp:84] Creating Layer inception_4c/output
I1220 02:04:05.104851 27628 net.cpp:380] inception_4c/output <- inception_4c/1x1
I1220 02:04:05.104858 27628 net.cpp:380] inception_4c/output <- inception_4c/3x3
I1220 02:04:05.104866 27628 net.cpp:380] inception_4c/output <- inception_4c/5x5
I1220 02:04:05.104874 27628 net.cpp:380] inception_4c/output <- inception_4c/pool_proj
I1220 02:04:05.104883 27628 net.cpp:338] inception_4c/output -> inception_4c/output
I1220 02:04:05.104893 27628 net.cpp:113] Setting up inception_4c/output
I1220 02:04:05.104904 27628 net.cpp:120] Top shape: 80 512 14 14 (8028160)
I1220 02:04:05.104912 27628 layer_factory.hpp:74] Creating layer inception_4c/output_inception_4c/output_0_split
I1220 02:04:05.104921 27628 net.cpp:84] Creating Layer inception_4c/output_inception_4c/output_0_split
I1220 02:04:05.104930 27628 net.cpp:380] inception_4c/output_inception_4c/output_0_split <- inception_4c/output
I1220 02:04:05.104939 27628 net.cpp:338] inception_4c/output_inception_4c/output_0_split -> inception_4c/output_inception_4c/output_0_split_0
I1220 02:04:05.104950 27628 net.cpp:338] inception_4c/output_inception_4c/output_0_split -> inception_4c/output_inception_4c/output_0_split_1
I1220 02:04:05.104960 27628 net.cpp:338] inception_4c/output_inception_4c/output_0_split -> inception_4c/output_inception_4c/output_0_split_2
I1220 02:04:05.104970 27628 net.cpp:338] inception_4c/output_inception_4c/output_0_split -> inception_4c/output_inception_4c/output_0_split_3
I1220 02:04:05.104979 27628 net.cpp:113] Setting up inception_4c/output_inception_4c/output_0_split
I1220 02:04:05.104990 27628 net.cpp:120] Top shape: 80 512 14 14 (8028160)
I1220 02:04:05.104998 27628 net.cpp:120] Top shape: 80 512 14 14 (8028160)
I1220 02:04:05.105006 27628 net.cpp:120] Top shape: 80 512 14 14 (8028160)
I1220 02:04:05.105015 27628 net.cpp:120] Top shape: 80 512 14 14 (8028160)
I1220 02:04:05.105027 27628 layer_factory.hpp:74] Creating layer inception_4d/1x1
I1220 02:04:05.105051 27628 net.cpp:84] Creating Layer inception_4d/1x1
I1220 02:04:05.105068 27628 net.cpp:380] inception_4d/1x1 <- inception_4c/output_inception_4c/output_0_split_0
I1220 02:04:05.105094 27628 net.cpp:338] inception_4d/1x1 -> inception_4d/1x1
I1220 02:04:05.105106 27628 net.cpp:113] Setting up inception_4d/1x1
I1220 02:04:05.106688 27628 net.cpp:120] Top shape: 80 112 14 14 (1756160)
I1220 02:04:05.106709 27628 layer_factory.hpp:74] Creating layer inception_4d/relu_1x1
I1220 02:04:05.106721 27628 net.cpp:84] Creating Layer inception_4d/relu_1x1
I1220 02:04:05.106729 27628 net.cpp:380] inception_4d/relu_1x1 <- inception_4d/1x1
I1220 02:04:05.106739 27628 net.cpp:327] inception_4d/relu_1x1 -> inception_4d/1x1 (in-place)
I1220 02:04:05.106750 27628 net.cpp:113] Setting up inception_4d/relu_1x1
I1220 02:04:05.106849 27628 net.cpp:120] Top shape: 80 112 14 14 (1756160)
I1220 02:04:05.106858 27628 layer_factory.hpp:74] Creating layer inception_4d/3x3_reduce
I1220 02:04:05.106873 27628 net.cpp:84] Creating Layer inception_4d/3x3_reduce
I1220 02:04:05.106879 27628 net.cpp:380] inception_4d/3x3_reduce <- inception_4c/output_inception_4c/output_0_split_1
I1220 02:04:05.106892 27628 net.cpp:338] inception_4d/3x3_reduce -> inception_4d/3x3_reduce
I1220 02:04:05.106906 27628 net.cpp:113] Setting up inception_4d/3x3_reduce
I1220 02:04:05.108789 27628 net.cpp:120] Top shape: 80 144 14 14 (2257920)
I1220 02:04:05.108809 27628 layer_factory.hpp:74] Creating layer inception_4d/relu_3x3_reduce
I1220 02:04:05.108822 27628 net.cpp:84] Creating Layer inception_4d/relu_3x3_reduce
I1220 02:04:05.108831 27628 net.cpp:380] inception_4d/relu_3x3_reduce <- inception_4d/3x3_reduce
I1220 02:04:05.108840 27628 net.cpp:327] inception_4d/relu_3x3_reduce -> inception_4d/3x3_reduce (in-place)
I1220 02:04:05.108851 27628 net.cpp:113] Setting up inception_4d/relu_3x3_reduce
I1220 02:04:05.109441 27628 net.cpp:120] Top shape: 80 144 14 14 (2257920)
I1220 02:04:05.109458 27628 layer_factory.hpp:74] Creating layer inception_4d/3x3
I1220 02:04:05.109472 27628 net.cpp:84] Creating Layer inception_4d/3x3
I1220 02:04:05.109482 27628 net.cpp:380] inception_4d/3x3 <- inception_4d/3x3_reduce
I1220 02:04:05.109493 27628 net.cpp:338] inception_4d/3x3 -> inception_4d/3x3
I1220 02:04:05.109504 27628 net.cpp:113] Setting up inception_4d/3x3
I1220 02:04:05.117904 27628 net.cpp:120] Top shape: 80 288 14 14 (4515840)
I1220 02:04:05.117926 27628 layer_factory.hpp:74] Creating layer inception_4d/relu_3x3
I1220 02:04:05.117938 27628 net.cpp:84] Creating Layer inception_4d/relu_3x3
I1220 02:04:05.117947 27628 net.cpp:380] inception_4d/relu_3x3 <- inception_4d/3x3
I1220 02:04:05.117965 27628 net.cpp:327] inception_4d/relu_3x3 -> inception_4d/3x3 (in-place)
I1220 02:04:05.117977 27628 net.cpp:113] Setting up inception_4d/relu_3x3
I1220 02:04:05.118074 27628 net.cpp:120] Top shape: 80 288 14 14 (4515840)
I1220 02:04:05.118083 27628 layer_factory.hpp:74] Creating layer inception_4d/5x5_reduce
I1220 02:04:05.118098 27628 net.cpp:84] Creating Layer inception_4d/5x5_reduce
I1220 02:04:05.118104 27628 net.cpp:380] inception_4d/5x5_reduce <- inception_4c/output_inception_4c/output_0_split_2
I1220 02:04:05.118115 27628 net.cpp:338] inception_4d/5x5_reduce -> inception_4d/5x5_reduce
I1220 02:04:05.118129 27628 net.cpp:113] Setting up inception_4d/5x5_reduce
I1220 02:04:05.124174 27628 net.cpp:120] Top shape: 80 32 14 14 (501760)
I1220 02:04:05.124196 27628 layer_factory.hpp:74] Creating layer inception_4d/relu_5x5_reduce
I1220 02:04:05.124207 27628 net.cpp:84] Creating Layer inception_4d/relu_5x5_reduce
I1220 02:04:05.124214 27628 net.cpp:380] inception_4d/relu_5x5_reduce <- inception_4d/5x5_reduce
I1220 02:04:05.124228 27628 net.cpp:327] inception_4d/relu_5x5_reduce -> inception_4d/5x5_reduce (in-place)
I1220 02:04:05.124238 27628 net.cpp:113] Setting up inception_4d/relu_5x5_reduce
I1220 02:04:05.124346 27628 net.cpp:120] Top shape: 80 32 14 14 (501760)
I1220 02:04:05.124354 27628 layer_factory.hpp:74] Creating layer inception_4d/5x5
I1220 02:04:05.124375 27628 net.cpp:84] Creating Layer inception_4d/5x5
I1220 02:04:05.124393 27628 net.cpp:380] inception_4d/5x5 <- inception_4d/5x5_reduce
I1220 02:04:05.124404 27628 net.cpp:338] inception_4d/5x5 -> inception_4d/5x5
I1220 02:04:05.124415 27628 net.cpp:113] Setting up inception_4d/5x5
I1220 02:04:05.125903 27628 net.cpp:120] Top shape: 80 64 14 14 (1003520)
I1220 02:04:05.125931 27628 layer_factory.hpp:74] Creating layer inception_4d/relu_5x5
I1220 02:04:05.125941 27628 net.cpp:84] Creating Layer inception_4d/relu_5x5
I1220 02:04:05.125946 27628 net.cpp:380] inception_4d/relu_5x5 <- inception_4d/5x5
I1220 02:04:05.125957 27628 net.cpp:327] inception_4d/relu_5x5 -> inception_4d/5x5 (in-place)
I1220 02:04:05.125965 27628 net.cpp:113] Setting up inception_4d/relu_5x5
I1220 02:04:05.126039 27628 net.cpp:120] Top shape: 80 64 14 14 (1003520)
I1220 02:04:05.126046 27628 layer_factory.hpp:74] Creating layer inception_4d/pool
I1220 02:04:05.126054 27628 layer_factory.cpp:56] CUDNN does not support padding or multiple tops. Using Caffe's own pooling layer.
I1220 02:04:05.126060 27628 net.cpp:84] Creating Layer inception_4d/pool
I1220 02:04:05.126065 27628 net.cpp:380] inception_4d/pool <- inception_4c/output_inception_4c/output_0_split_3
I1220 02:04:05.126072 27628 net.cpp:338] inception_4d/pool -> inception_4d/pool
I1220 02:04:05.126080 27628 net.cpp:113] Setting up inception_4d/pool
I1220 02:04:05.126090 27628 net.cpp:120] Top shape: 80 512 14 14 (8028160)
I1220 02:04:05.126093 27628 layer_factory.hpp:74] Creating layer inception_4d/pool_proj
I1220 02:04:05.126106 27628 net.cpp:84] Creating Layer inception_4d/pool_proj
I1220 02:04:05.126111 27628 net.cpp:380] inception_4d/pool_proj <- inception_4d/pool
I1220 02:04:05.126118 27628 net.cpp:338] inception_4d/pool_proj -> inception_4d/pool_proj
I1220 02:04:05.126127 27628 net.cpp:113] Setting up inception_4d/pool_proj
I1220 02:04:05.127279 27628 net.cpp:120] Top shape: 80 64 14 14 (1003520)
I1220 02:04:05.127296 27628 layer_factory.hpp:74] Creating layer inception_4d/relu_pool_proj
I1220 02:04:05.127305 27628 net.cpp:84] Creating Layer inception_4d/relu_pool_proj
I1220 02:04:05.127311 27628 net.cpp:380] inception_4d/relu_pool_proj <- inception_4d/pool_proj
I1220 02:04:05.127318 27628 net.cpp:327] inception_4d/relu_pool_proj -> inception_4d/pool_proj (in-place)
I1220 02:04:05.127326 27628 net.cpp:113] Setting up inception_4d/relu_pool_proj
I1220 02:04:05.127885 27628 net.cpp:120] Top shape: 80 64 14 14 (1003520)
I1220 02:04:05.127897 27628 layer_factory.hpp:74] Creating layer inception_4d/output
I1220 02:04:05.127907 27628 net.cpp:84] Creating Layer inception_4d/output
I1220 02:04:05.127912 27628 net.cpp:380] inception_4d/output <- inception_4d/1x1
I1220 02:04:05.127918 27628 net.cpp:380] inception_4d/output <- inception_4d/3x3
I1220 02:04:05.127924 27628 net.cpp:380] inception_4d/output <- inception_4d/5x5
I1220 02:04:05.127929 27628 net.cpp:380] inception_4d/output <- inception_4d/pool_proj
I1220 02:04:05.127938 27628 net.cpp:338] inception_4d/output -> inception_4d/output
I1220 02:04:05.127945 27628 net.cpp:113] Setting up inception_4d/output
I1220 02:04:05.127954 27628 net.cpp:120] Top shape: 80 528 14 14 (8279040)
I1220 02:04:05.127959 27628 layer_factory.hpp:74] Creating layer inception_4d/output_inception_4d/output_0_split
I1220 02:04:05.127966 27628 net.cpp:84] Creating Layer inception_4d/output_inception_4d/output_0_split
I1220 02:04:05.127971 27628 net.cpp:380] inception_4d/output_inception_4d/output_0_split <- inception_4d/output
I1220 02:04:05.127977 27628 net.cpp:338] inception_4d/output_inception_4d/output_0_split -> inception_4d/output_inception_4d/output_0_split_0
I1220 02:04:05.127985 27628 net.cpp:338] inception_4d/output_inception_4d/output_0_split -> inception_4d/output_inception_4d/output_0_split_1
I1220 02:04:05.127995 27628 net.cpp:338] inception_4d/output_inception_4d/output_0_split -> inception_4d/output_inception_4d/output_0_split_2
I1220 02:04:05.128001 27628 net.cpp:338] inception_4d/output_inception_4d/output_0_split -> inception_4d/output_inception_4d/output_0_split_3
I1220 02:04:05.128027 27628 net.cpp:338] inception_4d/output_inception_4d/output_0_split -> inception_4d/output_inception_4d/output_0_split_4
I1220 02:04:05.128036 27628 net.cpp:113] Setting up inception_4d/output_inception_4d/output_0_split
I1220 02:04:05.128043 27628 net.cpp:120] Top shape: 80 528 14 14 (8279040)
I1220 02:04:05.128048 27628 net.cpp:120] Top shape: 80 528 14 14 (8279040)
I1220 02:04:05.128053 27628 net.cpp:120] Top shape: 80 528 14 14 (8279040)
I1220 02:04:05.128058 27628 net.cpp:120] Top shape: 80 528 14 14 (8279040)
I1220 02:04:05.128063 27628 net.cpp:120] Top shape: 80 528 14 14 (8279040)
I1220 02:04:05.128067 27628 layer_factory.hpp:74] Creating layer loss2/ave_pool
I1220 02:04:05.128077 27628 net.cpp:84] Creating Layer loss2/ave_pool
I1220 02:04:05.128082 27628 net.cpp:380] loss2/ave_pool <- inception_4d/output_inception_4d/output_0_split_0
I1220 02:04:05.128089 27628 net.cpp:338] loss2/ave_pool -> loss2/ave_pool
I1220 02:04:05.128098 27628 net.cpp:113] Setting up loss2/ave_pool
I1220 02:04:05.128165 27628 net.cpp:120] Top shape: 80 528 4 4 (675840)
I1220 02:04:05.128172 27628 layer_factory.hpp:74] Creating layer loss2/conv
I1220 02:04:05.128182 27628 net.cpp:84] Creating Layer loss2/conv
I1220 02:04:05.128188 27628 net.cpp:380] loss2/conv <- loss2/ave_pool
I1220 02:04:05.128196 27628 net.cpp:338] loss2/conv -> loss2/conv
I1220 02:04:05.128202 27628 net.cpp:113] Setting up loss2/conv
I1220 02:04:05.130234 27628 net.cpp:120] Top shape: 80 128 4 4 (163840)
I1220 02:04:05.130270 27628 layer_factory.hpp:74] Creating layer loss2/relu_conv
I1220 02:04:05.130285 27628 net.cpp:84] Creating Layer loss2/relu_conv
I1220 02:04:05.130296 27628 net.cpp:380] loss2/relu_conv <- loss2/conv
I1220 02:04:05.130309 27628 net.cpp:327] loss2/relu_conv -> loss2/conv (in-place)
I1220 02:04:05.130327 27628 net.cpp:113] Setting up loss2/relu_conv
I1220 02:04:05.130455 27628 net.cpp:120] Top shape: 80 128 4 4 (163840)
I1220 02:04:05.130470 27628 layer_factory.hpp:74] Creating layer loss2/fc
I1220 02:04:05.130487 27628 net.cpp:84] Creating Layer loss2/fc
I1220 02:04:05.130496 27628 net.cpp:380] loss2/fc <- loss2/conv
I1220 02:04:05.130513 27628 net.cpp:338] loss2/fc -> loss2/fc
I1220 02:04:05.130529 27628 net.cpp:113] Setting up loss2/fc
I1220 02:04:05.161722 27628 net.cpp:120] Top shape: 80 1024 (81920)
I1220 02:04:05.161763 27628 layer_factory.hpp:74] Creating layer loss2/relu_fc
I1220 02:04:05.161778 27628 net.cpp:84] Creating Layer loss2/relu_fc
I1220 02:04:05.161787 27628 net.cpp:380] loss2/relu_fc <- loss2/fc
I1220 02:04:05.161797 27628 net.cpp:327] loss2/relu_fc -> loss2/fc (in-place)
I1220 02:04:05.161806 27628 net.cpp:113] Setting up loss2/relu_fc
I1220 02:04:05.162494 27628 net.cpp:120] Top shape: 80 1024 (81920)
I1220 02:04:05.162508 27628 layer_factory.hpp:74] Creating layer loss2/drop_fc
I1220 02:04:05.162518 27628 net.cpp:84] Creating Layer loss2/drop_fc
I1220 02:04:05.162523 27628 net.cpp:380] loss2/drop_fc <- loss2/fc
I1220 02:04:05.162529 27628 net.cpp:327] loss2/drop_fc -> loss2/fc (in-place)
I1220 02:04:05.162536 27628 net.cpp:113] Setting up loss2/drop_fc
I1220 02:04:05.162544 27628 net.cpp:120] Top shape: 80 1024 (81920)
I1220 02:04:05.162549 27628 layer_factory.hpp:74] Creating layer loss2/classifier_kaggle
I1220 02:04:05.162559 27628 net.cpp:84] Creating Layer loss2/classifier_kaggle
I1220 02:04:05.162562 27628 net.cpp:380] loss2/classifier_kaggle <- loss2/fc
I1220 02:04:05.162570 27628 net.cpp:338] loss2/classifier_kaggle -> loss2/classifier_kaggle
I1220 02:04:05.162580 27628 net.cpp:113] Setting up loss2/classifier_kaggle
I1220 02:04:05.167443 27628 net.cpp:120] Top shape: 80 447 (35760)
I1220 02:04:05.167459 27628 layer_factory.hpp:74] Creating layer loss2/loss
I1220 02:04:05.167469 27628 net.cpp:84] Creating Layer loss2/loss
I1220 02:04:05.167474 27628 net.cpp:380] loss2/loss <- loss2/classifier_kaggle
I1220 02:04:05.167480 27628 net.cpp:380] loss2/loss <- label_data_1_split_1
I1220 02:04:05.167486 27628 net.cpp:338] loss2/loss -> loss2/loss1
I1220 02:04:05.167505 27628 net.cpp:113] Setting up loss2/loss
I1220 02:04:05.167525 27628 layer_factory.hpp:74] Creating layer loss2/loss
I1220 02:04:05.167688 27628 net.cpp:120] Top shape: (1)
I1220 02:04:05.167696 27628 net.cpp:122]     with loss weight 0.3
I1220 02:04:05.167709 27628 layer_factory.hpp:74] Creating layer inception_4e/1x1
I1220 02:04:05.167719 27628 net.cpp:84] Creating Layer inception_4e/1x1
I1220 02:04:05.167724 27628 net.cpp:380] inception_4e/1x1 <- inception_4d/output_inception_4d/output_0_split_1
I1220 02:04:05.167733 27628 net.cpp:338] inception_4e/1x1 -> inception_4e/1x1
I1220 02:04:05.167742 27628 net.cpp:113] Setting up inception_4e/1x1
I1220 02:04:05.169839 27628 net.cpp:120] Top shape: 80 256 14 14 (4014080)
I1220 02:04:05.169857 27628 layer_factory.hpp:74] Creating layer inception_4e/relu_1x1
I1220 02:04:05.169864 27628 net.cpp:84] Creating Layer inception_4e/relu_1x1
I1220 02:04:05.169869 27628 net.cpp:380] inception_4e/relu_1x1 <- inception_4e/1x1
I1220 02:04:05.169877 27628 net.cpp:327] inception_4e/relu_1x1 -> inception_4e/1x1 (in-place)
I1220 02:04:05.169883 27628 net.cpp:113] Setting up inception_4e/relu_1x1
I1220 02:04:05.169948 27628 net.cpp:120] Top shape: 80 256 14 14 (4014080)
I1220 02:04:05.169955 27628 layer_factory.hpp:74] Creating layer inception_4e/3x3_reduce
I1220 02:04:05.169962 27628 net.cpp:84] Creating Layer inception_4e/3x3_reduce
I1220 02:04:05.169966 27628 net.cpp:380] inception_4e/3x3_reduce <- inception_4d/output_inception_4d/output_0_split_2
I1220 02:04:05.169975 27628 net.cpp:338] inception_4e/3x3_reduce -> inception_4e/3x3_reduce
I1220 02:04:05.169983 27628 net.cpp:113] Setting up inception_4e/3x3_reduce
I1220 02:04:05.171612 27628 net.cpp:120] Top shape: 80 160 14 14 (2508800)
I1220 02:04:05.171627 27628 layer_factory.hpp:74] Creating layer inception_4e/relu_3x3_reduce
I1220 02:04:05.171636 27628 net.cpp:84] Creating Layer inception_4e/relu_3x3_reduce
I1220 02:04:05.171641 27628 net.cpp:380] inception_4e/relu_3x3_reduce <- inception_4e/3x3_reduce
I1220 02:04:05.171650 27628 net.cpp:327] inception_4e/relu_3x3_reduce -> inception_4e/3x3_reduce (in-place)
I1220 02:04:05.171658 27628 net.cpp:113] Setting up inception_4e/relu_3x3_reduce
I1220 02:04:05.171725 27628 net.cpp:120] Top shape: 80 160 14 14 (2508800)
I1220 02:04:05.171731 27628 layer_factory.hpp:74] Creating layer inception_4e/3x3
I1220 02:04:05.171741 27628 net.cpp:84] Creating Layer inception_4e/3x3
I1220 02:04:05.171746 27628 net.cpp:380] inception_4e/3x3 <- inception_4e/3x3_reduce
I1220 02:04:05.171753 27628 net.cpp:338] inception_4e/3x3 -> inception_4e/3x3
I1220 02:04:05.171761 27628 net.cpp:113] Setting up inception_4e/3x3
I1220 02:04:05.184029 27628 net.cpp:120] Top shape: 80 320 14 14 (5017600)
I1220 02:04:05.184051 27628 layer_factory.hpp:74] Creating layer inception_4e/relu_3x3
I1220 02:04:05.184059 27628 net.cpp:84] Creating Layer inception_4e/relu_3x3
I1220 02:04:05.184065 27628 net.cpp:380] inception_4e/relu_3x3 <- inception_4e/3x3
I1220 02:04:05.184074 27628 net.cpp:327] inception_4e/relu_3x3 -> inception_4e/3x3 (in-place)
I1220 02:04:05.184082 27628 net.cpp:113] Setting up inception_4e/relu_3x3
I1220 02:04:05.184623 27628 net.cpp:120] Top shape: 80 320 14 14 (5017600)
I1220 02:04:05.184634 27628 layer_factory.hpp:74] Creating layer inception_4e/5x5_reduce
I1220 02:04:05.184643 27628 net.cpp:84] Creating Layer inception_4e/5x5_reduce
I1220 02:04:05.184648 27628 net.cpp:380] inception_4e/5x5_reduce <- inception_4d/output_inception_4d/output_0_split_3
I1220 02:04:05.184659 27628 net.cpp:338] inception_4e/5x5_reduce -> inception_4e/5x5_reduce
I1220 02:04:05.184667 27628 net.cpp:113] Setting up inception_4e/5x5_reduce
I1220 02:04:05.185583 27628 net.cpp:120] Top shape: 80 32 14 14 (501760)
I1220 02:04:05.185600 27628 layer_factory.hpp:74] Creating layer inception_4e/relu_5x5_reduce
I1220 02:04:05.185611 27628 net.cpp:84] Creating Layer inception_4e/relu_5x5_reduce
I1220 02:04:05.185616 27628 net.cpp:380] inception_4e/relu_5x5_reduce <- inception_4e/5x5_reduce
I1220 02:04:05.185622 27628 net.cpp:327] inception_4e/relu_5x5_reduce -> inception_4e/5x5_reduce (in-place)
I1220 02:04:05.185642 27628 net.cpp:113] Setting up inception_4e/relu_5x5_reduce
I1220 02:04:05.185714 27628 net.cpp:120] Top shape: 80 32 14 14 (501760)
I1220 02:04:05.185720 27628 layer_factory.hpp:74] Creating layer inception_4e/5x5
I1220 02:04:05.185750 27628 net.cpp:84] Creating Layer inception_4e/5x5
I1220 02:04:05.185755 27628 net.cpp:380] inception_4e/5x5 <- inception_4e/5x5_reduce
I1220 02:04:05.185765 27628 net.cpp:338] inception_4e/5x5 -> inception_4e/5x5
I1220 02:04:05.185772 27628 net.cpp:113] Setting up inception_4e/5x5
I1220 02:04:05.187583 27628 net.cpp:120] Top shape: 80 128 14 14 (2007040)
I1220 02:04:05.187599 27628 layer_factory.hpp:74] Creating layer inception_4e/relu_5x5
I1220 02:04:05.187608 27628 net.cpp:84] Creating Layer inception_4e/relu_5x5
I1220 02:04:05.187613 27628 net.cpp:380] inception_4e/relu_5x5 <- inception_4e/5x5
I1220 02:04:05.187620 27628 net.cpp:327] inception_4e/relu_5x5 -> inception_4e/5x5 (in-place)
I1220 02:04:05.187628 27628 net.cpp:113] Setting up inception_4e/relu_5x5
I1220 02:04:05.187697 27628 net.cpp:120] Top shape: 80 128 14 14 (2007040)
I1220 02:04:05.187703 27628 layer_factory.hpp:74] Creating layer inception_4e/pool
I1220 02:04:05.187711 27628 layer_factory.cpp:56] CUDNN does not support padding or multiple tops. Using Caffe's own pooling layer.
I1220 02:04:05.187716 27628 net.cpp:84] Creating Layer inception_4e/pool
I1220 02:04:05.187721 27628 net.cpp:380] inception_4e/pool <- inception_4d/output_inception_4d/output_0_split_4
I1220 02:04:05.187728 27628 net.cpp:338] inception_4e/pool -> inception_4e/pool
I1220 02:04:05.187736 27628 net.cpp:113] Setting up inception_4e/pool
I1220 02:04:05.187743 27628 net.cpp:120] Top shape: 80 528 14 14 (8279040)
I1220 02:04:05.187748 27628 layer_factory.hpp:74] Creating layer inception_4e/pool_proj
I1220 02:04:05.187757 27628 net.cpp:84] Creating Layer inception_4e/pool_proj
I1220 02:04:05.187762 27628 net.cpp:380] inception_4e/pool_proj <- inception_4e/pool
I1220 02:04:05.187770 27628 net.cpp:338] inception_4e/pool_proj -> inception_4e/pool_proj
I1220 02:04:05.187777 27628 net.cpp:113] Setting up inception_4e/pool_proj
I1220 02:04:05.192893 27628 net.cpp:120] Top shape: 80 128 14 14 (2007040)
I1220 02:04:05.192914 27628 layer_factory.hpp:74] Creating layer inception_4e/relu_pool_proj
I1220 02:04:05.192924 27628 net.cpp:84] Creating Layer inception_4e/relu_pool_proj
I1220 02:04:05.192929 27628 net.cpp:380] inception_4e/relu_pool_proj <- inception_4e/pool_proj
I1220 02:04:05.192936 27628 net.cpp:327] inception_4e/relu_pool_proj -> inception_4e/pool_proj (in-place)
I1220 02:04:05.192945 27628 net.cpp:113] Setting up inception_4e/relu_pool_proj
I1220 02:04:05.193013 27628 net.cpp:120] Top shape: 80 128 14 14 (2007040)
I1220 02:04:05.193019 27628 layer_factory.hpp:74] Creating layer inception_4e/output
I1220 02:04:05.193030 27628 net.cpp:84] Creating Layer inception_4e/output
I1220 02:04:05.193035 27628 net.cpp:380] inception_4e/output <- inception_4e/1x1
I1220 02:04:05.193042 27628 net.cpp:380] inception_4e/output <- inception_4e/3x3
I1220 02:04:05.193047 27628 net.cpp:380] inception_4e/output <- inception_4e/5x5
I1220 02:04:05.193052 27628 net.cpp:380] inception_4e/output <- inception_4e/pool_proj
I1220 02:04:05.193068 27628 net.cpp:338] inception_4e/output -> inception_4e/output
I1220 02:04:05.193081 27628 net.cpp:113] Setting up inception_4e/output
I1220 02:04:05.193090 27628 net.cpp:120] Top shape: 80 832 14 14 (13045760)
I1220 02:04:05.193096 27628 layer_factory.hpp:74] Creating layer pool4/3x3_s2
I1220 02:04:05.193105 27628 net.cpp:84] Creating Layer pool4/3x3_s2
I1220 02:04:05.193110 27628 net.cpp:380] pool4/3x3_s2 <- inception_4e/output
I1220 02:04:05.193117 27628 net.cpp:338] pool4/3x3_s2 -> pool4/3x3_s2
I1220 02:04:05.193123 27628 net.cpp:113] Setting up pool4/3x3_s2
I1220 02:04:05.193634 27628 net.cpp:120] Top shape: 80 832 7 7 (3261440)
I1220 02:04:05.193646 27628 layer_factory.hpp:74] Creating layer pool4/3x3_s2_pool4/3x3_s2_0_split
I1220 02:04:05.193660 27628 net.cpp:84] Creating Layer pool4/3x3_s2_pool4/3x3_s2_0_split
I1220 02:04:05.193672 27628 net.cpp:380] pool4/3x3_s2_pool4/3x3_s2_0_split <- pool4/3x3_s2
I1220 02:04:05.193680 27628 net.cpp:338] pool4/3x3_s2_pool4/3x3_s2_0_split -> pool4/3x3_s2_pool4/3x3_s2_0_split_0
I1220 02:04:05.193688 27628 net.cpp:338] pool4/3x3_s2_pool4/3x3_s2_0_split -> pool4/3x3_s2_pool4/3x3_s2_0_split_1
I1220 02:04:05.193697 27628 net.cpp:338] pool4/3x3_s2_pool4/3x3_s2_0_split -> pool4/3x3_s2_pool4/3x3_s2_0_split_2
I1220 02:04:05.193703 27628 net.cpp:338] pool4/3x3_s2_pool4/3x3_s2_0_split -> pool4/3x3_s2_pool4/3x3_s2_0_split_3
I1220 02:04:05.193709 27628 net.cpp:113] Setting up pool4/3x3_s2_pool4/3x3_s2_0_split
I1220 02:04:05.193717 27628 net.cpp:120] Top shape: 80 832 7 7 (3261440)
I1220 02:04:05.193722 27628 net.cpp:120] Top shape: 80 832 7 7 (3261440)
I1220 02:04:05.193727 27628 net.cpp:120] Top shape: 80 832 7 7 (3261440)
I1220 02:04:05.193732 27628 net.cpp:120] Top shape: 80 832 7 7 (3261440)
I1220 02:04:05.193735 27628 layer_factory.hpp:74] Creating layer inception_5a/1x1
I1220 02:04:05.193744 27628 net.cpp:84] Creating Layer inception_5a/1x1
I1220 02:04:05.193749 27628 net.cpp:380] inception_5a/1x1 <- pool4/3x3_s2_pool4/3x3_s2_0_split_0
I1220 02:04:05.193756 27628 net.cpp:338] inception_5a/1x1 -> inception_5a/1x1
I1220 02:04:05.193763 27628 net.cpp:113] Setting up inception_5a/1x1
I1220 02:04:05.196552 27628 net.cpp:120] Top shape: 80 256 7 7 (1003520)
I1220 02:04:05.196568 27628 layer_factory.hpp:74] Creating layer inception_5a/relu_1x1
I1220 02:04:05.196578 27628 net.cpp:84] Creating Layer inception_5a/relu_1x1
I1220 02:04:05.196584 27628 net.cpp:380] inception_5a/relu_1x1 <- inception_5a/1x1
I1220 02:04:05.196591 27628 net.cpp:327] inception_5a/relu_1x1 -> inception_5a/1x1 (in-place)
I1220 02:04:05.196599 27628 net.cpp:113] Setting up inception_5a/relu_1x1
I1220 02:04:05.196663 27628 net.cpp:120] Top shape: 80 256 7 7 (1003520)
I1220 02:04:05.196671 27628 layer_factory.hpp:74] Creating layer inception_5a/3x3_reduce
I1220 02:04:05.196681 27628 net.cpp:84] Creating Layer inception_5a/3x3_reduce
I1220 02:04:05.196686 27628 net.cpp:380] inception_5a/3x3_reduce <- pool4/3x3_s2_pool4/3x3_s2_0_split_1
I1220 02:04:05.196692 27628 net.cpp:338] inception_5a/3x3_reduce -> inception_5a/3x3_reduce
I1220 02:04:05.196699 27628 net.cpp:113] Setting up inception_5a/3x3_reduce
I1220 02:04:05.198868 27628 net.cpp:120] Top shape: 80 160 7 7 (627200)
I1220 02:04:05.198884 27628 layer_factory.hpp:74] Creating layer inception_5a/relu_3x3_reduce
I1220 02:04:05.198891 27628 net.cpp:84] Creating Layer inception_5a/relu_3x3_reduce
I1220 02:04:05.198896 27628 net.cpp:380] inception_5a/relu_3x3_reduce <- inception_5a/3x3_reduce
I1220 02:04:05.198904 27628 net.cpp:327] inception_5a/relu_3x3_reduce -> inception_5a/3x3_reduce (in-place)
I1220 02:04:05.198912 27628 net.cpp:113] Setting up inception_5a/relu_3x3_reduce
I1220 02:04:05.198979 27628 net.cpp:120] Top shape: 80 160 7 7 (627200)
I1220 02:04:05.198986 27628 layer_factory.hpp:74] Creating layer inception_5a/3x3
I1220 02:04:05.198995 27628 net.cpp:84] Creating Layer inception_5a/3x3
I1220 02:04:05.198999 27628 net.cpp:380] inception_5a/3x3 <- inception_5a/3x3_reduce
I1220 02:04:05.199009 27628 net.cpp:338] inception_5a/3x3 -> inception_5a/3x3
I1220 02:04:05.199017 27628 net.cpp:113] Setting up inception_5a/3x3
I1220 02:04:05.205250 27628 net.cpp:120] Top shape: 80 320 7 7 (1254400)
I1220 02:04:05.205307 27628 layer_factory.hpp:74] Creating layer inception_5a/relu_3x3
I1220 02:04:05.205345 27628 net.cpp:84] Creating Layer inception_5a/relu_3x3
I1220 02:04:05.205360 27628 net.cpp:380] inception_5a/relu_3x3 <- inception_5a/3x3
I1220 02:04:05.205377 27628 net.cpp:327] inception_5a/relu_3x3 -> inception_5a/3x3 (in-place)
I1220 02:04:05.205396 27628 net.cpp:113] Setting up inception_5a/relu_3x3
I1220 02:04:05.205543 27628 net.cpp:120] Top shape: 80 320 7 7 (1254400)
I1220 02:04:05.205556 27628 layer_factory.hpp:74] Creating layer inception_5a/5x5_reduce
I1220 02:04:05.205576 27628 net.cpp:84] Creating Layer inception_5a/5x5_reduce
I1220 02:04:05.205601 27628 net.cpp:380] inception_5a/5x5_reduce <- pool4/3x3_s2_pool4/3x3_s2_0_split_2
I1220 02:04:05.205637 27628 net.cpp:338] inception_5a/5x5_reduce -> inception_5a/5x5_reduce
I1220 02:04:05.205657 27628 net.cpp:113] Setting up inception_5a/5x5_reduce
I1220 02:04:05.207415 27628 net.cpp:120] Top shape: 80 32 7 7 (125440)
I1220 02:04:05.207458 27628 layer_factory.hpp:74] Creating layer inception_5a/relu_5x5_reduce
I1220 02:04:05.207474 27628 net.cpp:84] Creating Layer inception_5a/relu_5x5_reduce
I1220 02:04:05.207485 27628 net.cpp:380] inception_5a/relu_5x5_reduce <- inception_5a/5x5_reduce
I1220 02:04:05.207504 27628 net.cpp:327] inception_5a/relu_5x5_reduce -> inception_5a/5x5_reduce (in-place)
I1220 02:04:05.207520 27628 net.cpp:113] Setting up inception_5a/relu_5x5_reduce
I1220 02:04:05.208212 27628 net.cpp:120] Top shape: 80 32 7 7 (125440)
I1220 02:04:05.208238 27628 layer_factory.hpp:74] Creating layer inception_5a/5x5
I1220 02:04:05.208268 27628 net.cpp:84] Creating Layer inception_5a/5x5
I1220 02:04:05.208279 27628 net.cpp:380] inception_5a/5x5 <- inception_5a/5x5_reduce
I1220 02:04:05.208295 27628 net.cpp:338] inception_5a/5x5 -> inception_5a/5x5
I1220 02:04:05.208313 27628 net.cpp:113] Setting up inception_5a/5x5
I1220 02:04:05.211953 27628 net.cpp:120] Top shape: 80 128 7 7 (501760)
I1220 02:04:05.211987 27628 layer_factory.hpp:74] Creating layer inception_5a/relu_5x5
I1220 02:04:05.212005 27628 net.cpp:84] Creating Layer inception_5a/relu_5x5
I1220 02:04:05.212018 27628 net.cpp:380] inception_5a/relu_5x5 <- inception_5a/5x5
I1220 02:04:05.212031 27628 net.cpp:327] inception_5a/relu_5x5 -> inception_5a/5x5 (in-place)
I1220 02:04:05.212047 27628 net.cpp:113] Setting up inception_5a/relu_5x5
I1220 02:04:05.212198 27628 net.cpp:120] Top shape: 80 128 7 7 (501760)
I1220 02:04:05.212209 27628 layer_factory.hpp:74] Creating layer inception_5a/pool
I1220 02:04:05.212220 27628 layer_factory.cpp:56] CUDNN does not support padding or multiple tops. Using Caffe's own pooling layer.
I1220 02:04:05.212234 27628 net.cpp:84] Creating Layer inception_5a/pool
I1220 02:04:05.212244 27628 net.cpp:380] inception_5a/pool <- pool4/3x3_s2_pool4/3x3_s2_0_split_3
I1220 02:04:05.212261 27628 net.cpp:338] inception_5a/pool -> inception_5a/pool
I1220 02:04:05.212286 27628 net.cpp:113] Setting up inception_5a/pool
I1220 02:04:05.212297 27628 net.cpp:120] Top shape: 80 832 7 7 (3261440)
I1220 02:04:05.212311 27628 layer_factory.hpp:74] Creating layer inception_5a/pool_proj
I1220 02:04:05.212327 27628 net.cpp:84] Creating Layer inception_5a/pool_proj
I1220 02:04:05.212332 27628 net.cpp:380] inception_5a/pool_proj <- inception_5a/pool
I1220 02:04:05.212342 27628 net.cpp:338] inception_5a/pool_proj -> inception_5a/pool_proj
I1220 02:04:05.212350 27628 net.cpp:113] Setting up inception_5a/pool_proj
I1220 02:04:05.214699 27628 net.cpp:120] Top shape: 80 128 7 7 (501760)
I1220 02:04:05.214726 27628 layer_factory.hpp:74] Creating layer inception_5a/relu_pool_proj
I1220 02:04:05.214736 27628 net.cpp:84] Creating Layer inception_5a/relu_pool_proj
I1220 02:04:05.214743 27628 net.cpp:380] inception_5a/relu_pool_proj <- inception_5a/pool_proj
I1220 02:04:05.214751 27628 net.cpp:327] inception_5a/relu_pool_proj -> inception_5a/pool_proj (in-place)
I1220 02:04:05.214761 27628 net.cpp:113] Setting up inception_5a/relu_pool_proj
I1220 02:04:05.214839 27628 net.cpp:120] Top shape: 80 128 7 7 (501760)
I1220 02:04:05.214849 27628 layer_factory.hpp:74] Creating layer inception_5a/output
I1220 02:04:05.214856 27628 net.cpp:84] Creating Layer inception_5a/output
I1220 02:04:05.214862 27628 net.cpp:380] inception_5a/output <- inception_5a/1x1
I1220 02:04:05.214869 27628 net.cpp:380] inception_5a/output <- inception_5a/3x3
I1220 02:04:05.214874 27628 net.cpp:380] inception_5a/output <- inception_5a/5x5
I1220 02:04:05.214879 27628 net.cpp:380] inception_5a/output <- inception_5a/pool_proj
I1220 02:04:05.214887 27628 net.cpp:338] inception_5a/output -> inception_5a/output
I1220 02:04:05.214895 27628 net.cpp:113] Setting up inception_5a/output
I1220 02:04:05.214910 27628 net.cpp:120] Top shape: 80 832 7 7 (3261440)
I1220 02:04:05.214925 27628 layer_factory.hpp:74] Creating layer inception_5a/output_inception_5a/output_0_split
I1220 02:04:05.214931 27628 net.cpp:84] Creating Layer inception_5a/output_inception_5a/output_0_split
I1220 02:04:05.214936 27628 net.cpp:380] inception_5a/output_inception_5a/output_0_split <- inception_5a/output
I1220 02:04:05.214942 27628 net.cpp:338] inception_5a/output_inception_5a/output_0_split -> inception_5a/output_inception_5a/output_0_split_0
I1220 02:04:05.214949 27628 net.cpp:338] inception_5a/output_inception_5a/output_0_split -> inception_5a/output_inception_5a/output_0_split_1
I1220 02:04:05.214956 27628 net.cpp:338] inception_5a/output_inception_5a/output_0_split -> inception_5a/output_inception_5a/output_0_split_2
I1220 02:04:05.214963 27628 net.cpp:338] inception_5a/output_inception_5a/output_0_split -> inception_5a/output_inception_5a/output_0_split_3
I1220 02:04:05.214969 27628 net.cpp:113] Setting up inception_5a/output_inception_5a/output_0_split
I1220 02:04:05.214977 27628 net.cpp:120] Top shape: 80 832 7 7 (3261440)
I1220 02:04:05.214983 27628 net.cpp:120] Top shape: 80 832 7 7 (3261440)
I1220 02:04:05.214987 27628 net.cpp:120] Top shape: 80 832 7 7 (3261440)
I1220 02:04:05.214993 27628 net.cpp:120] Top shape: 80 832 7 7 (3261440)
I1220 02:04:05.214997 27628 layer_factory.hpp:74] Creating layer inception_5b/1x1
I1220 02:04:05.215008 27628 net.cpp:84] Creating Layer inception_5b/1x1
I1220 02:04:05.215013 27628 net.cpp:380] inception_5b/1x1 <- inception_5a/output_inception_5a/output_0_split_0
I1220 02:04:05.215018 27628 net.cpp:338] inception_5b/1x1 -> inception_5b/1x1
I1220 02:04:05.215026 27628 net.cpp:113] Setting up inception_5b/1x1
I1220 02:04:05.219219 27628 net.cpp:120] Top shape: 80 384 7 7 (1505280)
I1220 02:04:05.219238 27628 layer_factory.hpp:74] Creating layer inception_5b/relu_1x1
I1220 02:04:05.219245 27628 net.cpp:84] Creating Layer inception_5b/relu_1x1
I1220 02:04:05.219251 27628 net.cpp:380] inception_5b/relu_1x1 <- inception_5b/1x1
I1220 02:04:05.219259 27628 net.cpp:327] inception_5b/relu_1x1 -> inception_5b/1x1 (in-place)
I1220 02:04:05.219267 27628 net.cpp:113] Setting up inception_5b/relu_1x1
I1220 02:04:05.219924 27628 net.cpp:120] Top shape: 80 384 7 7 (1505280)
I1220 02:04:05.219936 27628 layer_factory.hpp:74] Creating layer inception_5b/3x3_reduce
I1220 02:04:05.219945 27628 net.cpp:84] Creating Layer inception_5b/3x3_reduce
I1220 02:04:05.219950 27628 net.cpp:380] inception_5b/3x3_reduce <- inception_5a/output_inception_5a/output_0_split_1
I1220 02:04:05.219959 27628 net.cpp:338] inception_5b/3x3_reduce -> inception_5b/3x3_reduce
I1220 02:04:05.219969 27628 net.cpp:113] Setting up inception_5b/3x3_reduce
I1220 02:04:05.230015 27628 net.cpp:120] Top shape: 80 192 7 7 (752640)
I1220 02:04:05.230051 27628 layer_factory.hpp:74] Creating layer inception_5b/relu_3x3_reduce
I1220 02:04:05.230062 27628 net.cpp:84] Creating Layer inception_5b/relu_3x3_reduce
I1220 02:04:05.230072 27628 net.cpp:380] inception_5b/relu_3x3_reduce <- inception_5b/3x3_reduce
I1220 02:04:05.230082 27628 net.cpp:327] inception_5b/relu_3x3_reduce -> inception_5b/3x3_reduce (in-place)
I1220 02:04:05.230093 27628 net.cpp:113] Setting up inception_5b/relu_3x3_reduce
I1220 02:04:05.230193 27628 net.cpp:120] Top shape: 80 192 7 7 (752640)
I1220 02:04:05.230201 27628 layer_factory.hpp:74] Creating layer inception_5b/3x3
I1220 02:04:05.230224 27628 net.cpp:84] Creating Layer inception_5b/3x3
I1220 02:04:05.230232 27628 net.cpp:380] inception_5b/3x3 <- inception_5b/3x3_reduce
I1220 02:04:05.230257 27628 net.cpp:338] inception_5b/3x3 -> inception_5b/3x3
I1220 02:04:05.230314 27628 net.cpp:113] Setting up inception_5b/3x3
I1220 02:04:05.242763 27628 net.cpp:120] Top shape: 80 384 7 7 (1505280)
I1220 02:04:05.242820 27628 layer_factory.hpp:74] Creating layer inception_5b/relu_3x3
I1220 02:04:05.242842 27628 net.cpp:84] Creating Layer inception_5b/relu_3x3
I1220 02:04:05.242856 27628 net.cpp:380] inception_5b/relu_3x3 <- inception_5b/3x3
I1220 02:04:05.242882 27628 net.cpp:327] inception_5b/relu_3x3 -> inception_5b/3x3 (in-place)
I1220 02:04:05.242918 27628 net.cpp:113] Setting up inception_5b/relu_3x3
I1220 02:04:05.243026 27628 net.cpp:120] Top shape: 80 384 7 7 (1505280)
I1220 02:04:05.243037 27628 layer_factory.hpp:74] Creating layer inception_5b/5x5_reduce
I1220 02:04:05.243057 27628 net.cpp:84] Creating Layer inception_5b/5x5_reduce
I1220 02:04:05.243067 27628 net.cpp:380] inception_5b/5x5_reduce <- inception_5a/output_inception_5a/output_0_split_2
I1220 02:04:05.243080 27628 net.cpp:338] inception_5b/5x5_reduce -> inception_5b/5x5_reduce
I1220 02:04:05.243096 27628 net.cpp:113] Setting up inception_5b/5x5_reduce
I1220 02:04:05.244583 27628 net.cpp:120] Top shape: 80 48 7 7 (188160)
I1220 02:04:05.244607 27628 layer_factory.hpp:74] Creating layer inception_5b/relu_5x5_reduce
I1220 02:04:05.244632 27628 net.cpp:84] Creating Layer inception_5b/relu_5x5_reduce
I1220 02:04:05.244643 27628 net.cpp:380] inception_5b/relu_5x5_reduce <- inception_5b/5x5_reduce
I1220 02:04:05.244658 27628 net.cpp:327] inception_5b/relu_5x5_reduce -> inception_5b/5x5_reduce (in-place)
I1220 02:04:05.244673 27628 net.cpp:113] Setting up inception_5b/relu_5x5_reduce
I1220 02:04:05.244765 27628 net.cpp:120] Top shape: 80 48 7 7 (188160)
I1220 02:04:05.244773 27628 layer_factory.hpp:74] Creating layer inception_5b/5x5
I1220 02:04:05.244791 27628 net.cpp:84] Creating Layer inception_5b/5x5
I1220 02:04:05.244799 27628 net.cpp:380] inception_5b/5x5 <- inception_5b/5x5_reduce
I1220 02:04:05.244817 27628 net.cpp:338] inception_5b/5x5 -> inception_5b/5x5
I1220 02:04:05.244832 27628 net.cpp:113] Setting up inception_5b/5x5
I1220 02:04:05.248849 27628 net.cpp:120] Top shape: 80 128 7 7 (501760)
I1220 02:04:05.248888 27628 layer_factory.hpp:74] Creating layer inception_5b/relu_5x5
I1220 02:04:05.248908 27628 net.cpp:84] Creating Layer inception_5b/relu_5x5
I1220 02:04:05.248921 27628 net.cpp:380] inception_5b/relu_5x5 <- inception_5b/5x5
I1220 02:04:05.248937 27628 net.cpp:327] inception_5b/relu_5x5 -> inception_5b/5x5 (in-place)
I1220 02:04:05.248955 27628 net.cpp:113] Setting up inception_5b/relu_5x5
I1220 02:04:05.249795 27628 net.cpp:120] Top shape: 80 128 7 7 (501760)
I1220 02:04:05.249815 27628 layer_factory.hpp:74] Creating layer inception_5b/pool
I1220 02:04:05.249827 27628 layer_factory.cpp:56] CUDNN does not support padding or multiple tops. Using Caffe's own pooling layer.
I1220 02:04:05.249842 27628 net.cpp:84] Creating Layer inception_5b/pool
I1220 02:04:05.249852 27628 net.cpp:380] inception_5b/pool <- inception_5a/output_inception_5a/output_0_split_3
I1220 02:04:05.249867 27628 net.cpp:338] inception_5b/pool -> inception_5b/pool
I1220 02:04:05.249882 27628 net.cpp:113] Setting up inception_5b/pool
I1220 02:04:05.249898 27628 net.cpp:120] Top shape: 80 832 7 7 (3261440)
I1220 02:04:05.249907 27628 layer_factory.hpp:74] Creating layer inception_5b/pool_proj
I1220 02:04:05.249933 27628 net.cpp:84] Creating Layer inception_5b/pool_proj
I1220 02:04:05.249943 27628 net.cpp:380] inception_5b/pool_proj <- inception_5b/pool
I1220 02:04:05.249958 27628 net.cpp:338] inception_5b/pool_proj -> inception_5b/pool_proj
I1220 02:04:05.249971 27628 net.cpp:113] Setting up inception_5b/pool_proj
I1220 02:04:05.252495 27628 net.cpp:120] Top shape: 80 128 7 7 (501760)
I1220 02:04:05.252521 27628 layer_factory.hpp:74] Creating layer inception_5b/relu_pool_proj
I1220 02:04:05.252547 27628 net.cpp:84] Creating Layer inception_5b/relu_pool_proj
I1220 02:04:05.252557 27628 net.cpp:380] inception_5b/relu_pool_proj <- inception_5b/pool_proj
I1220 02:04:05.252568 27628 net.cpp:327] inception_5b/relu_pool_proj -> inception_5b/pool_proj (in-place)
I1220 02:04:05.252581 27628 net.cpp:113] Setting up inception_5b/relu_pool_proj
I1220 02:04:05.252706 27628 net.cpp:120] Top shape: 80 128 7 7 (501760)
I1220 02:04:05.252720 27628 layer_factory.hpp:74] Creating layer inception_5b/output
I1220 02:04:05.252732 27628 net.cpp:84] Creating Layer inception_5b/output
I1220 02:04:05.252750 27628 net.cpp:380] inception_5b/output <- inception_5b/1x1
I1220 02:04:05.252773 27628 net.cpp:380] inception_5b/output <- inception_5b/3x3
I1220 02:04:05.252791 27628 net.cpp:380] inception_5b/output <- inception_5b/5x5
I1220 02:04:05.252801 27628 net.cpp:380] inception_5b/output <- inception_5b/pool_proj
I1220 02:04:05.252812 27628 net.cpp:338] inception_5b/output -> inception_5b/output
I1220 02:04:05.252825 27628 net.cpp:113] Setting up inception_5b/output
I1220 02:04:05.252840 27628 net.cpp:120] Top shape: 80 1024 7 7 (4014080)
I1220 02:04:05.252847 27628 layer_factory.hpp:74] Creating layer pool5/7x7_s1
I1220 02:04:05.252871 27628 net.cpp:84] Creating Layer pool5/7x7_s1
I1220 02:04:05.252879 27628 net.cpp:380] pool5/7x7_s1 <- inception_5b/output
I1220 02:04:05.252894 27628 net.cpp:338] pool5/7x7_s1 -> pool5/7x7_s1
I1220 02:04:05.252907 27628 net.cpp:113] Setting up pool5/7x7_s1
I1220 02:04:05.253038 27628 net.cpp:120] Top shape: 80 1024 1 1 (81920)
I1220 02:04:05.253069 27628 layer_factory.hpp:74] Creating layer pool5/drop_7x7_s1
I1220 02:04:05.253087 27628 net.cpp:84] Creating Layer pool5/drop_7x7_s1
I1220 02:04:05.253095 27628 net.cpp:380] pool5/drop_7x7_s1 <- pool5/7x7_s1
I1220 02:04:05.253108 27628 net.cpp:327] pool5/drop_7x7_s1 -> pool5/7x7_s1 (in-place)
I1220 02:04:05.253121 27628 net.cpp:113] Setting up pool5/drop_7x7_s1
I1220 02:04:05.253135 27628 net.cpp:120] Top shape: 80 1024 1 1 (81920)
I1220 02:04:05.253142 27628 layer_factory.hpp:74] Creating layer loss3/classifier_kaggle
I1220 02:04:05.253155 27628 net.cpp:84] Creating Layer loss3/classifier_kaggle
I1220 02:04:05.253164 27628 net.cpp:380] loss3/classifier_kaggle <- pool5/7x7_s1
I1220 02:04:05.253183 27628 net.cpp:338] loss3/classifier_kaggle -> loss3/classifier_kaggle
I1220 02:04:05.253198 27628 net.cpp:113] Setting up loss3/classifier_kaggle
I1220 02:04:05.259408 27628 net.cpp:120] Top shape: 80 447 (35760)
I1220 02:04:05.259433 27628 layer_factory.hpp:74] Creating layer loss3/loss3
I1220 02:04:05.259450 27628 net.cpp:84] Creating Layer loss3/loss3
I1220 02:04:05.259459 27628 net.cpp:380] loss3/loss3 <- loss3/classifier_kaggle
I1220 02:04:05.259470 27628 net.cpp:380] loss3/loss3 <- label_data_1_split_2
I1220 02:04:05.259480 27628 net.cpp:338] loss3/loss3 -> loss3/loss3
I1220 02:04:05.259495 27628 net.cpp:113] Setting up loss3/loss3
…
I1220 02:04:05.267058 27628 net.cpp:257] The NetState phase (1) differed from the phase (0) specified by a rule in layer data
I1220 02:04:05.268808 27628 net.cpp:42] Initializing net from parameters: 
name: "MYNET"
state {
  phase: TEST
}
layer {
  name: "data"
  type: "ImageData"
  top: "data"
  top: "label"
  include {
    phase: TEST
  }
  transform_param {
    mirror: false
    crop_size: 224
    mean_value: 129
    mean_value: 129
    mean_value: 129
  }
  image_data_param {
    source: "/home/coldmanck/kaggle/label_val_full.txt"
    batch_size: 50
    shuffle: true
  }
}
layer {
  name: "conv1/7x7_s2"
  type: "Convolution"
  bottom: "data"
  top: "conv1/7x7_s2"
  param {
    lr_mult: 1
    decay_mult: 1
  }
  param {
    lr_mult: 2
    decay_mult: 0
  }
  convolution_param {
    num_output: 64
    pad: 3
    kernel_size: 7
    stride: 2
    weight_filler {
      type: "xavier"
    }
    bias_filler {
      type: "constant"
      value: 0.2
    }
  }
}
layer {
  name: "conv1/relu_7x7"
  type: "ReLU"
  bottom: "conv1/7x7_s2"
  top: "conv1/7x7_s2"
}
layer {
  name: "pool1/3x3_s2"
  type: "Pooling"
  bottom: "conv1/7x7_s2"
  top: "pool1/3x3_s2"
  pooling_param {
    pool: MAX
    kernel_size: 3
    stride: 2
  }
}
layer {
  name: "pool1/norm1"
  type: "LRN"
  bottom: "pool1/3x3_s2"
  top: "pool1/norm1"
  lrn_param {
    local_size: 5
    alpha: 0.0001
    beta: 0.75
  }
}
layer {
  name: "conv2/3x3_reduce"
  type: "Convolution"
  bottom: "pool1/norm1"
  top: "conv2/3x3_reduce"
  param {
    lr_mult: 1
    decay_mult: 1
  }
  param {
    lr_mult: 2
    decay_mult: 0
  }
  convolution_param {
    num_output: 64
    kernel_size: 1
    weight_filler {
      type: "xavier"
    }
    bias_filler {
      type: "constant"
      value: 0.2
    }
  }
}
layer {
  name: "conv2/relu_3x3_reduce"
  type: "ReLU"
  bottom: "conv2/3x3_reduce"
  top: "conv2/3x3_reduce"
}
layer {
  name: "conv2/3x3"
  type: "Convolution"
  bottom: "conv2/3x3_reduce"
  top: "conv2/3x3"
  param {
    lr_mult: 1
    decay_mult: 1
  }
  param {
    lr_mult: 2
    decay_mult: 0
  }
  convolution_param {
    num_output: 192
    pad: 1
    kernel_size: 3
    weight_filler {
      type: "xavier"
    }
    bias_filler {
      type: "constant"
      value: 0.2
    }
  }
}
layer {
  name: "conv2/relu_3x3"
  type: "ReLU"
  bottom: "conv2/3x3"
  top: "conv2/3x3"
}
layer {
  name: "conv2/norm2"
  type: "LRN"
  bottom: "conv2/3x3"
  top: "conv2/norm2"
  lrn_param {
    local_size: 5
    alpha: 0.0001
    beta: 0.75
  }
}
layer {
  name: "pool2/3x3_s2"
  type: "Pooling"
  bottom: "conv2/norm2"
  top: "pool2/3x3_s2"
  pooling_param {
    pool: MAX
    kernel_size: 3
    stride: 2
  }
}
layer {
  name: "inception_3a/1x1"
  type: "Convolution"
  bottom: "pool2/3x3_s2"
  top: "inception_3a/1x1"
  param {
    lr_mult: 1
    decay_mult: 1
  }
  param {
    lr_mult: 2
    decay_mult: 0
  }
  convolution_param {
    num_output: 64
    kernel_size: 1
    weight_filler {
      type: "xavier"
    }
    bias_filler {
      type: "constant"
      value: 0.2
    }
  }
}
layer {
  name: "inception_3a/relu_1x1"
  type: "ReLU"
  bottom: "inception_3a/1x1"
  top: "inception_3a/1x1"
}
layer {
  name: "inception_3a/3x3_reduce"
  type: "Convolution"
  bottom: "pool2/3x3_s2"
  top: "inception_3a/3x3_reduce"
  param {
    lr_mult: 1
    decay_mult: 1
  }
  param {
    lr_mult: 2
    decay_mult: 0
  }
  convolution_param {
    num_output: 96
    kernel_size: 1
    weight_filler {
      type: "xavier"
    }
    bias_filler {
      type: "constant"
      value: 0.2
    }
  }
}
layer {
  name: "inception_3a/relu_3x3_reduce"
  type: "ReLU"
  bottom: "inception_3a/3x3_reduce"
  top: "inception_3a/3x3_reduce"
}
layer {
  name: "inception_3a/3x3"
  type: "Convolution"
  bottom: "inception_3a/3x3_reduce"
  top: "inception_3a/3x3"
  param {
    lr_mult: 1
    decay_mult: 1
  }
  param {
    lr_mult: 2
    decay_mult: 0
  }
  convolution_param {
    num_output: 128
    pad: 1
    kernel_size: 3
    weight_filler {
      type: "xavier"
    }
    bias_filler {
      type: "constant"
      value: 0.2
    }
  }
}
layer {
  name: "inception_3a/relu_3x3"
  type: "ReLU"
  bottom: "inception_3a/3x3"
  top: "inception_3a/3x3"
}
layer {
  name: "inception_3a/5x5_reduce"
  type: "Convolution"
  bottom: "pool2/3x3_s2"
  top: "inception_3a/5x5_reduce"
  param {
    lr_mult: 1
    decay_mult: 1
  }
  param {
    lr_mult: 2
    decay_mult: 0
  }
  convolution_param {
    num_output: 16
    kernel_size: 1
    weight_filler {
      type: "xavier"
    }
    bias_filler {
      type: "constant"
      value: 0.2
    }
  }
}
layer {
  name: "inception_3a/relu_5x5_reduce"
  type: "ReLU"
  bottom: "inception_3a/5x5_reduce"
  top: "inception_3a/5x5_reduce"
}
layer {
  name: "inception_3a/5x5"
  type: "Convolution"
  bottom: "inception_3a/5x5_reduce"
  top: "inception_3a/5x5"
  param {
    lr_mult: 1
    decay_mult: 1
  }
  param {
    lr_mult: 2
    decay_mult: 0
  }
  convolution_param {
    num_output: 32
    pad: 2
    kernel_size: 5
    weight_filler {
      type: "xavier"
    }
    bias_filler {
      type: "constant"
      value: 0.2
    }
  }
}
layer {
  name: "inception_3a/relu_5x5"
  type: "ReLU"
  bottom: "inception_3a/5x5"
  top: "inception_3a/5x5"
}
layer {
  name: "inception_3a/pool"
  type: "Pooling"
  bottom: "pool2/3x3_s2"
  top: "inception_3a/pool"
  pooling_param {
    pool: MAX
    kernel_size: 3
    stride: 1
    pad: 1
  }
}
layer {
  name: "inception_3a/pool_proj"
  type: "Convolution"
  bottom: "inception_3a/pool"
  top: "inception_3a/pool_proj"
  param {
    lr_mult: 1
    decay_mult: 1
  }
  param {
    lr_mult: 2
    decay_mult: 0
  }
  convolution_param {
    num_output: 32
    kernel_size: 1
    weight_filler {
      type: "xavier"
    }
    bias_filler {
      type: "constant"
      value: 0.2
    }
  }
}
layer {
  name: "inception_3a/relu_pool_proj"
  type: "ReLU"
  bottom: "inception_3a/pool_proj"
  top: "inception_3a/pool_proj"
}
layer {
  name: "inception_3a/output"
  type: "Concat"
  bottom: "inception_3a/1x1"
  bottom: "inception_3a/3x3"
  bottom: "inception_3a/5x5"
  bottom: "inception_3a/pool_proj"
  top: "inception_3a/output"
}
layer {
  name: "inception_3b/1x1"
  type: "Convolution"
  bottom: "inception_3a/output"
  top: "inception_3b/1x1"
  param {
    lr_mult: 1
    decay_mult: 1
  }
  param {
    lr_mult: 2
    decay_mult: 0
  }
  convolution_param {
    num_output: 128
    kernel_size: 1
    weight_filler {
      type: "xavier"
    }
    bias_filler {
      type: "constant"
      value: 0.2
    }
  }
}
layer {
  name: "inception_3b/relu_1x1"
  type: "ReLU"
  bottom: "inception_3b/1x1"
  top: "inception_3b/1x1"
}
layer {
  name: "inception_3b/3x3_reduce"
  type: "Convolution"
  bottom: "inception_3a/output"
  top: "inception_3b/3x3_reduce"
  param {
    lr_mult: 1
    decay_mult: 1
  }
  param {
    lr_mult: 2
    decay_mult: 0
  }
  convolution_param {
    num_output: 128
    kernel_size: 1
    weight_filler {
      type: "xavier"
    }
    bias_filler {
      type: "constant"
      value: 0.2
    }
  }
}
layer {
  name: "inception_3b/relu_3x3_reduce"
  type: "ReLU"
  bottom: "inception_3b/3x3_reduce"
  top: "inception_3b/3x3_reduce"
}
layer {
  name: "inception_3b/3x3"
  type: "Convolution"
  bottom: "inception_3b/3x3_reduce"
  top: "inception_3b/3x3"
  param {
    lr_mult: 1
    decay_mult: 1
  }
  param {
    lr_mult: 2
    decay_mult: 0
  }
  convolution_param {
    num_output: 192
    pad: 1
    kernel_size: 3
    weight_filler {
      type: "xavier"
    }
    bias_filler {
      type: "constant"
      value: 0.2
    }
  }
}
layer {
  name: "inception_3b/relu_3x3"
  type: "ReLU"
  bottom: "inception_3b/3x3"
  top: "inception_3b/3x3"
}
layer {
  name: "inception_3b/5x5_reduce"
  type: "Convolution"
  bottom: "inception_3a/output"
  top: "inception_3b/5x5_reduce"
  param {
    lr_mult: 1
    decay_mult: 1
  }
  param {
    lr_mult: 2
    decay_mult: 0
  }
  convolution_param {
    num_output: 32
    kernel_size: 1
    weight_filler {
      type: "xavier"
    }
    bias_filler {
      type: "constant"
      value: 0.2
    }
  }
}
layer {
  name: "inception_3b/relu_5x5_reduce"
  type: "ReLU"
  bottom: "inception_3b/5x5_reduce"
  top: "inception_3b/5x5_reduce"
}
layer {
  name: "inception_3b/5x5"
  type: "Convolution"
  bottom: "inception_3b/5x5_reduce"
  top: "inception_3b/5x5"
  param {
    lr_mult: 1
    decay_mult: 1
  }
  param {
    lr_mult: 2
    decay_mult: 0
  }
  convolution_param {
    num_output: 96
    pad: 2
    kernel_size: 5
    weight_filler {
      type: "xavier"
    }
    bias_filler {
      type: "constant"
      value: 0.2
    }
  }
}
layer {
  name: "inception_3b/relu_5x5"
  type: "ReLU"
  bottom: "inception_3b/5x5"
  top: "inception_3b/5x5"
}
layer {
  name: "inception_3b/pool"
  type: "Pooling"
  bottom: "inception_3a/output"
  top: "inception_3b/pool"
  pooling_param {
    pool: MAX
    kernel_size: 3
    stride: 1
    pad: 1
  }
}
layer {
  name: "inception_3b/pool_proj"
  type: "Convolution"
  bottom: "inception_3b/pool"
  top: "inception_3b/pool_proj"
  param {
    lr_mult: 1
    decay_mult: 1
  }
  param {
    lr_mult: 2
    decay_mult: 0
  }
  convolution_param {
    num_output: 64
    kernel_size: 1
    weight_filler {
      type: "xavier"
    }
    bias_filler {
      type: "constant"
      value: 0.2
    }
  }
}
layer {
  name: "inception_3b/relu_pool_proj"
  type: "ReLU"
  bottom: "inception_3b/pool_proj"
  top: "inception_3b/pool_proj"
}
layer {
  name: "inception_3b/output"
  type: "Concat"
  bottom: "inception_3b/1x1"
  bottom: "inception_3b/3x3"
  bottom: "inception_3b/5x5"
  bottom: "inception_3b/pool_proj"
  top: "inception_3b/output"
}
layer {
  name: "pool3/3x3_s2"
  type: "Pooling"
  bottom: "inception_3b/output"
  top: "pool3/3x3_s2"
  pooling_param {
    pool: MAX
    kernel_size: 3
    stride: 2
  }
}
layer {
  name: "inception_4a/1x1"
  type: "Convolution"
  bottom: "pool3/3x3_s2"
  top: "inception_4a/1x1"
  param {
    lr_mult: 1
    decay_mult: 1
  }
  param {
    lr_mult: 2
    decay_mult: 0
  }
  convolution_param {
    num_output: 192
    kernel_size: 1
    weight_filler {
      type: "xavier"
    }
    bias_filler {
      type: "constant"
      value: 0.2
    }
  }
}
layer {
  name: "inception_4a/relu_1x1"
  type: "ReLU"
  bottom: "inception_4a/1x1"
  top: "inception_4a/1x1"
}
layer {
  name: "inception_4a/3x3_reduce"
  type: "Convolution"
  bottom: "pool3/3x3_s2"
  top: "inception_4a/3x3_reduce"
  param {
    lr_mult: 1
    decay_mult: 1
  }
  param {
    lr_mult: 2
    decay_mult: 0
  }
  convolution_param {
    num_output: 96
    kernel_size: 1
    weight_filler {
      type: "xavier"
    }
    bias_filler {
      type: "constant"
      value: 0.2
    }
  }
}
layer {
  name: "inception_4a/relu_3x3_reduce"
  type: "ReLU"
  bottom: "inception_4a/3x3_reduce"
  top: "inception_4a/3x3_reduce"
}
layer {
  name: "inception_4a/3x3"
  type: "Convolution"
  bottom: "inception_4a/3x3_reduce"
  top: "inception_4a/3x3"
  param {
    lr_mult: 1
    decay_mult: 1
  }
  param {
    lr_mult: 2
    decay_mult: 0
  }
  convolution_param {
    num_output: 208
    pad: 1
    kernel_size: 3
    weight_filler {
      type: "xavier"
    }
    bias_filler {
      type: "constant"
      value: 0.2
    }
  }
}
layer {
  name: "inception_4a/relu_3x3"
  type: "ReLU"
  bottom: "inception_4a/3x3"
  top: "inception_4a/3x3"
}
layer {
  name: "inception_4a/5x5_reduce"
  type: "Convolution"
  bottom: "pool3/3x3_s2"
  top: "inception_4a/5x5_reduce"
  param {
    lr_mult: 1
    decay_mult: 1
  }
  param {
    lr_mult: 2
    decay_mult: 0
  }
  convolution_param {
    num_output: 16
    kernel_size: 1
    weight_filler {
      type: "xavier"
    }
    bias_filler {
      type: "constant"
      value: 0.2
    }
  }
}
layer {
  name: "inception_4a/relu_5x5_reduce"
  type: "ReLU"
  bottom: "inception_4a/5x5_reduce"
  top: "inception_4a/5x5_reduce"
}
layer {
  name: "inception_4a/5x5"
  type: "Convolution"
  bottom: "inception_4a/5x5_reduce"
  top: "inception_4a/5x5"
  param {
    lr_mult: 1
    decay_mult: 1
  }
  param {
    lr_mult: 2
    decay_mult: 0
  }
  convolution_param {
    num_output: 48
    pad: 2
    kernel_size: 5
    weight_filler {
      type: "xavier"
    }
    bias_filler {
      type: "constant"
      value: 0.2
    }
  }
}
layer {
  name: "inception_4a/relu_5x5"
  type: "ReLU"
  bottom: "inception_4a/5x5"
  top: "inception_4a/5x5"
}
layer {
  name: "inception_4a/pool"
  type: "Pooling"
  bottom: "pool3/3x3_s2"
  top: "inception_4a/pool"
  pooling_param {
    pool: MAX
    kernel_size: 3
    stride: 1
    pad: 1
  }
}
layer {
  name: "inception_4a/pool_proj"
  type: "Convolution"
  bottom: "inception_4a/pool"
  top: "inception_4a/pool_proj"
  param {
    lr_mult: 1
    decay_mult: 1
  }
  param {
    lr_mult: 2
    decay_mult: 0
  }
  convolution_param {
    num_output: 64
    kernel_size: 1
    weight_filler {
      type: "xavier"
    }
    bias_filler {
      type: "constant"
      value: 0.2
    }
  }
}
layer {
  name: "inception_4a/relu_pool_proj"
  type: "ReLU"
  bottom: "inception_4a/pool_proj"
  top: "inception_4a/pool_proj"
}
layer {
  name: "inception_4a/output"
  type: "Concat"
  bottom: "inception_4a/1x1"
  bottom: "inception_4a/3x3"
  bottom: "inception_4a/5x5"
  bottom: "inception_4a/pool_proj"
  top: "inception_4a/output"
}
layer {
  name: "loss1/ave_pool"
  type: "Pooling"
  bottom: "inception_4a/output"
  top: "loss1/ave_pool"
  pooling_param {
    pool: AVE
    kernel_size: 5
    stride: 3
  }
}
layer {
  name: "loss1/conv"
  type: "Convolution"
  bottom: "loss1/ave_pool"
  top: "loss1/conv"
  param {
    lr_mult: 1
    decay_mult: 1
  }
  param {
    lr_mult: 2
    decay_mult: 0
  }
  convolution_param {
    num_output: 128
    kernel_size: 1
    weight_filler {
      type: "xavier"
    }
    bias_filler {
      type: "constant"
      value: 0.2
    }
  }
}
layer {
  name: "loss1/relu_conv"
  type: "ReLU"
  bottom: "loss1/conv"
  top: "loss1/conv"
}
layer {
  name: "loss1/fc"
  type: "InnerProduct"
  bottom: "loss1/conv"
  top: "loss1/fc"
  param {
    lr_mult: 1
    decay_mult: 1
  }
  param {
    lr_mult: 2
    decay_mult: 0
  }
  inner_product_param {
    num_output: 1024
    weight_filler {
      type: "xavier"
    }
    bias_filler {
      type: "constant"
      value: 0.2
    }
  }
}
layer {
  name: "loss1/relu_fc"
  type: "ReLU"
  bottom: "loss1/fc"
  top: "loss1/fc"
}
layer {
  name: "loss1/drop_fc"
  type: "Dropout"
  bottom: "loss1/fc"
  top: "loss1/fc"
  dropout_param {
    dropout_ratio: 0.7
  }
}
layer {
  name: "loss1/classifier_kaggle"
  type: "InnerProduct"
  bottom: "loss1/fc"
  top: "loss1/classifier_kaggle"
  param {
    lr_mult: 1
    decay_mult: 1
  }
  param {
    lr_mult: 2
    decay_mult: 0
  }
  inner_product_param {
    num_output: 447
    weight_filler {
      type: "xavier"
    }
    bias_filler {
      type: "constant"
      value: 0
    }
  }
}
layer {
  name: "loss1/loss"
  type: "SoftmaxWithLoss"
  bottom: "loss1/classifier_kaggle"
  bottom: "label"
  top: "loss1/loss1"
  loss_weight: 0.3
}
layer {
  name: "loss1/top-1"
  type: "Accuracy"
  bottom: "loss1/classifier_kaggle"
  bottom: "label"
  top: "loss1/top-1"
  include {
    phase: TEST
  }
}
layer {
  name: "loss1/top-5"
  type: "Accuracy"
  bottom: "loss1/classifier_kaggle"
  bottom: "label"
  top: "loss1/top-5"
  include {
    phase: TEST
  }
  accuracy_param {
    top_k: 5
  }
}
layer {
  name: "inception_4b/1x1"
  type: "Convolution"
  bottom: "inception_4a/output"
  top: "inception_4b/1x1"
  param {
    lr_mult: 1
    decay_mult: 1
  }
  param {
    lr_mult: 2
    decay_mult: 0
  }
  convolution_param {
    num_output: 160
    kernel_size: 1
    weight_filler {
      type: "xavier"
    }
    bias_filler {
      type: "constant"
      value: 0.2
    }
  }
}
layer {
  name: "inception_4b/relu_1x1"
  type: "ReLU"
  bottom: "inception_4b/1x1"
  top: "inception_4b/1x1"
}
layer {
  name: "inception_4b/3x3_reduce"
  type: "Convolution"
  bottom: "inception_4a/output"
  top: "inception_4b/3x3_reduce"
  param {
    lr_mult: 1
    decay_mult: 1
  }
  param {
    lr_mult: 2
    decay_mult: 0
  }
  convolution_param {
    num_output: 112
    kernel_size: 1
    weight_filler {
      type: "xavier"
    }
    bias_filler {
      type: "constant"
      value: 0.2
    }
  }
}
layer {
  name: "inception_4b/relu_3x3_reduce"
  type: "ReLU"
  bottom: "inception_4b/3x3_reduce"
  top: "inception_4b/3x3_reduce"
}
layer {
  name: "inception_4b/3x3"
  type: "Convolution"
  bottom: "inception_4b/3x3_reduce"
  top: "inception_4b/3x3"
  param {
    lr_mult: 1
    decay_mult: 1
  }
  param {
    lr_mult: 2
    decay_mult: 0
  }
  convolution_param {
    num_output: 224
    pad: 1
    kernel_size: 3
    weight_filler {
      type: "xavier"
    }
    bias_filler {
      type: "constant"
      value: 0.2
    }
  }
}
layer {
  name: "inception_4b/relu_3x3"
  type: "ReLU"
  bottom: "inception_4b/3x3"
  top: "inception_4b/3x3"
}
layer {
  name: "inception_4b/5x5_reduce"
  type: "Convolution"
  bottom: "inception_4a/output"
  top: "inception_4b/5x5_reduce"
  param {
    lr_mult: 1
    decay_mult: 1
  }
  param {
    lr_mult: 2
    decay_mult: 0
  }
  convolution_param {
    num_output: 24
    kernel_size: 1
    weight_filler {
      type: "xavier"
    }
    bias_filler {
      type: "constant"
      value: 0.2
    }
  }
}
layer {
  name: "inception_4b/relu_5x5_reduce"
  type: "ReLU"
  bottom: "inception_4b/5x5_reduce"
  top: "inception_4b/5x5_reduce"
}
layer {
  name: "inception_4b/5x5"
  type: "Convolution"
  bottom: "inception_4b/5x5_reduce"
  top: "inception_4b/5x5"
  param {
    lr_mult: 1
    decay_mult: 1
  }
  param {
    lr_mult: 2
    decay_mult: 0
  }
  convolution_param {
    num_output: 64
    pad: 2
    kernel_size: 5
    weight_filler {
      type: "xavier"
    }
    bias_filler {
      type: "constant"
      value: 0.2
    }
  }
}
layer {
  name: "inception_4b/relu_5x5"
  type: "ReLU"
  bottom: "inception_4b/5x5"
  top: "inception_4b/5x5"
}
layer {
  name: "inception_4b/pool"
  type: "Pooling"
  bottom: "inception_4a/output"
  top: "inception_4b/pool"
  pooling_param {
    pool: MAX
    kernel_size: 3
    stride: 1
    pad: 1
  }
}
layer {
  name: "inception_4b/pool_proj"
  type: "Convolution"
  bottom: "inception_4b/pool"
  top: "inception_4b/pool_proj"
  param {
    lr_mult: 1
    decay_mult: 1
  }
  param {
    lr_mult: 2
    decay_mult: 0
  }
  convolution_param {
    num_output: 64
    kernel_size: 1
    weight_filler {
      type: "xavier"
    }
    bias_filler {
      type: "constant"
      value: 0.2
    }
  }
}
layer {
  name: "inception_4b/relu_pool_proj"
  type: "ReLU"
  bottom: "inception_4b/pool_proj"
  top: "inception_4b/pool_proj"
}
layer {
  name: "inception_4b/output"
  type: "Concat"
  bottom: "inception_4b/1x1"
  bottom: "inception_4b/3x3"
  bottom: "inception_4b/5x5"
  bottom: "inception_4b/pool_proj"
  top: "inception_4b/output"
}
layer {
  name: "inception_4c/1x1"
  type: "Convolution"
  bottom: "inception_4b/output"
  top: "inception_4c/1x1"
  param {
    lr_mult: 1
    decay_mult: 1
  }
  param {
    lr_mult: 2
    decay_mult: 0
  }
  convolution_param {
    num_output: 128
    kernel_size: 1
    weight_filler {
      type: "xavier"
    }
    bias_filler {
      type: "constant"
      value: 0.2
    }
  }
}
layer {
  name: "inception_4c/relu_1x1"
  type: "ReLU"
  bottom: "inception_4c/1x1"
  top: "inception_4c/1x1"
}
layer {
  name: "inception_4c/3x3_reduce"
  type: "Convolution"
  bottom: "inception_4b/output"
  top: "inception_4c/3x3_reduce"
  param {
    lr_mult: 1
    decay_mult: 1
  }
  param {
    lr_mult: 2
    decay_mult: 0
  }
  convolution_param {
    num_output: 128
    kernel_size: 1
    weight_filler {
      type: "xavier"
    }
    bias_filler {
      type: "constant"
      value: 0.2
    }
  }
}
layer {
  name: "inception_4c/relu_3x3_reduce"
  type: "ReLU"
  bottom: "inception_4c/3x3_reduce"
  top: "inception_4c/3x3_reduce"
}
layer {
  name: "inception_4c/3x3"
  type: "Convolution"
  bottom: "inception_4c/3x3_reduce"
  top: "inception_4c/3x3"
  param {
    lr_mult: 1
    decay_mult: 1
  }
  param {
    lr_mult: 2
    decay_mult: 0
  }
  convolution_param {
    num_output: 256
    pad: 1
    kernel_size: 3
    weight_filler {
      type: "xavier"
    }
    bias_filler {
      type: "constant"
      value: 0.2
    }
  }
}
layer {
  name: "inception_4c/relu_3x3"
  type: "ReLU"
  bottom: "inception_4c/3x3"
  top: "inception_4c/3x3"
}
layer {
  name: "inception_4c/5x5_reduce"
  type: "Convolution"
  bottom: "inception_4b/output"
  top: "inception_4c/5x5_reduce"
  param {
    lr_mult: 1
    decay_mult: 1
  }
  param {
    lr_mult: 2
    decay_mult: 0
  }
  convolution_param {
    num_output: 24
    kernel_size: 1
    weight_filler {
      type: "xavier"
    }
    bias_filler {
      type: "constant"
      value: 0.2
    }
  }
}
layer {
  name: "inception_4c/relu_5x5_reduce"
  type: "ReLU"
  bottom: "inception_4c/5x5_reduce"
  top: "inception_4c/5x5_reduce"
}
layer {
  name: "inception_4c/5x5"
  type: "Convolution"
  bottom: "inception_4c/5x5_reduce"
  top: "inception_4c/5x5"
  param {
    lr_mult: 1
    decay_mult: 1
  }
  param {
    lr_mult: 2
    decay_mult: 0
  }
  convolution_param {
    num_output: 64
    pad: 2
    kernel_size: 5
    weight_filler {
      type: "xavier"
    }
    bias_filler {
      type: "constant"
      value: 0.2
    }
  }
}
layer {
  name: "inception_4c/relu_5x5"
  type: "ReLU"
  bottom: "inception_4c/5x5"
  top: "inception_4c/5x5"
}
layer {
  name: "inception_4c/pool"
  type: "Pooling"
  bottom: "inception_4b/output"
  top: "inception_4c/pool"
  pooling_param {
    pool: MAX
    kernel_size: 3
    stride: 1
    pad: 1
  }
}
layer {
  name: "inception_4c/pool_proj"
  type: "Convolution"
  bottom: "inception_4c/pool"
  top: "inception_4c/pool_proj"
  param {
    lr_mult: 1
    decay_mult: 1
  }
  param {
    lr_mult: 2
    decay_mult: 0
  }
  convolution_param {
    num_output: 64
    kernel_size: 1
    weight_filler {
      type: "xavier"
    }
    bias_filler {
      type: "constant"
      value: 0.2
    }
  }
}
layer {
  name: "inception_4c/relu_pool_proj"
  type: "ReLU"
  bottom: "inception_4c/pool_proj"
  top: "inception_4c/pool_proj"
}
layer {
  name: "inception_4c/output"
  type: "Concat"
  bottom: "inception_4c/1x1"
  bottom: "inception_4c/3x3"
  bottom: "inception_4c/5x5"
  bottom: "inception_4c/pool_proj"
  top: "inception_4c/output"
}
layer {
  name: "inception_4d/1x1"
  type: "Convolution"
  bottom: "inception_4c/output"
  top: "inception_4d/1x1"
  param {
    lr_mult: 1
    decay_mult: 1
  }
  param {
    lr_mult: 2
    decay_mult: 0
  }
  convolution_param {
    num_output: 112
    kernel_size: 1
    weight_filler {
      type: "xavier"
    }
    bias_filler {
      type: "constant"
      value: 0.2
    }
  }
}
layer {
  name: "inception_4d/relu_1x1"
  type: "ReLU"
  bottom: "inception_4d/1x1"
  top: "inception_4d/1x1"
}
layer {
  name: "inception_4d/3x3_reduce"
  type: "Convolution"
  bottom: "inception_4c/output"
  top: "inception_4d/3x3_reduce"
  param {
    lr_mult: 1
    decay_mult: 1
  }
  param {
    lr_mult: 2
    decay_mult: 0
  }
  convolution_param {
    num_output: 144
    kernel_size: 1
    weight_filler {
      type: "xavier"
    }
    bias_filler {
      type: "constant"
      value: 0.2
    }
  }
}
layer {
  name: "inception_4d/relu_3x3_reduce"
  type: "ReLU"
  bottom: "inception_4d/3x3_reduce"
  top: "inception_4d/3x3_reduce"
}
layer {
  name: "inception_4d/3x3"
  type: "Convolution"
  bottom: "inception_4d/3x3_reduce"
  top: "inception_4d/3x3"
  param {
    lr_mult: 1
    decay_mult: 1
  }
  param {
    lr_mult: 2
    decay_mult: 0
  }
  convolution_param {
    num_output: 288
    pad: 1
    kernel_size: 3
    weight_filler {
      type: "xavier"
    }
    bias_filler {
      type: "constant"
      value: 0.2
    }
  }
}
layer {
  name: "inception_4d/relu_3x3"
  type: "ReLU"
  bottom: "inception_4d/3x3"
  top: "inception_4d/3x3"
}
layer {
  name: "inception_4d/5x5_reduce"
  type: "Convolution"
  bottom: "inception_4c/output"
  top: "inception_4d/5x5_reduce"
  param {
    lr_mult: 1
    decay_mult: 1
  }
  param {
    lr_mult: 2
    decay_mult: 0
  }
  convolution_param {
    num_output: 32
    kernel_size: 1
    weight_filler {
      type: "xavier"
    }
    bias_filler {
      type: "constant"
      value: 0.2
    }
  }
}
layer {
  name: "inception_4d/relu_5x5_reduce"
  type: "ReLU"
  bottom: "inception_4d/5x5_reduce"
  top: "inception_4d/5x5_reduce"
}
layer {
  name: "inception_4d/5x5"
  type: "Convolution"
  bottom: "inception_4d/5x5_reduce"
  top: "inception_4d/5x5"
  param {
    lr_mult: 1
    decay_mult: 1
  }
  param {
    lr_mult: 2
    decay_mult: 0
  }
  convolution_param {
    num_output: 64
    pad: 2
    kernel_size: 5
    weight_filler {
      type: "xavier"
    }
    bias_filler {
      type: "constant"
      value: 0.2
    }
  }
}
layer {
  name: "inception_4d/relu_5x5"
  type: "ReLU"
  bottom: "inception_4d/5x5"
  top: "inception_4d/5x5"
}
layer {
  name: "inception_4d/pool"
  type: "Pooling"
  bottom: "inception_4c/output"
  top: "inception_4d/pool"
  pooling_param {
    pool: MAX
    kernel_size: 3
    stride: 1
    pad: 1
  }
}
layer {
  name: "inception_4d/pool_proj"
  type: "Convolution"
  bottom: "inception_4d/pool"
  top: "inception_4d/pool_proj"
  param {
    lr_mult: 1
    decay_mult: 1
  }
  param {
    lr_mult: 2
    decay_mult: 0
  }
  convolution_param {
    num_output: 64
    kernel_size: 1
    weight_filler {
      type: "xavier"
    }
    bias_filler {
      type: "constant"
      value: 0.2
    }
  }
}
layer {
  name: "inception_4d/relu_pool_proj"
  type: "ReLU"
  bottom: "inception_4d/pool_proj"
  top: "inception_4d/pool_proj"
}
layer {
  name: "inception_4d/output"
  type: "Concat"
  bottom: "inception_4d/1x1"
  bottom: "inception_4d/3x3"
  bottom: "inception_4d/5x5"
  bottom: "inception_4d/pool_proj"
  top: "inception_4d/output"
}
layer {
  name: "loss2/ave_pool"
  type: "Pooling"
  bottom: "inception_4d/output"
  top: "loss2/ave_pool"
  pooling_param {
    pool: AVE
    kernel_size: 5
    stride: 3
  }
}
layer {
  name: "loss2/conv"
  type: "Convolution"
…
I1220 02:04:05.373674 27628 net.cpp:84] Creating Layer inception_4c/1x1
I1220 02:04:05.373679 27628 net.cpp:380] inception_4c/1x1 <- inception_4b/output_inception_4b/output_0_split_0
I1220 02:04:05.373688 27628 net.cpp:338] inception_4c/1x1 -> inception_4c/1x1
I1220 02:04:05.373697 27628 net.cpp:113] Setting up inception_4c/1x1
I1220 02:04:05.375246 27628 net.cpp:120] Top shape: 50 128 14 14 (1254400)
I1220 02:04:05.375263 27628 layer_factory.hpp:74] Creating layer inception_4c/relu_1x1
I1220 02:04:05.375272 27628 net.cpp:84] Creating Layer inception_4c/relu_1x1
I1220 02:04:05.375278 27628 net.cpp:380] inception_4c/relu_1x1 <- inception_4c/1x1
I1220 02:04:05.375288 27628 net.cpp:327] inception_4c/relu_1x1 -> inception_4c/1x1 (in-place)
I1220 02:04:05.375295 27628 net.cpp:113] Setting up inception_4c/relu_1x1
I1220 02:04:05.377012 27628 net.cpp:120] Top shape: 50 128 14 14 (1254400)
I1220 02:04:05.377109 27628 layer_factory.hpp:74] Creating layer inception_4c/3x3_reduce
I1220 02:04:05.377135 27628 net.cpp:84] Creating Layer inception_4c/3x3_reduce
I1220 02:04:05.377151 27628 net.cpp:380] inception_4c/3x3_reduce <- inception_4b/output_inception_4b/output_0_split_1
I1220 02:04:05.377173 27628 net.cpp:338] inception_4c/3x3_reduce -> inception_4c/3x3_reduce
I1220 02:04:05.377197 27628 net.cpp:113] Setting up inception_4c/3x3_reduce
I1220 02:04:05.380013 27628 net.cpp:120] Top shape: 50 128 14 14 (1254400)
I1220 02:04:05.380050 27628 layer_factory.hpp:74] Creating layer inception_4c/relu_3x3_reduce
I1220 02:04:05.380072 27628 net.cpp:84] Creating Layer inception_4c/relu_3x3_reduce
I1220 02:04:05.380084 27628 net.cpp:380] inception_4c/relu_3x3_reduce <- inception_4c/3x3_reduce
I1220 02:04:05.380100 27628 net.cpp:327] inception_4c/relu_3x3_reduce -> inception_4c/3x3_reduce (in-place)
I1220 02:04:05.380120 27628 net.cpp:113] Setting up inception_4c/relu_3x3_reduce
I1220 02:04:05.380260 27628 net.cpp:120] Top shape: 50 128 14 14 (1254400)
I1220 02:04:05.380273 27628 layer_factory.hpp:74] Creating layer inception_4c/3x3
I1220 02:04:05.380291 27628 net.cpp:84] Creating Layer inception_4c/3x3
I1220 02:04:05.380302 27628 net.cpp:380] inception_4c/3x3 <- inception_4c/3x3_reduce
I1220 02:04:05.380319 27628 net.cpp:338] inception_4c/3x3 -> inception_4c/3x3
I1220 02:04:05.380336 27628 net.cpp:113] Setting up inception_4c/3x3
I1220 02:04:05.392947 27628 net.cpp:120] Top shape: 50 256 14 14 (2508800)
I1220 02:04:05.393025 27628 layer_factory.hpp:74] Creating layer inception_4c/relu_3x3
I1220 02:04:05.393048 27628 net.cpp:84] Creating Layer inception_4c/relu_3x3
I1220 02:04:05.393074 27628 net.cpp:380] inception_4c/relu_3x3 <- inception_4c/3x3
I1220 02:04:05.393092 27628 net.cpp:327] inception_4c/relu_3x3 -> inception_4c/3x3 (in-place)
I1220 02:04:05.393110 27628 net.cpp:113] Setting up inception_4c/relu_3x3
I1220 02:04:05.393242 27628 net.cpp:120] Top shape: 50 256 14 14 (2508800)
I1220 02:04:05.393254 27628 layer_factory.hpp:74] Creating layer inception_4c/5x5_reduce
I1220 02:04:05.393270 27628 net.cpp:84] Creating Layer inception_4c/5x5_reduce
I1220 02:04:05.393280 27628 net.cpp:380] inception_4c/5x5_reduce <- inception_4b/output_inception_4b/output_0_split_2
I1220 02:04:05.393296 27628 net.cpp:338] inception_4c/5x5_reduce -> inception_4c/5x5_reduce
I1220 02:04:05.393312 27628 net.cpp:113] Setting up inception_4c/5x5_reduce
I1220 02:04:05.402926 27628 net.cpp:120] Top shape: 50 24 14 14 (235200)
I1220 02:04:05.403022 27628 layer_factory.hpp:74] Creating layer inception_4c/relu_5x5_reduce
I1220 02:04:05.403050 27628 net.cpp:84] Creating Layer inception_4c/relu_5x5_reduce
I1220 02:04:05.403070 27628 net.cpp:380] inception_4c/relu_5x5_reduce <- inception_4c/5x5_reduce
I1220 02:04:05.403094 27628 net.cpp:327] inception_4c/relu_5x5_reduce -> inception_4c/5x5_reduce (in-place)
I1220 02:04:05.403115 27628 net.cpp:113] Setting up inception_4c/relu_5x5_reduce
I1220 02:04:05.404088 27628 net.cpp:120] Top shape: 50 24 14 14 (235200)
I1220 02:04:05.404115 27628 layer_factory.hpp:74] Creating layer inception_4c/5x5
I1220 02:04:05.404148 27628 net.cpp:84] Creating Layer inception_4c/5x5
I1220 02:04:05.404163 27628 net.cpp:380] inception_4c/5x5 <- inception_4c/5x5_reduce
I1220 02:04:05.404187 27628 net.cpp:338] inception_4c/5x5 -> inception_4c/5x5
I1220 02:04:05.404214 27628 net.cpp:113] Setting up inception_4c/5x5
I1220 02:04:05.406265 27628 net.cpp:120] Top shape: 50 64 14 14 (627200)
I1220 02:04:05.406302 27628 layer_factory.hpp:74] Creating layer inception_4c/relu_5x5
I1220 02:04:05.406324 27628 net.cpp:84] Creating Layer inception_4c/relu_5x5
I1220 02:04:05.406339 27628 net.cpp:380] inception_4c/relu_5x5 <- inception_4c/5x5
I1220 02:04:05.406357 27628 net.cpp:327] inception_4c/relu_5x5 -> inception_4c/5x5 (in-place)
I1220 02:04:05.406374 27628 net.cpp:113] Setting up inception_4c/relu_5x5
I1220 02:04:05.406529 27628 net.cpp:120] Top shape: 50 64 14 14 (627200)
I1220 02:04:05.406575 27628 layer_factory.hpp:74] Creating layer inception_4c/pool
I1220 02:04:05.406610 27628 layer_factory.cpp:56] CUDNN does not support padding or multiple tops. Using Caffe's own pooling layer.
I1220 02:04:05.406631 27628 net.cpp:84] Creating Layer inception_4c/pool
I1220 02:04:05.406646 27628 net.cpp:380] inception_4c/pool <- inception_4b/output_inception_4b/output_0_split_3
I1220 02:04:05.406663 27628 net.cpp:338] inception_4c/pool -> inception_4c/pool
I1220 02:04:05.406685 27628 net.cpp:113] Setting up inception_4c/pool
I1220 02:04:05.406707 27628 net.cpp:120] Top shape: 50 512 14 14 (5017600)
I1220 02:04:05.406716 27628 layer_factory.hpp:74] Creating layer inception_4c/pool_proj
I1220 02:04:05.406734 27628 net.cpp:84] Creating Layer inception_4c/pool_proj
I1220 02:04:05.406745 27628 net.cpp:380] inception_4c/pool_proj <- inception_4c/pool
I1220 02:04:05.406765 27628 net.cpp:338] inception_4c/pool_proj -> inception_4c/pool_proj
I1220 02:04:05.406785 27628 net.cpp:113] Setting up inception_4c/pool_proj
I1220 02:04:05.408457 27628 net.cpp:120] Top shape: 50 64 14 14 (627200)
I1220 02:04:05.408493 27628 layer_factory.hpp:74] Creating layer inception_4c/relu_pool_proj
I1220 02:04:05.408509 27628 net.cpp:84] Creating Layer inception_4c/relu_pool_proj
I1220 02:04:05.408521 27628 net.cpp:380] inception_4c/relu_pool_proj <- inception_4c/pool_proj
I1220 02:04:05.408538 27628 net.cpp:327] inception_4c/relu_pool_proj -> inception_4c/pool_proj (in-place)
I1220 02:04:05.408555 27628 net.cpp:113] Setting up inception_4c/relu_pool_proj
I1220 02:04:05.408709 27628 net.cpp:120] Top shape: 50 64 14 14 (627200)
I1220 02:04:05.408725 27628 layer_factory.hpp:74] Creating layer inception_4c/output
I1220 02:04:05.408740 27628 net.cpp:84] Creating Layer inception_4c/output
I1220 02:04:05.408752 27628 net.cpp:380] inception_4c/output <- inception_4c/1x1
I1220 02:04:05.408766 27628 net.cpp:380] inception_4c/output <- inception_4c/3x3
I1220 02:04:05.408778 27628 net.cpp:380] inception_4c/output <- inception_4c/5x5
I1220 02:04:05.408790 27628 net.cpp:380] inception_4c/output <- inception_4c/pool_proj
I1220 02:04:05.408805 27628 net.cpp:338] inception_4c/output -> inception_4c/output
I1220 02:04:05.408821 27628 net.cpp:113] Setting up inception_4c/output
I1220 02:04:05.408841 27628 net.cpp:120] Top shape: 50 512 14 14 (5017600)
I1220 02:04:05.408854 27628 layer_factory.hpp:74] Creating layer inception_4c/output_inception_4c/output_0_split
I1220 02:04:05.408867 27628 net.cpp:84] Creating Layer inception_4c/output_inception_4c/output_0_split
I1220 02:04:05.408879 27628 net.cpp:380] inception_4c/output_inception_4c/output_0_split <- inception_4c/output
I1220 02:04:05.408896 27628 net.cpp:338] inception_4c/output_inception_4c/output_0_split -> inception_4c/output_inception_4c/output_0_split_0
I1220 02:04:05.408915 27628 net.cpp:338] inception_4c/output_inception_4c/output_0_split -> inception_4c/output_inception_4c/output_0_split_1
I1220 02:04:05.408933 27628 net.cpp:338] inception_4c/output_inception_4c/output_0_split -> inception_4c/output_inception_4c/output_0_split_2
I1220 02:04:05.408949 27628 net.cpp:338] inception_4c/output_inception_4c/output_0_split -> inception_4c/output_inception_4c/output_0_split_3
I1220 02:04:05.408963 27628 net.cpp:113] Setting up inception_4c/output_inception_4c/output_0_split
I1220 02:04:05.408983 27628 net.cpp:120] Top shape: 50 512 14 14 (5017600)
I1220 02:04:05.408996 27628 net.cpp:120] Top shape: 50 512 14 14 (5017600)
I1220 02:04:05.409009 27628 net.cpp:120] Top shape: 50 512 14 14 (5017600)
I1220 02:04:05.409021 27628 net.cpp:120] Top shape: 50 512 14 14 (5017600)
I1220 02:04:05.409031 27628 layer_factory.hpp:74] Creating layer inception_4d/1x1
I1220 02:04:05.409049 27628 net.cpp:84] Creating Layer inception_4d/1x1
I1220 02:04:05.409076 27628 net.cpp:380] inception_4d/1x1 <- inception_4c/output_inception_4c/output_0_split_0
I1220 02:04:05.409098 27628 net.cpp:338] inception_4d/1x1 -> inception_4d/1x1
I1220 02:04:05.409117 27628 net.cpp:113] Setting up inception_4d/1x1
I1220 02:04:05.411368 27628 net.cpp:120] Top shape: 50 112 14 14 (1097600)
I1220 02:04:05.411424 27628 layer_factory.hpp:74] Creating layer inception_4d/relu_1x1
I1220 02:04:05.411442 27628 net.cpp:84] Creating Layer inception_4d/relu_1x1
I1220 02:04:05.411455 27628 net.cpp:380] inception_4d/relu_1x1 <- inception_4d/1x1
I1220 02:04:05.411471 27628 net.cpp:327] inception_4d/relu_1x1 -> inception_4d/1x1 (in-place)
I1220 02:04:05.411489 27628 net.cpp:113] Setting up inception_4d/relu_1x1
I1220 02:04:05.411638 27628 net.cpp:120] Top shape: 50 112 14 14 (1097600)
I1220 02:04:05.411654 27628 layer_factory.hpp:74] Creating layer inception_4d/3x3_reduce
I1220 02:04:05.411672 27628 net.cpp:84] Creating Layer inception_4d/3x3_reduce
I1220 02:04:05.411684 27628 net.cpp:380] inception_4d/3x3_reduce <- inception_4c/output_inception_4c/output_0_split_1
I1220 02:04:05.411705 27628 net.cpp:338] inception_4d/3x3_reduce -> inception_4d/3x3_reduce
I1220 02:04:05.411725 27628 net.cpp:113] Setting up inception_4d/3x3_reduce
I1220 02:04:05.414252 27628 net.cpp:120] Top shape: 50 144 14 14 (1411200)
I1220 02:04:05.414286 27628 layer_factory.hpp:74] Creating layer inception_4d/relu_3x3_reduce
I1220 02:04:05.414304 27628 net.cpp:84] Creating Layer inception_4d/relu_3x3_reduce
I1220 02:04:05.414317 27628 net.cpp:380] inception_4d/relu_3x3_reduce <- inception_4d/3x3_reduce
I1220 02:04:05.414332 27628 net.cpp:327] inception_4d/relu_3x3_reduce -> inception_4d/3x3_reduce (in-place)
I1220 02:04:05.414348 27628 net.cpp:113] Setting up inception_4d/relu_3x3_reduce
I1220 02:04:05.415129 27628 net.cpp:120] Top shape: 50 144 14 14 (1411200)
I1220 02:04:05.415151 27628 layer_factory.hpp:74] Creating layer inception_4d/3x3
I1220 02:04:05.415171 27628 net.cpp:84] Creating Layer inception_4d/3x3
I1220 02:04:05.415184 27628 net.cpp:380] inception_4d/3x3 <- inception_4d/3x3_reduce
I1220 02:04:05.415204 27628 net.cpp:338] inception_4d/3x3 -> inception_4d/3x3
I1220 02:04:05.415222 27628 net.cpp:113] Setting up inception_4d/3x3
I1220 02:04:05.422996 27628 net.cpp:120] Top shape: 50 288 14 14 (2822400)
I1220 02:04:05.423033 27628 layer_factory.hpp:74] Creating layer inception_4d/relu_3x3
I1220 02:04:05.423053 27628 net.cpp:84] Creating Layer inception_4d/relu_3x3
I1220 02:04:05.423065 27628 net.cpp:380] inception_4d/relu_3x3 <- inception_4d/3x3
I1220 02:04:05.423080 27628 net.cpp:327] inception_4d/relu_3x3 -> inception_4d/3x3 (in-place)
I1220 02:04:05.423096 27628 net.cpp:113] Setting up inception_4d/relu_3x3
I1220 02:04:05.423236 27628 net.cpp:120] Top shape: 50 288 14 14 (2822400)
I1220 02:04:05.423252 27628 layer_factory.hpp:74] Creating layer inception_4d/5x5_reduce
I1220 02:04:05.423274 27628 net.cpp:84] Creating Layer inception_4d/5x5_reduce
I1220 02:04:05.423285 27628 net.cpp:380] inception_4d/5x5_reduce <- inception_4c/output_inception_4c/output_0_split_2
I1220 02:04:05.423300 27628 net.cpp:338] inception_4d/5x5_reduce -> inception_4d/5x5_reduce
I1220 02:04:05.423318 27628 net.cpp:113] Setting up inception_4d/5x5_reduce
I1220 02:04:05.424871 27628 net.cpp:120] Top shape: 50 32 14 14 (313600)
I1220 02:04:05.424903 27628 layer_factory.hpp:74] Creating layer inception_4d/relu_5x5_reduce
I1220 02:04:05.424921 27628 net.cpp:84] Creating Layer inception_4d/relu_5x5_reduce
I1220 02:04:05.424934 27628 net.cpp:380] inception_4d/relu_5x5_reduce <- inception_4d/5x5_reduce
I1220 02:04:05.424955 27628 net.cpp:327] inception_4d/relu_5x5_reduce -> inception_4d/5x5_reduce (in-place)
I1220 02:04:05.424973 27628 net.cpp:113] Setting up inception_4d/relu_5x5_reduce
I1220 02:04:05.425137 27628 net.cpp:120] Top shape: 50 32 14 14 (313600)
I1220 02:04:05.425156 27628 layer_factory.hpp:74] Creating layer inception_4d/5x5
I1220 02:04:05.425176 27628 net.cpp:84] Creating Layer inception_4d/5x5
I1220 02:04:05.425189 27628 net.cpp:380] inception_4d/5x5 <- inception_4d/5x5_reduce
I1220 02:04:05.425209 27628 net.cpp:338] inception_4d/5x5 -> inception_4d/5x5
I1220 02:04:05.425227 27628 net.cpp:113] Setting up inception_4d/5x5
I1220 02:04:05.427254 27628 net.cpp:120] Top shape: 50 64 14 14 (627200)
I1220 02:04:05.427294 27628 layer_factory.hpp:74] Creating layer inception_4d/relu_5x5
I1220 02:04:05.427322 27628 net.cpp:84] Creating Layer inception_4d/relu_5x5
I1220 02:04:05.427335 27628 net.cpp:380] inception_4d/relu_5x5 <- inception_4d/5x5
I1220 02:04:05.427353 27628 net.cpp:327] inception_4d/relu_5x5 -> inception_4d/5x5 (in-place)
I1220 02:04:05.427371 27628 net.cpp:113] Setting up inception_4d/relu_5x5
I1220 02:04:05.427510 27628 net.cpp:120] Top shape: 50 64 14 14 (627200)
I1220 02:04:05.427525 27628 layer_factory.hpp:74] Creating layer inception_4d/pool
I1220 02:04:05.427536 27628 layer_factory.cpp:56] CUDNN does not support padding or multiple tops. Using Caffe's own pooling layer.
I1220 02:04:05.427552 27628 net.cpp:84] Creating Layer inception_4d/pool
I1220 02:04:05.427563 27628 net.cpp:380] inception_4d/pool <- inception_4c/output_inception_4c/output_0_split_3
I1220 02:04:05.427578 27628 net.cpp:338] inception_4d/pool -> inception_4d/pool
I1220 02:04:05.427595 27628 net.cpp:113] Setting up inception_4d/pool
I1220 02:04:05.427613 27628 net.cpp:120] Top shape: 50 512 14 14 (5017600)
I1220 02:04:05.427619 27628 layer_factory.hpp:74] Creating layer inception_4d/pool_proj
I1220 02:04:05.427630 27628 net.cpp:84] Creating Layer inception_4d/pool_proj
I1220 02:04:05.427637 27628 net.cpp:380] inception_4d/pool_proj <- inception_4d/pool
I1220 02:04:05.427649 27628 net.cpp:338] inception_4d/pool_proj -> inception_4d/pool_proj
I1220 02:04:05.427659 27628 net.cpp:113] Setting up inception_4d/pool_proj
I1220 02:04:05.429651 27628 net.cpp:120] Top shape: 50 64 14 14 (627200)
I1220 02:04:05.429680 27628 layer_factory.hpp:74] Creating layer inception_4d/relu_pool_proj
I1220 02:04:05.429698 27628 net.cpp:84] Creating Layer inception_4d/relu_pool_proj
I1220 02:04:05.429710 27628 net.cpp:380] inception_4d/relu_pool_proj <- inception_4d/pool_proj
I1220 02:04:05.429724 27628 net.cpp:327] inception_4d/relu_pool_proj -> inception_4d/pool_proj (in-place)
I1220 02:04:05.429739 27628 net.cpp:113] Setting up inception_4d/relu_pool_proj
I1220 02:04:05.430518 27628 net.cpp:120] Top shape: 50 64 14 14 (627200)
I1220 02:04:05.430541 27628 layer_factory.hpp:74] Creating layer inception_4d/output
I1220 02:04:05.430557 27628 net.cpp:84] Creating Layer inception_4d/output
I1220 02:04:05.430567 27628 net.cpp:380] inception_4d/output <- inception_4d/1x1
I1220 02:04:05.430580 27628 net.cpp:380] inception_4d/output <- inception_4d/3x3
I1220 02:04:05.430593 27628 net.cpp:380] inception_4d/output <- inception_4d/5x5
I1220 02:04:05.430603 27628 net.cpp:380] inception_4d/output <- inception_4d/pool_proj
I1220 02:04:05.430619 27628 net.cpp:338] inception_4d/output -> inception_4d/output
I1220 02:04:05.430634 27628 net.cpp:113] Setting up inception_4d/output
I1220 02:04:05.430652 27628 net.cpp:120] Top shape: 50 528 14 14 (5174400)
I1220 02:04:05.430661 27628 layer_factory.hpp:74] Creating layer inception_4d/output_inception_4d/output_0_split
I1220 02:04:05.430676 27628 net.cpp:84] Creating Layer inception_4d/output_inception_4d/output_0_split
I1220 02:04:05.430686 27628 net.cpp:380] inception_4d/output_inception_4d/output_0_split <- inception_4d/output
I1220 02:04:05.430699 27628 net.cpp:338] inception_4d/output_inception_4d/output_0_split -> inception_4d/output_inception_4d/output_0_split_0
I1220 02:04:05.430721 27628 net.cpp:338] inception_4d/output_inception_4d/output_0_split -> inception_4d/output_inception_4d/output_0_split_1
I1220 02:04:05.430732 27628 net.cpp:338] inception_4d/output_inception_4d/output_0_split -> inception_4d/output_inception_4d/output_0_split_2
I1220 02:04:05.430743 27628 net.cpp:338] inception_4d/output_inception_4d/output_0_split -> inception_4d/output_inception_4d/output_0_split_3
I1220 02:04:05.430752 27628 net.cpp:338] inception_4d/output_inception_4d/output_0_split -> inception_4d/output_inception_4d/output_0_split_4
I1220 02:04:05.430762 27628 net.cpp:113] Setting up inception_4d/output_inception_4d/output_0_split
I1220 02:04:05.430773 27628 net.cpp:120] Top shape: 50 528 14 14 (5174400)
I1220 02:04:05.430788 27628 net.cpp:120] Top shape: 50 528 14 14 (5174400)
I1220 02:04:05.430804 27628 net.cpp:120] Top shape: 50 528 14 14 (5174400)
I1220 02:04:05.430812 27628 net.cpp:120] Top shape: 50 528 14 14 (5174400)
I1220 02:04:05.430819 27628 net.cpp:120] Top shape: 50 528 14 14 (5174400)
I1220 02:04:05.430825 27628 layer_factory.hpp:74] Creating layer loss2/ave_pool
I1220 02:04:05.430835 27628 net.cpp:84] Creating Layer loss2/ave_pool
I1220 02:04:05.430842 27628 net.cpp:380] loss2/ave_pool <- inception_4d/output_inception_4d/output_0_split_0
I1220 02:04:05.430855 27628 net.cpp:338] loss2/ave_pool -> loss2/ave_pool
I1220 02:04:05.430866 27628 net.cpp:113] Setting up loss2/ave_pool
I1220 02:04:05.430975 27628 net.cpp:120] Top shape: 50 528 4 4 (422400)
I1220 02:04:05.430984 27628 layer_factory.hpp:74] Creating layer loss2/conv
I1220 02:04:05.430999 27628 net.cpp:84] Creating Layer loss2/conv
I1220 02:04:05.431005 27628 net.cpp:380] loss2/conv <- loss2/ave_pool
I1220 02:04:05.431015 27628 net.cpp:338] loss2/conv -> loss2/conv
I1220 02:04:05.431026 27628 net.cpp:113] Setting up loss2/conv
I1220 02:04:05.433003 27628 net.cpp:120] Top shape: 50 128 4 4 (102400)
I1220 02:04:05.433027 27628 layer_factory.hpp:74] Creating layer loss2/relu_conv
I1220 02:04:05.433037 27628 net.cpp:84] Creating Layer loss2/relu_conv
I1220 02:04:05.433044 27628 net.cpp:380] loss2/relu_conv <- loss2/conv
I1220 02:04:05.433068 27628 net.cpp:327] loss2/relu_conv -> loss2/conv (in-place)
I1220 02:04:05.433081 27628 net.cpp:113] Setting up loss2/relu_conv
I1220 02:04:05.433182 27628 net.cpp:120] Top shape: 50 128 4 4 (102400)
I1220 02:04:05.433190 27628 layer_factory.hpp:74] Creating layer loss2/fc
I1220 02:04:05.433202 27628 net.cpp:84] Creating Layer loss2/fc
I1220 02:04:05.433209 27628 net.cpp:380] loss2/fc <- loss2/conv
I1220 02:04:05.433221 27628 net.cpp:338] loss2/fc -> loss2/fc
I1220 02:04:05.433233 27628 net.cpp:113] Setting up loss2/fc
I1220 02:04:05.463630 27628 net.cpp:120] Top shape: 50 1024 (51200)
I1220 02:04:05.463660 27628 layer_factory.hpp:74] Creating layer loss2/relu_fc
I1220 02:04:05.463671 27628 net.cpp:84] Creating Layer loss2/relu_fc
I1220 02:04:05.463680 27628 net.cpp:380] loss2/relu_fc <- loss2/fc
I1220 02:04:05.463690 27628 net.cpp:327] loss2/relu_fc -> loss2/fc (in-place)
I1220 02:04:05.463699 27628 net.cpp:113] Setting up loss2/relu_fc
I1220 02:04:05.463817 27628 net.cpp:120] Top shape: 50 1024 (51200)
I1220 02:04:05.463829 27628 layer_factory.hpp:74] Creating layer loss2/drop_fc
I1220 02:04:05.463840 27628 net.cpp:84] Creating Layer loss2/drop_fc
I1220 02:04:05.463845 27628 net.cpp:380] loss2/drop_fc <- loss2/fc
I1220 02:04:05.463855 27628 net.cpp:327] loss2/drop_fc -> loss2/fc (in-place)
I1220 02:04:05.463865 27628 net.cpp:113] Setting up loss2/drop_fc
I1220 02:04:05.463873 27628 net.cpp:120] Top shape: 50 1024 (51200)
I1220 02:04:05.463879 27628 layer_factory.hpp:74] Creating layer loss2/classifier_kaggle
I1220 02:04:05.463891 27628 net.cpp:84] Creating Layer loss2/classifier_kaggle
I1220 02:04:05.463896 27628 net.cpp:380] loss2/classifier_kaggle <- loss2/fc
I1220 02:04:05.463904 27628 net.cpp:338] loss2/classifier_kaggle -> loss2/classifier_kaggle
I1220 02:04:05.463914 27628 net.cpp:113] Setting up loss2/classifier_kaggle
I1220 02:04:05.470757 27628 net.cpp:120] Top shape: 50 447 (22350)
I1220 02:04:05.470779 27628 layer_factory.hpp:74] Creating layer loss2/classifier_kaggle_loss2/classifier_kaggle_0_split
I1220 02:04:05.470790 27628 net.cpp:84] Creating Layer loss2/classifier_kaggle_loss2/classifier_kaggle_0_split
I1220 02:04:05.470796 27628 net.cpp:380] loss2/classifier_kaggle_loss2/classifier_kaggle_0_split <- loss2/classifier_kaggle
I1220 02:04:05.470805 27628 net.cpp:338] loss2/classifier_kaggle_loss2/classifier_kaggle_0_split -> loss2/classifier_kaggle_loss2/classifier_kaggle_0_split_0
I1220 02:04:05.470818 27628 net.cpp:338] loss2/classifier_kaggle_loss2/classifier_kaggle_0_split -> loss2/classifier_kaggle_loss2/classifier_kaggle_0_split_1
I1220 02:04:05.470829 27628 net.cpp:338] loss2/classifier_kaggle_loss2/classifier_kaggle_0_split -> loss2/classifier_kaggle_loss2/classifier_kaggle_0_split_2
I1220 02:04:05.470857 27628 net.cpp:113] Setting up loss2/classifier_kaggle_loss2/classifier_kaggle_0_split
I1220 02:04:05.470867 27628 net.cpp:120] Top shape: 50 447 (22350)
I1220 02:04:05.470875 27628 net.cpp:120] Top shape: 50 447 (22350)
I1220 02:04:05.470880 27628 net.cpp:120] Top shape: 50 447 (22350)
I1220 02:04:05.470885 27628 layer_factory.hpp:74] Creating layer loss2/loss
I1220 02:04:05.470895 27628 net.cpp:84] Creating Layer loss2/loss
I1220 02:04:05.470901 27628 net.cpp:380] loss2/loss <- loss2/classifier_kaggle_loss2/classifier_kaggle_0_split_0
I1220 02:04:05.470907 27628 net.cpp:380] loss2/loss <- label_data_1_split_3
I1220 02:04:05.470917 27628 net.cpp:338] loss2/loss -> loss2/loss1
…
I1220 02:04:05.471911 27628 net.cpp:338] loss2/top-5 -> loss2/top-5
I1220 02:04:05.471920 27628 net.cpp:113] Setting up loss2/top-5
I1220 02:04:05.471927 27628 net.cpp:120] Top shape: (1)
I1220 02:04:05.471933 27628 layer_factory.hpp:74] Creating layer inception_4e/1x1
I1220 02:04:05.471946 27628 net.cpp:84] Creating Layer inception_4e/1x1
I1220 02:04:05.471953 27628 net.cpp:380] inception_4e/1x1 <- inception_4d/output_inception_4d/output_0_split_1
I1220 02:04:05.471961 27628 net.cpp:338] inception_4e/1x1 -> inception_4e/1x1
I1220 02:04:05.471971 27628 net.cpp:113] Setting up inception_4e/1x1
I1220 02:04:05.475074 27628 net.cpp:120] Top shape: 50 256 14 14 (2508800)
I1220 02:04:05.475105 27628 layer_factory.hpp:74] Creating layer inception_4e/relu_1x1
I1220 02:04:05.475121 27628 net.cpp:84] Creating Layer inception_4e/relu_1x1
I1220 02:04:05.475132 27628 net.cpp:380] inception_4e/relu_1x1 <- inception_4e/1x1
I1220 02:04:05.475152 27628 net.cpp:327] inception_4e/relu_1x1 -> inception_4e/1x1 (in-place)
I1220 02:04:05.475170 27628 net.cpp:113] Setting up inception_4e/relu_1x1
I1220 02:04:05.475311 27628 net.cpp:120] Top shape: 50 256 14 14 (2508800)
I1220 02:04:05.475328 27628 layer_factory.hpp:74] Creating layer inception_4e/3x3_reduce
I1220 02:04:05.475378 27628 net.cpp:84] Creating Layer inception_4e/3x3_reduce
I1220 02:04:05.475394 27628 net.cpp:380] inception_4e/3x3_reduce <- inception_4d/output_inception_4d/output_0_split_2
I1220 02:04:05.475411 27628 net.cpp:338] inception_4e/3x3_reduce -> inception_4e/3x3_reduce
I1220 02:04:05.475430 27628 net.cpp:113] Setting up inception_4e/3x3_reduce
I1220 02:04:05.477967 27628 net.cpp:120] Top shape: 50 160 14 14 (1568000)
I1220 02:04:05.477998 27628 layer_factory.hpp:74] Creating layer inception_4e/relu_3x3_reduce
I1220 02:04:05.478014 27628 net.cpp:84] Creating Layer inception_4e/relu_3x3_reduce
I1220 02:04:05.478026 27628 net.cpp:380] inception_4e/relu_3x3_reduce <- inception_4e/3x3_reduce
I1220 02:04:05.478042 27628 net.cpp:327] inception_4e/relu_3x3_reduce -> inception_4e/3x3_reduce (in-place)
I1220 02:04:05.478057 27628 net.cpp:113] Setting up inception_4e/relu_3x3_reduce
I1220 02:04:05.478209 27628 net.cpp:120] Top shape: 50 160 14 14 (1568000)
I1220 02:04:05.478240 27628 layer_factory.hpp:74] Creating layer inception_4e/3x3
I1220 02:04:05.478261 27628 net.cpp:84] Creating Layer inception_4e/3x3
I1220 02:04:05.478273 27628 net.cpp:380] inception_4e/3x3 <- inception_4e/3x3_reduce
I1220 02:04:05.478288 27628 net.cpp:338] inception_4e/3x3 -> inception_4e/3x3
I1220 02:04:05.478307 27628 net.cpp:113] Setting up inception_4e/3x3
I1220 02:04:05.486701 27628 net.cpp:120] Top shape: 50 320 14 14 (3136000)
I1220 02:04:05.486732 27628 layer_factory.hpp:74] Creating layer inception_4e/relu_3x3
I1220 02:04:05.486748 27628 net.cpp:84] Creating Layer inception_4e/relu_3x3
I1220 02:04:05.486759 27628 net.cpp:380] inception_4e/relu_3x3 <- inception_4e/3x3
I1220 02:04:05.486774 27628 net.cpp:327] inception_4e/relu_3x3 -> inception_4e/3x3 (in-place)
I1220 02:04:05.486790 27628 net.cpp:113] Setting up inception_4e/relu_3x3
I1220 02:04:05.488071 27628 net.cpp:120] Top shape: 50 320 14 14 (3136000)
I1220 02:04:05.488092 27628 layer_factory.hpp:74] Creating layer inception_4e/5x5_reduce
I1220 02:04:05.488111 27628 net.cpp:84] Creating Layer inception_4e/5x5_reduce
I1220 02:04:05.488121 27628 net.cpp:380] inception_4e/5x5_reduce <- inception_4d/output_inception_4d/output_0_split_3
I1220 02:04:05.488138 27628 net.cpp:338] inception_4e/5x5_reduce -> inception_4e/5x5_reduce
I1220 02:04:05.488157 27628 net.cpp:113] Setting up inception_4e/5x5_reduce
I1220 02:04:05.494637 27628 net.cpp:120] Top shape: 50 32 14 14 (313600)
I1220 02:04:05.494663 27628 layer_factory.hpp:74] Creating layer inception_4e/relu_5x5_reduce
I1220 02:04:05.494683 27628 net.cpp:84] Creating Layer inception_4e/relu_5x5_reduce
I1220 02:04:05.494693 27628 net.cpp:380] inception_4e/relu_5x5_reduce <- inception_4e/5x5_reduce
I1220 02:04:05.494705 27628 net.cpp:327] inception_4e/relu_5x5_reduce -> inception_4e/5x5_reduce (in-place)
I1220 02:04:05.494719 27628 net.cpp:113] Setting up inception_4e/relu_5x5_reduce
I1220 02:04:05.494837 27628 net.cpp:120] Top shape: 50 32 14 14 (313600)
I1220 02:04:05.494850 27628 layer_factory.hpp:74] Creating layer inception_4e/5x5
I1220 02:04:05.494868 27628 net.cpp:84] Creating Layer inception_4e/5x5
I1220 02:04:05.494877 27628 net.cpp:380] inception_4e/5x5 <- inception_4e/5x5_reduce
I1220 02:04:05.494894 27628 net.cpp:338] inception_4e/5x5 -> inception_4e/5x5
I1220 02:04:05.494909 27628 net.cpp:113] Setting up inception_4e/5x5
I1220 02:04:05.497066 27628 net.cpp:120] Top shape: 50 128 14 14 (1254400)
I1220 02:04:05.497089 27628 layer_factory.hpp:74] Creating layer inception_4e/relu_5x5
I1220 02:04:05.497105 27628 net.cpp:84] Creating Layer inception_4e/relu_5x5
I1220 02:04:05.497117 27628 net.cpp:380] inception_4e/relu_5x5 <- inception_4e/5x5
I1220 02:04:05.497128 27628 net.cpp:327] inception_4e/relu_5x5 -> inception_4e/5x5 (in-place)
I1220 02:04:05.497141 27628 net.cpp:113] Setting up inception_4e/relu_5x5
I1220 02:04:05.497256 27628 net.cpp:120] Top shape: 50 128 14 14 (1254400)
I1220 02:04:05.497272 27628 layer_factory.hpp:74] Creating layer inception_4e/pool
I1220 02:04:05.497283 27628 layer_factory.cpp:56] CUDNN does not support padding or multiple tops. Using Caffe's own pooling layer.
I1220 02:04:05.497295 27628 net.cpp:84] Creating Layer inception_4e/pool
I1220 02:04:05.497303 27628 net.cpp:380] inception_4e/pool <- inception_4d/output_inception_4d/output_0_split_4
I1220 02:04:05.497318 27628 net.cpp:338] inception_4e/pool -> inception_4e/pool
I1220 02:04:05.497333 27628 net.cpp:113] Setting up inception_4e/pool
I1220 02:04:05.497349 27628 net.cpp:120] Top shape: 50 528 14 14 (5174400)
I1220 02:04:05.497359 27628 layer_factory.hpp:74] Creating layer inception_4e/pool_proj
I1220 02:04:05.497371 27628 net.cpp:84] Creating Layer inception_4e/pool_proj
I1220 02:04:05.497380 27628 net.cpp:380] inception_4e/pool_proj <- inception_4e/pool
I1220 02:04:05.497398 27628 net.cpp:338] inception_4e/pool_proj -> inception_4e/pool_proj
I1220 02:04:05.497414 27628 net.cpp:113] Setting up inception_4e/pool_proj
I1220 02:04:05.499114 27628 net.cpp:120] Top shape: 50 128 14 14 (1254400)
I1220 02:04:05.499143 27628 layer_factory.hpp:74] Creating layer inception_4e/relu_pool_proj
I1220 02:04:05.499167 27628 net.cpp:84] Creating Layer inception_4e/relu_pool_proj
I1220 02:04:05.499179 27628 net.cpp:380] inception_4e/relu_pool_proj <- inception_4e/pool_proj
I1220 02:04:05.499191 27628 net.cpp:327] inception_4e/relu_pool_proj -> inception_4e/pool_proj (in-place)
I1220 02:04:05.499202 27628 net.cpp:113] Setting up inception_4e/relu_pool_proj
I1220 02:04:05.499313 27628 net.cpp:120] Top shape: 50 128 14 14 (1254400)
I1220 02:04:05.499327 27628 layer_factory.hpp:74] Creating layer inception_4e/output
I1220 02:04:05.499341 27628 net.cpp:84] Creating Layer inception_4e/output
I1220 02:04:05.499349 27628 net.cpp:380] inception_4e/output <- inception_4e/1x1
I1220 02:04:05.499359 27628 net.cpp:380] inception_4e/output <- inception_4e/3x3
I1220 02:04:05.499368 27628 net.cpp:380] inception_4e/output <- inception_4e/5x5
I1220 02:04:05.499378 27628 net.cpp:380] inception_4e/output <- inception_4e/pool_proj
I1220 02:04:05.499389 27628 net.cpp:338] inception_4e/output -> inception_4e/output
I1220 02:04:05.499403 27628 net.cpp:113] Setting up inception_4e/output
I1220 02:04:05.499416 27628 net.cpp:120] Top shape: 50 832 14 14 (8153600)
I1220 02:04:05.499425 27628 layer_factory.hpp:74] Creating layer pool4/3x3_s2
I1220 02:04:05.499439 27628 net.cpp:84] Creating Layer pool4/3x3_s2
I1220 02:04:05.499450 27628 net.cpp:380] pool4/3x3_s2 <- inception_4e/output
I1220 02:04:05.499464 27628 net.cpp:338] pool4/3x3_s2 -> pool4/3x3_s2
I1220 02:04:05.499475 27628 net.cpp:113] Setting up pool4/3x3_s2
I1220 02:04:05.500146 27628 net.cpp:120] Top shape: 50 832 7 7 (2038400)
I1220 02:04:05.500164 27628 layer_factory.hpp:74] Creating layer pool4/3x3_s2_pool4/3x3_s2_0_split
I1220 02:04:05.500175 27628 net.cpp:84] Creating Layer pool4/3x3_s2_pool4/3x3_s2_0_split
I1220 02:04:05.500185 27628 net.cpp:380] pool4/3x3_s2_pool4/3x3_s2_0_split <- pool4/3x3_s2
I1220 02:04:05.500200 27628 net.cpp:338] pool4/3x3_s2_pool4/3x3_s2_0_split -> pool4/3x3_s2_pool4/3x3_s2_0_split_0
I1220 02:04:05.500216 27628 net.cpp:338] pool4/3x3_s2_pool4/3x3_s2_0_split -> pool4/3x3_s2_pool4/3x3_s2_0_split_1
I1220 02:04:05.500228 27628 net.cpp:338] pool4/3x3_s2_pool4/3x3_s2_0_split -> pool4/3x3_s2_pool4/3x3_s2_0_split_2
I1220 02:04:05.500269 27628 net.cpp:338] pool4/3x3_s2_pool4/3x3_s2_0_split -> pool4/3x3_s2_pool4/3x3_s2_0_split_3
I1220 02:04:05.500283 27628 net.cpp:113] Setting up pool4/3x3_s2_pool4/3x3_s2_0_split
I1220 02:04:05.500296 27628 net.cpp:120] Top shape: 50 832 7 7 (2038400)
I1220 02:04:05.500306 27628 net.cpp:120] Top shape: 50 832 7 7 (2038400)
I1220 02:04:05.500319 27628 net.cpp:120] Top shape: 50 832 7 7 (2038400)
I1220 02:04:05.500327 27628 net.cpp:120] Top shape: 50 832 7 7 (2038400)
I1220 02:04:05.500335 27628 layer_factory.hpp:74] Creating layer inception_5a/1x1
I1220 02:04:05.500351 27628 net.cpp:84] Creating Layer inception_5a/1x1
I1220 02:04:05.500362 27628 net.cpp:380] inception_5a/1x1 <- pool4/3x3_s2_pool4/3x3_s2_0_split_0
I1220 02:04:05.500375 27628 net.cpp:338] inception_5a/1x1 -> inception_5a/1x1
I1220 02:04:05.500390 27628 net.cpp:113] Setting up inception_5a/1x1
I1220 02:04:05.503851 27628 net.cpp:120] Top shape: 50 256 7 7 (627200)
I1220 02:04:05.503875 27628 layer_factory.hpp:74] Creating layer inception_5a/relu_1x1
I1220 02:04:05.503888 27628 net.cpp:84] Creating Layer inception_5a/relu_1x1
I1220 02:04:05.503900 27628 net.cpp:380] inception_5a/relu_1x1 <- inception_5a/1x1
I1220 02:04:05.503913 27628 net.cpp:327] inception_5a/relu_1x1 -> inception_5a/1x1 (in-place)
I1220 02:04:05.503926 27628 net.cpp:113] Setting up inception_5a/relu_1x1
I1220 02:04:05.504042 27628 net.cpp:120] Top shape: 50 256 7 7 (627200)
I1220 02:04:05.504056 27628 layer_factory.hpp:74] Creating layer inception_5a/3x3_reduce
I1220 02:04:05.504073 27628 net.cpp:84] Creating Layer inception_5a/3x3_reduce
I1220 02:04:05.504083 27628 net.cpp:380] inception_5a/3x3_reduce <- pool4/3x3_s2_pool4/3x3_s2_0_split_1
I1220 02:04:05.504096 27628 net.cpp:338] inception_5a/3x3_reduce -> inception_5a/3x3_reduce
I1220 02:04:05.504127 27628 net.cpp:113] Setting up inception_5a/3x3_reduce
I1220 02:04:05.542785 27628 net.cpp:120] Top shape: 50 160 7 7 (392000)
I1220 02:04:05.542815 27628 layer_factory.hpp:74] Creating layer inception_5a/relu_3x3_reduce
I1220 02:04:05.542830 27628 net.cpp:84] Creating Layer inception_5a/relu_3x3_reduce
I1220 02:04:05.542841 27628 net.cpp:380] inception_5a/relu_3x3_reduce <- inception_5a/3x3_reduce
I1220 02:04:05.542853 27628 net.cpp:327] inception_5a/relu_3x3_reduce -> inception_5a/3x3_reduce (in-place)
I1220 02:04:05.542866 27628 net.cpp:113] Setting up inception_5a/relu_3x3_reduce
I1220 02:04:05.542985 27628 net.cpp:120] Top shape: 50 160 7 7 (392000)
I1220 02:04:05.542999 27628 layer_factory.hpp:74] Creating layer inception_5a/3x3
I1220 02:04:05.543015 27628 net.cpp:84] Creating Layer inception_5a/3x3
I1220 02:04:05.543023 27628 net.cpp:380] inception_5a/3x3 <- inception_5a/3x3_reduce
I1220 02:04:05.543038 27628 net.cpp:338] inception_5a/3x3 -> inception_5a/3x3
I1220 02:04:05.543054 27628 net.cpp:113] Setting up inception_5a/3x3
I1220 02:04:05.551002 27628 net.cpp:120] Top shape: 50 320 7 7 (784000)
I1220 02:04:05.551026 27628 layer_factory.hpp:74] Creating layer inception_5a/relu_3x3
I1220 02:04:05.551040 27628 net.cpp:84] Creating Layer inception_5a/relu_3x3
I1220 02:04:05.551051 27628 net.cpp:380] inception_5a/relu_3x3 <- inception_5a/3x3
I1220 02:04:05.551062 27628 net.cpp:327] inception_5a/relu_3x3 -> inception_5a/3x3 (in-place)
I1220 02:04:05.551074 27628 net.cpp:113] Setting up inception_5a/relu_3x3
I1220 02:04:05.551183 27628 net.cpp:120] Top shape: 50 320 7 7 (784000)
I1220 02:04:05.551198 27628 layer_factory.hpp:74] Creating layer inception_5a/5x5_reduce
I1220 02:04:05.551211 27628 net.cpp:84] Creating Layer inception_5a/5x5_reduce
I1220 02:04:05.551221 27628 net.cpp:380] inception_5a/5x5_reduce <- pool4/3x3_s2_pool4/3x3_s2_0_split_2
I1220 02:04:05.551236 27628 net.cpp:338] inception_5a/5x5_reduce -> inception_5a/5x5_reduce
I1220 02:04:05.551252 27628 net.cpp:113] Setting up inception_5a/5x5_reduce
I1220 02:04:05.552206 27628 net.cpp:120] Top shape: 50 32 7 7 (78400)
I1220 02:04:05.552227 27628 layer_factory.hpp:74] Creating layer inception_5a/relu_5x5_reduce
I1220 02:04:05.552243 27628 net.cpp:84] Creating Layer inception_5a/relu_5x5_reduce
I1220 02:04:05.552254 27628 net.cpp:380] inception_5a/relu_5x5_reduce <- inception_5a/5x5_reduce
I1220 02:04:05.552266 27628 net.cpp:327] inception_5a/relu_5x5_reduce -> inception_5a/5x5_reduce (in-place)
I1220 02:04:05.552279 27628 net.cpp:113] Setting up inception_5a/relu_5x5_reduce
I1220 02:04:05.552628 27628 net.cpp:120] Top shape: 50 32 7 7 (78400)
I1220 02:04:05.552644 27628 layer_factory.hpp:74] Creating layer inception_5a/5x5
I1220 02:04:05.552659 27628 net.cpp:84] Creating Layer inception_5a/5x5
I1220 02:04:05.552669 27628 net.cpp:380] inception_5a/5x5 <- inception_5a/5x5_reduce
I1220 02:04:05.552685 27628 net.cpp:338] inception_5a/5x5 -> inception_5a/5x5
I1220 02:04:05.552698 27628 net.cpp:113] Setting up inception_5a/5x5
I1220 02:04:05.554612 27628 net.cpp:120] Top shape: 50 128 7 7 (313600)
I1220 02:04:05.554636 27628 layer_factory.hpp:74] Creating layer inception_5a/relu_5x5
I1220 02:04:05.554648 27628 net.cpp:84] Creating Layer inception_5a/relu_5x5
I1220 02:04:05.554658 27628 net.cpp:380] inception_5a/relu_5x5 <- inception_5a/5x5
I1220 02:04:05.554671 27628 net.cpp:327] inception_5a/relu_5x5 -> inception_5a/5x5 (in-place)
I1220 02:04:05.554683 27628 net.cpp:113] Setting up inception_5a/relu_5x5
I1220 02:04:05.554796 27628 net.cpp:120] Top shape: 50 128 7 7 (313600)
I1220 02:04:05.554811 27628 layer_factory.hpp:74] Creating layer inception_5a/pool
I1220 02:04:05.554821 27628 layer_factory.cpp:56] CUDNN does not support padding or multiple tops. Using Caffe's own pooling layer.
I1220 02:04:05.554841 27628 net.cpp:84] Creating Layer inception_5a/pool
I1220 02:04:05.554850 27628 net.cpp:380] inception_5a/pool <- pool4/3x3_s2_pool4/3x3_s2_0_split_3
I1220 02:04:05.554862 27628 net.cpp:338] inception_5a/pool -> inception_5a/pool
I1220 02:04:05.554901 27628 net.cpp:113] Setting up inception_5a/pool
I1220 02:04:05.554919 27628 net.cpp:120] Top shape: 50 832 7 7 (2038400)
I1220 02:04:05.554927 27628 layer_factory.hpp:74] Creating layer inception_5a/pool_proj
I1220 02:04:05.554944 27628 net.cpp:84] Creating Layer inception_5a/pool_proj
I1220 02:04:05.554955 27628 net.cpp:380] inception_5a/pool_proj <- inception_5a/pool
I1220 02:04:05.554967 27628 net.cpp:338] inception_5a/pool_proj -> inception_5a/pool_proj
I1220 02:04:05.554980 27628 net.cpp:113] Setting up inception_5a/pool_proj
I1220 02:04:05.556934 27628 net.cpp:120] Top shape: 50 128 7 7 (313600)
I1220 02:04:05.556957 27628 layer_factory.hpp:74] Creating layer inception_5a/relu_pool_proj
I1220 02:04:05.556970 27628 net.cpp:84] Creating Layer inception_5a/relu_pool_proj
I1220 02:04:05.556982 27628 net.cpp:380] inception_5a/relu_pool_proj <- inception_5a/pool_proj
I1220 02:04:05.556993 27628 net.cpp:327] inception_5a/relu_pool_proj -> inception_5a/pool_proj (in-place)
I1220 02:04:05.557004 27628 net.cpp:113] Setting up inception_5a/relu_pool_proj
I1220 02:04:05.557123 27628 net.cpp:120] Top shape: 50 128 7 7 (313600)
I1220 02:04:05.557139 27628 layer_factory.hpp:74] Creating layer inception_5a/output
I1220 02:04:05.557153 27628 net.cpp:84] Creating Layer inception_5a/output
I1220 02:04:05.557163 27628 net.cpp:380] inception_5a/output <- inception_5a/1x1
I1220 02:04:05.557173 27628 net.cpp:380] inception_5a/output <- inception_5a/3x3
I1220 02:04:05.557183 27628 net.cpp:380] inception_5a/output <- inception_5a/5x5
I1220 02:04:05.557191 27628 net.cpp:380] inception_5a/output <- inception_5a/pool_proj
I1220 02:04:05.557202 27628 net.cpp:338] inception_5a/output -> inception_5a/output
I1220 02:04:05.557216 27628 net.cpp:113] Setting up inception_5a/output
I1220 02:04:05.557230 27628 net.cpp:120] Top shape: 50 832 7 7 (2038400)
I1220 02:04:05.557238 27628 layer_factory.hpp:74] Creating layer inception_5a/output_inception_5a/output_0_split
I1220 02:04:05.557253 27628 net.cpp:84] Creating Layer inception_5a/output_inception_5a/output_0_split
I1220 02:04:05.557263 27628 net.cpp:380] inception_5a/output_inception_5a/output_0_split <- inception_5a/output
I1220 02:04:05.557274 27628 net.cpp:338] inception_5a/output_inception_5a/output_0_split -> inception_5a/output_inception_5a/output_0_split_0
I1220 02:04:05.557287 27628 net.cpp:338] inception_5a/output_inception_5a/output_0_split -> inception_5a/output_inception_5a/output_0_split_1
I1220 02:04:05.557299 27628 net.cpp:338] inception_5a/output_inception_5a/output_0_split -> inception_5a/output_inception_5a/output_0_split_2
I1220 02:04:05.557322 27628 net.cpp:338] inception_5a/output_inception_5a/output_0_split -> inception_5a/output_inception_5a/output_0_split_3
I1220 02:04:05.557334 27628 net.cpp:113] Setting up inception_5a/output_inception_5a/output_0_split
I1220 02:04:05.557348 27628 net.cpp:120] Top shape: 50 832 7 7 (2038400)
I1220 02:04:05.557356 27628 net.cpp:120] Top shape: 50 832 7 7 (2038400)
I1220 02:04:05.557365 27628 net.cpp:120] Top shape: 50 832 7 7 (2038400)
I1220 02:04:05.557375 27628 net.cpp:120] Top shape: 50 832 7 7 (2038400)
I1220 02:04:05.557384 27628 layer_factory.hpp:74] Creating layer inception_5b/1x1
I1220 02:04:05.557397 27628 net.cpp:84] Creating Layer inception_5b/1x1
I1220 02:04:05.557405 27628 net.cpp:380] inception_5b/1x1 <- inception_5a/output_inception_5a/output_0_split_0
I1220 02:04:05.557420 27628 net.cpp:338] inception_5b/1x1 -> inception_5b/1x1
I1220 02:04:05.557435 27628 net.cpp:113] Setting up inception_5b/1x1
I1220 02:04:05.562077 27628 net.cpp:120] Top shape: 50 384 7 7 (940800)
I1220 02:04:05.562103 27628 layer_factory.hpp:74] Creating layer inception_5b/relu_1x1
I1220 02:04:05.562116 27628 net.cpp:84] Creating Layer inception_5b/relu_1x1
I1220 02:04:05.562125 27628 net.cpp:380] inception_5b/relu_1x1 <- inception_5b/1x1
I1220 02:04:05.562139 27628 net.cpp:327] inception_5b/relu_1x1 -> inception_5b/1x1 (in-place)
I1220 02:04:05.562153 27628 net.cpp:113] Setting up inception_5b/relu_1x1
I1220 02:04:05.562279 27628 net.cpp:120] Top shape: 50 384 7 7 (940800)
I1220 02:04:05.562304 27628 layer_factory.hpp:74] Creating layer inception_5b/3x3_reduce
I1220 02:04:05.562317 27628 net.cpp:84] Creating Layer inception_5b/3x3_reduce
I1220 02:04:05.562327 27628 net.cpp:380] inception_5b/3x3_reduce <- inception_5a/output_inception_5a/output_0_split_1
I1220 02:04:05.562343 27628 net.cpp:338] inception_5b/3x3_reduce -> inception_5b/3x3_reduce
I1220 02:04:05.562358 27628 net.cpp:113] Setting up inception_5b/3x3_reduce
I1220 02:04:05.564975 27628 net.cpp:120] Top shape: 50 192 7 7 (470400)
I1220 02:04:05.564997 27628 layer_factory.hpp:74] Creating layer inception_5b/relu_3x3_reduce
I1220 02:04:05.565011 27628 net.cpp:84] Creating Layer inception_5b/relu_3x3_reduce
I1220 02:04:05.565021 27628 net.cpp:380] inception_5b/relu_3x3_reduce <- inception_5b/3x3_reduce
I1220 02:04:05.565034 27628 net.cpp:327] inception_5b/relu_3x3_reduce -> inception_5b/3x3_reduce (in-place)
I1220 02:04:05.565052 27628 net.cpp:113] Setting up inception_5b/relu_3x3_reduce
I1220 02:04:05.566452 27628 net.cpp:120] Top shape: 50 192 7 7 (470400)
I1220 02:04:05.566498 27628 layer_factory.hpp:74] Creating layer inception_5b/3x3
I1220 02:04:05.566520 27628 net.cpp:84] Creating Layer inception_5b/3x3
I1220 02:04:05.566531 27628 net.cpp:380] inception_5b/3x3 <- inception_5b/3x3_reduce
I1220 02:04:05.566546 27628 net.cpp:338] inception_5b/3x3 -> inception_5b/3x3
I1220 02:04:05.566565 27628 net.cpp:113] Setting up inception_5b/3x3
I1220 02:04:05.590129 27628 net.cpp:120] Top shape: 50 384 7 7 (940800)
I1220 02:04:05.590195 27628 layer_factory.hpp:74] Creating layer inception_5b/relu_3x3
I1220 02:04:05.590220 27628 net.cpp:84] Creating Layer inception_5b/relu_3x3
I1220 02:04:05.590236 27628 net.cpp:380] inception_5b/relu_3x3 <- inception_5b/3x3
I1220 02:04:05.590255 27628 net.cpp:327] inception_5b/relu_3x3 -> inception_5b/3x3 (in-place)
I1220 02:04:05.590276 27628 net.cpp:113] Setting up inception_5b/relu_3x3
I1220 02:04:05.590431 27628 net.cpp:120] Top shape: 50 384 7 7 (940800)
I1220 02:04:05.590445 27628 layer_factory.hpp:74] Creating layer inception_5b/5x5_reduce
I1220 02:04:05.590466 27628 net.cpp:84] Creating Layer inception_5b/5x5_reduce
I1220 02:04:05.590479 27628 net.cpp:380] inception_5b/5x5_reduce <- inception_5a/output_inception_5a/output_0_split_2
I1220 02:04:05.590498 27628 net.cpp:338] inception_5b/5x5_reduce -> inception_5b/5x5_reduce
I1220 02:04:05.590517 27628 net.cpp:113] Setting up inception_5b/5x5_reduce
I1220 02:04:05.592535 27628 net.cpp:120] Top shape: 50 48 7 7 (117600)
I1220 02:04:05.592577 27628 layer_factory.hpp:74] Creating layer inception_5b/relu_5x5_reduce
I1220 02:04:05.592595 27628 net.cpp:84] Creating Layer inception_5b/relu_5x5_reduce
I1220 02:04:05.592609 27628 net.cpp:380] inception_5b/relu_5x5_reduce <- inception_5b/5x5_reduce
I1220 02:04:05.592628 27628 net.cpp:327] inception_5b/relu_5x5_reduce -> inception_5b/5x5_reduce (in-place)
I1220 02:04:05.592643 27628 net.cpp:113] Setting up inception_5b/relu_5x5_reduce
I1220 02:04:05.592792 27628 net.cpp:120] Top shape: 50 48 7 7 (117600)
I1220 02:04:05.592803 27628 layer_factory.hpp:74] Creating layer inception_5b/5x5
I1220 02:04:05.592821 27628 net.cpp:84] Creating Layer inception_5b/5x5
I1220 02:04:05.592831 27628 net.cpp:380] inception_5b/5x5 <- inception_5b/5x5_reduce
I1220 02:04:05.592851 27628 net.cpp:338] inception_5b/5x5 -> inception_5b/5x5
I1220 02:04:05.592869 27628 net.cpp:113] Setting up inception_5b/5x5
I1220 02:04:05.597355 27628 net.cpp:120] Top shape: 50 128 7 7 (313600)
I1220 02:04:05.597419 27628 layer_factory.hpp:74] Creating layer inception_5b/relu_5x5
I1220 02:04:05.597443 27628 net.cpp:84] Creating Layer inception_5b/relu_5x5
I1220 02:04:05.597460 27628 net.cpp:380] inception_5b/relu_5x5 <- inception_5b/5x5
I1220 02:04:05.597475 27628 net.cpp:327] inception_5b/relu_5x5 -> inception_5b/5x5 (in-place)
I1220 02:04:05.597491 27628 net.cpp:113] Setting up inception_5b/relu_5x5
I1220 02:04:05.598078 27628 net.cpp:120] Top shape: 50 128 7 7 (313600)
I1220 02:04:05.598119 27628 layer_factory.hpp:74] Creating layer inception_5b/pool
I1220 02:04:05.598148 27628 layer_factory.cpp:56] CUDNN does not support padding or multiple tops. Using Caffe's own pooling layer.
I1220 02:04:05.598162 27628 net.cpp:84] Creating Layer inception_5b/pool
I1220 02:04:05.598175 27628 net.cpp:380] inception_5b/pool <- inception_5a/output_inception_5a/output_0_split_3
I1220 02:04:05.598193 27628 net.cpp:338] inception_5b/pool -> inception_5b/pool
I1220 02:04:05.598211 27628 net.cpp:113] Setting up inception_5b/pool
I1220 02:04:05.598232 27628 net.cpp:120] Top shape: 50 832 7 7 (2038400)
I1220 02:04:05.598240 27628 layer_factory.hpp:74] Creating layer inception_5b/pool_proj
I1220 02:04:05.598260 27628 net.cpp:84] Creating Layer inception_5b/pool_proj
I1220 02:04:05.598270 27628 net.cpp:380] inception_5b/pool_proj <- inception_5b/pool
I1220 02:04:05.598283 27628 net.cpp:338] inception_5b/pool_proj -> inception_5b/pool_proj
I1220 02:04:05.598299 27628 net.cpp:113] Setting up inception_5b/pool_proj
I1220 02:04:05.601666 27628 net.cpp:120] Top shape: 50 128 7 7 (313600)
I1220 02:04:05.601724 27628 layer_factory.hpp:74] Creating layer inception_5b/relu_pool_proj
I1220 02:04:05.601747 27628 net.cpp:84] Creating Layer inception_5b/relu_pool_proj
I1220 02:04:05.601763 27628 net.cpp:380] inception_5b/relu_pool_proj <- inception_5b/pool_proj
I1220 02:04:05.601778 27628 net.cpp:327] inception_5b/relu_pool_proj -> inception_5b/pool_proj (in-place)
I1220 02:04:05.601796 27628 net.cpp:113] Setting up inception_5b/relu_pool_proj
I1220 02:04:05.601940 27628 net.cpp:120] Top shape: 50 128 7 7 (313600)
I1220 02:04:05.601953 27628 layer_factory.hpp:74] Creating layer inception_5b/output
I1220 02:04:05.601970 27628 net.cpp:84] Creating Layer inception_5b/output
I1220 02:04:05.601980 27628 net.cpp:380] inception_5b/output <- inception_5b/1x1
I1220 02:04:05.601992 27628 net.cpp:380] inception_5b/output <- inception_5b/3x3
I1220 02:04:05.602004 27628 net.cpp:380] inception_5b/output <- inception_5b/5x5
I1220 02:04:05.602013 27628 net.cpp:380] inception_5b/output <- inception_5b/pool_proj
I1220 02:04:05.602025 27628 net.cpp:338] inception_5b/output -> inception_5b/output
I1220 02:04:05.602041 27628 net.cpp:113] Setting up inception_5b/output
I1220 02:04:05.602056 27628 net.cpp:120] Top shape: 50 1024 7 7 (2508800)
I1220 02:04:05.602063 27628 layer_factory.hpp:74] Creating layer pool5/7x7_s1
I1220 02:04:05.602082 27628 net.cpp:84] Creating Layer pool5/7x7_s1
I1220 02:04:05.602090 27628 net.cpp:380] pool5/7x7_s1 <- inception_5b/output
I1220 02:04:05.602103 27628 net.cpp:338] pool5/7x7_s1 -> pool5/7x7_s1
I1220 02:04:05.602118 27628 net.cpp:113] Setting up pool5/7x7_s1
I1220 02:04:05.602252 27628 net.cpp:120] Top shape: 50 1024 1 1 (51200)
I1220 02:04:05.602264 27628 layer_factory.hpp:74] Creating layer pool5/drop_7x7_s1
I1220 02:04:05.602278 27628 net.cpp:84] Creating Layer pool5/drop_7x7_s1
I1220 02:04:05.602288 27628 net.cpp:380] pool5/drop_7x7_s1 <- pool5/7x7_s1
I1220 02:04:05.602298 27628 net.cpp:327] pool5/drop_7x7_s1 -> pool5/7x7_s1 (in-place)
I1220 02:04:05.602311 27628 net.cpp:113] Setting up pool5/drop_7x7_s1
I1220 02:04:05.602325 27628 net.cpp:120] Top shape: 50 1024 1 1 (51200)
I1220 02:04:05.602334 27628 layer_factory.hpp:74] Creating layer loss3/classifier_kaggle
I1220 02:04:05.602351 27628 net.cpp:84] Creating Layer loss3/classifier_kaggle
I1220 02:04:05.602360 27628 net.cpp:380] loss3/classifier_kaggle <- pool5/7x7_s1
I1220 02:04:05.602376 27628 net.cpp:338] loss3/classifier_kaggle -> loss3/classifier_kaggle
I1220 02:04:05.602392 27628 net.cpp:113] Setting up loss3/classifier_kaggle
I1220 02:04:05.611783 27628 net.cpp:120] Top shape: 50 447 (22350)
I1220 02:04:05.611835 27628 layer_factory.hpp:74] Creating layer loss3/classifier_kaggle_loss3/classifier_kaggle_0_split
I1220 02:04:05.611853 27628 net.cpp:84] Creating Layer loss3/classifier_kaggle_loss3/classifier_kaggle_0_split
I1220 02:04:05.611865 27628 net.cpp:380] loss3/classifier_kaggle_loss3/classifier_kaggle_0_split <- loss3/classifier_kaggle
I1220 02:04:05.611897 27628 net.cpp:338] loss3/classifier_kaggle_loss3/classifier_kaggle_0_split -> loss3/classifier_kaggle_loss3/classifier_kaggle_0_split_0
I1220 02:04:05.611932 27628 net.cpp:338] loss3/classifier_kaggle_loss3/classifier_kaggle_0_split -> loss3/classifier_kaggle_loss3/classifier_kaggle_0_split_1
I1220 02:04:05.611945 27628 net.cpp:338] loss3/classifier_kaggle_loss3/classifier_kaggle_0_split -> loss3/classifier_kaggle_loss3/classifier_kaggle_0_split_2
I1220 02:04:05.611958 27628 net.cpp:113] Setting up loss3/classifier_kaggle_loss3/classifier_kaggle_0_split
I1220 02:04:05.611970 27628 net.cpp:120] Top shape: 50 447 (22350)
I1220 02:04:05.611980 27628 net.cpp:120] Top shape: 50 447 (22350)
I1220 02:04:05.611989 27628 net.cpp:120] Top shape: 50 447 (22350)
I1220 02:04:05.611996 27628 layer_factory.hpp:74] Creating layer loss3/loss3
I1220 02:04:05.612012 27628 net.cpp:84] Creating Layer loss3/loss3
I1220 02:04:05.612020 27628 net.cpp:380] loss3/loss3 <- loss3/classifier_kaggle_loss3/classifier_kaggle_0_split_0
I1220 02:04:05.612031 27628 net.cpp:380] loss3/loss3 <- label_data_1_split_6
I1220 02:04:05.612042 27628 net.cpp:338] loss3/loss3 -> loss3/loss3
…
