…
I1216 13:14:24.810173 17145 net.cpp:257] The NetState phase (0) differed from the phase (1) specified by a rule in layer loss3/top-5
I1216 13:14:24.812893 17145 net.cpp:42] Initializing net from parameters: 
name: "GoogleNet"
state {
  phase: TRAIN
}
layer {
  name: "data"
  type: "Data"
  top: "data"
  top: "label"
  include {
    phase: TRAIN
  }
  transform_param {
    mirror: true
    crop_size: 224
    mean_value: 104
    mean_value: 117
    mean_value: 123
  }
  data_param {
    source: "/home/coldmanck/kaggle/kaggle2_train_lmdb"
    batch_size: 32
    backend: LMDB
  }
}
layer {
  name: "conv1/7x7_s2"
  type: "Convolution"
  bottom: "data"
  top: "conv1/7x7_s2"
  param {
    lr_mult: 1
    decay_mult: 1
  }
  param {
    lr_mult: 2
    decay_mult: 0
  }
  convolution_param {
    num_output: 64
    pad: 3
    kernel_size: 7
    stride: 2
    weight_filler {
      type: "xavier"
      std: 0.1
    }
    bias_filler {
      type: "constant"
      value: 0.2
    }
  }
}
layer {
  name: "conv1/relu_7x7"
  type: "ReLU"
  bottom: "conv1/7x7_s2"
  top: "conv1/7x7_s2"
}
layer {
  name: "pool1/3x3_s2"
  type: "Pooling"
  bottom: "conv1/7x7_s2"
  top: "pool1/3x3_s2"
  pooling_param {
    pool: MAX
    kernel_size: 3
    stride: 2
  }
}
layer {
  name: "pool1/norm1"
  type: "LRN"
  bottom: "pool1/3x3_s2"
  top: "pool1/norm1"
  lrn_param {
    local_size: 5
    alpha: 0.0001
    beta: 0.75
  }
}
layer {
  name: "conv2/3x3_reduce"
  type: "Convolution"
  bottom: "pool1/norm1"
  top: "conv2/3x3_reduce"
  param {
    lr_mult: 1
    decay_mult: 1
  }
  param {
    lr_mult: 2
    decay_mult: 0
  }
  convolution_param {
    num_output: 64
    kernel_size: 1
    weight_filler {
      type: "xavier"
      std: 0.1
    }
    bias_filler {
      type: "constant"
      value: 0.2
    }
  }
}
layer {
  name: "conv2/relu_3x3_reduce"
  type: "ReLU"
  bottom: "conv2/3x3_reduce"
  top: "conv2/3x3_reduce"
}
layer {
  name: "conv2/3x3"
  type: "Convolution"
  bottom: "conv2/3x3_reduce"
  top: "conv2/3x3"
  param {
    lr_mult: 1
    decay_mult: 1
  }
  param {
    lr_mult: 2
    decay_mult: 0
  }
  convolution_param {
    num_output: 192
    pad: 1
    kernel_size: 3
    weight_filler {
      type: "xavier"
      std: 0.03
    }
    bias_filler {
      type: "constant"
      value: 0.2
    }
  }
}
layer {
  name: "conv2/relu_3x3"
  type: "ReLU"
  bottom: "conv2/3x3"
  top: "conv2/3x3"
}
layer {
  name: "conv2/norm2"
  type: "LRN"
  bottom: "conv2/3x3"
  top: "conv2/norm2"
  lrn_param {
    local_size: 5
    alpha: 0.0001
    beta: 0.75
  }
}
layer {
  name: "pool2/3x3_s2"
  type: "Pooling"
  bottom: "conv2/norm2"
  top: "pool2/3x3_s2"
  pooling_param {
    pool: MAX
    kernel_size: 3
    stride: 2
  }
}
layer {
  name: "inception_3a/1x1"
  type: "Convolution"
  bottom: "pool2/3x3_s2"
  top: "inception_3a/1x1"
  param {
    lr_mult: 1
    decay_mult: 1
  }
  param {
    lr_mult: 2
    decay_mult: 0
  }
  convolution_param {
    num_output: 64
    kernel_size: 1
    weight_filler {
      type: "xavier"
      std: 0.03
    }
    bias_filler {
      type: "constant"
      value: 0.2
    }
  }
}
layer {
  name: "inception_3a/relu_1x1"
  type: "ReLU"
  bottom: "inception_3a/1x1"
  top: "inception_3a/1x1"
}
layer {
  name: "inception_3a/3x3_reduce"
  type: "Convolution"
  bottom: "pool2/3x3_s2"
  top: "inception_3a/3x3_reduce"
  param {
    lr_mult: 1
    decay_mult: 1
  }
  param {
    lr_mult: 2
    decay_mult: 0
  }
  convolution_param {
    num_output: 96
    kernel_size: 1
    weight_filler {
      type: "xavier"
      std: 0.09
    }
    bias_filler {
      type: "constant"
      value: 0.2
    }
  }
}
layer {
  name: "inception_3a/relu_3x3_reduce"
  type: "ReLU"
  bottom: "inception_3a/3x3_reduce"
  top: "inception_3a/3x3_reduce"
}
layer {
  name: "inception_3a/3x3"
  type: "Convolution"
  bottom: "inception_3a/3x3_reduce"
  top: "inception_3a/3x3"
  param {
    lr_mult: 1
    decay_mult: 1
  }
  param {
    lr_mult: 2
    decay_mult: 0
  }
  convolution_param {
    num_output: 128
    pad: 1
    kernel_size: 3
    weight_filler {
      type: "xavier"
      std: 0.03
    }
    bias_filler {
      type: "constant"
      value: 0.2
    }
  }
}
layer {
  name: "inception_3a/relu_3x3"
  type: "ReLU"
  bottom: "inception_3a/3x3"
  top: "inception_3a/3x3"
}
layer {
  name: "inception_3a/5x5_reduce"
  type: "Convolution"
  bottom: "pool2/3x3_s2"
  top: "inception_3a/5x5_reduce"
  param {
    lr_mult: 1
    decay_mult: 1
  }
  param {
    lr_mult: 2
    decay_mult: 0
  }
  convolution_param {
    num_output: 16
    kernel_size: 1
    weight_filler {
      type: "xavier"
      std: 0.2
    }
    bias_filler {
      type: "constant"
      value: 0.2
    }
  }
}
layer {
  name: "inception_3a/relu_5x5_reduce"
  type: "ReLU"
  bottom: "inception_3a/5x5_reduce"
  top: "inception_3a/5x5_reduce"
}
layer {
  name: "inception_3a/5x5"
  type: "Convolution"
  bottom: "inception_3a/5x5_reduce"
  top: "inception_3a/5x5"
  param {
    lr_mult: 1
    decay_mult: 1
  }
  param {
    lr_mult: 2
    decay_mult: 0
  }
  convolution_param {
    num_output: 32
    pad: 2
    kernel_size: 5
    weight_filler {
      type: "xavier"
      std: 0.03
    }
    bias_filler {
      type: "constant"
      value: 0.2
    }
  }
}
layer {
  name: "inception_3a/relu_5x5"
  type: "ReLU"
  bottom: "inception_3a/5x5"
  top: "inception_3a/5x5"
}
layer {
  name: "inception_3a/pool"
  type: "Pooling"
  bottom: "pool2/3x3_s2"
  top: "inception_3a/pool"
  pooling_param {
    pool: MAX
    kernel_size: 3
    stride: 1
    pad: 1
  }
}
layer {
  name: "inception_3a/pool_proj"
  type: "Convolution"
  bottom: "inception_3a/pool"
  top: "inception_3a/pool_proj"
  param {
    lr_mult: 1
    decay_mult: 1
  }
  param {
    lr_mult: 2
    decay_mult: 0
  }
  convolution_param {
    num_output: 32
    kernel_size: 1
    weight_filler {
      type: "xavier"
      std: 0.1
    }
    bias_filler {
      type: "constant"
      value: 0.2
    }
  }
}
layer {
  name: "inception_3a/relu_pool_proj"
  type: "ReLU"
  bottom: "inception_3a/pool_proj"
  top: "inception_3a/pool_proj"
}
layer {
  name: "inception_3a/output"
  type: "Concat"
  bottom: "inception_3a/1x1"
  bottom: "inception_3a/3x3"
  bottom: "inception_3a/5x5"
  bottom: "inception_3a/pool_proj"
  top: "inception_3a/output"
}
layer {
  name: "inception_3b/1x1"
  type: "Convolution"
  bottom: "inception_3a/output"
  top: "inception_3b/1x1"
  param {
    lr_mult: 1
    decay_mult: 1
  }
  param {
    lr_mult: 2
    decay_mult: 0
  }
  convolution_param {
    num_output: 128
    kernel_size: 1
    weight_filler {
      type: "xavier"
      std: 0.03
    }
    bias_filler {
      type: "constant"
      value: 0.2
    }
  }
}
layer {
  name: "inception_3b/relu_1x1"
  type: "ReLU"
  bottom: "inception_3b/1x1"
  top: "inception_3b/1x1"
}
layer {
  name: "inception_3b/3x3_reduce"
  type: "Convolution"
  bottom: "inception_3a/output"
  top: "inception_3b/3x3_reduce"
  param {
    lr_mult: 1
    decay_mult: 1
  }
  param {
    lr_mult: 2
    decay_mult: 0
  }
  convolution_param {
    num_output: 128
    kernel_size: 1
    weight_filler {
      type: "xavier"
      std: 0.09
    }
    bias_filler {
      type: "constant"
      value: 0.2
    }
  }
}
layer {
  name: "inception_3b/relu_3x3_reduce"
  type: "ReLU"
  bottom: "inception_3b/3x3_reduce"
  top: "inception_3b/3x3_reduce"
}
layer {
  name: "inception_3b/3x3"
  type: "Convolution"
  bottom: "inception_3b/3x3_reduce"
  top: "inception_3b/3x3"
  param {
    lr_mult: 1
    decay_mult: 1
  }
  param {
    lr_mult: 2
    decay_mult: 0
  }
  convolution_param {
    num_output: 192
    pad: 1
    kernel_size: 3
    weight_filler {
      type: "xavier"
      std: 0.03
    }
    bias_filler {
      type: "constant"
      value: 0.2
    }
  }
}
layer {
  name: "inception_3b/relu_3x3"
  type: "ReLU"
  bottom: "inception_3b/3x3"
  top: "inception_3b/3x3"
}
layer {
  name: "inception_3b/5x5_reduce"
  type: "Convolution"
  bottom: "inception_3a/output"
  top: "inception_3b/5x5_reduce"
  param {
    lr_mult: 1
    decay_mult: 1
  }
  param {
    lr_mult: 2
    decay_mult: 0
  }
  convolution_param {
    num_output: 32
    kernel_size: 1
    weight_filler {
      type: "xavier"
      std: 0.2
    }
    bias_filler {
      type: "constant"
      value: 0.2
    }
  }
}
layer {
  name: "inception_3b/relu_5x5_reduce"
  type: "ReLU"
  bottom: "inception_3b/5x5_reduce"
  top: "inception_3b/5x5_reduce"
}
layer {
  name: "inception_3b/5x5"
  type: "Convolution"
  bottom: "inception_3b/5x5_reduce"
  top: "inception_3b/5x5"
  param {
    lr_mult: 1
    decay_mult: 1
  }
  param {
    lr_mult: 2
    decay_mult: 0
  }
  convolution_param {
    num_output: 96
    pad: 2
    kernel_size: 5
    weight_filler {
      type: "xavier"
      std: 0.03
    }
    bias_filler {
      type: "constant"
      value: 0.2
    }
  }
}
layer {
  name: "inception_3b/relu_5x5"
  type: "ReLU"
  bottom: "inception_3b/5x5"
  top: "inception_3b/5x5"
}
layer {
  name: "inception_3b/pool"
  type: "Pooling"
  bottom: "inception_3a/output"
  top: "inception_3b/pool"
  pooling_param {
    pool: MAX
    kernel_size: 3
    stride: 1
    pad: 1
  }
}
layer {
  name: "inception_3b/pool_proj"
  type: "Convolution"
  bottom: "inception_3b/pool"
  top: "inception_3b/pool_proj"
  param {
    lr_mult: 1
    decay_mult: 1
  }
  param {
    lr_mult: 2
    decay_mult: 0
  }
  convolution_param {
    num_output: 64
    kernel_size: 1
    weight_filler {
      type: "xavier"
      std: 0.1
    }
    bias_filler {
      type: "constant"
      value: 0.2
    }
  }
}
layer {
  name: "inception_3b/relu_pool_proj"
  type: "ReLU"
  bottom: "inception_3b/pool_proj"
  top: "inception_3b/pool_proj"
}
layer {
  name: "inception_3b/output"
  type: "Concat"
  bottom: "inception_3b/1x1"
  bottom: "inception_3b/3x3"
  bottom: "inception_3b/5x5"
  bottom: "inception_3b/pool_proj"
  top: "inception_3b/output"
}
layer {
  name: "pool3/3x3_s2"
  type: "Pooling"
  bottom: "inception_3b/output"
  top: "pool3/3x3_s2"
  pooling_param {
    pool: MAX
    kernel_size: 3
    stride: 2
  }
}
layer {
  name: "inception_4a/1x1"
  type: "Convolution"
  bottom: "pool3/3x3_s2"
  top: "inception_4a/1x1"
  param {
    lr_mult: 1
    decay_mult: 1
  }
  param {
    lr_mult: 2
    decay_mult: 0
  }
  convolution_param {
    num_output: 192
    kernel_size: 1
    weight_filler {
      type: "xavier"
      std: 0.03
    }
    bias_filler {
      type: "constant"
      value: 0.2
    }
  }
}
layer {
  name: "inception_4a/relu_1x1"
  type: "ReLU"
  bottom: "inception_4a/1x1"
  top: "inception_4a/1x1"
}
layer {
  name: "inception_4a/3x3_reduce"
  type: "Convolution"
  bottom: "pool3/3x3_s2"
  top: "inception_4a/3x3_reduce"
  param {
    lr_mult: 1
    decay_mult: 1
  }
  param {
    lr_mult: 2
    decay_mult: 0
  }
  convolution_param {
    num_output: 96
    kernel_size: 1
    weight_filler {
      type: "xavier"
      std: 0.09
    }
    bias_filler {
      type: "constant"
      value: 0.2
    }
  }
}
layer {
  name: "inception_4a/relu_3x3_reduce"
  type: "ReLU"
  bottom: "inception_4a/3x3_reduce"
  top: "inception_4a/3x3_reduce"
}
layer {
  name: "inception_4a/3x3"
  type: "Convolution"
  bottom: "inception_4a/3x3_reduce"
  top: "inception_4a/3x3"
  param {
    lr_mult: 1
    decay_mult: 1
  }
  param {
    lr_mult: 2
    decay_mult: 0
  }
  convolution_param {
    num_output: 208
    pad: 1
    kernel_size: 3
    weight_filler {
      type: "xavier"
      std: 0.03
    }
    bias_filler {
      type: "constant"
      value: 0.2
    }
  }
}
layer {
  name: "inception_4a/relu_3x3"
  type: "ReLU"
  bottom: "inception_4a/3x3"
  top: "inception_4a/3x3"
}
layer {
  name: "inception_4a/5x5_reduce"
  type: "Convolution"
  bottom: "pool3/3x3_s2"
  top: "inception_4a/5x5_reduce"
  param {
    lr_mult: 1
    decay_mult: 1
  }
  param {
    lr_mult: 2
    decay_mult: 0
  }
  convolution_param {
    num_output: 16
    kernel_size: 1
    weight_filler {
      type: "xavier"
      std: 0.2
    }
    bias_filler {
      type: "constant"
      value: 0.2
    }
  }
}
layer {
  name: "inception_4a/relu_5x5_reduce"
  type: "ReLU"
  bottom: "inception_4a/5x5_reduce"
  top: "inception_4a/5x5_reduce"
}
layer {
  name: "inception_4a/5x5"
  type: "Convolution"
  bottom: "inception_4a/5x5_reduce"
  top: "inception_4a/5x5"
  param {
    lr_mult: 1
    decay_mult: 1
  }
  param {
    lr_mult: 2
    decay_mult: 0
  }
  convolution_param {
    num_output: 48
    pad: 2
    kernel_size: 5
    weight_filler {
      type: "xavier"
      std: 0.03
    }
    bias_filler {
      type: "constant"
      value: 0.2
    }
  }
}
layer {
  name: "inception_4a/relu_5x5"
  type: "ReLU"
  bottom: "inception_4a/5x5"
  top: "inception_4a/5x5"
}
layer {
  name: "inception_4a/pool"
  type: "Pooling"
  bottom: "pool3/3x3_s2"
  top: "inception_4a/pool"
  pooling_param {
    pool: MAX
    kernel_size: 3
    stride: 1
    pad: 1
  }
}
layer {
  name: "inception_4a/pool_proj"
  type: "Convolution"
  bottom: "inception_4a/pool"
  top: "inception_4a/pool_proj"
  param {
    lr_mult: 1
    decay_mult: 1
  }
  param {
    lr_mult: 2
    decay_mult: 0
  }
  convolution_param {
    num_output: 64
    kernel_size: 1
    weight_filler {
      type: "xavier"
      std: 0.1
    }
    bias_filler {
      type: "constant"
      value: 0.2
    }
  }
}
layer {
  name: "inception_4a/relu_pool_proj"
  type: "ReLU"
  bottom: "inception_4a/pool_proj"
  top: "inception_4a/pool_proj"
}
layer {
  name: "inception_4a/output"
  type: "Concat"
  bottom: "inception_4a/1x1"
  bottom: "inception_4a/3x3"
  bottom: "inception_4a/5x5"
  bottom: "inception_4a/pool_proj"
  top: "inception_4a/output"
}
layer {
  name: "loss1/ave_pool"
  type: "Pooling"
  bottom: "inception_4a/output"
  top: "loss1/ave_pool"
  pooling_param {
    pool: AVE
    kernel_size: 5
    stride: 3
  }
}
layer {
  name: "loss1/conv"
  type: "Convolution"
  bottom: "loss1/ave_pool"
  top: "loss1/conv"
  param {
    lr_mult: 1
    decay_mult: 1
  }
  param {
    lr_mult: 2
    decay_mult: 0
  }
  convolution_param {
    num_output: 128
    kernel_size: 1
    weight_filler {
      type: "xavier"
      std: 0.08
    }
    bias_filler {
      type: "constant"
      value: 0.2
    }
  }
}
layer {
  name: "loss1/relu_conv"
  type: "ReLU"
  bottom: "loss1/conv"
  top: "loss1/conv"
}
layer {
  name: "loss1/fc"
  type: "InnerProduct"
  bottom: "loss1/conv"
  top: "loss1/fc"
  param {
    lr_mult: 1
    decay_mult: 1
  }
  param {
    lr_mult: 2
    decay_mult: 0
  }
  inner_product_param {
    num_output: 1024
    weight_filler {
      type: "xavier"
      std: 0.02
    }
    bias_filler {
      type: "constant"
      value: 0.2
    }
  }
}
layer {
  name: "loss1/relu_fc"
  type: "ReLU"
  bottom: "loss1/fc"
  top: "loss1/fc"
}
layer {
  name: "loss1/drop_fc"
  type: "Dropout"
  bottom: "loss1/fc"
  top: "loss1/fc"
  dropout_param {
    dropout_ratio: 0.7
  }
}
layer {
  name: "loss1/classifier_kaggle"
  type: "InnerProduct"
  bottom: "loss1/fc"
  top: "loss1/classifier_kaggle"
  param {
    lr_mult: 1
    decay_mult: 1
  }
  param {
    lr_mult: 2
    decay_mult: 0
  }
  inner_product_param {
    num_output: 447
    weight_filler {
      type: "xavier"
      std: 0.0009765625
    }
    bias_filler {
      type: "constant"
      value: 0
    }
  }
}
layer {
  name: "loss1/loss"
  type: "SoftmaxWithLoss"
  bottom: "loss1/classifier_kaggle"
  bottom: "label"
  top: "loss1/loss1"
  loss_weight: 0.3
}
layer {
  name: "inception_4b/1x1"
  type: "Convolution"
  bottom: "inception_4a/output"
  top: "inception_4b/1x1"
  param {
    lr_mult: 1
    decay_mult: 1
  }
  param {
    lr_mult: 2
    decay_mult: 0
  }
  convolution_param {
    num_output: 160
    kernel_size: 1
    weight_filler {
      type: "xavier"
      std: 0.03
    }
    bias_filler {
      type: "constant"
      value: 0.2
    }
  }
}
layer {
  name: "inception_4b/relu_1x1"
  type: "ReLU"
  bottom: "inception_4b/1x1"
  top: "inception_4b/1x1"
}
layer {
  name: "inception_4b/3x3_reduce"
  type: "Convolution"
  bottom: "inception_4a/output"
  top: "inception_4b/3x3_reduce"
  param {
    lr_mult: 1
    decay_mult: 1
  }
  param {
    lr_mult: 2
    decay_mult: 0
  }
  convolution_param {
    num_output: 112
    kernel_size: 1
    weight_filler {
      type: "xavier"
      std: 0.09
    }
    bias_filler {
      type: "constant"
      value: 0.2
    }
  }
}
layer {
  name: "inception_4b/relu_3x3_reduce"
  type: "ReLU"
  bottom: "inception_4b/3x3_reduce"
  top: "inception_4b/3x3_reduce"
}
layer {
  name: "inception_4b/3x3"
  type: "Convolution"
  bottom: "inception_4b/3x3_reduce"
  top: "inception_4b/3x3"
  param {
    lr_mult: 1
    decay_mult: 1
  }
  param {
    lr_mult: 2
    decay_mult: 0
  }
  convolution_param {
    num_output: 224
    pad: 1
    kernel_size: 3
    weight_filler {
      type: "xavier"
      std: 0.03
    }
    bias_filler {
      type: "constant"
      value: 0.2
    }
  }
}
layer {
  name: "inception_4b/relu_3x3"
  type: "ReLU"
  bottom: "inception_4b/3x3"
  top: "inception_4b/3x3"
}
layer {
  name: "inception_4b/5x5_reduce"
  type: "Convolution"
  bottom: "inception_4a/output"
  top: "inception_4b/5x5_reduce"
  param {
    lr_mult: 1
    decay_mult: 1
  }
  param {
    lr_mult: 2
    decay_mult: 0
  }
  convolution_param {
    num_output: 24
    kernel_size: 1
    weight_filler {
      type: "xavier"
      std: 0.2
    }
    bias_filler {
      type: "constant"
      value: 0.2
    }
  }
}
layer {
  name: "inception_4b/relu_5x5_reduce"
  type: "ReLU"
  bottom: "inception_4b/5x5_reduce"
  top: "inception_4b/5x5_reduce"
}
layer {
  name: "inception_4b/5x5"
  type: "Convolution"
  bottom: "inception_4b/5x5_reduce"
  top: "inception_4b/5x5"
  param {
    lr_mult: 1
    decay_mult: 1
  }
  param {
    lr_mult: 2
    decay_mult: 0
  }
  convolution_param {
    num_output: 64
    pad: 2
    kernel_size: 5
    weight_filler {
      type: "xavier"
      std: 0.03
    }
    bias_filler {
      type: "constant"
      value: 0.2
    }
  }
}
layer {
  name: "inception_4b/relu_5x5"
  type: "ReLU"
  bottom: "inception_4b/5x5"
  top: "inception_4b/5x5"
}
layer {
  name: "inception_4b/pool"
  type: "Pooling"
  bottom: "inception_4a/output"
  top: "inception_4b/pool"
  pooling_param {
    pool: MAX
    kernel_size: 3
    stride: 1
    pad: 1
  }
}
layer {
  name: "inception_4b/pool_proj"
  type: "Convolution"
  bottom: "inception_4b/pool"
  top: "inception_4b/pool_proj"
  param {
    lr_mult: 1
    decay_mult: 1
  }
  param {
    lr_mult: 2
    decay_mult: 0
  }
  convolution_param {
    num_output: 64
    kernel_size: 1
    weight_filler {
      type: "xavier"
      std: 0.1
    }
    bias_filler {
      type: "constant"
      value: 0.2
    }
  }
}
layer {
  name: "inception_4b/relu_pool_proj"
  type: "ReLU"
  bottom: "inception_4b/pool_proj"
  top: "inception_4b/pool_proj"
}
layer {
  name: "inception_4b/output"
  type: "Concat"
  bottom: "inception_4b/1x1"
  bottom: "inception_4b/3x3"
  bottom: "inception_4b/5x5"
  bottom: "inception_4b/pool_proj"
  top: "inception_4b/output"
}
layer {
  name: "inception_4c/1x1"
  type: "Convolution"
  bottom: "inception_4b/output"
  top: "inception_4c/1x1"
  param {
    lr_mult: 1
    decay_mult: 1
  }
  param {
    lr_mult: 2
    decay_mult: 0
  }
  convolution_param {
    num_output: 128
    kernel_size: 1
    weight_filler {
      type: "xavier"
      std: 0.03
    }
    bias_filler {
      type: "constant"
      value: 0.2
    }
  }
}
layer {
  name: "inception_4c/relu_1x1"
  type: "ReLU"
  bottom: "inception_4c/1x1"
  top: "inception_4c/1x1"
}
layer {
  name: "inception_4c/3x3_reduce"
  type: "Convolution"
  bottom: "inception_4b/output"
  top: "inception_4c/3x3_reduce"
  param {
    lr_mult: 1
    decay_mult: 1
  }
  param {
    lr_mult: 2
    decay_mult: 0
  }
  convolution_param {
    num_output: 128
    kernel_size: 1
    weight_filler {
      type: "xavier"
      std: 0.09
    }
    bias_filler {
      type: "constant"
      value: 0.2
    }
  }
}
layer {
  name: "inception_4c/relu_3x3_reduce"
  type: "ReLU"
  bottom: "inception_4c/3x3_reduce"
  top: "inception_4c/3x3_reduce"
}
layer {
  name: "inception_4c/3x3"
  type: "Convolution"
  bottom: "inception_4c/3x3_reduce"
  top: "inception_4c/3x3"
  param {
    lr_mult: 1
    decay_mult: 1
  }
  param {
    lr_mult: 2
    decay_mult: 0
  }
  convolution_param {
    num_output: 256
    pad: 1
    kernel_size: 3
    weight_filler {
      type: "xavier"
      std: 0.03
    }
    bias_filler {
      type: "constant"
      value: 0.2
    }
  }
}
layer {
  name: "inception_4c/relu_3x3"
  type: "ReLU"
  bottom: "inception_4c/3x3"
  top: "inception_4c/3x3"
}
layer {
  name: "inception_4c/5x5_reduce"
  type: "Convolution"
  bottom: "inception_4b/output"
  top: "inception_4c/5x5_reduce"
  param {
    lr_mult: 1
    decay_mult: 1
  }
  param {
    lr_mult: 2
    decay_mult: 0
  }
  convolution_param {
    num_output: 24
    kernel_size: 1
    weight_filler {
      type: "xavier"
      std: 0.2
    }
    bias_filler {
      type: "constant"
      value: 0.2
    }
  }
}
layer {
  name: "inception_4c/relu_5x5_reduce"
  type: "ReLU"
  bottom: "inception_4c/5x5_reduce"
  top: "inception_4c/5x5_reduce"
}
layer {
  name: "inception_4c/5x5"
  type: "Convolution"
  bottom: "inception_4c/5x5_reduce"
  top: "inception_4c/5x5"
  param {
    lr_mult: 1
    decay_mult: 1
  }
  param {
    lr_mult: 2
    decay_mult: 0
  }
  convolution_param {
    num_output: 64
    pad: 2
    kernel_size: 5
    weight_filler {
      type: "xavier"
      std: 0.03
    }
    bias_filler {
      type: "constant"
      value: 0.2
    }
  }
}
layer {
  name: "inception_4c/relu_5x5"
  type: "ReLU"
  bottom: "inception_4c/5x5"
  top: "inception_4c/5x5"
}
layer {
  name: "inception_4c/pool"
  type: "Pooling"
  bottom: "inception_4b/output"
  top: "inception_4c/pool"
  pooling_param {
    pool: MAX
    kernel_size: 3
    stride: 1
    pad: 1
  }
}
layer {
  name: "inception_4c/pool_proj"
  type: "Convolution"
  bottom: "inception_4c/pool"
  top: "inception_4c/pool_proj"
  param {
    lr_mult: 1
    decay_mult: 1
  }
  param {
    lr_mult: 2
    decay_mult: 0
  }
  convolution_param {
    num_output: 64
    kernel_size: 1
    weight_filler {
      type: "xavier"
      std: 0.1
    }
    bias_filler {
      type: "constant"
      value: 0.2
    }
  }
}
layer {
  name: "inception_4c/relu_pool_proj"
  type: "ReLU"
  bottom: "inception_4c/pool_proj"
  top: "inception_4c/pool_proj"
}
layer {
  name: "inception_4c/output"
  type: "Concat"
  bottom: "inception_4c/1x1"
  bottom: "inception_4c/3x3"
  bottom: "inception_4c/5x5"
  bottom: "inception_4c/pool_proj"
  top: "inception_4c/output"
}
layer {
  name: "inception_4d/1x1"
  type: "Convolution"
  bottom: "inception_4c/output"
  top: "inception_4d/1x1"
  param {
    lr_mult: 1
    decay_mult: 1
  }
  param {
    lr_mult: 2
    decay_mult: 0
  }
  convolution_param {
    num_output: 112
    kernel_size: 1
    weight_filler {
      type: "xavier"
      std: 0.03
    }
    bias_filler {
      type: "constant"
      value: 0.2
    }
  }
}
layer {
  name: "inception_4d/relu_1x1"
  type: "ReLU"
  bottom: "inception_4d/1x1"
  top: "inception_4d/1x1"
}
layer {
  name: "inception_4d/3x3_reduce"
  type: "Convolution"
  bottom: "inception_4c/output"
  top: "inception_4d/3x3_reduce"
  param {
    lr_mult: 1
    decay_mult: 1
  }
  param {
    lr_mult: 2
    decay_mult: 0
  }
  convolution_param {
    num_output: 144
    kernel_size: 1
    weight_filler {
      type: "xavier"
      std: 0.09
    }
    bias_filler {
      type: "constant"
      value: 0.2
    }
  }
}
layer {
  name: "inception_4d/relu_3x3_reduce"
  type: "ReLU"
  bottom: "inception_4d/3x3_reduce"
  top: "inception_4d/3x3_reduce"
}
layer {
  name: "inception_4d/3x3"
  type: "Convolution"
  bottom: "inception_4d/3x3_reduce"
  top: "inception_4d/3x3"
  param {
    lr_mult: 1
    decay_mult: 1
  }
  param {
    lr_mult: 2
    decay_mult: 0
  }
  convolution_param {
    num_output: 288
    pad: 1
    kernel_size: 3
    weight_filler {
      type: "xavier"
      std: 0.03
    }
    bias_filler {
      type: "constant"
      value: 0.2
    }
  }
}
layer {
  name: "inception_4d/relu_3x3"
  type: "ReLU"
  bottom: "inception_4d/3x3"
  top: "inception_4d/3x3"
}
layer {
  name: "inception_4d/5x5_reduce"
  type: "Convolution"
  bottom: "inception_4c/output"
  top: "inception_4d/5x5_reduce"
  param {
    lr_mult: 1
    decay_mult: 1
  }
  param {
    lr_mult: 2
    decay_mult: 0
  }
  convolution_param {
    num_output: 32
    kernel_size: 1
    weight_filler {
      type: "xavier"
      std: 0.2
    }
    bias_filler {
      type: "constant"
      value: 0.2
    }
  }
}
layer {
  name: "inception_4d/relu_5x5_reduce"
  type: "ReLU"
  bottom: "inception_4d/5x5_reduce"
  top: "inception_4d/5x5_reduce"
}
layer {
  name: "inception_4d/5x5"
  type: "Convolution"
  bottom: "inception_4d/5x5_reduce"
  top: "inception_4d/5x5"
  param {
    lr_mult: 1
    decay_mult: 1
  }
  param {
    lr_mult: 2
    decay_mult: 0
  }
  convolution_param {
    num_output: 64
    pad: 2
    kernel_size: 5
    weight_filler {
      type: "xavier"
      std: 0.03
    }
    bias_filler {
      type: "constant"
      value: 0.2
    }
  }
}
layer {
  name: "inception_4d/relu_5x5"
  type: "ReLU"
  bottom: "inception_4d/5x5"
  top: "inception_4d/5x5"
}
layer {
  name: "inception_4d/pool"
  type: "Pooling"
  bottom: "inception_4c/output"
  top: "inception_4d/pool"
  pooling_param {
    pool: MAX
    kernel_size: 3
    stride: 1
    pad: 1
  }
}
layer {
  name: "inception_4d/pool_proj"
  type: "Convolution"
  bottom: "inception_4d/pool"
  top: "inception_4d/pool_proj"
  param {
    lr_mult: 1
    decay_mult: 1
  }
  param {
    lr_mult: 2
    decay_mult: 0
  }
  convolution_param {
    num_output: 64
    kernel_size: 1
    weight_filler {
      type: "xavier"
      std: 0.1
    }
    bias_filler {
      type: "constant"
      value: 0.2
    }
  }
}
layer {
  name: "inception_4d/relu_pool_proj"
  type: "ReLU"
  bottom: "inception_4d/pool_proj"
  top: "inception_4d/pool_proj"
}
layer {
  name: "inception_4d/output"
  type: "Concat"
  bottom: "inception_4d/1x1"
  bottom: "inception_4d/3x3"
  bottom: "inception_4d/5x5"
  bottom: "inception_4d/pool_proj"
  top: "inception_4d/output"
}
layer {
  name: "loss2/ave_pool"
  type: "Pooling"
  bottom: "inception_4d/output"
  top: "loss2/ave_pool"
  pooling_param {
    pool: AVE
    kernel_size: 5
    stride: 3
  }
}
layer {
  name: "loss2/conv"
  type: "Convolution"
  bottom: "loss2/ave_pool"
  top: "loss2/conv"
  param {
    lr_mult: 1
    decay_mult: 1
  }
  param {
    lr_mult: 2
    decay_mult: 0
  }
  convolution_param {
    num_output: 128
    kernel_size: 1
    weight_filler {
      type: "xavier"
      std: 0.08
    }
    bias_filler {
      type: "constant"
      value: 0.2
    }
  }
}
layer {
  name: "loss2/relu_conv"
  type: "ReLU"
  bottom: "loss2/conv"
  top: "loss2/conv"
}
layer {
  name: "loss2/fc"
  type: "InnerProduct"
  bottom: "loss2/conv"
  top: "loss2/fc"
  param {
    lr_mult: 1
    decay_mult: 1
  }
  param {
    lr_mult: 2
    decay_mult: 0
  }
  inner_product_param {
    num_output: 1024
    weight_filler {
      type: "xavier"
      std: 0.02
    }
    bias_filler {
      type: "constant"
      value: 0.2
    }
  }
}
layer {
  name: "loss2/relu_fc"
  type: "ReLU"
  bottom: "loss2/fc"
  top: "loss2/fc"
}
layer {
  name: "loss2/drop_fc"
  type: "Dropout"
  bottom: "loss2/fc"
  top: "loss2/fc"
  dropout_param {
    dropout_ratio: 0.7
  }
}
layer {
  name: "loss2/classifier_kaggle"
  type: "InnerProduct"
  bottom: "loss2/fc"
  top: "loss2/classifier_kaggle"
  param {
    lr_mult: 1
    decay_mult: 1
  }
  param {
    lr_mult: 2
    decay_mult: 0
  }
  inner_product_param {
    num_output: 447
    weight_filler {
      type: "xavier"
      std: 0.0009765625
    }
    bias_filler {
      type: "constant"
      value: 0
    }
  }
}
layer {
  name: "loss2/loss"
  type: "SoftmaxWithLoss"
  bottom: "loss2/classifier_kaggle"
  bottom: "label"
  top: "loss2/loss1"
  loss_weight: 0.3
}
layer {
  name: "inception_4e/1x1"
  type: "Convolution"
  bottom: "inception_4d/output"
  top: "inception_4e/1x1"
  param {
    lr_mult: 1
    decay_mult: 1
  }
  param {
    lr_mult: 2
    decay_mult: 0
  }
  convolution_param {
    num_output: 256
    kernel_size: 1
    weight_filler {
      type: "xavier"
      std: 0.03
    }
    bias_filler {
      type: "constant"
      value: 0.2
    }
  }
}
layer {
  name: "inception_4e/relu_1x1"
  type: "ReLU"
  bottom: "inception_4e/1x1"
  top: "inception_4e/1x1"
}
layer {
  name: "inception_4e/3x3_reduce"
  type: "Convolution"
  bottom: "inception_4d/output"
  top: "inception_4e/3x3_reduce"
  param {
    lr_mult: 1
    decay_mult: 1
  }
  param {
    lr_mult: 2
    decay_mult: 0
  }
  convolution_param {
    num_output: 160
    kernel_size: 1
    weight_filler {
      type: "xavier"
      std: 0.09
    }
    bias_filler {
      type: "constant"
      value: 0.2
    }
  }
}
layer {
  name: "inception_4e/relu_3x3_reduce"
  type: "ReLU"
  bottom: "inception_4e/3x3_reduce"
  top: "inception_4e/3x3_reduce"
}
layer {
  name: "inception_4e/3x3"
  type: "Convolution"
  bottom: "inception_4e/3x3_reduce"
  top: "inception_4e/3x3"
  param {
    lr_mult: 1
    decay_mult: 1
  }
  param {
    lr_mult: 2
    decay_mult: 0
  }
  convolution_param {
    num_output: 320
    pad: 1
    kernel_size: 3
    weight_filler {
      type: "xavier"
      std: 0.03
    }
    bias_filler {
      type: "constant"
      value: 0.2
    }
  }
}
layer {
  name: "inception_4e/relu_3x3"
  type: "ReLU"
  bottom: "inception_4e/3x3"
  top: "inception_4e/3x3"
}
layer {
  name: "inception_4e/5x5_reduce"
  type: "Convolution"
  bottom: "inception_4d/output"
  top: "inception_4e/5x5_reduce"
  param {
    lr_mult: 1
    decay_mult: 1
  }
  param {
    lr_mult: 2
    decay_mult: 0
  }
  convolution_param {
    num_output: 32
    kernel_size: 1
    weight_filler {
      type: "xavier"
      std: 0.2
    }
    bias_filler {
      type: "constant"
      value: 0.2
    }
  
I1216 13:14:24.814245 17145 layer_factory.hpp:74] Creating layer data
I1216 13:14:24.814297 17145 net.cpp:84] Creating Layer data
I1216 13:14:24.814316 17145 net.cpp:338] data -> data
I1216 13:14:24.814373 17145 net.cpp:338] data -> label
I1216 13:14:24.814390 17145 net.cpp:113] Setting up data
I1216 13:14:24.814535 17145 db.cpp:34] Opened lmdb /home/coldmanck/kaggle/kaggle2_train_lmdb
I1216 13:14:24.814854 17145 data_layer.cpp:67] output data size: 32,3,224,224
I1216 13:14:24.822381 17145 net.cpp:120] Top shape: 32 3 224 224 (4816896)
I1216 13:14:24.822407 17145 net.cpp:120] Top shape: 32 (32)
I1216 13:14:24.822420 17145 layer_factory.hpp:74] Creating layer label_data_1_split
I1216 13:14:24.822476 17145 net.cpp:84] Creating Layer label_data_1_split
I1216 13:14:24.822491 17145 net.cpp:380] label_data_1_split <- label
I1216 13:14:24.822513 17145 net.cpp:338] label_data_1_split -> label_data_1_split_0
I1216 13:14:24.822532 17145 net.cpp:338] label_data_1_split -> label_data_1_split_1
I1216 13:14:24.822546 17145 net.cpp:338] label_data_1_split -> label_data_1_split_2
I1216 13:14:24.822557 17145 net.cpp:113] Setting up label_data_1_split
I1216 13:14:24.822573 17145 net.cpp:120] Top shape: 32 (32)
I1216 13:14:24.822595 17145 net.cpp:120] Top shape: 32 (32)
I1216 13:14:24.822620 17145 net.cpp:120] Top shape: 32 (32)
I1216 13:14:24.822629 17145 layer_factory.hpp:74] Creating layer conv1/7x7_s2
I1216 13:14:24.822649 17145 net.cpp:84] Creating Layer conv1/7x7_s2
I1216 13:14:24.822657 17145 net.cpp:380] conv1/7x7_s2 <- data
I1216 13:14:24.822671 17145 net.cpp:338] conv1/7x7_s2 -> conv1/7x7_s2
I1216 13:14:24.822688 17145 net.cpp:113] Setting up conv1/7x7_s2
I1216 13:14:25.172524 17145 net.cpp:120] Top shape: 32 64 112 112 (25690112)
I1216 13:14:25.172636 17145 layer_factory.hpp:74] Creating layer conv1/relu_7x7
I1216 13:14:25.172667 17145 net.cpp:84] Creating Layer conv1/relu_7x7
I1216 13:14:25.172683 17145 net.cpp:380] conv1/relu_7x7 <- conv1/7x7_s2
I1216 13:14:25.172706 17145 net.cpp:327] conv1/relu_7x7 -> conv1/7x7_s2 (in-place)
I1216 13:14:25.172721 17145 net.cpp:113] Setting up conv1/relu_7x7
I1216 13:14:25.173444 17145 net.cpp:120] Top shape: 32 64 112 112 (25690112)
I1216 13:14:25.173465 17145 layer_factory.hpp:74] Creating layer pool1/3x3_s2
I1216 13:14:25.173482 17145 net.cpp:84] Creating Layer pool1/3x3_s2
I1216 13:14:25.173488 17145 net.cpp:380] pool1/3x3_s2 <- conv1/7x7_s2
I1216 13:14:25.173502 17145 net.cpp:338] pool1/3x3_s2 -> pool1/3x3_s2
I1216 13:14:25.173513 17145 net.cpp:113] Setting up pool1/3x3_s2
I1216 13:14:25.173590 17145 net.cpp:120] Top shape: 32 64 56 56 (6422528)
I1216 13:14:25.173606 17145 layer_factory.hpp:74] Creating layer pool1/norm1
I1216 13:14:25.173627 17145 net.cpp:84] Creating Layer pool1/norm1
I1216 13:14:25.173634 17145 net.cpp:380] pool1/norm1 <- pool1/3x3_s2
I1216 13:14:25.173640 17145 net.cpp:338] pool1/norm1 -> pool1/norm1
I1216 13:14:25.173650 17145 net.cpp:113] Setting up pool1/norm1
I1216 13:14:25.173658 17145 net.cpp:120] Top shape: 32 64 56 56 (6422528)
I1216 13:14:25.173671 17145 layer_factory.hpp:74] Creating layer conv2/3x3_reduce
I1216 13:14:25.173682 17145 net.cpp:84] Creating Layer conv2/3x3_reduce
I1216 13:14:25.173688 17145 net.cpp:380] conv2/3x3_reduce <- pool1/norm1
I1216 13:14:25.173702 17145 net.cpp:338] conv2/3x3_reduce -> conv2/3x3_reduce
I1216 13:14:25.173715 17145 net.cpp:113] Setting up conv2/3x3_reduce
I1216 13:14:25.174311 17145 net.cpp:120] Top shape: 32 64 56 56 (6422528)
I1216 13:14:25.174331 17145 layer_factory.hpp:74] Creating layer conv2/relu_3x3_reduce
I1216 13:14:25.174340 17145 net.cpp:84] Creating Layer conv2/relu_3x3_reduce
I1216 13:14:25.174345 17145 net.cpp:380] conv2/relu_3x3_reduce <- conv2/3x3_reduce
I1216 13:14:25.174352 17145 net.cpp:327] conv2/relu_3x3_reduce -> conv2/3x3_reduce (in-place)
I1216 13:14:25.174360 17145 net.cpp:113] Setting up conv2/relu_3x3_reduce
I1216 13:14:25.174430 17145 net.cpp:120] Top shape: 32 64 56 56 (6422528)
I1216 13:14:25.174437 17145 layer_factory.hpp:74] Creating layer conv2/3x3
I1216 13:14:25.174449 17145 net.cpp:84] Creating Layer conv2/3x3
I1216 13:14:25.174454 17145 net.cpp:380] conv2/3x3 <- conv2/3x3_reduce
I1216 13:14:25.174471 17145 net.cpp:338] conv2/3x3 -> conv2/3x3
I1216 13:14:25.174482 17145 net.cpp:113] Setting up conv2/3x3
I1216 13:14:25.176323 17145 net.cpp:120] Top shape: 32 192 56 56 (19267584)
I1216 13:14:25.176343 17145 layer_factory.hpp:74] Creating layer conv2/relu_3x3
I1216 13:14:25.176353 17145 net.cpp:84] Creating Layer conv2/relu_3x3
I1216 13:14:25.176359 17145 net.cpp:380] conv2/relu_3x3 <- conv2/3x3
I1216 13:14:25.176368 17145 net.cpp:327] conv2/relu_3x3 -> conv2/3x3 (in-place)
I1216 13:14:25.176376 17145 net.cpp:113] Setting up conv2/relu_3x3
I1216 13:14:25.176619 17145 net.cpp:120] Top shape: 32 192 56 56 (19267584)
I1216 13:14:25.176645 17145 layer_factory.hpp:74] Creating layer conv2/norm2
I1216 13:14:25.176656 17145 net.cpp:84] Creating Layer conv2/norm2
I1216 13:14:25.176662 17145 net.cpp:380] conv2/norm2 <- conv2/3x3
I1216 13:14:25.176671 17145 net.cpp:338] conv2/norm2 -> conv2/norm2
I1216 13:14:25.176678 17145 net.cpp:113] Setting up conv2/norm2
I1216 13:14:25.176687 17145 net.cpp:120] Top shape: 32 192 56 56 (19267584)
I1216 13:14:25.176692 17145 layer_factory.hpp:74] Creating layer pool2/3x3_s2
I1216 13:14:25.176708 17145 net.cpp:84] Creating Layer pool2/3x3_s2
I1216 13:14:25.176725 17145 net.cpp:380] pool2/3x3_s2 <- conv2/norm2
I1216 13:14:25.176735 17145 net.cpp:338] pool2/3x3_s2 -> pool2/3x3_s2
I1216 13:14:25.176743 17145 net.cpp:113] Setting up pool2/3x3_s2
I1216 13:14:25.177786 17145 net.cpp:120] Top shape: 32 192 28 28 (4816896)
I1216 13:14:25.177798 17145 layer_factory.hpp:74] Creating layer pool2/3x3_s2_pool2/3x3_s2_0_split
I1216 13:14:25.177817 17145 net.cpp:84] Creating Layer pool2/3x3_s2_pool2/3x3_s2_0_split
I1216 13:14:25.177824 17145 net.cpp:380] pool2/3x3_s2_pool2/3x3_s2_0_split <- pool2/3x3_s2
I1216 13:14:25.177845 17145 net.cpp:338] pool2/3x3_s2_pool2/3x3_s2_0_split -> pool2/3x3_s2_pool2/3x3_s2_0_split_0
I1216 13:14:25.177858 17145 net.cpp:338] pool2/3x3_s2_pool2/3x3_s2_0_split -> pool2/3x3_s2_pool2/3x3_s2_0_split_1
I1216 13:14:25.177866 17145 net.cpp:338] pool2/3x3_s2_pool2/3x3_s2_0_split -> pool2/3x3_s2_pool2/3x3_s2_0_split_2
I1216 13:14:25.177875 17145 net.cpp:338] pool2/3x3_s2_pool2/3x3_s2_0_split -> pool2/3x3_s2_pool2/3x3_s2_0_split_3
I1216 13:14:25.177881 17145 net.cpp:113] Setting up pool2/3x3_s2_pool2/3x3_s2_0_split
I1216 13:14:25.177889 17145 net.cpp:120] Top shape: 32 192 28 28 (4816896)
I1216 13:14:25.177896 17145 net.cpp:120] Top shape: 32 192 28 28 (4816896)
I1216 13:14:25.177901 17145 net.cpp:120] Top shape: 32 192 28 28 (4816896)
I1216 13:14:25.177906 17145 net.cpp:120] Top shape: 32 192 28 28 (4816896)
I1216 13:14:25.177911 17145 layer_factory.hpp:74] Creating layer inception_3a/1x1
I1216 13:14:25.177937 17145 net.cpp:84] Creating Layer inception_3a/1x1
I1216 13:14:25.177945 17145 net.cpp:380] inception_3a/1x1 <- pool2/3x3_s2_pool2/3x3_s2_0_split_0
I1216 13:14:25.177955 17145 net.cpp:338] inception_3a/1x1 -> inception_3a/1x1
I1216 13:14:25.177968 17145 net.cpp:113] Setting up inception_3a/1x1
I1216 13:14:25.178658 17145 net.cpp:120] Top shape: 32 64 28 28 (1605632)
I1216 13:14:25.178676 17145 layer_factory.hpp:74] Creating layer inception_3a/relu_1x1
I1216 13:14:25.178697 17145 net.cpp:84] Creating Layer inception_3a/relu_1x1
I1216 13:14:25.178704 17145 net.cpp:380] inception_3a/relu_1x1 <- inception_3a/1x1
I1216 13:14:25.178725 17145 net.cpp:327] inception_3a/relu_1x1 -> inception_3a/1x1 (in-place)
I1216 13:14:25.178733 17145 net.cpp:113] Setting up inception_3a/relu_1x1
I1216 13:14:25.178825 17145 net.cpp:120] Top shape: 32 64 28 28 (1605632)
I1216 13:14:25.178835 17145 layer_factory.hpp:74] Creating layer inception_3a/3x3_reduce
I1216 13:14:25.178843 17145 net.cpp:84] Creating Layer inception_3a/3x3_reduce
I1216 13:14:25.178851 17145 net.cpp:380] inception_3a/3x3_reduce <- pool2/3x3_s2_pool2/3x3_s2_0_split_1
I1216 13:14:25.178858 17145 net.cpp:338] inception_3a/3x3_reduce -> inception_3a/3x3_reduce
I1216 13:14:25.178867 17145 net.cpp:113] Setting up inception_3a/3x3_reduce
I1216 13:14:25.179569 17145 net.cpp:120] Top shape: 32 96 28 28 (2408448)
I1216 13:14:25.179589 17145 layer_factory.hpp:74] Creating layer inception_3a/relu_3x3_reduce
I1216 13:14:25.179602 17145 net.cpp:84] Creating Layer inception_3a/relu_3x3_reduce
I1216 13:14:25.179608 17145 net.cpp:380] inception_3a/relu_3x3_reduce <- inception_3a/3x3_reduce
I1216 13:14:25.179626 17145 net.cpp:327] inception_3a/relu_3x3_reduce -> inception_3a/3x3_reduce (in-place)
I1216 13:14:25.179636 17145 net.cpp:113] Setting up inception_3a/relu_3x3_reduce
I1216 13:14:25.179723 17145 net.cpp:120] Top shape: 32 96 28 28 (2408448)
I1216 13:14:25.179730 17145 layer_factory.hpp:74] Creating layer inception_3a/3x3
I1216 13:14:25.179752 17145 net.cpp:84] Creating Layer inception_3a/3x3
I1216 13:14:25.179759 17145 net.cpp:380] inception_3a/3x3 <- inception_3a/3x3_reduce
I1216 13:14:25.179767 17145 net.cpp:338] inception_3a/3x3 -> inception_3a/3x3
I1216 13:14:25.179776 17145 net.cpp:113] Setting up inception_3a/3x3
I1216 13:14:25.181707 17145 net.cpp:120] Top shape: 32 128 28 28 (3211264)
I1216 13:14:25.181726 17145 layer_factory.hpp:74] Creating layer inception_3a/relu_3x3
I1216 13:14:25.181736 17145 net.cpp:84] Creating Layer inception_3a/relu_3x3
I1216 13:14:25.181748 17145 net.cpp:380] inception_3a/relu_3x3 <- inception_3a/3x3
I1216 13:14:25.181763 17145 net.cpp:327] inception_3a/relu_3x3 -> inception_3a/3x3 (in-place)
I1216 13:14:25.181773 17145 net.cpp:113] Setting up inception_3a/relu_3x3
I1216 13:14:25.182029 17145 net.cpp:120] Top shape: 32 128 28 28 (3211264)
I1216 13:14:25.182041 17145 layer_factory.hpp:74] Creating layer inception_3a/5x5_reduce
I1216 13:14:25.182052 17145 net.cpp:84] Creating Layer inception_3a/5x5_reduce
I1216 13:14:25.182059 17145 net.cpp:380] inception_3a/5x5_reduce <- pool2/3x3_s2_pool2/3x3_s2_0_split_2
I1216 13:14:25.182070 17145 net.cpp:338] inception_3a/5x5_reduce -> inception_3a/5x5_reduce
I1216 13:14:25.182081 17145 net.cpp:113] Setting up inception_3a/5x5_reduce
I1216 13:14:25.182608 17145 net.cpp:120] Top shape: 32 16 28 28 (401408)
I1216 13:14:25.182624 17145 layer_factory.hpp:74] Creating layer inception_3a/relu_5x5_reduce
I1216 13:14:25.182634 17145 net.cpp:84] Creating Layer inception_3a/relu_5x5_reduce
I1216 13:14:25.182641 17145 net.cpp:380] inception_3a/relu_5x5_reduce <- inception_3a/5x5_reduce
I1216 13:14:25.182648 17145 net.cpp:327] inception_3a/relu_5x5_reduce -> inception_3a/5x5_reduce (in-place)
I1216 13:14:25.182657 17145 net.cpp:113] Setting up inception_3a/relu_5x5_reduce
I1216 13:14:25.182749 17145 net.cpp:120] Top shape: 32 16 28 28 (401408)
I1216 13:14:25.182756 17145 layer_factory.hpp:74] Creating layer inception_3a/5x5
I1216 13:14:25.182767 17145 net.cpp:84] Creating Layer inception_3a/5x5
I1216 13:14:25.182773 17145 net.cpp:380] inception_3a/5x5 <- inception_3a/5x5_reduce
I1216 13:14:25.182783 17145 net.cpp:338] inception_3a/5x5 -> inception_3a/5x5
I1216 13:14:25.182792 17145 net.cpp:113] Setting up inception_3a/5x5
I1216 13:14:25.183425 17145 net.cpp:120] Top shape: 32 32 28 28 (802816)
I1216 13:14:25.183452 17145 layer_factory.hpp:74] Creating layer inception_3a/relu_5x5
I1216 13:14:25.183462 17145 net.cpp:84] Creating Layer inception_3a/relu_5x5
I1216 13:14:25.183468 17145 net.cpp:380] inception_3a/relu_5x5 <- inception_3a/5x5
I1216 13:14:25.183476 17145 net.cpp:327] inception_3a/relu_5x5 -> inception_3a/5x5 (in-place)
I1216 13:14:25.183485 17145 net.cpp:113] Setting up inception_3a/relu_5x5
I1216 13:14:25.183555 17145 net.cpp:120] Top shape: 32 32 28 28 (802816)
I1216 13:14:25.183562 17145 layer_factory.hpp:74] Creating layer inception_3a/pool
I1216 13:14:25.183568 17145 layer_factory.cpp:56] CUDNN does not support padding or multiple tops. Using Caffe's own pooling layer.
I1216 13:14:25.183579 17145 net.cpp:84] Creating Layer inception_3a/pool
I1216 13:14:25.183585 17145 net.cpp:380] inception_3a/pool <- pool2/3x3_s2_pool2/3x3_s2_0_split_3
I1216 13:14:25.183594 17145 net.cpp:338] inception_3a/pool -> inception_3a/pool
I1216 13:14:25.183603 17145 net.cpp:113] Setting up inception_3a/pool
I1216 13:14:25.183612 17145 net.cpp:120] Top shape: 32 192 28 28 (4816896)
I1216 13:14:25.183617 17145 layer_factory.hpp:74] Creating layer inception_3a/pool_proj
I1216 13:14:25.183625 17145 net.cpp:84] Creating Layer inception_3a/pool_proj
I1216 13:14:25.183630 17145 net.cpp:380] inception_3a/pool_proj <- inception_3a/pool
I1216 13:14:25.183640 17145 net.cpp:338] inception_3a/pool_proj -> inception_3a/pool_proj
I1216 13:14:25.183647 17145 net.cpp:113] Setting up inception_3a/pool_proj
I1216 13:14:25.184164 17145 net.cpp:120] Top shape: 32 32 28 28 (802816)
I1216 13:14:25.184185 17145 layer_factory.hpp:74] Creating layer inception_3a/relu_pool_proj
I1216 13:14:25.184193 17145 net.cpp:84] Creating Layer inception_3a/relu_pool_proj
I1216 13:14:25.184200 17145 net.cpp:380] inception_3a/relu_pool_proj <- inception_3a/pool_proj
I1216 13:14:25.184208 17145 net.cpp:327] inception_3a/relu_pool_proj -> inception_3a/pool_proj (in-place)
I1216 13:14:25.184216 17145 net.cpp:113] Setting up inception_3a/relu_pool_proj
I1216 13:14:25.184303 17145 net.cpp:120] Top shape: 32 32 28 28 (802816)
I1216 13:14:25.184311 17145 layer_factory.hpp:74] Creating layer inception_3a/output
I1216 13:14:25.184353 17145 net.cpp:84] Creating Layer inception_3a/output
I1216 13:14:25.184370 17145 net.cpp:380] inception_3a/output <- inception_3a/1x1
I1216 13:14:25.184376 17145 net.cpp:380] inception_3a/output <- inception_3a/3x3
I1216 13:14:25.184382 17145 net.cpp:380] inception_3a/output <- inception_3a/5x5
I1216 13:14:25.184388 17145 net.cpp:380] inception_3a/output <- inception_3a/pool_proj
I1216 13:14:25.184396 17145 net.cpp:338] inception_3a/output -> inception_3a/output
I1216 13:14:25.184404 17145 net.cpp:113] Setting up inception_3a/output
I1216 13:14:25.184423 17145 net.cpp:120] Top shape: 32 256 28 28 (6422528)
I1216 13:14:25.184429 17145 layer_factory.hpp:74] Creating layer inception_3a/output_inception_3a/output_0_split
I1216 13:14:25.184437 17145 net.cpp:84] Creating Layer inception_3a/output_inception_3a/output_0_split
I1216 13:14:25.184442 17145 net.cpp:380] inception_3a/output_inception_3a/output_0_split <- inception_3a/output
I1216 13:14:25.184450 17145 net.cpp:338] inception_3a/output_inception_3a/output_0_split -> inception_3a/output_inception_3a/output_0_split_0
I1216 13:14:25.184460 17145 net.cpp:338] inception_3a/output_inception_3a/output_0_split -> inception_3a/output_inception_3a/output_0_split_1
I1216 13:14:25.184469 17145 net.cpp:338] inception_3a/output_inception_3a/output_0_split -> inception_3a/output_inception_3a/output_0_split_2
I1216 13:14:25.184478 17145 net.cpp:338] inception_3a/output_inception_3a/output_0_split -> inception_3a/output_inception_3a/output_0_split_3
I1216 13:14:25.184485 17145 net.cpp:113] Setting up inception_3a/output_inception_3a/output_0_split
I1216 13:14:25.184494 17145 net.cpp:120] Top shape: 32 256 28 28 (6422528)
I1216 13:14:25.184500 17145 net.cpp:120] Top shape: 32 256 28 28 (6422528)
I1216 13:14:25.184506 17145 net.cpp:120] Top shape: 32 256 28 28 (6422528)
I1216 13:14:25.184512 17145 net.cpp:120] Top shape: 32 256 28 28 (6422528)
I1216 13:14:25.184517 17145 layer_factory.hpp:74] Creating layer inception_3b/1x1
I1216 13:14:25.184528 17145 net.cpp:84] Creating Layer inception_3b/1x1
I1216 13:14:25.184533 17145 net.cpp:380] inception_3b/1x1 <- inception_3a/output_inception_3a/output_0_split_0
I1216 13:14:25.184546 17145 net.cpp:338] inception_3b/1x1 -> inception_3b/1x1
I1216 13:14:25.184556 17145 net.cpp:113] Setting up inception_3b/1x1
I1216 13:14:25.189206 17145 net.cpp:120] Top shape: 32 128 28 28 (3211264)
I1216 13:14:25.189224 17145 layer_factory.hpp:74] Creating layer inception_3b/relu_1x1
I1216 13:14:25.189234 17145 net.cpp:84] Creating Layer inception_3b/relu_1x1
I1216 13:14:25.189239 17145 net.cpp:380] inception_3b/relu_1x1 <- inception_3b/1x1
I1216 13:14:25.189249 17145 net.cpp:327] inception_3b/relu_1x1 -> inception_3b/1x1 (in-place)
I1216 13:14:25.189257 17145 net.cpp:113] Setting up inception_3b/relu_1x1
I1216 13:14:25.189498 17145 net.cpp:120] Top shape: 32 128 28 28 (3211264)
I1216 13:14:25.189509 17145 layer_factory.hpp:74] Creating layer inception_3b/3x3_reduce
I1216 13:14:25.189519 17145 net.cpp:84] Creating Layer inception_3b/3x3_reduce
I1216 13:14:25.189525 17145 net.cpp:380] inception_3b/3x3_reduce <- inception_3a/output_inception_3a/output_0_split_1
I1216 13:14:25.189535 17145 net.cpp:338] inception_3b/3x3_reduce -> inception_3b/3x3_reduce
I1216 13:14:25.189544 17145 net.cpp:113] Setting up inception_3b/3x3_reduce
I1216 13:14:25.190322 17145 net.cpp:120] Top shape: 32 128 28 28 (3211264)
I1216 13:14:25.190348 17145 layer_factory.hpp:74] Creating layer inception_3b/relu_3x3_reduce
I1216 13:14:25.190357 17145 net.cpp:84] Creating Layer inception_3b/relu_3x3_reduce
I1216 13:14:25.190363 17145 net.cpp:380] inception_3b/relu_3x3_reduce <- inception_3b/3x3_reduce
I1216 13:14:25.190371 17145 net.cpp:327] inception_3b/relu_3x3_reduce -> inception_3b/3x3_reduce (in-place)
I1216 13:14:25.190378 17145 net.cpp:113] Setting up inception_3b/relu_3x3_reduce
I1216 13:14:25.190453 17145 net.cpp:120] Top shape: 32 128 28 28 (3211264)
I1216 13:14:25.190459 17145 layer_factory.hpp:74] Creating layer inception_3b/3x3
I1216 13:14:25.190470 17145 net.cpp:84] Creating Layer inception_3b/3x3
I1216 13:14:25.190481 17145 net.cpp:380] inception_3b/3x3 <- inception_3b/3x3_reduce
I1216 13:14:25.190498 17145 net.cpp:338] inception_3b/3x3 -> inception_3b/3x3
I1216 13:14:25.190507 17145 net.cpp:113] Setting up inception_3b/3x3
I1216 13:14:25.193486 17145 net.cpp:120] Top shape: 32 192 28 28 (4816896)
I1216 13:14:25.193503 17145 layer_factory.hpp:74] Creating layer inception_3b/relu_3x3
I1216 13:14:25.193513 17145 net.cpp:84] Creating Layer inception_3b/relu_3x3
I1216 13:14:25.193519 17145 net.cpp:380] inception_3b/relu_3x3 <- inception_3b/3x3
I1216 13:14:25.193526 17145 net.cpp:327] inception_3b/relu_3x3 -> inception_3b/3x3 (in-place)
I1216 13:14:25.193534 17145 net.cpp:113] Setting up inception_3b/relu_3x3
I1216 13:14:25.193603 17145 net.cpp:120] Top shape: 32 192 28 28 (4816896)
I1216 13:14:25.193610 17145 layer_factory.hpp:74] Creating layer inception_3b/5x5_reduce
I1216 13:14:25.193620 17145 net.cpp:84] Creating Layer inception_3b/5x5_reduce
I1216 13:14:25.193625 17145 net.cpp:380] inception_3b/5x5_reduce <- inception_3a/output_inception_3a/output_0_split_2
I1216 13:14:25.193635 17145 net.cpp:338] inception_3b/5x5_reduce -> inception_3b/5x5_reduce
I1216 13:14:25.193645 17145 net.cpp:113] Setting up inception_3b/5x5_reduce
I1216 13:14:25.194159 17145 net.cpp:120] Top shape: 32 32 28 28 (802816)
I1216 13:14:25.194175 17145 layer_factory.hpp:74] Creating layer inception_3b/relu_5x5_reduce
I1216 13:14:25.194192 17145 net.cpp:84] Creating Layer inception_3b/relu_5x5_reduce
I1216 13:14:25.194198 17145 net.cpp:380] inception_3b/relu_5x5_reduce <- inception_3b/5x5_reduce
I1216 13:14:25.194206 17145 net.cpp:327] inception_3b/relu_5x5_reduce -> inception_3b/5x5_reduce (in-place)
I1216 13:14:25.194214 17145 net.cpp:113] Setting up inception_3b/relu_5x5_reduce
I1216 13:14:25.194283 17145 net.cpp:120] Top shape: 32 32 28 28 (802816)
I1216 13:14:25.194289 17145 layer_factory.hpp:74] Creating layer inception_3b/5x5
I1216 13:14:25.194298 17145 net.cpp:84] Creating Layer inception_3b/5x5
I1216 13:14:25.194303 17145 net.cpp:380] inception_3b/5x5 <- inception_3b/5x5_reduce
I1216 13:14:25.194314 17145 net.cpp:338] inception_3b/5x5 -> inception_3b/5x5
I1216 13:14:25.194324 17145 net.cpp:113] Setting up inception_3b/5x5
I1216 13:14:25.195627 17145 net.cpp:120] Top shape: 32 96 28 28 (2408448)
I1216 13:14:25.195643 17145 layer_factory.hpp:74] Creating layer inception_3b/relu_5x5
I1216 13:14:25.195652 17145 net.cpp:84] Creating Layer inception_3b/relu_5x5
I1216 13:14:25.195658 17145 net.cpp:380] inception_3b/relu_5x5 <- inception_3b/5x5
I1216 13:14:25.195665 17145 net.cpp:327] inception_3b/relu_5x5 -> inception_3b/5x5 (in-place)
I1216 13:14:25.195673 17145 net.cpp:113] Setting up inception_3b/relu_5x5
I1216 13:14:25.196347 17145 net.cpp:120] Top shape: 32 96 28 28 (2408448)
I1216 13:14:25.196360 17145 layer_factory.hpp:74] Creating layer inception_3b/pool
I1216 13:14:25.196367 17145 layer_factory.cpp:56] CUDNN does not support padding or multiple tops. Using Caffe's own pooling layer.
I1216 13:14:25.196374 17145 net.cpp:84] Creating Layer inception_3b/pool
I1216 13:14:25.196380 17145 net.cpp:380] inception_3b/pool <- inception_3a/output_inception_3a/output_0_split_3
I1216 13:14:25.196391 17145 net.cpp:338] inception_3b/pool -> inception_3b/pool
I1216 13:14:25.196400 17145 net.cpp:113] Setting up inception_3b/pool
I1216 13:14:25.196411 17145 net.cpp:120] Top shape: 32 256 28 28 (6422528)
I1216 13:14:25.196418 17145 layer_factory.hpp:74] Creating layer inception_3b/pool_proj
I1216 13:14:25.196429 17145 net.cpp:84] Creating Layer inception_3b/pool_proj
I1216 13:14:25.196435 17145 net.cpp:380] inception_3b/pool_proj <- inception_3b/pool
I1216 13:14:25.196444 17145 net.cpp:338] inception_3b/pool_proj -> inception_3b/pool_proj
I1216 13:14:25.196451 17145 net.cpp:113] Setting up inception_3b/pool_proj
I1216 13:14:25.197082 17145 net.cpp:120] Top shape: 32 64 28 28 (1605632)
I1216 13:14:25.197116 17145 layer_factory.hpp:74] Creating layer inception_3b/relu_pool_proj
I1216 13:14:25.197126 17145 net.cpp:84] Creating Layer inception_3b/relu_pool_proj
I1216 13:14:25.197139 17145 net.cpp:380] inception_3b/relu_pool_proj <- inception_3b/pool_proj
I1216 13:14:25.197154 17145 net.cpp:327] inception_3b/relu_pool_proj -> inception_3b/pool_proj (in-place)
I1216 13:14:25.197162 17145 net.cpp:113] Setting up inception_3b/relu_pool_proj
I1216 13:14:25.197238 17145 net.cpp:120] Top shape: 32 64 28 28 (1605632)
I1216 13:14:25.197247 17145 layer_factory.hpp:74] Creating layer inception_3b/output
I1216 13:14:25.197262 17145 net.cpp:84] Creating Layer inception_3b/output
I1216 13:14:25.197266 17145 net.cpp:380] inception_3b/output <- inception_3b/1x1
I1216 13:14:25.197273 17145 net.cpp:380] inception_3b/output <- inception_3b/3x3
I1216 13:14:25.197279 17145 net.cpp:380] inception_3b/output <- inception_3b/5x5
I1216 13:14:25.197284 17145 net.cpp:380] inception_3b/output <- inception_3b/pool_proj
I1216 13:14:25.197291 17145 net.cpp:338] inception_3b/output -> inception_3b/output
I1216 13:14:25.197299 17145 net.cpp:113] Setting up inception_3b/output
I1216 13:14:25.197307 17145 net.cpp:120] Top shape: 32 480 28 28 (12042240)
I1216 13:14:25.197312 17145 layer_factory.hpp:74] Creating layer pool3/3x3_s2
I1216 13:14:25.197319 17145 net.cpp:84] Creating Layer pool3/3x3_s2
I1216 13:14:25.197324 17145 net.cpp:380] pool3/3x3_s2 <- inception_3b/output
I1216 13:14:25.197334 17145 net.cpp:338] pool3/3x3_s2 -> pool3/3x3_s2
I1216 13:14:25.197340 17145 net.cpp:113] Setting up pool3/3x3_s2
I1216 13:14:25.197409 17145 net.cpp:120] Top shape: 32 480 14 14 (3010560)
I1216 13:14:25.197417 17145 layer_factory.hpp:74] Creating layer pool3/3x3_s2_pool3/3x3_s2_0_split
I1216 13:14:25.197425 17145 net.cpp:84] Creating Layer pool3/3x3_s2_pool3/3x3_s2_0_split
I1216 13:14:25.197430 17145 net.cpp:380] pool3/3x3_s2_pool3/3x3_s2_0_split <- pool3/3x3_s2
I1216 13:14:25.197437 17145 net.cpp:338] pool3/3x3_s2_pool3/3x3_s2_0_split -> pool3/3x3_s2_pool3/3x3_s2_0_split_0
I1216 13:14:25.197444 17145 net.cpp:338] pool3/3x3_s2_pool3/3x3_s2_0_split -> pool3/3x3_s2_pool3/3x3_s2_0_split_1
I1216 13:14:25.197454 17145 net.cpp:338] pool3/3x3_s2_pool3/3x3_s2_0_split -> pool3/3x3_s2_pool3/3x3_s2_0_split_2
I1216 13:14:25.197461 17145 net.cpp:338] pool3/3x3_s2_pool3/3x3_s2_0_split -> pool3/3x3_s2_pool3/3x3_s2_0_split_3
I1216 13:14:25.197468 17145 net.cpp:113] Setting up pool3/3x3_s2_pool3/3x3_s2_0_split
I1216 13:14:25.197475 17145 net.cpp:120] Top shape: 32 480 14 14 (3010560)
I1216 13:14:25.197480 17145 net.cpp:120] Top shape: 32 480 14 14 (3010560)
I1216 13:14:25.197486 17145 net.cpp:120] Top shape: 32 480 14 14 (3010560)
I1216 13:14:25.197491 17145 net.cpp:120] Top shape: 32 480 14 14 (3010560)
I1216 13:14:25.197496 17145 layer_factory.hpp:74] Creating layer inception_4a/1x1
I1216 13:14:25.197511 17145 net.cpp:84] Creating Layer inception_4a/1x1
I1216 13:14:25.197516 17145 net.cpp:380] inception_4a/1x1 <- pool3/3x3_s2_pool3/3x3_s2_0_split_0
I1216 13:14:25.197530 17145 net.cpp:338] inception_4a/1x1 -> inception_4a/1x1
I1216 13:14:25.197537 17145 net.cpp:113] Setting up inception_4a/1x1
I1216 13:14:25.199007 17145 net.cpp:120] Top shape: 32 192 14 14 (1204224)
I1216 13:14:25.199024 17145 layer_factory.hpp:74] Creating layer inception_4a/relu_1x1
I1216 13:14:25.199041 17145 net.cpp:84] Creating Layer inception_4a/relu_1x1
I1216 13:14:25.199048 17145 net.cpp:380] inception_4a/relu_1x1 <- inception_4a/1x1
I1216 13:14:25.199056 17145 net.cpp:327] inception_4a/relu_1x1 -> inception_4a/1x1 (in-place)
I1216 13:14:25.199064 17145 net.cpp:113] Setting up inception_4a/relu_1x1
I1216 13:14:25.199301 17145 net.cpp:120] Top shape: 32 192 14 14 (1204224)
I1216 13:14:25.199311 17145 layer_factory.hpp:74] Creating layer inception_4a/3x3_reduce
I1216 13:14:25.199321 17145 net.cpp:84] Creating Layer inception_4a/3x3_reduce
I1216 13:14:25.199327 17145 net.cpp:380] inception_4a/3x3_reduce <- pool3/3x3_s2_pool3/3x3_s2_0_split_1
I1216 13:14:25.199337 17145 net.cpp:338] inception_4a/3x3_reduce -> inception_4a/3x3_reduce
I1216 13:14:25.199347 17145 net.cpp:113] Setting up inception_4a/3x3_reduce
I1216 13:14:25.200287 17145 net.cpp:120] Top shape: 32 96 14 14 (602112)
I1216 13:14:25.200316 17145 layer_factory.hpp:74] Creating layer inception_4a/relu_3x3_reduce
I1216 13:14:25.200331 17145 net.cpp:84] Creating Layer inception_4a/relu_3x3_reduce
I1216 13:14:25.200337 17145 net.cpp:380] inception_4a/relu_3x3_reduce <- inception_4a/3x3_reduce
I1216 13:14:25.200345 17145 net.cpp:327] inception_4a/relu_3x3_reduce -> inception_4a/3x3_reduce (in-place)
I1216 13:14:25.200356 17145 net.cpp:113] Setting up inception_4a/relu_3x3_reduce
I1216 13:14:25.200428 17145 net.cpp:120] Top shape: 32 96 14 14 (602112)
I1216 13:14:25.200436 17145 layer_factory.hpp:74] Creating layer inception_4a/3x3
I1216 13:14:25.200454 17145 net.cpp:84] Creating Layer inception_4a/3x3
I1216 13:14:25.200461 17145 net.cpp:380] inception_4a/3x3 <- inception_4a/3x3_reduce
I1216 13:14:25.200469 17145 net.cpp:338] inception_4a/3x3 -> inception_4a/3x3
I1216 13:14:25.200477 17145 net.cpp:113] Setting up inception_4a/3x3
I1216 13:14:25.202958 17145 net.cpp:120] Top shape: 32 208 14 14 (1304576)
I1216 13:14:25.202975 17145 layer_factory.hpp:74] Creating layer inception_4a/relu_3x3
I1216 13:14:25.202992 17145 net.cpp:84] Creating Layer inception_4a/relu_3x3
I1216 13:14:25.202998 17145 net.cpp:380] inception_4a/relu_3x3 <- inception_4a/3x3
I1216 13:14:25.203007 17145 net.cpp:327] inception_4a/relu_3x3 -> inception_4a/3x3 (in-place)
I1216 13:14:25.203016 17145 net.cpp:113] Setting up inception_4a/relu_3x3
I1216 13:14:25.203088 17145 net.cpp:120] Top shape: 32 208 14 14 (1304576)
I1216 13:14:25.203095 17145 layer_factory.hpp:74] Creating layer inception_4a/5x5_reduce
I1216 13:14:25.203104 17145 net.cpp:84] Creating Layer inception_4a/5x5_reduce
I1216 13:14:25.203109 17145 net.cpp:380] inception_4a/5x5_reduce <- pool3/3x3_s2_pool3/3x3_s2_0_split_2
I1216 13:14:25.203117 17145 net.cpp:338] inception_4a/5x5_reduce -> inception_4a/5x5_reduce
I1216 13:14:25.203126 17145 net.cpp:113] Setting up inception_4a/5x5_reduce
I1216 13:14:25.203626 17145 net.cpp:120] Top shape: 32 16 14 14 (100352)
I1216 13:14:25.203642 17145 layer_factory.hpp:74] Creating layer inception_4a/relu_5x5_reduce
I1216 13:14:25.203650 17145 net.cpp:84] Creating Layer inception_4a/relu_5x5_reduce
I1216 13:14:25.203656 17145 net.cpp:380] inception_4a/relu_5x5_reduce <- inception_4a/5x5_reduce
I1216 13:14:25.203665 17145 net.cpp:327] inception_4a/relu_5x5_reduce -> inception_4a/5x5_reduce (in-place)
I1216 13:14:25.203673 17145 net.cpp:113] Setting up inception_4a/relu_5x5_reduce
I1216 13:14:25.203742 17145 net.cpp:120] Top shape: 32 16 14 14 (100352)
I1216 13:14:25.203748 17145 layer_factory.hpp:74] Creating layer inception_4a/5x5
I1216 13:14:25.203768 17145 net.cpp:84] Creating Layer inception_4a/5x5
I1216 13:14:25.203774 17145 net.cpp:380] inception_4a/5x5 <- inception_4a/5x5_reduce
I1216 13:14:25.203783 17145 net.cpp:338] inception_4a/5x5 -> inception_4a/5x5
I1216 13:14:25.203793 17145 net.cpp:113] Setting up inception_4a/5x5
I1216 13:14:25.204437 17145 net.cpp:120] Top shape: 32 48 14 14 (301056)
I1216 13:14:25.204452 17145 layer_factory.hpp:74] Creating layer inception_4a/relu_5x5
I1216 13:14:25.204469 17145 net.cpp:84] Creating Layer inception_4a/relu_5x5
I1216 13:14:25.204476 17145 net.cpp:380] inception_4a/relu_5x5 <- inception_4a/5x5
I1216 13:14:25.204483 17145 net.cpp:327] inception_4a/relu_5x5 -> inception_4a/5x5 (in-place)
I1216 13:14:25.204491 17145 net.cpp:113] Setting up inception_4a/relu_5x5
I1216 13:14:25.204730 17145 net.cpp:120] Top shape: 32 48 14 14 (301056)
I1216 13:14:25.204741 17145 layer_factory.hpp:74] Creating layer inception_4a/pool
I1216 13:14:25.204746 17145 layer_factory.cpp:56] CUDNN does not support padding or multiple tops. Using Caffe's own pooling layer.
I1216 13:14:25.204756 17145 net.cpp:84] Creating Layer inception_4a/pool
I1216 13:14:25.204761 17145 net.cpp:380] inception_4a/pool <- pool3/3x3_s2_pool3/3x3_s2_0_split_3
I1216 13:14:25.204768 17145 net.cpp:338] inception_4a/pool -> inception_4a/pool
I1216 13:14:25.204777 17145 net.cpp:113] Setting up inception_4a/pool
I1216 13:14:25.204788 17145 net.cpp:120] Top shape: 32 480 14 14 (3010560)
I1216 13:14:25.204798 17145 layer_factory.hpp:74] Creating layer inception_4a/pool_proj
I1216 13:14:25.204813 17145 net.cpp:84] Creating Layer inception_4a/pool_proj
I1216 13:14:25.204819 17145 net.cpp:380] inception_4a/pool_proj <- inception_4a/pool
I1216 13:14:25.204828 17145 net.cpp:338] inception_4a/pool_proj -> inception_4a/pool_proj
I1216 13:14:25.204836 17145 net.cpp:113] Setting up inception_4a/pool_proj
I1216 13:14:25.205607 17145 net.cpp:120] Top shape: 32 64 14 14 (401408)
I1216 13:14:25.205624 17145 layer_factory.hpp:74] Creating layer inception_4a/relu_pool_proj
I1216 13:14:25.205643 17145 net.cpp:84] Creating Layer inception_4a/relu_pool_proj
I1216 13:14:25.205649 17145 net.cpp:380] inception_4a/relu_pool_proj <- inception_4a/pool_proj
I1216 13:14:25.205657 17145 net.cpp:327] inception_4a/relu_pool_proj -> inception_4a/pool_proj (in-place)
I1216 13:14:25.205664 17145 net.cpp:113] Setting up inception_4a/relu_pool_proj
I1216 13:14:25.205737 17145 net.cpp:120] Top shape: 32 64 14 14 (401408)
I1216 13:14:25.205745 17145 layer_factory.hpp:74] Creating layer inception_4a/output
I1216 13:14:25.205752 17145 net.cpp:84] Creating Layer inception_4a/output
I1216 13:14:25.205757 17145 net.cpp:380] inception_4a/output <- inception_4a/1x1
I1216 13:14:25.205765 17145 net.cpp:380] inception_4a/output <- inception_4a/3x3
I1216 13:14:25.205770 17145 net.cpp:380] inception_4a/output <- inception_4a/5x5
I1216 13:14:25.205775 17145 net.cpp:380] inception_4a/output <- inception_4a/pool_proj
I1216 13:14:25.205782 17145 net.cpp:338] inception_4a/output -> inception_4a/output
I1216 13:14:25.205791 17145 net.cpp:113] Setting up inception_4a/output
I1216 13:14:25.205799 17145 net.cpp:120] Top shape: 32 512 14 14 (3211264)
I1216 13:14:25.205811 17145 layer_factory.hpp:74] Creating layer inception_4a/output_inception_4a/output_0_split
I1216 13:14:25.205818 17145 net.cpp:84] Creating Layer inception_4a/output_inception_4a/output_0_split
I1216 13:14:25.205823 17145 net.cpp:380] inception_4a/output_inception_4a/output_0_split <- inception_4a/output
I1216 13:14:25.205831 17145 net.cpp:338] inception_4a/output_inception_4a/output_0_split -> inception_4a/output_inception_4a/output_0_split_0
I1216 13:14:25.205838 17145 net.cpp:338] inception_4a/output_inception_4a/output_0_split -> inception_4a/output_inception_4a/output_0_split_1
I1216 13:14:25.205847 17145 net.cpp:338] inception_4a/output_inception_4a/output_0_split -> inception_4a/output_inception_4a/output_0_split_2
I1216 13:14:25.205854 17145 net.cpp:338] inception_4a/output_inception_4a/output_0_split -> inception_4a/output_inception_4a/output_0_split_3
I1216 13:14:25.205862 17145 net.cpp:338] inception_4a/output_inception_4a/output_0_split -> inception_4a/output_inception_4a/output_0_split_4
I1216 13:14:25.205869 17145 net.cpp:113] Setting up inception_4a/output_inception_4a/output_0_split
I1216 13:14:25.205878 17145 net.cpp:120] Top shape: 32 512 14 14 (3211264)
I1216 13:14:25.205883 17145 net.cpp:120] Top shape: 32 512 14 14 (3211264)
I1216 13:14:25.205889 17145 net.cpp:120] Top shape: 32 512 14 14 (3211264)
I1216 13:14:25.205894 17145 net.cpp:120] Top shape: 32 512 14 14 (3211264)
I1216 13:14:25.205899 17145 net.cpp:120] Top shape: 32 512 14 14 (3211264)
I1216 13:14:25.205904 17145 layer_factory.hpp:74] Creating layer loss1/ave_pool
I1216 13:14:25.205910 17145 net.cpp:84] Creating Layer loss1/ave_pool
I1216 13:14:25.205915 17145 net.cpp:380] loss1/ave_pool <- inception_4a/output_inception_4a/output_0_split_0
I1216 13:14:25.205924 17145 net.cpp:338] loss1/ave_pool -> loss1/ave_pool
I1216 13:14:25.205935 17145 net.cpp:113] Setting up loss1/ave_pool
I1216 13:14:25.206008 17145 net.cpp:120] Top shape: 32 512 4 4 (262144)
I1216 13:14:25.206015 17145 layer_factory.hpp:74] Creating layer loss1/conv
I1216 13:14:25.206033 17145 net.cpp:84] Creating Layer loss1/conv
I1216 13:14:25.206039 17145 net.cpp:380] loss1/conv <- loss1/ave_pool
I1216 13:14:25.206048 17145 net.cpp:338] loss1/conv -> loss1/conv
I1216 13:14:25.206058 17145 net.cpp:113] Setting up loss1/conv
I1216 13:14:25.207216 17145 net.cpp:120] Top shape: 32 128 4 4 (65536)
I1216 13:14:25.207242 17145 layer_factory.hpp:74] Creating layer loss1/relu_conv
I1216 13:14:25.207249 17145 net.cpp:84] Creating Layer loss1/relu_conv
I1216 13:14:25.207260 17145 net.cpp:380] loss1/relu_conv <- loss1/conv
I1216 13:14:25.207267 17145 net.cpp:327] loss1/relu_conv -> loss1/conv (in-place)
I1216 13:14:25.207275 17145 net.cpp:113] Setting up loss1/relu_conv
I1216 13:14:25.207343 17145 net.cpp:120] Top shape: 32 128 4 4 (65536)
I1216 13:14:25.207350 17145 layer_factory.hpp:74] Creating layer loss1/fc
I1216 13:14:25.207370 17145 net.cpp:84] Creating Layer loss1/fc
I1216 13:14:25.207376 17145 net.cpp:380] loss1/fc <- loss1/conv
I1216 13:14:25.207382 17145 net.cpp:338] loss1/fc -> loss1/fc
I1216 13:14:25.207393 17145 net.cpp:113] Setting up loss1/fc
I1216 13:14:25.230310 17145 net.cpp:120] Top shape: 32 1024 (32768)
I1216 13:14:25.230332 17145 layer_factory.hpp:74] Creating layer loss1/relu_fc
I1216 13:14:25.230342 17145 net.cpp:84] Creating Layer loss1/relu_fc
I1216 13:14:25.230348 17145 net.cpp:380] loss1/relu_fc <- loss1/fc
I1216 13:14:25.230357 17145 net.cpp:327] loss1/relu_fc -> loss1/fc (in-place)
I1216 13:14:25.230366 17145 net.cpp:113] Setting up loss1/relu_fc
I1216 13:14:25.230684 17145 net.cpp:120] Top shape: 32 1024 (32768)
I1216 13:14:25.230697 17145 layer_factory.hpp:74] Creating layer loss1/drop_fc
I1216 13:14:25.230728 17145 net.cpp:84] Creating Layer loss1/drop_fc
I1216 13:14:25.230736 17145 net.cpp:380] loss1/drop_fc <- loss1/fc
I1216 13:14:25.230742 17145 net.cpp:327] loss1/drop_fc -> loss1/fc (in-place)
I1216 13:14:25.230752 17145 net.cpp:113] Setting up loss1/drop_fc
I1216 13:14:25.230763 17145 net.cpp:120] Top shape: 32 1024 (32768)
I1216 13:14:25.230768 17145 layer_factory.hpp:74] Creating layer loss1/classifier_kaggle
I1216 13:14:25.230778 17145 net.cpp:84] Creating Layer loss1/classifier_kaggle
I1216 13:14:25.230783 17145 net.cpp:380] loss1/classifier_kaggle <- loss1/fc
I1216 13:14:25.230792 17145 net.cpp:338] loss1/classifier_kaggle -> loss1/classifier_kaggle
I1216 13:14:25.230799 17145 net.cpp:113] Setting up loss1/classifier_kaggle
I1216 13:14:25.236074 17145 net.cpp:120] Top shape: 32 447 (14304)
I1216 13:14:25.236088 17145 layer_factory.hpp:74] Creating layer loss1/loss
I1216 13:14:25.236099 17145 net.cpp:84] Creating Layer loss1/loss
I1216 13:14:25.236104 17145 net.cpp:380] loss1/loss <- loss1/classifier_kaggle
I1216 13:14:25.236110 17145 net.cpp:380] loss1/loss <- label_data_1_split_0
I1216 13:14:25.236119 17145 net.cpp:338] loss1/loss -> loss1/loss1
I1216 13:14:25.236126 17145 net.cpp:113] Setting up loss1/loss
I1216 13:14:25.236135 17145 layer_factory.hpp:74] Creating layer loss1/loss
I1216 13:14:25.236254 17145 net.cpp:120] Top shape: (1)
I1216 13:14:25.236263 17145 net.cpp:122]     with loss weight 0.3
I1216 13:14:25.236287 17145 layer_factory.hpp:74] Creating layer inception_4b/1x1
I1216 13:14:25.236306 17145 net.cpp:84] Creating Layer inception_4b/1x1
I1216 13:14:25.236312 17145 net.cpp:380] inception_4b/1x1 <- inception_4a/output_inception_4a/output_0_split_1
I1216 13:14:25.236322 17145 net.cpp:338] inception_4b/1x1 -> inception_4b/1x1
I1216 13:14:25.236330 17145 net.cpp:113] Setting up inception_4b/1x1
I1216 13:14:25.238466 17145 net.cpp:120] Top shape: 32 160 14 14 (1003520)
I1216 13:14:25.238513 17145 layer_factory.hpp:74] Creating layer inception_4b/relu_1x1
I1216 13:14:25.238538 17145 net.cpp:84] Creating Layer inception_4b/relu_1x1
I1216 13:14:25.238550 17145 net.cpp:380] inception_4b/relu_1x1 <- inception_4b/1x1
I1216 13:14:25.238565 17145 net.cpp:327] inception_4b/relu_1x1 -> inception_4b/1x1 (in-place)
I1216 13:14:25.238581 17145 net.cpp:113] Setting up inception_4b/relu_1x1
I1216 13:14:25.238705 17145 net.cpp:120] Top shape: 32 160 14 14 (1003520)
I1216 13:14:25.238718 17145 layer_factory.hpp:74] Creating layer inception_4b/3x3_reduce
I1216 13:14:25.238740 17145 net.cpp:84] Creating Layer inception_4b/3x3_reduce
I1216 13:14:25.238749 17145 net.cpp:380] inception_4b/3x3_reduce <- inception_4a/output_inception_4a/output_0_split_2
I1216 13:14:25.238775 17145 net.cpp:338] inception_4b/3x3_reduce -> inception_4b/3x3_reduce
I1216 13:14:25.238807 17145 net.cpp:113] Setting up inception_4b/3x3_reduce
I1216 13:14:25.240584 17145 net.cpp:120] Top shape: 32 112 14 14 (702464)
I1216 13:14:25.240612 17145 layer_factory.hpp:74] Creating layer inception_4b/relu_3x3_reduce
I1216 13:14:25.240624 17145 net.cpp:84] Creating Layer inception_4b/relu_3x3_reduce
I1216 13:14:25.240634 17145 net.cpp:380] inception_4b/relu_3x3_reduce <- inception_4b/3x3_reduce
I1216 13:14:25.240649 17145 net.cpp:327] inception_4b/relu_3x3_reduce -> inception_4b/3x3_reduce (in-place)
I1216 13:14:25.240664 17145 net.cpp:113] Setting up inception_4b/relu_3x3_reduce
I1216 13:14:25.240777 17145 net.cpp:120] Top shape: 32 112 14 14 (702464)
I1216 13:14:25.240788 17145 layer_factory.hpp:74] Creating layer inception_4b/3x3
I1216 13:14:25.240806 17145 net.cpp:84] Creating Layer inception_4b/3x3
I1216 13:14:25.240815 17145 net.cpp:380] inception_4b/3x3 <- inception_4b/3x3_reduce
I1216 13:14:25.240828 17145 net.cpp:338] inception_4b/3x3 -> inception_4b/3x3
I1216 13:14:25.240845 17145 net.cpp:113] Setting up inception_4b/3x3
I1216 13:14:25.246557 17145 net.cpp:120] Top shape: 32 224 14 14 (1404928)
I1216 13:14:25.246589 17145 layer_factory.hpp:74] Creating layer inception_4b/relu_3x3
I1216 13:14:25.246608 17145 net.cpp:84] Creating Layer inception_4b/relu_3x3
I1216 13:14:25.246619 17145 net.cpp:380] inception_4b/relu_3x3 <- inception_4b/3x3
I1216 13:14:25.246634 17145 net.cpp:327] inception_4b/relu_3x3 -> inception_4b/3x3 (in-place)
I1216 13:14:25.246649 17145 net.cpp:113] Setting up inception_4b/relu_3x3
I1216 13:14:25.247040 17145 net.cpp:120] Top shape: 32 224 14 14 (1404928)
I1216 13:14:25.247061 17145 layer_factory.hpp:74] Creating layer inception_4b/5x5_reduce
I1216 13:14:25.247076 17145 net.cpp:84] Creating Layer inception_4b/5x5_reduce
I1216 13:14:25.247088 17145 net.cpp:380] inception_4b/5x5_reduce <- inception_4a/output_inception_4a/output_0_split_3
I1216 13:14:25.247107 17145 net.cpp:338] inception_4b/5x5_reduce -> inception_4b/5x5_reduce
I1216 13:14:25.247125 17145 net.cpp:113] Setting up inception_4b/5x5_reduce
I1216 13:14:25.248122 17145 net.cpp:120] Top shape: 32 24 14 14 (150528)
I1216 13:14:25.248150 17145 layer_factory.hpp:74] Creating layer inception_4b/relu_5x5_reduce
I1216 13:14:25.248164 17145 net.cpp:84] Creating Layer inception_4b/relu_5x5_reduce
I1216 13:14:25.248175 17145 net.cpp:380] inception_4b/relu_5x5_reduce <- inception_4b/5x5_reduce
I1216 13:14:25.248193 17145 net.cpp:327] inception_4b/relu_5x5_reduce -> inception_4b/5x5_reduce (in-place)
I1216 13:14:25.248208 17145 net.cpp:113] Setting up inception_4b/relu_5x5_reduce
I1216 13:14:25.248349 17145 net.cpp:120] Top shape: 32 24 14 14 (150528)
I1216 13:14:25.248363 17145 layer_factory.hpp:74] Creating layer inception_4b/5x5
I1216 13:14:25.248379 17145 net.cpp:84] Creating Layer inception_4b/5x5
I1216 13:14:25.248390 17145 net.cpp:380] inception_4b/5x5 <- inception_4b/5x5_reduce
I1216 13:14:25.248407 17145 net.cpp:338] inception_4b/5x5 -> inception_4b/5x5
I1216 13:14:25.248424 17145 net.cpp:113] Setting up inception_4b/5x5
I1216 13:14:25.255317 17145 net.cpp:120] Top shape: 32 64 14 14 (401408)
I1216 13:14:25.255360 17145 layer_factory.hpp:74] Creating layer inception_4b/relu_5x5
I1216 13:14:25.255381 17145 net.cpp:84] Creating Layer inception_4b/relu_5x5
I1216 13:14:25.255393 17145 net.cpp:380] inception_4b/relu_5x5 <- inception_4b/5x5
I1216 13:14:25.255409 17145 net.cpp:327] inception_4b/relu_5x5 -> inception_4b/5x5 (in-place)
I1216 13:14:25.255426 17145 net.cpp:113] Setting up inception_4b/relu_5x5
I1216 13:14:25.255563 17145 net.cpp:120] Top shape: 32 64 14 14 (401408)
I1216 13:14:25.255576 17145 layer_factory.hpp:74] Creating layer inception_4b/pool
I1216 13:14:25.255589 17145 layer_factory.cpp:56] CUDNN does not support padding or multiple tops. Using Caffe's own pooling layer.
I1216 13:14:25.255604 17145 net.cpp:84] Creating Layer inception_4b/pool
I1216 13:14:25.255614 17145 net.cpp:380] inception_4b/pool <- inception_4a/output_inception_4a/output_0_split_4
I1216 13:14:25.255653 17145 net.cpp:338] inception_4b/pool -> inception_4b/pool
I1216 13:14:25.255688 17145 net.cpp:113] Setting up inception_4b/pool
I1216 13:14:25.255710 17145 net.cpp:120] Top shape: 32 512 14 14 (3211264)
I1216 13:14:25.255720 17145 layer_factory.hpp:74] Creating layer inception_4b/pool_proj
I1216 13:14:25.255741 17145 net.cpp:84] Creating Layer inception_4b/pool_proj
I1216 13:14:25.255751 17145 net.cpp:380] inception_4b/pool_proj <- inception_4b/pool
I1216 13:14:25.255766 17145 net.cpp:338] inception_4b/pool_proj -> inception_4b/pool_proj
I1216 13:14:25.255785 17145 net.cpp:113] Setting up inception_4b/pool_proj
I1216 13:14:25.257264 17145 net.cpp:120] Top shape: 32 64 14 14 (401408)
I1216 13:14:25.257307 17145 layer_factory.hpp:74] Creating layer inception_4b/relu_pool_proj
I1216 13:14:25.257320 17145 net.cpp:84] Creating Layer inception_4b/relu_pool_proj
I1216 13:14:25.257330 17145 net.cpp:380] inception_4b/relu_pool_proj <- inception_4b/pool_proj
I1216 13:14:25.257346 17145 net.cpp:327] inception_4b/relu_pool_proj -> inception_4b/pool_proj (in-place)
I1216 13:14:25.257361 17145 net.cpp:113] Setting up inception_4b/relu_pool_proj
I1216 13:14:25.257735 17145 net.cpp:120] Top shape: 32 64 14 14 (401408)
I1216 13:14:25.257755 17145 layer_factory.hpp:74] Creating layer inception_4b/output
I1216 13:14:25.257771 17145 net.cpp:84] Creating Layer inception_4b/output
I1216 13:14:25.257781 17145 net.cpp:380] inception_4b/output <- inception_4b/1x1
I1216 13:14:25.257793 17145 net.cpp:380] inception_4b/output <- inception_4b/3x3
I1216 13:14:25.257804 17145 net.cpp:380] inception_4b/output <- inception_4b/5x5
I1216 13:14:25.257814 17145 net.cpp:380] inception_4b/output <- inception_4b/pool_proj
I1216 13:14:25.257829 17145 net.cpp:338] inception_4b/output -> inception_4b/output
I1216 13:14:25.257844 17145 net.cpp:113] Setting up inception_4b/output
I1216 13:14:25.257860 17145 net.cpp:120] Top shape: 32 512 14 14 (3211264)
I1216 13:14:25.257869 17145 layer_factory.hpp:74] Creating layer inception_4b/output_inception_4b/output_0_split
I1216 13:14:25.257882 17145 net.cpp:84] Creating Layer inception_4b/output_inception_4b/output_0_split
I1216 13:14:25.257891 17145 net.cpp:380] inception_4b/output_inception_4b/output_0_split <- inception_4b/output
I1216 13:14:25.257906 17145 net.cpp:338] inception_4b/output_inception_4b/output_0_split -> inception_4b/output_inception_4b/output_0_split_0
I1216 13:14:25.257921 17145 net.cpp:338] inception_4b/output_inception_4b/output_0_split -> inception_4b/output_inception_4b/output_0_split_1
I1216 13:14:25.257935 17145 net.cpp:338] inception_4b/output_inception_4b/output_0_split -> inception_4b/output_inception_4b/output_0_split_2
I1216 13:14:25.257948 17145 net.cpp:338] inception_4b/output_inception_4b/output_0_split -> inception_4b/output_inception_4b/output_0_split_3
I1216 13:14:25.257961 17145 net.cpp:113] Setting up inception_4b/output_inception_4b/output_0_split
I1216 13:14:25.257975 17145 net.cpp:120] Top shape: 32 512 14 14 (3211264)
I1216 13:14:25.257985 17145 net.cpp:120] Top shape: 32 512 14 14 (3211264)
I1216 13:14:25.257995 17145 net.cpp:120] Top shape: 32 512 14 14 (3211264)
I1216 13:14:25.258005 17145 net.cpp:120] Top shape: 32 512 14 14 (3211264)
I1216 13:14:25.258013 17145 layer_factory.hpp:74] Creating layer inception_4c/1x1
I1216 13:14:25.258030 17145 net.cpp:84] Creating Layer inception_4c/1x1
I1216 13:14:25.258040 17145 net.cpp:380] inception_4c/1x1 <- inception_4b/output_inception_4b/output_0_split_0
I1216 13:14:25.258055 17145 net.cpp:338] inception_4c/1x1 -> inception_4c/1x1
I1216 13:14:25.258069 17145 net.cpp:113] Setting up inception_4c/1x1
I1216 13:14:25.260081 17145 net.cpp:120] Top shape: 32 128 14 14 (802816)
I1216 13:14:25.260107 17145 layer_factory.hpp:74] Creating layer inception_4c/relu_1x1
I1216 13:14:25.260125 17145 net.cpp:84] Creating Layer inception_4c/relu_1x1
I1216 13:14:25.260135 17145 net.cpp:380] inception_4c/relu_1x1 <- inception_4c/1x1
I1216 13:14:25.260157 17145 net.cpp:327] inception_4c/relu_1x1 -> inception_4c/1x1 (in-place)
I1216 13:14:25.260187 17145 net.cpp:113] Setting up inception_4c/relu_1x1
I1216 13:14:25.260314 17145 net.cpp:120] Top shape: 32 128 14 14 (802816)
I1216 13:14:25.260325 17145 layer_factory.hpp:74] Creating layer inception_4c/3x3_reduce
I1216 13:14:25.260344 17145 net.cpp:84] Creating Layer inception_4c/3x3_reduce
I1216 13:14:25.260354 17145 net.cpp:380] inception_4c/3x3_reduce <- inception_4b/output_inception_4b/output_0_split_1
I1216 13:14:25.260370 17145 net.cpp:338] inception_4c/3x3_reduce -> inception_4c/3x3_reduce
I1216 13:14:25.260386 17145 net.cpp:113] Setting up inception_4c/3x3_reduce
I1216 13:14:25.262415 17145 net.cpp:120] Top shape: 32 128 14 14 (802816)
I1216 13:14:25.262444 17145 layer_factory.hpp:74] Creating layer inception_4c/relu_3x3_reduce
I1216 13:14:25.262459 17145 net.cpp:84] Creating Layer inception_4c/relu_3x3_reduce
I1216 13:14:25.262470 17145 net.cpp:380] inception_4c/relu_3x3_reduce <- inception_4c/3x3_reduce
I1216 13:14:25.262483 17145 net.cpp:327] inception_4c/relu_3x3_reduce -> inception_4c/3x3_reduce (in-place)
I1216 13:14:25.262498 17145 net.cpp:113] Setting up inception_4c/relu_3x3_reduce
I1216 13:14:25.262621 17145 net.cpp:120] Top shape: 32 128 14 14 (802816)
I1216 13:14:25.262634 17145 layer_factory.hpp:74] Creating layer inception_4c/3x3
I1216 13:14:25.262652 17145 net.cpp:84] Creating Layer inception_4c/3x3
I1216 13:14:25.262661 17145 net.cpp:380] inception_4c/3x3 <- inception_4c/3x3_reduce
I1216 13:14:25.262677 17145 net.cpp:338] inception_4c/3x3 -> inception_4c/3x3
I1216 13:14:25.262692 17145 net.cpp:113] Setting up inception_4c/3x3
I1216 13:14:25.269445 17145 net.cpp:120] Top shape: 32 256 14 14 (1605632)
I1216 13:14:25.269490 17145 layer_factory.hpp:74] Creating layer inception_4c/relu_3x3
I1216 13:14:25.269505 17145 net.cpp:84] Creating Layer inception_4c/relu_3x3
I1216 13:14:25.269515 17145 net.cpp:380] inception_4c/relu_3x3 <- inception_4c/3x3
I1216 13:14:25.269526 17145 net.cpp:327] inception_4c/relu_3x3 -> inception_4c/3x3 (in-place)
I1216 13:14:25.269539 17145 net.cpp:113] Setting up inception_4c/relu_3x3
I1216 13:14:25.269656 17145 net.cpp:120] Top shape: 32 256 14 14 (1605632)
I1216 13:14:25.269667 17145 layer_factory.hpp:74] Creating layer inception_4c/5x5_reduce
I1216 13:14:25.269683 17145 net.cpp:84] Creating Layer inception_4c/5x5_reduce
I1216 13:14:25.269692 17145 net.cpp:380] inception_4c/5x5_reduce <- inception_4b/output_inception_4b/output_0_split_2
I1216 13:14:25.269706 17145 net.cpp:338] inception_4c/5x5_reduce -> inception_4c/5x5_reduce
I1216 13:14:25.269719 17145 net.cpp:113] Setting up inception_4c/5x5_reduce
I1216 13:14:25.270578 17145 net.cpp:120] Top shape: 32 24 14 14 (150528)
I1216 13:14:25.270604 17145 layer_factory.hpp:74] Creating layer inception_4c/relu_5x5_reduce
I1216 13:14:25.270622 17145 net.cpp:84] Creating Layer inception_4c/relu_5x5_reduce
I1216 13:14:25.270632 17145 net.cpp:380] inception_4c/relu_5x5_reduce <- inception_4c/5x5_reduce
I1216 13:14:25.270643 17145 net.cpp:327] inception_4c/relu_5x5_reduce -> inception_4c/5x5_reduce (in-place)
I1216 13:14:25.270655 17145 net.cpp:113] Setting up inception_4c/relu_5x5_reduce
I1216 13:14:25.271006 17145 net.cpp:120] Top shape: 32 24 14 14 (150528)
I1216 13:14:25.271024 17145 layer_factory.hpp:74] Creating layer inception_4c/5x5
I1216 13:14:25.271039 17145 net.cpp:84] Creating Layer inception_4c/5x5
I1216 13:14:25.271047 17145 net.cpp:380] inception_4c/5x5 <- inception_4c/5x5_reduce
I1216 13:14:25.271064 17145 net.cpp:338] inception_4c/5x5 -> inception_4c/5x5
I1216 13:14:25.271078 17145 net.cpp:113] Setting up inception_4c/5x5
I1216 13:14:25.272435 17145 net.cpp:120] Top shape: 32 64 14 14 (401408)
I1216 13:14:25.272459 17145 layer_factory.hpp:74] Creating layer inception_4c/relu_5x5
I1216 13:14:25.272471 17145 net.cpp:84] Creating Layer inception_4c/relu_5x5
I1216 13:14:25.272480 17145 net.cpp:380] inception_4c/relu_5x5 <- inception_4c/5x5
I1216 13:14:25.272495 17145 net.cpp:327] inception_4c/relu_5x5 -> inception_4c/5x5 (in-place)
I1216 13:14:25.272516 17145 net.cpp:113] Setting up inception_4c/relu_5x5
I1216 13:14:25.272646 17145 net.cpp:120] Top shape: 32 64 14 14 (401408)
I1216 13:14:25.272658 17145 layer_factory.hpp:74] Creating layer inception_4c/pool
I1216 13:14:25.272667 17145 layer_factory.cpp:56] CUDNN does not support padding or multiple tops. Using Caffe's own pooling layer.
I1216 13:14:25.272681 17145 net.cpp:84] Creating Layer inception_4c/pool
I1216 13:14:25.272691 17145 net.cpp:380] inception_4c/pool <- inception_4b/output_inception_4b/output_0_split_3
I1216 13:14:25.272702 17145 net.cpp:338] inception_4c/pool -> inception_4c/pool
I1216 13:14:25.272716 17145 net.cpp:113] Setting up inception_4c/pool
I1216 13:14:25.272732 17145 net.cpp:120] Top shape: 32 512 14 14 (3211264)
I1216 13:14:25.272739 17145 layer_factory.hpp:74] Creating layer inception_4c/pool_proj
I1216 13:14:25.272758 17145 net.cpp:84] Creating Layer inception_4c/pool_proj
I1216 13:14:25.272768 17145 net.cpp:380] inception_4c/pool_proj <- inception_4c/pool
I1216 13:14:25.272780 17145 net.cpp:338] inception_4c/pool_proj -> inception_4c/pool_proj
I1216 13:14:25.272794 17145 net.cpp:113] Setting up inception_4c/pool_proj
I1216 13:14:25.274055 17145 net.cpp:120] Top shape: 32 64 14 14 (401408)
I1216 13:14:25.274081 17145 layer_factory.hpp:74] Creating layer inception_4c/relu_pool_proj
I1216 13:14:25.274093 17145 net.cpp:84] Creating Layer inception_4c/relu_pool_proj
I1216 13:14:25.274102 17145 net.cpp:380] inception_4c/relu_pool_proj <- inception_4c/pool_proj
I1216 13:14:25.274114 17145 net.cpp:327] inception_4c/relu_pool_proj -> inception_4c/pool_proj (in-place)
I1216 13:14:25.274127 17145 net.cpp:113] Setting up inception_4c/relu_pool_proj
I1216 13:14:25.274242 17145 net.cpp:120] Top shape: 32 64 14 14 (401408)
I1216 13:14:25.274253 17145 layer_factory.hpp:74] Creating layer inception_4c/output
I1216 13:14:25.274265 17145 net.cpp:84] Creating Layer inception_4c/output
I1216 13:14:25.274276 17145 net.cpp:380] inception_4c/output <- inception_4c/1x1
I1216 13:14:25.274287 17145 net.cpp:380] inception_4c/output <- inception_4c/3x3
I1216 13:14:25.274296 17145 net.cpp:380] inception_4c/output <- inception_4c/5x5
I1216 13:14:25.274307 17145 net.cpp:380] inception_4c/output <- inception_4c/pool_proj
I1216 13:14:25.274317 17145 net.cpp:338] inception_4c/output -> inception_4c/output
I1216 13:14:25.274329 17145 net.cpp:113] Setting up inception_4c/output
I1216 13:14:25.274343 17145 net.cpp:120] Top shape: 32 512 14 14 (3211264)
I1216 13:14:25.274351 17145 layer_factory.hpp:74] Creating layer inception_4c/output_inception_4c/output_0_split
I1216 13:14:25.274363 17145 net.cpp:84] Creating Layer inception_4c/output_inception_4c/output_0_split
I1216 13:14:25.274371 17145 net.cpp:380] inception_4c/output_inception_4c/output_0_split <- inception_4c/output
I1216 13:14:25.274382 17145 net.cpp:338] inception_4c/output_inception_4c/output_0_split -> inception_4c/output_inception_4c/output_0_split_0
I1216 13:14:25.274399 17145 net.cpp:338] inception_4c/output_inception_4c/output_0_split -> inception_4c/output_inception_4c/output_0_split_1
I1216 13:14:25.274411 17145 net.cpp:338] inception_4c/output_inception_4c/output_0_split -> inception_4c/output_inception_4c/output_0_split_2
I1216 13:14:25.274425 17145 net.cpp:338] inception_4c/output_inception_4c/output_0_split -> inception_4c/output_inception_4c/output_0_split_3
I1216 13:14:25.274435 17145 net.cpp:113] Setting up inception_4c/output_inception_4c/output_0_split
I1216 13:14:25.274447 17145 net.cpp:120] Top shape: 32 512 14 14 (3211264)
I1216 13:14:25.274457 17145 net.cpp:120] Top shape: 32 512 14 14 (3211264)
I1216 13:14:25.274466 17145 net.cpp:120] Top shape: 32 512 14 14 (3211264)
I1216 13:14:25.274476 17145 net.cpp:120] Top shape: 32 512 14 14 (3211264)
I1216 13:14:25.274483 17145 layer_factory.hpp:74] Creating layer inception_4d/1x1
I1216 13:14:25.274500 17145 net.cpp:84] Creating Layer inception_4d/1x1
I1216 13:14:25.274509 17145 net.cpp:380] inception_4d/1x1 <- inception_4c/output_inception_4c/output_0_split_0
I1216 13:14:25.274528 17145 net.cpp:338] inception_4d/1x1 -> inception_4d/1x1
I1216 13:14:25.274554 17145 net.cpp:113] Setting up inception_4d/1x1
I1216 13:14:25.276285 17145 net.cpp:120] Top shape: 32 112 14 14 (702464)
I1216 13:14:25.276311 17145 layer_factory.hpp:74] Creating layer inception_4d/relu_1x1
I1216 13:14:25.276326 17145 net.cpp:84] Creating Layer inception_4d/relu_1x1
I1216 13:14:25.276335 17145 net.cpp:380] inception_4d/relu_1x1 <- inception_4d/1x1
I1216 13:14:25.276347 17145 net.cpp:327] inception_4d/relu_1x1 -> inception_4d/1x1 (in-place)
I1216 13:14:25.276360 17145 net.cpp:113] Setting up inception_4d/relu_1x1
I1216 13:14:25.276474 17145 net.cpp:120] Top shape: 32 112 14 14 (702464)
I1216 13:14:25.276484 17145 layer_factory.hpp:74] Creating layer inception_4d/3x3_reduce
I1216 13:14:25.276500 17145 net.cpp:84] Creating Layer inception_4d/3x3_reduce
I1216 13:14:25.276510 17145 net.cpp:380] inception_4d/3x3_reduce <- inception_4c/output_inception_4c/output_0_split_1
I1216 13:14:25.276521 17145 net.cpp:338] inception_4d/3x3_reduce -> inception_4d/3x3_reduce
I1216 13:14:25.276536 17145 net.cpp:113] Setting up inception_4d/3x3_reduce
I1216 13:14:25.278585 17145 net.cpp:120] Top shape: 32 144 14 14 (903168)
I1216 13:14:25.278610 17145 layer_factory.hpp:74] Creating layer inception_4d/relu_3x3_reduce
I1216 13:14:25.278627 17145 net.cpp:84] Creating Layer inception_4d/relu_3x3_reduce
I1216 13:14:25.278637 17145 net.cpp:380] inception_4d/relu_3x3_reduce <- inception_4d/3x3_reduce
I1216 13:14:25.278650 17145 net.cpp:327] inception_4d/relu_3x3_reduce -> inception_4d/3x3_reduce (in-place)
I1216 13:14:25.278662 17145 net.cpp:113] Setting up inception_4d/relu_3x3_reduce
I1216 13:14:25.279011 17145 net.cpp:120] Top shape: 32 144 14 14 (903168)
I1216 13:14:25.279031 17145 layer_factory.hpp:74] Creating layer inception_4d/3x3
I1216 13:14:25.279045 17145 net.cpp:84] Creating Layer inception_4d/3x3
I1216 13:14:25.279054 17145 net.cpp:380] inception_4d/3x3 <- inception_4d/3x3_reduce
I1216 13:14:25.279070 17145 net.cpp:338] inception_4d/3x3 -> inception_4d/3x3
I1216 13:14:25.279085 17145 net.cpp:113] Setting up inception_4d/3x3
I1216 13:14:25.286530 17145 net.cpp:120] Top shape: 32 288 14 14 (1806336)
I1216 13:14:25.286559 17145 layer_factory.hpp:74] Creating layer inception_4d/relu_3x3
I1216 13:14:25.286571 17145 net.cpp:84] Creating Layer inception_4d/relu_3x3
I1216 13:14:25.286581 17145 net.cpp:380] inception_4d/relu_3x3 <- inception_4d/3x3
I1216 13:14:25.286592 17145 net.cpp:327] inception_4d/relu_3x3 -> inception_4d/3x3 (in-place)
I1216 13:14:25.286607 17145 net.cpp:113] Setting up inception_4d/relu_3x3
I1216 13:14:25.286712 17145 net.cpp:120] Top shape: 32 288 14 14 (1806336)
I1216 13:14:25.286725 17145 layer_factory.hpp:74] Creating layer inception_4d/5x5_reduce
I1216 13:14:25.286739 17145 net.cpp:84] Creating Layer inception_4d/5x5_reduce
I1216 13:14:25.286747 17145 net.cpp:380] inception_4d/5x5_reduce <- inception_4c/output_inception_4c/output_0_split_2
I1216 13:14:25.286759 17145 net.cpp:338] inception_4d/5x5_reduce -> inception_4d/5x5_reduce
I1216 13:14:25.286772 17145 net.cpp:113] Setting up inception_4d/5x5_reduce
I1216 13:14:25.287647 17145 net.cpp:120] Top shape: 32 32 14 14 (200704)
I1216 13:14:25.287668 17145 layer_factory.hpp:74] Creating layer inception_4d/relu_5x5_reduce
I1216 13:14:25.287684 17145 net.cpp:84] Creating Layer inception_4d/relu_5x5_reduce
I1216 13:14:25.287693 17145 net.cpp:380] inception_4d/relu_5x5_reduce <- inception_4d/5x5_reduce
I1216 13:14:25.287704 17145 net.cpp:327] inception_4d/relu_5x5_reduce -> inception_4d/5x5_reduce (in-place)
I1216 13:14:25.287716 17145 net.cpp:113] Setting up inception_4d/relu_5x5_reduce
I1216 13:14:25.287822 17145 net.cpp:120] Top shape: 32 32 14 14 (200704)
I1216 13:14:25.287832 17145 layer_factory.hpp:74] Creating layer inception_4d/5x5
I1216 13:14:25.287847 17145 net.cpp:84] Creating Layer inception_4d/5x5
I1216 13:14:25.287855 17145 net.cpp:380] inception_4d/5x5 <- inception_4d/5x5_reduce
I1216 13:14:25.287868 17145 net.cpp:338] inception_4d/5x5 -> inception_4d/5x5
I1216 13:14:25.287889 17145 net.cpp:113] Setting up inception_4d/5x5
I1216 13:14:25.289419 17145 net.cpp:120] Top shape: 32 64 14 14 (401408)
I1216 13:14:25.289443 17145 layer_factory.hpp:74] Creating layer inception_4d/relu_5x5
I1216 13:14:25.289458 17145 net.cpp:84] Creating Layer inception_4d/relu_5x5
I1216 13:14:25.289466 17145 net.cpp:380] inception_4d/relu_5x5 <- inception_4d/5x5
I1216 13:14:25.289477 17145 net.cpp:327] inception_4d/relu_5x5 -> inception_4d/5x5 (in-place)
I1216 13:14:25.289489 17145 net.cpp:113] Setting up inception_4d/relu_5x5
I1216 13:14:25.289599 17145 net.cpp:120] Top shape: 32 64 14 14 (401408)
I1216 13:14:25.289611 17145 layer_factory.hpp:74] Creating layer inception_4d/pool
I1216 13:14:25.289623 17145 layer_factory.cpp:56] CUDNN does not support padding or multiple tops. Using Caffe's own pooling layer.
I1216 13:14:25.289633 17145 net.cpp:84] Creating Layer inception_4d/pool
I1216 13:14:25.289640 17145 net.cpp:380] inception_4d/pool <- inception_4c/output_inception_4c/output_0_split_3
I1216 13:14:25.289655 17145 net.cpp:338] inception_4d/pool -> inception_4d/pool
I1216 13:14:25.289671 17145 net.cpp:113] Setting up inception_4d/pool
I1216 13:14:25.289685 17145 net.cpp:120] Top shape: 32 512 14 14 (3211264)
I1216 13:14:25.289692 17145 layer_factory.hpp:74] Creating layer inception_4d/pool_proj
I1216 13:14:25.289708 17145 net.cpp:84] Creating Layer inception_4d/pool_proj
I1216 13:14:25.289716 17145 net.cpp:380] inception_4d/pool_proj <- inception_4d/pool
I1216 13:14:25.289727 17145 net.cpp:338] inception_4d/pool_proj -> inception_4d/pool_proj
I1216 13:14:25.289741 17145 net.cpp:113] Setting up inception_4d/pool_proj
I1216 13:14:25.290910 17145 net.cpp:120] Top shape: 32 64 14 14 (401408)
I1216 13:14:25.290933 17145 layer_factory.hpp:74] Creating layer inception_4d/relu_pool_proj
I1216 13:14:25.290946 17145 net.cpp:84] Creating Layer inception_4d/relu_pool_proj
I1216 13:14:25.290954 17145 net.cpp:380] inception_4d/relu_pool_proj <- inception_4d/pool_proj
I1216 13:14:25.290968 17145 net.cpp:327] inception_4d/relu_pool_proj -> inception_4d/pool_proj (in-place)
I1216 13:14:25.290980 17145 net.cpp:113] Setting up inception_4d/relu_pool_proj
I1216 13:14:25.291308 17145 net.cpp:120] Top shape: 32 64 14 14 (401408)
I1216 13:14:25.291326 17145 layer_factory.hpp:74] Creating layer inception_4d/output
I1216 13:14:25.291338 17145 net.cpp:84] Creating Layer inception_4d/output
I1216 13:14:25.291347 17145 net.cpp:380] inception_4d/output <- inception_4d/1x1
I1216 13:14:25.291358 17145 net.cpp:380] inception_4d/output <- inception_4d/3x3
I1216 13:14:25.291368 17145 net.cpp:380] inception_4d/output <- inception_4d/5x5
I1216 13:14:25.291376 17145 net.cpp:380] inception_4d/output <- inception_4d/pool_proj
I1216 13:14:25.291386 17145 net.cpp:338] inception_4d/output -> inception_4d/output
I1216 13:14:25.291399 17145 net.cpp:113] Setting up inception_4d/output
I1216 13:14:25.291412 17145 net.cpp:120] Top shape: 32 528 14 14 (3311616)
I1216 13:14:25.291420 17145 layer_factory.hpp:74] Creating layer inception_4d/output_inception_4d/output_0_split
I1216 13:14:25.291434 17145 net.cpp:84] Creating Layer inception_4d/output_inception_4d/output_0_split
I1216 13:14:25.291440 17145 net.cpp:380] inception_4d/output_inception_4d/output_0_split <- inception_4d/output
I1216 13:14:25.291455 17145 net.cpp:338] inception_4d/output_inception_4d/output_0_split -> inception_4d/output_inception_4d/output_0_split_0
I1216 13:14:25.291466 17145 net.cpp:338] inception_4d/output_inception_4d/output_0_split -> inception_4d/output_inception_4d/output_0_split_1
I1216 13:14:25.291479 17145 net.cpp:338] inception_4d/output_inception_4d/output_0_split -> inception_4d/output_inception_4d/output_0_split_2
I1216 13:14:25.291491 17145 net.cpp:338] inception_4d/output_inception_4d/output_0_split -> inception_4d/output_inception_4d/output_0_split_3
I1216 13:14:25.291504 17145 net.cpp:338] inception_4d/output_inception_4d/output_0_split -> inception_4d/output_inception_4d/output_0_split_4
I1216 13:14:25.291515 17145 net.cpp:113] Setting up inception_4d/output_inception_4d/output_0_split
I1216 13:14:25.291535 17145 net.cpp:120] Top shape: 32 528 14 14 (3311616)
I1216 13:14:25.291555 17145 net.cpp:120] Top shape: 32 528 14 14 (3311616)
I1216 13:14:25.291564 17145 net.cpp:120] Top shape: 32 528 14 14 (3311616)
I1216 13:14:25.291574 17145 net.cpp:120] Top shape: 32 528 14 14 (3311616)
I1216 13:14:25.291581 17145 net.cpp:120] Top shape: 32 528 14 14 (3311616)
I1216 13:14:25.291589 17145 layer_factory.hpp:74] Creating layer loss2/ave_pool
I1216 13:14:25.291600 17145 net.cpp:84] Creating Layer loss2/ave_pool
I1216 13:14:25.291609 17145 net.cpp:380] loss2/ave_pool <- inception_4d/output_inception_4d/output_0_split_0
I1216 13:14:25.291622 17145 net.cpp:338] loss2/ave_pool -> loss2/ave_pool
I1216 13:14:25.291635 17145 net.cpp:113] Setting up loss2/ave_pool
I1216 13:14:25.291749 17145 net.cpp:120] Top shape: 32 528 4 4 (270336)
I1216 13:14:25.291759 17145 layer_factory.hpp:74] Creating layer loss2/conv
I1216 13:14:25.291771 17145 net.cpp:84] Creating Layer loss2/conv
I1216 13:14:25.291779 17145 net.cpp:380] loss2/conv <- loss2/ave_pool
I1216 13:14:25.291793 17145 net.cpp:338] loss2/conv -> loss2/conv
I1216 13:14:25.291806 17145 net.cpp:113] Setting up loss2/conv
I1216 13:14:25.293627 17145 net.cpp:120] Top shape: 32 128 4 4 (65536)
I1216 13:14:25.293651 17145 layer_factory.hpp:74] Creating layer loss2/relu_conv
I1216 13:14:25.293665 17145 net.cpp:84] Creating Layer loss2/relu_conv
I1216 13:14:25.293673 17145 net.cpp:380] loss2/relu_conv <- loss2/conv
I1216 13:14:25.293684 17145 net.cpp:327] loss2/relu_conv -> loss2/conv (in-place)
I1216 13:14:25.293695 17145 net.cpp:113] Setting up loss2/relu_conv
I1216 13:14:25.293798 17145 net.cpp:120] Top shape: 32 128 4 4 (65536)
I1216 13:14:25.293808 17145 layer_factory.hpp:74] Creating layer loss2/fc
I1216 13:14:25.293823 17145 net.cpp:84] Creating Layer loss2/fc
I1216 13:14:25.293830 17145 net.cpp:380] loss2/fc <- loss2/conv
I1216 13:14:25.293841 17145 net.cpp:338] loss2/fc -> loss2/fc
I1216 13:14:25.293853 17145 net.cpp:113] Setting up loss2/fc
I1216 13:14:25.325759 17145 net.cpp:120] Top shape: 32 1024 (32768)
I1216 13:14:25.325779 17145 layer_factory.hpp:74] Creating layer loss2/relu_fc
I1216 13:14:25.325788 17145 net.cpp:84] Creating Layer loss2/relu_fc
I1216 13:14:25.325796 17145 net.cpp:380] loss2/relu_fc <- loss2/fc
I1216 13:14:25.325808 17145 net.cpp:327] loss2/relu_fc -> loss2/fc (in-place)
I1216 13:14:25.325816 17145 net.cpp:113] Setting up loss2/relu_fc
I1216 13:14:25.326123 17145 net.cpp:120] Top shape: 32 1024 (32768)
I1216 13:14:25.326138 17145 layer_factory.hpp:74] Creating layer loss2/drop_fc
I1216 13:14:25.326148 17145 net.cpp:84] Creating Layer loss2/drop_fc
I1216 13:14:25.326155 17145 net.cpp:380] loss2/drop_fc <- loss2/fc
I1216 13:14:25.326167 17145 net.cpp:327] loss2/drop_fc -> loss2/fc (in-place)
I1216 13:14:25.326177 17145 net.cpp:113] Setting up loss2/drop_fc
I1216 13:14:25.326187 17145 net.cpp:120] Top shape: 32 1024 (32768)
I1216 13:14:25.326195 17145 layer_factory.hpp:74] Creating layer loss2/classifier_kaggle
I1216 13:14:25.326205 17145 net.cpp:84] Creating Layer loss2/classifier_kaggle
I1216 13:14:25.326211 17145 net.cpp:380] loss2/classifier_kaggle <- loss2/fc
I1216 13:14:25.326222 17145 net.cpp:338] loss2/classifier_kaggle -> loss2/classifier_kaggle
I1216 13:14:25.326234 17145 net.cpp:113] Setting up loss2/classifier_kaggle
I1216 13:14:25.332960 17145 net.cpp:120] Top shape: 32 447 (14304)
I1216 13:14:25.332976 17145 layer_factory.hpp:74] Creating layer loss2/loss
I1216 13:14:25.332988 17145 net.cpp:84] Creating Layer loss2/loss
I1216 13:14:25.332995 17145 net.cpp:380] loss2/loss <- loss2/classifier_kaggle
I1216 13:14:25.333004 17145 net.cpp:380] loss2/loss <- label_data_1_split_1
I1216 13:14:25.333014 17145 net.cpp:338] loss2/loss -> loss2/loss1
I1216 13:14:25.333025 17145 net.cpp:113] Setting up loss2/loss
I1216 13:14:25.333034 17145 layer_factory.hpp:74] Creating layer loss2/loss
I1216 13:14:25.333189 17145 net.cpp:120] Top shape: (1)
I1216 13:14:25.333199 17145 net.cpp:122]     with loss weight 0.3
I1216 13:14:25.333221 17145 layer_factory.hpp:74] Creating layer inception_4e/1x1
I1216 13:14:25.333245 17145 net.cpp:84] Creating Layer inception_4e/1x1
I1216 13:14:25.333253 17145 net.cpp:380] inception_4e/1x1 <- inception_4d/output_inception_4d/output_0_split_1
I1216 13:14:25.333263 17145 net.cpp:338] inception_4e/1x1 -> inception_4e/1x1
I1216 13:14:25.333274 17145 net.cpp:113] Setting up inception_4e/1x1
I1216 13:14:25.335721 17145 net.cpp:120] Top shape: 32 256 14 14 (1605632)
I1216 13:14:25.335739 17145 layer_factory.hpp:74] Creating layer inception_4e/relu_1x1
I1216 13:14:25.335750 17145 net.cpp:84] Creating Layer inception_4e/relu_1x1
I1216 13:14:25.335758 17145 net.cpp:380] inception_4e/relu_1x1 <- inception_4e/1x1
I1216 13:14:25.335767 17145 net.cpp:327] inception_4e/relu_1x1 -> inception_4e/1x1 (in-place)
I1216 13:14:25.335777 17145 net.cpp:113] Setting up inception_4e/relu_1x1
I1216 13:14:25.335863 17145 net.cpp:120] Top shape: 32 256 14 14 (1605632)
I1216 13:14:25.335871 17145 layer_factory.hpp:74] Creating layer inception_4e/3x3_reduce
I1216 13:14:25.335883 17145 net.cpp:84] Creating Layer inception_4e/3x3_reduce
I1216 13:14:25.335891 17145 net.cpp:380] inception_4e/3x3_reduce <- inception_4d/output_inception_4d/output_0_split_2
I1216 13:14:25.335902 17145 net.cpp:338] inception_4e/3x3_reduce -> inception_4e/3x3_reduce
I1216 13:14:25.335912 17145 net.cpp:113] Setting up inception_4e/3x3_reduce
I1216 13:14:25.337617 17145 net.cpp:120] Top shape: 32 160 14 14 (1003520)
I1216 13:14:25.337637 17145 layer_factory.hpp:74] Creating layer inception_4e/relu_3x3_reduce
I1216 13:14:25.337648 17145 net.cpp:84] Creating Layer inception_4e/relu_3x3_reduce
I1216 13:14:25.337656 17145 net.cpp:380] inception_4e/relu_3x3_reduce <- inception_4e/3x3_reduce
I1216 13:14:25.337666 17145 net.cpp:327] inception_4e/relu_3x3_reduce -> inception_4e/3x3_reduce (in-place)
I1216 13:14:25.337676 17145 net.cpp:113] Setting up inception_4e/relu_3x3_reduce
I1216 13:14:25.337762 17145 net.cpp:120] Top shape: 32 160 14 14 (1003520)
I1216 13:14:25.337770 17145 layer_factory.hpp:74] Creating layer inception_4e/3x3
I1216 13:14:25.337782 17145 net.cpp:84] Creating Layer inception_4e/3x3
I1216 13:14:25.337790 17145 net.cpp:380] inception_4e/3x3 <- inception_4e/3x3_reduce
I1216 13:14:25.337798 17145 net.cpp:338] inception_4e/3x3 -> inception_4e/3x3
I1216 13:14:25.337808 17145 net.cpp:113] Setting up inception_4e/3x3
I1216 13:14:25.344744 17145 net.cpp:120] Top shape: 32 320 14 14 (2007040)
I1216 13:14:25.344766 17145 layer_factory.hpp:74] Creating layer inception_4e/relu_3x3
I1216 13:14:25.344777 17145 net.cpp:84] Creating Layer inception_4e/relu_3x3
I1216 13:14:25.344784 17145 net.cpp:380] inception_4e/relu_3x3 <- inception_4e/3x3
I1216 13:14:25.344792 17145 net.cpp:327] inception_4e/relu_3x3 -> inception_4e/3x3 (in-place)
I1216 13:14:25.344801 17145 net.cpp:113] Setting up inception_4e/relu_3x3
I1216 13:14:25.345082 17145 net.cpp:120] Top shape: 32 320 14 14 (2007040)
I1216 13:14:25.345098 17145 layer_factory.hpp:74] Creating layer inception_4e/5x5_reduce
I1216 13:14:25.345114 17145 net.cpp:84] Creating Layer inception_4e/5x5_reduce
I1216 13:14:25.345121 17145 net.cpp:380] inception_4e/5x5_reduce <- inception_4d/output_inception_4d/output_0_split_3
I1216 13:14:25.345131 17145 net.cpp:338] inception_4e/5x5_reduce -> inception_4e/5x5_reduce
I1216 13:14:25.345142 17145 net.cpp:113] Setting up inception_4e/5x5_reduce
I1216 13:14:25.345839 17145 net.cpp:120] Top shape: 32 32 14 14 (200704)
I1216 13:14:25.345857 17145 layer_factory.hpp:74] Creating layer inception_4e/relu_5x5_reduce
I1216 13:14:25.345868 17145 net.cpp:84] Creating Layer inception_4e/relu_5x5_reduce
I1216 13:14:25.345875 17145 net.cpp:380] inception_4e/relu_5x5_reduce <- inception_4e/5x5_reduce
I1216 13:14:25.345885 17145 net.cpp:327] inception_4e/relu_5x5_reduce -> inception_4e/5x5_reduce (in-place)
I1216 13:14:25.345895 17145 net.cpp:113] Setting up inception_4e/relu_5x5_reduce
I1216 13:14:25.345981 17145 net.cpp:120] Top shape: 32 32 14 14 (200704)
I1216 13:14:25.345989 17145 layer_factory.hpp:74] Creating layer inception_4e/5x5
I1216 13:14:25.346029 17145 net.cpp:84] Creating Layer inception_4e/5x5
I1216 13:14:25.346045 17145 net.cpp:380] inception_4e/5x5 <- inception_4e/5x5_reduce
I1216 13:14:25.346055 17145 net.cpp:338] inception_4e/5x5 -> inception_4e/5x5
I1216 13:14:25.346065 17145 net.cpp:113] Setting up inception_4e/5x5
I1216 13:14:25.347928 17145 net.cpp:120] Top shape: 32 128 14 14 (802816)
I1216 13:14:25.347947 17145 layer_factory.hpp:74] Creating layer inception_4e/relu_5x5
I1216 13:14:25.347959 17145 net.cpp:84] Creating Layer inception_4e/relu_5x5
I1216 13:14:25.347966 17145 net.cpp:380] inception_4e/relu_5x5 <- inception_4e/5x5
I1216 13:14:25.347975 17145 net.cpp:327] inception_4e/relu_5x5 -> inception_4e/5x5 (in-place)
I1216 13:14:25.347983 17145 net.cpp:113] Setting up inception_4e/relu_5x5
I1216 13:14:25.348069 17145 net.cpp:120] Top shape: 32 128 14 14 (802816)
I1216 13:14:25.348078 17145 layer_factory.hpp:74] Creating layer inception_4e/pool
I1216 13:14:25.348085 17145 layer_factory.cpp:56] CUDNN does not support padding or multiple tops. Using Caffe's own pooling layer.
I1216 13:14:25.348093 17145 net.cpp:84] Creating Layer inception_4e/pool
I1216 13:14:25.348099 17145 net.cpp:380] inception_4e/pool <- inception_4d/output_inception_4d/output_0_split_4
I1216 13:14:25.348110 17145 net.cpp:338] inception_4e/pool -> inception_4e/pool
I1216 13:14:25.348120 17145 net.cpp:113] Setting up inception_4e/pool
I1216 13:14:25.348130 17145 net.cpp:120] Top shape: 32 528 14 14 (3311616)
I1216 13:14:25.348136 17145 layer_factory.hpp:74] Creating layer inception_4e/pool_proj
I1216 13:14:25.348147 17145 net.cpp:84] Creating Layer inception_4e/pool_proj
I1216 13:14:25.348155 17145 net.cpp:380] inception_4e/pool_proj <- inception_4e/pool
I1216 13:14:25.348162 17145 net.cpp:338] inception_4e/pool_proj -> inception_4e/pool_proj
I1216 13:14:25.348172 17145 net.cpp:113] Setting up inception_4e/pool_proj
I1216 13:14:25.349575 17145 net.cpp:120] Top shape: 32 128 14 14 (802816)
I1216 13:14:25.349594 17145 layer_factory.hpp:74] Creating layer inception_4e/relu_pool_proj
I1216 13:14:25.349603 17145 net.cpp:84] Creating Layer inception_4e/relu_pool_proj
I1216 13:14:25.349611 17145 net.cpp:380] inception_4e/relu_pool_proj <- inception_4e/pool_proj
I1216 13:14:25.349620 17145 net.cpp:327] inception_4e/relu_pool_proj -> inception_4e/pool_proj (in-place)
I1216 13:14:25.349630 17145 net.cpp:113] Setting up inception_4e/relu_pool_proj
I1216 13:14:25.349710 17145 net.cpp:120] Top shape: 32 128 14 14 (802816)
I1216 13:14:25.349719 17145 layer_factory.hpp:74] Creating layer inception_4e/output
I1216 13:14:25.349727 17145 net.cpp:84] Creating Layer inception_4e/output
I1216 13:14:25.349735 17145 net.cpp:380] inception_4e/output <- inception_4e/1x1
I1216 13:14:25.349741 17145 net.cpp:380] inception_4e/output <- inception_4e/3x3
I1216 13:14:25.349748 17145 net.cpp:380] inception_4e/output <- inception_4e/5x5
I1216 13:14:25.349756 17145 net.cpp:380] inception_4e/output <- inception_4e/pool_proj
I1216 13:14:25.349764 17145 net.cpp:338] inception_4e/output -> inception_4e/output
I1216 13:14:25.349774 17145 net.cpp:113] Setting up inception_4e/output
I1216 13:14:25.349783 17145 net.cpp:120] Top shape: 32 832 14 14 (5218304)
I1216 13:14:25.349791 17145 layer_factory.hpp:74] Creating layer pool4/3x3_s2
I1216 13:14:25.349799 17145 net.cpp:84] Creating Layer pool4/3x3_s2
I1216 13:14:25.349805 17145 net.cpp:380] pool4/3x3_s2 <- inception_4e/output
I1216 13:14:25.349814 17145 net.cpp:338] pool4/3x3_s2 -> pool4/3x3_s2
I1216 13:14:25.349822 17145 net.cpp:113] Setting up pool4/3x3_s2
I1216 13:14:25.350102 17145 net.cpp:120] Top shape: 32 832 7 7 (1304576)
I1216 13:14:25.350116 17145 layer_factory.hpp:74] Creating layer pool4/3x3_s2_pool4/3x3_s2_0_split
I1216 13:14:25.350126 17145 net.cpp:84] Creating Layer pool4/3x3_s2_pool4/3x3_s2_0_split
I1216 13:14:25.350131 17145 net.cpp:380] pool4/3x3_s2_pool4/3x3_s2_0_split <- pool4/3x3_s2
I1216 13:14:25.350142 17145 net.cpp:338] pool4/3x3_s2_pool4/3x3_s2_0_split -> pool4/3x3_s2_pool4/3x3_s2_0_split_0
I1216 13:14:25.350159 17145 net.cpp:338] pool4/3x3_s2_pool4/3x3_s2_0_split -> pool4/3x3_s2_pool4/3x3_s2_0_split_1
I1216 13:14:25.350178 17145 net.cpp:338] pool4/3x3_s2_pool4/3x3_s2_0_split -> pool4/3x3_s2_pool4/3x3_s2_0_split_2
I1216 13:14:25.350186 17145 net.cpp:338] pool4/3x3_s2_pool4/3x3_s2_0_split -> pool4/3x3_s2_pool4/3x3_s2_0_split_3
I1216 13:14:25.350194 17145 net.cpp:113] Setting up pool4/3x3_s2_pool4/3x3_s2_0_split
I1216 13:14:25.350205 17145 net.cpp:120] Top shape: 32 832 7 7 (1304576)
I1216 13:14:25.350213 17145 net.cpp:120] Top shape: 32 832 7 7 (1304576)
I1216 13:14:25.350219 17145 net.cpp:120] Top shape: 32 832 7 7 (1304576)
I1216 13:14:25.350225 17145 net.cpp:120] Top shape: 32 832 7 7 (1304576)
I1216 13:14:25.350231 17145 layer_factory.hpp:74] Creating layer inception_5a/1x1
I1216 13:14:25.350241 17145 net.cpp:84] Creating Layer inception_5a/1x1
I1216 13:14:25.350247 17145 net.cpp:380] inception_5a/1x1 <- pool4/3x3_s2_pool4/3x3_s2_0_split_0
I1216 13:14:25.350258 17145 net.cpp:338] inception_5a/1x1 -> inception_5a/1x1
I1216 13:14:25.350267 17145 net.cpp:113] Setting up inception_5a/1x1
I1216 13:14:25.356184 17145 net.cpp:120] Top shape: 32 256 7 7 (401408)
I1216 13:14:25.356230 17145 layer_factory.hpp:74] Creating layer inception_5a/relu_1x1
I1216 13:14:25.356261 17145 net.cpp:84] Creating Layer inception_5a/relu_1x1
I1216 13:14:25.356271 17145 net.cpp:380] inception_5a/relu_1x1 <- inception_5a/1x1
I1216 13:14:25.356287 17145 net.cpp:327] inception_5a/relu_1x1 -> inception_5a/1x1 (in-place)
I1216 13:14:25.356302 17145 net.cpp:113] Setting up inception_5a/relu_1x1
I1216 13:14:25.356417 17145 net.cpp:120] Top shape: 32 256 7 7 (401408)
I1216 13:14:25.356431 17145 layer_factory.hpp:74] Creating layer inception_5a/3x3_reduce
I1216 13:14:25.356451 17145 net.cpp:84] Creating Layer inception_5a/3x3_reduce
I1216 13:14:25.356462 17145 net.cpp:380] inception_5a/3x3_reduce <- pool4/3x3_s2_pool4/3x3_s2_0_split_1
I1216 13:14:25.356477 17145 net.cpp:338] inception_5a/3x3_reduce -> inception_5a/3x3_reduce
I1216 13:14:25.356493 17145 net.cpp:113] Setting up inception_5a/3x3_reduce
I1216 13:14:25.358690 17145 net.cpp:120] Top shape: 32 160 7 7 (250880)
I1216 13:14:25.358712 17145 layer_factory.hpp:74] Creating layer inception_5a/relu_3x3_reduce
I1216 13:14:25.358723 17145 net.cpp:84] Creating Layer inception_5a/relu_3x3_reduce
I1216 13:14:25.358732 17145 net.cpp:380] inception_5a/relu_3x3_reduce <- inception_5a/3x3_reduce
I1216 13:14:25.358742 17145 net.cpp:327] inception_5a/relu_3x3_reduce -> inception_5a/3x3_reduce (in-place)
I1216 13:14:25.358753 17145 net.cpp:113] Setting up inception_5a/relu_3x3_reduce
I1216 13:14:25.358845 17145 net.cpp:120] Top shape: 32 160 7 7 (250880)
I1216 13:14:25.358857 17145 layer_factory.hpp:74] Creating layer inception_5a/3x3
I1216 13:14:25.358870 17145 net.cpp:84] Creating Layer inception_5a/3x3
I1216 13:14:25.358880 17145 net.cpp:380] inception_5a/3x3 <- inception_5a/3x3_reduce
I1216 13:14:25.358891 17145 net.cpp:338] inception_5a/3x3 -> inception_5a/3x3
I1216 13:14:25.358903 17145 net.cpp:113] Setting up inception_5a/3x3
I1216 13:14:25.364675 17145 net.cpp:120] Top shape: 32 320 7 7 (501760)
I1216 13:14:25.364696 17145 layer_factory.hpp:74] Creating layer inception_5a/relu_3x3
I1216 13:14:25.364717 17145 net.cpp:84] Creating Layer inception_5a/relu_3x3
I1216 13:14:25.364727 17145 net.cpp:380] inception_5a/relu_3x3 <- inception_5a/3x3
I1216 13:14:25.364737 17145 net.cpp:327] inception_5a/relu_3x3 -> inception_5a/3x3 (in-place)
I1216 13:14:25.364748 17145 net.cpp:113] Setting up inception_5a/relu_3x3
I1216 13:14:25.364843 17145 net.cpp:120] Top shape: 32 320 7 7 (501760)
I1216 13:14:25.364856 17145 layer_factory.hpp:74] Creating layer inception_5a/5x5_reduce
I1216 13:14:25.364869 17145 net.cpp:84] Creating Layer inception_5a/5x5_reduce
I1216 13:14:25.364878 17145 net.cpp:380] inception_5a/5x5_reduce <- pool4/3x3_s2_pool4/3x3_s2_0_split_2
I1216 13:14:25.364891 17145 net.cpp:338] inception_5a/5x5_reduce -> inception_5a/5x5_reduce
I1216 13:14:25.364903 17145 net.cpp:113] Setting up inception_5a/5x5_reduce
I1216 13:14:25.366019 17145 net.cpp:120] Top shape: 32 32 7 7 (50176)
I1216 13:14:25.366063 17145 layer_factory.hpp:74] Creating layer inception_5a/relu_5x5_reduce
I1216 13:14:25.366078 17145 net.cpp:84] Creating Layer inception_5a/relu_5x5_reduce
I1216 13:14:25.366088 17145 net.cpp:380] inception_5a/relu_5x5_reduce <- inception_5a/5x5_reduce
I1216 13:14:25.366099 17145 net.cpp:327] inception_5a/relu_5x5_reduce -> inception_5a/5x5_reduce (in-place)
I1216 13:14:25.366111 17145 net.cpp:113] Setting up inception_5a/relu_5x5_reduce
I1216 13:14:25.366401 17145 net.cpp:120] Top shape: 32 32 7 7 (50176)
I1216 13:14:25.366420 17145 layer_factory.hpp:74] Creating layer inception_5a/5x5
I1216 13:14:25.366441 17145 net.cpp:84] Creating Layer inception_5a/5x5
I1216 13:14:25.366451 17145 net.cpp:380] inception_5a/5x5 <- inception_5a/5x5_reduce
I1216 13:14:25.366464 17145 net.cpp:338] inception_5a/5x5 -> inception_5a/5x5
I1216 13:14:25.366478 17145 net.cpp:113] Setting up inception_5a/5x5
I1216 13:14:25.368208 17145 net.cpp:120] Top shape: 32 128 7 7 (200704)
I1216 13:14:25.368229 17145 layer_factory.hpp:74] Creating layer inception_5a/relu_5x5
I1216 13:14:25.368242 17145 net.cpp:84] Creating Layer inception_5a/relu_5x5
I1216 13:14:25.368252 17145 net.cpp:380] inception_5a/relu_5x5 <- inception_5a/5x5
I1216 13:14:25.368263 17145 net.cpp:327] inception_5a/relu_5x5 -> inception_5a/5x5 (in-place)
I1216 13:14:25.368273 17145 net.cpp:113] Setting up inception_5a/relu_5x5
I1216 13:14:25.368368 17145 net.cpp:120] Top shape: 32 128 7 7 (200704)
I1216 13:14:25.368381 17145 layer_factory.hpp:74] Creating layer inception_5a/pool
I1216 13:14:25.368389 17145 layer_factory.cpp:56] CUDNN does not support padding or multiple tops. Using Caffe's own pooling layer.
I1216 13:14:25.368401 17145 net.cpp:84] Creating Layer inception_5a/pool
I1216 13:14:25.368409 17145 net.cpp:380] inception_5a/pool <- pool4/3x3_s2_pool4/3x3_s2_0_split_3
I1216 13:14:25.368422 17145 net.cpp:338] inception_5a/pool -> inception_5a/pool
I1216 13:14:25.368437 17145 net.cpp:113] Setting up inception_5a/pool
I1216 13:14:25.368451 17145 net.cpp:120] Top shape: 32 832 7 7 (1304576)
I1216 13:14:25.368466 17145 layer_factory.hpp:74] Creating layer inception_5a/pool_proj
I1216 13:14:25.368485 17145 net.cpp:84] Creating Layer inception_5a/pool_proj
I1216 13:14:25.368494 17145 net.cpp:380] inception_5a/pool_proj <- inception_5a/pool
I1216 13:14:25.368511 17145 net.cpp:338] inception_5a/pool_proj -> inception_5a/pool_proj
I1216 13:14:25.368525 17145 net.cpp:113] Setting up inception_5a/pool_proj
I1216 13:14:25.370703 17145 net.cpp:120] Top shape: 32 128 7 7 (200704)
I1216 13:14:25.370726 17145 layer_factory.hpp:74] Creating layer inception_5a/relu_pool_proj
I1216 13:14:25.370740 17145 net.cpp:84] Creating Layer inception_5a/relu_pool_proj
I1216 13:14:25.370750 17145 net.cpp:380] inception_5a/relu_pool_proj <- inception_5a/pool_proj
I1216 13:14:25.370771 17145 net.cpp:327] inception_5a/relu_pool_proj -> inception_5a/pool_proj (in-place)
I1216 13:14:25.370784 17145 net.cpp:113] Setting up inception_5a/relu_pool_proj
I1216 13:14:25.370875 17145 net.cpp:120] Top shape: 32 128 7 7 (200704)
I1216 13:14:25.370887 17145 layer_factory.hpp:74] Creating layer inception_5a/output
I1216 13:14:25.370899 17145 net.cpp:84] Creating Layer inception_5a/output
I1216 13:14:25.370909 17145 net.cpp:380] inception_5a/output <- inception_5a/1x1
I1216 13:14:25.370918 17145 net.cpp:380] inception_5a/output <- inception_5a/3x3
I1216 13:14:25.370926 17145 net.cpp:380] inception_5a/output <- inception_5a/5x5
I1216 13:14:25.370935 17145 net.cpp:380] inception_5a/output <- inception_5a/pool_proj
I1216 13:14:25.370945 17145 net.cpp:338] inception_5a/output -> inception_5a/output
I1216 13:14:25.370957 17145 net.cpp:113] Setting up inception_5a/output
I1216 13:14:25.370970 17145 net.cpp:120] Top shape: 32 832 7 7 (1304576)
I1216 13:14:25.370977 17145 layer_factory.hpp:74] Creating layer inception_5a/output_inception_5a/output_0_split
I1216 13:14:25.370987 17145 net.cpp:84] Creating Layer inception_5a/output_inception_5a/output_0_split
I1216 13:14:25.371001 17145 net.cpp:380] inception_5a/output_inception_5a/output_0_split <- inception_5a/output
I1216 13:14:25.371023 17145 net.cpp:338] inception_5a/output_inception_5a/output_0_split -> inception_5a/output_inception_5a/output_0_split_0
I1216 13:14:25.371037 17145 net.cpp:338] inception_5a/output_inception_5a/output_0_split -> inception_5a/output_inception_5a/output_0_split_1
I1216 13:14:25.371049 17145 net.cpp:338] inception_5a/output_inception_5a/output_0_split -> inception_5a/output_inception_5a/output_0_split_2
I1216 13:14:25.371060 17145 net.cpp:338] inception_5a/output_inception_5a/output_0_split -> inception_5a/output_inception_5a/output_0_split_3
I1216 13:14:25.371071 17145 net.cpp:113] Setting up inception_5a/output_inception_5a/output_0_split
I1216 13:14:25.371083 17145 net.cpp:120] Top shape: 32 832 7 7 (1304576)
I1216 13:14:25.371093 17145 net.cpp:120] Top shape: 32 832 7 7 (1304576)
I1216 13:14:25.371100 17145 net.cpp:120] Top shape: 32 832 7 7 (1304576)
I1216 13:14:25.371109 17145 net.cpp:120] Top shape: 32 832 7 7 (1304576)
I1216 13:14:25.371115 17145 layer_factory.hpp:74] Creating layer inception_5b/1x1
I1216 13:14:25.371129 17145 net.cpp:84] Creating Layer inception_5b/1x1
I1216 13:14:25.371137 17145 net.cpp:380] inception_5b/1x1 <- inception_5a/output_inception_5a/output_0_split_0
I1216 13:14:25.371148 17145 net.cpp:338] inception_5b/1x1 -> inception_5b/1x1
I1216 13:14:25.371160 17145 net.cpp:113] Setting up inception_5b/1x1
I1216 13:14:25.375380 17145 net.cpp:120] Top shape: 32 384 7 7 (602112)
I1216 13:14:25.375411 17145 layer_factory.hpp:74] Creating layer inception_5b/relu_1x1
I1216 13:14:25.375427 17145 net.cpp:84] Creating Layer inception_5b/relu_1x1
I1216 13:14:25.375437 17145 net.cpp:380] inception_5b/relu_1x1 <- inception_5b/1x1
I1216 13:14:25.375448 17145 net.cpp:327] inception_5b/relu_1x1 -> inception_5b/1x1 (in-place)
I1216 13:14:25.375458 17145 net.cpp:113] Setting up inception_5b/relu_1x1
I1216 13:14:25.375748 17145 net.cpp:120] Top shape: 32 384 7 7 (602112)
I1216 13:14:25.375763 17145 layer_factory.hpp:74] Creating layer inception_5b/3x3_reduce
I1216 13:14:25.375780 17145 net.cpp:84] Creating Layer inception_5b/3x3_reduce
I1216 13:14:25.375789 17145 net.cpp:380] inception_5b/3x3_reduce <- inception_5a/output_inception_5a/output_0_split_1
I1216 13:14:25.375803 17145 net.cpp:338] inception_5b/3x3_reduce -> inception_5b/3x3_reduce
I1216 13:14:25.375818 17145 net.cpp:113] Setting up inception_5b/3x3_reduce
I1216 13:14:25.378202 17145 net.cpp:120] Top shape: 32 192 7 7 (301056)
I1216 13:14:25.378223 17145 layer_factory.hpp:74] Creating layer inception_5b/relu_3x3_reduce
I1216 13:14:25.378234 17145 net.cpp:84] Creating Layer inception_5b/relu_3x3_reduce
I1216 13:14:25.378243 17145 net.cpp:380] inception_5b/relu_3x3_reduce <- inception_5b/3x3_reduce
I1216 13:14:25.378257 17145 net.cpp:327] inception_5b/relu_3x3_reduce -> inception_5b/3x3_reduce (in-place)
I1216 13:14:25.378270 17145 net.cpp:113] Setting up inception_5b/relu_3x3_reduce
I1216 13:14:25.378373 17145 net.cpp:120] Top shape: 32 192 7 7 (301056)
I1216 13:14:25.378386 17145 layer_factory.hpp:74] Creating layer inception_5b/3x3
I1216 13:14:25.378404 17145 net.cpp:84] Creating Layer inception_5b/3x3
I1216 13:14:25.378415 17145 net.cpp:380] inception_5b/3x3 <- inception_5b/3x3_reduce
I1216 13:14:25.378428 17145 net.cpp:338] inception_5b/3x3 -> inception_5b/3x3
I1216 13:14:25.378465 17145 net.cpp:113] Setting up inception_5b/3x3
I1216 13:14:25.386171 17145 net.cpp:120] Top shape: 32 384 7 7 (602112)
I1216 13:14:25.386193 17145 layer_factory.hpp:74] Creating layer inception_5b/relu_3x3
I1216 13:14:25.386204 17145 net.cpp:84] Creating Layer inception_5b/relu_3x3
I1216 13:14:25.386214 17145 net.cpp:380] inception_5b/relu_3x3 <- inception_5b/3x3
I1216 13:14:25.386222 17145 net.cpp:327] inception_5b/relu_3x3 -> inception_5b/3x3 (in-place)
I1216 13:14:25.386234 17145 net.cpp:113] Setting up inception_5b/relu_3x3
I1216 13:14:25.386329 17145 net.cpp:120] Top shape: 32 384 7 7 (602112)
I1216 13:14:25.386346 17145 layer_factory.hpp:74] Creating layer inception_5b/5x5_reduce
I1216 13:14:25.386368 17145 net.cpp:84] Creating Layer inception_5b/5x5_reduce
I1216 13:14:25.386376 17145 net.cpp:380] inception_5b/5x5_reduce <- inception_5a/output_inception_5a/output_0_split_2
I1216 13:14:25.386389 17145 net.cpp:338] inception_5b/5x5_reduce -> inception_5b/5x5_reduce
I1216 13:14:25.386402 17145 net.cpp:113] Setting up inception_5b/5x5_reduce
I1216 13:14:25.387342 17145 net.cpp:120] Top shape: 32 48 7 7 (75264)
I1216 13:14:25.387362 17145 layer_factory.hpp:74] Creating layer inception_5b/relu_5x5_reduce
I1216 13:14:25.387384 17145 net.cpp:84] Creating Layer inception_5b/relu_5x5_reduce
I1216 13:14:25.387394 17145 net.cpp:380] inception_5b/relu_5x5_reduce <- inception_5b/5x5_reduce
I1216 13:14:25.387404 17145 net.cpp:327] inception_5b/relu_5x5_reduce -> inception_5b/5x5_reduce (in-place)
I1216 13:14:25.387416 17145 net.cpp:113] Setting up inception_5b/relu_5x5_reduce
I1216 13:14:25.387507 17145 net.cpp:120] Top shape: 32 48 7 7 (75264)
I1216 13:14:25.387524 17145 layer_factory.hpp:74] Creating layer inception_5b/5x5
I1216 13:14:25.387537 17145 net.cpp:84] Creating Layer inception_5b/5x5
I1216 13:14:25.387547 17145 net.cpp:380] inception_5b/5x5 <- inception_5b/5x5_reduce
I1216 13:14:25.387558 17145 net.cpp:338] inception_5b/5x5 -> inception_5b/5x5
I1216 13:14:25.387570 17145 net.cpp:113] Setting up inception_5b/5x5
I1216 13:14:25.389821 17145 net.cpp:120] Top shape: 32 128 7 7 (200704)
I1216 13:14:25.389842 17145 layer_factory.hpp:74] Creating layer inception_5b/relu_5x5
I1216 13:14:25.389852 17145 net.cpp:84] Creating Layer inception_5b/relu_5x5
I1216 13:14:25.389863 17145 net.cpp:380] inception_5b/relu_5x5 <- inception_5b/5x5
I1216 13:14:25.389873 17145 net.cpp:327] inception_5b/relu_5x5 -> inception_5b/5x5 (in-place)
I1216 13:14:25.389884 17145 net.cpp:113] Setting up inception_5b/relu_5x5
I1216 13:14:25.390172 17145 net.cpp:120] Top shape: 32 128 7 7 (200704)
I1216 13:14:25.390187 17145 layer_factory.hpp:74] Creating layer inception_5b/pool
I1216 13:14:25.390194 17145 layer_factory.cpp:56] CUDNN does not support padding or multiple tops. Using Caffe's own pooling layer.
I1216 13:14:25.390205 17145 net.cpp:84] Creating Layer inception_5b/pool
I1216 13:14:25.390213 17145 net.cpp:380] inception_5b/pool <- inception_5a/output_inception_5a/output_0_split_3
I1216 13:14:25.390225 17145 net.cpp:338] inception_5b/pool -> inception_5b/pool
I1216 13:14:25.390238 17145 net.cpp:113] Setting up inception_5b/pool
I1216 13:14:25.390251 17145 net.cpp:120] Top shape: 32 832 7 7 (1304576)
I1216 13:14:25.390259 17145 layer_factory.hpp:74] Creating layer inception_5b/pool_proj
I1216 13:14:25.390280 17145 net.cpp:84] Creating Layer inception_5b/pool_proj
I1216 13:14:25.390288 17145 net.cpp:380] inception_5b/pool_proj <- inception_5b/pool
I1216 13:14:25.390300 17145 net.cpp:338] inception_5b/pool_proj -> inception_5b/pool_proj
I1216 13:14:25.390311 17145 net.cpp:113] Setting up inception_5b/pool_proj
I1216 13:14:25.392001 17145 net.cpp:120] Top shape: 32 128 7 7 (200704)
I1216 13:14:25.392021 17145 layer_factory.hpp:74] Creating layer inception_5b/relu_pool_proj
I1216 13:14:25.392033 17145 net.cpp:84] Creating Layer inception_5b/relu_pool_proj
I1216 13:14:25.392041 17145 net.cpp:380] inception_5b/relu_pool_proj <- inception_5b/pool_proj
I1216 13:14:25.392051 17145 net.cpp:327] inception_5b/relu_pool_proj -> inception_5b/pool_proj (in-place)
I1216 13:14:25.392063 17145 net.cpp:113] Setting up inception_5b/relu_pool_proj
I1216 13:14:25.392155 17145 net.cpp:120] Top shape: 32 128 7 7 (200704)
I1216 13:14:25.392166 17145 layer_factory.hpp:74] Creating layer inception_5b/output
I1216 13:14:25.392176 17145 net.cpp:84] Creating Layer inception_5b/output
I1216 13:14:25.392184 17145 net.cpp:380] inception_5b/output <- inception_5b/1x1
I1216 13:14:25.392194 17145 net.cpp:380] inception_5b/output <- inception_5b/3x3
I1216 13:14:25.392201 17145 net.cpp:380] inception_5b/output <- inception_5b/5x5
I1216 13:14:25.392209 17145 net.cpp:380] inception_5b/output <- inception_5b/pool_proj
I1216 13:14:25.392223 17145 net.cpp:338] inception_5b/output -> inception_5b/output
I1216 13:14:25.392243 17145 net.cpp:113] Setting up inception_5b/output
I1216 13:14:25.392256 17145 net.cpp:120] Top shape: 32 1024 7 7 (1605632)
I1216 13:14:25.392263 17145 layer_factory.hpp:74] Creating layer pool5/7x7_s1
I1216 13:14:25.392276 17145 net.cpp:84] Creating Layer pool5/7x7_s1
I1216 13:14:25.392283 17145 net.cpp:380] pool5/7x7_s1 <- inception_5b/output
I1216 13:14:25.392293 17145 net.cpp:338] pool5/7x7_s1 -> pool5/7x7_s1
I1216 13:14:25.392303 17145 net.cpp:113] Setting up pool5/7x7_s1
I1216 13:14:25.392388 17145 net.cpp:120] Top shape: 32 1024 1 1 (32768)
I1216 13:14:25.392400 17145 layer_factory.hpp:74] Creating layer pool5/drop_7x7_s1
I1216 13:14:25.392417 17145 net.cpp:84] Creating Layer pool5/drop_7x7_s1
I1216 13:14:25.392426 17145 net.cpp:380] pool5/drop_7x7_s1 <- pool5/7x7_s1
I1216 13:14:25.392436 17145 net.cpp:327] pool5/drop_7x7_s1 -> pool5/7x7_s1 (in-place)
I1216 13:14:25.392446 17145 net.cpp:113] Setting up pool5/drop_7x7_s1
I1216 13:14:25.392457 17145 net.cpp:120] Top shape: 32 1024 1 1 (32768)
I1216 13:14:25.392464 17145 layer_factory.hpp:74] Creating layer loss3/classifier_kaggle
I1216 13:14:25.392478 17145 net.cpp:84] Creating Layer loss3/classifier_kaggle
I1216 13:14:25.392485 17145 net.cpp:380] loss3/classifier_kaggle <- pool5/7x7_s1
I1216 13:14:25.392496 17145 net.cpp:338] loss3/classifier_kaggle -> loss3/classifier_kaggle
I1216 13:14:25.392508 17145 net.cpp:113] Setting up loss3/classifier_kaggle
I1216 13:14:25.397696 17145 net.cpp:120] Top shape: 32 447 (14304)
I1216 13:14:25.397716 17145 layer_factory.hpp:74] Creating layer loss3/loss3
I1216 13:14:25.397727 17145 net.cpp:84] Creating Layer loss3/loss3
I1216 13:14:25.397735 17145 net.cpp:380] loss3/loss3 <- loss3/classifier_kaggle
I1216 13:14:25.397745 17145 net.cpp:380] loss3/loss3 <- label_data_1_split_2
I1216 13:14:25.397755 17145 net.cpp:338] loss3/loss3 -> loss3/loss3
I1216 13:14:25.397768 17145 net.cpp:113] Setting up loss3/loss3
…
I1216 13:14:25.405470 17145 net.cpp:257] The NetState phase (1) differed from the phase (0) specified by a rule in layer data
I1216 13:14:25.407812 17145 net.cpp:42] Initializing net from parameters: 
name: "GoogleNet"
state {
  phase: TEST
}
layer {
  name: "data"
  type: "Data"
  top: "data"
  top: "label"
  include {
    phase: TEST
  }
  transform_param {
    mirror: false
    crop_size: 224
    mean_value: 104
    mean_value: 117
    mean_value: 123
  }
  data_param {
    source: "/home/coldmanck/kaggle/kaggle2_val_lmdb"
    batch_size: 50
    backend: LMDB
  }
}
layer {
  name: "conv1/7x7_s2"
  type: "Convolution"
  bottom: "data"
  top: "conv1/7x7_s2"
  param {
    lr_mult: 1
    decay_mult: 1
  }
  param {
    lr_mult: 2
    decay_mult: 0
  }
  convolution_param {
    num_output: 64
    pad: 3
    kernel_size: 7
    stride: 2
    weight_filler {
      type: "xavier"
      std: 0.1
    }
    bias_filler {
      type: "constant"
      value: 0.2
    }
  }
}
layer {
  name: "conv1/relu_7x7"
  type: "ReLU"
  bottom: "conv1/7x7_s2"
  top: "conv1/7x7_s2"
}
layer {
  name: "pool1/3x3_s2"
  type: "Pooling"
  bottom: "conv1/7x7_s2"
  top: "pool1/3x3_s2"
  pooling_param {
    pool: MAX
    kernel_size: 3
    stride: 2
  }
}
layer {
  name: "pool1/norm1"
  type: "LRN"
  bottom: "pool1/3x3_s2"
  top: "pool1/norm1"
  lrn_param {
    local_size: 5
    alpha: 0.0001
    beta: 0.75
  }
}
layer {
  name: "conv2/3x3_reduce"
  type: "Convolution"
  bottom: "pool1/norm1"
  top: "conv2/3x3_reduce"
  param {
    lr_mult: 1
    decay_mult: 1
  }
  param {
    lr_mult: 2
    decay_mult: 0
  }
  convolution_param {
    num_output: 64
    kernel_size: 1
    weight_filler {
      type: "xavier"
      std: 0.1
    }
    bias_filler {
      type: "constant"
      value: 0.2
    }
  }
}
layer {
  name: "conv2/relu_3x3_reduce"
  type: "ReLU"
  bottom: "conv2/3x3_reduce"
  top: "conv2/3x3_reduce"
}
layer {
  name: "conv2/3x3"
  type: "Convolution"
  bottom: "conv2/3x3_reduce"
  top: "conv2/3x3"
  param {
    lr_mult: 1
    decay_mult: 1
  }
  param {
    lr_mult: 2
    decay_mult: 0
  }
  convolution_param {
    num_output: 192
    pad: 1
    kernel_size: 3
    weight_filler {
      type: "xavier"
      std: 0.03
    }
    bias_filler {
      type: "constant"
      value: 0.2
    }
  }
}
layer {
  name: "conv2/relu_3x3"
  type: "ReLU"
  bottom: "conv2/3x3"
  top: "conv2/3x3"
}
layer {
  name: "conv2/norm2"
  type: "LRN"
  bottom: "conv2/3x3"
  top: "conv2/norm2"
  lrn_param {
    local_size: 5
    alpha: 0.0001
    beta: 0.75
  }
}
layer {
  name: "pool2/3x3_s2"
  type: "Pooling"
  bottom: "conv2/norm2"
  top: "pool2/3x3_s2"
  pooling_param {
    pool: MAX
    kernel_size: 3
    stride: 2
  }
}
layer {
  name: "inception_3a/1x1"
  type: "Convolution"
  bottom: "pool2/3x3_s2"
  top: "inception_3a/1x1"
  param {
    lr_mult: 1
    decay_mult: 1
  }
  param {
    lr_mult: 2
    decay_mult: 0
  }
  convolution_param {
    num_output: 64
    kernel_size: 1
    weight_filler {
      type: "xavier"
      std: 0.03
    }
    bias_filler {
      type: "constant"
      value: 0.2
    }
  }
}
layer {
  name: "inception_3a/relu_1x1"
  type: "ReLU"
  bottom: "inception_3a/1x1"
  top: "inception_3a/1x1"
}
layer {
  name: "inception_3a/3x3_reduce"
  type: "Convolution"
  bottom: "pool2/3x3_s2"
  top: "inception_3a/3x3_reduce"
  param {
    lr_mult: 1
    decay_mult: 1
  }
  param {
    lr_mult: 2
    decay_mult: 0
  }
  convolution_param {
    num_output: 96
    kernel_size: 1
    weight_filler {
      type: "xavier"
      std: 0.09
    }
    bias_filler {
      type: "constant"
      value: 0.2
    }
  }
}
layer {
  name: "inception_3a/relu_3x3_reduce"
  type: "ReLU"
  bottom: "inception_3a/3x3_reduce"
  top: "inception_3a/3x3_reduce"
}
layer {
  name: "inception_3a/3x3"
  type: "Convolution"
  bottom: "inception_3a/3x3_reduce"
  top: "inception_3a/3x3"
  param {
    lr_mult: 1
    decay_mult: 1
  }
  param {
    lr_mult: 2
    decay_mult: 0
  }
  convolution_param {
    num_output: 128
    pad: 1
    kernel_size: 3
    weight_filler {
      type: "xavier"
      std: 0.03
    }
    bias_filler {
      type: "constant"
      value: 0.2
    }
  }
}
layer {
  name: "inception_3a/relu_3x3"
  type: "ReLU"
  bottom: "inception_3a/3x3"
  top: "inception_3a/3x3"
}
layer {
  name: "inception_3a/5x5_reduce"
  type: "Convolution"
  bottom: "pool2/3x3_s2"
  top: "inception_3a/5x5_reduce"
  param {
    lr_mult: 1
    decay_mult: 1
  }
  param {
    lr_mult: 2
    decay_mult: 0
  }
  convolution_param {
    num_output: 16
    kernel_size: 1
    weight_filler {
      type: "xavier"
      std: 0.2
    }
    bias_filler {
      type: "constant"
      value: 0.2
    }
  }
}
layer {
  name: "inception_3a/relu_5x5_reduce"
  type: "ReLU"
  bottom: "inception_3a/5x5_reduce"
  top: "inception_3a/5x5_reduce"
}
layer {
  name: "inception_3a/5x5"
  type: "Convolution"
  bottom: "inception_3a/5x5_reduce"
  top: "inception_3a/5x5"
  param {
    lr_mult: 1
    decay_mult: 1
  }
  param {
    lr_mult: 2
    decay_mult: 0
  }
  convolution_param {
    num_output: 32
    pad: 2
    kernel_size: 5
    weight_filler {
      type: "xavier"
      std: 0.03
    }
    bias_filler {
      type: "constant"
      value: 0.2
    }
  }
}
layer {
  name: "inception_3a/relu_5x5"
  type: "ReLU"
  bottom: "inception_3a/5x5"
  top: "inception_3a/5x5"
}
layer {
  name: "inception_3a/pool"
  type: "Pooling"
  bottom: "pool2/3x3_s2"
  top: "inception_3a/pool"
  pooling_param {
    pool: MAX
    kernel_size: 3
    stride: 1
    pad: 1
  }
}
layer {
  name: "inception_3a/pool_proj"
  type: "Convolution"
  bottom: "inception_3a/pool"
  top: "inception_3a/pool_proj"
  param {
    lr_mult: 1
    decay_mult: 1
  }
  param {
    lr_mult: 2
    decay_mult: 0
  }
  convolution_param {
    num_output: 32
    kernel_size: 1
    weight_filler {
      type: "xavier"
      std: 0.1
    }
    bias_filler {
      type: "constant"
      value: 0.2
    }
  }
}
layer {
  name: "inception_3a/relu_pool_proj"
  type: "ReLU"
  bottom: "inception_3a/pool_proj"
  top: "inception_3a/pool_proj"
}
layer {
  name: "inception_3a/output"
  type: "Concat"
  bottom: "inception_3a/1x1"
  bottom: "inception_3a/3x3"
  bottom: "inception_3a/5x5"
  bottom: "inception_3a/pool_proj"
  top: "inception_3a/output"
}
layer {
  name: "inception_3b/1x1"
  type: "Convolution"
  bottom: "inception_3a/output"
  top: "inception_3b/1x1"
  param {
    lr_mult: 1
    decay_mult: 1
  }
  param {
    lr_mult: 2
    decay_mult: 0
  }
  convolution_param {
    num_output: 128
    kernel_size: 1
    weight_filler {
      type: "xavier"
      std: 0.03
    }
    bias_filler {
      type: "constant"
      value: 0.2
    }
  }
}
layer {
  name: "inception_3b/relu_1x1"
  type: "ReLU"
  bottom: "inception_3b/1x1"
  top: "inception_3b/1x1"
}
layer {
  name: "inception_3b/3x3_reduce"
  type: "Convolution"
  bottom: "inception_3a/output"
  top: "inception_3b/3x3_reduce"
  param {
    lr_mult: 1
    decay_mult: 1
  }
  param {
    lr_mult: 2
    decay_mult: 0
  }
  convolution_param {
    num_output: 128
    kernel_size: 1
    weight_filler {
      type: "xavier"
      std: 0.09
    }
    bias_filler {
      type: "constant"
      value: 0.2
    }
  }
}
layer {
  name: "inception_3b/relu_3x3_reduce"
  type: "ReLU"
  bottom: "inception_3b/3x3_reduce"
  top: "inception_3b/3x3_reduce"
}
layer {
  name: "inception_3b/3x3"
  type: "Convolution"
  bottom: "inception_3b/3x3_reduce"
  top: "inception_3b/3x3"
  param {
    lr_mult: 1
    decay_mult: 1
  }
  param {
    lr_mult: 2
    decay_mult: 0
  }
  convolution_param {
    num_output: 192
    pad: 1
    kernel_size: 3
    weight_filler {
      type: "xavier"
      std: 0.03
    }
    bias_filler {
      type: "constant"
      value: 0.2
    }
  }
}
layer {
  name: "inception_3b/relu_3x3"
  type: "ReLU"
  bottom: "inception_3b/3x3"
  top: "inception_3b/3x3"
}
layer {
  name: "inception_3b/5x5_reduce"
  type: "Convolution"
  bottom: "inception_3a/output"
  top: "inception_3b/5x5_reduce"
  param {
    lr_mult: 1
    decay_mult: 1
  }
  param {
    lr_mult: 2
    decay_mult: 0
  }
  convolution_param {
    num_output: 32
    kernel_size: 1
    weight_filler {
      type: "xavier"
      std: 0.2
    }
    bias_filler {
      type: "constant"
      value: 0.2
    }
  }
}
layer {
  name: "inception_3b/relu_5x5_reduce"
  type: "ReLU"
  bottom: "inception_3b/5x5_reduce"
  top: "inception_3b/5x5_reduce"
}
layer {
  name: "inception_3b/5x5"
  type: "Convolution"
  bottom: "inception_3b/5x5_reduce"
  top: "inception_3b/5x5"
  param {
    lr_mult: 1
    decay_mult: 1
  }
  param {
    lr_mult: 2
    decay_mult: 0
  }
  convolution_param {
    num_output: 96
    pad: 2
    kernel_size: 5
    weight_filler {
      type: "xavier"
      std: 0.03
    }
    bias_filler {
      type: "constant"
      value: 0.2
    }
  }
}
layer {
  name: "inception_3b/relu_5x5"
  type: "ReLU"
  bottom: "inception_3b/5x5"
  top: "inception_3b/5x5"
}
layer {
  name: "inception_3b/pool"
  type: "Pooling"
  bottom: "inception_3a/output"
  top: "inception_3b/pool"
  pooling_param {
    pool: MAX
    kernel_size: 3
    stride: 1
    pad: 1
  }
}
layer {
  name: "inception_3b/pool_proj"
  type: "Convolution"
  bottom: "inception_3b/pool"
  top: "inception_3b/pool_proj"
  param {
    lr_mult: 1
    decay_mult: 1
  }
  param {
    lr_mult: 2
    decay_mult: 0
  }
  convolution_param {
    num_output: 64
    kernel_size: 1
    weight_filler {
      type: "xavier"
      std: 0.1
    }
    bias_filler {
      type: "constant"
      value: 0.2
    }
  }
}
layer {
  name: "inception_3b/relu_pool_proj"
  type: "ReLU"
  bottom: "inception_3b/pool_proj"
  top: "inception_3b/pool_proj"
}
layer {
  name: "inception_3b/output"
  type: "Concat"
  bottom: "inception_3b/1x1"
  bottom: "inception_3b/3x3"
  bottom: "inception_3b/5x5"
  bottom: "inception_3b/pool_proj"
  top: "inception_3b/output"
}
layer {
  name: "pool3/3x3_s2"
  type: "Pooling"
  bottom: "inception_3b/output"
  top: "pool3/3x3_s2"
  pooling_param {
    pool: MAX
    kernel_size: 3
    stride: 2
  }
}
layer {
  name: "inception_4a/1x1"
  type: "Convolution"
  bottom: "pool3/3x3_s2"
  top: "inception_4a/1x1"
  param {
    lr_mult: 1
    decay_mult: 1
  }
  param {
    lr_mult: 2
    decay_mult: 0
  }
  convolution_param {
    num_output: 192
    kernel_size: 1
    weight_filler {
      type: "xavier"
      std: 0.03
    }
    bias_filler {
      type: "constant"
      value: 0.2
    }
  }
}
layer {
  name: "inception_4a/relu_1x1"
  type: "ReLU"
  bottom: "inception_4a/1x1"
  top: "inception_4a/1x1"
}
layer {
  name: "inception_4a/3x3_reduce"
  type: "Convolution"
  bottom: "pool3/3x3_s2"
  top: "inception_4a/3x3_reduce"
  param {
    lr_mult: 1
    decay_mult: 1
  }
  param {
    lr_mult: 2
    decay_mult: 0
  }
  convolution_param {
    num_output: 96
    kernel_size: 1
    weight_filler {
      type: "xavier"
      std: 0.09
    }
    bias_filler {
      type: "constant"
      value: 0.2
    }
  }
}
layer {
  name: "inception_4a/relu_3x3_reduce"
  type: "ReLU"
  bottom: "inception_4a/3x3_reduce"
  top: "inception_4a/3x3_reduce"
}
layer {
  name: "inception_4a/3x3"
  type: "Convolution"
  bottom: "inception_4a/3x3_reduce"
  top: "inception_4a/3x3"
  param {
    lr_mult: 1
    decay_mult: 1
  }
  param {
    lr_mult: 2
    decay_mult: 0
  }
  convolution_param {
    num_output: 208
    pad: 1
    kernel_size: 3
    weight_filler {
      type: "xavier"
      std: 0.03
    }
    bias_filler {
      type: "constant"
      value: 0.2
    }
  }
}
layer {
  name: "inception_4a/relu_3x3"
  type: "ReLU"
  bottom: "inception_4a/3x3"
  top: "inception_4a/3x3"
}
layer {
  name: "inception_4a/5x5_reduce"
  type: "Convolution"
  bottom: "pool3/3x3_s2"
  top: "inception_4a/5x5_reduce"
  param {
    lr_mult: 1
    decay_mult: 1
  }
  param {
    lr_mult: 2
    decay_mult: 0
  }
  convolution_param {
    num_output: 16
    kernel_size: 1
    weight_filler {
      type: "xavier"
      std: 0.2
    }
    bias_filler {
      type: "constant"
      value: 0.2
    }
  }
}
layer {
  name: "inception_4a/relu_5x5_reduce"
  type: "ReLU"
  bottom: "inception_4a/5x5_reduce"
  top: "inception_4a/5x5_reduce"
}
layer {
  name: "inception_4a/5x5"
  type: "Convolution"
  bottom: "inception_4a/5x5_reduce"
  top: "inception_4a/5x5"
  param {
    lr_mult: 1
    decay_mult: 1
  }
  param {
    lr_mult: 2
    decay_mult: 0
  }
  convolution_param {
    num_output: 48
    pad: 2
    kernel_size: 5
    weight_filler {
      type: "xavier"
      std: 0.03
    }
    bias_filler {
      type: "constant"
      value: 0.2
    }
  }
}
layer {
  name: "inception_4a/relu_5x5"
  type: "ReLU"
  bottom: "inception_4a/5x5"
  top: "inception_4a/5x5"
}
layer {
  name: "inception_4a/pool"
  type: "Pooling"
  bottom: "pool3/3x3_s2"
  top: "inception_4a/pool"
  pooling_param {
    pool: MAX
    kernel_size: 3
    stride: 1
    pad: 1
  }
}
layer {
  name: "inception_4a/pool_proj"
  type: "Convolution"
  bottom: "inception_4a/pool"
  top: "inception_4a/pool_proj"
  param {
    lr_mult: 1
    decay_mult: 1
  }
  param {
    lr_mult: 2
    decay_mult: 0
  }
  convolution_param {
    num_output: 64
    kernel_size: 1
    weight_filler {
      type: "xavier"
      std: 0.1
    }
    bias_filler {
      type: "constant"
      value: 0.2
    }
  }
}
layer {
  name: "inception_4a/relu_pool_proj"
  type: "ReLU"
  bottom: "inception_4a/pool_proj"
  top: "inception_4a/pool_proj"
}
layer {
  name: "inception_4a/output"
  type: "Concat"
  bottom: "inception_4a/1x1"
  bottom: "inception_4a/3x3"
  bottom: "inception_4a/5x5"
  bottom: "inception_4a/pool_proj"
  top: "inception_4a/output"
}
layer {
  name: "loss1/ave_pool"
  type: "Pooling"
  bottom: "inception_4a/output"
  top: "loss1/ave_pool"
  pooling_param {
    pool: AVE
    kernel_size: 5
    stride: 3
  }
}
layer {
  name: "loss1/conv"
  type: "Convolution"
  bottom: "loss1/ave_pool"
  top: "loss1/conv"
  param {
    lr_mult: 1
    decay_mult: 1
  }
  param {
    lr_mult: 2
    decay_mult: 0
  }
  convolution_param {
    num_output: 128
    kernel_size: 1
    weight_filler {
      type: "xavier"
      std: 0.08
    }
    bias_filler {
      type: "constant"
      value: 0.2
    }
  }
}
layer {
  name: "loss1/relu_conv"
  type: "ReLU"
  bottom: "loss1/conv"
  top: "loss1/conv"
}
layer {
  name: "loss1/fc"
  type: "InnerProduct"
  bottom: "loss1/conv"
  top: "loss1/fc"
  param {
    lr_mult: 1
    decay_mult: 1
  }
  param {
    lr_mult: 2
    decay_mult: 0
  }
  inner_product_param {
    num_output: 1024
    weight_filler {
      type: "xavier"
      std: 0.02
    }
    bias_filler {
      type: "constant"
      value: 0.2
    }
  }
}
layer {
  name: "loss1/relu_fc"
  type: "ReLU"
  bottom: "loss1/fc"
  top: "loss1/fc"
}
layer {
  name: "loss1/drop_fc"
  type: "Dropout"
  bottom: "loss1/fc"
  top: "loss1/fc"
  dropout_param {
    dropout_ratio: 0.7
  }
}
layer {
  name: "loss1/classifier_kaggle"
  type: "InnerProduct"
  bottom: "loss1/fc"
  top: "loss1/classifier_kaggle"
  param {
    lr_mult: 1
    decay_mult: 1
  }
  param {
    lr_mult: 2
    decay_mult: 0
  }
  inner_product_param {
    num_output: 447
    weight_filler {
      type: "xavier"
      std: 0.0009765625
    }
    bias_filler {
      type: "constant"
      value: 0
    }
  }
}
layer {
  name: "loss1/loss"
  type: "SoftmaxWithLoss"
  bottom: "loss1/classifier_kaggle"
  bottom: "label"
  top: "loss1/loss1"
  loss_weight: 0.3
}
layer {
  name: "loss1/top-1"
  type: "Accuracy"
  bottom: "loss1/classifier_kaggle"
  bottom: "label"
  top: "loss1/top-1"
  include {
    phase: TEST
  }
}
layer {
  name: "loss1/top-5"
  type: "Accuracy"
  bottom: "loss1/classifier_kaggle"
  bottom: "label"
  top: "loss1/top-5"
  include {
    phase: TEST
  }
  accuracy_param {
    top_k: 5
  }
}
layer {
  name: "inception_4b/1x1"
  type: "Convolution"
  bottom: "inception_4a/output"
  top: "inception_4b/1x1"
  param {
    lr_mult: 1
    decay_mult: 1
  }
  param {
    lr_mult: 2
    decay_mult: 0
  }
  convolution_param {
    num_output: 160
    kernel_size: 1
    weight_filler {
      type: "xavier"
      std: 0.03
    }
    bias_filler {
      type: "constant"
      value: 0.2
    }
  }
}
layer {
  name: "inception_4b/relu_1x1"
  type: "ReLU"
  bottom: "inception_4b/1x1"
  top: "inception_4b/1x1"
}
layer {
  name: "inception_4b/3x3_reduce"
  type: "Convolution"
  bottom: "inception_4a/output"
  top: "inception_4b/3x3_reduce"
  param {
    lr_mult: 1
    decay_mult: 1
  }
  param {
    lr_mult: 2
    decay_mult: 0
  }
  convolution_param {
    num_output: 112
    kernel_size: 1
    weight_filler {
      type: "xavier"
      std: 0.09
    }
    bias_filler {
      type: "constant"
      value: 0.2
    }
  }
}
layer {
  name: "inception_4b/relu_3x3_reduce"
  type: "ReLU"
  bottom: "inception_4b/3x3_reduce"
  top: "inception_4b/3x3_reduce"
}
layer {
  name: "inception_4b/3x3"
  type: "Convolution"
  bottom: "inception_4b/3x3_reduce"
  top: "inception_4b/3x3"
  param {
    lr_mult: 1
    decay_mult: 1
  }
  param {
    lr_mult: 2
    decay_mult: 0
  }
  convolution_param {
    num_output: 224
    pad: 1
    kernel_size: 3
    weight_filler {
      type: "xavier"
      std: 0.03
    }
    bias_filler {
      type: "constant"
      value: 0.2
    }
  }
}
layer {
  name: "inception_4b/relu_3x3"
  type: "ReLU"
  bottom: "inception_4b/3x3"
  top: "inception_4b/3x3"
}
layer {
  name: "inception_4b/5x5_reduce"
  type: "Convolution"
  bottom: "inception_4a/output"
  top: "inception_4b/5x5_reduce"
  param {
    lr_mult: 1
    decay_mult: 1
  }
  param {
    lr_mult: 2
    decay_mult: 0
  }
  convolution_param {
    num_output: 24
    kernel_size: 1
    weight_filler {
      type: "xavier"
      std: 0.2
    }
    bias_filler {
      type: "constant"
      value: 0.2
    }
  }
}
layer {
  name: "inception_4b/relu_5x5_reduce"
  type: "ReLU"
  bottom: "inception_4b/5x5_reduce"
  top: "inception_4b/5x5_reduce"
}
layer {
  name: "inception_4b/5x5"
  type: "Convolution"
  bottom: "inception_4b/5x5_reduce"
  top: "inception_4b/5x5"
  param {
    lr_mult: 1
    decay_mult: 1
  }
  param {
    lr_mult: 2
    decay_mult: 0
  }
  convolution_param {
    num_output: 64
    pad: 2
    kernel_size: 5
    weight_filler {
      type: "xavier"
      std: 0.03
    }
    bias_filler {
      type: "constant"
      value: 0.2
    }
  }
}
layer {
  name: "inception_4b/relu_5x5"
  type: "ReLU"
  bottom: "inception_4b/5x5"
  top: "inception_4b/5x5"
}
layer {
  name: "inception_4b/pool"
  type: "Pooling"
  bottom: "inception_4a/output"
  top: "inception_4b/pool"
  pooling_param {
    pool: MAX
    kernel_size: 3
    stride: 1
    pad: 1
  }
}
layer {
  name: "inception_4b/pool_proj"
  type: "Convolution"
  bottom: "inception_4b/pool"
  top: "inception_4b/pool_proj"
  param {
    lr_mult: 1
    decay_mult: 1
  }
  param {
    lr_mult: 2
    decay_mult: 0
  }
  convolution_param {
    num_output: 64
    kernel_size: 1
    weight_filler {
      type: "xavier"
      std: 0.1
    }
    bias_filler {
      type: "constant"
      value: 0.2
    }
  }
}
layer {
  name: "inception_4b/relu_pool_proj"
  type: "ReLU"
  bottom: "inception_4b/pool_proj"
  top: "inception_4b/pool_proj"
}
layer {
  name: "inception_4b/output"
  type: "Concat"
  bottom: "inception_4b/1x1"
  bottom: "inception_4b/3x3"
  bottom: "inception_4b/5x5"
  bottom: "inception_4b/pool_proj"
  top: "inception_4b/output"
}
layer {
  name: "inception_4c/1x1"
  type: "Convolution"
  bottom: "inception_4b/output"
  top: "inception_4c/1x1"
  param {
    lr_mult: 1
    decay_mult: 1
  }
  param {
    lr_mult: 2
    decay_mult: 0
  }
  convolution_param {
    num_output: 128
    kernel_size: 1
    weight_filler {
      type: "xavier"
      std: 0.03
    }
    bias_filler {
      type: "constant"
      value: 0.2
    }
  }
}
layer {
  name: "inception_4c/relu_1x1"
  type: "ReLU"
  bottom: "inception_4c/1x1"
  top: "inception_4c/1x1"
}
layer {
  name: "inception_4c/3x3_reduce"
  type: "Convolution"
  bottom: "inception_4b/output"
  top: "inception_4c/3x3_reduce"
  param {
    lr_mult: 1
    decay_mult: 1
  }
  param {
    lr_mult: 2
    decay_mult: 0
  }
  convolution_param {
    num_output: 128
    kernel_size: 1
    weight_filler {
      type: "xavier"
      std: 0.09
    }
    bias_filler {
      type: "constant"
      value: 0.2
    }
  }
}
layer {
  name: "inception_4c/relu_3x3_reduce"
  type: "ReLU"
  bottom: "inception_4c/3x3_reduce"
  top: "inception_4c/3x3_reduce"
}
layer {
  name: "inception_4c/3x3"
  type: "Convolution"
  bottom: "inception_4c/3x3_reduce"
  top: "inception_4c/3x3"
  param {
    lr_mult: 1
    decay_mult: 1
  }
  param {
    lr_mult: 2
    decay_mult: 0
  }
  convolution_param {
    num_output: 256
    pad: 1
    kernel_size: 3
    weight_filler {
      type: "xavier"
      std: 0.03
    }
    bias_filler {
      type: "constant"
      value: 0.2
    }
  }
}
layer {
  name: "inception_4c/relu_3x3"
  type: "ReLU"
  bottom: "inception_4c/3x3"
  top: "inception_4c/3x3"
}
layer {
  name: "inception_4c/5x5_reduce"
  type: "Convolution"
  bottom: "inception_4b/output"
  top: "inception_4c/5x5_reduce"
  param {
    lr_mult: 1
    decay_mult: 1
  }
  param {
    lr_mult: 2
    decay_mult: 0
  }
  convolution_param {
    num_output: 24
    kernel_size: 1
    weight_filler {
      type: "xavier"
      std: 0.2
    }
    bias_filler {
      type: "constant"
      value: 0.2
    }
  }
}
layer {
  name: "inception_4c/relu_5x5_reduce"
  type: "ReLU"
  bottom: "inception_4c/5x5_reduce"
  top: "inception_4c/5x5_reduce"
}
layer {
  name: "inception_4c/5x5"
  type: "Convolution"
  bottom: "inception_4c/5x5_reduce"
  top: "inception_4c/5x5"
  param {
    lr_mult: 1
    decay_mult: 1
  }
  param {
    lr_mult: 2
    decay_mult: 0
  }
  convolution_param {
    num_output: 64
    pad: 2
    kernel_size: 5
    weight_filler {
      type: "xavier"
      std: 0.03
    }
    bias_filler {
      type: "constant"
      value: 0.2
    }
  }
}
layer {
  name: "inception_4c/relu_5x5"
  type: "ReLU"
  bottom: "inception_4c/5x5"
  top: "inception_4c/5x5"
}
layer {
  name: "inception_4c/pool"
  type: "Pooling"
  bottom: "inception_4b/output"
  top: "inception_4c/pool"
  pooling_param {
    pool: MAX
    kernel_size: 3
    stride: 1
    pad: 1
  }
}
layer {
  name: "inception_4c/pool_proj"
  type: "Convolution"
  bottom: "inception_4c/pool"
  top: "inception_4c/pool_proj"
  param {
    lr_mult: 1
    decay_mult: 1
  }
  param {
    lr_mult: 2
    decay_mult: 0
  }
  convolution_param {
    num_output: 64
    kernel_size: 1
    weight_filler {
      type: "xavier"
      std: 0.1
    }
    bias_filler {
      type: "constant"
      value: 0.2
    }
  }
}
layer {
  name: "inception_4c/relu_pool_proj"
  type: "ReLU"
  bottom: "inception_4c/pool_proj"
  top: "inception_4c/pool_proj"
}
layer {
  name: "inception_4c/output"
  type: "Concat"
  bottom: "inception_4c/1x1"
  bottom: "inception_4c/3x3"
  bottom: "inception_4c/5x5"
  bottom: "inception_4c/pool_proj"
  top: "inception_4c/output"
}
layer {
  name: "inception_4d/1x1"
  type: "Convolution"
  bottom: "inception_4c/output"
  top: "inception_4d/1x1"
  param {
    lr_mult: 1
    decay_mult: 1
  }
  param {
    lr_mult: 2
    decay_mult: 0
  }
  convolution_param {
    num_output: 112
    kernel_size: 1
    weight_filler {
      type: "xavier"
      std: 0.03
    }
    bias_filler {
      type: "constant"
      value: 0.2
    }
  }
}
layer {
  name: "inception_4d/relu_1x1"
  type: "ReLU"
  bottom: "inception_4d/1x1"
  top: "inception_4d/1x1"
}
layer {
  name: "inception_4d/3x3_reduce"
  type: "Convolution"
  bottom: "inception_4c/output"
  top: "inception_4d/3x3_reduce"
  param {
    lr_mult: 1
    decay_mult: 1
  }
  param {
    lr_mult: 2
    decay_mult: 0
  }
  convolution_param {
    num_output: 144
    kernel_size: 1
    weight_filler {
      type: "xavier"
      std: 0.09
    }
    bias_filler {
      type: "constant"
      value: 0.2
    }
  }
}
layer {
  name: "inception_4d/relu_3x3_reduce"
  type: "ReLU"
  bottom: "inception_4d/3x3_reduce"
  top: "inception_4d/3x3_reduce"
}
layer {
  name: "inception_4d/3x3"
  type: "Convolution"
  bottom: "inception_4d/3x3_reduce"
  top: "inception_4d/3x3"
  param {
    lr_mult: 1
    decay_mult: 1
  }
  param {
    lr_mult: 2
    decay_mult: 0
  }
  convolution_param {
    num_output: 288
    pad: 1
    kernel_size: 3
    weight_filler {
      type: "xavier"
      std: 0.03
    }
    bias_filler {
      type: "constant"
      value: 0.2
    }
  }
}
layer {
  name: "inception_4d/relu_3x3"
  type: "ReLU"
  bottom: "inception_4d/3x3"
  top: "inception_4d/3x3"
}
layer {
  name: "inception_4d/5x5_reduce"
  type: "Convolution"
  bottom: "inception_4c/output"
  top: "inception_4d/5x5_reduce"
  param {
    lr_mult: 1
    decay_mult: 1
  }
  param {
    lr_mult: 2
    decay_mult: 0
  }
  convolution_param {
    num_output: 32
    kernel_size: 1
    weight_filler {
      type: "xavier"
      std: 0.2
    }
    bias_filler {
      type: "constant"
      value: 0.2
    }
  }
}
layer {
  name: "inception_4d/relu_5x5_reduce"
  type: "ReLU"
  bottom: "inception_4d/5x5_reduce"
  top: "inception_4d/5x5_reduce"
}
layer {
  name: "inception_4d/5x5"
  type: "Convolution"
  bottom: "inception_4d/5x5_reduce"
  top: "inception_4d/5x5"
  param {
    lr_mult: 1
    decay_mult: 1
  }
  param {
    lr_mult: 2
    decay_mult: 0
  }
  convolution_param {
    num_output: 64
    pad: 2
    kernel_size: 5
    weight_filler {
      type: "xavier"
      std: 0.03
    }
    bias_filler {
      type: "constant"
      value: 0.2
    }
  }
}
layer {
  name: "inception_4d/relu_5x5"
  type: "ReLU"
  bottom: "inception_4d/5x5"
  top: "inception_4d/5x5"
}
layer {
  name: "inception_4d/pool"
  type: "Pooling"
  bottom: "inception_4c/output"
  top: "inception_4d/pool"
  pooling_param {
    pool: MAX
    kernel_size: 3
    stride: 1
    pad: 1
  }
}
layer {
  name: "inception_4d/pool_proj"
  type: "Convolution"
  bottom: "inception_4d/pool"
  top: "inception_4d/pool_proj"
  param {
    lr_mult: 1
    decay_mult: 1
  }
  param {
    lr_mult: 2
    decay_mult: 0
  }
  convolution_param {
    num_output: 64
    kernel_size: 1
    weight_filler {
      type: "xavier"
      std: 0.1
    }
    bias_filler {
      type: "constant"
      value: 0.2
    }
  }
}
layer {
  name: "inception_4d/relu_pool_proj"
  type: "ReLU"
  bottom: "inception_4d/pool_proj"
  top: "inception_4d/pool_proj"
}
layer {
…
I1216 13:14:25.489454 17145 net.cpp:84] Creating Layer inception_4c/1x1
I1216 13:14:25.489461 17145 net.cpp:380] inception_4c/1x1 <- inception_4b/output_inception_4b/output_0_split_0
I1216 13:14:25.489475 17145 net.cpp:338] inception_4c/1x1 -> inception_4c/1x1
I1216 13:14:25.489487 17145 net.cpp:113] Setting up inception_4c/1x1
I1216 13:14:25.490723 17145 net.cpp:120] Top shape: 50 128 14 14 (1254400)
I1216 13:14:25.490743 17145 layer_factory.hpp:74] Creating layer inception_4c/relu_1x1
I1216 13:14:25.490754 17145 net.cpp:84] Creating Layer inception_4c/relu_1x1
I1216 13:14:25.490762 17145 net.cpp:380] inception_4c/relu_1x1 <- inception_4c/1x1
I1216 13:14:25.490773 17145 net.cpp:327] inception_4c/relu_1x1 -> inception_4c/1x1 (in-place)
I1216 13:14:25.490782 17145 net.cpp:113] Setting up inception_4c/relu_1x1
I1216 13:14:25.491066 17145 net.cpp:120] Top shape: 50 128 14 14 (1254400)
I1216 13:14:25.491080 17145 layer_factory.hpp:74] Creating layer inception_4c/3x3_reduce
I1216 13:14:25.491091 17145 net.cpp:84] Creating Layer inception_4c/3x3_reduce
I1216 13:14:25.491097 17145 net.cpp:380] inception_4c/3x3_reduce <- inception_4b/output_inception_4b/output_0_split_1
I1216 13:14:25.491111 17145 net.cpp:338] inception_4c/3x3_reduce -> inception_4c/3x3_reduce
I1216 13:14:25.491130 17145 net.cpp:113] Setting up inception_4c/3x3_reduce
I1216 13:14:25.492377 17145 net.cpp:120] Top shape: 50 128 14 14 (1254400)
I1216 13:14:25.492395 17145 layer_factory.hpp:74] Creating layer inception_4c/relu_3x3_reduce
I1216 13:14:25.492409 17145 net.cpp:84] Creating Layer inception_4c/relu_3x3_reduce
I1216 13:14:25.492419 17145 net.cpp:380] inception_4c/relu_3x3_reduce <- inception_4c/3x3_reduce
I1216 13:14:25.492429 17145 net.cpp:327] inception_4c/relu_3x3_reduce -> inception_4c/3x3_reduce (in-place)
I1216 13:14:25.492440 17145 net.cpp:113] Setting up inception_4c/relu_3x3_reduce
I1216 13:14:25.492535 17145 net.cpp:120] Top shape: 50 128 14 14 (1254400)
I1216 13:14:25.492547 17145 layer_factory.hpp:74] Creating layer inception_4c/3x3
I1216 13:14:25.492558 17145 net.cpp:84] Creating Layer inception_4c/3x3
I1216 13:14:25.492566 17145 net.cpp:380] inception_4c/3x3 <- inception_4c/3x3_reduce
I1216 13:14:25.492580 17145 net.cpp:338] inception_4c/3x3 -> inception_4c/3x3
I1216 13:14:25.492594 17145 net.cpp:113] Setting up inception_4c/3x3
I1216 13:14:25.496387 17145 net.cpp:120] Top shape: 50 256 14 14 (2508800)
I1216 13:14:25.496422 17145 layer_factory.hpp:74] Creating layer inception_4c/relu_3x3
I1216 13:14:25.496434 17145 net.cpp:84] Creating Layer inception_4c/relu_3x3
I1216 13:14:25.496443 17145 net.cpp:380] inception_4c/relu_3x3 <- inception_4c/3x3
I1216 13:14:25.496454 17145 net.cpp:327] inception_4c/relu_3x3 -> inception_4c/3x3 (in-place)
I1216 13:14:25.496464 17145 net.cpp:113] Setting up inception_4c/relu_3x3
I1216 13:14:25.496561 17145 net.cpp:120] Top shape: 50 256 14 14 (2508800)
I1216 13:14:25.496572 17145 layer_factory.hpp:74] Creating layer inception_4c/5x5_reduce
I1216 13:14:25.496587 17145 net.cpp:84] Creating Layer inception_4c/5x5_reduce
I1216 13:14:25.496594 17145 net.cpp:380] inception_4c/5x5_reduce <- inception_4b/output_inception_4b/output_0_split_2
I1216 13:14:25.496606 17145 net.cpp:338] inception_4c/5x5_reduce -> inception_4c/5x5_reduce
I1216 13:14:25.496618 17145 net.cpp:113] Setting up inception_4c/5x5_reduce
I1216 13:14:25.497287 17145 net.cpp:120] Top shape: 50 24 14 14 (235200)
I1216 13:14:25.497308 17145 layer_factory.hpp:74] Creating layer inception_4c/relu_5x5_reduce
I1216 13:14:25.497323 17145 net.cpp:84] Creating Layer inception_4c/relu_5x5_reduce
I1216 13:14:25.497331 17145 net.cpp:380] inception_4c/relu_5x5_reduce <- inception_4c/5x5_reduce
I1216 13:14:25.497339 17145 net.cpp:327] inception_4c/relu_5x5_reduce -> inception_4c/5x5_reduce (in-place)
I1216 13:14:25.497350 17145 net.cpp:113] Setting up inception_4c/relu_5x5_reduce
I1216 13:14:25.497651 17145 net.cpp:120] Top shape: 50 24 14 14 (235200)
I1216 13:14:25.497664 17145 layer_factory.hpp:74] Creating layer inception_4c/5x5
I1216 13:14:25.497674 17145 net.cpp:84] Creating Layer inception_4c/5x5
I1216 13:14:25.497684 17145 net.cpp:380] inception_4c/5x5 <- inception_4c/5x5_reduce
I1216 13:14:25.497697 17145 net.cpp:338] inception_4c/5x5 -> inception_4c/5x5
I1216 13:14:25.497710 17145 net.cpp:113] Setting up inception_4c/5x5
I1216 13:14:25.498639 17145 net.cpp:120] Top shape: 50 64 14 14 (627200)
I1216 13:14:25.498657 17145 layer_factory.hpp:74] Creating layer inception_4c/relu_5x5
I1216 13:14:25.498666 17145 net.cpp:84] Creating Layer inception_4c/relu_5x5
I1216 13:14:25.498672 17145 net.cpp:380] inception_4c/relu_5x5 <- inception_4c/5x5
I1216 13:14:25.498685 17145 net.cpp:327] inception_4c/relu_5x5 -> inception_4c/5x5 (in-place)
I1216 13:14:25.498697 17145 net.cpp:113] Setting up inception_4c/relu_5x5
I1216 13:14:25.498790 17145 net.cpp:120] Top shape: 50 64 14 14 (627200)
I1216 13:14:25.498800 17145 layer_factory.hpp:74] Creating layer inception_4c/pool
I1216 13:14:25.498805 17145 layer_factory.cpp:56] CUDNN does not support padding or multiple tops. Using Caffe's own pooling layer.
I1216 13:14:25.498813 17145 net.cpp:84] Creating Layer inception_4c/pool
I1216 13:14:25.498818 17145 net.cpp:380] inception_4c/pool <- inception_4b/output_inception_4b/output_0_split_3
I1216 13:14:25.498828 17145 net.cpp:338] inception_4c/pool -> inception_4c/pool
I1216 13:14:25.498845 17145 net.cpp:113] Setting up inception_4c/pool
I1216 13:14:25.498868 17145 net.cpp:120] Top shape: 50 512 14 14 (5017600)
I1216 13:14:25.498877 17145 layer_factory.hpp:74] Creating layer inception_4c/pool_proj
I1216 13:14:25.498891 17145 net.cpp:84] Creating Layer inception_4c/pool_proj
I1216 13:14:25.498899 17145 net.cpp:380] inception_4c/pool_proj <- inception_4c/pool
I1216 13:14:25.498910 17145 net.cpp:338] inception_4c/pool_proj -> inception_4c/pool_proj
I1216 13:14:25.498921 17145 net.cpp:113] Setting up inception_4c/pool_proj
I1216 13:14:25.507027 17145 net.cpp:120] Top shape: 50 64 14 14 (627200)
I1216 13:14:25.507063 17145 layer_factory.hpp:74] Creating layer inception_4c/relu_pool_proj
I1216 13:14:25.507076 17145 net.cpp:84] Creating Layer inception_4c/relu_pool_proj
I1216 13:14:25.507088 17145 net.cpp:380] inception_4c/relu_pool_proj <- inception_4c/pool_proj
I1216 13:14:25.507100 17145 net.cpp:327] inception_4c/relu_pool_proj -> inception_4c/pool_proj (in-place)
I1216 13:14:25.507112 17145 net.cpp:113] Setting up inception_4c/relu_pool_proj
I1216 13:14:25.507199 17145 net.cpp:120] Top shape: 50 64 14 14 (627200)
I1216 13:14:25.507206 17145 layer_factory.hpp:74] Creating layer inception_4c/output
I1216 13:14:25.507216 17145 net.cpp:84] Creating Layer inception_4c/output
I1216 13:14:25.507226 17145 net.cpp:380] inception_4c/output <- inception_4c/1x1
I1216 13:14:25.507242 17145 net.cpp:380] inception_4c/output <- inception_4c/3x3
I1216 13:14:25.507249 17145 net.cpp:380] inception_4c/output <- inception_4c/5x5
I1216 13:14:25.507256 17145 net.cpp:380] inception_4c/output <- inception_4c/pool_proj
I1216 13:14:25.507264 17145 net.cpp:338] inception_4c/output -> inception_4c/output
I1216 13:14:25.507274 17145 net.cpp:113] Setting up inception_4c/output
I1216 13:14:25.507284 17145 net.cpp:120] Top shape: 50 512 14 14 (5017600)
I1216 13:14:25.507289 17145 layer_factory.hpp:74] Creating layer inception_4c/output_inception_4c/output_0_split
I1216 13:14:25.507298 17145 net.cpp:84] Creating Layer inception_4c/output_inception_4c/output_0_split
I1216 13:14:25.507304 17145 net.cpp:380] inception_4c/output_inception_4c/output_0_split <- inception_4c/output
I1216 13:14:25.507313 17145 net.cpp:338] inception_4c/output_inception_4c/output_0_split -> inception_4c/output_inception_4c/output_0_split_0
I1216 13:14:25.507323 17145 net.cpp:338] inception_4c/output_inception_4c/output_0_split -> inception_4c/output_inception_4c/output_0_split_1
I1216 13:14:25.507333 17145 net.cpp:338] inception_4c/output_inception_4c/output_0_split -> inception_4c/output_inception_4c/output_0_split_2
I1216 13:14:25.507341 17145 net.cpp:338] inception_4c/output_inception_4c/output_0_split -> inception_4c/output_inception_4c/output_0_split_3
I1216 13:14:25.507349 17145 net.cpp:113] Setting up inception_4c/output_inception_4c/output_0_split
I1216 13:14:25.507359 17145 net.cpp:120] Top shape: 50 512 14 14 (5017600)
I1216 13:14:25.507365 17145 net.cpp:120] Top shape: 50 512 14 14 (5017600)
I1216 13:14:25.507371 17145 net.cpp:120] Top shape: 50 512 14 14 (5017600)
I1216 13:14:25.507377 17145 net.cpp:120] Top shape: 50 512 14 14 (5017600)
I1216 13:14:25.507385 17145 layer_factory.hpp:74] Creating layer inception_4d/1x1
I1216 13:14:25.507397 17145 net.cpp:84] Creating Layer inception_4d/1x1
I1216 13:14:25.507403 17145 net.cpp:380] inception_4d/1x1 <- inception_4c/output_inception_4c/output_0_split_0
I1216 13:14:25.507411 17145 net.cpp:338] inception_4d/1x1 -> inception_4d/1x1
I1216 13:14:25.507421 17145 net.cpp:113] Setting up inception_4d/1x1
I1216 13:14:25.508697 17145 net.cpp:120] Top shape: 50 112 14 14 (1097600)
I1216 13:14:25.508716 17145 layer_factory.hpp:74] Creating layer inception_4d/relu_1x1
I1216 13:14:25.508728 17145 net.cpp:84] Creating Layer inception_4d/relu_1x1
I1216 13:14:25.508734 17145 net.cpp:380] inception_4d/relu_1x1 <- inception_4d/1x1
I1216 13:14:25.508744 17145 net.cpp:327] inception_4d/relu_1x1 -> inception_4d/1x1 (in-place)
I1216 13:14:25.508752 17145 net.cpp:113] Setting up inception_4d/relu_1x1
I1216 13:14:25.508842 17145 net.cpp:120] Top shape: 50 112 14 14 (1097600)
I1216 13:14:25.508864 17145 layer_factory.hpp:74] Creating layer inception_4d/3x3_reduce
I1216 13:14:25.508877 17145 net.cpp:84] Creating Layer inception_4d/3x3_reduce
I1216 13:14:25.508883 17145 net.cpp:380] inception_4d/3x3_reduce <- inception_4c/output_inception_4c/output_0_split_1
I1216 13:14:25.508893 17145 net.cpp:338] inception_4d/3x3_reduce -> inception_4d/3x3_reduce
I1216 13:14:25.508903 17145 net.cpp:113] Setting up inception_4d/3x3_reduce
I1216 13:14:25.511597 17145 net.cpp:120] Top shape: 50 144 14 14 (1411200)
I1216 13:14:25.511661 17145 layer_factory.hpp:74] Creating layer inception_4d/relu_3x3_reduce
I1216 13:14:25.511679 17145 net.cpp:84] Creating Layer inception_4d/relu_3x3_reduce
I1216 13:14:25.511693 17145 net.cpp:380] inception_4d/relu_3x3_reduce <- inception_4d/3x3_reduce
I1216 13:14:25.511706 17145 net.cpp:327] inception_4d/relu_3x3_reduce -> inception_4d/3x3_reduce (in-place)
I1216 13:14:25.511723 17145 net.cpp:113] Setting up inception_4d/relu_3x3_reduce
I1216 13:14:25.512140 17145 net.cpp:120] Top shape: 50 144 14 14 (1411200)
I1216 13:14:25.512164 17145 layer_factory.hpp:74] Creating layer inception_4d/3x3
I1216 13:14:25.512181 17145 net.cpp:84] Creating Layer inception_4d/3x3
I1216 13:14:25.512193 17145 net.cpp:380] inception_4d/3x3 <- inception_4d/3x3_reduce
I1216 13:14:25.512212 17145 net.cpp:338] inception_4d/3x3 -> inception_4d/3x3
I1216 13:14:25.512230 17145 net.cpp:113] Setting up inception_4d/3x3
I1216 13:14:25.521378 17145 net.cpp:120] Top shape: 50 288 14 14 (2822400)
I1216 13:14:25.521410 17145 layer_factory.hpp:74] Creating layer inception_4d/relu_3x3
I1216 13:14:25.521425 17145 net.cpp:84] Creating Layer inception_4d/relu_3x3
I1216 13:14:25.521435 17145 net.cpp:380] inception_4d/relu_3x3 <- inception_4d/3x3
I1216 13:14:25.521450 17145 net.cpp:327] inception_4d/relu_3x3 -> inception_4d/3x3 (in-place)
I1216 13:14:25.521466 17145 net.cpp:113] Setting up inception_4d/relu_3x3
I1216 13:14:25.521594 17145 net.cpp:120] Top shape: 50 288 14 14 (2822400)
I1216 13:14:25.521607 17145 layer_factory.hpp:74] Creating layer inception_4d/5x5_reduce
I1216 13:14:25.521625 17145 net.cpp:84] Creating Layer inception_4d/5x5_reduce
I1216 13:14:25.521636 17145 net.cpp:380] inception_4d/5x5_reduce <- inception_4c/output_inception_4c/output_0_split_2
I1216 13:14:25.521649 17145 net.cpp:338] inception_4d/5x5_reduce -> inception_4d/5x5_reduce
I1216 13:14:25.521666 17145 net.cpp:113] Setting up inception_4d/5x5_reduce
I1216 13:14:25.522740 17145 net.cpp:120] Top shape: 50 32 14 14 (313600)
I1216 13:14:25.522768 17145 layer_factory.hpp:74] Creating layer inception_4d/relu_5x5_reduce
I1216 13:14:25.522784 17145 net.cpp:84] Creating Layer inception_4d/relu_5x5_reduce
I1216 13:14:25.522796 17145 net.cpp:380] inception_4d/relu_5x5_reduce <- inception_4d/5x5_reduce
I1216 13:14:25.522809 17145 net.cpp:327] inception_4d/relu_5x5_reduce -> inception_4d/5x5_reduce (in-place)
I1216 13:14:25.522825 17145 net.cpp:113] Setting up inception_4d/relu_5x5_reduce
I1216 13:14:25.522954 17145 net.cpp:120] Top shape: 50 32 14 14 (313600)
I1216 13:14:25.522966 17145 layer_factory.hpp:74] Creating layer inception_4d/5x5
I1216 13:14:25.522984 17145 net.cpp:84] Creating Layer inception_4d/5x5
I1216 13:14:25.522992 17145 net.cpp:380] inception_4d/5x5 <- inception_4d/5x5_reduce
I1216 13:14:25.523006 17145 net.cpp:338] inception_4d/5x5 -> inception_4d/5x5
I1216 13:14:25.523021 17145 net.cpp:113] Setting up inception_4d/5x5
I1216 13:14:25.524767 17145 net.cpp:120] Top shape: 50 64 14 14 (627200)
I1216 13:14:25.524793 17145 layer_factory.hpp:74] Creating layer inception_4d/relu_5x5
I1216 13:14:25.524811 17145 net.cpp:84] Creating Layer inception_4d/relu_5x5
I1216 13:14:25.524821 17145 net.cpp:380] inception_4d/relu_5x5 <- inception_4d/5x5
I1216 13:14:25.524834 17145 net.cpp:327] inception_4d/relu_5x5 -> inception_4d/5x5 (in-place)
I1216 13:14:25.524848 17145 net.cpp:113] Setting up inception_4d/relu_5x5
I1216 13:14:25.524981 17145 net.cpp:120] Top shape: 50 64 14 14 (627200)
I1216 13:14:25.525002 17145 layer_factory.hpp:74] Creating layer inception_4d/pool
I1216 13:14:25.525027 17145 layer_factory.cpp:56] CUDNN does not support padding or multiple tops. Using Caffe's own pooling layer.
I1216 13:14:25.525039 17145 net.cpp:84] Creating Layer inception_4d/pool
I1216 13:14:25.525049 17145 net.cpp:380] inception_4d/pool <- inception_4c/output_inception_4c/output_0_split_3
I1216 13:14:25.525079 17145 net.cpp:338] inception_4d/pool -> inception_4d/pool
I1216 13:14:25.525094 17145 net.cpp:113] Setting up inception_4d/pool
I1216 13:14:25.525111 17145 net.cpp:120] Top shape: 50 512 14 14 (5017600)
I1216 13:14:25.525120 17145 layer_factory.hpp:74] Creating layer inception_4d/pool_proj
I1216 13:14:25.525138 17145 net.cpp:84] Creating Layer inception_4d/pool_proj
I1216 13:14:25.525148 17145 net.cpp:380] inception_4d/pool_proj <- inception_4d/pool
I1216 13:14:25.525161 17145 net.cpp:338] inception_4d/pool_proj -> inception_4d/pool_proj
I1216 13:14:25.525176 17145 net.cpp:113] Setting up inception_4d/pool_proj
I1216 13:14:25.526545 17145 net.cpp:120] Top shape: 50 64 14 14 (627200)
I1216 13:14:25.526571 17145 layer_factory.hpp:74] Creating layer inception_4d/relu_pool_proj
I1216 13:14:25.526584 17145 net.cpp:84] Creating Layer inception_4d/relu_pool_proj
I1216 13:14:25.526598 17145 net.cpp:380] inception_4d/relu_pool_proj <- inception_4d/pool_proj
I1216 13:14:25.526614 17145 net.cpp:327] inception_4d/relu_pool_proj -> inception_4d/pool_proj (in-place)
I1216 13:14:25.526629 17145 net.cpp:113] Setting up inception_4d/relu_pool_proj
I1216 13:14:25.527009 17145 net.cpp:120] Top shape: 50 64 14 14 (627200)
I1216 13:14:25.527029 17145 layer_factory.hpp:74] Creating layer inception_4d/output
I1216 13:14:25.527042 17145 net.cpp:84] Creating Layer inception_4d/output
I1216 13:14:25.527052 17145 net.cpp:380] inception_4d/output <- inception_4d/1x1
I1216 13:14:25.527065 17145 net.cpp:380] inception_4d/output <- inception_4d/3x3
I1216 13:14:25.527076 17145 net.cpp:380] inception_4d/output <- inception_4d/5x5
I1216 13:14:25.527087 17145 net.cpp:380] inception_4d/output <- inception_4d/pool_proj
I1216 13:14:25.527099 17145 net.cpp:338] inception_4d/output -> inception_4d/output
I1216 13:14:25.527114 17145 net.cpp:113] Setting up inception_4d/output
I1216 13:14:25.527130 17145 net.cpp:120] Top shape: 50 528 14 14 (5174400)
I1216 13:14:25.527139 17145 layer_factory.hpp:74] Creating layer inception_4d/output_inception_4d/output_0_split
I1216 13:14:25.527151 17145 net.cpp:84] Creating Layer inception_4d/output_inception_4d/output_0_split
I1216 13:14:25.527160 17145 net.cpp:380] inception_4d/output_inception_4d/output_0_split <- inception_4d/output
I1216 13:14:25.527176 17145 net.cpp:338] inception_4d/output_inception_4d/output_0_split -> inception_4d/output_inception_4d/output_0_split_0
I1216 13:14:25.527191 17145 net.cpp:338] inception_4d/output_inception_4d/output_0_split -> inception_4d/output_inception_4d/output_0_split_1
I1216 13:14:25.527205 17145 net.cpp:338] inception_4d/output_inception_4d/output_0_split -> inception_4d/output_inception_4d/output_0_split_2
I1216 13:14:25.527220 17145 net.cpp:338] inception_4d/output_inception_4d/output_0_split -> inception_4d/output_inception_4d/output_0_split_3
I1216 13:14:25.527235 17145 net.cpp:338] inception_4d/output_inception_4d/output_0_split -> inception_4d/output_inception_4d/output_0_split_4
I1216 13:14:25.527247 17145 net.cpp:113] Setting up inception_4d/output_inception_4d/output_0_split
I1216 13:14:25.527261 17145 net.cpp:120] Top shape: 50 528 14 14 (5174400)
I1216 13:14:25.527272 17145 net.cpp:120] Top shape: 50 528 14 14 (5174400)
I1216 13:14:25.527282 17145 net.cpp:120] Top shape: 50 528 14 14 (5174400)
I1216 13:14:25.527292 17145 net.cpp:120] Top shape: 50 528 14 14 (5174400)
I1216 13:14:25.527302 17145 net.cpp:120] Top shape: 50 528 14 14 (5174400)
I1216 13:14:25.527310 17145 layer_factory.hpp:74] Creating layer loss2/ave_pool
I1216 13:14:25.527323 17145 net.cpp:84] Creating Layer loss2/ave_pool
I1216 13:14:25.527333 17145 net.cpp:380] loss2/ave_pool <- inception_4d/output_inception_4d/output_0_split_0
I1216 13:14:25.527367 17145 net.cpp:338] loss2/ave_pool -> loss2/ave_pool
I1216 13:14:25.527381 17145 net.cpp:113] Setting up loss2/ave_pool
I1216 13:14:25.527518 17145 net.cpp:120] Top shape: 50 528 4 4 (422400)
I1216 13:14:25.527529 17145 layer_factory.hpp:74] Creating layer loss2/conv
I1216 13:14:25.527544 17145 net.cpp:84] Creating Layer loss2/conv
I1216 13:14:25.527554 17145 net.cpp:380] loss2/conv <- loss2/ave_pool
I1216 13:14:25.527568 17145 net.cpp:338] loss2/conv -> loss2/conv
I1216 13:14:25.527585 17145 net.cpp:113] Setting up loss2/conv
I1216 13:14:25.529691 17145 net.cpp:120] Top shape: 50 128 4 4 (102400)
I1216 13:14:25.529721 17145 layer_factory.hpp:74] Creating layer loss2/relu_conv
I1216 13:14:25.529737 17145 net.cpp:84] Creating Layer loss2/relu_conv
I1216 13:14:25.529748 17145 net.cpp:380] loss2/relu_conv <- loss2/conv
I1216 13:14:25.529762 17145 net.cpp:327] loss2/relu_conv -> loss2/conv (in-place)
I1216 13:14:25.529775 17145 net.cpp:113] Setting up loss2/relu_conv
I1216 13:14:25.529904 17145 net.cpp:120] Top shape: 50 128 4 4 (102400)
I1216 13:14:25.529917 17145 layer_factory.hpp:74] Creating layer loss2/fc
I1216 13:14:25.529932 17145 net.cpp:84] Creating Layer loss2/fc
I1216 13:14:25.529942 17145 net.cpp:380] loss2/fc <- loss2/conv
I1216 13:14:25.529954 17145 net.cpp:338] loss2/fc -> loss2/fc
I1216 13:14:25.529970 17145 net.cpp:113] Setting up loss2/fc
I1216 13:14:25.566372 17145 net.cpp:120] Top shape: 50 1024 (51200)
I1216 13:14:25.566395 17145 layer_factory.hpp:74] Creating layer loss2/relu_fc
I1216 13:14:25.566406 17145 net.cpp:84] Creating Layer loss2/relu_fc
I1216 13:14:25.566413 17145 net.cpp:380] loss2/relu_fc <- loss2/fc
I1216 13:14:25.566426 17145 net.cpp:327] loss2/relu_fc -> loss2/fc (in-place)
I1216 13:14:25.566437 17145 net.cpp:113] Setting up loss2/relu_fc
I1216 13:14:25.566555 17145 net.cpp:120] Top shape: 50 1024 (51200)
I1216 13:14:25.566565 17145 layer_factory.hpp:74] Creating layer loss2/drop_fc
I1216 13:14:25.566577 17145 net.cpp:84] Creating Layer loss2/drop_fc
I1216 13:14:25.566586 17145 net.cpp:380] loss2/drop_fc <- loss2/fc
I1216 13:14:25.566596 17145 net.cpp:327] loss2/drop_fc -> loss2/fc (in-place)
I1216 13:14:25.566606 17145 net.cpp:113] Setting up loss2/drop_fc
I1216 13:14:25.566615 17145 net.cpp:120] Top shape: 50 1024 (51200)
I1216 13:14:25.566623 17145 layer_factory.hpp:74] Creating layer loss2/classifier_kaggle
I1216 13:14:25.566637 17145 net.cpp:84] Creating Layer loss2/classifier_kaggle
I1216 13:14:25.566644 17145 net.cpp:380] loss2/classifier_kaggle <- loss2/fc
I1216 13:14:25.566654 17145 net.cpp:338] loss2/classifier_kaggle -> loss2/classifier_kaggle
I1216 13:14:25.566666 17145 net.cpp:113] Setting up loss2/classifier_kaggle
I1216 13:14:25.574118 17145 net.cpp:120] Top shape: 50 447 (22350)
I1216 13:14:25.574136 17145 layer_factory.hpp:74] Creating layer loss2/classifier_kaggle_loss2/classifier_kaggle_0_split
I1216 13:14:25.574146 17145 net.cpp:84] Creating Layer loss2/classifier_kaggle_loss2/classifier_kaggle_0_split
I1216 13:14:25.574153 17145 net.cpp:380] loss2/classifier_kaggle_loss2/classifier_kaggle_0_split <- loss2/classifier_kaggle
I1216 13:14:25.574163 17145 net.cpp:338] loss2/classifier_kaggle_loss2/classifier_kaggle_0_split -> loss2/classifier_kaggle_loss2/classifier_kaggle_0_split_0
I1216 13:14:25.574175 17145 net.cpp:338] loss2/classifier_kaggle_loss2/classifier_kaggle_0_split -> loss2/classifier_kaggle_loss2/classifier_kaggle_0_split_1
I1216 13:14:25.574185 17145 net.cpp:338] loss2/classifier_kaggle_loss2/classifier_kaggle_0_split -> loss2/classifier_kaggle_loss2/classifier_kaggle_0_split_2
I1216 13:14:25.574195 17145 net.cpp:113] Setting up loss2/classifier_kaggle_loss2/classifier_kaggle_0_split
I1216 13:14:25.574205 17145 net.cpp:120] Top shape: 50 447 (22350)
I1216 13:14:25.574213 17145 net.cpp:120] Top shape: 50 447 (22350)
I1216 13:14:25.574220 17145 net.cpp:120] Top shape: 50 447 (22350)
I1216 13:14:25.574228 17145 layer_factory.hpp:74] Creating layer loss2/loss
I1216 13:14:25.574247 17145 net.cpp:84] Creating Layer loss2/loss
I1216 13:14:25.574265 17145 net.cpp:380] loss2/loss <- loss2/classifier_kaggle_loss2/classifier_kaggle_0_split_0
I1216 13:14:25.574275 17145 net.cpp:380] loss2/loss <- label_data_1_split_3
I1216 13:14:25.574285 17145 net.cpp:338] loss2/loss -> loss2/loss1
…
I1216 13:14:25.574868 17145 net.cpp:338] loss2/top-5 -> loss2/top-5
I1216 13:14:25.574878 17145 net.cpp:113] Setting up loss2/top-5
I1216 13:14:25.574887 17145 net.cpp:120] Top shape: (1)
I1216 13:14:25.574894 17145 layer_factory.hpp:74] Creating layer inception_4e/1x1
I1216 13:14:25.574908 17145 net.cpp:84] Creating Layer inception_4e/1x1
I1216 13:14:25.574915 17145 net.cpp:380] inception_4e/1x1 <- inception_4d/output_inception_4d/output_0_split_1
I1216 13:14:25.574928 17145 net.cpp:338] inception_4e/1x1 -> inception_4e/1x1
I1216 13:14:25.574939 17145 net.cpp:113] Setting up inception_4e/1x1
I1216 13:14:25.577662 17145 net.cpp:120] Top shape: 50 256 14 14 (2508800)
I1216 13:14:25.577685 17145 layer_factory.hpp:74] Creating layer inception_4e/relu_1x1
I1216 13:14:25.577699 17145 net.cpp:84] Creating Layer inception_4e/relu_1x1
I1216 13:14:25.577708 17145 net.cpp:380] inception_4e/relu_1x1 <- inception_4e/1x1
I1216 13:14:25.577718 17145 net.cpp:327] inception_4e/relu_1x1 -> inception_4e/1x1 (in-place)
I1216 13:14:25.577728 17145 net.cpp:113] Setting up inception_4e/relu_1x1
I1216 13:14:25.577836 17145 net.cpp:120] Top shape: 50 256 14 14 (2508800)
I1216 13:14:25.577844 17145 layer_factory.hpp:74] Creating layer inception_4e/3x3_reduce
I1216 13:14:25.577884 17145 net.cpp:84] Creating Layer inception_4e/3x3_reduce
I1216 13:14:25.577893 17145 net.cpp:380] inception_4e/3x3_reduce <- inception_4d/output_inception_4d/output_0_split_2
I1216 13:14:25.577908 17145 net.cpp:338] inception_4e/3x3_reduce -> inception_4e/3x3_reduce
I1216 13:14:25.577919 17145 net.cpp:113] Setting up inception_4e/3x3_reduce
I1216 13:14:25.582330 17145 net.cpp:120] Top shape: 50 160 14 14 (1568000)
I1216 13:14:25.582363 17145 layer_factory.hpp:74] Creating layer inception_4e/relu_3x3_reduce
I1216 13:14:25.582376 17145 net.cpp:84] Creating Layer inception_4e/relu_3x3_reduce
I1216 13:14:25.582384 17145 net.cpp:380] inception_4e/relu_3x3_reduce <- inception_4e/3x3_reduce
I1216 13:14:25.582392 17145 net.cpp:327] inception_4e/relu_3x3_reduce -> inception_4e/3x3_reduce (in-place)
I1216 13:14:25.582402 17145 net.cpp:113] Setting up inception_4e/relu_3x3_reduce
I1216 13:14:25.582479 17145 net.cpp:120] Top shape: 50 160 14 14 (1568000)
I1216 13:14:25.582487 17145 layer_factory.hpp:74] Creating layer inception_4e/3x3
I1216 13:14:25.582500 17145 net.cpp:84] Creating Layer inception_4e/3x3
I1216 13:14:25.582506 17145 net.cpp:380] inception_4e/3x3 <- inception_4e/3x3_reduce
I1216 13:14:25.582515 17145 net.cpp:338] inception_4e/3x3 -> inception_4e/3x3
I1216 13:14:25.582525 17145 net.cpp:113] Setting up inception_4e/3x3
I1216 13:14:25.591147 17145 net.cpp:120] Top shape: 50 320 14 14 (3136000)
I1216 13:14:25.591192 17145 layer_factory.hpp:74] Creating layer inception_4e/relu_3x3
I1216 13:14:25.591224 17145 net.cpp:84] Creating Layer inception_4e/relu_3x3
I1216 13:14:25.591236 17145 net.cpp:380] inception_4e/relu_3x3 <- inception_4e/3x3
I1216 13:14:25.591251 17145 net.cpp:327] inception_4e/relu_3x3 -> inception_4e/3x3 (in-place)
I1216 13:14:25.591267 17145 net.cpp:113] Setting up inception_4e/relu_3x3
I1216 13:14:25.591666 17145 net.cpp:120] Top shape: 50 320 14 14 (3136000)
I1216 13:14:25.591687 17145 layer_factory.hpp:74] Creating layer inception_4e/5x5_reduce
I1216 13:14:25.591704 17145 net.cpp:84] Creating Layer inception_4e/5x5_reduce
I1216 13:14:25.591717 17145 net.cpp:380] inception_4e/5x5_reduce <- inception_4d/output_inception_4d/output_0_split_3
I1216 13:14:25.591734 17145 net.cpp:338] inception_4e/5x5_reduce -> inception_4e/5x5_reduce
I1216 13:14:25.591753 17145 net.cpp:113] Setting up inception_4e/5x5_reduce
I1216 13:14:25.592838 17145 net.cpp:120] Top shape: 50 32 14 14 (313600)
I1216 13:14:25.592866 17145 layer_factory.hpp:74] Creating layer inception_4e/relu_5x5_reduce
I1216 13:14:25.592880 17145 net.cpp:84] Creating Layer inception_4e/relu_5x5_reduce
I1216 13:14:25.592892 17145 net.cpp:380] inception_4e/relu_5x5_reduce <- inception_4e/5x5_reduce
I1216 13:14:25.592910 17145 net.cpp:327] inception_4e/relu_5x5_reduce -> inception_4e/5x5_reduce (in-place)
I1216 13:14:25.592926 17145 net.cpp:113] Setting up inception_4e/relu_5x5_reduce
I1216 13:14:25.593092 17145 net.cpp:120] Top shape: 50 32 14 14 (313600)
I1216 13:14:25.593107 17145 layer_factory.hpp:74] Creating layer inception_4e/5x5
I1216 13:14:25.593125 17145 net.cpp:84] Creating Layer inception_4e/5x5
I1216 13:14:25.593137 17145 net.cpp:380] inception_4e/5x5 <- inception_4e/5x5_reduce
I1216 13:14:25.593155 17145 net.cpp:338] inception_4e/5x5 -> inception_4e/5x5
I1216 13:14:25.593171 17145 net.cpp:113] Setting up inception_4e/5x5
I1216 13:14:25.596223 17145 net.cpp:120] Top shape: 50 128 14 14 (1254400)
I1216 13:14:25.596251 17145 layer_factory.hpp:74] Creating layer inception_4e/relu_5x5
I1216 13:14:25.596269 17145 net.cpp:84] Creating Layer inception_4e/relu_5x5
I1216 13:14:25.596282 17145 net.cpp:380] inception_4e/relu_5x5 <- inception_4e/5x5
I1216 13:14:25.596295 17145 net.cpp:327] inception_4e/relu_5x5 -> inception_4e/5x5 (in-place)
I1216 13:14:25.596310 17145 net.cpp:113] Setting up inception_4e/relu_5x5
I1216 13:14:25.596451 17145 net.cpp:120] Top shape: 50 128 14 14 (1254400)
I1216 13:14:25.596462 17145 layer_factory.hpp:74] Creating layer inception_4e/pool
I1216 13:14:25.596474 17145 layer_factory.cpp:56] CUDNN does not support padding or multiple tops. Using Caffe's own pooling layer.
I1216 13:14:25.596489 17145 net.cpp:84] Creating Layer inception_4e/pool
I1216 13:14:25.596500 17145 net.cpp:380] inception_4e/pool <- inception_4d/output_inception_4d/output_0_split_4
I1216 13:14:25.596515 17145 net.cpp:338] inception_4e/pool -> inception_4e/pool
I1216 13:14:25.596530 17145 net.cpp:113] Setting up inception_4e/pool
I1216 13:14:25.596551 17145 net.cpp:120] Top shape: 50 528 14 14 (5174400)
I1216 13:14:25.596561 17145 layer_factory.hpp:74] Creating layer inception_4e/pool_proj
I1216 13:14:25.596576 17145 net.cpp:84] Creating Layer inception_4e/pool_proj
I1216 13:14:25.596586 17145 net.cpp:380] inception_4e/pool_proj <- inception_4e/pool
I1216 13:14:25.596601 17145 net.cpp:338] inception_4e/pool_proj -> inception_4e/pool_proj
I1216 13:14:25.596616 17145 net.cpp:113] Setting up inception_4e/pool_proj
I1216 13:14:25.598793 17145 net.cpp:120] Top shape: 50 128 14 14 (1254400)
I1216 13:14:25.598822 17145 layer_factory.hpp:74] Creating layer inception_4e/relu_pool_proj
I1216 13:14:25.598839 17145 net.cpp:84] Creating Layer inception_4e/relu_pool_proj
I1216 13:14:25.598850 17145 net.cpp:380] inception_4e/relu_pool_proj <- inception_4e/pool_proj
I1216 13:14:25.598862 17145 net.cpp:327] inception_4e/relu_pool_proj -> inception_4e/pool_proj (in-place)
I1216 13:14:25.598876 17145 net.cpp:113] Setting up inception_4e/relu_pool_proj
I1216 13:14:25.599009 17145 net.cpp:120] Top shape: 50 128 14 14 (1254400)
I1216 13:14:25.599036 17145 layer_factory.hpp:74] Creating layer inception_4e/output
I1216 13:14:25.599050 17145 net.cpp:84] Creating Layer inception_4e/output
I1216 13:14:25.599061 17145 net.cpp:380] inception_4e/output <- inception_4e/1x1
I1216 13:14:25.599072 17145 net.cpp:380] inception_4e/output <- inception_4e/3x3
I1216 13:14:25.599083 17145 net.cpp:380] inception_4e/output <- inception_4e/5x5
I1216 13:14:25.599094 17145 net.cpp:380] inception_4e/output <- inception_4e/pool_proj
I1216 13:14:25.599107 17145 net.cpp:338] inception_4e/output -> inception_4e/output
I1216 13:14:25.599122 17145 net.cpp:113] Setting up inception_4e/output
I1216 13:14:25.599136 17145 net.cpp:120] Top shape: 50 832 14 14 (8153600)
I1216 13:14:25.599145 17145 layer_factory.hpp:74] Creating layer pool4/3x3_s2
I1216 13:14:25.599159 17145 net.cpp:84] Creating Layer pool4/3x3_s2
I1216 13:14:25.599167 17145 net.cpp:380] pool4/3x3_s2 <- inception_4e/output
I1216 13:14:25.599184 17145 net.cpp:338] pool4/3x3_s2 -> pool4/3x3_s2
I1216 13:14:25.599197 17145 net.cpp:113] Setting up pool4/3x3_s2
I1216 13:14:25.599588 17145 net.cpp:120] Top shape: 50 832 7 7 (2038400)
I1216 13:14:25.599607 17145 layer_factory.hpp:74] Creating layer pool4/3x3_s2_pool4/3x3_s2_0_split
I1216 13:14:25.599624 17145 net.cpp:84] Creating Layer pool4/3x3_s2_pool4/3x3_s2_0_split
I1216 13:14:25.599635 17145 net.cpp:380] pool4/3x3_s2_pool4/3x3_s2_0_split <- pool4/3x3_s2
I1216 13:14:25.599649 17145 net.cpp:338] pool4/3x3_s2_pool4/3x3_s2_0_split -> pool4/3x3_s2_pool4/3x3_s2_0_split_0
I1216 13:14:25.599668 17145 net.cpp:338] pool4/3x3_s2_pool4/3x3_s2_0_split -> pool4/3x3_s2_pool4/3x3_s2_0_split_1
I1216 13:14:25.599683 17145 net.cpp:338] pool4/3x3_s2_pool4/3x3_s2_0_split -> pool4/3x3_s2_pool4/3x3_s2_0_split_2
I1216 13:14:25.599725 17145 net.cpp:338] pool4/3x3_s2_pool4/3x3_s2_0_split -> pool4/3x3_s2_pool4/3x3_s2_0_split_3
I1216 13:14:25.599740 17145 net.cpp:113] Setting up pool4/3x3_s2_pool4/3x3_s2_0_split
I1216 13:14:25.599756 17145 net.cpp:120] Top shape: 50 832 7 7 (2038400)
I1216 13:14:25.599766 17145 net.cpp:120] Top shape: 50 832 7 7 (2038400)
I1216 13:14:25.599778 17145 net.cpp:120] Top shape: 50 832 7 7 (2038400)
I1216 13:14:25.599788 17145 net.cpp:120] Top shape: 50 832 7 7 (2038400)
I1216 13:14:25.599800 17145 layer_factory.hpp:74] Creating layer inception_5a/1x1
I1216 13:14:25.599815 17145 net.cpp:84] Creating Layer inception_5a/1x1
I1216 13:14:25.599825 17145 net.cpp:380] inception_5a/1x1 <- pool4/3x3_s2_pool4/3x3_s2_0_split_0
I1216 13:14:25.599843 17145 net.cpp:338] inception_5a/1x1 -> inception_5a/1x1
I1216 13:14:25.599856 17145 net.cpp:113] Setting up inception_5a/1x1
I1216 13:14:25.604962 17145 net.cpp:120] Top shape: 50 256 7 7 (627200)
I1216 13:14:25.604991 17145 layer_factory.hpp:74] Creating layer inception_5a/relu_1x1
I1216 13:14:25.605005 17145 net.cpp:84] Creating Layer inception_5a/relu_1x1
I1216 13:14:25.605015 17145 net.cpp:380] inception_5a/relu_1x1 <- inception_5a/1x1
I1216 13:14:25.605028 17145 net.cpp:327] inception_5a/relu_1x1 -> inception_5a/1x1 (in-place)
I1216 13:14:25.605042 17145 net.cpp:113] Setting up inception_5a/relu_1x1
I1216 13:14:25.605188 17145 net.cpp:120] Top shape: 50 256 7 7 (627200)
I1216 13:14:25.605202 17145 layer_factory.hpp:74] Creating layer inception_5a/3x3_reduce
I1216 13:14:25.605217 17145 net.cpp:84] Creating Layer inception_5a/3x3_reduce
I1216 13:14:25.605227 17145 net.cpp:380] inception_5a/3x3_reduce <- pool4/3x3_s2_pool4/3x3_s2_0_split_1
I1216 13:14:25.605244 17145 net.cpp:338] inception_5a/3x3_reduce -> inception_5a/3x3_reduce
I1216 13:14:25.605260 17145 net.cpp:113] Setting up inception_5a/3x3_reduce
I1216 13:14:25.608736 17145 net.cpp:120] Top shape: 50 160 7 7 (392000)
I1216 13:14:25.608762 17145 layer_factory.hpp:74] Creating layer inception_5a/relu_3x3_reduce
I1216 13:14:25.608775 17145 net.cpp:84] Creating Layer inception_5a/relu_3x3_reduce
I1216 13:14:25.608786 17145 net.cpp:380] inception_5a/relu_3x3_reduce <- inception_5a/3x3_reduce
I1216 13:14:25.608808 17145 net.cpp:327] inception_5a/relu_3x3_reduce -> inception_5a/3x3_reduce (in-place)
I1216 13:14:25.608835 17145 net.cpp:113] Setting up inception_5a/relu_3x3_reduce
I1216 13:14:25.608969 17145 net.cpp:120] Top shape: 50 160 7 7 (392000)
I1216 13:14:25.608983 17145 layer_factory.hpp:74] Creating layer inception_5a/3x3
I1216 13:14:25.608999 17145 net.cpp:84] Creating Layer inception_5a/3x3
I1216 13:14:25.609009 17145 net.cpp:380] inception_5a/3x3 <- inception_5a/3x3_reduce
I1216 13:14:25.609022 17145 net.cpp:338] inception_5a/3x3 -> inception_5a/3x3
I1216 13:14:25.609036 17145 net.cpp:113] Setting up inception_5a/3x3
I1216 13:14:25.618631 17145 net.cpp:120] Top shape: 50 320 7 7 (784000)
I1216 13:14:25.618659 17145 layer_factory.hpp:74] Creating layer inception_5a/relu_3x3
I1216 13:14:25.618674 17145 net.cpp:84] Creating Layer inception_5a/relu_3x3
I1216 13:14:25.618684 17145 net.cpp:380] inception_5a/relu_3x3 <- inception_5a/3x3
I1216 13:14:25.618695 17145 net.cpp:327] inception_5a/relu_3x3 -> inception_5a/3x3 (in-place)
I1216 13:14:25.618708 17145 net.cpp:113] Setting up inception_5a/relu_3x3
I1216 13:14:25.618825 17145 net.cpp:120] Top shape: 50 320 7 7 (784000)
I1216 13:14:25.618836 17145 layer_factory.hpp:74] Creating layer inception_5a/5x5_reduce
I1216 13:14:25.618852 17145 net.cpp:84] Creating Layer inception_5a/5x5_reduce
I1216 13:14:25.618861 17145 net.cpp:380] inception_5a/5x5_reduce <- pool4/3x3_s2_pool4/3x3_s2_0_split_2
I1216 13:14:25.618875 17145 net.cpp:338] inception_5a/5x5_reduce -> inception_5a/5x5_reduce
I1216 13:14:25.618888 17145 net.cpp:113] Setting up inception_5a/5x5_reduce
I1216 13:14:25.620053 17145 net.cpp:120] Top shape: 50 32 7 7 (78400)
I1216 13:14:25.620077 17145 layer_factory.hpp:74] Creating layer inception_5a/relu_5x5_reduce
I1216 13:14:25.620090 17145 net.cpp:84] Creating Layer inception_5a/relu_5x5_reduce
I1216 13:14:25.620100 17145 net.cpp:380] inception_5a/relu_5x5_reduce <- inception_5a/5x5_reduce
I1216 13:14:25.620115 17145 net.cpp:327] inception_5a/relu_5x5_reduce -> inception_5a/5x5_reduce (in-place)
I1216 13:14:25.620127 17145 net.cpp:113] Setting up inception_5a/relu_5x5_reduce
I1216 13:14:25.620487 17145 net.cpp:120] Top shape: 50 32 7 7 (78400)
I1216 13:14:25.620504 17145 layer_factory.hpp:74] Creating layer inception_5a/5x5
I1216 13:14:25.620519 17145 net.cpp:84] Creating Layer inception_5a/5x5
I1216 13:14:25.620528 17145 net.cpp:380] inception_5a/5x5 <- inception_5a/5x5_reduce
I1216 13:14:25.620544 17145 net.cpp:338] inception_5a/5x5 -> inception_5a/5x5
I1216 13:14:25.620559 17145 net.cpp:113] Setting up inception_5a/5x5
I1216 13:14:25.623081 17145 net.cpp:120] Top shape: 50 128 7 7 (313600)
I1216 13:14:25.623106 17145 layer_factory.hpp:74] Creating layer inception_5a/relu_5x5
I1216 13:14:25.623119 17145 net.cpp:84] Creating Layer inception_5a/relu_5x5
I1216 13:14:25.623129 17145 net.cpp:380] inception_5a/relu_5x5 <- inception_5a/5x5
I1216 13:14:25.623141 17145 net.cpp:327] inception_5a/relu_5x5 -> inception_5a/5x5 (in-place)
I1216 13:14:25.623152 17145 net.cpp:113] Setting up inception_5a/relu_5x5
I1216 13:14:25.623266 17145 net.cpp:120] Top shape: 50 128 7 7 (313600)
I1216 13:14:25.623280 17145 layer_factory.hpp:74] Creating layer inception_5a/pool
I1216 13:14:25.623288 17145 layer_factory.cpp:56] CUDNN does not support padding or multiple tops. Using Caffe's own pooling layer.
I1216 13:14:25.623298 17145 net.cpp:84] Creating Layer inception_5a/pool
I1216 13:14:25.623307 17145 net.cpp:380] inception_5a/pool <- pool4/3x3_s2_pool4/3x3_s2_0_split_3
I1216 13:14:25.623322 17145 net.cpp:338] inception_5a/pool -> inception_5a/pool
I1216 13:14:25.623335 17145 net.cpp:113] Setting up inception_5a/pool
I1216 13:14:25.623349 17145 net.cpp:120] Top shape: 50 832 7 7 (2038400)
I1216 13:14:25.623358 17145 layer_factory.hpp:74] Creating layer inception_5a/pool_proj
I1216 13:14:25.623370 17145 net.cpp:84] Creating Layer inception_5a/pool_proj
I1216 13:14:25.623378 17145 net.cpp:380] inception_5a/pool_proj <- inception_5a/pool
I1216 13:14:25.623392 17145 net.cpp:338] inception_5a/pool_proj -> inception_5a/pool_proj
I1216 13:14:25.623422 17145 net.cpp:113] Setting up inception_5a/pool_proj
I1216 13:14:25.625963 17145 net.cpp:120] Top shape: 50 128 7 7 (313600)
I1216 13:14:25.625988 17145 layer_factory.hpp:74] Creating layer inception_5a/relu_pool_proj
I1216 13:14:25.626003 17145 net.cpp:84] Creating Layer inception_5a/relu_pool_proj
I1216 13:14:25.626013 17145 net.cpp:380] inception_5a/relu_pool_proj <- inception_5a/pool_proj
I1216 13:14:25.626024 17145 net.cpp:327] inception_5a/relu_pool_proj -> inception_5a/pool_proj (in-place)
I1216 13:14:25.626036 17145 net.cpp:113] Setting up inception_5a/relu_pool_proj
I1216 13:14:25.626145 17145 net.cpp:120] Top shape: 50 128 7 7 (313600)
I1216 13:14:25.626155 17145 layer_factory.hpp:74] Creating layer inception_5a/output
I1216 13:14:25.626166 17145 net.cpp:84] Creating Layer inception_5a/output
I1216 13:14:25.626174 17145 net.cpp:380] inception_5a/output <- inception_5a/1x1
I1216 13:14:25.626184 17145 net.cpp:380] inception_5a/output <- inception_5a/3x3
I1216 13:14:25.626194 17145 net.cpp:380] inception_5a/output <- inception_5a/5x5
I1216 13:14:25.626204 17145 net.cpp:380] inception_5a/output <- inception_5a/pool_proj
I1216 13:14:25.626214 17145 net.cpp:338] inception_5a/output -> inception_5a/output
I1216 13:14:25.626225 17145 net.cpp:113] Setting up inception_5a/output
I1216 13:14:25.626238 17145 net.cpp:120] Top shape: 50 832 7 7 (2038400)
I1216 13:14:25.626245 17145 layer_factory.hpp:74] Creating layer inception_5a/output_inception_5a/output_0_split
I1216 13:14:25.626256 17145 net.cpp:84] Creating Layer inception_5a/output_inception_5a/output_0_split
I1216 13:14:25.626265 17145 net.cpp:380] inception_5a/output_inception_5a/output_0_split <- inception_5a/output
I1216 13:14:25.626277 17145 net.cpp:338] inception_5a/output_inception_5a/output_0_split -> inception_5a/output_inception_5a/output_0_split_0
I1216 13:14:25.626291 17145 net.cpp:338] inception_5a/output_inception_5a/output_0_split -> inception_5a/output_inception_5a/output_0_split_1
I1216 13:14:25.626302 17145 net.cpp:338] inception_5a/output_inception_5a/output_0_split -> inception_5a/output_inception_5a/output_0_split_2
I1216 13:14:25.626313 17145 net.cpp:338] inception_5a/output_inception_5a/output_0_split -> inception_5a/output_inception_5a/output_0_split_3
I1216 13:14:25.626324 17145 net.cpp:113] Setting up inception_5a/output_inception_5a/output_0_split
I1216 13:14:25.626338 17145 net.cpp:120] Top shape: 50 832 7 7 (2038400)
I1216 13:14:25.626348 17145 net.cpp:120] Top shape: 50 832 7 7 (2038400)
I1216 13:14:25.626356 17145 net.cpp:120] Top shape: 50 832 7 7 (2038400)
I1216 13:14:25.626364 17145 net.cpp:120] Top shape: 50 832 7 7 (2038400)
I1216 13:14:25.626373 17145 layer_factory.hpp:74] Creating layer inception_5b/1x1
I1216 13:14:25.626384 17145 net.cpp:84] Creating Layer inception_5b/1x1
I1216 13:14:25.626392 17145 net.cpp:380] inception_5b/1x1 <- inception_5a/output_inception_5a/output_0_split_0
I1216 13:14:25.626406 17145 net.cpp:338] inception_5b/1x1 -> inception_5b/1x1
I1216 13:14:25.626418 17145 net.cpp:113] Setting up inception_5b/1x1
I1216 13:14:25.632794 17145 net.cpp:120] Top shape: 50 384 7 7 (940800)
I1216 13:14:25.632819 17145 layer_factory.hpp:74] Creating layer inception_5b/relu_1x1
I1216 13:14:25.632832 17145 net.cpp:84] Creating Layer inception_5b/relu_1x1
I1216 13:14:25.632840 17145 net.cpp:380] inception_5b/relu_1x1 <- inception_5b/1x1
I1216 13:14:25.632853 17145 net.cpp:327] inception_5b/relu_1x1 -> inception_5b/1x1 (in-place)
I1216 13:14:25.632864 17145 net.cpp:113] Setting up inception_5b/relu_1x1
I1216 13:14:25.632979 17145 net.cpp:120] Top shape: 50 384 7 7 (940800)
I1216 13:14:25.632990 17145 layer_factory.hpp:74] Creating layer inception_5b/3x3_reduce
I1216 13:14:25.633005 17145 net.cpp:84] Creating Layer inception_5b/3x3_reduce
I1216 13:14:25.633014 17145 net.cpp:380] inception_5b/3x3_reduce <- inception_5a/output_inception_5a/output_0_split_1
I1216 13:14:25.633026 17145 net.cpp:338] inception_5b/3x3_reduce -> inception_5b/3x3_reduce
I1216 13:14:25.633049 17145 net.cpp:113] Setting up inception_5b/3x3_reduce
I1216 13:14:25.636394 17145 net.cpp:120] Top shape: 50 192 7 7 (470400)
I1216 13:14:25.636416 17145 layer_factory.hpp:74] Creating layer inception_5b/relu_3x3_reduce
I1216 13:14:25.636427 17145 net.cpp:84] Creating Layer inception_5b/relu_3x3_reduce
I1216 13:14:25.636436 17145 net.cpp:380] inception_5b/relu_3x3_reduce <- inception_5b/3x3_reduce
I1216 13:14:25.636447 17145 net.cpp:327] inception_5b/relu_3x3_reduce -> inception_5b/3x3_reduce (in-place)
I1216 13:14:25.636458 17145 net.cpp:113] Setting up inception_5b/relu_3x3_reduce
I1216 13:14:25.636787 17145 net.cpp:120] Top shape: 50 192 7 7 (470400)
I1216 13:14:25.636802 17145 layer_factory.hpp:74] Creating layer inception_5b/3x3
I1216 13:14:25.636816 17145 net.cpp:84] Creating Layer inception_5b/3x3
I1216 13:14:25.636824 17145 net.cpp:380] inception_5b/3x3 <- inception_5b/3x3_reduce
I1216 13:14:25.636840 17145 net.cpp:338] inception_5b/3x3 -> inception_5b/3x3
I1216 13:14:25.636854 17145 net.cpp:113] Setting up inception_5b/3x3
I1216 13:14:25.648526 17145 net.cpp:120] Top shape: 50 384 7 7 (940800)
I1216 13:14:25.648550 17145 layer_factory.hpp:74] Creating layer inception_5b/relu_3x3
I1216 13:14:25.648561 17145 net.cpp:84] Creating Layer inception_5b/relu_3x3
I1216 13:14:25.648569 17145 net.cpp:380] inception_5b/relu_3x3 <- inception_5b/3x3
I1216 13:14:25.648581 17145 net.cpp:327] inception_5b/relu_3x3 -> inception_5b/3x3 (in-place)
I1216 13:14:25.648593 17145 net.cpp:113] Setting up inception_5b/relu_3x3
I1216 13:14:25.648694 17145 net.cpp:120] Top shape: 50 384 7 7 (940800)
I1216 13:14:25.648705 17145 layer_factory.hpp:74] Creating layer inception_5b/5x5_reduce
I1216 13:14:25.648717 17145 net.cpp:84] Creating Layer inception_5b/5x5_reduce
I1216 13:14:25.648725 17145 net.cpp:380] inception_5b/5x5_reduce <- inception_5a/output_inception_5a/output_0_split_2
I1216 13:14:25.648736 17145 net.cpp:338] inception_5b/5x5_reduce -> inception_5b/5x5_reduce
I1216 13:14:25.648747 17145 net.cpp:113] Setting up inception_5b/5x5_reduce
I1216 13:14:25.649946 17145 net.cpp:120] Top shape: 50 48 7 7 (117600)
I1216 13:14:25.649968 17145 layer_factory.hpp:74] Creating layer inception_5b/relu_5x5_reduce
I1216 13:14:25.649978 17145 net.cpp:84] Creating Layer inception_5b/relu_5x5_reduce
I1216 13:14:25.649987 17145 net.cpp:380] inception_5b/relu_5x5_reduce <- inception_5b/5x5_reduce
I1216 13:14:25.649997 17145 net.cpp:327] inception_5b/relu_5x5_reduce -> inception_5b/5x5_reduce (in-place)
I1216 13:14:25.650007 17145 net.cpp:113] Setting up inception_5b/relu_5x5_reduce
I1216 13:14:25.650110 17145 net.cpp:120] Top shape: 50 48 7 7 (117600)
I1216 13:14:25.650120 17145 layer_factory.hpp:74] Creating layer inception_5b/5x5
I1216 13:14:25.650132 17145 net.cpp:84] Creating Layer inception_5b/5x5
I1216 13:14:25.650141 17145 net.cpp:380] inception_5b/5x5 <- inception_5b/5x5_reduce
I1216 13:14:25.650151 17145 net.cpp:338] inception_5b/5x5 -> inception_5b/5x5
I1216 13:14:25.650161 17145 net.cpp:113] Setting up inception_5b/5x5
I1216 13:14:25.653177 17145 net.cpp:120] Top shape: 50 128 7 7 (313600)
I1216 13:14:25.653198 17145 layer_factory.hpp:74] Creating layer inception_5b/relu_5x5
I1216 13:14:25.653208 17145 net.cpp:84] Creating Layer inception_5b/relu_5x5
I1216 13:14:25.653216 17145 net.cpp:380] inception_5b/relu_5x5 <- inception_5b/5x5
I1216 13:14:25.653228 17145 net.cpp:327] inception_5b/relu_5x5 -> inception_5b/5x5 (in-place)
I1216 13:14:25.653239 17145 net.cpp:113] Setting up inception_5b/relu_5x5
I1216 13:14:25.657464 17145 net.cpp:120] Top shape: 50 128 7 7 (313600)
I1216 13:14:25.657488 17145 layer_factory.hpp:74] Creating layer inception_5b/pool
I1216 13:14:25.657498 17145 layer_factory.cpp:56] CUDNN does not support padding or multiple tops. Using Caffe's own pooling layer.
I1216 13:14:25.657510 17145 net.cpp:84] Creating Layer inception_5b/pool
I1216 13:14:25.657519 17145 net.cpp:380] inception_5b/pool <- inception_5a/output_inception_5a/output_0_split_3
I1216 13:14:25.657532 17145 net.cpp:338] inception_5b/pool -> inception_5b/pool
I1216 13:14:25.657553 17145 net.cpp:113] Setting up inception_5b/pool
I1216 13:14:25.657579 17145 net.cpp:120] Top shape: 50 832 7 7 (2038400)
I1216 13:14:25.657588 17145 layer_factory.hpp:74] Creating layer inception_5b/pool_proj
I1216 13:14:25.657606 17145 net.cpp:84] Creating Layer inception_5b/pool_proj
I1216 13:14:25.657614 17145 net.cpp:380] inception_5b/pool_proj <- inception_5b/pool
I1216 13:14:25.657627 17145 net.cpp:338] inception_5b/pool_proj -> inception_5b/pool_proj
I1216 13:14:25.657639 17145 net.cpp:113] Setting up inception_5b/pool_proj
I1216 13:14:25.659939 17145 net.cpp:120] Top shape: 50 128 7 7 (313600)
I1216 13:14:25.659961 17145 layer_factory.hpp:74] Creating layer inception_5b/relu_pool_proj
I1216 13:14:25.659972 17145 net.cpp:84] Creating Layer inception_5b/relu_pool_proj
I1216 13:14:25.659981 17145 net.cpp:380] inception_5b/relu_pool_proj <- inception_5b/pool_proj
I1216 13:14:25.659994 17145 net.cpp:327] inception_5b/relu_pool_proj -> inception_5b/pool_proj (in-place)
I1216 13:14:25.660006 17145 net.cpp:113] Setting up inception_5b/relu_pool_proj
I1216 13:14:25.660114 17145 net.cpp:120] Top shape: 50 128 7 7 (313600)
I1216 13:14:25.660123 17145 layer_factory.hpp:74] Creating layer inception_5b/output
I1216 13:14:25.660135 17145 net.cpp:84] Creating Layer inception_5b/output
I1216 13:14:25.660142 17145 net.cpp:380] inception_5b/output <- inception_5b/1x1
I1216 13:14:25.660153 17145 net.cpp:380] inception_5b/output <- inception_5b/3x3
I1216 13:14:25.660162 17145 net.cpp:380] inception_5b/output <- inception_5b/5x5
I1216 13:14:25.660171 17145 net.cpp:380] inception_5b/output <- inception_5b/pool_proj
I1216 13:14:25.660181 17145 net.cpp:338] inception_5b/output -> inception_5b/output
I1216 13:14:25.660192 17145 net.cpp:113] Setting up inception_5b/output
I1216 13:14:25.660203 17145 net.cpp:120] Top shape: 50 1024 7 7 (2508800)
I1216 13:14:25.660210 17145 layer_factory.hpp:74] Creating layer pool5/7x7_s1
I1216 13:14:25.660220 17145 net.cpp:84] Creating Layer pool5/7x7_s1
I1216 13:14:25.660228 17145 net.cpp:380] pool5/7x7_s1 <- inception_5b/output
I1216 13:14:25.660240 17145 net.cpp:338] pool5/7x7_s1 -> pool5/7x7_s1
I1216 13:14:25.660251 17145 net.cpp:113] Setting up pool5/7x7_s1
I1216 13:14:25.660356 17145 net.cpp:120] Top shape: 50 1024 1 1 (51200)
I1216 13:14:25.660368 17145 layer_factory.hpp:74] Creating layer pool5/drop_7x7_s1
I1216 13:14:25.660378 17145 net.cpp:84] Creating Layer pool5/drop_7x7_s1
I1216 13:14:25.660385 17145 net.cpp:380] pool5/drop_7x7_s1 <- pool5/7x7_s1
I1216 13:14:25.660394 17145 net.cpp:327] pool5/drop_7x7_s1 -> pool5/7x7_s1 (in-place)
I1216 13:14:25.660404 17145 net.cpp:113] Setting up pool5/drop_7x7_s1
I1216 13:14:25.660414 17145 net.cpp:120] Top shape: 50 1024 1 1 (51200)
I1216 13:14:25.660421 17145 layer_factory.hpp:74] Creating layer loss3/classifier_kaggle
I1216 13:14:25.660434 17145 net.cpp:84] Creating Layer loss3/classifier_kaggle
I1216 13:14:25.660439 17145 net.cpp:380] loss3/classifier_kaggle <- pool5/7x7_s1
I1216 13:14:25.660450 17145 net.cpp:338] loss3/classifier_kaggle -> loss3/classifier_kaggle
I1216 13:14:25.660461 17145 net.cpp:113] Setting up loss3/classifier_kaggle
I1216 13:14:25.670465 17145 net.cpp:120] Top shape: 50 447 (22350)
I1216 13:14:25.670490 17145 layer_factory.hpp:74] Creating layer loss3/classifier_kaggle_loss3/classifier_kaggle_0_split
I1216 13:14:25.670503 17145 net.cpp:84] Creating Layer loss3/classifier_kaggle_loss3/classifier_kaggle_0_split
I1216 13:14:25.670514 17145 net.cpp:380] loss3/classifier_kaggle_loss3/classifier_kaggle_0_split <- loss3/classifier_kaggle
I1216 13:14:25.670529 17145 net.cpp:338] loss3/classifier_kaggle_loss3/classifier_kaggle_0_split -> loss3/classifier_kaggle_loss3/classifier_kaggle_0_split_0
I1216 13:14:25.670548 17145 net.cpp:338] loss3/classifier_kaggle_loss3/classifier_kaggle_0_split -> loss3/classifier_kaggle_loss3/classifier_kaggle_0_split_1
I1216 13:14:25.670563 17145 net.cpp:338] loss3/classifier_kaggle_loss3/classifier_kaggle_0_split -> loss3/classifier_kaggle_loss3/classifier_kaggle_0_split_2
I1216 13:14:25.670585 17145 net.cpp:113] Setting up loss3/classifier_kaggle_loss3/classifier_kaggle_0_split
I1216 13:14:25.670614 17145 net.cpp:120] Top shape: 50 447 (22350)
I1216 13:14:25.670625 17145 net.cpp:120] Top shape: 50 447 (22350)
I1216 13:14:25.670636 17145 net.cpp:120] Top shape: 50 447 (22350)
I1216 13:14:25.670645 17145 layer_factory.hpp:74] Creating layer loss3/loss3
I1216 13:14:25.670660 17145 net.cpp:84] Creating Layer loss3/loss3
I1216 13:14:25.670670 17145 net.cpp:380] loss3/loss3 <- loss3/classifier_kaggle_loss3/classifier_kaggle_0_split_0
I1216 13:14:25.670682 17145 net.cpp:380] loss3/loss3 <- label_data_1_split_6
I1216 13:14:25.670698 17145 net.cpp:338] loss3/loss3 -> loss3/loss3
…
