…
I1230 19:51:31.941535 16687 net.cpp:257] The NetState phase (0) differed from the phase (1) specified by a rule in layer loss3/top-5
I1230 19:51:31.943410 16687 net.cpp:42] Initializing net from parameters: 
name: "MYNET"
state {
  phase: TRAIN
}
layer {
  name: "data"
  type: "ImageData"
  top: "data"
  top: "label"
  include {
    phase: TRAIN
  }
  transform_param {
    mirror: false
    crop_size: 224
    mean_value: 129
    mean_value: 129
    mean_value: 129
  }
  image_data_param {
    source: "/home/coldmanck/kaggle/label_train_full_resize_rotated.txt"
    batch_size: 80
    shuffle: true
  }
}
layer {
  name: "conv1/7x7_s2"
  type: "Convolution"
  bottom: "data"
  top: "conv1/7x7_s2"
  param {
    lr_mult: 1
    decay_mult: 1
  }
  param {
    lr_mult: 2
    decay_mult: 0
  }
  convolution_param {
    num_output: 64
    pad: 3
    kernel_size: 7
    stride: 2
    weight_filler {
      type: "xavier"
    }
    bias_filler {
      type: "constant"
      value: 0.2
    }
  }
}
layer {
  name: "conv1/relu_7x7"
  type: "ReLU"
  bottom: "conv1/7x7_s2"
  top: "conv1/7x7_s2"
}
layer {
  name: "pool1/3x3_s2"
  type: "Pooling"
  bottom: "conv1/7x7_s2"
  top: "pool1/3x3_s2"
  pooling_param {
    pool: MAX
    kernel_size: 3
    stride: 2
  }
}
layer {
  name: "pool1/norm1"
  type: "LRN"
  bottom: "pool1/3x3_s2"
  top: "pool1/norm1"
  lrn_param {
    local_size: 5
    alpha: 0.0001
    beta: 0.75
  }
}
layer {
  name: "conv2/3x3_reduce"
  type: "Convolution"
  bottom: "pool1/norm1"
  top: "conv2/3x3_reduce"
  param {
    lr_mult: 1
    decay_mult: 1
  }
  param {
    lr_mult: 2
    decay_mult: 0
  }
  convolution_param {
    num_output: 64
    kernel_size: 1
    weight_filler {
      type: "xavier"
    }
    bias_filler {
      type: "constant"
      value: 0.2
    }
  }
}
layer {
  name: "conv2/relu_3x3_reduce"
  type: "ReLU"
  bottom: "conv2/3x3_reduce"
  top: "conv2/3x3_reduce"
}
layer {
  name: "conv2/3x3"
  type: "Convolution"
  bottom: "conv2/3x3_reduce"
  top: "conv2/3x3"
  param {
    lr_mult: 1
    decay_mult: 1
  }
  param {
    lr_mult: 2
    decay_mult: 0
  }
  convolution_param {
    num_output: 192
    pad: 1
    kernel_size: 3
    weight_filler {
      type: "xavier"
    }
    bias_filler {
      type: "constant"
      value: 0.2
    }
  }
}
layer {
  name: "conv2/relu_3x3"
  type: "ReLU"
  bottom: "conv2/3x3"
  top: "conv2/3x3"
}
layer {
  name: "conv2/norm2"
  type: "LRN"
  bottom: "conv2/3x3"
  top: "conv2/norm2"
  lrn_param {
    local_size: 5
    alpha: 0.0001
    beta: 0.75
  }
}
layer {
  name: "pool2/3x3_s2"
  type: "Pooling"
  bottom: "conv2/norm2"
  top: "pool2/3x3_s2"
  pooling_param {
    pool: MAX
    kernel_size: 3
    stride: 2
  }
}
layer {
  name: "inception_3a/1x1"
  type: "Convolution"
  bottom: "pool2/3x3_s2"
  top: "inception_3a/1x1"
  param {
    lr_mult: 1
    decay_mult: 1
  }
  param {
    lr_mult: 2
    decay_mult: 0
  }
  convolution_param {
    num_output: 64
    kernel_size: 1
    weight_filler {
      type: "xavier"
    }
    bias_filler {
      type: "constant"
      value: 0.2
    }
  }
}
layer {
  name: "inception_3a/relu_1x1"
  type: "ReLU"
  bottom: "inception_3a/1x1"
  top: "inception_3a/1x1"
}
layer {
  name: "inception_3a/3x3_reduce"
  type: "Convolution"
  bottom: "pool2/3x3_s2"
  top: "inception_3a/3x3_reduce"
  param {
    lr_mult: 1
    decay_mult: 1
  }
  param {
    lr_mult: 2
    decay_mult: 0
  }
  convolution_param {
    num_output: 96
    kernel_size: 1
    weight_filler {
      type: "xavier"
    }
    bias_filler {
      type: "constant"
      value: 0.2
    }
  }
}
layer {
  name: "inception_3a/relu_3x3_reduce"
  type: "ReLU"
  bottom: "inception_3a/3x3_reduce"
  top: "inception_3a/3x3_reduce"
}
layer {
  name: "inception_3a/3x3"
  type: "Convolution"
  bottom: "inception_3a/3x3_reduce"
  top: "inception_3a/3x3"
  param {
    lr_mult: 1
    decay_mult: 1
  }
  param {
    lr_mult: 2
    decay_mult: 0
  }
  convolution_param {
    num_output: 128
    pad: 1
    kernel_size: 3
    weight_filler {
      type: "xavier"
    }
    bias_filler {
      type: "constant"
      value: 0.2
    }
  }
}
layer {
  name: "inception_3a/relu_3x3"
  type: "ReLU"
  bottom: "inception_3a/3x3"
  top: "inception_3a/3x3"
}
layer {
  name: "inception_3a/5x5_reduce"
  type: "Convolution"
  bottom: "pool2/3x3_s2"
  top: "inception_3a/5x5_reduce"
  param {
    lr_mult: 1
    decay_mult: 1
  }
  param {
    lr_mult: 2
    decay_mult: 0
  }
  convolution_param {
    num_output: 16
    kernel_size: 1
    weight_filler {
      type: "xavier"
    }
    bias_filler {
      type: "constant"
      value: 0.2
    }
  }
}
layer {
  name: "inception_3a/relu_5x5_reduce"
  type: "ReLU"
  bottom: "inception_3a/5x5_reduce"
  top: "inception_3a/5x5_reduce"
}
layer {
  name: "inception_3a/5x5"
  type: "Convolution"
  bottom: "inception_3a/5x5_reduce"
  top: "inception_3a/5x5"
  param {
    lr_mult: 1
    decay_mult: 1
  }
  param {
    lr_mult: 2
    decay_mult: 0
  }
  convolution_param {
    num_output: 32
    pad: 2
    kernel_size: 5
    weight_filler {
      type: "xavier"
    }
    bias_filler {
      type: "constant"
      value: 0.2
    }
  }
}
layer {
  name: "inception_3a/relu_5x5"
  type: "ReLU"
  bottom: "inception_3a/5x5"
  top: "inception_3a/5x5"
}
layer {
  name: "inception_3a/pool"
  type: "Pooling"
  bottom: "pool2/3x3_s2"
  top: "inception_3a/pool"
  pooling_param {
    pool: MAX
    kernel_size: 3
    stride: 1
    pad: 1
  }
}
layer {
  name: "inception_3a/pool_proj"
  type: "Convolution"
  bottom: "inception_3a/pool"
  top: "inception_3a/pool_proj"
  param {
    lr_mult: 1
    decay_mult: 1
  }
  param {
    lr_mult: 2
    decay_mult: 0
  }
  convolution_param {
    num_output: 32
    kernel_size: 1
    weight_filler {
      type: "xavier"
    }
    bias_filler {
      type: "constant"
      value: 0.2
    }
  }
}
layer {
  name: "inception_3a/relu_pool_proj"
  type: "ReLU"
  bottom: "inception_3a/pool_proj"
  top: "inception_3a/pool_proj"
}
layer {
  name: "inception_3a/output"
  type: "Concat"
  bottom: "inception_3a/1x1"
  bottom: "inception_3a/3x3"
  bottom: "inception_3a/5x5"
  bottom: "inception_3a/pool_proj"
  top: "inception_3a/output"
}
layer {
  name: "inception_3b/1x1"
  type: "Convolution"
  bottom: "inception_3a/output"
  top: "inception_3b/1x1"
  param {
    lr_mult: 1
    decay_mult: 1
  }
  param {
    lr_mult: 2
    decay_mult: 0
  }
  convolution_param {
    num_output: 128
    kernel_size: 1
    weight_filler {
      type: "xavier"
    }
    bias_filler {
      type: "constant"
      value: 0.2
    }
  }
}
layer {
  name: "inception_3b/relu_1x1"
  type: "ReLU"
  bottom: "inception_3b/1x1"
  top: "inception_3b/1x1"
}
layer {
  name: "inception_3b/3x3_reduce"
  type: "Convolution"
  bottom: "inception_3a/output"
  top: "inception_3b/3x3_reduce"
  param {
    lr_mult: 1
    decay_mult: 1
  }
  param {
    lr_mult: 2
    decay_mult: 0
  }
  convolution_param {
    num_output: 128
    kernel_size: 1
    weight_filler {
      type: "xavier"
    }
    bias_filler {
      type: "constant"
      value: 0.2
    }
  }
}
layer {
  name: "inception_3b/relu_3x3_reduce"
  type: "ReLU"
  bottom: "inception_3b/3x3_reduce"
  top: "inception_3b/3x3_reduce"
}
layer {
  name: "inception_3b/3x3"
  type: "Convolution"
  bottom: "inception_3b/3x3_reduce"
  top: "inception_3b/3x3"
  param {
    lr_mult: 1
    decay_mult: 1
  }
  param {
    lr_mult: 2
    decay_mult: 0
  }
  convolution_param {
    num_output: 192
    pad: 1
    kernel_size: 3
    weight_filler {
      type: "xavier"
    }
    bias_filler {
      type: "constant"
      value: 0.2
    }
  }
}
layer {
  name: "inception_3b/relu_3x3"
  type: "ReLU"
  bottom: "inception_3b/3x3"
  top: "inception_3b/3x3"
}
layer {
  name: "inception_3b/5x5_reduce"
  type: "Convolution"
  bottom: "inception_3a/output"
  top: "inception_3b/5x5_reduce"
  param {
    lr_mult: 1
    decay_mult: 1
  }
  param {
    lr_mult: 2
    decay_mult: 0
  }
  convolution_param {
    num_output: 32
    kernel_size: 1
    weight_filler {
      type: "xavier"
    }
    bias_filler {
      type: "constant"
      value: 0.2
    }
  }
}
layer {
  name: "inception_3b/relu_5x5_reduce"
  type: "ReLU"
  bottom: "inception_3b/5x5_reduce"
  top: "inception_3b/5x5_reduce"
}
layer {
  name: "inception_3b/5x5"
  type: "Convolution"
  bottom: "inception_3b/5x5_reduce"
  top: "inception_3b/5x5"
  param {
    lr_mult: 1
    decay_mult: 1
  }
  param {
    lr_mult: 2
    decay_mult: 0
  }
  convolution_param {
    num_output: 96
    pad: 2
    kernel_size: 5
    weight_filler {
      type: "xavier"
    }
    bias_filler {
      type: "constant"
      value: 0.2
    }
  }
}
layer {
  name: "inception_3b/relu_5x5"
  type: "ReLU"
  bottom: "inception_3b/5x5"
  top: "inception_3b/5x5"
}
layer {
  name: "inception_3b/pool"
  type: "Pooling"
  bottom: "inception_3a/output"
  top: "inception_3b/pool"
  pooling_param {
    pool: MAX
    kernel_size: 3
    stride: 1
    pad: 1
  }
}
layer {
  name: "inception_3b/pool_proj"
  type: "Convolution"
  bottom: "inception_3b/pool"
  top: "inception_3b/pool_proj"
  param {
    lr_mult: 1
    decay_mult: 1
  }
  param {
    lr_mult: 2
    decay_mult: 0
  }
  convolution_param {
    num_output: 64
    kernel_size: 1
    weight_filler {
      type: "xavier"
    }
    bias_filler {
      type: "constant"
      value: 0.2
    }
  }
}
layer {
  name: "inception_3b/relu_pool_proj"
  type: "ReLU"
  bottom: "inception_3b/pool_proj"
  top: "inception_3b/pool_proj"
}
layer {
  name: "inception_3b/output"
  type: "Concat"
  bottom: "inception_3b/1x1"
  bottom: "inception_3b/3x3"
  bottom: "inception_3b/5x5"
  bottom: "inception_3b/pool_proj"
  top: "inception_3b/output"
}
layer {
  name: "pool3/3x3_s2"
  type: "Pooling"
  bottom: "inception_3b/output"
  top: "pool3/3x3_s2"
  pooling_param {
    pool: MAX
    kernel_size: 3
    stride: 2
  }
}
layer {
  name: "inception_4a/1x1"
  type: "Convolution"
  bottom: "pool3/3x3_s2"
  top: "inception_4a/1x1"
  param {
    lr_mult: 1
    decay_mult: 1
  }
  param {
    lr_mult: 2
    decay_mult: 0
  }
  convolution_param {
    num_output: 192
    kernel_size: 1
    weight_filler {
      type: "xavier"
    }
    bias_filler {
      type: "constant"
      value: 0.2
    }
  }
}
layer {
  name: "inception_4a/relu_1x1"
  type: "ReLU"
  bottom: "inception_4a/1x1"
  top: "inception_4a/1x1"
}
layer {
  name: "inception_4a/3x3_reduce"
  type: "Convolution"
  bottom: "pool3/3x3_s2"
  top: "inception_4a/3x3_reduce"
  param {
    lr_mult: 1
    decay_mult: 1
  }
  param {
    lr_mult: 2
    decay_mult: 0
  }
  convolution_param {
    num_output: 96
    kernel_size: 1
    weight_filler {
      type: "xavier"
    }
    bias_filler {
      type: "constant"
      value: 0.2
    }
  }
}
layer {
  name: "inception_4a/relu_3x3_reduce"
  type: "ReLU"
  bottom: "inception_4a/3x3_reduce"
  top: "inception_4a/3x3_reduce"
}
layer {
  name: "inception_4a/3x3"
  type: "Convolution"
  bottom: "inception_4a/3x3_reduce"
  top: "inception_4a/3x3"
  param {
    lr_mult: 1
    decay_mult: 1
  }
  param {
    lr_mult: 2
    decay_mult: 0
  }
  convolution_param {
    num_output: 208
    pad: 1
    kernel_size: 3
    weight_filler {
      type: "xavier"
    }
    bias_filler {
      type: "constant"
      value: 0.2
    }
  }
}
layer {
  name: "inception_4a/relu_3x3"
  type: "ReLU"
  bottom: "inception_4a/3x3"
  top: "inception_4a/3x3"
}
layer {
  name: "inception_4a/5x5_reduce"
  type: "Convolution"
  bottom: "pool3/3x3_s2"
  top: "inception_4a/5x5_reduce"
  param {
    lr_mult: 1
    decay_mult: 1
  }
  param {
    lr_mult: 2
    decay_mult: 0
  }
  convolution_param {
    num_output: 16
    kernel_size: 1
    weight_filler {
      type: "xavier"
    }
    bias_filler {
      type: "constant"
      value: 0.2
    }
  }
}
layer {
  name: "inception_4a/relu_5x5_reduce"
  type: "ReLU"
  bottom: "inception_4a/5x5_reduce"
  top: "inception_4a/5x5_reduce"
}
layer {
  name: "inception_4a/5x5"
  type: "Convolution"
  bottom: "inception_4a/5x5_reduce"
  top: "inception_4a/5x5"
  param {
    lr_mult: 1
    decay_mult: 1
  }
  param {
    lr_mult: 2
    decay_mult: 0
  }
  convolution_param {
    num_output: 48
    pad: 2
    kernel_size: 5
    weight_filler {
      type: "xavier"
    }
    bias_filler {
      type: "constant"
      value: 0.2
    }
  }
}
layer {
  name: "inception_4a/relu_5x5"
  type: "ReLU"
  bottom: "inception_4a/5x5"
  top: "inception_4a/5x5"
}
layer {
  name: "inception_4a/pool"
  type: "Pooling"
  bottom: "pool3/3x3_s2"
  top: "inception_4a/pool"
  pooling_param {
    pool: MAX
    kernel_size: 3
    stride: 1
    pad: 1
  }
}
layer {
  name: "inception_4a/pool_proj"
  type: "Convolution"
  bottom: "inception_4a/pool"
  top: "inception_4a/pool_proj"
  param {
    lr_mult: 1
    decay_mult: 1
  }
  param {
    lr_mult: 2
    decay_mult: 0
  }
  convolution_param {
    num_output: 64
    kernel_size: 1
    weight_filler {
      type: "xavier"
    }
    bias_filler {
      type: "constant"
      value: 0.2
    }
  }
}
layer {
  name: "inception_4a/relu_pool_proj"
  type: "ReLU"
  bottom: "inception_4a/pool_proj"
  top: "inception_4a/pool_proj"
}
layer {
  name: "inception_4a/output"
  type: "Concat"
  bottom: "inception_4a/1x1"
  bottom: "inception_4a/3x3"
  bottom: "inception_4a/5x5"
  bottom: "inception_4a/pool_proj"
  top: "inception_4a/output"
}
layer {
  name: "loss1/ave_pool"
  type: "Pooling"
  bottom: "inception_4a/output"
  top: "loss1/ave_pool"
  pooling_param {
    pool: AVE
    kernel_size: 5
    stride: 3
  }
}
layer {
  name: "loss1/conv"
  type: "Convolution"
  bottom: "loss1/ave_pool"
  top: "loss1/conv"
  param {
    lr_mult: 1
    decay_mult: 1
  }
  param {
    lr_mult: 2
    decay_mult: 0
  }
  convolution_param {
    num_output: 128
    kernel_size: 1
    weight_filler {
      type: "xavier"
    }
    bias_filler {
      type: "constant"
      value: 0.2
    }
  }
}
layer {
  name: "loss1/relu_conv"
  type: "ReLU"
  bottom: "loss1/conv"
  top: "loss1/conv"
}
layer {
  name: "loss1/fc"
  type: "InnerProduct"
  bottom: "loss1/conv"
  top: "loss1/fc"
  param {
    lr_mult: 1
    decay_mult: 1
  }
  param {
    lr_mult: 2
    decay_mult: 0
  }
  inner_product_param {
    num_output: 1024
    weight_filler {
      type: "xavier"
    }
    bias_filler {
      type: "constant"
      value: 0.2
    }
  }
}
layer {
  name: "loss1/relu_fc"
  type: "ReLU"
  bottom: "loss1/fc"
  top: "loss1/fc"
}
layer {
  name: "loss1/drop_fc"
  type: "Dropout"
  bottom: "loss1/fc"
  top: "loss1/fc"
  dropout_param {
    dropout_ratio: 0.7
  }
}
layer {
  name: "loss1/classifier_kaggle"
  type: "InnerProduct"
  bottom: "loss1/fc"
  top: "loss1/classifier_kaggle"
  param {
    lr_mult: 1
    decay_mult: 1
  }
  param {
    lr_mult: 2
    decay_mult: 0
  }
  inner_product_param {
    num_output: 447
    weight_filler {
      type: "xavier"
    }
    bias_filler {
      type: "constant"
      value: 0
    }
  }
}
layer {
  name: "loss1/loss"
  type: "SoftmaxWithLoss"
  bottom: "loss1/classifier_kaggle"
  bottom: "label"
  top: "loss1/loss1"
  loss_weight: 0.3
}
layer {
  name: "inception_4b/1x1"
  type: "Convolution"
  bottom: "inception_4a/output"
  top: "inception_4b/1x1"
  param {
    lr_mult: 1
    decay_mult: 1
  }
  param {
    lr_mult: 2
    decay_mult: 0
  }
  convolution_param {
    num_output: 160
    kernel_size: 1
    weight_filler {
      type: "xavier"
    }
    bias_filler {
      type: "constant"
      value: 0.2
    }
  }
}
layer {
  name: "inception_4b/relu_1x1"
  type: "ReLU"
  bottom: "inception_4b/1x1"
  top: "inception_4b/1x1"
}
layer {
  name: "inception_4b/3x3_reduce"
  type: "Convolution"
  bottom: "inception_4a/output"
  top: "inception_4b/3x3_reduce"
  param {
    lr_mult: 1
    decay_mult: 1
  }
  param {
    lr_mult: 2
    decay_mult: 0
  }
  convolution_param {
    num_output: 112
    kernel_size: 1
    weight_filler {
      type: "xavier"
    }
    bias_filler {
      type: "constant"
      value: 0.2
    }
  }
}
layer {
  name: "inception_4b/relu_3x3_reduce"
  type: "ReLU"
  bottom: "inception_4b/3x3_reduce"
  top: "inception_4b/3x3_reduce"
}
layer {
  name: "inception_4b/3x3"
  type: "Convolution"
  bottom: "inception_4b/3x3_reduce"
  top: "inception_4b/3x3"
  param {
    lr_mult: 1
    decay_mult: 1
  }
  param {
    lr_mult: 2
    decay_mult: 0
  }
  convolution_param {
    num_output: 224
    pad: 1
    kernel_size: 3
    weight_filler {
      type: "xavier"
    }
    bias_filler {
      type: "constant"
      value: 0.2
    }
  }
}
layer {
  name: "inception_4b/relu_3x3"
  type: "ReLU"
  bottom: "inception_4b/3x3"
  top: "inception_4b/3x3"
}
layer {
  name: "inception_4b/5x5_reduce"
  type: "Convolution"
  bottom: "inception_4a/output"
  top: "inception_4b/5x5_reduce"
  param {
    lr_mult: 1
    decay_mult: 1
  }
  param {
    lr_mult: 2
    decay_mult: 0
  }
  convolution_param {
    num_output: 24
    kernel_size: 1
    weight_filler {
      type: "xavier"
    }
    bias_filler {
      type: "constant"
      value: 0.2
    }
  }
}
layer {
  name: "inception_4b/relu_5x5_reduce"
  type: "ReLU"
  bottom: "inception_4b/5x5_reduce"
  top: "inception_4b/5x5_reduce"
}
layer {
  name: "inception_4b/5x5"
  type: "Convolution"
  bottom: "inception_4b/5x5_reduce"
  top: "inception_4b/5x5"
  param {
    lr_mult: 1
    decay_mult: 1
  }
  param {
    lr_mult: 2
    decay_mult: 0
  }
  convolution_param {
    num_output: 64
    pad: 2
    kernel_size: 5
    weight_filler {
      type: "xavier"
    }
    bias_filler {
      type: "constant"
      value: 0.2
    }
  }
}
layer {
  name: "inception_4b/relu_5x5"
  type: "ReLU"
  bottom: "inception_4b/5x5"
  top: "inception_4b/5x5"
}
layer {
  name: "inception_4b/pool"
  type: "Pooling"
  bottom: "inception_4a/output"
  top: "inception_4b/pool"
  pooling_param {
    pool: MAX
    kernel_size: 3
    stride: 1
    pad: 1
  }
}
layer {
  name: "inception_4b/pool_proj"
  type: "Convolution"
  bottom: "inception_4b/pool"
  top: "inception_4b/pool_proj"
  param {
    lr_mult: 1
    decay_mult: 1
  }
  param {
    lr_mult: 2
    decay_mult: 0
  }
  convolution_param {
    num_output: 64
    kernel_size: 1
    weight_filler {
      type: "xavier"
    }
    bias_filler {
      type: "constant"
      value: 0.2
    }
  }
}
layer {
  name: "inception_4b/relu_pool_proj"
  type: "ReLU"
  bottom: "inception_4b/pool_proj"
  top: "inception_4b/pool_proj"
}
layer {
  name: "inception_4b/output"
  type: "Concat"
  bottom: "inception_4b/1x1"
  bottom: "inception_4b/3x3"
  bottom: "inception_4b/5x5"
  bottom: "inception_4b/pool_proj"
  top: "inception_4b/output"
}
layer {
  name: "inception_4c/1x1"
  type: "Convolution"
  bottom: "inception_4b/output"
  top: "inception_4c/1x1"
  param {
    lr_mult: 1
    decay_mult: 1
  }
  param {
    lr_mult: 2
    decay_mult: 0
  }
  convolution_param {
    num_output: 128
    kernel_size: 1
    weight_filler {
      type: "xavier"
    }
    bias_filler {
      type: "constant"
      value: 0.2
    }
  }
}
layer {
  name: "inception_4c/relu_1x1"
  type: "ReLU"
  bottom: "inception_4c/1x1"
  top: "inception_4c/1x1"
}
layer {
  name: "inception_4c/3x3_reduce"
  type: "Convolution"
  bottom: "inception_4b/output"
  top: "inception_4c/3x3_reduce"
  param {
    lr_mult: 1
    decay_mult: 1
  }
  param {
    lr_mult: 2
    decay_mult: 0
  }
  convolution_param {
    num_output: 128
    kernel_size: 1
    weight_filler {
      type: "xavier"
    }
    bias_filler {
      type: "constant"
      value: 0.2
    }
  }
}
layer {
  name: "inception_4c/relu_3x3_reduce"
  type: "ReLU"
  bottom: "inception_4c/3x3_reduce"
  top: "inception_4c/3x3_reduce"
}
layer {
  name: "inception_4c/3x3"
  type: "Convolution"
  bottom: "inception_4c/3x3_reduce"
  top: "inception_4c/3x3"
  param {
    lr_mult: 1
    decay_mult: 1
  }
  param {
    lr_mult: 2
    decay_mult: 0
  }
  convolution_param {
    num_output: 256
    pad: 1
    kernel_size: 3
    weight_filler {
      type: "xavier"
    }
    bias_filler {
      type: "constant"
      value: 0.2
    }
  }
}
layer {
  name: "inception_4c/relu_3x3"
  type: "ReLU"
  bottom: "inception_4c/3x3"
  top: "inception_4c/3x3"
}
layer {
  name: "inception_4c/5x5_reduce"
  type: "Convolution"
  bottom: "inception_4b/output"
  top: "inception_4c/5x5_reduce"
  param {
    lr_mult: 1
    decay_mult: 1
  }
  param {
    lr_mult: 2
    decay_mult: 0
  }
  convolution_param {
    num_output: 24
    kernel_size: 1
    weight_filler {
      type: "xavier"
    }
    bias_filler {
      type: "constant"
      value: 0.2
    }
  }
}
layer {
  name: "inception_4c/relu_5x5_reduce"
  type: "ReLU"
  bottom: "inception_4c/5x5_reduce"
  top: "inception_4c/5x5_reduce"
}
layer {
  name: "inception_4c/5x5"
  type: "Convolution"
  bottom: "inception_4c/5x5_reduce"
  top: "inception_4c/5x5"
  param {
    lr_mult: 1
    decay_mult: 1
  }
  param {
    lr_mult: 2
    decay_mult: 0
  }
  convolution_param {
    num_output: 64
    pad: 2
    kernel_size: 5
    weight_filler {
      type: "xavier"
    }
    bias_filler {
      type: "constant"
      value: 0.2
    }
  }
}
layer {
  name: "inception_4c/relu_5x5"
  type: "ReLU"
  bottom: "inception_4c/5x5"
  top: "inception_4c/5x5"
}
layer {
  name: "inception_4c/pool"
  type: "Pooling"
  bottom: "inception_4b/output"
  top: "inception_4c/pool"
  pooling_param {
    pool: MAX
    kernel_size: 3
    stride: 1
    pad: 1
  }
}
layer {
  name: "inception_4c/pool_proj"
  type: "Convolution"
  bottom: "inception_4c/pool"
  top: "inception_4c/pool_proj"
  param {
    lr_mult: 1
    decay_mult: 1
  }
  param {
    lr_mult: 2
    decay_mult: 0
  }
  convolution_param {
    num_output: 64
    kernel_size: 1
    weight_filler {
      type: "xavier"
    }
    bias_filler {
      type: "constant"
      value: 0.2
    }
  }
}
layer {
  name: "inception_4c/relu_pool_proj"
  type: "ReLU"
  bottom: "inception_4c/pool_proj"
  top: "inception_4c/pool_proj"
}
layer {
  name: "inception_4c/output"
  type: "Concat"
  bottom: "inception_4c/1x1"
  bottom: "inception_4c/3x3"
  bottom: "inception_4c/5x5"
  bottom: "inception_4c/pool_proj"
  top: "inception_4c/output"
}
layer {
  name: "inception_4d/1x1"
  type: "Convolution"
  bottom: "inception_4c/output"
  top: "inception_4d/1x1"
  param {
    lr_mult: 1
    decay_mult: 1
  }
  param {
    lr_mult: 2
    decay_mult: 0
  }
  convolution_param {
    num_output: 112
    kernel_size: 1
    weight_filler {
      type: "xavier"
    }
    bias_filler {
      type: "constant"
      value: 0.2
    }
  }
}
layer {
  name: "inception_4d/relu_1x1"
  type: "ReLU"
  bottom: "inception_4d/1x1"
  top: "inception_4d/1x1"
}
layer {
  name: "inception_4d/3x3_reduce"
  type: "Convolution"
  bottom: "inception_4c/output"
  top: "inception_4d/3x3_reduce"
  param {
    lr_mult: 1
    decay_mult: 1
  }
  param {
    lr_mult: 2
    decay_mult: 0
  }
  convolution_param {
    num_output: 144
    kernel_size: 1
    weight_filler {
      type: "xavier"
    }
    bias_filler {
      type: "constant"
      value: 0.2
    }
  }
}
layer {
  name: "inception_4d/relu_3x3_reduce"
  type: "ReLU"
  bottom: "inception_4d/3x3_reduce"
  top: "inception_4d/3x3_reduce"
}
layer {
  name: "inception_4d/3x3"
  type: "Convolution"
  bottom: "inception_4d/3x3_reduce"
  top: "inception_4d/3x3"
  param {
    lr_mult: 1
    decay_mult: 1
  }
  param {
    lr_mult: 2
    decay_mult: 0
  }
  convolution_param {
    num_output: 288
    pad: 1
    kernel_size: 3
    weight_filler {
      type: "xavier"
    }
    bias_filler {
      type: "constant"
      value: 0.2
    }
  }
}
layer {
  name: "inception_4d/relu_3x3"
  type: "ReLU"
  bottom: "inception_4d/3x3"
  top: "inception_4d/3x3"
}
layer {
  name: "inception_4d/5x5_reduce"
  type: "Convolution"
  bottom: "inception_4c/output"
  top: "inception_4d/5x5_reduce"
  param {
    lr_mult: 1
    decay_mult: 1
  }
  param {
    lr_mult: 2
    decay_mult: 0
  }
  convolution_param {
    num_output: 32
    kernel_size: 1
    weight_filler {
      type: "xavier"
    }
    bias_filler {
      type: "constant"
      value: 0.2
    }
  }
}
layer {
  name: "inception_4d/relu_5x5_reduce"
  type: "ReLU"
  bottom: "inception_4d/5x5_reduce"
  top: "inception_4d/5x5_reduce"
}
layer {
  name: "inception_4d/5x5"
  type: "Convolution"
  bottom: "inception_4d/5x5_reduce"
  top: "inception_4d/5x5"
  param {
    lr_mult: 1
    decay_mult: 1
  }
  param {
    lr_mult: 2
    decay_mult: 0
  }
  convolution_param {
    num_output: 64
    pad: 2
    kernel_size: 5
    weight_filler {
      type: "xavier"
    }
    bias_filler {
      type: "constant"
      value: 0.2
    }
  }
}
layer {
  name: "inception_4d/relu_5x5"
  type: "ReLU"
  bottom: "inception_4d/5x5"
  top: "inception_4d/5x5"
}
layer {
  name: "inception_4d/pool"
  type: "Pooling"
  bottom: "inception_4c/output"
  top: "inception_4d/pool"
  pooling_param {
    pool: MAX
    kernel_size: 3
    stride: 1
    pad: 1
  }
}
layer {
  name: "inception_4d/pool_proj"
  type: "Convolution"
  bottom: "inception_4d/pool"
  top: "inception_4d/pool_proj"
  param {
    lr_mult: 1
    decay_mult: 1
  }
  param {
    lr_mult: 2
    decay_mult: 0
  }
  convolution_param {
    num_output: 64
    kernel_size: 1
    weight_filler {
      type: "xavier"
    }
    bias_filler {
      type: "constant"
      value: 0.2
    }
  }
}
layer {
  name: "inception_4d/relu_pool_proj"
  type: "ReLU"
  bottom: "inception_4d/pool_proj"
  top: "inception_4d/pool_proj"
}
layer {
  name: "inception_4d/output"
  type: "Concat"
  bottom: "inception_4d/1x1"
  bottom: "inception_4d/3x3"
  bottom: "inception_4d/5x5"
  bottom: "inception_4d/pool_proj"
  top: "inception_4d/output"
}
layer {
  name: "loss2/ave_pool"
  type: "Pooling"
  bottom: "inception_4d/output"
  top: "loss2/ave_pool"
  pooling_param {
    pool: AVE
    kernel_size: 5
    stride: 3
  }
}
layer {
  name: "loss2/conv"
  type: "Convolution"
  bottom: "loss2/ave_pool"
  top: "loss2/conv"
  param {
    lr_mult: 1
    decay_mult: 1
  }
  param {
    lr_mult: 2
    decay_mult: 0
  }
  convolution_param {
    num_output: 128
    kernel_size: 1
    weight_filler {
      type: "xavier"
    }
    bias_filler {
      type: "constant"
      value: 0.2
    }
  }
}
layer {
  name: "loss2/relu_conv"
  type: "ReLU"
  bottom: "loss2/conv"
  top: "loss2/conv"
}
layer {
  name: "loss2/fc"
  type: "InnerProduct"
  bottom: "loss2/conv"
  top: "loss2/fc"
  param {
    lr_mult: 1
    decay_mult: 1
  }
  param {
    lr_mult: 2
    decay_mult: 0
  }
  inner_product_param {
    num_output: 1024
    weight_filler {
      type: "xavier"
    }
    bias_filler {
      type: "constant"
      value: 0.2
    }
  }
}
layer {
  name: "loss2/relu_fc"
  type: "ReLU"
  bottom: "loss2/fc"
  top: "loss2/fc"
}
layer {
  name: "loss2/drop_fc"
  type: "Dropout"
  bottom: "loss2/fc"
  top: "loss2/fc"
  dropout_param {
    dropout_ratio: 0.7
  }
}
layer {
  name: "loss2/classifier_kaggle"
  type: "InnerProduct"
  bottom: "loss2/fc"
  top: "loss2/classifier_kaggle"
  param {
    lr_mult: 1
    decay_mult: 1
  }
  param {
    lr_mult: 2
    decay_mult: 0
  }
  inner_product_param {
    num_output: 447
    weight_filler {
      type: "xavier"
    }
    bias_filler {
      type: "constant"
      value: 0
    }
  }
}
layer {
  name: "loss2/loss"
  type: "SoftmaxWithLoss"
  bottom: "loss2/classifier_kaggle"
  bottom: "label"
  top: "loss2/loss1"
  loss_weight: 0.3
}
layer {
  name: "inception_4e/1x1"
  type: "Convolution"
  bottom: "inception_4d/output"
  top: "inception_4e/1x1"
  param {
    lr_mult: 1
    decay_mult: 1
  }
  param {
    lr_mult: 2
    decay_mult: 0
  }
  convolution_param {
    num_output: 256
    kernel_size: 1
    weight_filler {
      type: "xavier"
    }
    bias_filler {
      type: "constant"
      value: 0.2
    }
  }
}
layer {
  name: "inception_4e/relu_1x1"
  type: "ReLU"
  bottom: "inception_4e/1x1"
  top: "inception_4e/1x1"
}
layer {
  name: "inception_4e/3x3_reduce"
  type: "Convolution"
  bottom: "inception_4d/output"
  top: "inception_4e/3x3_reduce"
  param {
    lr_mult: 1
    decay_mult: 1
  }
  param {
    lr_mult: 2
    decay_mult: 0
  }
  convolution_param {
    num_output: 160
    kernel_size: 1
    weight_filler {
      type: "xavier"
    }
    bias_filler {
      type: "constant"
      value: 0.2
    }
  }
}
layer {
  name: "inception_4e/relu_3x3_reduce"
  type: "ReLU"
  bottom: "inception_4e/3x3_reduce"
  top: "inception_4e/3x3_reduce"
}
layer {
  name: "inception_4e/3x3"
  type: "Convolution"
  bottom: "inception_4e/3x3_reduce"
  top: "inception_4e/3x3"
  param {
    lr_mult: 1
    decay_mult: 1
  }
  param {
    lr_mult: 2
    decay_mult: 0
  }
  convolution_param {
    num_output: 320
    pad: 1
    kernel_size: 3
    weight_filler {
      type: "xavier"
    }
    bias_filler {
      type: "constant"
      value: 0.2
    }
  }
}
layer {
  name: "inception_4e/relu_3x3"
  type: "ReLU"
  bottom: "inception_4e/3x3"
  top: "inception_4e/3x3"
}
layer {
  name: "inception_4e/5x5_reduce"
  type: "Convolution"
  bottom: "inception_4d/output"
  top: "inception_4e/5x5_reduce"
  param {
    lr_mult: 1
    decay_mult: 1
  }
  param {
    lr_mult: 2
    decay_mult: 0
  }
  convolution_param {
    num_output: 32
    kernel_size: 1
    weight_filler {
      type: "xavier"
    }
    bias_filler {
      type: "constant"
      value: 0.2
    }
  }
}
layer {
  name: "inception_4e/relu_5x5_reduce"
  type: "ReLU"
  bottom: "inception_4e/5x5_reduce"
  top: "inception_4e/5x5_reduce"
}
layer {
  name: "inception_4e/5x5"
  type: "Convolution"
  bottom: "inception_4e/5x5_reduce"
  top: "inception_4e/5x5"
  param {
    lr_mult: 1
    decay_mult: 1
  }
  param {
    lr_mult: 2
    decay_mult: 0
  }
  convolution_param {
    num_output: 128
    pad: 2
    kernel_size: 5
    weight_filler {
      type: "xavier"
    }
    bias_filler {
      type: "constant"
      value: 0.2
    }
  }
}
layer {
  name: "inception_4e/relu_5x5"
  type: "ReLU"
  bottom: "inception_4e/5x5"
  top: "inception_4e/5x5"
}
layer {
  name: "inception_4e/pool"
  type: "Pooling"
  bottom: "inception_4d/output"
  top: "inception_4e/po
I1230 19:51:31.944433 16687 layer_factory.hpp:74] Creating layer data
I1230 19:51:31.944481 16687 net.cpp:84] Creating Layer data
I1230 19:51:31.944494 16687 net.cpp:338] data -> data
I1230 19:51:31.944548 16687 net.cpp:338] data -> label
I1230 19:51:31.944561 16687 net.cpp:113] Setting up data
I1230 19:51:31.944569 16687 image_data_layer.cpp:36] Opening file /home/coldmanck/kaggle/label_train_full_resize_rotated.txt
I1230 19:51:31.947804 16687 image_data_layer.cpp:46] Shuffling data
I1230 19:51:31.948766 16687 image_data_layer.cpp:51] A total of 4235 images.
I1230 19:51:31.949935 16687 image_data_layer.cpp:80] output data size: 80,3,224,224
I1230 19:51:32.677269 16687 net.cpp:120] Top shape: 80 3 224 224 (12042240)
I1230 19:51:32.677366 16687 net.cpp:120] Top shape: 80 (80)
I1230 19:51:32.677423 16687 layer_factory.hpp:74] Creating layer label_data_1_split
I1230 19:51:32.677513 16687 net.cpp:84] Creating Layer label_data_1_split
I1230 19:51:32.677527 16687 net.cpp:380] label_data_1_split <- label
I1230 19:51:32.677554 16687 net.cpp:338] label_data_1_split -> label_data_1_split_0
I1230 19:51:32.677592 16687 net.cpp:338] label_data_1_split -> label_data_1_split_1
I1230 19:51:32.677625 16687 net.cpp:338] label_data_1_split -> label_data_1_split_2
I1230 19:51:32.677636 16687 net.cpp:113] Setting up label_data_1_split
I1230 19:51:32.677651 16687 net.cpp:120] Top shape: 80 (80)
I1230 19:51:32.677660 16687 net.cpp:120] Top shape: 80 (80)
I1230 19:51:32.677669 16687 net.cpp:120] Top shape: 80 (80)
I1230 19:51:32.677675 16687 layer_factory.hpp:74] Creating layer conv1/7x7_s2
I1230 19:51:32.677695 16687 net.cpp:84] Creating Layer conv1/7x7_s2
I1230 19:51:32.677703 16687 net.cpp:380] conv1/7x7_s2 <- data
I1230 19:51:32.677716 16687 net.cpp:338] conv1/7x7_s2 -> conv1/7x7_s2
I1230 19:51:32.677733 16687 net.cpp:113] Setting up conv1/7x7_s2
I1230 19:51:32.961690 16687 net.cpp:120] Top shape: 80 64 112 112 (64225280)
I1230 19:51:32.961855 16687 layer_factory.hpp:74] Creating layer conv1/relu_7x7
I1230 19:51:32.961875 16687 net.cpp:84] Creating Layer conv1/relu_7x7
I1230 19:51:32.961885 16687 net.cpp:380] conv1/relu_7x7 <- conv1/7x7_s2
I1230 19:51:32.961899 16687 net.cpp:327] conv1/relu_7x7 -> conv1/7x7_s2 (in-place)
I1230 19:51:32.961915 16687 net.cpp:113] Setting up conv1/relu_7x7
I1230 19:51:32.963678 16687 net.cpp:120] Top shape: 80 64 112 112 (64225280)
I1230 19:51:32.963698 16687 layer_factory.hpp:74] Creating layer pool1/3x3_s2
I1230 19:51:32.963718 16687 net.cpp:84] Creating Layer pool1/3x3_s2
I1230 19:51:32.963726 16687 net.cpp:380] pool1/3x3_s2 <- conv1/7x7_s2
I1230 19:51:32.963740 16687 net.cpp:338] pool1/3x3_s2 -> pool1/3x3_s2
I1230 19:51:32.963753 16687 net.cpp:113] Setting up pool1/3x3_s2
I1230 19:51:32.963968 16687 net.cpp:120] Top shape: 80 64 56 56 (16056320)
I1230 19:51:32.963984 16687 layer_factory.hpp:74] Creating layer pool1/norm1
I1230 19:51:32.964000 16687 net.cpp:84] Creating Layer pool1/norm1
I1230 19:51:32.964009 16687 net.cpp:380] pool1/norm1 <- pool1/3x3_s2
I1230 19:51:32.964018 16687 net.cpp:338] pool1/norm1 -> pool1/norm1
I1230 19:51:32.964033 16687 net.cpp:113] Setting up pool1/norm1
I1230 19:51:32.964046 16687 net.cpp:120] Top shape: 80 64 56 56 (16056320)
I1230 19:51:32.964056 16687 layer_factory.hpp:74] Creating layer conv2/3x3_reduce
I1230 19:51:32.964071 16687 net.cpp:84] Creating Layer conv2/3x3_reduce
I1230 19:51:32.964159 16687 net.cpp:380] conv2/3x3_reduce <- pool1/norm1
I1230 19:51:32.964174 16687 net.cpp:338] conv2/3x3_reduce -> conv2/3x3_reduce
I1230 19:51:32.964190 16687 net.cpp:113] Setting up conv2/3x3_reduce
I1230 19:51:32.973007 16687 net.cpp:120] Top shape: 80 64 56 56 (16056320)
I1230 19:51:32.973098 16687 layer_factory.hpp:74] Creating layer conv2/relu_3x3_reduce
I1230 19:51:32.973238 16687 net.cpp:84] Creating Layer conv2/relu_3x3_reduce
I1230 19:51:32.973250 16687 net.cpp:380] conv2/relu_3x3_reduce <- conv2/3x3_reduce
I1230 19:51:32.973265 16687 net.cpp:327] conv2/relu_3x3_reduce -> conv2/3x3_reduce (in-place)
I1230 19:51:32.973280 16687 net.cpp:113] Setting up conv2/relu_3x3_reduce
I1230 19:51:32.973368 16687 net.cpp:120] Top shape: 80 64 56 56 (16056320)
I1230 19:51:32.973378 16687 layer_factory.hpp:74] Creating layer conv2/3x3
I1230 19:51:32.973397 16687 net.cpp:84] Creating Layer conv2/3x3
I1230 19:51:32.973404 16687 net.cpp:380] conv2/3x3 <- conv2/3x3_reduce
I1230 19:51:32.973423 16687 net.cpp:338] conv2/3x3 -> conv2/3x3
I1230 19:51:32.973436 16687 net.cpp:113] Setting up conv2/3x3
I1230 19:51:32.977368 16687 net.cpp:120] Top shape: 80 192 56 56 (48168960)
I1230 19:51:32.977396 16687 layer_factory.hpp:74] Creating layer conv2/relu_3x3
I1230 19:51:32.977408 16687 net.cpp:84] Creating Layer conv2/relu_3x3
I1230 19:51:32.977416 16687 net.cpp:380] conv2/relu_3x3 <- conv2/3x3
I1230 19:51:32.977427 16687 net.cpp:327] conv2/relu_3x3 -> conv2/3x3 (in-place)
I1230 19:51:32.977438 16687 net.cpp:113] Setting up conv2/relu_3x3
I1230 19:51:32.979075 16687 net.cpp:120] Top shape: 80 192 56 56 (48168960)
I1230 19:51:32.979095 16687 layer_factory.hpp:74] Creating layer conv2/norm2
I1230 19:51:32.979110 16687 net.cpp:84] Creating Layer conv2/norm2
I1230 19:51:32.979135 16687 net.cpp:380] conv2/norm2 <- conv2/3x3
I1230 19:51:32.979161 16687 net.cpp:338] conv2/norm2 -> conv2/norm2
I1230 19:51:32.979174 16687 net.cpp:113] Setting up conv2/norm2
I1230 19:51:32.979187 16687 net.cpp:120] Top shape: 80 192 56 56 (48168960)
I1230 19:51:32.979195 16687 layer_factory.hpp:74] Creating layer pool2/3x3_s2
I1230 19:51:32.979207 16687 net.cpp:84] Creating Layer pool2/3x3_s2
I1230 19:51:32.979214 16687 net.cpp:380] pool2/3x3_s2 <- conv2/norm2
I1230 19:51:32.979225 16687 net.cpp:338] pool2/3x3_s2 -> pool2/3x3_s2
I1230 19:51:32.979236 16687 net.cpp:113] Setting up pool2/3x3_s2
I1230 19:51:32.979382 16687 net.cpp:120] Top shape: 80 192 28 28 (12042240)
I1230 19:51:32.979395 16687 layer_factory.hpp:74] Creating layer pool2/3x3_s2_pool2/3x3_s2_0_split
I1230 19:51:32.979408 16687 net.cpp:84] Creating Layer pool2/3x3_s2_pool2/3x3_s2_0_split
I1230 19:51:32.979414 16687 net.cpp:380] pool2/3x3_s2_pool2/3x3_s2_0_split <- pool2/3x3_s2
I1230 19:51:32.979426 16687 net.cpp:338] pool2/3x3_s2_pool2/3x3_s2_0_split -> pool2/3x3_s2_pool2/3x3_s2_0_split_0
I1230 19:51:32.979439 16687 net.cpp:338] pool2/3x3_s2_pool2/3x3_s2_0_split -> pool2/3x3_s2_pool2/3x3_s2_0_split_1
I1230 19:51:32.979450 16687 net.cpp:338] pool2/3x3_s2_pool2/3x3_s2_0_split -> pool2/3x3_s2_pool2/3x3_s2_0_split_2
I1230 19:51:32.979461 16687 net.cpp:338] pool2/3x3_s2_pool2/3x3_s2_0_split -> pool2/3x3_s2_pool2/3x3_s2_0_split_3
I1230 19:51:32.979471 16687 net.cpp:113] Setting up pool2/3x3_s2_pool2/3x3_s2_0_split
I1230 19:51:32.979483 16687 net.cpp:120] Top shape: 80 192 28 28 (12042240)
I1230 19:51:32.979491 16687 net.cpp:120] Top shape: 80 192 28 28 (12042240)
I1230 19:51:32.979499 16687 net.cpp:120] Top shape: 80 192 28 28 (12042240)
I1230 19:51:32.979507 16687 net.cpp:120] Top shape: 80 192 28 28 (12042240)
I1230 19:51:32.979514 16687 layer_factory.hpp:74] Creating layer inception_3a/1x1
I1230 19:51:32.979852 16687 net.cpp:84] Creating Layer inception_3a/1x1
I1230 19:51:32.979861 16687 net.cpp:380] inception_3a/1x1 <- pool2/3x3_s2_pool2/3x3_s2_0_split_0
I1230 19:51:32.979872 16687 net.cpp:338] inception_3a/1x1 -> inception_3a/1x1
I1230 19:51:32.979887 16687 net.cpp:113] Setting up inception_3a/1x1
I1230 19:51:32.982038 16687 net.cpp:120] Top shape: 80 64 28 28 (4014080)
I1230 19:51:32.982060 16687 layer_factory.hpp:74] Creating layer inception_3a/relu_1x1
I1230 19:51:32.982071 16687 net.cpp:84] Creating Layer inception_3a/relu_1x1
I1230 19:51:32.982079 16687 net.cpp:380] inception_3a/relu_1x1 <- inception_3a/1x1
I1230 19:51:32.982091 16687 net.cpp:327] inception_3a/relu_1x1 -> inception_3a/1x1 (in-place)
I1230 19:51:32.982101 16687 net.cpp:113] Setting up inception_3a/relu_1x1
I1230 19:51:32.982481 16687 net.cpp:120] Top shape: 80 64 28 28 (4014080)
I1230 19:51:32.982496 16687 layer_factory.hpp:74] Creating layer inception_3a/3x3_reduce
I1230 19:51:32.982507 16687 net.cpp:84] Creating Layer inception_3a/3x3_reduce
I1230 19:51:32.982516 16687 net.cpp:380] inception_3a/3x3_reduce <- pool2/3x3_s2_pool2/3x3_s2_0_split_1
I1230 19:51:32.982527 16687 net.cpp:338] inception_3a/3x3_reduce -> inception_3a/3x3_reduce
I1230 19:51:32.982538 16687 net.cpp:113] Setting up inception_3a/3x3_reduce
I1230 19:51:32.984431 16687 net.cpp:120] Top shape: 80 96 28 28 (6021120)
I1230 19:51:32.984455 16687 layer_factory.hpp:74] Creating layer inception_3a/relu_3x3_reduce
I1230 19:51:32.984586 16687 net.cpp:84] Creating Layer inception_3a/relu_3x3_reduce
I1230 19:51:32.984601 16687 net.cpp:380] inception_3a/relu_3x3_reduce <- inception_3a/3x3_reduce
I1230 19:51:32.984614 16687 net.cpp:327] inception_3a/relu_3x3_reduce -> inception_3a/3x3_reduce (in-place)
I1230 19:51:32.984625 16687 net.cpp:113] Setting up inception_3a/relu_3x3_reduce
I1230 19:51:32.984714 16687 net.cpp:120] Top shape: 80 96 28 28 (6021120)
I1230 19:51:32.984724 16687 layer_factory.hpp:74] Creating layer inception_3a/3x3
I1230 19:51:32.984737 16687 net.cpp:84] Creating Layer inception_3a/3x3
I1230 19:51:32.984745 16687 net.cpp:380] inception_3a/3x3 <- inception_3a/3x3_reduce
I1230 19:51:32.991922 16687 net.cpp:338] inception_3a/3x3 -> inception_3a/3x3
I1230 19:51:32.992048 16687 net.cpp:113] Setting up inception_3a/3x3
I1230 19:51:33.002442 16687 net.cpp:120] Top shape: 80 128 28 28 (8028160)
I1230 19:51:33.002475 16687 layer_factory.hpp:74] Creating layer inception_3a/relu_3x3
I1230 19:51:33.002491 16687 net.cpp:84] Creating Layer inception_3a/relu_3x3
I1230 19:51:33.002499 16687 net.cpp:380] inception_3a/relu_3x3 <- inception_3a/3x3
I1230 19:51:33.002513 16687 net.cpp:327] inception_3a/relu_3x3 -> inception_3a/3x3 (in-place)
I1230 19:51:33.002524 16687 net.cpp:113] Setting up inception_3a/relu_3x3
I1230 19:51:33.004148 16687 net.cpp:120] Top shape: 80 128 28 28 (8028160)
I1230 19:51:33.004165 16687 layer_factory.hpp:74] Creating layer inception_3a/5x5_reduce
I1230 19:51:33.004182 16687 net.cpp:84] Creating Layer inception_3a/5x5_reduce
I1230 19:51:33.004191 16687 net.cpp:380] inception_3a/5x5_reduce <- pool2/3x3_s2_pool2/3x3_s2_0_split_2
I1230 19:51:33.004202 16687 net.cpp:338] inception_3a/5x5_reduce -> inception_3a/5x5_reduce
I1230 19:51:33.004218 16687 net.cpp:113] Setting up inception_3a/5x5_reduce
I1230 19:51:33.006464 16687 net.cpp:120] Top shape: 80 16 28 28 (1003520)
I1230 19:51:33.006486 16687 layer_factory.hpp:74] Creating layer inception_3a/relu_5x5_reduce
I1230 19:51:33.006499 16687 net.cpp:84] Creating Layer inception_3a/relu_5x5_reduce
I1230 19:51:33.006506 16687 net.cpp:380] inception_3a/relu_5x5_reduce <- inception_3a/5x5_reduce
I1230 19:51:33.006517 16687 net.cpp:327] inception_3a/relu_5x5_reduce -> inception_3a/5x5_reduce (in-place)
I1230 19:51:33.006527 16687 net.cpp:113] Setting up inception_3a/relu_5x5_reduce
I1230 19:51:33.006618 16687 net.cpp:120] Top shape: 80 16 28 28 (1003520)
I1230 19:51:33.006629 16687 layer_factory.hpp:74] Creating layer inception_3a/5x5
I1230 19:51:33.006641 16687 net.cpp:84] Creating Layer inception_3a/5x5
I1230 19:51:33.006649 16687 net.cpp:380] inception_3a/5x5 <- inception_3a/5x5_reduce
I1230 19:51:33.006661 16687 net.cpp:338] inception_3a/5x5 -> inception_3a/5x5
I1230 19:51:33.006672 16687 net.cpp:113] Setting up inception_3a/5x5
I1230 19:51:33.008270 16687 net.cpp:120] Top shape: 80 32 28 28 (2007040)
I1230 19:51:33.008290 16687 layer_factory.hpp:74] Creating layer inception_3a/relu_5x5
I1230 19:51:33.008303 16687 net.cpp:84] Creating Layer inception_3a/relu_5x5
I1230 19:51:33.008311 16687 net.cpp:380] inception_3a/relu_5x5 <- inception_3a/5x5
I1230 19:51:33.008322 16687 net.cpp:327] inception_3a/relu_5x5 -> inception_3a/5x5 (in-place)
I1230 19:51:33.008332 16687 net.cpp:113] Setting up inception_3a/relu_5x5
I1230 19:51:33.008420 16687 net.cpp:120] Top shape: 80 32 28 28 (2007040)
I1230 19:51:33.008430 16687 layer_factory.hpp:74] Creating layer inception_3a/pool
I1230 19:51:33.008438 16687 layer_factory.cpp:56] CUDNN does not support padding or multiple tops. Using Caffe's own pooling layer.
I1230 19:51:33.008450 16687 net.cpp:84] Creating Layer inception_3a/pool
I1230 19:51:33.008458 16687 net.cpp:380] inception_3a/pool <- pool2/3x3_s2_pool2/3x3_s2_0_split_3
I1230 19:51:33.008468 16687 net.cpp:338] inception_3a/pool -> inception_3a/pool
I1230 19:51:33.008481 16687 net.cpp:113] Setting up inception_3a/pool
I1230 19:51:33.008494 16687 net.cpp:120] Top shape: 80 192 28 28 (12042240)
I1230 19:51:33.008502 16687 layer_factory.hpp:74] Creating layer inception_3a/pool_proj
I1230 19:51:33.008517 16687 net.cpp:84] Creating Layer inception_3a/pool_proj
I1230 19:51:33.008524 16687 net.cpp:380] inception_3a/pool_proj <- inception_3a/pool
I1230 19:51:33.008536 16687 net.cpp:338] inception_3a/pool_proj -> inception_3a/pool_proj
I1230 19:51:33.008548 16687 net.cpp:113] Setting up inception_3a/pool_proj
I1230 19:51:33.012193 16687 net.cpp:120] Top shape: 80 32 28 28 (2007040)
I1230 19:51:33.012224 16687 layer_factory.hpp:74] Creating layer inception_3a/relu_pool_proj
I1230 19:51:33.012235 16687 net.cpp:84] Creating Layer inception_3a/relu_pool_proj
I1230 19:51:33.012243 16687 net.cpp:380] inception_3a/relu_pool_proj <- inception_3a/pool_proj
I1230 19:51:33.012260 16687 net.cpp:327] inception_3a/relu_pool_proj -> inception_3a/pool_proj (in-place)
I1230 19:51:33.012281 16687 net.cpp:113] Setting up inception_3a/relu_pool_proj
I1230 19:51:33.012373 16687 net.cpp:120] Top shape: 80 32 28 28 (2007040)
I1230 19:51:33.012382 16687 layer_factory.hpp:74] Creating layer inception_3a/output
I1230 19:51:33.012392 16687 net.cpp:84] Creating Layer inception_3a/output
I1230 19:51:33.012399 16687 net.cpp:380] inception_3a/output <- inception_3a/1x1
I1230 19:51:33.012408 16687 net.cpp:380] inception_3a/output <- inception_3a/3x3
I1230 19:51:33.012424 16687 net.cpp:380] inception_3a/output <- inception_3a/5x5
I1230 19:51:33.012431 16687 net.cpp:380] inception_3a/output <- inception_3a/pool_proj
I1230 19:51:33.012440 16687 net.cpp:338] inception_3a/output -> inception_3a/output
I1230 19:51:33.012451 16687 net.cpp:113] Setting up inception_3a/output
I1230 19:51:33.012470 16687 net.cpp:120] Top shape: 80 256 28 28 (16056320)
I1230 19:51:33.012478 16687 layer_factory.hpp:74] Creating layer inception_3a/output_inception_3a/output_0_split
I1230 19:51:33.012490 16687 net.cpp:84] Creating Layer inception_3a/output_inception_3a/output_0_split
I1230 19:51:33.012496 16687 net.cpp:380] inception_3a/output_inception_3a/output_0_split <- inception_3a/output
I1230 19:51:33.012506 16687 net.cpp:338] inception_3a/output_inception_3a/output_0_split -> inception_3a/output_inception_3a/output_0_split_0
I1230 19:51:33.012516 16687 net.cpp:338] inception_3a/output_inception_3a/output_0_split -> inception_3a/output_inception_3a/output_0_split_1
I1230 19:51:33.012528 16687 net.cpp:338] inception_3a/output_inception_3a/output_0_split -> inception_3a/output_inception_3a/output_0_split_2
I1230 19:51:33.012539 16687 net.cpp:338] inception_3a/output_inception_3a/output_0_split -> inception_3a/output_inception_3a/output_0_split_3
I1230 19:51:33.012548 16687 net.cpp:113] Setting up inception_3a/output_inception_3a/output_0_split
I1230 19:51:33.012560 16687 net.cpp:120] Top shape: 80 256 28 28 (16056320)
I1230 19:51:33.012568 16687 net.cpp:120] Top shape: 80 256 28 28 (16056320)
I1230 19:51:33.012576 16687 net.cpp:120] Top shape: 80 256 28 28 (16056320)
I1230 19:51:33.012584 16687 net.cpp:120] Top shape: 80 256 28 28 (16056320)
I1230 19:51:33.012591 16687 layer_factory.hpp:74] Creating layer inception_3b/1x1
I1230 19:51:33.012605 16687 net.cpp:84] Creating Layer inception_3b/1x1
I1230 19:51:33.012614 16687 net.cpp:380] inception_3b/1x1 <- inception_3a/output_inception_3a/output_0_split_0
I1230 19:51:33.012622 16687 net.cpp:338] inception_3b/1x1 -> inception_3b/1x1
I1230 19:51:33.012634 16687 net.cpp:113] Setting up inception_3b/1x1
I1230 19:51:33.015220 16687 net.cpp:120] Top shape: 80 128 28 28 (8028160)
I1230 19:51:33.015243 16687 layer_factory.hpp:74] Creating layer inception_3b/relu_1x1
I1230 19:51:33.015254 16687 net.cpp:84] Creating Layer inception_3b/relu_1x1
I1230 19:51:33.015261 16687 net.cpp:380] inception_3b/relu_1x1 <- inception_3b/1x1
I1230 19:51:33.015275 16687 net.cpp:327] inception_3b/relu_1x1 -> inception_3b/1x1 (in-place)
I1230 19:51:33.015286 16687 net.cpp:113] Setting up inception_3b/relu_1x1
I1230 19:51:33.016643 16687 net.cpp:120] Top shape: 80 128 28 28 (8028160)
I1230 19:51:33.016659 16687 layer_factory.hpp:74] Creating layer inception_3b/3x3_reduce
I1230 19:51:33.016674 16687 net.cpp:84] Creating Layer inception_3b/3x3_reduce
I1230 19:51:33.016681 16687 net.cpp:380] inception_3b/3x3_reduce <- inception_3a/output_inception_3a/output_0_split_1
I1230 19:51:33.016693 16687 net.cpp:338] inception_3b/3x3_reduce -> inception_3b/3x3_reduce
I1230 19:51:33.016705 16687 net.cpp:113] Setting up inception_3b/3x3_reduce
I1230 19:51:33.018617 16687 net.cpp:120] Top shape: 80 128 28 28 (8028160)
I1230 19:51:33.018641 16687 layer_factory.hpp:74] Creating layer inception_3b/relu_3x3_reduce
I1230 19:51:33.018654 16687 net.cpp:84] Creating Layer inception_3b/relu_3x3_reduce
I1230 19:51:33.018662 16687 net.cpp:380] inception_3b/relu_3x3_reduce <- inception_3b/3x3_reduce
I1230 19:51:33.018676 16687 net.cpp:327] inception_3b/relu_3x3_reduce -> inception_3b/3x3_reduce (in-place)
I1230 19:51:33.018703 16687 net.cpp:113] Setting up inception_3b/relu_3x3_reduce
I1230 19:51:33.018801 16687 net.cpp:120] Top shape: 80 128 28 28 (8028160)
I1230 19:51:33.018810 16687 layer_factory.hpp:74] Creating layer inception_3b/3x3
I1230 19:51:33.018829 16687 net.cpp:84] Creating Layer inception_3b/3x3
I1230 19:51:33.018837 16687 net.cpp:380] inception_3b/3x3 <- inception_3b/3x3_reduce
I1230 19:51:33.018849 16687 net.cpp:338] inception_3b/3x3 -> inception_3b/3x3
I1230 19:51:33.018862 16687 net.cpp:113] Setting up inception_3b/3x3
I1230 19:51:33.023478 16687 net.cpp:120] Top shape: 80 192 28 28 (12042240)
I1230 19:51:33.023516 16687 layer_factory.hpp:74] Creating layer inception_3b/relu_3x3
I1230 19:51:33.023529 16687 net.cpp:84] Creating Layer inception_3b/relu_3x3
I1230 19:51:33.023538 16687 net.cpp:380] inception_3b/relu_3x3 <- inception_3b/3x3
I1230 19:51:33.023548 16687 net.cpp:327] inception_3b/relu_3x3 -> inception_3b/3x3 (in-place)
I1230 19:51:33.023560 16687 net.cpp:113] Setting up inception_3b/relu_3x3
I1230 19:51:33.023658 16687 net.cpp:120] Top shape: 80 192 28 28 (12042240)
I1230 19:51:33.023666 16687 layer_factory.hpp:74] Creating layer inception_3b/5x5_reduce
I1230 19:51:33.023680 16687 net.cpp:84] Creating Layer inception_3b/5x5_reduce
I1230 19:51:33.023689 16687 net.cpp:380] inception_3b/5x5_reduce <- inception_3a/output_inception_3a/output_0_split_2
I1230 19:51:33.023701 16687 net.cpp:338] inception_3b/5x5_reduce -> inception_3b/5x5_reduce
I1230 19:51:33.023713 16687 net.cpp:113] Setting up inception_3b/5x5_reduce
I1230 19:51:33.025173 16687 net.cpp:120] Top shape: 80 32 28 28 (2007040)
I1230 19:51:33.025197 16687 layer_factory.hpp:74] Creating layer inception_3b/relu_5x5_reduce
I1230 19:51:33.025209 16687 net.cpp:84] Creating Layer inception_3b/relu_5x5_reduce
I1230 19:51:33.025218 16687 net.cpp:380] inception_3b/relu_5x5_reduce <- inception_3b/5x5_reduce
I1230 19:51:33.025228 16687 net.cpp:327] inception_3b/relu_5x5_reduce -> inception_3b/5x5_reduce (in-place)
I1230 19:51:33.025238 16687 net.cpp:113] Setting up inception_3b/relu_5x5_reduce
I1230 19:51:33.025328 16687 net.cpp:120] Top shape: 80 32 28 28 (2007040)
I1230 19:51:33.025339 16687 layer_factory.hpp:74] Creating layer inception_3b/5x5
I1230 19:51:33.025353 16687 net.cpp:84] Creating Layer inception_3b/5x5
I1230 19:51:33.025362 16687 net.cpp:380] inception_3b/5x5 <- inception_3b/5x5_reduce
I1230 19:51:33.025374 16687 net.cpp:338] inception_3b/5x5 -> inception_3b/5x5
I1230 19:51:33.025391 16687 net.cpp:113] Setting up inception_3b/5x5
I1230 19:51:33.028460 16687 net.cpp:120] Top shape: 80 96 28 28 (6021120)
I1230 19:51:33.028481 16687 layer_factory.hpp:74] Creating layer inception_3b/relu_5x5
I1230 19:51:33.028493 16687 net.cpp:84] Creating Layer inception_3b/relu_5x5
I1230 19:51:33.028501 16687 net.cpp:380] inception_3b/relu_5x5 <- inception_3b/5x5
I1230 19:51:33.028513 16687 net.cpp:327] inception_3b/relu_5x5 -> inception_3b/5x5 (in-place)
I1230 19:51:33.028524 16687 net.cpp:113] Setting up inception_3b/relu_5x5
I1230 19:51:33.038683 16687 net.cpp:120] Top shape: 80 96 28 28 (6021120)
I1230 19:51:33.038715 16687 layer_factory.hpp:74] Creating layer inception_3b/pool
I1230 19:51:33.038727 16687 layer_factory.cpp:56] CUDNN does not support padding or multiple tops. Using Caffe's own pooling layer.
I1230 19:51:33.038744 16687 net.cpp:84] Creating Layer inception_3b/pool
I1230 19:51:33.038755 16687 net.cpp:380] inception_3b/pool <- inception_3a/output_inception_3a/output_0_split_3
I1230 19:51:33.038774 16687 net.cpp:338] inception_3b/pool -> inception_3b/pool
I1230 19:51:33.038794 16687 net.cpp:113] Setting up inception_3b/pool
I1230 19:51:33.038810 16687 net.cpp:120] Top shape: 80 256 28 28 (16056320)
I1230 19:51:33.038817 16687 layer_factory.hpp:74] Creating layer inception_3b/pool_proj
I1230 19:51:33.038832 16687 net.cpp:84] Creating Layer inception_3b/pool_proj
I1230 19:51:33.038841 16687 net.cpp:380] inception_3b/pool_proj <- inception_3b/pool
I1230 19:51:33.038853 16687 net.cpp:338] inception_3b/pool_proj -> inception_3b/pool_proj
I1230 19:51:33.038895 16687 net.cpp:113] Setting up inception_3b/pool_proj
I1230 19:51:33.041146 16687 net.cpp:120] Top shape: 80 64 28 28 (4014080)
I1230 19:51:33.041172 16687 layer_factory.hpp:74] Creating layer inception_3b/relu_pool_proj
I1230 19:51:33.041189 16687 net.cpp:84] Creating Layer inception_3b/relu_pool_proj
I1230 19:51:33.041198 16687 net.cpp:380] inception_3b/relu_pool_proj <- inception_3b/pool_proj
I1230 19:51:33.041208 16687 net.cpp:327] inception_3b/relu_pool_proj -> inception_3b/pool_proj (in-place)
I1230 19:51:33.041219 16687 net.cpp:113] Setting up inception_3b/relu_pool_proj
I1230 19:51:33.041316 16687 net.cpp:120] Top shape: 80 64 28 28 (4014080)
I1230 19:51:33.041326 16687 layer_factory.hpp:74] Creating layer inception_3b/output
I1230 19:51:33.041337 16687 net.cpp:84] Creating Layer inception_3b/output
I1230 19:51:33.041344 16687 net.cpp:380] inception_3b/output <- inception_3b/1x1
I1230 19:51:33.041353 16687 net.cpp:380] inception_3b/output <- inception_3b/3x3
I1230 19:51:33.041363 16687 net.cpp:380] inception_3b/output <- inception_3b/5x5
I1230 19:51:33.041369 16687 net.cpp:380] inception_3b/output <- inception_3b/pool_proj
I1230 19:51:33.041381 16687 net.cpp:338] inception_3b/output -> inception_3b/output
I1230 19:51:33.041391 16687 net.cpp:113] Setting up inception_3b/output
I1230 19:51:33.041404 16687 net.cpp:120] Top shape: 80 480 28 28 (30105600)
I1230 19:51:33.041411 16687 layer_factory.hpp:74] Creating layer pool3/3x3_s2
I1230 19:51:33.041421 16687 net.cpp:84] Creating Layer pool3/3x3_s2
I1230 19:51:33.041429 16687 net.cpp:380] pool3/3x3_s2 <- inception_3b/output
I1230 19:51:33.041440 16687 net.cpp:338] pool3/3x3_s2 -> pool3/3x3_s2
I1230 19:51:33.041450 16687 net.cpp:113] Setting up pool3/3x3_s2
I1230 19:51:33.041539 16687 net.cpp:120] Top shape: 80 480 14 14 (7526400)
I1230 19:51:33.041549 16687 layer_factory.hpp:74] Creating layer pool3/3x3_s2_pool3/3x3_s2_0_split
I1230 19:51:33.041559 16687 net.cpp:84] Creating Layer pool3/3x3_s2_pool3/3x3_s2_0_split
I1230 19:51:33.041566 16687 net.cpp:380] pool3/3x3_s2_pool3/3x3_s2_0_split <- pool3/3x3_s2
I1230 19:51:33.041575 16687 net.cpp:338] pool3/3x3_s2_pool3/3x3_s2_0_split -> pool3/3x3_s2_pool3/3x3_s2_0_split_0
I1230 19:51:33.041586 16687 net.cpp:338] pool3/3x3_s2_pool3/3x3_s2_0_split -> pool3/3x3_s2_pool3/3x3_s2_0_split_1
I1230 19:51:33.041596 16687 net.cpp:338] pool3/3x3_s2_pool3/3x3_s2_0_split -> pool3/3x3_s2_pool3/3x3_s2_0_split_2
I1230 19:51:33.041606 16687 net.cpp:338] pool3/3x3_s2_pool3/3x3_s2_0_split -> pool3/3x3_s2_pool3/3x3_s2_0_split_3
I1230 19:51:33.041616 16687 net.cpp:113] Setting up pool3/3x3_s2_pool3/3x3_s2_0_split
I1230 19:51:33.041627 16687 net.cpp:120] Top shape: 80 480 14 14 (7526400)
I1230 19:51:33.041636 16687 net.cpp:120] Top shape: 80 480 14 14 (7526400)
I1230 19:51:33.041645 16687 net.cpp:120] Top shape: 80 480 14 14 (7526400)
I1230 19:51:33.041652 16687 net.cpp:120] Top shape: 80 480 14 14 (7526400)
I1230 19:51:33.041658 16687 layer_factory.hpp:74] Creating layer inception_4a/1x1
I1230 19:51:33.041673 16687 net.cpp:84] Creating Layer inception_4a/1x1
I1230 19:51:33.041681 16687 net.cpp:380] inception_4a/1x1 <- pool3/3x3_s2_pool3/3x3_s2_0_split_0
I1230 19:51:33.041692 16687 net.cpp:338] inception_4a/1x1 -> inception_4a/1x1
I1230 19:51:33.041703 16687 net.cpp:113] Setting up inception_4a/1x1
I1230 19:51:33.044983 16687 net.cpp:120] Top shape: 80 192 14 14 (3010560)
I1230 19:51:33.045008 16687 layer_factory.hpp:74] Creating layer inception_4a/relu_1x1
I1230 19:51:33.045020 16687 net.cpp:84] Creating Layer inception_4a/relu_1x1
I1230 19:51:33.045028 16687 net.cpp:380] inception_4a/relu_1x1 <- inception_4a/1x1
I1230 19:51:33.045042 16687 net.cpp:327] inception_4a/relu_1x1 -> inception_4a/1x1 (in-place)
I1230 19:51:33.045053 16687 net.cpp:113] Setting up inception_4a/relu_1x1
I1230 19:51:33.046345 16687 net.cpp:120] Top shape: 80 192 14 14 (3010560)
I1230 19:51:33.046363 16687 layer_factory.hpp:74] Creating layer inception_4a/3x3_reduce
I1230 19:51:33.046378 16687 net.cpp:84] Creating Layer inception_4a/3x3_reduce
I1230 19:51:33.046397 16687 net.cpp:380] inception_4a/3x3_reduce <- pool3/3x3_s2_pool3/3x3_s2_0_split_1
I1230 19:51:33.046421 16687 net.cpp:338] inception_4a/3x3_reduce -> inception_4a/3x3_reduce
I1230 19:51:33.046434 16687 net.cpp:113] Setting up inception_4a/3x3_reduce
I1230 19:51:33.049082 16687 net.cpp:120] Top shape: 80 96 14 14 (1505280)
I1230 19:51:33.049114 16687 layer_factory.hpp:74] Creating layer inception_4a/relu_3x3_reduce
I1230 19:51:33.049125 16687 net.cpp:84] Creating Layer inception_4a/relu_3x3_reduce
I1230 19:51:33.049134 16687 net.cpp:380] inception_4a/relu_3x3_reduce <- inception_4a/3x3_reduce
I1230 19:51:33.049144 16687 net.cpp:327] inception_4a/relu_3x3_reduce -> inception_4a/3x3_reduce (in-place)
I1230 19:51:33.049154 16687 net.cpp:113] Setting up inception_4a/relu_3x3_reduce
I1230 19:51:33.049247 16687 net.cpp:120] Top shape: 80 96 14 14 (1505280)
I1230 19:51:33.049255 16687 layer_factory.hpp:74] Creating layer inception_4a/3x3
I1230 19:51:33.049266 16687 net.cpp:84] Creating Layer inception_4a/3x3
I1230 19:51:33.049273 16687 net.cpp:380] inception_4a/3x3 <- inception_4a/3x3_reduce
I1230 19:51:33.049286 16687 net.cpp:338] inception_4a/3x3 -> inception_4a/3x3
I1230 19:51:33.049298 16687 net.cpp:113] Setting up inception_4a/3x3
I1230 19:51:33.053366 16687 net.cpp:120] Top shape: 80 208 14 14 (3261440)
I1230 19:51:33.053405 16687 layer_factory.hpp:74] Creating layer inception_4a/relu_3x3
I1230 19:51:33.053419 16687 net.cpp:84] Creating Layer inception_4a/relu_3x3
I1230 19:51:33.053428 16687 net.cpp:380] inception_4a/relu_3x3 <- inception_4a/3x3
I1230 19:51:33.053438 16687 net.cpp:327] inception_4a/relu_3x3 -> inception_4a/3x3 (in-place)
I1230 19:51:33.053453 16687 net.cpp:113] Setting up inception_4a/relu_3x3
I1230 19:51:33.053542 16687 net.cpp:120] Top shape: 80 208 14 14 (3261440)
I1230 19:51:33.053555 16687 layer_factory.hpp:74] Creating layer inception_4a/5x5_reduce
I1230 19:51:33.053567 16687 net.cpp:84] Creating Layer inception_4a/5x5_reduce
I1230 19:51:33.053576 16687 net.cpp:380] inception_4a/5x5_reduce <- pool3/3x3_s2_pool3/3x3_s2_0_split_2
I1230 19:51:33.053587 16687 net.cpp:338] inception_4a/5x5_reduce -> inception_4a/5x5_reduce
I1230 19:51:33.053599 16687 net.cpp:113] Setting up inception_4a/5x5_reduce
I1230 19:51:33.055186 16687 net.cpp:120] Top shape: 80 16 14 14 (250880)
I1230 19:51:33.055212 16687 layer_factory.hpp:74] Creating layer inception_4a/relu_5x5_reduce
I1230 19:51:33.055223 16687 net.cpp:84] Creating Layer inception_4a/relu_5x5_reduce
I1230 19:51:33.055233 16687 net.cpp:380] inception_4a/relu_5x5_reduce <- inception_4a/5x5_reduce
I1230 19:51:33.055243 16687 net.cpp:327] inception_4a/relu_5x5_reduce -> inception_4a/5x5_reduce (in-place)
I1230 19:51:33.055254 16687 net.cpp:113] Setting up inception_4a/relu_5x5_reduce
I1230 19:51:33.055346 16687 net.cpp:120] Top shape: 80 16 14 14 (250880)
I1230 19:51:33.055356 16687 layer_factory.hpp:74] Creating layer inception_4a/5x5
I1230 19:51:33.055371 16687 net.cpp:84] Creating Layer inception_4a/5x5
I1230 19:51:33.055379 16687 net.cpp:380] inception_4a/5x5 <- inception_4a/5x5_reduce
I1230 19:51:33.055389 16687 net.cpp:338] inception_4a/5x5 -> inception_4a/5x5
I1230 19:51:33.055402 16687 net.cpp:113] Setting up inception_4a/5x5
I1230 19:51:33.064482 16687 net.cpp:120] Top shape: 80 48 14 14 (752640)
I1230 19:51:33.064540 16687 layer_factory.hpp:74] Creating layer inception_4a/relu_5x5
I1230 19:51:33.064558 16687 net.cpp:84] Creating Layer inception_4a/relu_5x5
I1230 19:51:33.064569 16687 net.cpp:380] inception_4a/relu_5x5 <- inception_4a/5x5
I1230 19:51:33.064584 16687 net.cpp:327] inception_4a/relu_5x5 -> inception_4a/5x5 (in-place)
I1230 19:51:33.064599 16687 net.cpp:113] Setting up inception_4a/relu_5x5
I1230 19:51:33.066222 16687 net.cpp:120] Top shape: 80 48 14 14 (752640)
I1230 19:51:33.066243 16687 layer_factory.hpp:74] Creating layer inception_4a/pool
I1230 19:51:33.066252 16687 layer_factory.cpp:56] CUDNN does not support padding or multiple tops. Using Caffe's own pooling layer.
I1230 19:51:33.066278 16687 net.cpp:84] Creating Layer inception_4a/pool
I1230 19:51:33.066303 16687 net.cpp:380] inception_4a/pool <- pool3/3x3_s2_pool3/3x3_s2_0_split_3
I1230 19:51:33.066313 16687 net.cpp:338] inception_4a/pool -> inception_4a/pool
I1230 19:51:33.066328 16687 net.cpp:113] Setting up inception_4a/pool
I1230 19:51:33.066341 16687 net.cpp:120] Top shape: 80 480 14 14 (7526400)
I1230 19:51:33.066349 16687 layer_factory.hpp:74] Creating layer inception_4a/pool_proj
I1230 19:51:33.066365 16687 net.cpp:84] Creating Layer inception_4a/pool_proj
I1230 19:51:33.066376 16687 net.cpp:380] inception_4a/pool_proj <- inception_4a/pool
I1230 19:51:33.066387 16687 net.cpp:338] inception_4a/pool_proj -> inception_4a/pool_proj
I1230 19:51:33.066400 16687 net.cpp:113] Setting up inception_4a/pool_proj
I1230 19:51:33.068065 16687 net.cpp:120] Top shape: 80 64 14 14 (1003520)
I1230 19:51:33.068086 16687 layer_factory.hpp:74] Creating layer inception_4a/relu_pool_proj
I1230 19:51:33.068097 16687 net.cpp:84] Creating Layer inception_4a/relu_pool_proj
I1230 19:51:33.068106 16687 net.cpp:380] inception_4a/relu_pool_proj <- inception_4a/pool_proj
I1230 19:51:33.068119 16687 net.cpp:327] inception_4a/relu_pool_proj -> inception_4a/pool_proj (in-place)
I1230 19:51:33.068130 16687 net.cpp:113] Setting up inception_4a/relu_pool_proj
I1230 19:51:33.068228 16687 net.cpp:120] Top shape: 80 64 14 14 (1003520)
I1230 19:51:33.068238 16687 layer_factory.hpp:74] Creating layer inception_4a/output
I1230 19:51:33.068248 16687 net.cpp:84] Creating Layer inception_4a/output
I1230 19:51:33.068254 16687 net.cpp:380] inception_4a/output <- inception_4a/1x1
I1230 19:51:33.068264 16687 net.cpp:380] inception_4a/output <- inception_4a/3x3
I1230 19:51:33.068271 16687 net.cpp:380] inception_4a/output <- inception_4a/5x5
I1230 19:51:33.068279 16687 net.cpp:380] inception_4a/output <- inception_4a/pool_proj
I1230 19:51:33.068289 16687 net.cpp:338] inception_4a/output -> inception_4a/output
I1230 19:51:33.068298 16687 net.cpp:113] Setting up inception_4a/output
I1230 19:51:33.068311 16687 net.cpp:120] Top shape: 80 512 14 14 (8028160)
I1230 19:51:33.068320 16687 layer_factory.hpp:74] Creating layer inception_4a/output_inception_4a/output_0_split
I1230 19:51:33.068331 16687 net.cpp:84] Creating Layer inception_4a/output_inception_4a/output_0_split
I1230 19:51:33.068337 16687 net.cpp:380] inception_4a/output_inception_4a/output_0_split <- inception_4a/output
I1230 19:51:33.068349 16687 net.cpp:338] inception_4a/output_inception_4a/output_0_split -> inception_4a/output_inception_4a/output_0_split_0
I1230 19:51:33.068361 16687 net.cpp:338] inception_4a/output_inception_4a/output_0_split -> inception_4a/output_inception_4a/output_0_split_1
I1230 19:51:33.068372 16687 net.cpp:338] inception_4a/output_inception_4a/output_0_split -> inception_4a/output_inception_4a/output_0_split_2
I1230 19:51:33.068382 16687 net.cpp:338] inception_4a/output_inception_4a/output_0_split -> inception_4a/output_inception_4a/output_0_split_3
I1230 19:51:33.068392 16687 net.cpp:338] inception_4a/output_inception_4a/output_0_split -> inception_4a/output_inception_4a/output_0_split_4
I1230 19:51:33.068403 16687 net.cpp:113] Setting up inception_4a/output_inception_4a/output_0_split
I1230 19:51:33.068416 16687 net.cpp:120] Top shape: 80 512 14 14 (8028160)
I1230 19:51:33.068424 16687 net.cpp:120] Top shape: 80 512 14 14 (8028160)
I1230 19:51:33.068433 16687 net.cpp:120] Top shape: 80 512 14 14 (8028160)
I1230 19:51:33.068441 16687 net.cpp:120] Top shape: 80 512 14 14 (8028160)
I1230 19:51:33.068449 16687 net.cpp:120] Top shape: 80 512 14 14 (8028160)
I1230 19:51:33.068455 16687 layer_factory.hpp:74] Creating layer loss1/ave_pool
I1230 19:51:33.068465 16687 net.cpp:84] Creating Layer loss1/ave_pool
I1230 19:51:33.068472 16687 net.cpp:380] loss1/ave_pool <- inception_4a/output_inception_4a/output_0_split_0
I1230 19:51:33.068481 16687 net.cpp:338] loss1/ave_pool -> loss1/ave_pool
I1230 19:51:33.068491 16687 net.cpp:113] Setting up loss1/ave_pool
I1230 19:51:33.068580 16687 net.cpp:120] Top shape: 80 512 4 4 (655360)
I1230 19:51:33.068596 16687 layer_factory.hpp:74] Creating layer loss1/conv
I1230 19:51:33.068619 16687 net.cpp:84] Creating Layer loss1/conv
I1230 19:51:33.068626 16687 net.cpp:380] loss1/conv <- loss1/ave_pool
I1230 19:51:33.068636 16687 net.cpp:338] loss1/conv -> loss1/conv
I1230 19:51:33.068647 16687 net.cpp:113] Setting up loss1/conv
I1230 19:51:33.071683 16687 net.cpp:120] Top shape: 80 128 4 4 (163840)
I1230 19:51:33.071707 16687 layer_factory.hpp:74] Creating layer loss1/relu_conv
I1230 19:51:33.071718 16687 net.cpp:84] Creating Layer loss1/relu_conv
I1230 19:51:33.071727 16687 net.cpp:380] loss1/relu_conv <- loss1/conv
I1230 19:51:33.071737 16687 net.cpp:327] loss1/relu_conv -> loss1/conv (in-place)
I1230 19:51:33.071746 16687 net.cpp:113] Setting up loss1/relu_conv
I1230 19:51:33.071838 16687 net.cpp:120] Top shape: 80 128 4 4 (163840)
I1230 19:51:33.071847 16687 layer_factory.hpp:74] Creating layer loss1/fc
I1230 19:51:33.071861 16687 net.cpp:84] Creating Layer loss1/fc
I1230 19:51:33.071867 16687 net.cpp:380] loss1/fc <- loss1/conv
I1230 19:51:33.071882 16687 net.cpp:338] loss1/fc -> loss1/fc
I1230 19:51:33.071897 16687 net.cpp:113] Setting up loss1/fc
I1230 19:51:33.185441 16687 net.cpp:120] Top shape: 80 1024 (81920)
I1230 19:51:33.185494 16687 layer_factory.hpp:74] Creating layer loss1/relu_fc
I1230 19:51:33.185509 16687 net.cpp:84] Creating Layer loss1/relu_fc
I1230 19:51:33.185544 16687 net.cpp:380] loss1/relu_fc <- loss1/fc
I1230 19:51:33.185559 16687 net.cpp:327] loss1/relu_fc -> loss1/fc (in-place)
I1230 19:51:33.185575 16687 net.cpp:113] Setting up loss1/relu_fc
I1230 19:51:33.187067 16687 net.cpp:120] Top shape: 80 1024 (81920)
I1230 19:51:33.187084 16687 layer_factory.hpp:74] Creating layer loss1/drop_fc
I1230 19:51:33.187116 16687 net.cpp:84] Creating Layer loss1/drop_fc
I1230 19:51:33.187125 16687 net.cpp:380] loss1/drop_fc <- loss1/fc
I1230 19:51:33.187136 16687 net.cpp:327] loss1/drop_fc -> loss1/fc (in-place)
I1230 19:51:33.187152 16687 net.cpp:113] Setting up loss1/drop_fc
I1230 19:51:33.187168 16687 net.cpp:120] Top shape: 80 1024 (81920)
I1230 19:51:33.187176 16687 layer_factory.hpp:74] Creating layer loss1/classifier_kaggle
I1230 19:51:33.187191 16687 net.cpp:84] Creating Layer loss1/classifier_kaggle
I1230 19:51:33.187197 16687 net.cpp:380] loss1/classifier_kaggle <- loss1/fc
I1230 19:51:33.187209 16687 net.cpp:338] loss1/classifier_kaggle -> loss1/classifier_kaggle
I1230 19:51:33.187223 16687 net.cpp:113] Setting up loss1/classifier_kaggle
I1230 19:51:33.192788 16687 net.cpp:120] Top shape: 80 447 (35760)
I1230 19:51:33.192806 16687 layer_factory.hpp:74] Creating layer loss1/loss
I1230 19:51:33.192818 16687 net.cpp:84] Creating Layer loss1/loss
I1230 19:51:33.192826 16687 net.cpp:380] loss1/loss <- loss1/classifier_kaggle
I1230 19:51:33.192836 16687 net.cpp:380] loss1/loss <- label_data_1_split_0
I1230 19:51:33.192845 16687 net.cpp:338] loss1/loss -> loss1/loss1
I1230 19:51:33.192857 16687 net.cpp:113] Setting up loss1/loss
I1230 19:51:33.192869 16687 layer_factory.hpp:74] Creating layer loss1/loss
I1230 19:51:33.193100 16687 net.cpp:120] Top shape: (1)
I1230 19:51:33.193114 16687 net.cpp:122]     with loss weight 0.3
I1230 19:51:33.193143 16687 layer_factory.hpp:74] Creating layer inception_4b/1x1
I1230 19:51:33.193161 16687 net.cpp:84] Creating Layer inception_4b/1x1
I1230 19:51:33.193171 16687 net.cpp:380] inception_4b/1x1 <- inception_4a/output_inception_4a/output_0_split_1
I1230 19:51:33.193181 16687 net.cpp:338] inception_4b/1x1 -> inception_4b/1x1
I1230 19:51:33.193195 16687 net.cpp:113] Setting up inception_4b/1x1
I1230 19:51:33.198855 16687 net.cpp:120] Top shape: 80 160 14 14 (2508800)
I1230 19:51:33.199054 16687 layer_factory.hpp:74] Creating layer inception_4b/relu_1x1
I1230 19:51:33.199074 16687 net.cpp:84] Creating Layer inception_4b/relu_1x1
I1230 19:51:33.199084 16687 net.cpp:380] inception_4b/relu_1x1 <- inception_4b/1x1
I1230 19:51:33.199095 16687 net.cpp:327] inception_4b/relu_1x1 -> inception_4b/1x1 (in-place)
I1230 19:51:33.199107 16687 net.cpp:113] Setting up inception_4b/relu_1x1
I1230 19:51:33.199223 16687 net.cpp:120] Top shape: 80 160 14 14 (2508800)
I1230 19:51:33.203341 16687 layer_factory.hpp:74] Creating layer inception_4b/3x3_reduce
I1230 19:51:33.203388 16687 net.cpp:84] Creating Layer inception_4b/3x3_reduce
I1230 19:51:33.203400 16687 net.cpp:380] inception_4b/3x3_reduce <- inception_4a/output_inception_4a/output_0_split_2
I1230 19:51:33.203420 16687 net.cpp:338] inception_4b/3x3_reduce -> inception_4b/3x3_reduce
I1230 19:51:33.203444 16687 net.cpp:113] Setting up inception_4b/3x3_reduce
I1230 19:51:33.213142 16687 net.cpp:120] Top shape: 80 112 14 14 (1756160)
I1230 19:51:33.213170 16687 layer_factory.hpp:74] Creating layer inception_4b/relu_3x3_reduce
I1230 19:51:33.213181 16687 net.cpp:84] Creating Layer inception_4b/relu_3x3_reduce
I1230 19:51:33.213191 16687 net.cpp:380] inception_4b/relu_3x3_reduce <- inception_4b/3x3_reduce
I1230 19:51:33.213203 16687 net.cpp:327] inception_4b/relu_3x3_reduce -> inception_4b/3x3_reduce (in-place)
I1230 19:51:33.213215 16687 net.cpp:113] Setting up inception_4b/relu_3x3_reduce
I1230 19:51:33.213863 16687 net.cpp:120] Top shape: 80 112 14 14 (1756160)
I1230 19:51:33.213878 16687 layer_factory.hpp:74] Creating layer inception_4b/3x3
I1230 19:51:33.213896 16687 net.cpp:84] Creating Layer inception_4b/3x3
I1230 19:51:33.213904 16687 net.cpp:380] inception_4b/3x3 <- inception_4b/3x3_reduce
I1230 19:51:33.213917 16687 net.cpp:338] inception_4b/3x3 -> inception_4b/3x3
I1230 19:51:33.213928 16687 net.cpp:113] Setting up inception_4b/3x3
I1230 19:51:33.218626 16687 net.cpp:120] Top shape: 80 224 14 14 (3512320)
I1230 19:51:33.218649 16687 layer_factory.hpp:74] Creating layer inception_4b/relu_3x3
I1230 19:51:33.218662 16687 net.cpp:84] Creating Layer inception_4b/relu_3x3
I1230 19:51:33.218672 16687 net.cpp:380] inception_4b/relu_3x3 <- inception_4b/3x3
I1230 19:51:33.218688 16687 net.cpp:327] inception_4b/relu_3x3 -> inception_4b/3x3 (in-place)
I1230 19:51:33.218698 16687 net.cpp:113] Setting up inception_4b/relu_3x3
I1230 19:51:33.223876 16687 net.cpp:120] Top shape: 80 224 14 14 (3512320)
I1230 19:51:33.224037 16687 layer_factory.hpp:74] Creating layer inception_4b/5x5_reduce
I1230 19:51:33.224064 16687 net.cpp:84] Creating Layer inception_4b/5x5_reduce
I1230 19:51:33.224077 16687 net.cpp:380] inception_4b/5x5_reduce <- inception_4a/output_inception_4a/output_0_split_3
I1230 19:51:33.224095 16687 net.cpp:338] inception_4b/5x5_reduce -> inception_4b/5x5_reduce
I1230 19:51:33.224114 16687 net.cpp:113] Setting up inception_4b/5x5_reduce
I1230 19:51:33.230496 16687 net.cpp:120] Top shape: 80 24 14 14 (376320)
I1230 19:51:33.230533 16687 layer_factory.hpp:74] Creating layer inception_4b/relu_5x5_reduce
I1230 19:51:33.230551 16687 net.cpp:84] Creating Layer inception_4b/relu_5x5_reduce
I1230 19:51:33.230561 16687 net.cpp:380] inception_4b/relu_5x5_reduce <- inception_4b/5x5_reduce
I1230 19:51:33.230572 16687 net.cpp:327] inception_4b/relu_5x5_reduce -> inception_4b/5x5_reduce (in-place)
I1230 19:51:33.230587 16687 net.cpp:113] Setting up inception_4b/relu_5x5_reduce
I1230 19:51:33.230685 16687 net.cpp:120] Top shape: 80 24 14 14 (376320)
I1230 19:51:33.230695 16687 layer_factory.hpp:74] Creating layer inception_4b/5x5
I1230 19:51:33.230746 16687 net.cpp:84] Creating Layer inception_4b/5x5
I1230 19:51:33.230756 16687 net.cpp:380] inception_4b/5x5 <- inception_4b/5x5_reduce
I1230 19:51:33.230768 16687 net.cpp:338] inception_4b/5x5 -> inception_4b/5x5
I1230 19:51:33.230784 16687 net.cpp:113] Setting up inception_4b/5x5
I1230 19:51:33.233098 16687 net.cpp:120] Top shape: 80 64 14 14 (1003520)
I1230 19:51:33.233192 16687 layer_factory.hpp:74] Creating layer inception_4b/relu_5x5
I1230 19:51:33.233208 16687 net.cpp:84] Creating Layer inception_4b/relu_5x5
I1230 19:51:33.233218 16687 net.cpp:380] inception_4b/relu_5x5 <- inception_4b/5x5
I1230 19:51:33.233228 16687 net.cpp:327] inception_4b/relu_5x5 -> inception_4b/5x5 (in-place)
I1230 19:51:33.233239 16687 net.cpp:113] Setting up inception_4b/relu_5x5
I1230 19:51:33.233328 16687 net.cpp:120] Top shape: 80 64 14 14 (1003520)
I1230 19:51:33.233366 16687 layer_factory.hpp:74] Creating layer inception_4b/pool
I1230 19:51:33.233376 16687 layer_factory.cpp:56] CUDNN does not support padding or multiple tops. Using Caffe's own pooling layer.
I1230 19:51:33.233387 16687 net.cpp:84] Creating Layer inception_4b/pool
I1230 19:51:33.233397 16687 net.cpp:380] inception_4b/pool <- inception_4a/output_inception_4a/output_0_split_4
I1230 19:51:33.233407 16687 net.cpp:338] inception_4b/pool -> inception_4b/pool
I1230 19:51:33.233434 16687 net.cpp:113] Setting up inception_4b/pool
I1230 19:51:33.233458 16687 net.cpp:120] Top shape: 80 512 14 14 (8028160)
I1230 19:51:33.233467 16687 layer_factory.hpp:74] Creating layer inception_4b/pool_proj
I1230 19:51:33.233485 16687 net.cpp:84] Creating Layer inception_4b/pool_proj
I1230 19:51:33.233494 16687 net.cpp:380] inception_4b/pool_proj <- inception_4b/pool
I1230 19:51:33.233505 16687 net.cpp:338] inception_4b/pool_proj -> inception_4b/pool_proj
I1230 19:51:33.233516 16687 net.cpp:113] Setting up inception_4b/pool_proj
I1230 19:51:33.235893 16687 net.cpp:120] Top shape: 80 64 14 14 (1003520)
I1230 19:51:33.235915 16687 layer_factory.hpp:74] Creating layer inception_4b/relu_pool_proj
I1230 19:51:33.235927 16687 net.cpp:84] Creating Layer inception_4b/relu_pool_proj
I1230 19:51:33.235935 16687 net.cpp:380] inception_4b/relu_pool_proj <- inception_4b/pool_proj
I1230 19:51:33.235949 16687 net.cpp:327] inception_4b/relu_pool_proj -> inception_4b/pool_proj (in-place)
I1230 19:51:33.235960 16687 net.cpp:113] Setting up inception_4b/relu_pool_proj
I1230 19:51:33.239032 16687 net.cpp:120] Top shape: 80 64 14 14 (1003520)
I1230 19:51:33.239053 16687 layer_factory.hpp:74] Creating layer inception_4b/output
I1230 19:51:33.239068 16687 net.cpp:84] Creating Layer inception_4b/output
I1230 19:51:33.239078 16687 net.cpp:380] inception_4b/output <- inception_4b/1x1
I1230 19:51:33.239087 16687 net.cpp:380] inception_4b/output <- inception_4b/3x3
I1230 19:51:33.239096 16687 net.cpp:380] inception_4b/output <- inception_4b/5x5
I1230 19:51:33.239104 16687 net.cpp:380] inception_4b/output <- inception_4b/pool_proj
I1230 19:51:33.239117 16687 net.cpp:338] inception_4b/output -> inception_4b/output
I1230 19:51:33.239130 16687 net.cpp:113] Setting up inception_4b/output
I1230 19:51:33.239143 16687 net.cpp:120] Top shape: 80 512 14 14 (8028160)
I1230 19:51:33.239151 16687 layer_factory.hpp:74] Creating layer inception_4b/output_inception_4b/output_0_split
I1230 19:51:33.239161 16687 net.cpp:84] Creating Layer inception_4b/output_inception_4b/output_0_split
I1230 19:51:33.239167 16687 net.cpp:380] inception_4b/output_inception_4b/output_0_split <- inception_4b/output
I1230 19:51:33.239178 16687 net.cpp:338] inception_4b/output_inception_4b/output_0_split -> inception_4b/output_inception_4b/output_0_split_0
I1230 19:51:33.239189 16687 net.cpp:338] inception_4b/output_inception_4b/output_0_split -> inception_4b/output_inception_4b/output_0_split_1
I1230 19:51:33.239202 16687 net.cpp:338] inception_4b/output_inception_4b/output_0_split -> inception_4b/output_inception_4b/output_0_split_2
I1230 19:51:33.239213 16687 net.cpp:338] inception_4b/output_inception_4b/output_0_split -> inception_4b/output_inception_4b/output_0_split_3
I1230 19:51:33.239223 16687 net.cpp:113] Setting up inception_4b/output_inception_4b/output_0_split
I1230 19:51:33.239254 16687 net.cpp:120] Top shape: 80 512 14 14 (8028160)
I1230 19:51:33.239276 16687 net.cpp:120] Top shape: 80 512 14 14 (8028160)
I1230 19:51:33.239295 16687 net.cpp:120] Top shape: 80 512 14 14 (8028160)
I1230 19:51:33.239303 16687 net.cpp:120] Top shape: 80 512 14 14 (8028160)
I1230 19:51:33.239311 16687 layer_factory.hpp:74] Creating layer inception_4c/1x1
I1230 19:51:33.239326 16687 net.cpp:84] Creating Layer inception_4c/1x1
I1230 19:51:33.239332 16687 net.cpp:380] inception_4c/1x1 <- inception_4b/output_inception_4b/output_0_split_0
I1230 19:51:33.239342 16687 net.cpp:338] inception_4c/1x1 -> inception_4c/1x1
I1230 19:51:33.239367 16687 net.cpp:113] Setting up inception_4c/1x1
I1230 19:51:33.241829 16687 net.cpp:120] Top shape: 80 128 14 14 (2007040)
I1230 19:51:33.241873 16687 layer_factory.hpp:74] Creating layer inception_4c/relu_1x1
I1230 19:51:33.241888 16687 net.cpp:84] Creating Layer inception_4c/relu_1x1
I1230 19:51:33.241896 16687 net.cpp:380] inception_4c/relu_1x1 <- inception_4c/1x1
I1230 19:51:33.241909 16687 net.cpp:327] inception_4c/relu_1x1 -> inception_4c/1x1 (in-place)
I1230 19:51:33.241922 16687 net.cpp:113] Setting up inception_4c/relu_1x1
I1230 19:51:33.242015 16687 net.cpp:120] Top shape: 80 128 14 14 (2007040)
I1230 19:51:33.242027 16687 layer_factory.hpp:74] Creating layer inception_4c/3x3_reduce
I1230 19:51:33.242039 16687 net.cpp:84] Creating Layer inception_4c/3x3_reduce
I1230 19:51:33.242048 16687 net.cpp:380] inception_4c/3x3_reduce <- inception_4b/output_inception_4b/output_0_split_1
I1230 19:51:33.242059 16687 net.cpp:338] inception_4c/3x3_reduce -> inception_4c/3x3_reduce
I1230 19:51:33.242072 16687 net.cpp:113] Setting up inception_4c/3x3_reduce
I1230 19:51:33.244575 16687 net.cpp:120] Top shape: 80 128 14 14 (2007040)
I1230 19:51:33.244598 16687 layer_factory.hpp:74] Creating layer inception_4c/relu_3x3_reduce
I1230 19:51:33.244612 16687 net.cpp:84] Creating Layer inception_4c/relu_3x3_reduce
I1230 19:51:33.244621 16687 net.cpp:380] inception_4c/relu_3x3_reduce <- inception_4c/3x3_reduce
I1230 19:51:33.244631 16687 net.cpp:327] inception_4c/relu_3x3_reduce -> inception_4c/3x3_reduce (in-place)
I1230 19:51:33.244643 16687 net.cpp:113] Setting up inception_4c/relu_3x3_reduce
I1230 19:51:33.244993 16687 net.cpp:120] Top shape: 80 128 14 14 (2007040)
I1230 19:51:33.245007 16687 layer_factory.hpp:74] Creating layer inception_4c/3x3
I1230 19:51:33.245021 16687 net.cpp:84] Creating Layer inception_4c/3x3
I1230 19:51:33.245030 16687 net.cpp:380] inception_4c/3x3 <- inception_4c/3x3_reduce
I1230 19:51:33.245041 16687 net.cpp:338] inception_4c/3x3 -> inception_4c/3x3
I1230 19:51:33.245066 16687 net.cpp:113] Setting up inception_4c/3x3
I1230 19:51:33.252300 16687 net.cpp:120] Top shape: 80 256 14 14 (4014080)
I1230 19:51:33.252346 16687 layer_factory.hpp:74] Creating layer inception_4c/relu_3x3
I1230 19:51:33.252358 16687 net.cpp:84] Creating Layer inception_4c/relu_3x3
I1230 19:51:33.252367 16687 net.cpp:380] inception_4c/relu_3x3 <- inception_4c/3x3
I1230 19:51:33.252378 16687 net.cpp:327] inception_4c/relu_3x3 -> inception_4c/3x3 (in-place)
I1230 19:51:33.252389 16687 net.cpp:113] Setting up inception_4c/relu_3x3
I1230 19:51:33.252498 16687 net.cpp:120] Top shape: 80 256 14 14 (4014080)
I1230 19:51:33.252511 16687 layer_factory.hpp:74] Creating layer inception_4c/5x5_reduce
I1230 19:51:33.252527 16687 net.cpp:84] Creating Layer inception_4c/5x5_reduce
I1230 19:51:33.252537 16687 net.cpp:380] inception_4c/5x5_reduce <- inception_4b/output_inception_4b/output_0_split_2
I1230 19:51:33.252552 16687 net.cpp:338] inception_4c/5x5_reduce -> inception_4c/5x5_reduce
I1230 19:51:33.252567 16687 net.cpp:113] Setting up inception_4c/5x5_reduce
I1230 19:51:33.253597 16687 net.cpp:120] Top shape: 80 24 14 14 (376320)
I1230 19:51:33.253621 16687 layer_factory.hpp:74] Creating layer inception_4c/relu_5x5_reduce
I1230 19:51:33.253638 16687 net.cpp:84] Creating Layer inception_4c/relu_5x5_reduce
I1230 19:51:33.253648 16687 net.cpp:380] inception_4c/relu_5x5_reduce <- inception_4c/5x5_reduce
I1230 19:51:33.253659 16687 net.cpp:327] inception_4c/relu_5x5_reduce -> inception_4c/5x5_reduce (in-place)
I1230 19:51:33.253672 16687 net.cpp:113] Setting up inception_4c/relu_5x5_reduce
I1230 19:51:33.254127 16687 net.cpp:120] Top shape: 80 24 14 14 (376320)
I1230 19:51:33.254143 16687 layer_factory.hpp:74] Creating layer inception_4c/5x5
I1230 19:51:33.254161 16687 net.cpp:84] Creating Layer inception_4c/5x5
I1230 19:51:33.254171 16687 net.cpp:380] inception_4c/5x5 <- inception_4c/5x5_reduce
I1230 19:51:33.254187 16687 net.cpp:338] inception_4c/5x5 -> inception_4c/5x5
I1230 19:51:33.254202 16687 net.cpp:113] Setting up inception_4c/5x5
I1230 19:51:33.255672 16687 net.cpp:120] Top shape: 80 64 14 14 (1003520)
I1230 19:51:33.255707 16687 layer_factory.hpp:74] Creating layer inception_4c/relu_5x5
I1230 19:51:33.255738 16687 net.cpp:84] Creating Layer inception_4c/relu_5x5
I1230 19:51:33.255748 16687 net.cpp:380] inception_4c/relu_5x5 <- inception_4c/5x5
I1230 19:51:33.255759 16687 net.cpp:327] inception_4c/relu_5x5 -> inception_4c/5x5 (in-place)
I1230 19:51:33.255771 16687 net.cpp:113] Setting up inception_4c/relu_5x5
I1230 19:51:33.255908 16687 net.cpp:120] Top shape: 80 64 14 14 (1003520)
I1230 19:51:33.255924 16687 layer_factory.hpp:74] Creating layer inception_4c/pool
I1230 19:51:33.255935 16687 layer_factory.cpp:56] CUDNN does not support padding or multiple tops. Using Caffe's own pooling layer.
I1230 19:51:33.255946 16687 net.cpp:84] Creating Layer inception_4c/pool
I1230 19:51:33.255955 16687 net.cpp:380] inception_4c/pool <- inception_4b/output_inception_4b/output_0_split_3
I1230 19:51:33.255970 16687 net.cpp:338] inception_4c/pool -> inception_4c/pool
I1230 19:51:33.255983 16687 net.cpp:113] Setting up inception_4c/pool
I1230 19:51:33.256000 16687 net.cpp:120] Top shape: 80 512 14 14 (8028160)
I1230 19:51:33.256009 16687 layer_factory.hpp:74] Creating layer inception_4c/pool_proj
I1230 19:51:33.256023 16687 net.cpp:84] Creating Layer inception_4c/pool_proj
I1230 19:51:33.256033 16687 net.cpp:380] inception_4c/pool_proj <- inception_4c/pool
I1230 19:51:33.256047 16687 net.cpp:338] inception_4c/pool_proj -> inception_4c/pool_proj
I1230 19:51:33.256062 16687 net.cpp:113] Setting up inception_4c/pool_proj
I1230 19:51:33.257592 16687 net.cpp:120] Top shape: 80 64 14 14 (1003520)
I1230 19:51:33.257622 16687 layer_factory.hpp:74] Creating layer inception_4c/relu_pool_proj
I1230 19:51:33.257639 16687 net.cpp:84] Creating Layer inception_4c/relu_pool_proj
I1230 19:51:33.257650 16687 net.cpp:380] inception_4c/relu_pool_proj <- inception_4c/pool_proj
I1230 19:51:33.257661 16687 net.cpp:327] inception_4c/relu_pool_proj -> inception_4c/pool_proj (in-place)
I1230 19:51:33.257675 16687 net.cpp:113] Setting up inception_4c/relu_pool_proj
I1230 19:51:33.257827 16687 net.cpp:120] Top shape: 80 64 14 14 (1003520)
I1230 19:51:33.257843 16687 layer_factory.hpp:74] Creating layer inception_4c/output
I1230 19:51:33.257853 16687 net.cpp:84] Creating Layer inception_4c/output
I1230 19:51:33.257863 16687 net.cpp:380] inception_4c/output <- inception_4c/1x1
I1230 19:51:33.257874 16687 net.cpp:380] inception_4c/output <- inception_4c/3x3
I1230 19:51:33.257881 16687 net.cpp:380] inception_4c/output <- inception_4c/5x5
I1230 19:51:33.257889 16687 net.cpp:380] inception_4c/output <- inception_4c/pool_proj
I1230 19:51:33.257900 16687 net.cpp:338] inception_4c/output -> inception_4c/output
I1230 19:51:33.257913 16687 net.cpp:113] Setting up inception_4c/output
I1230 19:51:33.257927 16687 net.cpp:120] Top shape: 80 512 14 14 (8028160)
I1230 19:51:33.257936 16687 layer_factory.hpp:74] Creating layer inception_4c/output_inception_4c/output_0_split
I1230 19:51:33.257948 16687 net.cpp:84] Creating Layer inception_4c/output_inception_4c/output_0_split
I1230 19:51:33.257957 16687 net.cpp:380] inception_4c/output_inception_4c/output_0_split <- inception_4c/output
I1230 19:51:33.257967 16687 net.cpp:338] inception_4c/output_inception_4c/output_0_split -> inception_4c/output_inception_4c/output_0_split_0
I1230 19:51:33.257980 16687 net.cpp:338] inception_4c/output_inception_4c/output_0_split -> inception_4c/output_inception_4c/output_0_split_1
I1230 19:51:33.257997 16687 net.cpp:338] inception_4c/output_inception_4c/output_0_split -> inception_4c/output_inception_4c/output_0_split_2
I1230 19:51:33.258009 16687 net.cpp:338] inception_4c/output_inception_4c/output_0_split -> inception_4c/output_inception_4c/output_0_split_3
I1230 19:51:33.258019 16687 net.cpp:113] Setting up inception_4c/output_inception_4c/output_0_split
I1230 19:51:33.258033 16687 net.cpp:120] Top shape: 80 512 14 14 (8028160)
I1230 19:51:33.258043 16687 net.cpp:120] Top shape: 80 512 14 14 (8028160)
I1230 19:51:33.258050 16687 net.cpp:120] Top shape: 80 512 14 14 (8028160)
I1230 19:51:33.258069 16687 net.cpp:120] Top shape: 80 512 14 14 (8028160)
I1230 19:51:33.258087 16687 layer_factory.hpp:74] Creating layer inception_4d/1x1
I1230 19:51:33.258102 16687 net.cpp:84] Creating Layer inception_4d/1x1
I1230 19:51:33.258112 16687 net.cpp:380] inception_4d/1x1 <- inception_4c/output_inception_4c/output_0_split_0
I1230 19:51:33.258126 16687 net.cpp:338] inception_4d/1x1 -> inception_4d/1x1
I1230 19:51:33.258141 16687 net.cpp:113] Setting up inception_4d/1x1
I1230 19:51:33.259699 16687 net.cpp:120] Top shape: 80 112 14 14 (1756160)
I1230 19:51:33.259723 16687 layer_factory.hpp:74] Creating layer inception_4d/relu_1x1
I1230 19:51:33.259738 16687 net.cpp:84] Creating Layer inception_4d/relu_1x1
I1230 19:51:33.259748 16687 net.cpp:380] inception_4d/relu_1x1 <- inception_4d/1x1
I1230 19:51:33.259759 16687 net.cpp:327] inception_4d/relu_1x1 -> inception_4d/1x1 (in-place)
I1230 19:51:33.259770 16687 net.cpp:113] Setting up inception_4d/relu_1x1
I1230 19:51:33.259867 16687 net.cpp:120] Top shape: 80 112 14 14 (1756160)
I1230 19:51:33.259878 16687 layer_factory.hpp:74] Creating layer inception_4d/3x3_reduce
I1230 19:51:33.259891 16687 net.cpp:84] Creating Layer inception_4d/3x3_reduce
I1230 19:51:33.259897 16687 net.cpp:380] inception_4d/3x3_reduce <- inception_4c/output_inception_4c/output_0_split_1
I1230 19:51:33.259910 16687 net.cpp:338] inception_4d/3x3_reduce -> inception_4d/3x3_reduce
I1230 19:51:33.259923 16687 net.cpp:113] Setting up inception_4d/3x3_reduce
I1230 19:51:33.261759 16687 net.cpp:120] Top shape: 80 144 14 14 (2257920)
I1230 19:51:33.261782 16687 layer_factory.hpp:74] Creating layer inception_4d/relu_3x3_reduce
I1230 19:51:33.261793 16687 net.cpp:84] Creating Layer inception_4d/relu_3x3_reduce
I1230 19:51:33.261801 16687 net.cpp:380] inception_4d/relu_3x3_reduce <- inception_4d/3x3_reduce
I1230 19:51:33.261814 16687 net.cpp:327] inception_4d/relu_3x3_reduce -> inception_4d/3x3_reduce (in-place)
I1230 19:51:33.261826 16687 net.cpp:113] Setting up inception_4d/relu_3x3_reduce
I1230 19:51:33.262434 16687 net.cpp:120] Top shape: 80 144 14 14 (2257920)
I1230 19:51:33.262449 16687 layer_factory.hpp:74] Creating layer inception_4d/3x3
I1230 19:51:33.262465 16687 net.cpp:84] Creating Layer inception_4d/3x3
I1230 19:51:33.262473 16687 net.cpp:380] inception_4d/3x3 <- inception_4d/3x3_reduce
I1230 19:51:33.262485 16687 net.cpp:338] inception_4d/3x3 -> inception_4d/3x3
I1230 19:51:33.262497 16687 net.cpp:113] Setting up inception_4d/3x3
I1230 19:51:33.273514 16687 net.cpp:120] Top shape: 80 288 14 14 (4515840)
I1230 19:51:33.273540 16687 layer_factory.hpp:74] Creating layer inception_4d/relu_3x3
I1230 19:51:33.273552 16687 net.cpp:84] Creating Layer inception_4d/relu_3x3
I1230 19:51:33.273561 16687 net.cpp:380] inception_4d/relu_3x3 <- inception_4d/3x3
I1230 19:51:33.273571 16687 net.cpp:327] inception_4d/relu_3x3 -> inception_4d/3x3 (in-place)
I1230 19:51:33.273582 16687 net.cpp:113] Setting up inception_4d/relu_3x3
I1230 19:51:33.273704 16687 net.cpp:120] Top shape: 80 288 14 14 (4515840)
I1230 19:51:33.273730 16687 layer_factory.hpp:74] Creating layer inception_4d/5x5_reduce
I1230 19:51:33.273748 16687 net.cpp:84] Creating Layer inception_4d/5x5_reduce
I1230 19:51:33.273759 16687 net.cpp:380] inception_4d/5x5_reduce <- inception_4c/output_inception_4c/output_0_split_2
I1230 19:51:33.273777 16687 net.cpp:338] inception_4d/5x5_reduce -> inception_4d/5x5_reduce
I1230 19:51:33.273793 16687 net.cpp:113] Setting up inception_4d/5x5_reduce
I1230 19:51:33.274881 16687 net.cpp:120] Top shape: 80 32 14 14 (501760)
I1230 19:51:33.274904 16687 layer_factory.hpp:74] Creating layer inception_4d/relu_5x5_reduce
I1230 19:51:33.274919 16687 net.cpp:84] Creating Layer inception_4d/relu_5x5_reduce
I1230 19:51:33.274927 16687 net.cpp:380] inception_4d/relu_5x5_reduce <- inception_4d/5x5_reduce
I1230 19:51:33.274937 16687 net.cpp:327] inception_4d/relu_5x5_reduce -> inception_4d/5x5_reduce (in-place)
I1230 19:51:33.274948 16687 net.cpp:113] Setting up inception_4d/relu_5x5_reduce
I1230 19:51:33.275056 16687 net.cpp:120] Top shape: 80 32 14 14 (501760)
I1230 19:51:33.275079 16687 layer_factory.hpp:74] Creating layer inception_4d/5x5
I1230 19:51:33.275091 16687 net.cpp:84] Creating Layer inception_4d/5x5
I1230 19:51:33.275099 16687 net.cpp:380] inception_4d/5x5 <- inception_4d/5x5_reduce
I1230 19:51:33.275111 16687 net.cpp:338] inception_4d/5x5 -> inception_4d/5x5
I1230 19:51:33.275125 16687 net.cpp:113] Setting up inception_4d/5x5
I1230 19:51:33.276635 16687 net.cpp:120] Top shape: 80 64 14 14 (1003520)
I1230 19:51:33.276659 16687 layer_factory.hpp:74] Creating layer inception_4d/relu_5x5
I1230 19:51:33.276671 16687 net.cpp:84] Creating Layer inception_4d/relu_5x5
I1230 19:51:33.276680 16687 net.cpp:380] inception_4d/relu_5x5 <- inception_4d/5x5
I1230 19:51:33.276690 16687 net.cpp:327] inception_4d/relu_5x5 -> inception_4d/5x5 (in-place)
I1230 19:51:33.276701 16687 net.cpp:113] Setting up inception_4d/relu_5x5
I1230 19:51:33.276799 16687 net.cpp:120] Top shape: 80 64 14 14 (1003520)
I1230 19:51:33.276811 16687 layer_factory.hpp:74] Creating layer inception_4d/pool
I1230 19:51:33.276821 16687 layer_factory.cpp:56] CUDNN does not support padding or multiple tops. Using Caffe's own pooling layer.
I1230 19:51:33.276831 16687 net.cpp:84] Creating Layer inception_4d/pool
I1230 19:51:33.276839 16687 net.cpp:380] inception_4d/pool <- inception_4c/output_inception_4c/output_0_split_3
I1230 19:51:33.276852 16687 net.cpp:338] inception_4d/pool -> inception_4d/pool
I1230 19:51:33.276865 16687 net.cpp:113] Setting up inception_4d/pool
I1230 19:51:33.276878 16687 net.cpp:120] Top shape: 80 512 14 14 (8028160)
I1230 19:51:33.276885 16687 layer_factory.hpp:74] Creating layer inception_4d/pool_proj
I1230 19:51:33.276897 16687 net.cpp:84] Creating Layer inception_4d/pool_proj
I1230 19:51:33.276904 16687 net.cpp:380] inception_4d/pool_proj <- inception_4d/pool
I1230 19:51:33.276919 16687 net.cpp:338] inception_4d/pool_proj -> inception_4d/pool_proj
I1230 19:51:33.276932 16687 net.cpp:113] Setting up inception_4d/pool_proj
I1230 19:51:33.278177 16687 net.cpp:120] Top shape: 80 64 14 14 (1003520)
I1230 19:51:33.278201 16687 layer_factory.hpp:74] Creating layer inception_4d/relu_pool_proj
I1230 19:51:33.278214 16687 net.cpp:84] Creating Layer inception_4d/relu_pool_proj
I1230 19:51:33.278224 16687 net.cpp:380] inception_4d/relu_pool_proj <- inception_4d/pool_proj
I1230 19:51:33.278236 16687 net.cpp:327] inception_4d/relu_pool_proj -> inception_4d/pool_proj (in-place)
I1230 19:51:33.278249 16687 net.cpp:113] Setting up inception_4d/relu_pool_proj
I1230 19:51:33.278784 16687 net.cpp:120] Top shape: 80 64 14 14 (1003520)
I1230 19:51:33.278800 16687 layer_factory.hpp:74] Creating layer inception_4d/output
I1230 19:51:33.278815 16687 net.cpp:84] Creating Layer inception_4d/output
I1230 19:51:33.278822 16687 net.cpp:380] inception_4d/output <- inception_4d/1x1
I1230 19:51:33.278832 16687 net.cpp:380] inception_4d/output <- inception_4d/3x3
I1230 19:51:33.278841 16687 net.cpp:380] inception_4d/output <- inception_4d/5x5
I1230 19:51:33.278848 16687 net.cpp:380] inception_4d/output <- inception_4d/pool_proj
I1230 19:51:33.278857 16687 net.cpp:338] inception_4d/output -> inception_4d/output
I1230 19:51:33.278868 16687 net.cpp:113] Setting up inception_4d/output
I1230 19:51:33.278880 16687 net.cpp:120] Top shape: 80 528 14 14 (8279040)
I1230 19:51:33.278887 16687 layer_factory.hpp:74] Creating layer inception_4d/output_inception_4d/output_0_split
I1230 19:51:33.278898 16687 net.cpp:84] Creating Layer inception_4d/output_inception_4d/output_0_split
I1230 19:51:33.278904 16687 net.cpp:380] inception_4d/output_inception_4d/output_0_split <- inception_4d/output
I1230 19:51:33.278916 16687 net.cpp:338] inception_4d/output_inception_4d/output_0_split -> inception_4d/output_inception_4d/output_0_split_0
I1230 19:51:33.278928 16687 net.cpp:338] inception_4d/output_inception_4d/output_0_split -> inception_4d/output_inception_4d/output_0_split_1
I1230 19:51:33.278939 16687 net.cpp:338] inception_4d/output_inception_4d/output_0_split -> inception_4d/output_inception_4d/output_0_split_2
I1230 19:51:33.278962 16687 net.cpp:338] inception_4d/output_inception_4d/output_0_split -> inception_4d/output_inception_4d/output_0_split_3
I1230 19:51:33.278983 16687 net.cpp:338] inception_4d/output_inception_4d/output_0_split -> inception_4d/output_inception_4d/output_0_split_4
I1230 19:51:33.278993 16687 net.cpp:113] Setting up inception_4d/output_inception_4d/output_0_split
I1230 19:51:33.279006 16687 net.cpp:120] Top shape: 80 528 14 14 (8279040)
I1230 19:51:33.279014 16687 net.cpp:120] Top shape: 80 528 14 14 (8279040)
I1230 19:51:33.279022 16687 net.cpp:120] Top shape: 80 528 14 14 (8279040)
I1230 19:51:33.279031 16687 net.cpp:120] Top shape: 80 528 14 14 (8279040)
I1230 19:51:33.279038 16687 net.cpp:120] Top shape: 80 528 14 14 (8279040)
I1230 19:51:33.279047 16687 layer_factory.hpp:74] Creating layer loss2/ave_pool
I1230 19:51:33.279060 16687 net.cpp:84] Creating Layer loss2/ave_pool
I1230 19:51:33.279067 16687 net.cpp:380] loss2/ave_pool <- inception_4d/output_inception_4d/output_0_split_0
I1230 19:51:33.279078 16687 net.cpp:338] loss2/ave_pool -> loss2/ave_pool
I1230 19:51:33.279088 16687 net.cpp:113] Setting up loss2/ave_pool
I1230 19:51:33.279192 16687 net.cpp:120] Top shape: 80 528 4 4 (675840)
I1230 19:51:33.279211 16687 layer_factory.hpp:74] Creating layer loss2/conv
I1230 19:51:33.279227 16687 net.cpp:84] Creating Layer loss2/conv
I1230 19:51:33.279237 16687 net.cpp:380] loss2/conv <- loss2/ave_pool
I1230 19:51:33.279252 16687 net.cpp:338] loss2/conv -> loss2/conv
I1230 19:51:33.279265 16687 net.cpp:113] Setting up loss2/conv
I1230 19:51:33.281224 16687 net.cpp:120] Top shape: 80 128 4 4 (163840)
I1230 19:51:33.281249 16687 layer_factory.hpp:74] Creating layer loss2/relu_conv
I1230 19:51:33.281261 16687 net.cpp:84] Creating Layer loss2/relu_conv
I1230 19:51:33.281270 16687 net.cpp:380] loss2/relu_conv <- loss2/conv
I1230 19:51:33.281282 16687 net.cpp:327] loss2/relu_conv -> loss2/conv (in-place)
I1230 19:51:33.281293 16687 net.cpp:113] Setting up loss2/relu_conv
I1230 19:51:33.281391 16687 net.cpp:120] Top shape: 80 128 4 4 (163840)
I1230 19:51:33.281400 16687 layer_factory.hpp:74] Creating layer loss2/fc
I1230 19:51:33.281419 16687 net.cpp:84] Creating Layer loss2/fc
I1230 19:51:33.281426 16687 net.cpp:380] loss2/fc <- loss2/conv
I1230 19:51:33.281436 16687 net.cpp:338] loss2/fc -> loss2/fc
I1230 19:51:33.281448 16687 net.cpp:113] Setting up loss2/fc
I1230 19:51:33.434094 16687 net.cpp:120] Top shape: 80 1024 (81920)
I1230 19:51:33.434167 16687 layer_factory.hpp:74] Creating layer loss2/relu_fc
I1230 19:51:33.434185 16687 net.cpp:84] Creating Layer loss2/relu_fc
I1230 19:51:33.434196 16687 net.cpp:380] loss2/relu_fc <- loss2/fc
I1230 19:51:33.434208 16687 net.cpp:327] loss2/relu_fc -> loss2/fc (in-place)
I1230 19:51:33.434223 16687 net.cpp:113] Setting up loss2/relu_fc
I1230 19:51:33.453855 16687 net.cpp:120] Top shape: 80 1024 (81920)
I1230 19:51:33.453902 16687 layer_factory.hpp:74] Creating layer loss2/drop_fc
I1230 19:51:33.453935 16687 net.cpp:84] Creating Layer loss2/drop_fc
I1230 19:51:33.453960 16687 net.cpp:380] loss2/drop_fc <- loss2/fc
I1230 19:51:33.453979 16687 net.cpp:327] loss2/drop_fc -> loss2/fc (in-place)
I1230 19:51:33.453994 16687 net.cpp:113] Setting up loss2/drop_fc
I1230 19:51:33.454008 16687 net.cpp:120] Top shape: 80 1024 (81920)
I1230 19:51:33.454015 16687 layer_factory.hpp:74] Creating layer loss2/classifier_kaggle
I1230 19:51:33.454032 16687 net.cpp:84] Creating Layer loss2/classifier_kaggle
I1230 19:51:33.454040 16687 net.cpp:380] loss2/classifier_kaggle <- loss2/fc
I1230 19:51:33.454051 16687 net.cpp:338] loss2/classifier_kaggle -> loss2/classifier_kaggle
I1230 19:51:33.454066 16687 net.cpp:113] Setting up loss2/classifier_kaggle
I1230 19:51:33.459681 16687 net.cpp:120] Top shape: 80 447 (35760)
I1230 19:51:33.459725 16687 layer_factory.hpp:74] Creating layer loss2/loss
I1230 19:51:33.459743 16687 net.cpp:84] Creating Layer loss2/loss
I1230 19:51:33.459754 16687 net.cpp:380] loss2/loss <- loss2/classifier_kaggle
I1230 19:51:33.459766 16687 net.cpp:380] loss2/loss <- label_data_1_split_1
I1230 19:51:33.459812 16687 net.cpp:338] loss2/loss -> loss2/loss1
I1230 19:51:33.459828 16687 net.cpp:113] Setting up loss2/loss
I1230 19:51:33.459838 16687 layer_factory.hpp:74] Creating layer loss2/loss
I1230 19:51:33.460116 16687 net.cpp:120] Top shape: (1)
I1230 19:51:33.460129 16687 net.cpp:122]     with loss weight 0.3
I1230 19:51:33.460146 16687 layer_factory.hpp:74] Creating layer inception_4e/1x1
I1230 19:51:33.460166 16687 net.cpp:84] Creating Layer inception_4e/1x1
I1230 19:51:33.460176 16687 net.cpp:380] inception_4e/1x1 <- inception_4d/output_inception_4d/output_0_split_1
I1230 19:51:33.460189 16687 net.cpp:338] inception_4e/1x1 -> inception_4e/1x1
I1230 19:51:33.460203 16687 net.cpp:113] Setting up inception_4e/1x1
I1230 19:51:33.464701 16687 net.cpp:120] Top shape: 80 256 14 14 (4014080)
I1230 19:51:33.464741 16687 layer_factory.hpp:74] Creating layer inception_4e/relu_1x1
I1230 19:51:33.464759 16687 net.cpp:84] Creating Layer inception_4e/relu_1x1
I1230 19:51:33.464769 16687 net.cpp:380] inception_4e/relu_1x1 <- inception_4e/1x1
I1230 19:51:33.464781 16687 net.cpp:327] inception_4e/relu_1x1 -> inception_4e/1x1 (in-place)
I1230 19:51:33.464794 16687 net.cpp:113] Setting up inception_4e/relu_1x1
I1230 19:51:33.464890 16687 net.cpp:120] Top shape: 80 256 14 14 (4014080)
I1230 19:51:33.464900 16687 layer_factory.hpp:74] Creating layer inception_4e/3x3_reduce
I1230 19:51:33.464916 16687 net.cpp:84] Creating Layer inception_4e/3x3_reduce
I1230 19:51:33.464925 16687 net.cpp:380] inception_4e/3x3_reduce <- inception_4d/output_inception_4d/output_0_split_2
I1230 19:51:33.464934 16687 net.cpp:338] inception_4e/3x3_reduce -> inception_4e/3x3_reduce
I1230 19:51:33.464948 16687 net.cpp:113] Setting up inception_4e/3x3_reduce
I1230 19:51:33.476979 16687 net.cpp:120] Top shape: 80 160 14 14 (2508800)
I1230 19:51:33.477025 16687 layer_factory.hpp:74] Creating layer inception_4e/relu_3x3_reduce
I1230 19:51:33.477041 16687 net.cpp:84] Creating Layer inception_4e/relu_3x3_reduce
I1230 19:51:33.477052 16687 net.cpp:380] inception_4e/relu_3x3_reduce <- inception_4e/3x3_reduce
I1230 19:51:33.477075 16687 net.cpp:327] inception_4e/relu_3x3_reduce -> inception_4e/3x3_reduce (in-place)
I1230 19:51:33.477090 16687 net.cpp:113] Setting up inception_4e/relu_3x3_reduce
I1230 19:51:33.477188 16687 net.cpp:120] Top shape: 80 160 14 14 (2508800)
I1230 19:51:33.477198 16687 layer_factory.hpp:74] Creating layer inception_4e/3x3
I1230 19:51:33.477216 16687 net.cpp:84] Creating Layer inception_4e/3x3
I1230 19:51:33.477223 16687 net.cpp:380] inception_4e/3x3 <- inception_4e/3x3_reduce
I1230 19:51:33.477238 16687 net.cpp:338] inception_4e/3x3 -> inception_4e/3x3
I1230 19:51:33.477253 16687 net.cpp:113] Setting up inception_4e/3x3
I1230 19:51:33.484050 16687 net.cpp:120] Top shape: 80 320 14 14 (5017600)
I1230 19:51:33.484076 16687 layer_factory.hpp:74] Creating layer inception_4e/relu_3x3
I1230 19:51:33.484088 16687 net.cpp:84] Creating Layer inception_4e/relu_3x3
I1230 19:51:33.484097 16687 net.cpp:380] inception_4e/relu_3x3 <- inception_4e/3x3
I1230 19:51:33.484110 16687 net.cpp:327] inception_4e/relu_3x3 -> inception_4e/3x3 (in-place)
I1230 19:51:33.484122 16687 net.cpp:113] Setting up inception_4e/relu_3x3
I1230 19:51:33.484941 16687 net.cpp:120] Top shape: 80 320 14 14 (5017600)
I1230 19:51:33.484957 16687 layer_factory.hpp:74] Creating layer inception_4e/5x5_reduce
I1230 19:51:33.484972 16687 net.cpp:84] Creating Layer inception_4e/5x5_reduce
I1230 19:51:33.484982 16687 net.cpp:380] inception_4e/5x5_reduce <- inception_4d/output_inception_4d/output_0_split_3
I1230 19:51:33.484993 16687 net.cpp:338] inception_4e/5x5_reduce -> inception_4e/5x5_reduce
I1230 19:51:33.485008 16687 net.cpp:113] Setting up inception_4e/5x5_reduce
I1230 19:51:33.486269 16687 net.cpp:120] Top shape: 80 32 14 14 (501760)
I1230 19:51:33.486294 16687 layer_factory.hpp:74] Creating layer inception_4e/relu_5x5_reduce
I1230 19:51:33.486305 16687 net.cpp:84] Creating Layer inception_4e/relu_5x5_reduce
I1230 19:51:33.486327 16687 net.cpp:380] inception_4e/relu_5x5_reduce <- inception_4e/5x5_reduce
I1230 19:51:33.486352 16687 net.cpp:327] inception_4e/relu_5x5_reduce -> inception_4e/5x5_reduce (in-place)
I1230 19:51:33.486364 16687 net.cpp:113] Setting up inception_4e/relu_5x5_reduce
I1230 19:51:33.486461 16687 net.cpp:120] Top shape: 80 32 14 14 (501760)
I1230 19:51:33.486471 16687 layer_factory.hpp:74] Creating layer inception_4e/5x5
I1230 19:51:33.486510 16687 net.cpp:84] Creating Layer inception_4e/5x5
I1230 19:51:33.486520 16687 net.cpp:380] inception_4e/5x5 <- inception_4e/5x5_reduce
I1230 19:51:33.486531 16687 net.cpp:338] inception_4e/5x5 -> inception_4e/5x5
I1230 19:51:33.486541 16687 net.cpp:113] Setting up inception_4e/5x5
I1230 19:51:33.491222 16687 net.cpp:120] Top shape: 80 128 14 14 (2007040)
I1230 19:51:33.491247 16687 layer_factory.hpp:74] Creating layer inception_4e/relu_5x5
I1230 19:51:33.491262 16687 net.cpp:84] Creating Layer inception_4e/relu_5x5
I1230 19:51:33.491271 16687 net.cpp:380] inception_4e/relu_5x5 <- inception_4e/5x5
I1230 19:51:33.491281 16687 net.cpp:327] inception_4e/relu_5x5 -> inception_4e/5x5 (in-place)
I1230 19:51:33.491291 16687 net.cpp:113] Setting up inception_4e/relu_5x5
I1230 19:51:33.491385 16687 net.cpp:120] Top shape: 80 128 14 14 (2007040)
I1230 19:51:33.491399 16687 layer_factory.hpp:74] Creating layer inception_4e/pool
I1230 19:51:33.491407 16687 layer_factory.cpp:56] CUDNN does not support padding or multiple tops. Using Caffe's own pooling layer.
I1230 19:51:33.491417 16687 net.cpp:84] Creating Layer inception_4e/pool
I1230 19:51:33.491425 16687 net.cpp:380] inception_4e/pool <- inception_4d/output_inception_4d/output_0_split_4
I1230 19:51:33.491437 16687 net.cpp:338] inception_4e/pool -> inception_4e/pool
I1230 19:51:33.491449 16687 net.cpp:113] Setting up inception_4e/pool
I1230 19:51:33.491466 16687 net.cpp:120] Top shape: 80 528 14 14 (8279040)
I1230 19:51:33.491472 16687 layer_factory.hpp:74] Creating layer inception_4e/pool_proj
I1230 19:51:33.491485 16687 net.cpp:84] Creating Layer inception_4e/pool_proj
I1230 19:51:33.491492 16687 net.cpp:380] inception_4e/pool_proj <- inception_4e/pool
I1230 19:51:33.491507 16687 net.cpp:338] inception_4e/pool_proj -> inception_4e/pool_proj
I1230 19:51:33.491518 16687 net.cpp:113] Setting up inception_4e/pool_proj
I1230 19:51:33.494925 16687 net.cpp:120] Top shape: 80 128 14 14 (2007040)
I1230 19:51:33.494949 16687 layer_factory.hpp:74] Creating layer inception_4e/relu_pool_proj
I1230 19:51:33.494961 16687 net.cpp:84] Creating Layer inception_4e/relu_pool_proj
I1230 19:51:33.494969 16687 net.cpp:380] inception_4e/relu_pool_proj <- inception_4e/pool_proj
I1230 19:51:33.494979 16687 net.cpp:327] inception_4e/relu_pool_proj -> inception_4e/pool_proj (in-place)
I1230 19:51:33.494990 16687 net.cpp:113] Setting up inception_4e/relu_pool_proj
I1230 19:51:33.495082 16687 net.cpp:120] Top shape: 80 128 14 14 (2007040)
I1230 19:51:33.495091 16687 layer_factory.hpp:74] Creating layer inception_4e/output
I1230 19:51:33.495103 16687 net.cpp:84] Creating Layer inception_4e/output
I1230 19:51:33.495111 16687 net.cpp:380] inception_4e/output <- inception_4e/1x1
I1230 19:51:33.495121 16687 net.cpp:380] inception_4e/output <- inception_4e/3x3
I1230 19:51:33.495128 16687 net.cpp:380] inception_4e/output <- inception_4e/5x5
I1230 19:51:33.495136 16687 net.cpp:380] inception_4e/output <- inception_4e/pool_proj
I1230 19:51:33.495144 16687 net.cpp:338] inception_4e/output -> inception_4e/output
I1230 19:51:33.495156 16687 net.cpp:113] Setting up inception_4e/output
I1230 19:51:33.495167 16687 net.cpp:120] Top shape: 80 832 14 14 (13045760)
I1230 19:51:33.495175 16687 layer_factory.hpp:74] Creating layer pool4/3x3_s2
I1230 19:51:33.495188 16687 net.cpp:84] Creating Layer pool4/3x3_s2
I1230 19:51:33.495195 16687 net.cpp:380] pool4/3x3_s2 <- inception_4e/output
I1230 19:51:33.495206 16687 net.cpp:338] pool4/3x3_s2 -> pool4/3x3_s2
I1230 19:51:33.495216 16687 net.cpp:113] Setting up pool4/3x3_s2
I1230 19:51:33.497017 16687 net.cpp:120] Top shape: 80 832 7 7 (3261440)
I1230 19:51:33.497040 16687 layer_factory.hpp:74] Creating layer pool4/3x3_s2_pool4/3x3_s2_0_split
I1230 19:51:33.497081 16687 net.cpp:84] Creating Layer pool4/3x3_s2_pool4/3x3_s2_0_split
I1230 19:51:33.497094 16687 net.cpp:380] pool4/3x3_s2_pool4/3x3_s2_0_split <- pool4/3x3_s2
I1230 19:51:33.497107 16687 net.cpp:338] pool4/3x3_s2_pool4/3x3_s2_0_split -> pool4/3x3_s2_pool4/3x3_s2_0_split_0
I1230 19:51:33.497119 16687 net.cpp:338] pool4/3x3_s2_pool4/3x3_s2_0_split -> pool4/3x3_s2_pool4/3x3_s2_0_split_1
I1230 19:51:33.497131 16687 net.cpp:338] pool4/3x3_s2_pool4/3x3_s2_0_split -> pool4/3x3_s2_pool4/3x3_s2_0_split_2
I1230 19:51:33.497143 16687 net.cpp:338] pool4/3x3_s2_pool4/3x3_s2_0_split -> pool4/3x3_s2_pool4/3x3_s2_0_split_3
I1230 19:51:33.497153 16687 net.cpp:113] Setting up pool4/3x3_s2_pool4/3x3_s2_0_split
I1230 19:51:33.497164 16687 net.cpp:120] Top shape: 80 832 7 7 (3261440)
I1230 19:51:33.497172 16687 net.cpp:120] Top shape: 80 832 7 7 (3261440)
I1230 19:51:33.497180 16687 net.cpp:120] Top shape: 80 832 7 7 (3261440)
I1230 19:51:33.497189 16687 net.cpp:120] Top shape: 80 832 7 7 (3261440)
I1230 19:51:33.497195 16687 layer_factory.hpp:74] Creating layer inception_5a/1x1
I1230 19:51:33.497208 16687 net.cpp:84] Creating Layer inception_5a/1x1
I1230 19:51:33.497216 16687 net.cpp:380] inception_5a/1x1 <- pool4/3x3_s2_pool4/3x3_s2_0_split_0
I1230 19:51:33.497228 16687 net.cpp:338] inception_5a/1x1 -> inception_5a/1x1
I1230 19:51:33.497241 16687 net.cpp:113] Setting up inception_5a/1x1
I1230 19:51:33.504336 16687 net.cpp:120] Top shape: 80 256 7 7 (1003520)
I1230 19:51:33.504374 16687 layer_factory.hpp:74] Creating layer inception_5a/relu_1x1
I1230 19:51:33.504393 16687 net.cpp:84] Creating Layer inception_5a/relu_1x1
I1230 19:51:33.504420 16687 net.cpp:380] inception_5a/relu_1x1 <- inception_5a/1x1
I1230 19:51:33.504448 16687 net.cpp:327] inception_5a/relu_1x1 -> inception_5a/1x1 (in-place)
I1230 19:51:33.504463 16687 net.cpp:113] Setting up inception_5a/relu_1x1
I1230 19:51:33.504559 16687 net.cpp:120] Top shape: 80 256 7 7 (1003520)
I1230 19:51:33.504570 16687 layer_factory.hpp:74] Creating layer inception_5a/3x3_reduce
I1230 19:51:33.504586 16687 net.cpp:84] Creating Layer inception_5a/3x3_reduce
I1230 19:51:33.504595 16687 net.cpp:380] inception_5a/3x3_reduce <- pool4/3x3_s2_pool4/3x3_s2_0_split_1
I1230 19:51:33.504607 16687 net.cpp:338] inception_5a/3x3_reduce -> inception_5a/3x3_reduce
I1230 19:51:33.504621 16687 net.cpp:113] Setting up inception_5a/3x3_reduce
I1230 19:51:33.506896 16687 net.cpp:120] Top shape: 80 160 7 7 (627200)
I1230 19:51:33.506922 16687 layer_factory.hpp:74] Creating layer inception_5a/relu_3x3_reduce
I1230 19:51:33.506943 16687 net.cpp:84] Creating Layer inception_5a/relu_3x3_reduce
I1230 19:51:33.506953 16687 net.cpp:380] inception_5a/relu_3x3_reduce <- inception_5a/3x3_reduce
I1230 19:51:33.506963 16687 net.cpp:327] inception_5a/relu_3x3_reduce -> inception_5a/3x3_reduce (in-place)
I1230 19:51:33.506975 16687 net.cpp:113] Setting up inception_5a/relu_3x3_reduce
I1230 19:51:33.507076 16687 net.cpp:120] Top shape: 80 160 7 7 (627200)
I1230 19:51:33.507086 16687 layer_factory.hpp:74] Creating layer inception_5a/3x3
I1230 19:51:33.507098 16687 net.cpp:84] Creating Layer inception_5a/3x3
I1230 19:51:33.507107 16687 net.cpp:380] inception_5a/3x3 <- inception_5a/3x3_reduce
I1230 19:51:33.507119 16687 net.cpp:338] inception_5a/3x3 -> inception_5a/3x3
I1230 19:51:33.507133 16687 net.cpp:113] Setting up inception_5a/3x3
I1230 19:51:33.523072 16687 net.cpp:120] Top shape: 80 320 7 7 (1254400)
I1230 19:51:33.523109 16687 layer_factory.hpp:74] Creating layer inception_5a/relu_3x3
I1230 19:51:33.523128 16687 net.cpp:84] Creating Layer inception_5a/relu_3x3
I1230 19:51:33.523138 16687 net.cpp:380] inception_5a/relu_3x3 <- inception_5a/3x3
I1230 19:51:33.523150 16687 net.cpp:327] inception_5a/relu_3x3 -> inception_5a/3x3 (in-place)
I1230 19:51:33.523164 16687 net.cpp:113] Setting up inception_5a/relu_3x3
I1230 19:51:33.523274 16687 net.cpp:120] Top shape: 80 320 7 7 (1254400)
I1230 19:51:33.523288 16687 layer_factory.hpp:74] Creating layer inception_5a/5x5_reduce
I1230 19:51:33.523327 16687 net.cpp:84] Creating Layer inception_5a/5x5_reduce
I1230 19:51:33.523336 16687 net.cpp:380] inception_5a/5x5_reduce <- pool4/3x3_s2_pool4/3x3_s2_0_split_2
I1230 19:51:33.523351 16687 net.cpp:338] inception_5a/5x5_reduce -> inception_5a/5x5_reduce
I1230 19:51:33.523365 16687 net.cpp:113] Setting up inception_5a/5x5_reduce
I1230 19:51:33.524701 16687 net.cpp:120] Top shape: 80 32 7 7 (125440)
I1230 19:51:33.524724 16687 layer_factory.hpp:74] Creating layer inception_5a/relu_5x5_reduce
I1230 19:51:33.524736 16687 net.cpp:84] Creating Layer inception_5a/relu_5x5_reduce
I1230 19:51:33.524744 16687 net.cpp:380] inception_5a/relu_5x5_reduce <- inception_5a/5x5_reduce
I1230 19:51:33.524755 16687 net.cpp:327] inception_5a/relu_5x5_reduce -> inception_5a/5x5_reduce (in-place)
I1230 19:51:33.524765 16687 net.cpp:113] Setting up inception_5a/relu_5x5_reduce
I1230 19:51:33.525555 16687 net.cpp:120] Top shape: 80 32 7 7 (125440)
I1230 19:51:33.525574 16687 layer_factory.hpp:74] Creating layer inception_5a/5x5
I1230 19:51:33.525590 16687 net.cpp:84] Creating Layer inception_5a/5x5
I1230 19:51:33.525599 16687 net.cpp:380] inception_5a/5x5 <- inception_5a/5x5_reduce
I1230 19:51:33.525612 16687 net.cpp:338] inception_5a/5x5 -> inception_5a/5x5
I1230 19:51:33.525626 16687 net.cpp:113] Setting up inception_5a/5x5
I1230 19:51:33.528362 16687 net.cpp:120] Top shape: 80 128 7 7 (501760)
I1230 19:51:33.528384 16687 layer_factory.hpp:74] Creating layer inception_5a/relu_5x5
I1230 19:51:33.528395 16687 net.cpp:84] Creating Layer inception_5a/relu_5x5
I1230 19:51:33.528403 16687 net.cpp:380] inception_5a/relu_5x5 <- inception_5a/5x5
I1230 19:51:33.528416 16687 net.cpp:327] inception_5a/relu_5x5 -> inception_5a/5x5 (in-place)
I1230 19:51:33.528427 16687 net.cpp:113] Setting up inception_5a/relu_5x5
I1230 19:51:33.528528 16687 net.cpp:120] Top shape: 80 128 7 7 (501760)
I1230 19:51:33.528538 16687 layer_factory.hpp:74] Creating layer inception_5a/pool
I1230 19:51:33.528548 16687 layer_factory.cpp:56] CUDNN does not support padding or multiple tops. Using Caffe's own pooling layer.
I1230 19:51:33.528556 16687 net.cpp:84] Creating Layer inception_5a/pool
I1230 19:51:33.528564 16687 net.cpp:380] inception_5a/pool <- pool4/3x3_s2_pool4/3x3_s2_0_split_3
I1230 19:51:33.528574 16687 net.cpp:338] inception_5a/pool -> inception_5a/pool
I1230 19:51:33.528586 16687 net.cpp:113] Setting up inception_5a/pool
I1230 19:51:33.528599 16687 net.cpp:120] Top shape: 80 832 7 7 (3261440)
I1230 19:51:33.528606 16687 layer_factory.hpp:74] Creating layer inception_5a/pool_proj
I1230 19:51:33.528630 16687 net.cpp:84] Creating Layer inception_5a/pool_proj
I1230 19:51:33.528637 16687 net.cpp:380] inception_5a/pool_proj <- inception_5a/pool
I1230 19:51:33.528650 16687 net.cpp:338] inception_5a/pool_proj -> inception_5a/pool_proj
I1230 19:51:33.528661 16687 net.cpp:113] Setting up inception_5a/pool_proj
I1230 19:51:33.534050 16687 net.cpp:120] Top shape: 80 128 7 7 (501760)
I1230 19:51:33.534103 16687 layer_factory.hpp:74] Creating layer inception_5a/relu_pool_proj
I1230 19:51:33.534122 16687 net.cpp:84] Creating Layer inception_5a/relu_pool_proj
I1230 19:51:33.534133 16687 net.cpp:380] inception_5a/relu_pool_proj <- inception_5a/pool_proj
I1230 19:51:33.534147 16687 net.cpp:327] inception_5a/relu_pool_proj -> inception_5a/pool_proj (in-place)
I1230 19:51:33.534160 16687 net.cpp:113] Setting up inception_5a/relu_pool_proj
I1230 19:51:33.534252 16687 net.cpp:120] Top shape: 80 128 7 7 (501760)
I1230 19:51:33.534262 16687 layer_factory.hpp:74] Creating layer inception_5a/output
I1230 19:51:33.534272 16687 net.cpp:84] Creating Layer inception_5a/output
I1230 19:51:33.534281 16687 net.cpp:380] inception_5a/output <- inception_5a/1x1
I1230 19:51:33.534291 16687 net.cpp:380] inception_5a/output <- inception_5a/3x3
I1230 19:51:33.534298 16687 net.cpp:380] inception_5a/output <- inception_5a/5x5
I1230 19:51:33.534307 16687 net.cpp:380] inception_5a/output <- inception_5a/pool_proj
I1230 19:51:33.534338 16687 net.cpp:338] inception_5a/output -> inception_5a/output
I1230 19:51:33.534368 16687 net.cpp:113] Setting up inception_5a/output
I1230 19:51:33.534381 16687 net.cpp:120] Top shape: 80 832 7 7 (3261440)
I1230 19:51:33.534389 16687 layer_factory.hpp:74] Creating layer inception_5a/output_inception_5a/output_0_split
I1230 19:51:33.534399 16687 net.cpp:84] Creating Layer inception_5a/output_inception_5a/output_0_split
I1230 19:51:33.534406 16687 net.cpp:380] inception_5a/output_inception_5a/output_0_split <- inception_5a/output
I1230 19:51:33.534420 16687 net.cpp:338] inception_5a/output_inception_5a/output_0_split -> inception_5a/output_inception_5a/output_0_split_0
I1230 19:51:33.534431 16687 net.cpp:338] inception_5a/output_inception_5a/output_0_split -> inception_5a/output_inception_5a/output_0_split_1
I1230 19:51:33.534443 16687 net.cpp:338] inception_5a/output_inception_5a/output_0_split -> inception_5a/output_inception_5a/output_0_split_2
I1230 19:51:33.534456 16687 net.cpp:338] inception_5a/output_inception_5a/output_0_split -> inception_5a/output_inception_5a/output_0_split_3
I1230 19:51:33.534466 16687 net.cpp:113] Setting up inception_5a/output_inception_5a/output_0_split
I1230 19:51:33.534477 16687 net.cpp:120] Top shape: 80 832 7 7 (3261440)
I1230 19:51:33.534485 16687 net.cpp:120] Top shape: 80 832 7 7 (3261440)
I1230 19:51:33.534494 16687 net.cpp:120] Top shape: 80 832 7 7 (3261440)
I1230 19:51:33.534502 16687 net.cpp:120] Top shape: 80 832 7 7 (3261440)
I1230 19:51:33.534508 16687 layer_factory.hpp:74] Creating layer inception_5b/1x1
I1230 19:51:33.534523 16687 net.cpp:84] Creating Layer inception_5b/1x1
I1230 19:51:33.534530 16687 net.cpp:380] inception_5b/1x1 <- inception_5a/output_inception_5a/output_0_split_0
I1230 19:51:33.534543 16687 net.cpp:338] inception_5b/1x1 -> inception_5b/1x1
I1230 19:51:33.534554 16687 net.cpp:113] Setting up inception_5b/1x1
I1230 19:51:33.548807 16687 net.cpp:120] Top shape: 80 384 7 7 (1505280)
I1230 19:51:33.548851 16687 layer_factory.hpp:74] Creating layer inception_5b/relu_1x1
I1230 19:51:33.548869 16687 net.cpp:84] Creating Layer inception_5b/relu_1x1
I1230 19:51:33.548880 16687 net.cpp:380] inception_5b/relu_1x1 <- inception_5b/1x1
I1230 19:51:33.548893 16687 net.cpp:327] inception_5b/relu_1x1 -> inception_5b/1x1 (in-place)
I1230 19:51:33.548908 16687 net.cpp:113] Setting up inception_5b/relu_1x1
I1230 19:51:33.550806 16687 net.cpp:120] Top shape: 80 384 7 7 (1505280)
I1230 19:51:33.550827 16687 layer_factory.hpp:74] Creating layer inception_5b/3x3_reduce
I1230 19:51:33.550843 16687 net.cpp:84] Creating Layer inception_5b/3x3_reduce
I1230 19:51:33.550853 16687 net.cpp:380] inception_5b/3x3_reduce <- inception_5a/output_inception_5a/output_0_split_1
I1230 19:51:33.550865 16687 net.cpp:338] inception_5b/3x3_reduce -> inception_5b/3x3_reduce
I1230 19:51:33.550881 16687 net.cpp:113] Setting up inception_5b/3x3_reduce
I1230 19:51:33.556054 16687 net.cpp:120] Top shape: 80 192 7 7 (752640)
I1230 19:51:33.556078 16687 layer_factory.hpp:74] Creating layer inception_5b/relu_3x3_reduce
I1230 19:51:33.556089 16687 net.cpp:84] Creating Layer inception_5b/relu_3x3_reduce
I1230 19:51:33.556098 16687 net.cpp:380] inception_5b/relu_3x3_reduce <- inception_5b/3x3_reduce
I1230 19:51:33.556113 16687 net.cpp:327] inception_5b/relu_3x3_reduce -> inception_5b/3x3_reduce (in-place)
I1230 19:51:33.556125 16687 net.cpp:113] Setting up inception_5b/relu_3x3_reduce
I1230 19:51:33.556226 16687 net.cpp:120] Top shape: 80 192 7 7 (752640)
I1230 19:51:33.556236 16687 layer_factory.hpp:74] Creating layer inception_5b/3x3
I1230 19:51:33.556252 16687 net.cpp:84] Creating Layer inception_5b/3x3
I1230 19:51:33.556260 16687 net.cpp:380] inception_5b/3x3 <- inception_5b/3x3_reduce
I1230 19:51:33.556273 16687 net.cpp:338] inception_5b/3x3 -> inception_5b/3x3
I1230 19:51:33.556318 16687 net.cpp:113] Setting up inception_5b/3x3
I1230 19:51:33.579385 16687 net.cpp:120] Top shape: 80 384 7 7 (1505280)
I1230 19:51:33.579419 16687 layer_factory.hpp:74] Creating layer inception_5b/relu_3x3
I1230 19:51:33.579452 16687 net.cpp:84] Creating Layer inception_5b/relu_3x3
I1230 19:51:33.579476 16687 net.cpp:380] inception_5b/relu_3x3 <- inception_5b/3x3
I1230 19:51:33.579488 16687 net.cpp:327] inception_5b/relu_3x3 -> inception_5b/3x3 (in-place)
I1230 19:51:33.579499 16687 net.cpp:113] Setting up inception_5b/relu_3x3
I1230 19:51:33.579592 16687 net.cpp:120] Top shape: 80 384 7 7 (1505280)
I1230 19:51:33.579602 16687 layer_factory.hpp:74] Creating layer inception_5b/5x5_reduce
I1230 19:51:33.579617 16687 net.cpp:84] Creating Layer inception_5b/5x5_reduce
I1230 19:51:33.579627 16687 net.cpp:380] inception_5b/5x5_reduce <- inception_5a/output_inception_5a/output_0_split_2
I1230 19:51:33.579643 16687 net.cpp:338] inception_5b/5x5_reduce -> inception_5b/5x5_reduce
I1230 19:51:33.579656 16687 net.cpp:113] Setting up inception_5b/5x5_reduce
I1230 19:51:33.581156 16687 net.cpp:120] Top shape: 80 48 7 7 (188160)
I1230 19:51:33.581179 16687 layer_factory.hpp:74] Creating layer inception_5b/relu_5x5_reduce
I1230 19:51:33.581192 16687 net.cpp:84] Creating Layer inception_5b/relu_5x5_reduce
I1230 19:51:33.581199 16687 net.cpp:380] inception_5b/relu_5x5_reduce <- inception_5b/5x5_reduce
I1230 19:51:33.581213 16687 net.cpp:327] inception_5b/relu_5x5_reduce -> inception_5b/5x5_reduce (in-place)
I1230 19:51:33.581225 16687 net.cpp:113] Setting up inception_5b/relu_5x5_reduce
I1230 19:51:33.581324 16687 net.cpp:120] Top shape: 80 48 7 7 (188160)
I1230 19:51:33.581334 16687 layer_factory.hpp:74] Creating layer inception_5b/5x5
I1230 19:51:33.581347 16687 net.cpp:84] Creating Layer inception_5b/5x5
I1230 19:51:33.581354 16687 net.cpp:380] inception_5b/5x5 <- inception_5b/5x5_reduce
I1230 19:51:33.581367 16687 net.cpp:338] inception_5b/5x5 -> inception_5b/5x5
I1230 19:51:33.581379 16687 net.cpp:113] Setting up inception_5b/5x5
I1230 19:51:33.592533 16687 net.cpp:120] Top shape: 80 128 7 7 (501760)
I1230 19:51:33.592591 16687 layer_factory.hpp:74] Creating layer inception_5b/relu_5x5
I1230 19:51:33.592609 16687 net.cpp:84] Creating Layer inception_5b/relu_5x5
I1230 19:51:33.592622 16687 net.cpp:380] inception_5b/relu_5x5 <- inception_5b/5x5
I1230 19:51:33.592638 16687 net.cpp:327] inception_5b/relu_5x5 -> inception_5b/5x5 (in-place)
I1230 19:51:33.592653 16687 net.cpp:113] Setting up inception_5b/relu_5x5
I1230 19:51:33.607146 16687 net.cpp:120] Top shape: 80 128 7 7 (501760)
I1230 19:51:33.607187 16687 layer_factory.hpp:74] Creating layer inception_5b/pool
I1230 19:51:33.607199 16687 layer_factory.cpp:56] CUDNN does not support padding or multiple tops. Using Caffe's own pooling layer.
I1230 19:51:33.607214 16687 net.cpp:84] Creating Layer inception_5b/pool
I1230 19:51:33.607228 16687 net.cpp:380] inception_5b/pool <- inception_5a/output_inception_5a/output_0_split_3
I1230 19:51:33.607247 16687 net.cpp:338] inception_5b/pool -> inception_5b/pool
I1230 19:51:33.607265 16687 net.cpp:113] Setting up inception_5b/pool
I1230 19:51:33.607282 16687 net.cpp:120] Top shape: 80 832 7 7 (3261440)
I1230 19:51:33.607290 16687 layer_factory.hpp:74] Creating layer inception_5b/pool_proj
I1230 19:51:33.607321 16687 net.cpp:84] Creating Layer inception_5b/pool_proj
I1230 19:51:33.607329 16687 net.cpp:380] inception_5b/pool_proj <- inception_5b/pool
I1230 19:51:33.607341 16687 net.cpp:338] inception_5b/pool_proj -> inception_5b/pool_proj
I1230 19:51:33.607353 16687 net.cpp:113] Setting up inception_5b/pool_proj
I1230 19:51:33.625344 16687 net.cpp:120] Top shape: 80 128 7 7 (501760)
I1230 19:51:33.625418 16687 layer_factory.hpp:74] Creating layer inception_5b/relu_pool_proj
I1230 19:51:33.625443 16687 net.cpp:84] Creating Layer inception_5b/relu_pool_proj
I1230 19:51:33.625460 16687 net.cpp:380] inception_5b/relu_pool_proj <- inception_5b/pool_proj
I1230 19:51:33.625476 16687 net.cpp:327] inception_5b/relu_pool_proj -> inception_5b/pool_proj (in-place)
I1230 19:51:33.625494 16687 net.cpp:113] Setting up inception_5b/relu_pool_proj
I1230 19:51:33.625602 16687 net.cpp:120] Top shape: 80 128 7 7 (501760)
I1230 19:51:33.625614 16687 layer_factory.hpp:74] Creating layer inception_5b/output
I1230 19:51:33.625638 16687 net.cpp:84] Creating Layer inception_5b/output
I1230 19:51:33.625663 16687 net.cpp:380] inception_5b/output <- inception_5b/1x1
I1230 19:51:33.625674 16687 net.cpp:380] inception_5b/output <- inception_5b/3x3
I1230 19:51:33.625682 16687 net.cpp:380] inception_5b/output <- inception_5b/5x5
I1230 19:51:33.625690 16687 net.cpp:380] inception_5b/output <- inception_5b/pool_proj
I1230 19:51:33.625700 16687 net.cpp:338] inception_5b/output -> inception_5b/output
I1230 19:51:33.625715 16687 net.cpp:113] Setting up inception_5b/output
I1230 19:51:33.625732 16687 net.cpp:120] Top shape: 80 1024 7 7 (4014080)
I1230 19:51:33.625740 16687 layer_factory.hpp:74] Creating layer pool5/7x7_s1
I1230 19:51:33.625752 16687 net.cpp:84] Creating Layer pool5/7x7_s1
I1230 19:51:33.625759 16687 net.cpp:380] pool5/7x7_s1 <- inception_5b/output
I1230 19:51:33.625771 16687 net.cpp:338] pool5/7x7_s1 -> pool5/7x7_s1
I1230 19:51:33.625782 16687 net.cpp:113] Setting up pool5/7x7_s1
I1230 19:51:33.625883 16687 net.cpp:120] Top shape: 80 1024 1 1 (81920)
I1230 19:51:33.625893 16687 layer_factory.hpp:74] Creating layer pool5/drop_7x7_s1
I1230 19:51:33.625918 16687 net.cpp:84] Creating Layer pool5/drop_7x7_s1
I1230 19:51:33.625926 16687 net.cpp:380] pool5/drop_7x7_s1 <- pool5/7x7_s1
I1230 19:51:33.625936 16687 net.cpp:327] pool5/drop_7x7_s1 -> pool5/7x7_s1 (in-place)
I1230 19:51:33.625946 16687 net.cpp:113] Setting up pool5/drop_7x7_s1
I1230 19:51:33.625958 16687 net.cpp:120] Top shape: 80 1024 1 1 (81920)
I1230 19:51:33.625965 16687 layer_factory.hpp:74] Creating layer loss3/classifier_kaggle
I1230 19:51:33.625980 16687 net.cpp:84] Creating Layer loss3/classifier_kaggle
I1230 19:51:33.625988 16687 net.cpp:380] loss3/classifier_kaggle <- pool5/7x7_s1
I1230 19:51:33.626001 16687 net.cpp:338] loss3/classifier_kaggle -> loss3/classifier_kaggle
I1230 19:51:33.626014 16687 net.cpp:113] Setting up loss3/classifier_kaggle
I1230 19:51:33.631882 16687 net.cpp:120] Top shape: 80 447 (35760)
I1230 19:51:33.631921 16687 layer_factory.hpp:74] Creating layer loss3/loss3
I1230 19:51:33.631937 16687 net.cpp:84] Creating Layer loss3/loss3
I1230 19:51:33.631949 16687 net.cpp:380] loss3/loss3 <- loss3/classifier_kaggle
I1230 19:51:33.631963 16687 net.cpp:380] loss3/loss3 <- label_data_1_split_2
I1230 19:51:33.631973 16687 net.cpp:338] loss3/loss3 -> loss3/loss3
I1230 19:51:33.631989 16687 net.cpp:113] Setting up loss3/loss3
…
I1230 19:51:33.640298 16687 net.cpp:257] The NetState phase (1) differed from the phase (0) specified by a rule in layer data
I1230 19:51:33.642671 16687 net.cpp:42] Initializing net from parameters: 
name: "MYNET"
state {
  phase: TEST
}
layer {
  name: "data"
  type: "ImageData"
  top: "data"
  top: "label"
  include {
    phase: TEST
  }
  transform_param {
    mirror: false
    crop_size: 224
    mean_value: 129
    mean_value: 129
    mean_value: 129
  }
  image_data_param {
    source: "/home/coldmanck/kaggle/label_val_full_resize_rotated.txt"
    batch_size: 50
    shuffle: true
  }
}
layer {
  name: "conv1/7x7_s2"
  type: "Convolution"
  bottom: "data"
  top: "conv1/7x7_s2"
  param {
    lr_mult: 1
    decay_mult: 1
  }
  param {
    lr_mult: 2
    decay_mult: 0
  }
  convolution_param {
    num_output: 64
    pad: 3
    kernel_size: 7
    stride: 2
    weight_filler {
      type: "xavier"
    }
    bias_filler {
      type: "constant"
      value: 0.2
    }
  }
}
layer {
  name: "conv1/relu_7x7"
  type: "ReLU"
  bottom: "conv1/7x7_s2"
  top: "conv1/7x7_s2"
}
layer {
  name: "pool1/3x3_s2"
  type: "Pooling"
  bottom: "conv1/7x7_s2"
  top: "pool1/3x3_s2"
  pooling_param {
    pool: MAX
    kernel_size: 3
    stride: 2
  }
}
layer {
  name: "pool1/norm1"
  type: "LRN"
  bottom: "pool1/3x3_s2"
  top: "pool1/norm1"
  lrn_param {
    local_size: 5
    alpha: 0.0001
    beta: 0.75
  }
}
layer {
  name: "conv2/3x3_reduce"
  type: "Convolution"
  bottom: "pool1/norm1"
  top: "conv2/3x3_reduce"
  param {
    lr_mult: 1
    decay_mult: 1
  }
  param {
    lr_mult: 2
    decay_mult: 0
  }
  convolution_param {
    num_output: 64
    kernel_size: 1
    weight_filler {
      type: "xavier"
    }
    bias_filler {
      type: "constant"
      value: 0.2
    }
  }
}
layer {
  name: "conv2/relu_3x3_reduce"
  type: "ReLU"
  bottom: "conv2/3x3_reduce"
  top: "conv2/3x3_reduce"
}
layer {
  name: "conv2/3x3"
  type: "Convolution"
  bottom: "conv2/3x3_reduce"
  top: "conv2/3x3"
  param {
    lr_mult: 1
    decay_mult: 1
  }
  param {
    lr_mult: 2
    decay_mult: 0
  }
  convolution_param {
    num_output: 192
    pad: 1
    kernel_size: 3
    weight_filler {
      type: "xavier"
    }
    bias_filler {
      type: "constant"
      value: 0.2
    }
  }
}
layer {
  name: "conv2/relu_3x3"
  type: "ReLU"
  bottom: "conv2/3x3"
  top: "conv2/3x3"
}
layer {
  name: "conv2/norm2"
  type: "LRN"
  bottom: "conv2/3x3"
  top: "conv2/norm2"
  lrn_param {
    local_size: 5
    alpha: 0.0001
    beta: 0.75
  }
}
layer {
  name: "pool2/3x3_s2"
  type: "Pooling"
  bottom: "conv2/norm2"
  top: "pool2/3x3_s2"
  pooling_param {
    pool: MAX
    kernel_size: 3
    stride: 2
  }
}
layer {
  name: "inception_3a/1x1"
  type: "Convolution"
  bottom: "pool2/3x3_s2"
  top: "inception_3a/1x1"
  param {
    lr_mult: 1
    decay_mult: 1
  }
  param {
    lr_mult: 2
    decay_mult: 0
  }
  convolution_param {
    num_output: 64
    kernel_size: 1
    weight_filler {
      type: "xavier"
    }
    bias_filler {
      type: "constant"
      value: 0.2
    }
  }
}
layer {
  name: "inception_3a/relu_1x1"
  type: "ReLU"
  bottom: "inception_3a/1x1"
  top: "inception_3a/1x1"
}
layer {
  name: "inception_3a/3x3_reduce"
  type: "Convolution"
  bottom: "pool2/3x3_s2"
  top: "inception_3a/3x3_reduce"
  param {
    lr_mult: 1
    decay_mult: 1
  }
  param {
    lr_mult: 2
    decay_mult: 0
  }
  convolution_param {
    num_output: 96
    kernel_size: 1
    weight_filler {
      type: "xavier"
    }
    bias_filler {
      type: "constant"
      value: 0.2
    }
  }
}
layer {
  name: "inception_3a/relu_3x3_reduce"
  type: "ReLU"
  bottom: "inception_3a/3x3_reduce"
  top: "inception_3a/3x3_reduce"
}
layer {
  name: "inception_3a/3x3"
  type: "Convolution"
  bottom: "inception_3a/3x3_reduce"
  top: "inception_3a/3x3"
  param {
    lr_mult: 1
    decay_mult: 1
  }
  param {
    lr_mult: 2
    decay_mult: 0
  }
  convolution_param {
    num_output: 128
    pad: 1
    kernel_size: 3
    weight_filler {
      type: "xavier"
    }
    bias_filler {
      type: "constant"
      value: 0.2
    }
  }
}
layer {
  name: "inception_3a/relu_3x3"
  type: "ReLU"
  bottom: "inception_3a/3x3"
  top: "inception_3a/3x3"
}
layer {
  name: "inception_3a/5x5_reduce"
  type: "Convolution"
  bottom: "pool2/3x3_s2"
  top: "inception_3a/5x5_reduce"
  param {
    lr_mult: 1
    decay_mult: 1
  }
  param {
    lr_mult: 2
    decay_mult: 0
  }
  convolution_param {
    num_output: 16
    kernel_size: 1
    weight_filler {
      type: "xavier"
    }
    bias_filler {
      type: "constant"
      value: 0.2
    }
  }
}
layer {
  name: "inception_3a/relu_5x5_reduce"
  type: "ReLU"
  bottom: "inception_3a/5x5_reduce"
  top: "inception_3a/5x5_reduce"
}
layer {
  name: "inception_3a/5x5"
  type: "Convolution"
  bottom: "inception_3a/5x5_reduce"
  top: "inception_3a/5x5"
  param {
    lr_mult: 1
    decay_mult: 1
  }
  param {
    lr_mult: 2
    decay_mult: 0
  }
  convolution_param {
    num_output: 32
    pad: 2
    kernel_size: 5
    weight_filler {
      type: "xavier"
    }
    bias_filler {
      type: "constant"
      value: 0.2
    }
  }
}
layer {
  name: "inception_3a/relu_5x5"
  type: "ReLU"
  bottom: "inception_3a/5x5"
  top: "inception_3a/5x5"
}
layer {
  name: "inception_3a/pool"
  type: "Pooling"
  bottom: "pool2/3x3_s2"
  top: "inception_3a/pool"
  pooling_param {
    pool: MAX
    kernel_size: 3
    stride: 1
    pad: 1
  }
}
layer {
  name: "inception_3a/pool_proj"
  type: "Convolution"
  bottom: "inception_3a/pool"
  top: "inception_3a/pool_proj"
  param {
    lr_mult: 1
    decay_mult: 1
  }
  param {
    lr_mult: 2
    decay_mult: 0
  }
  convolution_param {
    num_output: 32
    kernel_size: 1
    weight_filler {
      type: "xavier"
    }
    bias_filler {
      type: "constant"
      value: 0.2
    }
  }
}
layer {
  name: "inception_3a/relu_pool_proj"
  type: "ReLU"
  bottom: "inception_3a/pool_proj"
  top: "inception_3a/pool_proj"
}
layer {
  name: "inception_3a/output"
  type: "Concat"
  bottom: "inception_3a/1x1"
  bottom: "inception_3a/3x3"
  bottom: "inception_3a/5x5"
  bottom: "inception_3a/pool_proj"
  top: "inception_3a/output"
}
layer {
  name: "inception_3b/1x1"
  type: "Convolution"
  bottom: "inception_3a/output"
  top: "inception_3b/1x1"
  param {
    lr_mult: 1
    decay_mult: 1
  }
  param {
    lr_mult: 2
    decay_mult: 0
  }
  convolution_param {
    num_output: 128
    kernel_size: 1
    weight_filler {
      type: "xavier"
    }
    bias_filler {
      type: "constant"
      value: 0.2
    }
  }
}
layer {
  name: "inception_3b/relu_1x1"
  type: "ReLU"
  bottom: "inception_3b/1x1"
  top: "inception_3b/1x1"
}
layer {
  name: "inception_3b/3x3_reduce"
  type: "Convolution"
  bottom: "inception_3a/output"
  top: "inception_3b/3x3_reduce"
  param {
    lr_mult: 1
    decay_mult: 1
  }
  param {
    lr_mult: 2
    decay_mult: 0
  }
  convolution_param {
    num_output: 128
    kernel_size: 1
    weight_filler {
      type: "xavier"
    }
    bias_filler {
      type: "constant"
      value: 0.2
    }
  }
}
layer {
  name: "inception_3b/relu_3x3_reduce"
  type: "ReLU"
  bottom: "inception_3b/3x3_reduce"
  top: "inception_3b/3x3_reduce"
}
layer {
  name: "inception_3b/3x3"
  type: "Convolution"
  bottom: "inception_3b/3x3_reduce"
  top: "inception_3b/3x3"
  param {
    lr_mult: 1
    decay_mult: 1
  }
  param {
    lr_mult: 2
    decay_mult: 0
  }
  convolution_param {
    num_output: 192
    pad: 1
    kernel_size: 3
    weight_filler {
      type: "xavier"
    }
    bias_filler {
      type: "constant"
      value: 0.2
    }
  }
}
layer {
  name: "inception_3b/relu_3x3"
  type: "ReLU"
  bottom: "inception_3b/3x3"
  top: "inception_3b/3x3"
}
layer {
  name: "inception_3b/5x5_reduce"
  type: "Convolution"
  bottom: "inception_3a/output"
  top: "inception_3b/5x5_reduce"
  param {
    lr_mult: 1
    decay_mult: 1
  }
  param {
    lr_mult: 2
    decay_mult: 0
  }
  convolution_param {
    num_output: 32
    kernel_size: 1
    weight_filler {
      type: "xavier"
    }
    bias_filler {
      type: "constant"
      value: 0.2
    }
  }
}
layer {
  name: "inception_3b/relu_5x5_reduce"
  type: "ReLU"
  bottom: "inception_3b/5x5_reduce"
  top: "inception_3b/5x5_reduce"
}
layer {
  name: "inception_3b/5x5"
  type: "Convolution"
  bottom: "inception_3b/5x5_reduce"
  top: "inception_3b/5x5"
  param {
    lr_mult: 1
    decay_mult: 1
  }
  param {
    lr_mult: 2
    decay_mult: 0
  }
  convolution_param {
    num_output: 96
    pad: 2
    kernel_size: 5
    weight_filler {
      type: "xavier"
    }
    bias_filler {
      type: "constant"
      value: 0.2
    }
  }
}
layer {
  name: "inception_3b/relu_5x5"
  type: "ReLU"
  bottom: "inception_3b/5x5"
  top: "inception_3b/5x5"
}
layer {
  name: "inception_3b/pool"
  type: "Pooling"
  bottom: "inception_3a/output"
  top: "inception_3b/pool"
  pooling_param {
    pool: MAX
    kernel_size: 3
    stride: 1
    pad: 1
  }
}
layer {
  name: "inception_3b/pool_proj"
  type: "Convolution"
  bottom: "inception_3b/pool"
  top: "inception_3b/pool_proj"
  param {
    lr_mult: 1
    decay_mult: 1
  }
  param {
    lr_mult: 2
    decay_mult: 0
  }
  convolution_param {
    num_output: 64
    kernel_size: 1
    weight_filler {
      type: "xavier"
    }
    bias_filler {
      type: "constant"
      value: 0.2
    }
  }
}
layer {
  name: "inception_3b/relu_pool_proj"
  type: "ReLU"
  bottom: "inception_3b/pool_proj"
  top: "inception_3b/pool_proj"
}
layer {
  name: "inception_3b/output"
  type: "Concat"
  bottom: "inception_3b/1x1"
  bottom: "inception_3b/3x3"
  bottom: "inception_3b/5x5"
  bottom: "inception_3b/pool_proj"
  top: "inception_3b/output"
}
layer {
  name: "pool3/3x3_s2"
  type: "Pooling"
  bottom: "inception_3b/output"
  top: "pool3/3x3_s2"
  pooling_param {
    pool: MAX
    kernel_size: 3
    stride: 2
  }
}
layer {
  name: "inception_4a/1x1"
  type: "Convolution"
  bottom: "pool3/3x3_s2"
  top: "inception_4a/1x1"
  param {
    lr_mult: 1
    decay_mult: 1
  }
  param {
    lr_mult: 2
    decay_mult: 0
  }
  convolution_param {
    num_output: 192
    kernel_size: 1
    weight_filler {
      type: "xavier"
    }
    bias_filler {
      type: "constant"
      value: 0.2
    }
  }
}
layer {
  name: "inception_4a/relu_1x1"
  type: "ReLU"
  bottom: "inception_4a/1x1"
  top: "inception_4a/1x1"
}
layer {
  name: "inception_4a/3x3_reduce"
  type: "Convolution"
  bottom: "pool3/3x3_s2"
  top: "inception_4a/3x3_reduce"
  param {
    lr_mult: 1
    decay_mult: 1
  }
  param {
    lr_mult: 2
    decay_mult: 0
  }
  convolution_param {
    num_output: 96
    kernel_size: 1
    weight_filler {
      type: "xavier"
    }
    bias_filler {
      type: "constant"
      value: 0.2
    }
  }
}
layer {
  name: "inception_4a/relu_3x3_reduce"
  type: "ReLU"
  bottom: "inception_4a/3x3_reduce"
  top: "inception_4a/3x3_reduce"
}
layer {
  name: "inception_4a/3x3"
  type: "Convolution"
  bottom: "inception_4a/3x3_reduce"
  top: "inception_4a/3x3"
  param {
    lr_mult: 1
    decay_mult: 1
  }
  param {
    lr_mult: 2
    decay_mult: 0
  }
  convolution_param {
    num_output: 208
    pad: 1
    kernel_size: 3
    weight_filler {
      type: "xavier"
    }
    bias_filler {
      type: "constant"
      value: 0.2
    }
  }
}
layer {
  name: "inception_4a/relu_3x3"
  type: "ReLU"
  bottom: "inception_4a/3x3"
  top: "inception_4a/3x3"
}
layer {
  name: "inception_4a/5x5_reduce"
  type: "Convolution"
  bottom: "pool3/3x3_s2"
  top: "inception_4a/5x5_reduce"
  param {
    lr_mult: 1
    decay_mult: 1
  }
  param {
    lr_mult: 2
    decay_mult: 0
  }
  convolution_param {
    num_output: 16
    kernel_size: 1
    weight_filler {
      type: "xavier"
    }
    bias_filler {
      type: "constant"
      value: 0.2
    }
  }
}
layer {
  name: "inception_4a/relu_5x5_reduce"
  type: "ReLU"
  bottom: "inception_4a/5x5_reduce"
  top: "inception_4a/5x5_reduce"
}
layer {
  name: "inception_4a/5x5"
  type: "Convolution"
  bottom: "inception_4a/5x5_reduce"
  top: "inception_4a/5x5"
  param {
    lr_mult: 1
    decay_mult: 1
  }
  param {
    lr_mult: 2
    decay_mult: 0
  }
  convolution_param {
    num_output: 48
    pad: 2
    kernel_size: 5
    weight_filler {
      type: "xavier"
    }
    bias_filler {
      type: "constant"
      value: 0.2
    }
  }
}
layer {
  name: "inception_4a/relu_5x5"
  type: "ReLU"
  bottom: "inception_4a/5x5"
  top: "inception_4a/5x5"
}
layer {
  name: "inception_4a/pool"
  type: "Pooling"
  bottom: "pool3/3x3_s2"
  top: "inception_4a/pool"
  pooling_param {
    pool: MAX
    kernel_size: 3
    stride: 1
    pad: 1
  }
}
layer {
  name: "inception_4a/pool_proj"
  type: "Convolution"
  bottom: "inception_4a/pool"
  top: "inception_4a/pool_proj"
  param {
    lr_mult: 1
    decay_mult: 1
  }
  param {
    lr_mult: 2
    decay_mult: 0
  }
  convolution_param {
    num_output: 64
    kernel_size: 1
    weight_filler {
      type: "xavier"
    }
    bias_filler {
      type: "constant"
      value: 0.2
    }
  }
}
layer {
  name: "inception_4a/relu_pool_proj"
  type: "ReLU"
  bottom: "inception_4a/pool_proj"
  top: "inception_4a/pool_proj"
}
layer {
  name: "inception_4a/output"
  type: "Concat"
  bottom: "inception_4a/1x1"
  bottom: "inception_4a/3x3"
  bottom: "inception_4a/5x5"
  bottom: "inception_4a/pool_proj"
  top: "inception_4a/output"
}
layer {
  name: "loss1/ave_pool"
  type: "Pooling"
  bottom: "inception_4a/output"
  top: "loss1/ave_pool"
  pooling_param {
    pool: AVE
    kernel_size: 5
    stride: 3
  }
}
layer {
  name: "loss1/conv"
  type: "Convolution"
  bottom: "loss1/ave_pool"
  top: "loss1/conv"
  param {
    lr_mult: 1
    decay_mult: 1
  }
  param {
    lr_mult: 2
    decay_mult: 0
  }
  convolution_param {
    num_output: 128
    kernel_size: 1
    weight_filler {
      type: "xavier"
    }
    bias_filler {
      type: "constant"
      value: 0.2
    }
  }
}
layer {
  name: "loss1/relu_conv"
  type: "ReLU"
  bottom: "loss1/conv"
  top: "loss1/conv"
}
layer {
  name: "loss1/fc"
  type: "InnerProduct"
  bottom: "loss1/conv"
  top: "loss1/fc"
  param {
    lr_mult: 1
    decay_mult: 1
  }
  param {
    lr_mult: 2
    decay_mult: 0
  }
  inner_product_param {
    num_output: 1024
    weight_filler {
      type: "xavier"
    }
    bias_filler {
      type: "constant"
      value: 0.2
    }
  }
}
layer {
  name: "loss1/relu_fc"
  type: "ReLU"
  bottom: "loss1/fc"
  top: "loss1/fc"
}
layer {
  name: "loss1/drop_fc"
  type: "Dropout"
  bottom: "loss1/fc"
  top: "loss1/fc"
  dropout_param {
    dropout_ratio: 0.7
  }
}
layer {
  name: "loss1/classifier_kaggle"
  type: "InnerProduct"
  bottom: "loss1/fc"
  top: "loss1/classifier_kaggle"
  param {
    lr_mult: 1
    decay_mult: 1
  }
  param {
    lr_mult: 2
    decay_mult: 0
  }
  inner_product_param {
    num_output: 447
    weight_filler {
      type: "xavier"
    }
    bias_filler {
      type: "constant"
      value: 0
    }
  }
}
layer {
  name: "loss1/loss"
  type: "SoftmaxWithLoss"
  bottom: "loss1/classifier_kaggle"
  bottom: "label"
  top: "loss1/loss1"
  loss_weight: 0.3
}
layer {
  name: "loss1/top-1"
  type: "Accuracy"
  bottom: "loss1/classifier_kaggle"
  bottom: "label"
  top: "loss1/top-1"
  include {
    phase: TEST
  }
}
layer {
  name: "loss1/top-5"
  type: "Accuracy"
  bottom: "loss1/classifier_kaggle"
  bottom: "label"
  top: "loss1/top-5"
  include {
    phase: TEST
  }
  accuracy_param {
    top_k: 5
  }
}
layer {
  name: "inception_4b/1x1"
  type: "Convolution"
  bottom: "inception_4a/output"
  top: "inception_4b/1x1"
  param {
    lr_mult: 1
    decay_mult: 1
  }
  param {
    lr_mult: 2
    decay_mult: 0
  }
  convolution_param {
    num_output: 160
    kernel_size: 1
    weight_filler {
      type: "xavier"
    }
    bias_filler {
      type: "constant"
      value: 0.2
    }
  }
}
layer {
  name: "inception_4b/relu_1x1"
  type: "ReLU"
  bottom: "inception_4b/1x1"
  top: "inception_4b/1x1"
}
layer {
  name: "inception_4b/3x3_reduce"
  type: "Convolution"
  bottom: "inception_4a/output"
  top: "inception_4b/3x3_reduce"
  param {
    lr_mult: 1
    decay_mult: 1
  }
  param {
    lr_mult: 2
    decay_mult: 0
  }
  convolution_param {
    num_output: 112
    kernel_size: 1
    weight_filler {
      type: "xavier"
    }
    bias_filler {
      type: "constant"
      value: 0.2
    }
  }
}
layer {
  name: "inception_4b/relu_3x3_reduce"
  type: "ReLU"
  bottom: "inception_4b/3x3_reduce"
  top: "inception_4b/3x3_reduce"
}
layer {
  name: "inception_4b/3x3"
  type: "Convolution"
  bottom: "inception_4b/3x3_reduce"
  top: "inception_4b/3x3"
  param {
    lr_mult: 1
    decay_mult: 1
  }
  param {
    lr_mult: 2
    decay_mult: 0
  }
  convolution_param {
    num_output: 224
    pad: 1
    kernel_size: 3
    weight_filler {
      type: "xavier"
    }
    bias_filler {
      type: "constant"
      value: 0.2
    }
  }
}
layer {
  name: "inception_4b/relu_3x3"
  type: "ReLU"
  bottom: "inception_4b/3x3"
  top: "inception_4b/3x3"
}
layer {
  name: "inception_4b/5x5_reduce"
  type: "Convolution"
  bottom: "inception_4a/output"
  top: "inception_4b/5x5_reduce"
  param {
    lr_mult: 1
    decay_mult: 1
  }
  param {
    lr_mult: 2
    decay_mult: 0
  }
  convolution_param {
    num_output: 24
    kernel_size: 1
    weight_filler {
      type: "xavier"
    }
    bias_filler {
      type: "constant"
      value: 0.2
    }
  }
}
layer {
  name: "inception_4b/relu_5x5_reduce"
  type: "ReLU"
  bottom: "inception_4b/5x5_reduce"
  top: "inception_4b/5x5_reduce"
}
layer {
  name: "inception_4b/5x5"
  type: "Convolution"
  bottom: "inception_4b/5x5_reduce"
  top: "inception_4b/5x5"
  param {
    lr_mult: 1
    decay_mult: 1
  }
  param {
    lr_mult: 2
    decay_mult: 0
  }
  convolution_param {
    num_output: 64
    pad: 2
    kernel_size: 5
    weight_filler {
      type: "xavier"
    }
    bias_filler {
      type: "constant"
      value: 0.2
    }
  }
}
layer {
  name: "inception_4b/relu_5x5"
  type: "ReLU"
  bottom: "inception_4b/5x5"
  top: "inception_4b/5x5"
}
layer {
  name: "inception_4b/pool"
  type: "Pooling"
  bottom: "inception_4a/output"
  top: "inception_4b/pool"
  pooling_param {
    pool: MAX
    kernel_size: 3
    stride: 1
    pad: 1
  }
}
layer {
  name: "inception_4b/pool_proj"
  type: "Convolution"
  bottom: "inception_4b/pool"
  top: "inception_4b/pool_proj"
  param {
    lr_mult: 1
    decay_mult: 1
  }
  param {
    lr_mult: 2
    decay_mult: 0
  }
  convolution_param {
    num_output: 64
    kernel_size: 1
    weight_filler {
      type: "xavier"
    }
    bias_filler {
      type: "constant"
      value: 0.2
    }
  }
}
layer {
  name: "inception_4b/relu_pool_proj"
  type: "ReLU"
  bottom: "inception_4b/pool_proj"
  top: "inception_4b/pool_proj"
}
layer {
  name: "inception_4b/output"
  type: "Concat"
  bottom: "inception_4b/1x1"
  bottom: "inception_4b/3x3"
  bottom: "inception_4b/5x5"
  bottom: "inception_4b/pool_proj"
  top: "inception_4b/output"
}
layer {
  name: "inception_4c/1x1"
  type: "Convolution"
  bottom: "inception_4b/output"
  top: "inception_4c/1x1"
  param {
    lr_mult: 1
    decay_mult: 1
  }
  param {
    lr_mult: 2
    decay_mult: 0
  }
  convolution_param {
    num_output: 128
    kernel_size: 1
    weight_filler {
      type: "xavier"
    }
    bias_filler {
      type: "constant"
      value: 0.2
    }
  }
}
layer {
  name: "inception_4c/relu_1x1"
  type: "ReLU"
  bottom: "inception_4c/1x1"
  top: "inception_4c/1x1"
}
layer {
  name: "inception_4c/3x3_reduce"
  type: "Convolution"
  bottom: "inception_4b/output"
  top: "inception_4c/3x3_reduce"
  param {
    lr_mult: 1
    decay_mult: 1
  }
  param {
    lr_mult: 2
    decay_mult: 0
  }
  convolution_param {
    num_output: 128
    kernel_size: 1
    weight_filler {
      type: "xavier"
    }
    bias_filler {
      type: "constant"
      value: 0.2
    }
  }
}
layer {
  name: "inception_4c/relu_3x3_reduce"
  type: "ReLU"
  bottom: "inception_4c/3x3_reduce"
  top: "inception_4c/3x3_reduce"
}
layer {
  name: "inception_4c/3x3"
  type: "Convolution"
  bottom: "inception_4c/3x3_reduce"
  top: "inception_4c/3x3"
  param {
    lr_mult: 1
    decay_mult: 1
  }
  param {
    lr_mult: 2
    decay_mult: 0
  }
  convolution_param {
    num_output: 256
    pad: 1
    kernel_size: 3
    weight_filler {
      type: "xavier"
    }
    bias_filler {
      type: "constant"
      value: 0.2
    }
  }
}
layer {
  name: "inception_4c/relu_3x3"
  type: "ReLU"
  bottom: "inception_4c/3x3"
  top: "inception_4c/3x3"
}
layer {
  name: "inception_4c/5x5_reduce"
  type: "Convolution"
  bottom: "inception_4b/output"
  top: "inception_4c/5x5_reduce"
  param {
    lr_mult: 1
    decay_mult: 1
  }
  param {
    lr_mult: 2
    decay_mult: 0
  }
  convolution_param {
    num_output: 24
    kernel_size: 1
    weight_filler {
      type: "xavier"
    }
    bias_filler {
      type: "constant"
      value: 0.2
    }
  }
}
layer {
  name: "inception_4c/relu_5x5_reduce"
  type: "ReLU"
  bottom: "inception_4c/5x5_reduce"
  top: "inception_4c/5x5_reduce"
}
layer {
  name: "inception_4c/5x5"
  type: "Convolution"
  bottom: "inception_4c/5x5_reduce"
  top: "inception_4c/5x5"
  param {
    lr_mult: 1
    decay_mult: 1
  }
  param {
    lr_mult: 2
    decay_mult: 0
  }
  convolution_param {
    num_output: 64
    pad: 2
    kernel_size: 5
    weight_filler {
      type: "xavier"
    }
    bias_filler {
      type: "constant"
      value: 0.2
    }
  }
}
layer {
  name: "inception_4c/relu_5x5"
  type: "ReLU"
  bottom: "inception_4c/5x5"
  top: "inception_4c/5x5"
}
layer {
  name: "inception_4c/pool"
  type: "Pooling"
  bottom: "inception_4b/output"
  top: "inception_4c/pool"
  pooling_param {
    pool: MAX
    kernel_size: 3
    stride: 1
    pad: 1
  }
}
layer {
  name: "inception_4c/pool_proj"
  type: "Convolution"
  bottom: "inception_4c/pool"
  top: "inception_4c/pool_proj"
  param {
    lr_mult: 1
    decay_mult: 1
  }
  param {
    lr_mult: 2
    decay_mult: 0
  }
  convolution_param {
    num_output: 64
    kernel_size: 1
    weight_filler {
      type: "xavier"
    }
    bias_filler {
      type: "constant"
      value: 0.2
    }
  }
}
layer {
  name: "inception_4c/relu_pool_proj"
  type: "ReLU"
  bottom: "inception_4c/pool_proj"
  top: "inception_4c/pool_proj"
}
layer {
  name: "inception_4c/output"
  type: "Concat"
  bottom: "inception_4c/1x1"
  bottom: "inception_4c/3x3"
  bottom: "inception_4c/5x5"
  bottom: "inception_4c/pool_proj"
  top: "inception_4c/output"
}
layer {
  name: "inception_4d/1x1"
  type: "Convolution"
  bottom: "inception_4c/output"
  top: "inception_4d/1x1"
  param {
    lr_mult: 1
    decay_mult: 1
  }
  param {
    lr_mult: 2
    decay_mult: 0
  }
  convolution_param {
    num_output: 112
    kernel_size: 1
    weight_filler {
      type: "xavier"
    }
    bias_filler {
      type: "constant"
      value: 0.2
    }
  }
}
layer {
  name: "inception_4d/relu_1x1"
  type: "ReLU"
  bottom: "inception_4d/1x1"
  top: "inception_4d/1x1"
}
layer {
  name: "inception_4d/3x3_reduce"
  type: "Convolution"
  bottom: "inception_4c/output"
  top: "inception_4d/3x3_reduce"
  param {
    lr_mult: 1
    decay_mult: 1
  }
  param {
    lr_mult: 2
    decay_mult: 0
  }
  convolution_param {
    num_output: 144
    kernel_size: 1
    weight_filler {
      type: "xavier"
    }
    bias_filler {
      type: "constant"
      value: 0.2
    }
  }
}
layer {
  name: "inception_4d/relu_3x3_reduce"
  type: "ReLU"
  bottom: "inception_4d/3x3_reduce"
  top: "inception_4d/3x3_reduce"
}
layer {
  name: "inception_4d/3x3"
  type: "Convolution"
  bottom: "inception_4d/3x3_reduce"
  top: "inception_4d/3x3"
  param {
    lr_mult: 1
    decay_mult: 1
  }
  param {
    lr_mult: 2
    decay_mult: 0
  }
  convolution_param {
    num_output: 288
    pad: 1
    kernel_size: 3
    weight_filler {
      type: "xavier"
    }
    bias_filler {
      type: "constant"
      value: 0.2
    }
  }
}
layer {
  name: "inception_4d/relu_3x3"
  type: "ReLU"
  bottom: "inception_4d/3x3"
  top: "inception_4d/3x3"
}
layer {
  name: "inception_4d/5x5_reduce"
  type: "Convolution"
  bottom: "inception_4c/output"
  top: "inception_4d/5x5_reduce"
  param {
    lr_mult: 1
    decay_mult: 1
  }
  param {
    lr_mult: 2
    decay_mult: 0
  }
  convolution_param {
    num_output: 32
    kernel_size: 1
    weight_filler {
      type: "xavier"
    }
    bias_filler {
      type: "constant"
      value: 0.2
    }
  }
}
layer {
  name: "inception_4d/relu_5x5_reduce"
  type: "ReLU"
  bottom: "inception_4d/5x5_reduce"
  top: "inception_4d/5x5_reduce"
}
layer {
  name: "inception_4d/5x5"
  type: "Convolution"
  bottom: "inception_4d/5x5_reduce"
  top: "inception_4d/5x5"
  param {
    lr_mult: 1
    decay_mult: 1
  }
  param {
    lr_mult: 2
    decay_mult: 0
  }
  convolution_param {
    num_output: 64
    pad: 2
    kernel_size: 5
    weight_filler {
      type: "xavier"
    }
    bias_filler {
      type: "constant"
      value: 0.2
    }
  }
}
layer {
  name: "inception_4d/relu_5x5"
  type: "ReLU"
  bottom: "inception_4d/5x5"
  top: "inception_4d/5x5"
}
layer {
  name: "inception_4d/pool"
  type: "Pooling"
  bottom: "inception_4c/output"
  top: "inception_4d/pool"
  pooling_param {
    pool: MAX
    kernel_size: 3
    stride: 1
    pad: 1
  }
}
layer {
  name: "inception_4d/pool_proj"
  type: "Convolution"
  bottom: "inception_4d/pool"
  top: "inception_4d/pool_proj"
  param {
    lr_mult: 1
    decay_mult: 1
  }
  param {
    lr_mult: 2
    decay_mult: 0
  }
  convolution_param {
    num_output: 64
    kernel_size: 1
    weight_filler {
      type: "xavier"
    }
    bias_filler {
      type: "constant"
      value: 0.2
    }
  }
}
layer {
  name: "inception_4d/relu_pool_proj"
  type: "ReLU"
  bottom: "inception_4d/pool_proj"
  top: "inception_4d/pool_proj"
}
layer {
  name: "inception_4d/output"
  type: "Concat"
  bottom: "inception_4d/1x1"
  bottom: "inception_4d/3x3"
  bottom: "inception_4d/5x5"
  bottom: "inception_4d/pool_proj"
  top: "inception_4d/output"
}
layer {
  name: "loss2/ave_pool"
  type: "Pooling"
  bottom: "inception_4d/output"
  top: "loss2/ave_pool"
  pooling_param {
    pool: AVE
    kernel_size: 5
    stride: 3
  }
}
layer {
…
I1230 19:51:34.524148 16687 net.cpp:84] Creating Layer inception_4c/1x1
I1230 19:51:34.524155 16687 net.cpp:380] inception_4c/1x1 <- inception_4b/output_inception_4b/output_0_split_0
I1230 19:51:34.524168 16687 net.cpp:338] inception_4c/1x1 -> inception_4c/1x1
I1230 19:51:34.524178 16687 net.cpp:113] Setting up inception_4c/1x1
I1230 19:51:34.525497 16687 net.cpp:120] Top shape: 50 128 14 14 (1254400)
I1230 19:51:34.525519 16687 layer_factory.hpp:74] Creating layer inception_4c/relu_1x1
I1230 19:51:34.525529 16687 net.cpp:84] Creating Layer inception_4c/relu_1x1
I1230 19:51:34.525537 16687 net.cpp:380] inception_4c/relu_1x1 <- inception_4c/1x1
I1230 19:51:34.525554 16687 net.cpp:327] inception_4c/relu_1x1 -> inception_4c/1x1 (in-place)
I1230 19:51:34.525576 16687 net.cpp:113] Setting up inception_4c/relu_1x1
I1230 19:51:34.525861 16687 net.cpp:120] Top shape: 50 128 14 14 (1254400)
I1230 19:51:34.525874 16687 layer_factory.hpp:74] Creating layer inception_4c/3x3_reduce
I1230 19:51:34.525889 16687 net.cpp:84] Creating Layer inception_4c/3x3_reduce
I1230 19:51:34.525898 16687 net.cpp:380] inception_4c/3x3_reduce <- inception_4b/output_inception_4b/output_0_split_1
I1230 19:51:34.525913 16687 net.cpp:338] inception_4c/3x3_reduce -> inception_4c/3x3_reduce
I1230 19:51:34.525925 16687 net.cpp:113] Setting up inception_4c/3x3_reduce
I1230 19:51:34.527258 16687 net.cpp:120] Top shape: 50 128 14 14 (1254400)
I1230 19:51:34.527278 16687 layer_factory.hpp:74] Creating layer inception_4c/relu_3x3_reduce
I1230 19:51:34.527290 16687 net.cpp:84] Creating Layer inception_4c/relu_3x3_reduce
I1230 19:51:34.527298 16687 net.cpp:380] inception_4c/relu_3x3_reduce <- inception_4c/3x3_reduce
I1230 19:51:34.527308 16687 net.cpp:327] inception_4c/relu_3x3_reduce -> inception_4c/3x3_reduce (in-place)
I1230 19:51:34.527318 16687 net.cpp:113] Setting up inception_4c/relu_3x3_reduce
I1230 19:51:34.527415 16687 net.cpp:120] Top shape: 50 128 14 14 (1254400)
I1230 19:51:34.527426 16687 layer_factory.hpp:74] Creating layer inception_4c/3x3
I1230 19:51:34.527439 16687 net.cpp:84] Creating Layer inception_4c/3x3
I1230 19:51:34.527447 16687 net.cpp:380] inception_4c/3x3 <- inception_4c/3x3_reduce
I1230 19:51:34.527457 16687 net.cpp:338] inception_4c/3x3 -> inception_4c/3x3
I1230 19:51:34.527469 16687 net.cpp:113] Setting up inception_4c/3x3
I1230 19:51:34.531615 16687 net.cpp:120] Top shape: 50 256 14 14 (2508800)
I1230 19:51:34.531651 16687 layer_factory.hpp:74] Creating layer inception_4c/relu_3x3
I1230 19:51:34.531663 16687 net.cpp:84] Creating Layer inception_4c/relu_3x3
I1230 19:51:34.531672 16687 net.cpp:380] inception_4c/relu_3x3 <- inception_4c/3x3
I1230 19:51:34.531685 16687 net.cpp:327] inception_4c/relu_3x3 -> inception_4c/3x3 (in-place)
I1230 19:51:34.531697 16687 net.cpp:113] Setting up inception_4c/relu_3x3
I1230 19:51:34.531795 16687 net.cpp:120] Top shape: 50 256 14 14 (2508800)
I1230 19:51:34.531805 16687 layer_factory.hpp:74] Creating layer inception_4c/5x5_reduce
I1230 19:51:34.531818 16687 net.cpp:84] Creating Layer inception_4c/5x5_reduce
I1230 19:51:34.531826 16687 net.cpp:380] inception_4c/5x5_reduce <- inception_4b/output_inception_4b/output_0_split_2
I1230 19:51:34.531839 16687 net.cpp:338] inception_4c/5x5_reduce -> inception_4c/5x5_reduce
I1230 19:51:34.531851 16687 net.cpp:113] Setting up inception_4c/5x5_reduce
I1230 19:51:34.532510 16687 net.cpp:120] Top shape: 50 24 14 14 (235200)
I1230 19:51:34.532532 16687 layer_factory.hpp:74] Creating layer inception_4c/relu_5x5_reduce
I1230 19:51:34.532543 16687 net.cpp:84] Creating Layer inception_4c/relu_5x5_reduce
I1230 19:51:34.532552 16687 net.cpp:380] inception_4c/relu_5x5_reduce <- inception_4c/5x5_reduce
I1230 19:51:34.532562 16687 net.cpp:327] inception_4c/relu_5x5_reduce -> inception_4c/5x5_reduce (in-place)
I1230 19:51:34.532572 16687 net.cpp:113] Setting up inception_4c/relu_5x5_reduce
I1230 19:51:34.532855 16687 net.cpp:120] Top shape: 50 24 14 14 (235200)
I1230 19:51:34.532868 16687 layer_factory.hpp:74] Creating layer inception_4c/5x5
I1230 19:51:34.532883 16687 net.cpp:84] Creating Layer inception_4c/5x5
I1230 19:51:34.532891 16687 net.cpp:380] inception_4c/5x5 <- inception_4c/5x5_reduce
I1230 19:51:34.532902 16687 net.cpp:338] inception_4c/5x5 -> inception_4c/5x5
I1230 19:51:34.532915 16687 net.cpp:113] Setting up inception_4c/5x5
I1230 19:51:34.533915 16687 net.cpp:120] Top shape: 50 64 14 14 (627200)
I1230 19:51:34.533936 16687 layer_factory.hpp:74] Creating layer inception_4c/relu_5x5
I1230 19:51:34.533946 16687 net.cpp:84] Creating Layer inception_4c/relu_5x5
I1230 19:51:34.533954 16687 net.cpp:380] inception_4c/relu_5x5 <- inception_4c/5x5
I1230 19:51:34.533968 16687 net.cpp:327] inception_4c/relu_5x5 -> inception_4c/5x5 (in-place)
I1230 19:51:34.533988 16687 net.cpp:113] Setting up inception_4c/relu_5x5
I1230 19:51:34.534106 16687 net.cpp:120] Top shape: 50 64 14 14 (627200)
I1230 19:51:34.534116 16687 layer_factory.hpp:74] Creating layer inception_4c/pool
I1230 19:51:34.534123 16687 layer_factory.cpp:56] CUDNN does not support padding or multiple tops. Using Caffe's own pooling layer.
I1230 19:51:34.534135 16687 net.cpp:84] Creating Layer inception_4c/pool
I1230 19:51:34.534143 16687 net.cpp:380] inception_4c/pool <- inception_4b/output_inception_4b/output_0_split_3
I1230 19:51:34.534154 16687 net.cpp:338] inception_4c/pool -> inception_4c/pool
I1230 19:51:34.534167 16687 net.cpp:113] Setting up inception_4c/pool
I1230 19:51:34.534181 16687 net.cpp:120] Top shape: 50 512 14 14 (5017600)
I1230 19:51:34.534189 16687 layer_factory.hpp:74] Creating layer inception_4c/pool_proj
I1230 19:51:34.534200 16687 net.cpp:84] Creating Layer inception_4c/pool_proj
I1230 19:51:34.534209 16687 net.cpp:380] inception_4c/pool_proj <- inception_4c/pool
I1230 19:51:34.534227 16687 net.cpp:338] inception_4c/pool_proj -> inception_4c/pool_proj
I1230 19:51:34.534240 16687 net.cpp:113] Setting up inception_4c/pool_proj
I1230 19:51:34.535183 16687 net.cpp:120] Top shape: 50 64 14 14 (627200)
I1230 19:51:34.535202 16687 layer_factory.hpp:74] Creating layer inception_4c/relu_pool_proj
I1230 19:51:34.535217 16687 net.cpp:84] Creating Layer inception_4c/relu_pool_proj
I1230 19:51:34.535224 16687 net.cpp:380] inception_4c/relu_pool_proj <- inception_4c/pool_proj
I1230 19:51:34.535234 16687 net.cpp:327] inception_4c/relu_pool_proj -> inception_4c/pool_proj (in-place)
I1230 19:51:34.535244 16687 net.cpp:113] Setting up inception_4c/relu_pool_proj
I1230 19:51:34.535337 16687 net.cpp:120] Top shape: 50 64 14 14 (627200)
I1230 19:51:34.535351 16687 layer_factory.hpp:74] Creating layer inception_4c/output
I1230 19:51:34.535359 16687 net.cpp:84] Creating Layer inception_4c/output
I1230 19:51:34.535367 16687 net.cpp:380] inception_4c/output <- inception_4c/1x1
I1230 19:51:34.535377 16687 net.cpp:380] inception_4c/output <- inception_4c/3x3
I1230 19:51:34.535384 16687 net.cpp:380] inception_4c/output <- inception_4c/5x5
I1230 19:51:34.535392 16687 net.cpp:380] inception_4c/output <- inception_4c/pool_proj
I1230 19:51:34.535400 16687 net.cpp:338] inception_4c/output -> inception_4c/output
I1230 19:51:34.535411 16687 net.cpp:113] Setting up inception_4c/output
I1230 19:51:34.535423 16687 net.cpp:120] Top shape: 50 512 14 14 (5017600)
I1230 19:51:34.535431 16687 layer_factory.hpp:74] Creating layer inception_4c/output_inception_4c/output_0_split
I1230 19:51:34.535441 16687 net.cpp:84] Creating Layer inception_4c/output_inception_4c/output_0_split
I1230 19:51:34.535449 16687 net.cpp:380] inception_4c/output_inception_4c/output_0_split <- inception_4c/output
I1230 19:51:34.535462 16687 net.cpp:338] inception_4c/output_inception_4c/output_0_split -> inception_4c/output_inception_4c/output_0_split_0
I1230 19:51:34.535475 16687 net.cpp:338] inception_4c/output_inception_4c/output_0_split -> inception_4c/output_inception_4c/output_0_split_1
I1230 19:51:34.535485 16687 net.cpp:338] inception_4c/output_inception_4c/output_0_split -> inception_4c/output_inception_4c/output_0_split_2
I1230 19:51:34.535496 16687 net.cpp:338] inception_4c/output_inception_4c/output_0_split -> inception_4c/output_inception_4c/output_0_split_3
I1230 19:51:34.535506 16687 net.cpp:113] Setting up inception_4c/output_inception_4c/output_0_split
I1230 19:51:34.535516 16687 net.cpp:120] Top shape: 50 512 14 14 (5017600)
I1230 19:51:34.535524 16687 net.cpp:120] Top shape: 50 512 14 14 (5017600)
I1230 19:51:34.535532 16687 net.cpp:120] Top shape: 50 512 14 14 (5017600)
I1230 19:51:34.535542 16687 net.cpp:120] Top shape: 50 512 14 14 (5017600)
I1230 19:51:34.535548 16687 layer_factory.hpp:74] Creating layer inception_4d/1x1
I1230 19:51:34.535562 16687 net.cpp:84] Creating Layer inception_4d/1x1
I1230 19:51:34.535569 16687 net.cpp:380] inception_4d/1x1 <- inception_4c/output_inception_4c/output_0_split_0
I1230 19:51:34.535588 16687 net.cpp:338] inception_4d/1x1 -> inception_4d/1x1
I1230 19:51:34.535609 16687 net.cpp:113] Setting up inception_4d/1x1
I1230 19:51:34.536926 16687 net.cpp:120] Top shape: 50 112 14 14 (1097600)
I1230 19:51:34.536945 16687 layer_factory.hpp:74] Creating layer inception_4d/relu_1x1
I1230 19:51:34.536960 16687 net.cpp:84] Creating Layer inception_4d/relu_1x1
I1230 19:51:34.536968 16687 net.cpp:380] inception_4d/relu_1x1 <- inception_4d/1x1
I1230 19:51:34.536978 16687 net.cpp:327] inception_4d/relu_1x1 -> inception_4d/1x1 (in-place)
I1230 19:51:34.536988 16687 net.cpp:113] Setting up inception_4d/relu_1x1
I1230 19:51:34.537093 16687 net.cpp:120] Top shape: 50 112 14 14 (1097600)
I1230 19:51:34.537106 16687 layer_factory.hpp:74] Creating layer inception_4d/3x3_reduce
I1230 19:51:34.537118 16687 net.cpp:84] Creating Layer inception_4d/3x3_reduce
I1230 19:51:34.537127 16687 net.cpp:380] inception_4d/3x3_reduce <- inception_4c/output_inception_4c/output_0_split_1
I1230 19:51:34.537140 16687 net.cpp:338] inception_4d/3x3_reduce -> inception_4d/3x3_reduce
I1230 19:51:34.537153 16687 net.cpp:113] Setting up inception_4d/3x3_reduce
I1230 19:51:34.538622 16687 net.cpp:120] Top shape: 50 144 14 14 (1411200)
I1230 19:51:34.538643 16687 layer_factory.hpp:74] Creating layer inception_4d/relu_3x3_reduce
I1230 19:51:34.538655 16687 net.cpp:84] Creating Layer inception_4d/relu_3x3_reduce
I1230 19:51:34.538663 16687 net.cpp:380] inception_4d/relu_3x3_reduce <- inception_4d/3x3_reduce
I1230 19:51:34.538673 16687 net.cpp:327] inception_4d/relu_3x3_reduce -> inception_4d/3x3_reduce (in-place)
I1230 19:51:34.538683 16687 net.cpp:113] Setting up inception_4d/relu_3x3_reduce
I1230 19:51:34.538988 16687 net.cpp:120] Top shape: 50 144 14 14 (1411200)
I1230 19:51:34.539002 16687 layer_factory.hpp:74] Creating layer inception_4d/3x3
I1230 19:51:34.539016 16687 net.cpp:84] Creating Layer inception_4d/3x3
I1230 19:51:34.539023 16687 net.cpp:380] inception_4d/3x3 <- inception_4d/3x3_reduce
I1230 19:51:34.539036 16687 net.cpp:338] inception_4d/3x3 -> inception_4d/3x3
I1230 19:51:34.539047 16687 net.cpp:113] Setting up inception_4d/3x3
I1230 19:51:34.544188 16687 net.cpp:120] Top shape: 50 288 14 14 (2822400)
I1230 19:51:34.544209 16687 layer_factory.hpp:74] Creating layer inception_4d/relu_3x3
I1230 19:51:34.544219 16687 net.cpp:84] Creating Layer inception_4d/relu_3x3
I1230 19:51:34.544227 16687 net.cpp:380] inception_4d/relu_3x3 <- inception_4d/3x3
I1230 19:51:34.544239 16687 net.cpp:327] inception_4d/relu_3x3 -> inception_4d/3x3 (in-place)
I1230 19:51:34.544250 16687 net.cpp:113] Setting up inception_4d/relu_3x3
I1230 19:51:34.544368 16687 net.cpp:120] Top shape: 50 288 14 14 (2822400)
I1230 19:51:34.544376 16687 layer_factory.hpp:74] Creating layer inception_4d/5x5_reduce
I1230 19:51:34.544392 16687 net.cpp:84] Creating Layer inception_4d/5x5_reduce
I1230 19:51:34.544400 16687 net.cpp:380] inception_4d/5x5_reduce <- inception_4c/output_inception_4c/output_0_split_2
I1230 19:51:34.544412 16687 net.cpp:338] inception_4d/5x5_reduce -> inception_4d/5x5_reduce
I1230 19:51:34.544425 16687 net.cpp:113] Setting up inception_4d/5x5_reduce
I1230 19:51:34.545197 16687 net.cpp:120] Top shape: 50 32 14 14 (313600)
I1230 19:51:34.545218 16687 layer_factory.hpp:74] Creating layer inception_4d/relu_5x5_reduce
I1230 19:51:34.545229 16687 net.cpp:84] Creating Layer inception_4d/relu_5x5_reduce
I1230 19:51:34.545238 16687 net.cpp:380] inception_4d/relu_5x5_reduce <- inception_4d/5x5_reduce
I1230 19:51:34.545249 16687 net.cpp:327] inception_4d/relu_5x5_reduce -> inception_4d/5x5_reduce (in-place)
I1230 19:51:34.545261 16687 net.cpp:113] Setting up inception_4d/relu_5x5_reduce
I1230 19:51:34.545359 16687 net.cpp:120] Top shape: 50 32 14 14 (313600)
I1230 19:51:34.545369 16687 layer_factory.hpp:74] Creating layer inception_4d/5x5
I1230 19:51:34.545383 16687 net.cpp:84] Creating Layer inception_4d/5x5
I1230 19:51:34.545392 16687 net.cpp:380] inception_4d/5x5 <- inception_4d/5x5_reduce
I1230 19:51:34.545404 16687 net.cpp:338] inception_4d/5x5 -> inception_4d/5x5
I1230 19:51:34.545430 16687 net.cpp:113] Setting up inception_4d/5x5
I1230 19:51:34.546592 16687 net.cpp:120] Top shape: 50 64 14 14 (627200)
I1230 19:51:34.546613 16687 layer_factory.hpp:74] Creating layer inception_4d/relu_5x5
I1230 19:51:34.546623 16687 net.cpp:84] Creating Layer inception_4d/relu_5x5
I1230 19:51:34.546633 16687 net.cpp:380] inception_4d/relu_5x5 <- inception_4d/5x5
I1230 19:51:34.546645 16687 net.cpp:327] inception_4d/relu_5x5 -> inception_4d/5x5 (in-place)
I1230 19:51:34.546655 16687 net.cpp:113] Setting up inception_4d/relu_5x5
I1230 19:51:34.546774 16687 net.cpp:120] Top shape: 50 64 14 14 (627200)
I1230 19:51:34.546785 16687 layer_factory.hpp:74] Creating layer inception_4d/pool
I1230 19:51:34.546794 16687 layer_factory.cpp:56] CUDNN does not support padding or multiple tops. Using Caffe's own pooling layer.
I1230 19:51:34.546809 16687 net.cpp:84] Creating Layer inception_4d/pool
I1230 19:51:34.546818 16687 net.cpp:380] inception_4d/pool <- inception_4c/output_inception_4c/output_0_split_3
I1230 19:51:34.546828 16687 net.cpp:338] inception_4d/pool -> inception_4d/pool
I1230 19:51:34.546840 16687 net.cpp:113] Setting up inception_4d/pool
I1230 19:51:34.546854 16687 net.cpp:120] Top shape: 50 512 14 14 (5017600)
I1230 19:51:34.546860 16687 layer_factory.hpp:74] Creating layer inception_4d/pool_proj
I1230 19:51:34.546875 16687 net.cpp:84] Creating Layer inception_4d/pool_proj
I1230 19:51:34.546882 16687 net.cpp:380] inception_4d/pool_proj <- inception_4d/pool
I1230 19:51:34.546893 16687 net.cpp:338] inception_4d/pool_proj -> inception_4d/pool_proj
I1230 19:51:34.546905 16687 net.cpp:113] Setting up inception_4d/pool_proj
I1230 19:51:34.547832 16687 net.cpp:120] Top shape: 50 64 14 14 (627200)
I1230 19:51:34.547852 16687 layer_factory.hpp:74] Creating layer inception_4d/relu_pool_proj
I1230 19:51:34.547866 16687 net.cpp:84] Creating Layer inception_4d/relu_pool_proj
I1230 19:51:34.547875 16687 net.cpp:380] inception_4d/relu_pool_proj <- inception_4d/pool_proj
I1230 19:51:34.547884 16687 net.cpp:327] inception_4d/relu_pool_proj -> inception_4d/pool_proj (in-place)
I1230 19:51:34.547895 16687 net.cpp:113] Setting up inception_4d/relu_pool_proj
I1230 19:51:34.548174 16687 net.cpp:120] Top shape: 50 64 14 14 (627200)
I1230 19:51:34.548188 16687 layer_factory.hpp:74] Creating layer inception_4d/output
I1230 19:51:34.548199 16687 net.cpp:84] Creating Layer inception_4d/output
I1230 19:51:34.548208 16687 net.cpp:380] inception_4d/output <- inception_4d/1x1
I1230 19:51:34.548218 16687 net.cpp:380] inception_4d/output <- inception_4d/3x3
I1230 19:51:34.548225 16687 net.cpp:380] inception_4d/output <- inception_4d/5x5
I1230 19:51:34.548234 16687 net.cpp:380] inception_4d/output <- inception_4d/pool_proj
I1230 19:51:34.548243 16687 net.cpp:338] inception_4d/output -> inception_4d/output
I1230 19:51:34.548254 16687 net.cpp:113] Setting up inception_4d/output
I1230 19:51:34.548266 16687 net.cpp:120] Top shape: 50 528 14 14 (5174400)
I1230 19:51:34.548274 16687 layer_factory.hpp:74] Creating layer inception_4d/output_inception_4d/output_0_split
I1230 19:51:34.548287 16687 net.cpp:84] Creating Layer inception_4d/output_inception_4d/output_0_split
I1230 19:51:34.548295 16687 net.cpp:380] inception_4d/output_inception_4d/output_0_split <- inception_4d/output
I1230 19:51:34.548305 16687 net.cpp:338] inception_4d/output_inception_4d/output_0_split -> inception_4d/output_inception_4d/output_0_split_0
I1230 19:51:34.548316 16687 net.cpp:338] inception_4d/output_inception_4d/output_0_split -> inception_4d/output_inception_4d/output_0_split_1
I1230 19:51:34.548329 16687 net.cpp:338] inception_4d/output_inception_4d/output_0_split -> inception_4d/output_inception_4d/output_0_split_2
I1230 19:51:34.548341 16687 net.cpp:338] inception_4d/output_inception_4d/output_0_split -> inception_4d/output_inception_4d/output_0_split_3
I1230 19:51:34.548352 16687 net.cpp:338] inception_4d/output_inception_4d/output_0_split -> inception_4d/output_inception_4d/output_0_split_4
I1230 19:51:34.548362 16687 net.cpp:113] Setting up inception_4d/output_inception_4d/output_0_split
I1230 19:51:34.548389 16687 net.cpp:120] Top shape: 50 528 14 14 (5174400)
I1230 19:51:34.548398 16687 net.cpp:120] Top shape: 50 528 14 14 (5174400)
I1230 19:51:34.548406 16687 net.cpp:120] Top shape: 50 528 14 14 (5174400)
I1230 19:51:34.548414 16687 net.cpp:120] Top shape: 50 528 14 14 (5174400)
I1230 19:51:34.548423 16687 net.cpp:120] Top shape: 50 528 14 14 (5174400)
I1230 19:51:34.548429 16687 layer_factory.hpp:74] Creating layer loss2/ave_pool
I1230 19:51:34.548439 16687 net.cpp:84] Creating Layer loss2/ave_pool
I1230 19:51:34.548445 16687 net.cpp:380] loss2/ave_pool <- inception_4d/output_inception_4d/output_0_split_0
I1230 19:51:34.548459 16687 net.cpp:338] loss2/ave_pool -> loss2/ave_pool
I1230 19:51:34.548470 16687 net.cpp:113] Setting up loss2/ave_pool
I1230 19:51:34.548574 16687 net.cpp:120] Top shape: 50 528 4 4 (422400)
I1230 19:51:34.548584 16687 layer_factory.hpp:74] Creating layer loss2/conv
I1230 19:51:34.548595 16687 net.cpp:84] Creating Layer loss2/conv
I1230 19:51:34.548604 16687 net.cpp:380] loss2/conv <- loss2/ave_pool
I1230 19:51:34.548620 16687 net.cpp:338] loss2/conv -> loss2/conv
I1230 19:51:34.548632 16687 net.cpp:113] Setting up loss2/conv
I1230 19:51:34.550048 16687 net.cpp:120] Top shape: 50 128 4 4 (102400)
I1230 19:51:34.550071 16687 layer_factory.hpp:74] Creating layer loss2/relu_conv
I1230 19:51:34.550089 16687 net.cpp:84] Creating Layer loss2/relu_conv
I1230 19:51:34.550098 16687 net.cpp:380] loss2/relu_conv <- loss2/conv
I1230 19:51:34.550108 16687 net.cpp:327] loss2/relu_conv -> loss2/conv (in-place)
I1230 19:51:34.550119 16687 net.cpp:113] Setting up loss2/relu_conv
I1230 19:51:34.550216 16687 net.cpp:120] Top shape: 50 128 4 4 (102400)
I1230 19:51:34.550225 16687 layer_factory.hpp:74] Creating layer loss2/fc
I1230 19:51:34.550240 16687 net.cpp:84] Creating Layer loss2/fc
I1230 19:51:34.550247 16687 net.cpp:380] loss2/fc <- loss2/conv
I1230 19:51:34.550261 16687 net.cpp:338] loss2/fc -> loss2/fc
I1230 19:51:34.550273 16687 net.cpp:113] Setting up loss2/fc
I1230 19:51:34.793407 16687 net.cpp:120] Top shape: 50 1024 (51200)
I1230 19:51:34.793468 16687 layer_factory.hpp:74] Creating layer loss2/relu_fc
I1230 19:51:34.793488 16687 net.cpp:84] Creating Layer loss2/relu_fc
I1230 19:51:34.793498 16687 net.cpp:380] loss2/relu_fc <- loss2/fc
I1230 19:51:34.793514 16687 net.cpp:327] loss2/relu_fc -> loss2/fc (in-place)
I1230 19:51:34.793529 16687 net.cpp:113] Setting up loss2/relu_fc
I1230 19:51:34.793699 16687 net.cpp:120] Top shape: 50 1024 (51200)
I1230 19:51:34.793709 16687 layer_factory.hpp:74] Creating layer loss2/drop_fc
I1230 19:51:34.793722 16687 net.cpp:84] Creating Layer loss2/drop_fc
I1230 19:51:34.793730 16687 net.cpp:380] loss2/drop_fc <- loss2/fc
I1230 19:51:34.793740 16687 net.cpp:327] loss2/drop_fc -> loss2/fc (in-place)
I1230 19:51:34.793750 16687 net.cpp:113] Setting up loss2/drop_fc
I1230 19:51:34.793764 16687 net.cpp:120] Top shape: 50 1024 (51200)
I1230 19:51:34.793771 16687 layer_factory.hpp:74] Creating layer loss2/classifier_kaggle
I1230 19:51:34.793784 16687 net.cpp:84] Creating Layer loss2/classifier_kaggle
I1230 19:51:34.793792 16687 net.cpp:380] loss2/classifier_kaggle <- loss2/fc
I1230 19:51:34.793802 16687 net.cpp:338] loss2/classifier_kaggle -> loss2/classifier_kaggle
I1230 19:51:34.793815 16687 net.cpp:113] Setting up loss2/classifier_kaggle
I1230 19:51:34.799639 16687 net.cpp:120] Top shape: 50 447 (22350)
I1230 19:51:34.799669 16687 layer_factory.hpp:74] Creating layer loss2/classifier_kaggle_loss2/classifier_kaggle_0_split
I1230 19:51:34.799681 16687 net.cpp:84] Creating Layer loss2/classifier_kaggle_loss2/classifier_kaggle_0_split
I1230 19:51:34.799691 16687 net.cpp:380] loss2/classifier_kaggle_loss2/classifier_kaggle_0_split <- loss2/classifier_kaggle
I1230 19:51:34.799702 16687 net.cpp:338] loss2/classifier_kaggle_loss2/classifier_kaggle_0_split -> loss2/classifier_kaggle_loss2/classifier_kaggle_0_split_0
I1230 19:51:34.799715 16687 net.cpp:338] loss2/classifier_kaggle_loss2/classifier_kaggle_0_split -> loss2/classifier_kaggle_loss2/classifier_kaggle_0_split_1
I1230 19:51:34.799758 16687 net.cpp:338] loss2/classifier_kaggle_loss2/classifier_kaggle_0_split -> loss2/classifier_kaggle_loss2/classifier_kaggle_0_split_2
I1230 19:51:34.799769 16687 net.cpp:113] Setting up loss2/classifier_kaggle_loss2/classifier_kaggle_0_split
I1230 19:51:34.799782 16687 net.cpp:120] Top shape: 50 447 (22350)
I1230 19:51:34.799789 16687 net.cpp:120] Top shape: 50 447 (22350)
I1230 19:51:34.799798 16687 net.cpp:120] Top shape: 50 447 (22350)
I1230 19:51:34.799804 16687 layer_factory.hpp:74] Creating layer loss2/loss
I1230 19:51:34.799814 16687 net.cpp:84] Creating Layer loss2/loss
I1230 19:51:34.799821 16687 net.cpp:380] loss2/loss <- loss2/classifier_kaggle_loss2/classifier_kaggle_0_split_0
I1230 19:51:34.799831 16687 net.cpp:380] loss2/loss <- label_data_1_split_3
I1230 19:51:34.799844 16687 net.cpp:338] loss2/loss -> loss2/loss1
…
I1230 19:51:34.800547 16687 net.cpp:338] loss2/top-5 -> loss2/top-5
I1230 19:51:34.800559 16687 net.cpp:113] Setting up loss2/top-5
I1230 19:51:34.800566 16687 net.cpp:120] Top shape: (1)
I1230 19:51:34.800573 16687 layer_factory.hpp:74] Creating layer inception_4e/1x1
I1230 19:51:34.800587 16687 net.cpp:84] Creating Layer inception_4e/1x1
I1230 19:51:34.800596 16687 net.cpp:380] inception_4e/1x1 <- inception_4d/output_inception_4d/output_0_split_1
I1230 19:51:34.800611 16687 net.cpp:338] inception_4e/1x1 -> inception_4e/1x1
I1230 19:51:34.800622 16687 net.cpp:113] Setting up inception_4e/1x1
I1230 19:51:34.802901 16687 net.cpp:120] Top shape: 50 256 14 14 (2508800)
I1230 19:51:34.802924 16687 layer_factory.hpp:74] Creating layer inception_4e/relu_1x1
I1230 19:51:34.802935 16687 net.cpp:84] Creating Layer inception_4e/relu_1x1
I1230 19:51:34.802943 16687 net.cpp:380] inception_4e/relu_1x1 <- inception_4e/1x1
I1230 19:51:34.802955 16687 net.cpp:327] inception_4e/relu_1x1 -> inception_4e/1x1 (in-place)
I1230 19:51:34.802966 16687 net.cpp:113] Setting up inception_4e/relu_1x1
I1230 19:51:34.803064 16687 net.cpp:120] Top shape: 50 256 14 14 (2508800)
I1230 19:51:34.803074 16687 layer_factory.hpp:74] Creating layer inception_4e/3x3_reduce
I1230 19:51:34.803115 16687 net.cpp:84] Creating Layer inception_4e/3x3_reduce
I1230 19:51:34.803124 16687 net.cpp:380] inception_4e/3x3_reduce <- inception_4d/output_inception_4d/output_0_split_2
I1230 19:51:34.803136 16687 net.cpp:338] inception_4e/3x3_reduce -> inception_4e/3x3_reduce
I1230 19:51:34.803148 16687 net.cpp:113] Setting up inception_4e/3x3_reduce
I1230 19:51:34.804720 16687 net.cpp:120] Top shape: 50 160 14 14 (1568000)
I1230 19:51:34.804741 16687 layer_factory.hpp:74] Creating layer inception_4e/relu_3x3_reduce
I1230 19:51:34.804751 16687 net.cpp:84] Creating Layer inception_4e/relu_3x3_reduce
I1230 19:51:34.804759 16687 net.cpp:380] inception_4e/relu_3x3_reduce <- inception_4e/3x3_reduce
I1230 19:51:34.804769 16687 net.cpp:327] inception_4e/relu_3x3_reduce -> inception_4e/3x3_reduce (in-place)
I1230 19:51:34.804793 16687 net.cpp:113] Setting up inception_4e/relu_3x3_reduce
I1230 19:51:34.804903 16687 net.cpp:120] Top shape: 50 160 14 14 (1568000)
I1230 19:51:34.804913 16687 layer_factory.hpp:74] Creating layer inception_4e/3x3
I1230 19:51:34.804929 16687 net.cpp:84] Creating Layer inception_4e/3x3
I1230 19:51:34.804936 16687 net.cpp:380] inception_4e/3x3 <- inception_4e/3x3_reduce
I1230 19:51:34.804946 16687 net.cpp:338] inception_4e/3x3 -> inception_4e/3x3
I1230 19:51:34.804958 16687 net.cpp:113] Setting up inception_4e/3x3
I1230 19:51:34.811764 16687 net.cpp:120] Top shape: 50 320 14 14 (3136000)
I1230 19:51:34.811815 16687 layer_factory.hpp:74] Creating layer inception_4e/relu_3x3
I1230 19:51:34.811830 16687 net.cpp:84] Creating Layer inception_4e/relu_3x3
I1230 19:51:34.811841 16687 net.cpp:380] inception_4e/relu_3x3 <- inception_4e/3x3
I1230 19:51:34.811854 16687 net.cpp:327] inception_4e/relu_3x3 -> inception_4e/3x3 (in-place)
I1230 19:51:34.811868 16687 net.cpp:113] Setting up inception_4e/relu_3x3
I1230 19:51:34.812175 16687 net.cpp:120] Top shape: 50 320 14 14 (3136000)
I1230 19:51:34.812188 16687 layer_factory.hpp:74] Creating layer inception_4e/5x5_reduce
I1230 19:51:34.812203 16687 net.cpp:84] Creating Layer inception_4e/5x5_reduce
I1230 19:51:34.812213 16687 net.cpp:380] inception_4e/5x5_reduce <- inception_4d/output_inception_4d/output_0_split_3
I1230 19:51:34.812224 16687 net.cpp:338] inception_4e/5x5_reduce -> inception_4e/5x5_reduce
I1230 19:51:34.812238 16687 net.cpp:113] Setting up inception_4e/5x5_reduce
I1230 19:51:34.813345 16687 net.cpp:120] Top shape: 50 32 14 14 (313600)
I1230 19:51:34.813367 16687 layer_factory.hpp:74] Creating layer inception_4e/relu_5x5_reduce
I1230 19:51:34.813379 16687 net.cpp:84] Creating Layer inception_4e/relu_5x5_reduce
I1230 19:51:34.813390 16687 net.cpp:380] inception_4e/relu_5x5_reduce <- inception_4e/5x5_reduce
I1230 19:51:34.813400 16687 net.cpp:327] inception_4e/relu_5x5_reduce -> inception_4e/5x5_reduce (in-place)
I1230 19:51:34.813410 16687 net.cpp:113] Setting up inception_4e/relu_5x5_reduce
I1230 19:51:34.813511 16687 net.cpp:120] Top shape: 50 32 14 14 (313600)
I1230 19:51:34.813521 16687 layer_factory.hpp:74] Creating layer inception_4e/5x5
I1230 19:51:34.813535 16687 net.cpp:84] Creating Layer inception_4e/5x5
I1230 19:51:34.813544 16687 net.cpp:380] inception_4e/5x5 <- inception_4e/5x5_reduce
I1230 19:51:34.813556 16687 net.cpp:338] inception_4e/5x5 -> inception_4e/5x5
I1230 19:51:34.813568 16687 net.cpp:113] Setting up inception_4e/5x5
I1230 19:51:34.815356 16687 net.cpp:120] Top shape: 50 128 14 14 (1254400)
I1230 19:51:34.815376 16687 layer_factory.hpp:74] Creating layer inception_4e/relu_5x5
I1230 19:51:34.815388 16687 net.cpp:84] Creating Layer inception_4e/relu_5x5
I1230 19:51:34.815397 16687 net.cpp:380] inception_4e/relu_5x5 <- inception_4e/5x5
I1230 19:51:34.815407 16687 net.cpp:327] inception_4e/relu_5x5 -> inception_4e/5x5 (in-place)
I1230 19:51:34.815418 16687 net.cpp:113] Setting up inception_4e/relu_5x5
I1230 19:51:34.815512 16687 net.cpp:120] Top shape: 50 128 14 14 (1254400)
I1230 19:51:34.815521 16687 layer_factory.hpp:74] Creating layer inception_4e/pool
I1230 19:51:34.815531 16687 layer_factory.cpp:56] CUDNN does not support padding or multiple tops. Using Caffe's own pooling layer.
I1230 19:51:34.815546 16687 net.cpp:84] Creating Layer inception_4e/pool
I1230 19:51:34.815554 16687 net.cpp:380] inception_4e/pool <- inception_4d/output_inception_4d/output_0_split_4
I1230 19:51:34.815564 16687 net.cpp:338] inception_4e/pool -> inception_4e/pool
I1230 19:51:34.815577 16687 net.cpp:113] Setting up inception_4e/pool
I1230 19:51:34.815592 16687 net.cpp:120] Top shape: 50 528 14 14 (5174400)
I1230 19:51:34.815598 16687 layer_factory.hpp:74] Creating layer inception_4e/pool_proj
I1230 19:51:34.815609 16687 net.cpp:84] Creating Layer inception_4e/pool_proj
I1230 19:51:34.815616 16687 net.cpp:380] inception_4e/pool_proj <- inception_4e/pool
I1230 19:51:34.815629 16687 net.cpp:338] inception_4e/pool_proj -> inception_4e/pool_proj
I1230 19:51:34.815665 16687 net.cpp:113] Setting up inception_4e/pool_proj
I1230 19:51:34.822068 16687 net.cpp:120] Top shape: 50 128 14 14 (1254400)
I1230 19:51:34.822108 16687 layer_factory.hpp:74] Creating layer inception_4e/relu_pool_proj
I1230 19:51:34.822119 16687 net.cpp:84] Creating Layer inception_4e/relu_pool_proj
I1230 19:51:34.822129 16687 net.cpp:380] inception_4e/relu_pool_proj <- inception_4e/pool_proj
I1230 19:51:34.822139 16687 net.cpp:327] inception_4e/relu_pool_proj -> inception_4e/pool_proj (in-place)
I1230 19:51:34.822151 16687 net.cpp:113] Setting up inception_4e/relu_pool_proj
I1230 19:51:34.822244 16687 net.cpp:120] Top shape: 50 128 14 14 (1254400)
I1230 19:51:34.822252 16687 layer_factory.hpp:74] Creating layer inception_4e/output
I1230 19:51:34.822268 16687 net.cpp:84] Creating Layer inception_4e/output
I1230 19:51:34.822275 16687 net.cpp:380] inception_4e/output <- inception_4e/1x1
I1230 19:51:34.822284 16687 net.cpp:380] inception_4e/output <- inception_4e/3x3
I1230 19:51:34.822293 16687 net.cpp:380] inception_4e/output <- inception_4e/5x5
I1230 19:51:34.822301 16687 net.cpp:380] inception_4e/output <- inception_4e/pool_proj
I1230 19:51:34.822309 16687 net.cpp:338] inception_4e/output -> inception_4e/output
I1230 19:51:34.822321 16687 net.cpp:113] Setting up inception_4e/output
I1230 19:51:34.822332 16687 net.cpp:120] Top shape: 50 832 14 14 (8153600)
I1230 19:51:34.822340 16687 layer_factory.hpp:74] Creating layer pool4/3x3_s2
I1230 19:51:34.822353 16687 net.cpp:84] Creating Layer pool4/3x3_s2
I1230 19:51:34.822360 16687 net.cpp:380] pool4/3x3_s2 <- inception_4e/output
I1230 19:51:34.822372 16687 net.cpp:338] pool4/3x3_s2 -> pool4/3x3_s2
I1230 19:51:34.822383 16687 net.cpp:113] Setting up pool4/3x3_s2
I1230 19:51:34.822697 16687 net.cpp:120] Top shape: 50 832 7 7 (2038400)
I1230 19:51:34.822715 16687 layer_factory.hpp:74] Creating layer pool4/3x3_s2_pool4/3x3_s2_0_split
I1230 19:51:34.822731 16687 net.cpp:84] Creating Layer pool4/3x3_s2_pool4/3x3_s2_0_split
I1230 19:51:34.822738 16687 net.cpp:380] pool4/3x3_s2_pool4/3x3_s2_0_split <- pool4/3x3_s2
I1230 19:51:34.822751 16687 net.cpp:338] pool4/3x3_s2_pool4/3x3_s2_0_split -> pool4/3x3_s2_pool4/3x3_s2_0_split_0
I1230 19:51:34.822763 16687 net.cpp:338] pool4/3x3_s2_pool4/3x3_s2_0_split -> pool4/3x3_s2_pool4/3x3_s2_0_split_1
I1230 19:51:34.822774 16687 net.cpp:338] pool4/3x3_s2_pool4/3x3_s2_0_split -> pool4/3x3_s2_pool4/3x3_s2_0_split_2
I1230 19:51:34.822814 16687 net.cpp:338] pool4/3x3_s2_pool4/3x3_s2_0_split -> pool4/3x3_s2_pool4/3x3_s2_0_split_3
I1230 19:51:34.822824 16687 net.cpp:113] Setting up pool4/3x3_s2_pool4/3x3_s2_0_split
I1230 19:51:34.822836 16687 net.cpp:120] Top shape: 50 832 7 7 (2038400)
I1230 19:51:34.822845 16687 net.cpp:120] Top shape: 50 832 7 7 (2038400)
I1230 19:51:34.822855 16687 net.cpp:120] Top shape: 50 832 7 7 (2038400)
I1230 19:51:34.822863 16687 net.cpp:120] Top shape: 50 832 7 7 (2038400)
I1230 19:51:34.822870 16687 layer_factory.hpp:74] Creating layer inception_5a/1x1
I1230 19:51:34.822890 16687 net.cpp:84] Creating Layer inception_5a/1x1
I1230 19:51:34.822897 16687 net.cpp:380] inception_5a/1x1 <- pool4/3x3_s2_pool4/3x3_s2_0_split_0
I1230 19:51:34.822907 16687 net.cpp:338] inception_5a/1x1 -> inception_5a/1x1
I1230 19:51:34.822919 16687 net.cpp:113] Setting up inception_5a/1x1
I1230 19:51:34.826131 16687 net.cpp:120] Top shape: 50 256 7 7 (627200)
I1230 19:51:34.826158 16687 layer_factory.hpp:74] Creating layer inception_5a/relu_1x1
I1230 19:51:34.826169 16687 net.cpp:84] Creating Layer inception_5a/relu_1x1
I1230 19:51:34.826176 16687 net.cpp:380] inception_5a/relu_1x1 <- inception_5a/1x1
I1230 19:51:34.826194 16687 net.cpp:327] inception_5a/relu_1x1 -> inception_5a/1x1 (in-place)
I1230 19:51:34.826205 16687 net.cpp:113] Setting up inception_5a/relu_1x1
I1230 19:51:34.826303 16687 net.cpp:120] Top shape: 50 256 7 7 (627200)
I1230 19:51:34.826313 16687 layer_factory.hpp:74] Creating layer inception_5a/3x3_reduce
I1230 19:51:34.826328 16687 net.cpp:84] Creating Layer inception_5a/3x3_reduce
I1230 19:51:34.826349 16687 net.cpp:380] inception_5a/3x3_reduce <- pool4/3x3_s2_pool4/3x3_s2_0_split_1
I1230 19:51:34.826373 16687 net.cpp:338] inception_5a/3x3_reduce -> inception_5a/3x3_reduce
I1230 19:51:34.826386 16687 net.cpp:113] Setting up inception_5a/3x3_reduce
I1230 19:51:34.828624 16687 net.cpp:120] Top shape: 50 160 7 7 (392000)
I1230 19:51:34.828646 16687 layer_factory.hpp:74] Creating layer inception_5a/relu_3x3_reduce
I1230 19:51:34.828657 16687 net.cpp:84] Creating Layer inception_5a/relu_3x3_reduce
I1230 19:51:34.828665 16687 net.cpp:380] inception_5a/relu_3x3_reduce <- inception_5a/3x3_reduce
I1230 19:51:34.828675 16687 net.cpp:327] inception_5a/relu_3x3_reduce -> inception_5a/3x3_reduce (in-place)
I1230 19:51:34.828685 16687 net.cpp:113] Setting up inception_5a/relu_3x3_reduce
I1230 19:51:34.828783 16687 net.cpp:120] Top shape: 50 160 7 7 (392000)
I1230 19:51:34.828791 16687 layer_factory.hpp:74] Creating layer inception_5a/3x3
I1230 19:51:34.828805 16687 net.cpp:84] Creating Layer inception_5a/3x3
I1230 19:51:34.828812 16687 net.cpp:380] inception_5a/3x3 <- inception_5a/3x3_reduce
I1230 19:51:34.828822 16687 net.cpp:338] inception_5a/3x3 -> inception_5a/3x3
I1230 19:51:34.828835 16687 net.cpp:113] Setting up inception_5a/3x3
I1230 19:51:34.835239 16687 net.cpp:120] Top shape: 50 320 7 7 (784000)
I1230 19:51:34.835291 16687 layer_factory.hpp:74] Creating layer inception_5a/relu_3x3
I1230 19:51:34.835304 16687 net.cpp:84] Creating Layer inception_5a/relu_3x3
I1230 19:51:34.835315 16687 net.cpp:380] inception_5a/relu_3x3 <- inception_5a/3x3
I1230 19:51:34.835326 16687 net.cpp:327] inception_5a/relu_3x3 -> inception_5a/3x3 (in-place)
I1230 19:51:34.835338 16687 net.cpp:113] Setting up inception_5a/relu_3x3
I1230 19:51:34.835433 16687 net.cpp:120] Top shape: 50 320 7 7 (784000)
I1230 19:51:34.835443 16687 layer_factory.hpp:74] Creating layer inception_5a/5x5_reduce
I1230 19:51:34.835456 16687 net.cpp:84] Creating Layer inception_5a/5x5_reduce
I1230 19:51:34.835465 16687 net.cpp:380] inception_5a/5x5_reduce <- pool4/3x3_s2_pool4/3x3_s2_0_split_2
I1230 19:51:34.835481 16687 net.cpp:338] inception_5a/5x5_reduce -> inception_5a/5x5_reduce
I1230 19:51:34.835495 16687 net.cpp:113] Setting up inception_5a/5x5_reduce
I1230 19:51:34.836359 16687 net.cpp:120] Top shape: 50 32 7 7 (78400)
I1230 19:51:34.836380 16687 layer_factory.hpp:74] Creating layer inception_5a/relu_5x5_reduce
I1230 19:51:34.836392 16687 net.cpp:84] Creating Layer inception_5a/relu_5x5_reduce
I1230 19:51:34.836400 16687 net.cpp:380] inception_5a/relu_5x5_reduce <- inception_5a/5x5_reduce
I1230 19:51:34.836412 16687 net.cpp:327] inception_5a/relu_5x5_reduce -> inception_5a/5x5_reduce (in-place)
I1230 19:51:34.836422 16687 net.cpp:113] Setting up inception_5a/relu_5x5_reduce
I1230 19:51:34.836730 16687 net.cpp:120] Top shape: 50 32 7 7 (78400)
I1230 19:51:34.836743 16687 layer_factory.hpp:74] Creating layer inception_5a/5x5
I1230 19:51:34.836758 16687 net.cpp:84] Creating Layer inception_5a/5x5
I1230 19:51:34.836766 16687 net.cpp:380] inception_5a/5x5 <- inception_5a/5x5_reduce
I1230 19:51:34.836781 16687 net.cpp:338] inception_5a/5x5 -> inception_5a/5x5
I1230 19:51:34.836793 16687 net.cpp:113] Setting up inception_5a/5x5
I1230 19:51:34.838598 16687 net.cpp:120] Top shape: 50 128 7 7 (313600)
I1230 19:51:34.838629 16687 layer_factory.hpp:74] Creating layer inception_5a/relu_5x5
I1230 19:51:34.838640 16687 net.cpp:84] Creating Layer inception_5a/relu_5x5
I1230 19:51:34.838649 16687 net.cpp:380] inception_5a/relu_5x5 <- inception_5a/5x5
I1230 19:51:34.838659 16687 net.cpp:327] inception_5a/relu_5x5 -> inception_5a/5x5 (in-place)
I1230 19:51:34.838670 16687 net.cpp:113] Setting up inception_5a/relu_5x5
I1230 19:51:34.838769 16687 net.cpp:120] Top shape: 50 128 7 7 (313600)
I1230 19:51:34.838779 16687 layer_factory.hpp:74] Creating layer inception_5a/pool
I1230 19:51:34.838790 16687 layer_factory.cpp:56] CUDNN does not support padding or multiple tops. Using Caffe's own pooling layer.
I1230 19:51:34.838801 16687 net.cpp:84] Creating Layer inception_5a/pool
I1230 19:51:34.838841 16687 net.cpp:380] inception_5a/pool <- pool4/3x3_s2_pool4/3x3_s2_0_split_3
I1230 19:51:34.838872 16687 net.cpp:338] inception_5a/pool -> inception_5a/pool
I1230 19:51:34.838883 16687 net.cpp:113] Setting up inception_5a/pool
I1230 19:51:34.838898 16687 net.cpp:120] Top shape: 50 832 7 7 (2038400)
I1230 19:51:34.838906 16687 layer_factory.hpp:74] Creating layer inception_5a/pool_proj
I1230 19:51:34.838917 16687 net.cpp:84] Creating Layer inception_5a/pool_proj
I1230 19:51:34.838924 16687 net.cpp:380] inception_5a/pool_proj <- inception_5a/pool
I1230 19:51:34.838937 16687 net.cpp:338] inception_5a/pool_proj -> inception_5a/pool_proj
I1230 19:51:34.838948 16687 net.cpp:113] Setting up inception_5a/pool_proj
I1230 19:51:34.840821 16687 net.cpp:120] Top shape: 50 128 7 7 (313600)
I1230 19:51:34.840850 16687 layer_factory.hpp:74] Creating layer inception_5a/relu_pool_proj
I1230 19:51:34.840862 16687 net.cpp:84] Creating Layer inception_5a/relu_pool_proj
I1230 19:51:34.840870 16687 net.cpp:380] inception_5a/relu_pool_proj <- inception_5a/pool_proj
I1230 19:51:34.840880 16687 net.cpp:327] inception_5a/relu_pool_proj -> inception_5a/pool_proj (in-place)
I1230 19:51:34.840891 16687 net.cpp:113] Setting up inception_5a/relu_pool_proj
I1230 19:51:34.840986 16687 net.cpp:120] Top shape: 50 128 7 7 (313600)
I1230 19:51:34.840996 16687 layer_factory.hpp:74] Creating layer inception_5a/output
I1230 19:51:34.841007 16687 net.cpp:84] Creating Layer inception_5a/output
I1230 19:51:34.841014 16687 net.cpp:380] inception_5a/output <- inception_5a/1x1
I1230 19:51:34.841023 16687 net.cpp:380] inception_5a/output <- inception_5a/3x3
I1230 19:51:34.841032 16687 net.cpp:380] inception_5a/output <- inception_5a/5x5
I1230 19:51:34.841038 16687 net.cpp:380] inception_5a/output <- inception_5a/pool_proj
I1230 19:51:34.841048 16687 net.cpp:338] inception_5a/output -> inception_5a/output
I1230 19:51:34.841070 16687 net.cpp:113] Setting up inception_5a/output
I1230 19:51:34.841085 16687 net.cpp:120] Top shape: 50 832 7 7 (2038400)
I1230 19:51:34.841092 16687 layer_factory.hpp:74] Creating layer inception_5a/output_inception_5a/output_0_split
I1230 19:51:34.841109 16687 net.cpp:84] Creating Layer inception_5a/output_inception_5a/output_0_split
I1230 19:51:34.841116 16687 net.cpp:380] inception_5a/output_inception_5a/output_0_split <- inception_5a/output
I1230 19:51:34.841125 16687 net.cpp:338] inception_5a/output_inception_5a/output_0_split -> inception_5a/output_inception_5a/output_0_split_0
I1230 19:51:34.841138 16687 net.cpp:338] inception_5a/output_inception_5a/output_0_split -> inception_5a/output_inception_5a/output_0_split_1
I1230 19:51:34.841150 16687 net.cpp:338] inception_5a/output_inception_5a/output_0_split -> inception_5a/output_inception_5a/output_0_split_2
I1230 19:51:34.841159 16687 net.cpp:338] inception_5a/output_inception_5a/output_0_split -> inception_5a/output_inception_5a/output_0_split_3
I1230 19:51:34.841171 16687 net.cpp:113] Setting up inception_5a/output_inception_5a/output_0_split
I1230 19:51:34.841182 16687 net.cpp:120] Top shape: 50 832 7 7 (2038400)
I1230 19:51:34.841191 16687 net.cpp:120] Top shape: 50 832 7 7 (2038400)
I1230 19:51:34.841199 16687 net.cpp:120] Top shape: 50 832 7 7 (2038400)
I1230 19:51:34.841207 16687 net.cpp:120] Top shape: 50 832 7 7 (2038400)
I1230 19:51:34.841213 16687 layer_factory.hpp:74] Creating layer inception_5b/1x1
I1230 19:51:34.841228 16687 net.cpp:84] Creating Layer inception_5b/1x1
I1230 19:51:34.841234 16687 net.cpp:380] inception_5b/1x1 <- inception_5a/output_inception_5a/output_0_split_0
I1230 19:51:34.841246 16687 net.cpp:338] inception_5b/1x1 -> inception_5b/1x1
I1230 19:51:34.841258 16687 net.cpp:113] Setting up inception_5b/1x1
I1230 19:51:34.846094 16687 net.cpp:120] Top shape: 50 384 7 7 (940800)
I1230 19:51:34.846145 16687 layer_factory.hpp:74] Creating layer inception_5b/relu_1x1
I1230 19:51:34.846160 16687 net.cpp:84] Creating Layer inception_5b/relu_1x1
I1230 19:51:34.846171 16687 net.cpp:380] inception_5b/relu_1x1 <- inception_5b/1x1
I1230 19:51:34.846204 16687 net.cpp:327] inception_5b/relu_1x1 -> inception_5b/1x1 (in-place)
I1230 19:51:34.846241 16687 net.cpp:113] Setting up inception_5b/relu_1x1
I1230 19:51:34.846343 16687 net.cpp:120] Top shape: 50 384 7 7 (940800)
I1230 19:51:34.846354 16687 layer_factory.hpp:74] Creating layer inception_5b/3x3_reduce
I1230 19:51:34.846367 16687 net.cpp:84] Creating Layer inception_5b/3x3_reduce
I1230 19:51:34.846376 16687 net.cpp:380] inception_5b/3x3_reduce <- inception_5a/output_inception_5a/output_0_split_1
I1230 19:51:34.846390 16687 net.cpp:338] inception_5b/3x3_reduce -> inception_5b/3x3_reduce
I1230 19:51:34.846402 16687 net.cpp:113] Setting up inception_5b/3x3_reduce
I1230 19:51:34.849009 16687 net.cpp:120] Top shape: 50 192 7 7 (470400)
I1230 19:51:34.849040 16687 layer_factory.hpp:74] Creating layer inception_5b/relu_3x3_reduce
I1230 19:51:34.849051 16687 net.cpp:84] Creating Layer inception_5b/relu_3x3_reduce
I1230 19:51:34.849077 16687 net.cpp:380] inception_5b/relu_3x3_reduce <- inception_5b/3x3_reduce
I1230 19:51:34.849088 16687 net.cpp:327] inception_5b/relu_3x3_reduce -> inception_5b/3x3_reduce (in-place)
I1230 19:51:34.849100 16687 net.cpp:113] Setting up inception_5b/relu_3x3_reduce
I1230 19:51:34.849395 16687 net.cpp:120] Top shape: 50 192 7 7 (470400)
I1230 19:51:34.849408 16687 layer_factory.hpp:74] Creating layer inception_5b/3x3
I1230 19:51:34.849426 16687 net.cpp:84] Creating Layer inception_5b/3x3
I1230 19:51:34.849433 16687 net.cpp:380] inception_5b/3x3 <- inception_5b/3x3_reduce
I1230 19:51:34.849444 16687 net.cpp:338] inception_5b/3x3 -> inception_5b/3x3
I1230 19:51:34.849457 16687 net.cpp:113] Setting up inception_5b/3x3
I1230 19:51:34.867079 16687 net.cpp:120] Top shape: 50 384 7 7 (940800)
I1230 19:51:34.867128 16687 layer_factory.hpp:74] Creating layer inception_5b/relu_3x3
I1230 19:51:34.867144 16687 net.cpp:84] Creating Layer inception_5b/relu_3x3
I1230 19:51:34.867156 16687 net.cpp:380] inception_5b/relu_3x3 <- inception_5b/3x3
I1230 19:51:34.867172 16687 net.cpp:327] inception_5b/relu_3x3 -> inception_5b/3x3 (in-place)
I1230 19:51:34.867185 16687 net.cpp:113] Setting up inception_5b/relu_3x3
I1230 19:51:34.867285 16687 net.cpp:120] Top shape: 50 384 7 7 (940800)
I1230 19:51:34.867295 16687 layer_factory.hpp:74] Creating layer inception_5b/5x5_reduce
I1230 19:51:34.867313 16687 net.cpp:84] Creating Layer inception_5b/5x5_reduce
I1230 19:51:34.867323 16687 net.cpp:380] inception_5b/5x5_reduce <- inception_5a/output_inception_5a/output_0_split_2
I1230 19:51:34.867337 16687 net.cpp:338] inception_5b/5x5_reduce -> inception_5b/5x5_reduce
I1230 19:51:34.867352 16687 net.cpp:113] Setting up inception_5b/5x5_reduce
I1230 19:51:34.868394 16687 net.cpp:120] Top shape: 50 48 7 7 (117600)
I1230 19:51:34.868417 16687 layer_factory.hpp:74] Creating layer inception_5b/relu_5x5_reduce
I1230 19:51:34.868427 16687 net.cpp:84] Creating Layer inception_5b/relu_5x5_reduce
I1230 19:51:34.868435 16687 net.cpp:380] inception_5b/relu_5x5_reduce <- inception_5b/5x5_reduce
I1230 19:51:34.868444 16687 net.cpp:327] inception_5b/relu_5x5_reduce -> inception_5b/5x5_reduce (in-place)
I1230 19:51:34.868455 16687 net.cpp:113] Setting up inception_5b/relu_5x5_reduce
I1230 19:51:34.868553 16687 net.cpp:120] Top shape: 50 48 7 7 (117600)
I1230 19:51:34.868564 16687 layer_factory.hpp:74] Creating layer inception_5b/5x5
I1230 19:51:34.868578 16687 net.cpp:84] Creating Layer inception_5b/5x5
I1230 19:51:34.868585 16687 net.cpp:380] inception_5b/5x5 <- inception_5b/5x5_reduce
I1230 19:51:34.868598 16687 net.cpp:338] inception_5b/5x5 -> inception_5b/5x5
I1230 19:51:34.868610 16687 net.cpp:113] Setting up inception_5b/5x5
I1230 19:51:34.871727 16687 net.cpp:120] Top shape: 50 128 7 7 (313600)
I1230 19:51:34.871763 16687 layer_factory.hpp:74] Creating layer inception_5b/relu_5x5
I1230 19:51:34.871778 16687 net.cpp:84] Creating Layer inception_5b/relu_5x5
I1230 19:51:34.871788 16687 net.cpp:380] inception_5b/relu_5x5 <- inception_5b/5x5
I1230 19:51:34.871800 16687 net.cpp:327] inception_5b/relu_5x5 -> inception_5b/5x5 (in-place)
I1230 19:51:34.871827 16687 net.cpp:113] Setting up inception_5b/relu_5x5
I1230 19:51:34.872138 16687 net.cpp:120] Top shape: 50 128 7 7 (313600)
I1230 19:51:34.872153 16687 layer_factory.hpp:74] Creating layer inception_5b/pool
I1230 19:51:34.872161 16687 layer_factory.cpp:56] CUDNN does not support padding or multiple tops. Using Caffe's own pooling layer.
I1230 19:51:34.872171 16687 net.cpp:84] Creating Layer inception_5b/pool
I1230 19:51:34.872180 16687 net.cpp:380] inception_5b/pool <- inception_5a/output_inception_5a/output_0_split_3
I1230 19:51:34.872191 16687 net.cpp:338] inception_5b/pool -> inception_5b/pool
I1230 19:51:34.872203 16687 net.cpp:113] Setting up inception_5b/pool
I1230 19:51:34.872220 16687 net.cpp:120] Top shape: 50 832 7 7 (2038400)
I1230 19:51:34.872227 16687 layer_factory.hpp:74] Creating layer inception_5b/pool_proj
I1230 19:51:34.872241 16687 net.cpp:84] Creating Layer inception_5b/pool_proj
I1230 19:51:34.872248 16687 net.cpp:380] inception_5b/pool_proj <- inception_5b/pool
I1230 19:51:34.872261 16687 net.cpp:338] inception_5b/pool_proj -> inception_5b/pool_proj
I1230 19:51:34.872272 16687 net.cpp:113] Setting up inception_5b/pool_proj
I1230 19:51:34.874728 16687 net.cpp:120] Top shape: 50 128 7 7 (313600)
I1230 19:51:34.874753 16687 layer_factory.hpp:74] Creating layer inception_5b/relu_pool_proj
I1230 19:51:34.874766 16687 net.cpp:84] Creating Layer inception_5b/relu_pool_proj
I1230 19:51:34.874775 16687 net.cpp:380] inception_5b/relu_pool_proj <- inception_5b/pool_proj
I1230 19:51:34.874785 16687 net.cpp:327] inception_5b/relu_pool_proj -> inception_5b/pool_proj (in-place)
I1230 19:51:34.874796 16687 net.cpp:113] Setting up inception_5b/relu_pool_proj
I1230 19:51:34.874894 16687 net.cpp:120] Top shape: 50 128 7 7 (313600)
I1230 19:51:34.874905 16687 layer_factory.hpp:74] Creating layer inception_5b/output
I1230 19:51:34.874919 16687 net.cpp:84] Creating Layer inception_5b/output
I1230 19:51:34.874927 16687 net.cpp:380] inception_5b/output <- inception_5b/1x1
I1230 19:51:34.874936 16687 net.cpp:380] inception_5b/output <- inception_5b/3x3
I1230 19:51:34.874946 16687 net.cpp:380] inception_5b/output <- inception_5b/5x5
I1230 19:51:34.874954 16687 net.cpp:380] inception_5b/output <- inception_5b/pool_proj
I1230 19:51:34.874963 16687 net.cpp:338] inception_5b/output -> inception_5b/output
I1230 19:51:34.874974 16687 net.cpp:113] Setting up inception_5b/output
I1230 19:51:34.874987 16687 net.cpp:120] Top shape: 50 1024 7 7 (2508800)
I1230 19:51:34.874994 16687 layer_factory.hpp:74] Creating layer pool5/7x7_s1
I1230 19:51:34.875007 16687 net.cpp:84] Creating Layer pool5/7x7_s1
I1230 19:51:34.875015 16687 net.cpp:380] pool5/7x7_s1 <- inception_5b/output
I1230 19:51:34.875025 16687 net.cpp:338] pool5/7x7_s1 -> pool5/7x7_s1
I1230 19:51:34.875036 16687 net.cpp:113] Setting up pool5/7x7_s1
I1230 19:51:34.875135 16687 net.cpp:120] Top shape: 50 1024 1 1 (51200)
I1230 19:51:34.875145 16687 layer_factory.hpp:74] Creating layer pool5/drop_7x7_s1
I1230 19:51:34.875155 16687 net.cpp:84] Creating Layer pool5/drop_7x7_s1
I1230 19:51:34.875164 16687 net.cpp:380] pool5/drop_7x7_s1 <- pool5/7x7_s1
I1230 19:51:34.875172 16687 net.cpp:327] pool5/drop_7x7_s1 -> pool5/7x7_s1 (in-place)
I1230 19:51:34.875182 16687 net.cpp:113] Setting up pool5/drop_7x7_s1
I1230 19:51:34.875193 16687 net.cpp:120] Top shape: 50 1024 1 1 (51200)
I1230 19:51:34.875200 16687 layer_factory.hpp:74] Creating layer loss3/classifier_kaggle
I1230 19:51:34.875213 16687 net.cpp:84] Creating Layer loss3/classifier_kaggle
I1230 19:51:34.875221 16687 net.cpp:380] loss3/classifier_kaggle <- pool5/7x7_s1
I1230 19:51:34.875233 16687 net.cpp:338] loss3/classifier_kaggle -> loss3/classifier_kaggle
I1230 19:51:34.875246 16687 net.cpp:113] Setting up loss3/classifier_kaggle
I1230 19:51:34.882019 16687 net.cpp:120] Top shape: 50 447 (22350)
I1230 19:51:34.882047 16687 layer_factory.hpp:74] Creating layer loss3/classifier_kaggle_loss3/classifier_kaggle_0_split
I1230 19:51:34.882061 16687 net.cpp:84] Creating Layer loss3/classifier_kaggle_loss3/classifier_kaggle_0_split
I1230 19:51:34.882083 16687 net.cpp:380] loss3/classifier_kaggle_loss3/classifier_kaggle_0_split <- loss3/classifier_kaggle
I1230 19:51:34.882110 16687 net.cpp:338] loss3/classifier_kaggle_loss3/classifier_kaggle_0_split -> loss3/classifier_kaggle_loss3/classifier_kaggle_0_split_0
I1230 19:51:34.882124 16687 net.cpp:338] loss3/classifier_kaggle_loss3/classifier_kaggle_0_split -> loss3/classifier_kaggle_loss3/classifier_kaggle_0_split_1
I1230 19:51:34.882135 16687 net.cpp:338] loss3/classifier_kaggle_loss3/classifier_kaggle_0_split -> loss3/classifier_kaggle_loss3/classifier_kaggle_0_split_2
I1230 19:51:34.882145 16687 net.cpp:113] Setting up loss3/classifier_kaggle_loss3/classifier_kaggle_0_split
I1230 19:51:34.882156 16687 net.cpp:120] Top shape: 50 447 (22350)
I1230 19:51:34.882165 16687 net.cpp:120] Top shape: 50 447 (22350)
I1230 19:51:34.882172 16687 net.cpp:120] Top shape: 50 447 (22350)
I1230 19:51:34.882179 16687 layer_factory.hpp:74] Creating layer loss3/loss3
I1230 19:51:34.882192 16687 net.cpp:84] Creating Layer loss3/loss3
I1230 19:51:34.882200 16687 net.cpp:380] loss3/loss3 <- loss3/classifier_kaggle_loss3/classifier_kaggle_0_split_0
I1230 19:51:34.882210 16687 net.cpp:380] loss3/loss3 <- label_data_1_split_6
I1230 19:51:34.882218 16687 net.cpp:338] loss3/loss3 -> loss3/loss3
…
